…
  transform_param {
    mirror: false
    mean_file: "/home/lizhuowan/Market1501/lmdb/lmdb_12936/Image_lmdb_12936.binaryproto"
  }
  data_param {
    source: "/home/lizhuowan/Market1501/lmdb/lmdb_mirror_12936/Image_lmdb_mirror_12936"
    batch_size: 8
    backend: LMDB
  }
}
layer {
  name: "data"
  type: "Data"
  top: "labels"
  include {
    phase: TRAIN
  }
  transform_param {
    mean_value: 112
  }
  data_param {
    source: "/home/lizhuowan/Market1501/lmdb/lmdb_mirror_12936/pos30_lmdb_mirror_12936_correct"
    batch_size: 8
    backend: LMDB
  }
}
layer {
  name: "conv1"
  type: "Convolution"
  bottom: "data"
  top: "conv1"
  convolution_param {
    num_output: 64
    bias_term: false
    pad: 3
    kernel_size: 7
    stride: 2
  }
}
layer {
  name: "bn_conv1"
  type: "BatchNorm"
  bottom: "conv1"
  top: "conv1"
  batch_norm_param {
    use_global_stats: true
  }
}
layer {
  name: "scale_conv1"
  type: "Scale"
  bottom: "conv1"
  top: "conv1"
  scale_param {
    bias_term: true
  }
}
layer {
  name: "conv1_relu"
  type: "ReLU"
  bottom: "conv1"
  top: "conv1"
}
layer {
  name: "pool1"
  type: "Pooling"
  bottom: "conv1"
  top: "pool1"
  pooling_param {
    pool: MAX
    kernel_size: 3
    stride: 2
  }
}
layer {
  name: "res2a_branch1"
  type: "Convolution"
  bottom: "pool1"
  top: "res2a_branch1"
  convolution_param {
    num_output: 256
    bias_term: false
    pad: 0
    kernel_size: 1
    stride: 1
  }
}
layer {
  name: "bn2a_branch1"
  type: "BatchNorm"
  bottom: "res2a_branch1"
  top: "res2a_branch1"
  batch_norm_param {
    use_global_stats: true
  }
}
layer {
  name: "scale2a_branch1"
  type: "Scale"
  bottom: "res2a_branch1"
  top: "res2a_branch1"
  scale_param {
    bias_term: true
  }
}
layer {
  name: "res2a_branch2a"
  type: "Convolution"
  bottom: "pool1"
  top: "res2a_branch2a"
  convolution_param {
    num_output: 64
    bias_term: false
    pad: 0
    kernel_size: 1
    stride: 1
  }
}
layer {
  name: "bn2a_branch2a"
  type: "BatchNorm"
  bottom: "res2a_branch2a"
  top: "res2a_branch2a"
  batch_norm_param {
    use_global_stats: true
  }
}
layer {
  name: "scale2a_branch2a"
  type: "Scale"
  bottom: "res2a_branch2a"
  top: "res2a_branch2a"
  scale_param {
    bias_term: true
  }
}
layer {
  name: "res2a_branch2a_relu"
  type: "ReLU"
  bottom: "res2a_branch2a"
  top: "res2a_branch2a"
}
layer {
  name: "res2a_branch2b"
  type: "Convolution"
  bottom: "res2a_branch2a"
  top: "res2a_branch2b"
  convolution_param {
    num_output: 64
    bias_term: false
    pad: 1
    kernel_size: 3
    stride: 1
  }
}
layer {
  name: "bn2a_branch2b"
  type: "BatchNorm"
  bottom: "res2a_branch2b"
  top: "res2a_branch2b"
  batch_norm_param {
    use_global_stats: true
  }
}
layer {
  name: "scale2a_branch2b"
  type: "Scale"
  bottom: "res2a_branch2b"
  top: "res2a_branch2b"
  scale_param {
    bias_term: true
  }
}
layer {
  name: "res2a_branch2b_relu"
  type: "ReLU"
  bottom: "res2a_branch2b"
  top: "res2a_branch2b"
}
layer {
  name: "res2a_branch2c"
  type: "Convolution"
  bottom: "res2a_branch2b"
  top: "res2a_branch2c"
  convolution_param {
    num_output: 256
    bias_term: false
    pad: 0
    kernel_size: 1
    stride: 1
  }
}
layer {
  name: "bn2a_branch2c"
  type: "BatchNorm"
  bottom: "res2a_branch2c"
  top: "res2a_branch2c"
  batch_norm_param {
    use_global_stats: true
  }
}
layer {
  name: "scale2a_branch2c"
  type: "Scale"
  bottom: "res2a_branch2c"
  top: "res2a_branch2c"
  scale_param {
    bias_term: true
  }
}
layer {
  name: "res2a"
  type: "Eltwise"
  bottom: "res2a_branch1"
  bottom: "res2a_branch2c"
  top: "res2a"
}
layer {
  name: "res2a_relu"
  type: "ReLU"
  bottom: "res2a"
  top: "res2a"
}
layer {
  name: "res2b_branch2a"
  type: "Convolution"
  bottom: "res2a"
  top: "res2b_branch2a"
  convolution_param {
    num_output: 64
    bias_term: false
    pad: 0
    kernel_size: 1
    stride: 1
  }
}
layer {
  name: "bn2b_branch2a"
  type: "BatchNorm"
  bottom: "res2b_branch2a"
  top: "res2b_branch2a"
  batch_norm_param {
    use_global_stats: true
  }
}
layer {
  name: "scale2b_branch2a"
  type: "Scale"
  bottom: "res2b_branch2a"
  top: "res2b_branch2a"
  scale_param {
    bias_term: true
  }
}
layer {
  name: "res2b_branch2a_relu"
  type: "ReLU"
  bottom: "res2b_branch2a"
  top: "res2b_branch2a"
}
layer {
  name: "res2b_branch2b"
  type: "Convolution"
  bottom: "res2b_branch2a"
  top: "res2b_branch2b"
  convolution_param {
    num_output: 64
    bias_term: false
    pad: 1
    kernel_size: 3
    stride: 1
  }
}
layer {
  name: "bn2b_branch2b"
  type: "BatchNorm"
  bottom: "res2b_branch2b"
  top: "res2b_branch2b"
  batch_norm_param {
    use_global_stats: true
  }
}
layer {
  name: "scale2b_branch2b"
  type: "Scale"
  bottom: "res2b_branch2b"
  top: "res2b_branch2b"
  scale_param {
    bias_term: true
  }
}
layer {
  name: "res2b_branch2b_relu"
  type: "ReLU"
  bottom: "res2b_branch2b"
  top: "res2b_branch2b"
}
layer {
  name: "res2b_branch2c"
  type: "Convolution"
  bottom: "res2b_branch2b"
  top: "res2b_branch2c"
  convolution_param {
    num_output: 256
    bias_term: false
    pad: 0
    kernel_size: 1
    stride: 1
  }
}
layer {
  name: "bn2b_branch2c"
  type: "BatchNorm"
  bottom: "res2b_branch2c"
  top: "res2b_branch2c"
  batch_norm_param {
    use_global_stats: true
  }
}
layer {
  name: "scale2b_branch2c"
  type: "Scale"
  bottom: "res2b_branch2c"
  top: "res2b_branch2c"
  scale_param {
    bias_term: true
  }
}
layer {
  name: "res2b"
  type: "Eltwise"
  bottom: "res2a"
  bottom: "res2b_branch2c"
  top: "res2b"
}
layer {
  name: "res2b_relu"
  type: "ReLU"
  bottom: "res2b"
  top: "res2b"
}
layer {
  name: "res2c_branch2a"
  type: "Convolution"
  bottom: "res2b"
  top: "res2c_branch2a"
  convolution_param {
    num_output: 64
    bias_term: false
    pad: 0
    kernel_size: 1
    stride: 1
  }
}
layer {
  name: "bn2c_branch2a"
  type: "BatchNorm"
  bottom: "res2c_branch2a"
  top: "res2c_branch2a"
  batch_norm_param {
    use_global_stats: true
  }
}
layer {
  name: "scale2c_branch2a"
  type: "Scale"
  bottom: "res2c_branch2a"
  top: "res2c_branch2a"
  scale_param {
    bias_term: true
  }
}
layer {
  name: "res2c_branch2a_relu"
  type: "ReLU"
  bottom: "res2c_branch2a"
  top: "res2c_branch2a"
}
layer {
  name: "res2c_branch2b"
  type: "Convolution"
  bottom: "res2c_branch2a"
  top: "res2c_branch2b"
  convolution_param {
    num_output: 64
    bias_term: false
    pad: 1
    kernel_size: 3
    stride: 1
  }
}
layer {
  name: "bn2c_branch2b"
  type: "BatchNorm"
  bottom: "res2c_branch2b"
  top: "res2c_branch2b"
  batch_norm_param {
    use_global_stats: true
  }
}
layer {
  name: "scale2c_branch2b"
  type: "Scale"
  bottom: "res2c_branch2b"
  top: "res2c_branch2b"
  scale_param {
    bias_term: true
  }
}
layer {
  name: "res2c_branch2b_relu"
  type: "ReLU"
  bottom: "res2c_branch2b"
  top: "res2c_branch2b"
}
layer {
  name: "res2c_branch2c"
  type: "Convolution"
  bottom: "res2c_branch2b"
  top: "res2c_branch2c"
  convolution_param {
    num_output: 256
    bias_term: false
    pad: 0
    kernel_size: 1
    stride: 1
  }
}
layer {
  name: "bn2c_branch2c"
  type: "BatchNorm"
  bottom: "res2c_branch2c"
  top: "res2c_branch2c"
  batch_norm_param {
    use_global_stats: true
  }
}
layer {
  name: "scale2c_branch2c"
  type: "Scale"
  bottom: "res2c_branch2c"
  top: "res2c_branch2c"
  scale_param {
    bias_term: true
  }
}
layer {
  name: "res2c"
  type: "Eltwise"
  bottom: "res2b"
  bottom: "res2c_branch2c"
  top: "res2c"
}
layer {
  name: "res2c_relu"
  type: "ReLU"
  bottom: "res2c"
  top: "res2c"
}
layer {
  name: "res3a_branch1"
  type: "Convolution"
  bottom: "res2c"
  top: "res3a_branch1"
  convolution_param {
    num_output: 512
    bias_term: false
    pad: 0
    kernel_size: 1
    stride: 2
  }
}
layer {
  name: "bn3a_branch1"
  type: "BatchNorm"
  bottom: "res3a_branch1"
  top: "res3a_branch1"
  batch_norm_param {
    use_global_stats: true
  }
}
layer {
  name: "scale3a_branch1"
  type: "Scale"
  bottom: "res3a_branch1"
  top: "res3a_branch1"
  scale_param {
    bias_term: true
  }
}
layer {
  name: "res3a_branch2a"
  type: "Convolution"
  bottom: "res2c"
  top: "res3a_branch2a"
  convolution_param {
    num_output: 128
    bias_term: false
    pad: 0
    kernel_size: 1
    stride: 2
  }
}
layer {
  name: "bn3a_branch2a"
  type: "BatchNorm"
  bottom: "res3a_branch2a"
  top: "res3a_branch2a"
  batch_norm_param {
    use_global_stats: true
  }
}
layer {
  name: "scale3a_branch2a"
  type: "Scale"
  bottom: "res3a_branch2a"
  top: "res3a_branch2a"
  scale_param {
    bias_term: true
  }
}
layer {
  name: "res3a_branch2a_relu"
  type: "ReLU"
  bottom: "res3a_branch2a"
  top: "res3a_branch2a"
}
layer {
  name: "res3a_branch2b"
  type: "Convolution"
  bottom: "res3a_branch2a"
  top: "res3a_branch2b"
  convolution_param {
    num_output: 128
    bias_term: false
    pad: 1
    kernel_size: 3
    stride: 1
  }
}
layer {
  name: "bn3a_branch2b"
  type: "BatchNorm"
  bottom: "res3a_branch2b"
  top: "res3a_branch2b"
  batch_norm_param {
    use_global_stats: true
  }
}
layer {
  name: "scale3a_branch2b"
  type: "Scale"
  bottom: "res3a_branch2b"
  top: "res3a_branch2b"
  scale_param {
    bias_term: true
  }
}
layer {
  name: "res3a_branch2b_relu"
  type: "ReLU"
  bottom: "res3a_branch2b"
  top: "res3a_branch2b"
}
layer {
  name: "res3a_branch2c"
  type: "Convolution"
  bottom: "res3a_branch2b"
  top: "res3a_branch2c"
  convolution_param {
    num_output: 512
    bias_term: false
    pad: 0
    kernel_size: 1
    stride: 1
  }
}
layer {
  name: "bn3a_branch2c"
  type: "BatchNorm"
  bottom: "res3a_branch2c"
  top: "res3a_branch2c"
  batch_norm_param {
    use_global_stats: true
  }
}
layer {
  name: "scale3a_branch2c"
  type: "Scale"
  bottom: "res3a_branch2c"
  top: "res3a_branch2c"
  scale_param {
    bias_term: true
  }
}
layer {
  name: "res3a"
  type: "Eltwise"
  bottom: "res3a_branch1"
  bottom: "res3a_branch2c"
  top: "res3a"
}
layer {
  name: "res3a_relu"
  type: "ReLU"
  bottom: "res3a"
  top: "res3a"
}
layer {
  name: "res3b1_branch2a"
  type: "Convolution"
  bottom: "res3a"
  top: "res3b1_branch2a"
  convolution_param {
    num_output: 128
    bias_term: false
    pad: 0
    kernel_size: 1
    stride: 1
  }
}
layer {
  name: "bn3b1_branch2a"
  type: "BatchNorm"
  bottom: "res3b1_branch2a"
  top: "res3b1_branch2a"
  batch_norm_param {
    use_global_stats: true
  }
}
layer {
  name: "scale3b1_branch2a"
  type: "Scale"
  bottom: "res3b1_branch2a"
  top: "res3b1_branch2a"
  scale_param {
    bias_term: true
  }
}
layer {
  name: "res3b1_branch2a_relu"
  type: "ReLU"
  bottom: "res3b1_branch2a"
  top: "res3b1_branch2a"
}
layer {
  name: "res3b1_branch2b"
  type: "Convolution"
  bottom: "res3b1_branch2a"
  top: "res3b1_branch2b"
  convolution_param {
    num_output: 128
    bias_term: false
    pad: 1
    kernel_size: 3
    stride: 1
  }
}
layer {
  name: "bn3b1_branch2b"
  type: "BatchNorm"
  bottom: "res3b1_branch2b"
  top: "res3b1_branch2b"
  batch_norm_param {
    use_global_stats: true
  }
}
layer {
  name: "scale3b1_branch2b"
  type: "Scale"
  bottom: "res3b1_branch2b"
  top: "res3b1_branch2b"
  scale_param {
    bias_term: true
  }
}
layer {
  name: "res3b1_branch2b_relu"
  type: "ReLU"
  bottom: "res3b1_branch2b"
  top: "res3b1_branch2b"
}
layer {
  name: "res3b1_branch2c"
  type: "Convolution"
  bottom: "res3b1_branch2b"
  top: "res3b1_branch2c"
  convolution_param {
    num_output: 512
    bias_term: false
    pad: 0
    kernel_size: 1
    stride: 1
  }
}
layer {
  name: "bn3b1_branch2c"
  type: "BatchNorm"
  bottom: "res3b1_branch2c"
  top: "res3b1_branch2c"
  batch_norm_param {
    use_global_stats: true
  }
}
layer {
  name: "scale3b1_branch2c"
  type: "Scale"
  bottom: "res3b1_branch2c"
  top: "res3b1_branch2c"
  scale_param {
    bias_term: true
  }
}
layer {
  name: "res3b1"
  type: "Eltwise"
  bottom: "res3a"
  bottom: "res3b1_branch2c"
  top: "res3b1"
}
layer {
  name: "res3b1_relu"
  type: "ReLU"
  bottom: "res3b1"
  top: "res3b1"
}
layer {
  name: "res3b2_branch2a"
  type: "Convolution"
  bottom: "res3b1"
  top: "res3b2_branch2a"
  convolution_param {
    num_output: 128
    bias_term: false
    pad: 0
    kernel_size: 1
    stride: 1
  }
}
layer {
  name: "bn3b2_branch2a"
  type: "BatchNorm"
  bottom: "res3b2_branch2a"
  top: "res3b2_branch2a"
  batch_norm_param {
    use_global_stats: true
  }
}
layer {
  name: "scale3b2_branch2a"
  type: "Scale"
  bottom: "res3b2_branch2a"
  top: "res3b2_branch2a"
  scale_param {
    bias_term: true
  }
}
layer {
  name: "res3b2_branch2a_relu"
  type: "ReLU"
  bottom: "res3b2_branch2a"
  top: "res3b2_branch2a"
}
layer {
  name: "res3b2_branch2b"
  type: "Convolution"
  bottom: "res3b2_branch2a"
  top: "res3b2_branch2b"
  convolution_param {
    num_output: 128
    bias_term: false
    pad: 1
    kernel_size: 3
    stride: 1
  }
}
layer {
  name: "bn3b2_branch2b"
  type: "BatchNorm"
  bottom: "res3b2_branch2b"
  top: "res3b2_branch2b"
  batch_norm_param {
    use_global_stats: true
  }
}
layer {
  name: "scale3b2_branch2b"
  type: "Scale"
  bottom: "res3b2_branch2b"
  top: "res3b2_branch2b"
  scale_param {
    bias_term: true
  }
}
layer {
  name: "res3b2_branch2b_relu"
  type: "ReLU"
  bottom: "res3b2_branch2b"
  top: "res3b2_branch2b"
}
layer {
  name: "res3b2_branch2c"
  type: "Convolution"
  bottom: "res3b2_branch2b"
  top: "res3b2_branch2c"
  convolution_param {
    num_output: 512
    bias_term: false
    pad: 0
    kernel_size: 1
    stride: 1
  }
}
layer {
  name: "bn3b2_branch2c"
  type: "BatchNorm"
  bottom: "res3b2_branch2c"
  top: "res3b2_branch2c"
  batch_norm_param {
    use_global_stats: true
  }
}
layer {
  name: "scale3b2_branch2c"
  type: "Scale"
  bottom: "res3b2_branch2c"
  top: "res3b2_branch2c"
  scale_param {
    bias_term: true
  }
}
layer {
  name: "res3b2"
  type: "Eltwise"
  bottom: "res3b1"
  bottom: "res3b2_branch2c"
  top: "res3b2"
}
layer {
  name: "res3b2_relu"
  type: "ReLU"
  bottom: "res3b2"
  top: "res3b2"
}
layer {
  name: "res3b3_branch2a"
  type: "Convolution"
  bottom: "res3b2"
  top: "res3b3_branch2a"
  convolution_param {
    num_output: 128
    bias_term: false
    pad: 0
    kernel_size: 1
    stride: 1
  }
}
layer {
  name: "bn3b3_branch2a"
  type: "BatchNorm"
  bottom: "res3b3_branch2a"
  top: "res3b3_branch2a"
  batch_norm_param {
    use_global_stats: true
  }
}
layer {
  name: "scale3b3_branch2a"
  type: "Scale"
  bottom: "res3b3_branch2a"
  top: "res3b3_branch2a"
  scale_param {
    bias_term: true
  }
}
layer {
  name: "res3b3_branch2a_relu"
  type: "ReLU"
  bottom: "res3b3_branch2a"
  top: "res3b3_branch2a"
}
layer {
  name: "res3b3_branch2b"
  type: "Convolution"
  bottom: "res3b3_branch2a"
  top: "res3b3_branch2b"
  convolution_param {
    num_output: 128
    bias_term: false
    pad: 1
    kernel_size: 3
    stride: 1
  }
}
layer {
  name: "bn3b3_branch2b"
  type: "BatchNorm"
  bottom: "res3b3_branch2b"
  top: "res3b3_branch2b"
  batch_norm_param {
    use_global_stats: true
  }
}
layer {
  name: "scale3b3_branch2b"
  type: "Scale"
  bottom: "res3b3_branch2b"
  top: "res3b3_branch2b"
  scale_param {
    bias_term: true
  }
}
layer {
  name: "res3b3_branch2b_relu"
  type: "ReLU"
  bottom: "res3b3_branch2b"
  top: "res3b3_branch2b"
}
layer {
  name: "res3b3_branch2c"
  type: "Convolution"
  bottom: "res3b3_branch2b"
  top: "res3b3_branch2c"
  convolution_param {
    num_output: 512
    bias_term: false
    pad: 0
    kernel_size: 1
    stride: 1
  }
}
layer {
  name: "bn3b3_branch2c"
  type: "BatchNorm"
  bottom: "res3b3_branch2c"
  top: "res3b3_branch2c"
  batch_norm_param {
    use_global_stats: true
  }
}
layer {
  name: "scale3b3_branch2c"
  type: "Scale"
  bottom: "res3b3_branch2c"
  top: "res3b3_branch2c"
  scale_param {
    bias_term: true
  }
}
layer {
  name: "res3b3"
  type: "Eltwise"
  bottom: "res3b2"
  bottom: "res3b3_branch2c"
  top: "res3b3"
}
layer {
  name: "res3b3_relu"
  type: "ReLU"
  bottom: "res3b3"
  top: "res3b3"
}
layer {
  name: "res3b4_branch2a"
  type: "Convolution"
  bottom: "res3b3"
  top: "res3b4_branch2a"
  convolution_param {
    num_output: 128
    bias_term: false
    pad: 0
    kernel_size: 1
    stride: 1
  }
}
layer {
  name: "bn3b4_branch2a"
  type: "BatchNorm"
  bottom: "res3b4_branch2a"
  top: "res3b4_branch2a"
  batch_norm_param {
    use_global_stats: true
  }
}
layer {
  name: "scale3b4_branch2a"
  type: "Scale"
  bottom: "res3b4_branch2a"
  top: "res3b4_branch2a"
  scale_param {
    bias_term: true
  }
}
layer {
  name: "res3b4_branch2a_relu"
  type: "ReLU"
  bottom: "res3b4_branch2a"
  top: "res3b4_branch2a"
}
layer {
  name: "res3b4_branch2b"
  type: "Convolution"
  bottom: "res3b4_branch2a"
  top: "res3b4_branch2b"
  convolution_param {
    num_output: 128
    bias_term: false
    pad: 1
    kernel_size: 3
    stride: 1
  }
}
layer {
  name: "bn3b4_branch2b"
  type: "BatchNorm"
  bottom: "res3b4_branch2b"
  top: "res3b4_branch2b"
  batch_norm_param {
    use_global_stats: true
  }
}
layer {
  name: "scale3b4_branch2b"
  type: "Scale"
  bottom: "res3b4_branch2b"
  top: "res3b4_branch2b"
  scale_param {
    bias_term: true
  }
}
layer {
  name: "res3b4_branch2b_relu"
  type: "ReLU"
  bottom: "res3b4_branch2b"
  top: "res3b4_branch2b"
}
layer {
  name: "res3b4_branch2c"
  type: "Convolution"
  bottom: "res3b4_branch2b"
  top: "res3b4_branch2c"
  convolution_param {
    num_output: 512
    bias_term: false
    pad: 0
    kernel_size: 1
    stride: 1
  }
}
layer {
  name: "bn3b4_branch2c"
  type: "BatchNorm"
  bottom: "res3b4_branch2c"
  top: "res3b4_branch2c"
  batch_norm_param {
    use_global_stats: true
  }
}
layer {
  name: "scale3b4_branch2c"
  type: "Scale"
  bottom: "res3b4_branch2c"
  top: "res3b4_branch2c"
  scale_param {
    bias_term: true
  }
}
layer {
  name: "res3b4"
  type: "Eltwise"
  bottom: "res3b3"
  bottom: "res3b4_branch2c"
  top: "res3b4"
}
layer {
  name: "res3b4_relu"
  type: "ReLU"
  bottom: "res3b4"
  top: "res3b4"
}
layer {
  name: "res3b5_branch2a"
  type: "Convolution"
  bottom: "res3b4"
  top: "res3b5_branch2a"
  convolution_param {
    num_output: 128
    bias_term: false
    pad: 0
    kernel_size: 1
    stride: 1
  }
}
layer {
  name: "bn3b5_branch2a"
  type: "BatchNorm"
  bottom: "res3b5_branch2a"
  top: "res3b5_branch2a"
  batch_norm_param {
    use_global_stats: true
  }
}
layer {
  name: "scale3b5_branch2a"
  type: "Scale"
  bottom: "res3b5_branch2a"
  top: "res3b5_branch2a"
  scale_param {
    bias_term: true
  }
}
layer {
  name: "res3b5_branch2a_relu"
  type: "ReLU"
  bottom: "res3b5_branch2a"
  top: "res3b5_branch2a"
}
layer {
  name: "res3b5_branch2b"
  type: "Convolution"
  bottom: "res3b5_branch2a"
  top: "res3b5_branch2b"
  convolution_param {
    num_output: 128
    bias_term: false
    pad: 1
    kernel_size: 3
    stride: 1
  }
}
layer {
  name: "bn3b5_branch2b"
  type: "BatchNorm"
  bottom: "res3b5_branch2b"
  top: "res3b5_branch2b"
  batch_norm_param {
    use_global_stats: true
  }
}
layer {
  name: "scale3b5_branch2b"
  type: "Scale"
  bottom: "res3b5_branch2b"
  top: "res3b5_branch2b"
  scale_param {
    bias_term: true
  }
}
layer {
  name: "res3b5_branch2b_relu"
  type: "ReLU"
  bottom: "res3b5_branch2b"
  top: "res3b5_branch2b"
}
layer {
  name: "res3b5_branch2c"
  type: "Convolution"
  bottom: "res3b5_branch2b"
  top: "res3b5_branch2c"
  convolution_param {
    num_output: 512
    bias_term: false
    pad: 0
    kernel_size: 1
    stride: 1
  }
}
layer {
  name: "bn3b5_branch2c"
  type: "BatchNorm"
  bottom: "res3b5_branch2c"
  top: "res3b5_branch2c"
  batch_norm_param {
    use_global_stats: true
  }
}
layer {
  name: "scale3b5_branch2c"
  type: "Scale"
  bottom: "res3b5_branch2c"
  top: "res3b5_branch2c"
  scale_param {
    bias_term: true
  }
}
layer {
  name: "res3b5"
  type: "Eltwise"
  bottom: "res3b4"
  bottom: "res3b5_branch2c"
  top: "res3b5"
}
layer {
  name: "res3b5_relu"
  type: "ReLU"
  bottom: "res3b5"
  top: "res3b5"
}
layer {
  name: "res3b6_branch2a"
  type: "Convolution"
  bottom: "res3b5"
  top: "res3b6_branch2a"
  convolution_param {
    num_output: 128
    bias_term: false
    pad: 0
    kernel_size: 1
    stride: 1
  }
}
layer {
  name: "bn3b6_branch2a"
  type: "BatchNorm"
  bottom: "res3b6_branch2a"
  top: "res3b6_branch2a"
  batch_norm_param {
    use_global_stats: true
  }
}
layer {
  name: "scale3b6_branch2a"
  type: "Scale"
  bottom: "res3b6_branch2a"
  top: "res3b6_branch2a"
  scale_param {
    bias_term: true
  }
}
layer {
  name: "res3b6_branch2a_relu"
  type: "ReLU"
  bottom: "res3b6_branch2a"
  top: "res3b6_branch2a"
}
layer {
  name: "res3b6_branch2b"
  type: "Convolution"
  bottom: "res3b6_branch2a"
  top: "res3b6_branch2b"
  convolution_param {
    num_output: 128
    bias_term: false
    pad: 1
    kernel_size: 3
    stride: 1
  }
}
layer {
  name: "bn3b6_branch2b"
  type: "BatchNorm"
  bottom: "res3b6_branch2b"
  top: "res3b6_branch2b"
  batch_norm_param {
    use_global_stats: true
  }
}
layer {
  name: "scale3b6_branch2b"
  type: "Scale"
  bottom: "res3b6_branch2b"
  top: "res3b6_branch2b"
  scale_param {
    bias_term: true
  }
}
layer {
  name: "res3b6_branch2b_relu"
  type: "ReLU"
  bottom: "res3b6_branch2b"
  top: "res3b6_branch2b"
}
layer {
  name: "res3b6_branch2c"
  type: "Convolution"
  bottom: "res3b6_branch2b"
  top: "res3b6_branch2c"
  convolution_param {
    num_output: 512
    bias_term: false
    pad: 0
    kernel_size: 1
    stride: 1
  }
}
layer {
  name: "bn3b6_branch2c"
  type: "BatchNorm"
  bottom: "res3b6_branch2c"
  top: "res3b6_branch2c"
  batch_norm_param {
    use_global_stats: true
  }
}
layer {
  name: "scale3b6_branch2c"
  type: "Scale"
  bottom: "res3b6_branch2c"
  top: "res3b6_branch2c"
  scale_param {
    bias_term: true
  }
}
layer {
  name: "res3b6"
  type: "Eltwise"
  bottom: "res3b5"
  bottom: "res3b6_branch2c"
  top: "res3b6"
}
layer {
  name: "res3b6_relu"
  type: "ReLU"
  bottom: "res3b6"
  top: "res3b6"
}
layer {
  name: "res3b7_branch2a"
  type: "Convolution"
  bottom: "res3b6"
  top: "res3b7_branch2a"
  convolution_param {
    num_output: 128
    bias_term: false
    pad: 0
    kernel_size: 1
    stride: 1
  }
}
layer {
  name: "bn3b7_branch2a"
  type: "BatchNorm"
  bottom: "res3b7_branch2a"
  top: "res3b7_branch2a"
  batch_norm_param {
    use_global_stats: true
  }
}
layer {
  name: "scale3b7_branch2a"
  type: "Scale"
  bottom: "res3b7_branch2a"
  top: "res3b7_branch2a"
  scale_param {
    bias_term: true
  }
}
layer {
  name: "res3b7_branch2a_relu"
  type: "ReLU"
  bottom: "res3b7_branch2a"
  top: "res3b7_branch2a"
}
layer {
  name: "res3b7_branch2b"
  type: "Convolution"
  bottom: "res3b7_branch2a"
  top: "res3b7_branch2b"
  convolution_param {
    num_output: 128
    bias_term: false
    pad: 1
    kernel_size: 3
    stride: 1
  }
}
layer {
  name: "bn3b7_branch2b"
  type: "BatchNorm"
  bottom: "res3b7_branch2b"
  top: "res3b7_branch2b"
  batch_norm_param {
    use_global_stats: true
  }
}
layer {
  name: "scale3b7_branch2b"
  type: "Scale"
  bottom: "res3b7_branch2b"
  top: "res3b7_branch2b"
  scale_param {
    bias_term: true
  }
}
layer {
  name: "res3b7_branch2b_relu"
  type: "ReLU"
  bottom: "res3b7_branch2b"
  top: "res3b7_branch2b"
}
layer {
  name: "res3b7_branch2c"
  type: "Convolution"
  bottom: "res3b7_branch2b"
  top: "res3b7_branch2c"
  convolution_param {
    num_output: 512
    bias_term: false
    pad: 0
    kernel_size: 1
    stride: 1
  }
}
layer {
  name: "bn3b7_branch2c"
  type: "BatchNorm"
  bottom: "res3b7_branch2c"
  top: "res3b7_branch2c"
  batch_norm_param {
    use_global_stats: true
  }
}
layer {
  name: "scale3b7_branch2c"
  type: "Scale"
  bottom: "res3b7_branch2c"
  top: "res3b7_branch2c"
  scale_param {
    bias_term: true
  }
}
layer {
  name: "res3b7"
  type: "Eltwise"
  bottom: "res3b6"
  bottom: "res3b7_branch2c"
  top: "res3b7"
}
layer {
  name: "res3b7_relu"
  type: "ReLU"
  bottom: "res3b7"
  top: "res3b7"
}
layer {
  name: "res4a_branch1"
  type: "Convolution"
  bottom: "res3b7"
  top: "res4a_branch1"
  convolution_param {
    num_output: 1024
    bias_term: false
    pad: 0
    kernel_size: 1
    stride: 2
  }
}
layer {
  name: "bn4a_branch1"
  type: "BatchNorm"
  bottom: "res4a_branch1"
  top: "res4a_branch1"
  batch_norm_param {
    use_global_stats: true
  }
}
layer {
  name: "scale4a_branch1"
  type: "Scale"
  bottom: "res4a_branch1"
  top: "res4a_branch1"
  scale_param {
    bias_term: true
  }
}
layer {
  name: "res4a_branch2a"
  type: "Convolution"
  bottom: "res3b7"
  top: "res4a_branch2a"
  convolution_param {
    num_output: 256
    bias_term: false
    pad: 0
    kernel_size: 1
    stride: 2
  }
}
layer {
  name: "bn4a_branch2a"
  type: "BatchNorm"
  bottom: "res4a_branch2a"
  top: "res4a_branch2a"
  batch_norm_param {
    use_global_stats: true
  }
}
layer {
  name: "scale4a_branch2a"
  type: "Scale"
  bottom: "res4a_branch2a"
  top: "res4a_branch2a"
  scale_param {
    bias_term: true
  }
}
layer {
  name: "res4a_branch2a_relu"
  type: "ReLU"
  bottom: "res4a_branch2a"
  top: "res4a_branch2a"
}
layer {
  name: "res4a_branch2b"
  type: "Convolution"
  bottom: "res4a_branch2a"
  top: "res4a_branch2b"
  convolution_param {
    num_output: 256
    bias_term: false
    pad: 1
    kernel_size: 3
    stride: 1
  }
}
layer {
  name: "bn4a_branch2b"
  type: "BatchNorm"
  bottom: "res4a_branch2b"
  top: "res4a_branch2b"
  batch_norm_param {
    use_global_stats: true
  }
}
layer {
  name: "scale4a_branch2b"
  type: "Scale"
  bottom: "res4a_branch2b"
  top: "res4a_branch2b"
  scale_param {
    bias_term: true
  }
}
layer {
  name: "res4a_branch2b_relu"
  type: "ReLU"
  bottom: "res4a_branch2b"
  top: "res4a_branch2b"
}
layer {
  name: "res4a_branch2c"
  type: "Convolution"
  bottom: "res4a_branch2b"
  top: "res4a_branch2c"
  convolution_param {
    num_output: 1024
    bias_term: false
    pad: 0
    kernel_size: 1
    stride: 1
  }
}
layer {
  name: "bn4a_branch2c"
  type: "BatchNorm"
  bottom: "res4a_branch2c"
  top: "res4a_branch2c"
  batch_norm_param {
    use_global_stats: true
  }
}
layer {
  name: "scale4a_branch2c"
  type: "Scale"
  bottom: "res4a_branch2c"
  top: "res4a_branch2c"
  scale_param {
    bias_term: true
  }
}
layer {
  name: "res4a"
  type: "Eltwise"
  bottom: "res4a_branch1"
  bottom: "res4a_branch2c"
  top: "res4a"
}
layer {
  name: "res4a_relu"
  type: "ReLU"
  bottom: "res4a"
  top: "res4a"
}
layer {
  name: "res4b1_branch2a"
  type: "Convolution"
  bottom: "res4a"
  top: "res4b1_branch2a"
  convolution_param {
    num_output: 256
    bias_term: false
    pad: 0
    kernel_size: 1
    stride: 1
  }
}
layer {
  name: "bn4b1_branch2a"
  type: "BatchNorm"
  bottom: "res4b1_branch2a"
  top: "res4b1_branch2a"
  batch_norm_param {
    use_global_stats: true
  }
}
layer {
  name: "scale4b1_branch2a"
  type: "Scale"
  bottom: "res4b1_branch2a"
  top: "res4b1_branch2a"
  scale_param {
    bias_term: true
  }
}
layer {
  name: "res4b1_branch2a_relu"
  type: "ReLU"
  bottom: "res4b1_branch2a"
  top: "res4b1_branch2a"
}
layer {
  name: "res4b1_branch2b"
  type: "Convolution"
  bottom: "res4b1_branch2a"
  top: "res4b1_branch2b"
  convolution_param {
    num_output: 256
    bias_term: false
    pad: 1
    kernel_size: 3
    stride: 1
  }
}
layer {
  name: "bn4b1_branch2b"
  type: "BatchNorm"
  bottom: "res4b1_branch2b"
  top: "res4b1_branch2b"
  batch_norm_param {
    use_global_stats: true
  }
}
layer {
  name: "scale4b1_branch2b"
  type: "Scale"
  bottom: "res4b1_branch2b"
  top: "res4b1_branch2b"
  scale_param {
    bias_term: true
  }
}
layer {
  name: "res4b1_branch2b_relu"
  type: "ReLU"
  bottom: "res4b1_branch2b"
  top: "res4b1_branch2b"
}
layer {
  name: "res4b1_branch2c"
  type: "Convolution"
  bottom: "res4b1_branch2b"
  top: "res4b1_branch2c"
  convolution_param {
    num_output: 1024
    bias_term: false
    pad: 0
    kernel_size: 1
    stride: 1
  }
}
layer {
  name: "bn4b1_branch2c"
  type: "BatchNorm"
  bottom: "res4b1_branch2c"
  top: "res4b1_branch2c"
  batch_norm_param {
    use_global_stats: true
  }
}
layer {
  name: "scale4b1_branch2c"
  type: "Scale"
  bottom: "res4b1_branch2c"
  top: "res4b1_branch2c"
  scale_param {
    bias_term: true
  }
}
layer {
  name: "res4b1"
  type: "Eltwise"
  bottom: "res4a"
  bottom: "res4b1_branch2c"
  top: "res4b1"
}
layer {
  name: "res4b1_relu"
  type: "ReLU"
  bottom: "res4b1"
  top: "res4b1"
}
layer {
  name: "res4b2_branch2a"
  type: "Convolution"
  bottom: "res4b1"
  top: "res4b2_branch2a"
  convolution_param {
    num_output: 256
    bias_term: false
    pad: 0
    kernel_size: 1
    stride: 1
  }
}
layer {
  name: "bn4b2_branch2a"
  type: "BatchNorm"
  bottom: "res4b2_branch2a"
  top: "res4b2_branch2a"
  batch_norm_param {
    use_global_stats: true
  }
}
layer {
  name: "scale4b2_branch2a"
  type: "Scale"
  bottom: "res4b2_branch2a"
  top: "res4b2_branch2a"
  scale_param {
    bias_term: true
  }
}
layer {
  name: "res4b2_branch2a_relu"
  type: "ReLU"
  bottom: "res4b2_branch2a"
  top: "res4b2_branch2a"
}
layer {
  name: "res4b2_branch2b"
  type: "Convolution"
  bottom: "res4b2_branch2a"
  top: "res4b2_branch2b"
  convolution_param {
    num_output: 256
    bias_term: false
    pad: 1
    kernel_size: 3
    stride: 1
  }
}
layer {
  name: "bn4b2_branch2b"
  type: "BatchNorm"
  bottom: "res4b2_branch2b"
  top: "res4b2_branch2b"
  batch_norm_param {
    use_global_stats: true
  }
}
layer {
  name: "scale4b2_branch2b"
  type: "Scale"
  bottom: "res4b2_branch2b"
  top: "res4b2_branch2b"
  scale_param {
    bias_term: true
  }
}
layer {
  name: "res4b2_branch2b_relu"
  type: "ReLU"
  bottom: "res4b2_branch2b"
  top: "res4b2_branch2b"
}
layer {
  name: "res4b2_branch2c"
  type: "Convolution"
  bottom: "res4b2_branch2b"
  top: "res4b2_branch2c"
  convolution_param {
    num_output: 1024
I0310 23:53:25.048707  8521 layer_factory.hpp:77] Creating layer data
I0310 23:53:25.049940  8521 net.cpp:106] Creating Layer data
I0310 23:53:25.050045  8521 net.cpp:411] data -> data
I0310 23:53:25.050158  8521 data_transformer.cpp:25] Loading mean file from: /home/lizhuowan/Market1501/lmdb/lmdb_12936/Image_lmdb_12936.binaryproto
I0310 23:53:25.052630  8525 db_lmdb.cpp:38] Opened lmdb /home/lizhuowan/Market1501/lmdb/lmdb_mirror_12936/Image_lmdb_mirror_12936
I0310 23:53:25.078991  8521 data_layer.cpp:41] output data size: 8,3,224,224
I0310 23:53:25.096078  8521 net.cpp:150] Setting up data
I0310 23:53:25.096169  8521 net.cpp:157] Top shape: 8 3 224 224 (1204224)
I0310 23:53:25.096194  8521 net.cpp:165] Memory required for data: 4816896
I0310 23:53:25.096228  8521 layer_factory.hpp:77] Creating layer data
I0310 23:53:25.097110  8521 net.cpp:106] Creating Layer data
I0310 23:53:25.097149  8521 net.cpp:411] data -> labels
I0310 23:53:25.098973  8527 db_lmdb.cpp:38] Opened lmdb /home/lizhuowan/Market1501/lmdb/lmdb_mirror_12936/pos30_lmdb_mirror_12936_correct
I0310 23:53:25.099331  8521 data_layer.cpp:41] output data size: 8,30,1,1
I0310 23:53:25.099695  8521 net.cpp:150] Setting up data
I0310 23:53:25.099740  8521 net.cpp:157] Top shape: 8 30 1 1 (240)
I0310 23:53:25.099761  8521 net.cpp:165] Memory required for data: 4817856
I0310 23:53:25.099782  8521 layer_factory.hpp:77] Creating layer conv1
I0310 23:53:25.099856  8521 net.cpp:106] Creating Layer conv1
I0310 23:53:25.099885  8521 net.cpp:454] conv1 <- data
I0310 23:53:25.099938  8521 net.cpp:411] conv1 -> conv1
I0310 23:53:25.101668  8521 net.cpp:150] Setting up conv1
I0310 23:53:25.101717  8521 net.cpp:157] Top shape: 8 64 112 112 (6422528)
I0310 23:53:25.101737  8521 net.cpp:165] Memory required for data: 30507968
I0310 23:53:25.101783  8521 layer_factory.hpp:77] Creating layer bn_conv1
I0310 23:53:25.101821  8521 net.cpp:106] Creating Layer bn_conv1
I0310 23:53:25.101841  8521 net.cpp:454] bn_conv1 <- conv1
I0310 23:53:25.101886  8521 net.cpp:397] bn_conv1 -> conv1 (in-place)
I0310 23:53:25.102543  8521 net.cpp:150] Setting up bn_conv1
I0310 23:53:25.102583  8521 net.cpp:157] Top shape: 8 64 112 112 (6422528)
I0310 23:53:25.102624  8521 net.cpp:165] Memory required for data: 56198080
I0310 23:53:25.102694  8521 layer_factory.hpp:77] Creating layer scale_conv1
I0310 23:53:25.102740  8521 net.cpp:106] Creating Layer scale_conv1
I0310 23:53:25.102761  8521 net.cpp:454] scale_conv1 <- conv1
I0310 23:53:25.102783  8521 net.cpp:397] scale_conv1 -> conv1 (in-place)
I0310 23:53:25.102929  8521 layer_factory.hpp:77] Creating layer scale_conv1
I0310 23:53:25.103338  8521 net.cpp:150] Setting up scale_conv1
I0310 23:53:25.103376  8521 net.cpp:157] Top shape: 8 64 112 112 (6422528)
I0310 23:53:25.103394  8521 net.cpp:165] Memory required for data: 81888192
I0310 23:53:25.103427  8521 layer_factory.hpp:77] Creating layer conv1_relu
I0310 23:53:25.103464  8521 net.cpp:106] Creating Layer conv1_relu
I0310 23:53:25.103485  8521 net.cpp:454] conv1_relu <- conv1
I0310 23:53:25.103507  8521 net.cpp:397] conv1_relu -> conv1 (in-place)
I0310 23:53:25.103538  8521 net.cpp:150] Setting up conv1_relu
I0310 23:53:25.103561  8521 net.cpp:157] Top shape: 8 64 112 112 (6422528)
I0310 23:53:25.103579  8521 net.cpp:165] Memory required for data: 107578304
I0310 23:53:25.103595  8521 layer_factory.hpp:77] Creating layer pool1
I0310 23:53:25.103632  8521 net.cpp:106] Creating Layer pool1
I0310 23:53:25.103652  8521 net.cpp:454] pool1 <- conv1
I0310 23:53:25.103677  8521 net.cpp:411] pool1 -> pool1
I0310 23:53:25.103798  8521 net.cpp:150] Setting up pool1
I0310 23:53:25.103832  8521 net.cpp:157] Top shape: 8 64 56 56 (1605632)
I0310 23:53:25.103849  8521 net.cpp:165] Memory required for data: 114000832
I0310 23:53:25.103868  8521 layer_factory.hpp:77] Creating layer pool1_pool1_0_split
I0310 23:53:25.103895  8521 net.cpp:106] Creating Layer pool1_pool1_0_split
I0310 23:53:25.103914  8521 net.cpp:454] pool1_pool1_0_split <- pool1
I0310 23:53:25.103938  8521 net.cpp:411] pool1_pool1_0_split -> pool1_pool1_0_split_0
I0310 23:53:25.103972  8521 net.cpp:411] pool1_pool1_0_split -> pool1_pool1_0_split_1
I0310 23:53:25.104058  8521 net.cpp:150] Setting up pool1_pool1_0_split
I0310 23:53:25.104089  8521 net.cpp:157] Top shape: 8 64 56 56 (1605632)
I0310 23:53:25.104110  8521 net.cpp:157] Top shape: 8 64 56 56 (1605632)
I0310 23:53:25.104127  8521 net.cpp:165] Memory required for data: 126845888
I0310 23:53:25.104146  8521 layer_factory.hpp:77] Creating layer res2a_branch1
I0310 23:53:25.104182  8521 net.cpp:106] Creating Layer res2a_branch1
I0310 23:53:25.104202  8521 net.cpp:454] res2a_branch1 <- pool1_pool1_0_split_0
I0310 23:53:25.104228  8521 net.cpp:411] res2a_branch1 -> res2a_branch1
I0310 23:53:25.104601  8521 net.cpp:150] Setting up res2a_branch1
I0310 23:53:25.104636  8521 net.cpp:157] Top shape: 8 256 56 56 (6422528)
I0310 23:53:25.104655  8521 net.cpp:165] Memory required for data: 152536000
I0310 23:53:25.104676  8521 layer_factory.hpp:77] Creating layer bn2a_branch1
I0310 23:53:25.104701  8521 net.cpp:106] Creating Layer bn2a_branch1
I0310 23:53:25.104720  8521 net.cpp:454] bn2a_branch1 <- res2a_branch1
I0310 23:53:25.104743  8521 net.cpp:397] bn2a_branch1 -> res2a_branch1 (in-place)
I0310 23:53:25.106340  8521 net.cpp:150] Setting up bn2a_branch1
I0310 23:53:25.106384  8521 net.cpp:157] Top shape: 8 256 56 56 (6422528)
I0310 23:53:25.106403  8521 net.cpp:165] Memory required for data: 178226112
I0310 23:53:25.106442  8521 layer_factory.hpp:77] Creating layer scale2a_branch1
I0310 23:53:25.106469  8521 net.cpp:106] Creating Layer scale2a_branch1
I0310 23:53:25.106489  8521 net.cpp:454] scale2a_branch1 <- res2a_branch1
I0310 23:53:25.106518  8521 net.cpp:397] scale2a_branch1 -> res2a_branch1 (in-place)
I0310 23:53:25.106628  8521 layer_factory.hpp:77] Creating layer scale2a_branch1
I0310 23:53:25.106886  8521 net.cpp:150] Setting up scale2a_branch1
I0310 23:53:25.106926  8521 net.cpp:157] Top shape: 8 256 56 56 (6422528)
I0310 23:53:25.106945  8521 net.cpp:165] Memory required for data: 203916224
I0310 23:53:25.107003  8521 layer_factory.hpp:77] Creating layer res2a_branch2a
I0310 23:53:25.107035  8521 net.cpp:106] Creating Layer res2a_branch2a
I0310 23:53:25.107056  8521 net.cpp:454] res2a_branch2a <- pool1_pool1_0_split_1
I0310 23:53:25.107086  8521 net.cpp:411] res2a_branch2a -> res2a_branch2a
I0310 23:53:25.107480  8521 net.cpp:150] Setting up res2a_branch2a
I0310 23:53:25.107514  8521 net.cpp:157] Top shape: 8 64 56 56 (1605632)
I0310 23:53:25.107532  8521 net.cpp:165] Memory required for data: 210338752
I0310 23:53:25.107554  8521 layer_factory.hpp:77] Creating layer bn2a_branch2a
I0310 23:53:25.107584  8521 net.cpp:106] Creating Layer bn2a_branch2a
I0310 23:53:25.107604  8521 net.cpp:454] bn2a_branch2a <- res2a_branch2a
I0310 23:53:25.107627  8521 net.cpp:397] bn2a_branch2a -> res2a_branch2a (in-place)
I0310 23:53:25.108011  8521 net.cpp:150] Setting up bn2a_branch2a
I0310 23:53:25.108044  8521 net.cpp:157] Top shape: 8 64 56 56 (1605632)
I0310 23:53:25.108062  8521 net.cpp:165] Memory required for data: 216761280
I0310 23:53:25.108093  8521 layer_factory.hpp:77] Creating layer scale2a_branch2a
I0310 23:53:25.108124  8521 net.cpp:106] Creating Layer scale2a_branch2a
I0310 23:53:25.108142  8521 net.cpp:454] scale2a_branch2a <- res2a_branch2a
I0310 23:53:25.108165  8521 net.cpp:397] scale2a_branch2a -> res2a_branch2a (in-place)
I0310 23:53:25.108273  8521 layer_factory.hpp:77] Creating layer scale2a_branch2a
I0310 23:53:25.108541  8521 net.cpp:150] Setting up scale2a_branch2a
I0310 23:53:25.108574  8521 net.cpp:157] Top shape: 8 64 56 56 (1605632)
I0310 23:53:25.108592  8521 net.cpp:165] Memory required for data: 223183808
I0310 23:53:25.108646  8521 layer_factory.hpp:77] Creating layer res2a_branch2a_relu
I0310 23:53:25.108674  8521 net.cpp:106] Creating Layer res2a_branch2a_relu
I0310 23:53:25.108692  8521 net.cpp:454] res2a_branch2a_relu <- res2a_branch2a
I0310 23:53:25.108721  8521 net.cpp:397] res2a_branch2a_relu -> res2a_branch2a (in-place)
I0310 23:53:25.108747  8521 net.cpp:150] Setting up res2a_branch2a_relu
I0310 23:53:25.108770  8521 net.cpp:157] Top shape: 8 64 56 56 (1605632)
I0310 23:53:25.108788  8521 net.cpp:165] Memory required for data: 229606336
I0310 23:53:25.108806  8521 layer_factory.hpp:77] Creating layer res2a_branch2b
I0310 23:53:25.108832  8521 net.cpp:106] Creating Layer res2a_branch2b
I0310 23:53:25.108852  8521 net.cpp:454] res2a_branch2b <- res2a_branch2a
I0310 23:53:25.108880  8521 net.cpp:411] res2a_branch2b -> res2a_branch2b
I0310 23:53:25.110501  8521 net.cpp:150] Setting up res2a_branch2b
I0310 23:53:25.110548  8521 net.cpp:157] Top shape: 8 64 56 56 (1605632)
I0310 23:53:25.110568  8521 net.cpp:165] Memory required for data: 236028864
I0310 23:53:25.110590  8521 layer_factory.hpp:77] Creating layer bn2a_branch2b
I0310 23:53:25.110620  8521 net.cpp:106] Creating Layer bn2a_branch2b
I0310 23:53:25.110641  8521 net.cpp:454] bn2a_branch2b <- res2a_branch2b
I0310 23:53:25.110671  8521 net.cpp:397] bn2a_branch2b -> res2a_branch2b (in-place)
I0310 23:53:25.111147  8521 net.cpp:150] Setting up bn2a_branch2b
I0310 23:53:25.111183  8521 net.cpp:157] Top shape: 8 64 56 56 (1605632)
I0310 23:53:25.111205  8521 net.cpp:165] Memory required for data: 242451392
I0310 23:53:25.111238  8521 layer_factory.hpp:77] Creating layer scale2a_branch2b
I0310 23:53:25.111265  8521 net.cpp:106] Creating Layer scale2a_branch2b
I0310 23:53:25.111285  8521 net.cpp:454] scale2a_branch2b <- res2a_branch2b
I0310 23:53:25.111317  8521 net.cpp:397] scale2a_branch2b -> res2a_branch2b (in-place)
I0310 23:53:25.112115  8521 layer_factory.hpp:77] Creating layer scale2a_branch2b
I0310 23:53:25.112447  8521 net.cpp:150] Setting up scale2a_branch2b
I0310 23:53:25.112488  8521 net.cpp:157] Top shape: 8 64 56 56 (1605632)
I0310 23:53:25.112507  8521 net.cpp:165] Memory required for data: 248873920
I0310 23:53:25.112536  8521 layer_factory.hpp:77] Creating layer res2a_branch2b_relu
I0310 23:53:25.112562  8521 net.cpp:106] Creating Layer res2a_branch2b_relu
I0310 23:53:25.112598  8521 net.cpp:454] res2a_branch2b_relu <- res2a_branch2b
I0310 23:53:25.112650  8521 net.cpp:397] res2a_branch2b_relu -> res2a_branch2b (in-place)
I0310 23:53:25.112680  8521 net.cpp:150] Setting up res2a_branch2b_relu
I0310 23:53:25.112704  8521 net.cpp:157] Top shape: 8 64 56 56 (1605632)
I0310 23:53:25.112722  8521 net.cpp:165] Memory required for data: 255296448
I0310 23:53:25.112740  8521 layer_factory.hpp:77] Creating layer res2a_branch2c
I0310 23:53:25.112774  8521 net.cpp:106] Creating Layer res2a_branch2c
I0310 23:53:25.112794  8521 net.cpp:454] res2a_branch2c <- res2a_branch2b
I0310 23:53:25.112818  8521 net.cpp:411] res2a_branch2c -> res2a_branch2c
I0310 23:53:25.113216  8521 net.cpp:150] Setting up res2a_branch2c
I0310 23:53:25.113267  8521 net.cpp:157] Top shape: 8 256 56 56 (6422528)
I0310 23:53:25.113289  8521 net.cpp:165] Memory required for data: 280986560
I0310 23:53:25.113313  8521 layer_factory.hpp:77] Creating layer bn2a_branch2c
I0310 23:53:25.113337  8521 net.cpp:106] Creating Layer bn2a_branch2c
I0310 23:53:25.113356  8521 net.cpp:454] bn2a_branch2c <- res2a_branch2c
I0310 23:53:25.113379  8521 net.cpp:397] bn2a_branch2c -> res2a_branch2c (in-place)
I0310 23:53:25.113775  8521 net.cpp:150] Setting up bn2a_branch2c
I0310 23:53:25.113809  8521 net.cpp:157] Top shape: 8 256 56 56 (6422528)
I0310 23:53:25.113827  8521 net.cpp:165] Memory required for data: 306676672
I0310 23:53:25.113863  8521 layer_factory.hpp:77] Creating layer scale2a_branch2c
I0310 23:53:25.113891  8521 net.cpp:106] Creating Layer scale2a_branch2c
I0310 23:53:25.113910  8521 net.cpp:454] scale2a_branch2c <- res2a_branch2c
I0310 23:53:25.113932  8521 net.cpp:397] scale2a_branch2c -> res2a_branch2c (in-place)
I0310 23:53:25.114037  8521 layer_factory.hpp:77] Creating layer scale2a_branch2c
I0310 23:53:25.114306  8521 net.cpp:150] Setting up scale2a_branch2c
I0310 23:53:25.114339  8521 net.cpp:157] Top shape: 8 256 56 56 (6422528)
I0310 23:53:25.114357  8521 net.cpp:165] Memory required for data: 332366784
I0310 23:53:25.114382  8521 layer_factory.hpp:77] Creating layer res2a
I0310 23:53:25.114420  8521 net.cpp:106] Creating Layer res2a
I0310 23:53:25.114441  8521 net.cpp:454] res2a <- res2a_branch1
I0310 23:53:25.114462  8521 net.cpp:454] res2a <- res2a_branch2c
I0310 23:53:25.114485  8521 net.cpp:411] res2a -> res2a
I0310 23:53:25.114573  8521 net.cpp:150] Setting up res2a
I0310 23:53:25.114604  8521 net.cpp:157] Top shape: 8 256 56 56 (6422528)
I0310 23:53:25.114622  8521 net.cpp:165] Memory required for data: 358056896
I0310 23:53:25.114640  8521 layer_factory.hpp:77] Creating layer res2a_relu
I0310 23:53:25.114662  8521 net.cpp:106] Creating Layer res2a_relu
I0310 23:53:25.114681  8521 net.cpp:454] res2a_relu <- res2a
I0310 23:53:25.114711  8521 net.cpp:397] res2a_relu -> res2a (in-place)
I0310 23:53:25.114739  8521 net.cpp:150] Setting up res2a_relu
I0310 23:53:25.114761  8521 net.cpp:157] Top shape: 8 256 56 56 (6422528)
I0310 23:53:25.114778  8521 net.cpp:165] Memory required for data: 383747008
I0310 23:53:25.114799  8521 layer_factory.hpp:77] Creating layer res2a_res2a_relu_0_split
I0310 23:53:25.114820  8521 net.cpp:106] Creating Layer res2a_res2a_relu_0_split
I0310 23:53:25.114838  8521 net.cpp:454] res2a_res2a_relu_0_split <- res2a
I0310 23:53:25.114861  8521 net.cpp:411] res2a_res2a_relu_0_split -> res2a_res2a_relu_0_split_0
I0310 23:53:25.114886  8521 net.cpp:411] res2a_res2a_relu_0_split -> res2a_res2a_relu_0_split_1
I0310 23:53:25.114979  8521 net.cpp:150] Setting up res2a_res2a_relu_0_split
I0310 23:53:25.115010  8521 net.cpp:157] Top shape: 8 256 56 56 (6422528)
I0310 23:53:25.115031  8521 net.cpp:157] Top shape: 8 256 56 56 (6422528)
I0310 23:53:25.115047  8521 net.cpp:165] Memory required for data: 435127232
I0310 23:53:25.115064  8521 layer_factory.hpp:77] Creating layer res2b_branch2a
I0310 23:53:25.115092  8521 net.cpp:106] Creating Layer res2b_branch2a
I0310 23:53:25.115110  8521 net.cpp:454] res2b_branch2a <- res2a_res2a_relu_0_split_0
I0310 23:53:25.115139  8521 net.cpp:411] res2b_branch2a -> res2b_branch2a
I0310 23:53:25.115552  8521 net.cpp:150] Setting up res2b_branch2a
I0310 23:53:25.115608  8521 net.cpp:157] Top shape: 8 64 56 56 (1605632)
I0310 23:53:25.115627  8521 net.cpp:165] Memory required for data: 441549760
I0310 23:53:25.115649  8521 layer_factory.hpp:77] Creating layer bn2b_branch2a
I0310 23:53:25.115687  8521 net.cpp:106] Creating Layer bn2b_branch2a
I0310 23:53:25.115708  8521 net.cpp:454] bn2b_branch2a <- res2b_branch2a
I0310 23:53:25.115732  8521 net.cpp:397] bn2b_branch2a -> res2b_branch2a (in-place)
I0310 23:53:25.116130  8521 net.cpp:150] Setting up bn2b_branch2a
I0310 23:53:25.116163  8521 net.cpp:157] Top shape: 8 64 56 56 (1605632)
I0310 23:53:25.116181  8521 net.cpp:165] Memory required for data: 447972288
I0310 23:53:25.116235  8521 layer_factory.hpp:77] Creating layer scale2b_branch2a
I0310 23:53:25.116264  8521 net.cpp:106] Creating Layer scale2b_branch2a
I0310 23:53:25.116283  8521 net.cpp:454] scale2b_branch2a <- res2b_branch2a
I0310 23:53:25.116307  8521 net.cpp:397] scale2b_branch2a -> res2b_branch2a (in-place)
I0310 23:53:25.116421  8521 layer_factory.hpp:77] Creating layer scale2b_branch2a
I0310 23:53:25.116694  8521 net.cpp:150] Setting up scale2b_branch2a
I0310 23:53:25.116727  8521 net.cpp:157] Top shape: 8 64 56 56 (1605632)
I0310 23:53:25.116744  8521 net.cpp:165] Memory required for data: 454394816
I0310 23:53:25.116770  8521 layer_factory.hpp:77] Creating layer res2b_branch2a_relu
I0310 23:53:25.116799  8521 net.cpp:106] Creating Layer res2b_branch2a_relu
I0310 23:53:25.116818  8521 net.cpp:454] res2b_branch2a_relu <- res2b_branch2a
I0310 23:53:25.116840  8521 net.cpp:397] res2b_branch2a_relu -> res2b_branch2a (in-place)
I0310 23:53:25.116866  8521 net.cpp:150] Setting up res2b_branch2a_relu
I0310 23:53:25.116888  8521 net.cpp:157] Top shape: 8 64 56 56 (1605632)
I0310 23:53:25.116904  8521 net.cpp:165] Memory required for data: 460817344
I0310 23:53:25.116922  8521 layer_factory.hpp:77] Creating layer res2b_branch2b
I0310 23:53:25.116953  8521 net.cpp:106] Creating Layer res2b_branch2b
I0310 23:53:25.116972  8521 net.cpp:454] res2b_branch2b <- res2b_branch2a
I0310 23:53:25.116996  8521 net.cpp:411] res2b_branch2b -> res2b_branch2b
I0310 23:53:25.117450  8521 net.cpp:150] Setting up res2b_branch2b
I0310 23:53:25.117489  8521 net.cpp:157] Top shape: 8 64 56 56 (1605632)
I0310 23:53:25.117507  8521 net.cpp:165] Memory required for data: 467239872
I0310 23:53:25.117529  8521 layer_factory.hpp:77] Creating layer bn2b_branch2b
I0310 23:53:25.117559  8521 net.cpp:106] Creating Layer bn2b_branch2b
I0310 23:53:25.117579  8521 net.cpp:454] bn2b_branch2b <- res2b_branch2b
I0310 23:53:25.117601  8521 net.cpp:397] bn2b_branch2b -> res2b_branch2b (in-place)
I0310 23:53:25.118021  8521 net.cpp:150] Setting up bn2b_branch2b
I0310 23:53:25.118054  8521 net.cpp:157] Top shape: 8 64 56 56 (1605632)
I0310 23:53:25.118072  8521 net.cpp:165] Memory required for data: 473662400
I0310 23:53:25.118106  8521 layer_factory.hpp:77] Creating layer scale2b_branch2b
I0310 23:53:25.118132  8521 net.cpp:106] Creating Layer scale2b_branch2b
I0310 23:53:25.118151  8521 net.cpp:454] scale2b_branch2b <- res2b_branch2b
I0310 23:53:25.118173  8521 net.cpp:397] scale2b_branch2b -> res2b_branch2b (in-place)
I0310 23:53:25.118279  8521 layer_factory.hpp:77] Creating layer scale2b_branch2b
I0310 23:53:25.118566  8521 net.cpp:150] Setting up scale2b_branch2b
I0310 23:53:25.118599  8521 net.cpp:157] Top shape: 8 64 56 56 (1605632)
I0310 23:53:25.118618  8521 net.cpp:165] Memory required for data: 480084928
I0310 23:53:25.118643  8521 layer_factory.hpp:77] Creating layer res2b_branch2b_relu
I0310 23:53:25.118679  8521 net.cpp:106] Creating Layer res2b_branch2b_relu
I0310 23:53:25.118700  8521 net.cpp:454] res2b_branch2b_relu <- res2b_branch2b
I0310 23:53:25.118721  8521 net.cpp:397] res2b_branch2b_relu -> res2b_branch2b (in-place)
I0310 23:53:25.118747  8521 net.cpp:150] Setting up res2b_branch2b_relu
I0310 23:53:25.118769  8521 net.cpp:157] Top shape: 8 64 56 56 (1605632)
I0310 23:53:25.118785  8521 net.cpp:165] Memory required for data: 486507456
I0310 23:53:25.118819  8521 layer_factory.hpp:77] Creating layer res2b_branch2c
I0310 23:53:25.118870  8521 net.cpp:106] Creating Layer res2b_branch2c
I0310 23:53:25.118891  8521 net.cpp:454] res2b_branch2c <- res2b_branch2b
I0310 23:53:25.118916  8521 net.cpp:411] res2b_branch2c -> res2b_branch2c
I0310 23:53:25.119320  8521 net.cpp:150] Setting up res2b_branch2c
I0310 23:53:25.119355  8521 net.cpp:157] Top shape: 8 256 56 56 (6422528)
I0310 23:53:25.119374  8521 net.cpp:165] Memory required for data: 512197568
I0310 23:53:25.119395  8521 layer_factory.hpp:77] Creating layer bn2b_branch2c
I0310 23:53:25.119426  8521 net.cpp:106] Creating Layer bn2b_branch2c
I0310 23:53:25.119444  8521 net.cpp:454] bn2b_branch2c <- res2b_branch2c
I0310 23:53:25.119467  8521 net.cpp:397] bn2b_branch2c -> res2b_branch2c (in-place)
I0310 23:53:25.119855  8521 net.cpp:150] Setting up bn2b_branch2c
I0310 23:53:25.119889  8521 net.cpp:157] Top shape: 8 256 56 56 (6422528)
I0310 23:53:25.119905  8521 net.cpp:165] Memory required for data: 537887680
I0310 23:53:25.119935  8521 layer_factory.hpp:77] Creating layer scale2b_branch2c
I0310 23:53:25.119964  8521 net.cpp:106] Creating Layer scale2b_branch2c
I0310 23:53:25.119984  8521 net.cpp:454] scale2b_branch2c <- res2b_branch2c
I0310 23:53:25.120007  8521 net.cpp:397] scale2b_branch2c -> res2b_branch2c (in-place)
I0310 23:53:25.120110  8521 layer_factory.hpp:77] Creating layer scale2b_branch2c
I0310 23:53:25.120384  8521 net.cpp:150] Setting up scale2b_branch2c
I0310 23:53:25.120417  8521 net.cpp:157] Top shape: 8 256 56 56 (6422528)
I0310 23:53:25.120437  8521 net.cpp:165] Memory required for data: 563577792
I0310 23:53:25.120463  8521 layer_factory.hpp:77] Creating layer res2b
I0310 23:53:25.120487  8521 net.cpp:106] Creating Layer res2b
I0310 23:53:25.120507  8521 net.cpp:454] res2b <- res2a_res2a_relu_0_split_1
I0310 23:53:25.120527  8521 net.cpp:454] res2b <- res2b_branch2c
I0310 23:53:25.120550  8521 net.cpp:411] res2b -> res2b
I0310 23:53:25.120626  8521 net.cpp:150] Setting up res2b
I0310 23:53:25.120664  8521 net.cpp:157] Top shape: 8 256 56 56 (6422528)
I0310 23:53:25.120682  8521 net.cpp:165] Memory required for data: 589267904
I0310 23:53:25.120699  8521 layer_factory.hpp:77] Creating layer res2b_relu
I0310 23:53:25.120721  8521 net.cpp:106] Creating Layer res2b_relu
I0310 23:53:25.120739  8521 net.cpp:454] res2b_relu <- res2b
I0310 23:53:25.120761  8521 net.cpp:397] res2b_relu -> res2b (in-place)
I0310 23:53:25.120786  8521 net.cpp:150] Setting up res2b_relu
I0310 23:53:25.120807  8521 net.cpp:157] Top shape: 8 256 56 56 (6422528)
I0310 23:53:25.120824  8521 net.cpp:165] Memory required for data: 614958016
I0310 23:53:25.120842  8521 layer_factory.hpp:77] Creating layer res2b_res2b_relu_0_split
I0310 23:53:25.120863  8521 net.cpp:106] Creating Layer res2b_res2b_relu_0_split
I0310 23:53:25.120882  8521 net.cpp:454] res2b_res2b_relu_0_split <- res2b
I0310 23:53:25.120908  8521 net.cpp:411] res2b_res2b_relu_0_split -> res2b_res2b_relu_0_split_0
I0310 23:53:25.120934  8521 net.cpp:411] res2b_res2b_relu_0_split -> res2b_res2b_relu_0_split_1
I0310 23:53:25.121023  8521 net.cpp:150] Setting up res2b_res2b_relu_0_split
I0310 23:53:25.121052  8521 net.cpp:157] Top shape: 8 256 56 56 (6422528)
I0310 23:53:25.121073  8521 net.cpp:157] Top shape: 8 256 56 56 (6422528)
I0310 23:53:25.121089  8521 net.cpp:165] Memory required for data: 666338240
I0310 23:53:25.121106  8521 layer_factory.hpp:77] Creating layer res2c_branch2a
I0310 23:53:25.121132  8521 net.cpp:106] Creating Layer res2c_branch2a
I0310 23:53:25.121152  8521 net.cpp:454] res2c_branch2a <- res2b_res2b_relu_0_split_0
I0310 23:53:25.121176  8521 net.cpp:411] res2c_branch2a -> res2c_branch2a
I0310 23:53:25.121595  8521 net.cpp:150] Setting up res2c_branch2a
I0310 23:53:25.121634  8521 net.cpp:157] Top shape: 8 64 56 56 (1605632)
I0310 23:53:25.121651  8521 net.cpp:165] Memory required for data: 672760768
I0310 23:53:25.121673  8521 layer_factory.hpp:77] Creating layer bn2c_branch2a
I0310 23:53:25.121698  8521 net.cpp:106] Creating Layer bn2c_branch2a
I0310 23:53:25.121745  8521 net.cpp:454] bn2c_branch2a <- res2c_branch2a
I0310 23:53:25.121778  8521 net.cpp:397] bn2c_branch2a -> res2c_branch2a (in-place)
I0310 23:53:25.122195  8521 net.cpp:150] Setting up bn2c_branch2a
I0310 23:53:25.122227  8521 net.cpp:157] Top shape: 8 64 56 56 (1605632)
I0310 23:53:25.122246  8521 net.cpp:165] Memory required for data: 679183296
I0310 23:53:25.122273  8521 layer_factory.hpp:77] Creating layer scale2c_branch2a
I0310 23:53:25.122298  8521 net.cpp:106] Creating Layer scale2c_branch2a
I0310 23:53:25.122316  8521 net.cpp:454] scale2c_branch2a <- res2c_branch2a
I0310 23:53:25.122344  8521 net.cpp:397] scale2c_branch2a -> res2c_branch2a (in-place)
I0310 23:53:25.122443  8521 layer_factory.hpp:77] Creating layer scale2c_branch2a
I0310 23:53:25.122726  8521 net.cpp:150] Setting up scale2c_branch2a
I0310 23:53:25.122759  8521 net.cpp:157] Top shape: 8 64 56 56 (1605632)
I0310 23:53:25.122777  8521 net.cpp:165] Memory required for data: 685605824
I0310 23:53:25.122803  8521 layer_factory.hpp:77] Creating layer res2c_branch2a_relu
I0310 23:53:25.122826  8521 net.cpp:106] Creating Layer res2c_branch2a_relu
I0310 23:53:25.122845  8521 net.cpp:454] res2c_branch2a_relu <- res2c_branch2a
I0310 23:53:25.122874  8521 net.cpp:397] res2c_branch2a_relu -> res2c_branch2a (in-place)
I0310 23:53:25.122900  8521 net.cpp:150] Setting up res2c_branch2a_relu
I0310 23:53:25.122921  8521 net.cpp:157] Top shape: 8 64 56 56 (1605632)
I0310 23:53:25.122939  8521 net.cpp:165] Memory required for data: 692028352
I0310 23:53:25.122956  8521 layer_factory.hpp:77] Creating layer res2c_branch2b
I0310 23:53:25.122982  8521 net.cpp:106] Creating Layer res2c_branch2b
I0310 23:53:25.123000  8521 net.cpp:454] res2c_branch2b <- res2c_branch2a
I0310 23:53:25.123031  8521 net.cpp:411] res2c_branch2b -> res2c_branch2b
I0310 23:53:25.123550  8521 net.cpp:150] Setting up res2c_branch2b
I0310 23:53:25.123589  8521 net.cpp:157] Top shape: 8 64 56 56 (1605632)
I0310 23:53:25.123607  8521 net.cpp:165] Memory required for data: 698450880
I0310 23:53:25.123631  8521 layer_factory.hpp:77] Creating layer bn2c_branch2b
I0310 23:53:25.123654  8521 net.cpp:106] Creating Layer bn2c_branch2b
I0310 23:53:25.123673  8521 net.cpp:454] bn2c_branch2b <- res2c_branch2b
I0310 23:53:25.123695  8521 net.cpp:397] bn2c_branch2b -> res2c_branch2b (in-place)
I0310 23:53:25.124188  8521 net.cpp:150] Setting up bn2c_branch2b
I0310 23:53:25.124225  8521 net.cpp:157] Top shape: 8 64 56 56 (1605632)
I0310 23:53:25.124243  8521 net.cpp:165] Memory required for data: 704873408
I0310 23:53:25.124274  8521 layer_factory.hpp:77] Creating layer scale2c_branch2b
I0310 23:53:25.124303  8521 net.cpp:106] Creating Layer scale2c_branch2b
I0310 23:53:25.124321  8521 net.cpp:454] scale2c_branch2b <- res2c_branch2b
I0310 23:53:25.124344  8521 net.cpp:397] scale2c_branch2b -> res2c_branch2b (in-place)
I0310 23:53:25.125223  8521 layer_factory.hpp:77] Creating layer scale2c_branch2b
I0310 23:53:25.125574  8521 net.cpp:150] Setting up scale2c_branch2b
I0310 23:53:25.125619  8521 net.cpp:157] Top shape: 8 64 56 56 (1605632)
I0310 23:53:25.125639  8521 net.cpp:165] Memory required for data: 711295936
I0310 23:53:25.125669  8521 layer_factory.hpp:77] Creating layer res2c_branch2b_relu
I0310 23:53:25.125694  8521 net.cpp:106] Creating Layer res2c_branch2b_relu
I0310 23:53:25.125715  8521 net.cpp:454] res2c_branch2b_relu <- res2c_branch2b
I0310 23:53:25.125737  8521 net.cpp:397] res2c_branch2b_relu -> res2c_branch2b (in-place)
I0310 23:53:25.125764  8521 net.cpp:150] Setting up res2c_branch2b_relu
I0310 23:53:25.125787  8521 net.cpp:157] Top shape: 8 64 56 56 (1605632)
I0310 23:53:25.125805  8521 net.cpp:165] Memory required for data: 717718464
I0310 23:53:25.125823  8521 layer_factory.hpp:77] Creating layer res2c_branch2c
I0310 23:53:25.125857  8521 net.cpp:106] Creating Layer res2c_branch2c
I0310 23:53:25.125877  8521 net.cpp:454] res2c_branch2c <- res2c_branch2b
I0310 23:53:25.125901  8521 net.cpp:411] res2c_branch2c -> res2c_branch2c
I0310 23:53:25.126349  8521 net.cpp:150] Setting up res2c_branch2c
I0310 23:53:25.126406  8521 net.cpp:157] Top shape: 8 256 56 56 (6422528)
I0310 23:53:25.126425  8521 net.cpp:165] Memory required for data: 743408576
I0310 23:53:25.126448  8521 layer_factory.hpp:77] Creating layer bn2c_branch2c
I0310 23:53:25.126472  8521 net.cpp:106] Creating Layer bn2c_branch2c
I0310 23:53:25.126530  8521 net.cpp:454] bn2c_branch2c <- res2c_branch2c
I0310 23:53:25.126555  8521 net.cpp:397] bn2c_branch2c -> res2c_branch2c (in-place)
I0310 23:53:25.126961  8521 net.cpp:150] Setting up bn2c_branch2c
I0310 23:53:25.126996  8521 net.cpp:157] Top shape: 8 256 56 56 (6422528)
I0310 23:53:25.127014  8521 net.cpp:165] Memory required for data: 769098688
I0310 23:53:25.127044  8521 layer_factory.hpp:77] Creating layer scale2c_branch2c
I0310 23:53:25.127084  8521 net.cpp:106] Creating Layer scale2c_branch2c
I0310 23:53:25.127106  8521 net.cpp:454] scale2c_branch2c <- res2c_branch2c
I0310 23:53:25.127130  8521 net.cpp:397] scale2c_branch2c -> res2c_branch2c (in-place)
I0310 23:53:25.127236  8521 layer_factory.hpp:77] Creating layer scale2c_branch2c
I0310 23:53:25.127511  8521 net.cpp:150] Setting up scale2c_branch2c
I0310 23:53:25.127544  8521 net.cpp:157] Top shape: 8 256 56 56 (6422528)
I0310 23:53:25.127562  8521 net.cpp:165] Memory required for data: 794788800
I0310 23:53:25.127616  8521 layer_factory.hpp:77] Creating layer res2c
I0310 23:53:25.127645  8521 net.cpp:106] Creating Layer res2c
I0310 23:53:25.127665  8521 net.cpp:454] res2c <- res2b_res2b_relu_0_split_1
I0310 23:53:25.127686  8521 net.cpp:454] res2c <- res2c_branch2c
I0310 23:53:25.127717  8521 net.cpp:411] res2c -> res2c
I0310 23:53:25.127786  8521 net.cpp:150] Setting up res2c
I0310 23:53:25.127816  8521 net.cpp:157] Top shape: 8 256 56 56 (6422528)
I0310 23:53:25.127835  8521 net.cpp:165] Memory required for data: 820478912
I0310 23:53:25.127853  8521 layer_factory.hpp:77] Creating layer res2c_relu
I0310 23:53:25.127876  8521 net.cpp:106] Creating Layer res2c_relu
I0310 23:53:25.127895  8521 net.cpp:454] res2c_relu <- res2c
I0310 23:53:25.127918  8521 net.cpp:397] res2c_relu -> res2c (in-place)
I0310 23:53:25.127943  8521 net.cpp:150] Setting up res2c_relu
I0310 23:53:25.127964  8521 net.cpp:157] Top shape: 8 256 56 56 (6422528)
I0310 23:53:25.127982  8521 net.cpp:165] Memory required for data: 846169024
I0310 23:53:25.128000  8521 layer_factory.hpp:77] Creating layer res2c_res2c_relu_0_split
I0310 23:53:25.128023  8521 net.cpp:106] Creating Layer res2c_res2c_relu_0_split
I0310 23:53:25.128041  8521 net.cpp:454] res2c_res2c_relu_0_split <- res2c
I0310 23:53:25.128074  8521 net.cpp:411] res2c_res2c_relu_0_split -> res2c_res2c_relu_0_split_0
I0310 23:53:25.128103  8521 net.cpp:411] res2c_res2c_relu_0_split -> res2c_res2c_relu_0_split_1
I0310 23:53:25.128187  8521 net.cpp:150] Setting up res2c_res2c_relu_0_split
I0310 23:53:25.128216  8521 net.cpp:157] Top shape: 8 256 56 56 (6422528)
I0310 23:53:25.128237  8521 net.cpp:157] Top shape: 8 256 56 56 (6422528)
I0310 23:53:25.128254  8521 net.cpp:165] Memory required for data: 897549248
I0310 23:53:25.128273  8521 layer_factory.hpp:77] Creating layer res3a_branch1
I0310 23:53:25.128306  8521 net.cpp:106] Creating Layer res3a_branch1
I0310 23:53:25.128327  8521 net.cpp:454] res3a_branch1 <- res2c_res2c_relu_0_split_0
I0310 23:53:25.128351  8521 net.cpp:411] res3a_branch1 -> res3a_branch1
I0310 23:53:25.130151  8521 net.cpp:150] Setting up res3a_branch1
I0310 23:53:25.130197  8521 net.cpp:157] Top shape: 8 512 28 28 (3211264)
I0310 23:53:25.130215  8521 net.cpp:165] Memory required for data: 910394304
I0310 23:53:25.130239  8521 layer_factory.hpp:77] Creating layer bn3a_branch1
I0310 23:53:25.130270  8521 net.cpp:106] Creating Layer bn3a_branch1
I0310 23:53:25.130290  8521 net.cpp:454] bn3a_branch1 <- res3a_branch1
I0310 23:53:25.130314  8521 net.cpp:397] bn3a_branch1 -> res3a_branch1 (in-place)
I0310 23:53:25.131857  8521 net.cpp:150] Setting up bn3a_branch1
I0310 23:53:25.131898  8521 net.cpp:157] Top shape: 8 512 28 28 (3211264)
I0310 23:53:25.131929  8521 net.cpp:165] Memory required for data: 923239360
I0310 23:53:25.131989  8521 layer_factory.hpp:77] Creating layer scale3a_branch1
I0310 23:53:25.132016  8521 net.cpp:106] Creating Layer scale3a_branch1
I0310 23:53:25.132036  8521 net.cpp:454] scale3a_branch1 <- res3a_branch1
I0310 23:53:25.132060  8521 net.cpp:397] scale3a_branch1 -> res3a_branch1 (in-place)
I0310 23:53:25.132175  8521 layer_factory.hpp:77] Creating layer scale3a_branch1
I0310 23:53:25.132441  8521 net.cpp:150] Setting up scale3a_branch1
I0310 23:53:25.132475  8521 net.cpp:157] Top shape: 8 512 28 28 (3211264)
I0310 23:53:25.132493  8521 net.cpp:165] Memory required for data: 936084416
I0310 23:53:25.132519  8521 layer_factory.hpp:77] Creating layer res3a_branch2a
I0310 23:53:25.132553  8521 net.cpp:106] Creating Layer res3a_branch2a
I0310 23:53:25.132575  8521 net.cpp:454] res3a_branch2a <- res2c_res2c_relu_0_split_1
I0310 23:53:25.132603  8521 net.cpp:411] res3a_branch2a -> res3a_branch2a
I0310 23:53:25.133044  8521 net.cpp:150] Setting up res3a_branch2a
I0310 23:53:25.133080  8521 net.cpp:157] Top shape: 8 128 28 28 (802816)
I0310 23:53:25.133098  8521 net.cpp:165] Memory required for data: 939295680
I0310 23:53:25.133121  8521 layer_factory.hpp:77] Creating layer bn3a_branch2a
I0310 23:53:25.133146  8521 net.cpp:106] Creating Layer bn3a_branch2a
I0310 23:53:25.133164  8521 net.cpp:454] bn3a_branch2a <- res3a_branch2a
I0310 23:53:25.133186  8521 net.cpp:397] bn3a_branch2a -> res3a_branch2a (in-place)
I0310 23:53:25.133604  8521 net.cpp:150] Setting up bn3a_branch2a
I0310 23:53:25.133641  8521 net.cpp:157] Top shape: 8 128 28 28 (802816)
I0310 23:53:25.133658  8521 net.cpp:165] Memory required for data: 942506944
I0310 23:53:25.133695  8521 layer_factory.hpp:77] Creating layer scale3a_branch2a
I0310 23:53:25.133721  8521 net.cpp:106] Creating Layer scale3a_branch2a
I0310 23:53:25.133741  8521 net.cpp:454] scale3a_branch2a <- res3a_branch2a
I0310 23:53:25.133764  8521 net.cpp:397] scale3a_branch2a -> res3a_branch2a (in-place)
I0310 23:53:25.133870  8521 layer_factory.hpp:77] Creating layer scale3a_branch2a
I0310 23:53:25.134136  8521 net.cpp:150] Setting up scale3a_branch2a
I0310 23:53:25.134171  8521 net.cpp:157] Top shape: 8 128 28 28 (802816)
I0310 23:53:25.134188  8521 net.cpp:165] Memory required for data: 945718208
I0310 23:53:25.134214  8521 layer_factory.hpp:77] Creating layer res3a_branch2a_relu
I0310 23:53:25.134243  8521 net.cpp:106] Creating Layer res3a_branch2a_relu
I0310 23:53:25.134263  8521 net.cpp:454] res3a_branch2a_relu <- res3a_branch2a
I0310 23:53:25.134285  8521 net.cpp:397] res3a_branch2a_relu -> res3a_branch2a (in-place)
I0310 23:53:25.134310  8521 net.cpp:150] Setting up res3a_branch2a_relu
I0310 23:53:25.134333  8521 net.cpp:157] Top shape: 8 128 28 28 (802816)
I0310 23:53:25.134351  8521 net.cpp:165] Memory required for data: 948929472
I0310 23:53:25.134368  8521 layer_factory.hpp:77] Creating layer res3a_branch2b
I0310 23:53:25.134399  8521 net.cpp:106] Creating Layer res3a_branch2b
I0310 23:53:25.134418  8521 net.cpp:454] res3a_branch2b <- res3a_branch2a
I0310 23:53:25.134441  8521 net.cpp:411] res3a_branch2b -> res3a_branch2b
I0310 23:53:25.136204  8521 net.cpp:150] Setting up res3a_branch2b
I0310 23:53:25.136245  8521 net.cpp:157] Top shape: 8 128 28 28 (802816)
I0310 23:53:25.136265  8521 net.cpp:165] Memory required for data: 952140736
I0310 23:53:25.136287  8521 layer_factory.hpp:77] Creating layer bn3a_branch2b
I0310 23:53:25.136312  8521 net.cpp:106] Creating Layer bn3a_branch2b
I0310 23:53:25.136332  8521 net.cpp:454] bn3a_branch2b <- res3a_branch2b
I0310 23:53:25.136355  8521 net.cpp:397] bn3a_branch2b -> res3a_branch2b (in-place)
I0310 23:53:25.136759  8521 net.cpp:150] Setting up bn3a_branch2b
I0310 23:53:25.136791  8521 net.cpp:157] Top shape: 8 128 28 28 (802816)
I0310 23:53:25.136811  8521 net.cpp:165] Memory required for data: 955352000
I0310 23:53:25.136839  8521 layer_factory.hpp:77] Creating layer scale3a_branch2b
I0310 23:53:25.136870  8521 net.cpp:106] Creating Layer scale3a_branch2b
I0310 23:53:25.136905  8521 net.cpp:454] scale3a_branch2b <- res3a_branch2b
I0310 23:53:25.136948  8521 net.cpp:397] scale3a_branch2b -> res3a_branch2b (in-place)
I0310 23:53:25.137060  8521 layer_factory.hpp:77] Creating layer scale3a_branch2b
I0310 23:53:25.137578  8521 net.cpp:150] Setting up scale3a_branch2b
I0310 23:53:25.137619  8521 net.cpp:157] Top shape: 8 128 28 28 (802816)
I0310 23:53:25.137637  8521 net.cpp:165] Memory required for data: 958563264
I0310 23:53:25.137662  8521 layer_factory.hpp:77] Creating layer res3a_branch2b_relu
I0310 23:53:25.137687  8521 net.cpp:106] Creating Layer res3a_branch2b_relu
I0310 23:53:25.137706  8521 net.cpp:454] res3a_branch2b_relu <- res3a_branch2b
I0310 23:53:25.137733  8521 net.cpp:397] res3a_branch2b_relu -> res3a_branch2b (in-place)
I0310 23:53:25.137761  8521 net.cpp:150] Setting up res3a_branch2b_relu
I0310 23:53:25.137784  8521 net.cpp:157] Top shape: 8 128 28 28 (802816)
I0310 23:53:25.137801  8521 net.cpp:165] Memory required for data: 961774528
I0310 23:53:25.137820  8521 layer_factory.hpp:77] Creating layer res3a_branch2c
I0310 23:53:25.137868  8521 net.cpp:106] Creating Layer res3a_branch2c
I0310 23:53:25.137892  8521 net.cpp:454] res3a_branch2c <- res3a_branch2b
I0310 23:53:25.137920  8521 net.cpp:411] res3a_branch2c -> res3a_branch2c
I0310 23:53:25.138438  8521 net.cpp:150] Setting up res3a_branch2c
I0310 23:53:25.138474  8521 net.cpp:157] Top shape: 8 512 28 28 (3211264)
I0310 23:53:25.138492  8521 net.cpp:165] Memory required for data: 974619584
I0310 23:53:25.138516  8521 layer_factory.hpp:77] Creating layer bn3a_branch2c
I0310 23:53:25.138550  8521 net.cpp:106] Creating Layer bn3a_branch2c
I0310 23:53:25.138571  8521 net.cpp:454] bn3a_branch2c <- res3a_branch2c
I0310 23:53:25.138592  8521 net.cpp:397] bn3a_branch2c -> res3a_branch2c (in-place)
I0310 23:53:25.138988  8521 net.cpp:150] Setting up bn3a_branch2c
I0310 23:53:25.139021  8521 net.cpp:157] Top shape: 8 512 28 28 (3211264)
I0310 23:53:25.139039  8521 net.cpp:165] Memory required for data: 987464640
I0310 23:53:25.139070  8521 layer_factory.hpp:77] Creating layer scale3a_branch2c
I0310 23:53:25.139094  8521 net.cpp:106] Creating Layer scale3a_branch2c
I0310 23:53:25.139113  8521 net.cpp:454] scale3a_branch2c <- res3a_branch2c
I0310 23:53:25.139135  8521 net.cpp:397] scale3a_branch2c -> res3a_branch2c (in-place)
I0310 23:53:25.139246  8521 layer_factory.hpp:77] Creating layer scale3a_branch2c
I0310 23:53:25.139504  8521 net.cpp:150] Setting up scale3a_branch2c
I0310 23:53:25.139536  8521 net.cpp:157] Top shape: 8 512 28 28 (3211264)
I0310 23:53:25.139554  8521 net.cpp:165] Memory required for data: 1000309696
I0310 23:53:25.139580  8521 layer_factory.hpp:77] Creating layer res3a
I0310 23:53:25.139611  8521 net.cpp:106] Creating Layer res3a
I0310 23:53:25.139631  8521 net.cpp:454] res3a <- res3a_branch1
I0310 23:53:25.139652  8521 net.cpp:454] res3a <- res3a_branch2c
I0310 23:53:25.139674  8521 net.cpp:411] res3a -> res3a
I0310 23:53:25.139746  8521 net.cpp:150] Setting up res3a
I0310 23:53:25.139777  8521 net.cpp:157] Top shape: 8 512 28 28 (3211264)
I0310 23:53:25.139796  8521 net.cpp:165] Memory required for data: 1013154752
I0310 23:53:25.139812  8521 layer_factory.hpp:77] Creating layer res3a_relu
I0310 23:53:25.139834  8521 net.cpp:106] Creating Layer res3a_relu
I0310 23:53:25.139854  8521 net.cpp:454] res3a_relu <- res3a
I0310 23:53:25.139881  8521 net.cpp:397] res3a_relu -> res3a (in-place)
I0310 23:53:25.139907  8521 net.cpp:150] Setting up res3a_relu
I0310 23:53:25.139930  8521 net.cpp:157] Top shape: 8 512 28 28 (3211264)
I0310 23:53:25.139947  8521 net.cpp:165] Memory required for data: 1025999808
I0310 23:53:25.139966  8521 layer_factory.hpp:77] Creating layer res3a_res3a_relu_0_split
I0310 23:53:25.139987  8521 net.cpp:106] Creating Layer res3a_res3a_relu_0_split
I0310 23:53:25.140005  8521 net.cpp:454] res3a_res3a_relu_0_split <- res3a
I0310 23:53:25.140027  8521 net.cpp:411] res3a_res3a_relu_0_split -> res3a_res3a_relu_0_split_0
I0310 23:53:25.140053  8521 net.cpp:411] res3a_res3a_relu_0_split -> res3a_res3a_relu_0_split_1
I0310 23:53:25.140180  8521 net.cpp:150] Setting up res3a_res3a_relu_0_split
I0310 23:53:25.140213  8521 net.cpp:157] Top shape: 8 512 28 28 (3211264)
I0310 23:53:25.140233  8521 net.cpp:157] Top shape: 8 512 28 28 (3211264)
I0310 23:53:25.140249  8521 net.cpp:165] Memory required for data: 1051689920
I0310 23:53:25.140267  8521 layer_factory.hpp:77] Creating layer res3b1_branch2a
I0310 23:53:25.140300  8521 net.cpp:106] Creating Layer res3b1_branch2a
I0310 23:53:25.140321  8521 net.cpp:454] res3b1_branch2a <- res3a_res3a_relu_0_split_0
I0310 23:53:25.140343  8521 net.cpp:411] res3b1_branch2a -> res3b1_branch2a
I0310 23:53:25.142019  8521 net.cpp:150] Setting up res3b1_branch2a
I0310 23:53:25.142066  8521 net.cpp:157] Top shape: 8 128 28 28 (802816)
I0310 23:53:25.142086  8521 net.cpp:165] Memory required for data: 1054901184
I0310 23:53:25.142108  8521 layer_factory.hpp:77] Creating layer bn3b1_branch2a
I0310 23:53:25.142140  8521 net.cpp:106] Creating Layer bn3b1_branch2a
I0310 23:53:25.142161  8521 net.cpp:454] bn3b1_branch2a <- res3b1_branch2a
I0310 23:53:25.142184  8521 net.cpp:397] bn3b1_branch2a -> res3b1_branch2a (in-place)
I0310 23:53:25.142593  8521 net.cpp:150] Setting up bn3b1_branch2a
I0310 23:53:25.142627  8521 net.cpp:157] Top shape: 8 128 28 28 (802816)
I0310 23:53:25.142644  8521 net.cpp:165] Memory required for data: 1058112448
I0310 23:53:25.142673  8521 layer_factory.hpp:77] Creating layer scale3b1_branch2a
I0310 23:53:25.142699  8521 net.cpp:106] Creating Layer scale3b1_branch2a
I0310 23:53:25.142719  8521 net.cpp:454] scale3b1_branch2a <- res3b1_branch2a
I0310 23:53:25.142747  8521 net.cpp:397] scale3b1_branch2a -> res3b1_branch2a (in-place)
I0310 23:53:25.142850  8521 layer_factory.hpp:77] Creating layer scale3b1_branch2a
I0310 23:53:25.143126  8521 net.cpp:150] Setting up scale3b1_branch2a
I0310 23:53:25.143164  8521 net.cpp:157] Top shape: 8 128 28 28 (802816)
I0310 23:53:25.143182  8521 net.cpp:165] Memory required for data: 1061323712
I0310 23:53:25.143208  8521 layer_factory.hpp:77] Creating layer res3b1_branch2a_relu
I0310 23:53:25.143232  8521 net.cpp:106] Creating Layer res3b1_branch2a_relu
I0310 23:53:25.143251  8521 net.cpp:454] res3b1_branch2a_relu <- res3b1_branch2a
I0310 23:53:25.143273  8521 net.cpp:397] res3b1_branch2a_relu -> res3b1_branch2a (in-place)
I0310 23:53:25.143299  8521 net.cpp:150] Setting up res3b1_branch2a_relu
I0310 23:53:25.143321  8521 net.cpp:157] Top shape: 8 128 28 28 (802816)
I0310 23:53:25.143338  8521 net.cpp:165] Memory required for data: 1064534976
I0310 23:53:25.143357  8521 layer_factory.hpp:77] Creating layer res3b1_branch2b
I0310 23:53:25.143388  8521 net.cpp:106] Creating Layer res3b1_branch2b
I0310 23:53:25.143407  8521 net.cpp:454] res3b1_branch2b <- res3b1_branch2a
I0310 23:53:25.143432  8521 net.cpp:411] res3b1_branch2b -> res3b1_branch2b
I0310 23:53:25.145202  8521 net.cpp:150] Setting up res3b1_branch2b
I0310 23:53:25.145244  8521 net.cpp:157] Top shape: 8 128 28 28 (802816)
I0310 23:53:25.145279  8521 net.cpp:165] Memory required for data: 1067746240
I0310 23:53:25.145304  8521 layer_factory.hpp:77] Creating layer bn3b1_branch2b
I0310 23:53:25.145344  8521 net.cpp:106] Creating Layer bn3b1_branch2b
I0310 23:53:25.145365  8521 net.cpp:454] bn3b1_branch2b <- res3b1_branch2b
I0310 23:53:25.145388  8521 net.cpp:397] bn3b1_branch2b -> res3b1_branch2b (in-place)
I0310 23:53:25.145803  8521 net.cpp:150] Setting up bn3b1_branch2b
I0310 23:53:25.145836  8521 net.cpp:157] Top shape: 8 128 28 28 (802816)
I0310 23:53:25.145854  8521 net.cpp:165] Memory required for data: 1070957504
I0310 23:53:25.145884  8521 layer_factory.hpp:77] Creating layer scale3b1_branch2b
I0310 23:53:25.145910  8521 net.cpp:106] Creating Layer scale3b1_branch2b
I0310 23:53:25.145928  8521 net.cpp:454] scale3b1_branch2b <- res3b1_branch2b
I0310 23:53:25.145952  8521 net.cpp:397] scale3b1_branch2b -> res3b1_branch2b (in-place)
I0310 23:53:25.146064  8521 layer_factory.hpp:77] Creating layer scale3b1_branch2b
I0310 23:53:25.146332  8521 net.cpp:150] Setting up scale3b1_branch2b
I0310 23:53:25.146378  8521 net.cpp:157] Top shape: 8 128 28 28 (802816)
I0310 23:53:25.146415  8521 net.cpp:165] Memory required for data: 1074168768
I0310 23:53:25.146442  8521 layer_factory.hpp:77] Creating layer res3b1_branch2b_relu
I0310 23:53:25.146466  8521 net.cpp:106] Creating Layer res3b1_branch2b_relu
I0310 23:53:25.146492  8521 net.cpp:454] res3b1_branch2b_relu <- res3b1_branch2b
I0310 23:53:25.146513  8521 net.cpp:397] res3b1_branch2b_relu -> res3b1_branch2b (in-place)
I0310 23:53:25.146539  8521 net.cpp:150] Setting up res3b1_branch2b_relu
I0310 23:53:25.146561  8521 net.cpp:157] Top shape: 8 128 28 28 (802816)
I0310 23:53:25.146579  8521 net.cpp:165] Memory required for data: 1077380032
I0310 23:53:25.146596  8521 layer_factory.hpp:77] Creating layer res3b1_branch2c
I0310 23:53:25.146621  8521 net.cpp:106] Creating Layer res3b1_branch2c
I0310 23:53:25.146641  8521 net.cpp:454] res3b1_branch2c <- res3b1_branch2b
I0310 23:53:25.146669  8521 net.cpp:411] res3b1_branch2c -> res3b1_branch2c
I0310 23:53:25.147171  8521 net.cpp:150] Setting up res3b1_branch2c
I0310 23:53:25.147207  8521 net.cpp:157] Top shape: 8 512 28 28 (3211264)
I0310 23:53:25.147224  8521 net.cpp:165] Memory required for data: 1090225088
I0310 23:53:25.147246  8521 layer_factory.hpp:77] Creating layer bn3b1_branch2c
I0310 23:53:25.147279  8521 net.cpp:106] Creating Layer bn3b1_branch2c
I0310 23:53:25.147300  8521 net.cpp:454] bn3b1_branch2c <- res3b1_branch2c
I0310 23:53:25.147323  8521 net.cpp:397] bn3b1_branch2c -> res3b1_branch2c (in-place)
I0310 23:53:25.147732  8521 net.cpp:150] Setting up bn3b1_branch2c
I0310 23:53:25.147764  8521 net.cpp:157] Top shape: 8 512 28 28 (3211264)
I0310 23:53:25.147783  8521 net.cpp:165] Memory required for data: 1103070144
I0310 23:53:25.147811  8521 layer_factory.hpp:77] Creating layer scale3b1_branch2c
I0310 23:53:25.147835  8521 net.cpp:106] Creating Layer scale3b1_branch2c
I0310 23:53:25.147855  8521 net.cpp:454] scale3b1_branch2c <- res3b1_branch2c
I0310 23:53:25.147891  8521 net.cpp:397] scale3b1_branch2c -> res3b1_branch2c (in-place)
I0310 23:53:25.148000  8521 layer_factory.hpp:77] Creating layer scale3b1_branch2c
I0310 23:53:25.148270  8521 net.cpp:150] Setting up scale3b1_branch2c
I0310 23:53:25.148304  8521 net.cpp:157] Top shape: 8 512 28 28 (3211264)
I0310 23:53:25.148321  8521 net.cpp:165] Memory required for data: 1115915200
I0310 23:53:25.148346  8521 layer_factory.hpp:77] Creating layer res3b1
I0310 23:53:25.148370  8521 net.cpp:106] Creating Layer res3b1
I0310 23:53:25.148391  8521 net.cpp:454] res3b1 <- res3a_res3a_relu_0_split_1
I0310 23:53:25.148411  8521 net.cpp:454] res3b1 <- res3b1_branch2c
I0310 23:53:25.148434  8521 net.cpp:411] res3b1 -> res3b1
I0310 23:53:25.148509  8521 net.cpp:150] Setting up res3b1
I0310 23:53:25.148540  8521 net.cpp:157] Top shape: 8 512 28 28 (3211264)
I0310 23:53:25.148556  8521 net.cpp:165] Memory required for data: 1128760256
I0310 23:53:25.148574  8521 layer_factory.hpp:77] Creating layer res3b1_relu
I0310 23:53:25.148602  8521 net.cpp:106] Creating Layer res3b1_relu
I0310 23:53:25.148622  8521 net.cpp:454] res3b1_relu <- res3b1
I0310 23:53:25.148644  8521 net.cpp:397] res3b1_relu -> res3b1 (in-place)
I0310 23:53:25.148669  8521 net.cpp:150] Setting up res3b1_relu
I0310 23:53:25.148691  8521 net.cpp:157] Top shape: 8 512 28 28 (3211264)
I0310 23:53:25.148708  8521 net.cpp:165] Memory required for data: 1141605312
I0310 23:53:25.148726  8521 layer_factory.hpp:77] Creating layer res3b1_res3b1_relu_0_split
I0310 23:53:25.148748  8521 net.cpp:106] Creating Layer res3b1_res3b1_relu_0_split
I0310 23:53:25.148767  8521 net.cpp:454] res3b1_res3b1_relu_0_split <- res3b1
I0310 23:53:25.148797  8521 net.cpp:411] res3b1_res3b1_relu_0_split -> res3b1_res3b1_relu_0_split_0
I0310 23:53:25.148824  8521 net.cpp:411] res3b1_res3b1_relu_0_split -> res3b1_res3b1_relu_0_split_1
I0310 23:53:25.148913  8521 net.cpp:150] Setting up res3b1_res3b1_relu_0_split
I0310 23:53:25.148942  8521 net.cpp:157] Top shape: 8 512 28 28 (3211264)
I0310 23:53:25.148977  8521 net.cpp:157] Top shape: 8 512 28 28 (3211264)
I0310 23:53:25.149009  8521 net.cpp:165] Memory required for data: 1167295424
I0310 23:53:25.149029  8521 layer_factory.hpp:77] Creating layer res3b2_branch2a
I0310 23:53:25.149061  8521 net.cpp:106] Creating Layer res3b2_branch2a
I0310 23:53:25.149082  8521 net.cpp:454] res3b2_branch2a <- res3b1_res3b1_relu_0_split_0
I0310 23:53:25.149106  8521 net.cpp:411] res3b2_branch2a -> res3b2_branch2a
I0310 23:53:25.149641  8521 net.cpp:150] Setting up res3b2_branch2a
I0310 23:53:25.149680  8521 net.cpp:157] Top shape: 8 128 28 28 (802816)
I0310 23:53:25.149698  8521 net.cpp:165] Memory required for data: 1170506688
I0310 23:53:25.149721  8521 layer_factory.hpp:77] Creating layer bn3b2_branch2a
I0310 23:53:25.149746  8521 net.cpp:106] Creating Layer bn3b2_branch2a
I0310 23:53:25.149766  8521 net.cpp:454] bn3b2_branch2a <- res3b2_branch2a
I0310 23:53:25.149788  8521 net.cpp:397] bn3b2_branch2a -> res3b2_branch2a (in-place)
I0310 23:53:25.150203  8521 net.cpp:150] Setting up bn3b2_branch2a
I0310 23:53:25.150236  8521 net.cpp:157] Top shape: 8 128 28 28 (802816)
I0310 23:53:25.150254  8521 net.cpp:165] Memory required for data: 1173717952
I0310 23:53:25.150292  8521 layer_factory.hpp:77] Creating layer scale3b2_branch2a
I0310 23:53:25.150318  8521 net.cpp:106] Creating Layer scale3b2_branch2a
I0310 23:53:25.150338  8521 net.cpp:454] scale3b2_branch2a <- res3b2_branch2a
I0310 23:53:25.150362  8521 net.cpp:397] scale3b2_branch2a -> res3b2_branch2a (in-place)
I0310 23:53:25.150470  8521 layer_factory.hpp:77] Creating layer scale3b2_branch2a
I0310 23:53:25.150743  8521 net.cpp:150] Setting up scale3b2_branch2a
I0310 23:53:25.150775  8521 net.cpp:157] Top shape: 8 128 28 28 (802816)
I0310 23:53:25.150794  8521 net.cpp:165] Memory required for data: 1176929216
I0310 23:53:25.150818  8521 layer_factory.hpp:77] Creating layer res3b2_branch2a_relu
I0310 23:53:25.150847  8521 net.cpp:106] Creating Layer res3b2_branch2a_relu
I0310 23:53:25.150867  8521 net.cpp:454] res3b2_branch2a_relu <- res3b2_branch2a
I0310 23:53:25.150889  8521 net.cpp:397] res3b2_branch2a_relu -> res3b2_branch2a (in-place)
I0310 23:53:25.150915  8521 net.cpp:150] Setting up res3b2_branch2a_relu
I0310 23:53:25.150938  8521 net.cpp:157] Top shape: 8 128 28 28 (802816)
I0310 23:53:25.150954  8521 net.cpp:165] Memory required for data: 1180140480
I0310 23:53:25.150971  8521 layer_factory.hpp:77] Creating layer res3b2_branch2b
I0310 23:53:25.151003  8521 net.cpp:106] Creating Layer res3b2_branch2b
I0310 23:53:25.151022  8521 net.cpp:454] res3b2_branch2b <- res3b2_branch2a
I0310 23:53:25.151046  8521 net.cpp:411] res3b2_branch2b -> res3b2_branch2b
I0310 23:53:25.152827  8521 net.cpp:150] Setting up res3b2_branch2b
I0310 23:53:25.152869  8521 net.cpp:157] Top shape: 8 128 28 28 (802816)
I0310 23:53:25.152889  8521 net.cpp:165] Memory required for data: 1183351744
I0310 23:53:25.152912  8521 layer_factory.hpp:77] Creating layer bn3b2_branch2b
I0310 23:53:25.152937  8521 net.cpp:106] Creating Layer bn3b2_branch2b
I0310 23:53:25.152957  8521 net.cpp:454] bn3b2_branch2b <- res3b2_branch2b
I0310 23:53:25.152981  8521 net.cpp:397] bn3b2_branch2b -> res3b2_branch2b (in-place)
I0310 23:53:25.153416  8521 net.cpp:150] Setting up bn3b2_branch2b
I0310 23:53:25.153453  8521 net.cpp:157] Top shape: 8 128 28 28 (802816)
I0310 23:53:25.153472  8521 net.cpp:165] Memory required for data: 1186563008
I0310 23:53:25.153502  8521 layer_factory.hpp:77] Creating layer scale3b2_branch2b
I0310 23:53:25.153534  8521 net.cpp:106] Creating Layer scale3b2_branch2b
I0310 23:53:25.153554  8521 net.cpp:454] scale3b2_branch2b <- res3b2_branch2b
I0310 23:53:25.153578  8521 net.cpp:397] scale3b2_branch2b -> res3b2_branch2b (in-place)
I0310 23:53:25.153690  8521 layer_factory.hpp:77] Creating layer scale3b2_branch2b
I0310 23:53:25.153964  8521 net.cpp:150] Setting up scale3b2_branch2b
I0310 23:53:25.153998  8521 net.cpp:157] Top shape: 8 128 28 28 (802816)
I0310 23:53:25.154016  8521 net.cpp:165] Memory required for data: 1189774272
I0310 23:53:25.154053  8521 layer_factory.hpp:77] Creating layer res3b2_branch2b_relu
I0310 23:53:25.154099  8521 net.cpp:106] Creating Layer res3b2_branch2b_relu
I0310 23:53:25.154120  8521 net.cpp:454] res3b2_branch2b_relu <- res3b2_branch2b
I0310 23:53:25.154155  8521 net.cpp:397] res3b2_branch2b_relu -> res3b2_branch2b (in-place)
I0310 23:53:25.154181  8521 net.cpp:150] Setting up res3b2_branch2b_relu
I0310 23:53:25.154203  8521 net.cpp:157] Top shape: 8 128 28 28 (802816)
I0310 23:53:25.154220  8521 net.cpp:165] Memory required for data: 1192985536
I0310 23:53:25.154238  8521 layer_factory.hpp:77] Creating layer res3b2_branch2c
I0310 23:53:25.154269  8521 net.cpp:106] Creating Layer res3b2_branch2c
I0310 23:53:25.154289  8521 net.cpp:454] res3b2_branch2c <- res3b2_branch2b
I0310 23:53:25.154312  8521 net.cpp:411] res3b2_branch2c -> res3b2_branch2c
I0310 23:53:25.154793  8521 net.cpp:150] Setting up res3b2_branch2c
I0310 23:53:25.154829  8521 net.cpp:157] Top shape: 8 512 28 28 (3211264)
I0310 23:53:25.154846  8521 net.cpp:165] Memory required for data: 1205830592
I0310 23:53:25.154868  8521 layer_factory.hpp:77] Creating layer bn3b2_branch2c
I0310 23:53:25.154892  8521 net.cpp:106] Creating Layer bn3b2_branch2c
I0310 23:53:25.154911  8521 net.cpp:454] bn3b2_branch2c <- res3b2_branch2c
I0310 23:53:25.154933  8521 net.cpp:397] bn3b2_branch2c -> res3b2_branch2c (in-place)
I0310 23:53:25.155344  8521 net.cpp:150] Setting up bn3b2_branch2c
I0310 23:53:25.155376  8521 net.cpp:157] Top shape: 8 512 28 28 (3211264)
I0310 23:53:25.155395  8521 net.cpp:165] Memory required for data: 1218675648
I0310 23:53:25.155424  8521 layer_factory.hpp:77] Creating layer scale3b2_branch2c
I0310 23:53:25.155455  8521 net.cpp:106] Creating Layer scale3b2_branch2c
I0310 23:53:25.155475  8521 net.cpp:454] scale3b2_branch2c <- res3b2_branch2c
I0310 23:53:25.155498  8521 net.cpp:397] scale3b2_branch2c -> res3b2_branch2c (in-place)
I0310 23:53:25.155608  8521 layer_factory.hpp:77] Creating layer scale3b2_branch2c
I0310 23:53:25.155870  8521 net.cpp:150] Setting up scale3b2_branch2c
I0310 23:53:25.155903  8521 net.cpp:157] Top shape: 8 512 28 28 (3211264)
I0310 23:53:25.155921  8521 net.cpp:165] Memory required for data: 1231520704
I0310 23:53:25.155946  8521 layer_factory.hpp:77] Creating layer res3b2
I0310 23:53:25.155972  8521 net.cpp:106] Creating Layer res3b2
I0310 23:53:25.155992  8521 net.cpp:454] res3b2 <- res3b1_res3b1_relu_0_split_1
I0310 23:53:25.156013  8521 net.cpp:454] res3b2 <- res3b2_branch2c
I0310 23:53:25.156040  8521 net.cpp:411] res3b2 -> res3b2
I0310 23:53:25.156116  8521 net.cpp:150] Setting up res3b2
I0310 23:53:25.156146  8521 net.cpp:157] Top shape: 8 512 28 28 (3211264)
I0310 23:53:25.156163  8521 net.cpp:165] Memory required for data: 1244365760
I0310 23:53:25.156182  8521 layer_factory.hpp:77] Creating layer res3b2_relu
I0310 23:53:25.156203  8521 net.cpp:106] Creating Layer res3b2_relu
I0310 23:53:25.156221  8521 net.cpp:454] res3b2_relu <- res3b2
I0310 23:53:25.156244  8521 net.cpp:397] res3b2_relu -> res3b2 (in-place)
I0310 23:53:25.156268  8521 net.cpp:150] Setting up res3b2_relu
I0310 23:53:25.156291  8521 net.cpp:157] Top shape: 8 512 28 28 (3211264)
I0310 23:53:25.156307  8521 net.cpp:165] Memory required for data: 1257210816
I0310 23:53:25.156325  8521 layer_factory.hpp:77] Creating layer res3b2_res3b2_relu_0_split
I0310 23:53:25.156355  8521 net.cpp:106] Creating Layer res3b2_res3b2_relu_0_split
I0310 23:53:25.156375  8521 net.cpp:454] res3b2_res3b2_relu_0_split <- res3b2
I0310 23:53:25.156397  8521 net.cpp:411] res3b2_res3b2_relu_0_split -> res3b2_res3b2_relu_0_split_0
I0310 23:53:25.156424  8521 net.cpp:411] res3b2_res3b2_relu_0_split -> res3b2_res3b2_relu_0_split_1
I0310 23:53:25.156517  8521 net.cpp:150] Setting up res3b2_res3b2_relu_0_split
I0310 23:53:25.156548  8521 net.cpp:157] Top shape: 8 512 28 28 (3211264)
I0310 23:53:25.156568  8521 net.cpp:157] Top shape: 8 512 28 28 (3211264)
I0310 23:53:25.156584  8521 net.cpp:165] Memory required for data: 1282900928
I0310 23:53:25.156602  8521 layer_factory.hpp:77] Creating layer res3b3_branch2a
I0310 23:53:25.156641  8521 net.cpp:106] Creating Layer res3b3_branch2a
I0310 23:53:25.156679  8521 net.cpp:454] res3b3_branch2a <- res3b2_res3b2_relu_0_split_0
I0310 23:53:25.156704  8521 net.cpp:411] res3b3_branch2a -> res3b3_branch2a
I0310 23:53:25.158381  8521 net.cpp:150] Setting up res3b3_branch2a
I0310 23:53:25.158427  8521 net.cpp:157] Top shape: 8 128 28 28 (802816)
I0310 23:53:25.158444  8521 net.cpp:165] Memory required for data: 1286112192
I0310 23:53:25.158468  8521 layer_factory.hpp:77] Creating layer bn3b3_branch2a
I0310 23:53:25.158494  8521 net.cpp:106] Creating Layer bn3b3_branch2a
I0310 23:53:25.158514  8521 net.cpp:454] bn3b3_branch2a <- res3b3_branch2a
I0310 23:53:25.158537  8521 net.cpp:397] bn3b3_branch2a -> res3b3_branch2a (in-place)
I0310 23:53:25.158959  8521 net.cpp:150] Setting up bn3b3_branch2a
I0310 23:53:25.158993  8521 net.cpp:157] Top shape: 8 128 28 28 (802816)
I0310 23:53:25.159010  8521 net.cpp:165] Memory required for data: 1289323456
I0310 23:53:25.159078  8521 layer_factory.hpp:77] Creating layer scale3b3_branch2a
I0310 23:53:25.159116  8521 net.cpp:106] Creating Layer scale3b3_branch2a
I0310 23:53:25.159137  8521 net.cpp:454] scale3b3_branch2a <- res3b3_branch2a
I0310 23:53:25.159162  8521 net.cpp:397] scale3b3_branch2a -> res3b3_branch2a (in-place)
I0310 23:53:25.159272  8521 layer_factory.hpp:77] Creating layer scale3b3_branch2a
I0310 23:53:25.159548  8521 net.cpp:150] Setting up scale3b3_branch2a
I0310 23:53:25.159581  8521 net.cpp:157] Top shape: 8 128 28 28 (802816)
I0310 23:53:25.159600  8521 net.cpp:165] Memory required for data: 1292534720
I0310 23:53:25.159626  8521 layer_factory.hpp:77] Creating layer res3b3_branch2a_relu
I0310 23:53:25.159651  8521 net.cpp:106] Creating Layer res3b3_branch2a_relu
I0310 23:53:25.159669  8521 net.cpp:454] res3b3_branch2a_relu <- res3b3_branch2a
I0310 23:53:25.159690  8521 net.cpp:397] res3b3_branch2a_relu -> res3b3_branch2a (in-place)
I0310 23:53:25.159716  8521 net.cpp:150] Setting up res3b3_branch2a_relu
I0310 23:53:25.159739  8521 net.cpp:157] Top shape: 8 128 28 28 (802816)
I0310 23:53:25.159756  8521 net.cpp:165] Memory required for data: 1295745984
I0310 23:53:25.159900  8521 layer_factory.hpp:77] Creating layer res3b3_branch2b
I0310 23:53:25.159920  8521 net.cpp:106] Creating Layer res3b3_branch2b
I0310 23:53:25.159931  8521 net.cpp:454] res3b3_branch2b <- res3b3_branch2a
I0310 23:53:25.159945  8521 net.cpp:411] res3b3_branch2b -> res3b3_branch2b
I0310 23:53:25.160989  8521 net.cpp:150] Setting up res3b3_branch2b
I0310 23:53:25.161011  8521 net.cpp:157] Top shape: 8 128 28 28 (802816)
I0310 23:53:25.161020  8521 net.cpp:165] Memory required for data: 1298957248
I0310 23:53:25.161033  8521 layer_factory.hpp:77] Creating layer bn3b3_branch2b
I0310 23:53:25.161046  8521 net.cpp:106] Creating Layer bn3b3_branch2b
I0310 23:53:25.161057  8521 net.cpp:454] bn3b3_branch2b <- res3b3_branch2b
I0310 23:53:25.161072  8521 net.cpp:397] bn3b3_branch2b -> res3b3_branch2b (in-place)
I0310 23:53:25.161309  8521 net.cpp:150] Setting up bn3b3_branch2b
I0310 23:53:25.161329  8521 net.cpp:157] Top shape: 8 128 28 28 (802816)
I0310 23:53:25.161337  8521 net.cpp:165] Memory required for data: 1302168512
I0310 23:53:25.161353  8521 layer_factory.hpp:77] Creating layer scale3b3_branch2b
I0310 23:53:25.161366  8521 net.cpp:106] Creating Layer scale3b3_branch2b
I0310 23:53:25.161376  8521 net.cpp:454] scale3b3_branch2b <- res3b3_branch2b
I0310 23:53:25.161388  8521 net.cpp:397] scale3b3_branch2b -> res3b3_branch2b (in-place)
I0310 23:53:25.161448  8521 layer_factory.hpp:77] Creating layer scale3b3_branch2b
I0310 23:53:25.161592  8521 net.cpp:150] Setting up scale3b3_branch2b
I0310 23:53:25.161609  8521 net.cpp:157] Top shape: 8 128 28 28 (802816)
I0310 23:53:25.161619  8521 net.cpp:165] Memory required for data: 1305379776
I0310 23:53:25.161633  8521 layer_factory.hpp:77] Creating layer res3b3_branch2b_relu
I0310 23:53:25.161645  8521 net.cpp:106] Creating Layer res3b3_branch2b_relu
I0310 23:53:25.161659  8521 net.cpp:454] res3b3_branch2b_relu <- res3b3_branch2b
I0310 23:53:25.161679  8521 net.cpp:397] res3b3_branch2b_relu -> res3b3_branch2b (in-place)
I0310 23:53:25.161702  8521 net.cpp:150] Setting up res3b3_branch2b_relu
I0310 23:53:25.161715  8521 net.cpp:157] Top shape: 8 128 28 28 (802816)
I0310 23:53:25.161725  8521 net.cpp:165] Memory required for data: 1308591040
I0310 23:53:25.161733  8521 layer_factory.hpp:77] Creating layer res3b3_branch2c
I0310 23:53:25.161747  8521 net.cpp:106] Creating Layer res3b3_branch2c
I0310 23:53:25.161757  8521 net.cpp:454] res3b3_branch2c <- res3b3_branch2b
I0310 23:53:25.161777  8521 net.cpp:411] res3b3_branch2c -> res3b3_branch2c
I0310 23:53:25.162052  8521 net.cpp:150] Setting up res3b3_branch2c
I0310 23:53:25.162071  8521 net.cpp:157] Top shape: 8 512 28 28 (3211264)
I0310 23:53:25.162081  8521 net.cpp:165] Memory required for data: 1321436096
I0310 23:53:25.162092  8521 layer_factory.hpp:77] Creating layer bn3b3_branch2c
I0310 23:53:25.162111  8521 net.cpp:106] Creating Layer bn3b3_branch2c
I0310 23:53:25.162122  8521 net.cpp:454] bn3b3_branch2c <- res3b3_branch2c
I0310 23:53:25.162133  8521 net.cpp:397] bn3b3_branch2c -> res3b3_branch2c (in-place)
I0310 23:53:25.162351  8521 net.cpp:150] Setting up bn3b3_branch2c
I0310 23:53:25.162369  8521 net.cpp:157] Top shape: 8 512 28 28 (3211264)
I0310 23:53:25.162379  8521 net.cpp:165] Memory required for data: 1334281152
I0310 23:53:25.162394  8521 layer_factory.hpp:77] Creating layer scale3b3_branch2c
I0310 23:53:25.162406  8521 net.cpp:106] Creating Layer scale3b3_branch2c
I0310 23:53:25.162416  8521 net.cpp:454] scale3b3_branch2c <- res3b3_branch2c
I0310 23:53:25.162431  8521 net.cpp:397] scale3b3_branch2c -> res3b3_branch2c (in-place)
I0310 23:53:25.162487  8521 layer_factory.hpp:77] Creating layer scale3b3_branch2c
I0310 23:53:25.162629  8521 net.cpp:150] Setting up scale3b3_branch2c
I0310 23:53:25.162647  8521 net.cpp:157] Top shape: 8 512 28 28 (3211264)
I0310 23:53:25.162655  8521 net.cpp:165] Memory required for data: 1347126208
I0310 23:53:25.162669  8521 layer_factory.hpp:77] Creating layer res3b3
I0310 23:53:25.162683  8521 net.cpp:106] Creating Layer res3b3
I0310 23:53:25.162693  8521 net.cpp:454] res3b3 <- res3b2_res3b2_relu_0_split_1
I0310 23:53:25.162703  8521 net.cpp:454] res3b3 <- res3b3_branch2c
I0310 23:53:25.162715  8521 net.cpp:411] res3b3 -> res3b3
I0310 23:53:25.162753  8521 net.cpp:150] Setting up res3b3
I0310 23:53:25.162770  8521 net.cpp:157] Top shape: 8 512 28 28 (3211264)
I0310 23:53:25.162778  8521 net.cpp:165] Memory required for data: 1359971264
I0310 23:53:25.162787  8521 layer_factory.hpp:77] Creating layer res3b3_relu
I0310 23:53:25.162802  8521 net.cpp:106] Creating Layer res3b3_relu
I0310 23:53:25.162812  8521 net.cpp:454] res3b3_relu <- res3b3
I0310 23:53:25.162824  8521 net.cpp:397] res3b3_relu -> res3b3 (in-place)
I0310 23:53:25.162837  8521 net.cpp:150] Setting up res3b3_relu
I0310 23:53:25.162848  8521 net.cpp:157] Top shape: 8 512 28 28 (3211264)
I0310 23:53:25.162858  8521 net.cpp:165] Memory required for data: 1372816320
I0310 23:53:25.162866  8521 layer_factory.hpp:77] Creating layer res3b3_res3b3_relu_0_split
I0310 23:53:25.162878  8521 net.cpp:106] Creating Layer res3b3_res3b3_relu_0_split
I0310 23:53:25.162888  8521 net.cpp:454] res3b3_res3b3_relu_0_split <- res3b3
I0310 23:53:25.162899  8521 net.cpp:411] res3b3_res3b3_relu_0_split -> res3b3_res3b3_relu_0_split_0
I0310 23:53:25.162916  8521 net.cpp:411] res3b3_res3b3_relu_0_split -> res3b3_res3b3_relu_0_split_1
I0310 23:53:25.162964  8521 net.cpp:150] Setting up res3b3_res3b3_relu_0_split
I0310 23:53:25.162981  8521 net.cpp:157] Top shape: 8 512 28 28 (3211264)
I0310 23:53:25.162991  8521 net.cpp:157] Top shape: 8 512 28 28 (3211264)
I0310 23:53:25.162999  8521 net.cpp:165] Memory required for data: 1398506432
I0310 23:53:25.163008  8521 layer_factory.hpp:77] Creating layer res3b4_branch2a
I0310 23:53:25.163025  8521 net.cpp:106] Creating Layer res3b4_branch2a
I0310 23:53:25.163036  8521 net.cpp:454] res3b4_branch2a <- res3b3_res3b3_relu_0_split_0
I0310 23:53:25.163049  8521 net.cpp:411] res3b4_branch2a -> res3b4_branch2a
I0310 23:53:25.163327  8521 net.cpp:150] Setting up res3b4_branch2a
I0310 23:53:25.163347  8521 net.cpp:157] Top shape: 8 128 28 28 (802816)
I0310 23:53:25.163355  8521 net.cpp:165] Memory required for data: 1401717696
I0310 23:53:25.163367  8521 layer_factory.hpp:77] Creating layer bn3b4_branch2a
I0310 23:53:25.163380  8521 net.cpp:106] Creating Layer bn3b4_branch2a
I0310 23:53:25.163390  8521 net.cpp:454] bn3b4_branch2a <- res3b4_branch2a
I0310 23:53:25.163403  8521 net.cpp:397] bn3b4_branch2a -> res3b4_branch2a (in-place)
I0310 23:53:25.163619  8521 net.cpp:150] Setting up bn3b4_branch2a
I0310 23:53:25.163637  8521 net.cpp:157] Top shape: 8 128 28 28 (802816)
I0310 23:53:25.163646  8521 net.cpp:165] Memory required for data: 1404928960
I0310 23:53:25.163669  8521 layer_factory.hpp:77] Creating layer scale3b4_branch2a
I0310 23:53:25.163684  8521 net.cpp:106] Creating Layer scale3b4_branch2a
I0310 23:53:25.163694  8521 net.cpp:454] scale3b4_branch2a <- res3b4_branch2a
I0310 23:53:25.163707  8521 net.cpp:397] scale3b4_branch2a -> res3b4_branch2a (in-place)
I0310 23:53:25.163763  8521 layer_factory.hpp:77] Creating layer scale3b4_branch2a
I0310 23:53:25.163904  8521 net.cpp:150] Setting up scale3b4_branch2a
I0310 23:53:25.163921  8521 net.cpp:157] Top shape: 8 128 28 28 (802816)
I0310 23:53:25.163930  8521 net.cpp:165] Memory required for data: 1408140224
I0310 23:53:25.163944  8521 layer_factory.hpp:77] Creating layer res3b4_branch2a_relu
I0310 23:53:25.163964  8521 net.cpp:106] Creating Layer res3b4_branch2a_relu
I0310 23:53:25.163975  8521 net.cpp:454] res3b4_branch2a_relu <- res3b4_branch2a
I0310 23:53:25.163986  8521 net.cpp:397] res3b4_branch2a_relu -> res3b4_branch2a (in-place)
I0310 23:53:25.164000  8521 net.cpp:150] Setting up res3b4_branch2a_relu
I0310 23:53:25.164011  8521 net.cpp:157] Top shape: 8 128 28 28 (802816)
I0310 23:53:25.164021  8521 net.cpp:165] Memory required for data: 1411351488
I0310 23:53:25.164031  8521 layer_factory.hpp:77] Creating layer res3b4_branch2b
I0310 23:53:25.164047  8521 net.cpp:106] Creating Layer res3b4_branch2b
I0310 23:53:25.164057  8521 net.cpp:454] res3b4_branch2b <- res3b4_branch2a
I0310 23:53:25.164069  8521 net.cpp:411] res3b4_branch2b -> res3b4_branch2b
I0310 23:53:25.165102  8521 net.cpp:150] Setting up res3b4_branch2b
I0310 23:53:25.165124  8521 net.cpp:157] Top shape: 8 128 28 28 (802816)
I0310 23:53:25.165134  8521 net.cpp:165] Memory required for data: 1414562752
I0310 23:53:25.165146  8521 layer_factory.hpp:77] Creating layer bn3b4_branch2b
I0310 23:53:25.165159  8521 net.cpp:106] Creating Layer bn3b4_branch2b
I0310 23:53:25.165170  8521 net.cpp:454] bn3b4_branch2b <- res3b4_branch2b
I0310 23:53:25.165181  8521 net.cpp:397] bn3b4_branch2b -> res3b4_branch2b (in-place)
I0310 23:53:25.165411  8521 net.cpp:150] Setting up bn3b4_branch2b
I0310 23:53:25.165431  8521 net.cpp:157] Top shape: 8 128 28 28 (802816)
I0310 23:53:25.165441  8521 net.cpp:165] Memory required for data: 1417774016
I0310 23:53:25.165457  8521 layer_factory.hpp:77] Creating layer scale3b4_branch2b
I0310 23:53:25.165472  8521 net.cpp:106] Creating Layer scale3b4_branch2b
I0310 23:53:25.165483  8521 net.cpp:454] scale3b4_branch2b <- res3b4_branch2b
I0310 23:53:25.165495  8521 net.cpp:397] scale3b4_branch2b -> res3b4_branch2b (in-place)
I0310 23:53:25.165555  8521 layer_factory.hpp:77] Creating layer scale3b4_branch2b
I0310 23:53:25.165704  8521 net.cpp:150] Setting up scale3b4_branch2b
I0310 23:53:25.165721  8521 net.cpp:157] Top shape: 8 128 28 28 (802816)
I0310 23:53:25.165730  8521 net.cpp:165] Memory required for data: 1420985280
I0310 23:53:25.165743  8521 layer_factory.hpp:77] Creating layer res3b4_branch2b_relu
I0310 23:53:25.165756  8521 net.cpp:106] Creating Layer res3b4_branch2b_relu
I0310 23:53:25.165767  8521 net.cpp:454] res3b4_branch2b_relu <- res3b4_branch2b
I0310 23:53:25.165781  8521 net.cpp:397] res3b4_branch2b_relu -> res3b4_branch2b (in-place)
I0310 23:53:25.165796  8521 net.cpp:150] Setting up res3b4_branch2b_relu
I0310 23:53:25.165814  8521 net.cpp:157] Top shape: 8 128 28 28 (802816)
I0310 23:53:25.165834  8521 net.cpp:165] Memory required for data: 1424196544
I0310 23:53:25.165844  8521 layer_factory.hpp:77] Creating layer res3b4_branch2c
I0310 23:53:25.165858  8521 net.cpp:106] Creating Layer res3b4_branch2c
I0310 23:53:25.165873  8521 net.cpp:454] res3b4_branch2c <- res3b4_branch2b
I0310 23:53:25.165884  8521 net.cpp:411] res3b4_branch2c -> res3b4_branch2c
I0310 23:53:25.166139  8521 net.cpp:150] Setting up res3b4_branch2c
I0310 23:53:25.166158  8521 net.cpp:157] Top shape: 8 512 28 28 (3211264)
I0310 23:53:25.166167  8521 net.cpp:165] Memory required for data: 1437041600
I0310 23:53:25.166179  8521 layer_factory.hpp:77] Creating layer bn3b4_branch2c
I0310 23:53:25.166193  8521 net.cpp:106] Creating Layer bn3b4_branch2c
I0310 23:53:25.166203  8521 net.cpp:454] bn3b4_branch2c <- res3b4_branch2c
I0310 23:53:25.166214  8521 net.cpp:397] bn3b4_branch2c -> res3b4_branch2c (in-place)
I0310 23:53:25.166440  8521 net.cpp:150] Setting up bn3b4_branch2c
I0310 23:53:25.166458  8521 net.cpp:157] Top shape: 8 512 28 28 (3211264)
I0310 23:53:25.166467  8521 net.cpp:165] Memory required for data: 1449886656
I0310 23:53:25.166483  8521 layer_factory.hpp:77] Creating layer scale3b4_branch2c
I0310 23:53:25.166499  8521 net.cpp:106] Creating Layer scale3b4_branch2c
I0310 23:53:25.166510  8521 net.cpp:454] scale3b4_branch2c <- res3b4_branch2c
I0310 23:53:25.166522  8521 net.cpp:397] scale3b4_branch2c -> res3b4_branch2c (in-place)
I0310 23:53:25.166582  8521 layer_factory.hpp:77] Creating layer scale3b4_branch2c
I0310 23:53:25.166726  8521 net.cpp:150] Setting up scale3b4_branch2c
I0310 23:53:25.166744  8521 net.cpp:157] Top shape: 8 512 28 28 (3211264)
I0310 23:53:25.166754  8521 net.cpp:165] Memory required for data: 1462731712
I0310 23:53:25.166766  8521 layer_factory.hpp:77] Creating layer res3b4
I0310 23:53:25.166779  8521 net.cpp:106] Creating Layer res3b4
I0310 23:53:25.166790  8521 net.cpp:454] res3b4 <- res3b3_res3b3_relu_0_split_1
I0310 23:53:25.166800  8521 net.cpp:454] res3b4 <- res3b4_branch2c
I0310 23:53:25.166815  8521 net.cpp:411] res3b4 -> res3b4
I0310 23:53:25.166856  8521 net.cpp:150] Setting up res3b4
I0310 23:53:25.166872  8521 net.cpp:157] Top shape: 8 512 28 28 (3211264)
I0310 23:53:25.166882  8521 net.cpp:165] Memory required for data: 1475576768
I0310 23:53:25.166890  8521 layer_factory.hpp:77] Creating layer res3b4_relu
I0310 23:53:25.166901  8521 net.cpp:106] Creating Layer res3b4_relu
I0310 23:53:25.166911  8521 net.cpp:454] res3b4_relu <- res3b4
I0310 23:53:25.166923  8521 net.cpp:397] res3b4_relu -> res3b4 (in-place)
I0310 23:53:25.166936  8521 net.cpp:150] Setting up res3b4_relu
I0310 23:53:25.166947  8521 net.cpp:157] Top shape: 8 512 28 28 (3211264)
I0310 23:53:25.166956  8521 net.cpp:165] Memory required for data: 1488421824
I0310 23:53:25.166965  8521 layer_factory.hpp:77] Creating layer res3b4_res3b4_relu_0_split
I0310 23:53:25.166981  8521 net.cpp:106] Creating Layer res3b4_res3b4_relu_0_split
I0310 23:53:25.166991  8521 net.cpp:454] res3b4_res3b4_relu_0_split <- res3b4
I0310 23:53:25.167003  8521 net.cpp:411] res3b4_res3b4_relu_0_split -> res3b4_res3b4_relu_0_split_0
I0310 23:53:25.167016  8521 net.cpp:411] res3b4_res3b4_relu_0_split -> res3b4_res3b4_relu_0_split_1
I0310 23:53:25.167068  8521 net.cpp:150] Setting up res3b4_res3b4_relu_0_split
I0310 23:53:25.167083  8521 net.cpp:157] Top shape: 8 512 28 28 (3211264)
I0310 23:53:25.167094  8521 net.cpp:157] Top shape: 8 512 28 28 (3211264)
I0310 23:53:25.167104  8521 net.cpp:165] Memory required for data: 1514111936
I0310 23:53:25.167112  8521 layer_factory.hpp:77] Creating layer res3b5_branch2a
I0310 23:53:25.167126  8521 net.cpp:106] Creating Layer res3b5_branch2a
I0310 23:53:25.167137  8521 net.cpp:454] res3b5_branch2a <- res3b4_res3b4_relu_0_split_0
I0310 23:53:25.167150  8521 net.cpp:411] res3b5_branch2a -> res3b5_branch2a
I0310 23:53:25.168118  8521 net.cpp:150] Setting up res3b5_branch2a
I0310 23:53:25.168140  8521 net.cpp:157] Top shape: 8 128 28 28 (802816)
I0310 23:53:25.168157  8521 net.cpp:165] Memory required for data: 1517323200
I0310 23:53:25.168179  8521 layer_factory.hpp:77] Creating layer bn3b5_branch2a
I0310 23:53:25.168193  8521 net.cpp:106] Creating Layer bn3b5_branch2a
I0310 23:53:25.168203  8521 net.cpp:454] bn3b5_branch2a <- res3b5_branch2a
I0310 23:53:25.168216  8521 net.cpp:397] bn3b5_branch2a -> res3b5_branch2a (in-place)
I0310 23:53:25.168440  8521 net.cpp:150] Setting up bn3b5_branch2a
I0310 23:53:25.168458  8521 net.cpp:157] Top shape: 8 128 28 28 (802816)
I0310 23:53:25.168467  8521 net.cpp:165] Memory required for data: 1520534464
I0310 23:53:25.168483  8521 layer_factory.hpp:77] Creating layer scale3b5_branch2a
I0310 23:53:25.168511  8521 net.cpp:106] Creating Layer scale3b5_branch2a
I0310 23:53:25.168524  8521 net.cpp:454] scale3b5_branch2a <- res3b5_branch2a
I0310 23:53:25.168539  8521 net.cpp:397] scale3b5_branch2a -> res3b5_branch2a (in-place)
I0310 23:53:25.168598  8521 layer_factory.hpp:77] Creating layer scale3b5_branch2a
I0310 23:53:25.168742  8521 net.cpp:150] Setting up scale3b5_branch2a
I0310 23:53:25.168763  8521 net.cpp:157] Top shape: 8 128 28 28 (802816)
I0310 23:53:25.168772  8521 net.cpp:165] Memory required for data: 1523745728
I0310 23:53:25.168787  8521 layer_factory.hpp:77] Creating layer res3b5_branch2a_relu
I0310 23:53:25.168799  8521 net.cpp:106] Creating Layer res3b5_branch2a_relu
I0310 23:53:25.168809  8521 net.cpp:454] res3b5_branch2a_relu <- res3b5_branch2a
I0310 23:53:25.168820  8521 net.cpp:397] res3b5_branch2a_relu -> res3b5_branch2a (in-place)
I0310 23:53:25.168833  8521 net.cpp:150] Setting up res3b5_branch2a_relu
I0310 23:53:25.168845  8521 net.cpp:157] Top shape: 8 128 28 28 (802816)
I0310 23:53:25.168854  8521 net.cpp:165] Memory required for data: 1526956992
I0310 23:53:25.168864  8521 layer_factory.hpp:77] Creating layer res3b5_branch2b
I0310 23:53:25.168880  8521 net.cpp:106] Creating Layer res3b5_branch2b
I0310 23:53:25.168890  8521 net.cpp:454] res3b5_branch2b <- res3b5_branch2a
I0310 23:53:25.168903  8521 net.cpp:411] res3b5_branch2b -> res3b5_branch2b
I0310 23:53:25.169945  8521 net.cpp:150] Setting up res3b5_branch2b
I0310 23:53:25.169968  8521 net.cpp:157] Top shape: 8 128 28 28 (802816)
I0310 23:53:25.169978  8521 net.cpp:165] Memory required for data: 1530168256
I0310 23:53:25.169991  8521 layer_factory.hpp:77] Creating layer bn3b5_branch2b
I0310 23:53:25.170004  8521 net.cpp:106] Creating Layer bn3b5_branch2b
I0310 23:53:25.170016  8521 net.cpp:454] bn3b5_branch2b <- res3b5_branch2b
I0310 23:53:25.170030  8521 net.cpp:397] bn3b5_branch2b -> res3b5_branch2b (in-place)
I0310 23:53:25.170253  8521 net.cpp:150] Setting up bn3b5_branch2b
I0310 23:53:25.170271  8521 net.cpp:157] Top shape: 8 128 28 28 (802816)
I0310 23:53:25.170280  8521 net.cpp:165] Memory required for data: 1533379520
I0310 23:53:25.170295  8521 layer_factory.hpp:77] Creating layer scale3b5_branch2b
I0310 23:53:25.170310  8521 net.cpp:106] Creating Layer scale3b5_branch2b
I0310 23:53:25.170320  8521 net.cpp:454] scale3b5_branch2b <- res3b5_branch2b
I0310 23:53:25.170331  8521 net.cpp:397] scale3b5_branch2b -> res3b5_branch2b (in-place)
I0310 23:53:25.170390  8521 layer_factory.hpp:77] Creating layer scale3b5_branch2b
I0310 23:53:25.170537  8521 net.cpp:150] Setting up scale3b5_branch2b
I0310 23:53:25.170554  8521 net.cpp:157] Top shape: 8 128 28 28 (802816)
I0310 23:53:25.170563  8521 net.cpp:165] Memory required for data: 1536590784
I0310 23:53:25.170578  8521 layer_factory.hpp:77] Creating layer res3b5_branch2b_relu
I0310 23:53:25.170590  8521 net.cpp:106] Creating Layer res3b5_branch2b_relu
I0310 23:53:25.170600  8521 net.cpp:454] res3b5_branch2b_relu <- res3b5_branch2b
I0310 23:53:25.170614  8521 net.cpp:397] res3b5_branch2b_relu -> res3b5_branch2b (in-place)
I0310 23:53:25.170627  8521 net.cpp:150] Setting up res3b5_branch2b_relu
I0310 23:53:25.170639  8521 net.cpp:157] Top shape: 8 128 28 28 (802816)
I0310 23:53:25.170649  8521 net.cpp:165] Memory required for data: 1539802048
I0310 23:53:25.170657  8521 layer_factory.hpp:77] Creating layer res3b5_branch2c
I0310 23:53:25.170678  8521 net.cpp:106] Creating Layer res3b5_branch2c
I0310 23:53:25.170699  8521 net.cpp:454] res3b5_branch2c <- res3b5_branch2b
I0310 23:53:25.170716  8521 net.cpp:411] res3b5_branch2c -> res3b5_branch2c
I0310 23:53:25.170987  8521 net.cpp:150] Setting up res3b5_branch2c
I0310 23:53:25.171006  8521 net.cpp:157] Top shape: 8 512 28 28 (3211264)
I0310 23:53:25.171015  8521 net.cpp:165] Memory required for data: 1552647104
I0310 23:53:25.171027  8521 layer_factory.hpp:77] Creating layer bn3b5_branch2c
I0310 23:53:25.171046  8521 net.cpp:106] Creating Layer bn3b5_branch2c
I0310 23:53:25.171056  8521 net.cpp:454] bn3b5_branch2c <- res3b5_branch2c
I0310 23:53:25.171067  8521 net.cpp:397] bn3b5_branch2c -> res3b5_branch2c (in-place)
I0310 23:53:25.171294  8521 net.cpp:150] Setting up bn3b5_branch2c
I0310 23:53:25.171311  8521 net.cpp:157] Top shape: 8 512 28 28 (3211264)
I0310 23:53:25.171320  8521 net.cpp:165] Memory required for data: 1565492160
I0310 23:53:25.171335  8521 layer_factory.hpp:77] Creating layer scale3b5_branch2c
I0310 23:53:25.171350  8521 net.cpp:106] Creating Layer scale3b5_branch2c
I0310 23:53:25.171360  8521 net.cpp:454] scale3b5_branch2c <- res3b5_branch2c
I0310 23:53:25.171375  8521 net.cpp:397] scale3b5_branch2c -> res3b5_branch2c (in-place)
I0310 23:53:25.171432  8521 layer_factory.hpp:77] Creating layer scale3b5_branch2c
I0310 23:53:25.171576  8521 net.cpp:150] Setting up scale3b5_branch2c
I0310 23:53:25.171592  8521 net.cpp:157] Top shape: 8 512 28 28 (3211264)
I0310 23:53:25.171602  8521 net.cpp:165] Memory required for data: 1578337216
I0310 23:53:25.171614  8521 layer_factory.hpp:77] Creating layer res3b5
I0310 23:53:25.171627  8521 net.cpp:106] Creating Layer res3b5
I0310 23:53:25.171638  8521 net.cpp:454] res3b5 <- res3b4_res3b4_relu_0_split_1
I0310 23:53:25.171648  8521 net.cpp:454] res3b5 <- res3b5_branch2c
I0310 23:53:25.171659  8521 net.cpp:411] res3b5 -> res3b5
I0310 23:53:25.171700  8521 net.cpp:150] Setting up res3b5
I0310 23:53:25.171715  8521 net.cpp:157] Top shape: 8 512 28 28 (3211264)
I0310 23:53:25.171725  8521 net.cpp:165] Memory required for data: 1591182272
I0310 23:53:25.171733  8521 layer_factory.hpp:77] Creating layer res3b5_relu
I0310 23:53:25.171748  8521 net.cpp:106] Creating Layer res3b5_relu
I0310 23:53:25.171758  8521 net.cpp:454] res3b5_relu <- res3b5
I0310 23:53:25.171771  8521 net.cpp:397] res3b5_relu -> res3b5 (in-place)
I0310 23:53:25.171782  8521 net.cpp:150] Setting up res3b5_relu
I0310 23:53:25.171794  8521 net.cpp:157] Top shape: 8 512 28 28 (3211264)
I0310 23:53:25.171803  8521 net.cpp:165] Memory required for data: 1604027328
I0310 23:53:25.171813  8521 layer_factory.hpp:77] Creating layer res3b5_res3b5_relu_0_split
I0310 23:53:25.171823  8521 net.cpp:106] Creating Layer res3b5_res3b5_relu_0_split
I0310 23:53:25.171833  8521 net.cpp:454] res3b5_res3b5_relu_0_split <- res3b5
I0310 23:53:25.171844  8521 net.cpp:411] res3b5_res3b5_relu_0_split -> res3b5_res3b5_relu_0_split_0
I0310 23:53:25.171862  8521 net.cpp:411] res3b5_res3b5_relu_0_split -> res3b5_res3b5_relu_0_split_1
I0310 23:53:25.171911  8521 net.cpp:150] Setting up res3b5_res3b5_relu_0_split
I0310 23:53:25.171926  8521 net.cpp:157] Top shape: 8 512 28 28 (3211264)
I0310 23:53:25.171936  8521 net.cpp:157] Top shape: 8 512 28 28 (3211264)
I0310 23:53:25.171946  8521 net.cpp:165] Memory required for data: 1629717440
I0310 23:53:25.171955  8521 layer_factory.hpp:77] Creating layer res3b6_branch2a
I0310 23:53:25.171975  8521 net.cpp:106] Creating Layer res3b6_branch2a
I0310 23:53:25.171988  8521 net.cpp:454] res3b6_branch2a <- res3b5_res3b5_relu_0_split_0
I0310 23:53:25.172000  8521 net.cpp:411] res3b6_branch2a -> res3b6_branch2a
I0310 23:53:25.172271  8521 net.cpp:150] Setting up res3b6_branch2a
I0310 23:53:25.172289  8521 net.cpp:157] Top shape: 8 128 28 28 (802816)
I0310 23:53:25.172298  8521 net.cpp:165] Memory required for data: 1632928704
I0310 23:53:25.172310  8521 layer_factory.hpp:77] Creating layer bn3b6_branch2a
I0310 23:53:25.172322  8521 net.cpp:106] Creating Layer bn3b6_branch2a
I0310 23:53:25.172339  8521 net.cpp:454] bn3b6_branch2a <- res3b6_branch2a
I0310 23:53:25.172360  8521 net.cpp:397] bn3b6_branch2a -> res3b6_branch2a (in-place)
I0310 23:53:25.172585  8521 net.cpp:150] Setting up bn3b6_branch2a
I0310 23:53:25.172602  8521 net.cpp:157] Top shape: 8 128 28 28 (802816)
I0310 23:53:25.172612  8521 net.cpp:165] Memory required for data: 1636139968
I0310 23:53:25.172632  8521 layer_factory.hpp:77] Creating layer scale3b6_branch2a
I0310 23:53:25.172646  8521 net.cpp:106] Creating Layer scale3b6_branch2a
I0310 23:53:25.172657  8521 net.cpp:454] scale3b6_branch2a <- res3b6_branch2a
I0310 23:53:25.172668  8521 net.cpp:397] scale3b6_branch2a -> res3b6_branch2a (in-place)
I0310 23:53:25.172726  8521 layer_factory.hpp:77] Creating layer scale3b6_branch2a
I0310 23:53:25.172874  8521 net.cpp:150] Setting up scale3b6_branch2a
I0310 23:53:25.172893  8521 net.cpp:157] Top shape: 8 128 28 28 (802816)
I0310 23:53:25.172901  8521 net.cpp:165] Memory required for data: 1639351232
I0310 23:53:25.172915  8521 layer_factory.hpp:77] Creating layer res3b6_branch2a_relu
I0310 23:53:25.172931  8521 net.cpp:106] Creating Layer res3b6_branch2a_relu
I0310 23:53:25.172941  8521 net.cpp:454] res3b6_branch2a_relu <- res3b6_branch2a
I0310 23:53:25.172953  8521 net.cpp:397] res3b6_branch2a_relu -> res3b6_branch2a (in-place)
I0310 23:53:25.172966  8521 net.cpp:150] Setting up res3b6_branch2a_relu
I0310 23:53:25.172977  8521 net.cpp:157] Top shape: 8 128 28 28 (802816)
I0310 23:53:25.172986  8521 net.cpp:165] Memory required for data: 1642562496
I0310 23:53:25.172996  8521 layer_factory.hpp:77] Creating layer res3b6_branch2b
I0310 23:53:25.173012  8521 net.cpp:106] Creating Layer res3b6_branch2b
I0310 23:53:25.173022  8521 net.cpp:454] res3b6_branch2b <- res3b6_branch2a
I0310 23:53:25.173035  8521 net.cpp:411] res3b6_branch2b -> res3b6_branch2b
I0310 23:53:25.174062  8521 net.cpp:150] Setting up res3b6_branch2b
I0310 23:53:25.174084  8521 net.cpp:157] Top shape: 8 128 28 28 (802816)
I0310 23:53:25.174094  8521 net.cpp:165] Memory required for data: 1645773760
I0310 23:53:25.174108  8521 layer_factory.hpp:77] Creating layer bn3b6_branch2b
I0310 23:53:25.174120  8521 net.cpp:106] Creating Layer bn3b6_branch2b
I0310 23:53:25.174131  8521 net.cpp:454] bn3b6_branch2b <- res3b6_branch2b
I0310 23:53:25.174144  8521 net.cpp:397] bn3b6_branch2b -> res3b6_branch2b (in-place)
I0310 23:53:25.174372  8521 net.cpp:150] Setting up bn3b6_branch2b
I0310 23:53:25.174389  8521 net.cpp:157] Top shape: 8 128 28 28 (802816)
I0310 23:53:25.174399  8521 net.cpp:165] Memory required for data: 1648985024
I0310 23:53:25.174414  8521 layer_factory.hpp:77] Creating layer scale3b6_branch2b
I0310 23:53:25.174432  8521 net.cpp:106] Creating Layer scale3b6_branch2b
I0310 23:53:25.174441  8521 net.cpp:454] scale3b6_branch2b <- res3b6_branch2b
I0310 23:53:25.174454  8521 net.cpp:397] scale3b6_branch2b -> res3b6_branch2b (in-place)
I0310 23:53:25.174517  8521 layer_factory.hpp:77] Creating layer scale3b6_branch2b
I0310 23:53:25.174669  8521 net.cpp:150] Setting up scale3b6_branch2b
I0310 23:53:25.174687  8521 net.cpp:157] Top shape: 8 128 28 28 (802816)
I0310 23:53:25.174696  8521 net.cpp:165] Memory required for data: 1652196288
I0310 23:53:25.174710  8521 layer_factory.hpp:77] Creating layer res3b6_branch2b_relu
I0310 23:53:25.174722  8521 net.cpp:106] Creating Layer res3b6_branch2b_relu
I0310 23:53:25.174732  8521 net.cpp:454] res3b6_branch2b_relu <- res3b6_branch2b
I0310 23:53:25.174747  8521 net.cpp:397] res3b6_branch2b_relu -> res3b6_branch2b (in-place)
I0310 23:53:25.174762  8521 net.cpp:150] Setting up res3b6_branch2b_relu
I0310 23:53:25.174772  8521 net.cpp:157] Top shape: 8 128 28 28 (802816)
I0310 23:53:25.174782  8521 net.cpp:165] Memory required for data: 1655407552
I0310 23:53:25.174792  8521 layer_factory.hpp:77] Creating layer res3b6_branch2c
I0310 23:53:25.174804  8521 net.cpp:106] Creating Layer res3b6_branch2c
I0310 23:53:25.174814  8521 net.cpp:454] res3b6_branch2c <- res3b6_branch2b
I0310 23:53:25.174829  8521 net.cpp:411] res3b6_branch2c -> res3b6_branch2c
I0310 23:53:25.175109  8521 net.cpp:150] Setting up res3b6_branch2c
I0310 23:53:25.175140  8521 net.cpp:157] Top shape: 8 512 28 28 (3211264)
I0310 23:53:25.175150  8521 net.cpp:165] Memory required for data: 1668252608
I0310 23:53:25.175163  8521 layer_factory.hpp:77] Creating layer bn3b6_branch2c
I0310 23:53:25.175175  8521 net.cpp:106] Creating Layer bn3b6_branch2c
I0310 23:53:25.175186  8521 net.cpp:454] bn3b6_branch2c <- res3b6_branch2c
I0310 23:53:25.175201  8521 net.cpp:397] bn3b6_branch2c -> res3b6_branch2c (in-place)
I0310 23:53:25.175431  8521 net.cpp:150] Setting up bn3b6_branch2c
I0310 23:53:25.175448  8521 net.cpp:157] Top shape: 8 512 28 28 (3211264)
I0310 23:53:25.175458  8521 net.cpp:165] Memory required for data: 1681097664
I0310 23:53:25.175473  8521 layer_factory.hpp:77] Creating layer scale3b6_branch2c
I0310 23:53:25.175487  8521 net.cpp:106] Creating Layer scale3b6_branch2c
I0310 23:53:25.175496  8521 net.cpp:454] scale3b6_branch2c <- res3b6_branch2c
I0310 23:53:25.175508  8521 net.cpp:397] scale3b6_branch2c -> res3b6_branch2c (in-place)
I0310 23:53:25.175568  8521 layer_factory.hpp:77] Creating layer scale3b6_branch2c
I0310 23:53:25.175714  8521 net.cpp:150] Setting up scale3b6_branch2c
I0310 23:53:25.175731  8521 net.cpp:157] Top shape: 8 512 28 28 (3211264)
I0310 23:53:25.175740  8521 net.cpp:165] Memory required for data: 1693942720
I0310 23:53:25.175753  8521 layer_factory.hpp:77] Creating layer res3b6
I0310 23:53:25.175766  8521 net.cpp:106] Creating Layer res3b6
I0310 23:53:25.175776  8521 net.cpp:454] res3b6 <- res3b5_res3b5_relu_0_split_1
I0310 23:53:25.175787  8521 net.cpp:454] res3b6 <- res3b6_branch2c
I0310 23:53:25.175803  8521 net.cpp:411] res3b6 -> res3b6
I0310 23:53:25.175839  8521 net.cpp:150] Setting up res3b6
I0310 23:53:25.175855  8521 net.cpp:157] Top shape: 8 512 28 28 (3211264)
I0310 23:53:25.175864  8521 net.cpp:165] Memory required for data: 1706787776
I0310 23:53:25.175873  8521 layer_factory.hpp:77] Creating layer res3b6_relu
I0310 23:53:25.175889  8521 net.cpp:106] Creating Layer res3b6_relu
I0310 23:53:25.175899  8521 net.cpp:454] res3b6_relu <- res3b6
I0310 23:53:25.175910  8521 net.cpp:397] res3b6_relu -> res3b6 (in-place)
I0310 23:53:25.175923  8521 net.cpp:150] Setting up res3b6_relu
I0310 23:53:25.175935  8521 net.cpp:157] Top shape: 8 512 28 28 (3211264)
I0310 23:53:25.175945  8521 net.cpp:165] Memory required for data: 1719632832
I0310 23:53:25.175953  8521 layer_factory.hpp:77] Creating layer res3b6_res3b6_relu_0_split
I0310 23:53:25.175967  8521 net.cpp:106] Creating Layer res3b6_res3b6_relu_0_split
I0310 23:53:25.175977  8521 net.cpp:454] res3b6_res3b6_relu_0_split <- res3b6
I0310 23:53:25.175988  8521 net.cpp:411] res3b6_res3b6_relu_0_split -> res3b6_res3b6_relu_0_split_0
I0310 23:53:25.176002  8521 net.cpp:411] res3b6_res3b6_relu_0_split -> res3b6_res3b6_relu_0_split_1
I0310 23:53:25.176055  8521 net.cpp:150] Setting up res3b6_res3b6_relu_0_split
I0310 23:53:25.176071  8521 net.cpp:157] Top shape: 8 512 28 28 (3211264)
I0310 23:53:25.176082  8521 net.cpp:157] Top shape: 8 512 28 28 (3211264)
I0310 23:53:25.176090  8521 net.cpp:165] Memory required for data: 1745322944
I0310 23:53:25.176100  8521 layer_factory.hpp:77] Creating layer res3b7_branch2a
I0310 23:53:25.176115  8521 net.cpp:106] Creating Layer res3b7_branch2a
I0310 23:53:25.176125  8521 net.cpp:454] res3b7_branch2a <- res3b6_res3b6_relu_0_split_0
I0310 23:53:25.176139  8521 net.cpp:411] res3b7_branch2a -> res3b7_branch2a
I0310 23:53:25.177110  8521 net.cpp:150] Setting up res3b7_branch2a
I0310 23:53:25.177134  8521 net.cpp:157] Top shape: 8 128 28 28 (802816)
I0310 23:53:25.177142  8521 net.cpp:165] Memory required for data: 1748534208
I0310 23:53:25.177155  8521 layer_factory.hpp:77] Creating layer bn3b7_branch2a
I0310 23:53:25.177168  8521 net.cpp:106] Creating Layer bn3b7_branch2a
I0310 23:53:25.177178  8521 net.cpp:454] bn3b7_branch2a <- res3b7_branch2a
I0310 23:53:25.177194  8521 net.cpp:397] bn3b7_branch2a -> res3b7_branch2a (in-place)
I0310 23:53:25.177438  8521 net.cpp:150] Setting up bn3b7_branch2a
I0310 23:53:25.177471  8521 net.cpp:157] Top shape: 8 128 28 28 (802816)
I0310 23:53:25.177481  8521 net.cpp:165] Memory required for data: 1751745472
I0310 23:53:25.177497  8521 layer_factory.hpp:77] Creating layer scale3b7_branch2a
I0310 23:53:25.177511  8521 net.cpp:106] Creating Layer scale3b7_branch2a
I0310 23:53:25.177521  8521 net.cpp:454] scale3b7_branch2a <- res3b7_branch2a
I0310 23:53:25.177533  8521 net.cpp:397] scale3b7_branch2a -> res3b7_branch2a (in-place)
I0310 23:53:25.177597  8521 layer_factory.hpp:77] Creating layer scale3b7_branch2a
I0310 23:53:25.177748  8521 net.cpp:150] Setting up scale3b7_branch2a
I0310 23:53:25.177767  8521 net.cpp:157] Top shape: 8 128 28 28 (802816)
I0310 23:53:25.177775  8521 net.cpp:165] Memory required for data: 1754956736
I0310 23:53:25.177788  8521 layer_factory.hpp:77] Creating layer res3b7_branch2a_relu
I0310 23:53:25.177800  8521 net.cpp:106] Creating Layer res3b7_branch2a_relu
I0310 23:53:25.177810  8521 net.cpp:454] res3b7_branch2a_relu <- res3b7_branch2a
I0310 23:53:25.177825  8521 net.cpp:397] res3b7_branch2a_relu -> res3b7_branch2a (in-place)
I0310 23:53:25.177839  8521 net.cpp:150] Setting up res3b7_branch2a_relu
I0310 23:53:25.177850  8521 net.cpp:157] Top shape: 8 128 28 28 (802816)
I0310 23:53:25.177860  8521 net.cpp:165] Memory required for data: 1758168000
I0310 23:53:25.177868  8521 layer_factory.hpp:77] Creating layer res3b7_branch2b
I0310 23:53:25.177882  8521 net.cpp:106] Creating Layer res3b7_branch2b
I0310 23:53:25.177892  8521 net.cpp:454] res3b7_branch2b <- res3b7_branch2a
I0310 23:53:25.177907  8521 net.cpp:411] res3b7_branch2b -> res3b7_branch2b
I0310 23:53:25.178933  8521 net.cpp:150] Setting up res3b7_branch2b
I0310 23:53:25.178956  8521 net.cpp:157] Top shape: 8 128 28 28 (802816)
I0310 23:53:25.178966  8521 net.cpp:165] Memory required for data: 1761379264
I0310 23:53:25.178977  8521 layer_factory.hpp:77] Creating layer bn3b7_branch2b
I0310 23:53:25.178992  8521 net.cpp:106] Creating Layer bn3b7_branch2b
I0310 23:53:25.179002  8521 net.cpp:454] bn3b7_branch2b <- res3b7_branch2b
I0310 23:53:25.179013  8521 net.cpp:397] bn3b7_branch2b -> res3b7_branch2b (in-place)
I0310 23:53:25.179247  8521 net.cpp:150] Setting up bn3b7_branch2b
I0310 23:53:25.179265  8521 net.cpp:157] Top shape: 8 128 28 28 (802816)
I0310 23:53:25.179275  8521 net.cpp:165] Memory required for data: 1764590528
I0310 23:53:25.179292  8521 layer_factory.hpp:77] Creating layer scale3b7_branch2b
I0310 23:53:25.179306  8521 net.cpp:106] Creating Layer scale3b7_branch2b
I0310 23:53:25.179317  8521 net.cpp:454] scale3b7_branch2b <- res3b7_branch2b
I0310 23:53:25.179328  8521 net.cpp:397] scale3b7_branch2b -> res3b7_branch2b (in-place)
I0310 23:53:25.179388  8521 layer_factory.hpp:77] Creating layer scale3b7_branch2b
I0310 23:53:25.179540  8521 net.cpp:150] Setting up scale3b7_branch2b
I0310 23:53:25.179558  8521 net.cpp:157] Top shape: 8 128 28 28 (802816)
I0310 23:53:25.179567  8521 net.cpp:165] Memory required for data: 1767801792
I0310 23:53:25.179580  8521 layer_factory.hpp:77] Creating layer res3b7_branch2b_relu
I0310 23:53:25.179596  8521 net.cpp:106] Creating Layer res3b7_branch2b_relu
I0310 23:53:25.179607  8521 net.cpp:454] res3b7_branch2b_relu <- res3b7_branch2b
I0310 23:53:25.179618  8521 net.cpp:397] res3b7_branch2b_relu -> res3b7_branch2b (in-place)
I0310 23:53:25.179632  8521 net.cpp:150] Setting up res3b7_branch2b_relu
I0310 23:53:25.179643  8521 net.cpp:157] Top shape: 8 128 28 28 (802816)
I0310 23:53:25.179652  8521 net.cpp:165] Memory required for data: 1771013056
I0310 23:53:25.179662  8521 layer_factory.hpp:77] Creating layer res3b7_branch2c
I0310 23:53:25.179679  8521 net.cpp:106] Creating Layer res3b7_branch2c
I0310 23:53:25.179689  8521 net.cpp:454] res3b7_branch2c <- res3b7_branch2b
I0310 23:53:25.179702  8521 net.cpp:411] res3b7_branch2c -> res3b7_branch2c
I0310 23:53:25.179971  8521 net.cpp:150] Setting up res3b7_branch2c
I0310 23:53:25.179991  8521 net.cpp:157] Top shape: 8 512 28 28 (3211264)
I0310 23:53:25.179999  8521 net.cpp:165] Memory required for data: 1783858112
I0310 23:53:25.180027  8521 layer_factory.hpp:77] Creating layer bn3b7_branch2c
I0310 23:53:25.180042  8521 net.cpp:106] Creating Layer bn3b7_branch2c
I0310 23:53:25.180052  8521 net.cpp:454] bn3b7_branch2c <- res3b7_branch2c
I0310 23:53:25.180066  8521 net.cpp:397] bn3b7_branch2c -> res3b7_branch2c (in-place)
I0310 23:53:25.180305  8521 net.cpp:150] Setting up bn3b7_branch2c
I0310 23:53:25.180322  8521 net.cpp:157] Top shape: 8 512 28 28 (3211264)
I0310 23:53:25.180332  8521 net.cpp:165] Memory required for data: 1796703168
I0310 23:53:25.180347  8521 layer_factory.hpp:77] Creating layer scale3b7_branch2c
I0310 23:53:25.180361  8521 net.cpp:106] Creating Layer scale3b7_branch2c
I0310 23:53:25.180371  8521 net.cpp:454] scale3b7_branch2c <- res3b7_branch2c
I0310 23:53:25.180383  8521 net.cpp:397] scale3b7_branch2c -> res3b7_branch2c (in-place)
I0310 23:53:25.180445  8521 layer_factory.hpp:77] Creating layer scale3b7_branch2c
I0310 23:53:25.180599  8521 net.cpp:150] Setting up scale3b7_branch2c
I0310 23:53:25.180618  8521 net.cpp:157] Top shape: 8 512 28 28 (3211264)
I0310 23:53:25.180626  8521 net.cpp:165] Memory required for data: 1809548224
I0310 23:53:25.180639  8521 layer_factory.hpp:77] Creating layer res3b7
I0310 23:53:25.180652  8521 net.cpp:106] Creating Layer res3b7
I0310 23:53:25.180662  8521 net.cpp:454] res3b7 <- res3b6_res3b6_relu_0_split_1
I0310 23:53:25.180673  8521 net.cpp:454] res3b7 <- res3b7_branch2c
I0310 23:53:25.180690  8521 net.cpp:411] res3b7 -> res3b7
I0310 23:53:25.180726  8521 net.cpp:150] Setting up res3b7
I0310 23:53:25.180742  8521 net.cpp:157] Top shape: 8 512 28 28 (3211264)
I0310 23:53:25.180750  8521 net.cpp:165] Memory required for data: 1822393280
I0310 23:53:25.180759  8521 layer_factory.hpp:77] Creating layer res3b7_relu
I0310 23:53:25.180774  8521 net.cpp:106] Creating Layer res3b7_relu
I0310 23:53:25.180785  8521 net.cpp:454] res3b7_relu <- res3b7
I0310 23:53:25.180796  8521 net.cpp:397] res3b7_relu -> res3b7 (in-place)
I0310 23:53:25.180809  8521 net.cpp:150] Setting up res3b7_relu
I0310 23:53:25.180821  8521 net.cpp:157] Top shape: 8 512 28 28 (3211264)
I0310 23:53:25.180830  8521 net.cpp:165] Memory required for data: 1835238336
I0310 23:53:25.180840  8521 layer_factory.hpp:77] Creating layer res3b7_res3b7_relu_0_split
I0310 23:53:25.180850  8521 net.cpp:106] Creating Layer res3b7_res3b7_relu_0_split
I0310 23:53:25.180865  8521 net.cpp:454] res3b7_res3b7_relu_0_split <- res3b7
I0310 23:53:25.180876  8521 net.cpp:411] res3b7_res3b7_relu_0_split -> res3b7_res3b7_relu_0_split_0
I0310 23:53:25.180889  8521 net.cpp:411] res3b7_res3b7_relu_0_split -> res3b7_res3b7_relu_0_split_1
I0310 23:53:25.180943  8521 net.cpp:150] Setting up res3b7_res3b7_relu_0_split
I0310 23:53:25.180958  8521 net.cpp:157] Top shape: 8 512 28 28 (3211264)
I0310 23:53:25.180969  8521 net.cpp:157] Top shape: 8 512 28 28 (3211264)
I0310 23:53:25.180977  8521 net.cpp:165] Memory required for data: 1860928448
I0310 23:53:25.180987  8521 layer_factory.hpp:77] Creating layer res4a_branch1
I0310 23:53:25.181001  8521 net.cpp:106] Creating Layer res4a_branch1
I0310 23:53:25.181011  8521 net.cpp:454] res4a_branch1 <- res3b7_res3b7_relu_0_split_0
I0310 23:53:25.181026  8521 net.cpp:411] res4a_branch1 -> res4a_branch1
I0310 23:53:25.182864  8521 net.cpp:150] Setting up res4a_branch1
I0310 23:53:25.182888  8521 net.cpp:157] Top shape: 8 1024 14 14 (1605632)
I0310 23:53:25.182898  8521 net.cpp:165] Memory required for data: 1867350976
I0310 23:53:25.182910  8521 layer_factory.hpp:77] Creating layer bn4a_branch1
I0310 23:53:25.182924  8521 net.cpp:106] Creating Layer bn4a_branch1
I0310 23:53:25.182934  8521 net.cpp:454] bn4a_branch1 <- res4a_branch1
I0310 23:53:25.182946  8521 net.cpp:397] bn4a_branch1 -> res4a_branch1 (in-place)
I0310 23:53:25.183190  8521 net.cpp:150] Setting up bn4a_branch1
I0310 23:53:25.183208  8521 net.cpp:157] Top shape: 8 1024 14 14 (1605632)
I0310 23:53:25.183218  8521 net.cpp:165] Memory required for data: 1873773504
I0310 23:53:25.183233  8521 layer_factory.hpp:77] Creating layer scale4a_branch1
I0310 23:53:25.183266  8521 net.cpp:106] Creating Layer scale4a_branch1
I0310 23:53:25.183277  8521 net.cpp:454] scale4a_branch1 <- res4a_branch1
I0310 23:53:25.183290  8521 net.cpp:397] scale4a_branch1 -> res4a_branch1 (in-place)
I0310 23:53:25.183351  8521 layer_factory.hpp:77] Creating layer scale4a_branch1
I0310 23:53:25.183501  8521 net.cpp:150] Setting up scale4a_branch1
I0310 23:53:25.183519  8521 net.cpp:157] Top shape: 8 1024 14 14 (1605632)
I0310 23:53:25.183528  8521 net.cpp:165] Memory required for data: 1880196032
I0310 23:53:25.183542  8521 layer_factory.hpp:77] Creating layer res4a_branch2a
I0310 23:53:25.183559  8521 net.cpp:106] Creating Layer res4a_branch2a
I0310 23:53:25.183570  8521 net.cpp:454] res4a_branch2a <- res3b7_res3b7_relu_0_split_1
I0310 23:53:25.183583  8521 net.cpp:411] res4a_branch2a -> res4a_branch2a
I0310 23:53:25.183977  8521 net.cpp:150] Setting up res4a_branch2a
I0310 23:53:25.184000  8521 net.cpp:157] Top shape: 8 256 14 14 (401408)
I0310 23:53:25.184010  8521 net.cpp:165] Memory required for data: 1881801664
I0310 23:53:25.184022  8521 layer_factory.hpp:77] Creating layer bn4a_branch2a
I0310 23:53:25.184034  8521 net.cpp:106] Creating Layer bn4a_branch2a
I0310 23:53:25.184046  8521 net.cpp:454] bn4a_branch2a <- res4a_branch2a
I0310 23:53:25.184057  8521 net.cpp:397] bn4a_branch2a -> res4a_branch2a (in-place)
I0310 23:53:25.184288  8521 net.cpp:150] Setting up bn4a_branch2a
I0310 23:53:25.184304  8521 net.cpp:157] Top shape: 8 256 14 14 (401408)
I0310 23:53:25.184314  8521 net.cpp:165] Memory required for data: 1883407296
I0310 23:53:25.184329  8521 layer_factory.hpp:77] Creating layer scale4a_branch2a
I0310 23:53:25.184343  8521 net.cpp:106] Creating Layer scale4a_branch2a
I0310 23:53:25.184352  8521 net.cpp:454] scale4a_branch2a <- res4a_branch2a
I0310 23:53:25.184365  8521 net.cpp:397] scale4a_branch2a -> res4a_branch2a (in-place)
I0310 23:53:25.184427  8521 layer_factory.hpp:77] Creating layer scale4a_branch2a
I0310 23:53:25.184568  8521 net.cpp:150] Setting up scale4a_branch2a
I0310 23:53:25.184586  8521 net.cpp:157] Top shape: 8 256 14 14 (401408)
I0310 23:53:25.184594  8521 net.cpp:165] Memory required for data: 1885012928
I0310 23:53:25.184607  8521 layer_factory.hpp:77] Creating layer res4a_branch2a_relu
I0310 23:53:25.184624  8521 net.cpp:106] Creating Layer res4a_branch2a_relu
I0310 23:53:25.184635  8521 net.cpp:454] res4a_branch2a_relu <- res4a_branch2a
I0310 23:53:25.184648  8521 net.cpp:397] res4a_branch2a_relu -> res4a_branch2a (in-place)
I0310 23:53:25.184660  8521 net.cpp:150] Setting up res4a_branch2a_relu
I0310 23:53:25.184672  8521 net.cpp:157] Top shape: 8 256 14 14 (401408)
I0310 23:53:25.184681  8521 net.cpp:165] Memory required for data: 1886618560
I0310 23:53:25.184690  8521 layer_factory.hpp:77] Creating layer res4a_branch2b
I0310 23:53:25.184707  8521 net.cpp:106] Creating Layer res4a_branch2b
I0310 23:53:25.184717  8521 net.cpp:454] res4a_branch2b <- res4a_branch2a
I0310 23:53:25.184731  8521 net.cpp:411] res4a_branch2b -> res4a_branch2b
I0310 23:53:25.186777  8521 net.cpp:150] Setting up res4a_branch2b
I0310 23:53:25.186801  8521 net.cpp:157] Top shape: 8 256 14 14 (401408)
I0310 23:53:25.186811  8521 net.cpp:165] Memory required for data: 1888224192
I0310 23:53:25.186823  8521 layer_factory.hpp:77] Creating layer bn4a_branch2b
I0310 23:53:25.186841  8521 net.cpp:106] Creating Layer bn4a_branch2b
I0310 23:53:25.186851  8521 net.cpp:454] bn4a_branch2b <- res4a_branch2b
I0310 23:53:25.186863  8521 net.cpp:397] bn4a_branch2b -> res4a_branch2b (in-place)
I0310 23:53:25.187091  8521 net.cpp:150] Setting up bn4a_branch2b
I0310 23:53:25.187108  8521 net.cpp:157] Top shape: 8 256 14 14 (401408)
I0310 23:53:25.187119  8521 net.cpp:165] Memory required for data: 1889829824
I0310 23:53:25.187134  8521 layer_factory.hpp:77] Creating layer scale4a_branch2b
I0310 23:53:25.187151  8521 net.cpp:106] Creating Layer scale4a_branch2b
I0310 23:53:25.187161  8521 net.cpp:454] scale4a_branch2b <- res4a_branch2b
I0310 23:53:25.187180  8521 net.cpp:397] scale4a_branch2b -> res4a_branch2b (in-place)
I0310 23:53:25.187253  8521 layer_factory.hpp:77] Creating layer scale4a_branch2b
I0310 23:53:25.187400  8521 net.cpp:150] Setting up scale4a_branch2b
I0310 23:53:25.187418  8521 net.cpp:157] Top shape: 8 256 14 14 (401408)
I0310 23:53:25.187427  8521 net.cpp:165] Memory required for data: 1891435456
I0310 23:53:25.187441  8521 layer_factory.hpp:77] Creating layer res4a_branch2b_relu
I0310 23:53:25.187453  8521 net.cpp:106] Creating Layer res4a_branch2b_relu
I0310 23:53:25.187463  8521 net.cpp:454] res4a_branch2b_relu <- res4a_branch2b
I0310 23:53:25.187475  8521 net.cpp:397] res4a_branch2b_relu -> res4a_branch2b (in-place)
I0310 23:53:25.187489  8521 net.cpp:150] Setting up res4a_branch2b_relu
I0310 23:53:25.187500  8521 net.cpp:157] Top shape: 8 256 14 14 (401408)
I0310 23:53:25.187510  8521 net.cpp:165] Memory required for data: 1893041088
I0310 23:53:25.187518  8521 layer_factory.hpp:77] Creating layer res4a_branch2c
I0310 23:53:25.187536  8521 net.cpp:106] Creating Layer res4a_branch2c
I0310 23:53:25.187546  8521 net.cpp:454] res4a_branch2c <- res4a_branch2b
I0310 23:53:25.187561  8521 net.cpp:411] res4a_branch2c -> res4a_branch2c
I0310 23:53:25.188671  8521 net.cpp:150] Setting up res4a_branch2c
I0310 23:53:25.188694  8521 net.cpp:157] Top shape: 8 1024 14 14 (1605632)
I0310 23:53:25.188704  8521 net.cpp:165] Memory required for data: 1899463616
I0310 23:53:25.188715  8521 layer_factory.hpp:77] Creating layer bn4a_branch2c
I0310 23:53:25.188729  8521 net.cpp:106] Creating Layer bn4a_branch2c
I0310 23:53:25.188740  8521 net.cpp:454] bn4a_branch2c <- res4a_branch2c
I0310 23:53:25.188755  8521 net.cpp:397] bn4a_branch2c -> res4a_branch2c (in-place)
I0310 23:53:25.188994  8521 net.cpp:150] Setting up bn4a_branch2c
I0310 23:53:25.189012  8521 net.cpp:157] Top shape: 8 1024 14 14 (1605632)
I0310 23:53:25.189021  8521 net.cpp:165] Memory required for data: 1905886144
I0310 23:53:25.189036  8521 layer_factory.hpp:77] Creating layer scale4a_branch2c
I0310 23:53:25.189050  8521 net.cpp:106] Creating Layer scale4a_branch2c
I0310 23:53:25.189060  8521 net.cpp:454] scale4a_branch2c <- res4a_branch2c
I0310 23:53:25.189072  8521 net.cpp:397] scale4a_branch2c -> res4a_branch2c (in-place)
I0310 23:53:25.189132  8521 layer_factory.hpp:77] Creating layer scale4a_branch2c
I0310 23:53:25.189296  8521 net.cpp:150] Setting up scale4a_branch2c
I0310 23:53:25.189314  8521 net.cpp:157] Top shape: 8 1024 14 14 (1605632)
I0310 23:53:25.189324  8521 net.cpp:165] Memory required for data: 1912308672
I0310 23:53:25.189337  8521 layer_factory.hpp:77] Creating layer res4a
I0310 23:53:25.189350  8521 net.cpp:106] Creating Layer res4a
I0310 23:53:25.189360  8521 net.cpp:454] res4a <- res4a_branch1
I0310 23:53:25.189375  8521 net.cpp:454] res4a <- res4a_branch2c
I0310 23:53:25.189388  8521 net.cpp:411] res4a -> res4a
I0310 23:53:25.189424  8521 net.cpp:150] Setting up res4a
I0310 23:53:25.189440  8521 net.cpp:157] Top shape: 8 1024 14 14 (1605632)
I0310 23:53:25.189450  8521 net.cpp:165] Memory required for data: 1918731200
I0310 23:53:25.189458  8521 layer_factory.hpp:77] Creating layer res4a_relu
I0310 23:53:25.189473  8521 net.cpp:106] Creating Layer res4a_relu
I0310 23:53:25.189484  8521 net.cpp:454] res4a_relu <- res4a
I0310 23:53:25.189496  8521 net.cpp:397] res4a_relu -> res4a (in-place)
I0310 23:53:25.189509  8521 net.cpp:150] Setting up res4a_relu
I0310 23:53:25.189522  8521 net.cpp:157] Top shape: 8 1024 14 14 (1605632)
I0310 23:53:25.189530  8521 net.cpp:165] Memory required for data: 1925153728
I0310 23:53:25.189539  8521 layer_factory.hpp:77] Creating layer res4a_res4a_relu_0_split
I0310 23:53:25.189554  8521 net.cpp:106] Creating Layer res4a_res4a_relu_0_split
I0310 23:53:25.189564  8521 net.cpp:454] res4a_res4a_relu_0_split <- res4a
I0310 23:53:25.189576  8521 net.cpp:411] res4a_res4a_relu_0_split -> res4a_res4a_relu_0_split_0
I0310 23:53:25.189590  8521 net.cpp:411] res4a_res4a_relu_0_split -> res4a_res4a_relu_0_split_1
I0310 23:53:25.189642  8521 net.cpp:150] Setting up res4a_res4a_relu_0_split
I0310 23:53:25.189666  8521 net.cpp:157] Top shape: 8 1024 14 14 (1605632)
I0310 23:53:25.189687  8521 net.cpp:157] Top shape: 8 1024 14 14 (1605632)
I0310 23:53:25.189695  8521 net.cpp:165] Memory required for data: 1937998784
I0310 23:53:25.189704  8521 layer_factory.hpp:77] Creating layer res4b1_branch2a
I0310 23:53:25.189723  8521 net.cpp:106] Creating Layer res4b1_branch2a
I0310 23:53:25.189733  8521 net.cpp:454] res4b1_branch2a <- res4a_res4a_relu_0_split_0
I0310 23:53:25.189746  8521 net.cpp:411] res4b1_branch2a -> res4b1_branch2a
I0310 23:53:25.190857  8521 net.cpp:150] Setting up res4b1_branch2a
I0310 23:53:25.190879  8521 net.cpp:157] Top shape: 8 256 14 14 (401408)
I0310 23:53:25.190889  8521 net.cpp:165] Memory required for data: 1939604416
I0310 23:53:25.190901  8521 layer_factory.hpp:77] Creating layer bn4b1_branch2a
I0310 23:53:25.190915  8521 net.cpp:106] Creating Layer bn4b1_branch2a
I0310 23:53:25.190925  8521 net.cpp:454] bn4b1_branch2a <- res4b1_branch2a
I0310 23:53:25.190938  8521 net.cpp:397] bn4b1_branch2a -> res4b1_branch2a (in-place)
I0310 23:53:25.191171  8521 net.cpp:150] Setting up bn4b1_branch2a
I0310 23:53:25.191191  8521 net.cpp:157] Top shape: 8 256 14 14 (401408)
I0310 23:53:25.191201  8521 net.cpp:165] Memory required for data: 1941210048
I0310 23:53:25.191217  8521 layer_factory.hpp:77] Creating layer scale4b1_branch2a
I0310 23:53:25.191231  8521 net.cpp:106] Creating Layer scale4b1_branch2a
I0310 23:53:25.191241  8521 net.cpp:454] scale4b1_branch2a <- res4b1_branch2a
I0310 23:53:25.191253  8521 net.cpp:397] scale4b1_branch2a -> res4b1_branch2a (in-place)
I0310 23:53:25.191313  8521 layer_factory.hpp:77] Creating layer scale4b1_branch2a
I0310 23:53:25.191464  8521 net.cpp:150] Setting up scale4b1_branch2a
I0310 23:53:25.191483  8521 net.cpp:157] Top shape: 8 256 14 14 (401408)
I0310 23:53:25.191491  8521 net.cpp:165] Memory required for data: 1942815680
I0310 23:53:25.191505  8521 layer_factory.hpp:77] Creating layer res4b1_branch2a_relu
I0310 23:53:25.191520  8521 net.cpp:106] Creating Layer res4b1_branch2a_relu
I0310 23:53:25.191531  8521 net.cpp:454] res4b1_branch2a_relu <- res4b1_branch2a
I0310 23:53:25.191543  8521 net.cpp:397] res4b1_branch2a_relu -> res4b1_branch2a (in-place)
I0310 23:53:25.191556  8521 net.cpp:150] Setting up res4b1_branch2a_relu
I0310 23:53:25.191568  8521 net.cpp:157] Top shape: 8 256 14 14 (401408)
I0310 23:53:25.191577  8521 net.cpp:165] Memory required for data: 1944421312
I0310 23:53:25.191587  8521 layer_factory.hpp:77] Creating layer res4b1_branch2b
I0310 23:53:25.191603  8521 net.cpp:106] Creating Layer res4b1_branch2b
I0310 23:53:25.191613  8521 net.cpp:454] res4b1_branch2b <- res4b1_branch2a
I0310 23:53:25.191627  8521 net.cpp:411] res4b1_branch2b -> res4b1_branch2b
I0310 23:53:25.193639  8521 net.cpp:150] Setting up res4b1_branch2b
I0310 23:53:25.193662  8521 net.cpp:157] Top shape: 8 256 14 14 (401408)
I0310 23:53:25.193672  8521 net.cpp:165] Memory required for data: 1946026944
I0310 23:53:25.193686  8521 layer_factory.hpp:77] Creating layer bn4b1_branch2b
I0310 23:53:25.193706  8521 net.cpp:106] Creating Layer bn4b1_branch2b
I0310 23:53:25.193717  8521 net.cpp:454] bn4b1_branch2b <- res4b1_branch2b
I0310 23:53:25.193729  8521 net.cpp:397] bn4b1_branch2b -> res4b1_branch2b (in-place)
I0310 23:53:25.193964  8521 net.cpp:150] Setting up bn4b1_branch2b
I0310 23:53:25.193981  8521 net.cpp:157] Top shape: 8 256 14 14 (401408)
I0310 23:53:25.193990  8521 net.cpp:165] Memory required for data: 1947632576
I0310 23:53:25.194006  8521 layer_factory.hpp:77] Creating layer scale4b1_branch2b
I0310 23:53:25.194023  8521 net.cpp:106] Creating Layer scale4b1_branch2b
I0310 23:53:25.194034  8521 net.cpp:454] scale4b1_branch2b <- res4b1_branch2b
I0310 23:53:25.194046  8521 net.cpp:397] scale4b1_branch2b -> res4b1_branch2b (in-place)
I0310 23:53:25.194106  8521 layer_factory.hpp:77] Creating layer scale4b1_branch2b
I0310 23:53:25.194255  8521 net.cpp:150] Setting up scale4b1_branch2b
I0310 23:53:25.194272  8521 net.cpp:157] Top shape: 8 256 14 14 (401408)
I0310 23:53:25.194288  8521 net.cpp:165] Memory required for data: 1949238208
I0310 23:53:25.194313  8521 layer_factory.hpp:77] Creating layer res4b1_branch2b_relu
I0310 23:53:25.194325  8521 net.cpp:106] Creating Layer res4b1_branch2b_relu
I0310 23:53:25.194335  8521 net.cpp:454] res4b1_branch2b_relu <- res4b1_branch2b
I0310 23:53:25.194347  8521 net.cpp:397] res4b1_branch2b_relu -> res4b1_branch2b (in-place)
I0310 23:53:25.194360  8521 net.cpp:150] Setting up res4b1_branch2b_relu
I0310 23:53:25.194372  8521 net.cpp:157] Top shape: 8 256 14 14 (401408)
I0310 23:53:25.194381  8521 net.cpp:165] Memory required for data: 1950843840
I0310 23:53:25.194391  8521 layer_factory.hpp:77] Creating layer res4b1_branch2c
I0310 23:53:25.194406  8521 net.cpp:106] Creating Layer res4b1_branch2c
I0310 23:53:25.194417  8521 net.cpp:454] res4b1_branch2c <- res4b1_branch2b
I0310 23:53:25.194437  8521 net.cpp:411] res4b1_branch2c -> res4b1_branch2c
I0310 23:53:25.195543  8521 net.cpp:150] Setting up res4b1_branch2c
I0310 23:53:25.195564  8521 net.cpp:157] Top shape: 8 1024 14 14 (1605632)
I0310 23:53:25.195574  8521 net.cpp:165] Memory required for data: 1957266368
I0310 23:53:25.195587  8521 layer_factory.hpp:77] Creating layer bn4b1_branch2c
I0310 23:53:25.195600  8521 net.cpp:106] Creating Layer bn4b1_branch2c
I0310 23:53:25.195611  8521 net.cpp:454] bn4b1_branch2c <- res4b1_branch2c
I0310 23:53:25.195626  8521 net.cpp:397] bn4b1_branch2c -> res4b1_branch2c (in-place)
I0310 23:53:25.195863  8521 net.cpp:150] Setting up bn4b1_branch2c
I0310 23:53:25.195880  8521 net.cpp:157] Top shape: 8 1024 14 14 (1605632)
I0310 23:53:25.195890  8521 net.cpp:165] Memory required for data: 1963688896
I0310 23:53:25.195905  8521 layer_factory.hpp:77] Creating layer scale4b1_branch2c
I0310 23:53:25.195919  8521 net.cpp:106] Creating Layer scale4b1_branch2c
I0310 23:53:25.195930  8521 net.cpp:454] scale4b1_branch2c <- res4b1_branch2c
I0310 23:53:25.195941  8521 net.cpp:397] scale4b1_branch2c -> res4b1_branch2c (in-place)
I0310 23:53:25.196002  8521 layer_factory.hpp:77] Creating layer scale4b1_branch2c
I0310 23:53:25.196156  8521 net.cpp:150] Setting up scale4b1_branch2c
I0310 23:53:25.196173  8521 net.cpp:157] Top shape: 8 1024 14 14 (1605632)
I0310 23:53:25.196182  8521 net.cpp:165] Memory required for data: 1970111424
I0310 23:53:25.196243  8521 layer_factory.hpp:77] Creating layer res4b1
I0310 23:53:25.196259  8521 net.cpp:106] Creating Layer res4b1
I0310 23:53:25.196271  8521 net.cpp:454] res4b1 <- res4a_res4a_relu_0_split_1
I0310 23:53:25.196282  8521 net.cpp:454] res4b1 <- res4b1_branch2c
I0310 23:53:25.196295  8521 net.cpp:411] res4b1 -> res4b1
I0310 23:53:25.196339  8521 net.cpp:150] Setting up res4b1
I0310 23:53:25.196355  8521 net.cpp:157] Top shape: 8 1024 14 14 (1605632)
I0310 23:53:25.196365  8521 net.cpp:165] Memory required for data: 1976533952
I0310 23:53:25.196374  8521 layer_factory.hpp:77] Creating layer res4b1_relu
I0310 23:53:25.196386  8521 net.cpp:106] Creating Layer res4b1_relu
I0310 23:53:25.196396  8521 net.cpp:454] res4b1_relu <- res4b1
I0310 23:53:25.196408  8521 net.cpp:397] res4b1_relu -> res4b1 (in-place)
I0310 23:53:25.196421  8521 net.cpp:150] Setting up res4b1_relu
I0310 23:53:25.196432  8521 net.cpp:157] Top shape: 8 1024 14 14 (1605632)
I0310 23:53:25.196441  8521 net.cpp:165] Memory required for data: 1982956480
I0310 23:53:25.196451  8521 layer_factory.hpp:77] Creating layer res4b1_res4b1_relu_0_split
I0310 23:53:25.196466  8521 net.cpp:106] Creating Layer res4b1_res4b1_relu_0_split
I0310 23:53:25.196476  8521 net.cpp:454] res4b1_res4b1_relu_0_split <- res4b1
I0310 23:53:25.196488  8521 net.cpp:411] res4b1_res4b1_relu_0_split -> res4b1_res4b1_relu_0_split_0
I0310 23:53:25.196502  8521 net.cpp:411] res4b1_res4b1_relu_0_split -> res4b1_res4b1_relu_0_split_1
I0310 23:53:25.196559  8521 net.cpp:150] Setting up res4b1_res4b1_relu_0_split
I0310 23:53:25.196575  8521 net.cpp:157] Top shape: 8 1024 14 14 (1605632)
I0310 23:53:25.196586  8521 net.cpp:157] Top shape: 8 1024 14 14 (1605632)
I0310 23:53:25.196606  8521 net.cpp:165] Memory required for data: 1995801536
I0310 23:53:25.196627  8521 layer_factory.hpp:77] Creating layer res4b2_branch2a
I0310 23:53:25.196646  8521 net.cpp:106] Creating Layer res4b2_branch2a
I0310 23:53:25.196658  8521 net.cpp:454] res4b2_branch2a <- res4b1_res4b1_relu_0_split_0
I0310 23:53:25.196671  8521 net.cpp:411] res4b2_branch2a -> res4b2_branch2a
I0310 23:53:25.197788  8521 net.cpp:150] Setting up res4b2_branch2a
I0310 23:53:25.197811  8521 net.cpp:157] Top shape: 8 256 14 14 (401408)
I0310 23:53:25.197821  8521 net.cpp:165] Memory required for data: 1997407168
I0310 23:53:25.197834  8521 layer_factory.hpp:77] Creating layer bn4b2_branch2a
I0310 23:53:25.197850  8521 net.cpp:106] Creating Layer bn4b2_branch2a
I0310 23:53:25.197861  8521 net.cpp:454] bn4b2_branch2a <- res4b2_branch2a
I0310 23:53:25.197873  8521 net.cpp:397] bn4b2_branch2a -> res4b2_branch2a (in-place)
I0310 23:53:25.198104  8521 net.cpp:150] Setting up bn4b2_branch2a
I0310 23:53:25.198122  8521 net.cpp:157] Top shape: 8 256 14 14 (401408)
I0310 23:53:25.198132  8521 net.cpp:165] Memory required for data: 1999012800
I0310 23:53:25.198146  8521 layer_factory.hpp:77] Creating layer scale4b2_branch2a
I0310 23:53:25.198160  8521 net.cpp:106] Creating Layer scale4b2_branch2a
I0310 23:53:25.198170  8521 net.cpp:454] scale4b2_branch2a <- res4b2_branch2a
I0310 23:53:25.198185  8521 net.cpp:397] scale4b2_branch2a -> res4b2_branch2a (in-place)
I0310 23:53:25.198243  8521 layer_factory.hpp:77] Creating layer scale4b2_branch2a
I0310 23:53:25.198395  8521 net.cpp:150] Setting up scale4b2_branch2a
I0310 23:53:25.198415  8521 net.cpp:157] Top shape: 8 256 14 14 (401408)
I0310 23:53:25.198424  8521 net.cpp:165] Memory required for data: 2000618432
I0310 23:53:25.198438  8521 layer_factory.hpp:77] Creating layer res4b2_branch2a_relu
I0310 23:53:25.198451  8521 net.cpp:106] Creating Layer res4b2_branch2a_relu
I0310 23:53:25.198462  8521 net.cpp:454] res4b2_branch2a_relu <- res4b2_branch2a
I0310 23:53:25.198473  8521 net.cpp:397] res4b2_branch2a_relu -> res4b2_branch2a (in-place)
I0310 23:53:25.198487  8521 net.cpp:150] Setting up res4b2_branch2a_relu
I0310 23:53:25.198498  8521 net.cpp:157] Top shape: 8 256 14 14 (401408)
I0310 23:53:25.198508  8521 net.cpp:165] Memory required for data: 2002224064
I0310 23:53:25.198518  8521 layer_factory.hpp:77] Creating layer res4b2_branch2b
I0310 23:53:25.198534  8521 net.cpp:106] Creating Layer res4b2_branch2b
I0310 23:53:25.198544  8521 net.cpp:454] res4b2_branch2b <- res4b2_branch2a
I0310 23:53:25.198556  8521 net.cpp:411] res4b2_branch2b -> res4b2_branch2b
I0310 23:53:25.200574  8521 net.cpp:150] Setting up res4b2_branch2b
I0310 23:53:25.200595  8521 net.cpp:157] Top shape: 8 256 14 14 (401408)
I0310 23:53:25.200605  8521 net.cpp:165] Memory required for data: 2003829696
I0310 23:53:25.200618  8521 layer_factory.hpp:77] Creating layer bn4b2_branch2b
I0310 23:53:25.200633  8521 net.cpp:106] Creating Layer bn4b2_branch2b
I0310 23:53:25.200642  8521 net.cpp:454] bn4b2_branch2b <- res4b2_branch2b
I0310 23:53:25.200659  8521 net.cpp:397] bn4b2_branch2b -> res4b2_branch2b (in-place)
I0310 23:53:25.200894  8521 net.cpp:150] Setting up bn4b2_branch2b
I0310 23:53:25.200912  8521 net.cpp:157] Top shape: 8 256 14 14 (401408)
I0310 23:53:25.200922  8521 net.cpp:165] Memory required for data: 2005435328
I0310 23:53:25.200937  8521 layer_factory.hpp:77] Creating layer scale4b2_branch2b
I0310 23:53:25.200951  8521 net.cpp:106] Creating Layer scale4b2_branch2b
I0310 23:53:25.200961  8521 net.cpp:454] scale4b2_branch2b <- res4b2_branch2b
I0310 23:53:25.200973  8521 net.cpp:397] scale4b2_branch2b -> res4b2_branch2b (in-place)
I0310 23:53:25.201035  8521 layer_factory.hpp:77] Creating layer scale4b2_branch2b
I0310 23:53:25.201184  8521 net.cpp:150] Setting up scale4b2_branch2b
I0310 23:53:25.201201  8521 net.cpp:157] Top shape: 8 256 14 14 (401408)
I0310 23:53:25.201210  8521 net.cpp:165] Memory required for data: 2007040960
I0310 23:53:25.201223  8521 layer_factory.hpp:77] Creating layer res4b2_branch2b_relu
I0310 23:53:25.201243  8521 net.cpp:106] Creating Layer res4b2_branch2b_relu
I0310 23:53:25.201273  8521 net.cpp:454] res4b2_branch2b_relu <- res4b2_branch2b
I0310 23:53:25.201289  8521 net.cpp:397] res4b2_branch2b_relu -> res4b2_branch2b (in-place)
I0310 23:53:25.201304  8521 net.cpp:150] Setting up res4b2_branch2b_relu
I0310 23:53:25.201316  8521 net.cpp:157] Top shape: 8 256 14 14 (401408)
I0310 23:53:25.201325  8521 net.cpp:165] Memory required for data: 2008646592
I0310 23:53:25.201334  8521 layer_factory.hpp:77] Creating layer res4b2_branch2c
I0310 23:53:25.201349  8521 net.cpp:106] Creating Layer res4b2_branch2c
I0310 23:53:25.201359  8521 net.cpp:454] res4b2_branch2c <- res4b2_branch2b
I0310 23:53:25.201373  8521 net.cpp:411] res4b2_branch2c -> res4b2_branch2c
I0310 23:53:25.202483  8521 net.cpp:150] Setting up res4b2_branch2c
I0310 23:53:25.202505  8521 net.cpp:157] Top shape: 8 1024 14 14 (1605632)
I0310 23:53:25.202515  8521 net.cpp:165] Memory required for data: 2015069120
I0310 23:53:25.202527  8521 layer_factory.hpp:77] Creating layer bn4b2_branch2c
I0310 23:53:25.202541  8521 net.cpp:106] Creating Layer bn4b2_branch2c
I0310 23:53:25.202551  8521 net.cpp:454] bn4b2_branch2c <- res4b2_branch2c
I0310 23:53:25.202564  8521 net.cpp:397] bn4b2_branch2c -> res4b2_branch2c (in-place)
I0310 23:53:25.202798  8521 net.cpp:150] Setting up bn4b2_branch2c
I0310 23:53:25.202816  8521 net.cpp:157] Top shape: 8 1024 14 14 (1605632)
I0310 23:53:25.202826  8521 net.cpp:165] Memory required for data: 2021491648
I0310 23:53:25.202841  8521 layer_factory.hpp:77] Creating layer scale4b2_branch2c
I0310 23:53:25.202858  8521 net.cpp:106] Creating Layer scale4b2_branch2c
I0310 23:53:25.202869  8521 net.cpp:454] scale4b2_branch2c <- res4b2_branch2c
I0310 23:53:25.202882  8521 net.cpp:397] scale4b2_branch2c -> res4b2_branch2c (in-place)
I0310 23:53:25.202940  8521 layer_factory.hpp:77] Creating layer scale4b2_branch2c
I0310 23:53:25.203100  8521 net.cpp:150] Setting up scale4b2_branch2c
I0310 23:53:25.203117  8521 net.cpp:157] Top shape: 8 1024 14 14 (1605632)
I0310 23:53:25.203127  8521 net.cpp:165] Memory required for data: 2027914176
I0310 23:53:25.203141  8521 layer_factory.hpp:77] Creating layer res4b2
I0310 23:53:25.203155  8521 net.cpp:106] Creating Layer res4b2
I0310 23:53:25.203164  8521 net.cpp:454] res4b2 <- res4b1_res4b1_relu_0_split_1
I0310 23:53:25.203176  8521 net.cpp:454] res4b2 <- res4b2_branch2c
I0310 23:53:25.203191  8521 net.cpp:411] res4b2 -> res4b2
I0310 23:53:25.203229  8521 net.cpp:150] Setting up res4b2
I0310 23:53:25.203249  8521 net.cpp:157] Top shape: 8 1024 14 14 (1605632)
I0310 23:53:25.203258  8521 net.cpp:165] Memory required for data: 2034336704
I0310 23:53:25.203269  8521 layer_factory.hpp:77] Creating layer res4b2_relu
I0310 23:53:25.203279  8521 net.cpp:106] Creating Layer res4b2_relu
I0310 23:53:25.203289  8521 net.cpp:454] res4b2_relu <- res4b2
I0310 23:53:25.203301  8521 net.cpp:397] res4b2_relu -> res4b2 (in-place)
I0310 23:53:25.203315  8521 net.cpp:150] Setting up res4b2_relu
I0310 23:53:25.203325  8521 net.cpp:157] Top shape: 8 1024 14 14 (1605632)
I0310 23:53:25.203335  8521 net.cpp:165] Memory required for data: 2040759232
I0310 23:53:25.203344  8521 layer_factory.hpp:77] Creating layer res4b2_res4b2_relu_0_split
I0310 23:53:25.203356  8521 net.cpp:106] Creating Layer res4b2_res4b2_relu_0_split
I0310 23:53:25.203366  8521 net.cpp:454] res4b2_res4b2_relu_0_split <- res4b2
…
I0310 23:53:25.402256  8521 net.cpp:165] Memory required for data: 3787686848
I0310 23:53:25.402264  8521 layer_factory.hpp:77] Creating layer res4b33_branch2a
I0310 23:53:25.402281  8521 net.cpp:106] Creating Layer res4b33_branch2a
I0310 23:53:25.402290  8521 net.cpp:454] res4b33_branch2a <- res4b32_res4b32_relu_0_split_0
I0310 23:53:25.402302  8521 net.cpp:411] res4b33_branch2a -> res4b33_branch2a
I0310 23:53:25.403411  8521 net.cpp:150] Setting up res4b33_branch2a
I0310 23:53:25.403431  8521 net.cpp:157] Top shape: 8 256 14 14 (401408)
I0310 23:53:25.403440  8521 net.cpp:165] Memory required for data: 3789292480
I0310 23:53:25.403451  8521 layer_factory.hpp:77] Creating layer bn4b33_branch2a
I0310 23:53:25.403465  8521 net.cpp:106] Creating Layer bn4b33_branch2a
I0310 23:53:25.403473  8521 net.cpp:454] bn4b33_branch2a <- res4b33_branch2a
I0310 23:53:25.403486  8521 net.cpp:397] bn4b33_branch2a -> res4b33_branch2a (in-place)
I0310 23:53:25.403722  8521 net.cpp:150] Setting up bn4b33_branch2a
I0310 23:53:25.403740  8521 net.cpp:157] Top shape: 8 256 14 14 (401408)
I0310 23:53:25.403749  8521 net.cpp:165] Memory required for data: 3790898112
I0310 23:53:25.403764  8521 layer_factory.hpp:77] Creating layer scale4b33_branch2a
I0310 23:53:25.403775  8521 net.cpp:106] Creating Layer scale4b33_branch2a
I0310 23:53:25.403785  8521 net.cpp:454] scale4b33_branch2a <- res4b33_branch2a
I0310 23:53:25.403796  8521 net.cpp:397] scale4b33_branch2a -> res4b33_branch2a (in-place)
I0310 23:53:25.403858  8521 layer_factory.hpp:77] Creating layer scale4b33_branch2a
I0310 23:53:25.404005  8521 net.cpp:150] Setting up scale4b33_branch2a
I0310 23:53:25.404021  8521 net.cpp:157] Top shape: 8 256 14 14 (401408)
I0310 23:53:25.404029  8521 net.cpp:165] Memory required for data: 3792503744
I0310 23:53:25.404042  8521 layer_factory.hpp:77] Creating layer res4b33_branch2a_relu
I0310 23:53:25.404057  8521 net.cpp:106] Creating Layer res4b33_branch2a_relu
I0310 23:53:25.404067  8521 net.cpp:454] res4b33_branch2a_relu <- res4b33_branch2a
I0310 23:53:25.404078  8521 net.cpp:397] res4b33_branch2a_relu -> res4b33_branch2a (in-place)
I0310 23:53:25.404089  8521 net.cpp:150] Setting up res4b33_branch2a_relu
I0310 23:53:25.404100  8521 net.cpp:157] Top shape: 8 256 14 14 (401408)
I0310 23:53:25.404109  8521 net.cpp:165] Memory required for data: 3794109376
I0310 23:53:25.404117  8521 layer_factory.hpp:77] Creating layer res4b33_branch2b
I0310 23:53:25.404134  8521 net.cpp:106] Creating Layer res4b33_branch2b
I0310 23:53:25.404144  8521 net.cpp:454] res4b33_branch2b <- res4b33_branch2a
I0310 23:53:25.404155  8521 net.cpp:411] res4b33_branch2b -> res4b33_branch2b
I0310 23:53:25.406076  8521 net.cpp:150] Setting up res4b33_branch2b
I0310 23:53:25.406097  8521 net.cpp:157] Top shape: 8 256 14 14 (401408)
I0310 23:53:25.406106  8521 net.cpp:165] Memory required for data: 3795715008
I0310 23:53:25.406118  8521 layer_factory.hpp:77] Creating layer bn4b33_branch2b
I0310 23:53:25.406137  8521 net.cpp:106] Creating Layer bn4b33_branch2b
I0310 23:53:25.406148  8521 net.cpp:454] bn4b33_branch2b <- res4b33_branch2b
I0310 23:53:25.406159  8521 net.cpp:397] bn4b33_branch2b -> res4b33_branch2b (in-place)
I0310 23:53:25.406394  8521 net.cpp:150] Setting up bn4b33_branch2b
I0310 23:53:25.406410  8521 net.cpp:157] Top shape: 8 256 14 14 (401408)
I0310 23:53:25.406419  8521 net.cpp:165] Memory required for data: 3797320640
I0310 23:53:25.406435  8521 layer_factory.hpp:77] Creating layer scale4b33_branch2b
I0310 23:53:25.406464  8521 net.cpp:106] Creating Layer scale4b33_branch2b
I0310 23:53:25.406476  8521 net.cpp:454] scale4b33_branch2b <- res4b33_branch2b
I0310 23:53:25.406486  8521 net.cpp:397] scale4b33_branch2b -> res4b33_branch2b (in-place)
I0310 23:53:25.406548  8521 layer_factory.hpp:77] Creating layer scale4b33_branch2b
I0310 23:53:25.406698  8521 net.cpp:150] Setting up scale4b33_branch2b
I0310 23:53:25.406714  8521 net.cpp:157] Top shape: 8 256 14 14 (401408)
I0310 23:53:25.406723  8521 net.cpp:165] Memory required for data: 3798926272
I0310 23:53:25.406734  8521 layer_factory.hpp:77] Creating layer res4b33_branch2b_relu
I0310 23:53:25.406746  8521 net.cpp:106] Creating Layer res4b33_branch2b_relu
I0310 23:53:25.406756  8521 net.cpp:454] res4b33_branch2b_relu <- res4b33_branch2b
I0310 23:53:25.406767  8521 net.cpp:397] res4b33_branch2b_relu -> res4b33_branch2b (in-place)
I0310 23:53:25.406780  8521 net.cpp:150] Setting up res4b33_branch2b_relu
I0310 23:53:25.406790  8521 net.cpp:157] Top shape: 8 256 14 14 (401408)
I0310 23:53:25.406798  8521 net.cpp:165] Memory required for data: 3800531904
I0310 23:53:25.406807  8521 layer_factory.hpp:77] Creating layer res4b33_branch2c
I0310 23:53:25.406823  8521 net.cpp:106] Creating Layer res4b33_branch2c
I0310 23:53:25.406832  8521 net.cpp:454] res4b33_branch2c <- res4b33_branch2b
I0310 23:53:25.406852  8521 net.cpp:411] res4b33_branch2c -> res4b33_branch2c
I0310 23:53:25.407918  8521 net.cpp:150] Setting up res4b33_branch2c
I0310 23:53:25.407939  8521 net.cpp:157] Top shape: 8 1024 14 14 (1605632)
I0310 23:53:25.407948  8521 net.cpp:165] Memory required for data: 3806954432
I0310 23:53:25.407959  8521 layer_factory.hpp:77] Creating layer bn4b33_branch2c
I0310 23:53:25.407971  8521 net.cpp:106] Creating Layer bn4b33_branch2c
I0310 23:53:25.407981  8521 net.cpp:454] bn4b33_branch2c <- res4b33_branch2c
I0310 23:53:25.407995  8521 net.cpp:397] bn4b33_branch2c -> res4b33_branch2c (in-place)
I0310 23:53:25.408252  8521 net.cpp:150] Setting up bn4b33_branch2c
I0310 23:53:25.408268  8521 net.cpp:157] Top shape: 8 1024 14 14 (1605632)
I0310 23:53:25.408277  8521 net.cpp:165] Memory required for data: 3813376960
I0310 23:53:25.408291  8521 layer_factory.hpp:77] Creating layer scale4b33_branch2c
I0310 23:53:25.408304  8521 net.cpp:106] Creating Layer scale4b33_branch2c
I0310 23:53:25.408314  8521 net.cpp:454] scale4b33_branch2c <- res4b33_branch2c
I0310 23:53:25.408325  8521 net.cpp:397] scale4b33_branch2c -> res4b33_branch2c (in-place)
I0310 23:53:25.408392  8521 layer_factory.hpp:77] Creating layer scale4b33_branch2c
I0310 23:53:25.408558  8521 net.cpp:150] Setting up scale4b33_branch2c
I0310 23:53:25.408576  8521 net.cpp:157] Top shape: 8 1024 14 14 (1605632)
I0310 23:53:25.408584  8521 net.cpp:165] Memory required for data: 3819799488
I0310 23:53:25.408596  8521 layer_factory.hpp:77] Creating layer res4b33
I0310 23:53:25.408608  8521 net.cpp:106] Creating Layer res4b33
I0310 23:53:25.408618  8521 net.cpp:454] res4b33 <- res4b32_res4b32_relu_0_split_1
I0310 23:53:25.408629  8521 net.cpp:454] res4b33 <- res4b33_branch2c
I0310 23:53:25.408644  8521 net.cpp:411] res4b33 -> res4b33
I0310 23:53:25.408684  8521 net.cpp:150] Setting up res4b33
I0310 23:53:25.408699  8521 net.cpp:157] Top shape: 8 1024 14 14 (1605632)
I0310 23:53:25.408706  8521 net.cpp:165] Memory required for data: 3826222016
I0310 23:53:25.408715  8521 layer_factory.hpp:77] Creating layer res4b33_relu
I0310 23:53:25.408730  8521 net.cpp:106] Creating Layer res4b33_relu
I0310 23:53:25.408740  8521 net.cpp:454] res4b33_relu <- res4b33
I0310 23:53:25.408751  8521 net.cpp:397] res4b33_relu -> res4b33 (in-place)
I0310 23:53:25.408762  8521 net.cpp:150] Setting up res4b33_relu
I0310 23:53:25.408773  8521 net.cpp:157] Top shape: 8 1024 14 14 (1605632)
I0310 23:53:25.408782  8521 net.cpp:165] Memory required for data: 3832644544
I0310 23:53:25.408790  8521 layer_factory.hpp:77] Creating layer res4b33_res4b33_relu_0_split
I0310 23:53:25.408804  8521 net.cpp:106] Creating Layer res4b33_res4b33_relu_0_split
I0310 23:53:25.408828  8521 net.cpp:454] res4b33_res4b33_relu_0_split <- res4b33
I0310 23:53:25.408839  8521 net.cpp:411] res4b33_res4b33_relu_0_split -> res4b33_res4b33_relu_0_split_0
I0310 23:53:25.408852  8521 net.cpp:411] res4b33_res4b33_relu_0_split -> res4b33_res4b33_relu_0_split_1
I0310 23:53:25.408906  8521 net.cpp:150] Setting up res4b33_res4b33_relu_0_split
I0310 23:53:25.408921  8521 net.cpp:157] Top shape: 8 1024 14 14 (1605632)
I0310 23:53:25.408931  8521 net.cpp:157] Top shape: 8 1024 14 14 (1605632)
I0310 23:53:25.408939  8521 net.cpp:165] Memory required for data: 3845489600
I0310 23:53:25.408947  8521 layer_factory.hpp:77] Creating layer res4b34_branch2a
I0310 23:53:25.408967  8521 net.cpp:106] Creating Layer res4b34_branch2a
I0310 23:53:25.408978  8521 net.cpp:454] res4b34_branch2a <- res4b33_res4b33_relu_0_split_0
I0310 23:53:25.408990  8521 net.cpp:411] res4b34_branch2a -> res4b34_branch2a
I0310 23:53:25.410073  8521 net.cpp:150] Setting up res4b34_branch2a
I0310 23:53:25.410094  8521 net.cpp:157] Top shape: 8 256 14 14 (401408)
I0310 23:53:25.410104  8521 net.cpp:165] Memory required for data: 3847095232
I0310 23:53:25.410115  8521 layer_factory.hpp:77] Creating layer bn4b34_branch2a
I0310 23:53:25.410128  8521 net.cpp:106] Creating Layer bn4b34_branch2a
I0310 23:53:25.410138  8521 net.cpp:454] bn4b34_branch2a <- res4b34_branch2a
I0310 23:53:25.410150  8521 net.cpp:397] bn4b34_branch2a -> res4b34_branch2a (in-place)
I0310 23:53:25.410388  8521 net.cpp:150] Setting up bn4b34_branch2a
I0310 23:53:25.410408  8521 net.cpp:157] Top shape: 8 256 14 14 (401408)
I0310 23:53:25.410416  8521 net.cpp:165] Memory required for data: 3848700864
I0310 23:53:25.410431  8521 layer_factory.hpp:77] Creating layer scale4b34_branch2a
I0310 23:53:25.410444  8521 net.cpp:106] Creating Layer scale4b34_branch2a
I0310 23:53:25.410454  8521 net.cpp:454] scale4b34_branch2a <- res4b34_branch2a
I0310 23:53:25.410465  8521 net.cpp:397] scale4b34_branch2a -> res4b34_branch2a (in-place)
I0310 23:53:25.410526  8521 layer_factory.hpp:77] Creating layer scale4b34_branch2a
I0310 23:53:25.410676  8521 net.cpp:150] Setting up scale4b34_branch2a
I0310 23:53:25.410692  8521 net.cpp:157] Top shape: 8 256 14 14 (401408)
I0310 23:53:25.410701  8521 net.cpp:165] Memory required for data: 3850306496
I0310 23:53:25.410713  8521 layer_factory.hpp:77] Creating layer res4b34_branch2a_relu
I0310 23:53:25.410728  8521 net.cpp:106] Creating Layer res4b34_branch2a_relu
I0310 23:53:25.410738  8521 net.cpp:454] res4b34_branch2a_relu <- res4b34_branch2a
I0310 23:53:25.410749  8521 net.cpp:397] res4b34_branch2a_relu -> res4b34_branch2a (in-place)
I0310 23:53:25.410763  8521 net.cpp:150] Setting up res4b34_branch2a_relu
I0310 23:53:25.410773  8521 net.cpp:157] Top shape: 8 256 14 14 (401408)
I0310 23:53:25.410781  8521 net.cpp:165] Memory required for data: 3851912128
I0310 23:53:25.410789  8521 layer_factory.hpp:77] Creating layer res4b34_branch2b
I0310 23:53:25.410805  8521 net.cpp:106] Creating Layer res4b34_branch2b
I0310 23:53:25.410815  8521 net.cpp:454] res4b34_branch2b <- res4b34_branch2a
I0310 23:53:25.410826  8521 net.cpp:411] res4b34_branch2b -> res4b34_branch2b
I0310 23:53:25.412817  8521 net.cpp:150] Setting up res4b34_branch2b
I0310 23:53:25.412838  8521 net.cpp:157] Top shape: 8 256 14 14 (401408)
I0310 23:53:25.412847  8521 net.cpp:165] Memory required for data: 3853517760
I0310 23:53:25.412859  8521 layer_factory.hpp:77] Creating layer bn4b34_branch2b
I0310 23:53:25.412875  8521 net.cpp:106] Creating Layer bn4b34_branch2b
I0310 23:53:25.412885  8521 net.cpp:454] bn4b34_branch2b <- res4b34_branch2b
I0310 23:53:25.412897  8521 net.cpp:397] bn4b34_branch2b -> res4b34_branch2b (in-place)
I0310 23:53:25.413136  8521 net.cpp:150] Setting up bn4b34_branch2b
I0310 23:53:25.413151  8521 net.cpp:157] Top shape: 8 256 14 14 (401408)
I0310 23:53:25.413161  8521 net.cpp:165] Memory required for data: 3855123392
I0310 23:53:25.413174  8521 layer_factory.hpp:77] Creating layer scale4b34_branch2b
I0310 23:53:25.413197  8521 net.cpp:106] Creating Layer scale4b34_branch2b
I0310 23:53:25.413218  8521 net.cpp:454] scale4b34_branch2b <- res4b34_branch2b
I0310 23:53:25.413230  8521 net.cpp:397] scale4b34_branch2b -> res4b34_branch2b (in-place)
I0310 23:53:25.413306  8521 layer_factory.hpp:77] Creating layer scale4b34_branch2b
I0310 23:53:25.413460  8521 net.cpp:150] Setting up scale4b34_branch2b
I0310 23:53:25.413475  8521 net.cpp:157] Top shape: 8 256 14 14 (401408)
I0310 23:53:25.413485  8521 net.cpp:165] Memory required for data: 3856729024
I0310 23:53:25.413497  8521 layer_factory.hpp:77] Creating layer res4b34_branch2b_relu
I0310 23:53:25.413508  8521 net.cpp:106] Creating Layer res4b34_branch2b_relu
I0310 23:53:25.413518  8521 net.cpp:454] res4b34_branch2b_relu <- res4b34_branch2b
I0310 23:53:25.413529  8521 net.cpp:397] res4b34_branch2b_relu -> res4b34_branch2b (in-place)
I0310 23:53:25.413542  8521 net.cpp:150] Setting up res4b34_branch2b_relu
I0310 23:53:25.413552  8521 net.cpp:157] Top shape: 8 256 14 14 (401408)
I0310 23:53:25.413560  8521 net.cpp:165] Memory required for data: 3858334656
I0310 23:53:25.413568  8521 layer_factory.hpp:77] Creating layer res4b34_branch2c
I0310 23:53:25.413584  8521 net.cpp:106] Creating Layer res4b34_branch2c
I0310 23:53:25.413594  8521 net.cpp:454] res4b34_branch2c <- res4b34_branch2b
I0310 23:53:25.413609  8521 net.cpp:411] res4b34_branch2c -> res4b34_branch2c
I0310 23:53:25.414683  8521 net.cpp:150] Setting up res4b34_branch2c
I0310 23:53:25.414705  8521 net.cpp:157] Top shape: 8 1024 14 14 (1605632)
I0310 23:53:25.414713  8521 net.cpp:165] Memory required for data: 3864757184
I0310 23:53:25.414724  8521 layer_factory.hpp:77] Creating layer bn4b34_branch2c
I0310 23:53:25.414737  8521 net.cpp:106] Creating Layer bn4b34_branch2c
I0310 23:53:25.414747  8521 net.cpp:454] bn4b34_branch2c <- res4b34_branch2c
I0310 23:53:25.414762  8521 net.cpp:397] bn4b34_branch2c -> res4b34_branch2c (in-place)
I0310 23:53:25.415022  8521 net.cpp:150] Setting up bn4b34_branch2c
I0310 23:53:25.415040  8521 net.cpp:157] Top shape: 8 1024 14 14 (1605632)
I0310 23:53:25.415048  8521 net.cpp:165] Memory required for data: 3871179712
I0310 23:53:25.415063  8521 layer_factory.hpp:77] Creating layer scale4b34_branch2c
I0310 23:53:25.415076  8521 net.cpp:106] Creating Layer scale4b34_branch2c
I0310 23:53:25.415086  8521 net.cpp:454] scale4b34_branch2c <- res4b34_branch2c
I0310 23:53:25.415096  8521 net.cpp:397] scale4b34_branch2c -> res4b34_branch2c (in-place)
I0310 23:53:25.415165  8521 layer_factory.hpp:77] Creating layer scale4b34_branch2c
I0310 23:53:25.415333  8521 net.cpp:150] Setting up scale4b34_branch2c
I0310 23:53:25.415349  8521 net.cpp:157] Top shape: 8 1024 14 14 (1605632)
I0310 23:53:25.415359  8521 net.cpp:165] Memory required for data: 3877602240
I0310 23:53:25.415370  8521 layer_factory.hpp:77] Creating layer res4b34
I0310 23:53:25.415382  8521 net.cpp:106] Creating Layer res4b34
I0310 23:53:25.415392  8521 net.cpp:454] res4b34 <- res4b33_res4b33_relu_0_split_1
I0310 23:53:25.415403  8521 net.cpp:454] res4b34 <- res4b34_branch2c
I0310 23:53:25.415417  8521 net.cpp:411] res4b34 -> res4b34
I0310 23:53:25.415455  8521 net.cpp:150] Setting up res4b34
I0310 23:53:25.415472  8521 net.cpp:157] Top shape: 8 1024 14 14 (1605632)
I0310 23:53:25.415479  8521 net.cpp:165] Memory required for data: 3884024768
I0310 23:53:25.415488  8521 layer_factory.hpp:77] Creating layer res4b34_relu
I0310 23:53:25.415503  8521 net.cpp:106] Creating Layer res4b34_relu
I0310 23:53:25.415511  8521 net.cpp:454] res4b34_relu <- res4b34
I0310 23:53:25.415522  8521 net.cpp:397] res4b34_relu -> res4b34 (in-place)
I0310 23:53:25.415534  8521 net.cpp:150] Setting up res4b34_relu
I0310 23:53:25.415545  8521 net.cpp:157] Top shape: 8 1024 14 14 (1605632)
I0310 23:53:25.415554  8521 net.cpp:165] Memory required for data: 3890447296
I0310 23:53:25.415562  8521 layer_factory.hpp:77] Creating layer res4b34_res4b34_relu_0_split
I0310 23:53:25.415575  8521 net.cpp:106] Creating Layer res4b34_res4b34_relu_0_split
I0310 23:53:25.415585  8521 net.cpp:454] res4b34_res4b34_relu_0_split <- res4b34
I0310 23:53:25.415612  8521 net.cpp:411] res4b34_res4b34_relu_0_split -> res4b34_res4b34_relu_0_split_0
I0310 23:53:25.415627  8521 net.cpp:411] res4b34_res4b34_relu_0_split -> res4b34_res4b34_relu_0_split_1
I0310 23:53:25.415681  8521 net.cpp:150] Setting up res4b34_res4b34_relu_0_split
I0310 23:53:25.415696  8521 net.cpp:157] Top shape: 8 1024 14 14 (1605632)
I0310 23:53:25.415706  8521 net.cpp:157] Top shape: 8 1024 14 14 (1605632)
I0310 23:53:25.415714  8521 net.cpp:165] Memory required for data: 3903292352
I0310 23:53:25.415722  8521 layer_factory.hpp:77] Creating layer res4b35_branch2a
I0310 23:53:25.415738  8521 net.cpp:106] Creating Layer res4b35_branch2a
I0310 23:53:25.415750  8521 net.cpp:454] res4b35_branch2a <- res4b34_res4b34_relu_0_split_0
I0310 23:53:25.415761  8521 net.cpp:411] res4b35_branch2a -> res4b35_branch2a
I0310 23:53:25.417276  8521 net.cpp:150] Setting up res4b35_branch2a
I0310 23:53:25.417340  8521 net.cpp:157] Top shape: 8 256 14 14 (401408)
I0310 23:53:25.417351  8521 net.cpp:165] Memory required for data: 3904897984
I0310 23:53:25.417369  8521 layer_factory.hpp:77] Creating layer bn4b35_branch2a
I0310 23:53:25.417392  8521 net.cpp:106] Creating Layer bn4b35_branch2a
I0310 23:53:25.417405  8521 net.cpp:454] bn4b35_branch2a <- res4b35_branch2a
I0310 23:53:25.417421  8521 net.cpp:397] bn4b35_branch2a -> res4b35_branch2a (in-place)
I0310 23:53:25.417717  8521 net.cpp:150] Setting up bn4b35_branch2a
I0310 23:53:25.417734  8521 net.cpp:157] Top shape: 8 256 14 14 (401408)
I0310 23:53:25.417744  8521 net.cpp:165] Memory required for data: 3906503616
I0310 23:53:25.417765  8521 layer_factory.hpp:77] Creating layer scale4b35_branch2a
I0310 23:53:25.417783  8521 net.cpp:106] Creating Layer scale4b35_branch2a
I0310 23:53:25.417793  8521 net.cpp:454] scale4b35_branch2a <- res4b35_branch2a
I0310 23:53:25.417804  8521 net.cpp:397] scale4b35_branch2a -> res4b35_branch2a (in-place)
I0310 23:53:25.417886  8521 layer_factory.hpp:77] Creating layer scale4b35_branch2a
I0310 23:53:25.418051  8521 net.cpp:150] Setting up scale4b35_branch2a
I0310 23:53:25.418067  8521 net.cpp:157] Top shape: 8 256 14 14 (401408)
I0310 23:53:25.418076  8521 net.cpp:165] Memory required for data: 3908109248
I0310 23:53:25.418090  8521 layer_factory.hpp:77] Creating layer res4b35_branch2a_relu
I0310 23:53:25.418107  8521 net.cpp:106] Creating Layer res4b35_branch2a_relu
I0310 23:53:25.418118  8521 net.cpp:454] res4b35_branch2a_relu <- res4b35_branch2a
I0310 23:53:25.418130  8521 net.cpp:397] res4b35_branch2a_relu -> res4b35_branch2a (in-place)
I0310 23:53:25.418144  8521 net.cpp:150] Setting up res4b35_branch2a_relu
I0310 23:53:25.418155  8521 net.cpp:157] Top shape: 8 256 14 14 (401408)
I0310 23:53:25.418164  8521 net.cpp:165] Memory required for data: 3909714880
I0310 23:53:25.418174  8521 layer_factory.hpp:77] Creating layer res4b35_branch2b
I0310 23:53:25.418193  8521 net.cpp:106] Creating Layer res4b35_branch2b
I0310 23:53:25.418203  8521 net.cpp:454] res4b35_branch2b <- res4b35_branch2a
I0310 23:53:25.418216  8521 net.cpp:411] res4b35_branch2b -> res4b35_branch2b
I0310 23:53:25.420389  8521 net.cpp:150] Setting up res4b35_branch2b
I0310 23:53:25.420413  8521 net.cpp:157] Top shape: 8 256 14 14 (401408)
I0310 23:53:25.420423  8521 net.cpp:165] Memory required for data: 3911320512
I0310 23:53:25.420434  8521 layer_factory.hpp:77] Creating layer bn4b35_branch2b
I0310 23:53:25.420451  8521 net.cpp:106] Creating Layer bn4b35_branch2b
I0310 23:53:25.420462  8521 net.cpp:454] bn4b35_branch2b <- res4b35_branch2b
I0310 23:53:25.420475  8521 net.cpp:397] bn4b35_branch2b -> res4b35_branch2b (in-place)
I0310 23:53:25.420732  8521 net.cpp:150] Setting up bn4b35_branch2b
I0310 23:53:25.420749  8521 net.cpp:157] Top shape: 8 256 14 14 (401408)
I0310 23:53:25.420758  8521 net.cpp:165] Memory required for data: 3912926144
I0310 23:53:25.420774  8521 layer_factory.hpp:77] Creating layer scale4b35_branch2b
I0310 23:53:25.420791  8521 net.cpp:106] Creating Layer scale4b35_branch2b
I0310 23:53:25.420802  8521 net.cpp:454] scale4b35_branch2b <- res4b35_branch2b
I0310 23:53:25.420841  8521 net.cpp:397] scale4b35_branch2b -> res4b35_branch2b (in-place)
I0310 23:53:25.420908  8521 layer_factory.hpp:77] Creating layer scale4b35_branch2b
I0310 23:53:25.421067  8521 net.cpp:150] Setting up scale4b35_branch2b
I0310 23:53:25.421084  8521 net.cpp:157] Top shape: 8 256 14 14 (401408)
I0310 23:53:25.421093  8521 net.cpp:165] Memory required for data: 3914531776
I0310 23:53:25.421106  8521 layer_factory.hpp:77] Creating layer res4b35_branch2b_relu
I0310 23:53:25.421118  8521 net.cpp:106] Creating Layer res4b35_branch2b_relu
I0310 23:53:25.421128  8521 net.cpp:454] res4b35_branch2b_relu <- res4b35_branch2b
I0310 23:53:25.421140  8521 net.cpp:397] res4b35_branch2b_relu -> res4b35_branch2b (in-place)
I0310 23:53:25.421154  8521 net.cpp:150] Setting up res4b35_branch2b_relu
I0310 23:53:25.421165  8521 net.cpp:157] Top shape: 8 256 14 14 (401408)
I0310 23:53:25.421174  8521 net.cpp:165] Memory required for data: 3916137408
I0310 23:53:25.421182  8521 layer_factory.hpp:77] Creating layer res4b35_branch2c
I0310 23:53:25.421201  8521 net.cpp:106] Creating Layer res4b35_branch2c
I0310 23:53:25.421211  8521 net.cpp:454] res4b35_branch2c <- res4b35_branch2b
I0310 23:53:25.421226  8521 net.cpp:411] res4b35_branch2c -> res4b35_branch2c
I0310 23:53:25.422415  8521 net.cpp:150] Setting up res4b35_branch2c
I0310 23:53:25.422437  8521 net.cpp:157] Top shape: 8 1024 14 14 (1605632)
I0310 23:53:25.422447  8521 net.cpp:165] Memory required for data: 3922559936
I0310 23:53:25.422459  8521 layer_factory.hpp:77] Creating layer bn4b35_branch2c
I0310 23:53:25.422473  8521 net.cpp:106] Creating Layer bn4b35_branch2c
I0310 23:53:25.422483  8521 net.cpp:454] bn4b35_branch2c <- res4b35_branch2c
I0310 23:53:25.422499  8521 net.cpp:397] bn4b35_branch2c -> res4b35_branch2c (in-place)
I0310 23:53:25.422783  8521 net.cpp:150] Setting up bn4b35_branch2c
I0310 23:53:25.422801  8521 net.cpp:157] Top shape: 8 1024 14 14 (1605632)
I0310 23:53:25.422811  8521 net.cpp:165] Memory required for data: 3928982464
I0310 23:53:25.422826  8521 layer_factory.hpp:77] Creating layer scale4b35_branch2c
I0310 23:53:25.422839  8521 net.cpp:106] Creating Layer scale4b35_branch2c
I0310 23:53:25.422849  8521 net.cpp:454] scale4b35_branch2c <- res4b35_branch2c
I0310 23:53:25.422861  8521 net.cpp:397] scale4b35_branch2c -> res4b35_branch2c (in-place)
I0310 23:53:25.422937  8521 layer_factory.hpp:77] Creating layer scale4b35_branch2c
I0310 23:53:25.423116  8521 net.cpp:150] Setting up scale4b35_branch2c
I0310 23:53:25.423133  8521 net.cpp:157] Top shape: 8 1024 14 14 (1605632)
I0310 23:53:25.423142  8521 net.cpp:165] Memory required for data: 3935404992
I0310 23:53:25.423156  8521 layer_factory.hpp:77] Creating layer res4b35
I0310 23:53:25.423171  8521 net.cpp:106] Creating Layer res4b35
I0310 23:53:25.423182  8521 net.cpp:454] res4b35 <- res4b34_res4b34_relu_0_split_1
I0310 23:53:25.423192  8521 net.cpp:454] res4b35 <- res4b35_branch2c
I0310 23:53:25.423208  8521 net.cpp:411] res4b35 -> res4b35
I0310 23:53:25.423250  8521 net.cpp:150] Setting up res4b35
I0310 23:53:25.423266  8521 net.cpp:157] Top shape: 8 1024 14 14 (1605632)
I0310 23:53:25.423275  8521 net.cpp:165] Memory required for data: 3941827520
I0310 23:53:25.423285  8521 layer_factory.hpp:77] Creating layer res4b35_relu
I0310 23:53:25.423301  8521 net.cpp:106] Creating Layer res4b35_relu
I0310 23:53:25.423311  8521 net.cpp:454] res4b35_relu <- res4b35
I0310 23:53:25.423322  8521 net.cpp:397] res4b35_relu -> res4b35 (in-place)
I0310 23:53:25.423336  8521 net.cpp:150] Setting up res4b35_relu
I0310 23:53:25.423346  8521 net.cpp:157] Top shape: 8 1024 14 14 (1605632)
I0310 23:53:25.423355  8521 net.cpp:165] Memory required for data: 3948250048
I0310 23:53:25.423364  8521 layer_factory.hpp:77] Creating layer res4b35_res4b35_relu_0_split
I0310 23:53:25.423382  8521 net.cpp:106] Creating Layer res4b35_res4b35_relu_0_split
I0310 23:53:25.423390  8521 net.cpp:454] res4b35_res4b35_relu_0_split <- res4b35
I0310 23:53:25.423403  8521 net.cpp:411] res4b35_res4b35_relu_0_split -> res4b35_res4b35_relu_0_split_0
I0310 23:53:25.423432  8521 net.cpp:411] res4b35_res4b35_relu_0_split -> res4b35_res4b35_relu_0_split_1
I0310 23:53:25.423492  8521 net.cpp:150] Setting up res4b35_res4b35_relu_0_split
I0310 23:53:25.423507  8521 net.cpp:157] Top shape: 8 1024 14 14 (1605632)
I0310 23:53:25.423518  8521 net.cpp:157] Top shape: 8 1024 14 14 (1605632)
I0310 23:53:25.423527  8521 net.cpp:165] Memory required for data: 3961095104
I0310 23:53:25.423535  8521 layer_factory.hpp:77] Creating layer res5a_branch1
I0310 23:53:25.423550  8521 net.cpp:106] Creating Layer res5a_branch1
I0310 23:53:25.423560  8521 net.cpp:454] res5a_branch1 <- res4b35_res4b35_relu_0_split_0
I0310 23:53:25.423578  8521 net.cpp:411] res5a_branch1 -> res5a_branch1
I0310 23:53:25.429915  8521 net.cpp:150] Setting up res5a_branch1
I0310 23:53:25.429946  8521 net.cpp:157] Top shape: 8 2048 7 7 (802816)
I0310 23:53:25.429955  8521 net.cpp:165] Memory required for data: 3964306368
I0310 23:53:25.429967  8521 layer_factory.hpp:77] Creating layer bn5a_branch1
I0310 23:53:25.429981  8521 net.cpp:106] Creating Layer bn5a_branch1
I0310 23:53:25.429992  8521 net.cpp:454] bn5a_branch1 <- res5a_branch1
I0310 23:53:25.430004  8521 net.cpp:397] bn5a_branch1 -> res5a_branch1 (in-place)
I0310 23:53:25.430313  8521 net.cpp:150] Setting up bn5a_branch1
I0310 23:53:25.430331  8521 net.cpp:157] Top shape: 8 2048 7 7 (802816)
I0310 23:53:25.430341  8521 net.cpp:165] Memory required for data: 3967517632
I0310 23:53:25.430356  8521 layer_factory.hpp:77] Creating layer scale5a_branch1
I0310 23:53:25.430371  8521 net.cpp:106] Creating Layer scale5a_branch1
I0310 23:53:25.430382  8521 net.cpp:454] scale5a_branch1 <- res5a_branch1
I0310 23:53:25.430393  8521 net.cpp:397] scale5a_branch1 -> res5a_branch1 (in-place)
I0310 23:53:25.430464  8521 layer_factory.hpp:77] Creating layer scale5a_branch1
I0310 23:53:25.430647  8521 net.cpp:150] Setting up scale5a_branch1
I0310 23:53:25.430665  8521 net.cpp:157] Top shape: 8 2048 7 7 (802816)
I0310 23:53:25.430675  8521 net.cpp:165] Memory required for data: 3970728896
I0310 23:53:25.430688  8521 layer_factory.hpp:77] Creating layer res5a_branch2a
I0310 23:53:25.430714  8521 net.cpp:106] Creating Layer res5a_branch2a
I0310 23:53:25.430726  8521 net.cpp:454] res5a_branch2a <- res4b35_res4b35_relu_0_split_1
I0310 23:53:25.430738  8521 net.cpp:411] res5a_branch2a -> res5a_branch2a
I0310 23:53:25.432723  8521 net.cpp:150] Setting up res5a_branch2a
I0310 23:53:25.432745  8521 net.cpp:157] Top shape: 8 512 7 7 (200704)
I0310 23:53:25.432754  8521 net.cpp:165] Memory required for data: 3971531712
I0310 23:53:25.432767  8521 layer_factory.hpp:77] Creating layer bn5a_branch2a
I0310 23:53:25.432787  8521 net.cpp:106] Creating Layer bn5a_branch2a
I0310 23:53:25.432799  8521 net.cpp:454] bn5a_branch2a <- res5a_branch2a
I0310 23:53:25.432812  8521 net.cpp:397] bn5a_branch2a -> res5a_branch2a (in-place)
I0310 23:53:25.433085  8521 net.cpp:150] Setting up bn5a_branch2a
I0310 23:53:25.433104  8521 net.cpp:157] Top shape: 8 512 7 7 (200704)
I0310 23:53:25.433112  8521 net.cpp:165] Memory required for data: 3972334528
I0310 23:53:25.433128  8521 layer_factory.hpp:77] Creating layer scale5a_branch2a
I0310 23:53:25.433142  8521 net.cpp:106] Creating Layer scale5a_branch2a
I0310 23:53:25.433152  8521 net.cpp:454] scale5a_branch2a <- res5a_branch2a
I0310 23:53:25.433167  8521 net.cpp:397] scale5a_branch2a -> res5a_branch2a (in-place)
I0310 23:53:25.433233  8521 layer_factory.hpp:77] Creating layer scale5a_branch2a
I0310 23:53:25.433418  8521 net.cpp:150] Setting up scale5a_branch2a
I0310 23:53:25.433441  8521 net.cpp:157] Top shape: 8 512 7 7 (200704)
I0310 23:53:25.433452  8521 net.cpp:165] Memory required for data: 3973137344
I0310 23:53:25.433465  8521 layer_factory.hpp:77] Creating layer res5a_branch2a_relu
I0310 23:53:25.433480  8521 net.cpp:106] Creating Layer res5a_branch2a_relu
I0310 23:53:25.433490  8521 net.cpp:454] res5a_branch2a_relu <- res5a_branch2a
I0310 23:53:25.433501  8521 net.cpp:397] res5a_branch2a_relu -> res5a_branch2a (in-place)
I0310 23:53:25.433522  8521 net.cpp:150] Setting up res5a_branch2a_relu
I0310 23:53:25.433544  8521 net.cpp:157] Top shape: 8 512 7 7 (200704)
I0310 23:53:25.433553  8521 net.cpp:165] Memory required for data: 3973940160
I0310 23:53:25.433563  8521 layer_factory.hpp:77] Creating layer res5a_branch2b
I0310 23:53:25.433581  8521 net.cpp:106] Creating Layer res5a_branch2b
I0310 23:53:25.433591  8521 net.cpp:454] res5a_branch2b <- res5a_branch2a
I0310 23:53:25.433604  8521 net.cpp:411] res5a_branch2b -> res5a_branch2b
I0310 23:53:25.440745  8521 net.cpp:150] Setting up res5a_branch2b
I0310 23:53:25.440778  8521 net.cpp:157] Top shape: 8 512 7 7 (200704)
I0310 23:53:25.440788  8521 net.cpp:165] Memory required for data: 3974742976
I0310 23:53:25.440800  8521 layer_factory.hpp:77] Creating layer bn5a_branch2b
I0310 23:53:25.440815  8521 net.cpp:106] Creating Layer bn5a_branch2b
I0310 23:53:25.440826  8521 net.cpp:454] bn5a_branch2b <- res5a_branch2b
I0310 23:53:25.440838  8521 net.cpp:397] bn5a_branch2b -> res5a_branch2b (in-place)
I0310 23:53:25.441123  8521 net.cpp:150] Setting up bn5a_branch2b
I0310 23:53:25.441140  8521 net.cpp:157] Top shape: 8 512 7 7 (200704)
I0310 23:53:25.441150  8521 net.cpp:165] Memory required for data: 3975545792
I0310 23:53:25.441166  8521 layer_factory.hpp:77] Creating layer scale5a_branch2b
I0310 23:53:25.441180  8521 net.cpp:106] Creating Layer scale5a_branch2b
I0310 23:53:25.441191  8521 net.cpp:454] scale5a_branch2b <- res5a_branch2b
I0310 23:53:25.441203  8521 net.cpp:397] scale5a_branch2b -> res5a_branch2b (in-place)
I0310 23:53:25.441280  8521 layer_factory.hpp:77] Creating layer scale5a_branch2b
I0310 23:53:25.441474  8521 net.cpp:150] Setting up scale5a_branch2b
I0310 23:53:25.441491  8521 net.cpp:157] Top shape: 8 512 7 7 (200704)
I0310 23:53:25.441500  8521 net.cpp:165] Memory required for data: 3976348608
I0310 23:53:25.441514  8521 layer_factory.hpp:77] Creating layer res5a_branch2b_relu
I0310 23:53:25.441531  8521 net.cpp:106] Creating Layer res5a_branch2b_relu
I0310 23:53:25.441541  8521 net.cpp:454] res5a_branch2b_relu <- res5a_branch2b
I0310 23:53:25.441552  8521 net.cpp:397] res5a_branch2b_relu -> res5a_branch2b (in-place)
I0310 23:53:25.441565  8521 net.cpp:150] Setting up res5a_branch2b_relu
I0310 23:53:25.441577  8521 net.cpp:157] Top shape: 8 512 7 7 (200704)
I0310 23:53:25.441586  8521 net.cpp:165] Memory required for data: 3977151424
I0310 23:53:25.441596  8521 layer_factory.hpp:77] Creating layer res5a_branch2c
I0310 23:53:25.441613  8521 net.cpp:106] Creating Layer res5a_branch2c
I0310 23:53:25.441623  8521 net.cpp:454] res5a_branch2c <- res5a_branch2b
I0310 23:53:25.441635  8521 net.cpp:411] res5a_branch2c -> res5a_branch2c
I0310 23:53:25.445029  8521 net.cpp:150] Setting up res5a_branch2c
I0310 23:53:25.445053  8521 net.cpp:157] Top shape: 8 2048 7 7 (802816)
I0310 23:53:25.445062  8521 net.cpp:165] Memory required for data: 3980362688
I0310 23:53:25.445075  8521 layer_factory.hpp:77] Creating layer bn5a_branch2c
I0310 23:53:25.445088  8521 net.cpp:106] Creating Layer bn5a_branch2c
I0310 23:53:25.445099  8521 net.cpp:454] bn5a_branch2c <- res5a_branch2c
I0310 23:53:25.445111  8521 net.cpp:397] bn5a_branch2c -> res5a_branch2c (in-place)
I0310 23:53:25.445410  8521 net.cpp:150] Setting up bn5a_branch2c
I0310 23:53:25.445430  8521 net.cpp:157] Top shape: 8 2048 7 7 (802816)
I0310 23:53:25.445439  8521 net.cpp:165] Memory required for data: 3983573952
I0310 23:53:25.445456  8521 layer_factory.hpp:77] Creating layer scale5a_branch2c
I0310 23:53:25.445473  8521 net.cpp:106] Creating Layer scale5a_branch2c
I0310 23:53:25.445484  8521 net.cpp:454] scale5a_branch2c <- res5a_branch2c
I0310 23:53:25.445495  8521 net.cpp:397] scale5a_branch2c -> res5a_branch2c (in-place)
I0310 23:53:25.445564  8521 layer_factory.hpp:77] Creating layer scale5a_branch2c
I0310 23:53:25.446475  8521 net.cpp:150] Setting up scale5a_branch2c
I0310 23:53:25.446497  8521 net.cpp:157] Top shape: 8 2048 7 7 (802816)
I0310 23:53:25.446507  8521 net.cpp:165] Memory required for data: 3986785216
I0310 23:53:25.446530  8521 layer_factory.hpp:77] Creating layer res5a
I0310 23:53:25.446568  8521 net.cpp:106] Creating Layer res5a
I0310 23:53:25.446580  8521 net.cpp:454] res5a <- res5a_branch1
I0310 23:53:25.446591  8521 net.cpp:454] res5a <- res5a_branch2c
I0310 23:53:25.446604  8521 net.cpp:411] res5a -> res5a
I0310 23:53:25.446646  8521 net.cpp:150] Setting up res5a
I0310 23:53:25.446662  8521 net.cpp:157] Top shape: 8 2048 7 7 (802816)
I0310 23:53:25.446671  8521 net.cpp:165] Memory required for data: 3989996480
I0310 23:53:25.446681  8521 layer_factory.hpp:77] Creating layer res5a_relu
I0310 23:53:25.446692  8521 net.cpp:106] Creating Layer res5a_relu
I0310 23:53:25.446702  8521 net.cpp:454] res5a_relu <- res5a
I0310 23:53:25.446717  8521 net.cpp:397] res5a_relu -> res5a (in-place)
I0310 23:53:25.446730  8521 net.cpp:150] Setting up res5a_relu
I0310 23:53:25.446741  8521 net.cpp:157] Top shape: 8 2048 7 7 (802816)
I0310 23:53:25.446750  8521 net.cpp:165] Memory required for data: 3993207744
I0310 23:53:25.446759  8521 layer_factory.hpp:77] Creating layer res5a_res5a_relu_0_split
I0310 23:53:25.446772  8521 net.cpp:106] Creating Layer res5a_res5a_relu_0_split
I0310 23:53:25.446781  8521 net.cpp:454] res5a_res5a_relu_0_split <- res5a
I0310 23:53:25.446794  8521 net.cpp:411] res5a_res5a_relu_0_split -> res5a_res5a_relu_0_split_0
I0310 23:53:25.446806  8521 net.cpp:411] res5a_res5a_relu_0_split -> res5a_res5a_relu_0_split_1
I0310 23:53:25.446858  8521 net.cpp:150] Setting up res5a_res5a_relu_0_split
I0310 23:53:25.446873  8521 net.cpp:157] Top shape: 8 2048 7 7 (802816)
I0310 23:53:25.446884  8521 net.cpp:157] Top shape: 8 2048 7 7 (802816)
I0310 23:53:25.446892  8521 net.cpp:165] Memory required for data: 3999630272
I0310 23:53:25.446902  8521 layer_factory.hpp:77] Creating layer res5b_branch2a
I0310 23:53:25.446916  8521 net.cpp:106] Creating Layer res5b_branch2a
I0310 23:53:25.446926  8521 net.cpp:454] res5b_branch2a <- res5a_res5a_relu_0_split_0
I0310 23:53:25.446939  8521 net.cpp:411] res5b_branch2a -> res5b_branch2a
I0310 23:53:25.450414  8521 net.cpp:150] Setting up res5b_branch2a
I0310 23:53:25.450438  8521 net.cpp:157] Top shape: 8 512 7 7 (200704)
I0310 23:53:25.450448  8521 net.cpp:165] Memory required for data: 4000433088
I0310 23:53:25.450460  8521 layer_factory.hpp:77] Creating layer bn5b_branch2a
I0310 23:53:25.450474  8521 net.cpp:106] Creating Layer bn5b_branch2a
I0310 23:53:25.450484  8521 net.cpp:454] bn5b_branch2a <- res5b_branch2a
I0310 23:53:25.450496  8521 net.cpp:397] bn5b_branch2a -> res5b_branch2a (in-place)
I0310 23:53:25.450752  8521 net.cpp:150] Setting up bn5b_branch2a
I0310 23:53:25.450769  8521 net.cpp:157] Top shape: 8 512 7 7 (200704)
I0310 23:53:25.450779  8521 net.cpp:165] Memory required for data: 4001235904
I0310 23:53:25.450794  8521 layer_factory.hpp:77] Creating layer scale5b_branch2a
I0310 23:53:25.450812  8521 net.cpp:106] Creating Layer scale5b_branch2a
I0310 23:53:25.450824  8521 net.cpp:454] scale5b_branch2a <- res5b_branch2a
I0310 23:53:25.450835  8521 net.cpp:397] scale5b_branch2a -> res5b_branch2a (in-place)
I0310 23:53:25.450903  8521 layer_factory.hpp:77] Creating layer scale5b_branch2a
I0310 23:53:25.451074  8521 net.cpp:150] Setting up scale5b_branch2a
I0310 23:53:25.451092  8521 net.cpp:157] Top shape: 8 512 7 7 (200704)
I0310 23:53:25.451102  8521 net.cpp:165] Memory required for data: 4002038720
I0310 23:53:25.451115  8521 layer_factory.hpp:77] Creating layer res5b_branch2a_relu
I0310 23:53:25.451128  8521 net.cpp:106] Creating Layer res5b_branch2a_relu
I0310 23:53:25.451138  8521 net.cpp:454] res5b_branch2a_relu <- res5b_branch2a
I0310 23:53:25.451153  8521 net.cpp:397] res5b_branch2a_relu -> res5b_branch2a (in-place)
I0310 23:53:25.451166  8521 net.cpp:150] Setting up res5b_branch2a_relu
I0310 23:53:25.451179  8521 net.cpp:157] Top shape: 8 512 7 7 (200704)
I0310 23:53:25.451187  8521 net.cpp:165] Memory required for data: 4002841536
I0310 23:53:25.451196  8521 layer_factory.hpp:77] Creating layer res5b_branch2b
I0310 23:53:25.451213  8521 net.cpp:106] Creating Layer res5b_branch2b
I0310 23:53:25.451241  8521 net.cpp:454] res5b_branch2b <- res5b_branch2a
I0310 23:53:25.451254  8521 net.cpp:411] res5b_branch2b -> res5b_branch2b
I0310 23:53:25.458158  8521 net.cpp:150] Setting up res5b_branch2b
I0310 23:53:25.458187  8521 net.cpp:157] Top shape: 8 512 7 7 (200704)
I0310 23:53:25.458197  8521 net.cpp:165] Memory required for data: 4003644352
I0310 23:53:25.458210  8521 layer_factory.hpp:77] Creating layer bn5b_branch2b
I0310 23:53:25.458227  8521 net.cpp:106] Creating Layer bn5b_branch2b
I0310 23:53:25.458238  8521 net.cpp:454] bn5b_branch2b <- res5b_branch2b
I0310 23:53:25.458250  8521 net.cpp:397] bn5b_branch2b -> res5b_branch2b (in-place)
I0310 23:53:25.458503  8521 net.cpp:150] Setting up bn5b_branch2b
I0310 23:53:25.458521  8521 net.cpp:157] Top shape: 8 512 7 7 (200704)
I0310 23:53:25.458530  8521 net.cpp:165] Memory required for data: 4004447168
I0310 23:53:25.458546  8521 layer_factory.hpp:77] Creating layer scale5b_branch2b
I0310 23:53:25.458560  8521 net.cpp:106] Creating Layer scale5b_branch2b
I0310 23:53:25.458570  8521 net.cpp:454] scale5b_branch2b <- res5b_branch2b
I0310 23:53:25.458585  8521 net.cpp:397] scale5b_branch2b -> res5b_branch2b (in-place)
I0310 23:53:25.458652  8521 layer_factory.hpp:77] Creating layer scale5b_branch2b
I0310 23:53:25.458816  8521 net.cpp:150] Setting up scale5b_branch2b
I0310 23:53:25.458832  8521 net.cpp:157] Top shape: 8 512 7 7 (200704)
I0310 23:53:25.458842  8521 net.cpp:165] Memory required for data: 4005249984
I0310 23:53:25.458855  8521 layer_factory.hpp:77] Creating layer res5b_branch2b_relu
I0310 23:53:25.458871  8521 net.cpp:106] Creating Layer res5b_branch2b_relu
I0310 23:53:25.458883  8521 net.cpp:454] res5b_branch2b_relu <- res5b_branch2b
I0310 23:53:25.458894  8521 net.cpp:397] res5b_branch2b_relu -> res5b_branch2b (in-place)
I0310 23:53:25.458906  8521 net.cpp:150] Setting up res5b_branch2b_relu
I0310 23:53:25.458917  8521 net.cpp:157] Top shape: 8 512 7 7 (200704)
I0310 23:53:25.458926  8521 net.cpp:165] Memory required for data: 4006052800
I0310 23:53:25.458935  8521 layer_factory.hpp:77] Creating layer res5b_branch2c
I0310 23:53:25.458952  8521 net.cpp:106] Creating Layer res5b_branch2c
I0310 23:53:25.458963  8521 net.cpp:454] res5b_branch2c <- res5b_branch2b
I0310 23:53:25.458976  8521 net.cpp:411] res5b_branch2c -> res5b_branch2c
I0310 23:53:25.462170  8521 net.cpp:150] Setting up res5b_branch2c
I0310 23:53:25.462194  8521 net.cpp:157] Top shape: 8 2048 7 7 (802816)
I0310 23:53:25.462203  8521 net.cpp:165] Memory required for data: 4009264064
I0310 23:53:25.462215  8521 layer_factory.hpp:77] Creating layer bn5b_branch2c
I0310 23:53:25.462229  8521 net.cpp:106] Creating Layer bn5b_branch2c
I0310 23:53:25.462239  8521 net.cpp:454] bn5b_branch2c <- res5b_branch2c
I0310 23:53:25.462251  8521 net.cpp:397] bn5b_branch2c -> res5b_branch2c (in-place)
I0310 23:53:25.462646  8521 net.cpp:150] Setting up bn5b_branch2c
I0310 23:53:25.462666  8521 net.cpp:157] Top shape: 8 2048 7 7 (802816)
I0310 23:53:25.462677  8521 net.cpp:165] Memory required for data: 4012475328
I0310 23:53:25.462692  8521 layer_factory.hpp:77] Creating layer scale5b_branch2c
I0310 23:53:25.462707  8521 net.cpp:106] Creating Layer scale5b_branch2c
I0310 23:53:25.462718  8521 net.cpp:454] scale5b_branch2c <- res5b_branch2c
I0310 23:53:25.462730  8521 net.cpp:397] scale5b_branch2c -> res5b_branch2c (in-place)
I0310 23:53:25.462801  8521 layer_factory.hpp:77] Creating layer scale5b_branch2c
I0310 23:53:25.462972  8521 net.cpp:150] Setting up scale5b_branch2c
I0310 23:53:25.462990  8521 net.cpp:157] Top shape: 8 2048 7 7 (802816)
I0310 23:53:25.462999  8521 net.cpp:165] Memory required for data: 4015686592
I0310 23:53:25.463013  8521 layer_factory.hpp:77] Creating layer res5b
I0310 23:53:25.463030  8521 net.cpp:106] Creating Layer res5b
I0310 23:53:25.463042  8521 net.cpp:454] res5b <- res5a_res5a_relu_0_split_1
I0310 23:53:25.463053  8521 net.cpp:454] res5b <- res5b_branch2c
I0310 23:53:25.463065  8521 net.cpp:411] res5b -> res5b
I0310 23:53:25.463117  8521 net.cpp:150] Setting up res5b
I0310 23:53:25.463146  8521 net.cpp:157] Top shape: 8 2048 7 7 (802816)
I0310 23:53:25.463156  8521 net.cpp:165] Memory required for data: 4018897856
I0310 23:53:25.463165  8521 layer_factory.hpp:77] Creating layer res5b_relu
I0310 23:53:25.463177  8521 net.cpp:106] Creating Layer res5b_relu
I0310 23:53:25.463187  8521 net.cpp:454] res5b_relu <- res5b
I0310 23:53:25.463201  8521 net.cpp:397] res5b_relu -> res5b (in-place)
I0310 23:53:25.463215  8521 net.cpp:150] Setting up res5b_relu
I0310 23:53:25.463227  8521 net.cpp:157] Top shape: 8 2048 7 7 (802816)
I0310 23:53:25.463234  8521 net.cpp:165] Memory required for data: 4022109120
I0310 23:53:25.463243  8521 layer_factory.hpp:77] Creating layer res5b_res5b_relu_0_split
I0310 23:53:25.463258  8521 net.cpp:106] Creating Layer res5b_res5b_relu_0_split
I0310 23:53:25.463266  8521 net.cpp:454] res5b_res5b_relu_0_split <- res5b
I0310 23:53:25.463277  8521 net.cpp:411] res5b_res5b_relu_0_split -> res5b_res5b_relu_0_split_0
I0310 23:53:25.463290  8521 net.cpp:411] res5b_res5b_relu_0_split -> res5b_res5b_relu_0_split_1
I0310 23:53:25.463341  8521 net.cpp:150] Setting up res5b_res5b_relu_0_split
I0310 23:53:25.463357  8521 net.cpp:157] Top shape: 8 2048 7 7 (802816)
I0310 23:53:25.463367  8521 net.cpp:157] Top shape: 8 2048 7 7 (802816)
I0310 23:53:25.463376  8521 net.cpp:165] Memory required for data: 4028531648
I0310 23:53:25.463385  8521 layer_factory.hpp:77] Creating layer res5c_branch2a
I0310 23:53:25.463399  8521 net.cpp:106] Creating Layer res5c_branch2a
I0310 23:53:25.463410  8521 net.cpp:454] res5c_branch2a <- res5b_res5b_relu_0_split_0
I0310 23:53:25.463425  8521 net.cpp:411] res5c_branch2a -> res5c_branch2a
I0310 23:53:25.466667  8521 net.cpp:150] Setting up res5c_branch2a
I0310 23:53:25.466691  8521 net.cpp:157] Top shape: 8 512 7 7 (200704)
I0310 23:53:25.466701  8521 net.cpp:165] Memory required for data: 4029334464
I0310 23:53:25.466713  8521 layer_factory.hpp:77] Creating layer bn5c_branch2a
I0310 23:53:25.466727  8521 net.cpp:106] Creating Layer bn5c_branch2a
I0310 23:53:25.466737  8521 net.cpp:454] bn5c_branch2a <- res5c_branch2a
I0310 23:53:25.466749  8521 net.cpp:397] bn5c_branch2a -> res5c_branch2a (in-place)
I0310 23:53:25.467000  8521 net.cpp:150] Setting up bn5c_branch2a
I0310 23:53:25.467017  8521 net.cpp:157] Top shape: 8 512 7 7 (200704)
I0310 23:53:25.467025  8521 net.cpp:165] Memory required for data: 4030137280
I0310 23:53:25.467041  8521 layer_factory.hpp:77] Creating layer scale5c_branch2a
I0310 23:53:25.467058  8521 net.cpp:106] Creating Layer scale5c_branch2a
I0310 23:53:25.467068  8521 net.cpp:454] scale5c_branch2a <- res5c_branch2a
I0310 23:53:25.467082  8521 net.cpp:397] scale5c_branch2a -> res5c_branch2a (in-place)
I0310 23:53:25.467149  8521 layer_factory.hpp:77] Creating layer scale5c_branch2a
I0310 23:53:25.467320  8521 net.cpp:150] Setting up scale5c_branch2a
I0310 23:53:25.467339  8521 net.cpp:157] Top shape: 8 512 7 7 (200704)
I0310 23:53:25.467347  8521 net.cpp:165] Memory required for data: 4030940096
I0310 23:53:25.467361  8521 layer_factory.hpp:77] Creating layer res5c_branch2a_relu
I0310 23:53:25.467375  8521 net.cpp:106] Creating Layer res5c_branch2a_relu
I0310 23:53:25.467384  8521 net.cpp:454] res5c_branch2a_relu <- res5c_branch2a
I0310 23:53:25.467399  8521 net.cpp:397] res5c_branch2a_relu -> res5c_branch2a (in-place)
I0310 23:53:25.467412  8521 net.cpp:150] Setting up res5c_branch2a_relu
I0310 23:53:25.467423  8521 net.cpp:157] Top shape: 8 512 7 7 (200704)
I0310 23:53:25.467432  8521 net.cpp:165] Memory required for data: 4031742912
I0310 23:53:25.467442  8521 layer_factory.hpp:77] Creating layer res5c_branch2b
I0310 23:53:25.467459  8521 net.cpp:106] Creating Layer res5c_branch2b
I0310 23:53:25.467469  8521 net.cpp:454] res5c_branch2b <- res5c_branch2a
I0310 23:53:25.467481  8521 net.cpp:411] res5c_branch2b -> res5c_branch2b
I0310 23:53:25.474267  8521 net.cpp:150] Setting up res5c_branch2b
I0310 23:53:25.474295  8521 net.cpp:157] Top shape: 8 512 7 7 (200704)
I0310 23:53:25.474314  8521 net.cpp:165] Memory required for data: 4032545728
I0310 23:53:25.474339  8521 layer_factory.hpp:77] Creating layer bn5c_branch2b
I0310 23:53:25.474362  8521 net.cpp:106] Creating Layer bn5c_branch2b
I0310 23:53:25.474375  8521 net.cpp:454] bn5c_branch2b <- res5c_branch2b
I0310 23:53:25.474387  8521 net.cpp:397] bn5c_branch2b -> res5c_branch2b (in-place)
I0310 23:53:25.474645  8521 net.cpp:150] Setting up bn5c_branch2b
I0310 23:53:25.474663  8521 net.cpp:157] Top shape: 8 512 7 7 (200704)
I0310 23:53:25.474673  8521 net.cpp:165] Memory required for data: 4033348544
I0310 23:53:25.474689  8521 layer_factory.hpp:77] Creating layer scale5c_branch2b
I0310 23:53:25.474704  8521 net.cpp:106] Creating Layer scale5c_branch2b
I0310 23:53:25.474714  8521 net.cpp:454] scale5c_branch2b <- res5c_branch2b
I0310 23:53:25.474728  8521 net.cpp:397] scale5c_branch2b -> res5c_branch2b (in-place)
I0310 23:53:25.474793  8521 layer_factory.hpp:77] Creating layer scale5c_branch2b
I0310 23:53:25.474959  8521 net.cpp:150] Setting up scale5c_branch2b
I0310 23:53:25.474977  8521 net.cpp:157] Top shape: 8 512 7 7 (200704)
I0310 23:53:25.474987  8521 net.cpp:165] Memory required for data: 4034151360
I0310 23:53:25.475000  8521 layer_factory.hpp:77] Creating layer res5c_branch2b_relu
I0310 23:53:25.475015  8521 net.cpp:106] Creating Layer res5c_branch2b_relu
I0310 23:53:25.475026  8521 net.cpp:454] res5c_branch2b_relu <- res5c_branch2b
I0310 23:53:25.475038  8521 net.cpp:397] res5c_branch2b_relu -> res5c_branch2b (in-place)
I0310 23:53:25.475050  8521 net.cpp:150] Setting up res5c_branch2b_relu
I0310 23:53:25.475061  8521 net.cpp:157] Top shape: 8 512 7 7 (200704)
I0310 23:53:25.475070  8521 net.cpp:165] Memory required for data: 4034954176
I0310 23:53:25.475080  8521 layer_factory.hpp:77] Creating layer res5c_branch2c
I0310 23:53:25.475098  8521 net.cpp:106] Creating Layer res5c_branch2c
I0310 23:53:25.475108  8521 net.cpp:454] res5c_branch2c <- res5c_branch2b
I0310 23:53:25.475121  8521 net.cpp:411] res5c_branch2c -> res5c_branch2c
I0310 23:53:25.478332  8521 net.cpp:150] Setting up res5c_branch2c
I0310 23:53:25.478355  8521 net.cpp:157] Top shape: 8 2048 7 7 (802816)
I0310 23:53:25.478365  8521 net.cpp:165] Memory required for data: 4038165440
I0310 23:53:25.478377  8521 layer_factory.hpp:77] Creating layer bn5c_branch2c
I0310 23:53:25.478390  8521 net.cpp:106] Creating Layer bn5c_branch2c
I0310 23:53:25.478401  8521 net.cpp:454] bn5c_branch2c <- res5c_branch2c
I0310 23:53:25.478413  8521 net.cpp:397] bn5c_branch2c -> res5c_branch2c (in-place)
I0310 23:53:25.478678  8521 net.cpp:150] Setting up bn5c_branch2c
I0310 23:53:25.478696  8521 net.cpp:157] Top shape: 8 2048 7 7 (802816)
I0310 23:53:25.478705  8521 net.cpp:165] Memory required for data: 4041376704
I0310 23:53:25.478720  8521 layer_factory.hpp:77] Creating layer scale5c_branch2c
I0310 23:53:25.478735  8521 net.cpp:106] Creating Layer scale5c_branch2c
I0310 23:53:25.478745  8521 net.cpp:454] scale5c_branch2c <- res5c_branch2c
I0310 23:53:25.478757  8521 net.cpp:397] scale5c_branch2c -> res5c_branch2c (in-place)
I0310 23:53:25.478827  8521 layer_factory.hpp:77] Creating layer scale5c_branch2c
I0310 23:53:25.479001  8521 net.cpp:150] Setting up scale5c_branch2c
I0310 23:53:25.479018  8521 net.cpp:157] Top shape: 8 2048 7 7 (802816)
I0310 23:53:25.479027  8521 net.cpp:165] Memory required for data: 4044587968
I0310 23:53:25.479040  8521 layer_factory.hpp:77] Creating layer res5c
I0310 23:53:25.479060  8521 net.cpp:106] Creating Layer res5c
I0310 23:53:25.479071  8521 net.cpp:454] res5c <- res5b_res5b_relu_0_split_1
I0310 23:53:25.479082  8521 net.cpp:454] res5c <- res5c_branch2c
I0310 23:53:25.479094  8521 net.cpp:411] res5c -> res5c
I0310 23:53:25.479135  8521 net.cpp:150] Setting up res5c
I0310 23:53:25.479151  8521 net.cpp:157] Top shape: 8 2048 7 7 (802816)
I0310 23:53:25.479159  8521 net.cpp:165] Memory required for data: 4047799232
I0310 23:53:25.479169  8521 layer_factory.hpp:77] Creating layer res5c_relu
I0310 23:53:25.479181  8521 net.cpp:106] Creating Layer res5c_relu
I0310 23:53:25.479197  8521 net.cpp:454] res5c_relu <- res5c
I0310 23:53:25.479223  8521 net.cpp:397] res5c_relu -> res5c (in-place)
I0310 23:53:25.479236  8521 net.cpp:150] Setting up res5c_relu
I0310 23:53:25.479249  8521 net.cpp:157] Top shape: 8 2048 7 7 (802816)
I0310 23:53:25.479256  8521 net.cpp:165] Memory required for data: 4051010496
I0310 23:53:25.479265  8521 layer_factory.hpp:77] Creating layer pool5
I0310 23:53:25.479279  8521 net.cpp:106] Creating Layer pool5
I0310 23:53:25.479290  8521 net.cpp:454] pool5 <- res5c
I0310 23:53:25.479303  8521 net.cpp:411] pool5 -> pool5
I0310 23:53:25.479343  8521 net.cpp:150] Setting up pool5
I0310 23:53:25.479359  8521 net.cpp:157] Top shape: 8 2048 1 1 (16384)
I0310 23:53:25.479367  8521 net.cpp:165] Memory required for data: 4051076032
I0310 23:53:25.479377  8521 layer_factory.hpp:77] Creating layer fc
I0310 23:53:25.479396  8521 net.cpp:106] Creating Layer fc
I0310 23:53:25.479408  8521 net.cpp:454] fc <- pool5
I0310 23:53:25.479419  8521 net.cpp:411] fc -> fc
I0310 23:53:25.481984  8521 net.cpp:150] Setting up fc
I0310 23:53:25.482008  8521 net.cpp:157] Top shape: 8 30 (240)
I0310 23:53:25.482017  8521 net.cpp:165] Memory required for data: 4051076992
I0310 23:53:25.482031  8521 layer_factory.hpp:77] Creating layer loss_pos30
I0310 23:53:25.482050  8521 net.cpp:106] Creating Layer loss_pos30
I0310 23:53:25.482061  8521 net.cpp:454] loss_pos30 <- fc
I0310 23:53:25.482071  8521 net.cpp:454] loss_pos30 <- labels
I0310 23:53:25.482085  8521 net.cpp:411] loss_pos30 -> loss_pos30
…
