…
  transform_param {
    mirror: false
    mean_file: "/home/lizhuowan/Market1501/lmdb/lmdb_12936/Image_lmdb_12936.binaryproto"
  }
  data_param {
    source: "/home/lizhuowan/Market1501/lmdb/lmdb_mirror_12936/Image_lmdb_mirror_12936"
    batch_size: 16
    backend: LMDB
  }
}
layer {
  name: "data"
  type: "Data"
  top: "labels"
  include {
    phase: TRAIN
  }
  transform_param {
    mean_value: 112
  }
  data_param {
    source: "/home/lizhuowan/Market1501/lmdb/lmdb_mirror_12936/pos30_lmdb_mirror_12936_correct"
    batch_size: 16
    backend: LMDB
  }
}
layer {
  name: "conv1"
  type: "Convolution"
  bottom: "data"
  top: "conv1"
  convolution_param {
    num_output: 64
    pad: 3
    kernel_size: 7
    stride: 2
  }
}
layer {
  name: "bn_conv1"
  type: "BatchNorm"
  bottom: "conv1"
  top: "conv1"
  batch_norm_param {
    use_global_stats: true
  }
}
layer {
  name: "scale_conv1"
  type: "Scale"
  bottom: "conv1"
  top: "conv1"
  scale_param {
    bias_term: true
  }
}
layer {
  name: "conv1_relu"
  type: "ReLU"
  bottom: "conv1"
  top: "conv1"
}
layer {
  name: "pool1"
  type: "Pooling"
  bottom: "conv1"
  top: "pool1"
  pooling_param {
    pool: MAX
    kernel_size: 3
    stride: 2
  }
}
layer {
  name: "res2a_branch1"
  type: "Convolution"
  bottom: "pool1"
  top: "res2a_branch1"
  convolution_param {
    num_output: 256
    bias_term: false
    pad: 0
    kernel_size: 1
    stride: 1
  }
}
layer {
  name: "bn2a_branch1"
  type: "BatchNorm"
  bottom: "res2a_branch1"
  top: "res2a_branch1"
  batch_norm_param {
    use_global_stats: true
  }
}
layer {
  name: "scale2a_branch1"
  type: "Scale"
  bottom: "res2a_branch1"
  top: "res2a_branch1"
  scale_param {
    bias_term: true
  }
}
layer {
  name: "res2a_branch2a"
  type: "Convolution"
  bottom: "pool1"
  top: "res2a_branch2a"
  convolution_param {
    num_output: 64
    bias_term: false
    pad: 0
    kernel_size: 1
    stride: 1
  }
}
layer {
  name: "bn2a_branch2a"
  type: "BatchNorm"
  bottom: "res2a_branch2a"
  top: "res2a_branch2a"
  batch_norm_param {
    use_global_stats: true
  }
}
layer {
  name: "scale2a_branch2a"
  type: "Scale"
  bottom: "res2a_branch2a"
  top: "res2a_branch2a"
  scale_param {
    bias_term: true
  }
}
layer {
  name: "res2a_branch2a_relu"
  type: "ReLU"
  bottom: "res2a_branch2a"
  top: "res2a_branch2a"
}
layer {
  name: "res2a_branch2b"
  type: "Convolution"
  bottom: "res2a_branch2a"
  top: "res2a_branch2b"
  convolution_param {
    num_output: 64
    bias_term: false
    pad: 1
    kernel_size: 3
    stride: 1
  }
}
layer {
  name: "bn2a_branch2b"
  type: "BatchNorm"
  bottom: "res2a_branch2b"
  top: "res2a_branch2b"
  batch_norm_param {
    use_global_stats: true
  }
}
layer {
  name: "scale2a_branch2b"
  type: "Scale"
  bottom: "res2a_branch2b"
  top: "res2a_branch2b"
  scale_param {
    bias_term: true
  }
}
layer {
  name: "res2a_branch2b_relu"
  type: "ReLU"
  bottom: "res2a_branch2b"
  top: "res2a_branch2b"
}
layer {
  name: "res2a_branch2c"
  type: "Convolution"
  bottom: "res2a_branch2b"
  top: "res2a_branch2c"
  convolution_param {
    num_output: 256
    bias_term: false
    pad: 0
    kernel_size: 1
    stride: 1
  }
}
layer {
  name: "bn2a_branch2c"
  type: "BatchNorm"
  bottom: "res2a_branch2c"
  top: "res2a_branch2c"
  batch_norm_param {
    use_global_stats: true
  }
}
layer {
  name: "scale2a_branch2c"
  type: "Scale"
  bottom: "res2a_branch2c"
  top: "res2a_branch2c"
  scale_param {
    bias_term: true
  }
}
layer {
  name: "res2a"
  type: "Eltwise"
  bottom: "res2a_branch1"
  bottom: "res2a_branch2c"
  top: "res2a"
}
layer {
  name: "res2a_relu"
  type: "ReLU"
  bottom: "res2a"
  top: "res2a"
}
layer {
  name: "res2b_branch2a"
  type: "Convolution"
  bottom: "res2a"
  top: "res2b_branch2a"
  convolution_param {
    num_output: 64
    bias_term: false
    pad: 0
    kernel_size: 1
    stride: 1
  }
}
layer {
  name: "bn2b_branch2a"
  type: "BatchNorm"
  bottom: "res2b_branch2a"
  top: "res2b_branch2a"
  batch_norm_param {
    use_global_stats: true
  }
}
layer {
  name: "scale2b_branch2a"
  type: "Scale"
  bottom: "res2b_branch2a"
  top: "res2b_branch2a"
  scale_param {
    bias_term: true
  }
}
layer {
  name: "res2b_branch2a_relu"
  type: "ReLU"
  bottom: "res2b_branch2a"
  top: "res2b_branch2a"
}
layer {
  name: "res2b_branch2b"
  type: "Convolution"
  bottom: "res2b_branch2a"
  top: "res2b_branch2b"
  convolution_param {
    num_output: 64
    bias_term: false
    pad: 1
    kernel_size: 3
    stride: 1
  }
}
layer {
  name: "bn2b_branch2b"
  type: "BatchNorm"
  bottom: "res2b_branch2b"
  top: "res2b_branch2b"
  batch_norm_param {
    use_global_stats: true
  }
}
layer {
  name: "scale2b_branch2b"
  type: "Scale"
  bottom: "res2b_branch2b"
  top: "res2b_branch2b"
  scale_param {
    bias_term: true
  }
}
layer {
  name: "res2b_branch2b_relu"
  type: "ReLU"
  bottom: "res2b_branch2b"
  top: "res2b_branch2b"
}
layer {
  name: "res2b_branch2c"
  type: "Convolution"
  bottom: "res2b_branch2b"
  top: "res2b_branch2c"
  convolution_param {
    num_output: 256
    bias_term: false
    pad: 0
    kernel_size: 1
    stride: 1
  }
}
layer {
  name: "bn2b_branch2c"
  type: "BatchNorm"
  bottom: "res2b_branch2c"
  top: "res2b_branch2c"
  batch_norm_param {
    use_global_stats: true
  }
}
layer {
  name: "scale2b_branch2c"
  type: "Scale"
  bottom: "res2b_branch2c"
  top: "res2b_branch2c"
  scale_param {
    bias_term: true
  }
}
layer {
  name: "res2b"
  type: "Eltwise"
  bottom: "res2a"
  bottom: "res2b_branch2c"
  top: "res2b"
}
layer {
  name: "res2b_relu"
  type: "ReLU"
  bottom: "res2b"
  top: "res2b"
}
layer {
  name: "res2c_branch2a"
  type: "Convolution"
  bottom: "res2b"
  top: "res2c_branch2a"
  convolution_param {
    num_output: 64
    bias_term: false
    pad: 0
    kernel_size: 1
    stride: 1
  }
}
layer {
  name: "bn2c_branch2a"
  type: "BatchNorm"
  bottom: "res2c_branch2a"
  top: "res2c_branch2a"
  batch_norm_param {
    use_global_stats: true
  }
}
layer {
  name: "scale2c_branch2a"
  type: "Scale"
  bottom: "res2c_branch2a"
  top: "res2c_branch2a"
  scale_param {
    bias_term: true
  }
}
layer {
  name: "res2c_branch2a_relu"
  type: "ReLU"
  bottom: "res2c_branch2a"
  top: "res2c_branch2a"
}
layer {
  name: "res2c_branch2b"
  type: "Convolution"
  bottom: "res2c_branch2a"
  top: "res2c_branch2b"
  convolution_param {
    num_output: 64
    bias_term: false
    pad: 1
    kernel_size: 3
    stride: 1
  }
}
layer {
  name: "bn2c_branch2b"
  type: "BatchNorm"
  bottom: "res2c_branch2b"
  top: "res2c_branch2b"
  batch_norm_param {
    use_global_stats: true
  }
}
layer {
  name: "scale2c_branch2b"
  type: "Scale"
  bottom: "res2c_branch2b"
  top: "res2c_branch2b"
  scale_param {
    bias_term: true
  }
}
layer {
  name: "res2c_branch2b_relu"
  type: "ReLU"
  bottom: "res2c_branch2b"
  top: "res2c_branch2b"
}
layer {
  name: "res2c_branch2c"
  type: "Convolution"
  bottom: "res2c_branch2b"
  top: "res2c_branch2c"
  convolution_param {
    num_output: 256
    bias_term: false
    pad: 0
    kernel_size: 1
    stride: 1
  }
}
layer {
  name: "bn2c_branch2c"
  type: "BatchNorm"
  bottom: "res2c_branch2c"
  top: "res2c_branch2c"
  batch_norm_param {
    use_global_stats: true
  }
}
layer {
  name: "scale2c_branch2c"
  type: "Scale"
  bottom: "res2c_branch2c"
  top: "res2c_branch2c"
  scale_param {
    bias_term: true
  }
}
layer {
  name: "res2c"
  type: "Eltwise"
  bottom: "res2b"
  bottom: "res2c_branch2c"
  top: "res2c"
}
layer {
  name: "res2c_relu"
  type: "ReLU"
  bottom: "res2c"
  top: "res2c"
}
layer {
  name: "res3a_branch1"
  type: "Convolution"
  bottom: "res2c"
  top: "res3a_branch1"
  convolution_param {
    num_output: 512
    bias_term: false
    pad: 0
    kernel_size: 1
    stride: 2
  }
}
layer {
  name: "bn3a_branch1"
  type: "BatchNorm"
  bottom: "res3a_branch1"
  top: "res3a_branch1"
  batch_norm_param {
    use_global_stats: true
  }
}
layer {
  name: "scale3a_branch1"
  type: "Scale"
  bottom: "res3a_branch1"
  top: "res3a_branch1"
  scale_param {
    bias_term: true
  }
}
layer {
  name: "res3a_branch2a"
  type: "Convolution"
  bottom: "res2c"
  top: "res3a_branch2a"
  convolution_param {
    num_output: 128
    bias_term: false
    pad: 0
    kernel_size: 1
    stride: 2
  }
}
layer {
  name: "bn3a_branch2a"
  type: "BatchNorm"
  bottom: "res3a_branch2a"
  top: "res3a_branch2a"
  batch_norm_param {
    use_global_stats: true
  }
}
layer {
  name: "scale3a_branch2a"
  type: "Scale"
  bottom: "res3a_branch2a"
  top: "res3a_branch2a"
  scale_param {
    bias_term: true
  }
}
layer {
  name: "res3a_branch2a_relu"
  type: "ReLU"
  bottom: "res3a_branch2a"
  top: "res3a_branch2a"
}
layer {
  name: "res3a_branch2b"
  type: "Convolution"
  bottom: "res3a_branch2a"
  top: "res3a_branch2b"
  convolution_param {
    num_output: 128
    bias_term: false
    pad: 1
    kernel_size: 3
    stride: 1
  }
}
layer {
  name: "bn3a_branch2b"
  type: "BatchNorm"
  bottom: "res3a_branch2b"
  top: "res3a_branch2b"
  batch_norm_param {
    use_global_stats: true
  }
}
layer {
  name: "scale3a_branch2b"
  type: "Scale"
  bottom: "res3a_branch2b"
  top: "res3a_branch2b"
  scale_param {
    bias_term: true
  }
}
layer {
  name: "res3a_branch2b_relu"
  type: "ReLU"
  bottom: "res3a_branch2b"
  top: "res3a_branch2b"
}
layer {
  name: "res3a_branch2c"
  type: "Convolution"
  bottom: "res3a_branch2b"
  top: "res3a_branch2c"
  convolution_param {
    num_output: 512
    bias_term: false
    pad: 0
    kernel_size: 1
    stride: 1
  }
}
layer {
  name: "bn3a_branch2c"
  type: "BatchNorm"
  bottom: "res3a_branch2c"
  top: "res3a_branch2c"
  batch_norm_param {
    use_global_stats: true
  }
}
layer {
  name: "scale3a_branch2c"
  type: "Scale"
  bottom: "res3a_branch2c"
  top: "res3a_branch2c"
  scale_param {
    bias_term: true
  }
}
layer {
  name: "res3a"
  type: "Eltwise"
  bottom: "res3a_branch1"
  bottom: "res3a_branch2c"
  top: "res3a"
}
layer {
  name: "res3a_relu"
  type: "ReLU"
  bottom: "res3a"
  top: "res3a"
}
layer {
  name: "res3b_branch2a"
  type: "Convolution"
  bottom: "res3a"
  top: "res3b_branch2a"
  convolution_param {
    num_output: 128
    bias_term: false
    pad: 0
    kernel_size: 1
    stride: 1
  }
}
layer {
  name: "bn3b_branch2a"
  type: "BatchNorm"
  bottom: "res3b_branch2a"
  top: "res3b_branch2a"
  batch_norm_param {
    use_global_stats: true
  }
}
layer {
  name: "scale3b_branch2a"
  type: "Scale"
  bottom: "res3b_branch2a"
  top: "res3b_branch2a"
  scale_param {
    bias_term: true
  }
}
layer {
  name: "res3b_branch2a_relu"
  type: "ReLU"
  bottom: "res3b_branch2a"
  top: "res3b_branch2a"
}
layer {
  name: "res3b_branch2b"
  type: "Convolution"
  bottom: "res3b_branch2a"
  top: "res3b_branch2b"
  convolution_param {
    num_output: 128
    bias_term: false
    pad: 1
    kernel_size: 3
    stride: 1
  }
}
layer {
  name: "bn3b_branch2b"
  type: "BatchNorm"
  bottom: "res3b_branch2b"
  top: "res3b_branch2b"
  batch_norm_param {
    use_global_stats: true
  }
}
layer {
  name: "scale3b_branch2b"
  type: "Scale"
  bottom: "res3b_branch2b"
  top: "res3b_branch2b"
  scale_param {
    bias_term: true
  }
}
layer {
  name: "res3b_branch2b_relu"
  type: "ReLU"
  bottom: "res3b_branch2b"
  top: "res3b_branch2b"
}
layer {
  name: "res3b_branch2c"
  type: "Convolution"
  bottom: "res3b_branch2b"
  top: "res3b_branch2c"
  convolution_param {
    num_output: 512
    bias_term: false
    pad: 0
    kernel_size: 1
    stride: 1
  }
}
layer {
  name: "bn3b_branch2c"
  type: "BatchNorm"
  bottom: "res3b_branch2c"
  top: "res3b_branch2c"
  batch_norm_param {
    use_global_stats: true
  }
}
layer {
  name: "scale3b_branch2c"
  type: "Scale"
  bottom: "res3b_branch2c"
  top: "res3b_branch2c"
  scale_param {
    bias_term: true
  }
}
layer {
  name: "res3b"
  type: "Eltwise"
  bottom: "res3a"
  bottom: "res3b_branch2c"
  top: "res3b"
}
layer {
  name: "res3b_relu"
  type: "ReLU"
  bottom: "res3b"
  top: "res3b"
}
layer {
  name: "res3c_branch2a"
  type: "Convolution"
  bottom: "res3b"
  top: "res3c_branch2a"
  convolution_param {
    num_output: 128
    bias_term: false
    pad: 0
    kernel_size: 1
    stride: 1
  }
}
layer {
  name: "bn3c_branch2a"
  type: "BatchNorm"
  bottom: "res3c_branch2a"
  top: "res3c_branch2a"
  batch_norm_param {
    use_global_stats: true
  }
}
layer {
  name: "scale3c_branch2a"
  type: "Scale"
  bottom: "res3c_branch2a"
  top: "res3c_branch2a"
  scale_param {
    bias_term: true
  }
}
layer {
  name: "res3c_branch2a_relu"
  type: "ReLU"
  bottom: "res3c_branch2a"
  top: "res3c_branch2a"
}
layer {
  name: "res3c_branch2b"
  type: "Convolution"
  bottom: "res3c_branch2a"
  top: "res3c_branch2b"
  convolution_param {
    num_output: 128
    bias_term: false
    pad: 1
    kernel_size: 3
    stride: 1
  }
}
layer {
  name: "bn3c_branch2b"
  type: "BatchNorm"
  bottom: "res3c_branch2b"
  top: "res3c_branch2b"
  batch_norm_param {
    use_global_stats: true
  }
}
layer {
  name: "scale3c_branch2b"
  type: "Scale"
  bottom: "res3c_branch2b"
  top: "res3c_branch2b"
  scale_param {
    bias_term: true
  }
}
layer {
  name: "res3c_branch2b_relu"
  type: "ReLU"
  bottom: "res3c_branch2b"
  top: "res3c_branch2b"
}
layer {
  name: "res3c_branch2c"
  type: "Convolution"
  bottom: "res3c_branch2b"
  top: "res3c_branch2c"
  convolution_param {
    num_output: 512
    bias_term: false
    pad: 0
    kernel_size: 1
    stride: 1
  }
}
layer {
  name: "bn3c_branch2c"
  type: "BatchNorm"
  bottom: "res3c_branch2c"
  top: "res3c_branch2c"
  batch_norm_param {
    use_global_stats: true
  }
}
layer {
  name: "scale3c_branch2c"
  type: "Scale"
  bottom: "res3c_branch2c"
  top: "res3c_branch2c"
  scale_param {
    bias_term: true
  }
}
layer {
  name: "res3c"
  type: "Eltwise"
  bottom: "res3b"
  bottom: "res3c_branch2c"
  top: "res3c"
}
layer {
  name: "res3c_relu"
  type: "ReLU"
  bottom: "res3c"
  top: "res3c"
}
layer {
  name: "res3d_branch2a"
  type: "Convolution"
  bottom: "res3c"
  top: "res3d_branch2a"
  convolution_param {
    num_output: 128
    bias_term: false
    pad: 0
    kernel_size: 1
    stride: 1
  }
}
layer {
  name: "bn3d_branch2a"
  type: "BatchNorm"
  bottom: "res3d_branch2a"
  top: "res3d_branch2a"
  batch_norm_param {
    use_global_stats: true
  }
}
layer {
  name: "scale3d_branch2a"
  type: "Scale"
  bottom: "res3d_branch2a"
  top: "res3d_branch2a"
  scale_param {
    bias_term: true
  }
}
layer {
  name: "res3d_branch2a_relu"
  type: "ReLU"
  bottom: "res3d_branch2a"
  top: "res3d_branch2a"
}
layer {
  name: "res3d_branch2b"
  type: "Convolution"
  bottom: "res3d_branch2a"
  top: "res3d_branch2b"
  convolution_param {
    num_output: 128
    bias_term: false
    pad: 1
    kernel_size: 3
    stride: 1
  }
}
layer {
  name: "bn3d_branch2b"
  type: "BatchNorm"
  bottom: "res3d_branch2b"
  top: "res3d_branch2b"
  batch_norm_param {
    use_global_stats: true
  }
}
layer {
  name: "scale3d_branch2b"
  type: "Scale"
  bottom: "res3d_branch2b"
  top: "res3d_branch2b"
  scale_param {
    bias_term: true
  }
}
layer {
  name: "res3d_branch2b_relu"
  type: "ReLU"
  bottom: "res3d_branch2b"
  top: "res3d_branch2b"
}
layer {
  name: "res3d_branch2c"
  type: "Convolution"
  bottom: "res3d_branch2b"
  top: "res3d_branch2c"
  convolution_param {
    num_output: 512
    bias_term: false
    pad: 0
    kernel_size: 1
    stride: 1
  }
}
layer {
  name: "bn3d_branch2c"
  type: "BatchNorm"
  bottom: "res3d_branch2c"
  top: "res3d_branch2c"
  batch_norm_param {
    use_global_stats: true
  }
}
layer {
  name: "scale3d_branch2c"
  type: "Scale"
  bottom: "res3d_branch2c"
  top: "res3d_branch2c"
  scale_param {
    bias_term: true
  }
}
layer {
  name: "res3d"
  type: "Eltwise"
  bottom: "res3c"
  bottom: "res3d_branch2c"
  top: "res3d"
}
layer {
  name: "res3d_relu"
  type: "ReLU"
  bottom: "res3d"
  top: "res3d"
}
layer {
  name: "res4a_branch1"
  type: "Convolution"
  bottom: "res3d"
  top: "res4a_branch1"
  convolution_param {
    num_output: 1024
    bias_term: false
    pad: 0
    kernel_size: 1
    stride: 2
  }
}
layer {
  name: "bn4a_branch1"
  type: "BatchNorm"
  bottom: "res4a_branch1"
  top: "res4a_branch1"
  batch_norm_param {
    use_global_stats: true
  }
}
layer {
  name: "scale4a_branch1"
  type: "Scale"
  bottom: "res4a_branch1"
  top: "res4a_branch1"
  scale_param {
    bias_term: true
  }
}
layer {
  name: "res4a_branch2a"
  type: "Convolution"
  bottom: "res3d"
  top: "res4a_branch2a"
  convolution_param {
    num_output: 256
    bias_term: false
    pad: 0
    kernel_size: 1
    stride: 2
  }
}
layer {
  name: "bn4a_branch2a"
  type: "BatchNorm"
  bottom: "res4a_branch2a"
  top: "res4a_branch2a"
  batch_norm_param {
    use_global_stats: true
  }
}
layer {
  name: "scale4a_branch2a"
  type: "Scale"
  bottom: "res4a_branch2a"
  top: "res4a_branch2a"
  scale_param {
    bias_term: true
  }
}
layer {
  name: "res4a_branch2a_relu"
  type: "ReLU"
  bottom: "res4a_branch2a"
  top: "res4a_branch2a"
}
layer {
  name: "res4a_branch2b"
  type: "Convolution"
  bottom: "res4a_branch2a"
  top: "res4a_branch2b"
  convolution_param {
    num_output: 256
    bias_term: false
    pad: 1
    kernel_size: 3
    stride: 1
  }
}
layer {
  name: "bn4a_branch2b"
  type: "BatchNorm"
  bottom: "res4a_branch2b"
  top: "res4a_branch2b"
  batch_norm_param {
    use_global_stats: true
  }
}
layer {
  name: "scale4a_branch2b"
  type: "Scale"
  bottom: "res4a_branch2b"
  top: "res4a_branch2b"
  scale_param {
    bias_term: true
  }
}
layer {
  name: "res4a_branch2b_relu"
  type: "ReLU"
  bottom: "res4a_branch2b"
  top: "res4a_branch2b"
}
layer {
  name: "res4a_branch2c"
  type: "Convolution"
  bottom: "res4a_branch2b"
  top: "res4a_branch2c"
  convolution_param {
    num_output: 1024
    bias_term: false
    pad: 0
    kernel_size: 1
    stride: 1
  }
}
layer {
  name: "bn4a_branch2c"
  type: "BatchNorm"
  bottom: "res4a_branch2c"
  top: "res4a_branch2c"
  batch_norm_param {
    use_global_stats: true
  }
}
layer {
  name: "scale4a_branch2c"
  type: "Scale"
  bottom: "res4a_branch2c"
  top: "res4a_branch2c"
  scale_param {
    bias_term: true
  }
}
layer {
  name: "res4a"
  type: "Eltwise"
  bottom: "res4a_branch1"
  bottom: "res4a_branch2c"
  top: "res4a"
}
layer {
  name: "res4a_relu"
  type: "ReLU"
  bottom: "res4a"
  top: "res4a"
}
layer {
  name: "res4b_branch2a"
  type: "Convolution"
  bottom: "res4a"
  top: "res4b_branch2a"
  convolution_param {
    num_output: 256
    bias_term: false
    pad: 0
    kernel_size: 1
    stride: 1
  }
}
layer {
  name: "bn4b_branch2a"
  type: "BatchNorm"
  bottom: "res4b_branch2a"
  top: "res4b_branch2a"
  batch_norm_param {
    use_global_stats: true
  }
}
layer {
  name: "scale4b_branch2a"
  type: "Scale"
  bottom: "res4b_branch2a"
  top: "res4b_branch2a"
  scale_param {
    bias_term: true
  }
}
layer {
  name: "res4b_branch2a_relu"
  type: "ReLU"
  bottom: "res4b_branch2a"
  top: "res4b_branch2a"
}
layer {
  name: "res4b_branch2b"
  type: "Convolution"
  bottom: "res4b_branch2a"
  top: "res4b_branch2b"
  convolution_param {
    num_output: 256
    bias_term: false
    pad: 1
    kernel_size: 3
    stride: 1
  }
}
layer {
  name: "bn4b_branch2b"
  type: "BatchNorm"
  bottom: "res4b_branch2b"
  top: "res4b_branch2b"
  batch_norm_param {
    use_global_stats: true
  }
}
layer {
  name: "scale4b_branch2b"
  type: "Scale"
  bottom: "res4b_branch2b"
  top: "res4b_branch2b"
  scale_param {
    bias_term: true
  }
}
layer {
  name: "res4b_branch2b_relu"
  type: "ReLU"
  bottom: "res4b_branch2b"
  top: "res4b_branch2b"
}
layer {
  name: "res4b_branch2c"
  type: "Convolution"
  bottom: "res4b_branch2b"
  top: "res4b_branch2c"
  convolution_param {
    num_output: 1024
    bias_term: false
    pad: 0
    kernel_size: 1
    stride: 1
  }
}
layer {
  name: "bn4b_branch2c"
  type: "BatchNorm"
  bottom: "res4b_branch2c"
  top: "res4b_branch2c"
  batch_norm_param {
    use_global_stats: true
  }
}
layer {
  name: "scale4b_branch2c"
  type: "Scale"
  bottom: "res4b_branch2c"
  top: "res4b_branch2c"
  scale_param {
    bias_term: true
  }
}
layer {
  name: "res4b"
  type: "Eltwise"
  bottom: "res4a"
  bottom: "res4b_branch2c"
  top: "res4b"
}
layer {
  name: "res4b_relu"
  type: "ReLU"
  bottom: "res4b"
  top: "res4b"
}
layer {
  name: "res4c_branch2a"
  type: "Convolution"
  bottom: "res4b"
  top: "res4c_branch2a"
  convolution_param {
    num_output: 256
    bias_term: false
    pad: 0
    kernel_size: 1
    stride: 1
  }
}
layer {
  name: "bn4c_branch2a"
  type: "BatchNorm"
  bottom: "res4c_branch2a"
  top: "res4c_branch2a"
  batch_norm_param {
    use_global_stats: true
  }
}
layer {
  name: "scale4c_branch2a"
  type: "Scale"
  bottom: "res4c_branch2a"
  top: "res4c_branch2a"
  scale_param {
    bias_term: true
  }
}
layer {
  name: "res4c_branch2a_relu"
  type: "ReLU"
  bottom: "res4c_branch2a"
  top: "res4c_branch2a"
}
layer {
  name: "res4c_branch2b"
  type: "Convolution"
  bottom: "res4c_branch2a"
  top: "res4c_branch2b"
  convolution_param {
    num_output: 256
    bias_term: false
    pad: 1
    kernel_size: 3
    stride: 1
  }
}
layer {
  name: "bn4c_branch2b"
  type: "BatchNorm"
  bottom: "res4c_branch2b"
  top: "res4c_branch2b"
  batch_norm_param {
    use_global_stats: true
  }
}
layer {
  name: "scale4c_branch2b"
  type: "Scale"
  bottom: "res4c_branch2b"
  top: "res4c_branch2b"
  scale_param {
    bias_term: true
  }
}
layer {
  name: "res4c_branch2b_relu"
  type: "ReLU"
  bottom: "res4c_branch2b"
  top: "res4c_branch2b"
}
layer {
  name: "res4c_branch2c"
  type: "Convolution"
  bottom: "res4c_branch2b"
  top: "res4c_branch2c"
  convolution_param {
    num_output: 1024
    bias_term: false
    pad: 0
    kernel_size: 1
    stride: 1
  }
}
layer {
  name: "bn4c_branch2c"
  type: "BatchNorm"
  bottom: "res4c_branch2c"
  top: "res4c_branch2c"
  batch_norm_param {
    use_global_stats: true
  }
}
layer {
  name: "scale4c_branch2c"
  type: "Scale"
  bottom: "res4c_branch2c"
  top: "res4c_branch2c"
  scale_param {
    bias_term: true
  }
}
layer {
  name: "res4c"
  type: "Eltwise"
  bottom: "res4b"
  bottom: "res4c_branch2c"
  top: "res4c"
}
layer {
  name: "res4c_relu"
  type: "ReLU"
  bottom: "res4c"
  top: "res4c"
}
layer {
  name: "res4d_branch2a"
  type: "Convolution"
  bottom: "res4c"
  top: "res4d_branch2a"
  convolution_param {
    num_output: 256
    bias_term: false
    pad: 0
    kernel_size: 1
    stride: 1
  }
}
layer {
  name: "bn4d_branch2a"
  type: "BatchNorm"
  bottom: "res4d_branch2a"
  top: "res4d_branch2a"
  batch_norm_param {
    use_global_stats: true
  }
}
layer {
  name: "scale4d_branch2a"
  type: "Scale"
  bottom: "res4d_branch2a"
  top: "res4d_branch2a"
  scale_param {
    bias_term: true
  }
}
layer {
  name: "res4d_branch2a_relu"
  type: "ReLU"
  bottom: "res4d_branch2a"
  top: "res4d_branch2a"
}
layer {
  name: "res4d_branch2b"
  type: "Convolution"
  bottom: "res4d_branch2a"
  top: "res4d_branch2b"
  convolution_param {
    num_output: 256
    bias_term: false
    pad: 1
    kernel_size: 3
    stride: 1
  }
}
layer {
  name: "bn4d_branch2b"
  type: "BatchNorm"
  bottom: "res4d_branch2b"
  top: "res4d_branch2b"
  batch_norm_param {
    use_global_stats: true
  }
}
layer {
  name: "scale4d_branch2b"
  type: "Scale"
  bottom: "res4d_branch2b"
  top: "res4d_branch2b"
  scale_param {
    bias_term: true
  }
}
layer {
  name: "res4d_branch2b_relu"
  type: "ReLU"
  bottom: "res4d_branch2b"
  top: "res4d_branch2b"
}
layer {
  name: "res4d_branch2c"
  type: "Convolution"
  bottom: "res4d_branch2b"
  top: "res4d_branch2c"
  convolution_param {
    num_output: 1024
    bias_term: false
    pad: 0
    kernel_size: 1
    stride: 1
  }
}
layer {
  name: "bn4d_branch2c"
  type: "BatchNorm"
  bottom: "res4d_branch2c"
  top: "res4d_branch2c"
  batch_norm_param {
    use_global_stats: true
  }
}
layer {
  name: "scale4d_branch2c"
  type: "Scale"
  bottom: "res4d_branch2c"
  top: "res4d_branch2c"
  scale_param {
    bias_term: true
  }
}
layer {
  name: "res4d"
  type: "Eltwise"
  bottom: "res4c"
  bottom: "res4d_branch2c"
  top: "res4d"
}
layer {
  name: "res4d_relu"
  type: "ReLU"
  bottom: "res4d"
  top: "res4d"
}
layer {
  name: "res4e_branch2a"
  type: "Convolution"
  bottom: "res4d"
  top: "res4e_branch2a"
  convolution_param {
    num_output: 256
    bias_term: false
    pad: 0
    kernel_size: 1
    stride: 1
  }
}
layer {
  name: "bn4e_branch2a"
  type: "BatchNorm"
  bottom: "res4e_branch2a"
  top: "res4e_branch2a"
  batch_norm_param {
    use_global_stats: true
  }
}
layer {
  name: "scale4e_branch2a"
  type: "Scale"
  bottom: "res4e_branch2a"
  top: "res4e_branch2a"
  scale_param {
    bias_term: true
  }
}
layer {
  name: "res4e_branch2a_relu"
  type: "ReLU"
  bottom: "res4e_branch2a"
  top: "res4e_branch2a"
}
layer {
  name: "res4e_branch2b"
  type: "Convolution"
  bottom: "res4e_branch2a"
  top: "res4e_branch2b"
  convolution_param {
    num_output: 256
    bias_term: false
    pad: 1
    kernel_size: 3
    stride: 1
  }
}
layer {
  name: "bn4e_branch2b"
  type: "BatchNorm"
  bottom: "res4e_branch2b"
  top: "res4e_branch2b"
  batch_norm_param {
    use_global_stats: true
  }
}
layer {
  name: "scale4e_branch2b"
  type: "Scale"
  bottom: "res4e_branch2b"
  top: "res4e_branch2b"
  scale_param {
    bias_term: true
  }
}
layer {
  name: "res4e_branch2b_relu"
  type: "ReLU"
  bottom: "res4e_branch2b"
  top: "res4e_branch2b"
}
layer {
  name: "res4e_branch2c"
  type: "Convolution"
  bottom: "res4e_branch2b"
  top: "res4e_branch2c"
  convolution_param {
    num_output: 1024
    bias_term: false
    pad: 0
    kernel_size: 1
    stride: 1
  }
}
layer {
  name: "bn4e_branch2c"
  type: "BatchNorm"
  bottom: "res4e_branch2c"
  top: "res4e_branch2c"
  batch_norm_param {
    use_global_stats: true
  }
}
layer {
  name: "scale4e_branch2c"
  type: "Scale"
  bottom: "res4e_branch2c"
  top: "res4e_branch2c"
  scale_param {
    bias_term: true
  }
}
layer {
  name: "res4e"
  type: "Eltwise"
  bottom: "res4d"
  bottom: "res4e_branch2c"
  top: "res4e"
}
layer {
  name: "res4e_relu"
  type: "ReLU"
  bottom: "res4e"
  top: "res4e"
}
layer {
  name: "res4f_branch2a"
  type: "Convolution"
  bottom: "res4e"
  top: "res4f_branch2a"
  convolution_param {
    num_output: 256
    bias_term: false
    pad: 0
    kernel_size: 1
    stride: 1
  }
}
layer {
  name: "bn4f_branch2a"
  type: "BatchNorm"
  bottom: "res4f_branch2a"
  top: "res4f_branch2a"
  batch_norm_param {
    use_global_stats: true
  }
}
layer {
  name: "scale4f_branch2a"
  type: "Scale"
  bottom: "res4f_branch2a"
  top: "res4f_branch2a"
  scale_param {
    bias_term: true
  }
}
layer {
  name: "res4f_branch2a_relu"
  type: "ReLU"
  bottom: "res4f_branch2a"
  top: "res4f_branch2a"
}
layer {
  name: "res4f_branch2b"
  type: "Convolution"
  bottom: "res4f_branch2a"
  top: "res4f_branch2b"
  convolution_param {
    num_output: 256
    bias_term: false
    pad: 1
    kernel_size: 3
    stride: 1
  }
}
layer {
  name: "bn4f_branch2b"
  type: "BatchNorm"
  bottom: "res4f_branch2b"
  top: "res4f_branch2b"
  batch_norm_param {
    use_global_stats: true
  }
}
layer {
  name: "scale4f_branch2b"
  type: "Scale"
  bottom: "res4f_branch2b"
  top: "res4f_branch2b"
  scale_param {
    bias_term: true
  }
}
layer {
  name: "res4f_branch2b_relu"
  type: "ReLU"
  bottom: "res4f_branch2b"
  top: "res4f_branch2b"
}
layer {
  name: "res4f_branch2c"
  type: "Convolution"
  bottom: "res4f_branch2b"
  top: "res4f_branch2c"
  convolution_param {
    num_output: 1024
    bias_term: false
    pad: 0
    kernel_size: 1
    stride: 1
  }
}
layer {
  name: "bn4f_branch2c"
  type: "BatchNorm"
  bottom: "res4f_branch2c"
  top: "res4f_branch2c"
  batch_norm_param {
    use_global_stats: true
  }
}
layer {
  name: "scale4f_branch2c"
  type: "Scale"
  bottom: "res4f_branch2c"
  top: "res4f_branch2c"
  scale_param {
    bias_term: true
  }
}
layer {
  name: "res4f"
  type: "Eltwise"
  bottom: "res4e"
  bottom: "res4f_branch2c"
  top: "res4f"
}
layer {
  name: "res4f_relu"
  type: "ReLU"
  bottom: "res4f"
  top: "res4f"
}
layer {
  name: "res5a_branch1"
  type: "Convolution"
  bottom: "res4f"
  top: "res5a_branch1"
  convolution_param {
    num_output: 2048
    bias_term: false
    pad: 0
    kernel_size: 1
    stride: 2
  }
}
layer {
  name: "bn5a_branch1"
  type: "BatchNorm"
  bottom: "res5a_branch1"
  top: "res5a_branch1"
  batch_norm_param {
    use_global_stats: true
  }
}
layer {
  name: "scale5a_branch1"
  type: "Scale"
  bottom: "res5a_branch1"
  top: "res5a_branch1"
  scale_param {
    bias_term: true
  }
}
layer {
  name: "res5a_branch2a"
  type: "Convolution"
  bottom: "res4f"
  top: "res5a_branch2a"
  convolution_param {
    num_output: 512
    bias_term: false
    pad: 0
    kernel_size: 1
    stride: 2
  }
}
layer {
  name: "bn5a_branch2a"
  type: "BatchNorm"
  bottom: "res5a_branch2a"
  top: "res5a_branch2a"
  batch_norm_param {
    use_global_stats: true
  }
}
layer {
  name: "scale5a_branch2a"
  type: "Scale"
  bottom: "res5a_branch2a"
  top: "res5a_branch2a"
  scale_param {
    bias_term: true
  }
}
layer {
  name: "res5a_branch2a_relu"
  type: "ReLU"
  bottom: "res5a_branch2a"
  top: "res5a_branch2a"
}
layer {
  name: "res5a_branch2b"
  type: "Convolution"
  bottom: "res5a_branch2a"
  top: "res5a_branch2b"
  convolution_param {
    num_output: 512
    bias_term: false
    pad: 1
    kernel_size: 3
    stride: 1
  }
}
layer {
  name: "bn5a_branch2b"
  type: "BatchNorm"
  bottom: "res5a_branch2b"
  top: "res5a_branch2b"
  batch_norm_param {
    use_global_stats: true
  }
}
layer {
  name: "scale5a_branch2b"
  type: "Scale"
  bottom: "res5a_branch2b"
  top: "res5a_branch2b"
  scale_param {
    bias_term: true
  }
}
layer {
  name: "res5a_branch2b_relu"
  type: "ReLU"
  bottom: "res5a_branch2b"
  top: "res5a
I0318 13:47:32.160930 18120 layer_factory.hpp:77] Creating layer data
I0318 13:47:32.162144 18120 net.cpp:106] Creating Layer data
I0318 13:47:32.162271 18120 net.cpp:411] data -> data
I0318 13:47:32.162364 18120 net.cpp:411] data -> id_label
I0318 13:47:32.162431 18120 data_transformer.cpp:25] Loading mean file from: /home/lizhuowan/Market1501/lmdb/lmdb_12936/Image_lmdb_12936.binaryproto
I0318 13:47:32.164153 18125 db_lmdb.cpp:38] Opened lmdb /home/lizhuowan/Market1501/lmdb/lmdb_mirror_12936/Image_lmdb_mirror_12936
I0318 13:47:32.190502 18120 data_layer.cpp:41] output data size: 16,3,224,224
I0318 13:47:32.221271 18120 net.cpp:150] Setting up data
I0318 13:47:32.221400 18120 net.cpp:157] Top shape: 16 3 224 224 (2408448)
I0318 13:47:32.221428 18120 net.cpp:157] Top shape: 16 (16)
I0318 13:47:32.221446 18120 net.cpp:165] Memory required for data: 9633856
I0318 13:47:32.221485 18120 layer_factory.hpp:77] Creating layer data_data_0_split
I0318 13:47:32.221539 18120 net.cpp:106] Creating Layer data_data_0_split
I0318 13:47:32.221567 18120 net.cpp:454] data_data_0_split <- data
I0318 13:47:32.221614 18120 net.cpp:411] data_data_0_split -> data_data_0_split_0
I0318 13:47:32.221659 18120 net.cpp:411] data_data_0_split -> data_data_0_split_1
I0318 13:47:32.221778 18120 net.cpp:150] Setting up data_data_0_split
I0318 13:47:32.221812 18120 net.cpp:157] Top shape: 16 3 224 224 (2408448)
I0318 13:47:32.221834 18120 net.cpp:157] Top shape: 16 3 224 224 (2408448)
I0318 13:47:32.221853 18120 net.cpp:165] Memory required for data: 28901440
I0318 13:47:32.221871 18120 layer_factory.hpp:77] Creating layer data
I0318 13:47:32.222041 18120 net.cpp:106] Creating Layer data
I0318 13:47:32.222082 18120 net.cpp:411] data -> labels
I0318 13:47:32.224005 18127 db_lmdb.cpp:38] Opened lmdb /home/lizhuowan/Market1501/lmdb/lmdb_mirror_12936/pos30_lmdb_mirror_12936_correct
I0318 13:47:32.225556 18120 data_layer.cpp:41] output data size: 16,30,1,1
I0318 13:47:32.227253 18120 net.cpp:150] Setting up data
I0318 13:47:32.227299 18120 net.cpp:157] Top shape: 16 30 1 1 (480)
I0318 13:47:32.227320 18120 net.cpp:165] Memory required for data: 28903360
I0318 13:47:32.227385 18120 layer_factory.hpp:77] Creating layer conv1
I0318 13:47:32.227443 18120 net.cpp:106] Creating Layer conv1
I0318 13:47:32.227466 18120 net.cpp:454] conv1 <- data_data_0_split_0
I0318 13:47:32.227497 18120 net.cpp:411] conv1 -> conv1
I0318 13:47:32.229216 18120 net.cpp:150] Setting up conv1
I0318 13:47:32.229262 18120 net.cpp:157] Top shape: 16 64 112 112 (12845056)
I0318 13:47:32.229282 18120 net.cpp:165] Memory required for data: 80283584
I0318 13:47:32.229339 18120 layer_factory.hpp:77] Creating layer bn_conv1
I0318 13:47:32.229382 18120 net.cpp:106] Creating Layer bn_conv1
I0318 13:47:32.229404 18120 net.cpp:454] bn_conv1 <- conv1
I0318 13:47:32.229429 18120 net.cpp:397] bn_conv1 -> conv1 (in-place)
I0318 13:47:32.230082 18120 net.cpp:150] Setting up bn_conv1
I0318 13:47:32.230124 18120 net.cpp:157] Top shape: 16 64 112 112 (12845056)
I0318 13:47:32.230151 18120 net.cpp:165] Memory required for data: 131663808
I0318 13:47:32.230199 18120 layer_factory.hpp:77] Creating layer scale_conv1
I0318 13:47:32.230235 18120 net.cpp:106] Creating Layer scale_conv1
I0318 13:47:32.230257 18120 net.cpp:454] scale_conv1 <- conv1
I0318 13:47:32.230312 18120 net.cpp:397] scale_conv1 -> conv1 (in-place)
I0318 13:47:32.230448 18120 layer_factory.hpp:77] Creating layer scale_conv1
I0318 13:47:32.230844 18120 net.cpp:150] Setting up scale_conv1
I0318 13:47:32.230882 18120 net.cpp:157] Top shape: 16 64 112 112 (12845056)
I0318 13:47:32.230901 18120 net.cpp:165] Memory required for data: 183044032
I0318 13:47:32.230928 18120 layer_factory.hpp:77] Creating layer conv1_relu
I0318 13:47:32.230964 18120 net.cpp:106] Creating Layer conv1_relu
I0318 13:47:32.230985 18120 net.cpp:454] conv1_relu <- conv1
I0318 13:47:32.231009 18120 net.cpp:397] conv1_relu -> conv1 (in-place)
I0318 13:47:32.231040 18120 net.cpp:150] Setting up conv1_relu
I0318 13:47:32.231063 18120 net.cpp:157] Top shape: 16 64 112 112 (12845056)
I0318 13:47:32.231082 18120 net.cpp:165] Memory required for data: 234424256
I0318 13:47:32.231101 18120 layer_factory.hpp:77] Creating layer pool1
I0318 13:47:32.231132 18120 net.cpp:106] Creating Layer pool1
I0318 13:47:32.231155 18120 net.cpp:454] pool1 <- conv1
I0318 13:47:32.231179 18120 net.cpp:411] pool1 -> pool1
I0318 13:47:32.231309 18120 net.cpp:150] Setting up pool1
I0318 13:47:32.231346 18120 net.cpp:157] Top shape: 16 64 56 56 (3211264)
I0318 13:47:32.231364 18120 net.cpp:165] Memory required for data: 247269312
I0318 13:47:32.231384 18120 layer_factory.hpp:77] Creating layer pool1_pool1_0_split
I0318 13:47:32.231410 18120 net.cpp:106] Creating Layer pool1_pool1_0_split
I0318 13:47:32.231431 18120 net.cpp:454] pool1_pool1_0_split <- pool1
I0318 13:47:32.231453 18120 net.cpp:411] pool1_pool1_0_split -> pool1_pool1_0_split_0
I0318 13:47:32.231480 18120 net.cpp:411] pool1_pool1_0_split -> pool1_pool1_0_split_1
I0318 13:47:32.231569 18120 net.cpp:150] Setting up pool1_pool1_0_split
I0318 13:47:32.231598 18120 net.cpp:157] Top shape: 16 64 56 56 (3211264)
I0318 13:47:32.231621 18120 net.cpp:157] Top shape: 16 64 56 56 (3211264)
I0318 13:47:32.231638 18120 net.cpp:165] Memory required for data: 272959424
I0318 13:47:32.231657 18120 layer_factory.hpp:77] Creating layer res2a_branch1
I0318 13:47:32.231689 18120 net.cpp:106] Creating Layer res2a_branch1
I0318 13:47:32.231710 18120 net.cpp:454] res2a_branch1 <- pool1_pool1_0_split_0
I0318 13:47:32.231735 18120 net.cpp:411] res2a_branch1 -> res2a_branch1
I0318 13:47:32.232115 18120 net.cpp:150] Setting up res2a_branch1
I0318 13:47:32.232151 18120 net.cpp:157] Top shape: 16 256 56 56 (12845056)
I0318 13:47:32.232168 18120 net.cpp:165] Memory required for data: 324339648
I0318 13:47:32.232192 18120 layer_factory.hpp:77] Creating layer bn2a_branch1
I0318 13:47:32.232218 18120 net.cpp:106] Creating Layer bn2a_branch1
I0318 13:47:32.232237 18120 net.cpp:454] bn2a_branch1 <- res2a_branch1
I0318 13:47:32.232260 18120 net.cpp:397] bn2a_branch1 -> res2a_branch1 (in-place)
I0318 13:47:32.233758 18120 net.cpp:150] Setting up bn2a_branch1
I0318 13:47:32.233814 18120 net.cpp:157] Top shape: 16 256 56 56 (12845056)
I0318 13:47:32.233852 18120 net.cpp:165] Memory required for data: 375719872
I0318 13:47:32.233892 18120 layer_factory.hpp:77] Creating layer scale2a_branch1
I0318 13:47:32.233921 18120 net.cpp:106] Creating Layer scale2a_branch1
I0318 13:47:32.233940 18120 net.cpp:454] scale2a_branch1 <- res2a_branch1
I0318 13:47:32.233968 18120 net.cpp:397] scale2a_branch1 -> res2a_branch1 (in-place)
I0318 13:47:32.234079 18120 layer_factory.hpp:77] Creating layer scale2a_branch1
I0318 13:47:32.234342 18120 net.cpp:150] Setting up scale2a_branch1
I0318 13:47:32.234376 18120 net.cpp:157] Top shape: 16 256 56 56 (12845056)
I0318 13:47:32.234393 18120 net.cpp:165] Memory required for data: 427100096
I0318 13:47:32.234419 18120 layer_factory.hpp:77] Creating layer res2a_branch2a
I0318 13:47:32.234457 18120 net.cpp:106] Creating Layer res2a_branch2a
I0318 13:47:32.234477 18120 net.cpp:454] res2a_branch2a <- pool1_pool1_0_split_1
I0318 13:47:32.234508 18120 net.cpp:411] res2a_branch2a -> res2a_branch2a
I0318 13:47:32.234897 18120 net.cpp:150] Setting up res2a_branch2a
I0318 13:47:32.234931 18120 net.cpp:157] Top shape: 16 64 56 56 (3211264)
I0318 13:47:32.234949 18120 net.cpp:165] Memory required for data: 439945152
I0318 13:47:32.234972 18120 layer_factory.hpp:77] Creating layer bn2a_branch2a
I0318 13:47:32.235002 18120 net.cpp:106] Creating Layer bn2a_branch2a
I0318 13:47:32.235024 18120 net.cpp:454] bn2a_branch2a <- res2a_branch2a
I0318 13:47:32.235047 18120 net.cpp:397] bn2a_branch2a -> res2a_branch2a (in-place)
I0318 13:47:32.235429 18120 net.cpp:150] Setting up bn2a_branch2a
I0318 13:47:32.235460 18120 net.cpp:157] Top shape: 16 64 56 56 (3211264)
I0318 13:47:32.235479 18120 net.cpp:165] Memory required for data: 452790208
I0318 13:47:32.235522 18120 layer_factory.hpp:77] Creating layer scale2a_branch2a
I0318 13:47:32.235548 18120 net.cpp:106] Creating Layer scale2a_branch2a
I0318 13:47:32.235574 18120 net.cpp:454] scale2a_branch2a <- res2a_branch2a
I0318 13:47:32.235596 18120 net.cpp:397] scale2a_branch2a -> res2a_branch2a (in-place)
I0318 13:47:32.235703 18120 layer_factory.hpp:77] Creating layer scale2a_branch2a
I0318 13:47:32.235983 18120 net.cpp:150] Setting up scale2a_branch2a
I0318 13:47:32.236016 18120 net.cpp:157] Top shape: 16 64 56 56 (3211264)
I0318 13:47:32.236034 18120 net.cpp:165] Memory required for data: 465635264
I0318 13:47:32.236060 18120 layer_factory.hpp:77] Creating layer res2a_branch2a_relu
I0318 13:47:32.236084 18120 net.cpp:106] Creating Layer res2a_branch2a_relu
I0318 13:47:32.236104 18120 net.cpp:454] res2a_branch2a_relu <- res2a_branch2a
I0318 13:47:32.236131 18120 net.cpp:397] res2a_branch2a_relu -> res2a_branch2a (in-place)
I0318 13:47:32.236158 18120 net.cpp:150] Setting up res2a_branch2a_relu
I0318 13:47:32.236181 18120 net.cpp:157] Top shape: 16 64 56 56 (3211264)
I0318 13:47:32.236199 18120 net.cpp:165] Memory required for data: 478480320
I0318 13:47:32.236217 18120 layer_factory.hpp:77] Creating layer res2a_branch2b
I0318 13:47:32.236248 18120 net.cpp:106] Creating Layer res2a_branch2b
I0318 13:47:32.236268 18120 net.cpp:454] res2a_branch2b <- res2a_branch2a
I0318 13:47:32.236297 18120 net.cpp:411] res2a_branch2b -> res2a_branch2b
I0318 13:47:32.237823 18120 net.cpp:150] Setting up res2a_branch2b
I0318 13:47:32.237867 18120 net.cpp:157] Top shape: 16 64 56 56 (3211264)
I0318 13:47:32.237886 18120 net.cpp:165] Memory required for data: 491325376
I0318 13:47:32.237910 18120 layer_factory.hpp:77] Creating layer bn2a_branch2b
I0318 13:47:32.237936 18120 net.cpp:106] Creating Layer bn2a_branch2b
I0318 13:47:32.237956 18120 net.cpp:454] bn2a_branch2b <- res2a_branch2b
I0318 13:47:32.237978 18120 net.cpp:397] bn2a_branch2b -> res2a_branch2b (in-place)
I0318 13:47:32.238400 18120 net.cpp:150] Setting up bn2a_branch2b
I0318 13:47:32.238435 18120 net.cpp:157] Top shape: 16 64 56 56 (3211264)
I0318 13:47:32.238453 18120 net.cpp:165] Memory required for data: 504170432
I0318 13:47:32.238483 18120 layer_factory.hpp:77] Creating layer scale2a_branch2b
I0318 13:47:32.238521 18120 net.cpp:106] Creating Layer scale2a_branch2b
I0318 13:47:32.238559 18120 net.cpp:454] scale2a_branch2b <- res2a_branch2b
I0318 13:47:32.238584 18120 net.cpp:397] scale2a_branch2b -> res2a_branch2b (in-place)
I0318 13:47:32.238699 18120 layer_factory.hpp:77] Creating layer scale2a_branch2b
I0318 13:47:32.238982 18120 net.cpp:150] Setting up scale2a_branch2b
I0318 13:47:32.239017 18120 net.cpp:157] Top shape: 16 64 56 56 (3211264)
I0318 13:47:32.239034 18120 net.cpp:165] Memory required for data: 517015488
I0318 13:47:32.239060 18120 layer_factory.hpp:77] Creating layer res2a_branch2b_relu
I0318 13:47:32.239084 18120 net.cpp:106] Creating Layer res2a_branch2b_relu
I0318 13:47:32.239104 18120 net.cpp:454] res2a_branch2b_relu <- res2a_branch2b
I0318 13:47:32.239125 18120 net.cpp:397] res2a_branch2b_relu -> res2a_branch2b (in-place)
I0318 13:47:32.239151 18120 net.cpp:150] Setting up res2a_branch2b_relu
I0318 13:47:32.239173 18120 net.cpp:157] Top shape: 16 64 56 56 (3211264)
I0318 13:47:32.239190 18120 net.cpp:165] Memory required for data: 529860544
I0318 13:47:32.239208 18120 layer_factory.hpp:77] Creating layer res2a_branch2c
I0318 13:47:32.239240 18120 net.cpp:106] Creating Layer res2a_branch2c
I0318 13:47:32.239260 18120 net.cpp:454] res2a_branch2c <- res2a_branch2b
I0318 13:47:32.239292 18120 net.cpp:411] res2a_branch2c -> res2a_branch2c
I0318 13:47:32.239688 18120 net.cpp:150] Setting up res2a_branch2c
I0318 13:47:32.239724 18120 net.cpp:157] Top shape: 16 256 56 56 (12845056)
I0318 13:47:32.239742 18120 net.cpp:165] Memory required for data: 581240768
I0318 13:47:32.239765 18120 layer_factory.hpp:77] Creating layer bn2a_branch2c
I0318 13:47:32.239790 18120 net.cpp:106] Creating Layer bn2a_branch2c
I0318 13:47:32.239814 18120 net.cpp:454] bn2a_branch2c <- res2a_branch2c
I0318 13:47:32.239836 18120 net.cpp:397] bn2a_branch2c -> res2a_branch2c (in-place)
I0318 13:47:32.240226 18120 net.cpp:150] Setting up bn2a_branch2c
I0318 13:47:32.240258 18120 net.cpp:157] Top shape: 16 256 56 56 (12845056)
I0318 13:47:32.240278 18120 net.cpp:165] Memory required for data: 632620992
I0318 13:47:32.240306 18120 layer_factory.hpp:77] Creating layer scale2a_branch2c
I0318 13:47:32.240336 18120 net.cpp:106] Creating Layer scale2a_branch2c
I0318 13:47:32.240356 18120 net.cpp:454] scale2a_branch2c <- res2a_branch2c
I0318 13:47:32.240380 18120 net.cpp:397] scale2a_branch2c -> res2a_branch2c (in-place)
I0318 13:47:32.240483 18120 layer_factory.hpp:77] Creating layer scale2a_branch2c
I0318 13:47:32.240774 18120 net.cpp:150] Setting up scale2a_branch2c
I0318 13:47:32.240810 18120 net.cpp:157] Top shape: 16 256 56 56 (12845056)
I0318 13:47:32.240829 18120 net.cpp:165] Memory required for data: 684001216
I0318 13:47:32.240854 18120 layer_factory.hpp:77] Creating layer res2a
I0318 13:47:32.240891 18120 net.cpp:106] Creating Layer res2a
I0318 13:47:32.240913 18120 net.cpp:454] res2a <- res2a_branch1
I0318 13:47:32.240934 18120 net.cpp:454] res2a <- res2a_branch2c
I0318 13:47:32.240958 18120 net.cpp:411] res2a -> res2a
I0318 13:47:32.241053 18120 net.cpp:150] Setting up res2a
I0318 13:47:32.241084 18120 net.cpp:157] Top shape: 16 256 56 56 (12845056)
I0318 13:47:32.241103 18120 net.cpp:165] Memory required for data: 735381440
I0318 13:47:32.241122 18120 layer_factory.hpp:77] Creating layer res2a_relu
I0318 13:47:32.241145 18120 net.cpp:106] Creating Layer res2a_relu
I0318 13:47:32.241164 18120 net.cpp:454] res2a_relu <- res2a
I0318 13:47:32.241194 18120 net.cpp:397] res2a_relu -> res2a (in-place)
I0318 13:47:32.241221 18120 net.cpp:150] Setting up res2a_relu
I0318 13:47:32.241248 18120 net.cpp:157] Top shape: 16 256 56 56 (12845056)
I0318 13:47:32.241266 18120 net.cpp:165] Memory required for data: 786761664
I0318 13:47:32.241286 18120 layer_factory.hpp:77] Creating layer res2a_res2a_relu_0_split
I0318 13:47:32.241307 18120 net.cpp:106] Creating Layer res2a_res2a_relu_0_split
I0318 13:47:32.241327 18120 net.cpp:454] res2a_res2a_relu_0_split <- res2a
I0318 13:47:32.241348 18120 net.cpp:411] res2a_res2a_relu_0_split -> res2a_res2a_relu_0_split_0
I0318 13:47:32.241403 18120 net.cpp:411] res2a_res2a_relu_0_split -> res2a_res2a_relu_0_split_1
I0318 13:47:32.241497 18120 net.cpp:150] Setting up res2a_res2a_relu_0_split
I0318 13:47:32.241526 18120 net.cpp:157] Top shape: 16 256 56 56 (12845056)
I0318 13:47:32.241547 18120 net.cpp:157] Top shape: 16 256 56 56 (12845056)
I0318 13:47:32.241564 18120 net.cpp:165] Memory required for data: 889522112
I0318 13:47:32.241583 18120 layer_factory.hpp:77] Creating layer res2b_branch2a
I0318 13:47:32.241610 18120 net.cpp:106] Creating Layer res2b_branch2a
I0318 13:47:32.241629 18120 net.cpp:454] res2b_branch2a <- res2a_res2a_relu_0_split_0
I0318 13:47:32.241652 18120 net.cpp:411] res2b_branch2a -> res2b_branch2a
I0318 13:47:32.242049 18120 net.cpp:150] Setting up res2b_branch2a
I0318 13:47:32.242086 18120 net.cpp:157] Top shape: 16 64 56 56 (3211264)
I0318 13:47:32.242105 18120 net.cpp:165] Memory required for data: 902367168
I0318 13:47:32.242127 18120 layer_factory.hpp:77] Creating layer bn2b_branch2a
I0318 13:47:32.242162 18120 net.cpp:106] Creating Layer bn2b_branch2a
I0318 13:47:32.242184 18120 net.cpp:454] bn2b_branch2a <- res2b_branch2a
I0318 13:47:32.242208 18120 net.cpp:397] bn2b_branch2a -> res2b_branch2a (in-place)
I0318 13:47:32.242617 18120 net.cpp:150] Setting up bn2b_branch2a
I0318 13:47:32.242655 18120 net.cpp:157] Top shape: 16 64 56 56 (3211264)
I0318 13:47:32.242674 18120 net.cpp:165] Memory required for data: 915212224
I0318 13:47:32.242722 18120 layer_factory.hpp:77] Creating layer scale2b_branch2a
I0318 13:47:32.242750 18120 net.cpp:106] Creating Layer scale2b_branch2a
I0318 13:47:32.242770 18120 net.cpp:454] scale2b_branch2a <- res2b_branch2a
I0318 13:47:32.242794 18120 net.cpp:397] scale2b_branch2a -> res2b_branch2a (in-place)
I0318 13:47:32.242903 18120 layer_factory.hpp:77] Creating layer scale2b_branch2a
I0318 13:47:32.243180 18120 net.cpp:150] Setting up scale2b_branch2a
I0318 13:47:32.243213 18120 net.cpp:157] Top shape: 16 64 56 56 (3211264)
I0318 13:47:32.243232 18120 net.cpp:165] Memory required for data: 928057280
I0318 13:47:32.243257 18120 layer_factory.hpp:77] Creating layer res2b_branch2a_relu
I0318 13:47:32.243286 18120 net.cpp:106] Creating Layer res2b_branch2a_relu
I0318 13:47:32.243307 18120 net.cpp:454] res2b_branch2a_relu <- res2b_branch2a
I0318 13:47:32.243330 18120 net.cpp:397] res2b_branch2a_relu -> res2b_branch2a (in-place)
I0318 13:47:32.243355 18120 net.cpp:150] Setting up res2b_branch2a_relu
I0318 13:47:32.243377 18120 net.cpp:157] Top shape: 16 64 56 56 (3211264)
I0318 13:47:32.243394 18120 net.cpp:165] Memory required for data: 940902336
I0318 13:47:32.243412 18120 layer_factory.hpp:77] Creating layer res2b_branch2b
I0318 13:47:32.243443 18120 net.cpp:106] Creating Layer res2b_branch2b
I0318 13:47:32.243463 18120 net.cpp:454] res2b_branch2b <- res2b_branch2a
I0318 13:47:32.243487 18120 net.cpp:411] res2b_branch2b -> res2b_branch2b
I0318 13:47:32.243926 18120 net.cpp:150] Setting up res2b_branch2b
I0318 13:47:32.243962 18120 net.cpp:157] Top shape: 16 64 56 56 (3211264)
I0318 13:47:32.243979 18120 net.cpp:165] Memory required for data: 953747392
I0318 13:47:32.244002 18120 layer_factory.hpp:77] Creating layer bn2b_branch2b
I0318 13:47:32.244032 18120 net.cpp:106] Creating Layer bn2b_branch2b
I0318 13:47:32.244056 18120 net.cpp:454] bn2b_branch2b <- res2b_branch2b
I0318 13:47:32.244081 18120 net.cpp:397] bn2b_branch2b -> res2b_branch2b (in-place)
I0318 13:47:32.244488 18120 net.cpp:150] Setting up bn2b_branch2b
I0318 13:47:32.244521 18120 net.cpp:157] Top shape: 16 64 56 56 (3211264)
I0318 13:47:32.244540 18120 net.cpp:165] Memory required for data: 966592448
I0318 13:47:32.244575 18120 layer_factory.hpp:77] Creating layer scale2b_branch2b
I0318 13:47:32.244606 18120 net.cpp:106] Creating Layer scale2b_branch2b
I0318 13:47:32.244644 18120 net.cpp:454] scale2b_branch2b <- res2b_branch2b
I0318 13:47:32.244668 18120 net.cpp:397] scale2b_branch2b -> res2b_branch2b (in-place)
I0318 13:47:32.244781 18120 layer_factory.hpp:77] Creating layer scale2b_branch2b
I0318 13:47:32.245069 18120 net.cpp:150] Setting up scale2b_branch2b
I0318 13:47:32.245122 18120 net.cpp:157] Top shape: 16 64 56 56 (3211264)
I0318 13:47:32.245141 18120 net.cpp:165] Memory required for data: 979437504
I0318 13:47:32.245167 18120 layer_factory.hpp:77] Creating layer res2b_branch2b_relu
I0318 13:47:32.245203 18120 net.cpp:106] Creating Layer res2b_branch2b_relu
I0318 13:47:32.245223 18120 net.cpp:454] res2b_branch2b_relu <- res2b_branch2b
I0318 13:47:32.245246 18120 net.cpp:397] res2b_branch2b_relu -> res2b_branch2b (in-place)
I0318 13:47:32.245271 18120 net.cpp:150] Setting up res2b_branch2b_relu
I0318 13:47:32.245293 18120 net.cpp:157] Top shape: 16 64 56 56 (3211264)
I0318 13:47:32.245326 18120 net.cpp:165] Memory required for data: 992282560
I0318 13:47:32.245343 18120 layer_factory.hpp:77] Creating layer res2b_branch2c
I0318 13:47:32.245376 18120 net.cpp:106] Creating Layer res2b_branch2c
I0318 13:47:32.245396 18120 net.cpp:454] res2b_branch2c <- res2b_branch2b
I0318 13:47:32.245420 18120 net.cpp:411] res2b_branch2c -> res2b_branch2c
I0318 13:47:32.245846 18120 net.cpp:150] Setting up res2b_branch2c
I0318 13:47:32.245882 18120 net.cpp:157] Top shape: 16 256 56 56 (12845056)
I0318 13:47:32.245901 18120 net.cpp:165] Memory required for data: 1043662784
I0318 13:47:32.245923 18120 layer_factory.hpp:77] Creating layer bn2b_branch2c
I0318 13:47:32.245954 18120 net.cpp:106] Creating Layer bn2b_branch2c
I0318 13:47:32.245973 18120 net.cpp:454] bn2b_branch2c <- res2b_branch2c
I0318 13:47:32.245996 18120 net.cpp:397] bn2b_branch2c -> res2b_branch2c (in-place)
I0318 13:47:32.246382 18120 net.cpp:150] Setting up bn2b_branch2c
I0318 13:47:32.246414 18120 net.cpp:157] Top shape: 16 256 56 56 (12845056)
I0318 13:47:32.246433 18120 net.cpp:165] Memory required for data: 1095043008
I0318 13:47:32.246462 18120 layer_factory.hpp:77] Creating layer scale2b_branch2c
I0318 13:47:32.246493 18120 net.cpp:106] Creating Layer scale2b_branch2c
I0318 13:47:32.246513 18120 net.cpp:454] scale2b_branch2c <- res2b_branch2c
I0318 13:47:32.246536 18120 net.cpp:397] scale2b_branch2c -> res2b_branch2c (in-place)
I0318 13:47:32.246639 18120 layer_factory.hpp:77] Creating layer scale2b_branch2c
I0318 13:47:32.246914 18120 net.cpp:150] Setting up scale2b_branch2c
I0318 13:47:32.246948 18120 net.cpp:157] Top shape: 16 256 56 56 (12845056)
I0318 13:47:32.246966 18120 net.cpp:165] Memory required for data: 1146423232
I0318 13:47:32.246992 18120 layer_factory.hpp:77] Creating layer res2b
I0318 13:47:32.247017 18120 net.cpp:106] Creating Layer res2b
I0318 13:47:32.247036 18120 net.cpp:454] res2b <- res2a_res2a_relu_0_split_1
I0318 13:47:32.247057 18120 net.cpp:454] res2b <- res2b_branch2c
I0318 13:47:32.247081 18120 net.cpp:411] res2b -> res2b
I0318 13:47:32.247153 18120 net.cpp:150] Setting up res2b
I0318 13:47:32.247189 18120 net.cpp:157] Top shape: 16 256 56 56 (12845056)
I0318 13:47:32.247207 18120 net.cpp:165] Memory required for data: 1197803456
I0318 13:47:32.247226 18120 layer_factory.hpp:77] Creating layer res2b_relu
I0318 13:47:32.247249 18120 net.cpp:106] Creating Layer res2b_relu
I0318 13:47:32.247268 18120 net.cpp:454] res2b_relu <- res2b
I0318 13:47:32.247290 18120 net.cpp:397] res2b_relu -> res2b (in-place)
I0318 13:47:32.247314 18120 net.cpp:150] Setting up res2b_relu
I0318 13:47:32.247337 18120 net.cpp:157] Top shape: 16 256 56 56 (12845056)
I0318 13:47:32.247354 18120 net.cpp:165] Memory required for data: 1249183680
I0318 13:47:32.247372 18120 layer_factory.hpp:77] Creating layer res2b_res2b_relu_0_split
I0318 13:47:32.247395 18120 net.cpp:106] Creating Layer res2b_res2b_relu_0_split
I0318 13:47:32.247412 18120 net.cpp:454] res2b_res2b_relu_0_split <- res2b
I0318 13:47:32.247438 18120 net.cpp:411] res2b_res2b_relu_0_split -> res2b_res2b_relu_0_split_0
I0318 13:47:32.247465 18120 net.cpp:411] res2b_res2b_relu_0_split -> res2b_res2b_relu_0_split_1
I0318 13:47:32.247550 18120 net.cpp:150] Setting up res2b_res2b_relu_0_split
I0318 13:47:32.247578 18120 net.cpp:157] Top shape: 16 256 56 56 (12845056)
I0318 13:47:32.247611 18120 net.cpp:157] Top shape: 16 256 56 56 (12845056)
I0318 13:47:32.247645 18120 net.cpp:165] Memory required for data: 1351944128
I0318 13:47:32.247665 18120 layer_factory.hpp:77] Creating layer res2c_branch2a
I0318 13:47:32.247697 18120 net.cpp:106] Creating Layer res2c_branch2a
I0318 13:47:32.247719 18120 net.cpp:454] res2c_branch2a <- res2b_res2b_relu_0_split_0
I0318 13:47:32.247742 18120 net.cpp:411] res2c_branch2a -> res2c_branch2a
I0318 13:47:32.248162 18120 net.cpp:150] Setting up res2c_branch2a
I0318 13:47:32.248198 18120 net.cpp:157] Top shape: 16 64 56 56 (3211264)
I0318 13:47:32.248216 18120 net.cpp:165] Memory required for data: 1364789184
I0318 13:47:32.248239 18120 layer_factory.hpp:77] Creating layer bn2c_branch2a
I0318 13:47:32.248265 18120 net.cpp:106] Creating Layer bn2c_branch2a
I0318 13:47:32.248286 18120 net.cpp:454] bn2c_branch2a <- res2c_branch2a
I0318 13:47:32.248307 18120 net.cpp:397] bn2c_branch2a -> res2c_branch2a (in-place)
I0318 13:47:32.248756 18120 net.cpp:150] Setting up bn2c_branch2a
I0318 13:47:32.248792 18120 net.cpp:157] Top shape: 16 64 56 56 (3211264)
I0318 13:47:32.248811 18120 net.cpp:165] Memory required for data: 1377634240
I0318 13:47:32.248841 18120 layer_factory.hpp:77] Creating layer scale2c_branch2a
I0318 13:47:32.248867 18120 net.cpp:106] Creating Layer scale2c_branch2a
I0318 13:47:32.248885 18120 net.cpp:454] scale2c_branch2a <- res2c_branch2a
I0318 13:47:32.248908 18120 net.cpp:397] scale2c_branch2a -> res2c_branch2a (in-place)
I0318 13:47:32.249022 18120 layer_factory.hpp:77] Creating layer scale2c_branch2a
I0318 13:47:32.249325 18120 net.cpp:150] Setting up scale2c_branch2a
I0318 13:47:32.249358 18120 net.cpp:157] Top shape: 16 64 56 56 (3211264)
I0318 13:47:32.249377 18120 net.cpp:165] Memory required for data: 1390479296
I0318 13:47:32.249402 18120 layer_factory.hpp:77] Creating layer res2c_branch2a_relu
I0318 13:47:32.249426 18120 net.cpp:106] Creating Layer res2c_branch2a_relu
I0318 13:47:32.249445 18120 net.cpp:454] res2c_branch2a_relu <- res2c_branch2a
I0318 13:47:32.249466 18120 net.cpp:397] res2c_branch2a_relu -> res2c_branch2a (in-place)
I0318 13:47:32.249492 18120 net.cpp:150] Setting up res2c_branch2a_relu
I0318 13:47:32.249514 18120 net.cpp:157] Top shape: 16 64 56 56 (3211264)
I0318 13:47:32.249531 18120 net.cpp:165] Memory required for data: 1403324352
I0318 13:47:32.249549 18120 layer_factory.hpp:77] Creating layer res2c_branch2b
I0318 13:47:32.249583 18120 net.cpp:106] Creating Layer res2c_branch2b
I0318 13:47:32.249603 18120 net.cpp:454] res2c_branch2b <- res2c_branch2a
I0318 13:47:32.249636 18120 net.cpp:411] res2c_branch2b -> res2c_branch2b
I0318 13:47:32.251850 18120 net.cpp:150] Setting up res2c_branch2b
I0318 13:47:32.251888 18120 net.cpp:157] Top shape: 16 64 56 56 (3211264)
I0318 13:47:32.251907 18120 net.cpp:165] Memory required for data: 1416169408
I0318 13:47:32.251931 18120 layer_factory.hpp:77] Creating layer bn2c_branch2b
I0318 13:47:32.251955 18120 net.cpp:106] Creating Layer bn2c_branch2b
I0318 13:47:32.251976 18120 net.cpp:454] bn2c_branch2b <- res2c_branch2b
I0318 13:47:32.251997 18120 net.cpp:397] bn2c_branch2b -> res2c_branch2b (in-place)
I0318 13:47:32.252414 18120 net.cpp:150] Setting up bn2c_branch2b
I0318 13:47:32.252447 18120 net.cpp:157] Top shape: 16 64 56 56 (3211264)
I0318 13:47:32.252466 18120 net.cpp:165] Memory required for data: 1429014464
I0318 13:47:32.252496 18120 layer_factory.hpp:77] Creating layer scale2c_branch2b
I0318 13:47:32.252521 18120 net.cpp:106] Creating Layer scale2c_branch2b
I0318 13:47:32.252540 18120 net.cpp:454] scale2c_branch2b <- res2c_branch2b
I0318 13:47:32.252562 18120 net.cpp:397] scale2c_branch2b -> res2c_branch2b (in-place)
I0318 13:47:32.252688 18120 layer_factory.hpp:77] Creating layer scale2c_branch2b
I0318 13:47:32.252979 18120 net.cpp:150] Setting up scale2c_branch2b
I0318 13:47:32.253013 18120 net.cpp:157] Top shape: 16 64 56 56 (3211264)
I0318 13:47:32.253031 18120 net.cpp:165] Memory required for data: 1441859520
I0318 13:47:32.253062 18120 layer_factory.hpp:77] Creating layer res2c_branch2b_relu
I0318 13:47:32.253103 18120 net.cpp:106] Creating Layer res2c_branch2b_relu
I0318 13:47:32.253142 18120 net.cpp:454] res2c_branch2b_relu <- res2c_branch2b
I0318 13:47:32.253167 18120 net.cpp:397] res2c_branch2b_relu -> res2c_branch2b (in-place)
I0318 13:47:32.253192 18120 net.cpp:150] Setting up res2c_branch2b_relu
I0318 13:47:32.253216 18120 net.cpp:157] Top shape: 16 64 56 56 (3211264)
I0318 13:47:32.253232 18120 net.cpp:165] Memory required for data: 1454704576
I0318 13:47:32.253250 18120 layer_factory.hpp:77] Creating layer res2c_branch2c
I0318 13:47:32.253285 18120 net.cpp:106] Creating Layer res2c_branch2c
I0318 13:47:32.253306 18120 net.cpp:454] res2c_branch2c <- res2c_branch2b
I0318 13:47:32.253329 18120 net.cpp:411] res2c_branch2c -> res2c_branch2c
I0318 13:47:32.253749 18120 net.cpp:150] Setting up res2c_branch2c
I0318 13:47:32.253784 18120 net.cpp:157] Top shape: 16 256 56 56 (12845056)
I0318 13:47:32.253803 18120 net.cpp:165] Memory required for data: 1506084800
I0318 13:47:32.253826 18120 layer_factory.hpp:77] Creating layer bn2c_branch2c
I0318 13:47:32.253855 18120 net.cpp:106] Creating Layer bn2c_branch2c
I0318 13:47:32.253876 18120 net.cpp:454] bn2c_branch2c <- res2c_branch2c
I0318 13:47:32.253898 18120 net.cpp:397] bn2c_branch2c -> res2c_branch2c (in-place)
I0318 13:47:32.254292 18120 net.cpp:150] Setting up bn2c_branch2c
I0318 13:47:32.254324 18120 net.cpp:157] Top shape: 16 256 56 56 (12845056)
I0318 13:47:32.254343 18120 net.cpp:165] Memory required for data: 1557465024
I0318 13:47:32.254411 18120 layer_factory.hpp:77] Creating layer scale2c_branch2c
I0318 13:47:32.254447 18120 net.cpp:106] Creating Layer scale2c_branch2c
I0318 13:47:32.254468 18120 net.cpp:454] scale2c_branch2c <- res2c_branch2c
I0318 13:47:32.254498 18120 net.cpp:397] scale2c_branch2c -> res2c_branch2c (in-place)
I0318 13:47:32.254608 18120 layer_factory.hpp:77] Creating layer scale2c_branch2c
I0318 13:47:32.254874 18120 net.cpp:150] Setting up scale2c_branch2c
I0318 13:47:32.254909 18120 net.cpp:157] Top shape: 16 256 56 56 (12845056)
I0318 13:47:32.254926 18120 net.cpp:165] Memory required for data: 1608845248
I0318 13:47:32.254952 18120 layer_factory.hpp:77] Creating layer res2c
I0318 13:47:32.254977 18120 net.cpp:106] Creating Layer res2c
I0318 13:47:32.254997 18120 net.cpp:454] res2c <- res2b_res2b_relu_0_split_1
I0318 13:47:32.255018 18120 net.cpp:454] res2c <- res2c_branch2c
I0318 13:47:32.255041 18120 net.cpp:411] res2c -> res2c
I0318 13:47:32.255113 18120 net.cpp:150] Setting up res2c
I0318 13:47:32.255144 18120 net.cpp:157] Top shape: 16 256 56 56 (12845056)
I0318 13:47:32.255162 18120 net.cpp:165] Memory required for data: 1660225472
I0318 13:47:32.255182 18120 layer_factory.hpp:77] Creating layer res2c_relu
I0318 13:47:32.255204 18120 net.cpp:106] Creating Layer res2c_relu
I0318 13:47:32.255223 18120 net.cpp:454] res2c_relu <- res2c
I0318 13:47:32.255245 18120 net.cpp:397] res2c_relu -> res2c (in-place)
I0318 13:47:32.255270 18120 net.cpp:150] Setting up res2c_relu
I0318 13:47:32.255291 18120 net.cpp:157] Top shape: 16 256 56 56 (12845056)
I0318 13:47:32.255309 18120 net.cpp:165] Memory required for data: 1711605696
I0318 13:47:32.255327 18120 layer_factory.hpp:77] Creating layer res2c_res2c_relu_0_split
I0318 13:47:32.255348 18120 net.cpp:106] Creating Layer res2c_res2c_relu_0_split
I0318 13:47:32.255367 18120 net.cpp:454] res2c_res2c_relu_0_split <- res2c
I0318 13:47:32.255388 18120 net.cpp:411] res2c_res2c_relu_0_split -> res2c_res2c_relu_0_split_0
I0318 13:47:32.255419 18120 net.cpp:411] res2c_res2c_relu_0_split -> res2c_res2c_relu_0_split_1
I0318 13:47:32.255506 18120 net.cpp:150] Setting up res2c_res2c_relu_0_split
I0318 13:47:32.255534 18120 net.cpp:157] Top shape: 16 256 56 56 (12845056)
I0318 13:47:32.255555 18120 net.cpp:157] Top shape: 16 256 56 56 (12845056)
I0318 13:47:32.255573 18120 net.cpp:165] Memory required for data: 1814366144
I0318 13:47:32.255590 18120 layer_factory.hpp:77] Creating layer res3a_branch1
I0318 13:47:32.255625 18120 net.cpp:106] Creating Layer res3a_branch1
I0318 13:47:32.255657 18120 net.cpp:454] res3a_branch1 <- res2c_res2c_relu_0_split_0
I0318 13:47:32.255700 18120 net.cpp:411] res3a_branch1 -> res3a_branch1
I0318 13:47:32.257395 18120 net.cpp:150] Setting up res3a_branch1
I0318 13:47:32.257441 18120 net.cpp:157] Top shape: 16 512 28 28 (6422528)
I0318 13:47:32.257459 18120 net.cpp:165] Memory required for data: 1840056256
I0318 13:47:32.257484 18120 layer_factory.hpp:77] Creating layer bn3a_branch1
I0318 13:47:32.257514 18120 net.cpp:106] Creating Layer bn3a_branch1
I0318 13:47:32.257536 18120 net.cpp:454] bn3a_branch1 <- res3a_branch1
I0318 13:47:32.257560 18120 net.cpp:397] bn3a_branch1 -> res3a_branch1 (in-place)
I0318 13:47:32.257977 18120 net.cpp:150] Setting up bn3a_branch1
I0318 13:47:32.258009 18120 net.cpp:157] Top shape: 16 512 28 28 (6422528)
I0318 13:47:32.258028 18120 net.cpp:165] Memory required for data: 1865746368
I0318 13:47:32.258059 18120 layer_factory.hpp:77] Creating layer scale3a_branch1
I0318 13:47:32.258085 18120 net.cpp:106] Creating Layer scale3a_branch1
I0318 13:47:32.258105 18120 net.cpp:454] scale3a_branch1 <- res3a_branch1
I0318 13:47:32.258133 18120 net.cpp:397] scale3a_branch1 -> res3a_branch1 (in-place)
I0318 13:47:32.258239 18120 layer_factory.hpp:77] Creating layer scale3a_branch1
I0318 13:47:32.258507 18120 net.cpp:150] Setting up scale3a_branch1
I0318 13:47:32.258546 18120 net.cpp:157] Top shape: 16 512 28 28 (6422528)
I0318 13:47:32.258565 18120 net.cpp:165] Memory required for data: 1891436480
I0318 13:47:32.258592 18120 layer_factory.hpp:77] Creating layer res3a_branch2a
I0318 13:47:32.258620 18120 net.cpp:106] Creating Layer res3a_branch2a
I0318 13:47:32.258641 18120 net.cpp:454] res3a_branch2a <- res2c_res2c_relu_0_split_1
I0318 13:47:32.258671 18120 net.cpp:411] res3a_branch2a -> res3a_branch2a
I0318 13:47:32.259130 18120 net.cpp:150] Setting up res3a_branch2a
I0318 13:47:32.259166 18120 net.cpp:157] Top shape: 16 128 28 28 (1605632)
I0318 13:47:32.259184 18120 net.cpp:165] Memory required for data: 1897859008
I0318 13:47:32.259208 18120 layer_factory.hpp:77] Creating layer bn3a_branch2a
I0318 13:47:32.259244 18120 net.cpp:106] Creating Layer bn3a_branch2a
I0318 13:47:32.259266 18120 net.cpp:454] bn3a_branch2a <- res3a_branch2a
I0318 13:47:32.259290 18120 net.cpp:397] bn3a_branch2a -> res3a_branch2a (in-place)
I0318 13:47:32.259685 18120 net.cpp:150] Setting up bn3a_branch2a
I0318 13:47:32.259718 18120 net.cpp:157] Top shape: 16 128 28 28 (1605632)
I0318 13:47:32.259737 18120 net.cpp:165] Memory required for data: 1904281536
I0318 13:47:32.259766 18120 layer_factory.hpp:77] Creating layer scale3a_branch2a
I0318 13:47:32.259793 18120 net.cpp:106] Creating Layer scale3a_branch2a
I0318 13:47:32.259812 18120 net.cpp:454] scale3a_branch2a <- res3a_branch2a
I0318 13:47:32.259845 18120 net.cpp:397] scale3a_branch2a -> res3a_branch2a (in-place)
I0318 13:47:32.259943 18120 layer_factory.hpp:77] Creating layer scale3a_branch2a
I0318 13:47:32.260206 18120 net.cpp:150] Setting up scale3a_branch2a
I0318 13:47:32.260239 18120 net.cpp:157] Top shape: 16 128 28 28 (1605632)
I0318 13:47:32.260257 18120 net.cpp:165] Memory required for data: 1910704064
I0318 13:47:32.260284 18120 layer_factory.hpp:77] Creating layer res3a_branch2a_relu
I0318 13:47:32.260313 18120 net.cpp:106] Creating Layer res3a_branch2a_relu
I0318 13:47:32.260334 18120 net.cpp:454] res3a_branch2a_relu <- res3a_branch2a
I0318 13:47:32.260356 18120 net.cpp:397] res3a_branch2a_relu -> res3a_branch2a (in-place)
I0318 13:47:32.260381 18120 net.cpp:150] Setting up res3a_branch2a_relu
I0318 13:47:32.260404 18120 net.cpp:157] Top shape: 16 128 28 28 (1605632)
I0318 13:47:32.260421 18120 net.cpp:165] Memory required for data: 1917126592
I0318 13:47:32.260439 18120 layer_factory.hpp:77] Creating layer res3a_branch2b
I0318 13:47:32.260470 18120 net.cpp:106] Creating Layer res3a_branch2b
I0318 13:47:32.260490 18120 net.cpp:454] res3a_branch2b <- res3a_branch2a
I0318 13:47:32.260514 18120 net.cpp:411] res3a_branch2b -> res3a_branch2b
I0318 13:47:32.262205 18120 net.cpp:150] Setting up res3a_branch2b
I0318 13:47:32.262261 18120 net.cpp:157] Top shape: 16 128 28 28 (1605632)
I0318 13:47:32.262300 18120 net.cpp:165] Memory required for data: 1923549120
I0318 13:47:32.262326 18120 layer_factory.hpp:77] Creating layer bn3a_branch2b
I0318 13:47:32.262351 18120 net.cpp:106] Creating Layer bn3a_branch2b
I0318 13:47:32.262372 18120 net.cpp:454] bn3a_branch2b <- res3a_branch2b
I0318 13:47:32.262399 18120 net.cpp:397] bn3a_branch2b -> res3a_branch2b (in-place)
I0318 13:47:32.262804 18120 net.cpp:150] Setting up bn3a_branch2b
I0318 13:47:32.262836 18120 net.cpp:157] Top shape: 16 128 28 28 (1605632)
I0318 13:47:32.262854 18120 net.cpp:165] Memory required for data: 1929971648
I0318 13:47:32.262884 18120 layer_factory.hpp:77] Creating layer scale3a_branch2b
I0318 13:47:32.262910 18120 net.cpp:106] Creating Layer scale3a_branch2b
I0318 13:47:32.262934 18120 net.cpp:454] scale3a_branch2b <- res3a_branch2b
I0318 13:47:32.262958 18120 net.cpp:397] scale3a_branch2b -> res3a_branch2b (in-place)
I0318 13:47:32.263064 18120 layer_factory.hpp:77] Creating layer scale3a_branch2b
I0318 13:47:32.263331 18120 net.cpp:150] Setting up scale3a_branch2b
I0318 13:47:32.263365 18120 net.cpp:157] Top shape: 16 128 28 28 (1605632)
I0318 13:47:32.263382 18120 net.cpp:165] Memory required for data: 1936394176
I0318 13:47:32.263408 18120 layer_factory.hpp:77] Creating layer res3a_branch2b_relu
I0318 13:47:32.263447 18120 net.cpp:106] Creating Layer res3a_branch2b_relu
I0318 13:47:32.263469 18120 net.cpp:454] res3a_branch2b_relu <- res3a_branch2b
I0318 13:47:32.263494 18120 net.cpp:397] res3a_branch2b_relu -> res3a_branch2b (in-place)
I0318 13:47:32.263520 18120 net.cpp:150] Setting up res3a_branch2b_relu
I0318 13:47:32.263541 18120 net.cpp:157] Top shape: 16 128 28 28 (1605632)
I0318 13:47:32.263559 18120 net.cpp:165] Memory required for data: 1942816704
I0318 13:47:32.263577 18120 layer_factory.hpp:77] Creating layer res3a_branch2c
I0318 13:47:32.263609 18120 net.cpp:106] Creating Layer res3a_branch2c
I0318 13:47:32.263629 18120 net.cpp:454] res3a_branch2c <- res3a_branch2b
I0318 13:47:32.263658 18120 net.cpp:411] res3a_branch2c -> res3a_branch2c
I0318 13:47:32.264194 18120 net.cpp:150] Setting up res3a_branch2c
I0318 13:47:32.264231 18120 net.cpp:157] Top shape: 16 512 28 28 (6422528)
I0318 13:47:32.264248 18120 net.cpp:165] Memory required for data: 1968506816
I0318 13:47:32.264272 18120 layer_factory.hpp:77] Creating layer bn3a_branch2c
I0318 13:47:32.264297 18120 net.cpp:106] Creating Layer bn3a_branch2c
I0318 13:47:32.264315 18120 net.cpp:454] bn3a_branch2c <- res3a_branch2c
I0318 13:47:32.264338 18120 net.cpp:397] bn3a_branch2c -> res3a_branch2c (in-place)
I0318 13:47:32.264770 18120 net.cpp:150] Setting up bn3a_branch2c
I0318 13:47:32.264806 18120 net.cpp:157] Top shape: 16 512 28 28 (6422528)
I0318 13:47:32.264824 18120 net.cpp:165] Memory required for data: 1994196928
I0318 13:47:32.264854 18120 layer_factory.hpp:77] Creating layer scale3a_branch2c
I0318 13:47:32.264884 18120 net.cpp:106] Creating Layer scale3a_branch2c
I0318 13:47:32.264905 18120 net.cpp:454] scale3a_branch2c <- res3a_branch2c
I0318 13:47:32.264928 18120 net.cpp:397] scale3a_branch2c -> res3a_branch2c (in-place)
I0318 13:47:32.265045 18120 layer_factory.hpp:77] Creating layer scale3a_branch2c
I0318 13:47:32.265305 18120 net.cpp:150] Setting up scale3a_branch2c
I0318 13:47:32.265336 18120 net.cpp:157] Top shape: 16 512 28 28 (6422528)
I0318 13:47:32.265354 18120 net.cpp:165] Memory required for data: 2019887040
I0318 13:47:32.265379 18120 layer_factory.hpp:77] Creating layer res3a
I0318 13:47:32.265403 18120 net.cpp:106] Creating Layer res3a
I0318 13:47:32.265422 18120 net.cpp:454] res3a <- res3a_branch1
I0318 13:47:32.265451 18120 net.cpp:454] res3a <- res3a_branch2c
I0318 13:47:32.265476 18120 net.cpp:411] res3a -> res3a
I0318 13:47:32.265555 18120 net.cpp:150] Setting up res3a
I0318 13:47:32.265589 18120 net.cpp:157] Top shape: 16 512 28 28 (6422528)
I0318 13:47:32.265609 18120 net.cpp:165] Memory required for data: 2045577152
I0318 13:47:32.265626 18120 layer_factory.hpp:77] Creating layer res3a_relu
I0318 13:47:32.265661 18120 net.cpp:106] Creating Layer res3a_relu
I0318 13:47:32.265700 18120 net.cpp:454] res3a_relu <- res3a
I0318 13:47:32.265732 18120 net.cpp:397] res3a_relu -> res3a (in-place)
I0318 13:47:32.265758 18120 net.cpp:150] Setting up res3a_relu
I0318 13:47:32.265784 18120 net.cpp:157] Top shape: 16 512 28 28 (6422528)
I0318 13:47:32.265802 18120 net.cpp:165] Memory required for data: 2071267264
I0318 13:47:32.265821 18120 layer_factory.hpp:77] Creating layer res3a_res3a_relu_0_split
I0318 13:47:32.265843 18120 net.cpp:106] Creating Layer res3a_res3a_relu_0_split
I0318 13:47:32.265861 18120 net.cpp:454] res3a_res3a_relu_0_split <- res3a
I0318 13:47:32.265883 18120 net.cpp:411] res3a_res3a_relu_0_split -> res3a_res3a_relu_0_split_0
I0318 13:47:32.265908 18120 net.cpp:411] res3a_res3a_relu_0_split -> res3a_res3a_relu_0_split_1
I0318 13:47:32.266001 18120 net.cpp:150] Setting up res3a_res3a_relu_0_split
I0318 13:47:32.266031 18120 net.cpp:157] Top shape: 16 512 28 28 (6422528)
I0318 13:47:32.266053 18120 net.cpp:157] Top shape: 16 512 28 28 (6422528)
I0318 13:47:32.266070 18120 net.cpp:165] Memory required for data: 2122647488
I0318 13:47:32.266088 18120 layer_factory.hpp:77] Creating layer res3b_branch2a
I0318 13:47:32.266114 18120 net.cpp:106] Creating Layer res3b_branch2a
I0318 13:47:32.266134 18120 net.cpp:454] res3b_branch2a <- res3a_res3a_relu_0_split_0
I0318 13:47:32.266162 18120 net.cpp:411] res3b_branch2a -> res3b_branch2a
I0318 13:47:32.267709 18120 net.cpp:150] Setting up res3b_branch2a
I0318 13:47:32.267752 18120 net.cpp:157] Top shape: 16 128 28 28 (1605632)
I0318 13:47:32.267771 18120 net.cpp:165] Memory required for data: 2129070016
I0318 13:47:32.267794 18120 layer_factory.hpp:77] Creating layer bn3b_branch2a
I0318 13:47:32.267820 18120 net.cpp:106] Creating Layer bn3b_branch2a
I0318 13:47:32.267840 18120 net.cpp:454] bn3b_branch2a <- res3b_branch2a
I0318 13:47:32.267863 18120 net.cpp:397] bn3b_branch2a -> res3b_branch2a (in-place)
I0318 13:47:32.268275 18120 net.cpp:150] Setting up bn3b_branch2a
I0318 13:47:32.268307 18120 net.cpp:157] Top shape: 16 128 28 28 (1605632)
I0318 13:47:32.268326 18120 net.cpp:165] Memory required for data: 2135492544
I0318 13:47:32.268362 18120 layer_factory.hpp:77] Creating layer scale3b_branch2a
I0318 13:47:32.268389 18120 net.cpp:106] Creating Layer scale3b_branch2a
I0318 13:47:32.268409 18120 net.cpp:454] scale3b_branch2a <- res3b_branch2a
I0318 13:47:32.268432 18120 net.cpp:397] scale3b_branch2a -> res3b_branch2a (in-place)
I0318 13:47:32.268539 18120 layer_factory.hpp:77] Creating layer scale3b_branch2a
I0318 13:47:32.268829 18120 net.cpp:150] Setting up scale3b_branch2a
I0318 13:47:32.268865 18120 net.cpp:157] Top shape: 16 128 28 28 (1605632)
I0318 13:47:32.268883 18120 net.cpp:165] Memory required for data: 2141915072
I0318 13:47:32.268910 18120 layer_factory.hpp:77] Creating layer res3b_branch2a_relu
I0318 13:47:32.268945 18120 net.cpp:106] Creating Layer res3b_branch2a_relu
I0318 13:47:32.268967 18120 net.cpp:454] res3b_branch2a_relu <- res3b_branch2a
I0318 13:47:32.268990 18120 net.cpp:397] res3b_branch2a_relu -> res3b_branch2a (in-place)
I0318 13:47:32.269016 18120 net.cpp:150] Setting up res3b_branch2a_relu
I0318 13:47:32.269037 18120 net.cpp:157] Top shape: 16 128 28 28 (1605632)
I0318 13:47:32.269055 18120 net.cpp:165] Memory required for data: 2148337600
I0318 13:47:32.269073 18120 layer_factory.hpp:77] Creating layer res3b_branch2b
I0318 13:47:32.269104 18120 net.cpp:106] Creating Layer res3b_branch2b
I0318 13:47:32.269124 18120 net.cpp:454] res3b_branch2b <- res3b_branch2a
I0318 13:47:32.269147 18120 net.cpp:411] res3b_branch2b -> res3b_branch2b
I0318 13:47:32.270813 18120 net.cpp:150] Setting up res3b_branch2b
I0318 13:47:32.270855 18120 net.cpp:157] Top shape: 16 128 28 28 (1605632)
I0318 13:47:32.270874 18120 net.cpp:165] Memory required for data: 2154760128
I0318 13:47:32.270900 18120 layer_factory.hpp:77] Creating layer bn3b_branch2b
I0318 13:47:32.270925 18120 net.cpp:106] Creating Layer bn3b_branch2b
I0318 13:47:32.270957 18120 net.cpp:454] bn3b_branch2b <- res3b_branch2b
I0318 13:47:32.270999 18120 net.cpp:397] bn3b_branch2b -> res3b_branch2b (in-place)
I0318 13:47:32.271427 18120 net.cpp:150] Setting up bn3b_branch2b
I0318 13:47:32.271461 18120 net.cpp:157] Top shape: 16 128 28 28 (1605632)
I0318 13:47:32.271479 18120 net.cpp:165] Memory required for data: 2161182656
I0318 13:47:32.271510 18120 layer_factory.hpp:77] Creating layer scale3b_branch2b
I0318 13:47:32.271541 18120 net.cpp:106] Creating Layer scale3b_branch2b
I0318 13:47:32.271562 18120 net.cpp:454] scale3b_branch2b <- res3b_branch2b
I0318 13:47:32.271585 18120 net.cpp:397] scale3b_branch2b -> res3b_branch2b (in-place)
I0318 13:47:32.271692 18120 layer_factory.hpp:77] Creating layer scale3b_branch2b
I0318 13:47:32.271956 18120 net.cpp:150] Setting up scale3b_branch2b
I0318 13:47:32.271991 18120 net.cpp:157] Top shape: 16 128 28 28 (1605632)
I0318 13:47:32.272008 18120 net.cpp:165] Memory required for data: 2167605184
I0318 13:47:32.272034 18120 layer_factory.hpp:77] Creating layer res3b_branch2b_relu
I0318 13:47:32.272058 18120 net.cpp:106] Creating Layer res3b_branch2b_relu
I0318 13:47:32.272078 18120 net.cpp:454] res3b_branch2b_relu <- res3b_branch2b
I0318 13:47:32.272104 18120 net.cpp:397] res3b_branch2b_relu -> res3b_branch2b (in-place)
I0318 13:47:32.272131 18120 net.cpp:150] Setting up res3b_branch2b_relu
I0318 13:47:32.272155 18120 net.cpp:157] Top shape: 16 128 28 28 (1605632)
I0318 13:47:32.272172 18120 net.cpp:165] Memory required for data: 2174027712
I0318 13:47:32.272191 18120 layer_factory.hpp:77] Creating layer res3b_branch2c
I0318 13:47:32.272222 18120 net.cpp:106] Creating Layer res3b_branch2c
I0318 13:47:32.272241 18120 net.cpp:454] res3b_branch2c <- res3b_branch2b
I0318 13:47:32.272265 18120 net.cpp:411] res3b_branch2c -> res3b_branch2c
I0318 13:47:32.272773 18120 net.cpp:150] Setting up res3b_branch2c
I0318 13:47:32.272811 18120 net.cpp:157] Top shape: 16 512 28 28 (6422528)
I0318 13:47:32.272830 18120 net.cpp:165] Memory required for data: 2199717824
I0318 13:47:32.272858 18120 layer_factory.hpp:77] Creating layer bn3b_branch2c
I0318 13:47:32.272883 18120 net.cpp:106] Creating Layer bn3b_branch2c
I0318 13:47:32.272902 18120 net.cpp:454] bn3b_branch2c <- res3b_branch2c
I0318 13:47:32.272924 18120 net.cpp:397] bn3b_branch2c -> res3b_branch2c (in-place)
I0318 13:47:32.273358 18120 net.cpp:150] Setting up bn3b_branch2c
I0318 13:47:32.273391 18120 net.cpp:157] Top shape: 16 512 28 28 (6422528)
I0318 13:47:32.273409 18120 net.cpp:165] Memory required for data: 2225407936
I0318 13:47:32.273438 18120 layer_factory.hpp:77] Creating layer scale3b_branch2c
I0318 13:47:32.273464 18120 net.cpp:106] Creating Layer scale3b_branch2c
I0318 13:47:32.273483 18120 net.cpp:454] scale3b_branch2c <- res3b_branch2c
I0318 13:47:32.273505 18120 net.cpp:397] scale3b_branch2c -> res3b_branch2c (in-place)
I0318 13:47:32.273627 18120 layer_factory.hpp:77] Creating layer scale3b_branch2c
I0318 13:47:32.273900 18120 net.cpp:150] Setting up scale3b_branch2c
I0318 13:47:32.273931 18120 net.cpp:157] Top shape: 16 512 28 28 (6422528)
I0318 13:47:32.273950 18120 net.cpp:165] Memory required for data: 2251098048
I0318 13:47:32.273977 18120 layer_factory.hpp:77] Creating layer res3b
I0318 13:47:32.274006 18120 net.cpp:106] Creating Layer res3b
I0318 13:47:32.274027 18120 net.cpp:454] res3b <- res3a_res3a_relu_0_split_1
I0318 13:47:32.274049 18120 net.cpp:454] res3b <- res3b_branch2c
I0318 13:47:32.274077 18120 net.cpp:411] res3b -> res3b
I0318 13:47:32.274152 18120 net.cpp:150] Setting up res3b
I0318 13:47:32.274183 18120 net.cpp:157] Top shape: 16 512 28 28 (6422528)
I0318 13:47:32.274201 18120 net.cpp:165] Memory required for data: 2276788160
I0318 13:47:32.274220 18120 layer_factory.hpp:77] Creating layer res3b_relu
I0318 13:47:32.274243 18120 net.cpp:106] Creating Layer res3b_relu
I0318 13:47:32.274262 18120 net.cpp:454] res3b_relu <- res3b
I0318 13:47:32.274296 18120 net.cpp:397] res3b_relu -> res3b (in-place)
I0318 13:47:32.274324 18120 net.cpp:150] Setting up res3b_relu
I0318 13:47:32.274359 18120 net.cpp:157] Top shape: 16 512 28 28 (6422528)
I0318 13:47:32.274396 18120 net.cpp:165] Memory required for data: 2302478272
I0318 13:47:32.274416 18120 layer_factory.hpp:77] Creating layer res3b_res3b_relu_0_split
I0318 13:47:32.274440 18120 net.cpp:106] Creating Layer res3b_res3b_relu_0_split
I0318 13:47:32.274457 18120 net.cpp:454] res3b_res3b_relu_0_split <- res3b
I0318 13:47:32.274479 18120 net.cpp:411] res3b_res3b_relu_0_split -> res3b_res3b_relu_0_split_0
I0318 13:47:32.274505 18120 net.cpp:411] res3b_res3b_relu_0_split -> res3b_res3b_relu_0_split_1
I0318 13:47:32.274603 18120 net.cpp:150] Setting up res3b_res3b_relu_0_split
I0318 13:47:32.274633 18120 net.cpp:157] Top shape: 16 512 28 28 (6422528)
I0318 13:47:32.274654 18120 net.cpp:157] Top shape: 16 512 28 28 (6422528)
I0318 13:47:32.274672 18120 net.cpp:165] Memory required for data: 2353858496
I0318 13:47:32.274690 18120 layer_factory.hpp:77] Creating layer res3c_branch2a
I0318 13:47:32.274718 18120 net.cpp:106] Creating Layer res3c_branch2a
I0318 13:47:32.274739 18120 net.cpp:454] res3c_branch2a <- res3b_res3b_relu_0_split_0
I0318 13:47:32.274767 18120 net.cpp:411] res3c_branch2a -> res3c_branch2a
I0318 13:47:32.275326 18120 net.cpp:150] Setting up res3c_branch2a
I0318 13:47:32.275364 18120 net.cpp:157] Top shape: 16 128 28 28 (1605632)
I0318 13:47:32.275382 18120 net.cpp:165] Memory required for data: 2360281024
I0318 13:47:32.275406 18120 layer_factory.hpp:77] Creating layer bn3c_branch2a
I0318 13:47:32.275437 18120 net.cpp:106] Creating Layer bn3c_branch2a
I0318 13:47:32.275457 18120 net.cpp:454] bn3c_branch2a <- res3c_branch2a
I0318 13:47:32.275481 18120 net.cpp:397] bn3c_branch2a -> res3c_branch2a (in-place)
I0318 13:47:32.277828 18120 net.cpp:150] Setting up bn3c_branch2a
I0318 13:47:32.277870 18120 net.cpp:157] Top shape: 16 128 28 28 (1605632)
I0318 13:47:32.277889 18120 net.cpp:165] Memory required for data: 2366703552
I0318 13:47:32.277920 18120 layer_factory.hpp:77] Creating layer scale3c_branch2a
I0318 13:47:32.277947 18120 net.cpp:106] Creating Layer scale3c_branch2a
I0318 13:47:32.277967 18120 net.cpp:454] scale3c_branch2a <- res3c_branch2a
I0318 13:47:32.277998 18120 net.cpp:397] scale3c_branch2a -> res3c_branch2a (in-place)
I0318 13:47:32.278105 18120 layer_factory.hpp:77] Creating layer scale3c_branch2a
I0318 13:47:32.278373 18120 net.cpp:150] Setting up scale3c_branch2a
I0318 13:47:32.278405 18120 net.cpp:157] Top shape: 16 128 28 28 (1605632)
I0318 13:47:32.278424 18120 net.cpp:165] Memory required for data: 2373126080
I0318 13:47:32.278450 18120 layer_factory.hpp:77] Creating layer res3c_branch2a_relu
I0318 13:47:32.278479 18120 net.cpp:106] Creating Layer res3c_branch2a_relu
I0318 13:47:32.278501 18120 net.cpp:454] res3c_branch2a_relu <- res3c_branch2a
I0318 13:47:32.278522 18120 net.cpp:397] res3c_branch2a_relu -> res3c_branch2a (in-place)
I0318 13:47:32.278548 18120 net.cpp:150] Setting up res3c_branch2a_relu
I0318 13:47:32.278571 18120 net.cpp:157] Top shape: 16 128 28 28 (1605632)
I0318 13:47:32.278589 18120 net.cpp:165] Memory required for data: 2379548608
I0318 13:47:32.278607 18120 layer_factory.hpp:77] Creating layer res3c_branch2b
I0318 13:47:32.278638 18120 net.cpp:106] Creating Layer res3c_branch2b
I0318 13:47:32.278659 18120 net.cpp:454] res3c_branch2b <- res3c_branch2a
I0318 13:47:32.278683 18120 net.cpp:411] res3c_branch2b -> res3c_branch2b
I0318 13:47:32.280366 18120 net.cpp:150] Setting up res3c_branch2b
I0318 13:47:32.280413 18120 net.cpp:157] Top shape: 16 128 28 28 (1605632)
I0318 13:47:32.280432 18120 net.cpp:165] Memory required for data: 2385971136
I0318 13:47:32.280457 18120 layer_factory.hpp:77] Creating layer bn3c_branch2b
I0318 13:47:32.280483 18120 net.cpp:106] Creating Layer bn3c_branch2b
I0318 13:47:32.280503 18120 net.cpp:454] bn3c_branch2b <- res3c_branch2b
I0318 13:47:32.280531 18120 net.cpp:397] bn3c_branch2b -> res3c_branch2b (in-place)
I0318 13:47:32.280972 18120 net.cpp:150] Setting up bn3c_branch2b
I0318 13:47:32.281008 18120 net.cpp:157] Top shape: 16 128 28 28 (1605632)
I0318 13:47:32.281044 18120 net.cpp:165] Memory required for data: 2392393664
I0318 13:47:32.281093 18120 layer_factory.hpp:77] Creating layer scale3c_branch2b
I0318 13:47:32.281121 18120 net.cpp:106] Creating Layer scale3c_branch2b
I0318 13:47:32.281141 18120 net.cpp:454] scale3c_branch2b <- res3c_branch2b
I0318 13:47:32.281164 18120 net.cpp:397] scale3c_branch2b -> res3c_branch2b (in-place)
I0318 13:47:32.281275 18120 layer_factory.hpp:77] Creating layer scale3c_branch2b
I0318 13:47:32.281541 18120 net.cpp:150] Setting up scale3c_branch2b
I0318 13:47:32.281575 18120 net.cpp:157] Top shape: 16 128 28 28 (1605632)
I0318 13:47:32.281594 18120 net.cpp:165] Memory required for data: 2398816192
I0318 13:47:32.281620 18120 layer_factory.hpp:77] Creating layer res3c_branch2b_relu
I0318 13:47:32.281644 18120 net.cpp:106] Creating Layer res3c_branch2b_relu
I0318 13:47:32.281663 18120 net.cpp:454] res3c_branch2b_relu <- res3c_branch2b
I0318 13:47:32.281692 18120 net.cpp:397] res3c_branch2b_relu -> res3c_branch2b (in-place)
I0318 13:47:32.281718 18120 net.cpp:150] Setting up res3c_branch2b_relu
I0318 13:47:32.281741 18120 net.cpp:157] Top shape: 16 128 28 28 (1605632)
I0318 13:47:32.281759 18120 net.cpp:165] Memory required for data: 2405238720
I0318 13:47:32.281777 18120 layer_factory.hpp:77] Creating layer res3c_branch2c
I0318 13:47:32.281803 18120 net.cpp:106] Creating Layer res3c_branch2c
I0318 13:47:32.281826 18120 net.cpp:454] res3c_branch2c <- res3c_branch2b
I0318 13:47:32.281857 18120 net.cpp:411] res3c_branch2c -> res3c_branch2c
I0318 13:47:32.282353 18120 net.cpp:150] Setting up res3c_branch2c
I0318 13:47:32.282389 18120 net.cpp:157] Top shape: 16 512 28 28 (6422528)
I0318 13:47:32.282407 18120 net.cpp:165] Memory required for data: 2430928832
I0318 13:47:32.282431 18120 layer_factory.hpp:77] Creating layer bn3c_branch2c
I0318 13:47:32.282455 18120 net.cpp:106] Creating Layer bn3c_branch2c
I0318 13:47:32.282475 18120 net.cpp:454] bn3c_branch2c <- res3c_branch2c
I0318 13:47:32.282506 18120 net.cpp:397] bn3c_branch2c -> res3c_branch2c (in-place)
I0318 13:47:32.282915 18120 net.cpp:150] Setting up bn3c_branch2c
I0318 13:47:32.282949 18120 net.cpp:157] Top shape: 16 512 28 28 (6422528)
I0318 13:47:32.282968 18120 net.cpp:165] Memory required for data: 2456618944
I0318 13:47:32.282999 18120 layer_factory.hpp:77] Creating layer scale3c_branch2c
I0318 13:47:32.283025 18120 net.cpp:106] Creating Layer scale3c_branch2c
I0318 13:47:32.283046 18120 net.cpp:454] scale3c_branch2c <- res3c_branch2c
I0318 13:47:32.283068 18120 net.cpp:397] scale3c_branch2c -> res3c_branch2c (in-place)
I0318 13:47:32.283180 18120 layer_factory.hpp:77] Creating layer scale3c_branch2c
I0318 13:47:32.283452 18120 net.cpp:150] Setting up scale3c_branch2c
I0318 13:47:32.283484 18120 net.cpp:157] Top shape: 16 512 28 28 (6422528)
I0318 13:47:32.283502 18120 net.cpp:165] Memory required for data: 2482309056
I0318 13:47:32.283529 18120 layer_factory.hpp:77] Creating layer res3c
I0318 13:47:32.283560 18120 net.cpp:106] Creating Layer res3c
I0318 13:47:32.283579 18120 net.cpp:454] res3c <- res3b_res3b_relu_0_split_1
I0318 13:47:32.283601 18120 net.cpp:454] res3c <- res3c_branch2c
I0318 13:47:32.283624 18120 net.cpp:411] res3c -> res3c
I0318 13:47:32.283691 18120 net.cpp:150] Setting up res3c
I0318 13:47:32.283721 18120 net.cpp:157] Top shape: 16 512 28 28 (6422528)
I0318 13:47:32.283740 18120 net.cpp:165] Memory required for data: 2507999168
I0318 13:47:32.283758 18120 layer_factory.hpp:77] Creating layer res3c_relu
I0318 13:47:32.283787 18120 net.cpp:106] Creating Layer res3c_relu
I0318 13:47:32.283807 18120 net.cpp:454] res3c_relu <- res3c
I0318 13:47:32.283834 18120 net.cpp:397] res3c_relu -> res3c (in-place)
I0318 13:47:32.283861 18120 net.cpp:150] Setting up res3c_relu
I0318 13:47:32.283885 18120 net.cpp:157] Top shape: 16 512 28 28 (6422528)
I0318 13:47:32.283901 18120 net.cpp:165] Memory required for data: 2533689280
I0318 13:47:32.283920 18120 layer_factory.hpp:77] Creating layer res3c_res3c_relu_0_split
I0318 13:47:32.283941 18120 net.cpp:106] Creating Layer res3c_res3c_relu_0_split
I0318 13:47:32.283974 18120 net.cpp:454] res3c_res3c_relu_0_split <- res3c
I0318 13:47:32.284014 18120 net.cpp:411] res3c_res3c_relu_0_split -> res3c_res3c_relu_0_split_0
I0318 13:47:32.284044 18120 net.cpp:411] res3c_res3c_relu_0_split -> res3c_res3c_relu_0_split_1
I0318 13:47:32.284139 18120 net.cpp:150] Setting up res3c_res3c_relu_0_split
I0318 13:47:32.284169 18120 net.cpp:157] Top shape: 16 512 28 28 (6422528)
I0318 13:47:32.284191 18120 net.cpp:157] Top shape: 16 512 28 28 (6422528)
I0318 13:47:32.284209 18120 net.cpp:165] Memory required for data: 2585069504
I0318 13:47:32.284227 18120 layer_factory.hpp:77] Creating layer res3d_branch2a
I0318 13:47:32.284260 18120 net.cpp:106] Creating Layer res3d_branch2a
I0318 13:47:32.284279 18120 net.cpp:454] res3d_branch2a <- res3c_res3c_relu_0_split_0
I0318 13:47:32.284303 18120 net.cpp:411] res3d_branch2a -> res3d_branch2a
I0318 13:47:32.285902 18120 net.cpp:150] Setting up res3d_branch2a
I0318 13:47:32.285946 18120 net.cpp:157] Top shape: 16 128 28 28 (1605632)
I0318 13:47:32.285965 18120 net.cpp:165] Memory required for data: 2591492032
I0318 13:47:32.285989 18120 layer_factory.hpp:77] Creating layer bn3d_branch2a
I0318 13:47:32.286015 18120 net.cpp:106] Creating Layer bn3d_branch2a
I0318 13:47:32.286036 18120 net.cpp:454] bn3d_branch2a <- res3d_branch2a
I0318 13:47:32.286098 18120 net.cpp:397] bn3d_branch2a -> res3d_branch2a (in-place)
I0318 13:47:32.286533 18120 net.cpp:150] Setting up bn3d_branch2a
I0318 13:47:32.286567 18120 net.cpp:157] Top shape: 16 128 28 28 (1605632)
I0318 13:47:32.286586 18120 net.cpp:165] Memory required for data: 2597914560
I0318 13:47:32.286659 18120 layer_factory.hpp:77] Creating layer scale3d_branch2a
I0318 13:47:32.286690 18120 net.cpp:106] Creating Layer scale3d_branch2a
I0318 13:47:32.286710 18120 net.cpp:454] scale3d_branch2a <- res3d_branch2a
I0318 13:47:32.286733 18120 net.cpp:397] scale3d_branch2a -> res3d_branch2a (in-place)
I0318 13:47:32.286850 18120 layer_factory.hpp:77] Creating layer scale3d_branch2a
I0318 13:47:32.287127 18120 net.cpp:150] Setting up scale3d_branch2a
I0318 13:47:32.287160 18120 net.cpp:157] Top shape: 16 128 28 28 (1605632)
I0318 13:47:32.287179 18120 net.cpp:165] Memory required for data: 2604337088
I0318 13:47:32.287205 18120 layer_factory.hpp:77] Creating layer res3d_branch2a_relu
I0318 13:47:32.287235 18120 net.cpp:106] Creating Layer res3d_branch2a_relu
I0318 13:47:32.287256 18120 net.cpp:454] res3d_branch2a_relu <- res3d_branch2a
I0318 13:47:32.287283 18120 net.cpp:397] res3d_branch2a_relu -> res3d_branch2a (in-place)
I0318 13:47:32.287309 18120 net.cpp:150] Setting up res3d_branch2a_relu
I0318 13:47:32.287331 18120 net.cpp:157] Top shape: 16 128 28 28 (1605632)
I0318 13:47:32.287349 18120 net.cpp:165] Memory required for data: 2610759616
I0318 13:47:32.287367 18120 layer_factory.hpp:77] Creating layer res3d_branch2b
I0318 13:47:32.287394 18120 net.cpp:106] Creating Layer res3d_branch2b
I0318 13:47:32.287412 18120 net.cpp:454] res3d_branch2b <- res3d_branch2a
I0318 13:47:32.287436 18120 net.cpp:411] res3d_branch2b -> res3d_branch2b
I0318 13:47:32.289134 18120 net.cpp:150] Setting up res3d_branch2b
I0318 13:47:32.289177 18120 net.cpp:157] Top shape: 16 128 28 28 (1605632)
I0318 13:47:32.289196 18120 net.cpp:165] Memory required for data: 2617182144
I0318 13:47:32.289221 18120 layer_factory.hpp:77] Creating layer bn3d_branch2b
I0318 13:47:32.289245 18120 net.cpp:106] Creating Layer bn3d_branch2b
I0318 13:47:32.289266 18120 net.cpp:454] bn3d_branch2b <- res3d_branch2b
I0318 13:47:32.289288 18120 net.cpp:397] bn3d_branch2b -> res3d_branch2b (in-place)
I0318 13:47:32.289723 18120 net.cpp:150] Setting up bn3d_branch2b
I0318 13:47:32.289757 18120 net.cpp:157] Top shape: 16 128 28 28 (1605632)
I0318 13:47:32.289775 18120 net.cpp:165] Memory required for data: 2623604672
I0318 13:47:32.289805 18120 layer_factory.hpp:77] Creating layer scale3d_branch2b
I0318 13:47:32.289837 18120 net.cpp:106] Creating Layer scale3d_branch2b
I0318 13:47:32.289858 18120 net.cpp:454] scale3d_branch2b <- res3d_branch2b
I0318 13:47:32.289896 18120 net.cpp:397] scale3d_branch2b -> res3d_branch2b (in-place)
I0318 13:47:32.290027 18120 layer_factory.hpp:77] Creating layer scale3d_branch2b
I0318 13:47:32.290315 18120 net.cpp:150] Setting up scale3d_branch2b
I0318 13:47:32.290349 18120 net.cpp:157] Top shape: 16 128 28 28 (1605632)
I0318 13:47:32.290369 18120 net.cpp:165] Memory required for data: 2630027200
I0318 13:47:32.290395 18120 layer_factory.hpp:77] Creating layer res3d_branch2b_relu
I0318 13:47:32.290418 18120 net.cpp:106] Creating Layer res3d_branch2b_relu
I0318 13:47:32.290437 18120 net.cpp:454] res3d_branch2b_relu <- res3d_branch2b
I0318 13:47:32.290465 18120 net.cpp:397] res3d_branch2b_relu -> res3d_branch2b (in-place)
I0318 13:47:32.290491 18120 net.cpp:150] Setting up res3d_branch2b_relu
I0318 13:47:32.290514 18120 net.cpp:157] Top shape: 16 128 28 28 (1605632)
I0318 13:47:32.290531 18120 net.cpp:165] Memory required for data: 2636449728
I0318 13:47:32.290549 18120 layer_factory.hpp:77] Creating layer res3d_branch2c
I0318 13:47:32.290581 18120 net.cpp:106] Creating Layer res3d_branch2c
I0318 13:47:32.290602 18120 net.cpp:454] res3d_branch2c <- res3d_branch2b
I0318 13:47:32.290626 18120 net.cpp:411] res3d_branch2c -> res3d_branch2c
I0318 13:47:32.291141 18120 net.cpp:150] Setting up res3d_branch2c
I0318 13:47:32.291177 18120 net.cpp:157] Top shape: 16 512 28 28 (6422528)
I0318 13:47:32.291195 18120 net.cpp:165] Memory required for data: 2662139840
I0318 13:47:32.291218 18120 layer_factory.hpp:77] Creating layer bn3d_branch2c
I0318 13:47:32.291242 18120 net.cpp:106] Creating Layer bn3d_branch2c
I0318 13:47:32.291262 18120 net.cpp:454] bn3d_branch2c <- res3d_branch2c
I0318 13:47:32.291285 18120 net.cpp:397] bn3d_branch2c -> res3d_branch2c (in-place)
I0318 13:47:32.291725 18120 net.cpp:150] Setting up bn3d_branch2c
I0318 13:47:32.291759 18120 net.cpp:157] Top shape: 16 512 28 28 (6422528)
I0318 13:47:32.291777 18120 net.cpp:165] Memory required for data: 2687829952
I0318 13:47:32.291807 18120 layer_factory.hpp:77] Creating layer scale3d_branch2c
I0318 13:47:32.291832 18120 net.cpp:106] Creating Layer scale3d_branch2c
I0318 13:47:32.291852 18120 net.cpp:454] scale3d_branch2c <- res3d_branch2c
I0318 13:47:32.291874 18120 net.cpp:397] scale3d_branch2c -> res3d_branch2c (in-place)
I0318 13:47:32.291992 18120 layer_factory.hpp:77] Creating layer scale3d_branch2c
I0318 13:47:32.292265 18120 net.cpp:150] Setting up scale3d_branch2c
I0318 13:47:32.292299 18120 net.cpp:157] Top shape: 16 512 28 28 (6422528)
I0318 13:47:32.292316 18120 net.cpp:165] Memory required for data: 2713520064
I0318 13:47:32.292343 18120 layer_factory.hpp:77] Creating layer res3d
I0318 13:47:32.292372 18120 net.cpp:106] Creating Layer res3d
I0318 13:47:32.292393 18120 net.cpp:454] res3d <- res3c_res3c_relu_0_split_1
I0318 13:47:32.292415 18120 net.cpp:454] res3d <- res3d_branch2c
I0318 13:47:32.292438 18120 net.cpp:411] res3d -> res3d
I0318 13:47:32.292515 18120 net.cpp:150] Setting up res3d
I0318 13:47:32.292546 18120 net.cpp:157] Top shape: 16 512 28 28 (6422528)
I0318 13:47:32.292564 18120 net.cpp:165] Memory required for data: 2739210176
I0318 13:47:32.292583 18120 layer_factory.hpp:77] Creating layer res3d_relu
I0318 13:47:32.292605 18120 net.cpp:106] Creating Layer res3d_relu
I0318 13:47:32.292655 18120 net.cpp:454] res3d_relu <- res3d
I0318 13:47:32.292686 18120 net.cpp:397] res3d_relu -> res3d (in-place)
I0318 13:47:32.292714 18120 net.cpp:150] Setting up res3d_relu
I0318 13:47:32.292737 18120 net.cpp:157] Top shape: 16 512 28 28 (6422528)
I0318 13:47:32.292754 18120 net.cpp:165] Memory required for data: 2764900288
I0318 13:47:32.292773 18120 layer_factory.hpp:77] Creating layer res3d_res3d_relu_0_split
I0318 13:47:32.292793 18120 net.cpp:106] Creating Layer res3d_res3d_relu_0_split
I0318 13:47:32.292812 18120 net.cpp:454] res3d_res3d_relu_0_split <- res3d
I0318 13:47:32.292834 18120 net.cpp:411] res3d_res3d_relu_0_split -> res3d_res3d_relu_0_split_0
I0318 13:47:32.292860 18120 net.cpp:411] res3d_res3d_relu_0_split -> res3d_res3d_relu_0_split_1
I0318 13:47:32.292970 18120 net.cpp:150] Setting up res3d_res3d_relu_0_split
I0318 13:47:32.293026 18120 net.cpp:157] Top shape: 16 512 28 28 (6422528)
I0318 13:47:32.293048 18120 net.cpp:157] Top shape: 16 512 28 28 (6422528)
I0318 13:47:32.293066 18120 net.cpp:165] Memory required for data: 2816280512
I0318 13:47:32.293084 18120 layer_factory.hpp:77] Creating layer res4a_branch1
I0318 13:47:32.293112 18120 net.cpp:106] Creating Layer res4a_branch1
I0318 13:47:32.293131 18120 net.cpp:454] res4a_branch1 <- res3d_res3d_relu_0_split_0
I0318 13:47:32.293164 18120 net.cpp:411] res4a_branch1 -> res4a_branch1
I0318 13:47:32.296314 18120 net.cpp:150] Setting up res4a_branch1
I0318 13:47:32.296355 18120 net.cpp:157] Top shape: 16 1024 14 14 (3211264)
I0318 13:47:32.296375 18120 net.cpp:165] Memory required for data: 2829125568
I0318 13:47:32.296399 18120 layer_factory.hpp:77] Creating layer bn4a_branch1
I0318 13:47:32.296425 18120 net.cpp:106] Creating Layer bn4a_branch1
I0318 13:47:32.296445 18120 net.cpp:454] bn4a_branch1 <- res4a_branch1
I0318 13:47:32.296469 18120 net.cpp:397] bn4a_branch1 -> res4a_branch1 (in-place)
I0318 13:47:32.296936 18120 net.cpp:150] Setting up bn4a_branch1
I0318 13:47:32.296972 18120 net.cpp:157] Top shape: 16 1024 14 14 (3211264)
I0318 13:47:32.296991 18120 net.cpp:165] Memory required for data: 2841970624
I0318 13:47:32.297024 18120 layer_factory.hpp:77] Creating layer scale4a_branch1
I0318 13:47:32.297050 18120 net.cpp:106] Creating Layer scale4a_branch1
I0318 13:47:32.297070 18120 net.cpp:454] scale4a_branch1 <- res4a_branch1
I0318 13:47:32.297093 18120 net.cpp:397] scale4a_branch1 -> res4a_branch1 (in-place)
I0318 13:47:32.297199 18120 layer_factory.hpp:77] Creating layer scale4a_branch1
I0318 13:47:32.297480 18120 net.cpp:150] Setting up scale4a_branch1
I0318 13:47:32.297518 18120 net.cpp:157] Top shape: 16 1024 14 14 (3211264)
I0318 13:47:32.297536 18120 net.cpp:165] Memory required for data: 2854815680
I0318 13:47:32.297564 18120 layer_factory.hpp:77] Creating layer res4a_branch2a
I0318 13:47:32.297606 18120 net.cpp:106] Creating Layer res4a_branch2a
I0318 13:47:32.297629 18120 net.cpp:454] res4a_branch2a <- res3d_res3d_relu_0_split_1
I0318 13:47:32.297654 18120 net.cpp:411] res4a_branch2a -> res4a_branch2a
I0318 13:47:32.298331 18120 net.cpp:150] Setting up res4a_branch2a
I0318 13:47:32.298367 18120 net.cpp:157] Top shape: 16 256 14 14 (802816)
I0318 13:47:32.298385 18120 net.cpp:165] Memory required for data: 2858026944
I0318 13:47:32.298408 18120 layer_factory.hpp:77] Creating layer bn4a_branch2a
I0318 13:47:32.298434 18120 net.cpp:106] Creating Layer bn4a_branch2a
I0318 13:47:32.298454 18120 net.cpp:454] bn4a_branch2a <- res4a_branch2a
I0318 13:47:32.298476 18120 net.cpp:397] bn4a_branch2a -> res4a_branch2a (in-place)
I0318 13:47:32.298890 18120 net.cpp:150] Setting up bn4a_branch2a
I0318 13:47:32.298928 18120 net.cpp:157] Top shape: 16 256 14 14 (802816)
I0318 13:47:32.298946 18120 net.cpp:165] Memory required for data: 2861238208
I0318 13:47:32.298976 18120 layer_factory.hpp:77] Creating layer scale4a_branch2a
I0318 13:47:32.299007 18120 net.cpp:106] Creating Layer scale4a_branch2a
I0318 13:47:32.299028 18120 net.cpp:454] scale4a_branch2a <- res4a_branch2a
I0318 13:47:32.299052 18120 net.cpp:397] scale4a_branch2a -> res4a_branch2a (in-place)
I0318 13:47:32.299160 18120 layer_factory.hpp:77] Creating layer scale4a_branch2a
I0318 13:47:32.299425 18120 net.cpp:150] Setting up scale4a_branch2a
I0318 13:47:32.299458 18120 net.cpp:157] Top shape: 16 256 14 14 (802816)
I0318 13:47:32.299475 18120 net.cpp:165] Memory required for data: 2864449472
I0318 13:47:32.299501 18120 layer_factory.hpp:77] Creating layer res4a_branch2a_relu
I0318 13:47:32.299525 18120 net.cpp:106] Creating Layer res4a_branch2a_relu
I0318 13:47:32.299546 18120 net.cpp:454] res4a_branch2a_relu <- res4a_branch2a
I0318 13:47:32.299572 18120 net.cpp:397] res4a_branch2a_relu -> res4a_branch2a (in-place)
I0318 13:47:32.299599 18120 net.cpp:150] Setting up res4a_branch2a_relu
I0318 13:47:32.299623 18120 net.cpp:157] Top shape: 16 256 14 14 (802816)
I0318 13:47:32.299652 18120 net.cpp:165] Memory required for data: 2867660736
I0318 13:47:32.299691 18120 layer_factory.hpp:77] Creating layer res4a_branch2b
I0318 13:47:32.299731 18120 net.cpp:106] Creating Layer res4a_branch2b
I0318 13:47:32.299751 18120 net.cpp:454] res4a_branch2b <- res4a_branch2a
I0318 13:47:32.299777 18120 net.cpp:411] res4a_branch2b -> res4a_branch2b
I0318 13:47:32.303068 18120 net.cpp:150] Setting up res4a_branch2b
I0318 13:47:32.303113 18120 net.cpp:157] Top shape: 16 256 14 14 (802816)
I0318 13:47:32.303133 18120 net.cpp:165] Memory required for data: 2870872000
I0318 13:47:32.303156 18120 layer_factory.hpp:77] Creating layer bn4a_branch2b
I0318 13:47:32.303187 18120 net.cpp:106] Creating Layer bn4a_branch2b
I0318 13:47:32.303210 18120 net.cpp:454] bn4a_branch2b <- res4a_branch2b
I0318 13:47:32.303233 18120 net.cpp:397] bn4a_branch2b -> res4a_branch2b (in-place)
I0318 13:47:32.303648 18120 net.cpp:150] Setting up bn4a_branch2b
I0318 13:47:32.303681 18120 net.cpp:157] Top shape: 16 256 14 14 (802816)
I0318 13:47:32.303700 18120 net.cpp:165] Memory required for data: 2874083264
I0318 13:47:32.303730 18120 layer_factory.hpp:77] Creating layer scale4a_branch2b
I0318 13:47:32.303756 18120 net.cpp:106] Creating Layer scale4a_branch2b
I0318 13:47:32.303776 18120 net.cpp:454] scale4a_branch2b <- res4a_branch2b
I0318 13:47:32.303803 18120 net.cpp:397] scale4a_branch2b -> res4a_branch2b (in-place)
I0318 13:47:32.303906 18120 layer_factory.hpp:77] Creating layer scale4a_branch2b
I0318 13:47:32.304184 18120 net.cpp:150] Setting up scale4a_branch2b
I0318 13:47:32.304224 18120 net.cpp:157] Top shape: 16 256 14 14 (802816)
I0318 13:47:32.304242 18120 net.cpp:165] Memory required for data: 2877294528
I0318 13:47:32.304270 18120 layer_factory.hpp:77] Creating layer res4a_branch2b_relu
I0318 13:47:32.304293 18120 net.cpp:106] Creating Layer res4a_branch2b_relu
I0318 13:47:32.304313 18120 net.cpp:454] res4a_branch2b_relu <- res4a_branch2b
I0318 13:47:32.304335 18120 net.cpp:397] res4a_branch2b_relu -> res4a_branch2b (in-place)
I0318 13:47:32.304361 18120 net.cpp:150] Setting up res4a_branch2b_relu
I0318 13:47:32.304384 18120 net.cpp:157] Top shape: 16 256 14 14 (802816)
I0318 13:47:32.304401 18120 net.cpp:165] Memory required for data: 2880505792
I0318 13:47:32.304419 18120 layer_factory.hpp:77] Creating layer res4a_branch2c
I0318 13:47:32.304451 18120 net.cpp:106] Creating Layer res4a_branch2c
I0318 13:47:32.304471 18120 net.cpp:454] res4a_branch2c <- res4a_branch2b
I0318 13:47:32.304496 18120 net.cpp:411] res4a_branch2c -> res4a_branch2c
I0318 13:47:32.306349 18120 net.cpp:150] Setting up res4a_branch2c
I0318 13:47:32.306394 18120 net.cpp:157] Top shape: 16 1024 14 14 (3211264)
I0318 13:47:32.306413 18120 net.cpp:165] Memory required for data: 2893350848
I0318 13:47:32.306437 18120 layer_factory.hpp:77] Creating layer bn4a_branch2c
I0318 13:47:32.306463 18120 net.cpp:106] Creating Layer bn4a_branch2c
I0318 13:47:32.306483 18120 net.cpp:454] bn4a_branch2c <- res4a_branch2c
I0318 13:47:32.306511 18120 net.cpp:397] bn4a_branch2c -> res4a_branch2c (in-place)
I0318 13:47:32.306954 18120 net.cpp:150] Setting up bn4a_branch2c
I0318 13:47:32.306988 18120 net.cpp:157] Top shape: 16 1024 14 14 (3211264)
I0318 13:47:32.307006 18120 net.cpp:165] Memory required for data: 2906195904
I0318 13:47:32.307037 18120 layer_factory.hpp:77] Creating layer scale4a_branch2c
I0318 13:47:32.307063 18120 net.cpp:106] Creating Layer scale4a_branch2c
I0318 13:47:32.307083 18120 net.cpp:454] scale4a_branch2c <- res4a_branch2c
I0318 13:47:32.307106 18120 net.cpp:397] scale4a_branch2c -> res4a_branch2c (in-place)
I0318 13:47:32.307214 18120 layer_factory.hpp:77] Creating layer scale4a_branch2c
I0318 13:47:32.307492 18120 net.cpp:150] Setting up scale4a_branch2c
I0318 13:47:32.307524 18120 net.cpp:157] Top shape: 16 1024 14 14 (3211264)
I0318 13:47:32.307543 18120 net.cpp:165] Memory required for data: 2919040960
I0318 13:47:32.307569 18120 layer_factory.hpp:77] Creating layer res4a
I0318 13:47:32.307601 18120 net.cpp:106] Creating Layer res4a
I0318 13:47:32.307636 18120 net.cpp:454] res4a <- res4a_branch1
I0318 13:47:32.307677 18120 net.cpp:454] res4a <- res4a_branch2c
I0318 13:47:32.307706 18120 net.cpp:411] res4a -> res4a
I0318 13:47:32.307780 18120 net.cpp:150] Setting up res4a
I0318 13:47:32.307811 18120 net.cpp:157] Top shape: 16 1024 14 14 (3211264)
I0318 13:47:32.307828 18120 net.cpp:165] Memory required for data: 2931886016
I0318 13:47:32.307847 18120 layer_factory.hpp:77] Creating layer res4a_relu
I0318 13:47:32.307903 18120 net.cpp:106] Creating Layer res4a_relu
I0318 13:47:32.307924 18120 net.cpp:454] res4a_relu <- res4a
I0318 13:47:32.307953 18120 net.cpp:397] res4a_relu -> res4a (in-place)
I0318 13:47:32.307981 18120 net.cpp:150] Setting up res4a_relu
I0318 13:47:32.308003 18120 net.cpp:157] Top shape: 16 1024 14 14 (3211264)
I0318 13:47:32.308020 18120 net.cpp:165] Memory required for data: 2944731072
I0318 13:47:32.308039 18120 layer_factory.hpp:77] Creating layer res4a_res4a_relu_0_split
I0318 13:47:32.308063 18120 net.cpp:106] Creating Layer res4a_res4a_relu_0_split
I0318 13:47:32.308080 18120 net.cpp:454] res4a_res4a_relu_0_split <- res4a
I0318 13:47:32.308102 18120 net.cpp:411] res4a_res4a_relu_0_split -> res4a_res4a_relu_0_split_0
I0318 13:47:32.308127 18120 net.cpp:411] res4a_res4a_relu_0_split -> res4a_res4a_relu_0_split_1
I0318 13:47:32.308226 18120 net.cpp:150] Setting up res4a_res4a_relu_0_split
I0318 13:47:32.308256 18120 net.cpp:157] Top shape: 16 1024 14 14 (3211264)
I0318 13:47:32.308279 18120 net.cpp:157] Top shape: 16 1024 14 14 (3211264)
I0318 13:47:32.308295 18120 net.cpp:165] Memory required for data: 2970421184
I0318 13:47:32.308313 18120 layer_factory.hpp:77] Creating layer res4b_branch2a
I0318 13:47:32.308339 18120 net.cpp:106] Creating Layer res4b_branch2a
I0318 13:47:32.308360 18120 net.cpp:454] res4b_branch2a <- res4a_res4a_relu_0_split_0
I0318 13:47:32.308384 18120 net.cpp:411] res4b_branch2a -> res4b_branch2a
I0318 13:47:32.310235 18120 net.cpp:150] Setting up res4b_branch2a
I0318 13:47:32.310278 18120 net.cpp:157] Top shape: 16 256 14 14 (802816)
I0318 13:47:32.310297 18120 net.cpp:165] Memory required for data: 2973632448
I0318 13:47:32.310320 18120 layer_factory.hpp:77] Creating layer bn4b_branch2a
I0318 13:47:32.310351 18120 net.cpp:106] Creating Layer bn4b_branch2a
I0318 13:47:32.310374 18120 net.cpp:454] bn4b_branch2a <- res4b_branch2a
I0318 13:47:32.310396 18120 net.cpp:397] bn4b_branch2a -> res4b_branch2a (in-place)
I0318 13:47:32.310825 18120 net.cpp:150] Setting up bn4b_branch2a
I0318 13:47:32.310859 18120 net.cpp:157] Top shape: 16 256 14 14 (802816)
I0318 13:47:32.310878 18120 net.cpp:165] Memory required for data: 2976843712
I0318 13:47:32.310907 18120 layer_factory.hpp:77] Creating layer scale4b_branch2a
I0318 13:47:32.310933 18120 net.cpp:106] Creating Layer scale4b_branch2a
I0318 13:47:32.310953 18120 net.cpp:454] scale4b_branch2a <- res4b_branch2a
I0318 13:47:32.310982 18120 net.cpp:397] scale4b_branch2a -> res4b_branch2a (in-place)
I0318 13:47:32.311097 18120 layer_factory.hpp:77] Creating layer scale4b_branch2a
I0318 13:47:32.311377 18120 net.cpp:150] Setting up scale4b_branch2a
I0318 13:47:32.311409 18120 net.cpp:157] Top shape: 16 256 14 14 (802816)
I0318 13:47:32.311427 18120 net.cpp:165] Memory required for data: 2980054976
I0318 13:47:32.311453 18120 layer_factory.hpp:77] Creating layer res4b_branch2a_relu
I0318 13:47:32.311477 18120 net.cpp:106] Creating Layer res4b_branch2a_relu
I0318 13:47:32.311497 18120 net.cpp:454] res4b_branch2a_relu <- res4b_branch2a
I0318 13:47:32.311519 18120 net.cpp:397] res4b_branch2a_relu -> res4b_branch2a (in-place)
I0318 13:47:32.311544 18120 net.cpp:150] Setting up res4b_branch2a_relu
I0318 13:47:32.311566 18120 net.cpp:157] Top shape: 16 256 14 14 (802816)
I0318 13:47:32.311584 18120 net.cpp:165] Memory required for data: 2983266240
I0318 13:47:32.311601 18120 layer_factory.hpp:77] Creating layer res4b_branch2b
I0318 13:47:32.311633 18120 net.cpp:106] Creating Layer res4b_branch2b
I0318 13:47:32.311653 18120 net.cpp:454] res4b_branch2b <- res4b_branch2a
I0318 13:47:32.311694 18120 net.cpp:411] res4b_branch2b -> res4b_branch2b
I0318 13:47:32.314967 18120 net.cpp:150] Setting up res4b_branch2b
I0318 13:47:32.315013 18120 net.cpp:157] Top shape: 16 256 14 14 (802816)
I0318 13:47:32.315032 18120 net.cpp:165] Memory required for data: 2986477504
I0318 13:47:32.315057 18120 layer_factory.hpp:77] Creating layer bn4b_branch2b
I0318 13:47:32.315081 18120 net.cpp:106] Creating Layer bn4b_branch2b
I0318 13:47:32.315101 18120 net.cpp:454] bn4b_branch2b <- res4b_branch2b
I0318 13:47:32.315130 18120 net.cpp:397] bn4b_branch2b -> res4b_branch2b (in-place)
I0318 13:47:32.315558 18120 net.cpp:150] Setting up bn4b_branch2b
I0318 13:47:32.315592 18120 net.cpp:157] Top shape: 16 256 14 14 (802816)
I0318 13:47:32.315609 18120 net.cpp:165] Memory required for data: 2989688768
I0318 13:47:32.315639 18120 layer_factory.hpp:77] Creating layer scale4b_branch2b
I0318 13:47:32.315665 18120 net.cpp:106] Creating Layer scale4b_branch2b
I0318 13:47:32.315685 18120 net.cpp:454] scale4b_branch2b <- res4b_branch2b
I0318 13:47:32.315706 18120 net.cpp:397] scale4b_branch2b -> res4b_branch2b (in-place)
I0318 13:47:32.315819 18120 layer_factory.hpp:77] Creating layer scale4b_branch2b
I0318 13:47:32.316088 18120 net.cpp:150] Setting up scale4b_branch2b
I0318 13:47:32.316121 18120 net.cpp:157] Top shape: 16 256 14 14 (802816)
I0318 13:47:32.316139 18120 net.cpp:165] Memory required for data: 2992900032
I0318 13:47:32.316165 18120 layer_factory.hpp:77] Creating layer res4b_branch2b_relu
I0318 13:47:32.316190 18120 net.cpp:106] Creating Layer res4b_branch2b_relu
I0318 13:47:32.316210 18120 net.cpp:454] res4b_branch2b_relu <- res4b_branch2b
I0318 13:47:32.316237 18120 net.cpp:397] res4b_branch2b_relu -> res4b_branch2b (in-place)
I0318 13:47:32.316263 18120 net.cpp:150] Setting up res4b_branch2b_relu
I0318 13:47:32.316287 18120 net.cpp:157] Top shape: 16 256 14 14 (802816)
I0318 13:47:32.316304 18120 net.cpp:165] Memory required for data: 2996111296
I0318 13:47:32.316323 18120 layer_factory.hpp:77] Creating layer res4b_branch2c
I0318 13:47:32.316349 18120 net.cpp:106] Creating Layer res4b_branch2c
I0318 13:47:32.316367 18120 net.cpp:454] res4b_branch2c <- res4b_branch2b
I0318 13:47:32.316395 18120 net.cpp:411] res4b_branch2c -> res4b_branch2c
I0318 13:47:32.318251 18120 net.cpp:150] Setting up res4b_branch2c
I0318 13:47:32.318295 18120 net.cpp:157] Top shape: 16 1024 14 14 (3211264)
I0318 13:47:32.318315 18120 net.cpp:165] Memory required for data: 3008956352
I0318 13:47:32.318338 18120 layer_factory.hpp:77] Creating layer bn4b_branch2c
I0318 13:47:32.318364 18120 net.cpp:106] Creating Layer bn4b_branch2c
I0318 13:47:32.318384 18120 net.cpp:454] bn4b_branch2c <- res4b_branch2c
I0318 13:47:32.318406 18120 net.cpp:397] bn4b_branch2c -> res4b_branch2c (in-place)
I0318 13:47:32.318850 18120 net.cpp:150] Setting up bn4b_branch2c
I0318 13:47:32.318883 18120 net.cpp:157] Top shape: 16 1024 14 14 (3211264)
I0318 13:47:32.318902 18120 net.cpp:165] Memory required for data: 3021801408
I0318 13:47:32.318933 18120 layer_factory.hpp:77] Creating layer scale4b_branch2c
I0318 13:47:32.318964 18120 net.cpp:106] Creating Layer scale4b_branch2c
I0318 13:47:32.318984 18120 net.cpp:454] scale4b_branch2c <- res4b_branch2c
I0318 13:47:32.319007 18120 net.cpp:397] scale4b_branch2c -> res4b_branch2c (in-place)
I0318 13:47:32.319119 18120 layer_factory.hpp:77] Creating layer scale4b_branch2c
I0318 13:47:32.319411 18120 net.cpp:150] Setting up scale4b_branch2c
I0318 13:47:32.319445 18120 net.cpp:157] Top shape: 16 1024 14 14 (3211264)
I0318 13:47:32.319463 18120 net.cpp:165] Memory required for data: 3034646464
I0318 13:47:32.319489 18120 layer_factory.hpp:77] Creating layer res4b
I0318 13:47:32.319514 18120 net.cpp:106] Creating Layer res4b
I0318 13:47:32.319533 18120 net.cpp:454] res4b <- res4a_res4a_relu_0_split_1
I0318 13:47:32.319561 18120 net.cpp:454] res4b <- res4b_branch2c
I0318 13:47:32.319584 18120 net.cpp:411] res4b -> res4b
I0318 13:47:32.319663 18120 net.cpp:150] Setting up res4b
I0318 13:47:32.319692 18120 net.cpp:157] Top shape: 16 1024 14 14 (3211264)
I0318 13:47:32.319739 18120 net.cpp:165] Memory required for data: 3047491520
I0318 13:47:32.319761 18120 layer_factory.hpp:77] Creating layer res4b_relu
I0318 13:47:32.319783 18120 net.cpp:106] Creating Layer res4b_relu
I0318 13:47:32.319802 18120 net.cpp:454] res4b_relu <- res4b
I0318 13:47:32.319825 18120 net.cpp:397] res4b_relu -> res4b (in-place)
I0318 13:47:32.319850 18120 net.cpp:150] Setting up res4b_relu
I0318 13:47:32.319874 18120 net.cpp:157] Top shape: 16 1024 14 14 (3211264)
I0318 13:47:32.319890 18120 net.cpp:165] Memory required for data: 3060336576
I0318 13:47:32.319908 18120 layer_factory.hpp:77] Creating layer res4b_res4b_relu_0_split
I0318 13:47:32.319936 18120 net.cpp:106] Creating Layer res4b_res4b_relu_0_split
I0318 13:47:32.319954 18120 net.cpp:454] res4b_res4b_relu_0_split <- res4b
I0318 13:47:32.319977 18120 net.cpp:411] res4b_res4b_relu_0_split -> res4b_res4b_relu_0_split_0
I0318 13:47:32.320019 18120 net.cpp:411] res4b_res4b_relu_0_split -> res4b_res4b_relu_0_split_1
I0318 13:47:32.320122 18120 net.cpp:150] Setting up res4b_res4b_relu_0_split
I0318 13:47:32.320153 18120 net.cpp:157] Top shape: 16 1024 14 14 (3211264)
I0318 13:47:32.320175 18120 net.cpp:157] Top shape: 16 1024 14 14 (3211264)
I0318 13:47:32.320192 18120 net.cpp:165] Memory required for data: 3086026688
I0318 13:47:32.320210 18120 layer_factory.hpp:77] Creating layer res4c_branch2a
I0318 13:47:32.320243 18120 net.cpp:106] Creating Layer res4c_branch2a
I0318 13:47:32.320264 18120 net.cpp:454] res4c_branch2a <- res4b_res4b_relu_0_split_0
I0318 13:47:32.320289 18120 net.cpp:411] res4c_branch2a -> res4c_branch2a
I0318 13:47:32.322125 18120 net.cpp:150] Setting up res4c_branch2a
I0318 13:47:32.322170 18120 net.cpp:157] Top shape: 16 256 14 14 (802816)
I0318 13:47:32.322188 18120 net.cpp:165] Memory required for data: 3089237952
I0318 13:47:32.322213 18120 layer_factory.hpp:77] Creating layer bn4c_branch2a
I0318 13:47:32.322238 18120 net.cpp:106] Creating Layer bn4c_branch2a
I0318 13:47:32.322258 18120 net.cpp:454] bn4c_branch2a <- res4c_branch2a
I0318 13:47:32.322281 18120 net.cpp:397] bn4c_branch2a -> res4c_branch2a (in-place)
I0318 13:47:32.322711 18120 net.cpp:150] Setting up bn4c_branch2a
I0318 13:47:32.322744 18120 net.cpp:157] Top shape: 16 256 14 14 (802816)
I0318 13:47:32.322763 18120 net.cpp:165] Memory required for data: 3092449216
I0318 13:47:32.322793 18120 layer_factory.hpp:77] Creating layer scale4c_branch2a
I0318 13:47:32.322819 18120 net.cpp:106] Creating Layer scale4c_branch2a
I0318 13:47:32.322839 18120 net.cpp:454] scale4c_branch2a <- res4c_branch2a
I0318 13:47:32.322862 18120 net.cpp:397] scale4c_branch2a -> res4c_branch2a (in-place)
I0318 13:47:32.322978 18120 layer_factory.hpp:77] Creating layer scale4c_branch2a
I0318 13:47:32.323252 18120 net.cpp:150] Setting up scale4c_branch2a
I0318 13:47:32.323285 18120 net.cpp:157] Top shape: 16 256 14 14 (802816)
I0318 13:47:32.323303 18120 net.cpp:165] Memory required for data: 3095660480
I0318 13:47:32.323330 18120 layer_factory.hpp:77] Creating layer res4c_branch2a_relu
I0318 13:47:32.323359 18120 net.cpp:106] Creating Layer res4c_branch2a_relu
I0318 13:47:32.323380 18120 net.cpp:454] res4c_branch2a_relu <- res4c_branch2a
I0318 13:47:32.323403 18120 net.cpp:397] res4c_branch2a_relu -> res4c_branch2a (in-place)
I0318 13:47:32.323428 18120 net.cpp:150] Setting up res4c_branch2a_relu
I0318 13:47:32.323451 18120 net.cpp:157] Top shape: 16 256 14 14 (802816)
I0318 13:47:32.323468 18120 net.cpp:165] Memory required for data: 3098871744
I0318 13:47:32.323487 18120 layer_factory.hpp:77] Creating layer res4c_branch2b
I0318 13:47:32.323518 18120 net.cpp:106] Creating Layer res4c_branch2b
I0318 13:47:32.323539 18120 net.cpp:454] res4c_branch2b <- res4c_branch2a
I0318 13:47:32.323562 18120 net.cpp:411] res4c_branch2b -> res4c_branch2b
I0318 13:47:32.326851 18120 net.cpp:150] Setting up res4c_branch2b
I0318 13:47:32.326895 18120 net.cpp:157] Top shape: 16 256 14 14 (802816)
I0318 13:47:32.326915 18120 net.cpp:165] Memory required for data: 3102083008
I0318 13:47:32.326951 18120 layer_factory.hpp:77] Creating layer bn4c_branch2b
I0318 13:47:32.327002 18120 net.cpp:106] Creating Layer bn4c_branch2b
I0318 13:47:32.327024 18120 net.cpp:454] bn4c_branch2b <- res4c_branch2b
I0318 13:47:32.327047 18120 net.cpp:397] bn4c_branch2b -> res4c_branch2b (in-place)
I0318 13:47:32.327486 18120 net.cpp:150] Setting up bn4c_branch2b
I0318 13:47:32.327519 18120 net.cpp:157] Top shape: 16 256 14 14 (802816)
I0318 13:47:32.327538 18120 net.cpp:165] Memory required for data: 3105294272
I0318 13:47:32.327569 18120 layer_factory.hpp:77] Creating layer scale4c_branch2b
I0318 13:47:32.327601 18120 net.cpp:106] Creating Layer scale4c_branch2b
I0318 13:47:32.327621 18120 net.cpp:454] scale4c_branch2b <- res4c_branch2b
I0318 13:47:32.327646 18120 net.cpp:397] scale4c_branch2b -> res4c_branch2b (in-place)
I0318 13:47:32.327762 18120 layer_factory.hpp:77] Creating layer scale4c_branch2b
I0318 13:47:32.328034 18120 net.cpp:150] Setting up scale4c_branch2b
I0318 13:47:32.328068 18120 net.cpp:157] Top shape: 16 256 14 14 (802816)
I0318 13:47:32.328085 18120 net.cpp:165] Memory required for data: 3108505536
I0318 13:47:32.328112 18120 layer_factory.hpp:77] Creating layer res4c_branch2b_relu
I0318 13:47:32.328136 18120 net.cpp:106] Creating Layer res4c_branch2b_relu
I0318 13:47:32.328155 18120 net.cpp:454] res4c_branch2b_relu <- res4c_branch2b
I0318 13:47:32.328178 18120 net.cpp:397] res4c_branch2b_relu -> res4c_branch2b (in-place)
I0318 13:47:32.328203 18120 net.cpp:150] Setting up res4c_branch2b_relu
I0318 13:47:32.328225 18120 net.cpp:157] Top shape: 16 256 14 14 (802816)
I0318 13:47:32.328243 18120 net.cpp:165] Memory required for data: 3111716800
I0318 13:47:32.328261 18120 layer_factory.hpp:77] Creating layer res4c_branch2c
I0318 13:47:32.328294 18120 net.cpp:106] Creating Layer res4c_branch2c
I0318 13:47:32.328313 18120 net.cpp:454] res4c_branch2c <- res4c_branch2b
I0318 13:47:32.328342 18120 net.cpp:411] res4c_branch2c -> res4c_branch2c
I0318 13:47:32.330176 18120 net.cpp:150] Setting up res4c_branch2c
I0318 13:47:32.330220 18120 net.cpp:157] Top shape: 16 1024 14 14 (3211264)
I0318 13:47:32.330240 18120 net.cpp:165] Memory required for data: 3124561856
I0318 13:47:32.330263 18120 layer_factory.hpp:77] Creating layer bn4c_branch2c
I0318 13:47:32.330289 18120 net.cpp:106] Creating Layer bn4c_branch2c
I0318 13:47:32.330310 18120 net.cpp:454] bn4c_branch2c <- res4c_branch2c
I0318 13:47:32.330338 18120 net.cpp:397] bn4c_branch2c -> res4c_branch2c (in-place)
I0318 13:47:32.330783 18120 net.cpp:150] Setting up bn4c_branch2c
I0318 13:47:32.330816 18120 net.cpp:157] Top shape: 16 1024 14 14 (3211264)
I0318 13:47:32.330835 18120 net.cpp:165] Memory required for data: 3137406912
I0318 13:47:32.330865 18120 layer_factory.hpp:77] Creating layer scale4c_branch2c
I0318 13:47:32.330890 18120 net.cpp:106] Creating Layer scale4c_branch2c
I0318 13:47:32.330910 18120 net.cpp:454] scale4c_branch2c <- res4c_branch2c
I0318 13:47:32.330934 18120 net.cpp:397] scale4c_branch2c -> res4c_branch2c (in-place)
I0318 13:47:32.331045 18120 layer_factory.hpp:77] Creating layer scale4c_branch2c
I0318 13:47:32.331336 18120 net.cpp:150] Setting up scale4c_branch2c
I0318 13:47:32.331369 18120 net.cpp:157] Top shape: 16 1024 14 14 (3211264)
I0318 13:47:32.331388 18120 net.cpp:165] Memory required for data: 3150251968
I0318 13:47:32.331414 18120 layer_factory.hpp:77] Creating layer res4c
I0318 13:47:32.331439 18120 net.cpp:106] Creating Layer res4c
I0318 13:47:32.331465 18120 net.cpp:454] res4c <- res4b_res4b_relu_0_split_1
I0318 13:47:32.331486 18120 net.cpp:454] res4c <- res4c_branch2c
I0318 13:47:32.331509 18120 net.cpp:411] res4c -> res4c
I0318 13:47:32.331579 18120 net.cpp:150] Setting up res4c
I0318 13:47:32.331609 18120 net.cpp:157] Top shape: 16 1024 14 14 (3211264)
I0318 13:47:32.331627 18120 net.cpp:165] Memory required for data: 3163097024
I0318 13:47:32.331646 18120 layer_factory.hpp:77] Creating layer res4c_relu
I0318 13:47:32.331676 18120 net.cpp:106] Creating Layer res4c_relu
I0318 13:47:32.331696 18120 net.cpp:454] res4c_relu <- res4c
I0318 13:47:32.331732 18120 net.cpp:397] res4c_relu -> res4c (in-place)
I0318 13:47:32.331781 18120 net.cpp:150] Setting up res4c_relu
I0318 13:47:32.331806 18120 net.cpp:157] Top shape: 16 1024 14 14 (3211264)
I0318 13:47:32.331825 18120 net.cpp:165] Memory required for data: 3175942080
I0318 13:47:32.331842 18120 layer_factory.hpp:77] Creating layer res4c_res4c_relu_0_split
I0318 13:47:32.331866 18120 net.cpp:106] Creating Layer res4c_res4c_relu_0_split
I0318 13:47:32.331883 18120 net.cpp:454] res4c_res4c_relu_0_split <- res4c
I0318 13:47:32.331907 18120 net.cpp:411] res4c_res4c_relu_0_split -> res4c_res4c_relu_0_split_0
I0318 13:47:32.331931 18120 net.cpp:411] res4c_res4c_relu_0_split -> res4c_res4c_relu_0_split_1
I0318 13:47:32.332038 18120 net.cpp:150] Setting up res4c_res4c_relu_0_split
I0318 13:47:32.332069 18120 net.cpp:157] Top shape: 16 1024 14 14 (3211264)
I0318 13:47:32.332090 18120 net.cpp:157] Top shape: 16 1024 14 14 (3211264)
I0318 13:47:32.332108 18120 net.cpp:165] Memory required for data: 3201632192
I0318 13:47:32.332126 18120 layer_factory.hpp:77] Creating layer res4d_branch2a
I0318 13:47:32.332159 18120 net.cpp:106] Creating Layer res4d_branch2a
I0318 13:47:32.332180 18120 net.cpp:454] res4d_branch2a <- res4c_res4c_relu_0_split_0
I0318 13:47:32.332204 18120 net.cpp:411] res4d_branch2a -> res4d_branch2a
I0318 13:47:32.334116 18120 net.cpp:150] Setting up res4d_branch2a
I0318 13:47:32.334161 18120 net.cpp:157] Top shape: 16 256 14 14 (802816)
I0318 13:47:32.334180 18120 net.cpp:165] Memory required for data: 3204843456
I0318 13:47:32.334204 18120 layer_factory.hpp:77] Creating layer bn4d_branch2a
I0318 13:47:32.334229 18120 net.cpp:106] Creating Layer bn4d_branch2a
I0318 13:47:32.334249 18120 net.cpp:454] bn4d_branch2a <- res4d_branch2a
I0318 13:47:32.334272 18120 net.cpp:397] bn4d_branch2a -> res4d_branch2a (in-place)
I0318 13:47:32.334712 18120 net.cpp:150] Setting up bn4d_branch2a
I0318 13:47:32.334744 18120 net.cpp:157] Top shape: 16 256 14 14 (802816)
I0318 13:47:32.334763 18120 net.cpp:165] Memory required for data: 3208054720
I0318 13:47:32.334794 18120 layer_factory.hpp:77] Creating layer scale4d_branch2a
I0318 13:47:32.334820 18120 net.cpp:106] Creating Layer scale4d_branch2a
I0318 13:47:32.334839 18120 net.cpp:454] scale4d_branch2a <- res4d_branch2a
I0318 13:47:32.334862 18120 net.cpp:397] scale4d_branch2a -> res4d_branch2a (in-place)
I0318 13:47:32.334981 18120 layer_factory.hpp:77] Creating layer scale4d_branch2a
I0318 13:47:32.335253 18120 net.cpp:150] Setting up scale4d_branch2a
I0318 13:47:32.335286 18120 net.cpp:157] Top shape: 16 256 14 14 (802816)
I0318 13:47:32.335304 18120 net.cpp:165] Memory required for data: 3211265984
I0318 13:47:32.335330 18120 layer_factory.hpp:77] Creating layer res4d_branch2a_relu
I0318 13:47:32.335361 18120 net.cpp:106] Creating Layer res4d_branch2a_relu
I0318 13:47:32.335381 18120 net.cpp:454] res4d_branch2a_relu <- res4d_branch2a
I0318 13:47:32.335403 18120 net.cpp:397] res4d_branch2a_relu -> res4d_branch2a (in-place)
I0318 13:47:32.335429 18120 net.cpp:150] Setting up res4d_branch2a_relu
I0318 13:47:32.335453 18120 net.cpp:157] Top shape: 16 256 14 14 (802816)
I0318 13:47:32.335469 18120 net.cpp:165] Memory required for data: 3214477248
I0318 13:47:32.335487 18120 layer_factory.hpp:77] Creating layer res4d_branch2b
I0318 13:47:32.335520 18120 net.cpp:106] Creating Layer res4d_branch2b
I0318 13:47:32.335541 18120 net.cpp:454] res4d_branch2b <- res4d_branch2a
I0318 13:47:32.335566 18120 net.cpp:411] res4d_branch2b -> res4d_branch2b
I0318 13:47:32.338825 18120 net.cpp:150] Setting up res4d_branch2b
I0318 13:47:32.338870 18120 net.cpp:157] Top shape: 16 256 14 14 (802816)
I0318 13:47:32.338889 18120 net.cpp:165] Memory required for data: 3217688512
I0318 13:47:32.338913 18120 layer_factory.hpp:77] Creating layer bn4d_branch2b
I0318 13:47:32.338944 18120 net.cpp:106] Creating Layer bn4d_branch2b
I0318 13:47:32.338966 18120 net.cpp:454] bn4d_branch2b <- res4d_branch2b
I0318 13:47:32.338989 18120 net.cpp:397] bn4d_branch2b -> res4d_branch2b (in-place)
I0318 13:47:32.339433 18120 net.cpp:150] Setting up bn4d_branch2b
I0318 13:47:32.339486 18120 net.cpp:157] Top shape: 16 256 14 14 (802816)
I0318 13:47:32.339505 18120 net.cpp:165] Memory required for data: 3220899776
I0318 13:47:32.339536 18120 layer_factory.hpp:77] Creating layer scale4d_branch2b
I0318 13:47:32.339574 18120 net.cpp:106] Creating Layer scale4d_branch2b
I0318 13:47:32.339596 18120 net.cpp:454] scale4d_branch2b <- res4d_branch2b
I0318 13:47:32.339620 18120 net.cpp:397] scale4d_branch2b -> res4d_branch2b (in-place)
I0318 13:47:32.339737 18120 layer_factory.hpp:77] Creating layer scale4d_branch2b
I0318 13:47:32.340018 18120 net.cpp:150] Setting up scale4d_branch2b
I0318 13:47:32.340049 18120 net.cpp:157] Top shape: 16 256 14 14 (802816)
I0318 13:47:32.340067 18120 net.cpp:165] Memory required for data: 3224111040
I0318 13:47:32.340095 18120 layer_factory.hpp:77] Creating layer res4d_branch2b_relu
I0318 13:47:32.340118 18120 net.cpp:106] Creating Layer res4d_branch2b_relu
I0318 13:47:32.340137 18120 net.cpp:454] res4d_branch2b_relu <- res4d_branch2b
I0318 13:47:32.340160 18120 net.cpp:397] res4d_branch2b_relu -> res4d_branch2b (in-place)
I0318 13:47:32.340185 18120 net.cpp:150] Setting up res4d_branch2b_relu
I0318 13:47:32.340207 18120 net.cpp:157] Top shape: 16 256 14 14 (802816)
I0318 13:47:32.340224 18120 net.cpp:165] Memory required for data: 3227322304
I0318 13:47:32.340242 18120 layer_factory.hpp:77] Creating layer res4d_branch2c
I0318 13:47:32.340275 18120 net.cpp:106] Creating Layer res4d_branch2c
I0318 13:47:32.340293 18120 net.cpp:454] res4d_branch2c <- res4d_branch2b
I0318 13:47:32.340322 18120 net.cpp:411] res4d_branch2c -> res4d_branch2c
I0318 13:47:32.342167 18120 net.cpp:150] Setting up res4d_branch2c
I0318 13:47:32.342211 18120 net.cpp:157] Top shape: 16 1024 14 14 (3211264)
I0318 13:47:32.342231 18120 net.cpp:165] Memory required for data: 3240167360
I0318 13:47:32.342254 18120 layer_factory.hpp:77] Creating layer bn4d_branch2c
I0318 13:47:32.342279 18120 net.cpp:106] Creating Layer bn4d_branch2c
I0318 13:47:32.342300 18120 net.cpp:454] bn4d_branch2c <- res4d_branch2c
I0318 13:47:32.342329 18120 net.cpp:397] bn4d_branch2c -> res4d_branch2c (in-place)
I0318 13:47:32.342780 18120 net.cpp:150] Setting up bn4d_branch2c
I0318 13:47:32.342814 18120 net.cpp:157] Top shape: 16 1024 14 14 (3211264)
I0318 13:47:32.342833 18120 net.cpp:165] Memory required for data: 3253012416
I0318 13:47:32.342864 18120 layer_factory.hpp:77] Creating layer scale4d_branch2c
I0318 13:47:32.342890 18120 net.cpp:106] Creating Layer scale4d_branch2c
I0318 13:47:32.342910 18120 net.cpp:454] scale4d_branch2c <- res4d_branch2c
I0318 13:47:32.342932 18120 net.cpp:397] scale4d_branch2c -> res4d_branch2c (in-place)
I0318 13:47:32.343047 18120 layer_factory.hpp:77] Creating layer scale4d_branch2c
I0318 13:47:32.343335 18120 net.cpp:150] Setting up scale4d_branch2c
I0318 13:47:32.343369 18120 net.cpp:157] Top shape: 16 1024 14 14 (3211264)
I0318 13:47:32.343389 18120 net.cpp:165] Memory required for data: 3265857472
I0318 13:47:32.343415 18120 layer_factory.hpp:77] Creating layer res4d
I0318 13:47:32.343439 18120 net.cpp:106] Creating Layer res4d
I0318 13:47:32.343459 18120 net.cpp:454] res4d <- res4c_res4c_relu_0_split_1
I0318 13:47:32.343487 18120 net.cpp:454] res4d <- res4d_branch2c
I0318 13:47:32.343511 18120 net.cpp:411] res4d -> res4d
I0318 13:47:32.343582 18120 net.cpp:150] Setting up res4d
I0318 13:47:32.343613 18120 net.cpp:157] Top shape: 16 1024 14 14 (3211264)
I0318 13:47:32.343631 18120 net.cpp:165] Memory required for data: 3278702528
I0318 13:47:32.343650 18120 layer_factory.hpp:77] Creating layer res4d_relu
I0318 13:47:32.343678 18120 net.cpp:106] Creating Layer res4d_relu
I0318 13:47:32.343699 18120 net.cpp:454] res4d_relu <- res4d
I0318 13:47:32.343722 18120 net.cpp:397] res4d_relu -> res4d (in-place)
I0318 13:47:32.343747 18120 net.cpp:150] Setting up res4d_relu
I0318 13:47:32.343770 18120 net.cpp:157] Top shape: 16 1024 14 14 (3211264)
I0318 13:47:32.343787 18120 net.cpp:165] Memory required for data: 3291547584
I0318 13:47:32.343817 18120 layer_factory.hpp:77] Creating layer res4d_res4d_relu_0_split
I0318 13:47:32.343863 18120 net.cpp:106] Creating Layer res4d_res4d_relu_0_split
I0318 13:47:32.343884 18120 net.cpp:454] res4d_res4d_relu_0_split <- res4d
I0318 13:47:32.343907 18120 net.cpp:411] res4d_res4d_relu_0_split -> res4d_res4d_relu_0_split_0
I0318 13:47:32.343935 18120 net.cpp:411] res4d_res4d_relu_0_split -> res4d_res4d_relu_0_split_1
I0318 13:47:32.344034 18120 net.cpp:150] Setting up res4d_res4d_relu_0_split
I0318 13:47:32.344065 18120 net.cpp:157] Top shape: 16 1024 14 14 (3211264)
I0318 13:47:32.344086 18120 net.cpp:157] Top shape: 16 1024 14 14 (3211264)
I0318 13:47:32.344104 18120 net.cpp:165] Memory required for data: 3317237696
I0318 13:47:32.344121 18120 layer_factory.hpp:77] Creating layer res4e_branch2a
I0318 13:47:32.344153 18120 net.cpp:106] Creating Layer res4e_branch2a
I0318 13:47:32.344174 18120 net.cpp:454] res4e_branch2a <- res4d_res4d_relu_0_split_0
I0318 13:47:32.344198 18120 net.cpp:411] res4e_branch2a -> res4e_branch2a
I0318 13:47:32.346058 18120 net.cpp:150] Setting up res4e_branch2a
I0318 13:47:32.346101 18120 net.cpp:157] Top shape: 16 256 14 14 (802816)
I0318 13:47:32.346120 18120 net.cpp:165] Memory required for data: 3320448960
I0318 13:47:32.346143 18120 layer_factory.hpp:77] Creating layer bn4e_branch2a
I0318 13:47:32.346169 18120 net.cpp:106] Creating Layer bn4e_branch2a
I0318 13:47:32.346189 18120 net.cpp:454] bn4e_branch2a <- res4e_branch2a
I0318 13:47:32.346212 18120 net.cpp:397] bn4e_branch2a -> res4e_branch2a (in-place)
I0318 13:47:32.346678 18120 net.cpp:150] Setting up bn4e_branch2a
I0318 13:47:32.346717 18120 net.cpp:157] Top shape: 16 256 14 14 (802816)
I0318 13:47:32.346736 18120 net.cpp:165] Memory required for data: 3323660224
I0318 13:47:32.346766 18120 layer_factory.hpp:77] Creating layer scale4e_branch2a
I0318 13:47:32.346793 18120 net.cpp:106] Creating Layer scale4e_branch2a
I0318 13:47:32.346813 18120 net.cpp:454] scale4e_branch2a <- res4e_branch2a
I0318 13:47:32.346837 18120 net.cpp:397] scale4e_branch2a -> res4e_branch2a (in-place)
I0318 13:47:32.346953 18120 layer_factory.hpp:77] Creating layer scale4e_branch2a
I0318 13:47:32.347237 18120 net.cpp:150] Setting up scale4e_branch2a
I0318 13:47:32.347270 18120 net.cpp:157] Top shape: 16 256 14 14 (802816)
I0318 13:47:32.347290 18120 net.cpp:165] Memory required for data: 3326871488
I0318 13:47:32.347316 18120 layer_factory.hpp:77] Creating layer res4e_branch2a_relu
I0318 13:47:32.347344 18120 net.cpp:106] Creating Layer res4e_branch2a_relu
I0318 13:47:32.347365 18120 net.cpp:454] res4e_branch2a_relu <- res4e_branch2a
I0318 13:47:32.347388 18120 net.cpp:397] res4e_branch2a_relu -> res4e_branch2a (in-place)
I0318 13:47:32.347412 18120 net.cpp:150] Setting up res4e_branch2a_relu
I0318 13:47:32.347435 18120 net.cpp:157] Top shape: 16 256 14 14 (802816)
I0318 13:47:32.347453 18120 net.cpp:165] Memory required for data: 3330082752
I0318 13:47:32.347471 18120 layer_factory.hpp:77] Creating layer res4e_branch2b
I0318 13:47:32.347504 18120 net.cpp:106] Creating Layer res4e_branch2b
I0318 13:47:32.347524 18120 net.cpp:454] res4e_branch2b <- res4e_branch2a
I0318 13:47:32.347548 18120 net.cpp:411] res4e_branch2b -> res4e_branch2b
I0318 13:47:32.350838 18120 net.cpp:150] Setting up res4e_branch2b
I0318 13:47:32.350881 18120 net.cpp:157] Top shape: 16 256 14 14 (802816)
I0318 13:47:32.350900 18120 net.cpp:165] Memory required for data: 3333294016
I0318 13:47:32.350924 18120 layer_factory.hpp:77] Creating layer bn4e_branch2b
I0318 13:47:32.350956 18120 net.cpp:106] Creating Layer bn4e_branch2b
I0318 13:47:32.350977 18120 net.cpp:454] bn4e_branch2b <- res4e_branch2b
I0318 13:47:32.351001 18120 net.cpp:397] bn4e_branch2b -> res4e_branch2b (in-place)
I0318 13:47:32.351444 18120 net.cpp:150] Setting up bn4e_branch2b
I0318 13:47:32.351476 18120 net.cpp:157] Top shape: 16 256 14 14 (802816)
I0318 13:47:32.351495 18120 net.cpp:165] Memory required for data: 3336505280
I0318 13:47:32.351526 18120 layer_factory.hpp:77] Creating layer scale4e_branch2b
I0318 13:47:32.351569 18120 net.cpp:106] Creating Layer scale4e_branch2b
I0318 13:47:32.351608 18120 net.cpp:454] scale4e_branch2b <- res4e_branch2b
I0318 13:47:32.351634 18120 net.cpp:397] scale4e_branch2b -> res4e_branch2b (in-place)
I0318 13:47:32.351753 18120 layer_factory.hpp:77] Creating layer scale4e_branch2b
I0318 13:47:32.352037 18120 net.cpp:150] Setting up scale4e_branch2b
I0318 13:47:32.352071 18120 net.cpp:157] Top shape: 16 256 14 14 (802816)
I0318 13:47:32.352088 18120 net.cpp:165] Memory required for data: 3339716544
I0318 13:47:32.352115 18120 layer_factory.hpp:77] Creating layer res4e_branch2b_relu
I0318 13:47:32.352138 18120 net.cpp:106] Creating Layer res4e_branch2b_relu
I0318 13:47:32.352157 18120 net.cpp:454] res4e_branch2b_relu <- res4e_branch2b
I0318 13:47:32.352180 18120 net.cpp:397] res4e_branch2b_relu -> res4e_branch2b (in-place)
I0318 13:47:32.352205 18120 net.cpp:150] Setting up res4e_branch2b_relu
I0318 13:47:32.352227 18120 net.cpp:157] Top shape: 16 256 14 14 (802816)
I0318 13:47:32.352246 18120 net.cpp:165] Memory required for data: 3342927808
I0318 13:47:32.352263 18120 layer_factory.hpp:77] Creating layer res4e_branch2c
I0318 13:47:32.352295 18120 net.cpp:106] Creating Layer res4e_branch2c
I0318 13:47:32.352315 18120 net.cpp:454] res4e_branch2c <- res4e_branch2b
I0318 13:47:32.352344 18120 net.cpp:411] res4e_branch2c -> res4e_branch2c
I0318 13:47:32.354202 18120 net.cpp:150] Setting up res4e_branch2c
I0318 13:47:32.354245 18120 net.cpp:157] Top shape: 16 1024 14 14 (3211264)
I0318 13:47:32.354265 18120 net.cpp:165] Memory required for data: 3355772864
I0318 13:47:32.354290 18120 layer_factory.hpp:77] Creating layer bn4e_branch2c
I0318 13:47:32.354315 18120 net.cpp:106] Creating Layer bn4e_branch2c
I0318 13:47:32.354336 18120 net.cpp:454] bn4e_branch2c <- res4e_branch2c
I0318 13:47:32.354368 18120 net.cpp:397] bn4e_branch2c -> res4e_branch2c (in-place)
I0318 13:47:32.354828 18120 net.cpp:150] Setting up bn4e_branch2c
I0318 13:47:32.354862 18120 net.cpp:157] Top shape: 16 1024 14 14 (3211264)
I0318 13:47:32.354882 18120 net.cpp:165] Memory required for data: 3368617920
I0318 13:47:32.354910 18120 layer_factory.hpp:77] Creating layer scale4e_branch2c
I0318 13:47:32.354938 18120 net.cpp:106] Creating Layer scale4e_branch2c
I0318 13:47:32.354956 18120 net.cpp:454] scale4e_branch2c <- res4e_branch2c
I0318 13:47:32.354980 18120 net.cpp:397] scale4e_branch2c -> res4e_branch2c (in-place)
I0318 13:47:32.355094 18120 layer_factory.hpp:77] Creating layer scale4e_branch2c
I0318 13:47:32.355387 18120 net.cpp:150] Setting up scale4e_branch2c
I0318 13:47:32.355420 18120 net.cpp:157] Top shape: 16 1024 14 14 (3211264)
I0318 13:47:32.355439 18120 net.cpp:165] Memory required for data: 3381462976
I0318 13:47:32.355464 18120 layer_factory.hpp:77] Creating layer res4e
I0318 13:47:32.355489 18120 net.cpp:106] Creating Layer res4e
I0318 13:47:32.355509 18120 net.cpp:454] res4e <- res4d_res4d_relu_0_split_1
I0318 13:47:32.355530 18120 net.cpp:454] res4e <- res4e_branch2c
I0318 13:47:32.355561 18120 net.cpp:411] res4e -> res4e
I0318 13:47:32.355633 18120 net.cpp:150] Setting up res4e
I0318 13:47:32.355662 18120 net.cpp:157] Top shape: 16 1024 14 14 (3211264)
I0318 13:47:32.355681 18120 net.cpp:165] Memory required for data: 3394308032
I0318 13:47:32.355700 18120 layer_factory.hpp:77] Creating layer res4e_relu
I0318 13:47:32.355728 18120 net.cpp:106] Creating Layer res4e_relu
I0318 13:47:32.355749 18120 net.cpp:454] res4e_relu <- res4e
I0318 13:47:32.355772 18120 net.cpp:397] res4e_relu -> res4e (in-place)
I0318 13:47:32.355798 18120 net.cpp:150] Setting up res4e_relu
I0318 13:47:32.355820 18120 net.cpp:157] Top shape: 16 1024 14 14 (3211264)
I0318 13:47:32.355839 18120 net.cpp:165] Memory required for data: 3407153088
I0318 13:47:32.355856 18120 layer_factory.hpp:77] Creating layer res4e_res4e_relu_0_split
I0318 13:47:32.355883 18120 net.cpp:106] Creating Layer res4e_res4e_relu_0_split
I0318 13:47:32.355903 18120 net.cpp:454] res4e_res4e_relu_0_split <- res4e
I0318 13:47:32.355926 18120 net.cpp:411] res4e_res4e_relu_0_split -> res4e_res4e_relu_0_split_0
I0318 13:47:32.355980 18120 net.cpp:411] res4e_res4e_relu_0_split -> res4e_res4e_relu_0_split_1
I0318 13:47:32.356082 18120 net.cpp:150] Setting up res4e_res4e_relu_0_split
I0318 13:47:32.356113 18120 net.cpp:157] Top shape: 16 1024 14 14 (3211264)
I0318 13:47:32.356134 18120 net.cpp:157] Top shape: 16 1024 14 14 (3211264)
I0318 13:47:32.356151 18120 net.cpp:165] Memory required for data: 3432843200
I0318 13:47:32.356169 18120 layer_factory.hpp:77] Creating layer res4f_branch2a
I0318 13:47:32.356201 18120 net.cpp:106] Creating Layer res4f_branch2a
I0318 13:47:32.356222 18120 net.cpp:454] res4f_branch2a <- res4e_res4e_relu_0_split_0
I0318 13:47:32.356246 18120 net.cpp:411] res4f_branch2a -> res4f_branch2a
I0318 13:47:32.358126 18120 net.cpp:150] Setting up res4f_branch2a
I0318 13:47:32.358170 18120 net.cpp:157] Top shape: 16 256 14 14 (802816)
I0318 13:47:32.358189 18120 net.cpp:165] Memory required for data: 3436054464
I0318 13:47:32.358213 18120 layer_factory.hpp:77] Creating layer bn4f_branch2a
I0318 13:47:32.358238 18120 net.cpp:106] Creating Layer bn4f_branch2a
I0318 13:47:32.358259 18120 net.cpp:454] bn4f_branch2a <- res4f_branch2a
I0318 13:47:32.358283 18120 net.cpp:397] bn4f_branch2a -> res4f_branch2a (in-place)
I0318 13:47:32.358733 18120 net.cpp:150] Setting up bn4f_branch2a
I0318 13:47:32.358767 18120 net.cpp:157] Top shape: 16 256 14 14 (802816)
I0318 13:47:32.358785 18120 net.cpp:165] Memory required for data: 3439265728
I0318 13:47:32.358821 18120 layer_factory.hpp:77] Creating layer scale4f_branch2a
I0318 13:47:32.358850 18120 net.cpp:106] Creating Layer scale4f_branch2a
I0318 13:47:32.358870 18120 net.cpp:454] scale4f_branch2a <- res4f_branch2a
I0318 13:47:32.358892 18120 net.cpp:397] scale4f_branch2a -> res4f_branch2a (in-place)
I0318 13:47:32.359007 18120 layer_factory.hpp:77] Creating layer scale4f_branch2a
I0318 13:47:32.359292 18120 net.cpp:150] Setting up scale4f_branch2a
I0318 13:47:32.359325 18120 net.cpp:157] Top shape: 16 256 14 14 (802816)
I0318 13:47:32.359344 18120 net.cpp:165] Memory required for data: 3442476992
I0318 13:47:32.359369 18120 layer_factory.hpp:77] Creating layer res4f_branch2a_relu
I0318 13:47:32.359400 18120 net.cpp:106] Creating Layer res4f_branch2a_relu
I0318 13:47:32.359421 18120 net.cpp:454] res4f_branch2a_relu <- res4f_branch2a
I0318 13:47:32.359443 18120 net.cpp:397] res4f_branch2a_relu -> res4f_branch2a (in-place)
I0318 13:47:32.359468 18120 net.cpp:150] Setting up res4f_branch2a_relu
I0318 13:47:32.359490 18120 net.cpp:157] Top shape: 16 256 14 14 (802816)
I0318 13:47:32.359508 18120 net.cpp:165] Memory required for data: 3445688256
I0318 13:47:32.359526 18120 layer_factory.hpp:77] Creating layer res4f_branch2b
I0318 13:47:32.359558 18120 net.cpp:106] Creating Layer res4f_branch2b
I0318 13:47:32.359578 18120 net.cpp:454] res4f_branch2b <- res4f_branch2a
I0318 13:47:32.359602 18120 net.cpp:411] res4f_branch2b -> res4f_branch2b
I0318 13:47:32.362884 18120 net.cpp:150] Setting up res4f_branch2b
I0318 13:47:32.362928 18120 net.cpp:157] Top shape: 16 256 14 14 (802816)
I0318 13:47:32.362947 18120 net.cpp:165] Memory required for data: 3448899520
I0318 13:47:32.362972 18120 layer_factory.hpp:77] Creating layer bn4f_branch2b
I0318 13:47:32.363010 18120 net.cpp:106] Creating Layer bn4f_branch2b
I0318 13:47:32.363034 18120 net.cpp:454] bn4f_branch2b <- res4f_branch2b
I0318 13:47:32.363056 18120 net.cpp:397] bn4f_branch2b -> res4f_branch2b (in-place)
I0318 13:47:32.363508 18120 net.cpp:150] Setting up bn4f_branch2b
I0318 13:47:32.363543 18120 net.cpp:157] Top shape: 16 256 14 14 (802816)
I0318 13:47:32.363560 18120 net.cpp:165] Memory required for data: 3452110784
I0318 13:47:32.363591 18120 layer_factory.hpp:77] Creating layer scale4f_branch2b
I0318 13:47:32.363623 18120 net.cpp:106] Creating Layer scale4f_branch2b
I0318 13:47:32.363644 18120 net.cpp:454] scale4f_branch2b <- res4f_branch2b
I0318 13:47:32.363667 18120 net.cpp:397] scale4f_branch2b -> res4f_branch2b (in-place)
I0318 13:47:32.363786 18120 layer_factory.hpp:77] Creating layer scale4f_branch2b
I0318 13:47:32.364100 18120 net.cpp:150] Setting up scale4f_branch2b
I0318 13:47:32.364135 18120 net.cpp:157] Top shape: 16 256 14 14 (802816)
I0318 13:47:32.364153 18120 net.cpp:165] Memory required for data: 3455322048
I0318 13:47:32.364179 18120 layer_factory.hpp:77] Creating layer res4f_branch2b_relu
I0318 13:47:32.364203 18120 net.cpp:106] Creating Layer res4f_branch2b_relu
I0318 13:47:32.364223 18120 net.cpp:454] res4f_branch2b_relu <- res4f_branch2b
I0318 13:47:32.364245 18120 net.cpp:397] res4f_branch2b_relu -> res4f_branch2b (in-place)
I0318 13:47:32.364270 18120 net.cpp:150] Setting up res4f_branch2b_relu
I0318 13:47:32.364292 18120 net.cpp:157] Top shape: 16 256 14 14 (802816)
I0318 13:47:32.364310 18120 net.cpp:165] Memory required for data: 3458533312
I0318 13:47:32.364328 18120 layer_factory.hpp:77] Creating layer res4f_branch2c
I0318 13:47:32.364359 18120 net.cpp:106] Creating Layer res4f_branch2c
I0318 13:47:32.364380 18120 net.cpp:454] res4f_branch2c <- res4f_branch2b
I0318 13:47:32.364409 18120 net.cpp:411] res4f_branch2c -> res4f_branch2c
I0318 13:47:32.366276 18120 net.cpp:150] Setting up res4f_branch2c
I0318 13:47:32.366319 18120 net.cpp:157] Top shape: 16 1024 14 14 (3211264)
I0318 13:47:32.366338 18120 net.cpp:165] Memory required for data: 3471378368
I0318 13:47:32.366363 18120 layer_factory.hpp:77] Creating layer bn4f_branch2c
I0318 13:47:32.366389 18120 net.cpp:106] Creating Layer bn4f_branch2c
I0318 13:47:32.366408 18120 net.cpp:454] bn4f_branch2c <- res4f_branch2c
I0318 13:47:32.366436 18120 net.cpp:397] bn4f_branch2c -> res4f_branch2c (in-place)
I0318 13:47:32.366896 18120 net.cpp:150] Setting up bn4f_branch2c
I0318 13:47:32.366930 18120 net.cpp:157] Top shape: 16 1024 14 14 (3211264)
I0318 13:47:32.366948 18120 net.cpp:165] Memory required for data: 3484223424
I0318 13:47:32.367058 18120 layer_factory.hpp:77] Creating layer scale4f_branch2c
I0318 13:47:32.367090 18120 net.cpp:106] Creating Layer scale4f_branch2c
I0318 13:47:32.367110 18120 net.cpp:454] scale4f_branch2c <- res4f_branch2c
I0318 13:47:32.367135 18120 net.cpp:397] scale4f_branch2c -> res4f_branch2c (in-place)
I0318 13:47:32.367254 18120 layer_factory.hpp:77] Creating layer scale4f_branch2c
I0318 13:47:32.367554 18120 net.cpp:150] Setting up scale4f_branch2c
I0318 13:47:32.367588 18120 net.cpp:157] Top shape: 16 1024 14 14 (3211264)
I0318 13:47:32.367607 18120 net.cpp:165] Memory required for data: 3497068480
I0318 13:47:32.367633 18120 layer_factory.hpp:77] Creating layer res4f
I0318 13:47:32.367658 18120 net.cpp:106] Creating Layer res4f
I0318 13:47:32.367679 18120 net.cpp:454] res4f <- res4e_res4e_relu_0_split_1
I0318 13:47:32.367700 18120 net.cpp:454] res4f <- res4f_branch2c
I0318 13:47:32.367729 18120 net.cpp:411] res4f -> res4f
I0318 13:47:32.367810 18120 net.cpp:150] Setting up res4f
I0318 13:47:32.367841 18120 net.cpp:157] Top shape: 16 1024 14 14 (3211264)
I0318 13:47:32.367859 18120 net.cpp:165] Memory required for data: 3509913536
I0318 13:47:32.367877 18120 layer_factory.hpp:77] Creating layer res4f_relu
I0318 13:47:32.367900 18120 net.cpp:106] Creating Layer res4f_relu
I0318 13:47:32.367919 18120 net.cpp:454] res4f_relu <- res4f
I0318 13:47:32.367943 18120 net.cpp:397] res4f_relu -> res4f (in-place)
I0318 13:47:32.367969 18120 net.cpp:150] Setting up res4f_relu
I0318 13:47:32.367990 18120 net.cpp:157] Top shape: 16 1024 14 14 (3211264)
I0318 13:47:32.368007 18120 net.cpp:165] Memory required for data: 3522758592
I0318 13:47:32.368026 18120 layer_factory.hpp:77] Creating layer res4f_res4f_relu_0_split
I0318 13:47:32.368048 18120 net.cpp:106] Creating Layer res4f_res4f_relu_0_split
I0318 13:47:32.368067 18120 net.cpp:454] res4f_res4f_relu_0_split <- res4f
I0318 13:47:32.368094 18120 net.cpp:411] res4f_res4f_relu_0_split -> res4f_res4f_relu_0_split_0
I0318 13:47:32.368121 18120 net.cpp:411] res4f_res4f_relu_0_split -> res4f_res4f_relu_0_split_1
I0318 13:47:32.368147 18120 net.cpp:411] res4f_res4f_relu_0_split -> res4f_res4f_relu_0_split_2
I0318 13:47:32.368279 18120 net.cpp:150] Setting up res4f_res4f_relu_0_split
I0318 13:47:32.368340 18120 net.cpp:157] Top shape: 16 1024 14 14 (3211264)
I0318 13:47:32.368362 18120 net.cpp:157] Top shape: 16 1024 14 14 (3211264)
I0318 13:47:32.368382 18120 net.cpp:157] Top shape: 16 1024 14 14 (3211264)
I0318 13:47:32.368399 18120 net.cpp:165] Memory required for data: 3561293760
I0318 13:47:32.368417 18120 layer_factory.hpp:77] Creating layer res5a_branch1
I0318 13:47:32.368449 18120 net.cpp:106] Creating Layer res5a_branch1
I0318 13:47:32.368471 18120 net.cpp:454] res5a_branch1 <- res4f_res4f_relu_0_split_0
I0318 13:47:32.368496 18120 net.cpp:411] res5a_branch1 -> res5a_branch1
I0318 13:47:32.378407 18120 net.cpp:150] Setting up res5a_branch1
I0318 13:47:32.378456 18120 net.cpp:157] Top shape: 16 2048 7 7 (1605632)
I0318 13:47:32.378476 18120 net.cpp:165] Memory required for data: 3567716288
I0318 13:47:32.378501 18120 layer_factory.hpp:77] Creating layer bn5a_branch1
I0318 13:47:32.378527 18120 net.cpp:106] Creating Layer bn5a_branch1
I0318 13:47:32.378547 18120 net.cpp:454] bn5a_branch1 <- res5a_branch1
I0318 13:47:32.378571 18120 net.cpp:397] bn5a_branch1 -> res5a_branch1 (in-place)
I0318 13:47:32.379065 18120 net.cpp:150] Setting up bn5a_branch1
I0318 13:47:32.379098 18120 net.cpp:157] Top shape: 16 2048 7 7 (1605632)
I0318 13:47:32.379117 18120 net.cpp:165] Memory required for data: 3574138816
I0318 13:47:32.379148 18120 layer_factory.hpp:77] Creating layer scale5a_branch1
I0318 13:47:32.379173 18120 net.cpp:106] Creating Layer scale5a_branch1
I0318 13:47:32.379194 18120 net.cpp:454] scale5a_branch1 <- res5a_branch1
I0318 13:47:32.379216 18120 net.cpp:397] scale5a_branch1 -> res5a_branch1 (in-place)
I0318 13:47:32.379335 18120 layer_factory.hpp:77] Creating layer scale5a_branch1
I0318 13:47:32.379645 18120 net.cpp:150] Setting up scale5a_branch1
I0318 13:47:32.379680 18120 net.cpp:157] Top shape: 16 2048 7 7 (1605632)
I0318 13:47:32.379698 18120 net.cpp:165] Memory required for data: 3580561344
I0318 13:47:32.379724 18120 layer_factory.hpp:77] Creating layer res5a_branch2a
I0318 13:47:32.379758 18120 net.cpp:106] Creating Layer res5a_branch2a
I0318 13:47:32.379781 18120 net.cpp:454] res5a_branch2a <- res4f_res4f_relu_0_split_1
I0318 13:47:32.379804 18120 net.cpp:411] res5a_branch2a -> res5a_branch2a
I0318 13:47:32.382815 18120 net.cpp:150] Setting up res5a_branch2a
I0318 13:47:32.382860 18120 net.cpp:157] Top shape: 16 512 7 7 (401408)
I0318 13:47:32.382879 18120 net.cpp:165] Memory required for data: 3582166976
I0318 13:47:32.382903 18120 layer_factory.hpp:77] Creating layer bn5a_branch2a
I0318 13:47:32.382935 18120 net.cpp:106] Creating Layer bn5a_branch2a
I0318 13:47:32.382956 18120 net.cpp:454] bn5a_branch2a <- res5a_branch2a
I0318 13:47:32.382980 18120 net.cpp:397] bn5a_branch2a -> res5a_branch2a (in-place)
I0318 13:47:32.383460 18120 net.cpp:150] Setting up bn5a_branch2a
I0318 13:47:32.383496 18120 net.cpp:157] Top shape: 16 512 7 7 (401408)
I0318 13:47:32.383514 18120 net.cpp:165] Memory required for data: 3583772608
I0318 13:47:32.383544 18120 layer_factory.hpp:77] Creating layer scale5a_branch2a
I0318 13:47:32.383571 18120 net.cpp:106] Creating Layer scale5a_branch2a
I0318 13:47:32.383591 18120 net.cpp:454] scale5a_branch2a <- res5a_branch2a
I0318 13:47:32.383620 18120 net.cpp:397] scale5a_branch2a -> res5a_branch2a (in-place)
I0318 13:47:32.383731 18120 layer_factory.hpp:77] Creating layer scale5a_branch2a
I0318 13:47:32.384030 18120 net.cpp:150] Setting up scale5a_branch2a
I0318 13:47:32.384069 18120 net.cpp:157] Top shape: 16 512 7 7 (401408)
I0318 13:47:32.384088 18120 net.cpp:165] Memory required for data: 3585378240
I0318 13:47:32.384115 18120 layer_factory.hpp:77] Creating layer res5a_branch2a_relu
I0318 13:47:32.384140 18120 net.cpp:106] Creating Layer res5a_branch2a_relu
I0318 13:47:32.384160 18120 net.cpp:454] res5a_branch2a_relu <- res5a_branch2a
I0318 13:47:32.384182 18120 net.cpp:397] res5a_branch2a_relu -> res5a_branch2a (in-place)
I0318 13:47:32.384208 18120 net.cpp:150] Setting up res5a_branch2a_relu
I0318 13:47:32.384232 18120 net.cpp:157] Top shape: 16 512 7 7 (401408)
I0318 13:47:32.384277 18120 net.cpp:165] Memory required for data: 3586983872
I0318 13:47:32.384299 18120 layer_factory.hpp:77] Creating layer res5a_branch2b
I0318 13:47:32.384331 18120 net.cpp:106] Creating Layer res5a_branch2b
I0318 13:47:32.384352 18120 net.cpp:454] res5a_branch2b <- res5a_branch2a
I0318 13:47:32.384377 18120 net.cpp:411] res5a_branch2b -> res5a_branch2b
I0318 13:47:32.395484 18120 net.cpp:150] Setting up res5a_branch2b
I0318 13:47:32.395543 18120 net.cpp:157] Top shape: 16 512 7 7 (401408)
I0318 13:47:32.395563 18120 net.cpp:165] Memory required for data: 3588589504
I0318 13:47:32.395588 18120 layer_factory.hpp:77] Creating layer bn5a_branch2b
I0318 13:47:32.395617 18120 net.cpp:106] Creating Layer bn5a_branch2b
I0318 13:47:32.395637 18120 net.cpp:454] bn5a_branch2b <- res5a_branch2b
I0318 13:47:32.395668 18120 net.cpp:397] bn5a_branch2b -> res5a_branch2b (in-place)
I0318 13:47:32.396139 18120 net.cpp:150] Setting up bn5a_branch2b
I0318 13:47:32.396173 18120 net.cpp:157] Top shape: 16 512 7 7 (401408)
I0318 13:47:32.396191 18120 net.cpp:165] Memory required for data: 3590195136
I0318 13:47:32.396222 18120 layer_factory.hpp:77] Creating layer scale5a_branch2b
I0318 13:47:32.396248 18120 net.cpp:106] Creating Layer scale5a_branch2b
I0318 13:47:32.396270 18120 net.cpp:454] scale5a_branch2b <- res5a_branch2b
I0318 13:47:32.396292 18120 net.cpp:397] scale5a_branch2b -> res5a_branch2b (in-place)
I0318 13:47:32.396407 18120 layer_factory.hpp:77] Creating layer scale5a_branch2b
I0318 13:47:32.396723 18120 net.cpp:150] Setting up scale5a_branch2b
I0318 13:47:32.396760 18120 net.cpp:157] Top shape: 16 512 7 7 (401408)
I0318 13:47:32.396778 18120 net.cpp:165] Memory required for data: 3591800768
I0318 13:47:32.396806 18120 layer_factory.hpp:77] Creating layer res5a_branch2b_relu
I0318 13:47:32.396829 18120 net.cpp:106] Creating Layer res5a_branch2b_relu
I0318 13:47:32.396849 18120 net.cpp:454] res5a_branch2b_relu <- res5a_branch2b
I0318 13:47:32.396878 18120 net.cpp:397] res5a_branch2b_relu -> res5a_branch2b (in-place)
I0318 13:47:32.396904 18120 net.cpp:150] Setting up res5a_branch2b_relu
I0318 13:47:32.396927 18120 net.cpp:157] Top shape: 16 512 7 7 (401408)
I0318 13:47:32.396945 18120 net.cpp:165] Memory required for data: 3593406400
I0318 13:47:32.396963 18120 layer_factory.hpp:77] Creating layer res5a_branch2c
I0318 13:47:32.396991 18120 net.cpp:106] Creating Layer res5a_branch2c
I0318 13:47:32.397009 18120 net.cpp:454] res5a_branch2c <- res5a_branch2b
I0318 13:47:32.397039 18120 net.cpp:411] res5a_branch2c -> res5a_branch2c
I0318 13:47:32.402324 18120 net.cpp:150] Setting up res5a_branch2c
I0318 13:47:32.402370 18120 net.cpp:157] Top shape: 16 2048 7 7 (1605632)
I0318 13:47:32.402390 18120 net.cpp:165] Memory required for data: 3599828928
I0318 13:47:32.402415 18120 layer_factory.hpp:77] Creating layer bn5a_branch2c
I0318 13:47:32.402441 18120 net.cpp:106] Creating Layer bn5a_branch2c
I0318 13:47:32.402460 18120 net.cpp:454] bn5a_branch2c <- res5a_branch2c
I0318 13:47:32.402484 18120 net.cpp:397] bn5a_branch2c -> res5a_branch2c (in-place)
I0318 13:47:32.402958 18120 net.cpp:150] Setting up bn5a_branch2c
I0318 13:47:32.402993 18120 net.cpp:157] Top shape: 16 2048 7 7 (1605632)
I0318 13:47:32.403012 18120 net.cpp:165] Memory required for data: 3606251456
…
I0318 13:47:32.567270 18120 net.cpp:106] Creating Layer id_scale4d_branch2b
I0318 13:47:32.567291 18120 net.cpp:454] id_scale4d_branch2b <- id_res4d_branch2b
I0318 13:47:32.567319 18120 net.cpp:397] id_scale4d_branch2b -> id_res4d_branch2b (in-place)
I0318 13:47:32.567430 18120 layer_factory.hpp:77] Creating layer id_scale4d_branch2b
I0318 13:47:32.567710 18120 net.cpp:150] Setting up id_scale4d_branch2b
I0318 13:47:32.567749 18120 net.cpp:157] Top shape: 16 256 14 14 (802816)
I0318 13:47:32.567769 18120 net.cpp:165] Memory required for data: 6936463296
I0318 13:47:32.567795 18120 layer_factory.hpp:77] Creating layer id_res4d_branch2b_relu
I0318 13:47:32.567818 18120 net.cpp:106] Creating Layer id_res4d_branch2b_relu
I0318 13:47:32.567838 18120 net.cpp:454] id_res4d_branch2b_relu <- id_res4d_branch2b
I0318 13:47:32.567860 18120 net.cpp:397] id_res4d_branch2b_relu -> id_res4d_branch2b (in-place)
I0318 13:47:32.567885 18120 net.cpp:150] Setting up id_res4d_branch2b_relu
I0318 13:47:32.567908 18120 net.cpp:157] Top shape: 16 256 14 14 (802816)
I0318 13:47:32.567924 18120 net.cpp:165] Memory required for data: 6939674560
I0318 13:47:32.567942 18120 layer_factory.hpp:77] Creating layer id_res4d_branch2c
I0318 13:47:32.567975 18120 net.cpp:106] Creating Layer id_res4d_branch2c
I0318 13:47:32.567994 18120 net.cpp:454] id_res4d_branch2c <- id_res4d_branch2b
I0318 13:47:32.568018 18120 net.cpp:411] id_res4d_branch2c -> id_res4d_branch2c
I0318 13:47:32.569891 18120 net.cpp:150] Setting up id_res4d_branch2c
I0318 13:47:32.569934 18120 net.cpp:157] Top shape: 16 1024 14 14 (3211264)
I0318 13:47:32.569953 18120 net.cpp:165] Memory required for data: 6952519616
I0318 13:47:32.569977 18120 layer_factory.hpp:77] Creating layer id_bn4d_branch2c
I0318 13:47:32.570003 18120 net.cpp:106] Creating Layer id_bn4d_branch2c
I0318 13:47:32.570024 18120 net.cpp:454] id_bn4d_branch2c <- id_res4d_branch2c
I0318 13:47:32.570045 18120 net.cpp:397] id_bn4d_branch2c -> id_res4d_branch2c (in-place)
I0318 13:47:32.570528 18120 net.cpp:150] Setting up id_bn4d_branch2c
I0318 13:47:32.570562 18120 net.cpp:157] Top shape: 16 1024 14 14 (3211264)
I0318 13:47:32.570581 18120 net.cpp:165] Memory required for data: 6965364672
I0318 13:47:32.570611 18120 layer_factory.hpp:77] Creating layer id_scale4d_branch2c
I0318 13:47:32.570636 18120 net.cpp:106] Creating Layer id_scale4d_branch2c
I0318 13:47:32.570657 18120 net.cpp:454] id_scale4d_branch2c <- id_res4d_branch2c
I0318 13:47:32.570679 18120 net.cpp:397] id_scale4d_branch2c -> id_res4d_branch2c (in-place)
I0318 13:47:32.570806 18120 layer_factory.hpp:77] Creating layer id_scale4d_branch2c
I0318 13:47:32.571116 18120 net.cpp:150] Setting up id_scale4d_branch2c
I0318 13:47:32.571151 18120 net.cpp:157] Top shape: 16 1024 14 14 (3211264)
I0318 13:47:32.571169 18120 net.cpp:165] Memory required for data: 6978209728
I0318 13:47:32.571195 18120 layer_factory.hpp:77] Creating layer id_res4d
I0318 13:47:32.571225 18120 net.cpp:106] Creating Layer id_res4d
I0318 13:47:32.571247 18120 net.cpp:454] id_res4d <- id_res4c_id_res4c_relu_0_split_1
I0318 13:47:32.571269 18120 net.cpp:454] id_res4d <- id_res4d_branch2c
I0318 13:47:32.571322 18120 net.cpp:411] id_res4d -> id_res4d
I0318 13:47:32.571596 18120 net.cpp:150] Setting up id_res4d
I0318 13:47:32.571635 18120 net.cpp:157] Top shape: 16 1024 14 14 (3211264)
I0318 13:47:32.571653 18120 net.cpp:165] Memory required for data: 6991054784
I0318 13:47:32.571673 18120 layer_factory.hpp:77] Creating layer id_res4d_relu
I0318 13:47:32.571696 18120 net.cpp:106] Creating Layer id_res4d_relu
I0318 13:47:32.571717 18120 net.cpp:454] id_res4d_relu <- id_res4d
I0318 13:47:32.571745 18120 net.cpp:397] id_res4d_relu -> id_res4d (in-place)
I0318 13:47:32.571774 18120 net.cpp:150] Setting up id_res4d_relu
I0318 13:47:32.571797 18120 net.cpp:157] Top shape: 16 1024 14 14 (3211264)
I0318 13:47:32.571815 18120 net.cpp:165] Memory required for data: 7003899840
I0318 13:47:32.571832 18120 layer_factory.hpp:77] Creating layer id_res4d_id_res4d_relu_0_split
I0318 13:47:32.571854 18120 net.cpp:106] Creating Layer id_res4d_id_res4d_relu_0_split
I0318 13:47:32.571873 18120 net.cpp:454] id_res4d_id_res4d_relu_0_split <- id_res4d
I0318 13:47:32.571895 18120 net.cpp:411] id_res4d_id_res4d_relu_0_split -> id_res4d_id_res4d_relu_0_split_0
I0318 13:47:32.571923 18120 net.cpp:411] id_res4d_id_res4d_relu_0_split -> id_res4d_id_res4d_relu_0_split_1
I0318 13:47:32.572031 18120 net.cpp:150] Setting up id_res4d_id_res4d_relu_0_split
I0318 13:47:32.572062 18120 net.cpp:157] Top shape: 16 1024 14 14 (3211264)
I0318 13:47:32.572082 18120 net.cpp:157] Top shape: 16 1024 14 14 (3211264)
I0318 13:47:32.572099 18120 net.cpp:165] Memory required for data: 7029589952
I0318 13:47:32.572118 18120 layer_factory.hpp:77] Creating layer id_res4e_branch2a
I0318 13:47:32.572144 18120 net.cpp:106] Creating Layer id_res4e_branch2a
I0318 13:47:32.572165 18120 net.cpp:454] id_res4e_branch2a <- id_res4d_id_res4d_relu_0_split_0
I0318 13:47:32.572206 18120 net.cpp:411] id_res4e_branch2a -> id_res4e_branch2a
I0318 13:47:32.574092 18120 net.cpp:150] Setting up id_res4e_branch2a
I0318 13:47:32.574136 18120 net.cpp:157] Top shape: 16 256 14 14 (802816)
I0318 13:47:32.574156 18120 net.cpp:165] Memory required for data: 7032801216
I0318 13:47:32.574179 18120 layer_factory.hpp:77] Creating layer id_bn4e_branch2a
I0318 13:47:32.574205 18120 net.cpp:106] Creating Layer id_bn4e_branch2a
I0318 13:47:32.574226 18120 net.cpp:454] id_bn4e_branch2a <- id_res4e_branch2a
I0318 13:47:32.574249 18120 net.cpp:397] id_bn4e_branch2a -> id_res4e_branch2a (in-place)
I0318 13:47:32.574705 18120 net.cpp:150] Setting up id_bn4e_branch2a
I0318 13:47:32.574738 18120 net.cpp:157] Top shape: 16 256 14 14 (802816)
I0318 13:47:32.574756 18120 net.cpp:165] Memory required for data: 7036012480
I0318 13:47:32.574786 18120 layer_factory.hpp:77] Creating layer id_scale4e_branch2a
I0318 13:47:32.574817 18120 net.cpp:106] Creating Layer id_scale4e_branch2a
I0318 13:47:32.574838 18120 net.cpp:454] id_scale4e_branch2a <- id_res4e_branch2a
I0318 13:47:32.574862 18120 net.cpp:397] id_scale4e_branch2a -> id_res4e_branch2a (in-place)
I0318 13:47:32.574981 18120 layer_factory.hpp:77] Creating layer id_scale4e_branch2a
I0318 13:47:32.575268 18120 net.cpp:150] Setting up id_scale4e_branch2a
I0318 13:47:32.575300 18120 net.cpp:157] Top shape: 16 256 14 14 (802816)
I0318 13:47:32.575320 18120 net.cpp:165] Memory required for data: 7039223744
I0318 13:47:32.575345 18120 layer_factory.hpp:77] Creating layer id_res4e_branch2a_relu
I0318 13:47:32.575368 18120 net.cpp:106] Creating Layer id_res4e_branch2a_relu
I0318 13:47:32.575388 18120 net.cpp:454] id_res4e_branch2a_relu <- id_res4e_branch2a
I0318 13:47:32.575417 18120 net.cpp:397] id_res4e_branch2a_relu -> id_res4e_branch2a (in-place)
I0318 13:47:32.575444 18120 net.cpp:150] Setting up id_res4e_branch2a_relu
I0318 13:47:32.575467 18120 net.cpp:157] Top shape: 16 256 14 14 (802816)
I0318 13:47:32.575485 18120 net.cpp:165] Memory required for data: 7042435008
I0318 13:47:32.575503 18120 layer_factory.hpp:77] Creating layer id_res4e_branch2b
I0318 13:47:32.575534 18120 net.cpp:106] Creating Layer id_res4e_branch2b
I0318 13:47:32.575567 18120 net.cpp:454] id_res4e_branch2b <- id_res4e_branch2a
I0318 13:47:32.575613 18120 net.cpp:411] id_res4e_branch2b -> id_res4e_branch2b
I0318 13:47:32.578907 18120 net.cpp:150] Setting up id_res4e_branch2b
I0318 13:47:32.578951 18120 net.cpp:157] Top shape: 16 256 14 14 (802816)
I0318 13:47:32.578971 18120 net.cpp:165] Memory required for data: 7045646272
I0318 13:47:32.578995 18120 layer_factory.hpp:77] Creating layer id_bn4e_branch2b
I0318 13:47:32.579027 18120 net.cpp:106] Creating Layer id_bn4e_branch2b
I0318 13:47:32.579049 18120 net.cpp:454] id_bn4e_branch2b <- id_res4e_branch2b
I0318 13:47:32.579072 18120 net.cpp:397] id_bn4e_branch2b -> id_res4e_branch2b (in-place)
I0318 13:47:32.579525 18120 net.cpp:150] Setting up id_bn4e_branch2b
I0318 13:47:32.579560 18120 net.cpp:157] Top shape: 16 256 14 14 (802816)
I0318 13:47:32.579577 18120 net.cpp:165] Memory required for data: 7048857536
I0318 13:47:32.579607 18120 layer_factory.hpp:77] Creating layer id_scale4e_branch2b
I0318 13:47:32.579633 18120 net.cpp:106] Creating Layer id_scale4e_branch2b
I0318 13:47:32.579653 18120 net.cpp:454] id_scale4e_branch2b <- id_res4e_branch2b
I0318 13:47:32.579682 18120 net.cpp:397] id_scale4e_branch2b -> id_res4e_branch2b (in-place)
I0318 13:47:32.579793 18120 layer_factory.hpp:77] Creating layer id_scale4e_branch2b
I0318 13:47:32.580087 18120 net.cpp:150] Setting up id_scale4e_branch2b
I0318 13:47:32.580121 18120 net.cpp:157] Top shape: 16 256 14 14 (802816)
I0318 13:47:32.580139 18120 net.cpp:165] Memory required for data: 7052068800
I0318 13:47:32.580165 18120 layer_factory.hpp:77] Creating layer id_res4e_branch2b_relu
I0318 13:47:32.580199 18120 net.cpp:106] Creating Layer id_res4e_branch2b_relu
I0318 13:47:32.580220 18120 net.cpp:454] id_res4e_branch2b_relu <- id_res4e_branch2b
I0318 13:47:32.580245 18120 net.cpp:397] id_res4e_branch2b_relu -> id_res4e_branch2b (in-place)
I0318 13:47:32.580271 18120 net.cpp:150] Setting up id_res4e_branch2b_relu
I0318 13:47:32.580293 18120 net.cpp:157] Top shape: 16 256 14 14 (802816)
I0318 13:47:32.580312 18120 net.cpp:165] Memory required for data: 7055280064
I0318 13:47:32.580329 18120 layer_factory.hpp:77] Creating layer id_res4e_branch2c
I0318 13:47:32.580360 18120 net.cpp:106] Creating Layer id_res4e_branch2c
I0318 13:47:32.580381 18120 net.cpp:454] id_res4e_branch2c <- id_res4e_branch2b
I0318 13:47:32.580406 18120 net.cpp:411] id_res4e_branch2c -> id_res4e_branch2c
I0318 13:47:32.582298 18120 net.cpp:150] Setting up id_res4e_branch2c
I0318 13:47:32.582342 18120 net.cpp:157] Top shape: 16 1024 14 14 (3211264)
I0318 13:47:32.582361 18120 net.cpp:165] Memory required for data: 7068125120
I0318 13:47:32.582386 18120 layer_factory.hpp:77] Creating layer id_bn4e_branch2c
I0318 13:47:32.582411 18120 net.cpp:106] Creating Layer id_bn4e_branch2c
I0318 13:47:32.582432 18120 net.cpp:454] id_bn4e_branch2c <- id_res4e_branch2c
I0318 13:47:32.582454 18120 net.cpp:397] id_bn4e_branch2c -> id_res4e_branch2c (in-place)
I0318 13:47:32.582943 18120 net.cpp:150] Setting up id_bn4e_branch2c
I0318 13:47:32.582978 18120 net.cpp:157] Top shape: 16 1024 14 14 (3211264)
I0318 13:47:32.582996 18120 net.cpp:165] Memory required for data: 7080970176
I0318 13:47:32.583026 18120 layer_factory.hpp:77] Creating layer id_scale4e_branch2c
I0318 13:47:32.583052 18120 net.cpp:106] Creating Layer id_scale4e_branch2c
I0318 13:47:32.583073 18120 net.cpp:454] id_scale4e_branch2c <- id_res4e_branch2c
I0318 13:47:32.583096 18120 net.cpp:397] id_scale4e_branch2c -> id_res4e_branch2c (in-place)
I0318 13:47:32.583220 18120 layer_factory.hpp:77] Creating layer id_scale4e_branch2c
I0318 13:47:32.583533 18120 net.cpp:150] Setting up id_scale4e_branch2c
I0318 13:47:32.583566 18120 net.cpp:157] Top shape: 16 1024 14 14 (3211264)
I0318 13:47:32.583585 18120 net.cpp:165] Memory required for data: 7093815232
I0318 13:47:32.583611 18120 layer_factory.hpp:77] Creating layer id_res4e
I0318 13:47:32.583640 18120 net.cpp:106] Creating Layer id_res4e
I0318 13:47:32.583662 18120 net.cpp:454] id_res4e <- id_res4d_id_res4d_relu_0_split_1
I0318 13:47:32.583696 18120 net.cpp:454] id_res4e <- id_res4e_branch2c
I0318 13:47:32.583740 18120 net.cpp:411] id_res4e -> id_res4e
I0318 13:47:32.583827 18120 net.cpp:150] Setting up id_res4e
I0318 13:47:32.583858 18120 net.cpp:157] Top shape: 16 1024 14 14 (3211264)
I0318 13:47:32.583876 18120 net.cpp:165] Memory required for data: 7106660288
I0318 13:47:32.583894 18120 layer_factory.hpp:77] Creating layer id_res4e_relu
I0318 13:47:32.583917 18120 net.cpp:106] Creating Layer id_res4e_relu
I0318 13:47:32.583937 18120 net.cpp:454] id_res4e_relu <- id_res4e
I0318 13:47:32.583966 18120 net.cpp:397] id_res4e_relu -> id_res4e (in-place)
I0318 13:47:32.583993 18120 net.cpp:150] Setting up id_res4e_relu
I0318 13:47:32.584017 18120 net.cpp:157] Top shape: 16 1024 14 14 (3211264)
I0318 13:47:32.584033 18120 net.cpp:165] Memory required for data: 7119505344
I0318 13:47:32.584051 18120 layer_factory.hpp:77] Creating layer id_res4e_id_res4e_relu_0_split
I0318 13:47:32.584074 18120 net.cpp:106] Creating Layer id_res4e_id_res4e_relu_0_split
I0318 13:47:32.584091 18120 net.cpp:454] id_res4e_id_res4e_relu_0_split <- id_res4e
I0318 13:47:32.584115 18120 net.cpp:411] id_res4e_id_res4e_relu_0_split -> id_res4e_id_res4e_relu_0_split_0
I0318 13:47:32.584141 18120 net.cpp:411] id_res4e_id_res4e_relu_0_split -> id_res4e_id_res4e_relu_0_split_1
I0318 13:47:32.584244 18120 net.cpp:150] Setting up id_res4e_id_res4e_relu_0_split
I0318 13:47:32.584273 18120 net.cpp:157] Top shape: 16 1024 14 14 (3211264)
I0318 13:47:32.584295 18120 net.cpp:157] Top shape: 16 1024 14 14 (3211264)
I0318 13:47:32.584311 18120 net.cpp:165] Memory required for data: 7145195456
I0318 13:47:32.584329 18120 layer_factory.hpp:77] Creating layer id_res4f_branch2a
I0318 13:47:32.584357 18120 net.cpp:106] Creating Layer id_res4f_branch2a
I0318 13:47:32.584377 18120 net.cpp:454] id_res4f_branch2a <- id_res4e_id_res4e_relu_0_split_0
I0318 13:47:32.584405 18120 net.cpp:411] id_res4f_branch2a -> id_res4f_branch2a
I0318 13:47:32.586293 18120 net.cpp:150] Setting up id_res4f_branch2a
I0318 13:47:32.586338 18120 net.cpp:157] Top shape: 16 256 14 14 (802816)
I0318 13:47:32.586356 18120 net.cpp:165] Memory required for data: 7148406720
I0318 13:47:32.586380 18120 layer_factory.hpp:77] Creating layer id_bn4f_branch2a
I0318 13:47:32.586406 18120 net.cpp:106] Creating Layer id_bn4f_branch2a
I0318 13:47:32.586427 18120 net.cpp:454] id_bn4f_branch2a <- id_res4f_branch2a
I0318 13:47:32.586452 18120 net.cpp:397] id_bn4f_branch2a -> id_res4f_branch2a (in-place)
I0318 13:47:32.586923 18120 net.cpp:150] Setting up id_bn4f_branch2a
I0318 13:47:32.586956 18120 net.cpp:157] Top shape: 16 256 14 14 (802816)
I0318 13:47:32.586976 18120 net.cpp:165] Memory required for data: 7151617984
I0318 13:47:32.587005 18120 layer_factory.hpp:77] Creating layer id_scale4f_branch2a
I0318 13:47:32.587038 18120 net.cpp:106] Creating Layer id_scale4f_branch2a
I0318 13:47:32.587059 18120 net.cpp:454] id_scale4f_branch2a <- id_res4f_branch2a
I0318 13:47:32.587082 18120 net.cpp:397] id_scale4f_branch2a -> id_res4f_branch2a (in-place)
I0318 13:47:32.587203 18120 layer_factory.hpp:77] Creating layer id_scale4f_branch2a
I0318 13:47:32.587494 18120 net.cpp:150] Setting up id_scale4f_branch2a
I0318 13:47:32.587527 18120 net.cpp:157] Top shape: 16 256 14 14 (802816)
I0318 13:47:32.587545 18120 net.cpp:165] Memory required for data: 7154829248
I0318 13:47:32.587571 18120 layer_factory.hpp:77] Creating layer id_res4f_branch2a_relu
I0318 13:47:32.587594 18120 net.cpp:106] Creating Layer id_res4f_branch2a_relu
I0318 13:47:32.587615 18120 net.cpp:454] id_res4f_branch2a_relu <- id_res4f_branch2a
I0318 13:47:32.587642 18120 net.cpp:397] id_res4f_branch2a_relu -> id_res4f_branch2a (in-place)
I0318 13:47:32.587669 18120 net.cpp:150] Setting up id_res4f_branch2a_relu
I0318 13:47:32.587692 18120 net.cpp:157] Top shape: 16 256 14 14 (802816)
I0318 13:47:32.587709 18120 net.cpp:165] Memory required for data: 7158040512
I0318 13:47:32.587728 18120 layer_factory.hpp:77] Creating layer id_res4f_branch2b
I0318 13:47:32.587760 18120 net.cpp:106] Creating Layer id_res4f_branch2b
I0318 13:47:32.587811 18120 net.cpp:454] id_res4f_branch2b <- id_res4f_branch2a
I0318 13:47:32.587839 18120 net.cpp:411] id_res4f_branch2b -> id_res4f_branch2b
I0318 13:47:32.591152 18120 net.cpp:150] Setting up id_res4f_branch2b
I0318 13:47:32.591197 18120 net.cpp:157] Top shape: 16 256 14 14 (802816)
I0318 13:47:32.591217 18120 net.cpp:165] Memory required for data: 7161251776
I0318 13:47:32.591240 18120 layer_factory.hpp:77] Creating layer id_bn4f_branch2b
I0318 13:47:32.591272 18120 net.cpp:106] Creating Layer id_bn4f_branch2b
I0318 13:47:32.591295 18120 net.cpp:454] id_bn4f_branch2b <- id_res4f_branch2b
I0318 13:47:32.591318 18120 net.cpp:397] id_bn4f_branch2b -> id_res4f_branch2b (in-place)
I0318 13:47:32.591780 18120 net.cpp:150] Setting up id_bn4f_branch2b
I0318 13:47:32.591814 18120 net.cpp:157] Top shape: 16 256 14 14 (802816)
I0318 13:47:32.591831 18120 net.cpp:165] Memory required for data: 7164463040
I0318 13:47:32.591862 18120 layer_factory.hpp:77] Creating layer id_scale4f_branch2b
I0318 13:47:32.591887 18120 net.cpp:106] Creating Layer id_scale4f_branch2b
I0318 13:47:32.591907 18120 net.cpp:454] id_scale4f_branch2b <- id_res4f_branch2b
I0318 13:47:32.591936 18120 net.cpp:397] id_scale4f_branch2b -> id_res4f_branch2b (in-place)
I0318 13:47:32.592049 18120 layer_factory.hpp:77] Creating layer id_scale4f_branch2b
I0318 13:47:32.592342 18120 net.cpp:150] Setting up id_scale4f_branch2b
I0318 13:47:32.592376 18120 net.cpp:157] Top shape: 16 256 14 14 (802816)
I0318 13:47:32.592394 18120 net.cpp:165] Memory required for data: 7167674304
I0318 13:47:32.592419 18120 layer_factory.hpp:77] Creating layer id_res4f_branch2b_relu
I0318 13:47:32.592449 18120 net.cpp:106] Creating Layer id_res4f_branch2b_relu
I0318 13:47:32.592470 18120 net.cpp:454] id_res4f_branch2b_relu <- id_res4f_branch2b
I0318 13:47:32.592492 18120 net.cpp:397] id_res4f_branch2b_relu -> id_res4f_branch2b (in-place)
I0318 13:47:32.592519 18120 net.cpp:150] Setting up id_res4f_branch2b_relu
I0318 13:47:32.592540 18120 net.cpp:157] Top shape: 16 256 14 14 (802816)
I0318 13:47:32.592557 18120 net.cpp:165] Memory required for data: 7170885568
I0318 13:47:32.592576 18120 layer_factory.hpp:77] Creating layer id_res4f_branch2c
I0318 13:47:32.592607 18120 net.cpp:106] Creating Layer id_res4f_branch2c
I0318 13:47:32.592641 18120 net.cpp:454] id_res4f_branch2c <- id_res4f_branch2b
I0318 13:47:32.592666 18120 net.cpp:411] id_res4f_branch2c -> id_res4f_branch2c
I0318 13:47:32.594563 18120 net.cpp:150] Setting up id_res4f_branch2c
I0318 13:47:32.594605 18120 net.cpp:157] Top shape: 16 1024 14 14 (3211264)
I0318 13:47:32.594624 18120 net.cpp:165] Memory required for data: 7183730624
I0318 13:47:32.594648 18120 layer_factory.hpp:77] Creating layer id_bn4f_branch2c
I0318 13:47:32.594674 18120 net.cpp:106] Creating Layer id_bn4f_branch2c
I0318 13:47:32.594694 18120 net.cpp:454] id_bn4f_branch2c <- id_res4f_branch2c
I0318 13:47:32.594717 18120 net.cpp:397] id_bn4f_branch2c -> id_res4f_branch2c (in-place)
I0318 13:47:32.595211 18120 net.cpp:150] Setting up id_bn4f_branch2c
I0318 13:47:32.595245 18120 net.cpp:157] Top shape: 16 1024 14 14 (3211264)
I0318 13:47:32.595264 18120 net.cpp:165] Memory required for data: 7196575680
I0318 13:47:32.595294 18120 layer_factory.hpp:77] Creating layer id_scale4f_branch2c
I0318 13:47:32.595320 18120 net.cpp:106] Creating Layer id_scale4f_branch2c
I0318 13:47:32.595340 18120 net.cpp:454] id_scale4f_branch2c <- id_res4f_branch2c
I0318 13:47:32.595362 18120 net.cpp:397] id_scale4f_branch2c -> id_res4f_branch2c (in-place)
I0318 13:47:32.595489 18120 layer_factory.hpp:77] Creating layer id_scale4f_branch2c
I0318 13:47:32.595808 18120 net.cpp:150] Setting up id_scale4f_branch2c
I0318 13:47:32.595842 18120 net.cpp:157] Top shape: 16 1024 14 14 (3211264)
I0318 13:47:32.595860 18120 net.cpp:165] Memory required for data: 7209420736
I0318 13:47:32.595885 18120 layer_factory.hpp:77] Creating layer id_res4f
I0318 13:47:32.595918 18120 net.cpp:106] Creating Layer id_res4f
I0318 13:47:32.595940 18120 net.cpp:454] id_res4f <- id_res4e_id_res4e_relu_0_split_1
I0318 13:47:32.595990 18120 net.cpp:454] id_res4f <- id_res4f_branch2c
I0318 13:47:32.596017 18120 net.cpp:411] id_res4f -> id_res4f
I0318 13:47:32.596099 18120 net.cpp:150] Setting up id_res4f
I0318 13:47:32.596132 18120 net.cpp:157] Top shape: 16 1024 14 14 (3211264)
I0318 13:47:32.596149 18120 net.cpp:165] Memory required for data: 7222265792
I0318 13:47:32.596168 18120 layer_factory.hpp:77] Creating layer id_res4f_relu
I0318 13:47:32.596190 18120 net.cpp:106] Creating Layer id_res4f_relu
I0318 13:47:32.596210 18120 net.cpp:454] id_res4f_relu <- id_res4f
I0318 13:47:32.596237 18120 net.cpp:397] id_res4f_relu -> id_res4f (in-place)
I0318 13:47:32.596264 18120 net.cpp:150] Setting up id_res4f_relu
I0318 13:47:32.596287 18120 net.cpp:157] Top shape: 16 1024 14 14 (3211264)
I0318 13:47:32.596304 18120 net.cpp:165] Memory required for data: 7235110848
I0318 13:47:32.596323 18120 layer_factory.hpp:77] Creating layer concat_R4
I0318 13:47:32.596359 18120 net.cpp:106] Creating Layer concat_R4
I0318 13:47:32.596380 18120 net.cpp:454] concat_R4 <- res4f_res4f_relu_0_split_2
I0318 13:47:32.596400 18120 net.cpp:454] concat_R4 <- id_res4f
I0318 13:47:32.596426 18120 net.cpp:411] concat_R4 -> concat_R4
I0318 13:47:32.596516 18120 net.cpp:150] Setting up concat_R4
I0318 13:47:32.596549 18120 net.cpp:157] Top shape: 16 2048 14 14 (6422528)
I0318 13:47:32.596566 18120 net.cpp:165] Memory required for data: 7260800960
I0318 13:47:32.596585 18120 layer_factory.hpp:77] Creating layer conv_R4
I0318 13:47:32.596633 18120 net.cpp:106] Creating Layer conv_R4
I0318 13:47:32.596660 18120 net.cpp:454] conv_R4 <- concat_R4
I0318 13:47:32.596688 18120 net.cpp:411] conv_R4 -> id_R4_res4f
I0318 13:47:32.759073 18120 net.cpp:150] Setting up conv_R4
I0318 13:47:32.759130 18120 net.cpp:157] Top shape: 16 1024 14 14 (3211264)
I0318 13:47:32.759150 18120 net.cpp:165] Memory required for data: 7273646016
I0318 13:47:32.759179 18120 layer_factory.hpp:77] Creating layer id_R4_res4f_conv_R4_0_split
I0318 13:47:32.759207 18120 net.cpp:106] Creating Layer id_R4_res4f_conv_R4_0_split
I0318 13:47:32.759228 18120 net.cpp:454] id_R4_res4f_conv_R4_0_split <- id_R4_res4f
I0318 13:47:32.759254 18120 net.cpp:411] id_R4_res4f_conv_R4_0_split -> id_R4_res4f_conv_R4_0_split_0
I0318 13:47:32.759282 18120 net.cpp:411] id_R4_res4f_conv_R4_0_split -> id_R4_res4f_conv_R4_0_split_1
I0318 13:47:32.759399 18120 net.cpp:150] Setting up id_R4_res4f_conv_R4_0_split
I0318 13:47:32.759430 18120 net.cpp:157] Top shape: 16 1024 14 14 (3211264)
I0318 13:47:32.759451 18120 net.cpp:157] Top shape: 16 1024 14 14 (3211264)
I0318 13:47:32.759469 18120 net.cpp:165] Memory required for data: 7299336128
I0318 13:47:32.759487 18120 layer_factory.hpp:77] Creating layer id_res5a_branch1
I0318 13:47:32.759519 18120 net.cpp:106] Creating Layer id_res5a_branch1
I0318 13:47:32.759541 18120 net.cpp:454] id_res5a_branch1 <- id_R4_res4f_conv_R4_0_split_0
I0318 13:47:32.759567 18120 net.cpp:411] id_res5a_branch1 -> id_res5a_branch1
I0318 13:47:32.769515 18120 net.cpp:150] Setting up id_res5a_branch1
I0318 13:47:32.769565 18120 net.cpp:157] Top shape: 16 2048 7 7 (1605632)
I0318 13:47:32.769585 18120 net.cpp:165] Memory required for data: 7305758656
I0318 13:47:32.769610 18120 layer_factory.hpp:77] Creating layer id_bn5a_branch1
I0318 13:47:32.769639 18120 net.cpp:106] Creating Layer id_bn5a_branch1
I0318 13:47:32.769659 18120 net.cpp:454] id_bn5a_branch1 <- id_res5a_branch1
I0318 13:47:32.769683 18120 net.cpp:397] id_bn5a_branch1 -> id_res5a_branch1 (in-place)
I0318 13:47:32.770218 18120 net.cpp:150] Setting up id_bn5a_branch1
I0318 13:47:32.770252 18120 net.cpp:157] Top shape: 16 2048 7 7 (1605632)
I0318 13:47:32.770272 18120 net.cpp:165] Memory required for data: 7312181184
I0318 13:47:32.770301 18120 layer_factory.hpp:77] Creating layer id_scale5a_branch1
I0318 13:47:32.770328 18120 net.cpp:106] Creating Layer id_scale5a_branch1
I0318 13:47:32.770349 18120 net.cpp:454] id_scale5a_branch1 <- id_res5a_branch1
I0318 13:47:32.770372 18120 net.cpp:397] id_scale5a_branch1 -> id_res5a_branch1 (in-place)
I0318 13:47:32.770555 18120 layer_factory.hpp:77] Creating layer id_scale5a_branch1
I0318 13:47:32.770901 18120 net.cpp:150] Setting up id_scale5a_branch1
I0318 13:47:32.770936 18120 net.cpp:157] Top shape: 16 2048 7 7 (1605632)
I0318 13:47:32.770954 18120 net.cpp:165] Memory required for data: 7318603712
I0318 13:47:32.770982 18120 layer_factory.hpp:77] Creating layer id_res5a_branch2a
I0318 13:47:32.771016 18120 net.cpp:106] Creating Layer id_res5a_branch2a
I0318 13:47:32.771039 18120 net.cpp:454] id_res5a_branch2a <- id_R4_res4f_conv_R4_0_split_1
I0318 13:47:32.771066 18120 net.cpp:411] id_res5a_branch2a -> id_res5a_branch2a
I0318 13:47:32.773237 18120 net.cpp:150] Setting up id_res5a_branch2a
I0318 13:47:32.773264 18120 net.cpp:157] Top shape: 16 512 7 7 (401408)
I0318 13:47:32.773277 18120 net.cpp:165] Memory required for data: 7320209344
I0318 13:47:32.773310 18120 layer_factory.hpp:77] Creating layer id_bn5a_branch2a
I0318 13:47:32.773344 18120 net.cpp:106] Creating Layer id_bn5a_branch2a
I0318 13:47:32.773366 18120 net.cpp:454] id_bn5a_branch2a <- id_res5a_branch2a
I0318 13:47:32.773391 18120 net.cpp:397] id_bn5a_branch2a -> id_res5a_branch2a (in-place)
I0318 13:47:32.773895 18120 net.cpp:150] Setting up id_bn5a_branch2a
I0318 13:47:32.773929 18120 net.cpp:157] Top shape: 16 512 7 7 (401408)
I0318 13:47:32.773948 18120 net.cpp:165] Memory required for data: 7321814976
I0318 13:47:32.773979 18120 layer_factory.hpp:77] Creating layer id_scale5a_branch2a
I0318 13:47:32.774005 18120 net.cpp:106] Creating Layer id_scale5a_branch2a
I0318 13:47:32.774026 18120 net.cpp:454] id_scale5a_branch2a <- id_res5a_branch2a
I0318 13:47:32.774055 18120 net.cpp:397] id_scale5a_branch2a -> id_res5a_branch2a (in-place)
I0318 13:47:32.774173 18120 layer_factory.hpp:77] Creating layer id_scale5a_branch2a
I0318 13:47:32.774488 18120 net.cpp:150] Setting up id_scale5a_branch2a
I0318 13:47:32.774528 18120 net.cpp:157] Top shape: 16 512 7 7 (401408)
I0318 13:47:32.774547 18120 net.cpp:165] Memory required for data: 7323420608
I0318 13:47:32.774574 18120 layer_factory.hpp:77] Creating layer id_res5a_branch2a_relu
I0318 13:47:32.774598 18120 net.cpp:106] Creating Layer id_res5a_branch2a_relu
I0318 13:47:32.774618 18120 net.cpp:454] id_res5a_branch2a_relu <- id_res5a_branch2a
I0318 13:47:32.774641 18120 net.cpp:397] id_res5a_branch2a_relu -> id_res5a_branch2a (in-place)
I0318 13:47:32.774667 18120 net.cpp:150] Setting up id_res5a_branch2a_relu
I0318 13:47:32.774689 18120 net.cpp:157] Top shape: 16 512 7 7 (401408)
I0318 13:47:32.774708 18120 net.cpp:165] Memory required for data: 7325026240
I0318 13:47:32.774724 18120 layer_factory.hpp:77] Creating layer id_res5a_branch2b
I0318 13:47:32.774757 18120 net.cpp:106] Creating Layer id_res5a_branch2b
I0318 13:47:32.774777 18120 net.cpp:454] id_res5a_branch2b <- id_res5a_branch2a
I0318 13:47:32.774802 18120 net.cpp:411] id_res5a_branch2b -> id_res5a_branch2b
I0318 13:47:32.785972 18120 net.cpp:150] Setting up id_res5a_branch2b
I0318 13:47:32.786026 18120 net.cpp:157] Top shape: 16 512 7 7 (401408)
I0318 13:47:32.786046 18120 net.cpp:165] Memory required for data: 7326631872
I0318 13:47:32.786070 18120 layer_factory.hpp:77] Creating layer id_bn5a_branch2b
I0318 13:47:32.786095 18120 net.cpp:106] Creating Layer id_bn5a_branch2b
I0318 13:47:32.786116 18120 net.cpp:454] id_bn5a_branch2b <- id_res5a_branch2b
I0318 13:47:32.786145 18120 net.cpp:397] id_bn5a_branch2b -> id_res5a_branch2b (in-place)
I0318 13:47:32.786654 18120 net.cpp:150] Setting up id_bn5a_branch2b
I0318 13:47:32.786689 18120 net.cpp:157] Top shape: 16 512 7 7 (401408)
I0318 13:47:32.786707 18120 net.cpp:165] Memory required for data: 7328237504
I0318 13:47:32.786738 18120 layer_factory.hpp:77] Creating layer id_scale5a_branch2b
I0318 13:47:32.786764 18120 net.cpp:106] Creating Layer id_scale5a_branch2b
I0318 13:47:32.786785 18120 net.cpp:454] id_scale5a_branch2b <- id_res5a_branch2b
I0318 13:47:32.786808 18120 net.cpp:397] id_scale5a_branch2b -> id_res5a_branch2b (in-place)
I0318 13:47:32.786948 18120 layer_factory.hpp:77] Creating layer id_scale5a_branch2b
I0318 13:47:32.787288 18120 net.cpp:150] Setting up id_scale5a_branch2b
I0318 13:47:32.787323 18120 net.cpp:157] Top shape: 16 512 7 7 (401408)
I0318 13:47:32.787341 18120 net.cpp:165] Memory required for data: 7329843136
I0318 13:47:32.787367 18120 layer_factory.hpp:77] Creating layer id_res5a_branch2b_relu
I0318 13:47:32.787390 18120 net.cpp:106] Creating Layer id_res5a_branch2b_relu
I0318 13:47:32.787410 18120 net.cpp:454] id_res5a_branch2b_relu <- id_res5a_branch2b
I0318 13:47:32.787438 18120 net.cpp:397] id_res5a_branch2b_relu -> id_res5a_branch2b (in-place)
I0318 13:47:32.787466 18120 net.cpp:150] Setting up id_res5a_branch2b_relu
I0318 13:47:32.787488 18120 net.cpp:157] Top shape: 16 512 7 7 (401408)
I0318 13:47:32.787505 18120 net.cpp:165] Memory required for data: 7331448768
I0318 13:47:32.787523 18120 layer_factory.hpp:77] Creating layer id_res5a_branch2c
I0318 13:47:32.787550 18120 net.cpp:106] Creating Layer id_res5a_branch2c
I0318 13:47:32.787569 18120 net.cpp:454] id_res5a_branch2c <- id_res5a_branch2b
I0318 13:47:32.787598 18120 net.cpp:411] id_res5a_branch2c -> id_res5a_branch2c
I0318 13:47:32.792946 18120 net.cpp:150] Setting up id_res5a_branch2c
I0318 13:47:32.792990 18120 net.cpp:157] Top shape: 16 2048 7 7 (1605632)
I0318 13:47:32.793010 18120 net.cpp:165] Memory required for data: 7337871296
I0318 13:47:32.793035 18120 layer_factory.hpp:77] Creating layer id_bn5a_branch2c
I0318 13:47:32.793061 18120 net.cpp:106] Creating Layer id_bn5a_branch2c
I0318 13:47:32.793081 18120 net.cpp:454] id_bn5a_branch2c <- id_res5a_branch2c
I0318 13:47:32.793103 18120 net.cpp:397] id_bn5a_branch2c -> id_res5a_branch2c (in-place)
I0318 13:47:32.793637 18120 net.cpp:150] Setting up id_bn5a_branch2c
I0318 13:47:32.793655 18120 net.cpp:157] Top shape: 16 2048 7 7 (1605632)
I0318 13:47:32.793665 18120 net.cpp:165] Memory required for data: 7344293824
I0318 13:47:32.793681 18120 layer_factory.hpp:77] Creating layer id_scale5a_branch2c
I0318 13:47:32.793699 18120 net.cpp:106] Creating Layer id_scale5a_branch2c
I0318 13:47:32.793710 18120 net.cpp:454] id_scale5a_branch2c <- id_res5a_branch2c
I0318 13:47:32.793723 18120 net.cpp:397] id_scale5a_branch2c -> id_res5a_branch2c (in-place)
I0318 13:47:32.793790 18120 layer_factory.hpp:77] Creating layer id_scale5a_branch2c
I0318 13:47:32.793964 18120 net.cpp:150] Setting up id_scale5a_branch2c
I0318 13:47:32.793982 18120 net.cpp:157] Top shape: 16 2048 7 7 (1605632)
I0318 13:47:32.793990 18120 net.cpp:165] Memory required for data: 7350716352
I0318 13:47:32.794003 18120 layer_factory.hpp:77] Creating layer id_res5a
I0318 13:47:32.794016 18120 net.cpp:106] Creating Layer id_res5a
I0318 13:47:32.794026 18120 net.cpp:454] id_res5a <- id_res5a_branch1
I0318 13:47:32.794037 18120 net.cpp:454] id_res5a <- id_res5a_branch2c
I0318 13:47:32.794051 18120 net.cpp:411] id_res5a -> id_res5a
I0318 13:47:32.794095 18120 net.cpp:150] Setting up id_res5a
I0318 13:47:32.794111 18120 net.cpp:157] Top shape: 16 2048 7 7 (1605632)
I0318 13:47:32.794119 18120 net.cpp:165] Memory required for data: 7357138880
I0318 13:47:32.794128 18120 layer_factory.hpp:77] Creating layer id_res5a_relu
I0318 13:47:32.794140 18120 net.cpp:106] Creating Layer id_res5a_relu
I0318 13:47:32.794149 18120 net.cpp:454] id_res5a_relu <- id_res5a
I0318 13:47:32.794160 18120 net.cpp:397] id_res5a_relu -> id_res5a (in-place)
I0318 13:47:32.794173 18120 net.cpp:150] Setting up id_res5a_relu
I0318 13:47:32.794183 18120 net.cpp:157] Top shape: 16 2048 7 7 (1605632)
I0318 13:47:32.794191 18120 net.cpp:165] Memory required for data: 7363561408
I0318 13:47:32.794199 18120 layer_factory.hpp:77] Creating layer id_res5a_id_res5a_relu_0_split
I0318 13:47:32.794211 18120 net.cpp:106] Creating Layer id_res5a_id_res5a_relu_0_split
I0318 13:47:32.794219 18120 net.cpp:454] id_res5a_id_res5a_relu_0_split <- id_res5a
I0318 13:47:32.794234 18120 net.cpp:411] id_res5a_id_res5a_relu_0_split -> id_res5a_id_res5a_relu_0_split_0
I0318 13:47:32.794246 18120 net.cpp:411] id_res5a_id_res5a_relu_0_split -> id_res5a_id_res5a_relu_0_split_1
I0318 13:47:32.794314 18120 net.cpp:150] Setting up id_res5a_id_res5a_relu_0_split
I0318 13:47:32.794329 18120 net.cpp:157] Top shape: 16 2048 7 7 (1605632)
I0318 13:47:32.794339 18120 net.cpp:157] Top shape: 16 2048 7 7 (1605632)
I0318 13:47:32.794348 18120 net.cpp:165] Memory required for data: 7376406464
I0318 13:47:32.794356 18120 layer_factory.hpp:77] Creating layer id_res5b_branch2a
I0318 13:47:32.794369 18120 net.cpp:106] Creating Layer id_res5b_branch2a
I0318 13:47:32.794379 18120 net.cpp:454] id_res5b_branch2a <- id_res5a_id_res5a_relu_0_split_0
I0318 13:47:32.794391 18120 net.cpp:411] id_res5b_branch2a -> id_res5b_branch2a
I0318 13:47:32.797201 18120 net.cpp:150] Setting up id_res5b_branch2a
I0318 13:47:32.797224 18120 net.cpp:157] Top shape: 16 512 7 7 (401408)
I0318 13:47:32.797233 18120 net.cpp:165] Memory required for data: 7378012096
I0318 13:47:32.797245 18120 layer_factory.hpp:77] Creating layer id_bn5b_branch2a
I0318 13:47:32.797263 18120 net.cpp:106] Creating Layer id_bn5b_branch2a
I0318 13:47:32.797274 18120 net.cpp:454] id_bn5b_branch2a <- id_res5b_branch2a
I0318 13:47:32.797286 18120 net.cpp:397] id_bn5b_branch2a -> id_res5b_branch2a (in-place)
I0318 13:47:32.797526 18120 net.cpp:150] Setting up id_bn5b_branch2a
I0318 13:47:32.797543 18120 net.cpp:157] Top shape: 16 512 7 7 (401408)
I0318 13:47:32.797551 18120 net.cpp:165] Memory required for data: 7379617728
I0318 13:47:32.797566 18120 layer_factory.hpp:77] Creating layer id_scale5b_branch2a
I0318 13:47:32.797580 18120 net.cpp:106] Creating Layer id_scale5b_branch2a
I0318 13:47:32.797590 18120 net.cpp:454] id_scale5b_branch2a <- id_res5b_branch2a
I0318 13:47:32.797603 18120 net.cpp:397] id_scale5b_branch2a -> id_res5b_branch2a (in-place)
I0318 13:47:32.797660 18120 layer_factory.hpp:77] Creating layer id_scale5b_branch2a
I0318 13:47:32.797816 18120 net.cpp:150] Setting up id_scale5b_branch2a
I0318 13:47:32.797835 18120 net.cpp:157] Top shape: 16 512 7 7 (401408)
I0318 13:47:32.797844 18120 net.cpp:165] Memory required for data: 7381223360
I0318 13:47:32.797857 18120 layer_factory.hpp:77] Creating layer id_res5b_branch2a_relu
I0318 13:47:32.797869 18120 net.cpp:106] Creating Layer id_res5b_branch2a_relu
I0318 13:47:32.797878 18120 net.cpp:454] id_res5b_branch2a_relu <- id_res5b_branch2a
I0318 13:47:32.797889 18120 net.cpp:397] id_res5b_branch2a_relu -> id_res5b_branch2a (in-place)
I0318 13:47:32.797902 18120 net.cpp:150] Setting up id_res5b_branch2a_relu
I0318 13:47:32.797912 18120 net.cpp:157] Top shape: 16 512 7 7 (401408)
I0318 13:47:32.797921 18120 net.cpp:165] Memory required for data: 7382828992
I0318 13:47:32.797930 18120 layer_factory.hpp:77] Creating layer id_res5b_branch2b
I0318 13:47:32.797946 18120 net.cpp:106] Creating Layer id_res5b_branch2b
I0318 13:47:32.797956 18120 net.cpp:454] id_res5b_branch2b <- id_res5b_branch2a
I0318 13:47:32.797967 18120 net.cpp:411] id_res5b_branch2b -> id_res5b_branch2b
I0318 13:47:32.803853 18120 net.cpp:150] Setting up id_res5b_branch2b
I0318 13:47:32.803876 18120 net.cpp:157] Top shape: 16 512 7 7 (401408)
I0318 13:47:32.803886 18120 net.cpp:165] Memory required for data: 7384434624
I0318 13:47:32.803899 18120 layer_factory.hpp:77] Creating layer id_bn5b_branch2b
I0318 13:47:32.803911 18120 net.cpp:106] Creating Layer id_bn5b_branch2b
I0318 13:47:32.803921 18120 net.cpp:454] id_bn5b_branch2b <- id_res5b_branch2b
I0318 13:47:32.803936 18120 net.cpp:397] id_bn5b_branch2b -> id_res5b_branch2b (in-place)
I0318 13:47:32.804183 18120 net.cpp:150] Setting up id_bn5b_branch2b
I0318 13:47:32.804199 18120 net.cpp:157] Top shape: 16 512 7 7 (401408)
I0318 13:47:32.804208 18120 net.cpp:165] Memory required for data: 7386040256
I0318 13:47:32.804224 18120 layer_factory.hpp:77] Creating layer id_scale5b_branch2b
I0318 13:47:32.804236 18120 net.cpp:106] Creating Layer id_scale5b_branch2b
I0318 13:47:32.804246 18120 net.cpp:454] id_scale5b_branch2b <- id_res5b_branch2b
I0318 13:47:32.804257 18120 net.cpp:397] id_scale5b_branch2b -> id_res5b_branch2b (in-place)
I0318 13:47:32.804327 18120 layer_factory.hpp:77] Creating layer id_scale5b_branch2b
I0318 13:47:32.804492 18120 net.cpp:150] Setting up id_scale5b_branch2b
I0318 13:47:32.804508 18120 net.cpp:157] Top shape: 16 512 7 7 (401408)
I0318 13:47:32.804517 18120 net.cpp:165] Memory required for data: 7387645888
I0318 13:47:32.804530 18120 layer_factory.hpp:77] Creating layer id_res5b_branch2b_relu
I0318 13:47:32.804543 18120 net.cpp:106] Creating Layer id_res5b_branch2b_relu
I0318 13:47:32.804553 18120 net.cpp:454] id_res5b_branch2b_relu <- id_res5b_branch2b
I0318 13:47:32.804565 18120 net.cpp:397] id_res5b_branch2b_relu -> id_res5b_branch2b (in-place)
I0318 13:47:32.804579 18120 net.cpp:150] Setting up id_res5b_branch2b_relu
I0318 13:47:32.804589 18120 net.cpp:157] Top shape: 16 512 7 7 (401408)
I0318 13:47:32.804599 18120 net.cpp:165] Memory required for data: 7389251520
I0318 13:47:32.804606 18120 layer_factory.hpp:77] Creating layer id_res5b_branch2c
I0318 13:47:32.804632 18120 net.cpp:106] Creating Layer id_res5b_branch2c
I0318 13:47:32.804643 18120 net.cpp:454] id_res5b_branch2c <- id_res5b_branch2b
I0318 13:47:32.804658 18120 net.cpp:411] id_res5b_branch2c -> id_res5b_branch2c
I0318 13:47:32.807492 18120 net.cpp:150] Setting up id_res5b_branch2c
I0318 13:47:32.807513 18120 net.cpp:157] Top shape: 16 2048 7 7 (1605632)
I0318 13:47:32.807523 18120 net.cpp:165] Memory required for data: 7395674048
I0318 13:47:32.807534 18120 layer_factory.hpp:77] Creating layer id_bn5b_branch2c
I0318 13:47:32.807548 18120 net.cpp:106] Creating Layer id_bn5b_branch2c
I0318 13:47:32.807559 18120 net.cpp:454] id_bn5b_branch2c <- id_res5b_branch2c
I0318 13:47:32.807569 18120 net.cpp:397] id_bn5b_branch2c -> id_res5b_branch2c (in-place)
I0318 13:47:32.807816 18120 net.cpp:150] Setting up id_bn5b_branch2c
I0318 13:47:32.807833 18120 net.cpp:157] Top shape: 16 2048 7 7 (1605632)
I0318 13:47:32.807842 18120 net.cpp:165] Memory required for data: 7402096576
I0318 13:47:32.807857 18120 layer_factory.hpp:77] Creating layer id_scale5b_branch2c
I0318 13:47:32.807873 18120 net.cpp:106] Creating Layer id_scale5b_branch2c
I0318 13:47:32.807883 18120 net.cpp:454] id_scale5b_branch2c <- id_res5b_branch2c
I0318 13:47:32.807895 18120 net.cpp:397] id_scale5b_branch2c -> id_res5b_branch2c (in-place)
I0318 13:47:32.807957 18120 layer_factory.hpp:77] Creating layer id_scale5b_branch2c
I0318 13:47:32.808120 18120 net.cpp:150] Setting up id_scale5b_branch2c
I0318 13:47:32.808136 18120 net.cpp:157] Top shape: 16 2048 7 7 (1605632)
I0318 13:47:32.808145 18120 net.cpp:165] Memory required for data: 7408519104
I0318 13:47:32.808157 18120 layer_factory.hpp:77] Creating layer id_res5b
I0318 13:47:32.808171 18120 net.cpp:106] Creating Layer id_res5b
I0318 13:47:32.808181 18120 net.cpp:454] id_res5b <- id_res5a_id_res5a_relu_0_split_1
I0318 13:47:32.808192 18120 net.cpp:454] id_res5b <- id_res5b_branch2c
I0318 13:47:32.808205 18120 net.cpp:411] id_res5b -> id_res5b
I0318 13:47:32.808243 18120 net.cpp:150] Setting up id_res5b
I0318 13:47:32.808261 18120 net.cpp:157] Top shape: 16 2048 7 7 (1605632)
I0318 13:47:32.808269 18120 net.cpp:165] Memory required for data: 7414941632
I0318 13:47:32.808279 18120 layer_factory.hpp:77] Creating layer id_res5b_relu
I0318 13:47:32.808290 18120 net.cpp:106] Creating Layer id_res5b_relu
I0318 13:47:32.808300 18120 net.cpp:454] id_res5b_relu <- id_res5b
I0318 13:47:32.808310 18120 net.cpp:397] id_res5b_relu -> id_res5b (in-place)
I0318 13:47:32.808322 18120 net.cpp:150] Setting up id_res5b_relu
I0318 13:47:32.808333 18120 net.cpp:157] Top shape: 16 2048 7 7 (1605632)
I0318 13:47:32.808342 18120 net.cpp:165] Memory required for data: 7421364160
I0318 13:47:32.808351 18120 layer_factory.hpp:77] Creating layer id_res5b_id_res5b_relu_0_split
I0318 13:47:32.808362 18120 net.cpp:106] Creating Layer id_res5b_id_res5b_relu_0_split
I0318 13:47:32.808372 18120 net.cpp:454] id_res5b_id_res5b_relu_0_split <- id_res5b
I0318 13:47:32.808385 18120 net.cpp:411] id_res5b_id_res5b_relu_0_split -> id_res5b_id_res5b_relu_0_split_0
I0318 13:47:32.808398 18120 net.cpp:411] id_res5b_id_res5b_relu_0_split -> id_res5b_id_res5b_relu_0_split_1
I0318 13:47:32.808465 18120 net.cpp:150] Setting up id_res5b_id_res5b_relu_0_split
I0318 13:47:32.808480 18120 net.cpp:157] Top shape: 16 2048 7 7 (1605632)
I0318 13:47:32.808490 18120 net.cpp:157] Top shape: 16 2048 7 7 (1605632)
I0318 13:47:32.808498 18120 net.cpp:165] Memory required for data: 7434209216
I0318 13:47:32.808507 18120 layer_factory.hpp:77] Creating layer id_res5c_branch2a
I0318 13:47:32.808521 18120 net.cpp:106] Creating Layer id_res5c_branch2a
I0318 13:47:32.808531 18120 net.cpp:454] id_res5c_branch2a <- id_res5b_id_res5b_relu_0_split_0
I0318 13:47:32.808542 18120 net.cpp:411] id_res5c_branch2a -> id_res5c_branch2a
I0318 13:47:32.811393 18120 net.cpp:150] Setting up id_res5c_branch2a
I0318 13:47:32.811416 18120 net.cpp:157] Top shape: 16 512 7 7 (401408)
I0318 13:47:32.811426 18120 net.cpp:165] Memory required for data: 7435814848
I0318 13:47:32.811437 18120 layer_factory.hpp:77] Creating layer id_bn5c_branch2a
I0318 13:47:32.811453 18120 net.cpp:106] Creating Layer id_bn5c_branch2a
I0318 13:47:32.811465 18120 net.cpp:454] id_bn5c_branch2a <- id_res5c_branch2a
I0318 13:47:32.811475 18120 net.cpp:397] id_bn5c_branch2a -> id_res5c_branch2a (in-place)
I0318 13:47:32.811718 18120 net.cpp:150] Setting up id_bn5c_branch2a
I0318 13:47:32.811734 18120 net.cpp:157] Top shape: 16 512 7 7 (401408)
I0318 13:47:32.811743 18120 net.cpp:165] Memory required for data: 7437420480
I0318 13:47:32.811758 18120 layer_factory.hpp:77] Creating layer id_scale5c_branch2a
I0318 13:47:32.811771 18120 net.cpp:106] Creating Layer id_scale5c_branch2a
I0318 13:47:32.811780 18120 net.cpp:454] id_scale5c_branch2a <- id_res5c_branch2a
I0318 13:47:32.811794 18120 net.cpp:397] id_scale5c_branch2a -> id_res5c_branch2a (in-place)
I0318 13:47:32.811853 18120 layer_factory.hpp:77] Creating layer id_scale5c_branch2a
I0318 13:47:32.812018 18120 net.cpp:150] Setting up id_scale5c_branch2a
I0318 13:47:32.812037 18120 net.cpp:157] Top shape: 16 512 7 7 (401408)
I0318 13:47:32.812047 18120 net.cpp:165] Memory required for data: 7439026112
I0318 13:47:32.812059 18120 layer_factory.hpp:77] Creating layer id_res5c_branch2a_relu
I0318 13:47:32.812072 18120 net.cpp:106] Creating Layer id_res5c_branch2a_relu
I0318 13:47:32.812080 18120 net.cpp:454] id_res5c_branch2a_relu <- id_res5c_branch2a
I0318 13:47:32.812091 18120 net.cpp:397] id_res5c_branch2a_relu -> id_res5c_branch2a (in-place)
I0318 13:47:32.812103 18120 net.cpp:150] Setting up id_res5c_branch2a_relu
I0318 13:47:32.812114 18120 net.cpp:157] Top shape: 16 512 7 7 (401408)
I0318 13:47:32.812122 18120 net.cpp:165] Memory required for data: 7440631744
I0318 13:47:32.812131 18120 layer_factory.hpp:77] Creating layer id_res5c_branch2b
I0318 13:47:32.812147 18120 net.cpp:106] Creating Layer id_res5c_branch2b
I0318 13:47:32.812157 18120 net.cpp:454] id_res5c_branch2b <- id_res5c_branch2a
I0318 13:47:32.812168 18120 net.cpp:411] id_res5c_branch2b -> id_res5c_branch2b
I0318 13:47:32.818069 18120 net.cpp:150] Setting up id_res5c_branch2b
I0318 13:47:32.818092 18120 net.cpp:157] Top shape: 16 512 7 7 (401408)
I0318 13:47:32.818101 18120 net.cpp:165] Memory required for data: 7442237376
I0318 13:47:32.818114 18120 layer_factory.hpp:77] Creating layer id_bn5c_branch2b
I0318 13:47:32.818126 18120 net.cpp:106] Creating Layer id_bn5c_branch2b
I0318 13:47:32.818136 18120 net.cpp:454] id_bn5c_branch2b <- id_res5c_branch2b
I0318 13:47:32.818150 18120 net.cpp:397] id_bn5c_branch2b -> id_res5c_branch2b (in-place)
I0318 13:47:32.818398 18120 net.cpp:150] Setting up id_bn5c_branch2b
I0318 13:47:32.818414 18120 net.cpp:157] Top shape: 16 512 7 7 (401408)
I0318 13:47:32.818423 18120 net.cpp:165] Memory required for data: 7443843008
I0318 13:47:32.818439 18120 layer_factory.hpp:77] Creating layer id_scale5c_branch2b
I0318 13:47:32.818451 18120 net.cpp:106] Creating Layer id_scale5c_branch2b
I0318 13:47:32.818461 18120 net.cpp:454] id_scale5c_branch2b <- id_res5c_branch2b
I0318 13:47:32.818472 18120 net.cpp:397] id_scale5c_branch2b -> id_res5c_branch2b (in-place)
I0318 13:47:32.818542 18120 layer_factory.hpp:77] Creating layer id_scale5c_branch2b
I0318 13:47:32.818713 18120 net.cpp:150] Setting up id_scale5c_branch2b
I0318 13:47:32.818730 18120 net.cpp:157] Top shape: 16 512 7 7 (401408)
I0318 13:47:32.818738 18120 net.cpp:165] Memory required for data: 7445448640
I0318 13:47:32.818752 18120 layer_factory.hpp:77] Creating layer id_res5c_branch2b_relu
I0318 13:47:32.818765 18120 net.cpp:106] Creating Layer id_res5c_branch2b_relu
I0318 13:47:32.818776 18120 net.cpp:454] id_res5c_branch2b_relu <- id_res5c_branch2b
I0318 13:47:32.818786 18120 net.cpp:397] id_res5c_branch2b_relu -> id_res5c_branch2b (in-place)
I0318 13:47:32.818802 18120 net.cpp:150] Setting up id_res5c_branch2b_relu
I0318 13:47:32.818814 18120 net.cpp:157] Top shape: 16 512 7 7 (401408)
I0318 13:47:32.818821 18120 net.cpp:165] Memory required for data: 7447054272
I0318 13:47:32.818830 18120 layer_factory.hpp:77] Creating layer id_res5c_branch2c
I0318 13:47:32.818843 18120 net.cpp:106] Creating Layer id_res5c_branch2c
I0318 13:47:32.818852 18120 net.cpp:454] id_res5c_branch2c <- id_res5c_branch2b
I0318 13:47:32.818866 18120 net.cpp:411] id_res5c_branch2c -> id_res5c_branch2c
I0318 13:47:32.821684 18120 net.cpp:150] Setting up id_res5c_branch2c
I0318 13:47:32.821707 18120 net.cpp:157] Top shape: 16 2048 7 7 (1605632)
I0318 13:47:32.821717 18120 net.cpp:165] Memory required for data: 7453476800
I0318 13:47:32.821727 18120 layer_factory.hpp:77] Creating layer id_bn5c_branch2c
I0318 13:47:32.821740 18120 net.cpp:106] Creating Layer id_bn5c_branch2c
I0318 13:47:32.821750 18120 net.cpp:454] id_bn5c_branch2c <- id_res5c_branch2c
I0318 13:47:32.821761 18120 net.cpp:397] id_bn5c_branch2c -> id_res5c_branch2c (in-place)
I0318 13:47:32.822010 18120 net.cpp:150] Setting up id_bn5c_branch2c
I0318 13:47:32.822026 18120 net.cpp:157] Top shape: 16 2048 7 7 (1605632)
I0318 13:47:32.822036 18120 net.cpp:165] Memory required for data: 7459899328
I0318 13:47:32.822051 18120 layer_factory.hpp:77] Creating layer id_scale5c_branch2c
I0318 13:47:32.822069 18120 net.cpp:106] Creating Layer id_scale5c_branch2c
I0318 13:47:32.822080 18120 net.cpp:454] id_scale5c_branch2c <- id_res5c_branch2c
I0318 13:47:32.822091 18120 net.cpp:397] id_scale5c_branch2c -> id_res5c_branch2c (in-place)
I0318 13:47:32.822731 18120 layer_factory.hpp:77] Creating layer id_scale5c_branch2c
I0318 13:47:32.823474 18120 net.cpp:150] Setting up id_scale5c_branch2c
I0318 13:47:32.823496 18120 net.cpp:157] Top shape: 16 2048 7 7 (1605632)
I0318 13:47:32.823506 18120 net.cpp:165] Memory required for data: 7466321856
I0318 13:47:32.823519 18120 layer_factory.hpp:77] Creating layer id_res5c
I0318 13:47:32.823532 18120 net.cpp:106] Creating Layer id_res5c
I0318 13:47:32.823542 18120 net.cpp:454] id_res5c <- id_res5b_id_res5b_relu_0_split_1
I0318 13:47:32.823554 18120 net.cpp:454] id_res5c <- id_res5c_branch2c
I0318 13:47:32.823565 18120 net.cpp:411] id_res5c -> id_res5c
I0318 13:47:32.823606 18120 net.cpp:150] Setting up id_res5c
I0318 13:47:32.823621 18120 net.cpp:157] Top shape: 16 2048 7 7 (1605632)
I0318 13:47:32.823629 18120 net.cpp:165] Memory required for data: 7472744384
I0318 13:47:32.823638 18120 layer_factory.hpp:77] Creating layer id_res5c_relu
I0318 13:47:32.823649 18120 net.cpp:106] Creating Layer id_res5c_relu
I0318 13:47:32.823659 18120 net.cpp:454] id_res5c_relu <- id_res5c
I0318 13:47:32.823671 18120 net.cpp:411] id_res5c_relu -> id_R5_res5c
I0318 13:47:32.823705 18120 net.cpp:150] Setting up id_res5c_relu
I0318 13:47:32.823719 18120 net.cpp:157] Top shape: 16 2048 7 7 (1605632)
I0318 13:47:32.823729 18120 net.cpp:165] Memory required for data: 7479166912
I0318 13:47:32.823736 18120 layer_factory.hpp:77] Creating layer id_pool5
I0318 13:47:32.823752 18120 net.cpp:106] Creating Layer id_pool5
I0318 13:47:32.823763 18120 net.cpp:454] id_pool5 <- id_R5_res5c
I0318 13:47:32.823776 18120 net.cpp:411] id_pool5 -> id_pool5
I0318 13:47:32.823812 18120 net.cpp:150] Setting up id_pool5
I0318 13:47:32.823827 18120 net.cpp:157] Top shape: 16 2048 1 1 (32768)
I0318 13:47:32.823840 18120 net.cpp:165] Memory required for data: 7479297984
I0318 13:47:32.823858 18120 layer_factory.hpp:77] Creating layer fc
I0318 13:47:32.823878 18120 net.cpp:106] Creating Layer fc
I0318 13:47:32.823889 18120 net.cpp:454] fc <- pool5
I0318 13:47:32.823902 18120 net.cpp:411] fc -> fc
I0318 13:47:32.826459 18120 net.cpp:150] Setting up fc
I0318 13:47:32.826478 18120 net.cpp:157] Top shape: 16 30 (480)
I0318 13:47:32.826488 18120 net.cpp:165] Memory required for data: 7479299904
I0318 13:47:32.826500 18120 layer_factory.hpp:77] Creating layer loss_pos30
I0318 13:47:32.826522 18120 net.cpp:106] Creating Layer loss_pos30
I0318 13:47:32.826534 18120 net.cpp:454] loss_pos30 <- fc
I0318 13:47:32.826545 18120 net.cpp:454] loss_pos30 <- labels
I0318 13:47:32.826556 18120 net.cpp:411] loss_pos30 -> loss_pos30
I0318 13:47:32.826663 18120 net.cpp:150] Setting up loss_pos30
I0318 13:47:32.826679 18120 net.cpp:157] Top shape: (1)
I0318 13:47:32.826688 18120 net.cpp:165] Memory required for data: 7479299908
I0318 13:47:32.826697 18120 layer_factory.hpp:77] Creating layer id_fc
I0318 13:47:32.826709 18120 net.cpp:106] Creating Layer id_fc
I0318 13:47:32.826719 18120 net.cpp:454] id_fc <- id_pool5
I0318 13:47:32.826735 18120 net.cpp:411] id_fc -> id_fc
I0318 13:47:32.888383 18120 net.cpp:150] Setting up id_fc
I0318 13:47:32.888409 18120 net.cpp:157] Top shape: 16 751 (12016)
I0318 13:47:32.888418 18120 net.cpp:165] Memory required for data: 7479347972
I0318 13:47:32.888432 18120 layer_factory.hpp:77] Creating layer id_loss_id
I0318 13:47:32.888453 18120 net.cpp:106] Creating Layer id_loss_id
I0318 13:47:32.888463 18120 net.cpp:454] id_loss_id <- id_fc
I0318 13:47:32.888475 18120 net.cpp:454] id_loss_id <- id_label
I0318 13:47:32.888486 18120 net.cpp:411] id_loss_id -> id_loss_id
…
