…
  include {
    phase: TRAIN
  }
  transform_param {
    mirror: false
    mean_file: "/home/lizhuowan/Market1501/lmdb/lmdb_12936/Image_lmdb_12936.binaryproto"
  }
  data_param {
    source: "/home/lizhuowan/Market1501/lmdb/lmdb_12936/Image_lmdb_12936"
    batch_size: 8
    backend: LMDB
  }
}
layer {
  name: "data"
  type: "Data"
  top: "labels"
  include {
    phase: TRAIN
  }
  transform_param {
    mean_value: 112
  }
  data_param {
    source: "/home/lizhuowan/Market1501/lmdb/lmdb_12936/pos30_lmdb_12936"
    batch_size: 8
    backend: LMDB
  }
}
layer {
  name: "conv1"
  type: "Convolution"
  bottom: "data"
  top: "conv1"
  convolution_param {
    num_output: 64
    bias_term: false
    pad: 3
    kernel_size: 7
    stride: 2
  }
}
layer {
  name: "bn_conv1"
  type: "BatchNorm"
  bottom: "conv1"
  top: "conv1"
  batch_norm_param {
    use_global_stats: true
  }
}
layer {
  name: "scale_conv1"
  type: "Scale"
  bottom: "conv1"
  top: "conv1"
  scale_param {
    bias_term: true
  }
}
layer {
  name: "conv1_relu"
  type: "ReLU"
  bottom: "conv1"
  top: "conv1"
}
layer {
  name: "pool1"
  type: "Pooling"
  bottom: "conv1"
  top: "pool1"
  pooling_param {
    pool: MAX
    kernel_size: 3
    stride: 2
  }
}
layer {
  name: "res2a_branch1"
  type: "Convolution"
  bottom: "pool1"
  top: "res2a_branch1"
  convolution_param {
    num_output: 256
    bias_term: false
    pad: 0
    kernel_size: 1
    stride: 1
  }
}
layer {
  name: "bn2a_branch1"
  type: "BatchNorm"
  bottom: "res2a_branch1"
  top: "res2a_branch1"
  batch_norm_param {
    use_global_stats: true
  }
}
layer {
  name: "scale2a_branch1"
  type: "Scale"
  bottom: "res2a_branch1"
  top: "res2a_branch1"
  scale_param {
    bias_term: true
  }
}
layer {
  name: "res2a_branch2a"
  type: "Convolution"
  bottom: "pool1"
  top: "res2a_branch2a"
  convolution_param {
    num_output: 64
    bias_term: false
    pad: 0
    kernel_size: 1
    stride: 1
  }
}
layer {
  name: "bn2a_branch2a"
  type: "BatchNorm"
  bottom: "res2a_branch2a"
  top: "res2a_branch2a"
  batch_norm_param {
    use_global_stats: true
  }
}
layer {
  name: "scale2a_branch2a"
  type: "Scale"
  bottom: "res2a_branch2a"
  top: "res2a_branch2a"
  scale_param {
    bias_term: true
  }
}
layer {
  name: "res2a_branch2a_relu"
  type: "ReLU"
  bottom: "res2a_branch2a"
  top: "res2a_branch2a"
}
layer {
  name: "res2a_branch2b"
  type: "Convolution"
  bottom: "res2a_branch2a"
  top: "res2a_branch2b"
  convolution_param {
    num_output: 64
    bias_term: false
    pad: 1
    kernel_size: 3
    stride: 1
  }
}
layer {
  name: "bn2a_branch2b"
  type: "BatchNorm"
  bottom: "res2a_branch2b"
  top: "res2a_branch2b"
  batch_norm_param {
    use_global_stats: true
  }
}
layer {
  name: "scale2a_branch2b"
  type: "Scale"
  bottom: "res2a_branch2b"
  top: "res2a_branch2b"
  scale_param {
    bias_term: true
  }
}
layer {
  name: "res2a_branch2b_relu"
  type: "ReLU"
  bottom: "res2a_branch2b"
  top: "res2a_branch2b"
}
layer {
  name: "res2a_branch2c"
  type: "Convolution"
  bottom: "res2a_branch2b"
  top: "res2a_branch2c"
  convolution_param {
    num_output: 256
    bias_term: false
    pad: 0
    kernel_size: 1
    stride: 1
  }
}
layer {
  name: "bn2a_branch2c"
  type: "BatchNorm"
  bottom: "res2a_branch2c"
  top: "res2a_branch2c"
  batch_norm_param {
    use_global_stats: true
  }
}
layer {
  name: "scale2a_branch2c"
  type: "Scale"
  bottom: "res2a_branch2c"
  top: "res2a_branch2c"
  scale_param {
    bias_term: true
  }
}
layer {
  name: "res2a"
  type: "Eltwise"
  bottom: "res2a_branch1"
  bottom: "res2a_branch2c"
  top: "res2a"
}
layer {
  name: "res2a_relu"
  type: "ReLU"
  bottom: "res2a"
  top: "res2a"
}
layer {
  name: "res2b_branch2a"
  type: "Convolution"
  bottom: "res2a"
  top: "res2b_branch2a"
  convolution_param {
    num_output: 64
    bias_term: false
    pad: 0
    kernel_size: 1
    stride: 1
  }
}
layer {
  name: "bn2b_branch2a"
  type: "BatchNorm"
  bottom: "res2b_branch2a"
  top: "res2b_branch2a"
  batch_norm_param {
    use_global_stats: true
  }
}
layer {
  name: "scale2b_branch2a"
  type: "Scale"
  bottom: "res2b_branch2a"
  top: "res2b_branch2a"
  scale_param {
    bias_term: true
  }
}
layer {
  name: "res2b_branch2a_relu"
  type: "ReLU"
  bottom: "res2b_branch2a"
  top: "res2b_branch2a"
}
layer {
  name: "res2b_branch2b"
  type: "Convolution"
  bottom: "res2b_branch2a"
  top: "res2b_branch2b"
  convolution_param {
    num_output: 64
    bias_term: false
    pad: 1
    kernel_size: 3
    stride: 1
  }
}
layer {
  name: "bn2b_branch2b"
  type: "BatchNorm"
  bottom: "res2b_branch2b"
  top: "res2b_branch2b"
  batch_norm_param {
    use_global_stats: true
  }
}
layer {
  name: "scale2b_branch2b"
  type: "Scale"
  bottom: "res2b_branch2b"
  top: "res2b_branch2b"
  scale_param {
    bias_term: true
  }
}
layer {
  name: "res2b_branch2b_relu"
  type: "ReLU"
  bottom: "res2b_branch2b"
  top: "res2b_branch2b"
}
layer {
  name: "res2b_branch2c"
  type: "Convolution"
  bottom: "res2b_branch2b"
  top: "res2b_branch2c"
  convolution_param {
    num_output: 256
    bias_term: false
    pad: 0
    kernel_size: 1
    stride: 1
  }
}
layer {
  name: "bn2b_branch2c"
  type: "BatchNorm"
  bottom: "res2b_branch2c"
  top: "res2b_branch2c"
  batch_norm_param {
    use_global_stats: true
  }
}
layer {
  name: "scale2b_branch2c"
  type: "Scale"
  bottom: "res2b_branch2c"
  top: "res2b_branch2c"
  scale_param {
    bias_term: true
  }
}
layer {
  name: "res2b"
  type: "Eltwise"
  bottom: "res2a"
  bottom: "res2b_branch2c"
  top: "res2b"
}
layer {
  name: "res2b_relu"
  type: "ReLU"
  bottom: "res2b"
  top: "res2b"
}
layer {
  name: "res2c_branch2a"
  type: "Convolution"
  bottom: "res2b"
  top: "res2c_branch2a"
  convolution_param {
    num_output: 64
    bias_term: false
    pad: 0
    kernel_size: 1
    stride: 1
  }
}
layer {
  name: "bn2c_branch2a"
  type: "BatchNorm"
  bottom: "res2c_branch2a"
  top: "res2c_branch2a"
  batch_norm_param {
    use_global_stats: true
  }
}
layer {
  name: "scale2c_branch2a"
  type: "Scale"
  bottom: "res2c_branch2a"
  top: "res2c_branch2a"
  scale_param {
    bias_term: true
  }
}
layer {
  name: "res2c_branch2a_relu"
  type: "ReLU"
  bottom: "res2c_branch2a"
  top: "res2c_branch2a"
}
layer {
  name: "res2c_branch2b"
  type: "Convolution"
  bottom: "res2c_branch2a"
  top: "res2c_branch2b"
  convolution_param {
    num_output: 64
    bias_term: false
    pad: 1
    kernel_size: 3
    stride: 1
  }
}
layer {
  name: "bn2c_branch2b"
  type: "BatchNorm"
  bottom: "res2c_branch2b"
  top: "res2c_branch2b"
  batch_norm_param {
    use_global_stats: true
  }
}
layer {
  name: "scale2c_branch2b"
  type: "Scale"
  bottom: "res2c_branch2b"
  top: "res2c_branch2b"
  scale_param {
    bias_term: true
  }
}
layer {
  name: "res2c_branch2b_relu"
  type: "ReLU"
  bottom: "res2c_branch2b"
  top: "res2c_branch2b"
}
layer {
  name: "res2c_branch2c"
  type: "Convolution"
  bottom: "res2c_branch2b"
  top: "res2c_branch2c"
  convolution_param {
    num_output: 256
    bias_term: false
    pad: 0
    kernel_size: 1
    stride: 1
  }
}
layer {
  name: "bn2c_branch2c"
  type: "BatchNorm"
  bottom: "res2c_branch2c"
  top: "res2c_branch2c"
  batch_norm_param {
    use_global_stats: true
  }
}
layer {
  name: "scale2c_branch2c"
  type: "Scale"
  bottom: "res2c_branch2c"
  top: "res2c_branch2c"
  scale_param {
    bias_term: true
  }
}
layer {
  name: "res2c"
  type: "Eltwise"
  bottom: "res2b"
  bottom: "res2c_branch2c"
  top: "res2c"
}
layer {
  name: "res2c_relu"
  type: "ReLU"
  bottom: "res2c"
  top: "res2c"
}
layer {
  name: "res3a_branch1"
  type: "Convolution"
  bottom: "res2c"
  top: "res3a_branch1"
  convolution_param {
    num_output: 512
    bias_term: false
    pad: 0
    kernel_size: 1
    stride: 2
  }
}
layer {
  name: "bn3a_branch1"
  type: "BatchNorm"
  bottom: "res3a_branch1"
  top: "res3a_branch1"
  batch_norm_param {
    use_global_stats: true
  }
}
layer {
  name: "scale3a_branch1"
  type: "Scale"
  bottom: "res3a_branch1"
  top: "res3a_branch1"
  scale_param {
    bias_term: true
  }
}
layer {
  name: "res3a_branch2a"
  type: "Convolution"
  bottom: "res2c"
  top: "res3a_branch2a"
  convolution_param {
    num_output: 128
    bias_term: false
    pad: 0
    kernel_size: 1
    stride: 2
  }
}
layer {
  name: "bn3a_branch2a"
  type: "BatchNorm"
  bottom: "res3a_branch2a"
  top: "res3a_branch2a"
  batch_norm_param {
    use_global_stats: true
  }
}
layer {
  name: "scale3a_branch2a"
  type: "Scale"
  bottom: "res3a_branch2a"
  top: "res3a_branch2a"
  scale_param {
    bias_term: true
  }
}
layer {
  name: "res3a_branch2a_relu"
  type: "ReLU"
  bottom: "res3a_branch2a"
  top: "res3a_branch2a"
}
layer {
  name: "res3a_branch2b"
  type: "Convolution"
  bottom: "res3a_branch2a"
  top: "res3a_branch2b"
  convolution_param {
    num_output: 128
    bias_term: false
    pad: 1
    kernel_size: 3
    stride: 1
  }
}
layer {
  name: "bn3a_branch2b"
  type: "BatchNorm"
  bottom: "res3a_branch2b"
  top: "res3a_branch2b"
  batch_norm_param {
    use_global_stats: true
  }
}
layer {
  name: "scale3a_branch2b"
  type: "Scale"
  bottom: "res3a_branch2b"
  top: "res3a_branch2b"
  scale_param {
    bias_term: true
  }
}
layer {
  name: "res3a_branch2b_relu"
  type: "ReLU"
  bottom: "res3a_branch2b"
  top: "res3a_branch2b"
}
layer {
  name: "res3a_branch2c"
  type: "Convolution"
  bottom: "res3a_branch2b"
  top: "res3a_branch2c"
  convolution_param {
    num_output: 512
    bias_term: false
    pad: 0
    kernel_size: 1
    stride: 1
  }
}
layer {
  name: "bn3a_branch2c"
  type: "BatchNorm"
  bottom: "res3a_branch2c"
  top: "res3a_branch2c"
  batch_norm_param {
    use_global_stats: true
  }
}
layer {
  name: "scale3a_branch2c"
  type: "Scale"
  bottom: "res3a_branch2c"
  top: "res3a_branch2c"
  scale_param {
    bias_term: true
  }
}
layer {
  name: "res3a"
  type: "Eltwise"
  bottom: "res3a_branch1"
  bottom: "res3a_branch2c"
  top: "res3a"
}
layer {
  name: "res3a_relu"
  type: "ReLU"
  bottom: "res3a"
  top: "res3a"
}
layer {
  name: "res3b1_branch2a"
  type: "Convolution"
  bottom: "res3a"
  top: "res3b1_branch2a"
  convolution_param {
    num_output: 128
    bias_term: false
    pad: 0
    kernel_size: 1
    stride: 1
  }
}
layer {
  name: "bn3b1_branch2a"
  type: "BatchNorm"
  bottom: "res3b1_branch2a"
  top: "res3b1_branch2a"
  batch_norm_param {
    use_global_stats: true
  }
}
layer {
  name: "scale3b1_branch2a"
  type: "Scale"
  bottom: "res3b1_branch2a"
  top: "res3b1_branch2a"
  scale_param {
    bias_term: true
  }
}
layer {
  name: "res3b1_branch2a_relu"
  type: "ReLU"
  bottom: "res3b1_branch2a"
  top: "res3b1_branch2a"
}
layer {
  name: "res3b1_branch2b"
  type: "Convolution"
  bottom: "res3b1_branch2a"
  top: "res3b1_branch2b"
  convolution_param {
    num_output: 128
    bias_term: false
    pad: 1
    kernel_size: 3
    stride: 1
  }
}
layer {
  name: "bn3b1_branch2b"
  type: "BatchNorm"
  bottom: "res3b1_branch2b"
  top: "res3b1_branch2b"
  batch_norm_param {
    use_global_stats: true
  }
}
layer {
  name: "scale3b1_branch2b"
  type: "Scale"
  bottom: "res3b1_branch2b"
  top: "res3b1_branch2b"
  scale_param {
    bias_term: true
  }
}
layer {
  name: "res3b1_branch2b_relu"
  type: "ReLU"
  bottom: "res3b1_branch2b"
  top: "res3b1_branch2b"
}
layer {
  name: "res3b1_branch2c"
  type: "Convolution"
  bottom: "res3b1_branch2b"
  top: "res3b1_branch2c"
  convolution_param {
    num_output: 512
    bias_term: false
    pad: 0
    kernel_size: 1
    stride: 1
  }
}
layer {
  name: "bn3b1_branch2c"
  type: "BatchNorm"
  bottom: "res3b1_branch2c"
  top: "res3b1_branch2c"
  batch_norm_param {
    use_global_stats: true
  }
}
layer {
  name: "scale3b1_branch2c"
  type: "Scale"
  bottom: "res3b1_branch2c"
  top: "res3b1_branch2c"
  scale_param {
    bias_term: true
  }
}
layer {
  name: "res3b1"
  type: "Eltwise"
  bottom: "res3a"
  bottom: "res3b1_branch2c"
  top: "res3b1"
}
layer {
  name: "res3b1_relu"
  type: "ReLU"
  bottom: "res3b1"
  top: "res3b1"
}
layer {
  name: "res3b2_branch2a"
  type: "Convolution"
  bottom: "res3b1"
  top: "res3b2_branch2a"
  convolution_param {
    num_output: 128
    bias_term: false
    pad: 0
    kernel_size: 1
    stride: 1
  }
}
layer {
  name: "bn3b2_branch2a"
  type: "BatchNorm"
  bottom: "res3b2_branch2a"
  top: "res3b2_branch2a"
  batch_norm_param {
    use_global_stats: true
  }
}
layer {
  name: "scale3b2_branch2a"
  type: "Scale"
  bottom: "res3b2_branch2a"
  top: "res3b2_branch2a"
  scale_param {
    bias_term: true
  }
}
layer {
  name: "res3b2_branch2a_relu"
  type: "ReLU"
  bottom: "res3b2_branch2a"
  top: "res3b2_branch2a"
}
layer {
  name: "res3b2_branch2b"
  type: "Convolution"
  bottom: "res3b2_branch2a"
  top: "res3b2_branch2b"
  convolution_param {
    num_output: 128
    bias_term: false
    pad: 1
    kernel_size: 3
    stride: 1
  }
}
layer {
  name: "bn3b2_branch2b"
  type: "BatchNorm"
  bottom: "res3b2_branch2b"
  top: "res3b2_branch2b"
  batch_norm_param {
    use_global_stats: true
  }
}
layer {
  name: "scale3b2_branch2b"
  type: "Scale"
  bottom: "res3b2_branch2b"
  top: "res3b2_branch2b"
  scale_param {
    bias_term: true
  }
}
layer {
  name: "res3b2_branch2b_relu"
  type: "ReLU"
  bottom: "res3b2_branch2b"
  top: "res3b2_branch2b"
}
layer {
  name: "res3b2_branch2c"
  type: "Convolution"
  bottom: "res3b2_branch2b"
  top: "res3b2_branch2c"
  convolution_param {
    num_output: 512
    bias_term: false
    pad: 0
    kernel_size: 1
    stride: 1
  }
}
layer {
  name: "bn3b2_branch2c"
  type: "BatchNorm"
  bottom: "res3b2_branch2c"
  top: "res3b2_branch2c"
  batch_norm_param {
    use_global_stats: true
  }
}
layer {
  name: "scale3b2_branch2c"
  type: "Scale"
  bottom: "res3b2_branch2c"
  top: "res3b2_branch2c"
  scale_param {
    bias_term: true
  }
}
layer {
  name: "res3b2"
  type: "Eltwise"
  bottom: "res3b1"
  bottom: "res3b2_branch2c"
  top: "res3b2"
}
layer {
  name: "res3b2_relu"
  type: "ReLU"
  bottom: "res3b2"
  top: "res3b2"
}
layer {
  name: "res3b3_branch2a"
  type: "Convolution"
  bottom: "res3b2"
  top: "res3b3_branch2a"
  convolution_param {
    num_output: 128
    bias_term: false
    pad: 0
    kernel_size: 1
    stride: 1
  }
}
layer {
  name: "bn3b3_branch2a"
  type: "BatchNorm"
  bottom: "res3b3_branch2a"
  top: "res3b3_branch2a"
  batch_norm_param {
    use_global_stats: true
  }
}
layer {
  name: "scale3b3_branch2a"
  type: "Scale"
  bottom: "res3b3_branch2a"
  top: "res3b3_branch2a"
  scale_param {
    bias_term: true
  }
}
layer {
  name: "res3b3_branch2a_relu"
  type: "ReLU"
  bottom: "res3b3_branch2a"
  top: "res3b3_branch2a"
}
layer {
  name: "res3b3_branch2b"
  type: "Convolution"
  bottom: "res3b3_branch2a"
  top: "res3b3_branch2b"
  convolution_param {
    num_output: 128
    bias_term: false
    pad: 1
    kernel_size: 3
    stride: 1
  }
}
layer {
  name: "bn3b3_branch2b"
  type: "BatchNorm"
  bottom: "res3b3_branch2b"
  top: "res3b3_branch2b"
  batch_norm_param {
    use_global_stats: true
  }
}
layer {
  name: "scale3b3_branch2b"
  type: "Scale"
  bottom: "res3b3_branch2b"
  top: "res3b3_branch2b"
  scale_param {
    bias_term: true
  }
}
layer {
  name: "res3b3_branch2b_relu"
  type: "ReLU"
  bottom: "res3b3_branch2b"
  top: "res3b3_branch2b"
}
layer {
  name: "res3b3_branch2c"
  type: "Convolution"
  bottom: "res3b3_branch2b"
  top: "res3b3_branch2c"
  convolution_param {
    num_output: 512
    bias_term: false
    pad: 0
    kernel_size: 1
    stride: 1
  }
}
layer {
  name: "bn3b3_branch2c"
  type: "BatchNorm"
  bottom: "res3b3_branch2c"
  top: "res3b3_branch2c"
  batch_norm_param {
    use_global_stats: true
  }
}
layer {
  name: "scale3b3_branch2c"
  type: "Scale"
  bottom: "res3b3_branch2c"
  top: "res3b3_branch2c"
  scale_param {
    bias_term: true
  }
}
layer {
  name: "res3b3"
  type: "Eltwise"
  bottom: "res3b2"
  bottom: "res3b3_branch2c"
  top: "res3b3"
}
layer {
  name: "res3b3_relu"
  type: "ReLU"
  bottom: "res3b3"
  top: "res3b3"
}
layer {
  name: "res3b4_branch2a"
  type: "Convolution"
  bottom: "res3b3"
  top: "res3b4_branch2a"
  convolution_param {
    num_output: 128
    bias_term: false
    pad: 0
    kernel_size: 1
    stride: 1
  }
}
layer {
  name: "bn3b4_branch2a"
  type: "BatchNorm"
  bottom: "res3b4_branch2a"
  top: "res3b4_branch2a"
  batch_norm_param {
    use_global_stats: true
  }
}
layer {
  name: "scale3b4_branch2a"
  type: "Scale"
  bottom: "res3b4_branch2a"
  top: "res3b4_branch2a"
  scale_param {
    bias_term: true
  }
}
layer {
  name: "res3b4_branch2a_relu"
  type: "ReLU"
  bottom: "res3b4_branch2a"
  top: "res3b4_branch2a"
}
layer {
  name: "res3b4_branch2b"
  type: "Convolution"
  bottom: "res3b4_branch2a"
  top: "res3b4_branch2b"
  convolution_param {
    num_output: 128
    bias_term: false
    pad: 1
    kernel_size: 3
    stride: 1
  }
}
layer {
  name: "bn3b4_branch2b"
  type: "BatchNorm"
  bottom: "res3b4_branch2b"
  top: "res3b4_branch2b"
  batch_norm_param {
    use_global_stats: true
  }
}
layer {
  name: "scale3b4_branch2b"
  type: "Scale"
  bottom: "res3b4_branch2b"
  top: "res3b4_branch2b"
  scale_param {
    bias_term: true
  }
}
layer {
  name: "res3b4_branch2b_relu"
  type: "ReLU"
  bottom: "res3b4_branch2b"
  top: "res3b4_branch2b"
}
layer {
  name: "res3b4_branch2c"
  type: "Convolution"
  bottom: "res3b4_branch2b"
  top: "res3b4_branch2c"
  convolution_param {
    num_output: 512
    bias_term: false
    pad: 0
    kernel_size: 1
    stride: 1
  }
}
layer {
  name: "bn3b4_branch2c"
  type: "BatchNorm"
  bottom: "res3b4_branch2c"
  top: "res3b4_branch2c"
  batch_norm_param {
    use_global_stats: true
  }
}
layer {
  name: "scale3b4_branch2c"
  type: "Scale"
  bottom: "res3b4_branch2c"
  top: "res3b4_branch2c"
  scale_param {
    bias_term: true
  }
}
layer {
  name: "res3b4"
  type: "Eltwise"
  bottom: "res3b3"
  bottom: "res3b4_branch2c"
  top: "res3b4"
}
layer {
  name: "res3b4_relu"
  type: "ReLU"
  bottom: "res3b4"
  top: "res3b4"
}
layer {
  name: "res3b5_branch2a"
  type: "Convolution"
  bottom: "res3b4"
  top: "res3b5_branch2a"
  convolution_param {
    num_output: 128
    bias_term: false
    pad: 0
    kernel_size: 1
    stride: 1
  }
}
layer {
  name: "bn3b5_branch2a"
  type: "BatchNorm"
  bottom: "res3b5_branch2a"
  top: "res3b5_branch2a"
  batch_norm_param {
    use_global_stats: true
  }
}
layer {
  name: "scale3b5_branch2a"
  type: "Scale"
  bottom: "res3b5_branch2a"
  top: "res3b5_branch2a"
  scale_param {
    bias_term: true
  }
}
layer {
  name: "res3b5_branch2a_relu"
  type: "ReLU"
  bottom: "res3b5_branch2a"
  top: "res3b5_branch2a"
}
layer {
  name: "res3b5_branch2b"
  type: "Convolution"
  bottom: "res3b5_branch2a"
  top: "res3b5_branch2b"
  convolution_param {
    num_output: 128
    bias_term: false
    pad: 1
    kernel_size: 3
    stride: 1
  }
}
layer {
  name: "bn3b5_branch2b"
  type: "BatchNorm"
  bottom: "res3b5_branch2b"
  top: "res3b5_branch2b"
  batch_norm_param {
    use_global_stats: true
  }
}
layer {
  name: "scale3b5_branch2b"
  type: "Scale"
  bottom: "res3b5_branch2b"
  top: "res3b5_branch2b"
  scale_param {
    bias_term: true
  }
}
layer {
  name: "res3b5_branch2b_relu"
  type: "ReLU"
  bottom: "res3b5_branch2b"
  top: "res3b5_branch2b"
}
layer {
  name: "res3b5_branch2c"
  type: "Convolution"
  bottom: "res3b5_branch2b"
  top: "res3b5_branch2c"
  convolution_param {
    num_output: 512
    bias_term: false
    pad: 0
    kernel_size: 1
    stride: 1
  }
}
layer {
  name: "bn3b5_branch2c"
  type: "BatchNorm"
  bottom: "res3b5_branch2c"
  top: "res3b5_branch2c"
  batch_norm_param {
    use_global_stats: true
  }
}
layer {
  name: "scale3b5_branch2c"
  type: "Scale"
  bottom: "res3b5_branch2c"
  top: "res3b5_branch2c"
  scale_param {
    bias_term: true
  }
}
layer {
  name: "res3b5"
  type: "Eltwise"
  bottom: "res3b4"
  bottom: "res3b5_branch2c"
  top: "res3b5"
}
layer {
  name: "res3b5_relu"
  type: "ReLU"
  bottom: "res3b5"
  top: "res3b5"
}
layer {
  name: "res3b6_branch2a"
  type: "Convolution"
  bottom: "res3b5"
  top: "res3b6_branch2a"
  convolution_param {
    num_output: 128
    bias_term: false
    pad: 0
    kernel_size: 1
    stride: 1
  }
}
layer {
  name: "bn3b6_branch2a"
  type: "BatchNorm"
  bottom: "res3b6_branch2a"
  top: "res3b6_branch2a"
  batch_norm_param {
    use_global_stats: true
  }
}
layer {
  name: "scale3b6_branch2a"
  type: "Scale"
  bottom: "res3b6_branch2a"
  top: "res3b6_branch2a"
  scale_param {
    bias_term: true
  }
}
layer {
  name: "res3b6_branch2a_relu"
  type: "ReLU"
  bottom: "res3b6_branch2a"
  top: "res3b6_branch2a"
}
layer {
  name: "res3b6_branch2b"
  type: "Convolution"
  bottom: "res3b6_branch2a"
  top: "res3b6_branch2b"
  convolution_param {
    num_output: 128
    bias_term: false
    pad: 1
    kernel_size: 3
    stride: 1
  }
}
layer {
  name: "bn3b6_branch2b"
  type: "BatchNorm"
  bottom: "res3b6_branch2b"
  top: "res3b6_branch2b"
  batch_norm_param {
    use_global_stats: true
  }
}
layer {
  name: "scale3b6_branch2b"
  type: "Scale"
  bottom: "res3b6_branch2b"
  top: "res3b6_branch2b"
  scale_param {
    bias_term: true
  }
}
layer {
  name: "res3b6_branch2b_relu"
  type: "ReLU"
  bottom: "res3b6_branch2b"
  top: "res3b6_branch2b"
}
layer {
  name: "res3b6_branch2c"
  type: "Convolution"
  bottom: "res3b6_branch2b"
  top: "res3b6_branch2c"
  convolution_param {
    num_output: 512
    bias_term: false
    pad: 0
    kernel_size: 1
    stride: 1
  }
}
layer {
  name: "bn3b6_branch2c"
  type: "BatchNorm"
  bottom: "res3b6_branch2c"
  top: "res3b6_branch2c"
  batch_norm_param {
    use_global_stats: true
  }
}
layer {
  name: "scale3b6_branch2c"
  type: "Scale"
  bottom: "res3b6_branch2c"
  top: "res3b6_branch2c"
  scale_param {
    bias_term: true
  }
}
layer {
  name: "res3b6"
  type: "Eltwise"
  bottom: "res3b5"
  bottom: "res3b6_branch2c"
  top: "res3b6"
}
layer {
  name: "res3b6_relu"
  type: "ReLU"
  bottom: "res3b6"
  top: "res3b6"
}
layer {
  name: "res3b7_branch2a"
  type: "Convolution"
  bottom: "res3b6"
  top: "res3b7_branch2a"
  convolution_param {
    num_output: 128
    bias_term: false
    pad: 0
    kernel_size: 1
    stride: 1
  }
}
layer {
  name: "bn3b7_branch2a"
  type: "BatchNorm"
  bottom: "res3b7_branch2a"
  top: "res3b7_branch2a"
  batch_norm_param {
    use_global_stats: true
  }
}
layer {
  name: "scale3b7_branch2a"
  type: "Scale"
  bottom: "res3b7_branch2a"
  top: "res3b7_branch2a"
  scale_param {
    bias_term: true
  }
}
layer {
  name: "res3b7_branch2a_relu"
  type: "ReLU"
  bottom: "res3b7_branch2a"
  top: "res3b7_branch2a"
}
layer {
  name: "res3b7_branch2b"
  type: "Convolution"
  bottom: "res3b7_branch2a"
  top: "res3b7_branch2b"
  convolution_param {
    num_output: 128
    bias_term: false
    pad: 1
    kernel_size: 3
    stride: 1
  }
}
layer {
  name: "bn3b7_branch2b"
  type: "BatchNorm"
  bottom: "res3b7_branch2b"
  top: "res3b7_branch2b"
  batch_norm_param {
    use_global_stats: true
  }
}
layer {
  name: "scale3b7_branch2b"
  type: "Scale"
  bottom: "res3b7_branch2b"
  top: "res3b7_branch2b"
  scale_param {
    bias_term: true
  }
}
layer {
  name: "res3b7_branch2b_relu"
  type: "ReLU"
  bottom: "res3b7_branch2b"
  top: "res3b7_branch2b"
}
layer {
  name: "res3b7_branch2c"
  type: "Convolution"
  bottom: "res3b7_branch2b"
  top: "res3b7_branch2c"
  convolution_param {
    num_output: 512
    bias_term: false
    pad: 0
    kernel_size: 1
    stride: 1
  }
}
layer {
  name: "bn3b7_branch2c"
  type: "BatchNorm"
  bottom: "res3b7_branch2c"
  top: "res3b7_branch2c"
  batch_norm_param {
    use_global_stats: true
  }
}
layer {
  name: "scale3b7_branch2c"
  type: "Scale"
  bottom: "res3b7_branch2c"
  top: "res3b7_branch2c"
  scale_param {
    bias_term: true
  }
}
layer {
  name: "res3b7"
  type: "Eltwise"
  bottom: "res3b6"
  bottom: "res3b7_branch2c"
  top: "res3b7"
}
layer {
  name: "res3b7_relu"
  type: "ReLU"
  bottom: "res3b7"
  top: "res3b7"
}
layer {
  name: "res4a_branch1"
  type: "Convolution"
  bottom: "res3b7"
  top: "res4a_branch1"
  convolution_param {
    num_output: 1024
    bias_term: false
    pad: 0
    kernel_size: 1
    stride: 2
  }
}
layer {
  name: "bn4a_branch1"
  type: "BatchNorm"
  bottom: "res4a_branch1"
  top: "res4a_branch1"
  batch_norm_param {
    use_global_stats: true
  }
}
layer {
  name: "scale4a_branch1"
  type: "Scale"
  bottom: "res4a_branch1"
  top: "res4a_branch1"
  scale_param {
    bias_term: true
  }
}
layer {
  name: "res4a_branch2a"
  type: "Convolution"
  bottom: "res3b7"
  top: "res4a_branch2a"
  convolution_param {
    num_output: 256
    bias_term: false
    pad: 0
    kernel_size: 1
    stride: 2
  }
}
layer {
  name: "bn4a_branch2a"
  type: "BatchNorm"
  bottom: "res4a_branch2a"
  top: "res4a_branch2a"
  batch_norm_param {
    use_global_stats: true
  }
}
layer {
  name: "scale4a_branch2a"
  type: "Scale"
  bottom: "res4a_branch2a"
  top: "res4a_branch2a"
  scale_param {
    bias_term: true
  }
}
layer {
  name: "res4a_branch2a_relu"
  type: "ReLU"
  bottom: "res4a_branch2a"
  top: "res4a_branch2a"
}
layer {
  name: "res4a_branch2b"
  type: "Convolution"
  bottom: "res4a_branch2a"
  top: "res4a_branch2b"
  convolution_param {
    num_output: 256
    bias_term: false
    pad: 1
    kernel_size: 3
    stride: 1
  }
}
layer {
  name: "bn4a_branch2b"
  type: "BatchNorm"
  bottom: "res4a_branch2b"
  top: "res4a_branch2b"
  batch_norm_param {
    use_global_stats: true
  }
}
layer {
  name: "scale4a_branch2b"
  type: "Scale"
  bottom: "res4a_branch2b"
  top: "res4a_branch2b"
  scale_param {
    bias_term: true
  }
}
layer {
  name: "res4a_branch2b_relu"
  type: "ReLU"
  bottom: "res4a_branch2b"
  top: "res4a_branch2b"
}
layer {
  name: "res4a_branch2c"
  type: "Convolution"
  bottom: "res4a_branch2b"
  top: "res4a_branch2c"
  convolution_param {
    num_output: 1024
    bias_term: false
    pad: 0
    kernel_size: 1
    stride: 1
  }
}
layer {
  name: "bn4a_branch2c"
  type: "BatchNorm"
  bottom: "res4a_branch2c"
  top: "res4a_branch2c"
  batch_norm_param {
    use_global_stats: true
  }
}
layer {
  name: "scale4a_branch2c"
  type: "Scale"
  bottom: "res4a_branch2c"
  top: "res4a_branch2c"
  scale_param {
    bias_term: true
  }
}
layer {
  name: "res4a"
  type: "Eltwise"
  bottom: "res4a_branch1"
  bottom: "res4a_branch2c"
  top: "res4a"
}
layer {
  name: "res4a_relu"
  type: "ReLU"
  bottom: "res4a"
  top: "res4a"
}
layer {
  name: "res4b1_branch2a"
  type: "Convolution"
  bottom: "res4a"
  top: "res4b1_branch2a"
  convolution_param {
    num_output: 256
    bias_term: false
    pad: 0
    kernel_size: 1
    stride: 1
  }
}
layer {
  name: "bn4b1_branch2a"
  type: "BatchNorm"
  bottom: "res4b1_branch2a"
  top: "res4b1_branch2a"
  batch_norm_param {
    use_global_stats: true
  }
}
layer {
  name: "scale4b1_branch2a"
  type: "Scale"
  bottom: "res4b1_branch2a"
  top: "res4b1_branch2a"
  scale_param {
    bias_term: true
  }
}
layer {
  name: "res4b1_branch2a_relu"
  type: "ReLU"
  bottom: "res4b1_branch2a"
  top: "res4b1_branch2a"
}
layer {
  name: "res4b1_branch2b"
  type: "Convolution"
  bottom: "res4b1_branch2a"
  top: "res4b1_branch2b"
  convolution_param {
    num_output: 256
    bias_term: false
    pad: 1
    kernel_size: 3
    stride: 1
  }
}
layer {
  name: "bn4b1_branch2b"
  type: "BatchNorm"
  bottom: "res4b1_branch2b"
  top: "res4b1_branch2b"
  batch_norm_param {
    use_global_stats: true
  }
}
layer {
  name: "scale4b1_branch2b"
  type: "Scale"
  bottom: "res4b1_branch2b"
  top: "res4b1_branch2b"
  scale_param {
    bias_term: true
  }
}
layer {
  name: "res4b1_branch2b_relu"
  type: "ReLU"
  bottom: "res4b1_branch2b"
  top: "res4b1_branch2b"
}
layer {
  name: "res4b1_branch2c"
  type: "Convolution"
  bottom: "res4b1_branch2b"
  top: "res4b1_branch2c"
  convolution_param {
    num_output: 1024
    bias_term: false
    pad: 0
    kernel_size: 1
    stride: 1
  }
}
layer {
  name: "bn4b1_branch2c"
  type: "BatchNorm"
  bottom: "res4b1_branch2c"
  top: "res4b1_branch2c"
  batch_norm_param {
    use_global_stats: true
  }
}
layer {
  name: "scale4b1_branch2c"
  type: "Scale"
  bottom: "res4b1_branch2c"
  top: "res4b1_branch2c"
  scale_param {
    bias_term: true
  }
}
layer {
  name: "res4b1"
  type: "Eltwise"
  bottom: "res4a"
  bottom: "res4b1_branch2c"
  top: "res4b1"
}
layer {
  name: "res4b1_relu"
  type: "ReLU"
  bottom: "res4b1"
  top: "res4b1"
}
layer {
  name: "res4b2_branch2a"
  type: "Convolution"
  bottom: "res4b1"
  top: "res4b2_branch2a"
  convolution_param {
    num_output: 256
    bias_term: false
    pad: 0
    kernel_size: 1
    stride: 1
  }
}
layer {
  name: "bn4b2_branch2a"
  type: "BatchNorm"
  bottom: "res4b2_branch2a"
  top: "res4b2_branch2a"
  batch_norm_param {
    use_global_stats: true
  }
}
layer {
  name: "scale4b2_branch2a"
  type: "Scale"
  bottom: "res4b2_branch2a"
  top: "res4b2_branch2a"
  scale_param {
    bias_term: true
  }
}
layer {
  name: "res4b2_branch2a_relu"
  type: "ReLU"
  bottom: "res4b2_branch2a"
  top: "res4b2_branch2a"
}
layer {
  name: "res4b2_branch2b"
  type: "Convolution"
  bottom: "res4b2_branch2a"
  top: "res4b2_branch2b"
  convolution_param {
    num_output: 256
    bias_term: false
    pad: 1
    kernel_size: 3
    stride: 1
  }
}
layer {
  name: "bn4b2_branch2b"
  type: "BatchNorm"
  bottom: "res4b2_branch2b"
  top: "res4b2_branch2b"
  batch_norm_param {
    use_global_stats: true
  }
}
layer {
  name: "scale4b2_branch2b"
  type: "Scale"
  bottom: "res4b2_branch2b"
  top: "res4b2_branch2b"
  scale_param {
    bias_term: true
  }
}
layer {
  name: "res4b2_branch2b_relu"
  type: "ReLU"
  bottom: "res4b2_branch2b"
  top: "res4b2_branch2b"
}
layer {
  name: "res4b2_branch2c"
  type: "Convolution"
  bottom: "res4b2_branch2b"
  top: "res4b2_branch2c"
  convolution_param {
    num_output: 1024
    bias_term: fa
I0227 09:39:39.882316 16912 layer_factory.hpp:77] Creating layer data
I0227 09:39:39.882974 16912 net.cpp:106] Creating Layer data
I0227 09:39:39.883003 16912 net.cpp:411] data -> data
I0227 09:39:39.883090 16912 net.cpp:411] data -> id_label
I0227 09:39:39.883136 16912 data_transformer.cpp:25] Loading mean file from: /home/lizhuowan/Market1501/lmdb/lmdb_12936/Image_lmdb_12936.binaryproto
I0227 09:39:39.885305 16918 db_lmdb.cpp:38] Opened lmdb /home/lizhuowan/Market1501/lmdb/lmdb_12936/Image_lmdb_12936
I0227 09:39:39.898429 16912 data_layer.cpp:41] output data size: 8,3,224,224
I0227 09:39:39.908574 16912 net.cpp:150] Setting up data
I0227 09:39:39.908646 16912 net.cpp:157] Top shape: 8 3 224 224 (1204224)
I0227 09:39:39.908664 16912 net.cpp:157] Top shape: 8 (8)
I0227 09:39:39.908674 16912 net.cpp:165] Memory required for data: 4816928
I0227 09:39:39.908695 16912 layer_factory.hpp:77] Creating layer data
I0227 09:39:39.908808 16912 net.cpp:106] Creating Layer data
I0227 09:39:39.908830 16912 net.cpp:411] data -> labels
I0227 09:39:39.911523 16920 db_lmdb.cpp:38] Opened lmdb /home/lizhuowan/Market1501/lmdb/lmdb_12936/pos30_lmdb_12936
I0227 09:39:39.911716 16912 data_layer.cpp:41] output data size: 8,30,1,1
I0227 09:39:39.912026 16912 net.cpp:150] Setting up data
I0227 09:39:39.912065 16912 net.cpp:157] Top shape: 8 30 1 1 (240)
I0227 09:39:39.912076 16912 net.cpp:165] Memory required for data: 4817888
I0227 09:39:39.912087 16912 layer_factory.hpp:77] Creating layer conv1
I0227 09:39:39.912118 16912 net.cpp:106] Creating Layer conv1
I0227 09:39:39.912132 16912 net.cpp:454] conv1 <- data
I0227 09:39:39.912163 16912 net.cpp:411] conv1 -> conv1
I0227 09:39:39.914129 16912 net.cpp:150] Setting up conv1
I0227 09:39:39.914152 16912 net.cpp:157] Top shape: 8 64 112 112 (6422528)
I0227 09:39:39.914162 16912 net.cpp:165] Memory required for data: 30508000
I0227 09:39:39.914187 16912 layer_factory.hpp:77] Creating layer bn_conv1
I0227 09:39:39.914206 16912 net.cpp:106] Creating Layer bn_conv1
I0227 09:39:39.914216 16912 net.cpp:454] bn_conv1 <- conv1
I0227 09:39:39.914227 16912 net.cpp:397] bn_conv1 -> conv1 (in-place)
I0227 09:39:39.914593 16912 net.cpp:150] Setting up bn_conv1
I0227 09:39:39.914630 16912 net.cpp:157] Top shape: 8 64 112 112 (6422528)
I0227 09:39:39.914641 16912 net.cpp:165] Memory required for data: 56198112
I0227 09:39:39.914664 16912 layer_factory.hpp:77] Creating layer scale_conv1
I0227 09:39:39.914685 16912 net.cpp:106] Creating Layer scale_conv1
I0227 09:39:39.914696 16912 net.cpp:454] scale_conv1 <- conv1
I0227 09:39:39.914710 16912 net.cpp:397] scale_conv1 -> conv1 (in-place)
I0227 09:39:39.914788 16912 layer_factory.hpp:77] Creating layer scale_conv1
I0227 09:39:39.914969 16912 net.cpp:150] Setting up scale_conv1
I0227 09:39:39.914989 16912 net.cpp:157] Top shape: 8 64 112 112 (6422528)
I0227 09:39:39.914999 16912 net.cpp:165] Memory required for data: 81888224
I0227 09:39:39.915022 16912 layer_factory.hpp:77] Creating layer conv1_relu
I0227 09:39:39.915040 16912 net.cpp:106] Creating Layer conv1_relu
I0227 09:39:39.915051 16912 net.cpp:454] conv1_relu <- conv1
I0227 09:39:39.915063 16912 net.cpp:397] conv1_relu -> conv1 (in-place)
I0227 09:39:39.915081 16912 net.cpp:150] Setting up conv1_relu
I0227 09:39:39.915092 16912 net.cpp:157] Top shape: 8 64 112 112 (6422528)
I0227 09:39:39.915102 16912 net.cpp:165] Memory required for data: 107578336
I0227 09:39:39.915112 16912 layer_factory.hpp:77] Creating layer pool1
I0227 09:39:39.915124 16912 net.cpp:106] Creating Layer pool1
I0227 09:39:39.915134 16912 net.cpp:454] pool1 <- conv1
I0227 09:39:39.915163 16912 net.cpp:411] pool1 -> pool1
I0227 09:39:39.915235 16912 net.cpp:150] Setting up pool1
I0227 09:39:39.915252 16912 net.cpp:157] Top shape: 8 64 56 56 (1605632)
I0227 09:39:39.915262 16912 net.cpp:165] Memory required for data: 114000864
I0227 09:39:39.915271 16912 layer_factory.hpp:77] Creating layer pool1_pool1_0_split
I0227 09:39:39.915289 16912 net.cpp:106] Creating Layer pool1_pool1_0_split
I0227 09:39:39.915299 16912 net.cpp:454] pool1_pool1_0_split <- pool1
I0227 09:39:39.915312 16912 net.cpp:411] pool1_pool1_0_split -> pool1_pool1_0_split_0
I0227 09:39:39.915324 16912 net.cpp:411] pool1_pool1_0_split -> pool1_pool1_0_split_1
I0227 09:39:39.915370 16912 net.cpp:150] Setting up pool1_pool1_0_split
I0227 09:39:39.915385 16912 net.cpp:157] Top shape: 8 64 56 56 (1605632)
I0227 09:39:39.915396 16912 net.cpp:157] Top shape: 8 64 56 56 (1605632)
I0227 09:39:39.915405 16912 net.cpp:165] Memory required for data: 126845920
I0227 09:39:39.915415 16912 layer_factory.hpp:77] Creating layer res2a_branch1
I0227 09:39:39.915431 16912 net.cpp:106] Creating Layer res2a_branch1
I0227 09:39:39.915441 16912 net.cpp:454] res2a_branch1 <- pool1_pool1_0_split_0
I0227 09:39:39.915455 16912 net.cpp:411] res2a_branch1 -> res2a_branch1
I0227 09:39:39.915653 16912 net.cpp:150] Setting up res2a_branch1
I0227 09:39:39.915671 16912 net.cpp:157] Top shape: 8 256 56 56 (6422528)
I0227 09:39:39.915680 16912 net.cpp:165] Memory required for data: 152536032
I0227 09:39:39.915693 16912 layer_factory.hpp:77] Creating layer bn2a_branch1
I0227 09:39:39.915709 16912 net.cpp:106] Creating Layer bn2a_branch1
I0227 09:39:39.915719 16912 net.cpp:454] bn2a_branch1 <- res2a_branch1
I0227 09:39:39.915730 16912 net.cpp:397] bn2a_branch1 -> res2a_branch1 (in-place)
I0227 09:39:39.916587 16912 net.cpp:150] Setting up bn2a_branch1
I0227 09:39:39.916610 16912 net.cpp:157] Top shape: 8 256 56 56 (6422528)
I0227 09:39:39.916620 16912 net.cpp:165] Memory required for data: 178226144
I0227 09:39:39.916638 16912 layer_factory.hpp:77] Creating layer scale2a_branch1
I0227 09:39:39.916656 16912 net.cpp:106] Creating Layer scale2a_branch1
I0227 09:39:39.916666 16912 net.cpp:454] scale2a_branch1 <- res2a_branch1
I0227 09:39:39.916677 16912 net.cpp:397] scale2a_branch1 -> res2a_branch1 (in-place)
I0227 09:39:39.916731 16912 layer_factory.hpp:77] Creating layer scale2a_branch1
I0227 09:39:39.916863 16912 net.cpp:150] Setting up scale2a_branch1
I0227 09:39:39.916880 16912 net.cpp:157] Top shape: 8 256 56 56 (6422528)
I0227 09:39:39.916890 16912 net.cpp:165] Memory required for data: 203916256
I0227 09:39:39.916914 16912 layer_factory.hpp:77] Creating layer res2a_branch2a
I0227 09:39:39.916944 16912 net.cpp:106] Creating Layer res2a_branch2a
I0227 09:39:39.916955 16912 net.cpp:454] res2a_branch2a <- pool1_pool1_0_split_1
I0227 09:39:39.916970 16912 net.cpp:411] res2a_branch2a -> res2a_branch2a
I0227 09:39:39.917160 16912 net.cpp:150] Setting up res2a_branch2a
I0227 09:39:39.917178 16912 net.cpp:157] Top shape: 8 64 56 56 (1605632)
I0227 09:39:39.917187 16912 net.cpp:165] Memory required for data: 210338784
I0227 09:39:39.917199 16912 layer_factory.hpp:77] Creating layer bn2a_branch2a
I0227 09:39:39.917212 16912 net.cpp:106] Creating Layer bn2a_branch2a
I0227 09:39:39.917222 16912 net.cpp:454] bn2a_branch2a <- res2a_branch2a
I0227 09:39:39.917233 16912 net.cpp:397] bn2a_branch2a -> res2a_branch2a (in-place)
I0227 09:39:39.917466 16912 net.cpp:150] Setting up bn2a_branch2a
I0227 09:39:39.917487 16912 net.cpp:157] Top shape: 8 64 56 56 (1605632)
I0227 09:39:39.917536 16912 net.cpp:165] Memory required for data: 216761312
I0227 09:39:39.917551 16912 layer_factory.hpp:77] Creating layer scale2a_branch2a
I0227 09:39:39.917567 16912 net.cpp:106] Creating Layer scale2a_branch2a
I0227 09:39:39.917589 16912 net.cpp:454] scale2a_branch2a <- res2a_branch2a
I0227 09:39:39.917603 16912 net.cpp:397] scale2a_branch2a -> res2a_branch2a (in-place)
I0227 09:39:39.917660 16912 layer_factory.hpp:77] Creating layer scale2a_branch2a
I0227 09:39:39.917798 16912 net.cpp:150] Setting up scale2a_branch2a
I0227 09:39:39.917817 16912 net.cpp:157] Top shape: 8 64 56 56 (1605632)
I0227 09:39:39.917827 16912 net.cpp:165] Memory required for data: 223183840
I0227 09:39:39.917845 16912 layer_factory.hpp:77] Creating layer res2a_branch2a_relu
I0227 09:39:39.917857 16912 net.cpp:106] Creating Layer res2a_branch2a_relu
I0227 09:39:39.917867 16912 net.cpp:454] res2a_branch2a_relu <- res2a_branch2a
I0227 09:39:39.917882 16912 net.cpp:397] res2a_branch2a_relu -> res2a_branch2a (in-place)
I0227 09:39:39.917896 16912 net.cpp:150] Setting up res2a_branch2a_relu
I0227 09:39:39.917908 16912 net.cpp:157] Top shape: 8 64 56 56 (1605632)
I0227 09:39:39.917917 16912 net.cpp:165] Memory required for data: 229606368
I0227 09:39:39.917927 16912 layer_factory.hpp:77] Creating layer res2a_branch2b
I0227 09:39:39.917940 16912 net.cpp:106] Creating Layer res2a_branch2b
I0227 09:39:39.917953 16912 net.cpp:454] res2a_branch2b <- res2a_branch2a
I0227 09:39:39.917965 16912 net.cpp:411] res2a_branch2b -> res2a_branch2b
I0227 09:39:39.918879 16912 net.cpp:150] Setting up res2a_branch2b
I0227 09:39:39.918900 16912 net.cpp:157] Top shape: 8 64 56 56 (1605632)
I0227 09:39:39.918910 16912 net.cpp:165] Memory required for data: 236028896
I0227 09:39:39.918922 16912 layer_factory.hpp:77] Creating layer bn2a_branch2b
I0227 09:39:39.918941 16912 net.cpp:106] Creating Layer bn2a_branch2b
I0227 09:39:39.918952 16912 net.cpp:454] bn2a_branch2b <- res2a_branch2b
I0227 09:39:39.918964 16912 net.cpp:397] bn2a_branch2b -> res2a_branch2b (in-place)
I0227 09:39:39.919172 16912 net.cpp:150] Setting up bn2a_branch2b
I0227 09:39:39.919188 16912 net.cpp:157] Top shape: 8 64 56 56 (1605632)
I0227 09:39:39.919198 16912 net.cpp:165] Memory required for data: 242451424
I0227 09:39:39.919214 16912 layer_factory.hpp:77] Creating layer scale2a_branch2b
I0227 09:39:39.919230 16912 net.cpp:106] Creating Layer scale2a_branch2b
I0227 09:39:39.919240 16912 net.cpp:454] scale2a_branch2b <- res2a_branch2b
I0227 09:39:39.919251 16912 net.cpp:397] scale2a_branch2b -> res2a_branch2b (in-place)
I0227 09:39:39.919306 16912 layer_factory.hpp:77] Creating layer scale2a_branch2b
I0227 09:39:39.919447 16912 net.cpp:150] Setting up scale2a_branch2b
I0227 09:39:39.919464 16912 net.cpp:157] Top shape: 8 64 56 56 (1605632)
I0227 09:39:39.919473 16912 net.cpp:165] Memory required for data: 248873952
I0227 09:39:39.919486 16912 layer_factory.hpp:77] Creating layer res2a_branch2b_relu
I0227 09:39:39.919499 16912 net.cpp:106] Creating Layer res2a_branch2b_relu
I0227 09:39:39.919509 16912 net.cpp:454] res2a_branch2b_relu <- res2a_branch2b
I0227 09:39:39.919529 16912 net.cpp:397] res2a_branch2b_relu -> res2a_branch2b (in-place)
I0227 09:39:39.919553 16912 net.cpp:150] Setting up res2a_branch2b_relu
I0227 09:39:39.919565 16912 net.cpp:157] Top shape: 8 64 56 56 (1605632)
I0227 09:39:39.919574 16912 net.cpp:165] Memory required for data: 255296480
I0227 09:39:39.919584 16912 layer_factory.hpp:77] Creating layer res2a_branch2c
I0227 09:39:39.919598 16912 net.cpp:106] Creating Layer res2a_branch2c
I0227 09:39:39.919608 16912 net.cpp:454] res2a_branch2c <- res2a_branch2b
I0227 09:39:39.919622 16912 net.cpp:411] res2a_branch2c -> res2a_branch2c
I0227 09:39:39.919821 16912 net.cpp:150] Setting up res2a_branch2c
I0227 09:39:39.919839 16912 net.cpp:157] Top shape: 8 256 56 56 (6422528)
I0227 09:39:39.919849 16912 net.cpp:165] Memory required for data: 280986592
I0227 09:39:39.919860 16912 layer_factory.hpp:77] Creating layer bn2a_branch2c
I0227 09:39:39.919878 16912 net.cpp:106] Creating Layer bn2a_branch2c
I0227 09:39:39.919888 16912 net.cpp:454] bn2a_branch2c <- res2a_branch2c
I0227 09:39:39.919899 16912 net.cpp:397] bn2a_branch2c -> res2a_branch2c (in-place)
I0227 09:39:39.920089 16912 net.cpp:150] Setting up bn2a_branch2c
I0227 09:39:39.920106 16912 net.cpp:157] Top shape: 8 256 56 56 (6422528)
I0227 09:39:39.920116 16912 net.cpp:165] Memory required for data: 306676704
I0227 09:39:39.920131 16912 layer_factory.hpp:77] Creating layer scale2a_branch2c
I0227 09:39:39.920145 16912 net.cpp:106] Creating Layer scale2a_branch2c
I0227 09:39:39.920155 16912 net.cpp:454] scale2a_branch2c <- res2a_branch2c
I0227 09:39:39.920171 16912 net.cpp:397] scale2a_branch2c -> res2a_branch2c (in-place)
I0227 09:39:39.920220 16912 layer_factory.hpp:77] Creating layer scale2a_branch2c
I0227 09:39:39.920351 16912 net.cpp:150] Setting up scale2a_branch2c
I0227 09:39:39.920368 16912 net.cpp:157] Top shape: 8 256 56 56 (6422528)
I0227 09:39:39.920377 16912 net.cpp:165] Memory required for data: 332366816
I0227 09:39:39.920390 16912 layer_factory.hpp:77] Creating layer res2a
I0227 09:39:39.920411 16912 net.cpp:106] Creating Layer res2a
I0227 09:39:39.920423 16912 net.cpp:454] res2a <- res2a_branch1
I0227 09:39:39.920433 16912 net.cpp:454] res2a <- res2a_branch2c
I0227 09:39:39.920444 16912 net.cpp:411] res2a -> res2a
I0227 09:39:39.920490 16912 net.cpp:150] Setting up res2a
I0227 09:39:39.920506 16912 net.cpp:157] Top shape: 8 256 56 56 (6422528)
I0227 09:39:39.920516 16912 net.cpp:165] Memory required for data: 358056928
I0227 09:39:39.920526 16912 layer_factory.hpp:77] Creating layer res2a_relu
I0227 09:39:39.920536 16912 net.cpp:106] Creating Layer res2a_relu
I0227 09:39:39.920547 16912 net.cpp:454] res2a_relu <- res2a
I0227 09:39:39.920560 16912 net.cpp:397] res2a_relu -> res2a (in-place)
I0227 09:39:39.920573 16912 net.cpp:150] Setting up res2a_relu
I0227 09:39:39.920584 16912 net.cpp:157] Top shape: 8 256 56 56 (6422528)
I0227 09:39:39.920593 16912 net.cpp:165] Memory required for data: 383747040
I0227 09:39:39.920603 16912 layer_factory.hpp:77] Creating layer res2a_res2a_relu_0_split
I0227 09:39:39.920614 16912 net.cpp:106] Creating Layer res2a_res2a_relu_0_split
I0227 09:39:39.920624 16912 net.cpp:454] res2a_res2a_relu_0_split <- res2a
I0227 09:39:39.920634 16912 net.cpp:411] res2a_res2a_relu_0_split -> res2a_res2a_relu_0_split_0
I0227 09:39:39.920647 16912 net.cpp:411] res2a_res2a_relu_0_split -> res2a_res2a_relu_0_split_1
I0227 09:39:39.920698 16912 net.cpp:150] Setting up res2a_res2a_relu_0_split
I0227 09:39:39.920714 16912 net.cpp:157] Top shape: 8 256 56 56 (6422528)
I0227 09:39:39.920725 16912 net.cpp:157] Top shape: 8 256 56 56 (6422528)
I0227 09:39:39.920734 16912 net.cpp:165] Memory required for data: 435127264
I0227 09:39:39.920743 16912 layer_factory.hpp:77] Creating layer res2b_branch2a
I0227 09:39:39.920760 16912 net.cpp:106] Creating Layer res2b_branch2a
I0227 09:39:39.920770 16912 net.cpp:454] res2b_branch2a <- res2a_res2a_relu_0_split_0
I0227 09:39:39.920783 16912 net.cpp:411] res2b_branch2a -> res2b_branch2a
I0227 09:39:39.920981 16912 net.cpp:150] Setting up res2b_branch2a
I0227 09:39:39.921005 16912 net.cpp:157] Top shape: 8 64 56 56 (1605632)
I0227 09:39:39.921023 16912 net.cpp:165] Memory required for data: 441549792
I0227 09:39:39.921036 16912 layer_factory.hpp:77] Creating layer bn2b_branch2a
I0227 09:39:39.921048 16912 net.cpp:106] Creating Layer bn2b_branch2a
I0227 09:39:39.921058 16912 net.cpp:454] bn2b_branch2a <- res2b_branch2a
I0227 09:39:39.921069 16912 net.cpp:397] bn2b_branch2a -> res2b_branch2a (in-place)
I0227 09:39:39.921298 16912 net.cpp:150] Setting up bn2b_branch2a
I0227 09:39:39.921317 16912 net.cpp:157] Top shape: 8 64 56 56 (1605632)
I0227 09:39:39.921327 16912 net.cpp:165] Memory required for data: 447972320
I0227 09:39:39.921349 16912 layer_factory.hpp:77] Creating layer scale2b_branch2a
I0227 09:39:39.921362 16912 net.cpp:106] Creating Layer scale2b_branch2a
I0227 09:39:39.921372 16912 net.cpp:454] scale2b_branch2a <- res2b_branch2a
I0227 09:39:39.921387 16912 net.cpp:397] scale2b_branch2a -> res2b_branch2a (in-place)
I0227 09:39:39.921442 16912 layer_factory.hpp:77] Creating layer scale2b_branch2a
I0227 09:39:39.921582 16912 net.cpp:150] Setting up scale2b_branch2a
I0227 09:39:39.921599 16912 net.cpp:157] Top shape: 8 64 56 56 (1605632)
I0227 09:39:39.921608 16912 net.cpp:165] Memory required for data: 454394848
I0227 09:39:39.921622 16912 layer_factory.hpp:77] Creating layer res2b_branch2a_relu
I0227 09:39:39.921634 16912 net.cpp:106] Creating Layer res2b_branch2a_relu
I0227 09:39:39.921644 16912 net.cpp:454] res2b_branch2a_relu <- res2b_branch2a
I0227 09:39:39.921658 16912 net.cpp:397] res2b_branch2a_relu -> res2b_branch2a (in-place)
I0227 09:39:39.921671 16912 net.cpp:150] Setting up res2b_branch2a_relu
I0227 09:39:39.921682 16912 net.cpp:157] Top shape: 8 64 56 56 (1605632)
I0227 09:39:39.921691 16912 net.cpp:165] Memory required for data: 460817376
I0227 09:39:39.921701 16912 layer_factory.hpp:77] Creating layer res2b_branch2b
I0227 09:39:39.921715 16912 net.cpp:106] Creating Layer res2b_branch2b
I0227 09:39:39.921725 16912 net.cpp:454] res2b_branch2b <- res2b_branch2a
I0227 09:39:39.921773 16912 net.cpp:411] res2b_branch2b -> res2b_branch2b
I0227 09:39:39.921998 16912 net.cpp:150] Setting up res2b_branch2b
I0227 09:39:39.922016 16912 net.cpp:157] Top shape: 8 64 56 56 (1605632)
I0227 09:39:39.922026 16912 net.cpp:165] Memory required for data: 467239904
I0227 09:39:39.922039 16912 layer_factory.hpp:77] Creating layer bn2b_branch2b
I0227 09:39:39.922051 16912 net.cpp:106] Creating Layer bn2b_branch2b
I0227 09:39:39.922060 16912 net.cpp:454] bn2b_branch2b <- res2b_branch2b
I0227 09:39:39.922072 16912 net.cpp:397] bn2b_branch2b -> res2b_branch2b (in-place)
I0227 09:39:39.922282 16912 net.cpp:150] Setting up bn2b_branch2b
I0227 09:39:39.922300 16912 net.cpp:157] Top shape: 8 64 56 56 (1605632)
I0227 09:39:39.922310 16912 net.cpp:165] Memory required for data: 473662432
I0227 09:39:39.922325 16912 layer_factory.hpp:77] Creating layer scale2b_branch2b
I0227 09:39:39.922338 16912 net.cpp:106] Creating Layer scale2b_branch2b
I0227 09:39:39.922348 16912 net.cpp:454] scale2b_branch2b <- res2b_branch2b
I0227 09:39:39.922360 16912 net.cpp:397] scale2b_branch2b -> res2b_branch2b (in-place)
I0227 09:39:39.922417 16912 layer_factory.hpp:77] Creating layer scale2b_branch2b
I0227 09:39:39.922560 16912 net.cpp:150] Setting up scale2b_branch2b
I0227 09:39:39.922579 16912 net.cpp:157] Top shape: 8 64 56 56 (1605632)
I0227 09:39:39.922587 16912 net.cpp:165] Memory required for data: 480084960
I0227 09:39:39.922600 16912 layer_factory.hpp:77] Creating layer res2b_branch2b_relu
I0227 09:39:39.922616 16912 net.cpp:106] Creating Layer res2b_branch2b_relu
I0227 09:39:39.922626 16912 net.cpp:454] res2b_branch2b_relu <- res2b_branch2b
I0227 09:39:39.922641 16912 net.cpp:397] res2b_branch2b_relu -> res2b_branch2b (in-place)
I0227 09:39:39.922654 16912 net.cpp:150] Setting up res2b_branch2b_relu
I0227 09:39:39.922667 16912 net.cpp:157] Top shape: 8 64 56 56 (1605632)
I0227 09:39:39.922675 16912 net.cpp:165] Memory required for data: 486507488
I0227 09:39:39.922691 16912 layer_factory.hpp:77] Creating layer res2b_branch2c
I0227 09:39:39.922719 16912 net.cpp:106] Creating Layer res2b_branch2c
I0227 09:39:39.922730 16912 net.cpp:454] res2b_branch2c <- res2b_branch2b
I0227 09:39:39.922742 16912 net.cpp:411] res2b_branch2c -> res2b_branch2c
I0227 09:39:39.922946 16912 net.cpp:150] Setting up res2b_branch2c
I0227 09:39:39.922966 16912 net.cpp:157] Top shape: 8 256 56 56 (6422528)
I0227 09:39:39.922976 16912 net.cpp:165] Memory required for data: 512197600
I0227 09:39:39.922987 16912 layer_factory.hpp:77] Creating layer bn2b_branch2c
I0227 09:39:39.922999 16912 net.cpp:106] Creating Layer bn2b_branch2c
I0227 09:39:39.923009 16912 net.cpp:454] bn2b_branch2c <- res2b_branch2c
I0227 09:39:39.923024 16912 net.cpp:397] bn2b_branch2c -> res2b_branch2c (in-place)
I0227 09:39:39.923228 16912 net.cpp:150] Setting up bn2b_branch2c
I0227 09:39:39.923245 16912 net.cpp:157] Top shape: 8 256 56 56 (6422528)
I0227 09:39:39.923255 16912 net.cpp:165] Memory required for data: 537887712
I0227 09:39:39.923270 16912 layer_factory.hpp:77] Creating layer scale2b_branch2c
I0227 09:39:39.923283 16912 net.cpp:106] Creating Layer scale2b_branch2c
I0227 09:39:39.923293 16912 net.cpp:454] scale2b_branch2c <- res2b_branch2c
I0227 09:39:39.923305 16912 net.cpp:397] scale2b_branch2c -> res2b_branch2c (in-place)
I0227 09:39:39.923358 16912 layer_factory.hpp:77] Creating layer scale2b_branch2c
I0227 09:39:39.923493 16912 net.cpp:150] Setting up scale2b_branch2c
I0227 09:39:39.923511 16912 net.cpp:157] Top shape: 8 256 56 56 (6422528)
I0227 09:39:39.923521 16912 net.cpp:165] Memory required for data: 563577824
I0227 09:39:39.923534 16912 layer_factory.hpp:77] Creating layer res2b
I0227 09:39:39.923547 16912 net.cpp:106] Creating Layer res2b
I0227 09:39:39.923557 16912 net.cpp:454] res2b <- res2a_res2a_relu_0_split_1
I0227 09:39:39.923568 16912 net.cpp:454] res2b <- res2b_branch2c
I0227 09:39:39.923583 16912 net.cpp:411] res2b -> res2b
I0227 09:39:39.923615 16912 net.cpp:150] Setting up res2b
I0227 09:39:39.923631 16912 net.cpp:157] Top shape: 8 256 56 56 (6422528)
I0227 09:39:39.923640 16912 net.cpp:165] Memory required for data: 589267936
I0227 09:39:39.923650 16912 layer_factory.hpp:77] Creating layer res2b_relu
I0227 09:39:39.923666 16912 net.cpp:106] Creating Layer res2b_relu
I0227 09:39:39.923676 16912 net.cpp:454] res2b_relu <- res2b
I0227 09:39:39.923686 16912 net.cpp:397] res2b_relu -> res2b (in-place)
I0227 09:39:39.923699 16912 net.cpp:150] Setting up res2b_relu
I0227 09:39:39.923710 16912 net.cpp:157] Top shape: 8 256 56 56 (6422528)
I0227 09:39:39.923720 16912 net.cpp:165] Memory required for data: 614958048
I0227 09:39:39.923729 16912 layer_factory.hpp:77] Creating layer res2b_res2b_relu_0_split
I0227 09:39:39.923740 16912 net.cpp:106] Creating Layer res2b_res2b_relu_0_split
I0227 09:39:39.923753 16912 net.cpp:454] res2b_res2b_relu_0_split <- res2b
I0227 09:39:39.923764 16912 net.cpp:411] res2b_res2b_relu_0_split -> res2b_res2b_relu_0_split_0
I0227 09:39:39.923777 16912 net.cpp:411] res2b_res2b_relu_0_split -> res2b_res2b_relu_0_split_1
I0227 09:39:39.923823 16912 net.cpp:150] Setting up res2b_res2b_relu_0_split
I0227 09:39:39.923838 16912 net.cpp:157] Top shape: 8 256 56 56 (6422528)
I0227 09:39:39.923849 16912 net.cpp:157] Top shape: 8 256 56 56 (6422528)
I0227 09:39:39.923858 16912 net.cpp:165] Memory required for data: 666338272
I0227 09:39:39.923867 16912 layer_factory.hpp:77] Creating layer res2c_branch2a
I0227 09:39:39.923882 16912 net.cpp:106] Creating Layer res2c_branch2a
I0227 09:39:39.923892 16912 net.cpp:454] res2c_branch2a <- res2b_res2b_relu_0_split_0
I0227 09:39:39.923907 16912 net.cpp:411] res2c_branch2a -> res2c_branch2a
I0227 09:39:39.924103 16912 net.cpp:150] Setting up res2c_branch2a
I0227 09:39:39.924120 16912 net.cpp:157] Top shape: 8 64 56 56 (1605632)
I0227 09:39:39.924130 16912 net.cpp:165] Memory required for data: 672760800
I0227 09:39:39.924142 16912 layer_factory.hpp:77] Creating layer bn2c_branch2a
I0227 09:39:39.924160 16912 net.cpp:106] Creating Layer bn2c_branch2a
I0227 09:39:39.924180 16912 net.cpp:454] bn2c_branch2a <- res2c_branch2a
I0227 09:39:39.924199 16912 net.cpp:397] bn2c_branch2a -> res2c_branch2a (in-place)
I0227 09:39:39.924401 16912 net.cpp:150] Setting up bn2c_branch2a
I0227 09:39:39.924418 16912 net.cpp:157] Top shape: 8 64 56 56 (1605632)
I0227 09:39:39.924428 16912 net.cpp:165] Memory required for data: 679183328
I0227 09:39:39.924443 16912 layer_factory.hpp:77] Creating layer scale2c_branch2a
I0227 09:39:39.924459 16912 net.cpp:106] Creating Layer scale2c_branch2a
I0227 09:39:39.924469 16912 net.cpp:454] scale2c_branch2a <- res2c_branch2a
I0227 09:39:39.924481 16912 net.cpp:397] scale2c_branch2a -> res2c_branch2a (in-place)
I0227 09:39:39.924535 16912 layer_factory.hpp:77] Creating layer scale2c_branch2a
I0227 09:39:39.924710 16912 net.cpp:150] Setting up scale2c_branch2a
I0227 09:39:39.924727 16912 net.cpp:157] Top shape: 8 64 56 56 (1605632)
I0227 09:39:39.924737 16912 net.cpp:165] Memory required for data: 685605856
I0227 09:39:39.924751 16912 layer_factory.hpp:77] Creating layer res2c_branch2a_relu
I0227 09:39:39.924762 16912 net.cpp:106] Creating Layer res2c_branch2a_relu
I0227 09:39:39.924772 16912 net.cpp:454] res2c_branch2a_relu <- res2c_branch2a
I0227 09:39:39.924789 16912 net.cpp:397] res2c_branch2a_relu -> res2c_branch2a (in-place)
I0227 09:39:39.924803 16912 net.cpp:150] Setting up res2c_branch2a_relu
I0227 09:39:39.924814 16912 net.cpp:157] Top shape: 8 64 56 56 (1605632)
I0227 09:39:39.924823 16912 net.cpp:165] Memory required for data: 692028384
I0227 09:39:39.924832 16912 layer_factory.hpp:77] Creating layer res2c_branch2b
I0227 09:39:39.924846 16912 net.cpp:106] Creating Layer res2c_branch2b
I0227 09:39:39.924855 16912 net.cpp:454] res2c_branch2b <- res2c_branch2a
I0227 09:39:39.924870 16912 net.cpp:411] res2c_branch2b -> res2c_branch2b
I0227 09:39:39.925088 16912 net.cpp:150] Setting up res2c_branch2b
I0227 09:39:39.925107 16912 net.cpp:157] Top shape: 8 64 56 56 (1605632)
I0227 09:39:39.925117 16912 net.cpp:165] Memory required for data: 698450912
I0227 09:39:39.925128 16912 layer_factory.hpp:77] Creating layer bn2c_branch2b
I0227 09:39:39.925143 16912 net.cpp:106] Creating Layer bn2c_branch2b
I0227 09:39:39.925153 16912 net.cpp:454] bn2c_branch2b <- res2c_branch2b
I0227 09:39:39.925164 16912 net.cpp:397] bn2c_branch2b -> res2c_branch2b (in-place)
I0227 09:39:39.925443 16912 net.cpp:150] Setting up bn2c_branch2b
I0227 09:39:39.925465 16912 net.cpp:157] Top shape: 8 64 56 56 (1605632)
I0227 09:39:39.925475 16912 net.cpp:165] Memory required for data: 704873440
I0227 09:39:39.925492 16912 layer_factory.hpp:77] Creating layer scale2c_branch2b
I0227 09:39:39.925508 16912 net.cpp:106] Creating Layer scale2c_branch2b
I0227 09:39:39.925518 16912 net.cpp:454] scale2c_branch2b <- res2c_branch2b
I0227 09:39:39.925531 16912 net.cpp:397] scale2c_branch2b -> res2c_branch2b (in-place)
I0227 09:39:39.926735 16912 layer_factory.hpp:77] Creating layer scale2c_branch2b
I0227 09:39:39.926879 16912 net.cpp:150] Setting up scale2c_branch2b
I0227 09:39:39.926898 16912 net.cpp:157] Top shape: 8 64 56 56 (1605632)
I0227 09:39:39.926908 16912 net.cpp:165] Memory required for data: 711295968
I0227 09:39:39.926920 16912 layer_factory.hpp:77] Creating layer res2c_branch2b_relu
I0227 09:39:39.926935 16912 net.cpp:106] Creating Layer res2c_branch2b_relu
I0227 09:39:39.926945 16912 net.cpp:454] res2c_branch2b_relu <- res2c_branch2b
I0227 09:39:39.926957 16912 net.cpp:397] res2c_branch2b_relu -> res2c_branch2b (in-place)
I0227 09:39:39.926970 16912 net.cpp:150] Setting up res2c_branch2b_relu
I0227 09:39:39.926981 16912 net.cpp:157] Top shape: 8 64 56 56 (1605632)
I0227 09:39:39.926990 16912 net.cpp:165] Memory required for data: 717718496
I0227 09:39:39.927000 16912 layer_factory.hpp:77] Creating layer res2c_branch2c
I0227 09:39:39.927016 16912 net.cpp:106] Creating Layer res2c_branch2c
I0227 09:39:39.927026 16912 net.cpp:454] res2c_branch2c <- res2c_branch2b
I0227 09:39:39.927038 16912 net.cpp:411] res2c_branch2c -> res2c_branch2c
I0227 09:39:39.927242 16912 net.cpp:150] Setting up res2c_branch2c
I0227 09:39:39.927265 16912 net.cpp:157] Top shape: 8 256 56 56 (6422528)
I0227 09:39:39.927284 16912 net.cpp:165] Memory required for data: 743408608
I0227 09:39:39.927297 16912 layer_factory.hpp:77] Creating layer bn2c_branch2c
I0227 09:39:39.927310 16912 net.cpp:106] Creating Layer bn2c_branch2c
I0227 09:39:39.927320 16912 net.cpp:454] bn2c_branch2c <- res2c_branch2c
I0227 09:39:39.927335 16912 net.cpp:397] bn2c_branch2c -> res2c_branch2c (in-place)
I0227 09:39:39.927536 16912 net.cpp:150] Setting up bn2c_branch2c
I0227 09:39:39.927554 16912 net.cpp:157] Top shape: 8 256 56 56 (6422528)
I0227 09:39:39.927563 16912 net.cpp:165] Memory required for data: 769098720
I0227 09:39:39.927578 16912 layer_factory.hpp:77] Creating layer scale2c_branch2c
I0227 09:39:39.927592 16912 net.cpp:106] Creating Layer scale2c_branch2c
I0227 09:39:39.927601 16912 net.cpp:454] scale2c_branch2c <- res2c_branch2c
I0227 09:39:39.927613 16912 net.cpp:397] scale2c_branch2c -> res2c_branch2c (in-place)
I0227 09:39:39.927666 16912 layer_factory.hpp:77] Creating layer scale2c_branch2c
I0227 09:39:39.927796 16912 net.cpp:150] Setting up scale2c_branch2c
I0227 09:39:39.927814 16912 net.cpp:157] Top shape: 8 256 56 56 (6422528)
I0227 09:39:39.927824 16912 net.cpp:165] Memory required for data: 794788832
I0227 09:39:39.927850 16912 layer_factory.hpp:77] Creating layer res2c
I0227 09:39:39.927863 16912 net.cpp:106] Creating Layer res2c
I0227 09:39:39.927873 16912 net.cpp:454] res2c <- res2b_res2b_relu_0_split_1
I0227 09:39:39.927884 16912 net.cpp:454] res2c <- res2c_branch2c
I0227 09:39:39.927898 16912 net.cpp:411] res2c -> res2c
I0227 09:39:39.927932 16912 net.cpp:150] Setting up res2c
I0227 09:39:39.927947 16912 net.cpp:157] Top shape: 8 256 56 56 (6422528)
I0227 09:39:39.927958 16912 net.cpp:165] Memory required for data: 820478944
I0227 09:39:39.927966 16912 layer_factory.hpp:77] Creating layer res2c_relu
I0227 09:39:39.927983 16912 net.cpp:106] Creating Layer res2c_relu
I0227 09:39:39.927994 16912 net.cpp:454] res2c_relu <- res2c
I0227 09:39:39.928004 16912 net.cpp:397] res2c_relu -> res2c (in-place)
I0227 09:39:39.928017 16912 net.cpp:150] Setting up res2c_relu
I0227 09:39:39.928028 16912 net.cpp:157] Top shape: 8 256 56 56 (6422528)
I0227 09:39:39.928037 16912 net.cpp:165] Memory required for data: 846169056
I0227 09:39:39.928047 16912 layer_factory.hpp:77] Creating layer res2c_res2c_relu_0_split
I0227 09:39:39.928058 16912 net.cpp:106] Creating Layer res2c_res2c_relu_0_split
I0227 09:39:39.928068 16912 net.cpp:454] res2c_res2c_relu_0_split <- res2c
I0227 09:39:39.928079 16912 net.cpp:411] res2c_res2c_relu_0_split -> res2c_res2c_relu_0_split_0
I0227 09:39:39.928092 16912 net.cpp:411] res2c_res2c_relu_0_split -> res2c_res2c_relu_0_split_1
I0227 09:39:39.928138 16912 net.cpp:150] Setting up res2c_res2c_relu_0_split
I0227 09:39:39.928153 16912 net.cpp:157] Top shape: 8 256 56 56 (6422528)
I0227 09:39:39.928164 16912 net.cpp:157] Top shape: 8 256 56 56 (6422528)
I0227 09:39:39.928176 16912 net.cpp:165] Memory required for data: 897549280
I0227 09:39:39.928186 16912 layer_factory.hpp:77] Creating layer res3a_branch1
I0227 09:39:39.928200 16912 net.cpp:106] Creating Layer res3a_branch1
I0227 09:39:39.928210 16912 net.cpp:454] res3a_branch1 <- res2c_res2c_relu_0_split_0
I0227 09:39:39.928226 16912 net.cpp:411] res3a_branch1 -> res3a_branch1
I0227 09:39:39.929170 16912 net.cpp:150] Setting up res3a_branch1
I0227 09:39:39.929193 16912 net.cpp:157] Top shape: 8 512 28 28 (3211264)
I0227 09:39:39.929203 16912 net.cpp:165] Memory required for data: 910394336
I0227 09:39:39.929215 16912 layer_factory.hpp:77] Creating layer bn3a_branch1
I0227 09:39:39.929229 16912 net.cpp:106] Creating Layer bn3a_branch1
I0227 09:39:39.929239 16912 net.cpp:454] bn3a_branch1 <- res3a_branch1
I0227 09:39:39.929260 16912 net.cpp:397] bn3a_branch1 -> res3a_branch1 (in-place)
I0227 09:39:39.930122 16912 net.cpp:150] Setting up bn3a_branch1
I0227 09:39:39.930143 16912 net.cpp:157] Top shape: 8 512 28 28 (3211264)
I0227 09:39:39.930153 16912 net.cpp:165] Memory required for data: 923239392
I0227 09:39:39.930176 16912 layer_factory.hpp:77] Creating layer scale3a_branch1
I0227 09:39:39.930200 16912 net.cpp:106] Creating Layer scale3a_branch1
I0227 09:39:39.930212 16912 net.cpp:454] scale3a_branch1 <- res3a_branch1
I0227 09:39:39.930225 16912 net.cpp:397] scale3a_branch1 -> res3a_branch1 (in-place)
I0227 09:39:39.930284 16912 layer_factory.hpp:77] Creating layer scale3a_branch1
I0227 09:39:39.930418 16912 net.cpp:150] Setting up scale3a_branch1
I0227 09:39:39.930435 16912 net.cpp:157] Top shape: 8 512 28 28 (3211264)
I0227 09:39:39.930444 16912 net.cpp:165] Memory required for data: 936084448
I0227 09:39:39.930459 16912 layer_factory.hpp:77] Creating layer res3a_branch2a
I0227 09:39:39.930476 16912 net.cpp:106] Creating Layer res3a_branch2a
I0227 09:39:39.930487 16912 net.cpp:454] res3a_branch2a <- res2c_res2c_relu_0_split_1
I0227 09:39:39.930501 16912 net.cpp:411] res3a_branch2a -> res3a_branch2a
I0227 09:39:39.930721 16912 net.cpp:150] Setting up res3a_branch2a
I0227 09:39:39.930740 16912 net.cpp:157] Top shape: 8 128 28 28 (802816)
I0227 09:39:39.930749 16912 net.cpp:165] Memory required for data: 939295712
I0227 09:39:39.930761 16912 layer_factory.hpp:77] Creating layer bn3a_branch2a
I0227 09:39:39.930778 16912 net.cpp:106] Creating Layer bn3a_branch2a
I0227 09:39:39.930788 16912 net.cpp:454] bn3a_branch2a <- res3a_branch2a
I0227 09:39:39.930799 16912 net.cpp:397] bn3a_branch2a -> res3a_branch2a (in-place)
I0227 09:39:39.930991 16912 net.cpp:150] Setting up bn3a_branch2a
I0227 09:39:39.931008 16912 net.cpp:157] Top shape: 8 128 28 28 (802816)
I0227 09:39:39.931018 16912 net.cpp:165] Memory required for data: 942506976
I0227 09:39:39.931033 16912 layer_factory.hpp:77] Creating layer scale3a_branch2a
I0227 09:39:39.931046 16912 net.cpp:106] Creating Layer scale3a_branch2a
I0227 09:39:39.931056 16912 net.cpp:454] scale3a_branch2a <- res3a_branch2a
I0227 09:39:39.931067 16912 net.cpp:397] scale3a_branch2a -> res3a_branch2a (in-place)
I0227 09:39:39.931120 16912 layer_factory.hpp:77] Creating layer scale3a_branch2a
I0227 09:39:39.931254 16912 net.cpp:150] Setting up scale3a_branch2a
I0227 09:39:39.931270 16912 net.cpp:157] Top shape: 8 128 28 28 (802816)
I0227 09:39:39.931280 16912 net.cpp:165] Memory required for data: 945718240
I0227 09:39:39.931293 16912 layer_factory.hpp:77] Creating layer res3a_branch2a_relu
I0227 09:39:39.931309 16912 net.cpp:106] Creating Layer res3a_branch2a_relu
I0227 09:39:39.931319 16912 net.cpp:454] res3a_branch2a_relu <- res3a_branch2a
I0227 09:39:39.931330 16912 net.cpp:397] res3a_branch2a_relu -> res3a_branch2a (in-place)
I0227 09:39:39.931342 16912 net.cpp:150] Setting up res3a_branch2a_relu
I0227 09:39:39.931354 16912 net.cpp:157] Top shape: 8 128 28 28 (802816)
I0227 09:39:39.931363 16912 net.cpp:165] Memory required for data: 948929504
I0227 09:39:39.931372 16912 layer_factory.hpp:77] Creating layer res3a_branch2b
I0227 09:39:39.931390 16912 net.cpp:106] Creating Layer res3a_branch2b
I0227 09:39:39.931399 16912 net.cpp:454] res3a_branch2b <- res3a_branch2a
I0227 09:39:39.931411 16912 net.cpp:411] res3a_branch2b -> res3a_branch2b
I0227 09:39:39.932369 16912 net.cpp:150] Setting up res3a_branch2b
I0227 09:39:39.932399 16912 net.cpp:157] Top shape: 8 128 28 28 (802816)
I0227 09:39:39.932415 16912 net.cpp:165] Memory required for data: 952140768
I0227 09:39:39.932446 16912 layer_factory.hpp:77] Creating layer bn3a_branch2b
I0227 09:39:39.932461 16912 net.cpp:106] Creating Layer bn3a_branch2b
I0227 09:39:39.932471 16912 net.cpp:454] bn3a_branch2b <- res3a_branch2b
I0227 09:39:39.932487 16912 net.cpp:397] bn3a_branch2b -> res3a_branch2b (in-place)
I0227 09:39:39.932688 16912 net.cpp:150] Setting up bn3a_branch2b
I0227 09:39:39.932705 16912 net.cpp:157] Top shape: 8 128 28 28 (802816)
I0227 09:39:39.932715 16912 net.cpp:165] Memory required for data: 955352032
I0227 09:39:39.932730 16912 layer_factory.hpp:77] Creating layer scale3a_branch2b
I0227 09:39:39.932744 16912 net.cpp:106] Creating Layer scale3a_branch2b
I0227 09:39:39.932754 16912 net.cpp:454] scale3a_branch2b <- res3a_branch2b
I0227 09:39:39.932780 16912 net.cpp:397] scale3a_branch2b -> res3a_branch2b (in-place)
I0227 09:39:39.932842 16912 layer_factory.hpp:77] Creating layer scale3a_branch2b
I0227 09:39:39.932979 16912 net.cpp:150] Setting up scale3a_branch2b
I0227 09:39:39.932996 16912 net.cpp:157] Top shape: 8 128 28 28 (802816)
I0227 09:39:39.933007 16912 net.cpp:165] Memory required for data: 958563296
I0227 09:39:39.933019 16912 layer_factory.hpp:77] Creating layer res3a_branch2b_relu
I0227 09:39:39.933032 16912 net.cpp:106] Creating Layer res3a_branch2b_relu
I0227 09:39:39.933043 16912 net.cpp:454] res3a_branch2b_relu <- res3a_branch2b
I0227 09:39:39.933056 16912 net.cpp:397] res3a_branch2b_relu -> res3a_branch2b (in-place)
I0227 09:39:39.933069 16912 net.cpp:150] Setting up res3a_branch2b_relu
I0227 09:39:39.933081 16912 net.cpp:157] Top shape: 8 128 28 28 (802816)
I0227 09:39:39.933090 16912 net.cpp:165] Memory required for data: 961774560
I0227 09:39:39.933100 16912 layer_factory.hpp:77] Creating layer res3a_branch2c
I0227 09:39:39.933122 16912 net.cpp:106] Creating Layer res3a_branch2c
I0227 09:39:39.933133 16912 net.cpp:454] res3a_branch2c <- res3a_branch2b
I0227 09:39:39.933148 16912 net.cpp:411] res3a_branch2c -> res3a_branch2c
I0227 09:39:39.933403 16912 net.cpp:150] Setting up res3a_branch2c
I0227 09:39:39.933423 16912 net.cpp:157] Top shape: 8 512 28 28 (3211264)
I0227 09:39:39.933431 16912 net.cpp:165] Memory required for data: 974619616
I0227 09:39:39.933444 16912 layer_factory.hpp:77] Creating layer bn3a_branch2c
I0227 09:39:39.933457 16912 net.cpp:106] Creating Layer bn3a_branch2c
I0227 09:39:39.933467 16912 net.cpp:454] bn3a_branch2c <- res3a_branch2c
I0227 09:39:39.933478 16912 net.cpp:397] bn3a_branch2c -> res3a_branch2c (in-place)
I0227 09:39:39.933677 16912 net.cpp:150] Setting up bn3a_branch2c
I0227 09:39:39.933694 16912 net.cpp:157] Top shape: 8 512 28 28 (3211264)
I0227 09:39:39.933703 16912 net.cpp:165] Memory required for data: 987464672
I0227 09:39:39.933719 16912 layer_factory.hpp:77] Creating layer scale3a_branch2c
I0227 09:39:39.933735 16912 net.cpp:106] Creating Layer scale3a_branch2c
I0227 09:39:39.933745 16912 net.cpp:454] scale3a_branch2c <- res3a_branch2c
I0227 09:39:39.933758 16912 net.cpp:397] scale3a_branch2c -> res3a_branch2c (in-place)
I0227 09:39:39.933814 16912 layer_factory.hpp:77] Creating layer scale3a_branch2c
I0227 09:39:39.933954 16912 net.cpp:150] Setting up scale3a_branch2c
I0227 09:39:39.933971 16912 net.cpp:157] Top shape: 8 512 28 28 (3211264)
I0227 09:39:39.933981 16912 net.cpp:165] Memory required for data: 1000309728
I0227 09:39:39.933995 16912 layer_factory.hpp:77] Creating layer res3a
I0227 09:39:39.934007 16912 net.cpp:106] Creating Layer res3a
I0227 09:39:39.934017 16912 net.cpp:454] res3a <- res3a_branch1
I0227 09:39:39.934027 16912 net.cpp:454] res3a <- res3a_branch2c
I0227 09:39:39.934042 16912 net.cpp:411] res3a -> res3a
I0227 09:39:39.934080 16912 net.cpp:150] Setting up res3a
I0227 09:39:39.934095 16912 net.cpp:157] Top shape: 8 512 28 28 (3211264)
I0227 09:39:39.934105 16912 net.cpp:165] Memory required for data: 1013154784
I0227 09:39:39.934114 16912 layer_factory.hpp:77] Creating layer res3a_relu
I0227 09:39:39.934126 16912 net.cpp:106] Creating Layer res3a_relu
I0227 09:39:39.934136 16912 net.cpp:454] res3a_relu <- res3a
I0227 09:39:39.934147 16912 net.cpp:397] res3a_relu -> res3a (in-place)
I0227 09:39:39.934160 16912 net.cpp:150] Setting up res3a_relu
I0227 09:39:39.934171 16912 net.cpp:157] Top shape: 8 512 28 28 (3211264)
I0227 09:39:39.934180 16912 net.cpp:165] Memory required for data: 1025999840
I0227 09:39:39.934190 16912 layer_factory.hpp:77] Creating layer res3a_res3a_relu_0_split
I0227 09:39:39.934204 16912 net.cpp:106] Creating Layer res3a_res3a_relu_0_split
I0227 09:39:39.934213 16912 net.cpp:454] res3a_res3a_relu_0_split <- res3a
I0227 09:39:39.934226 16912 net.cpp:411] res3a_res3a_relu_0_split -> res3a_res3a_relu_0_split_0
I0227 09:39:39.934238 16912 net.cpp:411] res3a_res3a_relu_0_split -> res3a_res3a_relu_0_split_1
I0227 09:39:39.934295 16912 net.cpp:150] Setting up res3a_res3a_relu_0_split
I0227 09:39:39.934321 16912 net.cpp:157] Top shape: 8 512 28 28 (3211264)
I0227 09:39:39.934334 16912 net.cpp:157] Top shape: 8 512 28 28 (3211264)
I0227 09:39:39.934342 16912 net.cpp:165] Memory required for data: 1051689952
I0227 09:39:39.934351 16912 layer_factory.hpp:77] Creating layer res3b1_branch2a
I0227 09:39:39.934366 16912 net.cpp:106] Creating Layer res3b1_branch2a
I0227 09:39:39.934376 16912 net.cpp:454] res3b1_branch2a <- res3a_res3a_relu_0_split_0
I0227 09:39:39.934391 16912 net.cpp:411] res3b1_branch2a -> res3b1_branch2a
I0227 09:39:39.935291 16912 net.cpp:150] Setting up res3b1_branch2a
I0227 09:39:39.935312 16912 net.cpp:157] Top shape: 8 128 28 28 (802816)
I0227 09:39:39.935322 16912 net.cpp:165] Memory required for data: 1054901216
I0227 09:39:39.935335 16912 layer_factory.hpp:77] Creating layer bn3b1_branch2a
I0227 09:39:39.935348 16912 net.cpp:106] Creating Layer bn3b1_branch2a
I0227 09:39:39.935359 16912 net.cpp:454] bn3b1_branch2a <- res3b1_branch2a
I0227 09:39:39.935370 16912 net.cpp:397] bn3b1_branch2a -> res3b1_branch2a (in-place)
I0227 09:39:39.935580 16912 net.cpp:150] Setting up bn3b1_branch2a
I0227 09:39:39.935596 16912 net.cpp:157] Top shape: 8 128 28 28 (802816)
I0227 09:39:39.935606 16912 net.cpp:165] Memory required for data: 1058112480
I0227 09:39:39.935624 16912 layer_factory.hpp:77] Creating layer scale3b1_branch2a
I0227 09:39:39.935638 16912 net.cpp:106] Creating Layer scale3b1_branch2a
I0227 09:39:39.935649 16912 net.cpp:454] scale3b1_branch2a <- res3b1_branch2a
I0227 09:39:39.935660 16912 net.cpp:397] scale3b1_branch2a -> res3b1_branch2a (in-place)
I0227 09:39:39.935716 16912 layer_factory.hpp:77] Creating layer scale3b1_branch2a
I0227 09:39:39.935850 16912 net.cpp:150] Setting up scale3b1_branch2a
I0227 09:39:39.935868 16912 net.cpp:157] Top shape: 8 128 28 28 (802816)
I0227 09:39:39.935878 16912 net.cpp:165] Memory required for data: 1061323744
I0227 09:39:39.935890 16912 layer_factory.hpp:77] Creating layer res3b1_branch2a_relu
I0227 09:39:39.935905 16912 net.cpp:106] Creating Layer res3b1_branch2a_relu
I0227 09:39:39.935916 16912 net.cpp:454] res3b1_branch2a_relu <- res3b1_branch2a
I0227 09:39:39.935927 16912 net.cpp:397] res3b1_branch2a_relu -> res3b1_branch2a (in-place)
I0227 09:39:39.935940 16912 net.cpp:150] Setting up res3b1_branch2a_relu
I0227 09:39:39.935951 16912 net.cpp:157] Top shape: 8 128 28 28 (802816)
I0227 09:39:39.935961 16912 net.cpp:165] Memory required for data: 1064535008
I0227 09:39:39.935971 16912 layer_factory.hpp:77] Creating layer res3b1_branch2b
I0227 09:39:39.935986 16912 net.cpp:106] Creating Layer res3b1_branch2b
I0227 09:39:39.935997 16912 net.cpp:454] res3b1_branch2b <- res3b1_branch2a
I0227 09:39:39.936008 16912 net.cpp:411] res3b1_branch2b -> res3b1_branch2b
I0227 09:39:39.936971 16912 net.cpp:150] Setting up res3b1_branch2b
I0227 09:39:39.936993 16912 net.cpp:157] Top shape: 8 128 28 28 (802816)
I0227 09:39:39.937003 16912 net.cpp:165] Memory required for data: 1067746272
I0227 09:39:39.937016 16912 layer_factory.hpp:77] Creating layer bn3b1_branch2b
I0227 09:39:39.937028 16912 net.cpp:106] Creating Layer bn3b1_branch2b
I0227 09:39:39.937038 16912 net.cpp:454] bn3b1_branch2b <- res3b1_branch2b
I0227 09:39:39.937050 16912 net.cpp:397] bn3b1_branch2b -> res3b1_branch2b (in-place)
I0227 09:39:39.937264 16912 net.cpp:150] Setting up bn3b1_branch2b
I0227 09:39:39.937283 16912 net.cpp:157] Top shape: 8 128 28 28 (802816)
I0227 09:39:39.937292 16912 net.cpp:165] Memory required for data: 1070957536
I0227 09:39:39.937309 16912 layer_factory.hpp:77] Creating layer scale3b1_branch2b
I0227 09:39:39.937325 16912 net.cpp:106] Creating Layer scale3b1_branch2b
I0227 09:39:39.937335 16912 net.cpp:454] scale3b1_branch2b <- res3b1_branch2b
I0227 09:39:39.937347 16912 net.cpp:397] scale3b1_branch2b -> res3b1_branch2b (in-place)
I0227 09:39:39.937404 16912 layer_factory.hpp:77] Creating layer scale3b1_branch2b
I0227 09:39:39.937541 16912 net.cpp:150] Setting up scale3b1_branch2b
I0227 09:39:39.937563 16912 net.cpp:157] Top shape: 8 128 28 28 (802816)
I0227 09:39:39.937582 16912 net.cpp:165] Memory required for data: 1074168800
I0227 09:39:39.937597 16912 layer_factory.hpp:77] Creating layer res3b1_branch2b_relu
I0227 09:39:39.937609 16912 net.cpp:106] Creating Layer res3b1_branch2b_relu
I0227 09:39:39.937619 16912 net.cpp:454] res3b1_branch2b_relu <- res3b1_branch2b
I0227 09:39:39.937633 16912 net.cpp:397] res3b1_branch2b_relu -> res3b1_branch2b (in-place)
I0227 09:39:39.937647 16912 net.cpp:150] Setting up res3b1_branch2b_relu
I0227 09:39:39.937659 16912 net.cpp:157] Top shape: 8 128 28 28 (802816)
I0227 09:39:39.937667 16912 net.cpp:165] Memory required for data: 1077380064
I0227 09:39:39.937676 16912 layer_factory.hpp:77] Creating layer res3b1_branch2c
I0227 09:39:39.937693 16912 net.cpp:106] Creating Layer res3b1_branch2c
I0227 09:39:39.937703 16912 net.cpp:454] res3b1_branch2c <- res3b1_branch2b
I0227 09:39:39.937716 16912 net.cpp:411] res3b1_branch2c -> res3b1_branch2c
I0227 09:39:39.937978 16912 net.cpp:150] Setting up res3b1_branch2c
I0227 09:39:39.937996 16912 net.cpp:157] Top shape: 8 512 28 28 (3211264)
I0227 09:39:39.938006 16912 net.cpp:165] Memory required for data: 1090225120
I0227 09:39:39.938019 16912 layer_factory.hpp:77] Creating layer bn3b1_branch2c
I0227 09:39:39.938030 16912 net.cpp:106] Creating Layer bn3b1_branch2c
I0227 09:39:39.938041 16912 net.cpp:454] bn3b1_branch2c <- res3b1_branch2c
I0227 09:39:39.938052 16912 net.cpp:397] bn3b1_branch2c -> res3b1_branch2c (in-place)
I0227 09:39:39.938302 16912 net.cpp:150] Setting up bn3b1_branch2c
I0227 09:39:39.938324 16912 net.cpp:157] Top shape: 8 512 28 28 (3211264)
I0227 09:39:39.938334 16912 net.cpp:165] Memory required for data: 1103070176
I0227 09:39:39.938349 16912 layer_factory.hpp:77] Creating layer scale3b1_branch2c
I0227 09:39:39.938364 16912 net.cpp:106] Creating Layer scale3b1_branch2c
I0227 09:39:39.938374 16912 net.cpp:454] scale3b1_branch2c <- res3b1_branch2c
I0227 09:39:39.938385 16912 net.cpp:397] scale3b1_branch2c -> res3b1_branch2c (in-place)
I0227 09:39:39.938443 16912 layer_factory.hpp:77] Creating layer scale3b1_branch2c
I0227 09:39:39.938580 16912 net.cpp:150] Setting up scale3b1_branch2c
I0227 09:39:39.938598 16912 net.cpp:157] Top shape: 8 512 28 28 (3211264)
I0227 09:39:39.938607 16912 net.cpp:165] Memory required for data: 1115915232
I0227 09:39:39.938621 16912 layer_factory.hpp:77] Creating layer res3b1
I0227 09:39:39.938639 16912 net.cpp:106] Creating Layer res3b1
I0227 09:39:39.938650 16912 net.cpp:454] res3b1 <- res3a_res3a_relu_0_split_1
I0227 09:39:39.938661 16912 net.cpp:454] res3b1 <- res3b1_branch2c
I0227 09:39:39.938673 16912 net.cpp:411] res3b1 -> res3b1
I0227 09:39:39.939815 16912 net.cpp:150] Setting up res3b1
I0227 09:39:39.939832 16912 net.cpp:157] Top shape: 8 512 28 28 (3211264)
I0227 09:39:39.939841 16912 net.cpp:165] Memory required for data: 1128760288
I0227 09:39:39.939851 16912 layer_factory.hpp:77] Creating layer res3b1_relu
I0227 09:39:39.939863 16912 net.cpp:106] Creating Layer res3b1_relu
I0227 09:39:39.939873 16912 net.cpp:454] res3b1_relu <- res3b1
I0227 09:39:39.939888 16912 net.cpp:397] res3b1_relu -> res3b1 (in-place)
I0227 09:39:39.939903 16912 net.cpp:150] Setting up res3b1_relu
I0227 09:39:39.939913 16912 net.cpp:157] Top shape: 8 512 28 28 (3211264)
I0227 09:39:39.939923 16912 net.cpp:165] Memory required for data: 1141605344
I0227 09:39:39.939932 16912 layer_factory.hpp:77] Creating layer res3b1_res3b1_relu_0_split
I0227 09:39:39.939944 16912 net.cpp:106] Creating Layer res3b1_res3b1_relu_0_split
I0227 09:39:39.939952 16912 net.cpp:454] res3b1_res3b1_relu_0_split <- res3b1
I0227 09:39:39.939963 16912 net.cpp:411] res3b1_res3b1_relu_0_split -> res3b1_res3b1_relu_0_split_0
I0227 09:39:39.939976 16912 net.cpp:411] res3b1_res3b1_relu_0_split -> res3b1_res3b1_relu_0_split_1
I0227 09:39:39.940026 16912 net.cpp:150] Setting up res3b1_res3b1_relu_0_split
I0227 09:39:39.940042 16912 net.cpp:157] Top shape: 8 512 28 28 (3211264)
I0227 09:39:39.940052 16912 net.cpp:157] Top shape: 8 512 28 28 (3211264)
I0227 09:39:39.940066 16912 net.cpp:165] Memory required for data: 1167295456
I0227 09:39:39.940085 16912 layer_factory.hpp:77] Creating layer res3b2_branch2a
I0227 09:39:39.940100 16912 net.cpp:106] Creating Layer res3b2_branch2a
I0227 09:39:39.940110 16912 net.cpp:454] res3b2_branch2a <- res3b1_res3b1_relu_0_split_0
I0227 09:39:39.940125 16912 net.cpp:411] res3b2_branch2a -> res3b2_branch2a
I0227 09:39:39.940376 16912 net.cpp:150] Setting up res3b2_branch2a
I0227 09:39:39.940394 16912 net.cpp:157] Top shape: 8 128 28 28 (802816)
I0227 09:39:39.940403 16912 net.cpp:165] Memory required for data: 1170506720
I0227 09:39:39.940415 16912 layer_factory.hpp:77] Creating layer bn3b2_branch2a
I0227 09:39:39.940431 16912 net.cpp:106] Creating Layer bn3b2_branch2a
I0227 09:39:39.940441 16912 net.cpp:454] bn3b2_branch2a <- res3b2_branch2a
I0227 09:39:39.940452 16912 net.cpp:397] bn3b2_branch2a -> res3b2_branch2a (in-place)
I0227 09:39:39.940654 16912 net.cpp:150] Setting up bn3b2_branch2a
I0227 09:39:39.940671 16912 net.cpp:157] Top shape: 8 128 28 28 (802816)
I0227 09:39:39.940681 16912 net.cpp:165] Memory required for data: 1173717984
I0227 09:39:39.940696 16912 layer_factory.hpp:77] Creating layer scale3b2_branch2a
I0227 09:39:39.940709 16912 net.cpp:106] Creating Layer scale3b2_branch2a
I0227 09:39:39.940719 16912 net.cpp:454] scale3b2_branch2a <- res3b2_branch2a
I0227 09:39:39.940731 16912 net.cpp:397] scale3b2_branch2a -> res3b2_branch2a (in-place)
I0227 09:39:39.940788 16912 layer_factory.hpp:77] Creating layer scale3b2_branch2a
I0227 09:39:39.940922 16912 net.cpp:150] Setting up scale3b2_branch2a
I0227 09:39:39.940939 16912 net.cpp:157] Top shape: 8 128 28 28 (802816)
I0227 09:39:39.940948 16912 net.cpp:165] Memory required for data: 1176929248
I0227 09:39:39.940963 16912 layer_factory.hpp:77] Creating layer res3b2_branch2a_relu
I0227 09:39:39.940978 16912 net.cpp:106] Creating Layer res3b2_branch2a_relu
I0227 09:39:39.940989 16912 net.cpp:454] res3b2_branch2a_relu <- res3b2_branch2a
I0227 09:39:39.940999 16912 net.cpp:397] res3b2_branch2a_relu -> res3b2_branch2a (in-place)
I0227 09:39:39.941012 16912 net.cpp:150] Setting up res3b2_branch2a_relu
I0227 09:39:39.941023 16912 net.cpp:157] Top shape: 8 128 28 28 (802816)
I0227 09:39:39.941032 16912 net.cpp:165] Memory required for data: 1180140512
I0227 09:39:39.941042 16912 layer_factory.hpp:77] Creating layer res3b2_branch2b
I0227 09:39:39.941058 16912 net.cpp:106] Creating Layer res3b2_branch2b
I0227 09:39:39.941068 16912 net.cpp:454] res3b2_branch2b <- res3b2_branch2a
I0227 09:39:39.941079 16912 net.cpp:411] res3b2_branch2b -> res3b2_branch2b
I0227 09:39:39.942076 16912 net.cpp:150] Setting up res3b2_branch2b
I0227 09:39:39.942100 16912 net.cpp:157] Top shape: 8 128 28 28 (802816)
I0227 09:39:39.942109 16912 net.cpp:165] Memory required for data: 1183351776
I0227 09:39:39.942121 16912 layer_factory.hpp:77] Creating layer bn3b2_branch2b
I0227 09:39:39.942134 16912 net.cpp:106] Creating Layer bn3b2_branch2b
I0227 09:39:39.942144 16912 net.cpp:454] bn3b2_branch2b <- res3b2_branch2b
I0227 09:39:39.942159 16912 net.cpp:397] bn3b2_branch2b -> res3b2_branch2b (in-place)
I0227 09:39:39.942366 16912 net.cpp:150] Setting up bn3b2_branch2b
I0227 09:39:39.942384 16912 net.cpp:157] Top shape: 8 128 28 28 (802816)
I0227 09:39:39.942392 16912 net.cpp:165] Memory required for data: 1186563040
I0227 09:39:39.942407 16912 layer_factory.hpp:77] Creating layer scale3b2_branch2b
I0227 09:39:39.942420 16912 net.cpp:106] Creating Layer scale3b2_branch2b
I0227 09:39:39.942430 16912 net.cpp:454] scale3b2_branch2b <- res3b2_branch2b
I0227 09:39:39.942442 16912 net.cpp:397] scale3b2_branch2b -> res3b2_branch2b (in-place)
I0227 09:39:39.942498 16912 layer_factory.hpp:77] Creating layer scale3b2_branch2b
I0227 09:39:39.942636 16912 net.cpp:150] Setting up scale3b2_branch2b
I0227 09:39:39.942653 16912 net.cpp:157] Top shape: 8 128 28 28 (802816)
I0227 09:39:39.942663 16912 net.cpp:165] Memory required for data: 1189774304
I0227 09:39:39.942677 16912 layer_factory.hpp:77] Creating layer res3b2_branch2b_relu
I0227 09:39:39.942695 16912 net.cpp:106] Creating Layer res3b2_branch2b_relu
I0227 09:39:39.942715 16912 net.cpp:454] res3b2_branch2b_relu <- res3b2_branch2b
I0227 09:39:39.942731 16912 net.cpp:397] res3b2_branch2b_relu -> res3b2_branch2b (in-place)
I0227 09:39:39.942745 16912 net.cpp:150] Setting up res3b2_branch2b_relu
I0227 09:39:39.942757 16912 net.cpp:157] Top shape: 8 128 28 28 (802816)
I0227 09:39:39.942766 16912 net.cpp:165] Memory required for data: 1192985568
I0227 09:39:39.942775 16912 layer_factory.hpp:77] Creating layer res3b2_branch2c
I0227 09:39:39.942790 16912 net.cpp:106] Creating Layer res3b2_branch2c
I0227 09:39:39.942798 16912 net.cpp:454] res3b2_branch2c <- res3b2_branch2b
I0227 09:39:39.942814 16912 net.cpp:411] res3b2_branch2c -> res3b2_branch2c
I0227 09:39:39.943056 16912 net.cpp:150] Setting up res3b2_branch2c
I0227 09:39:39.943075 16912 net.cpp:157] Top shape: 8 512 28 28 (3211264)
I0227 09:39:39.943084 16912 net.cpp:165] Memory required for data: 1205830624
I0227 09:39:39.943096 16912 layer_factory.hpp:77] Creating layer bn3b2_branch2c
I0227 09:39:39.943109 16912 net.cpp:106] Creating Layer bn3b2_branch2c
I0227 09:39:39.943119 16912 net.cpp:454] bn3b2_branch2c <- res3b2_branch2c
I0227 09:39:39.943138 16912 net.cpp:397] bn3b2_branch2c -> res3b2_branch2c (in-place)
I0227 09:39:39.943346 16912 net.cpp:150] Setting up bn3b2_branch2c
I0227 09:39:39.943361 16912 net.cpp:157] Top shape: 8 512 28 28 (3211264)
I0227 09:39:39.943372 16912 net.cpp:165] Memory required for data: 1218675680
I0227 09:39:39.943387 16912 layer_factory.hpp:77] Creating layer scale3b2_branch2c
I0227 09:39:39.943399 16912 net.cpp:106] Creating Layer scale3b2_branch2c
I0227 09:39:39.943409 16912 net.cpp:454] scale3b2_branch2c <- res3b2_branch2c
I0227 09:39:39.943421 16912 net.cpp:397] scale3b2_branch2c -> res3b2_branch2c (in-place)
I0227 09:39:39.943478 16912 layer_factory.hpp:77] Creating layer scale3b2_branch2c
I0227 09:39:39.943612 16912 net.cpp:150] Setting up scale3b2_branch2c
I0227 09:39:39.943629 16912 net.cpp:157] Top shape: 8 512 28 28 (3211264)
I0227 09:39:39.943639 16912 net.cpp:165] Memory required for data: 1231520736
I0227 09:39:39.943651 16912 layer_factory.hpp:77] Creating layer res3b2
I0227 09:39:39.943665 16912 net.cpp:106] Creating Layer res3b2
I0227 09:39:39.943675 16912 net.cpp:454] res3b2 <- res3b1_res3b1_relu_0_split_1
I0227 09:39:39.943684 16912 net.cpp:454] res3b2 <- res3b2_branch2c
I0227 09:39:39.943699 16912 net.cpp:411] res3b2 -> res3b2
I0227 09:39:39.943733 16912 net.cpp:150] Setting up res3b2
I0227 09:39:39.943749 16912 net.cpp:157] Top shape: 8 512 28 28 (3211264)
I0227 09:39:39.943758 16912 net.cpp:165] Memory required for data: 1244365792
I0227 09:39:39.943768 16912 layer_factory.hpp:77] Creating layer res3b2_relu
I0227 09:39:39.943783 16912 net.cpp:106] Creating Layer res3b2_relu
I0227 09:39:39.943794 16912 net.cpp:454] res3b2_relu <- res3b2
I0227 09:39:39.943804 16912 net.cpp:397] res3b2_relu -> res3b2 (in-place)
I0227 09:39:39.943817 16912 net.cpp:150] Setting up res3b2_relu
I0227 09:39:39.943828 16912 net.cpp:157] Top shape: 8 512 28 28 (3211264)
I0227 09:39:39.943837 16912 net.cpp:165] Memory required for data: 1257210848
I0227 09:39:39.943847 16912 layer_factory.hpp:77] Creating layer res3b2_res3b2_relu_0_split
I0227 09:39:39.943861 16912 net.cpp:106] Creating Layer res3b2_res3b2_relu_0_split
I0227 09:39:39.943871 16912 net.cpp:454] res3b2_res3b2_relu_0_split <- res3b2
I0227 09:39:39.943881 16912 net.cpp:411] res3b2_res3b2_relu_0_split -> res3b2_res3b2_relu_0_split_0
I0227 09:39:39.943895 16912 net.cpp:411] res3b2_res3b2_relu_0_split -> res3b2_res3b2_relu_0_split_1
I0227 09:39:39.943944 16912 net.cpp:150] Setting up res3b2_res3b2_relu_0_split
I0227 09:39:39.943960 16912 net.cpp:157] Top shape: 8 512 28 28 (3211264)
I0227 09:39:39.943970 16912 net.cpp:157] Top shape: 8 512 28 28 (3211264)
I0227 09:39:39.943979 16912 net.cpp:165] Memory required for data: 1282900960
I0227 09:39:39.943989 16912 layer_factory.hpp:77] Creating layer res3b3_branch2a
I0227 09:39:39.944010 16912 net.cpp:106] Creating Layer res3b3_branch2a
I0227 09:39:39.944036 16912 net.cpp:454] res3b3_branch2a <- res3b2_res3b2_relu_0_split_0
I0227 09:39:39.944049 16912 net.cpp:411] res3b3_branch2a -> res3b3_branch2a
I0227 09:39:39.944972 16912 net.cpp:150] Setting up res3b3_branch2a
I0227 09:39:39.944993 16912 net.cpp:157] Top shape: 8 128 28 28 (802816)
I0227 09:39:39.945003 16912 net.cpp:165] Memory required for data: 1286112224
I0227 09:39:39.945015 16912 layer_factory.hpp:77] Creating layer bn3b3_branch2a
I0227 09:39:39.945029 16912 net.cpp:106] Creating Layer bn3b3_branch2a
I0227 09:39:39.945039 16912 net.cpp:454] bn3b3_branch2a <- res3b3_branch2a
I0227 09:39:39.945053 16912 net.cpp:397] bn3b3_branch2a -> res3b3_branch2a (in-place)
I0227 09:39:39.945273 16912 net.cpp:150] Setting up bn3b3_branch2a
I0227 09:39:39.945292 16912 net.cpp:157] Top shape: 8 128 28 28 (802816)
I0227 09:39:39.945302 16912 net.cpp:165] Memory required for data: 1289323488
I0227 09:39:39.945338 16912 layer_factory.hpp:77] Creating layer scale3b3_branch2a
I0227 09:39:39.945354 16912 net.cpp:106] Creating Layer scale3b3_branch2a
I0227 09:39:39.945365 16912 net.cpp:454] scale3b3_branch2a <- res3b3_branch2a
I0227 09:39:39.945377 16912 net.cpp:397] scale3b3_branch2a -> res3b3_branch2a (in-place)
I0227 09:39:39.945437 16912 layer_factory.hpp:77] Creating layer scale3b3_branch2a
I0227 09:39:39.945575 16912 net.cpp:150] Setting up scale3b3_branch2a
I0227 09:39:39.945593 16912 net.cpp:157] Top shape: 8 128 28 28 (802816)
I0227 09:39:39.945602 16912 net.cpp:165] Memory required for data: 1292534752
I0227 09:39:39.945616 16912 layer_factory.hpp:77] Creating layer res3b3_branch2a_relu
I0227 09:39:39.945631 16912 net.cpp:106] Creating Layer res3b3_branch2a_relu
I0227 09:39:39.945642 16912 net.cpp:454] res3b3_branch2a_relu <- res3b3_branch2a
I0227 09:39:39.945653 16912 net.cpp:397] res3b3_branch2a_relu -> res3b3_branch2a (in-place)
I0227 09:39:39.945667 16912 net.cpp:150] Setting up res3b3_branch2a_relu
I0227 09:39:39.945677 16912 net.cpp:157] Top shape: 8 128 28 28 (802816)
I0227 09:39:39.945686 16912 net.cpp:165] Memory required for data: 1295746016
I0227 09:39:39.945696 16912 layer_factory.hpp:77] Creating layer res3b3_branch2b
I0227 09:39:39.945710 16912 net.cpp:106] Creating Layer res3b3_branch2b
I0227 09:39:39.945719 16912 net.cpp:454] res3b3_branch2b <- res3b3_branch2a
I0227 09:39:39.945731 16912 net.cpp:411] res3b3_branch2b -> res3b3_branch2b
I0227 09:39:39.946709 16912 net.cpp:150] Setting up res3b3_branch2b
I0227 09:39:39.946730 16912 net.cpp:157] Top shape: 8 128 28 28 (802816)
I0227 09:39:39.946740 16912 net.cpp:165] Memory required for data: 1298957280
I0227 09:39:39.946753 16912 layer_factory.hpp:77] Creating layer bn3b3_branch2b
I0227 09:39:39.946765 16912 net.cpp:106] Creating Layer bn3b3_branch2b
I0227 09:39:39.946775 16912 net.cpp:454] bn3b3_branch2b <- res3b3_branch2b
I0227 09:39:39.946787 16912 net.cpp:397] bn3b3_branch2b -> res3b3_branch2b (in-place)
I0227 09:39:39.947003 16912 net.cpp:150] Setting up bn3b3_branch2b
I0227 09:39:39.947021 16912 net.cpp:157] Top shape: 8 128 28 28 (802816)
I0227 09:39:39.947031 16912 net.cpp:165] Memory required for data: 1302168544
I0227 09:39:39.947046 16912 layer_factory.hpp:77] Creating layer scale3b3_branch2b
I0227 09:39:39.947062 16912 net.cpp:106] Creating Layer scale3b3_branch2b
I0227 09:39:39.947073 16912 net.cpp:454] scale3b3_branch2b <- res3b3_branch2b
I0227 09:39:39.947084 16912 net.cpp:397] scale3b3_branch2b -> res3b3_branch2b (in-place)
I0227 09:39:39.947141 16912 layer_factory.hpp:77] Creating layer scale3b3_branch2b
I0227 09:39:39.947279 16912 net.cpp:150] Setting up scale3b3_branch2b
I0227 09:39:39.947296 16912 net.cpp:157] Top shape: 8 128 28 28 (802816)
I0227 09:39:39.947306 16912 net.cpp:165] Memory required for data: 1305379808
I0227 09:39:39.947319 16912 layer_factory.hpp:77] Creating layer res3b3_branch2b_relu
I0227 09:39:39.947331 16912 net.cpp:106] Creating Layer res3b3_branch2b_relu
I0227 09:39:39.947341 16912 net.cpp:454] res3b3_branch2b_relu <- res3b3_branch2b
I0227 09:39:39.947358 16912 net.cpp:397] res3b3_branch2b_relu -> res3b3_branch2b (in-place)
I0227 09:39:39.947386 16912 net.cpp:150] Setting up res3b3_branch2b_relu
I0227 09:39:39.947399 16912 net.cpp:157] Top shape: 8 128 28 28 (802816)
I0227 09:39:39.947408 16912 net.cpp:165] Memory required for data: 1308591072
I0227 09:39:39.947418 16912 layer_factory.hpp:77] Creating layer res3b3_branch2c
I0227 09:39:39.947435 16912 net.cpp:106] Creating Layer res3b3_branch2c
I0227 09:39:39.947446 16912 net.cpp:454] res3b3_branch2c <- res3b3_branch2b
I0227 09:39:39.947458 16912 net.cpp:411] res3b3_branch2c -> res3b3_branch2c
I0227 09:39:39.947710 16912 net.cpp:150] Setting up res3b3_branch2c
I0227 09:39:39.947729 16912 net.cpp:157] Top shape: 8 512 28 28 (3211264)
I0227 09:39:39.947738 16912 net.cpp:165] Memory required for data: 1321436128
I0227 09:39:39.947751 16912 layer_factory.hpp:77] Creating layer bn3b3_branch2c
I0227 09:39:39.947763 16912 net.cpp:106] Creating Layer bn3b3_branch2c
I0227 09:39:39.947772 16912 net.cpp:454] bn3b3_branch2c <- res3b3_branch2c
I0227 09:39:39.947784 16912 net.cpp:397] bn3b3_branch2c -> res3b3_branch2c (in-place)
I0227 09:39:39.947993 16912 net.cpp:150] Setting up bn3b3_branch2c
I0227 09:39:39.948010 16912 net.cpp:157] Top shape: 8 512 28 28 (3211264)
I0227 09:39:39.948019 16912 net.cpp:165] Memory required for data: 1334281184
I0227 09:39:39.948037 16912 layer_factory.hpp:77] Creating layer scale3b3_branch2c
I0227 09:39:39.948050 16912 net.cpp:106] Creating Layer scale3b3_branch2c
I0227 09:39:39.948060 16912 net.cpp:454] scale3b3_branch2c <- res3b3_branch2c
I0227 09:39:39.948072 16912 net.cpp:397] scale3b3_branch2c -> res3b3_branch2c (in-place)
I0227 09:39:39.948128 16912 layer_factory.hpp:77] Creating layer scale3b3_branch2c
I0227 09:39:39.948266 16912 net.cpp:150] Setting up scale3b3_branch2c
I0227 09:39:39.948282 16912 net.cpp:157] Top shape: 8 512 28 28 (3211264)
I0227 09:39:39.948292 16912 net.cpp:165] Memory required for data: 1347126240
I0227 09:39:39.948305 16912 layer_factory.hpp:77] Creating layer res3b3
I0227 09:39:39.948320 16912 net.cpp:106] Creating Layer res3b3
I0227 09:39:39.948330 16912 net.cpp:454] res3b3 <- res3b2_res3b2_relu_0_split_1
I0227 09:39:39.948341 16912 net.cpp:454] res3b3 <- res3b3_branch2c
I0227 09:39:39.948352 16912 net.cpp:411] res3b3 -> res3b3
I0227 09:39:39.948390 16912 net.cpp:150] Setting up res3b3
I0227 09:39:39.948406 16912 net.cpp:157] Top shape: 8 512 28 28 (3211264)
I0227 09:39:39.948415 16912 net.cpp:165] Memory required for data: 1359971296
I0227 09:39:39.948426 16912 layer_factory.hpp:77] Creating layer res3b3_relu
I0227 09:39:39.948436 16912 net.cpp:106] Creating Layer res3b3_relu
I0227 09:39:39.948446 16912 net.cpp:454] res3b3_relu <- res3b3
I0227 09:39:39.948462 16912 net.cpp:397] res3b3_relu -> res3b3 (in-place)
I0227 09:39:39.948475 16912 net.cpp:150] Setting up res3b3_relu
I0227 09:39:39.948487 16912 net.cpp:157] Top shape: 8 512 28 28 (3211264)
I0227 09:39:39.948495 16912 net.cpp:165] Memory required for data: 1372816352
I0227 09:39:39.948504 16912 layer_factory.hpp:77] Creating layer res3b3_res3b3_relu_0_split
I0227 09:39:39.948515 16912 net.cpp:106] Creating Layer res3b3_res3b3_relu_0_split
I0227 09:39:39.948525 16912 net.cpp:454] res3b3_res3b3_relu_0_split <- res3b3
I0227 09:39:39.948536 16912 net.cpp:411] res3b3_res3b3_relu_0_split -> res3b3_res3b3_relu_0_split_0
I0227 09:39:39.948549 16912 net.cpp:411] res3b3_res3b3_relu_0_split -> res3b3_res3b3_relu_0_split_1
I0227 09:39:39.948597 16912 net.cpp:150] Setting up res3b3_res3b3_relu_0_split
I0227 09:39:39.948613 16912 net.cpp:157] Top shape: 8 512 28 28 (3211264)
I0227 09:39:39.948624 16912 net.cpp:157] Top shape: 8 512 28 28 (3211264)
I0227 09:39:39.948632 16912 net.cpp:165] Memory required for data: 1398506464
I0227 09:39:39.948642 16912 layer_factory.hpp:77] Creating layer res3b4_branch2a
I0227 09:39:39.948655 16912 net.cpp:106] Creating Layer res3b4_branch2a
I0227 09:39:39.948667 16912 net.cpp:454] res3b4_branch2a <- res3b3_res3b3_relu_0_split_0
I0227 09:39:39.948681 16912 net.cpp:411] res3b4_branch2a -> res3b4_branch2a
I0227 09:39:39.948937 16912 net.cpp:150] Setting up res3b4_branch2a
I0227 09:39:39.948966 16912 net.cpp:157] Top shape: 8 128 28 28 (802816)
I0227 09:39:39.948976 16912 net.cpp:165] Memory required for data: 1401717728
I0227 09:39:39.948987 16912 layer_factory.hpp:77] Creating layer bn3b4_branch2a
I0227 09:39:39.949005 16912 net.cpp:106] Creating Layer bn3b4_branch2a
I0227 09:39:39.949017 16912 net.cpp:454] bn3b4_branch2a <- res3b4_branch2a
I0227 09:39:39.949028 16912 net.cpp:397] bn3b4_branch2a -> res3b4_branch2a (in-place)
I0227 09:39:39.949237 16912 net.cpp:150] Setting up bn3b4_branch2a
I0227 09:39:39.949262 16912 net.cpp:157] Top shape: 8 128 28 28 (802816)
I0227 09:39:39.949273 16912 net.cpp:165] Memory required for data: 1404928992
I0227 09:39:39.949290 16912 layer_factory.hpp:77] Creating layer scale3b4_branch2a
I0227 09:39:39.949302 16912 net.cpp:106] Creating Layer scale3b4_branch2a
I0227 09:39:39.949312 16912 net.cpp:454] scale3b4_branch2a <- res3b4_branch2a
I0227 09:39:39.949324 16912 net.cpp:397] scale3b4_branch2a -> res3b4_branch2a (in-place)
I0227 09:39:39.949383 16912 layer_factory.hpp:77] Creating layer scale3b4_branch2a
I0227 09:39:39.949518 16912 net.cpp:150] Setting up scale3b4_branch2a
I0227 09:39:39.949535 16912 net.cpp:157] Top shape: 8 128 28 28 (802816)
I0227 09:39:39.949544 16912 net.cpp:165] Memory required for data: 1408140256
I0227 09:39:39.949558 16912 layer_factory.hpp:77] Creating layer res3b4_branch2a_relu
I0227 09:39:39.949573 16912 net.cpp:106] Creating Layer res3b4_branch2a_relu
I0227 09:39:39.949584 16912 net.cpp:454] res3b4_branch2a_relu <- res3b4_branch2a
I0227 09:39:39.949594 16912 net.cpp:397] res3b4_branch2a_relu -> res3b4_branch2a (in-place)
I0227 09:39:39.949607 16912 net.cpp:150] Setting up res3b4_branch2a_relu
I0227 09:39:39.949622 16912 net.cpp:157] Top shape: 8 128 28 28 (802816)
I0227 09:39:39.949631 16912 net.cpp:165] Memory required for data: 1411351520
I0227 09:39:39.949640 16912 layer_factory.hpp:77] Creating layer res3b4_branch2b
I0227 09:39:39.949657 16912 net.cpp:106] Creating Layer res3b4_branch2b
I0227 09:39:39.949667 16912 net.cpp:454] res3b4_branch2b <- res3b4_branch2a
I0227 09:39:39.949679 16912 net.cpp:411] res3b4_branch2b -> res3b4_branch2b
I0227 09:39:39.950654 16912 net.cpp:150] Setting up res3b4_branch2b
I0227 09:39:39.950676 16912 net.cpp:157] Top shape: 8 128 28 28 (802816)
I0227 09:39:39.950686 16912 net.cpp:165] Memory required for data: 1414562784
I0227 09:39:39.950698 16912 layer_factory.hpp:77] Creating layer bn3b4_branch2b
I0227 09:39:39.950711 16912 net.cpp:106] Creating Layer bn3b4_branch2b
I0227 09:39:39.950721 16912 net.cpp:454] bn3b4_branch2b <- res3b4_branch2b
I0227 09:39:39.950736 16912 net.cpp:397] bn3b4_branch2b -> res3b4_branch2b (in-place)
I0227 09:39:39.950948 16912 net.cpp:150] Setting up bn3b4_branch2b
I0227 09:39:39.950965 16912 net.cpp:157] Top shape: 8 128 28 28 (802816)
I0227 09:39:39.950975 16912 net.cpp:165] Memory required for data: 1417774048
I0227 09:39:39.950990 16912 layer_factory.hpp:77] Creating layer scale3b4_branch2b
I0227 09:39:39.951004 16912 net.cpp:106] Creating Layer scale3b4_branch2b
I0227 09:39:39.951014 16912 net.cpp:454] scale3b4_branch2b <- res3b4_branch2b
I0227 09:39:39.951025 16912 net.cpp:397] scale3b4_branch2b -> res3b4_branch2b (in-place)
I0227 09:39:39.951084 16912 layer_factory.hpp:77] Creating layer scale3b4_branch2b
I0227 09:39:39.951225 16912 net.cpp:150] Setting up scale3b4_branch2b
I0227 09:39:39.951241 16912 net.cpp:157] Top shape: 8 128 28 28 (802816)
I0227 09:39:39.951251 16912 net.cpp:165] Memory required for data: 1420985312
I0227 09:39:39.951264 16912 layer_factory.hpp:77] Creating layer res3b4_branch2b_relu
I0227 09:39:39.951277 16912 net.cpp:106] Creating Layer res3b4_branch2b_relu
I0227 09:39:39.951287 16912 net.cpp:454] res3b4_branch2b_relu <- res3b4_branch2b
I0227 09:39:39.951300 16912 net.cpp:397] res3b4_branch2b_relu -> res3b4_branch2b (in-place)
I0227 09:39:39.951314 16912 net.cpp:150] Setting up res3b4_branch2b_relu
I0227 09:39:39.951325 16912 net.cpp:157] Top shape: 8 128 28 28 (802816)
I0227 09:39:39.951341 16912 net.cpp:165] Memory required for data: 1424196576
I0227 09:39:39.951359 16912 layer_factory.hpp:77] Creating layer res3b4_branch2c
I0227 09:39:39.951375 16912 net.cpp:106] Creating Layer res3b4_branch2c
I0227 09:39:39.951383 16912 net.cpp:454] res3b4_branch2c <- res3b4_branch2b
I0227 09:39:39.951398 16912 net.cpp:411] res3b4_branch2c -> res3b4_branch2c
I0227 09:39:39.951652 16912 net.cpp:150] Setting up res3b4_branch2c
I0227 09:39:39.951670 16912 net.cpp:157] Top shape: 8 512 28 28 (3211264)
I0227 09:39:39.951679 16912 net.cpp:165] Memory required for data: 1437041632
I0227 09:39:39.951691 16912 layer_factory.hpp:77] Creating layer bn3b4_branch2c
I0227 09:39:39.951704 16912 net.cpp:106] Creating Layer bn3b4_branch2c
I0227 09:39:39.951714 16912 net.cpp:454] bn3b4_branch2c <- res3b4_branch2c
I0227 09:39:39.951730 16912 net.cpp:397] bn3b4_branch2c -> res3b4_branch2c (in-place)
I0227 09:39:39.951936 16912 net.cpp:150] Setting up bn3b4_branch2c
I0227 09:39:39.951952 16912 net.cpp:157] Top shape: 8 512 28 28 (3211264)
I0227 09:39:39.951961 16912 net.cpp:165] Memory required for data: 1449886688
I0227 09:39:39.951977 16912 layer_factory.hpp:77] Creating layer scale3b4_branch2c
I0227 09:39:39.951989 16912 net.cpp:106] Creating Layer scale3b4_branch2c
I0227 09:39:39.951999 16912 net.cpp:454] scale3b4_branch2c <- res3b4_branch2c
I0227 09:39:39.952011 16912 net.cpp:397] scale3b4_branch2c -> res3b4_branch2c (in-place)
I0227 09:39:39.952069 16912 layer_factory.hpp:77] Creating layer scale3b4_branch2c
I0227 09:39:39.952200 16912 net.cpp:150] Setting up scale3b4_branch2c
I0227 09:39:39.952217 16912 net.cpp:157] Top shape: 8 512 28 28 (3211264)
I0227 09:39:39.952226 16912 net.cpp:165] Memory required for data: 1462731744
I0227 09:39:39.952239 16912 layer_factory.hpp:77] Creating layer res3b4
I0227 09:39:39.952252 16912 net.cpp:106] Creating Layer res3b4
I0227 09:39:39.952262 16912 net.cpp:454] res3b4 <- res3b3_res3b3_relu_0_split_1
I0227 09:39:39.952272 16912 net.cpp:454] res3b4 <- res3b4_branch2c
I0227 09:39:39.952287 16912 net.cpp:411] res3b4 -> res3b4
I0227 09:39:39.952322 16912 net.cpp:150] Setting up res3b4
I0227 09:39:39.952337 16912 net.cpp:157] Top shape: 8 512 28 28 (3211264)
I0227 09:39:39.952347 16912 net.cpp:165] Memory required for data: 1475576800
I0227 09:39:39.952355 16912 layer_factory.hpp:77] Creating layer res3b4_relu
I0227 09:39:39.952370 16912 net.cpp:106] Creating Layer res3b4_relu
I0227 09:39:39.952380 16912 net.cpp:454] res3b4_relu <- res3b4
I0227 09:39:39.952391 16912 net.cpp:397] res3b4_relu -> res3b4 (in-place)
I0227 09:39:39.952404 16912 net.cpp:150] Setting up res3b4_relu
I0227 09:39:39.952416 16912 net.cpp:157] Top shape: 8 512 28 28 (3211264)
I0227 09:39:39.952425 16912 net.cpp:165] Memory required for data: 1488421856
I0227 09:39:39.952435 16912 layer_factory.hpp:77] Creating layer res3b4_res3b4_relu_0_split
I0227 09:39:39.952448 16912 net.cpp:106] Creating Layer res3b4_res3b4_relu_0_split
I0227 09:39:39.952458 16912 net.cpp:454] res3b4_res3b4_relu_0_split <- res3b4
I0227 09:39:39.952469 16912 net.cpp:411] res3b4_res3b4_relu_0_split -> res3b4_res3b4_relu_0_split_0
I0227 09:39:39.952482 16912 net.cpp:411] res3b4_res3b4_relu_0_split -> res3b4_res3b4_relu_0_split_1
I0227 09:39:39.952533 16912 net.cpp:150] Setting up res3b4_res3b4_relu_0_split
I0227 09:39:39.952548 16912 net.cpp:157] Top shape: 8 512 28 28 (3211264)
I0227 09:39:39.952558 16912 net.cpp:157] Top shape: 8 512 28 28 (3211264)
I0227 09:39:39.952567 16912 net.cpp:165] Memory required for data: 1514111968
I0227 09:39:39.952577 16912 layer_factory.hpp:77] Creating layer res3b5_branch2a
I0227 09:39:39.952594 16912 net.cpp:106] Creating Layer res3b5_branch2a
I0227 09:39:39.952605 16912 net.cpp:454] res3b5_branch2a <- res3b4_res3b4_relu_0_split_0
I0227 09:39:39.952616 16912 net.cpp:411] res3b5_branch2a -> res3b5_branch2a
I0227 09:39:39.953547 16912 net.cpp:150] Setting up res3b5_branch2a
I0227 09:39:39.953570 16912 net.cpp:157] Top shape: 8 128 28 28 (802816)
I0227 09:39:39.953579 16912 net.cpp:165] Memory required for data: 1517323232
I0227 09:39:39.953598 16912 layer_factory.hpp:77] Creating layer bn3b5_branch2a
I0227 09:39:39.953621 16912 net.cpp:106] Creating Layer bn3b5_branch2a
I0227 09:39:39.953632 16912 net.cpp:454] bn3b5_branch2a <- res3b5_branch2a
I0227 09:39:39.953647 16912 net.cpp:397] bn3b5_branch2a -> res3b5_branch2a (in-place)
I0227 09:39:39.953860 16912 net.cpp:150] Setting up bn3b5_branch2a
I0227 09:39:39.953876 16912 net.cpp:157] Top shape: 8 128 28 28 (802816)
I0227 09:39:39.953886 16912 net.cpp:165] Memory required for data: 1520534496
I0227 09:39:39.953902 16912 layer_factory.hpp:77] Creating layer scale3b5_branch2a
I0227 09:39:39.953929 16912 net.cpp:106] Creating Layer scale3b5_branch2a
I0227 09:39:39.953941 16912 net.cpp:454] scale3b5_branch2a <- res3b5_branch2a
I0227 09:39:39.953954 16912 net.cpp:397] scale3b5_branch2a -> res3b5_branch2a (in-place)
I0227 09:39:39.954012 16912 layer_factory.hpp:77] Creating layer scale3b5_branch2a
I0227 09:39:39.954154 16912 net.cpp:150] Setting up scale3b5_branch2a
I0227 09:39:39.954171 16912 net.cpp:157] Top shape: 8 128 28 28 (802816)
I0227 09:39:39.954180 16912 net.cpp:165] Memory required for data: 1523745760
I0227 09:39:39.954195 16912 layer_factory.hpp:77] Creating layer res3b5_branch2a_relu
I0227 09:39:39.954210 16912 net.cpp:106] Creating Layer res3b5_branch2a_relu
I0227 09:39:39.954219 16912 net.cpp:454] res3b5_branch2a_relu <- res3b5_branch2a
I0227 09:39:39.954231 16912 net.cpp:397] res3b5_branch2a_relu -> res3b5_branch2a (in-place)
I0227 09:39:39.954243 16912 net.cpp:150] Setting up res3b5_branch2a_relu
I0227 09:39:39.954254 16912 net.cpp:157] Top shape: 8 128 28 28 (802816)
I0227 09:39:39.954263 16912 net.cpp:165] Memory required for data: 1526957024
I0227 09:39:39.954273 16912 layer_factory.hpp:77] Creating layer res3b5_branch2b
I0227 09:39:39.954289 16912 net.cpp:106] Creating Layer res3b5_branch2b
I0227 09:39:39.954299 16912 net.cpp:454] res3b5_branch2b <- res3b5_branch2a
I0227 09:39:39.954311 16912 net.cpp:411] res3b5_branch2b -> res3b5_branch2b
I0227 09:39:39.955296 16912 net.cpp:150] Setting up res3b5_branch2b
I0227 09:39:39.955318 16912 net.cpp:157] Top shape: 8 128 28 28 (802816)
I0227 09:39:39.955328 16912 net.cpp:165] Memory required for data: 1530168288
I0227 09:39:39.955340 16912 layer_factory.hpp:77] Creating layer bn3b5_branch2b
I0227 09:39:39.955353 16912 net.cpp:106] Creating Layer bn3b5_branch2b
I0227 09:39:39.955363 16912 net.cpp:454] bn3b5_branch2b <- res3b5_branch2b
I0227 09:39:39.955375 16912 net.cpp:397] bn3b5_branch2b -> res3b5_branch2b (in-place)
I0227 09:39:39.955590 16912 net.cpp:150] Setting up bn3b5_branch2b
I0227 09:39:39.955606 16912 net.cpp:157] Top shape: 8 128 28 28 (802816)
I0227 09:39:39.955616 16912 net.cpp:165] Memory required for data: 1533379552
I0227 09:39:39.955631 16912 layer_factory.hpp:77] Creating layer scale3b5_branch2b
I0227 09:39:39.955648 16912 net.cpp:106] Creating Layer scale3b5_branch2b
I0227 09:39:39.955658 16912 net.cpp:454] scale3b5_branch2b <- res3b5_branch2b
I0227 09:39:39.955669 16912 net.cpp:397] scale3b5_branch2b -> res3b5_branch2b (in-place)
I0227 09:39:39.955729 16912 layer_factory.hpp:77] Creating layer scale3b5_branch2b
I0227 09:39:39.955870 16912 net.cpp:150] Setting up scale3b5_branch2b
I0227 09:39:39.955888 16912 net.cpp:157] Top shape: 8 128 28 28 (802816)
I0227 09:39:39.955898 16912 net.cpp:165] Memory required for data: 1536590816
I0227 09:39:39.955910 16912 layer_factory.hpp:77] Creating layer res3b5_branch2b_relu
I0227 09:39:39.955922 16912 net.cpp:106] Creating Layer res3b5_branch2b_relu
I0227 09:39:39.955932 16912 net.cpp:454] res3b5_branch2b_relu <- res3b5_branch2b
I0227 09:39:39.955946 16912 net.cpp:397] res3b5_branch2b_relu -> res3b5_branch2b (in-place)
I0227 09:39:39.955960 16912 net.cpp:150] Setting up res3b5_branch2b_relu
I0227 09:39:39.955971 16912 net.cpp:157] Top shape: 8 128 28 28 (802816)
I0227 09:39:39.955981 16912 net.cpp:165] Memory required for data: 1539802080
I0227 09:39:39.955991 16912 layer_factory.hpp:77] Creating layer res3b5_branch2c
I0227 09:39:39.956004 16912 net.cpp:106] Creating Layer res3b5_branch2c
I0227 09:39:39.956032 16912 net.cpp:454] res3b5_branch2c <- res3b5_branch2b
I0227 09:39:39.956044 16912 net.cpp:411] res3b5_branch2c -> res3b5_branch2c
I0227 09:39:39.956300 16912 net.cpp:150] Setting up res3b5_branch2c
I0227 09:39:39.956318 16912 net.cpp:157] Top shape: 8 512 28 28 (3211264)
I0227 09:39:39.956327 16912 net.cpp:165] Memory required for data: 1552647136
I0227 09:39:39.956339 16912 layer_factory.hpp:77] Creating layer bn3b5_branch2c
I0227 09:39:39.956351 16912 net.cpp:106] Creating Layer bn3b5_branch2c
I0227 09:39:39.956362 16912 net.cpp:454] bn3b5_branch2c <- res3b5_branch2c
I0227 09:39:39.956373 16912 net.cpp:397] bn3b5_branch2c -> res3b5_branch2c (in-place)
I0227 09:39:39.956593 16912 net.cpp:150] Setting up bn3b5_branch2c
I0227 09:39:39.956610 16912 net.cpp:157] Top shape: 8 512 28 28 (3211264)
I0227 09:39:39.956619 16912 net.cpp:165] Memory required for data: 1565492192
I0227 09:39:39.956640 16912 layer_factory.hpp:77] Creating layer scale3b5_branch2c
I0227 09:39:39.956655 16912 net.cpp:106] Creating Layer scale3b5_branch2c
I0227 09:39:39.956665 16912 net.cpp:454] scale3b5_branch2c <- res3b5_branch2c
I0227 09:39:39.956676 16912 net.cpp:397] scale3b5_branch2c -> res3b5_branch2c (in-place)
I0227 09:39:39.956735 16912 layer_factory.hpp:77] Creating layer scale3b5_branch2c
I0227 09:39:39.956874 16912 net.cpp:150] Setting up scale3b5_branch2c
I0227 09:39:39.956892 16912 net.cpp:157] Top shape: 8 512 28 28 (3211264)
I0227 09:39:39.956900 16912 net.cpp:165] Memory required for data: 1578337248
I0227 09:39:39.956914 16912 layer_factory.hpp:77] Creating layer res3b5
I0227 09:39:39.956929 16912 net.cpp:106] Creating Layer res3b5
I0227 09:39:39.956940 16912 net.cpp:454] res3b5 <- res3b4_res3b4_relu_0_split_1
I0227 09:39:39.956950 16912 net.cpp:454] res3b5 <- res3b5_branch2c
I0227 09:39:39.956962 16912 net.cpp:411] res3b5 -> res3b5
I0227 09:39:39.957001 16912 net.cpp:150] Setting up res3b5
I0227 09:39:39.957016 16912 net.cpp:157] Top shape: 8 512 28 28 (3211264)
I0227 09:39:39.957026 16912 net.cpp:165] Memory required for data: 1591182304
I0227 09:39:39.957036 16912 layer_factory.hpp:77] Creating layer res3b5_relu
I0227 09:39:39.957047 16912 net.cpp:106] Creating Layer res3b5_relu
I0227 09:39:39.957057 16912 net.cpp:454] res3b5_relu <- res3b5
I0227 09:39:39.957072 16912 net.cpp:397] res3b5_relu -> res3b5 (in-place)
I0227 09:39:39.957087 16912 net.cpp:150] Setting up res3b5_relu
I0227 09:39:39.957098 16912 net.cpp:157] Top shape: 8 512 28 28 (3211264)
I0227 09:39:39.957106 16912 net.cpp:165] Memory required for data: 1604027360
I0227 09:39:39.957115 16912 layer_factory.hpp:77] Creating layer res3b5_res3b5_relu_0_split
I0227 09:39:39.957128 16912 net.cpp:106] Creating Layer res3b5_res3b5_relu_0_split
I0227 09:39:39.957136 16912 net.cpp:454] res3b5_res3b5_relu_0_split <- res3b5
I0227 09:39:39.957147 16912 net.cpp:411] res3b5_res3b5_relu_0_split -> res3b5_res3b5_relu_0_split_0
I0227 09:39:39.957160 16912 net.cpp:411] res3b5_res3b5_relu_0_split -> res3b5_res3b5_relu_0_split_1
I0227 09:39:39.957209 16912 net.cpp:150] Setting up res3b5_res3b5_relu_0_split
I0227 09:39:39.957226 16912 net.cpp:157] Top shape: 8 512 28 28 (3211264)
I0227 09:39:39.957236 16912 net.cpp:157] Top shape: 8 512 28 28 (3211264)
I0227 09:39:39.957244 16912 net.cpp:165] Memory required for data: 1629717472
I0227 09:39:39.957262 16912 layer_factory.hpp:77] Creating layer res3b6_branch2a
I0227 09:39:39.957276 16912 net.cpp:106] Creating Layer res3b6_branch2a
I0227 09:39:39.957288 16912 net.cpp:454] res3b6_branch2a <- res3b5_res3b5_relu_0_split_0
I0227 09:39:39.957299 16912 net.cpp:411] res3b6_branch2a -> res3b6_branch2a
I0227 09:39:39.957553 16912 net.cpp:150] Setting up res3b6_branch2a
I0227 09:39:39.957571 16912 net.cpp:157] Top shape: 8 128 28 28 (802816)
I0227 09:39:39.957581 16912 net.cpp:165] Memory required for data: 1632928736
I0227 09:39:39.957592 16912 layer_factory.hpp:77] Creating layer bn3b6_branch2a
I0227 09:39:39.957608 16912 net.cpp:106] Creating Layer bn3b6_branch2a
I0227 09:39:39.957618 16912 net.cpp:454] bn3b6_branch2a <- res3b6_branch2a
I0227 09:39:39.957645 16912 net.cpp:397] bn3b6_branch2a -> res3b6_branch2a (in-place)
I0227 09:39:39.957859 16912 net.cpp:150] Setting up bn3b6_branch2a
I0227 09:39:39.957877 16912 net.cpp:157] Top shape: 8 128 28 28 (802816)
I0227 09:39:39.957886 16912 net.cpp:165] Memory required for data: 1636140000
I0227 09:39:39.957902 16912 layer_factory.hpp:77] Creating layer scale3b6_branch2a
I0227 09:39:39.957916 16912 net.cpp:106] Creating Layer scale3b6_branch2a
I0227 09:39:39.957926 16912 net.cpp:454] scale3b6_branch2a <- res3b6_branch2a
I0227 09:39:39.957937 16912 net.cpp:397] scale3b6_branch2a -> res3b6_branch2a (in-place)
I0227 09:39:39.957995 16912 layer_factory.hpp:77] Creating layer scale3b6_branch2a
I0227 09:39:39.958137 16912 net.cpp:150] Setting up scale3b6_branch2a
I0227 09:39:39.958154 16912 net.cpp:157] Top shape: 8 128 28 28 (802816)
I0227 09:39:39.958163 16912 net.cpp:165] Memory required for data: 1639351264
I0227 09:39:39.958178 16912 layer_factory.hpp:77] Creating layer res3b6_branch2a_relu
I0227 09:39:39.958192 16912 net.cpp:106] Creating Layer res3b6_branch2a_relu
I0227 09:39:39.958202 16912 net.cpp:454] res3b6_branch2a_relu <- res3b6_branch2a
I0227 09:39:39.958214 16912 net.cpp:397] res3b6_branch2a_relu -> res3b6_branch2a (in-place)
I0227 09:39:39.958226 16912 net.cpp:150] Setting up res3b6_branch2a_relu
I0227 09:39:39.958237 16912 net.cpp:157] Top shape: 8 128 28 28 (802816)
I0227 09:39:39.958246 16912 net.cpp:165] Memory required for data: 1642562528
I0227 09:39:39.958256 16912 layer_factory.hpp:77] Creating layer res3b6_branch2b
I0227 09:39:39.958272 16912 net.cpp:106] Creating Layer res3b6_branch2b
I0227 09:39:39.958282 16912 net.cpp:454] res3b6_branch2b <- res3b6_branch2a
I0227 09:39:39.958294 16912 net.cpp:411] res3b6_branch2b -> res3b6_branch2b
I0227 09:39:39.959285 16912 net.cpp:150] Setting up res3b6_branch2b
I0227 09:39:39.959307 16912 net.cpp:157] Top shape: 8 128 28 28 (802816)
I0227 09:39:39.959317 16912 net.cpp:165] Memory required for data: 1645773792
I0227 09:39:39.959329 16912 layer_factory.hpp:77] Creating layer bn3b6_branch2b
I0227 09:39:39.959348 16912 net.cpp:106] Creating Layer bn3b6_branch2b
I0227 09:39:39.959359 16912 net.cpp:454] bn3b6_branch2b <- res3b6_branch2b
I0227 09:39:39.959372 16912 net.cpp:397] bn3b6_branch2b -> res3b6_branch2b (in-place)
I0227 09:39:39.959590 16912 net.cpp:150] Setting up bn3b6_branch2b
I0227 09:39:39.959609 16912 net.cpp:157] Top shape: 8 128 28 28 (802816)
I0227 09:39:39.959617 16912 net.cpp:165] Memory required for data: 1648985056
I0227 09:39:39.959633 16912 layer_factory.hpp:77] Creating layer scale3b6_branch2b
I0227 09:39:39.959646 16912 net.cpp:106] Creating Layer scale3b6_branch2b
I0227 09:39:39.959656 16912 net.cpp:454] scale3b6_branch2b <- res3b6_branch2b
I0227 09:39:39.959671 16912 net.cpp:397] scale3b6_branch2b -> res3b6_branch2b (in-place)
I0227 09:39:39.959725 16912 layer_factory.hpp:77] Creating layer scale3b6_branch2b
I0227 09:39:39.959869 16912 net.cpp:150] Setting up scale3b6_branch2b
I0227 09:39:39.959887 16912 net.cpp:157] Top shape: 8 128 28 28 (802816)
I0227 09:39:39.959897 16912 net.cpp:165] Memory required for data: 1652196320
I0227 09:39:39.959909 16912 layer_factory.hpp:77] Creating layer res3b6_branch2b_relu
I0227 09:39:39.959923 16912 net.cpp:106] Creating Layer res3b6_branch2b_relu
I0227 09:39:39.959933 16912 net.cpp:454] res3b6_branch2b_relu <- res3b6_branch2b
I0227 09:39:39.959944 16912 net.cpp:397] res3b6_branch2b_relu -> res3b6_branch2b (in-place)
I0227 09:39:39.959956 16912 net.cpp:150] Setting up res3b6_branch2b_relu
I0227 09:39:39.959967 16912 net.cpp:157] Top shape: 8 128 28 28 (802816)
I0227 09:39:39.959976 16912 net.cpp:165] Memory required for data: 1655407584
I0227 09:39:39.959985 16912 layer_factory.hpp:77] Creating layer res3b6_branch2c
I0227 09:39:39.960005 16912 net.cpp:106] Creating Layer res3b6_branch2c
I0227 09:39:39.960016 16912 net.cpp:454] res3b6_branch2c <- res3b6_branch2b
I0227 09:39:39.960031 16912 net.cpp:411] res3b6_branch2c -> res3b6_branch2c
I0227 09:39:39.960292 16912 net.cpp:150] Setting up res3b6_branch2c
I0227 09:39:39.960320 16912 net.cpp:157] Top shape: 8 512 28 28 (3211264)
I0227 09:39:39.960330 16912 net.cpp:165] Memory required for data: 1668252640
I0227 09:39:39.960341 16912 layer_factory.hpp:77] Creating layer bn3b6_branch2c
I0227 09:39:39.960358 16912 net.cpp:106] Creating Layer bn3b6_branch2c
I0227 09:39:39.960368 16912 net.cpp:454] bn3b6_branch2c <- res3b6_branch2c
I0227 09:39:39.960381 16912 net.cpp:397] bn3b6_branch2c -> res3b6_branch2c (in-place)
I0227 09:39:39.960597 16912 net.cpp:150] Setting up bn3b6_branch2c
I0227 09:39:39.960613 16912 net.cpp:157] Top shape: 8 512 28 28 (3211264)
I0227 09:39:39.960623 16912 net.cpp:165] Memory required for data: 1681097696
I0227 09:39:39.960638 16912 layer_factory.hpp:77] Creating layer scale3b6_branch2c
I0227 09:39:39.960654 16912 net.cpp:106] Creating Layer scale3b6_branch2c
I0227 09:39:39.960664 16912 net.cpp:454] scale3b6_branch2c <- res3b6_branch2c
I0227 09:39:39.960675 16912 net.cpp:397] scale3b6_branch2c -> res3b6_branch2c (in-place)
I0227 09:39:39.960734 16912 layer_factory.hpp:77] Creating layer scale3b6_branch2c
I0227 09:39:39.960875 16912 net.cpp:150] Setting up scale3b6_branch2c
I0227 09:39:39.960891 16912 net.cpp:157] Top shape: 8 512 28 28 (3211264)
I0227 09:39:39.960901 16912 net.cpp:165] Memory required for data: 1693942752
I0227 09:39:39.960913 16912 layer_factory.hpp:77] Creating layer res3b6
I0227 09:39:39.960927 16912 net.cpp:106] Creating Layer res3b6
I0227 09:39:39.960937 16912 net.cpp:454] res3b6 <- res3b5_res3b5_relu_0_split_1
I0227 09:39:39.960947 16912 net.cpp:454] res3b6 <- res3b6_branch2c
I0227 09:39:39.960961 16912 net.cpp:411] res3b6 -> res3b6
I0227 09:39:39.960996 16912 net.cpp:150] Setting up res3b6
I0227 09:39:39.961015 16912 net.cpp:157] Top shape: 8 512 28 28 (3211264)
I0227 09:39:39.961024 16912 net.cpp:165] Memory required for data: 1706787808
I0227 09:39:39.961035 16912 layer_factory.hpp:77] Creating layer res3b6_relu
I0227 09:39:39.961045 16912 net.cpp:106] Creating Layer res3b6_relu
I0227 09:39:39.961055 16912 net.cpp:454] res3b6_relu <- res3b6
I0227 09:39:39.961066 16912 net.cpp:397] res3b6_relu -> res3b6 (in-place)
I0227 09:39:39.961079 16912 net.cpp:150] Setting up res3b6_relu
I0227 09:39:39.961091 16912 net.cpp:157] Top shape: 8 512 28 28 (3211264)
I0227 09:39:39.961099 16912 net.cpp:165] Memory required for data: 1719632864
I0227 09:39:39.961108 16912 layer_factory.hpp:77] Creating layer res3b6_res3b6_relu_0_split
I0227 09:39:39.961119 16912 net.cpp:106] Creating Layer res3b6_res3b6_relu_0_split
I0227 09:39:39.961129 16912 net.cpp:454] res3b6_res3b6_relu_0_split <- res3b6
I0227 09:39:39.961143 16912 net.cpp:411] res3b6_res3b6_relu_0_split -> res3b6_res3b6_relu_0_split_0
I0227 09:39:39.961158 16912 net.cpp:411] res3b6_res3b6_relu_0_split -> res3b6_res3b6_relu_0_split_1
I0227 09:39:39.961205 16912 net.cpp:150] Setting up res3b6_res3b6_relu_0_split
I0227 09:39:39.961220 16912 net.cpp:157] Top shape: 8 512 28 28 (3211264)
I0227 09:39:39.961230 16912 net.cpp:157] Top shape: 8 512 28 28 (3211264)
I0227 09:39:39.961239 16912 net.cpp:165] Memory required for data: 1745322976
I0227 09:39:39.961254 16912 layer_factory.hpp:77] Creating layer res3b7_branch2a
I0227 09:39:39.961274 16912 net.cpp:106] Creating Layer res3b7_branch2a
I0227 09:39:39.961285 16912 net.cpp:454] res3b7_branch2a <- res3b6_res3b6_relu_0_split_0
I0227 09:39:39.961297 16912 net.cpp:411] res3b7_branch2a -> res3b7_branch2a
I0227 09:39:39.962229 16912 net.cpp:150] Setting up res3b7_branch2a
I0227 09:39:39.962251 16912 net.cpp:157] Top shape: 8 128 28 28 (802816)
I0227 09:39:39.962261 16912 net.cpp:165] Memory required for data: 1748534240
I0227 09:39:39.962273 16912 layer_factory.hpp:77] Creating layer bn3b7_branch2a
I0227 09:39:39.962290 16912 net.cpp:106] Creating Layer bn3b7_branch2a
I0227 09:39:39.962301 16912 net.cpp:454] bn3b7_branch2a <- res3b7_branch2a
I0227 09:39:39.962312 16912 net.cpp:397] bn3b7_branch2a -> res3b7_branch2a (in-place)
I0227 09:39:39.962530 16912 net.cpp:150] Setting up bn3b7_branch2a
I0227 09:39:39.962553 16912 net.cpp:157] Top shape: 8 128 28 28 (802816)
I0227 09:39:39.962573 16912 net.cpp:165] Memory required for data: 1751745504
I0227 09:39:39.962589 16912 layer_factory.hpp:77] Creating layer scale3b7_branch2a
I0227 09:39:39.962601 16912 net.cpp:106] Creating Layer scale3b7_branch2a
I0227 09:39:39.962611 16912 net.cpp:454] scale3b7_branch2a <- res3b7_branch2a
I0227 09:39:39.962628 16912 net.cpp:397] scale3b7_branch2a -> res3b7_branch2a (in-place)
I0227 09:39:39.962683 16912 layer_factory.hpp:77] Creating layer scale3b7_branch2a
I0227 09:39:39.962826 16912 net.cpp:150] Setting up scale3b7_branch2a
I0227 09:39:39.962843 16912 net.cpp:157] Top shape: 8 128 28 28 (802816)
I0227 09:39:39.962853 16912 net.cpp:165] Memory required for data: 1754956768
I0227 09:39:39.962867 16912 layer_factory.hpp:77] Creating layer res3b7_branch2a_relu
I0227 09:39:39.962879 16912 net.cpp:106] Creating Layer res3b7_branch2a_relu
I0227 09:39:39.962888 16912 net.cpp:454] res3b7_branch2a_relu <- res3b7_branch2a
I0227 09:39:39.962899 16912 net.cpp:397] res3b7_branch2a_relu -> res3b7_branch2a (in-place)
I0227 09:39:39.962913 16912 net.cpp:150] Setting up res3b7_branch2a_relu
I0227 09:39:39.962924 16912 net.cpp:157] Top shape: 8 128 28 28 (802816)
I0227 09:39:39.962932 16912 net.cpp:165] Memory required for data: 1758168032
I0227 09:39:39.962942 16912 layer_factory.hpp:77] Creating layer res3b7_branch2b
I0227 09:39:39.962960 16912 net.cpp:106] Creating Layer res3b7_branch2b
I0227 09:39:39.962970 16912 net.cpp:454] res3b7_branch2b <- res3b7_branch2a
I0227 09:39:39.962983 16912 net.cpp:411] res3b7_branch2b -> res3b7_branch2b
I0227 09:39:39.963963 16912 net.cpp:150] Setting up res3b7_branch2b
I0227 09:39:39.963984 16912 net.cpp:157] Top shape: 8 128 28 28 (802816)
I0227 09:39:39.963994 16912 net.cpp:165] Memory required for data: 1761379296
I0227 09:39:39.964006 16912 layer_factory.hpp:77] Creating layer bn3b7_branch2b
I0227 09:39:39.964022 16912 net.cpp:106] Creating Layer bn3b7_branch2b
I0227 09:39:39.964033 16912 net.cpp:454] bn3b7_branch2b <- res3b7_branch2b
I0227 09:39:39.964045 16912 net.cpp:397] bn3b7_branch2b -> res3b7_branch2b (in-place)
I0227 09:39:39.964263 16912 net.cpp:150] Setting up bn3b7_branch2b
I0227 09:39:39.964280 16912 net.cpp:157] Top shape: 8 128 28 28 (802816)
I0227 09:39:39.964290 16912 net.cpp:165] Memory required for data: 1764590560
I0227 09:39:39.964305 16912 layer_factory.hpp:77] Creating layer scale3b7_branch2b
I0227 09:39:39.964318 16912 net.cpp:106] Creating Layer scale3b7_branch2b
I0227 09:39:39.964329 16912 net.cpp:454] scale3b7_branch2b <- res3b7_branch2b
I0227 09:39:39.964339 16912 net.cpp:397] scale3b7_branch2b -> res3b7_branch2b (in-place)
I0227 09:39:39.964399 16912 layer_factory.hpp:77] Creating layer scale3b7_branch2b
I0227 09:39:39.964545 16912 net.cpp:150] Setting up scale3b7_branch2b
I0227 09:39:39.964561 16912 net.cpp:157] Top shape: 8 128 28 28 (802816)
I0227 09:39:39.964571 16912 net.cpp:165] Memory required for data: 1767801824
I0227 09:39:39.964584 16912 layer_factory.hpp:77] Creating layer res3b7_branch2b_relu
I0227 09:39:39.964599 16912 net.cpp:106] Creating Layer res3b7_branch2b_relu
I0227 09:39:39.964609 16912 net.cpp:454] res3b7_branch2b_relu <- res3b7_branch2b
I0227 09:39:39.964622 16912 net.cpp:397] res3b7_branch2b_relu -> res3b7_branch2b (in-place)
I0227 09:39:39.964633 16912 net.cpp:150] Setting up res3b7_branch2b_relu
I0227 09:39:39.964644 16912 net.cpp:157] Top shape: 8 128 28 28 (802816)
I0227 09:39:39.964653 16912 net.cpp:165] Memory required for data: 1771013088
I0227 09:39:39.964663 16912 layer_factory.hpp:77] Creating layer res3b7_branch2c
I0227 09:39:39.964679 16912 net.cpp:106] Creating Layer res3b7_branch2c
I0227 09:39:39.964690 16912 net.cpp:454] res3b7_branch2c <- res3b7_branch2b
I0227 09:39:39.964702 16912 net.cpp:411] res3b7_branch2c -> res3b7_branch2c
I0227 09:39:39.964968 16912 net.cpp:150] Setting up res3b7_branch2c
I0227 09:39:39.964987 16912 net.cpp:157] Top shape: 8 512 28 28 (3211264)
I0227 09:39:39.964996 16912 net.cpp:165] Memory required for data: 1783858144
I0227 09:39:39.965015 16912 layer_factory.hpp:77] Creating layer bn3b7_branch2c
I0227 09:39:39.965041 16912 net.cpp:106] Creating Layer bn3b7_branch2c
I0227 09:39:39.965052 16912 net.cpp:454] bn3b7_branch2c <- res3b7_branch2c
I0227 09:39:39.965065 16912 net.cpp:397] bn3b7_branch2c -> res3b7_branch2c (in-place)
I0227 09:39:39.965292 16912 net.cpp:150] Setting up bn3b7_branch2c
I0227 09:39:39.965312 16912 net.cpp:157] Top shape: 8 512 28 28 (3211264)
I0227 09:39:39.965322 16912 net.cpp:165] Memory required for data: 1796703200
I0227 09:39:39.965337 16912 layer_factory.hpp:77] Creating layer scale3b7_branch2c
I0227 09:39:39.965353 16912 net.cpp:106] Creating Layer scale3b7_branch2c
I0227 09:39:39.965363 16912 net.cpp:454] scale3b7_branch2c <- res3b7_branch2c
I0227 09:39:39.965375 16912 net.cpp:397] scale3b7_branch2c -> res3b7_branch2c (in-place)
I0227 09:39:39.965440 16912 layer_factory.hpp:77] Creating layer scale3b7_branch2c
I0227 09:39:39.965582 16912 net.cpp:150] Setting up scale3b7_branch2c
I0227 09:39:39.965600 16912 net.cpp:157] Top shape: 8 512 28 28 (3211264)
I0227 09:39:39.965610 16912 net.cpp:165] Memory required for data: 1809548256
I0227 09:39:39.965622 16912 layer_factory.hpp:77] Creating layer res3b7
I0227 09:39:39.965636 16912 net.cpp:106] Creating Layer res3b7
I0227 09:39:39.965646 16912 net.cpp:454] res3b7 <- res3b6_res3b6_relu_0_split_1
I0227 09:39:39.965656 16912 net.cpp:454] res3b7 <- res3b7_branch2c
I0227 09:39:39.965667 16912 net.cpp:411] res3b7 -> res3b7
I0227 09:39:39.965705 16912 net.cpp:150] Setting up res3b7
I0227 09:39:39.965721 16912 net.cpp:157] Top shape: 8 512 28 28 (3211264)
I0227 09:39:39.965735 16912 net.cpp:165] Memory required for data: 1822393312
I0227 09:39:39.965744 16912 layer_factory.hpp:77] Creating layer res3b7_relu
I0227 09:39:39.965756 16912 net.cpp:106] Creating Layer res3b7_relu
I0227 09:39:39.965766 16912 net.cpp:454] res3b7_relu <- res3b7
I0227 09:39:39.965778 16912 net.cpp:397] res3b7_relu -> res3b7 (in-place)
I0227 09:39:39.965790 16912 net.cpp:150] Setting up res3b7_relu
I0227 09:39:39.965802 16912 net.cpp:157] Top shape: 8 512 28 28 (3211264)
I0227 09:39:39.965811 16912 net.cpp:165] Memory required for data: 1835238368
I0227 09:39:39.965821 16912 layer_factory.hpp:77] Creating layer res3b7_res3b7_relu_0_split
I0227 09:39:39.965831 16912 net.cpp:106] Creating Layer res3b7_res3b7_relu_0_split
I0227 09:39:39.965842 16912 net.cpp:454] res3b7_res3b7_relu_0_split <- res3b7
I0227 09:39:39.965855 16912 net.cpp:411] res3b7_res3b7_relu_0_split -> res3b7_res3b7_relu_0_split_0
I0227 09:39:39.965869 16912 net.cpp:411] res3b7_res3b7_relu_0_split -> res3b7_res3b7_relu_0_split_1
I0227 09:39:39.965916 16912 net.cpp:150] Setting up res3b7_res3b7_relu_0_split
I0227 09:39:39.965931 16912 net.cpp:157] Top shape: 8 512 28 28 (3211264)
I0227 09:39:39.965942 16912 net.cpp:157] Top shape: 8 512 28 28 (3211264)
I0227 09:39:39.965951 16912 net.cpp:165] Memory required for data: 1860928480
I0227 09:39:39.965961 16912 layer_factory.hpp:77] Creating layer res4a_branch1
I0227 09:39:39.965978 16912 net.cpp:106] Creating Layer res4a_branch1
I0227 09:39:39.965989 16912 net.cpp:454] res4a_branch1 <- res3b7_res3b7_relu_0_split_0
I0227 09:39:39.966001 16912 net.cpp:411] res4a_branch1 -> res4a_branch1
I0227 09:39:39.967756 16912 net.cpp:150] Setting up res4a_branch1
I0227 09:39:39.967777 16912 net.cpp:157] Top shape: 8 1024 14 14 (1605632)
I0227 09:39:39.967788 16912 net.cpp:165] Memory required for data: 1867351008
I0227 09:39:39.967800 16912 layer_factory.hpp:77] Creating layer bn4a_branch1
I0227 09:39:39.967818 16912 net.cpp:106] Creating Layer bn4a_branch1
I0227 09:39:39.967828 16912 net.cpp:454] bn4a_branch1 <- res4a_branch1
I0227 09:39:39.967840 16912 net.cpp:397] bn4a_branch1 -> res4a_branch1 (in-place)
I0227 09:39:39.968076 16912 net.cpp:150] Setting up bn4a_branch1
I0227 09:39:39.968094 16912 net.cpp:157] Top shape: 8 1024 14 14 (1605632)
I0227 09:39:39.968103 16912 net.cpp:165] Memory required for data: 1873773536
I0227 09:39:39.968119 16912 layer_factory.hpp:77] Creating layer scale4a_branch1
I0227 09:39:39.968142 16912 net.cpp:106] Creating Layer scale4a_branch1
I0227 09:39:39.968163 16912 net.cpp:454] scale4a_branch1 <- res4a_branch1
I0227 09:39:39.968175 16912 net.cpp:397] scale4a_branch1 -> res4a_branch1 (in-place)
I0227 09:39:39.968230 16912 layer_factory.hpp:77] Creating layer scale4a_branch1
I0227 09:39:39.968380 16912 net.cpp:150] Setting up scale4a_branch1
I0227 09:39:39.968399 16912 net.cpp:157] Top shape: 8 1024 14 14 (1605632)
I0227 09:39:39.968407 16912 net.cpp:165] Memory required for data: 1880196064
I0227 09:39:39.968421 16912 layer_factory.hpp:77] Creating layer res4a_branch2a
I0227 09:39:39.968438 16912 net.cpp:106] Creating Layer res4a_branch2a
I0227 09:39:39.968449 16912 net.cpp:454] res4a_branch2a <- res3b7_res3b7_relu_0_split_1
I0227 09:39:39.968461 16912 net.cpp:411] res4a_branch2a -> res4a_branch2a
I0227 09:39:39.968840 16912 net.cpp:150] Setting up res4a_branch2a
I0227 09:39:39.968859 16912 net.cpp:157] Top shape: 8 256 14 14 (401408)
I0227 09:39:39.968868 16912 net.cpp:165] Memory required for data: 1881801696
I0227 09:39:39.968880 16912 layer_factory.hpp:77] Creating layer bn4a_branch2a
I0227 09:39:39.968896 16912 net.cpp:106] Creating Layer bn4a_branch2a
I0227 09:39:39.968907 16912 net.cpp:454] bn4a_branch2a <- res4a_branch2a
I0227 09:39:39.968919 16912 net.cpp:397] bn4a_branch2a -> res4a_branch2a (in-place)
I0227 09:39:39.969131 16912 net.cpp:150] Setting up bn4a_branch2a
I0227 09:39:39.969149 16912 net.cpp:157] Top shape: 8 256 14 14 (401408)
I0227 09:39:39.969158 16912 net.cpp:165] Memory required for data: 1883407328
I0227 09:39:39.969173 16912 layer_factory.hpp:77] Creating layer scale4a_branch2a
I0227 09:39:39.969187 16912 net.cpp:106] Creating Layer scale4a_branch2a
I0227 09:39:39.969197 16912 net.cpp:454] scale4a_branch2a <- res4a_branch2a
I0227 09:39:39.969211 16912 net.cpp:397] scale4a_branch2a -> res4a_branch2a (in-place)
I0227 09:39:39.969275 16912 layer_factory.hpp:77] Creating layer scale4a_branch2a
I0227 09:39:39.969421 16912 net.cpp:150] Setting up scale4a_branch2a
I0227 09:39:39.969441 16912 net.cpp:157] Top shape: 8 256 14 14 (401408)
I0227 09:39:39.969451 16912 net.cpp:165] Memory required for data: 1885012960
I0227 09:39:39.969465 16912 layer_factory.hpp:77] Creating layer res4a_branch2a_relu
I0227 09:39:39.969477 16912 net.cpp:106] Creating Layer res4a_branch2a_relu
I0227 09:39:39.969487 16912 net.cpp:454] res4a_branch2a_relu <- res4a_branch2a
I0227 09:39:39.969498 16912 net.cpp:397] res4a_branch2a_relu -> res4a_branch2a (in-place)
I0227 09:39:39.969511 16912 net.cpp:150] Setting up res4a_branch2a_relu
I0227 09:39:39.969522 16912 net.cpp:157] Top shape: 8 256 14 14 (401408)
I0227 09:39:39.969532 16912 net.cpp:165] Memory required for data: 1886618592
I0227 09:39:39.969542 16912 layer_factory.hpp:77] Creating layer res4a_branch2b
I0227 09:39:39.969559 16912 net.cpp:106] Creating Layer res4a_branch2b
I0227 09:39:39.969570 16912 net.cpp:454] res4a_branch2b <- res4a_branch2a
I0227 09:39:39.969583 16912 net.cpp:411] res4a_branch2b -> res4a_branch2b
I0227 09:39:39.971518 16912 net.cpp:150] Setting up res4a_branch2b
I0227 09:39:39.971539 16912 net.cpp:157] Top shape: 8 256 14 14 (401408)
I0227 09:39:39.971549 16912 net.cpp:165] Memory required for data: 1888224224
I0227 09:39:39.971562 16912 layer_factory.hpp:77] Creating layer bn4a_branch2b
I0227 09:39:39.971575 16912 net.cpp:106] Creating Layer bn4a_branch2b
I0227 09:39:39.971585 16912 net.cpp:454] bn4a_branch2b <- res4a_branch2b
I0227 09:39:39.971597 16912 net.cpp:397] bn4a_branch2b -> res4a_branch2b (in-place)
I0227 09:39:39.971819 16912 net.cpp:150] Setting up bn4a_branch2b
I0227 09:39:39.971837 16912 net.cpp:157] Top shape: 8 256 14 14 (401408)
I0227 09:39:39.971845 16912 net.cpp:165] Memory required for data: 1889829856
I0227 09:39:39.971861 16912 layer_factory.hpp:77] Creating layer scale4a_branch2b
I0227 09:39:39.971874 16912 net.cpp:106] Creating Layer scale4a_branch2b
I0227 09:39:39.971884 16912 net.cpp:454] scale4a_branch2b <- res4a_branch2b
I0227 09:39:39.971896 16912 net.cpp:397] scale4a_branch2b -> res4a_branch2b (in-place)
I0227 09:39:39.971968 16912 layer_factory.hpp:77] Creating layer scale4a_branch2b
I0227 09:39:39.972121 16912 net.cpp:150] Setting up scale4a_branch2b
I0227 09:39:39.972138 16912 net.cpp:157] Top shape: 8 256 14 14 (401408)
I0227 09:39:39.972148 16912 net.cpp:165] Memory required for data: 1891435488
I0227 09:39:39.972162 16912 layer_factory.hpp:77] Creating layer res4a_branch2b_relu
I0227 09:39:39.972177 16912 net.cpp:106] Creating Layer res4a_branch2b_relu
I0227 09:39:39.972187 16912 net.cpp:454] res4a_branch2b_relu <- res4a_branch2b
I0227 09:39:39.972199 16912 net.cpp:397] res4a_branch2b_relu -> res4a_branch2b (in-place)
I0227 09:39:39.972213 16912 net.cpp:150] Setting up res4a_branch2b_relu
I0227 09:39:39.972224 16912 net.cpp:157] Top shape: 8 256 14 14 (401408)
I0227 09:39:39.972234 16912 net.cpp:165] Memory required for data: 1893041120
I0227 09:39:39.972242 16912 layer_factory.hpp:77] Creating layer res4a_branch2c
I0227 09:39:39.972259 16912 net.cpp:106] Creating Layer res4a_branch2c
I0227 09:39:39.972270 16912 net.cpp:454] res4a_branch2c <- res4a_branch2b
I0227 09:39:39.972281 16912 net.cpp:411] res4a_branch2c -> res4a_branch2c
I0227 09:39:39.973353 16912 net.cpp:150] Setting up res4a_branch2c
I0227 09:39:39.973376 16912 net.cpp:157] Top shape: 8 1024 14 14 (1605632)
I0227 09:39:39.973387 16912 net.cpp:165] Memory required for data: 1899463648
I0227 09:39:39.973398 16912 layer_factory.hpp:77] Creating layer bn4a_branch2c
I0227 09:39:39.973412 16912 net.cpp:106] Creating Layer bn4a_branch2c
I0227 09:39:39.973423 16912 net.cpp:454] bn4a_branch2c <- res4a_branch2c
I0227 09:39:39.973434 16912 net.cpp:397] bn4a_branch2c -> res4a_branch2c (in-place)
I0227 09:39:39.973660 16912 net.cpp:150] Setting up bn4a_branch2c
I0227 09:39:39.973677 16912 net.cpp:157] Top shape: 8 1024 14 14 (1605632)
I0227 09:39:39.973687 16912 net.cpp:165] Memory required for data: 1905886176
I0227 09:39:39.973702 16912 layer_factory.hpp:77] Creating layer scale4a_branch2c
I0227 09:39:39.973718 16912 net.cpp:106] Creating Layer scale4a_branch2c
I0227 09:39:39.973729 16912 net.cpp:454] scale4a_branch2c <- res4a_branch2c
I0227 09:39:39.973742 16912 net.cpp:397] scale4a_branch2c -> res4a_branch2c (in-place)
I0227 09:39:39.973794 16912 layer_factory.hpp:77] Creating layer scale4a_branch2c
I0227 09:39:39.973945 16912 net.cpp:150] Setting up scale4a_branch2c
I0227 09:39:39.973963 16912 net.cpp:157] Top shape: 8 1024 14 14 (1605632)
I0227 09:39:39.973973 16912 net.cpp:165] Memory required for data: 1912308704
I0227 09:39:39.973985 16912 layer_factory.hpp:77] Creating layer res4a
I0227 09:39:39.973999 16912 net.cpp:106] Creating Layer res4a
I0227 09:39:39.974009 16912 net.cpp:454] res4a <- res4a_branch1
I0227 09:39:39.974020 16912 net.cpp:454] res4a <- res4a_branch2c
I0227 09:39:39.974035 16912 net.cpp:411] res4a -> res4a
I0227 09:39:39.974071 16912 net.cpp:150] Setting up res4a
I0227 09:39:39.974089 16912 net.cpp:157] Top shape: 8 1024 14 14 (1605632)
I0227 09:39:39.974099 16912 net.cpp:165] Memory required for data: 1918731232
I0227 09:39:39.974108 16912 layer_factory.hpp:77] Creating layer res4a_relu
I0227 09:39:39.974120 16912 net.cpp:106] Creating Layer res4a_relu
I0227 09:39:39.974130 16912 net.cpp:454] res4a_relu <- res4a
I0227 09:39:39.974141 16912 net.cpp:397] res4a_relu -> res4a (in-place)
I0227 09:39:39.974154 16912 net.cpp:150] Setting up res4a_relu
I0227 09:39:39.974166 16912 net.cpp:157] Top shape: 8 1024 14 14 (1605632)
I0227 09:39:39.974175 16912 net.cpp:165] Memory required for data: 1925153760
I0227 09:39:39.974184 16912 layer_factory.hpp:77] Creating layer res4a_res4a_relu_0_split
I0227 09:39:39.974195 16912 net.cpp:106] Creating Layer res4a_res4a_relu_0_split
I0227 09:39:39.974205 16912 net.cpp:454] res4a_res4a_relu_0_split <- res4a
I0227 09:39:39.974220 16912 net.cpp:411] res4a_res4a_relu_0_split -> res4a_res4a_relu_0_split_0
I0227 09:39:39.974233 16912 net.cpp:411] res4a_res4a_relu_0_split -> res4a_res4a_relu_0_split_1
I0227 09:39:39.974282 16912 net.cpp:150] Setting up res4a_res4a_relu_0_split
I0227 09:39:39.974303 16912 net.cpp:157] Top shape: 8 1024 14 14 (1605632)
I0227 09:39:39.974323 16912 net.cpp:157] Top shape: 8 1024 14 14 (1605632)
I0227 09:39:39.974334 16912 net.cpp:165] Memory required for data: 1937998816
I0227 09:39:39.974342 16912 layer_factory.hpp:77] Creating layer res4b1_branch2a
I0227 09:39:39.974360 16912 net.cpp:106] Creating Layer res4b1_branch2a
I0227 09:39:39.974370 16912 net.cpp:454] res4b1_branch2a <- res4a_res4a_relu_0_split_0
I0227 09:39:39.974382 16912 net.cpp:411] res4b1_branch2a -> res4b1_branch2a
I0227 09:39:39.975451 16912 net.cpp:150] Setting up res4b1_branch2a
I0227 09:39:39.975472 16912 net.cpp:157] Top shape: 8 256 14 14 (401408)
I0227 09:39:39.975482 16912 net.cpp:165] Memory required for data: 1939604448
I0227 09:39:39.975494 16912 layer_factory.hpp:77] Creating layer bn4b1_branch2a
I0227 09:39:39.975510 16912 net.cpp:106] Creating Layer bn4b1_branch2a
I0227 09:39:39.975522 16912 net.cpp:454] bn4b1_branch2a <- res4b1_branch2a
I0227 09:39:39.975533 16912 net.cpp:397] bn4b1_branch2a -> res4b1_branch2a (in-place)
I0227 09:39:39.975759 16912 net.cpp:150] Setting up bn4b1_branch2a
I0227 09:39:39.975776 16912 net.cpp:157] Top shape: 8 256 14 14 (401408)
I0227 09:39:39.975785 16912 net.cpp:165] Memory required for data: 1941210080
I0227 09:39:39.975801 16912 layer_factory.hpp:77] Creating layer scale4b1_branch2a
I0227 09:39:39.975814 16912 net.cpp:106] Creating Layer scale4b1_branch2a
I0227 09:39:39.975824 16912 net.cpp:454] scale4b1_branch2a <- res4b1_branch2a
I0227 09:39:39.975839 16912 net.cpp:397] scale4b1_branch2a -> res4b1_branch2a (in-place)
I0227 09:39:39.975895 16912 layer_factory.hpp:77] Creating layer scale4b1_branch2a
I0227 09:39:39.976037 16912 net.cpp:150] Setting up scale4b1_branch2a
I0227 09:39:39.976054 16912 net.cpp:157] Top shape: 8 256 14 14 (401408)
I0227 09:39:39.976064 16912 net.cpp:165] Memory required for data: 1942815712
I0227 09:39:39.976078 16912 layer_factory.hpp:77] Creating layer res4b1_branch2a_relu
I0227 09:39:39.976094 16912 net.cpp:106] Creating Layer res4b1_branch2a_relu
I0227 09:39:39.976104 16912 net.cpp:454] res4b1_branch2a_relu <- res4b1_branch2a
I0227 09:39:39.976114 16912 net.cpp:397] res4b1_branch2a_relu -> res4b1_branch2a (in-place)
I0227 09:39:39.976127 16912 net.cpp:150] Setting up res4b1_branch2a_relu
I0227 09:39:39.976138 16912 net.cpp:157] Top shape: 8 256 14 14 (401408)
I0227 09:39:39.976147 16912 net.cpp:165] Memory required for data: 1944421344
I0227 09:39:39.976157 16912 layer_factory.hpp:77] Creating layer res4b1_branch2b
I0227 09:39:39.976173 16912 net.cpp:106] Creating Layer res4b1_branch2b
I0227 09:39:39.976183 16912 net.cpp:454] res4b1_branch2b <- res4b1_branch2a
I0227 09:39:39.976196 16912 net.cpp:411] res4b1_branch2b -> res4b1_branch2b
I0227 09:39:39.978094 16912 net.cpp:150] Setting up res4b1_branch2b
I0227 09:39:39.978117 16912 net.cpp:157] Top shape: 8 256 14 14 (401408)
I0227 09:39:39.978127 16912 net.cpp:165] Memory required for data: 1946026976
I0227 09:39:39.978139 16912 layer_factory.hpp:77] Creating layer bn4b1_branch2b
I0227 09:39:39.978152 16912 net.cpp:106] Creating Layer bn4b1_branch2b
I0227 09:39:39.978163 16912 net.cpp:454] bn4b1_branch2b <- res4b1_branch2b
I0227 09:39:39.978174 16912 net.cpp:397] bn4b1_branch2b -> res4b1_branch2b (in-place)
I0227 09:39:39.978396 16912 net.cpp:150] Setting up bn4b1_branch2b
I0227 09:39:39.978413 16912 net.cpp:157] Top shape: 8 256 14 14 (401408)
I0227 09:39:39.978422 16912 net.cpp:165] Memory required for data: 1947632608
I0227 09:39:39.978437 16912 layer_factory.hpp:77] Creating layer scale4b1_branch2b
I0227 09:39:39.978451 16912 net.cpp:106] Creating Layer scale4b1_branch2b
I0227 09:39:39.978461 16912 net.cpp:454] scale4b1_branch2b <- res4b1_branch2b
I0227 09:39:39.978472 16912 net.cpp:397] scale4b1_branch2b -> res4b1_branch2b (in-place)
I0227 09:39:39.978533 16912 layer_factory.hpp:77] Creating layer scale4b1_branch2b
I0227 09:39:39.978674 16912 net.cpp:150] Setting up scale4b1_branch2b
I0227 09:39:39.978691 16912 net.cpp:157] Top shape: 8 256 14 14 (401408)
I0227 09:39:39.978700 16912 net.cpp:165] Memory required for data: 1949238240
I0227 09:39:39.978729 16912 layer_factory.hpp:77] Creating layer res4b1_branch2b_relu
I0227 09:39:39.978745 16912 net.cpp:106] Creating Layer res4b1_branch2b_relu
I0227 09:39:39.978755 16912 net.cpp:454] res4b1_branch2b_relu <- res4b1_branch2b
I0227 09:39:39.978766 16912 net.cpp:397] res4b1_branch2b_relu -> res4b1_branch2b (in-place)
I0227 09:39:39.978780 16912 net.cpp:150] Setting up res4b1_branch2b_relu
I0227 09:39:39.978791 16912 net.cpp:157] Top shape: 8 256 14 14 (401408)
I0227 09:39:39.978801 16912 net.cpp:165] Memory required for data: 1950843872
I0227 09:39:39.978809 16912 layer_factory.hpp:77] Creating layer res4b1_branch2c
I0227 09:39:39.978829 16912 net.cpp:106] Creating Layer res4b1_branch2c
I0227 09:39:39.978840 16912 net.cpp:454] res4b1_branch2c <- res4b1_branch2b
I0227 09:39:39.978852 16912 net.cpp:411] res4b1_branch2c -> res4b1_branch2c
I0227 09:39:39.979903 16912 net.cpp:150] Setting up res4b1_branch2c
I0227 09:39:39.979925 16912 net.cpp:157] Top shape: 8 1024 14 14 (1605632)
I0227 09:39:39.979935 16912 net.cpp:165] Memory required for data: 1957266400
I0227 09:39:39.979948 16912 layer_factory.hpp:77] Creating layer bn4b1_branch2c
I0227 09:39:39.979964 16912 net.cpp:106] Creating Layer bn4b1_branch2c
I0227 09:39:39.979974 16912 net.cpp:454] bn4b1_branch2c <- res4b1_branch2c
I0227 09:39:39.979986 16912 net.cpp:397] bn4b1_branch2c -> res4b1_branch2c (in-place)
I0227 09:39:39.980214 16912 net.cpp:150] Setting up bn4b1_branch2c
I0227 09:39:39.980232 16912 net.cpp:157] Top shape: 8 1024 14 14 (1605632)
I0227 09:39:39.980242 16912 net.cpp:165] Memory required for data: 1963688928
I0227 09:39:39.980257 16912 layer_factory.hpp:77] Creating layer scale4b1_branch2c
I0227 09:39:39.980273 16912 net.cpp:106] Creating Layer scale4b1_branch2c
I0227 09:39:39.980283 16912 net.cpp:454] scale4b1_branch2c <- res4b1_branch2c
I0227 09:39:39.980295 16912 net.cpp:397] scale4b1_branch2c -> res4b1_branch2c (in-place)
I0227 09:39:39.980350 16912 layer_factory.hpp:77] Creating layer scale4b1_branch2c
I0227 09:39:39.980499 16912 net.cpp:150] Setting up scale4b1_branch2c
I0227 09:39:39.980516 16912 net.cpp:157] Top shape: 8 1024 14 14 (1605632)
I0227 09:39:39.980526 16912 net.cpp:165] Memory required for data: 1970111456
I0227 09:39:39.980581 16912 layer_factory.hpp:77] Creating layer res4b1
I0227 09:39:39.980597 16912 net.cpp:106] Creating Layer res4b1
I0227 09:39:39.980608 16912 net.cpp:454] res4b1 <- res4a_res4a_relu_0_split_1
I0227 09:39:39.980619 16912 net.cpp:454] res4b1 <- res4b1_branch2c
I0227 09:39:39.980631 16912 net.cpp:411] res4b1 -> res4b1
I0227 09:39:39.980669 16912 net.cpp:150] Setting up res4b1
I0227 09:39:39.980684 16912 net.cpp:157] Top shape: 8 1024 14 14 (1605632)
I0227 09:39:39.980695 16912 net.cpp:165] Memory required for data: 1976533984
I0227 09:39:39.980705 16912 layer_factory.hpp:77] Creating layer res4b1_relu
I0227 09:39:39.980720 16912 net.cpp:106] Creating Layer res4b1_relu
I0227 09:39:39.980729 16912 net.cpp:454] res4b1_relu <- res4b1
I0227 09:39:39.980741 16912 net.cpp:397] res4b1_relu -> res4b1 (in-place)
I0227 09:39:39.980754 16912 net.cpp:150] Setting up res4b1_relu
I0227 09:39:39.980765 16912 net.cpp:157] Top shape: 8 1024 14 14 (1605632)
I0227 09:39:39.980774 16912 net.cpp:165] Memory required for data: 1982956512
I0227 09:39:39.980784 16912 layer_factory.hpp:77] Creating layer res4b1_res4b1_relu_0_split
I0227 09:39:39.980798 16912 net.cpp:106] Creating Layer res4b1_res4b1_relu_0_split
I0227 09:39:39.980808 16912 net.cpp:454] res4b1_res4b1_relu_0_split <- res4b1
I0227 09:39:39.980820 16912 net.cpp:411] res4b1_res4b1_relu_0_split -> res4b1_res4b1_relu_0_split_0
I0227 09:39:39.980834 16912 net.cpp:411] res4b1_res4b1_relu_0_split -> res4b1_res4b1_relu_0_split_1
I0227 09:39:39.980891 16912 net.cpp:150] Setting up res4b1_res4b1_relu_0_split
I0227 09:39:39.980907 16912 net.cpp:157] Top shape: 8 1024 14 14 (1605632)
I0227 09:39:39.980917 16912 net.cpp:157] Top shape: 8 1024 14 14 (1605632)
I0227 09:39:39.980926 16912 net.cpp:165] Memory required for data: 1995801568
I0227 09:39:39.980942 16912 layer_factory.hpp:77] Creating layer res4b2_branch2a
I0227 09:39:39.980967 16912 net.cpp:106] Creating Layer res4b2_branch2a
I0227 09:39:39.980978 16912 net.cpp:454] res4b2_branch2a <- res4b1_res4b1_relu_0_split_0
I0227 09:39:39.980993 16912 net.cpp:411] res4b2_branch2a -> res4b2_branch2a
I0227 09:39:39.982048 16912 net.cpp:150] Setting up res4b2_branch2a
I0227 09:39:39.982071 16912 net.cpp:157] Top shape: 8 256 14 14 (401408)
I0227 09:39:39.982081 16912 net.cpp:165] Memory required for data: 1997407200
I0227 09:39:39.982094 16912 layer_factory.hpp:77] Creating layer bn4b2_branch2a
I0227 09:39:39.982107 16912 net.cpp:106] Creating Layer bn4b2_branch2a
I0227 09:39:39.982117 16912 net.cpp:454] bn4b2_branch2a <- res4b2_branch2a
I0227 09:39:39.982130 16912 net.cpp:397] bn4b2_branch2a -> res4b2_branch2a (in-place)
I0227 09:39:39.982352 16912 net.cpp:150] Setting up bn4b2_branch2a
I0227 09:39:39.982369 16912 net.cpp:157] Top shape: 8 256 14 14 (401408)
I0227 09:39:39.982378 16912 net.cpp:165] Memory required for data: 1999012832
I0227 09:39:39.982396 16912 layer_factory.hpp:77] Creating layer scale4b2_branch2a
I0227 09:39:39.982411 16912 net.cpp:106] Creating Layer scale4b2_branch2a
I0227 09:39:39.982421 16912 net.cpp:454] scale4b2_branch2a <- res4b2_branch2a
I0227 09:39:39.982432 16912 net.cpp:397] scale4b2_branch2a -> res4b2_branch2a (in-place)
I0227 09:39:39.982492 16912 layer_factory.hpp:77] Creating layer scale4b2_branch2a
I0227 09:39:39.982637 16912 net.cpp:150] Setting up scale4b2_branch2a
I0227 09:39:39.982655 16912 net.cpp:157] Top shape: 8 256 14 14 (401408)
I0227 09:39:39.982664 16912 net.cpp:165] Memory required for data: 2000618464
I0227 09:39:39.982678 16912 layer_factory.hpp:77] Creating layer res4b2_branch2a_relu
I0227 09:39:39.982693 16912 net.cpp:106] Creating Layer res4b2_branch2a_relu
I0227 09:39:39.982704 16912 net.cpp:454] res4b2_branch2a_relu <- res4b2_branch2a
I0227 09:39:39.982715 16912 net.cpp:397] res4b2_branch2a_relu -> res4b2_branch2a (in-place)
I0227 09:39:39.982728 16912 net.cpp:150] Setting up res4b2_branch2a_relu
I0227 09:39:39.982740 16912 net.cpp:157] Top shape: 8 256 14 14 (401408)
I0227 09:39:39.982749 16912 net.cpp:165] Memory required for data: 2002224096
I0227 09:39:39.982758 16912 layer_factory.hpp:77] Creating layer res4b2_branch2b
I0227 09:39:39.982775 16912 net.cpp:106] Creating Layer res4b2_branch2b
I0227 09:39:39.982786 16912 net.cpp:454] res4b2_branch2b <- res4b2_branch2a
I0227 09:39:39.982798 16912 net.cpp:411] res4b2_branch2b -> res4b2_branch2b
I0227 09:39:39.984693 16912 net.cpp:150] Setting up res4b2_branch2b
I0227 09:39:39.984714 16912 net.cpp:157] Top shape: 8 256 14 14 (401408)
I0227 09:39:39.984724 16912 net.cpp:165] Memory required for data: 2003829728
I0227 09:39:39.984735 16912 layer_factory.hpp:77] Creating layer bn4b2_branch2b
I0227 09:39:39.984752 16912 net.cpp:106] Creating Layer bn4b2_branch2b
I0227 09:39:39.984763 16912 net.cpp:454] bn4b2_branch2b <- res4b2_branch2b
I0227 09:39:39.984776 16912 net.cpp:397] bn4b2_branch2b -> res4b2_branch2b (in-place)
I0227 09:39:39.984999 16912 net.cpp:150] Setting up bn4b2_branch2b
I0227 09:39:39.985018 16912 net.cpp:157] Top shape: 8 256 14 14 (401408)
I0227 09:39:39.985026 16912 net.cpp:165] Memory required for data: 2005435360
I0227 09:39:39.985043 16912 layer_factory.hpp:77] Creating layer scale4b2_branch2b
I0227 09:39:39.985055 16912 net.cpp:106] Creating Layer scale4b2_branch2b
I0227 09:39:39.985065 16912 net.cpp:454] scale4b2_branch2b <- res4b2_branch2b
I0227 09:39:39.985080 16912 net.cpp:397] scale4b2_branch2b -> res4b2_branch2b (in-place)
I0227 09:39:39.985136 16912 layer_factory.hpp:77] Creating layer scale4b2_branch2b
I0227 09:39:39.985291 16912 net.cpp:150] Setting up scale4b2_branch2b
I0227 09:39:39.985311 16912 net.cpp:157] Top shape: 8 256 14 14 (401408)
I0227 09:39:39.985321 16912 net.cpp:165] Memory required for data: 2007040992
I0227 09:39:39.985333 16912 layer_factory.hpp:77] Creating layer res4b2_branch2b_relu
I0227 09:39:39.985347 16912 net.cpp:106] Creating Layer res4b2_branch2b_relu
I0227 09:39:39.985363 16912 net.cpp:454] res4b2_branch2b_relu <- res4b2_branch2b
I0227 09:39:39.985384 16912 net.cpp:397] res4b2_branch2b_relu -> res4b2_branch2b (in-place)
I0227 09:39:39.985399 16912 net.cpp:150] Setting up res4b2_branch2b_relu
I0227 09:39:39.985410 16912 net.cpp:157] Top shape: 8 256 14 14 (401408)
I0227 09:39:39.985419 16912 net.cpp:165] Memory required for data: 2008646624
I0227 09:39:39.985430 16912 layer_factory.hpp:77] Creating layer res4b2_branch2c
I0227 09:39:39.985446 16912 net.cpp:106] Creating Layer res4b2_branch2c
I0227 09:39:39.985456 16912 net.cpp:454] res4b2_branch2c <- res4b2_branch2b
I0227 09:39:39.985471 16912 net.cpp:411] res4b2_branch2c -> res4b2_branch2c
I0227 09:39:39.986548 16912 net.cpp:150] Setting up res4b2_branch2c
I0227 09:39:39.986570 16912 net.cpp:157] Top shape: 8 1024 14 14 (1605632)
I0227 09:39:39.986580 16912 net.cpp:165] Memory required for data: 2015069152
I0227 09:39:39.986593 16912 layer_factory.hpp:77] Creating layer bn4b2_branch2c
I0227 09:39:39.986605 16912 net.cpp:106] Creating Layer bn4b2_branch2c
I0227 09:39:39.986615 16912 net.cpp:454] bn4b2_branch2c <- res4b2_branch2c
I0227 09:39:39.986630 16912 net.cpp:397] bn4b2_branch2c -> res4b2_branch2c (in-place)
I0227 09:39:39.986860 16912 net.cpp:150] Setting up bn4b2_branch2c
I0227 09:39:39.986878 16912 net.cpp:157] Top shape: 8 1024 14 14 (1605632)
I0227 09:39:39.986887 16912 net.cpp:165] Memory required for data: 2021491680
I0227 09:39:39.986902 16912 layer_factory.hpp:77] Creating layer scale4b2_branch2c
I0227 09:39:39.986917 16912 net.cpp:106] Creating Layer scale4b2_branch2c
I0227 09:39:39.986927 16912 net.cpp:454] scale4b2_branch2c <- res4b2_branch2c
I0227 09:39:39.986938 16912 net.cpp:397] scale4b2_branch2c -> res4b2_branch2c (in-place)
I0227 09:39:39.986997 16912 layer_factory.hpp:77] Creating layer scale4b2_branch2c
I0227 09:39:39.987149 16912 net.cpp:150] Setting up scale4b2_branch2c
I0227 09:39:39.987166 16912 net.cpp:157] Top shape: 8 1024 14 14 (1605632)
I0227 09:39:39.987175 16912 net.cpp:165] Memory required for data: 2027914208
I0227 09:39:39.987190 16912 layer_factory.hpp:77] Creating layer res4b2
I0227 09:39:39.987202 16912 net.cpp:106] Creating Layer res4b2
I0227 09:39:39.987212 16912 net.cpp:454] res4b2 <- res4b1_res4b1_relu_0_split_1
I0227 09:39:39.987223 16912 net.cpp:454] res4b2 <- res4b2_branch2c
I0227 09:39:39.987238 16912 net.cpp:411] res4b2 -> res4b2
I0227 09:39:39.987275 16912 net.cpp:150] Setting up res4b2
I0227 09:39:39.987290 16912 net.cpp:157] Top shape: 8 1024 14 14 (1605632)
I0227 09:39:39.987300 16912 net.cpp:165] Memory required for data: 2034336736
I0227 09:39:39.987309 16912 layer_factory.hpp:77] Creating layer res4b2_relu
I0227 09:39:39.987324 16912 net.cpp:106] Creating Layer res4b2_relu
I0227 09:39:39.987334 16912 net.cpp:454] res4b2_relu <- res4b2
I0227 09:39:39.987346 16912 net.cpp:397] res4b2_relu -> res4b2 (in-place)
I0227 09:39:39.987360 16912 net.cpp:150] Setting up res4b2_relu
I0227 09:39:39.987370 16912 net.cpp:157] Top shape: 8 1024 14 14 (1605632)
I0227 09:39:39.987380 16912 net.cpp:165] Memory required for data: 2040759264
I0227 09:39:39.987388 16912 layer_factory.hpp:77] Creating layer res4b2_res4b2_relu_0_split
I0227 09:39:39.987401 16912 net.cpp:106] Creating Layer res4b2_res4b2_relu_0_split
…
I0227 09:39:40.190969 16912 layer_factory.hpp:77] Creating layer scale4b33_branch2a
I0227 09:39:40.190984 16912 net.cpp:106] Creating Layer scale4b33_branch2a
I0227 09:39:40.190994 16912 net.cpp:454] scale4b33_branch2a <- res4b33_branch2a
I0227 09:39:40.191009 16912 net.cpp:397] scale4b33_branch2a -> res4b33_branch2a (in-place)
I0227 09:39:40.191068 16912 layer_factory.hpp:77] Creating layer scale4b33_branch2a
I0227 09:39:40.191223 16912 net.cpp:150] Setting up scale4b33_branch2a
I0227 09:39:40.191244 16912 net.cpp:157] Top shape: 8 256 14 14 (401408)
I0227 09:39:40.191254 16912 net.cpp:165] Memory required for data: 3792503776
I0227 09:39:40.191268 16912 layer_factory.hpp:77] Creating layer res4b33_branch2a_relu
I0227 09:39:40.191282 16912 net.cpp:106] Creating Layer res4b33_branch2a_relu
I0227 09:39:40.191292 16912 net.cpp:454] res4b33_branch2a_relu <- res4b33_branch2a
I0227 09:39:40.191303 16912 net.cpp:397] res4b33_branch2a_relu -> res4b33_branch2a (in-place)
I0227 09:39:40.191316 16912 net.cpp:150] Setting up res4b33_branch2a_relu
I0227 09:39:40.191328 16912 net.cpp:157] Top shape: 8 256 14 14 (401408)
I0227 09:39:40.191336 16912 net.cpp:165] Memory required for data: 3794109408
I0227 09:39:40.191346 16912 layer_factory.hpp:77] Creating layer res4b33_branch2b
I0227 09:39:40.191364 16912 net.cpp:106] Creating Layer res4b33_branch2b
I0227 09:39:40.191373 16912 net.cpp:454] res4b33_branch2b <- res4b33_branch2a
I0227 09:39:40.191385 16912 net.cpp:411] res4b33_branch2b -> res4b33_branch2b
I0227 09:39:40.193317 16912 net.cpp:150] Setting up res4b33_branch2b
I0227 09:39:40.193341 16912 net.cpp:157] Top shape: 8 256 14 14 (401408)
I0227 09:39:40.193351 16912 net.cpp:165] Memory required for data: 3795715040
I0227 09:39:40.193363 16912 layer_factory.hpp:77] Creating layer bn4b33_branch2b
I0227 09:39:40.193377 16912 net.cpp:106] Creating Layer bn4b33_branch2b
I0227 09:39:40.193387 16912 net.cpp:454] bn4b33_branch2b <- res4b33_branch2b
I0227 09:39:40.193403 16912 net.cpp:397] bn4b33_branch2b -> res4b33_branch2b (in-place)
I0227 09:39:40.193648 16912 net.cpp:150] Setting up bn4b33_branch2b
I0227 09:39:40.193665 16912 net.cpp:157] Top shape: 8 256 14 14 (401408)
I0227 09:39:40.193675 16912 net.cpp:165] Memory required for data: 3797320672
I0227 09:39:40.193691 16912 layer_factory.hpp:77] Creating layer scale4b33_branch2b
I0227 09:39:40.193711 16912 net.cpp:106] Creating Layer scale4b33_branch2b
I0227 09:39:40.193732 16912 net.cpp:454] scale4b33_branch2b <- res4b33_branch2b
I0227 09:39:40.193747 16912 net.cpp:397] scale4b33_branch2b -> res4b33_branch2b (in-place)
I0227 09:39:40.193810 16912 layer_factory.hpp:77] Creating layer scale4b33_branch2b
I0227 09:39:40.193963 16912 net.cpp:150] Setting up scale4b33_branch2b
I0227 09:39:40.193979 16912 net.cpp:157] Top shape: 8 256 14 14 (401408)
I0227 09:39:40.193989 16912 net.cpp:165] Memory required for data: 3798926304
I0227 09:39:40.194002 16912 layer_factory.hpp:77] Creating layer res4b33_branch2b_relu
I0227 09:39:40.194018 16912 net.cpp:106] Creating Layer res4b33_branch2b_relu
I0227 09:39:40.194030 16912 net.cpp:454] res4b33_branch2b_relu <- res4b33_branch2b
I0227 09:39:40.194041 16912 net.cpp:397] res4b33_branch2b_relu -> res4b33_branch2b (in-place)
I0227 09:39:40.194057 16912 net.cpp:150] Setting up res4b33_branch2b_relu
I0227 09:39:40.194069 16912 net.cpp:157] Top shape: 8 256 14 14 (401408)
I0227 09:39:40.194078 16912 net.cpp:165] Memory required for data: 3800531936
I0227 09:39:40.194087 16912 layer_factory.hpp:77] Creating layer res4b33_branch2c
I0227 09:39:40.194102 16912 net.cpp:106] Creating Layer res4b33_branch2c
I0227 09:39:40.194111 16912 net.cpp:454] res4b33_branch2c <- res4b33_branch2b
I0227 09:39:40.194124 16912 net.cpp:411] res4b33_branch2c -> res4b33_branch2c
I0227 09:39:40.195209 16912 net.cpp:150] Setting up res4b33_branch2c
I0227 09:39:40.195230 16912 net.cpp:157] Top shape: 8 1024 14 14 (1605632)
I0227 09:39:40.195240 16912 net.cpp:165] Memory required for data: 3806954464
I0227 09:39:40.195252 16912 layer_factory.hpp:77] Creating layer bn4b33_branch2c
I0227 09:39:40.195266 16912 net.cpp:106] Creating Layer bn4b33_branch2c
I0227 09:39:40.195276 16912 net.cpp:454] bn4b33_branch2c <- res4b33_branch2c
I0227 09:39:40.195288 16912 net.cpp:397] bn4b33_branch2c -> res4b33_branch2c (in-place)
I0227 09:39:40.195552 16912 net.cpp:150] Setting up bn4b33_branch2c
I0227 09:39:40.195570 16912 net.cpp:157] Top shape: 8 1024 14 14 (1605632)
I0227 09:39:40.195580 16912 net.cpp:165] Memory required for data: 3813376992
I0227 09:39:40.195595 16912 layer_factory.hpp:77] Creating layer scale4b33_branch2c
I0227 09:39:40.195616 16912 net.cpp:106] Creating Layer scale4b33_branch2c
I0227 09:39:40.195626 16912 net.cpp:454] scale4b33_branch2c <- res4b33_branch2c
I0227 09:39:40.195638 16912 net.cpp:397] scale4b33_branch2c -> res4b33_branch2c (in-place)
I0227 09:39:40.195705 16912 layer_factory.hpp:77] Creating layer scale4b33_branch2c
I0227 09:39:40.195883 16912 net.cpp:150] Setting up scale4b33_branch2c
I0227 09:39:40.195901 16912 net.cpp:157] Top shape: 8 1024 14 14 (1605632)
I0227 09:39:40.195910 16912 net.cpp:165] Memory required for data: 3819799520
I0227 09:39:40.195924 16912 layer_factory.hpp:77] Creating layer res4b33
I0227 09:39:40.195936 16912 net.cpp:106] Creating Layer res4b33
I0227 09:39:40.195947 16912 net.cpp:454] res4b33 <- res4b32_res4b32_relu_0_split_1
I0227 09:39:40.195957 16912 net.cpp:454] res4b33 <- res4b33_branch2c
I0227 09:39:40.195973 16912 net.cpp:411] res4b33 -> res4b33
I0227 09:39:40.196013 16912 net.cpp:150] Setting up res4b33
I0227 09:39:40.196033 16912 net.cpp:157] Top shape: 8 1024 14 14 (1605632)
I0227 09:39:40.196043 16912 net.cpp:165] Memory required for data: 3826222048
I0227 09:39:40.196051 16912 layer_factory.hpp:77] Creating layer res4b33_relu
I0227 09:39:40.196063 16912 net.cpp:106] Creating Layer res4b33_relu
I0227 09:39:40.196074 16912 net.cpp:454] res4b33_relu <- res4b33
I0227 09:39:40.196085 16912 net.cpp:397] res4b33_relu -> res4b33 (in-place)
I0227 09:39:40.196099 16912 net.cpp:150] Setting up res4b33_relu
I0227 09:39:40.196110 16912 net.cpp:157] Top shape: 8 1024 14 14 (1605632)
I0227 09:39:40.196118 16912 net.cpp:165] Memory required for data: 3832644576
I0227 09:39:40.196128 16912 layer_factory.hpp:77] Creating layer res4b33_res4b33_relu_0_split
I0227 09:39:40.196140 16912 net.cpp:106] Creating Layer res4b33_res4b33_relu_0_split
I0227 09:39:40.196156 16912 net.cpp:454] res4b33_res4b33_relu_0_split <- res4b33
I0227 09:39:40.196180 16912 net.cpp:411] res4b33_res4b33_relu_0_split -> res4b33_res4b33_relu_0_split_0
I0227 09:39:40.196195 16912 net.cpp:411] res4b33_res4b33_relu_0_split -> res4b33_res4b33_relu_0_split_1
I0227 09:39:40.196249 16912 net.cpp:150] Setting up res4b33_res4b33_relu_0_split
I0227 09:39:40.196269 16912 net.cpp:157] Top shape: 8 1024 14 14 (1605632)
I0227 09:39:40.196280 16912 net.cpp:157] Top shape: 8 1024 14 14 (1605632)
I0227 09:39:40.196288 16912 net.cpp:165] Memory required for data: 3845489632
I0227 09:39:40.196298 16912 layer_factory.hpp:77] Creating layer res4b34_branch2a
I0227 09:39:40.196312 16912 net.cpp:106] Creating Layer res4b34_branch2a
I0227 09:39:40.196323 16912 net.cpp:454] res4b34_branch2a <- res4b33_res4b33_relu_0_split_0
I0227 09:39:40.196336 16912 net.cpp:411] res4b34_branch2a -> res4b34_branch2a
I0227 09:39:40.197423 16912 net.cpp:150] Setting up res4b34_branch2a
I0227 09:39:40.197446 16912 net.cpp:157] Top shape: 8 256 14 14 (401408)
I0227 09:39:40.197456 16912 net.cpp:165] Memory required for data: 3847095264
I0227 09:39:40.197468 16912 layer_factory.hpp:77] Creating layer bn4b34_branch2a
I0227 09:39:40.197484 16912 net.cpp:106] Creating Layer bn4b34_branch2a
I0227 09:39:40.197495 16912 net.cpp:454] bn4b34_branch2a <- res4b34_branch2a
I0227 09:39:40.197507 16912 net.cpp:397] bn4b34_branch2a -> res4b34_branch2a (in-place)
I0227 09:39:40.197757 16912 net.cpp:150] Setting up bn4b34_branch2a
I0227 09:39:40.197773 16912 net.cpp:157] Top shape: 8 256 14 14 (401408)
I0227 09:39:40.197782 16912 net.cpp:165] Memory required for data: 3848700896
I0227 09:39:40.197798 16912 layer_factory.hpp:77] Creating layer scale4b34_branch2a
I0227 09:39:40.197813 16912 net.cpp:106] Creating Layer scale4b34_branch2a
I0227 09:39:40.197823 16912 net.cpp:454] scale4b34_branch2a <- res4b34_branch2a
I0227 09:39:40.197837 16912 net.cpp:397] scale4b34_branch2a -> res4b34_branch2a (in-place)
I0227 09:39:40.197898 16912 layer_factory.hpp:77] Creating layer scale4b34_branch2a
I0227 09:39:40.198055 16912 net.cpp:150] Setting up scale4b34_branch2a
I0227 09:39:40.198074 16912 net.cpp:157] Top shape: 8 256 14 14 (401408)
I0227 09:39:40.198084 16912 net.cpp:165] Memory required for data: 3850306528
I0227 09:39:40.198098 16912 layer_factory.hpp:77] Creating layer res4b34_branch2a_relu
I0227 09:39:40.198110 16912 net.cpp:106] Creating Layer res4b34_branch2a_relu
I0227 09:39:40.198120 16912 net.cpp:454] res4b34_branch2a_relu <- res4b34_branch2a
I0227 09:39:40.198132 16912 net.cpp:397] res4b34_branch2a_relu -> res4b34_branch2a (in-place)
I0227 09:39:40.198144 16912 net.cpp:150] Setting up res4b34_branch2a_relu
I0227 09:39:40.198156 16912 net.cpp:157] Top shape: 8 256 14 14 (401408)
I0227 09:39:40.198165 16912 net.cpp:165] Memory required for data: 3851912160
I0227 09:39:40.198174 16912 layer_factory.hpp:77] Creating layer res4b34_branch2b
I0227 09:39:40.198191 16912 net.cpp:106] Creating Layer res4b34_branch2b
I0227 09:39:40.198202 16912 net.cpp:454] res4b34_branch2b <- res4b34_branch2a
I0227 09:39:40.198215 16912 net.cpp:411] res4b34_branch2b -> res4b34_branch2b
I0227 09:39:40.200192 16912 net.cpp:150] Setting up res4b34_branch2b
I0227 09:39:40.200214 16912 net.cpp:157] Top shape: 8 256 14 14 (401408)
I0227 09:39:40.200224 16912 net.cpp:165] Memory required for data: 3853517792
I0227 09:39:40.200237 16912 layer_factory.hpp:77] Creating layer bn4b34_branch2b
I0227 09:39:40.200250 16912 net.cpp:106] Creating Layer bn4b34_branch2b
I0227 09:39:40.200260 16912 net.cpp:454] bn4b34_branch2b <- res4b34_branch2b
I0227 09:39:40.200279 16912 net.cpp:397] bn4b34_branch2b -> res4b34_branch2b (in-place)
I0227 09:39:40.200533 16912 net.cpp:150] Setting up bn4b34_branch2b
I0227 09:39:40.200551 16912 net.cpp:157] Top shape: 8 256 14 14 (401408)
I0227 09:39:40.200561 16912 net.cpp:165] Memory required for data: 3855123424
I0227 09:39:40.200577 16912 layer_factory.hpp:77] Creating layer scale4b34_branch2b
I0227 09:39:40.200589 16912 net.cpp:106] Creating Layer scale4b34_branch2b
I0227 09:39:40.200606 16912 net.cpp:454] scale4b34_branch2b <- res4b34_branch2b
I0227 09:39:40.200629 16912 net.cpp:397] scale4b34_branch2b -> res4b34_branch2b (in-place)
I0227 09:39:40.200695 16912 layer_factory.hpp:77] Creating layer scale4b34_branch2b
I0227 09:39:40.200850 16912 net.cpp:150] Setting up scale4b34_branch2b
I0227 09:39:40.200867 16912 net.cpp:157] Top shape: 8 256 14 14 (401408)
I0227 09:39:40.200876 16912 net.cpp:165] Memory required for data: 3856729056
I0227 09:39:40.200891 16912 layer_factory.hpp:77] Creating layer res4b34_branch2b_relu
I0227 09:39:40.200906 16912 net.cpp:106] Creating Layer res4b34_branch2b_relu
I0227 09:39:40.200917 16912 net.cpp:454] res4b34_branch2b_relu <- res4b34_branch2b
I0227 09:39:40.200927 16912 net.cpp:397] res4b34_branch2b_relu -> res4b34_branch2b (in-place)
I0227 09:39:40.200942 16912 net.cpp:150] Setting up res4b34_branch2b_relu
I0227 09:39:40.200954 16912 net.cpp:157] Top shape: 8 256 14 14 (401408)
I0227 09:39:40.200963 16912 net.cpp:165] Memory required for data: 3858334688
I0227 09:39:40.200973 16912 layer_factory.hpp:77] Creating layer res4b34_branch2c
I0227 09:39:40.200986 16912 net.cpp:106] Creating Layer res4b34_branch2c
I0227 09:39:40.200996 16912 net.cpp:454] res4b34_branch2c <- res4b34_branch2b
I0227 09:39:40.201009 16912 net.cpp:411] res4b34_branch2c -> res4b34_branch2c
I0227 09:39:40.202103 16912 net.cpp:150] Setting up res4b34_branch2c
I0227 09:39:40.202126 16912 net.cpp:157] Top shape: 8 1024 14 14 (1605632)
I0227 09:39:40.202136 16912 net.cpp:165] Memory required for data: 3864757216
I0227 09:39:40.202148 16912 layer_factory.hpp:77] Creating layer bn4b34_branch2c
I0227 09:39:40.202162 16912 net.cpp:106] Creating Layer bn4b34_branch2c
I0227 09:39:40.202172 16912 net.cpp:454] bn4b34_branch2c <- res4b34_branch2c
I0227 09:39:40.202183 16912 net.cpp:397] bn4b34_branch2c -> res4b34_branch2c (in-place)
I0227 09:39:40.202455 16912 net.cpp:150] Setting up bn4b34_branch2c
I0227 09:39:40.202473 16912 net.cpp:157] Top shape: 8 1024 14 14 (1605632)
I0227 09:39:40.202482 16912 net.cpp:165] Memory required for data: 3871179744
I0227 09:39:40.202498 16912 layer_factory.hpp:77] Creating layer scale4b34_branch2c
I0227 09:39:40.202514 16912 net.cpp:106] Creating Layer scale4b34_branch2c
I0227 09:39:40.202525 16912 net.cpp:454] scale4b34_branch2c <- res4b34_branch2c
I0227 09:39:40.202538 16912 net.cpp:397] scale4b34_branch2c -> res4b34_branch2c (in-place)
I0227 09:39:40.202605 16912 layer_factory.hpp:77] Creating layer scale4b34_branch2c
I0227 09:39:40.202785 16912 net.cpp:150] Setting up scale4b34_branch2c
I0227 09:39:40.202802 16912 net.cpp:157] Top shape: 8 1024 14 14 (1605632)
I0227 09:39:40.202811 16912 net.cpp:165] Memory required for data: 3877602272
I0227 09:39:40.202824 16912 layer_factory.hpp:77] Creating layer res4b34
I0227 09:39:40.202837 16912 net.cpp:106] Creating Layer res4b34
I0227 09:39:40.202848 16912 net.cpp:454] res4b34 <- res4b33_res4b33_relu_0_split_1
I0227 09:39:40.202859 16912 net.cpp:454] res4b34 <- res4b34_branch2c
I0227 09:39:40.202874 16912 net.cpp:411] res4b34 -> res4b34
I0227 09:39:40.202914 16912 net.cpp:150] Setting up res4b34
I0227 09:39:40.202934 16912 net.cpp:157] Top shape: 8 1024 14 14 (1605632)
I0227 09:39:40.202944 16912 net.cpp:165] Memory required for data: 3884024800
I0227 09:39:40.202953 16912 layer_factory.hpp:77] Creating layer res4b34_relu
I0227 09:39:40.202965 16912 net.cpp:106] Creating Layer res4b34_relu
I0227 09:39:40.202975 16912 net.cpp:454] res4b34_relu <- res4b34
I0227 09:39:40.202987 16912 net.cpp:397] res4b34_relu -> res4b34 (in-place)
I0227 09:39:40.203001 16912 net.cpp:150] Setting up res4b34_relu
I0227 09:39:40.203011 16912 net.cpp:157] Top shape: 8 1024 14 14 (1605632)
I0227 09:39:40.203021 16912 net.cpp:165] Memory required for data: 3890447328
I0227 09:39:40.203030 16912 layer_factory.hpp:77] Creating layer res4b34_res4b34_relu_0_split
I0227 09:39:40.203042 16912 net.cpp:106] Creating Layer res4b34_res4b34_relu_0_split
I0227 09:39:40.203050 16912 net.cpp:454] res4b34_res4b34_relu_0_split <- res4b34
I0227 09:39:40.203071 16912 net.cpp:411] res4b34_res4b34_relu_0_split -> res4b34_res4b34_relu_0_split_0
I0227 09:39:40.203095 16912 net.cpp:411] res4b34_res4b34_relu_0_split -> res4b34_res4b34_relu_0_split_1
I0227 09:39:40.203151 16912 net.cpp:150] Setting up res4b34_res4b34_relu_0_split
I0227 09:39:40.203167 16912 net.cpp:157] Top shape: 8 1024 14 14 (1605632)
I0227 09:39:40.203178 16912 net.cpp:157] Top shape: 8 1024 14 14 (1605632)
I0227 09:39:40.203187 16912 net.cpp:165] Memory required for data: 3903292384
I0227 09:39:40.203197 16912 layer_factory.hpp:77] Creating layer res4b35_branch2a
I0227 09:39:40.203214 16912 net.cpp:106] Creating Layer res4b35_branch2a
I0227 09:39:40.203224 16912 net.cpp:454] res4b35_branch2a <- res4b34_res4b34_relu_0_split_0
I0227 09:39:40.203238 16912 net.cpp:411] res4b35_branch2a -> res4b35_branch2a
I0227 09:39:40.204339 16912 net.cpp:150] Setting up res4b35_branch2a
I0227 09:39:40.204360 16912 net.cpp:157] Top shape: 8 256 14 14 (401408)
I0227 09:39:40.204370 16912 net.cpp:165] Memory required for data: 3904898016
I0227 09:39:40.204383 16912 layer_factory.hpp:77] Creating layer bn4b35_branch2a
I0227 09:39:40.204399 16912 net.cpp:106] Creating Layer bn4b35_branch2a
I0227 09:39:40.204411 16912 net.cpp:454] bn4b35_branch2a <- res4b35_branch2a
I0227 09:39:40.204421 16912 net.cpp:397] bn4b35_branch2a -> res4b35_branch2a (in-place)
I0227 09:39:40.204681 16912 net.cpp:150] Setting up bn4b35_branch2a
I0227 09:39:40.204699 16912 net.cpp:157] Top shape: 8 256 14 14 (401408)
I0227 09:39:40.204708 16912 net.cpp:165] Memory required for data: 3906503648
I0227 09:39:40.204725 16912 layer_factory.hpp:77] Creating layer scale4b35_branch2a
I0227 09:39:40.204738 16912 net.cpp:106] Creating Layer scale4b35_branch2a
I0227 09:39:40.204748 16912 net.cpp:454] scale4b35_branch2a <- res4b35_branch2a
I0227 09:39:40.204763 16912 net.cpp:397] scale4b35_branch2a -> res4b35_branch2a (in-place)
I0227 09:39:40.204825 16912 layer_factory.hpp:77] Creating layer scale4b35_branch2a
I0227 09:39:40.204984 16912 net.cpp:150] Setting up scale4b35_branch2a
I0227 09:39:40.205005 16912 net.cpp:157] Top shape: 8 256 14 14 (401408)
I0227 09:39:40.205014 16912 net.cpp:165] Memory required for data: 3908109280
I0227 09:39:40.205029 16912 layer_factory.hpp:77] Creating layer res4b35_branch2a_relu
I0227 09:39:40.205040 16912 net.cpp:106] Creating Layer res4b35_branch2a_relu
I0227 09:39:40.205050 16912 net.cpp:454] res4b35_branch2a_relu <- res4b35_branch2a
I0227 09:39:40.205062 16912 net.cpp:397] res4b35_branch2a_relu -> res4b35_branch2a (in-place)
I0227 09:39:40.205075 16912 net.cpp:150] Setting up res4b35_branch2a_relu
I0227 09:39:40.205086 16912 net.cpp:157] Top shape: 8 256 14 14 (401408)
I0227 09:39:40.205096 16912 net.cpp:165] Memory required for data: 3909714912
I0227 09:39:40.205104 16912 layer_factory.hpp:77] Creating layer res4b35_branch2b
I0227 09:39:40.205121 16912 net.cpp:106] Creating Layer res4b35_branch2b
I0227 09:39:40.205132 16912 net.cpp:454] res4b35_branch2b <- res4b35_branch2a
I0227 09:39:40.205144 16912 net.cpp:411] res4b35_branch2b -> res4b35_branch2b
I0227 09:39:40.207078 16912 net.cpp:150] Setting up res4b35_branch2b
I0227 09:39:40.207101 16912 net.cpp:157] Top shape: 8 256 14 14 (401408)
I0227 09:39:40.207111 16912 net.cpp:165] Memory required for data: 3911320544
I0227 09:39:40.207123 16912 layer_factory.hpp:77] Creating layer bn4b35_branch2b
I0227 09:39:40.207136 16912 net.cpp:106] Creating Layer bn4b35_branch2b
I0227 09:39:40.207146 16912 net.cpp:454] bn4b35_branch2b <- res4b35_branch2b
I0227 09:39:40.207159 16912 net.cpp:397] bn4b35_branch2b -> res4b35_branch2b (in-place)
I0227 09:39:40.207414 16912 net.cpp:150] Setting up bn4b35_branch2b
I0227 09:39:40.207432 16912 net.cpp:157] Top shape: 8 256 14 14 (401408)
I0227 09:39:40.207442 16912 net.cpp:165] Memory required for data: 3912926176
I0227 09:39:40.207458 16912 layer_factory.hpp:77] Creating layer scale4b35_branch2b
I0227 09:39:40.207471 16912 net.cpp:106] Creating Layer scale4b35_branch2b
I0227 09:39:40.207481 16912 net.cpp:454] scale4b35_branch2b <- res4b35_branch2b
I0227 09:39:40.207499 16912 net.cpp:397] scale4b35_branch2b -> res4b35_branch2b (in-place)
I0227 09:39:40.207577 16912 layer_factory.hpp:77] Creating layer scale4b35_branch2b
I0227 09:39:40.207731 16912 net.cpp:150] Setting up scale4b35_branch2b
I0227 09:39:40.207749 16912 net.cpp:157] Top shape: 8 256 14 14 (401408)
I0227 09:39:40.207758 16912 net.cpp:165] Memory required for data: 3914531808
I0227 09:39:40.207772 16912 layer_factory.hpp:77] Creating layer res4b35_branch2b_relu
I0227 09:39:40.207787 16912 net.cpp:106] Creating Layer res4b35_branch2b_relu
I0227 09:39:40.207798 16912 net.cpp:454] res4b35_branch2b_relu <- res4b35_branch2b
I0227 09:39:40.207809 16912 net.cpp:397] res4b35_branch2b_relu -> res4b35_branch2b (in-place)
I0227 09:39:40.207823 16912 net.cpp:150] Setting up res4b35_branch2b_relu
I0227 09:39:40.207834 16912 net.cpp:157] Top shape: 8 256 14 14 (401408)
I0227 09:39:40.207842 16912 net.cpp:165] Memory required for data: 3916137440
I0227 09:39:40.207852 16912 layer_factory.hpp:77] Creating layer res4b35_branch2c
I0227 09:39:40.207870 16912 net.cpp:106] Creating Layer res4b35_branch2c
I0227 09:39:40.207880 16912 net.cpp:454] res4b35_branch2c <- res4b35_branch2b
I0227 09:39:40.207891 16912 net.cpp:411] res4b35_branch2c -> res4b35_branch2c
I0227 09:39:40.208981 16912 net.cpp:150] Setting up res4b35_branch2c
I0227 09:39:40.209002 16912 net.cpp:157] Top shape: 8 1024 14 14 (1605632)
I0227 09:39:40.209012 16912 net.cpp:165] Memory required for data: 3922559968
I0227 09:39:40.209024 16912 layer_factory.hpp:77] Creating layer bn4b35_branch2c
I0227 09:39:40.209038 16912 net.cpp:106] Creating Layer bn4b35_branch2c
I0227 09:39:40.209048 16912 net.cpp:454] bn4b35_branch2c <- res4b35_branch2c
I0227 09:39:40.209060 16912 net.cpp:397] bn4b35_branch2c -> res4b35_branch2c (in-place)
I0227 09:39:40.209342 16912 net.cpp:150] Setting up bn4b35_branch2c
I0227 09:39:40.209362 16912 net.cpp:157] Top shape: 8 1024 14 14 (1605632)
I0227 09:39:40.209372 16912 net.cpp:165] Memory required for data: 3928982496
I0227 09:39:40.209386 16912 layer_factory.hpp:77] Creating layer scale4b35_branch2c
I0227 09:39:40.209403 16912 net.cpp:106] Creating Layer scale4b35_branch2c
I0227 09:39:40.209414 16912 net.cpp:454] scale4b35_branch2c <- res4b35_branch2c
I0227 09:39:40.209426 16912 net.cpp:397] scale4b35_branch2c -> res4b35_branch2c (in-place)
I0227 09:39:40.209493 16912 layer_factory.hpp:77] Creating layer scale4b35_branch2c
I0227 09:39:40.209671 16912 net.cpp:150] Setting up scale4b35_branch2c
I0227 09:39:40.209688 16912 net.cpp:157] Top shape: 8 1024 14 14 (1605632)
I0227 09:39:40.209698 16912 net.cpp:165] Memory required for data: 3935405024
I0227 09:39:40.209712 16912 layer_factory.hpp:77] Creating layer res4b35
I0227 09:39:40.209724 16912 net.cpp:106] Creating Layer res4b35
I0227 09:39:40.209734 16912 net.cpp:454] res4b35 <- res4b34_res4b34_relu_0_split_1
I0227 09:39:40.209745 16912 net.cpp:454] res4b35 <- res4b35_branch2c
I0227 09:39:40.209760 16912 net.cpp:411] res4b35 -> res4b35
I0227 09:39:40.209801 16912 net.cpp:150] Setting up res4b35
I0227 09:39:40.209821 16912 net.cpp:157] Top shape: 8 1024 14 14 (1605632)
I0227 09:39:40.209831 16912 net.cpp:165] Memory required for data: 3941827552
I0227 09:39:40.209841 16912 layer_factory.hpp:77] Creating layer res4b35_relu
I0227 09:39:40.209852 16912 net.cpp:106] Creating Layer res4b35_relu
I0227 09:39:40.209862 16912 net.cpp:454] res4b35_relu <- res4b35
I0227 09:39:40.209873 16912 net.cpp:397] res4b35_relu -> res4b35 (in-place)
I0227 09:39:40.209887 16912 net.cpp:150] Setting up res4b35_relu
I0227 09:39:40.209898 16912 net.cpp:157] Top shape: 8 1024 14 14 (1605632)
I0227 09:39:40.209908 16912 net.cpp:165] Memory required for data: 3948250080
I0227 09:39:40.209916 16912 layer_factory.hpp:77] Creating layer res4b35_res4b35_relu_0_split
I0227 09:39:40.209928 16912 net.cpp:106] Creating Layer res4b35_res4b35_relu_0_split
I0227 09:39:40.209938 16912 net.cpp:454] res4b35_res4b35_relu_0_split <- res4b35
I0227 09:39:40.209951 16912 net.cpp:411] res4b35_res4b35_relu_0_split -> res4b35_res4b35_relu_0_split_0
I0227 09:39:40.209972 16912 net.cpp:411] res4b35_res4b35_relu_0_split -> res4b35_res4b35_relu_0_split_1
I0227 09:39:40.210038 16912 net.cpp:150] Setting up res4b35_res4b35_relu_0_split
I0227 09:39:40.210055 16912 net.cpp:157] Top shape: 8 1024 14 14 (1605632)
I0227 09:39:40.210067 16912 net.cpp:157] Top shape: 8 1024 14 14 (1605632)
I0227 09:39:40.210074 16912 net.cpp:165] Memory required for data: 3961095136
I0227 09:39:40.210084 16912 layer_factory.hpp:77] Creating layer res5a_branch1
I0227 09:39:40.210103 16912 net.cpp:106] Creating Layer res5a_branch1
I0227 09:39:40.210114 16912 net.cpp:454] res5a_branch1 <- res4b35_res4b35_relu_0_split_0
I0227 09:39:40.210127 16912 net.cpp:411] res5a_branch1 -> res5a_branch1
I0227 09:39:40.215977 16912 net.cpp:150] Setting up res5a_branch1
I0227 09:39:40.216004 16912 net.cpp:157] Top shape: 8 2048 7 7 (802816)
I0227 09:39:40.216014 16912 net.cpp:165] Memory required for data: 3964306400
I0227 09:39:40.216027 16912 layer_factory.hpp:77] Creating layer bn5a_branch1
I0227 09:39:40.216044 16912 net.cpp:106] Creating Layer bn5a_branch1
I0227 09:39:40.216056 16912 net.cpp:454] bn5a_branch1 <- res5a_branch1
I0227 09:39:40.216068 16912 net.cpp:397] bn5a_branch1 -> res5a_branch1 (in-place)
I0227 09:39:40.216364 16912 net.cpp:150] Setting up bn5a_branch1
I0227 09:39:40.216382 16912 net.cpp:157] Top shape: 8 2048 7 7 (802816)
I0227 09:39:40.216392 16912 net.cpp:165] Memory required for data: 3967517664
I0227 09:39:40.216408 16912 layer_factory.hpp:77] Creating layer scale5a_branch1
I0227 09:39:40.216421 16912 net.cpp:106] Creating Layer scale5a_branch1
I0227 09:39:40.216431 16912 net.cpp:454] scale5a_branch1 <- res5a_branch1
I0227 09:39:40.216446 16912 net.cpp:397] scale5a_branch1 -> res5a_branch1 (in-place)
I0227 09:39:40.216514 16912 layer_factory.hpp:77] Creating layer scale5a_branch1
I0227 09:39:40.216698 16912 net.cpp:150] Setting up scale5a_branch1
I0227 09:39:40.216717 16912 net.cpp:157] Top shape: 8 2048 7 7 (802816)
I0227 09:39:40.216727 16912 net.cpp:165] Memory required for data: 3970728928
I0227 09:39:40.216739 16912 layer_factory.hpp:77] Creating layer res5a_branch2a
I0227 09:39:40.216754 16912 net.cpp:106] Creating Layer res5a_branch2a
I0227 09:39:40.216765 16912 net.cpp:454] res5a_branch2a <- res4b35_res4b35_relu_0_split_1
I0227 09:39:40.216781 16912 net.cpp:411] res5a_branch2a -> res5a_branch2a
I0227 09:39:40.218549 16912 net.cpp:150] Setting up res5a_branch2a
I0227 09:39:40.218571 16912 net.cpp:157] Top shape: 8 512 7 7 (200704)
I0227 09:39:40.218581 16912 net.cpp:165] Memory required for data: 3971531744
I0227 09:39:40.218593 16912 layer_factory.hpp:77] Creating layer bn5a_branch2a
I0227 09:39:40.218606 16912 net.cpp:106] Creating Layer bn5a_branch2a
I0227 09:39:40.218617 16912 net.cpp:454] bn5a_branch2a <- res5a_branch2a
I0227 09:39:40.218629 16912 net.cpp:397] bn5a_branch2a -> res5a_branch2a (in-place)
I0227 09:39:40.218899 16912 net.cpp:150] Setting up bn5a_branch2a
I0227 09:39:40.218916 16912 net.cpp:157] Top shape: 8 512 7 7 (200704)
I0227 09:39:40.218926 16912 net.cpp:165] Memory required for data: 3972334560
I0227 09:39:40.218945 16912 layer_factory.hpp:77] Creating layer scale5a_branch2a
I0227 09:39:40.218960 16912 net.cpp:106] Creating Layer scale5a_branch2a
I0227 09:39:40.218971 16912 net.cpp:454] scale5a_branch2a <- res5a_branch2a
I0227 09:39:40.218981 16912 net.cpp:397] scale5a_branch2a -> res5a_branch2a (in-place)
I0227 09:39:40.219051 16912 layer_factory.hpp:77] Creating layer scale5a_branch2a
I0227 09:39:40.219233 16912 net.cpp:150] Setting up scale5a_branch2a
I0227 09:39:40.219250 16912 net.cpp:157] Top shape: 8 512 7 7 (200704)
I0227 09:39:40.219259 16912 net.cpp:165] Memory required for data: 3973137376
I0227 09:39:40.219274 16912 layer_factory.hpp:77] Creating layer res5a_branch2a_relu
I0227 09:39:40.219290 16912 net.cpp:106] Creating Layer res5a_branch2a_relu
I0227 09:39:40.219300 16912 net.cpp:454] res5a_branch2a_relu <- res5a_branch2a
I0227 09:39:40.219311 16912 net.cpp:397] res5a_branch2a_relu -> res5a_branch2a (in-place)
I0227 09:39:40.219331 16912 net.cpp:150] Setting up res5a_branch2a_relu
I0227 09:39:40.219354 16912 net.cpp:157] Top shape: 8 512 7 7 (200704)
I0227 09:39:40.219364 16912 net.cpp:165] Memory required for data: 3973940192
I0227 09:39:40.219373 16912 layer_factory.hpp:77] Creating layer res5a_branch2b
I0227 09:39:40.219390 16912 net.cpp:106] Creating Layer res5a_branch2b
I0227 09:39:40.219401 16912 net.cpp:454] res5a_branch2b <- res5a_branch2a
I0227 09:39:40.219413 16912 net.cpp:411] res5a_branch2b -> res5a_branch2b
I0227 09:39:40.226001 16912 net.cpp:150] Setting up res5a_branch2b
I0227 09:39:40.226034 16912 net.cpp:157] Top shape: 8 512 7 7 (200704)
I0227 09:39:40.226044 16912 net.cpp:165] Memory required for data: 3974743008
I0227 09:39:40.226058 16912 layer_factory.hpp:77] Creating layer bn5a_branch2b
I0227 09:39:40.226078 16912 net.cpp:106] Creating Layer bn5a_branch2b
I0227 09:39:40.226090 16912 net.cpp:454] bn5a_branch2b <- res5a_branch2b
I0227 09:39:40.226104 16912 net.cpp:397] bn5a_branch2b -> res5a_branch2b (in-place)
I0227 09:39:40.226379 16912 net.cpp:150] Setting up bn5a_branch2b
I0227 09:39:40.226397 16912 net.cpp:157] Top shape: 8 512 7 7 (200704)
I0227 09:39:40.226407 16912 net.cpp:165] Memory required for data: 3975545824
I0227 09:39:40.226423 16912 layer_factory.hpp:77] Creating layer scale5a_branch2b
I0227 09:39:40.226436 16912 net.cpp:106] Creating Layer scale5a_branch2b
I0227 09:39:40.226446 16912 net.cpp:454] scale5a_branch2b <- res5a_branch2b
I0227 09:39:40.226466 16912 net.cpp:397] scale5a_branch2b -> res5a_branch2b (in-place)
I0227 09:39:40.226536 16912 layer_factory.hpp:77] Creating layer scale5a_branch2b
I0227 09:39:40.226713 16912 net.cpp:150] Setting up scale5a_branch2b
I0227 09:39:40.226732 16912 net.cpp:157] Top shape: 8 512 7 7 (200704)
I0227 09:39:40.226742 16912 net.cpp:165] Memory required for data: 3976348640
I0227 09:39:40.226755 16912 layer_factory.hpp:77] Creating layer res5a_branch2b_relu
I0227 09:39:40.226768 16912 net.cpp:106] Creating Layer res5a_branch2b_relu
I0227 09:39:40.226778 16912 net.cpp:454] res5a_branch2b_relu <- res5a_branch2b
I0227 09:39:40.226789 16912 net.cpp:397] res5a_branch2b_relu -> res5a_branch2b (in-place)
I0227 09:39:40.226802 16912 net.cpp:150] Setting up res5a_branch2b_relu
I0227 09:39:40.226814 16912 net.cpp:157] Top shape: 8 512 7 7 (200704)
I0227 09:39:40.226824 16912 net.cpp:165] Memory required for data: 3977151456
I0227 09:39:40.226832 16912 layer_factory.hpp:77] Creating layer res5a_branch2c
I0227 09:39:40.226850 16912 net.cpp:106] Creating Layer res5a_branch2c
I0227 09:39:40.226861 16912 net.cpp:454] res5a_branch2c <- res5a_branch2b
I0227 09:39:40.226876 16912 net.cpp:411] res5a_branch2c -> res5a_branch2c
I0227 09:39:40.229982 16912 net.cpp:150] Setting up res5a_branch2c
I0227 09:39:40.230007 16912 net.cpp:157] Top shape: 8 2048 7 7 (802816)
I0227 09:39:40.230017 16912 net.cpp:165] Memory required for data: 3980362720
I0227 09:39:40.230029 16912 layer_factory.hpp:77] Creating layer bn5a_branch2c
I0227 09:39:40.230042 16912 net.cpp:106] Creating Layer bn5a_branch2c
I0227 09:39:40.230053 16912 net.cpp:454] bn5a_branch2c <- res5a_branch2c
I0227 09:39:40.230068 16912 net.cpp:397] bn5a_branch2c -> res5a_branch2c (in-place)
I0227 09:39:40.231009 16912 net.cpp:150] Setting up bn5a_branch2c
I0227 09:39:40.231030 16912 net.cpp:157] Top shape: 8 2048 7 7 (802816)
I0227 09:39:40.231040 16912 net.cpp:165] Memory required for data: 3983573984
I0227 09:39:40.231056 16912 layer_factory.hpp:77] Creating layer scale5a_branch2c
I0227 09:39:40.231070 16912 net.cpp:106] Creating Layer scale5a_branch2c
I0227 09:39:40.231081 16912 net.cpp:454] scale5a_branch2c <- res5a_branch2c
I0227 09:39:40.231093 16912 net.cpp:397] scale5a_branch2c -> res5a_branch2c (in-place)
I0227 09:39:40.231165 16912 layer_factory.hpp:77] Creating layer scale5a_branch2c
I0227 09:39:40.231333 16912 net.cpp:150] Setting up scale5a_branch2c
I0227 09:39:40.231350 16912 net.cpp:157] Top shape: 8 2048 7 7 (802816)
I0227 09:39:40.231360 16912 net.cpp:165] Memory required for data: 3986785248
I0227 09:39:40.231374 16912 layer_factory.hpp:77] Creating layer res5a
I0227 09:39:40.231408 16912 net.cpp:106] Creating Layer res5a
I0227 09:39:40.231420 16912 net.cpp:454] res5a <- res5a_branch1
I0227 09:39:40.231431 16912 net.cpp:454] res5a <- res5a_branch2c
I0227 09:39:40.231443 16912 net.cpp:411] res5a -> res5a
I0227 09:39:40.231487 16912 net.cpp:150] Setting up res5a
I0227 09:39:40.231503 16912 net.cpp:157] Top shape: 8 2048 7 7 (802816)
I0227 09:39:40.231513 16912 net.cpp:165] Memory required for data: 3989996512
I0227 09:39:40.231523 16912 layer_factory.hpp:77] Creating layer res5a_relu
I0227 09:39:40.231534 16912 net.cpp:106] Creating Layer res5a_relu
I0227 09:39:40.231544 16912 net.cpp:454] res5a_relu <- res5a
I0227 09:39:40.231559 16912 net.cpp:397] res5a_relu -> res5a (in-place)
I0227 09:39:40.231571 16912 net.cpp:150] Setting up res5a_relu
I0227 09:39:40.231583 16912 net.cpp:157] Top shape: 8 2048 7 7 (802816)
I0227 09:39:40.231592 16912 net.cpp:165] Memory required for data: 3993207776
I0227 09:39:40.231601 16912 layer_factory.hpp:77] Creating layer res5a_res5a_relu_0_split
I0227 09:39:40.231613 16912 net.cpp:106] Creating Layer res5a_res5a_relu_0_split
I0227 09:39:40.231622 16912 net.cpp:454] res5a_res5a_relu_0_split <- res5a
I0227 09:39:40.231634 16912 net.cpp:411] res5a_res5a_relu_0_split -> res5a_res5a_relu_0_split_0
I0227 09:39:40.231647 16912 net.cpp:411] res5a_res5a_relu_0_split -> res5a_res5a_relu_0_split_1
I0227 09:39:40.231700 16912 net.cpp:150] Setting up res5a_res5a_relu_0_split
I0227 09:39:40.231716 16912 net.cpp:157] Top shape: 8 2048 7 7 (802816)
I0227 09:39:40.231727 16912 net.cpp:157] Top shape: 8 2048 7 7 (802816)
I0227 09:39:40.231735 16912 net.cpp:165] Memory required for data: 3999630304
I0227 09:39:40.231745 16912 layer_factory.hpp:77] Creating layer res5b_branch2a
I0227 09:39:40.231762 16912 net.cpp:106] Creating Layer res5b_branch2a
I0227 09:39:40.231773 16912 net.cpp:454] res5b_branch2a <- res5a_res5a_relu_0_split_0
I0227 09:39:40.231786 16912 net.cpp:411] res5b_branch2a -> res5b_branch2a
I0227 09:39:40.234902 16912 net.cpp:150] Setting up res5b_branch2a
I0227 09:39:40.234926 16912 net.cpp:157] Top shape: 8 512 7 7 (200704)
I0227 09:39:40.234936 16912 net.cpp:165] Memory required for data: 4000433120
I0227 09:39:40.234949 16912 layer_factory.hpp:77] Creating layer bn5b_branch2a
I0227 09:39:40.234962 16912 net.cpp:106] Creating Layer bn5b_branch2a
I0227 09:39:40.234973 16912 net.cpp:454] bn5b_branch2a <- res5b_branch2a
I0227 09:39:40.234992 16912 net.cpp:397] bn5b_branch2a -> res5b_branch2a (in-place)
I0227 09:39:40.235247 16912 net.cpp:150] Setting up bn5b_branch2a
I0227 09:39:40.235266 16912 net.cpp:157] Top shape: 8 512 7 7 (200704)
I0227 09:39:40.235275 16912 net.cpp:165] Memory required for data: 4001235936
I0227 09:39:40.235291 16912 layer_factory.hpp:77] Creating layer scale5b_branch2a
I0227 09:39:40.235304 16912 net.cpp:106] Creating Layer scale5b_branch2a
I0227 09:39:40.235316 16912 net.cpp:454] scale5b_branch2a <- res5b_branch2a
I0227 09:39:40.235327 16912 net.cpp:397] scale5b_branch2a -> res5b_branch2a (in-place)
I0227 09:39:40.235395 16912 layer_factory.hpp:77] Creating layer scale5b_branch2a
I0227 09:39:40.235558 16912 net.cpp:150] Setting up scale5b_branch2a
I0227 09:39:40.235576 16912 net.cpp:157] Top shape: 8 512 7 7 (200704)
I0227 09:39:40.235586 16912 net.cpp:165] Memory required for data: 4002038752
I0227 09:39:40.235599 16912 layer_factory.hpp:77] Creating layer res5b_branch2a_relu
I0227 09:39:40.235612 16912 net.cpp:106] Creating Layer res5b_branch2a_relu
I0227 09:39:40.235622 16912 net.cpp:454] res5b_branch2a_relu <- res5b_branch2a
I0227 09:39:40.235636 16912 net.cpp:397] res5b_branch2a_relu -> res5b_branch2a (in-place)
I0227 09:39:40.235651 16912 net.cpp:150] Setting up res5b_branch2a_relu
I0227 09:39:40.235661 16912 net.cpp:157] Top shape: 8 512 7 7 (200704)
I0227 09:39:40.235671 16912 net.cpp:165] Memory required for data: 4002841568
I0227 09:39:40.235680 16912 layer_factory.hpp:77] Creating layer res5b_branch2b
I0227 09:39:40.235694 16912 net.cpp:106] Creating Layer res5b_branch2b
I0227 09:39:40.235710 16912 net.cpp:454] res5b_branch2b <- res5b_branch2a
I0227 09:39:40.235736 16912 net.cpp:411] res5b_branch2b -> res5b_branch2b
I0227 09:39:40.242269 16912 net.cpp:150] Setting up res5b_branch2b
I0227 09:39:40.242295 16912 net.cpp:157] Top shape: 8 512 7 7 (200704)
I0227 09:39:40.242305 16912 net.cpp:165] Memory required for data: 4003644384
I0227 09:39:40.242318 16912 layer_factory.hpp:77] Creating layer bn5b_branch2b
I0227 09:39:40.242331 16912 net.cpp:106] Creating Layer bn5b_branch2b
I0227 09:39:40.242343 16912 net.cpp:454] bn5b_branch2b <- res5b_branch2b
I0227 09:39:40.242355 16912 net.cpp:397] bn5b_branch2b -> res5b_branch2b (in-place)
I0227 09:39:40.242609 16912 net.cpp:150] Setting up bn5b_branch2b
I0227 09:39:40.242626 16912 net.cpp:157] Top shape: 8 512 7 7 (200704)
I0227 09:39:40.242636 16912 net.cpp:165] Memory required for data: 4004447200
I0227 09:39:40.242651 16912 layer_factory.hpp:77] Creating layer scale5b_branch2b
I0227 09:39:40.242668 16912 net.cpp:106] Creating Layer scale5b_branch2b
I0227 09:39:40.242679 16912 net.cpp:454] scale5b_branch2b <- res5b_branch2b
I0227 09:39:40.242691 16912 net.cpp:397] scale5b_branch2b -> res5b_branch2b (in-place)
I0227 09:39:40.242760 16912 layer_factory.hpp:77] Creating layer scale5b_branch2b
I0227 09:39:40.242923 16912 net.cpp:150] Setting up scale5b_branch2b
I0227 09:39:40.242940 16912 net.cpp:157] Top shape: 8 512 7 7 (200704)
I0227 09:39:40.242950 16912 net.cpp:165] Memory required for data: 4005250016
I0227 09:39:40.242964 16912 layer_factory.hpp:77] Creating layer res5b_branch2b_relu
I0227 09:39:40.242976 16912 net.cpp:106] Creating Layer res5b_branch2b_relu
I0227 09:39:40.242987 16912 net.cpp:454] res5b_branch2b_relu <- res5b_branch2b
I0227 09:39:40.243001 16912 net.cpp:397] res5b_branch2b_relu -> res5b_branch2b (in-place)
I0227 09:39:40.243016 16912 net.cpp:150] Setting up res5b_branch2b_relu
I0227 09:39:40.243026 16912 net.cpp:157] Top shape: 8 512 7 7 (200704)
I0227 09:39:40.243036 16912 net.cpp:165] Memory required for data: 4006052832
I0227 09:39:40.243046 16912 layer_factory.hpp:77] Creating layer res5b_branch2c
I0227 09:39:40.243062 16912 net.cpp:106] Creating Layer res5b_branch2c
I0227 09:39:40.243072 16912 net.cpp:454] res5b_branch2c <- res5b_branch2b
I0227 09:39:40.243085 16912 net.cpp:411] res5b_branch2c -> res5b_branch2c
I0227 09:39:40.246170 16912 net.cpp:150] Setting up res5b_branch2c
I0227 09:39:40.246196 16912 net.cpp:157] Top shape: 8 2048 7 7 (802816)
I0227 09:39:40.246206 16912 net.cpp:165] Memory required for data: 4009264096
I0227 09:39:40.246217 16912 layer_factory.hpp:77] Creating layer bn5b_branch2c
I0227 09:39:40.246234 16912 net.cpp:106] Creating Layer bn5b_branch2c
I0227 09:39:40.246245 16912 net.cpp:454] bn5b_branch2c <- res5b_branch2c
I0227 09:39:40.246258 16912 net.cpp:397] bn5b_branch2c -> res5b_branch2c (in-place)
I0227 09:39:40.246507 16912 net.cpp:150] Setting up bn5b_branch2c
I0227 09:39:40.246526 16912 net.cpp:157] Top shape: 8 2048 7 7 (802816)
I0227 09:39:40.246536 16912 net.cpp:165] Memory required for data: 4012475360
I0227 09:39:40.246551 16912 layer_factory.hpp:77] Creating layer scale5b_branch2c
I0227 09:39:40.246565 16912 net.cpp:106] Creating Layer scale5b_branch2c
I0227 09:39:40.246575 16912 net.cpp:454] scale5b_branch2c <- res5b_branch2c
I0227 09:39:40.246590 16912 net.cpp:397] scale5b_branch2c -> res5b_branch2c (in-place)
I0227 09:39:40.246659 16912 layer_factory.hpp:77] Creating layer scale5b_branch2c
I0227 09:39:40.246824 16912 net.cpp:150] Setting up scale5b_branch2c
I0227 09:39:40.246845 16912 net.cpp:157] Top shape: 8 2048 7 7 (802816)
I0227 09:39:40.246855 16912 net.cpp:165] Memory required for data: 4015686624
I0227 09:39:40.246867 16912 layer_factory.hpp:77] Creating layer res5b
I0227 09:39:40.246881 16912 net.cpp:106] Creating Layer res5b
I0227 09:39:40.246891 16912 net.cpp:454] res5b <- res5a_res5a_relu_0_split_1
I0227 09:39:40.246902 16912 net.cpp:454] res5b <- res5b_branch2c
I0227 09:39:40.246914 16912 net.cpp:411] res5b -> res5b
I0227 09:39:40.246955 16912 net.cpp:150] Setting up res5b
I0227 09:39:40.246979 16912 net.cpp:157] Top shape: 8 2048 7 7 (802816)
I0227 09:39:40.247000 16912 net.cpp:165] Memory required for data: 4018897888
I0227 09:39:40.247010 16912 layer_factory.hpp:77] Creating layer res5b_relu
I0227 09:39:40.247023 16912 net.cpp:106] Creating Layer res5b_relu
I0227 09:39:40.247040 16912 net.cpp:454] res5b_relu <- res5b
I0227 09:39:40.247051 16912 net.cpp:397] res5b_relu -> res5b (in-place)
I0227 09:39:40.247064 16912 net.cpp:150] Setting up res5b_relu
I0227 09:39:40.247076 16912 net.cpp:157] Top shape: 8 2048 7 7 (802816)
I0227 09:39:40.247087 16912 net.cpp:165] Memory required for data: 4022109152
I0227 09:39:40.247095 16912 layer_factory.hpp:77] Creating layer res5b_res5b_relu_0_split
I0227 09:39:40.247107 16912 net.cpp:106] Creating Layer res5b_res5b_relu_0_split
I0227 09:39:40.247117 16912 net.cpp:454] res5b_res5b_relu_0_split <- res5b
I0227 09:39:40.247128 16912 net.cpp:411] res5b_res5b_relu_0_split -> res5b_res5b_relu_0_split_0
I0227 09:39:40.247141 16912 net.cpp:411] res5b_res5b_relu_0_split -> res5b_res5b_relu_0_split_1
I0227 09:39:40.247195 16912 net.cpp:150] Setting up res5b_res5b_relu_0_split
I0227 09:39:40.247210 16912 net.cpp:157] Top shape: 8 2048 7 7 (802816)
I0227 09:39:40.247221 16912 net.cpp:157] Top shape: 8 2048 7 7 (802816)
I0227 09:39:40.247229 16912 net.cpp:165] Memory required for data: 4028531680
I0227 09:39:40.247239 16912 layer_factory.hpp:77] Creating layer res5c_branch2a
I0227 09:39:40.247256 16912 net.cpp:106] Creating Layer res5c_branch2a
I0227 09:39:40.247267 16912 net.cpp:454] res5c_branch2a <- res5b_res5b_relu_0_split_0
I0227 09:39:40.247279 16912 net.cpp:411] res5c_branch2a -> res5c_branch2a
I0227 09:39:40.250349 16912 net.cpp:150] Setting up res5c_branch2a
I0227 09:39:40.250372 16912 net.cpp:157] Top shape: 8 512 7 7 (200704)
I0227 09:39:40.250382 16912 net.cpp:165] Memory required for data: 4029334496
I0227 09:39:40.250394 16912 layer_factory.hpp:77] Creating layer bn5c_branch2a
I0227 09:39:40.250407 16912 net.cpp:106] Creating Layer bn5c_branch2a
I0227 09:39:40.250418 16912 net.cpp:454] bn5c_branch2a <- res5c_branch2a
I0227 09:39:40.250433 16912 net.cpp:397] bn5c_branch2a -> res5c_branch2a (in-place)
I0227 09:39:40.250684 16912 net.cpp:150] Setting up bn5c_branch2a
I0227 09:39:40.250701 16912 net.cpp:157] Top shape: 8 512 7 7 (200704)
I0227 09:39:40.250711 16912 net.cpp:165] Memory required for data: 4030137312
I0227 09:39:40.250726 16912 layer_factory.hpp:77] Creating layer scale5c_branch2a
I0227 09:39:40.250741 16912 net.cpp:106] Creating Layer scale5c_branch2a
I0227 09:39:40.250751 16912 net.cpp:454] scale5c_branch2a <- res5c_branch2a
I0227 09:39:40.250762 16912 net.cpp:397] scale5c_branch2a -> res5c_branch2a (in-place)
I0227 09:39:40.250830 16912 layer_factory.hpp:77] Creating layer scale5c_branch2a
I0227 09:39:40.250996 16912 net.cpp:150] Setting up scale5c_branch2a
I0227 09:39:40.251014 16912 net.cpp:157] Top shape: 8 512 7 7 (200704)
I0227 09:39:40.251024 16912 net.cpp:165] Memory required for data: 4030940128
I0227 09:39:40.251039 16912 layer_factory.hpp:77] Creating layer res5c_branch2a_relu
I0227 09:39:40.251051 16912 net.cpp:106] Creating Layer res5c_branch2a_relu
I0227 09:39:40.251061 16912 net.cpp:454] res5c_branch2a_relu <- res5c_branch2a
I0227 09:39:40.251075 16912 net.cpp:397] res5c_branch2a_relu -> res5c_branch2a (in-place)
I0227 09:39:40.251090 16912 net.cpp:150] Setting up res5c_branch2a_relu
I0227 09:39:40.251101 16912 net.cpp:157] Top shape: 8 512 7 7 (200704)
I0227 09:39:40.251111 16912 net.cpp:165] Memory required for data: 4031742944
I0227 09:39:40.251119 16912 layer_factory.hpp:77] Creating layer res5c_branch2b
I0227 09:39:40.251133 16912 net.cpp:106] Creating Layer res5c_branch2b
I0227 09:39:40.251143 16912 net.cpp:454] res5c_branch2b <- res5c_branch2a
I0227 09:39:40.251158 16912 net.cpp:411] res5c_branch2b -> res5c_branch2b
I0227 09:39:40.257704 16912 net.cpp:150] Setting up res5c_branch2b
I0227 09:39:40.257733 16912 net.cpp:157] Top shape: 8 512 7 7 (200704)
I0227 09:39:40.257743 16912 net.cpp:165] Memory required for data: 4032545760
I0227 09:39:40.257764 16912 layer_factory.hpp:77] Creating layer bn5c_branch2b
I0227 09:39:40.257789 16912 net.cpp:106] Creating Layer bn5c_branch2b
I0227 09:39:40.257802 16912 net.cpp:454] bn5c_branch2b <- res5c_branch2b
I0227 09:39:40.257814 16912 net.cpp:397] bn5c_branch2b -> res5c_branch2b (in-place)
I0227 09:39:40.258072 16912 net.cpp:150] Setting up bn5c_branch2b
I0227 09:39:40.258090 16912 net.cpp:157] Top shape: 8 512 7 7 (200704)
I0227 09:39:40.258100 16912 net.cpp:165] Memory required for data: 4033348576
I0227 09:39:40.258116 16912 layer_factory.hpp:77] Creating layer scale5c_branch2b
I0227 09:39:40.258133 16912 net.cpp:106] Creating Layer scale5c_branch2b
I0227 09:39:40.258144 16912 net.cpp:454] scale5c_branch2b <- res5c_branch2b
I0227 09:39:40.258157 16912 net.cpp:397] scale5c_branch2b -> res5c_branch2b (in-place)
I0227 09:39:40.258225 16912 layer_factory.hpp:77] Creating layer scale5c_branch2b
I0227 09:39:40.258391 16912 net.cpp:150] Setting up scale5c_branch2b
I0227 09:39:40.258410 16912 net.cpp:157] Top shape: 8 512 7 7 (200704)
I0227 09:39:40.258419 16912 net.cpp:165] Memory required for data: 4034151392
I0227 09:39:40.258433 16912 layer_factory.hpp:77] Creating layer res5c_branch2b_relu
I0227 09:39:40.258445 16912 net.cpp:106] Creating Layer res5c_branch2b_relu
I0227 09:39:40.258456 16912 net.cpp:454] res5c_branch2b_relu <- res5c_branch2b
I0227 09:39:40.258471 16912 net.cpp:397] res5c_branch2b_relu -> res5c_branch2b (in-place)
I0227 09:39:40.258483 16912 net.cpp:150] Setting up res5c_branch2b_relu
I0227 09:39:40.258496 16912 net.cpp:157] Top shape: 8 512 7 7 (200704)
I0227 09:39:40.258504 16912 net.cpp:165] Memory required for data: 4034954208
I0227 09:39:40.258514 16912 layer_factory.hpp:77] Creating layer res5c_branch2c
I0227 09:39:40.258530 16912 net.cpp:106] Creating Layer res5c_branch2c
I0227 09:39:40.258541 16912 net.cpp:454] res5c_branch2c <- res5c_branch2b
I0227 09:39:40.258553 16912 net.cpp:411] res5c_branch2c -> res5c_branch2c
I0227 09:39:40.261659 16912 net.cpp:150] Setting up res5c_branch2c
I0227 09:39:40.261683 16912 net.cpp:157] Top shape: 8 2048 7 7 (802816)
I0227 09:39:40.261693 16912 net.cpp:165] Memory required for data: 4038165472
I0227 09:39:40.261706 16912 layer_factory.hpp:77] Creating layer bn5c_branch2c
I0227 09:39:40.261723 16912 net.cpp:106] Creating Layer bn5c_branch2c
I0227 09:39:40.261734 16912 net.cpp:454] bn5c_branch2c <- res5c_branch2c
I0227 09:39:40.261746 16912 net.cpp:397] bn5c_branch2c -> res5c_branch2c (in-place)
I0227 09:39:40.262003 16912 net.cpp:150] Setting up bn5c_branch2c
I0227 09:39:40.262022 16912 net.cpp:157] Top shape: 8 2048 7 7 (802816)
I0227 09:39:40.262030 16912 net.cpp:165] Memory required for data: 4041376736
I0227 09:39:40.262046 16912 layer_factory.hpp:77] Creating layer scale5c_branch2c
I0227 09:39:40.262060 16912 net.cpp:106] Creating Layer scale5c_branch2c
I0227 09:39:40.262070 16912 net.cpp:454] scale5c_branch2c <- res5c_branch2c
I0227 09:39:40.262089 16912 net.cpp:397] scale5c_branch2c -> res5c_branch2c (in-place)
I0227 09:39:40.262158 16912 layer_factory.hpp:77] Creating layer scale5c_branch2c
I0227 09:39:40.262326 16912 net.cpp:150] Setting up scale5c_branch2c
I0227 09:39:40.262346 16912 net.cpp:157] Top shape: 8 2048 7 7 (802816)
I0227 09:39:40.262356 16912 net.cpp:165] Memory required for data: 4044588000
I0227 09:39:40.262370 16912 layer_factory.hpp:77] Creating layer res5c
I0227 09:39:40.262383 16912 net.cpp:106] Creating Layer res5c
I0227 09:39:40.262394 16912 net.cpp:454] res5c <- res5b_res5b_relu_0_split_1
I0227 09:39:40.262404 16912 net.cpp:454] res5c <- res5c_branch2c
I0227 09:39:40.262416 16912 net.cpp:411] res5c -> res5c
I0227 09:39:40.262457 16912 net.cpp:150] Setting up res5c
I0227 09:39:40.262472 16912 net.cpp:157] Top shape: 8 2048 7 7 (802816)
I0227 09:39:40.262482 16912 net.cpp:165] Memory required for data: 4047799264
I0227 09:39:40.262491 16912 layer_factory.hpp:77] Creating layer res5c_relu
I0227 09:39:40.262503 16912 net.cpp:106] Creating Layer res5c_relu
I0227 09:39:40.262513 16912 net.cpp:454] res5c_relu <- res5c
I0227 09:39:40.262534 16912 net.cpp:397] res5c_relu -> res5c (in-place)
I0227 09:39:40.262562 16912 net.cpp:150] Setting up res5c_relu
I0227 09:39:40.262575 16912 net.cpp:157] Top shape: 8 2048 7 7 (802816)
I0227 09:39:40.262584 16912 net.cpp:165] Memory required for data: 4051010528
I0227 09:39:40.262594 16912 layer_factory.hpp:77] Creating layer pool5
I0227 09:39:40.262609 16912 net.cpp:106] Creating Layer pool5
I0227 09:39:40.262619 16912 net.cpp:454] pool5 <- res5c
I0227 09:39:40.262631 16912 net.cpp:411] pool5 -> pool5
I0227 09:39:40.262675 16912 net.cpp:150] Setting up pool5
I0227 09:39:40.262691 16912 net.cpp:157] Top shape: 8 2048 1 1 (16384)
I0227 09:39:40.262701 16912 net.cpp:165] Memory required for data: 4051076064
I0227 09:39:40.262709 16912 layer_factory.hpp:77] Creating layer pool5_pool5_0_split
I0227 09:39:40.262722 16912 net.cpp:106] Creating Layer pool5_pool5_0_split
I0227 09:39:40.262732 16912 net.cpp:454] pool5_pool5_0_split <- pool5
I0227 09:39:40.262743 16912 net.cpp:411] pool5_pool5_0_split -> pool5_pool5_0_split_0
I0227 09:39:40.262758 16912 net.cpp:411] pool5_pool5_0_split -> pool5_pool5_0_split_1
I0227 09:39:40.262809 16912 net.cpp:150] Setting up pool5_pool5_0_split
I0227 09:39:40.262825 16912 net.cpp:157] Top shape: 8 2048 1 1 (16384)
I0227 09:39:40.262835 16912 net.cpp:157] Top shape: 8 2048 1 1 (16384)
I0227 09:39:40.262845 16912 net.cpp:165] Memory required for data: 4051207136
I0227 09:39:40.262853 16912 layer_factory.hpp:77] Creating layer id750
I0227 09:39:40.262869 16912 net.cpp:106] Creating Layer id750
I0227 09:39:40.262879 16912 net.cpp:454] id750 <- pool5_pool5_0_split_0
I0227 09:39:40.262895 16912 net.cpp:411] id750 -> id750
I0227 09:39:40.323114 16912 net.cpp:150] Setting up id750
I0227 09:39:40.323142 16912 net.cpp:157] Top shape: 8 750 (6000)
I0227 09:39:40.323153 16912 net.cpp:165] Memory required for data: 4051231136
I0227 09:39:40.323166 16912 layer_factory.hpp:77] Creating layer pos30
I0227 09:39:40.323181 16912 net.cpp:106] Creating Layer pos30
I0227 09:39:40.323192 16912 net.cpp:454] pos30 <- pool5_pool5_0_split_1
I0227 09:39:40.323205 16912 net.cpp:411] pos30 -> pos30
I0227 09:39:40.325680 16912 net.cpp:150] Setting up pos30
I0227 09:39:40.325700 16912 net.cpp:157] Top shape: 8 30 (240)
I0227 09:39:40.325709 16912 net.cpp:165] Memory required for data: 4051232096
I0227 09:39:40.325722 16912 layer_factory.hpp:77] Creating layer loss_id
I0227 09:39:40.325742 16912 net.cpp:106] Creating Layer loss_id
I0227 09:39:40.325752 16912 net.cpp:454] loss_id <- id750
I0227 09:39:40.325763 16912 net.cpp:454] loss_id <- id_label
I0227 09:39:40.325778 16912 net.cpp:411] loss_id -> loss_id
…
