…
  transform_param {
    mirror: false
    mean_file: "/home/lizhuowan/Market1501/lmdb/lmdb_12936/Image_lmdb_12936.binaryproto"
  }
  data_param {
    source: "/home/lizhuowan/Market1501/lmdb/lmdb_mirror_12936/Image_lmdb_mirror_12936"
    batch_size: 8
    backend: LMDB
  }
}
layer {
  name: "data"
  type: "Data"
  top: "labels"
  include {
    phase: TRAIN
  }
  transform_param {
    mean_value: 112
  }
  data_param {
    source: "/home/lizhuowan/Market1501/lmdb/lmdb_mirror_12936/pos30_lmdb_mirror_12936_correct"
    batch_size: 8
    backend: LMDB
  }
}
layer {
  name: "conv1"
  type: "Convolution"
  bottom: "data"
  top: "conv1"
  convolution_param {
    num_output: 64
    pad: 3
    kernel_size: 7
    stride: 2
  }
}
layer {
  name: "bn_conv1"
  type: "BatchNorm"
  bottom: "conv1"
  top: "conv1"
  batch_norm_param {
    use_global_stats: true
  }
}
layer {
  name: "scale_conv1"
  type: "Scale"
  bottom: "conv1"
  top: "conv1"
  scale_param {
    bias_term: true
  }
}
layer {
  name: "conv1_relu"
  type: "ReLU"
  bottom: "conv1"
  top: "conv1"
}
layer {
  name: "pool1"
  type: "Pooling"
  bottom: "conv1"
  top: "pool1"
  pooling_param {
    pool: MAX
    kernel_size: 3
    stride: 2
  }
}
layer {
  name: "res2a_branch1"
  type: "Convolution"
  bottom: "pool1"
  top: "res2a_branch1"
  convolution_param {
    num_output: 256
    bias_term: false
    pad: 0
    kernel_size: 1
    stride: 1
  }
}
layer {
  name: "bn2a_branch1"
  type: "BatchNorm"
  bottom: "res2a_branch1"
  top: "res2a_branch1"
  batch_norm_param {
    use_global_stats: true
  }
}
layer {
  name: "scale2a_branch1"
  type: "Scale"
  bottom: "res2a_branch1"
  top: "res2a_branch1"
  scale_param {
    bias_term: true
  }
}
layer {
  name: "res2a_branch2a"
  type: "Convolution"
  bottom: "pool1"
  top: "res2a_branch2a"
  convolution_param {
    num_output: 64
    bias_term: false
    pad: 0
    kernel_size: 1
    stride: 1
  }
}
layer {
  name: "bn2a_branch2a"
  type: "BatchNorm"
  bottom: "res2a_branch2a"
  top: "res2a_branch2a"
  batch_norm_param {
    use_global_stats: true
  }
}
layer {
  name: "scale2a_branch2a"
  type: "Scale"
  bottom: "res2a_branch2a"
  top: "res2a_branch2a"
  scale_param {
    bias_term: true
  }
}
layer {
  name: "res2a_branch2a_relu"
  type: "ReLU"
  bottom: "res2a_branch2a"
  top: "res2a_branch2a"
}
layer {
  name: "res2a_branch2b"
  type: "Convolution"
  bottom: "res2a_branch2a"
  top: "res2a_branch2b"
  convolution_param {
    num_output: 64
    bias_term: false
    pad: 1
    kernel_size: 3
    stride: 1
  }
}
layer {
  name: "bn2a_branch2b"
  type: "BatchNorm"
  bottom: "res2a_branch2b"
  top: "res2a_branch2b"
  batch_norm_param {
    use_global_stats: true
  }
}
layer {
  name: "scale2a_branch2b"
  type: "Scale"
  bottom: "res2a_branch2b"
  top: "res2a_branch2b"
  scale_param {
    bias_term: true
  }
}
layer {
  name: "res2a_branch2b_relu"
  type: "ReLU"
  bottom: "res2a_branch2b"
  top: "res2a_branch2b"
}
layer {
  name: "res2a_branch2c"
  type: "Convolution"
  bottom: "res2a_branch2b"
  top: "res2a_branch2c"
  convolution_param {
    num_output: 256
    bias_term: false
    pad: 0
    kernel_size: 1
    stride: 1
  }
}
layer {
  name: "bn2a_branch2c"
  type: "BatchNorm"
  bottom: "res2a_branch2c"
  top: "res2a_branch2c"
  batch_norm_param {
    use_global_stats: true
  }
}
layer {
  name: "scale2a_branch2c"
  type: "Scale"
  bottom: "res2a_branch2c"
  top: "res2a_branch2c"
  scale_param {
    bias_term: true
  }
}
layer {
  name: "res2a"
  type: "Eltwise"
  bottom: "res2a_branch1"
  bottom: "res2a_branch2c"
  top: "res2a"
}
layer {
  name: "res2a_relu"
  type: "ReLU"
  bottom: "res2a"
  top: "res2a"
}
layer {
  name: "res2b_branch2a"
  type: "Convolution"
  bottom: "res2a"
  top: "res2b_branch2a"
  convolution_param {
    num_output: 64
    bias_term: false
    pad: 0
    kernel_size: 1
    stride: 1
  }
}
layer {
  name: "bn2b_branch2a"
  type: "BatchNorm"
  bottom: "res2b_branch2a"
  top: "res2b_branch2a"
  batch_norm_param {
    use_global_stats: true
  }
}
layer {
  name: "scale2b_branch2a"
  type: "Scale"
  bottom: "res2b_branch2a"
  top: "res2b_branch2a"
  scale_param {
    bias_term: true
  }
}
layer {
  name: "res2b_branch2a_relu"
  type: "ReLU"
  bottom: "res2b_branch2a"
  top: "res2b_branch2a"
}
layer {
  name: "res2b_branch2b"
  type: "Convolution"
  bottom: "res2b_branch2a"
  top: "res2b_branch2b"
  convolution_param {
    num_output: 64
    bias_term: false
    pad: 1
    kernel_size: 3
    stride: 1
  }
}
layer {
  name: "bn2b_branch2b"
  type: "BatchNorm"
  bottom: "res2b_branch2b"
  top: "res2b_branch2b"
  batch_norm_param {
    use_global_stats: true
  }
}
layer {
  name: "scale2b_branch2b"
  type: "Scale"
  bottom: "res2b_branch2b"
  top: "res2b_branch2b"
  scale_param {
    bias_term: true
  }
}
layer {
  name: "res2b_branch2b_relu"
  type: "ReLU"
  bottom: "res2b_branch2b"
  top: "res2b_branch2b"
}
layer {
  name: "res2b_branch2c"
  type: "Convolution"
  bottom: "res2b_branch2b"
  top: "res2b_branch2c"
  convolution_param {
    num_output: 256
    bias_term: false
    pad: 0
    kernel_size: 1
    stride: 1
  }
}
layer {
  name: "bn2b_branch2c"
  type: "BatchNorm"
  bottom: "res2b_branch2c"
  top: "res2b_branch2c"
  batch_norm_param {
    use_global_stats: true
  }
}
layer {
  name: "scale2b_branch2c"
  type: "Scale"
  bottom: "res2b_branch2c"
  top: "res2b_branch2c"
  scale_param {
    bias_term: true
  }
}
layer {
  name: "res2b"
  type: "Eltwise"
  bottom: "res2a"
  bottom: "res2b_branch2c"
  top: "res2b"
}
layer {
  name: "res2b_relu"
  type: "ReLU"
  bottom: "res2b"
  top: "res2b"
}
layer {
  name: "res2c_branch2a"
  type: "Convolution"
  bottom: "res2b"
  top: "res2c_branch2a"
  convolution_param {
    num_output: 64
    bias_term: false
    pad: 0
    kernel_size: 1
    stride: 1
  }
}
layer {
  name: "bn2c_branch2a"
  type: "BatchNorm"
  bottom: "res2c_branch2a"
  top: "res2c_branch2a"
  batch_norm_param {
    use_global_stats: true
  }
}
layer {
  name: "scale2c_branch2a"
  type: "Scale"
  bottom: "res2c_branch2a"
  top: "res2c_branch2a"
  scale_param {
    bias_term: true
  }
}
layer {
  name: "res2c_branch2a_relu"
  type: "ReLU"
  bottom: "res2c_branch2a"
  top: "res2c_branch2a"
}
layer {
  name: "res2c_branch2b"
  type: "Convolution"
  bottom: "res2c_branch2a"
  top: "res2c_branch2b"
  convolution_param {
    num_output: 64
    bias_term: false
    pad: 1
    kernel_size: 3
    stride: 1
  }
}
layer {
  name: "bn2c_branch2b"
  type: "BatchNorm"
  bottom: "res2c_branch2b"
  top: "res2c_branch2b"
  batch_norm_param {
    use_global_stats: true
  }
}
layer {
  name: "scale2c_branch2b"
  type: "Scale"
  bottom: "res2c_branch2b"
  top: "res2c_branch2b"
  scale_param {
    bias_term: true
  }
}
layer {
  name: "res2c_branch2b_relu"
  type: "ReLU"
  bottom: "res2c_branch2b"
  top: "res2c_branch2b"
}
layer {
  name: "res2c_branch2c"
  type: "Convolution"
  bottom: "res2c_branch2b"
  top: "res2c_branch2c"
  convolution_param {
    num_output: 256
    bias_term: false
    pad: 0
    kernel_size: 1
    stride: 1
  }
}
layer {
  name: "bn2c_branch2c"
  type: "BatchNorm"
  bottom: "res2c_branch2c"
  top: "res2c_branch2c"
  batch_norm_param {
    use_global_stats: true
  }
}
layer {
  name: "scale2c_branch2c"
  type: "Scale"
  bottom: "res2c_branch2c"
  top: "res2c_branch2c"
  scale_param {
    bias_term: true
  }
}
layer {
  name: "res2c"
  type: "Eltwise"
  bottom: "res2b"
  bottom: "res2c_branch2c"
  top: "res2c"
}
layer {
  name: "res2c_relu"
  type: "ReLU"
  bottom: "res2c"
  top: "res2c"
}
layer {
  name: "res3a_branch1"
  type: "Convolution"
  bottom: "res2c"
  top: "res3a_branch1"
  convolution_param {
    num_output: 512
    bias_term: false
    pad: 0
    kernel_size: 1
    stride: 2
  }
}
layer {
  name: "bn3a_branch1"
  type: "BatchNorm"
  bottom: "res3a_branch1"
  top: "res3a_branch1"
  batch_norm_param {
    use_global_stats: true
  }
}
layer {
  name: "scale3a_branch1"
  type: "Scale"
  bottom: "res3a_branch1"
  top: "res3a_branch1"
  scale_param {
    bias_term: true
  }
}
layer {
  name: "res3a_branch2a"
  type: "Convolution"
  bottom: "res2c"
  top: "res3a_branch2a"
  convolution_param {
    num_output: 128
    bias_term: false
    pad: 0
    kernel_size: 1
    stride: 2
  }
}
layer {
  name: "bn3a_branch2a"
  type: "BatchNorm"
  bottom: "res3a_branch2a"
  top: "res3a_branch2a"
  batch_norm_param {
    use_global_stats: true
  }
}
layer {
  name: "scale3a_branch2a"
  type: "Scale"
  bottom: "res3a_branch2a"
  top: "res3a_branch2a"
  scale_param {
    bias_term: true
  }
}
layer {
  name: "res3a_branch2a_relu"
  type: "ReLU"
  bottom: "res3a_branch2a"
  top: "res3a_branch2a"
}
layer {
  name: "res3a_branch2b"
  type: "Convolution"
  bottom: "res3a_branch2a"
  top: "res3a_branch2b"
  convolution_param {
    num_output: 128
    bias_term: false
    pad: 1
    kernel_size: 3
    stride: 1
  }
}
layer {
  name: "bn3a_branch2b"
  type: "BatchNorm"
  bottom: "res3a_branch2b"
  top: "res3a_branch2b"
  batch_norm_param {
    use_global_stats: true
  }
}
layer {
  name: "scale3a_branch2b"
  type: "Scale"
  bottom: "res3a_branch2b"
  top: "res3a_branch2b"
  scale_param {
    bias_term: true
  }
}
layer {
  name: "res3a_branch2b_relu"
  type: "ReLU"
  bottom: "res3a_branch2b"
  top: "res3a_branch2b"
}
layer {
  name: "res3a_branch2c"
  type: "Convolution"
  bottom: "res3a_branch2b"
  top: "res3a_branch2c"
  convolution_param {
    num_output: 512
    bias_term: false
    pad: 0
    kernel_size: 1
    stride: 1
  }
}
layer {
  name: "bn3a_branch2c"
  type: "BatchNorm"
  bottom: "res3a_branch2c"
  top: "res3a_branch2c"
  batch_norm_param {
    use_global_stats: true
  }
}
layer {
  name: "scale3a_branch2c"
  type: "Scale"
  bottom: "res3a_branch2c"
  top: "res3a_branch2c"
  scale_param {
    bias_term: true
  }
}
layer {
  name: "res3a"
  type: "Eltwise"
  bottom: "res3a_branch1"
  bottom: "res3a_branch2c"
  top: "res3a"
}
layer {
  name: "res3a_relu"
  type: "ReLU"
  bottom: "res3a"
  top: "res3a"
}
layer {
  name: "res3b_branch2a"
  type: "Convolution"
  bottom: "res3a"
  top: "res3b_branch2a"
  convolution_param {
    num_output: 128
    bias_term: false
    pad: 0
    kernel_size: 1
    stride: 1
  }
}
layer {
  name: "bn3b_branch2a"
  type: "BatchNorm"
  bottom: "res3b_branch2a"
  top: "res3b_branch2a"
  batch_norm_param {
    use_global_stats: true
  }
}
layer {
  name: "scale3b_branch2a"
  type: "Scale"
  bottom: "res3b_branch2a"
  top: "res3b_branch2a"
  scale_param {
    bias_term: true
  }
}
layer {
  name: "res3b_branch2a_relu"
  type: "ReLU"
  bottom: "res3b_branch2a"
  top: "res3b_branch2a"
}
layer {
  name: "res3b_branch2b"
  type: "Convolution"
  bottom: "res3b_branch2a"
  top: "res3b_branch2b"
  convolution_param {
    num_output: 128
    bias_term: false
    pad: 1
    kernel_size: 3
    stride: 1
  }
}
layer {
  name: "bn3b_branch2b"
  type: "BatchNorm"
  bottom: "res3b_branch2b"
  top: "res3b_branch2b"
  batch_norm_param {
    use_global_stats: true
  }
}
layer {
  name: "scale3b_branch2b"
  type: "Scale"
  bottom: "res3b_branch2b"
  top: "res3b_branch2b"
  scale_param {
    bias_term: true
  }
}
layer {
  name: "res3b_branch2b_relu"
  type: "ReLU"
  bottom: "res3b_branch2b"
  top: "res3b_branch2b"
}
layer {
  name: "res3b_branch2c"
  type: "Convolution"
  bottom: "res3b_branch2b"
  top: "res3b_branch2c"
  convolution_param {
    num_output: 512
    bias_term: false
    pad: 0
    kernel_size: 1
    stride: 1
  }
}
layer {
  name: "bn3b_branch2c"
  type: "BatchNorm"
  bottom: "res3b_branch2c"
  top: "res3b_branch2c"
  batch_norm_param {
    use_global_stats: true
  }
}
layer {
  name: "scale3b_branch2c"
  type: "Scale"
  bottom: "res3b_branch2c"
  top: "res3b_branch2c"
  scale_param {
    bias_term: true
  }
}
layer {
  name: "res3b"
  type: "Eltwise"
  bottom: "res3a"
  bottom: "res3b_branch2c"
  top: "res3b"
}
layer {
  name: "res3b_relu"
  type: "ReLU"
  bottom: "res3b"
  top: "res3b"
}
layer {
  name: "res3c_branch2a"
  type: "Convolution"
  bottom: "res3b"
  top: "res3c_branch2a"
  convolution_param {
    num_output: 128
    bias_term: false
    pad: 0
    kernel_size: 1
    stride: 1
  }
}
layer {
  name: "bn3c_branch2a"
  type: "BatchNorm"
  bottom: "res3c_branch2a"
  top: "res3c_branch2a"
  batch_norm_param {
    use_global_stats: true
  }
}
layer {
  name: "scale3c_branch2a"
  type: "Scale"
  bottom: "res3c_branch2a"
  top: "res3c_branch2a"
  scale_param {
    bias_term: true
  }
}
layer {
  name: "res3c_branch2a_relu"
  type: "ReLU"
  bottom: "res3c_branch2a"
  top: "res3c_branch2a"
}
layer {
  name: "res3c_branch2b"
  type: "Convolution"
  bottom: "res3c_branch2a"
  top: "res3c_branch2b"
  convolution_param {
    num_output: 128
    bias_term: false
    pad: 1
    kernel_size: 3
    stride: 1
  }
}
layer {
  name: "bn3c_branch2b"
  type: "BatchNorm"
  bottom: "res3c_branch2b"
  top: "res3c_branch2b"
  batch_norm_param {
    use_global_stats: true
  }
}
layer {
  name: "scale3c_branch2b"
  type: "Scale"
  bottom: "res3c_branch2b"
  top: "res3c_branch2b"
  scale_param {
    bias_term: true
  }
}
layer {
  name: "res3c_branch2b_relu"
  type: "ReLU"
  bottom: "res3c_branch2b"
  top: "res3c_branch2b"
}
layer {
  name: "res3c_branch2c"
  type: "Convolution"
  bottom: "res3c_branch2b"
  top: "res3c_branch2c"
  convolution_param {
    num_output: 512
    bias_term: false
    pad: 0
    kernel_size: 1
    stride: 1
  }
}
layer {
  name: "bn3c_branch2c"
  type: "BatchNorm"
  bottom: "res3c_branch2c"
  top: "res3c_branch2c"
  batch_norm_param {
    use_global_stats: true
  }
}
layer {
  name: "scale3c_branch2c"
  type: "Scale"
  bottom: "res3c_branch2c"
  top: "res3c_branch2c"
  scale_param {
    bias_term: true
  }
}
layer {
  name: "res3c"
  type: "Eltwise"
  bottom: "res3b"
  bottom: "res3c_branch2c"
  top: "res3c"
}
layer {
  name: "res3c_relu"
  type: "ReLU"
  bottom: "res3c"
  top: "res3c"
}
layer {
  name: "res3d_branch2a"
  type: "Convolution"
  bottom: "res3c"
  top: "res3d_branch2a"
  convolution_param {
    num_output: 128
    bias_term: false
    pad: 0
    kernel_size: 1
    stride: 1
  }
}
layer {
  name: "bn3d_branch2a"
  type: "BatchNorm"
  bottom: "res3d_branch2a"
  top: "res3d_branch2a"
  batch_norm_param {
    use_global_stats: true
  }
}
layer {
  name: "scale3d_branch2a"
  type: "Scale"
  bottom: "res3d_branch2a"
  top: "res3d_branch2a"
  scale_param {
    bias_term: true
  }
}
layer {
  name: "res3d_branch2a_relu"
  type: "ReLU"
  bottom: "res3d_branch2a"
  top: "res3d_branch2a"
}
layer {
  name: "res3d_branch2b"
  type: "Convolution"
  bottom: "res3d_branch2a"
  top: "res3d_branch2b"
  convolution_param {
    num_output: 128
    bias_term: false
    pad: 1
    kernel_size: 3
    stride: 1
  }
}
layer {
  name: "bn3d_branch2b"
  type: "BatchNorm"
  bottom: "res3d_branch2b"
  top: "res3d_branch2b"
  batch_norm_param {
    use_global_stats: true
  }
}
layer {
  name: "scale3d_branch2b"
  type: "Scale"
  bottom: "res3d_branch2b"
  top: "res3d_branch2b"
  scale_param {
    bias_term: true
  }
}
layer {
  name: "res3d_branch2b_relu"
  type: "ReLU"
  bottom: "res3d_branch2b"
  top: "res3d_branch2b"
}
layer {
  name: "res3d_branch2c"
  type: "Convolution"
  bottom: "res3d_branch2b"
  top: "res3d_branch2c"
  convolution_param {
    num_output: 512
    bias_term: false
    pad: 0
    kernel_size: 1
    stride: 1
  }
}
layer {
  name: "bn3d_branch2c"
  type: "BatchNorm"
  bottom: "res3d_branch2c"
  top: "res3d_branch2c"
  batch_norm_param {
    use_global_stats: true
  }
}
layer {
  name: "scale3d_branch2c"
  type: "Scale"
  bottom: "res3d_branch2c"
  top: "res3d_branch2c"
  scale_param {
    bias_term: true
  }
}
layer {
  name: "res3d"
  type: "Eltwise"
  bottom: "res3c"
  bottom: "res3d_branch2c"
  top: "res3d"
}
layer {
  name: "res3d_relu"
  type: "ReLU"
  bottom: "res3d"
  top: "res3d"
}
layer {
  name: "res4a_branch1"
  type: "Convolution"
  bottom: "res3d"
  top: "res4a_branch1"
  convolution_param {
    num_output: 1024
    bias_term: false
    pad: 0
    kernel_size: 1
    stride: 2
  }
}
layer {
  name: "bn4a_branch1"
  type: "BatchNorm"
  bottom: "res4a_branch1"
  top: "res4a_branch1"
  batch_norm_param {
    use_global_stats: true
  }
}
layer {
  name: "scale4a_branch1"
  type: "Scale"
  bottom: "res4a_branch1"
  top: "res4a_branch1"
  scale_param {
    bias_term: true
  }
}
layer {
  name: "res4a_branch2a"
  type: "Convolution"
  bottom: "res3d"
  top: "res4a_branch2a"
  convolution_param {
    num_output: 256
    bias_term: false
    pad: 0
    kernel_size: 1
    stride: 2
  }
}
layer {
  name: "bn4a_branch2a"
  type: "BatchNorm"
  bottom: "res4a_branch2a"
  top: "res4a_branch2a"
  batch_norm_param {
    use_global_stats: true
  }
}
layer {
  name: "scale4a_branch2a"
  type: "Scale"
  bottom: "res4a_branch2a"
  top: "res4a_branch2a"
  scale_param {
    bias_term: true
  }
}
layer {
  name: "res4a_branch2a_relu"
  type: "ReLU"
  bottom: "res4a_branch2a"
  top: "res4a_branch2a"
}
layer {
  name: "res4a_branch2b"
  type: "Convolution"
  bottom: "res4a_branch2a"
  top: "res4a_branch2b"
  convolution_param {
    num_output: 256
    bias_term: false
    pad: 1
    kernel_size: 3
    stride: 1
  }
}
layer {
  name: "bn4a_branch2b"
  type: "BatchNorm"
  bottom: "res4a_branch2b"
  top: "res4a_branch2b"
  batch_norm_param {
    use_global_stats: true
  }
}
layer {
  name: "scale4a_branch2b"
  type: "Scale"
  bottom: "res4a_branch2b"
  top: "res4a_branch2b"
  scale_param {
    bias_term: true
  }
}
layer {
  name: "res4a_branch2b_relu"
  type: "ReLU"
  bottom: "res4a_branch2b"
  top: "res4a_branch2b"
}
layer {
  name: "res4a_branch2c"
  type: "Convolution"
  bottom: "res4a_branch2b"
  top: "res4a_branch2c"
  convolution_param {
    num_output: 1024
    bias_term: false
    pad: 0
    kernel_size: 1
    stride: 1
  }
}
layer {
  name: "bn4a_branch2c"
  type: "BatchNorm"
  bottom: "res4a_branch2c"
  top: "res4a_branch2c"
  batch_norm_param {
    use_global_stats: true
  }
}
layer {
  name: "scale4a_branch2c"
  type: "Scale"
  bottom: "res4a_branch2c"
  top: "res4a_branch2c"
  scale_param {
    bias_term: true
  }
}
layer {
  name: "res4a"
  type: "Eltwise"
  bottom: "res4a_branch1"
  bottom: "res4a_branch2c"
  top: "res4a"
}
layer {
  name: "res4a_relu"
  type: "ReLU"
  bottom: "res4a"
  top: "res4a"
}
layer {
  name: "res4b_branch2a"
  type: "Convolution"
  bottom: "res4a"
  top: "res4b_branch2a"
  convolution_param {
    num_output: 256
    bias_term: false
    pad: 0
    kernel_size: 1
    stride: 1
  }
}
layer {
  name: "bn4b_branch2a"
  type: "BatchNorm"
  bottom: "res4b_branch2a"
  top: "res4b_branch2a"
  batch_norm_param {
    use_global_stats: true
  }
}
layer {
  name: "scale4b_branch2a"
  type: "Scale"
  bottom: "res4b_branch2a"
  top: "res4b_branch2a"
  scale_param {
    bias_term: true
  }
}
layer {
  name: "res4b_branch2a_relu"
  type: "ReLU"
  bottom: "res4b_branch2a"
  top: "res4b_branch2a"
}
layer {
  name: "res4b_branch2b"
  type: "Convolution"
  bottom: "res4b_branch2a"
  top: "res4b_branch2b"
  convolution_param {
    num_output: 256
    bias_term: false
    pad: 1
    kernel_size: 3
    stride: 1
  }
}
layer {
  name: "bn4b_branch2b"
  type: "BatchNorm"
  bottom: "res4b_branch2b"
  top: "res4b_branch2b"
  batch_norm_param {
    use_global_stats: true
  }
}
layer {
  name: "scale4b_branch2b"
  type: "Scale"
  bottom: "res4b_branch2b"
  top: "res4b_branch2b"
  scale_param {
    bias_term: true
  }
}
layer {
  name: "res4b_branch2b_relu"
  type: "ReLU"
  bottom: "res4b_branch2b"
  top: "res4b_branch2b"
}
layer {
  name: "res4b_branch2c"
  type: "Convolution"
  bottom: "res4b_branch2b"
  top: "res4b_branch2c"
  convolution_param {
    num_output: 1024
    bias_term: false
    pad: 0
    kernel_size: 1
    stride: 1
  }
}
layer {
  name: "bn4b_branch2c"
  type: "BatchNorm"
  bottom: "res4b_branch2c"
  top: "res4b_branch2c"
  batch_norm_param {
    use_global_stats: true
  }
}
layer {
  name: "scale4b_branch2c"
  type: "Scale"
  bottom: "res4b_branch2c"
  top: "res4b_branch2c"
  scale_param {
    bias_term: true
  }
}
layer {
  name: "res4b"
  type: "Eltwise"
  bottom: "res4a"
  bottom: "res4b_branch2c"
  top: "res4b"
}
layer {
  name: "res4b_relu"
  type: "ReLU"
  bottom: "res4b"
  top: "res4b"
}
layer {
  name: "res4c_branch2a"
  type: "Convolution"
  bottom: "res4b"
  top: "res4c_branch2a"
  convolution_param {
    num_output: 256
    bias_term: false
    pad: 0
    kernel_size: 1
    stride: 1
  }
}
layer {
  name: "bn4c_branch2a"
  type: "BatchNorm"
  bottom: "res4c_branch2a"
  top: "res4c_branch2a"
  batch_norm_param {
    use_global_stats: true
  }
}
layer {
  name: "scale4c_branch2a"
  type: "Scale"
  bottom: "res4c_branch2a"
  top: "res4c_branch2a"
  scale_param {
    bias_term: true
  }
}
layer {
  name: "res4c_branch2a_relu"
  type: "ReLU"
  bottom: "res4c_branch2a"
  top: "res4c_branch2a"
}
layer {
  name: "res4c_branch2b"
  type: "Convolution"
  bottom: "res4c_branch2a"
  top: "res4c_branch2b"
  convolution_param {
    num_output: 256
    bias_term: false
    pad: 1
    kernel_size: 3
    stride: 1
  }
}
layer {
  name: "bn4c_branch2b"
  type: "BatchNorm"
  bottom: "res4c_branch2b"
  top: "res4c_branch2b"
  batch_norm_param {
    use_global_stats: true
  }
}
layer {
  name: "scale4c_branch2b"
  type: "Scale"
  bottom: "res4c_branch2b"
  top: "res4c_branch2b"
  scale_param {
    bias_term: true
  }
}
layer {
  name: "res4c_branch2b_relu"
  type: "ReLU"
  bottom: "res4c_branch2b"
  top: "res4c_branch2b"
}
layer {
  name: "res4c_branch2c"
  type: "Convolution"
  bottom: "res4c_branch2b"
  top: "res4c_branch2c"
  convolution_param {
    num_output: 1024
    bias_term: false
    pad: 0
    kernel_size: 1
    stride: 1
  }
}
layer {
  name: "bn4c_branch2c"
  type: "BatchNorm"
  bottom: "res4c_branch2c"
  top: "res4c_branch2c"
  batch_norm_param {
    use_global_stats: true
  }
}
layer {
  name: "scale4c_branch2c"
  type: "Scale"
  bottom: "res4c_branch2c"
  top: "res4c_branch2c"
  scale_param {
    bias_term: true
  }
}
layer {
  name: "res4c"
  type: "Eltwise"
  bottom: "res4b"
  bottom: "res4c_branch2c"
  top: "res4c"
}
layer {
  name: "res4c_relu"
  type: "ReLU"
  bottom: "res4c"
  top: "res4c"
}
layer {
  name: "res4d_branch2a"
  type: "Convolution"
  bottom: "res4c"
  top: "res4d_branch2a"
  convolution_param {
    num_output: 256
    bias_term: false
    pad: 0
    kernel_size: 1
    stride: 1
  }
}
layer {
  name: "bn4d_branch2a"
  type: "BatchNorm"
  bottom: "res4d_branch2a"
  top: "res4d_branch2a"
  batch_norm_param {
    use_global_stats: true
  }
}
layer {
  name: "scale4d_branch2a"
  type: "Scale"
  bottom: "res4d_branch2a"
  top: "res4d_branch2a"
  scale_param {
    bias_term: true
  }
}
layer {
  name: "res4d_branch2a_relu"
  type: "ReLU"
  bottom: "res4d_branch2a"
  top: "res4d_branch2a"
}
layer {
  name: "res4d_branch2b"
  type: "Convolution"
  bottom: "res4d_branch2a"
  top: "res4d_branch2b"
  convolution_param {
    num_output: 256
    bias_term: false
    pad: 1
    kernel_size: 3
    stride: 1
  }
}
layer {
  name: "bn4d_branch2b"
  type: "BatchNorm"
  bottom: "res4d_branch2b"
  top: "res4d_branch2b"
  batch_norm_param {
    use_global_stats: true
  }
}
layer {
  name: "scale4d_branch2b"
  type: "Scale"
  bottom: "res4d_branch2b"
  top: "res4d_branch2b"
  scale_param {
    bias_term: true
  }
}
layer {
  name: "res4d_branch2b_relu"
  type: "ReLU"
  bottom: "res4d_branch2b"
  top: "res4d_branch2b"
}
layer {
  name: "res4d_branch2c"
  type: "Convolution"
  bottom: "res4d_branch2b"
  top: "res4d_branch2c"
  convolution_param {
    num_output: 1024
    bias_term: false
    pad: 0
    kernel_size: 1
    stride: 1
  }
}
layer {
  name: "bn4d_branch2c"
  type: "BatchNorm"
  bottom: "res4d_branch2c"
  top: "res4d_branch2c"
  batch_norm_param {
    use_global_stats: true
  }
}
layer {
  name: "scale4d_branch2c"
  type: "Scale"
  bottom: "res4d_branch2c"
  top: "res4d_branch2c"
  scale_param {
    bias_term: true
  }
}
layer {
  name: "res4d"
  type: "Eltwise"
  bottom: "res4c"
  bottom: "res4d_branch2c"
  top: "res4d"
}
layer {
  name: "res4d_relu"
  type: "ReLU"
  bottom: "res4d"
  top: "res4d"
}
layer {
  name: "res4e_branch2a"
  type: "Convolution"
  bottom: "res4d"
  top: "res4e_branch2a"
  convolution_param {
    num_output: 256
    bias_term: false
    pad: 0
    kernel_size: 1
    stride: 1
  }
}
layer {
  name: "bn4e_branch2a"
  type: "BatchNorm"
  bottom: "res4e_branch2a"
  top: "res4e_branch2a"
  batch_norm_param {
    use_global_stats: true
  }
}
layer {
  name: "scale4e_branch2a"
  type: "Scale"
  bottom: "res4e_branch2a"
  top: "res4e_branch2a"
  scale_param {
    bias_term: true
  }
}
layer {
  name: "res4e_branch2a_relu"
  type: "ReLU"
  bottom: "res4e_branch2a"
  top: "res4e_branch2a"
}
layer {
  name: "res4e_branch2b"
  type: "Convolution"
  bottom: "res4e_branch2a"
  top: "res4e_branch2b"
  convolution_param {
    num_output: 256
    bias_term: false
    pad: 1
    kernel_size: 3
    stride: 1
  }
}
layer {
  name: "bn4e_branch2b"
  type: "BatchNorm"
  bottom: "res4e_branch2b"
  top: "res4e_branch2b"
  batch_norm_param {
    use_global_stats: true
  }
}
layer {
  name: "scale4e_branch2b"
  type: "Scale"
  bottom: "res4e_branch2b"
  top: "res4e_branch2b"
  scale_param {
    bias_term: true
  }
}
layer {
  name: "res4e_branch2b_relu"
  type: "ReLU"
  bottom: "res4e_branch2b"
  top: "res4e_branch2b"
}
layer {
  name: "res4e_branch2c"
  type: "Convolution"
  bottom: "res4e_branch2b"
  top: "res4e_branch2c"
  convolution_param {
    num_output: 1024
    bias_term: false
    pad: 0
    kernel_size: 1
    stride: 1
  }
}
layer {
  name: "bn4e_branch2c"
  type: "BatchNorm"
  bottom: "res4e_branch2c"
  top: "res4e_branch2c"
  batch_norm_param {
    use_global_stats: true
  }
}
layer {
  name: "scale4e_branch2c"
  type: "Scale"
  bottom: "res4e_branch2c"
  top: "res4e_branch2c"
  scale_param {
    bias_term: true
  }
}
layer {
  name: "res4e"
  type: "Eltwise"
  bottom: "res4d"
  bottom: "res4e_branch2c"
  top: "res4e"
}
layer {
  name: "res4e_relu"
  type: "ReLU"
  bottom: "res4e"
  top: "res4e"
}
layer {
  name: "res4f_branch2a"
  type: "Convolution"
  bottom: "res4e"
  top: "res4f_branch2a"
  convolution_param {
    num_output: 256
    bias_term: false
    pad: 0
    kernel_size: 1
    stride: 1
  }
}
layer {
  name: "bn4f_branch2a"
  type: "BatchNorm"
  bottom: "res4f_branch2a"
  top: "res4f_branch2a"
  batch_norm_param {
    use_global_stats: true
  }
}
layer {
  name: "scale4f_branch2a"
  type: "Scale"
  bottom: "res4f_branch2a"
  top: "res4f_branch2a"
  scale_param {
    bias_term: true
  }
}
layer {
  name: "res4f_branch2a_relu"
  type: "ReLU"
  bottom: "res4f_branch2a"
  top: "res4f_branch2a"
}
layer {
  name: "res4f_branch2b"
  type: "Convolution"
  bottom: "res4f_branch2a"
  top: "res4f_branch2b"
  convolution_param {
    num_output: 256
    bias_term: false
    pad: 1
    kernel_size: 3
    stride: 1
  }
}
layer {
  name: "bn4f_branch2b"
  type: "BatchNorm"
  bottom: "res4f_branch2b"
  top: "res4f_branch2b"
  batch_norm_param {
    use_global_stats: true
  }
}
layer {
  name: "scale4f_branch2b"
  type: "Scale"
  bottom: "res4f_branch2b"
  top: "res4f_branch2b"
  scale_param {
    bias_term: true
  }
}
layer {
  name: "res4f_branch2b_relu"
  type: "ReLU"
  bottom: "res4f_branch2b"
  top: "res4f_branch2b"
}
layer {
  name: "res4f_branch2c"
  type: "Convolution"
  bottom: "res4f_branch2b"
  top: "res4f_branch2c"
  convolution_param {
    num_output: 1024
    bias_term: false
    pad: 0
    kernel_size: 1
    stride: 1
  }
}
layer {
  name: "bn4f_branch2c"
  type: "BatchNorm"
  bottom: "res4f_branch2c"
  top: "res4f_branch2c"
  batch_norm_param {
    use_global_stats: true
  }
}
layer {
  name: "scale4f_branch2c"
  type: "Scale"
  bottom: "res4f_branch2c"
  top: "res4f_branch2c"
  scale_param {
    bias_term: true
  }
}
layer {
  name: "res4f"
  type: "Eltwise"
  bottom: "res4e"
  bottom: "res4f_branch2c"
  top: "res4f"
}
layer {
  name: "res4f_relu"
  type: "ReLU"
  bottom: "res4f"
  top: "res4f"
}
layer {
  name: "res5a_branch1"
  type: "Convolution"
  bottom: "res4f"
  top: "res5a_branch1"
  convolution_param {
    num_output: 2048
    bias_term: false
    pad: 0
    kernel_size: 1
    stride: 2
  }
}
layer {
  name: "bn5a_branch1"
  type: "BatchNorm"
  bottom: "res5a_branch1"
  top: "res5a_branch1"
  batch_norm_param {
    use_global_stats: true
  }
}
layer {
  name: "scale5a_branch1"
  type: "Scale"
  bottom: "res5a_branch1"
  top: "res5a_branch1"
  scale_param {
    bias_term: true
  }
}
layer {
  name: "res5a_branch2a"
  type: "Convolution"
  bottom: "res4f"
  top: "res5a_branch2a"
  convolution_param {
    num_output: 512
    bias_term: false
    pad: 0
    kernel_size: 1
    stride: 2
  }
}
layer {
  name: "bn5a_branch2a"
  type: "BatchNorm"
  bottom: "res5a_branch2a"
  top: "res5a_branch2a"
  batch_norm_param {
    use_global_stats: true
  }
}
layer {
  name: "scale5a_branch2a"
  type: "Scale"
  bottom: "res5a_branch2a"
  top: "res5a_branch2a"
  scale_param {
    bias_term: true
  }
}
layer {
  name: "res5a_branch2a_relu"
  type: "ReLU"
  bottom: "res5a_branch2a"
  top: "res5a_branch2a"
}
layer {
  name: "res5a_branch2b"
  type: "Convolution"
  bottom: "res5a_branch2a"
  top: "res5a_branch2b"
  convolution_param {
    num_output: 512
    bias_term: false
    pad: 1
    kernel_size: 3
    stride: 1
  }
}
layer {
  name: "bn5a_branch2b"
  type: "BatchNorm"
  bottom: "res5a_branch2b"
  top: "res5a_branch2b"
  batch_norm_param {
    use_global_stats: true
  }
}
layer {
  name: "scale5a_branch2b"
  type: "Scale"
  bottom: "res5a_branch2b"
  top: "res5a_branch2b"
  scale_param {
    bias_term: true
  }
}
layer {
  name: "res5a_branch2b_relu"
  type: "ReLU"
  bottom: "res5a_branch2b"
  top: "res5a_branch2b"
}
layer {
I0316 16:32:41.455755 16042 layer_factory.hpp:77] Creating layer data
I0316 16:32:41.456960 16042 net.cpp:106] Creating Layer data
I0316 16:32:41.457015 16042 net.cpp:411] data -> data
I0316 16:32:41.457310 16042 data_transformer.cpp:25] Loading mean file from: /home/lizhuowan/Market1501/lmdb/lmdb_12936/Image_lmdb_12936.binaryproto
I0316 16:32:41.459275 16047 db_lmdb.cpp:38] Opened lmdb /home/lizhuowan/Market1501/lmdb/lmdb_mirror_12936/Image_lmdb_mirror_12936
I0316 16:32:41.486443 16042 data_layer.cpp:41] output data size: 8,3,224,224
I0316 16:32:41.502908 16042 net.cpp:150] Setting up data
I0316 16:32:41.502997 16042 net.cpp:157] Top shape: 8 3 224 224 (1204224)
I0316 16:32:41.503021 16042 net.cpp:165] Memory required for data: 4816896
I0316 16:32:41.503057 16042 layer_factory.hpp:77] Creating layer data
I0316 16:32:41.504000 16042 net.cpp:106] Creating Layer data
I0316 16:32:41.504042 16042 net.cpp:411] data -> labels
I0316 16:32:41.505895 16049 db_lmdb.cpp:38] Opened lmdb /home/lizhuowan/Market1501/lmdb/lmdb_mirror_12936/pos30_lmdb_mirror_12936_correct
I0316 16:32:41.507151 16042 data_layer.cpp:41] output data size: 8,30,1,1
I0316 16:32:41.507541 16042 net.cpp:150] Setting up data
I0316 16:32:41.507587 16042 net.cpp:157] Top shape: 8 30 1 1 (240)
I0316 16:32:41.507607 16042 net.cpp:165] Memory required for data: 4817856
I0316 16:32:41.507627 16042 layer_factory.hpp:77] Creating layer conv1
I0316 16:32:41.507691 16042 net.cpp:106] Creating Layer conv1
I0316 16:32:41.507719 16042 net.cpp:454] conv1 <- data
I0316 16:32:41.507764 16042 net.cpp:411] conv1 -> conv1
I0316 16:32:41.509590 16042 net.cpp:150] Setting up conv1
I0316 16:32:41.509639 16042 net.cpp:157] Top shape: 8 64 112 112 (6422528)
I0316 16:32:41.509660 16042 net.cpp:165] Memory required for data: 30507968
I0316 16:32:41.509711 16042 layer_factory.hpp:77] Creating layer bn_conv1
I0316 16:32:41.509752 16042 net.cpp:106] Creating Layer bn_conv1
I0316 16:32:41.509795 16042 net.cpp:454] bn_conv1 <- conv1
I0316 16:32:41.509843 16042 net.cpp:397] bn_conv1 -> conv1 (in-place)
I0316 16:32:41.510505 16042 net.cpp:150] Setting up bn_conv1
I0316 16:32:41.510546 16042 net.cpp:157] Top shape: 8 64 112 112 (6422528)
I0316 16:32:41.510572 16042 net.cpp:165] Memory required for data: 56198080
I0316 16:32:41.510614 16042 layer_factory.hpp:77] Creating layer scale_conv1
I0316 16:32:41.510668 16042 net.cpp:106] Creating Layer scale_conv1
I0316 16:32:41.510696 16042 net.cpp:454] scale_conv1 <- conv1
I0316 16:32:41.510720 16042 net.cpp:397] scale_conv1 -> conv1 (in-place)
I0316 16:32:41.510859 16042 layer_factory.hpp:77] Creating layer scale_conv1
I0316 16:32:41.511216 16042 net.cpp:150] Setting up scale_conv1
I0316 16:32:41.511268 16042 net.cpp:157] Top shape: 8 64 112 112 (6422528)
I0316 16:32:41.511291 16042 net.cpp:165] Memory required for data: 81888192
I0316 16:32:41.511323 16042 layer_factory.hpp:77] Creating layer conv1_relu
I0316 16:32:41.511361 16042 net.cpp:106] Creating Layer conv1_relu
I0316 16:32:41.511382 16042 net.cpp:454] conv1_relu <- conv1
I0316 16:32:41.511415 16042 net.cpp:397] conv1_relu -> conv1 (in-place)
I0316 16:32:41.511451 16042 net.cpp:150] Setting up conv1_relu
I0316 16:32:41.511476 16042 net.cpp:157] Top shape: 8 64 112 112 (6422528)
I0316 16:32:41.511493 16042 net.cpp:165] Memory required for data: 107578304
I0316 16:32:41.511512 16042 layer_factory.hpp:77] Creating layer pool1
I0316 16:32:41.511543 16042 net.cpp:106] Creating Layer pool1
I0316 16:32:41.511562 16042 net.cpp:454] pool1 <- conv1
I0316 16:32:41.511584 16042 net.cpp:411] pool1 -> pool1
I0316 16:32:41.511752 16042 net.cpp:150] Setting up pool1
I0316 16:32:41.511787 16042 net.cpp:157] Top shape: 8 64 56 56 (1605632)
I0316 16:32:41.511804 16042 net.cpp:165] Memory required for data: 114000832
I0316 16:32:41.511822 16042 layer_factory.hpp:77] Creating layer pool1_pool1_0_split
I0316 16:32:41.511852 16042 net.cpp:106] Creating Layer pool1_pool1_0_split
I0316 16:32:41.511870 16042 net.cpp:454] pool1_pool1_0_split <- pool1
I0316 16:32:41.511893 16042 net.cpp:411] pool1_pool1_0_split -> pool1_pool1_0_split_0
I0316 16:32:41.511919 16042 net.cpp:411] pool1_pool1_0_split -> pool1_pool1_0_split_1
I0316 16:32:41.512007 16042 net.cpp:150] Setting up pool1_pool1_0_split
I0316 16:32:41.512037 16042 net.cpp:157] Top shape: 8 64 56 56 (1605632)
I0316 16:32:41.512058 16042 net.cpp:157] Top shape: 8 64 56 56 (1605632)
I0316 16:32:41.512075 16042 net.cpp:165] Memory required for data: 126845888
I0316 16:32:41.512092 16042 layer_factory.hpp:77] Creating layer res2a_branch1
I0316 16:32:41.512127 16042 net.cpp:106] Creating Layer res2a_branch1
I0316 16:32:41.512148 16042 net.cpp:454] res2a_branch1 <- pool1_pool1_0_split_0
I0316 16:32:41.512172 16042 net.cpp:411] res2a_branch1 -> res2a_branch1
I0316 16:32:41.512545 16042 net.cpp:150] Setting up res2a_branch1
I0316 16:32:41.512580 16042 net.cpp:157] Top shape: 8 256 56 56 (6422528)
I0316 16:32:41.512598 16042 net.cpp:165] Memory required for data: 152536000
I0316 16:32:41.512645 16042 layer_factory.hpp:77] Creating layer bn2a_branch1
I0316 16:32:41.512688 16042 net.cpp:106] Creating Layer bn2a_branch1
I0316 16:32:41.512709 16042 net.cpp:454] bn2a_branch1 <- res2a_branch1
I0316 16:32:41.512732 16042 net.cpp:397] bn2a_branch1 -> res2a_branch1 (in-place)
I0316 16:32:41.514209 16042 net.cpp:150] Setting up bn2a_branch1
I0316 16:32:41.514252 16042 net.cpp:157] Top shape: 8 256 56 56 (6422528)
I0316 16:32:41.514271 16042 net.cpp:165] Memory required for data: 178226112
I0316 16:32:41.514310 16042 layer_factory.hpp:77] Creating layer scale2a_branch1
I0316 16:32:41.514338 16042 net.cpp:106] Creating Layer scale2a_branch1
I0316 16:32:41.514358 16042 net.cpp:454] scale2a_branch1 <- res2a_branch1
I0316 16:32:41.514380 16042 net.cpp:397] scale2a_branch1 -> res2a_branch1 (in-place)
I0316 16:32:41.514492 16042 layer_factory.hpp:77] Creating layer scale2a_branch1
I0316 16:32:41.514750 16042 net.cpp:150] Setting up scale2a_branch1
I0316 16:32:41.514782 16042 net.cpp:157] Top shape: 8 256 56 56 (6422528)
I0316 16:32:41.514801 16042 net.cpp:165] Memory required for data: 203916224
I0316 16:32:41.514860 16042 layer_factory.hpp:77] Creating layer res2a_branch2a
I0316 16:32:41.514899 16042 net.cpp:106] Creating Layer res2a_branch2a
I0316 16:32:41.514920 16042 net.cpp:454] res2a_branch2a <- pool1_pool1_0_split_1
I0316 16:32:41.514945 16042 net.cpp:411] res2a_branch2a -> res2a_branch2a
I0316 16:32:41.515311 16042 net.cpp:150] Setting up res2a_branch2a
I0316 16:32:41.515346 16042 net.cpp:157] Top shape: 8 64 56 56 (1605632)
I0316 16:32:41.515363 16042 net.cpp:165] Memory required for data: 210338752
I0316 16:32:41.515385 16042 layer_factory.hpp:77] Creating layer bn2a_branch2a
I0316 16:32:41.515409 16042 net.cpp:106] Creating Layer bn2a_branch2a
I0316 16:32:41.515429 16042 net.cpp:454] bn2a_branch2a <- res2a_branch2a
I0316 16:32:41.515456 16042 net.cpp:397] bn2a_branch2a -> res2a_branch2a (in-place)
I0316 16:32:41.515862 16042 net.cpp:150] Setting up bn2a_branch2a
I0316 16:32:41.515895 16042 net.cpp:157] Top shape: 8 64 56 56 (1605632)
I0316 16:32:41.515913 16042 net.cpp:165] Memory required for data: 216761280
I0316 16:32:41.515950 16042 layer_factory.hpp:77] Creating layer scale2a_branch2a
I0316 16:32:41.515982 16042 net.cpp:106] Creating Layer scale2a_branch2a
I0316 16:32:41.516003 16042 net.cpp:454] scale2a_branch2a <- res2a_branch2a
I0316 16:32:41.516026 16042 net.cpp:397] scale2a_branch2a -> res2a_branch2a (in-place)
I0316 16:32:41.516127 16042 layer_factory.hpp:77] Creating layer scale2a_branch2a
I0316 16:32:41.516396 16042 net.cpp:150] Setting up scale2a_branch2a
I0316 16:32:41.516430 16042 net.cpp:157] Top shape: 8 64 56 56 (1605632)
I0316 16:32:41.516448 16042 net.cpp:165] Memory required for data: 223183808
I0316 16:32:41.516474 16042 layer_factory.hpp:77] Creating layer res2a_branch2a_relu
I0316 16:32:41.516499 16042 net.cpp:106] Creating Layer res2a_branch2a_relu
I0316 16:32:41.516517 16042 net.cpp:454] res2a_branch2a_relu <- res2a_branch2a
I0316 16:32:41.516543 16042 net.cpp:397] res2a_branch2a_relu -> res2a_branch2a (in-place)
I0316 16:32:41.516569 16042 net.cpp:150] Setting up res2a_branch2a_relu
I0316 16:32:41.516592 16042 net.cpp:157] Top shape: 8 64 56 56 (1605632)
I0316 16:32:41.516609 16042 net.cpp:165] Memory required for data: 229606336
I0316 16:32:41.516647 16042 layer_factory.hpp:77] Creating layer res2a_branch2b
I0316 16:32:41.516682 16042 net.cpp:106] Creating Layer res2a_branch2b
I0316 16:32:41.516703 16042 net.cpp:454] res2a_branch2b <- res2a_branch2a
I0316 16:32:41.516726 16042 net.cpp:411] res2a_branch2b -> res2a_branch2b
I0316 16:32:41.518286 16042 net.cpp:150] Setting up res2a_branch2b
I0316 16:32:41.518331 16042 net.cpp:157] Top shape: 8 64 56 56 (1605632)
I0316 16:32:41.518350 16042 net.cpp:165] Memory required for data: 236028864
I0316 16:32:41.518374 16042 layer_factory.hpp:77] Creating layer bn2a_branch2b
I0316 16:32:41.518404 16042 net.cpp:106] Creating Layer bn2a_branch2b
I0316 16:32:41.518424 16042 net.cpp:454] bn2a_branch2b <- res2a_branch2b
I0316 16:32:41.518447 16042 net.cpp:397] bn2a_branch2b -> res2a_branch2b (in-place)
I0316 16:32:41.518863 16042 net.cpp:150] Setting up bn2a_branch2b
I0316 16:32:41.518898 16042 net.cpp:157] Top shape: 8 64 56 56 (1605632)
I0316 16:32:41.518916 16042 net.cpp:165] Memory required for data: 242451392
I0316 16:32:41.518946 16042 layer_factory.hpp:77] Creating layer scale2a_branch2b
I0316 16:32:41.518971 16042 net.cpp:106] Creating Layer scale2a_branch2b
I0316 16:32:41.518991 16042 net.cpp:454] scale2a_branch2b <- res2a_branch2b
I0316 16:32:41.519013 16042 net.cpp:397] scale2a_branch2b -> res2a_branch2b (in-place)
I0316 16:32:41.521059 16042 layer_factory.hpp:77] Creating layer scale2a_branch2b
I0316 16:32:41.521373 16042 net.cpp:150] Setting up scale2a_branch2b
I0316 16:32:41.521411 16042 net.cpp:157] Top shape: 8 64 56 56 (1605632)
I0316 16:32:41.521430 16042 net.cpp:165] Memory required for data: 248873920
I0316 16:32:41.521458 16042 layer_factory.hpp:77] Creating layer res2a_branch2b_relu
I0316 16:32:41.521489 16042 net.cpp:106] Creating Layer res2a_branch2b_relu
I0316 16:32:41.521524 16042 net.cpp:454] res2a_branch2b_relu <- res2a_branch2b
I0316 16:32:41.521569 16042 net.cpp:397] res2a_branch2b_relu -> res2a_branch2b (in-place)
I0316 16:32:41.521597 16042 net.cpp:150] Setting up res2a_branch2b_relu
I0316 16:32:41.521621 16042 net.cpp:157] Top shape: 8 64 56 56 (1605632)
I0316 16:32:41.521639 16042 net.cpp:165] Memory required for data: 255296448
I0316 16:32:41.521656 16042 layer_factory.hpp:77] Creating layer res2a_branch2c
I0316 16:32:41.521689 16042 net.cpp:106] Creating Layer res2a_branch2c
I0316 16:32:41.521710 16042 net.cpp:454] res2a_branch2c <- res2a_branch2b
I0316 16:32:41.521733 16042 net.cpp:411] res2a_branch2c -> res2a_branch2c
I0316 16:32:41.522132 16042 net.cpp:150] Setting up res2a_branch2c
I0316 16:32:41.522168 16042 net.cpp:157] Top shape: 8 256 56 56 (6422528)
I0316 16:32:41.522186 16042 net.cpp:165] Memory required for data: 280986560
I0316 16:32:41.522209 16042 layer_factory.hpp:77] Creating layer bn2a_branch2c
I0316 16:32:41.522241 16042 net.cpp:106] Creating Layer bn2a_branch2c
I0316 16:32:41.522263 16042 net.cpp:454] bn2a_branch2c <- res2a_branch2c
I0316 16:32:41.522284 16042 net.cpp:397] bn2a_branch2c -> res2a_branch2c (in-place)
I0316 16:32:41.522667 16042 net.cpp:150] Setting up bn2a_branch2c
I0316 16:32:41.522701 16042 net.cpp:157] Top shape: 8 256 56 56 (6422528)
I0316 16:32:41.522718 16042 net.cpp:165] Memory required for data: 306676672
I0316 16:32:41.522747 16042 layer_factory.hpp:77] Creating layer scale2a_branch2c
I0316 16:32:41.522779 16042 net.cpp:106] Creating Layer scale2a_branch2c
I0316 16:32:41.522799 16042 net.cpp:454] scale2a_branch2c <- res2a_branch2c
I0316 16:32:41.522821 16042 net.cpp:397] scale2a_branch2c -> res2a_branch2c (in-place)
I0316 16:32:41.522923 16042 layer_factory.hpp:77] Creating layer scale2a_branch2c
I0316 16:32:41.523185 16042 net.cpp:150] Setting up scale2a_branch2c
I0316 16:32:41.523217 16042 net.cpp:157] Top shape: 8 256 56 56 (6422528)
I0316 16:32:41.523236 16042 net.cpp:165] Memory required for data: 332366784
I0316 16:32:41.523260 16042 layer_factory.hpp:77] Creating layer res2a
I0316 16:32:41.523293 16042 net.cpp:106] Creating Layer res2a
I0316 16:32:41.523313 16042 net.cpp:454] res2a <- res2a_branch1
I0316 16:32:41.523334 16042 net.cpp:454] res2a <- res2a_branch2c
I0316 16:32:41.523361 16042 net.cpp:411] res2a -> res2a
I0316 16:32:41.523443 16042 net.cpp:150] Setting up res2a
I0316 16:32:41.523483 16042 net.cpp:157] Top shape: 8 256 56 56 (6422528)
I0316 16:32:41.523502 16042 net.cpp:165] Memory required for data: 358056896
I0316 16:32:41.523520 16042 layer_factory.hpp:77] Creating layer res2a_relu
I0316 16:32:41.523542 16042 net.cpp:106] Creating Layer res2a_relu
I0316 16:32:41.523561 16042 net.cpp:454] res2a_relu <- res2a
I0316 16:32:41.523582 16042 net.cpp:397] res2a_relu -> res2a (in-place)
I0316 16:32:41.523607 16042 net.cpp:150] Setting up res2a_relu
I0316 16:32:41.523628 16042 net.cpp:157] Top shape: 8 256 56 56 (6422528)
I0316 16:32:41.523645 16042 net.cpp:165] Memory required for data: 383747008
I0316 16:32:41.523663 16042 layer_factory.hpp:77] Creating layer res2a_res2a_relu_0_split
I0316 16:32:41.523684 16042 net.cpp:106] Creating Layer res2a_res2a_relu_0_split
I0316 16:32:41.523702 16042 net.cpp:454] res2a_res2a_relu_0_split <- res2a
I0316 16:32:41.523736 16042 net.cpp:411] res2a_res2a_relu_0_split -> res2a_res2a_relu_0_split_0
I0316 16:32:41.523764 16042 net.cpp:411] res2a_res2a_relu_0_split -> res2a_res2a_relu_0_split_1
I0316 16:32:41.523847 16042 net.cpp:150] Setting up res2a_res2a_relu_0_split
I0316 16:32:41.523876 16042 net.cpp:157] Top shape: 8 256 56 56 (6422528)
I0316 16:32:41.523897 16042 net.cpp:157] Top shape: 8 256 56 56 (6422528)
I0316 16:32:41.523913 16042 net.cpp:165] Memory required for data: 435127232
I0316 16:32:41.523931 16042 layer_factory.hpp:77] Creating layer res2b_branch2a
I0316 16:32:41.523969 16042 net.cpp:106] Creating Layer res2b_branch2a
I0316 16:32:41.523990 16042 net.cpp:454] res2b_branch2a <- res2a_res2a_relu_0_split_0
I0316 16:32:41.524014 16042 net.cpp:411] res2b_branch2a -> res2b_branch2a
I0316 16:32:41.524418 16042 net.cpp:150] Setting up res2b_branch2a
I0316 16:32:41.524472 16042 net.cpp:157] Top shape: 8 64 56 56 (1605632)
I0316 16:32:41.524490 16042 net.cpp:165] Memory required for data: 441549760
I0316 16:32:41.524513 16042 layer_factory.hpp:77] Creating layer bn2b_branch2a
I0316 16:32:41.524538 16042 net.cpp:106] Creating Layer bn2b_branch2a
I0316 16:32:41.524555 16042 net.cpp:454] bn2b_branch2a <- res2b_branch2a
I0316 16:32:41.524577 16042 net.cpp:397] bn2b_branch2a -> res2b_branch2a (in-place)
I0316 16:32:41.524991 16042 net.cpp:150] Setting up bn2b_branch2a
I0316 16:32:41.525027 16042 net.cpp:157] Top shape: 8 64 56 56 (1605632)
I0316 16:32:41.525044 16042 net.cpp:165] Memory required for data: 447972288
I0316 16:32:41.525084 16042 layer_factory.hpp:77] Creating layer scale2b_branch2a
I0316 16:32:41.525120 16042 net.cpp:106] Creating Layer scale2b_branch2a
I0316 16:32:41.525141 16042 net.cpp:454] scale2b_branch2a <- res2b_branch2a
I0316 16:32:41.525163 16042 net.cpp:397] scale2b_branch2a -> res2b_branch2a (in-place)
I0316 16:32:41.525274 16042 layer_factory.hpp:77] Creating layer scale2b_branch2a
I0316 16:32:41.525547 16042 net.cpp:150] Setting up scale2b_branch2a
I0316 16:32:41.525578 16042 net.cpp:157] Top shape: 8 64 56 56 (1605632)
I0316 16:32:41.525596 16042 net.cpp:165] Memory required for data: 454394816
I0316 16:32:41.525621 16042 layer_factory.hpp:77] Creating layer res2b_branch2a_relu
I0316 16:32:41.525650 16042 net.cpp:106] Creating Layer res2b_branch2a_relu
I0316 16:32:41.525671 16042 net.cpp:454] res2b_branch2a_relu <- res2b_branch2a
I0316 16:32:41.525692 16042 net.cpp:397] res2b_branch2a_relu -> res2b_branch2a (in-place)
I0316 16:32:41.525717 16042 net.cpp:150] Setting up res2b_branch2a_relu
I0316 16:32:41.525739 16042 net.cpp:157] Top shape: 8 64 56 56 (1605632)
I0316 16:32:41.525756 16042 net.cpp:165] Memory required for data: 460817344
I0316 16:32:41.525774 16042 layer_factory.hpp:77] Creating layer res2b_branch2b
I0316 16:32:41.525804 16042 net.cpp:106] Creating Layer res2b_branch2b
I0316 16:32:41.525825 16042 net.cpp:454] res2b_branch2b <- res2b_branch2a
I0316 16:32:41.525847 16042 net.cpp:411] res2b_branch2b -> res2b_branch2b
I0316 16:32:41.526265 16042 net.cpp:150] Setting up res2b_branch2b
I0316 16:32:41.526301 16042 net.cpp:157] Top shape: 8 64 56 56 (1605632)
I0316 16:32:41.526319 16042 net.cpp:165] Memory required for data: 467239872
I0316 16:32:41.526342 16042 layer_factory.hpp:77] Creating layer bn2b_branch2b
I0316 16:32:41.526367 16042 net.cpp:106] Creating Layer bn2b_branch2b
I0316 16:32:41.526386 16042 net.cpp:454] bn2b_branch2b <- res2b_branch2b
I0316 16:32:41.526414 16042 net.cpp:397] bn2b_branch2b -> res2b_branch2b (in-place)
I0316 16:32:41.526832 16042 net.cpp:150] Setting up bn2b_branch2b
I0316 16:32:41.526866 16042 net.cpp:157] Top shape: 8 64 56 56 (1605632)
I0316 16:32:41.526885 16042 net.cpp:165] Memory required for data: 473662400
I0316 16:32:41.526913 16042 layer_factory.hpp:77] Creating layer scale2b_branch2b
I0316 16:32:41.526938 16042 net.cpp:106] Creating Layer scale2b_branch2b
I0316 16:32:41.526957 16042 net.cpp:454] scale2b_branch2b <- res2b_branch2b
I0316 16:32:41.526985 16042 net.cpp:397] scale2b_branch2b -> res2b_branch2b (in-place)
I0316 16:32:41.527086 16042 layer_factory.hpp:77] Creating layer scale2b_branch2b
I0316 16:32:41.527359 16042 net.cpp:150] Setting up scale2b_branch2b
I0316 16:32:41.527391 16042 net.cpp:157] Top shape: 8 64 56 56 (1605632)
I0316 16:32:41.527410 16042 net.cpp:165] Memory required for data: 480084928
I0316 16:32:41.527434 16042 layer_factory.hpp:77] Creating layer res2b_branch2b_relu
I0316 16:32:41.527469 16042 net.cpp:106] Creating Layer res2b_branch2b_relu
I0316 16:32:41.527492 16042 net.cpp:454] res2b_branch2b_relu <- res2b_branch2b
I0316 16:32:41.527513 16042 net.cpp:397] res2b_branch2b_relu -> res2b_branch2b (in-place)
I0316 16:32:41.527539 16042 net.cpp:150] Setting up res2b_branch2b_relu
I0316 16:32:41.527561 16042 net.cpp:157] Top shape: 8 64 56 56 (1605632)
I0316 16:32:41.527578 16042 net.cpp:165] Memory required for data: 486507456
I0316 16:32:41.527608 16042 layer_factory.hpp:77] Creating layer res2b_branch2c
I0316 16:32:41.527662 16042 net.cpp:106] Creating Layer res2b_branch2c
I0316 16:32:41.527683 16042 net.cpp:454] res2b_branch2c <- res2b_branch2b
I0316 16:32:41.527707 16042 net.cpp:411] res2b_branch2c -> res2b_branch2c
I0316 16:32:41.528100 16042 net.cpp:150] Setting up res2b_branch2c
I0316 16:32:41.528136 16042 net.cpp:157] Top shape: 8 256 56 56 (6422528)
I0316 16:32:41.528153 16042 net.cpp:165] Memory required for data: 512197568
I0316 16:32:41.528177 16042 layer_factory.hpp:77] Creating layer bn2b_branch2c
I0316 16:32:41.528200 16042 net.cpp:106] Creating Layer bn2b_branch2c
I0316 16:32:41.528219 16042 net.cpp:454] bn2b_branch2c <- res2b_branch2c
I0316 16:32:41.528246 16042 net.cpp:397] bn2b_branch2c -> res2b_branch2c (in-place)
I0316 16:32:41.528647 16042 net.cpp:150] Setting up bn2b_branch2c
I0316 16:32:41.528683 16042 net.cpp:157] Top shape: 8 256 56 56 (6422528)
I0316 16:32:41.528702 16042 net.cpp:165] Memory required for data: 537887680
I0316 16:32:41.528731 16042 layer_factory.hpp:77] Creating layer scale2b_branch2c
I0316 16:32:41.528756 16042 net.cpp:106] Creating Layer scale2b_branch2c
I0316 16:32:41.528774 16042 net.cpp:454] scale2b_branch2c <- res2b_branch2c
I0316 16:32:41.528796 16042 net.cpp:397] scale2b_branch2c -> res2b_branch2c (in-place)
I0316 16:32:41.528899 16042 layer_factory.hpp:77] Creating layer scale2b_branch2c
I0316 16:32:41.529155 16042 net.cpp:150] Setting up scale2b_branch2c
I0316 16:32:41.529187 16042 net.cpp:157] Top shape: 8 256 56 56 (6422528)
I0316 16:32:41.529207 16042 net.cpp:165] Memory required for data: 563577792
I0316 16:32:41.529233 16042 layer_factory.hpp:77] Creating layer res2b
I0316 16:32:41.529263 16042 net.cpp:106] Creating Layer res2b
I0316 16:32:41.529283 16042 net.cpp:454] res2b <- res2a_res2a_relu_0_split_1
I0316 16:32:41.529304 16042 net.cpp:454] res2b <- res2b_branch2c
I0316 16:32:41.529345 16042 net.cpp:411] res2b -> res2b
I0316 16:32:41.529470 16042 net.cpp:150] Setting up res2b
I0316 16:32:41.529503 16042 net.cpp:157] Top shape: 8 256 56 56 (6422528)
I0316 16:32:41.529521 16042 net.cpp:165] Memory required for data: 589267904
I0316 16:32:41.529539 16042 layer_factory.hpp:77] Creating layer res2b_relu
I0316 16:32:41.529562 16042 net.cpp:106] Creating Layer res2b_relu
I0316 16:32:41.529582 16042 net.cpp:454] res2b_relu <- res2b
I0316 16:32:41.529608 16042 net.cpp:397] res2b_relu -> res2b (in-place)
I0316 16:32:41.529634 16042 net.cpp:150] Setting up res2b_relu
I0316 16:32:41.529656 16042 net.cpp:157] Top shape: 8 256 56 56 (6422528)
I0316 16:32:41.529675 16042 net.cpp:165] Memory required for data: 614958016
I0316 16:32:41.529691 16042 layer_factory.hpp:77] Creating layer res2b_res2b_relu_0_split
I0316 16:32:41.529713 16042 net.cpp:106] Creating Layer res2b_res2b_relu_0_split
I0316 16:32:41.529731 16042 net.cpp:454] res2b_res2b_relu_0_split <- res2b
I0316 16:32:41.529752 16042 net.cpp:411] res2b_res2b_relu_0_split -> res2b_res2b_relu_0_split_0
I0316 16:32:41.529777 16042 net.cpp:411] res2b_res2b_relu_0_split -> res2b_res2b_relu_0_split_1
I0316 16:32:41.529867 16042 net.cpp:150] Setting up res2b_res2b_relu_0_split
I0316 16:32:41.529896 16042 net.cpp:157] Top shape: 8 256 56 56 (6422528)
I0316 16:32:41.529917 16042 net.cpp:157] Top shape: 8 256 56 56 (6422528)
I0316 16:32:41.529933 16042 net.cpp:165] Memory required for data: 666338240
I0316 16:32:41.529950 16042 layer_factory.hpp:77] Creating layer res2c_branch2a
I0316 16:32:41.529989 16042 net.cpp:106] Creating Layer res2c_branch2a
I0316 16:32:41.530010 16042 net.cpp:454] res2c_branch2a <- res2b_res2b_relu_0_split_0
I0316 16:32:41.530033 16042 net.cpp:411] res2c_branch2a -> res2c_branch2a
I0316 16:32:41.530437 16042 net.cpp:150] Setting up res2c_branch2a
I0316 16:32:41.530472 16042 net.cpp:157] Top shape: 8 64 56 56 (1605632)
I0316 16:32:41.530490 16042 net.cpp:165] Memory required for data: 672760768
I0316 16:32:41.530514 16042 layer_factory.hpp:77] Creating layer bn2c_branch2a
I0316 16:32:41.530537 16042 net.cpp:106] Creating Layer bn2c_branch2a
I0316 16:32:41.530586 16042 net.cpp:454] bn2c_branch2a <- res2c_branch2a
I0316 16:32:41.530611 16042 net.cpp:397] bn2c_branch2a -> res2c_branch2a (in-place)
I0316 16:32:41.531021 16042 net.cpp:150] Setting up bn2c_branch2a
I0316 16:32:41.531054 16042 net.cpp:157] Top shape: 8 64 56 56 (1605632)
I0316 16:32:41.531072 16042 net.cpp:165] Memory required for data: 679183296
I0316 16:32:41.531101 16042 layer_factory.hpp:77] Creating layer scale2c_branch2a
I0316 16:32:41.531127 16042 net.cpp:106] Creating Layer scale2c_branch2a
I0316 16:32:41.531146 16042 net.cpp:454] scale2c_branch2a <- res2c_branch2a
I0316 16:32:41.531167 16042 net.cpp:397] scale2c_branch2a -> res2c_branch2a (in-place)
I0316 16:32:41.531275 16042 layer_factory.hpp:77] Creating layer scale2c_branch2a
I0316 16:32:41.531539 16042 net.cpp:150] Setting up scale2c_branch2a
I0316 16:32:41.531572 16042 net.cpp:157] Top shape: 8 64 56 56 (1605632)
I0316 16:32:41.531590 16042 net.cpp:165] Memory required for data: 685605824
I0316 16:32:41.531615 16042 layer_factory.hpp:77] Creating layer res2c_branch2a_relu
I0316 16:32:41.531646 16042 net.cpp:106] Creating Layer res2c_branch2a_relu
I0316 16:32:41.531667 16042 net.cpp:454] res2c_branch2a_relu <- res2c_branch2a
I0316 16:32:41.531689 16042 net.cpp:397] res2c_branch2a_relu -> res2c_branch2a (in-place)
I0316 16:32:41.531713 16042 net.cpp:150] Setting up res2c_branch2a_relu
I0316 16:32:41.531736 16042 net.cpp:157] Top shape: 8 64 56 56 (1605632)
I0316 16:32:41.531754 16042 net.cpp:165] Memory required for data: 692028352
I0316 16:32:41.531770 16042 layer_factory.hpp:77] Creating layer res2c_branch2b
I0316 16:32:41.531802 16042 net.cpp:106] Creating Layer res2c_branch2b
I0316 16:32:41.531821 16042 net.cpp:454] res2c_branch2b <- res2c_branch2a
I0316 16:32:41.531846 16042 net.cpp:411] res2c_branch2b -> res2c_branch2b
I0316 16:32:41.532299 16042 net.cpp:150] Setting up res2c_branch2b
I0316 16:32:41.532335 16042 net.cpp:157] Top shape: 8 64 56 56 (1605632)
I0316 16:32:41.532352 16042 net.cpp:165] Memory required for data: 698450880
I0316 16:32:41.532376 16042 layer_factory.hpp:77] Creating layer bn2c_branch2b
I0316 16:32:41.532405 16042 net.cpp:106] Creating Layer bn2c_branch2b
I0316 16:32:41.532426 16042 net.cpp:454] bn2c_branch2b <- res2c_branch2b
I0316 16:32:41.532449 16042 net.cpp:397] bn2c_branch2b -> res2c_branch2b (in-place)
I0316 16:32:41.532883 16042 net.cpp:150] Setting up bn2c_branch2b
I0316 16:32:41.532946 16042 net.cpp:157] Top shape: 8 64 56 56 (1605632)
I0316 16:32:41.532964 16042 net.cpp:165] Memory required for data: 704873408
I0316 16:32:41.532994 16042 layer_factory.hpp:77] Creating layer scale2c_branch2b
I0316 16:32:41.533025 16042 net.cpp:106] Creating Layer scale2c_branch2b
I0316 16:32:41.533046 16042 net.cpp:454] scale2c_branch2b <- res2c_branch2b
I0316 16:32:41.533068 16042 net.cpp:397] scale2c_branch2b -> res2c_branch2b (in-place)
I0316 16:32:41.535287 16042 layer_factory.hpp:77] Creating layer scale2c_branch2b
I0316 16:32:41.535615 16042 net.cpp:150] Setting up scale2c_branch2b
I0316 16:32:41.535655 16042 net.cpp:157] Top shape: 8 64 56 56 (1605632)
I0316 16:32:41.535675 16042 net.cpp:165] Memory required for data: 711295936
I0316 16:32:41.535704 16042 layer_factory.hpp:77] Creating layer res2c_branch2b_relu
I0316 16:32:41.535729 16042 net.cpp:106] Creating Layer res2c_branch2b_relu
I0316 16:32:41.535749 16042 net.cpp:454] res2c_branch2b_relu <- res2c_branch2b
I0316 16:32:41.535779 16042 net.cpp:397] res2c_branch2b_relu -> res2c_branch2b (in-place)
I0316 16:32:41.535807 16042 net.cpp:150] Setting up res2c_branch2b_relu
I0316 16:32:41.535830 16042 net.cpp:157] Top shape: 8 64 56 56 (1605632)
I0316 16:32:41.535847 16042 net.cpp:165] Memory required for data: 717718464
I0316 16:32:41.535866 16042 layer_factory.hpp:77] Creating layer res2c_branch2c
I0316 16:32:41.535892 16042 net.cpp:106] Creating Layer res2c_branch2c
I0316 16:32:41.535912 16042 net.cpp:454] res2c_branch2c <- res2c_branch2b
I0316 16:32:41.535941 16042 net.cpp:411] res2c_branch2c -> res2c_branch2c
I0316 16:32:41.536368 16042 net.cpp:150] Setting up res2c_branch2c
I0316 16:32:41.536425 16042 net.cpp:157] Top shape: 8 256 56 56 (6422528)
I0316 16:32:41.536445 16042 net.cpp:165] Memory required for data: 743408576
I0316 16:32:41.536468 16042 layer_factory.hpp:77] Creating layer bn2c_branch2c
I0316 16:32:41.536499 16042 net.cpp:106] Creating Layer bn2c_branch2c
I0316 16:32:41.536520 16042 net.cpp:454] bn2c_branch2c <- res2c_branch2c
I0316 16:32:41.536551 16042 net.cpp:397] bn2c_branch2c -> res2c_branch2c (in-place)
I0316 16:32:41.536962 16042 net.cpp:150] Setting up bn2c_branch2c
I0316 16:32:41.536999 16042 net.cpp:157] Top shape: 8 256 56 56 (6422528)
I0316 16:32:41.537017 16042 net.cpp:165] Memory required for data: 769098688
I0316 16:32:41.537070 16042 layer_factory.hpp:77] Creating layer scale2c_branch2c
I0316 16:32:41.537098 16042 net.cpp:106] Creating Layer scale2c_branch2c
I0316 16:32:41.537117 16042 net.cpp:454] scale2c_branch2c <- res2c_branch2c
I0316 16:32:41.537140 16042 net.cpp:397] scale2c_branch2c -> res2c_branch2c (in-place)
I0316 16:32:41.537253 16042 layer_factory.hpp:77] Creating layer scale2c_branch2c
I0316 16:32:41.537509 16042 net.cpp:150] Setting up scale2c_branch2c
I0316 16:32:41.537544 16042 net.cpp:157] Top shape: 8 256 56 56 (6422528)
I0316 16:32:41.537561 16042 net.cpp:165] Memory required for data: 794788800
I0316 16:32:41.537587 16042 layer_factory.hpp:77] Creating layer res2c
I0316 16:32:41.537618 16042 net.cpp:106] Creating Layer res2c
I0316 16:32:41.537638 16042 net.cpp:454] res2c <- res2b_res2b_relu_0_split_1
I0316 16:32:41.537659 16042 net.cpp:454] res2c <- res2c_branch2c
I0316 16:32:41.537681 16042 net.cpp:411] res2c -> res2c
I0316 16:32:41.537745 16042 net.cpp:150] Setting up res2c
I0316 16:32:41.537775 16042 net.cpp:157] Top shape: 8 256 56 56 (6422528)
I0316 16:32:41.537792 16042 net.cpp:165] Memory required for data: 820478912
I0316 16:32:41.537809 16042 layer_factory.hpp:77] Creating layer res2c_relu
I0316 16:32:41.537838 16042 net.cpp:106] Creating Layer res2c_relu
I0316 16:32:41.537858 16042 net.cpp:454] res2c_relu <- res2c
I0316 16:32:41.537879 16042 net.cpp:397] res2c_relu -> res2c (in-place)
I0316 16:32:41.537904 16042 net.cpp:150] Setting up res2c_relu
I0316 16:32:41.537925 16042 net.cpp:157] Top shape: 8 256 56 56 (6422528)
I0316 16:32:41.537943 16042 net.cpp:165] Memory required for data: 846169024
I0316 16:32:41.537961 16042 layer_factory.hpp:77] Creating layer res2c_res2c_relu_0_split
I0316 16:32:41.537984 16042 net.cpp:106] Creating Layer res2c_res2c_relu_0_split
I0316 16:32:41.538002 16042 net.cpp:454] res2c_res2c_relu_0_split <- res2c
I0316 16:32:41.538024 16042 net.cpp:411] res2c_res2c_relu_0_split -> res2c_res2c_relu_0_split_0
I0316 16:32:41.538048 16042 net.cpp:411] res2c_res2c_relu_0_split -> res2c_res2c_relu_0_split_1
I0316 16:32:41.538146 16042 net.cpp:150] Setting up res2c_res2c_relu_0_split
I0316 16:32:41.538177 16042 net.cpp:157] Top shape: 8 256 56 56 (6422528)
I0316 16:32:41.538197 16042 net.cpp:157] Top shape: 8 256 56 56 (6422528)
I0316 16:32:41.538213 16042 net.cpp:165] Memory required for data: 897549248
I0316 16:32:41.538231 16042 layer_factory.hpp:77] Creating layer res3a_branch1
I0316 16:32:41.538264 16042 net.cpp:106] Creating Layer res3a_branch1
I0316 16:32:41.538285 16042 net.cpp:454] res3a_branch1 <- res2c_res2c_relu_0_split_0
I0316 16:32:41.538307 16042 net.cpp:411] res3a_branch1 -> res3a_branch1
I0316 16:32:41.539995 16042 net.cpp:150] Setting up res3a_branch1
I0316 16:32:41.540040 16042 net.cpp:157] Top shape: 8 512 28 28 (3211264)
I0316 16:32:41.540058 16042 net.cpp:165] Memory required for data: 910394304
I0316 16:32:41.540082 16042 layer_factory.hpp:77] Creating layer bn3a_branch1
I0316 16:32:41.540107 16042 net.cpp:106] Creating Layer bn3a_branch1
I0316 16:32:41.540127 16042 net.cpp:454] bn3a_branch1 <- res3a_branch1
I0316 16:32:41.540155 16042 net.cpp:397] bn3a_branch1 -> res3a_branch1 (in-place)
I0316 16:32:41.541682 16042 net.cpp:150] Setting up bn3a_branch1
I0316 16:32:41.541728 16042 net.cpp:157] Top shape: 8 512 28 28 (3211264)
I0316 16:32:41.541759 16042 net.cpp:165] Memory required for data: 923239360
I0316 16:32:41.541810 16042 layer_factory.hpp:77] Creating layer scale3a_branch1
I0316 16:32:41.541849 16042 net.cpp:106] Creating Layer scale3a_branch1
I0316 16:32:41.541872 16042 net.cpp:454] scale3a_branch1 <- res3a_branch1
I0316 16:32:41.541894 16042 net.cpp:397] scale3a_branch1 -> res3a_branch1 (in-place)
I0316 16:32:41.542009 16042 layer_factory.hpp:77] Creating layer scale3a_branch1
I0316 16:32:41.542295 16042 net.cpp:150] Setting up scale3a_branch1
I0316 16:32:41.542331 16042 net.cpp:157] Top shape: 8 512 28 28 (3211264)
I0316 16:32:41.542349 16042 net.cpp:165] Memory required for data: 936084416
I0316 16:32:41.542376 16042 layer_factory.hpp:77] Creating layer res3a_branch2a
I0316 16:32:41.542404 16042 net.cpp:106] Creating Layer res3a_branch2a
I0316 16:32:41.542425 16042 net.cpp:454] res3a_branch2a <- res2c_res2c_relu_0_split_1
I0316 16:32:41.542455 16042 net.cpp:411] res3a_branch2a -> res3a_branch2a
I0316 16:32:41.542888 16042 net.cpp:150] Setting up res3a_branch2a
I0316 16:32:41.542924 16042 net.cpp:157] Top shape: 8 128 28 28 (802816)
I0316 16:32:41.542943 16042 net.cpp:165] Memory required for data: 939295680
I0316 16:32:41.542964 16042 layer_factory.hpp:77] Creating layer bn3a_branch2a
I0316 16:32:41.542994 16042 net.cpp:106] Creating Layer bn3a_branch2a
I0316 16:32:41.543015 16042 net.cpp:454] bn3a_branch2a <- res3a_branch2a
I0316 16:32:41.543037 16042 net.cpp:397] bn3a_branch2a -> res3a_branch2a (in-place)
I0316 16:32:41.543422 16042 net.cpp:150] Setting up bn3a_branch2a
I0316 16:32:41.543454 16042 net.cpp:157] Top shape: 8 128 28 28 (802816)
I0316 16:32:41.543473 16042 net.cpp:165] Memory required for data: 942506944
I0316 16:32:41.543503 16042 layer_factory.hpp:77] Creating layer scale3a_branch2a
I0316 16:32:41.543527 16042 net.cpp:106] Creating Layer scale3a_branch2a
I0316 16:32:41.543546 16042 net.cpp:454] scale3a_branch2a <- res3a_branch2a
I0316 16:32:41.543575 16042 net.cpp:397] scale3a_branch2a -> res3a_branch2a (in-place)
I0316 16:32:41.543678 16042 layer_factory.hpp:77] Creating layer scale3a_branch2a
I0316 16:32:41.543931 16042 net.cpp:150] Setting up scale3a_branch2a
I0316 16:32:41.543963 16042 net.cpp:157] Top shape: 8 128 28 28 (802816)
I0316 16:32:41.543982 16042 net.cpp:165] Memory required for data: 945718208
I0316 16:32:41.544006 16042 layer_factory.hpp:77] Creating layer res3a_branch2a_relu
I0316 16:32:41.544030 16042 net.cpp:106] Creating Layer res3a_branch2a_relu
I0316 16:32:41.544049 16042 net.cpp:454] res3a_branch2a_relu <- res3a_branch2a
I0316 16:32:41.544071 16042 net.cpp:397] res3a_branch2a_relu -> res3a_branch2a (in-place)
I0316 16:32:41.544096 16042 net.cpp:150] Setting up res3a_branch2a_relu
I0316 16:32:41.544118 16042 net.cpp:157] Top shape: 8 128 28 28 (802816)
I0316 16:32:41.544136 16042 net.cpp:165] Memory required for data: 948929472
I0316 16:32:41.544152 16042 layer_factory.hpp:77] Creating layer res3a_branch2b
I0316 16:32:41.544184 16042 net.cpp:106] Creating Layer res3a_branch2b
I0316 16:32:41.544205 16042 net.cpp:454] res3a_branch2b <- res3a_branch2a
I0316 16:32:41.544234 16042 net.cpp:411] res3a_branch2b -> res3a_branch2b
I0316 16:32:41.545938 16042 net.cpp:150] Setting up res3a_branch2b
I0316 16:32:41.545982 16042 net.cpp:157] Top shape: 8 128 28 28 (802816)
I0316 16:32:41.546001 16042 net.cpp:165] Memory required for data: 952140736
I0316 16:32:41.546025 16042 layer_factory.hpp:77] Creating layer bn3a_branch2b
I0316 16:32:41.546056 16042 net.cpp:106] Creating Layer bn3a_branch2b
I0316 16:32:41.546077 16042 net.cpp:454] bn3a_branch2b <- res3a_branch2b
I0316 16:32:41.546100 16042 net.cpp:397] bn3a_branch2b -> res3a_branch2b (in-place)
I0316 16:32:41.546528 16042 net.cpp:150] Setting up bn3a_branch2b
I0316 16:32:41.546562 16042 net.cpp:157] Top shape: 8 128 28 28 (802816)
I0316 16:32:41.546581 16042 net.cpp:165] Memory required for data: 955352000
I0316 16:32:41.546610 16042 layer_factory.hpp:77] Creating layer scale3a_branch2b
I0316 16:32:41.546636 16042 net.cpp:106] Creating Layer scale3a_branch2b
I0316 16:32:41.546670 16042 net.cpp:454] scale3a_branch2b <- res3a_branch2b
I0316 16:32:41.546713 16042 net.cpp:397] scale3a_branch2b -> res3a_branch2b (in-place)
I0316 16:32:41.546834 16042 layer_factory.hpp:77] Creating layer scale3a_branch2b
I0316 16:32:41.547097 16042 net.cpp:150] Setting up scale3a_branch2b
I0316 16:32:41.547132 16042 net.cpp:157] Top shape: 8 128 28 28 (802816)
I0316 16:32:41.547149 16042 net.cpp:165] Memory required for data: 958563264
I0316 16:32:41.547174 16042 layer_factory.hpp:77] Creating layer res3a_branch2b_relu
I0316 16:32:41.547204 16042 net.cpp:106] Creating Layer res3a_branch2b_relu
I0316 16:32:41.547225 16042 net.cpp:454] res3a_branch2b_relu <- res3a_branch2b
I0316 16:32:41.547246 16042 net.cpp:397] res3a_branch2b_relu -> res3a_branch2b (in-place)
I0316 16:32:41.547271 16042 net.cpp:150] Setting up res3a_branch2b_relu
I0316 16:32:41.547294 16042 net.cpp:157] Top shape: 8 128 28 28 (802816)
I0316 16:32:41.547312 16042 net.cpp:165] Memory required for data: 961774528
I0316 16:32:41.547328 16042 layer_factory.hpp:77] Creating layer res3a_branch2c
I0316 16:32:41.547374 16042 net.cpp:106] Creating Layer res3a_branch2c
I0316 16:32:41.547395 16042 net.cpp:454] res3a_branch2c <- res3a_branch2b
I0316 16:32:41.547418 16042 net.cpp:411] res3a_branch2c -> res3a_branch2c
I0316 16:32:41.547907 16042 net.cpp:150] Setting up res3a_branch2c
I0316 16:32:41.547943 16042 net.cpp:157] Top shape: 8 512 28 28 (3211264)
I0316 16:32:41.547961 16042 net.cpp:165] Memory required for data: 974619584
I0316 16:32:41.547984 16042 layer_factory.hpp:77] Creating layer bn3a_branch2c
I0316 16:32:41.548009 16042 net.cpp:106] Creating Layer bn3a_branch2c
I0316 16:32:41.548028 16042 net.cpp:454] bn3a_branch2c <- res3a_branch2c
I0316 16:32:41.548050 16042 net.cpp:397] bn3a_branch2c -> res3a_branch2c (in-place)
I0316 16:32:41.548454 16042 net.cpp:150] Setting up bn3a_branch2c
I0316 16:32:41.548486 16042 net.cpp:157] Top shape: 8 512 28 28 (3211264)
I0316 16:32:41.548504 16042 net.cpp:165] Memory required for data: 987464640
I0316 16:32:41.548534 16042 layer_factory.hpp:77] Creating layer scale3a_branch2c
I0316 16:32:41.548560 16042 net.cpp:106] Creating Layer scale3a_branch2c
I0316 16:32:41.548579 16042 net.cpp:454] scale3a_branch2c <- res3a_branch2c
I0316 16:32:41.548601 16042 net.cpp:397] scale3a_branch2c -> res3a_branch2c (in-place)
I0316 16:32:41.548733 16042 layer_factory.hpp:77] Creating layer scale3a_branch2c
I0316 16:32:41.548987 16042 net.cpp:150] Setting up scale3a_branch2c
I0316 16:32:41.549021 16042 net.cpp:157] Top shape: 8 512 28 28 (3211264)
I0316 16:32:41.549039 16042 net.cpp:165] Memory required for data: 1000309696
I0316 16:32:41.549064 16042 layer_factory.hpp:77] Creating layer res3a
I0316 16:32:41.549094 16042 net.cpp:106] Creating Layer res3a
I0316 16:32:41.549115 16042 net.cpp:454] res3a <- res3a_branch1
I0316 16:32:41.549136 16042 net.cpp:454] res3a <- res3a_branch2c
I0316 16:32:41.549159 16042 net.cpp:411] res3a -> res3a
I0316 16:32:41.549230 16042 net.cpp:150] Setting up res3a
I0316 16:32:41.549260 16042 net.cpp:157] Top shape: 8 512 28 28 (3211264)
I0316 16:32:41.549278 16042 net.cpp:165] Memory required for data: 1013154752
I0316 16:32:41.549295 16042 layer_factory.hpp:77] Creating layer res3a_relu
I0316 16:32:41.549319 16042 net.cpp:106] Creating Layer res3a_relu
I0316 16:32:41.549337 16042 net.cpp:454] res3a_relu <- res3a
I0316 16:32:41.549365 16042 net.cpp:397] res3a_relu -> res3a (in-place)
I0316 16:32:41.549391 16042 net.cpp:150] Setting up res3a_relu
I0316 16:32:41.549412 16042 net.cpp:157] Top shape: 8 512 28 28 (3211264)
I0316 16:32:41.549429 16042 net.cpp:165] Memory required for data: 1025999808
I0316 16:32:41.549448 16042 layer_factory.hpp:77] Creating layer res3a_res3a_relu_0_split
I0316 16:32:41.549469 16042 net.cpp:106] Creating Layer res3a_res3a_relu_0_split
I0316 16:32:41.549487 16042 net.cpp:454] res3a_res3a_relu_0_split <- res3a
I0316 16:32:41.549510 16042 net.cpp:411] res3a_res3a_relu_0_split -> res3a_res3a_relu_0_split_0
I0316 16:32:41.549535 16042 net.cpp:411] res3a_res3a_relu_0_split -> res3a_res3a_relu_0_split_1
I0316 16:32:41.549655 16042 net.cpp:150] Setting up res3a_res3a_relu_0_split
I0316 16:32:41.549686 16042 net.cpp:157] Top shape: 8 512 28 28 (3211264)
I0316 16:32:41.549707 16042 net.cpp:157] Top shape: 8 512 28 28 (3211264)
I0316 16:32:41.549723 16042 net.cpp:165] Memory required for data: 1051689920
I0316 16:32:41.549741 16042 layer_factory.hpp:77] Creating layer res3b_branch2a
I0316 16:32:41.549768 16042 net.cpp:106] Creating Layer res3b_branch2a
I0316 16:32:41.549787 16042 net.cpp:454] res3b_branch2a <- res3a_res3a_relu_0_split_0
I0316 16:32:41.549818 16042 net.cpp:411] res3b_branch2a -> res3b_branch2a
I0316 16:32:41.551393 16042 net.cpp:150] Setting up res3b_branch2a
I0316 16:32:41.551434 16042 net.cpp:157] Top shape: 8 128 28 28 (802816)
I0316 16:32:41.551455 16042 net.cpp:165] Memory required for data: 1054901184
I0316 16:32:41.551478 16042 layer_factory.hpp:77] Creating layer bn3b_branch2a
I0316 16:32:41.551504 16042 net.cpp:106] Creating Layer bn3b_branch2a
I0316 16:32:41.551524 16042 net.cpp:454] bn3b_branch2a <- res3b_branch2a
I0316 16:32:41.551559 16042 net.cpp:397] bn3b_branch2a -> res3b_branch2a (in-place)
I0316 16:32:41.551965 16042 net.cpp:150] Setting up bn3b_branch2a
I0316 16:32:41.552000 16042 net.cpp:157] Top shape: 8 128 28 28 (802816)
I0316 16:32:41.552017 16042 net.cpp:165] Memory required for data: 1058112448
I0316 16:32:41.552047 16042 layer_factory.hpp:77] Creating layer scale3b_branch2a
I0316 16:32:41.552073 16042 net.cpp:106] Creating Layer scale3b_branch2a
I0316 16:32:41.552093 16042 net.cpp:454] scale3b_branch2a <- res3b_branch2a
I0316 16:32:41.552115 16042 net.cpp:397] scale3b_branch2a -> res3b_branch2a (in-place)
I0316 16:32:41.552222 16042 layer_factory.hpp:77] Creating layer scale3b_branch2a
I0316 16:32:41.552489 16042 net.cpp:150] Setting up scale3b_branch2a
I0316 16:32:41.552521 16042 net.cpp:157] Top shape: 8 128 28 28 (802816)
I0316 16:32:41.552538 16042 net.cpp:165] Memory required for data: 1061323712
I0316 16:32:41.552564 16042 layer_factory.hpp:77] Creating layer res3b_branch2a_relu
I0316 16:32:41.552587 16042 net.cpp:106] Creating Layer res3b_branch2a_relu
I0316 16:32:41.552608 16042 net.cpp:454] res3b_branch2a_relu <- res3b_branch2a
I0316 16:32:41.552654 16042 net.cpp:397] res3b_branch2a_relu -> res3b_branch2a (in-place)
I0316 16:32:41.552681 16042 net.cpp:150] Setting up res3b_branch2a_relu
I0316 16:32:41.552705 16042 net.cpp:157] Top shape: 8 128 28 28 (802816)
I0316 16:32:41.552721 16042 net.cpp:165] Memory required for data: 1064534976
I0316 16:32:41.552739 16042 layer_factory.hpp:77] Creating layer res3b_branch2b
I0316 16:32:41.552765 16042 net.cpp:106] Creating Layer res3b_branch2b
I0316 16:32:41.552783 16042 net.cpp:454] res3b_branch2b <- res3b_branch2a
I0316 16:32:41.552811 16042 net.cpp:411] res3b_branch2b -> res3b_branch2b
I0316 16:32:41.554507 16042 net.cpp:150] Setting up res3b_branch2b
I0316 16:32:41.554548 16042 net.cpp:157] Top shape: 8 128 28 28 (802816)
I0316 16:32:41.554567 16042 net.cpp:165] Memory required for data: 1067746240
I0316 16:32:41.554590 16042 layer_factory.hpp:77] Creating layer bn3b_branch2b
I0316 16:32:41.554615 16042 net.cpp:106] Creating Layer bn3b_branch2b
I0316 16:32:41.554636 16042 net.cpp:454] bn3b_branch2b <- res3b_branch2b
I0316 16:32:41.554657 16042 net.cpp:397] bn3b_branch2b -> res3b_branch2b (in-place)
I0316 16:32:41.555063 16042 net.cpp:150] Setting up bn3b_branch2b
I0316 16:32:41.555095 16042 net.cpp:157] Top shape: 8 128 28 28 (802816)
I0316 16:32:41.555114 16042 net.cpp:165] Memory required for data: 1070957504
I0316 16:32:41.555148 16042 layer_factory.hpp:77] Creating layer scale3b_branch2b
I0316 16:32:41.555176 16042 net.cpp:106] Creating Layer scale3b_branch2b
I0316 16:32:41.555194 16042 net.cpp:454] scale3b_branch2b <- res3b_branch2b
I0316 16:32:41.555217 16042 net.cpp:397] scale3b_branch2b -> res3b_branch2b (in-place)
I0316 16:32:41.555330 16042 layer_factory.hpp:77] Creating layer scale3b_branch2b
I0316 16:32:41.555598 16042 net.cpp:150] Setting up scale3b_branch2b
I0316 16:32:41.555644 16042 net.cpp:157] Top shape: 8 128 28 28 (802816)
I0316 16:32:41.555681 16042 net.cpp:165] Memory required for data: 1074168768
I0316 16:32:41.555708 16042 layer_factory.hpp:77] Creating layer res3b_branch2b_relu
I0316 16:32:41.555739 16042 net.cpp:106] Creating Layer res3b_branch2b_relu
I0316 16:32:41.555759 16042 net.cpp:454] res3b_branch2b_relu <- res3b_branch2b
I0316 16:32:41.555781 16042 net.cpp:397] res3b_branch2b_relu -> res3b_branch2b (in-place)
I0316 16:32:41.555806 16042 net.cpp:150] Setting up res3b_branch2b_relu
I0316 16:32:41.555829 16042 net.cpp:157] Top shape: 8 128 28 28 (802816)
I0316 16:32:41.555846 16042 net.cpp:165] Memory required for data: 1077380032
I0316 16:32:41.555865 16042 layer_factory.hpp:77] Creating layer res3b_branch2c
I0316 16:32:41.555896 16042 net.cpp:106] Creating Layer res3b_branch2c
I0316 16:32:41.555915 16042 net.cpp:454] res3b_branch2c <- res3b_branch2b
I0316 16:32:41.555938 16042 net.cpp:411] res3b_branch2c -> res3b_branch2c
I0316 16:32:41.556438 16042 net.cpp:150] Setting up res3b_branch2c
I0316 16:32:41.556474 16042 net.cpp:157] Top shape: 8 512 28 28 (3211264)
I0316 16:32:41.556493 16042 net.cpp:165] Memory required for data: 1090225088
I0316 16:32:41.556514 16042 layer_factory.hpp:77] Creating layer bn3b_branch2c
I0316 16:32:41.556538 16042 net.cpp:106] Creating Layer bn3b_branch2c
I0316 16:32:41.556557 16042 net.cpp:454] bn3b_branch2c <- res3b_branch2c
I0316 16:32:41.556584 16042 net.cpp:397] bn3b_branch2c -> res3b_branch2c (in-place)
I0316 16:32:41.557008 16042 net.cpp:150] Setting up bn3b_branch2c
I0316 16:32:41.557044 16042 net.cpp:157] Top shape: 8 512 28 28 (3211264)
I0316 16:32:41.557063 16042 net.cpp:165] Memory required for data: 1103070144
I0316 16:32:41.557092 16042 layer_factory.hpp:77] Creating layer scale3b_branch2c
I0316 16:32:41.557117 16042 net.cpp:106] Creating Layer scale3b_branch2c
I0316 16:32:41.557137 16042 net.cpp:454] scale3b_branch2c <- res3b_branch2c
I0316 16:32:41.557158 16042 net.cpp:397] scale3b_branch2c -> res3b_branch2c (in-place)
I0316 16:32:41.557267 16042 layer_factory.hpp:77] Creating layer scale3b_branch2c
I0316 16:32:41.557523 16042 net.cpp:150] Setting up scale3b_branch2c
I0316 16:32:41.557556 16042 net.cpp:157] Top shape: 8 512 28 28 (3211264)
I0316 16:32:41.557574 16042 net.cpp:165] Memory required for data: 1115915200
I0316 16:32:41.557598 16042 layer_factory.hpp:77] Creating layer res3b
I0316 16:32:41.557622 16042 net.cpp:106] Creating Layer res3b
I0316 16:32:41.557641 16042 net.cpp:454] res3b <- res3a_res3a_relu_0_split_1
I0316 16:32:41.557662 16042 net.cpp:454] res3b <- res3b_branch2c
I0316 16:32:41.557689 16042 net.cpp:411] res3b -> res3b
I0316 16:32:41.557756 16042 net.cpp:150] Setting up res3b
I0316 16:32:41.557785 16042 net.cpp:157] Top shape: 8 512 28 28 (3211264)
I0316 16:32:41.557803 16042 net.cpp:165] Memory required for data: 1128760256
I0316 16:32:41.557821 16042 layer_factory.hpp:77] Creating layer res3b_relu
I0316 16:32:41.557850 16042 net.cpp:106] Creating Layer res3b_relu
I0316 16:32:41.557870 16042 net.cpp:454] res3b_relu <- res3b
I0316 16:32:41.557893 16042 net.cpp:397] res3b_relu -> res3b (in-place)
I0316 16:32:41.557917 16042 net.cpp:150] Setting up res3b_relu
I0316 16:32:41.557940 16042 net.cpp:157] Top shape: 8 512 28 28 (3211264)
I0316 16:32:41.557956 16042 net.cpp:165] Memory required for data: 1141605312
I0316 16:32:41.557973 16042 layer_factory.hpp:77] Creating layer res3b_res3b_relu_0_split
I0316 16:32:41.558001 16042 net.cpp:106] Creating Layer res3b_res3b_relu_0_split
I0316 16:32:41.558019 16042 net.cpp:454] res3b_res3b_relu_0_split <- res3b
I0316 16:32:41.558042 16042 net.cpp:411] res3b_res3b_relu_0_split -> res3b_res3b_relu_0_split_0
I0316 16:32:41.558066 16042 net.cpp:411] res3b_res3b_relu_0_split -> res3b_res3b_relu_0_split_1
I0316 16:32:41.558156 16042 net.cpp:150] Setting up res3b_res3b_relu_0_split
I0316 16:32:41.558185 16042 net.cpp:157] Top shape: 8 512 28 28 (3211264)
I0316 16:32:41.558205 16042 net.cpp:157] Top shape: 8 512 28 28 (3211264)
I0316 16:32:41.558223 16042 net.cpp:165] Memory required for data: 1167295424
I0316 16:32:41.558254 16042 layer_factory.hpp:77] Creating layer res3c_branch2a
I0316 16:32:41.558300 16042 net.cpp:106] Creating Layer res3c_branch2a
I0316 16:32:41.558320 16042 net.cpp:454] res3c_branch2a <- res3b_res3b_relu_0_split_0
I0316 16:32:41.558356 16042 net.cpp:411] res3c_branch2a -> res3c_branch2a
I0316 16:32:41.558851 16042 net.cpp:150] Setting up res3c_branch2a
I0316 16:32:41.558886 16042 net.cpp:157] Top shape: 8 128 28 28 (802816)
I0316 16:32:41.558903 16042 net.cpp:165] Memory required for data: 1170506688
I0316 16:32:41.558925 16042 layer_factory.hpp:77] Creating layer bn3c_branch2a
I0316 16:32:41.558956 16042 net.cpp:106] Creating Layer bn3c_branch2a
I0316 16:32:41.558977 16042 net.cpp:454] bn3c_branch2a <- res3c_branch2a
I0316 16:32:41.559000 16042 net.cpp:397] bn3c_branch2a -> res3c_branch2a (in-place)
I0316 16:32:41.559399 16042 net.cpp:150] Setting up bn3c_branch2a
I0316 16:32:41.559432 16042 net.cpp:157] Top shape: 8 128 28 28 (802816)
I0316 16:32:41.559450 16042 net.cpp:165] Memory required for data: 1173717952
I0316 16:32:41.559479 16042 layer_factory.hpp:77] Creating layer scale3c_branch2a
I0316 16:32:41.559504 16042 net.cpp:106] Creating Layer scale3c_branch2a
I0316 16:32:41.559523 16042 net.cpp:454] scale3c_branch2a <- res3c_branch2a
I0316 16:32:41.559551 16042 net.cpp:397] scale3c_branch2a -> res3c_branch2a (in-place)
I0316 16:32:41.559659 16042 layer_factory.hpp:77] Creating layer scale3c_branch2a
I0316 16:32:41.559924 16042 net.cpp:150] Setting up scale3c_branch2a
I0316 16:32:41.559957 16042 net.cpp:157] Top shape: 8 128 28 28 (802816)
I0316 16:32:41.559973 16042 net.cpp:165] Memory required for data: 1176929216
I0316 16:32:41.559998 16042 layer_factory.hpp:77] Creating layer res3c_branch2a_relu
I0316 16:32:41.560022 16042 net.cpp:106] Creating Layer res3c_branch2a_relu
I0316 16:32:41.560041 16042 net.cpp:454] res3c_branch2a_relu <- res3c_branch2a
I0316 16:32:41.560062 16042 net.cpp:397] res3c_branch2a_relu -> res3c_branch2a (in-place)
I0316 16:32:41.560087 16042 net.cpp:150] Setting up res3c_branch2a_relu
I0316 16:32:41.560109 16042 net.cpp:157] Top shape: 8 128 28 28 (802816)
I0316 16:32:41.560127 16042 net.cpp:165] Memory required for data: 1180140480
I0316 16:32:41.560143 16042 layer_factory.hpp:77] Creating layer res3c_branch2b
I0316 16:32:41.560181 16042 net.cpp:106] Creating Layer res3c_branch2b
I0316 16:32:41.560202 16042 net.cpp:454] res3c_branch2b <- res3c_branch2a
I0316 16:32:41.560231 16042 net.cpp:411] res3c_branch2b -> res3c_branch2b
I0316 16:32:41.561939 16042 net.cpp:150] Setting up res3c_branch2b
I0316 16:32:41.561985 16042 net.cpp:157] Top shape: 8 128 28 28 (802816)
I0316 16:32:41.562003 16042 net.cpp:165] Memory required for data: 1183351744
I0316 16:32:41.562026 16042 layer_factory.hpp:77] Creating layer bn3c_branch2b
I0316 16:32:41.562064 16042 net.cpp:106] Creating Layer bn3c_branch2b
I0316 16:32:41.562085 16042 net.cpp:454] bn3c_branch2b <- res3c_branch2b
I0316 16:32:41.562109 16042 net.cpp:397] bn3c_branch2b -> res3c_branch2b (in-place)
I0316 16:32:41.562512 16042 net.cpp:150] Setting up bn3c_branch2b
I0316 16:32:41.562546 16042 net.cpp:157] Top shape: 8 128 28 28 (802816)
I0316 16:32:41.562563 16042 net.cpp:165] Memory required for data: 1186563008
I0316 16:32:41.562593 16042 layer_factory.hpp:77] Creating layer scale3c_branch2b
I0316 16:32:41.562618 16042 net.cpp:106] Creating Layer scale3c_branch2b
I0316 16:32:41.562638 16042 net.cpp:454] scale3c_branch2b <- res3c_branch2b
I0316 16:32:41.562659 16042 net.cpp:397] scale3c_branch2b -> res3c_branch2b (in-place)
I0316 16:32:41.562769 16042 layer_factory.hpp:77] Creating layer scale3c_branch2b
I0316 16:32:41.563033 16042 net.cpp:150] Setting up scale3c_branch2b
I0316 16:32:41.563066 16042 net.cpp:157] Top shape: 8 128 28 28 (802816)
I0316 16:32:41.563084 16042 net.cpp:165] Memory required for data: 1189774272
I0316 16:32:41.563109 16042 layer_factory.hpp:77] Creating layer res3c_branch2b_relu
I0316 16:32:41.563138 16042 net.cpp:106] Creating Layer res3c_branch2b_relu
I0316 16:32:41.563159 16042 net.cpp:454] res3c_branch2b_relu <- res3c_branch2b
I0316 16:32:41.563210 16042 net.cpp:397] res3c_branch2b_relu -> res3c_branch2b (in-place)
I0316 16:32:41.563240 16042 net.cpp:150] Setting up res3c_branch2b_relu
I0316 16:32:41.563262 16042 net.cpp:157] Top shape: 8 128 28 28 (802816)
I0316 16:32:41.563280 16042 net.cpp:165] Memory required for data: 1192985536
I0316 16:32:41.563297 16042 layer_factory.hpp:77] Creating layer res3c_branch2c
I0316 16:32:41.563330 16042 net.cpp:106] Creating Layer res3c_branch2c
I0316 16:32:41.563350 16042 net.cpp:454] res3c_branch2c <- res3c_branch2b
I0316 16:32:41.563374 16042 net.cpp:411] res3c_branch2c -> res3c_branch2c
I0316 16:32:41.563863 16042 net.cpp:150] Setting up res3c_branch2c
I0316 16:32:41.563899 16042 net.cpp:157] Top shape: 8 512 28 28 (3211264)
I0316 16:32:41.563916 16042 net.cpp:165] Memory required for data: 1205830592
I0316 16:32:41.563938 16042 layer_factory.hpp:77] Creating layer bn3c_branch2c
I0316 16:32:41.563971 16042 net.cpp:106] Creating Layer bn3c_branch2c
I0316 16:32:41.563992 16042 net.cpp:454] bn3c_branch2c <- res3c_branch2c
I0316 16:32:41.564014 16042 net.cpp:397] bn3c_branch2c -> res3c_branch2c (in-place)
I0316 16:32:41.564414 16042 net.cpp:150] Setting up bn3c_branch2c
I0316 16:32:41.564445 16042 net.cpp:157] Top shape: 8 512 28 28 (3211264)
I0316 16:32:41.564463 16042 net.cpp:165] Memory required for data: 1218675648
I0316 16:32:41.564492 16042 layer_factory.hpp:77] Creating layer scale3c_branch2c
I0316 16:32:41.564517 16042 net.cpp:106] Creating Layer scale3c_branch2c
I0316 16:32:41.564537 16042 net.cpp:454] scale3c_branch2c <- res3c_branch2c
I0316 16:32:41.564564 16042 net.cpp:397] scale3c_branch2c -> res3c_branch2c (in-place)
I0316 16:32:41.564687 16042 layer_factory.hpp:77] Creating layer scale3c_branch2c
I0316 16:32:41.564963 16042 net.cpp:150] Setting up scale3c_branch2c
I0316 16:32:41.565002 16042 net.cpp:157] Top shape: 8 512 28 28 (3211264)
I0316 16:32:41.565021 16042 net.cpp:165] Memory required for data: 1231520704
I0316 16:32:41.565047 16042 layer_factory.hpp:77] Creating layer res3c
I0316 16:32:41.565071 16042 net.cpp:106] Creating Layer res3c
I0316 16:32:41.565091 16042 net.cpp:454] res3c <- res3b_res3b_relu_0_split_1
I0316 16:32:41.565112 16042 net.cpp:454] res3c <- res3c_branch2c
I0316 16:32:41.565135 16042 net.cpp:411] res3c -> res3c
I0316 16:32:41.565207 16042 net.cpp:150] Setting up res3c
I0316 16:32:41.565237 16042 net.cpp:157] Top shape: 8 512 28 28 (3211264)
I0316 16:32:41.565255 16042 net.cpp:165] Memory required for data: 1244365760
I0316 16:32:41.565274 16042 layer_factory.hpp:77] Creating layer res3c_relu
I0316 16:32:41.565295 16042 net.cpp:106] Creating Layer res3c_relu
I0316 16:32:41.565315 16042 net.cpp:454] res3c_relu <- res3c
I0316 16:32:41.565341 16042 net.cpp:397] res3c_relu -> res3c (in-place)
I0316 16:32:41.565368 16042 net.cpp:150] Setting up res3c_relu
I0316 16:32:41.565392 16042 net.cpp:157] Top shape: 8 512 28 28 (3211264)
I0316 16:32:41.565408 16042 net.cpp:165] Memory required for data: 1257210816
I0316 16:32:41.565425 16042 layer_factory.hpp:77] Creating layer res3c_res3c_relu_0_split
I0316 16:32:41.565446 16042 net.cpp:106] Creating Layer res3c_res3c_relu_0_split
I0316 16:32:41.565464 16042 net.cpp:454] res3c_res3c_relu_0_split <- res3c
I0316 16:32:41.565485 16042 net.cpp:411] res3c_res3c_relu_0_split -> res3c_res3c_relu_0_split_0
I0316 16:32:41.565511 16042 net.cpp:411] res3c_res3c_relu_0_split -> res3c_res3c_relu_0_split_1
I0316 16:32:41.565605 16042 net.cpp:150] Setting up res3c_res3c_relu_0_split
I0316 16:32:41.565634 16042 net.cpp:157] Top shape: 8 512 28 28 (3211264)
I0316 16:32:41.565655 16042 net.cpp:157] Top shape: 8 512 28 28 (3211264)
I0316 16:32:41.565672 16042 net.cpp:165] Memory required for data: 1282900928
I0316 16:32:41.565690 16042 layer_factory.hpp:77] Creating layer res3d_branch2a
I0316 16:32:41.565722 16042 net.cpp:106] Creating Layer res3d_branch2a
I0316 16:32:41.565743 16042 net.cpp:454] res3d_branch2a <- res3c_res3c_relu_0_split_0
I0316 16:32:41.565767 16042 net.cpp:411] res3d_branch2a -> res3d_branch2a
I0316 16:32:41.567373 16042 net.cpp:150] Setting up res3d_branch2a
I0316 16:32:41.567436 16042 net.cpp:157] Top shape: 8 128 28 28 (802816)
I0316 16:32:41.567456 16042 net.cpp:165] Memory required for data: 1286112192
I0316 16:32:41.567479 16042 layer_factory.hpp:77] Creating layer bn3d_branch2a
I0316 16:32:41.567512 16042 net.cpp:106] Creating Layer bn3d_branch2a
I0316 16:32:41.567533 16042 net.cpp:454] bn3d_branch2a <- res3d_branch2a
I0316 16:32:41.567556 16042 net.cpp:397] bn3d_branch2a -> res3d_branch2a (in-place)
I0316 16:32:41.567970 16042 net.cpp:150] Setting up bn3d_branch2a
I0316 16:32:41.568002 16042 net.cpp:157] Top shape: 8 128 28 28 (802816)
I0316 16:32:41.568022 16042 net.cpp:165] Memory required for data: 1289323456
I0316 16:32:41.568089 16042 layer_factory.hpp:77] Creating layer scale3d_branch2a
I0316 16:32:41.568120 16042 net.cpp:106] Creating Layer scale3d_branch2a
I0316 16:32:41.568140 16042 net.cpp:454] scale3d_branch2a <- res3d_branch2a
I0316 16:32:41.568167 16042 net.cpp:397] scale3d_branch2a -> res3d_branch2a (in-place)
I0316 16:32:41.568284 16042 layer_factory.hpp:77] Creating layer scale3d_branch2a
I0316 16:32:41.568559 16042 net.cpp:150] Setting up scale3d_branch2a
I0316 16:32:41.568593 16042 net.cpp:157] Top shape: 8 128 28 28 (802816)
I0316 16:32:41.568624 16042 net.cpp:165] Memory required for data: 1292534720
I0316 16:32:41.568655 16042 layer_factory.hpp:77] Creating layer res3d_branch2a_relu
I0316 16:32:41.568681 16042 net.cpp:106] Creating Layer res3d_branch2a_relu
I0316 16:32:41.568699 16042 net.cpp:454] res3d_branch2a_relu <- res3d_branch2a
I0316 16:32:41.568722 16042 net.cpp:397] res3d_branch2a_relu -> res3d_branch2a (in-place)
I0316 16:32:41.568747 16042 net.cpp:150] Setting up res3d_branch2a_relu
I0316 16:32:41.568769 16042 net.cpp:157] Top shape: 8 128 28 28 (802816)
I0316 16:32:41.568788 16042 net.cpp:165] Memory required for data: 1295745984
I0316 16:32:41.568806 16042 layer_factory.hpp:77] Creating layer res3d_branch2b
I0316 16:32:41.568833 16042 net.cpp:106] Creating Layer res3d_branch2b
I0316 16:32:41.568852 16042 net.cpp:454] res3d_branch2b <- res3d_branch2a
I0316 16:32:41.568881 16042 net.cpp:411] res3d_branch2b -> res3d_branch2b
I0316 16:32:41.570582 16042 net.cpp:150] Setting up res3d_branch2b
I0316 16:32:41.570624 16042 net.cpp:157] Top shape: 8 128 28 28 (802816)
I0316 16:32:41.570642 16042 net.cpp:165] Memory required for data: 1298957248
I0316 16:32:41.570665 16042 layer_factory.hpp:77] Creating layer bn3d_branch2b
I0316 16:32:41.570690 16042 net.cpp:106] Creating Layer bn3d_branch2b
I0316 16:32:41.570710 16042 net.cpp:454] bn3d_branch2b <- res3d_branch2b
I0316 16:32:41.570732 16042 net.cpp:397] bn3d_branch2b -> res3d_branch2b (in-place)
I0316 16:32:41.571152 16042 net.cpp:150] Setting up bn3d_branch2b
I0316 16:32:41.571187 16042 net.cpp:157] Top shape: 8 128 28 28 (802816)
I0316 16:32:41.571204 16042 net.cpp:165] Memory required for data: 1302168512
I0316 16:32:41.571239 16042 layer_factory.hpp:77] Creating layer scale3d_branch2b
I0316 16:32:41.571266 16042 net.cpp:106] Creating Layer scale3d_branch2b
I0316 16:32:41.571285 16042 net.cpp:454] scale3d_branch2b <- res3d_branch2b
I0316 16:32:41.571307 16042 net.cpp:397] scale3d_branch2b -> res3d_branch2b (in-place)
I0316 16:32:41.571418 16042 layer_factory.hpp:77] Creating layer scale3d_branch2b
I0316 16:32:41.571688 16042 net.cpp:150] Setting up scale3d_branch2b
I0316 16:32:41.571722 16042 net.cpp:157] Top shape: 8 128 28 28 (802816)
I0316 16:32:41.571739 16042 net.cpp:165] Memory required for data: 1305379776
I0316 16:32:41.571765 16042 layer_factory.hpp:77] Creating layer res3d_branch2b_relu
I0316 16:32:41.571799 16042 net.cpp:106] Creating Layer res3d_branch2b_relu
I0316 16:32:41.571820 16042 net.cpp:454] res3d_branch2b_relu <- res3d_branch2b
I0316 16:32:41.571843 16042 net.cpp:397] res3d_branch2b_relu -> res3d_branch2b (in-place)
I0316 16:32:41.571868 16042 net.cpp:150] Setting up res3d_branch2b_relu
I0316 16:32:41.571892 16042 net.cpp:157] Top shape: 8 128 28 28 (802816)
I0316 16:32:41.571909 16042 net.cpp:165] Memory required for data: 1308591040
I0316 16:32:41.571956 16042 layer_factory.hpp:77] Creating layer res3d_branch2c
I0316 16:32:41.571991 16042 net.cpp:106] Creating Layer res3d_branch2c
I0316 16:32:41.572012 16042 net.cpp:454] res3d_branch2c <- res3d_branch2b
I0316 16:32:41.572036 16042 net.cpp:411] res3d_branch2c -> res3d_branch2c
I0316 16:32:41.572535 16042 net.cpp:150] Setting up res3d_branch2c
I0316 16:32:41.572571 16042 net.cpp:157] Top shape: 8 512 28 28 (3211264)
I0316 16:32:41.572587 16042 net.cpp:165] Memory required for data: 1321436096
I0316 16:32:41.572610 16042 layer_factory.hpp:77] Creating layer bn3d_branch2c
I0316 16:32:41.572652 16042 net.cpp:106] Creating Layer bn3d_branch2c
I0316 16:32:41.572674 16042 net.cpp:454] bn3d_branch2c <- res3d_branch2c
I0316 16:32:41.572703 16042 net.cpp:397] bn3d_branch2c -> res3d_branch2c (in-place)
I0316 16:32:41.573125 16042 net.cpp:150] Setting up bn3d_branch2c
I0316 16:32:41.573158 16042 net.cpp:157] Top shape: 8 512 28 28 (3211264)
I0316 16:32:41.573176 16042 net.cpp:165] Memory required for data: 1334281152
I0316 16:32:41.573204 16042 layer_factory.hpp:77] Creating layer scale3d_branch2c
I0316 16:32:41.573230 16042 net.cpp:106] Creating Layer scale3d_branch2c
I0316 16:32:41.573248 16042 net.cpp:454] scale3d_branch2c <- res3d_branch2c
I0316 16:32:41.573271 16042 net.cpp:397] scale3d_branch2c -> res3d_branch2c (in-place)
I0316 16:32:41.573384 16042 layer_factory.hpp:77] Creating layer scale3d_branch2c
I0316 16:32:41.573644 16042 net.cpp:150] Setting up scale3d_branch2c
I0316 16:32:41.573678 16042 net.cpp:157] Top shape: 8 512 28 28 (3211264)
I0316 16:32:41.573695 16042 net.cpp:165] Memory required for data: 1347126208
I0316 16:32:41.573720 16042 layer_factory.hpp:77] Creating layer res3d
I0316 16:32:41.573745 16042 net.cpp:106] Creating Layer res3d
I0316 16:32:41.573765 16042 net.cpp:454] res3d <- res3c_res3c_relu_0_split_1
I0316 16:32:41.573784 16042 net.cpp:454] res3d <- res3d_branch2c
I0316 16:32:41.573812 16042 net.cpp:411] res3d -> res3d
I0316 16:32:41.573879 16042 net.cpp:150] Setting up res3d
I0316 16:32:41.573909 16042 net.cpp:157] Top shape: 8 512 28 28 (3211264)
I0316 16:32:41.573926 16042 net.cpp:165] Memory required for data: 1359971264
I0316 16:32:41.573945 16042 layer_factory.hpp:77] Creating layer res3d_relu
I0316 16:32:41.573973 16042 net.cpp:106] Creating Layer res3d_relu
I0316 16:32:41.573993 16042 net.cpp:454] res3d_relu <- res3d
I0316 16:32:41.574015 16042 net.cpp:397] res3d_relu -> res3d (in-place)
I0316 16:32:41.574039 16042 net.cpp:150] Setting up res3d_relu
I0316 16:32:41.574062 16042 net.cpp:157] Top shape: 8 512 28 28 (3211264)
I0316 16:32:41.574079 16042 net.cpp:165] Memory required for data: 1372816320
I0316 16:32:41.574097 16042 layer_factory.hpp:77] Creating layer res3d_res3d_relu_0_split
I0316 16:32:41.574123 16042 net.cpp:106] Creating Layer res3d_res3d_relu_0_split
I0316 16:32:41.574143 16042 net.cpp:454] res3d_res3d_relu_0_split <- res3d
I0316 16:32:41.574164 16042 net.cpp:411] res3d_res3d_relu_0_split -> res3d_res3d_relu_0_split_0
I0316 16:32:41.574189 16042 net.cpp:411] res3d_res3d_relu_0_split -> res3d_res3d_relu_0_split_1
I0316 16:32:41.574283 16042 net.cpp:150] Setting up res3d_res3d_relu_0_split
I0316 16:32:41.574313 16042 net.cpp:157] Top shape: 8 512 28 28 (3211264)
I0316 16:32:41.574333 16042 net.cpp:157] Top shape: 8 512 28 28 (3211264)
I0316 16:32:41.574350 16042 net.cpp:165] Memory required for data: 1398506432
I0316 16:32:41.574368 16042 layer_factory.hpp:77] Creating layer res4a_branch1
I0316 16:32:41.574395 16042 net.cpp:106] Creating Layer res4a_branch1
I0316 16:32:41.574414 16042 net.cpp:454] res4a_branch1 <- res3d_res3d_relu_0_split_0
I0316 16:32:41.574445 16042 net.cpp:411] res4a_branch1 -> res4a_branch1
I0316 16:32:41.577525 16042 net.cpp:150] Setting up res4a_branch1
I0316 16:32:41.577570 16042 net.cpp:157] Top shape: 8 1024 14 14 (1605632)
I0316 16:32:41.577590 16042 net.cpp:165] Memory required for data: 1404928960
I0316 16:32:41.577613 16042 layer_factory.hpp:77] Creating layer bn4a_branch1
I0316 16:32:41.577652 16042 net.cpp:106] Creating Layer bn4a_branch1
I0316 16:32:41.577692 16042 net.cpp:454] bn4a_branch1 <- res4a_branch1
I0316 16:32:41.577723 16042 net.cpp:397] bn4a_branch1 -> res4a_branch1 (in-place)
I0316 16:32:41.578162 16042 net.cpp:150] Setting up bn4a_branch1
I0316 16:32:41.578197 16042 net.cpp:157] Top shape: 8 1024 14 14 (1605632)
I0316 16:32:41.578215 16042 net.cpp:165] Memory required for data: 1411351488
I0316 16:32:41.578245 16042 layer_factory.hpp:77] Creating layer scale4a_branch1
I0316 16:32:41.578271 16042 net.cpp:106] Creating Layer scale4a_branch1
I0316 16:32:41.578290 16042 net.cpp:454] scale4a_branch1 <- res4a_branch1
I0316 16:32:41.578312 16042 net.cpp:397] scale4a_branch1 -> res4a_branch1 (in-place)
I0316 16:32:41.578418 16042 layer_factory.hpp:77] Creating layer scale4a_branch1
I0316 16:32:41.578686 16042 net.cpp:150] Setting up scale4a_branch1
I0316 16:32:41.578719 16042 net.cpp:157] Top shape: 8 1024 14 14 (1605632)
I0316 16:32:41.578737 16042 net.cpp:165] Memory required for data: 1417774016
I0316 16:32:41.578763 16042 layer_factory.hpp:77] Creating layer res4a_branch2a
I0316 16:32:41.578797 16042 net.cpp:106] Creating Layer res4a_branch2a
I0316 16:32:41.578819 16042 net.cpp:454] res4a_branch2a <- res3d_res3d_relu_0_split_1
I0316 16:32:41.578842 16042 net.cpp:411] res4a_branch2a -> res4a_branch2a
I0316 16:32:41.579465 16042 net.cpp:150] Setting up res4a_branch2a
I0316 16:32:41.579509 16042 net.cpp:157] Top shape: 8 256 14 14 (401408)
I0316 16:32:41.579529 16042 net.cpp:165] Memory required for data: 1419379648
I0316 16:32:41.579551 16042 layer_factory.hpp:77] Creating layer bn4a_branch2a
I0316 16:32:41.579576 16042 net.cpp:106] Creating Layer bn4a_branch2a
I0316 16:32:41.579596 16042 net.cpp:454] bn4a_branch2a <- res4a_branch2a
I0316 16:32:41.579618 16042 net.cpp:397] bn4a_branch2a -> res4a_branch2a (in-place)
I0316 16:32:41.580023 16042 net.cpp:150] Setting up bn4a_branch2a
I0316 16:32:41.580055 16042 net.cpp:157] Top shape: 8 256 14 14 (401408)
I0316 16:32:41.580073 16042 net.cpp:165] Memory required for data: 1420985280
I0316 16:32:41.580102 16042 layer_factory.hpp:77] Creating layer scale4a_branch2a
I0316 16:32:41.580128 16042 net.cpp:106] Creating Layer scale4a_branch2a
I0316 16:32:41.580148 16042 net.cpp:454] scale4a_branch2a <- res4a_branch2a
I0316 16:32:41.580170 16042 net.cpp:397] scale4a_branch2a -> res4a_branch2a (in-place)
I0316 16:32:41.580281 16042 layer_factory.hpp:77] Creating layer scale4a_branch2a
I0316 16:32:41.580533 16042 net.cpp:150] Setting up scale4a_branch2a
I0316 16:32:41.580565 16042 net.cpp:157] Top shape: 8 256 14 14 (401408)
I0316 16:32:41.580584 16042 net.cpp:165] Memory required for data: 1422590912
I0316 16:32:41.580608 16042 layer_factory.hpp:77] Creating layer res4a_branch2a_relu
I0316 16:32:41.580658 16042 net.cpp:106] Creating Layer res4a_branch2a_relu
I0316 16:32:41.580680 16042 net.cpp:454] res4a_branch2a_relu <- res4a_branch2a
I0316 16:32:41.580703 16042 net.cpp:397] res4a_branch2a_relu -> res4a_branch2a (in-place)
I0316 16:32:41.580729 16042 net.cpp:150] Setting up res4a_branch2a_relu
I0316 16:32:41.580751 16042 net.cpp:157] Top shape: 8 256 14 14 (401408)
I0316 16:32:41.580768 16042 net.cpp:165] Memory required for data: 1424196544
I0316 16:32:41.580786 16042 layer_factory.hpp:77] Creating layer res4a_branch2b
I0316 16:32:41.580819 16042 net.cpp:106] Creating Layer res4a_branch2b
I0316 16:32:41.580839 16042 net.cpp:454] res4a_branch2b <- res4a_branch2a
I0316 16:32:41.580862 16042 net.cpp:411] res4a_branch2b -> res4a_branch2b
I0316 16:32:41.584195 16042 net.cpp:150] Setting up res4a_branch2b
I0316 16:32:41.584237 16042 net.cpp:157] Top shape: 8 256 14 14 (401408)
I0316 16:32:41.584256 16042 net.cpp:165] Memory required for data: 1425802176
I0316 16:32:41.584280 16042 layer_factory.hpp:77] Creating layer bn4a_branch2b
I0316 16:32:41.584311 16042 net.cpp:106] Creating Layer bn4a_branch2b
I0316 16:32:41.584333 16042 net.cpp:454] bn4a_branch2b <- res4a_branch2b
I0316 16:32:41.584357 16042 net.cpp:397] bn4a_branch2b -> res4a_branch2b (in-place)
I0316 16:32:41.584794 16042 net.cpp:150] Setting up bn4a_branch2b
I0316 16:32:41.584851 16042 net.cpp:157] Top shape: 8 256 14 14 (401408)
I0316 16:32:41.584869 16042 net.cpp:165] Memory required for data: 1427407808
I0316 16:32:41.584899 16042 layer_factory.hpp:77] Creating layer scale4a_branch2b
I0316 16:32:41.584931 16042 net.cpp:106] Creating Layer scale4a_branch2b
I0316 16:32:41.584952 16042 net.cpp:454] scale4a_branch2b <- res4a_branch2b
I0316 16:32:41.584975 16042 net.cpp:397] scale4a_branch2b -> res4a_branch2b (in-place)
I0316 16:32:41.585088 16042 layer_factory.hpp:77] Creating layer scale4a_branch2b
I0316 16:32:41.585355 16042 net.cpp:150] Setting up scale4a_branch2b
I0316 16:32:41.585386 16042 net.cpp:157] Top shape: 8 256 14 14 (401408)
I0316 16:32:41.585405 16042 net.cpp:165] Memory required for data: 1429013440
I0316 16:32:41.585430 16042 layer_factory.hpp:77] Creating layer res4a_branch2b_relu
I0316 16:32:41.585454 16042 net.cpp:106] Creating Layer res4a_branch2b_relu
I0316 16:32:41.585474 16042 net.cpp:454] res4a_branch2b_relu <- res4a_branch2b
I0316 16:32:41.585495 16042 net.cpp:397] res4a_branch2b_relu -> res4a_branch2b (in-place)
I0316 16:32:41.585520 16042 net.cpp:150] Setting up res4a_branch2b_relu
I0316 16:32:41.585543 16042 net.cpp:157] Top shape: 8 256 14 14 (401408)
I0316 16:32:41.585561 16042 net.cpp:165] Memory required for data: 1430619072
I0316 16:32:41.585579 16042 layer_factory.hpp:77] Creating layer res4a_branch2c
I0316 16:32:41.585611 16042 net.cpp:106] Creating Layer res4a_branch2c
I0316 16:32:41.585631 16042 net.cpp:454] res4a_branch2c <- res4a_branch2b
I0316 16:32:41.585660 16042 net.cpp:411] res4a_branch2c -> res4a_branch2c
I0316 16:32:41.587514 16042 net.cpp:150] Setting up res4a_branch2c
I0316 16:32:41.587556 16042 net.cpp:157] Top shape: 8 1024 14 14 (1605632)
I0316 16:32:41.587575 16042 net.cpp:165] Memory required for data: 1437041600
I0316 16:32:41.587599 16042 layer_factory.hpp:77] Creating layer bn4a_branch2c
I0316 16:32:41.587625 16042 net.cpp:106] Creating Layer bn4a_branch2c
I0316 16:32:41.587644 16042 net.cpp:454] bn4a_branch2c <- res4a_branch2c
I0316 16:32:41.587672 16042 net.cpp:397] bn4a_branch2c -> res4a_branch2c (in-place)
I0316 16:32:41.588100 16042 net.cpp:150] Setting up bn4a_branch2c
I0316 16:32:41.588135 16042 net.cpp:157] Top shape: 8 1024 14 14 (1605632)
I0316 16:32:41.588152 16042 net.cpp:165] Memory required for data: 1443464128
I0316 16:32:41.588181 16042 layer_factory.hpp:77] Creating layer scale4a_branch2c
I0316 16:32:41.588207 16042 net.cpp:106] Creating Layer scale4a_branch2c
I0316 16:32:41.588227 16042 net.cpp:454] scale4a_branch2c <- res4a_branch2c
I0316 16:32:41.588249 16042 net.cpp:397] scale4a_branch2c -> res4a_branch2c (in-place)
I0316 16:32:41.588359 16042 layer_factory.hpp:77] Creating layer scale4a_branch2c
I0316 16:32:41.588649 16042 net.cpp:150] Setting up scale4a_branch2c
I0316 16:32:41.588686 16042 net.cpp:157] Top shape: 8 1024 14 14 (1605632)
I0316 16:32:41.588704 16042 net.cpp:165] Memory required for data: 1449886656
I0316 16:32:41.588731 16042 layer_factory.hpp:77] Creating layer res4a
I0316 16:32:41.588755 16042 net.cpp:106] Creating Layer res4a
I0316 16:32:41.588783 16042 net.cpp:454] res4a <- res4a_branch1
I0316 16:32:41.588804 16042 net.cpp:454] res4a <- res4a_branch2c
I0316 16:32:41.588825 16042 net.cpp:411] res4a -> res4a
I0316 16:32:41.588894 16042 net.cpp:150] Setting up res4a
I0316 16:32:41.588924 16042 net.cpp:157] Top shape: 8 1024 14 14 (1605632)
I0316 16:32:41.588943 16042 net.cpp:165] Memory required for data: 1456309184
I0316 16:32:41.588960 16042 layer_factory.hpp:77] Creating layer res4a_relu
I0316 16:32:41.588989 16042 net.cpp:106] Creating Layer res4a_relu
I0316 16:32:41.589010 16042 net.cpp:454] res4a_relu <- res4a
I0316 16:32:41.589030 16042 net.cpp:397] res4a_relu -> res4a (in-place)
I0316 16:32:41.589062 16042 net.cpp:150] Setting up res4a_relu
I0316 16:32:41.589085 16042 net.cpp:157] Top shape: 8 1024 14 14 (1605632)
I0316 16:32:41.589103 16042 net.cpp:165] Memory required for data: 1462731712
I0316 16:32:41.589121 16042 layer_factory.hpp:77] Creating layer res4a_res4a_relu_0_split
I0316 16:32:41.589207 16042 net.cpp:106] Creating Layer res4a_res4a_relu_0_split
I0316 16:32:41.589232 16042 net.cpp:454] res4a_res4a_relu_0_split <- res4a
I0316 16:32:41.589257 16042 net.cpp:411] res4a_res4a_relu_0_split -> res4a_res4a_relu_0_split_0
I0316 16:32:41.589283 16042 net.cpp:411] res4a_res4a_relu_0_split -> res4a_res4a_relu_0_split_1
I0316 16:32:41.589382 16042 net.cpp:150] Setting up res4a_res4a_relu_0_split
I0316 16:32:41.589413 16042 net.cpp:157] Top shape: 8 1024 14 14 (1605632)
I0316 16:32:41.589434 16042 net.cpp:157] Top shape: 8 1024 14 14 (1605632)
I0316 16:32:41.589450 16042 net.cpp:165] Memory required for data: 1475576768
I0316 16:32:41.589470 16042 layer_factory.hpp:77] Creating layer res4b_branch2a
I0316 16:32:41.589498 16042 net.cpp:106] Creating Layer res4b_branch2a
I0316 16:32:41.589519 16042 net.cpp:454] res4b_branch2a <- res4a_res4a_relu_0_split_0
I0316 16:32:41.589547 16042 net.cpp:411] res4b_branch2a -> res4b_branch2a
I0316 16:32:41.591414 16042 net.cpp:150] Setting up res4b_branch2a
I0316 16:32:41.591456 16042 net.cpp:157] Top shape: 8 256 14 14 (401408)
I0316 16:32:41.591475 16042 net.cpp:165] Memory required for data: 1477182400
I0316 16:32:41.591498 16042 layer_factory.hpp:77] Creating layer bn4b_branch2a
I0316 16:32:41.591524 16042 net.cpp:106] Creating Layer bn4b_branch2a
I0316 16:32:41.591545 16042 net.cpp:454] bn4b_branch2a <- res4b_branch2a
I0316 16:32:41.591568 16042 net.cpp:397] bn4b_branch2a -> res4b_branch2a (in-place)
I0316 16:32:41.591980 16042 net.cpp:150] Setting up bn4b_branch2a
I0316 16:32:41.592013 16042 net.cpp:157] Top shape: 8 256 14 14 (401408)
I0316 16:32:41.592031 16042 net.cpp:165] Memory required for data: 1478788032
I0316 16:32:41.592061 16042 layer_factory.hpp:77] Creating layer scale4b_branch2a
I0316 16:32:41.592093 16042 net.cpp:106] Creating Layer scale4b_branch2a
I0316 16:32:41.592114 16042 net.cpp:454] scale4b_branch2a <- res4b_branch2a
I0316 16:32:41.592137 16042 net.cpp:397] scale4b_branch2a -> res4b_branch2a (in-place)
I0316 16:32:41.592248 16042 layer_factory.hpp:77] Creating layer scale4b_branch2a
I0316 16:32:41.592514 16042 net.cpp:150] Setting up scale4b_branch2a
I0316 16:32:41.592548 16042 net.cpp:157] Top shape: 8 256 14 14 (401408)
I0316 16:32:41.592566 16042 net.cpp:165] Memory required for data: 1480393664
I0316 16:32:41.592592 16042 layer_factory.hpp:77] Creating layer res4b_branch2a_relu
I0316 16:32:41.592631 16042 net.cpp:106] Creating Layer res4b_branch2a_relu
I0316 16:32:41.592655 16042 net.cpp:454] res4b_branch2a_relu <- res4b_branch2a
I0316 16:32:41.592684 16042 net.cpp:397] res4b_branch2a_relu -> res4b_branch2a (in-place)
I0316 16:32:41.592711 16042 net.cpp:150] Setting up res4b_branch2a_relu
I0316 16:32:41.592736 16042 net.cpp:157] Top shape: 8 256 14 14 (401408)
I0316 16:32:41.592753 16042 net.cpp:165] Memory required for data: 1481999296
I0316 16:32:41.592772 16042 layer_factory.hpp:77] Creating layer res4b_branch2b
I0316 16:32:41.592803 16042 net.cpp:106] Creating Layer res4b_branch2b
I0316 16:32:41.592824 16042 net.cpp:454] res4b_branch2b <- res4b_branch2a
I0316 16:32:41.592847 16042 net.cpp:411] res4b_branch2b -> res4b_branch2b
I0316 16:32:41.596180 16042 net.cpp:150] Setting up res4b_branch2b
I0316 16:32:41.596222 16042 net.cpp:157] Top shape: 8 256 14 14 (401408)
I0316 16:32:41.596241 16042 net.cpp:165] Memory required for data: 1483604928
I0316 16:32:41.596266 16042 layer_factory.hpp:77] Creating layer bn4b_branch2b
I0316 16:32:41.596297 16042 net.cpp:106] Creating Layer bn4b_branch2b
I0316 16:32:41.596319 16042 net.cpp:454] bn4b_branch2b <- res4b_branch2b
I0316 16:32:41.596343 16042 net.cpp:397] bn4b_branch2b -> res4b_branch2b (in-place)
I0316 16:32:41.596778 16042 net.cpp:150] Setting up bn4b_branch2b
I0316 16:32:41.596814 16042 net.cpp:157] Top shape: 8 256 14 14 (401408)
I0316 16:32:41.596833 16042 net.cpp:165] Memory required for data: 1485210560
I0316 16:32:41.596863 16042 layer_factory.hpp:77] Creating layer scale4b_branch2b
I0316 16:32:41.596889 16042 net.cpp:106] Creating Layer scale4b_branch2b
I0316 16:32:41.596935 16042 net.cpp:454] scale4b_branch2b <- res4b_branch2b
I0316 16:32:41.596961 16042 net.cpp:397] scale4b_branch2b -> res4b_branch2b (in-place)
I0316 16:32:41.597074 16042 layer_factory.hpp:77] Creating layer scale4b_branch2b
I0316 16:32:41.597337 16042 net.cpp:150] Setting up scale4b_branch2b
I0316 16:32:41.597370 16042 net.cpp:157] Top shape: 8 256 14 14 (401408)
I0316 16:32:41.597388 16042 net.cpp:165] Memory required for data: 1486816192
I0316 16:32:41.597414 16042 layer_factory.hpp:77] Creating layer res4b_branch2b_relu
I0316 16:32:41.597443 16042 net.cpp:106] Creating Layer res4b_branch2b_relu
I0316 16:32:41.597465 16042 net.cpp:454] res4b_branch2b_relu <- res4b_branch2b
I0316 16:32:41.597486 16042 net.cpp:397] res4b_branch2b_relu -> res4b_branch2b (in-place)
I0316 16:32:41.597512 16042 net.cpp:150] Setting up res4b_branch2b_relu
I0316 16:32:41.597534 16042 net.cpp:157] Top shape: 8 256 14 14 (401408)
I0316 16:32:41.597551 16042 net.cpp:165] Memory required for data: 1488421824
I0316 16:32:41.597568 16042 layer_factory.hpp:77] Creating layer res4b_branch2c
I0316 16:32:41.597600 16042 net.cpp:106] Creating Layer res4b_branch2c
I0316 16:32:41.597620 16042 net.cpp:454] res4b_branch2c <- res4b_branch2b
I0316 16:32:41.597645 16042 net.cpp:411] res4b_branch2c -> res4b_branch2c
I0316 16:32:41.599511 16042 net.cpp:150] Setting up res4b_branch2c
I0316 16:32:41.599552 16042 net.cpp:157] Top shape: 8 1024 14 14 (1605632)
I0316 16:32:41.599571 16042 net.cpp:165] Memory required for data: 1494844352
I0316 16:32:41.599596 16042 layer_factory.hpp:77] Creating layer bn4b_branch2c
I0316 16:32:41.599622 16042 net.cpp:106] Creating Layer bn4b_branch2c
I0316 16:32:41.599642 16042 net.cpp:454] bn4b_branch2c <- res4b_branch2c
I0316 16:32:41.599664 16042 net.cpp:397] bn4b_branch2c -> res4b_branch2c (in-place)
I0316 16:32:41.600098 16042 net.cpp:150] Setting up bn4b_branch2c
I0316 16:32:41.600132 16042 net.cpp:157] Top shape: 8 1024 14 14 (1605632)
I0316 16:32:41.600150 16042 net.cpp:165] Memory required for data: 1501266880
I0316 16:32:41.600180 16042 layer_factory.hpp:77] Creating layer scale4b_branch2c
I0316 16:32:41.600206 16042 net.cpp:106] Creating Layer scale4b_branch2c
I0316 16:32:41.600225 16042 net.cpp:454] scale4b_branch2c <- res4b_branch2c
I0316 16:32:41.600248 16042 net.cpp:397] scale4b_branch2c -> res4b_branch2c (in-place)
I0316 16:32:41.600358 16042 layer_factory.hpp:77] Creating layer scale4b_branch2c
I0316 16:32:41.600654 16042 net.cpp:150] Setting up scale4b_branch2c
I0316 16:32:41.600692 16042 net.cpp:157] Top shape: 8 1024 14 14 (1605632)
I0316 16:32:41.600710 16042 net.cpp:165] Memory required for data: 1507689408
I0316 16:32:41.600735 16042 layer_factory.hpp:77] Creating layer res4b
I0316 16:32:41.600766 16042 net.cpp:106] Creating Layer res4b
I0316 16:32:41.600788 16042 net.cpp:454] res4b <- res4a_res4a_relu_0_split_1
I0316 16:32:41.600810 16042 net.cpp:454] res4b <- res4b_branch2c
I0316 16:32:41.600832 16042 net.cpp:411] res4b -> res4b
I0316 16:32:41.600908 16042 net.cpp:150] Setting up res4b
I0316 16:32:41.600937 16042 net.cpp:157] Top shape: 8 1024 14 14 (1605632)
I0316 16:32:41.600956 16042 net.cpp:165] Memory required for data: 1514111936
I0316 16:32:41.600975 16042 layer_factory.hpp:77] Creating layer res4b_relu
I0316 16:32:41.600997 16042 net.cpp:106] Creating Layer res4b_relu
I0316 16:32:41.601016 16042 net.cpp:454] res4b_relu <- res4b
I0316 16:32:41.601044 16042 net.cpp:397] res4b_relu -> res4b (in-place)
I0316 16:32:41.601070 16042 net.cpp:150] Setting up res4b_relu
I0316 16:32:41.601094 16042 net.cpp:157] Top shape: 8 1024 14 14 (1605632)
I0316 16:32:41.601110 16042 net.cpp:165] Memory required for data: 1520534464
I0316 16:32:41.601128 16042 layer_factory.hpp:77] Creating layer res4b_res4b_relu_0_split
I0316 16:32:41.601150 16042 net.cpp:106] Creating Layer res4b_res4b_relu_0_split
I0316 16:32:41.601168 16042 net.cpp:454] res4b_res4b_relu_0_split <- res4b
I0316 16:32:41.601191 16042 net.cpp:411] res4b_res4b_relu_0_split -> res4b_res4b_relu_0_split_0
I0316 16:32:41.601230 16042 net.cpp:411] res4b_res4b_relu_0_split -> res4b_res4b_relu_0_split_1
I0316 16:32:41.601353 16042 net.cpp:150] Setting up res4b_res4b_relu_0_split
I0316 16:32:41.601383 16042 net.cpp:157] Top shape: 8 1024 14 14 (1605632)
I0316 16:32:41.601404 16042 net.cpp:157] Top shape: 8 1024 14 14 (1605632)
I0316 16:32:41.601421 16042 net.cpp:165] Memory required for data: 1533379520
I0316 16:32:41.601439 16042 layer_factory.hpp:77] Creating layer res4c_branch2a
I0316 16:32:41.601466 16042 net.cpp:106] Creating Layer res4c_branch2a
I0316 16:32:41.601486 16042 net.cpp:454] res4c_branch2a <- res4b_res4b_relu_0_split_0
I0316 16:32:41.601516 16042 net.cpp:411] res4c_branch2a -> res4c_branch2a
I0316 16:32:41.603389 16042 net.cpp:150] Setting up res4c_branch2a
I0316 16:32:41.603430 16042 net.cpp:157] Top shape: 8 256 14 14 (401408)
I0316 16:32:41.603449 16042 net.cpp:165] Memory required for data: 1534985152
I0316 16:32:41.603473 16042 layer_factory.hpp:77] Creating layer bn4c_branch2a
I0316 16:32:41.603499 16042 net.cpp:106] Creating Layer bn4c_branch2a
I0316 16:32:41.603519 16042 net.cpp:454] bn4c_branch2a <- res4c_branch2a
I0316 16:32:41.603543 16042 net.cpp:397] bn4c_branch2a -> res4c_branch2a (in-place)
I0316 16:32:41.603955 16042 net.cpp:150] Setting up bn4c_branch2a
I0316 16:32:41.603987 16042 net.cpp:157] Top shape: 8 256 14 14 (401408)
I0316 16:32:41.604005 16042 net.cpp:165] Memory required for data: 1536590784
I0316 16:32:41.604035 16042 layer_factory.hpp:77] Creating layer scale4c_branch2a
I0316 16:32:41.604068 16042 net.cpp:106] Creating Layer scale4c_branch2a
I0316 16:32:41.604089 16042 net.cpp:454] scale4c_branch2a <- res4c_branch2a
I0316 16:32:41.604111 16042 net.cpp:397] scale4c_branch2a -> res4c_branch2a (in-place)
I0316 16:32:41.604221 16042 layer_factory.hpp:77] Creating layer scale4c_branch2a
I0316 16:32:41.604488 16042 net.cpp:150] Setting up scale4c_branch2a
I0316 16:32:41.604521 16042 net.cpp:157] Top shape: 8 256 14 14 (401408)
I0316 16:32:41.604538 16042 net.cpp:165] Memory required for data: 1538196416
I0316 16:32:41.604564 16042 layer_factory.hpp:77] Creating layer res4c_branch2a_relu
I0316 16:32:41.604588 16042 net.cpp:106] Creating Layer res4c_branch2a_relu
I0316 16:32:41.604609 16042 net.cpp:454] res4c_branch2a_relu <- res4c_branch2a
I0316 16:32:41.604655 16042 net.cpp:397] res4c_branch2a_relu -> res4c_branch2a (in-place)
I0316 16:32:41.604682 16042 net.cpp:150] Setting up res4c_branch2a_relu
I0316 16:32:41.604706 16042 net.cpp:157] Top shape: 8 256 14 14 (401408)
I0316 16:32:41.604722 16042 net.cpp:165] Memory required for data: 1539802048
I0316 16:32:41.604740 16042 layer_factory.hpp:77] Creating layer res4c_branch2b
I0316 16:32:41.604773 16042 net.cpp:106] Creating Layer res4c_branch2b
I0316 16:32:41.604792 16042 net.cpp:454] res4c_branch2b <- res4c_branch2a
I0316 16:32:41.604816 16042 net.cpp:411] res4c_branch2b -> res4c_branch2b
I0316 16:32:41.608175 16042 net.cpp:150] Setting up res4c_branch2b
I0316 16:32:41.608217 16042 net.cpp:157] Top shape: 8 256 14 14 (401408)
I0316 16:32:41.608237 16042 net.cpp:165] Memory required for data: 1541407680
I0316 16:32:41.608261 16042 layer_factory.hpp:77] Creating layer bn4c_branch2b
I0316 16:32:41.608289 16042 net.cpp:106] Creating Layer bn4c_branch2b
I0316 16:32:41.608309 16042 net.cpp:454] bn4c_branch2b <- res4c_branch2b
I0316 16:32:41.608330 16042 net.cpp:397] bn4c_branch2b -> res4c_branch2b (in-place)
I0316 16:32:41.608777 16042 net.cpp:150] Setting up bn4c_branch2b
I0316 16:32:41.608814 16042 net.cpp:157] Top shape: 8 256 14 14 (401408)
I0316 16:32:41.608831 16042 net.cpp:165] Memory required for data: 1543013312
I0316 16:32:41.608862 16042 layer_factory.hpp:77] Creating layer scale4c_branch2b
I0316 16:32:41.608893 16042 net.cpp:106] Creating Layer scale4c_branch2b
I0316 16:32:41.608913 16042 net.cpp:454] scale4c_branch2b <- res4c_branch2b
I0316 16:32:41.608937 16042 net.cpp:397] scale4c_branch2b -> res4c_branch2b (in-place)
I0316 16:32:41.609048 16042 layer_factory.hpp:77] Creating layer scale4c_branch2b
I0316 16:32:41.609318 16042 net.cpp:150] Setting up scale4c_branch2b
I0316 16:32:41.609377 16042 net.cpp:157] Top shape: 8 256 14 14 (401408)
I0316 16:32:41.609396 16042 net.cpp:165] Memory required for data: 1544618944
I0316 16:32:41.609423 16042 layer_factory.hpp:77] Creating layer res4c_branch2b_relu
I0316 16:32:41.609447 16042 net.cpp:106] Creating Layer res4c_branch2b_relu
I0316 16:32:41.609467 16042 net.cpp:454] res4c_branch2b_relu <- res4c_branch2b
I0316 16:32:41.609496 16042 net.cpp:397] res4c_branch2b_relu -> res4c_branch2b (in-place)
I0316 16:32:41.609522 16042 net.cpp:150] Setting up res4c_branch2b_relu
I0316 16:32:41.609545 16042 net.cpp:157] Top shape: 8 256 14 14 (401408)
I0316 16:32:41.609563 16042 net.cpp:165] Memory required for data: 1546224576
I0316 16:32:41.609581 16042 layer_factory.hpp:77] Creating layer res4c_branch2c
I0316 16:32:41.609618 16042 net.cpp:106] Creating Layer res4c_branch2c
I0316 16:32:41.609638 16042 net.cpp:454] res4c_branch2c <- res4c_branch2b
I0316 16:32:41.609663 16042 net.cpp:411] res4c_branch2c -> res4c_branch2c
I0316 16:32:41.611536 16042 net.cpp:150] Setting up res4c_branch2c
I0316 16:32:41.611577 16042 net.cpp:157] Top shape: 8 1024 14 14 (1605632)
I0316 16:32:41.611596 16042 net.cpp:165] Memory required for data: 1552647104
I0316 16:32:41.611619 16042 layer_factory.hpp:77] Creating layer bn4c_branch2c
I0316 16:32:41.611650 16042 net.cpp:106] Creating Layer bn4c_branch2c
I0316 16:32:41.611671 16042 net.cpp:454] bn4c_branch2c <- res4c_branch2c
I0316 16:32:41.611695 16042 net.cpp:397] bn4c_branch2c -> res4c_branch2c (in-place)
I0316 16:32:41.612135 16042 net.cpp:150] Setting up bn4c_branch2c
I0316 16:32:41.612169 16042 net.cpp:157] Top shape: 8 1024 14 14 (1605632)
I0316 16:32:41.612187 16042 net.cpp:165] Memory required for data: 1559069632
I0316 16:32:41.612217 16042 layer_factory.hpp:77] Creating layer scale4c_branch2c
I0316 16:32:41.612243 16042 net.cpp:106] Creating Layer scale4c_branch2c
I0316 16:32:41.612262 16042 net.cpp:454] scale4c_branch2c <- res4c_branch2c
I0316 16:32:41.612290 16042 net.cpp:397] scale4c_branch2c -> res4c_branch2c (in-place)
I0316 16:32:41.612396 16042 layer_factory.hpp:77] Creating layer scale4c_branch2c
I0316 16:32:41.612699 16042 net.cpp:150] Setting up scale4c_branch2c
I0316 16:32:41.612736 16042 net.cpp:157] Top shape: 8 1024 14 14 (1605632)
I0316 16:32:41.612754 16042 net.cpp:165] Memory required for data: 1565492160
I0316 16:32:41.612782 16042 layer_factory.hpp:77] Creating layer res4c
I0316 16:32:41.612812 16042 net.cpp:106] Creating Layer res4c
I0316 16:32:41.612833 16042 net.cpp:454] res4c <- res4b_res4b_relu_0_split_1
I0316 16:32:41.612854 16042 net.cpp:454] res4c <- res4c_branch2c
I0316 16:32:41.612877 16042 net.cpp:411] res4c -> res4c
I0316 16:32:41.612954 16042 net.cpp:150] Setting up res4c
I0316 16:32:41.612984 16042 net.cpp:157] Top shape: 8 1024 14 14 (1605632)
I0316 16:32:41.613003 16042 net.cpp:165] Memory required for data: 1571914688
I0316 16:32:41.613020 16042 layer_factory.hpp:77] Creating layer res4c_relu
I0316 16:32:41.613044 16042 net.cpp:106] Creating Layer res4c_relu
I0316 16:32:41.613061 16042 net.cpp:454] res4c_relu <- res4c
I0316 16:32:41.613088 16042 net.cpp:397] res4c_relu -> res4c (in-place)
I0316 16:32:41.613114 16042 net.cpp:150] Setting up res4c_relu
I0316 16:32:41.613137 16042 net.cpp:157] Top shape: 8 1024 14 14 (1605632)
I0316 16:32:41.613154 16042 net.cpp:165] Memory required for data: 1578337216
I0316 16:32:41.613173 16042 layer_factory.hpp:77] Creating layer res4c_res4c_relu_0_split
I0316 16:32:41.613194 16042 net.cpp:106] Creating Layer res4c_res4c_relu_0_split
I0316 16:32:41.613212 16042 net.cpp:454] res4c_res4c_relu_0_split <- res4c
I0316 16:32:41.613234 16042 net.cpp:411] res4c_res4c_relu_0_split -> res4c_res4c_relu_0_split_0
I0316 16:32:41.613260 16042 net.cpp:411] res4c_res4c_relu_0_split -> res4c_res4c_relu_0_split_1
I0316 16:32:41.613358 16042 net.cpp:150] Setting up res4c_res4c_relu_0_split
I0316 16:32:41.613389 16042 net.cpp:157] Top shape: 8 1024 14 14 (1605632)
I0316 16:32:41.613409 16042 net.cpp:157] Top shape: 8 1024 14 14 (1605632)
I0316 16:32:41.613438 16042 net.cpp:165] Memory required for data: 1591182272
I0316 16:32:41.613476 16042 layer_factory.hpp:77] Creating layer res4d_branch2a
I0316 16:32:41.613509 16042 net.cpp:106] Creating Layer res4d_branch2a
I0316 16:32:41.613531 16042 net.cpp:454] res4d_branch2a <- res4c_res4c_relu_0_split_0
I0316 16:32:41.613554 16042 net.cpp:411] res4d_branch2a -> res4d_branch2a
I0316 16:32:41.615448 16042 net.cpp:150] Setting up res4d_branch2a
I0316 16:32:41.615490 16042 net.cpp:157] Top shape: 8 256 14 14 (401408)
I0316 16:32:41.615509 16042 net.cpp:165] Memory required for data: 1592787904
I0316 16:32:41.615533 16042 layer_factory.hpp:77] Creating layer bn4d_branch2a
I0316 16:32:41.615559 16042 net.cpp:106] Creating Layer bn4d_branch2a
I0316 16:32:41.615578 16042 net.cpp:454] bn4d_branch2a <- res4d_branch2a
I0316 16:32:41.615607 16042 net.cpp:397] bn4d_branch2a -> res4d_branch2a (in-place)
I0316 16:32:41.616036 16042 net.cpp:150] Setting up bn4d_branch2a
I0316 16:32:41.616070 16042 net.cpp:157] Top shape: 8 256 14 14 (401408)
I0316 16:32:41.616087 16042 net.cpp:165] Memory required for data: 1594393536
I0316 16:32:41.616117 16042 layer_factory.hpp:77] Creating layer scale4d_branch2a
I0316 16:32:41.616142 16042 net.cpp:106] Creating Layer scale4d_branch2a
I0316 16:32:41.616161 16042 net.cpp:454] scale4d_branch2a <- res4d_branch2a
I0316 16:32:41.616183 16042 net.cpp:397] scale4d_branch2a -> res4d_branch2a (in-place)
I0316 16:32:41.616297 16042 layer_factory.hpp:77] Creating layer scale4d_branch2a
I0316 16:32:41.616580 16042 net.cpp:150] Setting up scale4d_branch2a
I0316 16:32:41.616626 16042 net.cpp:157] Top shape: 8 256 14 14 (401408)
I0316 16:32:41.616648 16042 net.cpp:165] Memory required for data: 1595999168
I0316 16:32:41.616674 16042 layer_factory.hpp:77] Creating layer res4d_branch2a_relu
I0316 16:32:41.616699 16042 net.cpp:106] Creating Layer res4d_branch2a_relu
I0316 16:32:41.616719 16042 net.cpp:454] res4d_branch2a_relu <- res4d_branch2a
I0316 16:32:41.616746 16042 net.cpp:397] res4d_branch2a_relu -> res4d_branch2a (in-place)
I0316 16:32:41.616773 16042 net.cpp:150] Setting up res4d_branch2a_relu
I0316 16:32:41.616796 16042 net.cpp:157] Top shape: 8 256 14 14 (401408)
I0316 16:32:41.616813 16042 net.cpp:165] Memory required for data: 1597604800
I0316 16:32:41.616832 16042 layer_factory.hpp:77] Creating layer res4d_branch2b
I0316 16:32:41.616858 16042 net.cpp:106] Creating Layer res4d_branch2b
I0316 16:32:41.616876 16042 net.cpp:454] res4d_branch2b <- res4d_branch2a
I0316 16:32:41.616904 16042 net.cpp:411] res4d_branch2b -> res4d_branch2b
I0316 16:32:41.620277 16042 net.cpp:150] Setting up res4d_branch2b
I0316 16:32:41.620319 16042 net.cpp:157] Top shape: 8 256 14 14 (401408)
I0316 16:32:41.620338 16042 net.cpp:165] Memory required for data: 1599210432
I0316 16:32:41.620362 16042 layer_factory.hpp:77] Creating layer bn4d_branch2b
I0316 16:32:41.620388 16042 net.cpp:106] Creating Layer bn4d_branch2b
I0316 16:32:41.620409 16042 net.cpp:454] bn4d_branch2b <- res4d_branch2b
I0316 16:32:41.620431 16042 net.cpp:397] bn4d_branch2b -> res4d_branch2b (in-place)
I0316 16:32:41.620883 16042 net.cpp:150] Setting up bn4d_branch2b
I0316 16:32:41.620920 16042 net.cpp:157] Top shape: 8 256 14 14 (401408)
I0316 16:32:41.620939 16042 net.cpp:165] Memory required for data: 1600816064
I0316 16:32:41.620968 16042 layer_factory.hpp:77] Creating layer scale4d_branch2b
I0316 16:32:41.621001 16042 net.cpp:106] Creating Layer scale4d_branch2b
I0316 16:32:41.621021 16042 net.cpp:454] scale4d_branch2b <- res4d_branch2b
I0316 16:32:41.621043 16042 net.cpp:397] scale4d_branch2b -> res4d_branch2b (in-place)
I0316 16:32:41.621157 16042 layer_factory.hpp:77] Creating layer scale4d_branch2b
I0316 16:32:41.621438 16042 net.cpp:150] Setting up scale4d_branch2b
I0316 16:32:41.621470 16042 net.cpp:157] Top shape: 8 256 14 14 (401408)
I0316 16:32:41.621487 16042 net.cpp:165] Memory required for data: 1602421696
I0316 16:32:41.621513 16042 layer_factory.hpp:77] Creating layer res4d_branch2b_relu
I0316 16:32:41.621537 16042 net.cpp:106] Creating Layer res4d_branch2b_relu
I0316 16:32:41.621593 16042 net.cpp:454] res4d_branch2b_relu <- res4d_branch2b
I0316 16:32:41.621623 16042 net.cpp:397] res4d_branch2b_relu -> res4d_branch2b (in-place)
I0316 16:32:41.621650 16042 net.cpp:150] Setting up res4d_branch2b_relu
I0316 16:32:41.621675 16042 net.cpp:157] Top shape: 8 256 14 14 (401408)
I0316 16:32:41.621691 16042 net.cpp:165] Memory required for data: 1604027328
I0316 16:32:41.621709 16042 layer_factory.hpp:77] Creating layer res4d_branch2c
I0316 16:32:41.621742 16042 net.cpp:106] Creating Layer res4d_branch2c
I0316 16:32:41.621762 16042 net.cpp:454] res4d_branch2c <- res4d_branch2b
I0316 16:32:41.621784 16042 net.cpp:411] res4d_branch2c -> res4d_branch2c
I0316 16:32:41.623652 16042 net.cpp:150] Setting up res4d_branch2c
I0316 16:32:41.623693 16042 net.cpp:157] Top shape: 8 1024 14 14 (1605632)
I0316 16:32:41.623713 16042 net.cpp:165] Memory required for data: 1610449856
I0316 16:32:41.623736 16042 layer_factory.hpp:77] Creating layer bn4d_branch2c
I0316 16:32:41.623767 16042 net.cpp:106] Creating Layer bn4d_branch2c
I0316 16:32:41.623788 16042 net.cpp:454] bn4d_branch2c <- res4d_branch2c
I0316 16:32:41.623811 16042 net.cpp:397] bn4d_branch2c -> res4d_branch2c (in-place)
I0316 16:32:41.624254 16042 net.cpp:150] Setting up bn4d_branch2c
I0316 16:32:41.624289 16042 net.cpp:157] Top shape: 8 1024 14 14 (1605632)
I0316 16:32:41.624306 16042 net.cpp:165] Memory required for data: 1616872384
I0316 16:32:41.624336 16042 layer_factory.hpp:77] Creating layer scale4d_branch2c
I0316 16:32:41.624362 16042 net.cpp:106] Creating Layer scale4d_branch2c
I0316 16:32:41.624382 16042 net.cpp:454] scale4d_branch2c <- res4d_branch2c
I0316 16:32:41.624416 16042 net.cpp:397] scale4d_branch2c -> res4d_branch2c (in-place)
I0316 16:32:41.624524 16042 layer_factory.hpp:77] Creating layer scale4d_branch2c
I0316 16:32:41.624838 16042 net.cpp:150] Setting up scale4d_branch2c
I0316 16:32:41.624876 16042 net.cpp:157] Top shape: 8 1024 14 14 (1605632)
I0316 16:32:41.624894 16042 net.cpp:165] Memory required for data: 1623294912
I0316 16:32:41.624919 16042 layer_factory.hpp:77] Creating layer res4d
I0316 16:32:41.624950 16042 net.cpp:106] Creating Layer res4d
I0316 16:32:41.624971 16042 net.cpp:454] res4d <- res4c_res4c_relu_0_split_1
I0316 16:32:41.624994 16042 net.cpp:454] res4d <- res4d_branch2c
I0316 16:32:41.625016 16042 net.cpp:411] res4d -> res4d
I0316 16:32:41.625093 16042 net.cpp:150] Setting up res4d
I0316 16:32:41.625123 16042 net.cpp:157] Top shape: 8 1024 14 14 (1605632)
I0316 16:32:41.625141 16042 net.cpp:165] Memory required for data: 1629717440
I0316 16:32:41.625160 16042 layer_factory.hpp:77] Creating layer res4d_relu
I0316 16:32:41.625183 16042 net.cpp:106] Creating Layer res4d_relu
I0316 16:32:41.625202 16042 net.cpp:454] res4d_relu <- res4d
I0316 16:32:41.625229 16042 net.cpp:397] res4d_relu -> res4d (in-place)
I0316 16:32:41.625257 16042 net.cpp:150] Setting up res4d_relu
I0316 16:32:41.625279 16042 net.cpp:157] Top shape: 8 1024 14 14 (1605632)
I0316 16:32:41.625296 16042 net.cpp:165] Memory required for data: 1636139968
I0316 16:32:41.625314 16042 layer_factory.hpp:77] Creating layer res4d_res4d_relu_0_split
I0316 16:32:41.625336 16042 net.cpp:106] Creating Layer res4d_res4d_relu_0_split
I0316 16:32:41.625355 16042 net.cpp:454] res4d_res4d_relu_0_split <- res4d
I0316 16:32:41.625376 16042 net.cpp:411] res4d_res4d_relu_0_split -> res4d_res4d_relu_0_split_0
I0316 16:32:41.625401 16042 net.cpp:411] res4d_res4d_relu_0_split -> res4d_res4d_relu_0_split_1
I0316 16:32:41.625501 16042 net.cpp:150] Setting up res4d_res4d_relu_0_split
I0316 16:32:41.625531 16042 net.cpp:157] Top shape: 8 1024 14 14 (1605632)
I0316 16:32:41.625552 16042 net.cpp:157] Top shape: 8 1024 14 14 (1605632)
I0316 16:32:41.625568 16042 net.cpp:165] Memory required for data: 1648985024
I0316 16:32:41.625586 16042 layer_factory.hpp:77] Creating layer res4e_branch2a
I0316 16:32:41.625623 16042 net.cpp:106] Creating Layer res4e_branch2a
I0316 16:32:41.625645 16042 net.cpp:454] res4e_branch2a <- res4d_res4d_relu_0_split_0
I0316 16:32:41.625681 16042 net.cpp:411] res4e_branch2a -> res4e_branch2a
I0316 16:32:41.627583 16042 net.cpp:150] Setting up res4e_branch2a
I0316 16:32:41.627625 16042 net.cpp:157] Top shape: 8 256 14 14 (401408)
I0316 16:32:41.627645 16042 net.cpp:165] Memory required for data: 1650590656
I0316 16:32:41.627667 16042 layer_factory.hpp:77] Creating layer bn4e_branch2a
I0316 16:32:41.627692 16042 net.cpp:106] Creating Layer bn4e_branch2a
I0316 16:32:41.627712 16042 net.cpp:454] bn4e_branch2a <- res4e_branch2a
I0316 16:32:41.627740 16042 net.cpp:397] bn4e_branch2a -> res4e_branch2a (in-place)
I0316 16:32:41.628181 16042 net.cpp:150] Setting up bn4e_branch2a
I0316 16:32:41.628214 16042 net.cpp:157] Top shape: 8 256 14 14 (401408)
I0316 16:32:41.628232 16042 net.cpp:165] Memory required for data: 1652196288
I0316 16:32:41.628263 16042 layer_factory.hpp:77] Creating layer scale4e_branch2a
I0316 16:32:41.628288 16042 net.cpp:106] Creating Layer scale4e_branch2a
I0316 16:32:41.628309 16042 net.cpp:454] scale4e_branch2a <- res4e_branch2a
I0316 16:32:41.628331 16042 net.cpp:397] scale4e_branch2a -> res4e_branch2a (in-place)
I0316 16:32:41.628445 16042 layer_factory.hpp:77] Creating layer scale4e_branch2a
I0316 16:32:41.628741 16042 net.cpp:150] Setting up scale4e_branch2a
I0316 16:32:41.628779 16042 net.cpp:157] Top shape: 8 256 14 14 (401408)
I0316 16:32:41.628798 16042 net.cpp:165] Memory required for data: 1653801920
I0316 16:32:41.628823 16042 layer_factory.hpp:77] Creating layer res4e_branch2a_relu
I0316 16:32:41.628846 16042 net.cpp:106] Creating Layer res4e_branch2a_relu
I0316 16:32:41.628865 16042 net.cpp:454] res4e_branch2a_relu <- res4e_branch2a
I0316 16:32:41.628892 16042 net.cpp:397] res4e_branch2a_relu -> res4e_branch2a (in-place)
I0316 16:32:41.628918 16042 net.cpp:150] Setting up res4e_branch2a_relu
I0316 16:32:41.628942 16042 net.cpp:157] Top shape: 8 256 14 14 (401408)
I0316 16:32:41.628958 16042 net.cpp:165] Memory required for data: 1655407552
I0316 16:32:41.628976 16042 layer_factory.hpp:77] Creating layer res4e_branch2b
I0316 16:32:41.629003 16042 net.cpp:106] Creating Layer res4e_branch2b
I0316 16:32:41.629021 16042 net.cpp:454] res4e_branch2b <- res4e_branch2a
I0316 16:32:41.629050 16042 net.cpp:411] res4e_branch2b -> res4e_branch2b
I0316 16:32:41.632400 16042 net.cpp:150] Setting up res4e_branch2b
I0316 16:32:41.632444 16042 net.cpp:157] Top shape: 8 256 14 14 (401408)
I0316 16:32:41.632463 16042 net.cpp:165] Memory required for data: 1657013184
I0316 16:32:41.632488 16042 layer_factory.hpp:77] Creating layer bn4e_branch2b
I0316 16:32:41.632513 16042 net.cpp:106] Creating Layer bn4e_branch2b
I0316 16:32:41.632532 16042 net.cpp:454] bn4e_branch2b <- res4e_branch2b
I0316 16:32:41.632555 16042 net.cpp:397] bn4e_branch2b -> res4e_branch2b (in-place)
I0316 16:32:41.633023 16042 net.cpp:150] Setting up bn4e_branch2b
I0316 16:32:41.633060 16042 net.cpp:157] Top shape: 8 256 14 14 (401408)
I0316 16:32:41.633080 16042 net.cpp:165] Memory required for data: 1658618816
I0316 16:32:41.633110 16042 layer_factory.hpp:77] Creating layer scale4e_branch2b
I0316 16:32:41.633141 16042 net.cpp:106] Creating Layer scale4e_branch2b
I0316 16:32:41.633162 16042 net.cpp:454] scale4e_branch2b <- res4e_branch2b
I0316 16:32:41.633184 16042 net.cpp:397] scale4e_branch2b -> res4e_branch2b (in-place)
I0316 16:32:41.633301 16042 layer_factory.hpp:77] Creating layer scale4e_branch2b
I0316 16:32:41.633592 16042 net.cpp:150] Setting up scale4e_branch2b
I0316 16:32:41.633626 16042 net.cpp:157] Top shape: 8 256 14 14 (401408)
I0316 16:32:41.633644 16042 net.cpp:165] Memory required for data: 1660224448
I0316 16:32:41.633669 16042 layer_factory.hpp:77] Creating layer res4e_branch2b_relu
I0316 16:32:41.633693 16042 net.cpp:106] Creating Layer res4e_branch2b_relu
I0316 16:32:41.633713 16042 net.cpp:454] res4e_branch2b_relu <- res4e_branch2b
I0316 16:32:41.633740 16042 net.cpp:397] res4e_branch2b_relu -> res4e_branch2b (in-place)
I0316 16:32:41.633767 16042 net.cpp:150] Setting up res4e_branch2b_relu
I0316 16:32:41.633790 16042 net.cpp:157] Top shape: 8 256 14 14 (401408)
I0316 16:32:41.633834 16042 net.cpp:165] Memory required for data: 1661830080
I0316 16:32:41.633853 16042 layer_factory.hpp:77] Creating layer res4e_branch2c
I0316 16:32:41.633886 16042 net.cpp:106] Creating Layer res4e_branch2c
I0316 16:32:41.633906 16042 net.cpp:454] res4e_branch2c <- res4e_branch2b
I0316 16:32:41.633931 16042 net.cpp:411] res4e_branch2c -> res4e_branch2c
I0316 16:32:41.635809 16042 net.cpp:150] Setting up res4e_branch2c
I0316 16:32:41.635851 16042 net.cpp:157] Top shape: 8 1024 14 14 (1605632)
I0316 16:32:41.635870 16042 net.cpp:165] Memory required for data: 1668252608
I0316 16:32:41.635895 16042 layer_factory.hpp:77] Creating layer bn4e_branch2c
I0316 16:32:41.635924 16042 net.cpp:106] Creating Layer bn4e_branch2c
I0316 16:32:41.635946 16042 net.cpp:454] bn4e_branch2c <- res4e_branch2c
I0316 16:32:41.635968 16042 net.cpp:397] bn4e_branch2c -> res4e_branch2c (in-place)
I0316 16:32:41.636415 16042 net.cpp:150] Setting up bn4e_branch2c
I0316 16:32:41.636448 16042 net.cpp:157] Top shape: 8 1024 14 14 (1605632)
I0316 16:32:41.636466 16042 net.cpp:165] Memory required for data: 1674675136
I0316 16:32:41.636497 16042 layer_factory.hpp:77] Creating layer scale4e_branch2c
I0316 16:32:41.636521 16042 net.cpp:106] Creating Layer scale4e_branch2c
I0316 16:32:41.636540 16042 net.cpp:454] scale4e_branch2c <- res4e_branch2c
I0316 16:32:41.636569 16042 net.cpp:397] scale4e_branch2c -> res4e_branch2c (in-place)
I0316 16:32:41.636692 16042 layer_factory.hpp:77] Creating layer scale4e_branch2c
I0316 16:32:41.636989 16042 net.cpp:150] Setting up scale4e_branch2c
I0316 16:32:41.637023 16042 net.cpp:157] Top shape: 8 1024 14 14 (1605632)
I0316 16:32:41.637042 16042 net.cpp:165] Memory required for data: 1681097664
I0316 16:32:41.637068 16042 layer_factory.hpp:77] Creating layer res4e
I0316 16:32:41.637099 16042 net.cpp:106] Creating Layer res4e
I0316 16:32:41.637120 16042 net.cpp:454] res4e <- res4d_res4d_relu_0_split_1
I0316 16:32:41.637140 16042 net.cpp:454] res4e <- res4e_branch2c
I0316 16:32:41.637164 16042 net.cpp:411] res4e -> res4e
I0316 16:32:41.637248 16042 net.cpp:150] Setting up res4e
I0316 16:32:41.637279 16042 net.cpp:157] Top shape: 8 1024 14 14 (1605632)
I0316 16:32:41.637296 16042 net.cpp:165] Memory required for data: 1687520192
I0316 16:32:41.637315 16042 layer_factory.hpp:77] Creating layer res4e_relu
I0316 16:32:41.637337 16042 net.cpp:106] Creating Layer res4e_relu
I0316 16:32:41.637356 16042 net.cpp:454] res4e_relu <- res4e
I0316 16:32:41.637383 16042 net.cpp:397] res4e_relu -> res4e (in-place)
I0316 16:32:41.637409 16042 net.cpp:150] Setting up res4e_relu
I0316 16:32:41.637432 16042 net.cpp:157] Top shape: 8 1024 14 14 (1605632)
I0316 16:32:41.637450 16042 net.cpp:165] Memory required for data: 1693942720
I0316 16:32:41.637468 16042 layer_factory.hpp:77] Creating layer res4e_res4e_relu_0_split
I0316 16:32:41.637490 16042 net.cpp:106] Creating Layer res4e_res4e_relu_0_split
I0316 16:32:41.637508 16042 net.cpp:454] res4e_res4e_relu_0_split <- res4e
I0316 16:32:41.637529 16042 net.cpp:411] res4e_res4e_relu_0_split -> res4e_res4e_relu_0_split_0
I0316 16:32:41.637554 16042 net.cpp:411] res4e_res4e_relu_0_split -> res4e_res4e_relu_0_split_1
I0316 16:32:41.637655 16042 net.cpp:150] Setting up res4e_res4e_relu_0_split
I0316 16:32:41.637686 16042 net.cpp:157] Top shape: 8 1024 14 14 (1605632)
I0316 16:32:41.637706 16042 net.cpp:157] Top shape: 8 1024 14 14 (1605632)
I0316 16:32:41.637723 16042 net.cpp:165] Memory required for data: 1706787776
I0316 16:32:41.637740 16042 layer_factory.hpp:77] Creating layer res4f_branch2a
I0316 16:32:41.637773 16042 net.cpp:106] Creating Layer res4f_branch2a
I0316 16:32:41.637794 16042 net.cpp:454] res4f_branch2a <- res4e_res4e_relu_0_split_0
I0316 16:32:41.637819 16042 net.cpp:411] res4f_branch2a -> res4f_branch2a
I0316 16:32:41.639708 16042 net.cpp:150] Setting up res4f_branch2a
I0316 16:32:41.639750 16042 net.cpp:157] Top shape: 8 256 14 14 (401408)
I0316 16:32:41.639770 16042 net.cpp:165] Memory required for data: 1708393408
I0316 16:32:41.639806 16042 layer_factory.hpp:77] Creating layer bn4f_branch2a
I0316 16:32:41.639850 16042 net.cpp:106] Creating Layer bn4f_branch2a
I0316 16:32:41.639873 16042 net.cpp:454] bn4f_branch2a <- res4f_branch2a
I0316 16:32:41.639900 16042 net.cpp:397] bn4f_branch2a -> res4f_branch2a (in-place)
I0316 16:32:41.640341 16042 net.cpp:150] Setting up bn4f_branch2a
I0316 16:32:41.640374 16042 net.cpp:157] Top shape: 8 256 14 14 (401408)
I0316 16:32:41.640393 16042 net.cpp:165] Memory required for data: 1709999040
I0316 16:32:41.640422 16042 layer_factory.hpp:77] Creating layer scale4f_branch2a
I0316 16:32:41.640449 16042 net.cpp:106] Creating Layer scale4f_branch2a
I0316 16:32:41.640467 16042 net.cpp:454] scale4f_branch2a <- res4f_branch2a
I0316 16:32:41.640489 16042 net.cpp:397] scale4f_branch2a -> res4f_branch2a (in-place)
I0316 16:32:41.640609 16042 layer_factory.hpp:77] Creating layer scale4f_branch2a
I0316 16:32:41.640908 16042 net.cpp:150] Setting up scale4f_branch2a
I0316 16:32:41.640941 16042 net.cpp:157] Top shape: 8 256 14 14 (401408)
I0316 16:32:41.640959 16042 net.cpp:165] Memory required for data: 1711604672
I0316 16:32:41.640985 16042 layer_factory.hpp:77] Creating layer res4f_branch2a_relu
I0316 16:32:41.641010 16042 net.cpp:106] Creating Layer res4f_branch2a_relu
I0316 16:32:41.641028 16042 net.cpp:454] res4f_branch2a_relu <- res4f_branch2a
I0316 16:32:41.641062 16042 net.cpp:397] res4f_branch2a_relu -> res4f_branch2a (in-place)
I0316 16:32:41.641088 16042 net.cpp:150] Setting up res4f_branch2a_relu
I0316 16:32:41.641111 16042 net.cpp:157] Top shape: 8 256 14 14 (401408)
I0316 16:32:41.641129 16042 net.cpp:165] Memory required for data: 1713210304
I0316 16:32:41.641146 16042 layer_factory.hpp:77] Creating layer res4f_branch2b
I0316 16:32:41.641172 16042 net.cpp:106] Creating Layer res4f_branch2b
I0316 16:32:41.641191 16042 net.cpp:454] res4f_branch2b <- res4f_branch2a
I0316 16:32:41.641219 16042 net.cpp:411] res4f_branch2b -> res4f_branch2b
I0316 16:32:41.644574 16042 net.cpp:150] Setting up res4f_branch2b
I0316 16:32:41.644630 16042 net.cpp:157] Top shape: 8 256 14 14 (401408)
I0316 16:32:41.644654 16042 net.cpp:165] Memory required for data: 1714815936
I0316 16:32:41.644678 16042 layer_factory.hpp:77] Creating layer bn4f_branch2b
I0316 16:32:41.644703 16042 net.cpp:106] Creating Layer bn4f_branch2b
I0316 16:32:41.644723 16042 net.cpp:454] bn4f_branch2b <- res4f_branch2b
I0316 16:32:41.644747 16042 net.cpp:397] bn4f_branch2b -> res4f_branch2b (in-place)
I0316 16:32:41.645190 16042 net.cpp:150] Setting up bn4f_branch2b
I0316 16:32:41.645225 16042 net.cpp:157] Top shape: 8 256 14 14 (401408)
I0316 16:32:41.645242 16042 net.cpp:165] Memory required for data: 1716421568
I0316 16:32:41.645272 16042 layer_factory.hpp:77] Creating layer scale4f_branch2b
I0316 16:32:41.645303 16042 net.cpp:106] Creating Layer scale4f_branch2b
I0316 16:32:41.645323 16042 net.cpp:454] scale4f_branch2b <- res4f_branch2b
I0316 16:32:41.645345 16042 net.cpp:397] scale4f_branch2b -> res4f_branch2b (in-place)
I0316 16:32:41.645467 16042 layer_factory.hpp:77] Creating layer scale4f_branch2b
I0316 16:32:41.645747 16042 net.cpp:150] Setting up scale4f_branch2b
I0316 16:32:41.645781 16042 net.cpp:157] Top shape: 8 256 14 14 (401408)
I0316 16:32:41.645798 16042 net.cpp:165] Memory required for data: 1718027200
I0316 16:32:41.645824 16042 layer_factory.hpp:77] Creating layer res4f_branch2b_relu
I0316 16:32:41.645848 16042 net.cpp:106] Creating Layer res4f_branch2b_relu
I0316 16:32:41.645866 16042 net.cpp:454] res4f_branch2b_relu <- res4f_branch2b
I0316 16:32:41.645894 16042 net.cpp:397] res4f_branch2b_relu -> res4f_branch2b (in-place)
I0316 16:32:41.645920 16042 net.cpp:150] Setting up res4f_branch2b_relu
I0316 16:32:41.645943 16042 net.cpp:157] Top shape: 8 256 14 14 (401408)
I0316 16:32:41.645961 16042 net.cpp:165] Memory required for data: 1719632832
I0316 16:32:41.645979 16042 layer_factory.hpp:77] Creating layer res4f_branch2c
I0316 16:32:41.646013 16042 net.cpp:106] Creating Layer res4f_branch2c
I0316 16:32:41.646033 16042 net.cpp:454] res4f_branch2c <- res4f_branch2b
I0316 16:32:41.646085 16042 net.cpp:411] res4f_branch2c -> res4f_branch2c
I0316 16:32:41.647969 16042 net.cpp:150] Setting up res4f_branch2c
I0316 16:32:41.648010 16042 net.cpp:157] Top shape: 8 1024 14 14 (1605632)
I0316 16:32:41.648028 16042 net.cpp:165] Memory required for data: 1726055360
I0316 16:32:41.648052 16042 layer_factory.hpp:77] Creating layer bn4f_branch2c
I0316 16:32:41.648083 16042 net.cpp:106] Creating Layer bn4f_branch2c
I0316 16:32:41.648104 16042 net.cpp:454] bn4f_branch2c <- res4f_branch2c
I0316 16:32:41.648126 16042 net.cpp:397] bn4f_branch2c -> res4f_branch2c (in-place)
I0316 16:32:41.648576 16042 net.cpp:150] Setting up bn4f_branch2c
I0316 16:32:41.648609 16042 net.cpp:157] Top shape: 8 1024 14 14 (1605632)
I0316 16:32:41.648645 16042 net.cpp:165] Memory required for data: 1732477888
I0316 16:32:41.648764 16042 layer_factory.hpp:77] Creating layer scale4f_branch2c
I0316 16:32:41.648798 16042 net.cpp:106] Creating Layer scale4f_branch2c
I0316 16:32:41.648819 16042 net.cpp:454] scale4f_branch2c <- res4f_branch2c
I0316 16:32:41.648843 16042 net.cpp:397] scale4f_branch2c -> res4f_branch2c (in-place)
I0316 16:32:41.648962 16042 layer_factory.hpp:77] Creating layer scale4f_branch2c
I0316 16:32:41.649256 16042 net.cpp:150] Setting up scale4f_branch2c
I0316 16:32:41.649291 16042 net.cpp:157] Top shape: 8 1024 14 14 (1605632)
I0316 16:32:41.649308 16042 net.cpp:165] Memory required for data: 1738900416
I0316 16:32:41.649334 16042 layer_factory.hpp:77] Creating layer res4f
I0316 16:32:41.649364 16042 net.cpp:106] Creating Layer res4f
I0316 16:32:41.649385 16042 net.cpp:454] res4f <- res4e_res4e_relu_0_split_1
I0316 16:32:41.649406 16042 net.cpp:454] res4f <- res4f_branch2c
I0316 16:32:41.649428 16042 net.cpp:411] res4f -> res4f
I0316 16:32:41.649507 16042 net.cpp:150] Setting up res4f
I0316 16:32:41.649538 16042 net.cpp:157] Top shape: 8 1024 14 14 (1605632)
I0316 16:32:41.649555 16042 net.cpp:165] Memory required for data: 1745322944
I0316 16:32:41.649574 16042 layer_factory.hpp:77] Creating layer res4f_relu
I0316 16:32:41.649595 16042 net.cpp:106] Creating Layer res4f_relu
I0316 16:32:41.649613 16042 net.cpp:454] res4f_relu <- res4f
I0316 16:32:41.649641 16042 net.cpp:397] res4f_relu -> res4f (in-place)
I0316 16:32:41.649667 16042 net.cpp:150] Setting up res4f_relu
I0316 16:32:41.649690 16042 net.cpp:157] Top shape: 8 1024 14 14 (1605632)
I0316 16:32:41.649708 16042 net.cpp:165] Memory required for data: 1751745472
I0316 16:32:41.649725 16042 layer_factory.hpp:77] Creating layer res4f_res4f_relu_0_split
I0316 16:32:41.649747 16042 net.cpp:106] Creating Layer res4f_res4f_relu_0_split
I0316 16:32:41.649765 16042 net.cpp:454] res4f_res4f_relu_0_split <- res4f
I0316 16:32:41.649787 16042 net.cpp:411] res4f_res4f_relu_0_split -> res4f_res4f_relu_0_split_0
I0316 16:32:41.649817 16042 net.cpp:411] res4f_res4f_relu_0_split -> res4f_res4f_relu_0_split_1
I0316 16:32:41.649919 16042 net.cpp:150] Setting up res4f_res4f_relu_0_split
I0316 16:32:41.649950 16042 net.cpp:157] Top shape: 8 1024 14 14 (1605632)
I0316 16:32:41.649969 16042 net.cpp:157] Top shape: 8 1024 14 14 (1605632)
I0316 16:32:41.649986 16042 net.cpp:165] Memory required for data: 1764590528
I0316 16:32:41.650004 16042 layer_factory.hpp:77] Creating layer res5a_branch1
I0316 16:32:41.650032 16042 net.cpp:106] Creating Layer res5a_branch1
I0316 16:32:41.650053 16042 net.cpp:454] res5a_branch1 <- res4f_res4f_relu_0_split_0
I0316 16:32:41.650074 16042 net.cpp:411] res5a_branch1 -> res5a_branch1
I0316 16:32:41.660282 16042 net.cpp:150] Setting up res5a_branch1
I0316 16:32:41.660337 16042 net.cpp:157] Top shape: 8 2048 7 7 (802816)
I0316 16:32:41.660357 16042 net.cpp:165] Memory required for data: 1767801792
I0316 16:32:41.660382 16042 layer_factory.hpp:77] Creating layer bn5a_branch1
I0316 16:32:41.660413 16042 net.cpp:106] Creating Layer bn5a_branch1
I0316 16:32:41.660435 16042 net.cpp:454] bn5a_branch1 <- res5a_branch1
I0316 16:32:41.660459 16042 net.cpp:397] bn5a_branch1 -> res5a_branch1 (in-place)
I0316 16:32:41.660979 16042 net.cpp:150] Setting up bn5a_branch1
I0316 16:32:41.661036 16042 net.cpp:157] Top shape: 8 2048 7 7 (802816)
I0316 16:32:41.661054 16042 net.cpp:165] Memory required for data: 1771013056
I0316 16:32:41.661084 16042 layer_factory.hpp:77] Creating layer scale5a_branch1
I0316 16:32:41.661118 16042 net.cpp:106] Creating Layer scale5a_branch1
I0316 16:32:41.661139 16042 net.cpp:454] scale5a_branch1 <- res5a_branch1
I0316 16:32:41.661162 16042 net.cpp:397] scale5a_branch1 -> res5a_branch1 (in-place)
I0316 16:32:41.661289 16042 layer_factory.hpp:77] Creating layer scale5a_branch1
I0316 16:32:41.661598 16042 net.cpp:150] Setting up scale5a_branch1
I0316 16:32:41.661633 16042 net.cpp:157] Top shape: 8 2048 7 7 (802816)
I0316 16:32:41.661650 16042 net.cpp:165] Memory required for data: 1774224320
I0316 16:32:41.661676 16042 layer_factory.hpp:77] Creating layer res5a_branch2a
I0316 16:32:41.661710 16042 net.cpp:106] Creating Layer res5a_branch2a
I0316 16:32:41.661733 16042 net.cpp:454] res5a_branch2a <- res4f_res4f_relu_0_split_1
I0316 16:32:41.661757 16042 net.cpp:411] res5a_branch2a -> res5a_branch2a
I0316 16:32:41.664829 16042 net.cpp:150] Setting up res5a_branch2a
I0316 16:32:41.664875 16042 net.cpp:157] Top shape: 8 512 7 7 (200704)
I0316 16:32:41.664893 16042 net.cpp:165] Memory required for data: 1775027136
I0316 16:32:41.664917 16042 layer_factory.hpp:77] Creating layer bn5a_branch2a
I0316 16:32:41.664942 16042 net.cpp:106] Creating Layer bn5a_branch2a
I0316 16:32:41.664963 16042 net.cpp:454] bn5a_branch2a <- res5a_branch2a
I0316 16:32:41.664991 16042 net.cpp:397] bn5a_branch2a -> res5a_branch2a (in-place)
I0316 16:32:41.665451 16042 net.cpp:150] Setting up bn5a_branch2a
I0316 16:32:41.665484 16042 net.cpp:157] Top shape: 8 512 7 7 (200704)
I0316 16:32:41.665503 16042 net.cpp:165] Memory required for data: 1775829952
I0316 16:32:41.665532 16042 layer_factory.hpp:77] Creating layer scale5a_branch2a
I0316 16:32:41.665558 16042 net.cpp:106] Creating Layer scale5a_branch2a
I0316 16:32:41.665578 16042 net.cpp:454] scale5a_branch2a <- res5a_branch2a
I0316 16:32:41.665601 16042 net.cpp:397] scale5a_branch2a -> res5a_branch2a (in-place)
I0316 16:32:41.665716 16042 layer_factory.hpp:77] Creating layer scale5a_branch2a
I0316 16:32:41.666020 16042 net.cpp:150] Setting up scale5a_branch2a
I0316 16:32:41.666054 16042 net.cpp:157] Top shape: 8 512 7 7 (200704)
I0316 16:32:41.666072 16042 net.cpp:165] Memory required for data: 1776632768
I0316 16:32:41.666098 16042 layer_factory.hpp:77] Creating layer res5a_branch2a_relu
I0316 16:32:41.666123 16042 net.cpp:106] Creating Layer res5a_branch2a_relu
I0316 16:32:41.666142 16042 net.cpp:454] res5a_branch2a_relu <- res5a_branch2a
I0316 16:32:41.666169 16042 net.cpp:397] res5a_branch2a_relu -> res5a_branch2a (in-place)
I0316 16:32:41.666198 16042 net.cpp:150] Setting up res5a_branch2a_relu
I0316 16:32:41.666220 16042 net.cpp:157] Top shape: 8 512 7 7 (200704)
I0316 16:32:41.666237 16042 net.cpp:165] Memory required for data: 1777435584
I0316 16:32:41.666256 16042 layer_factory.hpp:77] Creating layer res5a_branch2b
I0316 16:32:41.666283 16042 net.cpp:106] Creating Layer res5a_branch2b
I0316 16:32:41.666301 16042 net.cpp:454] res5a_branch2b <- res5a_branch2a
I0316 16:32:41.666330 16042 net.cpp:411] res5a_branch2b -> res5a_branch2b
I0316 16:32:41.677780 16042 net.cpp:150] Setting up res5a_branch2b
I0316 16:32:41.677846 16042 net.cpp:157] Top shape: 8 512 7 7 (200704)
I0316 16:32:41.677865 16042 net.cpp:165] Memory required for data: 1778238400
I0316 16:32:41.677889 16042 layer_factory.hpp:77] Creating layer bn5a_branch2b
I0316 16:32:41.677917 16042 net.cpp:106] Creating Layer bn5a_branch2b
I0316 16:32:41.677937 16042 net.cpp:454] bn5a_branch2b <- res5a_branch2b
I0316 16:32:41.677961 16042 net.cpp:397] bn5a_branch2b -> res5a_branch2b (in-place)
I0316 16:32:41.678431 16042 net.cpp:150] Setting up bn5a_branch2b
I0316 16:32:41.678464 16042 net.cpp:157] Top shape: 8 512 7 7 (200704)
I0316 16:32:41.678483 16042 net.cpp:165] Memory required for data: 1779041216
I0316 16:32:41.678514 16042 layer_factory.hpp:77] Creating layer scale5a_branch2b
I0316 16:32:41.678575 16042 net.cpp:106] Creating Layer scale5a_branch2b
I0316 16:32:41.678597 16042 net.cpp:454] scale5a_branch2b <- res5a_branch2b
I0316 16:32:41.678620 16042 net.cpp:397] scale5a_branch2b -> res5a_branch2b (in-place)
I0316 16:32:41.678738 16042 layer_factory.hpp:77] Creating layer scale5a_branch2b
I0316 16:32:41.679041 16042 net.cpp:150] Setting up scale5a_branch2b
I0316 16:32:41.679075 16042 net.cpp:157] Top shape: 8 512 7 7 (200704)
I0316 16:32:41.679093 16042 net.cpp:165] Memory required for data: 1779844032
I0316 16:32:41.679118 16042 layer_factory.hpp:77] Creating layer res5a_branch2b_relu
I0316 16:32:41.679142 16042 net.cpp:106] Creating Layer res5a_branch2b_relu
I0316 16:32:41.679162 16042 net.cpp:454] res5a_branch2b_relu <- res5a_branch2b
I0316 16:32:41.679190 16042 net.cpp:397] res5a_branch2b_relu -> res5a_branch2b (in-place)
I0316 16:32:41.679217 16042 net.cpp:150] Setting up res5a_branch2b_relu
I0316 16:32:41.679240 16042 net.cpp:157] Top shape: 8 512 7 7 (200704)
I0316 16:32:41.679257 16042 net.cpp:165] Memory required for data: 1780646848
I0316 16:32:41.679275 16042 layer_factory.hpp:77] Creating layer res5a_branch2c
I0316 16:32:41.679307 16042 net.cpp:106] Creating Layer res5a_branch2c
I0316 16:32:41.679328 16042 net.cpp:454] res5a_branch2c <- res5a_branch2b
I0316 16:32:41.679352 16042 net.cpp:411] res5a_branch2c -> res5a_branch2c
I0316 16:32:41.684808 16042 net.cpp:150] Setting up res5a_branch2c
I0316 16:32:41.684855 16042 net.cpp:157] Top shape: 8 2048 7 7 (802816)
I0316 16:32:41.684875 16042 net.cpp:165] Memory required for data: 1783858112
I0316 16:32:41.684898 16042 layer_factory.hpp:77] Creating layer bn5a_branch2c
I0316 16:32:41.684931 16042 net.cpp:106] Creating Layer bn5a_branch2c
I0316 16:32:41.684952 16042 net.cpp:454] bn5a_branch2c <- res5a_branch2c
I0316 16:32:41.684975 16042 net.cpp:397] bn5a_branch2c -> res5a_branch2c (in-place)
I0316 16:32:41.685444 16042 net.cpp:150] Setting up bn5a_branch2c
I0316 16:32:41.685477 16042 net.cpp:157] Top shape: 8 2048 7 7 (802816)
I0316 16:32:41.685497 16042 net.cpp:165] Memory required for data: 1787069376
I0316 16:32:41.685526 16042 layer_factory.hpp:77] Creating layer scale5a_branch2c
I0316 16:32:41.685552 16042 net.cpp:106] Creating Layer scale5a_branch2c
I0316 16:32:41.685571 16042 net.cpp:454] scale5a_branch2c <- res5a_branch2c
I0316 16:32:41.685595 16042 net.cpp:397] scale5a_branch2c -> res5a_branch2c (in-place)
I0316 16:32:41.685710 16042 layer_factory.hpp:77] Creating layer scale5a_branch2c
I0316 16:32:41.686012 16042 net.cpp:150] Setting up scale5a_branch2c
I0316 16:32:41.686046 16042 net.cpp:157] Top shape: 8 2048 7 7 (802816)
I0316 16:32:41.686065 16042 net.cpp:165] Memory required for data: 1790280640
I0316 16:32:41.686091 16042 layer_factory.hpp:77] Creating layer res5a
I0316 16:32:41.686125 16042 net.cpp:106] Creating Layer res5a
I0316 16:32:41.686146 16042 net.cpp:454] res5a <- res5a_branch1
I0316 16:32:41.686167 16042 net.cpp:454] res5a <- res5a_branch2c
I0316 16:32:41.686190 16042 net.cpp:411] res5a -> res5a
I0316 16:32:41.686272 16042 net.cpp:150] Setting up res5a
I0316 16:32:41.686302 16042 net.cpp:157] Top shape: 8 2048 7 7 (802816)
I0316 16:32:41.686321 16042 net.cpp:165] Memory required for data: 1793491904
I0316 16:32:41.686339 16042 layer_factory.hpp:77] Creating layer res5a_relu
I0316 16:32:41.686362 16042 net.cpp:106] Creating Layer res5a_relu
I0316 16:32:41.686381 16042 net.cpp:454] res5a_relu <- res5a
I0316 16:32:41.686409 16042 net.cpp:397] res5a_relu -> res5a (in-place)
I0316 16:32:41.686436 16042 net.cpp:150] Setting up res5a_relu
I0316 16:32:41.686458 16042 net.cpp:157] Top shape: 8 2048 7 7 (802816)
I0316 16:32:41.686476 16042 net.cpp:165] Memory required for data: 1796703168
I0316 16:32:41.686493 16042 layer_factory.hpp:77] Creating layer res5a_res5a_relu_0_split
I0316 16:32:41.686517 16042 net.cpp:106] Creating Layer res5a_res5a_relu_0_split
I0316 16:32:41.686535 16042 net.cpp:454] res5a_res5a_relu_0_split <- res5a
I0316 16:32:41.686558 16042 net.cpp:411] res5a_res5a_relu_0_split -> res5a_res5a_relu_0_split_0
I0316 16:32:41.686614 16042 net.cpp:411] res5a_res5a_relu_0_split -> res5a_res5a_relu_0_split_1
I0316 16:32:41.686722 16042 net.cpp:150] Setting up res5a_res5a_relu_0_split
I0316 16:32:41.686753 16042 net.cpp:157] Top shape: 8 2048 7 7 (802816)
I0316 16:32:41.686774 16042 net.cpp:157] Top shape: 8 2048 7 7 (802816)
I0316 16:32:41.686790 16042 net.cpp:165] Memory required for data: 1803125696
I0316 16:32:41.686808 16042 layer_factory.hpp:77] Creating layer res5b_branch2a
I0316 16:32:41.686842 16042 net.cpp:106] Creating Layer res5b_branch2a
I0316 16:32:41.686863 16042 net.cpp:454] res5b_branch2a <- res5a_res5a_relu_0_split_0
I0316 16:32:41.686887 16042 net.cpp:411] res5b_branch2a -> res5b_branch2a
I0316 16:32:41.692497 16042 net.cpp:150] Setting up res5b_branch2a
I0316 16:32:41.692543 16042 net.cpp:157] Top shape: 8 512 7 7 (200704)
I0316 16:32:41.692564 16042 net.cpp:165] Memory required for data: 1803928512
I0316 16:32:41.692587 16042 layer_factory.hpp:77] Creating layer bn5b_branch2a
I0316 16:32:41.692626 16042 net.cpp:106] Creating Layer bn5b_branch2a
I0316 16:32:41.692652 16042 net.cpp:454] bn5b_branch2a <- res5b_branch2a
I0316 16:32:41.692682 16042 net.cpp:397] bn5b_branch2a -> res5b_branch2a (in-place)
I0316 16:32:41.693152 16042 net.cpp:150] Setting up bn5b_branch2a
I0316 16:32:41.693186 16042 net.cpp:157] Top shape: 8 512 7 7 (200704)
I0316 16:32:41.693204 16042 net.cpp:165] Memory required for data: 1804731328
I0316 16:32:41.693234 16042 layer_factory.hpp:77] Creating layer scale5b_branch2a
I0316 16:32:41.693260 16042 net.cpp:106] Creating Layer scale5b_branch2a
I0316 16:32:41.693280 16042 net.cpp:454] scale5b_branch2a <- res5b_branch2a
I0316 16:32:41.693302 16042 net.cpp:397] scale5b_branch2a -> res5b_branch2a (in-place)
I0316 16:32:41.693418 16042 layer_factory.hpp:77] Creating layer scale5b_branch2a
I0316 16:32:41.693722 16042 net.cpp:150] Setting up scale5b_branch2a
I0316 16:32:41.693755 16042 net.cpp:157] Top shape: 8 512 7 7 (200704)
I0316 16:32:41.693773 16042 net.cpp:165] Memory required for data: 1805534144
I0316 16:32:41.693799 16042 layer_factory.hpp:77] Creating layer res5b_branch2a_relu
I0316 16:32:41.693825 16042 net.cpp:106] Creating Layer res5b_branch2a_relu
I0316 16:32:41.693843 16042 net.cpp:454] res5b_branch2a_relu <- res5b_branch2a
I0316 16:32:41.693871 16042 net.cpp:397] res5b_branch2a_relu -> res5b_branch2a (in-place)
I0316 16:32:41.693897 16042 net.cpp:150] Setting up res5b_branch2a_relu
I0316 16:32:41.693920 16042 net.cpp:157] Top shape: 8 512 7 7 (200704)
I0316 16:32:41.693938 16042 net.cpp:165] Memory required for data: 1806336960
I0316 16:32:41.693956 16042 layer_factory.hpp:77] Creating layer res5b_branch2b
I0316 16:32:41.693984 16042 net.cpp:106] Creating Layer res5b_branch2b
I0316 16:32:41.694002 16042 net.cpp:454] res5b_branch2b <- res5b_branch2a
I0316 16:32:41.694031 16042 net.cpp:411] res5b_branch2b -> res5b_branch2b
I0316 16:32:41.705464 16042 net.cpp:150] Setting up res5b_branch2b
I0316 16:32:41.705528 16042 net.cpp:157] Top shape: 8 512 7 7 (200704)
I0316 16:32:41.705548 16042 net.cpp:165] Memory required for data: 1807139776
I0316 16:32:41.705572 16042 layer_factory.hpp:77] Creating layer bn5b_branch2b
I0316 16:32:41.705600 16042 net.cpp:106] Creating Layer bn5b_branch2b
I0316 16:32:41.705621 16042 net.cpp:454] bn5b_branch2b <- res5b_branch2b
I0316 16:32:41.705644 16042 net.cpp:397] bn5b_branch2b -> res5b_branch2b (in-place)
I0316 16:32:41.706110 16042 net.cpp:150] Setting up bn5b_branch2b
I0316 16:32:41.706145 16042 net.cpp:157] Top shape: 8 512 7 7 (200704)
I0316 16:32:41.706162 16042 net.cpp:165] Memory required for data: 1807942592
I0316 16:32:41.706192 16042 layer_factory.hpp:77] Creating layer scale5b_branch2b
I0316 16:32:41.706224 16042 net.cpp:106] Creating Layer scale5b_branch2b
I0316 16:32:41.706245 16042 net.cpp:454] scale5b_branch2b <- res5b_branch2b
I0316 16:32:41.706269 16042 net.cpp:397] scale5b_branch2b -> res5b_branch2b (in-place)
I0316 16:32:41.706385 16042 layer_factory.hpp:77] Creating layer scale5b_branch2b
I0316 16:32:41.706704 16042 net.cpp:150] Setting up scale5b_branch2b
I0316 16:32:41.706758 16042 net.cpp:157] Top shape: 8 512 7 7 (200704)
I0316 16:32:41.706778 16042 net.cpp:165] Memory required for data: 1808745408
I0316 16:32:41.706804 16042 layer_factory.hpp:77] Creating layer res5b_branch2b_relu
I0316 16:32:41.706828 16042 net.cpp:106] Creating Layer res5b_branch2b_relu
I0316 16:32:41.706847 16042 net.cpp:454] res5b_branch2b_relu <- res5b_branch2b
I0316 16:32:41.706876 16042 net.cpp:397] res5b_branch2b_relu -> res5b_branch2b (in-place)
I0316 16:32:41.706902 16042 net.cpp:150] Setting up res5b_branch2b_relu
I0316 16:32:41.706924 16042 net.cpp:157] Top shape: 8 512 7 7 (200704)
I0316 16:32:41.706943 16042 net.cpp:165] Memory required for data: 1809548224
I0316 16:32:41.706959 16042 layer_factory.hpp:77] Creating layer res5b_branch2c
I0316 16:32:41.706992 16042 net.cpp:106] Creating Layer res5b_branch2c
I0316 16:32:41.707013 16042 net.cpp:454] res5b_branch2c <- res5b_branch2b
I0316 16:32:41.707036 16042 net.cpp:411] res5b_branch2c -> res5b_branch2c
I0316 16:32:41.712479 16042 net.cpp:150] Setting up res5b_branch2c
I0316 16:32:41.712527 16042 net.cpp:157] Top shape: 8 2048 7 7 (802816)
I0316 16:32:41.712545 16042 net.cpp:165] Memory required for data: 1812759488
I0316 16:32:41.712569 16042 layer_factory.hpp:77] Creating layer bn5b_branch2c
I0316 16:32:41.712600 16042 net.cpp:106] Creating Layer bn5b_branch2c
I0316 16:32:41.712637 16042 net.cpp:454] bn5b_branch2c <- res5b_branch2c
I0316 16:32:41.712663 16042 net.cpp:397] bn5b_branch2c -> res5b_branch2c (in-place)
I0316 16:32:41.713135 16042 net.cpp:150] Setting up bn5b_branch2c
I0316 16:32:41.713168 16042 net.cpp:157] Top shape: 8 2048 7 7 (802816)
I0316 16:32:41.713187 16042 net.cpp:165] Memory required for data: 1815970752
I0316 16:32:41.713217 16042 layer_factory.hpp:77] Creating layer scale5b_branch2c
I0316 16:32:41.713243 16042 net.cpp:106] Creating Layer scale5b_branch2c
I0316 16:32:41.713263 16042 net.cpp:454] scale5b_branch2c <- res5b_branch2c
I0316 16:32:41.713285 16042 net.cpp:397] scale5b_branch2c -> res5b_branch2c (in-place)
I0316 16:32:41.713405 16042 layer_factory.hpp:77] Creating layer scale5b_branch2c
I0316 16:32:41.713713 16042 net.cpp:150] Setting up scale5b_branch2c
I0316 16:32:41.713748 16042 net.cpp:157] Top shape: 8 2048 7 7 (802816)
I0316 16:32:41.713767 16042 net.cpp:165] Memory required for data: 1819182016
I0316 16:32:41.713793 16042 layer_factory.hpp:77] Creating layer res5b
I0316 16:32:41.713824 16042 net.cpp:106] Creating Layer res5b
I0316 16:32:41.713846 16042 net.cpp:454] res5b <- res5a_res5a_relu_0_split_1
I0316 16:32:41.713867 16042 net.cpp:454] res5b <- res5b_branch2c
I0316 16:32:41.713891 16042 net.cpp:411] res5b -> res5b
I0316 16:32:41.713973 16042 net.cpp:150] Setting up res5b
I0316 16:32:41.714004 16042 net.cpp:157] Top shape: 8 2048 7 7 (802816)
I0316 16:32:41.714022 16042 net.cpp:165] Memory required for data: 1822393280
I0316 16:32:41.714040 16042 layer_factory.hpp:77] Creating layer res5b_relu
I0316 16:32:41.714063 16042 net.cpp:106] Creating Layer res5b_relu
I0316 16:32:41.714083 16042 net.cpp:454] res5b_relu <- res5b
I0316 16:32:41.714110 16042 net.cpp:397] res5b_relu -> res5b (in-place)
I0316 16:32:41.714138 16042 net.cpp:150] Setting up res5b_relu
I0316 16:32:41.714160 16042 net.cpp:157] Top shape: 8 2048 7 7 (802816)
I0316 16:32:41.714179 16042 net.cpp:165] Memory required for data: 1825604544
I0316 16:32:41.714196 16042 layer_factory.hpp:77] Creating layer res5b_res5b_relu_0_split
I0316 16:32:41.714221 16042 net.cpp:106] Creating Layer res5b_res5b_relu_0_split
I0316 16:32:41.714241 16042 net.cpp:454] res5b_res5b_relu_0_split <- res5b
I0316 16:32:41.714262 16042 net.cpp:411] res5b_res5b_relu_0_split -> res5b_res5b_relu_0_split_0
I0316 16:32:41.714287 16042 net.cpp:411] res5b_res5b_relu_0_split -> res5b_res5b_relu_0_split_1
I0316 16:32:41.714391 16042 net.cpp:150] Setting up res5b_res5b_relu_0_split
I0316 16:32:41.714421 16042 net.cpp:157] Top shape: 8 2048 7 7 (802816)
I0316 16:32:41.714442 16042 net.cpp:157] Top shape: 8 2048 7 7 (802816)
I0316 16:32:41.714471 16042 net.cpp:165] Memory required for data: 1832027072
I0316 16:32:41.714509 16042 layer_factory.hpp:77] Creating layer res5c_branch2a
I0316 16:32:41.714545 16042 net.cpp:106] Creating Layer res5c_branch2a
I0316 16:32:41.714566 16042 net.cpp:454] res5c_branch2a <- res5b_res5b_relu_0_split_0
I0316 16:32:41.714589 16042 net.cpp:411] res5c_branch2a -> res5c_branch2a
I0316 16:32:41.720062 16042 net.cpp:150] Setting up res5c_branch2a
I0316 16:32:41.720108 16042 net.cpp:157] Top shape: 8 512 7 7 (200704)
I0316 16:32:41.720127 16042 net.cpp:165] Memory required for data: 1832829888
I0316 16:32:41.720151 16042 layer_factory.hpp:77] Creating layer bn5c_branch2a
I0316 16:32:41.720177 16042 net.cpp:106] Creating Layer bn5c_branch2a
I0316 16:32:41.720197 16042 net.cpp:454] bn5c_branch2a <- res5c_branch2a
I0316 16:32:41.720226 16042 net.cpp:397] bn5c_branch2a -> res5c_branch2a (in-place)
I0316 16:32:41.720715 16042 net.cpp:150] Setting up bn5c_branch2a
I0316 16:32:41.720751 16042 net.cpp:157] Top shape: 8 512 7 7 (200704)
I0316 16:32:41.720768 16042 net.cpp:165] Memory required for data: 1833632704
I0316 16:32:41.720799 16042 layer_factory.hpp:77] Creating layer scale5c_branch2a
I0316 16:32:41.720825 16042 net.cpp:106] Creating Layer scale5c_branch2a
I0316 16:32:41.720845 16042 net.cpp:454] scale5c_branch2a <- res5c_branch2a
I0316 16:32:41.720867 16042 net.cpp:397] scale5c_branch2a -> res5c_branch2a (in-place)
I0316 16:32:41.720983 16042 layer_factory.hpp:77] Creating layer scale5c_branch2a
I0316 16:32:41.721290 16042 net.cpp:150] Setting up scale5c_branch2a
I0316 16:32:41.721325 16042 net.cpp:157] Top shape: 8 512 7 7 (200704)
I0316 16:32:41.721343 16042 net.cpp:165] Memory required for data: 1834435520
I0316 16:32:41.721370 16042 layer_factory.hpp:77] Creating layer res5c_branch2a_relu
I0316 16:32:41.721401 16042 net.cpp:106] Creating Layer res5c_branch2a_relu
I0316 16:32:41.721422 16042 net.cpp:454] res5c_branch2a_relu <- res5c_branch2a
I0316 16:32:41.721449 16042 net.cpp:397] res5c_branch2a_relu -> res5c_branch2a (in-place)
I0316 16:32:41.721477 16042 net.cpp:150] Setting up res5c_branch2a_relu
I0316 16:32:41.721499 16042 net.cpp:157] Top shape: 8 512 7 7 (200704)
I0316 16:32:41.721516 16042 net.cpp:165] Memory required for data: 1835238336
I0316 16:32:41.721534 16042 layer_factory.hpp:77] Creating layer res5c_branch2b
I0316 16:32:41.721561 16042 net.cpp:106] Creating Layer res5c_branch2b
I0316 16:32:41.721580 16042 net.cpp:454] res5c_branch2b <- res5c_branch2a
I0316 16:32:41.721608 16042 net.cpp:411] res5c_branch2b -> res5c_branch2b
I0316 16:32:41.733003 16042 net.cpp:150] Setting up res5c_branch2b
I0316 16:32:41.733052 16042 net.cpp:157] Top shape: 8 512 7 7 (200704)
I0316 16:32:41.733072 16042 net.cpp:165] Memory required for data: 1836041152
I0316 16:32:41.733095 16042 layer_factory.hpp:77] Creating layer bn5c_branch2b
I0316 16:32:41.733120 16042 net.cpp:106] Creating Layer bn5c_branch2b
I0316 16:32:41.733141 16042 net.cpp:454] bn5c_branch2b <- res5c_branch2b
I0316 16:32:41.733165 16042 net.cpp:397] bn5c_branch2b -> res5c_branch2b (in-place)
I0316 16:32:41.733639 16042 net.cpp:150] Setting up bn5c_branch2b
I0316 16:32:41.733672 16042 net.cpp:157] Top shape: 8 512 7 7 (200704)
I0316 16:32:41.733691 16042 net.cpp:165] Memory required for data: 1836843968
I0316 16:32:41.733722 16042 layer_factory.hpp:77] Creating layer scale5c_branch2b
I0316 16:32:41.733755 16042 net.cpp:106] Creating Layer scale5c_branch2b
I0316 16:32:41.733777 16042 net.cpp:454] scale5c_branch2b <- res5c_branch2b
I0316 16:32:41.733799 16042 net.cpp:397] scale5c_branch2b -> res5c_branch2b (in-place)
I0316 16:32:41.733916 16042 layer_factory.hpp:77] Creating layer scale5c_branch2b
I0316 16:32:41.734225 16042 net.cpp:150] Setting up scale5c_branch2b
I0316 16:32:41.734258 16042 net.cpp:157] Top shape: 8 512 7 7 (200704)
I0316 16:32:41.734277 16042 net.cpp:165] Memory required for data: 1837646784
I0316 16:32:41.734303 16042 layer_factory.hpp:77] Creating layer res5c_branch2b_relu
I0316 16:32:41.734328 16042 net.cpp:106] Creating Layer res5c_branch2b_relu
I0316 16:32:41.734380 16042 net.cpp:454] res5c_branch2b_relu <- res5c_branch2b
I0316 16:32:41.734410 16042 net.cpp:397] res5c_branch2b_relu -> res5c_branch2b (in-place)
I0316 16:32:41.734437 16042 net.cpp:150] Setting up res5c_branch2b_relu
I0316 16:32:41.734462 16042 net.cpp:157] Top shape: 8 512 7 7 (200704)
I0316 16:32:41.734478 16042 net.cpp:165] Memory required for data: 1838449600
I0316 16:32:41.734498 16042 layer_factory.hpp:77] Creating layer res5c_branch2c
I0316 16:32:41.734524 16042 net.cpp:106] Creating Layer res5c_branch2c
I0316 16:32:41.734550 16042 net.cpp:454] res5c_branch2c <- res5c_branch2b
I0316 16:32:41.734575 16042 net.cpp:411] res5c_branch2c -> res5c_branch2c
I0316 16:32:41.740075 16042 net.cpp:150] Setting up res5c_branch2c
I0316 16:32:41.740125 16042 net.cpp:157] Top shape: 8 2048 7 7 (802816)
I0316 16:32:41.740145 16042 net.cpp:165] Memory required for data: 1841660864
I0316 16:32:41.740170 16042 layer_factory.hpp:77] Creating layer bn5c_branch2c
I0316 16:32:41.740200 16042 net.cpp:106] Creating Layer bn5c_branch2c
I0316 16:32:41.740222 16042 net.cpp:454] bn5c_branch2c <- res5c_branch2c
I0316 16:32:41.740245 16042 net.cpp:397] bn5c_branch2c -> res5c_branch2c (in-place)
I0316 16:32:41.740746 16042 net.cpp:150] Setting up bn5c_branch2c
I0316 16:32:41.740782 16042 net.cpp:157] Top shape: 8 2048 7 7 (802816)
I0316 16:32:41.740799 16042 net.cpp:165] Memory required for data: 1844872128
I0316 16:32:41.740828 16042 layer_factory.hpp:77] Creating layer scale5c_branch2c
I0316 16:32:41.740854 16042 net.cpp:106] Creating Layer scale5c_branch2c
I0316 16:32:41.740875 16042 net.cpp:454] scale5c_branch2c <- res5c_branch2c
I0316 16:32:41.740896 16042 net.cpp:397] scale5c_branch2c -> res5c_branch2c (in-place)
I0316 16:32:41.741025 16042 layer_factory.hpp:77] Creating layer scale5c_branch2c
I0316 16:32:41.741348 16042 net.cpp:150] Setting up scale5c_branch2c
I0316 16:32:41.741382 16042 net.cpp:157] Top shape: 8 2048 7 7 (802816)
I0316 16:32:41.741400 16042 net.cpp:165] Memory required for data: 1848083392
I0316 16:32:41.741427 16042 layer_factory.hpp:77] Creating layer res5c
I0316 16:32:41.741459 16042 net.cpp:106] Creating Layer res5c
I0316 16:32:41.741482 16042 net.cpp:454] res5c <- res5b_res5b_relu_0_split_1
I0316 16:32:41.741503 16042 net.cpp:454] res5c <- res5c_branch2c
I0316 16:32:41.741526 16042 net.cpp:411] res5c -> res5c
I0316 16:32:41.741610 16042 net.cpp:150] Setting up res5c
I0316 16:32:41.741641 16042 net.cpp:157] Top shape: 8 2048 7 7 (802816)
I0316 16:32:41.741659 16042 net.cpp:165] Memory required for data: 1851294656
I0316 16:32:41.741677 16042 layer_factory.hpp:77] Creating layer res5c_relu
I0316 16:32:41.741699 16042 net.cpp:106] Creating Layer res5c_relu
I0316 16:32:41.741719 16042 net.cpp:454] res5c_relu <- res5c
I0316 16:32:41.741746 16042 net.cpp:397] res5c_relu -> res5c (in-place)
I0316 16:32:41.741772 16042 net.cpp:150] Setting up res5c_relu
I0316 16:32:41.741796 16042 net.cpp:157] Top shape: 8 2048 7 7 (802816)
I0316 16:32:41.741813 16042 net.cpp:165] Memory required for data: 1854505920
I0316 16:32:41.741832 16042 layer_factory.hpp:77] Creating layer pool5
I0316 16:32:41.741856 16042 net.cpp:106] Creating Layer pool5
I0316 16:32:41.741875 16042 net.cpp:454] pool5 <- res5c
I0316 16:32:41.741900 16042 net.cpp:411] pool5 -> pool5
I0316 16:32:41.741986 16042 net.cpp:150] Setting up pool5
I0316 16:32:41.742017 16042 net.cpp:157] Top shape: 8 2048 1 1 (16384)
I0316 16:32:41.742034 16042 net.cpp:165] Memory required for data: 1854571456
I0316 16:32:41.742053 16042 layer_factory.hpp:77] Creating layer fc
I0316 16:32:41.742082 16042 net.cpp:106] Creating Layer fc
I0316 16:32:41.742101 16042 net.cpp:454] fc <- pool5
I0316 16:32:41.742125 16042 net.cpp:411] fc -> fc
I0316 16:32:41.748188 16042 net.cpp:150] Setting up fc
I0316 16:32:41.748234 16042 net.cpp:157] Top shape: 8 30 (240)
I0316 16:32:41.748253 16042 net.cpp:165] Memory required for data: 1854572416
I0316 16:32:41.748281 16042 layer_factory.hpp:77] Creating layer loss_pos30
I0316 16:32:41.748322 16042 net.cpp:106] Creating Layer loss_pos30
I0316 16:32:41.748378 16042 net.cpp:454] loss_pos30 <- fc
I0316 16:32:41.748402 16042 net.cpp:454] loss_pos30 <- labels
I0316 16:32:41.748430 16042 net.cpp:411] loss_pos30 -> loss_pos30
…
