…
I0119 17:42:13.921633 28980 upgrade_proto.cpp:67] Attempting to upgrade input file specified using deprecated input fields: /home/lizhuowan/convolutional-pose-machines-release/model/_trained_MPI/pose_deploy_centerMap.prototxt
I0119 17:42:13.921715 28980 upgrade_proto.cpp:70] Successfully upgraded file specified using deprecated input fields.
W0119 17:42:13.921741 28980 upgrade_proto.cpp:72] Note that future Caffe releases will only support input layers and not input fields.
I0119 17:42:13.923497 28980 net.cpp:58] Initializing net from parameters: 
state {
  phase: TEST
  level: 0
}
layer {
  name: "input"
  type: "Input"
  top: "data"
  input_param {
    shape {
      dim: 1
      dim: 4
      dim: 368
      dim: 368
    }
  }
}
layer {
  name: "image"
  type: "Slice"
  bottom: "data"
  top: "image"
  top: "center_map"
  slice_param {
    slice_point: 3
    axis: 1
  }
}
layer {
  name: "pool_center_lower"
  type: "Pooling"
  bottom: "center_map"
  top: "pool_center_lower"
  pooling_param {
    pool: AVE
    kernel_size: 9
    stride: 8
  }
}
layer {
  name: "conv1_stage1"
  type: "Convolution"
  bottom: "image"
  top: "conv1_stage1"
  param {
    lr_mult: 5
    decay_mult: 1
  }
  param {
    lr_mult: 10
    decay_mult: 0
  }
  convolution_param {
    num_output: 128
    pad: 4
    kernel_size: 9
    weight_filler {
      type: "gaussian"
      std: 0.01
    }
    bias_filler {
      type: "constant"
    }
  }
}
layer {
  name: "relu1_stage1"
  type: "ReLU"
  bottom: "conv1_stage1"
  top: "conv1_stage1"
}
layer {
  name: "pool1_stage1"
  type: "Pooling"
  bottom: "conv1_stage1"
  top: "pool1_stage1"
  pooling_param {
    pool: MAX
    kernel_size: 3
    stride: 2
  }
}
layer {
  name: "conv2_stage1"
  type: "Convolution"
  bottom: "pool1_stage1"
  top: "conv2_stage1"
  param {
    lr_mult: 5
    decay_mult: 1
  }
  param {
    lr_mult: 10
    decay_mult: 0
  }
  convolution_param {
    num_output: 128
    pad: 4
    kernel_size: 9
    weight_filler {
      type: "gaussian"
      std: 0.01
    }
    bias_filler {
      type: "constant"
    }
  }
}
layer {
  name: "relu2_stage1"
  type: "ReLU"
  bottom: "conv2_stage1"
  top: "conv2_stage1"
}
layer {
  name: "pool2_stage1"
  type: "Pooling"
  bottom: "conv2_stage1"
  top: "pool2_stage1"
  pooling_param {
    pool: MAX
    kernel_size: 3
    stride: 2
  }
}
layer {
  name: "conv3_stage1"
  type: "Convolution"
  bottom: "pool2_stage1"
  top: "conv3_stage1"
  param {
    lr_mult: 5
    decay_mult: 1
  }
  param {
    lr_mult: 10
    decay_mult: 0
  }
  convolution_param {
    num_output: 128
    pad: 4
    kernel_size: 9
    weight_filler {
      type: "gaussian"
      std: 0.01
    }
    bias_filler {
      type: "constant"
    }
  }
}
layer {
  name: "relu3_stage1"
  type: "ReLU"
  bottom: "conv3_stage1"
  top: "conv3_stage1"
}
layer {
  name: "pool3_stage1"
  type: "Pooling"
  bottom: "conv3_stage1"
  top: "pool3_stage1"
  pooling_param {
    pool: MAX
    kernel_size: 3
    stride: 2
  }
}
layer {
  name: "conv4_stage1"
  type: "Convolution"
  bottom: "pool3_stage1"
  top: "conv4_stage1"
  param {
    lr_mult: 5
    decay_mult: 1
  }
  param {
    lr_mult: 10
    decay_mult: 0
  }
  convolution_param {
    num_output: 32
    pad: 2
    kernel_size: 5
    weight_filler {
      type: "gaussian"
      std: 0.01
    }
    bias_filler {
      type: "constant"
    }
  }
}
layer {
  name: "relu4_stage1"
  type: "ReLU"
  bottom: "conv4_stage1"
  top: "conv4_stage1"
}
layer {
  name: "conv5_stage1"
  type: "Convolution"
  bottom: "conv4_stage1"
  top: "conv5_stage1"
  param {
    lr_mult: 5
    decay_mult: 1
  }
  param {
    lr_mult: 10
    decay_mult: 0
  }
  convolution_param {
    num_output: 512
    pad: 4
    kernel_size: 9
    weight_filler {
      type: "gaussian"
      std: 0.01
    }
    bias_filler {
      type: "constant"
    }
  }
}
layer {
  name: "relu5_stage1"
  type: "ReLU"
  bottom: "conv5_stage1"
  top: "conv5_stage1"
}
layer {
  name: "conv6_stage1"
  type: "Convolution"
  bottom: "conv5_stage1"
  top: "conv6_stage1"
  param {
    lr_mult: 5
    decay_mult: 1
  }
  param {
    lr_mult: 10
    decay_mult: 0
  }
  convolution_param {
    num_output: 512
    pad: 0
    kernel_size: 1
    weight_filler {
      type: "gaussian"
      std: 0.01
    }
    bias_filler {
      type: "constant"
    }
  }
}
layer {
  name: "relu6_stage1"
  type: "ReLU"
  bottom: "conv6_stage1"
  top: "conv6_stage1"
}
layer {
  name: "conv7_stage1"
  type: "Convolution"
  bottom: "conv6_stage1"
  top: "conv7_stage1"
  param {
    lr_mult: 5
    decay_mult: 1
  }
  param {
    lr_mult: 10
    decay_mult: 0
  }
  convolution_param {
    num_output: 15
    pad: 0
    kernel_size: 1
    weight_filler {
      type: "gaussian"
      std: 0.01
    }
    bias_filler {
      type: "constant"
    }
  }
}
layer {
  name: "conv1_stage2"
  type: "Convolution"
  bottom: "image"
  top: "conv1_stage2"
  param {
    lr_mult: 1
    decay_mult: 1
  }
  param {
    lr_mult: 2
    decay_mult: 0
  }
  convolution_param {
    num_output: 128
    pad: 4
    kernel_size: 9
    weight_filler {
      type: "gaussian"
      std: 0.01
    }
    bias_filler {
      type: "constant"
    }
  }
}
layer {
  name: "relu1_stage2"
  type: "ReLU"
  bottom: "conv1_stage2"
  top: "conv1_stage2"
}
layer {
  name: "pool1_stage2"
  type: "Pooling"
  bottom: "conv1_stage2"
  top: "pool1_stage2"
  pooling_param {
    pool: MAX
    kernel_size: 3
    stride: 2
  }
}
layer {
  name: "conv2_stage2"
  type: "Convolution"
  bottom: "pool1_stage2"
  top: "conv2_stage2"
  param {
    lr_mult: 1
    decay_mult: 1
  }
  param {
    lr_mult: 2
    decay_mult: 0
  }
  convolution_param {
    num_output: 128
    pad: 4
    kernel_size: 9
    weight_filler {
      type: "gaussian"
      std: 0.01
    }
    bias_filler {
      type: "constant"
    }
  }
}
layer {
  name: "relu2_stage2"
  type: "ReLU"
  bottom: "conv2_stage2"
  top: "conv2_stage2"
}
layer {
  name: "pool2_stage2"
  type: "Pooling"
  bottom: "conv2_stage2"
  top: "pool2_stage2"
  pooling_param {
    pool: MAX
    kernel_size: 3
    stride: 2
  }
}
layer {
  name: "conv3_stage2"
  type: "Convolution"
  bottom: "pool2_stage2"
  top: "conv3_stage2"
  param {
    lr_mult: 1
    decay_mult: 1
  }
  param {
    lr_mult: 2
    decay_mult: 0
  }
  convolution_param {
    num_output: 128
    pad: 4
    kernel_size: 9
    weight_filler {
      type: "gaussian"
      std: 0.01
    }
    bias_filler {
      type: "constant"
    }
  }
}
layer {
  name: "relu3_stage2"
  type: "ReLU"
  bottom: "conv3_stage2"
  top: "conv3_stage2"
}
layer {
  name: "pool3_stage2"
  type: "Pooling"
  bottom: "conv3_stage2"
  top: "pool3_stage2"
  pooling_param {
    pool: MAX
    kernel_size: 3
    stride: 2
  }
}
layer {
  name: "conv4_stage2"
  type: "Convolution"
  bottom: "pool3_stage2"
  top: "conv4_stage2"
  param {
    lr_mult: 1
    decay_mult: 1
  }
  param {
    lr_mult: 2
    decay_mult: 0
  }
  convolution_param {
    num_output: 32
    pad: 2
    kernel_size: 5
    weight_filler {
      type: "gaussian"
      std: 0.01
    }
    bias_filler {
      type: "constant"
    }
  }
}
layer {
  name: "relu4_stage2"
  type: "ReLU"
  bottom: "conv4_stage2"
  top: "conv4_stage2"
}
layer {
  name: "concat_stage2"
  type: "Concat"
  bottom: "conv4_stage2"
  bottom: "conv7_stage1"
  bottom: "pool_center_lower"
  top: "concat_stage2"
  concat_param {
    axis: 1
  }
}
layer {
  name: "Mconv1_stage2"
  type: "Convolution"
  bottom: "concat_stage2"
  top: "Mconv1_stage2"
  param {
    lr_mult: 1
    decay_mult: 1
  }
  param {
    lr_mult: 2
    decay_mult: 0
  }
  convolution_param {
    num_output: 128
    pad: 5
    kernel_size: 11
    weight_filler {
      type: "gaussian"
      std: 0.01
    }
    bias_filler {
      type: "constant"
    }
  }
}
layer {
  name: "Mrelu1_stage2"
  type: "ReLU"
  bottom: "Mconv1_stage2"
  top: "Mconv1_stage2"
}
layer {
  name: "Mconv2_stage2"
  type: "Convolution"
  bottom: "Mconv1_stage2"
  top: "Mconv2_stage2"
  param {
    lr_mult: 1
    decay_mult: 1
  }
  param {
    lr_mult: 2
    decay_mult: 0
  }
  convolution_param {
    num_output: 128
    pad: 5
    kernel_size: 11
    weight_filler {
      type: "gaussian"
      std: 0.01
    }
    bias_filler {
      type: "constant"
    }
  }
}
layer {
  name: "Mrelu2_stage2"
  type: "ReLU"
  bottom: "Mconv2_stage2"
  top: "Mconv2_stage2"
}
layer {
  name: "Mconv3_stage2"
  type: "Convolution"
  bottom: "Mconv2_stage2"
  top: "Mconv3_stage2"
  param {
    lr_mult: 1
    decay_mult: 1
  }
  param {
    lr_mult: 2
    decay_mult: 0
  }
  convolution_param {
    num_output: 128
    pad: 5
    kernel_size: 11
    weight_filler {
      type: "gaussian"
      std: 0.01
    }
    bias_filler {
      type: "constant"
    }
  }
}
layer {
  name: "Mrelu3_stage2"
  type: "ReLU"
  bottom: "Mconv3_stage2"
  top: "Mconv3_stage2"
}
layer {
  name: "Mconv4_stage2"
  type: "Convolution"
  bottom: "Mconv3_stage2"
  top: "Mconv4_stage2"
  param {
    lr_mult: 1
    decay_mult: 1
  }
  param {
    lr_mult: 2
    decay_mult: 0
  }
  convolution_param {
    num_output: 128
    pad: 0
    kernel_size: 1
    weight_filler {
      type: "gaussian"
      std: 0.01
    }
    bias_filler {
      type: "constant"
    }
  }
}
layer {
  name: "Mrelu4_stage2"
  type: "ReLU"
  bottom: "Mconv4_stage2"
  top: "Mconv4_stage2"
}
layer {
  name: "Mconv5_stage2"
  type: "Convolution"
  bottom: "Mconv4_stage2"
  top: "Mconv5_stage2"
  param {
    lr_mult: 1
    decay_mult: 1
  }
  param {
    lr_mult: 2
    decay_mult: 0
  }
  convolution_param {
    num_output: 15
    pad: 0
    kernel_size: 1
    weight_filler {
      type: "gaussian"
      std: 0.01
    }
    bias_filler {
      type: "constant"
    }
  }
}
layer {
  name: "conv1_stage3"
  type: "Convolution"
  bottom: "pool3_stage2"
  top: "conv1_stage3"
  param {
    lr_mult: 1
    decay_mult: 1
  }
  param {
    lr_mult: 2
    decay_mult: 0
  }
  convolution_param {
    num_output: 32
    pad: 2
    kernel_size: 5
    weight_filler {
      type: "gaussian"
      std: 0.01
    }
    bias_filler {
      type: "constant"
    }
  }
}
layer {
  name: "relu1_stage3"
  type: "ReLU"
  bottom: "conv1_stage3"
  top: "conv1_stage3"
}
layer {
  name: "concat_stage3"
  type: "Concat"
  bottom: "conv1_stage3"
  bottom: "Mconv5_stage2"
  bottom: "pool_center_lower"
  top: "concat_stage3"
  concat_param {
    axis: 1
  }
}
layer {
  name: "Mconv1_stage3"
  type: "Convolution"
  bottom: "concat_stage3"
  top: "Mconv1_stage3"
  param {
    lr_mult: 1
    decay_mult: 1
  }
  param {
    lr_mult: 2
    decay_mult: 0
  }
  convolution_param {
    num_output: 128
    pad: 5
    kernel_size: 11
    weight_filler {
      type: "gaussian"
      std: 0.01
    }
    bias_filler {
      type: "constant"
    }
  }
}
layer {
  name: "Mrelu1_stage3"
  type: "ReLU"
  bottom: "Mconv1_stage3"
  top: "Mconv1_stage3"
}
layer {
  name: "Mconv2_stage3"
  type: "Convolution"
  bottom: "Mconv1_stage3"
  top: "Mconv2_stage3"
  param {
    lr_mult: 1
    decay_mult: 1
  }
  param {
    lr_mult: 2
    decay_mult: 0
  }
  convolution_param {
    num_output: 128
    pad: 5
    kernel_size: 11
    weight_filler {
      type: "gaussian"
      std: 0.01
    }
    bias_filler {
      type: "constant"
    }
  }
}
layer {
  name: "Mrelu2_stage3"
  type: "ReLU"
  bottom: "Mconv2_stage3"
  top: "Mconv2_stage3"
}
layer {
  name: "Mconv3_stage3"
  type: "Convolution"
  bottom: "Mconv2_stage3"
  top: "Mconv3_stage3"
  param {
    lr_mult: 1
    decay_mult: 1
  }
  param {
    lr_mult: 2
    decay_mult: 0
  }
  convolution_param {
    num_output: 128
    pad: 5
    kernel_size: 11
    weight_filler {
      type: "gaussian"
      std: 0.01
    }
    bias_filler {
      type: "constant"
    }
  }
}
layer {
  name: "Mrelu3_stage3"
  type: "ReLU"
  bottom: "Mconv3_stage3"
  top: "Mconv3_stage3"
}
layer {
  name: "Mconv4_stage3"
  type: "Convolution"
  bottom: "Mconv3_stage3"
  top: "Mconv4_stage3"
  param {
    lr_mult: 1
    decay_mult: 1
  }
  param {
    lr_mult: 2
    decay_mult: 0
  }
  convolution_param {
    num_output: 128
    pad: 0
    kernel_size: 1
    weight_filler {
      type: "gaussian"
      std: 0.01
    }
    bias_filler {
      type: "constant"
    }
  }
}
layer {
  name: "Mrelu4_stage3"
  type: "ReLU"
  bottom: "Mconv4_stage3"
  top: "Mconv4_stage3"
}
layer {
  name: "Mconv5_stage3"
  type: "Convolution"
  bottom: "Mconv4_stage3"
  top: "Mconv5_stage3"
  param {
    lr_mult: 1
    decay_mult: 1
  }
  param {
    lr_mult: 2
    decay_mult: 0
  }
  convolution_param {
    num_output: 15
    pad: 0
    kernel_size: 1
    weight_filler {
      type: "gaussian"
      std: 0.01
    }
    bias_filler {
      type: "constant"
    }
  }
}
layer {
  name: "conv1_stage4"
  type: "Convolution"
  bottom: "pool3_stage2"
  top: "conv1_stage4"
  param {
    lr_mult: 1
    decay_mult: 1
  }
  param {
    lr_mult: 2
    decay_mult: 0
  }
  convolution_param {
    num_output: 32
    pad: 2
    kernel_size: 5
    weight_filler {
      type: "gaussian"
      std: 0.01
    }
    bias_filler {
      type: "constant"
    }
  }
}
layer {
  name: "relu1_stage4"
  type: "ReLU"
  bottom: "conv1_stage4"
  top: "conv1_stage4"
}
layer {
  name: "concat_stage4"
  type: "Concat"
  bottom: "conv1_stage4"
  bottom: "Mconv5_stage3"
  bottom: "pool_center_lower"
  top: "concat_stage4"
  concat_param {
    axis: 1
  }
}
layer {
  name: "Mconv1_stage4"
  type: "Convolution"
  bottom: "concat_stage4"
  top: "Mconv1_stage4"
  param {
    lr_mult: 1
    decay_mult: 1
  }
  param {
    lr_mult: 2
    decay_mult: 0
  }
  convolution_param {
    num_output: 128
    pad: 5
    kernel_size: 11
    weight_filler {
      type: "gaussian"
      std: 0.01
    }
    bias_filler {
      type: "constant"
    }
  }
}
layer {
  name: "Mrelu1_stage4"
  type: "ReLU"
  bottom: "Mconv1_stage4"
  top: "Mconv1_stage4"
}
layer {
  name: "Mconv2_stage4"
  type: "Convolution"
  bottom: "Mconv1_stage4"
  top: "Mconv2_stage4"
  param {
    lr_mult: 1
    decay_mult: 1
  }
  param {
    lr_mult: 2
    decay_mult: 0
  }
  convolution_param {
    num_output: 128
    pad: 5
    kernel_size: 11
    weight_filler {
      type: "gaussian"
      std: 0.01
    }
    bias_filler {
      type: "constant"
    }
  }
}
layer {
  name: "Mrelu2_stage4"
  type: "ReLU"
  bottom: "Mconv2_stage4"
  top: "Mconv2_stage4"
}
layer {
  name: "Mconv3_stage4"
  type: "Convolution"
  bottom: "Mconv2_stage4"
  top: "Mconv3_stage4"
  param {
    lr_mult: 1
    decay_mult: 1
  }
  param {
    lr_mult: 2
    decay_mult: 0
  }
  convolution_param {
    num_output: 128
    pad: 5
    kernel_size: 11
    weight_filler {
      type: "gaussian"
      std: 0.01
    }
    bias_filler {
      type: "constant"
    }
  }
}
layer {
  name: "Mrelu3_stage4"
  type: "ReLU"
  bottom: "Mconv3_stage4"
  top: "Mconv3_stage4"
}
layer {
  name: "Mconv4_stage4"
  type: "Convolution"
  bottom: "Mconv3_stage4"
  top: "Mconv4_stage4"
  param {
    lr_mult: 1
    decay_mult: 1
  }
  param {
    lr_mult: 2
    decay_mult: 0
  }
  convolution_param {
    num_output: 128
    pad: 0
    kernel_size: 1
    weight_filler {
      type: "gaussian"
      std: 0.01
    }
    bias_filler {
      type: "constant"
    }
  }
}
layer {
  name: "Mrelu4_stage4"
  type: "ReLU"
  bottom: "Mconv4_stage4"
  top: "Mconv4_stage4"
}
layer {
  name: "Mconv5_stage4"
  type: "Convolution"
  bottom: "Mconv4_stage4"
  top: "Mconv5_stage4"
  param {
    lr_mult: 1
    decay_mult: 1
  }
  param {
    lr_mult: 2
    decay_mult: 0
  }
  convolution_param {
    num_output: 15
    pad: 0
    kernel_size: 1
    weight_filler {
      type: "gaussian"
      std: 0.01
    }
    bias_filler {
      type: "constant"
    }
  }
}
layer {
  name: "conv1_stage5"
  type: "Convolution"
  bottom: "pool3_stage2"
  top: "conv1_stage5"
  param {
    lr_mult: 1
    decay_mult: 1
  }
  param {
    lr_mult: 2
    decay_mult: 0
  }
  convolution_param {
    num_output: 32
    pad: 2
    kernel_size: 5
    weight_filler {
      type: "gaussian"
      std: 0.01
    }
    bias_filler {
      type: "constant"
    }
  }
}
layer {
  name: "relu1_stage5"
  type: "ReLU"
  bottom: "conv1_stage5"
  top: "conv1_stage5"
}
layer {
  name: "concat_stage5"
  type: "Concat"
  bottom: "conv1_stage5"
  bottom: "Mconv5_stage4"
  bottom: "pool_center_lower"
  top: "concat_stage5"
  concat_param {
    axis: 1
  }
}
layer {
  name: "Mconv1_stage5"
  type: "Convolution"
  bottom: "concat_stage5"
  top: "Mconv1_stage5"
  param {
    lr_mult: 1
    decay_mult: 1
  }
  param {
    lr_mult: 2
    decay_mult: 0
  }
  convolution_param {
    num_output: 128
    pad: 5
    kernel_size: 11
    weight_filler {
      type: "gaussian"
      std: 0.01
    }
    bias_filler {
      type: "constant"
    }
  }
}
layer {
  name: "Mrelu1_stage5"
  type: "ReLU"
  bottom: "Mconv1_stage5"
  top: "Mconv1_stage5"
}
layer {
  name: "Mconv2_stage5"
  type: "Convolution"
  bottom: "Mconv1_stage5"
  top: "Mconv2_stage5"
  param {
    lr_mult: 1
    decay_mult: 1
  }
  param {
    lr_mult: 2
    decay_mult: 0
  }
  convolution_param {
    num_output: 128
    pad: 5
    kernel_size: 11
    weight_filler {
      type: "gaussian"
      std: 0.01
    }
    bias_filler {
      type: "constant"
    }
  }
}
layer {
  name: "Mrelu2_stage5"
  type: "ReLU"
  bottom: "Mconv2_stage5"
  top: "Mconv2_stage5"
}
layer {
  name: "Mconv3_stage5"
  type: "Convolution"
  bottom: "Mconv2_stage5"
  top: "Mconv3_stage5"
  param {
    lr_mult: 1
    decay_mult: 1
  }
  param {
    lr_mult: 2
    decay_mult: 0
  }
  convolution_param {
    num_output: 128
    pad: 5
    kernel_size: 11
    weight_filler {
      type: "gaussian"
      std: 0.01
    }
    bias_filler {
      type: "constant"
    }
  }
}
layer {
  name: "Mrelu3_stage5"
  type: "ReLU"
  bottom: "Mconv3_stage5"
  top: "Mconv3_stage5"
}
layer {
  name: "Mconv4_stage5"
  type: "Convolution"
  bottom: "Mconv3_stage5"
  top: "Mconv4_stage5"
  param {
    lr_mult: 1
    decay_mult: 1
  }
  param {
    lr_mult: 2
    decay_mult: 0
  }
  convolution_param {
    num_output: 128
    pad: 0
    kernel_size: 1
    weight_filler {
      type: "gaussian"
      std: 0.01
    }
    bias_filler {
      type: "constant"
    }
  }
}
layer {
  name: "Mrelu4_stage5"
  type: "ReLU"
  bottom: "Mconv4_stage5"
  top: "Mconv4_stage5"
}
layer {
  name: "Mconv5_stage5"
  type: "Convolution"
  bottom: "Mconv4_stage5"
  top: "Mconv5_stage5"
  param {
    lr_mult: 1
    decay_mult: 1
  }
  param {
    lr_mult: 2
    decay_mult: 0
  }
  convolution_param {
    num_output: 15
    pad: 0
    kernel_size: 1
    weight_filler {
      type: "gaussian"
      std: 0.01
    }
    bias_filler {
      type: "constant"
    }
  }
}
layer {
  name: "conv1_stage6"
  type: "Convolution"
  bottom: "pool3_stage2"
  top: "conv1_stage6"
  param {
    lr_mult: 1
    decay_mult: 1
  }
  param {
    lr_mult: 2
    decay_mult: 0
  }
  convolution_param {
    num_output: 32
    pad: 2
    kernel_size: 5
    weight_filler {
      type: "gaussian"
      std: 0.01
    }
    bias_filler {
      type: "constant"
    }
  }
}
layer {
  name: "relu1_stage6"
  type: "ReLU"
  bottom: "conv1_stage6"
  top: "conv1_stage6"
}
layer {
  name: "concat_stage6"
  type: "Concat"
  bottom: "conv1_stage6"
  bottom: "Mconv5_stage5"
  bottom: "pool_center_lower"
  top: "concat_stage6"
  concat_param {
    axis: 1
  }
}
layer {
  name: "Mconv1_stage6"
  type: "Convolution"
  bottom: "concat_stage6"
  top: "Mconv1_stage6"
  param {
    lr_mult: 1
    decay_mult: 1
  }
  param {
    lr_mult: 2
    decay_mult: 0
  }
  convolution_param {
    num_output: 128
    pad: 5
    kernel_size: 11
    weight_filler {
      type: "gaussian"
      std: 0.01
    }
    bias_filler {
      type: "constant"
    }
  }
}
layer {
  name: "Mrelu1_stage6"
  type: "ReLU"
  bottom: "Mconv1_stage6"
  top: "Mconv1_stage6"
}
layer {
  name: "Mconv2_stage6"
  type: "Convolution"
  bottom: "Mconv1_stage6"
  top: "Mconv2_stage6"
  param {
    lr_mult: 1
    decay_mult: 1
  }
  param {
    lr_mult: 2
    decay_mult: 0
  }
  convolution_param {
    num_output: 128
    pad: 5
    kernel_size: 11
    weight_filler {
      type: "gaussian"
      std: 0.01
    }
    bias_filler {
      type: "constant"
    }
  }
}
layer {
  name: "Mrelu2_stage6"
  type: "ReLU"
  bottom: "Mconv2_stage6"
  top: "Mconv2_stage6"
}
layer {
  name: "Mconv3_stage6"
  type: "Convolution"
  bottom: "Mconv2_stage6"
  top: "Mconv3_stage6"
  param {
    lr_mult: 1
    decay_mult: 1
  }
  param {
    lr_mult: 2
    decay_mult: 0
  }
  convolution_param {
    num_output: 128
    pad: 5
    kernel_size: 11
    weight_filler {
      type: "gaussian"
      std: 0.01
    }
    bias_filler {
      type: "constant"
    }
  }
}
layer {
  name: "Mrelu3_stage6"
  type: "ReLU"
  bottom: "Mconv3_stage6"
  top: "Mconv3_stage6"
}
layer {
  name: "Mconv4_stage6"
  type: "Convolution"
  bottom: "Mconv3_stage6"
  top: "Mconv4_stage6"
  param {
    lr_mult: 1
    decay_mult: 1
  }
  param {
    lr_mult: 2
    decay_mult: 0
  }
  convolution_param {
    num_output: 128
    pad: 0
    kernel_size: 1
    weight_filler {
      type: "gaussian"
      std: 0.01
    }
    bias_filler {
      type: "constant"
    }
  }
}
layer {
  name: "Mrelu4_stage6"
  type: "ReLU"
  bottom: "Mconv4_stage6"
  top: "Mconv4_stage6"
}
layer {
  name: "Mconv5_stage6"
  type: "Convolution"
  bottom: "Mconv4_stage6"
  top: "Mconv5_stage6"
  param {
    lr_mult: 1
    decay_mult: 1
  }
  param {
    lr_mult: 2
    decay_mult: 0
  }
  convolution_param {
    num_output: 15
    pad: 0
    kernel_size: 1
    weight_filler {
      type: "gaussian"
      std: 0.01
    }
    bias_filler {
      type: "constant"
    }
  }
}
I0119 17:42:13.924382 28980 layer_factory.hpp:77] Creating layer input
I0119 17:42:13.924448 28980 net.cpp:100] Creating Layer input
I0119 17:42:13.924480 28980 net.cpp:408] input -> data
I0119 17:42:13.949012 28980 net.cpp:150] Setting up input
I0119 17:42:13.949064 28980 net.cpp:157] Top shape: 1 4 368 368 (541696)
I0119 17:42:13.949084 28980 net.cpp:165] Memory required for data: 2166784
I0119 17:42:13.949105 28980 layer_factory.hpp:77] Creating layer image
I0119 17:42:13.949148 28980 net.cpp:100] Creating Layer image
I0119 17:42:13.949169 28980 net.cpp:434] image <- data
I0119 17:42:13.949194 28980 net.cpp:408] image -> image
I0119 17:42:13.949225 28980 net.cpp:408] image -> center_map
I0119 17:42:13.949398 28980 net.cpp:150] Setting up image
I0119 17:42:13.949437 28980 net.cpp:157] Top shape: 1 3 368 368 (406272)
I0119 17:42:13.949458 28980 net.cpp:157] Top shape: 1 1 368 368 (135424)
I0119 17:42:13.949476 28980 net.cpp:165] Memory required for data: 4333568
I0119 17:42:13.949494 28980 layer_factory.hpp:77] Creating layer image_image_0_split
I0119 17:42:13.949529 28980 net.cpp:100] Creating Layer image_image_0_split
I0119 17:42:13.949549 28980 net.cpp:434] image_image_0_split <- image
I0119 17:42:13.949573 28980 net.cpp:408] image_image_0_split -> image_image_0_split_0
I0119 17:42:13.949599 28980 net.cpp:408] image_image_0_split -> image_image_0_split_1
I0119 17:42:13.949743 28980 net.cpp:150] Setting up image_image_0_split
I0119 17:42:13.949776 28980 net.cpp:157] Top shape: 1 3 368 368 (406272)
I0119 17:42:13.949798 28980 net.cpp:157] Top shape: 1 3 368 368 (406272)
I0119 17:42:13.949815 28980 net.cpp:165] Memory required for data: 7583744
I0119 17:42:13.949833 28980 layer_factory.hpp:77] Creating layer pool_center_lower
I0119 17:42:13.949867 28980 net.cpp:100] Creating Layer pool_center_lower
I0119 17:42:13.949885 28980 net.cpp:434] pool_center_lower <- center_map
I0119 17:42:13.949908 28980 net.cpp:408] pool_center_lower -> pool_center_lower
I0119 17:42:13.950011 28980 net.cpp:150] Setting up pool_center_lower
I0119 17:42:13.950043 28980 net.cpp:157] Top shape: 1 1 46 46 (2116)
I0119 17:42:13.950062 28980 net.cpp:165] Memory required for data: 7592208
I0119 17:42:13.950079 28980 layer_factory.hpp:77] Creating layer pool_center_lower_pool_center_lower_0_split
I0119 17:42:13.950109 28980 net.cpp:100] Creating Layer pool_center_lower_pool_center_lower_0_split
I0119 17:42:13.950141 28980 net.cpp:434] pool_center_lower_pool_center_lower_0_split <- pool_center_lower
I0119 17:42:13.950170 28980 net.cpp:408] pool_center_lower_pool_center_lower_0_split -> pool_center_lower_pool_center_lower_0_split_0
I0119 17:42:13.950197 28980 net.cpp:408] pool_center_lower_pool_center_lower_0_split -> pool_center_lower_pool_center_lower_0_split_1
I0119 17:42:13.950222 28980 net.cpp:408] pool_center_lower_pool_center_lower_0_split -> pool_center_lower_pool_center_lower_0_split_2
I0119 17:42:13.950248 28980 net.cpp:408] pool_center_lower_pool_center_lower_0_split -> pool_center_lower_pool_center_lower_0_split_3
I0119 17:42:13.950273 28980 net.cpp:408] pool_center_lower_pool_center_lower_0_split -> pool_center_lower_pool_center_lower_0_split_4
I0119 17:42:13.950498 28980 net.cpp:150] Setting up pool_center_lower_pool_center_lower_0_split
I0119 17:42:13.950531 28980 net.cpp:157] Top shape: 1 1 46 46 (2116)
I0119 17:42:13.950552 28980 net.cpp:157] Top shape: 1 1 46 46 (2116)
I0119 17:42:13.950572 28980 net.cpp:157] Top shape: 1 1 46 46 (2116)
I0119 17:42:13.950592 28980 net.cpp:157] Top shape: 1 1 46 46 (2116)
I0119 17:42:13.950613 28980 net.cpp:157] Top shape: 1 1 46 46 (2116)
I0119 17:42:13.950629 28980 net.cpp:165] Memory required for data: 7634528
I0119 17:42:13.950647 28980 layer_factory.hpp:77] Creating layer conv1_stage1
I0119 17:42:13.950692 28980 net.cpp:100] Creating Layer conv1_stage1
I0119 17:42:13.950713 28980 net.cpp:434] conv1_stage1 <- image_image_0_split_0
I0119 17:42:13.950739 28980 net.cpp:408] conv1_stage1 -> conv1_stage1
I0119 17:42:13.957556 28980 net.cpp:150] Setting up conv1_stage1
I0119 17:42:13.957605 28980 net.cpp:157] Top shape: 1 128 368 368 (17334272)
I0119 17:42:13.957625 28980 net.cpp:165] Memory required for data: 76971616
I0119 17:42:13.957679 28980 layer_factory.hpp:77] Creating layer relu1_stage1
I0119 17:42:13.957707 28980 net.cpp:100] Creating Layer relu1_stage1
I0119 17:42:13.957727 28980 net.cpp:434] relu1_stage1 <- conv1_stage1
I0119 17:42:13.957749 28980 net.cpp:395] relu1_stage1 -> conv1_stage1 (in-place)
I0119 17:42:13.957782 28980 net.cpp:150] Setting up relu1_stage1
I0119 17:42:13.957805 28980 net.cpp:157] Top shape: 1 128 368 368 (17334272)
I0119 17:42:13.957823 28980 net.cpp:165] Memory required for data: 146308704
I0119 17:42:13.957840 28980 layer_factory.hpp:77] Creating layer pool1_stage1
I0119 17:42:13.957867 28980 net.cpp:100] Creating Layer pool1_stage1
I0119 17:42:13.957886 28980 net.cpp:434] pool1_stage1 <- conv1_stage1
I0119 17:42:13.957908 28980 net.cpp:408] pool1_stage1 -> pool1_stage1
I0119 17:42:13.958068 28980 net.cpp:150] Setting up pool1_stage1
I0119 17:42:13.958102 28980 net.cpp:157] Top shape: 1 128 184 184 (4333568)
I0119 17:42:13.958119 28980 net.cpp:165] Memory required for data: 163642976
I0119 17:42:13.958137 28980 layer_factory.hpp:77] Creating layer conv2_stage1
I0119 17:42:13.958175 28980 net.cpp:100] Creating Layer conv2_stage1
I0119 17:42:13.958196 28980 net.cpp:434] conv2_stage1 <- pool1_stage1
I0119 17:42:13.958226 28980 net.cpp:408] conv2_stage1 -> conv2_stage1
I0119 17:42:14.054626 28980 net.cpp:150] Setting up conv2_stage1
I0119 17:42:14.054673 28980 net.cpp:157] Top shape: 1 128 184 184 (4333568)
I0119 17:42:14.054692 28980 net.cpp:165] Memory required for data: 180977248
I0119 17:42:14.054723 28980 layer_factory.hpp:77] Creating layer relu2_stage1
I0119 17:42:14.054752 28980 net.cpp:100] Creating Layer relu2_stage1
I0119 17:42:14.054770 28980 net.cpp:434] relu2_stage1 <- conv2_stage1
I0119 17:42:14.054791 28980 net.cpp:395] relu2_stage1 -> conv2_stage1 (in-place)
I0119 17:42:14.054816 28980 net.cpp:150] Setting up relu2_stage1
I0119 17:42:14.054837 28980 net.cpp:157] Top shape: 1 128 184 184 (4333568)
I0119 17:42:14.054853 28980 net.cpp:165] Memory required for data: 198311520
I0119 17:42:14.054869 28980 layer_factory.hpp:77] Creating layer pool2_stage1
I0119 17:42:14.054895 28980 net.cpp:100] Creating Layer pool2_stage1
I0119 17:42:14.054913 28980 net.cpp:434] pool2_stage1 <- conv2_stage1
I0119 17:42:14.054946 28980 net.cpp:408] pool2_stage1 -> pool2_stage1
I0119 17:42:14.055083 28980 net.cpp:150] Setting up pool2_stage1
I0119 17:42:14.055115 28980 net.cpp:157] Top shape: 1 128 92 92 (1083392)
I0119 17:42:14.055131 28980 net.cpp:165] Memory required for data: 202645088
I0119 17:42:14.055148 28980 layer_factory.hpp:77] Creating layer conv3_stage1
I0119 17:42:14.055181 28980 net.cpp:100] Creating Layer conv3_stage1
I0119 17:42:14.055199 28980 net.cpp:434] conv3_stage1 <- pool2_stage1
I0119 17:42:14.055222 28980 net.cpp:408] conv3_stage1 -> conv3_stage1
I0119 17:42:14.152362 28980 net.cpp:150] Setting up conv3_stage1
I0119 17:42:14.152407 28980 net.cpp:157] Top shape: 1 128 92 92 (1083392)
I0119 17:42:14.152425 28980 net.cpp:165] Memory required for data: 206978656
I0119 17:42:14.152456 28980 layer_factory.hpp:77] Creating layer relu3_stage1
I0119 17:42:14.152484 28980 net.cpp:100] Creating Layer relu3_stage1
I0119 17:42:14.152503 28980 net.cpp:434] relu3_stage1 <- conv3_stage1
I0119 17:42:14.152523 28980 net.cpp:395] relu3_stage1 -> conv3_stage1 (in-place)
I0119 17:42:14.152547 28980 net.cpp:150] Setting up relu3_stage1
I0119 17:42:14.152568 28980 net.cpp:157] Top shape: 1 128 92 92 (1083392)
I0119 17:42:14.152585 28980 net.cpp:165] Memory required for data: 211312224
I0119 17:42:14.152601 28980 layer_factory.hpp:77] Creating layer pool3_stage1
I0119 17:42:14.152621 28980 net.cpp:100] Creating Layer pool3_stage1
I0119 17:42:14.152638 28980 net.cpp:434] pool3_stage1 <- conv3_stage1
I0119 17:42:14.152663 28980 net.cpp:408] pool3_stage1 -> pool3_stage1
I0119 17:42:14.152806 28980 net.cpp:150] Setting up pool3_stage1
I0119 17:42:14.152838 28980 net.cpp:157] Top shape: 1 128 46 46 (270848)
I0119 17:42:14.152854 28980 net.cpp:165] Memory required for data: 212395616
I0119 17:42:14.152871 28980 layer_factory.hpp:77] Creating layer conv4_stage1
I0119 17:42:14.152905 28980 net.cpp:100] Creating Layer conv4_stage1
I0119 17:42:14.152925 28980 net.cpp:434] conv4_stage1 <- pool3_stage1
I0119 17:42:14.152952 28980 net.cpp:408] conv4_stage1 -> conv4_stage1
I0119 17:42:14.161938 28980 net.cpp:150] Setting up conv4_stage1
I0119 17:42:14.161981 28980 net.cpp:157] Top shape: 1 32 46 46 (67712)
I0119 17:42:14.161999 28980 net.cpp:165] Memory required for data: 212666464
I0119 17:42:14.162024 28980 layer_factory.hpp:77] Creating layer relu4_stage1
I0119 17:42:14.162047 28980 net.cpp:100] Creating Layer relu4_stage1
I0119 17:42:14.162065 28980 net.cpp:434] relu4_stage1 <- conv4_stage1
I0119 17:42:14.162091 28980 net.cpp:395] relu4_stage1 -> conv4_stage1 (in-place)
I0119 17:42:14.162117 28980 net.cpp:150] Setting up relu4_stage1
I0119 17:42:14.162137 28980 net.cpp:157] Top shape: 1 32 46 46 (67712)
I0119 17:42:14.162153 28980 net.cpp:165] Memory required for data: 212937312
I0119 17:42:14.162169 28980 layer_factory.hpp:77] Creating layer conv5_stage1
I0119 17:42:14.162206 28980 net.cpp:100] Creating Layer conv5_stage1
I0119 17:42:14.162225 28980 net.cpp:434] conv5_stage1 <- conv4_stage1
I0119 17:42:14.162248 28980 net.cpp:408] conv5_stage1 -> conv5_stage1
I0119 17:42:14.259310 28980 net.cpp:150] Setting up conv5_stage1
I0119 17:42:14.259356 28980 net.cpp:157] Top shape: 1 512 46 46 (1083392)
I0119 17:42:14.259372 28980 net.cpp:165] Memory required for data: 217270880
I0119 17:42:14.259409 28980 layer_factory.hpp:77] Creating layer relu5_stage1
I0119 17:42:14.259434 28980 net.cpp:100] Creating Layer relu5_stage1
I0119 17:42:14.259452 28980 net.cpp:434] relu5_stage1 <- conv5_stage1
I0119 17:42:14.259474 28980 net.cpp:395] relu5_stage1 -> conv5_stage1 (in-place)
I0119 17:42:14.259498 28980 net.cpp:150] Setting up relu5_stage1
I0119 17:42:14.259518 28980 net.cpp:157] Top shape: 1 512 46 46 (1083392)
I0119 17:42:14.259533 28980 net.cpp:165] Memory required for data: 221604448
I0119 17:42:14.259549 28980 layer_factory.hpp:77] Creating layer conv6_stage1
I0119 17:42:14.259582 28980 net.cpp:100] Creating Layer conv6_stage1
I0119 17:42:14.259599 28980 net.cpp:434] conv6_stage1 <- conv5_stage1
I0119 17:42:14.259642 28980 net.cpp:408] conv6_stage1 -> conv6_stage1
I0119 17:42:14.279548 28980 net.cpp:150] Setting up conv6_stage1
I0119 17:42:14.279589 28980 net.cpp:157] Top shape: 1 512 46 46 (1083392)
I0119 17:42:14.279608 28980 net.cpp:165] Memory required for data: 225938016
I0119 17:42:14.279633 28980 layer_factory.hpp:77] Creating layer relu6_stage1
I0119 17:42:14.279655 28980 net.cpp:100] Creating Layer relu6_stage1
I0119 17:42:14.279673 28980 net.cpp:434] relu6_stage1 <- conv6_stage1
I0119 17:42:14.279693 28980 net.cpp:395] relu6_stage1 -> conv6_stage1 (in-place)
I0119 17:42:14.279718 28980 net.cpp:150] Setting up relu6_stage1
I0119 17:42:14.279738 28980 net.cpp:157] Top shape: 1 512 46 46 (1083392)
I0119 17:42:14.279754 28980 net.cpp:165] Memory required for data: 230271584
I0119 17:42:14.279772 28980 layer_factory.hpp:77] Creating layer conv7_stage1
I0119 17:42:14.279808 28980 net.cpp:100] Creating Layer conv7_stage1
I0119 17:42:14.279827 28980 net.cpp:434] conv7_stage1 <- conv6_stage1
I0119 17:42:14.279850 28980 net.cpp:408] conv7_stage1 -> conv7_stage1
I0119 17:42:14.281158 28980 net.cpp:150] Setting up conv7_stage1
I0119 17:42:14.281193 28980 net.cpp:157] Top shape: 1 15 46 46 (31740)
I0119 17:42:14.281210 28980 net.cpp:165] Memory required for data: 230398544
I0119 17:42:14.281234 28980 layer_factory.hpp:77] Creating layer conv1_stage2
I0119 17:42:14.281283 28980 net.cpp:100] Creating Layer conv1_stage2
I0119 17:42:14.281306 28980 net.cpp:434] conv1_stage2 <- image_image_0_split_1
I0119 17:42:14.281330 28980 net.cpp:408] conv1_stage2 -> conv1_stage2
I0119 17:42:14.285605 28980 net.cpp:150] Setting up conv1_stage2
I0119 17:42:14.285648 28980 net.cpp:157] Top shape: 1 128 368 368 (17334272)
I0119 17:42:14.285666 28980 net.cpp:165] Memory required for data: 299735632
I0119 17:42:14.285692 28980 layer_factory.hpp:77] Creating layer relu1_stage2
I0119 17:42:14.285715 28980 net.cpp:100] Creating Layer relu1_stage2
I0119 17:42:14.285732 28980 net.cpp:434] relu1_stage2 <- conv1_stage2
I0119 17:42:14.285758 28980 net.cpp:395] relu1_stage2 -> conv1_stage2 (in-place)
I0119 17:42:14.285784 28980 net.cpp:150] Setting up relu1_stage2
I0119 17:42:14.285805 28980 net.cpp:157] Top shape: 1 128 368 368 (17334272)
I0119 17:42:14.285821 28980 net.cpp:165] Memory required for data: 369072720
I0119 17:42:14.285837 28980 layer_factory.hpp:77] Creating layer pool1_stage2
I0119 17:42:14.285859 28980 net.cpp:100] Creating Layer pool1_stage2
I0119 17:42:14.285876 28980 net.cpp:434] pool1_stage2 <- conv1_stage2
I0119 17:42:14.285897 28980 net.cpp:408] pool1_stage2 -> pool1_stage2
I0119 17:42:14.286036 28980 net.cpp:150] Setting up pool1_stage2
I0119 17:42:14.286067 28980 net.cpp:157] Top shape: 1 128 184 184 (4333568)
I0119 17:42:14.286082 28980 net.cpp:165] Memory required for data: 386406992
I0119 17:42:14.286099 28980 layer_factory.hpp:77] Creating layer conv2_stage2
I0119 17:42:14.286134 28980 net.cpp:100] Creating Layer conv2_stage2
I0119 17:42:14.286151 28980 net.cpp:434] conv2_stage2 <- pool1_stage2
I0119 17:42:14.286180 28980 net.cpp:408] conv2_stage2 -> conv2_stage2
I0119 17:42:14.382205 28980 net.cpp:150] Setting up conv2_stage2
I0119 17:42:14.382249 28980 net.cpp:157] Top shape: 1 128 184 184 (4333568)
I0119 17:42:14.382268 28980 net.cpp:165] Memory required for data: 403741264
I0119 17:42:14.382300 28980 layer_factory.hpp:77] Creating layer relu2_stage2
I0119 17:42:14.382325 28980 net.cpp:100] Creating Layer relu2_stage2
I0119 17:42:14.382342 28980 net.cpp:434] relu2_stage2 <- conv2_stage2
I0119 17:42:14.382369 28980 net.cpp:395] relu2_stage2 -> conv2_stage2 (in-place)
I0119 17:42:14.382395 28980 net.cpp:150] Setting up relu2_stage2
I0119 17:42:14.382416 28980 net.cpp:157] Top shape: 1 128 184 184 (4333568)
I0119 17:42:14.382431 28980 net.cpp:165] Memory required for data: 421075536
I0119 17:42:14.382447 28980 layer_factory.hpp:77] Creating layer pool2_stage2
I0119 17:42:14.382467 28980 net.cpp:100] Creating Layer pool2_stage2
I0119 17:42:14.382483 28980 net.cpp:434] pool2_stage2 <- conv2_stage2
I0119 17:42:14.382509 28980 net.cpp:408] pool2_stage2 -> pool2_stage2
I0119 17:42:14.382663 28980 net.cpp:150] Setting up pool2_stage2
I0119 17:42:14.382696 28980 net.cpp:157] Top shape: 1 128 92 92 (1083392)
I0119 17:42:14.382711 28980 net.cpp:165] Memory required for data: 425409104
I0119 17:42:14.382728 28980 layer_factory.hpp:77] Creating layer conv3_stage2
I0119 17:42:14.382766 28980 net.cpp:100] Creating Layer conv3_stage2
I0119 17:42:14.382784 28980 net.cpp:434] conv3_stage2 <- pool2_stage2
I0119 17:42:14.382808 28980 net.cpp:408] conv3_stage2 -> conv3_stage2
I0119 17:42:14.471722 28980 net.cpp:150] Setting up conv3_stage2
I0119 17:42:14.471746 28980 net.cpp:157] Top shape: 1 128 92 92 (1083392)
I0119 17:42:14.471755 28980 net.cpp:165] Memory required for data: 429742672
I0119 17:42:14.471770 28980 layer_factory.hpp:77] Creating layer relu3_stage2
I0119 17:42:14.471781 28980 net.cpp:100] Creating Layer relu3_stage2
I0119 17:42:14.471791 28980 net.cpp:434] relu3_stage2 <- conv3_stage2
I0119 17:42:14.471804 28980 net.cpp:395] relu3_stage2 -> conv3_stage2 (in-place)
I0119 17:42:14.471817 28980 net.cpp:150] Setting up relu3_stage2
I0119 17:42:14.471828 28980 net.cpp:157] Top shape: 1 128 92 92 (1083392)
I0119 17:42:14.471837 28980 net.cpp:165] Memory required for data: 434076240
I0119 17:42:14.471845 28980 layer_factory.hpp:77] Creating layer pool3_stage2
I0119 17:42:14.471856 28980 net.cpp:100] Creating Layer pool3_stage2
I0119 17:42:14.471864 28980 net.cpp:434] pool3_stage2 <- conv3_stage2
I0119 17:42:14.471875 28980 net.cpp:408] pool3_stage2 -> pool3_stage2
I0119 17:42:14.471948 28980 net.cpp:150] Setting up pool3_stage2
I0119 17:42:14.471964 28980 net.cpp:157] Top shape: 1 128 46 46 (270848)
I0119 17:42:14.471972 28980 net.cpp:165] Memory required for data: 435159632
I0119 17:42:14.471982 28980 layer_factory.hpp:77] Creating layer pool3_stage2_pool3_stage2_0_split
I0119 17:42:14.471997 28980 net.cpp:100] Creating Layer pool3_stage2_pool3_stage2_0_split
I0119 17:42:14.472007 28980 net.cpp:434] pool3_stage2_pool3_stage2_0_split <- pool3_stage2
I0119 17:42:14.472018 28980 net.cpp:408] pool3_stage2_pool3_stage2_0_split -> pool3_stage2_pool3_stage2_0_split_0
I0119 17:42:14.472031 28980 net.cpp:408] pool3_stage2_pool3_stage2_0_split -> pool3_stage2_pool3_stage2_0_split_1
I0119 17:42:14.472043 28980 net.cpp:408] pool3_stage2_pool3_stage2_0_split -> pool3_stage2_pool3_stage2_0_split_2
I0119 17:42:14.472059 28980 net.cpp:408] pool3_stage2_pool3_stage2_0_split -> pool3_stage2_pool3_stage2_0_split_3
I0119 17:42:14.472070 28980 net.cpp:408] pool3_stage2_pool3_stage2_0_split -> pool3_stage2_pool3_stage2_0_split_4
I0119 17:42:14.472194 28980 net.cpp:150] Setting up pool3_stage2_pool3_stage2_0_split
I0119 17:42:14.472210 28980 net.cpp:157] Top shape: 1 128 46 46 (270848)
I0119 17:42:14.472220 28980 net.cpp:157] Top shape: 1 128 46 46 (270848)
I0119 17:42:14.472230 28980 net.cpp:157] Top shape: 1 128 46 46 (270848)
I0119 17:42:14.472239 28980 net.cpp:157] Top shape: 1 128 46 46 (270848)
I0119 17:42:14.472249 28980 net.cpp:157] Top shape: 1 128 46 46 (270848)
I0119 17:42:14.472257 28980 net.cpp:165] Memory required for data: 440576592
I0119 17:42:14.472265 28980 layer_factory.hpp:77] Creating layer conv4_stage2
I0119 17:42:14.472285 28980 net.cpp:100] Creating Layer conv4_stage2
I0119 17:42:14.472295 28980 net.cpp:434] conv4_stage2 <- pool3_stage2_pool3_stage2_0_split_0
I0119 17:42:14.472307 28980 net.cpp:408] conv4_stage2 -> conv4_stage2
I0119 17:42:14.476387 28980 net.cpp:150] Setting up conv4_stage2
I0119 17:42:14.476408 28980 net.cpp:157] Top shape: 1 32 46 46 (67712)
I0119 17:42:14.476415 28980 net.cpp:165] Memory required for data: 440847440
I0119 17:42:14.476428 28980 layer_factory.hpp:77] Creating layer relu4_stage2
I0119 17:42:14.476446 28980 net.cpp:100] Creating Layer relu4_stage2
I0119 17:42:14.476456 28980 net.cpp:434] relu4_stage2 <- conv4_stage2
I0119 17:42:14.476467 28980 net.cpp:395] relu4_stage2 -> conv4_stage2 (in-place)
I0119 17:42:14.476480 28980 net.cpp:150] Setting up relu4_stage2
I0119 17:42:14.476490 28980 net.cpp:157] Top shape: 1 32 46 46 (67712)
I0119 17:42:14.476505 28980 net.cpp:165] Memory required for data: 441118288
I0119 17:42:14.476514 28980 layer_factory.hpp:77] Creating layer concat_stage2
I0119 17:42:14.476536 28980 net.cpp:100] Creating Layer concat_stage2
I0119 17:42:14.476546 28980 net.cpp:434] concat_stage2 <- conv4_stage2
I0119 17:42:14.476554 28980 net.cpp:434] concat_stage2 <- conv7_stage1
I0119 17:42:14.476564 28980 net.cpp:434] concat_stage2 <- pool_center_lower_pool_center_lower_0_split_0
I0119 17:42:14.476575 28980 net.cpp:408] concat_stage2 -> concat_stage2
I0119 17:42:14.476634 28980 net.cpp:150] Setting up concat_stage2
I0119 17:42:14.476650 28980 net.cpp:157] Top shape: 1 48 46 46 (101568)
I0119 17:42:14.476658 28980 net.cpp:165] Memory required for data: 441524560
I0119 17:42:14.476667 28980 layer_factory.hpp:77] Creating layer Mconv1_stage2
I0119 17:42:14.476686 28980 net.cpp:100] Creating Layer Mconv1_stage2
I0119 17:42:14.476696 28980 net.cpp:434] Mconv1_stage2 <- concat_stage2
I0119 17:42:14.476709 28980 net.cpp:408] Mconv1_stage2 -> Mconv1_stage2
I0119 17:42:14.505220 28980 net.cpp:150] Setting up Mconv1_stage2
I0119 17:42:14.505242 28980 net.cpp:157] Top shape: 1 128 46 46 (270848)
I0119 17:42:14.505257 28980 net.cpp:165] Memory required for data: 442607952
I0119 17:42:14.505270 28980 layer_factory.hpp:77] Creating layer Mrelu1_stage2
I0119 17:42:14.505282 28980 net.cpp:100] Creating Layer Mrelu1_stage2
I0119 17:42:14.505292 28980 net.cpp:434] Mrelu1_stage2 <- Mconv1_stage2
I0119 17:42:14.505306 28980 net.cpp:395] Mrelu1_stage2 -> Mconv1_stage2 (in-place)
I0119 17:42:14.505319 28980 net.cpp:150] Setting up Mrelu1_stage2
I0119 17:42:14.505331 28980 net.cpp:157] Top shape: 1 128 46 46 (270848)
I0119 17:42:14.505339 28980 net.cpp:165] Memory required for data: 443691344
I0119 17:42:14.505347 28980 layer_factory.hpp:77] Creating layer Mconv2_stage2
I0119 17:42:14.505365 28980 net.cpp:100] Creating Layer Mconv2_stage2
I0119 17:42:14.505374 28980 net.cpp:434] Mconv2_stage2 <- Mconv1_stage2
I0119 17:42:14.505386 28980 net.cpp:408] Mconv2_stage2 -> Mconv2_stage2
I0119 17:42:14.580315 28980 net.cpp:150] Setting up Mconv2_stage2
I0119 17:42:14.580341 28980 net.cpp:157] Top shape: 1 128 46 46 (270848)
I0119 17:42:14.580351 28980 net.cpp:165] Memory required for data: 444774736
I0119 17:42:14.580364 28980 layer_factory.hpp:77] Creating layer Mrelu2_stage2
I0119 17:42:14.580376 28980 net.cpp:100] Creating Layer Mrelu2_stage2
I0119 17:42:14.580386 28980 net.cpp:434] Mrelu2_stage2 <- Mconv2_stage2
I0119 17:42:14.580397 28980 net.cpp:395] Mrelu2_stage2 -> Mconv2_stage2 (in-place)
I0119 17:42:14.580410 28980 net.cpp:150] Setting up Mrelu2_stage2
I0119 17:42:14.580420 28980 net.cpp:157] Top shape: 1 128 46 46 (270848)
I0119 17:42:14.580428 28980 net.cpp:165] Memory required for data: 445858128
I0119 17:42:14.580437 28980 layer_factory.hpp:77] Creating layer Mconv3_stage2
I0119 17:42:14.580456 28980 net.cpp:100] Creating Layer Mconv3_stage2
I0119 17:42:14.580466 28980 net.cpp:434] Mconv3_stage2 <- Mconv2_stage2
I0119 17:42:14.580479 28980 net.cpp:408] Mconv3_stage2 -> Mconv3_stage2
I0119 17:42:14.655303 28980 net.cpp:150] Setting up Mconv3_stage2
I0119 17:42:14.655330 28980 net.cpp:157] Top shape: 1 128 46 46 (270848)
I0119 17:42:14.655339 28980 net.cpp:165] Memory required for data: 446941520
I0119 17:42:14.655352 28980 layer_factory.hpp:77] Creating layer Mrelu3_stage2
I0119 17:42:14.655365 28980 net.cpp:100] Creating Layer Mrelu3_stage2
I0119 17:42:14.655375 28980 net.cpp:434] Mrelu3_stage2 <- Mconv3_stage2
I0119 17:42:14.655388 28980 net.cpp:395] Mrelu3_stage2 -> Mconv3_stage2 (in-place)
I0119 17:42:14.655402 28980 net.cpp:150] Setting up Mrelu3_stage2
I0119 17:42:14.655412 28980 net.cpp:157] Top shape: 1 128 46 46 (270848)
I0119 17:42:14.655421 28980 net.cpp:165] Memory required for data: 448024912
I0119 17:42:14.655429 28980 layer_factory.hpp:77] Creating layer Mconv4_stage2
I0119 17:42:14.655447 28980 net.cpp:100] Creating Layer Mconv4_stage2
I0119 17:42:14.655457 28980 net.cpp:434] Mconv4_stage2 <- Mconv3_stage2
I0119 17:42:14.655481 28980 net.cpp:408] Mconv4_stage2 -> Mconv4_stage2
I0119 17:42:14.656517 28980 net.cpp:150] Setting up Mconv4_stage2
I0119 17:42:14.656535 28980 net.cpp:157] Top shape: 1 128 46 46 (270848)
I0119 17:42:14.656544 28980 net.cpp:165] Memory required for data: 449108304
I0119 17:42:14.656556 28980 layer_factory.hpp:77] Creating layer Mrelu4_stage2
I0119 17:42:14.656571 28980 net.cpp:100] Creating Layer Mrelu4_stage2
I0119 17:42:14.656580 28980 net.cpp:434] Mrelu4_stage2 <- Mconv4_stage2
I0119 17:42:14.656591 28980 net.cpp:395] Mrelu4_stage2 -> Mconv4_stage2 (in-place)
I0119 17:42:14.656604 28980 net.cpp:150] Setting up Mrelu4_stage2
I0119 17:42:14.656615 28980 net.cpp:157] Top shape: 1 128 46 46 (270848)
I0119 17:42:14.656622 28980 net.cpp:165] Memory required for data: 450191696
I0119 17:42:14.656630 28980 layer_factory.hpp:77] Creating layer Mconv5_stage2
I0119 17:42:14.656648 28980 net.cpp:100] Creating Layer Mconv5_stage2
I0119 17:42:14.656657 28980 net.cpp:434] Mconv5_stage2 <- Mconv4_stage2
I0119 17:42:14.656669 28980 net.cpp:408] Mconv5_stage2 -> Mconv5_stage2
I0119 17:42:14.657153 28980 net.cpp:150] Setting up Mconv5_stage2
I0119 17:42:14.657171 28980 net.cpp:157] Top shape: 1 15 46 46 (31740)
I0119 17:42:14.657179 28980 net.cpp:165] Memory required for data: 450318656
I0119 17:42:14.657192 28980 layer_factory.hpp:77] Creating layer conv1_stage3
I0119 17:42:14.657210 28980 net.cpp:100] Creating Layer conv1_stage3
I0119 17:42:14.657220 28980 net.cpp:434] conv1_stage3 <- pool3_stage2_pool3_stage2_0_split_1
I0119 17:42:14.657235 28980 net.cpp:408] conv1_stage3 -> conv1_stage3
I0119 17:42:14.662063 28980 net.cpp:150] Setting up conv1_stage3
I0119 17:42:14.662084 28980 net.cpp:157] Top shape: 1 32 46 46 (67712)
I0119 17:42:14.662094 28980 net.cpp:165] Memory required for data: 450589504
I0119 17:42:14.662122 28980 layer_factory.hpp:77] Creating layer relu1_stage3
I0119 17:42:14.662134 28980 net.cpp:100] Creating Layer relu1_stage3
I0119 17:42:14.662143 28980 net.cpp:434] relu1_stage3 <- conv1_stage3
I0119 17:42:14.662154 28980 net.cpp:395] relu1_stage3 -> conv1_stage3 (in-place)
I0119 17:42:14.662168 28980 net.cpp:150] Setting up relu1_stage3
I0119 17:42:14.662178 28980 net.cpp:157] Top shape: 1 32 46 46 (67712)
I0119 17:42:14.662186 28980 net.cpp:165] Memory required for data: 450860352
I0119 17:42:14.662194 28980 layer_factory.hpp:77] Creating layer concat_stage3
I0119 17:42:14.662207 28980 net.cpp:100] Creating Layer concat_stage3
I0119 17:42:14.662215 28980 net.cpp:434] concat_stage3 <- conv1_stage3
I0119 17:42:14.662225 28980 net.cpp:434] concat_stage3 <- Mconv5_stage2
I0119 17:42:14.662235 28980 net.cpp:434] concat_stage3 <- pool_center_lower_pool_center_lower_0_split_1
I0119 17:42:14.662250 28980 net.cpp:408] concat_stage3 -> concat_stage3
I0119 17:42:14.662303 28980 net.cpp:150] Setting up concat_stage3
I0119 17:42:14.662319 28980 net.cpp:157] Top shape: 1 48 46 46 (101568)
I0119 17:42:14.662328 28980 net.cpp:165] Memory required for data: 451266624
I0119 17:42:14.662336 28980 layer_factory.hpp:77] Creating layer Mconv1_stage3
I0119 17:42:14.662354 28980 net.cpp:100] Creating Layer Mconv1_stage3
I0119 17:42:14.662364 28980 net.cpp:434] Mconv1_stage3 <- concat_stage3
I0119 17:42:14.662379 28980 net.cpp:408] Mconv1_stage3 -> Mconv1_stage3
I0119 17:42:14.690954 28980 net.cpp:150] Setting up Mconv1_stage3
I0119 17:42:14.690976 28980 net.cpp:157] Top shape: 1 128 46 46 (270848)
I0119 17:42:14.690986 28980 net.cpp:165] Memory required for data: 452350016
I0119 17:42:14.690999 28980 layer_factory.hpp:77] Creating layer Mrelu1_stage3
I0119 17:42:14.691011 28980 net.cpp:100] Creating Layer Mrelu1_stage3
I0119 17:42:14.691025 28980 net.cpp:434] Mrelu1_stage3 <- Mconv1_stage3
I0119 17:42:14.691035 28980 net.cpp:395] Mrelu1_stage3 -> Mconv1_stage3 (in-place)
I0119 17:42:14.691048 28980 net.cpp:150] Setting up Mrelu1_stage3
I0119 17:42:14.691059 28980 net.cpp:157] Top shape: 1 128 46 46 (270848)
I0119 17:42:14.691067 28980 net.cpp:165] Memory required for data: 453433408
I0119 17:42:14.691076 28980 layer_factory.hpp:77] Creating layer Mconv2_stage3
I0119 17:42:14.691100 28980 net.cpp:100] Creating Layer Mconv2_stage3
I0119 17:42:14.691112 28980 net.cpp:434] Mconv2_stage3 <- Mconv1_stage3
I0119 17:42:14.691123 28980 net.cpp:408] Mconv2_stage3 -> Mconv2_stage3
I0119 17:42:14.766162 28980 net.cpp:150] Setting up Mconv2_stage3
I0119 17:42:14.766191 28980 net.cpp:157] Top shape: 1 128 46 46 (270848)
I0119 17:42:14.766199 28980 net.cpp:165] Memory required for data: 454516800
I0119 17:42:14.766212 28980 layer_factory.hpp:77] Creating layer Mrelu2_stage3
I0119 17:42:14.766228 28980 net.cpp:100] Creating Layer Mrelu2_stage3
I0119 17:42:14.766238 28980 net.cpp:434] Mrelu2_stage3 <- Mconv2_stage3
I0119 17:42:14.766249 28980 net.cpp:395] Mrelu2_stage3 -> Mconv2_stage3 (in-place)
I0119 17:42:14.766263 28980 net.cpp:150] Setting up Mrelu2_stage3
I0119 17:42:14.766274 28980 net.cpp:157] Top shape: 1 128 46 46 (270848)
I0119 17:42:14.766283 28980 net.cpp:165] Memory required for data: 455600192
I0119 17:42:14.766291 28980 layer_factory.hpp:77] Creating layer Mconv3_stage3
I0119 17:42:14.766309 28980 net.cpp:100] Creating Layer Mconv3_stage3
I0119 17:42:14.766319 28980 net.cpp:434] Mconv3_stage3 <- Mconv2_stage3
I0119 17:42:14.766336 28980 net.cpp:408] Mconv3_stage3 -> Mconv3_stage3
I0119 17:42:14.842185 28980 net.cpp:150] Setting up Mconv3_stage3
I0119 17:42:14.842216 28980 net.cpp:157] Top shape: 1 128 46 46 (270848)
I0119 17:42:14.842226 28980 net.cpp:165] Memory required for data: 456683584
I0119 17:42:14.842244 28980 layer_factory.hpp:77] Creating layer Mrelu3_stage3
I0119 17:42:14.842257 28980 net.cpp:100] Creating Layer Mrelu3_stage3
I0119 17:42:14.842274 28980 net.cpp:434] Mrelu3_stage3 <- Mconv3_stage3
I0119 17:42:14.842290 28980 net.cpp:395] Mrelu3_stage3 -> Mconv3_stage3 (in-place)
I0119 17:42:14.842304 28980 net.cpp:150] Setting up Mrelu3_stage3
I0119 17:42:14.842315 28980 net.cpp:157] Top shape: 1 128 46 46 (270848)
I0119 17:42:14.842324 28980 net.cpp:165] Memory required for data: 457766976
I0119 17:42:14.842334 28980 layer_factory.hpp:77] Creating layer Mconv4_stage3
I0119 17:42:14.842351 28980 net.cpp:100] Creating Layer Mconv4_stage3
I0119 17:42:14.842361 28980 net.cpp:434] Mconv4_stage3 <- Mconv3_stage3
I0119 17:42:14.842376 28980 net.cpp:408] Mconv4_stage3 -> Mconv4_stage3
I0119 17:42:14.843420 28980 net.cpp:150] Setting up Mconv4_stage3
I0119 17:42:14.843438 28980 net.cpp:157] Top shape: 1 128 46 46 (270848)
I0119 17:42:14.843446 28980 net.cpp:165] Memory required for data: 458850368
I0119 17:42:14.843458 28980 layer_factory.hpp:77] Creating layer Mrelu4_stage3
I0119 17:42:14.843471 28980 net.cpp:100] Creating Layer Mrelu4_stage3
I0119 17:42:14.843479 28980 net.cpp:434] Mrelu4_stage3 <- Mconv4_stage3
I0119 17:42:14.843490 28980 net.cpp:395] Mrelu4_stage3 -> Mconv4_stage3 (in-place)
I0119 17:42:14.843502 28980 net.cpp:150] Setting up Mrelu4_stage3
I0119 17:42:14.843513 28980 net.cpp:157] Top shape: 1 128 46 46 (270848)
I0119 17:42:14.843521 28980 net.cpp:165] Memory required for data: 459933760
I0119 17:42:14.843529 28980 layer_factory.hpp:77] Creating layer Mconv5_stage3
I0119 17:42:14.843549 28980 net.cpp:100] Creating Layer Mconv5_stage3
I0119 17:42:14.843559 28980 net.cpp:434] Mconv5_stage3 <- Mconv4_stage3
I0119 17:42:14.843575 28980 net.cpp:408] Mconv5_stage3 -> Mconv5_stage3
I0119 17:42:14.844115 28980 net.cpp:150] Setting up Mconv5_stage3
I0119 17:42:14.844133 28980 net.cpp:157] Top shape: 1 15 46 46 (31740)
I0119 17:42:14.844141 28980 net.cpp:165] Memory required for data: 460060720
I0119 17:42:14.844154 28980 layer_factory.hpp:77] Creating layer conv1_stage4
I0119 17:42:14.844173 28980 net.cpp:100] Creating Layer conv1_stage4
I0119 17:42:14.844187 28980 net.cpp:434] conv1_stage4 <- pool3_stage2_pool3_stage2_0_split_2
I0119 17:42:14.844203 28980 net.cpp:408] conv1_stage4 -> conv1_stage4
I0119 17:42:14.848387 28980 net.cpp:150] Setting up conv1_stage4
I0119 17:42:14.848405 28980 net.cpp:157] Top shape: 1 32 46 46 (67712)
I0119 17:42:14.848414 28980 net.cpp:165] Memory required for data: 460331568
I0119 17:42:14.848426 28980 layer_factory.hpp:77] Creating layer relu1_stage4
I0119 17:42:14.848449 28980 net.cpp:100] Creating Layer relu1_stage4
I0119 17:42:14.848462 28980 net.cpp:434] relu1_stage4 <- conv1_stage4
I0119 17:42:14.848474 28980 net.cpp:395] relu1_stage4 -> conv1_stage4 (in-place)
I0119 17:42:14.848486 28980 net.cpp:150] Setting up relu1_stage4
I0119 17:42:14.848497 28980 net.cpp:157] Top shape: 1 32 46 46 (67712)
I0119 17:42:14.848505 28980 net.cpp:165] Memory required for data: 460602416
I0119 17:42:14.848515 28980 layer_factory.hpp:77] Creating layer concat_stage4
I0119 17:42:14.848529 28980 net.cpp:100] Creating Layer concat_stage4
I0119 17:42:14.848538 28980 net.cpp:434] concat_stage4 <- conv1_stage4
I0119 17:42:14.848547 28980 net.cpp:434] concat_stage4 <- Mconv5_stage3
I0119 17:42:14.848558 28980 net.cpp:434] concat_stage4 <- pool_center_lower_pool_center_lower_0_split_2
I0119 17:42:14.848570 28980 net.cpp:408] concat_stage4 -> concat_stage4
I0119 17:42:14.848624 28980 net.cpp:150] Setting up concat_stage4
I0119 17:42:14.848640 28980 net.cpp:157] Top shape: 1 48 46 46 (101568)
I0119 17:42:14.848649 28980 net.cpp:165] Memory required for data: 461008688
I0119 17:42:14.848656 28980 layer_factory.hpp:77] Creating layer Mconv1_stage4
I0119 17:42:14.848675 28980 net.cpp:100] Creating Layer Mconv1_stage4
I0119 17:42:14.848685 28980 net.cpp:434] Mconv1_stage4 <- concat_stage4
I0119 17:42:14.848700 28980 net.cpp:408] Mconv1_stage4 -> Mconv1_stage4
I0119 17:42:14.877418 28980 net.cpp:150] Setting up Mconv1_stage4
I0119 17:42:14.877440 28980 net.cpp:157] Top shape: 1 128 46 46 (270848)
I0119 17:42:14.877450 28980 net.cpp:165] Memory required for data: 462092080
I0119 17:42:14.877463 28980 layer_factory.hpp:77] Creating layer Mrelu1_stage4
I0119 17:42:14.877478 28980 net.cpp:100] Creating Layer Mrelu1_stage4
I0119 17:42:14.877488 28980 net.cpp:434] Mrelu1_stage4 <- Mconv1_stage4
I0119 17:42:14.877499 28980 net.cpp:395] Mrelu1_stage4 -> Mconv1_stage4 (in-place)
I0119 17:42:14.877516 28980 net.cpp:150] Setting up Mrelu1_stage4
I0119 17:42:14.877528 28980 net.cpp:157] Top shape: 1 128 46 46 (270848)
I0119 17:42:14.877549 28980 net.cpp:165] Memory required for data: 463175472
I0119 17:42:14.877559 28980 layer_factory.hpp:77] Creating layer Mconv2_stage4
I0119 17:42:14.877576 28980 net.cpp:100] Creating Layer Mconv2_stage4
I0119 17:42:14.877586 28980 net.cpp:434] Mconv2_stage4 <- Mconv1_stage4
I0119 17:42:14.877601 28980 net.cpp:408] Mconv2_stage4 -> Mconv2_stage4
I0119 17:42:14.952527 28980 net.cpp:150] Setting up Mconv2_stage4
I0119 17:42:14.952553 28980 net.cpp:157] Top shape: 1 128 46 46 (270848)
I0119 17:42:14.952564 28980 net.cpp:165] Memory required for data: 464258864
I0119 17:42:14.952576 28980 layer_factory.hpp:77] Creating layer Mrelu2_stage4
I0119 17:42:14.952589 28980 net.cpp:100] Creating Layer Mrelu2_stage4
I0119 17:42:14.952599 28980 net.cpp:434] Mrelu2_stage4 <- Mconv2_stage4
I0119 17:42:14.952612 28980 net.cpp:395] Mrelu2_stage4 -> Mconv2_stage4 (in-place)
I0119 17:42:14.952625 28980 net.cpp:150] Setting up Mrelu2_stage4
I0119 17:42:14.952636 28980 net.cpp:157] Top shape: 1 128 46 46 (270848)
I0119 17:42:14.952646 28980 net.cpp:165] Memory required for data: 465342256
I0119 17:42:14.952653 28980 layer_factory.hpp:77] Creating layer Mconv3_stage4
I0119 17:42:14.952672 28980 net.cpp:100] Creating Layer Mconv3_stage4
I0119 17:42:14.952682 28980 net.cpp:434] Mconv3_stage4 <- Mconv2_stage4
I0119 17:42:14.952692 28980 net.cpp:408] Mconv3_stage4 -> Mconv3_stage4
I0119 17:42:15.027626 28980 net.cpp:150] Setting up Mconv3_stage4
I0119 17:42:15.027650 28980 net.cpp:157] Top shape: 1 128 46 46 (270848)
I0119 17:42:15.027660 28980 net.cpp:165] Memory required for data: 466425648
I0119 17:42:15.027676 28980 layer_factory.hpp:77] Creating layer Mrelu3_stage4
I0119 17:42:15.027689 28980 net.cpp:100] Creating Layer Mrelu3_stage4
I0119 17:42:15.027699 28980 net.cpp:434] Mrelu3_stage4 <- Mconv3_stage4
I0119 17:42:15.027710 28980 net.cpp:395] Mrelu3_stage4 -> Mconv3_stage4 (in-place)
I0119 17:42:15.027724 28980 net.cpp:150] Setting up Mrelu3_stage4
I0119 17:42:15.027746 28980 net.cpp:157] Top shape: 1 128 46 46 (270848)
I0119 17:42:15.027755 28980 net.cpp:165] Memory required for data: 467509040
I0119 17:42:15.027765 28980 layer_factory.hpp:77] Creating layer Mconv4_stage4
I0119 17:42:15.027817 28980 net.cpp:100] Creating Layer Mconv4_stage4
I0119 17:42:15.027827 28980 net.cpp:434] Mconv4_stage4 <- Mconv3_stage4
I0119 17:42:15.027839 28980 net.cpp:408] Mconv4_stage4 -> Mconv4_stage4
I0119 17:42:15.028882 28980 net.cpp:150] Setting up Mconv4_stage4
I0119 17:42:15.028899 28980 net.cpp:157] Top shape: 1 128 46 46 (270848)
I0119 17:42:15.028908 28980 net.cpp:165] Memory required for data: 468592432
I0119 17:42:15.028921 28980 layer_factory.hpp:77] Creating layer Mrelu4_stage4
I0119 17:42:15.028933 28980 net.cpp:100] Creating Layer Mrelu4_stage4
I0119 17:42:15.028941 28980 net.cpp:434] Mrelu4_stage4 <- Mconv4_stage4
I0119 17:42:15.028955 28980 net.cpp:395] Mrelu4_stage4 -> Mconv4_stage4 (in-place)
I0119 17:42:15.028969 28980 net.cpp:150] Setting up Mrelu4_stage4
I0119 17:42:15.028978 28980 net.cpp:157] Top shape: 1 128 46 46 (270848)
I0119 17:42:15.028987 28980 net.cpp:165] Memory required for data: 469675824
I0119 17:42:15.028996 28980 layer_factory.hpp:77] Creating layer Mconv5_stage4
I0119 17:42:15.029017 28980 net.cpp:100] Creating Layer Mconv5_stage4
I0119 17:42:15.029027 28980 net.cpp:434] Mconv5_stage4 <- Mconv4_stage4
I0119 17:42:15.029039 28980 net.cpp:408] Mconv5_stage4 -> Mconv5_stage4
I0119 17:42:15.029564 28980 net.cpp:150] Setting up Mconv5_stage4
I0119 17:42:15.029584 28980 net.cpp:157] Top shape: 1 15 46 46 (31740)
I0119 17:42:15.029592 28980 net.cpp:165] Memory required for data: 469802784
I0119 17:42:15.029605 28980 layer_factory.hpp:77] Creating layer conv1_stage5
I0119 17:42:15.029624 28980 net.cpp:100] Creating Layer conv1_stage5
I0119 17:42:15.029635 28980 net.cpp:434] conv1_stage5 <- pool3_stage2_pool3_stage2_0_split_3
I0119 17:42:15.029651 28980 net.cpp:408] conv1_stage5 -> conv1_stage5
I0119 17:42:15.034492 28980 net.cpp:150] Setting up conv1_stage5
I0119 17:42:15.034517 28980 net.cpp:157] Top shape: 1 32 46 46 (67712)
I0119 17:42:15.034525 28980 net.cpp:165] Memory required for data: 470073632
I0119 17:42:15.034539 28980 layer_factory.hpp:77] Creating layer relu1_stage5
I0119 17:42:15.034550 28980 net.cpp:100] Creating Layer relu1_stage5
I0119 17:42:15.034560 28980 net.cpp:434] relu1_stage5 <- conv1_stage5
I0119 17:42:15.034571 28980 net.cpp:395] relu1_stage5 -> conv1_stage5 (in-place)
I0119 17:42:15.034584 28980 net.cpp:150] Setting up relu1_stage5
I0119 17:42:15.034595 28980 net.cpp:157] Top shape: 1 32 46 46 (67712)
I0119 17:42:15.034603 28980 net.cpp:165] Memory required for data: 470344480
I0119 17:42:15.034612 28980 layer_factory.hpp:77] Creating layer concat_stage5
I0119 17:42:15.034626 28980 net.cpp:100] Creating Layer concat_stage5
I0119 17:42:15.034636 28980 net.cpp:434] concat_stage5 <- conv1_stage5
I0119 17:42:15.034646 28980 net.cpp:434] concat_stage5 <- Mconv5_stage4
I0119 17:42:15.034656 28980 net.cpp:434] concat_stage5 <- pool_center_lower_pool_center_lower_0_split_3
I0119 17:42:15.034670 28980 net.cpp:408] concat_stage5 -> concat_stage5
I0119 17:42:15.034723 28980 net.cpp:150] Setting up concat_stage5
I0119 17:42:15.034739 28980 net.cpp:157] Top shape: 1 48 46 46 (101568)
I0119 17:42:15.034747 28980 net.cpp:165] Memory required for data: 470750752
I0119 17:42:15.034757 28980 layer_factory.hpp:77] Creating layer Mconv1_stage5
I0119 17:42:15.034776 28980 net.cpp:100] Creating Layer Mconv1_stage5
I0119 17:42:15.034786 28980 net.cpp:434] Mconv1_stage5 <- concat_stage5
I0119 17:42:15.034802 28980 net.cpp:408] Mconv1_stage5 -> Mconv1_stage5
I0119 17:42:15.063333 28980 net.cpp:150] Setting up Mconv1_stage5
I0119 17:42:15.063356 28980 net.cpp:157] Top shape: 1 128 46 46 (270848)
I0119 17:42:15.063366 28980 net.cpp:165] Memory required for data: 471834144
I0119 17:42:15.063380 28980 layer_factory.hpp:77] Creating layer Mrelu1_stage5
I0119 17:42:15.063392 28980 net.cpp:100] Creating Layer Mrelu1_stage5
I0119 17:42:15.063402 28980 net.cpp:434] Mrelu1_stage5 <- Mconv1_stage5
I0119 17:42:15.063426 28980 net.cpp:395] Mrelu1_stage5 -> Mconv1_stage5 (in-place)
I0119 17:42:15.063441 28980 net.cpp:150] Setting up Mrelu1_stage5
I0119 17:42:15.063453 28980 net.cpp:157] Top shape: 1 128 46 46 (270848)
I0119 17:42:15.063462 28980 net.cpp:165] Memory required for data: 472917536
I0119 17:42:15.063472 28980 layer_factory.hpp:77] Creating layer Mconv2_stage5
I0119 17:42:15.063491 28980 net.cpp:100] Creating Layer Mconv2_stage5
I0119 17:42:15.063501 28980 net.cpp:434] Mconv2_stage5 <- Mconv1_stage5
I0119 17:42:15.063514 28980 net.cpp:408] Mconv2_stage5 -> Mconv2_stage5
I0119 17:42:15.138342 28980 net.cpp:150] Setting up Mconv2_stage5
I0119 17:42:15.138367 28980 net.cpp:157] Top shape: 1 128 46 46 (270848)
I0119 17:42:15.138376 28980 net.cpp:165] Memory required for data: 474000928
I0119 17:42:15.138389 28980 layer_factory.hpp:77] Creating layer Mrelu2_stage5
I0119 17:42:15.138407 28980 net.cpp:100] Creating Layer Mrelu2_stage5
I0119 17:42:15.138417 28980 net.cpp:434] Mrelu2_stage5 <- Mconv2_stage5
I0119 17:42:15.138428 28980 net.cpp:395] Mrelu2_stage5 -> Mconv2_stage5 (in-place)
I0119 17:42:15.138442 28980 net.cpp:150] Setting up Mrelu2_stage5
I0119 17:42:15.138453 28980 net.cpp:157] Top shape: 1 128 46 46 (270848)
I0119 17:42:15.138461 28980 net.cpp:165] Memory required for data: 475084320
I0119 17:42:15.138469 28980 layer_factory.hpp:77] Creating layer Mconv3_stage5
I0119 17:42:15.138489 28980 net.cpp:100] Creating Layer Mconv3_stage5
I0119 17:42:15.138497 28980 net.cpp:434] Mconv3_stage5 <- Mconv2_stage5
I0119 17:42:15.138516 28980 net.cpp:408] Mconv3_stage5 -> Mconv3_stage5
I0119 17:42:15.213261 28980 net.cpp:150] Setting up Mconv3_stage5
I0119 17:42:15.213287 28980 net.cpp:157] Top shape: 1 128 46 46 (270848)
I0119 17:42:15.213296 28980 net.cpp:165] Memory required for data: 476167712
I0119 17:42:15.213310 28980 layer_factory.hpp:77] Creating layer Mrelu3_stage5
I0119 17:42:15.213322 28980 net.cpp:100] Creating Layer Mrelu3_stage5
I0119 17:42:15.213331 28980 net.cpp:434] Mrelu3_stage5 <- Mconv3_stage5
I0119 17:42:15.213342 28980 net.cpp:395] Mrelu3_stage5 -> Mconv3_stage5 (in-place)
I0119 17:42:15.213356 28980 net.cpp:150] Setting up Mrelu3_stage5
I0119 17:42:15.213366 28980 net.cpp:157] Top shape: 1 128 46 46 (270848)
I0119 17:42:15.213374 28980 net.cpp:165] Memory required for data: 477251104
I0119 17:42:15.213383 28980 layer_factory.hpp:77] Creating layer Mconv4_stage5
I0119 17:42:15.213405 28980 net.cpp:100] Creating Layer Mconv4_stage5
I0119 17:42:15.213415 28980 net.cpp:434] Mconv4_stage5 <- Mconv3_stage5
I0119 17:42:15.213428 28980 net.cpp:408] Mconv4_stage5 -> Mconv4_stage5
I0119 17:42:15.214468 28980 net.cpp:150] Setting up Mconv4_stage5
I0119 17:42:15.214489 28980 net.cpp:157] Top shape: 1 128 46 46 (270848)
I0119 17:42:15.214498 28980 net.cpp:165] Memory required for data: 478334496
I0119 17:42:15.214537 28980 layer_factory.hpp:77] Creating layer Mrelu4_stage5
I0119 17:42:15.214551 28980 net.cpp:100] Creating Layer Mrelu4_stage5
I0119 17:42:15.214560 28980 net.cpp:434] Mrelu4_stage5 <- Mconv4_stage5
I0119 17:42:15.214571 28980 net.cpp:395] Mrelu4_stage5 -> Mconv4_stage5 (in-place)
I0119 17:42:15.214583 28980 net.cpp:150] Setting up Mrelu4_stage5
I0119 17:42:15.214594 28980 net.cpp:157] Top shape: 1 128 46 46 (270848)
I0119 17:42:15.214602 28980 net.cpp:165] Memory required for data: 479417888
I0119 17:42:15.214610 28980 layer_factory.hpp:77] Creating layer Mconv5_stage5
I0119 17:42:15.214627 28980 net.cpp:100] Creating Layer Mconv5_stage5
I0119 17:42:15.214637 28980 net.cpp:434] Mconv5_stage5 <- Mconv4_stage5
I0119 17:42:15.214653 28980 net.cpp:408] Mconv5_stage5 -> Mconv5_stage5
I0119 17:42:15.215180 28980 net.cpp:150] Setting up Mconv5_stage5
I0119 17:42:15.215198 28980 net.cpp:157] Top shape: 1 15 46 46 (31740)
I0119 17:42:15.215207 28980 net.cpp:165] Memory required for data: 479544848
I0119 17:42:15.215219 28980 layer_factory.hpp:77] Creating layer conv1_stage6
I0119 17:42:15.215237 28980 net.cpp:100] Creating Layer conv1_stage6
I0119 17:42:15.215257 28980 net.cpp:434] conv1_stage6 <- pool3_stage2_pool3_stage2_0_split_4
I0119 17:42:15.215273 28980 net.cpp:408] conv1_stage6 -> conv1_stage6
I0119 17:42:15.219455 28980 net.cpp:150] Setting up conv1_stage6
I0119 17:42:15.219475 28980 net.cpp:157] Top shape: 1 32 46 46 (67712)
I0119 17:42:15.219483 28980 net.cpp:165] Memory required for data: 479815696
I0119 17:42:15.219497 28980 layer_factory.hpp:77] Creating layer relu1_stage6
I0119 17:42:15.219509 28980 net.cpp:100] Creating Layer relu1_stage6
I0119 17:42:15.219518 28980 net.cpp:434] relu1_stage6 <- conv1_stage6
I0119 17:42:15.219532 28980 net.cpp:395] relu1_stage6 -> conv1_stage6 (in-place)
I0119 17:42:15.219544 28980 net.cpp:150] Setting up relu1_stage6
I0119 17:42:15.219555 28980 net.cpp:157] Top shape: 1 32 46 46 (67712)
I0119 17:42:15.219563 28980 net.cpp:165] Memory required for data: 480086544
I0119 17:42:15.219573 28980 layer_factory.hpp:77] Creating layer concat_stage6
I0119 17:42:15.219586 28980 net.cpp:100] Creating Layer concat_stage6
I0119 17:42:15.219595 28980 net.cpp:434] concat_stage6 <- conv1_stage6
I0119 17:42:15.219604 28980 net.cpp:434] concat_stage6 <- Mconv5_stage5
I0119 17:42:15.219614 28980 net.cpp:434] concat_stage6 <- pool_center_lower_pool_center_lower_0_split_4
I0119 17:42:15.219625 28980 net.cpp:408] concat_stage6 -> concat_stage6
I0119 17:42:15.219677 28980 net.cpp:150] Setting up concat_stage6
I0119 17:42:15.219696 28980 net.cpp:157] Top shape: 1 48 46 46 (101568)
I0119 17:42:15.219704 28980 net.cpp:165] Memory required for data: 480492816
I0119 17:42:15.219712 28980 layer_factory.hpp:77] Creating layer Mconv1_stage6
I0119 17:42:15.219729 28980 net.cpp:100] Creating Layer Mconv1_stage6
I0119 17:42:15.219739 28980 net.cpp:434] Mconv1_stage6 <- concat_stage6
I0119 17:42:15.219751 28980 net.cpp:408] Mconv1_stage6 -> Mconv1_stage6
I0119 17:42:15.248340 28980 net.cpp:150] Setting up Mconv1_stage6
I0119 17:42:15.248363 28980 net.cpp:157] Top shape: 1 128 46 46 (270848)
I0119 17:42:15.248371 28980 net.cpp:165] Memory required for data: 481576208
I0119 17:42:15.248384 28980 layer_factory.hpp:77] Creating layer Mrelu1_stage6
I0119 17:42:15.248399 28980 net.cpp:100] Creating Layer Mrelu1_stage6
I0119 17:42:15.248409 28980 net.cpp:434] Mrelu1_stage6 <- Mconv1_stage6
I0119 17:42:15.248420 28980 net.cpp:395] Mrelu1_stage6 -> Mconv1_stage6 (in-place)
I0119 17:42:15.248432 28980 net.cpp:150] Setting up Mrelu1_stage6
I0119 17:42:15.248443 28980 net.cpp:157] Top shape: 1 128 46 46 (270848)
I0119 17:42:15.248451 28980 net.cpp:165] Memory required for data: 482659600
I0119 17:42:15.248461 28980 layer_factory.hpp:77] Creating layer Mconv2_stage6
I0119 17:42:15.248481 28980 net.cpp:100] Creating Layer Mconv2_stage6
I0119 17:42:15.248491 28980 net.cpp:434] Mconv2_stage6 <- Mconv1_stage6
I0119 17:42:15.248504 28980 net.cpp:408] Mconv2_stage6 -> Mconv2_stage6
I0119 17:42:15.323319 28980 net.cpp:150] Setting up Mconv2_stage6
I0119 17:42:15.323344 28980 net.cpp:157] Top shape: 1 128 46 46 (270848)
I0119 17:42:15.323354 28980 net.cpp:165] Memory required for data: 483742992
I0119 17:42:15.323366 28980 layer_factory.hpp:77] Creating layer Mrelu2_stage6
I0119 17:42:15.323379 28980 net.cpp:100] Creating Layer Mrelu2_stage6
I0119 17:42:15.323390 28980 net.cpp:434] Mrelu2_stage6 <- Mconv2_stage6
I0119 17:42:15.323400 28980 net.cpp:395] Mrelu2_stage6 -> Mconv2_stage6 (in-place)
I0119 17:42:15.323413 28980 net.cpp:150] Setting up Mrelu2_stage6
I0119 17:42:15.323423 28980 net.cpp:157] Top shape: 1 128 46 46 (270848)
I0119 17:42:15.323432 28980 net.cpp:165] Memory required for data: 484826384
I0119 17:42:15.323441 28980 layer_factory.hpp:77] Creating layer Mconv3_stage6
I0119 17:42:15.323460 28980 net.cpp:100] Creating Layer Mconv3_stage6
I0119 17:42:15.323470 28980 net.cpp:434] Mconv3_stage6 <- Mconv2_stage6
I0119 17:42:15.323482 28980 net.cpp:408] Mconv3_stage6 -> Mconv3_stage6
I0119 17:42:15.398342 28980 net.cpp:150] Setting up Mconv3_stage6
I0119 17:42:15.398370 28980 net.cpp:157] Top shape: 1 128 46 46 (270848)
I0119 17:42:15.398380 28980 net.cpp:165] Memory required for data: 485909776
I0119 17:42:15.398404 28980 layer_factory.hpp:77] Creating layer Mrelu3_stage6
I0119 17:42:15.398445 28980 net.cpp:100] Creating Layer Mrelu3_stage6
I0119 17:42:15.398457 28980 net.cpp:434] Mrelu3_stage6 <- Mconv3_stage6
I0119 17:42:15.398471 28980 net.cpp:395] Mrelu3_stage6 -> Mconv3_stage6 (in-place)
I0119 17:42:15.398484 28980 net.cpp:150] Setting up Mrelu3_stage6
I0119 17:42:15.398495 28980 net.cpp:157] Top shape: 1 128 46 46 (270848)
I0119 17:42:15.398504 28980 net.cpp:165] Memory required for data: 486993168
I0119 17:42:15.398512 28980 layer_factory.hpp:77] Creating layer Mconv4_stage6
I0119 17:42:15.398535 28980 net.cpp:100] Creating Layer Mconv4_stage6
I0119 17:42:15.398543 28980 net.cpp:434] Mconv4_stage6 <- Mconv3_stage6
I0119 17:42:15.398556 28980 net.cpp:408] Mconv4_stage6 -> Mconv4_stage6
I0119 17:42:15.399616 28980 net.cpp:150] Setting up Mconv4_stage6
I0119 17:42:15.399634 28980 net.cpp:157] Top shape: 1 128 46 46 (270848)
I0119 17:42:15.399643 28980 net.cpp:165] Memory required for data: 488076560
I0119 17:42:15.399655 28980 layer_factory.hpp:77] Creating layer Mrelu4_stage6
I0119 17:42:15.399667 28980 net.cpp:100] Creating Layer Mrelu4_stage6
I0119 17:42:15.399677 28980 net.cpp:434] Mrelu4_stage6 <- Mconv4_stage6
I0119 17:42:15.399687 28980 net.cpp:395] Mrelu4_stage6 -> Mconv4_stage6 (in-place)
I0119 17:42:15.399699 28980 net.cpp:150] Setting up Mrelu4_stage6
I0119 17:42:15.399709 28980 net.cpp:157] Top shape: 1 128 46 46 (270848)
I0119 17:42:15.399718 28980 net.cpp:165] Memory required for data: 489159952
I0119 17:42:15.399725 28980 layer_factory.hpp:77] Creating layer Mconv5_stage6
I0119 17:42:15.399744 28980 net.cpp:100] Creating Layer Mconv5_stage6
I0119 17:42:15.399752 28980 net.cpp:434] Mconv5_stage6 <- Mconv4_stage6
I0119 17:42:15.399768 28980 net.cpp:408] Mconv5_stage6 -> Mconv5_stage6
I0119 17:42:15.400295 28980 net.cpp:150] Setting up Mconv5_stage6
I0119 17:42:15.400313 28980 net.cpp:157] Top shape: 1 15 46 46 (31740)
I0119 17:42:15.400321 28980 net.cpp:165] Memory required for data: 489286912
I0119 17:42:15.400334 28980 net.cpp:228] Mconv5_stage6 does not need backward computation.
I0119 17:42:15.400343 28980 net.cpp:228] Mrelu4_stage6 does not need backward computation.
I0119 17:42:15.400352 28980 net.cpp:228] Mconv4_stage6 does not need backward computation.
I0119 17:42:15.400359 28980 net.cpp:228] Mrelu3_stage6 does not need backward computation.
…
