…
I0417 21:46:39.503176  1927 upgrade_proto.cpp:67] Attempting to upgrade input file specified using deprecated input fields: /home/lizhuowan/convolutional-pose-machines-release/model/_trained_MPI/pose_deploy_centerMap.prototxt
I0417 21:46:39.503221  1927 upgrade_proto.cpp:70] Successfully upgraded file specified using deprecated input fields.
W0417 21:46:39.503233  1927 upgrade_proto.cpp:72] Note that future Caffe releases will only support input layers and not input fields.
I0417 21:46:39.504192  1927 net.cpp:58] Initializing net from parameters: 
state {
  phase: TEST
  level: 0
}
layer {
  name: "input"
  type: "Input"
  top: "data"
  input_param {
    shape {
      dim: 1
      dim: 4
      dim: 368
      dim: 368
    }
  }
}
layer {
  name: "image"
  type: "Slice"
  bottom: "data"
  top: "image"
  top: "center_map"
  slice_param {
    slice_point: 3
    axis: 1
  }
}
layer {
  name: "pool_center_lower"
  type: "Pooling"
  bottom: "center_map"
  top: "pool_center_lower"
  pooling_param {
    pool: AVE
    kernel_size: 9
    stride: 8
  }
}
layer {
  name: "conv1_stage1"
  type: "Convolution"
  bottom: "image"
  top: "conv1_stage1"
  param {
    lr_mult: 5
    decay_mult: 1
  }
  param {
    lr_mult: 10
    decay_mult: 0
  }
  convolution_param {
    num_output: 128
    pad: 4
    kernel_size: 9
    weight_filler {
      type: "gaussian"
      std: 0.01
    }
    bias_filler {
      type: "constant"
    }
  }
}
layer {
  name: "relu1_stage1"
  type: "ReLU"
  bottom: "conv1_stage1"
  top: "conv1_stage1"
}
layer {
  name: "pool1_stage1"
  type: "Pooling"
  bottom: "conv1_stage1"
  top: "pool1_stage1"
  pooling_param {
    pool: MAX
    kernel_size: 3
    stride: 2
  }
}
layer {
  name: "conv2_stage1"
  type: "Convolution"
  bottom: "pool1_stage1"
  top: "conv2_stage1"
  param {
    lr_mult: 5
    decay_mult: 1
  }
  param {
    lr_mult: 10
    decay_mult: 0
  }
  convolution_param {
    num_output: 128
    pad: 4
    kernel_size: 9
    weight_filler {
      type: "gaussian"
      std: 0.01
    }
    bias_filler {
      type: "constant"
    }
  }
}
layer {
  name: "relu2_stage1"
  type: "ReLU"
  bottom: "conv2_stage1"
  top: "conv2_stage1"
}
layer {
  name: "pool2_stage1"
  type: "Pooling"
  bottom: "conv2_stage1"
  top: "pool2_stage1"
  pooling_param {
    pool: MAX
    kernel_size: 3
    stride: 2
  }
}
layer {
  name: "conv3_stage1"
  type: "Convolution"
  bottom: "pool2_stage1"
  top: "conv3_stage1"
  param {
    lr_mult: 5
    decay_mult: 1
  }
  param {
    lr_mult: 10
    decay_mult: 0
  }
  convolution_param {
    num_output: 128
    pad: 4
    kernel_size: 9
    weight_filler {
      type: "gaussian"
      std: 0.01
    }
    bias_filler {
      type: "constant"
    }
  }
}
layer {
  name: "relu3_stage1"
  type: "ReLU"
  bottom: "conv3_stage1"
  top: "conv3_stage1"
}
layer {
  name: "pool3_stage1"
  type: "Pooling"
  bottom: "conv3_stage1"
  top: "pool3_stage1"
  pooling_param {
    pool: MAX
    kernel_size: 3
    stride: 2
  }
}
layer {
  name: "conv4_stage1"
  type: "Convolution"
  bottom: "pool3_stage1"
  top: "conv4_stage1"
  param {
    lr_mult: 5
    decay_mult: 1
  }
  param {
    lr_mult: 10
    decay_mult: 0
  }
  convolution_param {
    num_output: 32
    pad: 2
    kernel_size: 5
    weight_filler {
      type: "gaussian"
      std: 0.01
    }
    bias_filler {
      type: "constant"
    }
  }
}
layer {
  name: "relu4_stage1"
  type: "ReLU"
  bottom: "conv4_stage1"
  top: "conv4_stage1"
}
layer {
  name: "conv5_stage1"
  type: "Convolution"
  bottom: "conv4_stage1"
  top: "conv5_stage1"
  param {
    lr_mult: 5
    decay_mult: 1
  }
  param {
    lr_mult: 10
    decay_mult: 0
  }
  convolution_param {
    num_output: 512
    pad: 4
    kernel_size: 9
    weight_filler {
      type: "gaussian"
      std: 0.01
    }
    bias_filler {
      type: "constant"
    }
  }
}
layer {
  name: "relu5_stage1"
  type: "ReLU"
  bottom: "conv5_stage1"
  top: "conv5_stage1"
}
layer {
  name: "conv6_stage1"
  type: "Convolution"
  bottom: "conv5_stage1"
  top: "conv6_stage1"
  param {
    lr_mult: 5
    decay_mult: 1
  }
  param {
    lr_mult: 10
    decay_mult: 0
  }
  convolution_param {
    num_output: 512
    pad: 0
    kernel_size: 1
    weight_filler {
      type: "gaussian"
      std: 0.01
    }
    bias_filler {
      type: "constant"
    }
  }
}
layer {
  name: "relu6_stage1"
  type: "ReLU"
  bottom: "conv6_stage1"
  top: "conv6_stage1"
}
layer {
  name: "conv7_stage1"
  type: "Convolution"
  bottom: "conv6_stage1"
  top: "conv7_stage1"
  param {
    lr_mult: 5
    decay_mult: 1
  }
  param {
    lr_mult: 10
    decay_mult: 0
  }
  convolution_param {
    num_output: 15
    pad: 0
    kernel_size: 1
    weight_filler {
      type: "gaussian"
      std: 0.01
    }
    bias_filler {
      type: "constant"
    }
  }
}
layer {
  name: "conv1_stage2"
  type: "Convolution"
  bottom: "image"
  top: "conv1_stage2"
  param {
    lr_mult: 1
    decay_mult: 1
  }
  param {
    lr_mult: 2
    decay_mult: 0
  }
  convolution_param {
    num_output: 128
    pad: 4
    kernel_size: 9
    weight_filler {
      type: "gaussian"
      std: 0.01
    }
    bias_filler {
      type: "constant"
    }
  }
}
layer {
  name: "relu1_stage2"
  type: "ReLU"
  bottom: "conv1_stage2"
  top: "conv1_stage2"
}
layer {
  name: "pool1_stage2"
  type: "Pooling"
  bottom: "conv1_stage2"
  top: "pool1_stage2"
  pooling_param {
    pool: MAX
    kernel_size: 3
    stride: 2
  }
}
layer {
  name: "conv2_stage2"
  type: "Convolution"
  bottom: "pool1_stage2"
  top: "conv2_stage2"
  param {
    lr_mult: 1
    decay_mult: 1
  }
  param {
    lr_mult: 2
    decay_mult: 0
  }
  convolution_param {
    num_output: 128
    pad: 4
    kernel_size: 9
    weight_filler {
      type: "gaussian"
      std: 0.01
    }
    bias_filler {
      type: "constant"
    }
  }
}
layer {
  name: "relu2_stage2"
  type: "ReLU"
  bottom: "conv2_stage2"
  top: "conv2_stage2"
}
layer {
  name: "pool2_stage2"
  type: "Pooling"
  bottom: "conv2_stage2"
  top: "pool2_stage2"
  pooling_param {
    pool: MAX
    kernel_size: 3
    stride: 2
  }
}
layer {
  name: "conv3_stage2"
  type: "Convolution"
  bottom: "pool2_stage2"
  top: "conv3_stage2"
  param {
    lr_mult: 1
    decay_mult: 1
  }
  param {
    lr_mult: 2
    decay_mult: 0
  }
  convolution_param {
    num_output: 128
    pad: 4
    kernel_size: 9
    weight_filler {
      type: "gaussian"
      std: 0.01
    }
    bias_filler {
      type: "constant"
    }
  }
}
layer {
  name: "relu3_stage2"
  type: "ReLU"
  bottom: "conv3_stage2"
  top: "conv3_stage2"
}
layer {
  name: "pool3_stage2"
  type: "Pooling"
  bottom: "conv3_stage2"
  top: "pool3_stage2"
  pooling_param {
    pool: MAX
    kernel_size: 3
    stride: 2
  }
}
layer {
  name: "conv4_stage2"
  type: "Convolution"
  bottom: "pool3_stage2"
  top: "conv4_stage2"
  param {
    lr_mult: 1
    decay_mult: 1
  }
  param {
    lr_mult: 2
    decay_mult: 0
  }
  convolution_param {
    num_output: 32
    pad: 2
    kernel_size: 5
    weight_filler {
      type: "gaussian"
      std: 0.01
    }
    bias_filler {
      type: "constant"
    }
  }
}
layer {
  name: "relu4_stage2"
  type: "ReLU"
  bottom: "conv4_stage2"
  top: "conv4_stage2"
}
layer {
  name: "concat_stage2"
  type: "Concat"
  bottom: "conv4_stage2"
  bottom: "conv7_stage1"
  bottom: "pool_center_lower"
  top: "concat_stage2"
  concat_param {
    axis: 1
  }
}
layer {
  name: "Mconv1_stage2"
  type: "Convolution"
  bottom: "concat_stage2"
  top: "Mconv1_stage2"
  param {
    lr_mult: 1
    decay_mult: 1
  }
  param {
    lr_mult: 2
    decay_mult: 0
  }
  convolution_param {
    num_output: 128
    pad: 5
    kernel_size: 11
    weight_filler {
      type: "gaussian"
      std: 0.01
    }
    bias_filler {
      type: "constant"
    }
  }
}
layer {
  name: "Mrelu1_stage2"
  type: "ReLU"
  bottom: "Mconv1_stage2"
  top: "Mconv1_stage2"
}
layer {
  name: "Mconv2_stage2"
  type: "Convolution"
  bottom: "Mconv1_stage2"
  top: "Mconv2_stage2"
  param {
    lr_mult: 1
    decay_mult: 1
  }
  param {
    lr_mult: 2
    decay_mult: 0
  }
  convolution_param {
    num_output: 128
    pad: 5
    kernel_size: 11
    weight_filler {
      type: "gaussian"
      std: 0.01
    }
    bias_filler {
      type: "constant"
    }
  }
}
layer {
  name: "Mrelu2_stage2"
  type: "ReLU"
  bottom: "Mconv2_stage2"
  top: "Mconv2_stage2"
}
layer {
  name: "Mconv3_stage2"
  type: "Convolution"
  bottom: "Mconv2_stage2"
  top: "Mconv3_stage2"
  param {
    lr_mult: 1
    decay_mult: 1
  }
  param {
    lr_mult: 2
    decay_mult: 0
  }
  convolution_param {
    num_output: 128
    pad: 5
    kernel_size: 11
    weight_filler {
      type: "gaussian"
      std: 0.01
    }
    bias_filler {
      type: "constant"
    }
  }
}
layer {
  name: "Mrelu3_stage2"
  type: "ReLU"
  bottom: "Mconv3_stage2"
  top: "Mconv3_stage2"
}
layer {
  name: "Mconv4_stage2"
  type: "Convolution"
  bottom: "Mconv3_stage2"
  top: "Mconv4_stage2"
  param {
    lr_mult: 1
    decay_mult: 1
  }
  param {
    lr_mult: 2
    decay_mult: 0
  }
  convolution_param {
    num_output: 128
    pad: 0
    kernel_size: 1
    weight_filler {
      type: "gaussian"
      std: 0.01
    }
    bias_filler {
      type: "constant"
    }
  }
}
layer {
  name: "Mrelu4_stage2"
  type: "ReLU"
  bottom: "Mconv4_stage2"
  top: "Mconv4_stage2"
}
layer {
  name: "Mconv5_stage2"
  type: "Convolution"
  bottom: "Mconv4_stage2"
  top: "Mconv5_stage2"
  param {
    lr_mult: 1
    decay_mult: 1
  }
  param {
    lr_mult: 2
    decay_mult: 0
  }
  convolution_param {
    num_output: 15
    pad: 0
    kernel_size: 1
    weight_filler {
      type: "gaussian"
      std: 0.01
    }
    bias_filler {
      type: "constant"
    }
  }
}
layer {
  name: "conv1_stage3"
  type: "Convolution"
  bottom: "pool3_stage2"
  top: "conv1_stage3"
  param {
    lr_mult: 1
    decay_mult: 1
  }
  param {
    lr_mult: 2
    decay_mult: 0
  }
  convolution_param {
    num_output: 32
    pad: 2
    kernel_size: 5
    weight_filler {
      type: "gaussian"
      std: 0.01
    }
    bias_filler {
      type: "constant"
    }
  }
}
layer {
  name: "relu1_stage3"
  type: "ReLU"
  bottom: "conv1_stage3"
  top: "conv1_stage3"
}
layer {
  name: "concat_stage3"
  type: "Concat"
  bottom: "conv1_stage3"
  bottom: "Mconv5_stage2"
  bottom: "pool_center_lower"
  top: "concat_stage3"
  concat_param {
    axis: 1
  }
}
layer {
  name: "Mconv1_stage3"
  type: "Convolution"
  bottom: "concat_stage3"
  top: "Mconv1_stage3"
  param {
    lr_mult: 1
    decay_mult: 1
  }
  param {
    lr_mult: 2
    decay_mult: 0
  }
  convolution_param {
    num_output: 128
    pad: 5
    kernel_size: 11
    weight_filler {
      type: "gaussian"
      std: 0.01
    }
    bias_filler {
      type: "constant"
    }
  }
}
layer {
  name: "Mrelu1_stage3"
  type: "ReLU"
  bottom: "Mconv1_stage3"
  top: "Mconv1_stage3"
}
layer {
  name: "Mconv2_stage3"
  type: "Convolution"
  bottom: "Mconv1_stage3"
  top: "Mconv2_stage3"
  param {
    lr_mult: 1
    decay_mult: 1
  }
  param {
    lr_mult: 2
    decay_mult: 0
  }
  convolution_param {
    num_output: 128
    pad: 5
    kernel_size: 11
    weight_filler {
      type: "gaussian"
      std: 0.01
    }
    bias_filler {
      type: "constant"
    }
  }
}
layer {
  name: "Mrelu2_stage3"
  type: "ReLU"
  bottom: "Mconv2_stage3"
  top: "Mconv2_stage3"
}
layer {
  name: "Mconv3_stage3"
  type: "Convolution"
  bottom: "Mconv2_stage3"
  top: "Mconv3_stage3"
  param {
    lr_mult: 1
    decay_mult: 1
  }
  param {
    lr_mult: 2
    decay_mult: 0
  }
  convolution_param {
    num_output: 128
    pad: 5
    kernel_size: 11
    weight_filler {
      type: "gaussian"
      std: 0.01
    }
    bias_filler {
      type: "constant"
    }
  }
}
layer {
  name: "Mrelu3_stage3"
  type: "ReLU"
  bottom: "Mconv3_stage3"
  top: "Mconv3_stage3"
}
layer {
  name: "Mconv4_stage3"
  type: "Convolution"
  bottom: "Mconv3_stage3"
  top: "Mconv4_stage3"
  param {
    lr_mult: 1
    decay_mult: 1
  }
  param {
    lr_mult: 2
    decay_mult: 0
  }
  convolution_param {
    num_output: 128
    pad: 0
    kernel_size: 1
    weight_filler {
      type: "gaussian"
      std: 0.01
    }
    bias_filler {
      type: "constant"
    }
  }
}
layer {
  name: "Mrelu4_stage3"
  type: "ReLU"
  bottom: "Mconv4_stage3"
  top: "Mconv4_stage3"
}
layer {
  name: "Mconv5_stage3"
  type: "Convolution"
  bottom: "Mconv4_stage3"
  top: "Mconv5_stage3"
  param {
    lr_mult: 1
    decay_mult: 1
  }
  param {
    lr_mult: 2
    decay_mult: 0
  }
  convolution_param {
    num_output: 15
    pad: 0
    kernel_size: 1
    weight_filler {
      type: "gaussian"
      std: 0.01
    }
    bias_filler {
      type: "constant"
    }
  }
}
layer {
  name: "conv1_stage4"
  type: "Convolution"
  bottom: "pool3_stage2"
  top: "conv1_stage4"
  param {
    lr_mult: 1
    decay_mult: 1
  }
  param {
    lr_mult: 2
    decay_mult: 0
  }
  convolution_param {
    num_output: 32
    pad: 2
    kernel_size: 5
    weight_filler {
      type: "gaussian"
      std: 0.01
    }
    bias_filler {
      type: "constant"
    }
  }
}
layer {
  name: "relu1_stage4"
  type: "ReLU"
  bottom: "conv1_stage4"
  top: "conv1_stage4"
}
layer {
  name: "concat_stage4"
  type: "Concat"
  bottom: "conv1_stage4"
  bottom: "Mconv5_stage3"
  bottom: "pool_center_lower"
  top: "concat_stage4"
  concat_param {
    axis: 1
  }
}
layer {
  name: "Mconv1_stage4"
  type: "Convolution"
  bottom: "concat_stage4"
  top: "Mconv1_stage4"
  param {
    lr_mult: 1
    decay_mult: 1
  }
  param {
    lr_mult: 2
    decay_mult: 0
  }
  convolution_param {
    num_output: 128
    pad: 5
    kernel_size: 11
    weight_filler {
      type: "gaussian"
      std: 0.01
    }
    bias_filler {
      type: "constant"
    }
  }
}
layer {
  name: "Mrelu1_stage4"
  type: "ReLU"
  bottom: "Mconv1_stage4"
  top: "Mconv1_stage4"
}
layer {
  name: "Mconv2_stage4"
  type: "Convolution"
  bottom: "Mconv1_stage4"
  top: "Mconv2_stage4"
  param {
    lr_mult: 1
    decay_mult: 1
  }
  param {
    lr_mult: 2
    decay_mult: 0
  }
  convolution_param {
    num_output: 128
    pad: 5
    kernel_size: 11
    weight_filler {
      type: "gaussian"
      std: 0.01
    }
    bias_filler {
      type: "constant"
    }
  }
}
layer {
  name: "Mrelu2_stage4"
  type: "ReLU"
  bottom: "Mconv2_stage4"
  top: "Mconv2_stage4"
}
layer {
  name: "Mconv3_stage4"
  type: "Convolution"
  bottom: "Mconv2_stage4"
  top: "Mconv3_stage4"
  param {
    lr_mult: 1
    decay_mult: 1
  }
  param {
    lr_mult: 2
    decay_mult: 0
  }
  convolution_param {
    num_output: 128
    pad: 5
    kernel_size: 11
    weight_filler {
      type: "gaussian"
      std: 0.01
    }
    bias_filler {
      type: "constant"
    }
  }
}
layer {
  name: "Mrelu3_stage4"
  type: "ReLU"
  bottom: "Mconv3_stage4"
  top: "Mconv3_stage4"
}
layer {
  name: "Mconv4_stage4"
  type: "Convolution"
  bottom: "Mconv3_stage4"
  top: "Mconv4_stage4"
  param {
    lr_mult: 1
    decay_mult: 1
  }
  param {
    lr_mult: 2
    decay_mult: 0
  }
  convolution_param {
    num_output: 128
    pad: 0
    kernel_size: 1
    weight_filler {
      type: "gaussian"
      std: 0.01
    }
    bias_filler {
      type: "constant"
    }
  }
}
layer {
  name: "Mrelu4_stage4"
  type: "ReLU"
  bottom: "Mconv4_stage4"
  top: "Mconv4_stage4"
}
layer {
  name: "Mconv5_stage4"
  type: "Convolution"
  bottom: "Mconv4_stage4"
  top: "Mconv5_stage4"
  param {
    lr_mult: 1
    decay_mult: 1
  }
  param {
    lr_mult: 2
    decay_mult: 0
  }
  convolution_param {
    num_output: 15
    pad: 0
    kernel_size: 1
    weight_filler {
      type: "gaussian"
      std: 0.01
    }
    bias_filler {
      type: "constant"
    }
  }
}
layer {
  name: "conv1_stage5"
  type: "Convolution"
  bottom: "pool3_stage2"
  top: "conv1_stage5"
  param {
    lr_mult: 1
    decay_mult: 1
  }
  param {
    lr_mult: 2
    decay_mult: 0
  }
  convolution_param {
    num_output: 32
    pad: 2
    kernel_size: 5
    weight_filler {
      type: "gaussian"
      std: 0.01
    }
    bias_filler {
      type: "constant"
    }
  }
}
layer {
  name: "relu1_stage5"
  type: "ReLU"
  bottom: "conv1_stage5"
  top: "conv1_stage5"
}
layer {
  name: "concat_stage5"
  type: "Concat"
  bottom: "conv1_stage5"
  bottom: "Mconv5_stage4"
  bottom: "pool_center_lower"
  top: "concat_stage5"
  concat_param {
    axis: 1
  }
}
layer {
  name: "Mconv1_stage5"
  type: "Convolution"
  bottom: "concat_stage5"
  top: "Mconv1_stage5"
  param {
    lr_mult: 1
    decay_mult: 1
  }
  param {
    lr_mult: 2
    decay_mult: 0
  }
  convolution_param {
    num_output: 128
    pad: 5
    kernel_size: 11
    weight_filler {
      type: "gaussian"
      std: 0.01
    }
    bias_filler {
      type: "constant"
    }
  }
}
layer {
  name: "Mrelu1_stage5"
  type: "ReLU"
  bottom: "Mconv1_stage5"
  top: "Mconv1_stage5"
}
layer {
  name: "Mconv2_stage5"
  type: "Convolution"
  bottom: "Mconv1_stage5"
  top: "Mconv2_stage5"
  param {
    lr_mult: 1
    decay_mult: 1
  }
  param {
    lr_mult: 2
    decay_mult: 0
  }
  convolution_param {
    num_output: 128
    pad: 5
    kernel_size: 11
    weight_filler {
      type: "gaussian"
      std: 0.01
    }
    bias_filler {
      type: "constant"
    }
  }
}
layer {
  name: "Mrelu2_stage5"
  type: "ReLU"
  bottom: "Mconv2_stage5"
  top: "Mconv2_stage5"
}
layer {
  name: "Mconv3_stage5"
  type: "Convolution"
  bottom: "Mconv2_stage5"
  top: "Mconv3_stage5"
  param {
    lr_mult: 1
    decay_mult: 1
  }
  param {
    lr_mult: 2
    decay_mult: 0
  }
  convolution_param {
    num_output: 128
    pad: 5
    kernel_size: 11
    weight_filler {
      type: "gaussian"
      std: 0.01
    }
    bias_filler {
      type: "constant"
    }
  }
}
layer {
  name: "Mrelu3_stage5"
  type: "ReLU"
  bottom: "Mconv3_stage5"
  top: "Mconv3_stage5"
}
layer {
  name: "Mconv4_stage5"
  type: "Convolution"
  bottom: "Mconv3_stage5"
  top: "Mconv4_stage5"
  param {
    lr_mult: 1
    decay_mult: 1
  }
  param {
    lr_mult: 2
    decay_mult: 0
  }
  convolution_param {
    num_output: 128
    pad: 0
    kernel_size: 1
    weight_filler {
      type: "gaussian"
      std: 0.01
    }
    bias_filler {
      type: "constant"
    }
  }
}
layer {
  name: "Mrelu4_stage5"
  type: "ReLU"
  bottom: "Mconv4_stage5"
  top: "Mconv4_stage5"
}
layer {
  name: "Mconv5_stage5"
  type: "Convolution"
  bottom: "Mconv4_stage5"
  top: "Mconv5_stage5"
  param {
    lr_mult: 1
    decay_mult: 1
  }
  param {
    lr_mult: 2
    decay_mult: 0
  }
  convolution_param {
    num_output: 15
    pad: 0
    kernel_size: 1
    weight_filler {
      type: "gaussian"
      std: 0.01
    }
    bias_filler {
      type: "constant"
    }
  }
}
layer {
  name: "conv1_stage6"
  type: "Convolution"
  bottom: "pool3_stage2"
  top: "conv1_stage6"
  param {
    lr_mult: 1
    decay_mult: 1
  }
  param {
    lr_mult: 2
    decay_mult: 0
  }
  convolution_param {
    num_output: 32
    pad: 2
    kernel_size: 5
    weight_filler {
      type: "gaussian"
      std: 0.01
    }
    bias_filler {
      type: "constant"
    }
  }
}
layer {
  name: "relu1_stage6"
  type: "ReLU"
  bottom: "conv1_stage6"
  top: "conv1_stage6"
}
layer {
  name: "concat_stage6"
  type: "Concat"
  bottom: "conv1_stage6"
  bottom: "Mconv5_stage5"
  bottom: "pool_center_lower"
  top: "concat_stage6"
  concat_param {
    axis: 1
  }
}
layer {
  name: "Mconv1_stage6"
  type: "Convolution"
  bottom: "concat_stage6"
  top: "Mconv1_stage6"
  param {
    lr_mult: 1
    decay_mult: 1
  }
  param {
    lr_mult: 2
    decay_mult: 0
  }
  convolution_param {
    num_output: 128
    pad: 5
    kernel_size: 11
    weight_filler {
      type: "gaussian"
      std: 0.01
    }
    bias_filler {
      type: "constant"
    }
  }
}
layer {
  name: "Mrelu1_stage6"
  type: "ReLU"
  bottom: "Mconv1_stage6"
  top: "Mconv1_stage6"
}
layer {
  name: "Mconv2_stage6"
  type: "Convolution"
  bottom: "Mconv1_stage6"
  top: "Mconv2_stage6"
  param {
    lr_mult: 1
    decay_mult: 1
  }
  param {
    lr_mult: 2
    decay_mult: 0
  }
  convolution_param {
    num_output: 128
    pad: 5
    kernel_size: 11
    weight_filler {
      type: "gaussian"
      std: 0.01
    }
    bias_filler {
      type: "constant"
    }
  }
}
layer {
  name: "Mrelu2_stage6"
  type: "ReLU"
  bottom: "Mconv2_stage6"
  top: "Mconv2_stage6"
}
layer {
  name: "Mconv3_stage6"
  type: "Convolution"
  bottom: "Mconv2_stage6"
  top: "Mconv3_stage6"
  param {
    lr_mult: 1
    decay_mult: 1
  }
  param {
    lr_mult: 2
    decay_mult: 0
  }
  convolution_param {
    num_output: 128
    pad: 5
    kernel_size: 11
    weight_filler {
      type: "gaussian"
      std: 0.01
    }
    bias_filler {
      type: "constant"
    }
  }
}
layer {
  name: "Mrelu3_stage6"
  type: "ReLU"
  bottom: "Mconv3_stage6"
  top: "Mconv3_stage6"
}
layer {
  name: "Mconv4_stage6"
  type: "Convolution"
  bottom: "Mconv3_stage6"
  top: "Mconv4_stage6"
  param {
    lr_mult: 1
    decay_mult: 1
  }
  param {
    lr_mult: 2
    decay_mult: 0
  }
  convolution_param {
    num_output: 128
    pad: 0
    kernel_size: 1
    weight_filler {
      type: "gaussian"
      std: 0.01
    }
    bias_filler {
      type: "constant"
    }
  }
}
layer {
  name: "Mrelu4_stage6"
  type: "ReLU"
  bottom: "Mconv4_stage6"
  top: "Mconv4_stage6"
}
layer {
  name: "Mconv5_stage6"
  type: "Convolution"
  bottom: "Mconv4_stage6"
  top: "Mconv5_stage6"
  param {
    lr_mult: 1
    decay_mult: 1
  }
  param {
    lr_mult: 2
    decay_mult: 0
  }
  convolution_param {
    num_output: 15
    pad: 0
    kernel_size: 1
    weight_filler {
      type: "gaussian"
      std: 0.01
    }
    bias_filler {
      type: "constant"
    }
  }
}
I0417 21:46:39.504675  1927 layer_factory.hpp:77] Creating layer input
I0417 21:46:39.504710  1927 net.cpp:100] Creating Layer input
I0417 21:46:39.504727  1927 net.cpp:408] input -> data
I0417 21:46:39.518191  1927 net.cpp:150] Setting up input
I0417 21:46:39.518275  1927 net.cpp:157] Top shape: 1 4 368 368 (541696)
I0417 21:46:39.518286  1927 net.cpp:165] Memory required for data: 2166784
I0417 21:46:39.518303  1927 layer_factory.hpp:77] Creating layer image
I0417 21:46:39.518342  1927 net.cpp:100] Creating Layer image
I0417 21:46:39.518353  1927 net.cpp:434] image <- data
I0417 21:46:39.518370  1927 net.cpp:408] image -> image
I0417 21:46:39.518394  1927 net.cpp:408] image -> center_map
I0417 21:46:39.518457  1927 net.cpp:150] Setting up image
I0417 21:46:39.518478  1927 net.cpp:157] Top shape: 1 3 368 368 (406272)
I0417 21:46:39.518491  1927 net.cpp:157] Top shape: 1 1 368 368 (135424)
I0417 21:46:39.518499  1927 net.cpp:165] Memory required for data: 4333568
I0417 21:46:39.518509  1927 layer_factory.hpp:77] Creating layer image_image_0_split
I0417 21:46:39.518527  1927 net.cpp:100] Creating Layer image_image_0_split
I0417 21:46:39.518537  1927 net.cpp:434] image_image_0_split <- image
I0417 21:46:39.518548  1927 net.cpp:408] image_image_0_split -> image_image_0_split_0
I0417 21:46:39.518561  1927 net.cpp:408] image_image_0_split -> image_image_0_split_1
I0417 21:46:39.518612  1927 net.cpp:150] Setting up image_image_0_split
I0417 21:46:39.518628  1927 net.cpp:157] Top shape: 1 3 368 368 (406272)
I0417 21:46:39.518640  1927 net.cpp:157] Top shape: 1 3 368 368 (406272)
I0417 21:46:39.518649  1927 net.cpp:165] Memory required for data: 7583744
I0417 21:46:39.518659  1927 layer_factory.hpp:77] Creating layer pool_center_lower
I0417 21:46:39.518679  1927 net.cpp:100] Creating Layer pool_center_lower
I0417 21:46:39.518689  1927 net.cpp:434] pool_center_lower <- center_map
I0417 21:46:39.518702  1927 net.cpp:408] pool_center_lower -> pool_center_lower
I0417 21:46:39.518745  1927 net.cpp:150] Setting up pool_center_lower
I0417 21:46:39.518761  1927 net.cpp:157] Top shape: 1 1 46 46 (2116)
I0417 21:46:39.518771  1927 net.cpp:165] Memory required for data: 7592208
I0417 21:46:39.518780  1927 layer_factory.hpp:77] Creating layer pool_center_lower_pool_center_lower_0_split
I0417 21:46:39.518795  1927 net.cpp:100] Creating Layer pool_center_lower_pool_center_lower_0_split
I0417 21:46:39.518821  1927 net.cpp:434] pool_center_lower_pool_center_lower_0_split <- pool_center_lower
I0417 21:46:39.518837  1927 net.cpp:408] pool_center_lower_pool_center_lower_0_split -> pool_center_lower_pool_center_lower_0_split_0
I0417 21:46:39.518852  1927 net.cpp:408] pool_center_lower_pool_center_lower_0_split -> pool_center_lower_pool_center_lower_0_split_1
I0417 21:46:39.518865  1927 net.cpp:408] pool_center_lower_pool_center_lower_0_split -> pool_center_lower_pool_center_lower_0_split_2
I0417 21:46:39.518879  1927 net.cpp:408] pool_center_lower_pool_center_lower_0_split -> pool_center_lower_pool_center_lower_0_split_3
I0417 21:46:39.518895  1927 net.cpp:408] pool_center_lower_pool_center_lower_0_split -> pool_center_lower_pool_center_lower_0_split_4
I0417 21:46:39.518980  1927 net.cpp:150] Setting up pool_center_lower_pool_center_lower_0_split
I0417 21:46:39.518996  1927 net.cpp:157] Top shape: 1 1 46 46 (2116)
I0417 21:46:39.519007  1927 net.cpp:157] Top shape: 1 1 46 46 (2116)
I0417 21:46:39.519018  1927 net.cpp:157] Top shape: 1 1 46 46 (2116)
I0417 21:46:39.519029  1927 net.cpp:157] Top shape: 1 1 46 46 (2116)
I0417 21:46:39.519039  1927 net.cpp:157] Top shape: 1 1 46 46 (2116)
I0417 21:46:39.519049  1927 net.cpp:165] Memory required for data: 7634528
I0417 21:46:39.519058  1927 layer_factory.hpp:77] Creating layer conv1_stage1
I0417 21:46:39.519088  1927 net.cpp:100] Creating Layer conv1_stage1
I0417 21:46:39.519098  1927 net.cpp:434] conv1_stage1 <- image_image_0_split_0
I0417 21:46:39.519111  1927 net.cpp:408] conv1_stage1 -> conv1_stage1
I0417 21:46:39.522529  1927 net.cpp:150] Setting up conv1_stage1
I0417 21:46:39.522562  1927 net.cpp:157] Top shape: 1 128 368 368 (17334272)
I0417 21:46:39.522572  1927 net.cpp:165] Memory required for data: 76971616
I0417 21:46:39.522599  1927 layer_factory.hpp:77] Creating layer relu1_stage1
I0417 21:46:39.522619  1927 net.cpp:100] Creating Layer relu1_stage1
I0417 21:46:39.522629  1927 net.cpp:434] relu1_stage1 <- conv1_stage1
I0417 21:46:39.522641  1927 net.cpp:395] relu1_stage1 -> conv1_stage1 (in-place)
I0417 21:46:39.522660  1927 net.cpp:150] Setting up relu1_stage1
I0417 21:46:39.522671  1927 net.cpp:157] Top shape: 1 128 368 368 (17334272)
I0417 21:46:39.522680  1927 net.cpp:165] Memory required for data: 146308704
I0417 21:46:39.522689  1927 layer_factory.hpp:77] Creating layer pool1_stage1
I0417 21:46:39.522701  1927 net.cpp:100] Creating Layer pool1_stage1
I0417 21:46:39.522711  1927 net.cpp:434] pool1_stage1 <- conv1_stage1
I0417 21:46:39.522725  1927 net.cpp:408] pool1_stage1 -> pool1_stage1
I0417 21:46:39.522781  1927 net.cpp:150] Setting up pool1_stage1
I0417 21:46:39.522799  1927 net.cpp:157] Top shape: 1 128 184 184 (4333568)
I0417 21:46:39.522807  1927 net.cpp:165] Memory required for data: 163642976
I0417 21:46:39.522817  1927 layer_factory.hpp:77] Creating layer conv2_stage1
I0417 21:46:39.522841  1927 net.cpp:100] Creating Layer conv2_stage1
I0417 21:46:39.522852  1927 net.cpp:434] conv2_stage1 <- pool1_stage1
I0417 21:46:39.522866  1927 net.cpp:408] conv2_stage1 -> conv2_stage1
I0417 21:46:39.577406  1927 net.cpp:150] Setting up conv2_stage1
I0417 21:46:39.577486  1927 net.cpp:157] Top shape: 1 128 184 184 (4333568)
I0417 21:46:39.577497  1927 net.cpp:165] Memory required for data: 180977248
I0417 21:46:39.577525  1927 layer_factory.hpp:77] Creating layer relu2_stage1
I0417 21:46:39.577548  1927 net.cpp:100] Creating Layer relu2_stage1
I0417 21:46:39.577558  1927 net.cpp:434] relu2_stage1 <- conv2_stage1
I0417 21:46:39.577571  1927 net.cpp:395] relu2_stage1 -> conv2_stage1 (in-place)
I0417 21:46:39.577590  1927 net.cpp:150] Setting up relu2_stage1
I0417 21:46:39.577602  1927 net.cpp:157] Top shape: 1 128 184 184 (4333568)
I0417 21:46:39.577611  1927 net.cpp:165] Memory required for data: 198311520
I0417 21:46:39.577620  1927 layer_factory.hpp:77] Creating layer pool2_stage1
I0417 21:46:39.577638  1927 net.cpp:100] Creating Layer pool2_stage1
I0417 21:46:39.577648  1927 net.cpp:434] pool2_stage1 <- conv2_stage1
I0417 21:46:39.577679  1927 net.cpp:408] pool2_stage1 -> pool2_stage1
I0417 21:46:39.577739  1927 net.cpp:150] Setting up pool2_stage1
I0417 21:46:39.577755  1927 net.cpp:157] Top shape: 1 128 92 92 (1083392)
I0417 21:46:39.577764  1927 net.cpp:165] Memory required for data: 202645088
I0417 21:46:39.577774  1927 layer_factory.hpp:77] Creating layer conv3_stage1
I0417 21:46:39.577800  1927 net.cpp:100] Creating Layer conv3_stage1
I0417 21:46:39.577811  1927 net.cpp:434] conv3_stage1 <- pool2_stage1
I0417 21:46:39.577824  1927 net.cpp:408] conv3_stage1 -> conv3_stage1
I0417 21:46:39.632942  1927 net.cpp:150] Setting up conv3_stage1
I0417 21:46:39.632973  1927 net.cpp:157] Top shape: 1 128 92 92 (1083392)
I0417 21:46:39.632983  1927 net.cpp:165] Memory required for data: 206978656
I0417 21:46:39.633002  1927 layer_factory.hpp:77] Creating layer relu3_stage1
I0417 21:46:39.633019  1927 net.cpp:100] Creating Layer relu3_stage1
I0417 21:46:39.633030  1927 net.cpp:434] relu3_stage1 <- conv3_stage1
I0417 21:46:39.633043  1927 net.cpp:395] relu3_stage1 -> conv3_stage1 (in-place)
I0417 21:46:39.633057  1927 net.cpp:150] Setting up relu3_stage1
I0417 21:46:39.633069  1927 net.cpp:157] Top shape: 1 128 92 92 (1083392)
I0417 21:46:39.633077  1927 net.cpp:165] Memory required for data: 211312224
I0417 21:46:39.633087  1927 layer_factory.hpp:77] Creating layer pool3_stage1
I0417 21:46:39.633100  1927 net.cpp:100] Creating Layer pool3_stage1
I0417 21:46:39.633108  1927 net.cpp:434] pool3_stage1 <- conv3_stage1
I0417 21:46:39.633122  1927 net.cpp:408] pool3_stage1 -> pool3_stage1
I0417 21:46:39.633178  1927 net.cpp:150] Setting up pool3_stage1
I0417 21:46:39.633196  1927 net.cpp:157] Top shape: 1 128 46 46 (270848)
I0417 21:46:39.633206  1927 net.cpp:165] Memory required for data: 212395616
I0417 21:46:39.633215  1927 layer_factory.hpp:77] Creating layer conv4_stage1
I0417 21:46:39.633237  1927 net.cpp:100] Creating Layer conv4_stage1
I0417 21:46:39.633249  1927 net.cpp:434] conv4_stage1 <- pool3_stage1
I0417 21:46:39.633262  1927 net.cpp:408] conv4_stage1 -> conv4_stage1
I0417 21:46:39.638193  1927 net.cpp:150] Setting up conv4_stage1
I0417 21:46:39.638216  1927 net.cpp:157] Top shape: 1 32 46 46 (67712)
I0417 21:46:39.638226  1927 net.cpp:165] Memory required for data: 212666464
I0417 21:46:39.638242  1927 layer_factory.hpp:77] Creating layer relu4_stage1
I0417 21:46:39.638254  1927 net.cpp:100] Creating Layer relu4_stage1
I0417 21:46:39.638264  1927 net.cpp:434] relu4_stage1 <- conv4_stage1
I0417 21:46:39.638276  1927 net.cpp:395] relu4_stage1 -> conv4_stage1 (in-place)
I0417 21:46:39.638290  1927 net.cpp:150] Setting up relu4_stage1
I0417 21:46:39.638303  1927 net.cpp:157] Top shape: 1 32 46 46 (67712)
I0417 21:46:39.638311  1927 net.cpp:165] Memory required for data: 212937312
I0417 21:46:39.638320  1927 layer_factory.hpp:77] Creating layer conv5_stage1
I0417 21:46:39.638345  1927 net.cpp:100] Creating Layer conv5_stage1
I0417 21:46:39.638356  1927 net.cpp:434] conv5_stage1 <- conv4_stage1
I0417 21:46:39.638370  1927 net.cpp:408] conv5_stage1 -> conv5_stage1
I0417 21:46:39.693214  1927 net.cpp:150] Setting up conv5_stage1
I0417 21:46:39.693244  1927 net.cpp:157] Top shape: 1 512 46 46 (1083392)
I0417 21:46:39.693254  1927 net.cpp:165] Memory required for data: 217270880
I0417 21:46:39.693276  1927 layer_factory.hpp:77] Creating layer relu5_stage1
I0417 21:46:39.693290  1927 net.cpp:100] Creating Layer relu5_stage1
I0417 21:46:39.693300  1927 net.cpp:434] relu5_stage1 <- conv5_stage1
I0417 21:46:39.693312  1927 net.cpp:395] relu5_stage1 -> conv5_stage1 (in-place)
I0417 21:46:39.693326  1927 net.cpp:150] Setting up relu5_stage1
I0417 21:46:39.693346  1927 net.cpp:157] Top shape: 1 512 46 46 (1083392)
I0417 21:46:39.693356  1927 net.cpp:165] Memory required for data: 221604448
I0417 21:46:39.693366  1927 layer_factory.hpp:77] Creating layer conv6_stage1
I0417 21:46:39.693384  1927 net.cpp:100] Creating Layer conv6_stage1
I0417 21:46:39.693395  1927 net.cpp:434] conv6_stage1 <- conv5_stage1
I0417 21:46:39.693421  1927 net.cpp:408] conv6_stage1 -> conv6_stage1
I0417 21:46:39.704485  1927 net.cpp:150] Setting up conv6_stage1
I0417 21:46:39.704509  1927 net.cpp:157] Top shape: 1 512 46 46 (1083392)
I0417 21:46:39.704519  1927 net.cpp:165] Memory required for data: 225938016
I0417 21:46:39.704533  1927 layer_factory.hpp:77] Creating layer relu6_stage1
I0417 21:46:39.704546  1927 net.cpp:100] Creating Layer relu6_stage1
I0417 21:46:39.704556  1927 net.cpp:434] relu6_stage1 <- conv6_stage1
I0417 21:46:39.704571  1927 net.cpp:395] relu6_stage1 -> conv6_stage1 (in-place)
I0417 21:46:39.704586  1927 net.cpp:150] Setting up relu6_stage1
I0417 21:46:39.704598  1927 net.cpp:157] Top shape: 1 512 46 46 (1083392)
I0417 21:46:39.704607  1927 net.cpp:165] Memory required for data: 230271584
I0417 21:46:39.704617  1927 layer_factory.hpp:77] Creating layer conv7_stage1
I0417 21:46:39.704632  1927 net.cpp:100] Creating Layer conv7_stage1
I0417 21:46:39.704643  1927 net.cpp:434] conv7_stage1 <- conv6_stage1
I0417 21:46:39.704658  1927 net.cpp:408] conv7_stage1 -> conv7_stage1
I0417 21:46:39.705225  1927 net.cpp:150] Setting up conv7_stage1
I0417 21:46:39.705245  1927 net.cpp:157] Top shape: 1 15 46 46 (31740)
I0417 21:46:39.705255  1927 net.cpp:165] Memory required for data: 230398544
I0417 21:46:39.705268  1927 layer_factory.hpp:77] Creating layer conv1_stage2
I0417 21:46:39.705287  1927 net.cpp:100] Creating Layer conv1_stage2
I0417 21:46:39.705298  1927 net.cpp:434] conv1_stage2 <- image_image_0_split_1
I0417 21:46:39.705314  1927 net.cpp:408] conv1_stage2 -> conv1_stage2
I0417 21:46:39.707532  1927 net.cpp:150] Setting up conv1_stage2
I0417 21:46:39.707557  1927 net.cpp:157] Top shape: 1 128 368 368 (17334272)
I0417 21:46:39.707567  1927 net.cpp:165] Memory required for data: 299735632
I0417 21:46:39.707581  1927 layer_factory.hpp:77] Creating layer relu1_stage2
I0417 21:46:39.707598  1927 net.cpp:100] Creating Layer relu1_stage2
I0417 21:46:39.707609  1927 net.cpp:434] relu1_stage2 <- conv1_stage2
I0417 21:46:39.707622  1927 net.cpp:395] relu1_stage2 -> conv1_stage2 (in-place)
I0417 21:46:39.707634  1927 net.cpp:150] Setting up relu1_stage2
I0417 21:46:39.707646  1927 net.cpp:157] Top shape: 1 128 368 368 (17334272)
I0417 21:46:39.707655  1927 net.cpp:165] Memory required for data: 369072720
I0417 21:46:39.707664  1927 layer_factory.hpp:77] Creating layer pool1_stage2
I0417 21:46:39.707677  1927 net.cpp:100] Creating Layer pool1_stage2
I0417 21:46:39.707687  1927 net.cpp:434] pool1_stage2 <- conv1_stage2
I0417 21:46:39.707701  1927 net.cpp:408] pool1_stage2 -> pool1_stage2
I0417 21:46:39.707756  1927 net.cpp:150] Setting up pool1_stage2
I0417 21:46:39.707772  1927 net.cpp:157] Top shape: 1 128 184 184 (4333568)
I0417 21:46:39.707782  1927 net.cpp:165] Memory required for data: 386406992
I0417 21:46:39.707792  1927 layer_factory.hpp:77] Creating layer conv2_stage2
I0417 21:46:39.707813  1927 net.cpp:100] Creating Layer conv2_stage2
I0417 21:46:39.707823  1927 net.cpp:434] conv2_stage2 <- pool1_stage2
I0417 21:46:39.707837  1927 net.cpp:408] conv2_stage2 -> conv2_stage2
I0417 21:46:39.762320  1927 net.cpp:150] Setting up conv2_stage2
I0417 21:46:39.762480  1927 net.cpp:157] Top shape: 1 128 184 184 (4333568)
I0417 21:46:39.762491  1927 net.cpp:165] Memory required for data: 403741264
I0417 21:46:39.762526  1927 layer_factory.hpp:77] Creating layer relu2_stage2
I0417 21:46:39.762552  1927 net.cpp:100] Creating Layer relu2_stage2
I0417 21:46:39.762563  1927 net.cpp:434] relu2_stage2 <- conv2_stage2
I0417 21:46:39.762578  1927 net.cpp:395] relu2_stage2 -> conv2_stage2 (in-place)
I0417 21:46:39.762598  1927 net.cpp:150] Setting up relu2_stage2
I0417 21:46:39.762610  1927 net.cpp:157] Top shape: 1 128 184 184 (4333568)
I0417 21:46:39.762619  1927 net.cpp:165] Memory required for data: 421075536
I0417 21:46:39.762629  1927 layer_factory.hpp:77] Creating layer pool2_stage2
I0417 21:46:39.762645  1927 net.cpp:100] Creating Layer pool2_stage2
I0417 21:46:39.762655  1927 net.cpp:434] pool2_stage2 <- conv2_stage2
I0417 21:46:39.762667  1927 net.cpp:408] pool2_stage2 -> pool2_stage2
I0417 21:46:39.762751  1927 net.cpp:150] Setting up pool2_stage2
I0417 21:46:39.762769  1927 net.cpp:157] Top shape: 1 128 92 92 (1083392)
I0417 21:46:39.762778  1927 net.cpp:165] Memory required for data: 425409104
I0417 21:46:39.762789  1927 layer_factory.hpp:77] Creating layer conv3_stage2
I0417 21:46:39.762814  1927 net.cpp:100] Creating Layer conv3_stage2
I0417 21:46:39.762826  1927 net.cpp:434] conv3_stage2 <- pool2_stage2
I0417 21:46:39.762842  1927 net.cpp:408] conv3_stage2 -> conv3_stage2
I0417 21:46:39.817917  1927 net.cpp:150] Setting up conv3_stage2
I0417 21:46:39.818006  1927 net.cpp:157] Top shape: 1 128 92 92 (1083392)
I0417 21:46:39.818017  1927 net.cpp:165] Memory required for data: 429742672
I0417 21:46:39.818038  1927 layer_factory.hpp:77] Creating layer relu3_stage2
I0417 21:46:39.818060  1927 net.cpp:100] Creating Layer relu3_stage2
I0417 21:46:39.818073  1927 net.cpp:434] relu3_stage2 <- conv3_stage2
I0417 21:46:39.818091  1927 net.cpp:395] relu3_stage2 -> conv3_stage2 (in-place)
I0417 21:46:39.818112  1927 net.cpp:150] Setting up relu3_stage2
I0417 21:46:39.818125  1927 net.cpp:157] Top shape: 1 128 92 92 (1083392)
I0417 21:46:39.818133  1927 net.cpp:165] Memory required for data: 434076240
I0417 21:46:39.818142  1927 layer_factory.hpp:77] Creating layer pool3_stage2
I0417 21:46:39.818156  1927 net.cpp:100] Creating Layer pool3_stage2
I0417 21:46:39.818166  1927 net.cpp:434] pool3_stage2 <- conv3_stage2
I0417 21:46:39.818182  1927 net.cpp:408] pool3_stage2 -> pool3_stage2
I0417 21:46:39.818246  1927 net.cpp:150] Setting up pool3_stage2
I0417 21:46:39.818264  1927 net.cpp:157] Top shape: 1 128 46 46 (270848)
I0417 21:46:39.818274  1927 net.cpp:165] Memory required for data: 435159632
I0417 21:46:39.818282  1927 layer_factory.hpp:77] Creating layer pool3_stage2_pool3_stage2_0_split
I0417 21:46:39.818300  1927 net.cpp:100] Creating Layer pool3_stage2_pool3_stage2_0_split
I0417 21:46:39.818310  1927 net.cpp:434] pool3_stage2_pool3_stage2_0_split <- pool3_stage2
I0417 21:46:39.818322  1927 net.cpp:408] pool3_stage2_pool3_stage2_0_split -> pool3_stage2_pool3_stage2_0_split_0
I0417 21:46:39.818336  1927 net.cpp:408] pool3_stage2_pool3_stage2_0_split -> pool3_stage2_pool3_stage2_0_split_1
I0417 21:46:39.818351  1927 net.cpp:408] pool3_stage2_pool3_stage2_0_split -> pool3_stage2_pool3_stage2_0_split_2
I0417 21:46:39.818363  1927 net.cpp:408] pool3_stage2_pool3_stage2_0_split -> pool3_stage2_pool3_stage2_0_split_3
I0417 21:46:39.818375  1927 net.cpp:408] pool3_stage2_pool3_stage2_0_split -> pool3_stage2_pool3_stage2_0_split_4
I0417 21:46:39.818464  1927 net.cpp:150] Setting up pool3_stage2_pool3_stage2_0_split
I0417 21:46:39.818482  1927 net.cpp:157] Top shape: 1 128 46 46 (270848)
I0417 21:46:39.818493  1927 net.cpp:157] Top shape: 1 128 46 46 (270848)
I0417 21:46:39.818503  1927 net.cpp:157] Top shape: 1 128 46 46 (270848)
I0417 21:46:39.818513  1927 net.cpp:157] Top shape: 1 128 46 46 (270848)
I0417 21:46:39.818524  1927 net.cpp:157] Top shape: 1 128 46 46 (270848)
I0417 21:46:39.818533  1927 net.cpp:165] Memory required for data: 440576592
I0417 21:46:39.818542  1927 layer_factory.hpp:77] Creating layer conv4_stage2
I0417 21:46:39.818567  1927 net.cpp:100] Creating Layer conv4_stage2
I0417 21:46:39.818578  1927 net.cpp:434] conv4_stage2 <- pool3_stage2_pool3_stage2_0_split_0
I0417 21:46:39.818594  1927 net.cpp:408] conv4_stage2 -> conv4_stage2
I0417 21:46:39.822881  1927 net.cpp:150] Setting up conv4_stage2
I0417 21:46:39.822904  1927 net.cpp:157] Top shape: 1 32 46 46 (67712)
I0417 21:46:39.822914  1927 net.cpp:165] Memory required for data: 440847440
I0417 21:46:39.822927  1927 layer_factory.hpp:77] Creating layer relu4_stage2
I0417 21:46:39.822948  1927 net.cpp:100] Creating Layer relu4_stage2
I0417 21:46:39.822959  1927 net.cpp:434] relu4_stage2 <- conv4_stage2
I0417 21:46:39.822971  1927 net.cpp:395] relu4_stage2 -> conv4_stage2 (in-place)
I0417 21:46:39.822985  1927 net.cpp:150] Setting up relu4_stage2
I0417 21:46:39.822996  1927 net.cpp:157] Top shape: 1 32 46 46 (67712)
I0417 21:46:39.823026  1927 net.cpp:165] Memory required for data: 441118288
I0417 21:46:39.823036  1927 layer_factory.hpp:77] Creating layer concat_stage2
I0417 21:46:39.823060  1927 net.cpp:100] Creating Layer concat_stage2
I0417 21:46:39.823070  1927 net.cpp:434] concat_stage2 <- conv4_stage2
I0417 21:46:39.823079  1927 net.cpp:434] concat_stage2 <- conv7_stage1
I0417 21:46:39.823091  1927 net.cpp:434] concat_stage2 <- pool_center_lower_pool_center_lower_0_split_0
I0417 21:46:39.823107  1927 net.cpp:408] concat_stage2 -> concat_stage2
I0417 21:46:39.823149  1927 net.cpp:150] Setting up concat_stage2
I0417 21:46:39.823166  1927 net.cpp:157] Top shape: 1 48 46 46 (101568)
I0417 21:46:39.823176  1927 net.cpp:165] Memory required for data: 441524560
I0417 21:46:39.823185  1927 layer_factory.hpp:77] Creating layer Mconv1_stage2
I0417 21:46:39.823206  1927 net.cpp:100] Creating Layer Mconv1_stage2
I0417 21:46:39.823218  1927 net.cpp:434] Mconv1_stage2 <- concat_stage2
I0417 21:46:39.823231  1927 net.cpp:408] Mconv1_stage2 -> Mconv1_stage2
I0417 21:46:39.854012  1927 net.cpp:150] Setting up Mconv1_stage2
I0417 21:46:39.854079  1927 net.cpp:157] Top shape: 1 128 46 46 (270848)
I0417 21:46:39.854089  1927 net.cpp:165] Memory required for data: 442607952
I0417 21:46:39.854107  1927 layer_factory.hpp:77] Creating layer Mrelu1_stage2
I0417 21:46:39.854125  1927 net.cpp:100] Creating Layer Mrelu1_stage2
I0417 21:46:39.854136  1927 net.cpp:434] Mrelu1_stage2 <- Mconv1_stage2
I0417 21:46:39.854151  1927 net.cpp:395] Mrelu1_stage2 -> Mconv1_stage2 (in-place)
I0417 21:46:39.854167  1927 net.cpp:150] Setting up Mrelu1_stage2
I0417 21:46:39.854178  1927 net.cpp:157] Top shape: 1 128 46 46 (270848)
I0417 21:46:39.854187  1927 net.cpp:165] Memory required for data: 443691344
I0417 21:46:39.854197  1927 layer_factory.hpp:77] Creating layer Mconv2_stage2
I0417 21:46:39.854220  1927 net.cpp:100] Creating Layer Mconv2_stage2
I0417 21:46:39.854231  1927 net.cpp:434] Mconv2_stage2 <- Mconv1_stage2
I0417 21:46:39.854249  1927 net.cpp:408] Mconv2_stage2 -> Mconv2_stage2
I0417 21:46:39.935950  1927 net.cpp:150] Setting up Mconv2_stage2
I0417 21:46:39.936056  1927 net.cpp:157] Top shape: 1 128 46 46 (270848)
I0417 21:46:39.936069  1927 net.cpp:165] Memory required for data: 444774736
I0417 21:46:39.936089  1927 layer_factory.hpp:77] Creating layer Mrelu2_stage2
I0417 21:46:39.936112  1927 net.cpp:100] Creating Layer Mrelu2_stage2
I0417 21:46:39.936125  1927 net.cpp:434] Mrelu2_stage2 <- Mconv2_stage2
I0417 21:46:39.936141  1927 net.cpp:395] Mrelu2_stage2 -> Mconv2_stage2 (in-place)
I0417 21:46:39.936159  1927 net.cpp:150] Setting up Mrelu2_stage2
I0417 21:46:39.936172  1927 net.cpp:157] Top shape: 1 128 46 46 (270848)
I0417 21:46:39.936180  1927 net.cpp:165] Memory required for data: 445858128
I0417 21:46:39.936190  1927 layer_factory.hpp:77] Creating layer Mconv3_stage2
I0417 21:46:39.936228  1927 net.cpp:100] Creating Layer Mconv3_stage2
I0417 21:46:39.936239  1927 net.cpp:434] Mconv3_stage2 <- Mconv2_stage2
I0417 21:46:39.936255  1927 net.cpp:408] Mconv3_stage2 -> Mconv3_stage2
I0417 21:46:40.017473  1927 net.cpp:150] Setting up Mconv3_stage2
I0417 21:46:40.017571  1927 net.cpp:157] Top shape: 1 128 46 46 (270848)
I0417 21:46:40.017582  1927 net.cpp:165] Memory required for data: 446941520
I0417 21:46:40.017604  1927 layer_factory.hpp:77] Creating layer Mrelu3_stage2
I0417 21:46:40.017627  1927 net.cpp:100] Creating Layer Mrelu3_stage2
I0417 21:46:40.017638  1927 net.cpp:434] Mrelu3_stage2 <- Mconv3_stage2
I0417 21:46:40.017652  1927 net.cpp:395] Mrelu3_stage2 -> Mconv3_stage2 (in-place)
I0417 21:46:40.017673  1927 net.cpp:150] Setting up Mrelu3_stage2
I0417 21:46:40.017684  1927 net.cpp:157] Top shape: 1 128 46 46 (270848)
I0417 21:46:40.017693  1927 net.cpp:165] Memory required for data: 448024912
I0417 21:46:40.017702  1927 layer_factory.hpp:77] Creating layer Mconv4_stage2
I0417 21:46:40.017725  1927 net.cpp:100] Creating Layer Mconv4_stage2
I0417 21:46:40.017736  1927 net.cpp:434] Mconv4_stage2 <- Mconv3_stage2
I0417 21:46:40.017774  1927 net.cpp:408] Mconv4_stage2 -> Mconv4_stage2
I0417 21:46:40.018699  1927 net.cpp:150] Setting up Mconv4_stage2
I0417 21:46:40.018719  1927 net.cpp:157] Top shape: 1 128 46 46 (270848)
I0417 21:46:40.018729  1927 net.cpp:165] Memory required for data: 449108304
I0417 21:46:40.018743  1927 layer_factory.hpp:77] Creating layer Mrelu4_stage2
I0417 21:46:40.018759  1927 net.cpp:100] Creating Layer Mrelu4_stage2
I0417 21:46:40.018769  1927 net.cpp:434] Mrelu4_stage2 <- Mconv4_stage2
I0417 21:46:40.018780  1927 net.cpp:395] Mrelu4_stage2 -> Mconv4_stage2 (in-place)
I0417 21:46:40.018793  1927 net.cpp:150] Setting up Mrelu4_stage2
I0417 21:46:40.018805  1927 net.cpp:157] Top shape: 1 128 46 46 (270848)
I0417 21:46:40.018813  1927 net.cpp:165] Memory required for data: 450191696
I0417 21:46:40.018823  1927 layer_factory.hpp:77] Creating layer Mconv5_stage2
I0417 21:46:40.018842  1927 net.cpp:100] Creating Layer Mconv5_stage2
I0417 21:46:40.018852  1927 net.cpp:434] Mconv5_stage2 <- Mconv4_stage2
I0417 21:46:40.018867  1927 net.cpp:408] Mconv5_stage2 -> Mconv5_stage2
I0417 21:46:40.019207  1927 net.cpp:150] Setting up Mconv5_stage2
I0417 21:46:40.019227  1927 net.cpp:157] Top shape: 1 15 46 46 (31740)
I0417 21:46:40.019235  1927 net.cpp:165] Memory required for data: 450318656
I0417 21:46:40.019249  1927 layer_factory.hpp:77] Creating layer conv1_stage3
I0417 21:46:40.019265  1927 net.cpp:100] Creating Layer conv1_stage3
I0417 21:46:40.019276  1927 net.cpp:434] conv1_stage3 <- pool3_stage2_pool3_stage2_0_split_1
I0417 21:46:40.019294  1927 net.cpp:408] conv1_stage3 -> conv1_stage3
I0417 21:46:40.024365  1927 net.cpp:150] Setting up conv1_stage3
I0417 21:46:40.024389  1927 net.cpp:157] Top shape: 1 32 46 46 (67712)
I0417 21:46:40.024399  1927 net.cpp:165] Memory required for data: 450589504
I0417 21:46:40.024425  1927 layer_factory.hpp:77] Creating layer relu1_stage3
I0417 21:46:40.024441  1927 net.cpp:100] Creating Layer relu1_stage3
I0417 21:46:40.024451  1927 net.cpp:434] relu1_stage3 <- conv1_stage3
I0417 21:46:40.024466  1927 net.cpp:395] relu1_stage3 -> conv1_stage3 (in-place)
I0417 21:46:40.024480  1927 net.cpp:150] Setting up relu1_stage3
I0417 21:46:40.024492  1927 net.cpp:157] Top shape: 1 32 46 46 (67712)
I0417 21:46:40.024502  1927 net.cpp:165] Memory required for data: 450860352
I0417 21:46:40.024510  1927 layer_factory.hpp:77] Creating layer concat_stage3
I0417 21:46:40.024525  1927 net.cpp:100] Creating Layer concat_stage3
I0417 21:46:40.024535  1927 net.cpp:434] concat_stage3 <- conv1_stage3
I0417 21:46:40.024545  1927 net.cpp:434] concat_stage3 <- Mconv5_stage2
I0417 21:46:40.024556  1927 net.cpp:434] concat_stage3 <- pool_center_lower_pool_center_lower_0_split_1
I0417 21:46:40.024569  1927 net.cpp:408] concat_stage3 -> concat_stage3
I0417 21:46:40.024612  1927 net.cpp:150] Setting up concat_stage3
I0417 21:46:40.024629  1927 net.cpp:157] Top shape: 1 48 46 46 (101568)
I0417 21:46:40.024638  1927 net.cpp:165] Memory required for data: 451266624
I0417 21:46:40.024648  1927 layer_factory.hpp:77] Creating layer Mconv1_stage3
I0417 21:46:40.024667  1927 net.cpp:100] Creating Layer Mconv1_stage3
I0417 21:46:40.024678  1927 net.cpp:434] Mconv1_stage3 <- concat_stage3
I0417 21:46:40.024694  1927 net.cpp:408] Mconv1_stage3 -> Mconv1_stage3
I0417 21:46:40.055398  1927 net.cpp:150] Setting up Mconv1_stage3
I0417 21:46:40.055433  1927 net.cpp:157] Top shape: 1 128 46 46 (270848)
I0417 21:46:40.055444  1927 net.cpp:165] Memory required for data: 452350016
I0417 21:46:40.055459  1927 layer_factory.hpp:77] Creating layer Mrelu1_stage3
I0417 21:46:40.055474  1927 net.cpp:100] Creating Layer Mrelu1_stage3
I0417 21:46:40.055483  1927 net.cpp:434] Mrelu1_stage3 <- Mconv1_stage3
I0417 21:46:40.055495  1927 net.cpp:395] Mrelu1_stage3 -> Mconv1_stage3 (in-place)
I0417 21:46:40.055510  1927 net.cpp:150] Setting up Mrelu1_stage3
I0417 21:46:40.055521  1927 net.cpp:157] Top shape: 1 128 46 46 (270848)
I0417 21:46:40.055531  1927 net.cpp:165] Memory required for data: 453433408
I0417 21:46:40.055539  1927 layer_factory.hpp:77] Creating layer Mconv2_stage3
I0417 21:46:40.055568  1927 net.cpp:100] Creating Layer Mconv2_stage3
I0417 21:46:40.055580  1927 net.cpp:434] Mconv2_stage3 <- Mconv1_stage3
I0417 21:46:40.055598  1927 net.cpp:408] Mconv2_stage3 -> Mconv2_stage3
I0417 21:46:40.136837  1927 net.cpp:150] Setting up Mconv2_stage3
I0417 21:46:40.136934  1927 net.cpp:157] Top shape: 1 128 46 46 (270848)
I0417 21:46:40.136945  1927 net.cpp:165] Memory required for data: 454516800
I0417 21:46:40.136966  1927 layer_factory.hpp:77] Creating layer Mrelu2_stage3
I0417 21:46:40.136993  1927 net.cpp:100] Creating Layer Mrelu2_stage3
I0417 21:46:40.137006  1927 net.cpp:434] Mrelu2_stage3 <- Mconv2_stage3
I0417 21:46:40.137022  1927 net.cpp:395] Mrelu2_stage3 -> Mconv2_stage3 (in-place)
I0417 21:46:40.137042  1927 net.cpp:150] Setting up Mrelu2_stage3
I0417 21:46:40.137054  1927 net.cpp:157] Top shape: 1 128 46 46 (270848)
I0417 21:46:40.137063  1927 net.cpp:165] Memory required for data: 455600192
I0417 21:46:40.137073  1927 layer_factory.hpp:77] Creating layer Mconv3_stage3
I0417 21:46:40.137097  1927 net.cpp:100] Creating Layer Mconv3_stage3
I0417 21:46:40.137107  1927 net.cpp:434] Mconv3_stage3 <- Mconv2_stage3
I0417 21:46:40.137123  1927 net.cpp:408] Mconv3_stage3 -> Mconv3_stage3
I0417 21:46:40.218312  1927 net.cpp:150] Setting up Mconv3_stage3
I0417 21:46:40.218417  1927 net.cpp:157] Top shape: 1 128 46 46 (270848)
I0417 21:46:40.218428  1927 net.cpp:165] Memory required for data: 456683584
I0417 21:46:40.218451  1927 layer_factory.hpp:77] Creating layer Mrelu3_stage3
I0417 21:46:40.218475  1927 net.cpp:100] Creating Layer Mrelu3_stage3
I0417 21:46:40.218488  1927 net.cpp:434] Mrelu3_stage3 <- Mconv3_stage3
I0417 21:46:40.218508  1927 net.cpp:395] Mrelu3_stage3 -> Mconv3_stage3 (in-place)
I0417 21:46:40.218528  1927 net.cpp:150] Setting up Mrelu3_stage3
I0417 21:46:40.218540  1927 net.cpp:157] Top shape: 1 128 46 46 (270848)
I0417 21:46:40.218549  1927 net.cpp:165] Memory required for data: 457766976
I0417 21:46:40.218559  1927 layer_factory.hpp:77] Creating layer Mconv4_stage3
I0417 21:46:40.218588  1927 net.cpp:100] Creating Layer Mconv4_stage3
I0417 21:46:40.218600  1927 net.cpp:434] Mconv4_stage3 <- Mconv3_stage3
I0417 21:46:40.218613  1927 net.cpp:408] Mconv4_stage3 -> Mconv4_stage3
I0417 21:46:40.219593  1927 net.cpp:150] Setting up Mconv4_stage3
I0417 21:46:40.219614  1927 net.cpp:157] Top shape: 1 128 46 46 (270848)
I0417 21:46:40.219624  1927 net.cpp:165] Memory required for data: 458850368
I0417 21:46:40.219638  1927 layer_factory.hpp:77] Creating layer Mrelu4_stage3
I0417 21:46:40.219652  1927 net.cpp:100] Creating Layer Mrelu4_stage3
I0417 21:46:40.219662  1927 net.cpp:434] Mrelu4_stage3 <- Mconv4_stage3
I0417 21:46:40.219674  1927 net.cpp:395] Mrelu4_stage3 -> Mconv4_stage3 (in-place)
I0417 21:46:40.219687  1927 net.cpp:150] Setting up Mrelu4_stage3
I0417 21:46:40.219700  1927 net.cpp:157] Top shape: 1 128 46 46 (270848)
I0417 21:46:40.219710  1927 net.cpp:165] Memory required for data: 459933760
I0417 21:46:40.219722  1927 layer_factory.hpp:77] Creating layer Mconv5_stage3
I0417 21:46:40.219748  1927 net.cpp:100] Creating Layer Mconv5_stage3
I0417 21:46:40.219759  1927 net.cpp:434] Mconv5_stage3 <- Mconv4_stage3
I0417 21:46:40.219772  1927 net.cpp:408] Mconv5_stage3 -> Mconv5_stage3
I0417 21:46:40.220135  1927 net.cpp:150] Setting up Mconv5_stage3
I0417 21:46:40.220155  1927 net.cpp:157] Top shape: 1 15 46 46 (31740)
I0417 21:46:40.220166  1927 net.cpp:165] Memory required for data: 460060720
I0417 21:46:40.220180  1927 layer_factory.hpp:77] Creating layer conv1_stage4
I0417 21:46:40.220206  1927 net.cpp:100] Creating Layer conv1_stage4
I0417 21:46:40.220219  1927 net.cpp:434] conv1_stage4 <- pool3_stage2_pool3_stage2_0_split_2
I0417 21:46:40.220237  1927 net.cpp:408] conv1_stage4 -> conv1_stage4
I0417 21:46:40.224658  1927 net.cpp:150] Setting up conv1_stage4
I0417 21:46:40.224695  1927 net.cpp:157] Top shape: 1 32 46 46 (67712)
I0417 21:46:40.224707  1927 net.cpp:165] Memory required for data: 460331568
I0417 21:46:40.224721  1927 layer_factory.hpp:77] Creating layer relu1_stage4
I0417 21:46:40.224812  1927 net.cpp:100] Creating Layer relu1_stage4
I0417 21:46:40.224824  1927 net.cpp:434] relu1_stage4 <- conv1_stage4
I0417 21:46:40.224838  1927 net.cpp:395] relu1_stage4 -> conv1_stage4 (in-place)
I0417 21:46:40.224853  1927 net.cpp:150] Setting up relu1_stage4
I0417 21:46:40.224866  1927 net.cpp:157] Top shape: 1 32 46 46 (67712)
I0417 21:46:40.224876  1927 net.cpp:165] Memory required for data: 460602416
I0417 21:46:40.224885  1927 layer_factory.hpp:77] Creating layer concat_stage4
I0417 21:46:40.224902  1927 net.cpp:100] Creating Layer concat_stage4
I0417 21:46:40.224912  1927 net.cpp:434] concat_stage4 <- conv1_stage4
I0417 21:46:40.224922  1927 net.cpp:434] concat_stage4 <- Mconv5_stage3
I0417 21:46:40.224933  1927 net.cpp:434] concat_stage4 <- pool_center_lower_pool_center_lower_0_split_2
I0417 21:46:40.224949  1927 net.cpp:408] concat_stage4 -> concat_stage4
I0417 21:46:40.224994  1927 net.cpp:150] Setting up concat_stage4
I0417 21:46:40.225015  1927 net.cpp:157] Top shape: 1 48 46 46 (101568)
I0417 21:46:40.225025  1927 net.cpp:165] Memory required for data: 461008688
I0417 21:46:40.225034  1927 layer_factory.hpp:77] Creating layer Mconv1_stage4
I0417 21:46:40.225050  1927 net.cpp:100] Creating Layer Mconv1_stage4
I0417 21:46:40.225060  1927 net.cpp:434] Mconv1_stage4 <- concat_stage4
I0417 21:46:40.225077  1927 net.cpp:408] Mconv1_stage4 -> Mconv1_stage4
I0417 21:46:40.256561  1927 net.cpp:150] Setting up Mconv1_stage4
I0417 21:46:40.256655  1927 net.cpp:157] Top shape: 1 128 46 46 (270848)
I0417 21:46:40.256666  1927 net.cpp:165] Memory required for data: 462092080
I0417 21:46:40.256688  1927 layer_factory.hpp:77] Creating layer Mrelu1_stage4
I0417 21:46:40.256712  1927 net.cpp:100] Creating Layer Mrelu1_stage4
I0417 21:46:40.256724  1927 net.cpp:434] Mrelu1_stage4 <- Mconv1_stage4
I0417 21:46:40.256744  1927 net.cpp:395] Mrelu1_stage4 -> Mconv1_stage4 (in-place)
I0417 21:46:40.256765  1927 net.cpp:150] Setting up Mrelu1_stage4
I0417 21:46:40.256778  1927 net.cpp:157] Top shape: 1 128 46 46 (270848)
I0417 21:46:40.256786  1927 net.cpp:165] Memory required for data: 463175472
I0417 21:46:40.256796  1927 layer_factory.hpp:77] Creating layer Mconv2_stage4
I0417 21:46:40.256817  1927 net.cpp:100] Creating Layer Mconv2_stage4
I0417 21:46:40.256827  1927 net.cpp:434] Mconv2_stage4 <- Mconv1_stage4
I0417 21:46:40.256845  1927 net.cpp:408] Mconv2_stage4 -> Mconv2_stage4
I0417 21:46:40.338248  1927 net.cpp:150] Setting up Mconv2_stage4
I0417 21:46:40.338342  1927 net.cpp:157] Top shape: 1 128 46 46 (270848)
I0417 21:46:40.338353  1927 net.cpp:165] Memory required for data: 464258864
I0417 21:46:40.338380  1927 layer_factory.hpp:77] Creating layer Mrelu2_stage4
I0417 21:46:40.338409  1927 net.cpp:100] Creating Layer Mrelu2_stage4
I0417 21:46:40.338424  1927 net.cpp:434] Mrelu2_stage4 <- Mconv2_stage4
I0417 21:46:40.338443  1927 net.cpp:395] Mrelu2_stage4 -> Mconv2_stage4 (in-place)
I0417 21:46:40.338471  1927 net.cpp:150] Setting up Mrelu2_stage4
I0417 21:46:40.338484  1927 net.cpp:157] Top shape: 1 128 46 46 (270848)
I0417 21:46:40.338492  1927 net.cpp:165] Memory required for data: 465342256
I0417 21:46:40.338505  1927 layer_factory.hpp:77] Creating layer Mconv3_stage4
I0417 21:46:40.338539  1927 net.cpp:100] Creating Layer Mconv3_stage4
I0417 21:46:40.338551  1927 net.cpp:434] Mconv3_stage4 <- Mconv2_stage4
I0417 21:46:40.338570  1927 net.cpp:408] Mconv3_stage4 -> Mconv3_stage4
I0417 21:46:40.421167  1927 net.cpp:150] Setting up Mconv3_stage4
I0417 21:46:40.421258  1927 net.cpp:157] Top shape: 1 128 46 46 (270848)
I0417 21:46:40.421270  1927 net.cpp:165] Memory required for data: 466425648
I0417 21:46:40.421293  1927 layer_factory.hpp:77] Creating layer Mrelu3_stage4
I0417 21:46:40.421319  1927 net.cpp:100] Creating Layer Mrelu3_stage4
I0417 21:46:40.421339  1927 net.cpp:434] Mrelu3_stage4 <- Mconv3_stage4
I0417 21:46:40.421356  1927 net.cpp:395] Mrelu3_stage4 -> Mconv3_stage4 (in-place)
I0417 21:46:40.421376  1927 net.cpp:150] Setting up Mrelu3_stage4
I0417 21:46:40.421407  1927 net.cpp:157] Top shape: 1 128 46 46 (270848)
I0417 21:46:40.421417  1927 net.cpp:165] Memory required for data: 467509040
I0417 21:46:40.421427  1927 layer_factory.hpp:77] Creating layer Mconv4_stage4
I0417 21:46:40.421463  1927 net.cpp:100] Creating Layer Mconv4_stage4
I0417 21:46:40.421475  1927 net.cpp:434] Mconv4_stage4 <- Mconv3_stage4
I0417 21:46:40.421492  1927 net.cpp:408] Mconv4_stage4 -> Mconv4_stage4
I0417 21:46:40.422423  1927 net.cpp:150] Setting up Mconv4_stage4
I0417 21:46:40.422444  1927 net.cpp:157] Top shape: 1 128 46 46 (270848)
I0417 21:46:40.422453  1927 net.cpp:165] Memory required for data: 468592432
I0417 21:46:40.422467  1927 layer_factory.hpp:77] Creating layer Mrelu4_stage4
I0417 21:46:40.422480  1927 net.cpp:100] Creating Layer Mrelu4_stage4
I0417 21:46:40.422490  1927 net.cpp:434] Mrelu4_stage4 <- Mconv4_stage4
I0417 21:46:40.422504  1927 net.cpp:395] Mrelu4_stage4 -> Mconv4_stage4 (in-place)
I0417 21:46:40.422518  1927 net.cpp:150] Setting up Mrelu4_stage4
I0417 21:46:40.422529  1927 net.cpp:157] Top shape: 1 128 46 46 (270848)
I0417 21:46:40.422538  1927 net.cpp:165] Memory required for data: 469675824
I0417 21:46:40.422547  1927 layer_factory.hpp:77] Creating layer Mconv5_stage4
I0417 21:46:40.422566  1927 net.cpp:100] Creating Layer Mconv5_stage4
I0417 21:46:40.422576  1927 net.cpp:434] Mconv5_stage4 <- Mconv4_stage4
I0417 21:46:40.422588  1927 net.cpp:408] Mconv5_stage4 -> Mconv5_stage4
I0417 21:46:40.422943  1927 net.cpp:150] Setting up Mconv5_stage4
I0417 21:46:40.422962  1927 net.cpp:157] Top shape: 1 15 46 46 (31740)
I0417 21:46:40.422971  1927 net.cpp:165] Memory required for data: 469802784
I0417 21:46:40.422986  1927 layer_factory.hpp:77] Creating layer conv1_stage5
I0417 21:46:40.423004  1927 net.cpp:100] Creating Layer conv1_stage5
I0417 21:46:40.423017  1927 net.cpp:434] conv1_stage5 <- pool3_stage2_pool3_stage2_0_split_3
I0417 21:46:40.423033  1927 net.cpp:408] conv1_stage5 -> conv1_stage5
I0417 21:46:40.428124  1927 net.cpp:150] Setting up conv1_stage5
I0417 21:46:40.428148  1927 net.cpp:157] Top shape: 1 32 46 46 (67712)
I0417 21:46:40.428158  1927 net.cpp:165] Memory required for data: 470073632
I0417 21:46:40.428172  1927 layer_factory.hpp:77] Creating layer relu1_stage5
I0417 21:46:40.428189  1927 net.cpp:100] Creating Layer relu1_stage5
I0417 21:46:40.428200  1927 net.cpp:434] relu1_stage5 <- conv1_stage5
I0417 21:46:40.428211  1927 net.cpp:395] relu1_stage5 -> conv1_stage5 (in-place)
I0417 21:46:40.428225  1927 net.cpp:150] Setting up relu1_stage5
I0417 21:46:40.428236  1927 net.cpp:157] Top shape: 1 32 46 46 (67712)
I0417 21:46:40.428246  1927 net.cpp:165] Memory required for data: 470344480
I0417 21:46:40.428256  1927 layer_factory.hpp:77] Creating layer concat_stage5
I0417 21:46:40.428272  1927 net.cpp:100] Creating Layer concat_stage5
I0417 21:46:40.428282  1927 net.cpp:434] concat_stage5 <- conv1_stage5
I0417 21:46:40.428293  1927 net.cpp:434] concat_stage5 <- Mconv5_stage4
I0417 21:46:40.428304  1927 net.cpp:434] concat_stage5 <- pool_center_lower_pool_center_lower_0_split_3
I0417 21:46:40.428316  1927 net.cpp:408] concat_stage5 -> concat_stage5
I0417 21:46:40.428360  1927 net.cpp:150] Setting up concat_stage5
I0417 21:46:40.428377  1927 net.cpp:157] Top shape: 1 48 46 46 (101568)
I0417 21:46:40.428386  1927 net.cpp:165] Memory required for data: 470750752
I0417 21:46:40.428396  1927 layer_factory.hpp:77] Creating layer Mconv1_stage5
I0417 21:46:40.428416  1927 net.cpp:100] Creating Layer Mconv1_stage5
I0417 21:46:40.428426  1927 net.cpp:434] Mconv1_stage5 <- concat_stage5
I0417 21:46:40.428439  1927 net.cpp:408] Mconv1_stage5 -> Mconv1_stage5
I0417 21:46:40.458973  1927 net.cpp:150] Setting up Mconv1_stage5
I0417 21:46:40.458997  1927 net.cpp:157] Top shape: 1 128 46 46 (270848)
I0417 21:46:40.459008  1927 net.cpp:165] Memory required for data: 471834144
I0417 21:46:40.459022  1927 layer_factory.hpp:77] Creating layer Mrelu1_stage5
I0417 21:46:40.459035  1927 net.cpp:100] Creating Layer Mrelu1_stage5
I0417 21:46:40.459045  1927 net.cpp:434] Mrelu1_stage5 <- Mconv1_stage5
I0417 21:46:40.459069  1927 net.cpp:395] Mrelu1_stage5 -> Mconv1_stage5 (in-place)
I0417 21:46:40.459084  1927 net.cpp:150] Setting up Mrelu1_stage5
I0417 21:46:40.459096  1927 net.cpp:157] Top shape: 1 128 46 46 (270848)
I0417 21:46:40.459105  1927 net.cpp:165] Memory required for data: 472917536
I0417 21:46:40.459115  1927 layer_factory.hpp:77] Creating layer Mconv2_stage5
I0417 21:46:40.459133  1927 net.cpp:100] Creating Layer Mconv2_stage5
I0417 21:46:40.459144  1927 net.cpp:434] Mconv2_stage5 <- Mconv1_stage5
I0417 21:46:40.459157  1927 net.cpp:408] Mconv2_stage5 -> Mconv2_stage5
I0417 21:46:40.540328  1927 net.cpp:150] Setting up Mconv2_stage5
I0417 21:46:40.540428  1927 net.cpp:157] Top shape: 1 128 46 46 (270848)
I0417 21:46:40.540439  1927 net.cpp:165] Memory required for data: 474000928
I0417 21:46:40.540462  1927 layer_factory.hpp:77] Creating layer Mrelu2_stage5
I0417 21:46:40.540484  1927 net.cpp:100] Creating Layer Mrelu2_stage5
I0417 21:46:40.540496  1927 net.cpp:434] Mrelu2_stage5 <- Mconv2_stage5
I0417 21:46:40.540513  1927 net.cpp:395] Mrelu2_stage5 -> Mconv2_stage5 (in-place)
I0417 21:46:40.540532  1927 net.cpp:150] Setting up Mrelu2_stage5
I0417 21:46:40.540544  1927 net.cpp:157] Top shape: 1 128 46 46 (270848)
I0417 21:46:40.540554  1927 net.cpp:165] Memory required for data: 475084320
I0417 21:46:40.540562  1927 layer_factory.hpp:77] Creating layer Mconv3_stage5
I0417 21:46:40.540588  1927 net.cpp:100] Creating Layer Mconv3_stage5
I0417 21:46:40.540599  1927 net.cpp:434] Mconv3_stage5 <- Mconv2_stage5
I0417 21:46:40.540613  1927 net.cpp:408] Mconv3_stage5 -> Mconv3_stage5
I0417 21:46:40.621824  1927 net.cpp:150] Setting up Mconv3_stage5
I0417 21:46:40.621912  1927 net.cpp:157] Top shape: 1 128 46 46 (270848)
I0417 21:46:40.621922  1927 net.cpp:165] Memory required for data: 476167712
I0417 21:46:40.621944  1927 layer_factory.hpp:77] Creating layer Mrelu3_stage5
I0417 21:46:40.621966  1927 net.cpp:100] Creating Layer Mrelu3_stage5
I0417 21:46:40.621978  1927 net.cpp:434] Mrelu3_stage5 <- Mconv3_stage5
I0417 21:46:40.621994  1927 net.cpp:395] Mrelu3_stage5 -> Mconv3_stage5 (in-place)
I0417 21:46:40.622014  1927 net.cpp:150] Setting up Mrelu3_stage5
I0417 21:46:40.622025  1927 net.cpp:157] Top shape: 1 128 46 46 (270848)
I0417 21:46:40.622035  1927 net.cpp:165] Memory required for data: 477251104
I0417 21:46:40.622043  1927 layer_factory.hpp:77] Creating layer Mconv4_stage5
I0417 21:46:40.622066  1927 net.cpp:100] Creating Layer Mconv4_stage5
I0417 21:46:40.622077  1927 net.cpp:434] Mconv4_stage5 <- Mconv3_stage5
I0417 21:46:40.622093  1927 net.cpp:408] Mconv4_stage5 -> Mconv4_stage5
I0417 21:46:40.623040  1927 net.cpp:150] Setting up Mconv4_stage5
I0417 21:46:40.623060  1927 net.cpp:157] Top shape: 1 128 46 46 (270848)
I0417 21:46:40.623070  1927 net.cpp:165] Memory required for data: 478334496
I0417 21:46:40.623105  1927 layer_factory.hpp:77] Creating layer Mrelu4_stage5
I0417 21:46:40.623122  1927 net.cpp:100] Creating Layer Mrelu4_stage5
I0417 21:46:40.623133  1927 net.cpp:434] Mrelu4_stage5 <- Mconv4_stage5
I0417 21:46:40.623145  1927 net.cpp:395] Mrelu4_stage5 -> Mconv4_stage5 (in-place)
I0417 21:46:40.623158  1927 net.cpp:150] Setting up Mrelu4_stage5
I0417 21:46:40.623169  1927 net.cpp:157] Top shape: 1 128 46 46 (270848)
I0417 21:46:40.623178  1927 net.cpp:165] Memory required for data: 479417888
I0417 21:46:40.623188  1927 layer_factory.hpp:77] Creating layer Mconv5_stage5
I0417 21:46:40.623208  1927 net.cpp:100] Creating Layer Mconv5_stage5
I0417 21:46:40.623217  1927 net.cpp:434] Mconv5_stage5 <- Mconv4_stage5
I0417 21:46:40.623230  1927 net.cpp:408] Mconv5_stage5 -> Mconv5_stage5
I0417 21:46:40.623589  1927 net.cpp:150] Setting up Mconv5_stage5
I0417 21:46:40.623610  1927 net.cpp:157] Top shape: 1 15 46 46 (31740)
I0417 21:46:40.623620  1927 net.cpp:165] Memory required for data: 479544848
I0417 21:46:40.623634  1927 layer_factory.hpp:77] Creating layer conv1_stage6
I0417 21:46:40.623649  1927 net.cpp:100] Creating Layer conv1_stage6
I0417 21:46:40.623687  1927 net.cpp:434] conv1_stage6 <- pool3_stage2_pool3_stage2_0_split_4
I0417 21:46:40.623704  1927 net.cpp:408] conv1_stage6 -> conv1_stage6
I0417 21:46:40.628002  1927 net.cpp:150] Setting up conv1_stage6
I0417 21:46:40.628024  1927 net.cpp:157] Top shape: 1 32 46 46 (67712)
I0417 21:46:40.628034  1927 net.cpp:165] Memory required for data: 479815696
I0417 21:46:40.628047  1927 layer_factory.hpp:77] Creating layer relu1_stage6
I0417 21:46:40.628060  1927 net.cpp:100] Creating Layer relu1_stage6
I0417 21:46:40.628070  1927 net.cpp:434] relu1_stage6 <- conv1_stage6
I0417 21:46:40.628082  1927 net.cpp:395] relu1_stage6 -> conv1_stage6 (in-place)
I0417 21:46:40.628095  1927 net.cpp:150] Setting up relu1_stage6
I0417 21:46:40.628106  1927 net.cpp:157] Top shape: 1 32 46 46 (67712)
I0417 21:46:40.628116  1927 net.cpp:165] Memory required for data: 480086544
I0417 21:46:40.628124  1927 layer_factory.hpp:77] Creating layer concat_stage6
I0417 21:46:40.628142  1927 net.cpp:100] Creating Layer concat_stage6
I0417 21:46:40.628152  1927 net.cpp:434] concat_stage6 <- conv1_stage6
I0417 21:46:40.628163  1927 net.cpp:434] concat_stage6 <- Mconv5_stage5
I0417 21:46:40.628175  1927 net.cpp:434] concat_stage6 <- pool_center_lower_pool_center_lower_0_split_4
I0417 21:46:40.628186  1927 net.cpp:408] concat_stage6 -> concat_stage6
I0417 21:46:40.628229  1927 net.cpp:150] Setting up concat_stage6
I0417 21:46:40.628247  1927 net.cpp:157] Top shape: 1 48 46 46 (101568)
I0417 21:46:40.628255  1927 net.cpp:165] Memory required for data: 480492816
I0417 21:46:40.628265  1927 layer_factory.hpp:77] Creating layer Mconv1_stage6
I0417 21:46:40.628284  1927 net.cpp:100] Creating Layer Mconv1_stage6
I0417 21:46:40.628295  1927 net.cpp:434] Mconv1_stage6 <- concat_stage6
I0417 21:46:40.628311  1927 net.cpp:408] Mconv1_stage6 -> Mconv1_stage6
I0417 21:46:40.660409  1927 net.cpp:150] Setting up Mconv1_stage6
I0417 21:46:40.660497  1927 net.cpp:157] Top shape: 1 128 46 46 (270848)
I0417 21:46:40.660508  1927 net.cpp:165] Memory required for data: 481576208
I0417 21:46:40.660548  1927 layer_factory.hpp:77] Creating layer Mrelu1_stage6
I0417 21:46:40.660631  1927 net.cpp:100] Creating Layer Mrelu1_stage6
I0417 21:46:40.660653  1927 net.cpp:434] Mrelu1_stage6 <- Mconv1_stage6
I0417 21:46:40.660668  1927 net.cpp:395] Mrelu1_stage6 -> Mconv1_stage6 (in-place)
I0417 21:46:40.660686  1927 net.cpp:150] Setting up Mrelu1_stage6
I0417 21:46:40.660698  1927 net.cpp:157] Top shape: 1 128 46 46 (270848)
I0417 21:46:40.660707  1927 net.cpp:165] Memory required for data: 482659600
I0417 21:46:40.660717  1927 layer_factory.hpp:77] Creating layer Mconv2_stage6
I0417 21:46:40.660764  1927 net.cpp:100] Creating Layer Mconv2_stage6
I0417 21:46:40.660778  1927 net.cpp:434] Mconv2_stage6 <- Mconv1_stage6
I0417 21:46:40.660794  1927 net.cpp:408] Mconv2_stage6 -> Mconv2_stage6
I0417 21:46:40.744623  1927 net.cpp:150] Setting up Mconv2_stage6
I0417 21:46:40.744778  1927 net.cpp:157] Top shape: 1 128 46 46 (270848)
I0417 21:46:40.744796  1927 net.cpp:165] Memory required for data: 483742992
I0417 21:46:40.744844  1927 layer_factory.hpp:77] Creating layer Mrelu2_stage6
I0417 21:46:40.744884  1927 net.cpp:100] Creating Layer Mrelu2_stage6
I0417 21:46:40.744901  1927 net.cpp:434] Mrelu2_stage6 <- Mconv2_stage6
I0417 21:46:40.744922  1927 net.cpp:395] Mrelu2_stage6 -> Mconv2_stage6 (in-place)
I0417 21:46:40.744953  1927 net.cpp:150] Setting up Mrelu2_stage6
I0417 21:46:40.744966  1927 net.cpp:157] Top shape: 1 128 46 46 (270848)
I0417 21:46:40.744976  1927 net.cpp:165] Memory required for data: 484826384
I0417 21:46:40.744988  1927 layer_factory.hpp:77] Creating layer Mconv3_stage6
I0417 21:46:40.745026  1927 net.cpp:100] Creating Layer Mconv3_stage6
I0417 21:46:40.745038  1927 net.cpp:434] Mconv3_stage6 <- Mconv2_stage6
I0417 21:46:40.745059  1927 net.cpp:408] Mconv3_stage6 -> Mconv3_stage6
I0417 21:46:40.827504  1927 net.cpp:150] Setting up Mconv3_stage6
I0417 21:46:40.827586  1927 net.cpp:157] Top shape: 1 128 46 46 (270848)
I0417 21:46:40.827599  1927 net.cpp:165] Memory required for data: 485909776
I0417 21:46:40.827647  1927 layer_factory.hpp:77] Creating layer Mrelu3_stage6
I0417 21:46:40.827672  1927 net.cpp:100] Creating Layer Mrelu3_stage6
I0417 21:46:40.827684  1927 net.cpp:434] Mrelu3_stage6 <- Mconv3_stage6
I0417 21:46:40.827699  1927 net.cpp:395] Mrelu3_stage6 -> Mconv3_stage6 (in-place)
I0417 21:46:40.827719  1927 net.cpp:150] Setting up Mrelu3_stage6
I0417 21:46:40.827731  1927 net.cpp:157] Top shape: 1 128 46 46 (270848)
I0417 21:46:40.827740  1927 net.cpp:165] Memory required for data: 486993168
I0417 21:46:40.827749  1927 layer_factory.hpp:77] Creating layer Mconv4_stage6
I0417 21:46:40.827774  1927 net.cpp:100] Creating Layer Mconv4_stage6
I0417 21:46:40.827787  1927 net.cpp:434] Mconv4_stage6 <- Mconv3_stage6
I0417 21:46:40.827801  1927 net.cpp:408] Mconv4_stage6 -> Mconv4_stage6
I0417 21:46:40.828755  1927 net.cpp:150] Setting up Mconv4_stage6
I0417 21:46:40.828775  1927 net.cpp:157] Top shape: 1 128 46 46 (270848)
I0417 21:46:40.828784  1927 net.cpp:165] Memory required for data: 488076560
I0417 21:46:40.828799  1927 layer_factory.hpp:77] Creating layer Mrelu4_stage6
I0417 21:46:40.828815  1927 net.cpp:100] Creating Layer Mrelu4_stage6
I0417 21:46:40.828826  1927 net.cpp:434] Mrelu4_stage6 <- Mconv4_stage6
I0417 21:46:40.828837  1927 net.cpp:395] Mrelu4_stage6 -> Mconv4_stage6 (in-place)
I0417 21:46:40.828850  1927 net.cpp:150] Setting up Mrelu4_stage6
I0417 21:46:40.828862  1927 net.cpp:157] Top shape: 1 128 46 46 (270848)
I0417 21:46:40.828871  1927 net.cpp:165] Memory required for data: 489159952
I0417 21:46:40.828881  1927 layer_factory.hpp:77] Creating layer Mconv5_stage6
I0417 21:46:40.828900  1927 net.cpp:100] Creating Layer Mconv5_stage6
I0417 21:46:40.828912  1927 net.cpp:434] Mconv5_stage6 <- Mconv4_stage6
I0417 21:46:40.828927  1927 net.cpp:408] Mconv5_stage6 -> Mconv5_stage6
I0417 21:46:40.829315  1927 net.cpp:150] Setting up Mconv5_stage6
I0417 21:46:40.829342  1927 net.cpp:157] Top shape: 1 15 46 46 (31740)
I0417 21:46:40.829355  1927 net.cpp:165] Memory required for data: 489286912
I0417 21:46:40.829368  1927 net.cpp:228] Mconv5_stage6 does not need backward computation.
I0417 21:46:40.829378  1927 net.cpp:228] Mrelu4_stage6 does not need backward computation.
I0417 21:46:40.829387  1927 net.cpp:228] Mconv4_stage6 does not need backward computation.
I0417 21:46:40.829396  1927 net.cpp:228] Mrelu3_stage6 does not need backward computation.
…
