…
I0418 17:28:32.247936  4200 upgrade_proto.cpp:67] Attempting to upgrade input file specified using deprecated input fields: /home/lizhuowan/Market_CPM/Finetune_10910/1/pose_deploy.prototxt
I0418 17:28:32.247989  4200 upgrade_proto.cpp:70] Successfully upgraded file specified using deprecated input fields.
W0418 17:28:32.248008  4200 upgrade_proto.cpp:72] Note that future Caffe releases will only support input layers and not input fields.
I0418 17:28:32.249346  4200 net.cpp:58] Initializing net from parameters: 
state {
  phase: TEST
  level: 0
}
layer {
  name: "input"
  type: "Input"
  top: "data"
  input_param {
    shape {
      dim: 1
      dim: 4
      dim: 368
      dim: 368
    }
  }
}
layer {
  name: "image"
  type: "Slice"
  bottom: "data"
  top: "image"
  top: "center_map"
  slice_param {
    slice_point: 3
    axis: 1
  }
}
layer {
  name: "pool_center_lower"
  type: "Pooling"
  bottom: "center_map"
  top: "pool_center_lower"
  pooling_param {
    pool: AVE
    kernel_size: 9
    stride: 8
  }
}
layer {
  name: "conv1_stage1"
  type: "Convolution"
  bottom: "image"
  top: "conv1_stage1"
  param {
    lr_mult: 5
    decay_mult: 1
  }
  param {
    lr_mult: 10
    decay_mult: 0
  }
  convolution_param {
    num_output: 128
    pad: 4
    kernel_size: 9
    weight_filler {
      type: "gaussian"
      std: 0.01
    }
    bias_filler {
      type: "constant"
    }
  }
}
layer {
  name: "relu1_stage1"
  type: "ReLU"
  bottom: "conv1_stage1"
  top: "conv1_stage1"
}
layer {
  name: "pool1_stage1"
  type: "Pooling"
  bottom: "conv1_stage1"
  top: "pool1_stage1"
  pooling_param {
    pool: MAX
    kernel_size: 3
    stride: 2
  }
}
layer {
  name: "conv2_stage1"
  type: "Convolution"
  bottom: "pool1_stage1"
  top: "conv2_stage1"
  param {
    lr_mult: 5
    decay_mult: 1
  }
  param {
    lr_mult: 10
    decay_mult: 0
  }
  convolution_param {
    num_output: 128
    pad: 4
    kernel_size: 9
    weight_filler {
      type: "gaussian"
      std: 0.01
    }
    bias_filler {
      type: "constant"
    }
  }
}
layer {
  name: "relu2_stage1"
  type: "ReLU"
  bottom: "conv2_stage1"
  top: "conv2_stage1"
}
layer {
  name: "pool2_stage1"
  type: "Pooling"
  bottom: "conv2_stage1"
  top: "pool2_stage1"
  pooling_param {
    pool: MAX
    kernel_size: 3
    stride: 2
  }
}
layer {
  name: "conv3_stage1"
  type: "Convolution"
  bottom: "pool2_stage1"
  top: "conv3_stage1"
  param {
    lr_mult: 5
    decay_mult: 1
  }
  param {
    lr_mult: 10
    decay_mult: 0
  }
  convolution_param {
    num_output: 128
    pad: 4
    kernel_size: 9
    weight_filler {
      type: "gaussian"
      std: 0.01
    }
    bias_filler {
      type: "constant"
    }
  }
}
layer {
  name: "relu3_stage1"
  type: "ReLU"
  bottom: "conv3_stage1"
  top: "conv3_stage1"
}
layer {
  name: "pool3_stage1"
  type: "Pooling"
  bottom: "conv3_stage1"
  top: "pool3_stage1"
  pooling_param {
    pool: MAX
    kernel_size: 3
    stride: 2
  }
}
layer {
  name: "conv4_stage1"
  type: "Convolution"
  bottom: "pool3_stage1"
  top: "conv4_stage1"
  param {
    lr_mult: 5
    decay_mult: 1
  }
  param {
    lr_mult: 10
    decay_mult: 0
  }
  convolution_param {
    num_output: 32
    pad: 2
    kernel_size: 5
    weight_filler {
      type: "gaussian"
      std: 0.01
    }
    bias_filler {
      type: "constant"
    }
  }
}
layer {
  name: "relu4_stage1"
  type: "ReLU"
  bottom: "conv4_stage1"
  top: "conv4_stage1"
}
layer {
  name: "conv5_stage1"
  type: "Convolution"
  bottom: "conv4_stage1"
  top: "conv5_stage1"
  param {
    lr_mult: 5
    decay_mult: 1
  }
  param {
    lr_mult: 10
    decay_mult: 0
  }
  convolution_param {
    num_output: 512
    pad: 4
    kernel_size: 9
    weight_filler {
      type: "gaussian"
      std: 0.01
    }
    bias_filler {
      type: "constant"
    }
  }
}
layer {
  name: "relu5_stage1"
  type: "ReLU"
  bottom: "conv5_stage1"
  top: "conv5_stage1"
}
layer {
  name: "conv6_stage1"
  type: "Convolution"
  bottom: "conv5_stage1"
  top: "conv6_stage1"
  param {
    lr_mult: 5
    decay_mult: 1
  }
  param {
    lr_mult: 10
    decay_mult: 0
  }
  convolution_param {
    num_output: 512
    pad: 0
    kernel_size: 1
    weight_filler {
      type: "gaussian"
      std: 0.01
    }
    bias_filler {
      type: "constant"
    }
  }
}
layer {
  name: "relu6_stage1"
  type: "ReLU"
  bottom: "conv6_stage1"
  top: "conv6_stage1"
}
layer {
  name: "conv7_stage1"
  type: "Convolution"
  bottom: "conv6_stage1"
  top: "conv7_stage1"
  param {
    lr_mult: 5
    decay_mult: 1
  }
  param {
    lr_mult: 10
    decay_mult: 0
  }
  convolution_param {
    num_output: 15
    pad: 0
    kernel_size: 1
    weight_filler {
      type: "gaussian"
      std: 0.01
    }
    bias_filler {
      type: "constant"
    }
  }
}
layer {
  name: "conv1_stage2"
  type: "Convolution"
  bottom: "image"
  top: "conv1_stage2"
  param {
    lr_mult: 1
    decay_mult: 1
  }
  param {
    lr_mult: 2
    decay_mult: 0
  }
  convolution_param {
    num_output: 128
    pad: 4
    kernel_size: 9
    weight_filler {
      type: "gaussian"
      std: 0.01
    }
    bias_filler {
      type: "constant"
    }
  }
}
layer {
  name: "relu1_stage2"
  type: "ReLU"
  bottom: "conv1_stage2"
  top: "conv1_stage2"
}
layer {
  name: "pool1_stage2"
  type: "Pooling"
  bottom: "conv1_stage2"
  top: "pool1_stage2"
  pooling_param {
    pool: MAX
    kernel_size: 3
    stride: 2
  }
}
layer {
  name: "conv2_stage2"
  type: "Convolution"
  bottom: "pool1_stage2"
  top: "conv2_stage2"
  param {
    lr_mult: 1
    decay_mult: 1
  }
  param {
    lr_mult: 2
    decay_mult: 0
  }
  convolution_param {
    num_output: 128
    pad: 4
    kernel_size: 9
    weight_filler {
      type: "gaussian"
      std: 0.01
    }
    bias_filler {
      type: "constant"
    }
  }
}
layer {
  name: "relu2_stage2"
  type: "ReLU"
  bottom: "conv2_stage2"
  top: "conv2_stage2"
}
layer {
  name: "pool2_stage2"
  type: "Pooling"
  bottom: "conv2_stage2"
  top: "pool2_stage2"
  pooling_param {
    pool: MAX
    kernel_size: 3
    stride: 2
  }
}
layer {
  name: "conv3_stage2"
  type: "Convolution"
  bottom: "pool2_stage2"
  top: "conv3_stage2"
  param {
    lr_mult: 1
    decay_mult: 1
  }
  param {
    lr_mult: 2
    decay_mult: 0
  }
  convolution_param {
    num_output: 128
    pad: 4
    kernel_size: 9
    weight_filler {
      type: "gaussian"
      std: 0.01
    }
    bias_filler {
      type: "constant"
    }
  }
}
layer {
  name: "relu3_stage2"
  type: "ReLU"
  bottom: "conv3_stage2"
  top: "conv3_stage2"
}
layer {
  name: "pool3_stage2"
  type: "Pooling"
  bottom: "conv3_stage2"
  top: "pool3_stage2"
  pooling_param {
    pool: MAX
    kernel_size: 3
    stride: 2
  }
}
layer {
  name: "conv4_stage2"
  type: "Convolution"
  bottom: "pool3_stage2"
  top: "conv4_stage2"
  param {
    lr_mult: 1
    decay_mult: 1
  }
  param {
    lr_mult: 2
    decay_mult: 0
  }
  convolution_param {
    num_output: 32
    pad: 2
    kernel_size: 5
    weight_filler {
      type: "gaussian"
      std: 0.01
    }
    bias_filler {
      type: "constant"
    }
  }
}
layer {
  name: "relu4_stage2"
  type: "ReLU"
  bottom: "conv4_stage2"
  top: "conv4_stage2"
}
layer {
  name: "concat_stage2"
  type: "Concat"
  bottom: "conv4_stage2"
  bottom: "conv7_stage1"
  bottom: "pool_center_lower"
  top: "concat_stage2"
  concat_param {
    axis: 1
  }
}
layer {
  name: "Mconv1_stage2"
  type: "Convolution"
  bottom: "concat_stage2"
  top: "Mconv1_stage2"
  param {
    lr_mult: 1
    decay_mult: 1
  }
  param {
    lr_mult: 2
    decay_mult: 0
  }
  convolution_param {
    num_output: 128
    pad: 5
    kernel_size: 11
    weight_filler {
      type: "gaussian"
      std: 0.01
    }
    bias_filler {
      type: "constant"
    }
  }
}
layer {
  name: "Mrelu1_stage2"
  type: "ReLU"
  bottom: "Mconv1_stage2"
  top: "Mconv1_stage2"
}
layer {
  name: "Mconv2_stage2"
  type: "Convolution"
  bottom: "Mconv1_stage2"
  top: "Mconv2_stage2"
  param {
    lr_mult: 1
    decay_mult: 1
  }
  param {
    lr_mult: 2
    decay_mult: 0
  }
  convolution_param {
    num_output: 128
    pad: 5
    kernel_size: 11
    weight_filler {
      type: "gaussian"
      std: 0.01
    }
    bias_filler {
      type: "constant"
    }
  }
}
layer {
  name: "Mrelu2_stage2"
  type: "ReLU"
  bottom: "Mconv2_stage2"
  top: "Mconv2_stage2"
}
layer {
  name: "Mconv3_stage2"
  type: "Convolution"
  bottom: "Mconv2_stage2"
  top: "Mconv3_stage2"
  param {
    lr_mult: 1
    decay_mult: 1
  }
  param {
    lr_mult: 2
    decay_mult: 0
  }
  convolution_param {
    num_output: 128
    pad: 5
    kernel_size: 11
    weight_filler {
      type: "gaussian"
      std: 0.01
    }
    bias_filler {
      type: "constant"
    }
  }
}
layer {
  name: "Mrelu3_stage2"
  type: "ReLU"
  bottom: "Mconv3_stage2"
  top: "Mconv3_stage2"
}
layer {
  name: "Mconv4_stage2"
  type: "Convolution"
  bottom: "Mconv3_stage2"
  top: "Mconv4_stage2"
  param {
    lr_mult: 1
    decay_mult: 1
  }
  param {
    lr_mult: 2
    decay_mult: 0
  }
  convolution_param {
    num_output: 128
    pad: 0
    kernel_size: 1
    weight_filler {
      type: "gaussian"
      std: 0.01
    }
    bias_filler {
      type: "constant"
    }
  }
}
layer {
  name: "Mrelu4_stage2"
  type: "ReLU"
  bottom: "Mconv4_stage2"
  top: "Mconv4_stage2"
}
layer {
  name: "Mconv5_stage2"
  type: "Convolution"
  bottom: "Mconv4_stage2"
  top: "Mconv5_stage2"
  param {
    lr_mult: 1
    decay_mult: 1
  }
  param {
    lr_mult: 2
    decay_mult: 0
  }
  convolution_param {
    num_output: 15
    pad: 0
    kernel_size: 1
    weight_filler {
      type: "gaussian"
      std: 0.01
    }
    bias_filler {
      type: "constant"
    }
  }
}
layer {
  name: "conv1_stage3"
  type: "Convolution"
  bottom: "pool3_stage2"
  top: "conv1_stage3"
  param {
    lr_mult: 1
    decay_mult: 1
  }
  param {
    lr_mult: 2
    decay_mult: 0
  }
  convolution_param {
    num_output: 32
    pad: 2
    kernel_size: 5
    weight_filler {
      type: "gaussian"
      std: 0.01
    }
    bias_filler {
      type: "constant"
    }
  }
}
layer {
  name: "relu1_stage3"
  type: "ReLU"
  bottom: "conv1_stage3"
  top: "conv1_stage3"
}
layer {
  name: "concat_stage3"
  type: "Concat"
  bottom: "conv1_stage3"
  bottom: "Mconv5_stage2"
  bottom: "pool_center_lower"
  top: "concat_stage3"
  concat_param {
    axis: 1
  }
}
layer {
  name: "Mconv1_stage3"
  type: "Convolution"
  bottom: "concat_stage3"
  top: "Mconv1_stage3"
  param {
    lr_mult: 1
    decay_mult: 1
  }
  param {
    lr_mult: 2
    decay_mult: 0
  }
  convolution_param {
    num_output: 128
    pad: 5
    kernel_size: 11
    weight_filler {
      type: "gaussian"
      std: 0.01
    }
    bias_filler {
      type: "constant"
    }
  }
}
layer {
  name: "Mrelu1_stage3"
  type: "ReLU"
  bottom: "Mconv1_stage3"
  top: "Mconv1_stage3"
}
layer {
  name: "Mconv2_stage3"
  type: "Convolution"
  bottom: "Mconv1_stage3"
  top: "Mconv2_stage3"
  param {
    lr_mult: 1
    decay_mult: 1
  }
  param {
    lr_mult: 2
    decay_mult: 0
  }
  convolution_param {
    num_output: 128
    pad: 5
    kernel_size: 11
    weight_filler {
      type: "gaussian"
      std: 0.01
    }
    bias_filler {
      type: "constant"
    }
  }
}
layer {
  name: "Mrelu2_stage3"
  type: "ReLU"
  bottom: "Mconv2_stage3"
  top: "Mconv2_stage3"
}
layer {
  name: "Mconv3_stage3"
  type: "Convolution"
  bottom: "Mconv2_stage3"
  top: "Mconv3_stage3"
  param {
    lr_mult: 1
    decay_mult: 1
  }
  param {
    lr_mult: 2
    decay_mult: 0
  }
  convolution_param {
    num_output: 128
    pad: 5
    kernel_size: 11
    weight_filler {
      type: "gaussian"
      std: 0.01
    }
    bias_filler {
      type: "constant"
    }
  }
}
layer {
  name: "Mrelu3_stage3"
  type: "ReLU"
  bottom: "Mconv3_stage3"
  top: "Mconv3_stage3"
}
layer {
  name: "Mconv4_stage3"
  type: "Convolution"
  bottom: "Mconv3_stage3"
  top: "Mconv4_stage3"
  param {
    lr_mult: 1
    decay_mult: 1
  }
  param {
    lr_mult: 2
    decay_mult: 0
  }
  convolution_param {
    num_output: 128
    pad: 0
    kernel_size: 1
    weight_filler {
      type: "gaussian"
      std: 0.01
    }
    bias_filler {
      type: "constant"
    }
  }
}
layer {
  name: "Mrelu4_stage3"
  type: "ReLU"
  bottom: "Mconv4_stage3"
  top: "Mconv4_stage3"
}
layer {
  name: "Mconv5_stage3"
  type: "Convolution"
  bottom: "Mconv4_stage3"
  top: "Mconv5_stage3"
  param {
    lr_mult: 1
    decay_mult: 1
  }
  param {
    lr_mult: 2
    decay_mult: 0
  }
  convolution_param {
    num_output: 15
    pad: 0
    kernel_size: 1
    weight_filler {
      type: "gaussian"
      std: 0.01
    }
    bias_filler {
      type: "constant"
    }
  }
}
layer {
  name: "conv1_stage4"
  type: "Convolution"
  bottom: "pool3_stage2"
  top: "conv1_stage4"
  param {
    lr_mult: 1
    decay_mult: 1
  }
  param {
    lr_mult: 2
    decay_mult: 0
  }
  convolution_param {
    num_output: 32
    pad: 2
    kernel_size: 5
    weight_filler {
      type: "gaussian"
      std: 0.01
    }
    bias_filler {
      type: "constant"
    }
  }
}
layer {
  name: "relu1_stage4"
  type: "ReLU"
  bottom: "conv1_stage4"
  top: "conv1_stage4"
}
layer {
  name: "concat_stage4"
  type: "Concat"
  bottom: "conv1_stage4"
  bottom: "Mconv5_stage3"
  bottom: "pool_center_lower"
  top: "concat_stage4"
  concat_param {
    axis: 1
  }
}
layer {
  name: "Mconv1_stage4"
  type: "Convolution"
  bottom: "concat_stage4"
  top: "Mconv1_stage4"
  param {
    lr_mult: 1
    decay_mult: 1
  }
  param {
    lr_mult: 2
    decay_mult: 0
  }
  convolution_param {
    num_output: 128
    pad: 5
    kernel_size: 11
    weight_filler {
      type: "gaussian"
      std: 0.01
    }
    bias_filler {
      type: "constant"
    }
  }
}
layer {
  name: "Mrelu1_stage4"
  type: "ReLU"
  bottom: "Mconv1_stage4"
  top: "Mconv1_stage4"
}
layer {
  name: "Mconv2_stage4"
  type: "Convolution"
  bottom: "Mconv1_stage4"
  top: "Mconv2_stage4"
  param {
    lr_mult: 1
    decay_mult: 1
  }
  param {
    lr_mult: 2
    decay_mult: 0
  }
  convolution_param {
    num_output: 128
    pad: 5
    kernel_size: 11
    weight_filler {
      type: "gaussian"
      std: 0.01
    }
    bias_filler {
      type: "constant"
    }
  }
}
layer {
  name: "Mrelu2_stage4"
  type: "ReLU"
  bottom: "Mconv2_stage4"
  top: "Mconv2_stage4"
}
layer {
  name: "Mconv3_stage4"
  type: "Convolution"
  bottom: "Mconv2_stage4"
  top: "Mconv3_stage4"
  param {
    lr_mult: 1
    decay_mult: 1
  }
  param {
    lr_mult: 2
    decay_mult: 0
  }
  convolution_param {
    num_output: 128
    pad: 5
    kernel_size: 11
    weight_filler {
      type: "gaussian"
      std: 0.01
    }
    bias_filler {
      type: "constant"
    }
  }
}
layer {
  name: "Mrelu3_stage4"
  type: "ReLU"
  bottom: "Mconv3_stage4"
  top: "Mconv3_stage4"
}
layer {
  name: "Mconv4_stage4"
  type: "Convolution"
  bottom: "Mconv3_stage4"
  top: "Mconv4_stage4"
  param {
    lr_mult: 1
    decay_mult: 1
  }
  param {
    lr_mult: 2
    decay_mult: 0
  }
  convolution_param {
    num_output: 128
    pad: 0
    kernel_size: 1
    weight_filler {
      type: "gaussian"
      std: 0.01
    }
    bias_filler {
      type: "constant"
    }
  }
}
layer {
  name: "Mrelu4_stage4"
  type: "ReLU"
  bottom: "Mconv4_stage4"
  top: "Mconv4_stage4"
}
layer {
  name: "Mconv5_stage4"
  type: "Convolution"
  bottom: "Mconv4_stage4"
  top: "Mconv5_stage4"
  param {
    lr_mult: 1
    decay_mult: 1
  }
  param {
    lr_mult: 2
    decay_mult: 0
  }
  convolution_param {
    num_output: 15
    pad: 0
    kernel_size: 1
    weight_filler {
      type: "gaussian"
      std: 0.01
    }
    bias_filler {
      type: "constant"
    }
  }
}
layer {
  name: "conv1_stage5"
  type: "Convolution"
  bottom: "pool3_stage2"
  top: "conv1_stage5"
  param {
    lr_mult: 1
    decay_mult: 1
  }
  param {
    lr_mult: 2
    decay_mult: 0
  }
  convolution_param {
    num_output: 32
    pad: 2
    kernel_size: 5
    weight_filler {
      type: "gaussian"
      std: 0.01
    }
    bias_filler {
      type: "constant"
    }
  }
}
layer {
  name: "relu1_stage5"
  type: "ReLU"
  bottom: "conv1_stage5"
  top: "conv1_stage5"
}
layer {
  name: "concat_stage5"
  type: "Concat"
  bottom: "conv1_stage5"
  bottom: "Mconv5_stage4"
  bottom: "pool_center_lower"
  top: "concat_stage5"
  concat_param {
    axis: 1
  }
}
layer {
  name: "Mconv1_stage5"
  type: "Convolution"
  bottom: "concat_stage5"
  top: "Mconv1_stage5"
  param {
    lr_mult: 1
    decay_mult: 1
  }
  param {
    lr_mult: 2
    decay_mult: 0
  }
  convolution_param {
    num_output: 128
    pad: 5
    kernel_size: 11
    weight_filler {
      type: "gaussian"
      std: 0.01
    }
    bias_filler {
      type: "constant"
    }
  }
}
layer {
  name: "Mrelu1_stage5"
  type: "ReLU"
  bottom: "Mconv1_stage5"
  top: "Mconv1_stage5"
}
layer {
  name: "Mconv2_stage5"
  type: "Convolution"
  bottom: "Mconv1_stage5"
  top: "Mconv2_stage5"
  param {
    lr_mult: 1
    decay_mult: 1
  }
  param {
    lr_mult: 2
    decay_mult: 0
  }
  convolution_param {
    num_output: 128
    pad: 5
    kernel_size: 11
    weight_filler {
      type: "gaussian"
      std: 0.01
    }
    bias_filler {
      type: "constant"
    }
  }
}
layer {
  name: "Mrelu2_stage5"
  type: "ReLU"
  bottom: "Mconv2_stage5"
  top: "Mconv2_stage5"
}
layer {
  name: "Mconv3_stage5"
  type: "Convolution"
  bottom: "Mconv2_stage5"
  top: "Mconv3_stage5"
  param {
    lr_mult: 1
    decay_mult: 1
  }
  param {
    lr_mult: 2
    decay_mult: 0
  }
  convolution_param {
    num_output: 128
    pad: 5
    kernel_size: 11
    weight_filler {
      type: "gaussian"
      std: 0.01
    }
    bias_filler {
      type: "constant"
    }
  }
}
layer {
  name: "Mrelu3_stage5"
  type: "ReLU"
  bottom: "Mconv3_stage5"
  top: "Mconv3_stage5"
}
layer {
  name: "Mconv4_stage5"
  type: "Convolution"
  bottom: "Mconv3_stage5"
  top: "Mconv4_stage5"
  param {
    lr_mult: 1
    decay_mult: 1
  }
  param {
    lr_mult: 2
    decay_mult: 0
  }
  convolution_param {
    num_output: 128
    pad: 0
    kernel_size: 1
    weight_filler {
      type: "gaussian"
      std: 0.01
    }
    bias_filler {
      type: "constant"
    }
  }
}
layer {
  name: "Mrelu4_stage5"
  type: "ReLU"
  bottom: "Mconv4_stage5"
  top: "Mconv4_stage5"
}
layer {
  name: "Mconv5_stage5"
  type: "Convolution"
  bottom: "Mconv4_stage5"
  top: "Mconv5_stage5"
  param {
    lr_mult: 1
    decay_mult: 1
  }
  param {
    lr_mult: 2
    decay_mult: 0
  }
  convolution_param {
    num_output: 15
    pad: 0
    kernel_size: 1
    weight_filler {
      type: "gaussian"
      std: 0.01
    }
    bias_filler {
      type: "constant"
    }
  }
}
layer {
  name: "conv1_stage6"
  type: "Convolution"
  bottom: "pool3_stage2"
  top: "conv1_stage6"
  param {
    lr_mult: 1
    decay_mult: 1
  }
  param {
    lr_mult: 2
    decay_mult: 0
  }
  convolution_param {
    num_output: 32
    pad: 2
    kernel_size: 5
    weight_filler {
      type: "gaussian"
      std: 0.01
    }
    bias_filler {
      type: "constant"
    }
  }
}
layer {
  name: "relu1_stage6"
  type: "ReLU"
  bottom: "conv1_stage6"
  top: "conv1_stage6"
}
layer {
  name: "concat_stage6"
  type: "Concat"
  bottom: "conv1_stage6"
  bottom: "Mconv5_stage5"
  bottom: "pool_center_lower"
  top: "concat_stage6"
  concat_param {
    axis: 1
  }
}
layer {
  name: "Mconv1_stage6"
  type: "Convolution"
  bottom: "concat_stage6"
  top: "Mconv1_stage6"
  param {
    lr_mult: 1
    decay_mult: 1
  }
  param {
    lr_mult: 2
    decay_mult: 0
  }
  convolution_param {
    num_output: 128
    pad: 5
    kernel_size: 11
    weight_filler {
      type: "gaussian"
      std: 0.01
    }
    bias_filler {
      type: "constant"
    }
  }
}
layer {
  name: "Mrelu1_stage6"
  type: "ReLU"
  bottom: "Mconv1_stage6"
  top: "Mconv1_stage6"
}
layer {
  name: "Mconv2_stage6"
  type: "Convolution"
  bottom: "Mconv1_stage6"
  top: "Mconv2_stage6"
  param {
    lr_mult: 1
    decay_mult: 1
  }
  param {
    lr_mult: 2
    decay_mult: 0
  }
  convolution_param {
    num_output: 128
    pad: 5
    kernel_size: 11
    weight_filler {
      type: "gaussian"
      std: 0.01
    }
    bias_filler {
      type: "constant"
    }
  }
}
layer {
  name: "Mrelu2_stage6"
  type: "ReLU"
  bottom: "Mconv2_stage6"
  top: "Mconv2_stage6"
}
layer {
  name: "Mconv3_stage6"
  type: "Convolution"
  bottom: "Mconv2_stage6"
  top: "Mconv3_stage6"
  param {
    lr_mult: 1
    decay_mult: 1
  }
  param {
    lr_mult: 2
    decay_mult: 0
  }
  convolution_param {
    num_output: 128
    pad: 5
    kernel_size: 11
    weight_filler {
      type: "gaussian"
      std: 0.01
    }
    bias_filler {
      type: "constant"
    }
  }
}
layer {
  name: "Mrelu3_stage6"
  type: "ReLU"
  bottom: "Mconv3_stage6"
  top: "Mconv3_stage6"
}
layer {
  name: "Mconv4_stage6"
  type: "Convolution"
  bottom: "Mconv3_stage6"
  top: "Mconv4_stage6"
  param {
    lr_mult: 1
    decay_mult: 1
  }
  param {
    lr_mult: 2
    decay_mult: 0
  }
  convolution_param {
    num_output: 128
    pad: 0
    kernel_size: 1
    weight_filler {
      type: "gaussian"
      std: 0.01
    }
    bias_filler {
      type: "constant"
    }
  }
}
layer {
  name: "Mrelu4_stage6"
  type: "ReLU"
  bottom: "Mconv4_stage6"
  top: "Mconv4_stage6"
}
layer {
  name: "Mconv5_stage6"
  type: "Convolution"
  bottom: "Mconv4_stage6"
  top: "Mconv5_stage6"
  param {
    lr_mult: 1
    decay_mult: 1
  }
  param {
    lr_mult: 2
    decay_mult: 0
  }
  convolution_param {
    num_output: 15
    pad: 0
    kernel_size: 1
    weight_filler {
      type: "gaussian"
      std: 0.01
    }
    bias_filler {
      type: "constant"
    }
  }
}
I0418 17:28:32.250023  4200 layer_factory.hpp:77] Creating layer input
I0418 17:28:32.250098  4200 net.cpp:100] Creating Layer input
I0418 17:28:32.250125  4200 net.cpp:408] input -> data
I0418 17:28:32.304455  4200 net.cpp:150] Setting up input
I0418 17:28:32.304502  4200 net.cpp:157] Top shape: 1 4 368 368 (541696)
I0418 17:28:32.304518  4200 net.cpp:165] Memory required for data: 2166784
I0418 17:28:32.304535  4200 layer_factory.hpp:77] Creating layer image
I0418 17:28:32.304564  4200 net.cpp:100] Creating Layer image
I0418 17:28:32.304580  4200 net.cpp:434] image <- data
I0418 17:28:32.304600  4200 net.cpp:408] image -> image
I0418 17:28:32.304630  4200 net.cpp:408] image -> center_map
I0418 17:28:32.304714  4200 net.cpp:150] Setting up image
I0418 17:28:32.304739  4200 net.cpp:157] Top shape: 1 3 368 368 (406272)
I0418 17:28:32.304757  4200 net.cpp:157] Top shape: 1 1 368 368 (135424)
I0418 17:28:32.304770  4200 net.cpp:165] Memory required for data: 4333568
I0418 17:28:32.304785  4200 layer_factory.hpp:77] Creating layer image_image_0_split
I0418 17:28:32.304808  4200 net.cpp:100] Creating Layer image_image_0_split
I0418 17:28:32.304822  4200 net.cpp:434] image_image_0_split <- image
I0418 17:28:32.304846  4200 net.cpp:408] image_image_0_split -> image_image_0_split_0
I0418 17:28:32.304865  4200 net.cpp:408] image_image_0_split -> image_image_0_split_1
I0418 17:28:32.304934  4200 net.cpp:150] Setting up image_image_0_split
I0418 17:28:32.304961  4200 net.cpp:157] Top shape: 1 3 368 368 (406272)
I0418 17:28:32.304980  4200 net.cpp:157] Top shape: 1 3 368 368 (406272)
I0418 17:28:32.304993  4200 net.cpp:165] Memory required for data: 7583744
I0418 17:28:32.305007  4200 layer_factory.hpp:77] Creating layer pool_center_lower
I0418 17:28:32.305029  4200 net.cpp:100] Creating Layer pool_center_lower
I0418 17:28:32.305044  4200 net.cpp:434] pool_center_lower <- center_map
I0418 17:28:32.305060  4200 net.cpp:408] pool_center_lower -> pool_center_lower
I0418 17:28:32.305119  4200 net.cpp:150] Setting up pool_center_lower
I0418 17:28:32.305142  4200 net.cpp:157] Top shape: 1 1 46 46 (2116)
I0418 17:28:32.305156  4200 net.cpp:165] Memory required for data: 7592208
I0418 17:28:32.305171  4200 layer_factory.hpp:77] Creating layer pool_center_lower_pool_center_lower_0_split
I0418 17:28:32.305193  4200 net.cpp:100] Creating Layer pool_center_lower_pool_center_lower_0_split
I0418 17:28:32.305208  4200 net.cpp:434] pool_center_lower_pool_center_lower_0_split <- pool_center_lower
I0418 17:28:32.305236  4200 net.cpp:408] pool_center_lower_pool_center_lower_0_split -> pool_center_lower_pool_center_lower_0_split_0
I0418 17:28:32.305258  4200 net.cpp:408] pool_center_lower_pool_center_lower_0_split -> pool_center_lower_pool_center_lower_0_split_1
I0418 17:28:32.305276  4200 net.cpp:408] pool_center_lower_pool_center_lower_0_split -> pool_center_lower_pool_center_lower_0_split_2
I0418 17:28:32.305302  4200 net.cpp:408] pool_center_lower_pool_center_lower_0_split -> pool_center_lower_pool_center_lower_0_split_3
I0418 17:28:32.305322  4200 net.cpp:408] pool_center_lower_pool_center_lower_0_split -> pool_center_lower_pool_center_lower_0_split_4
I0418 17:28:32.305678  4200 net.cpp:150] Setting up pool_center_lower_pool_center_lower_0_split
I0418 17:28:32.305706  4200 net.cpp:157] Top shape: 1 1 46 46 (2116)
I0418 17:28:32.305722  4200 net.cpp:157] Top shape: 1 1 46 46 (2116)
I0418 17:28:32.305738  4200 net.cpp:157] Top shape: 1 1 46 46 (2116)
I0418 17:28:32.305754  4200 net.cpp:157] Top shape: 1 1 46 46 (2116)
I0418 17:28:32.305770  4200 net.cpp:157] Top shape: 1 1 46 46 (2116)
I0418 17:28:32.305783  4200 net.cpp:165] Memory required for data: 7634528
I0418 17:28:32.305797  4200 layer_factory.hpp:77] Creating layer conv1_stage1
I0418 17:28:32.305830  4200 net.cpp:100] Creating Layer conv1_stage1
I0418 17:28:32.305845  4200 net.cpp:434] conv1_stage1 <- image_image_0_split_0
I0418 17:28:32.305871  4200 net.cpp:408] conv1_stage1 -> conv1_stage1
I0418 17:28:32.310562  4200 net.cpp:150] Setting up conv1_stage1
I0418 17:28:32.310600  4200 net.cpp:157] Top shape: 1 128 368 368 (17334272)
I0418 17:28:32.310614  4200 net.cpp:165] Memory required for data: 76971616
I0418 17:28:32.310654  4200 layer_factory.hpp:77] Creating layer relu1_stage1
I0418 17:28:32.310678  4200 net.cpp:100] Creating Layer relu1_stage1
I0418 17:28:32.310693  4200 net.cpp:434] relu1_stage1 <- conv1_stage1
I0418 17:28:32.310714  4200 net.cpp:395] relu1_stage1 -> conv1_stage1 (in-place)
I0418 17:28:32.310739  4200 net.cpp:150] Setting up relu1_stage1
I0418 17:28:32.310757  4200 net.cpp:157] Top shape: 1 128 368 368 (17334272)
I0418 17:28:32.310771  4200 net.cpp:165] Memory required for data: 146308704
I0418 17:28:32.310786  4200 layer_factory.hpp:77] Creating layer pool1_stage1
I0418 17:28:32.310802  4200 net.cpp:100] Creating Layer pool1_stage1
I0418 17:28:32.310817  4200 net.cpp:434] pool1_stage1 <- conv1_stage1
I0418 17:28:32.310834  4200 net.cpp:408] pool1_stage1 -> pool1_stage1
I0418 17:28:32.310917  4200 net.cpp:150] Setting up pool1_stage1
I0418 17:28:32.310941  4200 net.cpp:157] Top shape: 1 128 184 184 (4333568)
I0418 17:28:32.310956  4200 net.cpp:165] Memory required for data: 163642976
I0418 17:28:32.310969  4200 layer_factory.hpp:77] Creating layer conv2_stage1
I0418 17:28:32.310998  4200 net.cpp:100] Creating Layer conv2_stage1
I0418 17:28:32.311015  4200 net.cpp:434] conv2_stage1 <- pool1_stage1
I0418 17:28:32.311039  4200 net.cpp:408] conv2_stage1 -> conv2_stage1
I0418 17:28:32.381139  4200 net.cpp:150] Setting up conv2_stage1
I0418 17:28:32.381199  4200 net.cpp:157] Top shape: 1 128 184 184 (4333568)
I0418 17:28:32.381211  4200 net.cpp:165] Memory required for data: 180977248
I0418 17:28:32.381239  4200 layer_factory.hpp:77] Creating layer relu2_stage1
I0418 17:28:32.381260  4200 net.cpp:100] Creating Layer relu2_stage1
I0418 17:28:32.381273  4200 net.cpp:434] relu2_stage1 <- conv2_stage1
I0418 17:28:32.381290  4200 net.cpp:395] relu2_stage1 -> conv2_stage1 (in-place)
I0418 17:28:32.381310  4200 net.cpp:150] Setting up relu2_stage1
I0418 17:28:32.381323  4200 net.cpp:157] Top shape: 1 128 184 184 (4333568)
I0418 17:28:32.381347  4200 net.cpp:165] Memory required for data: 198311520
I0418 17:28:32.381361  4200 layer_factory.hpp:77] Creating layer pool2_stage1
I0418 17:28:32.381386  4200 net.cpp:100] Creating Layer pool2_stage1
I0418 17:28:32.381397  4200 net.cpp:434] pool2_stage1 <- conv2_stage1
I0418 17:28:32.381409  4200 net.cpp:408] pool2_stage1 -> pool2_stage1
I0418 17:28:32.381481  4200 net.cpp:150] Setting up pool2_stage1
I0418 17:28:32.381500  4200 net.cpp:157] Top shape: 1 128 92 92 (1083392)
I0418 17:28:32.381510  4200 net.cpp:165] Memory required for data: 202645088
I0418 17:28:32.381520  4200 layer_factory.hpp:77] Creating layer conv3_stage1
I0418 17:28:32.381543  4200 net.cpp:100] Creating Layer conv3_stage1
I0418 17:28:32.381554  4200 net.cpp:434] conv3_stage1 <- pool2_stage1
I0418 17:28:32.381572  4200 net.cpp:408] conv3_stage1 -> conv3_stage1
I0418 17:28:32.434697  4200 net.cpp:150] Setting up conv3_stage1
I0418 17:28:32.434722  4200 net.cpp:157] Top shape: 1 128 92 92 (1083392)
I0418 17:28:32.434732  4200 net.cpp:165] Memory required for data: 206978656
I0418 17:28:32.434751  4200 layer_factory.hpp:77] Creating layer relu3_stage1
I0418 17:28:32.434769  4200 net.cpp:100] Creating Layer relu3_stage1
I0418 17:28:32.434779  4200 net.cpp:434] relu3_stage1 <- conv3_stage1
I0418 17:28:32.434792  4200 net.cpp:395] relu3_stage1 -> conv3_stage1 (in-place)
I0418 17:28:32.434806  4200 net.cpp:150] Setting up relu3_stage1
I0418 17:28:32.434818  4200 net.cpp:157] Top shape: 1 128 92 92 (1083392)
I0418 17:28:32.434826  4200 net.cpp:165] Memory required for data: 211312224
I0418 17:28:32.434836  4200 layer_factory.hpp:77] Creating layer pool3_stage1
I0418 17:28:32.434851  4200 net.cpp:100] Creating Layer pool3_stage1
I0418 17:28:32.434861  4200 net.cpp:434] pool3_stage1 <- conv3_stage1
I0418 17:28:32.434873  4200 net.cpp:408] pool3_stage1 -> pool3_stage1
I0418 17:28:32.434928  4200 net.cpp:150] Setting up pool3_stage1
I0418 17:28:32.434945  4200 net.cpp:157] Top shape: 1 128 46 46 (270848)
I0418 17:28:32.434954  4200 net.cpp:165] Memory required for data: 212395616
I0418 17:28:32.434964  4200 layer_factory.hpp:77] Creating layer conv4_stage1
I0418 17:28:32.434983  4200 net.cpp:100] Creating Layer conv4_stage1
I0418 17:28:32.434994  4200 net.cpp:434] conv4_stage1 <- pool3_stage1
I0418 17:28:32.435010  4200 net.cpp:408] conv4_stage1 -> conv4_stage1
I0418 17:28:32.439954  4200 net.cpp:150] Setting up conv4_stage1
I0418 17:28:32.440021  4200 net.cpp:157] Top shape: 1 32 46 46 (67712)
I0418 17:28:32.440033  4200 net.cpp:165] Memory required for data: 212666464
I0418 17:28:32.440058  4200 layer_factory.hpp:77] Creating layer relu4_stage1
I0418 17:28:32.440084  4200 net.cpp:100] Creating Layer relu4_stage1
I0418 17:28:32.440099  4200 net.cpp:434] relu4_stage1 <- conv4_stage1
I0418 17:28:32.440116  4200 net.cpp:395] relu4_stage1 -> conv4_stage1 (in-place)
I0418 17:28:32.440137  4200 net.cpp:150] Setting up relu4_stage1
I0418 17:28:32.440151  4200 net.cpp:157] Top shape: 1 32 46 46 (67712)
I0418 17:28:32.440162  4200 net.cpp:165] Memory required for data: 212937312
I0418 17:28:32.440172  4200 layer_factory.hpp:77] Creating layer conv5_stage1
I0418 17:28:32.440206  4200 net.cpp:100] Creating Layer conv5_stage1
I0418 17:28:32.440218  4200 net.cpp:434] conv5_stage1 <- conv4_stage1
I0418 17:28:32.440237  4200 net.cpp:408] conv5_stage1 -> conv5_stage1
I0418 17:28:32.500485  4200 net.cpp:150] Setting up conv5_stage1
I0418 17:28:32.500525  4200 net.cpp:157] Top shape: 1 512 46 46 (1083392)
I0418 17:28:32.500538  4200 net.cpp:165] Memory required for data: 217270880
I0418 17:28:32.500567  4200 layer_factory.hpp:77] Creating layer relu5_stage1
I0418 17:28:32.500586  4200 net.cpp:100] Creating Layer relu5_stage1
I0418 17:28:32.500599  4200 net.cpp:434] relu5_stage1 <- conv5_stage1
I0418 17:28:32.500613  4200 net.cpp:395] relu5_stage1 -> conv5_stage1 (in-place)
I0418 17:28:32.500632  4200 net.cpp:150] Setting up relu5_stage1
I0418 17:28:32.500644  4200 net.cpp:157] Top shape: 1 512 46 46 (1083392)
I0418 17:28:32.500654  4200 net.cpp:165] Memory required for data: 221604448
I0418 17:28:32.500665  4200 layer_factory.hpp:77] Creating layer conv6_stage1
I0418 17:28:32.500689  4200 net.cpp:100] Creating Layer conv6_stage1
I0418 17:28:32.500702  4200 net.cpp:434] conv6_stage1 <- conv5_stage1
I0418 17:28:32.500720  4200 net.cpp:408] conv6_stage1 -> conv6_stage1
I0418 17:28:32.512818  4200 net.cpp:150] Setting up conv6_stage1
I0418 17:28:32.512858  4200 net.cpp:157] Top shape: 1 512 46 46 (1083392)
I0418 17:28:32.512871  4200 net.cpp:165] Memory required for data: 225938016
I0418 17:28:32.512887  4200 layer_factory.hpp:77] Creating layer relu6_stage1
I0418 17:28:32.512902  4200 net.cpp:100] Creating Layer relu6_stage1
I0418 17:28:32.512913  4200 net.cpp:434] relu6_stage1 <- conv6_stage1
I0418 17:28:32.512934  4200 net.cpp:395] relu6_stage1 -> conv6_stage1 (in-place)
I0418 17:28:32.512950  4200 net.cpp:150] Setting up relu6_stage1
I0418 17:28:32.512964  4200 net.cpp:157] Top shape: 1 512 46 46 (1083392)
I0418 17:28:32.512974  4200 net.cpp:165] Memory required for data: 230271584
I0418 17:28:32.512984  4200 layer_factory.hpp:77] Creating layer conv7_stage1
I0418 17:28:32.513006  4200 net.cpp:100] Creating Layer conv7_stage1
I0418 17:28:32.513018  4200 net.cpp:434] conv7_stage1 <- conv6_stage1
I0418 17:28:32.513032  4200 net.cpp:408] conv7_stage1 -> conv7_stage1
I0418 17:28:32.513670  4200 net.cpp:150] Setting up conv7_stage1
I0418 17:28:32.513694  4200 net.cpp:157] Top shape: 1 15 46 46 (31740)
I0418 17:28:32.513705  4200 net.cpp:165] Memory required for data: 230398544
I0418 17:28:32.513720  4200 layer_factory.hpp:77] Creating layer conv1_stage2
I0418 17:28:32.513742  4200 net.cpp:100] Creating Layer conv1_stage2
I0418 17:28:32.513756  4200 net.cpp:434] conv1_stage2 <- image_image_0_split_1
I0418 17:28:32.513770  4200 net.cpp:408] conv1_stage2 -> conv1_stage2
I0418 17:28:32.516170  4200 net.cpp:150] Setting up conv1_stage2
I0418 17:28:32.516196  4200 net.cpp:157] Top shape: 1 128 368 368 (17334272)
I0418 17:28:32.516207  4200 net.cpp:165] Memory required for data: 299735632
I0418 17:28:32.516223  4200 layer_factory.hpp:77] Creating layer relu1_stage2
I0418 17:28:32.516242  4200 net.cpp:100] Creating Layer relu1_stage2
I0418 17:28:32.516254  4200 net.cpp:434] relu1_stage2 <- conv1_stage2
I0418 17:28:32.516268  4200 net.cpp:395] relu1_stage2 -> conv1_stage2 (in-place)
I0418 17:28:32.516283  4200 net.cpp:150] Setting up relu1_stage2
I0418 17:28:32.516297  4200 net.cpp:157] Top shape: 1 128 368 368 (17334272)
I0418 17:28:32.516307  4200 net.cpp:165] Memory required for data: 369072720
I0418 17:28:32.516319  4200 layer_factory.hpp:77] Creating layer pool1_stage2
I0418 17:28:32.516337  4200 net.cpp:100] Creating Layer pool1_stage2
I0418 17:28:32.516348  4200 net.cpp:434] pool1_stage2 <- conv1_stage2
I0418 17:28:32.516361  4200 net.cpp:408] pool1_stage2 -> pool1_stage2
I0418 17:28:32.516425  4200 net.cpp:150] Setting up pool1_stage2
I0418 17:28:32.516443  4200 net.cpp:157] Top shape: 1 128 184 184 (4333568)
I0418 17:28:32.516454  4200 net.cpp:165] Memory required for data: 386406992
I0418 17:28:32.516465  4200 layer_factory.hpp:77] Creating layer conv2_stage2
I0418 17:28:32.516489  4200 net.cpp:100] Creating Layer conv2_stage2
I0418 17:28:32.516500  4200 net.cpp:434] conv2_stage2 <- pool1_stage2
I0418 17:28:32.516515  4200 net.cpp:408] conv2_stage2 -> conv2_stage2
I0418 17:28:32.575764  4200 net.cpp:150] Setting up conv2_stage2
I0418 17:28:32.575794  4200 net.cpp:157] Top shape: 1 128 184 184 (4333568)
I0418 17:28:32.575805  4200 net.cpp:165] Memory required for data: 403741264
I0418 17:28:32.575826  4200 layer_factory.hpp:77] Creating layer relu2_stage2
I0418 17:28:32.575846  4200 net.cpp:100] Creating Layer relu2_stage2
I0418 17:28:32.575860  4200 net.cpp:434] relu2_stage2 <- conv2_stage2
I0418 17:28:32.575872  4200 net.cpp:395] relu2_stage2 -> conv2_stage2 (in-place)
I0418 17:28:32.575888  4200 net.cpp:150] Setting up relu2_stage2
I0418 17:28:32.575901  4200 net.cpp:157] Top shape: 1 128 184 184 (4333568)
I0418 17:28:32.575912  4200 net.cpp:165] Memory required for data: 421075536
I0418 17:28:32.575922  4200 layer_factory.hpp:77] Creating layer pool2_stage2
I0418 17:28:32.575937  4200 net.cpp:100] Creating Layer pool2_stage2
I0418 17:28:32.575947  4200 net.cpp:434] pool2_stage2 <- conv2_stage2
I0418 17:28:32.575966  4200 net.cpp:408] pool2_stage2 -> pool2_stage2
I0418 17:28:32.576025  4200 net.cpp:150] Setting up pool2_stage2
I0418 17:28:32.576052  4200 net.cpp:157] Top shape: 1 128 92 92 (1083392)
I0418 17:28:32.576063  4200 net.cpp:165] Memory required for data: 425409104
I0418 17:28:32.576074  4200 layer_factory.hpp:77] Creating layer conv3_stage2
I0418 17:28:32.576098  4200 net.cpp:100] Creating Layer conv3_stage2
I0418 17:28:32.576113  4200 net.cpp:434] conv3_stage2 <- pool2_stage2
I0418 17:28:32.576129  4200 net.cpp:408] conv3_stage2 -> conv3_stage2
I0418 17:28:32.635571  4200 net.cpp:150] Setting up conv3_stage2
I0418 17:28:32.635617  4200 net.cpp:157] Top shape: 1 128 92 92 (1083392)
I0418 17:28:32.635629  4200 net.cpp:165] Memory required for data: 429742672
I0418 17:28:32.635648  4200 layer_factory.hpp:77] Creating layer relu3_stage2
I0418 17:28:32.635664  4200 net.cpp:100] Creating Layer relu3_stage2
I0418 17:28:32.635677  4200 net.cpp:434] relu3_stage2 <- conv3_stage2
I0418 17:28:32.635691  4200 net.cpp:395] relu3_stage2 -> conv3_stage2 (in-place)
I0418 17:28:32.635709  4200 net.cpp:150] Setting up relu3_stage2
I0418 17:28:32.635721  4200 net.cpp:157] Top shape: 1 128 92 92 (1083392)
I0418 17:28:32.635732  4200 net.cpp:165] Memory required for data: 434076240
I0418 17:28:32.635743  4200 layer_factory.hpp:77] Creating layer pool3_stage2
I0418 17:28:32.635757  4200 net.cpp:100] Creating Layer pool3_stage2
I0418 17:28:32.635767  4200 net.cpp:434] pool3_stage2 <- conv3_stage2
I0418 17:28:32.635785  4200 net.cpp:408] pool3_stage2 -> pool3_stage2
I0418 17:28:32.635846  4200 net.cpp:150] Setting up pool3_stage2
I0418 17:28:32.635864  4200 net.cpp:157] Top shape: 1 128 46 46 (270848)
I0418 17:28:32.635875  4200 net.cpp:165] Memory required for data: 435159632
I0418 17:28:32.635886  4200 layer_factory.hpp:77] Creating layer pool3_stage2_pool3_stage2_0_split
I0418 17:28:32.635906  4200 net.cpp:100] Creating Layer pool3_stage2_pool3_stage2_0_split
I0418 17:28:32.635918  4200 net.cpp:434] pool3_stage2_pool3_stage2_0_split <- pool3_stage2
I0418 17:28:32.635931  4200 net.cpp:408] pool3_stage2_pool3_stage2_0_split -> pool3_stage2_pool3_stage2_0_split_0
I0418 17:28:32.635951  4200 net.cpp:408] pool3_stage2_pool3_stage2_0_split -> pool3_stage2_pool3_stage2_0_split_1
I0418 17:28:32.635967  4200 net.cpp:408] pool3_stage2_pool3_stage2_0_split -> pool3_stage2_pool3_stage2_0_split_2
I0418 17:28:32.635982  4200 net.cpp:408] pool3_stage2_pool3_stage2_0_split -> pool3_stage2_pool3_stage2_0_split_3
I0418 17:28:32.635996  4200 net.cpp:408] pool3_stage2_pool3_stage2_0_split -> pool3_stage2_pool3_stage2_0_split_4
I0418 17:28:32.636096  4200 net.cpp:150] Setting up pool3_stage2_pool3_stage2_0_split
I0418 17:28:32.636116  4200 net.cpp:157] Top shape: 1 128 46 46 (270848)
I0418 17:28:32.636129  4200 net.cpp:157] Top shape: 1 128 46 46 (270848)
I0418 17:28:32.636142  4200 net.cpp:157] Top shape: 1 128 46 46 (270848)
I0418 17:28:32.636152  4200 net.cpp:157] Top shape: 1 128 46 46 (270848)
I0418 17:28:32.636164  4200 net.cpp:157] Top shape: 1 128 46 46 (270848)
I0418 17:28:32.636174  4200 net.cpp:165] Memory required for data: 440576592
I0418 17:28:32.636185  4200 layer_factory.hpp:77] Creating layer conv4_stage2
I0418 17:28:32.636209  4200 net.cpp:100] Creating Layer conv4_stage2
I0418 17:28:32.636222  4200 net.cpp:434] conv4_stage2 <- pool3_stage2_pool3_stage2_0_split_0
I0418 17:28:32.636240  4200 net.cpp:408] conv4_stage2 -> conv4_stage2
I0418 17:28:32.640947  4200 net.cpp:150] Setting up conv4_stage2
I0418 17:28:32.640971  4200 net.cpp:157] Top shape: 1 32 46 46 (67712)
I0418 17:28:32.640983  4200 net.cpp:165] Memory required for data: 440847440
I0418 17:28:32.640998  4200 layer_factory.hpp:77] Creating layer relu4_stage2
I0418 17:28:32.641023  4200 net.cpp:100] Creating Layer relu4_stage2
I0418 17:28:32.641036  4200 net.cpp:434] relu4_stage2 <- conv4_stage2
I0418 17:28:32.641049  4200 net.cpp:395] relu4_stage2 -> conv4_stage2 (in-place)
I0418 17:28:32.641064  4200 net.cpp:150] Setting up relu4_stage2
I0418 17:28:32.641077  4200 net.cpp:157] Top shape: 1 32 46 46 (67712)
I0418 17:28:32.641088  4200 net.cpp:165] Memory required for data: 441118288
I0418 17:28:32.641110  4200 layer_factory.hpp:77] Creating layer concat_stage2
I0418 17:28:32.641136  4200 net.cpp:100] Creating Layer concat_stage2
I0418 17:28:32.641147  4200 net.cpp:434] concat_stage2 <- conv4_stage2
I0418 17:28:32.641160  4200 net.cpp:434] concat_stage2 <- conv7_stage1
I0418 17:28:32.641171  4200 net.cpp:434] concat_stage2 <- pool_center_lower_pool_center_lower_0_split_0
I0418 17:28:32.641188  4200 net.cpp:408] concat_stage2 -> concat_stage2
I0418 17:28:32.641242  4200 net.cpp:150] Setting up concat_stage2
I0418 17:28:32.641260  4200 net.cpp:157] Top shape: 1 48 46 46 (101568)
I0418 17:28:32.641270  4200 net.cpp:165] Memory required for data: 441524560
I0418 17:28:32.641281  4200 layer_factory.hpp:77] Creating layer Mconv1_stage2
I0418 17:28:32.641302  4200 net.cpp:100] Creating Layer Mconv1_stage2
I0418 17:28:32.641315  4200 net.cpp:434] Mconv1_stage2 <- concat_stage2
I0418 17:28:32.641337  4200 net.cpp:408] Mconv1_stage2 -> Mconv1_stage2
I0418 17:28:32.676787  4200 net.cpp:150] Setting up Mconv1_stage2
I0418 17:28:32.676841  4200 net.cpp:157] Top shape: 1 128 46 46 (270848)
I0418 17:28:32.676861  4200 net.cpp:165] Memory required for data: 442607952
I0418 17:28:32.676909  4200 layer_factory.hpp:77] Creating layer Mrelu1_stage2
I0418 17:28:32.676936  4200 net.cpp:100] Creating Layer Mrelu1_stage2
I0418 17:28:32.676970  4200 net.cpp:434] Mrelu1_stage2 <- Mconv1_stage2
I0418 17:28:32.676990  4200 net.cpp:395] Mrelu1_stage2 -> Mconv1_stage2 (in-place)
I0418 17:28:32.677006  4200 net.cpp:150] Setting up Mrelu1_stage2
I0418 17:28:32.677019  4200 net.cpp:157] Top shape: 1 128 46 46 (270848)
I0418 17:28:32.677031  4200 net.cpp:165] Memory required for data: 443691344
I0418 17:28:32.677040  4200 layer_factory.hpp:77] Creating layer Mconv2_stage2
I0418 17:28:32.677072  4200 net.cpp:100] Creating Layer Mconv2_stage2
I0418 17:28:32.677085  4200 net.cpp:434] Mconv2_stage2 <- Mconv1_stage2
I0418 17:28:32.677100  4200 net.cpp:408] Mconv2_stage2 -> Mconv2_stage2
I0418 17:28:32.765800  4200 net.cpp:150] Setting up Mconv2_stage2
I0418 17:28:32.765846  4200 net.cpp:157] Top shape: 1 128 46 46 (270848)
I0418 17:28:32.765857  4200 net.cpp:165] Memory required for data: 444774736
I0418 17:28:32.765877  4200 layer_factory.hpp:77] Creating layer Mrelu2_stage2
I0418 17:28:32.765911  4200 net.cpp:100] Creating Layer Mrelu2_stage2
I0418 17:28:32.765925  4200 net.cpp:434] Mrelu2_stage2 <- Mconv2_stage2
I0418 17:28:32.765944  4200 net.cpp:395] Mrelu2_stage2 -> Mconv2_stage2 (in-place)
I0418 17:28:32.765962  4200 net.cpp:150] Setting up Mrelu2_stage2
I0418 17:28:32.765976  4200 net.cpp:157] Top shape: 1 128 46 46 (270848)
I0418 17:28:32.765986  4200 net.cpp:165] Memory required for data: 445858128
I0418 17:28:32.765997  4200 layer_factory.hpp:77] Creating layer Mconv3_stage2
I0418 17:28:32.766038  4200 net.cpp:100] Creating Layer Mconv3_stage2
I0418 17:28:32.766052  4200 net.cpp:434] Mconv3_stage2 <- Mconv2_stage2
I0418 17:28:32.766072  4200 net.cpp:408] Mconv3_stage2 -> Mconv3_stage2
I0418 17:28:32.854735  4200 net.cpp:150] Setting up Mconv3_stage2
I0418 17:28:32.854781  4200 net.cpp:157] Top shape: 1 128 46 46 (270848)
I0418 17:28:32.854794  4200 net.cpp:165] Memory required for data: 446941520
I0418 17:28:32.854813  4200 layer_factory.hpp:77] Creating layer Mrelu3_stage2
I0418 17:28:32.854835  4200 net.cpp:100] Creating Layer Mrelu3_stage2
I0418 17:28:32.854847  4200 net.cpp:434] Mrelu3_stage2 <- Mconv3_stage2
I0418 17:28:32.854863  4200 net.cpp:395] Mrelu3_stage2 -> Mconv3_stage2 (in-place)
I0418 17:28:32.854885  4200 net.cpp:150] Setting up Mrelu3_stage2
I0418 17:28:32.854900  4200 net.cpp:157] Top shape: 1 128 46 46 (270848)
I0418 17:28:32.854910  4200 net.cpp:165] Memory required for data: 448024912
I0418 17:28:32.854921  4200 layer_factory.hpp:77] Creating layer Mconv4_stage2
I0418 17:28:32.854954  4200 net.cpp:100] Creating Layer Mconv4_stage2
I0418 17:28:32.854969  4200 net.cpp:434] Mconv4_stage2 <- Mconv3_stage2
I0418 17:28:32.854986  4200 net.cpp:408] Mconv4_stage2 -> Mconv4_stage2
I0418 17:28:32.856061  4200 net.cpp:150] Setting up Mconv4_stage2
I0418 17:28:32.856099  4200 net.cpp:157] Top shape: 1 128 46 46 (270848)
I0418 17:28:32.856111  4200 net.cpp:165] Memory required for data: 449108304
I0418 17:28:32.856127  4200 layer_factory.hpp:77] Creating layer Mrelu4_stage2
I0418 17:28:32.856140  4200 net.cpp:100] Creating Layer Mrelu4_stage2
I0418 17:28:32.856151  4200 net.cpp:434] Mrelu4_stage2 <- Mconv4_stage2
I0418 17:28:32.856164  4200 net.cpp:395] Mrelu4_stage2 -> Mconv4_stage2 (in-place)
I0418 17:28:32.856179  4200 net.cpp:150] Setting up Mrelu4_stage2
I0418 17:28:32.856191  4200 net.cpp:157] Top shape: 1 128 46 46 (270848)
I0418 17:28:32.856202  4200 net.cpp:165] Memory required for data: 450191696
I0418 17:28:32.856212  4200 layer_factory.hpp:77] Creating layer Mconv5_stage2
I0418 17:28:32.856241  4200 net.cpp:100] Creating Layer Mconv5_stage2
I0418 17:28:32.856257  4200 net.cpp:434] Mconv5_stage2 <- Mconv4_stage2
I0418 17:28:32.856272  4200 net.cpp:408] Mconv5_stage2 -> Mconv5_stage2
I0418 17:28:32.856668  4200 net.cpp:150] Setting up Mconv5_stage2
I0418 17:28:32.856690  4200 net.cpp:157] Top shape: 1 15 46 46 (31740)
I0418 17:28:32.856701  4200 net.cpp:165] Memory required for data: 450318656
I0418 17:28:32.856716  4200 layer_factory.hpp:77] Creating layer conv1_stage3
I0418 17:28:32.856745  4200 net.cpp:100] Creating Layer conv1_stage3
I0418 17:28:32.856782  4200 net.cpp:434] conv1_stage3 <- pool3_stage2_pool3_stage2_0_split_1
I0418 17:28:32.856813  4200 net.cpp:408] conv1_stage3 -> conv1_stage3
I0418 17:28:32.862419  4200 net.cpp:150] Setting up conv1_stage3
I0418 17:28:32.862447  4200 net.cpp:157] Top shape: 1 32 46 46 (67712)
I0418 17:28:32.862457  4200 net.cpp:165] Memory required for data: 450589504
I0418 17:28:32.862517  4200 layer_factory.hpp:77] Creating layer relu1_stage3
I0418 17:28:32.862535  4200 net.cpp:100] Creating Layer relu1_stage3
I0418 17:28:32.862547  4200 net.cpp:434] relu1_stage3 <- conv1_stage3
I0418 17:28:32.862560  4200 net.cpp:395] relu1_stage3 -> conv1_stage3 (in-place)
I0418 17:28:32.862576  4200 net.cpp:150] Setting up relu1_stage3
I0418 17:28:32.862588  4200 net.cpp:157] Top shape: 1 32 46 46 (67712)
I0418 17:28:32.862599  4200 net.cpp:165] Memory required for data: 450860352
I0418 17:28:32.862609  4200 layer_factory.hpp:77] Creating layer concat_stage3
I0418 17:28:32.862632  4200 net.cpp:100] Creating Layer concat_stage3
I0418 17:28:32.862643  4200 net.cpp:434] concat_stage3 <- conv1_stage3
I0418 17:28:32.862655  4200 net.cpp:434] concat_stage3 <- Mconv5_stage2
I0418 17:28:32.862668  4200 net.cpp:434] concat_stage3 <- pool_center_lower_pool_center_lower_0_split_1
I0418 17:28:32.862685  4200 net.cpp:408] concat_stage3 -> concat_stage3
I0418 17:28:32.862730  4200 net.cpp:150] Setting up concat_stage3
I0418 17:28:32.862753  4200 net.cpp:157] Top shape: 1 48 46 46 (101568)
I0418 17:28:32.862764  4200 net.cpp:165] Memory required for data: 451266624
I0418 17:28:32.862774  4200 layer_factory.hpp:77] Creating layer Mconv1_stage3
I0418 17:28:32.862792  4200 net.cpp:100] Creating Layer Mconv1_stage3
I0418 17:28:32.862804  4200 net.cpp:434] Mconv1_stage3 <- concat_stage3
I0418 17:28:32.862823  4200 net.cpp:408] Mconv1_stage3 -> Mconv1_stage3
I0418 17:28:32.894120  4200 net.cpp:150] Setting up Mconv1_stage3
I0418 17:28:32.894143  4200 net.cpp:157] Top shape: 1 128 46 46 (270848)
I0418 17:28:32.894153  4200 net.cpp:165] Memory required for data: 452350016
I0418 17:28:32.894167  4200 layer_factory.hpp:77] Creating layer Mrelu1_stage3
I0418 17:28:32.894181  4200 net.cpp:100] Creating Layer Mrelu1_stage3
I0418 17:28:32.894191  4200 net.cpp:434] Mrelu1_stage3 <- Mconv1_stage3
I0418 17:28:32.894202  4200 net.cpp:395] Mrelu1_stage3 -> Mconv1_stage3 (in-place)
I0418 17:28:32.894215  4200 net.cpp:150] Setting up Mrelu1_stage3
I0418 17:28:32.894227  4200 net.cpp:157] Top shape: 1 128 46 46 (270848)
I0418 17:28:32.894237  4200 net.cpp:165] Memory required for data: 453433408
I0418 17:28:32.894258  4200 layer_factory.hpp:77] Creating layer Mconv2_stage3
I0418 17:28:32.894285  4200 net.cpp:100] Creating Layer Mconv2_stage3
I0418 17:28:32.894304  4200 net.cpp:434] Mconv2_stage3 <- Mconv1_stage3
I0418 17:28:32.894325  4200 net.cpp:408] Mconv2_stage3 -> Mconv2_stage3
I0418 17:28:32.975191  4200 net.cpp:150] Setting up Mconv2_stage3
I0418 17:28:32.975234  4200 net.cpp:157] Top shape: 1 128 46 46 (270848)
I0418 17:28:32.975245  4200 net.cpp:165] Memory required for data: 454516800
I0418 17:28:32.975262  4200 layer_factory.hpp:77] Creating layer Mrelu2_stage3
I0418 17:28:32.975281  4200 net.cpp:100] Creating Layer Mrelu2_stage3
I0418 17:28:32.975293  4200 net.cpp:434] Mrelu2_stage3 <- Mconv2_stage3
I0418 17:28:32.975306  4200 net.cpp:395] Mrelu2_stage3 -> Mconv2_stage3 (in-place)
I0418 17:28:32.975323  4200 net.cpp:150] Setting up Mrelu2_stage3
I0418 17:28:32.975334  4200 net.cpp:157] Top shape: 1 128 46 46 (270848)
I0418 17:28:32.975344  4200 net.cpp:165] Memory required for data: 455600192
I0418 17:28:32.975353  4200 layer_factory.hpp:77] Creating layer Mconv3_stage3
I0418 17:28:32.975388  4200 net.cpp:100] Creating Layer Mconv3_stage3
I0418 17:28:32.975399  4200 net.cpp:434] Mconv3_stage3 <- Mconv2_stage3
I0418 17:28:32.975415  4200 net.cpp:408] Mconv3_stage3 -> Mconv3_stage3
I0418 17:28:33.053319  4200 net.cpp:150] Setting up Mconv3_stage3
I0418 17:28:33.053352  4200 net.cpp:157] Top shape: 1 128 46 46 (270848)
I0418 17:28:33.053364  4200 net.cpp:165] Memory required for data: 456683584
I0418 17:28:33.053378  4200 layer_factory.hpp:77] Creating layer Mrelu3_stage3
I0418 17:28:33.053407  4200 net.cpp:100] Creating Layer Mrelu3_stage3
I0418 17:28:33.053418  4200 net.cpp:434] Mrelu3_stage3 <- Mconv3_stage3
I0418 17:28:33.053431  4200 net.cpp:395] Mrelu3_stage3 -> Mconv3_stage3 (in-place)
I0418 17:28:33.053445  4200 net.cpp:150] Setting up Mrelu3_stage3
I0418 17:28:33.053457  4200 net.cpp:157] Top shape: 1 128 46 46 (270848)
I0418 17:28:33.053467  4200 net.cpp:165] Memory required for data: 457766976
I0418 17:28:33.053477  4200 layer_factory.hpp:77] Creating layer Mconv4_stage3
I0418 17:28:33.053501  4200 net.cpp:100] Creating Layer Mconv4_stage3
I0418 17:28:33.053514  4200 net.cpp:434] Mconv4_stage3 <- Mconv3_stage3
I0418 17:28:33.053529  4200 net.cpp:408] Mconv4_stage3 -> Mconv4_stage3
I0418 17:28:33.054415  4200 net.cpp:150] Setting up Mconv4_stage3
I0418 17:28:33.054435  4200 net.cpp:157] Top shape: 1 128 46 46 (270848)
I0418 17:28:33.054445  4200 net.cpp:165] Memory required for data: 458850368
I0418 17:28:33.054457  4200 layer_factory.hpp:77] Creating layer Mrelu4_stage3
I0418 17:28:33.054471  4200 net.cpp:100] Creating Layer Mrelu4_stage3
I0418 17:28:33.054481  4200 net.cpp:434] Mrelu4_stage3 <- Mconv4_stage3
I0418 17:28:33.054491  4200 net.cpp:395] Mrelu4_stage3 -> Mconv4_stage3 (in-place)
I0418 17:28:33.054504  4200 net.cpp:150] Setting up Mrelu4_stage3
I0418 17:28:33.054515  4200 net.cpp:157] Top shape: 1 128 46 46 (270848)
I0418 17:28:33.054524  4200 net.cpp:165] Memory required for data: 459933760
I0418 17:28:33.054533  4200 layer_factory.hpp:77] Creating layer Mconv5_stage3
I0418 17:28:33.054569  4200 net.cpp:100] Creating Layer Mconv5_stage3
I0418 17:28:33.054580  4200 net.cpp:434] Mconv5_stage3 <- Mconv4_stage3
I0418 17:28:33.054594  4200 net.cpp:408] Mconv5_stage3 -> Mconv5_stage3
I0418 17:28:33.054935  4200 net.cpp:150] Setting up Mconv5_stage3
I0418 17:28:33.054955  4200 net.cpp:157] Top shape: 1 15 46 46 (31740)
I0418 17:28:33.054965  4200 net.cpp:165] Memory required for data: 460060720
I0418 17:28:33.054985  4200 layer_factory.hpp:77] Creating layer conv1_stage4
I0418 17:28:33.055011  4200 net.cpp:100] Creating Layer conv1_stage4
I0418 17:28:33.055023  4200 net.cpp:434] conv1_stage4 <- pool3_stage2_pool3_stage2_0_split_2
I0418 17:28:33.055040  4200 net.cpp:408] conv1_stage4 -> conv1_stage4
I0418 17:28:33.059182  4200 net.cpp:150] Setting up conv1_stage4
I0418 17:28:33.059203  4200 net.cpp:157] Top shape: 1 32 46 46 (67712)
I0418 17:28:33.059213  4200 net.cpp:165] Memory required for data: 460331568
I0418 17:28:33.059227  4200 layer_factory.hpp:77] Creating layer relu1_stage4
I0418 17:28:33.059242  4200 net.cpp:100] Creating Layer relu1_stage4
I0418 17:28:33.059267  4200 net.cpp:434] relu1_stage4 <- conv1_stage4
I0418 17:28:33.059280  4200 net.cpp:395] relu1_stage4 -> conv1_stage4 (in-place)
I0418 17:28:33.059293  4200 net.cpp:150] Setting up relu1_stage4
I0418 17:28:33.059305  4200 net.cpp:157] Top shape: 1 32 46 46 (67712)
I0418 17:28:33.059314  4200 net.cpp:165] Memory required for data: 460602416
I0418 17:28:33.059324  4200 layer_factory.hpp:77] Creating layer concat_stage4
I0418 17:28:33.059346  4200 net.cpp:100] Creating Layer concat_stage4
I0418 17:28:33.059357  4200 net.cpp:434] concat_stage4 <- conv1_stage4
I0418 17:28:33.059367  4200 net.cpp:434] concat_stage4 <- Mconv5_stage3
I0418 17:28:33.059378  4200 net.cpp:434] concat_stage4 <- pool_center_lower_pool_center_lower_0_split_2
I0418 17:28:33.059391  4200 net.cpp:408] concat_stage4 -> concat_stage4
I0418 17:28:33.059432  4200 net.cpp:150] Setting up concat_stage4
I0418 17:28:33.059448  4200 net.cpp:157] Top shape: 1 48 46 46 (101568)
I0418 17:28:33.059458  4200 net.cpp:165] Memory required for data: 461008688
I0418 17:28:33.059473  4200 layer_factory.hpp:77] Creating layer Mconv1_stage4
I0418 17:28:33.059502  4200 net.cpp:100] Creating Layer Mconv1_stage4
I0418 17:28:33.059514  4200 net.cpp:434] Mconv1_stage4 <- concat_stage4
I0418 17:28:33.059526  4200 net.cpp:408] Mconv1_stage4 -> Mconv1_stage4
I0418 17:28:33.089586  4200 net.cpp:150] Setting up Mconv1_stage4
I0418 17:28:33.089620  4200 net.cpp:157] Top shape: 1 128 46 46 (270848)
I0418 17:28:33.089632  4200 net.cpp:165] Memory required for data: 462092080
I0418 17:28:33.089648  4200 layer_factory.hpp:77] Creating layer Mrelu1_stage4
I0418 17:28:33.089663  4200 net.cpp:100] Creating Layer Mrelu1_stage4
I0418 17:28:33.089673  4200 net.cpp:434] Mrelu1_stage4 <- Mconv1_stage4
I0418 17:28:33.089691  4200 net.cpp:395] Mrelu1_stage4 -> Mconv1_stage4 (in-place)
I0418 17:28:33.089707  4200 net.cpp:150] Setting up Mrelu1_stage4
I0418 17:28:33.089720  4200 net.cpp:157] Top shape: 1 128 46 46 (270848)
I0418 17:28:33.089728  4200 net.cpp:165] Memory required for data: 463175472
I0418 17:28:33.089738  4200 layer_factory.hpp:77] Creating layer Mconv2_stage4
I0418 17:28:33.089771  4200 net.cpp:100] Creating Layer Mconv2_stage4
I0418 17:28:33.089782  4200 net.cpp:434] Mconv2_stage4 <- Mconv1_stage4
I0418 17:28:33.089797  4200 net.cpp:408] Mconv2_stage4 -> Mconv2_stage4
I0418 17:28:33.170740  4200 net.cpp:150] Setting up Mconv2_stage4
I0418 17:28:33.170768  4200 net.cpp:157] Top shape: 1 128 46 46 (270848)
I0418 17:28:33.170778  4200 net.cpp:165] Memory required for data: 464258864
I0418 17:28:33.170792  4200 layer_factory.hpp:77] Creating layer Mrelu2_stage4
I0418 17:28:33.170807  4200 net.cpp:100] Creating Layer Mrelu2_stage4
I0418 17:28:33.170819  4200 net.cpp:434] Mrelu2_stage4 <- Mconv2_stage4
I0418 17:28:33.170833  4200 net.cpp:395] Mrelu2_stage4 -> Mconv2_stage4 (in-place)
I0418 17:28:33.170850  4200 net.cpp:150] Setting up Mrelu2_stage4
I0418 17:28:33.170861  4200 net.cpp:157] Top shape: 1 128 46 46 (270848)
I0418 17:28:33.170871  4200 net.cpp:165] Memory required for data: 465342256
I0418 17:28:33.170891  4200 layer_factory.hpp:77] Creating layer Mconv3_stage4
I0418 17:28:33.170912  4200 net.cpp:100] Creating Layer Mconv3_stage4
I0418 17:28:33.170922  4200 net.cpp:434] Mconv3_stage4 <- Mconv2_stage4
I0418 17:28:33.170936  4200 net.cpp:408] Mconv3_stage4 -> Mconv3_stage4
I0418 17:28:33.251778  4200 net.cpp:150] Setting up Mconv3_stage4
I0418 17:28:33.251828  4200 net.cpp:157] Top shape: 1 128 46 46 (270848)
I0418 17:28:33.251839  4200 net.cpp:165] Memory required for data: 466425648
I0418 17:28:33.251858  4200 layer_factory.hpp:77] Creating layer Mrelu3_stage4
I0418 17:28:33.251895  4200 net.cpp:100] Creating Layer Mrelu3_stage4
I0418 17:28:33.251909  4200 net.cpp:434] Mrelu3_stage4 <- Mconv3_stage4
I0418 17:28:33.251922  4200 net.cpp:395] Mrelu3_stage4 -> Mconv3_stage4 (in-place)
I0418 17:28:33.251941  4200 net.cpp:150] Setting up Mrelu3_stage4
I0418 17:28:33.251953  4200 net.cpp:157] Top shape: 1 128 46 46 (270848)
I0418 17:28:33.251982  4200 net.cpp:165] Memory required for data: 467509040
I0418 17:28:33.251993  4200 layer_factory.hpp:77] Creating layer Mconv4_stage4
I0418 17:28:33.252061  4200 net.cpp:100] Creating Layer Mconv4_stage4
I0418 17:28:33.252074  4200 net.cpp:434] Mconv4_stage4 <- Mconv3_stage4
I0418 17:28:33.252094  4200 net.cpp:408] Mconv4_stage4 -> Mconv4_stage4
I0418 17:28:33.253028  4200 net.cpp:150] Setting up Mconv4_stage4
I0418 17:28:33.253048  4200 net.cpp:157] Top shape: 1 128 46 46 (270848)
I0418 17:28:33.253058  4200 net.cpp:165] Memory required for data: 468592432
I0418 17:28:33.253090  4200 layer_factory.hpp:77] Creating layer Mrelu4_stage4
I0418 17:28:33.253113  4200 net.cpp:100] Creating Layer Mrelu4_stage4
I0418 17:28:33.253125  4200 net.cpp:434] Mrelu4_stage4 <- Mconv4_stage4
I0418 17:28:33.253137  4200 net.cpp:395] Mrelu4_stage4 -> Mconv4_stage4 (in-place)
I0418 17:28:33.253150  4200 net.cpp:150] Setting up Mrelu4_stage4
I0418 17:28:33.253162  4200 net.cpp:157] Top shape: 1 128 46 46 (270848)
I0418 17:28:33.253171  4200 net.cpp:165] Memory required for data: 469675824
I0418 17:28:33.253181  4200 layer_factory.hpp:77] Creating layer Mconv5_stage4
I0418 17:28:33.253206  4200 net.cpp:100] Creating Layer Mconv5_stage4
I0418 17:28:33.253217  4200 net.cpp:434] Mconv5_stage4 <- Mconv4_stage4
I0418 17:28:33.253233  4200 net.cpp:408] Mconv5_stage4 -> Mconv5_stage4
I0418 17:28:33.253600  4200 net.cpp:150] Setting up Mconv5_stage4
I0418 17:28:33.253621  4200 net.cpp:157] Top shape: 1 15 46 46 (31740)
I0418 17:28:33.253631  4200 net.cpp:165] Memory required for data: 469802784
I0418 17:28:33.253645  4200 layer_factory.hpp:77] Creating layer conv1_stage5
I0418 17:28:33.253664  4200 net.cpp:100] Creating Layer conv1_stage5
I0418 17:28:33.253682  4200 net.cpp:434] conv1_stage5 <- pool3_stage2_pool3_stage2_0_split_3
I0418 17:28:33.253697  4200 net.cpp:408] conv1_stage5 -> conv1_stage5
I0418 17:28:33.258693  4200 net.cpp:150] Setting up conv1_stage5
I0418 17:28:33.258718  4200 net.cpp:157] Top shape: 1 32 46 46 (67712)
I0418 17:28:33.258728  4200 net.cpp:165] Memory required for data: 470073632
I0418 17:28:33.258743  4200 layer_factory.hpp:77] Creating layer relu1_stage5
I0418 17:28:33.258755  4200 net.cpp:100] Creating Layer relu1_stage5
I0418 17:28:33.258766  4200 net.cpp:434] relu1_stage5 <- conv1_stage5
I0418 17:28:33.258781  4200 net.cpp:395] relu1_stage5 -> conv1_stage5 (in-place)
I0418 17:28:33.258797  4200 net.cpp:150] Setting up relu1_stage5
I0418 17:28:33.258810  4200 net.cpp:157] Top shape: 1 32 46 46 (67712)
I0418 17:28:33.258819  4200 net.cpp:165] Memory required for data: 470344480
I0418 17:28:33.258837  4200 layer_factory.hpp:77] Creating layer concat_stage5
I0418 17:28:33.258852  4200 net.cpp:100] Creating Layer concat_stage5
I0418 17:28:33.258862  4200 net.cpp:434] concat_stage5 <- conv1_stage5
I0418 17:28:33.258873  4200 net.cpp:434] concat_stage5 <- Mconv5_stage4
I0418 17:28:33.258884  4200 net.cpp:434] concat_stage5 <- pool_center_lower_pool_center_lower_0_split_3
I0418 17:28:33.258898  4200 net.cpp:408] concat_stage5 -> concat_stage5
I0418 17:28:33.258942  4200 net.cpp:150] Setting up concat_stage5
I0418 17:28:33.258960  4200 net.cpp:157] Top shape: 1 48 46 46 (101568)
I0418 17:28:33.258968  4200 net.cpp:165] Memory required for data: 470750752
I0418 17:28:33.258978  4200 layer_factory.hpp:77] Creating layer Mconv1_stage5
I0418 17:28:33.258997  4200 net.cpp:100] Creating Layer Mconv1_stage5
I0418 17:28:33.259009  4200 net.cpp:434] Mconv1_stage5 <- concat_stage5
I0418 17:28:33.259026  4200 net.cpp:408] Mconv1_stage5 -> Mconv1_stage5
I0418 17:28:33.289690  4200 net.cpp:150] Setting up Mconv1_stage5
I0418 17:28:33.289716  4200 net.cpp:157] Top shape: 1 128 46 46 (270848)
I0418 17:28:33.289728  4200 net.cpp:165] Memory required for data: 471834144
I0418 17:28:33.289743  4200 layer_factory.hpp:77] Creating layer Mrelu1_stage5
I0418 17:28:33.289757  4200 net.cpp:100] Creating Layer Mrelu1_stage5
I0418 17:28:33.289767  4200 net.cpp:434] Mrelu1_stage5 <- Mconv1_stage5
I0418 17:28:33.289779  4200 net.cpp:395] Mrelu1_stage5 -> Mconv1_stage5 (in-place)
I0418 17:28:33.289803  4200 net.cpp:150] Setting up Mrelu1_stage5
I0418 17:28:33.289816  4200 net.cpp:157] Top shape: 1 128 46 46 (270848)
I0418 17:28:33.289825  4200 net.cpp:165] Memory required for data: 472917536
I0418 17:28:33.289844  4200 layer_factory.hpp:77] Creating layer Mconv2_stage5
I0418 17:28:33.289870  4200 net.cpp:100] Creating Layer Mconv2_stage5
I0418 17:28:33.289882  4200 net.cpp:434] Mconv2_stage5 <- Mconv1_stage5
I0418 17:28:33.289898  4200 net.cpp:408] Mconv2_stage5 -> Mconv2_stage5
I0418 17:28:33.370587  4200 net.cpp:150] Setting up Mconv2_stage5
I0418 17:28:33.370628  4200 net.cpp:157] Top shape: 1 128 46 46 (270848)
I0418 17:28:33.370638  4200 net.cpp:165] Memory required for data: 474000928
I0418 17:28:33.370656  4200 layer_factory.hpp:77] Creating layer Mrelu2_stage5
I0418 17:28:33.370681  4200 net.cpp:100] Creating Layer Mrelu2_stage5
I0418 17:28:33.370692  4200 net.cpp:434] Mrelu2_stage5 <- Mconv2_stage5
I0418 17:28:33.370705  4200 net.cpp:395] Mrelu2_stage5 -> Mconv2_stage5 (in-place)
I0418 17:28:33.370720  4200 net.cpp:150] Setting up Mrelu2_stage5
I0418 17:28:33.370733  4200 net.cpp:157] Top shape: 1 128 46 46 (270848)
I0418 17:28:33.370741  4200 net.cpp:165] Memory required for data: 475084320
I0418 17:28:33.370750  4200 layer_factory.hpp:77] Creating layer Mconv3_stage5
I0418 17:28:33.370771  4200 net.cpp:100] Creating Layer Mconv3_stage5
I0418 17:28:33.370782  4200 net.cpp:434] Mconv3_stage5 <- Mconv2_stage5
I0418 17:28:33.370795  4200 net.cpp:408] Mconv3_stage5 -> Mconv3_stage5
I0418 17:28:33.448667  4200 net.cpp:150] Setting up Mconv3_stage5
I0418 17:28:33.448695  4200 net.cpp:157] Top shape: 1 128 46 46 (270848)
I0418 17:28:33.448705  4200 net.cpp:165] Memory required for data: 476167712
I0418 17:28:33.448720  4200 layer_factory.hpp:77] Creating layer Mrelu3_stage5
I0418 17:28:33.448735  4200 net.cpp:100] Creating Layer Mrelu3_stage5
I0418 17:28:33.448745  4200 net.cpp:434] Mrelu3_stage5 <- Mconv3_stage5
I0418 17:28:33.448760  4200 net.cpp:395] Mrelu3_stage5 -> Mconv3_stage5 (in-place)
I0418 17:28:33.448776  4200 net.cpp:150] Setting up Mrelu3_stage5
I0418 17:28:33.448787  4200 net.cpp:157] Top shape: 1 128 46 46 (270848)
I0418 17:28:33.448796  4200 net.cpp:165] Memory required for data: 477251104
I0418 17:28:33.448823  4200 layer_factory.hpp:77] Creating layer Mconv4_stage5
I0418 17:28:33.448849  4200 net.cpp:100] Creating Layer Mconv4_stage5
I0418 17:28:33.448860  4200 net.cpp:434] Mconv4_stage5 <- Mconv3_stage5
I0418 17:28:33.448873  4200 net.cpp:408] Mconv4_stage5 -> Mconv4_stage5
I0418 17:28:33.449843  4200 net.cpp:150] Setting up Mconv4_stage5
I0418 17:28:33.449865  4200 net.cpp:157] Top shape: 1 128 46 46 (270848)
I0418 17:28:33.449875  4200 net.cpp:165] Memory required for data: 478334496
I0418 17:28:33.449913  4200 layer_factory.hpp:77] Creating layer Mrelu4_stage5
I0418 17:28:33.449928  4200 net.cpp:100] Creating Layer Mrelu4_stage5
I0418 17:28:33.449939  4200 net.cpp:434] Mrelu4_stage5 <- Mconv4_stage5
I0418 17:28:33.449950  4200 net.cpp:395] Mrelu4_stage5 -> Mconv4_stage5 (in-place)
I0418 17:28:33.449965  4200 net.cpp:150] Setting up Mrelu4_stage5
I0418 17:28:33.449976  4200 net.cpp:157] Top shape: 1 128 46 46 (270848)
I0418 17:28:33.449985  4200 net.cpp:165] Memory required for data: 479417888
I0418 17:28:33.449995  4200 layer_factory.hpp:77] Creating layer Mconv5_stage5
I0418 17:28:33.450019  4200 net.cpp:100] Creating Layer Mconv5_stage5
I0418 17:28:33.450031  4200 net.cpp:434] Mconv5_stage5 <- Mconv4_stage5
I0418 17:28:33.450047  4200 net.cpp:408] Mconv5_stage5 -> Mconv5_stage5
I0418 17:28:33.450414  4200 net.cpp:150] Setting up Mconv5_stage5
I0418 17:28:33.450433  4200 net.cpp:157] Top shape: 1 15 46 46 (31740)
I0418 17:28:33.450443  4200 net.cpp:165] Memory required for data: 479544848
I0418 17:28:33.450458  4200 layer_factory.hpp:77] Creating layer conv1_stage6
I0418 17:28:33.450489  4200 net.cpp:100] Creating Layer conv1_stage6
I0418 17:28:33.450502  4200 net.cpp:434] conv1_stage6 <- pool3_stage2_pool3_stage2_0_split_4
I0418 17:28:33.450533  4200 net.cpp:408] conv1_stage6 -> conv1_stage6
I0418 17:28:33.454954  4200 net.cpp:150] Setting up conv1_stage6
I0418 17:28:33.454977  4200 net.cpp:157] Top shape: 1 32 46 46 (67712)
I0418 17:28:33.454988  4200 net.cpp:165] Memory required for data: 479815696
I0418 17:28:33.455003  4200 layer_factory.hpp:77] Creating layer relu1_stage6
I0418 17:28:33.455015  4200 net.cpp:100] Creating Layer relu1_stage6
I0418 17:28:33.455026  4200 net.cpp:434] relu1_stage6 <- conv1_stage6
I0418 17:28:33.455041  4200 net.cpp:395] relu1_stage6 -> conv1_stage6 (in-place)
I0418 17:28:33.455055  4200 net.cpp:150] Setting up relu1_stage6
I0418 17:28:33.455068  4200 net.cpp:157] Top shape: 1 32 46 46 (67712)
I0418 17:28:33.455077  4200 net.cpp:165] Memory required for data: 480086544
I0418 17:28:33.455086  4200 layer_factory.hpp:77] Creating layer concat_stage6
I0418 17:28:33.455111  4200 net.cpp:100] Creating Layer concat_stage6
I0418 17:28:33.455123  4200 net.cpp:434] concat_stage6 <- conv1_stage6
I0418 17:28:33.455134  4200 net.cpp:434] concat_stage6 <- Mconv5_stage5
I0418 17:28:33.455147  4200 net.cpp:434] concat_stage6 <- pool_center_lower_pool_center_lower_0_split_4
I0418 17:28:33.455159  4200 net.cpp:408] concat_stage6 -> concat_stage6
I0418 17:28:33.455204  4200 net.cpp:150] Setting up concat_stage6
I0418 17:28:33.455220  4200 net.cpp:157] Top shape: 1 48 46 46 (101568)
I0418 17:28:33.455229  4200 net.cpp:165] Memory required for data: 480492816
I0418 17:28:33.455240  4200 layer_factory.hpp:77] Creating layer Mconv1_stage6
I0418 17:28:33.455258  4200 net.cpp:100] Creating Layer Mconv1_stage6
I0418 17:28:33.455269  4200 net.cpp:434] Mconv1_stage6 <- concat_stage6
I0418 17:28:33.455286  4200 net.cpp:408] Mconv1_stage6 -> Mconv1_stage6
I0418 17:28:33.486260  4200 net.cpp:150] Setting up Mconv1_stage6
I0418 17:28:33.486285  4200 net.cpp:157] Top shape: 1 128 46 46 (270848)
I0418 17:28:33.486295  4200 net.cpp:165] Memory required for data: 481576208
I0418 17:28:33.486321  4200 layer_factory.hpp:77] Creating layer Mrelu1_stage6
I0418 17:28:33.486340  4200 net.cpp:100] Creating Layer Mrelu1_stage6
I0418 17:28:33.486351  4200 net.cpp:434] Mrelu1_stage6 <- Mconv1_stage6
I0418 17:28:33.486363  4200 net.cpp:395] Mrelu1_stage6 -> Mconv1_stage6 (in-place)
I0418 17:28:33.486377  4200 net.cpp:150] Setting up Mrelu1_stage6
I0418 17:28:33.486389  4200 net.cpp:157] Top shape: 1 128 46 46 (270848)
I0418 17:28:33.486398  4200 net.cpp:165] Memory required for data: 482659600
I0418 17:28:33.486408  4200 layer_factory.hpp:77] Creating layer Mconv2_stage6
I0418 17:28:33.486434  4200 net.cpp:100] Creating Layer Mconv2_stage6
I0418 17:28:33.486446  4200 net.cpp:434] Mconv2_stage6 <- Mconv1_stage6
I0418 17:28:33.486462  4200 net.cpp:408] Mconv2_stage6 -> Mconv2_stage6
I0418 17:28:33.567366  4200 net.cpp:150] Setting up Mconv2_stage6
I0418 17:28:33.567394  4200 net.cpp:157] Top shape: 1 128 46 46 (270848)
I0418 17:28:33.567404  4200 net.cpp:165] Memory required for data: 483742992
I0418 17:28:33.567418  4200 layer_factory.hpp:77] Creating layer Mrelu2_stage6
I0418 17:28:33.567435  4200 net.cpp:100] Creating Layer Mrelu2_stage6
I0418 17:28:33.567447  4200 net.cpp:434] Mrelu2_stage6 <- Mconv2_stage6
I0418 17:28:33.567459  4200 net.cpp:395] Mrelu2_stage6 -> Mconv2_stage6 (in-place)
I0418 17:28:33.567473  4200 net.cpp:150] Setting up Mrelu2_stage6
I0418 17:28:33.567486  4200 net.cpp:157] Top shape: 1 128 46 46 (270848)
I0418 17:28:33.567495  4200 net.cpp:165] Memory required for data: 484826384
I0418 17:28:33.567504  4200 layer_factory.hpp:77] Creating layer Mconv3_stage6
I0418 17:28:33.567523  4200 net.cpp:100] Creating Layer Mconv3_stage6
I0418 17:28:33.567535  4200 net.cpp:434] Mconv3_stage6 <- Mconv2_stage6
I0418 17:28:33.567548  4200 net.cpp:408] Mconv3_stage6 -> Mconv3_stage6
I0418 17:28:33.651937  4200 net.cpp:150] Setting up Mconv3_stage6
I0418 17:28:33.651995  4200 net.cpp:157] Top shape: 1 128 46 46 (270848)
I0418 17:28:33.652007  4200 net.cpp:165] Memory required for data: 485909776
I0418 17:28:33.652026  4200 layer_factory.hpp:77] Creating layer Mrelu3_stage6
I0418 17:28:33.652068  4200 net.cpp:100] Creating Layer Mrelu3_stage6
I0418 17:28:33.652081  4200 net.cpp:434] Mrelu3_stage6 <- Mconv3_stage6
I0418 17:28:33.652096  4200 net.cpp:395] Mrelu3_stage6 -> Mconv3_stage6 (in-place)
I0418 17:28:33.652115  4200 net.cpp:150] Setting up Mrelu3_stage6
I0418 17:28:33.652127  4200 net.cpp:157] Top shape: 1 128 46 46 (270848)
I0418 17:28:33.652137  4200 net.cpp:165] Memory required for data: 486993168
I0418 17:28:33.652148  4200 layer_factory.hpp:77] Creating layer Mconv4_stage6
I0418 17:28:33.652187  4200 net.cpp:100] Creating Layer Mconv4_stage6
I0418 17:28:33.652200  4200 net.cpp:434] Mconv4_stage6 <- Mconv3_stage6
I0418 17:28:33.652215  4200 net.cpp:408] Mconv4_stage6 -> Mconv4_stage6
I0418 17:28:33.653205  4200 net.cpp:150] Setting up Mconv4_stage6
I0418 17:28:33.653226  4200 net.cpp:157] Top shape: 1 128 46 46 (270848)
I0418 17:28:33.653236  4200 net.cpp:165] Memory required for data: 488076560
I0418 17:28:33.653260  4200 layer_factory.hpp:77] Creating layer Mrelu4_stage6
I0418 17:28:33.653275  4200 net.cpp:100] Creating Layer Mrelu4_stage6
I0418 17:28:33.653286  4200 net.cpp:434] Mrelu4_stage6 <- Mconv4_stage6
I0418 17:28:33.653298  4200 net.cpp:395] Mrelu4_stage6 -> Mconv4_stage6 (in-place)
I0418 17:28:33.653312  4200 net.cpp:150] Setting up Mrelu4_stage6
I0418 17:28:33.653326  4200 net.cpp:157] Top shape: 1 128 46 46 (270848)
I0418 17:28:33.653354  4200 net.cpp:165] Memory required for data: 489159952
I0418 17:28:33.653365  4200 layer_factory.hpp:77] Creating layer Mconv5_stage6
I0418 17:28:33.653388  4200 net.cpp:100] Creating Layer Mconv5_stage6
I0418 17:28:33.653410  4200 net.cpp:434] Mconv5_stage6 <- Mconv4_stage6
I0418 17:28:33.653424  4200 net.cpp:408] Mconv5_stage6 -> Mconv5_stage6
I0418 17:28:33.653807  4200 net.cpp:150] Setting up Mconv5_stage6
I0418 17:28:33.653827  4200 net.cpp:157] Top shape: 1 15 46 46 (31740)
I0418 17:28:33.653838  4200 net.cpp:165] Memory required for data: 489286912
I0418 17:28:33.653853  4200 net.cpp:228] Mconv5_stage6 does not need backward computation.
I0418 17:28:33.653864  4200 net.cpp:228] Mrelu4_stage6 does not need backward computation.
I0418 17:28:33.653874  4200 net.cpp:228] Mconv4_stage6 does not need backward computation.
I0418 17:28:33.653885  4200 net.cpp:228] Mrelu3_stage6 does not need backward computation.
…
