…
I0410 23:48:06.302362 39964 net.cpp:58] Initializing net from parameters: 
state {
  phase: TRAIN
  level: 0
  stage: ""
}
layer {
  name: "data"
  type: "CPMData"
  top: "data"
  top: "label"
  transform_param {
    crop_size: 368
    stride: 8
    max_rotate_degree: 40
    crop_size_x: 368
    crop_size_y: 368
    scale_prob: 1
    scale_min: 0.7
    scale_max: 1.3
    target_dist: 1.171
    center_perterb_max: 0
    do_clahe: false
    num_parts: 14
    np_in_lmdb: 14
    is_order_correct: true
  }
  data_param {
    source: "/home/lizhuowan/Market_CPM/lmdb_11000"
    batch_size: 8
    backend: LMDB
  }
}
layer {
  name: "label_lower"
  type: "Slice"
  bottom: "label"
  top: "label_lower"
  top: "label_1st_lower"
  slice_param {
    slice_point: 15
    axis: 1
  }
}
layer {
  name: "image"
  type: "Slice"
  bottom: "data"
  top: "image"
  top: "center_map"
  slice_param {
    slice_point: 3
    axis: 1
  }
}
layer {
  name: "pool_center_lower"
  type: "Pooling"
  bottom: "center_map"
  top: "pool_center_lower"
  pooling_param {
    pool: AVE
    kernel_size: 9
    stride: 8
  }
}
layer {
  name: "conv1_stage1"
  type: "Convolution"
  bottom: "image"
  top: "conv1_stage1"
  param {
    lr_mult: 5
    decay_mult: 1
  }
  param {
    lr_mult: 10
    decay_mult: 0
  }
  convolution_param {
    num_output: 128
    pad: 4
    kernel_size: 9
    weight_filler {
      type: "gaussian"
      std: 0.01
    }
    bias_filler {
      type: "constant"
    }
  }
}
layer {
  name: "relu1_stage1"
  type: "ReLU"
  bottom: "conv1_stage1"
  top: "conv1_stage1"
}
layer {
  name: "pool1_stage1"
  type: "Pooling"
  bottom: "conv1_stage1"
  top: "pool1_stage1"
  pooling_param {
    pool: MAX
    kernel_size: 3
    stride: 2
  }
}
layer {
  name: "conv2_stage1"
  type: "Convolution"
  bottom: "pool1_stage1"
  top: "conv2_stage1"
  param {
    lr_mult: 5
    decay_mult: 1
  }
  param {
    lr_mult: 10
    decay_mult: 0
  }
  convolution_param {
    num_output: 128
    pad: 4
    kernel_size: 9
    weight_filler {
      type: "gaussian"
      std: 0.01
    }
    bias_filler {
      type: "constant"
    }
  }
}
layer {
  name: "relu2_stage1"
  type: "ReLU"
  bottom: "conv2_stage1"
  top: "conv2_stage1"
}
layer {
  name: "pool2_stage1"
  type: "Pooling"
  bottom: "conv2_stage1"
  top: "pool2_stage1"
  pooling_param {
    pool: MAX
    kernel_size: 3
    stride: 2
  }
}
layer {
  name: "conv3_stage1"
  type: "Convolution"
  bottom: "pool2_stage1"
  top: "conv3_stage1"
  param {
    lr_mult: 5
    decay_mult: 1
  }
  param {
    lr_mult: 10
    decay_mult: 0
  }
  convolution_param {
    num_output: 128
    pad: 4
    kernel_size: 9
    weight_filler {
      type: "gaussian"
      std: 0.01
    }
    bias_filler {
      type: "constant"
    }
  }
}
layer {
  name: "relu3_stage1"
  type: "ReLU"
  bottom: "conv3_stage1"
  top: "conv3_stage1"
}
layer {
  name: "pool3_stage1"
  type: "Pooling"
  bottom: "conv3_stage1"
  top: "pool3_stage1"
  pooling_param {
    pool: MAX
    kernel_size: 3
    stride: 2
  }
}
layer {
  name: "conv4_stage1"
  type: "Convolution"
  bottom: "pool3_stage1"
  top: "conv4_stage1"
  param {
    lr_mult: 5
    decay_mult: 1
  }
  param {
    lr_mult: 10
    decay_mult: 0
  }
  convolution_param {
    num_output: 32
    pad: 2
    kernel_size: 5
    weight_filler {
      type: "gaussian"
      std: 0.01
    }
    bias_filler {
      type: "constant"
    }
  }
}
layer {
  name: "relu4_stage1"
  type: "ReLU"
  bottom: "conv4_stage1"
  top: "conv4_stage1"
}
layer {
  name: "conv5_stage1"
  type: "Convolution"
  bottom: "conv4_stage1"
  top: "conv5_stage1"
  param {
    lr_mult: 5
    decay_mult: 1
  }
  param {
    lr_mult: 10
    decay_mult: 0
  }
  convolution_param {
    num_output: 512
    pad: 4
    kernel_size: 9
    weight_filler {
      type: "gaussian"
      std: 0.01
    }
    bias_filler {
      type: "constant"
    }
  }
}
layer {
  name: "relu5_stage1"
  type: "ReLU"
  bottom: "conv5_stage1"
  top: "conv5_stage1"
}
layer {
  name: "drop1_stage1"
  type: "Dropout"
  bottom: "conv5_stage1"
  top: "conv5_stage1"
  dropout_param {
    dropout_ratio: 0.5
  }
}
layer {
  name: "conv6_stage1"
  type: "Convolution"
  bottom: "conv5_stage1"
  top: "conv6_stage1"
  param {
    lr_mult: 5
    decay_mult: 1
  }
  param {
    lr_mult: 10
    decay_mult: 0
  }
  convolution_param {
    num_output: 512
    pad: 0
    kernel_size: 1
    weight_filler {
      type: "gaussian"
      std: 0.01
    }
    bias_filler {
      type: "constant"
    }
  }
}
layer {
  name: "relu6_stage1"
  type: "ReLU"
  bottom: "conv6_stage1"
  top: "conv6_stage1"
}
layer {
  name: "drop2_stage1"
  type: "Dropout"
  bottom: "conv6_stage1"
  top: "conv6_stage1"
  dropout_param {
    dropout_ratio: 0.5
  }
}
layer {
  name: "conv7_stage1"
  type: "Convolution"
  bottom: "conv6_stage1"
  top: "conv7_stage1"
  param {
    lr_mult: 5
    decay_mult: 1
  }
  param {
    lr_mult: 10
    decay_mult: 0
  }
  convolution_param {
    num_output: 15
    pad: 0
    kernel_size: 1
    weight_filler {
      type: "gaussian"
      std: 0.01
    }
    bias_filler {
      type: "constant"
    }
  }
}
layer {
  name: "loss_stage1"
  type: "EuclideanLoss"
  bottom: "conv7_stage1"
  bottom: "label_1st_lower"
  top: "loss_stage1"
}
layer {
  name: "conv1_stage2"
  type: "Convolution"
  bottom: "image"
  top: "conv1_stage2"
  param {
    lr_mult: 1
    decay_mult: 1
  }
  param {
    lr_mult: 2
    decay_mult: 0
  }
  convolution_param {
    num_output: 128
    pad: 4
    kernel_size: 9
    weight_filler {
      type: "gaussian"
      std: 0.01
    }
    bias_filler {
      type: "constant"
    }
  }
}
layer {
  name: "relu1_stage2"
  type: "ReLU"
  bottom: "conv1_stage2"
  top: "conv1_stage2"
}
layer {
  name: "pool1_stage2"
  type: "Pooling"
  bottom: "conv1_stage2"
  top: "pool1_stage2"
  pooling_param {
    pool: MAX
    kernel_size: 3
    stride: 2
  }
}
layer {
  name: "conv2_stage2"
  type: "Convolution"
  bottom: "pool1_stage2"
  top: "conv2_stage2"
  param {
    lr_mult: 1
    decay_mult: 1
  }
  param {
    lr_mult: 2
    decay_mult: 0
  }
  convolution_param {
    num_output: 128
    pad: 4
    kernel_size: 9
    weight_filler {
      type: "gaussian"
      std: 0.01
    }
    bias_filler {
      type: "constant"
    }
  }
}
layer {
  name: "relu2_stage2"
  type: "ReLU"
  bottom: "conv2_stage2"
  top: "conv2_stage2"
}
layer {
  name: "pool2_stage2"
  type: "Pooling"
  bottom: "conv2_stage2"
  top: "pool2_stage2"
  pooling_param {
    pool: MAX
    kernel_size: 3
    stride: 2
  }
}
layer {
  name: "conv3_stage2"
  type: "Convolution"
  bottom: "pool2_stage2"
  top: "conv3_stage2"
  param {
    lr_mult: 1
    decay_mult: 1
  }
  param {
    lr_mult: 2
    decay_mult: 0
  }
  convolution_param {
    num_output: 128
    pad: 4
    kernel_size: 9
    weight_filler {
      type: "gaussian"
      std: 0.01
    }
    bias_filler {
      type: "constant"
    }
  }
}
layer {
  name: "relu3_stage2"
  type: "ReLU"
  bottom: "conv3_stage2"
  top: "conv3_stage2"
}
layer {
  name: "pool3_stage2"
  type: "Pooling"
  bottom: "conv3_stage2"
  top: "pool3_stage2"
  pooling_param {
    pool: MAX
    kernel_size: 3
    stride: 2
  }
}
layer {
  name: "conv4_stage2"
  type: "Convolution"
  bottom: "pool3_stage2"
  top: "conv4_stage2"
  param {
    lr_mult: 1
    decay_mult: 1
  }
  param {
    lr_mult: 2
    decay_mult: 0
  }
  convolution_param {
    num_output: 32
    pad: 2
    kernel_size: 5
    weight_filler {
      type: "gaussian"
      std: 0.01
    }
    bias_filler {
      type: "constant"
    }
  }
}
layer {
  name: "relu4_stage2"
  type: "ReLU"
  bottom: "conv4_stage2"
  top: "conv4_stage2"
}
layer {
  name: "concat_stage2"
  type: "Concat"
  bottom: "conv4_stage2"
  bottom: "conv7_stage1"
  bottom: "pool_center_lower"
  top: "concat_stage2"
  concat_param {
    axis: 1
  }
}
layer {
  name: "Mconv1_stage2"
  type: "Convolution"
  bottom: "concat_stage2"
  top: "Mconv1_stage2"
  param {
    lr_mult: 1
    decay_mult: 1
  }
  param {
    lr_mult: 2
    decay_mult: 0
  }
  convolution_param {
    num_output: 128
    pad: 5
    kernel_size: 11
    weight_filler {
      type: "gaussian"
      std: 0.01
    }
    bias_filler {
      type: "constant"
    }
  }
}
layer {
  name: "Mrelu1_stage2"
  type: "ReLU"
  bottom: "Mconv1_stage2"
  top: "Mconv1_stage2"
}
layer {
  name: "Mconv2_stage2"
  type: "Convolution"
  bottom: "Mconv1_stage2"
  top: "Mconv2_stage2"
  param {
    lr_mult: 1
    decay_mult: 1
  }
  param {
    lr_mult: 2
    decay_mult: 0
  }
  convolution_param {
    num_output: 128
    pad: 5
    kernel_size: 11
    weight_filler {
      type: "gaussian"
      std: 0.01
    }
    bias_filler {
      type: "constant"
    }
  }
}
layer {
  name: "Mrelu2_stage2"
  type: "ReLU"
  bottom: "Mconv2_stage2"
  top: "Mconv2_stage2"
}
layer {
  name: "Mconv3_stage2"
  type: "Convolution"
  bottom: "Mconv2_stage2"
  top: "Mconv3_stage2"
  param {
    lr_mult: 1
    decay_mult: 1
  }
  param {
    lr_mult: 2
    decay_mult: 0
  }
  convolution_param {
    num_output: 128
    pad: 5
    kernel_size: 11
    weight_filler {
      type: "gaussian"
      std: 0.01
    }
    bias_filler {
      type: "constant"
    }
  }
}
layer {
  name: "Mrelu3_stage2"
  type: "ReLU"
  bottom: "Mconv3_stage2"
  top: "Mconv3_stage2"
}
layer {
  name: "Mconv4_stage2"
  type: "Convolution"
  bottom: "Mconv3_stage2"
  top: "Mconv4_stage2"
  param {
    lr_mult: 1
    decay_mult: 1
  }
  param {
    lr_mult: 2
    decay_mult: 0
  }
  convolution_param {
    num_output: 128
    pad: 0
    kernel_size: 1
    weight_filler {
      type: "gaussian"
      std: 0.01
    }
    bias_filler {
      type: "constant"
    }
  }
}
layer {
  name: "Mrelu4_stage2"
  type: "ReLU"
  bottom: "Mconv4_stage2"
  top: "Mconv4_stage2"
}
layer {
  name: "Mconv5_stage2"
  type: "Convolution"
  bottom: "Mconv4_stage2"
  top: "Mconv5_stage2"
  param {
    lr_mult: 1
    decay_mult: 1
  }
  param {
    lr_mult: 2
    decay_mult: 0
  }
  convolution_param {
    num_output: 15
    pad: 0
    kernel_size: 1
    weight_filler {
      type: "gaussian"
      std: 0.01
    }
    bias_filler {
      type: "constant"
    }
  }
}
layer {
  name: "loss_stage2"
  type: "EuclideanLoss"
  bottom: "Mconv5_stage2"
  bottom: "label_lower"
  top: "loss_stage2"
}
layer {
  name: "conv1_stage3"
  type: "Convolution"
  bottom: "pool3_stage2"
  top: "conv1_stage3"
  param {
    lr_mult: 1
    decay_mult: 1
  }
  param {
    lr_mult: 2
    decay_mult: 0
  }
  convolution_param {
    num_output: 32
    pad: 2
    kernel_size: 5
    weight_filler {
      type: "gaussian"
      std: 0.01
    }
    bias_filler {
      type: "constant"
    }
  }
}
layer {
  name: "relu1_stage3"
  type: "ReLU"
  bottom: "conv1_stage3"
  top: "conv1_stage3"
}
layer {
  name: "concat_stage3"
  type: "Concat"
  bottom: "conv1_stage3"
  bottom: "Mconv5_stage2"
  bottom: "pool_center_lower"
  top: "concat_stage3"
  concat_param {
    axis: 1
  }
}
layer {
  name: "Mconv1_stage3"
  type: "Convolution"
  bottom: "concat_stage3"
  top: "Mconv1_stage3"
  param {
    lr_mult: 1
    decay_mult: 1
  }
  param {
    lr_mult: 2
    decay_mult: 0
  }
  convolution_param {
    num_output: 128
    pad: 5
    kernel_size: 11
    weight_filler {
      type: "gaussian"
      std: 0.01
    }
    bias_filler {
      type: "constant"
    }
  }
}
layer {
  name: "Mrelu1_stage3"
  type: "ReLU"
  bottom: "Mconv1_stage3"
  top: "Mconv1_stage3"
}
layer {
  name: "Mconv2_stage3"
  type: "Convolution"
  bottom: "Mconv1_stage3"
  top: "Mconv2_stage3"
  param {
    lr_mult: 1
    decay_mult: 1
  }
  param {
    lr_mult: 2
    decay_mult: 0
  }
  convolution_param {
    num_output: 128
    pad: 5
    kernel_size: 11
    weight_filler {
      type: "gaussian"
      std: 0.01
    }
    bias_filler {
      type: "constant"
    }
  }
}
layer {
  name: "Mrelu2_stage3"
  type: "ReLU"
  bottom: "Mconv2_stage3"
  top: "Mconv2_stage3"
}
layer {
  name: "Mconv3_stage3"
  type: "Convolution"
  bottom: "Mconv2_stage3"
  top: "Mconv3_stage3"
  param {
    lr_mult: 1
    decay_mult: 1
  }
  param {
    lr_mult: 2
    decay_mult: 0
  }
  convolution_param {
    num_output: 128
    pad: 5
    kernel_size: 11
    weight_filler {
      type: "gaussian"
      std: 0.01
    }
    bias_filler {
      type: "constant"
    }
  }
}
layer {
  name: "Mrelu3_stage3"
  type: "ReLU"
  bottom: "Mconv3_stage3"
  top: "Mconv3_stage3"
}
layer {
  name: "Mconv4_stage3"
  type: "Convolution"
  bottom: "Mconv3_stage3"
  top: "Mconv4_stage3"
  param {
    lr_mult: 1
    decay_mult: 1
  }
  param {
    lr_mult: 2
    decay_mult: 0
  }
  convolution_param {
    num_output: 128
    pad: 0
    kernel_size: 1
    weight_filler {
      type: "gaussian"
      std: 0.01
    }
    bias_filler {
      type: "constant"
    }
  }
}
layer {
  name: "Mrelu4_stage3"
  type: "ReLU"
  bottom: "Mconv4_stage3"
  top: "Mconv4_stage3"
}
layer {
  name: "Mconv5_stage3"
  type: "Convolution"
  bottom: "Mconv4_stage3"
  top: "Mconv5_stage3"
  param {
    lr_mult: 1
    decay_mult: 1
  }
  param {
    lr_mult: 2
    decay_mult: 0
  }
  convolution_param {
    num_output: 15
    pad: 0
    kernel_size: 1
    weight_filler {
      type: "gaussian"
      std: 0.01
    }
    bias_filler {
      type: "constant"
    }
  }
}
layer {
  name: "loss_stage3"
  type: "EuclideanLoss"
  bottom: "Mconv5_stage3"
  bottom: "label_lower"
  top: "loss_stage3"
}
layer {
  name: "conv1_stage4"
  type: "Convolution"
  bottom: "pool3_stage2"
  top: "conv1_stage4"
  param {
    lr_mult: 1
    decay_mult: 1
  }
  param {
    lr_mult: 2
    decay_mult: 0
  }
  convolution_param {
    num_output: 32
    pad: 2
    kernel_size: 5
    weight_filler {
      type: "gaussian"
      std: 0.01
    }
    bias_filler {
      type: "constant"
    }
  }
}
layer {
  name: "relu1_stage4"
  type: "ReLU"
  bottom: "conv1_stage4"
  top: "conv1_stage4"
}
layer {
  name: "concat_stage4"
  type: "Concat"
  bottom: "conv1_stage4"
  bottom: "Mconv5_stage3"
  bottom: "pool_center_lower"
  top: "concat_stage4"
  concat_param {
    axis: 1
  }
}
layer {
  name: "Mconv1_stage4"
  type: "Convolution"
  bottom: "concat_stage4"
  top: "Mconv1_stage4"
  param {
    lr_mult: 1
    decay_mult: 1
  }
  param {
    lr_mult: 2
    decay_mult: 0
  }
  convolution_param {
    num_output: 128
    pad: 5
    kernel_size: 11
    weight_filler {
      type: "gaussian"
      std: 0.01
    }
    bias_filler {
      type: "constant"
    }
  }
}
layer {
  name: "Mrelu1_stage4"
  type: "ReLU"
  bottom: "Mconv1_stage4"
  top: "Mconv1_stage4"
}
layer {
  name: "Mconv2_stage4"
  type: "Convolution"
  bottom: "Mconv1_stage4"
  top: "Mconv2_stage4"
  param {
    lr_mult: 1
    decay_mult: 1
  }
  param {
    lr_mult: 2
    decay_mult: 0
  }
  convolution_param {
    num_output: 128
    pad: 5
    kernel_size: 11
    weight_filler {
      type: "gaussian"
      std: 0.01
    }
    bias_filler {
      type: "constant"
    }
  }
}
layer {
  name: "Mrelu2_stage4"
  type: "ReLU"
  bottom: "Mconv2_stage4"
  top: "Mconv2_stage4"
}
layer {
  name: "Mconv3_stage4"
  type: "Convolution"
  bottom: "Mconv2_stage4"
  top: "Mconv3_stage4"
  param {
    lr_mult: 1
    decay_mult: 1
  }
  param {
    lr_mult: 2
    decay_mult: 0
  }
  convolution_param {
    num_output: 128
    pad: 5
    kernel_size: 11
    weight_filler {
      type: "gaussian"
      std: 0.01
    }
    bias_filler {
      type: "constant"
    }
  }
}
layer {
  name: "Mrelu3_stage4"
  type: "ReLU"
  bottom: "Mconv3_stage4"
  top: "Mconv3_stage4"
}
layer {
  name: "Mconv4_stage4"
  type: "Convolution"
  bottom: "Mconv3_stage4"
  top: "Mconv4_stage4"
  param {
    lr_mult: 1
    decay_mult: 1
  }
  param {
    lr_mult: 2
    decay_mult: 0
  }
  convolution_param {
    num_output: 128
    pad: 0
    kernel_size: 1
    weight_filler {
      type: "gaussian"
      std: 0.01
    }
    bias_filler {
      type: "constant"
    }
  }
}
layer {
  name: "Mrelu4_stage4"
  type: "ReLU"
  bottom: "Mconv4_stage4"
  top: "Mconv4_stage4"
}
layer {
  name: "Mconv5_stage4"
  type: "Convolution"
  bottom: "Mconv4_stage4"
  top: "Mconv5_stage4"
  param {
    lr_mult: 1
    decay_mult: 1
  }
  param {
    lr_mult: 2
    decay_mult: 0
  }
  convolution_param {
    num_output: 15
    pad: 0
    kernel_size: 1
    weight_filler {
      type: "gaussian"
      std: 0.01
    }
    bias_filler {
      type: "constant"
    }
  }
}
layer {
  name: "loss_stage4"
  type: "EuclideanLoss"
  bottom: "Mconv5_stage4"
  bottom: "label_lower"
  top: "loss_stage4"
}
layer {
  name: "conv1_stage5"
  type: "Convolution"
  bottom: "pool3_stage2"
  top: "conv1_stage5"
  param {
    lr_mult: 1
    decay_mult: 1
  }
  param {
    lr_mult: 2
    decay_mult: 0
  }
  convolution_param {
    num_output: 32
    pad: 2
    kernel_size: 5
    weight_filler {
      type: "gaussian"
      std: 0.01
    }
    bias_filler {
      type: "constant"
    }
  }
}
layer {
  name: "relu1_stage5"
  type: "ReLU"
  bottom: "conv1_stage5"
  top: "conv1_stage5"
}
layer {
  name: "concat_stage5"
  type: "Concat"
  bottom: "conv1_stage5"
  bottom: "Mconv5_stage4"
  bottom: "pool_center_lower"
  top: "concat_stage5"
  concat_param {
    axis: 1
  }
}
layer {
  name: "Mconv1_stage5"
  type: "Convolution"
  bottom: "concat_stage5"
  top: "Mconv1_stage5"
  param {
    lr_mult: 1
    decay_mult: 1
  }
  param {
    lr_mult: 2
    decay_mult: 0
  }
  convolution_param {
    num_output: 128
    pad: 5
    kernel_size: 11
    weight_filler {
      type: "gaussian"
      std: 0.01
    }
    bias_filler {
      type: "constant"
    }
  }
}
layer {
  name: "Mrelu1_stage5"
  type: "ReLU"
  bottom: "Mconv1_stage5"
  top: "Mconv1_stage5"
}
layer {
  name: "Mconv2_stage5"
  type: "Convolution"
  bottom: "Mconv1_stage5"
  top: "Mconv2_stage5"
  param {
    lr_mult: 1
    decay_mult: 1
  }
  param {
    lr_mult: 2
    decay_mult: 0
  }
  convolution_param {
    num_output: 128
    pad: 5
    kernel_size: 11
    weight_filler {
      type: "gaussian"
      std: 0.01
    }
    bias_filler {
      type: "constant"
    }
  }
}
layer {
  name: "Mrelu2_stage5"
  type: "ReLU"
  bottom: "Mconv2_stage5"
  top: "Mconv2_stage5"
}
layer {
  name: "Mconv3_stage5"
  type: "Convolution"
  bottom: "Mconv2_stage5"
  top: "Mconv3_stage5"
  param {
    lr_mult: 1
    decay_mult: 1
  }
  param {
    lr_mult: 2
    decay_mult: 0
  }
  convolution_param {
    num_output: 128
    pad: 5
    kernel_size: 11
    weight_filler {
      type: "gaussian"
      std: 0.01
    }
    bias_filler {
      type: "constant"
    }
  }
}
layer {
  name: "Mrelu3_stage5"
  type: "ReLU"
  bottom: "Mconv3_stage5"
  top: "Mconv3_stage5"
}
layer {
  name: "Mconv4_stage5"
  type: "Convolution"
  bottom: "Mconv3_stage5"
  top: "Mconv4_stage5"
  param {
    lr_mult: 1
    decay_mult: 1
  }
  param {
    lr_mult: 2
    decay_mult: 0
  }
  convolution_param {
    num_output: 128
    pad: 0
    kernel_size: 1
    weight_filler {
      type: "gaussian"
      std: 0.01
    }
    bias_filler {
      type: "constant"
    }
  }
}
layer {
  name: "Mrelu4_stage5"
  type: "ReLU"
  bottom: "Mconv4_stage5"
  top: "Mconv4_stage5"
}
layer {
  name: "Mconv5_stage5"
  type: "Convolution"
  bottom: "Mconv4_stage5"
  top: "Mconv5_stage5"
  param {
    lr_mult: 1
    decay_mult: 1
  }
  param {
    lr_mult: 2
    decay_mult: 0
  }
  convolution_param {
    num_output: 15
    pad: 0
    kernel_size: 1
    weight_filler {
      type: "gaussian"
      std: 0.01
    }
    bias_filler {
      type: "constant"
    }
  }
}
layer {
  name: "loss_stage5"
  type: "EuclideanLoss"
  bottom: "Mconv5_stage5"
  bottom: "label_lower"
  top: "loss_stage5"
}
layer {
  name: "conv1_stage6"
  type: "Convolution"
  bottom: "pool3_stage2"
  top: "conv1_stage6"
  param {
    lr_mult: 1
    decay_mult: 1
  }
  param {
    lr_mult: 2
    decay_mult: 0
  }
  convolution_param {
    num_output: 32
    pad: 2
    kernel_size: 5
    weight_filler {
      type: "gaussian"
      std: 0.01
    }
    bias_filler {
      type: "constant"
    }
  }
}
layer {
  name: "relu1_stage6"
  type: "ReLU"
  bottom: "conv1_stage6"
  top: "conv1_stage6"
}
layer {
  name: "concat_stage6"
  type: "Concat"
  bottom: "conv1_stage6"
  bottom: "Mconv5_stage5"
  bottom: "pool_center_lower"
  top: "concat_stage6"
  concat_param {
    axis: 1
  }
}
layer {
  name: "Mconv1_stage6"
  type: "Convolution"
  bottom: "concat_stage6"
  top: "Mconv1_stage6"
  param {
    lr_mult: 1
    decay_mult: 1
  }
  param {
    lr_mult: 2
    decay_mult: 0
  }
  convolution_param {
    num_output: 128
    pad: 5
    kernel_size: 11
    weight_filler {
      type: "gaussian"
      std: 0.01
    }
    bias_filler {
      type: "constant"
    }
  }
}
layer {
  name: "Mrelu1_stage6"
  type: "ReLU"
  bottom: "Mconv1_stage6"
  top: "Mconv1_stage6"
}
layer {
  name: "Mconv2_stage6"
  type: "Convolution"
  bottom: "Mconv1_stage6"
  top: "Mconv2_stage6"
  param {
    lr_mult: 1
    decay_mult: 1
  }
  param {
    lr_mult: 2
    decay_mult: 0
  }
  convolution_param {
    num_output: 128
    pad: 5
    kernel_size: 11
    weight_filler {
      type: "gaussian"
      std: 0.01
    }
    bias_filler {
      type: "constant"
    }
  }
}
layer {
  name: "Mrelu2_stage6"
  type: "ReLU"
  bottom: "Mconv2_stage6"
  top: "Mconv2_stage6"
}
layer {
  name: "Mconv3_stage6"
  type: "Convolution"
  bottom: "Mconv2_stage6"
  top: "Mconv3_stage6"
  param {
    lr_mult: 1
    decay_mult: 1
  }
  param {
    lr_mult: 2
    decay_mult: 0
  }
  convolution_param {
    num_output: 128
    pad: 5
    kernel_size: 11
    weight_filler {
      type: "gaussian"
      std: 0.01
    }
    bias_filler {
      type: "constant"
    }
  }
}
layer {
  name: "Mrelu3_stage6"
  type: "ReLU"
  bottom: "Mconv3_stage6"
  top: "Mconv3_stage6"
}
layer {
  name: "Mconv4_stage6"
  type: "Convolution"
  bottom: "Mconv3_stage6"
  top: "Mconv4_stage6"
  param {
    lr_mult: 1
    decay_mult: 1
  }
  param {
    lr_mult: 2
    decay_mult: 0
  }
  convolution_param {
    num_output: 128
    pad: 0
    kernel_size: 1
    weight_filler {
      type: "gaussian"
      std: 0.01
    }
    bias_filler {
      type: "constant"
    }
  }
}
layer {
  name: "Mrelu4_stage6"
  type: "ReLU"
  bottom: "Mconv4_stage6"
  top: "Mconv4_stage6"
}
layer {
  name: "Mconv5_stage6"
  type: "Convolution"
  bottom: "Mconv4_stage6"
  top: "Mconv5_stage6"
  param {
    lr_mult: 1
    decay_mult: 1
  }
  param {
    lr_mult: 2
    decay_mult: 0
  }
  convolution_param {
    num_output: 15
    pad: 0
    kernel_size: 1
    weight_filler {
      type: "gaussian"
      std: 0.01
    }
    bias_filler {
      type: "constant"
    }
  }
}
layer {
  name: "loss_stage6"
  type: "EuclideanLoss"
  bottom: "Mconv5_stage6"
  bottom: "label_lower"
  top: "loss_stage6"
}
I0410 23:48:06.302938 39964 layer_factory.hpp:77] Creating layer data
I0410 23:48:06.303553 39964 net.cpp:100] Creating Layer data
I0410 23:48:06.303582 39964 net.cpp:408] data -> data
I0410 23:48:06.303726 39964 net.cpp:408] data -> label
I0410 23:48:06.305858 39970 db_lmdb.cpp:35] Opened lmdb /home/lizhuowan/Market_CPM/lmdb_11000
I0410 23:48:06.306159 39964 cpm_data_layer.cpp:33] 128 64 4
I0410 23:48:06.319257 39964 cpm_data_layer.cpp:64] output data size: 8,4,368,368
I0410 23:48:06.319281 39964 cpm_data_layer.cpp:67] output data size: 8,4,368,368
I0410 23:48:06.360225 39964 net.cpp:150] Setting up data
I0410 23:48:06.360301 39964 net.cpp:157] Top shape: 8 4 368 368 (4333568)
I0410 23:48:06.360316 39964 net.cpp:157] Top shape: 8 30 46 46 (507840)
I0410 23:48:06.360325 39964 net.cpp:165] Memory required for data: 19365632
I0410 23:48:06.360345 39964 layer_factory.hpp:77] Creating layer label_lower
I0410 23:48:06.360378 39964 net.cpp:100] Creating Layer label_lower
I0410 23:48:06.360391 39964 net.cpp:434] label_lower <- label
I0410 23:48:06.360419 39964 net.cpp:408] label_lower -> label_lower
I0410 23:48:06.360457 39964 net.cpp:408] label_lower -> label_1st_lower
I0410 23:48:06.360586 39964 net.cpp:150] Setting up label_lower
I0410 23:48:06.360605 39964 net.cpp:157] Top shape: 8 15 46 46 (253920)
I0410 23:48:06.360616 39964 net.cpp:157] Top shape: 8 15 46 46 (253920)
I0410 23:48:06.360625 39964 net.cpp:165] Memory required for data: 21396992
I0410 23:48:06.360635 39964 layer_factory.hpp:77] Creating layer label_lower_label_lower_0_split
I0410 23:48:06.360651 39964 net.cpp:100] Creating Layer label_lower_label_lower_0_split
I0410 23:48:06.360661 39964 net.cpp:434] label_lower_label_lower_0_split <- label_lower
I0410 23:48:06.360676 39964 net.cpp:408] label_lower_label_lower_0_split -> label_lower_label_lower_0_split_0
I0410 23:48:06.360690 39964 net.cpp:408] label_lower_label_lower_0_split -> label_lower_label_lower_0_split_1
I0410 23:48:06.360702 39964 net.cpp:408] label_lower_label_lower_0_split -> label_lower_label_lower_0_split_2
I0410 23:48:06.360715 39964 net.cpp:408] label_lower_label_lower_0_split -> label_lower_label_lower_0_split_3
I0410 23:48:06.360726 39964 net.cpp:408] label_lower_label_lower_0_split -> label_lower_label_lower_0_split_4
I0410 23:48:06.360812 39964 net.cpp:150] Setting up label_lower_label_lower_0_split
I0410 23:48:06.360829 39964 net.cpp:157] Top shape: 8 15 46 46 (253920)
I0410 23:48:06.360841 39964 net.cpp:157] Top shape: 8 15 46 46 (253920)
I0410 23:48:06.360851 39964 net.cpp:157] Top shape: 8 15 46 46 (253920)
I0410 23:48:06.360859 39964 net.cpp:157] Top shape: 8 15 46 46 (253920)
I0410 23:48:06.360870 39964 net.cpp:157] Top shape: 8 15 46 46 (253920)
I0410 23:48:06.360878 39964 net.cpp:165] Memory required for data: 26475392
I0410 23:48:06.360888 39964 layer_factory.hpp:77] Creating layer image
I0410 23:48:06.360899 39964 net.cpp:100] Creating Layer image
I0410 23:48:06.360909 39964 net.cpp:434] image <- data
I0410 23:48:06.360924 39964 net.cpp:408] image -> image
I0410 23:48:06.360937 39964 net.cpp:408] image -> center_map
I0410 23:48:06.360983 39964 net.cpp:150] Setting up image
I0410 23:48:06.360998 39964 net.cpp:157] Top shape: 8 3 368 368 (3250176)
I0410 23:48:06.361009 39964 net.cpp:157] Top shape: 8 1 368 368 (1083392)
I0410 23:48:06.361017 39964 net.cpp:165] Memory required for data: 43809664
I0410 23:48:06.361027 39964 layer_factory.hpp:77] Creating layer image_image_0_split
I0410 23:48:06.361042 39964 net.cpp:100] Creating Layer image_image_0_split
I0410 23:48:06.361052 39964 net.cpp:434] image_image_0_split <- image
I0410 23:48:06.361063 39964 net.cpp:408] image_image_0_split -> image_image_0_split_0
I0410 23:48:06.361079 39964 net.cpp:408] image_image_0_split -> image_image_0_split_1
I0410 23:48:06.361122 39964 net.cpp:150] Setting up image_image_0_split
I0410 23:48:06.361137 39964 net.cpp:157] Top shape: 8 3 368 368 (3250176)
I0410 23:48:06.361147 39964 net.cpp:157] Top shape: 8 3 368 368 (3250176)
I0410 23:48:06.361156 39964 net.cpp:165] Memory required for data: 69811072
I0410 23:48:06.361166 39964 layer_factory.hpp:77] Creating layer pool_center_lower
I0410 23:48:06.361183 39964 net.cpp:100] Creating Layer pool_center_lower
I0410 23:48:06.361193 39964 net.cpp:434] pool_center_lower <- center_map
I0410 23:48:06.361204 39964 net.cpp:408] pool_center_lower -> pool_center_lower
I0410 23:48:06.361258 39964 net.cpp:150] Setting up pool_center_lower
I0410 23:48:06.361274 39964 net.cpp:157] Top shape: 8 1 46 46 (16928)
I0410 23:48:06.361282 39964 net.cpp:165] Memory required for data: 69878784
I0410 23:48:06.361291 39964 layer_factory.hpp:77] Creating layer pool_center_lower_pool_center_lower_0_split
I0410 23:48:06.361302 39964 net.cpp:100] Creating Layer pool_center_lower_pool_center_lower_0_split
I0410 23:48:06.361312 39964 net.cpp:434] pool_center_lower_pool_center_lower_0_split <- pool_center_lower
I0410 23:48:06.361323 39964 net.cpp:408] pool_center_lower_pool_center_lower_0_split -> pool_center_lower_pool_center_lower_0_split_0
I0410 23:48:06.361344 39964 net.cpp:408] pool_center_lower_pool_center_lower_0_split -> pool_center_lower_pool_center_lower_0_split_1
I0410 23:48:06.361366 39964 net.cpp:408] pool_center_lower_pool_center_lower_0_split -> pool_center_lower_pool_center_lower_0_split_2
I0410 23:48:06.361390 39964 net.cpp:408] pool_center_lower_pool_center_lower_0_split -> pool_center_lower_pool_center_lower_0_split_3
I0410 23:48:06.361403 39964 net.cpp:408] pool_center_lower_pool_center_lower_0_split -> pool_center_lower_pool_center_lower_0_split_4
I0410 23:48:06.361481 39964 net.cpp:150] Setting up pool_center_lower_pool_center_lower_0_split
I0410 23:48:06.361496 39964 net.cpp:157] Top shape: 8 1 46 46 (16928)
I0410 23:48:06.361507 39964 net.cpp:157] Top shape: 8 1 46 46 (16928)
I0410 23:48:06.361518 39964 net.cpp:157] Top shape: 8 1 46 46 (16928)
I0410 23:48:06.361528 39964 net.cpp:157] Top shape: 8 1 46 46 (16928)
I0410 23:48:06.361537 39964 net.cpp:157] Top shape: 8 1 46 46 (16928)
I0410 23:48:06.361546 39964 net.cpp:165] Memory required for data: 70217344
I0410 23:48:06.361555 39964 layer_factory.hpp:77] Creating layer conv1_stage1
I0410 23:48:06.361583 39964 net.cpp:100] Creating Layer conv1_stage1
I0410 23:48:06.361593 39964 net.cpp:434] conv1_stage1 <- image_image_0_split_0
I0410 23:48:06.361614 39964 net.cpp:408] conv1_stage1 -> conv1_stage1
I0410 23:48:06.364852 39971 data_transformer_cpm.cpp:80] dataset: ZERO; img_size: [64 x 128]; meta.annolist_index: 0; meta.write_number: 0; meta.total_write_number: 11000; meta.epoch: 0
I0410 23:48:06.365557 39964 net.cpp:150] Setting up conv1_stage1
I0410 23:48:06.365586 39964 net.cpp:157] Top shape: 8 128 368 368 (138674176)
I0410 23:48:06.365597 39964 net.cpp:165] Memory required for data: 624914048
I0410 23:48:06.365623 39964 layer_factory.hpp:77] Creating layer relu1_stage1
I0410 23:48:06.365645 39964 net.cpp:100] Creating Layer relu1_stage1
I0410 23:48:06.365669 39964 net.cpp:434] relu1_stage1 <- conv1_stage1
I0410 23:48:06.365684 39964 net.cpp:395] relu1_stage1 -> conv1_stage1 (in-place)
I0410 23:48:06.365703 39964 net.cpp:150] Setting up relu1_stage1
I0410 23:48:06.365718 39964 net.cpp:157] Top shape: 8 128 368 368 (138674176)
I0410 23:48:06.365742 39964 net.cpp:165] Memory required for data: 1179610752
I0410 23:48:06.365751 39964 layer_factory.hpp:77] Creating layer pool1_stage1
I0410 23:48:06.365763 39964 net.cpp:100] Creating Layer pool1_stage1
I0410 23:48:06.365774 39964 net.cpp:434] pool1_stage1 <- conv1_stage1
I0410 23:48:06.365788 39964 net.cpp:408] pool1_stage1 -> pool1_stage1
I0410 23:48:06.365842 39964 net.cpp:150] Setting up pool1_stage1
I0410 23:48:06.365859 39964 net.cpp:157] Top shape: 8 128 184 184 (34668544)
I0410 23:48:06.365867 39964 net.cpp:165] Memory required for data: 1318284928
I0410 23:48:06.365878 39964 layer_factory.hpp:77] Creating layer conv2_stage1
I0410 23:48:06.365900 39964 net.cpp:100] Creating Layer conv2_stage1
I0410 23:48:06.365911 39964 net.cpp:434] conv2_stage1 <- pool1_stage1
I0410 23:48:06.365923 39964 net.cpp:408] conv2_stage1 -> conv2_stage1
I0410 23:48:06.419663 39964 net.cpp:150] Setting up conv2_stage1
I0410 23:48:06.419688 39964 net.cpp:157] Top shape: 8 128 184 184 (34668544)
I0410 23:48:06.419698 39964 net.cpp:165] Memory required for data: 1456959104
I0410 23:48:06.419714 39964 layer_factory.hpp:77] Creating layer relu2_stage1
I0410 23:48:06.419728 39964 net.cpp:100] Creating Layer relu2_stage1
I0410 23:48:06.419737 39964 net.cpp:434] relu2_stage1 <- conv2_stage1
I0410 23:48:06.419749 39964 net.cpp:395] relu2_stage1 -> conv2_stage1 (in-place)
I0410 23:48:06.419762 39964 net.cpp:150] Setting up relu2_stage1
I0410 23:48:06.419775 39964 net.cpp:157] Top shape: 8 128 184 184 (34668544)
I0410 23:48:06.419782 39964 net.cpp:165] Memory required for data: 1595633280
I0410 23:48:06.419792 39964 layer_factory.hpp:77] Creating layer pool2_stage1
I0410 23:48:06.419806 39964 net.cpp:100] Creating Layer pool2_stage1
I0410 23:48:06.419816 39964 net.cpp:434] pool2_stage1 <- conv2_stage1
I0410 23:48:06.419828 39964 net.cpp:408] pool2_stage1 -> pool2_stage1
I0410 23:48:06.419878 39964 net.cpp:150] Setting up pool2_stage1
I0410 23:48:06.419893 39964 net.cpp:157] Top shape: 8 128 92 92 (8667136)
I0410 23:48:06.419909 39964 net.cpp:165] Memory required for data: 1630301824
I0410 23:48:06.419930 39964 layer_factory.hpp:77] Creating layer conv3_stage1
I0410 23:48:06.419950 39964 net.cpp:100] Creating Layer conv3_stage1
I0410 23:48:06.419961 39964 net.cpp:434] conv3_stage1 <- pool2_stage1
I0410 23:48:06.419973 39964 net.cpp:408] conv3_stage1 -> conv3_stage1
I0410 23:48:06.474182 39964 net.cpp:150] Setting up conv3_stage1
I0410 23:48:06.474207 39964 net.cpp:157] Top shape: 8 128 92 92 (8667136)
I0410 23:48:06.474217 39964 net.cpp:165] Memory required for data: 1664970368
I0410 23:48:06.474234 39964 layer_factory.hpp:77] Creating layer relu3_stage1
I0410 23:48:06.474251 39964 net.cpp:100] Creating Layer relu3_stage1
I0410 23:48:06.474261 39964 net.cpp:434] relu3_stage1 <- conv3_stage1
I0410 23:48:06.474273 39964 net.cpp:395] relu3_stage1 -> conv3_stage1 (in-place)
I0410 23:48:06.474287 39964 net.cpp:150] Setting up relu3_stage1
I0410 23:48:06.474298 39964 net.cpp:157] Top shape: 8 128 92 92 (8667136)
I0410 23:48:06.474308 39964 net.cpp:165] Memory required for data: 1699638912
I0410 23:48:06.474315 39964 layer_factory.hpp:77] Creating layer pool3_stage1
I0410 23:48:06.474328 39964 net.cpp:100] Creating Layer pool3_stage1
I0410 23:48:06.474336 39964 net.cpp:434] pool3_stage1 <- conv3_stage1
I0410 23:48:06.474349 39964 net.cpp:408] pool3_stage1 -> pool3_stage1
I0410 23:48:06.474400 39964 net.cpp:150] Setting up pool3_stage1
I0410 23:48:06.474416 39964 net.cpp:157] Top shape: 8 128 46 46 (2166784)
I0410 23:48:06.474424 39964 net.cpp:165] Memory required for data: 1708306048
I0410 23:48:06.474433 39964 layer_factory.hpp:77] Creating layer conv4_stage1
I0410 23:48:06.474457 39964 net.cpp:100] Creating Layer conv4_stage1
I0410 23:48:06.474467 39964 net.cpp:434] conv4_stage1 <- pool3_stage1
I0410 23:48:06.474480 39964 net.cpp:408] conv4_stage1 -> conv4_stage1
I0410 23:48:06.479318 39964 net.cpp:150] Setting up conv4_stage1
I0410 23:48:06.479341 39964 net.cpp:157] Top shape: 8 32 46 46 (541696)
I0410 23:48:06.479351 39964 net.cpp:165] Memory required for data: 1710472832
I0410 23:48:06.479363 39964 layer_factory.hpp:77] Creating layer relu4_stage1
I0410 23:48:06.479377 39964 net.cpp:100] Creating Layer relu4_stage1
I0410 23:48:06.479385 39964 net.cpp:434] relu4_stage1 <- conv4_stage1
I0410 23:48:06.479398 39964 net.cpp:395] relu4_stage1 -> conv4_stage1 (in-place)
I0410 23:48:06.479410 39964 net.cpp:150] Setting up relu4_stage1
I0410 23:48:06.479421 39964 net.cpp:157] Top shape: 8 32 46 46 (541696)
I0410 23:48:06.479430 39964 net.cpp:165] Memory required for data: 1712639616
I0410 23:48:06.479439 39964 layer_factory.hpp:77] Creating layer conv5_stage1
I0410 23:48:06.479459 39964 net.cpp:100] Creating Layer conv5_stage1
I0410 23:48:06.479470 39964 net.cpp:434] conv5_stage1 <- conv4_stage1
I0410 23:48:06.479485 39964 net.cpp:408] conv5_stage1 -> conv5_stage1
I0410 23:48:06.533704 39964 net.cpp:150] Setting up conv5_stage1
I0410 23:48:06.533731 39964 net.cpp:157] Top shape: 8 512 46 46 (8667136)
I0410 23:48:06.533741 39964 net.cpp:165] Memory required for data: 1747308160
I0410 23:48:06.533761 39964 layer_factory.hpp:77] Creating layer relu5_stage1
I0410 23:48:06.533776 39964 net.cpp:100] Creating Layer relu5_stage1
I0410 23:48:06.533785 39964 net.cpp:434] relu5_stage1 <- conv5_stage1
I0410 23:48:06.533799 39964 net.cpp:395] relu5_stage1 -> conv5_stage1 (in-place)
I0410 23:48:06.533814 39964 net.cpp:150] Setting up relu5_stage1
I0410 23:48:06.533825 39964 net.cpp:157] Top shape: 8 512 46 46 (8667136)
I0410 23:48:06.533834 39964 net.cpp:165] Memory required for data: 1781976704
I0410 23:48:06.533843 39964 layer_factory.hpp:77] Creating layer drop1_stage1
I0410 23:48:06.533859 39964 net.cpp:100] Creating Layer drop1_stage1
I0410 23:48:06.533869 39964 net.cpp:434] drop1_stage1 <- conv5_stage1
I0410 23:48:06.533879 39964 net.cpp:395] drop1_stage1 -> conv5_stage1 (in-place)
I0410 23:48:06.533922 39964 net.cpp:150] Setting up drop1_stage1
I0410 23:48:06.533937 39964 net.cpp:157] Top shape: 8 512 46 46 (8667136)
I0410 23:48:06.533957 39964 net.cpp:165] Memory required for data: 1816645248
I0410 23:48:06.533977 39964 layer_factory.hpp:77] Creating layer conv6_stage1
I0410 23:48:06.533996 39964 net.cpp:100] Creating Layer conv6_stage1
I0410 23:48:06.534006 39964 net.cpp:434] conv6_stage1 <- conv5_stage1
I0410 23:48:06.534021 39964 net.cpp:408] conv6_stage1 -> conv6_stage1
I0410 23:48:06.544924 39964 net.cpp:150] Setting up conv6_stage1
I0410 23:48:06.544947 39964 net.cpp:157] Top shape: 8 512 46 46 (8667136)
I0410 23:48:06.544956 39964 net.cpp:165] Memory required for data: 1851313792
I0410 23:48:06.544970 39964 layer_factory.hpp:77] Creating layer relu6_stage1
I0410 23:48:06.544982 39964 net.cpp:100] Creating Layer relu6_stage1
I0410 23:48:06.544991 39964 net.cpp:434] relu6_stage1 <- conv6_stage1
I0410 23:48:06.545006 39964 net.cpp:395] relu6_stage1 -> conv6_stage1 (in-place)
I0410 23:48:06.545020 39964 net.cpp:150] Setting up relu6_stage1
I0410 23:48:06.545032 39964 net.cpp:157] Top shape: 8 512 46 46 (8667136)
I0410 23:48:06.545040 39964 net.cpp:165] Memory required for data: 1885982336
I0410 23:48:06.545049 39964 layer_factory.hpp:77] Creating layer drop2_stage1
I0410 23:48:06.545061 39964 net.cpp:100] Creating Layer drop2_stage1
I0410 23:48:06.545070 39964 net.cpp:434] drop2_stage1 <- conv6_stage1
I0410 23:48:06.545084 39964 net.cpp:395] drop2_stage1 -> conv6_stage1 (in-place)
I0410 23:48:06.545117 39964 net.cpp:150] Setting up drop2_stage1
I0410 23:48:06.545131 39964 net.cpp:157] Top shape: 8 512 46 46 (8667136)
I0410 23:48:06.545141 39964 net.cpp:165] Memory required for data: 1920650880
I0410 23:48:06.545150 39964 layer_factory.hpp:77] Creating layer conv7_stage1
I0410 23:48:06.545168 39964 net.cpp:100] Creating Layer conv7_stage1
I0410 23:48:06.545178 39964 net.cpp:434] conv7_stage1 <- conv6_stage1
I0410 23:48:06.545193 39964 net.cpp:408] conv7_stage1 -> conv7_stage1
I0410 23:48:06.545742 39964 net.cpp:150] Setting up conv7_stage1
I0410 23:48:06.545761 39964 net.cpp:157] Top shape: 8 15 46 46 (253920)
I0410 23:48:06.545770 39964 net.cpp:165] Memory required for data: 1921666560
I0410 23:48:06.545783 39964 layer_factory.hpp:77] Creating layer conv7_stage1_conv7_stage1_0_split
I0410 23:48:06.545795 39964 net.cpp:100] Creating Layer conv7_stage1_conv7_stage1_0_split
I0410 23:48:06.545809 39964 net.cpp:434] conv7_stage1_conv7_stage1_0_split <- conv7_stage1
I0410 23:48:06.545821 39964 net.cpp:408] conv7_stage1_conv7_stage1_0_split -> conv7_stage1_conv7_stage1_0_split_0
I0410 23:48:06.545835 39964 net.cpp:408] conv7_stage1_conv7_stage1_0_split -> conv7_stage1_conv7_stage1_0_split_1
I0410 23:48:06.545882 39964 net.cpp:150] Setting up conv7_stage1_conv7_stage1_0_split
I0410 23:48:06.545897 39964 net.cpp:157] Top shape: 8 15 46 46 (253920)
I0410 23:48:06.545908 39964 net.cpp:157] Top shape: 8 15 46 46 (253920)
I0410 23:48:06.545917 39964 net.cpp:165] Memory required for data: 1923697920
I0410 23:48:06.545925 39964 layer_factory.hpp:77] Creating layer loss_stage1
I0410 23:48:06.545940 39964 net.cpp:100] Creating Layer loss_stage1
I0410 23:48:06.545950 39964 net.cpp:434] loss_stage1 <- conv7_stage1_conv7_stage1_0_split_0
I0410 23:48:06.545961 39964 net.cpp:434] loss_stage1 <- label_1st_lower
I0410 23:48:06.545972 39964 net.cpp:408] loss_stage1 -> loss_stage1
I0410 23:48:06.546030 39964 net.cpp:150] Setting up loss_stage1
I0410 23:48:06.546046 39964 net.cpp:157] Top shape: (1)
I0410 23:48:06.546054 39964 net.cpp:160]     with loss weight 1
I0410 23:48:06.546094 39964 net.cpp:165] Memory required for data: 1923697924
I0410 23:48:06.546105 39964 layer_factory.hpp:77] Creating layer conv1_stage2
I0410 23:48:06.546123 39964 net.cpp:100] Creating Layer conv1_stage2
I0410 23:48:06.546134 39964 net.cpp:434] conv1_stage2 <- image_image_0_split_1
I0410 23:48:06.546149 39964 net.cpp:408] conv1_stage2 -> conv1_stage2
I0410 23:48:06.548318 39964 net.cpp:150] Setting up conv1_stage2
I0410 23:48:06.548341 39964 net.cpp:157] Top shape: 8 128 368 368 (138674176)
I0410 23:48:06.548351 39964 net.cpp:165] Memory required for data: 2478394628
I0410 23:48:06.548370 39964 layer_factory.hpp:77] Creating layer relu1_stage2
I0410 23:48:06.548393 39964 net.cpp:100] Creating Layer relu1_stage2
I0410 23:48:06.548404 39964 net.cpp:434] relu1_stage2 <- conv1_stage2
I0410 23:48:06.548415 39964 net.cpp:395] relu1_stage2 -> conv1_stage2 (in-place)
I0410 23:48:06.548429 39964 net.cpp:150] Setting up relu1_stage2
I0410 23:48:06.548440 39964 net.cpp:157] Top shape: 8 128 368 368 (138674176)
I0410 23:48:06.548449 39964 net.cpp:165] Memory required for data: 3033091332
I0410 23:48:06.548457 39964 layer_factory.hpp:77] Creating layer pool1_stage2
I0410 23:48:06.548472 39964 net.cpp:100] Creating Layer pool1_stage2
I0410 23:48:06.548482 39964 net.cpp:434] pool1_stage2 <- conv1_stage2
I0410 23:48:06.548493 39964 net.cpp:408] pool1_stage2 -> pool1_stage2
I0410 23:48:06.548547 39964 net.cpp:150] Setting up pool1_stage2
I0410 23:48:06.548563 39964 net.cpp:157] Top shape: 8 128 184 184 (34668544)
I0410 23:48:06.548571 39964 net.cpp:165] Memory required for data: 3171765508
I0410 23:48:06.548580 39964 layer_factory.hpp:77] Creating layer conv2_stage2
I0410 23:48:06.548599 39964 net.cpp:100] Creating Layer conv2_stage2
I0410 23:48:06.548609 39964 net.cpp:434] conv2_stage2 <- pool1_stage2
I0410 23:48:06.548621 39964 net.cpp:408] conv2_stage2 -> conv2_stage2
I0410 23:48:06.602370 39964 net.cpp:150] Setting up conv2_stage2
I0410 23:48:06.602394 39964 net.cpp:157] Top shape: 8 128 184 184 (34668544)
I0410 23:48:06.602404 39964 net.cpp:165] Memory required for data: 3310439684
I0410 23:48:06.602421 39964 layer_factory.hpp:77] Creating layer relu2_stage2
I0410 23:48:06.602437 39964 net.cpp:100] Creating Layer relu2_stage2
I0410 23:48:06.602447 39964 net.cpp:434] relu2_stage2 <- conv2_stage2
I0410 23:48:06.602459 39964 net.cpp:395] relu2_stage2 -> conv2_stage2 (in-place)
I0410 23:48:06.602473 39964 net.cpp:150] Setting up relu2_stage2
I0410 23:48:06.602484 39964 net.cpp:157] Top shape: 8 128 184 184 (34668544)
I0410 23:48:06.602493 39964 net.cpp:165] Memory required for data: 3449113860
I0410 23:48:06.602501 39964 layer_factory.hpp:77] Creating layer pool2_stage2
I0410 23:48:06.602519 39964 net.cpp:100] Creating Layer pool2_stage2
I0410 23:48:06.602530 39964 net.cpp:434] pool2_stage2 <- conv2_stage2
I0410 23:48:06.602542 39964 net.cpp:408] pool2_stage2 -> pool2_stage2
I0410 23:48:06.602594 39964 net.cpp:150] Setting up pool2_stage2
I0410 23:48:06.602610 39964 net.cpp:157] Top shape: 8 128 92 92 (8667136)
I0410 23:48:06.602619 39964 net.cpp:165] Memory required for data: 3483782404
I0410 23:48:06.602627 39964 layer_factory.hpp:77] Creating layer conv3_stage2
I0410 23:48:06.602648 39964 net.cpp:100] Creating Layer conv3_stage2
I0410 23:48:06.602658 39964 net.cpp:434] conv3_stage2 <- pool2_stage2
I0410 23:48:06.602674 39964 net.cpp:408] conv3_stage2 -> conv3_stage2
I0410 23:48:06.656231 39964 net.cpp:150] Setting up conv3_stage2
I0410 23:48:06.656256 39964 net.cpp:157] Top shape: 8 128 92 92 (8667136)
I0410 23:48:06.656265 39964 net.cpp:165] Memory required for data: 3518450948
I0410 23:48:06.656278 39964 layer_factory.hpp:77] Creating layer relu3_stage2
I0410 23:48:06.656291 39964 net.cpp:100] Creating Layer relu3_stage2
I0410 23:48:06.656301 39964 net.cpp:434] relu3_stage2 <- conv3_stage2
I0410 23:48:06.656316 39964 net.cpp:395] relu3_stage2 -> conv3_stage2 (in-place)
I0410 23:48:06.656330 39964 net.cpp:150] Setting up relu3_stage2
I0410 23:48:06.656342 39964 net.cpp:157] Top shape: 8 128 92 92 (8667136)
I0410 23:48:06.656350 39964 net.cpp:165] Memory required for data: 3553119492
I0410 23:48:06.656359 39964 layer_factory.hpp:77] Creating layer pool3_stage2
I0410 23:48:06.656370 39964 net.cpp:100] Creating Layer pool3_stage2
I0410 23:48:06.656380 39964 net.cpp:434] pool3_stage2 <- conv3_stage2
I0410 23:48:06.656391 39964 net.cpp:408] pool3_stage2 -> pool3_stage2
I0410 23:48:06.656445 39964 net.cpp:150] Setting up pool3_stage2
I0410 23:48:06.656460 39964 net.cpp:157] Top shape: 8 128 46 46 (2166784)
I0410 23:48:06.656468 39964 net.cpp:165] Memory required for data: 3561786628
I0410 23:48:06.656477 39964 layer_factory.hpp:77] Creating layer pool3_stage2_pool3_stage2_0_split
I0410 23:48:06.656507 39964 net.cpp:100] Creating Layer pool3_stage2_pool3_stage2_0_split
I0410 23:48:06.656517 39964 net.cpp:434] pool3_stage2_pool3_stage2_0_split <- pool3_stage2
I0410 23:48:06.656533 39964 net.cpp:408] pool3_stage2_pool3_stage2_0_split -> pool3_stage2_pool3_stage2_0_split_0
I0410 23:48:06.656548 39964 net.cpp:408] pool3_stage2_pool3_stage2_0_split -> pool3_stage2_pool3_stage2_0_split_1
I0410 23:48:06.656561 39964 net.cpp:408] pool3_stage2_pool3_stage2_0_split -> pool3_stage2_pool3_stage2_0_split_2
I0410 23:48:06.656574 39964 net.cpp:408] pool3_stage2_pool3_stage2_0_split -> pool3_stage2_pool3_stage2_0_split_3
I0410 23:48:06.656586 39964 net.cpp:408] pool3_stage2_pool3_stage2_0_split -> pool3_stage2_pool3_stage2_0_split_4
I0410 23:48:06.656668 39964 net.cpp:150] Setting up pool3_stage2_pool3_stage2_0_split
I0410 23:48:06.656683 39964 net.cpp:157] Top shape: 8 128 46 46 (2166784)
I0410 23:48:06.656694 39964 net.cpp:157] Top shape: 8 128 46 46 (2166784)
I0410 23:48:06.656704 39964 net.cpp:157] Top shape: 8 128 46 46 (2166784)
I0410 23:48:06.656714 39964 net.cpp:157] Top shape: 8 128 46 46 (2166784)
I0410 23:48:06.656724 39964 net.cpp:157] Top shape: 8 128 46 46 (2166784)
I0410 23:48:06.656733 39964 net.cpp:165] Memory required for data: 3605122308
I0410 23:48:06.656741 39964 layer_factory.hpp:77] Creating layer conv4_stage2
I0410 23:48:06.656764 39964 net.cpp:100] Creating Layer conv4_stage2
I0410 23:48:06.656775 39964 net.cpp:434] conv4_stage2 <- pool3_stage2_pool3_stage2_0_split_0
I0410 23:48:06.656791 39964 net.cpp:408] conv4_stage2 -> conv4_stage2
I0410 23:48:06.660979 39964 net.cpp:150] Setting up conv4_stage2
I0410 23:48:06.661000 39964 net.cpp:157] Top shape: 8 32 46 46 (541696)
I0410 23:48:06.661010 39964 net.cpp:165] Memory required for data: 3607289092
I0410 23:48:06.661021 39964 layer_factory.hpp:77] Creating layer relu4_stage2
I0410 23:48:06.661034 39964 net.cpp:100] Creating Layer relu4_stage2
I0410 23:48:06.661043 39964 net.cpp:434] relu4_stage2 <- conv4_stage2
I0410 23:48:06.661058 39964 net.cpp:395] relu4_stage2 -> conv4_stage2 (in-place)
I0410 23:48:06.661072 39964 net.cpp:150] Setting up relu4_stage2
I0410 23:48:06.661083 39964 net.cpp:157] Top shape: 8 32 46 46 (541696)
I0410 23:48:06.661092 39964 net.cpp:165] Memory required for data: 3609455876
I0410 23:48:06.661100 39964 layer_factory.hpp:77] Creating layer concat_stage2
I0410 23:48:06.661116 39964 net.cpp:100] Creating Layer concat_stage2
I0410 23:48:06.661126 39964 net.cpp:434] concat_stage2 <- conv4_stage2
I0410 23:48:06.661136 39964 net.cpp:434] concat_stage2 <- conv7_stage1_conv7_stage1_0_split_1
I0410 23:48:06.661147 39964 net.cpp:434] concat_stage2 <- pool_center_lower_pool_center_lower_0_split_0
I0410 23:48:06.661162 39964 net.cpp:408] concat_stage2 -> concat_stage2
I0410 23:48:06.661204 39964 net.cpp:150] Setting up concat_stage2
I0410 23:48:06.661219 39964 net.cpp:157] Top shape: 8 48 46 46 (812544)
I0410 23:48:06.661228 39964 net.cpp:165] Memory required for data: 3612706052
I0410 23:48:06.661237 39964 layer_factory.hpp:77] Creating layer Mconv1_stage2
I0410 23:48:06.661258 39964 net.cpp:100] Creating Layer Mconv1_stage2
I0410 23:48:06.661268 39964 net.cpp:434] Mconv1_stage2 <- concat_stage2
I0410 23:48:06.661281 39964 net.cpp:408] Mconv1_stage2 -> Mconv1_stage2
I0410 23:48:06.696444 39964 net.cpp:150] Setting up Mconv1_stage2
I0410 23:48:06.696487 39964 net.cpp:157] Top shape: 8 128 46 46 (2166784)
I0410 23:48:06.696501 39964 net.cpp:165] Memory required for data: 3621373188
I0410 23:48:06.696518 39964 layer_factory.hpp:77] Creating layer Mrelu1_stage2
I0410 23:48:06.696537 39964 net.cpp:100] Creating Layer Mrelu1_stage2
I0410 23:48:06.696548 39964 net.cpp:434] Mrelu1_stage2 <- Mconv1_stage2
I0410 23:48:06.696563 39964 net.cpp:395] Mrelu1_stage2 -> Mconv1_stage2 (in-place)
I0410 23:48:06.696580 39964 net.cpp:150] Setting up Mrelu1_stage2
I0410 23:48:06.696594 39964 net.cpp:157] Top shape: 8 128 46 46 (2166784)
I0410 23:48:06.696605 39964 net.cpp:165] Memory required for data: 3630040324
I0410 23:48:06.696640 39964 layer_factory.hpp:77] Creating layer Mconv2_stage2
I0410 23:48:06.698900 39964 net.cpp:100] Creating Layer Mconv2_stage2
I0410 23:48:06.698936 39964 net.cpp:434] Mconv2_stage2 <- Mconv1_stage2
I0410 23:48:06.698962 39964 net.cpp:408] Mconv2_stage2 -> Mconv2_stage2
I0410 23:48:06.780522 39964 net.cpp:150] Setting up Mconv2_stage2
I0410 23:48:06.780550 39964 net.cpp:157] Top shape: 8 128 46 46 (2166784)
I0410 23:48:06.780560 39964 net.cpp:165] Memory required for data: 3638707460
I0410 23:48:06.780575 39964 layer_factory.hpp:77] Creating layer Mrelu2_stage2
I0410 23:48:06.780587 39964 net.cpp:100] Creating Layer Mrelu2_stage2
I0410 23:48:06.780597 39964 net.cpp:434] Mrelu2_stage2 <- Mconv2_stage2
I0410 23:48:06.780609 39964 net.cpp:395] Mrelu2_stage2 -> Mconv2_stage2 (in-place)
I0410 23:48:06.780623 39964 net.cpp:150] Setting up Mrelu2_stage2
I0410 23:48:06.780634 39964 net.cpp:157] Top shape: 8 128 46 46 (2166784)
I0410 23:48:06.780643 39964 net.cpp:165] Memory required for data: 3647374596
I0410 23:48:06.780652 39964 layer_factory.hpp:77] Creating layer Mconv3_stage2
I0410 23:48:06.780671 39964 net.cpp:100] Creating Layer Mconv3_stage2
I0410 23:48:06.780683 39964 net.cpp:434] Mconv3_stage2 <- Mconv2_stage2
I0410 23:48:06.780697 39964 net.cpp:408] Mconv3_stage2 -> Mconv3_stage2
I0410 23:48:06.860560 39964 net.cpp:150] Setting up Mconv3_stage2
I0410 23:48:06.860590 39964 net.cpp:157] Top shape: 8 128 46 46 (2166784)
I0410 23:48:06.860600 39964 net.cpp:165] Memory required for data: 3656041732
I0410 23:48:06.860613 39964 layer_factory.hpp:77] Creating layer Mrelu3_stage2
I0410 23:48:06.860627 39964 net.cpp:100] Creating Layer Mrelu3_stage2
I0410 23:48:06.860637 39964 net.cpp:434] Mrelu3_stage2 <- Mconv3_stage2
I0410 23:48:06.860648 39964 net.cpp:395] Mrelu3_stage2 -> Mconv3_stage2 (in-place)
I0410 23:48:06.860662 39964 net.cpp:150] Setting up Mrelu3_stage2
I0410 23:48:06.860674 39964 net.cpp:157] Top shape: 8 128 46 46 (2166784)
I0410 23:48:06.860683 39964 net.cpp:165] Memory required for data: 3664708868
I0410 23:48:06.860692 39964 layer_factory.hpp:77] Creating layer Mconv4_stage2
I0410 23:48:06.860712 39964 net.cpp:100] Creating Layer Mconv4_stage2
I0410 23:48:06.860723 39964 net.cpp:434] Mconv4_stage2 <- Mconv3_stage2
I0410 23:48:06.860738 39964 net.cpp:408] Mconv4_stage2 -> Mconv4_stage2
I0410 23:48:06.861646 39964 net.cpp:150] Setting up Mconv4_stage2
I0410 23:48:06.861666 39964 net.cpp:157] Top shape: 8 128 46 46 (2166784)
I0410 23:48:06.861676 39964 net.cpp:165] Memory required for data: 3673376004
I0410 23:48:06.861688 39964 layer_factory.hpp:77] Creating layer Mrelu4_stage2
I0410 23:48:06.861704 39964 net.cpp:100] Creating Layer Mrelu4_stage2
I0410 23:48:06.861714 39964 net.cpp:434] Mrelu4_stage2 <- Mconv4_stage2
I0410 23:48:06.861726 39964 net.cpp:395] Mrelu4_stage2 -> Mconv4_stage2 (in-place)
I0410 23:48:06.861739 39964 net.cpp:150] Setting up Mrelu4_stage2
I0410 23:48:06.861750 39964 net.cpp:157] Top shape: 8 128 46 46 (2166784)
I0410 23:48:06.861759 39964 net.cpp:165] Memory required for data: 3682043140
I0410 23:48:06.861768 39964 layer_factory.hpp:77] Creating layer Mconv5_stage2
I0410 23:48:06.861786 39964 net.cpp:100] Creating Layer Mconv5_stage2
I0410 23:48:06.861796 39964 net.cpp:434] Mconv5_stage2 <- Mconv4_stage2
I0410 23:48:06.861811 39964 net.cpp:408] Mconv5_stage2 -> Mconv5_stage2
I0410 23:48:06.862131 39964 net.cpp:150] Setting up Mconv5_stage2
I0410 23:48:06.862149 39964 net.cpp:157] Top shape: 8 15 46 46 (253920)
I0410 23:48:06.862159 39964 net.cpp:165] Memory required for data: 3683058820
I0410 23:48:06.862170 39964 layer_factory.hpp:77] Creating layer Mconv5_stage2_Mconv5_stage2_0_split
I0410 23:48:06.862184 39964 net.cpp:100] Creating Layer Mconv5_stage2_Mconv5_stage2_0_split
I0410 23:48:06.862193 39964 net.cpp:434] Mconv5_stage2_Mconv5_stage2_0_split <- Mconv5_stage2
I0410 23:48:06.862205 39964 net.cpp:408] Mconv5_stage2_Mconv5_stage2_0_split -> Mconv5_stage2_Mconv5_stage2_0_split_0
I0410 23:48:06.862217 39964 net.cpp:408] Mconv5_stage2_Mconv5_stage2_0_split -> Mconv5_stage2_Mconv5_stage2_0_split_1
I0410 23:48:06.862287 39964 net.cpp:150] Setting up Mconv5_stage2_Mconv5_stage2_0_split
I0410 23:48:06.862304 39964 net.cpp:157] Top shape: 8 15 46 46 (253920)
I0410 23:48:06.862314 39964 net.cpp:157] Top shape: 8 15 46 46 (253920)
I0410 23:48:06.862323 39964 net.cpp:165] Memory required for data: 3685090180
I0410 23:48:06.862332 39964 layer_factory.hpp:77] Creating layer loss_stage2
I0410 23:48:06.862344 39964 net.cpp:100] Creating Layer loss_stage2
I0410 23:48:06.862354 39964 net.cpp:434] loss_stage2 <- Mconv5_stage2_Mconv5_stage2_0_split_0
I0410 23:48:06.862365 39964 net.cpp:434] loss_stage2 <- label_lower_label_lower_0_split_0
I0410 23:48:06.862380 39964 net.cpp:408] loss_stage2 -> loss_stage2
I0410 23:48:06.862432 39964 net.cpp:150] Setting up loss_stage2
I0410 23:48:06.862447 39964 net.cpp:157] Top shape: (1)
I0410 23:48:06.862457 39964 net.cpp:160]     with loss weight 1
I0410 23:48:06.862476 39964 net.cpp:165] Memory required for data: 3685090184
I0410 23:48:06.862485 39964 layer_factory.hpp:77] Creating layer conv1_stage3
I0410 23:48:06.862506 39964 net.cpp:100] Creating Layer conv1_stage3
I0410 23:48:06.862517 39964 net.cpp:434] conv1_stage3 <- pool3_stage2_pool3_stage2_0_split_1
I0410 23:48:06.862531 39964 net.cpp:408] conv1_stage3 -> conv1_stage3
I0410 23:48:06.867357 39964 net.cpp:150] Setting up conv1_stage3
I0410 23:48:06.867379 39964 net.cpp:157] Top shape: 8 32 46 46 (541696)
I0410 23:48:06.867388 39964 net.cpp:165] Memory required for data: 3687256968
I0410 23:48:06.867416 39964 layer_factory.hpp:77] Creating layer relu1_stage3
I0410 23:48:06.867430 39964 net.cpp:100] Creating Layer relu1_stage3
I0410 23:48:06.867440 39964 net.cpp:434] relu1_stage3 <- conv1_stage3
I0410 23:48:06.867452 39964 net.cpp:395] relu1_stage3 -> conv1_stage3 (in-place)
I0410 23:48:06.867466 39964 net.cpp:150] Setting up relu1_stage3
I0410 23:48:06.867476 39964 net.cpp:157] Top shape: 8 32 46 46 (541696)
I0410 23:48:06.867486 39964 net.cpp:165] Memory required for data: 3689423752
I0410 23:48:06.867493 39964 layer_factory.hpp:77] Creating layer concat_stage3
I0410 23:48:06.867506 39964 net.cpp:100] Creating Layer concat_stage3
I0410 23:48:06.867516 39964 net.cpp:434] concat_stage3 <- conv1_stage3
I0410 23:48:06.867525 39964 net.cpp:434] concat_stage3 <- Mconv5_stage2_Mconv5_stage2_0_split_1
I0410 23:48:06.867537 39964 net.cpp:434] concat_stage3 <- pool_center_lower_pool_center_lower_0_split_1
I0410 23:48:06.867548 39964 net.cpp:408] concat_stage3 -> concat_stage3
I0410 23:48:06.867588 39964 net.cpp:150] Setting up concat_stage3
I0410 23:48:06.867602 39964 net.cpp:157] Top shape: 8 48 46 46 (812544)
I0410 23:48:06.867611 39964 net.cpp:165] Memory required for data: 3692673928
I0410 23:48:06.867620 39964 layer_factory.hpp:77] Creating layer Mconv1_stage3
I0410 23:48:06.867640 39964 net.cpp:100] Creating Layer Mconv1_stage3
I0410 23:48:06.867650 39964 net.cpp:434] Mconv1_stage3 <- concat_stage3
I0410 23:48:06.867666 39964 net.cpp:408] Mconv1_stage3 -> Mconv1_stage3
I0410 23:48:06.897874 39964 net.cpp:150] Setting up Mconv1_stage3
I0410 23:48:06.897898 39964 net.cpp:157] Top shape: 8 128 46 46 (2166784)
I0410 23:48:06.897908 39964 net.cpp:165] Memory required for data: 3701341064
I0410 23:48:06.897920 39964 layer_factory.hpp:77] Creating layer Mrelu1_stage3
I0410 23:48:06.897936 39964 net.cpp:100] Creating Layer Mrelu1_stage3
I0410 23:48:06.897946 39964 net.cpp:434] Mrelu1_stage3 <- Mconv1_stage3
I0410 23:48:06.897958 39964 net.cpp:395] Mrelu1_stage3 -> Mconv1_stage3 (in-place)
I0410 23:48:06.897972 39964 net.cpp:150] Setting up Mrelu1_stage3
I0410 23:48:06.897984 39964 net.cpp:157] Top shape: 8 128 46 46 (2166784)
I0410 23:48:06.897992 39964 net.cpp:165] Memory required for data: 3710008200
I0410 23:48:06.898001 39964 layer_factory.hpp:77] Creating layer Mconv2_stage3
I0410 23:48:06.898021 39964 net.cpp:100] Creating Layer Mconv2_stage3
I0410 23:48:06.898031 39964 net.cpp:434] Mconv2_stage3 <- Mconv1_stage3
I0410 23:48:06.898046 39964 net.cpp:408] Mconv2_stage3 -> Mconv2_stage3
I0410 23:48:06.977903 39964 net.cpp:150] Setting up Mconv2_stage3
I0410 23:48:06.977946 39964 net.cpp:157] Top shape: 8 128 46 46 (2166784)
I0410 23:48:06.977955 39964 net.cpp:165] Memory required for data: 3718675336
I0410 23:48:06.977969 39964 layer_factory.hpp:77] Creating layer Mrelu2_stage3
I0410 23:48:06.977985 39964 net.cpp:100] Creating Layer Mrelu2_stage3
I0410 23:48:06.977995 39964 net.cpp:434] Mrelu2_stage3 <- Mconv2_stage3
I0410 23:48:06.978008 39964 net.cpp:395] Mrelu2_stage3 -> Mconv2_stage3 (in-place)
I0410 23:48:06.978021 39964 net.cpp:150] Setting up Mrelu2_stage3
I0410 23:48:06.978032 39964 net.cpp:157] Top shape: 8 128 46 46 (2166784)
I0410 23:48:06.978041 39964 net.cpp:165] Memory required for data: 3727342472
I0410 23:48:06.978050 39964 layer_factory.hpp:77] Creating layer Mconv3_stage3
I0410 23:48:06.978070 39964 net.cpp:100] Creating Layer Mconv3_stage3
I0410 23:48:06.978080 39964 net.cpp:434] Mconv3_stage3 <- Mconv2_stage3
I0410 23:48:06.978094 39964 net.cpp:408] Mconv3_stage3 -> Mconv3_stage3
I0410 23:48:07.057953 39964 net.cpp:150] Setting up Mconv3_stage3
I0410 23:48:07.057979 39964 net.cpp:157] Top shape: 8 128 46 46 (2166784)
I0410 23:48:07.057989 39964 net.cpp:165] Memory required for data: 3736009608
I0410 23:48:07.058002 39964 layer_factory.hpp:77] Creating layer Mrelu3_stage3
I0410 23:48:07.058015 39964 net.cpp:100] Creating Layer Mrelu3_stage3
I0410 23:48:07.058025 39964 net.cpp:434] Mrelu3_stage3 <- Mconv3_stage3
I0410 23:48:07.058039 39964 net.cpp:395] Mrelu3_stage3 -> Mconv3_stage3 (in-place)
I0410 23:48:07.058054 39964 net.cpp:150] Setting up Mrelu3_stage3
I0410 23:48:07.058065 39964 net.cpp:157] Top shape: 8 128 46 46 (2166784)
I0410 23:48:07.058074 39964 net.cpp:165] Memory required for data: 3744676744
I0410 23:48:07.058084 39964 layer_factory.hpp:77] Creating layer Mconv4_stage3
I0410 23:48:07.058105 39964 net.cpp:100] Creating Layer Mconv4_stage3
I0410 23:48:07.058115 39964 net.cpp:434] Mconv4_stage3 <- Mconv3_stage3
I0410 23:48:07.058130 39964 net.cpp:408] Mconv4_stage3 -> Mconv4_stage3
I0410 23:48:07.059027 39964 net.cpp:150] Setting up Mconv4_stage3
I0410 23:48:07.059046 39964 net.cpp:157] Top shape: 8 128 46 46 (2166784)
I0410 23:48:07.059056 39964 net.cpp:165] Memory required for data: 3753343880
I0410 23:48:07.059068 39964 layer_factory.hpp:77] Creating layer Mrelu4_stage3
I0410 23:48:07.059080 39964 net.cpp:100] Creating Layer Mrelu4_stage3
I0410 23:48:07.059089 39964 net.cpp:434] Mrelu4_stage3 <- Mconv4_stage3
I0410 23:48:07.059105 39964 net.cpp:395] Mrelu4_stage3 -> Mconv4_stage3 (in-place)
I0410 23:48:07.059119 39964 net.cpp:150] Setting up Mrelu4_stage3
I0410 23:48:07.059130 39964 net.cpp:157] Top shape: 8 128 46 46 (2166784)
I0410 23:48:07.059139 39964 net.cpp:165] Memory required for data: 3762011016
I0410 23:48:07.059149 39964 layer_factory.hpp:77] Creating layer Mconv5_stage3
I0410 23:48:07.059166 39964 net.cpp:100] Creating Layer Mconv5_stage3
I0410 23:48:07.059176 39964 net.cpp:434] Mconv5_stage3 <- Mconv4_stage3
I0410 23:48:07.059188 39964 net.cpp:408] Mconv5_stage3 -> Mconv5_stage3
I0410 23:48:07.059527 39964 net.cpp:150] Setting up Mconv5_stage3
I0410 23:48:07.059545 39964 net.cpp:157] Top shape: 8 15 46 46 (253920)
I0410 23:48:07.059554 39964 net.cpp:165] Memory required for data: 3763026696
I0410 23:48:07.059566 39964 layer_factory.hpp:77] Creating layer Mconv5_stage3_Mconv5_stage3_0_split
I0410 23:48:07.059579 39964 net.cpp:100] Creating Layer Mconv5_stage3_Mconv5_stage3_0_split
I0410 23:48:07.059589 39964 net.cpp:434] Mconv5_stage3_Mconv5_stage3_0_split <- Mconv5_stage3
I0410 23:48:07.059603 39964 net.cpp:408] Mconv5_stage3_Mconv5_stage3_0_split -> Mconv5_stage3_Mconv5_stage3_0_split_0
I0410 23:48:07.059618 39964 net.cpp:408] Mconv5_stage3_Mconv5_stage3_0_split -> Mconv5_stage3_Mconv5_stage3_0_split_1
I0410 23:48:07.059667 39964 net.cpp:150] Setting up Mconv5_stage3_Mconv5_stage3_0_split
I0410 23:48:07.059684 39964 net.cpp:157] Top shape: 8 15 46 46 (253920)
I0410 23:48:07.059695 39964 net.cpp:157] Top shape: 8 15 46 46 (253920)
I0410 23:48:07.059710 39964 net.cpp:165] Memory required for data: 3765058056
I0410 23:48:07.059729 39964 layer_factory.hpp:77] Creating layer loss_stage3
I0410 23:48:07.059758 39964 net.cpp:100] Creating Layer loss_stage3
I0410 23:48:07.059769 39964 net.cpp:434] loss_stage3 <- Mconv5_stage3_Mconv5_stage3_0_split_0
I0410 23:48:07.059782 39964 net.cpp:434] loss_stage3 <- label_lower_label_lower_0_split_1
I0410 23:48:07.059792 39964 net.cpp:408] loss_stage3 -> loss_stage3
I0410 23:48:07.059845 39964 net.cpp:150] Setting up loss_stage3
I0410 23:48:07.059860 39964 net.cpp:157] Top shape: (1)
I0410 23:48:07.059870 39964 net.cpp:160]     with loss weight 1
I0410 23:48:07.059890 39964 net.cpp:165] Memory required for data: 3765058060
I0410 23:48:07.059900 39964 layer_factory.hpp:77] Creating layer conv1_stage4
I0410 23:48:07.059918 39964 net.cpp:100] Creating Layer conv1_stage4
I0410 23:48:07.059929 39964 net.cpp:434] conv1_stage4 <- pool3_stage2_pool3_stage2_0_split_2
I0410 23:48:07.059945 39964 net.cpp:408] conv1_stage4 -> conv1_stage4
I0410 23:48:07.064172 39964 net.cpp:150] Setting up conv1_stage4
I0410 23:48:07.064193 39964 net.cpp:157] Top shape: 8 32 46 46 (541696)
I0410 23:48:07.064203 39964 net.cpp:165] Memory required for data: 3767224844
I0410 23:48:07.064214 39964 layer_factory.hpp:77] Creating layer relu1_stage4
I0410 23:48:07.064230 39964 net.cpp:100] Creating Layer relu1_stage4
I0410 23:48:07.064240 39964 net.cpp:434] relu1_stage4 <- conv1_stage4
I0410 23:48:07.064251 39964 net.cpp:395] relu1_stage4 -> conv1_stage4 (in-place)
I0410 23:48:07.064265 39964 net.cpp:150] Setting up relu1_stage4
I0410 23:48:07.064276 39964 net.cpp:157] Top shape: 8 32 46 46 (541696)
I0410 23:48:07.064285 39964 net.cpp:165] Memory required for data: 3769391628
I0410 23:48:07.064293 39964 layer_factory.hpp:77] Creating layer concat_stage4
I0410 23:48:07.064306 39964 net.cpp:100] Creating Layer concat_stage4
I0410 23:48:07.064319 39964 net.cpp:434] concat_stage4 <- conv1_stage4
I0410 23:48:07.064330 39964 net.cpp:434] concat_stage4 <- Mconv5_stage3_Mconv5_stage3_0_split_1
I0410 23:48:07.064342 39964 net.cpp:434] concat_stage4 <- pool_center_lower_pool_center_lower_0_split_2
I0410 23:48:07.064353 39964 net.cpp:408] concat_stage4 -> concat_stage4
I0410 23:48:07.064404 39964 net.cpp:150] Setting up concat_stage4
I0410 23:48:07.064422 39964 net.cpp:157] Top shape: 8 48 46 46 (812544)
I0410 23:48:07.064432 39964 net.cpp:165] Memory required for data: 3772641804
I0410 23:48:07.064441 39964 layer_factory.hpp:77] Creating layer Mconv1_stage4
I0410 23:48:07.064456 39964 net.cpp:100] Creating Layer Mconv1_stage4
I0410 23:48:07.064466 39964 net.cpp:434] Mconv1_stage4 <- concat_stage4
I0410 23:48:07.064482 39964 net.cpp:408] Mconv1_stage4 -> Mconv1_stage4
I0410 23:48:07.094707 39964 net.cpp:150] Setting up Mconv1_stage4
I0410 23:48:07.094729 39964 net.cpp:157] Top shape: 8 128 46 46 (2166784)
I0410 23:48:07.094739 39964 net.cpp:165] Memory required for data: 3781308940
I0410 23:48:07.094753 39964 layer_factory.hpp:77] Creating layer Mrelu1_stage4
I0410 23:48:07.094765 39964 net.cpp:100] Creating Layer Mrelu1_stage4
I0410 23:48:07.094774 39964 net.cpp:434] Mrelu1_stage4 <- Mconv1_stage4
I0410 23:48:07.094786 39964 net.cpp:395] Mrelu1_stage4 -> Mconv1_stage4 (in-place)
I0410 23:48:07.094805 39964 net.cpp:150] Setting up Mrelu1_stage4
I0410 23:48:07.094816 39964 net.cpp:157] Top shape: 8 128 46 46 (2166784)
I0410 23:48:07.094825 39964 net.cpp:165] Memory required for data: 3789976076
I0410 23:48:07.094835 39964 layer_factory.hpp:77] Creating layer Mconv2_stage4
I0410 23:48:07.094849 39964 net.cpp:100] Creating Layer Mconv2_stage4
I0410 23:48:07.094859 39964 net.cpp:434] Mconv2_stage4 <- Mconv1_stage4
I0410 23:48:07.094874 39964 net.cpp:408] Mconv2_stage4 -> Mconv2_stage4
I0410 23:48:07.174767 39964 net.cpp:150] Setting up Mconv2_stage4
I0410 23:48:07.174808 39964 net.cpp:157] Top shape: 8 128 46 46 (2166784)
I0410 23:48:07.174819 39964 net.cpp:165] Memory required for data: 3798643212
I0410 23:48:07.174834 39964 layer_factory.hpp:77] Creating layer Mrelu2_stage4
I0410 23:48:07.174857 39964 net.cpp:100] Creating Layer Mrelu2_stage4
I0410 23:48:07.174880 39964 net.cpp:434] Mrelu2_stage4 <- Mconv2_stage4
I0410 23:48:07.174893 39964 net.cpp:395] Mrelu2_stage4 -> Mconv2_stage4 (in-place)
I0410 23:48:07.174908 39964 net.cpp:150] Setting up Mrelu2_stage4
I0410 23:48:07.174921 39964 net.cpp:157] Top shape: 8 128 46 46 (2166784)
I0410 23:48:07.174929 39964 net.cpp:165] Memory required for data: 3807310348
I0410 23:48:07.174938 39964 layer_factory.hpp:77] Creating layer Mconv3_stage4
I0410 23:48:07.174957 39964 net.cpp:100] Creating Layer Mconv3_stage4
I0410 23:48:07.174968 39964 net.cpp:434] Mconv3_stage4 <- Mconv2_stage4
I0410 23:48:07.174984 39964 net.cpp:408] Mconv3_stage4 -> Mconv3_stage4
I0410 23:48:07.255055 39964 net.cpp:150] Setting up Mconv3_stage4
I0410 23:48:07.255081 39964 net.cpp:157] Top shape: 8 128 46 46 (2166784)
I0410 23:48:07.255091 39964 net.cpp:165] Memory required for data: 3815977484
I0410 23:48:07.255105 39964 layer_factory.hpp:77] Creating layer Mrelu3_stage4
I0410 23:48:07.255121 39964 net.cpp:100] Creating Layer Mrelu3_stage4
I0410 23:48:07.255132 39964 net.cpp:434] Mrelu3_stage4 <- Mconv3_stage4
I0410 23:48:07.255144 39964 net.cpp:395] Mrelu3_stage4 -> Mconv3_stage4 (in-place)
I0410 23:48:07.255158 39964 net.cpp:150] Setting up Mrelu3_stage4
I0410 23:48:07.255170 39964 net.cpp:157] Top shape: 8 128 46 46 (2166784)
I0410 23:48:07.255178 39964 net.cpp:165] Memory required for data: 3824644620
I0410 23:48:07.255187 39964 layer_factory.hpp:77] Creating layer Mconv4_stage4
I0410 23:48:07.255206 39964 net.cpp:100] Creating Layer Mconv4_stage4
I0410 23:48:07.255216 39964 net.cpp:434] Mconv4_stage4 <- Mconv3_stage4
I0410 23:48:07.255233 39964 net.cpp:408] Mconv4_stage4 -> Mconv4_stage4
I0410 23:48:07.256134 39964 net.cpp:150] Setting up Mconv4_stage4
I0410 23:48:07.256152 39964 net.cpp:157] Top shape: 8 128 46 46 (2166784)
I0410 23:48:07.256161 39964 net.cpp:165] Memory required for data: 3833311756
I0410 23:48:07.256175 39964 layer_factory.hpp:77] Creating layer Mrelu4_stage4
I0410 23:48:07.256186 39964 net.cpp:100] Creating Layer Mrelu4_stage4
I0410 23:48:07.256196 39964 net.cpp:434] Mrelu4_stage4 <- Mconv4_stage4
I0410 23:48:07.256207 39964 net.cpp:395] Mrelu4_stage4 -> Mconv4_stage4 (in-place)
I0410 23:48:07.256220 39964 net.cpp:150] Setting up Mrelu4_stage4
I0410 23:48:07.256232 39964 net.cpp:157] Top shape: 8 128 46 46 (2166784)
I0410 23:48:07.256239 39964 net.cpp:165] Memory required for data: 3841978892
I0410 23:48:07.256248 39964 layer_factory.hpp:77] Creating layer Mconv5_stage4
I0410 23:48:07.256266 39964 net.cpp:100] Creating Layer Mconv5_stage4
I0410 23:48:07.256276 39964 net.cpp:434] Mconv5_stage4 <- Mconv4_stage4
I0410 23:48:07.256292 39964 net.cpp:408] Mconv5_stage4 -> Mconv5_stage4
I0410 23:48:07.256625 39964 net.cpp:150] Setting up Mconv5_stage4
I0410 23:48:07.256644 39964 net.cpp:157] Top shape: 8 15 46 46 (253920)
I0410 23:48:07.256652 39964 net.cpp:165] Memory required for data: 3842994572
I0410 23:48:07.256665 39964 layer_factory.hpp:77] Creating layer Mconv5_stage4_Mconv5_stage4_0_split
I0410 23:48:07.256678 39964 net.cpp:100] Creating Layer Mconv5_stage4_Mconv5_stage4_0_split
I0410 23:48:07.256687 39964 net.cpp:434] Mconv5_stage4_Mconv5_stage4_0_split <- Mconv5_stage4
I0410 23:48:07.256705 39964 net.cpp:408] Mconv5_stage4_Mconv5_stage4_0_split -> Mconv5_stage4_Mconv5_stage4_0_split_0
I0410 23:48:07.256719 39964 net.cpp:408] Mconv5_stage4_Mconv5_stage4_0_split -> Mconv5_stage4_Mconv5_stage4_0_split_1
I0410 23:48:07.256772 39964 net.cpp:150] Setting up Mconv5_stage4_Mconv5_stage4_0_split
I0410 23:48:07.256788 39964 net.cpp:157] Top shape: 8 15 46 46 (253920)
I0410 23:48:07.256798 39964 net.cpp:157] Top shape: 8 15 46 46 (253920)
I0410 23:48:07.256808 39964 net.cpp:165] Memory required for data: 3845025932
I0410 23:48:07.256816 39964 layer_factory.hpp:77] Creating layer loss_stage4
I0410 23:48:07.256829 39964 net.cpp:100] Creating Layer loss_stage4
I0410 23:48:07.256837 39964 net.cpp:434] loss_stage4 <- Mconv5_stage4_Mconv5_stage4_0_split_0
I0410 23:48:07.256856 39964 net.cpp:434] loss_stage4 <- label_lower_label_lower_0_split_2
I0410 23:48:07.256883 39964 net.cpp:408] loss_stage4 -> loss_stage4
I0410 23:48:07.256934 39964 net.cpp:150] Setting up loss_stage4
I0410 23:48:07.256950 39964 net.cpp:157] Top shape: (1)
I0410 23:48:07.256959 39964 net.cpp:160]     with loss weight 1
I0410 23:48:07.256978 39964 net.cpp:165] Memory required for data: 3845025936
I0410 23:48:07.256988 39964 layer_factory.hpp:77] Creating layer conv1_stage5
I0410 23:48:07.257005 39964 net.cpp:100] Creating Layer conv1_stage5
I0410 23:48:07.257016 39964 net.cpp:434] conv1_stage5 <- pool3_stage2_pool3_stage2_0_split_3
I0410 23:48:07.257032 39964 net.cpp:408] conv1_stage5 -> conv1_stage5
I0410 23:48:07.261912 39964 net.cpp:150] Setting up conv1_stage5
I0410 23:48:07.261934 39964 net.cpp:157] Top shape: 8 32 46 46 (541696)
I0410 23:48:07.261945 39964 net.cpp:165] Memory required for data: 3847192720
I0410 23:48:07.261957 39964 layer_factory.hpp:77] Creating layer relu1_stage5
I0410 23:48:07.261970 39964 net.cpp:100] Creating Layer relu1_stage5
I0410 23:48:07.261979 39964 net.cpp:434] relu1_stage5 <- conv1_stage5
I0410 23:48:07.261994 39964 net.cpp:395] relu1_stage5 -> conv1_stage5 (in-place)
I0410 23:48:07.262009 39964 net.cpp:150] Setting up relu1_stage5
I0410 23:48:07.262020 39964 net.cpp:157] Top shape: 8 32 46 46 (541696)
I0410 23:48:07.262029 39964 net.cpp:165] Memory required for data: 3849359504
I0410 23:48:07.262038 39964 layer_factory.hpp:77] Creating layer concat_stage5
I0410 23:48:07.262050 39964 net.cpp:100] Creating Layer concat_stage5
I0410 23:48:07.262060 39964 net.cpp:434] concat_stage5 <- conv1_stage5
I0410 23:48:07.262070 39964 net.cpp:434] concat_stage5 <- Mconv5_stage4_Mconv5_stage4_0_split_1
I0410 23:48:07.262081 39964 net.cpp:434] concat_stage5 <- pool_center_lower_pool_center_lower_0_split_3
I0410 23:48:07.262094 39964 net.cpp:408] concat_stage5 -> concat_stage5
I0410 23:48:07.262133 39964 net.cpp:150] Setting up concat_stage5
I0410 23:48:07.262148 39964 net.cpp:157] Top shape: 8 48 46 46 (812544)
I0410 23:48:07.262157 39964 net.cpp:165] Memory required for data: 3852609680
I0410 23:48:07.262166 39964 layer_factory.hpp:77] Creating layer Mconv1_stage5
I0410 23:48:07.262184 39964 net.cpp:100] Creating Layer Mconv1_stage5
I0410 23:48:07.262195 39964 net.cpp:434] Mconv1_stage5 <- concat_stage5
I0410 23:48:07.262212 39964 net.cpp:408] Mconv1_stage5 -> Mconv1_stage5
I0410 23:48:07.292652 39964 net.cpp:150] Setting up Mconv1_stage5
I0410 23:48:07.292675 39964 net.cpp:157] Top shape: 8 128 46 46 (2166784)
I0410 23:48:07.292685 39964 net.cpp:165] Memory required for data: 3861276816
I0410 23:48:07.292698 39964 layer_factory.hpp:77] Creating layer Mrelu1_stage5
I0410 23:48:07.292716 39964 net.cpp:100] Creating Layer Mrelu1_stage5
I0410 23:48:07.292726 39964 net.cpp:434] Mrelu1_stage5 <- Mconv1_stage5
I0410 23:48:07.292738 39964 net.cpp:395] Mrelu1_stage5 -> Mconv1_stage5 (in-place)
I0410 23:48:07.292752 39964 net.cpp:150] Setting up Mrelu1_stage5
I0410 23:48:07.292763 39964 net.cpp:157] Top shape: 8 128 46 46 (2166784)
I0410 23:48:07.292771 39964 net.cpp:165] Memory required for data: 3869943952
I0410 23:48:07.292780 39964 layer_factory.hpp:77] Creating layer Mconv2_stage5
I0410 23:48:07.292799 39964 net.cpp:100] Creating Layer Mconv2_stage5
I0410 23:48:07.292810 39964 net.cpp:434] Mconv2_stage5 <- Mconv1_stage5
I0410 23:48:07.292826 39964 net.cpp:408] Mconv2_stage5 -> Mconv2_stage5
I0410 23:48:07.372858 39964 net.cpp:150] Setting up Mconv2_stage5
I0410 23:48:07.372884 39964 net.cpp:157] Top shape: 8 128 46 46 (2166784)
I0410 23:48:07.372894 39964 net.cpp:165] Memory required for data: 3878611088
I0410 23:48:07.372906 39964 layer_factory.hpp:77] Creating layer Mrelu2_stage5
I0410 23:48:07.372920 39964 net.cpp:100] Creating Layer Mrelu2_stage5
I0410 23:48:07.372930 39964 net.cpp:434] Mrelu2_stage5 <- Mconv2_stage5
I0410 23:48:07.372946 39964 net.cpp:395] Mrelu2_stage5 -> Mconv2_stage5 (in-place)
I0410 23:48:07.372959 39964 net.cpp:150] Setting up Mrelu2_stage5
I0410 23:48:07.372972 39964 net.cpp:157] Top shape: 8 128 46 46 (2166784)
I0410 23:48:07.372995 39964 net.cpp:165] Memory required for data: 3887278224
I0410 23:48:07.373005 39964 layer_factory.hpp:77] Creating layer Mconv3_stage5
I0410 23:48:07.373025 39964 net.cpp:100] Creating Layer Mconv3_stage5
I0410 23:48:07.373036 39964 net.cpp:434] Mconv3_stage5 <- Mconv2_stage5
I0410 23:48:07.373049 39964 net.cpp:408] Mconv3_stage5 -> Mconv3_stage5
I0410 23:48:07.452922 39964 net.cpp:150] Setting up Mconv3_stage5
I0410 23:48:07.452946 39964 net.cpp:157] Top shape: 8 128 46 46 (2166784)
I0410 23:48:07.452956 39964 net.cpp:165] Memory required for data: 3895945360
I0410 23:48:07.452970 39964 layer_factory.hpp:77] Creating layer Mrelu3_stage5
I0410 23:48:07.452982 39964 net.cpp:100] Creating Layer Mrelu3_stage5
I0410 23:48:07.452992 39964 net.cpp:434] Mrelu3_stage5 <- Mconv3_stage5
I0410 23:48:07.453007 39964 net.cpp:395] Mrelu3_stage5 -> Mconv3_stage5 (in-place)
I0410 23:48:07.453022 39964 net.cpp:150] Setting up Mrelu3_stage5
I0410 23:48:07.453033 39964 net.cpp:157] Top shape: 8 128 46 46 (2166784)
I0410 23:48:07.453042 39964 net.cpp:165] Memory required for data: 3904612496
I0410 23:48:07.453052 39964 layer_factory.hpp:77] Creating layer Mconv4_stage5
I0410 23:48:07.453069 39964 net.cpp:100] Creating Layer Mconv4_stage5
I0410 23:48:07.453080 39964 net.cpp:434] Mconv4_stage5 <- Mconv3_stage5
I0410 23:48:07.453094 39964 net.cpp:408] Mconv4_stage5 -> Mconv4_stage5
I0410 23:48:07.454012 39964 net.cpp:150] Setting up Mconv4_stage5
I0410 23:48:07.454031 39964 net.cpp:157] Top shape: 8 128 46 46 (2166784)
I0410 23:48:07.454041 39964 net.cpp:165] Memory required for data: 3913279632
I0410 23:48:07.454073 39964 layer_factory.hpp:77] Creating layer Mrelu4_stage5
I0410 23:48:07.454088 39964 net.cpp:100] Creating Layer Mrelu4_stage5
I0410 23:48:07.454098 39964 net.cpp:434] Mrelu4_stage5 <- Mconv4_stage5
I0410 23:48:07.454111 39964 net.cpp:395] Mrelu4_stage5 -> Mconv4_stage5 (in-place)
I0410 23:48:07.454125 39964 net.cpp:150] Setting up Mrelu4_stage5
I0410 23:48:07.454138 39964 net.cpp:157] Top shape: 8 128 46 46 (2166784)
I0410 23:48:07.454145 39964 net.cpp:165] Memory required for data: 3921946768
I0410 23:48:07.454154 39964 layer_factory.hpp:77] Creating layer Mconv5_stage5
I0410 23:48:07.454169 39964 net.cpp:100] Creating Layer Mconv5_stage5
I0410 23:48:07.454180 39964 net.cpp:434] Mconv5_stage5 <- Mconv4_stage5
I0410 23:48:07.454195 39964 net.cpp:408] Mconv5_stage5 -> Mconv5_stage5
I0410 23:48:07.454550 39964 net.cpp:150] Setting up Mconv5_stage5
I0410 23:48:07.454567 39964 net.cpp:157] Top shape: 8 15 46 46 (253920)
I0410 23:48:07.454577 39964 net.cpp:165] Memory required for data: 3922962448
I0410 23:48:07.454589 39964 layer_factory.hpp:77] Creating layer Mconv5_stage5_Mconv5_stage5_0_split
I0410 23:48:07.454602 39964 net.cpp:100] Creating Layer Mconv5_stage5_Mconv5_stage5_0_split
I0410 23:48:07.454612 39964 net.cpp:434] Mconv5_stage5_Mconv5_stage5_0_split <- Mconv5_stage5
I0410 23:48:07.454624 39964 net.cpp:408] Mconv5_stage5_Mconv5_stage5_0_split -> Mconv5_stage5_Mconv5_stage5_0_split_0
I0410 23:48:07.454638 39964 net.cpp:408] Mconv5_stage5_Mconv5_stage5_0_split -> Mconv5_stage5_Mconv5_stage5_0_split_1
I0410 23:48:07.454691 39964 net.cpp:150] Setting up Mconv5_stage5_Mconv5_stage5_0_split
I0410 23:48:07.454706 39964 net.cpp:157] Top shape: 8 15 46 46 (253920)
I0410 23:48:07.454717 39964 net.cpp:157] Top shape: 8 15 46 46 (253920)
I0410 23:48:07.454726 39964 net.cpp:165] Memory required for data: 3924993808
I0410 23:48:07.454735 39964 layer_factory.hpp:77] Creating layer loss_stage5
I0410 23:48:07.454751 39964 net.cpp:100] Creating Layer loss_stage5
I0410 23:48:07.454761 39964 net.cpp:434] loss_stage5 <- Mconv5_stage5_Mconv5_stage5_0_split_0
I0410 23:48:07.454771 39964 net.cpp:434] loss_stage5 <- label_lower_label_lower_0_split_3
I0410 23:48:07.454783 39964 net.cpp:408] loss_stage5 -> loss_stage5
I0410 23:48:07.454838 39964 net.cpp:150] Setting up loss_stage5
I0410 23:48:07.454854 39964 net.cpp:157] Top shape: (1)
I0410 23:48:07.454862 39964 net.cpp:160]     with loss weight 1
I0410 23:48:07.454886 39964 net.cpp:165] Memory required for data: 3924993812
I0410 23:48:07.454905 39964 layer_factory.hpp:77] Creating layer conv1_stage6
I0410 23:48:07.454924 39964 net.cpp:100] Creating Layer conv1_stage6
I0410 23:48:07.454936 39964 net.cpp:434] conv1_stage6 <- pool3_stage2_pool3_stage2_0_split_4
I0410 23:48:07.454949 39964 net.cpp:408] conv1_stage6 -> conv1_stage6
I0410 23:48:07.459210 39964 net.cpp:150] Setting up conv1_stage6
I0410 23:48:07.459229 39964 net.cpp:157] Top shape: 8 32 46 46 (541696)
I0410 23:48:07.459239 39964 net.cpp:165] Memory required for data: 3927160596
I0410 23:48:07.459251 39964 layer_factory.hpp:77] Creating layer relu1_stage6
I0410 23:48:07.459267 39964 net.cpp:100] Creating Layer relu1_stage6
I0410 23:48:07.459277 39964 net.cpp:434] relu1_stage6 <- conv1_stage6
I0410 23:48:07.459288 39964 net.cpp:395] relu1_stage6 -> conv1_stage6 (in-place)
I0410 23:48:07.459301 39964 net.cpp:150] Setting up relu1_stage6
I0410 23:48:07.459312 39964 net.cpp:157] Top shape: 8 32 46 46 (541696)
I0410 23:48:07.459321 39964 net.cpp:165] Memory required for data: 3929327380
I0410 23:48:07.459331 39964 layer_factory.hpp:77] Creating layer concat_stage6
I0410 23:48:07.459342 39964 net.cpp:100] Creating Layer concat_stage6
I0410 23:48:07.459352 39964 net.cpp:434] concat_stage6 <- conv1_stage6
I0410 23:48:07.459362 39964 net.cpp:434] concat_stage6 <- Mconv5_stage5_Mconv5_stage5_0_split_1
I0410 23:48:07.459373 39964 net.cpp:434] concat_stage6 <- pool_center_lower_pool_center_lower_0_split_4
I0410 23:48:07.459388 39964 net.cpp:408] concat_stage6 -> concat_stage6
I0410 23:48:07.459424 39964 net.cpp:150] Setting up concat_stage6
I0410 23:48:07.459444 39964 net.cpp:157] Top shape: 8 48 46 46 (812544)
I0410 23:48:07.459452 39964 net.cpp:165] Memory required for data: 3932577556
I0410 23:48:07.459462 39964 layer_factory.hpp:77] Creating layer Mconv1_stage6
I0410 23:48:07.459476 39964 net.cpp:100] Creating Layer Mconv1_stage6
I0410 23:48:07.459486 39964 net.cpp:434] Mconv1_stage6 <- concat_stage6
I0410 23:48:07.459502 39964 net.cpp:408] Mconv1_stage6 -> Mconv1_stage6
I0410 23:48:07.489749 39964 net.cpp:150] Setting up Mconv1_stage6
I0410 23:48:07.489771 39964 net.cpp:157] Top shape: 8 128 46 46 (2166784)
I0410 23:48:07.489781 39964 net.cpp:165] Memory required for data: 3941244692
I0410 23:48:07.489794 39964 layer_factory.hpp:77] Creating layer Mrelu1_stage6
I0410 23:48:07.489806 39964 net.cpp:100] Creating Layer Mrelu1_stage6
I0410 23:48:07.489816 39964 net.cpp:434] Mrelu1_stage6 <- Mconv1_stage6
I0410 23:48:07.489831 39964 net.cpp:395] Mrelu1_stage6 -> Mconv1_stage6 (in-place)
I0410 23:48:07.489845 39964 net.cpp:150] Setting up Mrelu1_stage6
I0410 23:48:07.489857 39964 net.cpp:157] Top shape: 8 128 46 46 (2166784)
I0410 23:48:07.489866 39964 net.cpp:165] Memory required for data: 3949911828
I0410 23:48:07.489876 39964 layer_factory.hpp:77] Creating layer Mconv2_stage6
I0410 23:48:07.489890 39964 net.cpp:100] Creating Layer Mconv2_stage6
I0410 23:48:07.489899 39964 net.cpp:434] Mconv2_stage6 <- Mconv1_stage6
I0410 23:48:07.489915 39964 net.cpp:408] Mconv2_stage6 -> Mconv2_stage6
I0410 23:48:07.569792 39964 net.cpp:150] Setting up Mconv2_stage6
I0410 23:48:07.569818 39964 net.cpp:157] Top shape: 8 128 46 46 (2166784)
I0410 23:48:07.569828 39964 net.cpp:165] Memory required for data: 3958578964
I0410 23:48:07.569840 39964 layer_factory.hpp:77] Creating layer Mrelu2_stage6
I0410 23:48:07.569856 39964 net.cpp:100] Creating Layer Mrelu2_stage6
I0410 23:48:07.569867 39964 net.cpp:434] Mrelu2_stage6 <- Mconv2_stage6
I0410 23:48:07.569880 39964 net.cpp:395] Mrelu2_stage6 -> Mconv2_stage6 (in-place)
I0410 23:48:07.569892 39964 net.cpp:150] Setting up Mrelu2_stage6
I0410 23:48:07.569905 39964 net.cpp:157] Top shape: 8 128 46 46 (2166784)
I0410 23:48:07.569913 39964 net.cpp:165] Memory required for data: 3967246100
I0410 23:48:07.569921 39964 layer_factory.hpp:77] Creating layer Mconv3_stage6
I0410 23:48:07.569941 39964 net.cpp:100] Creating Layer Mconv3_stage6
I0410 23:48:07.569950 39964 net.cpp:434] Mconv3_stage6 <- Mconv2_stage6
I0410 23:48:07.569983 39964 net.cpp:408] Mconv3_stage6 -> Mconv3_stage6
I0410 23:48:07.649883 39964 net.cpp:150] Setting up Mconv3_stage6
I0410 23:48:07.649906 39964 net.cpp:157] Top shape: 8 128 46 46 (2166784)
I0410 23:48:07.649915 39964 net.cpp:165] Memory required for data: 3975913236
I0410 23:48:07.649930 39964 layer_factory.hpp:77] Creating layer Mrelu3_stage6
I0410 23:48:07.649945 39964 net.cpp:100] Creating Layer Mrelu3_stage6
I0410 23:48:07.649955 39964 net.cpp:434] Mrelu3_stage6 <- Mconv3_stage6
I0410 23:48:07.649967 39964 net.cpp:395] Mrelu3_stage6 -> Mconv3_stage6 (in-place)
I0410 23:48:07.649981 39964 net.cpp:150] Setting up Mrelu3_stage6
I0410 23:48:07.649992 39964 net.cpp:157] Top shape: 8 128 46 46 (2166784)
I0410 23:48:07.650001 39964 net.cpp:165] Memory required for data: 3984580372
I0410 23:48:07.650009 39964 layer_factory.hpp:77] Creating layer Mconv4_stage6
I0410 23:48:07.650028 39964 net.cpp:100] Creating Layer Mconv4_stage6
I0410 23:48:07.650038 39964 net.cpp:434] Mconv4_stage6 <- Mconv3_stage6
I0410 23:48:07.650055 39964 net.cpp:408] Mconv4_stage6 -> Mconv4_stage6
I0410 23:48:07.650979 39964 net.cpp:150] Setting up Mconv4_stage6
I0410 23:48:07.650997 39964 net.cpp:157] Top shape: 8 128 46 46 (2166784)
I0410 23:48:07.651007 39964 net.cpp:165] Memory required for data: 3993247508
I0410 23:48:07.651020 39964 layer_factory.hpp:77] Creating layer Mrelu4_stage6
I0410 23:48:07.651032 39964 net.cpp:100] Creating Layer Mrelu4_stage6
I0410 23:48:07.651041 39964 net.cpp:434] Mrelu4_stage6 <- Mconv4_stage6
I0410 23:48:07.651053 39964 net.cpp:395] Mrelu4_stage6 -> Mconv4_stage6 (in-place)
I0410 23:48:07.651067 39964 net.cpp:150] Setting up Mrelu4_stage6
I0410 23:48:07.651077 39964 net.cpp:157] Top shape: 8 128 46 46 (2166784)
I0410 23:48:07.651085 39964 net.cpp:165] Memory required for data: 4001914644
I0410 23:48:07.651094 39964 layer_factory.hpp:77] Creating layer Mconv5_stage6
I0410 23:48:07.651113 39964 net.cpp:100] Creating Layer Mconv5_stage6
I0410 23:48:07.651124 39964 net.cpp:434] Mconv5_stage6 <- Mconv4_stage6
I0410 23:48:07.651139 39964 net.cpp:408] Mconv5_stage6 -> Mconv5_stage6
I0410 23:48:07.651490 39964 net.cpp:150] Setting up Mconv5_stage6
I0410 23:48:07.651509 39964 net.cpp:157] Top shape: 8 15 46 46 (253920)
I0410 23:48:07.651518 39964 net.cpp:165] Memory required for data: 4002930324
I0410 23:48:07.651530 39964 layer_factory.hpp:77] Creating layer loss_stage6
I0410 23:48:07.651546 39964 net.cpp:100] Creating Layer loss_stage6
I0410 23:48:07.651556 39964 net.cpp:434] loss_stage6 <- Mconv5_stage6
I0410 23:48:07.651567 39964 net.cpp:434] loss_stage6 <- label_lower_label_lower_0_split_4
…
