…
I0413 13:57:21.984323 40731 net.cpp:58] Initializing net from parameters: 
state {
  phase: TRAIN
  level: 0
  stage: ""
}
layer {
  name: "data"
  type: "CPMData"
  top: "data"
  top: "label"
  transform_param {
    crop_size: 368
    stride: 8
    max_rotate_degree: 40
    crop_size_x: 368
    crop_size_y: 368
    scale_prob: 1
    scale_min: 0.7
    scale_max: 1.3
    target_dist: 1.171
    center_perterb_max: 0
    do_clahe: false
    num_parts: 14
    np_in_lmdb: 14
    is_order_correct: true
  }
  data_param {
    source: "/home/lizhuowan/Market_CPM/lmdb_11000"
    batch_size: 8
    backend: LMDB
  }
}
layer {
  name: "label_lower"
  type: "Slice"
  bottom: "label"
  top: "label_lower"
  top: "label_1st_lower"
  slice_param {
    slice_point: 15
    axis: 1
  }
}
layer {
  name: "image"
  type: "Slice"
  bottom: "data"
  top: "image"
  top: "center_map"
  slice_param {
    slice_point: 3
    axis: 1
  }
}
layer {
  name: "pool_center_lower"
  type: "Pooling"
  bottom: "center_map"
  top: "pool_center_lower"
  pooling_param {
    pool: AVE
    kernel_size: 9
    stride: 8
  }
}
layer {
  name: "conv1_stage1"
  type: "Convolution"
  bottom: "image"
  top: "conv1_stage1"
  param {
    lr_mult: 5
    decay_mult: 1
  }
  param {
    lr_mult: 10
    decay_mult: 0
  }
  convolution_param {
    num_output: 128
    pad: 4
    kernel_size: 9
    weight_filler {
      type: "gaussian"
      std: 0.01
    }
    bias_filler {
      type: "constant"
    }
  }
}
layer {
  name: "relu1_stage1"
  type: "ReLU"
  bottom: "conv1_stage1"
  top: "conv1_stage1"
}
layer {
  name: "pool1_stage1"
  type: "Pooling"
  bottom: "conv1_stage1"
  top: "pool1_stage1"
  pooling_param {
    pool: MAX
    kernel_size: 3
    stride: 2
  }
}
layer {
  name: "conv2_stage1"
  type: "Convolution"
  bottom: "pool1_stage1"
  top: "conv2_stage1"
  param {
    lr_mult: 5
    decay_mult: 1
  }
  param {
    lr_mult: 10
    decay_mult: 0
  }
  convolution_param {
    num_output: 128
    pad: 4
    kernel_size: 9
    weight_filler {
      type: "gaussian"
      std: 0.01
    }
    bias_filler {
      type: "constant"
    }
  }
}
layer {
  name: "relu2_stage1"
  type: "ReLU"
  bottom: "conv2_stage1"
  top: "conv2_stage1"
}
layer {
  name: "pool2_stage1"
  type: "Pooling"
  bottom: "conv2_stage1"
  top: "pool2_stage1"
  pooling_param {
    pool: MAX
    kernel_size: 3
    stride: 2
  }
}
layer {
  name: "conv3_stage1"
  type: "Convolution"
  bottom: "pool2_stage1"
  top: "conv3_stage1"
  param {
    lr_mult: 5
    decay_mult: 1
  }
  param {
    lr_mult: 10
    decay_mult: 0
  }
  convolution_param {
    num_output: 128
    pad: 4
    kernel_size: 9
    weight_filler {
      type: "gaussian"
      std: 0.01
    }
    bias_filler {
      type: "constant"
    }
  }
}
layer {
  name: "relu3_stage1"
  type: "ReLU"
  bottom: "conv3_stage1"
  top: "conv3_stage1"
}
layer {
  name: "pool3_stage1"
  type: "Pooling"
  bottom: "conv3_stage1"
  top: "pool3_stage1"
  pooling_param {
    pool: MAX
    kernel_size: 3
    stride: 2
  }
}
layer {
  name: "conv4_stage1"
  type: "Convolution"
  bottom: "pool3_stage1"
  top: "conv4_stage1"
  param {
    lr_mult: 5
    decay_mult: 1
  }
  param {
    lr_mult: 10
    decay_mult: 0
  }
  convolution_param {
    num_output: 32
    pad: 2
    kernel_size: 5
    weight_filler {
      type: "gaussian"
      std: 0.01
    }
    bias_filler {
      type: "constant"
    }
  }
}
layer {
  name: "relu4_stage1"
  type: "ReLU"
  bottom: "conv4_stage1"
  top: "conv4_stage1"
}
layer {
  name: "conv5_stage1"
  type: "Convolution"
  bottom: "conv4_stage1"
  top: "conv5_stage1"
  param {
    lr_mult: 5
    decay_mult: 1
  }
  param {
    lr_mult: 10
    decay_mult: 0
  }
  convolution_param {
    num_output: 512
    pad: 4
    kernel_size: 9
    weight_filler {
      type: "gaussian"
      std: 0.01
    }
    bias_filler {
      type: "constant"
    }
  }
}
layer {
  name: "relu5_stage1"
  type: "ReLU"
  bottom: "conv5_stage1"
  top: "conv5_stage1"
}
layer {
  name: "drop1_stage1"
  type: "Dropout"
  bottom: "conv5_stage1"
  top: "conv5_stage1"
  dropout_param {
    dropout_ratio: 0.5
  }
}
layer {
  name: "conv6_stage1"
  type: "Convolution"
  bottom: "conv5_stage1"
  top: "conv6_stage1"
  param {
    lr_mult: 5
    decay_mult: 1
  }
  param {
    lr_mult: 10
    decay_mult: 0
  }
  convolution_param {
    num_output: 512
    pad: 0
    kernel_size: 1
    weight_filler {
      type: "gaussian"
      std: 0.01
    }
    bias_filler {
      type: "constant"
    }
  }
}
layer {
  name: "relu6_stage1"
  type: "ReLU"
  bottom: "conv6_stage1"
  top: "conv6_stage1"
}
layer {
  name: "drop2_stage1"
  type: "Dropout"
  bottom: "conv6_stage1"
  top: "conv6_stage1"
  dropout_param {
    dropout_ratio: 0.5
  }
}
layer {
  name: "conv7_stage1"
  type: "Convolution"
  bottom: "conv6_stage1"
  top: "conv7_stage1"
  param {
    lr_mult: 5
    decay_mult: 1
  }
  param {
    lr_mult: 10
    decay_mult: 0
  }
  convolution_param {
    num_output: 15
    pad: 0
    kernel_size: 1
    weight_filler {
      type: "gaussian"
      std: 0.01
    }
    bias_filler {
      type: "constant"
    }
  }
}
layer {
  name: "loss_stage1"
  type: "EuclideanLoss"
  bottom: "conv7_stage1"
  bottom: "label_1st_lower"
  top: "loss_stage1"
}
layer {
  name: "conv1_stage2"
  type: "Convolution"
  bottom: "image"
  top: "conv1_stage2"
  param {
    lr_mult: 1
    decay_mult: 1
  }
  param {
    lr_mult: 2
    decay_mult: 0
  }
  convolution_param {
    num_output: 128
    pad: 4
    kernel_size: 9
    weight_filler {
      type: "gaussian"
      std: 0.01
    }
    bias_filler {
      type: "constant"
    }
  }
}
layer {
  name: "relu1_stage2"
  type: "ReLU"
  bottom: "conv1_stage2"
  top: "conv1_stage2"
}
layer {
  name: "pool1_stage2"
  type: "Pooling"
  bottom: "conv1_stage2"
  top: "pool1_stage2"
  pooling_param {
    pool: MAX
    kernel_size: 3
    stride: 2
  }
}
layer {
  name: "conv2_stage2"
  type: "Convolution"
  bottom: "pool1_stage2"
  top: "conv2_stage2"
  param {
    lr_mult: 1
    decay_mult: 1
  }
  param {
    lr_mult: 2
    decay_mult: 0
  }
  convolution_param {
    num_output: 128
    pad: 4
    kernel_size: 9
    weight_filler {
      type: "gaussian"
      std: 0.01
    }
    bias_filler {
      type: "constant"
    }
  }
}
layer {
  name: "relu2_stage2"
  type: "ReLU"
  bottom: "conv2_stage2"
  top: "conv2_stage2"
}
layer {
  name: "pool2_stage2"
  type: "Pooling"
  bottom: "conv2_stage2"
  top: "pool2_stage2"
  pooling_param {
    pool: MAX
    kernel_size: 3
    stride: 2
  }
}
layer {
  name: "conv3_stage2"
  type: "Convolution"
  bottom: "pool2_stage2"
  top: "conv3_stage2"
  param {
    lr_mult: 1
    decay_mult: 1
  }
  param {
    lr_mult: 2
    decay_mult: 0
  }
  convolution_param {
    num_output: 128
    pad: 4
    kernel_size: 9
    weight_filler {
      type: "gaussian"
      std: 0.01
    }
    bias_filler {
      type: "constant"
    }
  }
}
layer {
  name: "relu3_stage2"
  type: "ReLU"
  bottom: "conv3_stage2"
  top: "conv3_stage2"
}
layer {
  name: "pool3_stage2"
  type: "Pooling"
  bottom: "conv3_stage2"
  top: "pool3_stage2"
  pooling_param {
    pool: MAX
    kernel_size: 3
    stride: 2
  }
}
layer {
  name: "conv4_stage2"
  type: "Convolution"
  bottom: "pool3_stage2"
  top: "conv4_stage2"
  param {
    lr_mult: 1
    decay_mult: 1
  }
  param {
    lr_mult: 2
    decay_mult: 0
  }
  convolution_param {
    num_output: 32
    pad: 2
    kernel_size: 5
    weight_filler {
      type: "gaussian"
      std: 0.01
    }
    bias_filler {
      type: "constant"
    }
  }
}
layer {
  name: "relu4_stage2"
  type: "ReLU"
  bottom: "conv4_stage2"
  top: "conv4_stage2"
}
layer {
  name: "concat_stage2"
  type: "Concat"
  bottom: "conv4_stage2"
  bottom: "conv7_stage1"
  bottom: "pool_center_lower"
  top: "concat_stage2"
  concat_param {
    axis: 1
  }
}
layer {
  name: "Mconv1_stage2"
  type: "Convolution"
  bottom: "concat_stage2"
  top: "Mconv1_stage2"
  param {
    lr_mult: 1
    decay_mult: 1
  }
  param {
    lr_mult: 2
    decay_mult: 0
  }
  convolution_param {
    num_output: 128
    pad: 5
    kernel_size: 11
    weight_filler {
      type: "gaussian"
      std: 0.01
    }
    bias_filler {
      type: "constant"
    }
  }
}
layer {
  name: "Mrelu1_stage2"
  type: "ReLU"
  bottom: "Mconv1_stage2"
  top: "Mconv1_stage2"
}
layer {
  name: "Mconv2_stage2"
  type: "Convolution"
  bottom: "Mconv1_stage2"
  top: "Mconv2_stage2"
  param {
    lr_mult: 1
    decay_mult: 1
  }
  param {
    lr_mult: 2
    decay_mult: 0
  }
  convolution_param {
    num_output: 128
    pad: 5
    kernel_size: 11
    weight_filler {
      type: "gaussian"
      std: 0.01
    }
    bias_filler {
      type: "constant"
    }
  }
}
layer {
  name: "Mrelu2_stage2"
  type: "ReLU"
  bottom: "Mconv2_stage2"
  top: "Mconv2_stage2"
}
layer {
  name: "Mconv3_stage2"
  type: "Convolution"
  bottom: "Mconv2_stage2"
  top: "Mconv3_stage2"
  param {
    lr_mult: 1
    decay_mult: 1
  }
  param {
    lr_mult: 2
    decay_mult: 0
  }
  convolution_param {
    num_output: 128
    pad: 5
    kernel_size: 11
    weight_filler {
      type: "gaussian"
      std: 0.01
    }
    bias_filler {
      type: "constant"
    }
  }
}
layer {
  name: "Mrelu3_stage2"
  type: "ReLU"
  bottom: "Mconv3_stage2"
  top: "Mconv3_stage2"
}
layer {
  name: "Mconv4_stage2"
  type: "Convolution"
  bottom: "Mconv3_stage2"
  top: "Mconv4_stage2"
  param {
    lr_mult: 1
    decay_mult: 1
  }
  param {
    lr_mult: 2
    decay_mult: 0
  }
  convolution_param {
    num_output: 128
    pad: 0
    kernel_size: 1
    weight_filler {
      type: "gaussian"
      std: 0.01
    }
    bias_filler {
      type: "constant"
    }
  }
}
layer {
  name: "Mrelu4_stage2"
  type: "ReLU"
  bottom: "Mconv4_stage2"
  top: "Mconv4_stage2"
}
layer {
  name: "Mconv5_stage2"
  type: "Convolution"
  bottom: "Mconv4_stage2"
  top: "Mconv5_stage2"
  param {
    lr_mult: 1
    decay_mult: 1
  }
  param {
    lr_mult: 2
    decay_mult: 0
  }
  convolution_param {
    num_output: 15
    pad: 0
    kernel_size: 1
    weight_filler {
      type: "gaussian"
      std: 0.01
    }
    bias_filler {
      type: "constant"
    }
  }
}
layer {
  name: "loss_stage2"
  type: "EuclideanLoss"
  bottom: "Mconv5_stage2"
  bottom: "label_lower"
  top: "loss_stage2"
}
layer {
  name: "conv1_stage3"
  type: "Convolution"
  bottom: "pool3_stage2"
  top: "conv1_stage3"
  param {
    lr_mult: 1
    decay_mult: 1
  }
  param {
    lr_mult: 2
    decay_mult: 0
  }
  convolution_param {
    num_output: 32
    pad: 2
    kernel_size: 5
    weight_filler {
      type: "gaussian"
      std: 0.01
    }
    bias_filler {
      type: "constant"
    }
  }
}
layer {
  name: "relu1_stage3"
  type: "ReLU"
  bottom: "conv1_stage3"
  top: "conv1_stage3"
}
layer {
  name: "concat_stage3"
  type: "Concat"
  bottom: "conv1_stage3"
  bottom: "Mconv5_stage2"
  bottom: "pool_center_lower"
  top: "concat_stage3"
  concat_param {
    axis: 1
  }
}
layer {
  name: "Mconv1_stage3"
  type: "Convolution"
  bottom: "concat_stage3"
  top: "Mconv1_stage3"
  param {
    lr_mult: 1
    decay_mult: 1
  }
  param {
    lr_mult: 2
    decay_mult: 0
  }
  convolution_param {
    num_output: 128
    pad: 5
    kernel_size: 11
    weight_filler {
      type: "gaussian"
      std: 0.01
    }
    bias_filler {
      type: "constant"
    }
  }
}
layer {
  name: "Mrelu1_stage3"
  type: "ReLU"
  bottom: "Mconv1_stage3"
  top: "Mconv1_stage3"
}
layer {
  name: "Mconv2_stage3"
  type: "Convolution"
  bottom: "Mconv1_stage3"
  top: "Mconv2_stage3"
  param {
    lr_mult: 1
    decay_mult: 1
  }
  param {
    lr_mult: 2
    decay_mult: 0
  }
  convolution_param {
    num_output: 128
    pad: 5
    kernel_size: 11
    weight_filler {
      type: "gaussian"
      std: 0.01
    }
    bias_filler {
      type: "constant"
    }
  }
}
layer {
  name: "Mrelu2_stage3"
  type: "ReLU"
  bottom: "Mconv2_stage3"
  top: "Mconv2_stage3"
}
layer {
  name: "Mconv3_stage3"
  type: "Convolution"
  bottom: "Mconv2_stage3"
  top: "Mconv3_stage3"
  param {
    lr_mult: 1
    decay_mult: 1
  }
  param {
    lr_mult: 2
    decay_mult: 0
  }
  convolution_param {
    num_output: 128
    pad: 5
    kernel_size: 11
    weight_filler {
      type: "gaussian"
      std: 0.01
    }
    bias_filler {
      type: "constant"
    }
  }
}
layer {
  name: "Mrelu3_stage3"
  type: "ReLU"
  bottom: "Mconv3_stage3"
  top: "Mconv3_stage3"
}
layer {
  name: "Mconv4_stage3"
  type: "Convolution"
  bottom: "Mconv3_stage3"
  top: "Mconv4_stage3"
  param {
    lr_mult: 1
    decay_mult: 1
  }
  param {
    lr_mult: 2
    decay_mult: 0
  }
  convolution_param {
    num_output: 128
    pad: 0
    kernel_size: 1
    weight_filler {
      type: "gaussian"
      std: 0.01
    }
    bias_filler {
      type: "constant"
    }
  }
}
layer {
  name: "Mrelu4_stage3"
  type: "ReLU"
  bottom: "Mconv4_stage3"
  top: "Mconv4_stage3"
}
layer {
  name: "Mconv5_stage3"
  type: "Convolution"
  bottom: "Mconv4_stage3"
  top: "Mconv5_stage3"
  param {
    lr_mult: 1
    decay_mult: 1
  }
  param {
    lr_mult: 2
    decay_mult: 0
  }
  convolution_param {
    num_output: 15
    pad: 0
    kernel_size: 1
    weight_filler {
      type: "gaussian"
      std: 0.01
    }
    bias_filler {
      type: "constant"
    }
  }
}
layer {
  name: "loss_stage3"
  type: "EuclideanLoss"
  bottom: "Mconv5_stage3"
  bottom: "label_lower"
  top: "loss_stage3"
}
layer {
  name: "conv1_stage4"
  type: "Convolution"
  bottom: "pool3_stage2"
  top: "conv1_stage4"
  param {
    lr_mult: 1
    decay_mult: 1
  }
  param {
    lr_mult: 2
    decay_mult: 0
  }
  convolution_param {
    num_output: 32
    pad: 2
    kernel_size: 5
    weight_filler {
      type: "gaussian"
      std: 0.01
    }
    bias_filler {
      type: "constant"
    }
  }
}
layer {
  name: "relu1_stage4"
  type: "ReLU"
  bottom: "conv1_stage4"
  top: "conv1_stage4"
}
layer {
  name: "concat_stage4"
  type: "Concat"
  bottom: "conv1_stage4"
  bottom: "Mconv5_stage3"
  bottom: "pool_center_lower"
  top: "concat_stage4"
  concat_param {
    axis: 1
  }
}
layer {
  name: "Mconv1_stage4"
  type: "Convolution"
  bottom: "concat_stage4"
  top: "Mconv1_stage4"
  param {
    lr_mult: 1
    decay_mult: 1
  }
  param {
    lr_mult: 2
    decay_mult: 0
  }
  convolution_param {
    num_output: 128
    pad: 5
    kernel_size: 11
    weight_filler {
      type: "gaussian"
      std: 0.01
    }
    bias_filler {
      type: "constant"
    }
  }
}
layer {
  name: "Mrelu1_stage4"
  type: "ReLU"
  bottom: "Mconv1_stage4"
  top: "Mconv1_stage4"
}
layer {
  name: "Mconv2_stage4"
  type: "Convolution"
  bottom: "Mconv1_stage4"
  top: "Mconv2_stage4"
  param {
    lr_mult: 1
    decay_mult: 1
  }
  param {
    lr_mult: 2
    decay_mult: 0
  }
  convolution_param {
    num_output: 128
    pad: 5
    kernel_size: 11
    weight_filler {
      type: "gaussian"
      std: 0.01
    }
    bias_filler {
      type: "constant"
    }
  }
}
layer {
  name: "Mrelu2_stage4"
  type: "ReLU"
  bottom: "Mconv2_stage4"
  top: "Mconv2_stage4"
}
layer {
  name: "Mconv3_stage4"
  type: "Convolution"
  bottom: "Mconv2_stage4"
  top: "Mconv3_stage4"
  param {
    lr_mult: 1
    decay_mult: 1
  }
  param {
    lr_mult: 2
    decay_mult: 0
  }
  convolution_param {
    num_output: 128
    pad: 5
    kernel_size: 11
    weight_filler {
      type: "gaussian"
      std: 0.01
    }
    bias_filler {
      type: "constant"
    }
  }
}
layer {
  name: "Mrelu3_stage4"
  type: "ReLU"
  bottom: "Mconv3_stage4"
  top: "Mconv3_stage4"
}
layer {
  name: "Mconv4_stage4"
  type: "Convolution"
  bottom: "Mconv3_stage4"
  top: "Mconv4_stage4"
  param {
    lr_mult: 1
    decay_mult: 1
  }
  param {
    lr_mult: 2
    decay_mult: 0
  }
  convolution_param {
    num_output: 128
    pad: 0
    kernel_size: 1
    weight_filler {
      type: "gaussian"
      std: 0.01
    }
    bias_filler {
      type: "constant"
    }
  }
}
layer {
  name: "Mrelu4_stage4"
  type: "ReLU"
  bottom: "Mconv4_stage4"
  top: "Mconv4_stage4"
}
layer {
  name: "Mconv5_stage4"
  type: "Convolution"
  bottom: "Mconv4_stage4"
  top: "Mconv5_stage4"
  param {
    lr_mult: 1
    decay_mult: 1
  }
  param {
    lr_mult: 2
    decay_mult: 0
  }
  convolution_param {
    num_output: 15
    pad: 0
    kernel_size: 1
    weight_filler {
      type: "gaussian"
      std: 0.01
    }
    bias_filler {
      type: "constant"
    }
  }
}
layer {
  name: "loss_stage4"
  type: "EuclideanLoss"
  bottom: "Mconv5_stage4"
  bottom: "label_lower"
  top: "loss_stage4"
}
layer {
  name: "conv1_stage5"
  type: "Convolution"
  bottom: "pool3_stage2"
  top: "conv1_stage5"
  param {
    lr_mult: 1
    decay_mult: 1
  }
  param {
    lr_mult: 2
    decay_mult: 0
  }
  convolution_param {
    num_output: 32
    pad: 2
    kernel_size: 5
    weight_filler {
      type: "gaussian"
      std: 0.01
    }
    bias_filler {
      type: "constant"
    }
  }
}
layer {
  name: "relu1_stage5"
  type: "ReLU"
  bottom: "conv1_stage5"
  top: "conv1_stage5"
}
layer {
  name: "concat_stage5"
  type: "Concat"
  bottom: "conv1_stage5"
  bottom: "Mconv5_stage4"
  bottom: "pool_center_lower"
  top: "concat_stage5"
  concat_param {
    axis: 1
  }
}
layer {
  name: "Mconv1_stage5"
  type: "Convolution"
  bottom: "concat_stage5"
  top: "Mconv1_stage5"
  param {
    lr_mult: 1
    decay_mult: 1
  }
  param {
    lr_mult: 2
    decay_mult: 0
  }
  convolution_param {
    num_output: 128
    pad: 5
    kernel_size: 11
    weight_filler {
      type: "gaussian"
      std: 0.01
    }
    bias_filler {
      type: "constant"
    }
  }
}
layer {
  name: "Mrelu1_stage5"
  type: "ReLU"
  bottom: "Mconv1_stage5"
  top: "Mconv1_stage5"
}
layer {
  name: "Mconv2_stage5"
  type: "Convolution"
  bottom: "Mconv1_stage5"
  top: "Mconv2_stage5"
  param {
    lr_mult: 1
    decay_mult: 1
  }
  param {
    lr_mult: 2
    decay_mult: 0
  }
  convolution_param {
    num_output: 128
    pad: 5
    kernel_size: 11
    weight_filler {
      type: "gaussian"
      std: 0.01
    }
    bias_filler {
      type: "constant"
    }
  }
}
layer {
  name: "Mrelu2_stage5"
  type: "ReLU"
  bottom: "Mconv2_stage5"
  top: "Mconv2_stage5"
}
layer {
  name: "Mconv3_stage5"
  type: "Convolution"
  bottom: "Mconv2_stage5"
  top: "Mconv3_stage5"
  param {
    lr_mult: 1
    decay_mult: 1
  }
  param {
    lr_mult: 2
    decay_mult: 0
  }
  convolution_param {
    num_output: 128
    pad: 5
    kernel_size: 11
    weight_filler {
      type: "gaussian"
      std: 0.01
    }
    bias_filler {
      type: "constant"
    }
  }
}
layer {
  name: "Mrelu3_stage5"
  type: "ReLU"
  bottom: "Mconv3_stage5"
  top: "Mconv3_stage5"
}
layer {
  name: "Mconv4_stage5"
  type: "Convolution"
  bottom: "Mconv3_stage5"
  top: "Mconv4_stage5"
  param {
    lr_mult: 1
    decay_mult: 1
  }
  param {
    lr_mult: 2
    decay_mult: 0
  }
  convolution_param {
    num_output: 128
    pad: 0
    kernel_size: 1
    weight_filler {
      type: "gaussian"
      std: 0.01
    }
    bias_filler {
      type: "constant"
    }
  }
}
layer {
  name: "Mrelu4_stage5"
  type: "ReLU"
  bottom: "Mconv4_stage5"
  top: "Mconv4_stage5"
}
layer {
  name: "Mconv5_stage5"
  type: "Convolution"
  bottom: "Mconv4_stage5"
  top: "Mconv5_stage5"
  param {
    lr_mult: 1
    decay_mult: 1
  }
  param {
    lr_mult: 2
    decay_mult: 0
  }
  convolution_param {
    num_output: 15
    pad: 0
    kernel_size: 1
    weight_filler {
      type: "gaussian"
      std: 0.01
    }
    bias_filler {
      type: "constant"
    }
  }
}
layer {
  name: "loss_stage5"
  type: "EuclideanLoss"
  bottom: "Mconv5_stage5"
  bottom: "label_lower"
  top: "loss_stage5"
}
layer {
  name: "conv1_stage6"
  type: "Convolution"
  bottom: "pool3_stage2"
  top: "conv1_stage6"
  param {
    lr_mult: 1
    decay_mult: 1
  }
  param {
    lr_mult: 2
    decay_mult: 0
  }
  convolution_param {
    num_output: 32
    pad: 2
    kernel_size: 5
    weight_filler {
      type: "gaussian"
      std: 0.01
    }
    bias_filler {
      type: "constant"
    }
  }
}
layer {
  name: "relu1_stage6"
  type: "ReLU"
  bottom: "conv1_stage6"
  top: "conv1_stage6"
}
layer {
  name: "concat_stage6"
  type: "Concat"
  bottom: "conv1_stage6"
  bottom: "Mconv5_stage5"
  bottom: "pool_center_lower"
  top: "concat_stage6"
  concat_param {
    axis: 1
  }
}
layer {
  name: "Mconv1_stage6"
  type: "Convolution"
  bottom: "concat_stage6"
  top: "Mconv1_stage6"
  param {
    lr_mult: 1
    decay_mult: 1
  }
  param {
    lr_mult: 2
    decay_mult: 0
  }
  convolution_param {
    num_output: 128
    pad: 5
    kernel_size: 11
    weight_filler {
      type: "gaussian"
      std: 0.01
    }
    bias_filler {
      type: "constant"
    }
  }
}
layer {
  name: "Mrelu1_stage6"
  type: "ReLU"
  bottom: "Mconv1_stage6"
  top: "Mconv1_stage6"
}
layer {
  name: "Mconv2_stage6"
  type: "Convolution"
  bottom: "Mconv1_stage6"
  top: "Mconv2_stage6"
  param {
    lr_mult: 1
    decay_mult: 1
  }
  param {
    lr_mult: 2
    decay_mult: 0
  }
  convolution_param {
    num_output: 128
    pad: 5
    kernel_size: 11
    weight_filler {
      type: "gaussian"
      std: 0.01
    }
    bias_filler {
      type: "constant"
    }
  }
}
layer {
  name: "Mrelu2_stage6"
  type: "ReLU"
  bottom: "Mconv2_stage6"
  top: "Mconv2_stage6"
}
layer {
  name: "Mconv3_stage6"
  type: "Convolution"
  bottom: "Mconv2_stage6"
  top: "Mconv3_stage6"
  param {
    lr_mult: 1
    decay_mult: 1
  }
  param {
    lr_mult: 2
    decay_mult: 0
  }
  convolution_param {
    num_output: 128
    pad: 5
    kernel_size: 11
    weight_filler {
      type: "gaussian"
      std: 0.01
    }
    bias_filler {
      type: "constant"
    }
  }
}
layer {
  name: "Mrelu3_stage6"
  type: "ReLU"
  bottom: "Mconv3_stage6"
  top: "Mconv3_stage6"
}
layer {
  name: "Mconv4_stage6"
  type: "Convolution"
  bottom: "Mconv3_stage6"
  top: "Mconv4_stage6"
  param {
    lr_mult: 1
    decay_mult: 1
  }
  param {
    lr_mult: 2
    decay_mult: 0
  }
  convolution_param {
    num_output: 128
    pad: 0
    kernel_size: 1
    weight_filler {
      type: "gaussian"
      std: 0.01
    }
    bias_filler {
      type: "constant"
    }
  }
}
layer {
  name: "Mrelu4_stage6"
  type: "ReLU"
  bottom: "Mconv4_stage6"
  top: "Mconv4_stage6"
}
layer {
  name: "Mconv5_stage6"
  type: "Convolution"
  bottom: "Mconv4_stage6"
  top: "Mconv5_stage6"
  param {
    lr_mult: 1
    decay_mult: 1
  }
  param {
    lr_mult: 2
    decay_mult: 0
  }
  convolution_param {
    num_output: 15
    pad: 0
    kernel_size: 1
    weight_filler {
      type: "gaussian"
      std: 0.01
    }
    bias_filler {
      type: "constant"
    }
  }
}
layer {
  name: "loss_stage6"
  type: "EuclideanLoss"
  bottom: "Mconv5_stage6"
  bottom: "label_lower"
  top: "loss_stage6"
}
I0413 13:57:21.985383 40731 layer_factory.hpp:77] Creating layer data
I0413 13:57:21.986569 40731 net.cpp:100] Creating Layer data
I0413 13:57:21.986677 40731 net.cpp:408] data -> data
I0413 13:57:21.986769 40731 net.cpp:408] data -> label
I0413 13:57:21.987879 40736 db_lmdb.cpp:35] Opened lmdb /home/lizhuowan/Market_CPM/lmdb_11000
I0413 13:57:21.988036 40731 cpm_data_layer.cpp:33] 128 64 4
I0413 13:57:22.002604 40731 cpm_data_layer.cpp:64] output data size: 8,4,368,368
I0413 13:57:22.002631 40731 cpm_data_layer.cpp:67] output data size: 8,4,368,368
I0413 13:57:22.049546 40731 net.cpp:150] Setting up data
I0413 13:57:22.049631 40731 net.cpp:157] Top shape: 8 4 368 368 (4333568)
I0413 13:57:22.049648 40731 net.cpp:157] Top shape: 8 30 46 46 (507840)
I0413 13:57:22.049657 40731 net.cpp:165] Memory required for data: 19365632
I0413 13:57:22.049679 40731 layer_factory.hpp:77] Creating layer label_lower
I0413 13:57:22.049716 40731 net.cpp:100] Creating Layer label_lower
I0413 13:57:22.049731 40731 net.cpp:434] label_lower <- label
I0413 13:57:22.049762 40731 net.cpp:408] label_lower -> label_lower
I0413 13:57:22.049805 40731 net.cpp:408] label_lower -> label_1st_lower
I0413 13:57:22.049918 40731 net.cpp:150] Setting up label_lower
I0413 13:57:22.049937 40731 net.cpp:157] Top shape: 8 15 46 46 (253920)
I0413 13:57:22.049947 40731 net.cpp:157] Top shape: 8 15 46 46 (253920)
I0413 13:57:22.049957 40731 net.cpp:165] Memory required for data: 21396992
I0413 13:57:22.049965 40731 layer_factory.hpp:77] Creating layer label_lower_label_lower_0_split
I0413 13:57:22.049985 40731 net.cpp:100] Creating Layer label_lower_label_lower_0_split
I0413 13:57:22.049995 40731 net.cpp:434] label_lower_label_lower_0_split <- label_lower
I0413 13:57:22.050010 40731 net.cpp:408] label_lower_label_lower_0_split -> label_lower_label_lower_0_split_0
I0413 13:57:22.050025 40731 net.cpp:408] label_lower_label_lower_0_split -> label_lower_label_lower_0_split_1
I0413 13:57:22.050038 40731 net.cpp:408] label_lower_label_lower_0_split -> label_lower_label_lower_0_split_2
I0413 13:57:22.050050 40731 net.cpp:408] label_lower_label_lower_0_split -> label_lower_label_lower_0_split_3
I0413 13:57:22.050062 40731 net.cpp:408] label_lower_label_lower_0_split -> label_lower_label_lower_0_split_4
I0413 13:57:22.050153 40731 net.cpp:150] Setting up label_lower_label_lower_0_split
I0413 13:57:22.050170 40731 net.cpp:157] Top shape: 8 15 46 46 (253920)
I0413 13:57:22.050180 40731 net.cpp:157] Top shape: 8 15 46 46 (253920)
I0413 13:57:22.050190 40731 net.cpp:157] Top shape: 8 15 46 46 (253920)
I0413 13:57:22.050200 40731 net.cpp:157] Top shape: 8 15 46 46 (253920)
I0413 13:57:22.050211 40731 net.cpp:157] Top shape: 8 15 46 46 (253920)
I0413 13:57:22.050220 40731 net.cpp:165] Memory required for data: 26475392
I0413 13:57:22.050230 40731 layer_factory.hpp:77] Creating layer image
I0413 13:57:22.050243 40731 net.cpp:100] Creating Layer image
I0413 13:57:22.050253 40731 net.cpp:434] image <- data
I0413 13:57:22.050268 40731 net.cpp:408] image -> image
I0413 13:57:22.050282 40731 net.cpp:408] image -> center_map
I0413 13:57:22.050328 40731 net.cpp:150] Setting up image
I0413 13:57:22.050346 40731 net.cpp:157] Top shape: 8 3 368 368 (3250176)
I0413 13:57:22.050357 40731 net.cpp:157] Top shape: 8 1 368 368 (1083392)
I0413 13:57:22.050365 40731 net.cpp:165] Memory required for data: 43809664
I0413 13:57:22.050374 40731 layer_factory.hpp:77] Creating layer image_image_0_split
I0413 13:57:22.050387 40731 net.cpp:100] Creating Layer image_image_0_split
I0413 13:57:22.050396 40731 net.cpp:434] image_image_0_split <- image
I0413 13:57:22.050408 40731 net.cpp:408] image_image_0_split -> image_image_0_split_0
I0413 13:57:22.050421 40731 net.cpp:408] image_image_0_split -> image_image_0_split_1
I0413 13:57:22.050464 40731 net.cpp:150] Setting up image_image_0_split
I0413 13:57:22.050479 40731 net.cpp:157] Top shape: 8 3 368 368 (3250176)
I0413 13:57:22.050490 40731 net.cpp:157] Top shape: 8 3 368 368 (3250176)
I0413 13:57:22.050498 40731 net.cpp:165] Memory required for data: 69811072
I0413 13:57:22.050508 40731 layer_factory.hpp:77] Creating layer pool_center_lower
I0413 13:57:22.050530 40731 net.cpp:100] Creating Layer pool_center_lower
I0413 13:57:22.050541 40731 net.cpp:434] pool_center_lower <- center_map
I0413 13:57:22.050554 40731 net.cpp:408] pool_center_lower -> pool_center_lower
I0413 13:57:22.050604 40731 net.cpp:150] Setting up pool_center_lower
I0413 13:57:22.050621 40731 net.cpp:157] Top shape: 8 1 46 46 (16928)
I0413 13:57:22.050629 40731 net.cpp:165] Memory required for data: 69878784
I0413 13:57:22.050638 40731 layer_factory.hpp:77] Creating layer pool_center_lower_pool_center_lower_0_split
I0413 13:57:22.050650 40731 net.cpp:100] Creating Layer pool_center_lower_pool_center_lower_0_split
I0413 13:57:22.050660 40731 net.cpp:434] pool_center_lower_pool_center_lower_0_split <- pool_center_lower
I0413 13:57:22.050678 40731 net.cpp:408] pool_center_lower_pool_center_lower_0_split -> pool_center_lower_pool_center_lower_0_split_0
I0413 13:57:22.050691 40731 net.cpp:408] pool_center_lower_pool_center_lower_0_split -> pool_center_lower_pool_center_lower_0_split_1
I0413 13:57:22.050712 40731 net.cpp:408] pool_center_lower_pool_center_lower_0_split -> pool_center_lower_pool_center_lower_0_split_2
I0413 13:57:22.050737 40731 net.cpp:408] pool_center_lower_pool_center_lower_0_split -> pool_center_lower_pool_center_lower_0_split_3
I0413 13:57:22.050750 40731 net.cpp:408] pool_center_lower_pool_center_lower_0_split -> pool_center_lower_pool_center_lower_0_split_4
I0413 13:57:22.050828 40731 net.cpp:150] Setting up pool_center_lower_pool_center_lower_0_split
I0413 13:57:22.050843 40731 net.cpp:157] Top shape: 8 1 46 46 (16928)
I0413 13:57:22.050854 40731 net.cpp:157] Top shape: 8 1 46 46 (16928)
I0413 13:57:22.050865 40731 net.cpp:157] Top shape: 8 1 46 46 (16928)
I0413 13:57:22.050875 40731 net.cpp:157] Top shape: 8 1 46 46 (16928)
I0413 13:57:22.050885 40731 net.cpp:157] Top shape: 8 1 46 46 (16928)
I0413 13:57:22.050894 40731 net.cpp:165] Memory required for data: 70217344
I0413 13:57:22.050904 40731 layer_factory.hpp:77] Creating layer conv1_stage1
I0413 13:57:22.050936 40731 net.cpp:100] Creating Layer conv1_stage1
I0413 13:57:22.050948 40731 net.cpp:434] conv1_stage1 <- image_image_0_split_0
I0413 13:57:22.050961 40731 net.cpp:408] conv1_stage1 -> conv1_stage1
I0413 13:57:22.055009 40737 data_transformer_cpm.cpp:80] dataset: ZERO; img_size: [64 x 128]; meta.annolist_index: 0; meta.write_number: 0; meta.total_write_number: 11000; meta.epoch: 0
I0413 13:57:22.056077 40731 net.cpp:150] Setting up conv1_stage1
I0413 13:57:22.056138 40731 net.cpp:157] Top shape: 8 128 368 368 (138674176)
I0413 13:57:22.056157 40731 net.cpp:165] Memory required for data: 624914048
I0413 13:57:22.056207 40731 layer_factory.hpp:77] Creating layer relu1_stage1
I0413 13:57:22.056252 40731 net.cpp:100] Creating Layer relu1_stage1
I0413 13:57:22.056273 40731 net.cpp:434] relu1_stage1 <- conv1_stage1
I0413 13:57:22.056294 40731 net.cpp:395] relu1_stage1 -> conv1_stage1 (in-place)
I0413 13:57:22.056327 40731 net.cpp:150] Setting up relu1_stage1
I0413 13:57:22.056349 40731 net.cpp:157] Top shape: 8 128 368 368 (138674176)
I0413 13:57:22.056365 40731 net.cpp:165] Memory required for data: 1179610752
I0413 13:57:22.056380 40731 layer_factory.hpp:77] Creating layer pool1_stage1
I0413 13:57:22.056407 40731 net.cpp:100] Creating Layer pool1_stage1
I0413 13:57:22.056428 40731 net.cpp:434] pool1_stage1 <- conv1_stage1
I0413 13:57:22.056450 40731 net.cpp:408] pool1_stage1 -> pool1_stage1
I0413 13:57:22.056546 40731 net.cpp:150] Setting up pool1_stage1
I0413 13:57:22.056615 40731 net.cpp:157] Top shape: 8 128 184 184 (34668544)
I0413 13:57:22.056634 40731 net.cpp:165] Memory required for data: 1318284928
I0413 13:57:22.056650 40731 layer_factory.hpp:77] Creating layer conv2_stage1
I0413 13:57:22.056686 40731 net.cpp:100] Creating Layer conv2_stage1
I0413 13:57:22.056706 40731 net.cpp:434] conv2_stage1 <- pool1_stage1
I0413 13:57:22.056730 40731 net.cpp:408] conv2_stage1 -> conv2_stage1
I0413 13:57:22.146620 40731 net.cpp:150] Setting up conv2_stage1
I0413 13:57:22.146692 40731 net.cpp:157] Top shape: 8 128 184 184 (34668544)
I0413 13:57:22.146710 40731 net.cpp:165] Memory required for data: 1456959104
I0413 13:57:22.146749 40731 layer_factory.hpp:77] Creating layer relu2_stage1
I0413 13:57:22.146790 40731 net.cpp:100] Creating Layer relu2_stage1
I0413 13:57:22.146811 40731 net.cpp:434] relu2_stage1 <- conv2_stage1
I0413 13:57:22.146836 40731 net.cpp:395] relu2_stage1 -> conv2_stage1 (in-place)
I0413 13:57:22.146867 40731 net.cpp:150] Setting up relu2_stage1
I0413 13:57:22.146888 40731 net.cpp:157] Top shape: 8 128 184 184 (34668544)
I0413 13:57:22.146903 40731 net.cpp:165] Memory required for data: 1595633280
I0413 13:57:22.146919 40731 layer_factory.hpp:77] Creating layer pool2_stage1
I0413 13:57:22.146948 40731 net.cpp:100] Creating Layer pool2_stage1
I0413 13:57:22.146965 40731 net.cpp:434] pool2_stage1 <- conv2_stage1
I0413 13:57:22.146988 40731 net.cpp:408] pool2_stage1 -> pool2_stage1
I0413 13:57:22.147081 40731 net.cpp:150] Setting up pool2_stage1
I0413 13:57:22.147109 40731 net.cpp:157] Top shape: 8 128 92 92 (8667136)
I0413 13:57:22.147140 40731 net.cpp:165] Memory required for data: 1630301824
I0413 13:57:22.147186 40731 layer_factory.hpp:77] Creating layer conv3_stage1
I0413 13:57:22.147227 40731 net.cpp:100] Creating Layer conv3_stage1
I0413 13:57:22.147246 40731 net.cpp:434] conv3_stage1 <- pool2_stage1
I0413 13:57:22.147269 40731 net.cpp:408] conv3_stage1 -> conv3_stage1
I0413 13:57:22.240226 40731 net.cpp:150] Setting up conv3_stage1
I0413 13:57:22.240329 40731 net.cpp:157] Top shape: 8 128 92 92 (8667136)
I0413 13:57:22.240350 40731 net.cpp:165] Memory required for data: 1664970368
I0413 13:57:22.240396 40731 layer_factory.hpp:77] Creating layer relu3_stage1
I0413 13:57:22.240432 40731 net.cpp:100] Creating Layer relu3_stage1
I0413 13:57:22.240453 40731 net.cpp:434] relu3_stage1 <- conv3_stage1
I0413 13:57:22.240487 40731 net.cpp:395] relu3_stage1 -> conv3_stage1 (in-place)
I0413 13:57:22.240525 40731 net.cpp:150] Setting up relu3_stage1
I0413 13:57:22.240547 40731 net.cpp:157] Top shape: 8 128 92 92 (8667136)
I0413 13:57:22.240566 40731 net.cpp:165] Memory required for data: 1699638912
I0413 13:57:22.240584 40731 layer_factory.hpp:77] Creating layer pool3_stage1
I0413 13:57:22.240609 40731 net.cpp:100] Creating Layer pool3_stage1
I0413 13:57:22.240628 40731 net.cpp:434] pool3_stage1 <- conv3_stage1
I0413 13:57:22.240659 40731 net.cpp:408] pool3_stage1 -> pool3_stage1
I0413 13:57:22.240769 40731 net.cpp:150] Setting up pool3_stage1
I0413 13:57:22.240802 40731 net.cpp:157] Top shape: 8 128 46 46 (2166784)
I0413 13:57:22.240820 40731 net.cpp:165] Memory required for data: 1708306048
I0413 13:57:22.240839 40731 layer_factory.hpp:77] Creating layer conv4_stage1
I0413 13:57:22.240887 40731 net.cpp:100] Creating Layer conv4_stage1
I0413 13:57:22.240911 40731 net.cpp:434] conv4_stage1 <- pool3_stage1
I0413 13:57:22.240942 40731 net.cpp:408] conv4_stage1 -> conv4_stage1
I0413 13:57:22.250434 40731 net.cpp:150] Setting up conv4_stage1
I0413 13:57:22.250511 40731 net.cpp:157] Top shape: 8 32 46 46 (541696)
I0413 13:57:22.250532 40731 net.cpp:165] Memory required for data: 1710472832
I0413 13:57:22.250577 40731 layer_factory.hpp:77] Creating layer relu4_stage1
I0413 13:57:22.250617 40731 net.cpp:100] Creating Layer relu4_stage1
I0413 13:57:22.250638 40731 net.cpp:434] relu4_stage1 <- conv4_stage1
I0413 13:57:22.250663 40731 net.cpp:395] relu4_stage1 -> conv4_stage1 (in-place)
I0413 13:57:22.250694 40731 net.cpp:150] Setting up relu4_stage1
I0413 13:57:22.250718 40731 net.cpp:157] Top shape: 8 32 46 46 (541696)
I0413 13:57:22.250736 40731 net.cpp:165] Memory required for data: 1712639616
I0413 13:57:22.250754 40731 layer_factory.hpp:77] Creating layer conv5_stage1
I0413 13:57:22.250794 40731 net.cpp:100] Creating Layer conv5_stage1
I0413 13:57:22.250816 40731 net.cpp:434] conv5_stage1 <- conv4_stage1
I0413 13:57:22.250846 40731 net.cpp:408] conv5_stage1 -> conv5_stage1
I0413 13:57:22.357100 40731 net.cpp:150] Setting up conv5_stage1
I0413 13:57:22.357179 40731 net.cpp:157] Top shape: 8 512 46 46 (8667136)
I0413 13:57:22.357204 40731 net.cpp:165] Memory required for data: 1747308160
I0413 13:57:22.357285 40731 layer_factory.hpp:77] Creating layer relu5_stage1
I0413 13:57:22.357321 40731 net.cpp:100] Creating Layer relu5_stage1
I0413 13:57:22.357362 40731 net.cpp:434] relu5_stage1 <- conv5_stage1
I0413 13:57:22.357390 40731 net.cpp:395] relu5_stage1 -> conv5_stage1 (in-place)
I0413 13:57:22.357426 40731 net.cpp:150] Setting up relu5_stage1
I0413 13:57:22.357450 40731 net.cpp:157] Top shape: 8 512 46 46 (8667136)
I0413 13:57:22.357466 40731 net.cpp:165] Memory required for data: 1781976704
I0413 13:57:22.357483 40731 layer_factory.hpp:77] Creating layer drop1_stage1
I0413 13:57:22.357527 40731 net.cpp:100] Creating Layer drop1_stage1
I0413 13:57:22.357547 40731 net.cpp:434] drop1_stage1 <- conv5_stage1
I0413 13:57:22.357579 40731 net.cpp:395] drop1_stage1 -> conv5_stage1 (in-place)
I0413 13:57:22.357676 40731 net.cpp:150] Setting up drop1_stage1
I0413 13:57:22.357708 40731 net.cpp:157] Top shape: 8 512 46 46 (8667136)
I0413 13:57:22.357753 40731 net.cpp:165] Memory required for data: 1816645248
I0413 13:57:22.357795 40731 layer_factory.hpp:77] Creating layer conv6_stage1
I0413 13:57:22.357847 40731 net.cpp:100] Creating Layer conv6_stage1
I0413 13:57:22.357872 40731 net.cpp:434] conv6_stage1 <- conv5_stage1
I0413 13:57:22.357903 40731 net.cpp:408] conv6_stage1 -> conv6_stage1
I0413 13:57:22.379032 40731 net.cpp:150] Setting up conv6_stage1
I0413 13:57:22.379091 40731 net.cpp:157] Top shape: 8 512 46 46 (8667136)
I0413 13:57:22.379111 40731 net.cpp:165] Memory required for data: 1851313792
I0413 13:57:22.379137 40731 layer_factory.hpp:77] Creating layer relu6_stage1
I0413 13:57:22.379169 40731 net.cpp:100] Creating Layer relu6_stage1
I0413 13:57:22.379191 40731 net.cpp:434] relu6_stage1 <- conv6_stage1
I0413 13:57:22.379215 40731 net.cpp:395] relu6_stage1 -> conv6_stage1 (in-place)
I0413 13:57:22.379243 40731 net.cpp:150] Setting up relu6_stage1
I0413 13:57:22.379266 40731 net.cpp:157] Top shape: 8 512 46 46 (8667136)
I0413 13:57:22.379283 40731 net.cpp:165] Memory required for data: 1885982336
I0413 13:57:22.379302 40731 layer_factory.hpp:77] Creating layer drop2_stage1
I0413 13:57:22.379325 40731 net.cpp:100] Creating Layer drop2_stage1
I0413 13:57:22.379344 40731 net.cpp:434] drop2_stage1 <- conv6_stage1
I0413 13:57:22.379372 40731 net.cpp:395] drop2_stage1 -> conv6_stage1 (in-place)
I0413 13:57:22.379443 40731 net.cpp:150] Setting up drop2_stage1
I0413 13:57:22.379474 40731 net.cpp:157] Top shape: 8 512 46 46 (8667136)
I0413 13:57:22.379492 40731 net.cpp:165] Memory required for data: 1920650880
I0413 13:57:22.379511 40731 layer_factory.hpp:77] Creating layer conv7_stage1
I0413 13:57:22.379547 40731 net.cpp:100] Creating Layer conv7_stage1
I0413 13:57:22.379568 40731 net.cpp:434] conv7_stage1 <- conv6_stage1
I0413 13:57:22.379598 40731 net.cpp:408] conv7_stage1 -> conv7_stage1
I0413 13:57:22.380702 40731 net.cpp:150] Setting up conv7_stage1
I0413 13:57:22.380741 40731 net.cpp:157] Top shape: 8 15 46 46 (253920)
I0413 13:57:22.380760 40731 net.cpp:165] Memory required for data: 1921666560
I0413 13:57:22.380785 40731 layer_factory.hpp:77] Creating layer conv7_stage1_conv7_stage1_0_split
I0413 13:57:22.380811 40731 net.cpp:100] Creating Layer conv7_stage1_conv7_stage1_0_split
I0413 13:57:22.380831 40731 net.cpp:434] conv7_stage1_conv7_stage1_0_split <- conv7_stage1
I0413 13:57:22.380858 40731 net.cpp:408] conv7_stage1_conv7_stage1_0_split -> conv7_stage1_conv7_stage1_0_split_0
I0413 13:57:22.380887 40731 net.cpp:408] conv7_stage1_conv7_stage1_0_split -> conv7_stage1_conv7_stage1_0_split_1
I0413 13:57:22.380988 40731 net.cpp:150] Setting up conv7_stage1_conv7_stage1_0_split
I0413 13:57:22.381021 40731 net.cpp:157] Top shape: 8 15 46 46 (253920)
I0413 13:57:22.381042 40731 net.cpp:157] Top shape: 8 15 46 46 (253920)
I0413 13:57:22.381059 40731 net.cpp:165] Memory required for data: 1923697920
I0413 13:57:22.381078 40731 layer_factory.hpp:77] Creating layer loss_stage1
I0413 13:57:22.381115 40731 net.cpp:100] Creating Layer loss_stage1
I0413 13:57:22.381136 40731 net.cpp:434] loss_stage1 <- conv7_stage1_conv7_stage1_0_split_0
I0413 13:57:22.381160 40731 net.cpp:434] loss_stage1 <- label_1st_lower
I0413 13:57:22.381182 40731 net.cpp:408] loss_stage1 -> loss_stage1
I0413 13:57:22.381305 40731 net.cpp:150] Setting up loss_stage1
I0413 13:57:22.381352 40731 net.cpp:157] Top shape: (1)
I0413 13:57:22.381374 40731 net.cpp:160]     with loss weight 1
I0413 13:57:22.381443 40731 net.cpp:165] Memory required for data: 1923697924
I0413 13:57:22.381464 40731 layer_factory.hpp:77] Creating layer conv1_stage2
I0413 13:57:22.381503 40731 net.cpp:100] Creating Layer conv1_stage2
I0413 13:57:22.381526 40731 net.cpp:434] conv1_stage2 <- image_image_0_split_1
I0413 13:57:22.381558 40731 net.cpp:408] conv1_stage2 -> conv1_stage2
I0413 13:57:22.385723 40731 net.cpp:150] Setting up conv1_stage2
I0413 13:57:22.385776 40731 net.cpp:157] Top shape: 8 128 368 368 (138674176)
I0413 13:57:22.385795 40731 net.cpp:165] Memory required for data: 2478394628
I0413 13:57:22.385838 40731 layer_factory.hpp:77] Creating layer relu1_stage2
I0413 13:57:22.385891 40731 net.cpp:100] Creating Layer relu1_stage2
I0413 13:57:22.385913 40731 net.cpp:434] relu1_stage2 <- conv1_stage2
I0413 13:57:22.385937 40731 net.cpp:395] relu1_stage2 -> conv1_stage2 (in-place)
I0413 13:57:22.385967 40731 net.cpp:150] Setting up relu1_stage2
I0413 13:57:22.385990 40731 net.cpp:157] Top shape: 8 128 368 368 (138674176)
I0413 13:57:22.386008 40731 net.cpp:165] Memory required for data: 3033091332
I0413 13:57:22.386026 40731 layer_factory.hpp:77] Creating layer pool1_stage2
I0413 13:57:22.386056 40731 net.cpp:100] Creating Layer pool1_stage2
I0413 13:57:22.386076 40731 net.cpp:434] pool1_stage2 <- conv1_stage2
I0413 13:57:22.386098 40731 net.cpp:408] pool1_stage2 -> pool1_stage2
I0413 13:57:22.386215 40731 net.cpp:150] Setting up pool1_stage2
I0413 13:57:22.386248 40731 net.cpp:157] Top shape: 8 128 184 184 (34668544)
I0413 13:57:22.386266 40731 net.cpp:165] Memory required for data: 3171765508
I0413 13:57:22.386284 40731 layer_factory.hpp:77] Creating layer conv2_stage2
I0413 13:57:22.386320 40731 net.cpp:100] Creating Layer conv2_stage2
I0413 13:57:22.386343 40731 net.cpp:434] conv2_stage2 <- pool1_stage2
I0413 13:57:22.386373 40731 net.cpp:408] conv2_stage2 -> conv2_stage2
I0413 13:57:22.442917 40731 net.cpp:150] Setting up conv2_stage2
I0413 13:57:22.442987 40731 net.cpp:157] Top shape: 8 128 184 184 (34668544)
I0413 13:57:22.442998 40731 net.cpp:165] Memory required for data: 3310439684
I0413 13:57:22.443030 40731 layer_factory.hpp:77] Creating layer relu2_stage2
I0413 13:57:22.443053 40731 net.cpp:100] Creating Layer relu2_stage2
I0413 13:57:22.443065 40731 net.cpp:434] relu2_stage2 <- conv2_stage2
I0413 13:57:22.443080 40731 net.cpp:395] relu2_stage2 -> conv2_stage2 (in-place)
I0413 13:57:22.443099 40731 net.cpp:150] Setting up relu2_stage2
I0413 13:57:22.443111 40731 net.cpp:157] Top shape: 8 128 184 184 (34668544)
I0413 13:57:22.443120 40731 net.cpp:165] Memory required for data: 3449113860
I0413 13:57:22.443130 40731 layer_factory.hpp:77] Creating layer pool2_stage2
I0413 13:57:22.443153 40731 net.cpp:100] Creating Layer pool2_stage2
I0413 13:57:22.443164 40731 net.cpp:434] pool2_stage2 <- conv2_stage2
I0413 13:57:22.443177 40731 net.cpp:408] pool2_stage2 -> pool2_stage2
I0413 13:57:22.443238 40731 net.cpp:150] Setting up pool2_stage2
I0413 13:57:22.443254 40731 net.cpp:157] Top shape: 8 128 92 92 (8667136)
I0413 13:57:22.443264 40731 net.cpp:165] Memory required for data: 3483782404
I0413 13:57:22.443274 40731 layer_factory.hpp:77] Creating layer conv3_stage2
I0413 13:57:22.443300 40731 net.cpp:100] Creating Layer conv3_stage2
I0413 13:57:22.443312 40731 net.cpp:434] conv3_stage2 <- pool2_stage2
I0413 13:57:22.443325 40731 net.cpp:408] conv3_stage2 -> conv3_stage2
I0413 13:57:22.496826 40731 net.cpp:150] Setting up conv3_stage2
I0413 13:57:22.496871 40731 net.cpp:157] Top shape: 8 128 92 92 (8667136)
I0413 13:57:22.496882 40731 net.cpp:165] Memory required for data: 3518450948
I0413 13:57:22.496898 40731 layer_factory.hpp:77] Creating layer relu3_stage2
I0413 13:57:22.496918 40731 net.cpp:100] Creating Layer relu3_stage2
I0413 13:57:22.496930 40731 net.cpp:434] relu3_stage2 <- conv3_stage2
I0413 13:57:22.496945 40731 net.cpp:395] relu3_stage2 -> conv3_stage2 (in-place)
I0413 13:57:22.496963 40731 net.cpp:150] Setting up relu3_stage2
I0413 13:57:22.496974 40731 net.cpp:157] Top shape: 8 128 92 92 (8667136)
I0413 13:57:22.496984 40731 net.cpp:165] Memory required for data: 3553119492
I0413 13:57:22.496992 40731 layer_factory.hpp:77] Creating layer pool3_stage2
I0413 13:57:22.497010 40731 net.cpp:100] Creating Layer pool3_stage2
I0413 13:57:22.497020 40731 net.cpp:434] pool3_stage2 <- conv3_stage2
I0413 13:57:22.497032 40731 net.cpp:408] pool3_stage2 -> pool3_stage2
I0413 13:57:22.497090 40731 net.cpp:150] Setting up pool3_stage2
I0413 13:57:22.497107 40731 net.cpp:157] Top shape: 8 128 46 46 (2166784)
I0413 13:57:22.497117 40731 net.cpp:165] Memory required for data: 3561786628
I0413 13:57:22.497125 40731 layer_factory.hpp:77] Creating layer pool3_stage2_pool3_stage2_0_split
I0413 13:57:22.497167 40731 net.cpp:100] Creating Layer pool3_stage2_pool3_stage2_0_split
I0413 13:57:22.497179 40731 net.cpp:434] pool3_stage2_pool3_stage2_0_split <- pool3_stage2
I0413 13:57:22.497193 40731 net.cpp:408] pool3_stage2_pool3_stage2_0_split -> pool3_stage2_pool3_stage2_0_split_0
I0413 13:57:22.497210 40731 net.cpp:408] pool3_stage2_pool3_stage2_0_split -> pool3_stage2_pool3_stage2_0_split_1
I0413 13:57:22.497222 40731 net.cpp:408] pool3_stage2_pool3_stage2_0_split -> pool3_stage2_pool3_stage2_0_split_2
I0413 13:57:22.497236 40731 net.cpp:408] pool3_stage2_pool3_stage2_0_split -> pool3_stage2_pool3_stage2_0_split_3
I0413 13:57:22.497247 40731 net.cpp:408] pool3_stage2_pool3_stage2_0_split -> pool3_stage2_pool3_stage2_0_split_4
I0413 13:57:22.497354 40731 net.cpp:150] Setting up pool3_stage2_pool3_stage2_0_split
I0413 13:57:22.497373 40731 net.cpp:157] Top shape: 8 128 46 46 (2166784)
I0413 13:57:22.497385 40731 net.cpp:157] Top shape: 8 128 46 46 (2166784)
I0413 13:57:22.497395 40731 net.cpp:157] Top shape: 8 128 46 46 (2166784)
I0413 13:57:22.497406 40731 net.cpp:157] Top shape: 8 128 46 46 (2166784)
I0413 13:57:22.497416 40731 net.cpp:157] Top shape: 8 128 46 46 (2166784)
I0413 13:57:22.497424 40731 net.cpp:165] Memory required for data: 3605122308
I0413 13:57:22.497434 40731 layer_factory.hpp:77] Creating layer conv4_stage2
I0413 13:57:22.497462 40731 net.cpp:100] Creating Layer conv4_stage2
I0413 13:57:22.497473 40731 net.cpp:434] conv4_stage2 <- pool3_stage2_pool3_stage2_0_split_0
I0413 13:57:22.497488 40731 net.cpp:408] conv4_stage2 -> conv4_stage2
I0413 13:57:22.501741 40731 net.cpp:150] Setting up conv4_stage2
I0413 13:57:22.501761 40731 net.cpp:157] Top shape: 8 32 46 46 (541696)
I0413 13:57:22.501771 40731 net.cpp:165] Memory required for data: 3607289092
I0413 13:57:22.501785 40731 layer_factory.hpp:77] Creating layer relu4_stage2
I0413 13:57:22.501801 40731 net.cpp:100] Creating Layer relu4_stage2
I0413 13:57:22.501811 40731 net.cpp:434] relu4_stage2 <- conv4_stage2
I0413 13:57:22.501823 40731 net.cpp:395] relu4_stage2 -> conv4_stage2 (in-place)
I0413 13:57:22.501837 40731 net.cpp:150] Setting up relu4_stage2
I0413 13:57:22.501847 40731 net.cpp:157] Top shape: 8 32 46 46 (541696)
I0413 13:57:22.501857 40731 net.cpp:165] Memory required for data: 3609455876
I0413 13:57:22.501865 40731 layer_factory.hpp:77] Creating layer concat_stage2
I0413 13:57:22.501888 40731 net.cpp:100] Creating Layer concat_stage2
I0413 13:57:22.501896 40731 net.cpp:434] concat_stage2 <- conv4_stage2
I0413 13:57:22.501909 40731 net.cpp:434] concat_stage2 <- conv7_stage1_conv7_stage1_0_split_1
I0413 13:57:22.501919 40731 net.cpp:434] concat_stage2 <- pool_center_lower_pool_center_lower_0_split_0
I0413 13:57:22.501936 40731 net.cpp:408] concat_stage2 -> concat_stage2
I0413 13:57:22.501986 40731 net.cpp:150] Setting up concat_stage2
I0413 13:57:22.502002 40731 net.cpp:157] Top shape: 8 48 46 46 (812544)
I0413 13:57:22.502010 40731 net.cpp:165] Memory required for data: 3612706052
I0413 13:57:22.502019 40731 layer_factory.hpp:77] Creating layer Mconv1_stage2
I0413 13:57:22.502039 40731 net.cpp:100] Creating Layer Mconv1_stage2
I0413 13:57:22.502050 40731 net.cpp:434] Mconv1_stage2 <- concat_stage2
I0413 13:57:22.502066 40731 net.cpp:408] Mconv1_stage2 -> Mconv1_stage2
I0413 13:57:22.531956 40731 net.cpp:150] Setting up Mconv1_stage2
I0413 13:57:22.531980 40731 net.cpp:157] Top shape: 8 128 46 46 (2166784)
I0413 13:57:22.531991 40731 net.cpp:165] Memory required for data: 3621373188
I0413 13:57:22.532003 40731 layer_factory.hpp:77] Creating layer Mrelu1_stage2
I0413 13:57:22.532016 40731 net.cpp:100] Creating Layer Mrelu1_stage2
I0413 13:57:22.532027 40731 net.cpp:434] Mrelu1_stage2 <- Mconv1_stage2
I0413 13:57:22.532038 40731 net.cpp:395] Mrelu1_stage2 -> Mconv1_stage2 (in-place)
I0413 13:57:22.532052 40731 net.cpp:150] Setting up Mrelu1_stage2
I0413 13:57:22.532063 40731 net.cpp:157] Top shape: 8 128 46 46 (2166784)
I0413 13:57:22.532071 40731 net.cpp:165] Memory required for data: 3630040324
I0413 13:57:22.532097 40731 layer_factory.hpp:77] Creating layer Mconv2_stage2
I0413 13:57:22.532119 40731 net.cpp:100] Creating Layer Mconv2_stage2
I0413 13:57:22.532130 40731 net.cpp:434] Mconv2_stage2 <- Mconv1_stage2
I0413 13:57:22.532145 40731 net.cpp:408] Mconv2_stage2 -> Mconv2_stage2
I0413 13:57:22.611426 40731 net.cpp:150] Setting up Mconv2_stage2
I0413 13:57:22.611469 40731 net.cpp:157] Top shape: 8 128 46 46 (2166784)
I0413 13:57:22.611480 40731 net.cpp:165] Memory required for data: 3638707460
I0413 13:57:22.611496 40731 layer_factory.hpp:77] Creating layer Mrelu2_stage2
I0413 13:57:22.611518 40731 net.cpp:100] Creating Layer Mrelu2_stage2
I0413 13:57:22.611531 40731 net.cpp:434] Mrelu2_stage2 <- Mconv2_stage2
I0413 13:57:22.611546 40731 net.cpp:395] Mrelu2_stage2 -> Mconv2_stage2 (in-place)
I0413 13:57:22.611562 40731 net.cpp:150] Setting up Mrelu2_stage2
I0413 13:57:22.611574 40731 net.cpp:157] Top shape: 8 128 46 46 (2166784)
I0413 13:57:22.611583 40731 net.cpp:165] Memory required for data: 3647374596
I0413 13:57:22.611593 40731 layer_factory.hpp:77] Creating layer Mconv3_stage2
I0413 13:57:22.611615 40731 net.cpp:100] Creating Layer Mconv3_stage2
I0413 13:57:22.611626 40731 net.cpp:434] Mconv3_stage2 <- Mconv2_stage2
I0413 13:57:22.611642 40731 net.cpp:408] Mconv3_stage2 -> Mconv3_stage2
I0413 13:57:22.691025 40731 net.cpp:150] Setting up Mconv3_stage2
I0413 13:57:22.691069 40731 net.cpp:157] Top shape: 8 128 46 46 (2166784)
I0413 13:57:22.691081 40731 net.cpp:165] Memory required for data: 3656041732
I0413 13:57:22.691097 40731 layer_factory.hpp:77] Creating layer Mrelu3_stage2
I0413 13:57:22.691120 40731 net.cpp:100] Creating Layer Mrelu3_stage2
I0413 13:57:22.691133 40731 net.cpp:434] Mrelu3_stage2 <- Mconv3_stage2
I0413 13:57:22.691149 40731 net.cpp:395] Mrelu3_stage2 -> Mconv3_stage2 (in-place)
I0413 13:57:22.691167 40731 net.cpp:150] Setting up Mrelu3_stage2
I0413 13:57:22.691179 40731 net.cpp:157] Top shape: 8 128 46 46 (2166784)
I0413 13:57:22.691189 40731 net.cpp:165] Memory required for data: 3664708868
I0413 13:57:22.691198 40731 layer_factory.hpp:77] Creating layer Mconv4_stage2
I0413 13:57:22.691221 40731 net.cpp:100] Creating Layer Mconv4_stage2
I0413 13:57:22.691232 40731 net.cpp:434] Mconv4_stage2 <- Mconv3_stage2
I0413 13:57:22.691249 40731 net.cpp:408] Mconv4_stage2 -> Mconv4_stage2
I0413 13:57:22.692162 40731 net.cpp:150] Setting up Mconv4_stage2
I0413 13:57:22.692181 40731 net.cpp:157] Top shape: 8 128 46 46 (2166784)
I0413 13:57:22.692191 40731 net.cpp:165] Memory required for data: 3673376004
I0413 13:57:22.692203 40731 layer_factory.hpp:77] Creating layer Mrelu4_stage2
I0413 13:57:22.692217 40731 net.cpp:100] Creating Layer Mrelu4_stage2
I0413 13:57:22.692227 40731 net.cpp:434] Mrelu4_stage2 <- Mconv4_stage2
I0413 13:57:22.692239 40731 net.cpp:395] Mrelu4_stage2 -> Mconv4_stage2 (in-place)
I0413 13:57:22.692252 40731 net.cpp:150] Setting up Mrelu4_stage2
I0413 13:57:22.692263 40731 net.cpp:157] Top shape: 8 128 46 46 (2166784)
I0413 13:57:22.692272 40731 net.cpp:165] Memory required for data: 3682043140
I0413 13:57:22.692281 40731 layer_factory.hpp:77] Creating layer Mconv5_stage2
I0413 13:57:22.692301 40731 net.cpp:100] Creating Layer Mconv5_stage2
I0413 13:57:22.692312 40731 net.cpp:434] Mconv5_stage2 <- Mconv4_stage2
I0413 13:57:22.692328 40731 net.cpp:408] Mconv5_stage2 -> Mconv5_stage2
I0413 13:57:22.692677 40731 net.cpp:150] Setting up Mconv5_stage2
I0413 13:57:22.692695 40731 net.cpp:157] Top shape: 8 15 46 46 (253920)
I0413 13:57:22.692704 40731 net.cpp:165] Memory required for data: 3683058820
I0413 13:57:22.692718 40731 layer_factory.hpp:77] Creating layer Mconv5_stage2_Mconv5_stage2_0_split
I0413 13:57:22.692736 40731 net.cpp:100] Creating Layer Mconv5_stage2_Mconv5_stage2_0_split
I0413 13:57:22.692747 40731 net.cpp:434] Mconv5_stage2_Mconv5_stage2_0_split <- Mconv5_stage2
I0413 13:57:22.692759 40731 net.cpp:408] Mconv5_stage2_Mconv5_stage2_0_split -> Mconv5_stage2_Mconv5_stage2_0_split_0
I0413 13:57:22.692773 40731 net.cpp:408] Mconv5_stage2_Mconv5_stage2_0_split -> Mconv5_stage2_Mconv5_stage2_0_split_1
I0413 13:57:22.692860 40731 net.cpp:150] Setting up Mconv5_stage2_Mconv5_stage2_0_split
I0413 13:57:22.692878 40731 net.cpp:157] Top shape: 8 15 46 46 (253920)
I0413 13:57:22.692888 40731 net.cpp:157] Top shape: 8 15 46 46 (253920)
I0413 13:57:22.692896 40731 net.cpp:165] Memory required for data: 3685090180
I0413 13:57:22.692905 40731 layer_factory.hpp:77] Creating layer loss_stage2
I0413 13:57:22.692920 40731 net.cpp:100] Creating Layer loss_stage2
I0413 13:57:22.692935 40731 net.cpp:434] loss_stage2 <- Mconv5_stage2_Mconv5_stage2_0_split_0
I0413 13:57:22.692947 40731 net.cpp:434] loss_stage2 <- label_lower_label_lower_0_split_0
I0413 13:57:22.692960 40731 net.cpp:408] loss_stage2 -> loss_stage2
I0413 13:57:22.693014 40731 net.cpp:150] Setting up loss_stage2
I0413 13:57:22.693032 40731 net.cpp:157] Top shape: (1)
I0413 13:57:22.693042 40731 net.cpp:160]     with loss weight 1
I0413 13:57:22.693068 40731 net.cpp:165] Memory required for data: 3685090184
I0413 13:57:22.693078 40731 layer_factory.hpp:77] Creating layer conv1_stage3
I0413 13:57:22.693099 40731 net.cpp:100] Creating Layer conv1_stage3
I0413 13:57:22.693109 40731 net.cpp:434] conv1_stage3 <- pool3_stage2_pool3_stage2_0_split_1
I0413 13:57:22.693123 40731 net.cpp:408] conv1_stage3 -> conv1_stage3
I0413 13:57:22.698119 40731 net.cpp:150] Setting up conv1_stage3
I0413 13:57:22.698143 40731 net.cpp:157] Top shape: 8 32 46 46 (541696)
I0413 13:57:22.698153 40731 net.cpp:165] Memory required for data: 3687256968
I0413 13:57:22.698180 40731 layer_factory.hpp:77] Creating layer relu1_stage3
I0413 13:57:22.698197 40731 net.cpp:100] Creating Layer relu1_stage3
I0413 13:57:22.698209 40731 net.cpp:434] relu1_stage3 <- conv1_stage3
I0413 13:57:22.698220 40731 net.cpp:395] relu1_stage3 -> conv1_stage3 (in-place)
I0413 13:57:22.698235 40731 net.cpp:150] Setting up relu1_stage3
I0413 13:57:22.698246 40731 net.cpp:157] Top shape: 8 32 46 46 (541696)
I0413 13:57:22.698254 40731 net.cpp:165] Memory required for data: 3689423752
I0413 13:57:22.698263 40731 layer_factory.hpp:77] Creating layer concat_stage3
I0413 13:57:22.698277 40731 net.cpp:100] Creating Layer concat_stage3
I0413 13:57:22.698287 40731 net.cpp:434] concat_stage3 <- conv1_stage3
I0413 13:57:22.698297 40731 net.cpp:434] concat_stage3 <- Mconv5_stage2_Mconv5_stage2_0_split_1
I0413 13:57:22.698308 40731 net.cpp:434] concat_stage3 <- pool_center_lower_pool_center_lower_0_split_1
I0413 13:57:22.698324 40731 net.cpp:408] concat_stage3 -> concat_stage3
I0413 13:57:22.698362 40731 net.cpp:150] Setting up concat_stage3
I0413 13:57:22.698379 40731 net.cpp:157] Top shape: 8 48 46 46 (812544)
I0413 13:57:22.698387 40731 net.cpp:165] Memory required for data: 3692673928
I0413 13:57:22.698396 40731 layer_factory.hpp:77] Creating layer Mconv1_stage3
I0413 13:57:22.698417 40731 net.cpp:100] Creating Layer Mconv1_stage3
I0413 13:57:22.698428 40731 net.cpp:434] Mconv1_stage3 <- concat_stage3
I0413 13:57:22.698444 40731 net.cpp:408] Mconv1_stage3 -> Mconv1_stage3
I0413 13:57:22.728377 40731 net.cpp:150] Setting up Mconv1_stage3
I0413 13:57:22.728402 40731 net.cpp:157] Top shape: 8 128 46 46 (2166784)
I0413 13:57:22.728411 40731 net.cpp:165] Memory required for data: 3701341064
I0413 13:57:22.728430 40731 layer_factory.hpp:77] Creating layer Mrelu1_stage3
I0413 13:57:22.728451 40731 net.cpp:100] Creating Layer Mrelu1_stage3
I0413 13:57:22.728461 40731 net.cpp:434] Mrelu1_stage3 <- Mconv1_stage3
I0413 13:57:22.728472 40731 net.cpp:395] Mrelu1_stage3 -> Mconv1_stage3 (in-place)
I0413 13:57:22.728487 40731 net.cpp:150] Setting up Mrelu1_stage3
I0413 13:57:22.728497 40731 net.cpp:157] Top shape: 8 128 46 46 (2166784)
I0413 13:57:22.728507 40731 net.cpp:165] Memory required for data: 3710008200
I0413 13:57:22.728516 40731 layer_factory.hpp:77] Creating layer Mconv2_stage3
I0413 13:57:22.728555 40731 net.cpp:100] Creating Layer Mconv2_stage3
I0413 13:57:22.728566 40731 net.cpp:434] Mconv2_stage3 <- Mconv1_stage3
I0413 13:57:22.728584 40731 net.cpp:408] Mconv2_stage3 -> Mconv2_stage3
I0413 13:57:22.807606 40731 net.cpp:150] Setting up Mconv2_stage3
I0413 13:57:22.807670 40731 net.cpp:157] Top shape: 8 128 46 46 (2166784)
I0413 13:57:22.807682 40731 net.cpp:165] Memory required for data: 3718675336
I0413 13:57:22.807698 40731 layer_factory.hpp:77] Creating layer Mrelu2_stage3
I0413 13:57:22.807718 40731 net.cpp:100] Creating Layer Mrelu2_stage3
I0413 13:57:22.807729 40731 net.cpp:434] Mrelu2_stage3 <- Mconv2_stage3
I0413 13:57:22.807744 40731 net.cpp:395] Mrelu2_stage3 -> Mconv2_stage3 (in-place)
I0413 13:57:22.807760 40731 net.cpp:150] Setting up Mrelu2_stage3
I0413 13:57:22.807772 40731 net.cpp:157] Top shape: 8 128 46 46 (2166784)
I0413 13:57:22.807781 40731 net.cpp:165] Memory required for data: 3727342472
I0413 13:57:22.807790 40731 layer_factory.hpp:77] Creating layer Mconv3_stage3
I0413 13:57:22.807813 40731 net.cpp:100] Creating Layer Mconv3_stage3
I0413 13:57:22.807824 40731 net.cpp:434] Mconv3_stage3 <- Mconv2_stage3
I0413 13:57:22.807842 40731 net.cpp:408] Mconv3_stage3 -> Mconv3_stage3
I0413 13:57:22.886648 40731 net.cpp:150] Setting up Mconv3_stage3
I0413 13:57:22.886675 40731 net.cpp:157] Top shape: 8 128 46 46 (2166784)
I0413 13:57:22.886687 40731 net.cpp:165] Memory required for data: 3736009608
I0413 13:57:22.886699 40731 layer_factory.hpp:77] Creating layer Mrelu3_stage3
I0413 13:57:22.886718 40731 net.cpp:100] Creating Layer Mrelu3_stage3
I0413 13:57:22.886729 40731 net.cpp:434] Mrelu3_stage3 <- Mconv3_stage3
I0413 13:57:22.886739 40731 net.cpp:395] Mrelu3_stage3 -> Mconv3_stage3 (in-place)
I0413 13:57:22.886754 40731 net.cpp:150] Setting up Mrelu3_stage3
I0413 13:57:22.886765 40731 net.cpp:157] Top shape: 8 128 46 46 (2166784)
I0413 13:57:22.886775 40731 net.cpp:165] Memory required for data: 3744676744
I0413 13:57:22.886783 40731 layer_factory.hpp:77] Creating layer Mconv4_stage3
I0413 13:57:22.886804 40731 net.cpp:100] Creating Layer Mconv4_stage3
I0413 13:57:22.886816 40731 net.cpp:434] Mconv4_stage3 <- Mconv3_stage3
I0413 13:57:22.886831 40731 net.cpp:408] Mconv4_stage3 -> Mconv4_stage3
I0413 13:57:22.887729 40731 net.cpp:150] Setting up Mconv4_stage3
I0413 13:57:22.887749 40731 net.cpp:157] Top shape: 8 128 46 46 (2166784)
I0413 13:57:22.887758 40731 net.cpp:165] Memory required for data: 3753343880
I0413 13:57:22.887770 40731 layer_factory.hpp:77] Creating layer Mrelu4_stage3
I0413 13:57:22.887784 40731 net.cpp:100] Creating Layer Mrelu4_stage3
I0413 13:57:22.887794 40731 net.cpp:434] Mrelu4_stage3 <- Mconv4_stage3
I0413 13:57:22.887809 40731 net.cpp:395] Mrelu4_stage3 -> Mconv4_stage3 (in-place)
I0413 13:57:22.887821 40731 net.cpp:150] Setting up Mrelu4_stage3
I0413 13:57:22.887833 40731 net.cpp:157] Top shape: 8 128 46 46 (2166784)
I0413 13:57:22.887842 40731 net.cpp:165] Memory required for data: 3762011016
I0413 13:57:22.887851 40731 layer_factory.hpp:77] Creating layer Mconv5_stage3
I0413 13:57:22.887871 40731 net.cpp:100] Creating Layer Mconv5_stage3
I0413 13:57:22.887882 40731 net.cpp:434] Mconv5_stage3 <- Mconv4_stage3
I0413 13:57:22.887895 40731 net.cpp:408] Mconv5_stage3 -> Mconv5_stage3
I0413 13:57:22.888242 40731 net.cpp:150] Setting up Mconv5_stage3
I0413 13:57:22.888260 40731 net.cpp:157] Top shape: 8 15 46 46 (253920)
I0413 13:57:22.888269 40731 net.cpp:165] Memory required for data: 3763026696
I0413 13:57:22.888283 40731 layer_factory.hpp:77] Creating layer Mconv5_stage3_Mconv5_stage3_0_split
I0413 13:57:22.888298 40731 net.cpp:100] Creating Layer Mconv5_stage3_Mconv5_stage3_0_split
I0413 13:57:22.888308 40731 net.cpp:434] Mconv5_stage3_Mconv5_stage3_0_split <- Mconv5_stage3
I0413 13:57:22.888321 40731 net.cpp:408] Mconv5_stage3_Mconv5_stage3_0_split -> Mconv5_stage3_Mconv5_stage3_0_split_0
I0413 13:57:22.888336 40731 net.cpp:408] Mconv5_stage3_Mconv5_stage3_0_split -> Mconv5_stage3_Mconv5_stage3_0_split_1
I0413 13:57:22.888386 40731 net.cpp:150] Setting up Mconv5_stage3_Mconv5_stage3_0_split
I0413 13:57:22.888404 40731 net.cpp:157] Top shape: 8 15 46 46 (253920)
I0413 13:57:22.888415 40731 net.cpp:157] Top shape: 8 15 46 46 (253920)
I0413 13:57:22.888432 40731 net.cpp:165] Memory required for data: 3765058056
I0413 13:57:22.888454 40731 layer_factory.hpp:77] Creating layer loss_stage3
I0413 13:57:22.888485 40731 net.cpp:100] Creating Layer loss_stage3
I0413 13:57:22.888496 40731 net.cpp:434] loss_stage3 <- Mconv5_stage3_Mconv5_stage3_0_split_0
I0413 13:57:22.888509 40731 net.cpp:434] loss_stage3 <- label_lower_label_lower_0_split_1
I0413 13:57:22.888522 40731 net.cpp:408] loss_stage3 -> loss_stage3
I0413 13:57:22.888579 40731 net.cpp:150] Setting up loss_stage3
I0413 13:57:22.888595 40731 net.cpp:157] Top shape: (1)
I0413 13:57:22.888604 40731 net.cpp:160]     with loss weight 1
I0413 13:57:22.888628 40731 net.cpp:165] Memory required for data: 3765058060
I0413 13:57:22.888639 40731 layer_factory.hpp:77] Creating layer conv1_stage4
I0413 13:57:22.888659 40731 net.cpp:100] Creating Layer conv1_stage4
I0413 13:57:22.888671 40731 net.cpp:434] conv1_stage4 <- pool3_stage2_pool3_stage2_0_split_2
I0413 13:57:22.888685 40731 net.cpp:408] conv1_stage4 -> conv1_stage4
I0413 13:57:22.892877 40731 net.cpp:150] Setting up conv1_stage4
I0413 13:57:22.892902 40731 net.cpp:157] Top shape: 8 32 46 46 (541696)
I0413 13:57:22.892912 40731 net.cpp:165] Memory required for data: 3767224844
I0413 13:57:22.892925 40731 layer_factory.hpp:77] Creating layer relu1_stage4
I0413 13:57:22.892938 40731 net.cpp:100] Creating Layer relu1_stage4
I0413 13:57:22.892948 40731 net.cpp:434] relu1_stage4 <- conv1_stage4
I0413 13:57:22.892959 40731 net.cpp:395] relu1_stage4 -> conv1_stage4 (in-place)
I0413 13:57:22.892973 40731 net.cpp:150] Setting up relu1_stage4
I0413 13:57:22.892984 40731 net.cpp:157] Top shape: 8 32 46 46 (541696)
I0413 13:57:22.892993 40731 net.cpp:165] Memory required for data: 3769391628
I0413 13:57:22.893002 40731 layer_factory.hpp:77] Creating layer concat_stage4
I0413 13:57:22.893018 40731 net.cpp:100] Creating Layer concat_stage4
I0413 13:57:22.893026 40731 net.cpp:434] concat_stage4 <- conv1_stage4
I0413 13:57:22.893038 40731 net.cpp:434] concat_stage4 <- Mconv5_stage3_Mconv5_stage3_0_split_1
I0413 13:57:22.893049 40731 net.cpp:434] concat_stage4 <- pool_center_lower_pool_center_lower_0_split_2
I0413 13:57:22.893064 40731 net.cpp:408] concat_stage4 -> concat_stage4
I0413 13:57:22.893117 40731 net.cpp:150] Setting up concat_stage4
I0413 13:57:22.893134 40731 net.cpp:157] Top shape: 8 48 46 46 (812544)
I0413 13:57:22.893143 40731 net.cpp:165] Memory required for data: 3772641804
I0413 13:57:22.893153 40731 layer_factory.hpp:77] Creating layer Mconv1_stage4
I0413 13:57:22.893175 40731 net.cpp:100] Creating Layer Mconv1_stage4
I0413 13:57:22.893187 40731 net.cpp:434] Mconv1_stage4 <- concat_stage4
I0413 13:57:22.893199 40731 net.cpp:408] Mconv1_stage4 -> Mconv1_stage4
I0413 13:57:22.923434 40731 net.cpp:150] Setting up Mconv1_stage4
I0413 13:57:22.923466 40731 net.cpp:157] Top shape: 8 128 46 46 (2166784)
I0413 13:57:22.923478 40731 net.cpp:165] Memory required for data: 3781308940
I0413 13:57:22.923493 40731 layer_factory.hpp:77] Creating layer Mrelu1_stage4
I0413 13:57:22.923511 40731 net.cpp:100] Creating Layer Mrelu1_stage4
I0413 13:57:22.923521 40731 net.cpp:434] Mrelu1_stage4 <- Mconv1_stage4
I0413 13:57:22.923534 40731 net.cpp:395] Mrelu1_stage4 -> Mconv1_stage4 (in-place)
I0413 13:57:22.923550 40731 net.cpp:150] Setting up Mrelu1_stage4
I0413 13:57:22.923563 40731 net.cpp:157] Top shape: 8 128 46 46 (2166784)
I0413 13:57:22.923571 40731 net.cpp:165] Memory required for data: 3789976076
I0413 13:57:22.923580 40731 layer_factory.hpp:77] Creating layer Mconv2_stage4
I0413 13:57:22.923604 40731 net.cpp:100] Creating Layer Mconv2_stage4
I0413 13:57:22.923616 40731 net.cpp:434] Mconv2_stage4 <- Mconv1_stage4
I0413 13:57:22.923633 40731 net.cpp:408] Mconv2_stage4 -> Mconv2_stage4
I0413 13:57:23.004890 40731 net.cpp:150] Setting up Mconv2_stage4
I0413 13:57:23.004920 40731 net.cpp:157] Top shape: 8 128 46 46 (2166784)
I0413 13:57:23.004930 40731 net.cpp:165] Memory required for data: 3798643212
I0413 13:57:23.004945 40731 layer_factory.hpp:77] Creating layer Mrelu2_stage4
I0413 13:57:23.004971 40731 net.cpp:100] Creating Layer Mrelu2_stage4
I0413 13:57:23.004997 40731 net.cpp:434] Mrelu2_stage4 <- Mconv2_stage4
I0413 13:57:23.005010 40731 net.cpp:395] Mrelu2_stage4 -> Mconv2_stage4 (in-place)
I0413 13:57:23.005025 40731 net.cpp:150] Setting up Mrelu2_stage4
I0413 13:57:23.005038 40731 net.cpp:157] Top shape: 8 128 46 46 (2166784)
I0413 13:57:23.005048 40731 net.cpp:165] Memory required for data: 3807310348
I0413 13:57:23.005056 40731 layer_factory.hpp:77] Creating layer Mconv3_stage4
I0413 13:57:23.005079 40731 net.cpp:100] Creating Layer Mconv3_stage4
I0413 13:57:23.005090 40731 net.cpp:434] Mconv3_stage4 <- Mconv2_stage4
I0413 13:57:23.005106 40731 net.cpp:408] Mconv3_stage4 -> Mconv3_stage4
I0413 13:57:23.088392 40731 net.cpp:150] Setting up Mconv3_stage4
I0413 13:57:23.088500 40731 net.cpp:157] Top shape: 8 128 46 46 (2166784)
I0413 13:57:23.088520 40731 net.cpp:165] Memory required for data: 3815977484
I0413 13:57:23.088579 40731 layer_factory.hpp:77] Creating layer Mrelu3_stage4
I0413 13:57:23.088644 40731 net.cpp:100] Creating Layer Mrelu3_stage4
I0413 13:57:23.088717 40731 net.cpp:434] Mrelu3_stage4 <- Mconv3_stage4
I0413 13:57:23.088749 40731 net.cpp:395] Mrelu3_stage4 -> Mconv3_stage4 (in-place)
I0413 13:57:23.088773 40731 net.cpp:150] Setting up Mrelu3_stage4
I0413 13:57:23.088785 40731 net.cpp:157] Top shape: 8 128 46 46 (2166784)
I0413 13:57:23.088796 40731 net.cpp:165] Memory required for data: 3824644620
I0413 13:57:23.088806 40731 layer_factory.hpp:77] Creating layer Mconv4_stage4
I0413 13:57:23.088840 40731 net.cpp:100] Creating Layer Mconv4_stage4
I0413 13:57:23.088852 40731 net.cpp:434] Mconv4_stage4 <- Mconv3_stage4
I0413 13:57:23.088881 40731 net.cpp:408] Mconv4_stage4 -> Mconv4_stage4
I0413 13:57:23.089917 40731 net.cpp:150] Setting up Mconv4_stage4
I0413 13:57:23.089939 40731 net.cpp:157] Top shape: 8 128 46 46 (2166784)
I0413 13:57:23.089949 40731 net.cpp:165] Memory required for data: 3833311756
I0413 13:57:23.089972 40731 layer_factory.hpp:77] Creating layer Mrelu4_stage4
I0413 13:57:23.089985 40731 net.cpp:100] Creating Layer Mrelu4_stage4
I0413 13:57:23.089996 40731 net.cpp:434] Mrelu4_stage4 <- Mconv4_stage4
I0413 13:57:23.090011 40731 net.cpp:395] Mrelu4_stage4 -> Mconv4_stage4 (in-place)
I0413 13:57:23.090026 40731 net.cpp:150] Setting up Mrelu4_stage4
I0413 13:57:23.090039 40731 net.cpp:157] Top shape: 8 128 46 46 (2166784)
I0413 13:57:23.090047 40731 net.cpp:165] Memory required for data: 3841978892
I0413 13:57:23.090056 40731 layer_factory.hpp:77] Creating layer Mconv5_stage4
I0413 13:57:23.090075 40731 net.cpp:100] Creating Layer Mconv5_stage4
I0413 13:57:23.090086 40731 net.cpp:434] Mconv5_stage4 <- Mconv4_stage4
I0413 13:57:23.090111 40731 net.cpp:408] Mconv5_stage4 -> Mconv5_stage4
I0413 13:57:23.090564 40731 net.cpp:150] Setting up Mconv5_stage4
I0413 13:57:23.090584 40731 net.cpp:157] Top shape: 8 15 46 46 (253920)
I0413 13:57:23.090593 40731 net.cpp:165] Memory required for data: 3842994572
I0413 13:57:23.090606 40731 layer_factory.hpp:77] Creating layer Mconv5_stage4_Mconv5_stage4_0_split
I0413 13:57:23.090625 40731 net.cpp:100] Creating Layer Mconv5_stage4_Mconv5_stage4_0_split
I0413 13:57:23.090636 40731 net.cpp:434] Mconv5_stage4_Mconv5_stage4_0_split <- Mconv5_stage4
I0413 13:57:23.090648 40731 net.cpp:408] Mconv5_stage4_Mconv5_stage4_0_split -> Mconv5_stage4_Mconv5_stage4_0_split_0
I0413 13:57:23.090663 40731 net.cpp:408] Mconv5_stage4_Mconv5_stage4_0_split -> Mconv5_stage4_Mconv5_stage4_0_split_1
I0413 13:57:23.090719 40731 net.cpp:150] Setting up Mconv5_stage4_Mconv5_stage4_0_split
I0413 13:57:23.090736 40731 net.cpp:157] Top shape: 8 15 46 46 (253920)
I0413 13:57:23.090747 40731 net.cpp:157] Top shape: 8 15 46 46 (253920)
I0413 13:57:23.090757 40731 net.cpp:165] Memory required for data: 3845025932
I0413 13:57:23.090767 40731 layer_factory.hpp:77] Creating layer loss_stage4
I0413 13:57:23.090793 40731 net.cpp:100] Creating Layer loss_stage4
I0413 13:57:23.090806 40731 net.cpp:434] loss_stage4 <- Mconv5_stage4_Mconv5_stage4_0_split_0
I0413 13:57:23.090834 40731 net.cpp:434] loss_stage4 <- label_lower_label_lower_0_split_2
I0413 13:57:23.090893 40731 net.cpp:408] loss_stage4 -> loss_stage4
I0413 13:57:23.090963 40731 net.cpp:150] Setting up loss_stage4
I0413 13:57:23.090981 40731 net.cpp:157] Top shape: (1)
I0413 13:57:23.090991 40731 net.cpp:160]     with loss weight 1
I0413 13:57:23.091037 40731 net.cpp:165] Memory required for data: 3845025936
I0413 13:57:23.091054 40731 layer_factory.hpp:77] Creating layer conv1_stage5
I0413 13:57:23.091084 40731 net.cpp:100] Creating Layer conv1_stage5
I0413 13:57:23.091100 40731 net.cpp:434] conv1_stage5 <- pool3_stage2_pool3_stage2_0_split_3
I0413 13:57:23.091135 40731 net.cpp:408] conv1_stage5 -> conv1_stage5
I0413 13:57:23.096768 40731 net.cpp:150] Setting up conv1_stage5
I0413 13:57:23.096794 40731 net.cpp:157] Top shape: 8 32 46 46 (541696)
I0413 13:57:23.096804 40731 net.cpp:165] Memory required for data: 3847192720
I0413 13:57:23.096818 40731 layer_factory.hpp:77] Creating layer relu1_stage5
I0413 13:57:23.096832 40731 net.cpp:100] Creating Layer relu1_stage5
I0413 13:57:23.096843 40731 net.cpp:434] relu1_stage5 <- conv1_stage5
I0413 13:57:23.096858 40731 net.cpp:395] relu1_stage5 -> conv1_stage5 (in-place)
I0413 13:57:23.096873 40731 net.cpp:150] Setting up relu1_stage5
I0413 13:57:23.096886 40731 net.cpp:157] Top shape: 8 32 46 46 (541696)
I0413 13:57:23.096895 40731 net.cpp:165] Memory required for data: 3849359504
I0413 13:57:23.096904 40731 layer_factory.hpp:77] Creating layer concat_stage5
I0413 13:57:23.096927 40731 net.cpp:100] Creating Layer concat_stage5
I0413 13:57:23.096938 40731 net.cpp:434] concat_stage5 <- conv1_stage5
I0413 13:57:23.096951 40731 net.cpp:434] concat_stage5 <- Mconv5_stage4_Mconv5_stage4_0_split_1
I0413 13:57:23.096962 40731 net.cpp:434] concat_stage5 <- pool_center_lower_pool_center_lower_0_split_3
I0413 13:57:23.096982 40731 net.cpp:408] concat_stage5 -> concat_stage5
I0413 13:57:23.097029 40731 net.cpp:150] Setting up concat_stage5
I0413 13:57:23.097046 40731 net.cpp:157] Top shape: 8 48 46 46 (812544)
I0413 13:57:23.097055 40731 net.cpp:165] Memory required for data: 3852609680
I0413 13:57:23.097072 40731 layer_factory.hpp:77] Creating layer Mconv1_stage5
I0413 13:57:23.097092 40731 net.cpp:100] Creating Layer Mconv1_stage5
I0413 13:57:23.097103 40731 net.cpp:434] Mconv1_stage5 <- concat_stage5
I0413 13:57:23.097139 40731 net.cpp:408] Mconv1_stage5 -> Mconv1_stage5
I0413 13:57:23.128031 40731 net.cpp:150] Setting up Mconv1_stage5
I0413 13:57:23.128060 40731 net.cpp:157] Top shape: 8 128 46 46 (2166784)
I0413 13:57:23.128072 40731 net.cpp:165] Memory required for data: 3861276816
I0413 13:57:23.128085 40731 layer_factory.hpp:77] Creating layer Mrelu1_stage5
I0413 13:57:23.128099 40731 net.cpp:100] Creating Layer Mrelu1_stage5
I0413 13:57:23.128110 40731 net.cpp:434] Mrelu1_stage5 <- Mconv1_stage5
I0413 13:57:23.128123 40731 net.cpp:395] Mrelu1_stage5 -> Mconv1_stage5 (in-place)
I0413 13:57:23.128139 40731 net.cpp:150] Setting up Mrelu1_stage5
I0413 13:57:23.128149 40731 net.cpp:157] Top shape: 8 128 46 46 (2166784)
I0413 13:57:23.128159 40731 net.cpp:165] Memory required for data: 3869943952
I0413 13:57:23.128168 40731 layer_factory.hpp:77] Creating layer Mconv2_stage5
I0413 13:57:23.128197 40731 net.cpp:100] Creating Layer Mconv2_stage5
I0413 13:57:23.128211 40731 net.cpp:434] Mconv2_stage5 <- Mconv1_stage5
I0413 13:57:23.128228 40731 net.cpp:408] Mconv2_stage5 -> Mconv2_stage5
I0413 13:57:23.210043 40731 net.cpp:150] Setting up Mconv2_stage5
I0413 13:57:23.210093 40731 net.cpp:157] Top shape: 8 128 46 46 (2166784)
I0413 13:57:23.210104 40731 net.cpp:165] Memory required for data: 3878611088
I0413 13:57:23.210120 40731 layer_factory.hpp:77] Creating layer Mrelu2_stage5
I0413 13:57:23.210156 40731 net.cpp:100] Creating Layer Mrelu2_stage5
I0413 13:57:23.210170 40731 net.cpp:434] Mrelu2_stage5 <- Mconv2_stage5
I0413 13:57:23.210185 40731 net.cpp:395] Mrelu2_stage5 -> Mconv2_stage5 (in-place)
I0413 13:57:23.210203 40731 net.cpp:150] Setting up Mrelu2_stage5
I0413 13:57:23.210216 40731 net.cpp:157] Top shape: 8 128 46 46 (2166784)
I0413 13:57:23.210249 40731 net.cpp:165] Memory required for data: 3887278224
I0413 13:57:23.210260 40731 layer_factory.hpp:77] Creating layer Mconv3_stage5
I0413 13:57:23.210301 40731 net.cpp:100] Creating Layer Mconv3_stage5
I0413 13:57:23.210314 40731 net.cpp:434] Mconv3_stage5 <- Mconv2_stage5
I0413 13:57:23.210336 40731 net.cpp:408] Mconv3_stage5 -> Mconv3_stage5
I0413 13:57:23.289609 40731 net.cpp:150] Setting up Mconv3_stage5
I0413 13:57:23.289652 40731 net.cpp:157] Top shape: 8 128 46 46 (2166784)
I0413 13:57:23.289662 40731 net.cpp:165] Memory required for data: 3895945360
I0413 13:57:23.289680 40731 layer_factory.hpp:77] Creating layer Mrelu3_stage5
I0413 13:57:23.289698 40731 net.cpp:100] Creating Layer Mrelu3_stage5
I0413 13:57:23.289710 40731 net.cpp:434] Mrelu3_stage5 <- Mconv3_stage5
I0413 13:57:23.289728 40731 net.cpp:395] Mrelu3_stage5 -> Mconv3_stage5 (in-place)
I0413 13:57:23.289746 40731 net.cpp:150] Setting up Mrelu3_stage5
I0413 13:57:23.289758 40731 net.cpp:157] Top shape: 8 128 46 46 (2166784)
I0413 13:57:23.289767 40731 net.cpp:165] Memory required for data: 3904612496
I0413 13:57:23.289777 40731 layer_factory.hpp:77] Creating layer Mconv4_stage5
I0413 13:57:23.289798 40731 net.cpp:100] Creating Layer Mconv4_stage5
I0413 13:57:23.289808 40731 net.cpp:434] Mconv4_stage5 <- Mconv3_stage5
I0413 13:57:23.289821 40731 net.cpp:408] Mconv4_stage5 -> Mconv4_stage5
I0413 13:57:23.290740 40731 net.cpp:150] Setting up Mconv4_stage5
I0413 13:57:23.290760 40731 net.cpp:157] Top shape: 8 128 46 46 (2166784)
I0413 13:57:23.290769 40731 net.cpp:165] Memory required for data: 3913279632
I0413 13:57:23.290866 40731 layer_factory.hpp:77] Creating layer Mrelu4_stage5
I0413 13:57:23.290890 40731 net.cpp:100] Creating Layer Mrelu4_stage5
I0413 13:57:23.290901 40731 net.cpp:434] Mrelu4_stage5 <- Mconv4_stage5
I0413 13:57:23.290912 40731 net.cpp:395] Mrelu4_stage5 -> Mconv4_stage5 (in-place)
I0413 13:57:23.290926 40731 net.cpp:150] Setting up Mrelu4_stage5
I0413 13:57:23.290938 40731 net.cpp:157] Top shape: 8 128 46 46 (2166784)
I0413 13:57:23.290947 40731 net.cpp:165] Memory required for data: 3921946768
I0413 13:57:23.290956 40731 layer_factory.hpp:77] Creating layer Mconv5_stage5
I0413 13:57:23.290982 40731 net.cpp:100] Creating Layer Mconv5_stage5
I0413 13:57:23.290992 40731 net.cpp:434] Mconv5_stage5 <- Mconv4_stage5
I0413 13:57:23.291008 40731 net.cpp:408] Mconv5_stage5 -> Mconv5_stage5
I0413 13:57:23.291373 40731 net.cpp:150] Setting up Mconv5_stage5
I0413 13:57:23.291393 40731 net.cpp:157] Top shape: 8 15 46 46 (253920)
I0413 13:57:23.291401 40731 net.cpp:165] Memory required for data: 3922962448
I0413 13:57:23.291414 40731 layer_factory.hpp:77] Creating layer Mconv5_stage5_Mconv5_stage5_0_split
I0413 13:57:23.291429 40731 net.cpp:100] Creating Layer Mconv5_stage5_Mconv5_stage5_0_split
I0413 13:57:23.291438 40731 net.cpp:434] Mconv5_stage5_Mconv5_stage5_0_split <- Mconv5_stage5
I0413 13:57:23.291450 40731 net.cpp:408] Mconv5_stage5_Mconv5_stage5_0_split -> Mconv5_stage5_Mconv5_stage5_0_split_0
I0413 13:57:23.291471 40731 net.cpp:408] Mconv5_stage5_Mconv5_stage5_0_split -> Mconv5_stage5_Mconv5_stage5_0_split_1
I0413 13:57:23.291523 40731 net.cpp:150] Setting up Mconv5_stage5_Mconv5_stage5_0_split
I0413 13:57:23.291538 40731 net.cpp:157] Top shape: 8 15 46 46 (253920)
I0413 13:57:23.291549 40731 net.cpp:157] Top shape: 8 15 46 46 (253920)
I0413 13:57:23.291558 40731 net.cpp:165] Memory required for data: 3924993808
I0413 13:57:23.291568 40731 layer_factory.hpp:77] Creating layer loss_stage5
I0413 13:57:23.291584 40731 net.cpp:100] Creating Layer loss_stage5
I0413 13:57:23.291594 40731 net.cpp:434] loss_stage5 <- Mconv5_stage5_Mconv5_stage5_0_split_0
I0413 13:57:23.291604 40731 net.cpp:434] loss_stage5 <- label_lower_label_lower_0_split_3
I0413 13:57:23.291617 40731 net.cpp:408] loss_stage5 -> loss_stage5
I0413 13:57:23.291682 40731 net.cpp:150] Setting up loss_stage5
I0413 13:57:23.291698 40731 net.cpp:157] Top shape: (1)
I0413 13:57:23.291708 40731 net.cpp:160]     with loss weight 1
I0413 13:57:23.291744 40731 net.cpp:165] Memory required for data: 3924993812
I0413 13:57:23.291775 40731 layer_factory.hpp:77] Creating layer conv1_stage6
I0413 13:57:23.291801 40731 net.cpp:100] Creating Layer conv1_stage6
I0413 13:57:23.291815 40731 net.cpp:434] conv1_stage6 <- pool3_stage2_pool3_stage2_0_split_4
I0413 13:57:23.291834 40731 net.cpp:408] conv1_stage6 -> conv1_stage6
I0413 13:57:23.296010 40731 net.cpp:150] Setting up conv1_stage6
I0413 13:57:23.296031 40731 net.cpp:157] Top shape: 8 32 46 46 (541696)
I0413 13:57:23.296041 40731 net.cpp:165] Memory required for data: 3927160596
I0413 13:57:23.296053 40731 layer_factory.hpp:77] Creating layer relu1_stage6
I0413 13:57:23.296066 40731 net.cpp:100] Creating Layer relu1_stage6
I0413 13:57:23.296075 40731 net.cpp:434] relu1_stage6 <- conv1_stage6
I0413 13:57:23.296089 40731 net.cpp:395] relu1_stage6 -> conv1_stage6 (in-place)
I0413 13:57:23.296103 40731 net.cpp:150] Setting up relu1_stage6
I0413 13:57:23.296115 40731 net.cpp:157] Top shape: 8 32 46 46 (541696)
I0413 13:57:23.296124 40731 net.cpp:165] Memory required for data: 3929327380
I0413 13:57:23.296133 40731 layer_factory.hpp:77] Creating layer concat_stage6
I0413 13:57:23.296146 40731 net.cpp:100] Creating Layer concat_stage6
I0413 13:57:23.296155 40731 net.cpp:434] concat_stage6 <- conv1_stage6
I0413 13:57:23.296166 40731 net.cpp:434] concat_stage6 <- Mconv5_stage5_Mconv5_stage5_0_split_1
I0413 13:57:23.296177 40731 net.cpp:434] concat_stage6 <- pool_center_lower_pool_center_lower_0_split_4
I0413 13:57:23.296193 40731 net.cpp:408] concat_stage6 -> concat_stage6
I0413 13:57:23.296232 40731 net.cpp:150] Setting up concat_stage6
I0413 13:57:23.296248 40731 net.cpp:157] Top shape: 8 48 46 46 (812544)
I0413 13:57:23.296257 40731 net.cpp:165] Memory required for data: 3932577556
I0413 13:57:23.296267 40731 layer_factory.hpp:77] Creating layer Mconv1_stage6
I0413 13:57:23.296295 40731 net.cpp:100] Creating Layer Mconv1_stage6
I0413 13:57:23.296308 40731 net.cpp:434] Mconv1_stage6 <- concat_stage6
I0413 13:57:23.296320 40731 net.cpp:408] Mconv1_stage6 -> Mconv1_stage6
I0413 13:57:23.325955 40731 net.cpp:150] Setting up Mconv1_stage6
I0413 13:57:23.325979 40731 net.cpp:157] Top shape: 8 128 46 46 (2166784)
I0413 13:57:23.325989 40731 net.cpp:165] Memory required for data: 3941244692
I0413 13:57:23.326002 40731 layer_factory.hpp:77] Creating layer Mrelu1_stage6
I0413 13:57:23.326015 40731 net.cpp:100] Creating Layer Mrelu1_stage6
I0413 13:57:23.326025 40731 net.cpp:434] Mrelu1_stage6 <- Mconv1_stage6
I0413 13:57:23.326037 40731 net.cpp:395] Mrelu1_stage6 -> Mconv1_stage6 (in-place)
I0413 13:57:23.326050 40731 net.cpp:150] Setting up Mrelu1_stage6
I0413 13:57:23.326062 40731 net.cpp:157] Top shape: 8 128 46 46 (2166784)
I0413 13:57:23.326071 40731 net.cpp:165] Memory required for data: 3949911828
I0413 13:57:23.326092 40731 layer_factory.hpp:77] Creating layer Mconv2_stage6
I0413 13:57:23.326112 40731 net.cpp:100] Creating Layer Mconv2_stage6
I0413 13:57:23.326123 40731 net.cpp:434] Mconv2_stage6 <- Mconv1_stage6
I0413 13:57:23.326139 40731 net.cpp:408] Mconv2_stage6 -> Mconv2_stage6
I0413 13:57:23.404495 40731 net.cpp:150] Setting up Mconv2_stage6
I0413 13:57:23.404536 40731 net.cpp:157] Top shape: 8 128 46 46 (2166784)
I0413 13:57:23.404546 40731 net.cpp:165] Memory required for data: 3958578964
I0413 13:57:23.404562 40731 layer_factory.hpp:77] Creating layer Mrelu2_stage6
I0413 13:57:23.404579 40731 net.cpp:100] Creating Layer Mrelu2_stage6
I0413 13:57:23.404592 40731 net.cpp:434] Mrelu2_stage6 <- Mconv2_stage6
I0413 13:57:23.404604 40731 net.cpp:395] Mrelu2_stage6 -> Mconv2_stage6 (in-place)
I0413 13:57:23.404621 40731 net.cpp:150] Setting up Mrelu2_stage6
I0413 13:57:23.404633 40731 net.cpp:157] Top shape: 8 128 46 46 (2166784)
I0413 13:57:23.404642 40731 net.cpp:165] Memory required for data: 3967246100
I0413 13:57:23.404651 40731 layer_factory.hpp:77] Creating layer Mconv3_stage6
I0413 13:57:23.404686 40731 net.cpp:100] Creating Layer Mconv3_stage6
I0413 13:57:23.404697 40731 net.cpp:434] Mconv3_stage6 <- Mconv2_stage6
I0413 13:57:23.404739 40731 net.cpp:408] Mconv3_stage6 -> Mconv3_stage6
I0413 13:57:23.482909 40731 net.cpp:150] Setting up Mconv3_stage6
I0413 13:57:23.482942 40731 net.cpp:157] Top shape: 8 128 46 46 (2166784)
I0413 13:57:23.482954 40731 net.cpp:165] Memory required for data: 3975913236
I0413 13:57:23.482966 40731 layer_factory.hpp:77] Creating layer Mrelu3_stage6
I0413 13:57:23.482980 40731 net.cpp:100] Creating Layer Mrelu3_stage6
I0413 13:57:23.482990 40731 net.cpp:434] Mrelu3_stage6 <- Mconv3_stage6
I0413 13:57:23.483001 40731 net.cpp:395] Mrelu3_stage6 -> Mconv3_stage6 (in-place)
I0413 13:57:23.483016 40731 net.cpp:150] Setting up Mrelu3_stage6
I0413 13:57:23.483027 40731 net.cpp:157] Top shape: 8 128 46 46 (2166784)
I0413 13:57:23.483036 40731 net.cpp:165] Memory required for data: 3984580372
I0413 13:57:23.483057 40731 layer_factory.hpp:77] Creating layer Mconv4_stage6
I0413 13:57:23.483083 40731 net.cpp:100] Creating Layer Mconv4_stage6
I0413 13:57:23.483094 40731 net.cpp:434] Mconv4_stage6 <- Mconv3_stage6
I0413 13:57:23.483111 40731 net.cpp:408] Mconv4_stage6 -> Mconv4_stage6
I0413 13:57:23.484035 40731 net.cpp:150] Setting up Mconv4_stage6
I0413 13:57:23.484055 40731 net.cpp:157] Top shape: 8 128 46 46 (2166784)
I0413 13:57:23.484064 40731 net.cpp:165] Memory required for data: 3993247508
I0413 13:57:23.484076 40731 layer_factory.hpp:77] Creating layer Mrelu4_stage6
I0413 13:57:23.484088 40731 net.cpp:100] Creating Layer Mrelu4_stage6
I0413 13:57:23.484098 40731 net.cpp:434] Mrelu4_stage6 <- Mconv4_stage6
I0413 13:57:23.484113 40731 net.cpp:395] Mrelu4_stage6 -> Mconv4_stage6 (in-place)
I0413 13:57:23.484127 40731 net.cpp:150] Setting up Mrelu4_stage6
I0413 13:57:23.484138 40731 net.cpp:157] Top shape: 8 128 46 46 (2166784)
I0413 13:57:23.484148 40731 net.cpp:165] Memory required for data: 4001914644
I0413 13:57:23.484156 40731 layer_factory.hpp:77] Creating layer Mconv5_stage6
I0413 13:57:23.484174 40731 net.cpp:100] Creating Layer Mconv5_stage6
I0413 13:57:23.484184 40731 net.cpp:434] Mconv5_stage6 <- Mconv4_stage6
I0413 13:57:23.484197 40731 net.cpp:408] Mconv5_stage6 -> Mconv5_stage6
I0413 13:57:23.484565 40731 net.cpp:150] Setting up Mconv5_stage6
I0413 13:57:23.484585 40731 net.cpp:157] Top shape: 8 15 46 46 (253920)
I0413 13:57:23.484593 40731 net.cpp:165] Memory required for data: 4002930324
I0413 13:57:23.484606 40731 layer_factory.hpp:77] Creating layer loss_stage6
I0413 13:57:23.484637 40731 net.cpp:100] Creating Layer loss_stage6
I0413 13:57:23.484649 40731 net.cpp:434] loss_stage6 <- Mconv5_stage6
I0413 13:57:23.484661 40731 net.cpp:434] loss_stage6 <- label_lower_label_lower_0_split_4
…
