…
I0412 14:47:31.855685 38045 net.cpp:58] Initializing net from parameters: 
state {
  phase: TRAIN
  level: 0
  stage: ""
}
layer {
  name: "data"
  type: "CPMData"
  top: "data"
  top: "label"
  transform_param {
    crop_size: 368
    stride: 8
    max_rotate_degree: 40
    crop_size_x: 368
    crop_size_y: 368
    scale_prob: 1
    scale_min: 0.7
    scale_max: 1.3
    target_dist: 1.171
    center_perterb_max: 0
    do_clahe: false
    num_parts: 14
    np_in_lmdb: 14
    is_order_correct: true
  }
  data_param {
    source: "/home/lizhuowan/Market_CPM/lmdb_11000"
    batch_size: 8
    backend: LMDB
  }
}
layer {
  name: "label_lower"
  type: "Slice"
  bottom: "label"
  top: "label_lower"
  top: "label_1st_lower"
  slice_param {
    slice_point: 15
    axis: 1
  }
}
layer {
  name: "image"
  type: "Slice"
  bottom: "data"
  top: "image"
  top: "center_map"
  slice_param {
    slice_point: 3
    axis: 1
  }
}
layer {
  name: "pool_center_lower"
  type: "Pooling"
  bottom: "center_map"
  top: "pool_center_lower"
  pooling_param {
    pool: AVE
    kernel_size: 9
    stride: 8
  }
}
layer {
  name: "conv1_stage1"
  type: "Convolution"
  bottom: "image"
  top: "conv1_stage1"
  param {
    lr_mult: 5
    decay_mult: 1
  }
  param {
    lr_mult: 10
    decay_mult: 0
  }
  convolution_param {
    num_output: 128
    pad: 4
    kernel_size: 9
    weight_filler {
      type: "gaussian"
      std: 0.01
    }
    bias_filler {
      type: "constant"
    }
  }
}
layer {
  name: "relu1_stage1"
  type: "ReLU"
  bottom: "conv1_stage1"
  top: "conv1_stage1"
}
layer {
  name: "pool1_stage1"
  type: "Pooling"
  bottom: "conv1_stage1"
  top: "pool1_stage1"
  pooling_param {
    pool: MAX
    kernel_size: 3
    stride: 2
  }
}
layer {
  name: "conv2_stage1"
  type: "Convolution"
  bottom: "pool1_stage1"
  top: "conv2_stage1"
  param {
    lr_mult: 5
    decay_mult: 1
  }
  param {
    lr_mult: 10
    decay_mult: 0
  }
  convolution_param {
    num_output: 128
    pad: 4
    kernel_size: 9
    weight_filler {
      type: "gaussian"
      std: 0.01
    }
    bias_filler {
      type: "constant"
    }
  }
}
layer {
  name: "relu2_stage1"
  type: "ReLU"
  bottom: "conv2_stage1"
  top: "conv2_stage1"
}
layer {
  name: "pool2_stage1"
  type: "Pooling"
  bottom: "conv2_stage1"
  top: "pool2_stage1"
  pooling_param {
    pool: MAX
    kernel_size: 3
    stride: 2
  }
}
layer {
  name: "conv3_stage1"
  type: "Convolution"
  bottom: "pool2_stage1"
  top: "conv3_stage1"
  param {
    lr_mult: 5
    decay_mult: 1
  }
  param {
    lr_mult: 10
    decay_mult: 0
  }
  convolution_param {
    num_output: 128
    pad: 4
    kernel_size: 9
    weight_filler {
      type: "gaussian"
      std: 0.01
    }
    bias_filler {
      type: "constant"
    }
  }
}
layer {
  name: "relu3_stage1"
  type: "ReLU"
  bottom: "conv3_stage1"
  top: "conv3_stage1"
}
layer {
  name: "pool3_stage1"
  type: "Pooling"
  bottom: "conv3_stage1"
  top: "pool3_stage1"
  pooling_param {
    pool: MAX
    kernel_size: 3
    stride: 2
  }
}
layer {
  name: "conv4_stage1"
  type: "Convolution"
  bottom: "pool3_stage1"
  top: "conv4_stage1"
  param {
    lr_mult: 5
    decay_mult: 1
  }
  param {
    lr_mult: 10
    decay_mult: 0
  }
  convolution_param {
    num_output: 32
    pad: 2
    kernel_size: 5
    weight_filler {
      type: "gaussian"
      std: 0.01
    }
    bias_filler {
      type: "constant"
    }
  }
}
layer {
  name: "relu4_stage1"
  type: "ReLU"
  bottom: "conv4_stage1"
  top: "conv4_stage1"
}
layer {
  name: "conv5_stage1"
  type: "Convolution"
  bottom: "conv4_stage1"
  top: "conv5_stage1"
  param {
    lr_mult: 5
    decay_mult: 1
  }
  param {
    lr_mult: 10
    decay_mult: 0
  }
  convolution_param {
    num_output: 512
    pad: 4
    kernel_size: 9
    weight_filler {
      type: "gaussian"
      std: 0.01
    }
    bias_filler {
      type: "constant"
    }
  }
}
layer {
  name: "relu5_stage1"
  type: "ReLU"
  bottom: "conv5_stage1"
  top: "conv5_stage1"
}
layer {
  name: "drop1_stage1"
  type: "Dropout"
  bottom: "conv5_stage1"
  top: "conv5_stage1"
  dropout_param {
    dropout_ratio: 0.5
  }
}
layer {
  name: "conv6_stage1"
  type: "Convolution"
  bottom: "conv5_stage1"
  top: "conv6_stage1"
  param {
    lr_mult: 5
    decay_mult: 1
  }
  param {
    lr_mult: 10
    decay_mult: 0
  }
  convolution_param {
    num_output: 512
    pad: 0
    kernel_size: 1
    weight_filler {
      type: "gaussian"
      std: 0.01
    }
    bias_filler {
      type: "constant"
    }
  }
}
layer {
  name: "relu6_stage1"
  type: "ReLU"
  bottom: "conv6_stage1"
  top: "conv6_stage1"
}
layer {
  name: "drop2_stage1"
  type: "Dropout"
  bottom: "conv6_stage1"
  top: "conv6_stage1"
  dropout_param {
    dropout_ratio: 0.5
  }
}
layer {
  name: "conv7_stage1"
  type: "Convolution"
  bottom: "conv6_stage1"
  top: "conv7_stage1"
  param {
    lr_mult: 5
    decay_mult: 1
  }
  param {
    lr_mult: 10
    decay_mult: 0
  }
  convolution_param {
    num_output: 15
    pad: 0
    kernel_size: 1
    weight_filler {
      type: "gaussian"
      std: 0.01
    }
    bias_filler {
      type: "constant"
    }
  }
}
layer {
  name: "loss_stage1"
  type: "EuclideanLoss"
  bottom: "conv7_stage1"
  bottom: "label_1st_lower"
  top: "loss_stage1"
}
layer {
  name: "conv1_stage2"
  type: "Convolution"
  bottom: "image"
  top: "conv1_stage2"
  param {
    lr_mult: 1
    decay_mult: 1
  }
  param {
    lr_mult: 2
    decay_mult: 0
  }
  convolution_param {
    num_output: 128
    pad: 4
    kernel_size: 9
    weight_filler {
      type: "gaussian"
      std: 0.01
    }
    bias_filler {
      type: "constant"
    }
  }
}
layer {
  name: "relu1_stage2"
  type: "ReLU"
  bottom: "conv1_stage2"
  top: "conv1_stage2"
}
layer {
  name: "pool1_stage2"
  type: "Pooling"
  bottom: "conv1_stage2"
  top: "pool1_stage2"
  pooling_param {
    pool: MAX
    kernel_size: 3
    stride: 2
  }
}
layer {
  name: "conv2_stage2"
  type: "Convolution"
  bottom: "pool1_stage2"
  top: "conv2_stage2"
  param {
    lr_mult: 1
    decay_mult: 1
  }
  param {
    lr_mult: 2
    decay_mult: 0
  }
  convolution_param {
    num_output: 128
    pad: 4
    kernel_size: 9
    weight_filler {
      type: "gaussian"
      std: 0.01
    }
    bias_filler {
      type: "constant"
    }
  }
}
layer {
  name: "relu2_stage2"
  type: "ReLU"
  bottom: "conv2_stage2"
  top: "conv2_stage2"
}
layer {
  name: "pool2_stage2"
  type: "Pooling"
  bottom: "conv2_stage2"
  top: "pool2_stage2"
  pooling_param {
    pool: MAX
    kernel_size: 3
    stride: 2
  }
}
layer {
  name: "conv3_stage2"
  type: "Convolution"
  bottom: "pool2_stage2"
  top: "conv3_stage2"
  param {
    lr_mult: 1
    decay_mult: 1
  }
  param {
    lr_mult: 2
    decay_mult: 0
  }
  convolution_param {
    num_output: 128
    pad: 4
    kernel_size: 9
    weight_filler {
      type: "gaussian"
      std: 0.01
    }
    bias_filler {
      type: "constant"
    }
  }
}
layer {
  name: "relu3_stage2"
  type: "ReLU"
  bottom: "conv3_stage2"
  top: "conv3_stage2"
}
layer {
  name: "pool3_stage2"
  type: "Pooling"
  bottom: "conv3_stage2"
  top: "pool3_stage2"
  pooling_param {
    pool: MAX
    kernel_size: 3
    stride: 2
  }
}
layer {
  name: "conv4_stage2"
  type: "Convolution"
  bottom: "pool3_stage2"
  top: "conv4_stage2"
  param {
    lr_mult: 1
    decay_mult: 1
  }
  param {
    lr_mult: 2
    decay_mult: 0
  }
  convolution_param {
    num_output: 32
    pad: 2
    kernel_size: 5
    weight_filler {
      type: "gaussian"
      std: 0.01
    }
    bias_filler {
      type: "constant"
    }
  }
}
layer {
  name: "relu4_stage2"
  type: "ReLU"
  bottom: "conv4_stage2"
  top: "conv4_stage2"
}
layer {
  name: "concat_stage2"
  type: "Concat"
  bottom: "conv4_stage2"
  bottom: "conv7_stage1"
  bottom: "pool_center_lower"
  top: "concat_stage2"
  concat_param {
    axis: 1
  }
}
layer {
  name: "Mconv1_stage2"
  type: "Convolution"
  bottom: "concat_stage2"
  top: "Mconv1_stage2"
  param {
    lr_mult: 1
    decay_mult: 1
  }
  param {
    lr_mult: 2
    decay_mult: 0
  }
  convolution_param {
    num_output: 128
    pad: 5
    kernel_size: 11
    weight_filler {
      type: "gaussian"
      std: 0.01
    }
    bias_filler {
      type: "constant"
    }
  }
}
layer {
  name: "Mrelu1_stage2"
  type: "ReLU"
  bottom: "Mconv1_stage2"
  top: "Mconv1_stage2"
}
layer {
  name: "Mconv2_stage2"
  type: "Convolution"
  bottom: "Mconv1_stage2"
  top: "Mconv2_stage2"
  param {
    lr_mult: 1
    decay_mult: 1
  }
  param {
    lr_mult: 2
    decay_mult: 0
  }
  convolution_param {
    num_output: 128
    pad: 5
    kernel_size: 11
    weight_filler {
      type: "gaussian"
      std: 0.01
    }
    bias_filler {
      type: "constant"
    }
  }
}
layer {
  name: "Mrelu2_stage2"
  type: "ReLU"
  bottom: "Mconv2_stage2"
  top: "Mconv2_stage2"
}
layer {
  name: "Mconv3_stage2"
  type: "Convolution"
  bottom: "Mconv2_stage2"
  top: "Mconv3_stage2"
  param {
    lr_mult: 1
    decay_mult: 1
  }
  param {
    lr_mult: 2
    decay_mult: 0
  }
  convolution_param {
    num_output: 128
    pad: 5
    kernel_size: 11
    weight_filler {
      type: "gaussian"
      std: 0.01
    }
    bias_filler {
      type: "constant"
    }
  }
}
layer {
  name: "Mrelu3_stage2"
  type: "ReLU"
  bottom: "Mconv3_stage2"
  top: "Mconv3_stage2"
}
layer {
  name: "Mconv4_stage2"
  type: "Convolution"
  bottom: "Mconv3_stage2"
  top: "Mconv4_stage2"
  param {
    lr_mult: 1
    decay_mult: 1
  }
  param {
    lr_mult: 2
    decay_mult: 0
  }
  convolution_param {
    num_output: 128
    pad: 0
    kernel_size: 1
    weight_filler {
      type: "gaussian"
      std: 0.01
    }
    bias_filler {
      type: "constant"
    }
  }
}
layer {
  name: "Mrelu4_stage2"
  type: "ReLU"
  bottom: "Mconv4_stage2"
  top: "Mconv4_stage2"
}
layer {
  name: "Mconv5_stage2"
  type: "Convolution"
  bottom: "Mconv4_stage2"
  top: "Mconv5_stage2"
  param {
    lr_mult: 1
    decay_mult: 1
  }
  param {
    lr_mult: 2
    decay_mult: 0
  }
  convolution_param {
    num_output: 15
    pad: 0
    kernel_size: 1
    weight_filler {
      type: "gaussian"
      std: 0.01
    }
    bias_filler {
      type: "constant"
    }
  }
}
layer {
  name: "loss_stage2"
  type: "EuclideanLoss"
  bottom: "Mconv5_stage2"
  bottom: "label_lower"
  top: "loss_stage2"
}
layer {
  name: "conv1_stage3"
  type: "Convolution"
  bottom: "pool3_stage2"
  top: "conv1_stage3"
  param {
    lr_mult: 1
    decay_mult: 1
  }
  param {
    lr_mult: 2
    decay_mult: 0
  }
  convolution_param {
    num_output: 32
    pad: 2
    kernel_size: 5
    weight_filler {
      type: "gaussian"
      std: 0.01
    }
    bias_filler {
      type: "constant"
    }
  }
}
layer {
  name: "relu1_stage3"
  type: "ReLU"
  bottom: "conv1_stage3"
  top: "conv1_stage3"
}
layer {
  name: "concat_stage3"
  type: "Concat"
  bottom: "conv1_stage3"
  bottom: "Mconv5_stage2"
  bottom: "pool_center_lower"
  top: "concat_stage3"
  concat_param {
    axis: 1
  }
}
layer {
  name: "Mconv1_stage3"
  type: "Convolution"
  bottom: "concat_stage3"
  top: "Mconv1_stage3"
  param {
    lr_mult: 1
    decay_mult: 1
  }
  param {
    lr_mult: 2
    decay_mult: 0
  }
  convolution_param {
    num_output: 128
    pad: 5
    kernel_size: 11
    weight_filler {
      type: "gaussian"
      std: 0.01
    }
    bias_filler {
      type: "constant"
    }
  }
}
layer {
  name: "Mrelu1_stage3"
  type: "ReLU"
  bottom: "Mconv1_stage3"
  top: "Mconv1_stage3"
}
layer {
  name: "Mconv2_stage3"
  type: "Convolution"
  bottom: "Mconv1_stage3"
  top: "Mconv2_stage3"
  param {
    lr_mult: 1
    decay_mult: 1
  }
  param {
    lr_mult: 2
    decay_mult: 0
  }
  convolution_param {
    num_output: 128
    pad: 5
    kernel_size: 11
    weight_filler {
      type: "gaussian"
      std: 0.01
    }
    bias_filler {
      type: "constant"
    }
  }
}
layer {
  name: "Mrelu2_stage3"
  type: "ReLU"
  bottom: "Mconv2_stage3"
  top: "Mconv2_stage3"
}
layer {
  name: "Mconv3_stage3"
  type: "Convolution"
  bottom: "Mconv2_stage3"
  top: "Mconv3_stage3"
  param {
    lr_mult: 1
    decay_mult: 1
  }
  param {
    lr_mult: 2
    decay_mult: 0
  }
  convolution_param {
    num_output: 128
    pad: 5
    kernel_size: 11
    weight_filler {
      type: "gaussian"
      std: 0.01
    }
    bias_filler {
      type: "constant"
    }
  }
}
layer {
  name: "Mrelu3_stage3"
  type: "ReLU"
  bottom: "Mconv3_stage3"
  top: "Mconv3_stage3"
}
layer {
  name: "Mconv4_stage3"
  type: "Convolution"
  bottom: "Mconv3_stage3"
  top: "Mconv4_stage3"
  param {
    lr_mult: 1
    decay_mult: 1
  }
  param {
    lr_mult: 2
    decay_mult: 0
  }
  convolution_param {
    num_output: 128
    pad: 0
    kernel_size: 1
    weight_filler {
      type: "gaussian"
      std: 0.01
    }
    bias_filler {
      type: "constant"
    }
  }
}
layer {
  name: "Mrelu4_stage3"
  type: "ReLU"
  bottom: "Mconv4_stage3"
  top: "Mconv4_stage3"
}
layer {
  name: "Mconv5_stage3"
  type: "Convolution"
  bottom: "Mconv4_stage3"
  top: "Mconv5_stage3"
  param {
    lr_mult: 1
    decay_mult: 1
  }
  param {
    lr_mult: 2
    decay_mult: 0
  }
  convolution_param {
    num_output: 15
    pad: 0
    kernel_size: 1
    weight_filler {
      type: "gaussian"
      std: 0.01
    }
    bias_filler {
      type: "constant"
    }
  }
}
layer {
  name: "loss_stage3"
  type: "EuclideanLoss"
  bottom: "Mconv5_stage3"
  bottom: "label_lower"
  top: "loss_stage3"
}
layer {
  name: "conv1_stage4"
  type: "Convolution"
  bottom: "pool3_stage2"
  top: "conv1_stage4"
  param {
    lr_mult: 1
    decay_mult: 1
  }
  param {
    lr_mult: 2
    decay_mult: 0
  }
  convolution_param {
    num_output: 32
    pad: 2
    kernel_size: 5
    weight_filler {
      type: "gaussian"
      std: 0.01
    }
    bias_filler {
      type: "constant"
    }
  }
}
layer {
  name: "relu1_stage4"
  type: "ReLU"
  bottom: "conv1_stage4"
  top: "conv1_stage4"
}
layer {
  name: "concat_stage4"
  type: "Concat"
  bottom: "conv1_stage4"
  bottom: "Mconv5_stage3"
  bottom: "pool_center_lower"
  top: "concat_stage4"
  concat_param {
    axis: 1
  }
}
layer {
  name: "Mconv1_stage4"
  type: "Convolution"
  bottom: "concat_stage4"
  top: "Mconv1_stage4"
  param {
    lr_mult: 1
    decay_mult: 1
  }
  param {
    lr_mult: 2
    decay_mult: 0
  }
  convolution_param {
    num_output: 128
    pad: 5
    kernel_size: 11
    weight_filler {
      type: "gaussian"
      std: 0.01
    }
    bias_filler {
      type: "constant"
    }
  }
}
layer {
  name: "Mrelu1_stage4"
  type: "ReLU"
  bottom: "Mconv1_stage4"
  top: "Mconv1_stage4"
}
layer {
  name: "Mconv2_stage4"
  type: "Convolution"
  bottom: "Mconv1_stage4"
  top: "Mconv2_stage4"
  param {
    lr_mult: 1
    decay_mult: 1
  }
  param {
    lr_mult: 2
    decay_mult: 0
  }
  convolution_param {
    num_output: 128
    pad: 5
    kernel_size: 11
    weight_filler {
      type: "gaussian"
      std: 0.01
    }
    bias_filler {
      type: "constant"
    }
  }
}
layer {
  name: "Mrelu2_stage4"
  type: "ReLU"
  bottom: "Mconv2_stage4"
  top: "Mconv2_stage4"
}
layer {
  name: "Mconv3_stage4"
  type: "Convolution"
  bottom: "Mconv2_stage4"
  top: "Mconv3_stage4"
  param {
    lr_mult: 1
    decay_mult: 1
  }
  param {
    lr_mult: 2
    decay_mult: 0
  }
  convolution_param {
    num_output: 128
    pad: 5
    kernel_size: 11
    weight_filler {
      type: "gaussian"
      std: 0.01
    }
    bias_filler {
      type: "constant"
    }
  }
}
layer {
  name: "Mrelu3_stage4"
  type: "ReLU"
  bottom: "Mconv3_stage4"
  top: "Mconv3_stage4"
}
layer {
  name: "Mconv4_stage4"
  type: "Convolution"
  bottom: "Mconv3_stage4"
  top: "Mconv4_stage4"
  param {
    lr_mult: 1
    decay_mult: 1
  }
  param {
    lr_mult: 2
    decay_mult: 0
  }
  convolution_param {
    num_output: 128
    pad: 0
    kernel_size: 1
    weight_filler {
      type: "gaussian"
      std: 0.01
    }
    bias_filler {
      type: "constant"
    }
  }
}
layer {
  name: "Mrelu4_stage4"
  type: "ReLU"
  bottom: "Mconv4_stage4"
  top: "Mconv4_stage4"
}
layer {
  name: "Mconv5_stage4"
  type: "Convolution"
  bottom: "Mconv4_stage4"
  top: "Mconv5_stage4"
  param {
    lr_mult: 1
    decay_mult: 1
  }
  param {
    lr_mult: 2
    decay_mult: 0
  }
  convolution_param {
    num_output: 15
    pad: 0
    kernel_size: 1
    weight_filler {
      type: "gaussian"
      std: 0.01
    }
    bias_filler {
      type: "constant"
    }
  }
}
layer {
  name: "loss_stage4"
  type: "EuclideanLoss"
  bottom: "Mconv5_stage4"
  bottom: "label_lower"
  top: "loss_stage4"
}
layer {
  name: "conv1_stage5"
  type: "Convolution"
  bottom: "pool3_stage2"
  top: "conv1_stage5"
  param {
    lr_mult: 1
    decay_mult: 1
  }
  param {
    lr_mult: 2
    decay_mult: 0
  }
  convolution_param {
    num_output: 32
    pad: 2
    kernel_size: 5
    weight_filler {
      type: "gaussian"
      std: 0.01
    }
    bias_filler {
      type: "constant"
    }
  }
}
layer {
  name: "relu1_stage5"
  type: "ReLU"
  bottom: "conv1_stage5"
  top: "conv1_stage5"
}
layer {
  name: "concat_stage5"
  type: "Concat"
  bottom: "conv1_stage5"
  bottom: "Mconv5_stage4"
  bottom: "pool_center_lower"
  top: "concat_stage5"
  concat_param {
    axis: 1
  }
}
layer {
  name: "Mconv1_stage5"
  type: "Convolution"
  bottom: "concat_stage5"
  top: "Mconv1_stage5"
  param {
    lr_mult: 1
    decay_mult: 1
  }
  param {
    lr_mult: 2
    decay_mult: 0
  }
  convolution_param {
    num_output: 128
    pad: 5
    kernel_size: 11
    weight_filler {
      type: "gaussian"
      std: 0.01
    }
    bias_filler {
      type: "constant"
    }
  }
}
layer {
  name: "Mrelu1_stage5"
  type: "ReLU"
  bottom: "Mconv1_stage5"
  top: "Mconv1_stage5"
}
layer {
  name: "Mconv2_stage5"
  type: "Convolution"
  bottom: "Mconv1_stage5"
  top: "Mconv2_stage5"
  param {
    lr_mult: 1
    decay_mult: 1
  }
  param {
    lr_mult: 2
    decay_mult: 0
  }
  convolution_param {
    num_output: 128
    pad: 5
    kernel_size: 11
    weight_filler {
      type: "gaussian"
      std: 0.01
    }
    bias_filler {
      type: "constant"
    }
  }
}
layer {
  name: "Mrelu2_stage5"
  type: "ReLU"
  bottom: "Mconv2_stage5"
  top: "Mconv2_stage5"
}
layer {
  name: "Mconv3_stage5"
  type: "Convolution"
  bottom: "Mconv2_stage5"
  top: "Mconv3_stage5"
  param {
    lr_mult: 1
    decay_mult: 1
  }
  param {
    lr_mult: 2
    decay_mult: 0
  }
  convolution_param {
    num_output: 128
    pad: 5
    kernel_size: 11
    weight_filler {
      type: "gaussian"
      std: 0.01
    }
    bias_filler {
      type: "constant"
    }
  }
}
layer {
  name: "Mrelu3_stage5"
  type: "ReLU"
  bottom: "Mconv3_stage5"
  top: "Mconv3_stage5"
}
layer {
  name: "Mconv4_stage5"
  type: "Convolution"
  bottom: "Mconv3_stage5"
  top: "Mconv4_stage5"
  param {
    lr_mult: 1
    decay_mult: 1
  }
  param {
    lr_mult: 2
    decay_mult: 0
  }
  convolution_param {
    num_output: 128
    pad: 0
    kernel_size: 1
    weight_filler {
      type: "gaussian"
      std: 0.01
    }
    bias_filler {
      type: "constant"
    }
  }
}
layer {
  name: "Mrelu4_stage5"
  type: "ReLU"
  bottom: "Mconv4_stage5"
  top: "Mconv4_stage5"
}
layer {
  name: "Mconv5_stage5"
  type: "Convolution"
  bottom: "Mconv4_stage5"
  top: "Mconv5_stage5"
  param {
    lr_mult: 1
    decay_mult: 1
  }
  param {
    lr_mult: 2
    decay_mult: 0
  }
  convolution_param {
    num_output: 15
    pad: 0
    kernel_size: 1
    weight_filler {
      type: "gaussian"
      std: 0.01
    }
    bias_filler {
      type: "constant"
    }
  }
}
layer {
  name: "loss_stage5"
  type: "EuclideanLoss"
  bottom: "Mconv5_stage5"
  bottom: "label_lower"
  top: "loss_stage5"
}
layer {
  name: "conv1_stage6"
  type: "Convolution"
  bottom: "pool3_stage2"
  top: "conv1_stage6"
  param {
    lr_mult: 1
    decay_mult: 1
  }
  param {
    lr_mult: 2
    decay_mult: 0
  }
  convolution_param {
    num_output: 32
    pad: 2
    kernel_size: 5
    weight_filler {
      type: "gaussian"
      std: 0.01
    }
    bias_filler {
      type: "constant"
    }
  }
}
layer {
  name: "relu1_stage6"
  type: "ReLU"
  bottom: "conv1_stage6"
  top: "conv1_stage6"
}
layer {
  name: "concat_stage6"
  type: "Concat"
  bottom: "conv1_stage6"
  bottom: "Mconv5_stage5"
  bottom: "pool_center_lower"
  top: "concat_stage6"
  concat_param {
    axis: 1
  }
}
layer {
  name: "Mconv1_stage6"
  type: "Convolution"
  bottom: "concat_stage6"
  top: "Mconv1_stage6"
  param {
    lr_mult: 1
    decay_mult: 1
  }
  param {
    lr_mult: 2
    decay_mult: 0
  }
  convolution_param {
    num_output: 128
    pad: 5
    kernel_size: 11
    weight_filler {
      type: "gaussian"
      std: 0.01
    }
    bias_filler {
      type: "constant"
    }
  }
}
layer {
  name: "Mrelu1_stage6"
  type: "ReLU"
  bottom: "Mconv1_stage6"
  top: "Mconv1_stage6"
}
layer {
  name: "Mconv2_stage6"
  type: "Convolution"
  bottom: "Mconv1_stage6"
  top: "Mconv2_stage6"
  param {
    lr_mult: 1
    decay_mult: 1
  }
  param {
    lr_mult: 2
    decay_mult: 0
  }
  convolution_param {
    num_output: 128
    pad: 5
    kernel_size: 11
    weight_filler {
      type: "gaussian"
      std: 0.01
    }
    bias_filler {
      type: "constant"
    }
  }
}
layer {
  name: "Mrelu2_stage6"
  type: "ReLU"
  bottom: "Mconv2_stage6"
  top: "Mconv2_stage6"
}
layer {
  name: "Mconv3_stage6"
  type: "Convolution"
  bottom: "Mconv2_stage6"
  top: "Mconv3_stage6"
  param {
    lr_mult: 1
    decay_mult: 1
  }
  param {
    lr_mult: 2
    decay_mult: 0
  }
  convolution_param {
    num_output: 128
    pad: 5
    kernel_size: 11
    weight_filler {
      type: "gaussian"
      std: 0.01
    }
    bias_filler {
      type: "constant"
    }
  }
}
layer {
  name: "Mrelu3_stage6"
  type: "ReLU"
  bottom: "Mconv3_stage6"
  top: "Mconv3_stage6"
}
layer {
  name: "Mconv4_stage6"
  type: "Convolution"
  bottom: "Mconv3_stage6"
  top: "Mconv4_stage6"
  param {
    lr_mult: 1
    decay_mult: 1
  }
  param {
    lr_mult: 2
    decay_mult: 0
  }
  convolution_param {
    num_output: 128
    pad: 0
    kernel_size: 1
    weight_filler {
      type: "gaussian"
      std: 0.01
    }
    bias_filler {
      type: "constant"
    }
  }
}
layer {
  name: "Mrelu4_stage6"
  type: "ReLU"
  bottom: "Mconv4_stage6"
  top: "Mconv4_stage6"
}
layer {
  name: "Mconv5_stage6"
  type: "Convolution"
  bottom: "Mconv4_stage6"
  top: "Mconv5_stage6"
  param {
    lr_mult: 1
    decay_mult: 1
  }
  param {
    lr_mult: 2
    decay_mult: 0
  }
  convolution_param {
    num_output: 15
    pad: 0
    kernel_size: 1
    weight_filler {
      type: "gaussian"
      std: 0.01
    }
    bias_filler {
      type: "constant"
    }
  }
}
layer {
  name: "loss_stage6"
  type: "EuclideanLoss"
  bottom: "Mconv5_stage6"
  bottom: "label_lower"
  top: "loss_stage6"
}
I0412 14:47:31.856340 38045 layer_factory.hpp:77] Creating layer data
I0412 14:47:31.857570 38045 net.cpp:100] Creating Layer data
I0412 14:47:31.857602 38045 net.cpp:408] data -> data
I0412 14:47:31.857825 38045 net.cpp:408] data -> label
I0412 14:47:31.859606 38050 db_lmdb.cpp:35] Opened lmdb /home/lizhuowan/Market_CPM/lmdb_11000
I0412 14:47:31.859906 38045 cpm_data_layer.cpp:33] 128 64 4
I0412 14:47:31.884780 38045 cpm_data_layer.cpp:64] output data size: 8,4,368,368
I0412 14:47:31.884827 38045 cpm_data_layer.cpp:67] output data size: 8,4,368,368
I0412 14:47:31.951758 38045 net.cpp:150] Setting up data
I0412 14:47:31.951848 38045 net.cpp:157] Top shape: 8 4 368 368 (4333568)
I0412 14:47:31.951867 38045 net.cpp:157] Top shape: 8 30 46 46 (507840)
I0412 14:47:31.951880 38045 net.cpp:165] Memory required for data: 19365632
I0412 14:47:31.951903 38045 layer_factory.hpp:77] Creating layer label_lower
I0412 14:47:31.951938 38045 net.cpp:100] Creating Layer label_lower
I0412 14:47:31.951956 38045 net.cpp:434] label_lower <- label
I0412 14:47:31.951989 38045 net.cpp:408] label_lower -> label_lower
I0412 14:47:31.952034 38045 net.cpp:408] label_lower -> label_1st_lower
I0412 14:47:31.952149 38045 net.cpp:150] Setting up label_lower
I0412 14:47:31.952173 38045 net.cpp:157] Top shape: 8 15 46 46 (253920)
I0412 14:47:31.952188 38045 net.cpp:157] Top shape: 8 15 46 46 (253920)
I0412 14:47:31.952199 38045 net.cpp:165] Memory required for data: 21396992
I0412 14:47:31.952211 38045 layer_factory.hpp:77] Creating layer label_lower_label_lower_0_split
I0412 14:47:31.952235 38045 net.cpp:100] Creating Layer label_lower_label_lower_0_split
I0412 14:47:31.952252 38045 net.cpp:434] label_lower_label_lower_0_split <- label_lower
I0412 14:47:31.952268 38045 net.cpp:408] label_lower_label_lower_0_split -> label_lower_label_lower_0_split_0
I0412 14:47:31.952286 38045 net.cpp:408] label_lower_label_lower_0_split -> label_lower_label_lower_0_split_1
I0412 14:47:31.952303 38045 net.cpp:408] label_lower_label_lower_0_split -> label_lower_label_lower_0_split_2
I0412 14:47:31.952342 38045 net.cpp:408] label_lower_label_lower_0_split -> label_lower_label_lower_0_split_3
I0412 14:47:31.952366 38045 net.cpp:408] label_lower_label_lower_0_split -> label_lower_label_lower_0_split_4
I0412 14:47:31.952541 38045 net.cpp:150] Setting up label_lower_label_lower_0_split
I0412 14:47:31.952574 38045 net.cpp:157] Top shape: 8 15 46 46 (253920)
I0412 14:47:31.952596 38045 net.cpp:157] Top shape: 8 15 46 46 (253920)
I0412 14:47:31.952616 38045 net.cpp:157] Top shape: 8 15 46 46 (253920)
I0412 14:47:31.952636 38045 net.cpp:157] Top shape: 8 15 46 46 (253920)
I0412 14:47:31.952657 38045 net.cpp:157] Top shape: 8 15 46 46 (253920)
I0412 14:47:31.952674 38045 net.cpp:165] Memory required for data: 26475392
I0412 14:47:31.952692 38045 layer_factory.hpp:77] Creating layer image
I0412 14:47:31.952716 38045 net.cpp:100] Creating Layer image
I0412 14:47:31.952736 38045 net.cpp:434] image <- data
I0412 14:47:31.952765 38045 net.cpp:408] image -> image
I0412 14:47:31.952793 38045 net.cpp:408] image -> center_map
I0412 14:47:31.952885 38045 net.cpp:150] Setting up image
I0412 14:47:31.952916 38045 net.cpp:157] Top shape: 8 3 368 368 (3250176)
I0412 14:47:31.952937 38045 net.cpp:157] Top shape: 8 1 368 368 (1083392)
I0412 14:47:31.952955 38045 net.cpp:165] Memory required for data: 43809664
I0412 14:47:31.952972 38045 layer_factory.hpp:77] Creating layer image_image_0_split
I0412 14:47:31.952996 38045 net.cpp:100] Creating Layer image_image_0_split
I0412 14:47:31.953016 38045 net.cpp:434] image_image_0_split <- image
I0412 14:47:31.953037 38045 net.cpp:408] image_image_0_split -> image_image_0_split_0
I0412 14:47:31.953074 38045 net.cpp:408] image_image_0_split -> image_image_0_split_1
I0412 14:47:31.953163 38045 net.cpp:150] Setting up image_image_0_split
I0412 14:47:31.953193 38045 net.cpp:157] Top shape: 8 3 368 368 (3250176)
I0412 14:47:31.953213 38045 net.cpp:157] Top shape: 8 3 368 368 (3250176)
I0412 14:47:31.953230 38045 net.cpp:165] Memory required for data: 69811072
I0412 14:47:31.953249 38045 layer_factory.hpp:77] Creating layer pool_center_lower
I0412 14:47:31.953287 38045 net.cpp:100] Creating Layer pool_center_lower
I0412 14:47:31.953313 38045 net.cpp:434] pool_center_lower <- center_map
I0412 14:47:31.953354 38045 net.cpp:408] pool_center_lower -> pool_center_lower
I0412 14:47:31.953513 38045 net.cpp:150] Setting up pool_center_lower
I0412 14:47:31.953550 38045 net.cpp:157] Top shape: 8 1 46 46 (16928)
I0412 14:47:31.953567 38045 net.cpp:165] Memory required for data: 69878784
I0412 14:47:31.953586 38045 layer_factory.hpp:77] Creating layer pool_center_lower_pool_center_lower_0_split
I0412 14:47:31.953611 38045 net.cpp:100] Creating Layer pool_center_lower_pool_center_lower_0_split
I0412 14:47:31.953632 38045 net.cpp:434] pool_center_lower_pool_center_lower_0_split <- pool_center_lower
I0412 14:47:31.953666 38045 net.cpp:408] pool_center_lower_pool_center_lower_0_split -> pool_center_lower_pool_center_lower_0_split_0
I0412 14:47:31.953696 38045 net.cpp:408] pool_center_lower_pool_center_lower_0_split -> pool_center_lower_pool_center_lower_0_split_1
I0412 14:47:31.953743 38045 net.cpp:408] pool_center_lower_pool_center_lower_0_split -> pool_center_lower_pool_center_lower_0_split_2
I0412 14:47:31.953801 38045 net.cpp:408] pool_center_lower_pool_center_lower_0_split -> pool_center_lower_pool_center_lower_0_split_3
I0412 14:47:31.953830 38045 net.cpp:408] pool_center_lower_pool_center_lower_0_split -> pool_center_lower_pool_center_lower_0_split_4
I0412 14:47:31.957880 38045 net.cpp:150] Setting up pool_center_lower_pool_center_lower_0_split
I0412 14:47:31.957944 38045 net.cpp:157] Top shape: 8 1 46 46 (16928)
I0412 14:47:31.957953 38051 data_transformer_cpm.cpp:80] dataset: ZERO; img_size: [64 x 128]; meta.annolist_index: 0; meta.write_number: 0; meta.total_write_number: 11000; meta.epoch: 0
I0412 14:47:31.957969 38045 net.cpp:157] Top shape: 8 1 46 46 (16928)
I0412 14:47:31.958034 38045 net.cpp:157] Top shape: 8 1 46 46 (16928)
I0412 14:47:31.958056 38045 net.cpp:157] Top shape: 8 1 46 46 (16928)
I0412 14:47:31.958076 38045 net.cpp:157] Top shape: 8 1 46 46 (16928)
I0412 14:47:31.958094 38045 net.cpp:165] Memory required for data: 70217344
I0412 14:47:31.958113 38045 layer_factory.hpp:77] Creating layer conv1_stage1
I0412 14:47:31.958178 38045 net.cpp:100] Creating Layer conv1_stage1
I0412 14:47:31.958204 38045 net.cpp:434] conv1_stage1 <- image_image_0_split_0
I0412 14:47:31.958231 38045 net.cpp:408] conv1_stage1 -> conv1_stage1
I0412 14:47:31.963624 38045 net.cpp:150] Setting up conv1_stage1
I0412 14:47:31.963675 38045 net.cpp:157] Top shape: 8 128 368 368 (138674176)
I0412 14:47:31.963695 38045 net.cpp:165] Memory required for data: 624914048
I0412 14:47:31.963743 38045 layer_factory.hpp:77] Creating layer relu1_stage1
I0412 14:47:31.963783 38045 net.cpp:100] Creating Layer relu1_stage1
I0412 14:47:31.963805 38045 net.cpp:434] relu1_stage1 <- conv1_stage1
I0412 14:47:31.963827 38045 net.cpp:395] relu1_stage1 -> conv1_stage1 (in-place)
I0412 14:47:31.963860 38045 net.cpp:150] Setting up relu1_stage1
I0412 14:47:31.963884 38045 net.cpp:157] Top shape: 8 128 368 368 (138674176)
I0412 14:47:31.963902 38045 net.cpp:165] Memory required for data: 1179610752
I0412 14:47:31.963920 38045 layer_factory.hpp:77] Creating layer pool1_stage1
I0412 14:47:31.963950 38045 net.cpp:100] Creating Layer pool1_stage1
I0412 14:47:31.963970 38045 net.cpp:434] pool1_stage1 <- conv1_stage1
I0412 14:47:31.963994 38045 net.cpp:408] pool1_stage1 -> pool1_stage1
I0412 14:47:31.964145 38045 net.cpp:150] Setting up pool1_stage1
I0412 14:47:31.964181 38045 net.cpp:157] Top shape: 8 128 184 184 (34668544)
I0412 14:47:31.964200 38045 net.cpp:165] Memory required for data: 1318284928
I0412 14:47:31.964218 38045 layer_factory.hpp:77] Creating layer conv2_stage1
I0412 14:47:31.964257 38045 net.cpp:100] Creating Layer conv2_stage1
I0412 14:47:31.964278 38045 net.cpp:434] conv2_stage1 <- pool1_stage1
I0412 14:47:31.964304 38045 net.cpp:408] conv2_stage1 -> conv2_stage1
I0412 14:47:32.068135 38045 net.cpp:150] Setting up conv2_stage1
I0412 14:47:32.068205 38045 net.cpp:157] Top shape: 8 128 184 184 (34668544)
I0412 14:47:32.068225 38045 net.cpp:165] Memory required for data: 1456959104
I0412 14:47:32.068262 38045 layer_factory.hpp:77] Creating layer relu2_stage1
I0412 14:47:32.068300 38045 net.cpp:100] Creating Layer relu2_stage1
I0412 14:47:32.068322 38045 net.cpp:434] relu2_stage1 <- conv2_stage1
I0412 14:47:32.068346 38045 net.cpp:395] relu2_stage1 -> conv2_stage1 (in-place)
I0412 14:47:32.068377 38045 net.cpp:150] Setting up relu2_stage1
I0412 14:47:32.068400 38045 net.cpp:157] Top shape: 8 128 184 184 (34668544)
I0412 14:47:32.068418 38045 net.cpp:165] Memory required for data: 1595633280
I0412 14:47:32.068435 38045 layer_factory.hpp:77] Creating layer pool2_stage1
I0412 14:47:32.068465 38045 net.cpp:100] Creating Layer pool2_stage1
I0412 14:47:32.068485 38045 net.cpp:434] pool2_stage1 <- conv2_stage1
I0412 14:47:32.068508 38045 net.cpp:408] pool2_stage1 -> pool2_stage1
I0412 14:47:32.068619 38045 net.cpp:150] Setting up pool2_stage1
I0412 14:47:32.068651 38045 net.cpp:157] Top shape: 8 128 92 92 (8667136)
I0412 14:47:32.068689 38045 net.cpp:165] Memory required for data: 1630301824
I0412 14:47:32.068735 38045 layer_factory.hpp:77] Creating layer conv3_stage1
I0412 14:47:32.068775 38045 net.cpp:100] Creating Layer conv3_stage1
I0412 14:47:32.068797 38045 net.cpp:434] conv3_stage1 <- pool2_stage1
I0412 14:47:32.068828 38045 net.cpp:408] conv3_stage1 -> conv3_stage1
I0412 14:47:32.171917 38045 net.cpp:150] Setting up conv3_stage1
I0412 14:47:32.171985 38045 net.cpp:157] Top shape: 8 128 92 92 (8667136)
I0412 14:47:32.172005 38045 net.cpp:165] Memory required for data: 1664970368
I0412 14:47:32.172042 38045 layer_factory.hpp:77] Creating layer relu3_stage1
I0412 14:47:32.172072 38045 net.cpp:100] Creating Layer relu3_stage1
I0412 14:47:32.172093 38045 net.cpp:434] relu3_stage1 <- conv3_stage1
I0412 14:47:32.172123 38045 net.cpp:395] relu3_stage1 -> conv3_stage1 (in-place)
I0412 14:47:32.172154 38045 net.cpp:150] Setting up relu3_stage1
I0412 14:47:32.172178 38045 net.cpp:157] Top shape: 8 128 92 92 (8667136)
I0412 14:47:32.172194 38045 net.cpp:165] Memory required for data: 1699638912
I0412 14:47:32.172212 38045 layer_factory.hpp:77] Creating layer pool3_stage1
I0412 14:47:32.172237 38045 net.cpp:100] Creating Layer pool3_stage1
I0412 14:47:32.172255 38045 net.cpp:434] pool3_stage1 <- conv3_stage1
I0412 14:47:32.172286 38045 net.cpp:408] pool3_stage1 -> pool3_stage1
I0412 14:47:32.172389 38045 net.cpp:150] Setting up pool3_stage1
I0412 14:47:32.172421 38045 net.cpp:157] Top shape: 8 128 46 46 (2166784)
I0412 14:47:32.172439 38045 net.cpp:165] Memory required for data: 1708306048
I0412 14:47:32.172457 38045 layer_factory.hpp:77] Creating layer conv4_stage1
I0412 14:47:32.172505 38045 net.cpp:100] Creating Layer conv4_stage1
I0412 14:47:32.172528 38045 net.cpp:434] conv4_stage1 <- pool3_stage1
I0412 14:47:32.172554 38045 net.cpp:408] conv4_stage1 -> conv4_stage1
I0412 14:47:32.181870 38045 net.cpp:150] Setting up conv4_stage1
I0412 14:47:32.181917 38045 net.cpp:157] Top shape: 8 32 46 46 (541696)
I0412 14:47:32.181936 38045 net.cpp:165] Memory required for data: 1710472832
I0412 14:47:32.181963 38045 layer_factory.hpp:77] Creating layer relu4_stage1
I0412 14:47:32.181988 38045 net.cpp:100] Creating Layer relu4_stage1
I0412 14:47:32.182008 38045 net.cpp:434] relu4_stage1 <- conv4_stage1
I0412 14:47:32.182037 38045 net.cpp:395] relu4_stage1 -> conv4_stage1 (in-place)
I0412 14:47:32.182065 38045 net.cpp:150] Setting up relu4_stage1
I0412 14:47:32.182088 38045 net.cpp:157] Top shape: 8 32 46 46 (541696)
I0412 14:47:32.182106 38045 net.cpp:165] Memory required for data: 1712639616
I0412 14:47:32.182123 38045 layer_factory.hpp:77] Creating layer conv5_stage1
I0412 14:47:32.182153 38045 net.cpp:100] Creating Layer conv5_stage1
I0412 14:47:32.182173 38045 net.cpp:434] conv5_stage1 <- conv4_stage1
I0412 14:47:32.182202 38045 net.cpp:408] conv5_stage1 -> conv5_stage1
I0412 14:47:32.286909 38045 net.cpp:150] Setting up conv5_stage1
I0412 14:47:32.286978 38045 net.cpp:157] Top shape: 8 512 46 46 (8667136)
I0412 14:47:32.286998 38045 net.cpp:165] Memory required for data: 1747308160
I0412 14:47:32.287036 38045 layer_factory.hpp:77] Creating layer relu5_stage1
I0412 14:47:32.287066 38045 net.cpp:100] Creating Layer relu5_stage1
I0412 14:47:32.287087 38045 net.cpp:434] relu5_stage1 <- conv5_stage1
I0412 14:47:32.287117 38045 net.cpp:395] relu5_stage1 -> conv5_stage1 (in-place)
I0412 14:47:32.287149 38045 net.cpp:150] Setting up relu5_stage1
I0412 14:47:32.287171 38045 net.cpp:157] Top shape: 8 512 46 46 (8667136)
I0412 14:47:32.287189 38045 net.cpp:165] Memory required for data: 1781976704
I0412 14:47:32.287206 38045 layer_factory.hpp:77] Creating layer drop1_stage1
I0412 14:47:32.287240 38045 net.cpp:100] Creating Layer drop1_stage1
I0412 14:47:32.287261 38045 net.cpp:434] drop1_stage1 <- conv5_stage1
I0412 14:47:32.287281 38045 net.cpp:395] drop1_stage1 -> conv5_stage1 (in-place)
I0412 14:47:32.287371 38045 net.cpp:150] Setting up drop1_stage1
I0412 14:47:32.287403 38045 net.cpp:157] Top shape: 8 512 46 46 (8667136)
I0412 14:47:32.287443 38045 net.cpp:165] Memory required for data: 1816645248
I0412 14:47:32.287485 38045 layer_factory.hpp:77] Creating layer conv6_stage1
I0412 14:47:32.287524 38045 net.cpp:100] Creating Layer conv6_stage1
I0412 14:47:32.287545 38045 net.cpp:434] conv6_stage1 <- conv5_stage1
I0412 14:47:32.287576 38045 net.cpp:408] conv6_stage1 -> conv6_stage1
I0412 14:47:32.308707 38045 net.cpp:150] Setting up conv6_stage1
I0412 14:47:32.308753 38045 net.cpp:157] Top shape: 8 512 46 46 (8667136)
I0412 14:47:32.308771 38045 net.cpp:165] Memory required for data: 1851313792
I0412 14:47:32.308797 38045 layer_factory.hpp:77] Creating layer relu6_stage1
I0412 14:47:32.308827 38045 net.cpp:100] Creating Layer relu6_stage1
I0412 14:47:32.308848 38045 net.cpp:434] relu6_stage1 <- conv6_stage1
I0412 14:47:32.308871 38045 net.cpp:395] relu6_stage1 -> conv6_stage1 (in-place)
I0412 14:47:32.308897 38045 net.cpp:150] Setting up relu6_stage1
I0412 14:47:32.308920 38045 net.cpp:157] Top shape: 8 512 46 46 (8667136)
I0412 14:47:32.308938 38045 net.cpp:165] Memory required for data: 1885982336
I0412 14:47:32.308955 38045 layer_factory.hpp:77] Creating layer drop2_stage1
I0412 14:47:32.308979 38045 net.cpp:100] Creating Layer drop2_stage1
I0412 14:47:32.308998 38045 net.cpp:434] drop2_stage1 <- conv6_stage1
I0412 14:47:32.309026 38045 net.cpp:395] drop2_stage1 -> conv6_stage1 (in-place)
I0412 14:47:32.309093 38045 net.cpp:150] Setting up drop2_stage1
I0412 14:47:32.309123 38045 net.cpp:157] Top shape: 8 512 46 46 (8667136)
I0412 14:47:32.309140 38045 net.cpp:165] Memory required for data: 1920650880
I0412 14:47:32.309159 38045 layer_factory.hpp:77] Creating layer conv7_stage1
I0412 14:47:32.309195 38045 net.cpp:100] Creating Layer conv7_stage1
I0412 14:47:32.309214 38045 net.cpp:434] conv7_stage1 <- conv6_stage1
I0412 14:47:32.309245 38045 net.cpp:408] conv7_stage1 -> conv7_stage1
I0412 14:47:32.310364 38045 net.cpp:150] Setting up conv7_stage1
I0412 14:47:32.310403 38045 net.cpp:157] Top shape: 8 15 46 46 (253920)
I0412 14:47:32.310422 38045 net.cpp:165] Memory required for data: 1921666560
I0412 14:47:32.310447 38045 layer_factory.hpp:77] Creating layer conv7_stage1_conv7_stage1_0_split
I0412 14:47:32.310472 38045 net.cpp:100] Creating Layer conv7_stage1_conv7_stage1_0_split
I0412 14:47:32.310492 38045 net.cpp:434] conv7_stage1_conv7_stage1_0_split <- conv7_stage1
I0412 14:47:32.310521 38045 net.cpp:408] conv7_stage1_conv7_stage1_0_split -> conv7_stage1_conv7_stage1_0_split_0
I0412 14:47:32.310550 38045 net.cpp:408] conv7_stage1_conv7_stage1_0_split -> conv7_stage1_conv7_stage1_0_split_1
I0412 14:47:32.310649 38045 net.cpp:150] Setting up conv7_stage1_conv7_stage1_0_split
I0412 14:47:32.310680 38045 net.cpp:157] Top shape: 8 15 46 46 (253920)
I0412 14:47:32.310701 38045 net.cpp:157] Top shape: 8 15 46 46 (253920)
I0412 14:47:32.310719 38045 net.cpp:165] Memory required for data: 1923697920
I0412 14:47:32.310736 38045 layer_factory.hpp:77] Creating layer loss_stage1
I0412 14:47:32.310771 38045 net.cpp:100] Creating Layer loss_stage1
I0412 14:47:32.310792 38045 net.cpp:434] loss_stage1 <- conv7_stage1_conv7_stage1_0_split_0
I0412 14:47:32.310814 38045 net.cpp:434] loss_stage1 <- label_1st_lower
I0412 14:47:32.310842 38045 net.cpp:408] loss_stage1 -> loss_stage1
I0412 14:47:32.310955 38045 net.cpp:150] Setting up loss_stage1
I0412 14:47:32.310986 38045 net.cpp:157] Top shape: (1)
I0412 14:47:32.311003 38045 net.cpp:160]     with loss weight 1
I0412 14:47:32.311071 38045 net.cpp:165] Memory required for data: 1923697924
I0412 14:47:32.311091 38045 layer_factory.hpp:77] Creating layer conv1_stage2
I0412 14:47:32.311127 38045 net.cpp:100] Creating Layer conv1_stage2
I0412 14:47:32.311149 38045 net.cpp:434] conv1_stage2 <- image_image_0_split_1
I0412 14:47:32.311182 38045 net.cpp:408] conv1_stage2 -> conv1_stage2
I0412 14:47:32.315311 38045 net.cpp:150] Setting up conv1_stage2
I0412 14:47:32.315366 38045 net.cpp:157] Top shape: 8 128 368 368 (138674176)
I0412 14:47:32.315387 38045 net.cpp:165] Memory required for data: 2478394628
I0412 14:47:32.315426 38045 layer_factory.hpp:77] Creating layer relu1_stage2
I0412 14:47:32.315471 38045 net.cpp:100] Creating Layer relu1_stage2
I0412 14:47:32.315492 38045 net.cpp:434] relu1_stage2 <- conv1_stage2
I0412 14:47:32.315515 38045 net.cpp:395] relu1_stage2 -> conv1_stage2 (in-place)
I0412 14:47:32.315551 38045 net.cpp:150] Setting up relu1_stage2
I0412 14:47:32.315573 38045 net.cpp:157] Top shape: 8 128 368 368 (138674176)
I0412 14:47:32.315592 38045 net.cpp:165] Memory required for data: 3033091332
I0412 14:47:32.315609 38045 layer_factory.hpp:77] Creating layer pool1_stage2
I0412 14:47:32.315634 38045 net.cpp:100] Creating Layer pool1_stage2
I0412 14:47:32.315652 38045 net.cpp:434] pool1_stage2 <- conv1_stage2
I0412 14:47:32.315675 38045 net.cpp:408] pool1_stage2 -> pool1_stage2
I0412 14:47:32.315788 38045 net.cpp:150] Setting up pool1_stage2
I0412 14:47:32.315820 38045 net.cpp:157] Top shape: 8 128 184 184 (34668544)
I0412 14:47:32.315840 38045 net.cpp:165] Memory required for data: 3171765508
I0412 14:47:32.315857 38045 layer_factory.hpp:77] Creating layer conv2_stage2
I0412 14:47:32.315901 38045 net.cpp:100] Creating Layer conv2_stage2
I0412 14:47:32.315923 38045 net.cpp:434] conv2_stage2 <- pool1_stage2
I0412 14:47:32.315954 38045 net.cpp:408] conv2_stage2 -> conv2_stage2
I0412 14:47:32.417606 38045 net.cpp:150] Setting up conv2_stage2
I0412 14:47:32.417673 38045 net.cpp:157] Top shape: 8 128 184 184 (34668544)
I0412 14:47:32.417693 38045 net.cpp:165] Memory required for data: 3310439684
I0412 14:47:32.417740 38045 layer_factory.hpp:77] Creating layer relu2_stage2
I0412 14:47:32.417771 38045 net.cpp:100] Creating Layer relu2_stage2
I0412 14:47:32.417793 38045 net.cpp:434] relu2_stage2 <- conv2_stage2
I0412 14:47:32.417817 38045 net.cpp:395] relu2_stage2 -> conv2_stage2 (in-place)
I0412 14:47:32.417848 38045 net.cpp:150] Setting up relu2_stage2
I0412 14:47:32.417870 38045 net.cpp:157] Top shape: 8 128 184 184 (34668544)
I0412 14:47:32.417887 38045 net.cpp:165] Memory required for data: 3449113860
I0412 14:47:32.417904 38045 layer_factory.hpp:77] Creating layer pool2_stage2
I0412 14:47:32.417942 38045 net.cpp:100] Creating Layer pool2_stage2
I0412 14:47:32.417963 38045 net.cpp:434] pool2_stage2 <- conv2_stage2
I0412 14:47:32.417986 38045 net.cpp:408] pool2_stage2 -> pool2_stage2
I0412 14:47:32.418103 38045 net.cpp:150] Setting up pool2_stage2
I0412 14:47:32.418135 38045 net.cpp:157] Top shape: 8 128 92 92 (8667136)
I0412 14:47:32.418154 38045 net.cpp:165] Memory required for data: 3483782404
I0412 14:47:32.418172 38045 layer_factory.hpp:77] Creating layer conv3_stage2
I0412 14:47:32.418208 38045 net.cpp:100] Creating Layer conv3_stage2
I0412 14:47:32.418229 38045 net.cpp:434] conv3_stage2 <- pool2_stage2
I0412 14:47:32.418256 38045 net.cpp:408] conv3_stage2 -> conv3_stage2
I0412 14:47:32.520967 38045 net.cpp:150] Setting up conv3_stage2
I0412 14:47:32.521029 38045 net.cpp:157] Top shape: 8 128 92 92 (8667136)
I0412 14:47:32.521049 38045 net.cpp:165] Memory required for data: 3518450948
I0412 14:47:32.521077 38045 layer_factory.hpp:77] Creating layer relu3_stage2
I0412 14:47:32.521106 38045 net.cpp:100] Creating Layer relu3_stage2
I0412 14:47:32.521127 38045 net.cpp:434] relu3_stage2 <- conv3_stage2
I0412 14:47:32.521152 38045 net.cpp:395] relu3_stage2 -> conv3_stage2 (in-place)
I0412 14:47:32.521180 38045 net.cpp:150] Setting up relu3_stage2
I0412 14:47:32.521203 38045 net.cpp:157] Top shape: 8 128 92 92 (8667136)
I0412 14:47:32.521221 38045 net.cpp:165] Memory required for data: 3553119492
I0412 14:47:32.521239 38045 layer_factory.hpp:77] Creating layer pool3_stage2
I0412 14:47:32.521268 38045 net.cpp:100] Creating Layer pool3_stage2
I0412 14:47:32.521288 38045 net.cpp:434] pool3_stage2 <- conv3_stage2
I0412 14:47:32.521313 38045 net.cpp:408] pool3_stage2 -> pool3_stage2
I0412 14:47:32.521435 38045 net.cpp:150] Setting up pool3_stage2
I0412 14:47:32.521469 38045 net.cpp:157] Top shape: 8 128 46 46 (2166784)
I0412 14:47:32.521487 38045 net.cpp:165] Memory required for data: 3561786628
I0412 14:47:32.521505 38045 layer_factory.hpp:77] Creating layer pool3_stage2_pool3_stage2_0_split
I0412 14:47:32.521575 38045 net.cpp:100] Creating Layer pool3_stage2_pool3_stage2_0_split
I0412 14:47:32.521598 38045 net.cpp:434] pool3_stage2_pool3_stage2_0_split <- pool3_stage2
I0412 14:47:32.521621 38045 net.cpp:408] pool3_stage2_pool3_stage2_0_split -> pool3_stage2_pool3_stage2_0_split_0
I0412 14:47:32.521649 38045 net.cpp:408] pool3_stage2_pool3_stage2_0_split -> pool3_stage2_pool3_stage2_0_split_1
I0412 14:47:32.521677 38045 net.cpp:408] pool3_stage2_pool3_stage2_0_split -> pool3_stage2_pool3_stage2_0_split_2
I0412 14:47:32.521702 38045 net.cpp:408] pool3_stage2_pool3_stage2_0_split -> pool3_stage2_pool3_stage2_0_split_3
I0412 14:47:32.521725 38045 net.cpp:408] pool3_stage2_pool3_stage2_0_split -> pool3_stage2_pool3_stage2_0_split_4
I0412 14:47:32.521894 38045 net.cpp:150] Setting up pool3_stage2_pool3_stage2_0_split
I0412 14:47:32.521925 38045 net.cpp:157] Top shape: 8 128 46 46 (2166784)
I0412 14:47:32.521946 38045 net.cpp:157] Top shape: 8 128 46 46 (2166784)
I0412 14:47:32.521966 38045 net.cpp:157] Top shape: 8 128 46 46 (2166784)
I0412 14:47:32.521986 38045 net.cpp:157] Top shape: 8 128 46 46 (2166784)
I0412 14:47:32.522006 38045 net.cpp:157] Top shape: 8 128 46 46 (2166784)
I0412 14:47:32.522023 38045 net.cpp:165] Memory required for data: 3605122308
I0412 14:47:32.522042 38045 layer_factory.hpp:77] Creating layer conv4_stage2
I0412 14:47:32.522078 38045 net.cpp:100] Creating Layer conv4_stage2
I0412 14:47:32.522100 38045 net.cpp:434] conv4_stage2 <- pool3_stage2_pool3_stage2_0_split_0
I0412 14:47:32.522126 38045 net.cpp:408] conv4_stage2 -> conv4_stage2
I0412 14:47:32.530342 38045 net.cpp:150] Setting up conv4_stage2
I0412 14:47:32.530388 38045 net.cpp:157] Top shape: 8 32 46 46 (541696)
I0412 14:47:32.530408 38045 net.cpp:165] Memory required for data: 3607289092
I0412 14:47:32.530433 38045 layer_factory.hpp:77] Creating layer relu4_stage2
I0412 14:47:32.530458 38045 net.cpp:100] Creating Layer relu4_stage2
I0412 14:47:32.530478 38045 net.cpp:434] relu4_stage2 <- conv4_stage2
I0412 14:47:32.530500 38045 net.cpp:395] relu4_stage2 -> conv4_stage2 (in-place)
I0412 14:47:32.530526 38045 net.cpp:150] Setting up relu4_stage2
I0412 14:47:32.530549 38045 net.cpp:157] Top shape: 8 32 46 46 (541696)
I0412 14:47:32.530565 38045 net.cpp:165] Memory required for data: 3609455876
I0412 14:47:32.530582 38045 layer_factory.hpp:77] Creating layer concat_stage2
I0412 14:47:32.530616 38045 net.cpp:100] Creating Layer concat_stage2
I0412 14:47:32.530637 38045 net.cpp:434] concat_stage2 <- conv4_stage2
I0412 14:47:32.530658 38045 net.cpp:434] concat_stage2 <- conv7_stage1_conv7_stage1_0_split_1
I0412 14:47:32.530679 38045 net.cpp:434] concat_stage2 <- pool_center_lower_pool_center_lower_0_split_0
I0412 14:47:32.530709 38045 net.cpp:408] concat_stage2 -> concat_stage2
I0412 14:47:32.530797 38045 net.cpp:150] Setting up concat_stage2
I0412 14:47:32.530834 38045 net.cpp:157] Top shape: 8 48 46 46 (812544)
I0412 14:47:32.530853 38045 net.cpp:165] Memory required for data: 3612706052
I0412 14:47:32.530870 38045 layer_factory.hpp:77] Creating layer Mconv1_stage2
I0412 14:47:32.530900 38045 net.cpp:100] Creating Layer Mconv1_stage2
I0412 14:47:32.530920 38045 net.cpp:434] Mconv1_stage2 <- concat_stage2
I0412 14:47:32.530956 38045 net.cpp:408] Mconv1_stage2 -> Mconv1_stage2
I0412 14:47:32.589289 38045 net.cpp:150] Setting up Mconv1_stage2
I0412 14:47:32.589346 38045 net.cpp:157] Top shape: 8 128 46 46 (2166784)
I0412 14:47:32.589368 38045 net.cpp:165] Memory required for data: 3621373188
I0412 14:47:32.589395 38045 layer_factory.hpp:77] Creating layer Mrelu1_stage2
I0412 14:47:32.589419 38045 net.cpp:100] Creating Layer Mrelu1_stage2
I0412 14:47:32.589439 38045 net.cpp:434] Mrelu1_stage2 <- Mconv1_stage2
I0412 14:47:32.589468 38045 net.cpp:395] Mrelu1_stage2 -> Mconv1_stage2 (in-place)
I0412 14:47:32.589498 38045 net.cpp:150] Setting up Mrelu1_stage2
I0412 14:47:32.589520 38045 net.cpp:157] Top shape: 8 128 46 46 (2166784)
I0412 14:47:32.589537 38045 net.cpp:165] Memory required for data: 3630040324
I0412 14:47:32.589584 38045 layer_factory.hpp:77] Creating layer Mconv2_stage2
I0412 14:47:32.589617 38045 net.cpp:100] Creating Layer Mconv2_stage2
I0412 14:47:32.589637 38045 net.cpp:434] Mconv2_stage2 <- Mconv1_stage2
I0412 14:47:32.589668 38045 net.cpp:408] Mconv2_stage2 -> Mconv2_stage2
I0412 14:47:32.690497 38045 net.cpp:150] Setting up Mconv2_stage2
I0412 14:47:32.690527 38045 net.cpp:157] Top shape: 8 128 46 46 (2166784)
I0412 14:47:32.690537 38045 net.cpp:165] Memory required for data: 3638707460
I0412 14:47:32.690551 38045 layer_factory.hpp:77] Creating layer Mrelu2_stage2
I0412 14:47:32.690567 38045 net.cpp:100] Creating Layer Mrelu2_stage2
I0412 14:47:32.690577 38045 net.cpp:434] Mrelu2_stage2 <- Mconv2_stage2
I0412 14:47:32.690589 38045 net.cpp:395] Mrelu2_stage2 -> Mconv2_stage2 (in-place)
I0412 14:47:32.690603 38045 net.cpp:150] Setting up Mrelu2_stage2
I0412 14:47:32.690614 38045 net.cpp:157] Top shape: 8 128 46 46 (2166784)
I0412 14:47:32.690623 38045 net.cpp:165] Memory required for data: 3647374596
I0412 14:47:32.690631 38045 layer_factory.hpp:77] Creating layer Mconv3_stage2
I0412 14:47:32.690651 38045 net.cpp:100] Creating Layer Mconv3_stage2
I0412 14:47:32.690661 38045 net.cpp:434] Mconv3_stage2 <- Mconv2_stage2
I0412 14:47:32.690680 38045 net.cpp:408] Mconv3_stage2 -> Mconv3_stage2
I0412 14:47:32.766470 38045 net.cpp:150] Setting up Mconv3_stage2
I0412 14:47:32.766525 38045 net.cpp:157] Top shape: 8 128 46 46 (2166784)
I0412 14:47:32.766535 38045 net.cpp:165] Memory required for data: 3656041732
I0412 14:47:32.766580 38045 layer_factory.hpp:77] Creating layer Mrelu3_stage2
I0412 14:47:32.766607 38045 net.cpp:100] Creating Layer Mrelu3_stage2
I0412 14:47:32.766630 38045 net.cpp:434] Mrelu3_stage2 <- Mconv3_stage2
I0412 14:47:32.766659 38045 net.cpp:395] Mrelu3_stage2 -> Mconv3_stage2 (in-place)
I0412 14:47:32.766675 38045 net.cpp:150] Setting up Mrelu3_stage2
I0412 14:47:32.766687 38045 net.cpp:157] Top shape: 8 128 46 46 (2166784)
I0412 14:47:32.766695 38045 net.cpp:165] Memory required for data: 3664708868
I0412 14:47:32.766712 38045 layer_factory.hpp:77] Creating layer Mconv4_stage2
I0412 14:47:32.766737 38045 net.cpp:100] Creating Layer Mconv4_stage2
I0412 14:47:32.766748 38045 net.cpp:434] Mconv4_stage2 <- Mconv3_stage2
I0412 14:47:32.766767 38045 net.cpp:408] Mconv4_stage2 -> Mconv4_stage2
I0412 14:47:32.767673 38045 net.cpp:150] Setting up Mconv4_stage2
I0412 14:47:32.767691 38045 net.cpp:157] Top shape: 8 128 46 46 (2166784)
I0412 14:47:32.767700 38045 net.cpp:165] Memory required for data: 3673376004
I0412 14:47:32.767714 38045 layer_factory.hpp:77] Creating layer Mrelu4_stage2
I0412 14:47:32.767724 38045 net.cpp:100] Creating Layer Mrelu4_stage2
I0412 14:47:32.767734 38045 net.cpp:434] Mrelu4_stage2 <- Mconv4_stage2
I0412 14:47:32.767745 38045 net.cpp:395] Mrelu4_stage2 -> Mconv4_stage2 (in-place)
I0412 14:47:32.767756 38045 net.cpp:150] Setting up Mrelu4_stage2
I0412 14:47:32.767767 38045 net.cpp:157] Top shape: 8 128 46 46 (2166784)
I0412 14:47:32.767776 38045 net.cpp:165] Memory required for data: 3682043140
I0412 14:47:32.767784 38045 layer_factory.hpp:77] Creating layer Mconv5_stage2
I0412 14:47:32.767808 38045 net.cpp:100] Creating Layer Mconv5_stage2
I0412 14:47:32.767819 38045 net.cpp:434] Mconv5_stage2 <- Mconv4_stage2
I0412 14:47:32.767834 38045 net.cpp:408] Mconv5_stage2 -> Mconv5_stage2
I0412 14:47:32.768179 38045 net.cpp:150] Setting up Mconv5_stage2
I0412 14:47:32.768198 38045 net.cpp:157] Top shape: 8 15 46 46 (253920)
I0412 14:47:32.768206 38045 net.cpp:165] Memory required for data: 3683058820
I0412 14:47:32.768218 38045 layer_factory.hpp:77] Creating layer Mconv5_stage2_Mconv5_stage2_0_split
I0412 14:47:32.768242 38045 net.cpp:100] Creating Layer Mconv5_stage2_Mconv5_stage2_0_split
I0412 14:47:32.768252 38045 net.cpp:434] Mconv5_stage2_Mconv5_stage2_0_split <- Mconv5_stage2
I0412 14:47:32.768263 38045 net.cpp:408] Mconv5_stage2_Mconv5_stage2_0_split -> Mconv5_stage2_Mconv5_stage2_0_split_0
I0412 14:47:32.768280 38045 net.cpp:408] Mconv5_stage2_Mconv5_stage2_0_split -> Mconv5_stage2_Mconv5_stage2_0_split_1
I0412 14:47:32.768350 38045 net.cpp:150] Setting up Mconv5_stage2_Mconv5_stage2_0_split
I0412 14:47:32.768365 38045 net.cpp:157] Top shape: 8 15 46 46 (253920)
I0412 14:47:32.768375 38045 net.cpp:157] Top shape: 8 15 46 46 (253920)
I0412 14:47:32.768384 38045 net.cpp:165] Memory required for data: 3685090180
I0412 14:47:32.768400 38045 layer_factory.hpp:77] Creating layer loss_stage2
I0412 14:47:32.768416 38045 net.cpp:100] Creating Layer loss_stage2
I0412 14:47:32.768426 38045 net.cpp:434] loss_stage2 <- Mconv5_stage2_Mconv5_stage2_0_split_0
I0412 14:47:32.768438 38045 net.cpp:434] loss_stage2 <- label_lower_label_lower_0_split_0
I0412 14:47:32.768461 38045 net.cpp:408] loss_stage2 -> loss_stage2
I0412 14:47:32.768525 38045 net.cpp:150] Setting up loss_stage2
I0412 14:47:32.768542 38045 net.cpp:157] Top shape: (1)
I0412 14:47:32.768549 38045 net.cpp:160]     with loss weight 1
I0412 14:47:32.768576 38045 net.cpp:165] Memory required for data: 3685090184
I0412 14:47:32.768585 38045 layer_factory.hpp:77] Creating layer conv1_stage3
I0412 14:47:32.768601 38045 net.cpp:100] Creating Layer conv1_stage3
I0412 14:47:32.768620 38045 net.cpp:434] conv1_stage3 <- pool3_stage2_pool3_stage2_0_split_1
I0412 14:47:32.768635 38045 net.cpp:408] conv1_stage3 -> conv1_stage3
I0412 14:47:32.773382 38045 net.cpp:150] Setting up conv1_stage3
I0412 14:47:32.773407 38045 net.cpp:157] Top shape: 8 32 46 46 (541696)
I0412 14:47:32.773416 38045 net.cpp:165] Memory required for data: 3687256968
I0412 14:47:32.773445 38045 layer_factory.hpp:77] Creating layer relu1_stage3
I0412 14:47:32.773461 38045 net.cpp:100] Creating Layer relu1_stage3
I0412 14:47:32.773473 38045 net.cpp:434] relu1_stage3 <- conv1_stage3
I0412 14:47:32.773483 38045 net.cpp:395] relu1_stage3 -> conv1_stage3 (in-place)
I0412 14:47:32.773496 38045 net.cpp:150] Setting up relu1_stage3
I0412 14:47:32.773506 38045 net.cpp:157] Top shape: 8 32 46 46 (541696)
I0412 14:47:32.773515 38045 net.cpp:165] Memory required for data: 3689423752
I0412 14:47:32.773530 38045 layer_factory.hpp:77] Creating layer concat_stage3
I0412 14:47:32.773548 38045 net.cpp:100] Creating Layer concat_stage3
I0412 14:47:32.773558 38045 net.cpp:434] concat_stage3 <- conv1_stage3
I0412 14:47:32.773568 38045 net.cpp:434] concat_stage3 <- Mconv5_stage2_Mconv5_stage2_0_split_1
I0412 14:47:32.773579 38045 net.cpp:434] concat_stage3 <- pool_center_lower_pool_center_lower_0_split_1
I0412 14:47:32.773599 38045 net.cpp:408] concat_stage3 -> concat_stage3
I0412 14:47:32.773638 38045 net.cpp:150] Setting up concat_stage3
I0412 14:47:32.773653 38045 net.cpp:157] Top shape: 8 48 46 46 (812544)
I0412 14:47:32.773661 38045 net.cpp:165] Memory required for data: 3692673928
I0412 14:47:32.773669 38045 layer_factory.hpp:77] Creating layer Mconv1_stage3
I0412 14:47:32.773689 38045 net.cpp:100] Creating Layer Mconv1_stage3
I0412 14:47:32.773699 38045 net.cpp:434] Mconv1_stage3 <- concat_stage3
I0412 14:47:32.773711 38045 net.cpp:408] Mconv1_stage3 -> Mconv1_stage3
I0412 14:47:32.801944 38045 net.cpp:150] Setting up Mconv1_stage3
I0412 14:47:32.801966 38045 net.cpp:157] Top shape: 8 128 46 46 (2166784)
I0412 14:47:32.801975 38045 net.cpp:165] Memory required for data: 3701341064
I0412 14:47:32.801987 38045 layer_factory.hpp:77] Creating layer Mrelu1_stage3
I0412 14:47:32.802000 38045 net.cpp:100] Creating Layer Mrelu1_stage3
I0412 14:47:32.802008 38045 net.cpp:434] Mrelu1_stage3 <- Mconv1_stage3
I0412 14:47:32.802019 38045 net.cpp:395] Mrelu1_stage3 -> Mconv1_stage3 (in-place)
I0412 14:47:32.802032 38045 net.cpp:150] Setting up Mrelu1_stage3
I0412 14:47:32.802042 38045 net.cpp:157] Top shape: 8 128 46 46 (2166784)
I0412 14:47:32.802052 38045 net.cpp:165] Memory required for data: 3710008200
I0412 14:47:32.802059 38045 layer_factory.hpp:77] Creating layer Mconv2_stage3
I0412 14:47:32.802085 38045 net.cpp:100] Creating Layer Mconv2_stage3
I0412 14:47:32.802098 38045 net.cpp:434] Mconv2_stage3 <- Mconv1_stage3
I0412 14:47:32.802112 38045 net.cpp:408] Mconv2_stage3 -> Mconv2_stage3
I0412 14:47:32.876828 38045 net.cpp:150] Setting up Mconv2_stage3
I0412 14:47:32.876866 38045 net.cpp:157] Top shape: 8 128 46 46 (2166784)
I0412 14:47:32.876876 38045 net.cpp:165] Memory required for data: 3718675336
I0412 14:47:32.876898 38045 layer_factory.hpp:77] Creating layer Mrelu2_stage3
I0412 14:47:32.876911 38045 net.cpp:100] Creating Layer Mrelu2_stage3
I0412 14:47:32.876920 38045 net.cpp:434] Mrelu2_stage3 <- Mconv2_stage3
I0412 14:47:32.876931 38045 net.cpp:395] Mrelu2_stage3 -> Mconv2_stage3 (in-place)
I0412 14:47:32.876945 38045 net.cpp:150] Setting up Mrelu2_stage3
I0412 14:47:32.876956 38045 net.cpp:157] Top shape: 8 128 46 46 (2166784)
I0412 14:47:32.876965 38045 net.cpp:165] Memory required for data: 3727342472
I0412 14:47:32.876973 38045 layer_factory.hpp:77] Creating layer Mconv3_stage3
I0412 14:47:32.876996 38045 net.cpp:100] Creating Layer Mconv3_stage3
I0412 14:47:32.877007 38045 net.cpp:434] Mconv3_stage3 <- Mconv2_stage3
I0412 14:47:32.877022 38045 net.cpp:408] Mconv3_stage3 -> Mconv3_stage3
I0412 14:47:32.951617 38045 net.cpp:150] Setting up Mconv3_stage3
I0412 14:47:32.951645 38045 net.cpp:157] Top shape: 8 128 46 46 (2166784)
I0412 14:47:32.951655 38045 net.cpp:165] Memory required for data: 3736009608
I0412 14:47:32.951668 38045 layer_factory.hpp:77] Creating layer Mrelu3_stage3
I0412 14:47:32.951681 38045 net.cpp:100] Creating Layer Mrelu3_stage3
I0412 14:47:32.951690 38045 net.cpp:434] Mrelu3_stage3 <- Mconv3_stage3
I0412 14:47:32.951701 38045 net.cpp:395] Mrelu3_stage3 -> Mconv3_stage3 (in-place)
I0412 14:47:32.951714 38045 net.cpp:150] Setting up Mrelu3_stage3
I0412 14:47:32.951725 38045 net.cpp:157] Top shape: 8 128 46 46 (2166784)
I0412 14:47:32.951733 38045 net.cpp:165] Memory required for data: 3744676744
I0412 14:47:32.951741 38045 layer_factory.hpp:77] Creating layer Mconv4_stage3
I0412 14:47:32.951769 38045 net.cpp:100] Creating Layer Mconv4_stage3
I0412 14:47:32.951781 38045 net.cpp:434] Mconv4_stage3 <- Mconv3_stage3
I0412 14:47:32.951795 38045 net.cpp:408] Mconv4_stage3 -> Mconv4_stage3
I0412 14:47:32.952662 38045 net.cpp:150] Setting up Mconv4_stage3
I0412 14:47:32.952682 38045 net.cpp:157] Top shape: 8 128 46 46 (2166784)
I0412 14:47:32.952690 38045 net.cpp:165] Memory required for data: 3753343880
I0412 14:47:32.952702 38045 layer_factory.hpp:77] Creating layer Mrelu4_stage3
I0412 14:47:32.952713 38045 net.cpp:100] Creating Layer Mrelu4_stage3
I0412 14:47:32.952723 38045 net.cpp:434] Mrelu4_stage3 <- Mconv4_stage3
I0412 14:47:32.952736 38045 net.cpp:395] Mrelu4_stage3 -> Mconv4_stage3 (in-place)
I0412 14:47:32.952749 38045 net.cpp:150] Setting up Mrelu4_stage3
I0412 14:47:32.952760 38045 net.cpp:157] Top shape: 8 128 46 46 (2166784)
I0412 14:47:32.952769 38045 net.cpp:165] Memory required for data: 3762011016
I0412 14:47:32.952776 38045 layer_factory.hpp:77] Creating layer Mconv5_stage3
I0412 14:47:32.952801 38045 net.cpp:100] Creating Layer Mconv5_stage3
I0412 14:47:32.952812 38045 net.cpp:434] Mconv5_stage3 <- Mconv4_stage3
I0412 14:47:32.952826 38045 net.cpp:408] Mconv5_stage3 -> Mconv5_stage3
I0412 14:47:32.953155 38045 net.cpp:150] Setting up Mconv5_stage3
I0412 14:47:32.953172 38045 net.cpp:157] Top shape: 8 15 46 46 (253920)
I0412 14:47:32.953181 38045 net.cpp:165] Memory required for data: 3763026696
I0412 14:47:32.953192 38045 layer_factory.hpp:77] Creating layer Mconv5_stage3_Mconv5_stage3_0_split
I0412 14:47:32.953205 38045 net.cpp:100] Creating Layer Mconv5_stage3_Mconv5_stage3_0_split
I0412 14:47:32.953219 38045 net.cpp:434] Mconv5_stage3_Mconv5_stage3_0_split <- Mconv5_stage3
I0412 14:47:32.953232 38045 net.cpp:408] Mconv5_stage3_Mconv5_stage3_0_split -> Mconv5_stage3_Mconv5_stage3_0_split_0
I0412 14:47:32.953244 38045 net.cpp:408] Mconv5_stage3_Mconv5_stage3_0_split -> Mconv5_stage3_Mconv5_stage3_0_split_1
I0412 14:47:32.953294 38045 net.cpp:150] Setting up Mconv5_stage3_Mconv5_stage3_0_split
I0412 14:47:32.953310 38045 net.cpp:157] Top shape: 8 15 46 46 (253920)
I0412 14:47:32.953320 38045 net.cpp:157] Top shape: 8 15 46 46 (253920)
I0412 14:47:32.953341 38045 net.cpp:165] Memory required for data: 3765058056
I0412 14:47:32.953369 38045 layer_factory.hpp:77] Creating layer loss_stage3
I0412 14:47:32.953436 38045 net.cpp:100] Creating Layer loss_stage3
I0412 14:47:32.953449 38045 net.cpp:434] loss_stage3 <- Mconv5_stage3_Mconv5_stage3_0_split_0
I0412 14:47:32.953460 38045 net.cpp:434] loss_stage3 <- label_lower_label_lower_0_split_1
I0412 14:47:32.953472 38045 net.cpp:408] loss_stage3 -> loss_stage3
I0412 14:47:32.953526 38045 net.cpp:150] Setting up loss_stage3
I0412 14:47:32.953541 38045 net.cpp:157] Top shape: (1)
I0412 14:47:32.953549 38045 net.cpp:160]     with loss weight 1
I0412 14:47:32.953567 38045 net.cpp:165] Memory required for data: 3765058060
I0412 14:47:32.953577 38045 layer_factory.hpp:77] Creating layer conv1_stage4
I0412 14:47:32.953604 38045 net.cpp:100] Creating Layer conv1_stage4
I0412 14:47:32.953616 38045 net.cpp:434] conv1_stage4 <- pool3_stage2_pool3_stage2_0_split_2
I0412 14:47:32.953632 38045 net.cpp:408] conv1_stage4 -> conv1_stage4
I0412 14:47:32.957625 38045 net.cpp:150] Setting up conv1_stage4
I0412 14:47:32.957644 38045 net.cpp:157] Top shape: 8 32 46 46 (541696)
I0412 14:47:32.957653 38045 net.cpp:165] Memory required for data: 3767224844
I0412 14:47:32.957665 38045 layer_factory.hpp:77] Creating layer relu1_stage4
I0412 14:47:32.957676 38045 net.cpp:100] Creating Layer relu1_stage4
I0412 14:47:32.957686 38045 net.cpp:434] relu1_stage4 <- conv1_stage4
I0412 14:47:32.957696 38045 net.cpp:395] relu1_stage4 -> conv1_stage4 (in-place)
I0412 14:47:32.957710 38045 net.cpp:150] Setting up relu1_stage4
I0412 14:47:32.957720 38045 net.cpp:157] Top shape: 8 32 46 46 (541696)
I0412 14:47:32.957728 38045 net.cpp:165] Memory required for data: 3769391628
I0412 14:47:32.957736 38045 layer_factory.hpp:77] Creating layer concat_stage4
I0412 14:47:32.957756 38045 net.cpp:100] Creating Layer concat_stage4
I0412 14:47:32.957767 38045 net.cpp:434] concat_stage4 <- conv1_stage4
I0412 14:47:32.957777 38045 net.cpp:434] concat_stage4 <- Mconv5_stage3_Mconv5_stage3_0_split_1
I0412 14:47:32.957787 38045 net.cpp:434] concat_stage4 <- pool_center_lower_pool_center_lower_0_split_2
I0412 14:47:32.957801 38045 net.cpp:408] concat_stage4 -> concat_stage4
I0412 14:47:32.957852 38045 net.cpp:150] Setting up concat_stage4
I0412 14:47:32.957868 38045 net.cpp:157] Top shape: 8 48 46 46 (812544)
I0412 14:47:32.957877 38045 net.cpp:165] Memory required for data: 3772641804
I0412 14:47:32.957893 38045 layer_factory.hpp:77] Creating layer Mconv1_stage4
I0412 14:47:32.957919 38045 net.cpp:100] Creating Layer Mconv1_stage4
I0412 14:47:32.957931 38045 net.cpp:434] Mconv1_stage4 <- concat_stage4
I0412 14:47:32.957942 38045 net.cpp:408] Mconv1_stage4 -> Mconv1_stage4
I0412 14:47:32.986171 38045 net.cpp:150] Setting up Mconv1_stage4
I0412 14:47:32.986193 38045 net.cpp:157] Top shape: 8 128 46 46 (2166784)
I0412 14:47:32.986202 38045 net.cpp:165] Memory required for data: 3781308940
I0412 14:47:32.986214 38045 layer_factory.hpp:77] Creating layer Mrelu1_stage4
I0412 14:47:32.986227 38045 net.cpp:100] Creating Layer Mrelu1_stage4
I0412 14:47:32.986235 38045 net.cpp:434] Mrelu1_stage4 <- Mconv1_stage4
I0412 14:47:32.986246 38045 net.cpp:395] Mrelu1_stage4 -> Mconv1_stage4 (in-place)
I0412 14:47:32.986259 38045 net.cpp:150] Setting up Mrelu1_stage4
I0412 14:47:32.986270 38045 net.cpp:157] Top shape: 8 128 46 46 (2166784)
I0412 14:47:32.986279 38045 net.cpp:165] Memory required for data: 3789976076
I0412 14:47:32.986286 38045 layer_factory.hpp:77] Creating layer Mconv2_stage4
I0412 14:47:32.986305 38045 net.cpp:100] Creating Layer Mconv2_stage4
I0412 14:47:32.986317 38045 net.cpp:434] Mconv2_stage4 <- Mconv1_stage4
I0412 14:47:32.986330 38045 net.cpp:408] Mconv2_stage4 -> Mconv2_stage4
I0412 14:47:33.061137 38045 net.cpp:150] Setting up Mconv2_stage4
I0412 14:47:33.061163 38045 net.cpp:157] Top shape: 8 128 46 46 (2166784)
I0412 14:47:33.061173 38045 net.cpp:165] Memory required for data: 3798643212
I0412 14:47:33.061195 38045 layer_factory.hpp:77] Creating layer Mrelu2_stage4
I0412 14:47:33.061218 38045 net.cpp:100] Creating Layer Mrelu2_stage4
I0412 14:47:33.061238 38045 net.cpp:434] Mrelu2_stage4 <- Mconv2_stage4
I0412 14:47:33.061250 38045 net.cpp:395] Mrelu2_stage4 -> Mconv2_stage4 (in-place)
I0412 14:47:33.061264 38045 net.cpp:150] Setting up Mrelu2_stage4
I0412 14:47:33.061275 38045 net.cpp:157] Top shape: 8 128 46 46 (2166784)
I0412 14:47:33.061283 38045 net.cpp:165] Memory required for data: 3807310348
I0412 14:47:33.061291 38045 layer_factory.hpp:77] Creating layer Mconv3_stage4
I0412 14:47:33.061326 38045 net.cpp:100] Creating Layer Mconv3_stage4
I0412 14:47:33.061344 38045 net.cpp:434] Mconv3_stage4 <- Mconv2_stage4
I0412 14:47:33.061363 38045 net.cpp:408] Mconv3_stage4 -> Mconv3_stage4
I0412 14:47:33.136062 38045 net.cpp:150] Setting up Mconv3_stage4
I0412 14:47:33.136090 38045 net.cpp:157] Top shape: 8 128 46 46 (2166784)
I0412 14:47:33.136099 38045 net.cpp:165] Memory required for data: 3815977484
I0412 14:47:33.136112 38045 layer_factory.hpp:77] Creating layer Mrelu3_stage4
I0412 14:47:33.136124 38045 net.cpp:100] Creating Layer Mrelu3_stage4
I0412 14:47:33.136134 38045 net.cpp:434] Mrelu3_stage4 <- Mconv3_stage4
I0412 14:47:33.136145 38045 net.cpp:395] Mrelu3_stage4 -> Mconv3_stage4 (in-place)
I0412 14:47:33.136158 38045 net.cpp:150] Setting up Mrelu3_stage4
I0412 14:47:33.136170 38045 net.cpp:157] Top shape: 8 128 46 46 (2166784)
I0412 14:47:33.136178 38045 net.cpp:165] Memory required for data: 3824644620
I0412 14:47:33.136186 38045 layer_factory.hpp:77] Creating layer Mconv4_stage4
I0412 14:47:33.136217 38045 net.cpp:100] Creating Layer Mconv4_stage4
I0412 14:47:33.136229 38045 net.cpp:434] Mconv4_stage4 <- Mconv3_stage4
I0412 14:47:33.136245 38045 net.cpp:408] Mconv4_stage4 -> Mconv4_stage4
I0412 14:47:33.137114 38045 net.cpp:150] Setting up Mconv4_stage4
I0412 14:47:33.137131 38045 net.cpp:157] Top shape: 8 128 46 46 (2166784)
I0412 14:47:33.137140 38045 net.cpp:165] Memory required for data: 3833311756
I0412 14:47:33.137152 38045 layer_factory.hpp:77] Creating layer Mrelu4_stage4
I0412 14:47:33.137164 38045 net.cpp:100] Creating Layer Mrelu4_stage4
I0412 14:47:33.137174 38045 net.cpp:434] Mrelu4_stage4 <- Mconv4_stage4
I0412 14:47:33.137188 38045 net.cpp:395] Mrelu4_stage4 -> Mconv4_stage4 (in-place)
I0412 14:47:33.137202 38045 net.cpp:150] Setting up Mrelu4_stage4
I0412 14:47:33.137212 38045 net.cpp:157] Top shape: 8 128 46 46 (2166784)
I0412 14:47:33.137220 38045 net.cpp:165] Memory required for data: 3841978892
I0412 14:47:33.137229 38045 layer_factory.hpp:77] Creating layer Mconv5_stage4
I0412 14:47:33.137245 38045 net.cpp:100] Creating Layer Mconv5_stage4
I0412 14:47:33.137255 38045 net.cpp:434] Mconv5_stage4 <- Mconv4_stage4
I0412 14:47:33.137269 38045 net.cpp:408] Mconv5_stage4 -> Mconv5_stage4
I0412 14:47:33.137609 38045 net.cpp:150] Setting up Mconv5_stage4
I0412 14:47:33.137629 38045 net.cpp:157] Top shape: 8 15 46 46 (253920)
I0412 14:47:33.137636 38045 net.cpp:165] Memory required for data: 3842994572
I0412 14:47:33.137648 38045 layer_factory.hpp:77] Creating layer Mconv5_stage4_Mconv5_stage4_0_split
I0412 14:47:33.137665 38045 net.cpp:100] Creating Layer Mconv5_stage4_Mconv5_stage4_0_split
I0412 14:47:33.137675 38045 net.cpp:434] Mconv5_stage4_Mconv5_stage4_0_split <- Mconv5_stage4
I0412 14:47:33.137686 38045 net.cpp:408] Mconv5_stage4_Mconv5_stage4_0_split -> Mconv5_stage4_Mconv5_stage4_0_split_0
I0412 14:47:33.137699 38045 net.cpp:408] Mconv5_stage4_Mconv5_stage4_0_split -> Mconv5_stage4_Mconv5_stage4_0_split_1
I0412 14:47:33.137751 38045 net.cpp:150] Setting up Mconv5_stage4_Mconv5_stage4_0_split
I0412 14:47:33.137766 38045 net.cpp:157] Top shape: 8 15 46 46 (253920)
I0412 14:47:33.137776 38045 net.cpp:157] Top shape: 8 15 46 46 (253920)
I0412 14:47:33.137785 38045 net.cpp:165] Memory required for data: 3845025932
I0412 14:47:33.137794 38045 layer_factory.hpp:77] Creating layer loss_stage4
I0412 14:47:33.137818 38045 net.cpp:100] Creating Layer loss_stage4
I0412 14:47:33.137828 38045 net.cpp:434] loss_stage4 <- Mconv5_stage4_Mconv5_stage4_0_split_0
I0412 14:47:33.137850 38045 net.cpp:434] loss_stage4 <- label_lower_label_lower_0_split_2
I0412 14:47:33.137876 38045 net.cpp:408] loss_stage4 -> loss_stage4
I0412 14:47:33.137926 38045 net.cpp:150] Setting up loss_stage4
I0412 14:47:33.137943 38045 net.cpp:157] Top shape: (1)
I0412 14:47:33.137950 38045 net.cpp:160]     with loss weight 1
I0412 14:47:33.137969 38045 net.cpp:165] Memory required for data: 3845025936
I0412 14:47:33.137977 38045 layer_factory.hpp:77] Creating layer conv1_stage5
I0412 14:47:33.138003 38045 net.cpp:100] Creating Layer conv1_stage5
I0412 14:47:33.138015 38045 net.cpp:434] conv1_stage5 <- pool3_stage2_pool3_stage2_0_split_3
I0412 14:47:33.138029 38045 net.cpp:408] conv1_stage5 -> conv1_stage5
I0412 14:47:33.142738 38045 net.cpp:150] Setting up conv1_stage5
I0412 14:47:33.142760 38045 net.cpp:157] Top shape: 8 32 46 46 (541696)
I0412 14:47:33.142769 38045 net.cpp:165] Memory required for data: 3847192720
I0412 14:47:33.142781 38045 layer_factory.hpp:77] Creating layer relu1_stage5
I0412 14:47:33.142793 38045 net.cpp:100] Creating Layer relu1_stage5
I0412 14:47:33.142803 38045 net.cpp:434] relu1_stage5 <- conv1_stage5
I0412 14:47:33.142817 38045 net.cpp:395] relu1_stage5 -> conv1_stage5 (in-place)
I0412 14:47:33.142830 38045 net.cpp:150] Setting up relu1_stage5
I0412 14:47:33.142841 38045 net.cpp:157] Top shape: 8 32 46 46 (541696)
I0412 14:47:33.142849 38045 net.cpp:165] Memory required for data: 3849359504
I0412 14:47:33.142858 38045 layer_factory.hpp:77] Creating layer concat_stage5
I0412 14:47:33.142879 38045 net.cpp:100] Creating Layer concat_stage5
I0412 14:47:33.142889 38045 net.cpp:434] concat_stage5 <- conv1_stage5
I0412 14:47:33.142899 38045 net.cpp:434] concat_stage5 <- Mconv5_stage4_Mconv5_stage4_0_split_1
I0412 14:47:33.142910 38045 net.cpp:434] concat_stage5 <- pool_center_lower_pool_center_lower_0_split_3
I0412 14:47:33.142925 38045 net.cpp:408] concat_stage5 -> concat_stage5
I0412 14:47:33.142966 38045 net.cpp:150] Setting up concat_stage5
I0412 14:47:33.142980 38045 net.cpp:157] Top shape: 8 48 46 46 (812544)
I0412 14:47:33.142989 38045 net.cpp:165] Memory required for data: 3852609680
I0412 14:47:33.143004 38045 layer_factory.hpp:77] Creating layer Mconv1_stage5
I0412 14:47:33.143023 38045 net.cpp:100] Creating Layer Mconv1_stage5
I0412 14:47:33.143033 38045 net.cpp:434] Mconv1_stage5 <- concat_stage5
I0412 14:47:33.143049 38045 net.cpp:408] Mconv1_stage5 -> Mconv1_stage5
I0412 14:47:33.171416 38045 net.cpp:150] Setting up Mconv1_stage5
I0412 14:47:33.171442 38045 net.cpp:157] Top shape: 8 128 46 46 (2166784)
I0412 14:47:33.171452 38045 net.cpp:165] Memory required for data: 3861276816
I0412 14:47:33.171464 38045 layer_factory.hpp:77] Creating layer Mrelu1_stage5
I0412 14:47:33.171476 38045 net.cpp:100] Creating Layer Mrelu1_stage5
I0412 14:47:33.171485 38045 net.cpp:434] Mrelu1_stage5 <- Mconv1_stage5
I0412 14:47:33.171497 38045 net.cpp:395] Mrelu1_stage5 -> Mconv1_stage5 (in-place)
I0412 14:47:33.171509 38045 net.cpp:150] Setting up Mrelu1_stage5
I0412 14:47:33.171520 38045 net.cpp:157] Top shape: 8 128 46 46 (2166784)
I0412 14:47:33.171530 38045 net.cpp:165] Memory required for data: 3869943952
I0412 14:47:33.171537 38045 layer_factory.hpp:77] Creating layer Mconv2_stage5
I0412 14:47:33.171563 38045 net.cpp:100] Creating Layer Mconv2_stage5
I0412 14:47:33.171574 38045 net.cpp:434] Mconv2_stage5 <- Mconv1_stage5
I0412 14:47:33.171589 38045 net.cpp:408] Mconv2_stage5 -> Mconv2_stage5
I0412 14:47:33.246246 38045 net.cpp:150] Setting up Mconv2_stage5
I0412 14:47:33.246269 38045 net.cpp:157] Top shape: 8 128 46 46 (2166784)
I0412 14:47:33.246279 38045 net.cpp:165] Memory required for data: 3878611088
I0412 14:47:33.246300 38045 layer_factory.hpp:77] Creating layer Mrelu2_stage5
I0412 14:47:33.246317 38045 net.cpp:100] Creating Layer Mrelu2_stage5
I0412 14:47:33.246327 38045 net.cpp:434] Mrelu2_stage5 <- Mconv2_stage5
I0412 14:47:33.246338 38045 net.cpp:395] Mrelu2_stage5 -> Mconv2_stage5 (in-place)
I0412 14:47:33.246352 38045 net.cpp:150] Setting up Mrelu2_stage5
I0412 14:47:33.246363 38045 net.cpp:157] Top shape: 8 128 46 46 (2166784)
I0412 14:47:33.246387 38045 net.cpp:165] Memory required for data: 3887278224
I0412 14:47:33.246397 38045 layer_factory.hpp:77] Creating layer Mconv3_stage5
I0412 14:47:33.246423 38045 net.cpp:100] Creating Layer Mconv3_stage5
I0412 14:47:33.246434 38045 net.cpp:434] Mconv3_stage5 <- Mconv2_stage5
I0412 14:47:33.246453 38045 net.cpp:408] Mconv3_stage5 -> Mconv3_stage5
I0412 14:47:33.321107 38045 net.cpp:150] Setting up Mconv3_stage5
I0412 14:47:33.321132 38045 net.cpp:157] Top shape: 8 128 46 46 (2166784)
I0412 14:47:33.321142 38045 net.cpp:165] Memory required for data: 3895945360
I0412 14:47:33.321154 38045 layer_factory.hpp:77] Creating layer Mrelu3_stage5
I0412 14:47:33.321167 38045 net.cpp:100] Creating Layer Mrelu3_stage5
I0412 14:47:33.321180 38045 net.cpp:434] Mrelu3_stage5 <- Mconv3_stage5
I0412 14:47:33.321192 38045 net.cpp:395] Mrelu3_stage5 -> Mconv3_stage5 (in-place)
I0412 14:47:33.321204 38045 net.cpp:150] Setting up Mrelu3_stage5
I0412 14:47:33.321215 38045 net.cpp:157] Top shape: 8 128 46 46 (2166784)
I0412 14:47:33.321224 38045 net.cpp:165] Memory required for data: 3904612496
I0412 14:47:33.321233 38045 layer_factory.hpp:77] Creating layer Mconv4_stage5
I0412 14:47:33.321250 38045 net.cpp:100] Creating Layer Mconv4_stage5
I0412 14:47:33.321260 38045 net.cpp:434] Mconv4_stage5 <- Mconv3_stage5
I0412 14:47:33.321274 38045 net.cpp:408] Mconv4_stage5 -> Mconv4_stage5
I0412 14:47:33.322155 38045 net.cpp:150] Setting up Mconv4_stage5
I0412 14:47:33.322175 38045 net.cpp:157] Top shape: 8 128 46 46 (2166784)
I0412 14:47:33.322183 38045 net.cpp:165] Memory required for data: 3913279632
I0412 14:47:33.322224 38045 layer_factory.hpp:77] Creating layer Mrelu4_stage5
I0412 14:47:33.322238 38045 net.cpp:100] Creating Layer Mrelu4_stage5
I0412 14:47:33.322248 38045 net.cpp:434] Mrelu4_stage5 <- Mconv4_stage5
I0412 14:47:33.322259 38045 net.cpp:395] Mrelu4_stage5 -> Mconv4_stage5 (in-place)
I0412 14:47:33.322273 38045 net.cpp:150] Setting up Mrelu4_stage5
I0412 14:47:33.322283 38045 net.cpp:157] Top shape: 8 128 46 46 (2166784)
I0412 14:47:33.322291 38045 net.cpp:165] Memory required for data: 3921946768
I0412 14:47:33.322300 38045 layer_factory.hpp:77] Creating layer Mconv5_stage5
I0412 14:47:33.322324 38045 net.cpp:100] Creating Layer Mconv5_stage5
I0412 14:47:33.322335 38045 net.cpp:434] Mconv5_stage5 <- Mconv4_stage5
I0412 14:47:33.322350 38045 net.cpp:408] Mconv5_stage5 -> Mconv5_stage5
I0412 14:47:33.322695 38045 net.cpp:150] Setting up Mconv5_stage5
I0412 14:47:33.322712 38045 net.cpp:157] Top shape: 8 15 46 46 (253920)
I0412 14:47:33.322721 38045 net.cpp:165] Memory required for data: 3922962448
I0412 14:47:33.322732 38045 layer_factory.hpp:77] Creating layer Mconv5_stage5_Mconv5_stage5_0_split
I0412 14:47:33.322746 38045 net.cpp:100] Creating Layer Mconv5_stage5_Mconv5_stage5_0_split
I0412 14:47:33.322755 38045 net.cpp:434] Mconv5_stage5_Mconv5_stage5_0_split <- Mconv5_stage5
I0412 14:47:33.322767 38045 net.cpp:408] Mconv5_stage5_Mconv5_stage5_0_split -> Mconv5_stage5_Mconv5_stage5_0_split_0
I0412 14:47:33.322783 38045 net.cpp:408] Mconv5_stage5_Mconv5_stage5_0_split -> Mconv5_stage5_Mconv5_stage5_0_split_1
I0412 14:47:33.322834 38045 net.cpp:150] Setting up Mconv5_stage5_Mconv5_stage5_0_split
I0412 14:47:33.322849 38045 net.cpp:157] Top shape: 8 15 46 46 (253920)
I0412 14:47:33.322860 38045 net.cpp:157] Top shape: 8 15 46 46 (253920)
I0412 14:47:33.322867 38045 net.cpp:165] Memory required for data: 3924993808
I0412 14:47:33.322876 38045 layer_factory.hpp:77] Creating layer loss_stage5
I0412 14:47:33.322893 38045 net.cpp:100] Creating Layer loss_stage5
I0412 14:47:33.322903 38045 net.cpp:434] loss_stage5 <- Mconv5_stage5_Mconv5_stage5_0_split_0
I0412 14:47:33.322913 38045 net.cpp:434] loss_stage5 <- label_lower_label_lower_0_split_3
I0412 14:47:33.322926 38045 net.cpp:408] loss_stage5 -> loss_stage5
I0412 14:47:33.322978 38045 net.cpp:150] Setting up loss_stage5
I0412 14:47:33.322993 38045 net.cpp:157] Top shape: (1)
I0412 14:47:33.323001 38045 net.cpp:160]     with loss weight 1
I0412 14:47:33.323027 38045 net.cpp:165] Memory required for data: 3924993812
I0412 14:47:33.323055 38045 layer_factory.hpp:77] Creating layer conv1_stage6
I0412 14:47:33.323079 38045 net.cpp:100] Creating Layer conv1_stage6
I0412 14:47:33.323091 38045 net.cpp:434] conv1_stage6 <- pool3_stage2_pool3_stage2_0_split_4
I0412 14:47:33.323109 38045 net.cpp:408] conv1_stage6 -> conv1_stage6
I0412 14:47:33.327147 38045 net.cpp:150] Setting up conv1_stage6
I0412 14:47:33.327167 38045 net.cpp:157] Top shape: 8 32 46 46 (541696)
I0412 14:47:33.327177 38045 net.cpp:165] Memory required for data: 3927160596
I0412 14:47:33.327188 38045 layer_factory.hpp:77] Creating layer relu1_stage6
I0412 14:47:33.327203 38045 net.cpp:100] Creating Layer relu1_stage6
I0412 14:47:33.327213 38045 net.cpp:434] relu1_stage6 <- conv1_stage6
I0412 14:47:33.327224 38045 net.cpp:395] relu1_stage6 -> conv1_stage6 (in-place)
I0412 14:47:33.327236 38045 net.cpp:150] Setting up relu1_stage6
I0412 14:47:33.327246 38045 net.cpp:157] Top shape: 8 32 46 46 (541696)
I0412 14:47:33.327255 38045 net.cpp:165] Memory required for data: 3929327380
I0412 14:47:33.327263 38045 layer_factory.hpp:77] Creating layer concat_stage6
I0412 14:47:33.327275 38045 net.cpp:100] Creating Layer concat_stage6
I0412 14:47:33.327283 38045 net.cpp:434] concat_stage6 <- conv1_stage6
I0412 14:47:33.327302 38045 net.cpp:434] concat_stage6 <- Mconv5_stage5_Mconv5_stage5_0_split_1
I0412 14:47:33.327314 38045 net.cpp:434] concat_stage6 <- pool_center_lower_pool_center_lower_0_split_4
I0412 14:47:33.327328 38045 net.cpp:408] concat_stage6 -> concat_stage6
I0412 14:47:33.327368 38045 net.cpp:150] Setting up concat_stage6
I0412 14:47:33.327383 38045 net.cpp:157] Top shape: 8 48 46 46 (812544)
I0412 14:47:33.327390 38045 net.cpp:165] Memory required for data: 3932577556
I0412 14:47:33.327399 38045 layer_factory.hpp:77] Creating layer Mconv1_stage6
I0412 14:47:33.327425 38045 net.cpp:100] Creating Layer Mconv1_stage6
I0412 14:47:33.327436 38045 net.cpp:434] Mconv1_stage6 <- concat_stage6
I0412 14:47:33.327448 38045 net.cpp:408] Mconv1_stage6 -> Mconv1_stage6
I0412 14:47:33.355710 38045 net.cpp:150] Setting up Mconv1_stage6
I0412 14:47:33.355733 38045 net.cpp:157] Top shape: 8 128 46 46 (2166784)
I0412 14:47:33.355742 38045 net.cpp:165] Memory required for data: 3941244692
I0412 14:47:33.355754 38045 layer_factory.hpp:77] Creating layer Mrelu1_stage6
I0412 14:47:33.355792 38045 net.cpp:100] Creating Layer Mrelu1_stage6
I0412 14:47:33.355803 38045 net.cpp:434] Mrelu1_stage6 <- Mconv1_stage6
I0412 14:47:33.355814 38045 net.cpp:395] Mrelu1_stage6 -> Mconv1_stage6 (in-place)
I0412 14:47:33.355828 38045 net.cpp:150] Setting up Mrelu1_stage6
I0412 14:47:33.355839 38045 net.cpp:157] Top shape: 8 128 46 46 (2166784)
I0412 14:47:33.355847 38045 net.cpp:165] Memory required for data: 3949911828
I0412 14:47:33.355855 38045 layer_factory.hpp:77] Creating layer Mconv2_stage6
I0412 14:47:33.355873 38045 net.cpp:100] Creating Layer Mconv2_stage6
I0412 14:47:33.355885 38045 net.cpp:434] Mconv2_stage6 <- Mconv1_stage6
I0412 14:47:33.355897 38045 net.cpp:408] Mconv2_stage6 -> Mconv2_stage6
I0412 14:47:33.430637 38045 net.cpp:150] Setting up Mconv2_stage6
I0412 14:47:33.430662 38045 net.cpp:157] Top shape: 8 128 46 46 (2166784)
I0412 14:47:33.430671 38045 net.cpp:165] Memory required for data: 3958578964
I0412 14:47:33.430685 38045 layer_factory.hpp:77] Creating layer Mrelu2_stage6
I0412 14:47:33.430697 38045 net.cpp:100] Creating Layer Mrelu2_stage6
I0412 14:47:33.430707 38045 net.cpp:434] Mrelu2_stage6 <- Mconv2_stage6
I0412 14:47:33.430718 38045 net.cpp:395] Mrelu2_stage6 -> Mconv2_stage6 (in-place)
I0412 14:47:33.430732 38045 net.cpp:150] Setting up Mrelu2_stage6
I0412 14:47:33.430742 38045 net.cpp:157] Top shape: 8 128 46 46 (2166784)
I0412 14:47:33.430750 38045 net.cpp:165] Memory required for data: 3967246100
I0412 14:47:33.430768 38045 layer_factory.hpp:77] Creating layer Mconv3_stage6
I0412 14:47:33.430793 38045 net.cpp:100] Creating Layer Mconv3_stage6
I0412 14:47:33.430804 38045 net.cpp:434] Mconv3_stage6 <- Mconv2_stage6
I0412 14:47:33.430838 38045 net.cpp:408] Mconv3_stage6 -> Mconv3_stage6
I0412 14:47:33.505703 38045 net.cpp:150] Setting up Mconv3_stage6
I0412 14:47:33.505730 38045 net.cpp:157] Top shape: 8 128 46 46 (2166784)
I0412 14:47:33.505740 38045 net.cpp:165] Memory required for data: 3975913236
I0412 14:47:33.505753 38045 layer_factory.hpp:77] Creating layer Mrelu3_stage6
I0412 14:47:33.505766 38045 net.cpp:100] Creating Layer Mrelu3_stage6
I0412 14:47:33.505776 38045 net.cpp:434] Mrelu3_stage6 <- Mconv3_stage6
I0412 14:47:33.505787 38045 net.cpp:395] Mrelu3_stage6 -> Mconv3_stage6 (in-place)
I0412 14:47:33.505801 38045 net.cpp:150] Setting up Mrelu3_stage6
I0412 14:47:33.505811 38045 net.cpp:157] Top shape: 8 128 46 46 (2166784)
I0412 14:47:33.505820 38045 net.cpp:165] Memory required for data: 3984580372
I0412 14:47:33.505830 38045 layer_factory.hpp:77] Creating layer Mconv4_stage6
I0412 14:47:33.505856 38045 net.cpp:100] Creating Layer Mconv4_stage6
I0412 14:47:33.505867 38045 net.cpp:434] Mconv4_stage6 <- Mconv3_stage6
I0412 14:47:33.505883 38045 net.cpp:408] Mconv4_stage6 -> Mconv4_stage6
I0412 14:47:33.506764 38045 net.cpp:150] Setting up Mconv4_stage6
I0412 14:47:33.506783 38045 net.cpp:157] Top shape: 8 128 46 46 (2166784)
I0412 14:47:33.506791 38045 net.cpp:165] Memory required for data: 3993247508
I0412 14:47:33.506804 38045 layer_factory.hpp:77] Creating layer Mrelu4_stage6
I0412 14:47:33.506816 38045 net.cpp:100] Creating Layer Mrelu4_stage6
I0412 14:47:33.506825 38045 net.cpp:434] Mrelu4_stage6 <- Mconv4_stage6
I0412 14:47:33.506839 38045 net.cpp:395] Mrelu4_stage6 -> Mconv4_stage6 (in-place)
I0412 14:47:33.506853 38045 net.cpp:150] Setting up Mrelu4_stage6
I0412 14:47:33.506865 38045 net.cpp:157] Top shape: 8 128 46 46 (2166784)
I0412 14:47:33.506872 38045 net.cpp:165] Memory required for data: 4001914644
I0412 14:47:33.506881 38045 layer_factory.hpp:77] Creating layer Mconv5_stage6
I0412 14:47:33.506898 38045 net.cpp:100] Creating Layer Mconv5_stage6
I0412 14:47:33.506908 38045 net.cpp:434] Mconv5_stage6 <- Mconv4_stage6
I0412 14:47:33.506920 38045 net.cpp:408] Mconv5_stage6 -> Mconv5_stage6
I0412 14:47:33.507266 38045 net.cpp:150] Setting up Mconv5_stage6
I0412 14:47:33.507283 38045 net.cpp:157] Top shape: 8 15 46 46 (253920)
I0412 14:47:33.507292 38045 net.cpp:165] Memory required for data: 4002930324
I0412 14:47:33.507304 38045 layer_factory.hpp:77] Creating layer loss_stage6
I0412 14:47:33.507328 38045 net.cpp:100] Creating Layer loss_stage6
I0412 14:47:33.507339 38045 net.cpp:434] loss_stage6 <- Mconv5_stage6
I0412 14:47:33.507349 38045 net.cpp:434] loss_stage6 <- label_lower_label_lower_0_split_4
…
