…
  transform_param {
    mirror: false
    mean_file: "/home/lizhuowan/Market1501/lmdb/lmdb_12936/Image_lmdb_12936.binaryproto"
  }
  data_param {
    source: "/home/lizhuowan/Market1501/lmdb/lmdb_mirror_12936/Image_lmdb_mirror_12936"
    batch_size: 16
    backend: LMDB
  }
}
layer {
  name: "data"
  type: "Data"
  top: "labels"
  include {
    phase: TRAIN
  }
  transform_param {
    mean_value: 112
  }
  data_param {
    source: "/home/lizhuowan/Market1501/lmdb/lmdb_mirror_12936/pos30_lmdb_mirror_12936_correct"
    batch_size: 16
    backend: LMDB
  }
}
layer {
  name: "conv1"
  type: "Convolution"
  bottom: "data"
  top: "conv1"
  convolution_param {
    num_output: 64
    pad: 3
    kernel_size: 7
    stride: 2
  }
}
layer {
  name: "bn_conv1"
  type: "BatchNorm"
  bottom: "conv1"
  top: "conv1"
  batch_norm_param {
    use_global_stats: true
  }
}
layer {
  name: "scale_conv1"
  type: "Scale"
  bottom: "conv1"
  top: "conv1"
  scale_param {
    bias_term: true
  }
}
layer {
  name: "conv1_relu"
  type: "ReLU"
  bottom: "conv1"
  top: "conv1"
}
layer {
  name: "pool1"
  type: "Pooling"
  bottom: "conv1"
  top: "pool1"
  pooling_param {
    pool: MAX
    kernel_size: 3
    stride: 2
  }
}
layer {
  name: "res2a_branch1"
  type: "Convolution"
  bottom: "pool1"
  top: "res2a_branch1"
  convolution_param {
    num_output: 256
    bias_term: false
    pad: 0
    kernel_size: 1
    stride: 1
  }
}
layer {
  name: "bn2a_branch1"
  type: "BatchNorm"
  bottom: "res2a_branch1"
  top: "res2a_branch1"
  batch_norm_param {
    use_global_stats: true
  }
}
layer {
  name: "scale2a_branch1"
  type: "Scale"
  bottom: "res2a_branch1"
  top: "res2a_branch1"
  scale_param {
    bias_term: true
  }
}
layer {
  name: "res2a_branch2a"
  type: "Convolution"
  bottom: "pool1"
  top: "res2a_branch2a"
  convolution_param {
    num_output: 64
    bias_term: false
    pad: 0
    kernel_size: 1
    stride: 1
  }
}
layer {
  name: "bn2a_branch2a"
  type: "BatchNorm"
  bottom: "res2a_branch2a"
  top: "res2a_branch2a"
  batch_norm_param {
    use_global_stats: true
  }
}
layer {
  name: "scale2a_branch2a"
  type: "Scale"
  bottom: "res2a_branch2a"
  top: "res2a_branch2a"
  scale_param {
    bias_term: true
  }
}
layer {
  name: "res2a_branch2a_relu"
  type: "ReLU"
  bottom: "res2a_branch2a"
  top: "res2a_branch2a"
}
layer {
  name: "res2a_branch2b"
  type: "Convolution"
  bottom: "res2a_branch2a"
  top: "res2a_branch2b"
  convolution_param {
    num_output: 64
    bias_term: false
    pad: 1
    kernel_size: 3
    stride: 1
  }
}
layer {
  name: "bn2a_branch2b"
  type: "BatchNorm"
  bottom: "res2a_branch2b"
  top: "res2a_branch2b"
  batch_norm_param {
    use_global_stats: true
  }
}
layer {
  name: "scale2a_branch2b"
  type: "Scale"
  bottom: "res2a_branch2b"
  top: "res2a_branch2b"
  scale_param {
    bias_term: true
  }
}
layer {
  name: "res2a_branch2b_relu"
  type: "ReLU"
  bottom: "res2a_branch2b"
  top: "res2a_branch2b"
}
layer {
  name: "res2a_branch2c"
  type: "Convolution"
  bottom: "res2a_branch2b"
  top: "res2a_branch2c"
  convolution_param {
    num_output: 256
    bias_term: false
    pad: 0
    kernel_size: 1
    stride: 1
  }
}
layer {
  name: "bn2a_branch2c"
  type: "BatchNorm"
  bottom: "res2a_branch2c"
  top: "res2a_branch2c"
  batch_norm_param {
    use_global_stats: true
  }
}
layer {
  name: "scale2a_branch2c"
  type: "Scale"
  bottom: "res2a_branch2c"
  top: "res2a_branch2c"
  scale_param {
    bias_term: true
  }
}
layer {
  name: "res2a"
  type: "Eltwise"
  bottom: "res2a_branch1"
  bottom: "res2a_branch2c"
  top: "res2a"
}
layer {
  name: "res2a_relu"
  type: "ReLU"
  bottom: "res2a"
  top: "res2a"
}
layer {
  name: "res2b_branch2a"
  type: "Convolution"
  bottom: "res2a"
  top: "res2b_branch2a"
  convolution_param {
    num_output: 64
    bias_term: false
    pad: 0
    kernel_size: 1
    stride: 1
  }
}
layer {
  name: "bn2b_branch2a"
  type: "BatchNorm"
  bottom: "res2b_branch2a"
  top: "res2b_branch2a"
  batch_norm_param {
    use_global_stats: true
  }
}
layer {
  name: "scale2b_branch2a"
  type: "Scale"
  bottom: "res2b_branch2a"
  top: "res2b_branch2a"
  scale_param {
    bias_term: true
  }
}
layer {
  name: "res2b_branch2a_relu"
  type: "ReLU"
  bottom: "res2b_branch2a"
  top: "res2b_branch2a"
}
layer {
  name: "res2b_branch2b"
  type: "Convolution"
  bottom: "res2b_branch2a"
  top: "res2b_branch2b"
  convolution_param {
    num_output: 64
    bias_term: false
    pad: 1
    kernel_size: 3
    stride: 1
  }
}
layer {
  name: "bn2b_branch2b"
  type: "BatchNorm"
  bottom: "res2b_branch2b"
  top: "res2b_branch2b"
  batch_norm_param {
    use_global_stats: true
  }
}
layer {
  name: "scale2b_branch2b"
  type: "Scale"
  bottom: "res2b_branch2b"
  top: "res2b_branch2b"
  scale_param {
    bias_term: true
  }
}
layer {
  name: "res2b_branch2b_relu"
  type: "ReLU"
  bottom: "res2b_branch2b"
  top: "res2b_branch2b"
}
layer {
  name: "res2b_branch2c"
  type: "Convolution"
  bottom: "res2b_branch2b"
  top: "res2b_branch2c"
  convolution_param {
    num_output: 256
    bias_term: false
    pad: 0
    kernel_size: 1
    stride: 1
  }
}
layer {
  name: "bn2b_branch2c"
  type: "BatchNorm"
  bottom: "res2b_branch2c"
  top: "res2b_branch2c"
  batch_norm_param {
    use_global_stats: true
  }
}
layer {
  name: "scale2b_branch2c"
  type: "Scale"
  bottom: "res2b_branch2c"
  top: "res2b_branch2c"
  scale_param {
    bias_term: true
  }
}
layer {
  name: "res2b"
  type: "Eltwise"
  bottom: "res2a"
  bottom: "res2b_branch2c"
  top: "res2b"
}
layer {
  name: "res2b_relu"
  type: "ReLU"
  bottom: "res2b"
  top: "res2b"
}
layer {
  name: "res2c_branch2a"
  type: "Convolution"
  bottom: "res2b"
  top: "res2c_branch2a"
  convolution_param {
    num_output: 64
    bias_term: false
    pad: 0
    kernel_size: 1
    stride: 1
  }
}
layer {
  name: "bn2c_branch2a"
  type: "BatchNorm"
  bottom: "res2c_branch2a"
  top: "res2c_branch2a"
  batch_norm_param {
    use_global_stats: true
  }
}
layer {
  name: "scale2c_branch2a"
  type: "Scale"
  bottom: "res2c_branch2a"
  top: "res2c_branch2a"
  scale_param {
    bias_term: true
  }
}
layer {
  name: "res2c_branch2a_relu"
  type: "ReLU"
  bottom: "res2c_branch2a"
  top: "res2c_branch2a"
}
layer {
  name: "res2c_branch2b"
  type: "Convolution"
  bottom: "res2c_branch2a"
  top: "res2c_branch2b"
  convolution_param {
    num_output: 64
    bias_term: false
    pad: 1
    kernel_size: 3
    stride: 1
  }
}
layer {
  name: "bn2c_branch2b"
  type: "BatchNorm"
  bottom: "res2c_branch2b"
  top: "res2c_branch2b"
  batch_norm_param {
    use_global_stats: true
  }
}
layer {
  name: "scale2c_branch2b"
  type: "Scale"
  bottom: "res2c_branch2b"
  top: "res2c_branch2b"
  scale_param {
    bias_term: true
  }
}
layer {
  name: "res2c_branch2b_relu"
  type: "ReLU"
  bottom: "res2c_branch2b"
  top: "res2c_branch2b"
}
layer {
  name: "res2c_branch2c"
  type: "Convolution"
  bottom: "res2c_branch2b"
  top: "res2c_branch2c"
  convolution_param {
    num_output: 256
    bias_term: false
    pad: 0
    kernel_size: 1
    stride: 1
  }
}
layer {
  name: "bn2c_branch2c"
  type: "BatchNorm"
  bottom: "res2c_branch2c"
  top: "res2c_branch2c"
  batch_norm_param {
    use_global_stats: true
  }
}
layer {
  name: "scale2c_branch2c"
  type: "Scale"
  bottom: "res2c_branch2c"
  top: "res2c_branch2c"
  scale_param {
    bias_term: true
  }
}
layer {
  name: "res2c"
  type: "Eltwise"
  bottom: "res2b"
  bottom: "res2c_branch2c"
  top: "res2c"
}
layer {
  name: "res2c_relu"
  type: "ReLU"
  bottom: "res2c"
  top: "res2c"
}
layer {
  name: "res3a_branch1"
  type: "Convolution"
  bottom: "res2c"
  top: "res3a_branch1"
  convolution_param {
    num_output: 512
    bias_term: false
    pad: 0
    kernel_size: 1
    stride: 2
  }
}
layer {
  name: "bn3a_branch1"
  type: "BatchNorm"
  bottom: "res3a_branch1"
  top: "res3a_branch1"
  batch_norm_param {
    use_global_stats: true
  }
}
layer {
  name: "scale3a_branch1"
  type: "Scale"
  bottom: "res3a_branch1"
  top: "res3a_branch1"
  scale_param {
    bias_term: true
  }
}
layer {
  name: "res3a_branch2a"
  type: "Convolution"
  bottom: "res2c"
  top: "res3a_branch2a"
  convolution_param {
    num_output: 128
    bias_term: false
    pad: 0
    kernel_size: 1
    stride: 2
  }
}
layer {
  name: "bn3a_branch2a"
  type: "BatchNorm"
  bottom: "res3a_branch2a"
  top: "res3a_branch2a"
  batch_norm_param {
    use_global_stats: true
  }
}
layer {
  name: "scale3a_branch2a"
  type: "Scale"
  bottom: "res3a_branch2a"
  top: "res3a_branch2a"
  scale_param {
    bias_term: true
  }
}
layer {
  name: "res3a_branch2a_relu"
  type: "ReLU"
  bottom: "res3a_branch2a"
  top: "res3a_branch2a"
}
layer {
  name: "res3a_branch2b"
  type: "Convolution"
  bottom: "res3a_branch2a"
  top: "res3a_branch2b"
  convolution_param {
    num_output: 128
    bias_term: false
    pad: 1
    kernel_size: 3
    stride: 1
  }
}
layer {
  name: "bn3a_branch2b"
  type: "BatchNorm"
  bottom: "res3a_branch2b"
  top: "res3a_branch2b"
  batch_norm_param {
    use_global_stats: true
  }
}
layer {
  name: "scale3a_branch2b"
  type: "Scale"
  bottom: "res3a_branch2b"
  top: "res3a_branch2b"
  scale_param {
    bias_term: true
  }
}
layer {
  name: "res3a_branch2b_relu"
  type: "ReLU"
  bottom: "res3a_branch2b"
  top: "res3a_branch2b"
}
layer {
  name: "res3a_branch2c"
  type: "Convolution"
  bottom: "res3a_branch2b"
  top: "res3a_branch2c"
  convolution_param {
    num_output: 512
    bias_term: false
    pad: 0
    kernel_size: 1
    stride: 1
  }
}
layer {
  name: "bn3a_branch2c"
  type: "BatchNorm"
  bottom: "res3a_branch2c"
  top: "res3a_branch2c"
  batch_norm_param {
    use_global_stats: true
  }
}
layer {
  name: "scale3a_branch2c"
  type: "Scale"
  bottom: "res3a_branch2c"
  top: "res3a_branch2c"
  scale_param {
    bias_term: true
  }
}
layer {
  name: "res3a"
  type: "Eltwise"
  bottom: "res3a_branch1"
  bottom: "res3a_branch2c"
  top: "res3a"
}
layer {
  name: "res3a_relu"
  type: "ReLU"
  bottom: "res3a"
  top: "res3a"
}
layer {
  name: "res3b_branch2a"
  type: "Convolution"
  bottom: "res3a"
  top: "res3b_branch2a"
  convolution_param {
    num_output: 128
    bias_term: false
    pad: 0
    kernel_size: 1
    stride: 1
  }
}
layer {
  name: "bn3b_branch2a"
  type: "BatchNorm"
  bottom: "res3b_branch2a"
  top: "res3b_branch2a"
  batch_norm_param {
    use_global_stats: true
  }
}
layer {
  name: "scale3b_branch2a"
  type: "Scale"
  bottom: "res3b_branch2a"
  top: "res3b_branch2a"
  scale_param {
    bias_term: true
  }
}
layer {
  name: "res3b_branch2a_relu"
  type: "ReLU"
  bottom: "res3b_branch2a"
  top: "res3b_branch2a"
}
layer {
  name: "res3b_branch2b"
  type: "Convolution"
  bottom: "res3b_branch2a"
  top: "res3b_branch2b"
  convolution_param {
    num_output: 128
    bias_term: false
    pad: 1
    kernel_size: 3
    stride: 1
  }
}
layer {
  name: "bn3b_branch2b"
  type: "BatchNorm"
  bottom: "res3b_branch2b"
  top: "res3b_branch2b"
  batch_norm_param {
    use_global_stats: true
  }
}
layer {
  name: "scale3b_branch2b"
  type: "Scale"
  bottom: "res3b_branch2b"
  top: "res3b_branch2b"
  scale_param {
    bias_term: true
  }
}
layer {
  name: "res3b_branch2b_relu"
  type: "ReLU"
  bottom: "res3b_branch2b"
  top: "res3b_branch2b"
}
layer {
  name: "res3b_branch2c"
  type: "Convolution"
  bottom: "res3b_branch2b"
  top: "res3b_branch2c"
  convolution_param {
    num_output: 512
    bias_term: false
    pad: 0
    kernel_size: 1
    stride: 1
  }
}
layer {
  name: "bn3b_branch2c"
  type: "BatchNorm"
  bottom: "res3b_branch2c"
  top: "res3b_branch2c"
  batch_norm_param {
    use_global_stats: true
  }
}
layer {
  name: "scale3b_branch2c"
  type: "Scale"
  bottom: "res3b_branch2c"
  top: "res3b_branch2c"
  scale_param {
    bias_term: true
  }
}
layer {
  name: "res3b"
  type: "Eltwise"
  bottom: "res3a"
  bottom: "res3b_branch2c"
  top: "res3b"
}
layer {
  name: "res3b_relu"
  type: "ReLU"
  bottom: "res3b"
  top: "res3b"
}
layer {
  name: "res3c_branch2a"
  type: "Convolution"
  bottom: "res3b"
  top: "res3c_branch2a"
  convolution_param {
    num_output: 128
    bias_term: false
    pad: 0
    kernel_size: 1
    stride: 1
  }
}
layer {
  name: "bn3c_branch2a"
  type: "BatchNorm"
  bottom: "res3c_branch2a"
  top: "res3c_branch2a"
  batch_norm_param {
    use_global_stats: true
  }
}
layer {
  name: "scale3c_branch2a"
  type: "Scale"
  bottom: "res3c_branch2a"
  top: "res3c_branch2a"
  scale_param {
    bias_term: true
  }
}
layer {
  name: "res3c_branch2a_relu"
  type: "ReLU"
  bottom: "res3c_branch2a"
  top: "res3c_branch2a"
}
layer {
  name: "res3c_branch2b"
  type: "Convolution"
  bottom: "res3c_branch2a"
  top: "res3c_branch2b"
  convolution_param {
    num_output: 128
    bias_term: false
    pad: 1
    kernel_size: 3
    stride: 1
  }
}
layer {
  name: "bn3c_branch2b"
  type: "BatchNorm"
  bottom: "res3c_branch2b"
  top: "res3c_branch2b"
  batch_norm_param {
    use_global_stats: true
  }
}
layer {
  name: "scale3c_branch2b"
  type: "Scale"
  bottom: "res3c_branch2b"
  top: "res3c_branch2b"
  scale_param {
    bias_term: true
  }
}
layer {
  name: "res3c_branch2b_relu"
  type: "ReLU"
  bottom: "res3c_branch2b"
  top: "res3c_branch2b"
}
layer {
  name: "res3c_branch2c"
  type: "Convolution"
  bottom: "res3c_branch2b"
  top: "res3c_branch2c"
  convolution_param {
    num_output: 512
    bias_term: false
    pad: 0
    kernel_size: 1
    stride: 1
  }
}
layer {
  name: "bn3c_branch2c"
  type: "BatchNorm"
  bottom: "res3c_branch2c"
  top: "res3c_branch2c"
  batch_norm_param {
    use_global_stats: true
  }
}
layer {
  name: "scale3c_branch2c"
  type: "Scale"
  bottom: "res3c_branch2c"
  top: "res3c_branch2c"
  scale_param {
    bias_term: true
  }
}
layer {
  name: "res3c"
  type: "Eltwise"
  bottom: "res3b"
  bottom: "res3c_branch2c"
  top: "res3c"
}
layer {
  name: "res3c_relu"
  type: "ReLU"
  bottom: "res3c"
  top: "res3c"
}
layer {
  name: "res3d_branch2a"
  type: "Convolution"
  bottom: "res3c"
  top: "res3d_branch2a"
  convolution_param {
    num_output: 128
    bias_term: false
    pad: 0
    kernel_size: 1
    stride: 1
  }
}
layer {
  name: "bn3d_branch2a"
  type: "BatchNorm"
  bottom: "res3d_branch2a"
  top: "res3d_branch2a"
  batch_norm_param {
    use_global_stats: true
  }
}
layer {
  name: "scale3d_branch2a"
  type: "Scale"
  bottom: "res3d_branch2a"
  top: "res3d_branch2a"
  scale_param {
    bias_term: true
  }
}
layer {
  name: "res3d_branch2a_relu"
  type: "ReLU"
  bottom: "res3d_branch2a"
  top: "res3d_branch2a"
}
layer {
  name: "res3d_branch2b"
  type: "Convolution"
  bottom: "res3d_branch2a"
  top: "res3d_branch2b"
  convolution_param {
    num_output: 128
    bias_term: false
    pad: 1
    kernel_size: 3
    stride: 1
  }
}
layer {
  name: "bn3d_branch2b"
  type: "BatchNorm"
  bottom: "res3d_branch2b"
  top: "res3d_branch2b"
  batch_norm_param {
    use_global_stats: true
  }
}
layer {
  name: "scale3d_branch2b"
  type: "Scale"
  bottom: "res3d_branch2b"
  top: "res3d_branch2b"
  scale_param {
    bias_term: true
  }
}
layer {
  name: "res3d_branch2b_relu"
  type: "ReLU"
  bottom: "res3d_branch2b"
  top: "res3d_branch2b"
}
layer {
  name: "res3d_branch2c"
  type: "Convolution"
  bottom: "res3d_branch2b"
  top: "res3d_branch2c"
  convolution_param {
    num_output: 512
    bias_term: false
    pad: 0
    kernel_size: 1
    stride: 1
  }
}
layer {
  name: "bn3d_branch2c"
  type: "BatchNorm"
  bottom: "res3d_branch2c"
  top: "res3d_branch2c"
  batch_norm_param {
    use_global_stats: true
  }
}
layer {
  name: "scale3d_branch2c"
  type: "Scale"
  bottom: "res3d_branch2c"
  top: "res3d_branch2c"
  scale_param {
    bias_term: true
  }
}
layer {
  name: "res3d"
  type: "Eltwise"
  bottom: "res3c"
  bottom: "res3d_branch2c"
  top: "res3d"
}
layer {
  name: "res3d_relu"
  type: "ReLU"
  bottom: "res3d"
  top: "res3d"
}
layer {
  name: "res4a_branch1"
  type: "Convolution"
  bottom: "res3d"
  top: "res4a_branch1"
  convolution_param {
    num_output: 1024
    bias_term: false
    pad: 0
    kernel_size: 1
    stride: 2
  }
}
layer {
  name: "bn4a_branch1"
  type: "BatchNorm"
  bottom: "res4a_branch1"
  top: "res4a_branch1"
  batch_norm_param {
    use_global_stats: true
  }
}
layer {
  name: "scale4a_branch1"
  type: "Scale"
  bottom: "res4a_branch1"
  top: "res4a_branch1"
  scale_param {
    bias_term: true
  }
}
layer {
  name: "res4a_branch2a"
  type: "Convolution"
  bottom: "res3d"
  top: "res4a_branch2a"
  convolution_param {
    num_output: 256
    bias_term: false
    pad: 0
    kernel_size: 1
    stride: 2
  }
}
layer {
  name: "bn4a_branch2a"
  type: "BatchNorm"
  bottom: "res4a_branch2a"
  top: "res4a_branch2a"
  batch_norm_param {
    use_global_stats: true
  }
}
layer {
  name: "scale4a_branch2a"
  type: "Scale"
  bottom: "res4a_branch2a"
  top: "res4a_branch2a"
  scale_param {
    bias_term: true
  }
}
layer {
  name: "res4a_branch2a_relu"
  type: "ReLU"
  bottom: "res4a_branch2a"
  top: "res4a_branch2a"
}
layer {
  name: "res4a_branch2b"
  type: "Convolution"
  bottom: "res4a_branch2a"
  top: "res4a_branch2b"
  convolution_param {
    num_output: 256
    bias_term: false
    pad: 1
    kernel_size: 3
    stride: 1
  }
}
layer {
  name: "bn4a_branch2b"
  type: "BatchNorm"
  bottom: "res4a_branch2b"
  top: "res4a_branch2b"
  batch_norm_param {
    use_global_stats: true
  }
}
layer {
  name: "scale4a_branch2b"
  type: "Scale"
  bottom: "res4a_branch2b"
  top: "res4a_branch2b"
  scale_param {
    bias_term: true
  }
}
layer {
  name: "res4a_branch2b_relu"
  type: "ReLU"
  bottom: "res4a_branch2b"
  top: "res4a_branch2b"
}
layer {
  name: "res4a_branch2c"
  type: "Convolution"
  bottom: "res4a_branch2b"
  top: "res4a_branch2c"
  convolution_param {
    num_output: 1024
    bias_term: false
    pad: 0
    kernel_size: 1
    stride: 1
  }
}
layer {
  name: "bn4a_branch2c"
  type: "BatchNorm"
  bottom: "res4a_branch2c"
  top: "res4a_branch2c"
  batch_norm_param {
    use_global_stats: true
  }
}
layer {
  name: "scale4a_branch2c"
  type: "Scale"
  bottom: "res4a_branch2c"
  top: "res4a_branch2c"
  scale_param {
    bias_term: true
  }
}
layer {
  name: "res4a"
  type: "Eltwise"
  bottom: "res4a_branch1"
  bottom: "res4a_branch2c"
  top: "res4a"
}
layer {
  name: "res4a_relu"
  type: "ReLU"
  bottom: "res4a"
  top: "res4a"
}
layer {
  name: "res4b_branch2a"
  type: "Convolution"
  bottom: "res4a"
  top: "res4b_branch2a"
  convolution_param {
    num_output: 256
    bias_term: false
    pad: 0
    kernel_size: 1
    stride: 1
  }
}
layer {
  name: "bn4b_branch2a"
  type: "BatchNorm"
  bottom: "res4b_branch2a"
  top: "res4b_branch2a"
  batch_norm_param {
    use_global_stats: true
  }
}
layer {
  name: "scale4b_branch2a"
  type: "Scale"
  bottom: "res4b_branch2a"
  top: "res4b_branch2a"
  scale_param {
    bias_term: true
  }
}
layer {
  name: "res4b_branch2a_relu"
  type: "ReLU"
  bottom: "res4b_branch2a"
  top: "res4b_branch2a"
}
layer {
  name: "res4b_branch2b"
  type: "Convolution"
  bottom: "res4b_branch2a"
  top: "res4b_branch2b"
  convolution_param {
    num_output: 256
    bias_term: false
    pad: 1
    kernel_size: 3
    stride: 1
  }
}
layer {
  name: "bn4b_branch2b"
  type: "BatchNorm"
  bottom: "res4b_branch2b"
  top: "res4b_branch2b"
  batch_norm_param {
    use_global_stats: true
  }
}
layer {
  name: "scale4b_branch2b"
  type: "Scale"
  bottom: "res4b_branch2b"
  top: "res4b_branch2b"
  scale_param {
    bias_term: true
  }
}
layer {
  name: "res4b_branch2b_relu"
  type: "ReLU"
  bottom: "res4b_branch2b"
  top: "res4b_branch2b"
}
layer {
  name: "res4b_branch2c"
  type: "Convolution"
  bottom: "res4b_branch2b"
  top: "res4b_branch2c"
  convolution_param {
    num_output: 1024
    bias_term: false
    pad: 0
    kernel_size: 1
    stride: 1
  }
}
layer {
  name: "bn4b_branch2c"
  type: "BatchNorm"
  bottom: "res4b_branch2c"
  top: "res4b_branch2c"
  batch_norm_param {
    use_global_stats: true
  }
}
layer {
  name: "scale4b_branch2c"
  type: "Scale"
  bottom: "res4b_branch2c"
  top: "res4b_branch2c"
  scale_param {
    bias_term: true
  }
}
layer {
  name: "res4b"
  type: "Eltwise"
  bottom: "res4a"
  bottom: "res4b_branch2c"
  top: "res4b"
}
layer {
  name: "res4b_relu"
  type: "ReLU"
  bottom: "res4b"
  top: "res4b"
}
layer {
  name: "res4c_branch2a"
  type: "Convolution"
  bottom: "res4b"
  top: "res4c_branch2a"
  convolution_param {
    num_output: 256
    bias_term: false
    pad: 0
    kernel_size: 1
    stride: 1
  }
}
layer {
  name: "bn4c_branch2a"
  type: "BatchNorm"
  bottom: "res4c_branch2a"
  top: "res4c_branch2a"
  batch_norm_param {
    use_global_stats: true
  }
}
layer {
  name: "scale4c_branch2a"
  type: "Scale"
  bottom: "res4c_branch2a"
  top: "res4c_branch2a"
  scale_param {
    bias_term: true
  }
}
layer {
  name: "res4c_branch2a_relu"
  type: "ReLU"
  bottom: "res4c_branch2a"
  top: "res4c_branch2a"
}
layer {
  name: "res4c_branch2b"
  type: "Convolution"
  bottom: "res4c_branch2a"
  top: "res4c_branch2b"
  convolution_param {
    num_output: 256
    bias_term: false
    pad: 1
    kernel_size: 3
    stride: 1
  }
}
layer {
  name: "bn4c_branch2b"
  type: "BatchNorm"
  bottom: "res4c_branch2b"
  top: "res4c_branch2b"
  batch_norm_param {
    use_global_stats: true
  }
}
layer {
  name: "scale4c_branch2b"
  type: "Scale"
  bottom: "res4c_branch2b"
  top: "res4c_branch2b"
  scale_param {
    bias_term: true
  }
}
layer {
  name: "res4c_branch2b_relu"
  type: "ReLU"
  bottom: "res4c_branch2b"
  top: "res4c_branch2b"
}
layer {
  name: "res4c_branch2c"
  type: "Convolution"
  bottom: "res4c_branch2b"
  top: "res4c_branch2c"
  convolution_param {
    num_output: 1024
    bias_term: false
    pad: 0
    kernel_size: 1
    stride: 1
  }
}
layer {
  name: "bn4c_branch2c"
  type: "BatchNorm"
  bottom: "res4c_branch2c"
  top: "res4c_branch2c"
  batch_norm_param {
    use_global_stats: true
  }
}
layer {
  name: "scale4c_branch2c"
  type: "Scale"
  bottom: "res4c_branch2c"
  top: "res4c_branch2c"
  scale_param {
    bias_term: true
  }
}
layer {
  name: "res4c"
  type: "Eltwise"
  bottom: "res4b"
  bottom: "res4c_branch2c"
  top: "res4c"
}
layer {
  name: "res4c_relu"
  type: "ReLU"
  bottom: "res4c"
  top: "res4c"
}
layer {
  name: "res4d_branch2a"
  type: "Convolution"
  bottom: "res4c"
  top: "res4d_branch2a"
  convolution_param {
    num_output: 256
    bias_term: false
    pad: 0
    kernel_size: 1
    stride: 1
  }
}
layer {
  name: "bn4d_branch2a"
  type: "BatchNorm"
  bottom: "res4d_branch2a"
  top: "res4d_branch2a"
  batch_norm_param {
    use_global_stats: true
  }
}
layer {
  name: "scale4d_branch2a"
  type: "Scale"
  bottom: "res4d_branch2a"
  top: "res4d_branch2a"
  scale_param {
    bias_term: true
  }
}
layer {
  name: "res4d_branch2a_relu"
  type: "ReLU"
  bottom: "res4d_branch2a"
  top: "res4d_branch2a"
}
layer {
  name: "res4d_branch2b"
  type: "Convolution"
  bottom: "res4d_branch2a"
  top: "res4d_branch2b"
  convolution_param {
    num_output: 256
    bias_term: false
    pad: 1
    kernel_size: 3
    stride: 1
  }
}
layer {
  name: "bn4d_branch2b"
  type: "BatchNorm"
  bottom: "res4d_branch2b"
  top: "res4d_branch2b"
  batch_norm_param {
    use_global_stats: true
  }
}
layer {
  name: "scale4d_branch2b"
  type: "Scale"
  bottom: "res4d_branch2b"
  top: "res4d_branch2b"
  scale_param {
    bias_term: true
  }
}
layer {
  name: "res4d_branch2b_relu"
  type: "ReLU"
  bottom: "res4d_branch2b"
  top: "res4d_branch2b"
}
layer {
  name: "res4d_branch2c"
  type: "Convolution"
  bottom: "res4d_branch2b"
  top: "res4d_branch2c"
  convolution_param {
    num_output: 1024
    bias_term: false
    pad: 0
    kernel_size: 1
    stride: 1
  }
}
layer {
  name: "bn4d_branch2c"
  type: "BatchNorm"
  bottom: "res4d_branch2c"
  top: "res4d_branch2c"
  batch_norm_param {
    use_global_stats: true
  }
}
layer {
  name: "scale4d_branch2c"
  type: "Scale"
  bottom: "res4d_branch2c"
  top: "res4d_branch2c"
  scale_param {
    bias_term: true
  }
}
layer {
  name: "res4d"
  type: "Eltwise"
  bottom: "res4c"
  bottom: "res4d_branch2c"
  top: "res4d"
}
layer {
  name: "res4d_relu"
  type: "ReLU"
  bottom: "res4d"
  top: "res4d"
}
layer {
  name: "res4e_branch2a"
  type: "Convolution"
  bottom: "res4d"
  top: "res4e_branch2a"
  convolution_param {
    num_output: 256
    bias_term: false
    pad: 0
    kernel_size: 1
    stride: 1
  }
}
layer {
  name: "bn4e_branch2a"
  type: "BatchNorm"
  bottom: "res4e_branch2a"
  top: "res4e_branch2a"
  batch_norm_param {
    use_global_stats: true
  }
}
layer {
  name: "scale4e_branch2a"
  type: "Scale"
  bottom: "res4e_branch2a"
  top: "res4e_branch2a"
  scale_param {
    bias_term: true
  }
}
layer {
  name: "res4e_branch2a_relu"
  type: "ReLU"
  bottom: "res4e_branch2a"
  top: "res4e_branch2a"
}
layer {
  name: "res4e_branch2b"
  type: "Convolution"
  bottom: "res4e_branch2a"
  top: "res4e_branch2b"
  convolution_param {
    num_output: 256
    bias_term: false
    pad: 1
    kernel_size: 3
    stride: 1
  }
}
layer {
  name: "bn4e_branch2b"
  type: "BatchNorm"
  bottom: "res4e_branch2b"
  top: "res4e_branch2b"
  batch_norm_param {
    use_global_stats: true
  }
}
layer {
  name: "scale4e_branch2b"
  type: "Scale"
  bottom: "res4e_branch2b"
  top: "res4e_branch2b"
  scale_param {
    bias_term: true
  }
}
layer {
  name: "res4e_branch2b_relu"
  type: "ReLU"
  bottom: "res4e_branch2b"
  top: "res4e_branch2b"
}
layer {
  name: "res4e_branch2c"
  type: "Convolution"
  bottom: "res4e_branch2b"
  top: "res4e_branch2c"
  convolution_param {
    num_output: 1024
    bias_term: false
    pad: 0
    kernel_size: 1
    stride: 1
  }
}
layer {
  name: "bn4e_branch2c"
  type: "BatchNorm"
  bottom: "res4e_branch2c"
  top: "res4e_branch2c"
  batch_norm_param {
    use_global_stats: true
  }
}
layer {
  name: "scale4e_branch2c"
  type: "Scale"
  bottom: "res4e_branch2c"
  top: "res4e_branch2c"
  scale_param {
    bias_term: true
  }
}
layer {
  name: "res4e"
  type: "Eltwise"
  bottom: "res4d"
  bottom: "res4e_branch2c"
  top: "res4e"
}
layer {
  name: "res4e_relu"
  type: "ReLU"
  bottom: "res4e"
  top: "res4e"
}
layer {
  name: "res4f_branch2a"
  type: "Convolution"
  bottom: "res4e"
  top: "res4f_branch2a"
  convolution_param {
    num_output: 256
    bias_term: false
    pad: 0
    kernel_size: 1
    stride: 1
  }
}
layer {
  name: "bn4f_branch2a"
  type: "BatchNorm"
  bottom: "res4f_branch2a"
  top: "res4f_branch2a"
  batch_norm_param {
    use_global_stats: true
  }
}
layer {
  name: "scale4f_branch2a"
  type: "Scale"
  bottom: "res4f_branch2a"
  top: "res4f_branch2a"
  scale_param {
    bias_term: true
  }
}
layer {
  name: "res4f_branch2a_relu"
  type: "ReLU"
  bottom: "res4f_branch2a"
  top: "res4f_branch2a"
}
layer {
  name: "res4f_branch2b"
  type: "Convolution"
  bottom: "res4f_branch2a"
  top: "res4f_branch2b"
  convolution_param {
    num_output: 256
    bias_term: false
    pad: 1
    kernel_size: 3
    stride: 1
  }
}
layer {
  name: "bn4f_branch2b"
  type: "BatchNorm"
  bottom: "res4f_branch2b"
  top: "res4f_branch2b"
  batch_norm_param {
    use_global_stats: true
  }
}
layer {
  name: "scale4f_branch2b"
  type: "Scale"
  bottom: "res4f_branch2b"
  top: "res4f_branch2b"
  scale_param {
    bias_term: true
  }
}
layer {
  name: "res4f_branch2b_relu"
  type: "ReLU"
  bottom: "res4f_branch2b"
  top: "res4f_branch2b"
}
layer {
  name: "res4f_branch2c"
  type: "Convolution"
  bottom: "res4f_branch2b"
  top: "res4f_branch2c"
  convolution_param {
    num_output: 1024
    bias_term: false
    pad: 0
    kernel_size: 1
    stride: 1
  }
}
layer {
  name: "bn4f_branch2c"
  type: "BatchNorm"
  bottom: "res4f_branch2c"
  top: "res4f_branch2c"
  batch_norm_param {
    use_global_stats: true
  }
}
layer {
  name: "scale4f_branch2c"
  type: "Scale"
  bottom: "res4f_branch2c"
  top: "res4f_branch2c"
  scale_param {
    bias_term: true
  }
}
layer {
  name: "res4f"
  type: "Eltwise"
  bottom: "res4e"
  bottom: "res4f_branch2c"
  top: "res4f"
}
layer {
  name: "res4f_relu"
  type: "ReLU"
  bottom: "res4f"
  top: "res4f"
}
layer {
  name: "res5a_branch1"
  type: "Convolution"
  bottom: "res4f"
  top: "res5a_branch1"
  convolution_param {
    num_output: 2048
    bias_term: false
    pad: 0
    kernel_size: 1
    stride: 2
  }
}
layer {
  name: "bn5a_branch1"
  type: "BatchNorm"
  bottom: "res5a_branch1"
  top: "res5a_branch1"
  batch_norm_param {
    use_global_stats: true
  }
}
layer {
  name: "scale5a_branch1"
  type: "Scale"
  bottom: "res5a_branch1"
  top: "res5a_branch1"
  scale_param {
    bias_term: true
  }
}
layer {
  name: "res5a_branch2a"
  type: "Convolution"
  bottom: "res4f"
  top: "res5a_branch2a"
  convolution_param {
    num_output: 512
    bias_term: false
    pad: 0
    kernel_size: 1
    stride: 2
  }
}
layer {
  name: "bn5a_branch2a"
  type: "BatchNorm"
  bottom: "res5a_branch2a"
  top: "res5a_branch2a"
  batch_norm_param {
    use_global_stats: true
  }
}
layer {
  name: "scale5a_branch2a"
  type: "Scale"
  bottom: "res5a_branch2a"
  top: "res5a_branch2a"
  scale_param {
    bias_term: true
  }
}
layer {
  name: "res5a_branch2a_relu"
  type: "ReLU"
  bottom: "res5a_branch2a"
  top: "res5a_branch2a"
}
layer {
  name: "res5a_branch2b"
  type: "Convolution"
  bottom: "res5a_branch2a"
  top: "res5a_branch2b"
  convolution_param {
    num_output: 512
    bias_term: false
    pad: 1
    kernel_size: 3
    stride: 1
  }
}
layer {
  name: "bn5a_branch2b"
  type: "BatchNorm"
  bottom: "res5a_branch2b"
  top: "res5a_branch2b"
  batch_norm_param {
    use_global_stats: true
  }
}
layer {
  name: "scale5a_branch2b"
  type: "Scale"
  bottom: "res5a_branch2b"
  top: "res5a_branch2b"
  scale_param {
    bias_term: true
  }
}
layer {
  name: "res5a_branch2b_relu"
  type: "ReLU"
  bottom: "res5a_branch2b"
  top: "res5a
I0329 14:44:26.458066  7688 layer_factory.hpp:77] Creating layer data
I0329 14:44:26.459277  7688 net.cpp:106] Creating Layer data
I0329 14:44:26.459378  7688 net.cpp:411] data -> data
I0329 14:44:26.459475  7688 net.cpp:411] data -> id_label
I0329 14:44:26.459543  7688 data_transformer.cpp:25] Loading mean file from: /home/lizhuowan/Market1501/lmdb/lmdb_12936/Image_lmdb_12936.binaryproto
I0329 14:44:26.461356  7692 db_lmdb.cpp:38] Opened lmdb /home/lizhuowan/Market1501/lmdb/lmdb_mirror_12936/Image_lmdb_mirror_12936
I0329 14:44:26.488646  7688 data_layer.cpp:41] output data size: 16,3,224,224
I0329 14:44:26.521880  7688 net.cpp:150] Setting up data
I0329 14:44:26.522004  7688 net.cpp:157] Top shape: 16 3 224 224 (2408448)
I0329 14:44:26.522039  7688 net.cpp:157] Top shape: 16 (16)
I0329 14:44:26.522059  7688 net.cpp:165] Memory required for data: 9633856
I0329 14:44:26.522096  7688 layer_factory.hpp:77] Creating layer data
I0329 14:44:26.522274  7688 net.cpp:106] Creating Layer data
I0329 14:44:26.522358  7688 net.cpp:411] data -> labels
I0329 14:44:26.524677  7694 db_lmdb.cpp:38] Opened lmdb /home/lizhuowan/Market1501/lmdb/lmdb_mirror_12936/pos30_lmdb_mirror_12936_correct
I0329 14:44:26.526788  7688 data_layer.cpp:41] output data size: 16,30,1,1
I0329 14:44:26.528628  7688 net.cpp:150] Setting up data
I0329 14:44:26.528683  7688 net.cpp:157] Top shape: 16 30 1 1 (480)
I0329 14:44:26.528705  7688 net.cpp:165] Memory required for data: 9635776
I0329 14:44:26.528725  7688 layer_factory.hpp:77] Creating layer conv1
I0329 14:44:26.528789  7688 net.cpp:106] Creating Layer conv1
I0329 14:44:26.528816  7688 net.cpp:454] conv1 <- data
I0329 14:44:26.528862  7688 net.cpp:411] conv1 -> conv1
I0329 14:44:26.530669  7688 net.cpp:150] Setting up conv1
I0329 14:44:26.530717  7688 net.cpp:157] Top shape: 16 64 112 112 (12845056)
I0329 14:44:26.530737  7688 net.cpp:165] Memory required for data: 61016000
I0329 14:44:26.530796  7688 layer_factory.hpp:77] Creating layer bn_conv1
I0329 14:44:26.530833  7688 net.cpp:106] Creating Layer bn_conv1
I0329 14:44:26.530854  7688 net.cpp:454] bn_conv1 <- conv1
I0329 14:44:26.530906  7688 net.cpp:397] bn_conv1 -> conv1 (in-place)
I0329 14:44:26.531591  7688 net.cpp:150] Setting up bn_conv1
I0329 14:44:26.531633  7688 net.cpp:157] Top shape: 16 64 112 112 (12845056)
I0329 14:44:26.531653  7688 net.cpp:165] Memory required for data: 112396224
I0329 14:44:26.531702  7688 layer_factory.hpp:77] Creating layer scale_conv1
I0329 14:44:26.531767  7688 net.cpp:106] Creating Layer scale_conv1
I0329 14:44:26.531791  7688 net.cpp:454] scale_conv1 <- conv1
I0329 14:44:26.531824  7688 net.cpp:397] scale_conv1 -> conv1 (in-place)
I0329 14:44:26.531968  7688 layer_factory.hpp:77] Creating layer scale_conv1
I0329 14:44:26.532338  7688 net.cpp:150] Setting up scale_conv1
I0329 14:44:26.532378  7688 net.cpp:157] Top shape: 16 64 112 112 (12845056)
I0329 14:44:26.532397  7688 net.cpp:165] Memory required for data: 163776448
I0329 14:44:26.532435  7688 layer_factory.hpp:77] Creating layer conv1_relu
I0329 14:44:26.532467  7688 net.cpp:106] Creating Layer conv1_relu
I0329 14:44:26.532497  7688 net.cpp:454] conv1_relu <- conv1
I0329 14:44:26.532526  7688 net.cpp:397] conv1_relu -> conv1 (in-place)
I0329 14:44:26.532567  7688 net.cpp:150] Setting up conv1_relu
I0329 14:44:26.532593  7688 net.cpp:157] Top shape: 16 64 112 112 (12845056)
I0329 14:44:26.532610  7688 net.cpp:165] Memory required for data: 215156672
I0329 14:44:26.532649  7688 layer_factory.hpp:77] Creating layer pool1
I0329 14:44:26.532676  7688 net.cpp:106] Creating Layer pool1
I0329 14:44:26.532696  7688 net.cpp:454] pool1 <- conv1
I0329 14:44:26.532739  7688 net.cpp:411] pool1 -> pool1
I0329 14:44:26.532919  7688 net.cpp:150] Setting up pool1
I0329 14:44:26.532958  7688 net.cpp:157] Top shape: 16 64 56 56 (3211264)
I0329 14:44:26.532977  7688 net.cpp:165] Memory required for data: 228001728
I0329 14:44:26.532996  7688 layer_factory.hpp:77] Creating layer pool1_pool1_0_split
I0329 14:44:26.533026  7688 net.cpp:106] Creating Layer pool1_pool1_0_split
I0329 14:44:26.533046  7688 net.cpp:454] pool1_pool1_0_split <- pool1
I0329 14:44:26.533069  7688 net.cpp:411] pool1_pool1_0_split -> pool1_pool1_0_split_0
I0329 14:44:26.533095  7688 net.cpp:411] pool1_pool1_0_split -> pool1_pool1_0_split_1
I0329 14:44:26.533191  7688 net.cpp:150] Setting up pool1_pool1_0_split
I0329 14:44:26.533223  7688 net.cpp:157] Top shape: 16 64 56 56 (3211264)
I0329 14:44:26.533246  7688 net.cpp:157] Top shape: 16 64 56 56 (3211264)
I0329 14:44:26.533262  7688 net.cpp:165] Memory required for data: 253691840
I0329 14:44:26.533282  7688 layer_factory.hpp:77] Creating layer res2a_branch1
I0329 14:44:26.533324  7688 net.cpp:106] Creating Layer res2a_branch1
I0329 14:44:26.533370  7688 net.cpp:454] res2a_branch1 <- pool1_pool1_0_split_0
I0329 14:44:26.533396  7688 net.cpp:411] res2a_branch1 -> res2a_branch1
I0329 14:44:26.533772  7688 net.cpp:150] Setting up res2a_branch1
I0329 14:44:26.533808  7688 net.cpp:157] Top shape: 16 256 56 56 (12845056)
I0329 14:44:26.533826  7688 net.cpp:165] Memory required for data: 305072064
I0329 14:44:26.533850  7688 layer_factory.hpp:77] Creating layer bn2a_branch1
I0329 14:44:26.533875  7688 net.cpp:106] Creating Layer bn2a_branch1
I0329 14:44:26.533895  7688 net.cpp:454] bn2a_branch1 <- res2a_branch1
I0329 14:44:26.533917  7688 net.cpp:397] bn2a_branch1 -> res2a_branch1 (in-place)
I0329 14:44:26.535447  7688 net.cpp:150] Setting up bn2a_branch1
I0329 14:44:26.535493  7688 net.cpp:157] Top shape: 16 256 56 56 (12845056)
I0329 14:44:26.535514  7688 net.cpp:165] Memory required for data: 356452288
I0329 14:44:26.535553  7688 layer_factory.hpp:77] Creating layer scale2a_branch1
I0329 14:44:26.535581  7688 net.cpp:106] Creating Layer scale2a_branch1
I0329 14:44:26.535601  7688 net.cpp:454] scale2a_branch1 <- res2a_branch1
I0329 14:44:26.535624  7688 net.cpp:397] scale2a_branch1 -> res2a_branch1 (in-place)
I0329 14:44:26.535740  7688 layer_factory.hpp:77] Creating layer scale2a_branch1
I0329 14:44:26.536001  7688 net.cpp:150] Setting up scale2a_branch1
I0329 14:44:26.536036  7688 net.cpp:157] Top shape: 16 256 56 56 (12845056)
I0329 14:44:26.536069  7688 net.cpp:165] Memory required for data: 407832512
I0329 14:44:26.536115  7688 layer_factory.hpp:77] Creating layer res2a_branch2a
I0329 14:44:26.536156  7688 net.cpp:106] Creating Layer res2a_branch2a
I0329 14:44:26.536178  7688 net.cpp:454] res2a_branch2a <- pool1_pool1_0_split_1
I0329 14:44:26.536203  7688 net.cpp:411] res2a_branch2a -> res2a_branch2a
I0329 14:44:26.536610  7688 net.cpp:150] Setting up res2a_branch2a
I0329 14:44:26.536648  7688 net.cpp:157] Top shape: 16 64 56 56 (3211264)
I0329 14:44:26.536666  7688 net.cpp:165] Memory required for data: 420677568
I0329 14:44:26.536690  7688 layer_factory.hpp:77] Creating layer bn2a_branch2a
I0329 14:44:26.536731  7688 net.cpp:106] Creating Layer bn2a_branch2a
I0329 14:44:26.536754  7688 net.cpp:454] bn2a_branch2a <- res2a_branch2a
I0329 14:44:26.536777  7688 net.cpp:397] bn2a_branch2a -> res2a_branch2a (in-place)
I0329 14:44:26.537294  7688 net.cpp:150] Setting up bn2a_branch2a
I0329 14:44:26.537345  7688 net.cpp:157] Top shape: 16 64 56 56 (3211264)
I0329 14:44:26.537369  7688 net.cpp:165] Memory required for data: 433522624
I0329 14:44:26.537415  7688 layer_factory.hpp:77] Creating layer scale2a_branch2a
I0329 14:44:26.537443  7688 net.cpp:106] Creating Layer scale2a_branch2a
I0329 14:44:26.537462  7688 net.cpp:454] scale2a_branch2a <- res2a_branch2a
I0329 14:44:26.537487  7688 net.cpp:397] scale2a_branch2a -> res2a_branch2a (in-place)
I0329 14:44:26.537597  7688 layer_factory.hpp:77] Creating layer scale2a_branch2a
I0329 14:44:26.537884  7688 net.cpp:150] Setting up scale2a_branch2a
I0329 14:44:26.537919  7688 net.cpp:157] Top shape: 16 64 56 56 (3211264)
I0329 14:44:26.537937  7688 net.cpp:165] Memory required for data: 446367680
I0329 14:44:26.537964  7688 layer_factory.hpp:77] Creating layer res2a_branch2a_relu
I0329 14:44:26.537988  7688 net.cpp:106] Creating Layer res2a_branch2a_relu
I0329 14:44:26.538007  7688 net.cpp:454] res2a_branch2a_relu <- res2a_branch2a
I0329 14:44:26.538035  7688 net.cpp:397] res2a_branch2a_relu -> res2a_branch2a (in-place)
I0329 14:44:26.538064  7688 net.cpp:150] Setting up res2a_branch2a_relu
I0329 14:44:26.538085  7688 net.cpp:157] Top shape: 16 64 56 56 (3211264)
I0329 14:44:26.538103  7688 net.cpp:165] Memory required for data: 459212736
I0329 14:44:26.538121  7688 layer_factory.hpp:77] Creating layer res2a_branch2b
I0329 14:44:26.538149  7688 net.cpp:106] Creating Layer res2a_branch2b
I0329 14:44:26.538167  7688 net.cpp:454] res2a_branch2b <- res2a_branch2a
I0329 14:44:26.538197  7688 net.cpp:411] res2a_branch2b -> res2a_branch2b
I0329 14:44:26.539765  7688 net.cpp:150] Setting up res2a_branch2b
I0329 14:44:26.539809  7688 net.cpp:157] Top shape: 16 64 56 56 (3211264)
I0329 14:44:26.539829  7688 net.cpp:165] Memory required for data: 472057792
I0329 14:44:26.539854  7688 layer_factory.hpp:77] Creating layer bn2a_branch2b
I0329 14:44:26.539888  7688 net.cpp:106] Creating Layer bn2a_branch2b
I0329 14:44:26.539911  7688 net.cpp:454] bn2a_branch2b <- res2a_branch2b
I0329 14:44:26.539934  7688 net.cpp:397] bn2a_branch2b -> res2a_branch2b (in-place)
I0329 14:44:26.540354  7688 net.cpp:150] Setting up bn2a_branch2b
I0329 14:44:26.540390  7688 net.cpp:157] Top shape: 16 64 56 56 (3211264)
I0329 14:44:26.540408  7688 net.cpp:165] Memory required for data: 484902848
I0329 14:44:26.540438  7688 layer_factory.hpp:77] Creating layer scale2a_branch2b
I0329 14:44:26.540465  7688 net.cpp:106] Creating Layer scale2a_branch2b
I0329 14:44:26.540484  7688 net.cpp:454] scale2a_branch2b <- res2a_branch2b
I0329 14:44:26.540506  7688 net.cpp:397] scale2a_branch2b -> res2a_branch2b (in-place)
I0329 14:44:26.540619  7688 layer_factory.hpp:77] Creating layer scale2a_branch2b
I0329 14:44:26.540904  7688 net.cpp:150] Setting up scale2a_branch2b
I0329 14:44:26.540940  7688 net.cpp:157] Top shape: 16 64 56 56 (3211264)
I0329 14:44:26.540958  7688 net.cpp:165] Memory required for data: 497747904
I0329 14:44:26.540985  7688 layer_factory.hpp:77] Creating layer res2a_branch2b_relu
I0329 14:44:26.541012  7688 net.cpp:106] Creating Layer res2a_branch2b_relu
I0329 14:44:26.541045  7688 net.cpp:454] res2a_branch2b_relu <- res2a_branch2b
I0329 14:44:26.541087  7688 net.cpp:397] res2a_branch2b_relu -> res2a_branch2b (in-place)
I0329 14:44:26.541115  7688 net.cpp:150] Setting up res2a_branch2b_relu
I0329 14:44:26.541138  7688 net.cpp:157] Top shape: 16 64 56 56 (3211264)
I0329 14:44:26.541155  7688 net.cpp:165] Memory required for data: 510592960
I0329 14:44:26.541173  7688 layer_factory.hpp:77] Creating layer res2a_branch2c
I0329 14:44:26.541239  7688 net.cpp:106] Creating Layer res2a_branch2c
I0329 14:44:26.541265  7688 net.cpp:454] res2a_branch2c <- res2a_branch2b
I0329 14:44:26.541296  7688 net.cpp:411] res2a_branch2c -> res2a_branch2c
I0329 14:44:26.541713  7688 net.cpp:150] Setting up res2a_branch2c
I0329 14:44:26.541762  7688 net.cpp:157] Top shape: 16 256 56 56 (12845056)
I0329 14:44:26.541781  7688 net.cpp:165] Memory required for data: 561973184
I0329 14:44:26.541805  7688 layer_factory.hpp:77] Creating layer bn2a_branch2c
I0329 14:44:26.541831  7688 net.cpp:106] Creating Layer bn2a_branch2c
I0329 14:44:26.541851  7688 net.cpp:454] bn2a_branch2c <- res2a_branch2c
I0329 14:44:26.541872  7688 net.cpp:397] bn2a_branch2c -> res2a_branch2c (in-place)
I0329 14:44:26.542264  7688 net.cpp:150] Setting up bn2a_branch2c
I0329 14:44:26.542299  7688 net.cpp:157] Top shape: 16 256 56 56 (12845056)
I0329 14:44:26.542317  7688 net.cpp:165] Memory required for data: 613353408
I0329 14:44:26.542347  7688 layer_factory.hpp:77] Creating layer scale2a_branch2c
I0329 14:44:26.542381  7688 net.cpp:106] Creating Layer scale2a_branch2c
I0329 14:44:26.542402  7688 net.cpp:454] scale2a_branch2c <- res2a_branch2c
I0329 14:44:26.542424  7688 net.cpp:397] scale2a_branch2c -> res2a_branch2c (in-place)
I0329 14:44:26.542527  7688 layer_factory.hpp:77] Creating layer scale2a_branch2c
I0329 14:44:26.542806  7688 net.cpp:150] Setting up scale2a_branch2c
I0329 14:44:26.542841  7688 net.cpp:157] Top shape: 16 256 56 56 (12845056)
I0329 14:44:26.542860  7688 net.cpp:165] Memory required for data: 664733632
I0329 14:44:26.542886  7688 layer_factory.hpp:77] Creating layer res2a
I0329 14:44:26.542919  7688 net.cpp:106] Creating Layer res2a
I0329 14:44:26.542940  7688 net.cpp:454] res2a <- res2a_branch1
I0329 14:44:26.542966  7688 net.cpp:454] res2a <- res2a_branch2c
I0329 14:44:26.542991  7688 net.cpp:411] res2a -> res2a
I0329 14:44:26.543081  7688 net.cpp:150] Setting up res2a
I0329 14:44:26.543113  7688 net.cpp:157] Top shape: 16 256 56 56 (12845056)
I0329 14:44:26.543131  7688 net.cpp:165] Memory required for data: 716113856
I0329 14:44:26.543150  7688 layer_factory.hpp:77] Creating layer res2a_relu
I0329 14:44:26.543174  7688 net.cpp:106] Creating Layer res2a_relu
I0329 14:44:26.543192  7688 net.cpp:454] res2a_relu <- res2a
I0329 14:44:26.543215  7688 net.cpp:397] res2a_relu -> res2a (in-place)
I0329 14:44:26.543238  7688 net.cpp:150] Setting up res2a_relu
I0329 14:44:26.543262  7688 net.cpp:157] Top shape: 16 256 56 56 (12845056)
I0329 14:44:26.543278  7688 net.cpp:165] Memory required for data: 767494080
I0329 14:44:26.543296  7688 layer_factory.hpp:77] Creating layer res2a_res2a_relu_0_split
I0329 14:44:26.543328  7688 net.cpp:106] Creating Layer res2a_res2a_relu_0_split
I0329 14:44:26.543349  7688 net.cpp:454] res2a_res2a_relu_0_split <- res2a
I0329 14:44:26.543371  7688 net.cpp:411] res2a_res2a_relu_0_split -> res2a_res2a_relu_0_split_0
I0329 14:44:26.543396  7688 net.cpp:411] res2a_res2a_relu_0_split -> res2a_res2a_relu_0_split_1
I0329 14:44:26.543489  7688 net.cpp:150] Setting up res2a_res2a_relu_0_split
I0329 14:44:26.543520  7688 net.cpp:157] Top shape: 16 256 56 56 (12845056)
I0329 14:44:26.543541  7688 net.cpp:157] Top shape: 16 256 56 56 (12845056)
I0329 14:44:26.543560  7688 net.cpp:165] Memory required for data: 870254528
I0329 14:44:26.543577  7688 layer_factory.hpp:77] Creating layer res2b_branch2a
I0329 14:44:26.543606  7688 net.cpp:106] Creating Layer res2b_branch2a
I0329 14:44:26.543624  7688 net.cpp:454] res2b_branch2a <- res2a_res2a_relu_0_split_0
I0329 14:44:26.543648  7688 net.cpp:411] res2b_branch2a -> res2b_branch2a
I0329 14:44:26.544075  7688 net.cpp:150] Setting up res2b_branch2a
I0329 14:44:26.544117  7688 net.cpp:157] Top shape: 16 64 56 56 (3211264)
I0329 14:44:26.544137  7688 net.cpp:165] Memory required for data: 883099584
I0329 14:44:26.544160  7688 layer_factory.hpp:77] Creating layer bn2b_branch2a
I0329 14:44:26.544186  7688 net.cpp:106] Creating Layer bn2b_branch2a
I0329 14:44:26.544205  7688 net.cpp:454] bn2b_branch2a <- res2b_branch2a
I0329 14:44:26.544234  7688 net.cpp:397] bn2b_branch2a -> res2b_branch2a (in-place)
I0329 14:44:26.544646  7688 net.cpp:150] Setting up bn2b_branch2a
I0329 14:44:26.544680  7688 net.cpp:157] Top shape: 16 64 56 56 (3211264)
I0329 14:44:26.544699  7688 net.cpp:165] Memory required for data: 895944640
I0329 14:44:26.544747  7688 layer_factory.hpp:77] Creating layer scale2b_branch2a
I0329 14:44:26.544777  7688 net.cpp:106] Creating Layer scale2b_branch2a
I0329 14:44:26.544796  7688 net.cpp:454] scale2b_branch2a <- res2b_branch2a
I0329 14:44:26.544819  7688 net.cpp:397] scale2b_branch2a -> res2b_branch2a (in-place)
I0329 14:44:26.544927  7688 layer_factory.hpp:77] Creating layer scale2b_branch2a
I0329 14:44:26.545214  7688 net.cpp:150] Setting up scale2b_branch2a
I0329 14:44:26.545248  7688 net.cpp:157] Top shape: 16 64 56 56 (3211264)
I0329 14:44:26.545267  7688 net.cpp:165] Memory required for data: 908789696
I0329 14:44:26.545294  7688 layer_factory.hpp:77] Creating layer res2b_branch2a_relu
I0329 14:44:26.545317  7688 net.cpp:106] Creating Layer res2b_branch2a_relu
I0329 14:44:26.545357  7688 net.cpp:454] res2b_branch2a_relu <- res2b_branch2a
I0329 14:44:26.545390  7688 net.cpp:397] res2b_branch2a_relu -> res2b_branch2a (in-place)
I0329 14:44:26.545418  7688 net.cpp:150] Setting up res2b_branch2a_relu
I0329 14:44:26.545441  7688 net.cpp:157] Top shape: 16 64 56 56 (3211264)
I0329 14:44:26.545459  7688 net.cpp:165] Memory required for data: 921634752
I0329 14:44:26.545477  7688 layer_factory.hpp:77] Creating layer res2b_branch2b
I0329 14:44:26.545505  7688 net.cpp:106] Creating Layer res2b_branch2b
I0329 14:44:26.545523  7688 net.cpp:454] res2b_branch2b <- res2b_branch2a
I0329 14:44:26.545552  7688 net.cpp:411] res2b_branch2b -> res2b_branch2b
I0329 14:44:26.545990  7688 net.cpp:150] Setting up res2b_branch2b
I0329 14:44:26.546028  7688 net.cpp:157] Top shape: 16 64 56 56 (3211264)
I0329 14:44:26.546047  7688 net.cpp:165] Memory required for data: 934479808
I0329 14:44:26.546070  7688 layer_factory.hpp:77] Creating layer bn2b_branch2b
I0329 14:44:26.546102  7688 net.cpp:106] Creating Layer bn2b_branch2b
I0329 14:44:26.546123  7688 net.cpp:454] bn2b_branch2b <- res2b_branch2b
I0329 14:44:26.546145  7688 net.cpp:397] bn2b_branch2b -> res2b_branch2b (in-place)
I0329 14:44:26.546566  7688 net.cpp:150] Setting up bn2b_branch2b
I0329 14:44:26.546602  7688 net.cpp:157] Top shape: 16 64 56 56 (3211264)
I0329 14:44:26.546619  7688 net.cpp:165] Memory required for data: 947324864
I0329 14:44:26.546649  7688 layer_factory.hpp:77] Creating layer scale2b_branch2b
I0329 14:44:26.546681  7688 net.cpp:106] Creating Layer scale2b_branch2b
I0329 14:44:26.546702  7688 net.cpp:454] scale2b_branch2b <- res2b_branch2b
I0329 14:44:26.546725  7688 net.cpp:397] scale2b_branch2b -> res2b_branch2b (in-place)
I0329 14:44:26.546833  7688 layer_factory.hpp:77] Creating layer scale2b_branch2b
I0329 14:44:26.547117  7688 net.cpp:150] Setting up scale2b_branch2b
I0329 14:44:26.547152  7688 net.cpp:157] Top shape: 16 64 56 56 (3211264)
I0329 14:44:26.547171  7688 net.cpp:165] Memory required for data: 960169920
I0329 14:44:26.547197  7688 layer_factory.hpp:77] Creating layer res2b_branch2b_relu
I0329 14:44:26.547235  7688 net.cpp:106] Creating Layer res2b_branch2b_relu
I0329 14:44:26.547256  7688 net.cpp:454] res2b_branch2b_relu <- res2b_branch2b
I0329 14:44:26.547284  7688 net.cpp:397] res2b_branch2b_relu -> res2b_branch2b (in-place)
I0329 14:44:26.547312  7688 net.cpp:150] Setting up res2b_branch2b_relu
I0329 14:44:26.547335  7688 net.cpp:157] Top shape: 16 64 56 56 (3211264)
I0329 14:44:26.547369  7688 net.cpp:165] Memory required for data: 973014976
I0329 14:44:26.547407  7688 layer_factory.hpp:77] Creating layer res2b_branch2c
I0329 14:44:26.547436  7688 net.cpp:106] Creating Layer res2b_branch2c
I0329 14:44:26.547456  7688 net.cpp:454] res2b_branch2c <- res2b_branch2b
I0329 14:44:26.547487  7688 net.cpp:411] res2b_branch2c -> res2b_branch2c
I0329 14:44:26.547899  7688 net.cpp:150] Setting up res2b_branch2c
I0329 14:44:26.547936  7688 net.cpp:157] Top shape: 16 256 56 56 (12845056)
I0329 14:44:26.547955  7688 net.cpp:165] Memory required for data: 1024395200
I0329 14:44:26.547978  7688 layer_factory.hpp:77] Creating layer bn2b_branch2c
I0329 14:44:26.548010  7688 net.cpp:106] Creating Layer bn2b_branch2c
I0329 14:44:26.548030  7688 net.cpp:454] bn2b_branch2c <- res2b_branch2c
I0329 14:44:26.548053  7688 net.cpp:397] bn2b_branch2c -> res2b_branch2c (in-place)
I0329 14:44:26.548451  7688 net.cpp:150] Setting up bn2b_branch2c
I0329 14:44:26.548486  7688 net.cpp:157] Top shape: 16 256 56 56 (12845056)
I0329 14:44:26.548504  7688 net.cpp:165] Memory required for data: 1075775424
I0329 14:44:26.548534  7688 layer_factory.hpp:77] Creating layer scale2b_branch2c
I0329 14:44:26.548566  7688 net.cpp:106] Creating Layer scale2b_branch2c
I0329 14:44:26.548588  7688 net.cpp:454] scale2b_branch2c <- res2b_branch2c
I0329 14:44:26.548610  7688 net.cpp:397] scale2b_branch2c -> res2b_branch2c (in-place)
I0329 14:44:26.548715  7688 layer_factory.hpp:77] Creating layer scale2b_branch2c
I0329 14:44:26.548990  7688 net.cpp:150] Setting up scale2b_branch2c
I0329 14:44:26.549024  7688 net.cpp:157] Top shape: 16 256 56 56 (12845056)
I0329 14:44:26.549043  7688 net.cpp:165] Memory required for data: 1127155648
I0329 14:44:26.549069  7688 layer_factory.hpp:77] Creating layer res2b
I0329 14:44:26.549094  7688 net.cpp:106] Creating Layer res2b
I0329 14:44:26.549114  7688 net.cpp:454] res2b <- res2a_res2a_relu_0_split_1
I0329 14:44:26.549135  7688 net.cpp:454] res2b <- res2b_branch2c
I0329 14:44:26.549157  7688 net.cpp:411] res2b -> res2b
I0329 14:44:26.549230  7688 net.cpp:150] Setting up res2b
I0329 14:44:26.549263  7688 net.cpp:157] Top shape: 16 256 56 56 (12845056)
I0329 14:44:26.549281  7688 net.cpp:165] Memory required for data: 1178535872
I0329 14:44:26.549299  7688 layer_factory.hpp:77] Creating layer res2b_relu
I0329 14:44:26.549329  7688 net.cpp:106] Creating Layer res2b_relu
I0329 14:44:26.549368  7688 net.cpp:454] res2b_relu <- res2b
I0329 14:44:26.549391  7688 net.cpp:397] res2b_relu -> res2b (in-place)
I0329 14:44:26.549417  7688 net.cpp:150] Setting up res2b_relu
I0329 14:44:26.549439  7688 net.cpp:157] Top shape: 16 256 56 56 (12845056)
I0329 14:44:26.549456  7688 net.cpp:165] Memory required for data: 1229916096
I0329 14:44:26.549474  7688 layer_factory.hpp:77] Creating layer res2b_res2b_relu_0_split
I0329 14:44:26.549496  7688 net.cpp:106] Creating Layer res2b_res2b_relu_0_split
I0329 14:44:26.549515  7688 net.cpp:454] res2b_res2b_relu_0_split <- res2b
I0329 14:44:26.549542  7688 net.cpp:411] res2b_res2b_relu_0_split -> res2b_res2b_relu_0_split_0
I0329 14:44:26.549568  7688 net.cpp:411] res2b_res2b_relu_0_split -> res2b_res2b_relu_0_split_1
I0329 14:44:26.549685  7688 net.cpp:150] Setting up res2b_res2b_relu_0_split
I0329 14:44:26.549718  7688 net.cpp:157] Top shape: 16 256 56 56 (12845056)
I0329 14:44:26.549739  7688 net.cpp:157] Top shape: 16 256 56 56 (12845056)
I0329 14:44:26.549757  7688 net.cpp:165] Memory required for data: 1332676544
I0329 14:44:26.549780  7688 layer_factory.hpp:77] Creating layer res2c_branch2a
I0329 14:44:26.549816  7688 net.cpp:106] Creating Layer res2c_branch2a
I0329 14:44:26.549839  7688 net.cpp:454] res2c_branch2a <- res2b_res2b_relu_0_split_0
I0329 14:44:26.549863  7688 net.cpp:411] res2c_branch2a -> res2c_branch2a
I0329 14:44:26.550293  7688 net.cpp:150] Setting up res2c_branch2a
I0329 14:44:26.550329  7688 net.cpp:157] Top shape: 16 64 56 56 (3211264)
I0329 14:44:26.550348  7688 net.cpp:165] Memory required for data: 1345521600
I0329 14:44:26.550372  7688 layer_factory.hpp:77] Creating layer bn2c_branch2a
I0329 14:44:26.550436  7688 net.cpp:106] Creating Layer bn2c_branch2a
I0329 14:44:26.550457  7688 net.cpp:454] bn2c_branch2a <- res2c_branch2a
I0329 14:44:26.550480  7688 net.cpp:397] bn2c_branch2a -> res2c_branch2a (in-place)
I0329 14:44:26.550902  7688 net.cpp:150] Setting up bn2c_branch2a
I0329 14:44:26.550936  7688 net.cpp:157] Top shape: 16 64 56 56 (3211264)
I0329 14:44:26.550956  7688 net.cpp:165] Memory required for data: 1358366656
I0329 14:44:26.550986  7688 layer_factory.hpp:77] Creating layer scale2c_branch2a
I0329 14:44:26.551012  7688 net.cpp:106] Creating Layer scale2c_branch2a
I0329 14:44:26.551031  7688 net.cpp:454] scale2c_branch2a <- res2c_branch2a
I0329 14:44:26.551054  7688 net.cpp:397] scale2c_branch2a -> res2c_branch2a (in-place)
I0329 14:44:26.553125  7688 layer_factory.hpp:77] Creating layer scale2c_branch2a
I0329 14:44:26.553432  7688 net.cpp:150] Setting up scale2c_branch2a
I0329 14:44:26.553470  7688 net.cpp:157] Top shape: 16 64 56 56 (3211264)
I0329 14:44:26.553489  7688 net.cpp:165] Memory required for data: 1371211712
I0329 14:44:26.553515  7688 layer_factory.hpp:77] Creating layer res2c_branch2a_relu
I0329 14:44:26.553539  7688 net.cpp:106] Creating Layer res2c_branch2a_relu
I0329 14:44:26.553558  7688 net.cpp:454] res2c_branch2a_relu <- res2c_branch2a
I0329 14:44:26.553580  7688 net.cpp:397] res2c_branch2a_relu -> res2c_branch2a (in-place)
I0329 14:44:26.553606  7688 net.cpp:150] Setting up res2c_branch2a_relu
I0329 14:44:26.553628  7688 net.cpp:157] Top shape: 16 64 56 56 (3211264)
I0329 14:44:26.553647  7688 net.cpp:165] Memory required for data: 1384056768
I0329 14:44:26.553664  7688 layer_factory.hpp:77] Creating layer res2c_branch2b
I0329 14:44:26.553697  7688 net.cpp:106] Creating Layer res2c_branch2b
I0329 14:44:26.553719  7688 net.cpp:454] res2c_branch2b <- res2c_branch2a
I0329 14:44:26.553752  7688 net.cpp:411] res2c_branch2b -> res2c_branch2b
I0329 14:44:26.554190  7688 net.cpp:150] Setting up res2c_branch2b
I0329 14:44:26.554229  7688 net.cpp:157] Top shape: 16 64 56 56 (3211264)
I0329 14:44:26.554247  7688 net.cpp:165] Memory required for data: 1396901824
I0329 14:44:26.554270  7688 layer_factory.hpp:77] Creating layer bn2c_branch2b
I0329 14:44:26.554296  7688 net.cpp:106] Creating Layer bn2c_branch2b
I0329 14:44:26.554316  7688 net.cpp:454] bn2c_branch2b <- res2c_branch2b
I0329 14:44:26.554338  7688 net.cpp:397] bn2c_branch2b -> res2c_branch2b (in-place)
I0329 14:44:26.554766  7688 net.cpp:150] Setting up bn2c_branch2b
I0329 14:44:26.554800  7688 net.cpp:157] Top shape: 16 64 56 56 (3211264)
I0329 14:44:26.554819  7688 net.cpp:165] Memory required for data: 1409746880
I0329 14:44:26.554848  7688 layer_factory.hpp:77] Creating layer scale2c_branch2b
I0329 14:44:26.554874  7688 net.cpp:106] Creating Layer scale2c_branch2b
I0329 14:44:26.554893  7688 net.cpp:454] scale2c_branch2b <- res2c_branch2b
I0329 14:44:26.554916  7688 net.cpp:397] scale2c_branch2b -> res2c_branch2b (in-place)
I0329 14:44:26.555027  7688 layer_factory.hpp:77] Creating layer scale2c_branch2b
I0329 14:44:26.555305  7688 net.cpp:150] Setting up scale2c_branch2b
I0329 14:44:26.555341  7688 net.cpp:157] Top shape: 16 64 56 56 (3211264)
I0329 14:44:26.555358  7688 net.cpp:165] Memory required for data: 1422591936
I0329 14:44:26.555385  7688 layer_factory.hpp:77] Creating layer res2c_branch2b_relu
I0329 14:44:26.555415  7688 net.cpp:106] Creating Layer res2c_branch2b_relu
I0329 14:44:26.555438  7688 net.cpp:454] res2c_branch2b_relu <- res2c_branch2b
I0329 14:44:26.555459  7688 net.cpp:397] res2c_branch2b_relu -> res2c_branch2b (in-place)
I0329 14:44:26.555485  7688 net.cpp:150] Setting up res2c_branch2b_relu
I0329 14:44:26.555506  7688 net.cpp:157] Top shape: 16 64 56 56 (3211264)
I0329 14:44:26.555524  7688 net.cpp:165] Memory required for data: 1435436992
I0329 14:44:26.555542  7688 layer_factory.hpp:77] Creating layer res2c_branch2c
I0329 14:44:26.555574  7688 net.cpp:106] Creating Layer res2c_branch2c
I0329 14:44:26.555595  7688 net.cpp:454] res2c_branch2c <- res2c_branch2b
I0329 14:44:26.555631  7688 net.cpp:411] res2c_branch2c -> res2c_branch2c
I0329 14:44:26.556064  7688 net.cpp:150] Setting up res2c_branch2c
I0329 14:44:26.556102  7688 net.cpp:157] Top shape: 16 256 56 56 (12845056)
I0329 14:44:26.556124  7688 net.cpp:165] Memory required for data: 1486817216
I0329 14:44:26.556149  7688 layer_factory.hpp:77] Creating layer bn2c_branch2c
I0329 14:44:26.556180  7688 net.cpp:106] Creating Layer bn2c_branch2c
I0329 14:44:26.556200  7688 net.cpp:454] bn2c_branch2c <- res2c_branch2c
I0329 14:44:26.556222  7688 net.cpp:397] bn2c_branch2c -> res2c_branch2c (in-place)
I0329 14:44:26.556613  7688 net.cpp:150] Setting up bn2c_branch2c
I0329 14:44:26.556648  7688 net.cpp:157] Top shape: 16 256 56 56 (12845056)
I0329 14:44:26.556666  7688 net.cpp:165] Memory required for data: 1538197440
I0329 14:44:26.556717  7688 layer_factory.hpp:77] Creating layer scale2c_branch2c
I0329 14:44:26.556751  7688 net.cpp:106] Creating Layer scale2c_branch2c
I0329 14:44:26.556772  7688 net.cpp:454] scale2c_branch2c <- res2c_branch2c
I0329 14:44:26.556797  7688 net.cpp:397] scale2c_branch2c -> res2c_branch2c (in-place)
I0329 14:44:26.556903  7688 layer_factory.hpp:77] Creating layer scale2c_branch2c
I0329 14:44:26.557170  7688 net.cpp:150] Setting up scale2c_branch2c
I0329 14:44:26.557210  7688 net.cpp:157] Top shape: 16 256 56 56 (12845056)
I0329 14:44:26.557230  7688 net.cpp:165] Memory required for data: 1589577664
I0329 14:44:26.557257  7688 layer_factory.hpp:77] Creating layer res2c
I0329 14:44:26.557282  7688 net.cpp:106] Creating Layer res2c
I0329 14:44:26.557301  7688 net.cpp:454] res2c <- res2b_res2b_relu_0_split_1
I0329 14:44:26.557322  7688 net.cpp:454] res2c <- res2c_branch2c
I0329 14:44:26.557373  7688 net.cpp:411] res2c -> res2c
I0329 14:44:26.557448  7688 net.cpp:150] Setting up res2c
I0329 14:44:26.557479  7688 net.cpp:157] Top shape: 16 256 56 56 (12845056)
I0329 14:44:26.557497  7688 net.cpp:165] Memory required for data: 1640957888
I0329 14:44:26.557517  7688 layer_factory.hpp:77] Creating layer res2c_relu
I0329 14:44:26.557543  7688 net.cpp:106] Creating Layer res2c_relu
I0329 14:44:26.557564  7688 net.cpp:454] res2c_relu <- res2c
I0329 14:44:26.557585  7688 net.cpp:397] res2c_relu -> res2c (in-place)
I0329 14:44:26.557610  7688 net.cpp:150] Setting up res2c_relu
I0329 14:44:26.557632  7688 net.cpp:157] Top shape: 16 256 56 56 (12845056)
I0329 14:44:26.557649  7688 net.cpp:165] Memory required for data: 1692338112
I0329 14:44:26.557667  7688 layer_factory.hpp:77] Creating layer res2c_res2c_relu_0_split
I0329 14:44:26.557689  7688 net.cpp:106] Creating Layer res2c_res2c_relu_0_split
I0329 14:44:26.557708  7688 net.cpp:454] res2c_res2c_relu_0_split <- res2c
I0329 14:44:26.557729  7688 net.cpp:411] res2c_res2c_relu_0_split -> res2c_res2c_relu_0_split_0
I0329 14:44:26.557765  7688 net.cpp:411] res2c_res2c_relu_0_split -> res2c_res2c_relu_0_split_1
I0329 14:44:26.557796  7688 net.cpp:411] res2c_res2c_relu_0_split -> res2c_res2c_relu_0_split_2
I0329 14:44:26.557822  7688 net.cpp:411] res2c_res2c_relu_0_split -> res2c_res2c_relu_0_split_3
I0329 14:44:26.557956  7688 net.cpp:150] Setting up res2c_res2c_relu_0_split
I0329 14:44:26.557988  7688 net.cpp:157] Top shape: 16 256 56 56 (12845056)
I0329 14:44:26.558010  7688 net.cpp:157] Top shape: 16 256 56 56 (12845056)
I0329 14:44:26.558032  7688 net.cpp:157] Top shape: 16 256 56 56 (12845056)
I0329 14:44:26.558050  7688 net.cpp:157] Top shape: 16 256 56 56 (12845056)
I0329 14:44:26.558068  7688 net.cpp:165] Memory required for data: 1897859008
I0329 14:44:26.558086  7688 layer_factory.hpp:77] Creating layer res3a_branch1
I0329 14:44:26.558120  7688 net.cpp:106] Creating Layer res3a_branch1
I0329 14:44:26.558142  7688 net.cpp:454] res3a_branch1 <- res2c_res2c_relu_0_split_0
I0329 14:44:26.558172  7688 net.cpp:411] res3a_branch1 -> res3a_branch1
I0329 14:44:26.559916  7688 net.cpp:150] Setting up res3a_branch1
I0329 14:44:26.559959  7688 net.cpp:157] Top shape: 16 512 28 28 (6422528)
I0329 14:44:26.559978  7688 net.cpp:165] Memory required for data: 1923549120
I0329 14:44:26.560017  7688 layer_factory.hpp:77] Creating layer bn3a_branch1
I0329 14:44:26.560070  7688 net.cpp:106] Creating Layer bn3a_branch1
I0329 14:44:26.560093  7688 net.cpp:454] bn3a_branch1 <- res3a_branch1
I0329 14:44:26.560117  7688 net.cpp:397] bn3a_branch1 -> res3a_branch1 (in-place)
I0329 14:44:26.560533  7688 net.cpp:150] Setting up bn3a_branch1
I0329 14:44:26.560567  7688 net.cpp:157] Top shape: 16 512 28 28 (6422528)
I0329 14:44:26.560586  7688 net.cpp:165] Memory required for data: 1949239232
I0329 14:44:26.560617  7688 layer_factory.hpp:77] Creating layer scale3a_branch1
I0329 14:44:26.560643  7688 net.cpp:106] Creating Layer scale3a_branch1
I0329 14:44:26.560662  7688 net.cpp:454] scale3a_branch1 <- res3a_branch1
I0329 14:44:26.560694  7688 net.cpp:397] scale3a_branch1 -> res3a_branch1 (in-place)
I0329 14:44:26.560801  7688 layer_factory.hpp:77] Creating layer scale3a_branch1
I0329 14:44:26.561067  7688 net.cpp:150] Setting up scale3a_branch1
I0329 14:44:26.561108  7688 net.cpp:157] Top shape: 16 512 28 28 (6422528)
I0329 14:44:26.561128  7688 net.cpp:165] Memory required for data: 1974929344
I0329 14:44:26.561154  7688 layer_factory.hpp:77] Creating layer res3a_branch2a
I0329 14:44:26.561182  7688 net.cpp:106] Creating Layer res3a_branch2a
I0329 14:44:26.561203  7688 net.cpp:454] res3a_branch2a <- res2c_res2c_relu_0_split_1
I0329 14:44:26.561233  7688 net.cpp:411] res3a_branch2a -> res3a_branch2a
I0329 14:44:26.561699  7688 net.cpp:150] Setting up res3a_branch2a
I0329 14:44:26.561738  7688 net.cpp:157] Top shape: 16 128 28 28 (1605632)
I0329 14:44:26.561758  7688 net.cpp:165] Memory required for data: 1981351872
I0329 14:44:26.561785  7688 layer_factory.hpp:77] Creating layer bn3a_branch2a
I0329 14:44:26.561816  7688 net.cpp:106] Creating Layer bn3a_branch2a
I0329 14:44:26.561838  7688 net.cpp:454] bn3a_branch2a <- res3a_branch2a
I0329 14:44:26.561861  7688 net.cpp:397] bn3a_branch2a -> res3a_branch2a (in-place)
I0329 14:44:26.562258  7688 net.cpp:150] Setting up bn3a_branch2a
I0329 14:44:26.562294  7688 net.cpp:157] Top shape: 16 128 28 28 (1605632)
I0329 14:44:26.562312  7688 net.cpp:165] Memory required for data: 1987774400
I0329 14:44:26.562343  7688 layer_factory.hpp:77] Creating layer scale3a_branch2a
I0329 14:44:26.562369  7688 net.cpp:106] Creating Layer scale3a_branch2a
I0329 14:44:26.562389  7688 net.cpp:454] scale3a_branch2a <- res3a_branch2a
I0329 14:44:26.562417  7688 net.cpp:397] scale3a_branch2a -> res3a_branch2a (in-place)
I0329 14:44:26.562518  7688 layer_factory.hpp:77] Creating layer scale3a_branch2a
I0329 14:44:26.562773  7688 net.cpp:150] Setting up scale3a_branch2a
I0329 14:44:26.562808  7688 net.cpp:157] Top shape: 16 128 28 28 (1605632)
I0329 14:44:26.562826  7688 net.cpp:165] Memory required for data: 1994196928
I0329 14:44:26.562852  7688 layer_factory.hpp:77] Creating layer res3a_branch2a_relu
I0329 14:44:26.562883  7688 net.cpp:106] Creating Layer res3a_branch2a_relu
I0329 14:44:26.562904  7688 net.cpp:454] res3a_branch2a_relu <- res3a_branch2a
I0329 14:44:26.562927  7688 net.cpp:397] res3a_branch2a_relu -> res3a_branch2a (in-place)
I0329 14:44:26.562952  7688 net.cpp:150] Setting up res3a_branch2a_relu
I0329 14:44:26.562974  7688 net.cpp:157] Top shape: 16 128 28 28 (1605632)
I0329 14:44:26.562996  7688 net.cpp:165] Memory required for data: 2000619456
I0329 14:44:26.563014  7688 layer_factory.hpp:77] Creating layer res3a_branch2b
I0329 14:44:26.563047  7688 net.cpp:106] Creating Layer res3a_branch2b
I0329 14:44:26.563068  7688 net.cpp:454] res3a_branch2b <- res3a_branch2a
I0329 14:44:26.563092  7688 net.cpp:411] res3a_branch2b -> res3a_branch2b
I0329 14:44:26.564859  7688 net.cpp:150] Setting up res3a_branch2b
I0329 14:44:26.564903  7688 net.cpp:157] Top shape: 16 128 28 28 (1605632)
I0329 14:44:26.564923  7688 net.cpp:165] Memory required for data: 2007041984
I0329 14:44:26.564947  7688 layer_factory.hpp:77] Creating layer bn3a_branch2b
I0329 14:44:26.564973  7688 net.cpp:106] Creating Layer bn3a_branch2b
I0329 14:44:26.564995  7688 net.cpp:454] bn3a_branch2b <- res3a_branch2b
I0329 14:44:26.565037  7688 net.cpp:397] bn3a_branch2b -> res3a_branch2b (in-place)
I0329 14:44:26.565479  7688 net.cpp:150] Setting up bn3a_branch2b
I0329 14:44:26.565515  7688 net.cpp:157] Top shape: 16 128 28 28 (1605632)
I0329 14:44:26.565534  7688 net.cpp:165] Memory required for data: 2013464512
I0329 14:44:26.565564  7688 layer_factory.hpp:77] Creating layer scale3a_branch2b
I0329 14:44:26.565592  7688 net.cpp:106] Creating Layer scale3a_branch2b
I0329 14:44:26.565610  7688 net.cpp:454] scale3a_branch2b <- res3a_branch2b
I0329 14:44:26.565634  7688 net.cpp:397] scale3a_branch2b -> res3a_branch2b (in-place)
I0329 14:44:26.565740  7688 layer_factory.hpp:77] Creating layer scale3a_branch2b
I0329 14:44:26.566007  7688 net.cpp:150] Setting up scale3a_branch2b
I0329 14:44:26.566046  7688 net.cpp:157] Top shape: 16 128 28 28 (1605632)
I0329 14:44:26.566066  7688 net.cpp:165] Memory required for data: 2019887040
I0329 14:44:26.566092  7688 layer_factory.hpp:77] Creating layer res3a_branch2b_relu
I0329 14:44:26.566117  7688 net.cpp:106] Creating Layer res3a_branch2b_relu
I0329 14:44:26.566135  7688 net.cpp:454] res3a_branch2b_relu <- res3a_branch2b
I0329 14:44:26.566164  7688 net.cpp:397] res3a_branch2b_relu -> res3a_branch2b (in-place)
I0329 14:44:26.566190  7688 net.cpp:150] Setting up res3a_branch2b_relu
I0329 14:44:26.566213  7688 net.cpp:157] Top shape: 16 128 28 28 (1605632)
I0329 14:44:26.566231  7688 net.cpp:165] Memory required for data: 2026309568
I0329 14:44:26.566249  7688 layer_factory.hpp:77] Creating layer res3a_branch2c
I0329 14:44:26.566293  7688 net.cpp:106] Creating Layer res3a_branch2c
I0329 14:44:26.566315  7688 net.cpp:454] res3a_branch2c <- res3a_branch2b
I0329 14:44:26.566345  7688 net.cpp:411] res3a_branch2c -> res3a_branch2c
I0329 14:44:26.566872  7688 net.cpp:150] Setting up res3a_branch2c
I0329 14:44:26.566910  7688 net.cpp:157] Top shape: 16 512 28 28 (6422528)
I0329 14:44:26.566928  7688 net.cpp:165] Memory required for data: 2051999680
I0329 14:44:26.566953  7688 layer_factory.hpp:77] Creating layer bn3a_branch2c
I0329 14:44:26.566978  7688 net.cpp:106] Creating Layer bn3a_branch2c
I0329 14:44:26.566998  7688 net.cpp:454] bn3a_branch2c <- res3a_branch2c
I0329 14:44:26.567021  7688 net.cpp:397] bn3a_branch2c -> res3a_branch2c (in-place)
I0329 14:44:26.567451  7688 net.cpp:150] Setting up bn3a_branch2c
I0329 14:44:26.567487  7688 net.cpp:157] Top shape: 16 512 28 28 (6422528)
I0329 14:44:26.567507  7688 net.cpp:165] Memory required for data: 2077689792
I0329 14:44:26.567538  7688 layer_factory.hpp:77] Creating layer scale3a_branch2c
I0329 14:44:26.567576  7688 net.cpp:106] Creating Layer scale3a_branch2c
I0329 14:44:26.567598  7688 net.cpp:454] scale3a_branch2c <- res3a_branch2c
I0329 14:44:26.567621  7688 net.cpp:397] scale3a_branch2c -> res3a_branch2c (in-place)
I0329 14:44:26.567735  7688 layer_factory.hpp:77] Creating layer scale3a_branch2c
I0329 14:44:26.567997  7688 net.cpp:150] Setting up scale3a_branch2c
I0329 14:44:26.568032  7688 net.cpp:157] Top shape: 16 512 28 28 (6422528)
I0329 14:44:26.568050  7688 net.cpp:165] Memory required for data: 2103379904
I0329 14:44:26.568076  7688 layer_factory.hpp:77] Creating layer res3a
I0329 14:44:26.568101  7688 net.cpp:106] Creating Layer res3a
I0329 14:44:26.568120  7688 net.cpp:454] res3a <- res3a_branch1
I0329 14:44:26.568147  7688 net.cpp:454] res3a <- res3a_branch2c
I0329 14:44:26.568171  7688 net.cpp:411] res3a -> res3a
I0329 14:44:26.568253  7688 net.cpp:150] Setting up res3a
I0329 14:44:26.568287  7688 net.cpp:157] Top shape: 16 512 28 28 (6422528)
I0329 14:44:26.568305  7688 net.cpp:165] Memory required for data: 2129070016
I0329 14:44:26.568325  7688 layer_factory.hpp:77] Creating layer res3a_relu
I0329 14:44:26.568347  7688 net.cpp:106] Creating Layer res3a_relu
I0329 14:44:26.568367  7688 net.cpp:454] res3a_relu <- res3a
I0329 14:44:26.568395  7688 net.cpp:397] res3a_relu -> res3a (in-place)
I0329 14:44:26.568423  7688 net.cpp:150] Setting up res3a_relu
I0329 14:44:26.568445  7688 net.cpp:157] Top shape: 16 512 28 28 (6422528)
I0329 14:44:26.568475  7688 net.cpp:165] Memory required for data: 2154760128
I0329 14:44:26.568513  7688 layer_factory.hpp:77] Creating layer res3a_res3a_relu_0_split
I0329 14:44:26.568537  7688 net.cpp:106] Creating Layer res3a_res3a_relu_0_split
I0329 14:44:26.568555  7688 net.cpp:454] res3a_res3a_relu_0_split <- res3a
I0329 14:44:26.568578  7688 net.cpp:411] res3a_res3a_relu_0_split -> res3a_res3a_relu_0_split_0
I0329 14:44:26.568604  7688 net.cpp:411] res3a_res3a_relu_0_split -> res3a_res3a_relu_0_split_1
I0329 14:44:26.568698  7688 net.cpp:150] Setting up res3a_res3a_relu_0_split
I0329 14:44:26.568730  7688 net.cpp:157] Top shape: 16 512 28 28 (6422528)
I0329 14:44:26.568752  7688 net.cpp:157] Top shape: 16 512 28 28 (6422528)
I0329 14:44:26.568769  7688 net.cpp:165] Memory required for data: 2206140352
I0329 14:44:26.568788  7688 layer_factory.hpp:77] Creating layer res3b_branch2a
I0329 14:44:26.568814  7688 net.cpp:106] Creating Layer res3b_branch2a
I0329 14:44:26.568840  7688 net.cpp:454] res3b_branch2a <- res3a_res3a_relu_0_split_0
I0329 14:44:26.568871  7688 net.cpp:411] res3b_branch2a -> res3b_branch2a
I0329 14:44:26.570519  7688 net.cpp:150] Setting up res3b_branch2a
I0329 14:44:26.570564  7688 net.cpp:157] Top shape: 16 128 28 28 (1605632)
I0329 14:44:26.570583  7688 net.cpp:165] Memory required for data: 2212562880
I0329 14:44:26.570607  7688 layer_factory.hpp:77] Creating layer bn3b_branch2a
I0329 14:44:26.570632  7688 net.cpp:106] Creating Layer bn3b_branch2a
I0329 14:44:26.570653  7688 net.cpp:454] bn3b_branch2a <- res3b_branch2a
I0329 14:44:26.570677  7688 net.cpp:397] bn3b_branch2a -> res3b_branch2a (in-place)
I0329 14:44:26.571077  7688 net.cpp:150] Setting up bn3b_branch2a
I0329 14:44:26.571112  7688 net.cpp:157] Top shape: 16 128 28 28 (1605632)
I0329 14:44:26.571131  7688 net.cpp:165] Memory required for data: 2218985408
I0329 14:44:26.571173  7688 layer_factory.hpp:77] Creating layer scale3b_branch2a
I0329 14:44:26.571202  7688 net.cpp:106] Creating Layer scale3b_branch2a
I0329 14:44:26.571223  7688 net.cpp:454] scale3b_branch2a <- res3b_branch2a
I0329 14:44:26.571245  7688 net.cpp:397] scale3b_branch2a -> res3b_branch2a (in-place)
I0329 14:44:26.571352  7688 layer_factory.hpp:77] Creating layer scale3b_branch2a
I0329 14:44:26.571624  7688 net.cpp:150] Setting up scale3b_branch2a
I0329 14:44:26.571663  7688 net.cpp:157] Top shape: 16 128 28 28 (1605632)
I0329 14:44:26.571683  7688 net.cpp:165] Memory required for data: 2225407936
I0329 14:44:26.571710  7688 layer_factory.hpp:77] Creating layer res3b_branch2a_relu
I0329 14:44:26.571740  7688 net.cpp:106] Creating Layer res3b_branch2a_relu
I0329 14:44:26.571761  7688 net.cpp:454] res3b_branch2a_relu <- res3b_branch2a
I0329 14:44:26.571784  7688 net.cpp:397] res3b_branch2a_relu -> res3b_branch2a (in-place)
I0329 14:44:26.571810  7688 net.cpp:150] Setting up res3b_branch2a_relu
I0329 14:44:26.571831  7688 net.cpp:157] Top shape: 16 128 28 28 (1605632)
I0329 14:44:26.571849  7688 net.cpp:165] Memory required for data: 2231830464
I0329 14:44:26.571867  7688 layer_factory.hpp:77] Creating layer res3b_branch2b
I0329 14:44:26.571900  7688 net.cpp:106] Creating Layer res3b_branch2b
I0329 14:44:26.571923  7688 net.cpp:454] res3b_branch2b <- res3b_branch2a
I0329 14:44:26.571945  7688 net.cpp:411] res3b_branch2b -> res3b_branch2b
I0329 14:44:26.573740  7688 net.cpp:150] Setting up res3b_branch2b
I0329 14:44:26.573783  7688 net.cpp:157] Top shape: 16 128 28 28 (1605632)
I0329 14:44:26.573802  7688 net.cpp:165] Memory required for data: 2238252992
I0329 14:44:26.573827  7688 layer_factory.hpp:77] Creating layer bn3b_branch2b
I0329 14:44:26.573851  7688 net.cpp:106] Creating Layer bn3b_branch2b
I0329 14:44:26.573873  7688 net.cpp:454] bn3b_branch2b <- res3b_branch2b
I0329 14:44:26.573894  7688 net.cpp:397] bn3b_branch2b -> res3b_branch2b (in-place)
I0329 14:44:26.574309  7688 net.cpp:150] Setting up bn3b_branch2b
I0329 14:44:26.574344  7688 net.cpp:157] Top shape: 16 128 28 28 (1605632)
I0329 14:44:26.574363  7688 net.cpp:165] Memory required for data: 2244675520
I0329 14:44:26.574409  7688 layer_factory.hpp:77] Creating layer scale3b_branch2b
I0329 14:44:26.574465  7688 net.cpp:106] Creating Layer scale3b_branch2b
I0329 14:44:26.574492  7688 net.cpp:454] scale3b_branch2b <- res3b_branch2b
I0329 14:44:26.574517  7688 net.cpp:397] scale3b_branch2b -> res3b_branch2b (in-place)
I0329 14:44:26.574627  7688 layer_factory.hpp:77] Creating layer scale3b_branch2b
I0329 14:44:26.574903  7688 net.cpp:150] Setting up scale3b_branch2b
I0329 14:44:26.574937  7688 net.cpp:157] Top shape: 16 128 28 28 (1605632)
I0329 14:44:26.574956  7688 net.cpp:165] Memory required for data: 2251098048
I0329 14:44:26.574982  7688 layer_factory.hpp:77] Creating layer res3b_branch2b_relu
I0329 14:44:26.575006  7688 net.cpp:106] Creating Layer res3b_branch2b_relu
I0329 14:44:26.575026  7688 net.cpp:454] res3b_branch2b_relu <- res3b_branch2b
I0329 14:44:26.575054  7688 net.cpp:397] res3b_branch2b_relu -> res3b_branch2b (in-place)
I0329 14:44:26.575081  7688 net.cpp:150] Setting up res3b_branch2b_relu
I0329 14:44:26.575104  7688 net.cpp:157] Top shape: 16 128 28 28 (1605632)
I0329 14:44:26.575121  7688 net.cpp:165] Memory required for data: 2257520576
I0329 14:44:26.575140  7688 layer_factory.hpp:77] Creating layer res3b_branch2c
I0329 14:44:26.575173  7688 net.cpp:106] Creating Layer res3b_branch2c
I0329 14:44:26.575193  7688 net.cpp:454] res3b_branch2c <- res3b_branch2b
I0329 14:44:26.575217  7688 net.cpp:411] res3b_branch2c -> res3b_branch2c
I0329 14:44:26.575705  7688 net.cpp:150] Setting up res3b_branch2c
I0329 14:44:26.575742  7688 net.cpp:157] Top shape: 16 512 28 28 (6422528)
I0329 14:44:26.575762  7688 net.cpp:165] Memory required for data: 2283210688
I0329 14:44:26.575786  7688 layer_factory.hpp:77] Creating layer bn3b_branch2c
I0329 14:44:26.575814  7688 net.cpp:106] Creating Layer bn3b_branch2c
I0329 14:44:26.575834  7688 net.cpp:454] bn3b_branch2c <- res3b_branch2c
I0329 14:44:26.575857  7688 net.cpp:397] bn3b_branch2c -> res3b_branch2c (in-place)
I0329 14:44:26.576289  7688 net.cpp:150] Setting up bn3b_branch2c
I0329 14:44:26.576324  7688 net.cpp:157] Top shape: 16 512 28 28 (6422528)
I0329 14:44:26.576344  7688 net.cpp:165] Memory required for data: 2308900800
I0329 14:44:26.576373  7688 layer_factory.hpp:77] Creating layer scale3b_branch2c
I0329 14:44:26.576401  7688 net.cpp:106] Creating Layer scale3b_branch2c
I0329 14:44:26.576421  7688 net.cpp:454] scale3b_branch2c <- res3b_branch2c
I0329 14:44:26.576442  7688 net.cpp:397] scale3b_branch2c -> res3b_branch2c (in-place)
I0329 14:44:26.576563  7688 layer_factory.hpp:77] Creating layer scale3b_branch2c
I0329 14:44:26.576838  7688 net.cpp:150] Setting up scale3b_branch2c
I0329 14:44:26.576872  7688 net.cpp:157] Top shape: 16 512 28 28 (6422528)
I0329 14:44:26.576891  7688 net.cpp:165] Memory required for data: 2334590912
I0329 14:44:26.576918  7688 layer_factory.hpp:77] Creating layer res3b
I0329 14:44:26.576952  7688 net.cpp:106] Creating Layer res3b
I0329 14:44:26.576973  7688 net.cpp:454] res3b <- res3a_res3a_relu_0_split_1
I0329 14:44:26.576994  7688 net.cpp:454] res3b <- res3b_branch2c
I0329 14:44:26.577018  7688 net.cpp:411] res3b -> res3b
I0329 14:44:26.577100  7688 net.cpp:150] Setting up res3b
I0329 14:44:26.577133  7688 net.cpp:157] Top shape: 16 512 28 28 (6422528)
I0329 14:44:26.577152  7688 net.cpp:165] Memory required for data: 2360281024
I0329 14:44:26.577172  7688 layer_factory.hpp:77] Creating layer res3b_relu
I0329 14:44:26.577193  7688 net.cpp:106] Creating Layer res3b_relu
I0329 14:44:26.577214  7688 net.cpp:454] res3b_relu <- res3b
I0329 14:44:26.577245  7688 net.cpp:397] res3b_relu -> res3b (in-place)
I0329 14:44:26.577273  7688 net.cpp:150] Setting up res3b_relu
I0329 14:44:26.577296  7688 net.cpp:157] Top shape: 16 512 28 28 (6422528)
I0329 14:44:26.577314  7688 net.cpp:165] Memory required for data: 2385971136
I0329 14:44:26.577355  7688 layer_factory.hpp:77] Creating layer res3b_res3b_relu_0_split
I0329 14:44:26.577383  7688 net.cpp:106] Creating Layer res3b_res3b_relu_0_split
I0329 14:44:26.577401  7688 net.cpp:454] res3b_res3b_relu_0_split <- res3b
I0329 14:44:26.577455  7688 net.cpp:411] res3b_res3b_relu_0_split -> res3b_res3b_relu_0_split_0
I0329 14:44:26.577483  7688 net.cpp:411] res3b_res3b_relu_0_split -> res3b_res3b_relu_0_split_1
I0329 14:44:26.579319  7688 net.cpp:150] Setting up res3b_res3b_relu_0_split
I0329 14:44:26.579355  7688 net.cpp:157] Top shape: 16 512 28 28 (6422528)
I0329 14:44:26.579377  7688 net.cpp:157] Top shape: 16 512 28 28 (6422528)
I0329 14:44:26.579394  7688 net.cpp:165] Memory required for data: 2437351360
I0329 14:44:26.579413  7688 layer_factory.hpp:77] Creating layer res3c_branch2a
I0329 14:44:26.579440  7688 net.cpp:106] Creating Layer res3c_branch2a
I0329 14:44:26.579460  7688 net.cpp:454] res3c_branch2a <- res3b_res3b_relu_0_split_0
I0329 14:44:26.579497  7688 net.cpp:411] res3c_branch2a -> res3c_branch2a
I0329 14:44:26.579998  7688 net.cpp:150] Setting up res3c_branch2a
I0329 14:44:26.580034  7688 net.cpp:157] Top shape: 16 128 28 28 (1605632)
I0329 14:44:26.580054  7688 net.cpp:165] Memory required for data: 2443773888
I0329 14:44:26.580077  7688 layer_factory.hpp:77] Creating layer bn3c_branch2a
I0329 14:44:26.580108  7688 net.cpp:106] Creating Layer bn3c_branch2a
I0329 14:44:26.580129  7688 net.cpp:454] bn3c_branch2a <- res3c_branch2a
I0329 14:44:26.580152  7688 net.cpp:397] bn3c_branch2a -> res3c_branch2a (in-place)
I0329 14:44:26.580551  7688 net.cpp:150] Setting up bn3c_branch2a
I0329 14:44:26.580585  7688 net.cpp:157] Top shape: 16 128 28 28 (1605632)
I0329 14:44:26.580603  7688 net.cpp:165] Memory required for data: 2450196416
I0329 14:44:26.580633  7688 layer_factory.hpp:77] Creating layer scale3c_branch2a
I0329 14:44:26.580659  7688 net.cpp:106] Creating Layer scale3c_branch2a
I0329 14:44:26.580678  7688 net.cpp:454] scale3c_branch2a <- res3c_branch2a
I0329 14:44:26.580713  7688 net.cpp:397] scale3c_branch2a -> res3c_branch2a (in-place)
I0329 14:44:26.580816  7688 layer_factory.hpp:77] Creating layer scale3c_branch2a
I0329 14:44:26.581090  7688 net.cpp:150] Setting up scale3c_branch2a
I0329 14:44:26.581125  7688 net.cpp:157] Top shape: 16 128 28 28 (1605632)
I0329 14:44:26.581143  7688 net.cpp:165] Memory required for data: 2456618944
I0329 14:44:26.581171  7688 layer_factory.hpp:77] Creating layer res3c_branch2a_relu
I0329 14:44:26.581200  7688 net.cpp:106] Creating Layer res3c_branch2a_relu
I0329 14:44:26.581221  7688 net.cpp:454] res3c_branch2a_relu <- res3c_branch2a
I0329 14:44:26.581243  7688 net.cpp:397] res3c_branch2a_relu -> res3c_branch2a (in-place)
I0329 14:44:26.581269  7688 net.cpp:150] Setting up res3c_branch2a_relu
I0329 14:44:26.581291  7688 net.cpp:157] Top shape: 16 128 28 28 (1605632)
I0329 14:44:26.581308  7688 net.cpp:165] Memory required for data: 2463041472
I0329 14:44:26.581327  7688 layer_factory.hpp:77] Creating layer res3c_branch2b
I0329 14:44:26.581382  7688 net.cpp:106] Creating Layer res3c_branch2b
I0329 14:44:26.581404  7688 net.cpp:454] res3c_branch2b <- res3c_branch2a
I0329 14:44:26.581429  7688 net.cpp:411] res3c_branch2b -> res3c_branch2b
I0329 14:44:26.583204  7688 net.cpp:150] Setting up res3c_branch2b
I0329 14:44:26.583247  7688 net.cpp:157] Top shape: 16 128 28 28 (1605632)
I0329 14:44:26.583267  7688 net.cpp:165] Memory required for data: 2469464000
I0329 14:44:26.583292  7688 layer_factory.hpp:77] Creating layer bn3c_branch2b
I0329 14:44:26.583317  7688 net.cpp:106] Creating Layer bn3c_branch2b
I0329 14:44:26.583338  7688 net.cpp:454] bn3c_branch2b <- res3c_branch2b
I0329 14:44:26.583369  7688 net.cpp:397] bn3c_branch2b -> res3c_branch2b (in-place)
I0329 14:44:26.583796  7688 net.cpp:150] Setting up bn3c_branch2b
I0329 14:44:26.583830  7688 net.cpp:157] Top shape: 16 128 28 28 (1605632)
I0329 14:44:26.583849  7688 net.cpp:165] Memory required for data: 2475886528
I0329 14:44:26.583879  7688 layer_factory.hpp:77] Creating layer scale3c_branch2b
I0329 14:44:26.583905  7688 net.cpp:106] Creating Layer scale3c_branch2b
I0329 14:44:26.583925  7688 net.cpp:454] scale3c_branch2b <- res3c_branch2b
I0329 14:44:26.583947  7688 net.cpp:397] scale3c_branch2b -> res3c_branch2b (in-place)
I0329 14:44:26.584092  7688 layer_factory.hpp:77] Creating layer scale3c_branch2b
I0329 14:44:26.584372  7688 net.cpp:150] Setting up scale3c_branch2b
I0329 14:44:26.584406  7688 net.cpp:157] Top shape: 16 128 28 28 (1605632)
I0329 14:44:26.584426  7688 net.cpp:165] Memory required for data: 2482309056
I0329 14:44:26.584452  7688 layer_factory.hpp:77] Creating layer res3c_branch2b_relu
I0329 14:44:26.584476  7688 net.cpp:106] Creating Layer res3c_branch2b_relu
I0329 14:44:26.584496  7688 net.cpp:454] res3c_branch2b_relu <- res3c_branch2b
I0329 14:44:26.584523  7688 net.cpp:397] res3c_branch2b_relu -> res3c_branch2b (in-place)
I0329 14:44:26.584550  7688 net.cpp:150] Setting up res3c_branch2b_relu
I0329 14:44:26.584573  7688 net.cpp:157] Top shape: 16 128 28 28 (1605632)
I0329 14:44:26.584591  7688 net.cpp:165] Memory required for data: 2488731584
I0329 14:44:26.584609  7688 layer_factory.hpp:77] Creating layer res3c_branch2c
I0329 14:44:26.584636  7688 net.cpp:106] Creating Layer res3c_branch2c
I0329 14:44:26.584656  7688 net.cpp:454] res3c_branch2c <- res3c_branch2b
I0329 14:44:26.584684  7688 net.cpp:411] res3c_branch2c -> res3c_branch2c
I0329 14:44:26.585383  7688 net.cpp:150] Setting up res3c_branch2c
I0329 14:44:26.585425  7688 net.cpp:157] Top shape: 16 512 28 28 (6422528)
I0329 14:44:26.585445  7688 net.cpp:165] Memory required for data: 2514421696
I0329 14:44:26.585469  7688 layer_factory.hpp:77] Creating layer bn3c_branch2c
I0329 14:44:26.585495  7688 net.cpp:106] Creating Layer bn3c_branch2c
I0329 14:44:26.585516  7688 net.cpp:454] bn3c_branch2c <- res3c_branch2c
I0329 14:44:26.585548  7688 net.cpp:397] bn3c_branch2c -> res3c_branch2c (in-place)
I0329 14:44:26.585958  7688 net.cpp:150] Setting up bn3c_branch2c
I0329 14:44:26.585991  7688 net.cpp:157] Top shape: 16 512 28 28 (6422528)
I0329 14:44:26.586010  7688 net.cpp:165] Memory required for data: 2540111808
I0329 14:44:26.586041  7688 layer_factory.hpp:77] Creating layer scale3c_branch2c
I0329 14:44:26.586066  7688 net.cpp:106] Creating Layer scale3c_branch2c
I0329 14:44:26.586086  7688 net.cpp:454] scale3c_branch2c <- res3c_branch2c
I0329 14:44:26.586109  7688 net.cpp:397] scale3c_branch2c -> res3c_branch2c (in-place)
I0329 14:44:26.586225  7688 layer_factory.hpp:77] Creating layer scale3c_branch2c
I0329 14:44:26.586494  7688 net.cpp:150] Setting up scale3c_branch2c
I0329 14:44:26.586529  7688 net.cpp:157] Top shape: 16 512 28 28 (6422528)
I0329 14:44:26.586547  7688 net.cpp:165] Memory required for data: 2565801920
I0329 14:44:26.586578  7688 layer_factory.hpp:77] Creating layer res3c
I0329 14:44:26.586609  7688 net.cpp:106] Creating Layer res3c
I0329 14:44:26.586632  7688 net.cpp:454] res3c <- res3b_res3b_relu_0_split_1
I0329 14:44:26.586652  7688 net.cpp:454] res3c <- res3c_branch2c
I0329 14:44:26.586675  7688 net.cpp:411] res3c -> res3c
I0329 14:44:26.586743  7688 net.cpp:150] Setting up res3c
I0329 14:44:26.586774  7688 net.cpp:157] Top shape: 16 512 28 28 (6422528)
I0329 14:44:26.586792  7688 net.cpp:165] Memory required for data: 2591492032
I0329 14:44:26.586812  7688 layer_factory.hpp:77] Creating layer res3c_relu
I0329 14:44:26.586840  7688 net.cpp:106] Creating Layer res3c_relu
I0329 14:44:26.586861  7688 net.cpp:454] res3c_relu <- res3c
I0329 14:44:26.586895  7688 net.cpp:397] res3c_relu -> res3c (in-place)
I0329 14:44:26.586923  7688 net.cpp:150] Setting up res3c_relu
I0329 14:44:26.586946  7688 net.cpp:157] Top shape: 16 512 28 28 (6422528)
I0329 14:44:26.586963  7688 net.cpp:165] Memory required for data: 2617182144
I0329 14:44:26.586982  7688 layer_factory.hpp:77] Creating layer res3c_res3c_relu_0_split
I0329 14:44:26.587005  7688 net.cpp:106] Creating Layer res3c_res3c_relu_0_split
I0329 14:44:26.587023  7688 net.cpp:454] res3c_res3c_relu_0_split <- res3c
I0329 14:44:26.587045  7688 net.cpp:411] res3c_res3c_relu_0_split -> res3c_res3c_relu_0_split_0
I0329 14:44:26.587071  7688 net.cpp:411] res3c_res3c_relu_0_split -> res3c_res3c_relu_0_split_1
I0329 14:44:26.587169  7688 net.cpp:150] Setting up res3c_res3c_relu_0_split
I0329 14:44:26.587213  7688 net.cpp:157] Top shape: 16 512 28 28 (6422528)
I0329 14:44:26.587254  7688 net.cpp:157] Top shape: 16 512 28 28 (6422528)
I0329 14:44:26.587272  7688 net.cpp:165] Memory required for data: 2668562368
I0329 14:44:26.587291  7688 layer_factory.hpp:77] Creating layer res3d_branch2a
I0329 14:44:26.587324  7688 net.cpp:106] Creating Layer res3d_branch2a
I0329 14:44:26.587347  7688 net.cpp:454] res3d_branch2a <- res3c_res3c_relu_0_split_0
I0329 14:44:26.587370  7688 net.cpp:411] res3d_branch2a -> res3d_branch2a
I0329 14:44:26.589022  7688 net.cpp:150] Setting up res3d_branch2a
I0329 14:44:26.589066  7688 net.cpp:157] Top shape: 16 128 28 28 (1605632)
I0329 14:44:26.589085  7688 net.cpp:165] Memory required for data: 2674984896
I0329 14:44:26.589109  7688 layer_factory.hpp:77] Creating layer bn3d_branch2a
I0329 14:44:26.589135  7688 net.cpp:106] Creating Layer bn3d_branch2a
I0329 14:44:26.589155  7688 net.cpp:454] bn3d_branch2a <- res3d_branch2a
I0329 14:44:26.589184  7688 net.cpp:397] bn3d_branch2a -> res3d_branch2a (in-place)
I0329 14:44:26.589628  7688 net.cpp:150] Setting up bn3d_branch2a
I0329 14:44:26.589666  7688 net.cpp:157] Top shape: 16 128 28 28 (1605632)
I0329 14:44:26.589685  7688 net.cpp:165] Memory required for data: 2681407424
I0329 14:44:26.589771  7688 layer_factory.hpp:77] Creating layer scale3d_branch2a
I0329 14:44:26.589802  7688 net.cpp:106] Creating Layer scale3d_branch2a
I0329 14:44:26.589823  7688 net.cpp:454] scale3d_branch2a <- res3d_branch2a
I0329 14:44:26.589846  7688 net.cpp:397] scale3d_branch2a -> res3d_branch2a (in-place)
I0329 14:44:26.589964  7688 layer_factory.hpp:77] Creating layer scale3d_branch2a
I0329 14:44:26.590248  7688 net.cpp:150] Setting up scale3d_branch2a
I0329 14:44:26.590283  7688 net.cpp:157] Top shape: 16 128 28 28 (1605632)
I0329 14:44:26.590302  7688 net.cpp:165] Memory required for data: 2687829952
I0329 14:44:26.590328  7688 layer_factory.hpp:77] Creating layer res3d_branch2a_relu
I0329 14:44:26.590359  7688 net.cpp:106] Creating Layer res3d_branch2a_relu
I0329 14:44:26.590380  7688 net.cpp:454] res3d_branch2a_relu <- res3d_branch2a
I0329 14:44:26.590402  7688 net.cpp:397] res3d_branch2a_relu -> res3d_branch2a (in-place)
I0329 14:44:26.590428  7688 net.cpp:150] Setting up res3d_branch2a_relu
I0329 14:44:26.590451  7688 net.cpp:157] Top shape: 16 128 28 28 (1605632)
I0329 14:44:26.590468  7688 net.cpp:165] Memory required for data: 2694252480
I0329 14:44:26.590487  7688 layer_factory.hpp:77] Creating layer res3d_branch2b
I0329 14:44:26.590513  7688 net.cpp:106] Creating Layer res3d_branch2b
I0329 14:44:26.590533  7688 net.cpp:454] res3d_branch2b <- res3d_branch2a
I0329 14:44:26.590556  7688 net.cpp:411] res3d_branch2b -> res3d_branch2b
I0329 14:44:26.592308  7688 net.cpp:150] Setting up res3d_branch2b
I0329 14:44:26.592350  7688 net.cpp:157] Top shape: 16 128 28 28 (1605632)
I0329 14:44:26.592370  7688 net.cpp:165] Memory required for data: 2700675008
I0329 14:44:26.592394  7688 layer_factory.hpp:77] Creating layer bn3d_branch2b
I0329 14:44:26.592420  7688 net.cpp:106] Creating Layer bn3d_branch2b
I0329 14:44:26.592440  7688 net.cpp:454] bn3d_branch2b <- res3d_branch2b
I0329 14:44:26.592463  7688 net.cpp:397] bn3d_branch2b -> res3d_branch2b (in-place)
I0329 14:44:26.592886  7688 net.cpp:150] Setting up bn3d_branch2b
I0329 14:44:26.592921  7688 net.cpp:157] Top shape: 16 128 28 28 (1605632)
I0329 14:44:26.592941  7688 net.cpp:165] Memory required for data: 2707097536
I0329 14:44:26.592970  7688 layer_factory.hpp:77] Creating layer scale3d_branch2b
I0329 14:44:26.593003  7688 net.cpp:106] Creating Layer scale3d_branch2b
I0329 14:44:26.593024  7688 net.cpp:454] scale3d_branch2b <- res3d_branch2b
I0329 14:44:26.593047  7688 net.cpp:397] scale3d_branch2b -> res3d_branch2b (in-place)
I0329 14:44:26.593163  7688 layer_factory.hpp:77] Creating layer scale3d_branch2b
I0329 14:44:26.593457  7688 net.cpp:150] Setting up scale3d_branch2b
I0329 14:44:26.593495  7688 net.cpp:157] Top shape: 16 128 28 28 (1605632)
I0329 14:44:26.593514  7688 net.cpp:165] Memory required for data: 2713520064
I0329 14:44:26.593570  7688 layer_factory.hpp:77] Creating layer res3d_branch2b_relu
I0329 14:44:26.593597  7688 net.cpp:106] Creating Layer res3d_branch2b_relu
I0329 14:44:26.593621  7688 net.cpp:454] res3d_branch2b_relu <- res3d_branch2b
I0329 14:44:26.593650  7688 net.cpp:397] res3d_branch2b_relu -> res3d_branch2b (in-place)
I0329 14:44:26.593678  7688 net.cpp:150] Setting up res3d_branch2b_relu
I0329 14:44:26.593701  7688 net.cpp:157] Top shape: 16 128 28 28 (1605632)
I0329 14:44:26.593719  7688 net.cpp:165] Memory required for data: 2719942592
I0329 14:44:26.593737  7688 layer_factory.hpp:77] Creating layer res3d_branch2c
I0329 14:44:26.593776  7688 net.cpp:106] Creating Layer res3d_branch2c
I0329 14:44:26.593798  7688 net.cpp:454] res3d_branch2c <- res3d_branch2b
I0329 14:44:26.593822  7688 net.cpp:411] res3d_branch2c -> res3d_branch2c
I0329 14:44:26.594319  7688 net.cpp:150] Setting up res3d_branch2c
I0329 14:44:26.594357  7688 net.cpp:157] Top shape: 16 512 28 28 (6422528)
I0329 14:44:26.594375  7688 net.cpp:165] Memory required for data: 2745632704
I0329 14:44:26.594399  7688 layer_factory.hpp:77] Creating layer bn3d_branch2c
I0329 14:44:26.594424  7688 net.cpp:106] Creating Layer bn3d_branch2c
I0329 14:44:26.594444  7688 net.cpp:454] bn3d_branch2c <- res3d_branch2c
I0329 14:44:26.594465  7688 net.cpp:397] bn3d_branch2c -> res3d_branch2c (in-place)
I0329 14:44:26.594911  7688 net.cpp:150] Setting up bn3d_branch2c
I0329 14:44:26.594949  7688 net.cpp:157] Top shape: 16 512 28 28 (6422528)
I0329 14:44:26.594967  7688 net.cpp:165] Memory required for data: 2771322816
I0329 14:44:26.594997  7688 layer_factory.hpp:77] Creating layer scale3d_branch2c
I0329 14:44:26.595023  7688 net.cpp:106] Creating Layer scale3d_branch2c
I0329 14:44:26.595046  7688 net.cpp:454] scale3d_branch2c <- res3d_branch2c
I0329 14:44:26.595069  7688 net.cpp:397] scale3d_branch2c -> res3d_branch2c (in-place)
I0329 14:44:26.595191  7688 layer_factory.hpp:77] Creating layer scale3d_branch2c
I0329 14:44:26.595458  7688 net.cpp:150] Setting up scale3d_branch2c
I0329 14:44:26.595492  7688 net.cpp:157] Top shape: 16 512 28 28 (6422528)
I0329 14:44:26.595511  7688 net.cpp:165] Memory required for data: 2797012928
I0329 14:44:26.595537  7688 layer_factory.hpp:77] Creating layer res3d
I0329 14:44:26.595568  7688 net.cpp:106] Creating Layer res3d
I0329 14:44:26.595590  7688 net.cpp:454] res3d <- res3c_res3c_relu_0_split_1
I0329 14:44:26.595612  7688 net.cpp:454] res3d <- res3d_branch2c
I0329 14:44:26.595634  7688 net.cpp:411] res3d -> res3d
I0329 14:44:26.595710  7688 net.cpp:150] Setting up res3d
I0329 14:44:26.595741  7688 net.cpp:157] Top shape: 16 512 28 28 (6422528)
I0329 14:44:26.595760  7688 net.cpp:165] Memory required for data: 2822703040
I0329 14:44:26.595778  7688 layer_factory.hpp:77] Creating layer res3d_relu
I0329 14:44:26.595801  7688 net.cpp:106] Creating Layer res3d_relu
I0329 14:44:26.595820  7688 net.cpp:454] res3d_relu <- res3d
I0329 14:44:26.595850  7688 net.cpp:397] res3d_relu -> res3d (in-place)
I0329 14:44:26.595878  7688 net.cpp:150] Setting up res3d_relu
I0329 14:44:26.595901  7688 net.cpp:157] Top shape: 16 512 28 28 (6422528)
I0329 14:44:26.595919  7688 net.cpp:165] Memory required for data: 2848393152
I0329 14:44:26.595937  7688 layer_factory.hpp:77] Creating layer res3d_res3d_relu_0_split
I0329 14:44:26.595960  7688 net.cpp:106] Creating Layer res3d_res3d_relu_0_split
I0329 14:44:26.595978  7688 net.cpp:454] res3d_res3d_relu_0_split <- res3d
I0329 14:44:26.596000  7688 net.cpp:411] res3d_res3d_relu_0_split -> res3d_res3d_relu_0_split_0
I0329 14:44:26.596026  7688 net.cpp:411] res3d_res3d_relu_0_split -> res3d_res3d_relu_0_split_1
I0329 14:44:26.596122  7688 net.cpp:150] Setting up res3d_res3d_relu_0_split
I0329 14:44:26.596153  7688 net.cpp:157] Top shape: 16 512 28 28 (6422528)
I0329 14:44:26.596175  7688 net.cpp:157] Top shape: 16 512 28 28 (6422528)
I0329 14:44:26.596192  7688 net.cpp:165] Memory required for data: 2899773376
I0329 14:44:26.596211  7688 layer_factory.hpp:77] Creating layer res4a_branch1
I0329 14:44:26.596253  7688 net.cpp:106] Creating Layer res4a_branch1
I0329 14:44:26.596292  7688 net.cpp:454] res4a_branch1 <- res3d_res3d_relu_0_split_0
I0329 14:44:26.596323  7688 net.cpp:411] res4a_branch1 -> res4a_branch1
I0329 14:44:26.599532  7688 net.cpp:150] Setting up res4a_branch1
I0329 14:44:26.599578  7688 net.cpp:157] Top shape: 16 1024 14 14 (3211264)
I0329 14:44:26.599598  7688 net.cpp:165] Memory required for data: 2912618432
I0329 14:44:26.599622  7688 layer_factory.hpp:77] Creating layer bn4a_branch1
I0329 14:44:26.599648  7688 net.cpp:106] Creating Layer bn4a_branch1
I0329 14:44:26.599669  7688 net.cpp:454] bn4a_branch1 <- res4a_branch1
I0329 14:44:26.599691  7688 net.cpp:397] bn4a_branch1 -> res4a_branch1 (in-place)
I0329 14:44:26.600136  7688 net.cpp:150] Setting up bn4a_branch1
I0329 14:44:26.600172  7688 net.cpp:157] Top shape: 16 1024 14 14 (3211264)
I0329 14:44:26.600191  7688 net.cpp:165] Memory required for data: 2925463488
I0329 14:44:26.600221  7688 layer_factory.hpp:77] Creating layer scale4a_branch1
I0329 14:44:26.600247  7688 net.cpp:106] Creating Layer scale4a_branch1
I0329 14:44:26.600267  7688 net.cpp:454] scale4a_branch1 <- res4a_branch1
I0329 14:44:26.600289  7688 net.cpp:397] scale4a_branch1 -> res4a_branch1 (in-place)
I0329 14:44:26.600397  7688 layer_factory.hpp:77] Creating layer scale4a_branch1
I0329 14:44:26.600688  7688 net.cpp:150] Setting up scale4a_branch1
I0329 14:44:26.600723  7688 net.cpp:157] Top shape: 16 1024 14 14 (3211264)
I0329 14:44:26.600742  7688 net.cpp:165] Memory required for data: 2938308544
I0329 14:44:26.600769  7688 layer_factory.hpp:77] Creating layer res4a_branch2a
I0329 14:44:26.600803  7688 net.cpp:106] Creating Layer res4a_branch2a
I0329 14:44:26.600831  7688 net.cpp:454] res4a_branch2a <- res3d_res3d_relu_0_split_1
I0329 14:44:26.600855  7688 net.cpp:411] res4a_branch2a -> res4a_branch2a
I0329 14:44:26.601574  7688 net.cpp:150] Setting up res4a_branch2a
I0329 14:44:26.601613  7688 net.cpp:157] Top shape: 16 256 14 14 (802816)
I0329 14:44:26.601632  7688 net.cpp:165] Memory required for data: 2941519808
I0329 14:44:26.601656  7688 layer_factory.hpp:77] Creating layer bn4a_branch2a
I0329 14:44:26.601681  7688 net.cpp:106] Creating Layer bn4a_branch2a
I0329 14:44:26.601701  7688 net.cpp:454] bn4a_branch2a <- res4a_branch2a
I0329 14:44:26.601725  7688 net.cpp:397] bn4a_branch2a -> res4a_branch2a (in-place)
I0329 14:44:26.602202  7688 net.cpp:150] Setting up bn4a_branch2a
I0329 14:44:26.602238  7688 net.cpp:157] Top shape: 16 256 14 14 (802816)
I0329 14:44:26.602257  7688 net.cpp:165] Memory required for data: 2944731072
I0329 14:44:26.602288  7688 layer_factory.hpp:77] Creating layer scale4a_branch2a
I0329 14:44:26.602322  7688 net.cpp:106] Creating Layer scale4a_branch2a
I0329 14:44:26.602344  7688 net.cpp:454] scale4a_branch2a <- res4a_branch2a
I0329 14:44:26.602367  7688 net.cpp:397] scale4a_branch2a -> res4a_branch2a (in-place)
I0329 14:44:26.602483  7688 layer_factory.hpp:77] Creating layer scale4a_branch2a
I0329 14:44:26.602758  7688 net.cpp:150] Setting up scale4a_branch2a
I0329 14:44:26.602792  7688 net.cpp:157] Top shape: 16 256 14 14 (802816)
I0329 14:44:26.602811  7688 net.cpp:165] Memory required for data: 2947942336
I0329 14:44:26.602838  7688 layer_factory.hpp:77] Creating layer res4a_branch2a_relu
I0329 14:44:26.602864  7688 net.cpp:106] Creating Layer res4a_branch2a_relu
I0329 14:44:26.602883  7688 net.cpp:454] res4a_branch2a_relu <- res4a_branch2a
I0329 14:44:26.602912  7688 net.cpp:397] res4a_branch2a_relu -> res4a_branch2a (in-place)
I0329 14:44:26.602938  7688 net.cpp:150] Setting up res4a_branch2a_relu
I0329 14:44:26.602962  7688 net.cpp:157] Top shape: 16 256 14 14 (802816)
I0329 14:44:26.602979  7688 net.cpp:165] Memory required for data: 2951153600
I0329 14:44:26.602998  7688 layer_factory.hpp:77] Creating layer res4a_branch2b
I0329 14:44:26.603034  7688 net.cpp:106] Creating Layer res4a_branch2b
I0329 14:44:26.603055  7688 net.cpp:454] res4a_branch2b <- res4a_branch2a
I0329 14:44:26.603080  7688 net.cpp:411] res4a_branch2b -> res4a_branch2b
I0329 14:44:26.606583  7688 net.cpp:150] Setting up res4a_branch2b
I0329 14:44:26.606628  7688 net.cpp:157] Top shape: 16 256 14 14 (802816)
I0329 14:44:26.606648  7688 net.cpp:165] Memory required for data: 2954364864
I0329 14:44:26.606673  7688 layer_factory.hpp:77] Creating layer bn4a_branch2b
I0329 14:44:26.606704  7688 net.cpp:106] Creating Layer bn4a_branch2b
I0329 14:44:26.606726  7688 net.cpp:454] bn4a_branch2b <- res4a_branch2b
I0329 14:44:26.606750  7688 net.cpp:397] bn4a_branch2b -> res4a_branch2b (in-place)
I0329 14:44:26.607167  7688 net.cpp:150] Setting up bn4a_branch2b
I0329 14:44:26.607203  7688 net.cpp:157] Top shape: 16 256 14 14 (802816)
I0329 14:44:26.607221  7688 net.cpp:165] Memory required for data: 2957576128
I0329 14:44:26.607250  7688 layer_factory.hpp:77] Creating layer scale4a_branch2b
I0329 14:44:26.607277  7688 net.cpp:106] Creating Layer scale4a_branch2b
I0329 14:44:26.607296  7688 net.cpp:454] scale4a_branch2b <- res4a_branch2b
I0329 14:44:26.607326  7688 net.cpp:397] scale4a_branch2b -> res4a_branch2b (in-place)
I0329 14:44:26.607431  7688 layer_factory.hpp:77] Creating layer scale4a_branch2b
I0329 14:44:26.607698  7688 net.cpp:150] Setting up scale4a_branch2b
I0329 14:44:26.607738  7688 net.cpp:157] Top shape: 16 256 14 14 (802816)
I0329 14:44:26.607758  7688 net.cpp:165] Memory required for data: 2960787392
I0329 14:44:26.607784  7688 layer_factory.hpp:77] Creating layer res4a_branch2b_relu
I0329 14:44:26.607810  7688 net.cpp:106] Creating Layer res4a_branch2b_relu
I0329 14:44:26.607828  7688 net.cpp:454] res4a_branch2b_relu <- res4a_branch2b
I0329 14:44:26.607851  7688 net.cpp:397] res4a_branch2b_relu -> res4a_branch2b (in-place)
I0329 14:44:26.607877  7688 net.cpp:150] Setting up res4a_branch2b_relu
I0329 14:44:26.607898  7688 net.cpp:157] Top shape: 16 256 14 14 (802816)
I0329 14:44:26.607915  7688 net.cpp:165] Memory required for data: 2963998656
I0329 14:44:26.607934  7688 layer_factory.hpp:77] Creating layer res4a_branch2c
I0329 14:44:26.607966  7688 net.cpp:106] Creating Layer res4a_branch2c
I0329 14:44:26.607990  7688 net.cpp:454] res4a_branch2c <- res4a_branch2b
I0329 14:44:26.608014  7688 net.cpp:411] res4a_branch2c -> res4a_branch2c
I0329 14:44:26.609944  7688 net.cpp:150] Setting up res4a_branch2c
I0329 14:44:26.609988  7688 net.cpp:157] Top shape: 16 1024 14 14 (3211264)
I0329 14:44:26.610008  7688 net.cpp:165] Memory required for data: 2976843712
I0329 14:44:26.610033  7688 layer_factory.hpp:77] Creating layer bn4a_branch2c
I0329 14:44:26.610059  7688 net.cpp:106] Creating Layer bn4a_branch2c
I0329 14:44:26.610079  7688 net.cpp:454] bn4a_branch2c <- res4a_branch2c
I0329 14:44:26.610101  7688 net.cpp:397] bn4a_branch2c -> res4a_branch2c (in-place)
I0329 14:44:26.610545  7688 net.cpp:150] Setting up bn4a_branch2c
I0329 14:44:26.610580  7688 net.cpp:157] Top shape: 16 1024 14 14 (3211264)
I0329 14:44:26.610599  7688 net.cpp:165] Memory required for data: 2989688768
I0329 14:44:26.610630  7688 layer_factory.hpp:77] Creating layer scale4a_branch2c
I0329 14:44:26.610656  7688 net.cpp:106] Creating Layer scale4a_branch2c
I0329 14:44:26.610677  7688 net.cpp:454] scale4a_branch2c <- res4a_branch2c
I0329 14:44:26.610699  7688 net.cpp:397] scale4a_branch2c -> res4a_branch2c (in-place)
I0329 14:44:26.610813  7688 layer_factory.hpp:77] Creating layer scale4a_branch2c
I0329 14:44:26.611098  7688 net.cpp:150] Setting up scale4a_branch2c
I0329 14:44:26.611131  7688 net.cpp:157] Top shape: 16 1024 14 14 (3211264)
I0329 14:44:26.611150  7688 net.cpp:165] Memory required for data: 3002533824
I0329 14:44:26.611176  7688 layer_factory.hpp:77] Creating layer res4a
I0329 14:44:26.611207  7688 net.cpp:106] Creating Layer res4a
I0329 14:44:26.611228  7688 net.cpp:454] res4a <- res4a_branch1
I0329 14:44:26.611250  7688 net.cpp:454] res4a <- res4a_branch2c
I0329 14:44:26.611277  7688 net.cpp:411] res4a -> res4a
I0329 14:44:26.611348  7688 net.cpp:150] Setting up res4a
I0329 14:44:26.611380  7688 net.cpp:157] Top shape: 16 1024 14 14 (3211264)
I0329 14:44:26.611412  7688 net.cpp:165] Memory required for data: 3015378880
I0329 14:44:26.611450  7688 layer_factory.hpp:77] Creating layer res4a_relu
I0329 14:44:26.611475  7688 net.cpp:106] Creating Layer res4a_relu
I0329 14:44:26.611495  7688 net.cpp:454] res4a_relu <- res4a
I0329 14:44:26.611523  7688 net.cpp:397] res4a_relu -> res4a (in-place)
I0329 14:44:26.611551  7688 net.cpp:150] Setting up res4a_relu
I0329 14:44:26.611572  7688 net.cpp:157] Top shape: 16 1024 14 14 (3211264)
I0329 14:44:26.611590  7688 net.cpp:165] Memory required for data: 3028223936
I0329 14:44:26.611608  7688 layer_factory.hpp:77] Creating layer res4a_res4a_relu_0_split
I0329 14:44:26.611665  7688 net.cpp:106] Creating Layer res4a_res4a_relu_0_split
I0329 14:44:26.611687  7688 net.cpp:454] res4a_res4a_relu_0_split <- res4a
I0329 14:44:26.611711  7688 net.cpp:411] res4a_res4a_relu_0_split -> res4a_res4a_relu_0_split_0
I0329 14:44:26.611738  7688 net.cpp:411] res4a_res4a_relu_0_split -> res4a_res4a_relu_0_split_1
I0329 14:44:26.611840  7688 net.cpp:150] Setting up res4a_res4a_relu_0_split
I0329 14:44:26.611871  7688 net.cpp:157] Top shape: 16 1024 14 14 (3211264)
I0329 14:44:26.611892  7688 net.cpp:157] Top shape: 16 1024 14 14 (3211264)
I0329 14:44:26.611909  7688 net.cpp:165] Memory required for data: 3053914048
I0329 14:44:26.611929  7688 layer_factory.hpp:77] Creating layer res4b_branch2a
I0329 14:44:26.611958  7688 net.cpp:106] Creating Layer res4b_branch2a
I0329 14:44:26.611979  7688 net.cpp:454] res4b_branch2a <- res4a_res4a_relu_0_split_0
I0329 14:44:26.612001  7688 net.cpp:411] res4b_branch2a -> res4b_branch2a
I0329 14:44:26.613925  7688 net.cpp:150] Setting up res4b_branch2a
I0329 14:44:26.613970  7688 net.cpp:157] Top shape: 16 256 14 14 (802816)
I0329 14:44:26.613989  7688 net.cpp:165] Memory required for data: 3057125312
I0329 14:44:26.614013  7688 layer_factory.hpp:77] Creating layer bn4b_branch2a
I0329 14:44:26.614045  7688 net.cpp:106] Creating Layer bn4b_branch2a
I0329 14:44:26.614068  7688 net.cpp:454] bn4b_branch2a <- res4b_branch2a
I0329 14:44:26.614090  7688 net.cpp:397] bn4b_branch2a -> res4b_branch2a (in-place)
I0329 14:44:26.614517  7688 net.cpp:150] Setting up bn4b_branch2a
I0329 14:44:26.614552  7688 net.cpp:157] Top shape: 16 256 14 14 (802816)
I0329 14:44:26.614572  7688 net.cpp:165] Memory required for data: 3060336576
I0329 14:44:26.614601  7688 layer_factory.hpp:77] Creating layer scale4b_branch2a
I0329 14:44:26.614627  7688 net.cpp:106] Creating Layer scale4b_branch2a
I0329 14:44:26.614647  7688 net.cpp:454] scale4b_branch2a <- res4b_branch2a
I0329 14:44:26.614675  7688 net.cpp:397] scale4b_branch2a -> res4b_branch2a (in-place)
I0329 14:44:26.614783  7688 layer_factory.hpp:77] Creating layer scale4b_branch2a
I0329 14:44:26.615070  7688 net.cpp:150] Setting up scale4b_branch2a
I0329 14:44:26.615105  7688 net.cpp:157] Top shape: 16 256 14 14 (802816)
I0329 14:44:26.615123  7688 net.cpp:165] Memory required for data: 3063547840
I0329 14:44:26.615150  7688 layer_factory.hpp:77] Creating layer res4b_branch2a_relu
I0329 14:44:26.615175  7688 net.cpp:106] Creating Layer res4b_branch2a_relu
I0329 14:44:26.615195  7688 net.cpp:454] res4b_branch2a_relu <- res4b_branch2a
I0329 14:44:26.615216  7688 net.cpp:397] res4b_branch2a_relu -> res4b_branch2a (in-place)
I0329 14:44:26.615242  7688 net.cpp:150] Setting up res4b_branch2a_relu
I0329 14:44:26.615264  7688 net.cpp:157] Top shape: 16 256 14 14 (802816)
I0329 14:44:26.615283  7688 net.cpp:165] Memory required for data: 3066759104
I0329 14:44:26.615300  7688 layer_factory.hpp:77] Creating layer res4b_branch2b
I0329 14:44:26.615334  7688 net.cpp:106] Creating Layer res4b_branch2b
I0329 14:44:26.615353  7688 net.cpp:454] res4b_branch2b <- res4b_branch2a
I0329 14:44:26.615383  7688 net.cpp:411] res4b_branch2b -> res4b_branch2b
I0329 14:44:26.618816  7688 net.cpp:150] Setting up res4b_branch2b
I0329 14:44:26.618861  7688 net.cpp:157] Top shape: 16 256 14 14 (802816)
I0329 14:44:26.618881  7688 net.cpp:165] Memory required for data: 3069970368
I0329 14:44:26.618906  7688 layer_factory.hpp:77] Creating layer bn4b_branch2b
I0329 14:44:26.618947  7688 net.cpp:106] Creating Layer bn4b_branch2b
I0329 14:44:26.618988  7688 net.cpp:454] bn4b_branch2b <- res4b_branch2b
I0329 14:44:26.619019  7688 net.cpp:397] bn4b_branch2b -> res4b_branch2b (in-place)
I0329 14:44:26.619438  7688 net.cpp:150] Setting up bn4b_branch2b
I0329 14:44:26.619473  7688 net.cpp:157] Top shape: 16 256 14 14 (802816)
I0329 14:44:26.619493  7688 net.cpp:165] Memory required for data: 3073181632
I0329 14:44:26.619523  7688 layer_factory.hpp:77] Creating layer scale4b_branch2b
I0329 14:44:26.619549  7688 net.cpp:106] Creating Layer scale4b_branch2b
I0329 14:44:26.619568  7688 net.cpp:454] scale4b_branch2b <- res4b_branch2b
I0329 14:44:26.619591  7688 net.cpp:397] scale4b_branch2b -> res4b_branch2b (in-place)
I0329 14:44:26.619707  7688 layer_factory.hpp:77] Creating layer scale4b_branch2b
I0329 14:44:26.619977  7688 net.cpp:150] Setting up scale4b_branch2b
I0329 14:44:26.620012  7688 net.cpp:157] Top shape: 16 256 14 14 (802816)
I0329 14:44:26.620030  7688 net.cpp:165] Memory required for data: 3076392896
I0329 14:44:26.620057  7688 layer_factory.hpp:77] Creating layer res4b_branch2b_relu
I0329 14:44:26.620081  7688 net.cpp:106] Creating Layer res4b_branch2b_relu
I0329 14:44:26.620101  7688 net.cpp:454] res4b_branch2b_relu <- res4b_branch2b
I0329 14:44:26.620129  7688 net.cpp:397] res4b_branch2b_relu -> res4b_branch2b (in-place)
I0329 14:44:26.620157  7688 net.cpp:150] Setting up res4b_branch2b_relu
I0329 14:44:26.620178  7688 net.cpp:157] Top shape: 16 256 14 14 (802816)
I0329 14:44:26.620196  7688 net.cpp:165] Memory required for data: 3079604160
I0329 14:44:26.620214  7688 layer_factory.hpp:77] Creating layer res4b_branch2c
I0329 14:44:26.620240  7688 net.cpp:106] Creating Layer res4b_branch2c
I0329 14:44:26.620260  7688 net.cpp:454] res4b_branch2c <- res4b_branch2b
I0329 14:44:26.620290  7688 net.cpp:411] res4b_branch2c -> res4b_branch2c
I0329 14:44:26.622231  7688 net.cpp:150] Setting up res4b_branch2c
I0329 14:44:26.622277  7688 net.cpp:157] Top shape: 16 1024 14 14 (3211264)
I0329 14:44:26.622297  7688 net.cpp:165] Memory required for data: 3092449216
I0329 14:44:26.622320  7688 layer_factory.hpp:77] Creating layer bn4b_branch2c
I0329 14:44:26.622346  7688 net.cpp:106] Creating Layer bn4b_branch2c
I0329 14:44:26.622366  7688 net.cpp:454] bn4b_branch2c <- res4b_branch2c
I0329 14:44:26.622390  7688 net.cpp:397] bn4b_branch2c -> res4b_branch2c (in-place)
I0329 14:44:26.622823  7688 net.cpp:150] Setting up bn4b_branch2c
I0329 14:44:26.622859  7688 net.cpp:157] Top shape: 16 1024 14 14 (3211264)
I0329 14:44:26.622877  7688 net.cpp:165] Memory required for data: 3105294272
I0329 14:44:26.622906  7688 layer_factory.hpp:77] Creating layer scale4b_branch2c
I0329 14:44:26.622944  7688 net.cpp:106] Creating Layer scale4b_branch2c
I0329 14:44:26.622967  7688 net.cpp:454] scale4b_branch2c <- res4b_branch2c
I0329 14:44:26.622990  7688 net.cpp:397] scale4b_branch2c -> res4b_branch2c (in-place)
I0329 14:44:26.623105  7688 layer_factory.hpp:77] Creating layer scale4b_branch2c
I0329 14:44:26.623397  7688 net.cpp:150] Setting up scale4b_branch2c
I0329 14:44:26.623432  7688 net.cpp:157] Top shape: 16 1024 14 14 (3211264)
I0329 14:44:26.623450  7688 net.cpp:165] Memory required for data: 3118139328
I0329 14:44:26.623477  7688 layer_factory.hpp:77] Creating layer res4b
I0329 14:44:26.623502  7688 net.cpp:106] Creating Layer res4b
I0329 14:44:26.623522  7688 net.cpp:454] res4b <- res4a_res4a_relu_0_split_1
I0329 14:44:26.623543  7688 net.cpp:454] res4b <- res4b_branch2c
I0329 14:44:26.623572  7688 net.cpp:411] res4b -> res4b
I0329 14:44:26.623651  7688 net.cpp:150] Setting up res4b
I0329 14:44:26.623684  7688 net.cpp:157] Top shape: 16 1024 14 14 (3211264)
I0329 14:44:26.623703  7688 net.cpp:165] Memory required for data: 3130984384
I0329 14:44:26.623721  7688 layer_factory.hpp:77] Creating layer res4b_relu
I0329 14:44:26.623744  7688 net.cpp:106] Creating Layer res4b_relu
I0329 14:44:26.623764  7688 net.cpp:454] res4b_relu <- res4b
I0329 14:44:26.623785  7688 net.cpp:397] res4b_relu -> res4b (in-place)
I0329 14:44:26.623841  7688 net.cpp:150] Setting up res4b_relu
I0329 14:44:26.623865  7688 net.cpp:157] Top shape: 16 1024 14 14 (3211264)
I0329 14:44:26.623883  7688 net.cpp:165] Memory required for data: 3143829440
I0329 14:44:26.623901  7688 layer_factory.hpp:77] Creating layer res4b_res4b_relu_0_split
I0329 14:44:26.623929  7688 net.cpp:106] Creating Layer res4b_res4b_relu_0_split
I0329 14:44:26.623950  7688 net.cpp:454] res4b_res4b_relu_0_split <- res4b
I0329 14:44:26.623972  7688 net.cpp:411] res4b_res4b_relu_0_split -> res4b_res4b_relu_0_split_0
I0329 14:44:26.624014  7688 net.cpp:411] res4b_res4b_relu_0_split -> res4b_res4b_relu_0_split_1
I0329 14:44:26.624119  7688 net.cpp:150] Setting up res4b_res4b_relu_0_split
I0329 14:44:26.624153  7688 net.cpp:157] Top shape: 16 1024 14 14 (3211264)
I0329 14:44:26.624176  7688 net.cpp:157] Top shape: 16 1024 14 14 (3211264)
I0329 14:44:26.624193  7688 net.cpp:165] Memory required for data: 3169519552
I0329 14:44:26.624212  7688 layer_factory.hpp:77] Creating layer res4c_branch2a
I0329 14:44:26.624246  7688 net.cpp:106] Creating Layer res4c_branch2a
I0329 14:44:26.624269  7688 net.cpp:454] res4c_branch2a <- res4b_res4b_relu_0_split_0
I0329 14:44:26.624292  7688 net.cpp:411] res4c_branch2a -> res4c_branch2a
I0329 14:44:26.626209  7688 net.cpp:150] Setting up res4c_branch2a
I0329 14:44:26.626253  7688 net.cpp:157] Top shape: 16 256 14 14 (802816)
I0329 14:44:26.626272  7688 net.cpp:165] Memory required for data: 3172730816
I0329 14:44:26.626296  7688 layer_factory.hpp:77] Creating layer bn4c_branch2a
I0329 14:44:26.626322  7688 net.cpp:106] Creating Layer bn4c_branch2a
I0329 14:44:26.626343  7688 net.cpp:454] bn4c_branch2a <- res4c_branch2a
I0329 14:44:26.626365  7688 net.cpp:397] bn4c_branch2a -> res4c_branch2a (in-place)
I0329 14:44:26.626792  7688 net.cpp:150] Setting up bn4c_branch2a
I0329 14:44:26.626828  7688 net.cpp:157] Top shape: 16 256 14 14 (802816)
I0329 14:44:26.626847  7688 net.cpp:165] Memory required for data: 3175942080
I0329 14:44:26.626878  7688 layer_factory.hpp:77] Creating layer scale4c_branch2a
I0329 14:44:26.626904  7688 net.cpp:106] Creating Layer scale4c_branch2a
I0329 14:44:26.626922  7688 net.cpp:454] scale4c_branch2a <- res4c_branch2a
I0329 14:44:26.626945  7688 net.cpp:397] scale4c_branch2a -> res4c_branch2a (in-place)
I0329 14:44:26.627063  7688 layer_factory.hpp:77] Creating layer scale4c_branch2a
I0329 14:44:26.627333  7688 net.cpp:150] Setting up scale4c_branch2a
I0329 14:44:26.627368  7688 net.cpp:157] Top shape: 16 256 14 14 (802816)
I0329 14:44:26.627387  7688 net.cpp:165] Memory required for data: 3179153344
I0329 14:44:26.627413  7688 layer_factory.hpp:77] Creating layer res4c_branch2a_relu
I0329 14:44:26.627442  7688 net.cpp:106] Creating Layer res4c_branch2a_relu
I0329 14:44:26.627463  7688 net.cpp:454] res4c_branch2a_relu <- res4c_branch2a
I0329 14:44:26.627486  7688 net.cpp:397] res4c_branch2a_relu -> res4c_branch2a (in-place)
I0329 14:44:26.627511  7688 net.cpp:150] Setting up res4c_branch2a_relu
I0329 14:44:26.627533  7688 net.cpp:157] Top shape: 16 256 14 14 (802816)
I0329 14:44:26.627552  7688 net.cpp:165] Memory required for data: 3182364608
I0329 14:44:26.627569  7688 layer_factory.hpp:77] Creating layer res4c_branch2b
I0329 14:44:26.627601  7688 net.cpp:106] Creating Layer res4c_branch2b
I0329 14:44:26.627622  7688 net.cpp:454] res4c_branch2b <- res4c_branch2a
I0329 14:44:26.627646  7688 net.cpp:411] res4c_branch2b -> res4c_branch2b
I0329 14:44:26.631031  7688 net.cpp:150] Setting up res4c_branch2b
I0329 14:44:26.631077  7688 net.cpp:157] Top shape: 16 256 14 14 (802816)
I0329 14:44:26.631096  7688 net.cpp:165] Memory required for data: 3185575872
I0329 14:44:26.631119  7688 layer_factory.hpp:77] Creating layer bn4c_branch2b
I0329 14:44:26.631157  7688 net.cpp:106] Creating Layer bn4c_branch2b
I0329 14:44:26.631181  7688 net.cpp:454] bn4c_branch2b <- res4c_branch2b
I0329 14:44:26.631204  7688 net.cpp:397] bn4c_branch2b -> res4c_branch2b (in-place)
I0329 14:44:26.631636  7688 net.cpp:150] Setting up bn4c_branch2b
I0329 14:44:26.631685  7688 net.cpp:157] Top shape: 16 256 14 14 (802816)
I0329 14:44:26.631722  7688 net.cpp:165] Memory required for data: 3188787136
I0329 14:44:26.631754  7688 layer_factory.hpp:77] Creating layer scale4c_branch2b
I0329 14:44:26.631786  7688 net.cpp:106] Creating Layer scale4c_branch2b
I0329 14:44:26.631808  7688 net.cpp:454] scale4c_branch2b <- res4c_branch2b
I0329 14:44:26.631830  7688 net.cpp:397] scale4c_branch2b -> res4c_branch2b (in-place)
I0329 14:44:26.631949  7688 layer_factory.hpp:77] Creating layer scale4c_branch2b
I0329 14:44:26.632225  7688 net.cpp:150] Setting up scale4c_branch2b
I0329 14:44:26.632258  7688 net.cpp:157] Top shape: 16 256 14 14 (802816)
I0329 14:44:26.632277  7688 net.cpp:165] Memory required for data: 3191998400
I0329 14:44:26.632303  7688 layer_factory.hpp:77] Creating layer res4c_branch2b_relu
I0329 14:44:26.632328  7688 net.cpp:106] Creating Layer res4c_branch2b_relu
I0329 14:44:26.632347  7688 net.cpp:454] res4c_branch2b_relu <- res4c_branch2b
I0329 14:44:26.632369  7688 net.cpp:397] res4c_branch2b_relu -> res4c_branch2b (in-place)
I0329 14:44:26.632395  7688 net.cpp:150] Setting up res4c_branch2b_relu
I0329 14:44:26.632416  7688 net.cpp:157] Top shape: 16 256 14 14 (802816)
I0329 14:44:26.632434  7688 net.cpp:165] Memory required for data: 3195209664
I0329 14:44:26.632452  7688 layer_factory.hpp:77] Creating layer res4c_branch2c
I0329 14:44:26.632485  7688 net.cpp:106] Creating Layer res4c_branch2c
I0329 14:44:26.632506  7688 net.cpp:454] res4c_branch2c <- res4c_branch2b
I0329 14:44:26.632536  7688 net.cpp:411] res4c_branch2c -> res4c_branch2c
I0329 14:44:26.634424  7688 net.cpp:150] Setting up res4c_branch2c
I0329 14:44:26.634469  7688 net.cpp:157] Top shape: 16 1024 14 14 (3211264)
I0329 14:44:26.634490  7688 net.cpp:165] Memory required for data: 3208054720
I0329 14:44:26.634513  7688 layer_factory.hpp:77] Creating layer bn4c_branch2c
I0329 14:44:26.634539  7688 net.cpp:106] Creating Layer bn4c_branch2c
I0329 14:44:26.634560  7688 net.cpp:454] bn4c_branch2c <- res4c_branch2c
I0329 14:44:26.634589  7688 net.cpp:397] bn4c_branch2c -> res4c_branch2c (in-place)
I0329 14:44:26.635036  7688 net.cpp:150] Setting up bn4c_branch2c
I0329 14:44:26.635071  7688 net.cpp:157] Top shape: 16 1024 14 14 (3211264)
I0329 14:44:26.635090  7688 net.cpp:165] Memory required for data: 3220899776
I0329 14:44:26.635120  7688 layer_factory.hpp:77] Creating layer scale4c_branch2c
I0329 14:44:26.635146  7688 net.cpp:106] Creating Layer scale4c_branch2c
I0329 14:44:26.635166  7688 net.cpp:454] scale4c_branch2c <- res4c_branch2c
I0329 14:44:26.635188  7688 net.cpp:397] scale4c_branch2c -> res4c_branch2c (in-place)
I0329 14:44:26.635303  7688 layer_factory.hpp:77] Creating layer scale4c_branch2c
I0329 14:44:26.635593  7688 net.cpp:150] Setting up scale4c_branch2c
I0329 14:44:26.635628  7688 net.cpp:157] Top shape: 16 1024 14 14 (3211264)
I0329 14:44:26.635648  7688 net.cpp:165] Memory required for data: 3233744832
I0329 14:44:26.635674  7688 layer_factory.hpp:77] Creating layer res4c
I0329 14:44:26.635699  7688 net.cpp:106] Creating Layer res4c
I0329 14:44:26.635720  7688 net.cpp:454] res4c <- res4b_res4b_relu_0_split_1
I0329 14:44:26.635740  7688 net.cpp:454] res4c <- res4c_branch2c
I0329 14:44:26.635769  7688 net.cpp:411] res4c -> res4c
I0329 14:44:26.635840  7688 net.cpp:150] Setting up res4c
I0329 14:44:26.635872  7688 net.cpp:157] Top shape: 16 1024 14 14 (3211264)
I0329 14:44:26.635890  7688 net.cpp:165] Memory required for data: 3246589888
I0329 14:44:26.635910  7688 layer_factory.hpp:77] Creating layer res4c_relu
I0329 14:44:26.635938  7688 net.cpp:106] Creating Layer res4c_relu
I0329 14:44:26.635959  7688 net.cpp:454] res4c_relu <- res4c
I0329 14:44:26.635982  7688 net.cpp:397] res4c_relu -> res4c (in-place)
I0329 14:44:26.636008  7688 net.cpp:150] Setting up res4c_relu
I0329 14:44:26.636030  7688 net.cpp:157] Top shape: 16 1024 14 14 (3211264)
I0329 14:44:26.636047  7688 net.cpp:165] Memory required for data: 3259434944
I0329 14:44:26.636065  7688 layer_factory.hpp:77] Creating layer res4c_res4c_relu_0_split
I0329 14:44:26.636124  7688 net.cpp:106] Creating Layer res4c_res4c_relu_0_split
I0329 14:44:26.636147  7688 net.cpp:454] res4c_res4c_relu_0_split <- res4c
I0329 14:44:26.636170  7688 net.cpp:411] res4c_res4c_relu_0_split -> res4c_res4c_relu_0_split_0
I0329 14:44:26.636196  7688 net.cpp:411] res4c_res4c_relu_0_split -> res4c_res4c_relu_0_split_1
I0329 14:44:26.636298  7688 net.cpp:150] Setting up res4c_res4c_relu_0_split
I0329 14:44:26.636330  7688 net.cpp:157] Top shape: 16 1024 14 14 (3211264)
I0329 14:44:26.636353  7688 net.cpp:157] Top shape: 16 1024 14 14 (3211264)
I0329 14:44:26.636369  7688 net.cpp:165] Memory required for data: 3285125056
I0329 14:44:26.636387  7688 layer_factory.hpp:77] Creating layer res4d_branch2a
I0329 14:44:26.636427  7688 net.cpp:106] Creating Layer res4d_branch2a
I0329 14:44:26.636451  7688 net.cpp:454] res4d_branch2a <- res4c_res4c_relu_0_split_0
I0329 14:44:26.636476  7688 net.cpp:411] res4d_branch2a -> res4d_branch2a
I0329 14:44:26.638430  7688 net.cpp:150] Setting up res4d_branch2a
I0329 14:44:26.638475  7688 net.cpp:157] Top shape: 16 256 14 14 (802816)
I0329 14:44:26.638495  7688 net.cpp:165] Memory required for data: 3288336320
I0329 14:44:26.638520  7688 layer_factory.hpp:77] Creating layer bn4d_branch2a
I0329 14:44:26.638545  7688 net.cpp:106] Creating Layer bn4d_branch2a
I0329 14:44:26.638566  7688 net.cpp:454] bn4d_branch2a <- res4d_branch2a
I0329 14:44:26.638589  7688 net.cpp:397] bn4d_branch2a -> res4d_branch2a (in-place)
I0329 14:44:26.639020  7688 net.cpp:150] Setting up bn4d_branch2a
I0329 14:44:26.639060  7688 net.cpp:157] Top shape: 16 256 14 14 (802816)
I0329 14:44:26.639081  7688 net.cpp:165] Memory required for data: 3291547584
I0329 14:44:26.639111  7688 layer_factory.hpp:77] Creating layer scale4d_branch2a
I0329 14:44:26.639138  7688 net.cpp:106] Creating Layer scale4d_branch2a
I0329 14:44:26.639158  7688 net.cpp:454] scale4d_branch2a <- res4d_branch2a
I0329 14:44:26.639181  7688 net.cpp:397] scale4d_branch2a -> res4d_branch2a (in-place)
I0329 14:44:26.639297  7688 layer_factory.hpp:77] Creating layer scale4d_branch2a
I0329 14:44:26.639580  7688 net.cpp:150] Setting up scale4d_branch2a
I0329 14:44:26.639614  7688 net.cpp:157] Top shape: 16 256 14 14 (802816)
I0329 14:44:26.639633  7688 net.cpp:165] Memory required for data: 3294758848
I0329 14:44:26.639659  7688 layer_factory.hpp:77] Creating layer res4d_branch2a_relu
I0329 14:44:26.639690  7688 net.cpp:106] Creating Layer res4d_branch2a_relu
I0329 14:44:26.639711  7688 net.cpp:454] res4d_branch2a_relu <- res4d_branch2a
I0329 14:44:26.639734  7688 net.cpp:397] res4d_branch2a_relu -> res4d_branch2a (in-place)
I0329 14:44:26.639760  7688 net.cpp:150] Setting up res4d_branch2a_relu
I0329 14:44:26.639782  7688 net.cpp:157] Top shape: 16 256 14 14 (802816)
I0329 14:44:26.639801  7688 net.cpp:165] Memory required for data: 3297970112
I0329 14:44:26.639818  7688 layer_factory.hpp:77] Creating layer res4d_branch2b
I0329 14:44:26.639852  7688 net.cpp:106] Creating Layer res4d_branch2b
I0329 14:44:26.639873  7688 net.cpp:454] res4d_branch2b <- res4d_branch2a
I0329 14:44:26.639896  7688 net.cpp:411] res4d_branch2b -> res4d_branch2b
I0329 14:44:26.643285  7688 net.cpp:150] Setting up res4d_branch2b
I0329 14:44:26.643332  7688 net.cpp:157] Top shape: 16 256 14 14 (802816)
I0329 14:44:26.643350  7688 net.cpp:165] Memory required for data: 3301181376
I0329 14:44:26.643375  7688 layer_factory.hpp:77] Creating layer bn4d_branch2b
I0329 14:44:26.643406  7688 net.cpp:106] Creating Layer bn4d_branch2b
I0329 14:44:26.643429  7688 net.cpp:454] bn4d_branch2b <- res4d_branch2b
I0329 14:44:26.643452  7688 net.cpp:397] bn4d_branch2b -> res4d_branch2b (in-place)
I0329 14:44:26.643883  7688 net.cpp:150] Setting up bn4d_branch2b
I0329 14:44:26.643918  7688 net.cpp:157] Top shape: 16 256 14 14 (802816)
I0329 14:44:26.643937  7688 net.cpp:165] Memory required for data: 3304392640
I0329 14:44:26.643966  7688 layer_factory.hpp:77] Creating layer scale4d_branch2b
I0329 14:44:26.643997  7688 net.cpp:106] Creating Layer scale4d_branch2b
I0329 14:44:26.644048  7688 net.cpp:454] scale4d_branch2b <- res4d_branch2b
I0329 14:44:26.644074  7688 net.cpp:397] scale4d_branch2b -> res4d_branch2b (in-place)
I0329 14:44:26.644201  7688 layer_factory.hpp:77] Creating layer scale4d_branch2b
I0329 14:44:26.644484  7688 net.cpp:150] Setting up scale4d_branch2b
I0329 14:44:26.644518  7688 net.cpp:157] Top shape: 16 256 14 14 (802816)
I0329 14:44:26.644537  7688 net.cpp:165] Memory required for data: 3307603904
I0329 14:44:26.644563  7688 layer_factory.hpp:77] Creating layer res4d_branch2b_relu
I0329 14:44:26.644588  7688 net.cpp:106] Creating Layer res4d_branch2b_relu
I0329 14:44:26.644608  7688 net.cpp:454] res4d_branch2b_relu <- res4d_branch2b
I0329 14:44:26.644629  7688 net.cpp:397] res4d_branch2b_relu -> res4d_branch2b (in-place)
I0329 14:44:26.644654  7688 net.cpp:150] Setting up res4d_branch2b_relu
I0329 14:44:26.644677  7688 net.cpp:157] Top shape: 16 256 14 14 (802816)
I0329 14:44:26.644695  7688 net.cpp:165] Memory required for data: 3310815168
I0329 14:44:26.644712  7688 layer_factory.hpp:77] Creating layer res4d_branch2c
I0329 14:44:26.644745  7688 net.cpp:106] Creating Layer res4d_branch2c
I0329 14:44:26.644765  7688 net.cpp:454] res4d_branch2c <- res4d_branch2b
I0329 14:44:26.644800  7688 net.cpp:411] res4d_branch2c -> res4d_branch2c
I0329 14:44:26.646694  7688 net.cpp:150] Setting up res4d_branch2c
I0329 14:44:26.646739  7688 net.cpp:157] Top shape: 16 1024 14 14 (3211264)
I0329 14:44:26.646759  7688 net.cpp:165] Memory required for data: 3323660224
I0329 14:44:26.646782  7688 layer_factory.hpp:77] Creating layer bn4d_branch2c
I0329 14:44:26.646809  7688 net.cpp:106] Creating Layer bn4d_branch2c
I0329 14:44:26.646829  7688 net.cpp:454] bn4d_branch2c <- res4d_branch2c
I0329 14:44:26.646859  7688 net.cpp:397] bn4d_branch2c -> res4d_branch2c (in-place)
I0329 14:44:26.647308  7688 net.cpp:150] Setting up bn4d_branch2c
I0329 14:44:26.647344  7688 net.cpp:157] Top shape: 16 1024 14 14 (3211264)
I0329 14:44:26.647362  7688 net.cpp:165] Memory required for data: 3336505280
I0329 14:44:26.647393  7688 layer_factory.hpp:77] Creating layer scale4d_branch2c
I0329 14:44:26.647420  7688 net.cpp:106] Creating Layer scale4d_branch2c
I0329 14:44:26.647439  7688 net.cpp:454] scale4d_branch2c <- res4d_branch2c
I0329 14:44:26.647462  7688 net.cpp:397] scale4d_branch2c -> res4d_branch2c (in-place)
I0329 14:44:26.647579  7688 layer_factory.hpp:77] Creating layer scale4d_branch2c
I0329 14:44:26.647871  7688 net.cpp:150] Setting up scale4d_branch2c
I0329 14:44:26.647907  7688 net.cpp:157] Top shape: 16 1024 14 14 (3211264)
I0329 14:44:26.647924  7688 net.cpp:165] Memory required for data: 3349350336
I0329 14:44:26.647951  7688 layer_factory.hpp:77] Creating layer res4d
I0329 14:44:26.647976  7688 net.cpp:106] Creating Layer res4d
I0329 14:44:26.647996  7688 net.cpp:454] res4d <- res4c_res4c_relu_0_split_1
I0329 14:44:26.648016  7688 net.cpp:454] res4d <- res4d_branch2c
I0329 14:44:26.648046  7688 net.cpp:411] res4d -> res4d
I0329 14:44:26.648118  7688 net.cpp:150] Setting up res4d
I0329 14:44:26.648151  7688 net.cpp:157] Top shape: 16 1024 14 14 (3211264)
I0329 14:44:26.648169  7688 net.cpp:165] Memory required for data: 3362195392
I0329 14:44:26.648187  7688 layer_factory.hpp:77] Creating layer res4d_relu
I0329 14:44:26.648216  7688 net.cpp:106] Creating Layer res4d_relu
I0329 14:44:26.648237  7688 net.cpp:454] res4d_relu <- res4d
I0329 14:44:26.648259  7688 net.cpp:397] res4d_relu -> res4d (in-place)
I0329 14:44:26.648285  7688 net.cpp:150] Setting up res4d_relu
I0329 14:44:26.648308  7688 net.cpp:157] Top shape: 16 1024 14 14 (3211264)
I0329 14:44:26.648325  7688 net.cpp:165] Memory required for data: 3375040448
I0329 14:44:26.648344  7688 layer_factory.hpp:77] Creating layer res4d_res4d_relu_0_split
I0329 14:44:26.648370  7688 net.cpp:106] Creating Layer res4d_res4d_relu_0_split
I0329 14:44:26.648391  7688 net.cpp:454] res4d_res4d_relu_0_split <- res4d
I0329 14:44:26.648412  7688 net.cpp:411] res4d_res4d_relu_0_split -> res4d_res4d_relu_0_split_0
I0329 14:44:26.648452  7688 net.cpp:411] res4d_res4d_relu_0_split -> res4d_res4d_relu_0_split_1
I0329 14:44:26.648576  7688 net.cpp:150] Setting up res4d_res4d_relu_0_split
I0329 14:44:26.648609  7688 net.cpp:157] Top shape: 16 1024 14 14 (3211264)
I0329 14:44:26.648632  7688 net.cpp:157] Top shape: 16 1024 14 14 (3211264)
I0329 14:44:26.648648  7688 net.cpp:165] Memory required for data: 3400730560
I0329 14:44:26.648668  7688 layer_factory.hpp:77] Creating layer res4e_branch2a
I0329 14:44:26.648701  7688 net.cpp:106] Creating Layer res4e_branch2a
I0329 14:44:26.648723  7688 net.cpp:454] res4e_branch2a <- res4d_res4d_relu_0_split_0
I0329 14:44:26.648747  7688 net.cpp:411] res4e_branch2a -> res4e_branch2a
I0329 14:44:26.650665  7688 net.cpp:150] Setting up res4e_branch2a
I0329 14:44:26.650709  7688 net.cpp:157] Top shape: 16 256 14 14 (802816)
I0329 14:44:26.650728  7688 net.cpp:165] Memory required for data: 3403941824
I0329 14:44:26.650753  7688 layer_factory.hpp:77] Creating layer bn4e_branch2a
I0329 14:44:26.650779  7688 net.cpp:106] Creating Layer bn4e_branch2a
I0329 14:44:26.650799  7688 net.cpp:454] bn4e_branch2a <- res4e_branch2a
I0329 14:44:26.650822  7688 net.cpp:397] bn4e_branch2a -> res4e_branch2a (in-place)
I0329 14:44:26.651268  7688 net.cpp:150] Setting up bn4e_branch2a
I0329 14:44:26.651301  7688 net.cpp:157] Top shape: 16 256 14 14 (802816)
I0329 14:44:26.651320  7688 net.cpp:165] Memory required for data: 3407153088
I0329 14:44:26.651357  7688 layer_factory.hpp:77] Creating layer scale4e_branch2a
I0329 14:44:26.651384  7688 net.cpp:106] Creating Layer scale4e_branch2a
I0329 14:44:26.651404  7688 net.cpp:454] scale4e_branch2a <- res4e_branch2a
I0329 14:44:26.651427  7688 net.cpp:397] scale4e_branch2a -> res4e_branch2a (in-place)
I0329 14:44:26.651545  7688 layer_factory.hpp:77] Creating layer scale4e_branch2a
I0329 14:44:26.651829  7688 net.cpp:150] Setting up scale4e_branch2a
I0329 14:44:26.651863  7688 net.cpp:157] Top shape: 16 256 14 14 (802816)
I0329 14:44:26.651882  7688 net.cpp:165] Memory required for data: 3410364352
I0329 14:44:26.651909  7688 layer_factory.hpp:77] Creating layer res4e_branch2a_relu
I0329 14:44:26.651939  7688 net.cpp:106] Creating Layer res4e_branch2a_relu
I0329 14:44:26.651960  7688 net.cpp:454] res4e_branch2a_relu <- res4e_branch2a
I0329 14:44:26.651983  7688 net.cpp:397] res4e_branch2a_relu -> res4e_branch2a (in-place)
I0329 14:44:26.652009  7688 net.cpp:150] Setting up res4e_branch2a_relu
I0329 14:44:26.652032  7688 net.cpp:157] Top shape: 16 256 14 14 (802816)
I0329 14:44:26.652050  7688 net.cpp:165] Memory required for data: 3413575616
I0329 14:44:26.652067  7688 layer_factory.hpp:77] Creating layer res4e_branch2b
I0329 14:44:26.652101  7688 net.cpp:106] Creating Layer res4e_branch2b
I0329 14:44:26.652122  7688 net.cpp:454] res4e_branch2b <- res4e_branch2a
I0329 14:44:26.652144  7688 net.cpp:411] res4e_branch2b -> res4e_branch2b
I0329 14:44:26.655524  7688 net.cpp:150] Setting up res4e_branch2b
I0329 14:44:26.655570  7688 net.cpp:157] Top shape: 16 256 14 14 (802816)
I0329 14:44:26.655589  7688 net.cpp:165] Memory required for data: 3416786880
I0329 14:44:26.655613  7688 layer_factory.hpp:77] Creating layer bn4e_branch2b
I0329 14:44:26.655645  7688 net.cpp:106] Creating Layer bn4e_branch2b
I0329 14:44:26.655668  7688 net.cpp:454] bn4e_branch2b <- res4e_branch2b
I0329 14:44:26.655692  7688 net.cpp:397] bn4e_branch2b -> res4e_branch2b (in-place)
I0329 14:44:26.656131  7688 net.cpp:150] Setting up bn4e_branch2b
I0329 14:44:26.656167  7688 net.cpp:157] Top shape: 16 256 14 14 (802816)
I0329 14:44:26.656185  7688 net.cpp:165] Memory required for data: 3419998144
I0329 14:44:26.656215  7688 layer_factory.hpp:77] Creating layer scale4e_branch2b
I0329 14:44:26.656249  7688 net.cpp:106] Creating Layer scale4e_branch2b
I0329 14:44:26.656270  7688 net.cpp:454] scale4e_branch2b <- res4e_branch2b
I0329 14:44:26.656293  7688 net.cpp:397] scale4e_branch2b -> res4e_branch2b (in-place)
I0329 14:44:26.656410  7688 layer_factory.hpp:77] Creating layer scale4e_branch2b
I0329 14:44:26.656718  7688 net.cpp:150] Setting up scale4e_branch2b
I0329 14:44:26.656774  7688 net.cpp:157] Top shape: 16 256 14 14 (802816)
I0329 14:44:26.656793  7688 net.cpp:165] Memory required for data: 3423209408
I0329 14:44:26.656821  7688 layer_factory.hpp:77] Creating layer res4e_branch2b_relu
I0329 14:44:26.656844  7688 net.cpp:106] Creating Layer res4e_branch2b_relu
I0329 14:44:26.656864  7688 net.cpp:454] res4e_branch2b_relu <- res4e_branch2b
I0329 14:44:26.656886  7688 net.cpp:397] res4e_branch2b_relu -> res4e_branch2b (in-place)
I0329 14:44:26.656911  7688 net.cpp:150] Setting up res4e_branch2b_relu
I0329 14:44:26.656934  7688 net.cpp:157] Top shape: 16 256 14 14 (802816)
I0329 14:44:26.656951  7688 net.cpp:165] Memory required for data: 3426420672
I0329 14:44:26.656970  7688 layer_factory.hpp:77] Creating layer res4e_branch2c
I0329 14:44:26.657003  7688 net.cpp:106] Creating Layer res4e_branch2c
I0329 14:44:26.657024  7688 net.cpp:454] res4e_branch2c <- res4e_branch2b
I0329 14:44:26.657053  7688 net.cpp:411] res4e_branch2c -> res4e_branch2c
I0329 14:44:26.658947  7688 net.cpp:150] Setting up res4e_branch2c
I0329 14:44:26.658993  7688 net.cpp:157] Top shape: 16 1024 14 14 (3211264)
I0329 14:44:26.659011  7688 net.cpp:165] Memory required for data: 3439265728
I0329 14:44:26.659036  7688 layer_factory.hpp:77] Creating layer bn4e_branch2c
I0329 14:44:26.659061  7688 net.cpp:106] Creating Layer bn4e_branch2c
I0329 14:44:26.659082  7688 net.cpp:454] bn4e_branch2c <- res4e_branch2c
I0329 14:44:26.659111  7688 net.cpp:397] bn4e_branch2c -> res4e_branch2c (in-place)
I0329 14:44:26.659574  7688 net.cpp:150] Setting up bn4e_branch2c
I0329 14:44:26.659610  7688 net.cpp:157] Top shape: 16 1024 14 14 (3211264)
I0329 14:44:26.659629  7688 net.cpp:165] Memory required for data: 3452110784
I0329 14:44:26.659659  7688 layer_factory.hpp:77] Creating layer scale4e_branch2c
I0329 14:44:26.659687  7688 net.cpp:106] Creating Layer scale4e_branch2c
I0329 14:44:26.659705  7688 net.cpp:454] scale4e_branch2c <- res4e_branch2c
I0329 14:44:26.659729  7688 net.cpp:397] scale4e_branch2c -> res4e_branch2c (in-place)
I0329 14:44:26.659847  7688 layer_factory.hpp:77] Creating layer scale4e_branch2c
I0329 14:44:26.660145  7688 net.cpp:150] Setting up scale4e_branch2c
I0329 14:44:26.660179  7688 net.cpp:157] Top shape: 16 1024 14 14 (3211264)
I0329 14:44:26.660198  7688 net.cpp:165] Memory required for data: 3464955840
I0329 14:44:26.660224  7688 layer_factory.hpp:77] Creating layer res4e
I0329 14:44:26.660249  7688 net.cpp:106] Creating Layer res4e
I0329 14:44:26.660270  7688 net.cpp:454] res4e <- res4d_res4d_relu_0_split_1
I0329 14:44:26.660291  7688 net.cpp:454] res4e <- res4e_branch2c
I0329 14:44:26.660321  7688 net.cpp:411] res4e -> res4e
I0329 14:44:26.660395  7688 net.cpp:150] Setting up res4e
I0329 14:44:26.660428  7688 net.cpp:157] Top shape: 16 1024 14 14 (3211264)
I0329 14:44:26.660446  7688 net.cpp:165] Memory required for data: 3477800896
I0329 14:44:26.660465  7688 layer_factory.hpp:77] Creating layer res4e_relu
I0329 14:44:26.660493  7688 net.cpp:106] Creating Layer res4e_relu
I0329 14:44:26.660516  7688 net.cpp:454] res4e_relu <- res4e
I0329 14:44:26.660537  7688 net.cpp:397] res4e_relu -> res4e (in-place)
I0329 14:44:26.660563  7688 net.cpp:150] Setting up res4e_relu
I0329 14:44:26.660586  7688 net.cpp:157] Top shape: 16 1024 14 14 (3211264)
I0329 14:44:26.660604  7688 net.cpp:165] Memory required for data: 3490645952
I0329 14:44:26.660621  7688 layer_factory.hpp:77] Creating layer res4e_res4e_relu_0_split
I0329 14:44:26.660650  7688 net.cpp:106] Creating Layer res4e_res4e_relu_0_split
I0329 14:44:26.660670  7688 net.cpp:454] res4e_res4e_relu_0_split <- res4e
I0329 14:44:26.660692  7688 net.cpp:411] res4e_res4e_relu_0_split -> res4e_res4e_relu_0_split_0
I0329 14:44:26.660718  7688 net.cpp:411] res4e_res4e_relu_0_split -> res4e_res4e_relu_0_split_1
I0329 14:44:26.660820  7688 net.cpp:150] Setting up res4e_res4e_relu_0_split
I0329 14:44:26.660853  7688 net.cpp:157] Top shape: 16 1024 14 14 (3211264)
I0329 14:44:26.660874  7688 net.cpp:157] Top shape: 16 1024 14 14 (3211264)
I0329 14:44:26.660928  7688 net.cpp:165] Memory required for data: 3516336064
I0329 14:44:26.660949  7688 layer_factory.hpp:77] Creating layer res4f_branch2a
I0329 14:44:26.660977  7688 net.cpp:106] Creating Layer res4f_branch2a
I0329 14:44:26.660997  7688 net.cpp:454] res4f_branch2a <- res4e_res4e_relu_0_split_0
I0329 14:44:26.661027  7688 net.cpp:411] res4f_branch2a -> res4f_branch2a
I0329 14:44:26.662933  7688 net.cpp:150] Setting up res4f_branch2a
I0329 14:44:26.662978  7688 net.cpp:157] Top shape: 16 256 14 14 (802816)
I0329 14:44:26.662998  7688 net.cpp:165] Memory required for data: 3519547328
I0329 14:44:26.663022  7688 layer_factory.hpp:77] Creating layer bn4f_branch2a
I0329 14:44:26.663048  7688 net.cpp:106] Creating Layer bn4f_branch2a
I0329 14:44:26.663069  7688 net.cpp:454] bn4f_branch2a <- res4f_branch2a
I0329 14:44:26.663091  7688 net.cpp:397] bn4f_branch2a -> res4f_branch2a (in-place)
I0329 14:44:26.663537  7688 net.cpp:150] Setting up bn4f_branch2a
I0329 14:44:26.663573  7688 net.cpp:157] Top shape: 16 256 14 14 (802816)
I0329 14:44:26.663591  7688 net.cpp:165] Memory required for data: 3522758592
I0329 14:44:26.663627  7688 layer_factory.hpp:77] Creating layer scale4f_branch2a
I0329 14:44:26.663655  7688 net.cpp:106] Creating Layer scale4f_branch2a
I0329 14:44:26.663676  7688 net.cpp:454] scale4f_branch2a <- res4f_branch2a
I0329 14:44:26.663699  7688 net.cpp:397] scale4f_branch2a -> res4f_branch2a (in-place)
I0329 14:44:26.663817  7688 layer_factory.hpp:77] Creating layer scale4f_branch2a
I0329 14:44:26.664106  7688 net.cpp:150] Setting up scale4f_branch2a
I0329 14:44:26.664140  7688 net.cpp:157] Top shape: 16 256 14 14 (802816)
I0329 14:44:26.664160  7688 net.cpp:165] Memory required for data: 3525969856
I0329 14:44:26.664186  7688 layer_factory.hpp:77] Creating layer res4f_branch2a_relu
I0329 14:44:26.664216  7688 net.cpp:106] Creating Layer res4f_branch2a_relu
I0329 14:44:26.664237  7688 net.cpp:454] res4f_branch2a_relu <- res4f_branch2a
I0329 14:44:26.664260  7688 net.cpp:397] res4f_branch2a_relu -> res4f_branch2a (in-place)
I0329 14:44:26.664285  7688 net.cpp:150] Setting up res4f_branch2a_relu
I0329 14:44:26.664309  7688 net.cpp:157] Top shape: 16 256 14 14 (802816)
I0329 14:44:26.664326  7688 net.cpp:165] Memory required for data: 3529181120
I0329 14:44:26.664345  7688 layer_factory.hpp:77] Creating layer res4f_branch2b
I0329 14:44:26.664377  7688 net.cpp:106] Creating Layer res4f_branch2b
I0329 14:44:26.664398  7688 net.cpp:454] res4f_branch2b <- res4f_branch2a
I0329 14:44:26.664422  7688 net.cpp:411] res4f_branch2b -> res4f_branch2b
I0329 14:44:26.667793  7688 net.cpp:150] Setting up res4f_branch2b
I0329 14:44:26.667839  7688 net.cpp:157] Top shape: 16 256 14 14 (802816)
I0329 14:44:26.667857  7688 net.cpp:165] Memory required for data: 3532392384
I0329 14:44:26.667881  7688 layer_factory.hpp:77] Creating layer bn4f_branch2b
I0329 14:44:26.667919  7688 net.cpp:106] Creating Layer bn4f_branch2b
I0329 14:44:26.667943  7688 net.cpp:454] bn4f_branch2b <- res4f_branch2b
I0329 14:44:26.667966  7688 net.cpp:397] bn4f_branch2b -> res4f_branch2b (in-place)
I0329 14:44:26.668417  7688 net.cpp:150] Setting up bn4f_branch2b
I0329 14:44:26.668452  7688 net.cpp:157] Top shape: 16 256 14 14 (802816)
I0329 14:44:26.668472  7688 net.cpp:165] Memory required for data: 3535603648
I0329 14:44:26.668503  7688 layer_factory.hpp:77] Creating layer scale4f_branch2b
I0329 14:44:26.668529  7688 net.cpp:106] Creating Layer scale4f_branch2b
I0329 14:44:26.668548  7688 net.cpp:454] scale4f_branch2b <- res4f_branch2b
I0329 14:44:26.668577  7688 net.cpp:397] scale4f_branch2b -> res4f_branch2b (in-place)
I0329 14:44:26.668697  7688 layer_factory.hpp:77] Creating layer scale4f_branch2b
I0329 14:44:26.668992  7688 net.cpp:150] Setting up scale4f_branch2b
I0329 14:44:26.669028  7688 net.cpp:157] Top shape: 16 256 14 14 (802816)
I0329 14:44:26.669046  7688 net.cpp:165] Memory required for data: 3538814912
I0329 14:44:26.669072  7688 layer_factory.hpp:77] Creating layer res4f_branch2b_relu
I0329 14:44:26.669112  7688 net.cpp:106] Creating Layer res4f_branch2b_relu
I0329 14:44:26.669153  7688 net.cpp:454] res4f_branch2b_relu <- res4f_branch2b
I0329 14:44:26.669178  7688 net.cpp:397] res4f_branch2b_relu -> res4f_branch2b (in-place)
I0329 14:44:26.669203  7688 net.cpp:150] Setting up res4f_branch2b_relu
I0329 14:44:26.669227  7688 net.cpp:157] Top shape: 16 256 14 14 (802816)
I0329 14:44:26.669245  7688 net.cpp:165] Memory required for data: 3542026176
I0329 14:44:26.669262  7688 layer_factory.hpp:77] Creating layer res4f_branch2c
I0329 14:44:26.669294  7688 net.cpp:106] Creating Layer res4f_branch2c
I0329 14:44:26.669315  7688 net.cpp:454] res4f_branch2c <- res4f_branch2b
I0329 14:44:26.669358  7688 net.cpp:411] res4f_branch2c -> res4f_branch2c
I0329 14:44:26.671241  7688 net.cpp:150] Setting up res4f_branch2c
I0329 14:44:26.671284  7688 net.cpp:157] Top shape: 16 1024 14 14 (3211264)
I0329 14:44:26.671304  7688 net.cpp:165] Memory required for data: 3554871232
I0329 14:44:26.671329  7688 layer_factory.hpp:77] Creating layer bn4f_branch2c
I0329 14:44:26.671355  7688 net.cpp:106] Creating Layer bn4f_branch2c
I0329 14:44:26.671375  7688 net.cpp:454] bn4f_branch2c <- res4f_branch2c
I0329 14:44:26.671406  7688 net.cpp:397] bn4f_branch2c -> res4f_branch2c (in-place)
I0329 14:44:26.671867  7688 net.cpp:150] Setting up bn4f_branch2c
I0329 14:44:26.671902  7688 net.cpp:157] Top shape: 16 1024 14 14 (3211264)
I0329 14:44:26.671921  7688 net.cpp:165] Memory required for data: 3567716288
I0329 14:44:26.672034  7688 layer_factory.hpp:77] Creating layer scale4f_branch2c
I0329 14:44:26.672067  7688 net.cpp:106] Creating Layer scale4f_branch2c
I0329 14:44:26.672089  7688 net.cpp:454] scale4f_branch2c <- res4f_branch2c
I0329 14:44:26.672112  7688 net.cpp:397] scale4f_branch2c -> res4f_branch2c (in-place)
I0329 14:44:26.672235  7688 layer_factory.hpp:77] Creating layer scale4f_branch2c
I0329 14:44:26.672545  7688 net.cpp:150] Setting up scale4f_branch2c
I0329 14:44:26.672581  7688 net.cpp:157] Top shape: 16 1024 14 14 (3211264)
I0329 14:44:26.672600  7688 net.cpp:165] Memory required for data: 3580561344
I0329 14:44:26.672627  7688 layer_factory.hpp:77] Creating layer res4f
I0329 14:44:26.672652  7688 net.cpp:106] Creating Layer res4f
I0329 14:44:26.672673  7688 net.cpp:454] res4f <- res4e_res4e_relu_0_split_1
I0329 14:44:26.672694  7688 net.cpp:454] res4f <- res4f_branch2c
I0329 14:44:26.672724  7688 net.cpp:411] res4f -> res4f
I0329 14:44:26.672804  7688 net.cpp:150] Setting up res4f
I0329 14:44:26.672837  7688 net.cpp:157] Top shape: 16 1024 14 14 (3211264)
I0329 14:44:26.672855  7688 net.cpp:165] Memory required for data: 3593406400
I0329 14:44:26.672874  7688 layer_factory.hpp:77] Creating layer res4f_relu
I0329 14:44:26.672896  7688 net.cpp:106] Creating Layer res4f_relu
I0329 14:44:26.672916  7688 net.cpp:454] res4f_relu <- res4f
I0329 14:44:26.672938  7688 net.cpp:397] res4f_relu -> res4f (in-place)
I0329 14:44:26.672965  7688 net.cpp:150] Setting up res4f_relu
I0329 14:44:26.672987  7688 net.cpp:157] Top shape: 16 1024 14 14 (3211264)
I0329 14:44:26.673004  7688 net.cpp:165] Memory required for data: 3606251456
I0329 14:44:26.673022  7688 layer_factory.hpp:77] Creating layer res4f_res4f_relu_0_split
I0329 14:44:26.673045  7688 net.cpp:106] Creating Layer res4f_res4f_relu_0_split
I0329 14:44:26.673064  7688 net.cpp:454] res4f_res4f_relu_0_split <- res4f
I0329 14:44:26.673092  7688 net.cpp:411] res4f_res4f_relu_0_split -> res4f_res4f_relu_0_split_0
I0329 14:44:26.673120  7688 net.cpp:411] res4f_res4f_relu_0_split -> res4f_res4f_relu_0_split_1
I0329 14:44:26.673229  7688 net.cpp:150] Setting up res4f_res4f_relu_0_split
I0329 14:44:26.673262  7688 net.cpp:157] Top shape: 16 1024 14 14 (3211264)
I0329 14:44:26.673285  7688 net.cpp:157] Top shape: 16 1024 14 14 (3211264)
I0329 14:44:26.673301  7688 net.cpp:165] Memory required for data: 3631941568
I0329 14:44:26.673321  7688 layer_factory.hpp:77] Creating layer res5a_branch1
I0329 14:44:26.673362  7688 net.cpp:106] Creating Layer res5a_branch1
I0329 14:44:26.673384  7688 net.cpp:454] res5a_branch1 <- res4f_res4f_relu_0_split_0
I0329 14:44:26.673441  7688 net.cpp:411] res5a_branch1 -> res5a_branch1
I0329 14:44:26.683691  7688 net.cpp:150] Setting up res5a_branch1
I0329 14:44:26.683742  7688 net.cpp:157] Top shape: 16 2048 7 7 (1605632)
I0329 14:44:26.683760  7688 net.cpp:165] Memory required for data: 3638364096
I0329 14:44:26.683785  7688 layer_factory.hpp:77] Creating layer bn5a_branch1
I0329 14:44:26.683817  7688 net.cpp:106] Creating Layer bn5a_branch1
I0329 14:44:26.683841  7688 net.cpp:454] bn5a_branch1 <- res5a_branch1
I0329 14:44:26.683866  7688 net.cpp:397] bn5a_branch1 -> res5a_branch1 (in-place)
I0329 14:44:26.684366  7688 net.cpp:150] Setting up bn5a_branch1
I0329 14:44:26.684402  7688 net.cpp:157] Top shape: 16 2048 7 7 (1605632)
I0329 14:44:26.684422  7688 net.cpp:165] Memory required for data: 3644786624
I0329 14:44:26.684451  7688 layer_factory.hpp:77] Creating layer scale5a_branch1
I0329 14:44:26.684484  7688 net.cpp:106] Creating Layer scale5a_branch1
I0329 14:44:26.684506  7688 net.cpp:454] scale5a_branch1 <- res5a_branch1
I0329 14:44:26.684530  7688 net.cpp:397] scale5a_branch1 -> res5a_branch1 (in-place)
I0329 14:44:26.684643  7688 layer_factory.hpp:77] Creating layer scale5a_branch1
I0329 14:44:26.684953  7688 net.cpp:150] Setting up scale5a_branch1
I0329 14:44:26.684989  7688 net.cpp:157] Top shape: 16 2048 7 7 (1605632)
I0329 14:44:26.685009  7688 net.cpp:165] Memory required for data: 3651209152
I0329 14:44:26.685034  7688 layer_factory.hpp:77] Creating layer res5a_branch2a
I0329 14:44:26.685063  7688 net.cpp:106] Creating Layer res5a_branch2a
I0329 14:44:26.685084  7688 net.cpp:454] res5a_branch2a <- res4f_res4f_relu_0_split_1
I0329 14:44:26.685114  7688 net.cpp:411] res5a_branch2a -> res5a_branch2a
I0329 14:44:26.688227  7688 net.cpp:150] Setting up res5a_branch2a
I0329 14:44:26.688273  7688 net.cpp:157] Top shape: 16 512 7 7 (401408)
I0329 14:44:26.688293  7688 net.cpp:165] Memory required for data: 3652814784
I0329 14:44:26.688318  7688 layer_factory.hpp:77] Creating layer bn5a_branch2a
I0329 14:44:26.688344  7688 net.cpp:106] Creating Layer bn5a_branch2a
I0329 14:44:26.688364  7688 net.cpp:454] bn5a_branch2a <- res5a_branch2a
I0329 14:44:26.688387  7688 net.cpp:397] bn5a_branch2a -> res5a_branch2a (in-place)
I0329 14:44:26.688860  7688 net.cpp:150] Setting up bn5a_branch2a
I0329 14:44:26.688896  7688 net.cpp:157] Top shape: 16 512 7 7 (401408)
I0329 14:44:26.688915  7688 net.cpp:165] Memory required for data: 3654420416
I0329 14:44:26.688951  7688 layer_factory.hpp:77] Creating layer scale5a_branch2a
I0329 14:44:26.688979  7688 net.cpp:106] Creating Layer scale5a_branch2a
I0329 14:44:26.688999  7688 net.cpp:454] scale5a_branch2a <- res5a_branch2a
I0329 14:44:26.689023  7688 net.cpp:397] scale5a_branch2a -> res5a_branch2a (in-place)
I0329 14:44:26.689141  7688 layer_factory.hpp:77] Creating layer scale5a_branch2a
I0329 14:44:26.689465  7688 net.cpp:150] Setting up scale5a_branch2a
I0329 14:44:26.689502  7688 net.cpp:157] Top shape: 16 512 7 7 (401408)
I0329 14:44:26.689520  7688 net.cpp:165] Memory required for data: 3656026048
I0329 14:44:26.689548  7688 layer_factory.hpp:77] Creating layer res5a_branch2a_relu
I0329 14:44:26.689579  7688 net.cpp:106] Creating Layer res5a_branch2a_relu
I0329 14:44:26.689601  7688 net.cpp:454] res5a_branch2a_relu <- res5a_branch2a
I0329 14:44:26.689623  7688 net.cpp:397] res5a_branch2a_relu -> res5a_branch2a (in-place)
I0329 14:44:26.689651  7688 net.cpp:150] Setting up res5a_branch2a_relu
I0329 14:44:26.689673  7688 net.cpp:157] Top shape: 16 512 7 7 (401408)
I0329 14:44:26.689692  7688 net.cpp:165] Memory required for data: 3657631680
I0329 14:44:26.689708  7688 layer_factory.hpp:77] Creating layer res5a_branch2b
I0329 14:44:26.689741  7688 net.cpp:106] Creating Layer res5a_branch2b
I0329 14:44:26.689762  7688 net.cpp:454] res5a_branch2b <- res5a_branch2a
I0329 14:44:26.689786  7688 net.cpp:411] res5a_branch2b -> res5a_branch2b
I0329 14:44:26.701298  7688 net.cpp:150] Setting up res5a_branch2b
I0329 14:44:26.701366  7688 net.cpp:157] Top shape: 16 512 7 7 (401408)
I0329 14:44:26.701426  7688 net.cpp:165] Memory required for data: 3659237312
I0329 14:44:26.701453  7688 layer_factory.hpp:77] Creating layer bn5a_branch2b
I0329 14:44:26.701486  7688 net.cpp:106] Creating Layer bn5a_branch2b
I0329 14:44:26.701509  7688 net.cpp:454] bn5a_branch2b <- res5a_branch2b
I0329 14:44:26.701534  7688 net.cpp:397] bn5a_branch2b -> res5a_branch2b (in-place)
I0329 14:44:26.702008  7688 net.cpp:150] Setting up bn5a_branch2b
I0329 14:44:26.702044  7688 net.cpp:157] Top shape: 16 512 7 7 (401408)
I0329 14:44:26.702062  7688 net.cpp:165] Memory required for data: 3660842944
I0329 14:44:26.702093  7688 layer_factory.hpp:77] Creating layer scale5a_branch2b
I0329 14:44:26.702121  7688 net.cpp:106] Creating Layer scale5a_branch2b
I0329 14:44:26.702141  7688 net.cpp:454] scale5a_branch2b <- res5a_branch2b
I0329 14:44:26.702168  7688 net.cpp:397] scale5a_branch2b -> res5a_branch2b (in-place)
I0329 14:44:26.702281  7688 layer_factory.hpp:77] Creating layer scale5a_branch2b
I0329 14:44:26.702587  7688 net.cpp:150] Setting up scale5a_branch2b
I0329 14:44:26.702622  7688 net.cpp:157] Top shape: 16 512 7 7 (401408)
I0329 14:44:26.702641  7688 net.cpp:165] Memory required for data: 3662448576
I0329 14:44:26.702668  7688 layer_factory.hpp:77] Creating layer res5a_branch2b_relu
I0329 14:44:26.702692  7688 net.cpp:106] Creating Layer res5a_branch2b_relu
I0329 14:44:26.702713  7688 net.cpp:454] res5a_branch2b_relu <- res5a_branch2b
I0329 14:44:26.702734  7688 net.cpp:397] res5a_branch2b_relu -> res5a_branch2b (in-place)
I0329 14:44:26.702760  7688 net.cpp:150] Setting up res5a_branch2b_relu
I0329 14:44:26.702782  7688 net.cpp:157] Top shape: 16 512 7 7 (401408)
I0329 14:44:26.702800  7688 net.cpp:165] Memory required for data: 3664054208
I0329 14:44:26.702818  7688 layer_factory.hpp:77] Creating layer res5a_branch2c
I0329 14:44:26.702857  7688 net.cpp:106] Creating Layer res5a_branch2c
I0329 14:44:26.702879  7688 net.cpp:454] res5a_branch2c <- res5a_branch2b
I0329 14:44:26.702909  7688 net.cpp:411] res5a_branch2c -> res5a_branch2c
I0329 14:44:26.708394  7688 net.cpp:150] Setting up res5a_branch2c
I0329 14:44:26.708441  7688 net.cpp:157] Top shape: 16 2048 7 7 (1605632)
I0329 14:44:26.708461  7688 net.cpp:165] Memory required for data: 3670476736
I0329 14:44:26.708484  7688 layer_factory.hpp:77] Creating layer bn5a_branch2c
I0329 14:44:26.708510  7688 net.cpp:106] Creating Layer bn5a_branch2c
I0329 14:44:26.708533  7688 net.cpp:454] bn5a_branch2c <- res5a_branch2c
I0329 14:44:26.708561  7688 net.cpp:397] bn5a_branch2c -> res5a_branch2c (in-place)
I0329 14:44:26.709187  7688 net.cpp:150] Setting up bn5a_branch2c
I0329 14:44:26.709228  7688 net.cpp:157] Top shape: 16 2048 7 7 (1605632)
I0329 14:44:26.709247  7688 net.cpp:165] Memory required for data: 3676899264
I0329 14:44:26.709280  7688 layer_factory.hpp:77] Creating layer scale5a_branch2c
I0329 14:44:26.709306  7688 net.cpp:106] Creating Layer scale5a_branch2c
I0329 14:44:26.709327  7688 net.cpp:454] scale5a_branch2c <- res5a_branch2c
I0329 14:44:26.709367  7688 net.cpp:397] scale5a_branch2c -> res5a_branch2c (in-place)
I0329 14:44:26.709488  7688 layer_factory.hpp:77] Creating layer scale5a_branch2c
I0329 14:44:26.709796  7688 net.cpp:150] Setting up scale5a_branch2c
I0329 14:44:26.709832  7688 net.cpp:157] Top shape: 16 2048 7 7 (1605632)
…
I0329 14:44:26.846084  7688 net.cpp:454] id_res4d_branch2b <- id_res4d_branch2a
I0329 14:44:26.846114  7688 net.cpp:411] id_res4d_branch2b -> id_res4d_branch2b
I0329 14:44:26.849467  7688 net.cpp:150] Setting up id_res4d_branch2b
I0329 14:44:26.849511  7688 net.cpp:157] Top shape: 16 256 14 14 (802816)
I0329 14:44:26.849531  7688 net.cpp:165] Memory required for data: 5215225792
I0329 14:44:26.849555  7688 layer_factory.hpp:77] Creating layer id_bn4d_branch2b
I0329 14:44:26.849581  7688 net.cpp:106] Creating Layer id_bn4d_branch2b
I0329 14:44:26.849602  7688 net.cpp:454] id_bn4d_branch2b <- id_res4d_branch2b
I0329 14:44:26.849625  7688 net.cpp:397] id_bn4d_branch2b -> id_res4d_branch2b (in-place)
I0329 14:44:26.850055  7688 net.cpp:150] Setting up id_bn4d_branch2b
I0329 14:44:26.850090  7688 net.cpp:157] Top shape: 16 256 14 14 (802816)
I0329 14:44:26.850109  7688 net.cpp:165] Memory required for data: 5218437056
I0329 14:44:26.850139  7688 layer_factory.hpp:77] Creating layer id_scale4d_branch2b
I0329 14:44:26.850172  7688 net.cpp:106] Creating Layer id_scale4d_branch2b
I0329 14:44:26.850193  7688 net.cpp:454] id_scale4d_branch2b <- id_res4d_branch2b
I0329 14:44:26.850216  7688 net.cpp:397] id_scale4d_branch2b -> id_res4d_branch2b (in-place)
I0329 14:44:26.850334  7688 layer_factory.hpp:77] Creating layer id_scale4d_branch2b
I0329 14:44:26.850615  7688 net.cpp:150] Setting up id_scale4d_branch2b
I0329 14:44:26.850651  7688 net.cpp:157] Top shape: 16 256 14 14 (802816)
I0329 14:44:26.850669  7688 net.cpp:165] Memory required for data: 5221648320
I0329 14:44:26.850695  7688 layer_factory.hpp:77] Creating layer id_res4d_branch2b_relu
I0329 14:44:26.850719  7688 net.cpp:106] Creating Layer id_res4d_branch2b_relu
I0329 14:44:26.850739  7688 net.cpp:454] id_res4d_branch2b_relu <- id_res4d_branch2b
I0329 14:44:26.850795  7688 net.cpp:397] id_res4d_branch2b_relu -> id_res4d_branch2b (in-place)
I0329 14:44:26.850824  7688 net.cpp:150] Setting up id_res4d_branch2b_relu
I0329 14:44:26.850848  7688 net.cpp:157] Top shape: 16 256 14 14 (802816)
I0329 14:44:26.850867  7688 net.cpp:165] Memory required for data: 5224859584
I0329 14:44:26.850884  7688 layer_factory.hpp:77] Creating layer id_res4d_branch2c
I0329 14:44:26.850916  7688 net.cpp:106] Creating Layer id_res4d_branch2c
I0329 14:44:26.850937  7688 net.cpp:454] id_res4d_branch2c <- id_res4d_branch2b
I0329 14:44:26.850961  7688 net.cpp:411] id_res4d_branch2c -> id_res4d_branch2c
I0329 14:44:26.852818  7688 net.cpp:150] Setting up id_res4d_branch2c
I0329 14:44:26.852860  7688 net.cpp:157] Top shape: 16 1024 14 14 (3211264)
I0329 14:44:26.852880  7688 net.cpp:165] Memory required for data: 5237704640
I0329 14:44:26.852905  7688 layer_factory.hpp:77] Creating layer id_bn4d_branch2c
I0329 14:44:26.852936  7688 net.cpp:106] Creating Layer id_bn4d_branch2c
I0329 14:44:26.852959  7688 net.cpp:454] id_bn4d_branch2c <- id_res4d_branch2c
I0329 14:44:26.852982  7688 net.cpp:397] id_bn4d_branch2c -> id_res4d_branch2c (in-place)
I0329 14:44:26.853467  7688 net.cpp:150] Setting up id_bn4d_branch2c
I0329 14:44:26.853505  7688 net.cpp:157] Top shape: 16 1024 14 14 (3211264)
I0329 14:44:26.853525  7688 net.cpp:165] Memory required for data: 5250549696
I0329 14:44:26.853555  7688 layer_factory.hpp:77] Creating layer id_scale4d_branch2c
I0329 14:44:26.853580  7688 net.cpp:106] Creating Layer id_scale4d_branch2c
I0329 14:44:26.853600  7688 net.cpp:454] id_scale4d_branch2c <- id_res4d_branch2c
I0329 14:44:26.853623  7688 net.cpp:397] id_scale4d_branch2c -> id_res4d_branch2c (in-place)
I0329 14:44:26.853746  7688 layer_factory.hpp:77] Creating layer id_scale4d_branch2c
I0329 14:44:26.854048  7688 net.cpp:150] Setting up id_scale4d_branch2c
I0329 14:44:26.854084  7688 net.cpp:157] Top shape: 16 1024 14 14 (3211264)
I0329 14:44:26.854104  7688 net.cpp:165] Memory required for data: 5263394752
I0329 14:44:26.854130  7688 layer_factory.hpp:77] Creating layer id_res4d
I0329 14:44:26.854161  7688 net.cpp:106] Creating Layer id_res4d
I0329 14:44:26.854182  7688 net.cpp:454] id_res4d <- id_res4c_id_res4c_relu_0_split_1
I0329 14:44:26.854203  7688 net.cpp:454] id_res4d <- id_res4d_branch2c
I0329 14:44:26.854226  7688 net.cpp:411] id_res4d -> id_res4d
I0329 14:44:26.854305  7688 net.cpp:150] Setting up id_res4d
I0329 14:44:26.854336  7688 net.cpp:157] Top shape: 16 1024 14 14 (3211264)
I0329 14:44:26.854354  7688 net.cpp:165] Memory required for data: 5276239808
I0329 14:44:26.854373  7688 layer_factory.hpp:77] Creating layer id_res4d_relu
I0329 14:44:26.854396  7688 net.cpp:106] Creating Layer id_res4d_relu
I0329 14:44:26.854418  7688 net.cpp:454] id_res4d_relu <- id_res4d
I0329 14:44:26.854444  7688 net.cpp:397] id_res4d_relu -> id_res4d (in-place)
I0329 14:44:26.854471  7688 net.cpp:150] Setting up id_res4d_relu
I0329 14:44:26.854495  7688 net.cpp:157] Top shape: 16 1024 14 14 (3211264)
I0329 14:44:26.854512  7688 net.cpp:165] Memory required for data: 5289084864
I0329 14:44:26.854531  7688 layer_factory.hpp:77] Creating layer id_res4d_id_res4d_relu_0_split
I0329 14:44:26.854552  7688 net.cpp:106] Creating Layer id_res4d_id_res4d_relu_0_split
I0329 14:44:26.854570  7688 net.cpp:454] id_res4d_id_res4d_relu_0_split <- id_res4d
I0329 14:44:26.854593  7688 net.cpp:411] id_res4d_id_res4d_relu_0_split -> id_res4d_id_res4d_relu_0_split_0
I0329 14:44:26.854619  7688 net.cpp:411] id_res4d_id_res4d_relu_0_split -> id_res4d_id_res4d_relu_0_split_1
I0329 14:44:26.854720  7688 net.cpp:150] Setting up id_res4d_id_res4d_relu_0_split
I0329 14:44:26.854753  7688 net.cpp:157] Top shape: 16 1024 14 14 (3211264)
I0329 14:44:26.854774  7688 net.cpp:157] Top shape: 16 1024 14 14 (3211264)
I0329 14:44:26.854791  7688 net.cpp:165] Memory required for data: 5314774976
I0329 14:44:26.854809  7688 layer_factory.hpp:77] Creating layer id_res4e_branch2a
I0329 14:44:26.854861  7688 net.cpp:106] Creating Layer id_res4e_branch2a
I0329 14:44:26.854904  7688 net.cpp:454] id_res4e_branch2a <- id_res4d_id_res4d_relu_0_split_0
I0329 14:44:26.854931  7688 net.cpp:411] id_res4e_branch2a -> id_res4e_branch2a
I0329 14:44:26.856804  7688 net.cpp:150] Setting up id_res4e_branch2a
I0329 14:44:26.856848  7688 net.cpp:157] Top shape: 16 256 14 14 (802816)
I0329 14:44:26.856868  7688 net.cpp:165] Memory required for data: 5317986240
I0329 14:44:26.856891  7688 layer_factory.hpp:77] Creating layer id_bn4e_branch2a
I0329 14:44:26.856916  7688 net.cpp:106] Creating Layer id_bn4e_branch2a
I0329 14:44:26.856938  7688 net.cpp:454] id_bn4e_branch2a <- id_res4e_branch2a
I0329 14:44:26.856967  7688 net.cpp:397] id_bn4e_branch2a -> id_res4e_branch2a (in-place)
I0329 14:44:26.857430  7688 net.cpp:150] Setting up id_bn4e_branch2a
I0329 14:44:26.857468  7688 net.cpp:157] Top shape: 16 256 14 14 (802816)
I0329 14:44:26.857487  7688 net.cpp:165] Memory required for data: 5321197504
I0329 14:44:26.857517  7688 layer_factory.hpp:77] Creating layer id_scale4e_branch2a
I0329 14:44:26.857543  7688 net.cpp:106] Creating Layer id_scale4e_branch2a
I0329 14:44:26.857564  7688 net.cpp:454] id_scale4e_branch2a <- id_res4e_branch2a
I0329 14:44:26.857587  7688 net.cpp:397] id_scale4e_branch2a -> id_res4e_branch2a (in-place)
I0329 14:44:26.857704  7688 layer_factory.hpp:77] Creating layer id_scale4e_branch2a
I0329 14:44:26.857990  7688 net.cpp:150] Setting up id_scale4e_branch2a
I0329 14:44:26.858026  7688 net.cpp:157] Top shape: 16 256 14 14 (802816)
I0329 14:44:26.858044  7688 net.cpp:165] Memory required for data: 5324408768
I0329 14:44:26.858070  7688 layer_factory.hpp:77] Creating layer id_res4e_branch2a_relu
I0329 14:44:26.858094  7688 net.cpp:106] Creating Layer id_res4e_branch2a_relu
I0329 14:44:26.858114  7688 net.cpp:454] id_res4e_branch2a_relu <- id_res4e_branch2a
I0329 14:44:26.858142  7688 net.cpp:397] id_res4e_branch2a_relu -> id_res4e_branch2a (in-place)
I0329 14:44:26.858170  7688 net.cpp:150] Setting up id_res4e_branch2a_relu
I0329 14:44:26.858192  7688 net.cpp:157] Top shape: 16 256 14 14 (802816)
I0329 14:44:26.858211  7688 net.cpp:165] Memory required for data: 5327620032
I0329 14:44:26.858228  7688 layer_factory.hpp:77] Creating layer id_res4e_branch2b
I0329 14:44:26.858255  7688 net.cpp:106] Creating Layer id_res4e_branch2b
I0329 14:44:26.858275  7688 net.cpp:454] id_res4e_branch2b <- id_res4e_branch2a
I0329 14:44:26.858304  7688 net.cpp:411] id_res4e_branch2b -> id_res4e_branch2b
I0329 14:44:26.861635  7688 net.cpp:150] Setting up id_res4e_branch2b
I0329 14:44:26.861680  7688 net.cpp:157] Top shape: 16 256 14 14 (802816)
I0329 14:44:26.861699  7688 net.cpp:165] Memory required for data: 5330831296
I0329 14:44:26.861723  7688 layer_factory.hpp:77] Creating layer id_bn4e_branch2b
I0329 14:44:26.861748  7688 net.cpp:106] Creating Layer id_bn4e_branch2b
I0329 14:44:26.861769  7688 net.cpp:454] id_bn4e_branch2b <- id_res4e_branch2b
I0329 14:44:26.861793  7688 net.cpp:397] id_bn4e_branch2b -> id_res4e_branch2b (in-place)
I0329 14:44:26.862229  7688 net.cpp:150] Setting up id_bn4e_branch2b
I0329 14:44:26.862263  7688 net.cpp:157] Top shape: 16 256 14 14 (802816)
I0329 14:44:26.862282  7688 net.cpp:165] Memory required for data: 5334042560
I0329 14:44:26.862313  7688 layer_factory.hpp:77] Creating layer id_scale4e_branch2b
I0329 14:44:26.862344  7688 net.cpp:106] Creating Layer id_scale4e_branch2b
I0329 14:44:26.862365  7688 net.cpp:454] id_scale4e_branch2b <- id_res4e_branch2b
I0329 14:44:26.862388  7688 net.cpp:397] id_scale4e_branch2b -> id_res4e_branch2b (in-place)
I0329 14:44:26.862510  7688 layer_factory.hpp:77] Creating layer id_scale4e_branch2b
I0329 14:44:26.862790  7688 net.cpp:150] Setting up id_scale4e_branch2b
I0329 14:44:26.862825  7688 net.cpp:157] Top shape: 16 256 14 14 (802816)
I0329 14:44:26.862844  7688 net.cpp:165] Memory required for data: 5337253824
I0329 14:44:26.862871  7688 layer_factory.hpp:77] Creating layer id_res4e_branch2b_relu
I0329 14:44:26.862895  7688 net.cpp:106] Creating Layer id_res4e_branch2b_relu
I0329 14:44:26.862927  7688 net.cpp:454] id_res4e_branch2b_relu <- id_res4e_branch2b
I0329 14:44:26.862974  7688 net.cpp:397] id_res4e_branch2b_relu -> id_res4e_branch2b (in-place)
I0329 14:44:26.863003  7688 net.cpp:150] Setting up id_res4e_branch2b_relu
I0329 14:44:26.863026  7688 net.cpp:157] Top shape: 16 256 14 14 (802816)
I0329 14:44:26.863044  7688 net.cpp:165] Memory required for data: 5340465088
I0329 14:44:26.863062  7688 layer_factory.hpp:77] Creating layer id_res4e_branch2c
I0329 14:44:26.863093  7688 net.cpp:106] Creating Layer id_res4e_branch2c
I0329 14:44:26.863114  7688 net.cpp:454] id_res4e_branch2c <- id_res4e_branch2b
I0329 14:44:26.863138  7688 net.cpp:411] id_res4e_branch2c -> id_res4e_branch2c
I0329 14:44:26.865007  7688 net.cpp:150] Setting up id_res4e_branch2c
I0329 14:44:26.865049  7688 net.cpp:157] Top shape: 16 1024 14 14 (3211264)
I0329 14:44:26.865069  7688 net.cpp:165] Memory required for data: 5353310144
I0329 14:44:26.865093  7688 layer_factory.hpp:77] Creating layer id_bn4e_branch2c
I0329 14:44:26.865124  7688 net.cpp:106] Creating Layer id_bn4e_branch2c
I0329 14:44:26.865147  7688 net.cpp:454] id_bn4e_branch2c <- id_res4e_branch2c
I0329 14:44:26.865170  7688 net.cpp:397] id_bn4e_branch2c -> id_res4e_branch2c (in-place)
I0329 14:44:26.865655  7688 net.cpp:150] Setting up id_bn4e_branch2c
I0329 14:44:26.865694  7688 net.cpp:157] Top shape: 16 1024 14 14 (3211264)
I0329 14:44:26.865711  7688 net.cpp:165] Memory required for data: 5366155200
I0329 14:44:26.865742  7688 layer_factory.hpp:77] Creating layer id_scale4e_branch2c
I0329 14:44:26.865768  7688 net.cpp:106] Creating Layer id_scale4e_branch2c
I0329 14:44:26.865787  7688 net.cpp:454] id_scale4e_branch2c <- id_res4e_branch2c
I0329 14:44:26.865810  7688 net.cpp:397] id_scale4e_branch2c -> id_res4e_branch2c (in-place)
I0329 14:44:26.865932  7688 layer_factory.hpp:77] Creating layer id_scale4e_branch2c
I0329 14:44:26.866237  7688 net.cpp:150] Setting up id_scale4e_branch2c
I0329 14:44:26.866273  7688 net.cpp:157] Top shape: 16 1024 14 14 (3211264)
I0329 14:44:26.866291  7688 net.cpp:165] Memory required for data: 5379000256
I0329 14:44:26.866318  7688 layer_factory.hpp:77] Creating layer id_res4e
I0329 14:44:26.866349  7688 net.cpp:106] Creating Layer id_res4e
I0329 14:44:26.866370  7688 net.cpp:454] id_res4e <- id_res4d_id_res4d_relu_0_split_1
I0329 14:44:26.866392  7688 net.cpp:454] id_res4e <- id_res4e_branch2c
I0329 14:44:26.866415  7688 net.cpp:411] id_res4e -> id_res4e
I0329 14:44:26.866494  7688 net.cpp:150] Setting up id_res4e
I0329 14:44:26.866526  7688 net.cpp:157] Top shape: 16 1024 14 14 (3211264)
I0329 14:44:26.866544  7688 net.cpp:165] Memory required for data: 5391845312
I0329 14:44:26.866564  7688 layer_factory.hpp:77] Creating layer id_res4e_relu
I0329 14:44:26.866585  7688 net.cpp:106] Creating Layer id_res4e_relu
I0329 14:44:26.866605  7688 net.cpp:454] id_res4e_relu <- id_res4e
I0329 14:44:26.866633  7688 net.cpp:397] id_res4e_relu -> id_res4e (in-place)
I0329 14:44:26.866660  7688 net.cpp:150] Setting up id_res4e_relu
I0329 14:44:26.866683  7688 net.cpp:157] Top shape: 16 1024 14 14 (3211264)
I0329 14:44:26.866700  7688 net.cpp:165] Memory required for data: 5404690368
I0329 14:44:26.866719  7688 layer_factory.hpp:77] Creating layer id_res4e_id_res4e_relu_0_split
I0329 14:44:26.866740  7688 net.cpp:106] Creating Layer id_res4e_id_res4e_relu_0_split
I0329 14:44:26.866758  7688 net.cpp:454] id_res4e_id_res4e_relu_0_split <- id_res4e
I0329 14:44:26.866781  7688 net.cpp:411] id_res4e_id_res4e_relu_0_split -> id_res4e_id_res4e_relu_0_split_0
I0329 14:44:26.866807  7688 net.cpp:411] id_res4e_id_res4e_relu_0_split -> id_res4e_id_res4e_relu_0_split_1
I0329 14:44:26.866909  7688 net.cpp:150] Setting up id_res4e_id_res4e_relu_0_split
I0329 14:44:26.866941  7688 net.cpp:157] Top shape: 16 1024 14 14 (3211264)
I0329 14:44:26.866963  7688 net.cpp:157] Top shape: 16 1024 14 14 (3211264)
I0329 14:44:26.866981  7688 net.cpp:165] Memory required for data: 5430380480
I0329 14:44:26.866999  7688 layer_factory.hpp:77] Creating layer id_res4f_branch2a
I0329 14:44:26.867060  7688 net.cpp:106] Creating Layer id_res4f_branch2a
I0329 14:44:26.867084  7688 net.cpp:454] id_res4f_branch2a <- id_res4e_id_res4e_relu_0_split_0
I0329 14:44:26.867110  7688 net.cpp:411] id_res4f_branch2a -> id_res4f_branch2a
I0329 14:44:26.868999  7688 net.cpp:150] Setting up id_res4f_branch2a
I0329 14:44:26.869040  7688 net.cpp:157] Top shape: 16 256 14 14 (802816)
I0329 14:44:26.869060  7688 net.cpp:165] Memory required for data: 5433591744
I0329 14:44:26.869084  7688 layer_factory.hpp:77] Creating layer id_bn4f_branch2a
I0329 14:44:26.869110  7688 net.cpp:106] Creating Layer id_bn4f_branch2a
I0329 14:44:26.869132  7688 net.cpp:454] id_bn4f_branch2a <- id_res4f_branch2a
I0329 14:44:26.869160  7688 net.cpp:397] id_bn4f_branch2a -> id_res4f_branch2a (in-place)
I0329 14:44:26.869632  7688 net.cpp:150] Setting up id_bn4f_branch2a
I0329 14:44:26.869669  7688 net.cpp:157] Top shape: 16 256 14 14 (802816)
I0329 14:44:26.869688  7688 net.cpp:165] Memory required for data: 5436803008
I0329 14:44:26.869719  7688 layer_factory.hpp:77] Creating layer id_scale4f_branch2a
I0329 14:44:26.869745  7688 net.cpp:106] Creating Layer id_scale4f_branch2a
I0329 14:44:26.869765  7688 net.cpp:454] id_scale4f_branch2a <- id_res4f_branch2a
I0329 14:44:26.869788  7688 net.cpp:397] id_scale4f_branch2a -> id_res4f_branch2a (in-place)
I0329 14:44:26.869905  7688 layer_factory.hpp:77] Creating layer id_scale4f_branch2a
I0329 14:44:26.870193  7688 net.cpp:150] Setting up id_scale4f_branch2a
I0329 14:44:26.870226  7688 net.cpp:157] Top shape: 16 256 14 14 (802816)
I0329 14:44:26.870245  7688 net.cpp:165] Memory required for data: 5440014272
I0329 14:44:26.870271  7688 layer_factory.hpp:77] Creating layer id_res4f_branch2a_relu
I0329 14:44:26.870301  7688 net.cpp:106] Creating Layer id_res4f_branch2a_relu
I0329 14:44:26.870323  7688 net.cpp:454] id_res4f_branch2a_relu <- id_res4f_branch2a
I0329 14:44:26.870347  7688 net.cpp:397] id_res4f_branch2a_relu -> id_res4f_branch2a (in-place)
I0329 14:44:26.870378  7688 net.cpp:150] Setting up id_res4f_branch2a_relu
I0329 14:44:26.870401  7688 net.cpp:157] Top shape: 16 256 14 14 (802816)
I0329 14:44:26.870419  7688 net.cpp:165] Memory required for data: 5443225536
I0329 14:44:26.870437  7688 layer_factory.hpp:77] Creating layer id_res4f_branch2b
I0329 14:44:26.870465  7688 net.cpp:106] Creating Layer id_res4f_branch2b
I0329 14:44:26.870484  7688 net.cpp:454] id_res4f_branch2b <- id_res4f_branch2a
I0329 14:44:26.870513  7688 net.cpp:411] id_res4f_branch2b -> id_res4f_branch2b
I0329 14:44:26.873858  7688 net.cpp:150] Setting up id_res4f_branch2b
I0329 14:44:26.873903  7688 net.cpp:157] Top shape: 16 256 14 14 (802816)
I0329 14:44:26.873924  7688 net.cpp:165] Memory required for data: 5446436800
I0329 14:44:26.873947  7688 layer_factory.hpp:77] Creating layer id_bn4f_branch2b
I0329 14:44:26.873972  7688 net.cpp:106] Creating Layer id_bn4f_branch2b
I0329 14:44:26.873994  7688 net.cpp:454] id_bn4f_branch2b <- id_res4f_branch2b
I0329 14:44:26.874017  7688 net.cpp:397] id_bn4f_branch2b -> id_res4f_branch2b (in-place)
I0329 14:44:26.874454  7688 net.cpp:150] Setting up id_bn4f_branch2b
I0329 14:44:26.874487  7688 net.cpp:157] Top shape: 16 256 14 14 (802816)
I0329 14:44:26.874506  7688 net.cpp:165] Memory required for data: 5449648064
I0329 14:44:26.874536  7688 layer_factory.hpp:77] Creating layer id_scale4f_branch2b
I0329 14:44:26.874568  7688 net.cpp:106] Creating Layer id_scale4f_branch2b
I0329 14:44:26.874590  7688 net.cpp:454] id_scale4f_branch2b <- id_res4f_branch2b
I0329 14:44:26.874614  7688 net.cpp:397] id_scale4f_branch2b -> id_res4f_branch2b (in-place)
I0329 14:44:26.874732  7688 layer_factory.hpp:77] Creating layer id_scale4f_branch2b
I0329 14:44:26.875017  7688 net.cpp:150] Setting up id_scale4f_branch2b
I0329 14:44:26.875051  7688 net.cpp:157] Top shape: 16 256 14 14 (802816)
I0329 14:44:26.875071  7688 net.cpp:165] Memory required for data: 5452859328
I0329 14:44:26.875097  7688 layer_factory.hpp:77] Creating layer id_res4f_branch2b_relu
I0329 14:44:26.875134  7688 net.cpp:106] Creating Layer id_res4f_branch2b_relu
I0329 14:44:26.875174  7688 net.cpp:454] id_res4f_branch2b_relu <- id_res4f_branch2b
I0329 14:44:26.875203  7688 net.cpp:397] id_res4f_branch2b_relu -> id_res4f_branch2b (in-place)
I0329 14:44:26.875231  7688 net.cpp:150] Setting up id_res4f_branch2b_relu
I0329 14:44:26.875254  7688 net.cpp:157] Top shape: 16 256 14 14 (802816)
I0329 14:44:26.875272  7688 net.cpp:165] Memory required for data: 5456070592
I0329 14:44:26.875290  7688 layer_factory.hpp:77] Creating layer id_res4f_branch2c
I0329 14:44:26.875318  7688 net.cpp:106] Creating Layer id_res4f_branch2c
I0329 14:44:26.875344  7688 net.cpp:454] id_res4f_branch2c <- id_res4f_branch2b
I0329 14:44:26.875367  7688 net.cpp:411] id_res4f_branch2c -> id_res4f_branch2c
I0329 14:44:26.877249  7688 net.cpp:150] Setting up id_res4f_branch2c
I0329 14:44:26.877290  7688 net.cpp:157] Top shape: 16 1024 14 14 (3211264)
I0329 14:44:26.877310  7688 net.cpp:165] Memory required for data: 5468915648
I0329 14:44:26.877346  7688 layer_factory.hpp:77] Creating layer id_bn4f_branch2c
I0329 14:44:26.877382  7688 net.cpp:106] Creating Layer id_bn4f_branch2c
I0329 14:44:26.877405  7688 net.cpp:454] id_bn4f_branch2c <- id_res4f_branch2c
I0329 14:44:26.877429  7688 net.cpp:397] id_bn4f_branch2c -> id_res4f_branch2c (in-place)
I0329 14:44:26.877914  7688 net.cpp:150] Setting up id_bn4f_branch2c
I0329 14:44:26.877950  7688 net.cpp:157] Top shape: 16 1024 14 14 (3211264)
I0329 14:44:26.877969  7688 net.cpp:165] Memory required for data: 5481760704
I0329 14:44:26.878000  7688 layer_factory.hpp:77] Creating layer id_scale4f_branch2c
I0329 14:44:26.878026  7688 net.cpp:106] Creating Layer id_scale4f_branch2c
I0329 14:44:26.878046  7688 net.cpp:454] id_scale4f_branch2c <- id_res4f_branch2c
I0329 14:44:26.878069  7688 net.cpp:397] id_scale4f_branch2c -> id_res4f_branch2c (in-place)
I0329 14:44:26.878192  7688 layer_factory.hpp:77] Creating layer id_scale4f_branch2c
I0329 14:44:26.878506  7688 net.cpp:150] Setting up id_scale4f_branch2c
I0329 14:44:26.878541  7688 net.cpp:157] Top shape: 16 1024 14 14 (3211264)
I0329 14:44:26.878561  7688 net.cpp:165] Memory required for data: 5494605760
I0329 14:44:26.878587  7688 layer_factory.hpp:77] Creating layer id_res4f
I0329 14:44:26.878618  7688 net.cpp:106] Creating Layer id_res4f
I0329 14:44:26.878639  7688 net.cpp:454] id_res4f <- id_res4e_id_res4e_relu_0_split_1
I0329 14:44:26.878660  7688 net.cpp:454] id_res4f <- id_res4f_branch2c
I0329 14:44:26.878684  7688 net.cpp:411] id_res4f -> id_res4f
I0329 14:44:26.878763  7688 net.cpp:150] Setting up id_res4f
I0329 14:44:26.878795  7688 net.cpp:157] Top shape: 16 1024 14 14 (3211264)
I0329 14:44:26.878814  7688 net.cpp:165] Memory required for data: 5507450816
I0329 14:44:26.878834  7688 layer_factory.hpp:77] Creating layer id_res4f_relu
I0329 14:44:26.878856  7688 net.cpp:106] Creating Layer id_res4f_relu
I0329 14:44:26.878876  7688 net.cpp:454] id_res4f_relu <- id_res4f
I0329 14:44:26.878903  7688 net.cpp:397] id_res4f_relu -> id_res4f (in-place)
I0329 14:44:26.878931  7688 net.cpp:150] Setting up id_res4f_relu
I0329 14:44:26.878953  7688 net.cpp:157] Top shape: 16 1024 14 14 (3211264)
I0329 14:44:26.878970  7688 net.cpp:165] Memory required for data: 5520295872
I0329 14:44:26.878989  7688 layer_factory.hpp:77] Creating layer id_res4f_id_res4f_relu_0_split
I0329 14:44:26.879011  7688 net.cpp:106] Creating Layer id_res4f_id_res4f_relu_0_split
I0329 14:44:26.879030  7688 net.cpp:454] id_res4f_id_res4f_relu_0_split <- id_res4f
I0329 14:44:26.879052  7688 net.cpp:411] id_res4f_id_res4f_relu_0_split -> id_res4f_id_res4f_relu_0_split_0
I0329 14:44:26.879078  7688 net.cpp:411] id_res4f_id_res4f_relu_0_split -> id_res4f_id_res4f_relu_0_split_1
I0329 14:44:26.879184  7688 net.cpp:150] Setting up id_res4f_id_res4f_relu_0_split
I0329 14:44:26.879217  7688 net.cpp:157] Top shape: 16 1024 14 14 (3211264)
I0329 14:44:26.879238  7688 net.cpp:157] Top shape: 16 1024 14 14 (3211264)
I0329 14:44:26.879256  7688 net.cpp:165] Memory required for data: 5545985984
I0329 14:44:26.879287  7688 layer_factory.hpp:77] Creating layer id_res5a_branch1
I0329 14:44:26.879339  7688 net.cpp:106] Creating Layer id_res5a_branch1
I0329 14:44:26.879364  7688 net.cpp:454] id_res5a_branch1 <- id_res4f_id_res4f_relu_0_split_0
I0329 14:44:26.879389  7688 net.cpp:411] id_res5a_branch1 -> id_res5a_branch1
I0329 14:44:26.889436  7688 net.cpp:150] Setting up id_res5a_branch1
I0329 14:44:26.889485  7688 net.cpp:157] Top shape: 16 2048 7 7 (1605632)
I0329 14:44:26.889505  7688 net.cpp:165] Memory required for data: 5552408512
I0329 14:44:26.889530  7688 layer_factory.hpp:77] Creating layer id_bn5a_branch1
I0329 14:44:26.889557  7688 net.cpp:106] Creating Layer id_bn5a_branch1
I0329 14:44:26.889578  7688 net.cpp:454] id_bn5a_branch1 <- id_res5a_branch1
I0329 14:44:26.889607  7688 net.cpp:397] id_bn5a_branch1 -> id_res5a_branch1 (in-place)
I0329 14:44:26.890120  7688 net.cpp:150] Setting up id_bn5a_branch1
I0329 14:44:26.890156  7688 net.cpp:157] Top shape: 16 2048 7 7 (1605632)
I0329 14:44:26.890174  7688 net.cpp:165] Memory required for data: 5558831040
I0329 14:44:26.890348  7688 layer_factory.hpp:77] Creating layer id_scale5a_branch1
I0329 14:44:26.890385  7688 net.cpp:106] Creating Layer id_scale5a_branch1
I0329 14:44:26.890406  7688 net.cpp:454] id_scale5a_branch1 <- id_res5a_branch1
I0329 14:44:26.890430  7688 net.cpp:397] id_scale5a_branch1 -> id_res5a_branch1 (in-place)
I0329 14:44:26.890552  7688 layer_factory.hpp:77] Creating layer id_scale5a_branch1
I0329 14:44:26.890884  7688 net.cpp:150] Setting up id_scale5a_branch1
I0329 14:44:26.890920  7688 net.cpp:157] Top shape: 16 2048 7 7 (1605632)
I0329 14:44:26.890939  7688 net.cpp:165] Memory required for data: 5565253568
I0329 14:44:26.890965  7688 layer_factory.hpp:77] Creating layer id_res5a_branch2a
I0329 14:44:26.891000  7688 net.cpp:106] Creating Layer id_res5a_branch2a
I0329 14:44:26.891024  7688 net.cpp:454] id_res5a_branch2a <- id_res4f_id_res4f_relu_0_split_1
I0329 14:44:26.891049  7688 net.cpp:411] id_res5a_branch2a -> id_res5a_branch2a
I0329 14:44:26.894109  7688 net.cpp:150] Setting up id_res5a_branch2a
I0329 14:44:26.894155  7688 net.cpp:157] Top shape: 16 512 7 7 (401408)
I0329 14:44:26.894173  7688 net.cpp:165] Memory required for data: 5566859200
I0329 14:44:26.894197  7688 layer_factory.hpp:77] Creating layer id_bn5a_branch2a
I0329 14:44:26.894229  7688 net.cpp:106] Creating Layer id_bn5a_branch2a
I0329 14:44:26.894253  7688 net.cpp:454] id_bn5a_branch2a <- id_res5a_branch2a
I0329 14:44:26.894278  7688 net.cpp:397] id_bn5a_branch2a -> id_res5a_branch2a (in-place)
I0329 14:44:26.894758  7688 net.cpp:150] Setting up id_bn5a_branch2a
I0329 14:44:26.894794  7688 net.cpp:157] Top shape: 16 512 7 7 (401408)
I0329 14:44:26.894814  7688 net.cpp:165] Memory required for data: 5568464832
I0329 14:44:26.894845  7688 layer_factory.hpp:77] Creating layer id_scale5a_branch2a
I0329 14:44:26.894871  7688 net.cpp:106] Creating Layer id_scale5a_branch2a
I0329 14:44:26.894891  7688 net.cpp:454] id_scale5a_branch2a <- id_res5a_branch2a
I0329 14:44:26.894920  7688 net.cpp:397] id_scale5a_branch2a -> id_res5a_branch2a (in-place)
I0329 14:44:26.895038  7688 layer_factory.hpp:77] Creating layer id_scale5a_branch2a
I0329 14:44:26.895345  7688 net.cpp:150] Setting up id_scale5a_branch2a
I0329 14:44:26.895387  7688 net.cpp:157] Top shape: 16 512 7 7 (401408)
I0329 14:44:26.895406  7688 net.cpp:165] Memory required for data: 5570070464
I0329 14:44:26.895433  7688 layer_factory.hpp:77] Creating layer id_res5a_branch2a_relu
I0329 14:44:26.895457  7688 net.cpp:106] Creating Layer id_res5a_branch2a_relu
I0329 14:44:26.895478  7688 net.cpp:454] id_res5a_branch2a_relu <- id_res5a_branch2a
I0329 14:44:26.895500  7688 net.cpp:397] id_res5a_branch2a_relu -> id_res5a_branch2a (in-place)
I0329 14:44:26.895526  7688 net.cpp:150] Setting up id_res5a_branch2a_relu
I0329 14:44:26.895548  7688 net.cpp:157] Top shape: 16 512 7 7 (401408)
I0329 14:44:26.895566  7688 net.cpp:165] Memory required for data: 5571676096
I0329 14:44:26.895584  7688 layer_factory.hpp:77] Creating layer id_res5a_branch2b
I0329 14:44:26.895630  7688 net.cpp:106] Creating Layer id_res5a_branch2b
I0329 14:44:26.895671  7688 net.cpp:454] id_res5a_branch2b <- id_res5a_branch2a
I0329 14:44:26.895697  7688 net.cpp:411] id_res5a_branch2b -> id_res5a_branch2b
I0329 14:44:26.906999  7688 net.cpp:150] Setting up id_res5a_branch2b
I0329 14:44:26.907053  7688 net.cpp:157] Top shape: 16 512 7 7 (401408)
I0329 14:44:26.907073  7688 net.cpp:165] Memory required for data: 5573281728
I0329 14:44:26.907099  7688 layer_factory.hpp:77] Creating layer id_bn5a_branch2b
I0329 14:44:26.907124  7688 net.cpp:106] Creating Layer id_bn5a_branch2b
I0329 14:44:26.907146  7688 net.cpp:454] id_bn5a_branch2b <- id_res5a_branch2b
I0329 14:44:26.907176  7688 net.cpp:397] id_bn5a_branch2b -> id_res5a_branch2b (in-place)
I0329 14:44:26.907660  7688 net.cpp:150] Setting up id_bn5a_branch2b
I0329 14:44:26.907696  7688 net.cpp:157] Top shape: 16 512 7 7 (401408)
I0329 14:44:26.907716  7688 net.cpp:165] Memory required for data: 5574887360
I0329 14:44:26.907747  7688 layer_factory.hpp:77] Creating layer id_scale5a_branch2b
I0329 14:44:26.907773  7688 net.cpp:106] Creating Layer id_scale5a_branch2b
I0329 14:44:26.907793  7688 net.cpp:454] id_scale5a_branch2b <- id_res5a_branch2b
I0329 14:44:26.907816  7688 net.cpp:397] id_scale5a_branch2b -> id_res5a_branch2b (in-place)
I0329 14:44:26.907948  7688 layer_factory.hpp:77] Creating layer id_scale5a_branch2b
I0329 14:44:26.908257  7688 net.cpp:150] Setting up id_scale5a_branch2b
I0329 14:44:26.908293  7688 net.cpp:157] Top shape: 16 512 7 7 (401408)
I0329 14:44:26.908311  7688 net.cpp:165] Memory required for data: 5576492992
I0329 14:44:26.908337  7688 layer_factory.hpp:77] Creating layer id_res5a_branch2b_relu
I0329 14:44:26.908367  7688 net.cpp:106] Creating Layer id_res5a_branch2b_relu
I0329 14:44:26.908390  7688 net.cpp:454] id_res5a_branch2b_relu <- id_res5a_branch2b
I0329 14:44:26.908411  7688 net.cpp:397] id_res5a_branch2b_relu -> id_res5a_branch2b (in-place)
I0329 14:44:26.908444  7688 net.cpp:150] Setting up id_res5a_branch2b_relu
I0329 14:44:26.908468  7688 net.cpp:157] Top shape: 16 512 7 7 (401408)
I0329 14:44:26.908485  7688 net.cpp:165] Memory required for data: 5578098624
I0329 14:44:26.908504  7688 layer_factory.hpp:77] Creating layer id_res5a_branch2c
I0329 14:44:26.908532  7688 net.cpp:106] Creating Layer id_res5a_branch2c
I0329 14:44:26.908552  7688 net.cpp:454] id_res5a_branch2c <- id_res5a_branch2b
I0329 14:44:26.908576  7688 net.cpp:411] id_res5a_branch2c -> id_res5a_branch2c
I0329 14:44:26.914078  7688 net.cpp:150] Setting up id_res5a_branch2c
I0329 14:44:26.914124  7688 net.cpp:157] Top shape: 16 2048 7 7 (1605632)
I0329 14:44:26.914144  7688 net.cpp:165] Memory required for data: 5584521152
I0329 14:44:26.914168  7688 layer_factory.hpp:77] Creating layer id_bn5a_branch2c
I0329 14:44:26.914194  7688 net.cpp:106] Creating Layer id_bn5a_branch2c
I0329 14:44:26.914216  7688 net.cpp:454] id_bn5a_branch2c <- id_res5a_branch2c
I0329 14:44:26.914238  7688 net.cpp:397] id_bn5a_branch2c -> id_res5a_branch2c (in-place)
I0329 14:44:26.914744  7688 net.cpp:150] Setting up id_bn5a_branch2c
I0329 14:44:26.914782  7688 net.cpp:157] Top shape: 16 2048 7 7 (1605632)
I0329 14:44:26.914800  7688 net.cpp:165] Memory required for data: 5590943680
I0329 14:44:26.914830  7688 layer_factory.hpp:77] Creating layer id_scale5a_branch2c
I0329 14:44:26.914862  7688 net.cpp:106] Creating Layer id_scale5a_branch2c
I0329 14:44:26.914885  7688 net.cpp:454] id_scale5a_branch2c <- id_res5a_branch2c
I0329 14:44:26.914907  7688 net.cpp:397] id_scale5a_branch2c -> id_res5a_branch2c (in-place)
I0329 14:44:26.915025  7688 layer_factory.hpp:77] Creating layer id_scale5a_branch2c
I0329 14:44:26.915355  7688 net.cpp:150] Setting up id_scale5a_branch2c
I0329 14:44:26.915391  7688 net.cpp:157] Top shape: 16 2048 7 7 (1605632)
I0329 14:44:26.915410  7688 net.cpp:165] Memory required for data: 5597366208
I0329 14:44:26.915438  7688 layer_factory.hpp:77] Creating layer id_res5a
I0329 14:44:26.915464  7688 net.cpp:106] Creating Layer id_res5a
I0329 14:44:26.915499  7688 net.cpp:454] id_res5a <- id_res5a_branch1
I0329 14:44:26.915544  7688 net.cpp:454] id_res5a <- id_res5a_branch2c
I0329 14:44:26.915575  7688 net.cpp:411] id_res5a -> id_res5a
I0329 14:44:26.915652  7688 net.cpp:150] Setting up id_res5a
I0329 14:44:26.915691  7688 net.cpp:157] Top shape: 16 2048 7 7 (1605632)
I0329 14:44:26.915711  7688 net.cpp:165] Memory required for data: 5603788736
I0329 14:44:26.915730  7688 layer_factory.hpp:77] Creating layer id_res5a_relu
I0329 14:44:26.915753  7688 net.cpp:106] Creating Layer id_res5a_relu
I0329 14:44:26.915773  7688 net.cpp:454] id_res5a_relu <- id_res5a
I0329 14:44:26.915796  7688 net.cpp:397] id_res5a_relu -> id_res5a (in-place)
I0329 14:44:26.915820  7688 net.cpp:150] Setting up id_res5a_relu
I0329 14:44:26.915843  7688 net.cpp:157] Top shape: 16 2048 7 7 (1605632)
I0329 14:44:26.915860  7688 net.cpp:165] Memory required for data: 5610211264
I0329 14:44:26.915879  7688 layer_factory.hpp:77] Creating layer id_res5a_id_res5a_relu_0_split
I0329 14:44:26.915901  7688 net.cpp:106] Creating Layer id_res5a_id_res5a_relu_0_split
I0329 14:44:26.915920  7688 net.cpp:454] id_res5a_id_res5a_relu_0_split <- id_res5a
I0329 14:44:26.915948  7688 net.cpp:411] id_res5a_id_res5a_relu_0_split -> id_res5a_id_res5a_relu_0_split_0
I0329 14:44:26.915977  7688 net.cpp:411] id_res5a_id_res5a_relu_0_split -> id_res5a_id_res5a_relu_0_split_1
I0329 14:44:26.916075  7688 net.cpp:150] Setting up id_res5a_id_res5a_relu_0_split
I0329 14:44:26.916107  7688 net.cpp:157] Top shape: 16 2048 7 7 (1605632)
I0329 14:44:26.916129  7688 net.cpp:157] Top shape: 16 2048 7 7 (1605632)
I0329 14:44:26.916146  7688 net.cpp:165] Memory required for data: 5623056320
I0329 14:44:26.916165  7688 layer_factory.hpp:77] Creating layer id_res5b_branch2a
I0329 14:44:26.916199  7688 net.cpp:106] Creating Layer id_res5b_branch2a
I0329 14:44:26.916223  7688 net.cpp:454] id_res5b_branch2a <- id_res5a_id_res5a_relu_0_split_0
I0329 14:44:26.916247  7688 net.cpp:411] id_res5b_branch2a -> id_res5b_branch2a
I0329 14:44:26.921808  7688 net.cpp:150] Setting up id_res5b_branch2a
I0329 14:44:26.921854  7688 net.cpp:157] Top shape: 16 512 7 7 (401408)
I0329 14:44:26.921875  7688 net.cpp:165] Memory required for data: 5624661952
I0329 14:44:26.921907  7688 layer_factory.hpp:77] Creating layer id_bn5b_branch2a
I0329 14:44:26.921939  7688 net.cpp:106] Creating Layer id_bn5b_branch2a
I0329 14:44:26.921963  7688 net.cpp:454] id_bn5b_branch2a <- id_res5b_branch2a
I0329 14:44:26.921986  7688 net.cpp:397] id_bn5b_branch2a -> id_res5b_branch2a (in-place)
I0329 14:44:26.922482  7688 net.cpp:150] Setting up id_bn5b_branch2a
I0329 14:44:26.922518  7688 net.cpp:157] Top shape: 16 512 7 7 (401408)
I0329 14:44:26.922536  7688 net.cpp:165] Memory required for data: 5626267584
I0329 14:44:26.922569  7688 layer_factory.hpp:77] Creating layer id_scale5b_branch2a
I0329 14:44:26.922595  7688 net.cpp:106] Creating Layer id_scale5b_branch2a
I0329 14:44:26.922616  7688 net.cpp:454] id_scale5b_branch2a <- id_res5b_branch2a
I0329 14:44:26.922644  7688 net.cpp:397] id_scale5b_branch2a -> id_res5b_branch2a (in-place)
I0329 14:44:26.922771  7688 layer_factory.hpp:77] Creating layer id_scale5b_branch2a
I0329 14:44:26.923090  7688 net.cpp:150] Setting up id_scale5b_branch2a
I0329 14:44:26.923132  7688 net.cpp:157] Top shape: 16 512 7 7 (401408)
I0329 14:44:26.923152  7688 net.cpp:165] Memory required for data: 5627873216
I0329 14:44:26.923178  7688 layer_factory.hpp:77] Creating layer id_res5b_branch2a_relu
I0329 14:44:26.923203  7688 net.cpp:106] Creating Layer id_res5b_branch2a_relu
I0329 14:44:26.923223  7688 net.cpp:454] id_res5b_branch2a_relu <- id_res5b_branch2a
I0329 14:44:26.923245  7688 net.cpp:397] id_res5b_branch2a_relu -> id_res5b_branch2a (in-place)
I0329 14:44:26.923271  7688 net.cpp:150] Setting up id_res5b_branch2a_relu
I0329 14:44:26.923293  7688 net.cpp:157] Top shape: 16 512 7 7 (401408)
I0329 14:44:26.923311  7688 net.cpp:165] Memory required for data: 5629478848
I0329 14:44:26.923329  7688 layer_factory.hpp:77] Creating layer id_res5b_branch2b
I0329 14:44:26.923377  7688 net.cpp:106] Creating Layer id_res5b_branch2b
I0329 14:44:26.923420  7688 net.cpp:454] id_res5b_branch2b <- id_res5b_branch2a
I0329 14:44:26.923447  7688 net.cpp:411] id_res5b_branch2b -> id_res5b_branch2b
I0329 14:44:26.934546  7688 net.cpp:150] Setting up id_res5b_branch2b
I0329 14:44:26.934597  7688 net.cpp:157] Top shape: 16 512 7 7 (401408)
I0329 14:44:26.934617  7688 net.cpp:165] Memory required for data: 5631084480
I0329 14:44:26.934643  7688 layer_factory.hpp:77] Creating layer id_bn5b_branch2b
I0329 14:44:26.934669  7688 net.cpp:106] Creating Layer id_bn5b_branch2b
I0329 14:44:26.934691  7688 net.cpp:454] id_bn5b_branch2b <- id_res5b_branch2b
I0329 14:44:26.934715  7688 net.cpp:397] id_bn5b_branch2b -> id_res5b_branch2b (in-place)
I0329 14:44:26.935201  7688 net.cpp:150] Setting up id_bn5b_branch2b
I0329 14:44:26.935236  7688 net.cpp:157] Top shape: 16 512 7 7 (401408)
I0329 14:44:26.935256  7688 net.cpp:165] Memory required for data: 5632690112
I0329 14:44:26.935286  7688 layer_factory.hpp:77] Creating layer id_scale5b_branch2b
I0329 14:44:26.935312  7688 net.cpp:106] Creating Layer id_scale5b_branch2b
I0329 14:44:26.935333  7688 net.cpp:454] id_scale5b_branch2b <- id_res5b_branch2b
I0329 14:44:26.935356  7688 net.cpp:397] id_scale5b_branch2b -> id_res5b_branch2b (in-place)
I0329 14:44:26.935482  7688 layer_factory.hpp:77] Creating layer id_scale5b_branch2b
I0329 14:44:26.935799  7688 net.cpp:150] Setting up id_scale5b_branch2b
I0329 14:44:26.935834  7688 net.cpp:157] Top shape: 16 512 7 7 (401408)
I0329 14:44:26.935853  7688 net.cpp:165] Memory required for data: 5634295744
I0329 14:44:26.935879  7688 layer_factory.hpp:77] Creating layer id_res5b_branch2b_relu
I0329 14:44:26.935910  7688 net.cpp:106] Creating Layer id_res5b_branch2b_relu
I0329 14:44:26.935931  7688 net.cpp:454] id_res5b_branch2b_relu <- id_res5b_branch2b
I0329 14:44:26.935953  7688 net.cpp:397] id_res5b_branch2b_relu -> id_res5b_branch2b (in-place)
I0329 14:44:26.935981  7688 net.cpp:150] Setting up id_res5b_branch2b_relu
I0329 14:44:26.936003  7688 net.cpp:157] Top shape: 16 512 7 7 (401408)
I0329 14:44:26.936022  7688 net.cpp:165] Memory required for data: 5635901376
I0329 14:44:26.936040  7688 layer_factory.hpp:77] Creating layer id_res5b_branch2c
I0329 14:44:26.936074  7688 net.cpp:106] Creating Layer id_res5b_branch2c
I0329 14:44:26.936094  7688 net.cpp:454] id_res5b_branch2c <- id_res5b_branch2b
I0329 14:44:26.936118  7688 net.cpp:411] id_res5b_branch2c -> id_res5b_branch2c
I0329 14:44:26.941527  7688 net.cpp:150] Setting up id_res5b_branch2c
I0329 14:44:26.941573  7688 net.cpp:157] Top shape: 16 2048 7 7 (1605632)
I0329 14:44:26.941593  7688 net.cpp:165] Memory required for data: 5642323904
I0329 14:44:26.941618  7688 layer_factory.hpp:77] Creating layer id_bn5b_branch2c
I0329 14:44:26.941643  7688 net.cpp:106] Creating Layer id_bn5b_branch2c
I0329 14:44:26.941665  7688 net.cpp:454] id_bn5b_branch2c <- id_res5b_branch2c
I0329 14:44:26.941689  7688 net.cpp:397] id_bn5b_branch2c -> id_res5b_branch2c (in-place)
I0329 14:44:26.942191  7688 net.cpp:150] Setting up id_bn5b_branch2c
I0329 14:44:26.942227  7688 net.cpp:157] Top shape: 16 2048 7 7 (1605632)
I0329 14:44:26.942246  7688 net.cpp:165] Memory required for data: 5648746432
I0329 14:44:26.942277  7688 layer_factory.hpp:77] Creating layer id_scale5b_branch2c
I0329 14:44:26.942309  7688 net.cpp:106] Creating Layer id_scale5b_branch2c
I0329 14:44:26.942332  7688 net.cpp:454] id_scale5b_branch2c <- id_res5b_branch2c
I0329 14:44:26.942355  7688 net.cpp:397] id_scale5b_branch2c -> id_res5b_branch2c (in-place)
I0329 14:44:26.942476  7688 layer_factory.hpp:77] Creating layer id_scale5b_branch2c
I0329 14:44:26.942800  7688 net.cpp:150] Setting up id_scale5b_branch2c
I0329 14:44:26.942836  7688 net.cpp:157] Top shape: 16 2048 7 7 (1605632)
I0329 14:44:26.942854  7688 net.cpp:165] Memory required for data: 5655168960
I0329 14:44:26.942881  7688 layer_factory.hpp:77] Creating layer id_res5b
I0329 14:44:26.942906  7688 net.cpp:106] Creating Layer id_res5b
I0329 14:44:26.942944  7688 net.cpp:454] id_res5b <- id_res5a_id_res5a_relu_0_split_1
I0329 14:44:26.942986  7688 net.cpp:454] id_res5b <- id_res5b_branch2c
I0329 14:44:26.943017  7688 net.cpp:411] id_res5b -> id_res5b
I0329 14:44:26.943095  7688 net.cpp:150] Setting up id_res5b
I0329 14:44:26.943135  7688 net.cpp:157] Top shape: 16 2048 7 7 (1605632)
I0329 14:44:26.943155  7688 net.cpp:165] Memory required for data: 5661591488
I0329 14:44:26.943173  7688 layer_factory.hpp:77] Creating layer id_res5b_relu
I0329 14:44:26.943197  7688 net.cpp:106] Creating Layer id_res5b_relu
I0329 14:44:26.943215  7688 net.cpp:454] id_res5b_relu <- id_res5b
I0329 14:44:26.943238  7688 net.cpp:397] id_res5b_relu -> id_res5b (in-place)
I0329 14:44:26.943262  7688 net.cpp:150] Setting up id_res5b_relu
I0329 14:44:26.943285  7688 net.cpp:157] Top shape: 16 2048 7 7 (1605632)
I0329 14:44:26.943302  7688 net.cpp:165] Memory required for data: 5668014016
I0329 14:44:26.943320  7688 layer_factory.hpp:77] Creating layer id_res5b_id_res5b_relu_0_split
I0329 14:44:26.943342  7688 net.cpp:106] Creating Layer id_res5b_id_res5b_relu_0_split
I0329 14:44:26.943361  7688 net.cpp:454] id_res5b_id_res5b_relu_0_split <- id_res5b
I0329 14:44:26.943389  7688 net.cpp:411] id_res5b_id_res5b_relu_0_split -> id_res5b_id_res5b_relu_0_split_0
I0329 14:44:26.943418  7688 net.cpp:411] id_res5b_id_res5b_relu_0_split -> id_res5b_id_res5b_relu_0_split_1
I0329 14:44:26.943519  7688 net.cpp:150] Setting up id_res5b_id_res5b_relu_0_split
I0329 14:44:26.943552  7688 net.cpp:157] Top shape: 16 2048 7 7 (1605632)
I0329 14:44:26.943572  7688 net.cpp:157] Top shape: 16 2048 7 7 (1605632)
I0329 14:44:26.943590  7688 net.cpp:165] Memory required for data: 5680859072
I0329 14:44:26.943609  7688 layer_factory.hpp:77] Creating layer id_res5c_branch2a
I0329 14:44:26.943642  7688 net.cpp:106] Creating Layer id_res5c_branch2a
I0329 14:44:26.943665  7688 net.cpp:454] id_res5c_branch2a <- id_res5b_id_res5b_relu_0_split_0
I0329 14:44:26.943691  7688 net.cpp:411] id_res5c_branch2a -> id_res5c_branch2a
I0329 14:44:26.949100  7688 net.cpp:150] Setting up id_res5c_branch2a
I0329 14:44:26.949146  7688 net.cpp:157] Top shape: 16 512 7 7 (401408)
I0329 14:44:26.949165  7688 net.cpp:165] Memory required for data: 5682464704
I0329 14:44:26.949190  7688 layer_factory.hpp:77] Creating layer id_bn5c_branch2a
I0329 14:44:26.949223  7688 net.cpp:106] Creating Layer id_bn5c_branch2a
I0329 14:44:26.949245  7688 net.cpp:454] id_bn5c_branch2a <- id_res5c_branch2a
I0329 14:44:26.949268  7688 net.cpp:397] id_bn5c_branch2a -> id_res5c_branch2a (in-place)
I0329 14:44:26.949774  7688 net.cpp:150] Setting up id_bn5c_branch2a
I0329 14:44:26.949811  7688 net.cpp:157] Top shape: 16 512 7 7 (401408)
I0329 14:44:26.949831  7688 net.cpp:165] Memory required for data: 5684070336
I0329 14:44:26.949861  7688 layer_factory.hpp:77] Creating layer id_scale5c_branch2a
I0329 14:44:26.949887  7688 net.cpp:106] Creating Layer id_scale5c_branch2a
I0329 14:44:26.949908  7688 net.cpp:454] id_scale5c_branch2a <- id_res5c_branch2a
I0329 14:44:26.949936  7688 net.cpp:397] id_scale5c_branch2a -> id_res5c_branch2a (in-place)
I0329 14:44:26.950055  7688 layer_factory.hpp:77] Creating layer id_scale5c_branch2a
I0329 14:44:26.950367  7688 net.cpp:150] Setting up id_scale5c_branch2a
I0329 14:44:26.950408  7688 net.cpp:157] Top shape: 16 512 7 7 (401408)
I0329 14:44:26.950428  7688 net.cpp:165] Memory required for data: 5685675968
I0329 14:44:26.950454  7688 layer_factory.hpp:77] Creating layer id_res5c_branch2a_relu
I0329 14:44:26.950479  7688 net.cpp:106] Creating Layer id_res5c_branch2a_relu
I0329 14:44:26.950500  7688 net.cpp:454] id_res5c_branch2a_relu <- id_res5c_branch2a
I0329 14:44:26.950521  7688 net.cpp:397] id_res5c_branch2a_relu -> id_res5c_branch2a (in-place)
I0329 14:44:26.950547  7688 net.cpp:150] Setting up id_res5c_branch2a_relu
I0329 14:44:26.950570  7688 net.cpp:157] Top shape: 16 512 7 7 (401408)
I0329 14:44:26.950588  7688 net.cpp:165] Memory required for data: 5687281600
I0329 14:44:26.950606  7688 layer_factory.hpp:77] Creating layer id_res5c_branch2b
I0329 14:44:26.950669  7688 net.cpp:106] Creating Layer id_res5c_branch2b
I0329 14:44:26.950691  7688 net.cpp:454] id_res5c_branch2b <- id_res5c_branch2a
I0329 14:44:26.950717  7688 net.cpp:411] id_res5c_branch2b -> id_res5c_branch2b
I0329 14:44:26.962013  7688 net.cpp:150] Setting up id_res5c_branch2b
I0329 14:44:26.962064  7688 net.cpp:157] Top shape: 16 512 7 7 (401408)
I0329 14:44:26.962082  7688 net.cpp:165] Memory required for data: 5688887232
I0329 14:44:26.962107  7688 layer_factory.hpp:77] Creating layer id_bn5c_branch2b
I0329 14:44:26.962134  7688 net.cpp:106] Creating Layer id_bn5c_branch2b
I0329 14:44:26.962157  7688 net.cpp:454] id_bn5c_branch2b <- id_res5c_branch2b
I0329 14:44:26.962180  7688 net.cpp:397] id_bn5c_branch2b -> id_res5c_branch2b (in-place)
I0329 14:44:26.962672  7688 net.cpp:150] Setting up id_bn5c_branch2b
I0329 14:44:26.962708  7688 net.cpp:157] Top shape: 16 512 7 7 (401408)
I0329 14:44:26.962728  7688 net.cpp:165] Memory required for data: 5690492864
I0329 14:44:26.962759  7688 layer_factory.hpp:77] Creating layer id_scale5c_branch2b
I0329 14:44:26.962785  7688 net.cpp:106] Creating Layer id_scale5c_branch2b
I0329 14:44:26.962806  7688 net.cpp:454] id_scale5c_branch2b <- id_res5c_branch2b
I0329 14:44:26.962828  7688 net.cpp:397] id_scale5c_branch2b -> id_res5c_branch2b (in-place)
I0329 14:44:26.962954  7688 layer_factory.hpp:77] Creating layer id_scale5c_branch2b
I0329 14:44:26.963274  7688 net.cpp:150] Setting up id_scale5c_branch2b
I0329 14:44:26.963310  7688 net.cpp:157] Top shape: 16 512 7 7 (401408)
I0329 14:44:26.963328  7688 net.cpp:165] Memory required for data: 5692098496
I0329 14:44:26.963356  7688 layer_factory.hpp:77] Creating layer id_res5c_branch2b_relu
I0329 14:44:26.963385  7688 net.cpp:106] Creating Layer id_res5c_branch2b_relu
I0329 14:44:26.963407  7688 net.cpp:454] id_res5c_branch2b_relu <- id_res5c_branch2b
I0329 14:44:26.963428  7688 net.cpp:397] id_res5c_branch2b_relu -> id_res5c_branch2b (in-place)
I0329 14:44:26.963455  7688 net.cpp:150] Setting up id_res5c_branch2b_relu
I0329 14:44:26.963477  7688 net.cpp:157] Top shape: 16 512 7 7 (401408)
I0329 14:44:26.963495  7688 net.cpp:165] Memory required for data: 5693704128
I0329 14:44:26.963513  7688 layer_factory.hpp:77] Creating layer id_res5c_branch2c
I0329 14:44:26.963546  7688 net.cpp:106] Creating Layer id_res5c_branch2c
I0329 14:44:26.963567  7688 net.cpp:454] id_res5c_branch2c <- id_res5c_branch2b
I0329 14:44:26.963590  7688 net.cpp:411] id_res5c_branch2c -> id_res5c_branch2c
I0329 14:44:26.968998  7688 net.cpp:150] Setting up id_res5c_branch2c
I0329 14:44:26.969045  7688 net.cpp:157] Top shape: 16 2048 7 7 (1605632)
I0329 14:44:26.969065  7688 net.cpp:165] Memory required for data: 5700126656
I0329 14:44:26.969089  7688 layer_factory.hpp:77] Creating layer id_bn5c_branch2c
I0329 14:44:26.969115  7688 net.cpp:106] Creating Layer id_bn5c_branch2c
I0329 14:44:26.969136  7688 net.cpp:454] id_bn5c_branch2c <- id_res5c_branch2c
I0329 14:44:26.969159  7688 net.cpp:397] id_bn5c_branch2c -> id_res5c_branch2c (in-place)
I0329 14:44:26.969674  7688 net.cpp:150] Setting up id_bn5c_branch2c
I0329 14:44:26.969712  7688 net.cpp:157] Top shape: 16 2048 7 7 (1605632)
I0329 14:44:26.969732  7688 net.cpp:165] Memory required for data: 5706549184
I0329 14:44:26.969763  7688 layer_factory.hpp:77] Creating layer id_scale5c_branch2c
I0329 14:44:26.969794  7688 net.cpp:106] Creating Layer id_scale5c_branch2c
I0329 14:44:26.969816  7688 net.cpp:454] id_scale5c_branch2c <- id_res5c_branch2c
I0329 14:44:26.969840  7688 net.cpp:397] id_scale5c_branch2c -> id_res5c_branch2c (in-place)
I0329 14:44:26.969959  7688 layer_factory.hpp:77] Creating layer id_scale5c_branch2c
I0329 14:44:26.970293  7688 net.cpp:150] Setting up id_scale5c_branch2c
I0329 14:44:26.970329  7688 net.cpp:157] Top shape: 16 2048 7 7 (1605632)
I0329 14:44:26.970347  7688 net.cpp:165] Memory required for data: 5712971712
I0329 14:44:26.970381  7688 layer_factory.hpp:77] Creating layer id_res5c
I0329 14:44:26.970405  7688 net.cpp:106] Creating Layer id_res5c
I0329 14:44:26.970443  7688 net.cpp:454] id_res5c <- id_res5b_id_res5b_relu_0_split_1
I0329 14:44:26.970486  7688 net.cpp:454] id_res5c <- id_res5c_branch2c
I0329 14:44:26.970517  7688 net.cpp:411] id_res5c -> id_res5c
I0329 14:44:26.970597  7688 net.cpp:150] Setting up id_res5c
I0329 14:44:26.970636  7688 net.cpp:157] Top shape: 16 2048 7 7 (1605632)
I0329 14:44:26.970657  7688 net.cpp:165] Memory required for data: 5719394240
I0329 14:44:26.970675  7688 layer_factory.hpp:77] Creating layer id_res5c_relu
I0329 14:44:26.970698  7688 net.cpp:106] Creating Layer id_res5c_relu
I0329 14:44:26.970719  7688 net.cpp:454] id_res5c_relu <- id_res5c
I0329 14:44:26.970741  7688 net.cpp:397] id_res5c_relu -> id_res5c (in-place)
I0329 14:44:26.970767  7688 net.cpp:150] Setting up id_res5c_relu
I0329 14:44:26.970788  7688 net.cpp:157] Top shape: 16 2048 7 7 (1605632)
I0329 14:44:26.970806  7688 net.cpp:165] Memory required for data: 5725816768
I0329 14:44:26.970824  7688 layer_factory.hpp:77] Creating layer id_pool5
I0329 14:44:26.970854  7688 net.cpp:106] Creating Layer id_pool5
I0329 14:44:26.970875  7688 net.cpp:454] id_pool5 <- id_res5c
I0329 14:44:26.970899  7688 net.cpp:411] id_pool5 -> id_pool5
I0329 14:44:26.970979  7688 net.cpp:150] Setting up id_pool5
I0329 14:44:26.971011  7688 net.cpp:157] Top shape: 16 2048 1 1 (32768)
I0329 14:44:26.971029  7688 net.cpp:165] Memory required for data: 5725947840
I0329 14:44:26.971048  7688 layer_factory.hpp:77] Creating layer fc
I0329 14:44:26.971078  7688 net.cpp:106] Creating Layer fc
I0329 14:44:26.971099  7688 net.cpp:454] fc <- pool5
I0329 14:44:26.971138  7688 net.cpp:411] fc -> fc
I0329 14:44:26.976138  7688 net.cpp:150] Setting up fc
I0329 14:44:26.976179  7688 net.cpp:157] Top shape: 16 30 (480)
I0329 14:44:26.976199  7688 net.cpp:165] Memory required for data: 5725949760
I0329 14:44:26.976227  7688 layer_factory.hpp:77] Creating layer loss_pos30
I0329 14:44:26.976263  7688 net.cpp:106] Creating Layer loss_pos30
I0329 14:44:26.976284  7688 net.cpp:454] loss_pos30 <- fc
I0329 14:44:26.976307  7688 net.cpp:454] loss_pos30 <- labels
I0329 14:44:26.976341  7688 net.cpp:411] loss_pos30 -> loss_pos30
I0329 14:44:26.976588  7688 net.cpp:150] Setting up loss_pos30
I0329 14:44:26.976624  7688 net.cpp:157] Top shape: (1)
I0329 14:44:26.976642  7688 net.cpp:160]     with loss weight 0.01
I0329 14:44:26.976709  7688 net.cpp:165] Memory required for data: 5725949764
I0329 14:44:26.976730  7688 layer_factory.hpp:77] Creating layer id_fc
I0329 14:44:26.976758  7688 net.cpp:106] Creating Layer id_fc
I0329 14:44:26.976778  7688 net.cpp:454] id_fc <- id_pool5
I0329 14:44:26.976809  7688 net.cpp:411] id_fc -> id_fc
I0329 14:44:27.066668  7688 net.cpp:150] Setting up id_fc
I0329 14:44:27.066692  7688 net.cpp:157] Top shape: 16 751 (12016)
I0329 14:44:27.066702  7688 net.cpp:165] Memory required for data: 5725997828
I0329 14:44:27.066716  7688 layer_factory.hpp:77] Creating layer id_loss_id
I0329 14:44:27.066736  7688 net.cpp:106] Creating Layer id_loss_id
I0329 14:44:27.066747  7688 net.cpp:454] id_loss_id <- id_fc
I0329 14:44:27.066757  7688 net.cpp:454] id_loss_id <- id_label
I0329 14:44:27.066769  7688 net.cpp:411] id_loss_id -> id_loss_id
…
