…
I0322 16:08:52.008747 26392 net.cpp:322] The NetState phase (0) differed from the phase (1) specified by a rule in layer accuracy
I0322 16:08:52.010366 26392 net.cpp:49] Initializing net from parameters: 
name: "ResNet-50"
state {
  phase: TRAIN
}
layer {
  name: "data"
  type: "Data"
  top: "data"
  top: "label"
  include {
    phase: TRAIN
  }
  transform_param {
    mirror: true
    mean_file: "/home/lizhuowan/caffe/data/Market1501/Resize_224by224/market1501_mean_train.binaryproto"
  }
  data_param {
    source: "/home/lizhuowan/caffe/data/Market1501/Resize_224by224/market1501_train_lmdb"
    batch_size: 16
    backend: LMDB
  }
}
layer {
  name: "conv1"
  type: "Convolution"
  bottom: "data"
  top: "conv1"
  convolution_param {
    num_output: 64
    pad: 3
    kernel_size: 7
    stride: 2
  }
}
layer {
  name: "bn_conv1"
  type: "BatchNorm"
  bottom: "conv1"
  top: "conv1"
  batch_norm_param {
    use_global_stats: true
  }
}
layer {
  name: "scale_conv1"
  type: "Scale"
  bottom: "conv1"
  top: "conv1"
  scale_param {
    bias_term: true
  }
}
layer {
  name: "conv1_relu"
  type: "ReLU"
  bottom: "conv1"
  top: "conv1"
}
layer {
  name: "pool1"
  type: "Pooling"
  bottom: "conv1"
  top: "pool1"
  pooling_param {
    pool: MAX
    kernel_size: 3
    stride: 2
  }
}
layer {
  name: "res2a_branch1"
  type: "Convolution"
  bottom: "pool1"
  top: "res2a_branch1"
  convolution_param {
    num_output: 256
    bias_term: false
    pad: 0
    kernel_size: 1
    stride: 1
  }
}
layer {
  name: "bn2a_branch1"
  type: "BatchNorm"
  bottom: "res2a_branch1"
  top: "res2a_branch1"
  batch_norm_param {
    use_global_stats: true
  }
}
layer {
  name: "scale2a_branch1"
  type: "Scale"
  bottom: "res2a_branch1"
  top: "res2a_branch1"
  scale_param {
    bias_term: true
  }
}
layer {
  name: "res2a_branch2a"
  type: "Convolution"
  bottom: "pool1"
  top: "res2a_branch2a"
  convolution_param {
    num_output: 64
    bias_term: false
    pad: 0
    kernel_size: 1
    stride: 1
  }
}
layer {
  name: "bn2a_branch2a"
  type: "BatchNorm"
  bottom: "res2a_branch2a"
  top: "res2a_branch2a"
  batch_norm_param {
    use_global_stats: true
  }
}
layer {
  name: "scale2a_branch2a"
  type: "Scale"
  bottom: "res2a_branch2a"
  top: "res2a_branch2a"
  scale_param {
    bias_term: true
  }
}
layer {
  name: "res2a_branch2a_relu"
  type: "ReLU"
  bottom: "res2a_branch2a"
  top: "res2a_branch2a"
}
layer {
  name: "res2a_branch2b"
  type: "Convolution"
  bottom: "res2a_branch2a"
  top: "res2a_branch2b"
  convolution_param {
    num_output: 64
    bias_term: false
    pad: 1
    kernel_size: 3
    stride: 1
  }
}
layer {
  name: "bn2a_branch2b"
  type: "BatchNorm"
  bottom: "res2a_branch2b"
  top: "res2a_branch2b"
  batch_norm_param {
    use_global_stats: true
  }
}
layer {
  name: "scale2a_branch2b"
  type: "Scale"
  bottom: "res2a_branch2b"
  top: "res2a_branch2b"
  scale_param {
    bias_term: true
  }
}
layer {
  name: "res2a_branch2b_relu"
  type: "ReLU"
  bottom: "res2a_branch2b"
  top: "res2a_branch2b"
}
layer {
  name: "res2a_branch2c"
  type: "Convolution"
  bottom: "res2a_branch2b"
  top: "res2a_branch2c"
  convolution_param {
    num_output: 256
    bias_term: false
    pad: 0
    kernel_size: 1
    stride: 1
  }
}
layer {
  name: "bn2a_branch2c"
  type: "BatchNorm"
  bottom: "res2a_branch2c"
  top: "res2a_branch2c"
  batch_norm_param {
    use_global_stats: true
  }
}
layer {
  name: "scale2a_branch2c"
  type: "Scale"
  bottom: "res2a_branch2c"
  top: "res2a_branch2c"
  scale_param {
    bias_term: true
  }
}
layer {
  name: "res2a"
  type: "Eltwise"
  bottom: "res2a_branch1"
  bottom: "res2a_branch2c"
  top: "res2a"
}
layer {
  name: "res2a_relu"
  type: "ReLU"
  bottom: "res2a"
  top: "res2a"
}
layer {
  name: "res2b_branch2a"
  type: "Convolution"
  bottom: "res2a"
  top: "res2b_branch2a"
  convolution_param {
    num_output: 64
    bias_term: false
    pad: 0
    kernel_size: 1
    stride: 1
  }
}
layer {
  name: "bn2b_branch2a"
  type: "BatchNorm"
  bottom: "res2b_branch2a"
  top: "res2b_branch2a"
  batch_norm_param {
    use_global_stats: true
  }
}
layer {
  name: "scale2b_branch2a"
  type: "Scale"
  bottom: "res2b_branch2a"
  top: "res2b_branch2a"
  scale_param {
    bias_term: true
  }
}
layer {
  name: "res2b_branch2a_relu"
  type: "ReLU"
  bottom: "res2b_branch2a"
  top: "res2b_branch2a"
}
layer {
  name: "res2b_branch2b"
  type: "Convolution"
  bottom: "res2b_branch2a"
  top: "res2b_branch2b"
  convolution_param {
    num_output: 64
    bias_term: false
    pad: 1
    kernel_size: 3
    stride: 1
  }
}
layer {
  name: "bn2b_branch2b"
  type: "BatchNorm"
  bottom: "res2b_branch2b"
  top: "res2b_branch2b"
  batch_norm_param {
    use_global_stats: true
  }
}
layer {
  name: "scale2b_branch2b"
  type: "Scale"
  bottom: "res2b_branch2b"
  top: "res2b_branch2b"
  scale_param {
    bias_term: true
  }
}
layer {
  name: "res2b_branch2b_relu"
  type: "ReLU"
  bottom: "res2b_branch2b"
  top: "res2b_branch2b"
}
layer {
  name: "res2b_branch2c"
  type: "Convolution"
  bottom: "res2b_branch2b"
  top: "res2b_branch2c"
  convolution_param {
    num_output: 256
    bias_term: false
    pad: 0
    kernel_size: 1
    stride: 1
  }
}
layer {
  name: "bn2b_branch2c"
  type: "BatchNorm"
  bottom: "res2b_branch2c"
  top: "res2b_branch2c"
  batch_norm_param {
    use_global_stats: true
  }
}
layer {
  name: "scale2b_branch2c"
  type: "Scale"
  bottom: "res2b_branch2c"
  top: "res2b_branch2c"
  scale_param {
    bias_term: true
  }
}
layer {
  name: "res2b"
  type: "Eltwise"
  bottom: "res2a"
  bottom: "res2b_branch2c"
  top: "res2b"
}
layer {
  name: "res2b_relu"
  type: "ReLU"
  bottom: "res2b"
  top: "res2b"
}
layer {
  name: "res2c_branch2a"
  type: "Convolution"
  bottom: "res2b"
  top: "res2c_branch2a"
  convolution_param {
    num_output: 64
    bias_term: false
    pad: 0
    kernel_size: 1
    stride: 1
  }
}
layer {
  name: "bn2c_branch2a"
  type: "BatchNorm"
  bottom: "res2c_branch2a"
  top: "res2c_branch2a"
  batch_norm_param {
    use_global_stats: true
  }
}
layer {
  name: "scale2c_branch2a"
  type: "Scale"
  bottom: "res2c_branch2a"
  top: "res2c_branch2a"
  scale_param {
    bias_term: true
  }
}
layer {
  name: "res2c_branch2a_relu"
  type: "ReLU"
  bottom: "res2c_branch2a"
  top: "res2c_branch2a"
}
layer {
  name: "res2c_branch2b"
  type: "Convolution"
  bottom: "res2c_branch2a"
  top: "res2c_branch2b"
  convolution_param {
    num_output: 64
    bias_term: false
    pad: 1
    kernel_size: 3
    stride: 1
  }
}
layer {
  name: "bn2c_branch2b"
  type: "BatchNorm"
  bottom: "res2c_branch2b"
  top: "res2c_branch2b"
  batch_norm_param {
    use_global_stats: true
  }
}
layer {
  name: "scale2c_branch2b"
  type: "Scale"
  bottom: "res2c_branch2b"
  top: "res2c_branch2b"
  scale_param {
    bias_term: true
  }
}
layer {
  name: "res2c_branch2b_relu"
  type: "ReLU"
  bottom: "res2c_branch2b"
  top: "res2c_branch2b"
}
layer {
  name: "res2c_branch2c"
  type: "Convolution"
  bottom: "res2c_branch2b"
  top: "res2c_branch2c"
  convolution_param {
    num_output: 256
    bias_term: false
    pad: 0
    kernel_size: 1
    stride: 1
  }
}
layer {
  name: "bn2c_branch2c"
  type: "BatchNorm"
  bottom: "res2c_branch2c"
  top: "res2c_branch2c"
  batch_norm_param {
    use_global_stats: true
  }
}
layer {
  name: "scale2c_branch2c"
  type: "Scale"
  bottom: "res2c_branch2c"
  top: "res2c_branch2c"
  scale_param {
    bias_term: true
  }
}
layer {
  name: "res2c"
  type: "Eltwise"
  bottom: "res2b"
  bottom: "res2c_branch2c"
  top: "res2c"
}
layer {
  name: "res2c_relu"
  type: "ReLU"
  bottom: "res2c"
  top: "res2c"
}
layer {
  name: "res3a_branch1"
  type: "Convolution"
  bottom: "res2c"
  top: "res3a_branch1"
  convolution_param {
    num_output: 512
    bias_term: false
    pad: 0
    kernel_size: 1
    stride: 2
  }
}
layer {
  name: "bn3a_branch1"
  type: "BatchNorm"
  bottom: "res3a_branch1"
  top: "res3a_branch1"
  batch_norm_param {
    use_global_stats: true
  }
}
layer {
  name: "scale3a_branch1"
  type: "Scale"
  bottom: "res3a_branch1"
  top: "res3a_branch1"
  scale_param {
    bias_term: true
  }
}
layer {
  name: "res3a_branch2a"
  type: "Convolution"
  bottom: "res2c"
  top: "res3a_branch2a"
  convolution_param {
    num_output: 128
    bias_term: false
    pad: 0
    kernel_size: 1
    stride: 2
  }
}
layer {
  name: "bn3a_branch2a"
  type: "BatchNorm"
  bottom: "res3a_branch2a"
  top: "res3a_branch2a"
  batch_norm_param {
    use_global_stats: true
  }
}
layer {
  name: "scale3a_branch2a"
  type: "Scale"
  bottom: "res3a_branch2a"
  top: "res3a_branch2a"
  scale_param {
    bias_term: true
  }
}
layer {
  name: "res3a_branch2a_relu"
  type: "ReLU"
  bottom: "res3a_branch2a"
  top: "res3a_branch2a"
}
layer {
  name: "res3a_branch2b"
  type: "Convolution"
  bottom: "res3a_branch2a"
  top: "res3a_branch2b"
  convolution_param {
    num_output: 128
    bias_term: false
    pad: 1
    kernel_size: 3
    stride: 1
  }
}
layer {
  name: "bn3a_branch2b"
  type: "BatchNorm"
  bottom: "res3a_branch2b"
  top: "res3a_branch2b"
  batch_norm_param {
    use_global_stats: true
  }
}
layer {
  name: "scale3a_branch2b"
  type: "Scale"
  bottom: "res3a_branch2b"
  top: "res3a_branch2b"
  scale_param {
    bias_term: true
  }
}
layer {
  name: "res3a_branch2b_relu"
  type: "ReLU"
  bottom: "res3a_branch2b"
  top: "res3a_branch2b"
}
layer {
  name: "res3a_branch2c"
  type: "Convolution"
  bottom: "res3a_branch2b"
  top: "res3a_branch2c"
  convolution_param {
    num_output: 512
    bias_term: false
    pad: 0
    kernel_size: 1
    stride: 1
  }
}
layer {
  name: "bn3a_branch2c"
  type: "BatchNorm"
  bottom: "res3a_branch2c"
  top: "res3a_branch2c"
  batch_norm_param {
    use_global_stats: true
  }
}
layer {
  name: "scale3a_branch2c"
  type: "Scale"
  bottom: "res3a_branch2c"
  top: "res3a_branch2c"
  scale_param {
    bias_term: true
  }
}
layer {
  name: "res3a"
  type: "Eltwise"
  bottom: "res3a_branch1"
  bottom: "res3a_branch2c"
  top: "res3a"
}
layer {
  name: "res3a_relu"
  type: "ReLU"
  bottom: "res3a"
  top: "res3a"
}
layer {
  name: "res3b_branch2a"
  type: "Convolution"
  bottom: "res3a"
  top: "res3b_branch2a"
  convolution_param {
    num_output: 128
    bias_term: false
    pad: 0
    kernel_size: 1
    stride: 1
  }
}
layer {
  name: "bn3b_branch2a"
  type: "BatchNorm"
  bottom: "res3b_branch2a"
  top: "res3b_branch2a"
  batch_norm_param {
    use_global_stats: true
  }
}
layer {
  name: "scale3b_branch2a"
  type: "Scale"
  bottom: "res3b_branch2a"
  top: "res3b_branch2a"
  scale_param {
    bias_term: true
  }
}
layer {
  name: "res3b_branch2a_relu"
  type: "ReLU"
  bottom: "res3b_branch2a"
  top: "res3b_branch2a"
}
layer {
  name: "res3b_branch2b"
  type: "Convolution"
  bottom: "res3b_branch2a"
  top: "res3b_branch2b"
  convolution_param {
    num_output: 128
    bias_term: false
    pad: 1
    kernel_size: 3
    stride: 1
  }
}
layer {
  name: "bn3b_branch2b"
  type: "BatchNorm"
  bottom: "res3b_branch2b"
  top: "res3b_branch2b"
  batch_norm_param {
    use_global_stats: true
  }
}
layer {
  name: "scale3b_branch2b"
  type: "Scale"
  bottom: "res3b_branch2b"
  top: "res3b_branch2b"
  scale_param {
    bias_term: true
  }
}
layer {
  name: "res3b_branch2b_relu"
  type: "ReLU"
  bottom: "res3b_branch2b"
  top: "res3b_branch2b"
}
layer {
  name: "res3b_branch2c"
  type: "Convolution"
  bottom: "res3b_branch2b"
  top: "res3b_branch2c"
  convolution_param {
    num_output: 512
    bias_term: false
    pad: 0
    kernel_size: 1
    stride: 1
  }
}
layer {
  name: "bn3b_branch2c"
  type: "BatchNorm"
  bottom: "res3b_branch2c"
  top: "res3b_branch2c"
  batch_norm_param {
    use_global_stats: true
  }
}
layer {
  name: "scale3b_branch2c"
  type: "Scale"
  bottom: "res3b_branch2c"
  top: "res3b_branch2c"
  scale_param {
    bias_term: true
  }
}
layer {
  name: "res3b"
  type: "Eltwise"
  bottom: "res3a"
  bottom: "res3b_branch2c"
  top: "res3b"
}
layer {
  name: "res3b_relu"
  type: "ReLU"
  bottom: "res3b"
  top: "res3b"
}
layer {
  name: "res3c_branch2a"
  type: "Convolution"
  bottom: "res3b"
  top: "res3c_branch2a"
  convolution_param {
    num_output: 128
    bias_term: false
    pad: 0
    kernel_size: 1
    stride: 1
  }
}
layer {
  name: "bn3c_branch2a"
  type: "BatchNorm"
  bottom: "res3c_branch2a"
  top: "res3c_branch2a"
  batch_norm_param {
    use_global_stats: true
  }
}
layer {
  name: "scale3c_branch2a"
  type: "Scale"
  bottom: "res3c_branch2a"
  top: "res3c_branch2a"
  scale_param {
    bias_term: true
  }
}
layer {
  name: "res3c_branch2a_relu"
  type: "ReLU"
  bottom: "res3c_branch2a"
  top: "res3c_branch2a"
}
layer {
  name: "res3c_branch2b"
  type: "Convolution"
  bottom: "res3c_branch2a"
  top: "res3c_branch2b"
  convolution_param {
    num_output: 128
    bias_term: false
    pad: 1
    kernel_size: 3
    stride: 1
  }
}
layer {
  name: "bn3c_branch2b"
  type: "BatchNorm"
  bottom: "res3c_branch2b"
  top: "res3c_branch2b"
  batch_norm_param {
    use_global_stats: true
  }
}
layer {
  name: "scale3c_branch2b"
  type: "Scale"
  bottom: "res3c_branch2b"
  top: "res3c_branch2b"
  scale_param {
    bias_term: true
  }
}
layer {
  name: "res3c_branch2b_relu"
  type: "ReLU"
  bottom: "res3c_branch2b"
  top: "res3c_branch2b"
}
layer {
  name: "res3c_branch2c"
  type: "Convolution"
  bottom: "res3c_branch2b"
  top: "res3c_branch2c"
  convolution_param {
    num_output: 512
    bias_term: false
    pad: 0
    kernel_size: 1
    stride: 1
  }
}
layer {
  name: "bn3c_branch2c"
  type: "BatchNorm"
  bottom: "res3c_branch2c"
  top: "res3c_branch2c"
  batch_norm_param {
    use_global_stats: true
  }
}
layer {
  name: "scale3c_branch2c"
  type: "Scale"
  bottom: "res3c_branch2c"
  top: "res3c_branch2c"
  scale_param {
    bias_term: true
  }
}
layer {
  name: "res3c"
  type: "Eltwise"
  bottom: "res3b"
  bottom: "res3c_branch2c"
  top: "res3c"
}
layer {
  name: "res3c_relu"
  type: "ReLU"
  bottom: "res3c"
  top: "res3c"
}
layer {
  name: "res3d_branch2a"
  type: "Convolution"
  bottom: "res3c"
  top: "res3d_branch2a"
  convolution_param {
    num_output: 128
    bias_term: false
    pad: 0
    kernel_size: 1
    stride: 1
  }
}
layer {
  name: "bn3d_branch2a"
  type: "BatchNorm"
  bottom: "res3d_branch2a"
  top: "res3d_branch2a"
  batch_norm_param {
    use_global_stats: true
  }
}
layer {
  name: "scale3d_branch2a"
  type: "Scale"
  bottom: "res3d_branch2a"
  top: "res3d_branch2a"
  scale_param {
    bias_term: true
  }
}
layer {
  name: "res3d_branch2a_relu"
  type: "ReLU"
  bottom: "res3d_branch2a"
  top: "res3d_branch2a"
}
layer {
  name: "res3d_branch2b"
  type: "Convolution"
  bottom: "res3d_branch2a"
  top: "res3d_branch2b"
  convolution_param {
    num_output: 128
    bias_term: false
    pad: 1
    kernel_size: 3
    stride: 1
  }
}
layer {
  name: "bn3d_branch2b"
  type: "BatchNorm"
  bottom: "res3d_branch2b"
  top: "res3d_branch2b"
  batch_norm_param {
    use_global_stats: true
  }
}
layer {
  name: "scale3d_branch2b"
  type: "Scale"
  bottom: "res3d_branch2b"
  top: "res3d_branch2b"
  scale_param {
    bias_term: true
  }
}
layer {
  name: "res3d_branch2b_relu"
  type: "ReLU"
  bottom: "res3d_branch2b"
  top: "res3d_branch2b"
}
layer {
  name: "res3d_branch2c"
  type: "Convolution"
  bottom: "res3d_branch2b"
  top: "res3d_branch2c"
  convolution_param {
    num_output: 512
    bias_term: false
    pad: 0
    kernel_size: 1
    stride: 1
  }
}
layer {
  name: "bn3d_branch2c"
  type: "BatchNorm"
  bottom: "res3d_branch2c"
  top: "res3d_branch2c"
  batch_norm_param {
    use_global_stats: true
  }
}
layer {
  name: "scale3d_branch2c"
  type: "Scale"
  bottom: "res3d_branch2c"
  top: "res3d_branch2c"
  scale_param {
    bias_term: true
  }
}
layer {
  name: "res3d"
  type: "Eltwise"
  bottom: "res3c"
  bottom: "res3d_branch2c"
  top: "res3d"
}
layer {
  name: "res3d_relu"
  type: "ReLU"
  bottom: "res3d"
  top: "res3d"
}
layer {
  name: "res4a_branch1"
  type: "Convolution"
  bottom: "res3d"
  top: "res4a_branch1"
  convolution_param {
    num_output: 1024
    bias_term: false
    pad: 0
    kernel_size: 1
    stride: 2
  }
}
layer {
  name: "bn4a_branch1"
  type: "BatchNorm"
  bottom: "res4a_branch1"
  top: "res4a_branch1"
  batch_norm_param {
    use_global_stats: true
  }
}
layer {
  name: "scale4a_branch1"
  type: "Scale"
  bottom: "res4a_branch1"
  top: "res4a_branch1"
  scale_param {
    bias_term: true
  }
}
layer {
  name: "res4a_branch2a"
  type: "Convolution"
  bottom: "res3d"
  top: "res4a_branch2a"
  convolution_param {
    num_output: 256
    bias_term: false
    pad: 0
    kernel_size: 1
    stride: 2
  }
}
layer {
  name: "bn4a_branch2a"
  type: "BatchNorm"
  bottom: "res4a_branch2a"
  top: "res4a_branch2a"
  batch_norm_param {
    use_global_stats: true
  }
}
layer {
  name: "scale4a_branch2a"
  type: "Scale"
  bottom: "res4a_branch2a"
  top: "res4a_branch2a"
  scale_param {
    bias_term: true
  }
}
layer {
  name: "res4a_branch2a_relu"
  type: "ReLU"
  bottom: "res4a_branch2a"
  top: "res4a_branch2a"
}
layer {
  name: "res4a_branch2b"
  type: "Convolution"
  bottom: "res4a_branch2a"
  top: "res4a_branch2b"
  convolution_param {
    num_output: 256
    bias_term: false
    pad: 1
    kernel_size: 3
    stride: 1
  }
}
layer {
  name: "bn4a_branch2b"
  type: "BatchNorm"
  bottom: "res4a_branch2b"
  top: "res4a_branch2b"
  batch_norm_param {
    use_global_stats: true
  }
}
layer {
  name: "scale4a_branch2b"
  type: "Scale"
  bottom: "res4a_branch2b"
  top: "res4a_branch2b"
  scale_param {
    bias_term: true
  }
}
layer {
  name: "res4a_branch2b_relu"
  type: "ReLU"
  bottom: "res4a_branch2b"
  top: "res4a_branch2b"
}
layer {
  name: "res4a_branch2c"
  type: "Convolution"
  bottom: "res4a_branch2b"
  top: "res4a_branch2c"
  convolution_param {
    num_output: 1024
    bias_term: false
    pad: 0
    kernel_size: 1
    stride: 1
  }
}
layer {
  name: "bn4a_branch2c"
  type: "BatchNorm"
  bottom: "res4a_branch2c"
  top: "res4a_branch2c"
  batch_norm_param {
    use_global_stats: true
  }
}
layer {
  name: "scale4a_branch2c"
  type: "Scale"
  bottom: "res4a_branch2c"
  top: "res4a_branch2c"
  scale_param {
    bias_term: true
  }
}
layer {
  name: "res4a"
  type: "Eltwise"
  bottom: "res4a_branch1"
  bottom: "res4a_branch2c"
  top: "res4a"
}
layer {
  name: "res4a_relu"
  type: "ReLU"
  bottom: "res4a"
  top: "res4a"
}
layer {
  name: "res4b_branch2a"
  type: "Convolution"
  bottom: "res4a"
  top: "res4b_branch2a"
  convolution_param {
    num_output: 256
    bias_term: false
    pad: 0
    kernel_size: 1
    stride: 1
  }
}
layer {
  name: "bn4b_branch2a"
  type: "BatchNorm"
  bottom: "res4b_branch2a"
  top: "res4b_branch2a"
  batch_norm_param {
    use_global_stats: true
  }
}
layer {
  name: "scale4b_branch2a"
  type: "Scale"
  bottom: "res4b_branch2a"
  top: "res4b_branch2a"
  scale_param {
    bias_term: true
  }
}
layer {
  name: "res4b_branch2a_relu"
  type: "ReLU"
  bottom: "res4b_branch2a"
  top: "res4b_branch2a"
}
layer {
  name: "res4b_branch2b"
  type: "Convolution"
  bottom: "res4b_branch2a"
  top: "res4b_branch2b"
  convolution_param {
    num_output: 256
    bias_term: false
    pad: 1
    kernel_size: 3
    stride: 1
  }
}
layer {
  name: "bn4b_branch2b"
  type: "BatchNorm"
  bottom: "res4b_branch2b"
  top: "res4b_branch2b"
  batch_norm_param {
    use_global_stats: true
  }
}
layer {
  name: "scale4b_branch2b"
  type: "Scale"
  bottom: "res4b_branch2b"
  top: "res4b_branch2b"
  scale_param {
    bias_term: true
  }
}
layer {
  name: "res4b_branch2b_relu"
  type: "ReLU"
  bottom: "res4b_branch2b"
  top: "res4b_branch2b"
}
layer {
  name: "res4b_branch2c"
  type: "Convolution"
  bottom: "res4b_branch2b"
  top: "res4b_branch2c"
  convolution_param {
    num_output: 1024
    bias_term: false
    pad: 0
    kernel_size: 1
    stride: 1
  }
}
layer {
  name: "bn4b_branch2c"
  type: "BatchNorm"
  bottom: "res4b_branch2c"
  top: "res4b_branch2c"
  batch_norm_param {
    use_global_stats: true
  }
}
layer {
  name: "scale4b_branch2c"
  type: "Scale"
  bottom: "res4b_branch2c"
  top: "res4b_branch2c"
  scale_param {
    bias_term: true
  }
}
layer {
  name: "res4b"
  type: "Eltwise"
  bottom: "res4a"
  bottom: "res4b_branch2c"
  top: "res4b"
}
layer {
  name: "res4b_relu"
  type: "ReLU"
  bottom: "res4b"
  top: "res4b"
}
layer {
  name: "res4c_branch2a"
  type: "Convolution"
  bottom: "res4b"
  top: "res4c_branch2a"
  convolution_param {
    num_output: 256
    bias_term: false
    pad: 0
    kernel_size: 1
    stride: 1
  }
}
layer {
  name: "bn4c_branch2a"
  type: "BatchNorm"
  bottom: "res4c_branch2a"
  top: "res4c_branch2a"
  batch_norm_param {
    use_global_stats: true
  }
}
layer {
  name: "scale4c_branch2a"
  type: "Scale"
  bottom: "res4c_branch2a"
  top: "res4c_branch2a"
  scale_param {
    bias_term: true
  }
}
layer {
  name: "res4c_branch2a_relu"
  type: "ReLU"
  bottom: "res4c_branch2a"
  top: "res4c_branch2a"
}
layer {
  name: "res4c_branch2b"
  type: "Convolution"
  bottom: "res4c_branch2a"
  top: "res4c_branch2b"
  convolution_param {
    num_output: 256
    bias_term: false
    pad: 1
    kernel_size: 3
    stride: 1
  }
}
layer {
  name: "bn4c_branch2b"
  type: "BatchNorm"
  bottom: "res4c_branch2b"
  top: "res4c_branch2b"
  batch_norm_param {
    use_global_stats: true
  }
}
layer {
  name: "scale4c_branch2b"
  type: "Scale"
  bottom: "res4c_branch2b"
  top: "res4c_branch2b"
  scale_param {
    bias_term: true
  }
}
layer {
  name: "res4c_branch2b_relu"
  type: "ReLU"
  bottom: "res4c_branch2b"
  top: "res4c_branch2b"
}
layer {
  name: "res4c_branch2c"
  type: "Convolution"
  bottom: "res4c_branch2b"
  top: "res4c_branch2c"
  convolution_param {
    num_output: 1024
    bias_term: false
    pad: 0
    kernel_size: 1
    stride: 1
  }
}
layer {
  name: "bn4c_branch2c"
  type: "BatchNorm"
  bottom: "res4c_branch2c"
  top: "res4c_branch2c"
  batch_norm_param {
    use_global_stats: true
  }
}
layer {
  name: "scale4c_branch2c"
  type: "Scale"
  bottom: "res4c_branch2c"
  top: "res4c_branch2c"
  scale_param {
    bias_term: true
  }
}
layer {
  name: "res4c"
  type: "Eltwise"
  bottom: "res4b"
  bottom: "res4c_branch2c"
  top: "res4c"
}
layer {
  name: "res4c_relu"
  type: "ReLU"
  bottom: "res4c"
  top: "res4c"
}
layer {
  name: "res4d_branch2a"
  type: "Convolution"
  bottom: "res4c"
  top: "res4d_branch2a"
  convolution_param {
    num_output: 256
    bias_term: false
    pad: 0
    kernel_size: 1
    stride: 1
  }
}
layer {
  name: "bn4d_branch2a"
  type: "BatchNorm"
  bottom: "res4d_branch2a"
  top: "res4d_branch2a"
  batch_norm_param {
    use_global_stats: true
  }
}
layer {
  name: "scale4d_branch2a"
  type: "Scale"
  bottom: "res4d_branch2a"
  top: "res4d_branch2a"
  scale_param {
    bias_term: true
  }
}
layer {
  name: "res4d_branch2a_relu"
  type: "ReLU"
  bottom: "res4d_branch2a"
  top: "res4d_branch2a"
}
layer {
  name: "res4d_branch2b"
  type: "Convolution"
  bottom: "res4d_branch2a"
  top: "res4d_branch2b"
  convolution_param {
    num_output: 256
    bias_term: false
    pad: 1
    kernel_size: 3
    stride: 1
  }
}
layer {
  name: "bn4d_branch2b"
  type: "BatchNorm"
  bottom: "res4d_branch2b"
  top: "res4d_branch2b"
  batch_norm_param {
    use_global_stats: true
  }
}
layer {
  name: "scale4d_branch2b"
  type: "Scale"
  bottom: "res4d_branch2b"
  top: "res4d_branch2b"
  scale_param {
    bias_term: true
  }
}
layer {
  name: "res4d_branch2b_relu"
  type: "ReLU"
  bottom: "res4d_branch2b"
  top: "res4d_branch2b"
}
layer {
  name: "res4d_branch2c"
  type: "Convolution"
  bottom: "res4d_branch2b"
  top: "res4d_branch2c"
  convolution_param {
    num_output: 1024
    bias_term: false
    pad: 0
    kernel_size: 1
    stride: 1
  }
}
layer {
  name: "bn4d_branch2c"
  type: "BatchNorm"
  bottom: "res4d_branch2c"
  top: "res4d_branch2c"
  batch_norm_param {
    use_global_stats: true
  }
}
layer {
  name: "scale4d_branch2c"
  type: "Scale"
  bottom: "res4d_branch2c"
  top: "res4d_branch2c"
  scale_param {
    bias_term: true
  }
}
layer {
  name: "res4d"
  type: "Eltwise"
  bottom: "res4c"
  bottom: "res4d_branch2c"
  top: "res4d"
}
layer {
  name: "res4d_relu"
  type: "ReLU"
  bottom: "res4d"
  top: "res4d"
}
layer {
  name: "res4e_branch2a"
  type: "Convolution"
  bottom: "res4d"
  top: "res4e_branch2a"
  convolution_param {
    num_output: 256
    bias_term: false
    pad: 0
    kernel_size: 1
    stride: 1
  }
}
layer {
  name: "bn4e_branch2a"
  type: "BatchNorm"
  bottom: "res4e_branch2a"
  top: "res4e_branch2a"
  batch_norm_param {
    use_global_stats: true
  }
}
layer {
  name: "scale4e_branch2a"
  type: "Scale"
  bottom: "res4e_branch2a"
  top: "res4e_branch2a"
  scale_param {
    bias_term: true
  }
}
layer {
  name: "res4e_branch2a_relu"
  type: "ReLU"
  bottom: "res4e_branch2a"
  top: "res4e_branch2a"
}
layer {
  name: "res4e_branch2b"
  type: "Convolution"
  bottom: "res4e_branch2a"
  top: "res4e_branch2b"
  convolution_param {
    num_output: 256
    bias_term: false
    pad: 1
    kernel_size: 3
    stride: 1
  }
}
layer {
  name: "bn4e_branch2b"
  type: "BatchNorm"
  bottom: "res4e_branch2b"
  top: "res4e_branch2b"
  batch_norm_param {
    use_global_stats: true
  }
}
layer {
  name: "scale4e_branch2b"
  type: "Scale"
  bottom: "res4e_branch2b"
  top: "res4e_branch2b"
  scale_param {
    bias_term: true
  }
}
layer {
  name: "res4e_branch2b_relu"
  type: "ReLU"
  bottom: "res4e_branch2b"
  top: "res4e_branch2b"
}
layer {
  name: "res4e_branch2c"
  type: "Convolution"
  bottom: "res4e_branch2b"
  top: "res4e_branch2c"
  convolution_param {
    num_output: 1024
    bias_term: false
    pad: 0
    kernel_size: 1
    stride: 1
  }
}
layer {
  name: "bn4e_branch2c"
  type: "BatchNorm"
  bottom: "res4e_branch2c"
  top: "res4e_branch2c"
  batch_norm_param {
    use_global_stats: true
  }
}
layer {
  name: "scale4e_branch2c"
  type: "Scale"
  bottom: "res4e_branch2c"
  top: "res4e_branch2c"
  scale_param {
    bias_term: true
  }
}
layer {
  name: "res4e"
  type: "Eltwise"
  bottom: "res4d"
  bottom: "res4e_branch2c"
  top: "res4e"
}
layer {
  name: "res4e_relu"
  type: "ReLU"
  bottom: "res4e"
  top: "res4e"
}
layer {
  name: "res4f_branch2a"
  type: "Convolution"
  bottom: "res4e"
  top: "res4f_branch2a"
  convolution_param {
    num_output: 256
    bias_term: false
    pad: 0
    kernel_size: 1
    stride: 1
  }
}
layer {
  name: "bn4f_branch2a"
  type: "BatchNorm"
  bottom: "res4f_branch2a"
  top: "res4f_branch2a"
  batch_norm_param {
    use_global_stats: true
  }
}
layer {
  name: "scale4f_branch2a"
  type: "Scale"
  bottom: "res4f_branch2a"
  top: "res4f_branch2a"
  scale_param {
    bias_term: true
  }
}
layer {
  name: "res4f_branch2a_relu"
  type: "ReLU"
  bottom: "res4f_branch2a"
  top: "res4f_branch2a"
}
layer {
  name: "res4f_branch2b"
  type: "Convolution"
  bottom: "res4f_branch2a"
  top: "res4f_branch2b"
  convolution_param {
    num_output: 256
    bias_term: false
    pad: 1
    kernel_size: 3
    stride: 1
  }
}
layer {
  name: "bn4f_branch2b"
  type: "BatchNorm"
  bottom: "res4f_branch2b"
  top: "res4f_branch2b"
  batch_norm_param {
    use_global_stats: true
  }
}
layer {
  name: "scale4f_branch2b"
  type: "Scale"
  bottom: "res4f_branch2b"
  top: "res4f_branch2b"
  scale_param {
    bias_term: true
  }
}
layer {
  name: "res4f_branch2b_relu"
  type: "ReLU"
  bottom: "res4f_branch2b"
  top: "res4f_branch2b"
}
layer {
  name: "res4f_branch2c"
  type: "Convolution"
  bottom: "res4f_branch2b"
  top: "res4f_branch2c"
  convolution_param {
    num_output: 1024
    bias_term: false
    pad: 0
    kernel_size: 1
    stride: 1
  }
}
layer {
  name: "bn4f_branch2c"
  type: "BatchNorm"
  bottom: "res4f_branch2c"
  top: "res4f_branch2c"
  batch_norm_param {
    use_global_stats: true
  }
}
layer {
  name: "scale4f_branch2c"
  type: "Scale"
  bottom: "res4f_branch2c"
  top: "res4f_branch2c"
  scale_param {
    bias_term: true
  }
}
layer {
  name: "res4f"
  type: "Eltwise"
  bottom: "res4e"
  bottom: "res4f_branch2c"
  top: "res4f"
}
layer {
  name: "res4f_relu"
  type: "ReLU"
  bottom: "res4f"
  top: "res4f"
}
layer {
  name: "res5a_branch1"
  type: "Convolution"
  bottom: "res4f"
  top: "res5a_branch1"
  convolution_param {
    num_output: 2048
    bias_term: false
    pad: 0
    kernel_size: 1
    stride: 2
  }
}
layer {
  name: "bn5a_branch1"
  type: "BatchNorm"
  bottom: "res5a_branch1"
  top: "res5a_branch1"
  batch_norm_param {
    use_global_stats: true
  }
}
layer {
  name: "scale5a_branch1"
  type: "Scale"
  bottom: "res5a_branch1"
  top: "res5a_branch1"
  scale_param {
    bias_term: true
  }
}
layer {
  name: "res5a_branch2a"
  type: "Convolution"
  bottom: "res4f"
  top: "res5a_branch2a"
  convolution_param {
    num_output: 512
    bias_term: false
    pad: 0
    kernel_size: 1
    stride: 2
  }
}
layer {
  name: "bn5a_branch2a"
  type: "BatchNorm"
  bottom: "res5a_branch2a"
  top: "res5a_branch2a"
  batch_norm_param {
    use_global_stats: true
  }
}
layer {
  name: "scale5a_branch2a"
  type: "Scale"
  bottom: "res5a_branch2a"
  top: "res5a_branch2a"
  scale_param {
    bias_term: true
  }
}
layer {
  name: "res5a_branch2a_relu"
  type: "ReLU"
  bottom: "res5a_branch2a"
  top: "res5a_branch2a"
}
layer {
  name: "res5a_branch2b"
  type: "Convolution"
  bottom: "res5a_branch2a"
  top: "res5a_branch2b"
  convolution_param {
    num_output: 512
    bias_term: false
    pad: 1
    kernel_size: 3
    stride: 1
  }
}
layer {
  name: "bn5a_branch2b"
  type: "BatchNorm"
  bottom: "res5a_branch2b"
  top: "res5a_branch2b"
  batch_norm_param {
    use_global_stats: true
  }
}
layer {
  name: "scale5a_branch2b"
  type: "Scale"
  bottom: "res5a_branch2b"
  top: "res5a_branch2b"
  scale_param {
    bias_term: true
  }
}
layer {
  name: "res5a_branch2b_relu"
  type: "ReLU"
  bottom: "res5a_branch2b"
  top: "res5a_branch2b"
}
layer {
  name: "res5a_branch2c"
  type: "Convolution"
  bottom: "res5a_branch2b"
  top: "res5a_branch2c"
  convolution_param {
    num_output: 2048
    bias_term: false
    pad: 0
    kernel_size: 1
    stride: 1
  }
}
layer {
  name: "bn5a_branch2c"
  type
I0322 16:08:52.012231 26392 layer_factory.hpp:77] Creating layer data
I0322 16:08:52.014099 26392 net.cpp:106] Creating Layer data
I0322 16:08:52.014191 26392 net.cpp:411] data -> data
I0322 16:08:52.014279 26392 net.cpp:411] data -> label
I0322 16:08:52.014338 26392 data_transformer.cpp:25] Loading mean file from: /home/lizhuowan/caffe/data/Market1501/Resize_224by224/market1501_mean_train.binaryproto
I0322 16:08:52.015821 26396 db_lmdb.cpp:38] Opened lmdb /home/lizhuowan/caffe/data/Market1501/Resize_224by224/market1501_train_lmdb
I0322 16:08:52.038563 26392 data_layer.cpp:41] output data size: 16,3,224,224
I0322 16:08:52.065023 26392 net.cpp:150] Setting up data
I0322 16:08:52.065119 26392 net.cpp:157] Top shape: 16 3 224 224 (2408448)
I0322 16:08:52.065138 26392 net.cpp:157] Top shape: 16 (16)
I0322 16:08:52.065151 26392 net.cpp:165] Memory required for data: 9633856
I0322 16:08:52.065178 26392 layer_factory.hpp:77] Creating layer conv1
I0322 16:08:52.065232 26392 net.cpp:106] Creating Layer conv1
I0322 16:08:52.065253 26392 net.cpp:454] conv1 <- data
I0322 16:08:52.065287 26392 net.cpp:411] conv1 -> conv1
I0322 16:08:52.066654 26392 net.cpp:150] Setting up conv1
I0322 16:08:52.066694 26392 net.cpp:157] Top shape: 16 64 112 112 (12845056)
I0322 16:08:52.066711 26392 net.cpp:165] Memory required for data: 61014080
I0322 16:08:52.066761 26392 layer_factory.hpp:77] Creating layer bn_conv1
I0322 16:08:52.066798 26392 net.cpp:106] Creating Layer bn_conv1
I0322 16:08:52.066817 26392 net.cpp:454] bn_conv1 <- conv1
I0322 16:08:52.066839 26392 net.cpp:397] bn_conv1 -> conv1 (in-place)
I0322 16:08:52.067365 26392 net.cpp:150] Setting up bn_conv1
I0322 16:08:52.067402 26392 net.cpp:157] Top shape: 16 64 112 112 (12845056)
I0322 16:08:52.067420 26392 net.cpp:165] Memory required for data: 112394304
I0322 16:08:52.067458 26392 layer_factory.hpp:77] Creating layer scale_conv1
I0322 16:08:52.067498 26392 net.cpp:106] Creating Layer scale_conv1
I0322 16:08:52.067517 26392 net.cpp:454] scale_conv1 <- conv1
I0322 16:08:52.067574 26392 net.cpp:397] scale_conv1 -> conv1 (in-place)
I0322 16:08:52.069102 26392 layer_factory.hpp:77] Creating layer scale_conv1
I0322 16:08:52.069372 26392 net.cpp:150] Setting up scale_conv1
I0322 16:08:52.069404 26392 net.cpp:157] Top shape: 16 64 112 112 (12845056)
I0322 16:08:52.069422 26392 net.cpp:165] Memory required for data: 163774528
I0322 16:08:52.069445 26392 layer_factory.hpp:77] Creating layer conv1_relu
I0322 16:08:52.069473 26392 net.cpp:106] Creating Layer conv1_relu
I0322 16:08:52.069491 26392 net.cpp:454] conv1_relu <- conv1
I0322 16:08:52.069516 26392 net.cpp:397] conv1_relu -> conv1 (in-place)
I0322 16:08:52.069545 26392 net.cpp:150] Setting up conv1_relu
I0322 16:08:52.069564 26392 net.cpp:157] Top shape: 16 64 112 112 (12845056)
I0322 16:08:52.069581 26392 net.cpp:165] Memory required for data: 215154752
I0322 16:08:52.069597 26392 layer_factory.hpp:77] Creating layer pool1
I0322 16:08:52.069617 26392 net.cpp:106] Creating Layer pool1
I0322 16:08:52.069633 26392 net.cpp:454] pool1 <- conv1
I0322 16:08:52.069653 26392 net.cpp:411] pool1 -> pool1
I0322 16:08:52.069772 26392 net.cpp:150] Setting up pool1
I0322 16:08:52.069802 26392 net.cpp:157] Top shape: 16 64 56 56 (3211264)
I0322 16:08:52.069818 26392 net.cpp:165] Memory required for data: 227999808
I0322 16:08:52.069833 26392 layer_factory.hpp:77] Creating layer pool1_pool1_0_split
I0322 16:08:52.069859 26392 net.cpp:106] Creating Layer pool1_pool1_0_split
I0322 16:08:52.069875 26392 net.cpp:454] pool1_pool1_0_split <- pool1
I0322 16:08:52.069900 26392 net.cpp:411] pool1_pool1_0_split -> pool1_pool1_0_split_0
I0322 16:08:52.069926 26392 net.cpp:411] pool1_pool1_0_split -> pool1_pool1_0_split_1
I0322 16:08:52.070011 26392 net.cpp:150] Setting up pool1_pool1_0_split
I0322 16:08:52.070039 26392 net.cpp:157] Top shape: 16 64 56 56 (3211264)
I0322 16:08:52.070058 26392 net.cpp:157] Top shape: 16 64 56 56 (3211264)
I0322 16:08:52.070073 26392 net.cpp:165] Memory required for data: 253689920
I0322 16:08:52.070089 26392 layer_factory.hpp:77] Creating layer res2a_branch1
I0322 16:08:52.070114 26392 net.cpp:106] Creating Layer res2a_branch1
I0322 16:08:52.070132 26392 net.cpp:454] res2a_branch1 <- pool1_pool1_0_split_0
I0322 16:08:52.070152 26392 net.cpp:411] res2a_branch1 -> res2a_branch1
I0322 16:08:52.070479 26392 net.cpp:150] Setting up res2a_branch1
I0322 16:08:52.070510 26392 net.cpp:157] Top shape: 16 256 56 56 (12845056)
I0322 16:08:52.070526 26392 net.cpp:165] Memory required for data: 305070144
I0322 16:08:52.070546 26392 layer_factory.hpp:77] Creating layer bn2a_branch1
I0322 16:08:52.070570 26392 net.cpp:106] Creating Layer bn2a_branch1
I0322 16:08:52.070587 26392 net.cpp:454] bn2a_branch1 <- res2a_branch1
I0322 16:08:52.070611 26392 net.cpp:397] bn2a_branch1 -> res2a_branch1 (in-place)
I0322 16:08:52.071869 26392 net.cpp:150] Setting up bn2a_branch1
I0322 16:08:52.071907 26392 net.cpp:157] Top shape: 16 256 56 56 (12845056)
I0322 16:08:52.071923 26392 net.cpp:165] Memory required for data: 356450368
I0322 16:08:52.071956 26392 layer_factory.hpp:77] Creating layer scale2a_branch1
I0322 16:08:52.071985 26392 net.cpp:106] Creating Layer scale2a_branch1
I0322 16:08:52.072003 26392 net.cpp:454] scale2a_branch1 <- res2a_branch1
I0322 16:08:52.072024 26392 net.cpp:397] scale2a_branch1 -> res2a_branch1 (in-place)
I0322 16:08:52.072114 26392 layer_factory.hpp:77] Creating layer scale2a_branch1
I0322 16:08:52.072337 26392 net.cpp:150] Setting up scale2a_branch1
I0322 16:08:52.072366 26392 net.cpp:157] Top shape: 16 256 56 56 (12845056)
I0322 16:08:52.072382 26392 net.cpp:165] Memory required for data: 407830592
I0322 16:08:52.072405 26392 layer_factory.hpp:77] Creating layer res2a_branch2a
I0322 16:08:52.072437 26392 net.cpp:106] Creating Layer res2a_branch2a
I0322 16:08:52.072455 26392 net.cpp:454] res2a_branch2a <- pool1_pool1_0_split_1
I0322 16:08:52.072477 26392 net.cpp:411] res2a_branch2a -> res2a_branch2a
I0322 16:08:52.072823 26392 net.cpp:150] Setting up res2a_branch2a
I0322 16:08:52.072856 26392 net.cpp:157] Top shape: 16 64 56 56 (3211264)
I0322 16:08:52.072899 26392 net.cpp:165] Memory required for data: 420675648
I0322 16:08:52.072921 26392 layer_factory.hpp:77] Creating layer bn2a_branch2a
I0322 16:08:52.072948 26392 net.cpp:106] Creating Layer bn2a_branch2a
I0322 16:08:52.072965 26392 net.cpp:454] bn2a_branch2a <- res2a_branch2a
I0322 16:08:52.072985 26392 net.cpp:397] bn2a_branch2a -> res2a_branch2a (in-place)
I0322 16:08:52.073309 26392 net.cpp:150] Setting up bn2a_branch2a
I0322 16:08:52.073339 26392 net.cpp:157] Top shape: 16 64 56 56 (3211264)
I0322 16:08:52.073355 26392 net.cpp:165] Memory required for data: 433520704
I0322 16:08:52.073392 26392 layer_factory.hpp:77] Creating layer scale2a_branch2a
I0322 16:08:52.073416 26392 net.cpp:106] Creating Layer scale2a_branch2a
I0322 16:08:52.073432 26392 net.cpp:454] scale2a_branch2a <- res2a_branch2a
I0322 16:08:52.073452 26392 net.cpp:397] scale2a_branch2a -> res2a_branch2a (in-place)
I0322 16:08:52.073554 26392 layer_factory.hpp:77] Creating layer scale2a_branch2a
I0322 16:08:52.073778 26392 net.cpp:150] Setting up scale2a_branch2a
I0322 16:08:52.073812 26392 net.cpp:157] Top shape: 16 64 56 56 (3211264)
I0322 16:08:52.073828 26392 net.cpp:165] Memory required for data: 446365760
I0322 16:08:52.073851 26392 layer_factory.hpp:77] Creating layer res2a_branch2a_relu
I0322 16:08:52.073873 26392 net.cpp:106] Creating Layer res2a_branch2a_relu
I0322 16:08:52.073889 26392 net.cpp:454] res2a_branch2a_relu <- res2a_branch2a
I0322 16:08:52.073909 26392 net.cpp:397] res2a_branch2a_relu -> res2a_branch2a (in-place)
I0322 16:08:52.073932 26392 net.cpp:150] Setting up res2a_branch2a_relu
I0322 16:08:52.073952 26392 net.cpp:157] Top shape: 16 64 56 56 (3211264)
I0322 16:08:52.073967 26392 net.cpp:165] Memory required for data: 459210816
I0322 16:08:52.073983 26392 layer_factory.hpp:77] Creating layer res2a_branch2b
I0322 16:08:52.074012 26392 net.cpp:106] Creating Layer res2a_branch2b
I0322 16:08:52.074030 26392 net.cpp:454] res2a_branch2b <- res2a_branch2a
I0322 16:08:52.074051 26392 net.cpp:411] res2a_branch2b -> res2a_branch2b
I0322 16:08:52.075345 26392 net.cpp:150] Setting up res2a_branch2b
I0322 16:08:52.075383 26392 net.cpp:157] Top shape: 16 64 56 56 (3211264)
I0322 16:08:52.075400 26392 net.cpp:165] Memory required for data: 472055872
I0322 16:08:52.075420 26392 layer_factory.hpp:77] Creating layer bn2a_branch2b
I0322 16:08:52.075448 26392 net.cpp:106] Creating Layer bn2a_branch2b
I0322 16:08:52.075465 26392 net.cpp:454] bn2a_branch2b <- res2a_branch2b
I0322 16:08:52.075486 26392 net.cpp:397] bn2a_branch2b -> res2a_branch2b (in-place)
I0322 16:08:52.075831 26392 net.cpp:150] Setting up bn2a_branch2b
I0322 16:08:52.075860 26392 net.cpp:157] Top shape: 16 64 56 56 (3211264)
I0322 16:08:52.075877 26392 net.cpp:165] Memory required for data: 484900928
I0322 16:08:52.075903 26392 layer_factory.hpp:77] Creating layer scale2a_branch2b
I0322 16:08:52.075935 26392 net.cpp:106] Creating Layer scale2a_branch2b
I0322 16:08:52.075953 26392 net.cpp:454] scale2a_branch2b <- res2a_branch2b
I0322 16:08:52.075974 26392 net.cpp:397] scale2a_branch2b -> res2a_branch2b (in-place)
I0322 16:08:52.076062 26392 layer_factory.hpp:77] Creating layer scale2a_branch2b
I0322 16:08:52.076297 26392 net.cpp:150] Setting up scale2a_branch2b
I0322 16:08:52.076326 26392 net.cpp:157] Top shape: 16 64 56 56 (3211264)
I0322 16:08:52.076354 26392 net.cpp:165] Memory required for data: 497745984
I0322 16:08:52.076378 26392 layer_factory.hpp:77] Creating layer res2a_branch2b_relu
I0322 16:08:52.076405 26392 net.cpp:106] Creating Layer res2a_branch2b_relu
I0322 16:08:52.076422 26392 net.cpp:454] res2a_branch2b_relu <- res2a_branch2b
I0322 16:08:52.076442 26392 net.cpp:397] res2a_branch2b_relu -> res2a_branch2b (in-place)
I0322 16:08:52.076464 26392 net.cpp:150] Setting up res2a_branch2b_relu
I0322 16:08:52.076484 26392 net.cpp:157] Top shape: 16 64 56 56 (3211264)
I0322 16:08:52.076499 26392 net.cpp:165] Memory required for data: 510591040
I0322 16:08:52.076515 26392 layer_factory.hpp:77] Creating layer res2a_branch2c
I0322 16:08:52.076558 26392 net.cpp:106] Creating Layer res2a_branch2c
I0322 16:08:52.076591 26392 net.cpp:454] res2a_branch2c <- res2a_branch2b
I0322 16:08:52.076634 26392 net.cpp:411] res2a_branch2c -> res2a_branch2c
I0322 16:08:52.076974 26392 net.cpp:150] Setting up res2a_branch2c
I0322 16:08:52.077005 26392 net.cpp:157] Top shape: 16 256 56 56 (12845056)
I0322 16:08:52.077021 26392 net.cpp:165] Memory required for data: 561971264
I0322 16:08:52.077041 26392 layer_factory.hpp:77] Creating layer bn2a_branch2c
I0322 16:08:52.077064 26392 net.cpp:106] Creating Layer bn2a_branch2c
I0322 16:08:52.077080 26392 net.cpp:454] bn2a_branch2c <- res2a_branch2c
I0322 16:08:52.077106 26392 net.cpp:397] bn2a_branch2c -> res2a_branch2c (in-place)
I0322 16:08:52.077440 26392 net.cpp:150] Setting up bn2a_branch2c
I0322 16:08:52.077469 26392 net.cpp:157] Top shape: 16 256 56 56 (12845056)
I0322 16:08:52.077486 26392 net.cpp:165] Memory required for data: 613351488
I0322 16:08:52.077512 26392 layer_factory.hpp:77] Creating layer scale2a_branch2c
I0322 16:08:52.077533 26392 net.cpp:106] Creating Layer scale2a_branch2c
I0322 16:08:52.077549 26392 net.cpp:454] scale2a_branch2c <- res2a_branch2c
I0322 16:08:52.077571 26392 net.cpp:397] scale2a_branch2c -> res2a_branch2c (in-place)
I0322 16:08:52.077663 26392 layer_factory.hpp:77] Creating layer scale2a_branch2c
I0322 16:08:52.077893 26392 net.cpp:150] Setting up scale2a_branch2c
I0322 16:08:52.077921 26392 net.cpp:157] Top shape: 16 256 56 56 (12845056)
I0322 16:08:52.077937 26392 net.cpp:165] Memory required for data: 664731712
I0322 16:08:52.077960 26392 layer_factory.hpp:77] Creating layer res2a
I0322 16:08:52.077987 26392 net.cpp:106] Creating Layer res2a
I0322 16:08:52.078006 26392 net.cpp:454] res2a <- res2a_branch1
I0322 16:08:52.078023 26392 net.cpp:454] res2a <- res2a_branch2c
I0322 16:08:52.078047 26392 net.cpp:411] res2a -> res2a
I0322 16:08:52.078117 26392 net.cpp:150] Setting up res2a
I0322 16:08:52.078145 26392 net.cpp:157] Top shape: 16 256 56 56 (12845056)
I0322 16:08:52.078161 26392 net.cpp:165] Memory required for data: 716111936
I0322 16:08:52.078176 26392 layer_factory.hpp:77] Creating layer res2a_relu
I0322 16:08:52.078202 26392 net.cpp:106] Creating Layer res2a_relu
I0322 16:08:52.078218 26392 net.cpp:454] res2a_relu <- res2a
I0322 16:08:52.078238 26392 net.cpp:397] res2a_relu -> res2a (in-place)
I0322 16:08:52.078260 26392 net.cpp:150] Setting up res2a_relu
I0322 16:08:52.078280 26392 net.cpp:157] Top shape: 16 256 56 56 (12845056)
I0322 16:08:52.078295 26392 net.cpp:165] Memory required for data: 767492160
I0322 16:08:52.078310 26392 layer_factory.hpp:77] Creating layer res2a_res2a_relu_0_split
I0322 16:08:52.078336 26392 net.cpp:106] Creating Layer res2a_res2a_relu_0_split
I0322 16:08:52.078352 26392 net.cpp:454] res2a_res2a_relu_0_split <- res2a
I0322 16:08:52.078372 26392 net.cpp:411] res2a_res2a_relu_0_split -> res2a_res2a_relu_0_split_0
I0322 16:08:52.078394 26392 net.cpp:411] res2a_res2a_relu_0_split -> res2a_res2a_relu_0_split_1
I0322 16:08:52.078471 26392 net.cpp:150] Setting up res2a_res2a_relu_0_split
I0322 16:08:52.078497 26392 net.cpp:157] Top shape: 16 256 56 56 (12845056)
I0322 16:08:52.078516 26392 net.cpp:157] Top shape: 16 256 56 56 (12845056)
I0322 16:08:52.078531 26392 net.cpp:165] Memory required for data: 870252608
I0322 16:08:52.078547 26392 layer_factory.hpp:77] Creating layer res2b_branch2a
I0322 16:08:52.078569 26392 net.cpp:106] Creating Layer res2b_branch2a
I0322 16:08:52.078586 26392 net.cpp:454] res2b_branch2a <- res2a_res2a_relu_0_split_0
I0322 16:08:52.078610 26392 net.cpp:411] res2b_branch2a -> res2b_branch2a
I0322 16:08:52.078953 26392 net.cpp:150] Setting up res2b_branch2a
I0322 16:08:52.078986 26392 net.cpp:157] Top shape: 16 64 56 56 (3211264)
I0322 16:08:52.079002 26392 net.cpp:165] Memory required for data: 883097664
I0322 16:08:52.079022 26392 layer_factory.hpp:77] Creating layer bn2b_branch2a
I0322 16:08:52.079048 26392 net.cpp:106] Creating Layer bn2b_branch2a
I0322 16:08:52.079066 26392 net.cpp:454] bn2b_branch2a <- res2b_branch2a
I0322 16:08:52.079097 26392 net.cpp:397] bn2b_branch2a -> res2b_branch2a (in-place)
I0322 16:08:52.079452 26392 net.cpp:150] Setting up bn2b_branch2a
I0322 16:08:52.079480 26392 net.cpp:157] Top shape: 16 64 56 56 (3211264)
I0322 16:08:52.079496 26392 net.cpp:165] Memory required for data: 895942720
I0322 16:08:52.079536 26392 layer_factory.hpp:77] Creating layer scale2b_branch2a
I0322 16:08:52.079560 26392 net.cpp:106] Creating Layer scale2b_branch2a
I0322 16:08:52.079577 26392 net.cpp:454] scale2b_branch2a <- res2b_branch2a
I0322 16:08:52.079596 26392 net.cpp:397] scale2b_branch2a -> res2b_branch2a (in-place)
I0322 16:08:52.079690 26392 layer_factory.hpp:77] Creating layer scale2b_branch2a
I0322 16:08:52.079926 26392 net.cpp:150] Setting up scale2b_branch2a
I0322 16:08:52.079954 26392 net.cpp:157] Top shape: 16 64 56 56 (3211264)
I0322 16:08:52.079969 26392 net.cpp:165] Memory required for data: 908787776
I0322 16:08:52.080003 26392 layer_factory.hpp:77] Creating layer res2b_branch2a_relu
I0322 16:08:52.080024 26392 net.cpp:106] Creating Layer res2b_branch2a_relu
I0322 16:08:52.080041 26392 net.cpp:454] res2b_branch2a_relu <- res2b_branch2a
I0322 16:08:52.080060 26392 net.cpp:397] res2b_branch2a_relu -> res2b_branch2a (in-place)
I0322 16:08:52.080082 26392 net.cpp:150] Setting up res2b_branch2a_relu
I0322 16:08:52.080101 26392 net.cpp:157] Top shape: 16 64 56 56 (3211264)
I0322 16:08:52.080116 26392 net.cpp:165] Memory required for data: 921632832
I0322 16:08:52.080132 26392 layer_factory.hpp:77] Creating layer res2b_branch2b
I0322 16:08:52.080160 26392 net.cpp:106] Creating Layer res2b_branch2b
I0322 16:08:52.080178 26392 net.cpp:454] res2b_branch2b <- res2b_branch2a
I0322 16:08:52.080202 26392 net.cpp:411] res2b_branch2b -> res2b_branch2b
I0322 16:08:52.080582 26392 net.cpp:150] Setting up res2b_branch2b
I0322 16:08:52.080624 26392 net.cpp:157] Top shape: 16 64 56 56 (3211264)
I0322 16:08:52.080643 26392 net.cpp:165] Memory required for data: 934477888
I0322 16:08:52.080664 26392 layer_factory.hpp:77] Creating layer bn2b_branch2b
I0322 16:08:52.080685 26392 net.cpp:106] Creating Layer bn2b_branch2b
I0322 16:08:52.080703 26392 net.cpp:454] bn2b_branch2b <- res2b_branch2b
I0322 16:08:52.080721 26392 net.cpp:397] bn2b_branch2b -> res2b_branch2b (in-place)
I0322 16:08:52.081073 26392 net.cpp:150] Setting up bn2b_branch2b
I0322 16:08:52.081102 26392 net.cpp:157] Top shape: 16 64 56 56 (3211264)
I0322 16:08:52.081118 26392 net.cpp:165] Memory required for data: 947322944
I0322 16:08:52.081145 26392 layer_factory.hpp:77] Creating layer scale2b_branch2b
I0322 16:08:52.081166 26392 net.cpp:106] Creating Layer scale2b_branch2b
I0322 16:08:52.081182 26392 net.cpp:454] scale2b_branch2b <- res2b_branch2b
I0322 16:08:52.081202 26392 net.cpp:397] scale2b_branch2b -> res2b_branch2b (in-place)
I0322 16:08:52.081306 26392 layer_factory.hpp:77] Creating layer scale2b_branch2b
I0322 16:08:52.081544 26392 net.cpp:150] Setting up scale2b_branch2b
I0322 16:08:52.081574 26392 net.cpp:157] Top shape: 16 64 56 56 (3211264)
I0322 16:08:52.081590 26392 net.cpp:165] Memory required for data: 960168000
I0322 16:08:52.081612 26392 layer_factory.hpp:77] Creating layer res2b_branch2b_relu
I0322 16:08:52.081639 26392 net.cpp:106] Creating Layer res2b_branch2b_relu
I0322 16:08:52.081656 26392 net.cpp:454] res2b_branch2b_relu <- res2b_branch2b
I0322 16:08:52.081676 26392 net.cpp:397] res2b_branch2b_relu -> res2b_branch2b (in-place)
I0322 16:08:52.081697 26392 net.cpp:150] Setting up res2b_branch2b_relu
I0322 16:08:52.081717 26392 net.cpp:157] Top shape: 16 64 56 56 (3211264)
I0322 16:08:52.081732 26392 net.cpp:165] Memory required for data: 973013056
I0322 16:08:52.081748 26392 layer_factory.hpp:77] Creating layer res2b_branch2c
I0322 16:08:52.081779 26392 net.cpp:106] Creating Layer res2b_branch2c
I0322 16:08:52.081799 26392 net.cpp:454] res2b_branch2c <- res2b_branch2b
I0322 16:08:52.081825 26392 net.cpp:411] res2b_branch2c -> res2b_branch2c
I0322 16:08:52.082175 26392 net.cpp:150] Setting up res2b_branch2c
I0322 16:08:52.082216 26392 net.cpp:157] Top shape: 16 256 56 56 (12845056)
I0322 16:08:52.082247 26392 net.cpp:165] Memory required for data: 1024393280
I0322 16:08:52.082269 26392 layer_factory.hpp:77] Creating layer bn2b_branch2c
I0322 16:08:52.082290 26392 net.cpp:106] Creating Layer bn2b_branch2c
I0322 16:08:52.082307 26392 net.cpp:454] bn2b_branch2c <- res2b_branch2c
I0322 16:08:52.082326 26392 net.cpp:397] bn2b_branch2c -> res2b_branch2c (in-place)
I0322 16:08:52.082669 26392 net.cpp:150] Setting up bn2b_branch2c
I0322 16:08:52.082698 26392 net.cpp:157] Top shape: 16 256 56 56 (12845056)
I0322 16:08:52.082713 26392 net.cpp:165] Memory required for data: 1075773504
I0322 16:08:52.082739 26392 layer_factory.hpp:77] Creating layer scale2b_branch2c
I0322 16:08:52.082767 26392 net.cpp:106] Creating Layer scale2b_branch2c
I0322 16:08:52.082783 26392 net.cpp:454] scale2b_branch2c <- res2b_branch2c
I0322 16:08:52.082803 26392 net.cpp:397] scale2b_branch2c -> res2b_branch2c (in-place)
I0322 16:08:52.082897 26392 layer_factory.hpp:77] Creating layer scale2b_branch2c
I0322 16:08:52.083119 26392 net.cpp:150] Setting up scale2b_branch2c
I0322 16:08:52.083148 26392 net.cpp:157] Top shape: 16 256 56 56 (12845056)
I0322 16:08:52.083164 26392 net.cpp:165] Memory required for data: 1127153728
I0322 16:08:52.083186 26392 layer_factory.hpp:77] Creating layer res2b
I0322 16:08:52.083212 26392 net.cpp:106] Creating Layer res2b
I0322 16:08:52.083230 26392 net.cpp:454] res2b <- res2a_res2a_relu_0_split_1
I0322 16:08:52.083248 26392 net.cpp:454] res2b <- res2b_branch2c
I0322 16:08:52.083267 26392 net.cpp:411] res2b -> res2b
I0322 16:08:52.083331 26392 net.cpp:150] Setting up res2b
I0322 16:08:52.083359 26392 net.cpp:157] Top shape: 16 256 56 56 (12845056)
I0322 16:08:52.083376 26392 net.cpp:165] Memory required for data: 1178533952
I0322 16:08:52.083392 26392 layer_factory.hpp:77] Creating layer res2b_relu
I0322 16:08:52.083411 26392 net.cpp:106] Creating Layer res2b_relu
I0322 16:08:52.083427 26392 net.cpp:454] res2b_relu <- res2b
I0322 16:08:52.083452 26392 net.cpp:397] res2b_relu -> res2b (in-place)
I0322 16:08:52.083474 26392 net.cpp:150] Setting up res2b_relu
I0322 16:08:52.083494 26392 net.cpp:157] Top shape: 16 256 56 56 (12845056)
I0322 16:08:52.083509 26392 net.cpp:165] Memory required for data: 1229914176
I0322 16:08:52.083524 26392 layer_factory.hpp:77] Creating layer res2b_res2b_relu_0_split
I0322 16:08:52.083544 26392 net.cpp:106] Creating Layer res2b_res2b_relu_0_split
I0322 16:08:52.083559 26392 net.cpp:454] res2b_res2b_relu_0_split <- res2b
I0322 16:08:52.083578 26392 net.cpp:411] res2b_res2b_relu_0_split -> res2b_res2b_relu_0_split_0
I0322 16:08:52.083600 26392 net.cpp:411] res2b_res2b_relu_0_split -> res2b_res2b_relu_0_split_1
I0322 16:08:52.083711 26392 net.cpp:150] Setting up res2b_res2b_relu_0_split
I0322 16:08:52.083741 26392 net.cpp:157] Top shape: 16 256 56 56 (12845056)
I0322 16:08:52.083760 26392 net.cpp:157] Top shape: 16 256 56 56 (12845056)
I0322 16:08:52.083775 26392 net.cpp:165] Memory required for data: 1332674624
I0322 16:08:52.083791 26392 layer_factory.hpp:77] Creating layer res2c_branch2a
I0322 16:08:52.083814 26392 net.cpp:106] Creating Layer res2c_branch2a
I0322 16:08:52.083832 26392 net.cpp:454] res2c_branch2a <- res2b_res2b_relu_0_split_0
I0322 16:08:52.083853 26392 net.cpp:411] res2c_branch2a -> res2c_branch2a
I0322 16:08:52.084206 26392 net.cpp:150] Setting up res2c_branch2a
I0322 16:08:52.084237 26392 net.cpp:157] Top shape: 16 64 56 56 (3211264)
I0322 16:08:52.084254 26392 net.cpp:165] Memory required for data: 1345519680
I0322 16:08:52.084273 26392 layer_factory.hpp:77] Creating layer bn2c_branch2a
I0322 16:08:52.084300 26392 net.cpp:106] Creating Layer bn2c_branch2a
I0322 16:08:52.084316 26392 net.cpp:454] bn2c_branch2a <- res2c_branch2a
I0322 16:08:52.084336 26392 net.cpp:397] bn2c_branch2a -> res2c_branch2a (in-place)
I0322 16:08:52.084697 26392 net.cpp:150] Setting up bn2c_branch2a
I0322 16:08:52.084728 26392 net.cpp:157] Top shape: 16 64 56 56 (3211264)
I0322 16:08:52.084744 26392 net.cpp:165] Memory required for data: 1358364736
I0322 16:08:52.084780 26392 layer_factory.hpp:77] Creating layer scale2c_branch2a
I0322 16:08:52.084825 26392 net.cpp:106] Creating Layer scale2c_branch2a
I0322 16:08:52.084842 26392 net.cpp:454] scale2c_branch2a <- res2c_branch2a
I0322 16:08:52.084873 26392 net.cpp:397] scale2c_branch2a -> res2c_branch2a (in-place)
I0322 16:08:52.084966 26392 layer_factory.hpp:77] Creating layer scale2c_branch2a
I0322 16:08:52.085211 26392 net.cpp:150] Setting up scale2c_branch2a
I0322 16:08:52.085240 26392 net.cpp:157] Top shape: 16 64 56 56 (3211264)
I0322 16:08:52.085256 26392 net.cpp:165] Memory required for data: 1371209792
I0322 16:08:52.085278 26392 layer_factory.hpp:77] Creating layer res2c_branch2a_relu
I0322 16:08:52.085304 26392 net.cpp:106] Creating Layer res2c_branch2a_relu
I0322 16:08:52.085322 26392 net.cpp:454] res2c_branch2a_relu <- res2c_branch2a
I0322 16:08:52.085341 26392 net.cpp:397] res2c_branch2a_relu -> res2c_branch2a (in-place)
I0322 16:08:52.085363 26392 net.cpp:150] Setting up res2c_branch2a_relu
I0322 16:08:52.085383 26392 net.cpp:157] Top shape: 16 64 56 56 (3211264)
I0322 16:08:52.085398 26392 net.cpp:165] Memory required for data: 1384054848
I0322 16:08:52.085414 26392 layer_factory.hpp:77] Creating layer res2c_branch2b
I0322 16:08:52.085441 26392 net.cpp:106] Creating Layer res2c_branch2b
I0322 16:08:52.085458 26392 net.cpp:454] res2c_branch2b <- res2c_branch2a
I0322 16:08:52.085479 26392 net.cpp:411] res2c_branch2b -> res2c_branch2b
I0322 16:08:52.085847 26392 net.cpp:150] Setting up res2c_branch2b
I0322 16:08:52.085878 26392 net.cpp:157] Top shape: 16 64 56 56 (3211264)
I0322 16:08:52.085894 26392 net.cpp:165] Memory required for data: 1396899904
I0322 16:08:52.085914 26392 layer_factory.hpp:77] Creating layer bn2c_branch2b
I0322 16:08:52.085937 26392 net.cpp:106] Creating Layer bn2c_branch2b
I0322 16:08:52.085952 26392 net.cpp:454] bn2c_branch2b <- res2c_branch2b
I0322 16:08:52.085978 26392 net.cpp:397] bn2c_branch2b -> res2c_branch2b (in-place)
I0322 16:08:52.086333 26392 net.cpp:150] Setting up bn2c_branch2b
I0322 16:08:52.086361 26392 net.cpp:157] Top shape: 16 64 56 56 (3211264)
I0322 16:08:52.086377 26392 net.cpp:165] Memory required for data: 1409744960
I0322 16:08:52.086402 26392 layer_factory.hpp:77] Creating layer scale2c_branch2b
I0322 16:08:52.086424 26392 net.cpp:106] Creating Layer scale2c_branch2b
I0322 16:08:52.086441 26392 net.cpp:454] scale2c_branch2b <- res2c_branch2b
I0322 16:08:52.086469 26392 net.cpp:397] scale2c_branch2b -> res2c_branch2b (in-place)
I0322 16:08:52.086555 26392 layer_factory.hpp:77] Creating layer scale2c_branch2b
I0322 16:08:52.086793 26392 net.cpp:150] Setting up scale2c_branch2b
I0322 16:08:52.086822 26392 net.cpp:157] Top shape: 16 64 56 56 (3211264)
I0322 16:08:52.086838 26392 net.cpp:165] Memory required for data: 1422590016
I0322 16:08:52.086860 26392 layer_factory.hpp:77] Creating layer res2c_branch2b_relu
I0322 16:08:52.086881 26392 net.cpp:106] Creating Layer res2c_branch2b_relu
I0322 16:08:52.086897 26392 net.cpp:454] res2c_branch2b_relu <- res2c_branch2b
I0322 16:08:52.086921 26392 net.cpp:397] res2c_branch2b_relu -> res2c_branch2b (in-place)
I0322 16:08:52.086944 26392 net.cpp:150] Setting up res2c_branch2b_relu
I0322 16:08:52.086964 26392 net.cpp:157] Top shape: 16 64 56 56 (3211264)
I0322 16:08:52.086980 26392 net.cpp:165] Memory required for data: 1435435072
I0322 16:08:52.086995 26392 layer_factory.hpp:77] Creating layer res2c_branch2c
I0322 16:08:52.087023 26392 net.cpp:106] Creating Layer res2c_branch2c
I0322 16:08:52.087040 26392 net.cpp:454] res2c_branch2c <- res2c_branch2b
I0322 16:08:52.087060 26392 net.cpp:411] res2c_branch2c -> res2c_branch2c
I0322 16:08:52.087414 26392 net.cpp:150] Setting up res2c_branch2c
I0322 16:08:52.087445 26392 net.cpp:157] Top shape: 16 256 56 56 (12845056)
I0322 16:08:52.087461 26392 net.cpp:165] Memory required for data: 1486815296
I0322 16:08:52.087484 26392 layer_factory.hpp:77] Creating layer bn2c_branch2c
I0322 16:08:52.087507 26392 net.cpp:106] Creating Layer bn2c_branch2c
I0322 16:08:52.087533 26392 net.cpp:454] bn2c_branch2c <- res2c_branch2c
I0322 16:08:52.087568 26392 net.cpp:397] bn2c_branch2c -> res2c_branch2c (in-place)
I0322 16:08:52.087908 26392 net.cpp:150] Setting up bn2c_branch2c
I0322 16:08:52.087937 26392 net.cpp:157] Top shape: 16 256 56 56 (12845056)
I0322 16:08:52.087954 26392 net.cpp:165] Memory required for data: 1538195520
I0322 16:08:52.087998 26392 layer_factory.hpp:77] Creating layer scale2c_branch2c
I0322 16:08:52.088033 26392 net.cpp:106] Creating Layer scale2c_branch2c
I0322 16:08:52.088052 26392 net.cpp:454] scale2c_branch2c <- res2c_branch2c
I0322 16:08:52.088071 26392 net.cpp:397] scale2c_branch2c -> res2c_branch2c (in-place)
I0322 16:08:52.088163 26392 layer_factory.hpp:77] Creating layer scale2c_branch2c
I0322 16:08:52.088387 26392 net.cpp:150] Setting up scale2c_branch2c
I0322 16:08:52.088416 26392 net.cpp:157] Top shape: 16 256 56 56 (12845056)
I0322 16:08:52.088433 26392 net.cpp:165] Memory required for data: 1589575744
I0322 16:08:52.088454 26392 layer_factory.hpp:77] Creating layer res2c
I0322 16:08:52.088476 26392 net.cpp:106] Creating Layer res2c
I0322 16:08:52.088492 26392 net.cpp:454] res2c <- res2b_res2b_relu_0_split_1
I0322 16:08:52.088516 26392 net.cpp:454] res2c <- res2c_branch2c
I0322 16:08:52.088536 26392 net.cpp:411] res2c -> res2c
I0322 16:08:52.088593 26392 net.cpp:150] Setting up res2c
I0322 16:08:52.088634 26392 net.cpp:157] Top shape: 16 256 56 56 (12845056)
I0322 16:08:52.088652 26392 net.cpp:165] Memory required for data: 1640955968
I0322 16:08:52.088670 26392 layer_factory.hpp:77] Creating layer res2c_relu
I0322 16:08:52.088688 26392 net.cpp:106] Creating Layer res2c_relu
I0322 16:08:52.088704 26392 net.cpp:454] res2c_relu <- res2c
I0322 16:08:52.088723 26392 net.cpp:397] res2c_relu -> res2c (in-place)
I0322 16:08:52.088748 26392 net.cpp:150] Setting up res2c_relu
I0322 16:08:52.088768 26392 net.cpp:157] Top shape: 16 256 56 56 (12845056)
I0322 16:08:52.088783 26392 net.cpp:165] Memory required for data: 1692336192
I0322 16:08:52.088798 26392 layer_factory.hpp:77] Creating layer res2c_res2c_relu_0_split
I0322 16:08:52.088825 26392 net.cpp:106] Creating Layer res2c_res2c_relu_0_split
I0322 16:08:52.088842 26392 net.cpp:454] res2c_res2c_relu_0_split <- res2c
I0322 16:08:52.088861 26392 net.cpp:411] res2c_res2c_relu_0_split -> res2c_res2c_relu_0_split_0
I0322 16:08:52.088883 26392 net.cpp:411] res2c_res2c_relu_0_split -> res2c_res2c_relu_0_split_1
I0322 16:08:52.088966 26392 net.cpp:150] Setting up res2c_res2c_relu_0_split
I0322 16:08:52.088992 26392 net.cpp:157] Top shape: 16 256 56 56 (12845056)
I0322 16:08:52.089010 26392 net.cpp:157] Top shape: 16 256 56 56 (12845056)
I0322 16:08:52.089025 26392 net.cpp:165] Memory required for data: 1795096640
I0322 16:08:52.089041 26392 layer_factory.hpp:77] Creating layer res3a_branch1
I0322 16:08:52.089064 26392 net.cpp:106] Creating Layer res3a_branch1
I0322 16:08:52.089082 26392 net.cpp:454] res3a_branch1 <- res2c_res2c_relu_0_split_0
I0322 16:08:52.089102 26392 net.cpp:411] res3a_branch1 -> res3a_branch1
I0322 16:08:52.091858 26392 net.cpp:150] Setting up res3a_branch1
I0322 16:08:52.091897 26392 net.cpp:157] Top shape: 16 512 28 28 (6422528)
I0322 16:08:52.091913 26392 net.cpp:165] Memory required for data: 1820786752
I0322 16:08:52.091934 26392 layer_factory.hpp:77] Creating layer bn3a_branch1
I0322 16:08:52.091956 26392 net.cpp:106] Creating Layer bn3a_branch1
I0322 16:08:52.091974 26392 net.cpp:454] bn3a_branch1 <- res3a_branch1
I0322 16:08:52.091994 26392 net.cpp:397] bn3a_branch1 -> res3a_branch1 (in-place)
I0322 16:08:52.093286 26392 net.cpp:150] Setting up bn3a_branch1
I0322 16:08:52.093323 26392 net.cpp:157] Top shape: 16 512 28 28 (6422528)
I0322 16:08:52.093340 26392 net.cpp:165] Memory required for data: 1846476864
I0322 16:08:52.093367 26392 layer_factory.hpp:77] Creating layer scale3a_branch1
I0322 16:08:52.093391 26392 net.cpp:106] Creating Layer scale3a_branch1
I0322 16:08:52.093408 26392 net.cpp:454] scale3a_branch1 <- res3a_branch1
I0322 16:08:52.093430 26392 net.cpp:397] scale3a_branch1 -> res3a_branch1 (in-place)
I0322 16:08:52.093542 26392 layer_factory.hpp:77] Creating layer scale3a_branch1
I0322 16:08:52.093782 26392 net.cpp:150] Setting up scale3a_branch1
I0322 16:08:52.093812 26392 net.cpp:157] Top shape: 16 512 28 28 (6422528)
I0322 16:08:52.093828 26392 net.cpp:165] Memory required for data: 1872166976
I0322 16:08:52.093852 26392 layer_factory.hpp:77] Creating layer res3a_branch2a
I0322 16:08:52.093881 26392 net.cpp:106] Creating Layer res3a_branch2a
I0322 16:08:52.093900 26392 net.cpp:454] res3a_branch2a <- res2c_res2c_relu_0_split_1
I0322 16:08:52.093920 26392 net.cpp:411] res3a_branch2a -> res3a_branch2a
I0322 16:08:52.094295 26392 net.cpp:150] Setting up res3a_branch2a
I0322 16:08:52.094327 26392 net.cpp:157] Top shape: 16 128 28 28 (1605632)
I0322 16:08:52.094344 26392 net.cpp:165] Memory required for data: 1878589504
I0322 16:08:52.094364 26392 layer_factory.hpp:77] Creating layer bn3a_branch2a
I0322 16:08:52.094386 26392 net.cpp:106] Creating Layer bn3a_branch2a
I0322 16:08:52.094403 26392 net.cpp:454] bn3a_branch2a <- res3a_branch2a
I0322 16:08:52.094432 26392 net.cpp:397] bn3a_branch2a -> res3a_branch2a (in-place)
I0322 16:08:52.094769 26392 net.cpp:150] Setting up bn3a_branch2a
I0322 16:08:52.094799 26392 net.cpp:157] Top shape: 16 128 28 28 (1605632)
I0322 16:08:52.094815 26392 net.cpp:165] Memory required for data: 1885012032
I0322 16:08:52.094841 26392 layer_factory.hpp:77] Creating layer scale3a_branch2a
I0322 16:08:52.094861 26392 net.cpp:106] Creating Layer scale3a_branch2a
I0322 16:08:52.094878 26392 net.cpp:454] scale3a_branch2a <- res3a_branch2a
I0322 16:08:52.094898 26392 net.cpp:397] scale3a_branch2a -> res3a_branch2a (in-place)
I0322 16:08:52.094985 26392 layer_factory.hpp:77] Creating layer scale3a_branch2a
I0322 16:08:52.095206 26392 net.cpp:150] Setting up scale3a_branch2a
I0322 16:08:52.095234 26392 net.cpp:157] Top shape: 16 128 28 28 (1605632)
I0322 16:08:52.095250 26392 net.cpp:165] Memory required for data: 1891434560
I0322 16:08:52.095273 26392 layer_factory.hpp:77] Creating layer res3a_branch2a_relu
I0322 16:08:52.095293 26392 net.cpp:106] Creating Layer res3a_branch2a_relu
I0322 16:08:52.095310 26392 net.cpp:454] res3a_branch2a_relu <- res3a_branch2a
I0322 16:08:52.095335 26392 net.cpp:397] res3a_branch2a_relu -> res3a_branch2a (in-place)
I0322 16:08:52.095358 26392 net.cpp:150] Setting up res3a_branch2a_relu
I0322 16:08:52.095378 26392 net.cpp:157] Top shape: 16 128 28 28 (1605632)
I0322 16:08:52.095393 26392 net.cpp:165] Memory required for data: 1897857088
I0322 16:08:52.095410 26392 layer_factory.hpp:77] Creating layer res3a_branch2b
I0322 16:08:52.095433 26392 net.cpp:106] Creating Layer res3a_branch2b
I0322 16:08:52.095449 26392 net.cpp:454] res3a_branch2b <- res3a_branch2a
I0322 16:08:52.095474 26392 net.cpp:411] res3a_branch2b -> res3a_branch2b
I0322 16:08:52.096940 26392 net.cpp:150] Setting up res3a_branch2b
I0322 16:08:52.096978 26392 net.cpp:157] Top shape: 16 128 28 28 (1605632)
I0322 16:08:52.096994 26392 net.cpp:165] Memory required for data: 1904279616
I0322 16:08:52.097015 26392 layer_factory.hpp:77] Creating layer bn3a_branch2b
I0322 16:08:52.097038 26392 net.cpp:106] Creating Layer bn3a_branch2b
I0322 16:08:52.097054 26392 net.cpp:454] bn3a_branch2b <- res3a_branch2b
I0322 16:08:52.097074 26392 net.cpp:397] bn3a_branch2b -> res3a_branch2b (in-place)
I0322 16:08:52.097416 26392 net.cpp:150] Setting up bn3a_branch2b
I0322 16:08:52.097445 26392 net.cpp:157] Top shape: 16 128 28 28 (1605632)
I0322 16:08:52.097462 26392 net.cpp:165] Memory required for data: 1910702144
I0322 16:08:52.097492 26392 layer_factory.hpp:77] Creating layer scale3a_branch2b
I0322 16:08:52.097515 26392 net.cpp:106] Creating Layer scale3a_branch2b
I0322 16:08:52.097532 26392 net.cpp:454] scale3a_branch2b <- res3a_branch2b
I0322 16:08:52.097553 26392 net.cpp:397] scale3a_branch2b -> res3a_branch2b (in-place)
I0322 16:08:52.097642 26392 layer_factory.hpp:77] Creating layer scale3a_branch2b
I0322 16:08:52.097872 26392 net.cpp:150] Setting up scale3a_branch2b
I0322 16:08:52.097911 26392 net.cpp:157] Top shape: 16 128 28 28 (1605632)
I0322 16:08:52.097944 26392 net.cpp:165] Memory required for data: 1917124672
I0322 16:08:52.097968 26392 layer_factory.hpp:77] Creating layer res3a_branch2b_relu
I0322 16:08:52.097998 26392 net.cpp:106] Creating Layer res3a_branch2b_relu
I0322 16:08:52.098016 26392 net.cpp:454] res3a_branch2b_relu <- res3a_branch2b
I0322 16:08:52.098039 26392 net.cpp:397] res3a_branch2b_relu -> res3a_branch2b (in-place)
I0322 16:08:52.098062 26392 net.cpp:150] Setting up res3a_branch2b_relu
I0322 16:08:52.098081 26392 net.cpp:157] Top shape: 16 128 28 28 (1605632)
I0322 16:08:52.098096 26392 net.cpp:165] Memory required for data: 1923547200
I0322 16:08:52.098112 26392 layer_factory.hpp:77] Creating layer res3a_branch2c
I0322 16:08:52.098140 26392 net.cpp:106] Creating Layer res3a_branch2c
I0322 16:08:52.098157 26392 net.cpp:454] res3a_branch2c <- res3a_branch2b
I0322 16:08:52.098178 26392 net.cpp:411] res3a_branch2c -> res3a_branch2c
I0322 16:08:52.098631 26392 net.cpp:150] Setting up res3a_branch2c
I0322 16:08:52.098664 26392 net.cpp:157] Top shape: 16 512 28 28 (6422528)
I0322 16:08:52.098680 26392 net.cpp:165] Memory required for data: 1949237312
I0322 16:08:52.098701 26392 layer_factory.hpp:77] Creating layer bn3a_branch2c
I0322 16:08:52.098737 26392 net.cpp:106] Creating Layer bn3a_branch2c
I0322 16:08:52.098757 26392 net.cpp:454] bn3a_branch2c <- res3a_branch2c
I0322 16:08:52.098778 26392 net.cpp:397] bn3a_branch2c -> res3a_branch2c (in-place)
I0322 16:08:52.099120 26392 net.cpp:150] Setting up bn3a_branch2c
I0322 16:08:52.099149 26392 net.cpp:157] Top shape: 16 512 28 28 (6422528)
I0322 16:08:52.099165 26392 net.cpp:165] Memory required for data: 1974927424
I0322 16:08:52.099191 26392 layer_factory.hpp:77] Creating layer scale3a_branch2c
I0322 16:08:52.099213 26392 net.cpp:106] Creating Layer scale3a_branch2c
I0322 16:08:52.099231 26392 net.cpp:454] scale3a_branch2c <- res3a_branch2c
I0322 16:08:52.099258 26392 net.cpp:397] scale3a_branch2c -> res3a_branch2c (in-place)
I0322 16:08:52.099349 26392 layer_factory.hpp:77] Creating layer scale3a_branch2c
I0322 16:08:52.099568 26392 net.cpp:150] Setting up scale3a_branch2c
I0322 16:08:52.099597 26392 net.cpp:157] Top shape: 16 512 28 28 (6422528)
I0322 16:08:52.099612 26392 net.cpp:165] Memory required for data: 2000617536
I0322 16:08:52.099635 26392 layer_factory.hpp:77] Creating layer res3a
I0322 16:08:52.099658 26392 net.cpp:106] Creating Layer res3a
I0322 16:08:52.099674 26392 net.cpp:454] res3a <- res3a_branch1
I0322 16:08:52.099692 26392 net.cpp:454] res3a <- res3a_branch2c
I0322 16:08:52.099712 26392 net.cpp:411] res3a -> res3a
I0322 16:08:52.099772 26392 net.cpp:150] Setting up res3a
I0322 16:08:52.099799 26392 net.cpp:157] Top shape: 16 512 28 28 (6422528)
I0322 16:08:52.099814 26392 net.cpp:165] Memory required for data: 2026307648
I0322 16:08:52.099830 26392 layer_factory.hpp:77] Creating layer res3a_relu
I0322 16:08:52.099854 26392 net.cpp:106] Creating Layer res3a_relu
I0322 16:08:52.099871 26392 net.cpp:454] res3a_relu <- res3a
I0322 16:08:52.099890 26392 net.cpp:397] res3a_relu -> res3a (in-place)
I0322 16:08:52.099911 26392 net.cpp:150] Setting up res3a_relu
I0322 16:08:52.099931 26392 net.cpp:157] Top shape: 16 512 28 28 (6422528)
I0322 16:08:52.099946 26392 net.cpp:165] Memory required for data: 2051997760
I0322 16:08:52.099961 26392 layer_factory.hpp:77] Creating layer res3a_res3a_relu_0_split
I0322 16:08:52.099980 26392 net.cpp:106] Creating Layer res3a_res3a_relu_0_split
I0322 16:08:52.099997 26392 net.cpp:454] res3a_res3a_relu_0_split <- res3a
I0322 16:08:52.100023 26392 net.cpp:411] res3a_res3a_relu_0_split -> res3a_res3a_relu_0_split_0
I0322 16:08:52.100046 26392 net.cpp:411] res3a_res3a_relu_0_split -> res3a_res3a_relu_0_split_1
I0322 16:08:52.100121 26392 net.cpp:150] Setting up res3a_res3a_relu_0_split
I0322 16:08:52.100145 26392 net.cpp:157] Top shape: 16 512 28 28 (6422528)
I0322 16:08:52.100164 26392 net.cpp:157] Top shape: 16 512 28 28 (6422528)
I0322 16:08:52.100179 26392 net.cpp:165] Memory required for data: 2103377984
I0322 16:08:52.100208 26392 layer_factory.hpp:77] Creating layer res3b_branch2a
I0322 16:08:52.100267 26392 net.cpp:106] Creating Layer res3b_branch2a
I0322 16:08:52.100288 26392 net.cpp:454] res3b_branch2a <- res3a_res3a_relu_0_split_0
I0322 16:08:52.100309 26392 net.cpp:411] res3b_branch2a -> res3b_branch2a
I0322 16:08:52.101693 26392 net.cpp:150] Setting up res3b_branch2a
I0322 16:08:52.101745 26392 net.cpp:157] Top shape: 16 128 28 28 (1605632)
I0322 16:08:52.101763 26392 net.cpp:165] Memory required for data: 2109800512
I0322 16:08:52.101784 26392 layer_factory.hpp:77] Creating layer bn3b_branch2a
I0322 16:08:52.101806 26392 net.cpp:106] Creating Layer bn3b_branch2a
I0322 16:08:52.101824 26392 net.cpp:454] bn3b_branch2a <- res3b_branch2a
I0322 16:08:52.101845 26392 net.cpp:397] bn3b_branch2a -> res3b_branch2a (in-place)
I0322 16:08:52.102188 26392 net.cpp:150] Setting up bn3b_branch2a
I0322 16:08:52.102217 26392 net.cpp:157] Top shape: 16 128 28 28 (1605632)
I0322 16:08:52.102232 26392 net.cpp:165] Memory required for data: 2116223040
I0322 16:08:52.102258 26392 layer_factory.hpp:77] Creating layer scale3b_branch2a
I0322 16:08:52.102285 26392 net.cpp:106] Creating Layer scale3b_branch2a
I0322 16:08:52.102303 26392 net.cpp:454] scale3b_branch2a <- res3b_branch2a
I0322 16:08:52.102324 26392 net.cpp:397] scale3b_branch2a -> res3b_branch2a (in-place)
I0322 16:08:52.102414 26392 layer_factory.hpp:77] Creating layer scale3b_branch2a
I0322 16:08:52.102643 26392 net.cpp:150] Setting up scale3b_branch2a
I0322 16:08:52.102674 26392 net.cpp:157] Top shape: 16 128 28 28 (1605632)
I0322 16:08:52.102689 26392 net.cpp:165] Memory required for data: 2122645568
I0322 16:08:52.102711 26392 layer_factory.hpp:77] Creating layer res3b_branch2a_relu
I0322 16:08:52.102732 26392 net.cpp:106] Creating Layer res3b_branch2a_relu
I0322 16:08:52.102748 26392 net.cpp:454] res3b_branch2a_relu <- res3b_branch2a
I0322 16:08:52.102772 26392 net.cpp:397] res3b_branch2a_relu -> res3b_branch2a (in-place)
I0322 16:08:52.102795 26392 net.cpp:150] Setting up res3b_branch2a_relu
I0322 16:08:52.102815 26392 net.cpp:157] Top shape: 16 128 28 28 (1605632)
I0322 16:08:52.102830 26392 net.cpp:165] Memory required for data: 2129068096
I0322 16:08:52.102845 26392 layer_factory.hpp:77] Creating layer res3b_branch2b
I0322 16:08:52.102871 26392 net.cpp:106] Creating Layer res3b_branch2b
I0322 16:08:52.102888 26392 net.cpp:454] res3b_branch2b <- res3b_branch2a
I0322 16:08:52.102915 26392 net.cpp:411] res3b_branch2b -> res3b_branch2b
I0322 16:08:52.104352 26392 net.cpp:150] Setting up res3b_branch2b
I0322 16:08:52.104389 26392 net.cpp:157] Top shape: 16 128 28 28 (1605632)
I0322 16:08:52.104405 26392 net.cpp:165] Memory required for data: 2135490624
I0322 16:08:52.104426 26392 layer_factory.hpp:77] Creating layer bn3b_branch2b
I0322 16:08:52.104454 26392 net.cpp:106] Creating Layer bn3b_branch2b
I0322 16:08:52.104471 26392 net.cpp:454] bn3b_branch2b <- res3b_branch2b
I0322 16:08:52.104492 26392 net.cpp:397] bn3b_branch2b -> res3b_branch2b (in-place)
I0322 16:08:52.104856 26392 net.cpp:150] Setting up bn3b_branch2b
I0322 16:08:52.104887 26392 net.cpp:157] Top shape: 16 128 28 28 (1605632)
I0322 16:08:52.104903 26392 net.cpp:165] Memory required for data: 2141913152
I0322 16:08:52.104930 26392 layer_factory.hpp:77] Creating layer scale3b_branch2b
I0322 16:08:52.104953 26392 net.cpp:106] Creating Layer scale3b_branch2b
I0322 16:08:52.104969 26392 net.cpp:454] scale3b_branch2b <- res3b_branch2b
I0322 16:08:52.105001 26392 net.cpp:397] scale3b_branch2b -> res3b_branch2b (in-place)
I0322 16:08:52.105090 26392 layer_factory.hpp:77] Creating layer scale3b_branch2b
I0322 16:08:52.105321 26392 net.cpp:150] Setting up scale3b_branch2b
I0322 16:08:52.105356 26392 net.cpp:157] Top shape: 16 128 28 28 (1605632)
I0322 16:08:52.105372 26392 net.cpp:165] Memory required for data: 2148335680
I0322 16:08:52.105396 26392 layer_factory.hpp:77] Creating layer res3b_branch2b_relu
I0322 16:08:52.105417 26392 net.cpp:106] Creating Layer res3b_branch2b_relu
I0322 16:08:52.105444 26392 net.cpp:454] res3b_branch2b_relu <- res3b_branch2b
I0322 16:08:52.105480 26392 net.cpp:397] res3b_branch2b_relu -> res3b_branch2b (in-place)
I0322 16:08:52.105505 26392 net.cpp:150] Setting up res3b_branch2b_relu
I0322 16:08:52.105525 26392 net.cpp:157] Top shape: 16 128 28 28 (1605632)
I0322 16:08:52.105540 26392 net.cpp:165] Memory required for data: 2154758208
I0322 16:08:52.105556 26392 layer_factory.hpp:77] Creating layer res3b_branch2c
I0322 16:08:52.105583 26392 net.cpp:106] Creating Layer res3b_branch2c
I0322 16:08:52.105600 26392 net.cpp:454] res3b_branch2c <- res3b_branch2b
I0322 16:08:52.105621 26392 net.cpp:411] res3b_branch2c -> res3b_branch2c
I0322 16:08:52.106060 26392 net.cpp:150] Setting up res3b_branch2c
I0322 16:08:52.106091 26392 net.cpp:157] Top shape: 16 512 28 28 (6422528)
I0322 16:08:52.106107 26392 net.cpp:165] Memory required for data: 2180448320
I0322 16:08:52.106127 26392 layer_factory.hpp:77] Creating layer bn3b_branch2c
I0322 16:08:52.106148 26392 net.cpp:106] Creating Layer bn3b_branch2c
I0322 16:08:52.106164 26392 net.cpp:454] bn3b_branch2c <- res3b_branch2c
I0322 16:08:52.106184 26392 net.cpp:397] bn3b_branch2c -> res3b_branch2c (in-place)
I0322 16:08:52.106539 26392 net.cpp:150] Setting up bn3b_branch2c
I0322 16:08:52.106567 26392 net.cpp:157] Top shape: 16 512 28 28 (6422528)
I0322 16:08:52.106583 26392 net.cpp:165] Memory required for data: 2206138432
I0322 16:08:52.106609 26392 layer_factory.hpp:77] Creating layer scale3b_branch2c
I0322 16:08:52.106636 26392 net.cpp:106] Creating Layer scale3b_branch2c
I0322 16:08:52.106653 26392 net.cpp:454] scale3b_branch2c <- res3b_branch2c
I0322 16:08:52.106673 26392 net.cpp:397] scale3b_branch2c -> res3b_branch2c (in-place)
I0322 16:08:52.106767 26392 layer_factory.hpp:77] Creating layer scale3b_branch2c
I0322 16:08:52.106994 26392 net.cpp:150] Setting up scale3b_branch2c
I0322 16:08:52.107023 26392 net.cpp:157] Top shape: 16 512 28 28 (6422528)
I0322 16:08:52.107039 26392 net.cpp:165] Memory required for data: 2231828544
I0322 16:08:52.107061 26392 layer_factory.hpp:77] Creating layer res3b
I0322 16:08:52.107084 26392 net.cpp:106] Creating Layer res3b
I0322 16:08:52.107100 26392 net.cpp:454] res3b <- res3a_res3a_relu_0_split_1
I0322 16:08:52.107118 26392 net.cpp:454] res3b <- res3b_branch2c
I0322 16:08:52.107143 26392 net.cpp:411] res3b -> res3b
I0322 16:08:52.107206 26392 net.cpp:150] Setting up res3b
I0322 16:08:52.107233 26392 net.cpp:157] Top shape: 16 512 28 28 (6422528)
I0322 16:08:52.107249 26392 net.cpp:165] Memory required for data: 2257518656
I0322 16:08:52.107264 26392 layer_factory.hpp:77] Creating layer res3b_relu
I0322 16:08:52.107283 26392 net.cpp:106] Creating Layer res3b_relu
I0322 16:08:52.107300 26392 net.cpp:454] res3b_relu <- res3b
I0322 16:08:52.107319 26392 net.cpp:397] res3b_relu -> res3b (in-place)
I0322 16:08:52.107341 26392 net.cpp:150] Setting up res3b_relu
I0322 16:08:52.107360 26392 net.cpp:157] Top shape: 16 512 28 28 (6422528)
I0322 16:08:52.107375 26392 net.cpp:165] Memory required for data: 2283208768
I0322 16:08:52.107391 26392 layer_factory.hpp:77] Creating layer res3b_res3b_relu_0_split
I0322 16:08:52.107410 26392 net.cpp:106] Creating Layer res3b_res3b_relu_0_split
I0322 16:08:52.107426 26392 net.cpp:454] res3b_res3b_relu_0_split <- res3b
I0322 16:08:52.107451 26392 net.cpp:411] res3b_res3b_relu_0_split -> res3b_res3b_relu_0_split_0
I0322 16:08:52.107475 26392 net.cpp:411] res3b_res3b_relu_0_split -> res3b_res3b_relu_0_split_1
I0322 16:08:52.107559 26392 net.cpp:150] Setting up res3b_res3b_relu_0_split
I0322 16:08:52.107585 26392 net.cpp:157] Top shape: 16 512 28 28 (6422528)
I0322 16:08:52.107604 26392 net.cpp:157] Top shape: 16 512 28 28 (6422528)
I0322 16:08:52.107620 26392 net.cpp:165] Memory required for data: 2334588992
I0322 16:08:52.107635 26392 layer_factory.hpp:77] Creating layer res3c_branch2a
I0322 16:08:52.107658 26392 net.cpp:106] Creating Layer res3c_branch2a
I0322 16:08:52.107676 26392 net.cpp:454] res3c_branch2a <- res3b_res3b_relu_0_split_0
I0322 16:08:52.107700 26392 net.cpp:411] res3c_branch2a -> res3c_branch2a
I0322 16:08:52.108144 26392 net.cpp:150] Setting up res3c_branch2a
I0322 16:08:52.108176 26392 net.cpp:157] Top shape: 16 128 28 28 (1605632)
I0322 16:08:52.108192 26392 net.cpp:165] Memory required for data: 2341011520
I0322 16:08:52.108212 26392 layer_factory.hpp:77] Creating layer bn3c_branch2a
I0322 16:08:52.108234 26392 net.cpp:106] Creating Layer bn3c_branch2a
I0322 16:08:52.108252 26392 net.cpp:454] bn3c_branch2a <- res3c_branch2a
I0322 16:08:52.108275 26392 net.cpp:397] bn3c_branch2a -> res3c_branch2a (in-place)
I0322 16:08:52.108645 26392 net.cpp:150] Setting up bn3c_branch2a
I0322 16:08:52.108676 26392 net.cpp:157] Top shape: 16 128 28 28 (1605632)
I0322 16:08:52.108695 26392 net.cpp:165] Memory required for data: 2347434048
I0322 16:08:52.108721 26392 layer_factory.hpp:77] Creating layer scale3c_branch2a
I0322 16:08:52.108742 26392 net.cpp:106] Creating Layer scale3c_branch2a
I0322 16:08:52.108759 26392 net.cpp:454] scale3c_branch2a <- res3c_branch2a
I0322 16:08:52.108779 26392 net.cpp:397] scale3c_branch2a -> res3c_branch2a (in-place)
I0322 16:08:52.108875 26392 layer_factory.hpp:77] Creating layer scale3c_branch2a
I0322 16:08:52.109108 26392 net.cpp:150] Setting up scale3c_branch2a
I0322 16:08:52.109138 26392 net.cpp:157] Top shape: 16 128 28 28 (1605632)
I0322 16:08:52.109153 26392 net.cpp:165] Memory required for data: 2353856576
I0322 16:08:52.109175 26392 layer_factory.hpp:77] Creating layer res3c_branch2a_relu
I0322 16:08:52.109195 26392 net.cpp:106] Creating Layer res3c_branch2a_relu
I0322 16:08:52.109212 26392 net.cpp:454] res3c_branch2a_relu <- res3c_branch2a
I0322 16:08:52.109236 26392 net.cpp:397] res3c_branch2a_relu -> res3c_branch2a (in-place)
I0322 16:08:52.109258 26392 net.cpp:150] Setting up res3c_branch2a_relu
I0322 16:08:52.109278 26392 net.cpp:157] Top shape: 16 128 28 28 (1605632)
I0322 16:08:52.109293 26392 net.cpp:165] Memory required for data: 2360279104
I0322 16:08:52.109309 26392 layer_factory.hpp:77] Creating layer res3c_branch2b
I0322 16:08:52.109333 26392 net.cpp:106] Creating Layer res3c_branch2b
I0322 16:08:52.109349 26392 net.cpp:454] res3c_branch2b <- res3c_branch2a
I0322 16:08:52.109374 26392 net.cpp:411] res3c_branch2b -> res3c_branch2b
I0322 16:08:52.110821 26392 net.cpp:150] Setting up res3c_branch2b
I0322 16:08:52.110857 26392 net.cpp:157] Top shape: 16 128 28 28 (1605632)
I0322 16:08:52.110873 26392 net.cpp:165] Memory required for data: 2366701632
I0322 16:08:52.110894 26392 layer_factory.hpp:77] Creating layer bn3c_branch2b
I0322 16:08:52.110918 26392 net.cpp:106] Creating Layer bn3c_branch2b
I0322 16:08:52.110935 26392 net.cpp:454] bn3c_branch2b <- res3c_branch2b
I0322 16:08:52.110955 26392 net.cpp:397] bn3c_branch2b -> res3c_branch2b (in-place)
I0322 16:08:52.111385 26392 net.cpp:150] Setting up bn3c_branch2b
I0322 16:08:52.111418 26392 net.cpp:157] Top shape: 16 128 28 28 (1605632)
I0322 16:08:52.111435 26392 net.cpp:165] Memory required for data: 2373124160
I0322 16:08:52.111466 26392 layer_factory.hpp:77] Creating layer scale3c_branch2b
I0322 16:08:52.111490 26392 net.cpp:106] Creating Layer scale3c_branch2b
I0322 16:08:52.111507 26392 net.cpp:454] scale3c_branch2b <- res3c_branch2b
I0322 16:08:52.111527 26392 net.cpp:397] scale3c_branch2b -> res3c_branch2b (in-place)
I0322 16:08:52.111621 26392 layer_factory.hpp:77] Creating layer scale3c_branch2b
I0322 16:08:52.111856 26392 net.cpp:150] Setting up scale3c_branch2b
I0322 16:08:52.111886 26392 net.cpp:157] Top shape: 16 128 28 28 (1605632)
I0322 16:08:52.111901 26392 net.cpp:165] Memory required for data: 2379546688
I0322 16:08:52.111924 26392 layer_factory.hpp:77] Creating layer res3c_branch2b_relu
I0322 16:08:52.111950 26392 net.cpp:106] Creating Layer res3c_branch2b_relu
I0322 16:08:52.111968 26392 net.cpp:454] res3c_branch2b_relu <- res3c_branch2b
I0322 16:08:52.112001 26392 net.cpp:397] res3c_branch2b_relu -> res3c_branch2b (in-place)
I0322 16:08:52.112020 26392 net.cpp:150] Setting up res3c_branch2b_relu
I0322 16:08:52.112036 26392 net.cpp:157] Top shape: 16 128 28 28 (1605632)
I0322 16:08:52.112056 26392 net.cpp:165] Memory required for data: 2385969216
I0322 16:08:52.112083 26392 layer_factory.hpp:77] Creating layer res3c_branch2c
I0322 16:08:52.112107 26392 net.cpp:106] Creating Layer res3c_branch2c
I0322 16:08:52.112120 26392 net.cpp:454] res3c_branch2c <- res3c_branch2b
I0322 16:08:52.112136 26392 net.cpp:411] res3c_branch2c -> res3c_branch2c
I0322 16:08:52.113843 26392 net.cpp:150] Setting up res3c_branch2c
I0322 16:08:52.113872 26392 net.cpp:157] Top shape: 16 512 28 28 (6422528)
I0322 16:08:52.113883 26392 net.cpp:165] Memory required for data: 2411659328
I0322 16:08:52.113899 26392 layer_factory.hpp:77] Creating layer bn3c_branch2c
I0322 16:08:52.113916 26392 net.cpp:106] Creating Layer bn3c_branch2c
I0322 16:08:52.113929 26392 net.cpp:454] bn3c_branch2c <- res3c_branch2c
I0322 16:08:52.113945 26392 net.cpp:397] bn3c_branch2c -> res3c_branch2c (in-place)
I0322 16:08:52.114326 26392 net.cpp:150] Setting up bn3c_branch2c
I0322 16:08:52.114354 26392 net.cpp:157] Top shape: 16 512 28 28 (6422528)
I0322 16:08:52.114370 26392 net.cpp:165] Memory required for data: 2437349440
I0322 16:08:52.114398 26392 layer_factory.hpp:77] Creating layer scale3c_branch2c
I0322 16:08:52.114419 26392 net.cpp:106] Creating Layer scale3c_branch2c
I0322 16:08:52.114436 26392 net.cpp:454] scale3c_branch2c <- res3c_branch2c
I0322 16:08:52.114455 26392 net.cpp:397] scale3c_branch2c -> res3c_branch2c (in-place)
I0322 16:08:52.114555 26392 layer_factory.hpp:77] Creating layer scale3c_branch2c
I0322 16:08:52.114785 26392 net.cpp:150] Setting up scale3c_branch2c
I0322 16:08:52.114815 26392 net.cpp:157] Top shape: 16 512 28 28 (6422528)
I0322 16:08:52.114831 26392 net.cpp:165] Memory required for data: 2463039552
I0322 16:08:52.114855 26392 layer_factory.hpp:77] Creating layer res3c
I0322 16:08:52.114884 26392 net.cpp:106] Creating Layer res3c
I0322 16:08:52.114903 26392 net.cpp:454] res3c <- res3b_res3b_relu_0_split_1
I0322 16:08:52.114923 26392 net.cpp:454] res3c <- res3c_branch2c
I0322 16:08:52.114943 26392 net.cpp:411] res3c -> res3c
I0322 16:08:52.115006 26392 net.cpp:150] Setting up res3c
I0322 16:08:52.115033 26392 net.cpp:157] Top shape: 16 512 28 28 (6422528)
I0322 16:08:52.115049 26392 net.cpp:165] Memory required for data: 2488729664
I0322 16:08:52.115066 26392 layer_factory.hpp:77] Creating layer res3c_relu
I0322 16:08:52.115085 26392 net.cpp:106] Creating Layer res3c_relu
I0322 16:08:52.115101 26392 net.cpp:454] res3c_relu <- res3c
I0322 16:08:52.115126 26392 net.cpp:397] res3c_relu -> res3c (in-place)
I0322 16:08:52.115149 26392 net.cpp:150] Setting up res3c_relu
I0322 16:08:52.115170 26392 net.cpp:157] Top shape: 16 512 28 28 (6422528)
I0322 16:08:52.115185 26392 net.cpp:165] Memory required for data: 2514419776
I0322 16:08:52.115201 26392 layer_factory.hpp:77] Creating layer res3c_res3c_relu_0_split
I0322 16:08:52.115221 26392 net.cpp:106] Creating Layer res3c_res3c_relu_0_split
I0322 16:08:52.115237 26392 net.cpp:454] res3c_res3c_relu_0_split <- res3c
I0322 16:08:52.115257 26392 net.cpp:411] res3c_res3c_relu_0_split -> res3c_res3c_relu_0_split_0
I0322 16:08:52.115278 26392 net.cpp:411] res3c_res3c_relu_0_split -> res3c_res3c_relu_0_split_1
I0322 16:08:52.115362 26392 net.cpp:150] Setting up res3c_res3c_relu_0_split
I0322 16:08:52.115388 26392 net.cpp:157] Top shape: 16 512 28 28 (6422528)
I0322 16:08:52.115407 26392 net.cpp:157] Top shape: 16 512 28 28 (6422528)
I0322 16:08:52.115422 26392 net.cpp:165] Memory required for data: 2565800000
I0322 16:08:52.115438 26392 layer_factory.hpp:77] Creating layer res3d_branch2a
I0322 16:08:52.115461 26392 net.cpp:106] Creating Layer res3d_branch2a
I0322 16:08:52.115479 26392 net.cpp:454] res3d_branch2a <- res3c_res3c_relu_0_split_0
I0322 16:08:52.115505 26392 net.cpp:411] res3d_branch2a -> res3d_branch2a
I0322 16:08:52.116883 26392 net.cpp:150] Setting up res3d_branch2a
I0322 16:08:52.116922 26392 net.cpp:157] Top shape: 16 128 28 28 (1605632)
I0322 16:08:52.116940 26392 net.cpp:165] Memory required for data: 2572222528
I0322 16:08:52.116960 26392 layer_factory.hpp:77] Creating layer bn3d_branch2a
I0322 16:08:52.117007 26392 net.cpp:106] Creating Layer bn3d_branch2a
I0322 16:08:52.117027 26392 net.cpp:454] bn3d_branch2a <- res3d_branch2a
I0322 16:08:52.117048 26392 net.cpp:397] bn3d_branch2a -> res3d_branch2a (in-place)
I0322 16:08:52.117416 26392 net.cpp:150] Setting up bn3d_branch2a
I0322 16:08:52.117446 26392 net.cpp:157] Top shape: 16 128 28 28 (1605632)
I0322 16:08:52.117462 26392 net.cpp:165] Memory required for data: 2578645056
I0322 16:08:52.117533 26392 layer_factory.hpp:77] Creating layer scale3d_branch2a
I0322 16:08:52.117560 26392 net.cpp:106] Creating Layer scale3d_branch2a
I0322 16:08:52.117578 26392 net.cpp:454] scale3d_branch2a <- res3d_branch2a
I0322 16:08:52.117599 26392 net.cpp:397] scale3d_branch2a -> res3d_branch2a (in-place)
I0322 16:08:52.117696 26392 layer_factory.hpp:77] Creating layer scale3d_branch2a
I0322 16:08:52.117926 26392 net.cpp:150] Setting up scale3d_branch2a
I0322 16:08:52.117955 26392 net.cpp:157] Top shape: 16 128 28 28 (1605632)
I0322 16:08:52.117971 26392 net.cpp:165] Memory required for data: 2585067584
I0322 16:08:52.117995 26392 layer_factory.hpp:77] Creating layer res3d_branch2a_relu
I0322 16:08:52.118015 26392 net.cpp:106] Creating Layer res3d_branch2a_relu
I0322 16:08:52.118031 26392 net.cpp:454] res3d_branch2a_relu <- res3d_branch2a
I0322 16:08:52.118055 26392 net.cpp:397] res3d_branch2a_relu -> res3d_branch2a (in-place)
I0322 16:08:52.118078 26392 net.cpp:150] Setting up res3d_branch2a_relu
I0322 16:08:52.118098 26392 net.cpp:157] Top shape: 16 128 28 28 (1605632)
I0322 16:08:52.118113 26392 net.cpp:165] Memory required for data: 2591490112
I0322 16:08:52.118129 26392 layer_factory.hpp:77] Creating layer res3d_branch2b
I0322 16:08:52.118151 26392 net.cpp:106] Creating Layer res3d_branch2b
I0322 16:08:52.118167 26392 net.cpp:454] res3d_branch2b <- res3d_branch2a
I0322 16:08:52.118192 26392 net.cpp:411] res3d_branch2b -> res3d_branch2b
I0322 16:08:52.119655 26392 net.cpp:150] Setting up res3d_branch2b
I0322 16:08:52.119693 26392 net.cpp:157] Top shape: 16 128 28 28 (1605632)
I0322 16:08:52.119709 26392 net.cpp:165] Memory required for data: 2597912640
I0322 16:08:52.119734 26392 layer_factory.hpp:77] Creating layer bn3d_branch2b
I0322 16:08:52.119760 26392 net.cpp:106] Creating Layer bn3d_branch2b
I0322 16:08:52.119778 26392 net.cpp:454] bn3d_branch2b <- res3d_branch2b
I0322 16:08:52.119798 26392 net.cpp:397] bn3d_branch2b -> res3d_branch2b (in-place)
I0322 16:08:52.120160 26392 net.cpp:150] Setting up bn3d_branch2b
I0322 16:08:52.120190 26392 net.cpp:157] Top shape: 16 128 28 28 (1605632)
I0322 16:08:52.120205 26392 net.cpp:165] Memory required for data: 2604335168
I0322 16:08:52.120232 26392 layer_factory.hpp:77] Creating layer scale3d_branch2b
I0322 16:08:52.120254 26392 net.cpp:106] Creating Layer scale3d_branch2b
I0322 16:08:52.120271 26392 net.cpp:454] scale3d_branch2b <- res3d_branch2b
I0322 16:08:52.120296 26392 net.cpp:397] scale3d_branch2b -> res3d_branch2b (in-place)
I0322 16:08:52.120386 26392 layer_factory.hpp:77] Creating layer scale3d_branch2b
I0322 16:08:52.120640 26392 net.cpp:150] Setting up scale3d_branch2b
I0322 16:08:52.120676 26392 net.cpp:157] Top shape: 16 128 28 28 (1605632)
I0322 16:08:52.120719 26392 net.cpp:165] Memory required for data: 2610757696
I0322 16:08:52.120743 26392 layer_factory.hpp:77] Creating layer res3d_branch2b_relu
I0322 16:08:52.120765 26392 net.cpp:106] Creating Layer res3d_branch2b_relu
I0322 16:08:52.120782 26392 net.cpp:454] res3d_branch2b_relu <- res3d_branch2b
I0322 16:08:52.120801 26392 net.cpp:397] res3d_branch2b_relu -> res3d_branch2b (in-place)
I0322 16:08:52.120823 26392 net.cpp:150] Setting up res3d_branch2b_relu
I0322 16:08:52.120843 26392 net.cpp:157] Top shape: 16 128 28 28 (1605632)
I0322 16:08:52.120859 26392 net.cpp:165] Memory required for data: 2617180224
I0322 16:08:52.120874 26392 layer_factory.hpp:77] Creating layer res3d_branch2c
I0322 16:08:52.120903 26392 net.cpp:106] Creating Layer res3d_branch2c
I0322 16:08:52.120924 26392 net.cpp:454] res3d_branch2c <- res3d_branch2b
I0322 16:08:52.120956 26392 net.cpp:411] res3d_branch2c -> res3d_branch2c
I0322 16:08:52.121423 26392 net.cpp:150] Setting up res3d_branch2c
I0322 16:08:52.121456 26392 net.cpp:157] Top shape: 16 512 28 28 (6422528)
I0322 16:08:52.121472 26392 net.cpp:165] Memory required for data: 2642870336
I0322 16:08:52.121492 26392 layer_factory.hpp:77] Creating layer bn3d_branch2c
I0322 16:08:52.121513 26392 net.cpp:106] Creating Layer bn3d_branch2c
I0322 16:08:52.121531 26392 net.cpp:454] bn3d_branch2c <- res3d_branch2c
I0322 16:08:52.121551 26392 net.cpp:397] bn3d_branch2c -> res3d_branch2c (in-place)
I0322 16:08:52.121912 26392 net.cpp:150] Setting up bn3d_branch2c
I0322 16:08:52.121959 26392 net.cpp:157] Top shape: 16 512 28 28 (6422528)
I0322 16:08:52.121975 26392 net.cpp:165] Memory required for data: 2668560448
I0322 16:08:52.122000 26392 layer_factory.hpp:77] Creating layer scale3d_branch2c
I0322 16:08:52.122028 26392 net.cpp:106] Creating Layer scale3d_branch2c
I0322 16:08:52.122047 26392 net.cpp:454] scale3d_branch2c <- res3d_branch2c
I0322 16:08:52.122066 26392 net.cpp:397] scale3d_branch2c -> res3d_branch2c (in-place)
I0322 16:08:52.122170 26392 layer_factory.hpp:77] Creating layer scale3d_branch2c
I0322 16:08:52.122402 26392 net.cpp:150] Setting up scale3d_branch2c
I0322 16:08:52.122431 26392 net.cpp:157] Top shape: 16 512 28 28 (6422528)
I0322 16:08:52.122447 26392 net.cpp:165] Memory required for data: 2694250560
I0322 16:08:52.122470 26392 layer_factory.hpp:77] Creating layer res3d
I0322 16:08:52.122493 26392 net.cpp:106] Creating Layer res3d
I0322 16:08:52.122510 26392 net.cpp:454] res3d <- res3c_res3c_relu_0_split_1
I0322 16:08:52.122529 26392 net.cpp:454] res3d <- res3d_branch2c
I0322 16:08:52.122553 26392 net.cpp:411] res3d -> res3d
I0322 16:08:52.122618 26392 net.cpp:150] Setting up res3d
I0322 16:08:52.122644 26392 net.cpp:157] Top shape: 16 512 28 28 (6422528)
I0322 16:08:52.122660 26392 net.cpp:165] Memory required for data: 2719940672
I0322 16:08:52.122676 26392 layer_factory.hpp:77] Creating layer res3d_relu
I0322 16:08:52.122695 26392 net.cpp:106] Creating Layer res3d_relu
I0322 16:08:52.122712 26392 net.cpp:454] res3d_relu <- res3d
I0322 16:08:52.122730 26392 net.cpp:397] res3d_relu -> res3d (in-place)
I0322 16:08:52.122752 26392 net.cpp:150] Setting up res3d_relu
I0322 16:08:52.122772 26392 net.cpp:157] Top shape: 16 512 28 28 (6422528)
I0322 16:08:52.122787 26392 net.cpp:165] Memory required for data: 2745630784
I0322 16:08:52.122802 26392 layer_factory.hpp:77] Creating layer res3d_res3d_relu_0_split
I0322 16:08:52.122822 26392 net.cpp:106] Creating Layer res3d_res3d_relu_0_split
I0322 16:08:52.122838 26392 net.cpp:454] res3d_res3d_relu_0_split <- res3d
I0322 16:08:52.122867 26392 net.cpp:411] res3d_res3d_relu_0_split -> res3d_res3d_relu_0_split_0
I0322 16:08:52.122891 26392 net.cpp:411] res3d_res3d_relu_0_split -> res3d_res3d_relu_0_split_1
I0322 16:08:52.122980 26392 net.cpp:150] Setting up res3d_res3d_relu_0_split
I0322 16:08:52.123008 26392 net.cpp:157] Top shape: 16 512 28 28 (6422528)
I0322 16:08:52.123025 26392 net.cpp:157] Top shape: 16 512 28 28 (6422528)
I0322 16:08:52.123040 26392 net.cpp:165] Memory required for data: 2797011008
I0322 16:08:52.123056 26392 layer_factory.hpp:77] Creating layer res4a_branch1
I0322 16:08:52.123080 26392 net.cpp:106] Creating Layer res4a_branch1
I0322 16:08:52.123097 26392 net.cpp:454] res4a_branch1 <- res3d_res3d_relu_0_split_0
I0322 16:08:52.123118 26392 net.cpp:411] res4a_branch1 -> res4a_branch1
I0322 16:08:52.125736 26392 net.cpp:150] Setting up res4a_branch1
I0322 16:08:52.125779 26392 net.cpp:157] Top shape: 16 1024 14 14 (3211264)
I0322 16:08:52.125795 26392 net.cpp:165] Memory required for data: 2809856064
I0322 16:08:52.125816 26392 layer_factory.hpp:77] Creating layer bn4a_branch1
I0322 16:08:52.125844 26392 net.cpp:106] Creating Layer bn4a_branch1
I0322 16:08:52.125862 26392 net.cpp:454] bn4a_branch1 <- res4a_branch1
I0322 16:08:52.125882 26392 net.cpp:397] bn4a_branch1 -> res4a_branch1 (in-place)
I0322 16:08:52.126261 26392 net.cpp:150] Setting up bn4a_branch1
I0322 16:08:52.126302 26392 net.cpp:157] Top shape: 16 1024 14 14 (3211264)
I0322 16:08:52.126334 26392 net.cpp:165] Memory required for data: 2822701120
I0322 16:08:52.126363 26392 layer_factory.hpp:77] Creating layer scale4a_branch1
I0322 16:08:52.126390 26392 net.cpp:106] Creating Layer scale4a_branch1
I0322 16:08:52.126408 26392 net.cpp:454] scale4a_branch1 <- res4a_branch1
I0322 16:08:52.126427 26392 net.cpp:397] scale4a_branch1 -> res4a_branch1 (in-place)
I0322 16:08:52.126525 26392 layer_factory.hpp:77] Creating layer scale4a_branch1
I0322 16:08:52.126767 26392 net.cpp:150] Setting up scale4a_branch1
I0322 16:08:52.126796 26392 net.cpp:157] Top shape: 16 1024 14 14 (3211264)
I0322 16:08:52.126812 26392 net.cpp:165] Memory required for data: 2835546176
I0322 16:08:52.126834 26392 layer_factory.hpp:77] Creating layer res4a_branch2a
I0322 16:08:52.126864 26392 net.cpp:106] Creating Layer res4a_branch2a
I0322 16:08:52.126883 26392 net.cpp:454] res4a_branch2a <- res3d_res3d_relu_0_split_1
I0322 16:08:52.126904 26392 net.cpp:411] res4a_branch2a -> res4a_branch2a
I0322 16:08:52.127495 26392 net.cpp:150] Setting up res4a_branch2a
I0322 16:08:52.127526 26392 net.cpp:157] Top shape: 16 256 14 14 (802816)
I0322 16:08:52.127542 26392 net.cpp:165] Memory required for data: 2838757440
I0322 16:08:52.127562 26392 layer_factory.hpp:77] Creating layer bn4a_branch2a
I0322 16:08:52.127588 26392 net.cpp:106] Creating Layer bn4a_branch2a
I0322 16:08:52.127606 26392 net.cpp:454] bn4a_branch2a <- res4a_branch2a
I0322 16:08:52.127626 26392 net.cpp:397] bn4a_branch2a -> res4a_branch2a (in-place)
I0322 16:08:52.127972 26392 net.cpp:150] Setting up bn4a_branch2a
I0322 16:08:52.128001 26392 net.cpp:157] Top shape: 16 256 14 14 (802816)
I0322 16:08:52.128017 26392 net.cpp:165] Memory required for data: 2841968704
I0322 16:08:52.128042 26392 layer_factory.hpp:77] Creating layer scale4a_branch2a
I0322 16:08:52.128063 26392 net.cpp:106] Creating Layer scale4a_branch2a
I0322 16:08:52.128080 26392 net.cpp:454] scale4a_branch2a <- res4a_branch2a
I0322 16:08:52.128105 26392 net.cpp:397] scale4a_branch2a -> res4a_branch2a (in-place)
I0322 16:08:52.128198 26392 layer_factory.hpp:77] Creating layer scale4a_branch2a
I0322 16:08:52.128427 26392 net.cpp:150] Setting up scale4a_branch2a
I0322 16:08:52.128456 26392 net.cpp:157] Top shape: 16 256 14 14 (802816)
I0322 16:08:52.128471 26392 net.cpp:165] Memory required for data: 2845179968
I0322 16:08:52.128494 26392 layer_factory.hpp:77] Creating layer res4a_branch2a_relu
I0322 16:08:52.128515 26392 net.cpp:106] Creating Layer res4a_branch2a_relu
I0322 16:08:52.128532 26392 net.cpp:454] res4a_branch2a_relu <- res4a_branch2a
I0322 16:08:52.128551 26392 net.cpp:397] res4a_branch2a_relu -> res4a_branch2a (in-place)
I0322 16:08:52.128573 26392 net.cpp:150] Setting up res4a_branch2a_relu
I0322 16:08:52.128593 26392 net.cpp:157] Top shape: 16 256 14 14 (802816)
I0322 16:08:52.128607 26392 net.cpp:165] Memory required for data: 2848391232
I0322 16:08:52.128644 26392 layer_factory.hpp:77] Creating layer res4a_branch2b
I0322 16:08:52.128675 26392 net.cpp:106] Creating Layer res4a_branch2b
I0322 16:08:52.128692 26392 net.cpp:454] res4a_branch2b <- res4a_branch2a
I0322 16:08:52.128718 26392 net.cpp:411] res4a_branch2b -> res4a_branch2b
I0322 16:08:52.131553 26392 net.cpp:150] Setting up res4a_branch2b
I0322 16:08:52.131592 26392 net.cpp:157] Top shape: 16 256 14 14 (802816)
I0322 16:08:52.131608 26392 net.cpp:165] Memory required for data: 2851602496
I0322 16:08:52.131628 26392 layer_factory.hpp:77] Creating layer bn4a_branch2b
I0322 16:08:52.131651 26392 net.cpp:106] Creating Layer bn4a_branch2b
I0322 16:08:52.131669 26392 net.cpp:454] bn4a_branch2b <- res4a_branch2b
I0322 16:08:52.131695 26392 net.cpp:397] bn4a_branch2b -> res4a_branch2b (in-place)
I0322 16:08:52.132055 26392 net.cpp:150] Setting up bn4a_branch2b
I0322 16:08:52.132084 26392 net.cpp:157] Top shape: 16 256 14 14 (802816)
I0322 16:08:52.132100 26392 net.cpp:165] Memory required for data: 2854813760
I0322 16:08:52.132128 26392 layer_factory.hpp:77] Creating layer scale4a_branch2b
I0322 16:08:52.132175 26392 net.cpp:106] Creating Layer scale4a_branch2b
I0322 16:08:52.132194 26392 net.cpp:454] scale4a_branch2b <- res4a_branch2b
I0322 16:08:52.132215 26392 net.cpp:397] scale4a_branch2b -> res4a_branch2b (in-place)
I0322 16:08:52.132313 26392 layer_factory.hpp:77] Creating layer scale4a_branch2b
I0322 16:08:52.132541 26392 net.cpp:150] Setting up scale4a_branch2b
I0322 16:08:52.132570 26392 net.cpp:157] Top shape: 16 256 14 14 (802816)
I0322 16:08:52.132586 26392 net.cpp:165] Memory required for data: 2858025024
I0322 16:08:52.132608 26392 layer_factory.hpp:77] Creating layer res4a_branch2b_relu
I0322 16:08:52.132649 26392 net.cpp:106] Creating Layer res4a_branch2b_relu
I0322 16:08:52.132668 26392 net.cpp:454] res4a_branch2b_relu <- res4a_branch2b
I0322 16:08:52.132696 26392 net.cpp:397] res4a_branch2b_relu -> res4a_branch2b (in-place)
I0322 16:08:52.132720 26392 net.cpp:150] Setting up res4a_branch2b_relu
I0322 16:08:52.132741 26392 net.cpp:157] Top shape: 16 256 14 14 (802816)
I0322 16:08:52.132755 26392 net.cpp:165] Memory required for data: 2861236288
I0322 16:08:52.132771 26392 layer_factory.hpp:77] Creating layer res4a_branch2c
I0322 16:08:52.132805 26392 net.cpp:106] Creating Layer res4a_branch2c
I0322 16:08:52.132822 26392 net.cpp:454] res4a_branch2c <- res4a_branch2b
I0322 16:08:52.132848 26392 net.cpp:411] res4a_branch2c -> res4a_branch2c
I0322 16:08:52.134362 26392 net.cpp:150] Setting up res4a_branch2c
I0322 16:08:52.134392 26392 net.cpp:157] Top shape: 16 1024 14 14 (3211264)
I0322 16:08:52.134404 26392 net.cpp:165] Memory required for data: 2874081344
I0322 16:08:52.134420 26392 layer_factory.hpp:77] Creating layer bn4a_branch2c
I0322 16:08:52.134438 26392 net.cpp:106] Creating Layer bn4a_branch2c
I0322 16:08:52.134451 26392 net.cpp:454] bn4a_branch2c <- res4a_branch2c
I0322 16:08:52.134466 26392 net.cpp:397] bn4a_branch2c -> res4a_branch2c (in-place)
I0322 16:08:52.134759 26392 net.cpp:150] Setting up bn4a_branch2c
I0322 16:08:52.134783 26392 net.cpp:157] Top shape: 16 1024 14 14 (3211264)
I0322 16:08:52.134795 26392 net.cpp:165] Memory required for data: 2886926400
I0322 16:08:52.134815 26392 layer_factory.hpp:77] Creating layer scale4a_branch2c
I0322 16:08:52.134841 26392 net.cpp:106] Creating Layer scale4a_branch2c
I0322 16:08:52.134856 26392 net.cpp:454] scale4a_branch2c <- res4a_branch2c
I0322 16:08:52.134872 26392 net.cpp:397] scale4a_branch2c -> res4a_branch2c (in-place)
I0322 16:08:52.134946 26392 layer_factory.hpp:77] Creating layer scale4a_branch2c
I0322 16:08:52.135174 26392 net.cpp:150] Setting up scale4a_branch2c
I0322 16:08:52.135205 26392 net.cpp:157] Top shape: 16 1024 14 14 (3211264)
I0322 16:08:52.135221 26392 net.cpp:165] Memory required for data: 2899771456
I0322 16:08:52.135244 26392 layer_factory.hpp:77] Creating layer res4a
I0322 16:08:52.135267 26392 net.cpp:106] Creating Layer res4a
I0322 16:08:52.135283 26392 net.cpp:454] res4a <- res4a_branch1
I0322 16:08:52.135301 26392 net.cpp:454] res4a <- res4a_branch2c
I0322 16:08:52.135327 26392 net.cpp:411] res4a -> res4a
I0322 16:08:52.135392 26392 net.cpp:150] Setting up res4a
I0322 16:08:52.135418 26392 net.cpp:157] Top shape: 16 1024 14 14 (3211264)
I0322 16:08:52.135434 26392 net.cpp:165] Memory required for data: 2912616512
I0322 16:08:52.135450 26392 layer_factory.hpp:77] Creating layer res4a_relu
I0322 16:08:52.135470 26392 net.cpp:106] Creating Layer res4a_relu
I0322 16:08:52.135488 26392 net.cpp:454] res4a_relu <- res4a
I0322 16:08:52.135506 26392 net.cpp:397] res4a_relu -> res4a (in-place)
I0322 16:08:52.135529 26392 net.cpp:150] Setting up res4a_relu
I0322 16:08:52.135547 26392 net.cpp:157] Top shape: 16 1024 14 14 (3211264)
I0322 16:08:52.135563 26392 net.cpp:165] Memory required for data: 2925461568
I0322 16:08:52.135579 26392 layer_factory.hpp:77] Creating layer res4a_res4a_relu_0_split
I0322 16:08:52.135602 26392 net.cpp:106] Creating Layer res4a_res4a_relu_0_split
I0322 16:08:52.135619 26392 net.cpp:454] res4a_res4a_relu_0_split <- res4a
I0322 16:08:52.135650 26392 net.cpp:411] res4a_res4a_relu_0_split -> res4a_res4a_relu_0_split_0
I0322 16:08:52.135695 26392 net.cpp:411] res4a_res4a_relu_0_split -> res4a_res4a_relu_0_split_1
I0322 16:08:52.135782 26392 net.cpp:150] Setting up res4a_res4a_relu_0_split
I0322 16:08:52.135808 26392 net.cpp:157] Top shape: 16 1024 14 14 (3211264)
I0322 16:08:52.135826 26392 net.cpp:157] Top shape: 16 1024 14 14 (3211264)
I0322 16:08:52.135841 26392 net.cpp:165] Memory required for data: 2951151680
I0322 16:08:52.135857 26392 layer_factory.hpp:77] Creating layer res4b_branch2a
I0322 16:08:52.135910 26392 net.cpp:106] Creating Layer res4b_branch2a
I0322 16:08:52.135931 26392 net.cpp:454] res4b_branch2a <- res4a_res4a_relu_0_split_0
I0322 16:08:52.135953 26392 net.cpp:411] res4b_branch2a -> res4b_branch2a
I0322 16:08:52.137547 26392 net.cpp:150] Setting up res4b_branch2a
I0322 16:08:52.137584 26392 net.cpp:157] Top shape: 16 256 14 14 (802816)
I0322 16:08:52.137601 26392 net.cpp:165] Memory required for data: 2954362944
I0322 16:08:52.137624 26392 layer_factory.hpp:77] Creating layer bn4b_branch2a
I0322 16:08:52.137645 26392 net.cpp:106] Creating Layer bn4b_branch2a
I0322 16:08:52.137663 26392 net.cpp:454] bn4b_branch2a <- res4b_branch2a
I0322 16:08:52.137687 26392 net.cpp:397] bn4b_branch2a -> res4b_branch2a (in-place)
I0322 16:08:52.138047 26392 net.cpp:150] Setting up bn4b_branch2a
I0322 16:08:52.138077 26392 net.cpp:157] Top shape: 16 256 14 14 (802816)
I0322 16:08:52.138093 26392 net.cpp:165] Memory required for data: 2957574208
I0322 16:08:52.138119 26392 layer_factory.hpp:77] Creating layer scale4b_branch2a
I0322 16:08:52.138144 26392 net.cpp:106] Creating Layer scale4b_branch2a
I0322 16:08:52.138160 26392 net.cpp:454] scale4b_branch2a <- res4b_branch2a
I0322 16:08:52.138180 26392 net.cpp:397] scale4b_branch2a -> res4b_branch2a (in-place)
I0322 16:08:52.138276 26392 layer_factory.hpp:77] Creating layer scale4b_branch2a
I0322 16:08:52.138504 26392 net.cpp:150] Setting up scale4b_branch2a
I0322 16:08:52.138532 26392 net.cpp:157] Top shape: 16 256 14 14 (802816)
I0322 16:08:52.138548 26392 net.cpp:165] Memory required for data: 2960785472
I0322 16:08:52.138571 26392 layer_factory.hpp:77] Creating layer res4b_branch2a_relu
I0322 16:08:52.138592 26392 net.cpp:106] Creating Layer res4b_branch2a_relu
I0322 16:08:52.138614 26392 net.cpp:454] res4b_branch2a_relu <- res4b_branch2a
I0322 16:08:52.138634 26392 net.cpp:397] res4b_branch2a_relu -> res4b_branch2a (in-place)
I0322 16:08:52.138656 26392 net.cpp:150] Setting up res4b_branch2a_relu
I0322 16:08:52.138676 26392 net.cpp:157] Top shape: 16 256 14 14 (802816)
I0322 16:08:52.138691 26392 net.cpp:165] Memory required for data: 2963996736
I0322 16:08:52.138706 26392 layer_factory.hpp:77] Creating layer res4b_branch2b
I0322 16:08:52.138731 26392 net.cpp:106] Creating Layer res4b_branch2b
I0322 16:08:52.138747 26392 net.cpp:454] res4b_branch2b <- res4b_branch2a
I0322 16:08:52.138772 26392 net.cpp:411] res4b_branch2b -> res4b_branch2b
I0322 16:08:52.141613 26392 net.cpp:150] Setting up res4b_branch2b
I0322 16:08:52.141651 26392 net.cpp:157] Top shape: 16 256 14 14 (802816)
I0322 16:08:52.141669 26392 net.cpp:165] Memory required for data: 2967208000
I0322 16:08:52.141690 26392 layer_factory.hpp:77] Creating layer bn4b_branch2b
I0322 16:08:52.141712 26392 net.cpp:106] Creating Layer bn4b_branch2b
I0322 16:08:52.141729 26392 net.cpp:454] bn4b_branch2b <- res4b_branch2b
I0322 16:08:52.141749 26392 net.cpp:397] bn4b_branch2b -> res4b_branch2b (in-place)
I0322 16:08:52.142110 26392 net.cpp:150] Setting up bn4b_branch2b
I0322 16:08:52.142140 26392 net.cpp:157] Top shape: 16 256 14 14 (802816)
I0322 16:08:52.142155 26392 net.cpp:165] Memory required for data: 2970419264
I0322 16:08:52.142186 26392 layer_factory.hpp:77] Creating layer scale4b_branch2b
I0322 16:08:52.142210 26392 net.cpp:106] Creating Layer scale4b_branch2b
I0322 16:08:52.142227 26392 net.cpp:454] scale4b_branch2b <- res4b_branch2b
I0322 16:08:52.142247 26392 net.cpp:397] scale4b_branch2b -> res4b_branch2b (in-place)
I0322 16:08:52.142354 26392 layer_factory.hpp:77] Creating layer scale4b_branch2b
I0322 16:08:52.142606 26392 net.cpp:150] Setting up scale4b_branch2b
I0322 16:08:52.142637 26392 net.cpp:157] Top shape: 16 256 14 14 (802816)
I0322 16:08:52.142652 26392 net.cpp:165] Memory required for data: 2973630528
I0322 16:08:52.142675 26392 layer_factory.hpp:77] Creating layer res4b_branch2b_relu
I0322 16:08:52.142701 26392 net.cpp:106] Creating Layer res4b_branch2b_relu
I0322 16:08:52.142719 26392 net.cpp:454] res4b_branch2b_relu <- res4b_branch2b
I0322 16:08:52.142740 26392 net.cpp:397] res4b_branch2b_relu -> res4b_branch2b (in-place)
I0322 16:08:52.142762 26392 net.cpp:150] Setting up res4b_branch2b_relu
I0322 16:08:52.142782 26392 net.cpp:157] Top shape: 16 256 14 14 (802816)
I0322 16:08:52.142797 26392 net.cpp:165] Memory required for data: 2976841792
I0322 16:08:52.142812 26392 layer_factory.hpp:77] Creating layer res4b_branch2c
I0322 16:08:52.142840 26392 net.cpp:106] Creating Layer res4b_branch2c
I0322 16:08:52.142858 26392 net.cpp:454] res4b_branch2c <- res4b_branch2b
I0322 16:08:52.142879 26392 net.cpp:411] res4b_branch2c -> res4b_branch2c
I0322 16:08:52.144451 26392 net.cpp:150] Setting up res4b_branch2c
I0322 16:08:52.144489 26392 net.cpp:157] Top shape: 16 1024 14 14 (3211264)
I0322 16:08:52.144505 26392 net.cpp:165] Memory required for data: 2989686848
I0322 16:08:52.144526 26392 layer_factory.hpp:77] Creating layer bn4b_branch2c
I0322 16:08:52.144552 26392 net.cpp:106] Creating Layer bn4b_branch2c
I0322 16:08:52.144572 26392 net.cpp:454] bn4b_branch2c <- res4b_branch2c
I0322 16:08:52.144592 26392 net.cpp:397] bn4b_branch2c -> res4b_branch2c (in-place)
I0322 16:08:52.144973 26392 net.cpp:150] Setting up bn4b_branch2c
I0322 16:08:52.145005 26392 net.cpp:157] Top shape: 16 1024 14 14 (3211264)
I0322 16:08:52.145021 26392 net.cpp:165] Memory required for data: 3002531904
I0322 16:08:52.145047 26392 layer_factory.hpp:77] Creating layer scale4b_branch2c
I0322 16:08:52.145069 26392 net.cpp:106] Creating Layer scale4b_branch2c
I0322 16:08:52.145087 26392 net.cpp:454] scale4b_branch2c <- res4b_branch2c
I0322 16:08:52.145110 26392 net.cpp:397] scale4b_branch2c -> res4b_branch2c (in-place)
I0322 16:08:52.145198 26392 layer_factory.hpp:77] Creating layer scale4b_branch2c
I0322 16:08:52.145439 26392 net.cpp:150] Setting up scale4b_branch2c
I0322 16:08:52.145468 26392 net.cpp:157] Top shape: 16 1024 14 14 (3211264)
I0322 16:08:52.145484 26392 net.cpp:165] Memory required for data: 3015376960
I0322 16:08:52.145506 26392 layer_factory.hpp:77] Creating layer res4b
I0322 16:08:52.145529 26392 net.cpp:106] Creating Layer res4b
I0322 16:08:52.145546 26392 net.cpp:454] res4b <- res4a_res4a_relu_0_split_1
I0322 16:08:52.145565 26392 net.cpp:454] res4b <- res4b_branch2c
I0322 16:08:52.145584 26392 net.cpp:411] res4b -> res4b
I0322 16:08:52.145648 26392 net.cpp:150] Setting up res4b
I0322 16:08:52.145674 26392 net.cpp:157] Top shape: 16 1024 14 14 (3211264)
I0322 16:08:52.145690 26392 net.cpp:165] Memory required for data: 3028222016
I0322 16:08:52.145707 26392 layer_factory.hpp:77] Creating layer res4b_relu
I0322 16:08:52.145735 26392 net.cpp:106] Creating Layer res4b_relu
I0322 16:08:52.145753 26392 net.cpp:454] res4b_relu <- res4b
I0322 16:08:52.145772 26392 net.cpp:397] res4b_relu -> res4b (in-place)
I0322 16:08:52.145795 26392 net.cpp:150] Setting up res4b_relu
I0322 16:08:52.145814 26392 net.cpp:157] Top shape: 16 1024 14 14 (3211264)
I0322 16:08:52.145829 26392 net.cpp:165] Memory required for data: 3041067072
I0322 16:08:52.145845 26392 layer_factory.hpp:77] Creating layer res4b_res4b_relu_0_split
I0322 16:08:52.145864 26392 net.cpp:106] Creating Layer res4b_res4b_relu_0_split
I0322 16:08:52.145880 26392 net.cpp:454] res4b_res4b_relu_0_split <- res4b
I0322 16:08:52.145900 26392 net.cpp:411] res4b_res4b_relu_0_split -> res4b_res4b_relu_0_split_0
I0322 16:08:52.145926 26392 net.cpp:411] res4b_res4b_relu_0_split -> res4b_res4b_relu_0_split_1
I0322 16:08:52.146005 26392 net.cpp:150] Setting up res4b_res4b_relu_0_split
I0322 16:08:52.146031 26392 net.cpp:157] Top shape: 16 1024 14 14 (3211264)
I0322 16:08:52.146075 26392 net.cpp:157] Top shape: 16 1024 14 14 (3211264)
I0322 16:08:52.146092 26392 net.cpp:165] Memory required for data: 3066757184
I0322 16:08:52.146108 26392 layer_factory.hpp:77] Creating layer res4c_branch2a
I0322 16:08:52.146142 26392 net.cpp:106] Creating Layer res4c_branch2a
I0322 16:08:52.146162 26392 net.cpp:454] res4c_branch2a <- res4b_res4b_relu_0_split_0
I0322 16:08:52.146183 26392 net.cpp:411] res4c_branch2a -> res4c_branch2a
I0322 16:08:52.147773 26392 net.cpp:150] Setting up res4c_branch2a
I0322 16:08:52.147809 26392 net.cpp:157] Top shape: 16 256 14 14 (802816)
I0322 16:08:52.147826 26392 net.cpp:165] Memory required for data: 3069968448
I0322 16:08:52.147847 26392 layer_factory.hpp:77] Creating layer bn4c_branch2a
I0322 16:08:52.147869 26392 net.cpp:106] Creating Layer bn4c_branch2a
I0322 16:08:52.147886 26392 net.cpp:454] bn4c_branch2a <- res4c_branch2a
I0322 16:08:52.147912 26392 net.cpp:397] bn4c_branch2a -> res4c_branch2a (in-place)
I0322 16:08:52.148278 26392 net.cpp:150] Setting up bn4c_branch2a
I0322 16:08:52.148308 26392 net.cpp:157] Top shape: 16 256 14 14 (802816)
I0322 16:08:52.148324 26392 net.cpp:165] Memory required for data: 3073179712
I0322 16:08:52.148350 26392 layer_factory.hpp:77] Creating layer scale4c_branch2a
I0322 16:08:52.148371 26392 net.cpp:106] Creating Layer scale4c_branch2a
I0322 16:08:52.148388 26392 net.cpp:454] scale4c_branch2a <- res4c_branch2a
I0322 16:08:52.148407 26392 net.cpp:397] scale4c_branch2a -> res4c_branch2a (in-place)
I0322 16:08:52.148504 26392 layer_factory.hpp:77] Creating layer scale4c_branch2a
I0322 16:08:52.148746 26392 net.cpp:150] Setting up scale4c_branch2a
I0322 16:08:52.148778 26392 net.cpp:157] Top shape: 16 256 14 14 (802816)
I0322 16:08:52.148794 26392 net.cpp:165] Memory required for data: 3076390976
I0322 16:08:52.148816 26392 layer_factory.hpp:77] Creating layer res4c_branch2a_relu
I0322 16:08:52.148838 26392 net.cpp:106] Creating Layer res4c_branch2a_relu
I0322 16:08:52.148854 26392 net.cpp:454] res4c_branch2a_relu <- res4c_branch2a
I0322 16:08:52.148879 26392 net.cpp:397] res4c_branch2a_relu -> res4c_branch2a (in-place)
I0322 16:08:52.148901 26392 net.cpp:150] Setting up res4c_branch2a_relu
I0322 16:08:52.148921 26392 net.cpp:157] Top shape: 16 256 14 14 (802816)
I0322 16:08:52.148936 26392 net.cpp:165] Memory required for data: 3079602240
I0322 16:08:52.148952 26392 layer_factory.hpp:77] Creating layer res4c_branch2b
I0322 16:08:52.148975 26392 net.cpp:106] Creating Layer res4c_branch2b
I0322 16:08:52.148991 26392 net.cpp:454] res4c_branch2b <- res4c_branch2a
I0322 16:08:52.149018 26392 net.cpp:411] res4c_branch2b -> res4c_branch2b
I0322 16:08:52.151850 26392 net.cpp:150] Setting up res4c_branch2b
I0322 16:08:52.151888 26392 net.cpp:157] Top shape: 16 256 14 14 (802816)
I0322 16:08:52.151906 26392 net.cpp:165] Memory required for data: 3082813504
I0322 16:08:52.151926 26392 layer_factory.hpp:77] Creating layer bn4c_branch2b
I0322 16:08:52.151954 26392 net.cpp:106] Creating Layer bn4c_branch2b
I0322 16:08:52.151973 26392 net.cpp:454] bn4c_branch2b <- res4c_branch2b
I0322 16:08:52.151993 26392 net.cpp:397] bn4c_branch2b -> res4c_branch2b (in-place)
I0322 16:08:52.152364 26392 net.cpp:150] Setting up bn4c_branch2b
I0322 16:08:52.152392 26392 net.cpp:157] Top shape: 16 256 14 14 (802816)
I0322 16:08:52.152407 26392 net.cpp:165] Memory required for data: 3086024768
I0322 16:08:52.152433 26392 layer_factory.hpp:77] Creating layer scale4c_branch2b
I0322 16:08:52.152456 26392 net.cpp:106] Creating Layer scale4c_branch2b
I0322 16:08:52.152473 26392 net.cpp:454] scale4c_branch2b <- res4c_branch2b
I0322 16:08:52.152493 26392 net.cpp:397] scale4c_branch2b -> res4c_branch2b (in-place)
I0322 16:08:52.152595 26392 layer_factory.hpp:77] Creating layer scale4c_branch2b
I0322 16:08:52.152847 26392 net.cpp:150] Setting up scale4c_branch2b
I0322 16:08:52.152878 26392 net.cpp:157] Top shape: 16 256 14 14 (802816)
I0322 16:08:52.152894 26392 net.cpp:165] Memory required for data: 3089236032
I0322 16:08:52.152927 26392 layer_factory.hpp:77] Creating layer res4c_branch2b_relu
I0322 16:08:52.152969 26392 net.cpp:106] Creating Layer res4c_branch2b_relu
I0322 16:08:52.152989 26392 net.cpp:454] res4c_branch2b_relu <- res4c_branch2b
I0322 16:08:52.153008 26392 net.cpp:397] res4c_branch2b_relu -> res4c_branch2b (in-place)
I0322 16:08:52.153030 26392 net.cpp:150] Setting up res4c_branch2b_relu
I0322 16:08:52.153050 26392 net.cpp:157] Top shape: 16 256 14 14 (802816)
I0322 16:08:52.153065 26392 net.cpp:165] Memory required for data: 3092447296
I0322 16:08:52.153081 26392 layer_factory.hpp:77] Creating layer res4c_branch2c
I0322 16:08:52.153110 26392 net.cpp:106] Creating Layer res4c_branch2c
I0322 16:08:52.153127 26392 net.cpp:454] res4c_branch2c <- res4c_branch2b
I0322 16:08:52.153148 26392 net.cpp:411] res4c_branch2c -> res4c_branch2c
I0322 16:08:52.154738 26392 net.cpp:150] Setting up res4c_branch2c
I0322 16:08:52.154775 26392 net.cpp:157] Top shape: 16 1024 14 14 (3211264)
I0322 16:08:52.154793 26392 net.cpp:165] Memory required for data: 3105292352
I0322 16:08:52.154813 26392 layer_factory.hpp:77] Creating layer bn4c_branch2c
I0322 16:08:52.154834 26392 net.cpp:106] Creating Layer bn4c_branch2c
I0322 16:08:52.154852 26392 net.cpp:454] bn4c_branch2c <- res4c_branch2c
I0322 16:08:52.154872 26392 net.cpp:397] bn4c_branch2c -> res4c_branch2c (in-place)
I0322 16:08:52.155251 26392 net.cpp:150] Setting up bn4c_branch2c
I0322 16:08:52.155280 26392 net.cpp:157] Top shape: 16 1024 14 14 (3211264)
I0322 16:08:52.155297 26392 net.cpp:165] Memory required for data: 3118137408
I0322 16:08:52.155328 26392 layer_factory.hpp:77] Creating layer scale4c_branch2c
I0322 16:08:52.155350 26392 net.cpp:106] Creating Layer scale4c_branch2c
I0322 16:08:52.155367 26392 net.cpp:454] scale4c_branch2c <- res4c_branch2c
I0322 16:08:52.155387 26392 net.cpp:397] scale4c_branch2c -> res4c_branch2c (in-place)
I0322 16:08:52.155484 26392 layer_factory.hpp:77] Creating layer scale4c_branch2c
I0322 16:08:52.155735 26392 net.cpp:150] Setting up scale4c_branch2c
I0322 16:08:52.155764 26392 net.cpp:157] Top shape: 16 1024 14 14 (3211264)
I0322 16:08:52.155781 26392 net.cpp:165] Memory required for data: 3130982464
I0322 16:08:52.155803 26392 layer_factory.hpp:77] Creating layer res4c
I0322 16:08:52.155830 26392 net.cpp:106] Creating Layer res4c
I0322 16:08:52.155848 26392 net.cpp:454] res4c <- res4b_res4b_relu_0_split_1
I0322 16:08:52.155866 26392 net.cpp:454] res4c <- res4c_branch2c
I0322 16:08:52.155887 26392 net.cpp:411] res4c -> res4c
I0322 16:08:52.155952 26392 net.cpp:150] Setting up res4c
I0322 16:08:52.155979 26392 net.cpp:157] Top shape: 16 1024 14 14 (3211264)
I0322 16:08:52.155995 26392 net.cpp:165] Memory required for data: 3143827520
I0322 16:08:52.156013 26392 layer_factory.hpp:77] Creating layer res4c_relu
I0322 16:08:52.156031 26392 net.cpp:106] Creating Layer res4c_relu
I0322 16:08:52.156049 26392 net.cpp:454] res4c_relu <- res4c
I0322 16:08:52.156072 26392 net.cpp:397] res4c_relu -> res4c (in-place)
I0322 16:08:52.156096 26392 net.cpp:150] Setting up res4c_relu
I0322 16:08:52.156116 26392 net.cpp:157] Top shape: 16 1024 14 14 (3211264)
I0322 16:08:52.156131 26392 net.cpp:165] Memory required for data: 3156672576
I0322 16:08:52.156147 26392 layer_factory.hpp:77] Creating layer res4c_res4c_relu_0_split
I0322 16:08:52.156167 26392 net.cpp:106] Creating Layer res4c_res4c_relu_0_split
I0322 16:08:52.156183 26392 net.cpp:454] res4c_res4c_relu_0_split <- res4c
I0322 16:08:52.156201 26392 net.cpp:411] res4c_res4c_relu_0_split -> res4c_res4c_relu_0_split_0
I0322 16:08:52.156224 26392 net.cpp:411] res4c_res4c_relu_0_split -> res4c_res4c_relu_0_split_1
I0322 16:08:52.156308 26392 net.cpp:150] Setting up res4c_res4c_relu_0_split
I0322 16:08:52.156334 26392 net.cpp:157] Top shape: 16 1024 14 14 (3211264)
I0322 16:08:52.156353 26392 net.cpp:157] Top shape: 16 1024 14 14 (3211264)
I0322 16:08:52.156368 26392 net.cpp:165] Memory required for data: 3182362688
I0322 16:08:52.156384 26392 layer_factory.hpp:77] Creating layer res4d_branch2a
I0322 16:08:52.156407 26392 net.cpp:106] Creating Layer res4d_branch2a
I0322 16:08:52.156448 26392 net.cpp:454] res4d_branch2a <- res4c_res4c_relu_0_split_0
I0322 16:08:52.156471 26392 net.cpp:411] res4d_branch2a -> res4d_branch2a
I0322 16:08:52.158154 26392 net.cpp:150] Setting up res4d_branch2a
I0322 16:08:52.158191 26392 net.cpp:157] Top shape: 16 256 14 14 (802816)
I0322 16:08:52.158208 26392 net.cpp:165] Memory required for data: 3185573952
I0322 16:08:52.158229 26392 layer_factory.hpp:77] Creating layer bn4d_branch2a
I0322 16:08:52.158252 26392 net.cpp:106] Creating Layer bn4d_branch2a
I0322 16:08:52.158270 26392 net.cpp:454] bn4d_branch2a <- res4d_branch2a
I0322 16:08:52.158289 26392 net.cpp:397] bn4d_branch2a -> res4d_branch2a (in-place)
I0322 16:08:52.158664 26392 net.cpp:150] Setting up bn4d_branch2a
I0322 16:08:52.158694 26392 net.cpp:157] Top shape: 16 256 14 14 (802816)
I0322 16:08:52.158710 26392 net.cpp:165] Memory required for data: 3188785216
I0322 16:08:52.158735 26392 layer_factory.hpp:77] Creating layer scale4d_branch2a
I0322 16:08:52.158762 26392 net.cpp:106] Creating Layer scale4d_branch2a
I0322 16:08:52.158781 26392 net.cpp:454] scale4d_branch2a <- res4d_branch2a
I0322 16:08:52.158800 26392 net.cpp:397] scale4d_branch2a -> res4d_branch2a (in-place)
I0322 16:08:52.158898 26392 layer_factory.hpp:77] Creating layer scale4d_branch2a
I0322 16:08:52.159144 26392 net.cpp:150] Setting up scale4d_branch2a
I0322 16:08:52.159173 26392 net.cpp:157] Top shape: 16 256 14 14 (802816)
I0322 16:08:52.159189 26392 net.cpp:165] Memory required for data: 3191996480
I0322 16:08:52.159212 26392 layer_factory.hpp:77] Creating layer res4d_branch2a_relu
I0322 16:08:52.159234 26392 net.cpp:106] Creating Layer res4d_branch2a_relu
I0322 16:08:52.159250 26392 net.cpp:454] res4d_branch2a_relu <- res4d_branch2a
I0322 16:08:52.159274 26392 net.cpp:397] res4d_branch2a_relu -> res4d_branch2a (in-place)
I0322 16:08:52.159298 26392 net.cpp:150] Setting up res4d_branch2a_relu
I0322 16:08:52.159318 26392 net.cpp:157] Top shape: 16 256 14 14 (802816)
I0322 16:08:52.159334 26392 net.cpp:165] Memory required for data: 3195207744
I0322 16:08:52.159349 26392 layer_factory.hpp:77] Creating layer res4d_branch2b
I0322 16:08:52.159373 26392 net.cpp:106] Creating Layer res4d_branch2b
I0322 16:08:52.159394 26392 net.cpp:454] res4d_branch2b <- res4d_branch2a
I0322 16:08:52.159415 26392 net.cpp:411] res4d_branch2b -> res4d_branch2b
I0322 16:08:52.162251 26392 net.cpp:150] Setting up res4d_branch2b
I0322 16:08:52.162289 26392 net.cpp:157] Top shape: 16 256 14 14 (802816)
I0322 16:08:52.162305 26392 net.cpp:165] Memory required for data: 3198419008
I0322 16:08:52.162327 26392 layer_factory.hpp:77] Creating layer bn4d_branch2b
I0322 16:08:52.162353 26392 net.cpp:106] Creating Layer bn4d_branch2b
I0322 16:08:52.162371 26392 net.cpp:454] bn4d_branch2b <- res4d_branch2b
I0322 16:08:52.162391 26392 net.cpp:397] bn4d_branch2b -> res4d_branch2b (in-place)
I0322 16:08:52.162771 26392 net.cpp:150] Setting up bn4d_branch2b
I0322 16:08:52.162801 26392 net.cpp:157] Top shape: 16 256 14 14 (802816)
I0322 16:08:52.162817 26392 net.cpp:165] Memory required for data: 3201630272
I0322 16:08:52.162842 26392 layer_factory.hpp:77] Creating layer scale4d_branch2b
I0322 16:08:52.162865 26392 net.cpp:106] Creating Layer scale4d_branch2b
I0322 16:08:52.162881 26392 net.cpp:454] scale4d_branch2b <- res4d_branch2b
I0322 16:08:52.162901 26392 net.cpp:397] scale4d_branch2b -> res4d_branch2b (in-place)
I0322 16:08:52.162998 26392 layer_factory.hpp:77] Creating layer scale4d_branch2b
I0322 16:08:52.163238 26392 net.cpp:150] Setting up scale4d_branch2b
I0322 16:08:52.163266 26392 net.cpp:157] Top shape: 16 256 14 14 (802816)
I0322 16:08:52.163282 26392 net.cpp:165] Memory required for data: 3204841536
I0322 16:08:52.163305 26392 layer_factory.hpp:77] Creating layer res4d_branch2b_relu
I0322 16:08:52.163331 26392 net.cpp:106] Creating Layer res4d_branch2b_relu
I0322 16:08:52.163348 26392 net.cpp:454] res4d_branch2b_relu <- res4d_branch2b
I0322 16:08:52.163367 26392 net.cpp:397] res4d_branch2b_relu -> res4d_branch2b (in-place)
I0322 16:08:52.163400 26392 net.cpp:150] Setting up res4d_branch2b_relu
I0322 16:08:52.163437 26392 net.cpp:157] Top shape: 16 256 14 14 (802816)
I0322 16:08:52.163453 26392 net.cpp:165] Memory required for data: 3208052800
I0322 16:08:52.163470 26392 layer_factory.hpp:77] Creating layer res4d_branch2c
I0322 16:08:52.163497 26392 net.cpp:106] Creating Layer res4d_branch2c
I0322 16:08:52.163516 26392 net.cpp:454] res4d_branch2c <- res4d_branch2b
I0322 16:08:52.163535 26392 net.cpp:411] res4d_branch2c -> res4d_branch2c
I0322 16:08:52.165150 26392 net.cpp:150] Setting up res4d_branch2c
I0322 16:08:52.165189 26392 net.cpp:157] Top shape: 16 1024 14 14 (3211264)
I0322 16:08:52.165205 26392 net.cpp:165] Memory required for data: 3220897856
I0322 16:08:52.165225 26392 layer_factory.hpp:77] Creating layer bn4d_branch2c
I0322 16:08:52.165248 26392 net.cpp:106] Creating Layer bn4d_branch2c
I0322 16:08:52.165264 26392 net.cpp:454] bn4d_branch2c <- res4d_branch2c
I0322 16:08:52.165284 26392 net.cpp:397] bn4d_branch2c -> res4d_branch2c (in-place)
I0322 16:08:52.165675 26392 net.cpp:150] Setting up bn4d_branch2c
I0322 16:08:52.165705 26392 net.cpp:157] Top shape: 16 1024 14 14 (3211264)
I0322 16:08:52.165720 26392 net.cpp:165] Memory required for data: 3233742912
I0322 16:08:52.165751 26392 layer_factory.hpp:77] Creating layer scale4d_branch2c
I0322 16:08:52.165776 26392 net.cpp:106] Creating Layer scale4d_branch2c
I0322 16:08:52.165792 26392 net.cpp:454] scale4d_branch2c <- res4d_branch2c
I0322 16:08:52.165812 26392 net.cpp:397] scale4d_branch2c -> res4d_branch2c (in-place)
I0322 16:08:52.165913 26392 layer_factory.hpp:77] Creating layer scale4d_branch2c
I0322 16:08:52.166165 26392 net.cpp:150] Setting up scale4d_branch2c
I0322 16:08:52.166194 26392 net.cpp:157] Top shape: 16 1024 14 14 (3211264)
I0322 16:08:52.166210 26392 net.cpp:165] Memory required for data: 3246587968
I0322 16:08:52.166234 26392 layer_factory.hpp:77] Creating layer res4d
I0322 16:08:52.166260 26392 net.cpp:106] Creating Layer res4d
I0322 16:08:52.166278 26392 net.cpp:454] res4d <- res4c_res4c_relu_0_split_1
I0322 16:08:52.166297 26392 net.cpp:454] res4d <- res4d_branch2c
I0322 16:08:52.166318 26392 net.cpp:411] res4d -> res4d
I0322 16:08:52.166384 26392 net.cpp:150] Setting up res4d
I0322 16:08:52.166411 26392 net.cpp:157] Top shape: 16 1024 14 14 (3211264)
I0322 16:08:52.166427 26392 net.cpp:165] Memory required for data: 3259433024
I0322 16:08:52.166443 26392 layer_factory.hpp:77] Creating layer res4d_relu
I0322 16:08:52.166463 26392 net.cpp:106] Creating Layer res4d_relu
I0322 16:08:52.166481 26392 net.cpp:454] res4d_relu <- res4d
I0322 16:08:52.166504 26392 net.cpp:397] res4d_relu -> res4d (in-place)
I0322 16:08:52.166527 26392 net.cpp:150] Setting up res4d_relu
I0322 16:08:52.166548 26392 net.cpp:157] Top shape: 16 1024 14 14 (3211264)
I0322 16:08:52.166563 26392 net.cpp:165] Memory required for data: 3272278080
I0322 16:08:52.166579 26392 layer_factory.hpp:77] Creating layer res4d_res4d_relu_0_split
I0322 16:08:52.166599 26392 net.cpp:106] Creating Layer res4d_res4d_relu_0_split
I0322 16:08:52.166615 26392 net.cpp:454] res4d_res4d_relu_0_split <- res4d
I0322 16:08:52.166633 26392 net.cpp:411] res4d_res4d_relu_0_split -> res4d_res4d_relu_0_split_0
I0322 16:08:52.166656 26392 net.cpp:411] res4d_res4d_relu_0_split -> res4d_res4d_relu_0_split_1
I0322 16:08:52.166741 26392 net.cpp:150] Setting up res4d_res4d_relu_0_split
I0322 16:08:52.166767 26392 net.cpp:157] Top shape: 16 1024 14 14 (3211264)
I0322 16:08:52.166786 26392 net.cpp:157] Top shape: 16 1024 14 14 (3211264)
I0322 16:08:52.166801 26392 net.cpp:165] Memory required for data: 3297968192
I0322 16:08:52.166817 26392 layer_factory.hpp:77] Creating layer res4e_branch2a
I0322 16:08:52.166841 26392 net.cpp:106] Creating Layer res4e_branch2a
I0322 16:08:52.166858 26392 net.cpp:454] res4e_branch2a <- res4d_res4d_relu_0_split_0
I0322 16:08:52.166879 26392 net.cpp:411] res4e_branch2a -> res4e_branch2a
I0322 16:08:52.168483 26392 net.cpp:150] Setting up res4e_branch2a
I0322 16:08:52.168519 26392 net.cpp:157] Top shape: 16 256 14 14 (802816)
I0322 16:08:52.168556 26392 net.cpp:165] Memory required for data: 3301179456
I0322 16:08:52.168579 26392 layer_factory.hpp:77] Creating layer bn4e_branch2a
I0322 16:08:52.168602 26392 net.cpp:106] Creating Layer bn4e_branch2a
I0322 16:08:52.168632 26392 net.cpp:454] bn4e_branch2a <- res4e_branch2a
I0322 16:08:52.168654 26392 net.cpp:397] bn4e_branch2a -> res4e_branch2a (in-place)
I0322 16:08:52.169040 26392 net.cpp:150] Setting up bn4e_branch2a
I0322 16:08:52.169070 26392 net.cpp:157] Top shape: 16 256 14 14 (802816)
I0322 16:08:52.169085 26392 net.cpp:165] Memory required for data: 3304390720
I0322 16:08:52.169111 26392 layer_factory.hpp:77] Creating layer scale4e_branch2a
I0322 16:08:52.169140 26392 net.cpp:106] Creating Layer scale4e_branch2a
I0322 16:08:52.169159 26392 net.cpp:454] scale4e_branch2a <- res4e_branch2a
I0322 16:08:52.169179 26392 net.cpp:397] scale4e_branch2a -> res4e_branch2a (in-place)
I0322 16:08:52.169281 26392 layer_factory.hpp:77] Creating layer scale4e_branch2a
I0322 16:08:52.169523 26392 net.cpp:150] Setting up scale4e_branch2a
I0322 16:08:52.169553 26392 net.cpp:157] Top shape: 16 256 14 14 (802816)
I0322 16:08:52.169567 26392 net.cpp:165] Memory required for data: 3307601984
I0322 16:08:52.169590 26392 layer_factory.hpp:77] Creating layer res4e_branch2a_relu
I0322 16:08:52.169611 26392 net.cpp:106] Creating Layer res4e_branch2a_relu
I0322 16:08:52.169628 26392 net.cpp:454] res4e_branch2a_relu <- res4e_branch2a
I0322 16:08:52.169651 26392 net.cpp:397] res4e_branch2a_relu -> res4e_branch2a (in-place)
I0322 16:08:52.169674 26392 net.cpp:150] Setting up res4e_branch2a_relu
I0322 16:08:52.169694 26392 net.cpp:157] Top shape: 16 256 14 14 (802816)
I0322 16:08:52.169709 26392 net.cpp:165] Memory required for data: 3310813248
I0322 16:08:52.169725 26392 layer_factory.hpp:77] Creating layer res4e_branch2b
I0322 16:08:52.169747 26392 net.cpp:106] Creating Layer res4e_branch2b
I0322 16:08:52.169764 26392 net.cpp:454] res4e_branch2b <- res4e_branch2a
I0322 16:08:52.169790 26392 net.cpp:411] res4e_branch2b -> res4e_branch2b
I0322 16:08:52.172633 26392 net.cpp:150] Setting up res4e_branch2b
I0322 16:08:52.172672 26392 net.cpp:157] Top shape: 16 256 14 14 (802816)
I0322 16:08:52.172688 26392 net.cpp:165] Memory required for data: 3314024512
I0322 16:08:52.172708 26392 layer_factory.hpp:77] Creating layer bn4e_branch2b
I0322 16:08:52.172736 26392 net.cpp:106] Creating Layer bn4e_branch2b
I0322 16:08:52.172755 26392 net.cpp:454] bn4e_branch2b <- res4e_branch2b
I0322 16:08:52.172776 26392 net.cpp:397] bn4e_branch2b -> res4e_branch2b (in-place)
I0322 16:08:52.173161 26392 net.cpp:150] Setting up bn4e_branch2b
I0322 16:08:52.173190 26392 net.cpp:157] Top shape: 16 256 14 14 (802816)
I0322 16:08:52.173207 26392 net.cpp:165] Memory required for data: 3317235776
I0322 16:08:52.173233 26392 layer_factory.hpp:77] Creating layer scale4e_branch2b
I0322 16:08:52.173255 26392 net.cpp:106] Creating Layer scale4e_branch2b
I0322 16:08:52.173271 26392 net.cpp:454] scale4e_branch2b <- res4e_branch2b
I0322 16:08:52.173291 26392 net.cpp:397] scale4e_branch2b -> res4e_branch2b (in-place)
I0322 16:08:52.173391 26392 layer_factory.hpp:77] Creating layer scale4e_branch2b
I0322 16:08:52.173631 26392 net.cpp:150] Setting up scale4e_branch2b
I0322 16:08:52.173660 26392 net.cpp:157] Top shape: 16 256 14 14 (802816)
I0322 16:08:52.173676 26392 net.cpp:165] Memory required for data: 3320447040
I0322 16:08:52.173698 26392 layer_factory.hpp:77] Creating layer res4e_branch2b_relu
I0322 16:08:52.173724 26392 net.cpp:106] Creating Layer res4e_branch2b_relu
I0322 16:08:52.173743 26392 net.cpp:454] res4e_branch2b_relu <- res4e_branch2b
I0322 16:08:52.173763 26392 net.cpp:397] res4e_branch2b_relu -> res4e_branch2b (in-place)
I0322 16:08:52.173784 26392 net.cpp:150] Setting up res4e_branch2b_relu
I0322 16:08:52.173804 26392 net.cpp:157] Top shape: 16 256 14 14 (802816)
I0322 16:08:52.173820 26392 net.cpp:165] Memory required for data: 3323658304
I0322 16:08:52.173835 26392 layer_factory.hpp:77] Creating layer res4e_branch2c
I0322 16:08:52.173874 26392 net.cpp:106] Creating Layer res4e_branch2c
I0322 16:08:52.173908 26392 net.cpp:454] res4e_branch2c <- res4e_branch2b
I0322 16:08:52.173933 26392 net.cpp:411] res4e_branch2c -> res4e_branch2c
I0322 16:08:52.175562 26392 net.cpp:150] Setting up res4e_branch2c
I0322 16:08:52.175599 26392 net.cpp:157] Top shape: 16 1024 14 14 (3211264)
I0322 16:08:52.175616 26392 net.cpp:165] Memory required for data: 3336503360
I0322 16:08:52.175637 26392 layer_factory.hpp:77] Creating layer bn4e_branch2c
I0322 16:08:52.175658 26392 net.cpp:106] Creating Layer bn4e_branch2c
I0322 16:08:52.175676 26392 net.cpp:454] bn4e_branch2c <- res4e_branch2c
I0322 16:08:52.175695 26392 net.cpp:397] bn4e_branch2c -> res4e_branch2c (in-place)
I0322 16:08:52.176091 26392 net.cpp:150] Setting up bn4e_branch2c
I0322 16:08:52.176121 26392 net.cpp:157] Top shape: 16 1024 14 14 (3211264)
I0322 16:08:52.176137 26392 net.cpp:165] Memory required for data: 3349348416
I0322 16:08:52.176167 26392 layer_factory.hpp:77] Creating layer scale4e_branch2c
I0322 16:08:52.176192 26392 net.cpp:106] Creating Layer scale4e_branch2c
I0322 16:08:52.176208 26392 net.cpp:454] scale4e_branch2c <- res4e_branch2c
I0322 16:08:52.176229 26392 net.cpp:397] scale4e_branch2c -> res4e_branch2c (in-place)
I0322 16:08:52.176326 26392 layer_factory.hpp:77] Creating layer scale4e_branch2c
I0322 16:08:52.176580 26392 net.cpp:150] Setting up scale4e_branch2c
I0322 16:08:52.176610 26392 net.cpp:157] Top shape: 16 1024 14 14 (3211264)
I0322 16:08:52.176640 26392 net.cpp:165] Memory required for data: 3362193472
I0322 16:08:52.176664 26392 layer_factory.hpp:77] Creating layer res4e
I0322 16:08:52.176692 26392 net.cpp:106] Creating Layer res4e
I0322 16:08:52.176709 26392 net.cpp:454] res4e <- res4d_res4d_relu_0_split_1
I0322 16:08:52.176728 26392 net.cpp:454] res4e <- res4e_branch2c
I0322 16:08:52.176748 26392 net.cpp:411] res4e -> res4e
I0322 16:08:52.176816 26392 net.cpp:150] Setting up res4e
I0322 16:08:52.176844 26392 net.cpp:157] Top shape: 16 1024 14 14 (3211264)
I0322 16:08:52.176861 26392 net.cpp:165] Memory required for data: 3375038528
I0322 16:08:52.176877 26392 layer_factory.hpp:77] Creating layer res4e_relu
I0322 16:08:52.176895 26392 net.cpp:106] Creating Layer res4e_relu
I0322 16:08:52.176913 26392 net.cpp:454] res4e_relu <- res4e
I0322 16:08:52.176936 26392 net.cpp:397] res4e_relu -> res4e (in-place)
I0322 16:08:52.176959 26392 net.cpp:150] Setting up res4e_relu
I0322 16:08:52.176980 26392 net.cpp:157] Top shape: 16 1024 14 14 (3211264)
I0322 16:08:52.176995 26392 net.cpp:165] Memory required for data: 3387883584
I0322 16:08:52.177011 26392 layer_factory.hpp:77] Creating layer res4e_res4e_relu_0_split
I0322 16:08:52.177029 26392 net.cpp:106] Creating Layer res4e_res4e_relu_0_split
I0322 16:08:52.177044 26392 net.cpp:454] res4e_res4e_relu_0_split <- res4e
I0322 16:08:52.177064 26392 net.cpp:411] res4e_res4e_relu_0_split -> res4e_res4e_relu_0_split_0
I0322 16:08:52.177088 26392 net.cpp:411] res4e_res4e_relu_0_split -> res4e_res4e_relu_0_split_1
I0322 16:08:52.177181 26392 net.cpp:150] Setting up res4e_res4e_relu_0_split
I0322 16:08:52.177208 26392 net.cpp:157] Top shape: 16 1024 14 14 (3211264)
I0322 16:08:52.177227 26392 net.cpp:157] Top shape: 16 1024 14 14 (3211264)
I0322 16:08:52.177242 26392 net.cpp:165] Memory required for data: 3413573696
I0322 16:08:52.177258 26392 layer_factory.hpp:77] Creating layer res4f_branch2a
I0322 16:08:52.177281 26392 net.cpp:106] Creating Layer res4f_branch2a
I0322 16:08:52.177299 26392 net.cpp:454] res4f_branch2a <- res4e_res4e_relu_0_split_0
I0322 16:08:52.177319 26392 net.cpp:411] res4f_branch2a -> res4f_branch2a
I0322 16:08:52.178923 26392 net.cpp:150] Setting up res4f_branch2a
I0322 16:08:52.178959 26392 net.cpp:157] Top shape: 16 256 14 14 (802816)
I0322 16:08:52.178977 26392 net.cpp:165] Memory required for data: 3416784960
I0322 16:08:52.178997 26392 layer_factory.hpp:77] Creating layer bn4f_branch2a
I0322 16:08:52.179020 26392 net.cpp:106] Creating Layer bn4f_branch2a
I0322 16:08:52.179049 26392 net.cpp:454] bn4f_branch2a <- res4f_branch2a
I0322 16:08:52.179085 26392 net.cpp:397] bn4f_branch2a -> res4f_branch2a (in-place)
I0322 16:08:52.179476 26392 net.cpp:150] Setting up bn4f_branch2a
I0322 16:08:52.179505 26392 net.cpp:157] Top shape: 16 256 14 14 (802816)
I0322 16:08:52.179522 26392 net.cpp:165] Memory required for data: 3419996224
I0322 16:08:52.179548 26392 layer_factory.hpp:77] Creating layer scale4f_branch2a
I0322 16:08:52.179576 26392 net.cpp:106] Creating Layer scale4f_branch2a
I0322 16:08:52.179594 26392 net.cpp:454] scale4f_branch2a <- res4f_branch2a
I0322 16:08:52.179615 26392 net.cpp:397] scale4f_branch2a -> res4f_branch2a (in-place)
I0322 16:08:52.179715 26392 layer_factory.hpp:77] Creating layer scale4f_branch2a
I0322 16:08:52.179956 26392 net.cpp:150] Setting up scale4f_branch2a
I0322 16:08:52.179986 26392 net.cpp:157] Top shape: 16 256 14 14 (802816)
I0322 16:08:52.180001 26392 net.cpp:165] Memory required for data: 3423207488
I0322 16:08:52.180023 26392 layer_factory.hpp:77] Creating layer res4f_branch2a_relu
I0322 16:08:52.180044 26392 net.cpp:106] Creating Layer res4f_branch2a_relu
I0322 16:08:52.180061 26392 net.cpp:454] res4f_branch2a_relu <- res4f_branch2a
I0322 16:08:52.180085 26392 net.cpp:397] res4f_branch2a_relu -> res4f_branch2a (in-place)
I0322 16:08:52.180109 26392 net.cpp:150] Setting up res4f_branch2a_relu
I0322 16:08:52.180129 26392 net.cpp:157] Top shape: 16 256 14 14 (802816)
I0322 16:08:52.180143 26392 net.cpp:165] Memory required for data: 3426418752
I0322 16:08:52.180160 26392 layer_factory.hpp:77] Creating layer res4f_branch2b
I0322 16:08:52.180181 26392 net.cpp:106] Creating Layer res4f_branch2b
I0322 16:08:52.180198 26392 net.cpp:454] res4f_branch2b <- res4f_branch2a
I0322 16:08:52.180224 26392 net.cpp:411] res4f_branch2b -> res4f_branch2b
I0322 16:08:52.183074 26392 net.cpp:150] Setting up res4f_branch2b
I0322 16:08:52.183112 26392 net.cpp:157] Top shape: 16 256 14 14 (802816)
I0322 16:08:52.183130 26392 net.cpp:165] Memory required for data: 3429630016
I0322 16:08:52.183151 26392 layer_factory.hpp:77] Creating layer bn4f_branch2b
I0322 16:08:52.183178 26392 net.cpp:106] Creating Layer bn4f_branch2b
I0322 16:08:52.183197 26392 net.cpp:454] bn4f_branch2b <- res4f_branch2b
I0322 16:08:52.183218 26392 net.cpp:397] bn4f_branch2b -> res4f_branch2b (in-place)
I0322 16:08:52.183606 26392 net.cpp:150] Setting up bn4f_branch2b
I0322 16:08:52.183636 26392 net.cpp:157] Top shape: 16 256 14 14 (802816)
I0322 16:08:52.183652 26392 net.cpp:165] Memory required for data: 3432841280
I0322 16:08:52.183678 26392 layer_factory.hpp:77] Creating layer scale4f_branch2b
I0322 16:08:52.183701 26392 net.cpp:106] Creating Layer scale4f_branch2b
I0322 16:08:52.183717 26392 net.cpp:454] scale4f_branch2b <- res4f_branch2b
I0322 16:08:52.183737 26392 net.cpp:397] scale4f_branch2b -> res4f_branch2b (in-place)
I0322 16:08:52.183843 26392 layer_factory.hpp:77] Creating layer scale4f_branch2b
I0322 16:08:52.184087 26392 net.cpp:150] Setting up scale4f_branch2b
I0322 16:08:52.184116 26392 net.cpp:157] Top shape: 16 256 14 14 (802816)
I0322 16:08:52.184132 26392 net.cpp:165] Memory required for data: 3436052544
I0322 16:08:52.184154 26392 layer_factory.hpp:77] Creating layer res4f_branch2b_relu
I0322 16:08:52.184177 26392 net.cpp:106] Creating Layer res4f_branch2b_relu
I0322 16:08:52.184200 26392 net.cpp:454] res4f_branch2b_relu <- res4f_branch2b
I0322 16:08:52.184219 26392 net.cpp:397] res4f_branch2b_relu -> res4f_branch2b (in-place)
I0322 16:08:52.184242 26392 net.cpp:150] Setting up res4f_branch2b_relu
I0322 16:08:52.184262 26392 net.cpp:157] Top shape: 16 256 14 14 (802816)
I0322 16:08:52.184278 26392 net.cpp:165] Memory required for data: 3439263808
I0322 16:08:52.184293 26392 layer_factory.hpp:77] Creating layer res4f_branch2c
I0322 16:08:52.184316 26392 net.cpp:106] Creating Layer res4f_branch2c
I0322 16:08:52.184332 26392 net.cpp:454] res4f_branch2c <- res4f_branch2b
I0322 16:08:52.184356 26392 net.cpp:411] res4f_branch2c -> res4f_branch2c
I0322 16:08:52.185981 26392 net.cpp:150] Setting up res4f_branch2c
I0322 16:08:52.186029 26392 net.cpp:157] Top shape: 16 1024 14 14 (3211264)
I0322 16:08:52.186063 26392 net.cpp:165] Memory required for data: 3452108864
I0322 16:08:52.186084 26392 layer_factory.hpp:77] Creating layer bn4f_branch2c
I0322 16:08:52.186107 26392 net.cpp:106] Creating Layer bn4f_branch2c
I0322 16:08:52.186125 26392 net.cpp:454] bn4f_branch2c <- res4f_branch2c
I0322 16:08:52.186144 26392 net.cpp:397] bn4f_branch2c -> res4f_branch2c (in-place)
I0322 16:08:52.186547 26392 net.cpp:150] Setting up bn4f_branch2c
I0322 16:08:52.186578 26392 net.cpp:157] Top shape: 16 1024 14 14 (3211264)
I0322 16:08:52.186594 26392 net.cpp:165] Memory required for data: 3464953920
I0322 16:08:52.186688 26392 layer_factory.hpp:77] Creating layer scale4f_branch2c
I0322 16:08:52.186720 26392 net.cpp:106] Creating Layer scale4f_branch2c
I0322 16:08:52.186738 26392 net.cpp:454] scale4f_branch2c <- res4f_branch2c
I0322 16:08:52.186759 26392 net.cpp:397] scale4f_branch2c -> res4f_branch2c (in-place)
I0322 16:08:52.186856 26392 layer_factory.hpp:77] Creating layer scale4f_branch2c
I0322 16:08:52.187108 26392 net.cpp:150] Setting up scale4f_branch2c
I0322 16:08:52.187142 26392 net.cpp:157] Top shape: 16 1024 14 14 (3211264)
I0322 16:08:52.187158 26392 net.cpp:165] Memory required for data: 3477798976
I0322 16:08:52.187182 26392 layer_factory.hpp:77] Creating layer res4f
I0322 16:08:52.187203 26392 net.cpp:106] Creating Layer res4f
I0322 16:08:52.187222 26392 net.cpp:454] res4f <- res4e_res4e_relu_0_split_1
I0322 16:08:52.187239 26392 net.cpp:454] res4f <- res4f_branch2c
I0322 16:08:52.187259 26392 net.cpp:411] res4f -> res4f
I0322 16:08:52.187326 26392 net.cpp:150] Setting up res4f
I0322 16:08:52.187355 26392 net.cpp:157] Top shape: 16 1024 14 14 (3211264)
I0322 16:08:52.187371 26392 net.cpp:165] Memory required for data: 3490644032
I0322 16:08:52.187386 26392 layer_factory.hpp:77] Creating layer res4f_relu
I0322 16:08:52.187405 26392 net.cpp:106] Creating Layer res4f_relu
I0322 16:08:52.187422 26392 net.cpp:454] res4f_relu <- res4f
I0322 16:08:52.187445 26392 net.cpp:397] res4f_relu -> res4f (in-place)
I0322 16:08:52.187469 26392 net.cpp:150] Setting up res4f_relu
I0322 16:08:52.187489 26392 net.cpp:157] Top shape: 16 1024 14 14 (3211264)
I0322 16:08:52.187503 26392 net.cpp:165] Memory required for data: 3503489088
I0322 16:08:52.187518 26392 layer_factory.hpp:77] Creating layer res4f_res4f_relu_0_split
I0322 16:08:52.187538 26392 net.cpp:106] Creating Layer res4f_res4f_relu_0_split
I0322 16:08:52.187553 26392 net.cpp:454] res4f_res4f_relu_0_split <- res4f
I0322 16:08:52.187572 26392 net.cpp:411] res4f_res4f_relu_0_split -> res4f_res4f_relu_0_split_0
I0322 16:08:52.187594 26392 net.cpp:411] res4f_res4f_relu_0_split -> res4f_res4f_relu_0_split_1
I0322 16:08:52.187688 26392 net.cpp:150] Setting up res4f_res4f_relu_0_split
I0322 16:08:52.187716 26392 net.cpp:157] Top shape: 16 1024 14 14 (3211264)
I0322 16:08:52.187733 26392 net.cpp:157] Top shape: 16 1024 14 14 (3211264)
I0322 16:08:52.187748 26392 net.cpp:165] Memory required for data: 3529179200
I0322 16:08:52.187764 26392 layer_factory.hpp:77] Creating layer res5a_branch1
I0322 16:08:52.187793 26392 net.cpp:106] Creating Layer res5a_branch1
I0322 16:08:52.187813 26392 net.cpp:454] res5a_branch1 <- res4f_res4f_relu_0_split_0
I0322 16:08:52.187834 26392 net.cpp:411] res5a_branch1 -> res5a_branch1
I0322 16:08:52.196419 26392 net.cpp:150] Setting up res5a_branch1
I0322 16:08:52.196461 26392 net.cpp:157] Top shape: 16 2048 7 7 (1605632)
I0322 16:08:52.196478 26392 net.cpp:165] Memory required for data: 3535601728
I0322 16:08:52.196499 26392 layer_factory.hpp:77] Creating layer bn5a_branch1
I0322 16:08:52.196522 26392 net.cpp:106] Creating Layer bn5a_branch1
I0322 16:08:52.196540 26392 net.cpp:454] bn5a_branch1 <- res5a_branch1
I0322 16:08:52.196566 26392 net.cpp:397] bn5a_branch1 -> res5a_branch1 (in-place)
I0322 16:08:52.197010 26392 net.cpp:150] Setting up bn5a_branch1
I0322 16:08:52.197042 26392 net.cpp:157] Top shape: 16 2048 7 7 (1605632)
I0322 16:08:52.197059 26392 net.cpp:165] Memory required for data: 3542024256
I0322 16:08:52.197111 26392 layer_factory.hpp:77] Creating layer scale5a_branch1
I0322 16:08:52.197136 26392 net.cpp:106] Creating Layer scale5a_branch1
I0322 16:08:52.197154 26392 net.cpp:454] scale5a_branch1 <- res5a_branch1
I0322 16:08:52.197173 26392 net.cpp:397] scale5a_branch1 -> res5a_branch1 (in-place)
I0322 16:08:52.197278 26392 layer_factory.hpp:77] Creating layer scale5a_branch1
I0322 16:08:52.197535 26392 net.cpp:150] Setting up scale5a_branch1
I0322 16:08:52.197566 26392 net.cpp:157] Top shape: 16 2048 7 7 (1605632)
I0322 16:08:52.197582 26392 net.cpp:165] Memory required for data: 3548446784
I0322 16:08:52.197603 26392 layer_factory.hpp:77] Creating layer res5a_branch2a
I0322 16:08:52.197633 26392 net.cpp:106] Creating Layer res5a_branch2a
I0322 16:08:52.197652 26392 net.cpp:454] res5a_branch2a <- res4f_res4f_relu_0_split_1
I0322 16:08:52.197674 26392 net.cpp:411] res5a_branch2a -> res5a_branch2a
I0322 16:08:52.200286 26392 net.cpp:150] Setting up res5a_branch2a
I0322 16:08:52.200323 26392 net.cpp:157] Top shape: 16 512 7 7 (401408)
I0322 16:08:52.200340 26392 net.cpp:165] Memory required for data: 3550052416
I0322 16:08:52.200361 26392 layer_factory.hpp:77] Creating layer bn5a_branch2a
I0322 16:08:52.200388 26392 net.cpp:106] Creating Layer bn5a_branch2a
I0322 16:08:52.200407 26392 net.cpp:454] bn5a_branch2a <- res5a_branch2a
I0322 16:08:52.200428 26392 net.cpp:397] bn5a_branch2a -> res5a_branch2a (in-place)
I0322 16:08:52.200846 26392 net.cpp:150] Setting up bn5a_branch2a
I0322 16:08:52.200880 26392 net.cpp:157] Top shape: 16 512 7 7 (401408)
I0322 16:08:52.200896 26392 net.cpp:165] Memory required for data: 3551658048
I0322 16:08:52.200922 26392 layer_factory.hpp:77] Creating layer scale5a_branch2a
I0322 16:08:52.200948 26392 net.cpp:106] Creating Layer scale5a_branch2a
I0322 16:08:52.200966 26392 net.cpp:454] scale5a_branch2a <- res5a_branch2a
I0322 16:08:52.200986 26392 net.cpp:397] scale5a_branch2a -> res5a_branch2a (in-place)
I0322 16:08:52.201078 26392 layer_factory.hpp:77] Creating layer scale5a_branch2a
I0322 16:08:52.201336 26392 net.cpp:150] Setting up scale5a_branch2a
I0322 16:08:52.201366 26392 net.cpp:157] Top shape: 16 512 7 7 (401408)
I0322 16:08:52.201382 26392 net.cpp:165] Memory required for data: 3553263680
I0322 16:08:52.201405 26392 layer_factory.hpp:77] Creating layer res5a_branch2a_relu
I0322 16:08:52.201426 26392 net.cpp:106] Creating Layer res5a_branch2a_relu
I0322 16:08:52.201443 26392 net.cpp:454] res5a_branch2a_relu <- res5a_branch2a
I0322 16:08:52.201462 26392 net.cpp:397] res5a_branch2a_relu -> res5a_branch2a (in-place)
I0322 16:08:52.201485 26392 net.cpp:150] Setting up res5a_branch2a_relu
I0322 16:08:52.201505 26392 net.cpp:157] Top shape: 16 512 7 7 (401408)
I0322 16:08:52.201520 26392 net.cpp:165] Memory required for data: 3554869312
I0322 16:08:52.201536 26392 layer_factory.hpp:77] Creating layer res5a_branch2b
I0322 16:08:52.201565 26392 net.cpp:106] Creating Layer res5a_branch2b
I0322 16:08:52.201582 26392 net.cpp:454] res5a_branch2b <- res5a_branch2a
I0322 16:08:52.201606 26392 net.cpp:411] res5a_branch2b -> res5a_branch2b
I0322 16:08:52.211211 26392 net.cpp:150] Setting up res5a_branch2b
I0322 16:08:52.211258 26392 net.cpp:157] Top shape: 16 512 7 7 (401408)
I0322 16:08:52.211275 26392 net.cpp:165] Memory required for data: 3556474944
I0322 16:08:52.211297 26392 layer_factory.hpp:77] Creating layer bn5a_branch2b
I0322 16:08:52.211320 26392 net.cpp:106] Creating Layer bn5a_branch2b
I0322 16:08:52.211339 26392 net.cpp:454] bn5a_branch2b <- res5a_branch2b
I0322 16:08:52.211365 26392 net.cpp:397] bn5a_branch2b -> res5a_branch2b (in-place)
I0322 16:08:52.211776 26392 net.cpp:150] Setting up bn5a_branch2b
I0322 16:08:52.211807 26392 net.cpp:157] Top shape: 16 512 7 7 (401408)
I0322 16:08:52.211822 26392 net.cpp:165] Memory required for data: 3558080576
I0322 16:08:52.211849 26392 layer_factory.hpp:77] Creating layer scale5a_branch2b
I0322 16:08:52.211872 26392 net.cpp:106] Creating Layer scale5a_branch2b
I0322 16:08:52.211902 26392 net.cpp:454] scale5a_branch2b <- res5a_branch2b
I0322 16:08:52.211941 26392 net.cpp:397] scale5a_branch2b -> res5a_branch2b (in-place)
I0322 16:08:52.212043 26392 layer_factory.hpp:77] Creating layer scale5a_branch2b
I0322 16:08:52.212301 26392 net.cpp:150] Setting up scale5a_branch2b
I0322 16:08:52.212329 26392 net.cpp:157] Top shape: 16 512 7 7 (401408)
I0322 16:08:52.212345 26392 net.cpp:165] Memory required for data: 3559686208
I0322 16:08:52.212368 26392 layer_factory.hpp:77] Creating layer res5a_branch2b_relu
I0322 16:08:52.212388 26392 net.cpp:106] Creating Layer res5a_branch2b_relu
I0322 16:08:52.212411 26392 net.cpp:454] res5a_branch2b_relu <- res5a_branch2b
I0322 16:08:52.212431 26392 net.cpp:397] res5a_branch2b_relu -> res5a_branch2b (in-place)
I0322 16:08:52.212453 26392 net.cpp:150] Setting up res5a_branch2b_relu
I0322 16:08:52.212473 26392 net.cpp:157] Top shape: 16 512 7 7 (401408)
I0322 16:08:52.212488 26392 net.cpp:165] Memory required for data: 3561291840
I0322 16:08:52.212504 26392 layer_factory.hpp:77] Creating layer res5a_branch2c
I0322 16:08:52.212527 26392 net.cpp:106] Creating Layer res5a_branch2c
I0322 16:08:52.212543 26392 net.cpp:454] res5a_branch2c <- res5a_branch2b
I0322 16:08:52.212569 26392 net.cpp:411] res5a_branch2c -> res5a_branch2c
I0322 16:08:52.217196 26392 net.cpp:150] Setting up res5a_branch2c
I0322 16:08:52.217236 26392 net.cpp:157] Top shape: 16 2048 7 7 (1605632)
I0322 16:08:52.217253 26392 net.cpp:165] Memory required for data: 3567714368
I0322 16:08:52.217274 26392 layer_factory.hpp:77] Creating layer bn5a_branch2c
I0322 16:08:52.217296 26392 net.cpp:106] Creating Layer bn5a_branch2c
I0322 16:08:52.217314 26392 net.cpp:454] bn5a_branch2c <- res5a_branch2c
I0322 16:08:52.217334 26392 net.cpp:397] bn5a_branch2c -> res5a_branch2c (in-place)
I0322 16:08:52.217746 26392 net.cpp:150] Setting up bn5a_branch2c
I0322 16:08:52.217777 26392 net.cpp:157] Top shape: 16 2048 7 7 (1605632)
I0322 16:08:52.217792 26392 net.cpp:165] Memory required for data: 3574136896
I0322 16:08:52.217823 26392 layer_factory.hpp:77] Creating layer scale5a_branch2c
I0322 16:08:52.217847 26392 net.cpp:106] Creating Layer scale5a_branch2c
I0322 16:08:52.217864 26392 net.cpp:454] scale5a_branch2c <- res5a_branch2c
I0322 16:08:52.217885 26392 net.cpp:397] scale5a_branch2c -> res5a_branch2c (in-place)
I0322 16:08:52.217986 26392 layer_factory.hpp:77] Creating layer scale5a_branch2c
I0322 16:08:52.218256 26392 net.cpp:150] Setting up scale5a_branch2c
I0322 16:08:52.218286 26392 net.cpp:157] Top shape: 16 2048 7 7 (1605632)
I0322 16:08:52.218302 26392 net.cpp:165] Memory required for data: 3580559424
I0322 16:08:52.218325 26392 layer_factory.hpp:77] Creating layer res5a
I0322 16:08:52.218353 26392 net.cpp:106] Creating Layer res5a
I0322 16:08:52.218371 26392 net.cpp:454] res5a <- res5a_branch1
I0322 16:08:52.218390 26392 net.cpp:454] res5a <- res5a_branch2c
I0322 16:08:52.218410 26392 net.cpp:411] res5a -> res5a
I0322 16:08:52.218480 26392 net.cpp:150] Setting up res5a
I0322 16:08:52.218508 26392 net.cpp:157] Top shape: 16 2048 7 7 (1605632)
I0322 16:08:52.218524 26392 net.cpp:165] Memory required for data: 3586981952
I0322 16:08:52.218540 26392 layer_factory.hpp:77] Creating layer res5a_relu
I0322 16:08:52.218560 26392 net.cpp:106] Creating Layer res5a_relu
I0322 16:08:52.218577 26392 net.cpp:454] res5a_relu <- res5a
I0322 16:08:52.218601 26392 net.cpp:397] res5a_relu -> res5a (in-place)
I0322 16:08:52.218626 26392 net.cpp:150] Setting up res5a_relu
I0322 16:08:52.218646 26392 net.cpp:157] Top shape: 16 2048 7 7 (1605632)
I0322 16:08:52.218660 26392 net.cpp:165] Memory required for data: 3593404480
I0322 16:08:52.218677 26392 layer_factory.hpp:77] Creating layer res5a_res5a_relu_0_split
I0322 16:08:52.218696 26392 net.cpp:106] Creating Layer res5a_res5a_relu_0_split
I0322 16:08:52.218713 26392 net.cpp:454] res5a_res5a_relu_0_split <- res5a
I0322 16:08:52.218734 26392 net.cpp:411] res5a_res5a_relu_0_split -> res5a_res5a_relu_0_split_0
I0322 16:08:52.218756 26392 net.cpp:411] res5a_res5a_relu_0_split -> res5a_res5a_relu_0_split_1
I0322 16:08:52.218863 26392 net.cpp:150] Setting up res5a_res5a_relu_0_split
I0322 16:08:52.218909 26392 net.cpp:157] Top shape: 16 2048 7 7 (1605632)
I0322 16:08:52.218928 26392 net.cpp:157] Top shape: 16 2048 7 7 (1605632)
I0322 16:08:52.218943 26392 net.cpp:165] Memory required for data: 3606249536
I0322 16:08:52.218961 26392 layer_factory.hpp:77] Creating layer res5b_branch2a
I0322 16:08:52.218983 26392 net.cpp:106] Creating Layer res5b_branch2a
I0322 16:08:52.219002 26392 net.cpp:454] res5b_branch2a <- res5a_res5a_relu_0_split_0
I0322 16:08:52.219022 26392 net.cpp:411] res5b_branch2a -> res5b_branch2a
I0322 16:08:52.223623 26392 net.cpp:150] Setting up res5b_branch2a
I0322 16:08:52.223662 26392 net.cpp:157] Top shape: 16 512 7 7 (401408)
I0322 16:08:52.223680 26392 net.cpp:165] Memory required for data: 3607855168
I0322 16:08:52.223701 26392 layer_factory.hpp:77] Creating layer bn5b_branch2a
I0322 16:08:52.223727 26392 net.cpp:106] Creating Layer bn5b_branch2a
I0322 16:08:52.223747 26392 net.cpp:454] bn5b_branch2a <- res5b_branch2a
I0322 16:08:52.223767 26392 net.cpp:397] bn5b_branch2a -> res5b_branch2a (in-place)
I0322 16:08:52.224167 26392 net.cpp:150] Setting up bn5b_branch2a
I0322 16:08:52.224197 26392 net.cpp:157] Top shape: 16 512 7 7 (401408)
I0322 16:08:52.224213 26392 net.cpp:165] Memory required for data: 3609460800
I0322 16:08:52.224241 26392 layer_factory.hpp:77] Creating layer scale5b_branch2a
I0322 16:08:52.224268 26392 net.cpp:106] Creating Layer scale5b_branch2a
I0322 16:08:52.224287 26392 net.cpp:454] scale5b_branch2a <- res5b_branch2a
I0322 16:08:52.224306 26392 net.cpp:397] scale5b_branch2a -> res5b_branch2a (in-place)
I0322 16:08:52.224398 26392 layer_factory.hpp:77] Creating layer scale5b_branch2a
I0322 16:08:52.224685 26392 net.cpp:150] Setting up scale5b_branch2a
I0322 16:08:52.224717 26392 net.cpp:157] Top shape: 16 512 7 7 (401408)
I0322 16:08:52.224733 26392 net.cpp:165] Memory required for data: 3611066432
I0322 16:08:52.224756 26392 layer_factory.hpp:77] Creating layer res5b_branch2a_relu
I0322 16:08:52.224778 26392 net.cpp:106] Creating Layer res5b_branch2a_relu
I0322 16:08:52.224795 26392 net.cpp:454] res5b_branch2a_relu <- res5b_branch2a
I0322 16:08:52.224814 26392 net.cpp:397] res5b_branch2a_relu -> res5b_branch2a (in-place)
I0322 16:08:52.224838 26392 net.cpp:150] Setting up res5b_branch2a_relu
I0322 16:08:52.224858 26392 net.cpp:157] Top shape: 16 512 7 7 (401408)
I0322 16:08:52.224872 26392 net.cpp:165] Memory required for data: 3612672064
I0322 16:08:52.224887 26392 layer_factory.hpp:77] Creating layer res5b_branch2b
I0322 16:08:52.224916 26392 net.cpp:106] Creating Layer res5b_branch2b
I0322 16:08:52.224934 26392 net.cpp:454] res5b_branch2b <- res5b_branch2a
I0322 16:08:52.224959 26392 net.cpp:411] res5b_branch2b -> res5b_branch2b
I0322 16:08:52.234659 26392 net.cpp:150] Setting up res5b_branch2b
I0322 16:08:52.234706 26392 net.cpp:157] Top shape: 16 512 7 7 (401408)
I0322 16:08:52.234724 26392 net.cpp:165] Memory required for data: 3614277696
I0322 16:08:52.234745 26392 layer_factory.hpp:77] Creating layer bn5b_branch2b
I0322 16:08:52.234768 26392 net.cpp:106] Creating Layer bn5b_branch2b
I0322 16:08:52.234786 26392 net.cpp:454] bn5b_branch2b <- res5b_branch2b
I0322 16:08:52.234812 26392 net.cpp:397] bn5b_branch2b -> res5b_branch2b (in-place)
I0322 16:08:52.235219 26392 net.cpp:150] Setting up bn5b_branch2b
I0322 16:08:52.235249 26392 net.cpp:157] Top shape: 16 512 7 7 (401408)
I0322 16:08:52.235265 26392 net.cpp:165] Memory required for data: 3615883328
I0322 16:08:52.235292 26392 layer_factory.hpp:77] Creating layer scale5b_branch2b
I0322 16:08:52.235316 26392 net.cpp:106] Creating Layer scale5b_branch2b
I0322 16:08:52.235332 26392 net.cpp:454] scale5b_branch2b <- res5b_branch2b
I0322 16:08:52.235352 26392 net.cpp:397] scale5b_branch2b -> res5b_branch2b (in-place)
I0322 16:08:52.235458 26392 layer_factory.hpp:77] Creating layer scale5b_branch2b
I0322 16:08:52.235718 26392 net.cpp:150] Setting up scale5b_branch2b
I0322 16:08:52.235749 26392 net.cpp:157] Top shape: 16 512 7 7 (401408)
I0322 16:08:52.235777 26392 net.cpp:165] Memory required for data: 3617488960
I0322 16:08:52.235817 26392 layer_factory.hpp:77] Creating layer res5b_branch2b_relu
I0322 16:08:52.235839 26392 net.cpp:106] Creating Layer res5b_branch2b_relu
I0322 16:08:52.235857 26392 net.cpp:454] res5b_branch2b_relu <- res5b_branch2b
I0322 16:08:52.235882 26392 net.cpp:397] res5b_branch2b_relu -> res5b_branch2b (in-place)
I0322 16:08:52.235905 26392 net.cpp:150] Setting up res5b_branch2b_relu
I0322 16:08:52.235924 26392 net.cpp:157] Top shape: 16 512 7 7 (401408)
I0322 16:08:52.235940 26392 net.cpp:165] Memory required for data: 3619094592
I0322 16:08:52.235955 26392 layer_factory.hpp:77] Creating layer res5b_branch2c
I0322 16:08:52.235978 26392 net.cpp:106] Creating Layer res5b_branch2c
I0322 16:08:52.235996 26392 net.cpp:454] res5b_branch2c <- res5b_branch2b
I0322 16:08:52.236021 26392 net.cpp:411] res5b_branch2c -> res5b_branch2c
I0322 16:08:52.240669 26392 net.cpp:150] Setting up res5b_branch2c
I0322 16:08:52.240710 26392 net.cpp:157] Top shape: 16 2048 7 7 (1605632)
I0322 16:08:52.240727 26392 net.cpp:165] Memory required for data: 3625517120
I0322 16:08:52.240748 26392 layer_factory.hpp:77] Creating layer bn5b_branch2c
I0322 16:08:52.240770 26392 net.cpp:106] Creating Layer bn5b_branch2c
I0322 16:08:52.240788 26392 net.cpp:454] bn5b_branch2c <- res5b_branch2c
I0322 16:08:52.240808 26392 net.cpp:397] bn5b_branch2c -> res5b_branch2c (in-place)
I0322 16:08:52.241225 26392 net.cpp:150] Setting up bn5b_branch2c
I0322 16:08:52.241255 26392 net.cpp:157] Top shape: 16 2048 7 7 (1605632)
I0322 16:08:52.241272 26392 net.cpp:165] Memory required for data: 3631939648
I0322 16:08:52.241298 26392 layer_factory.hpp:77] Creating layer scale5b_branch2c
I0322 16:08:52.241327 26392 net.cpp:106] Creating Layer scale5b_branch2c
I0322 16:08:52.241345 26392 net.cpp:454] scale5b_branch2c <- res5b_branch2c
I0322 16:08:52.241365 26392 net.cpp:397] scale5b_branch2c -> res5b_branch2c (in-place)
I0322 16:08:52.241467 26392 layer_factory.hpp:77] Creating layer scale5b_branch2c
I0322 16:08:52.241739 26392 net.cpp:150] Setting up scale5b_branch2c
I0322 16:08:52.241770 26392 net.cpp:157] Top shape: 16 2048 7 7 (1605632)
I0322 16:08:52.241786 26392 net.cpp:165] Memory required for data: 3638362176
I0322 16:08:52.241808 26392 layer_factory.hpp:77] Creating layer res5b
I0322 16:08:52.241835 26392 net.cpp:106] Creating Layer res5b
I0322 16:08:52.241854 26392 net.cpp:454] res5b <- res5a_res5a_relu_0_split_1
I0322 16:08:52.241873 26392 net.cpp:454] res5b <- res5b_branch2c
I0322 16:08:52.241894 26392 net.cpp:411] res5b -> res5b
I0322 16:08:52.241964 26392 net.cpp:150] Setting up res5b
I0322 16:08:52.241992 26392 net.cpp:157] Top shape: 16 2048 7 7 (1605632)
I0322 16:08:52.242008 26392 net.cpp:165] Memory required for data: 3644784704
I0322 16:08:52.242024 26392 layer_factory.hpp:77] Creating layer res5b_relu
I0322 16:08:52.242044 26392 net.cpp:106] Creating Layer res5b_relu
I0322 16:08:52.242061 26392 net.cpp:454] res5b_relu <- res5b
I0322 16:08:52.242085 26392 net.cpp:397] res5b_relu -> res5b (in-place)
I0322 16:08:52.242110 26392 net.cpp:150] Setting up res5b_relu
I0322 16:08:52.242130 26392 net.cpp:157] Top shape: 16 2048 7 7 (1605632)
I0322 16:08:52.242144 26392 net.cpp:165] Memory required for data: 3651207232
I0322 16:08:52.242161 26392 layer_factory.hpp:77] Creating layer res5b_res5b_relu_0_split
I0322 16:08:52.242180 26392 net.cpp:106] Creating Layer res5b_res5b_relu_0_split
I0322 16:08:52.242197 26392 net.cpp:454] res5b_res5b_relu_0_split <- res5b
I0322 16:08:52.242216 26392 net.cpp:411] res5b_res5b_relu_0_split -> res5b_res5b_relu_0_split_0
I0322 16:08:52.242239 26392 net.cpp:411] res5b_res5b_relu_0_split -> res5b_res5b_relu_0_split_1
I0322 16:08:52.242329 26392 net.cpp:150] Setting up res5b_res5b_relu_0_split
I0322 16:08:52.242357 26392 net.cpp:157] Top shape: 16 2048 7 7 (1605632)
I0322 16:08:52.242375 26392 net.cpp:157] Top shape: 16 2048 7 7 (1605632)
I0322 16:08:52.242390 26392 net.cpp:165] Memory required for data: 3664052288
I0322 16:08:52.242418 26392 layer_factory.hpp:77] Creating layer res5c_branch2a
I0322 16:08:52.242457 26392 net.cpp:106] Creating Layer res5c_branch2a
I0322 16:08:52.242477 26392 net.cpp:454] res5c_branch2a <- res5b_res5b_relu_0_split_0
I0322 16:08:52.242498 26392 net.cpp:411] res5c_branch2a -> res5c_branch2a
I0322 16:08:52.247115 26392 net.cpp:150] Setting up res5c_branch2a
I0322 16:08:52.247154 26392 net.cpp:157] Top shape: 16 512 7 7 (401408)
I0322 16:08:52.247170 26392 net.cpp:165] Memory required for data: 3665657920
I0322 16:08:52.247191 26392 layer_factory.hpp:77] Creating layer bn5c_branch2a
I0322 16:08:52.247220 26392 net.cpp:106] Creating Layer bn5c_branch2a
I0322 16:08:52.247238 26392 net.cpp:454] bn5c_branch2a <- res5c_branch2a
I0322 16:08:52.247259 26392 net.cpp:397] bn5c_branch2a -> res5c_branch2a (in-place)
I0322 16:08:52.247673 26392 net.cpp:150] Setting up bn5c_branch2a
I0322 16:08:52.247702 26392 net.cpp:157] Top shape: 16 512 7 7 (401408)
I0322 16:08:52.247720 26392 net.cpp:165] Memory required for data: 3667263552
I0322 16:08:52.247745 26392 layer_factory.hpp:77] Creating layer scale5c_branch2a
I0322 16:08:52.247773 26392 net.cpp:106] Creating Layer scale5c_branch2a
I0322 16:08:52.247792 26392 net.cpp:454] scale5c_branch2a <- res5c_branch2a
I0322 16:08:52.247812 26392 net.cpp:397] scale5c_branch2a -> res5c_branch2a (in-place)
I0322 16:08:52.247906 26392 layer_factory.hpp:77] Creating layer scale5c_branch2a
I0322 16:08:52.248174 26392 net.cpp:150] Setting up scale5c_branch2a
I0322 16:08:52.248204 26392 net.cpp:157] Top shape: 16 512 7 7 (401408)
I0322 16:08:52.248220 26392 net.cpp:165] Memory required for data: 3668869184
I0322 16:08:52.248244 26392 layer_factory.hpp:77] Creating layer res5c_branch2a_relu
I0322 16:08:52.248265 26392 net.cpp:106] Creating Layer res5c_branch2a_relu
I0322 16:08:52.248281 26392 net.cpp:454] res5c_branch2a_relu <- res5c_branch2a
I0322 16:08:52.248301 26392 net.cpp:397] res5c_branch2a_relu -> res5c_branch2a (in-place)
I0322 16:08:52.248323 26392 net.cpp:150] Setting up res5c_branch2a_relu
I0322 16:08:52.248342 26392 net.cpp:157] Top shape: 16 512 7 7 (401408)
I0322 16:08:52.248358 26392 net.cpp:165] Memory required for data: 3670474816
I0322 16:08:52.248374 26392 layer_factory.hpp:77] Creating layer res5c_branch2b
I0322 16:08:52.248402 26392 net.cpp:106] Creating Layer res5c_branch2b
I0322 16:08:52.248420 26392 net.cpp:454] res5c_branch2b <- res5c_branch2a
I0322 16:08:52.248445 26392 net.cpp:411] res5c_branch2b -> res5c_branch2b
I0322 16:08:52.258100 26392 net.cpp:150] Setting up res5c_branch2b
I0322 16:08:52.258144 26392 net.cpp:157] Top shape: 16 512 7 7 (401408)
I0322 16:08:52.258160 26392 net.cpp:165] Memory required for data: 3672080448
I0322 16:08:52.258183 26392 layer_factory.hpp:77] Creating layer bn5c_branch2b
I0322 16:08:52.258204 26392 net.cpp:106] Creating Layer bn5c_branch2b
I0322 16:08:52.258222 26392 net.cpp:454] bn5c_branch2b <- res5c_branch2b
I0322 16:08:52.258249 26392 net.cpp:397] bn5c_branch2b -> res5c_branch2b (in-place)
I0322 16:08:52.258661 26392 net.cpp:150] Setting up bn5c_branch2b
I0322 16:08:52.258692 26392 net.cpp:157] Top shape: 16 512 7 7 (401408)
I0322 16:08:52.258708 26392 net.cpp:165] Memory required for data: 3673686080
I0322 16:08:52.258734 26392 layer_factory.hpp:77] Creating layer scale5c_branch2b
I0322 16:08:52.258757 26392 net.cpp:106] Creating Layer scale5c_branch2b
I0322 16:08:52.258774 26392 net.cpp:454] scale5c_branch2b <- res5c_branch2b
I0322 16:08:52.258793 26392 net.cpp:397] scale5c_branch2b -> res5c_branch2b (in-place)
I0322 16:08:52.258894 26392 layer_factory.hpp:77] Creating layer scale5c_branch2b
I0322 16:08:52.259160 26392 net.cpp:150] Setting up scale5c_branch2b
I0322 16:08:52.259191 26392 net.cpp:157] Top shape: 16 512 7 7 (401408)
I0322 16:08:52.259207 26392 net.cpp:165] Memory required for data: 3675291712
I0322 16:08:52.259229 26392 layer_factory.hpp:77] Creating layer res5c_branch2b_relu
I0322 16:08:52.259250 26392 net.cpp:106] Creating Layer res5c_branch2b_relu
I0322 16:08:52.259268 26392 net.cpp:454] res5c_branch2b_relu <- res5c_branch2b
I0322 16:08:52.259306 26392 net.cpp:397] res5c_branch2b_relu -> res5c_branch2b (in-place)
I0322 16:08:52.259347 26392 net.cpp:150] Setting up res5c_branch2b_relu
I0322 16:08:52.259369 26392 net.cpp:157] Top shape: 16 512 7 7 (401408)
I0322 16:08:52.259384 26392 net.cpp:165] Memory required for data: 3676897344
I0322 16:08:52.259400 26392 layer_factory.hpp:77] Creating layer res5c_branch2c
I0322 16:08:52.259423 26392 net.cpp:106] Creating Layer res5c_branch2c
I0322 16:08:52.259439 26392 net.cpp:454] res5c_branch2c <- res5c_branch2b
I0322 16:08:52.259464 26392 net.cpp:411] res5c_branch2c -> res5c_branch2c
I0322 16:08:52.264186 26392 net.cpp:150] Setting up res5c_branch2c
I0322 16:08:52.264228 26392 net.cpp:157] Top shape: 16 2048 7 7 (1605632)
I0322 16:08:52.264245 26392 net.cpp:165] Memory required for data: 3683319872
I0322 16:08:52.264266 26392 layer_factory.hpp:77] Creating layer bn5c_branch2c
I0322 16:08:52.264289 26392 net.cpp:106] Creating Layer bn5c_branch2c
I0322 16:08:52.264307 26392 net.cpp:454] bn5c_branch2c <- res5c_branch2c
I0322 16:08:52.264328 26392 net.cpp:397] bn5c_branch2c -> res5c_branch2c (in-place)
I0322 16:08:52.264767 26392 net.cpp:150] Setting up bn5c_branch2c
I0322 16:08:52.264799 26392 net.cpp:157] Top shape: 16 2048 7 7 (1605632)
I0322 16:08:52.264816 26392 net.cpp:165] Memory required for data: 3689742400
I0322 16:08:52.264843 26392 layer_factory.hpp:77] Creating layer scale5c_branch2c
I0322 16:08:52.264871 26392 net.cpp:106] Creating Layer scale5c_branch2c
I0322 16:08:52.264889 26392 net.cpp:454] scale5c_branch2c <- res5c_branch2c
I0322 16:08:52.264910 26392 net.cpp:397] scale5c_branch2c -> res5c_branch2c (in-place)
I0322 16:08:52.265014 26392 layer_factory.hpp:77] Creating layer scale5c_branch2c
I0322 16:08:52.265290 26392 net.cpp:150] Setting up scale5c_branch2c
I0322 16:08:52.265319 26392 net.cpp:157] Top shape: 16 2048 7 7 (1605632)
I0322 16:08:52.265336 26392 net.cpp:165] Memory required for data: 3696164928
I0322 16:08:52.265359 26392 layer_factory.hpp:77] Creating layer res5c
I0322 16:08:52.265388 26392 net.cpp:106] Creating Layer res5c
I0322 16:08:52.265406 26392 net.cpp:454] res5c <- res5b_res5b_relu_0_split_1
I0322 16:08:52.265425 26392 net.cpp:454] res5c <- res5c_branch2c
I0322 16:08:52.265446 26392 net.cpp:411] res5c -> res5c
I0322 16:08:52.265518 26392 net.cpp:150] Setting up res5c
I0322 16:08:52.265547 26392 net.cpp:157] Top shape: 16 2048 7 7 (1605632)
I0322 16:08:52.265563 26392 net.cpp:165] Memory required for data: 3702587456
I0322 16:08:52.265578 26392 layer_factory.hpp:77] Creating layer res5c_relu
I0322 16:08:52.265599 26392 net.cpp:106] Creating Layer res5c_relu
I0322 16:08:52.265615 26392 net.cpp:454] res5c_relu <- res5c
I0322 16:08:52.265640 26392 net.cpp:397] res5c_relu -> res5c (in-place)
I0322 16:08:52.265663 26392 net.cpp:150] Setting up res5c_relu
I0322 16:08:52.265683 26392 net.cpp:157] Top shape: 16 2048 7 7 (1605632)
I0322 16:08:52.265698 26392 net.cpp:165] Memory required for data: 3709009984
I0322 16:08:52.265714 26392 layer_factory.hpp:77] Creating layer pool5
I0322 16:08:52.265736 26392 net.cpp:106] Creating Layer pool5
I0322 16:08:52.265753 26392 net.cpp:454] pool5 <- res5c
I0322 16:08:52.265774 26392 net.cpp:411] pool5 -> pool5
I0322 16:08:52.265844 26392 net.cpp:150] Setting up pool5
I0322 16:08:52.265872 26392 net.cpp:157] Top shape: 16 2048 1 1 (32768)
I0322 16:08:52.265887 26392 net.cpp:165] Memory required for data: 3709141056
I0322 16:08:52.265903 26392 layer_factory.hpp:77] Creating layer fc_id
I0322 16:08:52.265933 26392 net.cpp:106] Creating Layer fc_id
I0322 16:08:52.265951 26392 net.cpp:454] fc_id <- pool5
I0322 16:08:52.265974 26392 net.cpp:411] fc_id -> fc
I0322 16:08:52.368089 26392 net.cpp:150] Setting up fc_id
I0322 16:08:52.368134 26392 net.cpp:157] Top shape: 16 751 (12016)
I0322 16:08:52.368151 26392 net.cpp:165] Memory required for data: 3709189120
I0322 16:08:52.368175 26392 layer_factory.hpp:77] Creating layer loss
I0322 16:08:52.368206 26392 net.cpp:106] Creating Layer loss
I0322 16:08:52.368224 26392 net.cpp:454] loss <- fc
I0322 16:08:52.368255 26392 net.cpp:454] loss <- label
I0322 16:08:52.368296 26392 net.cpp:411] loss -> loss
I0322 16:08:52.368342 26392 layer_factory.hpp:77] Creating layer loss
…
