…
  transform_param {
    mirror: false
    mean_file: "/home/lizhuowan/Market1501/lmdb/lmdb_12936/Image_lmdb_12936.binaryproto"
  }
  data_param {
    source: "/home/lizhuowan/Market1501/lmdb/lmdb_mirror_12936/Image_lmdb_mirror_12936"
    batch_size: 16
    backend: LMDB
  }
}
layer {
  name: "data"
  type: "Data"
  top: "labels"
  include {
    phase: TRAIN
  }
  transform_param {
    mean_value: 112
  }
  data_param {
    source: "/home/lizhuowan/Market1501/lmdb/lmdb_mirror_12936/pos30_lmdb_mirror_12936_correct"
    batch_size: 16
    backend: LMDB
  }
}
layer {
  name: "conv1"
  type: "Convolution"
  bottom: "data"
  top: "conv1"
  convolution_param {
    num_output: 64
    pad: 3
    kernel_size: 7
    stride: 2
  }
}
layer {
  name: "bn_conv1"
  type: "BatchNorm"
  bottom: "conv1"
  top: "conv1"
  batch_norm_param {
    use_global_stats: true
  }
}
layer {
  name: "scale_conv1"
  type: "Scale"
  bottom: "conv1"
  top: "conv1"
  scale_param {
    bias_term: true
  }
}
layer {
  name: "conv1_relu"
  type: "ReLU"
  bottom: "conv1"
  top: "conv1"
}
layer {
  name: "pool1"
  type: "Pooling"
  bottom: "conv1"
  top: "pool1"
  pooling_param {
    pool: MAX
    kernel_size: 3
    stride: 2
  }
}
layer {
  name: "res2a_branch1"
  type: "Convolution"
  bottom: "pool1"
  top: "res2a_branch1"
  convolution_param {
    num_output: 256
    bias_term: false
    pad: 0
    kernel_size: 1
    stride: 1
  }
}
layer {
  name: "bn2a_branch1"
  type: "BatchNorm"
  bottom: "res2a_branch1"
  top: "res2a_branch1"
  batch_norm_param {
    use_global_stats: true
  }
}
layer {
  name: "scale2a_branch1"
  type: "Scale"
  bottom: "res2a_branch1"
  top: "res2a_branch1"
  scale_param {
    bias_term: true
  }
}
layer {
  name: "res2a_branch2a"
  type: "Convolution"
  bottom: "pool1"
  top: "res2a_branch2a"
  convolution_param {
    num_output: 64
    bias_term: false
    pad: 0
    kernel_size: 1
    stride: 1
  }
}
layer {
  name: "bn2a_branch2a"
  type: "BatchNorm"
  bottom: "res2a_branch2a"
  top: "res2a_branch2a"
  batch_norm_param {
    use_global_stats: true
  }
}
layer {
  name: "scale2a_branch2a"
  type: "Scale"
  bottom: "res2a_branch2a"
  top: "res2a_branch2a"
  scale_param {
    bias_term: true
  }
}
layer {
  name: "res2a_branch2a_relu"
  type: "ReLU"
  bottom: "res2a_branch2a"
  top: "res2a_branch2a"
}
layer {
  name: "res2a_branch2b"
  type: "Convolution"
  bottom: "res2a_branch2a"
  top: "res2a_branch2b"
  convolution_param {
    num_output: 64
    bias_term: false
    pad: 1
    kernel_size: 3
    stride: 1
  }
}
layer {
  name: "bn2a_branch2b"
  type: "BatchNorm"
  bottom: "res2a_branch2b"
  top: "res2a_branch2b"
  batch_norm_param {
    use_global_stats: true
  }
}
layer {
  name: "scale2a_branch2b"
  type: "Scale"
  bottom: "res2a_branch2b"
  top: "res2a_branch2b"
  scale_param {
    bias_term: true
  }
}
layer {
  name: "res2a_branch2b_relu"
  type: "ReLU"
  bottom: "res2a_branch2b"
  top: "res2a_branch2b"
}
layer {
  name: "res2a_branch2c"
  type: "Convolution"
  bottom: "res2a_branch2b"
  top: "res2a_branch2c"
  convolution_param {
    num_output: 256
    bias_term: false
    pad: 0
    kernel_size: 1
    stride: 1
  }
}
layer {
  name: "bn2a_branch2c"
  type: "BatchNorm"
  bottom: "res2a_branch2c"
  top: "res2a_branch2c"
  batch_norm_param {
    use_global_stats: true
  }
}
layer {
  name: "scale2a_branch2c"
  type: "Scale"
  bottom: "res2a_branch2c"
  top: "res2a_branch2c"
  scale_param {
    bias_term: true
  }
}
layer {
  name: "res2a"
  type: "Eltwise"
  bottom: "res2a_branch1"
  bottom: "res2a_branch2c"
  top: "res2a"
}
layer {
  name: "res2a_relu"
  type: "ReLU"
  bottom: "res2a"
  top: "res2a"
}
layer {
  name: "res2b_branch2a"
  type: "Convolution"
  bottom: "res2a"
  top: "res2b_branch2a"
  convolution_param {
    num_output: 64
    bias_term: false
    pad: 0
    kernel_size: 1
    stride: 1
  }
}
layer {
  name: "bn2b_branch2a"
  type: "BatchNorm"
  bottom: "res2b_branch2a"
  top: "res2b_branch2a"
  batch_norm_param {
    use_global_stats: true
  }
}
layer {
  name: "scale2b_branch2a"
  type: "Scale"
  bottom: "res2b_branch2a"
  top: "res2b_branch2a"
  scale_param {
    bias_term: true
  }
}
layer {
  name: "res2b_branch2a_relu"
  type: "ReLU"
  bottom: "res2b_branch2a"
  top: "res2b_branch2a"
}
layer {
  name: "res2b_branch2b"
  type: "Convolution"
  bottom: "res2b_branch2a"
  top: "res2b_branch2b"
  convolution_param {
    num_output: 64
    bias_term: false
    pad: 1
    kernel_size: 3
    stride: 1
  }
}
layer {
  name: "bn2b_branch2b"
  type: "BatchNorm"
  bottom: "res2b_branch2b"
  top: "res2b_branch2b"
  batch_norm_param {
    use_global_stats: true
  }
}
layer {
  name: "scale2b_branch2b"
  type: "Scale"
  bottom: "res2b_branch2b"
  top: "res2b_branch2b"
  scale_param {
    bias_term: true
  }
}
layer {
  name: "res2b_branch2b_relu"
  type: "ReLU"
  bottom: "res2b_branch2b"
  top: "res2b_branch2b"
}
layer {
  name: "res2b_branch2c"
  type: "Convolution"
  bottom: "res2b_branch2b"
  top: "res2b_branch2c"
  convolution_param {
    num_output: 256
    bias_term: false
    pad: 0
    kernel_size: 1
    stride: 1
  }
}
layer {
  name: "bn2b_branch2c"
  type: "BatchNorm"
  bottom: "res2b_branch2c"
  top: "res2b_branch2c"
  batch_norm_param {
    use_global_stats: true
  }
}
layer {
  name: "scale2b_branch2c"
  type: "Scale"
  bottom: "res2b_branch2c"
  top: "res2b_branch2c"
  scale_param {
    bias_term: true
  }
}
layer {
  name: "res2b"
  type: "Eltwise"
  bottom: "res2a"
  bottom: "res2b_branch2c"
  top: "res2b"
}
layer {
  name: "res2b_relu"
  type: "ReLU"
  bottom: "res2b"
  top: "res2b"
}
layer {
  name: "res2c_branch2a"
  type: "Convolution"
  bottom: "res2b"
  top: "res2c_branch2a"
  convolution_param {
    num_output: 64
    bias_term: false
    pad: 0
    kernel_size: 1
    stride: 1
  }
}
layer {
  name: "bn2c_branch2a"
  type: "BatchNorm"
  bottom: "res2c_branch2a"
  top: "res2c_branch2a"
  batch_norm_param {
    use_global_stats: true
  }
}
layer {
  name: "scale2c_branch2a"
  type: "Scale"
  bottom: "res2c_branch2a"
  top: "res2c_branch2a"
  scale_param {
    bias_term: true
  }
}
layer {
  name: "res2c_branch2a_relu"
  type: "ReLU"
  bottom: "res2c_branch2a"
  top: "res2c_branch2a"
}
layer {
  name: "res2c_branch2b"
  type: "Convolution"
  bottom: "res2c_branch2a"
  top: "res2c_branch2b"
  convolution_param {
    num_output: 64
    bias_term: false
    pad: 1
    kernel_size: 3
    stride: 1
  }
}
layer {
  name: "bn2c_branch2b"
  type: "BatchNorm"
  bottom: "res2c_branch2b"
  top: "res2c_branch2b"
  batch_norm_param {
    use_global_stats: true
  }
}
layer {
  name: "scale2c_branch2b"
  type: "Scale"
  bottom: "res2c_branch2b"
  top: "res2c_branch2b"
  scale_param {
    bias_term: true
  }
}
layer {
  name: "res2c_branch2b_relu"
  type: "ReLU"
  bottom: "res2c_branch2b"
  top: "res2c_branch2b"
}
layer {
  name: "res2c_branch2c"
  type: "Convolution"
  bottom: "res2c_branch2b"
  top: "res2c_branch2c"
  convolution_param {
    num_output: 256
    bias_term: false
    pad: 0
    kernel_size: 1
    stride: 1
  }
}
layer {
  name: "bn2c_branch2c"
  type: "BatchNorm"
  bottom: "res2c_branch2c"
  top: "res2c_branch2c"
  batch_norm_param {
    use_global_stats: true
  }
}
layer {
  name: "scale2c_branch2c"
  type: "Scale"
  bottom: "res2c_branch2c"
  top: "res2c_branch2c"
  scale_param {
    bias_term: true
  }
}
layer {
  name: "res2c"
  type: "Eltwise"
  bottom: "res2b"
  bottom: "res2c_branch2c"
  top: "res2c"
}
layer {
  name: "res2c_relu"
  type: "ReLU"
  bottom: "res2c"
  top: "res2c"
}
layer {
  name: "res3a_branch1"
  type: "Convolution"
  bottom: "res2c"
  top: "res3a_branch1"
  convolution_param {
    num_output: 512
    bias_term: false
    pad: 0
    kernel_size: 1
    stride: 2
  }
}
layer {
  name: "bn3a_branch1"
  type: "BatchNorm"
  bottom: "res3a_branch1"
  top: "res3a_branch1"
  batch_norm_param {
    use_global_stats: true
  }
}
layer {
  name: "scale3a_branch1"
  type: "Scale"
  bottom: "res3a_branch1"
  top: "res3a_branch1"
  scale_param {
    bias_term: true
  }
}
layer {
  name: "res3a_branch2a"
  type: "Convolution"
  bottom: "res2c"
  top: "res3a_branch2a"
  convolution_param {
    num_output: 128
    bias_term: false
    pad: 0
    kernel_size: 1
    stride: 2
  }
}
layer {
  name: "bn3a_branch2a"
  type: "BatchNorm"
  bottom: "res3a_branch2a"
  top: "res3a_branch2a"
  batch_norm_param {
    use_global_stats: true
  }
}
layer {
  name: "scale3a_branch2a"
  type: "Scale"
  bottom: "res3a_branch2a"
  top: "res3a_branch2a"
  scale_param {
    bias_term: true
  }
}
layer {
  name: "res3a_branch2a_relu"
  type: "ReLU"
  bottom: "res3a_branch2a"
  top: "res3a_branch2a"
}
layer {
  name: "res3a_branch2b"
  type: "Convolution"
  bottom: "res3a_branch2a"
  top: "res3a_branch2b"
  convolution_param {
    num_output: 128
    bias_term: false
    pad: 1
    kernel_size: 3
    stride: 1
  }
}
layer {
  name: "bn3a_branch2b"
  type: "BatchNorm"
  bottom: "res3a_branch2b"
  top: "res3a_branch2b"
  batch_norm_param {
    use_global_stats: true
  }
}
layer {
  name: "scale3a_branch2b"
  type: "Scale"
  bottom: "res3a_branch2b"
  top: "res3a_branch2b"
  scale_param {
    bias_term: true
  }
}
layer {
  name: "res3a_branch2b_relu"
  type: "ReLU"
  bottom: "res3a_branch2b"
  top: "res3a_branch2b"
}
layer {
  name: "res3a_branch2c"
  type: "Convolution"
  bottom: "res3a_branch2b"
  top: "res3a_branch2c"
  convolution_param {
    num_output: 512
    bias_term: false
    pad: 0
    kernel_size: 1
    stride: 1
  }
}
layer {
  name: "bn3a_branch2c"
  type: "BatchNorm"
  bottom: "res3a_branch2c"
  top: "res3a_branch2c"
  batch_norm_param {
    use_global_stats: true
  }
}
layer {
  name: "scale3a_branch2c"
  type: "Scale"
  bottom: "res3a_branch2c"
  top: "res3a_branch2c"
  scale_param {
    bias_term: true
  }
}
layer {
  name: "res3a"
  type: "Eltwise"
  bottom: "res3a_branch1"
  bottom: "res3a_branch2c"
  top: "res3a"
}
layer {
  name: "res3a_relu"
  type: "ReLU"
  bottom: "res3a"
  top: "res3a"
}
layer {
  name: "res3b_branch2a"
  type: "Convolution"
  bottom: "res3a"
  top: "res3b_branch2a"
  convolution_param {
    num_output: 128
    bias_term: false
    pad: 0
    kernel_size: 1
    stride: 1
  }
}
layer {
  name: "bn3b_branch2a"
  type: "BatchNorm"
  bottom: "res3b_branch2a"
  top: "res3b_branch2a"
  batch_norm_param {
    use_global_stats: true
  }
}
layer {
  name: "scale3b_branch2a"
  type: "Scale"
  bottom: "res3b_branch2a"
  top: "res3b_branch2a"
  scale_param {
    bias_term: true
  }
}
layer {
  name: "res3b_branch2a_relu"
  type: "ReLU"
  bottom: "res3b_branch2a"
  top: "res3b_branch2a"
}
layer {
  name: "res3b_branch2b"
  type: "Convolution"
  bottom: "res3b_branch2a"
  top: "res3b_branch2b"
  convolution_param {
    num_output: 128
    bias_term: false
    pad: 1
    kernel_size: 3
    stride: 1
  }
}
layer {
  name: "bn3b_branch2b"
  type: "BatchNorm"
  bottom: "res3b_branch2b"
  top: "res3b_branch2b"
  batch_norm_param {
    use_global_stats: true
  }
}
layer {
  name: "scale3b_branch2b"
  type: "Scale"
  bottom: "res3b_branch2b"
  top: "res3b_branch2b"
  scale_param {
    bias_term: true
  }
}
layer {
  name: "res3b_branch2b_relu"
  type: "ReLU"
  bottom: "res3b_branch2b"
  top: "res3b_branch2b"
}
layer {
  name: "res3b_branch2c"
  type: "Convolution"
  bottom: "res3b_branch2b"
  top: "res3b_branch2c"
  convolution_param {
    num_output: 512
    bias_term: false
    pad: 0
    kernel_size: 1
    stride: 1
  }
}
layer {
  name: "bn3b_branch2c"
  type: "BatchNorm"
  bottom: "res3b_branch2c"
  top: "res3b_branch2c"
  batch_norm_param {
    use_global_stats: true
  }
}
layer {
  name: "scale3b_branch2c"
  type: "Scale"
  bottom: "res3b_branch2c"
  top: "res3b_branch2c"
  scale_param {
    bias_term: true
  }
}
layer {
  name: "res3b"
  type: "Eltwise"
  bottom: "res3a"
  bottom: "res3b_branch2c"
  top: "res3b"
}
layer {
  name: "res3b_relu"
  type: "ReLU"
  bottom: "res3b"
  top: "res3b"
}
layer {
  name: "res3c_branch2a"
  type: "Convolution"
  bottom: "res3b"
  top: "res3c_branch2a"
  convolution_param {
    num_output: 128
    bias_term: false
    pad: 0
    kernel_size: 1
    stride: 1
  }
}
layer {
  name: "bn3c_branch2a"
  type: "BatchNorm"
  bottom: "res3c_branch2a"
  top: "res3c_branch2a"
  batch_norm_param {
    use_global_stats: true
  }
}
layer {
  name: "scale3c_branch2a"
  type: "Scale"
  bottom: "res3c_branch2a"
  top: "res3c_branch2a"
  scale_param {
    bias_term: true
  }
}
layer {
  name: "res3c_branch2a_relu"
  type: "ReLU"
  bottom: "res3c_branch2a"
  top: "res3c_branch2a"
}
layer {
  name: "res3c_branch2b"
  type: "Convolution"
  bottom: "res3c_branch2a"
  top: "res3c_branch2b"
  convolution_param {
    num_output: 128
    bias_term: false
    pad: 1
    kernel_size: 3
    stride: 1
  }
}
layer {
  name: "bn3c_branch2b"
  type: "BatchNorm"
  bottom: "res3c_branch2b"
  top: "res3c_branch2b"
  batch_norm_param {
    use_global_stats: true
  }
}
layer {
  name: "scale3c_branch2b"
  type: "Scale"
  bottom: "res3c_branch2b"
  top: "res3c_branch2b"
  scale_param {
    bias_term: true
  }
}
layer {
  name: "res3c_branch2b_relu"
  type: "ReLU"
  bottom: "res3c_branch2b"
  top: "res3c_branch2b"
}
layer {
  name: "res3c_branch2c"
  type: "Convolution"
  bottom: "res3c_branch2b"
  top: "res3c_branch2c"
  convolution_param {
    num_output: 512
    bias_term: false
    pad: 0
    kernel_size: 1
    stride: 1
  }
}
layer {
  name: "bn3c_branch2c"
  type: "BatchNorm"
  bottom: "res3c_branch2c"
  top: "res3c_branch2c"
  batch_norm_param {
    use_global_stats: true
  }
}
layer {
  name: "scale3c_branch2c"
  type: "Scale"
  bottom: "res3c_branch2c"
  top: "res3c_branch2c"
  scale_param {
    bias_term: true
  }
}
layer {
  name: "res3c"
  type: "Eltwise"
  bottom: "res3b"
  bottom: "res3c_branch2c"
  top: "res3c"
}
layer {
  name: "res3c_relu"
  type: "ReLU"
  bottom: "res3c"
  top: "res3c"
}
layer {
  name: "res3d_branch2a"
  type: "Convolution"
  bottom: "res3c"
  top: "res3d_branch2a"
  convolution_param {
    num_output: 128
    bias_term: false
    pad: 0
    kernel_size: 1
    stride: 1
  }
}
layer {
  name: "bn3d_branch2a"
  type: "BatchNorm"
  bottom: "res3d_branch2a"
  top: "res3d_branch2a"
  batch_norm_param {
    use_global_stats: true
  }
}
layer {
  name: "scale3d_branch2a"
  type: "Scale"
  bottom: "res3d_branch2a"
  top: "res3d_branch2a"
  scale_param {
    bias_term: true
  }
}
layer {
  name: "res3d_branch2a_relu"
  type: "ReLU"
  bottom: "res3d_branch2a"
  top: "res3d_branch2a"
}
layer {
  name: "res3d_branch2b"
  type: "Convolution"
  bottom: "res3d_branch2a"
  top: "res3d_branch2b"
  convolution_param {
    num_output: 128
    bias_term: false
    pad: 1
    kernel_size: 3
    stride: 1
  }
}
layer {
  name: "bn3d_branch2b"
  type: "BatchNorm"
  bottom: "res3d_branch2b"
  top: "res3d_branch2b"
  batch_norm_param {
    use_global_stats: true
  }
}
layer {
  name: "scale3d_branch2b"
  type: "Scale"
  bottom: "res3d_branch2b"
  top: "res3d_branch2b"
  scale_param {
    bias_term: true
  }
}
layer {
  name: "res3d_branch2b_relu"
  type: "ReLU"
  bottom: "res3d_branch2b"
  top: "res3d_branch2b"
}
layer {
  name: "res3d_branch2c"
  type: "Convolution"
  bottom: "res3d_branch2b"
  top: "res3d_branch2c"
  convolution_param {
    num_output: 512
    bias_term: false
    pad: 0
    kernel_size: 1
    stride: 1
  }
}
layer {
  name: "bn3d_branch2c"
  type: "BatchNorm"
  bottom: "res3d_branch2c"
  top: "res3d_branch2c"
  batch_norm_param {
    use_global_stats: true
  }
}
layer {
  name: "scale3d_branch2c"
  type: "Scale"
  bottom: "res3d_branch2c"
  top: "res3d_branch2c"
  scale_param {
    bias_term: true
  }
}
layer {
  name: "res3d"
  type: "Eltwise"
  bottom: "res3c"
  bottom: "res3d_branch2c"
  top: "res3d"
}
layer {
  name: "res3d_relu"
  type: "ReLU"
  bottom: "res3d"
  top: "res3d"
}
layer {
  name: "res4a_branch1"
  type: "Convolution"
  bottom: "res3d"
  top: "res4a_branch1"
  convolution_param {
    num_output: 1024
    bias_term: false
    pad: 0
    kernel_size: 1
    stride: 2
  }
}
layer {
  name: "bn4a_branch1"
  type: "BatchNorm"
  bottom: "res4a_branch1"
  top: "res4a_branch1"
  batch_norm_param {
    use_global_stats: true
  }
}
layer {
  name: "scale4a_branch1"
  type: "Scale"
  bottom: "res4a_branch1"
  top: "res4a_branch1"
  scale_param {
    bias_term: true
  }
}
layer {
  name: "res4a_branch2a"
  type: "Convolution"
  bottom: "res3d"
  top: "res4a_branch2a"
  convolution_param {
    num_output: 256
    bias_term: false
    pad: 0
    kernel_size: 1
    stride: 2
  }
}
layer {
  name: "bn4a_branch2a"
  type: "BatchNorm"
  bottom: "res4a_branch2a"
  top: "res4a_branch2a"
  batch_norm_param {
    use_global_stats: true
  }
}
layer {
  name: "scale4a_branch2a"
  type: "Scale"
  bottom: "res4a_branch2a"
  top: "res4a_branch2a"
  scale_param {
    bias_term: true
  }
}
layer {
  name: "res4a_branch2a_relu"
  type: "ReLU"
  bottom: "res4a_branch2a"
  top: "res4a_branch2a"
}
layer {
  name: "res4a_branch2b"
  type: "Convolution"
  bottom: "res4a_branch2a"
  top: "res4a_branch2b"
  convolution_param {
    num_output: 256
    bias_term: false
    pad: 1
    kernel_size: 3
    stride: 1
  }
}
layer {
  name: "bn4a_branch2b"
  type: "BatchNorm"
  bottom: "res4a_branch2b"
  top: "res4a_branch2b"
  batch_norm_param {
    use_global_stats: true
  }
}
layer {
  name: "scale4a_branch2b"
  type: "Scale"
  bottom: "res4a_branch2b"
  top: "res4a_branch2b"
  scale_param {
    bias_term: true
  }
}
layer {
  name: "res4a_branch2b_relu"
  type: "ReLU"
  bottom: "res4a_branch2b"
  top: "res4a_branch2b"
}
layer {
  name: "res4a_branch2c"
  type: "Convolution"
  bottom: "res4a_branch2b"
  top: "res4a_branch2c"
  convolution_param {
    num_output: 1024
    bias_term: false
    pad: 0
    kernel_size: 1
    stride: 1
  }
}
layer {
  name: "bn4a_branch2c"
  type: "BatchNorm"
  bottom: "res4a_branch2c"
  top: "res4a_branch2c"
  batch_norm_param {
    use_global_stats: true
  }
}
layer {
  name: "scale4a_branch2c"
  type: "Scale"
  bottom: "res4a_branch2c"
  top: "res4a_branch2c"
  scale_param {
    bias_term: true
  }
}
layer {
  name: "res4a"
  type: "Eltwise"
  bottom: "res4a_branch1"
  bottom: "res4a_branch2c"
  top: "res4a"
}
layer {
  name: "res4a_relu"
  type: "ReLU"
  bottom: "res4a"
  top: "res4a"
}
layer {
  name: "res4b_branch2a"
  type: "Convolution"
  bottom: "res4a"
  top: "res4b_branch2a"
  convolution_param {
    num_output: 256
    bias_term: false
    pad: 0
    kernel_size: 1
    stride: 1
  }
}
layer {
  name: "bn4b_branch2a"
  type: "BatchNorm"
  bottom: "res4b_branch2a"
  top: "res4b_branch2a"
  batch_norm_param {
    use_global_stats: true
  }
}
layer {
  name: "scale4b_branch2a"
  type: "Scale"
  bottom: "res4b_branch2a"
  top: "res4b_branch2a"
  scale_param {
    bias_term: true
  }
}
layer {
  name: "res4b_branch2a_relu"
  type: "ReLU"
  bottom: "res4b_branch2a"
  top: "res4b_branch2a"
}
layer {
  name: "res4b_branch2b"
  type: "Convolution"
  bottom: "res4b_branch2a"
  top: "res4b_branch2b"
  convolution_param {
    num_output: 256
    bias_term: false
    pad: 1
    kernel_size: 3
    stride: 1
  }
}
layer {
  name: "bn4b_branch2b"
  type: "BatchNorm"
  bottom: "res4b_branch2b"
  top: "res4b_branch2b"
  batch_norm_param {
    use_global_stats: true
  }
}
layer {
  name: "scale4b_branch2b"
  type: "Scale"
  bottom: "res4b_branch2b"
  top: "res4b_branch2b"
  scale_param {
    bias_term: true
  }
}
layer {
  name: "res4b_branch2b_relu"
  type: "ReLU"
  bottom: "res4b_branch2b"
  top: "res4b_branch2b"
}
layer {
  name: "res4b_branch2c"
  type: "Convolution"
  bottom: "res4b_branch2b"
  top: "res4b_branch2c"
  convolution_param {
    num_output: 1024
    bias_term: false
    pad: 0
    kernel_size: 1
    stride: 1
  }
}
layer {
  name: "bn4b_branch2c"
  type: "BatchNorm"
  bottom: "res4b_branch2c"
  top: "res4b_branch2c"
  batch_norm_param {
    use_global_stats: true
  }
}
layer {
  name: "scale4b_branch2c"
  type: "Scale"
  bottom: "res4b_branch2c"
  top: "res4b_branch2c"
  scale_param {
    bias_term: true
  }
}
layer {
  name: "res4b"
  type: "Eltwise"
  bottom: "res4a"
  bottom: "res4b_branch2c"
  top: "res4b"
}
layer {
  name: "res4b_relu"
  type: "ReLU"
  bottom: "res4b"
  top: "res4b"
}
layer {
  name: "res4c_branch2a"
  type: "Convolution"
  bottom: "res4b"
  top: "res4c_branch2a"
  convolution_param {
    num_output: 256
    bias_term: false
    pad: 0
    kernel_size: 1
    stride: 1
  }
}
layer {
  name: "bn4c_branch2a"
  type: "BatchNorm"
  bottom: "res4c_branch2a"
  top: "res4c_branch2a"
  batch_norm_param {
    use_global_stats: true
  }
}
layer {
  name: "scale4c_branch2a"
  type: "Scale"
  bottom: "res4c_branch2a"
  top: "res4c_branch2a"
  scale_param {
    bias_term: true
  }
}
layer {
  name: "res4c_branch2a_relu"
  type: "ReLU"
  bottom: "res4c_branch2a"
  top: "res4c_branch2a"
}
layer {
  name: "res4c_branch2b"
  type: "Convolution"
  bottom: "res4c_branch2a"
  top: "res4c_branch2b"
  convolution_param {
    num_output: 256
    bias_term: false
    pad: 1
    kernel_size: 3
    stride: 1
  }
}
layer {
  name: "bn4c_branch2b"
  type: "BatchNorm"
  bottom: "res4c_branch2b"
  top: "res4c_branch2b"
  batch_norm_param {
    use_global_stats: true
  }
}
layer {
  name: "scale4c_branch2b"
  type: "Scale"
  bottom: "res4c_branch2b"
  top: "res4c_branch2b"
  scale_param {
    bias_term: true
  }
}
layer {
  name: "res4c_branch2b_relu"
  type: "ReLU"
  bottom: "res4c_branch2b"
  top: "res4c_branch2b"
}
layer {
  name: "res4c_branch2c"
  type: "Convolution"
  bottom: "res4c_branch2b"
  top: "res4c_branch2c"
  convolution_param {
    num_output: 1024
    bias_term: false
    pad: 0
    kernel_size: 1
    stride: 1
  }
}
layer {
  name: "bn4c_branch2c"
  type: "BatchNorm"
  bottom: "res4c_branch2c"
  top: "res4c_branch2c"
  batch_norm_param {
    use_global_stats: true
  }
}
layer {
  name: "scale4c_branch2c"
  type: "Scale"
  bottom: "res4c_branch2c"
  top: "res4c_branch2c"
  scale_param {
    bias_term: true
  }
}
layer {
  name: "res4c"
  type: "Eltwise"
  bottom: "res4b"
  bottom: "res4c_branch2c"
  top: "res4c"
}
layer {
  name: "res4c_relu"
  type: "ReLU"
  bottom: "res4c"
  top: "res4c"
}
layer {
  name: "res4d_branch2a"
  type: "Convolution"
  bottom: "res4c"
  top: "res4d_branch2a"
  convolution_param {
    num_output: 256
    bias_term: false
    pad: 0
    kernel_size: 1
    stride: 1
  }
}
layer {
  name: "bn4d_branch2a"
  type: "BatchNorm"
  bottom: "res4d_branch2a"
  top: "res4d_branch2a"
  batch_norm_param {
    use_global_stats: true
  }
}
layer {
  name: "scale4d_branch2a"
  type: "Scale"
  bottom: "res4d_branch2a"
  top: "res4d_branch2a"
  scale_param {
    bias_term: true
  }
}
layer {
  name: "res4d_branch2a_relu"
  type: "ReLU"
  bottom: "res4d_branch2a"
  top: "res4d_branch2a"
}
layer {
  name: "res4d_branch2b"
  type: "Convolution"
  bottom: "res4d_branch2a"
  top: "res4d_branch2b"
  convolution_param {
    num_output: 256
    bias_term: false
    pad: 1
    kernel_size: 3
    stride: 1
  }
}
layer {
  name: "bn4d_branch2b"
  type: "BatchNorm"
  bottom: "res4d_branch2b"
  top: "res4d_branch2b"
  batch_norm_param {
    use_global_stats: true
  }
}
layer {
  name: "scale4d_branch2b"
  type: "Scale"
  bottom: "res4d_branch2b"
  top: "res4d_branch2b"
  scale_param {
    bias_term: true
  }
}
layer {
  name: "res4d_branch2b_relu"
  type: "ReLU"
  bottom: "res4d_branch2b"
  top: "res4d_branch2b"
}
layer {
  name: "res4d_branch2c"
  type: "Convolution"
  bottom: "res4d_branch2b"
  top: "res4d_branch2c"
  convolution_param {
    num_output: 1024
    bias_term: false
    pad: 0
    kernel_size: 1
    stride: 1
  }
}
layer {
  name: "bn4d_branch2c"
  type: "BatchNorm"
  bottom: "res4d_branch2c"
  top: "res4d_branch2c"
  batch_norm_param {
    use_global_stats: true
  }
}
layer {
  name: "scale4d_branch2c"
  type: "Scale"
  bottom: "res4d_branch2c"
  top: "res4d_branch2c"
  scale_param {
    bias_term: true
  }
}
layer {
  name: "res4d"
  type: "Eltwise"
  bottom: "res4c"
  bottom: "res4d_branch2c"
  top: "res4d"
}
layer {
  name: "res4d_relu"
  type: "ReLU"
  bottom: "res4d"
  top: "res4d"
}
layer {
  name: "res4e_branch2a"
  type: "Convolution"
  bottom: "res4d"
  top: "res4e_branch2a"
  convolution_param {
    num_output: 256
    bias_term: false
    pad: 0
    kernel_size: 1
    stride: 1
  }
}
layer {
  name: "bn4e_branch2a"
  type: "BatchNorm"
  bottom: "res4e_branch2a"
  top: "res4e_branch2a"
  batch_norm_param {
    use_global_stats: true
  }
}
layer {
  name: "scale4e_branch2a"
  type: "Scale"
  bottom: "res4e_branch2a"
  top: "res4e_branch2a"
  scale_param {
    bias_term: true
  }
}
layer {
  name: "res4e_branch2a_relu"
  type: "ReLU"
  bottom: "res4e_branch2a"
  top: "res4e_branch2a"
}
layer {
  name: "res4e_branch2b"
  type: "Convolution"
  bottom: "res4e_branch2a"
  top: "res4e_branch2b"
  convolution_param {
    num_output: 256
    bias_term: false
    pad: 1
    kernel_size: 3
    stride: 1
  }
}
layer {
  name: "bn4e_branch2b"
  type: "BatchNorm"
  bottom: "res4e_branch2b"
  top: "res4e_branch2b"
  batch_norm_param {
    use_global_stats: true
  }
}
layer {
  name: "scale4e_branch2b"
  type: "Scale"
  bottom: "res4e_branch2b"
  top: "res4e_branch2b"
  scale_param {
    bias_term: true
  }
}
layer {
  name: "res4e_branch2b_relu"
  type: "ReLU"
  bottom: "res4e_branch2b"
  top: "res4e_branch2b"
}
layer {
  name: "res4e_branch2c"
  type: "Convolution"
  bottom: "res4e_branch2b"
  top: "res4e_branch2c"
  convolution_param {
    num_output: 1024
    bias_term: false
    pad: 0
    kernel_size: 1
    stride: 1
  }
}
layer {
  name: "bn4e_branch2c"
  type: "BatchNorm"
  bottom: "res4e_branch2c"
  top: "res4e_branch2c"
  batch_norm_param {
    use_global_stats: true
  }
}
layer {
  name: "scale4e_branch2c"
  type: "Scale"
  bottom: "res4e_branch2c"
  top: "res4e_branch2c"
  scale_param {
    bias_term: true
  }
}
layer {
  name: "res4e"
  type: "Eltwise"
  bottom: "res4d"
  bottom: "res4e_branch2c"
  top: "res4e"
}
layer {
  name: "res4e_relu"
  type: "ReLU"
  bottom: "res4e"
  top: "res4e"
}
layer {
  name: "res4f_branch2a"
  type: "Convolution"
  bottom: "res4e"
  top: "res4f_branch2a"
  convolution_param {
    num_output: 256
    bias_term: false
    pad: 0
    kernel_size: 1
    stride: 1
  }
}
layer {
  name: "bn4f_branch2a"
  type: "BatchNorm"
  bottom: "res4f_branch2a"
  top: "res4f_branch2a"
  batch_norm_param {
    use_global_stats: true
  }
}
layer {
  name: "scale4f_branch2a"
  type: "Scale"
  bottom: "res4f_branch2a"
  top: "res4f_branch2a"
  scale_param {
    bias_term: true
  }
}
layer {
  name: "res4f_branch2a_relu"
  type: "ReLU"
  bottom: "res4f_branch2a"
  top: "res4f_branch2a"
}
layer {
  name: "res4f_branch2b"
  type: "Convolution"
  bottom: "res4f_branch2a"
  top: "res4f_branch2b"
  convolution_param {
    num_output: 256
    bias_term: false
    pad: 1
    kernel_size: 3
    stride: 1
  }
}
layer {
  name: "bn4f_branch2b"
  type: "BatchNorm"
  bottom: "res4f_branch2b"
  top: "res4f_branch2b"
  batch_norm_param {
    use_global_stats: true
  }
}
layer {
  name: "scale4f_branch2b"
  type: "Scale"
  bottom: "res4f_branch2b"
  top: "res4f_branch2b"
  scale_param {
    bias_term: true
  }
}
layer {
  name: "res4f_branch2b_relu"
  type: "ReLU"
  bottom: "res4f_branch2b"
  top: "res4f_branch2b"
}
layer {
  name: "res4f_branch2c"
  type: "Convolution"
  bottom: "res4f_branch2b"
  top: "res4f_branch2c"
  convolution_param {
    num_output: 1024
    bias_term: false
    pad: 0
    kernel_size: 1
    stride: 1
  }
}
layer {
  name: "bn4f_branch2c"
  type: "BatchNorm"
  bottom: "res4f_branch2c"
  top: "res4f_branch2c"
  batch_norm_param {
    use_global_stats: true
  }
}
layer {
  name: "scale4f_branch2c"
  type: "Scale"
  bottom: "res4f_branch2c"
  top: "res4f_branch2c"
  scale_param {
    bias_term: true
  }
}
layer {
  name: "res4f"
  type: "Eltwise"
  bottom: "res4e"
  bottom: "res4f_branch2c"
  top: "res4f"
}
layer {
  name: "res4f_relu"
  type: "ReLU"
  bottom: "res4f"
  top: "res4f"
}
layer {
  name: "res5a_branch1"
  type: "Convolution"
  bottom: "res4f"
  top: "res5a_branch1"
  convolution_param {
    num_output: 2048
    bias_term: false
    pad: 0
    kernel_size: 1
    stride: 2
  }
}
layer {
  name: "bn5a_branch1"
  type: "BatchNorm"
  bottom: "res5a_branch1"
  top: "res5a_branch1"
  batch_norm_param {
    use_global_stats: true
  }
}
layer {
  name: "scale5a_branch1"
  type: "Scale"
  bottom: "res5a_branch1"
  top: "res5a_branch1"
  scale_param {
    bias_term: true
  }
}
layer {
  name: "res5a_branch2a"
  type: "Convolution"
  bottom: "res4f"
  top: "res5a_branch2a"
  convolution_param {
    num_output: 512
    bias_term: false
    pad: 0
    kernel_size: 1
    stride: 2
  }
}
layer {
  name: "bn5a_branch2a"
  type: "BatchNorm"
  bottom: "res5a_branch2a"
  top: "res5a_branch2a"
  batch_norm_param {
    use_global_stats: true
  }
}
layer {
  name: "scale5a_branch2a"
  type: "Scale"
  bottom: "res5a_branch2a"
  top: "res5a_branch2a"
  scale_param {
    bias_term: true
  }
}
layer {
  name: "res5a_branch2a_relu"
  type: "ReLU"
  bottom: "res5a_branch2a"
  top: "res5a_branch2a"
}
layer {
  name: "res5a_branch2b"
  type: "Convolution"
  bottom: "res5a_branch2a"
  top: "res5a_branch2b"
  convolution_param {
    num_output: 512
    bias_term: false
    pad: 1
    kernel_size: 3
    stride: 1
  }
}
layer {
  name: "bn5a_branch2b"
  type: "BatchNorm"
  bottom: "res5a_branch2b"
  top: "res5a_branch2b"
  batch_norm_param {
    use_global_stats: true
  }
}
layer {
  name: "scale5a_branch2b"
  type: "Scale"
  bottom: "res5a_branch2b"
  top: "res5a_branch2b"
  scale_param {
    bias_term: true
  }
}
layer {
  name: "res5a_branch2b_relu"
  type: "ReLU"
  bottom: "res5a_branch2b"
  top: "res5a
I0328 09:29:06.673226  4213 layer_factory.hpp:77] Creating layer data
I0328 09:29:06.674288  4213 net.cpp:106] Creating Layer data
I0328 09:29:06.674335  4213 net.cpp:411] data -> data
I0328 09:29:06.674489  4213 net.cpp:411] data -> id_label
I0328 09:29:06.674552  4213 data_transformer.cpp:25] Loading mean file from: /home/lizhuowan/Market1501/lmdb/lmdb_12936/Image_lmdb_12936.binaryproto
I0328 09:29:06.676700  4223 db_lmdb.cpp:38] Opened lmdb /home/lizhuowan/Market1501/lmdb/lmdb_mirror_12936/Image_lmdb_mirror_12936
I0328 09:29:06.700479  4213 data_layer.cpp:41] output data size: 16,3,224,224
I0328 09:29:06.728523  4213 net.cpp:150] Setting up data
I0328 09:29:06.728610  4213 net.cpp:157] Top shape: 16 3 224 224 (2408448)
I0328 09:29:06.728628  4213 net.cpp:157] Top shape: 16 (16)
I0328 09:29:06.728641  4213 net.cpp:165] Memory required for data: 9633856
I0328 09:29:06.728665  4213 layer_factory.hpp:77] Creating layer data
I0328 09:29:06.728832  4213 net.cpp:106] Creating Layer data
I0328 09:29:06.728859  4213 net.cpp:411] data -> labels
I0328 09:29:06.731593  4225 db_lmdb.cpp:38] Opened lmdb /home/lizhuowan/Market1501/lmdb/lmdb_mirror_12936/pos30_lmdb_mirror_12936_correct
I0328 09:29:06.733225  4213 data_layer.cpp:41] output data size: 16,30,1,1
I0328 09:29:06.734776  4213 net.cpp:150] Setting up data
I0328 09:29:06.734818  4213 net.cpp:157] Top shape: 16 30 1 1 (480)
I0328 09:29:06.734840  4213 net.cpp:165] Memory required for data: 9635776
I0328 09:29:06.734858  4213 layer_factory.hpp:77] Creating layer conv1
I0328 09:29:06.735008  4213 net.cpp:106] Creating Layer conv1
I0328 09:29:06.735082  4213 net.cpp:454] conv1 <- data
I0328 09:29:06.735146  4213 net.cpp:411] conv1 -> conv1
I0328 09:29:06.737095  4213 net.cpp:150] Setting up conv1
I0328 09:29:06.737146  4213 net.cpp:157] Top shape: 16 64 112 112 (12845056)
I0328 09:29:06.737167  4213 net.cpp:165] Memory required for data: 61016000
I0328 09:29:06.737223  4213 layer_factory.hpp:77] Creating layer bn_conv1
I0328 09:29:06.737272  4213 net.cpp:106] Creating Layer bn_conv1
I0328 09:29:06.737295  4213 net.cpp:454] bn_conv1 <- conv1
I0328 09:29:06.737411  4213 net.cpp:397] bn_conv1 -> conv1 (in-place)
I0328 09:29:06.738111  4213 net.cpp:150] Setting up bn_conv1
I0328 09:29:06.738157  4213 net.cpp:157] Top shape: 16 64 112 112 (12845056)
I0328 09:29:06.738179  4213 net.cpp:165] Memory required for data: 112396224
I0328 09:29:06.738258  4213 layer_factory.hpp:77] Creating layer scale_conv1
I0328 09:29:06.738306  4213 net.cpp:106] Creating Layer scale_conv1
I0328 09:29:06.738327  4213 net.cpp:454] scale_conv1 <- conv1
I0328 09:29:06.738350  4213 net.cpp:397] scale_conv1 -> conv1 (in-place)
I0328 09:29:06.738514  4213 layer_factory.hpp:77] Creating layer scale_conv1
I0328 09:29:06.738945  4213 net.cpp:150] Setting up scale_conv1
I0328 09:29:06.738988  4213 net.cpp:157] Top shape: 16 64 112 112 (12845056)
I0328 09:29:06.739015  4213 net.cpp:165] Memory required for data: 163776448
I0328 09:29:06.739047  4213 layer_factory.hpp:77] Creating layer conv1_relu
I0328 09:29:06.739078  4213 net.cpp:106] Creating Layer conv1_relu
I0328 09:29:06.739099  4213 net.cpp:454] conv1_relu <- conv1
I0328 09:29:06.739126  4213 net.cpp:397] conv1_relu -> conv1 (in-place)
I0328 09:29:06.739158  4213 net.cpp:150] Setting up conv1_relu
I0328 09:29:06.739182  4213 net.cpp:157] Top shape: 16 64 112 112 (12845056)
I0328 09:29:06.739200  4213 net.cpp:165] Memory required for data: 215156672
I0328 09:29:06.739218  4213 layer_factory.hpp:77] Creating layer pool1
I0328 09:29:06.739248  4213 net.cpp:106] Creating Layer pool1
I0328 09:29:06.739266  4213 net.cpp:454] pool1 <- conv1
I0328 09:29:06.739289  4213 net.cpp:411] pool1 -> pool1
I0328 09:29:06.739454  4213 net.cpp:150] Setting up pool1
I0328 09:29:06.739491  4213 net.cpp:157] Top shape: 16 64 56 56 (3211264)
I0328 09:29:06.739514  4213 net.cpp:165] Memory required for data: 228001728
I0328 09:29:06.739534  4213 layer_factory.hpp:77] Creating layer pool1_pool1_0_split
I0328 09:29:06.739564  4213 net.cpp:106] Creating Layer pool1_pool1_0_split
I0328 09:29:06.739583  4213 net.cpp:454] pool1_pool1_0_split <- pool1
I0328 09:29:06.739612  4213 net.cpp:411] pool1_pool1_0_split -> pool1_pool1_0_split_0
I0328 09:29:06.739639  4213 net.cpp:411] pool1_pool1_0_split -> pool1_pool1_0_split_1
I0328 09:29:06.739724  4213 net.cpp:150] Setting up pool1_pool1_0_split
I0328 09:29:06.739755  4213 net.cpp:157] Top shape: 16 64 56 56 (3211264)
I0328 09:29:06.739776  4213 net.cpp:157] Top shape: 16 64 56 56 (3211264)
I0328 09:29:06.739794  4213 net.cpp:165] Memory required for data: 253691840
I0328 09:29:06.739811  4213 layer_factory.hpp:77] Creating layer res2a_branch1
I0328 09:29:06.739850  4213 net.cpp:106] Creating Layer res2a_branch1
I0328 09:29:06.739871  4213 net.cpp:454] res2a_branch1 <- pool1_pool1_0_split_0
I0328 09:29:06.739895  4213 net.cpp:411] res2a_branch1 -> res2a_branch1
I0328 09:29:06.740272  4213 net.cpp:150] Setting up res2a_branch1
I0328 09:29:06.740306  4213 net.cpp:157] Top shape: 16 256 56 56 (12845056)
I0328 09:29:06.740324  4213 net.cpp:165] Memory required for data: 305072064
I0328 09:29:06.740347  4213 layer_factory.hpp:77] Creating layer bn2a_branch1
I0328 09:29:06.740372  4213 net.cpp:106] Creating Layer bn2a_branch1
I0328 09:29:06.740391  4213 net.cpp:454] bn2a_branch1 <- res2a_branch1
I0328 09:29:06.740419  4213 net.cpp:397] bn2a_branch1 -> res2a_branch1 (in-place)
I0328 09:29:06.741950  4213 net.cpp:150] Setting up bn2a_branch1
I0328 09:29:06.741994  4213 net.cpp:157] Top shape: 16 256 56 56 (12845056)
I0328 09:29:06.742014  4213 net.cpp:165] Memory required for data: 356452288
I0328 09:29:06.742053  4213 layer_factory.hpp:77] Creating layer scale2a_branch1
I0328 09:29:06.742082  4213 net.cpp:106] Creating Layer scale2a_branch1
I0328 09:29:06.742102  4213 net.cpp:454] scale2a_branch1 <- res2a_branch1
I0328 09:29:06.742131  4213 net.cpp:397] scale2a_branch1 -> res2a_branch1 (in-place)
I0328 09:29:06.742241  4213 layer_factory.hpp:77] Creating layer scale2a_branch1
I0328 09:29:06.742498  4213 net.cpp:150] Setting up scale2a_branch1
I0328 09:29:06.742532  4213 net.cpp:157] Top shape: 16 256 56 56 (12845056)
I0328 09:29:06.742563  4213 net.cpp:165] Memory required for data: 407832512
I0328 09:29:06.742611  4213 layer_factory.hpp:77] Creating layer res2a_branch2a
I0328 09:29:06.742643  4213 net.cpp:106] Creating Layer res2a_branch2a
I0328 09:29:06.742663  4213 net.cpp:454] res2a_branch2a <- pool1_pool1_0_split_1
I0328 09:29:06.742693  4213 net.cpp:411] res2a_branch2a -> res2a_branch2a
I0328 09:29:06.743091  4213 net.cpp:150] Setting up res2a_branch2a
I0328 09:29:06.743129  4213 net.cpp:157] Top shape: 16 64 56 56 (3211264)
I0328 09:29:06.743151  4213 net.cpp:165] Memory required for data: 420677568
I0328 09:29:06.743175  4213 layer_factory.hpp:77] Creating layer bn2a_branch2a
I0328 09:29:06.743201  4213 net.cpp:106] Creating Layer bn2a_branch2a
I0328 09:29:06.743221  4213 net.cpp:454] bn2a_branch2a <- res2a_branch2a
I0328 09:29:06.743243  4213 net.cpp:397] bn2a_branch2a -> res2a_branch2a (in-place)
I0328 09:29:06.743623  4213 net.cpp:150] Setting up bn2a_branch2a
I0328 09:29:06.743656  4213 net.cpp:157] Top shape: 16 64 56 56 (3211264)
I0328 09:29:06.743674  4213 net.cpp:165] Memory required for data: 433522624
I0328 09:29:06.743717  4213 layer_factory.hpp:77] Creating layer scale2a_branch2a
I0328 09:29:06.743746  4213 net.cpp:106] Creating Layer scale2a_branch2a
I0328 09:29:06.743764  4213 net.cpp:454] scale2a_branch2a <- res2a_branch2a
I0328 09:29:06.743788  4213 net.cpp:397] scale2a_branch2a -> res2a_branch2a (in-place)
I0328 09:29:06.743904  4213 layer_factory.hpp:77] Creating layer scale2a_branch2a
I0328 09:29:06.744176  4213 net.cpp:150] Setting up scale2a_branch2a
I0328 09:29:06.744211  4213 net.cpp:157] Top shape: 16 64 56 56 (3211264)
I0328 09:29:06.744230  4213 net.cpp:165] Memory required for data: 446367680
I0328 09:29:06.744254  4213 layer_factory.hpp:77] Creating layer res2a_branch2a_relu
I0328 09:29:06.744285  4213 net.cpp:106] Creating Layer res2a_branch2a_relu
I0328 09:29:06.744307  4213 net.cpp:454] res2a_branch2a_relu <- res2a_branch2a
I0328 09:29:06.744329  4213 net.cpp:397] res2a_branch2a_relu -> res2a_branch2a (in-place)
I0328 09:29:06.744360  4213 net.cpp:150] Setting up res2a_branch2a_relu
I0328 09:29:06.744382  4213 net.cpp:157] Top shape: 16 64 56 56 (3211264)
I0328 09:29:06.744400  4213 net.cpp:165] Memory required for data: 459212736
I0328 09:29:06.744418  4213 layer_factory.hpp:77] Creating layer res2a_branch2b
I0328 09:29:06.744451  4213 net.cpp:106] Creating Layer res2a_branch2b
I0328 09:29:06.744472  4213 net.cpp:454] res2a_branch2b <- res2a_branch2a
I0328 09:29:06.744495  4213 net.cpp:411] res2a_branch2b -> res2a_branch2b
I0328 09:29:06.746063  4213 net.cpp:150] Setting up res2a_branch2b
I0328 09:29:06.746110  4213 net.cpp:157] Top shape: 16 64 56 56 (3211264)
I0328 09:29:06.746129  4213 net.cpp:165] Memory required for data: 472057792
I0328 09:29:06.746153  4213 layer_factory.hpp:77] Creating layer bn2a_branch2b
I0328 09:29:06.746189  4213 net.cpp:106] Creating Layer bn2a_branch2b
I0328 09:29:06.746212  4213 net.cpp:454] bn2a_branch2b <- res2a_branch2b
I0328 09:29:06.746235  4213 net.cpp:397] bn2a_branch2b -> res2a_branch2b (in-place)
I0328 09:29:06.746644  4213 net.cpp:150] Setting up bn2a_branch2b
I0328 09:29:06.746678  4213 net.cpp:157] Top shape: 16 64 56 56 (3211264)
I0328 09:29:06.746696  4213 net.cpp:165] Memory required for data: 484902848
I0328 09:29:06.746726  4213 layer_factory.hpp:77] Creating layer scale2a_branch2b
I0328 09:29:06.746752  4213 net.cpp:106] Creating Layer scale2a_branch2b
I0328 09:29:06.746778  4213 net.cpp:454] scale2a_branch2b <- res2a_branch2b
I0328 09:29:06.746809  4213 net.cpp:397] scale2a_branch2b -> res2a_branch2b (in-place)
I0328 09:29:06.746911  4213 layer_factory.hpp:77] Creating layer scale2a_branch2b
I0328 09:29:06.747195  4213 net.cpp:150] Setting up scale2a_branch2b
I0328 09:29:06.747229  4213 net.cpp:157] Top shape: 16 64 56 56 (3211264)
I0328 09:29:06.747247  4213 net.cpp:165] Memory required for data: 497747904
I0328 09:29:06.747273  4213 layer_factory.hpp:77] Creating layer res2a_branch2b_relu
I0328 09:29:06.747298  4213 net.cpp:106] Creating Layer res2a_branch2b_relu
I0328 09:29:06.747330  4213 net.cpp:454] res2a_branch2b_relu <- res2a_branch2b
I0328 09:29:06.747378  4213 net.cpp:397] res2a_branch2b_relu -> res2a_branch2b (in-place)
I0328 09:29:06.747406  4213 net.cpp:150] Setting up res2a_branch2b_relu
I0328 09:29:06.747429  4213 net.cpp:157] Top shape: 16 64 56 56 (3211264)
I0328 09:29:06.747447  4213 net.cpp:165] Memory required for data: 510592960
I0328 09:29:06.747464  4213 layer_factory.hpp:77] Creating layer res2a_branch2c
I0328 09:29:06.747498  4213 net.cpp:106] Creating Layer res2a_branch2c
I0328 09:29:06.747517  4213 net.cpp:454] res2a_branch2c <- res2a_branch2b
I0328 09:29:06.747540  4213 net.cpp:411] res2a_branch2c -> res2a_branch2c
I0328 09:29:06.747943  4213 net.cpp:150] Setting up res2a_branch2c
I0328 09:29:06.747985  4213 net.cpp:157] Top shape: 16 256 56 56 (12845056)
I0328 09:29:06.748003  4213 net.cpp:165] Memory required for data: 561973184
I0328 09:29:06.748026  4213 layer_factory.hpp:77] Creating layer bn2a_branch2c
I0328 09:29:06.748051  4213 net.cpp:106] Creating Layer bn2a_branch2c
I0328 09:29:06.748070  4213 net.cpp:454] bn2a_branch2c <- res2a_branch2c
I0328 09:29:06.748101  4213 net.cpp:397] bn2a_branch2c -> res2a_branch2c (in-place)
I0328 09:29:06.748492  4213 net.cpp:150] Setting up bn2a_branch2c
I0328 09:29:06.748524  4213 net.cpp:157] Top shape: 16 256 56 56 (12845056)
I0328 09:29:06.748543  4213 net.cpp:165] Memory required for data: 613353408
I0328 09:29:06.748572  4213 layer_factory.hpp:77] Creating layer scale2a_branch2c
I0328 09:29:06.748600  4213 net.cpp:106] Creating Layer scale2a_branch2c
I0328 09:29:06.748618  4213 net.cpp:454] scale2a_branch2c <- res2a_branch2c
I0328 09:29:06.748641  4213 net.cpp:397] scale2a_branch2c -> res2a_branch2c (in-place)
I0328 09:29:06.748744  4213 layer_factory.hpp:77] Creating layer scale2a_branch2c
I0328 09:29:06.749006  4213 net.cpp:150] Setting up scale2a_branch2c
I0328 09:29:06.749039  4213 net.cpp:157] Top shape: 16 256 56 56 (12845056)
I0328 09:29:06.749058  4213 net.cpp:165] Memory required for data: 664733632
I0328 09:29:06.749083  4213 layer_factory.hpp:77] Creating layer res2a
I0328 09:29:06.749115  4213 net.cpp:106] Creating Layer res2a
I0328 09:29:06.749136  4213 net.cpp:454] res2a <- res2a_branch1
I0328 09:29:06.749157  4213 net.cpp:454] res2a <- res2a_branch2c
I0328 09:29:06.749191  4213 net.cpp:411] res2a -> res2a
I0328 09:29:06.749274  4213 net.cpp:150] Setting up res2a
I0328 09:29:06.749306  4213 net.cpp:157] Top shape: 16 256 56 56 (12845056)
I0328 09:29:06.749325  4213 net.cpp:165] Memory required for data: 716113856
I0328 09:29:06.749363  4213 layer_factory.hpp:77] Creating layer res2a_relu
I0328 09:29:06.749397  4213 net.cpp:106] Creating Layer res2a_relu
I0328 09:29:06.749419  4213 net.cpp:454] res2a_relu <- res2a
I0328 09:29:06.749441  4213 net.cpp:397] res2a_relu -> res2a (in-place)
I0328 09:29:06.749467  4213 net.cpp:150] Setting up res2a_relu
I0328 09:29:06.749490  4213 net.cpp:157] Top shape: 16 256 56 56 (12845056)
I0328 09:29:06.749507  4213 net.cpp:165] Memory required for data: 767494080
I0328 09:29:06.749526  4213 layer_factory.hpp:77] Creating layer res2a_res2a_relu_0_split
I0328 09:29:06.749547  4213 net.cpp:106] Creating Layer res2a_res2a_relu_0_split
I0328 09:29:06.749565  4213 net.cpp:454] res2a_res2a_relu_0_split <- res2a
I0328 09:29:06.749593  4213 net.cpp:411] res2a_res2a_relu_0_split -> res2a_res2a_relu_0_split_0
I0328 09:29:06.749617  4213 net.cpp:411] res2a_res2a_relu_0_split -> res2a_res2a_relu_0_split_1
I0328 09:29:06.749709  4213 net.cpp:150] Setting up res2a_res2a_relu_0_split
I0328 09:29:06.749739  4213 net.cpp:157] Top shape: 16 256 56 56 (12845056)
I0328 09:29:06.749759  4213 net.cpp:157] Top shape: 16 256 56 56 (12845056)
I0328 09:29:06.749776  4213 net.cpp:165] Memory required for data: 870254528
I0328 09:29:06.749794  4213 layer_factory.hpp:77] Creating layer res2b_branch2a
I0328 09:29:06.749821  4213 net.cpp:106] Creating Layer res2b_branch2a
I0328 09:29:06.749840  4213 net.cpp:454] res2b_branch2a <- res2a_res2a_relu_0_split_0
I0328 09:29:06.749868  4213 net.cpp:411] res2b_branch2a -> res2b_branch2a
I0328 09:29:06.750299  4213 net.cpp:150] Setting up res2b_branch2a
I0328 09:29:06.750336  4213 net.cpp:157] Top shape: 16 64 56 56 (3211264)
I0328 09:29:06.750355  4213 net.cpp:165] Memory required for data: 883099584
I0328 09:29:06.750377  4213 layer_factory.hpp:77] Creating layer bn2b_branch2a
I0328 09:29:06.750412  4213 net.cpp:106] Creating Layer bn2b_branch2a
I0328 09:29:06.750433  4213 net.cpp:454] bn2b_branch2a <- res2b_branch2a
I0328 09:29:06.750458  4213 net.cpp:397] bn2b_branch2a -> res2b_branch2a (in-place)
I0328 09:29:06.750859  4213 net.cpp:150] Setting up bn2b_branch2a
I0328 09:29:06.750891  4213 net.cpp:157] Top shape: 16 64 56 56 (3211264)
I0328 09:29:06.750910  4213 net.cpp:165] Memory required for data: 895944640
I0328 09:29:06.750954  4213 layer_factory.hpp:77] Creating layer scale2b_branch2a
I0328 09:29:06.750983  4213 net.cpp:106] Creating Layer scale2b_branch2a
I0328 09:29:06.751003  4213 net.cpp:454] scale2b_branch2a <- res2b_branch2a
I0328 09:29:06.751025  4213 net.cpp:397] scale2b_branch2a -> res2b_branch2a (in-place)
I0328 09:29:06.751137  4213 layer_factory.hpp:77] Creating layer scale2b_branch2a
I0328 09:29:06.751443  4213 net.cpp:150] Setting up scale2b_branch2a
I0328 09:29:06.751484  4213 net.cpp:157] Top shape: 16 64 56 56 (3211264)
I0328 09:29:06.751503  4213 net.cpp:165] Memory required for data: 908789696
I0328 09:29:06.751529  4213 layer_factory.hpp:77] Creating layer res2b_branch2a_relu
I0328 09:29:06.751554  4213 net.cpp:106] Creating Layer res2b_branch2a_relu
I0328 09:29:06.751574  4213 net.cpp:454] res2b_branch2a_relu <- res2b_branch2a
I0328 09:29:06.751596  4213 net.cpp:397] res2b_branch2a_relu -> res2b_branch2a (in-place)
I0328 09:29:06.751621  4213 net.cpp:150] Setting up res2b_branch2a_relu
I0328 09:29:06.751648  4213 net.cpp:157] Top shape: 16 64 56 56 (3211264)
I0328 09:29:06.751665  4213 net.cpp:165] Memory required for data: 921634752
I0328 09:29:06.751683  4213 layer_factory.hpp:77] Creating layer res2b_branch2b
I0328 09:29:06.751716  4213 net.cpp:106] Creating Layer res2b_branch2b
I0328 09:29:06.751736  4213 net.cpp:454] res2b_branch2b <- res2b_branch2a
I0328 09:29:06.751760  4213 net.cpp:411] res2b_branch2b -> res2b_branch2b
I0328 09:29:06.752197  4213 net.cpp:150] Setting up res2b_branch2b
I0328 09:29:06.752233  4213 net.cpp:157] Top shape: 16 64 56 56 (3211264)
I0328 09:29:06.752250  4213 net.cpp:165] Memory required for data: 934479808
I0328 09:29:06.752274  4213 layer_factory.hpp:77] Creating layer bn2b_branch2b
I0328 09:29:06.752297  4213 net.cpp:106] Creating Layer bn2b_branch2b
I0328 09:29:06.752317  4213 net.cpp:454] bn2b_branch2b <- res2b_branch2b
I0328 09:29:06.752339  4213 net.cpp:397] bn2b_branch2b -> res2b_branch2b (in-place)
I0328 09:29:06.752791  4213 net.cpp:150] Setting up bn2b_branch2b
I0328 09:29:06.752830  4213 net.cpp:157] Top shape: 16 64 56 56 (3211264)
I0328 09:29:06.752848  4213 net.cpp:165] Memory required for data: 947324864
I0328 09:29:06.752878  4213 layer_factory.hpp:77] Creating layer scale2b_branch2b
I0328 09:29:06.752904  4213 net.cpp:106] Creating Layer scale2b_branch2b
I0328 09:29:06.752924  4213 net.cpp:454] scale2b_branch2b <- res2b_branch2b
I0328 09:29:06.752946  4213 net.cpp:397] scale2b_branch2b -> res2b_branch2b (in-place)
I0328 09:29:06.753058  4213 layer_factory.hpp:77] Creating layer scale2b_branch2b
I0328 09:29:06.753353  4213 net.cpp:150] Setting up scale2b_branch2b
I0328 09:29:06.753391  4213 net.cpp:157] Top shape: 16 64 56 56 (3211264)
I0328 09:29:06.753408  4213 net.cpp:165] Memory required for data: 960169920
I0328 09:29:06.753434  4213 layer_factory.hpp:77] Creating layer res2b_branch2b_relu
I0328 09:29:06.753470  4213 net.cpp:106] Creating Layer res2b_branch2b_relu
I0328 09:29:06.753494  4213 net.cpp:454] res2b_branch2b_relu <- res2b_branch2b
I0328 09:29:06.753515  4213 net.cpp:397] res2b_branch2b_relu -> res2b_branch2b (in-place)
I0328 09:29:06.753541  4213 net.cpp:150] Setting up res2b_branch2b_relu
I0328 09:29:06.753563  4213 net.cpp:157] Top shape: 16 64 56 56 (3211264)
I0328 09:29:06.753597  4213 net.cpp:165] Memory required for data: 973014976
I0328 09:29:06.753634  4213 layer_factory.hpp:77] Creating layer res2b_branch2c
I0328 09:29:06.753669  4213 net.cpp:106] Creating Layer res2b_branch2c
I0328 09:29:06.753690  4213 net.cpp:454] res2b_branch2c <- res2b_branch2b
I0328 09:29:06.753712  4213 net.cpp:411] res2b_branch2c -> res2b_branch2c
I0328 09:29:06.755790  4213 net.cpp:150] Setting up res2b_branch2c
I0328 09:29:06.755851  4213 net.cpp:157] Top shape: 16 256 56 56 (12845056)
I0328 09:29:06.755872  4213 net.cpp:165] Memory required for data: 1024395200
I0328 09:29:06.755897  4213 layer_factory.hpp:77] Creating layer bn2b_branch2c
I0328 09:29:06.755925  4213 net.cpp:106] Creating Layer bn2b_branch2c
I0328 09:29:06.755946  4213 net.cpp:454] bn2b_branch2c <- res2b_branch2c
I0328 09:29:06.755971  4213 net.cpp:397] bn2b_branch2c -> res2b_branch2c (in-place)
I0328 09:29:06.756369  4213 net.cpp:150] Setting up bn2b_branch2c
I0328 09:29:06.756404  4213 net.cpp:157] Top shape: 16 256 56 56 (12845056)
I0328 09:29:06.756422  4213 net.cpp:165] Memory required for data: 1075775424
I0328 09:29:06.756453  4213 layer_factory.hpp:77] Creating layer scale2b_branch2c
I0328 09:29:06.756495  4213 net.cpp:106] Creating Layer scale2b_branch2c
I0328 09:29:06.756518  4213 net.cpp:454] scale2b_branch2c <- res2b_branch2c
I0328 09:29:06.756541  4213 net.cpp:397] scale2b_branch2c -> res2b_branch2c (in-place)
I0328 09:29:06.756652  4213 layer_factory.hpp:77] Creating layer scale2b_branch2c
I0328 09:29:06.756925  4213 net.cpp:150] Setting up scale2b_branch2c
I0328 09:29:06.756961  4213 net.cpp:157] Top shape: 16 256 56 56 (12845056)
I0328 09:29:06.756979  4213 net.cpp:165] Memory required for data: 1127155648
I0328 09:29:06.757005  4213 layer_factory.hpp:77] Creating layer res2b
I0328 09:29:06.757036  4213 net.cpp:106] Creating Layer res2b
I0328 09:29:06.757057  4213 net.cpp:454] res2b <- res2a_res2a_relu_0_split_1
I0328 09:29:06.757079  4213 net.cpp:454] res2b <- res2b_branch2c
I0328 09:29:06.757102  4213 net.cpp:411] res2b -> res2b
I0328 09:29:06.757179  4213 net.cpp:150] Setting up res2b
I0328 09:29:06.757210  4213 net.cpp:157] Top shape: 16 256 56 56 (12845056)
I0328 09:29:06.757228  4213 net.cpp:165] Memory required for data: 1178535872
I0328 09:29:06.757247  4213 layer_factory.hpp:77] Creating layer res2b_relu
I0328 09:29:06.757272  4213 net.cpp:106] Creating Layer res2b_relu
I0328 09:29:06.757290  4213 net.cpp:454] res2b_relu <- res2b
I0328 09:29:06.757313  4213 net.cpp:397] res2b_relu -> res2b (in-place)
I0328 09:29:06.757352  4213 net.cpp:150] Setting up res2b_relu
I0328 09:29:06.757380  4213 net.cpp:157] Top shape: 16 256 56 56 (12845056)
I0328 09:29:06.757397  4213 net.cpp:165] Memory required for data: 1229916096
I0328 09:29:06.757416  4213 layer_factory.hpp:77] Creating layer res2b_res2b_relu_0_split
I0328 09:29:06.757444  4213 net.cpp:106] Creating Layer res2b_res2b_relu_0_split
I0328 09:29:06.757464  4213 net.cpp:454] res2b_res2b_relu_0_split <- res2b
I0328 09:29:06.757486  4213 net.cpp:411] res2b_res2b_relu_0_split -> res2b_res2b_relu_0_split_0
I0328 09:29:06.757513  4213 net.cpp:411] res2b_res2b_relu_0_split -> res2b_res2b_relu_0_split_1
I0328 09:29:06.757606  4213 net.cpp:150] Setting up res2b_res2b_relu_0_split
I0328 09:29:06.757637  4213 net.cpp:157] Top shape: 16 256 56 56 (12845056)
I0328 09:29:06.757658  4213 net.cpp:157] Top shape: 16 256 56 56 (12845056)
I0328 09:29:06.757675  4213 net.cpp:165] Memory required for data: 1332676544
I0328 09:29:06.757694  4213 layer_factory.hpp:77] Creating layer res2c_branch2a
I0328 09:29:06.757721  4213 net.cpp:106] Creating Layer res2c_branch2a
I0328 09:29:06.757741  4213 net.cpp:454] res2c_branch2a <- res2b_res2b_relu_0_split_0
I0328 09:29:06.757766  4213 net.cpp:411] res2c_branch2a -> res2c_branch2a
I0328 09:29:06.758177  4213 net.cpp:150] Setting up res2c_branch2a
I0328 09:29:06.758214  4213 net.cpp:157] Top shape: 16 64 56 56 (3211264)
I0328 09:29:06.758232  4213 net.cpp:165] Memory required for data: 1345521600
I0328 09:29:06.758255  4213 layer_factory.hpp:77] Creating layer bn2c_branch2a
I0328 09:29:06.758322  4213 net.cpp:106] Creating Layer bn2c_branch2a
I0328 09:29:06.758344  4213 net.cpp:454] bn2c_branch2a <- res2c_branch2a
I0328 09:29:06.758373  4213 net.cpp:397] bn2c_branch2a -> res2c_branch2a (in-place)
I0328 09:29:06.758788  4213 net.cpp:150] Setting up bn2c_branch2a
I0328 09:29:06.758822  4213 net.cpp:157] Top shape: 16 64 56 56 (3211264)
I0328 09:29:06.758841  4213 net.cpp:165] Memory required for data: 1358366656
I0328 09:29:06.758869  4213 layer_factory.hpp:77] Creating layer scale2c_branch2a
I0328 09:29:06.758896  4213 net.cpp:106] Creating Layer scale2c_branch2a
I0328 09:29:06.758915  4213 net.cpp:454] scale2c_branch2a <- res2c_branch2a
I0328 09:29:06.758944  4213 net.cpp:397] scale2c_branch2a -> res2c_branch2a (in-place)
I0328 09:29:06.759044  4213 layer_factory.hpp:77] Creating layer scale2c_branch2a
I0328 09:29:06.759332  4213 net.cpp:150] Setting up scale2c_branch2a
I0328 09:29:06.759366  4213 net.cpp:157] Top shape: 16 64 56 56 (3211264)
I0328 09:29:06.759383  4213 net.cpp:165] Memory required for data: 1371211712
I0328 09:29:06.759410  4213 layer_factory.hpp:77] Creating layer res2c_branch2a_relu
I0328 09:29:06.759434  4213 net.cpp:106] Creating Layer res2c_branch2a_relu
I0328 09:29:06.759454  4213 net.cpp:454] res2c_branch2a_relu <- res2c_branch2a
I0328 09:29:06.759485  4213 net.cpp:397] res2c_branch2a_relu -> res2c_branch2a (in-place)
I0328 09:29:06.759511  4213 net.cpp:150] Setting up res2c_branch2a_relu
I0328 09:29:06.759533  4213 net.cpp:157] Top shape: 16 64 56 56 (3211264)
I0328 09:29:06.759552  4213 net.cpp:165] Memory required for data: 1384056768
I0328 09:29:06.759568  4213 layer_factory.hpp:77] Creating layer res2c_branch2b
I0328 09:29:06.759601  4213 net.cpp:106] Creating Layer res2c_branch2b
I0328 09:29:06.759621  4213 net.cpp:454] res2c_branch2b <- res2c_branch2a
I0328 09:29:06.759644  4213 net.cpp:411] res2c_branch2b -> res2c_branch2b
I0328 09:29:06.760077  4213 net.cpp:150] Setting up res2c_branch2b
I0328 09:29:06.760114  4213 net.cpp:157] Top shape: 16 64 56 56 (3211264)
I0328 09:29:06.760133  4213 net.cpp:165] Memory required for data: 1396901824
I0328 09:29:06.760155  4213 layer_factory.hpp:77] Creating layer bn2c_branch2b
I0328 09:29:06.760179  4213 net.cpp:106] Creating Layer bn2c_branch2b
I0328 09:29:06.760198  4213 net.cpp:454] bn2c_branch2b <- res2c_branch2b
I0328 09:29:06.760221  4213 net.cpp:397] bn2c_branch2b -> res2c_branch2b (in-place)
I0328 09:29:06.760658  4213 net.cpp:150] Setting up bn2c_branch2b
I0328 09:29:06.760692  4213 net.cpp:157] Top shape: 16 64 56 56 (3211264)
I0328 09:29:06.760710  4213 net.cpp:165] Memory required for data: 1409746880
I0328 09:29:06.760740  4213 layer_factory.hpp:77] Creating layer scale2c_branch2b
I0328 09:29:06.760766  4213 net.cpp:106] Creating Layer scale2c_branch2b
I0328 09:29:06.760785  4213 net.cpp:454] scale2c_branch2b <- res2c_branch2b
I0328 09:29:06.760807  4213 net.cpp:397] scale2c_branch2b -> res2c_branch2b (in-place)
I0328 09:29:06.760920  4213 layer_factory.hpp:77] Creating layer scale2c_branch2b
I0328 09:29:06.761204  4213 net.cpp:150] Setting up scale2c_branch2b
I0328 09:29:06.761238  4213 net.cpp:157] Top shape: 16 64 56 56 (3211264)
I0328 09:29:06.761256  4213 net.cpp:165] Memory required for data: 1422591936
I0328 09:29:06.761282  4213 layer_factory.hpp:77] Creating layer res2c_branch2b_relu
I0328 09:29:06.761307  4213 net.cpp:106] Creating Layer res2c_branch2b_relu
I0328 09:29:06.761327  4213 net.cpp:454] res2c_branch2b_relu <- res2c_branch2b
I0328 09:29:06.761364  4213 net.cpp:397] res2c_branch2b_relu -> res2c_branch2b (in-place)
I0328 09:29:06.761390  4213 net.cpp:150] Setting up res2c_branch2b_relu
I0328 09:29:06.761414  4213 net.cpp:157] Top shape: 16 64 56 56 (3211264)
I0328 09:29:06.761430  4213 net.cpp:165] Memory required for data: 1435436992
I0328 09:29:06.761448  4213 layer_factory.hpp:77] Creating layer res2c_branch2c
I0328 09:29:06.761482  4213 net.cpp:106] Creating Layer res2c_branch2c
I0328 09:29:06.761503  4213 net.cpp:454] res2c_branch2c <- res2c_branch2b
I0328 09:29:06.761545  4213 net.cpp:411] res2c_branch2c -> res2c_branch2c
I0328 09:29:06.761976  4213 net.cpp:150] Setting up res2c_branch2c
I0328 09:29:06.762012  4213 net.cpp:157] Top shape: 16 256 56 56 (12845056)
I0328 09:29:06.762030  4213 net.cpp:165] Memory required for data: 1486817216
I0328 09:29:06.762053  4213 layer_factory.hpp:77] Creating layer bn2c_branch2c
I0328 09:29:06.762079  4213 net.cpp:106] Creating Layer bn2c_branch2c
I0328 09:29:06.762097  4213 net.cpp:454] bn2c_branch2c <- res2c_branch2c
I0328 09:29:06.762120  4213 net.cpp:397] bn2c_branch2c -> res2c_branch2c (in-place)
I0328 09:29:06.762509  4213 net.cpp:150] Setting up bn2c_branch2c
I0328 09:29:06.762543  4213 net.cpp:157] Top shape: 16 256 56 56 (12845056)
I0328 09:29:06.762562  4213 net.cpp:165] Memory required for data: 1538197440
I0328 09:29:06.762614  4213 layer_factory.hpp:77] Creating layer scale2c_branch2c
I0328 09:29:06.762642  4213 net.cpp:106] Creating Layer scale2c_branch2c
I0328 09:29:06.762662  4213 net.cpp:454] scale2c_branch2c <- res2c_branch2c
I0328 09:29:06.762703  4213 net.cpp:397] scale2c_branch2c -> res2c_branch2c (in-place)
I0328 09:29:06.762814  4213 layer_factory.hpp:77] Creating layer scale2c_branch2c
I0328 09:29:06.763083  4213 net.cpp:150] Setting up scale2c_branch2c
I0328 09:29:06.763118  4213 net.cpp:157] Top shape: 16 256 56 56 (12845056)
I0328 09:29:06.763135  4213 net.cpp:165] Memory required for data: 1589577664
I0328 09:29:06.763162  4213 layer_factory.hpp:77] Creating layer res2c
I0328 09:29:06.763186  4213 net.cpp:106] Creating Layer res2c
I0328 09:29:06.763206  4213 net.cpp:454] res2c <- res2b_res2b_relu_0_split_1
I0328 09:29:06.763226  4213 net.cpp:454] res2c <- res2c_branch2c
I0328 09:29:06.763254  4213 net.cpp:411] res2c -> res2c
I0328 09:29:06.763320  4213 net.cpp:150] Setting up res2c
I0328 09:29:06.763350  4213 net.cpp:157] Top shape: 16 256 56 56 (12845056)
I0328 09:29:06.763370  4213 net.cpp:165] Memory required for data: 1640957888
I0328 09:29:06.763387  4213 layer_factory.hpp:77] Creating layer res2c_relu
I0328 09:29:06.763411  4213 net.cpp:106] Creating Layer res2c_relu
I0328 09:29:06.763429  4213 net.cpp:454] res2c_relu <- res2c
I0328 09:29:06.763451  4213 net.cpp:397] res2c_relu -> res2c (in-place)
I0328 09:29:06.763475  4213 net.cpp:150] Setting up res2c_relu
I0328 09:29:06.763497  4213 net.cpp:157] Top shape: 16 256 56 56 (12845056)
I0328 09:29:06.763514  4213 net.cpp:165] Memory required for data: 1692338112
I0328 09:29:06.763531  4213 layer_factory.hpp:77] Creating layer res2c_res2c_relu_0_split
I0328 09:29:06.763555  4213 net.cpp:106] Creating Layer res2c_res2c_relu_0_split
I0328 09:29:06.763572  4213 net.cpp:454] res2c_res2c_relu_0_split <- res2c
I0328 09:29:06.763603  4213 net.cpp:411] res2c_res2c_relu_0_split -> res2c_res2c_relu_0_split_0
I0328 09:29:06.763630  4213 net.cpp:411] res2c_res2c_relu_0_split -> res2c_res2c_relu_0_split_1
I0328 09:29:06.763656  4213 net.cpp:411] res2c_res2c_relu_0_split -> res2c_res2c_relu_0_split_2
I0328 09:29:06.763686  4213 net.cpp:411] res2c_res2c_relu_0_split -> res2c_res2c_relu_0_split_3
I0328 09:29:06.763821  4213 net.cpp:150] Setting up res2c_res2c_relu_0_split
I0328 09:29:06.763851  4213 net.cpp:157] Top shape: 16 256 56 56 (12845056)
I0328 09:29:06.763872  4213 net.cpp:157] Top shape: 16 256 56 56 (12845056)
I0328 09:29:06.763891  4213 net.cpp:157] Top shape: 16 256 56 56 (12845056)
I0328 09:29:06.763921  4213 net.cpp:157] Top shape: 16 256 56 56 (12845056)
I0328 09:29:06.763937  4213 net.cpp:165] Memory required for data: 1897859008
I0328 09:29:06.763957  4213 layer_factory.hpp:77] Creating layer res3a_branch1
I0328 09:29:06.763983  4213 net.cpp:106] Creating Layer res3a_branch1
I0328 09:29:06.764004  4213 net.cpp:454] res3a_branch1 <- res2c_res2c_relu_0_split_0
I0328 09:29:06.764027  4213 net.cpp:411] res3a_branch1 -> res3a_branch1
I0328 09:29:06.765771  4213 net.cpp:150] Setting up res3a_branch1
I0328 09:29:06.765818  4213 net.cpp:157] Top shape: 16 512 28 28 (6422528)
I0328 09:29:06.765837  4213 net.cpp:165] Memory required for data: 1923549120
I0328 09:29:06.765875  4213 layer_factory.hpp:77] Creating layer bn3a_branch1
I0328 09:29:06.765921  4213 net.cpp:106] Creating Layer bn3a_branch1
I0328 09:29:06.765944  4213 net.cpp:454] bn3a_branch1 <- res3a_branch1
I0328 09:29:06.765967  4213 net.cpp:397] bn3a_branch1 -> res3a_branch1 (in-place)
I0328 09:29:06.766379  4213 net.cpp:150] Setting up bn3a_branch1
I0328 09:29:06.766414  4213 net.cpp:157] Top shape: 16 512 28 28 (6422528)
I0328 09:29:06.766433  4213 net.cpp:165] Memory required for data: 1949239232
I0328 09:29:06.766463  4213 layer_factory.hpp:77] Creating layer scale3a_branch1
I0328 09:29:06.766499  4213 net.cpp:106] Creating Layer scale3a_branch1
I0328 09:29:06.766520  4213 net.cpp:454] scale3a_branch1 <- res3a_branch1
I0328 09:29:06.766543  4213 net.cpp:397] scale3a_branch1 -> res3a_branch1 (in-place)
I0328 09:29:06.766659  4213 layer_factory.hpp:77] Creating layer scale3a_branch1
I0328 09:29:06.766924  4213 net.cpp:150] Setting up scale3a_branch1
I0328 09:29:06.766957  4213 net.cpp:157] Top shape: 16 512 28 28 (6422528)
I0328 09:29:06.766975  4213 net.cpp:165] Memory required for data: 1974929344
I0328 09:29:06.767001  4213 layer_factory.hpp:77] Creating layer res3a_branch2a
I0328 09:29:06.767035  4213 net.cpp:106] Creating Layer res3a_branch2a
I0328 09:29:06.767057  4213 net.cpp:454] res3a_branch2a <- res2c_res2c_relu_0_split_1
I0328 09:29:06.767082  4213 net.cpp:411] res3a_branch2a -> res3a_branch2a
I0328 09:29:06.767518  4213 net.cpp:150] Setting up res3a_branch2a
I0328 09:29:06.767554  4213 net.cpp:157] Top shape: 16 128 28 28 (1605632)
I0328 09:29:06.767581  4213 net.cpp:165] Memory required for data: 1981351872
I0328 09:29:06.767604  4213 layer_factory.hpp:77] Creating layer bn3a_branch2a
I0328 09:29:06.767642  4213 net.cpp:106] Creating Layer bn3a_branch2a
I0328 09:29:06.767663  4213 net.cpp:454] bn3a_branch2a <- res3a_branch2a
I0328 09:29:06.767686  4213 net.cpp:397] bn3a_branch2a -> res3a_branch2a (in-place)
I0328 09:29:06.768085  4213 net.cpp:150] Setting up bn3a_branch2a
I0328 09:29:06.768118  4213 net.cpp:157] Top shape: 16 128 28 28 (1605632)
I0328 09:29:06.768136  4213 net.cpp:165] Memory required for data: 1987774400
I0328 09:29:06.768165  4213 layer_factory.hpp:77] Creating layer scale3a_branch2a
I0328 09:29:06.768198  4213 net.cpp:106] Creating Layer scale3a_branch2a
I0328 09:29:06.768218  4213 net.cpp:454] scale3a_branch2a <- res3a_branch2a
I0328 09:29:06.768242  4213 net.cpp:397] scale3a_branch2a -> res3a_branch2a (in-place)
I0328 09:29:06.768344  4213 layer_factory.hpp:77] Creating layer scale3a_branch2a
I0328 09:29:06.768604  4213 net.cpp:150] Setting up scale3a_branch2a
I0328 09:29:06.768636  4213 net.cpp:157] Top shape: 16 128 28 28 (1605632)
I0328 09:29:06.768654  4213 net.cpp:165] Memory required for data: 1994196928
I0328 09:29:06.768679  4213 layer_factory.hpp:77] Creating layer res3a_branch2a_relu
I0328 09:29:06.768704  4213 net.cpp:106] Creating Layer res3a_branch2a_relu
I0328 09:29:06.768724  4213 net.cpp:454] res3a_branch2a_relu <- res3a_branch2a
I0328 09:29:06.768745  4213 net.cpp:397] res3a_branch2a_relu -> res3a_branch2a (in-place)
I0328 09:29:06.768770  4213 net.cpp:150] Setting up res3a_branch2a_relu
I0328 09:29:06.768792  4213 net.cpp:157] Top shape: 16 128 28 28 (1605632)
I0328 09:29:06.768812  4213 net.cpp:165] Memory required for data: 2000619456
I0328 09:29:06.768831  4213 layer_factory.hpp:77] Creating layer res3a_branch2b
I0328 09:29:06.768864  4213 net.cpp:106] Creating Layer res3a_branch2b
I0328 09:29:06.768885  4213 net.cpp:454] res3a_branch2b <- res3a_branch2a
I0328 09:29:06.768914  4213 net.cpp:411] res3a_branch2b -> res3a_branch2b
I0328 09:29:06.770647  4213 net.cpp:150] Setting up res3a_branch2b
I0328 09:29:06.770692  4213 net.cpp:157] Top shape: 16 128 28 28 (1605632)
I0328 09:29:06.770711  4213 net.cpp:165] Memory required for data: 2007041984
I0328 09:29:06.770735  4213 layer_factory.hpp:77] Creating layer bn3a_branch2b
I0328 09:29:06.770768  4213 net.cpp:106] Creating Layer bn3a_branch2b
I0328 09:29:06.770789  4213 net.cpp:454] bn3a_branch2b <- res3a_branch2b
I0328 09:29:06.770826  4213 net.cpp:397] bn3a_branch2b -> res3a_branch2b (in-place)
I0328 09:29:06.771252  4213 net.cpp:150] Setting up bn3a_branch2b
I0328 09:29:06.771288  4213 net.cpp:157] Top shape: 16 128 28 28 (1605632)
I0328 09:29:06.771306  4213 net.cpp:165] Memory required for data: 2013464512
I0328 09:29:06.771337  4213 layer_factory.hpp:77] Creating layer scale3a_branch2b
I0328 09:29:06.771363  4213 net.cpp:106] Creating Layer scale3a_branch2b
I0328 09:29:06.771381  4213 net.cpp:454] scale3a_branch2b <- res3a_branch2b
I0328 09:29:06.771411  4213 net.cpp:397] scale3a_branch2b -> res3a_branch2b (in-place)
I0328 09:29:06.771518  4213 layer_factory.hpp:77] Creating layer scale3a_branch2b
I0328 09:29:06.771781  4213 net.cpp:150] Setting up scale3a_branch2b
I0328 09:29:06.771821  4213 net.cpp:157] Top shape: 16 128 28 28 (1605632)
I0328 09:29:06.771839  4213 net.cpp:165] Memory required for data: 2019887040
I0328 09:29:06.771865  4213 layer_factory.hpp:77] Creating layer res3a_branch2b_relu
I0328 09:29:06.771890  4213 net.cpp:106] Creating Layer res3a_branch2b_relu
I0328 09:29:06.771909  4213 net.cpp:454] res3a_branch2b_relu <- res3a_branch2b
I0328 09:29:06.771932  4213 net.cpp:397] res3a_branch2b_relu -> res3a_branch2b (in-place)
I0328 09:29:06.771956  4213 net.cpp:150] Setting up res3a_branch2b_relu
I0328 09:29:06.771978  4213 net.cpp:157] Top shape: 16 128 28 28 (1605632)
I0328 09:29:06.771996  4213 net.cpp:165] Memory required for data: 2026309568
I0328 09:29:06.772013  4213 layer_factory.hpp:77] Creating layer res3a_branch2c
I0328 09:29:06.772060  4213 net.cpp:106] Creating Layer res3a_branch2c
I0328 09:29:06.772083  4213 net.cpp:454] res3a_branch2c <- res3a_branch2b
I0328 09:29:06.772107  4213 net.cpp:411] res3a_branch2c -> res3a_branch2c
I0328 09:29:06.772595  4213 net.cpp:150] Setting up res3a_branch2c
I0328 09:29:06.772634  4213 net.cpp:157] Top shape: 16 512 28 28 (6422528)
I0328 09:29:06.772651  4213 net.cpp:165] Memory required for data: 2051999680
I0328 09:29:06.772675  4213 layer_factory.hpp:77] Creating layer bn3a_branch2c
I0328 09:29:06.772704  4213 net.cpp:106] Creating Layer bn3a_branch2c
I0328 09:29:06.772725  4213 net.cpp:454] bn3a_branch2c <- res3a_branch2c
I0328 09:29:06.772753  4213 net.cpp:397] bn3a_branch2c -> res3a_branch2c (in-place)
I0328 09:29:06.773152  4213 net.cpp:150] Setting up bn3a_branch2c
I0328 09:29:06.773186  4213 net.cpp:157] Top shape: 16 512 28 28 (6422528)
I0328 09:29:06.773205  4213 net.cpp:165] Memory required for data: 2077689792
I0328 09:29:06.773234  4213 layer_factory.hpp:77] Creating layer scale3a_branch2c
I0328 09:29:06.773259  4213 net.cpp:106] Creating Layer scale3a_branch2c
I0328 09:29:06.773279  4213 net.cpp:454] scale3a_branch2c <- res3a_branch2c
I0328 09:29:06.773301  4213 net.cpp:397] scale3a_branch2c -> res3a_branch2c (in-place)
I0328 09:29:06.773424  4213 layer_factory.hpp:77] Creating layer scale3a_branch2c
I0328 09:29:06.773680  4213 net.cpp:150] Setting up scale3a_branch2c
I0328 09:29:06.773715  4213 net.cpp:157] Top shape: 16 512 28 28 (6422528)
I0328 09:29:06.773733  4213 net.cpp:165] Memory required for data: 2103379904
I0328 09:29:06.773758  4213 layer_factory.hpp:77] Creating layer res3a
I0328 09:29:06.773790  4213 net.cpp:106] Creating Layer res3a
I0328 09:29:06.773811  4213 net.cpp:454] res3a <- res3a_branch1
I0328 09:29:06.773833  4213 net.cpp:454] res3a <- res3a_branch2c
I0328 09:29:06.773860  4213 net.cpp:411] res3a -> res3a
I0328 09:29:06.773938  4213 net.cpp:150] Setting up res3a
I0328 09:29:06.773977  4213 net.cpp:157] Top shape: 16 512 28 28 (6422528)
I0328 09:29:06.773996  4213 net.cpp:165] Memory required for data: 2129070016
I0328 09:29:06.774015  4213 layer_factory.hpp:77] Creating layer res3a_relu
I0328 09:29:06.774039  4213 net.cpp:106] Creating Layer res3a_relu
I0328 09:29:06.774060  4213 net.cpp:454] res3a_relu <- res3a
I0328 09:29:06.774094  4213 net.cpp:397] res3a_relu -> res3a (in-place)
I0328 09:29:06.774121  4213 net.cpp:150] Setting up res3a_relu
I0328 09:29:06.774144  4213 net.cpp:157] Top shape: 16 512 28 28 (6422528)
I0328 09:29:06.774174  4213 net.cpp:165] Memory required for data: 2154760128
I0328 09:29:06.774211  4213 layer_factory.hpp:77] Creating layer res3a_res3a_relu_0_split
I0328 09:29:06.774235  4213 net.cpp:106] Creating Layer res3a_res3a_relu_0_split
I0328 09:29:06.774255  4213 net.cpp:454] res3a_res3a_relu_0_split <- res3a
I0328 09:29:06.774276  4213 net.cpp:411] res3a_res3a_relu_0_split -> res3a_res3a_relu_0_split_0
I0328 09:29:06.774302  4213 net.cpp:411] res3a_res3a_relu_0_split -> res3a_res3a_relu_0_split_1
I0328 09:29:06.774400  4213 net.cpp:150] Setting up res3a_res3a_relu_0_split
I0328 09:29:06.774432  4213 net.cpp:157] Top shape: 16 512 28 28 (6422528)
I0328 09:29:06.774453  4213 net.cpp:157] Top shape: 16 512 28 28 (6422528)
I0328 09:29:06.774471  4213 net.cpp:165] Memory required for data: 2206140352
I0328 09:29:06.774488  4213 layer_factory.hpp:77] Creating layer res3b_branch2a
I0328 09:29:06.774521  4213 net.cpp:106] Creating Layer res3b_branch2a
I0328 09:29:06.774543  4213 net.cpp:454] res3b_branch2a <- res3a_res3a_relu_0_split_0
I0328 09:29:06.774566  4213 net.cpp:411] res3b_branch2a -> res3b_branch2a
I0328 09:29:06.776175  4213 net.cpp:150] Setting up res3b_branch2a
I0328 09:29:06.776219  4213 net.cpp:157] Top shape: 16 128 28 28 (1605632)
I0328 09:29:06.776238  4213 net.cpp:165] Memory required for data: 2212562880
I0328 09:29:06.776262  4213 layer_factory.hpp:77] Creating layer bn3b_branch2a
I0328 09:29:06.776288  4213 net.cpp:106] Creating Layer bn3b_branch2a
I0328 09:29:06.776309  4213 net.cpp:454] bn3b_branch2a <- res3b_branch2a
I0328 09:29:06.776338  4213 net.cpp:397] bn3b_branch2a -> res3b_branch2a (in-place)
I0328 09:29:06.776751  4213 net.cpp:150] Setting up bn3b_branch2a
I0328 09:29:06.776783  4213 net.cpp:157] Top shape: 16 128 28 28 (1605632)
I0328 09:29:06.776801  4213 net.cpp:165] Memory required for data: 2218985408
I0328 09:29:06.776831  4213 layer_factory.hpp:77] Creating layer scale3b_branch2a
I0328 09:29:06.776859  4213 net.cpp:106] Creating Layer scale3b_branch2a
I0328 09:29:06.776878  4213 net.cpp:454] scale3b_branch2a <- res3b_branch2a
I0328 09:29:06.776901  4213 net.cpp:397] scale3b_branch2a -> res3b_branch2a (in-place)
I0328 09:29:06.778328  4213 layer_factory.hpp:77] Creating layer scale3b_branch2a
I0328 09:29:06.778652  4213 net.cpp:150] Setting up scale3b_branch2a
I0328 09:29:06.778692  4213 net.cpp:157] Top shape: 16 128 28 28 (1605632)
I0328 09:29:06.778712  4213 net.cpp:165] Memory required for data: 2225407936
I0328 09:29:06.778740  4213 layer_factory.hpp:77] Creating layer res3b_branch2a_relu
I0328 09:29:06.778766  4213 net.cpp:106] Creating Layer res3b_branch2a_relu
I0328 09:29:06.778787  4213 net.cpp:454] res3b_branch2a_relu <- res3b_branch2a
I0328 09:29:06.778817  4213 net.cpp:397] res3b_branch2a_relu -> res3b_branch2a (in-place)
I0328 09:29:06.778846  4213 net.cpp:150] Setting up res3b_branch2a_relu
I0328 09:29:06.778868  4213 net.cpp:157] Top shape: 16 128 28 28 (1605632)
I0328 09:29:06.778885  4213 net.cpp:165] Memory required for data: 2231830464
I0328 09:29:06.778903  4213 layer_factory.hpp:77] Creating layer res3b_branch2b
I0328 09:29:06.778931  4213 net.cpp:106] Creating Layer res3b_branch2b
I0328 09:29:06.778951  4213 net.cpp:454] res3b_branch2b <- res3b_branch2a
I0328 09:29:06.778981  4213 net.cpp:411] res3b_branch2b -> res3b_branch2b
I0328 09:29:06.780772  4213 net.cpp:150] Setting up res3b_branch2b
I0328 09:29:06.780818  4213 net.cpp:157] Top shape: 16 128 28 28 (1605632)
I0328 09:29:06.780838  4213 net.cpp:165] Memory required for data: 2238252992
I0328 09:29:06.780861  4213 layer_factory.hpp:77] Creating layer bn3b_branch2b
I0328 09:29:06.780889  4213 net.cpp:106] Creating Layer bn3b_branch2b
I0328 09:29:06.780908  4213 net.cpp:454] bn3b_branch2b <- res3b_branch2b
I0328 09:29:06.780932  4213 net.cpp:397] bn3b_branch2b -> res3b_branch2b (in-place)
I0328 09:29:06.781373  4213 net.cpp:150] Setting up bn3b_branch2b
I0328 09:29:06.781410  4213 net.cpp:157] Top shape: 16 128 28 28 (1605632)
I0328 09:29:06.781430  4213 net.cpp:165] Memory required for data: 2244675520
I0328 09:29:06.781476  4213 layer_factory.hpp:77] Creating layer scale3b_branch2b
I0328 09:29:06.781524  4213 net.cpp:106] Creating Layer scale3b_branch2b
I0328 09:29:06.781546  4213 net.cpp:454] scale3b_branch2b <- res3b_branch2b
I0328 09:29:06.781570  4213 net.cpp:397] scale3b_branch2b -> res3b_branch2b (in-place)
I0328 09:29:06.781687  4213 layer_factory.hpp:77] Creating layer scale3b_branch2b
I0328 09:29:06.781960  4213 net.cpp:150] Setting up scale3b_branch2b
I0328 09:29:06.781992  4213 net.cpp:157] Top shape: 16 128 28 28 (1605632)
I0328 09:29:06.782011  4213 net.cpp:165] Memory required for data: 2251098048
I0328 09:29:06.782037  4213 layer_factory.hpp:77] Creating layer res3b_branch2b_relu
I0328 09:29:06.782068  4213 net.cpp:106] Creating Layer res3b_branch2b_relu
I0328 09:29:06.782088  4213 net.cpp:454] res3b_branch2b_relu <- res3b_branch2b
I0328 09:29:06.782110  4213 net.cpp:397] res3b_branch2b_relu -> res3b_branch2b (in-place)
I0328 09:29:06.782136  4213 net.cpp:150] Setting up res3b_branch2b_relu
I0328 09:29:06.782158  4213 net.cpp:157] Top shape: 16 128 28 28 (1605632)
I0328 09:29:06.782176  4213 net.cpp:165] Memory required for data: 2257520576
I0328 09:29:06.782194  4213 layer_factory.hpp:77] Creating layer res3b_branch2c
I0328 09:29:06.782227  4213 net.cpp:106] Creating Layer res3b_branch2c
I0328 09:29:06.782246  4213 net.cpp:454] res3b_branch2c <- res3b_branch2b
I0328 09:29:06.782270  4213 net.cpp:411] res3b_branch2c -> res3b_branch2c
I0328 09:29:06.782765  4213 net.cpp:150] Setting up res3b_branch2c
I0328 09:29:06.782802  4213 net.cpp:157] Top shape: 16 512 28 28 (6422528)
I0328 09:29:06.782820  4213 net.cpp:165] Memory required for data: 2283210688
I0328 09:29:06.782843  4213 layer_factory.hpp:77] Creating layer bn3b_branch2c
I0328 09:29:06.782868  4213 net.cpp:106] Creating Layer bn3b_branch2c
I0328 09:29:06.782888  4213 net.cpp:454] bn3b_branch2c <- res3b_branch2c
I0328 09:29:06.782917  4213 net.cpp:397] bn3b_branch2c -> res3b_branch2c (in-place)
I0328 09:29:06.783339  4213 net.cpp:150] Setting up bn3b_branch2c
I0328 09:29:06.783373  4213 net.cpp:157] Top shape: 16 512 28 28 (6422528)
I0328 09:29:06.783391  4213 net.cpp:165] Memory required for data: 2308900800
I0328 09:29:06.783421  4213 layer_factory.hpp:77] Creating layer scale3b_branch2c
I0328 09:29:06.783447  4213 net.cpp:106] Creating Layer scale3b_branch2c
I0328 09:29:06.783466  4213 net.cpp:454] scale3b_branch2c <- res3b_branch2c
I0328 09:29:06.783489  4213 net.cpp:397] scale3b_branch2c -> res3b_branch2c (in-place)
I0328 09:29:06.783601  4213 layer_factory.hpp:77] Creating layer scale3b_branch2c
I0328 09:29:06.783867  4213 net.cpp:150] Setting up scale3b_branch2c
I0328 09:29:06.783900  4213 net.cpp:157] Top shape: 16 512 28 28 (6422528)
I0328 09:29:06.783920  4213 net.cpp:165] Memory required for data: 2334590912
I0328 09:29:06.783946  4213 layer_factory.hpp:77] Creating layer res3b
I0328 09:29:06.783977  4213 net.cpp:106] Creating Layer res3b
I0328 09:29:06.783998  4213 net.cpp:454] res3b <- res3a_res3a_relu_0_split_1
I0328 09:29:06.784019  4213 net.cpp:454] res3b <- res3b_branch2c
I0328 09:29:06.784042  4213 net.cpp:411] res3b -> res3b
I0328 09:29:06.784111  4213 net.cpp:150] Setting up res3b
I0328 09:29:06.784140  4213 net.cpp:157] Top shape: 16 512 28 28 (6422528)
I0328 09:29:06.784158  4213 net.cpp:165] Memory required for data: 2360281024
I0328 09:29:06.784176  4213 layer_factory.hpp:77] Creating layer res3b_relu
I0328 09:29:06.784210  4213 net.cpp:106] Creating Layer res3b_relu
I0328 09:29:06.784230  4213 net.cpp:454] res3b_relu <- res3b
I0328 09:29:06.784258  4213 net.cpp:397] res3b_relu -> res3b (in-place)
I0328 09:29:06.784284  4213 net.cpp:150] Setting up res3b_relu
I0328 09:29:06.784307  4213 net.cpp:157] Top shape: 16 512 28 28 (6422528)
I0328 09:29:06.784324  4213 net.cpp:165] Memory required for data: 2385971136
I0328 09:29:06.784343  4213 layer_factory.hpp:77] Creating layer res3b_res3b_relu_0_split
I0328 09:29:06.784364  4213 net.cpp:106] Creating Layer res3b_res3b_relu_0_split
I0328 09:29:06.784382  4213 net.cpp:454] res3b_res3b_relu_0_split <- res3b
I0328 09:29:06.784435  4213 net.cpp:411] res3b_res3b_relu_0_split -> res3b_res3b_relu_0_split_0
I0328 09:29:06.784463  4213 net.cpp:411] res3b_res3b_relu_0_split -> res3b_res3b_relu_0_split_1
I0328 09:29:06.784559  4213 net.cpp:150] Setting up res3b_res3b_relu_0_split
I0328 09:29:06.784590  4213 net.cpp:157] Top shape: 16 512 28 28 (6422528)
I0328 09:29:06.784611  4213 net.cpp:157] Top shape: 16 512 28 28 (6422528)
I0328 09:29:06.784628  4213 net.cpp:165] Memory required for data: 2437351360
I0328 09:29:06.784646  4213 layer_factory.hpp:77] Creating layer res3c_branch2a
I0328 09:29:06.784679  4213 net.cpp:106] Creating Layer res3c_branch2a
I0328 09:29:06.784700  4213 net.cpp:454] res3c_branch2a <- res3b_res3b_relu_0_split_0
I0328 09:29:06.784724  4213 net.cpp:411] res3c_branch2a -> res3c_branch2a
I0328 09:29:06.785220  4213 net.cpp:150] Setting up res3c_branch2a
I0328 09:29:06.785259  4213 net.cpp:157] Top shape: 16 128 28 28 (1605632)
I0328 09:29:06.785275  4213 net.cpp:165] Memory required for data: 2443773888
I0328 09:29:06.785298  4213 layer_factory.hpp:77] Creating layer bn3c_branch2a
I0328 09:29:06.785328  4213 net.cpp:106] Creating Layer bn3c_branch2a
I0328 09:29:06.785365  4213 net.cpp:454] bn3c_branch2a <- res3c_branch2a
I0328 09:29:06.785389  4213 net.cpp:397] bn3c_branch2a -> res3c_branch2a (in-place)
I0328 09:29:06.785807  4213 net.cpp:150] Setting up bn3c_branch2a
I0328 09:29:06.785841  4213 net.cpp:157] Top shape: 16 128 28 28 (1605632)
I0328 09:29:06.785859  4213 net.cpp:165] Memory required for data: 2450196416
I0328 09:29:06.785889  4213 layer_factory.hpp:77] Creating layer scale3c_branch2a
I0328 09:29:06.785923  4213 net.cpp:106] Creating Layer scale3c_branch2a
I0328 09:29:06.785944  4213 net.cpp:454] scale3c_branch2a <- res3c_branch2a
I0328 09:29:06.785967  4213 net.cpp:397] scale3c_branch2a -> res3c_branch2a (in-place)
I0328 09:29:06.786080  4213 layer_factory.hpp:77] Creating layer scale3c_branch2a
I0328 09:29:06.786355  4213 net.cpp:150] Setting up scale3c_branch2a
I0328 09:29:06.786387  4213 net.cpp:157] Top shape: 16 128 28 28 (1605632)
I0328 09:29:06.786406  4213 net.cpp:165] Memory required for data: 2456618944
I0328 09:29:06.786430  4213 layer_factory.hpp:77] Creating layer res3c_branch2a_relu
I0328 09:29:06.786455  4213 net.cpp:106] Creating Layer res3c_branch2a_relu
I0328 09:29:06.786474  4213 net.cpp:454] res3c_branch2a_relu <- res3c_branch2a
I0328 09:29:06.786496  4213 net.cpp:397] res3c_branch2a_relu -> res3c_branch2a (in-place)
I0328 09:29:06.786522  4213 net.cpp:150] Setting up res3c_branch2a_relu
I0328 09:29:06.786543  4213 net.cpp:157] Top shape: 16 128 28 28 (1605632)
I0328 09:29:06.786561  4213 net.cpp:165] Memory required for data: 2463041472
I0328 09:29:06.786578  4213 layer_factory.hpp:77] Creating layer res3c_branch2b
I0328 09:29:06.786617  4213 net.cpp:106] Creating Layer res3c_branch2b
I0328 09:29:06.786638  4213 net.cpp:454] res3c_branch2b <- res3c_branch2a
I0328 09:29:06.786666  4213 net.cpp:411] res3c_branch2b -> res3c_branch2b
I0328 09:29:06.788396  4213 net.cpp:150] Setting up res3c_branch2b
I0328 09:29:06.788440  4213 net.cpp:157] Top shape: 16 128 28 28 (1605632)
I0328 09:29:06.788460  4213 net.cpp:165] Memory required for data: 2469464000
I0328 09:29:06.788483  4213 layer_factory.hpp:77] Creating layer bn3c_branch2b
I0328 09:29:06.788516  4213 net.cpp:106] Creating Layer bn3c_branch2b
I0328 09:29:06.788538  4213 net.cpp:454] bn3c_branch2b <- res3c_branch2b
I0328 09:29:06.788561  4213 net.cpp:397] bn3c_branch2b -> res3c_branch2b (in-place)
I0328 09:29:06.788974  4213 net.cpp:150] Setting up bn3c_branch2b
I0328 09:29:06.789008  4213 net.cpp:157] Top shape: 16 128 28 28 (1605632)
I0328 09:29:06.789032  4213 net.cpp:165] Memory required for data: 2475886528
I0328 09:29:06.789062  4213 layer_factory.hpp:77] Creating layer scale3c_branch2b
I0328 09:29:06.789089  4213 net.cpp:106] Creating Layer scale3c_branch2b
I0328 09:29:06.789109  4213 net.cpp:454] scale3c_branch2b <- res3c_branch2b
I0328 09:29:06.789139  4213 net.cpp:397] scale3c_branch2b -> res3c_branch2b (in-place)
I0328 09:29:06.789275  4213 layer_factory.hpp:77] Creating layer scale3c_branch2b
I0328 09:29:06.789567  4213 net.cpp:150] Setting up scale3c_branch2b
I0328 09:29:06.789609  4213 net.cpp:157] Top shape: 16 128 28 28 (1605632)
I0328 09:29:06.789628  4213 net.cpp:165] Memory required for data: 2482309056
I0328 09:29:06.789654  4213 layer_factory.hpp:77] Creating layer res3c_branch2b_relu
I0328 09:29:06.789680  4213 net.cpp:106] Creating Layer res3c_branch2b_relu
I0328 09:29:06.789698  4213 net.cpp:454] res3c_branch2b_relu <- res3c_branch2b
I0328 09:29:06.789721  4213 net.cpp:397] res3c_branch2b_relu -> res3c_branch2b (in-place)
I0328 09:29:06.789746  4213 net.cpp:150] Setting up res3c_branch2b_relu
I0328 09:29:06.789767  4213 net.cpp:157] Top shape: 16 128 28 28 (1605632)
I0328 09:29:06.789785  4213 net.cpp:165] Memory required for data: 2488731584
I0328 09:29:06.789803  4213 layer_factory.hpp:77] Creating layer res3c_branch2c
I0328 09:29:06.789834  4213 net.cpp:106] Creating Layer res3c_branch2c
I0328 09:29:06.789855  4213 net.cpp:454] res3c_branch2c <- res3c_branch2b
I0328 09:29:06.789880  4213 net.cpp:411] res3c_branch2c -> res3c_branch2c
I0328 09:29:06.790375  4213 net.cpp:150] Setting up res3c_branch2c
I0328 09:29:06.790412  4213 net.cpp:157] Top shape: 16 512 28 28 (6422528)
I0328 09:29:06.790431  4213 net.cpp:165] Memory required for data: 2514421696
I0328 09:29:06.790453  4213 layer_factory.hpp:77] Creating layer bn3c_branch2c
I0328 09:29:06.790483  4213 net.cpp:106] Creating Layer bn3c_branch2c
I0328 09:29:06.790503  4213 net.cpp:454] bn3c_branch2c <- res3c_branch2c
I0328 09:29:06.790526  4213 net.cpp:397] bn3c_branch2c -> res3c_branch2c (in-place)
I0328 09:29:06.790944  4213 net.cpp:150] Setting up bn3c_branch2c
I0328 09:29:06.790978  4213 net.cpp:157] Top shape: 16 512 28 28 (6422528)
I0328 09:29:06.790997  4213 net.cpp:165] Memory required for data: 2540111808
I0328 09:29:06.791025  4213 layer_factory.hpp:77] Creating layer scale3c_branch2c
I0328 09:29:06.791051  4213 net.cpp:106] Creating Layer scale3c_branch2c
I0328 09:29:06.791070  4213 net.cpp:454] scale3c_branch2c <- res3c_branch2c
I0328 09:29:06.791100  4213 net.cpp:397] scale3c_branch2c -> res3c_branch2c (in-place)
I0328 09:29:06.791208  4213 layer_factory.hpp:77] Creating layer scale3c_branch2c
I0328 09:29:06.791484  4213 net.cpp:150] Setting up scale3c_branch2c
I0328 09:29:06.791518  4213 net.cpp:157] Top shape: 16 512 28 28 (6422528)
I0328 09:29:06.791535  4213 net.cpp:165] Memory required for data: 2565801920
I0328 09:29:06.791561  4213 layer_factory.hpp:77] Creating layer res3c
I0328 09:29:06.791586  4213 net.cpp:106] Creating Layer res3c
I0328 09:29:06.791605  4213 net.cpp:454] res3c <- res3b_res3b_relu_0_split_1
I0328 09:29:06.791626  4213 net.cpp:454] res3c <- res3c_branch2c
I0328 09:29:06.791649  4213 net.cpp:411] res3c -> res3c
I0328 09:29:06.791723  4213 net.cpp:150] Setting up res3c
I0328 09:29:06.791754  4213 net.cpp:157] Top shape: 16 512 28 28 (6422528)
I0328 09:29:06.791770  4213 net.cpp:165] Memory required for data: 2591492032
I0328 09:29:06.791788  4213 layer_factory.hpp:77] Creating layer res3c_relu
I0328 09:29:06.791817  4213 net.cpp:106] Creating Layer res3c_relu
I0328 09:29:06.791837  4213 net.cpp:454] res3c_relu <- res3c
I0328 09:29:06.791859  4213 net.cpp:397] res3c_relu -> res3c (in-place)
I0328 09:29:06.791884  4213 net.cpp:150] Setting up res3c_relu
I0328 09:29:06.791906  4213 net.cpp:157] Top shape: 16 512 28 28 (6422528)
I0328 09:29:06.791923  4213 net.cpp:165] Memory required for data: 2617182144
I0328 09:29:06.791940  4213 layer_factory.hpp:77] Creating layer res3c_res3c_relu_0_split
I0328 09:29:06.791962  4213 net.cpp:106] Creating Layer res3c_res3c_relu_0_split
I0328 09:29:06.791980  4213 net.cpp:454] res3c_res3c_relu_0_split <- res3c
I0328 09:29:06.792002  4213 net.cpp:411] res3c_res3c_relu_0_split -> res3c_res3c_relu_0_split_0
I0328 09:29:06.792032  4213 net.cpp:411] res3c_res3c_relu_0_split -> res3c_res3c_relu_0_split_1
I0328 09:29:06.792121  4213 net.cpp:150] Setting up res3c_res3c_relu_0_split
I0328 09:29:06.792166  4213 net.cpp:157] Top shape: 16 512 28 28 (6422528)
I0328 09:29:06.792207  4213 net.cpp:157] Top shape: 16 512 28 28 (6422528)
I0328 09:29:06.792225  4213 net.cpp:165] Memory required for data: 2668562368
I0328 09:29:06.792244  4213 layer_factory.hpp:77] Creating layer res3d_branch2a
I0328 09:29:06.792278  4213 net.cpp:106] Creating Layer res3d_branch2a
I0328 09:29:06.792299  4213 net.cpp:454] res3d_branch2a <- res3c_res3c_relu_0_split_0
I0328 09:29:06.792322  4213 net.cpp:411] res3d_branch2a -> res3d_branch2a
I0328 09:29:06.793987  4213 net.cpp:150] Setting up res3d_branch2a
I0328 09:29:06.794034  4213 net.cpp:157] Top shape: 16 128 28 28 (1605632)
I0328 09:29:06.794052  4213 net.cpp:165] Memory required for data: 2674984896
I0328 09:29:06.794076  4213 layer_factory.hpp:77] Creating layer bn3d_branch2a
I0328 09:29:06.794108  4213 net.cpp:106] Creating Layer bn3d_branch2a
I0328 09:29:06.794129  4213 net.cpp:454] bn3d_branch2a <- res3d_branch2a
I0328 09:29:06.794153  4213 net.cpp:397] bn3d_branch2a -> res3d_branch2a (in-place)
I0328 09:29:06.794569  4213 net.cpp:150] Setting up bn3d_branch2a
I0328 09:29:06.794603  4213 net.cpp:157] Top shape: 16 128 28 28 (1605632)
I0328 09:29:06.794621  4213 net.cpp:165] Memory required for data: 2681407424
I0328 09:29:06.794690  4213 layer_factory.hpp:77] Creating layer scale3d_branch2a
I0328 09:29:06.794721  4213 net.cpp:106] Creating Layer scale3d_branch2a
I0328 09:29:06.794741  4213 net.cpp:454] scale3d_branch2a <- res3d_branch2a
I0328 09:29:06.794772  4213 net.cpp:397] scale3d_branch2a -> res3d_branch2a (in-place)
I0328 09:29:06.794891  4213 layer_factory.hpp:77] Creating layer scale3d_branch2a
I0328 09:29:06.795171  4213 net.cpp:150] Setting up scale3d_branch2a
I0328 09:29:06.795204  4213 net.cpp:157] Top shape: 16 128 28 28 (1605632)
I0328 09:29:06.795222  4213 net.cpp:165] Memory required for data: 2687829952
I0328 09:29:06.795248  4213 layer_factory.hpp:77] Creating layer res3d_branch2a_relu
I0328 09:29:06.795274  4213 net.cpp:106] Creating Layer res3d_branch2a_relu
I0328 09:29:06.795294  4213 net.cpp:454] res3d_branch2a_relu <- res3d_branch2a
I0328 09:29:06.795315  4213 net.cpp:397] res3d_branch2a_relu -> res3d_branch2a (in-place)
I0328 09:29:06.795341  4213 net.cpp:150] Setting up res3d_branch2a_relu
I0328 09:29:06.795363  4213 net.cpp:157] Top shape: 16 128 28 28 (1605632)
I0328 09:29:06.795380  4213 net.cpp:165] Memory required for data: 2694252480
I0328 09:29:06.795398  4213 layer_factory.hpp:77] Creating layer res3d_branch2b
I0328 09:29:06.795424  4213 net.cpp:106] Creating Layer res3d_branch2b
I0328 09:29:06.795444  4213 net.cpp:454] res3d_branch2b <- res3d_branch2a
I0328 09:29:06.795473  4213 net.cpp:411] res3d_branch2b -> res3d_branch2b
I0328 09:29:06.797250  4213 net.cpp:150] Setting up res3d_branch2b
I0328 09:29:06.797293  4213 net.cpp:157] Top shape: 16 128 28 28 (1605632)
I0328 09:29:06.797312  4213 net.cpp:165] Memory required for data: 2700675008
I0328 09:29:06.797351  4213 layer_factory.hpp:77] Creating layer bn3d_branch2b
I0328 09:29:06.797380  4213 net.cpp:106] Creating Layer bn3d_branch2b
I0328 09:29:06.797401  4213 net.cpp:454] bn3d_branch2b <- res3d_branch2b
I0328 09:29:06.797425  4213 net.cpp:397] bn3d_branch2b -> res3d_branch2b (in-place)
I0328 09:29:06.797859  4213 net.cpp:150] Setting up bn3d_branch2b
I0328 09:29:06.797894  4213 net.cpp:157] Top shape: 16 128 28 28 (1605632)
I0328 09:29:06.797912  4213 net.cpp:165] Memory required for data: 2707097536
I0328 09:29:06.797942  4213 layer_factory.hpp:77] Creating layer scale3d_branch2b
I0328 09:29:06.797968  4213 net.cpp:106] Creating Layer scale3d_branch2b
I0328 09:29:06.797988  4213 net.cpp:454] scale3d_branch2b <- res3d_branch2b
I0328 09:29:06.798012  4213 net.cpp:397] scale3d_branch2b -> res3d_branch2b (in-place)
I0328 09:29:06.798126  4213 layer_factory.hpp:77] Creating layer scale3d_branch2b
I0328 09:29:06.798400  4213 net.cpp:150] Setting up scale3d_branch2b
I0328 09:29:06.798434  4213 net.cpp:157] Top shape: 16 128 28 28 (1605632)
I0328 09:29:06.798452  4213 net.cpp:165] Memory required for data: 2713520064
I0328 09:29:06.798507  4213 layer_factory.hpp:77] Creating layer res3d_branch2b_relu
I0328 09:29:06.798539  4213 net.cpp:106] Creating Layer res3d_branch2b_relu
I0328 09:29:06.798560  4213 net.cpp:454] res3d_branch2b_relu <- res3d_branch2b
I0328 09:29:06.798583  4213 net.cpp:397] res3d_branch2b_relu -> res3d_branch2b (in-place)
I0328 09:29:06.798614  4213 net.cpp:150] Setting up res3d_branch2b_relu
I0328 09:29:06.798636  4213 net.cpp:157] Top shape: 16 128 28 28 (1605632)
I0328 09:29:06.798653  4213 net.cpp:165] Memory required for data: 2719942592
I0328 09:29:06.798671  4213 layer_factory.hpp:77] Creating layer res3d_branch2c
I0328 09:29:06.798704  4213 net.cpp:106] Creating Layer res3d_branch2c
I0328 09:29:06.798724  4213 net.cpp:454] res3d_branch2c <- res3d_branch2b
I0328 09:29:06.798748  4213 net.cpp:411] res3d_branch2c -> res3d_branch2c
I0328 09:29:06.799248  4213 net.cpp:150] Setting up res3d_branch2c
I0328 09:29:06.799285  4213 net.cpp:157] Top shape: 16 512 28 28 (6422528)
I0328 09:29:06.799304  4213 net.cpp:165] Memory required for data: 2745632704
I0328 09:29:06.799326  4213 layer_factory.hpp:77] Creating layer bn3d_branch2c
I0328 09:29:06.799350  4213 net.cpp:106] Creating Layer bn3d_branch2c
I0328 09:29:06.799370  4213 net.cpp:454] bn3d_branch2c <- res3d_branch2c
I0328 09:29:06.799398  4213 net.cpp:397] bn3d_branch2c -> res3d_branch2c (in-place)
I0328 09:29:06.799836  4213 net.cpp:150] Setting up bn3d_branch2c
I0328 09:29:06.799870  4213 net.cpp:157] Top shape: 16 512 28 28 (6422528)
I0328 09:29:06.799888  4213 net.cpp:165] Memory required for data: 2771322816
I0328 09:29:06.799917  4213 layer_factory.hpp:77] Creating layer scale3d_branch2c
I0328 09:29:06.799942  4213 net.cpp:106] Creating Layer scale3d_branch2c
I0328 09:29:06.799962  4213 net.cpp:454] scale3d_branch2c <- res3d_branch2c
I0328 09:29:06.799984  4213 net.cpp:397] scale3d_branch2c -> res3d_branch2c (in-place)
I0328 09:29:06.800097  4213 layer_factory.hpp:77] Creating layer scale3d_branch2c
I0328 09:29:06.800364  4213 net.cpp:150] Setting up scale3d_branch2c
I0328 09:29:06.800396  4213 net.cpp:157] Top shape: 16 512 28 28 (6422528)
I0328 09:29:06.800415  4213 net.cpp:165] Memory required for data: 2797012928
I0328 09:29:06.800439  4213 layer_factory.hpp:77] Creating layer res3d
I0328 09:29:06.800463  4213 net.cpp:106] Creating Layer res3d
I0328 09:29:06.800490  4213 net.cpp:454] res3d <- res3c_res3c_relu_0_split_1
I0328 09:29:06.800513  4213 net.cpp:454] res3d <- res3d_branch2c
I0328 09:29:06.800535  4213 net.cpp:411] res3d -> res3d
I0328 09:29:06.800602  4213 net.cpp:150] Setting up res3d
I0328 09:29:06.800632  4213 net.cpp:157] Top shape: 16 512 28 28 (6422528)
I0328 09:29:06.800652  4213 net.cpp:165] Memory required for data: 2822703040
I0328 09:29:06.800669  4213 layer_factory.hpp:77] Creating layer res3d_relu
I0328 09:29:06.800698  4213 net.cpp:106] Creating Layer res3d_relu
I0328 09:29:06.800719  4213 net.cpp:454] res3d_relu <- res3d
I0328 09:29:06.800742  4213 net.cpp:397] res3d_relu -> res3d (in-place)
I0328 09:29:06.800772  4213 net.cpp:150] Setting up res3d_relu
I0328 09:29:06.800796  4213 net.cpp:157] Top shape: 16 512 28 28 (6422528)
I0328 09:29:06.800812  4213 net.cpp:165] Memory required for data: 2848393152
I0328 09:29:06.800830  4213 layer_factory.hpp:77] Creating layer res3d_res3d_relu_0_split
I0328 09:29:06.800853  4213 net.cpp:106] Creating Layer res3d_res3d_relu_0_split
I0328 09:29:06.800870  4213 net.cpp:454] res3d_res3d_relu_0_split <- res3d
I0328 09:29:06.800892  4213 net.cpp:411] res3d_res3d_relu_0_split -> res3d_res3d_relu_0_split_0
I0328 09:29:06.800917  4213 net.cpp:411] res3d_res3d_relu_0_split -> res3d_res3d_relu_0_split_1
I0328 09:29:06.801015  4213 net.cpp:150] Setting up res3d_res3d_relu_0_split
I0328 09:29:06.801045  4213 net.cpp:157] Top shape: 16 512 28 28 (6422528)
I0328 09:29:06.801066  4213 net.cpp:157] Top shape: 16 512 28 28 (6422528)
I0328 09:29:06.801084  4213 net.cpp:165] Memory required for data: 2899773376
I0328 09:29:06.801101  4213 layer_factory.hpp:77] Creating layer res4a_branch1
I0328 09:29:06.801152  4213 net.cpp:106] Creating Layer res4a_branch1
I0328 09:29:06.801193  4213 net.cpp:454] res4a_branch1 <- res3d_res3d_relu_0_split_0
I0328 09:29:06.801220  4213 net.cpp:411] res4a_branch1 -> res4a_branch1
I0328 09:29:06.804344  4213 net.cpp:150] Setting up res4a_branch1
I0328 09:29:06.804389  4213 net.cpp:157] Top shape: 16 1024 14 14 (3211264)
I0328 09:29:06.804409  4213 net.cpp:165] Memory required for data: 2912618432
I0328 09:29:06.804433  4213 layer_factory.hpp:77] Creating layer bn4a_branch1
I0328 09:29:06.804460  4213 net.cpp:106] Creating Layer bn4a_branch1
I0328 09:29:06.804481  4213 net.cpp:454] bn4a_branch1 <- res4a_branch1
I0328 09:29:06.804509  4213 net.cpp:397] bn4a_branch1 -> res4a_branch1 (in-place)
I0328 09:29:06.804958  4213 net.cpp:150] Setting up bn4a_branch1
I0328 09:29:06.804992  4213 net.cpp:157] Top shape: 16 1024 14 14 (3211264)
I0328 09:29:06.805011  4213 net.cpp:165] Memory required for data: 2925463488
I0328 09:29:06.805040  4213 layer_factory.hpp:77] Creating layer scale4a_branch1
I0328 09:29:06.805066  4213 net.cpp:106] Creating Layer scale4a_branch1
I0328 09:29:06.805085  4213 net.cpp:454] scale4a_branch1 <- res4a_branch1
I0328 09:29:06.805109  4213 net.cpp:397] scale4a_branch1 -> res4a_branch1 (in-place)
I0328 09:29:06.805214  4213 layer_factory.hpp:77] Creating layer scale4a_branch1
I0328 09:29:06.805508  4213 net.cpp:150] Setting up scale4a_branch1
I0328 09:29:06.805546  4213 net.cpp:157] Top shape: 16 1024 14 14 (3211264)
I0328 09:29:06.805563  4213 net.cpp:165] Memory required for data: 2938308544
I0328 09:29:06.805589  4213 layer_factory.hpp:77] Creating layer res4a_branch2a
I0328 09:29:06.805624  4213 net.cpp:106] Creating Layer res4a_branch2a
I0328 09:29:06.805646  4213 net.cpp:454] res4a_branch2a <- res3d_res3d_relu_0_split_1
I0328 09:29:06.805670  4213 net.cpp:411] res4a_branch2a -> res4a_branch2a
I0328 09:29:06.806300  4213 net.cpp:150] Setting up res4a_branch2a
I0328 09:29:06.806342  4213 net.cpp:157] Top shape: 16 256 14 14 (802816)
I0328 09:29:06.806360  4213 net.cpp:165] Memory required for data: 2941519808
I0328 09:29:06.806383  4213 layer_factory.hpp:77] Creating layer bn4a_branch2a
I0328 09:29:06.806408  4213 net.cpp:106] Creating Layer bn4a_branch2a
I0328 09:29:06.806428  4213 net.cpp:454] bn4a_branch2a <- res4a_branch2a
I0328 09:29:06.806457  4213 net.cpp:397] bn4a_branch2a -> res4a_branch2a (in-place)
I0328 09:29:06.806876  4213 net.cpp:150] Setting up bn4a_branch2a
I0328 09:29:06.806910  4213 net.cpp:157] Top shape: 16 256 14 14 (802816)
I0328 09:29:06.806928  4213 net.cpp:165] Memory required for data: 2944731072
I0328 09:29:06.806957  4213 layer_factory.hpp:77] Creating layer scale4a_branch2a
I0328 09:29:06.806982  4213 net.cpp:106] Creating Layer scale4a_branch2a
I0328 09:29:06.807003  4213 net.cpp:454] scale4a_branch2a <- res4a_branch2a
I0328 09:29:06.807025  4213 net.cpp:397] scale4a_branch2a -> res4a_branch2a (in-place)
I0328 09:29:06.807133  4213 layer_factory.hpp:77] Creating layer scale4a_branch2a
I0328 09:29:06.807410  4213 net.cpp:150] Setting up scale4a_branch2a
I0328 09:29:06.807443  4213 net.cpp:157] Top shape: 16 256 14 14 (802816)
I0328 09:29:06.807461  4213 net.cpp:165] Memory required for data: 2947942336
I0328 09:29:06.807487  4213 layer_factory.hpp:77] Creating layer res4a_branch2a_relu
I0328 09:29:06.807517  4213 net.cpp:106] Creating Layer res4a_branch2a_relu
I0328 09:29:06.807538  4213 net.cpp:454] res4a_branch2a_relu <- res4a_branch2a
I0328 09:29:06.807560  4213 net.cpp:397] res4a_branch2a_relu -> res4a_branch2a (in-place)
I0328 09:29:06.807591  4213 net.cpp:150] Setting up res4a_branch2a_relu
I0328 09:29:06.807615  4213 net.cpp:157] Top shape: 16 256 14 14 (802816)
I0328 09:29:06.807631  4213 net.cpp:165] Memory required for data: 2951153600
I0328 09:29:06.807651  4213 layer_factory.hpp:77] Creating layer res4a_branch2b
I0328 09:29:06.807677  4213 net.cpp:106] Creating Layer res4a_branch2b
I0328 09:29:06.807695  4213 net.cpp:454] res4a_branch2b <- res4a_branch2a
I0328 09:29:06.807718  4213 net.cpp:411] res4a_branch2b -> res4a_branch2b
I0328 09:29:06.811134  4213 net.cpp:150] Setting up res4a_branch2b
I0328 09:29:06.811180  4213 net.cpp:157] Top shape: 16 256 14 14 (802816)
I0328 09:29:06.811199  4213 net.cpp:165] Memory required for data: 2954364864
I0328 09:29:06.811223  4213 layer_factory.hpp:77] Creating layer bn4a_branch2b
I0328 09:29:06.811249  4213 net.cpp:106] Creating Layer bn4a_branch2b
I0328 09:29:06.811270  4213 net.cpp:454] bn4a_branch2b <- res4a_branch2b
I0328 09:29:06.811293  4213 net.cpp:397] bn4a_branch2b -> res4a_branch2b (in-place)
I0328 09:29:06.811713  4213 net.cpp:150] Setting up bn4a_branch2b
I0328 09:29:06.811748  4213 net.cpp:157] Top shape: 16 256 14 14 (802816)
I0328 09:29:06.811765  4213 net.cpp:165] Memory required for data: 2957576128
I0328 09:29:06.811795  4213 layer_factory.hpp:77] Creating layer scale4a_branch2b
I0328 09:29:06.811828  4213 net.cpp:106] Creating Layer scale4a_branch2b
I0328 09:29:06.811849  4213 net.cpp:454] scale4a_branch2b <- res4a_branch2b
I0328 09:29:06.811872  4213 net.cpp:397] scale4a_branch2b -> res4a_branch2b (in-place)
I0328 09:29:06.811982  4213 layer_factory.hpp:77] Creating layer scale4a_branch2b
I0328 09:29:06.812249  4213 net.cpp:150] Setting up scale4a_branch2b
I0328 09:29:06.812283  4213 net.cpp:157] Top shape: 16 256 14 14 (802816)
I0328 09:29:06.812300  4213 net.cpp:165] Memory required for data: 2960787392
I0328 09:29:06.812327  4213 layer_factory.hpp:77] Creating layer res4a_branch2b_relu
I0328 09:29:06.812351  4213 net.cpp:106] Creating Layer res4a_branch2b_relu
I0328 09:29:06.812371  4213 net.cpp:454] res4a_branch2b_relu <- res4a_branch2b
I0328 09:29:06.812399  4213 net.cpp:397] res4a_branch2b_relu -> res4a_branch2b (in-place)
I0328 09:29:06.812425  4213 net.cpp:150] Setting up res4a_branch2b_relu
I0328 09:29:06.812448  4213 net.cpp:157] Top shape: 16 256 14 14 (802816)
I0328 09:29:06.812465  4213 net.cpp:165] Memory required for data: 2963998656
I0328 09:29:06.812484  4213 layer_factory.hpp:77] Creating layer res4a_branch2c
I0328 09:29:06.812510  4213 net.cpp:106] Creating Layer res4a_branch2c
I0328 09:29:06.812537  4213 net.cpp:454] res4a_branch2c <- res4a_branch2b
I0328 09:29:06.812562  4213 net.cpp:411] res4a_branch2c -> res4a_branch2c
I0328 09:29:06.814452  4213 net.cpp:150] Setting up res4a_branch2c
I0328 09:29:06.814498  4213 net.cpp:157] Top shape: 16 1024 14 14 (3211264)
I0328 09:29:06.814517  4213 net.cpp:165] Memory required for data: 2976843712
I0328 09:29:06.814541  4213 layer_factory.hpp:77] Creating layer bn4a_branch2c
I0328 09:29:06.814574  4213 net.cpp:106] Creating Layer bn4a_branch2c
I0328 09:29:06.814595  4213 net.cpp:454] bn4a_branch2c <- res4a_branch2c
I0328 09:29:06.814618  4213 net.cpp:397] bn4a_branch2c -> res4a_branch2c (in-place)
I0328 09:29:06.815068  4213 net.cpp:150] Setting up bn4a_branch2c
I0328 09:29:06.815102  4213 net.cpp:157] Top shape: 16 1024 14 14 (3211264)
I0328 09:29:06.815120  4213 net.cpp:165] Memory required for data: 2989688768
I0328 09:29:06.815150  4213 layer_factory.hpp:77] Creating layer scale4a_branch2c
I0328 09:29:06.815176  4213 net.cpp:106] Creating Layer scale4a_branch2c
I0328 09:29:06.815196  4213 net.cpp:454] scale4a_branch2c <- res4a_branch2c
I0328 09:29:06.815218  4213 net.cpp:397] scale4a_branch2c -> res4a_branch2c (in-place)
I0328 09:29:06.815333  4213 layer_factory.hpp:77] Creating layer scale4a_branch2c
I0328 09:29:06.815618  4213 net.cpp:150] Setting up scale4a_branch2c
I0328 09:29:06.815652  4213 net.cpp:157] Top shape: 16 1024 14 14 (3211264)
I0328 09:29:06.815670  4213 net.cpp:165] Memory required for data: 3002533824
I0328 09:29:06.815696  4213 layer_factory.hpp:77] Creating layer res4a
I0328 09:29:06.815726  4213 net.cpp:106] Creating Layer res4a
I0328 09:29:06.815747  4213 net.cpp:454] res4a <- res4a_branch1
I0328 09:29:06.815768  4213 net.cpp:454] res4a <- res4a_branch2c
I0328 09:29:06.815791  4213 net.cpp:411] res4a -> res4a
I0328 09:29:06.815866  4213 net.cpp:150] Setting up res4a
I0328 09:29:06.815897  4213 net.cpp:157] Top shape: 16 1024 14 14 (3211264)
I0328 09:29:06.815928  4213 net.cpp:165] Memory required for data: 3015378880
I0328 09:29:06.815966  4213 layer_factory.hpp:77] Creating layer res4a_relu
I0328 09:29:06.815990  4213 net.cpp:106] Creating Layer res4a_relu
I0328 09:29:06.816010  4213 net.cpp:454] res4a_relu <- res4a
I0328 09:29:06.816037  4213 net.cpp:397] res4a_relu -> res4a (in-place)
I0328 09:29:06.816063  4213 net.cpp:150] Setting up res4a_relu
I0328 09:29:06.816087  4213 net.cpp:157] Top shape: 16 1024 14 14 (3211264)
I0328 09:29:06.816103  4213 net.cpp:165] Memory required for data: 3028223936
I0328 09:29:06.816121  4213 layer_factory.hpp:77] Creating layer res4a_res4a_relu_0_split
I0328 09:29:06.816174  4213 net.cpp:106] Creating Layer res4a_res4a_relu_0_split
I0328 09:29:06.816196  4213 net.cpp:454] res4a_res4a_relu_0_split <- res4a
I0328 09:29:06.816220  4213 net.cpp:411] res4a_res4a_relu_0_split -> res4a_res4a_relu_0_split_0
I0328 09:29:06.816246  4213 net.cpp:411] res4a_res4a_relu_0_split -> res4a_res4a_relu_0_split_1
I0328 09:29:06.816346  4213 net.cpp:150] Setting up res4a_res4a_relu_0_split
I0328 09:29:06.816377  4213 net.cpp:157] Top shape: 16 1024 14 14 (3211264)
I0328 09:29:06.816398  4213 net.cpp:157] Top shape: 16 1024 14 14 (3211264)
I0328 09:29:06.816416  4213 net.cpp:165] Memory required for data: 3053914048
I0328 09:29:06.816434  4213 layer_factory.hpp:77] Creating layer res4b_branch2a
I0328 09:29:06.816462  4213 net.cpp:106] Creating Layer res4b_branch2a
I0328 09:29:06.816483  4213 net.cpp:454] res4b_branch2a <- res4a_res4a_relu_0_split_0
I0328 09:29:06.816510  4213 net.cpp:411] res4b_branch2a -> res4b_branch2a
I0328 09:29:06.818415  4213 net.cpp:150] Setting up res4b_branch2a
I0328 09:29:06.818461  4213 net.cpp:157] Top shape: 16 256 14 14 (802816)
I0328 09:29:06.818480  4213 net.cpp:165] Memory required for data: 3057125312
I0328 09:29:06.818505  4213 layer_factory.hpp:77] Creating layer bn4b_branch2a
I0328 09:29:06.818531  4213 net.cpp:106] Creating Layer bn4b_branch2a
I0328 09:29:06.818552  4213 net.cpp:454] bn4b_branch2a <- res4b_branch2a
I0328 09:29:06.818573  4213 net.cpp:397] bn4b_branch2a -> res4b_branch2a (in-place)
I0328 09:29:06.819000  4213 net.cpp:150] Setting up bn4b_branch2a
I0328 09:29:06.819032  4213 net.cpp:157] Top shape: 16 256 14 14 (802816)
I0328 09:29:06.819049  4213 net.cpp:165] Memory required for data: 3060336576
I0328 09:29:06.819079  4213 layer_factory.hpp:77] Creating layer scale4b_branch2a
I0328 09:29:06.819116  4213 net.cpp:106] Creating Layer scale4b_branch2a
I0328 09:29:06.819139  4213 net.cpp:454] scale4b_branch2a <- res4b_branch2a
I0328 09:29:06.819161  4213 net.cpp:397] scale4b_branch2a -> res4b_branch2a (in-place)
I0328 09:29:06.819272  4213 layer_factory.hpp:77] Creating layer scale4b_branch2a
I0328 09:29:06.819547  4213 net.cpp:150] Setting up scale4b_branch2a
I0328 09:29:06.819581  4213 net.cpp:157] Top shape: 16 256 14 14 (802816)
I0328 09:29:06.819599  4213 net.cpp:165] Memory required for data: 3063547840
I0328 09:29:06.819625  4213 layer_factory.hpp:77] Creating layer res4b_branch2a_relu
I0328 09:29:06.819649  4213 net.cpp:106] Creating Layer res4b_branch2a_relu
I0328 09:29:06.819669  4213 net.cpp:454] res4b_branch2a_relu <- res4b_branch2a
I0328 09:29:06.819697  4213 net.cpp:397] res4b_branch2a_relu -> res4b_branch2a (in-place)
I0328 09:29:06.819723  4213 net.cpp:150] Setting up res4b_branch2a_relu
I0328 09:29:06.819746  4213 net.cpp:157] Top shape: 16 256 14 14 (802816)
I0328 09:29:06.819763  4213 net.cpp:165] Memory required for data: 3066759104
I0328 09:29:06.819782  4213 layer_factory.hpp:77] Creating layer res4b_branch2b
I0328 09:29:06.819813  4213 net.cpp:106] Creating Layer res4b_branch2b
I0328 09:29:06.819833  4213 net.cpp:454] res4b_branch2b <- res4b_branch2a
I0328 09:29:06.819857  4213 net.cpp:411] res4b_branch2b -> res4b_branch2b
I0328 09:29:06.823246  4213 net.cpp:150] Setting up res4b_branch2b
I0328 09:29:06.823292  4213 net.cpp:157] Top shape: 16 256 14 14 (802816)
I0328 09:29:06.823310  4213 net.cpp:165] Memory required for data: 3069970368
I0328 09:29:06.823334  4213 layer_factory.hpp:77] Creating layer bn4b_branch2b
I0328 09:29:06.823385  4213 net.cpp:106] Creating Layer bn4b_branch2b
I0328 09:29:06.823426  4213 net.cpp:454] bn4b_branch2b <- res4b_branch2b
I0328 09:29:06.823451  4213 net.cpp:397] bn4b_branch2b -> res4b_branch2b (in-place)
I0328 09:29:06.823879  4213 net.cpp:150] Setting up bn4b_branch2b
I0328 09:29:06.823914  4213 net.cpp:157] Top shape: 16 256 14 14 (802816)
I0328 09:29:06.823931  4213 net.cpp:165] Memory required for data: 3073181632
I0328 09:29:06.823961  4213 layer_factory.hpp:77] Creating layer scale4b_branch2b
I0328 09:29:06.823987  4213 net.cpp:106] Creating Layer scale4b_branch2b
I0328 09:29:06.824007  4213 net.cpp:454] scale4b_branch2b <- res4b_branch2b
I0328 09:29:06.824035  4213 net.cpp:397] scale4b_branch2b -> res4b_branch2b (in-place)
I0328 09:29:06.824141  4213 layer_factory.hpp:77] Creating layer scale4b_branch2b
I0328 09:29:06.824410  4213 net.cpp:150] Setting up scale4b_branch2b
I0328 09:29:06.824450  4213 net.cpp:157] Top shape: 16 256 14 14 (802816)
I0328 09:29:06.824470  4213 net.cpp:165] Memory required for data: 3076392896
I0328 09:29:06.824494  4213 layer_factory.hpp:77] Creating layer res4b_branch2b_relu
I0328 09:29:06.824519  4213 net.cpp:106] Creating Layer res4b_branch2b_relu
I0328 09:29:06.824538  4213 net.cpp:454] res4b_branch2b_relu <- res4b_branch2b
I0328 09:29:06.824560  4213 net.cpp:397] res4b_branch2b_relu -> res4b_branch2b (in-place)
I0328 09:29:06.824585  4213 net.cpp:150] Setting up res4b_branch2b_relu
I0328 09:29:06.824609  4213 net.cpp:157] Top shape: 16 256 14 14 (802816)
I0328 09:29:06.824625  4213 net.cpp:165] Memory required for data: 3079604160
I0328 09:29:06.824643  4213 layer_factory.hpp:77] Creating layer res4b_branch2c
I0328 09:29:06.824676  4213 net.cpp:106] Creating Layer res4b_branch2c
I0328 09:29:06.824697  4213 net.cpp:454] res4b_branch2c <- res4b_branch2b
I0328 09:29:06.824722  4213 net.cpp:411] res4b_branch2c -> res4b_branch2c
I0328 09:29:06.826633  4213 net.cpp:150] Setting up res4b_branch2c
I0328 09:29:06.826678  4213 net.cpp:157] Top shape: 16 1024 14 14 (3211264)
I0328 09:29:06.826697  4213 net.cpp:165] Memory required for data: 3092449216
I0328 09:29:06.826721  4213 layer_factory.hpp:77] Creating layer bn4b_branch2c
I0328 09:29:06.826748  4213 net.cpp:106] Creating Layer bn4b_branch2c
I0328 09:29:06.826768  4213 net.cpp:454] bn4b_branch2c <- res4b_branch2c
I0328 09:29:06.826792  4213 net.cpp:397] bn4b_branch2c -> res4b_branch2c (in-place)
I0328 09:29:06.827240  4213 net.cpp:150] Setting up bn4b_branch2c
I0328 09:29:06.827275  4213 net.cpp:157] Top shape: 16 1024 14 14 (3211264)
I0328 09:29:06.827294  4213 net.cpp:165] Memory required for data: 3105294272
I0328 09:29:06.827322  4213 layer_factory.hpp:77] Creating layer scale4b_branch2c
I0328 09:29:06.827349  4213 net.cpp:106] Creating Layer scale4b_branch2c
I0328 09:29:06.827368  4213 net.cpp:454] scale4b_branch2c <- res4b_branch2c
I0328 09:29:06.827391  4213 net.cpp:397] scale4b_branch2c -> res4b_branch2c (in-place)
I0328 09:29:06.827504  4213 layer_factory.hpp:77] Creating layer scale4b_branch2c
I0328 09:29:06.827796  4213 net.cpp:150] Setting up scale4b_branch2c
I0328 09:29:06.827831  4213 net.cpp:157] Top shape: 16 1024 14 14 (3211264)
I0328 09:29:06.827848  4213 net.cpp:165] Memory required for data: 3118139328
I0328 09:29:06.827874  4213 layer_factory.hpp:77] Creating layer res4b
I0328 09:29:06.827904  4213 net.cpp:106] Creating Layer res4b
I0328 09:29:06.827925  4213 net.cpp:454] res4b <- res4a_res4a_relu_0_split_1
I0328 09:29:06.827946  4213 net.cpp:454] res4b <- res4b_branch2c
I0328 09:29:06.827975  4213 net.cpp:411] res4b -> res4b
I0328 09:29:06.828047  4213 net.cpp:150] Setting up res4b
I0328 09:29:06.828078  4213 net.cpp:157] Top shape: 16 1024 14 14 (3211264)
I0328 09:29:06.828096  4213 net.cpp:165] Memory required for data: 3130984384
I0328 09:29:06.828114  4213 layer_factory.hpp:77] Creating layer res4b_relu
I0328 09:29:06.828143  4213 net.cpp:106] Creating Layer res4b_relu
I0328 09:29:06.828164  4213 net.cpp:454] res4b_relu <- res4b
I0328 09:29:06.828187  4213 net.cpp:397] res4b_relu -> res4b (in-place)
I0328 09:29:06.828241  4213 net.cpp:150] Setting up res4b_relu
I0328 09:29:06.828266  4213 net.cpp:157] Top shape: 16 1024 14 14 (3211264)
I0328 09:29:06.828284  4213 net.cpp:165] Memory required for data: 3143829440
I0328 09:29:06.828302  4213 layer_factory.hpp:77] Creating layer res4b_res4b_relu_0_split
I0328 09:29:06.828325  4213 net.cpp:106] Creating Layer res4b_res4b_relu_0_split
I0328 09:29:06.828343  4213 net.cpp:454] res4b_res4b_relu_0_split <- res4b
I0328 09:29:06.828366  4213 net.cpp:411] res4b_res4b_relu_0_split -> res4b_res4b_relu_0_split_0
I0328 09:29:06.828418  4213 net.cpp:411] res4b_res4b_relu_0_split -> res4b_res4b_relu_0_split_1
I0328 09:29:06.828518  4213 net.cpp:150] Setting up res4b_res4b_relu_0_split
I0328 09:29:06.828552  4213 net.cpp:157] Top shape: 16 1024 14 14 (3211264)
I0328 09:29:06.828572  4213 net.cpp:157] Top shape: 16 1024 14 14 (3211264)
I0328 09:29:06.828588  4213 net.cpp:165] Memory required for data: 3169519552
I0328 09:29:06.828608  4213 layer_factory.hpp:77] Creating layer res4c_branch2a
I0328 09:29:06.828642  4213 net.cpp:106] Creating Layer res4c_branch2a
I0328 09:29:06.828663  4213 net.cpp:454] res4c_branch2a <- res4b_res4b_relu_0_split_0
I0328 09:29:06.828687  4213 net.cpp:411] res4c_branch2a -> res4c_branch2a
I0328 09:29:06.830605  4213 net.cpp:150] Setting up res4c_branch2a
I0328 09:29:06.830651  4213 net.cpp:157] Top shape: 16 256 14 14 (802816)
I0328 09:29:06.830669  4213 net.cpp:165] Memory required for data: 3172730816
I0328 09:29:06.830693  4213 layer_factory.hpp:77] Creating layer bn4c_branch2a
I0328 09:29:06.830719  4213 net.cpp:106] Creating Layer bn4c_branch2a
I0328 09:29:06.830740  4213 net.cpp:454] bn4c_branch2a <- res4c_branch2a
I0328 09:29:06.830770  4213 net.cpp:397] bn4c_branch2a -> res4c_branch2a (in-place)
I0328 09:29:06.831205  4213 net.cpp:150] Setting up bn4c_branch2a
I0328 09:29:06.831239  4213 net.cpp:157] Top shape: 16 256 14 14 (802816)
I0328 09:29:06.831257  4213 net.cpp:165] Memory required for data: 3175942080
I0328 09:29:06.831287  4213 layer_factory.hpp:77] Creating layer scale4c_branch2a
I0328 09:29:06.831313  4213 net.cpp:106] Creating Layer scale4c_branch2a
I0328 09:29:06.831332  4213 net.cpp:454] scale4c_branch2a <- res4c_branch2a
I0328 09:29:06.831356  4213 net.cpp:397] scale4c_branch2a -> res4c_branch2a (in-place)
I0328 09:29:06.831468  4213 layer_factory.hpp:77] Creating layer scale4c_branch2a
I0328 09:29:06.831739  4213 net.cpp:150] Setting up scale4c_branch2a
I0328 09:29:06.831773  4213 net.cpp:157] Top shape: 16 256 14 14 (802816)
I0328 09:29:06.831790  4213 net.cpp:165] Memory required for data: 3179153344
I0328 09:29:06.831816  4213 layer_factory.hpp:77] Creating layer res4c_branch2a_relu
I0328 09:29:06.831840  4213 net.cpp:106] Creating Layer res4c_branch2a_relu
I0328 09:29:06.831861  4213 net.cpp:454] res4c_branch2a_relu <- res4c_branch2a
I0328 09:29:06.831888  4213 net.cpp:397] res4c_branch2a_relu -> res4c_branch2a (in-place)
I0328 09:29:06.831915  4213 net.cpp:150] Setting up res4c_branch2a_relu
I0328 09:29:06.831938  4213 net.cpp:157] Top shape: 16 256 14 14 (802816)
I0328 09:29:06.831955  4213 net.cpp:165] Memory required for data: 3182364608
I0328 09:29:06.831974  4213 layer_factory.hpp:77] Creating layer res4c_branch2b
I0328 09:29:06.832000  4213 net.cpp:106] Creating Layer res4c_branch2b
I0328 09:29:06.832018  4213 net.cpp:454] res4c_branch2b <- res4c_branch2a
I0328 09:29:06.832047  4213 net.cpp:411] res4c_branch2b -> res4c_branch2b
I0328 09:29:06.835482  4213 net.cpp:150] Setting up res4c_branch2b
I0328 09:29:06.835527  4213 net.cpp:157] Top shape: 16 256 14 14 (802816)
I0328 09:29:06.835546  4213 net.cpp:165] Memory required for data: 3185575872
I0328 09:29:06.835571  4213 layer_factory.hpp:77] Creating layer bn4c_branch2b
I0328 09:29:06.835597  4213 net.cpp:106] Creating Layer bn4c_branch2b
I0328 09:29:06.835616  4213 net.cpp:454] bn4c_branch2b <- res4c_branch2b
I0328 09:29:06.835639  4213 net.cpp:397] bn4c_branch2b -> res4c_branch2b (in-place)
I0328 09:29:06.836076  4213 net.cpp:150] Setting up bn4c_branch2b
I0328 09:29:06.836123  4213 net.cpp:157] Top shape: 16 256 14 14 (802816)
I0328 09:29:06.836160  4213 net.cpp:165] Memory required for data: 3188787136
I0328 09:29:06.836190  4213 layer_factory.hpp:77] Creating layer scale4c_branch2b
I0328 09:29:06.836230  4213 net.cpp:106] Creating Layer scale4c_branch2b
I0328 09:29:06.836252  4213 net.cpp:454] scale4c_branch2b <- res4c_branch2b
I0328 09:29:06.836275  4213 net.cpp:397] scale4c_branch2b -> res4c_branch2b (in-place)
I0328 09:29:06.836393  4213 layer_factory.hpp:77] Creating layer scale4c_branch2b
I0328 09:29:06.836668  4213 net.cpp:150] Setting up scale4c_branch2b
I0328 09:29:06.836701  4213 net.cpp:157] Top shape: 16 256 14 14 (802816)
I0328 09:29:06.836719  4213 net.cpp:165] Memory required for data: 3191998400
I0328 09:29:06.836745  4213 layer_factory.hpp:77] Creating layer res4c_branch2b_relu
I0328 09:29:06.836769  4213 net.cpp:106] Creating Layer res4c_branch2b_relu
I0328 09:29:06.836789  4213 net.cpp:454] res4c_branch2b_relu <- res4c_branch2b
I0328 09:29:06.836817  4213 net.cpp:397] res4c_branch2b_relu -> res4c_branch2b (in-place)
I0328 09:29:06.836843  4213 net.cpp:150] Setting up res4c_branch2b_relu
I0328 09:29:06.836866  4213 net.cpp:157] Top shape: 16 256 14 14 (802816)
I0328 09:29:06.836884  4213 net.cpp:165] Memory required for data: 3195209664
I0328 09:29:06.836902  4213 layer_factory.hpp:77] Creating layer res4c_branch2c
I0328 09:29:06.836935  4213 net.cpp:106] Creating Layer res4c_branch2c
I0328 09:29:06.836956  4213 net.cpp:454] res4c_branch2c <- res4c_branch2b
I0328 09:29:06.836979  4213 net.cpp:411] res4c_branch2c -> res4c_branch2c
I0328 09:29:06.838882  4213 net.cpp:150] Setting up res4c_branch2c
I0328 09:29:06.838927  4213 net.cpp:157] Top shape: 16 1024 14 14 (3211264)
I0328 09:29:06.838946  4213 net.cpp:165] Memory required for data: 3208054720
I0328 09:29:06.838970  4213 layer_factory.hpp:77] Creating layer bn4c_branch2c
I0328 09:29:06.839007  4213 net.cpp:106] Creating Layer bn4c_branch2c
I0328 09:29:06.839030  4213 net.cpp:454] bn4c_branch2c <- res4c_branch2c
I0328 09:29:06.839052  4213 net.cpp:397] bn4c_branch2c -> res4c_branch2c (in-place)
I0328 09:29:06.839493  4213 net.cpp:150] Setting up bn4c_branch2c
I0328 09:29:06.839527  4213 net.cpp:157] Top shape: 16 1024 14 14 (3211264)
I0328 09:29:06.839546  4213 net.cpp:165] Memory required for data: 3220899776
I0328 09:29:06.839576  4213 layer_factory.hpp:77] Creating layer scale4c_branch2c
I0328 09:29:06.839601  4213 net.cpp:106] Creating Layer scale4c_branch2c
I0328 09:29:06.839622  4213 net.cpp:454] scale4c_branch2c <- res4c_branch2c
I0328 09:29:06.839650  4213 net.cpp:397] scale4c_branch2c -> res4c_branch2c (in-place)
I0328 09:29:06.839756  4213 layer_factory.hpp:77] Creating layer scale4c_branch2c
I0328 09:29:06.840044  4213 net.cpp:150] Setting up scale4c_branch2c
I0328 09:29:06.840082  4213 net.cpp:157] Top shape: 16 1024 14 14 (3211264)
I0328 09:29:06.840101  4213 net.cpp:165] Memory required for data: 3233744832
I0328 09:29:06.840127  4213 layer_factory.hpp:77] Creating layer res4c
I0328 09:29:06.840152  4213 net.cpp:106] Creating Layer res4c
I0328 09:29:06.840171  4213 net.cpp:454] res4c <- res4b_res4b_relu_0_split_1
I0328 09:29:06.840193  4213 net.cpp:454] res4c <- res4c_branch2c
I0328 09:29:06.840215  4213 net.cpp:411] res4c -> res4c
I0328 09:29:06.840293  4213 net.cpp:150] Setting up res4c
I0328 09:29:06.840324  4213 net.cpp:157] Top shape: 16 1024 14 14 (3211264)
I0328 09:29:06.840342  4213 net.cpp:165] Memory required for data: 3246589888
I0328 09:29:06.840361  4213 layer_factory.hpp:77] Creating layer res4c_relu
I0328 09:29:06.840390  4213 net.cpp:106] Creating Layer res4c_relu
I0328 09:29:06.840410  4213 net.cpp:454] res4c_relu <- res4c
I0328 09:29:06.840433  4213 net.cpp:397] res4c_relu -> res4c (in-place)
I0328 09:29:06.840458  4213 net.cpp:150] Setting up res4c_relu
I0328 09:29:06.840481  4213 net.cpp:157] Top shape: 16 1024 14 14 (3211264)
I0328 09:29:06.840498  4213 net.cpp:165] Memory required for data: 3259434944
I0328 09:29:06.840517  4213 layer_factory.hpp:77] Creating layer res4c_res4c_relu_0_split
I0328 09:29:06.840569  4213 net.cpp:106] Creating Layer res4c_res4c_relu_0_split
I0328 09:29:06.840589  4213 net.cpp:454] res4c_res4c_relu_0_split <- res4c
I0328 09:29:06.840610  4213 net.cpp:411] res4c_res4c_relu_0_split -> res4c_res4c_relu_0_split_0
I0328 09:29:06.840642  4213 net.cpp:411] res4c_res4c_relu_0_split -> res4c_res4c_relu_0_split_1
I0328 09:29:06.840739  4213 net.cpp:150] Setting up res4c_res4c_relu_0_split
I0328 09:29:06.840770  4213 net.cpp:157] Top shape: 16 1024 14 14 (3211264)
I0328 09:29:06.840790  4213 net.cpp:157] Top shape: 16 1024 14 14 (3211264)
I0328 09:29:06.840807  4213 net.cpp:165] Memory required for data: 3285125056
I0328 09:29:06.840826  4213 layer_factory.hpp:77] Creating layer res4d_branch2a
I0328 09:29:06.840859  4213 net.cpp:106] Creating Layer res4d_branch2a
I0328 09:29:06.840881  4213 net.cpp:454] res4d_branch2a <- res4c_res4c_relu_0_split_0
I0328 09:29:06.840906  4213 net.cpp:411] res4d_branch2a -> res4d_branch2a
I0328 09:29:06.842890  4213 net.cpp:150] Setting up res4d_branch2a
I0328 09:29:06.842936  4213 net.cpp:157] Top shape: 16 256 14 14 (802816)
I0328 09:29:06.842954  4213 net.cpp:165] Memory required for data: 3288336320
I0328 09:29:06.842978  4213 layer_factory.hpp:77] Creating layer bn4d_branch2a
I0328 09:29:06.843003  4213 net.cpp:106] Creating Layer bn4d_branch2a
I0328 09:29:06.843024  4213 net.cpp:454] bn4d_branch2a <- res4d_branch2a
I0328 09:29:06.843065  4213 net.cpp:397] bn4d_branch2a -> res4d_branch2a (in-place)
I0328 09:29:06.843497  4213 net.cpp:150] Setting up bn4d_branch2a
I0328 09:29:06.843533  4213 net.cpp:157] Top shape: 16 256 14 14 (802816)
I0328 09:29:06.843550  4213 net.cpp:165] Memory required for data: 3291547584
I0328 09:29:06.843580  4213 layer_factory.hpp:77] Creating layer scale4d_branch2a
I0328 09:29:06.843606  4213 net.cpp:106] Creating Layer scale4d_branch2a
I0328 09:29:06.843626  4213 net.cpp:454] scale4d_branch2a <- res4d_branch2a
I0328 09:29:06.843649  4213 net.cpp:397] scale4d_branch2a -> res4d_branch2a (in-place)
I0328 09:29:06.843763  4213 layer_factory.hpp:77] Creating layer scale4d_branch2a
I0328 09:29:06.844044  4213 net.cpp:150] Setting up scale4d_branch2a
I0328 09:29:06.844077  4213 net.cpp:157] Top shape: 16 256 14 14 (802816)
I0328 09:29:06.844095  4213 net.cpp:165] Memory required for data: 3294758848
I0328 09:29:06.844121  4213 layer_factory.hpp:77] Creating layer res4d_branch2a_relu
I0328 09:29:06.844146  4213 net.cpp:106] Creating Layer res4d_branch2a_relu
I0328 09:29:06.844166  4213 net.cpp:454] res4d_branch2a_relu <- res4d_branch2a
I0328 09:29:06.844193  4213 net.cpp:397] res4d_branch2a_relu -> res4d_branch2a (in-place)
I0328 09:29:06.844219  4213 net.cpp:150] Setting up res4d_branch2a_relu
I0328 09:29:06.844243  4213 net.cpp:157] Top shape: 16 256 14 14 (802816)
I0328 09:29:06.844260  4213 net.cpp:165] Memory required for data: 3297970112
I0328 09:29:06.844279  4213 layer_factory.hpp:77] Creating layer res4d_branch2b
I0328 09:29:06.844305  4213 net.cpp:106] Creating Layer res4d_branch2b
I0328 09:29:06.844326  4213 net.cpp:454] res4d_branch2b <- res4d_branch2a
I0328 09:29:06.844354  4213 net.cpp:411] res4d_branch2b -> res4d_branch2b
I0328 09:29:06.847761  4213 net.cpp:150] Setting up res4d_branch2b
I0328 09:29:06.847807  4213 net.cpp:157] Top shape: 16 256 14 14 (802816)
I0328 09:29:06.847826  4213 net.cpp:165] Memory required for data: 3301181376
I0328 09:29:06.847849  4213 layer_factory.hpp:77] Creating layer bn4d_branch2b
I0328 09:29:06.847875  4213 net.cpp:106] Creating Layer bn4d_branch2b
I0328 09:29:06.847896  4213 net.cpp:454] bn4d_branch2b <- res4d_branch2b
I0328 09:29:06.847918  4213 net.cpp:397] bn4d_branch2b -> res4d_branch2b (in-place)
I0328 09:29:06.848351  4213 net.cpp:150] Setting up bn4d_branch2b
I0328 09:29:06.848384  4213 net.cpp:157] Top shape: 16 256 14 14 (802816)
I0328 09:29:06.848402  4213 net.cpp:165] Memory required for data: 3304392640
I0328 09:29:06.848431  4213 layer_factory.hpp:77] Creating layer scale4d_branch2b
I0328 09:29:06.848464  4213 net.cpp:106] Creating Layer scale4d_branch2b
I0328 09:29:06.848512  4213 net.cpp:454] scale4d_branch2b <- res4d_branch2b
I0328 09:29:06.848538  4213 net.cpp:397] scale4d_branch2b -> res4d_branch2b (in-place)
I0328 09:29:06.848659  4213 layer_factory.hpp:77] Creating layer scale4d_branch2b
I0328 09:29:06.848942  4213 net.cpp:150] Setting up scale4d_branch2b
I0328 09:29:06.848975  4213 net.cpp:157] Top shape: 16 256 14 14 (802816)
I0328 09:29:06.848994  4213 net.cpp:165] Memory required for data: 3307603904
I0328 09:29:06.849020  4213 layer_factory.hpp:77] Creating layer res4d_branch2b_relu
I0328 09:29:06.849043  4213 net.cpp:106] Creating Layer res4d_branch2b_relu
I0328 09:29:06.849062  4213 net.cpp:454] res4d_branch2b_relu <- res4d_branch2b
I0328 09:29:06.849090  4213 net.cpp:397] res4d_branch2b_relu -> res4d_branch2b (in-place)
I0328 09:29:06.849117  4213 net.cpp:150] Setting up res4d_branch2b_relu
I0328 09:29:06.849139  4213 net.cpp:157] Top shape: 16 256 14 14 (802816)
I0328 09:29:06.849158  4213 net.cpp:165] Memory required for data: 3310815168
I0328 09:29:06.849175  4213 layer_factory.hpp:77] Creating layer res4d_branch2c
I0328 09:29:06.849208  4213 net.cpp:106] Creating Layer res4d_branch2c
I0328 09:29:06.849228  4213 net.cpp:454] res4d_branch2c <- res4d_branch2b
I0328 09:29:06.849252  4213 net.cpp:411] res4d_branch2c -> res4d_branch2c
I0328 09:29:06.851182  4213 net.cpp:150] Setting up res4d_branch2c
I0328 09:29:06.851227  4213 net.cpp:157] Top shape: 16 1024 14 14 (3211264)
I0328 09:29:06.851248  4213 net.cpp:165] Memory required for data: 3323660224
I0328 09:29:06.851271  4213 layer_factory.hpp:77] Creating layer bn4d_branch2c
I0328 09:29:06.851303  4213 net.cpp:106] Creating Layer bn4d_branch2c
I0328 09:29:06.851325  4213 net.cpp:454] bn4d_branch2c <- res4d_branch2c
I0328 09:29:06.851348  4213 net.cpp:397] bn4d_branch2c -> res4d_branch2c (in-place)
I0328 09:29:06.851796  4213 net.cpp:150] Setting up bn4d_branch2c
I0328 09:29:06.851830  4213 net.cpp:157] Top shape: 16 1024 14 14 (3211264)
I0328 09:29:06.851848  4213 net.cpp:165] Memory required for data: 3336505280
I0328 09:29:06.851878  4213 layer_factory.hpp:77] Creating layer scale4d_branch2c
I0328 09:29:06.851905  4213 net.cpp:106] Creating Layer scale4d_branch2c
I0328 09:29:06.851925  4213 net.cpp:454] scale4d_branch2c <- res4d_branch2c
I0328 09:29:06.851954  4213 net.cpp:397] scale4d_branch2c -> res4d_branch2c (in-place)
I0328 09:29:06.852061  4213 layer_factory.hpp:77] Creating layer scale4d_branch2c
I0328 09:29:06.852355  4213 net.cpp:150] Setting up scale4d_branch2c
I0328 09:29:06.852393  4213 net.cpp:157] Top shape: 16 1024 14 14 (3211264)
I0328 09:29:06.852412  4213 net.cpp:165] Memory required for data: 3349350336
I0328 09:29:06.852439  4213 layer_factory.hpp:77] Creating layer res4d
I0328 09:29:06.852464  4213 net.cpp:106] Creating Layer res4d
I0328 09:29:06.852484  4213 net.cpp:454] res4d <- res4c_res4c_relu_0_split_1
I0328 09:29:06.852505  4213 net.cpp:454] res4d <- res4d_branch2c
I0328 09:29:06.852529  4213 net.cpp:411] res4d -> res4d
I0328 09:29:06.852605  4213 net.cpp:150] Setting up res4d
I0328 09:29:06.852636  4213 net.cpp:157] Top shape: 16 1024 14 14 (3211264)
I0328 09:29:06.852654  4213 net.cpp:165] Memory required for data: 3362195392
I0328 09:29:06.852672  4213 layer_factory.hpp:77] Creating layer res4d_relu
I0328 09:29:06.852702  4213 net.cpp:106] Creating Layer res4d_relu
I0328 09:29:06.852723  4213 net.cpp:454] res4d_relu <- res4d
I0328 09:29:06.852746  4213 net.cpp:397] res4d_relu -> res4d (in-place)
I0328 09:29:06.852771  4213 net.cpp:150] Setting up res4d_relu
I0328 09:29:06.852792  4213 net.cpp:157] Top shape: 16 1024 14 14 (3211264)
I0328 09:29:06.852810  4213 net.cpp:165] Memory required for data: 3375040448
I0328 09:29:06.852828  4213 layer_factory.hpp:77] Creating layer res4d_res4d_relu_0_split
I0328 09:29:06.852850  4213 net.cpp:106] Creating Layer res4d_res4d_relu_0_split
I0328 09:29:06.852869  4213 net.cpp:454] res4d_res4d_relu_0_split <- res4d
I0328 09:29:06.852890  4213 net.cpp:411] res4d_res4d_relu_0_split -> res4d_res4d_relu_0_split_0
I0328 09:29:06.852936  4213 net.cpp:411] res4d_res4d_relu_0_split -> res4d_res4d_relu_0_split_1
I0328 09:29:06.853051  4213 net.cpp:150] Setting up res4d_res4d_relu_0_split
I0328 09:29:06.853083  4213 net.cpp:157] Top shape: 16 1024 14 14 (3211264)
I0328 09:29:06.853104  4213 net.cpp:157] Top shape: 16 1024 14 14 (3211264)
I0328 09:29:06.853121  4213 net.cpp:165] Memory required for data: 3400730560
I0328 09:29:06.853139  4213 layer_factory.hpp:77] Creating layer res4e_branch2a
I0328 09:29:06.853173  4213 net.cpp:106] Creating Layer res4e_branch2a
I0328 09:29:06.853194  4213 net.cpp:454] res4e_branch2a <- res4d_res4d_relu_0_split_0
I0328 09:29:06.853219  4213 net.cpp:411] res4e_branch2a -> res4e_branch2a
I0328 09:29:06.855144  4213 net.cpp:150] Setting up res4e_branch2a
I0328 09:29:06.855188  4213 net.cpp:157] Top shape: 16 256 14 14 (802816)
I0328 09:29:06.855207  4213 net.cpp:165] Memory required for data: 3403941824
I0328 09:29:06.855232  4213 layer_factory.hpp:77] Creating layer bn4e_branch2a
I0328 09:29:06.855257  4213 net.cpp:106] Creating Layer bn4e_branch2a
I0328 09:29:06.855278  4213 net.cpp:454] bn4e_branch2a <- res4e_branch2a
I0328 09:29:06.855307  4213 net.cpp:397] bn4e_branch2a -> res4e_branch2a (in-place)
I0328 09:29:06.855751  4213 net.cpp:150] Setting up bn4e_branch2a
I0328 09:29:06.855785  4213 net.cpp:157] Top shape: 16 256 14 14 (802816)
I0328 09:29:06.855803  4213 net.cpp:165] Memory required for data: 3407153088
I0328 09:29:06.855834  4213 layer_factory.hpp:77] Creating layer scale4e_branch2a
I0328 09:29:06.855860  4213 net.cpp:106] Creating Layer scale4e_branch2a
I0328 09:29:06.855880  4213 net.cpp:454] scale4e_branch2a <- res4e_branch2a
I0328 09:29:06.855902  4213 net.cpp:397] scale4e_branch2a -> res4e_branch2a (in-place)
I0328 09:29:06.856019  4213 layer_factory.hpp:77] Creating layer scale4e_branch2a
I0328 09:29:06.856305  4213 net.cpp:150] Setting up scale4e_branch2a
I0328 09:29:06.856339  4213 net.cpp:157] Top shape: 16 256 14 14 (802816)
I0328 09:29:06.856358  4213 net.cpp:165] Memory required for data: 3410364352
I0328 09:29:06.856384  4213 layer_factory.hpp:77] Creating layer res4e_branch2a_relu
I0328 09:29:06.856407  4213 net.cpp:106] Creating Layer res4e_branch2a_relu
I0328 09:29:06.856427  4213 net.cpp:454] res4e_branch2a_relu <- res4e_branch2a
I0328 09:29:06.856454  4213 net.cpp:397] res4e_branch2a_relu -> res4e_branch2a (in-place)
I0328 09:29:06.856482  4213 net.cpp:150] Setting up res4e_branch2a_relu
I0328 09:29:06.856503  4213 net.cpp:157] Top shape: 16 256 14 14 (802816)
I0328 09:29:06.856521  4213 net.cpp:165] Memory required for data: 3413575616
I0328 09:29:06.856539  4213 layer_factory.hpp:77] Creating layer res4e_branch2b
I0328 09:29:06.856566  4213 net.cpp:106] Creating Layer res4e_branch2b
I0328 09:29:06.856585  4213 net.cpp:454] res4e_branch2b <- res4e_branch2a
I0328 09:29:06.856614  4213 net.cpp:411] res4e_branch2b -> res4e_branch2b
I0328 09:29:06.860030  4213 net.cpp:150] Setting up res4e_branch2b
I0328 09:29:06.860076  4213 net.cpp:157] Top shape: 16 256 14 14 (802816)
I0328 09:29:06.860095  4213 net.cpp:165] Memory required for data: 3416786880
I0328 09:29:06.860121  4213 layer_factory.hpp:77] Creating layer bn4e_branch2b
I0328 09:29:06.860146  4213 net.cpp:106] Creating Layer bn4e_branch2b
I0328 09:29:06.860167  4213 net.cpp:454] bn4e_branch2b <- res4e_branch2b
I0328 09:29:06.860189  4213 net.cpp:397] bn4e_branch2b -> res4e_branch2b (in-place)
I0328 09:29:06.860630  4213 net.cpp:150] Setting up bn4e_branch2b
I0328 09:29:06.860664  4213 net.cpp:157] Top shape: 16 256 14 14 (802816)
I0328 09:29:06.860682  4213 net.cpp:165] Memory required for data: 3419998144
I0328 09:29:06.860713  4213 layer_factory.hpp:77] Creating layer scale4e_branch2b
I0328 09:29:06.860745  4213 net.cpp:106] Creating Layer scale4e_branch2b
I0328 09:29:06.860766  4213 net.cpp:454] scale4e_branch2b <- res4e_branch2b
I0328 09:29:06.860790  4213 net.cpp:397] scale4e_branch2b -> res4e_branch2b (in-place)
I0328 09:29:06.860904  4213 layer_factory.hpp:77] Creating layer scale4e_branch2b
I0328 09:29:06.861205  4213 net.cpp:150] Setting up scale4e_branch2b
I0328 09:29:06.861258  4213 net.cpp:157] Top shape: 16 256 14 14 (802816)
I0328 09:29:06.861277  4213 net.cpp:165] Memory required for data: 3423209408
I0328 09:29:06.861304  4213 layer_factory.hpp:77] Creating layer res4e_branch2b_relu
I0328 09:29:06.861327  4213 net.cpp:106] Creating Layer res4e_branch2b_relu
I0328 09:29:06.861364  4213 net.cpp:454] res4e_branch2b_relu <- res4e_branch2b
I0328 09:29:06.861394  4213 net.cpp:397] res4e_branch2b_relu -> res4e_branch2b (in-place)
I0328 09:29:06.861421  4213 net.cpp:150] Setting up res4e_branch2b_relu
I0328 09:29:06.861444  4213 net.cpp:157] Top shape: 16 256 14 14 (802816)
I0328 09:29:06.861462  4213 net.cpp:165] Memory required for data: 3426420672
I0328 09:29:06.861480  4213 layer_factory.hpp:77] Creating layer res4e_branch2c
I0328 09:29:06.861513  4213 net.cpp:106] Creating Layer res4e_branch2c
I0328 09:29:06.861534  4213 net.cpp:454] res4e_branch2c <- res4e_branch2b
I0328 09:29:06.861558  4213 net.cpp:411] res4e_branch2c -> res4e_branch2c
I0328 09:29:06.863461  4213 net.cpp:150] Setting up res4e_branch2c
I0328 09:29:06.863503  4213 net.cpp:157] Top shape: 16 1024 14 14 (3211264)
I0328 09:29:06.863523  4213 net.cpp:165] Memory required for data: 3439265728
I0328 09:29:06.863548  4213 layer_factory.hpp:77] Creating layer bn4e_branch2c
I0328 09:29:06.863579  4213 net.cpp:106] Creating Layer bn4e_branch2c
I0328 09:29:06.863601  4213 net.cpp:454] bn4e_branch2c <- res4e_branch2c
I0328 09:29:06.863625  4213 net.cpp:397] bn4e_branch2c -> res4e_branch2c (in-place)
I0328 09:29:06.864080  4213 net.cpp:150] Setting up bn4e_branch2c
I0328 09:29:06.864115  4213 net.cpp:157] Top shape: 16 1024 14 14 (3211264)
I0328 09:29:06.864133  4213 net.cpp:165] Memory required for data: 3452110784
I0328 09:29:06.864163  4213 layer_factory.hpp:77] Creating layer scale4e_branch2c
I0328 09:29:06.864190  4213 net.cpp:106] Creating Layer scale4e_branch2c
I0328 09:29:06.864210  4213 net.cpp:454] scale4e_branch2c <- res4e_branch2c
I0328 09:29:06.864248  4213 net.cpp:397] scale4e_branch2c -> res4e_branch2c (in-place)
I0328 09:29:06.864358  4213 layer_factory.hpp:77] Creating layer scale4e_branch2c
I0328 09:29:06.864655  4213 net.cpp:150] Setting up scale4e_branch2c
I0328 09:29:06.864694  4213 net.cpp:157] Top shape: 16 1024 14 14 (3211264)
I0328 09:29:06.864713  4213 net.cpp:165] Memory required for data: 3464955840
I0328 09:29:06.864739  4213 layer_factory.hpp:77] Creating layer res4e
I0328 09:29:06.864764  4213 net.cpp:106] Creating Layer res4e
I0328 09:29:06.864784  4213 net.cpp:454] res4e <- res4d_res4d_relu_0_split_1
I0328 09:29:06.864805  4213 net.cpp:454] res4e <- res4e_branch2c
I0328 09:29:06.864828  4213 net.cpp:411] res4e -> res4e
I0328 09:29:06.864907  4213 net.cpp:150] Setting up res4e
I0328 09:29:06.864938  4213 net.cpp:157] Top shape: 16 1024 14 14 (3211264)
I0328 09:29:06.864955  4213 net.cpp:165] Memory required for data: 3477800896
I0328 09:29:06.864974  4213 layer_factory.hpp:77] Creating layer res4e_relu
I0328 09:29:06.864996  4213 net.cpp:106] Creating Layer res4e_relu
I0328 09:29:06.865022  4213 net.cpp:454] res4e_relu <- res4e
I0328 09:29:06.865046  4213 net.cpp:397] res4e_relu -> res4e (in-place)
I0328 09:29:06.865070  4213 net.cpp:150] Setting up res4e_relu
I0328 09:29:06.865092  4213 net.cpp:157] Top shape: 16 1024 14 14 (3211264)
I0328 09:29:06.865110  4213 net.cpp:165] Memory required for data: 3490645952
I0328 09:29:06.865128  4213 layer_factory.hpp:77] Creating layer res4e_res4e_relu_0_split
I0328 09:29:06.865150  4213 net.cpp:106] Creating Layer res4e_res4e_relu_0_split
I0328 09:29:06.865169  4213 net.cpp:454] res4e_res4e_relu_0_split <- res4e
I0328 09:29:06.865190  4213 net.cpp:411] res4e_res4e_relu_0_split -> res4e_res4e_relu_0_split_0
I0328 09:29:06.865216  4213 net.cpp:411] res4e_res4e_relu_0_split -> res4e_res4e_relu_0_split_1
I0328 09:29:06.865316  4213 net.cpp:150] Setting up res4e_res4e_relu_0_split
I0328 09:29:06.865363  4213 net.cpp:157] Top shape: 16 1024 14 14 (3211264)
I0328 09:29:06.865386  4213 net.cpp:157] Top shape: 16 1024 14 14 (3211264)
I0328 09:29:06.865430  4213 net.cpp:165] Memory required for data: 3516336064
I0328 09:29:06.865452  4213 layer_factory.hpp:77] Creating layer res4f_branch2a
I0328 09:29:06.865485  4213 net.cpp:106] Creating Layer res4f_branch2a
I0328 09:29:06.865507  4213 net.cpp:454] res4f_branch2a <- res4e_res4e_relu_0_split_0
I0328 09:29:06.865531  4213 net.cpp:411] res4f_branch2a -> res4f_branch2a
I0328 09:29:06.867447  4213 net.cpp:150] Setting up res4f_branch2a
I0328 09:29:06.867491  4213 net.cpp:157] Top shape: 16 256 14 14 (802816)
I0328 09:29:06.867509  4213 net.cpp:165] Memory required for data: 3519547328
I0328 09:29:06.867533  4213 layer_factory.hpp:77] Creating layer bn4f_branch2a
I0328 09:29:06.867559  4213 net.cpp:106] Creating Layer bn4f_branch2a
I0328 09:29:06.867580  4213 net.cpp:454] bn4f_branch2a <- res4f_branch2a
I0328 09:29:06.867610  4213 net.cpp:397] bn4f_branch2a -> res4f_branch2a (in-place)
I0328 09:29:06.868055  4213 net.cpp:150] Setting up bn4f_branch2a
I0328 09:29:06.868089  4213 net.cpp:157] Top shape: 16 256 14 14 (802816)
I0328 09:29:06.868108  4213 net.cpp:165] Memory required for data: 3522758592
I0328 09:29:06.868139  4213 layer_factory.hpp:77] Creating layer scale4f_branch2a
I0328 09:29:06.868165  4213 net.cpp:106] Creating Layer scale4f_branch2a
I0328 09:29:06.868185  4213 net.cpp:454] scale4f_branch2a <- res4f_branch2a
I0328 09:29:06.868207  4213 net.cpp:397] scale4f_branch2a -> res4f_branch2a (in-place)
I0328 09:29:06.868325  4213 layer_factory.hpp:77] Creating layer scale4f_branch2a
I0328 09:29:06.868612  4213 net.cpp:150] Setting up scale4f_branch2a
I0328 09:29:06.868644  4213 net.cpp:157] Top shape: 16 256 14 14 (802816)
I0328 09:29:06.868662  4213 net.cpp:165] Memory required for data: 3525969856
I0328 09:29:06.868688  4213 layer_factory.hpp:77] Creating layer res4f_branch2a_relu
I0328 09:29:06.868712  4213 net.cpp:106] Creating Layer res4f_branch2a_relu
I0328 09:29:06.868732  4213 net.cpp:454] res4f_branch2a_relu <- res4f_branch2a
I0328 09:29:06.868760  4213 net.cpp:397] res4f_branch2a_relu -> res4f_branch2a (in-place)
I0328 09:29:06.868788  4213 net.cpp:150] Setting up res4f_branch2a_relu
I0328 09:29:06.868810  4213 net.cpp:157] Top shape: 16 256 14 14 (802816)
I0328 09:29:06.868827  4213 net.cpp:165] Memory required for data: 3529181120
I0328 09:29:06.868845  4213 layer_factory.hpp:77] Creating layer res4f_branch2b
I0328 09:29:06.868872  4213 net.cpp:106] Creating Layer res4f_branch2b
I0328 09:29:06.868891  4213 net.cpp:454] res4f_branch2b <- res4f_branch2a
I0328 09:29:06.868921  4213 net.cpp:411] res4f_branch2b -> res4f_branch2b
I0328 09:29:06.872355  4213 net.cpp:150] Setting up res4f_branch2b
I0328 09:29:06.872400  4213 net.cpp:157] Top shape: 16 256 14 14 (802816)
I0328 09:29:06.872419  4213 net.cpp:165] Memory required for data: 3532392384
I0328 09:29:06.872443  4213 layer_factory.hpp:77] Creating layer bn4f_branch2b
I0328 09:29:06.872469  4213 net.cpp:106] Creating Layer bn4f_branch2b
I0328 09:29:06.872490  4213 net.cpp:454] bn4f_branch2b <- res4f_branch2b
I0328 09:29:06.872514  4213 net.cpp:397] bn4f_branch2b -> res4f_branch2b (in-place)
I0328 09:29:06.872974  4213 net.cpp:150] Setting up bn4f_branch2b
I0328 09:29:06.873009  4213 net.cpp:157] Top shape: 16 256 14 14 (802816)
I0328 09:29:06.873028  4213 net.cpp:165] Memory required for data: 3535603648
I0328 09:29:06.873057  4213 layer_factory.hpp:77] Creating layer scale4f_branch2b
I0328 09:29:06.873090  4213 net.cpp:106] Creating Layer scale4f_branch2b
I0328 09:29:06.873111  4213 net.cpp:454] scale4f_branch2b <- res4f_branch2b
I0328 09:29:06.873134  4213 net.cpp:397] scale4f_branch2b -> res4f_branch2b (in-place)
I0328 09:29:06.873253  4213 layer_factory.hpp:77] Creating layer scale4f_branch2b
I0328 09:29:06.873555  4213 net.cpp:150] Setting up scale4f_branch2b
I0328 09:29:06.873592  4213 net.cpp:157] Top shape: 16 256 14 14 (802816)
I0328 09:29:06.873610  4213 net.cpp:165] Memory required for data: 3538814912
I0328 09:29:06.873636  4213 layer_factory.hpp:77] Creating layer res4f_branch2b_relu
I0328 09:29:06.873673  4213 net.cpp:106] Creating Layer res4f_branch2b_relu
I0328 09:29:06.873713  4213 net.cpp:454] res4f_branch2b_relu <- res4f_branch2b
I0328 09:29:06.873742  4213 net.cpp:397] res4f_branch2b_relu -> res4f_branch2b (in-place)
I0328 09:29:06.873770  4213 net.cpp:150] Setting up res4f_branch2b_relu
I0328 09:29:06.873793  4213 net.cpp:157] Top shape: 16 256 14 14 (802816)
I0328 09:29:06.873811  4213 net.cpp:165] Memory required for data: 3542026176
I0328 09:29:06.873828  4213 layer_factory.hpp:77] Creating layer res4f_branch2c
I0328 09:29:06.873860  4213 net.cpp:106] Creating Layer res4f_branch2c
I0328 09:29:06.873881  4213 net.cpp:454] res4f_branch2c <- res4f_branch2b
I0328 09:29:06.873905  4213 net.cpp:411] res4f_branch2c -> res4f_branch2c
I0328 09:29:06.875813  4213 net.cpp:150] Setting up res4f_branch2c
I0328 09:29:06.875856  4213 net.cpp:157] Top shape: 16 1024 14 14 (3211264)
I0328 09:29:06.875875  4213 net.cpp:165] Memory required for data: 3554871232
I0328 09:29:06.875900  4213 layer_factory.hpp:77] Creating layer bn4f_branch2c
I0328 09:29:06.875931  4213 net.cpp:106] Creating Layer bn4f_branch2c
I0328 09:29:06.875954  4213 net.cpp:454] bn4f_branch2c <- res4f_branch2c
I0328 09:29:06.875977  4213 net.cpp:397] bn4f_branch2c -> res4f_branch2c (in-place)
I0328 09:29:06.876441  4213 net.cpp:150] Setting up bn4f_branch2c
I0328 09:29:06.876476  4213 net.cpp:157] Top shape: 16 1024 14 14 (3211264)
I0328 09:29:06.876493  4213 net.cpp:165] Memory required for data: 3567716288
I0328 09:29:06.876605  4213 layer_factory.hpp:77] Creating layer scale4f_branch2c
I0328 09:29:06.876638  4213 net.cpp:106] Creating Layer scale4f_branch2c
I0328 09:29:06.876658  4213 net.cpp:454] scale4f_branch2c <- res4f_branch2c
I0328 09:29:06.876682  4213 net.cpp:397] scale4f_branch2c -> res4f_branch2c (in-place)
I0328 09:29:06.876803  4213 layer_factory.hpp:77] Creating layer scale4f_branch2c
I0328 09:29:06.877104  4213 net.cpp:150] Setting up scale4f_branch2c
I0328 09:29:06.877138  4213 net.cpp:157] Top shape: 16 1024 14 14 (3211264)
I0328 09:29:06.877156  4213 net.cpp:165] Memory required for data: 3580561344
I0328 09:29:06.877183  4213 layer_factory.hpp:77] Creating layer res4f
I0328 09:29:06.877213  4213 net.cpp:106] Creating Layer res4f
I0328 09:29:06.877235  4213 net.cpp:454] res4f <- res4e_res4e_relu_0_split_1
I0328 09:29:06.877257  4213 net.cpp:454] res4f <- res4f_branch2c
I0328 09:29:06.877279  4213 net.cpp:411] res4f -> res4f
I0328 09:29:06.877374  4213 net.cpp:150] Setting up res4f
I0328 09:29:06.877410  4213 net.cpp:157] Top shape: 16 1024 14 14 (3211264)
I0328 09:29:06.877429  4213 net.cpp:165] Memory required for data: 3593406400
I0328 09:29:06.877447  4213 layer_factory.hpp:77] Creating layer res4f_relu
I0328 09:29:06.877470  4213 net.cpp:106] Creating Layer res4f_relu
I0328 09:29:06.877490  4213 net.cpp:454] res4f_relu <- res4f
I0328 09:29:06.877518  4213 net.cpp:397] res4f_relu -> res4f (in-place)
I0328 09:29:06.877545  4213 net.cpp:150] Setting up res4f_relu
I0328 09:29:06.877568  4213 net.cpp:157] Top shape: 16 1024 14 14 (3211264)
I0328 09:29:06.877584  4213 net.cpp:165] Memory required for data: 3606251456
I0328 09:29:06.877604  4213 layer_factory.hpp:77] Creating layer res4f_res4f_relu_0_split
I0328 09:29:06.877625  4213 net.cpp:106] Creating Layer res4f_res4f_relu_0_split
I0328 09:29:06.877643  4213 net.cpp:454] res4f_res4f_relu_0_split <- res4f
I0328 09:29:06.877671  4213 net.cpp:411] res4f_res4f_relu_0_split -> res4f_res4f_relu_0_split_0
I0328 09:29:06.877698  4213 net.cpp:411] res4f_res4f_relu_0_split -> res4f_res4f_relu_0_split_1
I0328 09:29:06.877804  4213 net.cpp:150] Setting up res4f_res4f_relu_0_split
I0328 09:29:06.877835  4213 net.cpp:157] Top shape: 16 1024 14 14 (3211264)
I0328 09:29:06.877856  4213 net.cpp:157] Top shape: 16 1024 14 14 (3211264)
I0328 09:29:06.877872  4213 net.cpp:165] Memory required for data: 3631941568
I0328 09:29:06.877890  4213 layer_factory.hpp:77] Creating layer res5a_branch1
I0328 09:29:06.877918  4213 net.cpp:106] Creating Layer res5a_branch1
I0328 09:29:06.877938  4213 net.cpp:454] res5a_branch1 <- res4f_res4f_relu_0_split_0
I0328 09:29:06.878005  4213 net.cpp:411] res5a_branch1 -> res5a_branch1
I0328 09:29:06.888350  4213 net.cpp:150] Setting up res5a_branch1
I0328 09:29:06.888406  4213 net.cpp:157] Top shape: 16 2048 7 7 (1605632)
I0328 09:29:06.888425  4213 net.cpp:165] Memory required for data: 3638364096
I0328 09:29:06.888449  4213 layer_factory.hpp:77] Creating layer bn5a_branch1
I0328 09:29:06.888475  4213 net.cpp:106] Creating Layer bn5a_branch1
I0328 09:29:06.888496  4213 net.cpp:454] bn5a_branch1 <- res5a_branch1
I0328 09:29:06.888520  4213 net.cpp:397] bn5a_branch1 -> res5a_branch1 (in-place)
I0328 09:29:06.889012  4213 net.cpp:150] Setting up bn5a_branch1
I0328 09:29:06.889047  4213 net.cpp:157] Top shape: 16 2048 7 7 (1605632)
I0328 09:29:06.889066  4213 net.cpp:165] Memory required for data: 3644786624
I0328 09:29:06.889096  4213 layer_factory.hpp:77] Creating layer scale5a_branch1
I0328 09:29:06.889130  4213 net.cpp:106] Creating Layer scale5a_branch1
I0328 09:29:06.889152  4213 net.cpp:454] scale5a_branch1 <- res5a_branch1
I0328 09:29:06.889175  4213 net.cpp:397] scale5a_branch1 -> res5a_branch1 (in-place)
I0328 09:29:06.889293  4213 layer_factory.hpp:77] Creating layer scale5a_branch1
I0328 09:29:06.889614  4213 net.cpp:150] Setting up scale5a_branch1
I0328 09:29:06.889652  4213 net.cpp:157] Top shape: 16 2048 7 7 (1605632)
I0328 09:29:06.889670  4213 net.cpp:165] Memory required for data: 3651209152
I0328 09:29:06.889696  4213 layer_factory.hpp:77] Creating layer res5a_branch2a
I0328 09:29:06.889731  4213 net.cpp:106] Creating Layer res5a_branch2a
I0328 09:29:06.889753  4213 net.cpp:454] res5a_branch2a <- res4f_res4f_relu_0_split_1
I0328 09:29:06.889783  4213 net.cpp:411] res5a_branch2a -> res5a_branch2a
I0328 09:29:06.892899  4213 net.cpp:150] Setting up res5a_branch2a
I0328 09:29:06.892942  4213 net.cpp:157] Top shape: 16 512 7 7 (401408)
I0328 09:29:06.892962  4213 net.cpp:165] Memory required for data: 3652814784
I0328 09:29:06.892987  4213 layer_factory.hpp:77] Creating layer bn5a_branch2a
I0328 09:29:06.893013  4213 net.cpp:106] Creating Layer bn5a_branch2a
I0328 09:29:06.893033  4213 net.cpp:454] bn5a_branch2a <- res5a_branch2a
I0328 09:29:06.893064  4213 net.cpp:397] bn5a_branch2a -> res5a_branch2a (in-place)
I0328 09:29:06.893548  4213 net.cpp:150] Setting up bn5a_branch2a
I0328 09:29:06.893585  4213 net.cpp:157] Top shape: 16 512 7 7 (401408)
I0328 09:29:06.893604  4213 net.cpp:165] Memory required for data: 3654420416
I0328 09:29:06.893633  4213 layer_factory.hpp:77] Creating layer scale5a_branch2a
I0328 09:29:06.893661  4213 net.cpp:106] Creating Layer scale5a_branch2a
I0328 09:29:06.893681  4213 net.cpp:454] scale5a_branch2a <- res5a_branch2a
I0328 09:29:06.893703  4213 net.cpp:397] scale5a_branch2a -> res5a_branch2a (in-place)
I0328 09:29:06.893818  4213 layer_factory.hpp:77] Creating layer scale5a_branch2a
I0328 09:29:06.894114  4213 net.cpp:150] Setting up scale5a_branch2a
I0328 09:29:06.894148  4213 net.cpp:157] Top shape: 16 512 7 7 (401408)
I0328 09:29:06.894167  4213 net.cpp:165] Memory required for data: 3656026048
I0328 09:29:06.894193  4213 layer_factory.hpp:77] Creating layer res5a_branch2a_relu
I0328 09:29:06.894217  4213 net.cpp:106] Creating Layer res5a_branch2a_relu
I0328 09:29:06.894237  4213 net.cpp:454] res5a_branch2a_relu <- res5a_branch2a
I0328 09:29:06.894266  4213 net.cpp:397] res5a_branch2a_relu -> res5a_branch2a (in-place)
I0328 09:29:06.894294  4213 net.cpp:150] Setting up res5a_branch2a_relu
I0328 09:29:06.894316  4213 net.cpp:157] Top shape: 16 512 7 7 (401408)
I0328 09:29:06.894335  4213 net.cpp:165] Memory required for data: 3657631680
I0328 09:29:06.894352  4213 layer_factory.hpp:77] Creating layer res5a_branch2b
I0328 09:29:06.894379  4213 net.cpp:106] Creating Layer res5a_branch2b
I0328 09:29:06.894399  4213 net.cpp:454] res5a_branch2b <- res5a_branch2a
I0328 09:29:06.894429  4213 net.cpp:411] res5a_branch2b -> res5a_branch2b
I0328 09:29:06.906086  4213 net.cpp:150] Setting up res5a_branch2b
I0328 09:29:06.906150  4213 net.cpp:157] Top shape: 16 512 7 7 (401408)
I0328 09:29:06.906206  4213 net.cpp:165] Memory required for data: 3659237312
I0328 09:29:06.906234  4213 layer_factory.hpp:77] Creating layer bn5a_branch2b
I0328 09:29:06.906262  4213 net.cpp:106] Creating Layer bn5a_branch2b
I0328 09:29:06.906286  4213 net.cpp:454] bn5a_branch2b <- res5a_branch2b
I0328 09:29:06.906309  4213 net.cpp:397] bn5a_branch2b -> res5a_branch2b (in-place)
I0328 09:29:06.906787  4213 net.cpp:150] Setting up bn5a_branch2b
I0328 09:29:06.906822  4213 net.cpp:157] Top shape: 16 512 7 7 (401408)
I0328 09:29:06.906841  4213 net.cpp:165] Memory required for data: 3660842944
I0328 09:29:06.906870  4213 layer_factory.hpp:77] Creating layer scale5a_branch2b
I0328 09:29:06.906903  4213 net.cpp:106] Creating Layer scale5a_branch2b
I0328 09:29:06.906924  4213 net.cpp:454] scale5a_branch2b <- res5a_branch2b
I0328 09:29:06.906947  4213 net.cpp:397] scale5a_branch2b -> res5a_branch2b (in-place)
I0328 09:29:06.907063  4213 layer_factory.hpp:77] Creating layer scale5a_branch2b
I0328 09:29:06.907366  4213 net.cpp:150] Setting up scale5a_branch2b
I0328 09:29:06.907400  4213 net.cpp:157] Top shape: 16 512 7 7 (401408)
I0328 09:29:06.907418  4213 net.cpp:165] Memory required for data: 3662448576
I0328 09:29:06.907444  4213 layer_factory.hpp:77] Creating layer res5a_branch2b_relu
I0328 09:29:06.907469  4213 net.cpp:106] Creating Layer res5a_branch2b_relu
I0328 09:29:06.907490  4213 net.cpp:454] res5a_branch2b_relu <- res5a_branch2b
I0328 09:29:06.907517  4213 net.cpp:397] res5a_branch2b_relu -> res5a_branch2b (in-place)
I0328 09:29:06.907544  4213 net.cpp:150] Setting up res5a_branch2b_relu
I0328 09:29:06.907567  4213 net.cpp:157] Top shape: 16 512 7 7 (401408)
I0328 09:29:06.907584  4213 net.cpp:165] Memory required for data: 3664054208
I0328 09:29:06.907603  4213 layer_factory.hpp:77] Creating layer res5a_branch2c
I0328 09:29:06.907636  4213 net.cpp:106] Creating Layer res5a_branch2c
I0328 09:29:06.907657  4213 net.cpp:454] res5a_branch2c <- res5a_branch2b
I0328 09:29:06.907682  4213 net.cpp:411] res5a_branch2c -> res5a_branch2c
I0328 09:29:06.913251  4213 net.cpp:150] Setting up res5a_branch2c
I0328 09:29:06.913300  4213 net.cpp:157] Top shape: 16 2048 7 7 (1605632)
I0328 09:29:06.913319  4213 net.cpp:165] Memory required for data: 3670476736
I0328 09:29:06.913357  4213 layer_factory.hpp:77] Creating layer bn5a_branch2c
I0328 09:29:06.913391  4213 net.cpp:106] Creating Layer bn5a_branch2c
I0328 09:29:06.913414  4213 net.cpp:454] bn5a_branch2c <- res5a_branch2c
I0328 09:29:06.913437  4213 net.cpp:397] bn5a_branch2c -> res5a_branch2c (in-place)
I0328 09:29:06.913918  4213 net.cpp:150] Setting up bn5a_branch2c
I0328 09:29:06.913954  4213 net.cpp:157] Top shape: 16 2048 7 7 (1605632)
I0328 09:29:06.913972  4213 net.cpp:165] Memory required for data: 3676899264
I0328 09:29:06.914002  4213 layer_factory.hpp:77] Creating layer scale5a_branch2c
I0328 09:29:06.914028  4213 net.cpp:106] Creating Layer scale5a_branch2c
I0328 09:29:06.914048  4213 net.cpp:454] scale5a_branch2c <- res5a_branch2c
I0328 09:29:06.914078  4213 net.cpp:397] scale5a_branch2c -> res5a_branch2c (in-place)
I0328 09:29:06.914187  4213 layer_factory.hpp:77] Creating layer scale5a_branch2c
I0328 09:29:06.914491  4213 net.cpp:150] Setting up scale5a_branch2c
I0328 09:29:06.914531  4213 net.cpp:157] Top shape: 16 2048 7 7 (1605632)
…
I0328 09:29:07.052626  4213 net.cpp:454] id_res4d_branch2b <- id_res4d_branch2a
I0328 09:29:07.052651  4213 net.cpp:411] id_res4d_branch2b -> id_res4d_branch2b
I0328 09:29:07.056076  4213 net.cpp:150] Setting up id_res4d_branch2b
I0328 09:29:07.056120  4213 net.cpp:157] Top shape: 16 256 14 14 (802816)
I0328 09:29:07.056139  4213 net.cpp:165] Memory required for data: 5215225792
I0328 09:29:07.056164  4213 layer_factory.hpp:77] Creating layer id_bn4d_branch2b
I0328 09:29:07.056188  4213 net.cpp:106] Creating Layer id_bn4d_branch2b
I0328 09:29:07.056210  4213 net.cpp:454] id_bn4d_branch2b <- id_res4d_branch2b
I0328 09:29:07.056231  4213 net.cpp:397] id_bn4d_branch2b -> id_res4d_branch2b (in-place)
I0328 09:29:07.056668  4213 net.cpp:150] Setting up id_bn4d_branch2b
I0328 09:29:07.056702  4213 net.cpp:157] Top shape: 16 256 14 14 (802816)
I0328 09:29:07.056720  4213 net.cpp:165] Memory required for data: 5218437056
I0328 09:29:07.056751  4213 layer_factory.hpp:77] Creating layer id_scale4d_branch2b
I0328 09:29:07.056777  4213 net.cpp:106] Creating Layer id_scale4d_branch2b
I0328 09:29:07.056797  4213 net.cpp:454] id_scale4d_branch2b <- id_res4d_branch2b
I0328 09:29:07.056819  4213 net.cpp:397] id_scale4d_branch2b -> id_res4d_branch2b (in-place)
I0328 09:29:07.056953  4213 layer_factory.hpp:77] Creating layer id_scale4d_branch2b
I0328 09:29:07.057238  4213 net.cpp:150] Setting up id_scale4d_branch2b
I0328 09:29:07.057272  4213 net.cpp:157] Top shape: 16 256 14 14 (802816)
I0328 09:29:07.057291  4213 net.cpp:165] Memory required for data: 5221648320
I0328 09:29:07.057317  4213 layer_factory.hpp:77] Creating layer id_res4d_branch2b_relu
I0328 09:29:07.057360  4213 net.cpp:106] Creating Layer id_res4d_branch2b_relu
I0328 09:29:07.057385  4213 net.cpp:454] id_res4d_branch2b_relu <- id_res4d_branch2b
I0328 09:29:07.057436  4213 net.cpp:397] id_res4d_branch2b_relu -> id_res4d_branch2b (in-place)
I0328 09:29:07.057466  4213 net.cpp:150] Setting up id_res4d_branch2b_relu
I0328 09:29:07.057488  4213 net.cpp:157] Top shape: 16 256 14 14 (802816)
I0328 09:29:07.057507  4213 net.cpp:165] Memory required for data: 5224859584
I0328 09:29:07.057524  4213 layer_factory.hpp:77] Creating layer id_res4d_branch2c
I0328 09:29:07.057557  4213 net.cpp:106] Creating Layer id_res4d_branch2c
I0328 09:29:07.057577  4213 net.cpp:454] id_res4d_branch2c <- id_res4d_branch2b
I0328 09:29:07.057601  4213 net.cpp:411] id_res4d_branch2c -> id_res4d_branch2c
I0328 09:29:07.059521  4213 net.cpp:150] Setting up id_res4d_branch2c
I0328 09:29:07.059566  4213 net.cpp:157] Top shape: 16 1024 14 14 (3211264)
I0328 09:29:07.059584  4213 net.cpp:165] Memory required for data: 5237704640
I0328 09:29:07.059608  4213 layer_factory.hpp:77] Creating layer id_bn4d_branch2c
I0328 09:29:07.059640  4213 net.cpp:106] Creating Layer id_bn4d_branch2c
I0328 09:29:07.059662  4213 net.cpp:454] id_bn4d_branch2c <- id_res4d_branch2c
I0328 09:29:07.059685  4213 net.cpp:397] id_bn4d_branch2c -> id_res4d_branch2c (in-place)
I0328 09:29:07.060153  4213 net.cpp:150] Setting up id_bn4d_branch2c
I0328 09:29:07.060189  4213 net.cpp:157] Top shape: 16 1024 14 14 (3211264)
I0328 09:29:07.060207  4213 net.cpp:165] Memory required for data: 5250549696
I0328 09:29:07.060237  4213 layer_factory.hpp:77] Creating layer id_scale4d_branch2c
I0328 09:29:07.060269  4213 net.cpp:106] Creating Layer id_scale4d_branch2c
I0328 09:29:07.060292  4213 net.cpp:454] id_scale4d_branch2c <- id_res4d_branch2c
I0328 09:29:07.060314  4213 net.cpp:397] id_scale4d_branch2c -> id_res4d_branch2c (in-place)
I0328 09:29:07.060430  4213 layer_factory.hpp:77] Creating layer id_scale4d_branch2c
I0328 09:29:07.060744  4213 net.cpp:150] Setting up id_scale4d_branch2c
I0328 09:29:07.060778  4213 net.cpp:157] Top shape: 16 1024 14 14 (3211264)
I0328 09:29:07.060796  4213 net.cpp:165] Memory required for data: 5263394752
I0328 09:29:07.060822  4213 layer_factory.hpp:77] Creating layer id_res4d
I0328 09:29:07.060847  4213 net.cpp:106] Creating Layer id_res4d
I0328 09:29:07.060868  4213 net.cpp:454] id_res4d <- id_res4c_id_res4c_relu_0_split_1
I0328 09:29:07.060889  4213 net.cpp:454] id_res4d <- id_res4d_branch2c
I0328 09:29:07.060912  4213 net.cpp:411] id_res4d -> id_res4d
I0328 09:29:07.060992  4213 net.cpp:150] Setting up id_res4d
I0328 09:29:07.061022  4213 net.cpp:157] Top shape: 16 1024 14 14 (3211264)
I0328 09:29:07.061046  4213 net.cpp:165] Memory required for data: 5276239808
I0328 09:29:07.061065  4213 layer_factory.hpp:77] Creating layer id_res4d_relu
I0328 09:29:07.061087  4213 net.cpp:106] Creating Layer id_res4d_relu
I0328 09:29:07.061107  4213 net.cpp:454] id_res4d_relu <- id_res4d
I0328 09:29:07.061128  4213 net.cpp:397] id_res4d_relu -> id_res4d (in-place)
I0328 09:29:07.061153  4213 net.cpp:150] Setting up id_res4d_relu
I0328 09:29:07.061177  4213 net.cpp:157] Top shape: 16 1024 14 14 (3211264)
I0328 09:29:07.061193  4213 net.cpp:165] Memory required for data: 5289084864
I0328 09:29:07.061211  4213 layer_factory.hpp:77] Creating layer id_res4d_id_res4d_relu_0_split
I0328 09:29:07.061233  4213 net.cpp:106] Creating Layer id_res4d_id_res4d_relu_0_split
I0328 09:29:07.061252  4213 net.cpp:454] id_res4d_id_res4d_relu_0_split <- id_res4d
I0328 09:29:07.061280  4213 net.cpp:411] id_res4d_id_res4d_relu_0_split -> id_res4d_id_res4d_relu_0_split_0
I0328 09:29:07.061308  4213 net.cpp:411] id_res4d_id_res4d_relu_0_split -> id_res4d_id_res4d_relu_0_split_1
I0328 09:29:07.061416  4213 net.cpp:150] Setting up id_res4d_id_res4d_relu_0_split
I0328 09:29:07.061452  4213 net.cpp:157] Top shape: 16 1024 14 14 (3211264)
I0328 09:29:07.061473  4213 net.cpp:157] Top shape: 16 1024 14 14 (3211264)
I0328 09:29:07.061491  4213 net.cpp:165] Memory required for data: 5314774976
I0328 09:29:07.061509  4213 layer_factory.hpp:77] Creating layer id_res4e_branch2a
I0328 09:29:07.061555  4213 net.cpp:106] Creating Layer id_res4e_branch2a
I0328 09:29:07.061596  4213 net.cpp:454] id_res4e_branch2a <- id_res4d_id_res4d_relu_0_split_0
I0328 09:29:07.061624  4213 net.cpp:411] id_res4e_branch2a -> id_res4e_branch2a
I0328 09:29:07.063539  4213 net.cpp:150] Setting up id_res4e_branch2a
I0328 09:29:07.063583  4213 net.cpp:157] Top shape: 16 256 14 14 (802816)
I0328 09:29:07.063601  4213 net.cpp:165] Memory required for data: 5317986240
I0328 09:29:07.063626  4213 layer_factory.hpp:77] Creating layer id_bn4e_branch2a
I0328 09:29:07.063657  4213 net.cpp:106] Creating Layer id_bn4e_branch2a
I0328 09:29:07.063679  4213 net.cpp:454] id_bn4e_branch2a <- id_res4e_branch2a
I0328 09:29:07.063702  4213 net.cpp:397] id_bn4e_branch2a -> id_res4e_branch2a (in-place)
I0328 09:29:07.064157  4213 net.cpp:150] Setting up id_bn4e_branch2a
I0328 09:29:07.064193  4213 net.cpp:157] Top shape: 16 256 14 14 (802816)
I0328 09:29:07.064210  4213 net.cpp:165] Memory required for data: 5321197504
I0328 09:29:07.064240  4213 layer_factory.hpp:77] Creating layer id_scale4e_branch2a
I0328 09:29:07.064266  4213 net.cpp:106] Creating Layer id_scale4e_branch2a
I0328 09:29:07.064287  4213 net.cpp:454] id_scale4e_branch2a <- id_res4e_branch2a
I0328 09:29:07.064311  4213 net.cpp:397] id_scale4e_branch2a -> id_res4e_branch2a (in-place)
I0328 09:29:07.064429  4213 layer_factory.hpp:77] Creating layer id_scale4e_branch2a
I0328 09:29:07.064724  4213 net.cpp:150] Setting up id_scale4e_branch2a
I0328 09:29:07.064759  4213 net.cpp:157] Top shape: 16 256 14 14 (802816)
I0328 09:29:07.064776  4213 net.cpp:165] Memory required for data: 5324408768
I0328 09:29:07.064802  4213 layer_factory.hpp:77] Creating layer id_res4e_branch2a_relu
I0328 09:29:07.064832  4213 net.cpp:106] Creating Layer id_res4e_branch2a_relu
I0328 09:29:07.064854  4213 net.cpp:454] id_res4e_branch2a_relu <- id_res4e_branch2a
I0328 09:29:07.064877  4213 net.cpp:397] id_res4e_branch2a_relu -> id_res4e_branch2a (in-place)
I0328 09:29:07.064901  4213 net.cpp:150] Setting up id_res4e_branch2a_relu
I0328 09:29:07.064924  4213 net.cpp:157] Top shape: 16 256 14 14 (802816)
I0328 09:29:07.064941  4213 net.cpp:165] Memory required for data: 5327620032
I0328 09:29:07.064960  4213 layer_factory.hpp:77] Creating layer id_res4e_branch2b
I0328 09:29:07.064991  4213 net.cpp:106] Creating Layer id_res4e_branch2b
I0328 09:29:07.065012  4213 net.cpp:454] id_res4e_branch2b <- id_res4e_branch2a
I0328 09:29:07.065037  4213 net.cpp:411] id_res4e_branch2b -> id_res4e_branch2b
I0328 09:29:07.068470  4213 net.cpp:150] Setting up id_res4e_branch2b
I0328 09:29:07.068516  4213 net.cpp:157] Top shape: 16 256 14 14 (802816)
I0328 09:29:07.068536  4213 net.cpp:165] Memory required for data: 5330831296
I0328 09:29:07.068559  4213 layer_factory.hpp:77] Creating layer id_bn4e_branch2b
I0328 09:29:07.068585  4213 net.cpp:106] Creating Layer id_bn4e_branch2b
I0328 09:29:07.068606  4213 net.cpp:454] id_bn4e_branch2b <- id_res4e_branch2b
I0328 09:29:07.068629  4213 net.cpp:397] id_bn4e_branch2b -> id_res4e_branch2b (in-place)
I0328 09:29:07.069082  4213 net.cpp:150] Setting up id_bn4e_branch2b
I0328 09:29:07.069123  4213 net.cpp:157] Top shape: 16 256 14 14 (802816)
I0328 09:29:07.069141  4213 net.cpp:165] Memory required for data: 5334042560
I0328 09:29:07.069171  4213 layer_factory.hpp:77] Creating layer id_scale4e_branch2b
I0328 09:29:07.069197  4213 net.cpp:106] Creating Layer id_scale4e_branch2b
I0328 09:29:07.069218  4213 net.cpp:454] id_scale4e_branch2b <- id_res4e_branch2b
I0328 09:29:07.069241  4213 net.cpp:397] id_scale4e_branch2b -> id_res4e_branch2b (in-place)
I0328 09:29:07.069372  4213 layer_factory.hpp:77] Creating layer id_scale4e_branch2b
I0328 09:29:07.069663  4213 net.cpp:150] Setting up id_scale4e_branch2b
I0328 09:29:07.069696  4213 net.cpp:157] Top shape: 16 256 14 14 (802816)
I0328 09:29:07.069715  4213 net.cpp:165] Memory required for data: 5337253824
I0328 09:29:07.069741  4213 layer_factory.hpp:77] Creating layer id_res4e_branch2b_relu
I0328 09:29:07.069772  4213 net.cpp:106] Creating Layer id_res4e_branch2b_relu
I0328 09:29:07.069806  4213 net.cpp:454] id_res4e_branch2b_relu <- id_res4e_branch2b
I0328 09:29:07.069849  4213 net.cpp:397] id_res4e_branch2b_relu -> id_res4e_branch2b (in-place)
I0328 09:29:07.069876  4213 net.cpp:150] Setting up id_res4e_branch2b_relu
I0328 09:29:07.069900  4213 net.cpp:157] Top shape: 16 256 14 14 (802816)
I0328 09:29:07.069916  4213 net.cpp:165] Memory required for data: 5340465088
I0328 09:29:07.069934  4213 layer_factory.hpp:77] Creating layer id_res4e_branch2c
I0328 09:29:07.069967  4213 net.cpp:106] Creating Layer id_res4e_branch2c
I0328 09:29:07.069988  4213 net.cpp:454] id_res4e_branch2c <- id_res4e_branch2b
I0328 09:29:07.070011  4213 net.cpp:411] id_res4e_branch2c -> id_res4e_branch2c
I0328 09:29:07.071929  4213 net.cpp:150] Setting up id_res4e_branch2c
I0328 09:29:07.071972  4213 net.cpp:157] Top shape: 16 1024 14 14 (3211264)
I0328 09:29:07.071991  4213 net.cpp:165] Memory required for data: 5353310144
I0328 09:29:07.072016  4213 layer_factory.hpp:77] Creating layer id_bn4e_branch2c
I0328 09:29:07.072046  4213 net.cpp:106] Creating Layer id_bn4e_branch2c
I0328 09:29:07.072068  4213 net.cpp:454] id_bn4e_branch2c <- id_res4e_branch2c
I0328 09:29:07.072093  4213 net.cpp:397] id_bn4e_branch2c -> id_res4e_branch2c (in-place)
I0328 09:29:07.072576  4213 net.cpp:150] Setting up id_bn4e_branch2c
I0328 09:29:07.072610  4213 net.cpp:157] Top shape: 16 1024 14 14 (3211264)
I0328 09:29:07.072629  4213 net.cpp:165] Memory required for data: 5366155200
I0328 09:29:07.072659  4213 layer_factory.hpp:77] Creating layer id_scale4e_branch2c
I0328 09:29:07.072696  4213 net.cpp:106] Creating Layer id_scale4e_branch2c
I0328 09:29:07.072718  4213 net.cpp:454] id_scale4e_branch2c <- id_res4e_branch2c
I0328 09:29:07.072741  4213 net.cpp:397] id_scale4e_branch2c -> id_res4e_branch2c (in-place)
I0328 09:29:07.072860  4213 layer_factory.hpp:77] Creating layer id_scale4e_branch2c
I0328 09:29:07.073175  4213 net.cpp:150] Setting up id_scale4e_branch2c
I0328 09:29:07.073210  4213 net.cpp:157] Top shape: 16 1024 14 14 (3211264)
I0328 09:29:07.073228  4213 net.cpp:165] Memory required for data: 5379000256
I0328 09:29:07.073254  4213 layer_factory.hpp:77] Creating layer id_res4e
I0328 09:29:07.073279  4213 net.cpp:106] Creating Layer id_res4e
I0328 09:29:07.073299  4213 net.cpp:454] id_res4e <- id_res4d_id_res4d_relu_0_split_1
I0328 09:29:07.073321  4213 net.cpp:454] id_res4e <- id_res4e_branch2c
I0328 09:29:07.073361  4213 net.cpp:411] id_res4e -> id_res4e
I0328 09:29:07.073444  4213 net.cpp:150] Setting up id_res4e
I0328 09:29:07.073477  4213 net.cpp:157] Top shape: 16 1024 14 14 (3211264)
I0328 09:29:07.073501  4213 net.cpp:165] Memory required for data: 5391845312
I0328 09:29:07.073520  4213 layer_factory.hpp:77] Creating layer id_res4e_relu
I0328 09:29:07.073544  4213 net.cpp:106] Creating Layer id_res4e_relu
I0328 09:29:07.073562  4213 net.cpp:454] id_res4e_relu <- id_res4e
I0328 09:29:07.073585  4213 net.cpp:397] id_res4e_relu -> id_res4e (in-place)
I0328 09:29:07.073611  4213 net.cpp:150] Setting up id_res4e_relu
I0328 09:29:07.073632  4213 net.cpp:157] Top shape: 16 1024 14 14 (3211264)
I0328 09:29:07.073649  4213 net.cpp:165] Memory required for data: 5404690368
I0328 09:29:07.073668  4213 layer_factory.hpp:77] Creating layer id_res4e_id_res4e_relu_0_split
I0328 09:29:07.073690  4213 net.cpp:106] Creating Layer id_res4e_id_res4e_relu_0_split
I0328 09:29:07.073709  4213 net.cpp:454] id_res4e_id_res4e_relu_0_split <- id_res4e
I0328 09:29:07.073737  4213 net.cpp:411] id_res4e_id_res4e_relu_0_split -> id_res4e_id_res4e_relu_0_split_0
I0328 09:29:07.073765  4213 net.cpp:411] id_res4e_id_res4e_relu_0_split -> id_res4e_id_res4e_relu_0_split_1
I0328 09:29:07.073860  4213 net.cpp:150] Setting up id_res4e_id_res4e_relu_0_split
I0328 09:29:07.073892  4213 net.cpp:157] Top shape: 16 1024 14 14 (3211264)
I0328 09:29:07.073914  4213 net.cpp:157] Top shape: 16 1024 14 14 (3211264)
I0328 09:29:07.073930  4213 net.cpp:165] Memory required for data: 5430380480
I0328 09:29:07.073948  4213 layer_factory.hpp:77] Creating layer id_res4f_branch2a
I0328 09:29:07.074012  4213 net.cpp:106] Creating Layer id_res4f_branch2a
I0328 09:29:07.074035  4213 net.cpp:454] id_res4f_branch2a <- id_res4e_id_res4e_relu_0_split_0
I0328 09:29:07.074060  4213 net.cpp:411] id_res4f_branch2a -> id_res4f_branch2a
I0328 09:29:07.075999  4213 net.cpp:150] Setting up id_res4f_branch2a
I0328 09:29:07.076042  4213 net.cpp:157] Top shape: 16 256 14 14 (802816)
I0328 09:29:07.076061  4213 net.cpp:165] Memory required for data: 5433591744
I0328 09:29:07.076086  4213 layer_factory.hpp:77] Creating layer id_bn4f_branch2a
I0328 09:29:07.076117  4213 net.cpp:106] Creating Layer id_bn4f_branch2a
I0328 09:29:07.076139  4213 net.cpp:454] id_bn4f_branch2a <- id_res4f_branch2a
I0328 09:29:07.076162  4213 net.cpp:397] id_bn4f_branch2a -> id_res4f_branch2a (in-place)
I0328 09:29:07.076613  4213 net.cpp:150] Setting up id_bn4f_branch2a
I0328 09:29:07.076647  4213 net.cpp:157] Top shape: 16 256 14 14 (802816)
I0328 09:29:07.076665  4213 net.cpp:165] Memory required for data: 5436803008
I0328 09:29:07.076695  4213 layer_factory.hpp:77] Creating layer id_scale4f_branch2a
I0328 09:29:07.076721  4213 net.cpp:106] Creating Layer id_scale4f_branch2a
I0328 09:29:07.076741  4213 net.cpp:454] id_scale4f_branch2a <- id_res4f_branch2a
I0328 09:29:07.076764  4213 net.cpp:397] id_scale4f_branch2a -> id_res4f_branch2a (in-place)
I0328 09:29:07.076886  4213 layer_factory.hpp:77] Creating layer id_scale4f_branch2a
I0328 09:29:07.077177  4213 net.cpp:150] Setting up id_scale4f_branch2a
I0328 09:29:07.077210  4213 net.cpp:157] Top shape: 16 256 14 14 (802816)
I0328 09:29:07.077229  4213 net.cpp:165] Memory required for data: 5440014272
I0328 09:29:07.077255  4213 layer_factory.hpp:77] Creating layer id_res4f_branch2a_relu
I0328 09:29:07.077286  4213 net.cpp:106] Creating Layer id_res4f_branch2a_relu
I0328 09:29:07.077307  4213 net.cpp:454] id_res4f_branch2a_relu <- id_res4f_branch2a
I0328 09:29:07.077342  4213 net.cpp:397] id_res4f_branch2a_relu -> id_res4f_branch2a (in-place)
I0328 09:29:07.077375  4213 net.cpp:150] Setting up id_res4f_branch2a_relu
I0328 09:29:07.077399  4213 net.cpp:157] Top shape: 16 256 14 14 (802816)
I0328 09:29:07.077416  4213 net.cpp:165] Memory required for data: 5443225536
I0328 09:29:07.077433  4213 layer_factory.hpp:77] Creating layer id_res4f_branch2b
I0328 09:29:07.077466  4213 net.cpp:106] Creating Layer id_res4f_branch2b
I0328 09:29:07.077487  4213 net.cpp:454] id_res4f_branch2b <- id_res4f_branch2a
I0328 09:29:07.077512  4213 net.cpp:411] id_res4f_branch2b -> id_res4f_branch2b
I0328 09:29:07.080940  4213 net.cpp:150] Setting up id_res4f_branch2b
I0328 09:29:07.080982  4213 net.cpp:157] Top shape: 16 256 14 14 (802816)
I0328 09:29:07.081002  4213 net.cpp:165] Memory required for data: 5446436800
I0328 09:29:07.081025  4213 layer_factory.hpp:77] Creating layer id_bn4f_branch2b
I0328 09:29:07.081051  4213 net.cpp:106] Creating Layer id_bn4f_branch2b
I0328 09:29:07.081073  4213 net.cpp:454] id_bn4f_branch2b <- id_res4f_branch2b
I0328 09:29:07.081094  4213 net.cpp:397] id_bn4f_branch2b -> id_res4f_branch2b (in-place)
I0328 09:29:07.081565  4213 net.cpp:150] Setting up id_bn4f_branch2b
I0328 09:29:07.081604  4213 net.cpp:157] Top shape: 16 256 14 14 (802816)
I0328 09:29:07.081621  4213 net.cpp:165] Memory required for data: 5449648064
I0328 09:29:07.081657  4213 layer_factory.hpp:77] Creating layer id_scale4f_branch2b
I0328 09:29:07.081684  4213 net.cpp:106] Creating Layer id_scale4f_branch2b
I0328 09:29:07.081704  4213 net.cpp:454] id_scale4f_branch2b <- id_res4f_branch2b
I0328 09:29:07.081727  4213 net.cpp:397] id_scale4f_branch2b -> id_res4f_branch2b (in-place)
I0328 09:29:07.081845  4213 layer_factory.hpp:77] Creating layer id_scale4f_branch2b
I0328 09:29:07.082132  4213 net.cpp:150] Setting up id_scale4f_branch2b
I0328 09:29:07.082166  4213 net.cpp:157] Top shape: 16 256 14 14 (802816)
I0328 09:29:07.082185  4213 net.cpp:165] Memory required for data: 5452859328
I0328 09:29:07.082211  4213 layer_factory.hpp:77] Creating layer id_res4f_branch2b_relu
I0328 09:29:07.082252  4213 net.cpp:106] Creating Layer id_res4f_branch2b_relu
I0328 09:29:07.082293  4213 net.cpp:454] id_res4f_branch2b_relu <- id_res4f_branch2b
I0328 09:29:07.082316  4213 net.cpp:397] id_res4f_branch2b_relu -> id_res4f_branch2b (in-place)
I0328 09:29:07.082343  4213 net.cpp:150] Setting up id_res4f_branch2b_relu
I0328 09:29:07.082365  4213 net.cpp:157] Top shape: 16 256 14 14 (802816)
I0328 09:29:07.082383  4213 net.cpp:165] Memory required for data: 5456070592
I0328 09:29:07.082401  4213 layer_factory.hpp:77] Creating layer id_res4f_branch2c
I0328 09:29:07.082434  4213 net.cpp:106] Creating Layer id_res4f_branch2c
I0328 09:29:07.082455  4213 net.cpp:454] id_res4f_branch2c <- id_res4f_branch2b
I0328 09:29:07.082479  4213 net.cpp:411] id_res4f_branch2c -> id_res4f_branch2c
I0328 09:29:07.084415  4213 net.cpp:150] Setting up id_res4f_branch2c
I0328 09:29:07.084458  4213 net.cpp:157] Top shape: 16 1024 14 14 (3211264)
I0328 09:29:07.084477  4213 net.cpp:165] Memory required for data: 5468915648
I0328 09:29:07.084501  4213 layer_factory.hpp:77] Creating layer id_bn4f_branch2c
I0328 09:29:07.084533  4213 net.cpp:106] Creating Layer id_bn4f_branch2c
I0328 09:29:07.084555  4213 net.cpp:454] id_bn4f_branch2c <- id_res4f_branch2c
I0328 09:29:07.084579  4213 net.cpp:397] id_bn4f_branch2c -> id_res4f_branch2c (in-place)
I0328 09:29:07.085067  4213 net.cpp:150] Setting up id_bn4f_branch2c
I0328 09:29:07.085103  4213 net.cpp:157] Top shape: 16 1024 14 14 (3211264)
I0328 09:29:07.085121  4213 net.cpp:165] Memory required for data: 5481760704
I0328 09:29:07.085151  4213 layer_factory.hpp:77] Creating layer id_scale4f_branch2c
I0328 09:29:07.085183  4213 net.cpp:106] Creating Layer id_scale4f_branch2c
I0328 09:29:07.085206  4213 net.cpp:454] id_scale4f_branch2c <- id_res4f_branch2c
I0328 09:29:07.085229  4213 net.cpp:397] id_scale4f_branch2c -> id_res4f_branch2c (in-place)
I0328 09:29:07.085361  4213 layer_factory.hpp:77] Creating layer id_scale4f_branch2c
I0328 09:29:07.085682  4213 net.cpp:150] Setting up id_scale4f_branch2c
I0328 09:29:07.085718  4213 net.cpp:157] Top shape: 16 1024 14 14 (3211264)
I0328 09:29:07.085736  4213 net.cpp:165] Memory required for data: 5494605760
I0328 09:29:07.085762  4213 layer_factory.hpp:77] Creating layer id_res4f
I0328 09:29:07.085786  4213 net.cpp:106] Creating Layer id_res4f
I0328 09:29:07.085808  4213 net.cpp:454] id_res4f <- id_res4e_id_res4e_relu_0_split_1
I0328 09:29:07.085829  4213 net.cpp:454] id_res4f <- id_res4f_branch2c
I0328 09:29:07.085851  4213 net.cpp:411] id_res4f -> id_res4f
I0328 09:29:07.085932  4213 net.cpp:150] Setting up id_res4f
I0328 09:29:07.085964  4213 net.cpp:157] Top shape: 16 1024 14 14 (3211264)
I0328 09:29:07.085983  4213 net.cpp:165] Memory required for data: 5507450816
I0328 09:29:07.086000  4213 layer_factory.hpp:77] Creating layer id_res4f_relu
I0328 09:29:07.086030  4213 net.cpp:106] Creating Layer id_res4f_relu
I0328 09:29:07.086050  4213 net.cpp:454] id_res4f_relu <- id_res4f
I0328 09:29:07.086072  4213 net.cpp:397] id_res4f_relu -> id_res4f (in-place)
I0328 09:29:07.086097  4213 net.cpp:150] Setting up id_res4f_relu
I0328 09:29:07.086119  4213 net.cpp:157] Top shape: 16 1024 14 14 (3211264)
I0328 09:29:07.086138  4213 net.cpp:165] Memory required for data: 5520295872
I0328 09:29:07.086155  4213 layer_factory.hpp:77] Creating layer id_res4f_id_res4f_relu_0_split
I0328 09:29:07.086177  4213 net.cpp:106] Creating Layer id_res4f_id_res4f_relu_0_split
I0328 09:29:07.086195  4213 net.cpp:454] id_res4f_id_res4f_relu_0_split <- id_res4f
I0328 09:29:07.086223  4213 net.cpp:411] id_res4f_id_res4f_relu_0_split -> id_res4f_id_res4f_relu_0_split_0
I0328 09:29:07.086251  4213 net.cpp:411] id_res4f_id_res4f_relu_0_split -> id_res4f_id_res4f_relu_0_split_1
I0328 09:29:07.086349  4213 net.cpp:150] Setting up id_res4f_id_res4f_relu_0_split
I0328 09:29:07.086379  4213 net.cpp:157] Top shape: 16 1024 14 14 (3211264)
I0328 09:29:07.086400  4213 net.cpp:157] Top shape: 16 1024 14 14 (3211264)
I0328 09:29:07.086417  4213 net.cpp:165] Memory required for data: 5545985984
I0328 09:29:07.086449  4213 layer_factory.hpp:77] Creating layer id_res5a_branch1
I0328 09:29:07.086508  4213 net.cpp:106] Creating Layer id_res5a_branch1
I0328 09:29:07.086534  4213 net.cpp:454] id_res5a_branch1 <- id_res4f_id_res4f_relu_0_split_0
I0328 09:29:07.086560  4213 net.cpp:411] id_res5a_branch1 -> id_res5a_branch1
I0328 09:29:07.096954  4213 net.cpp:150] Setting up id_res5a_branch1
I0328 09:29:07.097007  4213 net.cpp:157] Top shape: 16 2048 7 7 (1605632)
I0328 09:29:07.097026  4213 net.cpp:165] Memory required for data: 5552408512
I0328 09:29:07.097051  4213 layer_factory.hpp:77] Creating layer id_bn5a_branch1
I0328 09:29:07.097084  4213 net.cpp:106] Creating Layer id_bn5a_branch1
I0328 09:29:07.097107  4213 net.cpp:454] id_bn5a_branch1 <- id_res5a_branch1
I0328 09:29:07.097131  4213 net.cpp:397] id_bn5a_branch1 -> id_res5a_branch1 (in-place)
I0328 09:29:07.097650  4213 net.cpp:150] Setting up id_bn5a_branch1
I0328 09:29:07.097687  4213 net.cpp:157] Top shape: 16 2048 7 7 (1605632)
I0328 09:29:07.097707  4213 net.cpp:165] Memory required for data: 5558831040
I0328 09:29:07.097903  4213 layer_factory.hpp:77] Creating layer id_scale5a_branch1
I0328 09:29:07.097940  4213 net.cpp:106] Creating Layer id_scale5a_branch1
I0328 09:29:07.097962  4213 net.cpp:454] id_scale5a_branch1 <- id_res5a_branch1
I0328 09:29:07.097986  4213 net.cpp:397] id_scale5a_branch1 -> id_res5a_branch1 (in-place)
I0328 09:29:07.098110  4213 layer_factory.hpp:77] Creating layer id_scale5a_branch1
I0328 09:29:07.098423  4213 net.cpp:150] Setting up id_scale5a_branch1
I0328 09:29:07.098459  4213 net.cpp:157] Top shape: 16 2048 7 7 (1605632)
I0328 09:29:07.098477  4213 net.cpp:165] Memory required for data: 5565253568
I0328 09:29:07.098503  4213 layer_factory.hpp:77] Creating layer id_res5a_branch2a
I0328 09:29:07.098538  4213 net.cpp:106] Creating Layer id_res5a_branch2a
I0328 09:29:07.098562  4213 net.cpp:454] id_res5a_branch2a <- id_res4f_id_res4f_relu_0_split_1
I0328 09:29:07.098585  4213 net.cpp:411] id_res5a_branch2a -> id_res5a_branch2a
I0328 09:29:07.101757  4213 net.cpp:150] Setting up id_res5a_branch2a
I0328 09:29:07.101802  4213 net.cpp:157] Top shape: 16 512 7 7 (401408)
I0328 09:29:07.101821  4213 net.cpp:165] Memory required for data: 5566859200
I0328 09:29:07.101845  4213 layer_factory.hpp:77] Creating layer id_bn5a_branch2a
I0328 09:29:07.101872  4213 net.cpp:106] Creating Layer id_bn5a_branch2a
I0328 09:29:07.101893  4213 net.cpp:454] id_bn5a_branch2a <- id_res5a_branch2a
I0328 09:29:07.101917  4213 net.cpp:397] id_bn5a_branch2a -> id_res5a_branch2a (in-place)
I0328 09:29:07.102414  4213 net.cpp:150] Setting up id_bn5a_branch2a
I0328 09:29:07.102450  4213 net.cpp:157] Top shape: 16 512 7 7 (401408)
I0328 09:29:07.102468  4213 net.cpp:165] Memory required for data: 5568464832
I0328 09:29:07.102499  4213 layer_factory.hpp:77] Creating layer id_scale5a_branch2a
I0328 09:29:07.102531  4213 net.cpp:106] Creating Layer id_scale5a_branch2a
I0328 09:29:07.102555  4213 net.cpp:454] id_scale5a_branch2a <- id_res5a_branch2a
I0328 09:29:07.102577  4213 net.cpp:397] id_scale5a_branch2a -> id_res5a_branch2a (in-place)
I0328 09:29:07.102694  4213 layer_factory.hpp:77] Creating layer id_scale5a_branch2a
I0328 09:29:07.103008  4213 net.cpp:150] Setting up id_scale5a_branch2a
I0328 09:29:07.103044  4213 net.cpp:157] Top shape: 16 512 7 7 (401408)
I0328 09:29:07.103061  4213 net.cpp:165] Memory required for data: 5570070464
I0328 09:29:07.103087  4213 layer_factory.hpp:77] Creating layer id_res5a_branch2a_relu
I0328 09:29:07.103111  4213 net.cpp:106] Creating Layer id_res5a_branch2a_relu
I0328 09:29:07.103132  4213 net.cpp:454] id_res5a_branch2a_relu <- id_res5a_branch2a
I0328 09:29:07.103160  4213 net.cpp:397] id_res5a_branch2a_relu -> id_res5a_branch2a (in-place)
I0328 09:29:07.103188  4213 net.cpp:150] Setting up id_res5a_branch2a_relu
I0328 09:29:07.103210  4213 net.cpp:157] Top shape: 16 512 7 7 (401408)
I0328 09:29:07.103229  4213 net.cpp:165] Memory required for data: 5571676096
I0328 09:29:07.103246  4213 layer_factory.hpp:77] Creating layer id_res5a_branch2b
I0328 09:29:07.103291  4213 net.cpp:106] Creating Layer id_res5a_branch2b
I0328 09:29:07.103338  4213 net.cpp:454] id_res5a_branch2b <- id_res5a_branch2a
I0328 09:29:07.103365  4213 net.cpp:411] id_res5a_branch2b -> id_res5a_branch2b
I0328 09:29:07.115037  4213 net.cpp:150] Setting up id_res5a_branch2b
I0328 09:29:07.115099  4213 net.cpp:157] Top shape: 16 512 7 7 (401408)
I0328 09:29:07.115119  4213 net.cpp:165] Memory required for data: 5573281728
I0328 09:29:07.115144  4213 layer_factory.hpp:77] Creating layer id_bn5a_branch2b
I0328 09:29:07.115177  4213 net.cpp:106] Creating Layer id_bn5a_branch2b
I0328 09:29:07.115201  4213 net.cpp:454] id_bn5a_branch2b <- id_res5a_branch2b
I0328 09:29:07.115226  4213 net.cpp:397] id_bn5a_branch2b -> id_res5a_branch2b (in-place)
I0328 09:29:07.115710  4213 net.cpp:150] Setting up id_bn5a_branch2b
I0328 09:29:07.115746  4213 net.cpp:157] Top shape: 16 512 7 7 (401408)
I0328 09:29:07.115764  4213 net.cpp:165] Memory required for data: 5574887360
I0328 09:29:07.115794  4213 layer_factory.hpp:77] Creating layer id_scale5a_branch2b
I0328 09:29:07.115821  4213 net.cpp:106] Creating Layer id_scale5a_branch2b
I0328 09:29:07.115841  4213 net.cpp:454] id_scale5a_branch2b <- id_res5a_branch2b
I0328 09:29:07.115864  4213 net.cpp:397] id_scale5a_branch2b -> id_res5a_branch2b (in-place)
I0328 09:29:07.115988  4213 layer_factory.hpp:77] Creating layer id_scale5a_branch2b
I0328 09:29:07.116300  4213 net.cpp:150] Setting up id_scale5a_branch2b
I0328 09:29:07.116334  4213 net.cpp:157] Top shape: 16 512 7 7 (401408)
I0328 09:29:07.116353  4213 net.cpp:165] Memory required for data: 5576492992
I0328 09:29:07.116379  4213 layer_factory.hpp:77] Creating layer id_res5a_branch2b_relu
I0328 09:29:07.116408  4213 net.cpp:106] Creating Layer id_res5a_branch2b_relu
I0328 09:29:07.116430  4213 net.cpp:454] id_res5a_branch2b_relu <- id_res5a_branch2b
I0328 09:29:07.116452  4213 net.cpp:397] id_res5a_branch2b_relu -> id_res5a_branch2b (in-place)
I0328 09:29:07.116477  4213 net.cpp:150] Setting up id_res5a_branch2b_relu
I0328 09:29:07.116500  4213 net.cpp:157] Top shape: 16 512 7 7 (401408)
I0328 09:29:07.116518  4213 net.cpp:165] Memory required for data: 5578098624
I0328 09:29:07.116535  4213 layer_factory.hpp:77] Creating layer id_res5a_branch2c
I0328 09:29:07.116570  4213 net.cpp:106] Creating Layer id_res5a_branch2c
I0328 09:29:07.116591  4213 net.cpp:454] id_res5a_branch2c <- id_res5a_branch2b
I0328 09:29:07.116616  4213 net.cpp:411] id_res5a_branch2c -> id_res5a_branch2c
I0328 09:29:07.122359  4213 net.cpp:150] Setting up id_res5a_branch2c
I0328 09:29:07.122407  4213 net.cpp:157] Top shape: 16 2048 7 7 (1605632)
I0328 09:29:07.122426  4213 net.cpp:165] Memory required for data: 5584521152
I0328 09:29:07.122450  4213 layer_factory.hpp:77] Creating layer id_bn5a_branch2c
I0328 09:29:07.122475  4213 net.cpp:106] Creating Layer id_bn5a_branch2c
I0328 09:29:07.122496  4213 net.cpp:454] id_bn5a_branch2c <- id_res5a_branch2c
I0328 09:29:07.122519  4213 net.cpp:397] id_bn5a_branch2c -> id_res5a_branch2c (in-place)
I0328 09:29:07.123015  4213 net.cpp:150] Setting up id_bn5a_branch2c
I0328 09:29:07.123050  4213 net.cpp:157] Top shape: 16 2048 7 7 (1605632)
I0328 09:29:07.123070  4213 net.cpp:165] Memory required for data: 5590943680
I0328 09:29:07.123106  4213 layer_factory.hpp:77] Creating layer id_scale5a_branch2c
I0328 09:29:07.123133  4213 net.cpp:106] Creating Layer id_scale5a_branch2c
I0328 09:29:07.123154  4213 net.cpp:454] id_scale5a_branch2c <- id_res5a_branch2c
I0328 09:29:07.123178  4213 net.cpp:397] id_scale5a_branch2c -> id_res5a_branch2c (in-place)
I0328 09:29:07.123303  4213 layer_factory.hpp:77] Creating layer id_scale5a_branch2c
I0328 09:29:07.123628  4213 net.cpp:150] Setting up id_scale5a_branch2c
I0328 09:29:07.123663  4213 net.cpp:157] Top shape: 16 2048 7 7 (1605632)
I0328 09:29:07.123682  4213 net.cpp:165] Memory required for data: 5597366208
I0328 09:29:07.123708  4213 layer_factory.hpp:77] Creating layer id_res5a
I0328 09:29:07.123739  4213 net.cpp:106] Creating Layer id_res5a
I0328 09:29:07.123778  4213 net.cpp:454] id_res5a <- id_res5a_branch1
I0328 09:29:07.123822  4213 net.cpp:454] id_res5a <- id_res5a_branch2c
I0328 09:29:07.123847  4213 net.cpp:411] id_res5a -> id_res5a
I0328 09:29:07.123931  4213 net.cpp:150] Setting up id_res5a
I0328 09:29:07.123965  4213 net.cpp:157] Top shape: 16 2048 7 7 (1605632)
I0328 09:29:07.123982  4213 net.cpp:165] Memory required for data: 5603788736
I0328 09:29:07.124001  4213 layer_factory.hpp:77] Creating layer id_res5a_relu
I0328 09:29:07.124023  4213 net.cpp:106] Creating Layer id_res5a_relu
I0328 09:29:07.124043  4213 net.cpp:454] id_res5a_relu <- id_res5a
I0328 09:29:07.124070  4213 net.cpp:397] id_res5a_relu -> id_res5a (in-place)
I0328 09:29:07.124096  4213 net.cpp:150] Setting up id_res5a_relu
I0328 09:29:07.124119  4213 net.cpp:157] Top shape: 16 2048 7 7 (1605632)
I0328 09:29:07.124136  4213 net.cpp:165] Memory required for data: 5610211264
I0328 09:29:07.124155  4213 layer_factory.hpp:77] Creating layer id_res5a_id_res5a_relu_0_split
I0328 09:29:07.124177  4213 net.cpp:106] Creating Layer id_res5a_id_res5a_relu_0_split
I0328 09:29:07.124197  4213 net.cpp:454] id_res5a_id_res5a_relu_0_split <- id_res5a
I0328 09:29:07.124218  4213 net.cpp:411] id_res5a_id_res5a_relu_0_split -> id_res5a_id_res5a_relu_0_split_0
I0328 09:29:07.124244  4213 net.cpp:411] id_res5a_id_res5a_relu_0_split -> id_res5a_id_res5a_relu_0_split_1
I0328 09:29:07.124346  4213 net.cpp:150] Setting up id_res5a_id_res5a_relu_0_split
I0328 09:29:07.124378  4213 net.cpp:157] Top shape: 16 2048 7 7 (1605632)
I0328 09:29:07.124398  4213 net.cpp:157] Top shape: 16 2048 7 7 (1605632)
I0328 09:29:07.124415  4213 net.cpp:165] Memory required for data: 5623056320
I0328 09:29:07.124433  4213 layer_factory.hpp:77] Creating layer id_res5b_branch2a
I0328 09:29:07.124462  4213 net.cpp:106] Creating Layer id_res5b_branch2a
I0328 09:29:07.124483  4213 net.cpp:454] id_res5b_branch2a <- id_res5a_id_res5a_relu_0_split_0
I0328 09:29:07.124507  4213 net.cpp:411] id_res5b_branch2a -> id_res5b_branch2a
I0328 09:29:07.130131  4213 net.cpp:150] Setting up id_res5b_branch2a
I0328 09:29:07.130180  4213 net.cpp:157] Top shape: 16 512 7 7 (401408)
I0328 09:29:07.130200  4213 net.cpp:165] Memory required for data: 5624661952
I0328 09:29:07.130224  4213 layer_factory.hpp:77] Creating layer id_bn5b_branch2a
I0328 09:29:07.130250  4213 net.cpp:106] Creating Layer id_bn5b_branch2a
I0328 09:29:07.130272  4213 net.cpp:454] id_bn5b_branch2a <- id_res5b_branch2a
I0328 09:29:07.130296  4213 net.cpp:397] id_bn5b_branch2a -> id_res5b_branch2a (in-place)
I0328 09:29:07.130781  4213 net.cpp:150] Setting up id_bn5b_branch2a
I0328 09:29:07.130817  4213 net.cpp:157] Top shape: 16 512 7 7 (401408)
I0328 09:29:07.130836  4213 net.cpp:165] Memory required for data: 5626267584
I0328 09:29:07.130866  4213 layer_factory.hpp:77] Creating layer id_scale5b_branch2a
I0328 09:29:07.130898  4213 net.cpp:106] Creating Layer id_scale5b_branch2a
I0328 09:29:07.130920  4213 net.cpp:454] id_scale5b_branch2a <- id_res5b_branch2a
I0328 09:29:07.130944  4213 net.cpp:397] id_scale5b_branch2a -> id_res5b_branch2a (in-place)
I0328 09:29:07.131062  4213 layer_factory.hpp:77] Creating layer id_scale5b_branch2a
I0328 09:29:07.131381  4213 net.cpp:150] Setting up id_scale5b_branch2a
I0328 09:29:07.131415  4213 net.cpp:157] Top shape: 16 512 7 7 (401408)
I0328 09:29:07.131433  4213 net.cpp:165] Memory required for data: 5627873216
I0328 09:29:07.131460  4213 layer_factory.hpp:77] Creating layer id_res5b_branch2a_relu
I0328 09:29:07.131484  4213 net.cpp:106] Creating Layer id_res5b_branch2a_relu
I0328 09:29:07.131505  4213 net.cpp:454] id_res5b_branch2a_relu <- id_res5b_branch2a
I0328 09:29:07.131531  4213 net.cpp:397] id_res5b_branch2a_relu -> id_res5b_branch2a (in-place)
I0328 09:29:07.131558  4213 net.cpp:150] Setting up id_res5b_branch2a_relu
I0328 09:29:07.131582  4213 net.cpp:157] Top shape: 16 512 7 7 (401408)
I0328 09:29:07.131599  4213 net.cpp:165] Memory required for data: 5629478848
I0328 09:29:07.131618  4213 layer_factory.hpp:77] Creating layer id_res5b_branch2b
I0328 09:29:07.131659  4213 net.cpp:106] Creating Layer id_res5b_branch2b
I0328 09:29:07.131698  4213 net.cpp:454] id_res5b_branch2b <- id_res5b_branch2a
I0328 09:29:07.131731  4213 net.cpp:411] id_res5b_branch2b -> id_res5b_branch2b
I0328 09:29:07.143535  4213 net.cpp:150] Setting up id_res5b_branch2b
I0328 09:29:07.143590  4213 net.cpp:157] Top shape: 16 512 7 7 (401408)
I0328 09:29:07.143610  4213 net.cpp:165] Memory required for data: 5631084480
I0328 09:29:07.143635  4213 layer_factory.hpp:77] Creating layer id_bn5b_branch2b
I0328 09:29:07.143667  4213 net.cpp:106] Creating Layer id_bn5b_branch2b
I0328 09:29:07.143689  4213 net.cpp:454] id_bn5b_branch2b <- id_res5b_branch2b
I0328 09:29:07.143714  4213 net.cpp:397] id_bn5b_branch2b -> id_res5b_branch2b (in-place)
I0328 09:29:07.144204  4213 net.cpp:150] Setting up id_bn5b_branch2b
I0328 09:29:07.144239  4213 net.cpp:157] Top shape: 16 512 7 7 (401408)
I0328 09:29:07.144258  4213 net.cpp:165] Memory required for data: 5632690112
I0328 09:29:07.144289  4213 layer_factory.hpp:77] Creating layer id_scale5b_branch2b
I0328 09:29:07.144315  4213 net.cpp:106] Creating Layer id_scale5b_branch2b
I0328 09:29:07.144335  4213 net.cpp:454] id_scale5b_branch2b <- id_res5b_branch2b
I0328 09:29:07.144357  4213 net.cpp:397] id_scale5b_branch2b -> id_res5b_branch2b (in-place)
I0328 09:29:07.144482  4213 layer_factory.hpp:77] Creating layer id_scale5b_branch2b
I0328 09:29:07.144796  4213 net.cpp:150] Setting up id_scale5b_branch2b
I0328 09:29:07.144830  4213 net.cpp:157] Top shape: 16 512 7 7 (401408)
I0328 09:29:07.144848  4213 net.cpp:165] Memory required for data: 5634295744
I0328 09:29:07.144875  4213 layer_factory.hpp:77] Creating layer id_res5b_branch2b_relu
I0328 09:29:07.144904  4213 net.cpp:106] Creating Layer id_res5b_branch2b_relu
I0328 09:29:07.144927  4213 net.cpp:454] id_res5b_branch2b_relu <- id_res5b_branch2b
I0328 09:29:07.144948  4213 net.cpp:397] id_res5b_branch2b_relu -> id_res5b_branch2b (in-place)
I0328 09:29:07.144973  4213 net.cpp:150] Setting up id_res5b_branch2b_relu
I0328 09:29:07.144997  4213 net.cpp:157] Top shape: 16 512 7 7 (401408)
I0328 09:29:07.145015  4213 net.cpp:165] Memory required for data: 5635901376
I0328 09:29:07.145032  4213 layer_factory.hpp:77] Creating layer id_res5b_branch2c
I0328 09:29:07.145066  4213 net.cpp:106] Creating Layer id_res5b_branch2c
I0328 09:29:07.145087  4213 net.cpp:454] id_res5b_branch2c <- id_res5b_branch2b
I0328 09:29:07.145112  4213 net.cpp:411] id_res5b_branch2c -> id_res5b_branch2c
I0328 09:29:07.150732  4213 net.cpp:150] Setting up id_res5b_branch2c
I0328 09:29:07.150782  4213 net.cpp:157] Top shape: 16 2048 7 7 (1605632)
I0328 09:29:07.150802  4213 net.cpp:165] Memory required for data: 5642323904
I0328 09:29:07.150826  4213 layer_factory.hpp:77] Creating layer id_bn5b_branch2c
I0328 09:29:07.150851  4213 net.cpp:106] Creating Layer id_bn5b_branch2c
I0328 09:29:07.150872  4213 net.cpp:454] id_bn5b_branch2c <- id_res5b_branch2c
I0328 09:29:07.150895  4213 net.cpp:397] id_bn5b_branch2c -> id_res5b_branch2c (in-place)
I0328 09:29:07.151401  4213 net.cpp:150] Setting up id_bn5b_branch2c
I0328 09:29:07.151437  4213 net.cpp:157] Top shape: 16 2048 7 7 (1605632)
I0328 09:29:07.151454  4213 net.cpp:165] Memory required for data: 5648746432
I0328 09:29:07.151491  4213 layer_factory.hpp:77] Creating layer id_scale5b_branch2c
I0328 09:29:07.151520  4213 net.cpp:106] Creating Layer id_scale5b_branch2c
I0328 09:29:07.151540  4213 net.cpp:454] id_scale5b_branch2c <- id_res5b_branch2c
I0328 09:29:07.151563  4213 net.cpp:397] id_scale5b_branch2c -> id_res5b_branch2c (in-place)
I0328 09:29:07.151690  4213 layer_factory.hpp:77] Creating layer id_scale5b_branch2c
I0328 09:29:07.152010  4213 net.cpp:150] Setting up id_scale5b_branch2c
I0328 09:29:07.152045  4213 net.cpp:157] Top shape: 16 2048 7 7 (1605632)
I0328 09:29:07.152062  4213 net.cpp:165] Memory required for data: 5655168960
I0328 09:29:07.152089  4213 layer_factory.hpp:77] Creating layer id_res5b
I0328 09:29:07.152119  4213 net.cpp:106] Creating Layer id_res5b
I0328 09:29:07.152158  4213 net.cpp:454] id_res5b <- id_res5a_id_res5a_relu_0_split_1
I0328 09:29:07.152201  4213 net.cpp:454] id_res5b <- id_res5b_branch2c
I0328 09:29:07.152226  4213 net.cpp:411] id_res5b -> id_res5b
I0328 09:29:07.152310  4213 net.cpp:150] Setting up id_res5b
I0328 09:29:07.152343  4213 net.cpp:157] Top shape: 16 2048 7 7 (1605632)
I0328 09:29:07.152360  4213 net.cpp:165] Memory required for data: 5661591488
I0328 09:29:07.152379  4213 layer_factory.hpp:77] Creating layer id_res5b_relu
I0328 09:29:07.152401  4213 net.cpp:106] Creating Layer id_res5b_relu
I0328 09:29:07.152421  4213 net.cpp:454] id_res5b_relu <- id_res5b
I0328 09:29:07.152448  4213 net.cpp:397] id_res5b_relu -> id_res5b (in-place)
I0328 09:29:07.152474  4213 net.cpp:150] Setting up id_res5b_relu
I0328 09:29:07.152498  4213 net.cpp:157] Top shape: 16 2048 7 7 (1605632)
I0328 09:29:07.152514  4213 net.cpp:165] Memory required for data: 5668014016
I0328 09:29:07.152532  4213 layer_factory.hpp:77] Creating layer id_res5b_id_res5b_relu_0_split
I0328 09:29:07.152554  4213 net.cpp:106] Creating Layer id_res5b_id_res5b_relu_0_split
I0328 09:29:07.152573  4213 net.cpp:454] id_res5b_id_res5b_relu_0_split <- id_res5b
I0328 09:29:07.152596  4213 net.cpp:411] id_res5b_id_res5b_relu_0_split -> id_res5b_id_res5b_relu_0_split_0
I0328 09:29:07.152622  4213 net.cpp:411] id_res5b_id_res5b_relu_0_split -> id_res5b_id_res5b_relu_0_split_1
I0328 09:29:07.152735  4213 net.cpp:150] Setting up id_res5b_id_res5b_relu_0_split
I0328 09:29:07.152768  4213 net.cpp:157] Top shape: 16 2048 7 7 (1605632)
I0328 09:29:07.152788  4213 net.cpp:157] Top shape: 16 2048 7 7 (1605632)
I0328 09:29:07.152806  4213 net.cpp:165] Memory required for data: 5680859072
I0328 09:29:07.152824  4213 layer_factory.hpp:77] Creating layer id_res5c_branch2a
I0328 09:29:07.152853  4213 net.cpp:106] Creating Layer id_res5c_branch2a
I0328 09:29:07.152873  4213 net.cpp:454] id_res5c_branch2a <- id_res5b_id_res5b_relu_0_split_0
I0328 09:29:07.152899  4213 net.cpp:411] id_res5c_branch2a -> id_res5c_branch2a
I0328 09:29:07.158496  4213 net.cpp:150] Setting up id_res5c_branch2a
I0328 09:29:07.158545  4213 net.cpp:157] Top shape: 16 512 7 7 (401408)
I0328 09:29:07.158563  4213 net.cpp:165] Memory required for data: 5682464704
I0328 09:29:07.158587  4213 layer_factory.hpp:77] Creating layer id_bn5c_branch2a
I0328 09:29:07.158613  4213 net.cpp:106] Creating Layer id_bn5c_branch2a
I0328 09:29:07.158634  4213 net.cpp:454] id_bn5c_branch2a <- id_res5c_branch2a
I0328 09:29:07.158658  4213 net.cpp:397] id_bn5c_branch2a -> id_res5c_branch2a (in-place)
I0328 09:29:07.159152  4213 net.cpp:150] Setting up id_bn5c_branch2a
I0328 09:29:07.159188  4213 net.cpp:157] Top shape: 16 512 7 7 (401408)
I0328 09:29:07.159206  4213 net.cpp:165] Memory required for data: 5684070336
I0328 09:29:07.159236  4213 layer_factory.hpp:77] Creating layer id_scale5c_branch2a
I0328 09:29:07.159270  4213 net.cpp:106] Creating Layer id_scale5c_branch2a
I0328 09:29:07.159292  4213 net.cpp:454] id_scale5c_branch2a <- id_res5c_branch2a
I0328 09:29:07.159315  4213 net.cpp:397] id_scale5c_branch2a -> id_res5c_branch2a (in-place)
I0328 09:29:07.159435  4213 layer_factory.hpp:77] Creating layer id_scale5c_branch2a
I0328 09:29:07.159760  4213 net.cpp:150] Setting up id_scale5c_branch2a
I0328 09:29:07.159795  4213 net.cpp:157] Top shape: 16 512 7 7 (401408)
I0328 09:29:07.159813  4213 net.cpp:165] Memory required for data: 5685675968
I0328 09:29:07.159839  4213 layer_factory.hpp:77] Creating layer id_res5c_branch2a_relu
I0328 09:29:07.159863  4213 net.cpp:106] Creating Layer id_res5c_branch2a_relu
I0328 09:29:07.159883  4213 net.cpp:454] id_res5c_branch2a_relu <- id_res5c_branch2a
I0328 09:29:07.159911  4213 net.cpp:397] id_res5c_branch2a_relu -> id_res5c_branch2a (in-place)
I0328 09:29:07.159939  4213 net.cpp:150] Setting up id_res5c_branch2a_relu
I0328 09:29:07.159961  4213 net.cpp:157] Top shape: 16 512 7 7 (401408)
I0328 09:29:07.159978  4213 net.cpp:165] Memory required for data: 5687281600
I0328 09:29:07.159996  4213 layer_factory.hpp:77] Creating layer id_res5c_branch2b
I0328 09:29:07.160053  4213 net.cpp:106] Creating Layer id_res5c_branch2b
I0328 09:29:07.160075  4213 net.cpp:454] id_res5c_branch2b <- id_res5c_branch2a
I0328 09:29:07.160106  4213 net.cpp:411] id_res5c_branch2b -> id_res5c_branch2b
I0328 09:29:07.171831  4213 net.cpp:150] Setting up id_res5c_branch2b
I0328 09:29:07.171885  4213 net.cpp:157] Top shape: 16 512 7 7 (401408)
I0328 09:29:07.171905  4213 net.cpp:165] Memory required for data: 5688887232
I0328 09:29:07.171931  4213 layer_factory.hpp:77] Creating layer id_bn5c_branch2b
I0328 09:29:07.171963  4213 net.cpp:106] Creating Layer id_bn5c_branch2b
I0328 09:29:07.171986  4213 net.cpp:454] id_bn5c_branch2b <- id_res5c_branch2b
I0328 09:29:07.172010  4213 net.cpp:397] id_bn5c_branch2b -> id_res5c_branch2b (in-place)
I0328 09:29:07.172508  4213 net.cpp:150] Setting up id_bn5c_branch2b
I0328 09:29:07.172543  4213 net.cpp:157] Top shape: 16 512 7 7 (401408)
I0328 09:29:07.172560  4213 net.cpp:165] Memory required for data: 5690492864
I0328 09:29:07.172590  4213 layer_factory.hpp:77] Creating layer id_scale5c_branch2b
I0328 09:29:07.172617  4213 net.cpp:106] Creating Layer id_scale5c_branch2b
I0328 09:29:07.172637  4213 net.cpp:454] id_scale5c_branch2b <- id_res5c_branch2b
I0328 09:29:07.172660  4213 net.cpp:397] id_scale5c_branch2b -> id_res5c_branch2b (in-place)
I0328 09:29:07.172794  4213 layer_factory.hpp:77] Creating layer id_scale5c_branch2b
I0328 09:29:07.173115  4213 net.cpp:150] Setting up id_scale5c_branch2b
I0328 09:29:07.173151  4213 net.cpp:157] Top shape: 16 512 7 7 (401408)
I0328 09:29:07.173168  4213 net.cpp:165] Memory required for data: 5692098496
I0328 09:29:07.173194  4213 layer_factory.hpp:77] Creating layer id_res5c_branch2b_relu
I0328 09:29:07.173224  4213 net.cpp:106] Creating Layer id_res5c_branch2b_relu
I0328 09:29:07.173245  4213 net.cpp:454] id_res5c_branch2b_relu <- id_res5c_branch2b
I0328 09:29:07.173269  4213 net.cpp:397] id_res5c_branch2b_relu -> id_res5c_branch2b (in-place)
I0328 09:29:07.173293  4213 net.cpp:150] Setting up id_res5c_branch2b_relu
I0328 09:29:07.173316  4213 net.cpp:157] Top shape: 16 512 7 7 (401408)
I0328 09:29:07.173346  4213 net.cpp:165] Memory required for data: 5693704128
I0328 09:29:07.173367  4213 layer_factory.hpp:77] Creating layer id_res5c_branch2c
I0328 09:29:07.173403  4213 net.cpp:106] Creating Layer id_res5c_branch2c
I0328 09:29:07.173424  4213 net.cpp:454] id_res5c_branch2c <- id_res5c_branch2b
I0328 09:29:07.173449  4213 net.cpp:411] id_res5c_branch2c -> id_res5c_branch2c
I0328 09:29:07.179070  4213 net.cpp:150] Setting up id_res5c_branch2c
I0328 09:29:07.179119  4213 net.cpp:157] Top shape: 16 2048 7 7 (1605632)
I0328 09:29:07.179138  4213 net.cpp:165] Memory required for data: 5700126656
I0328 09:29:07.179162  4213 layer_factory.hpp:77] Creating layer id_bn5c_branch2c
I0328 09:29:07.179188  4213 net.cpp:106] Creating Layer id_bn5c_branch2c
I0328 09:29:07.179209  4213 net.cpp:454] id_bn5c_branch2c <- id_res5c_branch2c
I0328 09:29:07.179232  4213 net.cpp:397] id_bn5c_branch2c -> id_res5c_branch2c (in-place)
I0328 09:29:07.179730  4213 net.cpp:150] Setting up id_bn5c_branch2c
I0328 09:29:07.179765  4213 net.cpp:157] Top shape: 16 2048 7 7 (1605632)
I0328 09:29:07.179785  4213 net.cpp:165] Memory required for data: 5706549184
I0328 09:29:07.179822  4213 layer_factory.hpp:77] Creating layer id_scale5c_branch2c
I0328 09:29:07.179849  4213 net.cpp:106] Creating Layer id_scale5c_branch2c
I0328 09:29:07.179870  4213 net.cpp:454] id_scale5c_branch2c <- id_res5c_branch2c
I0328 09:29:07.179893  4213 net.cpp:397] id_scale5c_branch2c -> id_res5c_branch2c (in-place)
I0328 09:29:07.180021  4213 layer_factory.hpp:77] Creating layer id_scale5c_branch2c
I0328 09:29:07.180354  4213 net.cpp:150] Setting up id_scale5c_branch2c
I0328 09:29:07.180389  4213 net.cpp:157] Top shape: 16 2048 7 7 (1605632)
I0328 09:29:07.180408  4213 net.cpp:165] Memory required for data: 5712971712
I0328 09:29:07.180433  4213 layer_factory.hpp:77] Creating layer id_res5c
I0328 09:29:07.180465  4213 net.cpp:106] Creating Layer id_res5c
I0328 09:29:07.180505  4213 net.cpp:454] id_res5c <- id_res5b_id_res5b_relu_0_split_1
I0328 09:29:07.180547  4213 net.cpp:454] id_res5c <- id_res5c_branch2c
I0328 09:29:07.180572  4213 net.cpp:411] id_res5c -> id_res5c
I0328 09:29:07.180661  4213 net.cpp:150] Setting up id_res5c
I0328 09:29:07.180693  4213 net.cpp:157] Top shape: 16 2048 7 7 (1605632)
I0328 09:29:07.180711  4213 net.cpp:165] Memory required for data: 5719394240
I0328 09:29:07.180729  4213 layer_factory.hpp:77] Creating layer id_res5c_relu
I0328 09:29:07.180752  4213 net.cpp:106] Creating Layer id_res5c_relu
I0328 09:29:07.180773  4213 net.cpp:454] id_res5c_relu <- id_res5c
I0328 09:29:07.180801  4213 net.cpp:397] id_res5c_relu -> id_res5c (in-place)
I0328 09:29:07.180829  4213 net.cpp:150] Setting up id_res5c_relu
I0328 09:29:07.180851  4213 net.cpp:157] Top shape: 16 2048 7 7 (1605632)
I0328 09:29:07.180868  4213 net.cpp:165] Memory required for data: 5725816768
I0328 09:29:07.180886  4213 layer_factory.hpp:77] Creating layer id_pool5
I0328 09:29:07.180912  4213 net.cpp:106] Creating Layer id_pool5
I0328 09:29:07.180932  4213 net.cpp:454] id_pool5 <- id_res5c
I0328 09:29:07.180955  4213 net.cpp:411] id_pool5 -> id_pool5
I0328 09:29:07.181035  4213 net.cpp:150] Setting up id_pool5
I0328 09:29:07.181067  4213 net.cpp:157] Top shape: 16 2048 1 1 (32768)
I0328 09:29:07.181085  4213 net.cpp:165] Memory required for data: 5725947840
I0328 09:29:07.181102  4213 layer_factory.hpp:77] Creating layer fc
I0328 09:29:07.181139  4213 net.cpp:106] Creating Layer fc
I0328 09:29:07.181162  4213 net.cpp:454] fc <- pool5
I0328 09:29:07.181187  4213 net.cpp:411] fc -> fc
I0328 09:29:07.186208  4213 net.cpp:150] Setting up fc
I0328 09:29:07.186249  4213 net.cpp:157] Top shape: 16 30 (480)
I0328 09:29:07.186267  4213 net.cpp:165] Memory required for data: 5725949760
I0328 09:29:07.186293  4213 layer_factory.hpp:77] Creating layer loss_pos30
I0328 09:29:07.186336  4213 net.cpp:106] Creating Layer loss_pos30
I0328 09:29:07.186358  4213 net.cpp:454] loss_pos30 <- fc
I0328 09:29:07.186381  4213 net.cpp:454] loss_pos30 <- labels
I0328 09:29:07.186405  4213 net.cpp:411] loss_pos30 -> loss_pos30
I0328 09:29:07.186657  4213 net.cpp:150] Setting up loss_pos30
I0328 09:29:07.186692  4213 net.cpp:157] Top shape: (1)
I0328 09:29:07.186710  4213 net.cpp:160]     with loss weight 0.0001
I0328 09:29:07.186784  4213 net.cpp:165] Memory required for data: 5725949764
I0328 09:29:07.186805  4213 layer_factory.hpp:77] Creating layer id_fc
I0328 09:29:07.186843  4213 net.cpp:106] Creating Layer id_fc
I0328 09:29:07.186866  4213 net.cpp:454] id_fc <- id_pool5
I0328 09:29:07.186890  4213 net.cpp:411] id_fc -> id_fc
I0328 09:29:07.306316  4213 net.cpp:150] Setting up id_fc
I0328 09:29:07.306368  4213 net.cpp:157] Top shape: 16 751 (12016)
I0328 09:29:07.306387  4213 net.cpp:165] Memory required for data: 5725997828
I0328 09:29:07.306416  4213 layer_factory.hpp:77] Creating layer id_loss_id
I0328 09:29:07.306452  4213 net.cpp:106] Creating Layer id_loss_id
I0328 09:29:07.306474  4213 net.cpp:454] id_loss_id <- id_fc
I0328 09:29:07.306496  4213 net.cpp:454] id_loss_id <- id_label
I0328 09:29:07.306520  4213 net.cpp:411] id_loss_id -> id_loss_id
…
