…
  transform_param {
    mirror: false
    mean_file: "/home/lizhuowan/Market1501/lmdb/lmdb_12936/Image_lmdb_12936.binaryproto"
  }
  data_param {
    source: "/home/lizhuowan/Market1501/lmdb/lmdb_mirror_12936/Image_lmdb_mirror_12936"
    batch_size: 8
    backend: LMDB
  }
}
layer {
  name: "data"
  type: "Data"
  top: "labels"
  include {
    phase: TRAIN
  }
  transform_param {
    mean_value: 112
  }
  data_param {
    source: "/home/lizhuowan/Market1501/lmdb/lmdb_mirror_12936/pos30_lmdb_mirror_12936_correct"
    batch_size: 8
    backend: LMDB
  }
}
layer {
  name: "conv1"
  type: "Convolution"
  bottom: "data"
  top: "conv1"
  convolution_param {
    num_output: 64
    bias_term: false
    pad: 3
    kernel_size: 7
    stride: 2
  }
}
layer {
  name: "bn_conv1"
  type: "BatchNorm"
  bottom: "conv1"
  top: "conv1"
  batch_norm_param {
    use_global_stats: true
  }
}
layer {
  name: "scale_conv1"
  type: "Scale"
  bottom: "conv1"
  top: "conv1"
  scale_param {
    bias_term: true
  }
}
layer {
  name: "conv1_relu"
  type: "ReLU"
  bottom: "conv1"
  top: "conv1"
}
layer {
  name: "pool1"
  type: "Pooling"
  bottom: "conv1"
  top: "pool1"
  pooling_param {
    pool: MAX
    kernel_size: 3
    stride: 2
  }
}
layer {
  name: "res2a_branch1"
  type: "Convolution"
  bottom: "pool1"
  top: "res2a_branch1"
  convolution_param {
    num_output: 256
    bias_term: false
    pad: 0
    kernel_size: 1
    stride: 1
  }
}
layer {
  name: "bn2a_branch1"
  type: "BatchNorm"
  bottom: "res2a_branch1"
  top: "res2a_branch1"
  batch_norm_param {
    use_global_stats: true
  }
}
layer {
  name: "scale2a_branch1"
  type: "Scale"
  bottom: "res2a_branch1"
  top: "res2a_branch1"
  scale_param {
    bias_term: true
  }
}
layer {
  name: "res2a_branch2a"
  type: "Convolution"
  bottom: "pool1"
  top: "res2a_branch2a"
  convolution_param {
    num_output: 64
    bias_term: false
    pad: 0
    kernel_size: 1
    stride: 1
  }
}
layer {
  name: "bn2a_branch2a"
  type: "BatchNorm"
  bottom: "res2a_branch2a"
  top: "res2a_branch2a"
  batch_norm_param {
    use_global_stats: true
  }
}
layer {
  name: "scale2a_branch2a"
  type: "Scale"
  bottom: "res2a_branch2a"
  top: "res2a_branch2a"
  scale_param {
    bias_term: true
  }
}
layer {
  name: "res2a_branch2a_relu"
  type: "ReLU"
  bottom: "res2a_branch2a"
  top: "res2a_branch2a"
}
layer {
  name: "res2a_branch2b"
  type: "Convolution"
  bottom: "res2a_branch2a"
  top: "res2a_branch2b"
  convolution_param {
    num_output: 64
    bias_term: false
    pad: 1
    kernel_size: 3
    stride: 1
  }
}
layer {
  name: "bn2a_branch2b"
  type: "BatchNorm"
  bottom: "res2a_branch2b"
  top: "res2a_branch2b"
  batch_norm_param {
    use_global_stats: true
  }
}
layer {
  name: "scale2a_branch2b"
  type: "Scale"
  bottom: "res2a_branch2b"
  top: "res2a_branch2b"
  scale_param {
    bias_term: true
  }
}
layer {
  name: "res2a_branch2b_relu"
  type: "ReLU"
  bottom: "res2a_branch2b"
  top: "res2a_branch2b"
}
layer {
  name: "res2a_branch2c"
  type: "Convolution"
  bottom: "res2a_branch2b"
  top: "res2a_branch2c"
  convolution_param {
    num_output: 256
    bias_term: false
    pad: 0
    kernel_size: 1
    stride: 1
  }
}
layer {
  name: "bn2a_branch2c"
  type: "BatchNorm"
  bottom: "res2a_branch2c"
  top: "res2a_branch2c"
  batch_norm_param {
    use_global_stats: true
  }
}
layer {
  name: "scale2a_branch2c"
  type: "Scale"
  bottom: "res2a_branch2c"
  top: "res2a_branch2c"
  scale_param {
    bias_term: true
  }
}
layer {
  name: "res2a"
  type: "Eltwise"
  bottom: "res2a_branch1"
  bottom: "res2a_branch2c"
  top: "res2a"
}
layer {
  name: "res2a_relu"
  type: "ReLU"
  bottom: "res2a"
  top: "res2a"
}
layer {
  name: "res2b_branch2a"
  type: "Convolution"
  bottom: "res2a"
  top: "res2b_branch2a"
  convolution_param {
    num_output: 64
    bias_term: false
    pad: 0
    kernel_size: 1
    stride: 1
  }
}
layer {
  name: "bn2b_branch2a"
  type: "BatchNorm"
  bottom: "res2b_branch2a"
  top: "res2b_branch2a"
  batch_norm_param {
    use_global_stats: true
  }
}
layer {
  name: "scale2b_branch2a"
  type: "Scale"
  bottom: "res2b_branch2a"
  top: "res2b_branch2a"
  scale_param {
    bias_term: true
  }
}
layer {
  name: "res2b_branch2a_relu"
  type: "ReLU"
  bottom: "res2b_branch2a"
  top: "res2b_branch2a"
}
layer {
  name: "res2b_branch2b"
  type: "Convolution"
  bottom: "res2b_branch2a"
  top: "res2b_branch2b"
  convolution_param {
    num_output: 64
    bias_term: false
    pad: 1
    kernel_size: 3
    stride: 1
  }
}
layer {
  name: "bn2b_branch2b"
  type: "BatchNorm"
  bottom: "res2b_branch2b"
  top: "res2b_branch2b"
  batch_norm_param {
    use_global_stats: true
  }
}
layer {
  name: "scale2b_branch2b"
  type: "Scale"
  bottom: "res2b_branch2b"
  top: "res2b_branch2b"
  scale_param {
    bias_term: true
  }
}
layer {
  name: "res2b_branch2b_relu"
  type: "ReLU"
  bottom: "res2b_branch2b"
  top: "res2b_branch2b"
}
layer {
  name: "res2b_branch2c"
  type: "Convolution"
  bottom: "res2b_branch2b"
  top: "res2b_branch2c"
  convolution_param {
    num_output: 256
    bias_term: false
    pad: 0
    kernel_size: 1
    stride: 1
  }
}
layer {
  name: "bn2b_branch2c"
  type: "BatchNorm"
  bottom: "res2b_branch2c"
  top: "res2b_branch2c"
  batch_norm_param {
    use_global_stats: true
  }
}
layer {
  name: "scale2b_branch2c"
  type: "Scale"
  bottom: "res2b_branch2c"
  top: "res2b_branch2c"
  scale_param {
    bias_term: true
  }
}
layer {
  name: "res2b"
  type: "Eltwise"
  bottom: "res2a"
  bottom: "res2b_branch2c"
  top: "res2b"
}
layer {
  name: "res2b_relu"
  type: "ReLU"
  bottom: "res2b"
  top: "res2b"
}
layer {
  name: "res2c_branch2a"
  type: "Convolution"
  bottom: "res2b"
  top: "res2c_branch2a"
  convolution_param {
    num_output: 64
    bias_term: false
    pad: 0
    kernel_size: 1
    stride: 1
  }
}
layer {
  name: "bn2c_branch2a"
  type: "BatchNorm"
  bottom: "res2c_branch2a"
  top: "res2c_branch2a"
  batch_norm_param {
    use_global_stats: true
  }
}
layer {
  name: "scale2c_branch2a"
  type: "Scale"
  bottom: "res2c_branch2a"
  top: "res2c_branch2a"
  scale_param {
    bias_term: true
  }
}
layer {
  name: "res2c_branch2a_relu"
  type: "ReLU"
  bottom: "res2c_branch2a"
  top: "res2c_branch2a"
}
layer {
  name: "res2c_branch2b"
  type: "Convolution"
  bottom: "res2c_branch2a"
  top: "res2c_branch2b"
  convolution_param {
    num_output: 64
    bias_term: false
    pad: 1
    kernel_size: 3
    stride: 1
  }
}
layer {
  name: "bn2c_branch2b"
  type: "BatchNorm"
  bottom: "res2c_branch2b"
  top: "res2c_branch2b"
  batch_norm_param {
    use_global_stats: true
  }
}
layer {
  name: "scale2c_branch2b"
  type: "Scale"
  bottom: "res2c_branch2b"
  top: "res2c_branch2b"
  scale_param {
    bias_term: true
  }
}
layer {
  name: "res2c_branch2b_relu"
  type: "ReLU"
  bottom: "res2c_branch2b"
  top: "res2c_branch2b"
}
layer {
  name: "res2c_branch2c"
  type: "Convolution"
  bottom: "res2c_branch2b"
  top: "res2c_branch2c"
  convolution_param {
    num_output: 256
    bias_term: false
    pad: 0
    kernel_size: 1
    stride: 1
  }
}
layer {
  name: "bn2c_branch2c"
  type: "BatchNorm"
  bottom: "res2c_branch2c"
  top: "res2c_branch2c"
  batch_norm_param {
    use_global_stats: true
  }
}
layer {
  name: "scale2c_branch2c"
  type: "Scale"
  bottom: "res2c_branch2c"
  top: "res2c_branch2c"
  scale_param {
    bias_term: true
  }
}
layer {
  name: "res2c"
  type: "Eltwise"
  bottom: "res2b"
  bottom: "res2c_branch2c"
  top: "res2c"
}
layer {
  name: "res2c_relu"
  type: "ReLU"
  bottom: "res2c"
  top: "res2c"
}
layer {
  name: "res3a_branch1"
  type: "Convolution"
  bottom: "res2c"
  top: "res3a_branch1"
  convolution_param {
    num_output: 512
    bias_term: false
    pad: 0
    kernel_size: 1
    stride: 2
  }
}
layer {
  name: "bn3a_branch1"
  type: "BatchNorm"
  bottom: "res3a_branch1"
  top: "res3a_branch1"
  batch_norm_param {
    use_global_stats: true
  }
}
layer {
  name: "scale3a_branch1"
  type: "Scale"
  bottom: "res3a_branch1"
  top: "res3a_branch1"
  scale_param {
    bias_term: true
  }
}
layer {
  name: "res3a_branch2a"
  type: "Convolution"
  bottom: "res2c"
  top: "res3a_branch2a"
  convolution_param {
    num_output: 128
    bias_term: false
    pad: 0
    kernel_size: 1
    stride: 2
  }
}
layer {
  name: "bn3a_branch2a"
  type: "BatchNorm"
  bottom: "res3a_branch2a"
  top: "res3a_branch2a"
  batch_norm_param {
    use_global_stats: true
  }
}
layer {
  name: "scale3a_branch2a"
  type: "Scale"
  bottom: "res3a_branch2a"
  top: "res3a_branch2a"
  scale_param {
    bias_term: true
  }
}
layer {
  name: "res3a_branch2a_relu"
  type: "ReLU"
  bottom: "res3a_branch2a"
  top: "res3a_branch2a"
}
layer {
  name: "res3a_branch2b"
  type: "Convolution"
  bottom: "res3a_branch2a"
  top: "res3a_branch2b"
  convolution_param {
    num_output: 128
    bias_term: false
    pad: 1
    kernel_size: 3
    stride: 1
  }
}
layer {
  name: "bn3a_branch2b"
  type: "BatchNorm"
  bottom: "res3a_branch2b"
  top: "res3a_branch2b"
  batch_norm_param {
    use_global_stats: true
  }
}
layer {
  name: "scale3a_branch2b"
  type: "Scale"
  bottom: "res3a_branch2b"
  top: "res3a_branch2b"
  scale_param {
    bias_term: true
  }
}
layer {
  name: "res3a_branch2b_relu"
  type: "ReLU"
  bottom: "res3a_branch2b"
  top: "res3a_branch2b"
}
layer {
  name: "res3a_branch2c"
  type: "Convolution"
  bottom: "res3a_branch2b"
  top: "res3a_branch2c"
  convolution_param {
    num_output: 512
    bias_term: false
    pad: 0
    kernel_size: 1
    stride: 1
  }
}
layer {
  name: "bn3a_branch2c"
  type: "BatchNorm"
  bottom: "res3a_branch2c"
  top: "res3a_branch2c"
  batch_norm_param {
    use_global_stats: true
  }
}
layer {
  name: "scale3a_branch2c"
  type: "Scale"
  bottom: "res3a_branch2c"
  top: "res3a_branch2c"
  scale_param {
    bias_term: true
  }
}
layer {
  name: "res3a"
  type: "Eltwise"
  bottom: "res3a_branch1"
  bottom: "res3a_branch2c"
  top: "res3a"
}
layer {
  name: "res3a_relu"
  type: "ReLU"
  bottom: "res3a"
  top: "res3a"
}
layer {
  name: "res3b1_branch2a"
  type: "Convolution"
  bottom: "res3a"
  top: "res3b1_branch2a"
  convolution_param {
    num_output: 128
    bias_term: false
    pad: 0
    kernel_size: 1
    stride: 1
  }
}
layer {
  name: "bn3b1_branch2a"
  type: "BatchNorm"
  bottom: "res3b1_branch2a"
  top: "res3b1_branch2a"
  batch_norm_param {
    use_global_stats: true
  }
}
layer {
  name: "scale3b1_branch2a"
  type: "Scale"
  bottom: "res3b1_branch2a"
  top: "res3b1_branch2a"
  scale_param {
    bias_term: true
  }
}
layer {
  name: "res3b1_branch2a_relu"
  type: "ReLU"
  bottom: "res3b1_branch2a"
  top: "res3b1_branch2a"
}
layer {
  name: "res3b1_branch2b"
  type: "Convolution"
  bottom: "res3b1_branch2a"
  top: "res3b1_branch2b"
  convolution_param {
    num_output: 128
    bias_term: false
    pad: 1
    kernel_size: 3
    stride: 1
  }
}
layer {
  name: "bn3b1_branch2b"
  type: "BatchNorm"
  bottom: "res3b1_branch2b"
  top: "res3b1_branch2b"
  batch_norm_param {
    use_global_stats: true
  }
}
layer {
  name: "scale3b1_branch2b"
  type: "Scale"
  bottom: "res3b1_branch2b"
  top: "res3b1_branch2b"
  scale_param {
    bias_term: true
  }
}
layer {
  name: "res3b1_branch2b_relu"
  type: "ReLU"
  bottom: "res3b1_branch2b"
  top: "res3b1_branch2b"
}
layer {
  name: "res3b1_branch2c"
  type: "Convolution"
  bottom: "res3b1_branch2b"
  top: "res3b1_branch2c"
  convolution_param {
    num_output: 512
    bias_term: false
    pad: 0
    kernel_size: 1
    stride: 1
  }
}
layer {
  name: "bn3b1_branch2c"
  type: "BatchNorm"
  bottom: "res3b1_branch2c"
  top: "res3b1_branch2c"
  batch_norm_param {
    use_global_stats: true
  }
}
layer {
  name: "scale3b1_branch2c"
  type: "Scale"
  bottom: "res3b1_branch2c"
  top: "res3b1_branch2c"
  scale_param {
    bias_term: true
  }
}
layer {
  name: "res3b1"
  type: "Eltwise"
  bottom: "res3a"
  bottom: "res3b1_branch2c"
  top: "res3b1"
}
layer {
  name: "res3b1_relu"
  type: "ReLU"
  bottom: "res3b1"
  top: "res3b1"
}
layer {
  name: "res3b2_branch2a"
  type: "Convolution"
  bottom: "res3b1"
  top: "res3b2_branch2a"
  convolution_param {
    num_output: 128
    bias_term: false
    pad: 0
    kernel_size: 1
    stride: 1
  }
}
layer {
  name: "bn3b2_branch2a"
  type: "BatchNorm"
  bottom: "res3b2_branch2a"
  top: "res3b2_branch2a"
  batch_norm_param {
    use_global_stats: true
  }
}
layer {
  name: "scale3b2_branch2a"
  type: "Scale"
  bottom: "res3b2_branch2a"
  top: "res3b2_branch2a"
  scale_param {
    bias_term: true
  }
}
layer {
  name: "res3b2_branch2a_relu"
  type: "ReLU"
  bottom: "res3b2_branch2a"
  top: "res3b2_branch2a"
}
layer {
  name: "res3b2_branch2b"
  type: "Convolution"
  bottom: "res3b2_branch2a"
  top: "res3b2_branch2b"
  convolution_param {
    num_output: 128
    bias_term: false
    pad: 1
    kernel_size: 3
    stride: 1
  }
}
layer {
  name: "bn3b2_branch2b"
  type: "BatchNorm"
  bottom: "res3b2_branch2b"
  top: "res3b2_branch2b"
  batch_norm_param {
    use_global_stats: true
  }
}
layer {
  name: "scale3b2_branch2b"
  type: "Scale"
  bottom: "res3b2_branch2b"
  top: "res3b2_branch2b"
  scale_param {
    bias_term: true
  }
}
layer {
  name: "res3b2_branch2b_relu"
  type: "ReLU"
  bottom: "res3b2_branch2b"
  top: "res3b2_branch2b"
}
layer {
  name: "res3b2_branch2c"
  type: "Convolution"
  bottom: "res3b2_branch2b"
  top: "res3b2_branch2c"
  convolution_param {
    num_output: 512
    bias_term: false
    pad: 0
    kernel_size: 1
    stride: 1
  }
}
layer {
  name: "bn3b2_branch2c"
  type: "BatchNorm"
  bottom: "res3b2_branch2c"
  top: "res3b2_branch2c"
  batch_norm_param {
    use_global_stats: true
  }
}
layer {
  name: "scale3b2_branch2c"
  type: "Scale"
  bottom: "res3b2_branch2c"
  top: "res3b2_branch2c"
  scale_param {
    bias_term: true
  }
}
layer {
  name: "res3b2"
  type: "Eltwise"
  bottom: "res3b1"
  bottom: "res3b2_branch2c"
  top: "res3b2"
}
layer {
  name: "res3b2_relu"
  type: "ReLU"
  bottom: "res3b2"
  top: "res3b2"
}
layer {
  name: "res3b3_branch2a"
  type: "Convolution"
  bottom: "res3b2"
  top: "res3b3_branch2a"
  convolution_param {
    num_output: 128
    bias_term: false
    pad: 0
    kernel_size: 1
    stride: 1
  }
}
layer {
  name: "bn3b3_branch2a"
  type: "BatchNorm"
  bottom: "res3b3_branch2a"
  top: "res3b3_branch2a"
  batch_norm_param {
    use_global_stats: true
  }
}
layer {
  name: "scale3b3_branch2a"
  type: "Scale"
  bottom: "res3b3_branch2a"
  top: "res3b3_branch2a"
  scale_param {
    bias_term: true
  }
}
layer {
  name: "res3b3_branch2a_relu"
  type: "ReLU"
  bottom: "res3b3_branch2a"
  top: "res3b3_branch2a"
}
layer {
  name: "res3b3_branch2b"
  type: "Convolution"
  bottom: "res3b3_branch2a"
  top: "res3b3_branch2b"
  convolution_param {
    num_output: 128
    bias_term: false
    pad: 1
    kernel_size: 3
    stride: 1
  }
}
layer {
  name: "bn3b3_branch2b"
  type: "BatchNorm"
  bottom: "res3b3_branch2b"
  top: "res3b3_branch2b"
  batch_norm_param {
    use_global_stats: true
  }
}
layer {
  name: "scale3b3_branch2b"
  type: "Scale"
  bottom: "res3b3_branch2b"
  top: "res3b3_branch2b"
  scale_param {
    bias_term: true
  }
}
layer {
  name: "res3b3_branch2b_relu"
  type: "ReLU"
  bottom: "res3b3_branch2b"
  top: "res3b3_branch2b"
}
layer {
  name: "res3b3_branch2c"
  type: "Convolution"
  bottom: "res3b3_branch2b"
  top: "res3b3_branch2c"
  convolution_param {
    num_output: 512
    bias_term: false
    pad: 0
    kernel_size: 1
    stride: 1
  }
}
layer {
  name: "bn3b3_branch2c"
  type: "BatchNorm"
  bottom: "res3b3_branch2c"
  top: "res3b3_branch2c"
  batch_norm_param {
    use_global_stats: true
  }
}
layer {
  name: "scale3b3_branch2c"
  type: "Scale"
  bottom: "res3b3_branch2c"
  top: "res3b3_branch2c"
  scale_param {
    bias_term: true
  }
}
layer {
  name: "res3b3"
  type: "Eltwise"
  bottom: "res3b2"
  bottom: "res3b3_branch2c"
  top: "res3b3"
}
layer {
  name: "res3b3_relu"
  type: "ReLU"
  bottom: "res3b3"
  top: "res3b3"
}
layer {
  name: "res3b4_branch2a"
  type: "Convolution"
  bottom: "res3b3"
  top: "res3b4_branch2a"
  convolution_param {
    num_output: 128
    bias_term: false
    pad: 0
    kernel_size: 1
    stride: 1
  }
}
layer {
  name: "bn3b4_branch2a"
  type: "BatchNorm"
  bottom: "res3b4_branch2a"
  top: "res3b4_branch2a"
  batch_norm_param {
    use_global_stats: true
  }
}
layer {
  name: "scale3b4_branch2a"
  type: "Scale"
  bottom: "res3b4_branch2a"
  top: "res3b4_branch2a"
  scale_param {
    bias_term: true
  }
}
layer {
  name: "res3b4_branch2a_relu"
  type: "ReLU"
  bottom: "res3b4_branch2a"
  top: "res3b4_branch2a"
}
layer {
  name: "res3b4_branch2b"
  type: "Convolution"
  bottom: "res3b4_branch2a"
  top: "res3b4_branch2b"
  convolution_param {
    num_output: 128
    bias_term: false
    pad: 1
    kernel_size: 3
    stride: 1
  }
}
layer {
  name: "bn3b4_branch2b"
  type: "BatchNorm"
  bottom: "res3b4_branch2b"
  top: "res3b4_branch2b"
  batch_norm_param {
    use_global_stats: true
  }
}
layer {
  name: "scale3b4_branch2b"
  type: "Scale"
  bottom: "res3b4_branch2b"
  top: "res3b4_branch2b"
  scale_param {
    bias_term: true
  }
}
layer {
  name: "res3b4_branch2b_relu"
  type: "ReLU"
  bottom: "res3b4_branch2b"
  top: "res3b4_branch2b"
}
layer {
  name: "res3b4_branch2c"
  type: "Convolution"
  bottom: "res3b4_branch2b"
  top: "res3b4_branch2c"
  convolution_param {
    num_output: 512
    bias_term: false
    pad: 0
    kernel_size: 1
    stride: 1
  }
}
layer {
  name: "bn3b4_branch2c"
  type: "BatchNorm"
  bottom: "res3b4_branch2c"
  top: "res3b4_branch2c"
  batch_norm_param {
    use_global_stats: true
  }
}
layer {
  name: "scale3b4_branch2c"
  type: "Scale"
  bottom: "res3b4_branch2c"
  top: "res3b4_branch2c"
  scale_param {
    bias_term: true
  }
}
layer {
  name: "res3b4"
  type: "Eltwise"
  bottom: "res3b3"
  bottom: "res3b4_branch2c"
  top: "res3b4"
}
layer {
  name: "res3b4_relu"
  type: "ReLU"
  bottom: "res3b4"
  top: "res3b4"
}
layer {
  name: "res3b5_branch2a"
  type: "Convolution"
  bottom: "res3b4"
  top: "res3b5_branch2a"
  convolution_param {
    num_output: 128
    bias_term: false
    pad: 0
    kernel_size: 1
    stride: 1
  }
}
layer {
  name: "bn3b5_branch2a"
  type: "BatchNorm"
  bottom: "res3b5_branch2a"
  top: "res3b5_branch2a"
  batch_norm_param {
    use_global_stats: true
  }
}
layer {
  name: "scale3b5_branch2a"
  type: "Scale"
  bottom: "res3b5_branch2a"
  top: "res3b5_branch2a"
  scale_param {
    bias_term: true
  }
}
layer {
  name: "res3b5_branch2a_relu"
  type: "ReLU"
  bottom: "res3b5_branch2a"
  top: "res3b5_branch2a"
}
layer {
  name: "res3b5_branch2b"
  type: "Convolution"
  bottom: "res3b5_branch2a"
  top: "res3b5_branch2b"
  convolution_param {
    num_output: 128
    bias_term: false
    pad: 1
    kernel_size: 3
    stride: 1
  }
}
layer {
  name: "bn3b5_branch2b"
  type: "BatchNorm"
  bottom: "res3b5_branch2b"
  top: "res3b5_branch2b"
  batch_norm_param {
    use_global_stats: true
  }
}
layer {
  name: "scale3b5_branch2b"
  type: "Scale"
  bottom: "res3b5_branch2b"
  top: "res3b5_branch2b"
  scale_param {
    bias_term: true
  }
}
layer {
  name: "res3b5_branch2b_relu"
  type: "ReLU"
  bottom: "res3b5_branch2b"
  top: "res3b5_branch2b"
}
layer {
  name: "res3b5_branch2c"
  type: "Convolution"
  bottom: "res3b5_branch2b"
  top: "res3b5_branch2c"
  convolution_param {
    num_output: 512
    bias_term: false
    pad: 0
    kernel_size: 1
    stride: 1
  }
}
layer {
  name: "bn3b5_branch2c"
  type: "BatchNorm"
  bottom: "res3b5_branch2c"
  top: "res3b5_branch2c"
  batch_norm_param {
    use_global_stats: true
  }
}
layer {
  name: "scale3b5_branch2c"
  type: "Scale"
  bottom: "res3b5_branch2c"
  top: "res3b5_branch2c"
  scale_param {
    bias_term: true
  }
}
layer {
  name: "res3b5"
  type: "Eltwise"
  bottom: "res3b4"
  bottom: "res3b5_branch2c"
  top: "res3b5"
}
layer {
  name: "res3b5_relu"
  type: "ReLU"
  bottom: "res3b5"
  top: "res3b5"
}
layer {
  name: "res3b6_branch2a"
  type: "Convolution"
  bottom: "res3b5"
  top: "res3b6_branch2a"
  convolution_param {
    num_output: 128
    bias_term: false
    pad: 0
    kernel_size: 1
    stride: 1
  }
}
layer {
  name: "bn3b6_branch2a"
  type: "BatchNorm"
  bottom: "res3b6_branch2a"
  top: "res3b6_branch2a"
  batch_norm_param {
    use_global_stats: true
  }
}
layer {
  name: "scale3b6_branch2a"
  type: "Scale"
  bottom: "res3b6_branch2a"
  top: "res3b6_branch2a"
  scale_param {
    bias_term: true
  }
}
layer {
  name: "res3b6_branch2a_relu"
  type: "ReLU"
  bottom: "res3b6_branch2a"
  top: "res3b6_branch2a"
}
layer {
  name: "res3b6_branch2b"
  type: "Convolution"
  bottom: "res3b6_branch2a"
  top: "res3b6_branch2b"
  convolution_param {
    num_output: 128
    bias_term: false
    pad: 1
    kernel_size: 3
    stride: 1
  }
}
layer {
  name: "bn3b6_branch2b"
  type: "BatchNorm"
  bottom: "res3b6_branch2b"
  top: "res3b6_branch2b"
  batch_norm_param {
    use_global_stats: true
  }
}
layer {
  name: "scale3b6_branch2b"
  type: "Scale"
  bottom: "res3b6_branch2b"
  top: "res3b6_branch2b"
  scale_param {
    bias_term: true
  }
}
layer {
  name: "res3b6_branch2b_relu"
  type: "ReLU"
  bottom: "res3b6_branch2b"
  top: "res3b6_branch2b"
}
layer {
  name: "res3b6_branch2c"
  type: "Convolution"
  bottom: "res3b6_branch2b"
  top: "res3b6_branch2c"
  convolution_param {
    num_output: 512
    bias_term: false
    pad: 0
    kernel_size: 1
    stride: 1
  }
}
layer {
  name: "bn3b6_branch2c"
  type: "BatchNorm"
  bottom: "res3b6_branch2c"
  top: "res3b6_branch2c"
  batch_norm_param {
    use_global_stats: true
  }
}
layer {
  name: "scale3b6_branch2c"
  type: "Scale"
  bottom: "res3b6_branch2c"
  top: "res3b6_branch2c"
  scale_param {
    bias_term: true
  }
}
layer {
  name: "res3b6"
  type: "Eltwise"
  bottom: "res3b5"
  bottom: "res3b6_branch2c"
  top: "res3b6"
}
layer {
  name: "res3b6_relu"
  type: "ReLU"
  bottom: "res3b6"
  top: "res3b6"
}
layer {
  name: "res3b7_branch2a"
  type: "Convolution"
  bottom: "res3b6"
  top: "res3b7_branch2a"
  convolution_param {
    num_output: 128
    bias_term: false
    pad: 0
    kernel_size: 1
    stride: 1
  }
}
layer {
  name: "bn3b7_branch2a"
  type: "BatchNorm"
  bottom: "res3b7_branch2a"
  top: "res3b7_branch2a"
  batch_norm_param {
    use_global_stats: true
  }
}
layer {
  name: "scale3b7_branch2a"
  type: "Scale"
  bottom: "res3b7_branch2a"
  top: "res3b7_branch2a"
  scale_param {
    bias_term: true
  }
}
layer {
  name: "res3b7_branch2a_relu"
  type: "ReLU"
  bottom: "res3b7_branch2a"
  top: "res3b7_branch2a"
}
layer {
  name: "res3b7_branch2b"
  type: "Convolution"
  bottom: "res3b7_branch2a"
  top: "res3b7_branch2b"
  convolution_param {
    num_output: 128
    bias_term: false
    pad: 1
    kernel_size: 3
    stride: 1
  }
}
layer {
  name: "bn3b7_branch2b"
  type: "BatchNorm"
  bottom: "res3b7_branch2b"
  top: "res3b7_branch2b"
  batch_norm_param {
    use_global_stats: true
  }
}
layer {
  name: "scale3b7_branch2b"
  type: "Scale"
  bottom: "res3b7_branch2b"
  top: "res3b7_branch2b"
  scale_param {
    bias_term: true
  }
}
layer {
  name: "res3b7_branch2b_relu"
  type: "ReLU"
  bottom: "res3b7_branch2b"
  top: "res3b7_branch2b"
}
layer {
  name: "res3b7_branch2c"
  type: "Convolution"
  bottom: "res3b7_branch2b"
  top: "res3b7_branch2c"
  convolution_param {
    num_output: 512
    bias_term: false
    pad: 0
    kernel_size: 1
    stride: 1
  }
}
layer {
  name: "bn3b7_branch2c"
  type: "BatchNorm"
  bottom: "res3b7_branch2c"
  top: "res3b7_branch2c"
  batch_norm_param {
    use_global_stats: true
  }
}
layer {
  name: "scale3b7_branch2c"
  type: "Scale"
  bottom: "res3b7_branch2c"
  top: "res3b7_branch2c"
  scale_param {
    bias_term: true
  }
}
layer {
  name: "res3b7"
  type: "Eltwise"
  bottom: "res3b6"
  bottom: "res3b7_branch2c"
  top: "res3b7"
}
layer {
  name: "res3b7_relu"
  type: "ReLU"
  bottom: "res3b7"
  top: "res3b7"
}
layer {
  name: "res4a_branch1"
  type: "Convolution"
  bottom: "res3b7"
  top: "res4a_branch1"
  convolution_param {
    num_output: 1024
    bias_term: false
    pad: 0
    kernel_size: 1
    stride: 2
  }
}
layer {
  name: "bn4a_branch1"
  type: "BatchNorm"
  bottom: "res4a_branch1"
  top: "res4a_branch1"
  batch_norm_param {
    use_global_stats: true
  }
}
layer {
  name: "scale4a_branch1"
  type: "Scale"
  bottom: "res4a_branch1"
  top: "res4a_branch1"
  scale_param {
    bias_term: true
  }
}
layer {
  name: "res4a_branch2a"
  type: "Convolution"
  bottom: "res3b7"
  top: "res4a_branch2a"
  convolution_param {
    num_output: 256
    bias_term: false
    pad: 0
    kernel_size: 1
    stride: 2
  }
}
layer {
  name: "bn4a_branch2a"
  type: "BatchNorm"
  bottom: "res4a_branch2a"
  top: "res4a_branch2a"
  batch_norm_param {
    use_global_stats: true
  }
}
layer {
  name: "scale4a_branch2a"
  type: "Scale"
  bottom: "res4a_branch2a"
  top: "res4a_branch2a"
  scale_param {
    bias_term: true
  }
}
layer {
  name: "res4a_branch2a_relu"
  type: "ReLU"
  bottom: "res4a_branch2a"
  top: "res4a_branch2a"
}
layer {
  name: "res4a_branch2b"
  type: "Convolution"
  bottom: "res4a_branch2a"
  top: "res4a_branch2b"
  convolution_param {
    num_output: 256
    bias_term: false
    pad: 1
    kernel_size: 3
    stride: 1
  }
}
layer {
  name: "bn4a_branch2b"
  type: "BatchNorm"
  bottom: "res4a_branch2b"
  top: "res4a_branch2b"
  batch_norm_param {
    use_global_stats: true
  }
}
layer {
  name: "scale4a_branch2b"
  type: "Scale"
  bottom: "res4a_branch2b"
  top: "res4a_branch2b"
  scale_param {
    bias_term: true
  }
}
layer {
  name: "res4a_branch2b_relu"
  type: "ReLU"
  bottom: "res4a_branch2b"
  top: "res4a_branch2b"
}
layer {
  name: "res4a_branch2c"
  type: "Convolution"
  bottom: "res4a_branch2b"
  top: "res4a_branch2c"
  convolution_param {
    num_output: 1024
    bias_term: false
    pad: 0
    kernel_size: 1
    stride: 1
  }
}
layer {
  name: "bn4a_branch2c"
  type: "BatchNorm"
  bottom: "res4a_branch2c"
  top: "res4a_branch2c"
  batch_norm_param {
    use_global_stats: true
  }
}
layer {
  name: "scale4a_branch2c"
  type: "Scale"
  bottom: "res4a_branch2c"
  top: "res4a_branch2c"
  scale_param {
    bias_term: true
  }
}
layer {
  name: "res4a"
  type: "Eltwise"
  bottom: "res4a_branch1"
  bottom: "res4a_branch2c"
  top: "res4a"
}
layer {
  name: "res4a_relu"
  type: "ReLU"
  bottom: "res4a"
  top: "res4a"
}
layer {
  name: "res4b1_branch2a"
  type: "Convolution"
  bottom: "res4a"
  top: "res4b1_branch2a"
  convolution_param {
    num_output: 256
    bias_term: false
    pad: 0
    kernel_size: 1
    stride: 1
  }
}
layer {
  name: "bn4b1_branch2a"
  type: "BatchNorm"
  bottom: "res4b1_branch2a"
  top: "res4b1_branch2a"
  batch_norm_param {
    use_global_stats: true
  }
}
layer {
  name: "scale4b1_branch2a"
  type: "Scale"
  bottom: "res4b1_branch2a"
  top: "res4b1_branch2a"
  scale_param {
    bias_term: true
  }
}
layer {
  name: "res4b1_branch2a_relu"
  type: "ReLU"
  bottom: "res4b1_branch2a"
  top: "res4b1_branch2a"
}
layer {
  name: "res4b1_branch2b"
  type: "Convolution"
  bottom: "res4b1_branch2a"
  top: "res4b1_branch2b"
  convolution_param {
    num_output: 256
    bias_term: false
    pad: 1
    kernel_size: 3
    stride: 1
  }
}
layer {
  name: "bn4b1_branch2b"
  type: "BatchNorm"
  bottom: "res4b1_branch2b"
  top: "res4b1_branch2b"
  batch_norm_param {
    use_global_stats: true
  }
}
layer {
  name: "scale4b1_branch2b"
  type: "Scale"
  bottom: "res4b1_branch2b"
  top: "res4b1_branch2b"
  scale_param {
    bias_term: true
  }
}
layer {
  name: "res4b1_branch2b_relu"
  type: "ReLU"
  bottom: "res4b1_branch2b"
  top: "res4b1_branch2b"
}
layer {
  name: "res4b1_branch2c"
  type: "Convolution"
  bottom: "res4b1_branch2b"
  top: "res4b1_branch2c"
  convolution_param {
    num_output: 1024
    bias_term: false
    pad: 0
    kernel_size: 1
    stride: 1
  }
}
layer {
  name: "bn4b1_branch2c"
  type: "BatchNorm"
  bottom: "res4b1_branch2c"
  top: "res4b1_branch2c"
  batch_norm_param {
    use_global_stats: true
  }
}
layer {
  name: "scale4b1_branch2c"
  type: "Scale"
  bottom: "res4b1_branch2c"
  top: "res4b1_branch2c"
  scale_param {
    bias_term: true
  }
}
layer {
  name: "res4b1"
  type: "Eltwise"
  bottom: "res4a"
  bottom: "res4b1_branch2c"
  top: "res4b1"
}
layer {
  name: "res4b1_relu"
  type: "ReLU"
  bottom: "res4b1"
  top: "res4b1"
}
layer {
  name: "res4b2_branch2a"
  type: "Convolution"
  bottom: "res4b1"
  top: "res4b2_branch2a"
  convolution_param {
    num_output: 256
    bias_term: false
    pad: 0
    kernel_size: 1
    stride: 1
  }
}
layer {
  name: "bn4b2_branch2a"
  type: "BatchNorm"
  bottom: "res4b2_branch2a"
  top: "res4b2_branch2a"
  batch_norm_param {
    use_global_stats: true
  }
}
layer {
  name: "scale4b2_branch2a"
  type: "Scale"
  bottom: "res4b2_branch2a"
  top: "res4b2_branch2a"
  scale_param {
    bias_term: true
  }
}
layer {
  name: "res4b2_branch2a_relu"
  type: "ReLU"
  bottom: "res4b2_branch2a"
  top: "res4b2_branch2a"
}
layer {
  name: "res4b2_branch2b"
  type: "Convolution"
  bottom: "res4b2_branch2a"
  top: "res4b2_branch2b"
  convolution_param {
    num_output: 256
    bias_term: false
    pad: 1
    kernel_size: 3
    stride: 1
  }
}
layer {
  name: "bn4b2_branch2b"
  type: "BatchNorm"
  bottom: "res4b2_branch2b"
  top: "res4b2_branch2b"
  batch_norm_param {
    use_global_stats: true
  }
}
layer {
  name: "scale4b2_branch2b"
  type: "Scale"
  bottom: "res4b2_branch2b"
  top: "res4b2_branch2b"
  scale_param {
    bias_term: true
  }
}
layer {
  name: "res4b2_branch2b_relu"
  type: "ReLU"
  bottom: "res4b2_branch2b"
  top: "res4b2_branch2b"
}
layer {
  name: "res4b2_branch2c"
  type: "Convolution"
  bottom: "res4b2_branch2b"
  top: "res4b2_branch2c"
  convolution_param {
  
I0315 12:06:46.026697 13464 layer_factory.hpp:77] Creating layer data
I0315 12:06:46.027359 13464 net.cpp:106] Creating Layer data
I0315 12:06:46.027418 13464 net.cpp:411] data -> data
I0315 12:06:46.027475 13464 net.cpp:411] data -> id_label
I0315 12:06:46.027515 13464 data_transformer.cpp:25] Loading mean file from: /home/lizhuowan/Market1501/lmdb/lmdb_12936/Image_lmdb_12936.binaryproto
I0315 12:06:46.028555 13468 db_lmdb.cpp:38] Opened lmdb /home/lizhuowan/Market1501/lmdb/lmdb_mirror_12936/Image_lmdb_mirror_12936
I0315 12:06:46.042656 13464 data_layer.cpp:41] output data size: 8,3,224,224
I0315 12:06:46.052518 13464 net.cpp:150] Setting up data
I0315 12:06:46.055626 13464 net.cpp:157] Top shape: 8 3 224 224 (1204224)
I0315 12:06:46.055680 13464 net.cpp:157] Top shape: 8 (8)
I0315 12:06:46.055691 13464 net.cpp:165] Memory required for data: 4816928
I0315 12:06:46.055713 13464 layer_factory.hpp:77] Creating layer data_data_0_split
I0315 12:06:46.055742 13464 net.cpp:106] Creating Layer data_data_0_split
I0315 12:06:46.055757 13464 net.cpp:454] data_data_0_split <- data
I0315 12:06:46.055786 13464 net.cpp:411] data_data_0_split -> data_data_0_split_0
I0315 12:06:46.055809 13464 net.cpp:411] data_data_0_split -> data_data_0_split_1
I0315 12:06:46.055922 13464 net.cpp:150] Setting up data_data_0_split
I0315 12:06:46.055939 13464 net.cpp:157] Top shape: 8 3 224 224 (1204224)
I0315 12:06:46.055951 13464 net.cpp:157] Top shape: 8 3 224 224 (1204224)
I0315 12:06:46.055960 13464 net.cpp:165] Memory required for data: 14450720
I0315 12:06:46.055970 13464 layer_factory.hpp:77] Creating layer data
I0315 12:06:46.056227 13464 net.cpp:106] Creating Layer data
I0315 12:06:46.056252 13464 net.cpp:411] data -> labels
I0315 12:06:46.057492 13470 db_lmdb.cpp:38] Opened lmdb /home/lizhuowan/Market1501/lmdb/lmdb_mirror_12936/pos30_lmdb_mirror_12936_correct
I0315 12:06:46.057665 13464 data_layer.cpp:41] output data size: 8,30,1,1
I0315 12:06:46.058367 13464 net.cpp:150] Setting up data
I0315 12:06:46.058394 13464 net.cpp:157] Top shape: 8 30 1 1 (240)
I0315 12:06:46.058405 13464 net.cpp:165] Memory required for data: 14451680
I0315 12:06:46.058454 13464 layer_factory.hpp:77] Creating layer conv1
I0315 12:06:46.058539 13464 net.cpp:106] Creating Layer conv1
I0315 12:06:46.058557 13464 net.cpp:454] conv1 <- data_data_0_split_0
I0315 12:06:46.058575 13464 net.cpp:411] conv1 -> conv1
I0315 12:06:46.059662 13464 net.cpp:150] Setting up conv1
I0315 12:06:46.059686 13464 net.cpp:157] Top shape: 8 64 112 112 (6422528)
I0315 12:06:46.059697 13464 net.cpp:165] Memory required for data: 40141792
I0315 12:06:46.059739 13464 layer_factory.hpp:77] Creating layer bn_conv1
I0315 12:06:46.059762 13464 net.cpp:106] Creating Layer bn_conv1
I0315 12:06:46.059774 13464 net.cpp:454] bn_conv1 <- conv1
I0315 12:06:46.059787 13464 net.cpp:397] bn_conv1 -> conv1 (in-place)
I0315 12:06:46.060189 13464 net.cpp:150] Setting up bn_conv1
I0315 12:06:46.060209 13464 net.cpp:157] Top shape: 8 64 112 112 (6422528)
I0315 12:06:46.060222 13464 net.cpp:165] Memory required for data: 65831904
I0315 12:06:46.060246 13464 layer_factory.hpp:77] Creating layer scale_conv1
I0315 12:06:46.060287 13464 net.cpp:106] Creating Layer scale_conv1
I0315 12:06:46.060300 13464 net.cpp:454] scale_conv1 <- conv1
I0315 12:06:46.060313 13464 net.cpp:397] scale_conv1 -> conv1 (in-place)
I0315 12:06:46.060401 13464 layer_factory.hpp:77] Creating layer scale_conv1
I0315 12:06:46.060598 13464 net.cpp:150] Setting up scale_conv1
I0315 12:06:46.060648 13464 net.cpp:157] Top shape: 8 64 112 112 (6422528)
I0315 12:06:46.060662 13464 net.cpp:165] Memory required for data: 91522016
I0315 12:06:46.060679 13464 layer_factory.hpp:77] Creating layer conv1_relu
I0315 12:06:46.060698 13464 net.cpp:106] Creating Layer conv1_relu
I0315 12:06:46.060708 13464 net.cpp:454] conv1_relu <- conv1
I0315 12:06:46.060724 13464 net.cpp:397] conv1_relu -> conv1 (in-place)
I0315 12:06:46.060745 13464 net.cpp:150] Setting up conv1_relu
I0315 12:06:46.060757 13464 net.cpp:157] Top shape: 8 64 112 112 (6422528)
I0315 12:06:46.060766 13464 net.cpp:165] Memory required for data: 117212128
I0315 12:06:46.060776 13464 layer_factory.hpp:77] Creating layer pool1
I0315 12:06:46.060797 13464 net.cpp:106] Creating Layer pool1
I0315 12:06:46.060807 13464 net.cpp:454] pool1 <- conv1
I0315 12:06:46.060819 13464 net.cpp:411] pool1 -> pool1
I0315 12:06:46.060914 13464 net.cpp:150] Setting up pool1
I0315 12:06:46.060931 13464 net.cpp:157] Top shape: 8 64 56 56 (1605632)
I0315 12:06:46.060941 13464 net.cpp:165] Memory required for data: 123634656
I0315 12:06:46.060951 13464 layer_factory.hpp:77] Creating layer pool1_pool1_0_split
I0315 12:06:46.060969 13464 net.cpp:106] Creating Layer pool1_pool1_0_split
I0315 12:06:46.060981 13464 net.cpp:454] pool1_pool1_0_split <- pool1
I0315 12:06:46.060997 13464 net.cpp:411] pool1_pool1_0_split -> pool1_pool1_0_split_0
I0315 12:06:46.061012 13464 net.cpp:411] pool1_pool1_0_split -> pool1_pool1_0_split_1
I0315 12:06:46.061063 13464 net.cpp:150] Setting up pool1_pool1_0_split
I0315 12:06:46.061079 13464 net.cpp:157] Top shape: 8 64 56 56 (1605632)
I0315 12:06:46.061090 13464 net.cpp:157] Top shape: 8 64 56 56 (1605632)
I0315 12:06:46.061100 13464 net.cpp:165] Memory required for data: 136479712
I0315 12:06:46.061110 13464 layer_factory.hpp:77] Creating layer res2a_branch1
I0315 12:06:46.061131 13464 net.cpp:106] Creating Layer res2a_branch1
I0315 12:06:46.061142 13464 net.cpp:454] res2a_branch1 <- pool1_pool1_0_split_0
I0315 12:06:46.061156 13464 net.cpp:411] res2a_branch1 -> res2a_branch1
I0315 12:06:46.062192 13464 net.cpp:150] Setting up res2a_branch1
I0315 12:06:46.062222 13464 net.cpp:157] Top shape: 8 256 56 56 (6422528)
I0315 12:06:46.062234 13464 net.cpp:165] Memory required for data: 162169824
I0315 12:06:46.062248 13464 layer_factory.hpp:77] Creating layer bn2a_branch1
I0315 12:06:46.062263 13464 net.cpp:106] Creating Layer bn2a_branch1
I0315 12:06:46.062273 13464 net.cpp:454] bn2a_branch1 <- res2a_branch1
I0315 12:06:46.062290 13464 net.cpp:397] bn2a_branch1 -> res2a_branch1 (in-place)
I0315 12:06:46.063144 13464 net.cpp:150] Setting up bn2a_branch1
I0315 12:06:46.063175 13464 net.cpp:157] Top shape: 8 256 56 56 (6422528)
I0315 12:06:46.063196 13464 net.cpp:165] Memory required for data: 187859936
I0315 12:06:46.063218 13464 layer_factory.hpp:77] Creating layer scale2a_branch1
I0315 12:06:46.063236 13464 net.cpp:106] Creating Layer scale2a_branch1
I0315 12:06:46.063248 13464 net.cpp:454] scale2a_branch1 <- res2a_branch1
I0315 12:06:46.063261 13464 net.cpp:397] scale2a_branch1 -> res2a_branch1 (in-place)
I0315 12:06:46.063318 13464 layer_factory.hpp:77] Creating layer scale2a_branch1
I0315 12:06:46.063455 13464 net.cpp:150] Setting up scale2a_branch1
I0315 12:06:46.063473 13464 net.cpp:157] Top shape: 8 256 56 56 (6422528)
I0315 12:06:46.063483 13464 net.cpp:165] Memory required for data: 213550048
I0315 12:06:46.063498 13464 layer_factory.hpp:77] Creating layer res2a_branch2a
I0315 12:06:46.063516 13464 net.cpp:106] Creating Layer res2a_branch2a
I0315 12:06:46.063529 13464 net.cpp:454] res2a_branch2a <- pool1_pool1_0_split_1
I0315 12:06:46.063541 13464 net.cpp:411] res2a_branch2a -> res2a_branch2a
I0315 12:06:46.063740 13464 net.cpp:150] Setting up res2a_branch2a
I0315 12:06:46.063760 13464 net.cpp:157] Top shape: 8 64 56 56 (1605632)
I0315 12:06:46.063769 13464 net.cpp:165] Memory required for data: 219972576
I0315 12:06:46.063781 13464 layer_factory.hpp:77] Creating layer bn2a_branch2a
I0315 12:06:46.063794 13464 net.cpp:106] Creating Layer bn2a_branch2a
I0315 12:06:46.063804 13464 net.cpp:454] bn2a_branch2a <- res2a_branch2a
I0315 12:06:46.063817 13464 net.cpp:397] bn2a_branch2a -> res2a_branch2a (in-place)
I0315 12:06:46.064019 13464 net.cpp:150] Setting up bn2a_branch2a
I0315 12:06:46.064038 13464 net.cpp:157] Top shape: 8 64 56 56 (1605632)
I0315 12:06:46.064047 13464 net.cpp:165] Memory required for data: 226395104
I0315 12:06:46.064065 13464 layer_factory.hpp:77] Creating layer scale2a_branch2a
I0315 12:06:46.064080 13464 net.cpp:106] Creating Layer scale2a_branch2a
I0315 12:06:46.064090 13464 net.cpp:454] scale2a_branch2a <- res2a_branch2a
I0315 12:06:46.064102 13464 net.cpp:397] scale2a_branch2a -> res2a_branch2a (in-place)
I0315 12:06:46.064157 13464 layer_factory.hpp:77] Creating layer scale2a_branch2a
I0315 12:06:46.064302 13464 net.cpp:150] Setting up scale2a_branch2a
I0315 12:06:46.064321 13464 net.cpp:157] Top shape: 8 64 56 56 (1605632)
I0315 12:06:46.064330 13464 net.cpp:165] Memory required for data: 232817632
I0315 12:06:46.064352 13464 layer_factory.hpp:77] Creating layer res2a_branch2a_relu
I0315 12:06:46.064366 13464 net.cpp:106] Creating Layer res2a_branch2a_relu
I0315 12:06:46.064376 13464 net.cpp:454] res2a_branch2a_relu <- res2a_branch2a
I0315 12:06:46.064388 13464 net.cpp:397] res2a_branch2a_relu -> res2a_branch2a (in-place)
I0315 12:06:46.064402 13464 net.cpp:150] Setting up res2a_branch2a_relu
I0315 12:06:46.064414 13464 net.cpp:157] Top shape: 8 64 56 56 (1605632)
I0315 12:06:46.064424 13464 net.cpp:165] Memory required for data: 239240160
I0315 12:06:46.064432 13464 layer_factory.hpp:77] Creating layer res2a_branch2b
I0315 12:06:46.064451 13464 net.cpp:106] Creating Layer res2a_branch2b
I0315 12:06:46.064463 13464 net.cpp:454] res2a_branch2b <- res2a_branch2a
I0315 12:06:46.064476 13464 net.cpp:411] res2a_branch2b -> res2a_branch2b
I0315 12:06:46.065353 13464 net.cpp:150] Setting up res2a_branch2b
I0315 12:06:46.065377 13464 net.cpp:157] Top shape: 8 64 56 56 (1605632)
I0315 12:06:46.065387 13464 net.cpp:165] Memory required for data: 245662688
I0315 12:06:46.065400 13464 layer_factory.hpp:77] Creating layer bn2a_branch2b
I0315 12:06:46.065418 13464 net.cpp:106] Creating Layer bn2a_branch2b
I0315 12:06:46.065428 13464 net.cpp:454] bn2a_branch2b <- res2a_branch2b
I0315 12:06:46.065440 13464 net.cpp:397] bn2a_branch2b -> res2a_branch2b (in-place)
I0315 12:06:46.065657 13464 net.cpp:150] Setting up bn2a_branch2b
I0315 12:06:46.065675 13464 net.cpp:157] Top shape: 8 64 56 56 (1605632)
I0315 12:06:46.065685 13464 net.cpp:165] Memory required for data: 252085216
I0315 12:06:46.065701 13464 layer_factory.hpp:77] Creating layer scale2a_branch2b
I0315 12:06:46.065722 13464 net.cpp:106] Creating Layer scale2a_branch2b
I0315 12:06:46.065745 13464 net.cpp:454] scale2a_branch2b <- res2a_branch2b
I0315 12:06:46.065762 13464 net.cpp:397] scale2a_branch2b -> res2a_branch2b (in-place)
I0315 12:06:46.065819 13464 layer_factory.hpp:77] Creating layer scale2a_branch2b
I0315 12:06:46.065965 13464 net.cpp:150] Setting up scale2a_branch2b
I0315 12:06:46.065984 13464 net.cpp:157] Top shape: 8 64 56 56 (1605632)
I0315 12:06:46.065994 13464 net.cpp:165] Memory required for data: 258507744
I0315 12:06:46.066007 13464 layer_factory.hpp:77] Creating layer res2a_branch2b_relu
I0315 12:06:46.066020 13464 net.cpp:106] Creating Layer res2a_branch2b_relu
I0315 12:06:46.066030 13464 net.cpp:454] res2a_branch2b_relu <- res2a_branch2b
I0315 12:06:46.066045 13464 net.cpp:397] res2a_branch2b_relu -> res2a_branch2b (in-place)
I0315 12:06:46.066061 13464 net.cpp:150] Setting up res2a_branch2b_relu
I0315 12:06:46.066072 13464 net.cpp:157] Top shape: 8 64 56 56 (1605632)
I0315 12:06:46.066082 13464 net.cpp:165] Memory required for data: 264930272
I0315 12:06:46.066090 13464 layer_factory.hpp:77] Creating layer res2a_branch2c
I0315 12:06:46.066108 13464 net.cpp:106] Creating Layer res2a_branch2c
I0315 12:06:46.066118 13464 net.cpp:454] res2a_branch2c <- res2a_branch2b
I0315 12:06:46.066131 13464 net.cpp:411] res2a_branch2c -> res2a_branch2c
I0315 12:06:46.066337 13464 net.cpp:150] Setting up res2a_branch2c
I0315 12:06:46.066356 13464 net.cpp:157] Top shape: 8 256 56 56 (6422528)
I0315 12:06:46.066366 13464 net.cpp:165] Memory required for data: 290620384
I0315 12:06:46.066378 13464 layer_factory.hpp:77] Creating layer bn2a_branch2c
I0315 12:06:46.066391 13464 net.cpp:106] Creating Layer bn2a_branch2c
I0315 12:06:46.066401 13464 net.cpp:454] bn2a_branch2c <- res2a_branch2c
I0315 12:06:46.066416 13464 net.cpp:397] bn2a_branch2c -> res2a_branch2c (in-place)
I0315 12:06:46.066622 13464 net.cpp:150] Setting up bn2a_branch2c
I0315 12:06:46.066640 13464 net.cpp:157] Top shape: 8 256 56 56 (6422528)
I0315 12:06:46.066650 13464 net.cpp:165] Memory required for data: 316310496
I0315 12:06:46.066665 13464 layer_factory.hpp:77] Creating layer scale2a_branch2c
I0315 12:06:46.066679 13464 net.cpp:106] Creating Layer scale2a_branch2c
I0315 12:06:46.066689 13464 net.cpp:454] scale2a_branch2c <- res2a_branch2c
I0315 12:06:46.066701 13464 net.cpp:397] scale2a_branch2c -> res2a_branch2c (in-place)
I0315 12:06:46.066756 13464 layer_factory.hpp:77] Creating layer scale2a_branch2c
I0315 12:06:46.066895 13464 net.cpp:150] Setting up scale2a_branch2c
I0315 12:06:46.066913 13464 net.cpp:157] Top shape: 8 256 56 56 (6422528)
I0315 12:06:46.066922 13464 net.cpp:165] Memory required for data: 342000608
I0315 12:06:46.066936 13464 layer_factory.hpp:77] Creating layer res2a
I0315 12:06:46.066956 13464 net.cpp:106] Creating Layer res2a
I0315 12:06:46.066967 13464 net.cpp:454] res2a <- res2a_branch1
I0315 12:06:46.066977 13464 net.cpp:454] res2a <- res2a_branch2c
I0315 12:06:46.066992 13464 net.cpp:411] res2a -> res2a
I0315 12:06:46.067044 13464 net.cpp:150] Setting up res2a
I0315 12:06:46.067059 13464 net.cpp:157] Top shape: 8 256 56 56 (6422528)
I0315 12:06:46.067068 13464 net.cpp:165] Memory required for data: 367690720
I0315 12:06:46.067078 13464 layer_factory.hpp:77] Creating layer res2a_relu
I0315 12:06:46.067093 13464 net.cpp:106] Creating Layer res2a_relu
I0315 12:06:46.067104 13464 net.cpp:454] res2a_relu <- res2a
I0315 12:06:46.067116 13464 net.cpp:397] res2a_relu -> res2a (in-place)
I0315 12:06:46.067129 13464 net.cpp:150] Setting up res2a_relu
I0315 12:06:46.067142 13464 net.cpp:157] Top shape: 8 256 56 56 (6422528)
I0315 12:06:46.067150 13464 net.cpp:165] Memory required for data: 393380832
I0315 12:06:46.067160 13464 layer_factory.hpp:77] Creating layer res2a_res2a_relu_0_split
I0315 12:06:46.067172 13464 net.cpp:106] Creating Layer res2a_res2a_relu_0_split
I0315 12:06:46.067181 13464 net.cpp:454] res2a_res2a_relu_0_split <- res2a
I0315 12:06:46.067199 13464 net.cpp:411] res2a_res2a_relu_0_split -> res2a_res2a_relu_0_split_0
I0315 12:06:46.067221 13464 net.cpp:411] res2a_res2a_relu_0_split -> res2a_res2a_relu_0_split_1
I0315 12:06:46.067294 13464 net.cpp:150] Setting up res2a_res2a_relu_0_split
I0315 12:06:46.067312 13464 net.cpp:157] Top shape: 8 256 56 56 (6422528)
I0315 12:06:46.067324 13464 net.cpp:157] Top shape: 8 256 56 56 (6422528)
I0315 12:06:46.067333 13464 net.cpp:165] Memory required for data: 444761056
I0315 12:06:46.067343 13464 layer_factory.hpp:77] Creating layer res2b_branch2a
I0315 12:06:46.067358 13464 net.cpp:106] Creating Layer res2b_branch2a
I0315 12:06:46.067369 13464 net.cpp:454] res2b_branch2a <- res2a_res2a_relu_0_split_0
I0315 12:06:46.067385 13464 net.cpp:411] res2b_branch2a -> res2b_branch2a
I0315 12:06:46.067595 13464 net.cpp:150] Setting up res2b_branch2a
I0315 12:06:46.067613 13464 net.cpp:157] Top shape: 8 64 56 56 (1605632)
I0315 12:06:46.067623 13464 net.cpp:165] Memory required for data: 451183584
I0315 12:06:46.067636 13464 layer_factory.hpp:77] Creating layer bn2b_branch2a
I0315 12:06:46.067652 13464 net.cpp:106] Creating Layer bn2b_branch2a
I0315 12:06:46.067663 13464 net.cpp:454] bn2b_branch2a <- res2b_branch2a
I0315 12:06:46.067675 13464 net.cpp:397] bn2b_branch2a -> res2b_branch2a (in-place)
I0315 12:06:46.067880 13464 net.cpp:150] Setting up bn2b_branch2a
I0315 12:06:46.067898 13464 net.cpp:157] Top shape: 8 64 56 56 (1605632)
I0315 12:06:46.067909 13464 net.cpp:165] Memory required for data: 457606112
I0315 12:06:46.067934 13464 layer_factory.hpp:77] Creating layer scale2b_branch2a
I0315 12:06:46.067950 13464 net.cpp:106] Creating Layer scale2b_branch2a
I0315 12:06:46.067960 13464 net.cpp:454] scale2b_branch2a <- res2b_branch2a
I0315 12:06:46.067972 13464 net.cpp:397] scale2b_branch2a -> res2b_branch2a (in-place)
I0315 12:06:46.068035 13464 layer_factory.hpp:77] Creating layer scale2b_branch2a
I0315 12:06:46.068187 13464 net.cpp:150] Setting up scale2b_branch2a
I0315 12:06:46.068205 13464 net.cpp:157] Top shape: 8 64 56 56 (1605632)
I0315 12:06:46.068215 13464 net.cpp:165] Memory required for data: 464028640
I0315 12:06:46.068229 13464 layer_factory.hpp:77] Creating layer res2b_branch2a_relu
I0315 12:06:46.068249 13464 net.cpp:106] Creating Layer res2b_branch2a_relu
I0315 12:06:46.068259 13464 net.cpp:454] res2b_branch2a_relu <- res2b_branch2a
I0315 12:06:46.068271 13464 net.cpp:397] res2b_branch2a_relu -> res2b_branch2a (in-place)
I0315 12:06:46.068286 13464 net.cpp:150] Setting up res2b_branch2a_relu
I0315 12:06:46.068298 13464 net.cpp:157] Top shape: 8 64 56 56 (1605632)
I0315 12:06:46.068307 13464 net.cpp:165] Memory required for data: 470451168
I0315 12:06:46.068317 13464 layer_factory.hpp:77] Creating layer res2b_branch2b
I0315 12:06:46.068339 13464 net.cpp:106] Creating Layer res2b_branch2b
I0315 12:06:46.068351 13464 net.cpp:454] res2b_branch2b <- res2b_branch2a
I0315 12:06:46.068364 13464 net.cpp:411] res2b_branch2b -> res2b_branch2b
I0315 12:06:46.069362 13464 net.cpp:150] Setting up res2b_branch2b
I0315 12:06:46.069394 13464 net.cpp:157] Top shape: 8 64 56 56 (1605632)
I0315 12:06:46.069406 13464 net.cpp:165] Memory required for data: 476873696
I0315 12:06:46.069419 13464 layer_factory.hpp:77] Creating layer bn2b_branch2b
I0315 12:06:46.069433 13464 net.cpp:106] Creating Layer bn2b_branch2b
I0315 12:06:46.069444 13464 net.cpp:454] bn2b_branch2b <- res2b_branch2b
I0315 12:06:46.069458 13464 net.cpp:397] bn2b_branch2b -> res2b_branch2b (in-place)
I0315 12:06:46.069689 13464 net.cpp:150] Setting up bn2b_branch2b
I0315 12:06:46.069707 13464 net.cpp:157] Top shape: 8 64 56 56 (1605632)
I0315 12:06:46.069717 13464 net.cpp:165] Memory required for data: 483296224
I0315 12:06:46.069733 13464 layer_factory.hpp:77] Creating layer scale2b_branch2b
I0315 12:06:46.069751 13464 net.cpp:106] Creating Layer scale2b_branch2b
I0315 12:06:46.069762 13464 net.cpp:454] scale2b_branch2b <- res2b_branch2b
I0315 12:06:46.069774 13464 net.cpp:397] scale2b_branch2b -> res2b_branch2b (in-place)
I0315 12:06:46.069835 13464 layer_factory.hpp:77] Creating layer scale2b_branch2b
I0315 12:06:46.069983 13464 net.cpp:150] Setting up scale2b_branch2b
I0315 12:06:46.070009 13464 net.cpp:157] Top shape: 8 64 56 56 (1605632)
I0315 12:06:46.070029 13464 net.cpp:165] Memory required for data: 489718752
I0315 12:06:46.070044 13464 layer_factory.hpp:77] Creating layer res2b_branch2b_relu
I0315 12:06:46.070057 13464 net.cpp:106] Creating Layer res2b_branch2b_relu
I0315 12:06:46.070067 13464 net.cpp:454] res2b_branch2b_relu <- res2b_branch2b
I0315 12:06:46.070080 13464 net.cpp:397] res2b_branch2b_relu -> res2b_branch2b (in-place)
I0315 12:06:46.070093 13464 net.cpp:150] Setting up res2b_branch2b_relu
I0315 12:06:46.070106 13464 net.cpp:157] Top shape: 8 64 56 56 (1605632)
I0315 12:06:46.070114 13464 net.cpp:165] Memory required for data: 496141280
I0315 12:06:46.070124 13464 layer_factory.hpp:77] Creating layer res2b_branch2c
I0315 12:06:46.070143 13464 net.cpp:106] Creating Layer res2b_branch2c
I0315 12:06:46.070154 13464 net.cpp:454] res2b_branch2c <- res2b_branch2b
I0315 12:06:46.070170 13464 net.cpp:411] res2b_branch2c -> res2b_branch2c
I0315 12:06:46.070391 13464 net.cpp:150] Setting up res2b_branch2c
I0315 12:06:46.070410 13464 net.cpp:157] Top shape: 8 256 56 56 (6422528)
I0315 12:06:46.070420 13464 net.cpp:165] Memory required for data: 521831392
I0315 12:06:46.070432 13464 layer_factory.hpp:77] Creating layer bn2b_branch2c
I0315 12:06:46.070446 13464 net.cpp:106] Creating Layer bn2b_branch2c
I0315 12:06:46.070456 13464 net.cpp:454] bn2b_branch2c <- res2b_branch2c
I0315 12:06:46.070466 13464 net.cpp:397] bn2b_branch2c -> res2b_branch2c (in-place)
I0315 12:06:46.070672 13464 net.cpp:150] Setting up bn2b_branch2c
I0315 12:06:46.070690 13464 net.cpp:157] Top shape: 8 256 56 56 (6422528)
I0315 12:06:46.070699 13464 net.cpp:165] Memory required for data: 547521504
I0315 12:06:46.070715 13464 layer_factory.hpp:77] Creating layer scale2b_branch2c
I0315 12:06:46.070732 13464 net.cpp:106] Creating Layer scale2b_branch2c
I0315 12:06:46.070756 13464 net.cpp:454] scale2b_branch2c <- res2b_branch2c
I0315 12:06:46.070770 13464 net.cpp:397] scale2b_branch2c -> res2b_branch2c (in-place)
I0315 12:06:46.070827 13464 layer_factory.hpp:77] Creating layer scale2b_branch2c
I0315 12:06:46.070971 13464 net.cpp:150] Setting up scale2b_branch2c
I0315 12:06:46.070988 13464 net.cpp:157] Top shape: 8 256 56 56 (6422528)
I0315 12:06:46.070997 13464 net.cpp:165] Memory required for data: 573211616
I0315 12:06:46.071012 13464 layer_factory.hpp:77] Creating layer res2b
I0315 12:06:46.071028 13464 net.cpp:106] Creating Layer res2b
I0315 12:06:46.071039 13464 net.cpp:454] res2b <- res2a_res2a_relu_0_split_1
I0315 12:06:46.071050 13464 net.cpp:454] res2b <- res2b_branch2c
I0315 12:06:46.071063 13464 net.cpp:411] res2b -> res2b
I0315 12:06:46.071104 13464 net.cpp:150] Setting up res2b
I0315 12:06:46.071120 13464 net.cpp:157] Top shape: 8 256 56 56 (6422528)
I0315 12:06:46.071130 13464 net.cpp:165] Memory required for data: 598901728
I0315 12:06:46.071140 13464 layer_factory.hpp:77] Creating layer res2b_relu
I0315 12:06:46.071151 13464 net.cpp:106] Creating Layer res2b_relu
I0315 12:06:46.071161 13464 net.cpp:454] res2b_relu <- res2b
I0315 12:06:46.071177 13464 net.cpp:397] res2b_relu -> res2b (in-place)
I0315 12:06:46.071190 13464 net.cpp:150] Setting up res2b_relu
I0315 12:06:46.071202 13464 net.cpp:157] Top shape: 8 256 56 56 (6422528)
I0315 12:06:46.071211 13464 net.cpp:165] Memory required for data: 624591840
I0315 12:06:46.071221 13464 layer_factory.hpp:77] Creating layer res2b_res2b_relu_0_split
I0315 12:06:46.071233 13464 net.cpp:106] Creating Layer res2b_res2b_relu_0_split
I0315 12:06:46.071243 13464 net.cpp:454] res2b_res2b_relu_0_split <- res2b
I0315 12:06:46.071254 13464 net.cpp:411] res2b_res2b_relu_0_split -> res2b_res2b_relu_0_split_0
I0315 12:06:46.071266 13464 net.cpp:411] res2b_res2b_relu_0_split -> res2b_res2b_relu_0_split_1
I0315 12:06:46.071313 13464 net.cpp:150] Setting up res2b_res2b_relu_0_split
I0315 12:06:46.071329 13464 net.cpp:157] Top shape: 8 256 56 56 (6422528)
I0315 12:06:46.071341 13464 net.cpp:157] Top shape: 8 256 56 56 (6422528)
I0315 12:06:46.071355 13464 net.cpp:165] Memory required for data: 675972064
I0315 12:06:46.071374 13464 layer_factory.hpp:77] Creating layer res2c_branch2a
I0315 12:06:46.071389 13464 net.cpp:106] Creating Layer res2c_branch2a
I0315 12:06:46.071400 13464 net.cpp:454] res2c_branch2a <- res2b_res2b_relu_0_split_0
I0315 12:06:46.071413 13464 net.cpp:411] res2c_branch2a -> res2c_branch2a
I0315 12:06:46.071630 13464 net.cpp:150] Setting up res2c_branch2a
I0315 12:06:46.071648 13464 net.cpp:157] Top shape: 8 64 56 56 (1605632)
I0315 12:06:46.071658 13464 net.cpp:165] Memory required for data: 682394592
I0315 12:06:46.071671 13464 layer_factory.hpp:77] Creating layer bn2c_branch2a
I0315 12:06:46.071683 13464 net.cpp:106] Creating Layer bn2c_branch2a
I0315 12:06:46.071694 13464 net.cpp:454] bn2c_branch2a <- res2c_branch2a
I0315 12:06:46.071714 13464 net.cpp:397] bn2c_branch2a -> res2c_branch2a (in-place)
I0315 12:06:46.071931 13464 net.cpp:150] Setting up bn2c_branch2a
I0315 12:06:46.071949 13464 net.cpp:157] Top shape: 8 64 56 56 (1605632)
I0315 12:06:46.071959 13464 net.cpp:165] Memory required for data: 688817120
I0315 12:06:46.071974 13464 layer_factory.hpp:77] Creating layer scale2c_branch2a
I0315 12:06:46.071988 13464 net.cpp:106] Creating Layer scale2c_branch2a
I0315 12:06:46.071998 13464 net.cpp:454] scale2c_branch2a <- res2c_branch2a
I0315 12:06:46.072013 13464 net.cpp:397] scale2c_branch2a -> res2c_branch2a (in-place)
I0315 12:06:46.072067 13464 layer_factory.hpp:77] Creating layer scale2c_branch2a
I0315 12:06:46.072216 13464 net.cpp:150] Setting up scale2c_branch2a
I0315 12:06:46.072233 13464 net.cpp:157] Top shape: 8 64 56 56 (1605632)
I0315 12:06:46.072242 13464 net.cpp:165] Memory required for data: 695239648
I0315 12:06:46.072257 13464 layer_factory.hpp:77] Creating layer res2c_branch2a_relu
I0315 12:06:46.072269 13464 net.cpp:106] Creating Layer res2c_branch2a_relu
I0315 12:06:46.072280 13464 net.cpp:454] res2c_branch2a_relu <- res2c_branch2a
I0315 12:06:46.072294 13464 net.cpp:397] res2c_branch2a_relu -> res2c_branch2a (in-place)
I0315 12:06:46.072309 13464 net.cpp:150] Setting up res2c_branch2a_relu
I0315 12:06:46.072321 13464 net.cpp:157] Top shape: 8 64 56 56 (1605632)
I0315 12:06:46.072330 13464 net.cpp:165] Memory required for data: 701662176
I0315 12:06:46.072340 13464 layer_factory.hpp:77] Creating layer res2c_branch2b
I0315 12:06:46.072357 13464 net.cpp:106] Creating Layer res2c_branch2b
I0315 12:06:46.072368 13464 net.cpp:454] res2c_branch2b <- res2c_branch2a
I0315 12:06:46.072381 13464 net.cpp:411] res2c_branch2b -> res2c_branch2b
I0315 12:06:46.072607 13464 net.cpp:150] Setting up res2c_branch2b
I0315 12:06:46.072636 13464 net.cpp:157] Top shape: 8 64 56 56 (1605632)
I0315 12:06:46.072648 13464 net.cpp:165] Memory required for data: 708084704
I0315 12:06:46.072659 13464 layer_factory.hpp:77] Creating layer bn2c_branch2b
I0315 12:06:46.072672 13464 net.cpp:106] Creating Layer bn2c_branch2b
I0315 12:06:46.072682 13464 net.cpp:454] bn2c_branch2b <- res2c_branch2b
I0315 12:06:46.072696 13464 net.cpp:397] bn2c_branch2b -> res2c_branch2b (in-place)
I0315 12:06:46.072916 13464 net.cpp:150] Setting up bn2c_branch2b
I0315 12:06:46.072933 13464 net.cpp:157] Top shape: 8 64 56 56 (1605632)
I0315 12:06:46.072942 13464 net.cpp:165] Memory required for data: 714507232
I0315 12:06:46.072979 13464 layer_factory.hpp:77] Creating layer scale2c_branch2b
I0315 12:06:46.072994 13464 net.cpp:106] Creating Layer scale2c_branch2b
I0315 12:06:46.073004 13464 net.cpp:454] scale2c_branch2b <- res2c_branch2b
I0315 12:06:46.073016 13464 net.cpp:397] scale2c_branch2b -> res2c_branch2b (in-place)
I0315 12:06:46.073076 13464 layer_factory.hpp:77] Creating layer scale2c_branch2b
I0315 12:06:46.073227 13464 net.cpp:150] Setting up scale2c_branch2b
I0315 12:06:46.073246 13464 net.cpp:157] Top shape: 8 64 56 56 (1605632)
I0315 12:06:46.073256 13464 net.cpp:165] Memory required for data: 720929760
I0315 12:06:46.073269 13464 layer_factory.hpp:77] Creating layer res2c_branch2b_relu
I0315 12:06:46.073282 13464 net.cpp:106] Creating Layer res2c_branch2b_relu
I0315 12:06:46.073299 13464 net.cpp:454] res2c_branch2b_relu <- res2c_branch2b
I0315 12:06:46.073321 13464 net.cpp:397] res2c_branch2b_relu -> res2c_branch2b (in-place)
I0315 12:06:46.073335 13464 net.cpp:150] Setting up res2c_branch2b_relu
I0315 12:06:46.073348 13464 net.cpp:157] Top shape: 8 64 56 56 (1605632)
I0315 12:06:46.073356 13464 net.cpp:165] Memory required for data: 727352288
I0315 12:06:46.073366 13464 layer_factory.hpp:77] Creating layer res2c_branch2c
I0315 12:06:46.073384 13464 net.cpp:106] Creating Layer res2c_branch2c
I0315 12:06:46.073395 13464 net.cpp:454] res2c_branch2c <- res2c_branch2b
I0315 12:06:46.073410 13464 net.cpp:411] res2c_branch2c -> res2c_branch2c
I0315 12:06:46.073635 13464 net.cpp:150] Setting up res2c_branch2c
I0315 12:06:46.073654 13464 net.cpp:157] Top shape: 8 256 56 56 (6422528)
I0315 12:06:46.073664 13464 net.cpp:165] Memory required for data: 753042400
I0315 12:06:46.073676 13464 layer_factory.hpp:77] Creating layer bn2c_branch2c
I0315 12:06:46.073689 13464 net.cpp:106] Creating Layer bn2c_branch2c
I0315 12:06:46.073705 13464 net.cpp:454] bn2c_branch2c <- res2c_branch2c
I0315 12:06:46.073721 13464 net.cpp:397] bn2c_branch2c -> res2c_branch2c (in-place)
I0315 12:06:46.073930 13464 net.cpp:150] Setting up bn2c_branch2c
I0315 12:06:46.073947 13464 net.cpp:157] Top shape: 8 256 56 56 (6422528)
I0315 12:06:46.073957 13464 net.cpp:165] Memory required for data: 778732512
I0315 12:06:46.073973 13464 layer_factory.hpp:77] Creating layer scale2c_branch2c
I0315 12:06:46.073990 13464 net.cpp:106] Creating Layer scale2c_branch2c
I0315 12:06:46.074002 13464 net.cpp:454] scale2c_branch2c <- res2c_branch2c
I0315 12:06:46.074014 13464 net.cpp:397] scale2c_branch2c -> res2c_branch2c (in-place)
I0315 12:06:46.074069 13464 layer_factory.hpp:77] Creating layer scale2c_branch2c
I0315 12:06:46.074211 13464 net.cpp:150] Setting up scale2c_branch2c
I0315 12:06:46.074229 13464 net.cpp:157] Top shape: 8 256 56 56 (6422528)
I0315 12:06:46.074239 13464 net.cpp:165] Memory required for data: 804422624
I0315 12:06:46.074270 13464 layer_factory.hpp:77] Creating layer res2c
I0315 12:06:46.074288 13464 net.cpp:106] Creating Layer res2c
I0315 12:06:46.074300 13464 net.cpp:454] res2c <- res2b_res2b_relu_0_split_1
I0315 12:06:46.074311 13464 net.cpp:454] res2c <- res2c_branch2c
I0315 12:06:46.074323 13464 net.cpp:411] res2c -> res2c
I0315 12:06:46.074358 13464 net.cpp:150] Setting up res2c
I0315 12:06:46.074374 13464 net.cpp:157] Top shape: 8 256 56 56 (6422528)
I0315 12:06:46.074384 13464 net.cpp:165] Memory required for data: 830112736
I0315 12:06:46.074394 13464 layer_factory.hpp:77] Creating layer res2c_relu
I0315 12:06:46.074406 13464 net.cpp:106] Creating Layer res2c_relu
I0315 12:06:46.074416 13464 net.cpp:454] res2c_relu <- res2c
I0315 12:06:46.074427 13464 net.cpp:397] res2c_relu -> res2c (in-place)
I0315 12:06:46.074441 13464 net.cpp:150] Setting up res2c_relu
I0315 12:06:46.074457 13464 net.cpp:157] Top shape: 8 256 56 56 (6422528)
I0315 12:06:46.074466 13464 net.cpp:165] Memory required for data: 855802848
I0315 12:06:46.074476 13464 layer_factory.hpp:77] Creating layer res2c_res2c_relu_0_split
I0315 12:06:46.074492 13464 net.cpp:106] Creating Layer res2c_res2c_relu_0_split
I0315 12:06:46.074503 13464 net.cpp:454] res2c_res2c_relu_0_split <- res2c
I0315 12:06:46.074515 13464 net.cpp:411] res2c_res2c_relu_0_split -> res2c_res2c_relu_0_split_0
I0315 12:06:46.074529 13464 net.cpp:411] res2c_res2c_relu_0_split -> res2c_res2c_relu_0_split_1
I0315 12:06:46.074578 13464 net.cpp:150] Setting up res2c_res2c_relu_0_split
I0315 12:06:46.074594 13464 net.cpp:157] Top shape: 8 256 56 56 (6422528)
I0315 12:06:46.074604 13464 net.cpp:157] Top shape: 8 256 56 56 (6422528)
I0315 12:06:46.074614 13464 net.cpp:165] Memory required for data: 907183072
I0315 12:06:46.074622 13464 layer_factory.hpp:77] Creating layer res3a_branch1
I0315 12:06:46.074637 13464 net.cpp:106] Creating Layer res3a_branch1
I0315 12:06:46.074648 13464 net.cpp:454] res3a_branch1 <- res2c_res2c_relu_0_split_0
I0315 12:06:46.074661 13464 net.cpp:411] res3a_branch1 -> res3a_branch1
I0315 12:06:46.075690 13464 net.cpp:150] Setting up res3a_branch1
I0315 12:06:46.075713 13464 net.cpp:157] Top shape: 8 512 28 28 (3211264)
I0315 12:06:46.075724 13464 net.cpp:165] Memory required for data: 920028128
I0315 12:06:46.075737 13464 layer_factory.hpp:77] Creating layer bn3a_branch1
I0315 12:06:46.075754 13464 net.cpp:106] Creating Layer bn3a_branch1
I0315 12:06:46.075764 13464 net.cpp:454] bn3a_branch1 <- res3a_branch1
I0315 12:06:46.075778 13464 net.cpp:397] bn3a_branch1 -> res3a_branch1 (in-place)
I0315 12:06:46.076700 13464 net.cpp:150] Setting up bn3a_branch1
I0315 12:06:46.076723 13464 net.cpp:157] Top shape: 8 512 28 28 (3211264)
I0315 12:06:46.076735 13464 net.cpp:165] Memory required for data: 932873184
I0315 12:06:46.076750 13464 layer_factory.hpp:77] Creating layer scale3a_branch1
I0315 12:06:46.076764 13464 net.cpp:106] Creating Layer scale3a_branch1
I0315 12:06:46.076776 13464 net.cpp:454] scale3a_branch1 <- res3a_branch1
I0315 12:06:46.076787 13464 net.cpp:397] scale3a_branch1 -> res3a_branch1 (in-place)
I0315 12:06:46.076850 13464 layer_factory.hpp:77] Creating layer scale3a_branch1
I0315 12:06:46.076992 13464 net.cpp:150] Setting up scale3a_branch1
I0315 12:06:46.077009 13464 net.cpp:157] Top shape: 8 512 28 28 (3211264)
I0315 12:06:46.077019 13464 net.cpp:165] Memory required for data: 945718240
I0315 12:06:46.077033 13464 layer_factory.hpp:77] Creating layer res3a_branch2a
I0315 12:06:46.077054 13464 net.cpp:106] Creating Layer res3a_branch2a
I0315 12:06:46.077064 13464 net.cpp:454] res3a_branch2a <- res2c_res2c_relu_0_split_1
I0315 12:06:46.077078 13464 net.cpp:411] res3a_branch2a -> res3a_branch2a
I0315 12:06:46.077313 13464 net.cpp:150] Setting up res3a_branch2a
I0315 12:06:46.077333 13464 net.cpp:157] Top shape: 8 128 28 28 (802816)
I0315 12:06:46.077343 13464 net.cpp:165] Memory required for data: 948929504
I0315 12:06:46.077355 13464 layer_factory.hpp:77] Creating layer bn3a_branch2a
I0315 12:06:46.077368 13464 net.cpp:106] Creating Layer bn3a_branch2a
I0315 12:06:46.077379 13464 net.cpp:454] bn3a_branch2a <- res3a_branch2a
I0315 12:06:46.077391 13464 net.cpp:397] bn3a_branch2a -> res3a_branch2a (in-place)
I0315 12:06:46.077599 13464 net.cpp:150] Setting up bn3a_branch2a
I0315 12:06:46.077616 13464 net.cpp:157] Top shape: 8 128 28 28 (802816)
I0315 12:06:46.077626 13464 net.cpp:165] Memory required for data: 952140768
I0315 12:06:46.077641 13464 layer_factory.hpp:77] Creating layer scale3a_branch2a
I0315 12:06:46.077656 13464 net.cpp:106] Creating Layer scale3a_branch2a
I0315 12:06:46.077666 13464 net.cpp:454] scale3a_branch2a <- res3a_branch2a
I0315 12:06:46.077678 13464 net.cpp:397] scale3a_branch2a -> res3a_branch2a (in-place)
I0315 12:06:46.077738 13464 layer_factory.hpp:77] Creating layer scale3a_branch2a
I0315 12:06:46.077873 13464 net.cpp:150] Setting up scale3a_branch2a
I0315 12:06:46.077890 13464 net.cpp:157] Top shape: 8 128 28 28 (802816)
I0315 12:06:46.077900 13464 net.cpp:165] Memory required for data: 955352032
I0315 12:06:46.077914 13464 layer_factory.hpp:77] Creating layer res3a_branch2a_relu
I0315 12:06:46.077930 13464 net.cpp:106] Creating Layer res3a_branch2a_relu
I0315 12:06:46.077941 13464 net.cpp:454] res3a_branch2a_relu <- res3a_branch2a
I0315 12:06:46.077953 13464 net.cpp:397] res3a_branch2a_relu -> res3a_branch2a (in-place)
I0315 12:06:46.077967 13464 net.cpp:150] Setting up res3a_branch2a_relu
I0315 12:06:46.077980 13464 net.cpp:157] Top shape: 8 128 28 28 (802816)
I0315 12:06:46.077988 13464 net.cpp:165] Memory required for data: 958563296
I0315 12:06:46.077998 13464 layer_factory.hpp:77] Creating layer res3a_branch2b
I0315 12:06:46.078016 13464 net.cpp:106] Creating Layer res3a_branch2b
I0315 12:06:46.078027 13464 net.cpp:454] res3a_branch2b <- res3a_branch2a
I0315 12:06:46.078039 13464 net.cpp:411] res3a_branch2b -> res3a_branch2b
I0315 12:06:46.078994 13464 net.cpp:150] Setting up res3a_branch2b
I0315 12:06:46.079016 13464 net.cpp:157] Top shape: 8 128 28 28 (802816)
I0315 12:06:46.079027 13464 net.cpp:165] Memory required for data: 961774560
I0315 12:06:46.079047 13464 layer_factory.hpp:77] Creating layer bn3a_branch2b
I0315 12:06:46.079071 13464 net.cpp:106] Creating Layer bn3a_branch2b
I0315 12:06:46.079083 13464 net.cpp:454] bn3a_branch2b <- res3a_branch2b
I0315 12:06:46.079095 13464 net.cpp:397] bn3a_branch2b -> res3a_branch2b (in-place)
I0315 12:06:46.079311 13464 net.cpp:150] Setting up bn3a_branch2b
I0315 12:06:46.079329 13464 net.cpp:157] Top shape: 8 128 28 28 (802816)
I0315 12:06:46.079339 13464 net.cpp:165] Memory required for data: 964985824
I0315 12:06:46.079355 13464 layer_factory.hpp:77] Creating layer scale3a_branch2b
I0315 12:06:46.079375 13464 net.cpp:106] Creating Layer scale3a_branch2b
I0315 12:06:46.079386 13464 net.cpp:454] scale3a_branch2b <- res3a_branch2b
I0315 12:06:46.079398 13464 net.cpp:397] scale3a_branch2b -> res3a_branch2b (in-place)
I0315 12:06:46.079457 13464 layer_factory.hpp:77] Creating layer scale3a_branch2b
I0315 12:06:46.079594 13464 net.cpp:150] Setting up scale3a_branch2b
I0315 12:06:46.079612 13464 net.cpp:157] Top shape: 8 128 28 28 (802816)
I0315 12:06:46.079622 13464 net.cpp:165] Memory required for data: 968197088
I0315 12:06:46.079635 13464 layer_factory.hpp:77] Creating layer res3a_branch2b_relu
I0315 12:06:46.079659 13464 net.cpp:106] Creating Layer res3a_branch2b_relu
I0315 12:06:46.079671 13464 net.cpp:454] res3a_branch2b_relu <- res3a_branch2b
I0315 12:06:46.079684 13464 net.cpp:397] res3a_branch2b_relu -> res3a_branch2b (in-place)
I0315 12:06:46.079697 13464 net.cpp:150] Setting up res3a_branch2b_relu
I0315 12:06:46.079710 13464 net.cpp:157] Top shape: 8 128 28 28 (802816)
I0315 12:06:46.079718 13464 net.cpp:165] Memory required for data: 971408352
I0315 12:06:46.079728 13464 layer_factory.hpp:77] Creating layer res3a_branch2c
I0315 12:06:46.079743 13464 net.cpp:106] Creating Layer res3a_branch2c
I0315 12:06:46.079753 13464 net.cpp:454] res3a_branch2c <- res3a_branch2b
I0315 12:06:46.079768 13464 net.cpp:411] res3a_branch2c -> res3a_branch2c
I0315 12:06:46.080041 13464 net.cpp:150] Setting up res3a_branch2c
I0315 12:06:46.080061 13464 net.cpp:157] Top shape: 8 512 28 28 (3211264)
I0315 12:06:46.080070 13464 net.cpp:165] Memory required for data: 984253408
I0315 12:06:46.080082 13464 layer_factory.hpp:77] Creating layer bn3a_branch2c
I0315 12:06:46.080099 13464 net.cpp:106] Creating Layer bn3a_branch2c
I0315 12:06:46.080111 13464 net.cpp:454] bn3a_branch2c <- res3a_branch2c
I0315 12:06:46.080122 13464 net.cpp:397] bn3a_branch2c -> res3a_branch2c (in-place)
I0315 12:06:46.080330 13464 net.cpp:150] Setting up bn3a_branch2c
I0315 12:06:46.080348 13464 net.cpp:157] Top shape: 8 512 28 28 (3211264)
I0315 12:06:46.080358 13464 net.cpp:165] Memory required for data: 997098464
I0315 12:06:46.080374 13464 layer_factory.hpp:77] Creating layer scale3a_branch2c
I0315 12:06:46.080386 13464 net.cpp:106] Creating Layer scale3a_branch2c
I0315 12:06:46.080396 13464 net.cpp:454] scale3a_branch2c <- res3a_branch2c
I0315 12:06:46.080411 13464 net.cpp:397] scale3a_branch2c -> res3a_branch2c (in-place)
I0315 12:06:46.080467 13464 layer_factory.hpp:77] Creating layer scale3a_branch2c
I0315 12:06:46.080601 13464 net.cpp:150] Setting up scale3a_branch2c
I0315 12:06:46.080629 13464 net.cpp:157] Top shape: 8 512 28 28 (3211264)
I0315 12:06:46.080641 13464 net.cpp:165] Memory required for data: 1009943520
I0315 12:06:46.080654 13464 layer_factory.hpp:77] Creating layer res3a
I0315 12:06:46.080668 13464 net.cpp:106] Creating Layer res3a
I0315 12:06:46.080678 13464 net.cpp:454] res3a <- res3a_branch1
I0315 12:06:46.080689 13464 net.cpp:454] res3a <- res3a_branch2c
I0315 12:06:46.080701 13464 net.cpp:411] res3a -> res3a
I0315 12:06:46.080744 13464 net.cpp:150] Setting up res3a
I0315 12:06:46.080763 13464 net.cpp:157] Top shape: 8 512 28 28 (3211264)
I0315 12:06:46.080773 13464 net.cpp:165] Memory required for data: 1022788576
I0315 12:06:46.080783 13464 layer_factory.hpp:77] Creating layer res3a_relu
I0315 12:06:46.080796 13464 net.cpp:106] Creating Layer res3a_relu
I0315 12:06:46.080806 13464 net.cpp:454] res3a_relu <- res3a
I0315 12:06:46.080826 13464 net.cpp:397] res3a_relu -> res3a (in-place)
I0315 12:06:46.080849 13464 net.cpp:150] Setting up res3a_relu
I0315 12:06:46.080862 13464 net.cpp:157] Top shape: 8 512 28 28 (3211264)
I0315 12:06:46.080871 13464 net.cpp:165] Memory required for data: 1035633632
I0315 12:06:46.080881 13464 layer_factory.hpp:77] Creating layer res3a_res3a_relu_0_split
I0315 12:06:46.080893 13464 net.cpp:106] Creating Layer res3a_res3a_relu_0_split
I0315 12:06:46.080902 13464 net.cpp:454] res3a_res3a_relu_0_split <- res3a
I0315 12:06:46.080917 13464 net.cpp:411] res3a_res3a_relu_0_split -> res3a_res3a_relu_0_split_0
I0315 12:06:46.080931 13464 net.cpp:411] res3a_res3a_relu_0_split -> res3a_res3a_relu_0_split_1
I0315 12:06:46.080982 13464 net.cpp:150] Setting up res3a_res3a_relu_0_split
I0315 12:06:46.080998 13464 net.cpp:157] Top shape: 8 512 28 28 (3211264)
I0315 12:06:46.081009 13464 net.cpp:157] Top shape: 8 512 28 28 (3211264)
I0315 12:06:46.081018 13464 net.cpp:165] Memory required for data: 1061323744
I0315 12:06:46.081027 13464 layer_factory.hpp:77] Creating layer res3b1_branch2a
I0315 12:06:46.081043 13464 net.cpp:106] Creating Layer res3b1_branch2a
I0315 12:06:46.081053 13464 net.cpp:454] res3b1_branch2a <- res3a_res3a_relu_0_split_0
I0315 12:06:46.081065 13464 net.cpp:411] res3b1_branch2a -> res3b1_branch2a
I0315 12:06:46.081948 13464 net.cpp:150] Setting up res3b1_branch2a
I0315 12:06:46.081970 13464 net.cpp:157] Top shape: 8 128 28 28 (802816)
I0315 12:06:46.081979 13464 net.cpp:165] Memory required for data: 1064535008
I0315 12:06:46.081992 13464 layer_factory.hpp:77] Creating layer bn3b1_branch2a
I0315 12:06:46.082012 13464 net.cpp:106] Creating Layer bn3b1_branch2a
I0315 12:06:46.082026 13464 net.cpp:454] bn3b1_branch2a <- res3b1_branch2a
I0315 12:06:46.082038 13464 net.cpp:397] bn3b1_branch2a -> res3b1_branch2a (in-place)
I0315 12:06:46.082255 13464 net.cpp:150] Setting up bn3b1_branch2a
I0315 12:06:46.082273 13464 net.cpp:157] Top shape: 8 128 28 28 (802816)
I0315 12:06:46.082284 13464 net.cpp:165] Memory required for data: 1067746272
I0315 12:06:46.082300 13464 layer_factory.hpp:77] Creating layer scale3b1_branch2a
I0315 12:06:46.082317 13464 net.cpp:106] Creating Layer scale3b1_branch2a
I0315 12:06:46.082329 13464 net.cpp:454] scale3b1_branch2a <- res3b1_branch2a
I0315 12:06:46.082341 13464 net.cpp:397] scale3b1_branch2a -> res3b1_branch2a (in-place)
I0315 12:06:46.082398 13464 layer_factory.hpp:77] Creating layer scale3b1_branch2a
I0315 12:06:46.082540 13464 net.cpp:150] Setting up scale3b1_branch2a
I0315 12:06:46.082558 13464 net.cpp:157] Top shape: 8 128 28 28 (802816)
I0315 12:06:46.082567 13464 net.cpp:165] Memory required for data: 1070957536
I0315 12:06:46.082581 13464 layer_factory.hpp:77] Creating layer res3b1_branch2a_relu
I0315 12:06:46.082594 13464 net.cpp:106] Creating Layer res3b1_branch2a_relu
I0315 12:06:46.082604 13464 net.cpp:454] res3b1_branch2a_relu <- res3b1_branch2a
I0315 12:06:46.082617 13464 net.cpp:397] res3b1_branch2a_relu -> res3b1_branch2a (in-place)
I0315 12:06:46.082629 13464 net.cpp:150] Setting up res3b1_branch2a_relu
I0315 12:06:46.082641 13464 net.cpp:157] Top shape: 8 128 28 28 (802816)
I0315 12:06:46.082650 13464 net.cpp:165] Memory required for data: 1074168800
I0315 12:06:46.082660 13464 layer_factory.hpp:77] Creating layer res3b1_branch2b
I0315 12:06:46.082677 13464 net.cpp:106] Creating Layer res3b1_branch2b
I0315 12:06:46.082689 13464 net.cpp:454] res3b1_branch2b <- res3b1_branch2a
I0315 12:06:46.082703 13464 net.cpp:411] res3b1_branch2b -> res3b1_branch2b
I0315 12:06:46.083648 13464 net.cpp:150] Setting up res3b1_branch2b
I0315 12:06:46.083672 13464 net.cpp:157] Top shape: 8 128 28 28 (802816)
I0315 12:06:46.083681 13464 net.cpp:165] Memory required for data: 1077380064
I0315 12:06:46.083694 13464 layer_factory.hpp:77] Creating layer bn3b1_branch2b
I0315 12:06:46.083711 13464 net.cpp:106] Creating Layer bn3b1_branch2b
I0315 12:06:46.083722 13464 net.cpp:454] bn3b1_branch2b <- res3b1_branch2b
I0315 12:06:46.083735 13464 net.cpp:397] bn3b1_branch2b -> res3b1_branch2b (in-place)
I0315 12:06:46.083971 13464 net.cpp:150] Setting up bn3b1_branch2b
I0315 12:06:46.083989 13464 net.cpp:157] Top shape: 8 128 28 28 (802816)
I0315 12:06:46.083999 13464 net.cpp:165] Memory required for data: 1080591328
I0315 12:06:46.084014 13464 layer_factory.hpp:77] Creating layer scale3b1_branch2b
I0315 12:06:46.084028 13464 net.cpp:106] Creating Layer scale3b1_branch2b
I0315 12:06:46.084039 13464 net.cpp:454] scale3b1_branch2b <- res3b1_branch2b
I0315 12:06:46.084053 13464 net.cpp:397] scale3b1_branch2b -> res3b1_branch2b (in-place)
I0315 12:06:46.084110 13464 layer_factory.hpp:77] Creating layer scale3b1_branch2b
I0315 12:06:46.084249 13464 net.cpp:150] Setting up scale3b1_branch2b
I0315 12:06:46.084270 13464 net.cpp:157] Top shape: 8 128 28 28 (802816)
I0315 12:06:46.084280 13464 net.cpp:165] Memory required for data: 1083802592
I0315 12:06:46.084295 13464 layer_factory.hpp:77] Creating layer res3b1_branch2b_relu
I0315 12:06:46.084306 13464 net.cpp:106] Creating Layer res3b1_branch2b_relu
I0315 12:06:46.084316 13464 net.cpp:454] res3b1_branch2b_relu <- res3b1_branch2b
I0315 12:06:46.084328 13464 net.cpp:397] res3b1_branch2b_relu -> res3b1_branch2b (in-place)
I0315 12:06:46.084342 13464 net.cpp:150] Setting up res3b1_branch2b_relu
I0315 12:06:46.084354 13464 net.cpp:157] Top shape: 8 128 28 28 (802816)
I0315 12:06:46.084363 13464 net.cpp:165] Memory required for data: 1087013856
I0315 12:06:46.084373 13464 layer_factory.hpp:77] Creating layer res3b1_branch2c
I0315 12:06:46.084389 13464 net.cpp:106] Creating Layer res3b1_branch2c
I0315 12:06:46.084400 13464 net.cpp:454] res3b1_branch2c <- res3b1_branch2b
I0315 12:06:46.084414 13464 net.cpp:411] res3b1_branch2c -> res3b1_branch2c
I0315 12:06:46.084692 13464 net.cpp:150] Setting up res3b1_branch2c
I0315 12:06:46.084714 13464 net.cpp:157] Top shape: 8 512 28 28 (3211264)
I0315 12:06:46.084724 13464 net.cpp:165] Memory required for data: 1099858912
I0315 12:06:46.084738 13464 layer_factory.hpp:77] Creating layer bn3b1_branch2c
I0315 12:06:46.084751 13464 net.cpp:106] Creating Layer bn3b1_branch2c
I0315 12:06:46.084761 13464 net.cpp:454] bn3b1_branch2c <- res3b1_branch2c
I0315 12:06:46.084774 13464 net.cpp:397] bn3b1_branch2c -> res3b1_branch2c (in-place)
I0315 12:06:46.084987 13464 net.cpp:150] Setting up bn3b1_branch2c
I0315 12:06:46.085005 13464 net.cpp:157] Top shape: 8 512 28 28 (3211264)
I0315 12:06:46.085016 13464 net.cpp:165] Memory required for data: 1112703968
I0315 12:06:46.085031 13464 layer_factory.hpp:77] Creating layer scale3b1_branch2c
I0315 12:06:46.085047 13464 net.cpp:106] Creating Layer scale3b1_branch2c
I0315 12:06:46.085058 13464 net.cpp:454] scale3b1_branch2c <- res3b1_branch2c
I0315 12:06:46.085072 13464 net.cpp:397] scale3b1_branch2c -> res3b1_branch2c (in-place)
I0315 12:06:46.085130 13464 layer_factory.hpp:77] Creating layer scale3b1_branch2c
I0315 12:06:46.085269 13464 net.cpp:150] Setting up scale3b1_branch2c
I0315 12:06:46.085288 13464 net.cpp:157] Top shape: 8 512 28 28 (3211264)
I0315 12:06:46.085297 13464 net.cpp:165] Memory required for data: 1125549024
I0315 12:06:46.085310 13464 layer_factory.hpp:77] Creating layer res3b1
I0315 12:06:46.085325 13464 net.cpp:106] Creating Layer res3b1
I0315 12:06:46.085335 13464 net.cpp:454] res3b1 <- res3a_res3a_relu_0_split_1
I0315 12:06:46.085345 13464 net.cpp:454] res3b1 <- res3b1_branch2c
I0315 12:06:46.085361 13464 net.cpp:411] res3b1 -> res3b1
I0315 12:06:46.085397 13464 net.cpp:150] Setting up res3b1
I0315 12:06:46.085418 13464 net.cpp:157] Top shape: 8 512 28 28 (3211264)
I0315 12:06:46.085428 13464 net.cpp:165] Memory required for data: 1138394080
I0315 12:06:46.085438 13464 layer_factory.hpp:77] Creating layer res3b1_relu
I0315 12:06:46.085449 13464 net.cpp:106] Creating Layer res3b1_relu
I0315 12:06:46.085459 13464 net.cpp:454] res3b1_relu <- res3b1
I0315 12:06:46.085471 13464 net.cpp:397] res3b1_relu -> res3b1 (in-place)
I0315 12:06:46.085484 13464 net.cpp:150] Setting up res3b1_relu
I0315 12:06:46.085496 13464 net.cpp:157] Top shape: 8 512 28 28 (3211264)
I0315 12:06:46.085512 13464 net.cpp:165] Memory required for data: 1151239136
I0315 12:06:46.085535 13464 layer_factory.hpp:77] Creating layer res3b1_res3b1_relu_0_split
I0315 12:06:46.085547 13464 net.cpp:106] Creating Layer res3b1_res3b1_relu_0_split
I0315 12:06:46.085557 13464 net.cpp:454] res3b1_res3b1_relu_0_split <- res3b1
I0315 12:06:46.085573 13464 net.cpp:411] res3b1_res3b1_relu_0_split -> res3b1_res3b1_relu_0_split_0
I0315 12:06:46.085588 13464 net.cpp:411] res3b1_res3b1_relu_0_split -> res3b1_res3b1_relu_0_split_1
I0315 12:06:46.085636 13464 net.cpp:150] Setting up res3b1_res3b1_relu_0_split
I0315 12:06:46.085652 13464 net.cpp:157] Top shape: 8 512 28 28 (3211264)
I0315 12:06:46.085664 13464 net.cpp:157] Top shape: 8 512 28 28 (3211264)
I0315 12:06:46.085672 13464 net.cpp:165] Memory required for data: 1176929248
I0315 12:06:46.085681 13464 layer_factory.hpp:77] Creating layer res3b2_branch2a
I0315 12:06:46.085700 13464 net.cpp:106] Creating Layer res3b2_branch2a
I0315 12:06:46.085711 13464 net.cpp:454] res3b2_branch2a <- res3b1_res3b1_relu_0_split_0
I0315 12:06:46.085723 13464 net.cpp:411] res3b2_branch2a -> res3b2_branch2a
I0315 12:06:46.085980 13464 net.cpp:150] Setting up res3b2_branch2a
I0315 12:06:46.085999 13464 net.cpp:157] Top shape: 8 128 28 28 (802816)
I0315 12:06:46.086009 13464 net.cpp:165] Memory required for data: 1180140512
I0315 12:06:46.086021 13464 layer_factory.hpp:77] Creating layer bn3b2_branch2a
I0315 12:06:46.086035 13464 net.cpp:106] Creating Layer bn3b2_branch2a
I0315 12:06:46.086045 13464 net.cpp:454] bn3b2_branch2a <- res3b2_branch2a
I0315 12:06:46.086056 13464 net.cpp:397] bn3b2_branch2a -> res3b2_branch2a (in-place)
I0315 12:06:46.086275 13464 net.cpp:150] Setting up bn3b2_branch2a
I0315 12:06:46.086292 13464 net.cpp:157] Top shape: 8 128 28 28 (802816)
I0315 12:06:46.086302 13464 net.cpp:165] Memory required for data: 1183351776
I0315 12:06:46.086318 13464 layer_factory.hpp:77] Creating layer scale3b2_branch2a
I0315 12:06:46.086331 13464 net.cpp:106] Creating Layer scale3b2_branch2a
I0315 12:06:46.086341 13464 net.cpp:454] scale3b2_branch2a <- res3b2_branch2a
I0315 12:06:46.086354 13464 net.cpp:397] scale3b2_branch2a -> res3b2_branch2a (in-place)
I0315 12:06:46.086412 13464 layer_factory.hpp:77] Creating layer scale3b2_branch2a
I0315 12:06:46.086551 13464 net.cpp:150] Setting up scale3b2_branch2a
I0315 12:06:46.086570 13464 net.cpp:157] Top shape: 8 128 28 28 (802816)
I0315 12:06:46.086578 13464 net.cpp:165] Memory required for data: 1186563040
I0315 12:06:46.086592 13464 layer_factory.hpp:77] Creating layer res3b2_branch2a_relu
I0315 12:06:46.086611 13464 net.cpp:106] Creating Layer res3b2_branch2a_relu
I0315 12:06:46.086623 13464 net.cpp:454] res3b2_branch2a_relu <- res3b2_branch2a
I0315 12:06:46.086634 13464 net.cpp:397] res3b2_branch2a_relu -> res3b2_branch2a (in-place)
I0315 12:06:46.086648 13464 net.cpp:150] Setting up res3b2_branch2a_relu
I0315 12:06:46.086659 13464 net.cpp:157] Top shape: 8 128 28 28 (802816)
I0315 12:06:46.086669 13464 net.cpp:165] Memory required for data: 1189774304
I0315 12:06:46.086678 13464 layer_factory.hpp:77] Creating layer res3b2_branch2b
I0315 12:06:46.086695 13464 net.cpp:106] Creating Layer res3b2_branch2b
I0315 12:06:46.086706 13464 net.cpp:454] res3b2_branch2b <- res3b2_branch2a
I0315 12:06:46.086719 13464 net.cpp:411] res3b2_branch2b -> res3b2_branch2b
I0315 12:06:46.087669 13464 net.cpp:150] Setting up res3b2_branch2b
I0315 12:06:46.087692 13464 net.cpp:157] Top shape: 8 128 28 28 (802816)
I0315 12:06:46.087703 13464 net.cpp:165] Memory required for data: 1192985568
I0315 12:06:46.087715 13464 layer_factory.hpp:77] Creating layer bn3b2_branch2b
I0315 12:06:46.087729 13464 net.cpp:106] Creating Layer bn3b2_branch2b
I0315 12:06:46.087740 13464 net.cpp:454] bn3b2_branch2b <- res3b2_branch2b
I0315 12:06:46.087752 13464 net.cpp:397] bn3b2_branch2b -> res3b2_branch2b (in-place)
I0315 12:06:46.087971 13464 net.cpp:150] Setting up bn3b2_branch2b
I0315 12:06:46.087988 13464 net.cpp:157] Top shape: 8 128 28 28 (802816)
I0315 12:06:46.087998 13464 net.cpp:165] Memory required for data: 1196196832
I0315 12:06:46.088030 13464 layer_factory.hpp:77] Creating layer scale3b2_branch2b
I0315 12:06:46.088048 13464 net.cpp:106] Creating Layer scale3b2_branch2b
I0315 12:06:46.088059 13464 net.cpp:454] scale3b2_branch2b <- res3b2_branch2b
I0315 12:06:46.088071 13464 net.cpp:397] scale3b2_branch2b -> res3b2_branch2b (in-place)
I0315 12:06:46.088129 13464 layer_factory.hpp:77] Creating layer scale3b2_branch2b
I0315 12:06:46.088273 13464 net.cpp:150] Setting up scale3b2_branch2b
I0315 12:06:46.088289 13464 net.cpp:157] Top shape: 8 128 28 28 (802816)
I0315 12:06:46.088299 13464 net.cpp:165] Memory required for data: 1199408096
I0315 12:06:46.088312 13464 layer_factory.hpp:77] Creating layer res3b2_branch2b_relu
I0315 12:06:46.088325 13464 net.cpp:106] Creating Layer res3b2_branch2b_relu
I0315 12:06:46.088336 13464 net.cpp:454] res3b2_branch2b_relu <- res3b2_branch2b
I0315 12:06:46.088351 13464 net.cpp:397] res3b2_branch2b_relu -> res3b2_branch2b (in-place)
I0315 12:06:46.088366 13464 net.cpp:150] Setting up res3b2_branch2b_relu
I0315 12:06:46.088377 13464 net.cpp:157] Top shape: 8 128 28 28 (802816)
I0315 12:06:46.088387 13464 net.cpp:165] Memory required for data: 1202619360
I0315 12:06:46.088397 13464 layer_factory.hpp:77] Creating layer res3b2_branch2c
I0315 12:06:46.088413 13464 net.cpp:106] Creating Layer res3b2_branch2c
I0315 12:06:46.088424 13464 net.cpp:454] res3b2_branch2c <- res3b2_branch2b
I0315 12:06:46.088438 13464 net.cpp:411] res3b2_branch2c -> res3b2_branch2c
I0315 12:06:46.088696 13464 net.cpp:150] Setting up res3b2_branch2c
I0315 12:06:46.088716 13464 net.cpp:157] Top shape: 8 512 28 28 (3211264)
I0315 12:06:46.088726 13464 net.cpp:165] Memory required for data: 1215464416
I0315 12:06:46.088738 13464 layer_factory.hpp:77] Creating layer bn3b2_branch2c
I0315 12:06:46.088752 13464 net.cpp:106] Creating Layer bn3b2_branch2c
I0315 12:06:46.088762 13464 net.cpp:454] bn3b2_branch2c <- res3b2_branch2c
I0315 12:06:46.088773 13464 net.cpp:397] bn3b2_branch2c -> res3b2_branch2c (in-place)
I0315 12:06:46.088990 13464 net.cpp:150] Setting up bn3b2_branch2c
I0315 12:06:46.089009 13464 net.cpp:157] Top shape: 8 512 28 28 (3211264)
I0315 12:06:46.089017 13464 net.cpp:165] Memory required for data: 1228309472
I0315 12:06:46.089036 13464 layer_factory.hpp:77] Creating layer scale3b2_branch2c
I0315 12:06:46.089051 13464 net.cpp:106] Creating Layer scale3b2_branch2c
I0315 12:06:46.089061 13464 net.cpp:454] scale3b2_branch2c <- res3b2_branch2c
I0315 12:06:46.089072 13464 net.cpp:397] scale3b2_branch2c -> res3b2_branch2c (in-place)
I0315 12:06:46.089135 13464 layer_factory.hpp:77] Creating layer scale3b2_branch2c
I0315 12:06:46.089277 13464 net.cpp:150] Setting up scale3b2_branch2c
I0315 12:06:46.089294 13464 net.cpp:157] Top shape: 8 512 28 28 (3211264)
I0315 12:06:46.089304 13464 net.cpp:165] Memory required for data: 1241154528
I0315 12:06:46.089318 13464 layer_factory.hpp:77] Creating layer res3b2
I0315 12:06:46.089334 13464 net.cpp:106] Creating Layer res3b2
I0315 12:06:46.089346 13464 net.cpp:454] res3b2 <- res3b1_res3b1_relu_0_split_1
I0315 12:06:46.089357 13464 net.cpp:454] res3b2 <- res3b2_branch2c
I0315 12:06:46.089370 13464 net.cpp:411] res3b2 -> res3b2
I0315 12:06:46.089408 13464 net.cpp:150] Setting up res3b2
I0315 12:06:46.089424 13464 net.cpp:157] Top shape: 8 512 28 28 (3211264)
I0315 12:06:46.089433 13464 net.cpp:165] Memory required for data: 1253999584
I0315 12:06:46.089443 13464 layer_factory.hpp:77] Creating layer res3b2_relu
I0315 12:06:46.089455 13464 net.cpp:106] Creating Layer res3b2_relu
I0315 12:06:46.089465 13464 net.cpp:454] res3b2_relu <- res3b2
I0315 12:06:46.089480 13464 net.cpp:397] res3b2_relu -> res3b2 (in-place)
I0315 12:06:46.089495 13464 net.cpp:150] Setting up res3b2_relu
I0315 12:06:46.089507 13464 net.cpp:157] Top shape: 8 512 28 28 (3211264)
I0315 12:06:46.089516 13464 net.cpp:165] Memory required for data: 1266844640
I0315 12:06:46.089525 13464 layer_factory.hpp:77] Creating layer res3b2_res3b2_relu_0_split
I0315 12:06:46.089537 13464 net.cpp:106] Creating Layer res3b2_res3b2_relu_0_split
I0315 12:06:46.089562 13464 net.cpp:454] res3b2_res3b2_relu_0_split <- res3b2
I0315 12:06:46.089576 13464 net.cpp:411] res3b2_res3b2_relu_0_split -> res3b2_res3b2_relu_0_split_0
I0315 12:06:46.089589 13464 net.cpp:411] res3b2_res3b2_relu_0_split -> res3b2_res3b2_relu_0_split_1
I0315 12:06:46.089642 13464 net.cpp:150] Setting up res3b2_res3b2_relu_0_split
I0315 12:06:46.089658 13464 net.cpp:157] Top shape: 8 512 28 28 (3211264)
I0315 12:06:46.089668 13464 net.cpp:157] Top shape: 8 512 28 28 (3211264)
I0315 12:06:46.089678 13464 net.cpp:165] Memory required for data: 1292534752
I0315 12:06:46.089687 13464 layer_factory.hpp:77] Creating layer res3b3_branch2a
I0315 12:06:46.089701 13464 net.cpp:106] Creating Layer res3b3_branch2a
I0315 12:06:46.089712 13464 net.cpp:454] res3b3_branch2a <- res3b2_res3b2_relu_0_split_0
I0315 12:06:46.089725 13464 net.cpp:411] res3b3_branch2a -> res3b3_branch2a
I0315 12:06:46.090638 13464 net.cpp:150] Setting up res3b3_branch2a
I0315 12:06:46.090662 13464 net.cpp:157] Top shape: 8 128 28 28 (802816)
I0315 12:06:46.090672 13464 net.cpp:165] Memory required for data: 1295746016
I0315 12:06:46.090684 13464 layer_factory.hpp:77] Creating layer bn3b3_branch2a
I0315 12:06:46.090698 13464 net.cpp:106] Creating Layer bn3b3_branch2a
I0315 12:06:46.090709 13464 net.cpp:454] bn3b3_branch2a <- res3b3_branch2a
I0315 12:06:46.090721 13464 net.cpp:397] bn3b3_branch2a -> res3b3_branch2a (in-place)
I0315 12:06:46.090944 13464 net.cpp:150] Setting up bn3b3_branch2a
I0315 12:06:46.090961 13464 net.cpp:157] Top shape: 8 128 28 28 (802816)
I0315 12:06:46.090971 13464 net.cpp:165] Memory required for data: 1298957280
I0315 12:06:46.091006 13464 layer_factory.hpp:77] Creating layer scale3b3_branch2a
I0315 12:06:46.091027 13464 net.cpp:106] Creating Layer scale3b3_branch2a
I0315 12:06:46.091038 13464 net.cpp:454] scale3b3_branch2a <- res3b3_branch2a
I0315 12:06:46.091050 13464 net.cpp:397] scale3b3_branch2a -> res3b3_branch2a (in-place)
I0315 12:06:46.091114 13464 layer_factory.hpp:77] Creating layer scale3b3_branch2a
I0315 12:06:46.091256 13464 net.cpp:150] Setting up scale3b3_branch2a
I0315 12:06:46.091274 13464 net.cpp:157] Top shape: 8 128 28 28 (802816)
I0315 12:06:46.091284 13464 net.cpp:165] Memory required for data: 1302168544
I0315 12:06:46.091297 13464 layer_factory.hpp:77] Creating layer res3b3_branch2a_relu
I0315 12:06:46.091310 13464 net.cpp:106] Creating Layer res3b3_branch2a_relu
I0315 12:06:46.091321 13464 net.cpp:454] res3b3_branch2a_relu <- res3b3_branch2a
I0315 12:06:46.091332 13464 net.cpp:397] res3b3_branch2a_relu -> res3b3_branch2a (in-place)
I0315 12:06:46.091346 13464 net.cpp:150] Setting up res3b3_branch2a_relu
I0315 12:06:46.091358 13464 net.cpp:157] Top shape: 8 128 28 28 (802816)
I0315 12:06:46.091367 13464 net.cpp:165] Memory required for data: 1305379808
I0315 12:06:46.091377 13464 layer_factory.hpp:77] Creating layer res3b3_branch2b
I0315 12:06:46.091394 13464 net.cpp:106] Creating Layer res3b3_branch2b
I0315 12:06:46.091405 13464 net.cpp:454] res3b3_branch2b <- res3b3_branch2a
I0315 12:06:46.091421 13464 net.cpp:411] res3b3_branch2b -> res3b3_branch2b
I0315 12:06:46.092381 13464 net.cpp:150] Setting up res3b3_branch2b
I0315 12:06:46.092403 13464 net.cpp:157] Top shape: 8 128 28 28 (802816)
I0315 12:06:46.092413 13464 net.cpp:165] Memory required for data: 1308591072
I0315 12:06:46.092425 13464 layer_factory.hpp:77] Creating layer bn3b3_branch2b
I0315 12:06:46.092442 13464 net.cpp:106] Creating Layer bn3b3_branch2b
I0315 12:06:46.092453 13464 net.cpp:454] bn3b3_branch2b <- res3b3_branch2b
I0315 12:06:46.092465 13464 net.cpp:397] bn3b3_branch2b -> res3b3_branch2b (in-place)
I0315 12:06:46.092694 13464 net.cpp:150] Setting up bn3b3_branch2b
I0315 12:06:46.092715 13464 net.cpp:157] Top shape: 8 128 28 28 (802816)
I0315 12:06:46.092725 13464 net.cpp:165] Memory required for data: 1311802336
I0315 12:06:46.092741 13464 layer_factory.hpp:77] Creating layer scale3b3_branch2b
I0315 12:06:46.092754 13464 net.cpp:106] Creating Layer scale3b3_branch2b
I0315 12:06:46.092773 13464 net.cpp:454] scale3b3_branch2b <- res3b3_branch2b
I0315 12:06:46.092799 13464 net.cpp:397] scale3b3_branch2b -> res3b3_branch2b (in-place)
I0315 12:06:46.092856 13464 layer_factory.hpp:77] Creating layer scale3b3_branch2b
I0315 12:06:46.093003 13464 net.cpp:150] Setting up scale3b3_branch2b
I0315 12:06:46.093019 13464 net.cpp:157] Top shape: 8 128 28 28 (802816)
I0315 12:06:46.093029 13464 net.cpp:165] Memory required for data: 1315013600
I0315 12:06:46.093044 13464 layer_factory.hpp:77] Creating layer res3b3_branch2b_relu
I0315 12:06:46.093060 13464 net.cpp:106] Creating Layer res3b3_branch2b_relu
I0315 12:06:46.093070 13464 net.cpp:454] res3b3_branch2b_relu <- res3b3_branch2b
I0315 12:06:46.093081 13464 net.cpp:397] res3b3_branch2b_relu -> res3b3_branch2b (in-place)
I0315 12:06:46.093094 13464 net.cpp:150] Setting up res3b3_branch2b_relu
I0315 12:06:46.093106 13464 net.cpp:157] Top shape: 8 128 28 28 (802816)
I0315 12:06:46.093116 13464 net.cpp:165] Memory required for data: 1318224864
I0315 12:06:46.093125 13464 layer_factory.hpp:77] Creating layer res3b3_branch2c
I0315 12:06:46.093142 13464 net.cpp:106] Creating Layer res3b3_branch2c
I0315 12:06:46.093152 13464 net.cpp:454] res3b3_branch2c <- res3b3_branch2b
I0315 12:06:46.093165 13464 net.cpp:411] res3b3_branch2c -> res3b3_branch2c
I0315 12:06:46.093436 13464 net.cpp:150] Setting up res3b3_branch2c
I0315 12:06:46.093456 13464 net.cpp:157] Top shape: 8 512 28 28 (3211264)
I0315 12:06:46.093466 13464 net.cpp:165] Memory required for data: 1331069920
I0315 12:06:46.093477 13464 layer_factory.hpp:77] Creating layer bn3b3_branch2c
I0315 12:06:46.093490 13464 net.cpp:106] Creating Layer bn3b3_branch2c
I0315 12:06:46.093502 13464 net.cpp:454] bn3b3_branch2c <- res3b3_branch2c
I0315 12:06:46.093513 13464 net.cpp:397] bn3b3_branch2c -> res3b3_branch2c (in-place)
I0315 12:06:46.093727 13464 net.cpp:150] Setting up bn3b3_branch2c
I0315 12:06:46.093745 13464 net.cpp:157] Top shape: 8 512 28 28 (3211264)
I0315 12:06:46.093755 13464 net.cpp:165] Memory required for data: 1343914976
I0315 12:06:46.093770 13464 layer_factory.hpp:77] Creating layer scale3b3_branch2c
I0315 12:06:46.093787 13464 net.cpp:106] Creating Layer scale3b3_branch2c
I0315 12:06:46.093797 13464 net.cpp:454] scale3b3_branch2c <- res3b3_branch2c
I0315 12:06:46.093811 13464 net.cpp:397] scale3b3_branch2c -> res3b3_branch2c (in-place)
I0315 12:06:46.093870 13464 layer_factory.hpp:77] Creating layer scale3b3_branch2c
I0315 12:06:46.094009 13464 net.cpp:150] Setting up scale3b3_branch2c
I0315 12:06:46.094027 13464 net.cpp:157] Top shape: 8 512 28 28 (3211264)
I0315 12:06:46.094036 13464 net.cpp:165] Memory required for data: 1356760032
I0315 12:06:46.094050 13464 layer_factory.hpp:77] Creating layer res3b3
I0315 12:06:46.094063 13464 net.cpp:106] Creating Layer res3b3
I0315 12:06:46.094074 13464 net.cpp:454] res3b3 <- res3b2_res3b2_relu_0_split_1
I0315 12:06:46.094084 13464 net.cpp:454] res3b3 <- res3b3_branch2c
I0315 12:06:46.094100 13464 net.cpp:411] res3b3 -> res3b3
I0315 12:06:46.094135 13464 net.cpp:150] Setting up res3b3
I0315 12:06:46.094156 13464 net.cpp:157] Top shape: 8 512 28 28 (3211264)
I0315 12:06:46.094166 13464 net.cpp:165] Memory required for data: 1369605088
I0315 12:06:46.094175 13464 layer_factory.hpp:77] Creating layer res3b3_relu
I0315 12:06:46.094187 13464 net.cpp:106] Creating Layer res3b3_relu
I0315 12:06:46.094197 13464 net.cpp:454] res3b3_relu <- res3b3
I0315 12:06:46.094209 13464 net.cpp:397] res3b3_relu -> res3b3 (in-place)
I0315 12:06:46.094223 13464 net.cpp:150] Setting up res3b3_relu
I0315 12:06:46.094234 13464 net.cpp:157] Top shape: 8 512 28 28 (3211264)
I0315 12:06:46.094244 13464 net.cpp:165] Memory required for data: 1382450144
I0315 12:06:46.094252 13464 layer_factory.hpp:77] Creating layer res3b3_res3b3_relu_0_split
I0315 12:06:46.094264 13464 net.cpp:106] Creating Layer res3b3_res3b3_relu_0_split
I0315 12:06:46.094272 13464 net.cpp:454] res3b3_res3b3_relu_0_split <- res3b3
I0315 12:06:46.094287 13464 net.cpp:411] res3b3_res3b3_relu_0_split -> res3b3_res3b3_relu_0_split_0
I0315 12:06:46.094308 13464 net.cpp:411] res3b3_res3b3_relu_0_split -> res3b3_res3b3_relu_0_split_1
I0315 12:06:46.094367 13464 net.cpp:150] Setting up res3b3_res3b3_relu_0_split
I0315 12:06:46.094383 13464 net.cpp:157] Top shape: 8 512 28 28 (3211264)
I0315 12:06:46.094393 13464 net.cpp:157] Top shape: 8 512 28 28 (3211264)
I0315 12:06:46.094403 13464 net.cpp:165] Memory required for data: 1408140256
I0315 12:06:46.094413 13464 layer_factory.hpp:77] Creating layer res3b4_branch2a
I0315 12:06:46.094432 13464 net.cpp:106] Creating Layer res3b4_branch2a
I0315 12:06:46.094445 13464 net.cpp:454] res3b4_branch2a <- res3b3_res3b3_relu_0_split_0
I0315 12:06:46.094458 13464 net.cpp:411] res3b4_branch2a -> res3b4_branch2a
I0315 12:06:46.094717 13464 net.cpp:150] Setting up res3b4_branch2a
I0315 12:06:46.094736 13464 net.cpp:157] Top shape: 8 128 28 28 (802816)
I0315 12:06:46.094746 13464 net.cpp:165] Memory required for data: 1411351520
I0315 12:06:46.094758 13464 layer_factory.hpp:77] Creating layer bn3b4_branch2a
I0315 12:06:46.094771 13464 net.cpp:106] Creating Layer bn3b4_branch2a
I0315 12:06:46.094782 13464 net.cpp:454] bn3b4_branch2a <- res3b4_branch2a
I0315 12:06:46.094794 13464 net.cpp:397] bn3b4_branch2a -> res3b4_branch2a (in-place)
I0315 12:06:46.095015 13464 net.cpp:150] Setting up bn3b4_branch2a
I0315 12:06:46.095032 13464 net.cpp:157] Top shape: 8 128 28 28 (802816)
I0315 12:06:46.095041 13464 net.cpp:165] Memory required for data: 1414562784
I0315 12:06:46.095057 13464 layer_factory.hpp:77] Creating layer scale3b4_branch2a
I0315 12:06:46.095070 13464 net.cpp:106] Creating Layer scale3b4_branch2a
I0315 12:06:46.095080 13464 net.cpp:454] scale3b4_branch2a <- res3b4_branch2a
I0315 12:06:46.095093 13464 net.cpp:397] scale3b4_branch2a -> res3b4_branch2a (in-place)
I0315 12:06:46.095152 13464 layer_factory.hpp:77] Creating layer scale3b4_branch2a
I0315 12:06:46.095293 13464 net.cpp:150] Setting up scale3b4_branch2a
I0315 12:06:46.095310 13464 net.cpp:157] Top shape: 8 128 28 28 (802816)
I0315 12:06:46.095319 13464 net.cpp:165] Memory required for data: 1417774048
I0315 12:06:46.095333 13464 layer_factory.hpp:77] Creating layer res3b4_branch2a_relu
I0315 12:06:46.095348 13464 net.cpp:106] Creating Layer res3b4_branch2a_relu
I0315 12:06:46.095360 13464 net.cpp:454] res3b4_branch2a_relu <- res3b4_branch2a
I0315 12:06:46.095371 13464 net.cpp:397] res3b4_branch2a_relu -> res3b4_branch2a (in-place)
I0315 12:06:46.095384 13464 net.cpp:150] Setting up res3b4_branch2a_relu
I0315 12:06:46.095396 13464 net.cpp:157] Top shape: 8 128 28 28 (802816)
I0315 12:06:46.095405 13464 net.cpp:165] Memory required for data: 1420985312
I0315 12:06:46.095415 13464 layer_factory.hpp:77] Creating layer res3b4_branch2b
I0315 12:06:46.095432 13464 net.cpp:106] Creating Layer res3b4_branch2b
I0315 12:06:46.095443 13464 net.cpp:454] res3b4_branch2b <- res3b4_branch2a
I0315 12:06:46.095454 13464 net.cpp:411] res3b4_branch2b -> res3b4_branch2b
I0315 12:06:46.096416 13464 net.cpp:150] Setting up res3b4_branch2b
I0315 12:06:46.096439 13464 net.cpp:157] Top shape: 8 128 28 28 (802816)
I0315 12:06:46.096449 13464 net.cpp:165] Memory required for data: 1424196576
I0315 12:06:46.096462 13464 layer_factory.hpp:77] Creating layer bn3b4_branch2b
I0315 12:06:46.096477 13464 net.cpp:106] Creating Layer bn3b4_branch2b
I0315 12:06:46.096487 13464 net.cpp:454] bn3b4_branch2b <- res3b4_branch2b
I0315 12:06:46.096500 13464 net.cpp:397] bn3b4_branch2b -> res3b4_branch2b (in-place)
I0315 12:06:46.096734 13464 net.cpp:150] Setting up bn3b4_branch2b
I0315 12:06:46.096753 13464 net.cpp:157] Top shape: 8 128 28 28 (802816)
I0315 12:06:46.096763 13464 net.cpp:165] Memory required for data: 1427407840
I0315 12:06:46.096779 13464 layer_factory.hpp:77] Creating layer scale3b4_branch2b
I0315 12:06:46.096796 13464 net.cpp:106] Creating Layer scale3b4_branch2b
I0315 12:06:46.096807 13464 net.cpp:454] scale3b4_branch2b <- res3b4_branch2b
I0315 12:06:46.096818 13464 net.cpp:397] scale3b4_branch2b -> res3b4_branch2b (in-place)
I0315 12:06:46.096882 13464 layer_factory.hpp:77] Creating layer scale3b4_branch2b
I0315 12:06:46.097043 13464 net.cpp:150] Setting up scale3b4_branch2b
I0315 12:06:46.097060 13464 net.cpp:157] Top shape: 8 128 28 28 (802816)
I0315 12:06:46.097070 13464 net.cpp:165] Memory required for data: 1430619104
I0315 12:06:46.097085 13464 layer_factory.hpp:77] Creating layer res3b4_branch2b_relu
I0315 12:06:46.097098 13464 net.cpp:106] Creating Layer res3b4_branch2b_relu
I0315 12:06:46.097108 13464 net.cpp:454] res3b4_branch2b_relu <- res3b4_branch2b
I0315 12:06:46.097123 13464 net.cpp:397] res3b4_branch2b_relu -> res3b4_branch2b (in-place)
I0315 12:06:46.097137 13464 net.cpp:150] Setting up res3b4_branch2b_relu
I0315 12:06:46.097149 13464 net.cpp:157] Top shape: 8 128 28 28 (802816)
I0315 12:06:46.097158 13464 net.cpp:165] Memory required for data: 1433830368
I0315 12:06:46.097167 13464 layer_factory.hpp:77] Creating layer res3b4_branch2c
I0315 12:06:46.097184 13464 net.cpp:106] Creating Layer res3b4_branch2c
I0315 12:06:46.097195 13464 net.cpp:454] res3b4_branch2c <- res3b4_branch2b
I0315 12:06:46.097208 13464 net.cpp:411] res3b4_branch2c -> res3b4_branch2c
I0315 12:06:46.097465 13464 net.cpp:150] Setting up res3b4_branch2c
I0315 12:06:46.097486 13464 net.cpp:157] Top shape: 8 512 28 28 (3211264)
I0315 12:06:46.097496 13464 net.cpp:165] Memory required for data: 1446675424
I0315 12:06:46.097507 13464 layer_factory.hpp:77] Creating layer bn3b4_branch2c
I0315 12:06:46.097520 13464 net.cpp:106] Creating Layer bn3b4_branch2c
I0315 12:06:46.097530 13464 net.cpp:454] bn3b4_branch2c <- res3b4_branch2c
I0315 12:06:46.097543 13464 net.cpp:397] bn3b4_branch2c -> res3b4_branch2c (in-place)
I0315 12:06:46.097759 13464 net.cpp:150] Setting up bn3b4_branch2c
I0315 12:06:46.097777 13464 net.cpp:157] Top shape: 8 512 28 28 (3211264)
I0315 12:06:46.097786 13464 net.cpp:165] Memory required for data: 1459520480
I0315 12:06:46.097805 13464 layer_factory.hpp:77] Creating layer scale3b4_branch2c
I0315 12:06:46.097820 13464 net.cpp:106] Creating Layer scale3b4_branch2c
I0315 12:06:46.097829 13464 net.cpp:454] scale3b4_branch2c <- res3b4_branch2c
I0315 12:06:46.097841 13464 net.cpp:397] scale3b4_branch2c -> res3b4_branch2c (in-place)
I0315 12:06:46.097903 13464 layer_factory.hpp:77] Creating layer scale3b4_branch2c
I0315 12:06:46.098042 13464 net.cpp:150] Setting up scale3b4_branch2c
I0315 12:06:46.098059 13464 net.cpp:157] Top shape: 8 512 28 28 (3211264)
I0315 12:06:46.098068 13464 net.cpp:165] Memory required for data: 1472365536
I0315 12:06:46.098083 13464 layer_factory.hpp:77] Creating layer res3b4
I0315 12:06:46.098098 13464 net.cpp:106] Creating Layer res3b4
I0315 12:06:46.098109 13464 net.cpp:454] res3b4 <- res3b3_res3b3_relu_0_split_1
I0315 12:06:46.098120 13464 net.cpp:454] res3b4 <- res3b4_branch2c
I0315 12:06:46.098132 13464 net.cpp:411] res3b4 -> res3b4
I0315 12:06:46.098171 13464 net.cpp:150] Setting up res3b4
I0315 12:06:46.098187 13464 net.cpp:157] Top shape: 8 512 28 28 (3211264)
I0315 12:06:46.098197 13464 net.cpp:165] Memory required for data: 1485210592
I0315 12:06:46.098206 13464 layer_factory.hpp:77] Creating layer res3b4_relu
I0315 12:06:46.098218 13464 net.cpp:106] Creating Layer res3b4_relu
I0315 12:06:46.098228 13464 net.cpp:454] res3b4_relu <- res3b4
I0315 12:06:46.098245 13464 net.cpp:397] res3b4_relu -> res3b4 (in-place)
I0315 12:06:46.098260 13464 net.cpp:150] Setting up res3b4_relu
I0315 12:06:46.098273 13464 net.cpp:157] Top shape: 8 512 28 28 (3211264)
I0315 12:06:46.098281 13464 net.cpp:165] Memory required for data: 1498055648
I0315 12:06:46.098291 13464 layer_factory.hpp:77] Creating layer res3b4_res3b4_relu_0_split
I0315 12:06:46.098302 13464 net.cpp:106] Creating Layer res3b4_res3b4_relu_0_split
I0315 12:06:46.098312 13464 net.cpp:454] res3b4_res3b4_relu_0_split <- res3b4
I0315 12:06:46.098325 13464 net.cpp:411] res3b4_res3b4_relu_0_split -> res3b4_res3b4_relu_0_split_0
I0315 12:06:46.098338 13464 net.cpp:411] res3b4_res3b4_relu_0_split -> res3b4_res3b4_relu_0_split_1
I0315 12:06:46.098388 13464 net.cpp:150] Setting up res3b4_res3b4_relu_0_split
I0315 12:06:46.098412 13464 net.cpp:157] Top shape: 8 512 28 28 (3211264)
I0315 12:06:46.098431 13464 net.cpp:157] Top shape: 8 512 28 28 (3211264)
I0315 12:06:46.098440 13464 net.cpp:165] Memory required for data: 1523745760
I0315 12:06:46.098450 13464 layer_factory.hpp:77] Creating layer res3b5_branch2a
I0315 12:06:46.098464 13464 net.cpp:106] Creating Layer res3b5_branch2a
I0315 12:06:46.098474 13464 net.cpp:454] res3b5_branch2a <- res3b4_res3b4_relu_0_split_0
I0315 12:06:46.098487 13464 net.cpp:411] res3b5_branch2a -> res3b5_branch2a
I0315 12:06:46.099375 13464 net.cpp:150] Setting up res3b5_branch2a
I0315 12:06:46.099397 13464 net.cpp:157] Top shape: 8 128 28 28 (802816)
I0315 12:06:46.099407 13464 net.cpp:165] Memory required for data: 1526957024
I0315 12:06:46.099419 13464 layer_factory.hpp:77] Creating layer bn3b5_branch2a
I0315 12:06:46.099448 13464 net.cpp:106] Creating Layer bn3b5_branch2a
I0315 12:06:46.099462 13464 net.cpp:454] bn3b5_branch2a <- res3b5_branch2a
I0315 12:06:46.099474 13464 net.cpp:397] bn3b5_branch2a -> res3b5_branch2a (in-place)
I0315 12:06:46.099699 13464 net.cpp:150] Setting up bn3b5_branch2a
I0315 12:06:46.099717 13464 net.cpp:157] Top shape: 8 128 28 28 (802816)
I0315 12:06:46.099727 13464 net.cpp:165] Memory required for data: 1530168288
I0315 12:06:46.099745 13464 layer_factory.hpp:77] Creating layer scale3b5_branch2a
I0315 12:06:46.099761 13464 net.cpp:106] Creating Layer scale3b5_branch2a
I0315 12:06:46.099772 13464 net.cpp:454] scale3b5_branch2a <- res3b5_branch2a
I0315 12:06:46.099784 13464 net.cpp:397] scale3b5_branch2a -> res3b5_branch2a (in-place)
I0315 12:06:46.099844 13464 layer_factory.hpp:77] Creating layer scale3b5_branch2a
I0315 12:06:46.099992 13464 net.cpp:150] Setting up scale3b5_branch2a
I0315 12:06:46.100009 13464 net.cpp:157] Top shape: 8 128 28 28 (802816)
I0315 12:06:46.100019 13464 net.cpp:165] Memory required for data: 1533379552
I0315 12:06:46.100033 13464 layer_factory.hpp:77] Creating layer res3b5_branch2a_relu
I0315 12:06:46.100044 13464 net.cpp:106] Creating Layer res3b5_branch2a_relu
I0315 12:06:46.100055 13464 net.cpp:454] res3b5_branch2a_relu <- res3b5_branch2a
I0315 12:06:46.100066 13464 net.cpp:397] res3b5_branch2a_relu -> res3b5_branch2a (in-place)
I0315 12:06:46.100080 13464 net.cpp:150] Setting up res3b5_branch2a_relu
I0315 12:06:46.100092 13464 net.cpp:157] Top shape: 8 128 28 28 (802816)
I0315 12:06:46.100101 13464 net.cpp:165] Memory required for data: 1536590816
I0315 12:06:46.100111 13464 layer_factory.hpp:77] Creating layer res3b5_branch2b
I0315 12:06:46.100128 13464 net.cpp:106] Creating Layer res3b5_branch2b
I0315 12:06:46.100139 13464 net.cpp:454] res3b5_branch2b <- res3b5_branch2a
I0315 12:06:46.100157 13464 net.cpp:411] res3b5_branch2b -> res3b5_branch2b
I0315 12:06:46.101124 13464 net.cpp:150] Setting up res3b5_branch2b
I0315 12:06:46.101146 13464 net.cpp:157] Top shape: 8 128 28 28 (802816)
I0315 12:06:46.101157 13464 net.cpp:165] Memory required for data: 1539802080
I0315 12:06:46.101169 13464 layer_factory.hpp:77] Creating layer bn3b5_branch2b
I0315 12:06:46.101186 13464 net.cpp:106] Creating Layer bn3b5_branch2b
I0315 12:06:46.101198 13464 net.cpp:454] bn3b5_branch2b <- res3b5_branch2b
I0315 12:06:46.101210 13464 net.cpp:397] bn3b5_branch2b -> res3b5_branch2b (in-place)
I0315 12:06:46.101435 13464 net.cpp:150] Setting up bn3b5_branch2b
I0315 12:06:46.101454 13464 net.cpp:157] Top shape: 8 128 28 28 (802816)
I0315 12:06:46.101462 13464 net.cpp:165] Memory required for data: 1543013344
I0315 12:06:46.101478 13464 layer_factory.hpp:77] Creating layer scale3b5_branch2b
I0315 12:06:46.101492 13464 net.cpp:106] Creating Layer scale3b5_branch2b
I0315 12:06:46.101502 13464 net.cpp:454] scale3b5_branch2b <- res3b5_branch2b
I0315 12:06:46.101519 13464 net.cpp:397] scale3b5_branch2b -> res3b5_branch2b (in-place)
I0315 12:06:46.101577 13464 layer_factory.hpp:77] Creating layer scale3b5_branch2b
I0315 12:06:46.101721 13464 net.cpp:150] Setting up scale3b5_branch2b
I0315 12:06:46.101738 13464 net.cpp:157] Top shape: 8 128 28 28 (802816)
I0315 12:06:46.101755 13464 net.cpp:165] Memory required for data: 1546224608
I0315 12:06:46.101779 13464 layer_factory.hpp:77] Creating layer res3b5_branch2b_relu
I0315 12:06:46.101796 13464 net.cpp:106] Creating Layer res3b5_branch2b_relu
I0315 12:06:46.101809 13464 net.cpp:454] res3b5_branch2b_relu <- res3b5_branch2b
I0315 12:06:46.101819 13464 net.cpp:397] res3b5_branch2b_relu -> res3b5_branch2b (in-place)
I0315 12:06:46.101833 13464 net.cpp:150] Setting up res3b5_branch2b_relu
I0315 12:06:46.101845 13464 net.cpp:157] Top shape: 8 128 28 28 (802816)
I0315 12:06:46.101855 13464 net.cpp:165] Memory required for data: 1549435872
I0315 12:06:46.101863 13464 layer_factory.hpp:77] Creating layer res3b5_branch2c
I0315 12:06:46.101881 13464 net.cpp:106] Creating Layer res3b5_branch2c
I0315 12:06:46.101891 13464 net.cpp:454] res3b5_branch2c <- res3b5_branch2b
I0315 12:06:46.101903 13464 net.cpp:411] res3b5_branch2c -> res3b5_branch2c
I0315 12:06:46.102174 13464 net.cpp:150] Setting up res3b5_branch2c
I0315 12:06:46.102193 13464 net.cpp:157] Top shape: 8 512 28 28 (3211264)
I0315 12:06:46.102203 13464 net.cpp:165] Memory required for data: 1562280928
I0315 12:06:46.102216 13464 layer_factory.hpp:77] Creating layer bn3b5_branch2c
I0315 12:06:46.102233 13464 net.cpp:106] Creating Layer bn3b5_branch2c
I0315 12:06:46.102244 13464 net.cpp:454] bn3b5_branch2c <- res3b5_branch2c
I0315 12:06:46.102257 13464 net.cpp:397] bn3b5_branch2c -> res3b5_branch2c (in-place)
I0315 12:06:46.102479 13464 net.cpp:150] Setting up bn3b5_branch2c
I0315 12:06:46.102497 13464 net.cpp:157] Top shape: 8 512 28 28 (3211264)
I0315 12:06:46.102507 13464 net.cpp:165] Memory required for data: 1575125984
I0315 12:06:46.102522 13464 layer_factory.hpp:77] Creating layer scale3b5_branch2c
I0315 12:06:46.102540 13464 net.cpp:106] Creating Layer scale3b5_branch2c
I0315 12:06:46.102550 13464 net.cpp:454] scale3b5_branch2c <- res3b5_branch2c
I0315 12:06:46.102562 13464 net.cpp:397] scale3b5_branch2c -> res3b5_branch2c (in-place)
I0315 12:06:46.102623 13464 layer_factory.hpp:77] Creating layer scale3b5_branch2c
I0315 12:06:46.102766 13464 net.cpp:150] Setting up scale3b5_branch2c
I0315 12:06:46.102784 13464 net.cpp:157] Top shape: 8 512 28 28 (3211264)
I0315 12:06:46.102793 13464 net.cpp:165] Memory required for data: 1587971040
I0315 12:06:46.102807 13464 layer_factory.hpp:77] Creating layer res3b5
I0315 12:06:46.102819 13464 net.cpp:106] Creating Layer res3b5
I0315 12:06:46.102829 13464 net.cpp:454] res3b5 <- res3b4_res3b4_relu_0_split_1
I0315 12:06:46.102840 13464 net.cpp:454] res3b5 <- res3b5_branch2c
I0315 12:06:46.102856 13464 net.cpp:411] res3b5 -> res3b5
I0315 12:06:46.102893 13464 net.cpp:150] Setting up res3b5
I0315 12:06:46.102913 13464 net.cpp:157] Top shape: 8 512 28 28 (3211264)
I0315 12:06:46.102923 13464 net.cpp:165] Memory required for data: 1600816096
I0315 12:06:46.102933 13464 layer_factory.hpp:77] Creating layer res3b5_relu
I0315 12:06:46.102946 13464 net.cpp:106] Creating Layer res3b5_relu
I0315 12:06:46.102955 13464 net.cpp:454] res3b5_relu <- res3b5
I0315 12:06:46.102967 13464 net.cpp:397] res3b5_relu -> res3b5 (in-place)
I0315 12:06:46.102980 13464 net.cpp:150] Setting up res3b5_relu
I0315 12:06:46.102993 13464 net.cpp:157] Top shape: 8 512 28 28 (3211264)
I0315 12:06:46.103001 13464 net.cpp:165] Memory required for data: 1613661152
I0315 12:06:46.103011 13464 layer_factory.hpp:77] Creating layer res3b5_res3b5_relu_0_split
I0315 12:06:46.103022 13464 net.cpp:106] Creating Layer res3b5_res3b5_relu_0_split
I0315 12:06:46.103032 13464 net.cpp:454] res3b5_res3b5_relu_0_split <- res3b5
I0315 12:06:46.103046 13464 net.cpp:411] res3b5_res3b5_relu_0_split -> res3b5_res3b5_relu_0_split_0
I0315 12:06:46.103061 13464 net.cpp:411] res3b5_res3b5_relu_0_split -> res3b5_res3b5_relu_0_split_1
I0315 12:06:46.103119 13464 net.cpp:150] Setting up res3b5_res3b5_relu_0_split
I0315 12:06:46.103135 13464 net.cpp:157] Top shape: 8 512 28 28 (3211264)
I0315 12:06:46.103147 13464 net.cpp:157] Top shape: 8 512 28 28 (3211264)
I0315 12:06:46.103157 13464 net.cpp:165] Memory required for data: 1639351264
I0315 12:06:46.103173 13464 layer_factory.hpp:77] Creating layer res3b6_branch2a
I0315 12:06:46.103196 13464 net.cpp:106] Creating Layer res3b6_branch2a
I0315 12:06:46.103207 13464 net.cpp:454] res3b6_branch2a <- res3b5_res3b5_relu_0_split_0
I0315 12:06:46.103224 13464 net.cpp:411] res3b6_branch2a -> res3b6_branch2a
I0315 12:06:46.103488 13464 net.cpp:150] Setting up res3b6_branch2a
I0315 12:06:46.103508 13464 net.cpp:157] Top shape: 8 128 28 28 (802816)
I0315 12:06:46.103518 13464 net.cpp:165] Memory required for data: 1642562528
I0315 12:06:46.103530 13464 layer_factory.hpp:77] Creating layer bn3b6_branch2a
I0315 12:06:46.103546 13464 net.cpp:106] Creating Layer bn3b6_branch2a
I0315 12:06:46.103557 13464 net.cpp:454] bn3b6_branch2a <- res3b6_branch2a
I0315 12:06:46.103569 13464 net.cpp:397] bn3b6_branch2a -> res3b6_branch2a (in-place)
I0315 12:06:46.103790 13464 net.cpp:150] Setting up bn3b6_branch2a
I0315 12:06:46.103807 13464 net.cpp:157] Top shape: 8 128 28 28 (802816)
I0315 12:06:46.103816 13464 net.cpp:165] Memory required for data: 1645773792
I0315 12:06:46.103832 13464 layer_factory.hpp:77] Creating layer scale3b6_branch2a
I0315 12:06:46.103845 13464 net.cpp:106] Creating Layer scale3b6_branch2a
I0315 12:06:46.103855 13464 net.cpp:454] scale3b6_branch2a <- res3b6_branch2a
I0315 12:06:46.103873 13464 net.cpp:397] scale3b6_branch2a -> res3b6_branch2a (in-place)
I0315 12:06:46.103930 13464 layer_factory.hpp:77] Creating layer scale3b6_branch2a
I0315 12:06:46.104073 13464 net.cpp:150] Setting up scale3b6_branch2a
I0315 12:06:46.104094 13464 net.cpp:157] Top shape: 8 128 28 28 (802816)
I0315 12:06:46.104104 13464 net.cpp:165] Memory required for data: 1648985056
I0315 12:06:46.104116 13464 layer_factory.hpp:77] Creating layer res3b6_branch2a_relu
I0315 12:06:46.104130 13464 net.cpp:106] Creating Layer res3b6_branch2a_relu
I0315 12:06:46.104140 13464 net.cpp:454] res3b6_branch2a_relu <- res3b6_branch2a
I0315 12:06:46.104151 13464 net.cpp:397] res3b6_branch2a_relu -> res3b6_branch2a (in-place)
I0315 12:06:46.104164 13464 net.cpp:150] Setting up res3b6_branch2a_relu
I0315 12:06:46.104176 13464 net.cpp:157] Top shape: 8 128 28 28 (802816)
I0315 12:06:46.104185 13464 net.cpp:165] Memory required for data: 1652196320
I0315 12:06:46.104195 13464 layer_factory.hpp:77] Creating layer res3b6_branch2b
I0315 12:06:46.104212 13464 net.cpp:106] Creating Layer res3b6_branch2b
I0315 12:06:46.104223 13464 net.cpp:454] res3b6_branch2b <- res3b6_branch2a
I0315 12:06:46.104235 13464 net.cpp:411] res3b6_branch2b -> res3b6_branch2b
I0315 12:06:46.105214 13464 net.cpp:150] Setting up res3b6_branch2b
I0315 12:06:46.105238 13464 net.cpp:157] Top shape: 8 128 28 28 (802816)
I0315 12:06:46.105248 13464 net.cpp:165] Memory required for data: 1655407584
I0315 12:06:46.105260 13464 layer_factory.hpp:77] Creating layer bn3b6_branch2b
I0315 12:06:46.105273 13464 net.cpp:106] Creating Layer bn3b6_branch2b
I0315 12:06:46.105284 13464 net.cpp:454] bn3b6_branch2b <- res3b6_branch2b
I0315 12:06:46.105300 13464 net.cpp:397] bn3b6_branch2b -> res3b6_branch2b (in-place)
I0315 12:06:46.105528 13464 net.cpp:150] Setting up bn3b6_branch2b
I0315 12:06:46.105546 13464 net.cpp:157] Top shape: 8 128 28 28 (802816)
I0315 12:06:46.105556 13464 net.cpp:165] Memory required for data: 1658618848
I0315 12:06:46.105571 13464 layer_factory.hpp:77] Creating layer scale3b6_branch2b
I0315 12:06:46.105585 13464 net.cpp:106] Creating Layer scale3b6_branch2b
I0315 12:06:46.105595 13464 net.cpp:454] scale3b6_branch2b <- res3b6_branch2b
I0315 12:06:46.105607 13464 net.cpp:397] scale3b6_branch2b -> res3b6_branch2b (in-place)
I0315 12:06:46.105667 13464 layer_factory.hpp:77] Creating layer scale3b6_branch2b
I0315 12:06:46.105815 13464 net.cpp:150] Setting up scale3b6_branch2b
I0315 12:06:46.105832 13464 net.cpp:157] Top shape: 8 128 28 28 (802816)
I0315 12:06:46.105842 13464 net.cpp:165] Memory required for data: 1661830112
I0315 12:06:46.105856 13464 layer_factory.hpp:77] Creating layer res3b6_branch2b_relu
I0315 12:06:46.105870 13464 net.cpp:106] Creating Layer res3b6_branch2b_relu
I0315 12:06:46.105886 13464 net.cpp:454] res3b6_branch2b_relu <- res3b6_branch2b
I0315 12:06:46.105911 13464 net.cpp:397] res3b6_branch2b_relu -> res3b6_branch2b (in-place)
I0315 12:06:46.105927 13464 net.cpp:150] Setting up res3b6_branch2b_relu
I0315 12:06:46.105939 13464 net.cpp:157] Top shape: 8 128 28 28 (802816)
I0315 12:06:46.105948 13464 net.cpp:165] Memory required for data: 1665041376
I0315 12:06:46.105958 13464 layer_factory.hpp:77] Creating layer res3b6_branch2c
I0315 12:06:46.105973 13464 net.cpp:106] Creating Layer res3b6_branch2c
I0315 12:06:46.105983 13464 net.cpp:454] res3b6_branch2c <- res3b6_branch2b
I0315 12:06:46.105998 13464 net.cpp:411] res3b6_branch2c -> res3b6_branch2c
I0315 12:06:46.106264 13464 net.cpp:150] Setting up res3b6_branch2c
I0315 12:06:46.106284 13464 net.cpp:157] Top shape: 8 512 28 28 (3211264)
I0315 12:06:46.106293 13464 net.cpp:165] Memory required for data: 1677886432
I0315 12:06:46.106307 13464 layer_factory.hpp:77] Creating layer bn3b6_branch2c
I0315 12:06:46.106323 13464 net.cpp:106] Creating Layer bn3b6_branch2c
I0315 12:06:46.106334 13464 net.cpp:454] bn3b6_branch2c <- res3b6_branch2c
I0315 12:06:46.106346 13464 net.cpp:397] bn3b6_branch2c -> res3b6_branch2c (in-place)
I0315 12:06:46.106569 13464 net.cpp:150] Setting up bn3b6_branch2c
I0315 12:06:46.106586 13464 net.cpp:157] Top shape: 8 512 28 28 (3211264)
I0315 12:06:46.106596 13464 net.cpp:165] Memory required for data: 1690731488
I0315 12:06:46.106611 13464 layer_factory.hpp:77] Creating layer scale3b6_branch2c
I0315 12:06:46.106624 13464 net.cpp:106] Creating Layer scale3b6_branch2c
I0315 12:06:46.106634 13464 net.cpp:454] scale3b6_branch2c <- res3b6_branch2c
I0315 12:06:46.106647 13464 net.cpp:397] scale3b6_branch2c -> res3b6_branch2c (in-place)
I0315 12:06:46.106709 13464 layer_factory.hpp:77] Creating layer scale3b6_branch2c
I0315 12:06:46.106851 13464 net.cpp:150] Setting up scale3b6_branch2c
I0315 12:06:46.106868 13464 net.cpp:157] Top shape: 8 512 28 28 (3211264)
I0315 12:06:46.106878 13464 net.cpp:165] Memory required for data: 1703576544
I0315 12:06:46.106891 13464 layer_factory.hpp:77] Creating layer res3b6
I0315 12:06:46.106907 13464 net.cpp:106] Creating Layer res3b6
I0315 12:06:46.106919 13464 net.cpp:454] res3b6 <- res3b5_res3b5_relu_0_split_1
I0315 12:06:46.106930 13464 net.cpp:454] res3b6 <- res3b6_branch2c
I0315 12:06:46.106941 13464 net.cpp:411] res3b6 -> res3b6
I0315 12:06:46.106981 13464 net.cpp:150] Setting up res3b6
I0315 12:06:46.106997 13464 net.cpp:157] Top shape: 8 512 28 28 (3211264)
I0315 12:06:46.107007 13464 net.cpp:165] Memory required for data: 1716421600
I0315 12:06:46.107017 13464 layer_factory.hpp:77] Creating layer res3b6_relu
I0315 12:06:46.107028 13464 net.cpp:106] Creating Layer res3b6_relu
I0315 12:06:46.107038 13464 net.cpp:454] res3b6_relu <- res3b6
I0315 12:06:46.107053 13464 net.cpp:397] res3b6_relu -> res3b6 (in-place)
I0315 12:06:46.107065 13464 net.cpp:150] Setting up res3b6_relu
I0315 12:06:46.107077 13464 net.cpp:157] Top shape: 8 512 28 28 (3211264)
I0315 12:06:46.107086 13464 net.cpp:165] Memory required for data: 1729266656
I0315 12:06:46.107096 13464 layer_factory.hpp:77] Creating layer res3b6_res3b6_relu_0_split
I0315 12:06:46.107108 13464 net.cpp:106] Creating Layer res3b6_res3b6_relu_0_split
I0315 12:06:46.107117 13464 net.cpp:454] res3b6_res3b6_relu_0_split <- res3b6
I0315 12:06:46.107130 13464 net.cpp:411] res3b6_res3b6_relu_0_split -> res3b6_res3b6_relu_0_split_0
I0315 12:06:46.107142 13464 net.cpp:411] res3b6_res3b6_relu_0_split -> res3b6_res3b6_relu_0_split_1
I0315 12:06:46.107195 13464 net.cpp:150] Setting up res3b6_res3b6_relu_0_split
I0315 12:06:46.107211 13464 net.cpp:157] Top shape: 8 512 28 28 (3211264)
I0315 12:06:46.107223 13464 net.cpp:157] Top shape: 8 512 28 28 (3211264)
I0315 12:06:46.107231 13464 net.cpp:165] Memory required for data: 1754956768
I0315 12:06:46.107240 13464 layer_factory.hpp:77] Creating layer res3b7_branch2a
I0315 12:06:46.107261 13464 net.cpp:106] Creating Layer res3b7_branch2a
I0315 12:06:46.107273 13464 net.cpp:454] res3b7_branch2a <- res3b6_res3b6_relu_0_split_0
I0315 12:06:46.107300 13464 net.cpp:411] res3b7_branch2a -> res3b7_branch2a
I0315 12:06:46.108199 13464 net.cpp:150] Setting up res3b7_branch2a
I0315 12:06:46.108222 13464 net.cpp:157] Top shape: 8 128 28 28 (802816)
I0315 12:06:46.108232 13464 net.cpp:165] Memory required for data: 1758168032
I0315 12:06:46.108244 13464 layer_factory.hpp:77] Creating layer bn3b7_branch2a
I0315 12:06:46.108258 13464 net.cpp:106] Creating Layer bn3b7_branch2a
I0315 12:06:46.108268 13464 net.cpp:454] bn3b7_branch2a <- res3b7_branch2a
I0315 12:06:46.108284 13464 net.cpp:397] bn3b7_branch2a -> res3b7_branch2a (in-place)
I0315 12:06:46.108512 13464 net.cpp:150] Setting up bn3b7_branch2a
I0315 12:06:46.108530 13464 net.cpp:157] Top shape: 8 128 28 28 (802816)
I0315 12:06:46.108541 13464 net.cpp:165] Memory required for data: 1761379296
I0315 12:06:46.108556 13464 layer_factory.hpp:77] Creating layer scale3b7_branch2a
I0315 12:06:46.108569 13464 net.cpp:106] Creating Layer scale3b7_branch2a
I0315 12:06:46.108580 13464 net.cpp:454] scale3b7_branch2a <- res3b7_branch2a
I0315 12:06:46.108592 13464 net.cpp:397] scale3b7_branch2a -> res3b7_branch2a (in-place)
I0315 12:06:46.108660 13464 layer_factory.hpp:77] Creating layer scale3b7_branch2a
I0315 12:06:46.108810 13464 net.cpp:150] Setting up scale3b7_branch2a
I0315 12:06:46.108829 13464 net.cpp:157] Top shape: 8 128 28 28 (802816)
I0315 12:06:46.108839 13464 net.cpp:165] Memory required for data: 1764590560
I0315 12:06:46.108851 13464 layer_factory.hpp:77] Creating layer res3b7_branch2a_relu
I0315 12:06:46.108865 13464 net.cpp:106] Creating Layer res3b7_branch2a_relu
I0315 12:06:46.108875 13464 net.cpp:454] res3b7_branch2a_relu <- res3b7_branch2a
I0315 12:06:46.108889 13464 net.cpp:397] res3b7_branch2a_relu -> res3b7_branch2a (in-place)
I0315 12:06:46.108904 13464 net.cpp:150] Setting up res3b7_branch2a_relu
I0315 12:06:46.108916 13464 net.cpp:157] Top shape: 8 128 28 28 (802816)
I0315 12:06:46.108925 13464 net.cpp:165] Memory required for data: 1767801824
I0315 12:06:46.108935 13464 layer_factory.hpp:77] Creating layer res3b7_branch2b
I0315 12:06:46.108949 13464 net.cpp:106] Creating Layer res3b7_branch2b
I0315 12:06:46.108959 13464 net.cpp:454] res3b7_branch2b <- res3b7_branch2a
I0315 12:06:46.108974 13464 net.cpp:411] res3b7_branch2b -> res3b7_branch2b
I0315 12:06:46.109941 13464 net.cpp:150] Setting up res3b7_branch2b
I0315 12:06:46.109963 13464 net.cpp:157] Top shape: 8 128 28 28 (802816)
I0315 12:06:46.109973 13464 net.cpp:165] Memory required for data: 1771013088
I0315 12:06:46.109987 13464 layer_factory.hpp:77] Creating layer bn3b7_branch2b
I0315 12:06:46.109999 13464 net.cpp:106] Creating Layer bn3b7_branch2b
I0315 12:06:46.110010 13464 net.cpp:454] bn3b7_branch2b <- res3b7_branch2b
I0315 12:06:46.110025 13464 net.cpp:397] bn3b7_branch2b -> res3b7_branch2b (in-place)
I0315 12:06:46.110257 13464 net.cpp:150] Setting up bn3b7_branch2b
I0315 12:06:46.110275 13464 net.cpp:157] Top shape: 8 128 28 28 (802816)
I0315 12:06:46.110285 13464 net.cpp:165] Memory required for data: 1774224352
I0315 12:06:46.110301 13464 layer_factory.hpp:77] Creating layer scale3b7_branch2b
I0315 12:06:46.110316 13464 net.cpp:106] Creating Layer scale3b7_branch2b
I0315 12:06:46.110326 13464 net.cpp:454] scale3b7_branch2b <- res3b7_branch2b
I0315 12:06:46.110337 13464 net.cpp:397] scale3b7_branch2b -> res3b7_branch2b (in-place)
I0315 12:06:46.110401 13464 layer_factory.hpp:77] Creating layer scale3b7_branch2b
I0315 12:06:46.110550 13464 net.cpp:150] Setting up scale3b7_branch2b
I0315 12:06:46.110569 13464 net.cpp:157] Top shape: 8 128 28 28 (802816)
I0315 12:06:46.110579 13464 net.cpp:165] Memory required for data: 1777435616
I0315 12:06:46.110592 13464 layer_factory.hpp:77] Creating layer res3b7_branch2b_relu
I0315 12:06:46.110607 13464 net.cpp:106] Creating Layer res3b7_branch2b_relu
I0315 12:06:46.110620 13464 net.cpp:454] res3b7_branch2b_relu <- res3b7_branch2b
I0315 12:06:46.110631 13464 net.cpp:397] res3b7_branch2b_relu -> res3b7_branch2b (in-place)
I0315 12:06:46.110654 13464 net.cpp:150] Setting up res3b7_branch2b_relu
I0315 12:06:46.110677 13464 net.cpp:157] Top shape: 8 128 28 28 (802816)
I0315 12:06:46.110687 13464 net.cpp:165] Memory required for data: 1780646880
I0315 12:06:46.110697 13464 layer_factory.hpp:77] Creating layer res3b7_branch2c
I0315 12:06:46.110712 13464 net.cpp:106] Creating Layer res3b7_branch2c
I0315 12:06:46.110721 13464 net.cpp:454] res3b7_branch2c <- res3b7_branch2b
I0315 12:06:46.110733 13464 net.cpp:411] res3b7_branch2c -> res3b7_branch2c
I0315 12:06:46.111004 13464 net.cpp:150] Setting up res3b7_branch2c
I0315 12:06:46.111023 13464 net.cpp:157] Top shape: 8 512 28 28 (3211264)
I0315 12:06:46.111033 13464 net.cpp:165] Memory required for data: 1793491936
I0315 12:06:46.111045 13464 layer_factory.hpp:77] Creating layer bn3b7_branch2c
I0315 12:06:46.111062 13464 net.cpp:106] Creating Layer bn3b7_branch2c
I0315 12:06:46.111073 13464 net.cpp:454] bn3b7_branch2c <- res3b7_branch2c
I0315 12:06:46.111084 13464 net.cpp:397] bn3b7_branch2c -> res3b7_branch2c (in-place)
I0315 12:06:46.111317 13464 net.cpp:150] Setting up bn3b7_branch2c
I0315 12:06:46.111335 13464 net.cpp:157] Top shape: 8 512 28 28 (3211264)
I0315 12:06:46.111346 13464 net.cpp:165] Memory required for data: 1806336992
I0315 12:06:46.111361 13464 layer_factory.hpp:77] Creating layer scale3b7_branch2c
I0315 12:06:46.111376 13464 net.cpp:106] Creating Layer scale3b7_branch2c
I0315 12:06:46.111385 13464 net.cpp:454] scale3b7_branch2c <- res3b7_branch2c
I0315 12:06:46.111397 13464 net.cpp:397] scale3b7_branch2c -> res3b7_branch2c (in-place)
I0315 12:06:46.111459 13464 layer_factory.hpp:77] Creating layer scale3b7_branch2c
I0315 12:06:46.111604 13464 net.cpp:150] Setting up scale3b7_branch2c
I0315 12:06:46.111623 13464 net.cpp:157] Top shape: 8 512 28 28 (3211264)
I0315 12:06:46.111632 13464 net.cpp:165] Memory required for data: 1819182048
I0315 12:06:46.111645 13464 layer_factory.hpp:77] Creating layer res3b7
I0315 12:06:46.111661 13464 net.cpp:106] Creating Layer res3b7
I0315 12:06:46.111672 13464 net.cpp:454] res3b7 <- res3b6_res3b6_relu_0_split_1
I0315 12:06:46.111685 13464 net.cpp:454] res3b7 <- res3b7_branch2c
I0315 12:06:46.111696 13464 net.cpp:411] res3b7 -> res3b7
I0315 12:06:46.111737 13464 net.cpp:150] Setting up res3b7
I0315 12:06:46.111752 13464 net.cpp:157] Top shape: 8 512 28 28 (3211264)
I0315 12:06:46.111763 13464 net.cpp:165] Memory required for data: 1832027104
I0315 12:06:46.111773 13464 layer_factory.hpp:77] Creating layer res3b7_relu
I0315 12:06:46.111783 13464 net.cpp:106] Creating Layer res3b7_relu
I0315 12:06:46.111793 13464 net.cpp:454] res3b7_relu <- res3b7
I0315 12:06:46.111809 13464 net.cpp:397] res3b7_relu -> res3b7 (in-place)
I0315 12:06:46.111822 13464 net.cpp:150] Setting up res3b7_relu
I0315 12:06:46.111835 13464 net.cpp:157] Top shape: 8 512 28 28 (3211264)
I0315 12:06:46.111843 13464 net.cpp:165] Memory required for data: 1844872160
I0315 12:06:46.111853 13464 layer_factory.hpp:77] Creating layer res3b7_res3b7_relu_0_split
I0315 12:06:46.111865 13464 net.cpp:106] Creating Layer res3b7_res3b7_relu_0_split
I0315 12:06:46.111874 13464 net.cpp:454] res3b7_res3b7_relu_0_split <- res3b7
I0315 12:06:46.111886 13464 net.cpp:411] res3b7_res3b7_relu_0_split -> res3b7_res3b7_relu_0_split_0
I0315 12:06:46.111899 13464 net.cpp:411] res3b7_res3b7_relu_0_split -> res3b7_res3b7_relu_0_split_1
I0315 12:06:46.111953 13464 net.cpp:150] Setting up res3b7_res3b7_relu_0_split
I0315 12:06:46.111968 13464 net.cpp:157] Top shape: 8 512 28 28 (3211264)
I0315 12:06:46.111979 13464 net.cpp:157] Top shape: 8 512 28 28 (3211264)
I0315 12:06:46.111989 13464 net.cpp:165] Memory required for data: 1870562272
I0315 12:06:46.111999 13464 layer_factory.hpp:77] Creating layer res4a_branch1
I0315 12:06:46.112015 13464 net.cpp:106] Creating Layer res4a_branch1
I0315 12:06:46.112026 13464 net.cpp:454] res4a_branch1 <- res3b7_res3b7_relu_0_split_0
I0315 12:06:46.112040 13464 net.cpp:411] res4a_branch1 -> res4a_branch1
I0315 12:06:46.113756 13464 net.cpp:150] Setting up res4a_branch1
I0315 12:06:46.113790 13464 net.cpp:157] Top shape: 8 1024 14 14 (1605632)
I0315 12:06:46.113809 13464 net.cpp:165] Memory required for data: 1876984800
I0315 12:06:46.113823 13464 layer_factory.hpp:77] Creating layer bn4a_branch1
I0315 12:06:46.113837 13464 net.cpp:106] Creating Layer bn4a_branch1
I0315 12:06:46.113847 13464 net.cpp:454] bn4a_branch1 <- res4a_branch1
I0315 12:06:46.113863 13464 net.cpp:397] bn4a_branch1 -> res4a_branch1 (in-place)
I0315 12:06:46.114120 13464 net.cpp:150] Setting up bn4a_branch1
I0315 12:06:46.114138 13464 net.cpp:157] Top shape: 8 1024 14 14 (1605632)
I0315 12:06:46.114148 13464 net.cpp:165] Memory required for data: 1883407328
I0315 12:06:46.114164 13464 layer_factory.hpp:77] Creating layer scale4a_branch1
I0315 12:06:46.114178 13464 net.cpp:106] Creating Layer scale4a_branch1
I0315 12:06:46.114188 13464 net.cpp:454] scale4a_branch1 <- res4a_branch1
I0315 12:06:46.114200 13464 net.cpp:397] scale4a_branch1 -> res4a_branch1 (in-place)
I0315 12:06:46.114260 13464 layer_factory.hpp:77] Creating layer scale4a_branch1
I0315 12:06:46.114410 13464 net.cpp:150] Setting up scale4a_branch1
I0315 12:06:46.114428 13464 net.cpp:157] Top shape: 8 1024 14 14 (1605632)
I0315 12:06:46.114437 13464 net.cpp:165] Memory required for data: 1889829856
I0315 12:06:46.114451 13464 layer_factory.hpp:77] Creating layer res4a_branch2a
I0315 12:06:46.114470 13464 net.cpp:106] Creating Layer res4a_branch2a
I0315 12:06:46.114481 13464 net.cpp:454] res4a_branch2a <- res3b7_res3b7_relu_0_split_1
I0315 12:06:46.114495 13464 net.cpp:411] res4a_branch2a -> res4a_branch2a
I0315 12:06:46.114883 13464 net.cpp:150] Setting up res4a_branch2a
I0315 12:06:46.114902 13464 net.cpp:157] Top shape: 8 256 14 14 (401408)
I0315 12:06:46.114912 13464 net.cpp:165] Memory required for data: 1891435488
I0315 12:06:46.114924 13464 layer_factory.hpp:77] Creating layer bn4a_branch2a
I0315 12:06:46.114938 13464 net.cpp:106] Creating Layer bn4a_branch2a
I0315 12:06:46.114948 13464 net.cpp:454] bn4a_branch2a <- res4a_branch2a
I0315 12:06:46.114962 13464 net.cpp:397] bn4a_branch2a -> res4a_branch2a (in-place)
I0315 12:06:46.115188 13464 net.cpp:150] Setting up bn4a_branch2a
I0315 12:06:46.115206 13464 net.cpp:157] Top shape: 8 256 14 14 (401408)
I0315 12:06:46.115216 13464 net.cpp:165] Memory required for data: 1893041120
I0315 12:06:46.115231 13464 layer_factory.hpp:77] Creating layer scale4a_branch2a
I0315 12:06:46.115245 13464 net.cpp:106] Creating Layer scale4a_branch2a
I0315 12:06:46.115255 13464 net.cpp:454] scale4a_branch2a <- res4a_branch2a
I0315 12:06:46.115267 13464 net.cpp:397] scale4a_branch2a -> res4a_branch2a (in-place)
I0315 12:06:46.115329 13464 layer_factory.hpp:77] Creating layer scale4a_branch2a
I0315 12:06:46.115473 13464 net.cpp:150] Setting up scale4a_branch2a
I0315 12:06:46.115490 13464 net.cpp:157] Top shape: 8 256 14 14 (401408)
I0315 12:06:46.115500 13464 net.cpp:165] Memory required for data: 1894646752
I0315 12:06:46.115514 13464 layer_factory.hpp:77] Creating layer res4a_branch2a_relu
I0315 12:06:46.115526 13464 net.cpp:106] Creating Layer res4a_branch2a_relu
I0315 12:06:46.115537 13464 net.cpp:454] res4a_branch2a_relu <- res4a_branch2a
I0315 12:06:46.115552 13464 net.cpp:397] res4a_branch2a_relu -> res4a_branch2a (in-place)
I0315 12:06:46.115567 13464 net.cpp:150] Setting up res4a_branch2a_relu
I0315 12:06:46.115579 13464 net.cpp:157] Top shape: 8 256 14 14 (401408)
I0315 12:06:46.115589 13464 net.cpp:165] Memory required for data: 1896252384
I0315 12:06:46.115598 13464 layer_factory.hpp:77] Creating layer res4a_branch2b
I0315 12:06:46.115612 13464 net.cpp:106] Creating Layer res4a_branch2b
I0315 12:06:46.115622 13464 net.cpp:454] res4a_branch2b <- res4a_branch2a
I0315 12:06:46.115638 13464 net.cpp:411] res4a_branch2b -> res4a_branch2b
I0315 12:06:46.117496 13464 net.cpp:150] Setting up res4a_branch2b
I0315 12:06:46.117521 13464 net.cpp:157] Top shape: 8 256 14 14 (401408)
I0315 12:06:46.117530 13464 net.cpp:165] Memory required for data: 1897858016
I0315 12:06:46.117542 13464 layer_factory.hpp:77] Creating layer bn4a_branch2b
I0315 12:06:46.117563 13464 net.cpp:106] Creating Layer bn4a_branch2b
I0315 12:06:46.117584 13464 net.cpp:454] bn4a_branch2b <- res4a_branch2b
I0315 12:06:46.117597 13464 net.cpp:397] bn4a_branch2b -> res4a_branch2b (in-place)
I0315 12:06:46.117830 13464 net.cpp:150] Setting up bn4a_branch2b
I0315 12:06:46.117847 13464 net.cpp:157] Top shape: 8 256 14 14 (401408)
I0315 12:06:46.117857 13464 net.cpp:165] Memory required for data: 1899463648
I0315 12:06:46.117873 13464 layer_factory.hpp:77] Creating layer scale4a_branch2b
I0315 12:06:46.117890 13464 net.cpp:106] Creating Layer scale4a_branch2b
I0315 12:06:46.117902 13464 net.cpp:454] scale4a_branch2b <- res4a_branch2b
I0315 12:06:46.117914 13464 net.cpp:397] scale4a_branch2b -> res4a_branch2b (in-place)
I0315 12:06:46.117974 13464 layer_factory.hpp:77] Creating layer scale4a_branch2b
I0315 12:06:46.118121 13464 net.cpp:150] Setting up scale4a_branch2b
I0315 12:06:46.118139 13464 net.cpp:157] Top shape: 8 256 14 14 (401408)
I0315 12:06:46.118147 13464 net.cpp:165] Memory required for data: 1901069280
I0315 12:06:46.118161 13464 layer_factory.hpp:77] Creating layer res4a_branch2b_relu
I0315 12:06:46.118175 13464 net.cpp:106] Creating Layer res4a_branch2b_relu
I0315 12:06:46.118185 13464 net.cpp:454] res4a_branch2b_relu <- res4a_branch2b
I0315 12:06:46.118199 13464 net.cpp:397] res4a_branch2b_relu -> res4a_branch2b (in-place)
I0315 12:06:46.118213 13464 net.cpp:150] Setting up res4a_branch2b_relu
I0315 12:06:46.118226 13464 net.cpp:157] Top shape: 8 256 14 14 (401408)
I0315 12:06:46.118234 13464 net.cpp:165] Memory required for data: 1902674912
I0315 12:06:46.118244 13464 layer_factory.hpp:77] Creating layer res4a_branch2c
I0315 12:06:46.118260 13464 net.cpp:106] Creating Layer res4a_branch2c
I0315 12:06:46.118271 13464 net.cpp:454] res4a_branch2c <- res4a_branch2b
I0315 12:06:46.118283 13464 net.cpp:411] res4a_branch2c -> res4a_branch2c
I0315 12:06:46.119334 13464 net.cpp:150] Setting up res4a_branch2c
I0315 12:06:46.119357 13464 net.cpp:157] Top shape: 8 1024 14 14 (1605632)
I0315 12:06:46.119367 13464 net.cpp:165] Memory required for data: 1909097440
I0315 12:06:46.119380 13464 layer_factory.hpp:77] Creating layer bn4a_branch2c
I0315 12:06:46.119396 13464 net.cpp:106] Creating Layer bn4a_branch2c
I0315 12:06:46.119408 13464 net.cpp:454] bn4a_branch2c <- res4a_branch2c
I0315 12:06:46.119421 13464 net.cpp:397] bn4a_branch2c -> res4a_branch2c (in-place)
I0315 12:06:46.119652 13464 net.cpp:150] Setting up bn4a_branch2c
I0315 12:06:46.119670 13464 net.cpp:157] Top shape: 8 1024 14 14 (1605632)
I0315 12:06:46.119680 13464 net.cpp:165] Memory required for data: 1915519968
I0315 12:06:46.119696 13464 layer_factory.hpp:77] Creating layer scale4a_branch2c
I0315 12:06:46.119709 13464 net.cpp:106] Creating Layer scale4a_branch2c
I0315 12:06:46.119720 13464 net.cpp:454] scale4a_branch2c <- res4a_branch2c
I0315 12:06:46.119735 13464 net.cpp:397] scale4a_branch2c -> res4a_branch2c (in-place)
I0315 12:06:46.119791 13464 layer_factory.hpp:77] Creating layer scale4a_branch2c
I0315 12:06:46.119945 13464 net.cpp:150] Setting up scale4a_branch2c
I0315 12:06:46.119963 13464 net.cpp:157] Top shape: 8 1024 14 14 (1605632)
I0315 12:06:46.119972 13464 net.cpp:165] Memory required for data: 1921942496
I0315 12:06:46.119987 13464 layer_factory.hpp:77] Creating layer res4a
I0315 12:06:46.120002 13464 net.cpp:106] Creating Layer res4a
I0315 12:06:46.120013 13464 net.cpp:454] res4a <- res4a_branch1
I0315 12:06:46.120024 13464 net.cpp:454] res4a <- res4a_branch2c
I0315 12:06:46.120038 13464 net.cpp:411] res4a -> res4a
I0315 12:06:46.120079 13464 net.cpp:150] Setting up res4a
I0315 12:06:46.120095 13464 net.cpp:157] Top shape: 8 1024 14 14 (1605632)
I0315 12:06:46.120105 13464 net.cpp:165] Memory required for data: 1928365024
I0315 12:06:46.120113 13464 layer_factory.hpp:77] Creating layer res4a_relu
I0315 12:06:46.120126 13464 net.cpp:106] Creating Layer res4a_relu
I0315 12:06:46.120136 13464 net.cpp:454] res4a_relu <- res4a
I0315 12:06:46.120151 13464 net.cpp:397] res4a_relu -> res4a (in-place)
I0315 12:06:46.120172 13464 net.cpp:150] Setting up res4a_relu
I0315 12:06:46.120193 13464 net.cpp:157] Top shape: 8 1024 14 14 (1605632)
I0315 12:06:46.120203 13464 net.cpp:165] Memory required for data: 1934787552
I0315 12:06:46.120213 13464 layer_factory.hpp:77] Creating layer res4a_res4a_relu_0_split
I0315 12:06:46.120224 13464 net.cpp:106] Creating Layer res4a_res4a_relu_0_split
I0315 12:06:46.120234 13464 net.cpp:454] res4a_res4a_relu_0_split <- res4a
I0315 12:06:46.120245 13464 net.cpp:411] res4a_res4a_relu_0_split -> res4a_res4a_relu_0_split_0
I0315 12:06:46.120260 13464 net.cpp:411] res4a_res4a_relu_0_split -> res4a_res4a_relu_0_split_1
I0315 12:06:46.120312 13464 net.cpp:150] Setting up res4a_res4a_relu_0_split
I0315 12:06:46.120328 13464 net.cpp:157] Top shape: 8 1024 14 14 (1605632)
I0315 12:06:46.120339 13464 net.cpp:157] Top shape: 8 1024 14 14 (1605632)
I0315 12:06:46.120348 13464 net.cpp:165] Memory required for data: 1947632608
I0315 12:06:46.120358 13464 layer_factory.hpp:77] Creating layer res4b1_branch2a
I0315 12:06:46.120375 13464 net.cpp:106] Creating Layer res4b1_branch2a
I0315 12:06:46.120388 13464 net.cpp:454] res4b1_branch2a <- res4a_res4a_relu_0_split_0
I0315 12:06:46.120400 13464 net.cpp:411] res4b1_branch2a -> res4b1_branch2a
I0315 12:06:46.121477 13464 net.cpp:150] Setting up res4b1_branch2a
I0315 12:06:46.121500 13464 net.cpp:157] Top shape: 8 256 14 14 (401408)
I0315 12:06:46.121510 13464 net.cpp:165] Memory required for data: 1949238240
I0315 12:06:46.121523 13464 layer_factory.hpp:77] Creating layer bn4b1_branch2a
I0315 12:06:46.121537 13464 net.cpp:106] Creating Layer bn4b1_branch2a
I0315 12:06:46.121547 13464 net.cpp:454] bn4b1_branch2a <- res4b1_branch2a
I0315 12:06:46.121563 13464 net.cpp:397] bn4b1_branch2a -> res4b1_branch2a (in-place)
I0315 12:06:46.121791 13464 net.cpp:150] Setting up bn4b1_branch2a
I0315 12:06:46.121809 13464 net.cpp:157] Top shape: 8 256 14 14 (401408)
I0315 12:06:46.121819 13464 net.cpp:165] Memory required for data: 1950843872
I0315 12:06:46.121834 13464 layer_factory.hpp:77] Creating layer scale4b1_branch2a
I0315 12:06:46.121848 13464 net.cpp:106] Creating Layer scale4b1_branch2a
I0315 12:06:46.121860 13464 net.cpp:454] scale4b1_branch2a <- res4b1_branch2a
I0315 12:06:46.121871 13464 net.cpp:397] scale4b1_branch2a -> res4b1_branch2a (in-place)
I0315 12:06:46.121932 13464 layer_factory.hpp:77] Creating layer scale4b1_branch2a
I0315 12:06:46.122081 13464 net.cpp:150] Setting up scale4b1_branch2a
I0315 12:06:46.122098 13464 net.cpp:157] Top shape: 8 256 14 14 (401408)
I0315 12:06:46.122107 13464 net.cpp:165] Memory required for data: 1952449504
I0315 12:06:46.122122 13464 layer_factory.hpp:77] Creating layer res4b1_branch2a_relu
I0315 12:06:46.122134 13464 net.cpp:106] Creating Layer res4b1_branch2a_relu
I0315 12:06:46.122144 13464 net.cpp:454] res4b1_branch2a_relu <- res4b1_branch2a
I0315 12:06:46.122159 13464 net.cpp:397] res4b1_branch2a_relu -> res4b1_branch2a (in-place)
I0315 12:06:46.122174 13464 net.cpp:150] Setting up res4b1_branch2a_relu
I0315 12:06:46.122186 13464 net.cpp:157] Top shape: 8 256 14 14 (401408)
I0315 12:06:46.122195 13464 net.cpp:165] Memory required for data: 1954055136
I0315 12:06:46.122205 13464 layer_factory.hpp:77] Creating layer res4b1_branch2b
I0315 12:06:46.122220 13464 net.cpp:106] Creating Layer res4b1_branch2b
I0315 12:06:46.122229 13464 net.cpp:454] res4b1_branch2b <- res4b1_branch2a
I0315 12:06:46.122246 13464 net.cpp:411] res4b1_branch2b -> res4b1_branch2b
I0315 12:06:46.124099 13464 net.cpp:150] Setting up res4b1_branch2b
I0315 12:06:46.124122 13464 net.cpp:157] Top shape: 8 256 14 14 (401408)
I0315 12:06:46.124132 13464 net.cpp:165] Memory required for data: 1955660768
I0315 12:06:46.124145 13464 layer_factory.hpp:77] Creating layer bn4b1_branch2b
I0315 12:06:46.124158 13464 net.cpp:106] Creating Layer bn4b1_branch2b
I0315 12:06:46.124169 13464 net.cpp:454] bn4b1_branch2b <- res4b1_branch2b
I0315 12:06:46.124182 13464 net.cpp:397] bn4b1_branch2b -> res4b1_branch2b (in-place)
I0315 12:06:46.124411 13464 net.cpp:150] Setting up bn4b1_branch2b
I0315 12:06:46.124436 13464 net.cpp:157] Top shape: 8 256 14 14 (401408)
I0315 12:06:46.124456 13464 net.cpp:165] Memory required for data: 1957266400
I0315 12:06:46.124474 13464 layer_factory.hpp:77] Creating layer scale4b1_branch2b
I0315 12:06:46.124490 13464 net.cpp:106] Creating Layer scale4b1_branch2b
I0315 12:06:46.124501 13464 net.cpp:454] scale4b1_branch2b <- res4b1_branch2b
I0315 12:06:46.124513 13464 net.cpp:397] scale4b1_branch2b -> res4b1_branch2b (in-place)
I0315 12:06:46.124575 13464 layer_factory.hpp:77] Creating layer scale4b1_branch2b
I0315 12:06:46.124735 13464 net.cpp:150] Setting up scale4b1_branch2b
I0315 12:06:46.124754 13464 net.cpp:157] Top shape: 8 256 14 14 (401408)
I0315 12:06:46.124764 13464 net.cpp:165] Memory required for data: 1958872032
I0315 12:06:46.124778 13464 layer_factory.hpp:77] Creating layer res4b1_branch2b_relu
I0315 12:06:46.124791 13464 net.cpp:106] Creating Layer res4b1_branch2b_relu
I0315 12:06:46.124801 13464 net.cpp:454] res4b1_branch2b_relu <- res4b1_branch2b
I0315 12:06:46.124817 13464 net.cpp:397] res4b1_branch2b_relu -> res4b1_branch2b (in-place)
I0315 12:06:46.124831 13464 net.cpp:150] Setting up res4b1_branch2b_relu
I0315 12:06:46.124843 13464 net.cpp:157] Top shape: 8 256 14 14 (401408)
I0315 12:06:46.124852 13464 net.cpp:165] Memory required for data: 1960477664
I0315 12:06:46.124862 13464 layer_factory.hpp:77] Creating layer res4b1_branch2c
I0315 12:06:46.124878 13464 net.cpp:106] Creating Layer res4b1_branch2c
I0315 12:06:46.124891 13464 net.cpp:454] res4b1_branch2c <- res4b1_branch2b
I0315 12:06:46.124902 13464 net.cpp:411] res4b1_branch2c -> res4b1_branch2c
I0315 12:06:46.125952 13464 net.cpp:150] Setting up res4b1_branch2c
I0315 12:06:46.125975 13464 net.cpp:157] Top shape: 8 1024 14 14 (1605632)
I0315 12:06:46.125985 13464 net.cpp:165] Memory required for data: 1966900192
I0315 12:06:46.125998 13464 layer_factory.hpp:77] Creating layer bn4b1_branch2c
I0315 12:06:46.126014 13464 net.cpp:106] Creating Layer bn4b1_branch2c
I0315 12:06:46.126026 13464 net.cpp:454] bn4b1_branch2c <- res4b1_branch2c
I0315 12:06:46.126039 13464 net.cpp:397] bn4b1_branch2c -> res4b1_branch2c (in-place)
I0315 12:06:46.126278 13464 net.cpp:150] Setting up bn4b1_branch2c
I0315 12:06:46.126296 13464 net.cpp:157] Top shape: 8 1024 14 14 (1605632)
I0315 12:06:46.126305 13464 net.cpp:165] Memory required for data: 1973322720
I0315 12:06:46.126322 13464 layer_factory.hpp:77] Creating layer scale4b1_branch2c
I0315 12:06:46.126335 13464 net.cpp:106] Creating Layer scale4b1_branch2c
I0315 12:06:46.126345 13464 net.cpp:454] scale4b1_branch2c <- res4b1_branch2c
I0315 12:06:46.126358 13464 net.cpp:397] scale4b1_branch2c -> res4b1_branch2c (in-place)
I0315 12:06:46.126417 13464 layer_factory.hpp:77] Creating layer scale4b1_branch2c
I0315 12:06:46.126572 13464 net.cpp:150] Setting up scale4b1_branch2c
I0315 12:06:46.126590 13464 net.cpp:157] Top shape: 8 1024 14 14 (1605632)
I0315 12:06:46.126600 13464 net.cpp:165] Memory required for data: 1979745248
I0315 12:06:46.126654 13464 layer_factory.hpp:77] Creating layer res4b1
I0315 12:06:46.126672 13464 net.cpp:106] Creating Layer res4b1
I0315 12:06:46.126682 13464 net.cpp:454] res4b1 <- res4a_res4a_relu_0_split_1
I0315 12:06:46.126693 13464 net.cpp:454] res4b1 <- res4b1_branch2c
I0315 12:06:46.126706 13464 net.cpp:411] res4b1 -> res4b1
I0315 12:06:46.126749 13464 net.cpp:150] Setting up res4b1
I0315 12:06:46.126766 13464 net.cpp:157] Top shape: 8 1024 14 14 (1605632)
I0315 12:06:46.126775 13464 net.cpp:165] Memory required for data: 1986167776
I0315 12:06:46.126785 13464 layer_factory.hpp:77] Creating layer res4b1_relu
I0315 12:06:46.126797 13464 net.cpp:106] Creating Layer res4b1_relu
I0315 12:06:46.126807 13464 net.cpp:454] res4b1_relu <- res4b1
I0315 12:06:46.126822 13464 net.cpp:397] res4b1_relu -> res4b1 (in-place)
I0315 12:06:46.126837 13464 net.cpp:150] Setting up res4b1_relu
I0315 12:06:46.126848 13464 net.cpp:157] Top shape: 8 1024 14 14 (1605632)
I0315 12:06:46.126858 13464 net.cpp:165] Memory required for data: 1992590304
I0315 12:06:46.126874 13464 layer_factory.hpp:77] Creating layer res4b1_res4b1_relu_0_split
I0315 12:06:46.126896 13464 net.cpp:106] Creating Layer res4b1_res4b1_relu_0_split
I0315 12:06:46.126907 13464 net.cpp:454] res4b1_res4b1_relu_0_split <- res4b1
I0315 12:06:46.126919 13464 net.cpp:411] res4b1_res4b1_relu_0_split -> res4b1_res4b1_relu_0_split_0
I0315 12:06:46.126936 13464 net.cpp:411] res4b1_res4b1_relu_0_split -> res4b1_res4b1_relu_0_split_1
I0315 12:06:46.126991 13464 net.cpp:150] Setting up res4b1_res4b1_relu_0_split
I0315 12:06:46.127007 13464 net.cpp:157] Top shape: 8 1024 14 14 (1605632)
I0315 12:06:46.127018 13464 net.cpp:157] Top shape: 8 1024 14 14 (1605632)
I0315 12:06:46.127027 13464 net.cpp:165] Memory required for data: 2005435360
I0315 12:06:46.127038 13464 layer_factory.hpp:77] Creating layer res4b2_branch2a
I0315 12:06:46.127055 13464 net.cpp:106] Creating Layer res4b2_branch2a
I0315 12:06:46.127066 13464 net.cpp:454] res4b2_branch2a <- res4b1_res4b1_relu_0_split_0
I0315 12:06:46.127079 13464 net.cpp:411] res4b2_branch2a -> res4b2_branch2a
I0315 12:06:46.128128 13464 net.cpp:150] Setting up res4b2_branch2a
I0315 12:06:46.128150 13464 net.cpp:157] Top shape: 8 256 14 14 (401408)
I0315 12:06:46.128160 13464 net.cpp:165] Memory required for data: 2007040992
I0315 12:06:46.128172 13464 layer_factory.hpp:77] Creating layer bn4b2_branch2a
I0315 12:06:46.128190 13464 net.cpp:106] Creating Layer bn4b2_branch2a
I0315 12:06:46.128201 13464 net.cpp:454] bn4b2_branch2a <- res4b2_branch2a
I0315 12:06:46.128213 13464 net.cpp:397] bn4b2_branch2a -> res4b2_branch2a (in-place)
I0315 12:06:46.128448 13464 net.cpp:150] Setting up bn4b2_branch2a
I0315 12:06:46.128465 13464 net.cpp:157] Top shape: 8 256 14 14 (401408)
I0315 12:06:46.128475 13464 net.cpp:165] Memory required for data: 2008646624
I0315 12:06:46.128490 13464 layer_factory.hpp:77] Creating layer scale4b2_branch2a
I0315 12:06:46.128507 13464 net.cpp:106] Creating Layer scale4b2_branch2a
I0315 12:06:46.128520 13464 net.cpp:454] scale4b2_branch2a <- res4b2_branch2a
I0315 12:06:46.128531 13464 net.cpp:397] scale4b2_branch2a -> res4b2_branch2a (in-place)
I0315 12:06:46.128597 13464 layer_factory.hpp:77] Creating layer scale4b2_branch2a
I0315 12:06:46.128759 13464 net.cpp:150] Setting up scale4b2_branch2a
I0315 12:06:46.128779 13464 net.cpp:157] Top shape: 8 256 14 14 (401408)
I0315 12:06:46.128788 13464 net.cpp:165] Memory required for data: 2010252256
I0315 12:06:46.128803 13464 layer_factory.hpp:77] Creating layer res4b2_branch2a_relu
I0315 12:06:46.128815 13464 net.cpp:106] Creating Layer res4b2_branch2a_relu
I0315 12:06:46.128826 13464 net.cpp:454] res4b2_branch2a_relu <- res4b2_branch2a
I0315 12:06:46.128837 13464 net.cpp:397] res4b2_branch2a_relu -> res4b2_branch2a (in-place)
I0315 12:06:46.128851 13464 net.cpp:150] Setting up res4b2_branch2a_relu
I0315 12:06:46.128864 13464 net.cpp:157] Top shape: 8 256 14 14 (401408)
I0315 12:06:46.128872 13464 net.cpp:165] Memory required for data: 2011857888
I0315 12:06:46.128881 13464 layer_factory.hpp:77] Creating layer res4b2_branch2b
I0315 12:06:46.128900 13464 net.cpp:106] Creating Layer res4b2_branch2b
I0315 12:06:46.128911 13464 net.cpp:454] res4b2_branch2b <- res4b2_branch2a
I0315 12:06:46.128926 13464 net.cpp:411] res4b2_branch2b -> res4b2_branch2b
I0315 12:06:46.130789 13464 net.cpp:150] Setting up res4b2_branch2b
I0315 12:06:46.130811 13464 net.cpp:157] Top shape: 8 256 14 14 (401408)
I0315 12:06:46.130821 13464 net.cpp:165] Memory required for data: 2013463520
I0315 12:06:46.130833 13464 layer_factory.hpp:77] Creating layer bn4b2_branch2b
I0315 12:06:46.130847 13464 net.cpp:106] Creating Layer bn4b2_branch2b
I0315 12:06:46.130858 13464 net.cpp:454] bn4b2_branch2b <- res4b2_branch2b
I0315 12:06:46.130873 13464 net.cpp:397] bn4b2_branch2b -> res4b2_branch2b (in-place)
I0315 12:06:46.131106 13464 net.cpp:150] Setting up bn4b2_branch2b
I0315 12:06:46.131124 13464 net.cpp:157] Top shape: 8 256 14 14 (401408)
I0315 12:06:46.131134 13464 net.cpp:165] Memory required for data: 2015069152
I0315 12:06:46.131150 13464 layer_factory.hpp:77] Creating layer scale4b2_branch2b
I0315 12:06:46.131180 13464 net.cpp:106] Creating Layer scale4b2_branch2b
I0315 12:06:46.131191 13464 net.cpp:454] scale4b2_branch2b <- res4b2_branch2b
I0315 12:06:46.131203 13464 net.cpp:397] scale4b2_branch2b -> res4b2_branch2b (in-place)
I0315 12:06:46.131266 13464 layer_factory.hpp:77] Creating layer scale4b2_branch2b
I0315 12:06:46.131417 13464 net.cpp:150] Setting up scale4b2_branch2b
I0315 12:06:46.131434 13464 net.cpp:157] Top shape: 8 256 14 14 (401408)
I0315 12:06:46.131444 13464 net.cpp:165] Memory required for data: 2016674784
I0315 12:06:46.131458 13464 layer_factory.hpp:77] Creating layer res4b2_branch2b_relu
I0315 12:06:46.131470 13464 net.cpp:106] Creating Layer res4b2_branch2b_relu
I0315 12:06:46.131481 13464 net.cpp:454] res4b2_branch2b_relu <- res4b2_branch2b
I0315 12:06:46.131495 13464 net.cpp:397] res4b2_branch2b_relu -> res4b2_branch2b (in-place)
I0315 12:06:46.131510 13464 net.cpp:150] Setting up res4b2_branch2b_relu
I0315 12:06:46.131522 13464 net.cpp:157] Top shape: 8 256 14 14 (401408)
I0315 12:06:46.131531 13464 net.cpp:165] Memory required for data: 2018280416
I0315 12:06:46.131541 13464 layer_factory.hpp:77] Creating layer res4b2_branch2c
I0315 12:06:46.131554 13464 net.cpp:106] Creating Layer res4b2_branch2c
I0315 12:06:46.131564 13464 net.cpp:454] res4b2_branch2c <- res4b2_branch2b
I0315 12:06:46.131580 13464 net.cpp:411] res4b2_branch2c -> res4b2_branch2c
I0315 12:06:46.132645 13464 net.cpp:150] Setting up res4b2_branch2c
I0315 12:06:46.132669 13464 net.cpp:157] Top shape: 8 1024 14 14 (1605632)
I0315 12:06:46.132679 13464 net.cpp:165] Memory required for data: 2024702944
I0315 12:06:46.132692 13464 layer_factory.hpp:77] Creating layer bn4b2_branch2c
I0315 12:06:46.132705 13464 net.cpp:106] Creating Layer bn4b2_branch2c
I0315 12:06:46.132716 13464 net.cpp:454] bn4b2_branch2c <- res4b2_branch2c
I0315 12:06:46.132728 13464 net.cpp:397] bn4b2_branch2c -> res4b2_branch2c (in-place)
I0315 12:06:46.132974 13464 net.cpp:150] Setting up bn4b2_branch2c
I0315 12:06:46.132993 13464 net.cpp:157] Top shape: 8 1024 14 14 (1605632)
I0315 12:06:46.133003 13464 net.cpp:165] Memory required for data: 2031125472
I0315 12:06:46.133019 13464 layer_factory.hpp:77] Creating layer scale4b2_branch2c
I0315 12:06:46.133036 13464 net.cpp:106] Creating Layer scale4b2_branch2c
I0315 12:06:46.133047 13464 net.cpp:454] scale4b2_branch2c <- res4b2_branch2c
I0315 12:06:46.133059 13464 net.cpp:397] scale4b2_branch2c -> res4b2_branch2c (in-place)
I0315 12:06:46.133121 13464 layer_factory.hpp:77] Creating layer scale4b2_branch2c
I0315 12:06:46.133280 13464 net.cpp:150] Setting up scale4b2_branch2c
I0315 12:06:46.133298 13464 net.cpp:157] Top shape: 8 1024 14 14 (1605632)
I0315 12:06:46.133308 13464 net.cpp:165] Memory required for data: 2037548000
I0315 12:06:46.133322 13464 layer_factory.hpp:77] Creating layer res4b2
I0315 12:06:46.133338 13464 net.cpp:106] Creating Layer res4b2
I0315 12:06:46.133349 13464 net.cpp:454] res4b2 <- res4b1_res4b1_relu_0_split_1
I0315 12:06:46.133360 13464 net.cpp:454] res4b2 <- res4b2_branch2c
I0315 12:06:46.133373 13464 net.cpp:411] res4b2 -> res4b2
I0315 12:06:46.133415 13464 net.cpp:150] Setting up res4b2
I0315 12:06:46.133431 13464 net.cpp:157] Top shape: 8 1024 14 14 (1605632)
I0315 12:06:46.133441 13464 net.cpp:165] Memory required for data: 2043970528
…
I0315 12:06:46.701100 13464 net.cpp:165] Memory required for data: 7861240800
I0315 12:06:46.701113 13464 layer_factory.hpp:77] Creating layer id_res4b33_branch2b_relu
I0315 12:06:46.701128 13464 net.cpp:106] Creating Layer id_res4b33_branch2b_relu
I0315 12:06:46.701138 13464 net.cpp:454] id_res4b33_branch2b_relu <- id_res4b33_branch2b
I0315 12:06:46.701153 13464 net.cpp:397] id_res4b33_branch2b_relu -> id_res4b33_branch2b (in-place)
I0315 12:06:46.701169 13464 net.cpp:150] Setting up id_res4b33_branch2b_relu
I0315 12:06:46.701180 13464 net.cpp:157] Top shape: 8 256 14 14 (401408)
I0315 12:06:46.701190 13464 net.cpp:165] Memory required for data: 7862846432
I0315 12:06:46.701200 13464 layer_factory.hpp:77] Creating layer id_res4b33_branch2c
I0315 12:06:46.701216 13464 net.cpp:106] Creating Layer id_res4b33_branch2c
I0315 12:06:46.701227 13464 net.cpp:454] id_res4b33_branch2c <- id_res4b33_branch2b
I0315 12:06:46.701241 13464 net.cpp:411] id_res4b33_branch2c -> id_res4b33_branch2c
I0315 12:06:46.702375 13464 net.cpp:150] Setting up id_res4b33_branch2c
I0315 12:06:46.702397 13464 net.cpp:157] Top shape: 8 1024 14 14 (1605632)
I0315 12:06:46.702407 13464 net.cpp:165] Memory required for data: 7869268960
I0315 12:06:46.702428 13464 layer_factory.hpp:77] Creating layer id_bn4b33_branch2c
I0315 12:06:46.702455 13464 net.cpp:106] Creating Layer id_bn4b33_branch2c
I0315 12:06:46.702467 13464 net.cpp:454] id_bn4b33_branch2c <- id_res4b33_branch2c
I0315 12:06:46.702481 13464 net.cpp:397] id_bn4b33_branch2c -> id_res4b33_branch2c (in-place)
I0315 12:06:46.702774 13464 net.cpp:150] Setting up id_bn4b33_branch2c
I0315 12:06:46.702792 13464 net.cpp:157] Top shape: 8 1024 14 14 (1605632)
I0315 12:06:46.702802 13464 net.cpp:165] Memory required for data: 7875691488
I0315 12:06:46.702817 13464 layer_factory.hpp:77] Creating layer id_scale4b33_branch2c
I0315 12:06:46.702831 13464 net.cpp:106] Creating Layer id_scale4b33_branch2c
I0315 12:06:46.702842 13464 net.cpp:454] id_scale4b33_branch2c <- id_res4b33_branch2c
I0315 12:06:46.702857 13464 net.cpp:397] id_scale4b33_branch2c -> id_res4b33_branch2c (in-place)
I0315 12:06:46.702929 13464 layer_factory.hpp:77] Creating layer id_scale4b33_branch2c
I0315 12:06:46.703117 13464 net.cpp:150] Setting up id_scale4b33_branch2c
I0315 12:06:46.703138 13464 net.cpp:157] Top shape: 8 1024 14 14 (1605632)
I0315 12:06:46.703148 13464 net.cpp:165] Memory required for data: 7882114016
I0315 12:06:46.703162 13464 layer_factory.hpp:77] Creating layer id_res4b33
I0315 12:06:46.703176 13464 net.cpp:106] Creating Layer id_res4b33
I0315 12:06:46.703187 13464 net.cpp:454] id_res4b33 <- id_res4b32_id_res4b32_relu_0_split_1
I0315 12:06:46.703199 13464 net.cpp:454] id_res4b33 <- id_res4b33_branch2c
I0315 12:06:46.703212 13464 net.cpp:411] id_res4b33 -> id_res4b33
I0315 12:06:46.703258 13464 net.cpp:150] Setting up id_res4b33
I0315 12:06:46.703275 13464 net.cpp:157] Top shape: 8 1024 14 14 (1605632)
I0315 12:06:46.703285 13464 net.cpp:165] Memory required for data: 7888536544
I0315 12:06:46.703294 13464 layer_factory.hpp:77] Creating layer id_res4b33_relu
I0315 12:06:46.703307 13464 net.cpp:106] Creating Layer id_res4b33_relu
I0315 12:06:46.703320 13464 net.cpp:454] id_res4b33_relu <- id_res4b33
I0315 12:06:46.703332 13464 net.cpp:397] id_res4b33_relu -> id_res4b33 (in-place)
I0315 12:06:46.703346 13464 net.cpp:150] Setting up id_res4b33_relu
I0315 12:06:46.703358 13464 net.cpp:157] Top shape: 8 1024 14 14 (1605632)
I0315 12:06:46.703368 13464 net.cpp:165] Memory required for data: 7894959072
I0315 12:06:46.703377 13464 layer_factory.hpp:77] Creating layer id_res4b33_id_res4b33_relu_0_split
I0315 12:06:46.703389 13464 net.cpp:106] Creating Layer id_res4b33_id_res4b33_relu_0_split
I0315 12:06:46.703398 13464 net.cpp:454] id_res4b33_id_res4b33_relu_0_split <- id_res4b33
I0315 12:06:46.703411 13464 net.cpp:411] id_res4b33_id_res4b33_relu_0_split -> id_res4b33_id_res4b33_relu_0_split_0
I0315 12:06:46.703425 13464 net.cpp:411] id_res4b33_id_res4b33_relu_0_split -> id_res4b33_id_res4b33_relu_0_split_1
I0315 12:06:46.703487 13464 net.cpp:150] Setting up id_res4b33_id_res4b33_relu_0_split
I0315 12:06:46.703505 13464 net.cpp:157] Top shape: 8 1024 14 14 (1605632)
I0315 12:06:46.703516 13464 net.cpp:157] Top shape: 8 1024 14 14 (1605632)
I0315 12:06:46.703524 13464 net.cpp:165] Memory required for data: 7907804128
I0315 12:06:46.703533 13464 layer_factory.hpp:77] Creating layer id_res4b34_branch2a
I0315 12:06:46.703554 13464 net.cpp:106] Creating Layer id_res4b34_branch2a
I0315 12:06:46.703567 13464 net.cpp:454] id_res4b34_branch2a <- id_res4b33_id_res4b33_relu_0_split_0
I0315 12:06:46.703580 13464 net.cpp:411] id_res4b34_branch2a -> id_res4b34_branch2a
I0315 12:06:46.704704 13464 net.cpp:150] Setting up id_res4b34_branch2a
I0315 12:06:46.704728 13464 net.cpp:157] Top shape: 8 256 14 14 (401408)
I0315 12:06:46.704738 13464 net.cpp:165] Memory required for data: 7909409760
I0315 12:06:46.704751 13464 layer_factory.hpp:77] Creating layer id_bn4b34_branch2a
I0315 12:06:46.704764 13464 net.cpp:106] Creating Layer id_bn4b34_branch2a
I0315 12:06:46.704777 13464 net.cpp:454] id_bn4b34_branch2a <- id_res4b34_branch2a
I0315 12:06:46.704792 13464 net.cpp:397] id_bn4b34_branch2a -> id_res4b34_branch2a (in-place)
I0315 12:06:46.705076 13464 net.cpp:150] Setting up id_bn4b34_branch2a
I0315 12:06:46.705104 13464 net.cpp:157] Top shape: 8 256 14 14 (401408)
I0315 12:06:46.705116 13464 net.cpp:165] Memory required for data: 7911015392
I0315 12:06:46.705132 13464 layer_factory.hpp:77] Creating layer id_scale4b34_branch2a
I0315 12:06:46.705145 13464 net.cpp:106] Creating Layer id_scale4b34_branch2a
I0315 12:06:46.705157 13464 net.cpp:454] id_scale4b34_branch2a <- id_res4b34_branch2a
I0315 12:06:46.705168 13464 net.cpp:397] id_scale4b34_branch2a -> id_res4b34_branch2a (in-place)
I0315 12:06:46.705240 13464 layer_factory.hpp:77] Creating layer id_scale4b34_branch2a
I0315 12:06:46.705409 13464 net.cpp:150] Setting up id_scale4b34_branch2a
I0315 12:06:46.705426 13464 net.cpp:157] Top shape: 8 256 14 14 (401408)
I0315 12:06:46.705436 13464 net.cpp:165] Memory required for data: 7912621024
I0315 12:06:46.705449 13464 layer_factory.hpp:77] Creating layer id_res4b34_branch2a_relu
I0315 12:06:46.705463 13464 net.cpp:106] Creating Layer id_res4b34_branch2a_relu
I0315 12:06:46.705473 13464 net.cpp:454] id_res4b34_branch2a_relu <- id_res4b34_branch2a
I0315 12:06:46.705488 13464 net.cpp:397] id_res4b34_branch2a_relu -> id_res4b34_branch2a (in-place)
I0315 12:06:46.705503 13464 net.cpp:150] Setting up id_res4b34_branch2a_relu
I0315 12:06:46.705515 13464 net.cpp:157] Top shape: 8 256 14 14 (401408)
I0315 12:06:46.705524 13464 net.cpp:165] Memory required for data: 7914226656
I0315 12:06:46.705534 13464 layer_factory.hpp:77] Creating layer id_res4b34_branch2b
I0315 12:06:46.705549 13464 net.cpp:106] Creating Layer id_res4b34_branch2b
I0315 12:06:46.705559 13464 net.cpp:454] id_res4b34_branch2b <- id_res4b34_branch2a
I0315 12:06:46.705574 13464 net.cpp:411] id_res4b34_branch2b -> id_res4b34_branch2b
I0315 12:06:46.707509 13464 net.cpp:150] Setting up id_res4b34_branch2b
I0315 12:06:46.707532 13464 net.cpp:157] Top shape: 8 256 14 14 (401408)
I0315 12:06:46.707542 13464 net.cpp:165] Memory required for data: 7915832288
I0315 12:06:46.707556 13464 layer_factory.hpp:77] Creating layer id_bn4b34_branch2b
I0315 12:06:46.707569 13464 net.cpp:106] Creating Layer id_bn4b34_branch2b
I0315 12:06:46.707581 13464 net.cpp:454] id_bn4b34_branch2b <- id_res4b34_branch2b
I0315 12:06:46.707593 13464 net.cpp:397] id_bn4b34_branch2b -> id_res4b34_branch2b (in-place)
I0315 12:06:46.707865 13464 net.cpp:150] Setting up id_bn4b34_branch2b
I0315 12:06:46.707883 13464 net.cpp:157] Top shape: 8 256 14 14 (401408)
I0315 12:06:46.707893 13464 net.cpp:165] Memory required for data: 7917437920
I0315 12:06:46.707909 13464 layer_factory.hpp:77] Creating layer id_scale4b34_branch2b
I0315 12:06:46.707926 13464 net.cpp:106] Creating Layer id_scale4b34_branch2b
I0315 12:06:46.707938 13464 net.cpp:454] id_scale4b34_branch2b <- id_res4b34_branch2b
I0315 12:06:46.707950 13464 net.cpp:397] id_scale4b34_branch2b -> id_res4b34_branch2b (in-place)
I0315 12:06:46.708024 13464 layer_factory.hpp:77] Creating layer id_scale4b34_branch2b
I0315 12:06:46.708199 13464 net.cpp:150] Setting up id_scale4b34_branch2b
I0315 12:06:46.708217 13464 net.cpp:157] Top shape: 8 256 14 14 (401408)
I0315 12:06:46.708227 13464 net.cpp:165] Memory required for data: 7919043552
I0315 12:06:46.708241 13464 layer_factory.hpp:77] Creating layer id_res4b34_branch2b_relu
I0315 12:06:46.708254 13464 net.cpp:106] Creating Layer id_res4b34_branch2b_relu
I0315 12:06:46.708266 13464 net.cpp:454] id_res4b34_branch2b_relu <- id_res4b34_branch2b
I0315 12:06:46.708281 13464 net.cpp:397] id_res4b34_branch2b_relu -> id_res4b34_branch2b (in-place)
I0315 12:06:46.708295 13464 net.cpp:150] Setting up id_res4b34_branch2b_relu
I0315 12:06:46.708307 13464 net.cpp:157] Top shape: 8 256 14 14 (401408)
I0315 12:06:46.708317 13464 net.cpp:165] Memory required for data: 7920649184
I0315 12:06:46.708326 13464 layer_factory.hpp:77] Creating layer id_res4b34_branch2c
I0315 12:06:46.708343 13464 net.cpp:106] Creating Layer id_res4b34_branch2c
I0315 12:06:46.708354 13464 net.cpp:454] id_res4b34_branch2c <- id_res4b34_branch2b
I0315 12:06:46.708367 13464 net.cpp:411] id_res4b34_branch2c -> id_res4b34_branch2c
I0315 12:06:46.709508 13464 net.cpp:150] Setting up id_res4b34_branch2c
I0315 12:06:46.709532 13464 net.cpp:157] Top shape: 8 1024 14 14 (1605632)
I0315 12:06:46.709542 13464 net.cpp:165] Memory required for data: 7927071712
I0315 12:06:46.709555 13464 layer_factory.hpp:77] Creating layer id_bn4b34_branch2c
I0315 12:06:46.709573 13464 net.cpp:106] Creating Layer id_bn4b34_branch2c
I0315 12:06:46.709584 13464 net.cpp:454] id_bn4b34_branch2c <- id_res4b34_branch2c
I0315 12:06:46.709596 13464 net.cpp:397] id_bn4b34_branch2c -> id_res4b34_branch2c (in-place)
I0315 12:06:46.709889 13464 net.cpp:150] Setting up id_bn4b34_branch2c
I0315 12:06:46.709908 13464 net.cpp:157] Top shape: 8 1024 14 14 (1605632)
I0315 12:06:46.709918 13464 net.cpp:165] Memory required for data: 7933494240
I0315 12:06:46.709934 13464 layer_factory.hpp:77] Creating layer id_scale4b34_branch2c
I0315 12:06:46.709949 13464 net.cpp:106] Creating Layer id_scale4b34_branch2c
I0315 12:06:46.709959 13464 net.cpp:454] id_scale4b34_branch2c <- id_res4b34_branch2c
I0315 12:06:46.709975 13464 net.cpp:397] id_scale4b34_branch2c -> id_res4b34_branch2c (in-place)
I0315 12:06:46.710049 13464 layer_factory.hpp:77] Creating layer id_scale4b34_branch2c
I0315 12:06:46.710240 13464 net.cpp:150] Setting up id_scale4b34_branch2c
I0315 12:06:46.710263 13464 net.cpp:157] Top shape: 8 1024 14 14 (1605632)
I0315 12:06:46.710273 13464 net.cpp:165] Memory required for data: 7939916768
I0315 12:06:46.710285 13464 layer_factory.hpp:77] Creating layer id_res4b34
I0315 12:06:46.710299 13464 net.cpp:106] Creating Layer id_res4b34
I0315 12:06:46.710310 13464 net.cpp:454] id_res4b34 <- id_res4b33_id_res4b33_relu_0_split_1
I0315 12:06:46.710322 13464 net.cpp:454] id_res4b34 <- id_res4b34_branch2c
I0315 12:06:46.710335 13464 net.cpp:411] id_res4b34 -> id_res4b34
I0315 12:06:46.710382 13464 net.cpp:150] Setting up id_res4b34
I0315 12:06:46.710400 13464 net.cpp:157] Top shape: 8 1024 14 14 (1605632)
I0315 12:06:46.710409 13464 net.cpp:165] Memory required for data: 7946339296
I0315 12:06:46.710419 13464 layer_factory.hpp:77] Creating layer id_res4b34_relu
I0315 12:06:46.710433 13464 net.cpp:106] Creating Layer id_res4b34_relu
I0315 12:06:46.710443 13464 net.cpp:454] id_res4b34_relu <- id_res4b34
I0315 12:06:46.710458 13464 net.cpp:397] id_res4b34_relu -> id_res4b34 (in-place)
I0315 12:06:46.710472 13464 net.cpp:150] Setting up id_res4b34_relu
I0315 12:06:46.710484 13464 net.cpp:157] Top shape: 8 1024 14 14 (1605632)
I0315 12:06:46.710494 13464 net.cpp:165] Memory required for data: 7952761824
I0315 12:06:46.710502 13464 layer_factory.hpp:77] Creating layer id_res4b34_id_res4b34_relu_0_split
I0315 12:06:46.710515 13464 net.cpp:106] Creating Layer id_res4b34_id_res4b34_relu_0_split
I0315 12:06:46.710525 13464 net.cpp:454] id_res4b34_id_res4b34_relu_0_split <- id_res4b34
I0315 12:06:46.710536 13464 net.cpp:411] id_res4b34_id_res4b34_relu_0_split -> id_res4b34_id_res4b34_relu_0_split_0
I0315 12:06:46.710551 13464 net.cpp:411] id_res4b34_id_res4b34_relu_0_split -> id_res4b34_id_res4b34_relu_0_split_1
I0315 12:06:46.710614 13464 net.cpp:150] Setting up id_res4b34_id_res4b34_relu_0_split
I0315 12:06:46.710630 13464 net.cpp:157] Top shape: 8 1024 14 14 (1605632)
I0315 12:06:46.710641 13464 net.cpp:157] Top shape: 8 1024 14 14 (1605632)
I0315 12:06:46.710650 13464 net.cpp:165] Memory required for data: 7965606880
I0315 12:06:46.710660 13464 layer_factory.hpp:77] Creating layer id_res4b35_branch2a
I0315 12:06:46.710677 13464 net.cpp:106] Creating Layer id_res4b35_branch2a
I0315 12:06:46.710690 13464 net.cpp:454] id_res4b35_branch2a <- id_res4b34_id_res4b34_relu_0_split_0
I0315 12:06:46.710702 13464 net.cpp:411] id_res4b35_branch2a -> id_res4b35_branch2a
I0315 12:06:46.711822 13464 net.cpp:150] Setting up id_res4b35_branch2a
I0315 12:06:46.711844 13464 net.cpp:157] Top shape: 8 256 14 14 (401408)
I0315 12:06:46.711854 13464 net.cpp:165] Memory required for data: 7967212512
I0315 12:06:46.711868 13464 layer_factory.hpp:77] Creating layer id_bn4b35_branch2a
I0315 12:06:46.711887 13464 net.cpp:106] Creating Layer id_bn4b35_branch2a
I0315 12:06:46.711910 13464 net.cpp:454] id_bn4b35_branch2a <- id_res4b35_branch2a
I0315 12:06:46.711925 13464 net.cpp:397] id_bn4b35_branch2a -> id_res4b35_branch2a (in-place)
I0315 12:06:46.712208 13464 net.cpp:150] Setting up id_bn4b35_branch2a
I0315 12:06:46.712225 13464 net.cpp:157] Top shape: 8 256 14 14 (401408)
I0315 12:06:46.712235 13464 net.cpp:165] Memory required for data: 7968818144
I0315 12:06:46.712251 13464 layer_factory.hpp:77] Creating layer id_scale4b35_branch2a
I0315 12:06:46.712265 13464 net.cpp:106] Creating Layer id_scale4b35_branch2a
I0315 12:06:46.712276 13464 net.cpp:454] id_scale4b35_branch2a <- id_res4b35_branch2a
I0315 12:06:46.712290 13464 net.cpp:397] id_scale4b35_branch2a -> id_res4b35_branch2a (in-place)
I0315 12:06:46.712362 13464 layer_factory.hpp:77] Creating layer id_scale4b35_branch2a
I0315 12:06:46.712532 13464 net.cpp:150] Setting up id_scale4b35_branch2a
I0315 12:06:46.712550 13464 net.cpp:157] Top shape: 8 256 14 14 (401408)
I0315 12:06:46.712560 13464 net.cpp:165] Memory required for data: 7970423776
I0315 12:06:46.712574 13464 layer_factory.hpp:77] Creating layer id_res4b35_branch2a_relu
I0315 12:06:46.712586 13464 net.cpp:106] Creating Layer id_res4b35_branch2a_relu
I0315 12:06:46.712597 13464 net.cpp:454] id_res4b35_branch2a_relu <- id_res4b35_branch2a
I0315 12:06:46.712623 13464 net.cpp:397] id_res4b35_branch2a_relu -> id_res4b35_branch2a (in-place)
I0315 12:06:46.712642 13464 net.cpp:150] Setting up id_res4b35_branch2a_relu
I0315 12:06:46.712656 13464 net.cpp:157] Top shape: 8 256 14 14 (401408)
I0315 12:06:46.712664 13464 net.cpp:165] Memory required for data: 7972029408
I0315 12:06:46.712673 13464 layer_factory.hpp:77] Creating layer id_res4b35_branch2b
I0315 12:06:46.712688 13464 net.cpp:106] Creating Layer id_res4b35_branch2b
I0315 12:06:46.712699 13464 net.cpp:454] id_res4b35_branch2b <- id_res4b35_branch2a
I0315 12:06:46.712715 13464 net.cpp:411] id_res4b35_branch2b -> id_res4b35_branch2b
I0315 12:06:46.715317 13464 net.cpp:150] Setting up id_res4b35_branch2b
I0315 12:06:46.715342 13464 net.cpp:157] Top shape: 8 256 14 14 (401408)
I0315 12:06:46.715351 13464 net.cpp:165] Memory required for data: 7973635040
I0315 12:06:46.715364 13464 layer_factory.hpp:77] Creating layer id_bn4b35_branch2b
I0315 12:06:46.715378 13464 net.cpp:106] Creating Layer id_bn4b35_branch2b
I0315 12:06:46.715389 13464 net.cpp:454] id_bn4b35_branch2b <- id_res4b35_branch2b
I0315 12:06:46.715405 13464 net.cpp:397] id_bn4b35_branch2b -> id_res4b35_branch2b (in-place)
I0315 12:06:46.715652 13464 net.cpp:150] Setting up id_bn4b35_branch2b
I0315 12:06:46.715670 13464 net.cpp:157] Top shape: 8 256 14 14 (401408)
I0315 12:06:46.715680 13464 net.cpp:165] Memory required for data: 7975240672
I0315 12:06:46.715698 13464 layer_factory.hpp:77] Creating layer id_scale4b35_branch2b
I0315 12:06:46.715711 13464 net.cpp:106] Creating Layer id_scale4b35_branch2b
I0315 12:06:46.715723 13464 net.cpp:454] id_scale4b35_branch2b <- id_res4b35_branch2b
I0315 12:06:46.715734 13464 net.cpp:397] id_scale4b35_branch2b -> id_res4b35_branch2b (in-place)
I0315 12:06:46.715800 13464 layer_factory.hpp:77] Creating layer id_scale4b35_branch2b
I0315 12:06:46.715953 13464 net.cpp:150] Setting up id_scale4b35_branch2b
I0315 12:06:46.715970 13464 net.cpp:157] Top shape: 8 256 14 14 (401408)
I0315 12:06:46.715981 13464 net.cpp:165] Memory required for data: 7976846304
I0315 12:06:46.715994 13464 layer_factory.hpp:77] Creating layer id_res4b35_branch2b_relu
I0315 12:06:46.716007 13464 net.cpp:106] Creating Layer id_res4b35_branch2b_relu
I0315 12:06:46.716018 13464 net.cpp:454] id_res4b35_branch2b_relu <- id_res4b35_branch2b
I0315 12:06:46.716033 13464 net.cpp:397] id_res4b35_branch2b_relu -> id_res4b35_branch2b (in-place)
I0315 12:06:46.716048 13464 net.cpp:150] Setting up id_res4b35_branch2b_relu
I0315 12:06:46.716060 13464 net.cpp:157] Top shape: 8 256 14 14 (401408)
I0315 12:06:46.716069 13464 net.cpp:165] Memory required for data: 7978451936
I0315 12:06:46.716085 13464 layer_factory.hpp:77] Creating layer id_res4b35_branch2c
I0315 12:06:46.716110 13464 net.cpp:106] Creating Layer id_res4b35_branch2c
I0315 12:06:46.716121 13464 net.cpp:454] id_res4b35_branch2c <- id_res4b35_branch2b
I0315 12:06:46.716137 13464 net.cpp:411] id_res4b35_branch2c -> id_res4b35_branch2c
I0315 12:06:46.717247 13464 net.cpp:150] Setting up id_res4b35_branch2c
I0315 12:06:46.717272 13464 net.cpp:157] Top shape: 8 1024 14 14 (1605632)
I0315 12:06:46.717281 13464 net.cpp:165] Memory required for data: 7984874464
I0315 12:06:46.717294 13464 layer_factory.hpp:77] Creating layer id_bn4b35_branch2c
I0315 12:06:46.717308 13464 net.cpp:106] Creating Layer id_bn4b35_branch2c
I0315 12:06:46.717320 13464 net.cpp:454] id_bn4b35_branch2c <- id_res4b35_branch2c
I0315 12:06:46.717334 13464 net.cpp:397] id_bn4b35_branch2c -> id_res4b35_branch2c (in-place)
I0315 12:06:46.717604 13464 net.cpp:150] Setting up id_bn4b35_branch2c
I0315 12:06:46.717622 13464 net.cpp:157] Top shape: 8 1024 14 14 (1605632)
I0315 12:06:46.717633 13464 net.cpp:165] Memory required for data: 7991296992
I0315 12:06:46.717648 13464 layer_factory.hpp:77] Creating layer id_scale4b35_branch2c
I0315 12:06:46.717665 13464 net.cpp:106] Creating Layer id_scale4b35_branch2c
I0315 12:06:46.717677 13464 net.cpp:454] id_scale4b35_branch2c <- id_res4b35_branch2c
I0315 12:06:46.717690 13464 net.cpp:397] id_scale4b35_branch2c -> id_res4b35_branch2c (in-place)
I0315 12:06:46.717764 13464 layer_factory.hpp:77] Creating layer id_scale4b35_branch2c
I0315 12:06:46.717945 13464 net.cpp:150] Setting up id_scale4b35_branch2c
I0315 12:06:46.717963 13464 net.cpp:157] Top shape: 8 1024 14 14 (1605632)
I0315 12:06:46.717973 13464 net.cpp:165] Memory required for data: 7997719520
I0315 12:06:46.717988 13464 layer_factory.hpp:77] Creating layer id_res4b35
I0315 12:06:46.718000 13464 net.cpp:106] Creating Layer id_res4b35
I0315 12:06:46.718011 13464 net.cpp:454] id_res4b35 <- id_res4b34_id_res4b34_relu_0_split_1
I0315 12:06:46.718024 13464 net.cpp:454] id_res4b35 <- id_res4b35_branch2c
I0315 12:06:46.718039 13464 net.cpp:411] id_res4b35 -> id_res4b35
I0315 12:06:46.718083 13464 net.cpp:150] Setting up id_res4b35
I0315 12:06:46.718099 13464 net.cpp:157] Top shape: 8 1024 14 14 (1605632)
I0315 12:06:46.718109 13464 net.cpp:165] Memory required for data: 8004142048
I0315 12:06:46.718119 13464 layer_factory.hpp:77] Creating layer id_res4b35_relu
I0315 12:06:46.718132 13464 net.cpp:106] Creating Layer id_res4b35_relu
I0315 12:06:46.718142 13464 net.cpp:454] id_res4b35_relu <- id_res4b35
I0315 12:06:46.718155 13464 net.cpp:411] id_res4b35_relu -> id_R4_res4b35
I0315 12:06:46.718197 13464 net.cpp:150] Setting up id_res4b35_relu
I0315 12:06:46.718214 13464 net.cpp:157] Top shape: 8 1024 14 14 (1605632)
I0315 12:06:46.718224 13464 net.cpp:165] Memory required for data: 8010564576
I0315 12:06:46.718232 13464 layer_factory.hpp:77] Creating layer id_R4_res4b35_id_res4b35_relu_0_split
I0315 12:06:46.718245 13464 net.cpp:106] Creating Layer id_R4_res4b35_id_res4b35_relu_0_split
I0315 12:06:46.718255 13464 net.cpp:454] id_R4_res4b35_id_res4b35_relu_0_split <- id_R4_res4b35
I0315 12:06:46.718267 13464 net.cpp:411] id_R4_res4b35_id_res4b35_relu_0_split -> id_R4_res4b35_id_res4b35_relu_0_split_0
I0315 12:06:46.718282 13464 net.cpp:411] id_R4_res4b35_id_res4b35_relu_0_split -> id_R4_res4b35_id_res4b35_relu_0_split_1
I0315 12:06:46.718338 13464 net.cpp:150] Setting up id_R4_res4b35_id_res4b35_relu_0_split
I0315 12:06:46.718353 13464 net.cpp:157] Top shape: 8 1024 14 14 (1605632)
I0315 12:06:46.718364 13464 net.cpp:157] Top shape: 8 1024 14 14 (1605632)
I0315 12:06:46.718374 13464 net.cpp:165] Memory required for data: 8023409632
I0315 12:06:46.718384 13464 layer_factory.hpp:77] Creating layer id_res5a_branch1
I0315 12:06:46.718400 13464 net.cpp:106] Creating Layer id_res5a_branch1
I0315 12:06:46.718412 13464 net.cpp:454] id_res5a_branch1 <- id_R4_res4b35_id_res4b35_relu_0_split_0
I0315 12:06:46.718428 13464 net.cpp:411] id_res5a_branch1 -> id_res5a_branch1
I0315 12:06:46.724107 13464 net.cpp:150] Setting up id_res5a_branch1
I0315 12:06:46.724148 13464 net.cpp:157] Top shape: 8 2048 7 7 (802816)
I0315 12:06:46.724158 13464 net.cpp:165] Memory required for data: 8026620896
I0315 12:06:46.724170 13464 layer_factory.hpp:77] Creating layer id_bn5a_branch1
I0315 12:06:46.724184 13464 net.cpp:106] Creating Layer id_bn5a_branch1
I0315 12:06:46.724195 13464 net.cpp:454] id_bn5a_branch1 <- id_res5a_branch1
I0315 12:06:46.724208 13464 net.cpp:397] id_bn5a_branch1 -> id_res5a_branch1 (in-place)
I0315 12:06:46.724535 13464 net.cpp:150] Setting up id_bn5a_branch1
I0315 12:06:46.724555 13464 net.cpp:157] Top shape: 8 2048 7 7 (802816)
I0315 12:06:46.724565 13464 net.cpp:165] Memory required for data: 8029832160
I0315 12:06:46.724581 13464 layer_factory.hpp:77] Creating layer id_scale5a_branch1
I0315 12:06:46.724596 13464 net.cpp:106] Creating Layer id_scale5a_branch1
I0315 12:06:46.724606 13464 net.cpp:454] id_scale5a_branch1 <- id_res5a_branch1
I0315 12:06:46.724627 13464 net.cpp:397] id_scale5a_branch1 -> id_res5a_branch1 (in-place)
I0315 12:06:46.724720 13464 layer_factory.hpp:77] Creating layer id_scale5a_branch1
I0315 12:06:46.724915 13464 net.cpp:150] Setting up id_scale5a_branch1
I0315 12:06:46.724934 13464 net.cpp:157] Top shape: 8 2048 7 7 (802816)
I0315 12:06:46.724943 13464 net.cpp:165] Memory required for data: 8033043424
I0315 12:06:46.724957 13464 layer_factory.hpp:77] Creating layer id_res5a_branch2a
I0315 12:06:46.724977 13464 net.cpp:106] Creating Layer id_res5a_branch2a
I0315 12:06:46.724988 13464 net.cpp:454] id_res5a_branch2a <- id_R4_res4b35_id_res4b35_relu_0_split_1
I0315 12:06:46.725003 13464 net.cpp:411] id_res5a_branch2a -> id_res5a_branch2a
I0315 12:06:46.726747 13464 net.cpp:150] Setting up id_res5a_branch2a
I0315 12:06:46.726769 13464 net.cpp:157] Top shape: 8 512 7 7 (200704)
I0315 12:06:46.726779 13464 net.cpp:165] Memory required for data: 8033846240
I0315 12:06:46.726793 13464 layer_factory.hpp:77] Creating layer id_bn5a_branch2a
I0315 12:06:46.726809 13464 net.cpp:106] Creating Layer id_bn5a_branch2a
I0315 12:06:46.726821 13464 net.cpp:454] id_bn5a_branch2a <- id_res5a_branch2a
I0315 12:06:46.726835 13464 net.cpp:397] id_bn5a_branch2a -> id_res5a_branch2a (in-place)
I0315 12:06:46.727107 13464 net.cpp:150] Setting up id_bn5a_branch2a
I0315 12:06:46.727125 13464 net.cpp:157] Top shape: 8 512 7 7 (200704)
I0315 12:06:46.727135 13464 net.cpp:165] Memory required for data: 8034649056
I0315 12:06:46.727151 13464 layer_factory.hpp:77] Creating layer id_scale5a_branch2a
I0315 12:06:46.727165 13464 net.cpp:106] Creating Layer id_scale5a_branch2a
I0315 12:06:46.727176 13464 net.cpp:454] id_scale5a_branch2a <- id_res5a_branch2a
I0315 12:06:46.727192 13464 net.cpp:397] id_scale5a_branch2a -> id_res5a_branch2a (in-place)
I0315 12:06:46.727262 13464 layer_factory.hpp:77] Creating layer id_scale5a_branch2a
I0315 12:06:46.727434 13464 net.cpp:150] Setting up id_scale5a_branch2a
I0315 12:06:46.727455 13464 net.cpp:157] Top shape: 8 512 7 7 (200704)
I0315 12:06:46.727465 13464 net.cpp:165] Memory required for data: 8035451872
I0315 12:06:46.727479 13464 layer_factory.hpp:77] Creating layer id_res5a_branch2a_relu
I0315 12:06:46.727493 13464 net.cpp:106] Creating Layer id_res5a_branch2a_relu
I0315 12:06:46.727504 13464 net.cpp:454] id_res5a_branch2a_relu <- id_res5a_branch2a
I0315 12:06:46.727515 13464 net.cpp:397] id_res5a_branch2a_relu -> id_res5a_branch2a (in-place)
I0315 12:06:46.727530 13464 net.cpp:150] Setting up id_res5a_branch2a_relu
I0315 12:06:46.727541 13464 net.cpp:157] Top shape: 8 512 7 7 (200704)
I0315 12:06:46.727550 13464 net.cpp:165] Memory required for data: 8036254688
I0315 12:06:46.727560 13464 layer_factory.hpp:77] Creating layer id_res5a_branch2b
I0315 12:06:46.727578 13464 net.cpp:106] Creating Layer id_res5a_branch2b
I0315 12:06:46.727591 13464 net.cpp:454] id_res5a_branch2b <- id_res5a_branch2a
I0315 12:06:46.727603 13464 net.cpp:411] id_res5a_branch2b -> id_res5a_branch2b
I0315 12:06:46.734006 13464 net.cpp:150] Setting up id_res5a_branch2b
I0315 12:06:46.734038 13464 net.cpp:157] Top shape: 8 512 7 7 (200704)
I0315 12:06:46.734066 13464 net.cpp:165] Memory required for data: 8037057504
I0315 12:06:46.734081 13464 layer_factory.hpp:77] Creating layer id_bn5a_branch2b
I0315 12:06:46.734097 13464 net.cpp:106] Creating Layer id_bn5a_branch2b
I0315 12:06:46.734107 13464 net.cpp:454] id_bn5a_branch2b <- id_res5a_branch2b
I0315 12:06:46.734123 13464 net.cpp:397] id_bn5a_branch2b -> id_res5a_branch2b (in-place)
I0315 12:06:46.734400 13464 net.cpp:150] Setting up id_bn5a_branch2b
I0315 12:06:46.734419 13464 net.cpp:157] Top shape: 8 512 7 7 (200704)
I0315 12:06:46.734429 13464 net.cpp:165] Memory required for data: 8037860320
I0315 12:06:46.734446 13464 layer_factory.hpp:77] Creating layer id_scale5a_branch2b
I0315 12:06:46.734458 13464 net.cpp:106] Creating Layer id_scale5a_branch2b
I0315 12:06:46.734470 13464 net.cpp:454] id_scale5a_branch2b <- id_res5a_branch2b
I0315 12:06:46.734483 13464 net.cpp:397] id_scale5a_branch2b -> id_res5a_branch2b (in-place)
I0315 12:06:46.734556 13464 layer_factory.hpp:77] Creating layer id_scale5a_branch2b
I0315 12:06:46.734732 13464 net.cpp:150] Setting up id_scale5a_branch2b
I0315 12:06:46.734751 13464 net.cpp:157] Top shape: 8 512 7 7 (200704)
I0315 12:06:46.734760 13464 net.cpp:165] Memory required for data: 8038663136
I0315 12:06:46.734773 13464 layer_factory.hpp:77] Creating layer id_res5a_branch2b_relu
I0315 12:06:46.734786 13464 net.cpp:106] Creating Layer id_res5a_branch2b_relu
I0315 12:06:46.734797 13464 net.cpp:454] id_res5a_branch2b_relu <- id_res5a_branch2b
I0315 12:06:46.734815 13464 net.cpp:397] id_res5a_branch2b_relu -> id_res5a_branch2b (in-place)
I0315 12:06:46.734830 13464 net.cpp:150] Setting up id_res5a_branch2b_relu
I0315 12:06:46.734843 13464 net.cpp:157] Top shape: 8 512 7 7 (200704)
I0315 12:06:46.734851 13464 net.cpp:165] Memory required for data: 8039465952
I0315 12:06:46.734860 13464 layer_factory.hpp:77] Creating layer id_res5a_branch2c
I0315 12:06:46.734874 13464 net.cpp:106] Creating Layer id_res5a_branch2c
I0315 12:06:46.734884 13464 net.cpp:454] id_res5a_branch2c <- id_res5a_branch2b
I0315 12:06:46.734901 13464 net.cpp:411] id_res5a_branch2c -> id_res5a_branch2c
I0315 12:06:46.738018 13464 net.cpp:150] Setting up id_res5a_branch2c
I0315 12:06:46.738044 13464 net.cpp:157] Top shape: 8 2048 7 7 (802816)
I0315 12:06:46.738054 13464 net.cpp:165] Memory required for data: 8042677216
I0315 12:06:46.738066 13464 layer_factory.hpp:77] Creating layer id_bn5a_branch2c
I0315 12:06:46.738080 13464 net.cpp:106] Creating Layer id_bn5a_branch2c
I0315 12:06:46.738090 13464 net.cpp:454] id_bn5a_branch2c <- id_res5a_branch2c
I0315 12:06:46.738103 13464 net.cpp:397] id_bn5a_branch2c -> id_res5a_branch2c (in-place)
I0315 12:06:46.738405 13464 net.cpp:150] Setting up id_bn5a_branch2c
I0315 12:06:46.738425 13464 net.cpp:157] Top shape: 8 2048 7 7 (802816)
I0315 12:06:46.738435 13464 net.cpp:165] Memory required for data: 8045888480
I0315 12:06:46.738451 13464 layer_factory.hpp:77] Creating layer id_scale5a_branch2c
I0315 12:06:46.738467 13464 net.cpp:106] Creating Layer id_scale5a_branch2c
I0315 12:06:46.738479 13464 net.cpp:454] id_scale5a_branch2c <- id_res5a_branch2c
I0315 12:06:46.738492 13464 net.cpp:397] id_scale5a_branch2c -> id_res5a_branch2c (in-place)
I0315 12:06:46.738581 13464 layer_factory.hpp:77] Creating layer id_scale5a_branch2c
I0315 12:06:46.738783 13464 net.cpp:150] Setting up id_scale5a_branch2c
I0315 12:06:46.738802 13464 net.cpp:157] Top shape: 8 2048 7 7 (802816)
I0315 12:06:46.738812 13464 net.cpp:165] Memory required for data: 8049099744
I0315 12:06:46.738826 13464 layer_factory.hpp:77] Creating layer id_res5a
I0315 12:06:46.738840 13464 net.cpp:106] Creating Layer id_res5a
I0315 12:06:46.738852 13464 net.cpp:454] id_res5a <- id_res5a_branch1
I0315 12:06:46.738863 13464 net.cpp:454] id_res5a <- id_res5a_branch2c
I0315 12:06:46.738879 13464 net.cpp:411] id_res5a -> id_res5a
I0315 12:06:46.738926 13464 net.cpp:150] Setting up id_res5a
I0315 12:06:46.738943 13464 net.cpp:157] Top shape: 8 2048 7 7 (802816)
I0315 12:06:46.738960 13464 net.cpp:165] Memory required for data: 8052311008
I0315 12:06:46.738979 13464 layer_factory.hpp:77] Creating layer id_res5a_relu
I0315 12:06:46.738992 13464 net.cpp:106] Creating Layer id_res5a_relu
I0315 12:06:46.739003 13464 net.cpp:454] id_res5a_relu <- id_res5a
I0315 12:06:46.739015 13464 net.cpp:397] id_res5a_relu -> id_res5a (in-place)
I0315 12:06:46.739028 13464 net.cpp:150] Setting up id_res5a_relu
I0315 12:06:46.739040 13464 net.cpp:157] Top shape: 8 2048 7 7 (802816)
I0315 12:06:46.739049 13464 net.cpp:165] Memory required for data: 8055522272
I0315 12:06:46.739059 13464 layer_factory.hpp:77] Creating layer id_res5a_id_res5a_relu_0_split
I0315 12:06:46.739073 13464 net.cpp:106] Creating Layer id_res5a_id_res5a_relu_0_split
I0315 12:06:46.739081 13464 net.cpp:454] id_res5a_id_res5a_relu_0_split <- id_res5a
I0315 12:06:46.739097 13464 net.cpp:411] id_res5a_id_res5a_relu_0_split -> id_res5a_id_res5a_relu_0_split_0
I0315 12:06:46.739112 13464 net.cpp:411] id_res5a_id_res5a_relu_0_split -> id_res5a_id_res5a_relu_0_split_1
I0315 12:06:46.739171 13464 net.cpp:150] Setting up id_res5a_id_res5a_relu_0_split
I0315 12:06:46.739187 13464 net.cpp:157] Top shape: 8 2048 7 7 (802816)
I0315 12:06:46.739198 13464 net.cpp:157] Top shape: 8 2048 7 7 (802816)
I0315 12:06:46.739207 13464 net.cpp:165] Memory required for data: 8061944800
I0315 12:06:46.739217 13464 layer_factory.hpp:77] Creating layer id_res5b_branch2a
I0315 12:06:46.739231 13464 net.cpp:106] Creating Layer id_res5b_branch2a
I0315 12:06:46.739243 13464 net.cpp:454] id_res5b_branch2a <- id_res5a_id_res5a_relu_0_split_0
I0315 12:06:46.739255 13464 net.cpp:411] id_res5b_branch2a -> id_res5b_branch2a
I0315 12:06:46.742316 13464 net.cpp:150] Setting up id_res5b_branch2a
I0315 12:06:46.742347 13464 net.cpp:157] Top shape: 8 512 7 7 (200704)
I0315 12:06:46.742357 13464 net.cpp:165] Memory required for data: 8062747616
I0315 12:06:46.742372 13464 layer_factory.hpp:77] Creating layer id_bn5b_branch2a
I0315 12:06:46.742396 13464 net.cpp:106] Creating Layer id_bn5b_branch2a
I0315 12:06:46.742410 13464 net.cpp:454] id_bn5b_branch2a <- id_res5b_branch2a
I0315 12:06:46.742426 13464 net.cpp:397] id_bn5b_branch2a -> id_res5b_branch2a (in-place)
I0315 12:06:46.742738 13464 net.cpp:150] Setting up id_bn5b_branch2a
I0315 12:06:46.742758 13464 net.cpp:157] Top shape: 8 512 7 7 (200704)
I0315 12:06:46.742769 13464 net.cpp:165] Memory required for data: 8063550432
I0315 12:06:46.742786 13464 layer_factory.hpp:77] Creating layer id_scale5b_branch2a
I0315 12:06:46.742804 13464 net.cpp:106] Creating Layer id_scale5b_branch2a
I0315 12:06:46.742815 13464 net.cpp:454] id_scale5b_branch2a <- id_res5b_branch2a
I0315 12:06:46.742833 13464 net.cpp:397] id_scale5b_branch2a -> id_res5b_branch2a (in-place)
I0315 12:06:46.742913 13464 layer_factory.hpp:77] Creating layer id_scale5b_branch2a
I0315 12:06:46.743118 13464 net.cpp:150] Setting up id_scale5b_branch2a
I0315 12:06:46.743144 13464 net.cpp:157] Top shape: 8 512 7 7 (200704)
I0315 12:06:46.743154 13464 net.cpp:165] Memory required for data: 8064353248
I0315 12:06:46.743168 13464 layer_factory.hpp:77] Creating layer id_res5b_branch2a_relu
I0315 12:06:46.743183 13464 net.cpp:106] Creating Layer id_res5b_branch2a_relu
I0315 12:06:46.743194 13464 net.cpp:454] id_res5b_branch2a_relu <- id_res5b_branch2a
I0315 12:06:46.743207 13464 net.cpp:397] id_res5b_branch2a_relu -> id_res5b_branch2a (in-place)
I0315 12:06:46.743222 13464 net.cpp:150] Setting up id_res5b_branch2a_relu
I0315 12:06:46.743234 13464 net.cpp:157] Top shape: 8 512 7 7 (200704)
I0315 12:06:46.743244 13464 net.cpp:165] Memory required for data: 8065156064
I0315 12:06:46.743254 13464 layer_factory.hpp:77] Creating layer id_res5b_branch2b
I0315 12:06:46.743278 13464 net.cpp:106] Creating Layer id_res5b_branch2b
I0315 12:06:46.743289 13464 net.cpp:454] id_res5b_branch2b <- id_res5b_branch2a
I0315 12:06:46.743304 13464 net.cpp:411] id_res5b_branch2b -> id_res5b_branch2b
I0315 12:06:46.754925 13464 net.cpp:150] Setting up id_res5b_branch2b
I0315 12:06:46.755493 13464 net.cpp:157] Top shape: 8 512 7 7 (200704)
I0315 12:06:46.755641 13464 net.cpp:165] Memory required for data: 8065958880
I0315 12:06:46.755736 13464 layer_factory.hpp:77] Creating layer id_bn5b_branch2b
I0315 12:06:46.755830 13464 net.cpp:106] Creating Layer id_bn5b_branch2b
I0315 12:06:46.755863 13464 net.cpp:454] id_bn5b_branch2b <- id_res5b_branch2b
I0315 12:06:46.755905 13464 net.cpp:397] id_bn5b_branch2b -> id_res5b_branch2b (in-place)
I0315 12:06:46.756336 13464 net.cpp:150] Setting up id_bn5b_branch2b
I0315 12:06:46.756356 13464 net.cpp:157] Top shape: 8 512 7 7 (200704)
I0315 12:06:46.756366 13464 net.cpp:165] Memory required for data: 8066761696
I0315 12:06:46.756386 13464 layer_factory.hpp:77] Creating layer id_scale5b_branch2b
I0315 12:06:46.756412 13464 net.cpp:106] Creating Layer id_scale5b_branch2b
I0315 12:06:46.756422 13464 net.cpp:454] id_scale5b_branch2b <- id_res5b_branch2b
I0315 12:06:46.756438 13464 net.cpp:397] id_scale5b_branch2b -> id_res5b_branch2b (in-place)
I0315 12:06:46.756553 13464 layer_factory.hpp:77] Creating layer id_scale5b_branch2b
I0315 12:06:46.756783 13464 net.cpp:150] Setting up id_scale5b_branch2b
I0315 12:06:46.756804 13464 net.cpp:157] Top shape: 8 512 7 7 (200704)
I0315 12:06:46.756815 13464 net.cpp:165] Memory required for data: 8067564512
I0315 12:06:46.756829 13464 layer_factory.hpp:77] Creating layer id_res5b_branch2b_relu
I0315 12:06:46.756852 13464 net.cpp:106] Creating Layer id_res5b_branch2b_relu
I0315 12:06:46.756863 13464 net.cpp:454] id_res5b_branch2b_relu <- id_res5b_branch2b
I0315 12:06:46.756880 13464 net.cpp:397] id_res5b_branch2b_relu -> id_res5b_branch2b (in-place)
I0315 12:06:46.756896 13464 net.cpp:150] Setting up id_res5b_branch2b_relu
I0315 12:06:46.756911 13464 net.cpp:157] Top shape: 8 512 7 7 (200704)
I0315 12:06:46.756922 13464 net.cpp:165] Memory required for data: 8068367328
I0315 12:06:46.756930 13464 layer_factory.hpp:77] Creating layer id_res5b_branch2c
I0315 12:06:46.756963 13464 net.cpp:106] Creating Layer id_res5b_branch2c
I0315 12:06:46.756973 13464 net.cpp:454] id_res5b_branch2c <- id_res5b_branch2b
I0315 12:06:46.756994 13464 net.cpp:411] id_res5b_branch2c -> id_res5b_branch2c
I0315 12:06:46.760958 13464 net.cpp:150] Setting up id_res5b_branch2c
I0315 12:06:46.761214 13464 net.cpp:157] Top shape: 8 2048 7 7 (802816)
I0315 12:06:46.761230 13464 net.cpp:165] Memory required for data: 8071578592
I0315 12:06:46.761265 13464 layer_factory.hpp:77] Creating layer id_bn5b_branch2c
I0315 12:06:46.761313 13464 net.cpp:106] Creating Layer id_bn5b_branch2c
I0315 12:06:46.761337 13464 net.cpp:454] id_bn5b_branch2c <- id_res5b_branch2c
I0315 12:06:46.761363 13464 net.cpp:397] id_bn5b_branch2c -> id_res5b_branch2c (in-place)
I0315 12:06:46.761746 13464 net.cpp:150] Setting up id_bn5b_branch2c
I0315 12:06:46.761767 13464 net.cpp:157] Top shape: 8 2048 7 7 (802816)
I0315 12:06:46.761778 13464 net.cpp:165] Memory required for data: 8074789856
I0315 12:06:46.761795 13464 layer_factory.hpp:77] Creating layer id_scale5b_branch2c
I0315 12:06:46.761858 13464 net.cpp:106] Creating Layer id_scale5b_branch2c
I0315 12:06:46.761873 13464 net.cpp:454] id_scale5b_branch2c <- id_res5b_branch2c
I0315 12:06:46.761885 13464 net.cpp:397] id_scale5b_branch2c -> id_res5b_branch2c (in-place)
I0315 12:06:46.761992 13464 layer_factory.hpp:77] Creating layer id_scale5b_branch2c
I0315 12:06:46.762228 13464 net.cpp:150] Setting up id_scale5b_branch2c
I0315 12:06:46.762246 13464 net.cpp:157] Top shape: 8 2048 7 7 (802816)
I0315 12:06:46.762257 13464 net.cpp:165] Memory required for data: 8078001120
I0315 12:06:46.762271 13464 layer_factory.hpp:77] Creating layer id_res5b
I0315 12:06:46.762289 13464 net.cpp:106] Creating Layer id_res5b
I0315 12:06:46.762302 13464 net.cpp:454] id_res5b <- id_res5a_id_res5a_relu_0_split_1
I0315 12:06:46.762315 13464 net.cpp:454] id_res5b <- id_res5b_branch2c
I0315 12:06:46.762331 13464 net.cpp:411] id_res5b -> id_res5b
I0315 12:06:46.762395 13464 net.cpp:150] Setting up id_res5b
I0315 12:06:46.762413 13464 net.cpp:157] Top shape: 8 2048 7 7 (802816)
I0315 12:06:46.762423 13464 net.cpp:165] Memory required for data: 8081212384
I0315 12:06:46.762531 13464 layer_factory.hpp:77] Creating layer id_res5b_relu
I0315 12:06:46.762553 13464 net.cpp:106] Creating Layer id_res5b_relu
I0315 12:06:46.762563 13464 net.cpp:454] id_res5b_relu <- id_res5b
I0315 12:06:46.762575 13464 net.cpp:397] id_res5b_relu -> id_res5b (in-place)
I0315 12:06:46.762591 13464 net.cpp:150] Setting up id_res5b_relu
I0315 12:06:46.762604 13464 net.cpp:157] Top shape: 8 2048 7 7 (802816)
I0315 12:06:46.762614 13464 net.cpp:165] Memory required for data: 8084423648
I0315 12:06:46.762622 13464 layer_factory.hpp:77] Creating layer id_res5b_id_res5b_relu_0_split
I0315 12:06:46.762637 13464 net.cpp:106] Creating Layer id_res5b_id_res5b_relu_0_split
I0315 12:06:46.762650 13464 net.cpp:454] id_res5b_id_res5b_relu_0_split <- id_res5b
I0315 12:06:46.762665 13464 net.cpp:411] id_res5b_id_res5b_relu_0_split -> id_res5b_id_res5b_relu_0_split_0
I0315 12:06:46.762682 13464 net.cpp:411] id_res5b_id_res5b_relu_0_split -> id_res5b_id_res5b_relu_0_split_1
I0315 12:06:46.762744 13464 net.cpp:150] Setting up id_res5b_id_res5b_relu_0_split
I0315 12:06:46.762760 13464 net.cpp:157] Top shape: 8 2048 7 7 (802816)
I0315 12:06:46.762771 13464 net.cpp:157] Top shape: 8 2048 7 7 (802816)
I0315 12:06:46.762780 13464 net.cpp:165] Memory required for data: 8090846176
I0315 12:06:46.762791 13464 layer_factory.hpp:77] Creating layer id_res5c_branch2a
I0315 12:06:46.762822 13464 net.cpp:106] Creating Layer id_res5c_branch2a
I0315 12:06:46.762833 13464 net.cpp:454] id_res5c_branch2a <- id_res5b_id_res5b_relu_0_split_0
I0315 12:06:46.762847 13464 net.cpp:411] id_res5c_branch2a -> id_res5c_branch2a
I0315 12:06:46.767061 13464 net.cpp:150] Setting up id_res5c_branch2a
I0315 12:06:46.767242 13464 net.cpp:157] Top shape: 8 512 7 7 (200704)
I0315 12:06:46.767256 13464 net.cpp:165] Memory required for data: 8091648992
I0315 12:06:46.767287 13464 layer_factory.hpp:77] Creating layer id_bn5c_branch2a
I0315 12:06:46.767328 13464 net.cpp:106] Creating Layer id_bn5c_branch2a
I0315 12:06:46.767345 13464 net.cpp:454] id_bn5c_branch2a <- id_res5c_branch2a
I0315 12:06:46.767367 13464 net.cpp:397] id_bn5c_branch2a -> id_res5c_branch2a (in-place)
I0315 12:06:46.767693 13464 net.cpp:150] Setting up id_bn5c_branch2a
I0315 12:06:46.767711 13464 net.cpp:157] Top shape: 8 512 7 7 (200704)
I0315 12:06:46.767722 13464 net.cpp:165] Memory required for data: 8092451808
I0315 12:06:46.767742 13464 layer_factory.hpp:77] Creating layer id_scale5c_branch2a
I0315 12:06:46.767765 13464 net.cpp:106] Creating Layer id_scale5c_branch2a
I0315 12:06:46.767776 13464 net.cpp:454] id_scale5c_branch2a <- id_res5c_branch2a
I0315 12:06:46.767792 13464 net.cpp:397] id_scale5c_branch2a -> id_res5c_branch2a (in-place)
I0315 12:06:46.767892 13464 layer_factory.hpp:77] Creating layer id_scale5c_branch2a
I0315 12:06:46.768121 13464 net.cpp:150] Setting up id_scale5c_branch2a
I0315 12:06:46.768143 13464 net.cpp:157] Top shape: 8 512 7 7 (200704)
I0315 12:06:46.768153 13464 net.cpp:165] Memory required for data: 8093254624
I0315 12:06:46.768167 13464 layer_factory.hpp:77] Creating layer id_res5c_branch2a_relu
I0315 12:06:46.768187 13464 net.cpp:106] Creating Layer id_res5c_branch2a_relu
I0315 12:06:46.768198 13464 net.cpp:454] id_res5c_branch2a_relu <- id_res5c_branch2a
I0315 12:06:46.768209 13464 net.cpp:397] id_res5c_branch2a_relu -> id_res5c_branch2a (in-place)
I0315 12:06:46.768226 13464 net.cpp:150] Setting up id_res5c_branch2a_relu
I0315 12:06:46.768239 13464 net.cpp:157] Top shape: 8 512 7 7 (200704)
I0315 12:06:46.768249 13464 net.cpp:165] Memory required for data: 8094057440
I0315 12:06:46.768257 13464 layer_factory.hpp:77] Creating layer id_res5c_branch2b
I0315 12:06:46.768288 13464 net.cpp:106] Creating Layer id_res5c_branch2b
I0315 12:06:46.768301 13464 net.cpp:454] id_res5c_branch2b <- id_res5c_branch2a
I0315 12:06:46.768317 13464 net.cpp:411] id_res5c_branch2b -> id_res5c_branch2b
I0315 12:06:46.775605 13464 net.cpp:150] Setting up id_res5c_branch2b
I0315 12:06:46.775743 13464 net.cpp:157] Top shape: 8 512 7 7 (200704)
I0315 12:06:46.775790 13464 net.cpp:165] Memory required for data: 8094860256
I0315 12:06:46.775831 13464 layer_factory.hpp:77] Creating layer id_bn5c_branch2b
I0315 12:06:46.775856 13464 net.cpp:106] Creating Layer id_bn5c_branch2b
I0315 12:06:46.775872 13464 net.cpp:454] id_bn5c_branch2b <- id_res5c_branch2b
I0315 12:06:46.775903 13464 net.cpp:397] id_bn5c_branch2b -> id_res5c_branch2b (in-place)
I0315 12:06:46.776218 13464 net.cpp:150] Setting up id_bn5c_branch2b
I0315 12:06:46.776237 13464 net.cpp:157] Top shape: 8 512 7 7 (200704)
I0315 12:06:46.776247 13464 net.cpp:165] Memory required for data: 8095663072
I0315 12:06:46.776263 13464 layer_factory.hpp:77] Creating layer id_scale5c_branch2b
I0315 12:06:46.776279 13464 net.cpp:106] Creating Layer id_scale5c_branch2b
I0315 12:06:46.776290 13464 net.cpp:454] id_scale5c_branch2b <- id_res5c_branch2b
I0315 12:06:46.776302 13464 net.cpp:397] id_scale5c_branch2b -> id_res5c_branch2b (in-place)
I0315 12:06:46.776386 13464 layer_factory.hpp:77] Creating layer id_scale5c_branch2b
I0315 12:06:46.776568 13464 net.cpp:150] Setting up id_scale5c_branch2b
I0315 12:06:46.776587 13464 net.cpp:157] Top shape: 8 512 7 7 (200704)
I0315 12:06:46.776597 13464 net.cpp:165] Memory required for data: 8096465888
I0315 12:06:46.776609 13464 layer_factory.hpp:77] Creating layer id_res5c_branch2b_relu
I0315 12:06:46.776636 13464 net.cpp:106] Creating Layer id_res5c_branch2b_relu
I0315 12:06:46.776648 13464 net.cpp:454] id_res5c_branch2b_relu <- id_res5c_branch2b
I0315 12:06:46.776661 13464 net.cpp:397] id_res5c_branch2b_relu -> id_res5c_branch2b (in-place)
I0315 12:06:46.776679 13464 net.cpp:150] Setting up id_res5c_branch2b_relu
I0315 12:06:46.776691 13464 net.cpp:157] Top shape: 8 512 7 7 (200704)
I0315 12:06:46.776701 13464 net.cpp:165] Memory required for data: 8097268704
I0315 12:06:46.776710 13464 layer_factory.hpp:77] Creating layer id_res5c_branch2c
I0315 12:06:46.776727 13464 net.cpp:106] Creating Layer id_res5c_branch2c
I0315 12:06:46.776738 13464 net.cpp:454] id_res5c_branch2c <- id_res5c_branch2b
I0315 12:06:46.776753 13464 net.cpp:411] id_res5c_branch2c -> id_res5c_branch2c
I0315 12:06:46.779881 13464 net.cpp:150] Setting up id_res5c_branch2c
I0315 12:06:46.779903 13464 net.cpp:157] Top shape: 8 2048 7 7 (802816)
I0315 12:06:46.779913 13464 net.cpp:165] Memory required for data: 8100479968
I0315 12:06:46.779927 13464 layer_factory.hpp:77] Creating layer id_bn5c_branch2c
I0315 12:06:46.779940 13464 net.cpp:106] Creating Layer id_bn5c_branch2c
I0315 12:06:46.779952 13464 net.cpp:454] id_bn5c_branch2c <- id_res5c_branch2c
I0315 12:06:46.779963 13464 net.cpp:397] id_bn5c_branch2c -> id_res5c_branch2c (in-place)
I0315 12:06:46.780275 13464 net.cpp:150] Setting up id_bn5c_branch2c
I0315 12:06:46.780294 13464 net.cpp:157] Top shape: 8 2048 7 7 (802816)
I0315 12:06:46.780304 13464 net.cpp:165] Memory required for data: 8103691232
I0315 12:06:46.780320 13464 layer_factory.hpp:77] Creating layer id_scale5c_branch2c
I0315 12:06:46.780338 13464 net.cpp:106] Creating Layer id_scale5c_branch2c
I0315 12:06:46.780349 13464 net.cpp:454] id_scale5c_branch2c <- id_res5c_branch2c
I0315 12:06:46.780362 13464 net.cpp:397] id_scale5c_branch2c -> id_res5c_branch2c (in-place)
I0315 12:06:46.781076 13464 layer_factory.hpp:77] Creating layer id_scale5c_branch2c
I0315 12:06:46.781255 13464 net.cpp:150] Setting up id_scale5c_branch2c
I0315 12:06:46.781273 13464 net.cpp:157] Top shape: 8 2048 7 7 (802816)
I0315 12:06:46.781282 13464 net.cpp:165] Memory required for data: 8106902496
I0315 12:06:46.781297 13464 layer_factory.hpp:77] Creating layer id_res5c
I0315 12:06:46.781311 13464 net.cpp:106] Creating Layer id_res5c
I0315 12:06:46.781322 13464 net.cpp:454] id_res5c <- id_res5b_id_res5b_relu_0_split_1
I0315 12:06:46.781334 13464 net.cpp:454] id_res5c <- id_res5c_branch2c
I0315 12:06:46.781350 13464 net.cpp:411] id_res5c -> id_res5c
I0315 12:06:46.781394 13464 net.cpp:150] Setting up id_res5c
I0315 12:06:46.781411 13464 net.cpp:157] Top shape: 8 2048 7 7 (802816)
I0315 12:06:46.781420 13464 net.cpp:165] Memory required for data: 8110113760
I0315 12:06:46.781446 13464 layer_factory.hpp:77] Creating layer id_res5c_relu
I0315 12:06:46.781464 13464 net.cpp:106] Creating Layer id_res5c_relu
I0315 12:06:46.781476 13464 net.cpp:454] id_res5c_relu <- id_res5c
I0315 12:06:46.781488 13464 net.cpp:397] id_res5c_relu -> id_res5c (in-place)
I0315 12:06:46.781502 13464 net.cpp:150] Setting up id_res5c_relu
I0315 12:06:46.781514 13464 net.cpp:157] Top shape: 8 2048 7 7 (802816)
I0315 12:06:46.781524 13464 net.cpp:165] Memory required for data: 8113325024
I0315 12:06:46.781533 13464 layer_factory.hpp:77] Creating layer concat_R5
I0315 12:06:46.781556 13464 net.cpp:106] Creating Layer concat_R5
I0315 12:06:46.781569 13464 net.cpp:454] concat_R5 <- res5c_res5c_relu_0_split_1
I0315 12:06:46.781580 13464 net.cpp:454] concat_R5 <- id_res5c
I0315 12:06:46.781594 13464 net.cpp:411] concat_R5 -> concat_R5
I0315 12:06:46.781647 13464 net.cpp:150] Setting up concat_R5
I0315 12:06:46.781664 13464 net.cpp:157] Top shape: 8 4096 7 7 (1605632)
I0315 12:06:46.781674 13464 net.cpp:165] Memory required for data: 8119747552
I0315 12:06:46.781683 13464 layer_factory.hpp:77] Creating layer conv_R5
I0315 12:06:46.781703 13464 net.cpp:106] Creating Layer conv_R5
I0315 12:06:46.781715 13464 net.cpp:454] conv_R5 <- concat_R5
I0315 12:06:46.781729 13464 net.cpp:411] conv_R5 -> id_R5_res5c
I0315 12:06:47.128643 13464 net.cpp:150] Setting up conv_R5
I0315 12:06:47.128908 13464 net.cpp:157] Top shape: 8 2048 7 7 (802816)
I0315 12:06:47.128921 13464 net.cpp:165] Memory required for data: 8122958816
I0315 12:06:47.128960 13464 layer_factory.hpp:77] Creating layer id_pool5
I0315 12:06:47.129073 13464 net.cpp:106] Creating Layer id_pool5
I0315 12:06:47.129129 13464 net.cpp:454] id_pool5 <- id_R5_res5c
I0315 12:06:47.129170 13464 net.cpp:411] id_pool5 -> id_pool5
I0315 12:06:47.129228 13464 net.cpp:150] Setting up id_pool5
I0315 12:06:47.129245 13464 net.cpp:157] Top shape: 8 2048 1 1 (16384)
I0315 12:06:47.129256 13464 net.cpp:165] Memory required for data: 8123024352
I0315 12:06:47.129268 13464 layer_factory.hpp:77] Creating layer fc
I0315 12:06:47.129323 13464 net.cpp:106] Creating Layer fc
I0315 12:06:47.129354 13464 net.cpp:454] fc <- pool5
I0315 12:06:47.129389 13464 net.cpp:411] fc -> fc
I0315 12:06:47.132313 13464 net.cpp:150] Setting up fc
I0315 12:06:47.132333 13464 net.cpp:157] Top shape: 8 30 (240)
I0315 12:06:47.132344 13464 net.cpp:165] Memory required for data: 8123025312
I0315 12:06:47.132357 13464 layer_factory.hpp:77] Creating layer loss_pos30
I0315 12:06:47.132383 13464 net.cpp:106] Creating Layer loss_pos30
I0315 12:06:47.132395 13464 net.cpp:454] loss_pos30 <- fc
I0315 12:06:47.132432 13464 net.cpp:454] loss_pos30 <- labels
I0315 12:06:47.132449 13464 net.cpp:411] loss_pos30 -> loss_pos30
I0315 12:06:47.132628 13464 net.cpp:150] Setting up loss_pos30
I0315 12:06:47.132648 13464 net.cpp:157] Top shape: (1)
I0315 12:06:47.132658 13464 net.cpp:165] Memory required for data: 8123025316
I0315 12:06:47.132668 13464 layer_factory.hpp:77] Creating layer id_fc
I0315 12:06:47.132683 13464 net.cpp:106] Creating Layer id_fc
I0315 12:06:47.132694 13464 net.cpp:454] id_fc <- id_pool5
I0315 12:06:47.132711 13464 net.cpp:411] id_fc -> id_fc
I0315 12:06:47.197818 13464 net.cpp:150] Setting up id_fc
I0315 12:06:47.198977 13464 net.cpp:157] Top shape: 8 751 (6008)
I0315 12:06:47.199008 13464 net.cpp:165] Memory required for data: 8123049348
I0315 12:06:47.199142 13464 layer_factory.hpp:77] Creating layer id_loss_id
I0315 12:06:47.199401 13464 net.cpp:106] Creating Layer id_loss_id
I0315 12:06:47.199453 13464 net.cpp:454] id_loss_id <- id_fc
I0315 12:06:47.199511 13464 net.cpp:454] id_loss_id <- id_label
I0315 12:06:47.199565 13464 net.cpp:411] id_loss_id -> id_loss_id
…
