name: "ResNet-152"

#-----------------------input data------------------------#
layer {
  name: "data"
  type: "Data"
  top: "data"
  top: "id_label"
  include {
    phase: TRAIN
  }
  transform_param {
    mirror: false
#	crop_size: 224
    mean_file: "/home/lizhuowan/Market1501/lmdb/lmdb_12936/Image_lmdb_12936.binaryproto"
  }
  data_param {
    source: "/home/lizhuowan/Market1501/lmdb/lmdb_mirror_12936/Image_lmdb_mirror_12936"
    batch_size:8
    backend: LMDB
  }
}

layer {
  name: "data"
  type: "Data"
  top: "labels"
  include {
    phase: TRAIN
  }
  transform_param {
#    mirror: true
#	crop_size: 224
#    mean_file: "/home/lizhuowan/caffe/data/Market1501/Resize_224by224/market1501_mean_train.binaryproto"
	mean_value:112
  }
  data_param {
    source: "/home/lizhuowan/Market1501/lmdb/lmdb_mirror_12936/pos30_lmdb_mirror_12936_correct"
    batch_size:8
    backend: LMDB
  }
}

layer {
  name: "data"
  type: "Data"
  top: "data"
  top: "id_label"
  include {
    phase: TEST
  }
  transform_param {
    mirror: false
#	crop_size: 224
    mean_file: "/home/lizhuowan/Market1501/lmdb/lmdb_12936/Image_lmdb_12936.binaryproto"
  }
  data_param {
    source: "/home/lizhuowan/caffe/data/Market1501/Resize_224by224/market1501_test_lmdb"
    batch_size:4
    backend: LMDB
  }
}

#layer {
#  name: "data"
#  type: "Data"
#  top: "labels"
#  include {
#    phase: TEST
#  }
#  transform_param {
##    mirror: true
##	crop_size: 224
##    mean_file: "/home/lizhuowan/caffe/data/Market1501/Resize_224by224/market1501_mean_train.binaryproto"
#	mean_value:112
#  }
#  data_param {
#    source: "/home/lizhuowan/Market1501/lmdb/lmdb_20/pos30_lmdb_20"
#    batch_size:8
#    backend: LMDB
#  }
#}

# ------------------------ conv1 -----------------------------

layer {
	bottom: "data"
	top: "conv1"
	name: "conv1"
	type: "Convolution"
	convolution_param {
		num_output: 64
		kernel_size: 7
		pad: 3
		stride: 2
		bias_term: false
	}
}

layer {
	bottom: "conv1"
	top: "conv1"
	name: "bn_conv1"
	type: "BatchNorm"
	batch_norm_param {
		use_global_stats: true
	}
}

layer {
	bottom: "conv1"
	top: "conv1"
	name: "scale_conv1"
	type: "Scale"
	scale_param {
		bias_term: true
	}
}

layer {
	top: "conv1"
	bottom: "conv1"
	name: "conv1_relu"
	type: "ReLU"
}

layer {
	bottom: "conv1"
	top: "pool1"
	name: "pool1"
	type: "Pooling"
	pooling_param {
		kernel_size: 3
		stride: 2
		pool: MAX
	}
}

layer {
	bottom: "pool1"
	top: "res2a_branch1"
	name: "res2a_branch1"
	type: "Convolution"
	convolution_param {
		num_output: 256
		kernel_size: 1
		pad: 0
		stride: 1
		bias_term: false
	}
}

layer {
	bottom: "res2a_branch1"
	top: "res2a_branch1"
	name: "bn2a_branch1"
	type: "BatchNorm"
	batch_norm_param {
		use_global_stats: true
	}
}

layer {
	bottom: "res2a_branch1"
	top: "res2a_branch1"
	name: "scale2a_branch1"
	type: "Scale"
	scale_param {
		bias_term: true
	}
}

layer {
	bottom: "pool1"
	top: "res2a_branch2a"
	name: "res2a_branch2a"
	type: "Convolution"
	convolution_param {
		num_output: 64
		kernel_size: 1
		pad: 0
		stride: 1
		bias_term: false
	}
}

layer {
	bottom: "res2a_branch2a"
	top: "res2a_branch2a"
	name: "bn2a_branch2a"
	type: "BatchNorm"
	batch_norm_param {
		use_global_stats: true
	}
}

layer {
	bottom: "res2a_branch2a"
	top: "res2a_branch2a"
	name: "scale2a_branch2a"
	type: "Scale"
	scale_param {
		bias_term: true
	}
}

layer {
	top: "res2a_branch2a"
	bottom: "res2a_branch2a"
	name: "res2a_branch2a_relu"
	type: "ReLU"
}

layer {
	bottom: "res2a_branch2a"
	top: "res2a_branch2b"
	name: "res2a_branch2b"
	type: "Convolution"
	convolution_param {
		num_output: 64
		kernel_size: 3
		pad: 1
		stride: 1
		bias_term: false
	}
}

layer {
	bottom: "res2a_branch2b"
	top: "res2a_branch2b"
	name: "bn2a_branch2b"
	type: "BatchNorm"
	batch_norm_param {
		use_global_stats: true
	}
}

layer {
	bottom: "res2a_branch2b"
	top: "res2a_branch2b"
	name: "scale2a_branch2b"
	type: "Scale"
	scale_param {
		bias_term: true
	}
}

layer {
	top: "res2a_branch2b"
	bottom: "res2a_branch2b"
	name: "res2a_branch2b_relu"
	type: "ReLU"
}

layer {
	bottom: "res2a_branch2b"
	top: "res2a_branch2c"
	name: "res2a_branch2c"
	type: "Convolution"
	convolution_param {
		num_output: 256
		kernel_size: 1
		pad: 0
		stride: 1
		bias_term: false
	}
}

layer {
	bottom: "res2a_branch2c"
	top: "res2a_branch2c"
	name: "bn2a_branch2c"
	type: "BatchNorm"
	batch_norm_param {
		use_global_stats: true
	}
}

layer {
	bottom: "res2a_branch2c"
	top: "res2a_branch2c"
	name: "scale2a_branch2c"
	type: "Scale"
	scale_param {
		bias_term: true
	}
}

layer {
	bottom: "res2a_branch1"
	bottom: "res2a_branch2c"
	top: "res2a"
	name: "res2a"
	type: "Eltwise"
}

layer {
	bottom: "res2a"
	top: "res2a"
	name: "res2a_relu"
	type: "ReLU"
}

layer {
	bottom: "res2a"
	top: "res2b_branch2a"
	name: "res2b_branch2a"
	type: "Convolution"
	convolution_param {
		num_output: 64
		kernel_size: 1
		pad: 0
		stride: 1
		bias_term: false
	}
}

layer {
	bottom: "res2b_branch2a"
	top: "res2b_branch2a"
	name: "bn2b_branch2a"
	type: "BatchNorm"
	batch_norm_param {
		use_global_stats: true
	}
}

layer {
	bottom: "res2b_branch2a"
	top: "res2b_branch2a"
	name: "scale2b_branch2a"
	type: "Scale"
	scale_param {
		bias_term: true
	}
}

layer {
	top: "res2b_branch2a"
	bottom: "res2b_branch2a"
	name: "res2b_branch2a_relu"
	type: "ReLU"
}

layer {
	bottom: "res2b_branch2a"
	top: "res2b_branch2b"
	name: "res2b_branch2b"
	type: "Convolution"
	convolution_param {
		num_output: 64
		kernel_size: 3
		pad: 1
		stride: 1
		bias_term: false
	}
}

layer {
	bottom: "res2b_branch2b"
	top: "res2b_branch2b"
	name: "bn2b_branch2b"
	type: "BatchNorm"
	batch_norm_param {
		use_global_stats: true
	}
}

layer {
	bottom: "res2b_branch2b"
	top: "res2b_branch2b"
	name: "scale2b_branch2b"
	type: "Scale"
	scale_param {
		bias_term: true
	}
}

layer {
	top: "res2b_branch2b"
	bottom: "res2b_branch2b"
	name: "res2b_branch2b_relu"
	type: "ReLU"
}

layer {
	bottom: "res2b_branch2b"
	top: "res2b_branch2c"
	name: "res2b_branch2c"
	type: "Convolution"
	convolution_param {
		num_output: 256
		kernel_size: 1
		pad: 0
		stride: 1
		bias_term: false
	}
}

layer {
	bottom: "res2b_branch2c"
	top: "res2b_branch2c"
	name: "bn2b_branch2c"
	type: "BatchNorm"
	batch_norm_param {
		use_global_stats: true
	}
}

layer {
	bottom: "res2b_branch2c"
	top: "res2b_branch2c"
	name: "scale2b_branch2c"
	type: "Scale"
	scale_param {
		bias_term: true
	}
}

layer {
	bottom: "res2a"
	bottom: "res2b_branch2c"
	top: "res2b"
	name: "res2b"
	type: "Eltwise"
}

layer {
	bottom: "res2b"
	top: "res2b"
	name: "res2b_relu"
	type: "ReLU"
}

layer {
	bottom: "res2b"
	top: "res2c_branch2a"
	name: "res2c_branch2a"
	type: "Convolution"
	convolution_param {
		num_output: 64
		kernel_size: 1
		pad: 0
		stride: 1
		bias_term: false
	}
}

layer {
	bottom: "res2c_branch2a"
	top: "res2c_branch2a"
	name: "bn2c_branch2a"
	type: "BatchNorm"
	batch_norm_param {
		use_global_stats: true
	}
}

layer {
	bottom: "res2c_branch2a"
	top: "res2c_branch2a"
	name: "scale2c_branch2a"
	type: "Scale"
	scale_param {
		bias_term: true
	}
}

layer {
	top: "res2c_branch2a"
	bottom: "res2c_branch2a"
	name: "res2c_branch2a_relu"
	type: "ReLU"
}

layer {
	bottom: "res2c_branch2a"
	top: "res2c_branch2b"
	name: "res2c_branch2b"
	type: "Convolution"
	convolution_param {
		num_output: 64
		kernel_size: 3
		pad: 1
		stride: 1
		bias_term: false
	}
}

layer {
	bottom: "res2c_branch2b"
	top: "res2c_branch2b"
	name: "bn2c_branch2b"
	type: "BatchNorm"
	batch_norm_param {
		use_global_stats: true
	}
}

layer {
	bottom: "res2c_branch2b"
	top: "res2c_branch2b"
	name: "scale2c_branch2b"
	type: "Scale"
	scale_param {
		bias_term: true
	}
}

layer {
	top: "res2c_branch2b"
	bottom: "res2c_branch2b"
	name: "res2c_branch2b_relu"
	type: "ReLU"
}

layer {
	bottom: "res2c_branch2b"
	top: "res2c_branch2c"
	name: "res2c_branch2c"
	type: "Convolution"
	convolution_param {
		num_output: 256
		kernel_size: 1
		pad: 0
		stride: 1
		bias_term: false
	}
}

layer {
	bottom: "res2c_branch2c"
	top: "res2c_branch2c"
	name: "bn2c_branch2c"
	type: "BatchNorm"
	batch_norm_param {
		use_global_stats: true
	}
}

layer {
	bottom: "res2c_branch2c"
	top: "res2c_branch2c"
	name: "scale2c_branch2c"
	type: "Scale"
	scale_param {
		bias_term: true
	}
}

layer {
	bottom: "res2b"
	bottom: "res2c_branch2c"
	top: "res2c"
	name: "res2c"
	type: "Eltwise"
}

layer {
	bottom: "res2c"
	top: "res2c"
	name: "res2c_relu"
	type: "ReLU"
}

layer {
	bottom: "res2c"
	top: "res3a_branch1"
	name: "res3a_branch1"
	type: "Convolution"
	convolution_param {
		num_output: 512
		kernel_size: 1
		pad: 0
		stride: 2
		bias_term: false
	}
}

layer {
	bottom: "res3a_branch1"
	top: "res3a_branch1"
	name: "bn3a_branch1"
	type: "BatchNorm"
	batch_norm_param {
		use_global_stats: true
	}
}

layer {
	bottom: "res3a_branch1"
	top: "res3a_branch1"
	name: "scale3a_branch1"
	type: "Scale"
	scale_param {
		bias_term: true
	}
}

layer {
	bottom: "res2c"
	top: "res3a_branch2a"
	name: "res3a_branch2a"
	type: "Convolution"
	convolution_param {
		num_output: 128
		kernel_size: 1
		pad: 0
		stride: 2
		bias_term: false
	}
}

layer {
	bottom: "res3a_branch2a"
	top: "res3a_branch2a"
	name: "bn3a_branch2a"
	type: "BatchNorm"
	batch_norm_param {
		use_global_stats: true
	}
}

layer {
	bottom: "res3a_branch2a"
	top: "res3a_branch2a"
	name: "scale3a_branch2a"
	type: "Scale"
	scale_param {
		bias_term: true
	}
}

layer {
	top: "res3a_branch2a"
	bottom: "res3a_branch2a"
	name: "res3a_branch2a_relu"
	type: "ReLU"
}

layer {
	bottom: "res3a_branch2a"
	top: "res3a_branch2b"
	name: "res3a_branch2b"
	type: "Convolution"
	convolution_param {
		num_output: 128
		kernel_size: 3
		pad: 1
		stride: 1
		bias_term: false
	}
}

layer {
	bottom: "res3a_branch2b"
	top: "res3a_branch2b"
	name: "bn3a_branch2b"
	type: "BatchNorm"
	batch_norm_param {
		use_global_stats: true
	}
}

layer {
	bottom: "res3a_branch2b"
	top: "res3a_branch2b"
	name: "scale3a_branch2b"
	type: "Scale"
	scale_param {
		bias_term: true
	}
}

layer {
	top: "res3a_branch2b"
	bottom: "res3a_branch2b"
	name: "res3a_branch2b_relu"
	type: "ReLU"
}

layer {
	bottom: "res3a_branch2b"
	top: "res3a_branch2c"
	name: "res3a_branch2c"
	type: "Convolution"
	convolution_param {
		num_output: 512
		kernel_size: 1
		pad: 0
		stride: 1
		bias_term: false
	}
}

layer {
	bottom: "res3a_branch2c"
	top: "res3a_branch2c"
	name: "bn3a_branch2c"
	type: "BatchNorm"
	batch_norm_param {
		use_global_stats: true
	}
}

layer {
	bottom: "res3a_branch2c"
	top: "res3a_branch2c"
	name: "scale3a_branch2c"
	type: "Scale"
	scale_param {
		bias_term: true
	}
}

layer {
	bottom: "res3a_branch1"
	bottom: "res3a_branch2c"
	top: "res3a"
	name: "res3a"
	type: "Eltwise"
}

layer {
	bottom: "res3a"
	top: "res3a"
	name: "res3a_relu"
	type: "ReLU"
}

layer {
	bottom: "res3a"
	top: "res3b1_branch2a"
	name: "res3b1_branch2a"
	type: "Convolution"
	convolution_param {
		num_output: 128
		kernel_size: 1
		pad: 0
		stride: 1
		bias_term: false
	}
}

layer {
	bottom: "res3b1_branch2a"
	top: "res3b1_branch2a"
	name: "bn3b1_branch2a"
	type: "BatchNorm"
	batch_norm_param {
		use_global_stats: true
	}
}

layer {
	bottom: "res3b1_branch2a"
	top: "res3b1_branch2a"
	name: "scale3b1_branch2a"
	type: "Scale"
	scale_param {
		bias_term: true
	}
}

layer {
	top: "res3b1_branch2a"
	bottom: "res3b1_branch2a"
	name: "res3b1_branch2a_relu"
	type: "ReLU"
}

layer {
	bottom: "res3b1_branch2a"
	top: "res3b1_branch2b"
	name: "res3b1_branch2b"
	type: "Convolution"
	convolution_param {
		num_output: 128
		kernel_size: 3
		pad: 1
		stride: 1
		bias_term: false
	}
}

layer {
	bottom: "res3b1_branch2b"
	top: "res3b1_branch2b"
	name: "bn3b1_branch2b"
	type: "BatchNorm"
	batch_norm_param {
		use_global_stats: true
	}
}

layer {
	bottom: "res3b1_branch2b"
	top: "res3b1_branch2b"
	name: "scale3b1_branch2b"
	type: "Scale"
	scale_param {
		bias_term: true
	}
}

layer {
	top: "res3b1_branch2b"
	bottom: "res3b1_branch2b"
	name: "res3b1_branch2b_relu"
	type: "ReLU"
}

layer {
	bottom: "res3b1_branch2b"
	top: "res3b1_branch2c"
	name: "res3b1_branch2c"
	type: "Convolution"
	convolution_param {
		num_output: 512
		kernel_size: 1
		pad: 0
		stride: 1
		bias_term: false
	}
}

layer {
	bottom: "res3b1_branch2c"
	top: "res3b1_branch2c"
	name: "bn3b1_branch2c"
	type: "BatchNorm"
	batch_norm_param {
		use_global_stats: true
	}
}

layer {
	bottom: "res3b1_branch2c"
	top: "res3b1_branch2c"
	name: "scale3b1_branch2c"
	type: "Scale"
	scale_param {
		bias_term: true
	}
}

layer {
	bottom: "res3a"
	bottom: "res3b1_branch2c"
	top: "res3b1"
	name: "res3b1"
	type: "Eltwise"
}

layer {
	bottom: "res3b1"
	top: "res3b1"
	name: "res3b1_relu"
	type: "ReLU"
}

layer {
	bottom: "res3b1"
	top: "res3b2_branch2a"
	name: "res3b2_branch2a"
	type: "Convolution"
	convolution_param {
		num_output: 128
		kernel_size: 1
		pad: 0
		stride: 1
		bias_term: false
	}
}

layer {
	bottom: "res3b2_branch2a"
	top: "res3b2_branch2a"
	name: "bn3b2_branch2a"
	type: "BatchNorm"
	batch_norm_param {
		use_global_stats: true
	}
}

layer {
	bottom: "res3b2_branch2a"
	top: "res3b2_branch2a"
	name: "scale3b2_branch2a"
	type: "Scale"
	scale_param {
		bias_term: true
	}
}

layer {
	top: "res3b2_branch2a"
	bottom: "res3b2_branch2a"
	name: "res3b2_branch2a_relu"
	type: "ReLU"
}

layer {
	bottom: "res3b2_branch2a"
	top: "res3b2_branch2b"
	name: "res3b2_branch2b"
	type: "Convolution"
	convolution_param {
		num_output: 128
		kernel_size: 3
		pad: 1
		stride: 1
		bias_term: false
	}
}

layer {
	bottom: "res3b2_branch2b"
	top: "res3b2_branch2b"
	name: "bn3b2_branch2b"
	type: "BatchNorm"
	batch_norm_param {
		use_global_stats: true
	}
}

layer {
	bottom: "res3b2_branch2b"
	top: "res3b2_branch2b"
	name: "scale3b2_branch2b"
	type: "Scale"
	scale_param {
		bias_term: true
	}
}

layer {
	top: "res3b2_branch2b"
	bottom: "res3b2_branch2b"
	name: "res3b2_branch2b_relu"
	type: "ReLU"
}

layer {
	bottom: "res3b2_branch2b"
	top: "res3b2_branch2c"
	name: "res3b2_branch2c"
	type: "Convolution"
	convolution_param {
		num_output: 512
		kernel_size: 1
		pad: 0
		stride: 1
		bias_term: false
	}
}

layer {
	bottom: "res3b2_branch2c"
	top: "res3b2_branch2c"
	name: "bn3b2_branch2c"
	type: "BatchNorm"
	batch_norm_param {
		use_global_stats: true
	}
}

layer {
	bottom: "res3b2_branch2c"
	top: "res3b2_branch2c"
	name: "scale3b2_branch2c"
	type: "Scale"
	scale_param {
		bias_term: true
	}
}

layer {
	bottom: "res3b1"
	bottom: "res3b2_branch2c"
	top: "res3b2"
	name: "res3b2"
	type: "Eltwise"
}

layer {
	bottom: "res3b2"
	top: "res3b2"
	name: "res3b2_relu"
	type: "ReLU"
}

layer {
	bottom: "res3b2"
	top: "res3b3_branch2a"
	name: "res3b3_branch2a"
	type: "Convolution"
	convolution_param {
		num_output: 128
		kernel_size: 1
		pad: 0
		stride: 1
		bias_term: false
	}
}

layer {
	bottom: "res3b3_branch2a"
	top: "res3b3_branch2a"
	name: "bn3b3_branch2a"
	type: "BatchNorm"
	batch_norm_param {
		use_global_stats: true
	}
}

layer {
	bottom: "res3b3_branch2a"
	top: "res3b3_branch2a"
	name: "scale3b3_branch2a"
	type: "Scale"
	scale_param {
		bias_term: true
	}
}

layer {
	top: "res3b3_branch2a"
	bottom: "res3b3_branch2a"
	name: "res3b3_branch2a_relu"
	type: "ReLU"
}

layer {
	bottom: "res3b3_branch2a"
	top: "res3b3_branch2b"
	name: "res3b3_branch2b"
	type: "Convolution"
	convolution_param {
		num_output: 128
		kernel_size: 3
		pad: 1
		stride: 1
		bias_term: false
	}
}

layer {
	bottom: "res3b3_branch2b"
	top: "res3b3_branch2b"
	name: "bn3b3_branch2b"
	type: "BatchNorm"
	batch_norm_param {
		use_global_stats: true
	}
}

layer {
	bottom: "res3b3_branch2b"
	top: "res3b3_branch2b"
	name: "scale3b3_branch2b"
	type: "Scale"
	scale_param {
		bias_term: true
	}
}

layer {
	top: "res3b3_branch2b"
	bottom: "res3b3_branch2b"
	name: "res3b3_branch2b_relu"
	type: "ReLU"
}

layer {
	bottom: "res3b3_branch2b"
	top: "res3b3_branch2c"
	name: "res3b3_branch2c"
	type: "Convolution"
	convolution_param {
		num_output: 512
		kernel_size: 1
		pad: 0
		stride: 1
		bias_term: false
	}
}

layer {
	bottom: "res3b3_branch2c"
	top: "res3b3_branch2c"
	name: "bn3b3_branch2c"
	type: "BatchNorm"
	batch_norm_param {
		use_global_stats: true
	}
}

layer {
	bottom: "res3b3_branch2c"
	top: "res3b3_branch2c"
	name: "scale3b3_branch2c"
	type: "Scale"
	scale_param {
		bias_term: true
	}
}

layer {
	bottom: "res3b2"
	bottom: "res3b3_branch2c"
	top: "res3b3"
	name: "res3b3"
	type: "Eltwise"
}

layer {
	bottom: "res3b3"
	top: "res3b3"
	name: "res3b3_relu"
	type: "ReLU"
}

layer {
	bottom: "res3b3"
	top: "res3b4_branch2a"
	name: "res3b4_branch2a"
	type: "Convolution"
	convolution_param {
		num_output: 128
		kernel_size: 1
		pad: 0
		stride: 1
		bias_term: false
	}
}

layer {
	bottom: "res3b4_branch2a"
	top: "res3b4_branch2a"
	name: "bn3b4_branch2a"
	type: "BatchNorm"
	batch_norm_param {
		use_global_stats: true
	}
}

layer {
	bottom: "res3b4_branch2a"
	top: "res3b4_branch2a"
	name: "scale3b4_branch2a"
	type: "Scale"
	scale_param {
		bias_term: true
	}
}

layer {
	top: "res3b4_branch2a"
	bottom: "res3b4_branch2a"
	name: "res3b4_branch2a_relu"
	type: "ReLU"
}

layer {
	bottom: "res3b4_branch2a"
	top: "res3b4_branch2b"
	name: "res3b4_branch2b"
	type: "Convolution"
	convolution_param {
		num_output: 128
		kernel_size: 3
		pad: 1
		stride: 1
		bias_term: false
	}
}

layer {
	bottom: "res3b4_branch2b"
	top: "res3b4_branch2b"
	name: "bn3b4_branch2b"
	type: "BatchNorm"
	batch_norm_param {
		use_global_stats: true
	}
}

layer {
	bottom: "res3b4_branch2b"
	top: "res3b4_branch2b"
	name: "scale3b4_branch2b"
	type: "Scale"
	scale_param {
		bias_term: true
	}
}

layer {
	top: "res3b4_branch2b"
	bottom: "res3b4_branch2b"
	name: "res3b4_branch2b_relu"
	type: "ReLU"
}

layer {
	bottom: "res3b4_branch2b"
	top: "res3b4_branch2c"
	name: "res3b4_branch2c"
	type: "Convolution"
	convolution_param {
		num_output: 512
		kernel_size: 1
		pad: 0
		stride: 1
		bias_term: false
	}
}

layer {
	bottom: "res3b4_branch2c"
	top: "res3b4_branch2c"
	name: "bn3b4_branch2c"
	type: "BatchNorm"
	batch_norm_param {
		use_global_stats: true
	}
}

layer {
	bottom: "res3b4_branch2c"
	top: "res3b4_branch2c"
	name: "scale3b4_branch2c"
	type: "Scale"
	scale_param {
		bias_term: true
	}
}

layer {
	bottom: "res3b3"
	bottom: "res3b4_branch2c"
	top: "res3b4"
	name: "res3b4"
	type: "Eltwise"
}

layer {
	bottom: "res3b4"
	top: "res3b4"
	name: "res3b4_relu"
	type: "ReLU"
}

layer {
	bottom: "res3b4"
	top: "res3b5_branch2a"
	name: "res3b5_branch2a"
	type: "Convolution"
	convolution_param {
		num_output: 128
		kernel_size: 1
		pad: 0
		stride: 1
		bias_term: false
	}
}

layer {
	bottom: "res3b5_branch2a"
	top: "res3b5_branch2a"
	name: "bn3b5_branch2a"
	type: "BatchNorm"
	batch_norm_param {
		use_global_stats: true
	}
}

layer {
	bottom: "res3b5_branch2a"
	top: "res3b5_branch2a"
	name: "scale3b5_branch2a"
	type: "Scale"
	scale_param {
		bias_term: true
	}
}

layer {
	top: "res3b5_branch2a"
	bottom: "res3b5_branch2a"
	name: "res3b5_branch2a_relu"
	type: "ReLU"
}

layer {
	bottom: "res3b5_branch2a"
	top: "res3b5_branch2b"
	name: "res3b5_branch2b"
	type: "Convolution"
	convolution_param {
		num_output: 128
		kernel_size: 3
		pad: 1
		stride: 1
		bias_term: false
	}
}

layer {
	bottom: "res3b5_branch2b"
	top: "res3b5_branch2b"
	name: "bn3b5_branch2b"
	type: "BatchNorm"
	batch_norm_param {
		use_global_stats: true
	}
}

layer {
	bottom: "res3b5_branch2b"
	top: "res3b5_branch2b"
	name: "scale3b5_branch2b"
	type: "Scale"
	scale_param {
		bias_term: true
	}
}

layer {
	top: "res3b5_branch2b"
	bottom: "res3b5_branch2b"
	name: "res3b5_branch2b_relu"
	type: "ReLU"
}

layer {
	bottom: "res3b5_branch2b"
	top: "res3b5_branch2c"
	name: "res3b5_branch2c"
	type: "Convolution"
	convolution_param {
		num_output: 512
		kernel_size: 1
		pad: 0
		stride: 1
		bias_term: false
	}
}

layer {
	bottom: "res3b5_branch2c"
	top: "res3b5_branch2c"
	name: "bn3b5_branch2c"
	type: "BatchNorm"
	batch_norm_param {
		use_global_stats: true
	}
}

layer {
	bottom: "res3b5_branch2c"
	top: "res3b5_branch2c"
	name: "scale3b5_branch2c"
	type: "Scale"
	scale_param {
		bias_term: true
	}
}

layer {
	bottom: "res3b4"
	bottom: "res3b5_branch2c"
	top: "res3b5"
	name: "res3b5"
	type: "Eltwise"
}

layer {
	bottom: "res3b5"
	top: "res3b5"
	name: "res3b5_relu"
	type: "ReLU"
}

layer {
	bottom: "res3b5"
	top: "res3b6_branch2a"
	name: "res3b6_branch2a"
	type: "Convolution"
	convolution_param {
		num_output: 128
		kernel_size: 1
		pad: 0
		stride: 1
		bias_term: false
	}
}

layer {
	bottom: "res3b6_branch2a"
	top: "res3b6_branch2a"
	name: "bn3b6_branch2a"
	type: "BatchNorm"
	batch_norm_param {
		use_global_stats: true
	}
}

layer {
	bottom: "res3b6_branch2a"
	top: "res3b6_branch2a"
	name: "scale3b6_branch2a"
	type: "Scale"
	scale_param {
		bias_term: true
	}
}

layer {
	top: "res3b6_branch2a"
	bottom: "res3b6_branch2a"
	name: "res3b6_branch2a_relu"
	type: "ReLU"
}

layer {
	bottom: "res3b6_branch2a"
	top: "res3b6_branch2b"
	name: "res3b6_branch2b"
	type: "Convolution"
	convolution_param {
		num_output: 128
		kernel_size: 3
		pad: 1
		stride: 1
		bias_term: false
	}
}

layer {
	bottom: "res3b6_branch2b"
	top: "res3b6_branch2b"
	name: "bn3b6_branch2b"
	type: "BatchNorm"
	batch_norm_param {
		use_global_stats: true
	}
}

layer {
	bottom: "res3b6_branch2b"
	top: "res3b6_branch2b"
	name: "scale3b6_branch2b"
	type: "Scale"
	scale_param {
		bias_term: true
	}
}

layer {
	top: "res3b6_branch2b"
	bottom: "res3b6_branch2b"
	name: "res3b6_branch2b_relu"
	type: "ReLU"
}

layer {
	bottom: "res3b6_branch2b"
	top: "res3b6_branch2c"
	name: "res3b6_branch2c"
	type: "Convolution"
	convolution_param {
		num_output: 512
		kernel_size: 1
		pad: 0
		stride: 1
		bias_term: false
	}
}

layer {
	bottom: "res3b6_branch2c"
	top: "res3b6_branch2c"
	name: "bn3b6_branch2c"
	type: "BatchNorm"
	batch_norm_param {
		use_global_stats: true
	}
}

layer {
	bottom: "res3b6_branch2c"
	top: "res3b6_branch2c"
	name: "scale3b6_branch2c"
	type: "Scale"
	scale_param {
		bias_term: true
	}
}

layer {
	bottom: "res3b5"
	bottom: "res3b6_branch2c"
	top: "res3b6"
	name: "res3b6"
	type: "Eltwise"
}

layer {
	bottom: "res3b6"
	top: "res3b6"
	name: "res3b6_relu"
	type: "ReLU"
}

layer {
	bottom: "res3b6"
	top: "res3b7_branch2a"
	name: "res3b7_branch2a"
	type: "Convolution"
	convolution_param {
		num_output: 128
		kernel_size: 1
		pad: 0
		stride: 1
		bias_term: false
	}
}

layer {
	bottom: "res3b7_branch2a"
	top: "res3b7_branch2a"
	name: "bn3b7_branch2a"
	type: "BatchNorm"
	batch_norm_param {
		use_global_stats: true
	}
}

layer {
	bottom: "res3b7_branch2a"
	top: "res3b7_branch2a"
	name: "scale3b7_branch2a"
	type: "Scale"
	scale_param {
		bias_term: true
	}
}

layer {
	top: "res3b7_branch2a"
	bottom: "res3b7_branch2a"
	name: "res3b7_branch2a_relu"
	type: "ReLU"
}

layer {
	bottom: "res3b7_branch2a"
	top: "res3b7_branch2b"
	name: "res3b7_branch2b"
	type: "Convolution"
	convolution_param {
		num_output: 128
		kernel_size: 3
		pad: 1
		stride: 1
		bias_term: false
	}
}

layer {
	bottom: "res3b7_branch2b"
	top: "res3b7_branch2b"
	name: "bn3b7_branch2b"
	type: "BatchNorm"
	batch_norm_param {
		use_global_stats: true
	}
}

layer {
	bottom: "res3b7_branch2b"
	top: "res3b7_branch2b"
	name: "scale3b7_branch2b"
	type: "Scale"
	scale_param {
		bias_term: true
	}
}

layer {
	top: "res3b7_branch2b"
	bottom: "res3b7_branch2b"
	name: "res3b7_branch2b_relu"
	type: "ReLU"
}

layer {
	bottom: "res3b7_branch2b"
	top: "res3b7_branch2c"
	name: "res3b7_branch2c"
	type: "Convolution"
	convolution_param {
		num_output: 512
		kernel_size: 1
		pad: 0
		stride: 1
		bias_term: false
	}
}

layer {
	bottom: "res3b7_branch2c"
	top: "res3b7_branch2c"
	name: "bn3b7_branch2c"
	type: "BatchNorm"
	batch_norm_param {
		use_global_stats: true
	}
}

layer {
	bottom: "res3b7_branch2c"
	top: "res3b7_branch2c"
	name: "scale3b7_branch2c"
	type: "Scale"
	scale_param {
		bias_term: true
	}
}

layer {
	bottom: "res3b6"
	bottom: "res3b7_branch2c"
	top: "res3b7"
	name: "res3b7"
	type: "Eltwise"
}

layer {
	bottom: "res3b7"
	top: "res3b7"
	name: "res3b7_relu"
	type: "ReLU"
}

layer {
	bottom: "res3b7"
	top: "res4a_branch1"
	name: "res4a_branch1"
	type: "Convolution"
	convolution_param {
		num_output: 1024
		kernel_size: 1
		pad: 0
		stride: 2
		bias_term: false
	}
}

layer {
	bottom: "res4a_branch1"
	top: "res4a_branch1"
	name: "bn4a_branch1"
	type: "BatchNorm"
	batch_norm_param {
		use_global_stats: true
	}
}

layer {
	bottom: "res4a_branch1"
	top: "res4a_branch1"
	name: "scale4a_branch1"
	type: "Scale"
	scale_param {
		bias_term: true
	}
}

layer {
	bottom: "res3b7"
	top: "res4a_branch2a"
	name: "res4a_branch2a"
	type: "Convolution"
	convolution_param {
		num_output: 256
		kernel_size: 1
		pad: 0
		stride: 2
		bias_term: false
	}
}

layer {
	bottom: "res4a_branch2a"
	top: "res4a_branch2a"
	name: "bn4a_branch2a"
	type: "BatchNorm"
	batch_norm_param {
		use_global_stats: true
	}
}

layer {
	bottom: "res4a_branch2a"
	top: "res4a_branch2a"
	name: "scale4a_branch2a"
	type: "Scale"
	scale_param {
		bias_term: true
	}
}

layer {
	top: "res4a_branch2a"
	bottom: "res4a_branch2a"
	name: "res4a_branch2a_relu"
	type: "ReLU"
}

layer {
	bottom: "res4a_branch2a"
	top: "res4a_branch2b"
	name: "res4a_branch2b"
	type: "Convolution"
	convolution_param {
		num_output: 256
		kernel_size: 3
		pad: 1
		stride: 1
		bias_term: false
	}
}

layer {
	bottom: "res4a_branch2b"
	top: "res4a_branch2b"
	name: "bn4a_branch2b"
	type: "BatchNorm"
	batch_norm_param {
		use_global_stats: true
	}
}

layer {
	bottom: "res4a_branch2b"
	top: "res4a_branch2b"
	name: "scale4a_branch2b"
	type: "Scale"
	scale_param {
		bias_term: true
	}
}

layer {
	top: "res4a_branch2b"
	bottom: "res4a_branch2b"
	name: "res4a_branch2b_relu"
	type: "ReLU"
}

layer {
	bottom: "res4a_branch2b"
	top: "res4a_branch2c"
	name: "res4a_branch2c"
	type: "Convolution"
	convolution_param {
		num_output: 1024
		kernel_size: 1
		pad: 0
		stride: 1
		bias_term: false
	}
}

layer {
	bottom: "res4a_branch2c"
	top: "res4a_branch2c"
	name: "bn4a_branch2c"
	type: "BatchNorm"
	batch_norm_param {
		use_global_stats: true
	}
}

layer {
	bottom: "res4a_branch2c"
	top: "res4a_branch2c"
	name: "scale4a_branch2c"
	type: "Scale"
	scale_param {
		bias_term: true
	}
}

layer {
	bottom: "res4a_branch1"
	bottom: "res4a_branch2c"
	top: "res4a"
	name: "res4a"
	type: "Eltwise"
}

layer {
	bottom: "res4a"
	top: "res4a"
	name: "res4a_relu"
	type: "ReLU"
}

layer {
	bottom: "res4a"
	top: "res4b1_branch2a"
	name: "res4b1_branch2a"
	type: "Convolution"
	convolution_param {
		num_output: 256
		kernel_size: 1
		pad: 0
		stride: 1
		bias_term: false
	}
}

layer {
	bottom: "res4b1_branch2a"
	top: "res4b1_branch2a"
	name: "bn4b1_branch2a"
	type: "BatchNorm"
	batch_norm_param {
		use_global_stats: true
	}
}

layer {
	bottom: "res4b1_branch2a"
	top: "res4b1_branch2a"
	name: "scale4b1_branch2a"
	type: "Scale"
	scale_param {
		bias_term: true
	}
}

layer {
	top: "res4b1_branch2a"
	bottom: "res4b1_branch2a"
	name: "res4b1_branch2a_relu"
	type: "ReLU"
}

layer {
	bottom: "res4b1_branch2a"
	top: "res4b1_branch2b"
	name: "res4b1_branch2b"
	type: "Convolution"
	convolution_param {
		num_output: 256
		kernel_size: 3
		pad: 1
		stride: 1
		bias_term: false
	}
}

layer {
	bottom: "res4b1_branch2b"
	top: "res4b1_branch2b"
	name: "bn4b1_branch2b"
	type: "BatchNorm"
	batch_norm_param {
		use_global_stats: true
	}
}

layer {
	bottom: "res4b1_branch2b"
	top: "res4b1_branch2b"
	name: "scale4b1_branch2b"
	type: "Scale"
	scale_param {
		bias_term: true
	}
}

layer {
	top: "res4b1_branch2b"
	bottom: "res4b1_branch2b"
	name: "res4b1_branch2b_relu"
	type: "ReLU"
}

layer {
	bottom: "res4b1_branch2b"
	top: "res4b1_branch2c"
	name: "res4b1_branch2c"
	type: "Convolution"
	convolution_param {
		num_output: 1024
		kernel_size: 1
		pad: 0
		stride: 1
		bias_term: false
	}
}

layer {
	bottom: "res4b1_branch2c"
	top: "res4b1_branch2c"
	name: "bn4b1_branch2c"
	type: "BatchNorm"
	batch_norm_param {
		use_global_stats: true
	}
}

layer {
	bottom: "res4b1_branch2c"
	top: "res4b1_branch2c"
	name: "scale4b1_branch2c"
	type: "Scale"
	scale_param {
		bias_term: true
	}
}

layer {
	bottom: "res4a"
	bottom: "res4b1_branch2c"
	top: "res4b1"
	name: "res4b1"
	type: "Eltwise"
}

layer {
	bottom: "res4b1"
	top: "res4b1"
	name: "res4b1_relu"
	type: "ReLU"
}

layer {
	bottom: "res4b1"
	top: "res4b2_branch2a"
	name: "res4b2_branch2a"
	type: "Convolution"
	convolution_param {
		num_output: 256
		kernel_size: 1
		pad: 0
		stride: 1
		bias_term: false
	}
}

layer {
	bottom: "res4b2_branch2a"
	top: "res4b2_branch2a"
	name: "bn4b2_branch2a"
	type: "BatchNorm"
	batch_norm_param {
		use_global_stats: true
	}
}

layer {
	bottom: "res4b2_branch2a"
	top: "res4b2_branch2a"
	name: "scale4b2_branch2a"
	type: "Scale"
	scale_param {
		bias_term: true
	}
}

layer {
	top: "res4b2_branch2a"
	bottom: "res4b2_branch2a"
	name: "res4b2_branch2a_relu"
	type: "ReLU"
}

layer {
	bottom: "res4b2_branch2a"
	top: "res4b2_branch2b"
	name: "res4b2_branch2b"
	type: "Convolution"
	convolution_param {
		num_output: 256
		kernel_size: 3
		pad: 1
		stride: 1
		bias_term: false
	}
}

layer {
	bottom: "res4b2_branch2b"
	top: "res4b2_branch2b"
	name: "bn4b2_branch2b"
	type: "BatchNorm"
	batch_norm_param {
		use_global_stats: true
	}
}

layer {
	bottom: "res4b2_branch2b"
	top: "res4b2_branch2b"
	name: "scale4b2_branch2b"
	type: "Scale"
	scale_param {
		bias_term: true
	}
}

layer {
	top: "res4b2_branch2b"
	bottom: "res4b2_branch2b"
	name: "res4b2_branch2b_relu"
	type: "ReLU"
}

layer {
	bottom: "res4b2_branch2b"
	top: "res4b2_branch2c"
	name: "res4b2_branch2c"
	type: "Convolution"
	convolution_param {
		num_output: 1024
		kernel_size: 1
		pad: 0
		stride: 1
		bias_term: false
	}
}

layer {
	bottom: "res4b2_branch2c"
	top: "res4b2_branch2c"
	name: "bn4b2_branch2c"
	type: "BatchNorm"
	batch_norm_param {
		use_global_stats: true
	}
}

layer {
	bottom: "res4b2_branch2c"
	top: "res4b2_branch2c"
	name: "scale4b2_branch2c"
	type: "Scale"
	scale_param {
		bias_term: true
	}
}

layer {
	bottom: "res4b1"
	bottom: "res4b2_branch2c"
	top: "res4b2"
	name: "res4b2"
	type: "Eltwise"
}

layer {
	bottom: "res4b2"
	top: "res4b2"
	name: "res4b2_relu"
	type: "ReLU"
}

layer {
	bottom: "res4b2"
	top: "res4b3_branch2a"
	name: "res4b3_branch2a"
	type: "Convolution"
	convolution_param {
		num_output: 256
		kernel_size: 1
		pad: 0
		stride: 1
		bias_term: false
	}
}

layer {
	bottom: "res4b3_branch2a"
	top: "res4b3_branch2a"
	name: "bn4b3_branch2a"
	type: "BatchNorm"
	batch_norm_param {
		use_global_stats: true
	}
}

layer {
	bottom: "res4b3_branch2a"
	top: "res4b3_branch2a"
	name: "scale4b3_branch2a"
	type: "Scale"
	scale_param {
		bias_term: true
	}
}

layer {
	top: "res4b3_branch2a"
	bottom: "res4b3_branch2a"
	name: "res4b3_branch2a_relu"
	type: "ReLU"
}

layer {
	bottom: "res4b3_branch2a"
	top: "res4b3_branch2b"
	name: "res4b3_branch2b"
	type: "Convolution"
	convolution_param {
		num_output: 256
		kernel_size: 3
		pad: 1
		stride: 1
		bias_term: false
	}
}

layer {
	bottom: "res4b3_branch2b"
	top: "res4b3_branch2b"
	name: "bn4b3_branch2b"
	type: "BatchNorm"
	batch_norm_param {
		use_global_stats: true
	}
}

layer {
	bottom: "res4b3_branch2b"
	top: "res4b3_branch2b"
	name: "scale4b3_branch2b"
	type: "Scale"
	scale_param {
		bias_term: true
	}
}

layer {
	top: "res4b3_branch2b"
	bottom: "res4b3_branch2b"
	name: "res4b3_branch2b_relu"
	type: "ReLU"
}

layer {
	bottom: "res4b3_branch2b"
	top: "res4b3_branch2c"
	name: "res4b3_branch2c"
	type: "Convolution"
	convolution_param {
		num_output: 1024
		kernel_size: 1
		pad: 0
		stride: 1
		bias_term: false
	}
}

layer {
	bottom: "res4b3_branch2c"
	top: "res4b3_branch2c"
	name: "bn4b3_branch2c"
	type: "BatchNorm"
	batch_norm_param {
		use_global_stats: true
	}
}

layer {
	bottom: "res4b3_branch2c"
	top: "res4b3_branch2c"
	name: "scale4b3_branch2c"
	type: "Scale"
	scale_param {
		bias_term: true
	}
}

layer {
	bottom: "res4b2"
	bottom: "res4b3_branch2c"
	top: "res4b3"
	name: "res4b3"
	type: "Eltwise"
}

layer {
	bottom: "res4b3"
	top: "res4b3"
	name: "res4b3_relu"
	type: "ReLU"
}

layer {
	bottom: "res4b3"
	top: "res4b4_branch2a"
	name: "res4b4_branch2a"
	type: "Convolution"
	convolution_param {
		num_output: 256
		kernel_size: 1
		pad: 0
		stride: 1
		bias_term: false
	}
}

layer {
	bottom: "res4b4_branch2a"
	top: "res4b4_branch2a"
	name: "bn4b4_branch2a"
	type: "BatchNorm"
	batch_norm_param {
		use_global_stats: true
	}
}

layer {
	bottom: "res4b4_branch2a"
	top: "res4b4_branch2a"
	name: "scale4b4_branch2a"
	type: "Scale"
	scale_param {
		bias_term: true
	}
}

layer {
	top: "res4b4_branch2a"
	bottom: "res4b4_branch2a"
	name: "res4b4_branch2a_relu"
	type: "ReLU"
}

layer {
	bottom: "res4b4_branch2a"
	top: "res4b4_branch2b"
	name: "res4b4_branch2b"
	type: "Convolution"
	convolution_param {
		num_output: 256
		kernel_size: 3
		pad: 1
		stride: 1
		bias_term: false
	}
}

layer {
	bottom: "res4b4_branch2b"
	top: "res4b4_branch2b"
	name: "bn4b4_branch2b"
	type: "BatchNorm"
	batch_norm_param {
		use_global_stats: true
	}
}

layer {
	bottom: "res4b4_branch2b"
	top: "res4b4_branch2b"
	name: "scale4b4_branch2b"
	type: "Scale"
	scale_param {
		bias_term: true
	}
}

layer {
	top: "res4b4_branch2b"
	bottom: "res4b4_branch2b"
	name: "res4b4_branch2b_relu"
	type: "ReLU"
}

layer {
	bottom: "res4b4_branch2b"
	top: "res4b4_branch2c"
	name: "res4b4_branch2c"
	type: "Convolution"
	convolution_param {
		num_output: 1024
		kernel_size: 1
		pad: 0
		stride: 1
		bias_term: false
	}
}

layer {
	bottom: "res4b4_branch2c"
	top: "res4b4_branch2c"
	name: "bn4b4_branch2c"
	type: "BatchNorm"
	batch_norm_param {
		use_global_stats: true
	}
}

layer {
	bottom: "res4b4_branch2c"
	top: "res4b4_branch2c"
	name: "scale4b4_branch2c"
	type: "Scale"
	scale_param {
		bias_term: true
	}
}

layer {
	bottom: "res4b3"
	bottom: "res4b4_branch2c"
	top: "res4b4"
	name: "res4b4"
	type: "Eltwise"
}

layer {
	bottom: "res4b4"
	top: "res4b4"
	name: "res4b4_relu"
	type: "ReLU"
}

layer {
	bottom: "res4b4"
	top: "res4b5_branch2a"
	name: "res4b5_branch2a"
	type: "Convolution"
	convolution_param {
		num_output: 256
		kernel_size: 1
		pad: 0
		stride: 1
		bias_term: false
	}
}

layer {
	bottom: "res4b5_branch2a"
	top: "res4b5_branch2a"
	name: "bn4b5_branch2a"
	type: "BatchNorm"
	batch_norm_param {
		use_global_stats: true
	}
}

layer {
	bottom: "res4b5_branch2a"
	top: "res4b5_branch2a"
	name: "scale4b5_branch2a"
	type: "Scale"
	scale_param {
		bias_term: true
	}
}

layer {
	top: "res4b5_branch2a"
	bottom: "res4b5_branch2a"
	name: "res4b5_branch2a_relu"
	type: "ReLU"
}

layer {
	bottom: "res4b5_branch2a"
	top: "res4b5_branch2b"
	name: "res4b5_branch2b"
	type: "Convolution"
	convolution_param {
		num_output: 256
		kernel_size: 3
		pad: 1
		stride: 1
		bias_term: false
	}
}

layer {
	bottom: "res4b5_branch2b"
	top: "res4b5_branch2b"
	name: "bn4b5_branch2b"
	type: "BatchNorm"
	batch_norm_param {
		use_global_stats: true
	}
}

layer {
	bottom: "res4b5_branch2b"
	top: "res4b5_branch2b"
	name: "scale4b5_branch2b"
	type: "Scale"
	scale_param {
		bias_term: true
	}
}

layer {
	top: "res4b5_branch2b"
	bottom: "res4b5_branch2b"
	name: "res4b5_branch2b_relu"
	type: "ReLU"
}

layer {
	bottom: "res4b5_branch2b"
	top: "res4b5_branch2c"
	name: "res4b5_branch2c"
	type: "Convolution"
	convolution_param {
		num_output: 1024
		kernel_size: 1
		pad: 0
		stride: 1
		bias_term: false
	}
}

layer {
	bottom: "res4b5_branch2c"
	top: "res4b5_branch2c"
	name: "bn4b5_branch2c"
	type: "BatchNorm"
	batch_norm_param {
		use_global_stats: true
	}
}

layer {
	bottom: "res4b5_branch2c"
	top: "res4b5_branch2c"
	name: "scale4b5_branch2c"
	type: "Scale"
	scale_param {
		bias_term: true
	}
}

layer {
	bottom: "res4b4"
	bottom: "res4b5_branch2c"
	top: "res4b5"
	name: "res4b5"
	type: "Eltwise"
}

layer {
	bottom: "res4b5"
	top: "res4b5"
	name: "res4b5_relu"
	type: "ReLU"
}

layer {
	bottom: "res4b5"
	top: "res4b6_branch2a"
	name: "res4b6_branch2a"
	type: "Convolution"
	convolution_param {
		num_output: 256
		kernel_size: 1
		pad: 0
		stride: 1
		bias_term: false
	}
}

layer {
	bottom: "res4b6_branch2a"
	top: "res4b6_branch2a"
	name: "bn4b6_branch2a"
	type: "BatchNorm"
	batch_norm_param {
		use_global_stats: true
	}
}

layer {
	bottom: "res4b6_branch2a"
	top: "res4b6_branch2a"
	name: "scale4b6_branch2a"
	type: "Scale"
	scale_param {
		bias_term: true
	}
}

layer {
	top: "res4b6_branch2a"
	bottom: "res4b6_branch2a"
	name: "res4b6_branch2a_relu"
	type: "ReLU"
}

layer {
	bottom: "res4b6_branch2a"
	top: "res4b6_branch2b"
	name: "res4b6_branch2b"
	type: "Convolution"
	convolution_param {
		num_output: 256
		kernel_size: 3
		pad: 1
		stride: 1
		bias_term: false
	}
}

layer {
	bottom: "res4b6_branch2b"
	top: "res4b6_branch2b"
	name: "bn4b6_branch2b"
	type: "BatchNorm"
	batch_norm_param {
		use_global_stats: true
	}
}

layer {
	bottom: "res4b6_branch2b"
	top: "res4b6_branch2b"
	name: "scale4b6_branch2b"
	type: "Scale"
	scale_param {
		bias_term: true
	}
}

layer {
	top: "res4b6_branch2b"
	bottom: "res4b6_branch2b"
	name: "res4b6_branch2b_relu"
	type: "ReLU"
}

layer {
	bottom: "res4b6_branch2b"
	top: "res4b6_branch2c"
	name: "res4b6_branch2c"
	type: "Convolution"
	convolution_param {
		num_output: 1024
		kernel_size: 1
		pad: 0
		stride: 1
		bias_term: false
	}
}

layer {
	bottom: "res4b6_branch2c"
	top: "res4b6_branch2c"
	name: "bn4b6_branch2c"
	type: "BatchNorm"
	batch_norm_param {
		use_global_stats: true
	}
}

layer {
	bottom: "res4b6_branch2c"
	top: "res4b6_branch2c"
	name: "scale4b6_branch2c"
	type: "Scale"
	scale_param {
		bias_term: true
	}
}

layer {
	bottom: "res4b5"
	bottom: "res4b6_branch2c"
	top: "res4b6"
	name: "res4b6"
	type: "Eltwise"
}

layer {
	bottom: "res4b6"
	top: "res4b6"
	name: "res4b6_relu"
	type: "ReLU"
}

layer {
	bottom: "res4b6"
	top: "res4b7_branch2a"
	name: "res4b7_branch2a"
	type: "Convolution"
	convolution_param {
		num_output: 256
		kernel_size: 1
		pad: 0
		stride: 1
		bias_term: false
	}
}

layer {
	bottom: "res4b7_branch2a"
	top: "res4b7_branch2a"
	name: "bn4b7_branch2a"
	type: "BatchNorm"
	batch_norm_param {
		use_global_stats: true
	}
}

layer {
	bottom: "res4b7_branch2a"
	top: "res4b7_branch2a"
	name: "scale4b7_branch2a"
	type: "Scale"
	scale_param {
		bias_term: true
	}
}

layer {
	top: "res4b7_branch2a"
	bottom: "res4b7_branch2a"
	name: "res4b7_branch2a_relu"
	type: "ReLU"
}

layer {
	bottom: "res4b7_branch2a"
	top: "res4b7_branch2b"
	name: "res4b7_branch2b"
	type: "Convolution"
	convolution_param {
		num_output: 256
		kernel_size: 3
		pad: 1
		stride: 1
		bias_term: false
	}
}

layer {
	bottom: "res4b7_branch2b"
	top: "res4b7_branch2b"
	name: "bn4b7_branch2b"
	type: "BatchNorm"
	batch_norm_param {
		use_global_stats: true
	}
}

layer {
	bottom: "res4b7_branch2b"
	top: "res4b7_branch2b"
	name: "scale4b7_branch2b"
	type: "Scale"
	scale_param {
		bias_term: true
	}
}

layer {
	top: "res4b7_branch2b"
	bottom: "res4b7_branch2b"
	name: "res4b7_branch2b_relu"
	type: "ReLU"
}

layer {
	bottom: "res4b7_branch2b"
	top: "res4b7_branch2c"
	name: "res4b7_branch2c"
	type: "Convolution"
	convolution_param {
		num_output: 1024
		kernel_size: 1
		pad: 0
		stride: 1
		bias_term: false
	}
}

layer {
	bottom: "res4b7_branch2c"
	top: "res4b7_branch2c"
	name: "bn4b7_branch2c"
	type: "BatchNorm"
	batch_norm_param {
		use_global_stats: true
	}
}

layer {
	bottom: "res4b7_branch2c"
	top: "res4b7_branch2c"
	name: "scale4b7_branch2c"
	type: "Scale"
	scale_param {
		bias_term: true
	}
}

layer {
	bottom: "res4b6"
	bottom: "res4b7_branch2c"
	top: "res4b7"
	name: "res4b7"
	type: "Eltwise"
}

layer {
	bottom: "res4b7"
	top: "res4b7"
	name: "res4b7_relu"
	type: "ReLU"
}

layer {
	bottom: "res4b7"
	top: "res4b8_branch2a"
	name: "res4b8_branch2a"
	type: "Convolution"
	convolution_param {
		num_output: 256
		kernel_size: 1
		pad: 0
		stride: 1
		bias_term: false
	}
}

layer {
	bottom: "res4b8_branch2a"
	top: "res4b8_branch2a"
	name: "bn4b8_branch2a"
	type: "BatchNorm"
	batch_norm_param {
		use_global_stats: true
	}
}

layer {
	bottom: "res4b8_branch2a"
	top: "res4b8_branch2a"
	name: "scale4b8_branch2a"
	type: "Scale"
	scale_param {
		bias_term: true
	}
}

layer {
	top: "res4b8_branch2a"
	bottom: "res4b8_branch2a"
	name: "res4b8_branch2a_relu"
	type: "ReLU"
}

layer {
	bottom: "res4b8_branch2a"
	top: "res4b8_branch2b"
	name: "res4b8_branch2b"
	type: "Convolution"
	convolution_param {
		num_output: 256
		kernel_size: 3
		pad: 1
		stride: 1
		bias_term: false
	}
}

layer {
	bottom: "res4b8_branch2b"
	top: "res4b8_branch2b"
	name: "bn4b8_branch2b"
	type: "BatchNorm"
	batch_norm_param {
		use_global_stats: true
	}
}

layer {
	bottom: "res4b8_branch2b"
	top: "res4b8_branch2b"
	name: "scale4b8_branch2b"
	type: "Scale"
	scale_param {
		bias_term: true
	}
}

layer {
	top: "res4b8_branch2b"
	bottom: "res4b8_branch2b"
	name: "res4b8_branch2b_relu"
	type: "ReLU"
}

layer {
	bottom: "res4b8_branch2b"
	top: "res4b8_branch2c"
	name: "res4b8_branch2c"
	type: "Convolution"
	convolution_param {
		num_output: 1024
		kernel_size: 1
		pad: 0
		stride: 1
		bias_term: false
	}
}

layer {
	bottom: "res4b8_branch2c"
	top: "res4b8_branch2c"
	name: "bn4b8_branch2c"
	type: "BatchNorm"
	batch_norm_param {
		use_global_stats: true
	}
}

layer {
	bottom: "res4b8_branch2c"
	top: "res4b8_branch2c"
	name: "scale4b8_branch2c"
	type: "Scale"
	scale_param {
		bias_term: true
	}
}

layer {
	bottom: "res4b7"
	bottom: "res4b8_branch2c"
	top: "res4b8"
	name: "res4b8"
	type: "Eltwise"
}

layer {
	bottom: "res4b8"
	top: "res4b8"
	name: "res4b8_relu"
	type: "ReLU"
}

layer {
	bottom: "res4b8"
	top: "res4b9_branch2a"
	name: "res4b9_branch2a"
	type: "Convolution"
	convolution_param {
		num_output: 256
		kernel_size: 1
		pad: 0
		stride: 1
		bias_term: false
	}
}

layer {
	bottom: "res4b9_branch2a"
	top: "res4b9_branch2a"
	name: "bn4b9_branch2a"
	type: "BatchNorm"
	batch_norm_param {
		use_global_stats: true
	}
}

layer {
	bottom: "res4b9_branch2a"
	top: "res4b9_branch2a"
	name: "scale4b9_branch2a"
	type: "Scale"
	scale_param {
		bias_term: true
	}
}

layer {
	top: "res4b9_branch2a"
	bottom: "res4b9_branch2a"
	name: "res4b9_branch2a_relu"
	type: "ReLU"
}

layer {
	bottom: "res4b9_branch2a"
	top: "res4b9_branch2b"
	name: "res4b9_branch2b"
	type: "Convolution"
	convolution_param {
		num_output: 256
		kernel_size: 3
		pad: 1
		stride: 1
		bias_term: false
	}
}

layer {
	bottom: "res4b9_branch2b"
	top: "res4b9_branch2b"
	name: "bn4b9_branch2b"
	type: "BatchNorm"
	batch_norm_param {
		use_global_stats: true
	}
}

layer {
	bottom: "res4b9_branch2b"
	top: "res4b9_branch2b"
	name: "scale4b9_branch2b"
	type: "Scale"
	scale_param {
		bias_term: true
	}
}

layer {
	top: "res4b9_branch2b"
	bottom: "res4b9_branch2b"
	name: "res4b9_branch2b_relu"
	type: "ReLU"
}

layer {
	bottom: "res4b9_branch2b"
	top: "res4b9_branch2c"
	name: "res4b9_branch2c"
	type: "Convolution"
	convolution_param {
		num_output: 1024
		kernel_size: 1
		pad: 0
		stride: 1
		bias_term: false
	}
}

layer {
	bottom: "res4b9_branch2c"
	top: "res4b9_branch2c"
	name: "bn4b9_branch2c"
	type: "BatchNorm"
	batch_norm_param {
		use_global_stats: true
	}
}

layer {
	bottom: "res4b9_branch2c"
	top: "res4b9_branch2c"
	name: "scale4b9_branch2c"
	type: "Scale"
	scale_param {
		bias_term: true
	}
}

layer {
	bottom: "res4b8"
	bottom: "res4b9_branch2c"
	top: "res4b9"
	name: "res4b9"
	type: "Eltwise"
}

layer {
	bottom: "res4b9"
	top: "res4b9"
	name: "res4b9_relu"
	type: "ReLU"
}

layer {
	bottom: "res4b9"
	top: "res4b10_branch2a"
	name: "res4b10_branch2a"
	type: "Convolution"
	convolution_param {
		num_output: 256
		kernel_size: 1
		pad: 0
		stride: 1
		bias_term: false
	}
}

layer {
	bottom: "res4b10_branch2a"
	top: "res4b10_branch2a"
	name: "bn4b10_branch2a"
	type: "BatchNorm"
	batch_norm_param {
		use_global_stats: true
	}
}

layer {
	bottom: "res4b10_branch2a"
	top: "res4b10_branch2a"
	name: "scale4b10_branch2a"
	type: "Scale"
	scale_param {
		bias_term: true
	}
}

layer {
	top: "res4b10_branch2a"
	bottom: "res4b10_branch2a"
	name: "res4b10_branch2a_relu"
	type: "ReLU"
}

layer {
	bottom: "res4b10_branch2a"
	top: "res4b10_branch2b"
	name: "res4b10_branch2b"
	type: "Convolution"
	convolution_param {
		num_output: 256
		kernel_size: 3
		pad: 1
		stride: 1
		bias_term: false
	}
}

layer {
	bottom: "res4b10_branch2b"
	top: "res4b10_branch2b"
	name: "bn4b10_branch2b"
	type: "BatchNorm"
	batch_norm_param {
		use_global_stats: true
	}
}

layer {
	bottom: "res4b10_branch2b"
	top: "res4b10_branch2b"
	name: "scale4b10_branch2b"
	type: "Scale"
	scale_param {
		bias_term: true
	}
}

layer {
	top: "res4b10_branch2b"
	bottom: "res4b10_branch2b"
	name: "res4b10_branch2b_relu"
	type: "ReLU"
}

layer {
	bottom: "res4b10_branch2b"
	top: "res4b10_branch2c"
	name: "res4b10_branch2c"
	type: "Convolution"
	convolution_param {
		num_output: 1024
		kernel_size: 1
		pad: 0
		stride: 1
		bias_term: false
	}
}

layer {
	bottom: "res4b10_branch2c"
	top: "res4b10_branch2c"
	name: "bn4b10_branch2c"
	type: "BatchNorm"
	batch_norm_param {
		use_global_stats: true
	}
}

layer {
	bottom: "res4b10_branch2c"
	top: "res4b10_branch2c"
	name: "scale4b10_branch2c"
	type: "Scale"
	scale_param {
		bias_term: true
	}
}

layer {
	bottom: "res4b9"
	bottom: "res4b10_branch2c"
	top: "res4b10"
	name: "res4b10"
	type: "Eltwise"
}

layer {
	bottom: "res4b10"
	top: "res4b10"
	name: "res4b10_relu"
	type: "ReLU"
}

layer {
	bottom: "res4b10"
	top: "res4b11_branch2a"
	name: "res4b11_branch2a"
	type: "Convolution"
	convolution_param {
		num_output: 256
		kernel_size: 1
		pad: 0
		stride: 1
		bias_term: false
	}
}

layer {
	bottom: "res4b11_branch2a"
	top: "res4b11_branch2a"
	name: "bn4b11_branch2a"
	type: "BatchNorm"
	batch_norm_param {
		use_global_stats: true
	}
}

layer {
	bottom: "res4b11_branch2a"
	top: "res4b11_branch2a"
	name: "scale4b11_branch2a"
	type: "Scale"
	scale_param {
		bias_term: true
	}
}

layer {
	top: "res4b11_branch2a"
	bottom: "res4b11_branch2a"
	name: "res4b11_branch2a_relu"
	type: "ReLU"
}

layer {
	bottom: "res4b11_branch2a"
	top: "res4b11_branch2b"
	name: "res4b11_branch2b"
	type: "Convolution"
	convolution_param {
		num_output: 256
		kernel_size: 3
		pad: 1
		stride: 1
		bias_term: false
	}
}

layer {
	bottom: "res4b11_branch2b"
	top: "res4b11_branch2b"
	name: "bn4b11_branch2b"
	type: "BatchNorm"
	batch_norm_param {
		use_global_stats: true
	}
}

layer {
	bottom: "res4b11_branch2b"
	top: "res4b11_branch2b"
	name: "scale4b11_branch2b"
	type: "Scale"
	scale_param {
		bias_term: true
	}
}

layer {
	top: "res4b11_branch2b"
	bottom: "res4b11_branch2b"
	name: "res4b11_branch2b_relu"
	type: "ReLU"
}

layer {
	bottom: "res4b11_branch2b"
	top: "res4b11_branch2c"
	name: "res4b11_branch2c"
	type: "Convolution"
	convolution_param {
		num_output: 1024
		kernel_size: 1
		pad: 0
		stride: 1
		bias_term: false
	}
}

layer {
	bottom: "res4b11_branch2c"
	top: "res4b11_branch2c"
	name: "bn4b11_branch2c"
	type: "BatchNorm"
	batch_norm_param {
		use_global_stats: true
	}
}

layer {
	bottom: "res4b11_branch2c"
	top: "res4b11_branch2c"
	name: "scale4b11_branch2c"
	type: "Scale"
	scale_param {
		bias_term: true
	}
}

layer {
	bottom: "res4b10"
	bottom: "res4b11_branch2c"
	top: "res4b11"
	name: "res4b11"
	type: "Eltwise"
}

layer {
	bottom: "res4b11"
	top: "res4b11"
	name: "res4b11_relu"
	type: "ReLU"
}

layer {
	bottom: "res4b11"
	top: "res4b12_branch2a"
	name: "res4b12_branch2a"
	type: "Convolution"
	convolution_param {
		num_output: 256
		kernel_size: 1
		pad: 0
		stride: 1
		bias_term: false
	}
}

layer {
	bottom: "res4b12_branch2a"
	top: "res4b12_branch2a"
	name: "bn4b12_branch2a"
	type: "BatchNorm"
	batch_norm_param {
		use_global_stats: true
	}
}

layer {
	bottom: "res4b12_branch2a"
	top: "res4b12_branch2a"
	name: "scale4b12_branch2a"
	type: "Scale"
	scale_param {
		bias_term: true
	}
}

layer {
	top: "res4b12_branch2a"
	bottom: "res4b12_branch2a"
	name: "res4b12_branch2a_relu"
	type: "ReLU"
}

layer {
	bottom: "res4b12_branch2a"
	top: "res4b12_branch2b"
	name: "res4b12_branch2b"
	type: "Convolution"
	convolution_param {
		num_output: 256
		kernel_size: 3
		pad: 1
		stride: 1
		bias_term: false
	}
}

layer {
	bottom: "res4b12_branch2b"
	top: "res4b12_branch2b"
	name: "bn4b12_branch2b"
	type: "BatchNorm"
	batch_norm_param {
		use_global_stats: true
	}
}

layer {
	bottom: "res4b12_branch2b"
	top: "res4b12_branch2b"
	name: "scale4b12_branch2b"
	type: "Scale"
	scale_param {
		bias_term: true
	}
}

layer {
	top: "res4b12_branch2b"
	bottom: "res4b12_branch2b"
	name: "res4b12_branch2b_relu"
	type: "ReLU"
}

layer {
	bottom: "res4b12_branch2b"
	top: "res4b12_branch2c"
	name: "res4b12_branch2c"
	type: "Convolution"
	convolution_param {
		num_output: 1024
		kernel_size: 1
		pad: 0
		stride: 1
		bias_term: false
	}
}

layer {
	bottom: "res4b12_branch2c"
	top: "res4b12_branch2c"
	name: "bn4b12_branch2c"
	type: "BatchNorm"
	batch_norm_param {
		use_global_stats: true
	}
}

layer {
	bottom: "res4b12_branch2c"
	top: "res4b12_branch2c"
	name: "scale4b12_branch2c"
	type: "Scale"
	scale_param {
		bias_term: true
	}
}

layer {
	bottom: "res4b11"
	bottom: "res4b12_branch2c"
	top: "res4b12"
	name: "res4b12"
	type: "Eltwise"
}

layer {
	bottom: "res4b12"
	top: "res4b12"
	name: "res4b12_relu"
	type: "ReLU"
}

layer {
	bottom: "res4b12"
	top: "res4b13_branch2a"
	name: "res4b13_branch2a"
	type: "Convolution"
	convolution_param {
		num_output: 256
		kernel_size: 1
		pad: 0
		stride: 1
		bias_term: false
	}
}

layer {
	bottom: "res4b13_branch2a"
	top: "res4b13_branch2a"
	name: "bn4b13_branch2a"
	type: "BatchNorm"
	batch_norm_param {
		use_global_stats: true
	}
}

layer {
	bottom: "res4b13_branch2a"
	top: "res4b13_branch2a"
	name: "scale4b13_branch2a"
	type: "Scale"
	scale_param {
		bias_term: true
	}
}

layer {
	top: "res4b13_branch2a"
	bottom: "res4b13_branch2a"
	name: "res4b13_branch2a_relu"
	type: "ReLU"
}

layer {
	bottom: "res4b13_branch2a"
	top: "res4b13_branch2b"
	name: "res4b13_branch2b"
	type: "Convolution"
	convolution_param {
		num_output: 256
		kernel_size: 3
		pad: 1
		stride: 1
		bias_term: false
	}
}

layer {
	bottom: "res4b13_branch2b"
	top: "res4b13_branch2b"
	name: "bn4b13_branch2b"
	type: "BatchNorm"
	batch_norm_param {
		use_global_stats: true
	}
}

layer {
	bottom: "res4b13_branch2b"
	top: "res4b13_branch2b"
	name: "scale4b13_branch2b"
	type: "Scale"
	scale_param {
		bias_term: true
	}
}

layer {
	top: "res4b13_branch2b"
	bottom: "res4b13_branch2b"
	name: "res4b13_branch2b_relu"
	type: "ReLU"
}

layer {
	bottom: "res4b13_branch2b"
	top: "res4b13_branch2c"
	name: "res4b13_branch2c"
	type: "Convolution"
	convolution_param {
		num_output: 1024
		kernel_size: 1
		pad: 0
		stride: 1
		bias_term: false
	}
}

layer {
	bottom: "res4b13_branch2c"
	top: "res4b13_branch2c"
	name: "bn4b13_branch2c"
	type: "BatchNorm"
	batch_norm_param {
		use_global_stats: true
	}
}

layer {
	bottom: "res4b13_branch2c"
	top: "res4b13_branch2c"
	name: "scale4b13_branch2c"
	type: "Scale"
	scale_param {
		bias_term: true
	}
}

layer {
	bottom: "res4b12"
	bottom: "res4b13_branch2c"
	top: "res4b13"
	name: "res4b13"
	type: "Eltwise"
}

layer {
	bottom: "res4b13"
	top: "res4b13"
	name: "res4b13_relu"
	type: "ReLU"
}

layer {
	bottom: "res4b13"
	top: "res4b14_branch2a"
	name: "res4b14_branch2a"
	type: "Convolution"
	convolution_param {
		num_output: 256
		kernel_size: 1
		pad: 0
		stride: 1
		bias_term: false
	}
}

layer {
	bottom: "res4b14_branch2a"
	top: "res4b14_branch2a"
	name: "bn4b14_branch2a"
	type: "BatchNorm"
	batch_norm_param {
		use_global_stats: true
	}
}

layer {
	bottom: "res4b14_branch2a"
	top: "res4b14_branch2a"
	name: "scale4b14_branch2a"
	type: "Scale"
	scale_param {
		bias_term: true
	}
}

layer {
	top: "res4b14_branch2a"
	bottom: "res4b14_branch2a"
	name: "res4b14_branch2a_relu"
	type: "ReLU"
}

layer {
	bottom: "res4b14_branch2a"
	top: "res4b14_branch2b"
	name: "res4b14_branch2b"
	type: "Convolution"
	convolution_param {
		num_output: 256
		kernel_size: 3
		pad: 1
		stride: 1
		bias_term: false
	}
}

layer {
	bottom: "res4b14_branch2b"
	top: "res4b14_branch2b"
	name: "bn4b14_branch2b"
	type: "BatchNorm"
	batch_norm_param {
		use_global_stats: true
	}
}

layer {
	bottom: "res4b14_branch2b"
	top: "res4b14_branch2b"
	name: "scale4b14_branch2b"
	type: "Scale"
	scale_param {
		bias_term: true
	}
}

layer {
	top: "res4b14_branch2b"
	bottom: "res4b14_branch2b"
	name: "res4b14_branch2b_relu"
	type: "ReLU"
}

layer {
	bottom: "res4b14_branch2b"
	top: "res4b14_branch2c"
	name: "res4b14_branch2c"
	type: "Convolution"
	convolution_param {
		num_output: 1024
		kernel_size: 1
		pad: 0
		stride: 1
		bias_term: false
	}
}

layer {
	bottom: "res4b14_branch2c"
	top: "res4b14_branch2c"
	name: "bn4b14_branch2c"
	type: "BatchNorm"
	batch_norm_param {
		use_global_stats: true
	}
}

layer {
	bottom: "res4b14_branch2c"
	top: "res4b14_branch2c"
	name: "scale4b14_branch2c"
	type: "Scale"
	scale_param {
		bias_term: true
	}
}

layer {
	bottom: "res4b13"
	bottom: "res4b14_branch2c"
	top: "res4b14"
	name: "res4b14"
	type: "Eltwise"
}

layer {
	bottom: "res4b14"
	top: "res4b14"
	name: "res4b14_relu"
	type: "ReLU"
}

layer {
	bottom: "res4b14"
	top: "res4b15_branch2a"
	name: "res4b15_branch2a"
	type: "Convolution"
	convolution_param {
		num_output: 256
		kernel_size: 1
		pad: 0
		stride: 1
		bias_term: false
	}
}

layer {
	bottom: "res4b15_branch2a"
	top: "res4b15_branch2a"
	name: "bn4b15_branch2a"
	type: "BatchNorm"
	batch_norm_param {
		use_global_stats: true
	}
}

layer {
	bottom: "res4b15_branch2a"
	top: "res4b15_branch2a"
	name: "scale4b15_branch2a"
	type: "Scale"
	scale_param {
		bias_term: true
	}
}

layer {
	top: "res4b15_branch2a"
	bottom: "res4b15_branch2a"
	name: "res4b15_branch2a_relu"
	type: "ReLU"
}

layer {
	bottom: "res4b15_branch2a"
	top: "res4b15_branch2b"
	name: "res4b15_branch2b"
	type: "Convolution"
	convolution_param {
		num_output: 256
		kernel_size: 3
		pad: 1
		stride: 1
		bias_term: false
	}
}

layer {
	bottom: "res4b15_branch2b"
	top: "res4b15_branch2b"
	name: "bn4b15_branch2b"
	type: "BatchNorm"
	batch_norm_param {
		use_global_stats: true
	}
}

layer {
	bottom: "res4b15_branch2b"
	top: "res4b15_branch2b"
	name: "scale4b15_branch2b"
	type: "Scale"
	scale_param {
		bias_term: true
	}
}

layer {
	top: "res4b15_branch2b"
	bottom: "res4b15_branch2b"
	name: "res4b15_branch2b_relu"
	type: "ReLU"
}

layer {
	bottom: "res4b15_branch2b"
	top: "res4b15_branch2c"
	name: "res4b15_branch2c"
	type: "Convolution"
	convolution_param {
		num_output: 1024
		kernel_size: 1
		pad: 0
		stride: 1
		bias_term: false
	}
}

layer {
	bottom: "res4b15_branch2c"
	top: "res4b15_branch2c"
	name: "bn4b15_branch2c"
	type: "BatchNorm"
	batch_norm_param {
		use_global_stats: true
	}
}

layer {
	bottom: "res4b15_branch2c"
	top: "res4b15_branch2c"
	name: "scale4b15_branch2c"
	type: "Scale"
	scale_param {
		bias_term: true
	}
}

layer {
	bottom: "res4b14"
	bottom: "res4b15_branch2c"
	top: "res4b15"
	name: "res4b15"
	type: "Eltwise"
}

layer {
	bottom: "res4b15"
	top: "res4b15"
	name: "res4b15_relu"
	type: "ReLU"
}

layer {
	bottom: "res4b15"
	top: "res4b16_branch2a"
	name: "res4b16_branch2a"
	type: "Convolution"
	convolution_param {
		num_output: 256
		kernel_size: 1
		pad: 0
		stride: 1
		bias_term: false
	}
}

layer {
	bottom: "res4b16_branch2a"
	top: "res4b16_branch2a"
	name: "bn4b16_branch2a"
	type: "BatchNorm"
	batch_norm_param {
		use_global_stats: true
	}
}

layer {
	bottom: "res4b16_branch2a"
	top: "res4b16_branch2a"
	name: "scale4b16_branch2a"
	type: "Scale"
	scale_param {
		bias_term: true
	}
}

layer {
	top: "res4b16_branch2a"
	bottom: "res4b16_branch2a"
	name: "res4b16_branch2a_relu"
	type: "ReLU"
}

layer {
	bottom: "res4b16_branch2a"
	top: "res4b16_branch2b"
	name: "res4b16_branch2b"
	type: "Convolution"
	convolution_param {
		num_output: 256
		kernel_size: 3
		pad: 1
		stride: 1
		bias_term: false
	}
}

layer {
	bottom: "res4b16_branch2b"
	top: "res4b16_branch2b"
	name: "bn4b16_branch2b"
	type: "BatchNorm"
	batch_norm_param {
		use_global_stats: true
	}
}

layer {
	bottom: "res4b16_branch2b"
	top: "res4b16_branch2b"
	name: "scale4b16_branch2b"
	type: "Scale"
	scale_param {
		bias_term: true
	}
}

layer {
	top: "res4b16_branch2b"
	bottom: "res4b16_branch2b"
	name: "res4b16_branch2b_relu"
	type: "ReLU"
}

layer {
	bottom: "res4b16_branch2b"
	top: "res4b16_branch2c"
	name: "res4b16_branch2c"
	type: "Convolution"
	convolution_param {
		num_output: 1024
		kernel_size: 1
		pad: 0
		stride: 1
		bias_term: false
	}
}

layer {
	bottom: "res4b16_branch2c"
	top: "res4b16_branch2c"
	name: "bn4b16_branch2c"
	type: "BatchNorm"
	batch_norm_param {
		use_global_stats: true
	}
}

layer {
	bottom: "res4b16_branch2c"
	top: "res4b16_branch2c"
	name: "scale4b16_branch2c"
	type: "Scale"
	scale_param {
		bias_term: true
	}
}

layer {
	bottom: "res4b15"
	bottom: "res4b16_branch2c"
	top: "res4b16"
	name: "res4b16"
	type: "Eltwise"
}

layer {
	bottom: "res4b16"
	top: "res4b16"
	name: "res4b16_relu"
	type: "ReLU"
}

layer {
	bottom: "res4b16"
	top: "res4b17_branch2a"
	name: "res4b17_branch2a"
	type: "Convolution"
	convolution_param {
		num_output: 256
		kernel_size: 1
		pad: 0
		stride: 1
		bias_term: false
	}
}

layer {
	bottom: "res4b17_branch2a"
	top: "res4b17_branch2a"
	name: "bn4b17_branch2a"
	type: "BatchNorm"
	batch_norm_param {
		use_global_stats: true
	}
}

layer {
	bottom: "res4b17_branch2a"
	top: "res4b17_branch2a"
	name: "scale4b17_branch2a"
	type: "Scale"
	scale_param {
		bias_term: true
	}
}

layer {
	top: "res4b17_branch2a"
	bottom: "res4b17_branch2a"
	name: "res4b17_branch2a_relu"
	type: "ReLU"
}

layer {
	bottom: "res4b17_branch2a"
	top: "res4b17_branch2b"
	name: "res4b17_branch2b"
	type: "Convolution"
	convolution_param {
		num_output: 256
		kernel_size: 3
		pad: 1
		stride: 1
		bias_term: false
	}
}

layer {
	bottom: "res4b17_branch2b"
	top: "res4b17_branch2b"
	name: "bn4b17_branch2b"
	type: "BatchNorm"
	batch_norm_param {
		use_global_stats: true
	}
}

layer {
	bottom: "res4b17_branch2b"
	top: "res4b17_branch2b"
	name: "scale4b17_branch2b"
	type: "Scale"
	scale_param {
		bias_term: true
	}
}

layer {
	top: "res4b17_branch2b"
	bottom: "res4b17_branch2b"
	name: "res4b17_branch2b_relu"
	type: "ReLU"
}

layer {
	bottom: "res4b17_branch2b"
	top: "res4b17_branch2c"
	name: "res4b17_branch2c"
	type: "Convolution"
	convolution_param {
		num_output: 1024
		kernel_size: 1
		pad: 0
		stride: 1
		bias_term: false
	}
}

layer {
	bottom: "res4b17_branch2c"
	top: "res4b17_branch2c"
	name: "bn4b17_branch2c"
	type: "BatchNorm"
	batch_norm_param {
		use_global_stats: true
	}
}

layer {
	bottom: "res4b17_branch2c"
	top: "res4b17_branch2c"
	name: "scale4b17_branch2c"
	type: "Scale"
	scale_param {
		bias_term: true
	}
}

layer {
	bottom: "res4b16"
	bottom: "res4b17_branch2c"
	top: "res4b17"
	name: "res4b17"
	type: "Eltwise"
}

layer {
	bottom: "res4b17"
	top: "res4b17"
	name: "res4b17_relu"
	type: "ReLU"
}

layer {
	bottom: "res4b17"
	top: "res4b18_branch2a"
	name: "res4b18_branch2a"
	type: "Convolution"
	convolution_param {
		num_output: 256
		kernel_size: 1
		pad: 0
		stride: 1
		bias_term: false
	}
}

layer {
	bottom: "res4b18_branch2a"
	top: "res4b18_branch2a"
	name: "bn4b18_branch2a"
	type: "BatchNorm"
	batch_norm_param {
		use_global_stats: true
	}
}

layer {
	bottom: "res4b18_branch2a"
	top: "res4b18_branch2a"
	name: "scale4b18_branch2a"
	type: "Scale"
	scale_param {
		bias_term: true
	}
}

layer {
	top: "res4b18_branch2a"
	bottom: "res4b18_branch2a"
	name: "res4b18_branch2a_relu"
	type: "ReLU"
}

layer {
	bottom: "res4b18_branch2a"
	top: "res4b18_branch2b"
	name: "res4b18_branch2b"
	type: "Convolution"
	convolution_param {
		num_output: 256
		kernel_size: 3
		pad: 1
		stride: 1
		bias_term: false
	}
}

layer {
	bottom: "res4b18_branch2b"
	top: "res4b18_branch2b"
	name: "bn4b18_branch2b"
	type: "BatchNorm"
	batch_norm_param {
		use_global_stats: true
	}
}

layer {
	bottom: "res4b18_branch2b"
	top: "res4b18_branch2b"
	name: "scale4b18_branch2b"
	type: "Scale"
	scale_param {
		bias_term: true
	}
}

layer {
	top: "res4b18_branch2b"
	bottom: "res4b18_branch2b"
	name: "res4b18_branch2b_relu"
	type: "ReLU"
}

layer {
	bottom: "res4b18_branch2b"
	top: "res4b18_branch2c"
	name: "res4b18_branch2c"
	type: "Convolution"
	convolution_param {
		num_output: 1024
		kernel_size: 1
		pad: 0
		stride: 1
		bias_term: false
	}
}

layer {
	bottom: "res4b18_branch2c"
	top: "res4b18_branch2c"
	name: "bn4b18_branch2c"
	type: "BatchNorm"
	batch_norm_param {
		use_global_stats: true
	}
}

layer {
	bottom: "res4b18_branch2c"
	top: "res4b18_branch2c"
	name: "scale4b18_branch2c"
	type: "Scale"
	scale_param {
		bias_term: true
	}
}

layer {
	bottom: "res4b17"
	bottom: "res4b18_branch2c"
	top: "res4b18"
	name: "res4b18"
	type: "Eltwise"
}

layer {
	bottom: "res4b18"
	top: "res4b18"
	name: "res4b18_relu"
	type: "ReLU"
}

layer {
	bottom: "res4b18"
	top: "res4b19_branch2a"
	name: "res4b19_branch2a"
	type: "Convolution"
	convolution_param {
		num_output: 256
		kernel_size: 1
		pad: 0
		stride: 1
		bias_term: false
	}
}

layer {
	bottom: "res4b19_branch2a"
	top: "res4b19_branch2a"
	name: "bn4b19_branch2a"
	type: "BatchNorm"
	batch_norm_param {
		use_global_stats: true
	}
}

layer {
	bottom: "res4b19_branch2a"
	top: "res4b19_branch2a"
	name: "scale4b19_branch2a"
	type: "Scale"
	scale_param {
		bias_term: true
	}
}

layer {
	top: "res4b19_branch2a"
	bottom: "res4b19_branch2a"
	name: "res4b19_branch2a_relu"
	type: "ReLU"
}

layer {
	bottom: "res4b19_branch2a"
	top: "res4b19_branch2b"
	name: "res4b19_branch2b"
	type: "Convolution"
	convolution_param {
		num_output: 256
		kernel_size: 3
		pad: 1
		stride: 1
		bias_term: false
	}
}

layer {
	bottom: "res4b19_branch2b"
	top: "res4b19_branch2b"
	name: "bn4b19_branch2b"
	type: "BatchNorm"
	batch_norm_param {
		use_global_stats: true
	}
}

layer {
	bottom: "res4b19_branch2b"
	top: "res4b19_branch2b"
	name: "scale4b19_branch2b"
	type: "Scale"
	scale_param {
		bias_term: true
	}
}

layer {
	top: "res4b19_branch2b"
	bottom: "res4b19_branch2b"
	name: "res4b19_branch2b_relu"
	type: "ReLU"
}

layer {
	bottom: "res4b19_branch2b"
	top: "res4b19_branch2c"
	name: "res4b19_branch2c"
	type: "Convolution"
	convolution_param {
		num_output: 1024
		kernel_size: 1
		pad: 0
		stride: 1
		bias_term: false
	}
}

layer {
	bottom: "res4b19_branch2c"
	top: "res4b19_branch2c"
	name: "bn4b19_branch2c"
	type: "BatchNorm"
	batch_norm_param {
		use_global_stats: true
	}
}

layer {
	bottom: "res4b19_branch2c"
	top: "res4b19_branch2c"
	name: "scale4b19_branch2c"
	type: "Scale"
	scale_param {
		bias_term: true
	}
}

layer {
	bottom: "res4b18"
	bottom: "res4b19_branch2c"
	top: "res4b19"
	name: "res4b19"
	type: "Eltwise"
}

layer {
	bottom: "res4b19"
	top: "res4b19"
	name: "res4b19_relu"
	type: "ReLU"
}

layer {
	bottom: "res4b19"
	top: "res4b20_branch2a"
	name: "res4b20_branch2a"
	type: "Convolution"
	convolution_param {
		num_output: 256
		kernel_size: 1
		pad: 0
		stride: 1
		bias_term: false
	}
}

layer {
	bottom: "res4b20_branch2a"
	top: "res4b20_branch2a"
	name: "bn4b20_branch2a"
	type: "BatchNorm"
	batch_norm_param {
		use_global_stats: true
	}
}

layer {
	bottom: "res4b20_branch2a"
	top: "res4b20_branch2a"
	name: "scale4b20_branch2a"
	type: "Scale"
	scale_param {
		bias_term: true
	}
}

layer {
	top: "res4b20_branch2a"
	bottom: "res4b20_branch2a"
	name: "res4b20_branch2a_relu"
	type: "ReLU"
}

layer {
	bottom: "res4b20_branch2a"
	top: "res4b20_branch2b"
	name: "res4b20_branch2b"
	type: "Convolution"
	convolution_param {
		num_output: 256
		kernel_size: 3
		pad: 1
		stride: 1
		bias_term: false
	}
}

layer {
	bottom: "res4b20_branch2b"
	top: "res4b20_branch2b"
	name: "bn4b20_branch2b"
	type: "BatchNorm"
	batch_norm_param {
		use_global_stats: true
	}
}

layer {
	bottom: "res4b20_branch2b"
	top: "res4b20_branch2b"
	name: "scale4b20_branch2b"
	type: "Scale"
	scale_param {
		bias_term: true
	}
}

layer {
	top: "res4b20_branch2b"
	bottom: "res4b20_branch2b"
	name: "res4b20_branch2b_relu"
	type: "ReLU"
}

layer {
	bottom: "res4b20_branch2b"
	top: "res4b20_branch2c"
	name: "res4b20_branch2c"
	type: "Convolution"
	convolution_param {
		num_output: 1024
		kernel_size: 1
		pad: 0
		stride: 1
		bias_term: false
	}
}

layer {
	bottom: "res4b20_branch2c"
	top: "res4b20_branch2c"
	name: "bn4b20_branch2c"
	type: "BatchNorm"
	batch_norm_param {
		use_global_stats: true
	}
}

layer {
	bottom: "res4b20_branch2c"
	top: "res4b20_branch2c"
	name: "scale4b20_branch2c"
	type: "Scale"
	scale_param {
		bias_term: true
	}
}

layer {
	bottom: "res4b19"
	bottom: "res4b20_branch2c"
	top: "res4b20"
	name: "res4b20"
	type: "Eltwise"
}

layer {
	bottom: "res4b20"
	top: "res4b20"
	name: "res4b20_relu"
	type: "ReLU"
}

layer {
	bottom: "res4b20"
	top: "res4b21_branch2a"
	name: "res4b21_branch2a"
	type: "Convolution"
	convolution_param {
		num_output: 256
		kernel_size: 1
		pad: 0
		stride: 1
		bias_term: false
	}
}

layer {
	bottom: "res4b21_branch2a"
	top: "res4b21_branch2a"
	name: "bn4b21_branch2a"
	type: "BatchNorm"
	batch_norm_param {
		use_global_stats: true
	}
}

layer {
	bottom: "res4b21_branch2a"
	top: "res4b21_branch2a"
	name: "scale4b21_branch2a"
	type: "Scale"
	scale_param {
		bias_term: true
	}
}

layer {
	top: "res4b21_branch2a"
	bottom: "res4b21_branch2a"
	name: "res4b21_branch2a_relu"
	type: "ReLU"
}

layer {
	bottom: "res4b21_branch2a"
	top: "res4b21_branch2b"
	name: "res4b21_branch2b"
	type: "Convolution"
	convolution_param {
		num_output: 256
		kernel_size: 3
		pad: 1
		stride: 1
		bias_term: false
	}
}

layer {
	bottom: "res4b21_branch2b"
	top: "res4b21_branch2b"
	name: "bn4b21_branch2b"
	type: "BatchNorm"
	batch_norm_param {
		use_global_stats: true
	}
}

layer {
	bottom: "res4b21_branch2b"
	top: "res4b21_branch2b"
	name: "scale4b21_branch2b"
	type: "Scale"
	scale_param {
		bias_term: true
	}
}

layer {
	top: "res4b21_branch2b"
	bottom: "res4b21_branch2b"
	name: "res4b21_branch2b_relu"
	type: "ReLU"
}

layer {
	bottom: "res4b21_branch2b"
	top: "res4b21_branch2c"
	name: "res4b21_branch2c"
	type: "Convolution"
	convolution_param {
		num_output: 1024
		kernel_size: 1
		pad: 0
		stride: 1
		bias_term: false
	}
}

layer {
	bottom: "res4b21_branch2c"
	top: "res4b21_branch2c"
	name: "bn4b21_branch2c"
	type: "BatchNorm"
	batch_norm_param {
		use_global_stats: true
	}
}

layer {
	bottom: "res4b21_branch2c"
	top: "res4b21_branch2c"
	name: "scale4b21_branch2c"
	type: "Scale"
	scale_param {
		bias_term: true
	}
}

layer {
	bottom: "res4b20"
	bottom: "res4b21_branch2c"
	top: "res4b21"
	name: "res4b21"
	type: "Eltwise"
}

layer {
	bottom: "res4b21"
	top: "res4b21"
	name: "res4b21_relu"
	type: "ReLU"
}

layer {
	bottom: "res4b21"
	top: "res4b22_branch2a"
	name: "res4b22_branch2a"
	type: "Convolution"
	convolution_param {
		num_output: 256
		kernel_size: 1
		pad: 0
		stride: 1
		bias_term: false
	}
}

layer {
	bottom: "res4b22_branch2a"
	top: "res4b22_branch2a"
	name: "bn4b22_branch2a"
	type: "BatchNorm"
	batch_norm_param {
		use_global_stats: true
	}
}

layer {
	bottom: "res4b22_branch2a"
	top: "res4b22_branch2a"
	name: "scale4b22_branch2a"
	type: "Scale"
	scale_param {
		bias_term: true
	}
}

layer {
	top: "res4b22_branch2a"
	bottom: "res4b22_branch2a"
	name: "res4b22_branch2a_relu"
	type: "ReLU"
}

layer {
	bottom: "res4b22_branch2a"
	top: "res4b22_branch2b"
	name: "res4b22_branch2b"
	type: "Convolution"
	convolution_param {
		num_output: 256
		kernel_size: 3
		pad: 1
		stride: 1
		bias_term: false
	}
}

layer {
	bottom: "res4b22_branch2b"
	top: "res4b22_branch2b"
	name: "bn4b22_branch2b"
	type: "BatchNorm"
	batch_norm_param {
		use_global_stats: true
	}
}

layer {
	bottom: "res4b22_branch2b"
	top: "res4b22_branch2b"
	name: "scale4b22_branch2b"
	type: "Scale"
	scale_param {
		bias_term: true
	}
}

layer {
	top: "res4b22_branch2b"
	bottom: "res4b22_branch2b"
	name: "res4b22_branch2b_relu"
	type: "ReLU"
}

layer {
	bottom: "res4b22_branch2b"
	top: "res4b22_branch2c"
	name: "res4b22_branch2c"
	type: "Convolution"
	convolution_param {
		num_output: 1024
		kernel_size: 1
		pad: 0
		stride: 1
		bias_term: false
	}
}

layer {
	bottom: "res4b22_branch2c"
	top: "res4b22_branch2c"
	name: "bn4b22_branch2c"
	type: "BatchNorm"
	batch_norm_param {
		use_global_stats: true
	}
}

layer {
	bottom: "res4b22_branch2c"
	top: "res4b22_branch2c"
	name: "scale4b22_branch2c"
	type: "Scale"
	scale_param {
		bias_term: true
	}
}

layer {
	bottom: "res4b21"
	bottom: "res4b22_branch2c"
	top: "res4b22"
	name: "res4b22"
	type: "Eltwise"
}

layer {
	bottom: "res4b22"
	top: "res4b22"
	name: "res4b22_relu"
	type: "ReLU"
}

layer {
	bottom: "res4b22"
	top: "res4b23_branch2a"
	name: "res4b23_branch2a"
	type: "Convolution"
	convolution_param {
		num_output: 256
		kernel_size: 1
		pad: 0
		stride: 1
		bias_term: false
	}
}

layer {
	bottom: "res4b23_branch2a"
	top: "res4b23_branch2a"
	name: "bn4b23_branch2a"
	type: "BatchNorm"
	batch_norm_param {
		use_global_stats: true
	}
}

layer {
	bottom: "res4b23_branch2a"
	top: "res4b23_branch2a"
	name: "scale4b23_branch2a"
	type: "Scale"
	scale_param {
		bias_term: true
	}
}

layer {
	top: "res4b23_branch2a"
	bottom: "res4b23_branch2a"
	name: "res4b23_branch2a_relu"
	type: "ReLU"
}

layer {
	bottom: "res4b23_branch2a"
	top: "res4b23_branch2b"
	name: "res4b23_branch2b"
	type: "Convolution"
	convolution_param {
		num_output: 256
		kernel_size: 3
		pad: 1
		stride: 1
		bias_term: false
	}
}

layer {
	bottom: "res4b23_branch2b"
	top: "res4b23_branch2b"
	name: "bn4b23_branch2b"
	type: "BatchNorm"
	batch_norm_param {
		use_global_stats: true
	}
}

layer {
	bottom: "res4b23_branch2b"
	top: "res4b23_branch2b"
	name: "scale4b23_branch2b"
	type: "Scale"
	scale_param {
		bias_term: true
	}
}

layer {
	top: "res4b23_branch2b"
	bottom: "res4b23_branch2b"
	name: "res4b23_branch2b_relu"
	type: "ReLU"
}

layer {
	bottom: "res4b23_branch2b"
	top: "res4b23_branch2c"
	name: "res4b23_branch2c"
	type: "Convolution"
	convolution_param {
		num_output: 1024
		kernel_size: 1
		pad: 0
		stride: 1
		bias_term: false
	}
}

layer {
	bottom: "res4b23_branch2c"
	top: "res4b23_branch2c"
	name: "bn4b23_branch2c"
	type: "BatchNorm"
	batch_norm_param {
		use_global_stats: true
	}
}

layer {
	bottom: "res4b23_branch2c"
	top: "res4b23_branch2c"
	name: "scale4b23_branch2c"
	type: "Scale"
	scale_param {
		bias_term: true
	}
}

layer {
	bottom: "res4b22"
	bottom: "res4b23_branch2c"
	top: "res4b23"
	name: "res4b23"
	type: "Eltwise"
}

layer {
	bottom: "res4b23"
	top: "res4b23"
	name: "res4b23_relu"
	type: "ReLU"
}

layer {
	bottom: "res4b23"
	top: "res4b24_branch2a"
	name: "res4b24_branch2a"
	type: "Convolution"
	convolution_param {
		num_output: 256
		kernel_size: 1
		pad: 0
		stride: 1
		bias_term: false
	}
}

layer {
	bottom: "res4b24_branch2a"
	top: "res4b24_branch2a"
	name: "bn4b24_branch2a"
	type: "BatchNorm"
	batch_norm_param {
		use_global_stats: true
	}
}

layer {
	bottom: "res4b24_branch2a"
	top: "res4b24_branch2a"
	name: "scale4b24_branch2a"
	type: "Scale"
	scale_param {
		bias_term: true
	}
}

layer {
	top: "res4b24_branch2a"
	bottom: "res4b24_branch2a"
	name: "res4b24_branch2a_relu"
	type: "ReLU"
}

layer {
	bottom: "res4b24_branch2a"
	top: "res4b24_branch2b"
	name: "res4b24_branch2b"
	type: "Convolution"
	convolution_param {
		num_output: 256
		kernel_size: 3
		pad: 1
		stride: 1
		bias_term: false
	}
}

layer {
	bottom: "res4b24_branch2b"
	top: "res4b24_branch2b"
	name: "bn4b24_branch2b"
	type: "BatchNorm"
	batch_norm_param {
		use_global_stats: true
	}
}

layer {
	bottom: "res4b24_branch2b"
	top: "res4b24_branch2b"
	name: "scale4b24_branch2b"
	type: "Scale"
	scale_param {
		bias_term: true
	}
}

layer {
	top: "res4b24_branch2b"
	bottom: "res4b24_branch2b"
	name: "res4b24_branch2b_relu"
	type: "ReLU"
}

layer {
	bottom: "res4b24_branch2b"
	top: "res4b24_branch2c"
	name: "res4b24_branch2c"
	type: "Convolution"
	convolution_param {
		num_output: 1024
		kernel_size: 1
		pad: 0
		stride: 1
		bias_term: false
	}
}

layer {
	bottom: "res4b24_branch2c"
	top: "res4b24_branch2c"
	name: "bn4b24_branch2c"
	type: "BatchNorm"
	batch_norm_param {
		use_global_stats: true
	}
}

layer {
	bottom: "res4b24_branch2c"
	top: "res4b24_branch2c"
	name: "scale4b24_branch2c"
	type: "Scale"
	scale_param {
		bias_term: true
	}
}

layer {
	bottom: "res4b23"
	bottom: "res4b24_branch2c"
	top: "res4b24"
	name: "res4b24"
	type: "Eltwise"
}

layer {
	bottom: "res4b24"
	top: "res4b24"
	name: "res4b24_relu"
	type: "ReLU"
}

layer {
	bottom: "res4b24"
	top: "res4b25_branch2a"
	name: "res4b25_branch2a"
	type: "Convolution"
	convolution_param {
		num_output: 256
		kernel_size: 1
		pad: 0
		stride: 1
		bias_term: false
	}
}

layer {
	bottom: "res4b25_branch2a"
	top: "res4b25_branch2a"
	name: "bn4b25_branch2a"
	type: "BatchNorm"
	batch_norm_param {
		use_global_stats: true
	}
}

layer {
	bottom: "res4b25_branch2a"
	top: "res4b25_branch2a"
	name: "scale4b25_branch2a"
	type: "Scale"
	scale_param {
		bias_term: true
	}
}

layer {
	top: "res4b25_branch2a"
	bottom: "res4b25_branch2a"
	name: "res4b25_branch2a_relu"
	type: "ReLU"
}

layer {
	bottom: "res4b25_branch2a"
	top: "res4b25_branch2b"
	name: "res4b25_branch2b"
	type: "Convolution"
	convolution_param {
		num_output: 256
		kernel_size: 3
		pad: 1
		stride: 1
		bias_term: false
	}
}

layer {
	bottom: "res4b25_branch2b"
	top: "res4b25_branch2b"
	name: "bn4b25_branch2b"
	type: "BatchNorm"
	batch_norm_param {
		use_global_stats: true
	}
}

layer {
	bottom: "res4b25_branch2b"
	top: "res4b25_branch2b"
	name: "scale4b25_branch2b"
	type: "Scale"
	scale_param {
		bias_term: true
	}
}

layer {
	top: "res4b25_branch2b"
	bottom: "res4b25_branch2b"
	name: "res4b25_branch2b_relu"
	type: "ReLU"
}

layer {
	bottom: "res4b25_branch2b"
	top: "res4b25_branch2c"
	name: "res4b25_branch2c"
	type: "Convolution"
	convolution_param {
		num_output: 1024
		kernel_size: 1
		pad: 0
		stride: 1
		bias_term: false
	}
}

layer {
	bottom: "res4b25_branch2c"
	top: "res4b25_branch2c"
	name: "bn4b25_branch2c"
	type: "BatchNorm"
	batch_norm_param {
		use_global_stats: true
	}
}

layer {
	bottom: "res4b25_branch2c"
	top: "res4b25_branch2c"
	name: "scale4b25_branch2c"
	type: "Scale"
	scale_param {
		bias_term: true
	}
}

layer {
	bottom: "res4b24"
	bottom: "res4b25_branch2c"
	top: "res4b25"
	name: "res4b25"
	type: "Eltwise"
}

layer {
	bottom: "res4b25"
	top: "res4b25"
	name: "res4b25_relu"
	type: "ReLU"
}

layer {
	bottom: "res4b25"
	top: "res4b26_branch2a"
	name: "res4b26_branch2a"
	type: "Convolution"
	convolution_param {
		num_output: 256
		kernel_size: 1
		pad: 0
		stride: 1
		bias_term: false
	}
}

layer {
	bottom: "res4b26_branch2a"
	top: "res4b26_branch2a"
	name: "bn4b26_branch2a"
	type: "BatchNorm"
	batch_norm_param {
		use_global_stats: true
	}
}

layer {
	bottom: "res4b26_branch2a"
	top: "res4b26_branch2a"
	name: "scale4b26_branch2a"
	type: "Scale"
	scale_param {
		bias_term: true
	}
}

layer {
	top: "res4b26_branch2a"
	bottom: "res4b26_branch2a"
	name: "res4b26_branch2a_relu"
	type: "ReLU"
}

layer {
	bottom: "res4b26_branch2a"
	top: "res4b26_branch2b"
	name: "res4b26_branch2b"
	type: "Convolution"
	convolution_param {
		num_output: 256
		kernel_size: 3
		pad: 1
		stride: 1
		bias_term: false
	}
}

layer {
	bottom: "res4b26_branch2b"
	top: "res4b26_branch2b"
	name: "bn4b26_branch2b"
	type: "BatchNorm"
	batch_norm_param {
		use_global_stats: true
	}
}

layer {
	bottom: "res4b26_branch2b"
	top: "res4b26_branch2b"
	name: "scale4b26_branch2b"
	type: "Scale"
	scale_param {
		bias_term: true
	}
}

layer {
	top: "res4b26_branch2b"
	bottom: "res4b26_branch2b"
	name: "res4b26_branch2b_relu"
	type: "ReLU"
}

layer {
	bottom: "res4b26_branch2b"
	top: "res4b26_branch2c"
	name: "res4b26_branch2c"
	type: "Convolution"
	convolution_param {
		num_output: 1024
		kernel_size: 1
		pad: 0
		stride: 1
		bias_term: false
	}
}

layer {
	bottom: "res4b26_branch2c"
	top: "res4b26_branch2c"
	name: "bn4b26_branch2c"
	type: "BatchNorm"
	batch_norm_param {
		use_global_stats: true
	}
}

layer {
	bottom: "res4b26_branch2c"
	top: "res4b26_branch2c"
	name: "scale4b26_branch2c"
	type: "Scale"
	scale_param {
		bias_term: true
	}
}

layer {
	bottom: "res4b25"
	bottom: "res4b26_branch2c"
	top: "res4b26"
	name: "res4b26"
	type: "Eltwise"
}

layer {
	bottom: "res4b26"
	top: "res4b26"
	name: "res4b26_relu"
	type: "ReLU"
}

layer {
	bottom: "res4b26"
	top: "res4b27_branch2a"
	name: "res4b27_branch2a"
	type: "Convolution"
	convolution_param {
		num_output: 256
		kernel_size: 1
		pad: 0
		stride: 1
		bias_term: false
	}
}

layer {
	bottom: "res4b27_branch2a"
	top: "res4b27_branch2a"
	name: "bn4b27_branch2a"
	type: "BatchNorm"
	batch_norm_param {
		use_global_stats: true
	}
}

layer {
	bottom: "res4b27_branch2a"
	top: "res4b27_branch2a"
	name: "scale4b27_branch2a"
	type: "Scale"
	scale_param {
		bias_term: true
	}
}

layer {
	top: "res4b27_branch2a"
	bottom: "res4b27_branch2a"
	name: "res4b27_branch2a_relu"
	type: "ReLU"
}

layer {
	bottom: "res4b27_branch2a"
	top: "res4b27_branch2b"
	name: "res4b27_branch2b"
	type: "Convolution"
	convolution_param {
		num_output: 256
		kernel_size: 3
		pad: 1
		stride: 1
		bias_term: false
	}
}

layer {
	bottom: "res4b27_branch2b"
	top: "res4b27_branch2b"
	name: "bn4b27_branch2b"
	type: "BatchNorm"
	batch_norm_param {
		use_global_stats: true
	}
}

layer {
	bottom: "res4b27_branch2b"
	top: "res4b27_branch2b"
	name: "scale4b27_branch2b"
	type: "Scale"
	scale_param {
		bias_term: true
	}
}

layer {
	top: "res4b27_branch2b"
	bottom: "res4b27_branch2b"
	name: "res4b27_branch2b_relu"
	type: "ReLU"
}

layer {
	bottom: "res4b27_branch2b"
	top: "res4b27_branch2c"
	name: "res4b27_branch2c"
	type: "Convolution"
	convolution_param {
		num_output: 1024
		kernel_size: 1
		pad: 0
		stride: 1
		bias_term: false
	}
}

layer {
	bottom: "res4b27_branch2c"
	top: "res4b27_branch2c"
	name: "bn4b27_branch2c"
	type: "BatchNorm"
	batch_norm_param {
		use_global_stats: true
	}
}

layer {
	bottom: "res4b27_branch2c"
	top: "res4b27_branch2c"
	name: "scale4b27_branch2c"
	type: "Scale"
	scale_param {
		bias_term: true
	}
}

layer {
	bottom: "res4b26"
	bottom: "res4b27_branch2c"
	top: "res4b27"
	name: "res4b27"
	type: "Eltwise"
}

layer {
	bottom: "res4b27"
	top: "res4b27"
	name: "res4b27_relu"
	type: "ReLU"
}

layer {
	bottom: "res4b27"
	top: "res4b28_branch2a"
	name: "res4b28_branch2a"
	type: "Convolution"
	convolution_param {
		num_output: 256
		kernel_size: 1
		pad: 0
		stride: 1
		bias_term: false
	}
}

layer {
	bottom: "res4b28_branch2a"
	top: "res4b28_branch2a"
	name: "bn4b28_branch2a"
	type: "BatchNorm"
	batch_norm_param {
		use_global_stats: true
	}
}

layer {
	bottom: "res4b28_branch2a"
	top: "res4b28_branch2a"
	name: "scale4b28_branch2a"
	type: "Scale"
	scale_param {
		bias_term: true
	}
}

layer {
	top: "res4b28_branch2a"
	bottom: "res4b28_branch2a"
	name: "res4b28_branch2a_relu"
	type: "ReLU"
}

layer {
	bottom: "res4b28_branch2a"
	top: "res4b28_branch2b"
	name: "res4b28_branch2b"
	type: "Convolution"
	convolution_param {
		num_output: 256
		kernel_size: 3
		pad: 1
		stride: 1
		bias_term: false
	}
}

layer {
	bottom: "res4b28_branch2b"
	top: "res4b28_branch2b"
	name: "bn4b28_branch2b"
	type: "BatchNorm"
	batch_norm_param {
		use_global_stats: true
	}
}

layer {
	bottom: "res4b28_branch2b"
	top: "res4b28_branch2b"
	name: "scale4b28_branch2b"
	type: "Scale"
	scale_param {
		bias_term: true
	}
}

layer {
	top: "res4b28_branch2b"
	bottom: "res4b28_branch2b"
	name: "res4b28_branch2b_relu"
	type: "ReLU"
}

layer {
	bottom: "res4b28_branch2b"
	top: "res4b28_branch2c"
	name: "res4b28_branch2c"
	type: "Convolution"
	convolution_param {
		num_output: 1024
		kernel_size: 1
		pad: 0
		stride: 1
		bias_term: false
	}
}

layer {
	bottom: "res4b28_branch2c"
	top: "res4b28_branch2c"
	name: "bn4b28_branch2c"
	type: "BatchNorm"
	batch_norm_param {
		use_global_stats: true
	}
}

layer {
	bottom: "res4b28_branch2c"
	top: "res4b28_branch2c"
	name: "scale4b28_branch2c"
	type: "Scale"
	scale_param {
		bias_term: true
	}
}

layer {
	bottom: "res4b27"
	bottom: "res4b28_branch2c"
	top: "res4b28"
	name: "res4b28"
	type: "Eltwise"
}

layer {
	bottom: "res4b28"
	top: "res4b28"
	name: "res4b28_relu"
	type: "ReLU"
}

layer {
	bottom: "res4b28"
	top: "res4b29_branch2a"
	name: "res4b29_branch2a"
	type: "Convolution"
	convolution_param {
		num_output: 256
		kernel_size: 1
		pad: 0
		stride: 1
		bias_term: false
	}
}

layer {
	bottom: "res4b29_branch2a"
	top: "res4b29_branch2a"
	name: "bn4b29_branch2a"
	type: "BatchNorm"
	batch_norm_param {
		use_global_stats: true
	}
}

layer {
	bottom: "res4b29_branch2a"
	top: "res4b29_branch2a"
	name: "scale4b29_branch2a"
	type: "Scale"
	scale_param {
		bias_term: true
	}
}

layer {
	top: "res4b29_branch2a"
	bottom: "res4b29_branch2a"
	name: "res4b29_branch2a_relu"
	type: "ReLU"
}

layer {
	bottom: "res4b29_branch2a"
	top: "res4b29_branch2b"
	name: "res4b29_branch2b"
	type: "Convolution"
	convolution_param {
		num_output: 256
		kernel_size: 3
		pad: 1
		stride: 1
		bias_term: false
	}
}

layer {
	bottom: "res4b29_branch2b"
	top: "res4b29_branch2b"
	name: "bn4b29_branch2b"
	type: "BatchNorm"
	batch_norm_param {
		use_global_stats: true
	}
}

layer {
	bottom: "res4b29_branch2b"
	top: "res4b29_branch2b"
	name: "scale4b29_branch2b"
	type: "Scale"
	scale_param {
		bias_term: true
	}
}

layer {
	top: "res4b29_branch2b"
	bottom: "res4b29_branch2b"
	name: "res4b29_branch2b_relu"
	type: "ReLU"
}

layer {
	bottom: "res4b29_branch2b"
	top: "res4b29_branch2c"
	name: "res4b29_branch2c"
	type: "Convolution"
	convolution_param {
		num_output: 1024
		kernel_size: 1
		pad: 0
		stride: 1
		bias_term: false
	}
}

layer {
	bottom: "res4b29_branch2c"
	top: "res4b29_branch2c"
	name: "bn4b29_branch2c"
	type: "BatchNorm"
	batch_norm_param {
		use_global_stats: true
	}
}

layer {
	bottom: "res4b29_branch2c"
	top: "res4b29_branch2c"
	name: "scale4b29_branch2c"
	type: "Scale"
	scale_param {
		bias_term: true
	}
}

layer {
	bottom: "res4b28"
	bottom: "res4b29_branch2c"
	top: "res4b29"
	name: "res4b29"
	type: "Eltwise"
}

layer {
	bottom: "res4b29"
	top: "res4b29"
	name: "res4b29_relu"
	type: "ReLU"
}

layer {
	bottom: "res4b29"
	top: "res4b30_branch2a"
	name: "res4b30_branch2a"
	type: "Convolution"
	convolution_param {
		num_output: 256
		kernel_size: 1
		pad: 0
		stride: 1
		bias_term: false
	}
}

layer {
	bottom: "res4b30_branch2a"
	top: "res4b30_branch2a"
	name: "bn4b30_branch2a"
	type: "BatchNorm"
	batch_norm_param {
		use_global_stats: true
	}
}

layer {
	bottom: "res4b30_branch2a"
	top: "res4b30_branch2a"
	name: "scale4b30_branch2a"
	type: "Scale"
	scale_param {
		bias_term: true
	}
}

layer {
	top: "res4b30_branch2a"
	bottom: "res4b30_branch2a"
	name: "res4b30_branch2a_relu"
	type: "ReLU"
}

layer {
	bottom: "res4b30_branch2a"
	top: "res4b30_branch2b"
	name: "res4b30_branch2b"
	type: "Convolution"
	convolution_param {
		num_output: 256
		kernel_size: 3
		pad: 1
		stride: 1
		bias_term: false
	}
}

layer {
	bottom: "res4b30_branch2b"
	top: "res4b30_branch2b"
	name: "bn4b30_branch2b"
	type: "BatchNorm"
	batch_norm_param {
		use_global_stats: true
	}
}

layer {
	bottom: "res4b30_branch2b"
	top: "res4b30_branch2b"
	name: "scale4b30_branch2b"
	type: "Scale"
	scale_param {
		bias_term: true
	}
}

layer {
	top: "res4b30_branch2b"
	bottom: "res4b30_branch2b"
	name: "res4b30_branch2b_relu"
	type: "ReLU"
}

layer {
	bottom: "res4b30_branch2b"
	top: "res4b30_branch2c"
	name: "res4b30_branch2c"
	type: "Convolution"
	convolution_param {
		num_output: 1024
		kernel_size: 1
		pad: 0
		stride: 1
		bias_term: false
	}
}

layer {
	bottom: "res4b30_branch2c"
	top: "res4b30_branch2c"
	name: "bn4b30_branch2c"
	type: "BatchNorm"
	batch_norm_param {
		use_global_stats: true
	}
}

layer {
	bottom: "res4b30_branch2c"
	top: "res4b30_branch2c"
	name: "scale4b30_branch2c"
	type: "Scale"
	scale_param {
		bias_term: true
	}
}

layer {
	bottom: "res4b29"
	bottom: "res4b30_branch2c"
	top: "res4b30"
	name: "res4b30"
	type: "Eltwise"
}

layer {
	bottom: "res4b30"
	top: "res4b30"
	name: "res4b30_relu"
	type: "ReLU"
}

layer {
	bottom: "res4b30"
	top: "res4b31_branch2a"
	name: "res4b31_branch2a"
	type: "Convolution"
	convolution_param {
		num_output: 256
		kernel_size: 1
		pad: 0
		stride: 1
		bias_term: false
	}
}

layer {
	bottom: "res4b31_branch2a"
	top: "res4b31_branch2a"
	name: "bn4b31_branch2a"
	type: "BatchNorm"
	batch_norm_param {
		use_global_stats: true
	}
}

layer {
	bottom: "res4b31_branch2a"
	top: "res4b31_branch2a"
	name: "scale4b31_branch2a"
	type: "Scale"
	scale_param {
		bias_term: true
	}
}

layer {
	top: "res4b31_branch2a"
	bottom: "res4b31_branch2a"
	name: "res4b31_branch2a_relu"
	type: "ReLU"
}

layer {
	bottom: "res4b31_branch2a"
	top: "res4b31_branch2b"
	name: "res4b31_branch2b"
	type: "Convolution"
	convolution_param {
		num_output: 256
		kernel_size: 3
		pad: 1
		stride: 1
		bias_term: false
	}
}

layer {
	bottom: "res4b31_branch2b"
	top: "res4b31_branch2b"
	name: "bn4b31_branch2b"
	type: "BatchNorm"
	batch_norm_param {
		use_global_stats: true
	}
}

layer {
	bottom: "res4b31_branch2b"
	top: "res4b31_branch2b"
	name: "scale4b31_branch2b"
	type: "Scale"
	scale_param {
		bias_term: true
	}
}

layer {
	top: "res4b31_branch2b"
	bottom: "res4b31_branch2b"
	name: "res4b31_branch2b_relu"
	type: "ReLU"
}

layer {
	bottom: "res4b31_branch2b"
	top: "res4b31_branch2c"
	name: "res4b31_branch2c"
	type: "Convolution"
	convolution_param {
		num_output: 1024
		kernel_size: 1
		pad: 0
		stride: 1
		bias_term: false
	}
}

layer {
	bottom: "res4b31_branch2c"
	top: "res4b31_branch2c"
	name: "bn4b31_branch2c"
	type: "BatchNorm"
	batch_norm_param {
		use_global_stats: true
	}
}

layer {
	bottom: "res4b31_branch2c"
	top: "res4b31_branch2c"
	name: "scale4b31_branch2c"
	type: "Scale"
	scale_param {
		bias_term: true
	}
}

layer {
	bottom: "res4b30"
	bottom: "res4b31_branch2c"
	top: "res4b31"
	name: "res4b31"
	type: "Eltwise"
}

layer {
	bottom: "res4b31"
	top: "res4b31"
	name: "res4b31_relu"
	type: "ReLU"
}

layer {
	bottom: "res4b31"
	top: "res4b32_branch2a"
	name: "res4b32_branch2a"
	type: "Convolution"
	convolution_param {
		num_output: 256
		kernel_size: 1
		pad: 0
		stride: 1
		bias_term: false
	}
}

layer {
	bottom: "res4b32_branch2a"
	top: "res4b32_branch2a"
	name: "bn4b32_branch2a"
	type: "BatchNorm"
	batch_norm_param {
		use_global_stats: true
	}
}

layer {
	bottom: "res4b32_branch2a"
	top: "res4b32_branch2a"
	name: "scale4b32_branch2a"
	type: "Scale"
	scale_param {
		bias_term: true
	}
}

layer {
	top: "res4b32_branch2a"
	bottom: "res4b32_branch2a"
	name: "res4b32_branch2a_relu"
	type: "ReLU"
}

layer {
	bottom: "res4b32_branch2a"
	top: "res4b32_branch2b"
	name: "res4b32_branch2b"
	type: "Convolution"
	convolution_param {
		num_output: 256
		kernel_size: 3
		pad: 1
		stride: 1
		bias_term: false
	}
}

layer {
	bottom: "res4b32_branch2b"
	top: "res4b32_branch2b"
	name: "bn4b32_branch2b"
	type: "BatchNorm"
	batch_norm_param {
		use_global_stats: true
	}
}

layer {
	bottom: "res4b32_branch2b"
	top: "res4b32_branch2b"
	name: "scale4b32_branch2b"
	type: "Scale"
	scale_param {
		bias_term: true
	}
}

layer {
	top: "res4b32_branch2b"
	bottom: "res4b32_branch2b"
	name: "res4b32_branch2b_relu"
	type: "ReLU"
}

layer {
	bottom: "res4b32_branch2b"
	top: "res4b32_branch2c"
	name: "res4b32_branch2c"
	type: "Convolution"
	convolution_param {
		num_output: 1024
		kernel_size: 1
		pad: 0
		stride: 1
		bias_term: false
	}
}

layer {
	bottom: "res4b32_branch2c"
	top: "res4b32_branch2c"
	name: "bn4b32_branch2c"
	type: "BatchNorm"
	batch_norm_param {
		use_global_stats: true
	}
}

layer {
	bottom: "res4b32_branch2c"
	top: "res4b32_branch2c"
	name: "scale4b32_branch2c"
	type: "Scale"
	scale_param {
		bias_term: true
	}
}

layer {
	bottom: "res4b31"
	bottom: "res4b32_branch2c"
	top: "res4b32"
	name: "res4b32"
	type: "Eltwise"
}

layer {
	bottom: "res4b32"
	top: "res4b32"
	name: "res4b32_relu"
	type: "ReLU"
}

layer {
	bottom: "res4b32"
	top: "res4b33_branch2a"
	name: "res4b33_branch2a"
	type: "Convolution"
	convolution_param {
		num_output: 256
		kernel_size: 1
		pad: 0
		stride: 1
		bias_term: false
	}
}

layer {
	bottom: "res4b33_branch2a"
	top: "res4b33_branch2a"
	name: "bn4b33_branch2a"
	type: "BatchNorm"
	batch_norm_param {
		use_global_stats: true
	}
}

layer {
	bottom: "res4b33_branch2a"
	top: "res4b33_branch2a"
	name: "scale4b33_branch2a"
	type: "Scale"
	scale_param {
		bias_term: true
	}
}

layer {
	top: "res4b33_branch2a"
	bottom: "res4b33_branch2a"
	name: "res4b33_branch2a_relu"
	type: "ReLU"
}

layer {
	bottom: "res4b33_branch2a"
	top: "res4b33_branch2b"
	name: "res4b33_branch2b"
	type: "Convolution"
	convolution_param {
		num_output: 256
		kernel_size: 3
		pad: 1
		stride: 1
		bias_term: false
	}
}

layer {
	bottom: "res4b33_branch2b"
	top: "res4b33_branch2b"
	name: "bn4b33_branch2b"
	type: "BatchNorm"
	batch_norm_param {
		use_global_stats: true
	}
}

layer {
	bottom: "res4b33_branch2b"
	top: "res4b33_branch2b"
	name: "scale4b33_branch2b"
	type: "Scale"
	scale_param {
		bias_term: true
	}
}

layer {
	top: "res4b33_branch2b"
	bottom: "res4b33_branch2b"
	name: "res4b33_branch2b_relu"
	type: "ReLU"
}

layer {
	bottom: "res4b33_branch2b"
	top: "res4b33_branch2c"
	name: "res4b33_branch2c"
	type: "Convolution"
	convolution_param {
		num_output: 1024
		kernel_size: 1
		pad: 0
		stride: 1
		bias_term: false
	}
}

layer {
	bottom: "res4b33_branch2c"
	top: "res4b33_branch2c"
	name: "bn4b33_branch2c"
	type: "BatchNorm"
	batch_norm_param {
		use_global_stats: true
	}
}

layer {
	bottom: "res4b33_branch2c"
	top: "res4b33_branch2c"
	name: "scale4b33_branch2c"
	type: "Scale"
	scale_param {
		bias_term: true
	}
}

layer {
	bottom: "res4b32"
	bottom: "res4b33_branch2c"
	top: "res4b33"
	name: "res4b33"
	type: "Eltwise"
}

layer {
	bottom: "res4b33"
	top: "res4b33"
	name: "res4b33_relu"
	type: "ReLU"
}

layer {
	bottom: "res4b33"
	top: "res4b34_branch2a"
	name: "res4b34_branch2a"
	type: "Convolution"
	convolution_param {
		num_output: 256
		kernel_size: 1
		pad: 0
		stride: 1
		bias_term: false
	}
}

layer {
	bottom: "res4b34_branch2a"
	top: "res4b34_branch2a"
	name: "bn4b34_branch2a"
	type: "BatchNorm"
	batch_norm_param {
		use_global_stats: true
	}
}

layer {
	bottom: "res4b34_branch2a"
	top: "res4b34_branch2a"
	name: "scale4b34_branch2a"
	type: "Scale"
	scale_param {
		bias_term: true
	}
}

layer {
	top: "res4b34_branch2a"
	bottom: "res4b34_branch2a"
	name: "res4b34_branch2a_relu"
	type: "ReLU"
}

layer {
	bottom: "res4b34_branch2a"
	top: "res4b34_branch2b"
	name: "res4b34_branch2b"
	type: "Convolution"
	convolution_param {
		num_output: 256
		kernel_size: 3
		pad: 1
		stride: 1
		bias_term: false
	}
}

layer {
	bottom: "res4b34_branch2b"
	top: "res4b34_branch2b"
	name: "bn4b34_branch2b"
	type: "BatchNorm"
	batch_norm_param {
		use_global_stats: true
	}
}

layer {
	bottom: "res4b34_branch2b"
	top: "res4b34_branch2b"
	name: "scale4b34_branch2b"
	type: "Scale"
	scale_param {
		bias_term: true
	}
}

layer {
	top: "res4b34_branch2b"
	bottom: "res4b34_branch2b"
	name: "res4b34_branch2b_relu"
	type: "ReLU"
}

layer {
	bottom: "res4b34_branch2b"
	top: "res4b34_branch2c"
	name: "res4b34_branch2c"
	type: "Convolution"
	convolution_param {
		num_output: 1024
		kernel_size: 1
		pad: 0
		stride: 1
		bias_term: false
	}
}

layer {
	bottom: "res4b34_branch2c"
	top: "res4b34_branch2c"
	name: "bn4b34_branch2c"
	type: "BatchNorm"
	batch_norm_param {
		use_global_stats: true
	}
}

layer {
	bottom: "res4b34_branch2c"
	top: "res4b34_branch2c"
	name: "scale4b34_branch2c"
	type: "Scale"
	scale_param {
		bias_term: true
	}
}

layer {
	bottom: "res4b33"
	bottom: "res4b34_branch2c"
	top: "res4b34"
	name: "res4b34"
	type: "Eltwise"
}

layer {
	bottom: "res4b34"
	top: "res4b34"
	name: "res4b34_relu"
	type: "ReLU"
}

layer {
	bottom: "res4b34"
	top: "res4b35_branch2a"
	name: "res4b35_branch2a"
	type: "Convolution"
	convolution_param {
		num_output: 256
		kernel_size: 1
		pad: 0
		stride: 1
		bias_term: false
	}
}

layer {
	bottom: "res4b35_branch2a"
	top: "res4b35_branch2a"
	name: "bn4b35_branch2a"
	type: "BatchNorm"
	batch_norm_param {
		use_global_stats: true
	}
}

layer {
	bottom: "res4b35_branch2a"
	top: "res4b35_branch2a"
	name: "scale4b35_branch2a"
	type: "Scale"
	scale_param {
		bias_term: true
	}
}

layer {
	top: "res4b35_branch2a"
	bottom: "res4b35_branch2a"
	name: "res4b35_branch2a_relu"
	type: "ReLU"
}

layer {
	bottom: "res4b35_branch2a"
	top: "res4b35_branch2b"
	name: "res4b35_branch2b"
	type: "Convolution"
	convolution_param {
		num_output: 256
		kernel_size: 3
		pad: 1
		stride: 1
		bias_term: false
	}
}

layer {
	bottom: "res4b35_branch2b"
	top: "res4b35_branch2b"
	name: "bn4b35_branch2b"
	type: "BatchNorm"
	batch_norm_param {
		use_global_stats: true
	}
}

layer {
	bottom: "res4b35_branch2b"
	top: "res4b35_branch2b"
	name: "scale4b35_branch2b"
	type: "Scale"
	scale_param {
		bias_term: true
	}
}

layer {
	top: "res4b35_branch2b"
	bottom: "res4b35_branch2b"
	name: "res4b35_branch2b_relu"
	type: "ReLU"
}

layer {
	bottom: "res4b35_branch2b"
	top: "res4b35_branch2c"
	name: "res4b35_branch2c"
	type: "Convolution"
	convolution_param {
		num_output: 1024
		kernel_size: 1
		pad: 0
		stride: 1
		bias_term: false
	}
}

layer {
	bottom: "res4b35_branch2c"
	top: "res4b35_branch2c"
	name: "bn4b35_branch2c"
	type: "BatchNorm"
	batch_norm_param {
		use_global_stats: true
	}
}

layer {
	bottom: "res4b35_branch2c"
	top: "res4b35_branch2c"
	name: "scale4b35_branch2c"
	type: "Scale"
	scale_param {
		bias_term: true
	}
}

layer {
	bottom: "res4b34"
	bottom: "res4b35_branch2c"
	top: "res4b35"
	name: "res4b35"
	type: "Eltwise"
}

layer {
	bottom: "res4b35"
	top: "res4b35"
	name: "res4b35_relu"
	type: "ReLU"
}

layer {
	bottom: "res4b35"
	top: "res5a_branch1"
	name: "res5a_branch1"
	type: "Convolution"
	convolution_param {
		num_output: 2048
		kernel_size: 1
		pad: 0
		stride: 2
		bias_term: false
	}
}

layer {
	bottom: "res5a_branch1"
	top: "res5a_branch1"
	name: "bn5a_branch1"
	type: "BatchNorm"
	batch_norm_param {
		use_global_stats: true
	}
}

layer {
	bottom: "res5a_branch1"
	top: "res5a_branch1"
	name: "scale5a_branch1"
	type: "Scale"
	scale_param {
		bias_term: true
	}
}

layer {
	bottom: "res4b35"
	top: "res5a_branch2a"
	name: "res5a_branch2a"
	type: "Convolution"
	convolution_param {
		num_output: 512
		kernel_size: 1
		pad: 0
		stride: 2
		bias_term: false
	}
}

layer {
	bottom: "res5a_branch2a"
	top: "res5a_branch2a"
	name: "bn5a_branch2a"
	type: "BatchNorm"
	batch_norm_param {
		use_global_stats: true
	}
}

layer {
	bottom: "res5a_branch2a"
	top: "res5a_branch2a"
	name: "scale5a_branch2a"
	type: "Scale"
	scale_param {
		bias_term: true
	}
}

layer {
	top: "res5a_branch2a"
	bottom: "res5a_branch2a"
	name: "res5a_branch2a_relu"
	type: "ReLU"
}

layer {
	bottom: "res5a_branch2a"
	top: "res5a_branch2b"
	name: "res5a_branch2b"
	type: "Convolution"
	convolution_param {
		num_output: 512
		kernel_size: 3
		pad: 1
		stride: 1
		bias_term: false
	}
}

layer {
	bottom: "res5a_branch2b"
	top: "res5a_branch2b"
	name: "bn5a_branch2b"
	type: "BatchNorm"
	batch_norm_param {
		use_global_stats: true
	}
}

layer {
	bottom: "res5a_branch2b"
	top: "res5a_branch2b"
	name: "scale5a_branch2b"
	type: "Scale"
	scale_param {
		bias_term: true
	}
}

layer {
	top: "res5a_branch2b"
	bottom: "res5a_branch2b"
	name: "res5a_branch2b_relu"
	type: "ReLU"
}

layer {
	bottom: "res5a_branch2b"
	top: "res5a_branch2c"
	name: "res5a_branch2c"
	type: "Convolution"
	convolution_param {
		num_output: 2048
		kernel_size: 1
		pad: 0
		stride: 1
		bias_term: false
	}
}

layer {
	bottom: "res5a_branch2c"
	top: "res5a_branch2c"
	name: "bn5a_branch2c"
	type: "BatchNorm"
	batch_norm_param {
		use_global_stats: true
	}
}

layer {
	bottom: "res5a_branch2c"
	top: "res5a_branch2c"
	name: "scale5a_branch2c"
	type: "Scale"
	scale_param {
		bias_term: true
	}
}

layer {
	bottom: "res5a_branch1"
	bottom: "res5a_branch2c"
	top: "res5a"
	name: "res5a"
	type: "Eltwise"
}

layer {
	bottom: "res5a"
	top: "res5a"
	name: "res5a_relu"
	type: "ReLU"
}

layer {
	bottom: "res5a"
	top: "res5b_branch2a"
	name: "res5b_branch2a"
	type: "Convolution"
	convolution_param {
		num_output: 512
		kernel_size: 1
		pad: 0
		stride: 1
		bias_term: false
	}
}

layer {
	bottom: "res5b_branch2a"
	top: "res5b_branch2a"
	name: "bn5b_branch2a"
	type: "BatchNorm"
	batch_norm_param {
		use_global_stats: true
	}
}

layer {
	bottom: "res5b_branch2a"
	top: "res5b_branch2a"
	name: "scale5b_branch2a"
	type: "Scale"
	scale_param {
		bias_term: true
	}
}

layer {
	top: "res5b_branch2a"
	bottom: "res5b_branch2a"
	name: "res5b_branch2a_relu"
	type: "ReLU"
}

layer {
	bottom: "res5b_branch2a"
	top: "res5b_branch2b"
	name: "res5b_branch2b"
	type: "Convolution"
	convolution_param {
		num_output: 512
		kernel_size: 3
		pad: 1
		stride: 1
		bias_term: false
	}
}

layer {
	bottom: "res5b_branch2b"
	top: "res5b_branch2b"
	name: "bn5b_branch2b"
	type: "BatchNorm"
	batch_norm_param {
		use_global_stats: true
	}
}

layer {
	bottom: "res5b_branch2b"
	top: "res5b_branch2b"
	name: "scale5b_branch2b"
	type: "Scale"
	scale_param {
		bias_term: true
	}
}

layer {
	top: "res5b_branch2b"
	bottom: "res5b_branch2b"
	name: "res5b_branch2b_relu"
	type: "ReLU"
}

layer {
	bottom: "res5b_branch2b"
	top: "res5b_branch2c"
	name: "res5b_branch2c"
	type: "Convolution"
	convolution_param {
		num_output: 2048
		kernel_size: 1
		pad: 0
		stride: 1
		bias_term: false
	}
}

layer {
	bottom: "res5b_branch2c"
	top: "res5b_branch2c"
	name: "bn5b_branch2c"
	type: "BatchNorm"
	batch_norm_param {
		use_global_stats: true
	}
}

layer {
	bottom: "res5b_branch2c"
	top: "res5b_branch2c"
	name: "scale5b_branch2c"
	type: "Scale"
	scale_param {
		bias_term: true
	}
}

layer {
	bottom: "res5a"
	bottom: "res5b_branch2c"
	top: "res5b"
	name: "res5b"
	type: "Eltwise"
}

layer {
	bottom: "res5b"
	top: "res5b"
	name: "res5b_relu"
	type: "ReLU"
}

layer {
	bottom: "res5b"
	top: "res5c_branch2a"
	name: "res5c_branch2a"
	type: "Convolution"
	convolution_param {
		num_output: 512
		kernel_size: 1
		pad: 0
		stride: 1
		bias_term: false
	}
}

layer {
	bottom: "res5c_branch2a"
	top: "res5c_branch2a"
	name: "bn5c_branch2a"
	type: "BatchNorm"
	batch_norm_param {
		use_global_stats: true
	}
}

layer {
	bottom: "res5c_branch2a"
	top: "res5c_branch2a"
	name: "scale5c_branch2a"
	type: "Scale"
	scale_param {
		bias_term: true
	}
}

layer {
	top: "res5c_branch2a"
	bottom: "res5c_branch2a"
	name: "res5c_branch2a_relu"
	type: "ReLU"
}

layer {
	bottom: "res5c_branch2a"
	top: "res5c_branch2b"
	name: "res5c_branch2b"
	type: "Convolution"
	convolution_param {
		num_output: 512
		kernel_size: 3
		pad: 1
		stride: 1
		bias_term: false
	}
}

layer {
	bottom: "res5c_branch2b"
	top: "res5c_branch2b"
	name: "bn5c_branch2b"
	type: "BatchNorm"
	batch_norm_param {
		use_global_stats: true
	}
}

layer {
	bottom: "res5c_branch2b"
	top: "res5c_branch2b"
	name: "scale5c_branch2b"
	type: "Scale"
	scale_param {
		bias_term: true
	}
}

layer {
	top: "res5c_branch2b"
	bottom: "res5c_branch2b"
	name: "res5c_branch2b_relu"
	type: "ReLU"
}

layer {
	bottom: "res5c_branch2b"
	top: "res5c_branch2c"
	name: "res5c_branch2c"
	type: "Convolution"
	convolution_param {
		num_output: 2048
		kernel_size: 1
		pad: 0
		stride: 1
		bias_term: false
	}
}

layer {
	bottom: "res5c_branch2c"
	top: "res5c_branch2c"
	name: "bn5c_branch2c"
	type: "BatchNorm"
	batch_norm_param {
		use_global_stats: true
	}
}

layer {
	bottom: "res5c_branch2c"
	top: "res5c_branch2c"
	name: "scale5c_branch2c"
	type: "Scale"
	scale_param {
		bias_term: true
	}
}

layer {
	bottom: "res5b"
	bottom: "res5c_branch2c"
	top: "res5c"
	name: "res5c"
	type: "Eltwise"
}

layer {
	bottom: "res5c"
	top: "res5c"
	name: "res5c_relu"
	type: "ReLU"
}

layer {
	bottom: "res5c"
	top: "pool5"
	name: "pool5"
	type: "Pooling"
	pooling_param {
		kernel_size: 7
		stride: 1
		pool: AVE
	}
}



################################ res152 id ##################################

# ------------------------ conv1 -----------------------------

layer {
	bottom: "data"
	top: "id_conv1"
	name: "id_conv1"
	type: "Convolution"
	convolution_param {
		num_output: 64
		kernel_size: 7
		pad: 3
		stride: 2
		bias_term: false
	}
}

layer {
	bottom: "id_conv1"
	top: "id_conv1"
	name: "id_bn_conv1"
	type: "BatchNorm"
	batch_norm_param {
		use_global_stats: true
	}
}

layer {
	bottom: "id_conv1"
	top: "id_conv1"
	name: "id_scale_conv1"
	type: "Scale"
	scale_param {
		bias_term: true
	}
}

layer {
	top: "id_conv1"
	bottom: "id_conv1"
	name: "id_conv1_relu"
	type: "ReLU"
}

layer {
	bottom: "id_conv1"
	top: "id_R1_pool1"
	name: "id_pool1"
	type: "Pooling"
	pooling_param {
		kernel_size: 3
		stride: 2
		pool: MAX
	}
}

############################# concat ##########################
#layer {
#  name: "concat_R1"
#  type: "Concat"
#  bottom: "pool1"
#  bottom: "id_pool1"
#  top: "concat_R1"
#  concat_param {
#    axis: 1
#  }
#  propagate_down:false
#  propagate_down:true
#}
#layer {
#	bottom: "concat_R1"
#	top: "id_R1_pool1"
#	name: "conv_R1"
#	type: "Convolution"
#	param {
#    	lr_mult: 10
#    	decay_mult: 1
#   	}
#	convolution_param {
#		num_output: 64
#		kernel_size: 1
#		pad: 0
#		stride: 1
#		bias_term: false
#		weight_filler {
#			type: "gaussian"
#           std: 0.01
#    }
#	}
#}
############################ concat ##########################

layer {
	bottom: "id_R1_pool1"
	top: "id_res2a_branch1"
	name: "id_res2a_branch1"
	type: "Convolution"
	convolution_param {
		num_output: 256
		kernel_size: 1
		pad: 0
		stride: 1
		bias_term: false
	}
}

layer {
	bottom: "id_res2a_branch1"
	top: "id_res2a_branch1"
	name: "id_bn2a_branch1"
	type: "BatchNorm"
	batch_norm_param {
		use_global_stats: true
	}
}

layer {
	bottom: "id_res2a_branch1"
	top: "id_res2a_branch1"
	name: "id_scale2a_branch1"
	type: "Scale"
	scale_param {
		bias_term: true
	}
}

layer {
	bottom: "id_R1_pool1"
	top: "id_res2a_branch2a"
	name: "id_res2a_branch2a"
	type: "Convolution"
	convolution_param {
		num_output: 64
		kernel_size: 1
		pad: 0
		stride: 1
		bias_term: false
	}
}

layer {
	bottom: "id_res2a_branch2a"
	top: "id_res2a_branch2a"
	name: "id_bn2a_branch2a"
	type: "BatchNorm"
	batch_norm_param {
		use_global_stats: true
	}
}

layer {
	bottom: "id_res2a_branch2a"
	top: "id_res2a_branch2a"
	name: "id_scale2a_branch2a"
	type: "Scale"
	scale_param {
		bias_term: true
	}
}

layer {
	top: "id_res2a_branch2a"
	bottom: "id_res2a_branch2a"
	name: "id_res2a_branch2a_relu"
	type: "ReLU"
}

layer {
	bottom: "id_res2a_branch2a"
	top: "id_res2a_branch2b"
	name: "id_res2a_branch2b"
	type: "Convolution"
	convolution_param {
		num_output: 64
		kernel_size: 3
		pad: 1
		stride: 1
		bias_term: false
	}
}

layer {
	bottom: "id_res2a_branch2b"
	top: "id_res2a_branch2b"
	name: "id_bn2a_branch2b"
	type: "BatchNorm"
	batch_norm_param {
		use_global_stats: true
	}
}

layer {
	bottom: "id_res2a_branch2b"
	top: "id_res2a_branch2b"
	name: "id_scale2a_branch2b"
	type: "Scale"
	scale_param {
		bias_term: true
	}
}

layer {
	top: "id_res2a_branch2b"
	bottom: "id_res2a_branch2b"
	name: "id_res2a_branch2b_relu"
	type: "ReLU"
}

layer {
	bottom: "id_res2a_branch2b"
	top: "id_res2a_branch2c"
	name: "id_res2a_branch2c"
	type: "Convolution"
	convolution_param {
		num_output: 256
		kernel_size: 1
		pad: 0
		stride: 1
		bias_term: false
	}
}

layer {
	bottom: "id_res2a_branch2c"
	top: "id_res2a_branch2c"
	name: "id_bn2a_branch2c"
	type: "BatchNorm"
	batch_norm_param {
		use_global_stats: true
	}
}

layer {
	bottom: "id_res2a_branch2c"
	top: "id_res2a_branch2c"
	name: "id_scale2a_branch2c"
	type: "Scale"
	scale_param {
		bias_term: true
	}
}

layer {
	bottom: "id_res2a_branch1"
	bottom: "id_res2a_branch2c"
	top: "id_res2a"
	name: "id_res2a"
	type: "Eltwise"
}

layer {
	bottom: "id_res2a"
	top: "id_res2a"
	name: "id_res2a_relu"
	type: "ReLU"
}

layer {
	bottom: "id_res2a"
	top: "id_res2b_branch2a"
	name: "id_res2b_branch2a"
	type: "Convolution"
	convolution_param {
		num_output: 64
		kernel_size: 1
		pad: 0
		stride: 1
		bias_term: false
	}
}

layer {
	bottom: "id_res2b_branch2a"
	top: "id_res2b_branch2a"
	name: "id_bn2b_branch2a"
	type: "BatchNorm"
	batch_norm_param {
		use_global_stats: true
	}
}

layer {
	bottom: "id_res2b_branch2a"
	top: "id_res2b_branch2a"
	name: "id_scale2b_branch2a"
	type: "Scale"
	scale_param {
		bias_term: true
	}
}

layer {
	top: "id_res2b_branch2a"
	bottom: "id_res2b_branch2a"
	name: "id_res2b_branch2a_relu"
	type: "ReLU"
}

layer {
	bottom: "id_res2b_branch2a"
	top: "id_res2b_branch2b"
	name: "id_res2b_branch2b"
	type: "Convolution"
	convolution_param {
		num_output: 64
		kernel_size: 3
		pad: 1
		stride: 1
		bias_term: false
	}
}

layer {
	bottom: "id_res2b_branch2b"
	top: "id_res2b_branch2b"
	name: "id_bn2b_branch2b"
	type: "BatchNorm"
	batch_norm_param {
		use_global_stats: true
	}
}

layer {
	bottom: "id_res2b_branch2b"
	top: "id_res2b_branch2b"
	name: "id_scale2b_branch2b"
	type: "Scale"
	scale_param {
		bias_term: true
	}
}

layer {
	top: "id_res2b_branch2b"
	bottom: "id_res2b_branch2b"
	name: "id_res2b_branch2b_relu"
	type: "ReLU"
}

layer {
	bottom: "id_res2b_branch2b"
	top: "id_res2b_branch2c"
	name: "id_res2b_branch2c"
	type: "Convolution"
	convolution_param {
		num_output: 256
		kernel_size: 1
		pad: 0
		stride: 1
		bias_term: false
	}
}

layer {
	bottom: "id_res2b_branch2c"
	top: "id_res2b_branch2c"
	name: "id_bn2b_branch2c"
	type: "BatchNorm"
	batch_norm_param {
		use_global_stats: true
	}
}

layer {
	bottom: "id_res2b_branch2c"
	top: "id_res2b_branch2c"
	name: "id_scale2b_branch2c"
	type: "Scale"
	scale_param {
		bias_term: true
	}
}

layer {
	bottom: "id_res2a"
	bottom: "id_res2b_branch2c"
	top: "id_res2b"
	name: "id_res2b"
	type: "Eltwise"
}

layer {
	bottom: "id_res2b"
	top: "id_res2b"
	name: "id_res2b_relu"
	type: "ReLU"
}

layer {
	bottom: "id_res2b"
	top: "id_res2c_branch2a"
	name: "id_res2c_branch2a"
	type: "Convolution"
	convolution_param {
		num_output: 64
		kernel_size: 1
		pad: 0
		stride: 1
		bias_term: false
	}
}

layer {
	bottom: "id_res2c_branch2a"
	top: "id_res2c_branch2a"
	name: "id_bn2c_branch2a"
	type: "BatchNorm"
	batch_norm_param {
		use_global_stats: true
	}
}

layer {
	bottom: "id_res2c_branch2a"
	top: "id_res2c_branch2a"
	name: "id_scale2c_branch2a"
	type: "Scale"
	scale_param {
		bias_term: true
	}
}

layer {
	top: "id_res2c_branch2a"
	bottom: "id_res2c_branch2a"
	name: "id_res2c_branch2a_relu"
	type: "ReLU"
}

layer {
	bottom: "id_res2c_branch2a"
	top: "id_res2c_branch2b"
	name: "id_res2c_branch2b"
	type: "Convolution"
	convolution_param {
		num_output: 64
		kernel_size: 3
		pad: 1
		stride: 1
		bias_term: false
	}
}

layer {
	bottom: "id_res2c_branch2b"
	top: "id_res2c_branch2b"
	name: "id_bn2c_branch2b"
	type: "BatchNorm"
	batch_norm_param {
		use_global_stats: true
	}
}

layer {
	bottom: "id_res2c_branch2b"
	top: "id_res2c_branch2b"
	name: "id_scale2c_branch2b"
	type: "Scale"
	scale_param {
		bias_term: true
	}
}

layer {
	top: "id_res2c_branch2b"
	bottom: "id_res2c_branch2b"
	name: "id_res2c_branch2b_relu"
	type: "ReLU"
}

layer {
	bottom: "id_res2c_branch2b"
	top: "id_res2c_branch2c"
	name: "id_res2c_branch2c"
	type: "Convolution"
	convolution_param {
		num_output: 256
		kernel_size: 1
		pad: 0
		stride: 1
		bias_term: false
	}
}

layer {
	bottom: "id_res2c_branch2c"
	top: "id_res2c_branch2c"
	name: "id_bn2c_branch2c"
	type: "BatchNorm"
	batch_norm_param {
		use_global_stats: true
	}
}

layer {
	bottom: "id_res2c_branch2c"
	top: "id_res2c_branch2c"
	name: "id_scale2c_branch2c"
	type: "Scale"
	scale_param {
		bias_term: true
	}
}

layer {
	bottom: "id_res2b"
	bottom: "id_res2c_branch2c"
	top: "id_res2c"
	name: "id_res2c"
	type: "Eltwise"
}

layer {
	bottom: "id_res2c"
	top: "id_R2_res2c"
	name: "id_res2c_relu"
	type: "ReLU"
}

############################ concat ##########################
#layer {
#  name: "concat_R2"
#  type: "Concat"
#  bottom: "res2c"
#  bottom: "id_res2c"
#  top: "concat_R2"
#  concat_param {
#    axis: 1
#  }
#  propagate_down:false
#  propagate_down:true
#}
#layer {
#	bottom: "concat_R2"
#	top: "id_R2_res2c"
#	name: "conv_R2"
#	type: "Convolution"
#	param {
#    	lr_mult: 10
#    	decay_mult: 1
#   	}
#	convolution_param {
#		num_output: 256
#		kernel_size: 1
#		pad: 0
#		stride: 1
#		bias_term: false
#		weight_filler {
#			type: "gaussian"
#           std:0.01
#    }
#	}
#}
############################ concat ##########################

layer {
	bottom: "id_R2_res2c"
	top: "id_res3a_branch1"
	name: "id_res3a_branch1"
	type: "Convolution"
	convolution_param {
		num_output: 512
		kernel_size: 1
		pad: 0
		stride: 2
		bias_term: false
	}
}

layer {
	bottom: "id_res3a_branch1"
	top: "id_res3a_branch1"
	name: "id_bn3a_branch1"
	type: "BatchNorm"
	batch_norm_param {
		use_global_stats: true
	}
}

layer {
	bottom: "id_res3a_branch1"
	top: "id_res3a_branch1"
	name: "id_scale3a_branch1"
	type: "Scale"
	scale_param {
		bias_term: true
	}
}

layer {
	bottom: "id_R2_res2c"
	top: "id_res3a_branch2a"
	name: "id_res3a_branch2a"
	type: "Convolution"
	convolution_param {
		num_output: 128
		kernel_size: 1
		pad: 0
		stride: 2
		bias_term: false
	}
}

layer {
	bottom: "id_res3a_branch2a"
	top: "id_res3a_branch2a"
	name: "id_bn3a_branch2a"
	type: "BatchNorm"
	batch_norm_param {
		use_global_stats: true
	}
}

layer {
	bottom: "id_res3a_branch2a"
	top: "id_res3a_branch2a"
	name: "id_scale3a_branch2a"
	type: "Scale"
	scale_param {
		bias_term: true
	}
}

layer {
	top: "id_res3a_branch2a"
	bottom: "id_res3a_branch2a"
	name: "id_res3a_branch2a_relu"
	type: "ReLU"
}

layer {
	bottom: "id_res3a_branch2a"
	top: "id_res3a_branch2b"
	name: "id_res3a_branch2b"
	type: "Convolution"
	convolution_param {
		num_output: 128
		kernel_size: 3
		pad: 1
		stride: 1
		bias_term: false
	}
}

layer {
	bottom: "id_res3a_branch2b"
	top: "id_res3a_branch2b"
	name: "id_bn3a_branch2b"
	type: "BatchNorm"
	batch_norm_param {
		use_global_stats: true
	}
}

layer {
	bottom: "id_res3a_branch2b"
	top: "id_res3a_branch2b"
	name: "id_scale3a_branch2b"
	type: "Scale"
	scale_param {
		bias_term: true
	}
}

layer {
	top: "id_res3a_branch2b"
	bottom: "id_res3a_branch2b"
	name: "id_res3a_branch2b_relu"
	type: "ReLU"
}

layer {
	bottom: "id_res3a_branch2b"
	top: "id_res3a_branch2c"
	name: "id_res3a_branch2c"
	type: "Convolution"
	convolution_param {
		num_output: 512
		kernel_size: 1
		pad: 0
		stride: 1
		bias_term: false
	}
}

layer {
	bottom: "id_res3a_branch2c"
	top: "id_res3a_branch2c"
	name: "id_bn3a_branch2c"
	type: "BatchNorm"
	batch_norm_param {
		use_global_stats: true
	}
}

layer {
	bottom: "id_res3a_branch2c"
	top: "id_res3a_branch2c"
	name: "id_scale3a_branch2c"
	type: "Scale"
	scale_param {
		bias_term: true
	}
}

layer {
	bottom: "id_res3a_branch1"
	bottom: "id_res3a_branch2c"
	top: "id_res3a"
	name: "id_res3a"
	type: "Eltwise"
}

layer {
	bottom: "id_res3a"
	top: "id_res3a"
	name: "id_res3a_relu"
	type: "ReLU"
}

layer {
	bottom: "id_res3a"
	top: "id_res3b1_branch2a"
	name: "id_res3b1_branch2a"
	type: "Convolution"
	convolution_param {
		num_output: 128
		kernel_size: 1
		pad: 0
		stride: 1
		bias_term: false
	}
}

layer {
	bottom: "id_res3b1_branch2a"
	top: "id_res3b1_branch2a"
	name: "id_bn3b1_branch2a"
	type: "BatchNorm"
	batch_norm_param {
		use_global_stats: true
	}
}

layer {
	bottom: "id_res3b1_branch2a"
	top: "id_res3b1_branch2a"
	name: "id_scale3b1_branch2a"
	type: "Scale"
	scale_param {
		bias_term: true
	}
}

layer {
	top: "id_res3b1_branch2a"
	bottom: "id_res3b1_branch2a"
	name: "id_res3b1_branch2a_relu"
	type: "ReLU"
}

layer {
	bottom: "id_res3b1_branch2a"
	top: "id_res3b1_branch2b"
	name: "id_res3b1_branch2b"
	type: "Convolution"
	convolution_param {
		num_output: 128
		kernel_size: 3
		pad: 1
		stride: 1
		bias_term: false
	}
}

layer {
	bottom: "id_res3b1_branch2b"
	top: "id_res3b1_branch2b"
	name: "id_bn3b1_branch2b"
	type: "BatchNorm"
	batch_norm_param {
		use_global_stats: true
	}
}

layer {
	bottom: "id_res3b1_branch2b"
	top: "id_res3b1_branch2b"
	name: "id_scale3b1_branch2b"
	type: "Scale"
	scale_param {
		bias_term: true
	}
}

layer {
	top: "id_res3b1_branch2b"
	bottom: "id_res3b1_branch2b"
	name: "id_res3b1_branch2b_relu"
	type: "ReLU"
}

layer {
	bottom: "id_res3b1_branch2b"
	top: "id_res3b1_branch2c"
	name: "id_res3b1_branch2c"
	type: "Convolution"
	convolution_param {
		num_output: 512
		kernel_size: 1
		pad: 0
		stride: 1
		bias_term: false
	}
}

layer {
	bottom: "id_res3b1_branch2c"
	top: "id_res3b1_branch2c"
	name: "id_bn3b1_branch2c"
	type: "BatchNorm"
	batch_norm_param {
		use_global_stats: true
	}
}

layer {
	bottom: "id_res3b1_branch2c"
	top: "id_res3b1_branch2c"
	name: "id_scale3b1_branch2c"
	type: "Scale"
	scale_param {
		bias_term: true
	}
}

layer {
	bottom: "id_res3a"
	bottom: "id_res3b1_branch2c"
	top: "id_res3b1"
	name: "id_res3b1"
	type: "Eltwise"
}

layer {
	bottom: "id_res3b1"
	top: "id_res3b1"
	name: "id_res3b1_relu"
	type: "ReLU"
}

layer {
	bottom: "id_res3b1"
	top: "id_res3b2_branch2a"
	name: "id_res3b2_branch2a"
	type: "Convolution"
	convolution_param {
		num_output: 128
		kernel_size: 1
		pad: 0
		stride: 1
		bias_term: false
	}
}

layer {
	bottom: "id_res3b2_branch2a"
	top: "id_res3b2_branch2a"
	name: "id_bn3b2_branch2a"
	type: "BatchNorm"
	batch_norm_param {
		use_global_stats: true
	}
}

layer {
	bottom: "id_res3b2_branch2a"
	top: "id_res3b2_branch2a"
	name: "id_scale3b2_branch2a"
	type: "Scale"
	scale_param {
		bias_term: true
	}
}

layer {
	top: "id_res3b2_branch2a"
	bottom: "id_res3b2_branch2a"
	name: "id_res3b2_branch2a_relu"
	type: "ReLU"
}

layer {
	bottom: "id_res3b2_branch2a"
	top: "id_res3b2_branch2b"
	name: "id_res3b2_branch2b"
	type: "Convolution"
	convolution_param {
		num_output: 128
		kernel_size: 3
		pad: 1
		stride: 1
		bias_term: false
	}
}

layer {
	bottom: "id_res3b2_branch2b"
	top: "id_res3b2_branch2b"
	name: "id_bn3b2_branch2b"
	type: "BatchNorm"
	batch_norm_param {
		use_global_stats: true
	}
}

layer {
	bottom: "id_res3b2_branch2b"
	top: "id_res3b2_branch2b"
	name: "id_scale3b2_branch2b"
	type: "Scale"
	scale_param {
		bias_term: true
	}
}

layer {
	top: "id_res3b2_branch2b"
	bottom: "id_res3b2_branch2b"
	name: "id_res3b2_branch2b_relu"
	type: "ReLU"
}

layer {
	bottom: "id_res3b2_branch2b"
	top: "id_res3b2_branch2c"
	name: "id_res3b2_branch2c"
	type: "Convolution"
	convolution_param {
		num_output: 512
		kernel_size: 1
		pad: 0
		stride: 1
		bias_term: false
	}
}

layer {
	bottom: "id_res3b2_branch2c"
	top: "id_res3b2_branch2c"
	name: "id_bn3b2_branch2c"
	type: "BatchNorm"
	batch_norm_param {
		use_global_stats: true
	}
}

layer {
	bottom: "id_res3b2_branch2c"
	top: "id_res3b2_branch2c"
	name: "id_scale3b2_branch2c"
	type: "Scale"
	scale_param {
		bias_term: true
	}
}

layer {
	bottom: "id_res3b1"
	bottom: "id_res3b2_branch2c"
	top: "id_res3b2"
	name: "id_res3b2"
	type: "Eltwise"
}

layer {
	bottom: "id_res3b2"
	top: "id_res3b2"
	name: "id_res3b2_relu"
	type: "ReLU"
}

layer {
	bottom: "id_res3b2"
	top: "id_res3b3_branch2a"
	name: "id_res3b3_branch2a"
	type: "Convolution"
	convolution_param {
		num_output: 128
		kernel_size: 1
		pad: 0
		stride: 1
		bias_term: false
	}
}

layer {
	bottom: "id_res3b3_branch2a"
	top: "id_res3b3_branch2a"
	name: "id_bn3b3_branch2a"
	type: "BatchNorm"
	batch_norm_param {
		use_global_stats: true
	}
}

layer {
	bottom: "id_res3b3_branch2a"
	top: "id_res3b3_branch2a"
	name: "id_scale3b3_branch2a"
	type: "Scale"
	scale_param {
		bias_term: true
	}
}

layer {
	top: "id_res3b3_branch2a"
	bottom: "id_res3b3_branch2a"
	name: "id_res3b3_branch2a_relu"
	type: "ReLU"
}

layer {
	bottom: "id_res3b3_branch2a"
	top: "id_res3b3_branch2b"
	name: "id_res3b3_branch2b"
	type: "Convolution"
	convolution_param {
		num_output: 128
		kernel_size: 3
		pad: 1
		stride: 1
		bias_term: false
	}
}

layer {
	bottom: "id_res3b3_branch2b"
	top: "id_res3b3_branch2b"
	name: "id_bn3b3_branch2b"
	type: "BatchNorm"
	batch_norm_param {
		use_global_stats: true
	}
}

layer {
	bottom: "id_res3b3_branch2b"
	top: "id_res3b3_branch2b"
	name: "id_scale3b3_branch2b"
	type: "Scale"
	scale_param {
		bias_term: true
	}
}

layer {
	top: "id_res3b3_branch2b"
	bottom: "id_res3b3_branch2b"
	name: "id_res3b3_branch2b_relu"
	type: "ReLU"
}

layer {
	bottom: "id_res3b3_branch2b"
	top: "id_res3b3_branch2c"
	name: "id_res3b3_branch2c"
	type: "Convolution"
	convolution_param {
		num_output: 512
		kernel_size: 1
		pad: 0
		stride: 1
		bias_term: false
	}
}

layer {
	bottom: "id_res3b3_branch2c"
	top: "id_res3b3_branch2c"
	name: "id_bn3b3_branch2c"
	type: "BatchNorm"
	batch_norm_param {
		use_global_stats: true
	}
}

layer {
	bottom: "id_res3b3_branch2c"
	top: "id_res3b3_branch2c"
	name: "id_scale3b3_branch2c"
	type: "Scale"
	scale_param {
		bias_term: true
	}
}

layer {
	bottom: "id_res3b2"
	bottom: "id_res3b3_branch2c"
	top: "id_res3b3"
	name: "id_res3b3"
	type: "Eltwise"
}

layer {
	bottom: "id_res3b3"
	top: "id_res3b3"
	name: "id_res3b3_relu"
	type: "ReLU"
}

layer {
	bottom: "id_res3b3"
	top: "id_res3b4_branch2a"
	name: "id_res3b4_branch2a"
	type: "Convolution"
	convolution_param {
		num_output: 128
		kernel_size: 1
		pad: 0
		stride: 1
		bias_term: false
	}
}

layer {
	bottom: "id_res3b4_branch2a"
	top: "id_res3b4_branch2a"
	name: "id_bn3b4_branch2a"
	type: "BatchNorm"
	batch_norm_param {
		use_global_stats: true
	}
}

layer {
	bottom: "id_res3b4_branch2a"
	top: "id_res3b4_branch2a"
	name: "id_scale3b4_branch2a"
	type: "Scale"
	scale_param {
		bias_term: true
	}
}

layer {
	top: "id_res3b4_branch2a"
	bottom: "id_res3b4_branch2a"
	name: "id_res3b4_branch2a_relu"
	type: "ReLU"
}

layer {
	bottom: "id_res3b4_branch2a"
	top: "id_res3b4_branch2b"
	name: "id_res3b4_branch2b"
	type: "Convolution"
	convolution_param {
		num_output: 128
		kernel_size: 3
		pad: 1
		stride: 1
		bias_term: false
	}
}

layer {
	bottom: "id_res3b4_branch2b"
	top: "id_res3b4_branch2b"
	name: "id_bn3b4_branch2b"
	type: "BatchNorm"
	batch_norm_param {
		use_global_stats: true
	}
}

layer {
	bottom: "id_res3b4_branch2b"
	top: "id_res3b4_branch2b"
	name: "id_scale3b4_branch2b"
	type: "Scale"
	scale_param {
		bias_term: true
	}
}

layer {
	top: "id_res3b4_branch2b"
	bottom: "id_res3b4_branch2b"
	name: "id_res3b4_branch2b_relu"
	type: "ReLU"
}

layer {
	bottom: "id_res3b4_branch2b"
	top: "id_res3b4_branch2c"
	name: "id_res3b4_branch2c"
	type: "Convolution"
	convolution_param {
		num_output: 512
		kernel_size: 1
		pad: 0
		stride: 1
		bias_term: false
	}
}

layer {
	bottom: "id_res3b4_branch2c"
	top: "id_res3b4_branch2c"
	name: "id_bn3b4_branch2c"
	type: "BatchNorm"
	batch_norm_param {
		use_global_stats: true
	}
}

layer {
	bottom: "id_res3b4_branch2c"
	top: "id_res3b4_branch2c"
	name: "id_scale3b4_branch2c"
	type: "Scale"
	scale_param {
		bias_term: true
	}
}

layer {
	bottom: "id_res3b3"
	bottom: "id_res3b4_branch2c"
	top: "id_res3b4"
	name: "id_res3b4"
	type: "Eltwise"
}

layer {
	bottom: "id_res3b4"
	top: "id_res3b4"
	name: "id_res3b4_relu"
	type: "ReLU"
}

layer {
	bottom: "id_res3b4"
	top: "id_res3b5_branch2a"
	name: "id_res3b5_branch2a"
	type: "Convolution"
	convolution_param {
		num_output: 128
		kernel_size: 1
		pad: 0
		stride: 1
		bias_term: false
	}
}

layer {
	bottom: "id_res3b5_branch2a"
	top: "id_res3b5_branch2a"
	name: "id_bn3b5_branch2a"
	type: "BatchNorm"
	batch_norm_param {
		use_global_stats: true
	}
}

layer {
	bottom: "id_res3b5_branch2a"
	top: "id_res3b5_branch2a"
	name: "id_scale3b5_branch2a"
	type: "Scale"
	scale_param {
		bias_term: true
	}
}

layer {
	top: "id_res3b5_branch2a"
	bottom: "id_res3b5_branch2a"
	name: "id_res3b5_branch2a_relu"
	type: "ReLU"
}

layer {
	bottom: "id_res3b5_branch2a"
	top: "id_res3b5_branch2b"
	name: "id_res3b5_branch2b"
	type: "Convolution"
	convolution_param {
		num_output: 128
		kernel_size: 3
		pad: 1
		stride: 1
		bias_term: false
	}
}

layer {
	bottom: "id_res3b5_branch2b"
	top: "id_res3b5_branch2b"
	name: "id_bn3b5_branch2b"
	type: "BatchNorm"
	batch_norm_param {
		use_global_stats: true
	}
}

layer {
	bottom: "id_res3b5_branch2b"
	top: "id_res3b5_branch2b"
	name: "id_scale3b5_branch2b"
	type: "Scale"
	scale_param {
		bias_term: true
	}
}

layer {
	top: "id_res3b5_branch2b"
	bottom: "id_res3b5_branch2b"
	name: "id_res3b5_branch2b_relu"
	type: "ReLU"
}

layer {
	bottom: "id_res3b5_branch2b"
	top: "id_res3b5_branch2c"
	name: "id_res3b5_branch2c"
	type: "Convolution"
	convolution_param {
		num_output: 512
		kernel_size: 1
		pad: 0
		stride: 1
		bias_term: false
	}
}

layer {
	bottom: "id_res3b5_branch2c"
	top: "id_res3b5_branch2c"
	name: "id_bn3b5_branch2c"
	type: "BatchNorm"
	batch_norm_param {
		use_global_stats: true
	}
}

layer {
	bottom: "id_res3b5_branch2c"
	top: "id_res3b5_branch2c"
	name: "id_scale3b5_branch2c"
	type: "Scale"
	scale_param {
		bias_term: true
	}
}

layer {
	bottom: "id_res3b4"
	bottom: "id_res3b5_branch2c"
	top: "id_res3b5"
	name: "id_res3b5"
	type: "Eltwise"
}

layer {
	bottom: "id_res3b5"
	top: "id_res3b5"
	name: "id_res3b5_relu"
	type: "ReLU"
}

layer {
	bottom: "id_res3b5"
	top: "id_res3b6_branch2a"
	name: "id_res3b6_branch2a"
	type: "Convolution"
	convolution_param {
		num_output: 128
		kernel_size: 1
		pad: 0
		stride: 1
		bias_term: false
	}
}

layer {
	bottom: "id_res3b6_branch2a"
	top: "id_res3b6_branch2a"
	name: "id_bn3b6_branch2a"
	type: "BatchNorm"
	batch_norm_param {
		use_global_stats: true
	}
}

layer {
	bottom: "id_res3b6_branch2a"
	top: "id_res3b6_branch2a"
	name: "id_scale3b6_branch2a"
	type: "Scale"
	scale_param {
		bias_term: true
	}
}

layer {
	top: "id_res3b6_branch2a"
	bottom: "id_res3b6_branch2a"
	name: "id_res3b6_branch2a_relu"
	type: "ReLU"
}

layer {
	bottom: "id_res3b6_branch2a"
	top: "id_res3b6_branch2b"
	name: "id_res3b6_branch2b"
	type: "Convolution"
	convolution_param {
		num_output: 128
		kernel_size: 3
		pad: 1
		stride: 1
		bias_term: false
	}
}

layer {
	bottom: "id_res3b6_branch2b"
	top: "id_res3b6_branch2b"
	name: "id_bn3b6_branch2b"
	type: "BatchNorm"
	batch_norm_param {
		use_global_stats: true
	}
}

layer {
	bottom: "id_res3b6_branch2b"
	top: "id_res3b6_branch2b"
	name: "id_scale3b6_branch2b"
	type: "Scale"
	scale_param {
		bias_term: true
	}
}

layer {
	top: "id_res3b6_branch2b"
	bottom: "id_res3b6_branch2b"
	name: "id_res3b6_branch2b_relu"
	type: "ReLU"
}

layer {
	bottom: "id_res3b6_branch2b"
	top: "id_res3b6_branch2c"
	name: "id_res3b6_branch2c"
	type: "Convolution"
	convolution_param {
		num_output: 512
		kernel_size: 1
		pad: 0
		stride: 1
		bias_term: false
	}
}

layer {
	bottom: "id_res3b6_branch2c"
	top: "id_res3b6_branch2c"
	name: "id_bn3b6_branch2c"
	type: "BatchNorm"
	batch_norm_param {
		use_global_stats: true
	}
}

layer {
	bottom: "id_res3b6_branch2c"
	top: "id_res3b6_branch2c"
	name: "id_scale3b6_branch2c"
	type: "Scale"
	scale_param {
		bias_term: true
	}
}

layer {
	bottom: "id_res3b5"
	bottom: "id_res3b6_branch2c"
	top: "id_res3b6"
	name: "id_res3b6"
	type: "Eltwise"
}

layer {
	bottom: "id_res3b6"
	top: "id_res3b6"
	name: "id_res3b6_relu"
	type: "ReLU"
}

layer {
	bottom: "id_res3b6"
	top: "id_res3b7_branch2a"
	name: "id_res3b7_branch2a"
	type: "Convolution"
	convolution_param {
		num_output: 128
		kernel_size: 1
		pad: 0
		stride: 1
		bias_term: false
	}
}

layer {
	bottom: "id_res3b7_branch2a"
	top: "id_res3b7_branch2a"
	name: "id_bn3b7_branch2a"
	type: "BatchNorm"
	batch_norm_param {
		use_global_stats: true
	}
}

layer {
	bottom: "id_res3b7_branch2a"
	top: "id_res3b7_branch2a"
	name: "id_scale3b7_branch2a"
	type: "Scale"
	scale_param {
		bias_term: true
	}
}

layer {
	top: "id_res3b7_branch2a"
	bottom: "id_res3b7_branch2a"
	name: "id_res3b7_branch2a_relu"
	type: "ReLU"
}

layer {
	bottom: "id_res3b7_branch2a"
	top: "id_res3b7_branch2b"
	name: "id_res3b7_branch2b"
	type: "Convolution"
	convolution_param {
		num_output: 128
		kernel_size: 3
		pad: 1
		stride: 1
		bias_term: false
	}
}

layer {
	bottom: "id_res3b7_branch2b"
	top: "id_res3b7_branch2b"
	name: "id_bn3b7_branch2b"
	type: "BatchNorm"
	batch_norm_param {
		use_global_stats: true
	}
}

layer {
	bottom: "id_res3b7_branch2b"
	top: "id_res3b7_branch2b"
	name: "id_scale3b7_branch2b"
	type: "Scale"
	scale_param {
		bias_term: true
	}
}

layer {
	top: "id_res3b7_branch2b"
	bottom: "id_res3b7_branch2b"
	name: "id_res3b7_branch2b_relu"
	type: "ReLU"
}

layer {
	bottom: "id_res3b7_branch2b"
	top: "id_res3b7_branch2c"
	name: "id_res3b7_branch2c"
	type: "Convolution"
	convolution_param {
		num_output: 512
		kernel_size: 1
		pad: 0
		stride: 1
		bias_term: false
	}
}

layer {
	bottom: "id_res3b7_branch2c"
	top: "id_res3b7_branch2c"
	name: "id_bn3b7_branch2c"
	type: "BatchNorm"
	batch_norm_param {
		use_global_stats: true
	}
}

layer {
	bottom: "id_res3b7_branch2c"
	top: "id_res3b7_branch2c"
	name: "id_scale3b7_branch2c"
	type: "Scale"
	scale_param {
		bias_term: true
	}
}

layer {
	bottom: "id_res3b6"
	bottom: "id_res3b7_branch2c"
	top: "id_res3b7"
	name: "id_res3b7"
	type: "Eltwise"
}

layer {
	bottom: "id_res3b7"
	top: "id_R3_res3b7"
	name: "id_res3b7_relu"
	type: "ReLU"
}

############################ concat ##########################
#layer {
#  name: "concat_R3"
#  type: "Concat"
#  bottom: "res3b7"
#  bottom: "id_res3b7"
#  top: "concat_R3"
#  concat_param {
#    axis: 1
#  }propagate_down:false
#  propagate_down:true
#
#}
#layer {
#	bottom: "concat_R3"
#	top: "id_R3_res3b7"
#	name: "conv_R3"
#	type: "Convolution"
#	param {
#    	lr_mult: 10
#    	decay_mult: 1
#   	}
#	convolution_param {
#		num_output: 512
#		kernel_size: 1
#		pad: 0
#		stride: 1
#		bias_term: false
#		weight_filler {
#			type: "gaussian"
#            std:0.01
#		}
#    }
#}
############################ concat ##########################

layer {
	bottom: "id_R3_res3b7"
	top: "id_res4a_branch1"
	name: "id_res4a_branch1"
	type: "Convolution"
	convolution_param {
		num_output: 1024
		kernel_size: 1
		pad: 0
		stride: 2
		bias_term: false
	}
}

layer {
	bottom: "id_res4a_branch1"
	top: "id_res4a_branch1"
	name: "id_bn4a_branch1"
	type: "BatchNorm"
	batch_norm_param {
		use_global_stats: true
	}
}

layer {
	bottom: "id_res4a_branch1"
	top: "id_res4a_branch1"
	name: "id_scale4a_branch1"
	type: "Scale"
	scale_param {
		bias_term: true
	}
}

layer {
	bottom: "id_R3_res3b7"
	top: "id_res4a_branch2a"
	name: "id_res4a_branch2a"
	type: "Convolution"
	convolution_param {
		num_output: 256
		kernel_size: 1
		pad: 0
		stride: 2
		bias_term: false
	}
}

layer {
	bottom: "id_res4a_branch2a"
	top: "id_res4a_branch2a"
	name: "id_bn4a_branch2a"
	type: "BatchNorm"
	batch_norm_param {
		use_global_stats: true
	}
}

layer {
	bottom: "id_res4a_branch2a"
	top: "id_res4a_branch2a"
	name: "id_scale4a_branch2a"
	type: "Scale"
	scale_param {
		bias_term: true
	}
}

layer {
	top: "id_res4a_branch2a"
	bottom: "id_res4a_branch2a"
	name: "id_res4a_branch2a_relu"
	type: "ReLU"
}

layer {
	bottom: "id_res4a_branch2a"
	top: "id_res4a_branch2b"
	name: "id_res4a_branch2b"
	type: "Convolution"
	convolution_param {
		num_output: 256
		kernel_size: 3
		pad: 1
		stride: 1
		bias_term: false
	}
}

layer {
	bottom: "id_res4a_branch2b"
	top: "id_res4a_branch2b"
	name: "id_bn4a_branch2b"
	type: "BatchNorm"
	batch_norm_param {
		use_global_stats: true
	}
}

layer {
	bottom: "id_res4a_branch2b"
	top: "id_res4a_branch2b"
	name: "id_scale4a_branch2b"
	type: "Scale"
	scale_param {
		bias_term: true
	}
}

layer {
	top: "id_res4a_branch2b"
	bottom: "id_res4a_branch2b"
	name: "id_res4a_branch2b_relu"
	type: "ReLU"
}

layer {
	bottom: "id_res4a_branch2b"
	top: "id_res4a_branch2c"
	name: "id_res4a_branch2c"
	type: "Convolution"
	convolution_param {
		num_output: 1024
		kernel_size: 1
		pad: 0
		stride: 1
		bias_term: false
	}
}

layer {
	bottom: "id_res4a_branch2c"
	top: "id_res4a_branch2c"
	name: "id_bn4a_branch2c"
	type: "BatchNorm"
	batch_norm_param {
		use_global_stats: true
	}
}

layer {
	bottom: "id_res4a_branch2c"
	top: "id_res4a_branch2c"
	name: "id_scale4a_branch2c"
	type: "Scale"
	scale_param {
		bias_term: true
	}
}

layer {
	bottom: "id_res4a_branch1"
	bottom: "id_res4a_branch2c"
	top: "id_res4a"
	name: "id_res4a"
	type: "Eltwise"
}

layer {
	bottom: "id_res4a"
	top: "id_res4a"
	name: "id_res4a_relu"
	type: "ReLU"
}

layer {
	bottom: "id_res4a"
	top: "id_res4b1_branch2a"
	name: "id_res4b1_branch2a"
	type: "Convolution"
	convolution_param {
		num_output: 256
		kernel_size: 1
		pad: 0
		stride: 1
		bias_term: false
	}
}

layer {
	bottom: "id_res4b1_branch2a"
	top: "id_res4b1_branch2a"
	name: "id_bn4b1_branch2a"
	type: "BatchNorm"
	batch_norm_param {
		use_global_stats: true
	}
}

layer {
	bottom: "id_res4b1_branch2a"
	top: "id_res4b1_branch2a"
	name: "id_scale4b1_branch2a"
	type: "Scale"
	scale_param {
		bias_term: true
	}
}

layer {
	top: "id_res4b1_branch2a"
	bottom: "id_res4b1_branch2a"
	name: "id_res4b1_branch2a_relu"
	type: "ReLU"
}

layer {
	bottom: "id_res4b1_branch2a"
	top: "id_res4b1_branch2b"
	name: "id_res4b1_branch2b"
	type: "Convolution"
	convolution_param {
		num_output: 256
		kernel_size: 3
		pad: 1
		stride: 1
		bias_term: false
	}
}

layer {
	bottom: "id_res4b1_branch2b"
	top: "id_res4b1_branch2b"
	name: "id_bn4b1_branch2b"
	type: "BatchNorm"
	batch_norm_param {
		use_global_stats: true
	}
}

layer {
	bottom: "id_res4b1_branch2b"
	top: "id_res4b1_branch2b"
	name: "id_scale4b1_branch2b"
	type: "Scale"
	scale_param {
		bias_term: true
	}
}

layer {
	top: "id_res4b1_branch2b"
	bottom: "id_res4b1_branch2b"
	name: "id_res4b1_branch2b_relu"
	type: "ReLU"
}

layer {
	bottom: "id_res4b1_branch2b"
	top: "id_res4b1_branch2c"
	name: "id_res4b1_branch2c"
	type: "Convolution"
	convolution_param {
		num_output: 1024
		kernel_size: 1
		pad: 0
		stride: 1
		bias_term: false
	}
}

layer {
	bottom: "id_res4b1_branch2c"
	top: "id_res4b1_branch2c"
	name: "id_bn4b1_branch2c"
	type: "BatchNorm"
	batch_norm_param {
		use_global_stats: true
	}
}

layer {
	bottom: "id_res4b1_branch2c"
	top: "id_res4b1_branch2c"
	name: "id_scale4b1_branch2c"
	type: "Scale"
	scale_param {
		bias_term: true
	}
}

layer {
	bottom: "id_res4a"
	bottom: "id_res4b1_branch2c"
	top: "id_res4b1"
	name: "id_res4b1"
	type: "Eltwise"
}

layer {
	bottom: "id_res4b1"
	top: "id_res4b1"
	name: "id_res4b1_relu"
	type: "ReLU"
}

layer {
	bottom: "id_res4b1"
	top: "id_res4b2_branch2a"
	name: "id_res4b2_branch2a"
	type: "Convolution"
	convolution_param {
		num_output: 256
		kernel_size: 1
		pad: 0
		stride: 1
		bias_term: false
	}
}

layer {
	bottom: "id_res4b2_branch2a"
	top: "id_res4b2_branch2a"
	name: "id_bn4b2_branch2a"
	type: "BatchNorm"
	batch_norm_param {
		use_global_stats: true
	}
}

layer {
	bottom: "id_res4b2_branch2a"
	top: "id_res4b2_branch2a"
	name: "id_scale4b2_branch2a"
	type: "Scale"
	scale_param {
		bias_term: true
	}
}

layer {
	top: "id_res4b2_branch2a"
	bottom: "id_res4b2_branch2a"
	name: "id_res4b2_branch2a_relu"
	type: "ReLU"
}

layer {
	bottom: "id_res4b2_branch2a"
	top: "id_res4b2_branch2b"
	name: "id_res4b2_branch2b"
	type: "Convolution"
	convolution_param {
		num_output: 256
		kernel_size: 3
		pad: 1
		stride: 1
		bias_term: false
	}
}

layer {
	bottom: "id_res4b2_branch2b"
	top: "id_res4b2_branch2b"
	name: "id_bn4b2_branch2b"
	type: "BatchNorm"
	batch_norm_param {
		use_global_stats: true
	}
}

layer {
	bottom: "id_res4b2_branch2b"
	top: "id_res4b2_branch2b"
	name: "id_scale4b2_branch2b"
	type: "Scale"
	scale_param {
		bias_term: true
	}
}

layer {
	top: "id_res4b2_branch2b"
	bottom: "id_res4b2_branch2b"
	name: "id_res4b2_branch2b_relu"
	type: "ReLU"
}

layer {
	bottom: "id_res4b2_branch2b"
	top: "id_res4b2_branch2c"
	name: "id_res4b2_branch2c"
	type: "Convolution"
	convolution_param {
		num_output: 1024
		kernel_size: 1
		pad: 0
		stride: 1
		bias_term: false
	}
}

layer {
	bottom: "id_res4b2_branch2c"
	top: "id_res4b2_branch2c"
	name: "id_bn4b2_branch2c"
	type: "BatchNorm"
	batch_norm_param {
		use_global_stats: true
	}
}

layer {
	bottom: "id_res4b2_branch2c"
	top: "id_res4b2_branch2c"
	name: "id_scale4b2_branch2c"
	type: "Scale"
	scale_param {
		bias_term: true
	}
}

layer {
	bottom: "id_res4b1"
	bottom: "id_res4b2_branch2c"
	top: "id_res4b2"
	name: "id_res4b2"
	type: "Eltwise"
}

layer {
	bottom: "id_res4b2"
	top: "id_res4b2"
	name: "id_res4b2_relu"
	type: "ReLU"
}

layer {
	bottom: "id_res4b2"
	top: "id_res4b3_branch2a"
	name: "id_res4b3_branch2a"
	type: "Convolution"
	convolution_param {
		num_output: 256
		kernel_size: 1
		pad: 0
		stride: 1
		bias_term: false
	}
}

layer {
	bottom: "id_res4b3_branch2a"
	top: "id_res4b3_branch2a"
	name: "id_bn4b3_branch2a"
	type: "BatchNorm"
	batch_norm_param {
		use_global_stats: true
	}
}

layer {
	bottom: "id_res4b3_branch2a"
	top: "id_res4b3_branch2a"
	name: "id_scale4b3_branch2a"
	type: "Scale"
	scale_param {
		bias_term: true
	}
}

layer {
	top: "id_res4b3_branch2a"
	bottom: "id_res4b3_branch2a"
	name: "id_res4b3_branch2a_relu"
	type: "ReLU"
}

layer {
	bottom: "id_res4b3_branch2a"
	top: "id_res4b3_branch2b"
	name: "id_res4b3_branch2b"
	type: "Convolution"
	convolution_param {
		num_output: 256
		kernel_size: 3
		pad: 1
		stride: 1
		bias_term: false
	}
}

layer {
	bottom: "id_res4b3_branch2b"
	top: "id_res4b3_branch2b"
	name: "id_bn4b3_branch2b"
	type: "BatchNorm"
	batch_norm_param {
		use_global_stats: true
	}
}

layer {
	bottom: "id_res4b3_branch2b"
	top: "id_res4b3_branch2b"
	name: "id_scale4b3_branch2b"
	type: "Scale"
	scale_param {
		bias_term: true
	}
}

layer {
	top: "id_res4b3_branch2b"
	bottom: "id_res4b3_branch2b"
	name: "id_res4b3_branch2b_relu"
	type: "ReLU"
}

layer {
	bottom: "id_res4b3_branch2b"
	top: "id_res4b3_branch2c"
	name: "id_res4b3_branch2c"
	type: "Convolution"
	convolution_param {
		num_output: 1024
		kernel_size: 1
		pad: 0
		stride: 1
		bias_term: false
	}
}

layer {
	bottom: "id_res4b3_branch2c"
	top: "id_res4b3_branch2c"
	name: "id_bn4b3_branch2c"
	type: "BatchNorm"
	batch_norm_param {
		use_global_stats: true
	}
}

layer {
	bottom: "id_res4b3_branch2c"
	top: "id_res4b3_branch2c"
	name: "id_scale4b3_branch2c"
	type: "Scale"
	scale_param {
		bias_term: true
	}
}

layer {
	bottom: "id_res4b2"
	bottom: "id_res4b3_branch2c"
	top: "id_res4b3"
	name: "id_res4b3"
	type: "Eltwise"
}

layer {
	bottom: "id_res4b3"
	top: "id_res4b3"
	name: "id_res4b3_relu"
	type: "ReLU"
}

layer {
	bottom: "id_res4b3"
	top: "id_res4b4_branch2a"
	name: "id_res4b4_branch2a"
	type: "Convolution"
	convolution_param {
		num_output: 256
		kernel_size: 1
		pad: 0
		stride: 1
		bias_term: false
	}
}

layer {
	bottom: "id_res4b4_branch2a"
	top: "id_res4b4_branch2a"
	name: "id_bn4b4_branch2a"
	type: "BatchNorm"
	batch_norm_param {
		use_global_stats: true
	}
}

layer {
	bottom: "id_res4b4_branch2a"
	top: "id_res4b4_branch2a"
	name: "id_scale4b4_branch2a"
	type: "Scale"
	scale_param {
		bias_term: true
	}
}

layer {
	top: "id_res4b4_branch2a"
	bottom: "id_res4b4_branch2a"
	name: "id_res4b4_branch2a_relu"
	type: "ReLU"
}

layer {
	bottom: "id_res4b4_branch2a"
	top: "id_res4b4_branch2b"
	name: "id_res4b4_branch2b"
	type: "Convolution"
	convolution_param {
		num_output: 256
		kernel_size: 3
		pad: 1
		stride: 1
		bias_term: false
	}
}

layer {
	bottom: "id_res4b4_branch2b"
	top: "id_res4b4_branch2b"
	name: "id_bn4b4_branch2b"
	type: "BatchNorm"
	batch_norm_param {
		use_global_stats: true
	}
}

layer {
	bottom: "id_res4b4_branch2b"
	top: "id_res4b4_branch2b"
	name: "id_scale4b4_branch2b"
	type: "Scale"
	scale_param {
		bias_term: true
	}
}

layer {
	top: "id_res4b4_branch2b"
	bottom: "id_res4b4_branch2b"
	name: "id_res4b4_branch2b_relu"
	type: "ReLU"
}

layer {
	bottom: "id_res4b4_branch2b"
	top: "id_res4b4_branch2c"
	name: "id_res4b4_branch2c"
	type: "Convolution"
	convolution_param {
		num_output: 1024
		kernel_size: 1
		pad: 0
		stride: 1
		bias_term: false
	}
}

layer {
	bottom: "id_res4b4_branch2c"
	top: "id_res4b4_branch2c"
	name: "id_bn4b4_branch2c"
	type: "BatchNorm"
	batch_norm_param {
		use_global_stats: true
	}
}

layer {
	bottom: "id_res4b4_branch2c"
	top: "id_res4b4_branch2c"
	name: "id_scale4b4_branch2c"
	type: "Scale"
	scale_param {
		bias_term: true
	}
}

layer {
	bottom: "id_res4b3"
	bottom: "id_res4b4_branch2c"
	top: "id_res4b4"
	name: "id_res4b4"
	type: "Eltwise"
}

layer {
	bottom: "id_res4b4"
	top: "id_res4b4"
	name: "id_res4b4_relu"
	type: "ReLU"
}

layer {
	bottom: "id_res4b4"
	top: "id_res4b5_branch2a"
	name: "id_res4b5_branch2a"
	type: "Convolution"
	convolution_param {
		num_output: 256
		kernel_size: 1
		pad: 0
		stride: 1
		bias_term: false
	}
}

layer {
	bottom: "id_res4b5_branch2a"
	top: "id_res4b5_branch2a"
	name: "id_bn4b5_branch2a"
	type: "BatchNorm"
	batch_norm_param {
		use_global_stats: true
	}
}

layer {
	bottom: "id_res4b5_branch2a"
	top: "id_res4b5_branch2a"
	name: "id_scale4b5_branch2a"
	type: "Scale"
	scale_param {
		bias_term: true
	}
}

layer {
	top: "id_res4b5_branch2a"
	bottom: "id_res4b5_branch2a"
	name: "id_res4b5_branch2a_relu"
	type: "ReLU"
}

layer {
	bottom: "id_res4b5_branch2a"
	top: "id_res4b5_branch2b"
	name: "id_res4b5_branch2b"
	type: "Convolution"
	convolution_param {
		num_output: 256
		kernel_size: 3
		pad: 1
		stride: 1
		bias_term: false
	}
}

layer {
	bottom: "id_res4b5_branch2b"
	top: "id_res4b5_branch2b"
	name: "id_bn4b5_branch2b"
	type: "BatchNorm"
	batch_norm_param {
		use_global_stats: true
	}
}

layer {
	bottom: "id_res4b5_branch2b"
	top: "id_res4b5_branch2b"
	name: "id_scale4b5_branch2b"
	type: "Scale"
	scale_param {
		bias_term: true
	}
}

layer {
	top: "id_res4b5_branch2b"
	bottom: "id_res4b5_branch2b"
	name: "id_res4b5_branch2b_relu"
	type: "ReLU"
}

layer {
	bottom: "id_res4b5_branch2b"
	top: "id_res4b5_branch2c"
	name: "id_res4b5_branch2c"
	type: "Convolution"
	convolution_param {
		num_output: 1024
		kernel_size: 1
		pad: 0
		stride: 1
		bias_term: false
	}
}

layer {
	bottom: "id_res4b5_branch2c"
	top: "id_res4b5_branch2c"
	name: "id_bn4b5_branch2c"
	type: "BatchNorm"
	batch_norm_param {
		use_global_stats: true
	}
}

layer {
	bottom: "id_res4b5_branch2c"
	top: "id_res4b5_branch2c"
	name: "id_scale4b5_branch2c"
	type: "Scale"
	scale_param {
		bias_term: true
	}
}

layer {
	bottom: "id_res4b4"
	bottom: "id_res4b5_branch2c"
	top: "id_res4b5"
	name: "id_res4b5"
	type: "Eltwise"
}

layer {
	bottom: "id_res4b5"
	top: "id_res4b5"
	name: "id_res4b5_relu"
	type: "ReLU"
}

layer {
	bottom: "id_res4b5"
	top: "id_res4b6_branch2a"
	name: "id_res4b6_branch2a"
	type: "Convolution"
	convolution_param {
		num_output: 256
		kernel_size: 1
		pad: 0
		stride: 1
		bias_term: false
	}
}

layer {
	bottom: "id_res4b6_branch2a"
	top: "id_res4b6_branch2a"
	name: "id_bn4b6_branch2a"
	type: "BatchNorm"
	batch_norm_param {
		use_global_stats: true
	}
}

layer {
	bottom: "id_res4b6_branch2a"
	top: "id_res4b6_branch2a"
	name: "id_scale4b6_branch2a"
	type: "Scale"
	scale_param {
		bias_term: true
	}
}

layer {
	top: "id_res4b6_branch2a"
	bottom: "id_res4b6_branch2a"
	name: "id_res4b6_branch2a_relu"
	type: "ReLU"
}

layer {
	bottom: "id_res4b6_branch2a"
	top: "id_res4b6_branch2b"
	name: "id_res4b6_branch2b"
	type: "Convolution"
	convolution_param {
		num_output: 256
		kernel_size: 3
		pad: 1
		stride: 1
		bias_term: false
	}
}

layer {
	bottom: "id_res4b6_branch2b"
	top: "id_res4b6_branch2b"
	name: "id_bn4b6_branch2b"
	type: "BatchNorm"
	batch_norm_param {
		use_global_stats: true
	}
}

layer {
	bottom: "id_res4b6_branch2b"
	top: "id_res4b6_branch2b"
	name: "id_scale4b6_branch2b"
	type: "Scale"
	scale_param {
		bias_term: true
	}
}

layer {
	top: "id_res4b6_branch2b"
	bottom: "id_res4b6_branch2b"
	name: "id_res4b6_branch2b_relu"
	type: "ReLU"
}

layer {
	bottom: "id_res4b6_branch2b"
	top: "id_res4b6_branch2c"
	name: "id_res4b6_branch2c"
	type: "Convolution"
	convolution_param {
		num_output: 1024
		kernel_size: 1
		pad: 0
		stride: 1
		bias_term: false
	}
}

layer {
	bottom: "id_res4b6_branch2c"
	top: "id_res4b6_branch2c"
	name: "id_bn4b6_branch2c"
	type: "BatchNorm"
	batch_norm_param {
		use_global_stats: true
	}
}

layer {
	bottom: "id_res4b6_branch2c"
	top: "id_res4b6_branch2c"
	name: "id_scale4b6_branch2c"
	type: "Scale"
	scale_param {
		bias_term: true
	}
}

layer {
	bottom: "id_res4b5"
	bottom: "id_res4b6_branch2c"
	top: "id_res4b6"
	name: "id_res4b6"
	type: "Eltwise"
}

layer {
	bottom: "id_res4b6"
	top: "id_res4b6"
	name: "id_res4b6_relu"
	type: "ReLU"
}

layer {
	bottom: "id_res4b6"
	top: "id_res4b7_branch2a"
	name: "id_res4b7_branch2a"
	type: "Convolution"
	convolution_param {
		num_output: 256
		kernel_size: 1
		pad: 0
		stride: 1
		bias_term: false
	}
}

layer {
	bottom: "id_res4b7_branch2a"
	top: "id_res4b7_branch2a"
	name: "id_bn4b7_branch2a"
	type: "BatchNorm"
	batch_norm_param {
		use_global_stats: true
	}
}

layer {
	bottom: "id_res4b7_branch2a"
	top: "id_res4b7_branch2a"
	name: "id_scale4b7_branch2a"
	type: "Scale"
	scale_param {
		bias_term: true
	}
}

layer {
	top: "id_res4b7_branch2a"
	bottom: "id_res4b7_branch2a"
	name: "id_res4b7_branch2a_relu"
	type: "ReLU"
}

layer {
	bottom: "id_res4b7_branch2a"
	top: "id_res4b7_branch2b"
	name: "id_res4b7_branch2b"
	type: "Convolution"
	convolution_param {
		num_output: 256
		kernel_size: 3
		pad: 1
		stride: 1
		bias_term: false
	}
}

layer {
	bottom: "id_res4b7_branch2b"
	top: "id_res4b7_branch2b"
	name: "id_bn4b7_branch2b"
	type: "BatchNorm"
	batch_norm_param {
		use_global_stats: true
	}
}

layer {
	bottom: "id_res4b7_branch2b"
	top: "id_res4b7_branch2b"
	name: "id_scale4b7_branch2b"
	type: "Scale"
	scale_param {
		bias_term: true
	}
}

layer {
	top: "id_res4b7_branch2b"
	bottom: "id_res4b7_branch2b"
	name: "id_res4b7_branch2b_relu"
	type: "ReLU"
}

layer {
	bottom: "id_res4b7_branch2b"
	top: "id_res4b7_branch2c"
	name: "id_res4b7_branch2c"
	type: "Convolution"
	convolution_param {
		num_output: 1024
		kernel_size: 1
		pad: 0
		stride: 1
		bias_term: false
	}
}

layer {
	bottom: "id_res4b7_branch2c"
	top: "id_res4b7_branch2c"
	name: "id_bn4b7_branch2c"
	type: "BatchNorm"
	batch_norm_param {
		use_global_stats: true
	}
}

layer {
	bottom: "id_res4b7_branch2c"
	top: "id_res4b7_branch2c"
	name: "id_scale4b7_branch2c"
	type: "Scale"
	scale_param {
		bias_term: true
	}
}

layer {
	bottom: "id_res4b6"
	bottom: "id_res4b7_branch2c"
	top: "id_res4b7"
	name: "id_res4b7"
	type: "Eltwise"
}

layer {
	bottom: "id_res4b7"
	top: "id_res4b7"
	name: "id_res4b7_relu"
	type: "ReLU"
}

layer {
	bottom: "id_res4b7"
	top: "id_res4b8_branch2a"
	name: "id_res4b8_branch2a"
	type: "Convolution"
	convolution_param {
		num_output: 256
		kernel_size: 1
		pad: 0
		stride: 1
		bias_term: false
	}
}

layer {
	bottom: "id_res4b8_branch2a"
	top: "id_res4b8_branch2a"
	name: "id_bn4b8_branch2a"
	type: "BatchNorm"
	batch_norm_param {
		use_global_stats: true
	}
}

layer {
	bottom: "id_res4b8_branch2a"
	top: "id_res4b8_branch2a"
	name: "id_scale4b8_branch2a"
	type: "Scale"
	scale_param {
		bias_term: true
	}
}

layer {
	top: "id_res4b8_branch2a"
	bottom: "id_res4b8_branch2a"
	name: "id_res4b8_branch2a_relu"
	type: "ReLU"
}

layer {
	bottom: "id_res4b8_branch2a"
	top: "id_res4b8_branch2b"
	name: "id_res4b8_branch2b"
	type: "Convolution"
	convolution_param {
		num_output: 256
		kernel_size: 3
		pad: 1
		stride: 1
		bias_term: false
	}
}

layer {
	bottom: "id_res4b8_branch2b"
	top: "id_res4b8_branch2b"
	name: "id_bn4b8_branch2b"
	type: "BatchNorm"
	batch_norm_param {
		use_global_stats: true
	}
}

layer {
	bottom: "id_res4b8_branch2b"
	top: "id_res4b8_branch2b"
	name: "id_scale4b8_branch2b"
	type: "Scale"
	scale_param {
		bias_term: true
	}
}

layer {
	top: "id_res4b8_branch2b"
	bottom: "id_res4b8_branch2b"
	name: "id_res4b8_branch2b_relu"
	type: "ReLU"
}

layer {
	bottom: "id_res4b8_branch2b"
	top: "id_res4b8_branch2c"
	name: "id_res4b8_branch2c"
	type: "Convolution"
	convolution_param {
		num_output: 1024
		kernel_size: 1
		pad: 0
		stride: 1
		bias_term: false
	}
}

layer {
	bottom: "id_res4b8_branch2c"
	top: "id_res4b8_branch2c"
	name: "id_bn4b8_branch2c"
	type: "BatchNorm"
	batch_norm_param {
		use_global_stats: true
	}
}

layer {
	bottom: "id_res4b8_branch2c"
	top: "id_res4b8_branch2c"
	name: "id_scale4b8_branch2c"
	type: "Scale"
	scale_param {
		bias_term: true
	}
}

layer {
	bottom: "id_res4b7"
	bottom: "id_res4b8_branch2c"
	top: "id_res4b8"
	name: "id_res4b8"
	type: "Eltwise"
}

layer {
	bottom: "id_res4b8"
	top: "id_res4b8"
	name: "id_res4b8_relu"
	type: "ReLU"
}

layer {
	bottom: "id_res4b8"
	top: "id_res4b9_branch2a"
	name: "id_res4b9_branch2a"
	type: "Convolution"
	convolution_param {
		num_output: 256
		kernel_size: 1
		pad: 0
		stride: 1
		bias_term: false
	}
}

layer {
	bottom: "id_res4b9_branch2a"
	top: "id_res4b9_branch2a"
	name: "id_bn4b9_branch2a"
	type: "BatchNorm"
	batch_norm_param {
		use_global_stats: true
	}
}

layer {
	bottom: "id_res4b9_branch2a"
	top: "id_res4b9_branch2a"
	name: "id_scale4b9_branch2a"
	type: "Scale"
	scale_param {
		bias_term: true
	}
}

layer {
	top: "id_res4b9_branch2a"
	bottom: "id_res4b9_branch2a"
	name: "id_res4b9_branch2a_relu"
	type: "ReLU"
}

layer {
	bottom: "id_res4b9_branch2a"
	top: "id_res4b9_branch2b"
	name: "id_res4b9_branch2b"
	type: "Convolution"
	convolution_param {
		num_output: 256
		kernel_size: 3
		pad: 1
		stride: 1
		bias_term: false
	}
}

layer {
	bottom: "id_res4b9_branch2b"
	top: "id_res4b9_branch2b"
	name: "id_bn4b9_branch2b"
	type: "BatchNorm"
	batch_norm_param {
		use_global_stats: true
	}
}

layer {
	bottom: "id_res4b9_branch2b"
	top: "id_res4b9_branch2b"
	name: "id_scale4b9_branch2b"
	type: "Scale"
	scale_param {
		bias_term: true
	}
}

layer {
	top: "id_res4b9_branch2b"
	bottom: "id_res4b9_branch2b"
	name: "id_res4b9_branch2b_relu"
	type: "ReLU"
}

layer {
	bottom: "id_res4b9_branch2b"
	top: "id_res4b9_branch2c"
	name: "id_res4b9_branch2c"
	type: "Convolution"
	convolution_param {
		num_output: 1024
		kernel_size: 1
		pad: 0
		stride: 1
		bias_term: false
	}
}

layer {
	bottom: "id_res4b9_branch2c"
	top: "id_res4b9_branch2c"
	name: "id_bn4b9_branch2c"
	type: "BatchNorm"
	batch_norm_param {
		use_global_stats: true
	}
}

layer {
	bottom: "id_res4b9_branch2c"
	top: "id_res4b9_branch2c"
	name: "id_scale4b9_branch2c"
	type: "Scale"
	scale_param {
		bias_term: true
	}
}

layer {
	bottom: "id_res4b8"
	bottom: "id_res4b9_branch2c"
	top: "id_res4b9"
	name: "id_res4b9"
	type: "Eltwise"
}

layer {
	bottom: "id_res4b9"
	top: "id_res4b9"
	name: "id_res4b9_relu"
	type: "ReLU"
}

layer {
	bottom: "id_res4b9"
	top: "id_res4b10_branch2a"
	name: "id_res4b10_branch2a"
	type: "Convolution"
	convolution_param {
		num_output: 256
		kernel_size: 1
		pad: 0
		stride: 1
		bias_term: false
	}
}

layer {
	bottom: "id_res4b10_branch2a"
	top: "id_res4b10_branch2a"
	name: "id_bn4b10_branch2a"
	type: "BatchNorm"
	batch_norm_param {
		use_global_stats: true
	}
}

layer {
	bottom: "id_res4b10_branch2a"
	top: "id_res4b10_branch2a"
	name: "id_scale4b10_branch2a"
	type: "Scale"
	scale_param {
		bias_term: true
	}
}

layer {
	top: "id_res4b10_branch2a"
	bottom: "id_res4b10_branch2a"
	name: "id_res4b10_branch2a_relu"
	type: "ReLU"
}

layer {
	bottom: "id_res4b10_branch2a"
	top: "id_res4b10_branch2b"
	name: "id_res4b10_branch2b"
	type: "Convolution"
	convolution_param {
		num_output: 256
		kernel_size: 3
		pad: 1
		stride: 1
		bias_term: false
	}
}

layer {
	bottom: "id_res4b10_branch2b"
	top: "id_res4b10_branch2b"
	name: "id_bn4b10_branch2b"
	type: "BatchNorm"
	batch_norm_param {
		use_global_stats: true
	}
}

layer {
	bottom: "id_res4b10_branch2b"
	top: "id_res4b10_branch2b"
	name: "id_scale4b10_branch2b"
	type: "Scale"
	scale_param {
		bias_term: true
	}
}

layer {
	top: "id_res4b10_branch2b"
	bottom: "id_res4b10_branch2b"
	name: "id_res4b10_branch2b_relu"
	type: "ReLU"
}

layer {
	bottom: "id_res4b10_branch2b"
	top: "id_res4b10_branch2c"
	name: "id_res4b10_branch2c"
	type: "Convolution"
	convolution_param {
		num_output: 1024
		kernel_size: 1
		pad: 0
		stride: 1
		bias_term: false
	}
}

layer {
	bottom: "id_res4b10_branch2c"
	top: "id_res4b10_branch2c"
	name: "id_bn4b10_branch2c"
	type: "BatchNorm"
	batch_norm_param {
		use_global_stats: true
	}
}

layer {
	bottom: "id_res4b10_branch2c"
	top: "id_res4b10_branch2c"
	name: "id_scale4b10_branch2c"
	type: "Scale"
	scale_param {
		bias_term: true
	}
}

layer {
	bottom: "id_res4b9"
	bottom: "id_res4b10_branch2c"
	top: "id_res4b10"
	name: "id_res4b10"
	type: "Eltwise"
}

layer {
	bottom: "id_res4b10"
	top: "id_res4b10"
	name: "id_res4b10_relu"
	type: "ReLU"
}

layer {
	bottom: "id_res4b10"
	top: "id_res4b11_branch2a"
	name: "id_res4b11_branch2a"
	type: "Convolution"
	convolution_param {
		num_output: 256
		kernel_size: 1
		pad: 0
		stride: 1
		bias_term: false
	}
}

layer {
	bottom: "id_res4b11_branch2a"
	top: "id_res4b11_branch2a"
	name: "id_bn4b11_branch2a"
	type: "BatchNorm"
	batch_norm_param {
		use_global_stats: true
	}
}

layer {
	bottom: "id_res4b11_branch2a"
	top: "id_res4b11_branch2a"
	name: "id_scale4b11_branch2a"
	type: "Scale"
	scale_param {
		bias_term: true
	}
}

layer {
	top: "id_res4b11_branch2a"
	bottom: "id_res4b11_branch2a"
	name: "id_res4b11_branch2a_relu"
	type: "ReLU"
}

layer {
	bottom: "id_res4b11_branch2a"
	top: "id_res4b11_branch2b"
	name: "id_res4b11_branch2b"
	type: "Convolution"
	convolution_param {
		num_output: 256
		kernel_size: 3
		pad: 1
		stride: 1
		bias_term: false
	}
}

layer {
	bottom: "id_res4b11_branch2b"
	top: "id_res4b11_branch2b"
	name: "id_bn4b11_branch2b"
	type: "BatchNorm"
	batch_norm_param {
		use_global_stats: true
	}
}

layer {
	bottom: "id_res4b11_branch2b"
	top: "id_res4b11_branch2b"
	name: "id_scale4b11_branch2b"
	type: "Scale"
	scale_param {
		bias_term: true
	}
}

layer {
	top: "id_res4b11_branch2b"
	bottom: "id_res4b11_branch2b"
	name: "id_res4b11_branch2b_relu"
	type: "ReLU"
}

layer {
	bottom: "id_res4b11_branch2b"
	top: "id_res4b11_branch2c"
	name: "id_res4b11_branch2c"
	type: "Convolution"
	convolution_param {
		num_output: 1024
		kernel_size: 1
		pad: 0
		stride: 1
		bias_term: false
	}
}

layer {
	bottom: "id_res4b11_branch2c"
	top: "id_res4b11_branch2c"
	name: "id_bn4b11_branch2c"
	type: "BatchNorm"
	batch_norm_param {
		use_global_stats: true
	}
}

layer {
	bottom: "id_res4b11_branch2c"
	top: "id_res4b11_branch2c"
	name: "id_scale4b11_branch2c"
	type: "Scale"
	scale_param {
		bias_term: true
	}
}

layer {
	bottom: "id_res4b10"
	bottom: "id_res4b11_branch2c"
	top: "id_res4b11"
	name: "id_res4b11"
	type: "Eltwise"
}

layer {
	bottom: "id_res4b11"
	top: "id_res4b11"
	name: "id_res4b11_relu"
	type: "ReLU"
}

layer {
	bottom: "id_res4b11"
	top: "id_res4b12_branch2a"
	name: "id_res4b12_branch2a"
	type: "Convolution"
	convolution_param {
		num_output: 256
…
	bottom: "id_res4b16_branch2a"
	top: "id_res4b16_branch2b"
	name: "id_res4b16_branch2b"
	type: "Convolution"
	convolution_param {
		num_output: 256
		kernel_size: 3
		pad: 1
		stride: 1
		bias_term: false
	}
}

layer {
	bottom: "id_res4b16_branch2b"
	top: "id_res4b16_branch2b"
	name: "id_bn4b16_branch2b"
	type: "BatchNorm"
	batch_norm_param {
		use_global_stats: true
	}
}

layer {
	bottom: "id_res4b16_branch2b"
	top: "id_res4b16_branch2b"
	name: "id_scale4b16_branch2b"
	type: "Scale"
	scale_param {
		bias_term: true
	}
}

layer {
	top: "id_res4b16_branch2b"
	bottom: "id_res4b16_branch2b"
	name: "id_res4b16_branch2b_relu"
	type: "ReLU"
}

layer {
	bottom: "id_res4b16_branch2b"
	top: "id_res4b16_branch2c"
	name: "id_res4b16_branch2c"
	type: "Convolution"
	convolution_param {
		num_output: 1024
		kernel_size: 1
		pad: 0
		stride: 1
		bias_term: false
	}
}

layer {
	bottom: "id_res4b16_branch2c"
	top: "id_res4b16_branch2c"
	name: "id_bn4b16_branch2c"
	type: "BatchNorm"
	batch_norm_param {
		use_global_stats: true
	}
}

layer {
	bottom: "id_res4b16_branch2c"
	top: "id_res4b16_branch2c"
	name: "id_scale4b16_branch2c"
	type: "Scale"
	scale_param {
		bias_term: true
	}
}

layer {
	bottom: "id_res4b15"
	bottom: "id_res4b16_branch2c"
	top: "id_res4b16"
	name: "id_res4b16"
	type: "Eltwise"
}

layer {
	bottom: "id_res4b16"
	top: "id_res4b16"
	name: "id_res4b16_relu"
	type: "ReLU"
}

layer {
	bottom: "id_res4b16"
	top: "id_res4b17_branch2a"
	name: "id_res4b17_branch2a"
	type: "Convolution"
	convolution_param {
		num_output: 256
		kernel_size: 1
		pad: 0
		stride: 1
		bias_term: false
	}
}

layer {
	bottom: "id_res4b17_branch2a"
	top: "id_res4b17_branch2a"
	name: "id_bn4b17_branch2a"
	type: "BatchNorm"
	batch_norm_param {
		use_global_stats: true
	}
}

layer {
	bottom: "id_res4b17_branch2a"
	top: "id_res4b17_branch2a"
	name: "id_scale4b17_branch2a"
	type: "Scale"
	scale_param {
		bias_term: true
	}
}

layer {
	top: "id_res4b17_branch2a"
	bottom: "id_res4b17_branch2a"
	name: "id_res4b17_branch2a_relu"
	type: "ReLU"
}

layer {
	bottom: "id_res4b17_branch2a"
	top: "id_res4b17_branch2b"
	name: "id_res4b17_branch2b"
	type: "Convolution"
	convolution_param {
		num_output: 256
		kernel_size: 3
		pad: 1
		stride: 1
		bias_term: false
	}
}

layer {
	bottom: "id_res4b17_branch2b"
	top: "id_res4b17_branch2b"
	name: "id_bn4b17_branch2b"
	type: "BatchNorm"
	batch_norm_param {
		use_global_stats: true
	}
}

layer {
	bottom: "id_res4b17_branch2b"
	top: "id_res4b17_branch2b"
	name: "id_scale4b17_branch2b"
	type: "Scale"
	scale_param {
		bias_term: true
	}
}

layer {
	top: "id_res4b17_branch2b"
	bottom: "id_res4b17_branch2b"
	name: "id_res4b17_branch2b_relu"
	type: "ReLU"
}

layer {
	bottom: "id_res4b17_branch2b"
	top: "id_res4b17_branch2c"
	name: "id_res4b17_branch2c"
	type: "Convolution"
	convolution_param {
		num_output: 1024
		kernel_size: 1
		pad: 0
		stride: 1
		bias_term: false
	}
}

layer {
	bottom: "id_res4b17_branch2c"
	top: "id_res4b17_branch2c"
	name: "id_bn4b17_branch2c"
	type: "BatchNorm"
	batch_norm_param {
		use_global_stats: true
	}
}

layer {
	bottom: "id_res4b17_branch2c"
	top: "id_res4b17_branch2c"
	name: "id_scale4b17_branch2c"
	type: "Scale"
	scale_param {
		bias_term: true
	}
}

layer {
	bottom: "id_res4b16"
	bottom: "id_res4b17_branch2c"
	top: "id_res4b17"
	name: "id_res4b17"
	type: "Eltwise"
}

layer {
	bottom: "id_res4b17"
	top: "id_res4b17"
	name: "id_res4b17_relu"
	type: "ReLU"
}

layer {
	bottom: "id_res4b17"
	top: "id_res4b18_branch2a"
	name: "id_res4b18_branch2a"
	type: "Convolution"
	convolution_param {
		num_output: 256
		kernel_size: 1
		pad: 0
		stride: 1
		bias_term: false
	}
}

layer {
	bottom: "id_res4b18_branch2a"
	top: "id_res4b18_branch2a"
	name: "id_bn4b18_branch2a"
	type: "BatchNorm"
	batch_norm_param {
		use_global_stats: true
	}
}

layer {
	bottom: "id_res4b18_branch2a"
	top: "id_res4b18_branch2a"
	name: "id_scale4b18_branch2a"
	type: "Scale"
	scale_param {
		bias_term: true
	}
}

layer {
	top: "id_res4b18_branch2a"
	bottom: "id_res4b18_branch2a"
	name: "id_res4b18_branch2a_relu"
	type: "ReLU"
}

layer {
	bottom: "id_res4b18_branch2a"
	top: "id_res4b18_branch2b"
	name: "id_res4b18_branch2b"
	type: "Convolution"
	convolution_param {
		num_output: 256
		kernel_size: 3
		pad: 1
		stride: 1
		bias_term: false
	}
}

layer {
	bottom: "id_res4b18_branch2b"
	top: "id_res4b18_branch2b"
	name: "id_bn4b18_branch2b"
	type: "BatchNorm"
	batch_norm_param {
		use_global_stats: true
	}
}

layer {
	bottom: "id_res4b18_branch2b"
	top: "id_res4b18_branch2b"
	name: "id_scale4b18_branch2b"
	type: "Scale"
	scale_param {
		bias_term: true
	}
}

layer {
	top: "id_res4b18_branch2b"
	bottom: "id_res4b18_branch2b"
	name: "id_res4b18_branch2b_relu"
	type: "ReLU"
}

layer {
	bottom: "id_res4b18_branch2b"
	top: "id_res4b18_branch2c"
	name: "id_res4b18_branch2c"
	type: "Convolution"
	convolution_param {
		num_output: 1024
		kernel_size: 1
		pad: 0
		stride: 1
		bias_term: false
	}
}

layer {
	bottom: "id_res4b18_branch2c"
	top: "id_res4b18_branch2c"
	name: "id_bn4b18_branch2c"
	type: "BatchNorm"
	batch_norm_param {
		use_global_stats: true
	}
}

layer {
	bottom: "id_res4b18_branch2c"
	top: "id_res4b18_branch2c"
	name: "id_scale4b18_branch2c"
	type: "Scale"
	scale_param {
		bias_term: true
	}
}

layer {
	bottom: "id_res4b17"
	bottom: "id_res4b18_branch2c"
	top: "id_res4b18"
	name: "id_res4b18"
	type: "Eltwise"
}

layer {
	bottom: "id_res4b18"
	top: "id_res4b18"
	name: "id_res4b18_relu"
	type: "ReLU"
}

layer {
	bottom: "id_res4b18"
	top: "id_res4b19_branch2a"
	name: "id_res4b19_branch2a"
	type: "Convolution"
	convolution_param {
		num_output: 256
		kernel_size: 1
		pad: 0
		stride: 1
		bias_term: false
	}
}

layer {
	bottom: "id_res4b19_branch2a"
	top: "id_res4b19_branch2a"
	name: "id_bn4b19_branch2a"
	type: "BatchNorm"
	batch_norm_param {
		use_global_stats: true
	}
}

layer {
	bottom: "id_res4b19_branch2a"
	top: "id_res4b19_branch2a"
	name: "id_scale4b19_branch2a"
	type: "Scale"
	scale_param {
		bias_term: true
	}
}

layer {
	top: "id_res4b19_branch2a"
	bottom: "id_res4b19_branch2a"
	name: "id_res4b19_branch2a_relu"
	type: "ReLU"
}

layer {
	bottom: "id_res4b19_branch2a"
	top: "id_res4b19_branch2b"
	name: "id_res4b19_branch2b"
	type: "Convolution"
	convolution_param {
		num_output: 256
		kernel_size: 3
		pad: 1
		stride: 1
		bias_term: false
	}
}

layer {
	bottom: "id_res4b19_branch2b"
	top: "id_res4b19_branch2b"
	name: "id_bn4b19_branch2b"
	type: "BatchNorm"
	batch_norm_param {
		use_global_stats: true
	}
}

layer {
	bottom: "id_res4b19_branch2b"
	top: "id_res4b19_branch2b"
	name: "id_scale4b19_branch2b"
	type: "Scale"
	scale_param {
		bias_term: true
	}
}

layer {
	top: "id_res4b19_branch2b"
	bottom: "id_res4b19_branch2b"
	name: "id_res4b19_branch2b_relu"
	type: "ReLU"
}

layer {
	bottom: "id_res4b19_branch2b"
	top: "id_res4b19_branch2c"
	name: "id_res4b19_branch2c"
	type: "Convolution"
	convolution_param {
		num_output: 1024
		kernel_size: 1
		pad: 0
		stride: 1
		bias_term: false
	}
}

layer {
	bottom: "id_res4b19_branch2c"
	top: "id_res4b19_branch2c"
	name: "id_bn4b19_branch2c"
	type: "BatchNorm"
	batch_norm_param {
		use_global_stats: true
	}
}

layer {
	bottom: "id_res4b19_branch2c"
	top: "id_res4b19_branch2c"
	name: "id_scale4b19_branch2c"
	type: "Scale"
	scale_param {
		bias_term: true
	}
}

layer {
	bottom: "id_res4b18"
	bottom: "id_res4b19_branch2c"
	top: "id_res4b19"
	name: "id_res4b19"
	type: "Eltwise"
}

layer {
	bottom: "id_res4b19"
	top: "id_res4b19"
	name: "id_res4b19_relu"
	type: "ReLU"
}

layer {
	bottom: "id_res4b19"
	top: "id_res4b20_branch2a"
	name: "id_res4b20_branch2a"
	type: "Convolution"
	convolution_param {
		num_output: 256
		kernel_size: 1
		pad: 0
		stride: 1
		bias_term: false
	}
}

layer {
	bottom: "id_res4b20_branch2a"
	top: "id_res4b20_branch2a"
	name: "id_bn4b20_branch2a"
	type: "BatchNorm"
	batch_norm_param {
		use_global_stats: true
	}
}

layer {
	bottom: "id_res4b20_branch2a"
	top: "id_res4b20_branch2a"
	name: "id_scale4b20_branch2a"
	type: "Scale"
	scale_param {
		bias_term: true
	}
}

layer {
	top: "id_res4b20_branch2a"
	bottom: "id_res4b20_branch2a"
	name: "id_res4b20_branch2a_relu"
	type: "ReLU"
}

layer {
	bottom: "id_res4b20_branch2a"
	top: "id_res4b20_branch2b"
	name: "id_res4b20_branch2b"
	type: "Convolution"
	convolution_param {
		num_output: 256
		kernel_size: 3
		pad: 1
		stride: 1
		bias_term: false
	}
}

layer {
	bottom: "id_res4b20_branch2b"
	top: "id_res4b20_branch2b"
	name: "id_bn4b20_branch2b"
	type: "BatchNorm"
	batch_norm_param {
		use_global_stats: true
	}
}

layer {
	bottom: "id_res4b20_branch2b"
	top: "id_res4b20_branch2b"
	name: "id_scale4b20_branch2b"
	type: "Scale"
	scale_param {
		bias_term: true
	}
}

layer {
	top: "id_res4b20_branch2b"
	bottom: "id_res4b20_branch2b"
	name: "id_res4b20_branch2b_relu"
	type: "ReLU"
}

layer {
	bottom: "id_res4b20_branch2b"
	top: "id_res4b20_branch2c"
	name: "id_res4b20_branch2c"
	type: "Convolution"
	convolution_param {
		num_output: 1024
		kernel_size: 1
		pad: 0
		stride: 1
		bias_term: false
	}
}

layer {
	bottom: "id_res4b20_branch2c"
	top: "id_res4b20_branch2c"
	name: "id_bn4b20_branch2c"
	type: "BatchNorm"
	batch_norm_param {
		use_global_stats: true
	}
}

layer {
	bottom: "id_res4b20_branch2c"
	top: "id_res4b20_branch2c"
	name: "id_scale4b20_branch2c"
	type: "Scale"
	scale_param {
		bias_term: true
	}
}

layer {
	bottom: "id_res4b19"
	bottom: "id_res4b20_branch2c"
	top: "id_res4b20"
	name: "id_res4b20"
	type: "Eltwise"
}

layer {
	bottom: "id_res4b20"
	top: "id_res4b20"
	name: "id_res4b20_relu"
	type: "ReLU"
}

layer {
	bottom: "id_res4b20"
	top: "id_res4b21_branch2a"
	name: "id_res4b21_branch2a"
	type: "Convolution"
	convolution_param {
		num_output: 256
		kernel_size: 1
		pad: 0
		stride: 1
		bias_term: false
	}
}

layer {
	bottom: "id_res4b21_branch2a"
	top: "id_res4b21_branch2a"
	name: "id_bn4b21_branch2a"
	type: "BatchNorm"
	batch_norm_param {
		use_global_stats: true
	}
}

layer {
	bottom: "id_res4b21_branch2a"
	top: "id_res4b21_branch2a"
	name: "id_scale4b21_branch2a"
	type: "Scale"
	scale_param {
		bias_term: true
	}
}

layer {
	top: "id_res4b21_branch2a"
	bottom: "id_res4b21_branch2a"
	name: "id_res4b21_branch2a_relu"
	type: "ReLU"
}

layer {
	bottom: "id_res4b21_branch2a"
	top: "id_res4b21_branch2b"
	name: "id_res4b21_branch2b"
	type: "Convolution"
	convolution_param {
		num_output: 256
		kernel_size: 3
		pad: 1
		stride: 1
		bias_term: false
	}
}

layer {
	bottom: "id_res4b21_branch2b"
	top: "id_res4b21_branch2b"
	name: "id_bn4b21_branch2b"
	type: "BatchNorm"
	batch_norm_param {
		use_global_stats: true
	}
}

layer {
	bottom: "id_res4b21_branch2b"
	top: "id_res4b21_branch2b"
	name: "id_scale4b21_branch2b"
	type: "Scale"
	scale_param {
		bias_term: true
	}
}

layer {
	top: "id_res4b21_branch2b"
	bottom: "id_res4b21_branch2b"
	name: "id_res4b21_branch2b_relu"
	type: "ReLU"
}

layer {
	bottom: "id_res4b21_branch2b"
	top: "id_res4b21_branch2c"
	name: "id_res4b21_branch2c"
	type: "Convolution"
	convolution_param {
		num_output: 1024
		kernel_size: 1
		pad: 0
		stride: 1
		bias_term: false
	}
}

layer {
	bottom: "id_res4b21_branch2c"
	top: "id_res4b21_branch2c"
	name: "id_bn4b21_branch2c"
	type: "BatchNorm"
	batch_norm_param {
		use_global_stats: true
	}
}

layer {
	bottom: "id_res4b21_branch2c"
	top: "id_res4b21_branch2c"
	name: "id_scale4b21_branch2c"
	type: "Scale"
	scale_param {
		bias_term: true
	}
}

layer {
	bottom: "id_res4b20"
	bottom: "id_res4b21_branch2c"
	top: "id_res4b21"
	name: "id_res4b21"
	type: "Eltwise"
}

layer {
	bottom: "id_res4b21"
	top: "id_res4b21"
	name: "id_res4b21_relu"
	type: "ReLU"
}

layer {
	bottom: "id_res4b21"
	top: "id_res4b22_branch2a"
	name: "id_res4b22_branch2a"
	type: "Convolution"
	convolution_param {
		num_output: 256
		kernel_size: 1
		pad: 0
		stride: 1
		bias_term: false
	}
}

layer {
	bottom: "id_res4b22_branch2a"
	top: "id_res4b22_branch2a"
	name: "id_bn4b22_branch2a"
	type: "BatchNorm"
	batch_norm_param {
		use_global_stats: true
	}
}

layer {
	bottom: "id_res4b22_branch2a"
	top: "id_res4b22_branch2a"
	name: "id_scale4b22_branch2a"
	type: "Scale"
	scale_param {
		bias_term: true
	}
}

layer {
	top: "id_res4b22_branch2a"
	bottom: "id_res4b22_branch2a"
	name: "id_res4b22_branch2a_relu"
	type: "ReLU"
}

layer {
	bottom: "id_res4b22_branch2a"
	top: "id_res4b22_branch2b"
	name: "id_res4b22_branch2b"
	type: "Convolution"
	convolution_param {
		num_output: 256
		kernel_size: 3
		pad: 1
		stride: 1
		bias_term: false
	}
}

layer {
	bottom: "id_res4b22_branch2b"
	top: "id_res4b22_branch2b"
	name: "id_bn4b22_branch2b"
	type: "BatchNorm"
	batch_norm_param {
		use_global_stats: true
	}
}

layer {
	bottom: "id_res4b22_branch2b"
	top: "id_res4b22_branch2b"
	name: "id_scale4b22_branch2b"
	type: "Scale"
	scale_param {
		bias_term: true
	}
}

layer {
	top: "id_res4b22_branch2b"
	bottom: "id_res4b22_branch2b"
	name: "id_res4b22_branch2b_relu"
	type: "ReLU"
}

layer {
	bottom: "id_res4b22_branch2b"
	top: "id_res4b22_branch2c"
	name: "id_res4b22_branch2c"
	type: "Convolution"
	convolution_param {
		num_output: 1024
		kernel_size: 1
		pad: 0
		stride: 1
		bias_term: false
	}
}

layer {
	bottom: "id_res4b22_branch2c"
	top: "id_res4b22_branch2c"
	name: "id_bn4b22_branch2c"
	type: "BatchNorm"
	batch_norm_param {
		use_global_stats: true
	}
}

layer {
	bottom: "id_res4b22_branch2c"
	top: "id_res4b22_branch2c"
	name: "id_scale4b22_branch2c"
	type: "Scale"
	scale_param {
		bias_term: true
	}
}

layer {
	bottom: "id_res4b21"
	bottom: "id_res4b22_branch2c"
	top: "id_res4b22"
	name: "id_res4b22"
	type: "Eltwise"
}

layer {
	bottom: "id_res4b22"
	top: "id_res4b22"
	name: "id_res4b22_relu"
	type: "ReLU"
}

layer {
	bottom: "id_res4b22"
	top: "id_res4b23_branch2a"
	name: "id_res4b23_branch2a"
	type: "Convolution"
	convolution_param {
		num_output: 256
		kernel_size: 1
		pad: 0
		stride: 1
		bias_term: false
	}
}

layer {
	bottom: "id_res4b23_branch2a"
	top: "id_res4b23_branch2a"
	name: "id_bn4b23_branch2a"
	type: "BatchNorm"
	batch_norm_param {
		use_global_stats: true
	}
}

layer {
	bottom: "id_res4b23_branch2a"
	top: "id_res4b23_branch2a"
	name: "id_scale4b23_branch2a"
	type: "Scale"
	scale_param {
		bias_term: true
	}
}

layer {
	top: "id_res4b23_branch2a"
	bottom: "id_res4b23_branch2a"
	name: "id_res4b23_branch2a_relu"
	type: "ReLU"
}

layer {
	bottom: "id_res4b23_branch2a"
	top: "id_res4b23_branch2b"
	name: "id_res4b23_branch2b"
	type: "Convolution"
	convolution_param {
		num_output: 256
		kernel_size: 3
		pad: 1
		stride: 1
		bias_term: false
	}
}

layer {
	bottom: "id_res4b23_branch2b"
	top: "id_res4b23_branch2b"
	name: "id_bn4b23_branch2b"
	type: "BatchNorm"
	batch_norm_param {
		use_global_stats: true
	}
}

layer {
	bottom: "id_res4b23_branch2b"
	top: "id_res4b23_branch2b"
	name: "id_scale4b23_branch2b"
	type: "Scale"
	scale_param {
		bias_term: true
	}
}

layer {
	top: "id_res4b23_branch2b"
	bottom: "id_res4b23_branch2b"
	name: "id_res4b23_branch2b_relu"
	type: "ReLU"
}

layer {
	bottom: "id_res4b23_branch2b"
	top: "id_res4b23_branch2c"
	name: "id_res4b23_branch2c"
	type: "Convolution"
	convolution_param {
		num_output: 1024
		kernel_size: 1
		pad: 0
		stride: 1
		bias_term: false
	}
}

layer {
	bottom: "id_res4b23_branch2c"
	top: "id_res4b23_branch2c"
	name: "id_bn4b23_branch2c"
	type: "BatchNorm"
	batch_norm_param {
		use_global_stats: true
	}
}

layer {
	bottom: "id_res4b23_branch2c"
	top: "id_res4b23_branch2c"
	name: "id_scale4b23_branch2c"
	type: "Scale"
	scale_param {
		bias_term: true
	}
}

layer {
	bottom: "id_res4b22"
	bottom: "id_res4b23_branch2c"
	top: "id_res4b23"
	name: "id_res4b23"
	type: "Eltwise"
}

layer {
	bottom: "id_res4b23"
	top: "id_res4b23"
	name: "id_res4b23_relu"
	type: "ReLU"
}

layer {
	bottom: "id_res4b23"
	top: "id_res4b24_branch2a"
	name: "id_res4b24_branch2a"
	type: "Convolution"
	convolution_param {
		num_output: 256
		kernel_size: 1
		pad: 0
		stride: 1
		bias_term: false
	}
}

layer {
	bottom: "id_res4b24_branch2a"
	top: "id_res4b24_branch2a"
	name: "id_bn4b24_branch2a"
	type: "BatchNorm"
	batch_norm_param {
		use_global_stats: true
	}
}

layer {
	bottom: "id_res4b24_branch2a"
	top: "id_res4b24_branch2a"
	name: "id_scale4b24_branch2a"
	type: "Scale"
	scale_param {
		bias_term: true
	}
}

layer {
	top: "id_res4b24_branch2a"
	bottom: "id_res4b24_branch2a"
	name: "id_res4b24_branch2a_relu"
	type: "ReLU"
}

layer {
	bottom: "id_res4b24_branch2a"
	top: "id_res4b24_branch2b"
	name: "id_res4b24_branch2b"
	type: "Convolution"
	convolution_param {
		num_output: 256
		kernel_size: 3
		pad: 1
		stride: 1
		bias_term: false
	}
}

layer {
	bottom: "id_res4b24_branch2b"
	top: "id_res4b24_branch2b"
	name: "id_bn4b24_branch2b"
	type: "BatchNorm"
	batch_norm_param {
		use_global_stats: true
	}
}

layer {
	bottom: "id_res4b24_branch2b"
	top: "id_res4b24_branch2b"
	name: "id_scale4b24_branch2b"
	type: "Scale"
	scale_param {
		bias_term: true
	}
}

layer {
	top: "id_res4b24_branch2b"
	bottom: "id_res4b24_branch2b"
	name: "id_res4b24_branch2b_relu"
	type: "ReLU"
}

layer {
	bottom: "id_res4b24_branch2b"
	top: "id_res4b24_branch2c"
	name: "id_res4b24_branch2c"
	type: "Convolution"
	convolution_param {
		num_output: 1024
		kernel_size: 1
		pad: 0
		stride: 1
		bias_term: false
	}
}

layer {
	bottom: "id_res4b24_branch2c"
	top: "id_res4b24_branch2c"
	name: "id_bn4b24_branch2c"
	type: "BatchNorm"
	batch_norm_param {
		use_global_stats: true
	}
}

layer {
	bottom: "id_res4b24_branch2c"
	top: "id_res4b24_branch2c"
	name: "id_scale4b24_branch2c"
	type: "Scale"
	scale_param {
		bias_term: true
	}
}

layer {
	bottom: "id_res4b23"
	bottom: "id_res4b24_branch2c"
	top: "id_res4b24"
	name: "id_res4b24"
	type: "Eltwise"
}

layer {
	bottom: "id_res4b24"
	top: "id_res4b24"
	name: "id_res4b24_relu"
	type: "ReLU"
}

layer {
	bottom: "id_res4b24"
	top: "id_res4b25_branch2a"
	name: "id_res4b25_branch2a"
	type: "Convolution"
	convolution_param {
		num_output: 256
		kernel_size: 1
		pad: 0
		stride: 1
		bias_term: false
	}
}

layer {
	bottom: "id_res4b25_branch2a"
	top: "id_res4b25_branch2a"
	name: "id_bn4b25_branch2a"
	type: "BatchNorm"
	batch_norm_param {
		use_global_stats: true
	}
}

layer {
	bottom: "id_res4b25_branch2a"
	top: "id_res4b25_branch2a"
	name: "id_scale4b25_branch2a"
	type: "Scale"
	scale_param {
		bias_term: true
	}
}

layer {
	top: "id_res4b25_branch2a"
	bottom: "id_res4b25_branch2a"
	name: "id_res4b25_branch2a_relu"
	type: "ReLU"
}

layer {
	bottom: "id_res4b25_branch2a"
	top: "id_res4b25_branch2b"
	name: "id_res4b25_branch2b"
	type: "Convolution"
	convolution_param {
		num_output: 256
		kernel_size: 3
		pad: 1
		stride: 1
		bias_term: false
	}
}

layer {
	bottom: "id_res4b25_branch2b"
	top: "id_res4b25_branch2b"
	name: "id_bn4b25_branch2b"
	type: "BatchNorm"
	batch_norm_param {
		use_global_stats: true
	}
}

layer {
	bottom: "id_res4b25_branch2b"
	top: "id_res4b25_branch2b"
	name: "id_scale4b25_branch2b"
	type: "Scale"
	scale_param {
		bias_term: true
	}
}

layer {
	top: "id_res4b25_branch2b"
	bottom: "id_res4b25_branch2b"
	name: "id_res4b25_branch2b_relu"
	type: "ReLU"
}

layer {
	bottom: "id_res4b25_branch2b"
	top: "id_res4b25_branch2c"
	name: "id_res4b25_branch2c"
	type: "Convolution"
	convolution_param {
		num_output: 1024
		kernel_size: 1
		pad: 0
		stride: 1
		bias_term: false
	}
}

layer {
	bottom: "id_res4b25_branch2c"
	top: "id_res4b25_branch2c"
	name: "id_bn4b25_branch2c"
	type: "BatchNorm"
	batch_norm_param {
		use_global_stats: true
	}
}

layer {
	bottom: "id_res4b25_branch2c"
	top: "id_res4b25_branch2c"
	name: "id_scale4b25_branch2c"
	type: "Scale"
	scale_param {
		bias_term: true
	}
}

layer {
	bottom: "id_res4b24"
	bottom: "id_res4b25_branch2c"
	top: "id_res4b25"
	name: "id_res4b25"
	type: "Eltwise"
}

layer {
	bottom: "id_res4b25"
	top: "id_res4b25"
	name: "id_res4b25_relu"
	type: "ReLU"
}

layer {
	bottom: "id_res4b25"
	top: "id_res4b26_branch2a"
	name: "id_res4b26_branch2a"
	type: "Convolution"
	convolution_param {
		num_output: 256
		kernel_size: 1
		pad: 0
		stride: 1
		bias_term: false
	}
}

layer {
	bottom: "id_res4b26_branch2a"
	top: "id_res4b26_branch2a"
	name: "id_bn4b26_branch2a"
	type: "BatchNorm"
	batch_norm_param {
		use_global_stats: true
	}
}

layer {
	bottom: "id_res4b26_branch2a"
	top: "id_res4b26_branch2a"
	name: "id_scale4b26_branch2a"
	type: "Scale"
	scale_param {
		bias_term: true
	}
}

layer {
	top: "id_res4b26_branch2a"
	bottom: "id_res4b26_branch2a"
	name: "id_res4b26_branch2a_relu"
	type: "ReLU"
}

layer {
	bottom: "id_res4b26_branch2a"
	top: "id_res4b26_branch2b"
	name: "id_res4b26_branch2b"
	type: "Convolution"
	convolution_param {
		num_output: 256
		kernel_size: 3
		pad: 1
		stride: 1
		bias_term: false
	}
}

layer {
	bottom: "id_res4b26_branch2b"
	top: "id_res4b26_branch2b"
	name: "id_bn4b26_branch2b"
	type: "BatchNorm"
	batch_norm_param {
		use_global_stats: true
	}
}

layer {
	bottom: "id_res4b26_branch2b"
	top: "id_res4b26_branch2b"
	name: "id_scale4b26_branch2b"
	type: "Scale"
	scale_param {
		bias_term: true
	}
}

layer {
	top: "id_res4b26_branch2b"
	bottom: "id_res4b26_branch2b"
	name: "id_res4b26_branch2b_relu"
	type: "ReLU"
}

layer {
	bottom: "id_res4b26_branch2b"
	top: "id_res4b26_branch2c"
	name: "id_res4b26_branch2c"
	type: "Convolution"
	convolution_param {
		num_output: 1024
		kernel_size: 1
		pad: 0
		stride: 1
		bias_term: false
	}
}

layer {
	bottom: "id_res4b26_branch2c"
	top: "id_res4b26_branch2c"
	name: "id_bn4b26_branch2c"
	type: "BatchNorm"
	batch_norm_param {
		use_global_stats: true
	}
}

layer {
	bottom: "id_res4b26_branch2c"
	top: "id_res4b26_branch2c"
	name: "id_scale4b26_branch2c"
	type: "Scale"
	scale_param {
		bias_term: true
	}
}

layer {
	bottom: "id_res4b25"
	bottom: "id_res4b26_branch2c"
	top: "id_res4b26"
	name: "id_res4b26"
	type: "Eltwise"
}

layer {
	bottom: "id_res4b26"
	top: "id_res4b26"
	name: "id_res4b26_relu"
	type: "ReLU"
}

layer {
	bottom: "id_res4b26"
	top: "id_res4b27_branch2a"
	name: "id_res4b27_branch2a"
	type: "Convolution"
	convolution_param {
		num_output: 256
		kernel_size: 1
		pad: 0
		stride: 1
		bias_term: false
	}
}

layer {
	bottom: "id_res4b27_branch2a"
	top: "id_res4b27_branch2a"
	name: "id_bn4b27_branch2a"
	type: "BatchNorm"
	batch_norm_param {
		use_global_stats: true
	}
}

layer {
	bottom: "id_res4b27_branch2a"
	top: "id_res4b27_branch2a"
	name: "id_scale4b27_branch2a"
	type: "Scale"
	scale_param {
		bias_term: true
	}
}

layer {
	top: "id_res4b27_branch2a"
	bottom: "id_res4b27_branch2a"
	name: "id_res4b27_branch2a_relu"
	type: "ReLU"
}

layer {
	bottom: "id_res4b27_branch2a"
	top: "id_res4b27_branch2b"
	name: "id_res4b27_branch2b"
	type: "Convolution"
	convolution_param {
		num_output: 256
		kernel_size: 3
		pad: 1
		stride: 1
		bias_term: false
	}
}

layer {
	bottom: "id_res4b27_branch2b"
	top: "id_res4b27_branch2b"
	name: "id_bn4b27_branch2b"
	type: "BatchNorm"
	batch_norm_param {
		use_global_stats: true
	}
}

layer {
	bottom: "id_res4b27_branch2b"
	top: "id_res4b27_branch2b"
	name: "id_scale4b27_branch2b"
	type: "Scale"
	scale_param {
		bias_term: true
	}
}

layer {
	top: "id_res4b27_branch2b"
	bottom: "id_res4b27_branch2b"
	name: "id_res4b27_branch2b_relu"
	type: "ReLU"
}

layer {
	bottom: "id_res4b27_branch2b"
	top: "id_res4b27_branch2c"
	name: "id_res4b27_branch2c"
	type: "Convolution"
	convolution_param {
		num_output: 1024
		kernel_size: 1
		pad: 0
		stride: 1
		bias_term: false
	}
}

layer {
	bottom: "id_res4b27_branch2c"
	top: "id_res4b27_branch2c"
	name: "id_bn4b27_branch2c"
	type: "BatchNorm"
	batch_norm_param {
		use_global_stats: true
	}
}

layer {
	bottom: "id_res4b27_branch2c"
	top: "id_res4b27_branch2c"
	name: "id_scale4b27_branch2c"
	type: "Scale"
	scale_param {
		bias_term: true
	}
}

layer {
	bottom: "id_res4b26"
	bottom: "id_res4b27_branch2c"
	top: "id_res4b27"
	name: "id_res4b27"
	type: "Eltwise"
}

layer {
	bottom: "id_res4b27"
	top: "id_res4b27"
	name: "id_res4b27_relu"
	type: "ReLU"
}

layer {
	bottom: "id_res4b27"
	top: "id_res4b28_branch2a"
	name: "id_res4b28_branch2a"
	type: "Convolution"
	convolution_param {
		num_output: 256
		kernel_size: 1
		pad: 0
		stride: 1
		bias_term: false
	}
}

layer {
	bottom: "id_res4b28_branch2a"
	top: "id_res4b28_branch2a"
	name: "id_bn4b28_branch2a"
	type: "BatchNorm"
	batch_norm_param {
		use_global_stats: true
	}
}

layer {
	bottom: "id_res4b28_branch2a"
	top: "id_res4b28_branch2a"
	name: "id_scale4b28_branch2a"
	type: "Scale"
	scale_param {
		bias_term: true
	}
}

layer {
	top: "id_res4b28_branch2a"
	bottom: "id_res4b28_branch2a"
	name: "id_res4b28_branch2a_relu"
	type: "ReLU"
}

layer {
	bottom: "id_res4b28_branch2a"
	top: "id_res4b28_branch2b"
	name: "id_res4b28_branch2b"
	type: "Convolution"
	convolution_param {
		num_output: 256
		kernel_size: 3
		pad: 1
		stride: 1
		bias_term: false
	}
}

layer {
	bottom: "id_res4b28_branch2b"
	top: "id_res4b28_branch2b"
	name: "id_bn4b28_branch2b"
	type: "BatchNorm"
	batch_norm_param {
		use_global_stats: true
	}
}

layer {
	bottom: "id_res4b28_branch2b"
	top: "id_res4b28_branch2b"
	name: "id_scale4b28_branch2b"
	type: "Scale"
	scale_param {
		bias_term: true
	}
}

layer {
	top: "id_res4b28_branch2b"
	bottom: "id_res4b28_branch2b"
	name: "id_res4b28_branch2b_relu"
	type: "ReLU"
}

layer {
	bottom: "id_res4b28_branch2b"
	top: "id_res4b28_branch2c"
	name: "id_res4b28_branch2c"
	type: "Convolution"
	convolution_param {
		num_output: 1024
		kernel_size: 1
		pad: 0
		stride: 1
		bias_term: false
	}
}

layer {
	bottom: "id_res4b28_branch2c"
	top: "id_res4b28_branch2c"
	name: "id_bn4b28_branch2c"
	type: "BatchNorm"
	batch_norm_param {
		use_global_stats: true
	}
}

layer {
	bottom: "id_res4b28_branch2c"
	top: "id_res4b28_branch2c"
	name: "id_scale4b28_branch2c"
	type: "Scale"
	scale_param {
		bias_term: true
	}
}

layer {
	bottom: "id_res4b27"
	bottom: "id_res4b28_branch2c"
	top: "id_res4b28"
	name: "id_res4b28"
	type: "Eltwise"
}

layer {
	bottom: "id_res4b28"
	top: "id_res4b28"
	name: "id_res4b28_relu"
	type: "ReLU"
}

layer {
	bottom: "id_res4b28"
	top: "id_res4b29_branch2a"
	name: "id_res4b29_branch2a"
	type: "Convolution"
	convolution_param {
		num_output: 256
		kernel_size: 1
		pad: 0
		stride: 1
		bias_term: false
	}
}

layer {
	bottom: "id_res4b29_branch2a"
	top: "id_res4b29_branch2a"
	name: "id_bn4b29_branch2a"
	type: "BatchNorm"
	batch_norm_param {
		use_global_stats: true
	}
}

layer {
	bottom: "id_res4b29_branch2a"
	top: "id_res4b29_branch2a"
	name: "id_scale4b29_branch2a"
	type: "Scale"
	scale_param {
		bias_term: true
	}
}

layer {
	top: "id_res4b29_branch2a"
	bottom: "id_res4b29_branch2a"
	name: "id_res4b29_branch2a_relu"
	type: "ReLU"
}

layer {
	bottom: "id_res4b29_branch2a"
	top: "id_res4b29_branch2b"
	name: "id_res4b29_branch2b"
	type: "Convolution"
	convolution_param {
		num_output: 256
		kernel_size: 3
		pad: 1
		stride: 1
		bias_term: false
	}
}

layer {
	bottom: "id_res4b29_branch2b"
	top: "id_res4b29_branch2b"
	name: "id_bn4b29_branch2b"
	type: "BatchNorm"
	batch_norm_param {
		use_global_stats: true
	}
}

layer {
	bottom: "id_res4b29_branch2b"
	top: "id_res4b29_branch2b"
	name: "id_scale4b29_branch2b"
	type: "Scale"
	scale_param {
		bias_term: true
	}
}

layer {
	top: "id_res4b29_branch2b"
	bottom: "id_res4b29_branch2b"
	name: "id_res4b29_branch2b_relu"
	type: "ReLU"
}

layer {
	bottom: "id_res4b29_branch2b"
	top: "id_res4b29_branch2c"
	name: "id_res4b29_branch2c"
	type: "Convolution"
	convolution_param {
		num_output: 1024
		kernel_size: 1
		pad: 0
		stride: 1
		bias_term: false
	}
}

layer {
	bottom: "id_res4b29_branch2c"
	top: "id_res4b29_branch2c"
	name: "id_bn4b29_branch2c"
	type: "BatchNorm"
	batch_norm_param {
		use_global_stats: true
	}
}

layer {
	bottom: "id_res4b29_branch2c"
	top: "id_res4b29_branch2c"
	name: "id_scale4b29_branch2c"
	type: "Scale"
	scale_param {
		bias_term: true
	}
}

layer {
	bottom: "id_res4b28"
	bottom: "id_res4b29_branch2c"
	top: "id_res4b29"
	name: "id_res4b29"
	type: "Eltwise"
}

layer {
	bottom: "id_res4b29"
	top: "id_res4b29"
	name: "id_res4b29_relu"
	type: "ReLU"
}

layer {
	bottom: "id_res4b29"
	top: "id_res4b30_branch2a"
	name: "id_res4b30_branch2a"
	type: "Convolution"
	convolution_param {
		num_output: 256
		kernel_size: 1
		pad: 0
		stride: 1
		bias_term: false
	}
}

layer {
	bottom: "id_res4b30_branch2a"
	top: "id_res4b30_branch2a"
	name: "id_bn4b30_branch2a"
	type: "BatchNorm"
	batch_norm_param {
		use_global_stats: true
	}
}

layer {
	bottom: "id_res4b30_branch2a"
	top: "id_res4b30_branch2a"
	name: "id_scale4b30_branch2a"
	type: "Scale"
	scale_param {
		bias_term: true
	}
}

layer {
	top: "id_res4b30_branch2a"
	bottom: "id_res4b30_branch2a"
	name: "id_res4b30_branch2a_relu"
	type: "ReLU"
}

layer {
	bottom: "id_res4b30_branch2a"
	top: "id_res4b30_branch2b"
	name: "id_res4b30_branch2b"
	type: "Convolution"
	convolution_param {
		num_output: 256
		kernel_size: 3
		pad: 1
		stride: 1
		bias_term: false
	}
}

layer {
	bottom: "id_res4b30_branch2b"
	top: "id_res4b30_branch2b"
	name: "id_bn4b30_branch2b"
	type: "BatchNorm"
	batch_norm_param {
		use_global_stats: true
	}
}

layer {
	bottom: "id_res4b30_branch2b"
	top: "id_res4b30_branch2b"
	name: "id_scale4b30_branch2b"
	type: "Scale"
	scale_param {
		bias_term: true
	}
}

layer {
	top: "id_res4b30_branch2b"
	bottom: "id_res4b30_branch2b"
	name: "id_res4b30_branch2b_relu"
	type: "ReLU"
}

layer {
	bottom: "id_res4b30_branch2b"
	top: "id_res4b30_branch2c"
	name: "id_res4b30_branch2c"
	type: "Convolution"
	convolution_param {
		num_output: 1024
		kernel_size: 1
		pad: 0
		stride: 1
		bias_term: false
	}
}

layer {
	bottom: "id_res4b30_branch2c"
	top: "id_res4b30_branch2c"
	name: "id_bn4b30_branch2c"
	type: "BatchNorm"
	batch_norm_param {
		use_global_stats: true
	}
}

layer {
	bottom: "id_res4b30_branch2c"
	top: "id_res4b30_branch2c"
	name: "id_scale4b30_branch2c"
	type: "Scale"
	scale_param {
		bias_term: true
	}
}

layer {
	bottom: "id_res4b29"
	bottom: "id_res4b30_branch2c"
	top: "id_res4b30"
	name: "id_res4b30"
	type: "Eltwise"
}

layer {
	bottom: "id_res4b30"
	top: "id_res4b30"
	name: "id_res4b30_relu"
	type: "ReLU"
}

layer {
	bottom: "id_res4b30"
	top: "id_res4b31_branch2a"
	name: "id_res4b31_branch2a"
	type: "Convolution"
	convolution_param {
		num_output: 256
		kernel_size: 1
		pad: 0
		stride: 1
		bias_term: false
	}
}

layer {
	bottom: "id_res4b31_branch2a"
	top: "id_res4b31_branch2a"
	name: "id_bn4b31_branch2a"
	type: "BatchNorm"
	batch_norm_param {
		use_global_stats: true
	}
}

layer {
	bottom: "id_res4b31_branch2a"
	top: "id_res4b31_branch2a"
	name: "id_scale4b31_branch2a"
	type: "Scale"
	scale_param {
		bias_term: true
	}
}

layer {
	top: "id_res4b31_branch2a"
	bottom: "id_res4b31_branch2a"
	name: "id_res4b31_branch2a_relu"
	type: "ReLU"
}

layer {
	bottom: "id_res4b31_branch2a"
	top: "id_res4b31_branch2b"
	name: "id_res4b31_branch2b"
	type: "Convolution"
	convolution_param {
		num_output: 256
		kernel_size: 3
		pad: 1
		stride: 1
		bias_term: false
	}
}

layer {
	bottom: "id_res4b31_branch2b"
	top: "id_res4b31_branch2b"
	name: "id_bn4b31_branch2b"
	type: "BatchNorm"
	batch_norm_param {
		use_global_stats: true
	}
}

layer {
	bottom: "id_res4b31_branch2b"
	top: "id_res4b31_branch2b"
	name: "id_scale4b31_branch2b"
	type: "Scale"
	scale_param {
		bias_term: true
	}
}

layer {
	top: "id_res4b31_branch2b"
	bottom: "id_res4b31_branch2b"
	name: "id_res4b31_branch2b_relu"
	type: "ReLU"
}

layer {
	bottom: "id_res4b31_branch2b"
	top: "id_res4b31_branch2c"
	name: "id_res4b31_branch2c"
	type: "Convolution"
	convolution_param {
		num_output: 1024
		kernel_size: 1
		pad: 0
		stride: 1
		bias_term: false
	}
}

layer {
	bottom: "id_res4b31_branch2c"
	top: "id_res4b31_branch2c"
	name: "id_bn4b31_branch2c"
	type: "BatchNorm"
	batch_norm_param {
		use_global_stats: true
	}
}

layer {
	bottom: "id_res4b31_branch2c"
	top: "id_res4b31_branch2c"
	name: "id_scale4b31_branch2c"
	type: "Scale"
	scale_param {
		bias_term: true
	}
}

layer {
	bottom: "id_res4b30"
	bottom: "id_res4b31_branch2c"
	top: "id_res4b31"
	name: "id_res4b31"
	type: "Eltwise"
}

layer {
	bottom: "id_res4b31"
	top: "id_res4b31"
	name: "id_res4b31_relu"
	type: "ReLU"
}

layer {
	bottom: "id_res4b31"
	top: "id_res4b32_branch2a"
	name: "id_res4b32_branch2a"
	type: "Convolution"
	convolution_param {
		num_output: 256
		kernel_size: 1
		pad: 0
		stride: 1
		bias_term: false
	}
}

layer {
	bottom: "id_res4b32_branch2a"
	top: "id_res4b32_branch2a"
	name: "id_bn4b32_branch2a"
	type: "BatchNorm"
	batch_norm_param {
		use_global_stats: true
	}
}

layer {
	bottom: "id_res4b32_branch2a"
	top: "id_res4b32_branch2a"
	name: "id_scale4b32_branch2a"
	type: "Scale"
	scale_param {
		bias_term: true
	}
}

layer {
	top: "id_res4b32_branch2a"
	bottom: "id_res4b32_branch2a"
	name: "id_res4b32_branch2a_relu"
	type: "ReLU"
}

layer {
	bottom: "id_res4b32_branch2a"
	top: "id_res4b32_branch2b"
	name: "id_res4b32_branch2b"
	type: "Convolution"
	convolution_param {
		num_output: 256
		kernel_size: 3
		pad: 1
		stride: 1
		bias_term: false
	}
}

layer {
	bottom: "id_res4b32_branch2b"
	top: "id_res4b32_branch2b"
	name: "id_bn4b32_branch2b"
	type: "BatchNorm"
	batch_norm_param {
		use_global_stats: true
	}
}

layer {
	bottom: "id_res4b32_branch2b"
	top: "id_res4b32_branch2b"
	name: "id_scale4b32_branch2b"
	type: "Scale"
	scale_param {
		bias_term: true
	}
}

layer {
	top: "id_res4b32_branch2b"
	bottom: "id_res4b32_branch2b"
	name: "id_res4b32_branch2b_relu"
	type: "ReLU"
}

layer {
	bottom: "id_res4b32_branch2b"
	top: "id_res4b32_branch2c"
	name: "id_res4b32_branch2c"
	type: "Convolution"
	convolution_param {
		num_output: 1024
		kernel_size: 1
		pad: 0
		stride: 1
		bias_term: false
	}
}

layer {
	bottom: "id_res4b32_branch2c"
	top: "id_res4b32_branch2c"
	name: "id_bn4b32_branch2c"
	type: "BatchNorm"
	batch_norm_param {
		use_global_stats: true
	}
}

layer {
	bottom: "id_res4b32_branch2c"
	top: "id_res4b32_branch2c"
	name: "id_scale4b32_branch2c"
	type: "Scale"
	scale_param {
		bias_term: true
	}
}

layer {
	bottom: "id_res4b31"
	bottom: "id_res4b32_branch2c"
	top: "id_res4b32"
	name: "id_res4b32"
	type: "Eltwise"
}

layer {
	bottom: "id_res4b32"
	top: "id_res4b32"
	name: "id_res4b32_relu"
	type: "ReLU"
}

layer {
	bottom: "id_res4b32"
	top: "id_res4b33_branch2a"
	name: "id_res4b33_branch2a"
	type: "Convolution"
	convolution_param {
		num_output: 256
		kernel_size: 1
		pad: 0
		stride: 1
		bias_term: false
	}
}

layer {
	bottom: "id_res4b33_branch2a"
	top: "id_res4b33_branch2a"
	name: "id_bn4b33_branch2a"
	type: "BatchNorm"
	batch_norm_param {
		use_global_stats: true
	}
}

layer {
	bottom: "id_res4b33_branch2a"
	top: "id_res4b33_branch2a"
	name: "id_scale4b33_branch2a"
	type: "Scale"
	scale_param {
		bias_term: true
	}
}

layer {
	top: "id_res4b33_branch2a"
	bottom: "id_res4b33_branch2a"
	name: "id_res4b33_branch2a_relu"
	type: "ReLU"
}

layer {
	bottom: "id_res4b33_branch2a"
	top: "id_res4b33_branch2b"
	name: "id_res4b33_branch2b"
	type: "Convolution"
	convolution_param {
		num_output: 256
		kernel_size: 3
		pad: 1
		stride: 1
		bias_term: false
	}
}

layer {
	bottom: "id_res4b33_branch2b"
	top: "id_res4b33_branch2b"
	name: "id_bn4b33_branch2b"
	type: "BatchNorm"
	batch_norm_param {
		use_global_stats: true
	}
}

layer {
	bottom: "id_res4b33_branch2b"
	top: "id_res4b33_branch2b"
	name: "id_scale4b33_branch2b"
	type: "Scale"
	scale_param {
		bias_term: true
	}
}

layer {
	top: "id_res4b33_branch2b"
	bottom: "id_res4b33_branch2b"
	name: "id_res4b33_branch2b_relu"
	type: "ReLU"
}

layer {
	bottom: "id_res4b33_branch2b"
	top: "id_res4b33_branch2c"
	name: "id_res4b33_branch2c"
	type: "Convolution"
	convolution_param {
		num_output: 1024
		kernel_size: 1
		pad: 0
		stride: 1
		bias_term: false
	}
}

layer {
	bottom: "id_res4b33_branch2c"
	top: "id_res4b33_branch2c"
	name: "id_bn4b33_branch2c"
	type: "BatchNorm"
	batch_norm_param {
		use_global_stats: true
	}
}

layer {
	bottom: "id_res4b33_branch2c"
	top: "id_res4b33_branch2c"
	name: "id_scale4b33_branch2c"
	type: "Scale"
	scale_param {
		bias_term: true
	}
}

layer {
	bottom: "id_res4b32"
	bottom: "id_res4b33_branch2c"
	top: "id_res4b33"
	name: "id_res4b33"
	type: "Eltwise"
}

layer {
	bottom: "id_res4b33"
	top: "id_res4b33"
	name: "id_res4b33_relu"
	type: "ReLU"
}

layer {
	bottom: "id_res4b33"
	top: "id_res4b34_branch2a"
	name: "id_res4b34_branch2a"
	type: "Convolution"
	convolution_param {
		num_output: 256
		kernel_size: 1
		pad: 0
		stride: 1
		bias_term: false
	}
}

layer {
	bottom: "id_res4b34_branch2a"
	top: "id_res4b34_branch2a"
	name: "id_bn4b34_branch2a"
	type: "BatchNorm"
	batch_norm_param {
		use_global_stats: true
	}
}

layer {
	bottom: "id_res4b34_branch2a"
	top: "id_res4b34_branch2a"
	name: "id_scale4b34_branch2a"
	type: "Scale"
	scale_param {
		bias_term: true
	}
}

layer {
	top: "id_res4b34_branch2a"
	bottom: "id_res4b34_branch2a"
	name: "id_res4b34_branch2a_relu"
	type: "ReLU"
}

layer {
	bottom: "id_res4b34_branch2a"
	top: "id_res4b34_branch2b"
	name: "id_res4b34_branch2b"
	type: "Convolution"
	convolution_param {
		num_output: 256
		kernel_size: 3
		pad: 1
		stride: 1
		bias_term: false
	}
}

layer {
	bottom: "id_res4b34_branch2b"
	top: "id_res4b34_branch2b"
	name: "id_bn4b34_branch2b"
	type: "BatchNorm"
	batch_norm_param {
		use_global_stats: true
	}
}

layer {
	bottom: "id_res4b34_branch2b"
	top: "id_res4b34_branch2b"
	name: "id_scale4b34_branch2b"
	type: "Scale"
	scale_param {
		bias_term: true
	}
}

layer {
	top: "id_res4b34_branch2b"
	bottom: "id_res4b34_branch2b"
	name: "id_res4b34_branch2b_relu"
	type: "ReLU"
}

layer {
	bottom: "id_res4b34_branch2b"
	top: "id_res4b34_branch2c"
	name: "id_res4b34_branch2c"
	type: "Convolution"
	convolution_param {
		num_output: 1024
		kernel_size: 1
		pad: 0
		stride: 1
		bias_term: false
	}
}

layer {
	bottom: "id_res4b34_branch2c"
	top: "id_res4b34_branch2c"
	name: "id_bn4b34_branch2c"
	type: "BatchNorm"
	batch_norm_param {
		use_global_stats: true
	}
}

layer {
	bottom: "id_res4b34_branch2c"
	top: "id_res4b34_branch2c"
	name: "id_scale4b34_branch2c"
	type: "Scale"
	scale_param {
		bias_term: true
	}
}

layer {
	bottom: "id_res4b33"
	bottom: "id_res4b34_branch2c"
	top: "id_res4b34"
	name: "id_res4b34"
	type: "Eltwise"
}

layer {
	bottom: "id_res4b34"
	top: "id_res4b34"
	name: "id_res4b34_relu"
	type: "ReLU"
}

layer {
	bottom: "id_res4b34"
	top: "id_res4b35_branch2a"
	name: "id_res4b35_branch2a"
	type: "Convolution"
	convolution_param {
		num_output: 256
		kernel_size: 1
		pad: 0
		stride: 1
		bias_term: false
	}
}

layer {
	bottom: "id_res4b35_branch2a"
	top: "id_res4b35_branch2a"
	name: "id_bn4b35_branch2a"
	type: "BatchNorm"
	batch_norm_param {
		use_global_stats: true
	}
}

layer {
	bottom: "id_res4b35_branch2a"
	top: "id_res4b35_branch2a"
	name: "id_scale4b35_branch2a"
	type: "Scale"
	scale_param {
		bias_term: true
	}
}

layer {
	top: "id_res4b35_branch2a"
	bottom: "id_res4b35_branch2a"
	name: "id_res4b35_branch2a_relu"
	type: "ReLU"
}

layer {
	bottom: "id_res4b35_branch2a"
	top: "id_res4b35_branch2b"
	name: "id_res4b35_branch2b"
	type: "Convolution"
	convolution_param {
		num_output: 256
		kernel_size: 3
		pad: 1
		stride: 1
		bias_term: false
	}
}

layer {
	bottom: "id_res4b35_branch2b"
	top: "id_res4b35_branch2b"
	name: "id_bn4b35_branch2b"
	type: "BatchNorm"
	batch_norm_param {
		use_global_stats: true
	}
}

layer {
	bottom: "id_res4b35_branch2b"
	top: "id_res4b35_branch2b"
	name: "id_scale4b35_branch2b"
	type: "Scale"
	scale_param {
		bias_term: true
	}
}

layer {
	top: "id_res4b35_branch2b"
	bottom: "id_res4b35_branch2b"
	name: "id_res4b35_branch2b_relu"
	type: "ReLU"
}

layer {
	bottom: "id_res4b35_branch2b"
	top: "id_res4b35_branch2c"
	name: "id_res4b35_branch2c"
	type: "Convolution"
	convolution_param {
		num_output: 1024
		kernel_size: 1
		pad: 0
		stride: 1
		bias_term: false
	}
}

layer {
	bottom: "id_res4b35_branch2c"
	top: "id_res4b35_branch2c"
	name: "id_bn4b35_branch2c"
	type: "BatchNorm"
	batch_norm_param {
		use_global_stats: true
	}
}

layer {
	bottom: "id_res4b35_branch2c"
	top: "id_res4b35_branch2c"
	name: "id_scale4b35_branch2c"
	type: "Scale"
	scale_param {
		bias_term: true
	}
}

layer {
	bottom: "id_res4b34"
	bottom: "id_res4b35_branch2c"
	top: "id_res4b35"
	name: "id_res4b35"
	type: "Eltwise"
}

layer {
	bottom: "id_res4b35"
	top: "id_R4_res4b35"
	name: "id_res4b35_relu"
	type: "ReLU"
}

############################ concat ##########################
#layer {
#  name: "concat_R4"
#  type: "Concat"
#  bottom: "res4b35"
#  bottom: "id_res4b35"
#  top: "concat_R4"
#  concat_param {
#    axis: 1
#  }
#  propagate_down:false
#  propagate_down:true
#}
#layer {
#	bottom: "concat_R4"
#	top: "id_R4_res4b35"
#	name: "conv_R4"
#	type: "Convolution"
#	param {
#    	lr_mult: 10
#    	decay_mult: 1
#   	}
#	convolution_param {
#		num_output: 1024
#		kernel_size: 1
#		pad: 0
#		stride: 1
#		bias_term: false
#		weight_filler {
#			type: "gaussian"
#			std:0.01
#		}
#    }
#}
############################ concat ##########################

layer {
	bottom: "id_R4_res4b35"
	top: "id_res5a_branch1"
	name: "id_res5a_branch1"
	type: "Convolution"
	convolution_param {
		num_output: 2048
		kernel_size: 1
		pad: 0
		stride: 2
		bias_term: false
	}
}

layer {
	bottom: "id_res5a_branch1"
	top: "id_res5a_branch1"
	name: "id_bn5a_branch1"
	type: "BatchNorm"
	batch_norm_param {
		use_global_stats: true
	}
}

layer {
	bottom: "id_res5a_branch1"
	top: "id_res5a_branch1"
	name: "id_scale5a_branch1"
	type: "Scale"
	scale_param {
		bias_term: true
	}
}

layer {
	bottom: "id_R4_res4b35"
	top: "id_res5a_branch2a"
	name: "id_res5a_branch2a"
	type: "Convolution"
	convolution_param {
		num_output: 512
		kernel_size: 1
		pad: 0
		stride: 2
		bias_term: false
	}
}

layer {
	bottom: "id_res5a_branch2a"
	top: "id_res5a_branch2a"
	name: "id_bn5a_branch2a"
	type: "BatchNorm"
	batch_norm_param {
		use_global_stats: true
	}
}

layer {
	bottom: "id_res5a_branch2a"
	top: "id_res5a_branch2a"
	name: "id_scale5a_branch2a"
	type: "Scale"
	scale_param {
		bias_term: true
	}
}

layer {
	top: "id_res5a_branch2a"
	bottom: "id_res5a_branch2a"
	name: "id_res5a_branch2a_relu"
	type: "ReLU"
}

layer {
	bottom: "id_res5a_branch2a"
	top: "id_res5a_branch2b"
	name: "id_res5a_branch2b"
	type: "Convolution"
	convolution_param {
		num_output: 512
		kernel_size: 3
		pad: 1
		stride: 1
		bias_term: false
	}
}

layer {
	bottom: "id_res5a_branch2b"
	top: "id_res5a_branch2b"
	name: "id_bn5a_branch2b"
	type: "BatchNorm"
	batch_norm_param {
		use_global_stats: true
	}
}

layer {
	bottom: "id_res5a_branch2b"
	top: "id_res5a_branch2b"
	name: "id_scale5a_branch2b"
	type: "Scale"
	scale_param {
		bias_term: true
	}
}

layer {
	top: "id_res5a_branch2b"
	bottom: "id_res5a_branch2b"
	name: "id_res5a_branch2b_relu"
	type: "ReLU"
}

layer {
	bottom: "id_res5a_branch2b"
	top: "id_res5a_branch2c"
	name: "id_res5a_branch2c"
	type: "Convolution"
	convolution_param {
		num_output: 2048
		kernel_size: 1
		pad: 0
		stride: 1
		bias_term: false
	}
}

layer {
	bottom: "id_res5a_branch2c"
	top: "id_res5a_branch2c"
	name: "id_bn5a_branch2c"
	type: "BatchNorm"
	batch_norm_param {
		use_global_stats: true
	}
}

layer {
	bottom: "id_res5a_branch2c"
	top: "id_res5a_branch2c"
	name: "id_scale5a_branch2c"
	type: "Scale"
	scale_param {
		bias_term: true
	}
}

layer {
	bottom: "id_res5a_branch1"
	bottom: "id_res5a_branch2c"
	top: "id_res5a"
	name: "id_res5a"
	type: "Eltwise"
}

layer {
	bottom: "id_res5a"
	top: "id_res5a"
	name: "id_res5a_relu"
	type: "ReLU"
}

layer {
	bottom: "id_res5a"
	top: "id_res5b_branch2a"
	name: "id_res5b_branch2a"
	type: "Convolution"
	convolution_param {
		num_output: 512
		kernel_size: 1
		pad: 0
		stride: 1
		bias_term: false
	}
}

layer {
	bottom: "id_res5b_branch2a"
	top: "id_res5b_branch2a"
	name: "id_bn5b_branch2a"
	type: "BatchNorm"
	batch_norm_param {
		use_global_stats: true
	}
}

layer {
	bottom: "id_res5b_branch2a"
	top: "id_res5b_branch2a"
	name: "id_scale5b_branch2a"
	type: "Scale"
	scale_param {
		bias_term: true
	}
}

layer {
	top: "id_res5b_branch2a"
	bottom: "id_res5b_branch2a"
	name: "id_res5b_branch2a_relu"
	type: "ReLU"
}

layer {
	bottom: "id_res5b_branch2a"
	top: "id_res5b_branch2b"
	name: "id_res5b_branch2b"
	type: "Convolution"
	convolution_param {
		num_output: 512
		kernel_size: 3
		pad: 1
		stride: 1
		bias_term: false
	}
}

layer {
	bottom: "id_res5b_branch2b"
	top: "id_res5b_branch2b"
	name: "id_bn5b_branch2b"
	type: "BatchNorm"
	batch_norm_param {
		use_global_stats: true
	}
}

layer {
	bottom: "id_res5b_branch2b"
	top: "id_res5b_branch2b"
	name: "id_scale5b_branch2b"
	type: "Scale"
	scale_param {
		bias_term: true
	}
}

layer {
	top: "id_res5b_branch2b"
	bottom: "id_res5b_branch2b"
	name: "id_res5b_branch2b_relu"
	type: "ReLU"
}

layer {
	bottom: "id_res5b_branch2b"
	top: "id_res5b_branch2c"
	name: "id_res5b_branch2c"
	type: "Convolution"
	convolution_param {
		num_output: 2048
		kernel_size: 1
		pad: 0
		stride: 1
		bias_term: false
	}
}

layer {
	bottom: "id_res5b_branch2c"
	top: "id_res5b_branch2c"
	name: "id_bn5b_branch2c"
	type: "BatchNorm"
	batch_norm_param {
		use_global_stats: true
	}
}

layer {
	bottom: "id_res5b_branch2c"
	top: "id_res5b_branch2c"
	name: "id_scale5b_branch2c"
	type: "Scale"
	scale_param {
		bias_term: true
	}
}

layer {
	bottom: "id_res5a"
	bottom: "id_res5b_branch2c"
	top: "id_res5b"
	name: "id_res5b"
	type: "Eltwise"
}

layer {
	bottom: "id_res5b"
	top: "id_res5b"
	name: "id_res5b_relu"
	type: "ReLU"
}

layer {
	bottom: "id_res5b"
	top: "id_res5c_branch2a"
	name: "id_res5c_branch2a"
	type: "Convolution"
	convolution_param {
		num_output: 512
		kernel_size: 1
		pad: 0
		stride: 1
		bias_term: false
	}
}

layer {
	bottom: "id_res5c_branch2a"
	top: "id_res5c_branch2a"
	name: "id_bn5c_branch2a"
	type: "BatchNorm"
	batch_norm_param {
		use_global_stats: true
	}
}

layer {
	bottom: "id_res5c_branch2a"
	top: "id_res5c_branch2a"
	name: "id_scale5c_branch2a"
	type: "Scale"
	scale_param {
		bias_term: true
	}
}

layer {
	top: "id_res5c_branch2a"
	bottom: "id_res5c_branch2a"
	name: "id_res5c_branch2a_relu"
	type: "ReLU"
}

layer {
	bottom: "id_res5c_branch2a"
	top: "id_res5c_branch2b"
	name: "id_res5c_branch2b"
	type: "Convolution"
	convolution_param {
		num_output: 512
		kernel_size: 3
		pad: 1
		stride: 1
		bias_term: false
	}
}

layer {
	bottom: "id_res5c_branch2b"
	top: "id_res5c_branch2b"
	name: "id_bn5c_branch2b"
	type: "BatchNorm"
	batch_norm_param {
		use_global_stats: true
	}
}

layer {
	bottom: "id_res5c_branch2b"
	top: "id_res5c_branch2b"
	name: "id_scale5c_branch2b"
	type: "Scale"
	scale_param {
		bias_term: true
	}
}

layer {
	top: "id_res5c_branch2b"
	bottom: "id_res5c_branch2b"
	name: "id_res5c_branch2b_relu"
	type: "ReLU"
}

layer {
	bottom: "id_res5c_branch2b"
	top: "id_res5c_branch2c"
	name: "id_res5c_branch2c"
	type: "Convolution"
	convolution_param {
		num_output: 2048
		kernel_size: 1
		pad: 0
		stride: 1
		bias_term: false
	}
}

layer {
	bottom: "id_res5c_branch2c"
	top: "id_res5c_branch2c"
	name: "id_bn5c_branch2c"
	type: "BatchNorm"
	batch_norm_param {
		use_global_stats: true
	}
}

layer {
	bottom: "id_res5c_branch2c"
	top: "id_res5c_branch2c"
	name: "id_scale5c_branch2c"
	type: "Scale"
	scale_param {
		bias_term: true
	}
}

layer {
	bottom: "id_res5b"
	bottom: "id_res5c_branch2c"
	top: "id_res5c"
	name: "id_res5c"
	type: "Eltwise"
}

layer {
	bottom: "id_res5c"
	top: "id_res5c"
	name: "id_res5c_relu"
	type: "ReLU"
}

############################ concat ##########################
layer {
  name: "concat_R5"
  type: "Concat"
  bottom: "res5c"
  bottom: "id_res5c"
  top: "concat_R5"
  concat_param {
    axis: 1
  }
  propagate_down:false
  propagate_down:true
}
layer {
	bottom: "concat_R5"
	top: "id_R5_res5c"
	name: "conv_R5"
	type: "Convolution"
	param {
    	lr_mult: 10
    	decay_mult: 1
   	}
	convolution_param {
		num_output: 2048
		kernel_size: 1
		pad: 0
		stride: 1
		bias_term: false
		weight_filler {
			type: "gaussian"
			std: 0.01
		}
    }
}
############################ concat ##########################

layer {
	bottom: "id_R5_res5c"
	top: "id_pool5"
	name: "id_pool5"
	type: "Pooling"
	pooling_param {
		kernel_size: 7
		stride: 1
		pool: AVE
	}
}

#-----------------------loss pos30---------------------------#
layer {
	bottom: "pool5"
	top: "fc"
	name: "fc"
	type: "InnerProduct"
	param {
    	lr_mult: 0.0
    	decay_mult: 0
   	}
   	param {
    	lr_mult: 0.0
     	decay_mult: 0
   	}
   	inner_product_param {
     	num_output:30
     	weight_filler {
       	type: "gaussian"
       	std: 0.01
    	}
    	bias_filler {
       	type: "constant"
       	value: 0
     	}
   	}
   	propagate_down:false
}

# layer {
#   name: "accuracy"
#   type: "Accuracy"
#   bottom: "fc"
#   bottom: "label"
#   top: "accuracy"
#   include {
#     phase: TEST
#   }
# }

# layer {
#   name: "loss_id"
#   type: "SoftmaxWithLoss"
#   bottom: "fc"
#   bottom: "label"
#   top: "loss_id"
#   propagate_down:true
#   propagate_down:false
#   loss_weight:1
# }

layer {
  name: "loss_pos30"
  type: "SmoothL1Loss"
# bottom: "bbox_pred"
# bottom: "bbox_targets"
# bottom: "bbox_inside_weights"
# bottom: "bbox_outside_weights"
  bottom: "fc"
  bottom: "labels"
  top: "loss_pos30"
  loss_weight: 0
  propagate_down:false
  propagate_down:false
  include {
       phase: TRAIN
   }
}

#-----------------------loss  id ---------------------------#
layer {
	bottom: "id_pool5"
	top: "id_fc"
	name: "id_fc"
	type: "InnerProduct"
	param {
    	lr_mult: 10
    	decay_mult: 1
   	}
   	param {
    	lr_mult: 20
     	decay_mult: 0
   	}
   	inner_product_param {
     	num_output:751
     	weight_filler {
       	type: "gaussian"
       	std: 0.01
    	}
    	bias_filler {
       	type: "constant"
       	value: 0
     	}
   	}
}

# layer {
#   name: "id_accuracy"
#   type: "Accuracy"
#   bottom: "id_fc"
#   bottom: "id_label"
#   top: "id_accuracy"
#   include {
#     phase: TEST
#   }
# }

layer {
  name: "id_loss_id"
  type: "SoftmaxWithLoss"
  bottom: "id_fc"
  bottom: "id_label"
  top: "id_loss_id"
  propagate_down:true
  propagate_down:false
  loss_weight:1
}

