…
  }
  transform_param {
    mirror: false
    mean_file: "/home/lizhuowan/Market1501/lmdb/lmdb_12936/Image_lmdb_12936.binaryproto"
  }
  data_param {
    source: "/home/lizhuowan/Market1501/lmdb/lmdb_mirror_12936/Image_lmdb_mirror_12936"
    batch_size: 8
    backend: LMDB
  }
}
layer {
  name: "data"
  type: "Data"
  top: "labels"
  include {
    phase: TRAIN
  }
  transform_param {
    mean_value: 112
  }
  data_param {
    source: "/home/lizhuowan/Market1501/lmdb/lmdb_mirror_12936/pos30_lmdb_mirror_12936"
    batch_size: 8
    backend: LMDB
  }
}
layer {
  name: "conv1"
  type: "Convolution"
  bottom: "data"
  top: "conv1"
  convolution_param {
    num_output: 64
    bias_term: false
    pad: 3
    kernel_size: 7
    stride: 2
  }
}
layer {
  name: "bn_conv1"
  type: "BatchNorm"
  bottom: "conv1"
  top: "conv1"
  batch_norm_param {
    use_global_stats: true
  }
}
layer {
  name: "scale_conv1"
  type: "Scale"
  bottom: "conv1"
  top: "conv1"
  scale_param {
    bias_term: true
  }
}
layer {
  name: "conv1_relu"
  type: "ReLU"
  bottom: "conv1"
  top: "conv1"
}
layer {
  name: "pool1"
  type: "Pooling"
  bottom: "conv1"
  top: "pool1"
  pooling_param {
    pool: MAX
    kernel_size: 3
    stride: 2
  }
}
layer {
  name: "res2a_branch1"
  type: "Convolution"
  bottom: "pool1"
  top: "res2a_branch1"
  convolution_param {
    num_output: 256
    bias_term: false
    pad: 0
    kernel_size: 1
    stride: 1
  }
}
layer {
  name: "bn2a_branch1"
  type: "BatchNorm"
  bottom: "res2a_branch1"
  top: "res2a_branch1"
  batch_norm_param {
    use_global_stats: true
  }
}
layer {
  name: "scale2a_branch1"
  type: "Scale"
  bottom: "res2a_branch1"
  top: "res2a_branch1"
  scale_param {
    bias_term: true
  }
}
layer {
  name: "res2a_branch2a"
  type: "Convolution"
  bottom: "pool1"
  top: "res2a_branch2a"
  convolution_param {
    num_output: 64
    bias_term: false
    pad: 0
    kernel_size: 1
    stride: 1
  }
}
layer {
  name: "bn2a_branch2a"
  type: "BatchNorm"
  bottom: "res2a_branch2a"
  top: "res2a_branch2a"
  batch_norm_param {
    use_global_stats: true
  }
}
layer {
  name: "scale2a_branch2a"
  type: "Scale"
  bottom: "res2a_branch2a"
  top: "res2a_branch2a"
  scale_param {
    bias_term: true
  }
}
layer {
  name: "res2a_branch2a_relu"
  type: "ReLU"
  bottom: "res2a_branch2a"
  top: "res2a_branch2a"
}
layer {
  name: "res2a_branch2b"
  type: "Convolution"
  bottom: "res2a_branch2a"
  top: "res2a_branch2b"
  convolution_param {
    num_output: 64
    bias_term: false
    pad: 1
    kernel_size: 3
    stride: 1
  }
}
layer {
  name: "bn2a_branch2b"
  type: "BatchNorm"
  bottom: "res2a_branch2b"
  top: "res2a_branch2b"
  batch_norm_param {
    use_global_stats: true
  }
}
layer {
  name: "scale2a_branch2b"
  type: "Scale"
  bottom: "res2a_branch2b"
  top: "res2a_branch2b"
  scale_param {
    bias_term: true
  }
}
layer {
  name: "res2a_branch2b_relu"
  type: "ReLU"
  bottom: "res2a_branch2b"
  top: "res2a_branch2b"
}
layer {
  name: "res2a_branch2c"
  type: "Convolution"
  bottom: "res2a_branch2b"
  top: "res2a_branch2c"
  convolution_param {
    num_output: 256
    bias_term: false
    pad: 0
    kernel_size: 1
    stride: 1
  }
}
layer {
  name: "bn2a_branch2c"
  type: "BatchNorm"
  bottom: "res2a_branch2c"
  top: "res2a_branch2c"
  batch_norm_param {
    use_global_stats: true
  }
}
layer {
  name: "scale2a_branch2c"
  type: "Scale"
  bottom: "res2a_branch2c"
  top: "res2a_branch2c"
  scale_param {
    bias_term: true
  }
}
layer {
  name: "res2a"
  type: "Eltwise"
  bottom: "res2a_branch1"
  bottom: "res2a_branch2c"
  top: "res2a"
}
layer {
  name: "res2a_relu"
  type: "ReLU"
  bottom: "res2a"
  top: "res2a"
}
layer {
  name: "res2b_branch2a"
  type: "Convolution"
  bottom: "res2a"
  top: "res2b_branch2a"
  convolution_param {
    num_output: 64
    bias_term: false
    pad: 0
    kernel_size: 1
    stride: 1
  }
}
layer {
  name: "bn2b_branch2a"
  type: "BatchNorm"
  bottom: "res2b_branch2a"
  top: "res2b_branch2a"
  batch_norm_param {
    use_global_stats: true
  }
}
layer {
  name: "scale2b_branch2a"
  type: "Scale"
  bottom: "res2b_branch2a"
  top: "res2b_branch2a"
  scale_param {
    bias_term: true
  }
}
layer {
  name: "res2b_branch2a_relu"
  type: "ReLU"
  bottom: "res2b_branch2a"
  top: "res2b_branch2a"
}
layer {
  name: "res2b_branch2b"
  type: "Convolution"
  bottom: "res2b_branch2a"
  top: "res2b_branch2b"
  convolution_param {
    num_output: 64
    bias_term: false
    pad: 1
    kernel_size: 3
    stride: 1
  }
}
layer {
  name: "bn2b_branch2b"
  type: "BatchNorm"
  bottom: "res2b_branch2b"
  top: "res2b_branch2b"
  batch_norm_param {
    use_global_stats: true
  }
}
layer {
  name: "scale2b_branch2b"
  type: "Scale"
  bottom: "res2b_branch2b"
  top: "res2b_branch2b"
  scale_param {
    bias_term: true
  }
}
layer {
  name: "res2b_branch2b_relu"
  type: "ReLU"
  bottom: "res2b_branch2b"
  top: "res2b_branch2b"
}
layer {
  name: "res2b_branch2c"
  type: "Convolution"
  bottom: "res2b_branch2b"
  top: "res2b_branch2c"
  convolution_param {
    num_output: 256
    bias_term: false
    pad: 0
    kernel_size: 1
    stride: 1
  }
}
layer {
  name: "bn2b_branch2c"
  type: "BatchNorm"
  bottom: "res2b_branch2c"
  top: "res2b_branch2c"
  batch_norm_param {
    use_global_stats: true
  }
}
layer {
  name: "scale2b_branch2c"
  type: "Scale"
  bottom: "res2b_branch2c"
  top: "res2b_branch2c"
  scale_param {
    bias_term: true
  }
}
layer {
  name: "res2b"
  type: "Eltwise"
  bottom: "res2a"
  bottom: "res2b_branch2c"
  top: "res2b"
}
layer {
  name: "res2b_relu"
  type: "ReLU"
  bottom: "res2b"
  top: "res2b"
}
layer {
  name: "res2c_branch2a"
  type: "Convolution"
  bottom: "res2b"
  top: "res2c_branch2a"
  convolution_param {
    num_output: 64
    bias_term: false
    pad: 0
    kernel_size: 1
    stride: 1
  }
}
layer {
  name: "bn2c_branch2a"
  type: "BatchNorm"
  bottom: "res2c_branch2a"
  top: "res2c_branch2a"
  batch_norm_param {
    use_global_stats: true
  }
}
layer {
  name: "scale2c_branch2a"
  type: "Scale"
  bottom: "res2c_branch2a"
  top: "res2c_branch2a"
  scale_param {
    bias_term: true
  }
}
layer {
  name: "res2c_branch2a_relu"
  type: "ReLU"
  bottom: "res2c_branch2a"
  top: "res2c_branch2a"
}
layer {
  name: "res2c_branch2b"
  type: "Convolution"
  bottom: "res2c_branch2a"
  top: "res2c_branch2b"
  convolution_param {
    num_output: 64
    bias_term: false
    pad: 1
    kernel_size: 3
    stride: 1
  }
}
layer {
  name: "bn2c_branch2b"
  type: "BatchNorm"
  bottom: "res2c_branch2b"
  top: "res2c_branch2b"
  batch_norm_param {
    use_global_stats: true
  }
}
layer {
  name: "scale2c_branch2b"
  type: "Scale"
  bottom: "res2c_branch2b"
  top: "res2c_branch2b"
  scale_param {
    bias_term: true
  }
}
layer {
  name: "res2c_branch2b_relu"
  type: "ReLU"
  bottom: "res2c_branch2b"
  top: "res2c_branch2b"
}
layer {
  name: "res2c_branch2c"
  type: "Convolution"
  bottom: "res2c_branch2b"
  top: "res2c_branch2c"
  convolution_param {
    num_output: 256
    bias_term: false
    pad: 0
    kernel_size: 1
    stride: 1
  }
}
layer {
  name: "bn2c_branch2c"
  type: "BatchNorm"
  bottom: "res2c_branch2c"
  top: "res2c_branch2c"
  batch_norm_param {
    use_global_stats: true
  }
}
layer {
  name: "scale2c_branch2c"
  type: "Scale"
  bottom: "res2c_branch2c"
  top: "res2c_branch2c"
  scale_param {
    bias_term: true
  }
}
layer {
  name: "res2c"
  type: "Eltwise"
  bottom: "res2b"
  bottom: "res2c_branch2c"
  top: "res2c"
}
layer {
  name: "res2c_relu"
  type: "ReLU"
  bottom: "res2c"
  top: "res2c"
}
layer {
  name: "res3a_branch1"
  type: "Convolution"
  bottom: "res2c"
  top: "res3a_branch1"
  convolution_param {
    num_output: 512
    bias_term: false
    pad: 0
    kernel_size: 1
    stride: 2
  }
}
layer {
  name: "bn3a_branch1"
  type: "BatchNorm"
  bottom: "res3a_branch1"
  top: "res3a_branch1"
  batch_norm_param {
    use_global_stats: true
  }
}
layer {
  name: "scale3a_branch1"
  type: "Scale"
  bottom: "res3a_branch1"
  top: "res3a_branch1"
  scale_param {
    bias_term: true
  }
}
layer {
  name: "res3a_branch2a"
  type: "Convolution"
  bottom: "res2c"
  top: "res3a_branch2a"
  convolution_param {
    num_output: 128
    bias_term: false
    pad: 0
    kernel_size: 1
    stride: 2
  }
}
layer {
  name: "bn3a_branch2a"
  type: "BatchNorm"
  bottom: "res3a_branch2a"
  top: "res3a_branch2a"
  batch_norm_param {
    use_global_stats: true
  }
}
layer {
  name: "scale3a_branch2a"
  type: "Scale"
  bottom: "res3a_branch2a"
  top: "res3a_branch2a"
  scale_param {
    bias_term: true
  }
}
layer {
  name: "res3a_branch2a_relu"
  type: "ReLU"
  bottom: "res3a_branch2a"
  top: "res3a_branch2a"
}
layer {
  name: "res3a_branch2b"
  type: "Convolution"
  bottom: "res3a_branch2a"
  top: "res3a_branch2b"
  convolution_param {
    num_output: 128
    bias_term: false
    pad: 1
    kernel_size: 3
    stride: 1
  }
}
layer {
  name: "bn3a_branch2b"
  type: "BatchNorm"
  bottom: "res3a_branch2b"
  top: "res3a_branch2b"
  batch_norm_param {
    use_global_stats: true
  }
}
layer {
  name: "scale3a_branch2b"
  type: "Scale"
  bottom: "res3a_branch2b"
  top: "res3a_branch2b"
  scale_param {
    bias_term: true
  }
}
layer {
  name: "res3a_branch2b_relu"
  type: "ReLU"
  bottom: "res3a_branch2b"
  top: "res3a_branch2b"
}
layer {
  name: "res3a_branch2c"
  type: "Convolution"
  bottom: "res3a_branch2b"
  top: "res3a_branch2c"
  convolution_param {
    num_output: 512
    bias_term: false
    pad: 0
    kernel_size: 1
    stride: 1
  }
}
layer {
  name: "bn3a_branch2c"
  type: "BatchNorm"
  bottom: "res3a_branch2c"
  top: "res3a_branch2c"
  batch_norm_param {
    use_global_stats: true
  }
}
layer {
  name: "scale3a_branch2c"
  type: "Scale"
  bottom: "res3a_branch2c"
  top: "res3a_branch2c"
  scale_param {
    bias_term: true
  }
}
layer {
  name: "res3a"
  type: "Eltwise"
  bottom: "res3a_branch1"
  bottom: "res3a_branch2c"
  top: "res3a"
}
layer {
  name: "res3a_relu"
  type: "ReLU"
  bottom: "res3a"
  top: "res3a"
}
layer {
  name: "res3b1_branch2a"
  type: "Convolution"
  bottom: "res3a"
  top: "res3b1_branch2a"
  convolution_param {
    num_output: 128
    bias_term: false
    pad: 0
    kernel_size: 1
    stride: 1
  }
}
layer {
  name: "bn3b1_branch2a"
  type: "BatchNorm"
  bottom: "res3b1_branch2a"
  top: "res3b1_branch2a"
  batch_norm_param {
    use_global_stats: true
  }
}
layer {
  name: "scale3b1_branch2a"
  type: "Scale"
  bottom: "res3b1_branch2a"
  top: "res3b1_branch2a"
  scale_param {
    bias_term: true
  }
}
layer {
  name: "res3b1_branch2a_relu"
  type: "ReLU"
  bottom: "res3b1_branch2a"
  top: "res3b1_branch2a"
}
layer {
  name: "res3b1_branch2b"
  type: "Convolution"
  bottom: "res3b1_branch2a"
  top: "res3b1_branch2b"
  convolution_param {
    num_output: 128
    bias_term: false
    pad: 1
    kernel_size: 3
    stride: 1
  }
}
layer {
  name: "bn3b1_branch2b"
  type: "BatchNorm"
  bottom: "res3b1_branch2b"
  top: "res3b1_branch2b"
  batch_norm_param {
    use_global_stats: true
  }
}
layer {
  name: "scale3b1_branch2b"
  type: "Scale"
  bottom: "res3b1_branch2b"
  top: "res3b1_branch2b"
  scale_param {
    bias_term: true
  }
}
layer {
  name: "res3b1_branch2b_relu"
  type: "ReLU"
  bottom: "res3b1_branch2b"
  top: "res3b1_branch2b"
}
layer {
  name: "res3b1_branch2c"
  type: "Convolution"
  bottom: "res3b1_branch2b"
  top: "res3b1_branch2c"
  convolution_param {
    num_output: 512
    bias_term: false
    pad: 0
    kernel_size: 1
    stride: 1
  }
}
layer {
  name: "bn3b1_branch2c"
  type: "BatchNorm"
  bottom: "res3b1_branch2c"
  top: "res3b1_branch2c"
  batch_norm_param {
    use_global_stats: true
  }
}
layer {
  name: "scale3b1_branch2c"
  type: "Scale"
  bottom: "res3b1_branch2c"
  top: "res3b1_branch2c"
  scale_param {
    bias_term: true
  }
}
layer {
  name: "res3b1"
  type: "Eltwise"
  bottom: "res3a"
  bottom: "res3b1_branch2c"
  top: "res3b1"
}
layer {
  name: "res3b1_relu"
  type: "ReLU"
  bottom: "res3b1"
  top: "res3b1"
}
layer {
  name: "res3b2_branch2a"
  type: "Convolution"
  bottom: "res3b1"
  top: "res3b2_branch2a"
  convolution_param {
    num_output: 128
    bias_term: false
    pad: 0
    kernel_size: 1
    stride: 1
  }
}
layer {
  name: "bn3b2_branch2a"
  type: "BatchNorm"
  bottom: "res3b2_branch2a"
  top: "res3b2_branch2a"
  batch_norm_param {
    use_global_stats: true
  }
}
layer {
  name: "scale3b2_branch2a"
  type: "Scale"
  bottom: "res3b2_branch2a"
  top: "res3b2_branch2a"
  scale_param {
    bias_term: true
  }
}
layer {
  name: "res3b2_branch2a_relu"
  type: "ReLU"
  bottom: "res3b2_branch2a"
  top: "res3b2_branch2a"
}
layer {
  name: "res3b2_branch2b"
  type: "Convolution"
  bottom: "res3b2_branch2a"
  top: "res3b2_branch2b"
  convolution_param {
    num_output: 128
    bias_term: false
    pad: 1
    kernel_size: 3
    stride: 1
  }
}
layer {
  name: "bn3b2_branch2b"
  type: "BatchNorm"
  bottom: "res3b2_branch2b"
  top: "res3b2_branch2b"
  batch_norm_param {
    use_global_stats: true
  }
}
layer {
  name: "scale3b2_branch2b"
  type: "Scale"
  bottom: "res3b2_branch2b"
  top: "res3b2_branch2b"
  scale_param {
    bias_term: true
  }
}
layer {
  name: "res3b2_branch2b_relu"
  type: "ReLU"
  bottom: "res3b2_branch2b"
  top: "res3b2_branch2b"
}
layer {
  name: "res3b2_branch2c"
  type: "Convolution"
  bottom: "res3b2_branch2b"
  top: "res3b2_branch2c"
  convolution_param {
    num_output: 512
    bias_term: false
    pad: 0
    kernel_size: 1
    stride: 1
  }
}
layer {
  name: "bn3b2_branch2c"
  type: "BatchNorm"
  bottom: "res3b2_branch2c"
  top: "res3b2_branch2c"
  batch_norm_param {
    use_global_stats: true
  }
}
layer {
  name: "scale3b2_branch2c"
  type: "Scale"
  bottom: "res3b2_branch2c"
  top: "res3b2_branch2c"
  scale_param {
    bias_term: true
  }
}
layer {
  name: "res3b2"
  type: "Eltwise"
  bottom: "res3b1"
  bottom: "res3b2_branch2c"
  top: "res3b2"
}
layer {
  name: "res3b2_relu"
  type: "ReLU"
  bottom: "res3b2"
  top: "res3b2"
}
layer {
  name: "res3b3_branch2a"
  type: "Convolution"
  bottom: "res3b2"
  top: "res3b3_branch2a"
  convolution_param {
    num_output: 128
    bias_term: false
    pad: 0
    kernel_size: 1
    stride: 1
  }
}
layer {
  name: "bn3b3_branch2a"
  type: "BatchNorm"
  bottom: "res3b3_branch2a"
  top: "res3b3_branch2a"
  batch_norm_param {
    use_global_stats: true
  }
}
layer {
  name: "scale3b3_branch2a"
  type: "Scale"
  bottom: "res3b3_branch2a"
  top: "res3b3_branch2a"
  scale_param {
    bias_term: true
  }
}
layer {
  name: "res3b3_branch2a_relu"
  type: "ReLU"
  bottom: "res3b3_branch2a"
  top: "res3b3_branch2a"
}
layer {
  name: "res3b3_branch2b"
  type: "Convolution"
  bottom: "res3b3_branch2a"
  top: "res3b3_branch2b"
  convolution_param {
    num_output: 128
    bias_term: false
    pad: 1
    kernel_size: 3
    stride: 1
  }
}
layer {
  name: "bn3b3_branch2b"
  type: "BatchNorm"
  bottom: "res3b3_branch2b"
  top: "res3b3_branch2b"
  batch_norm_param {
    use_global_stats: true
  }
}
layer {
  name: "scale3b3_branch2b"
  type: "Scale"
  bottom: "res3b3_branch2b"
  top: "res3b3_branch2b"
  scale_param {
    bias_term: true
  }
}
layer {
  name: "res3b3_branch2b_relu"
  type: "ReLU"
  bottom: "res3b3_branch2b"
  top: "res3b3_branch2b"
}
layer {
  name: "res3b3_branch2c"
  type: "Convolution"
  bottom: "res3b3_branch2b"
  top: "res3b3_branch2c"
  convolution_param {
    num_output: 512
    bias_term: false
    pad: 0
    kernel_size: 1
    stride: 1
  }
}
layer {
  name: "bn3b3_branch2c"
  type: "BatchNorm"
  bottom: "res3b3_branch2c"
  top: "res3b3_branch2c"
  batch_norm_param {
    use_global_stats: true
  }
}
layer {
  name: "scale3b3_branch2c"
  type: "Scale"
  bottom: "res3b3_branch2c"
  top: "res3b3_branch2c"
  scale_param {
    bias_term: true
  }
}
layer {
  name: "res3b3"
  type: "Eltwise"
  bottom: "res3b2"
  bottom: "res3b3_branch2c"
  top: "res3b3"
}
layer {
  name: "res3b3_relu"
  type: "ReLU"
  bottom: "res3b3"
  top: "res3b3"
}
layer {
  name: "res3b4_branch2a"
  type: "Convolution"
  bottom: "res3b3"
  top: "res3b4_branch2a"
  convolution_param {
    num_output: 128
    bias_term: false
    pad: 0
    kernel_size: 1
    stride: 1
  }
}
layer {
  name: "bn3b4_branch2a"
  type: "BatchNorm"
  bottom: "res3b4_branch2a"
  top: "res3b4_branch2a"
  batch_norm_param {
    use_global_stats: true
  }
}
layer {
  name: "scale3b4_branch2a"
  type: "Scale"
  bottom: "res3b4_branch2a"
  top: "res3b4_branch2a"
  scale_param {
    bias_term: true
  }
}
layer {
  name: "res3b4_branch2a_relu"
  type: "ReLU"
  bottom: "res3b4_branch2a"
  top: "res3b4_branch2a"
}
layer {
  name: "res3b4_branch2b"
  type: "Convolution"
  bottom: "res3b4_branch2a"
  top: "res3b4_branch2b"
  convolution_param {
    num_output: 128
    bias_term: false
    pad: 1
    kernel_size: 3
    stride: 1
  }
}
layer {
  name: "bn3b4_branch2b"
  type: "BatchNorm"
  bottom: "res3b4_branch2b"
  top: "res3b4_branch2b"
  batch_norm_param {
    use_global_stats: true
  }
}
layer {
  name: "scale3b4_branch2b"
  type: "Scale"
  bottom: "res3b4_branch2b"
  top: "res3b4_branch2b"
  scale_param {
    bias_term: true
  }
}
layer {
  name: "res3b4_branch2b_relu"
  type: "ReLU"
  bottom: "res3b4_branch2b"
  top: "res3b4_branch2b"
}
layer {
  name: "res3b4_branch2c"
  type: "Convolution"
  bottom: "res3b4_branch2b"
  top: "res3b4_branch2c"
  convolution_param {
    num_output: 512
    bias_term: false
    pad: 0
    kernel_size: 1
    stride: 1
  }
}
layer {
  name: "bn3b4_branch2c"
  type: "BatchNorm"
  bottom: "res3b4_branch2c"
  top: "res3b4_branch2c"
  batch_norm_param {
    use_global_stats: true
  }
}
layer {
  name: "scale3b4_branch2c"
  type: "Scale"
  bottom: "res3b4_branch2c"
  top: "res3b4_branch2c"
  scale_param {
    bias_term: true
  }
}
layer {
  name: "res3b4"
  type: "Eltwise"
  bottom: "res3b3"
  bottom: "res3b4_branch2c"
  top: "res3b4"
}
layer {
  name: "res3b4_relu"
  type: "ReLU"
  bottom: "res3b4"
  top: "res3b4"
}
layer {
  name: "res3b5_branch2a"
  type: "Convolution"
  bottom: "res3b4"
  top: "res3b5_branch2a"
  convolution_param {
    num_output: 128
    bias_term: false
    pad: 0
    kernel_size: 1
    stride: 1
  }
}
layer {
  name: "bn3b5_branch2a"
  type: "BatchNorm"
  bottom: "res3b5_branch2a"
  top: "res3b5_branch2a"
  batch_norm_param {
    use_global_stats: true
  }
}
layer {
  name: "scale3b5_branch2a"
  type: "Scale"
  bottom: "res3b5_branch2a"
  top: "res3b5_branch2a"
  scale_param {
    bias_term: true
  }
}
layer {
  name: "res3b5_branch2a_relu"
  type: "ReLU"
  bottom: "res3b5_branch2a"
  top: "res3b5_branch2a"
}
layer {
  name: "res3b5_branch2b"
  type: "Convolution"
  bottom: "res3b5_branch2a"
  top: "res3b5_branch2b"
  convolution_param {
    num_output: 128
    bias_term: false
    pad: 1
    kernel_size: 3
    stride: 1
  }
}
layer {
  name: "bn3b5_branch2b"
  type: "BatchNorm"
  bottom: "res3b5_branch2b"
  top: "res3b5_branch2b"
  batch_norm_param {
    use_global_stats: true
  }
}
layer {
  name: "scale3b5_branch2b"
  type: "Scale"
  bottom: "res3b5_branch2b"
  top: "res3b5_branch2b"
  scale_param {
    bias_term: true
  }
}
layer {
  name: "res3b5_branch2b_relu"
  type: "ReLU"
  bottom: "res3b5_branch2b"
  top: "res3b5_branch2b"
}
layer {
  name: "res3b5_branch2c"
  type: "Convolution"
  bottom: "res3b5_branch2b"
  top: "res3b5_branch2c"
  convolution_param {
    num_output: 512
    bias_term: false
    pad: 0
    kernel_size: 1
    stride: 1
  }
}
layer {
  name: "bn3b5_branch2c"
  type: "BatchNorm"
  bottom: "res3b5_branch2c"
  top: "res3b5_branch2c"
  batch_norm_param {
    use_global_stats: true
  }
}
layer {
  name: "scale3b5_branch2c"
  type: "Scale"
  bottom: "res3b5_branch2c"
  top: "res3b5_branch2c"
  scale_param {
    bias_term: true
  }
}
layer {
  name: "res3b5"
  type: "Eltwise"
  bottom: "res3b4"
  bottom: "res3b5_branch2c"
  top: "res3b5"
}
layer {
  name: "res3b5_relu"
  type: "ReLU"
  bottom: "res3b5"
  top: "res3b5"
}
layer {
  name: "res3b6_branch2a"
  type: "Convolution"
  bottom: "res3b5"
  top: "res3b6_branch2a"
  convolution_param {
    num_output: 128
    bias_term: false
    pad: 0
    kernel_size: 1
    stride: 1
  }
}
layer {
  name: "bn3b6_branch2a"
  type: "BatchNorm"
  bottom: "res3b6_branch2a"
  top: "res3b6_branch2a"
  batch_norm_param {
    use_global_stats: true
  }
}
layer {
  name: "scale3b6_branch2a"
  type: "Scale"
  bottom: "res3b6_branch2a"
  top: "res3b6_branch2a"
  scale_param {
    bias_term: true
  }
}
layer {
  name: "res3b6_branch2a_relu"
  type: "ReLU"
  bottom: "res3b6_branch2a"
  top: "res3b6_branch2a"
}
layer {
  name: "res3b6_branch2b"
  type: "Convolution"
  bottom: "res3b6_branch2a"
  top: "res3b6_branch2b"
  convolution_param {
    num_output: 128
    bias_term: false
    pad: 1
    kernel_size: 3
    stride: 1
  }
}
layer {
  name: "bn3b6_branch2b"
  type: "BatchNorm"
  bottom: "res3b6_branch2b"
  top: "res3b6_branch2b"
  batch_norm_param {
    use_global_stats: true
  }
}
layer {
  name: "scale3b6_branch2b"
  type: "Scale"
  bottom: "res3b6_branch2b"
  top: "res3b6_branch2b"
  scale_param {
    bias_term: true
  }
}
layer {
  name: "res3b6_branch2b_relu"
  type: "ReLU"
  bottom: "res3b6_branch2b"
  top: "res3b6_branch2b"
}
layer {
  name: "res3b6_branch2c"
  type: "Convolution"
  bottom: "res3b6_branch2b"
  top: "res3b6_branch2c"
  convolution_param {
    num_output: 512
    bias_term: false
    pad: 0
    kernel_size: 1
    stride: 1
  }
}
layer {
  name: "bn3b6_branch2c"
  type: "BatchNorm"
  bottom: "res3b6_branch2c"
  top: "res3b6_branch2c"
  batch_norm_param {
    use_global_stats: true
  }
}
layer {
  name: "scale3b6_branch2c"
  type: "Scale"
  bottom: "res3b6_branch2c"
  top: "res3b6_branch2c"
  scale_param {
    bias_term: true
  }
}
layer {
  name: "res3b6"
  type: "Eltwise"
  bottom: "res3b5"
  bottom: "res3b6_branch2c"
  top: "res3b6"
}
layer {
  name: "res3b6_relu"
  type: "ReLU"
  bottom: "res3b6"
  top: "res3b6"
}
layer {
  name: "res3b7_branch2a"
  type: "Convolution"
  bottom: "res3b6"
  top: "res3b7_branch2a"
  convolution_param {
    num_output: 128
    bias_term: false
    pad: 0
    kernel_size: 1
    stride: 1
  }
}
layer {
  name: "bn3b7_branch2a"
  type: "BatchNorm"
  bottom: "res3b7_branch2a"
  top: "res3b7_branch2a"
  batch_norm_param {
    use_global_stats: true
  }
}
layer {
  name: "scale3b7_branch2a"
  type: "Scale"
  bottom: "res3b7_branch2a"
  top: "res3b7_branch2a"
  scale_param {
    bias_term: true
  }
}
layer {
  name: "res3b7_branch2a_relu"
  type: "ReLU"
  bottom: "res3b7_branch2a"
  top: "res3b7_branch2a"
}
layer {
  name: "res3b7_branch2b"
  type: "Convolution"
  bottom: "res3b7_branch2a"
  top: "res3b7_branch2b"
  convolution_param {
    num_output: 128
    bias_term: false
    pad: 1
    kernel_size: 3
    stride: 1
  }
}
layer {
  name: "bn3b7_branch2b"
  type: "BatchNorm"
  bottom: "res3b7_branch2b"
  top: "res3b7_branch2b"
  batch_norm_param {
    use_global_stats: true
  }
}
layer {
  name: "scale3b7_branch2b"
  type: "Scale"
  bottom: "res3b7_branch2b"
  top: "res3b7_branch2b"
  scale_param {
    bias_term: true
  }
}
layer {
  name: "res3b7_branch2b_relu"
  type: "ReLU"
  bottom: "res3b7_branch2b"
  top: "res3b7_branch2b"
}
layer {
  name: "res3b7_branch2c"
  type: "Convolution"
  bottom: "res3b7_branch2b"
  top: "res3b7_branch2c"
  convolution_param {
    num_output: 512
    bias_term: false
    pad: 0
    kernel_size: 1
    stride: 1
  }
}
layer {
  name: "bn3b7_branch2c"
  type: "BatchNorm"
  bottom: "res3b7_branch2c"
  top: "res3b7_branch2c"
  batch_norm_param {
    use_global_stats: true
  }
}
layer {
  name: "scale3b7_branch2c"
  type: "Scale"
  bottom: "res3b7_branch2c"
  top: "res3b7_branch2c"
  scale_param {
    bias_term: true
  }
}
layer {
  name: "res3b7"
  type: "Eltwise"
  bottom: "res3b6"
  bottom: "res3b7_branch2c"
  top: "res3b7"
}
layer {
  name: "res3b7_relu"
  type: "ReLU"
  bottom: "res3b7"
  top: "res3b7"
}
layer {
  name: "res4a_branch1"
  type: "Convolution"
  bottom: "res3b7"
  top: "res4a_branch1"
  convolution_param {
    num_output: 1024
    bias_term: false
    pad: 0
    kernel_size: 1
    stride: 2
  }
}
layer {
  name: "bn4a_branch1"
  type: "BatchNorm"
  bottom: "res4a_branch1"
  top: "res4a_branch1"
  batch_norm_param {
    use_global_stats: true
  }
}
layer {
  name: "scale4a_branch1"
  type: "Scale"
  bottom: "res4a_branch1"
  top: "res4a_branch1"
  scale_param {
    bias_term: true
  }
}
layer {
  name: "res4a_branch2a"
  type: "Convolution"
  bottom: "res3b7"
  top: "res4a_branch2a"
  convolution_param {
    num_output: 256
    bias_term: false
    pad: 0
    kernel_size: 1
    stride: 2
  }
}
layer {
  name: "bn4a_branch2a"
  type: "BatchNorm"
  bottom: "res4a_branch2a"
  top: "res4a_branch2a"
  batch_norm_param {
    use_global_stats: true
  }
}
layer {
  name: "scale4a_branch2a"
  type: "Scale"
  bottom: "res4a_branch2a"
  top: "res4a_branch2a"
  scale_param {
    bias_term: true
  }
}
layer {
  name: "res4a_branch2a_relu"
  type: "ReLU"
  bottom: "res4a_branch2a"
  top: "res4a_branch2a"
}
layer {
  name: "res4a_branch2b"
  type: "Convolution"
  bottom: "res4a_branch2a"
  top: "res4a_branch2b"
  convolution_param {
    num_output: 256
    bias_term: false
    pad: 1
    kernel_size: 3
    stride: 1
  }
}
layer {
  name: "bn4a_branch2b"
  type: "BatchNorm"
  bottom: "res4a_branch2b"
  top: "res4a_branch2b"
  batch_norm_param {
    use_global_stats: true
  }
}
layer {
  name: "scale4a_branch2b"
  type: "Scale"
  bottom: "res4a_branch2b"
  top: "res4a_branch2b"
  scale_param {
    bias_term: true
  }
}
layer {
  name: "res4a_branch2b_relu"
  type: "ReLU"
  bottom: "res4a_branch2b"
  top: "res4a_branch2b"
}
layer {
  name: "res4a_branch2c"
  type: "Convolution"
  bottom: "res4a_branch2b"
  top: "res4a_branch2c"
  convolution_param {
    num_output: 1024
    bias_term: false
    pad: 0
    kernel_size: 1
    stride: 1
  }
}
layer {
  name: "bn4a_branch2c"
  type: "BatchNorm"
  bottom: "res4a_branch2c"
  top: "res4a_branch2c"
  batch_norm_param {
    use_global_stats: true
  }
}
layer {
  name: "scale4a_branch2c"
  type: "Scale"
  bottom: "res4a_branch2c"
  top: "res4a_branch2c"
  scale_param {
    bias_term: true
  }
}
layer {
  name: "res4a"
  type: "Eltwise"
  bottom: "res4a_branch1"
  bottom: "res4a_branch2c"
  top: "res4a"
}
layer {
  name: "res4a_relu"
  type: "ReLU"
  bottom: "res4a"
  top: "res4a"
}
layer {
  name: "res4b1_branch2a"
  type: "Convolution"
  bottom: "res4a"
  top: "res4b1_branch2a"
  convolution_param {
    num_output: 256
    bias_term: false
    pad: 0
    kernel_size: 1
    stride: 1
  }
}
layer {
  name: "bn4b1_branch2a"
  type: "BatchNorm"
  bottom: "res4b1_branch2a"
  top: "res4b1_branch2a"
  batch_norm_param {
    use_global_stats: true
  }
}
layer {
  name: "scale4b1_branch2a"
  type: "Scale"
  bottom: "res4b1_branch2a"
  top: "res4b1_branch2a"
  scale_param {
    bias_term: true
  }
}
layer {
  name: "res4b1_branch2a_relu"
  type: "ReLU"
  bottom: "res4b1_branch2a"
  top: "res4b1_branch2a"
}
layer {
  name: "res4b1_branch2b"
  type: "Convolution"
  bottom: "res4b1_branch2a"
  top: "res4b1_branch2b"
  convolution_param {
    num_output: 256
    bias_term: false
    pad: 1
    kernel_size: 3
    stride: 1
  }
}
layer {
  name: "bn4b1_branch2b"
  type: "BatchNorm"
  bottom: "res4b1_branch2b"
  top: "res4b1_branch2b"
  batch_norm_param {
    use_global_stats: true
  }
}
layer {
  name: "scale4b1_branch2b"
  type: "Scale"
  bottom: "res4b1_branch2b"
  top: "res4b1_branch2b"
  scale_param {
    bias_term: true
  }
}
layer {
  name: "res4b1_branch2b_relu"
  type: "ReLU"
  bottom: "res4b1_branch2b"
  top: "res4b1_branch2b"
}
layer {
  name: "res4b1_branch2c"
  type: "Convolution"
  bottom: "res4b1_branch2b"
  top: "res4b1_branch2c"
  convolution_param {
    num_output: 1024
    bias_term: false
    pad: 0
    kernel_size: 1
    stride: 1
  }
}
layer {
  name: "bn4b1_branch2c"
  type: "BatchNorm"
  bottom: "res4b1_branch2c"
  top: "res4b1_branch2c"
  batch_norm_param {
    use_global_stats: true
  }
}
layer {
  name: "scale4b1_branch2c"
  type: "Scale"
  bottom: "res4b1_branch2c"
  top: "res4b1_branch2c"
  scale_param {
    bias_term: true
  }
}
layer {
  name: "res4b1"
  type: "Eltwise"
  bottom: "res4a"
  bottom: "res4b1_branch2c"
  top: "res4b1"
}
layer {
  name: "res4b1_relu"
  type: "ReLU"
  bottom: "res4b1"
  top: "res4b1"
}
layer {
  name: "res4b2_branch2a"
  type: "Convolution"
  bottom: "res4b1"
  top: "res4b2_branch2a"
  convolution_param {
    num_output: 256
    bias_term: false
    pad: 0
    kernel_size: 1
    stride: 1
  }
}
layer {
  name: "bn4b2_branch2a"
  type: "BatchNorm"
  bottom: "res4b2_branch2a"
  top: "res4b2_branch2a"
  batch_norm_param {
    use_global_stats: true
  }
}
layer {
  name: "scale4b2_branch2a"
  type: "Scale"
  bottom: "res4b2_branch2a"
  top: "res4b2_branch2a"
  scale_param {
    bias_term: true
  }
}
layer {
  name: "res4b2_branch2a_relu"
  type: "ReLU"
  bottom: "res4b2_branch2a"
  top: "res4b2_branch2a"
}
layer {
  name: "res4b2_branch2b"
  type: "Convolution"
  bottom: "res4b2_branch2a"
  top: "res4b2_branch2b"
  convolution_param {
    num_output: 256
    bias_term: false
    pad: 1
    kernel_size: 3
    stride: 1
  }
}
layer {
  name: "bn4b2_branch2b"
  type: "BatchNorm"
  bottom: "res4b2_branch2b"
  top: "res4b2_branch2b"
  batch_norm_param {
    use_global_stats: true
  }
}
layer {
  name: "scale4b2_branch2b"
  type: "Scale"
  bottom: "res4b2_branch2b"
  top: "res4b2_branch2b"
  scale_param {
    bias_term: true
  }
}
layer {
  name: "res4b2_branch2b_relu"
  type: "ReLU"
  bottom: "res4b2_branch2b"
  top: "res4b2_branch2b"
}
layer {
  name: "res4b2_branch2c"
  type: "Convolution"
  bottom: "res4b2_branch2b"
  top: "res4b2_branch2c"
  convolution_param {
    num_ou
I0310 13:04:31.321593 26167 layer_factory.hpp:77] Creating layer data
I0310 13:04:31.322240 26167 net.cpp:106] Creating Layer data
I0310 13:04:31.322279 26167 net.cpp:411] data -> data
I0310 13:04:31.322336 26167 net.cpp:411] data -> id_label
I0310 13:04:31.322374 26167 data_transformer.cpp:25] Loading mean file from: /home/lizhuowan/Market1501/lmdb/lmdb_12936/Image_lmdb_12936.binaryproto
I0310 13:04:31.323344 26171 db_lmdb.cpp:38] Opened lmdb /home/lizhuowan/Market1501/lmdb/lmdb_mirror_12936/Image_lmdb_mirror_12936
I0310 13:04:31.337478 26167 data_layer.cpp:41] output data size: 8,3,224,224
I0310 13:04:31.347968 26167 net.cpp:150] Setting up data
I0310 13:04:31.348017 26167 net.cpp:157] Top shape: 8 3 224 224 (1204224)
I0310 13:04:31.348032 26167 net.cpp:157] Top shape: 8 (8)
I0310 13:04:31.348042 26167 net.cpp:165] Memory required for data: 4816928
I0310 13:04:31.348064 26167 layer_factory.hpp:77] Creating layer data_data_0_split
I0310 13:04:31.348093 26167 net.cpp:106] Creating Layer data_data_0_split
I0310 13:04:31.348107 26167 net.cpp:454] data_data_0_split <- data
I0310 13:04:31.348140 26167 net.cpp:411] data_data_0_split -> data_data_0_split_0
I0310 13:04:31.348161 26167 net.cpp:411] data_data_0_split -> data_data_0_split_1
I0310 13:04:31.348225 26167 net.cpp:150] Setting up data_data_0_split
I0310 13:04:31.348243 26167 net.cpp:157] Top shape: 8 3 224 224 (1204224)
I0310 13:04:31.348254 26167 net.cpp:157] Top shape: 8 3 224 224 (1204224)
I0310 13:04:31.348264 26167 net.cpp:165] Memory required for data: 14450720
I0310 13:04:31.348274 26167 layer_factory.hpp:77] Creating layer data
I0310 13:04:31.348927 26167 net.cpp:106] Creating Layer data
I0310 13:04:31.349067 26167 net.cpp:411] data -> labels
I0310 13:04:31.350304 26173 db_lmdb.cpp:38] Opened lmdb /home/lizhuowan/Market1501/lmdb/lmdb_mirror_12936/pos30_lmdb_mirror_12936
I0310 13:04:31.350523 26167 data_layer.cpp:41] output data size: 8,30,1,1
I0310 13:04:31.350747 26167 net.cpp:150] Setting up data
I0310 13:04:31.350800 26167 net.cpp:157] Top shape: 8 30 1 1 (240)
I0310 13:04:31.350831 26167 net.cpp:165] Memory required for data: 14451680
I0310 13:04:31.350843 26167 layer_factory.hpp:77] Creating layer conv1
I0310 13:04:31.350879 26167 net.cpp:106] Creating Layer conv1
I0310 13:04:31.350893 26167 net.cpp:454] conv1 <- data_data_0_split_0
I0310 13:04:31.350911 26167 net.cpp:411] conv1 -> conv1
I0310 13:04:31.352032 26167 net.cpp:150] Setting up conv1
I0310 13:04:31.352056 26167 net.cpp:157] Top shape: 8 64 112 112 (6422528)
I0310 13:04:31.352067 26167 net.cpp:165] Memory required for data: 40141792
I0310 13:04:31.352092 26167 layer_factory.hpp:77] Creating layer bn_conv1
I0310 13:04:31.352114 26167 net.cpp:106] Creating Layer bn_conv1
I0310 13:04:31.352125 26167 net.cpp:454] bn_conv1 <- conv1
I0310 13:04:31.352143 26167 net.cpp:397] bn_conv1 -> conv1 (in-place)
I0310 13:04:31.352565 26167 net.cpp:150] Setting up bn_conv1
I0310 13:04:31.352586 26167 net.cpp:157] Top shape: 8 64 112 112 (6422528)
I0310 13:04:31.352602 26167 net.cpp:165] Memory required for data: 65831904
I0310 13:04:31.352624 26167 layer_factory.hpp:77] Creating layer scale_conv1
I0310 13:04:31.352649 26167 net.cpp:106] Creating Layer scale_conv1
I0310 13:04:31.352664 26167 net.cpp:454] scale_conv1 <- conv1
I0310 13:04:31.352684 26167 net.cpp:397] scale_conv1 -> conv1 (in-place)
I0310 13:04:31.352785 26167 layer_factory.hpp:77] Creating layer scale_conv1
I0310 13:04:31.352989 26167 net.cpp:150] Setting up scale_conv1
I0310 13:04:31.353010 26167 net.cpp:157] Top shape: 8 64 112 112 (6422528)
I0310 13:04:31.353025 26167 net.cpp:165] Memory required for data: 91522016
I0310 13:04:31.353065 26167 layer_factory.hpp:77] Creating layer conv1_relu
I0310 13:04:31.353087 26167 net.cpp:106] Creating Layer conv1_relu
I0310 13:04:31.353102 26167 net.cpp:454] conv1_relu <- conv1
I0310 13:04:31.353118 26167 net.cpp:397] conv1_relu -> conv1 (in-place)
I0310 13:04:31.353137 26167 net.cpp:150] Setting up conv1_relu
I0310 13:04:31.353148 26167 net.cpp:157] Top shape: 8 64 112 112 (6422528)
I0310 13:04:31.353158 26167 net.cpp:165] Memory required for data: 117212128
I0310 13:04:31.353168 26167 layer_factory.hpp:77] Creating layer pool1
I0310 13:04:31.353188 26167 net.cpp:106] Creating Layer pool1
I0310 13:04:31.353206 26167 net.cpp:454] pool1 <- conv1
I0310 13:04:31.353219 26167 net.cpp:411] pool1 -> pool1
I0310 13:04:31.353325 26167 net.cpp:150] Setting up pool1
I0310 13:04:31.353346 26167 net.cpp:157] Top shape: 8 64 56 56 (1605632)
I0310 13:04:31.353358 26167 net.cpp:165] Memory required for data: 123634656
I0310 13:04:31.353368 26167 layer_factory.hpp:77] Creating layer pool1_pool1_0_split
I0310 13:04:31.353384 26167 net.cpp:106] Creating Layer pool1_pool1_0_split
I0310 13:04:31.353395 26167 net.cpp:454] pool1_pool1_0_split <- pool1
I0310 13:04:31.353408 26167 net.cpp:411] pool1_pool1_0_split -> pool1_pool1_0_split_0
I0310 13:04:31.353423 26167 net.cpp:411] pool1_pool1_0_split -> pool1_pool1_0_split_1
I0310 13:04:31.353438 26167 net.cpp:411] pool1_pool1_0_split -> pool1_pool1_0_split_2
I0310 13:04:31.353499 26167 net.cpp:150] Setting up pool1_pool1_0_split
I0310 13:04:31.353516 26167 net.cpp:157] Top shape: 8 64 56 56 (1605632)
I0310 13:04:31.353529 26167 net.cpp:157] Top shape: 8 64 56 56 (1605632)
I0310 13:04:31.353540 26167 net.cpp:157] Top shape: 8 64 56 56 (1605632)
I0310 13:04:31.353550 26167 net.cpp:165] Memory required for data: 142902240
I0310 13:04:31.353560 26167 layer_factory.hpp:77] Creating layer res2a_branch1
I0310 13:04:31.353580 26167 net.cpp:106] Creating Layer res2a_branch1
I0310 13:04:31.353591 26167 net.cpp:454] res2a_branch1 <- pool1_pool1_0_split_0
I0310 13:04:31.353605 26167 net.cpp:411] res2a_branch1 -> res2a_branch1
I0310 13:04:31.353813 26167 net.cpp:150] Setting up res2a_branch1
I0310 13:04:31.353832 26167 net.cpp:157] Top shape: 8 256 56 56 (6422528)
I0310 13:04:31.353842 26167 net.cpp:165] Memory required for data: 168592352
I0310 13:04:31.353855 26167 layer_factory.hpp:77] Creating layer bn2a_branch1
I0310 13:04:31.353869 26167 net.cpp:106] Creating Layer bn2a_branch1
I0310 13:04:31.353899 26167 net.cpp:454] bn2a_branch1 <- res2a_branch1
I0310 13:04:31.353916 26167 net.cpp:397] bn2a_branch1 -> res2a_branch1 (in-place)
I0310 13:04:31.354835 26167 net.cpp:150] Setting up bn2a_branch1
I0310 13:04:31.354859 26167 net.cpp:157] Top shape: 8 256 56 56 (6422528)
I0310 13:04:31.354871 26167 net.cpp:165] Memory required for data: 194282464
I0310 13:04:31.354890 26167 layer_factory.hpp:77] Creating layer scale2a_branch1
I0310 13:04:31.354909 26167 net.cpp:106] Creating Layer scale2a_branch1
I0310 13:04:31.354920 26167 net.cpp:454] scale2a_branch1 <- res2a_branch1
I0310 13:04:31.354933 26167 net.cpp:397] scale2a_branch1 -> res2a_branch1 (in-place)
I0310 13:04:31.354995 26167 layer_factory.hpp:77] Creating layer scale2a_branch1
I0310 13:04:31.355135 26167 net.cpp:150] Setting up scale2a_branch1
I0310 13:04:31.355154 26167 net.cpp:157] Top shape: 8 256 56 56 (6422528)
I0310 13:04:31.355165 26167 net.cpp:165] Memory required for data: 219972576
I0310 13:04:31.355180 26167 layer_factory.hpp:77] Creating layer res2a_branch2a
I0310 13:04:31.355196 26167 net.cpp:106] Creating Layer res2a_branch2a
I0310 13:04:31.355207 26167 net.cpp:454] res2a_branch2a <- pool1_pool1_0_split_1
I0310 13:04:31.355224 26167 net.cpp:411] res2a_branch2a -> res2a_branch2a
I0310 13:04:31.355434 26167 net.cpp:150] Setting up res2a_branch2a
I0310 13:04:31.355453 26167 net.cpp:157] Top shape: 8 64 56 56 (1605632)
I0310 13:04:31.355464 26167 net.cpp:165] Memory required for data: 226395104
I0310 13:04:31.355476 26167 layer_factory.hpp:77] Creating layer bn2a_branch2a
I0310 13:04:31.355491 26167 net.cpp:106] Creating Layer bn2a_branch2a
I0310 13:04:31.355502 26167 net.cpp:454] bn2a_branch2a <- res2a_branch2a
I0310 13:04:31.355515 26167 net.cpp:397] bn2a_branch2a -> res2a_branch2a (in-place)
I0310 13:04:31.355715 26167 net.cpp:150] Setting up bn2a_branch2a
I0310 13:04:31.355734 26167 net.cpp:157] Top shape: 8 64 56 56 (1605632)
I0310 13:04:31.355744 26167 net.cpp:165] Memory required for data: 232817632
I0310 13:04:31.355761 26167 layer_factory.hpp:77] Creating layer scale2a_branch2a
I0310 13:04:31.355778 26167 net.cpp:106] Creating Layer scale2a_branch2a
I0310 13:04:31.355790 26167 net.cpp:454] scale2a_branch2a <- res2a_branch2a
I0310 13:04:31.355803 26167 net.cpp:397] scale2a_branch2a -> res2a_branch2a (in-place)
I0310 13:04:31.355859 26167 layer_factory.hpp:77] Creating layer scale2a_branch2a
I0310 13:04:31.356009 26167 net.cpp:150] Setting up scale2a_branch2a
I0310 13:04:31.356029 26167 net.cpp:157] Top shape: 8 64 56 56 (1605632)
I0310 13:04:31.356039 26167 net.cpp:165] Memory required for data: 239240160
I0310 13:04:31.356060 26167 layer_factory.hpp:77] Creating layer res2a_branch2a_relu
I0310 13:04:31.356075 26167 net.cpp:106] Creating Layer res2a_branch2a_relu
I0310 13:04:31.356084 26167 net.cpp:454] res2a_branch2a_relu <- res2a_branch2a
I0310 13:04:31.356097 26167 net.cpp:397] res2a_branch2a_relu -> res2a_branch2a (in-place)
I0310 13:04:31.356111 26167 net.cpp:150] Setting up res2a_branch2a_relu
I0310 13:04:31.356123 26167 net.cpp:157] Top shape: 8 64 56 56 (1605632)
I0310 13:04:31.356132 26167 net.cpp:165] Memory required for data: 245662688
I0310 13:04:31.356142 26167 layer_factory.hpp:77] Creating layer res2a_branch2b
I0310 13:04:31.356163 26167 net.cpp:106] Creating Layer res2a_branch2b
I0310 13:04:31.356173 26167 net.cpp:454] res2a_branch2b <- res2a_branch2a
I0310 13:04:31.356186 26167 net.cpp:411] res2a_branch2b -> res2a_branch2b
I0310 13:04:31.357758 26167 net.cpp:150] Setting up res2a_branch2b
I0310 13:04:31.357790 26167 net.cpp:157] Top shape: 8 64 56 56 (1605632)
I0310 13:04:31.357802 26167 net.cpp:165] Memory required for data: 252085216
I0310 13:04:31.357816 26167 layer_factory.hpp:77] Creating layer bn2a_branch2b
I0310 13:04:31.357832 26167 net.cpp:106] Creating Layer bn2a_branch2b
I0310 13:04:31.357843 26167 net.cpp:454] bn2a_branch2b <- res2a_branch2b
I0310 13:04:31.357861 26167 net.cpp:397] bn2a_branch2b -> res2a_branch2b (in-place)
I0310 13:04:31.358080 26167 net.cpp:150] Setting up bn2a_branch2b
I0310 13:04:31.358108 26167 net.cpp:157] Top shape: 8 64 56 56 (1605632)
I0310 13:04:31.358130 26167 net.cpp:165] Memory required for data: 258507744
I0310 13:04:31.358147 26167 layer_factory.hpp:77] Creating layer scale2a_branch2b
I0310 13:04:31.358163 26167 net.cpp:106] Creating Layer scale2a_branch2b
I0310 13:04:31.358175 26167 net.cpp:454] scale2a_branch2b <- res2a_branch2b
I0310 13:04:31.358191 26167 net.cpp:397] scale2a_branch2b -> res2a_branch2b (in-place)
I0310 13:04:31.358245 26167 layer_factory.hpp:77] Creating layer scale2a_branch2b
I0310 13:04:31.358399 26167 net.cpp:150] Setting up scale2a_branch2b
I0310 13:04:31.358418 26167 net.cpp:157] Top shape: 8 64 56 56 (1605632)
I0310 13:04:31.358428 26167 net.cpp:165] Memory required for data: 264930272
I0310 13:04:31.358443 26167 layer_factory.hpp:77] Creating layer res2a_branch2b_relu
I0310 13:04:31.358456 26167 net.cpp:106] Creating Layer res2a_branch2b_relu
I0310 13:04:31.358467 26167 net.cpp:454] res2a_branch2b_relu <- res2a_branch2b
I0310 13:04:31.358495 26167 net.cpp:397] res2a_branch2b_relu -> res2a_branch2b (in-place)
I0310 13:04:31.358511 26167 net.cpp:150] Setting up res2a_branch2b_relu
I0310 13:04:31.358525 26167 net.cpp:157] Top shape: 8 64 56 56 (1605632)
I0310 13:04:31.358535 26167 net.cpp:165] Memory required for data: 271352800
I0310 13:04:31.358544 26167 layer_factory.hpp:77] Creating layer res2a_branch2c
I0310 13:04:31.358563 26167 net.cpp:106] Creating Layer res2a_branch2c
I0310 13:04:31.358574 26167 net.cpp:454] res2a_branch2c <- res2a_branch2b
I0310 13:04:31.358587 26167 net.cpp:411] res2a_branch2c -> res2a_branch2c
I0310 13:04:31.358801 26167 net.cpp:150] Setting up res2a_branch2c
I0310 13:04:31.358820 26167 net.cpp:157] Top shape: 8 256 56 56 (6422528)
I0310 13:04:31.358830 26167 net.cpp:165] Memory required for data: 297042912
I0310 13:04:31.358844 26167 layer_factory.hpp:77] Creating layer bn2a_branch2c
I0310 13:04:31.358858 26167 net.cpp:106] Creating Layer bn2a_branch2c
I0310 13:04:31.358868 26167 net.cpp:454] bn2a_branch2c <- res2a_branch2c
I0310 13:04:31.358885 26167 net.cpp:397] bn2a_branch2c -> res2a_branch2c (in-place)
I0310 13:04:31.359098 26167 net.cpp:150] Setting up bn2a_branch2c
I0310 13:04:31.359117 26167 net.cpp:157] Top shape: 8 256 56 56 (6422528)
I0310 13:04:31.359127 26167 net.cpp:165] Memory required for data: 322733024
I0310 13:04:31.359143 26167 layer_factory.hpp:77] Creating layer scale2a_branch2c
I0310 13:04:31.359158 26167 net.cpp:106] Creating Layer scale2a_branch2c
I0310 13:04:31.359169 26167 net.cpp:454] scale2a_branch2c <- res2a_branch2c
I0310 13:04:31.359181 26167 net.cpp:397] scale2a_branch2c -> res2a_branch2c (in-place)
I0310 13:04:31.359237 26167 layer_factory.hpp:77] Creating layer scale2a_branch2c
I0310 13:04:31.359380 26167 net.cpp:150] Setting up scale2a_branch2c
I0310 13:04:31.359400 26167 net.cpp:157] Top shape: 8 256 56 56 (6422528)
I0310 13:04:31.359410 26167 net.cpp:165] Memory required for data: 348423136
I0310 13:04:31.359424 26167 layer_factory.hpp:77] Creating layer res2a
I0310 13:04:31.359446 26167 net.cpp:106] Creating Layer res2a
I0310 13:04:31.359457 26167 net.cpp:454] res2a <- res2a_branch1
I0310 13:04:31.359468 26167 net.cpp:454] res2a <- res2a_branch2c
I0310 13:04:31.359483 26167 net.cpp:411] res2a -> res2a
I0310 13:04:31.359529 26167 net.cpp:150] Setting up res2a
I0310 13:04:31.359546 26167 net.cpp:157] Top shape: 8 256 56 56 (6422528)
I0310 13:04:31.359556 26167 net.cpp:165] Memory required for data: 374113248
I0310 13:04:31.359566 26167 layer_factory.hpp:77] Creating layer res2a_relu
I0310 13:04:31.359582 26167 net.cpp:106] Creating Layer res2a_relu
I0310 13:04:31.359593 26167 net.cpp:454] res2a_relu <- res2a
I0310 13:04:31.359606 26167 net.cpp:397] res2a_relu -> res2a (in-place)
I0310 13:04:31.359619 26167 net.cpp:150] Setting up res2a_relu
I0310 13:04:31.359632 26167 net.cpp:157] Top shape: 8 256 56 56 (6422528)
I0310 13:04:31.359640 26167 net.cpp:165] Memory required for data: 399803360
I0310 13:04:31.359650 26167 layer_factory.hpp:77] Creating layer res2a_res2a_relu_0_split
I0310 13:04:31.359673 26167 net.cpp:106] Creating Layer res2a_res2a_relu_0_split
I0310 13:04:31.359694 26167 net.cpp:454] res2a_res2a_relu_0_split <- res2a
I0310 13:04:31.359709 26167 net.cpp:411] res2a_res2a_relu_0_split -> res2a_res2a_relu_0_split_0
I0310 13:04:31.359724 26167 net.cpp:411] res2a_res2a_relu_0_split -> res2a_res2a_relu_0_split_1
I0310 13:04:31.359776 26167 net.cpp:150] Setting up res2a_res2a_relu_0_split
I0310 13:04:31.359793 26167 net.cpp:157] Top shape: 8 256 56 56 (6422528)
I0310 13:04:31.359807 26167 net.cpp:157] Top shape: 8 256 56 56 (6422528)
I0310 13:04:31.359815 26167 net.cpp:165] Memory required for data: 451183584
I0310 13:04:31.359825 26167 layer_factory.hpp:77] Creating layer res2b_branch2a
I0310 13:04:31.359843 26167 net.cpp:106] Creating Layer res2b_branch2a
I0310 13:04:31.359853 26167 net.cpp:454] res2b_branch2a <- res2a_res2a_relu_0_split_0
I0310 13:04:31.359869 26167 net.cpp:411] res2b_branch2a -> res2b_branch2a
I0310 13:04:31.360076 26167 net.cpp:150] Setting up res2b_branch2a
I0310 13:04:31.360095 26167 net.cpp:157] Top shape: 8 64 56 56 (1605632)
I0310 13:04:31.360105 26167 net.cpp:165] Memory required for data: 457606112
I0310 13:04:31.360118 26167 layer_factory.hpp:77] Creating layer bn2b_branch2a
I0310 13:04:31.360136 26167 net.cpp:106] Creating Layer bn2b_branch2a
I0310 13:04:31.360146 26167 net.cpp:454] bn2b_branch2a <- res2b_branch2a
I0310 13:04:31.360159 26167 net.cpp:397] bn2b_branch2a -> res2b_branch2a (in-place)
I0310 13:04:31.360373 26167 net.cpp:150] Setting up bn2b_branch2a
I0310 13:04:31.360393 26167 net.cpp:157] Top shape: 8 64 56 56 (1605632)
I0310 13:04:31.360402 26167 net.cpp:165] Memory required for data: 464028640
I0310 13:04:31.360430 26167 layer_factory.hpp:77] Creating layer scale2b_branch2a
I0310 13:04:31.360445 26167 net.cpp:106] Creating Layer scale2b_branch2a
I0310 13:04:31.360456 26167 net.cpp:454] scale2b_branch2a <- res2b_branch2a
I0310 13:04:31.360469 26167 net.cpp:397] scale2b_branch2a -> res2b_branch2a (in-place)
I0310 13:04:31.360532 26167 layer_factory.hpp:77] Creating layer scale2b_branch2a
I0310 13:04:31.360687 26167 net.cpp:150] Setting up scale2b_branch2a
I0310 13:04:31.360704 26167 net.cpp:157] Top shape: 8 64 56 56 (1605632)
I0310 13:04:31.360715 26167 net.cpp:165] Memory required for data: 470451168
I0310 13:04:31.360728 26167 layer_factory.hpp:77] Creating layer res2b_branch2a_relu
I0310 13:04:31.360743 26167 net.cpp:106] Creating Layer res2b_branch2a_relu
I0310 13:04:31.360754 26167 net.cpp:454] res2b_branch2a_relu <- res2b_branch2a
I0310 13:04:31.360764 26167 net.cpp:397] res2b_branch2a_relu -> res2b_branch2a (in-place)
I0310 13:04:31.360779 26167 net.cpp:150] Setting up res2b_branch2a_relu
I0310 13:04:31.360790 26167 net.cpp:157] Top shape: 8 64 56 56 (1605632)
I0310 13:04:31.360800 26167 net.cpp:165] Memory required for data: 476873696
I0310 13:04:31.360810 26167 layer_factory.hpp:77] Creating layer res2b_branch2b
I0310 13:04:31.360829 26167 net.cpp:106] Creating Layer res2b_branch2b
I0310 13:04:31.360841 26167 net.cpp:454] res2b_branch2b <- res2b_branch2a
I0310 13:04:31.360853 26167 net.cpp:411] res2b_branch2b -> res2b_branch2b
I0310 13:04:31.361083 26167 net.cpp:150] Setting up res2b_branch2b
I0310 13:04:31.361102 26167 net.cpp:157] Top shape: 8 64 56 56 (1605632)
I0310 13:04:31.361112 26167 net.cpp:165] Memory required for data: 483296224
I0310 13:04:31.361125 26167 layer_factory.hpp:77] Creating layer bn2b_branch2b
I0310 13:04:31.361140 26167 net.cpp:106] Creating Layer bn2b_branch2b
I0310 13:04:31.361150 26167 net.cpp:454] bn2b_branch2b <- res2b_branch2b
I0310 13:04:31.361162 26167 net.cpp:397] bn2b_branch2b -> res2b_branch2b (in-place)
I0310 13:04:31.361397 26167 net.cpp:150] Setting up bn2b_branch2b
I0310 13:04:31.361418 26167 net.cpp:157] Top shape: 8 64 56 56 (1605632)
I0310 13:04:31.361430 26167 net.cpp:165] Memory required for data: 489718752
I0310 13:04:31.361446 26167 layer_factory.hpp:77] Creating layer scale2b_branch2b
I0310 13:04:31.361464 26167 net.cpp:106] Creating Layer scale2b_branch2b
I0310 13:04:31.361484 26167 net.cpp:454] scale2b_branch2b <- res2b_branch2b
I0310 13:04:31.361507 26167 net.cpp:397] scale2b_branch2b -> res2b_branch2b (in-place)
I0310 13:04:31.361570 26167 layer_factory.hpp:77] Creating layer scale2b_branch2b
I0310 13:04:31.361724 26167 net.cpp:150] Setting up scale2b_branch2b
I0310 13:04:31.361743 26167 net.cpp:157] Top shape: 8 64 56 56 (1605632)
I0310 13:04:31.361753 26167 net.cpp:165] Memory required for data: 496141280
I0310 13:04:31.361768 26167 layer_factory.hpp:77] Creating layer res2b_branch2b_relu
I0310 13:04:31.361781 26167 net.cpp:106] Creating Layer res2b_branch2b_relu
I0310 13:04:31.361793 26167 net.cpp:454] res2b_branch2b_relu <- res2b_branch2b
I0310 13:04:31.361804 26167 net.cpp:397] res2b_branch2b_relu -> res2b_branch2b (in-place)
I0310 13:04:31.361816 26167 net.cpp:150] Setting up res2b_branch2b_relu
I0310 13:04:31.361829 26167 net.cpp:157] Top shape: 8 64 56 56 (1605632)
I0310 13:04:31.361838 26167 net.cpp:165] Memory required for data: 502563808
I0310 13:04:31.361848 26167 layer_factory.hpp:77] Creating layer res2b_branch2c
I0310 13:04:31.361868 26167 net.cpp:106] Creating Layer res2b_branch2c
I0310 13:04:31.361879 26167 net.cpp:454] res2b_branch2c <- res2b_branch2b
I0310 13:04:31.361896 26167 net.cpp:411] res2b_branch2c -> res2b_branch2c
I0310 13:04:31.362109 26167 net.cpp:150] Setting up res2b_branch2c
I0310 13:04:31.362129 26167 net.cpp:157] Top shape: 8 256 56 56 (6422528)
I0310 13:04:31.362139 26167 net.cpp:165] Memory required for data: 528253920
I0310 13:04:31.362151 26167 layer_factory.hpp:77] Creating layer bn2b_branch2c
I0310 13:04:31.362165 26167 net.cpp:106] Creating Layer bn2b_branch2c
I0310 13:04:31.362176 26167 net.cpp:454] bn2b_branch2c <- res2b_branch2c
I0310 13:04:31.362188 26167 net.cpp:397] bn2b_branch2c -> res2b_branch2c (in-place)
I0310 13:04:31.362403 26167 net.cpp:150] Setting up bn2b_branch2c
I0310 13:04:31.362421 26167 net.cpp:157] Top shape: 8 256 56 56 (6422528)
I0310 13:04:31.362432 26167 net.cpp:165] Memory required for data: 553944032
I0310 13:04:31.362447 26167 layer_factory.hpp:77] Creating layer scale2b_branch2c
I0310 13:04:31.362467 26167 net.cpp:106] Creating Layer scale2b_branch2c
I0310 13:04:31.362478 26167 net.cpp:454] scale2b_branch2c <- res2b_branch2c
I0310 13:04:31.362489 26167 net.cpp:397] scale2b_branch2c -> res2b_branch2c (in-place)
I0310 13:04:31.362545 26167 layer_factory.hpp:77] Creating layer scale2b_branch2c
I0310 13:04:31.362691 26167 net.cpp:150] Setting up scale2b_branch2c
I0310 13:04:31.362710 26167 net.cpp:157] Top shape: 8 256 56 56 (6422528)
I0310 13:04:31.362720 26167 net.cpp:165] Memory required for data: 579634144
I0310 13:04:31.362735 26167 layer_factory.hpp:77] Creating layer res2b
I0310 13:04:31.362752 26167 net.cpp:106] Creating Layer res2b
I0310 13:04:31.362763 26167 net.cpp:454] res2b <- res2a_res2a_relu_0_split_1
I0310 13:04:31.362774 26167 net.cpp:454] res2b <- res2b_branch2c
I0310 13:04:31.362787 26167 net.cpp:411] res2b -> res2b
I0310 13:04:31.362824 26167 net.cpp:150] Setting up res2b
I0310 13:04:31.362843 26167 net.cpp:157] Top shape: 8 256 56 56 (6422528)
I0310 13:04:31.362853 26167 net.cpp:165] Memory required for data: 605324256
I0310 13:04:31.362862 26167 layer_factory.hpp:77] Creating layer res2b_relu
I0310 13:04:31.362875 26167 net.cpp:106] Creating Layer res2b_relu
I0310 13:04:31.362886 26167 net.cpp:454] res2b_relu <- res2b
I0310 13:04:31.362900 26167 net.cpp:397] res2b_relu -> res2b (in-place)
I0310 13:04:31.362913 26167 net.cpp:150] Setting up res2b_relu
I0310 13:04:31.362926 26167 net.cpp:157] Top shape: 8 256 56 56 (6422528)
I0310 13:04:31.362936 26167 net.cpp:165] Memory required for data: 631014368
I0310 13:04:31.362946 26167 layer_factory.hpp:77] Creating layer res2b_res2b_relu_0_split
I0310 13:04:31.362962 26167 net.cpp:106] Creating Layer res2b_res2b_relu_0_split
I0310 13:04:31.362972 26167 net.cpp:454] res2b_res2b_relu_0_split <- res2b
I0310 13:04:31.362984 26167 net.cpp:411] res2b_res2b_relu_0_split -> res2b_res2b_relu_0_split_0
I0310 13:04:31.362998 26167 net.cpp:411] res2b_res2b_relu_0_split -> res2b_res2b_relu_0_split_1
I0310 13:04:31.363062 26167 net.cpp:150] Setting up res2b_res2b_relu_0_split
I0310 13:04:31.363080 26167 net.cpp:157] Top shape: 8 256 56 56 (6422528)
I0310 13:04:31.363092 26167 net.cpp:157] Top shape: 8 256 56 56 (6422528)
I0310 13:04:31.363101 26167 net.cpp:165] Memory required for data: 682394592
I0310 13:04:31.363112 26167 layer_factory.hpp:77] Creating layer res2c_branch2a
I0310 13:04:31.363127 26167 net.cpp:106] Creating Layer res2c_branch2a
I0310 13:04:31.363138 26167 net.cpp:454] res2c_branch2a <- res2b_res2b_relu_0_split_0
I0310 13:04:31.363152 26167 net.cpp:411] res2c_branch2a -> res2c_branch2a
I0310 13:04:31.363364 26167 net.cpp:150] Setting up res2c_branch2a
I0310 13:04:31.363384 26167 net.cpp:157] Top shape: 8 64 56 56 (1605632)
I0310 13:04:31.363394 26167 net.cpp:165] Memory required for data: 688817120
I0310 13:04:31.363407 26167 layer_factory.hpp:77] Creating layer bn2c_branch2a
I0310 13:04:31.363421 26167 net.cpp:106] Creating Layer bn2c_branch2a
I0310 13:04:31.363431 26167 net.cpp:454] bn2c_branch2a <- res2c_branch2a
I0310 13:04:31.363450 26167 net.cpp:397] bn2c_branch2a -> res2c_branch2a (in-place)
I0310 13:04:31.363677 26167 net.cpp:150] Setting up bn2c_branch2a
I0310 13:04:31.363696 26167 net.cpp:157] Top shape: 8 64 56 56 (1605632)
I0310 13:04:31.363706 26167 net.cpp:165] Memory required for data: 695239648
I0310 13:04:31.363725 26167 layer_factory.hpp:77] Creating layer scale2c_branch2a
I0310 13:04:31.363744 26167 net.cpp:106] Creating Layer scale2c_branch2a
I0310 13:04:31.363756 26167 net.cpp:454] scale2c_branch2a <- res2c_branch2a
I0310 13:04:31.363775 26167 net.cpp:397] scale2c_branch2a -> res2c_branch2a (in-place)
I0310 13:04:31.363831 26167 layer_factory.hpp:77] Creating layer scale2c_branch2a
I0310 13:04:31.363986 26167 net.cpp:150] Setting up scale2c_branch2a
I0310 13:04:31.364006 26167 net.cpp:157] Top shape: 8 64 56 56 (1605632)
I0310 13:04:31.364017 26167 net.cpp:165] Memory required for data: 701662176
I0310 13:04:31.364032 26167 layer_factory.hpp:77] Creating layer res2c_branch2a_relu
I0310 13:04:31.364050 26167 net.cpp:106] Creating Layer res2c_branch2a_relu
I0310 13:04:31.364061 26167 net.cpp:454] res2c_branch2a_relu <- res2c_branch2a
I0310 13:04:31.364076 26167 net.cpp:397] res2c_branch2a_relu -> res2c_branch2a (in-place)
I0310 13:04:31.364090 26167 net.cpp:150] Setting up res2c_branch2a_relu
I0310 13:04:31.364102 26167 net.cpp:157] Top shape: 8 64 56 56 (1605632)
I0310 13:04:31.364112 26167 net.cpp:165] Memory required for data: 708084704
I0310 13:04:31.364123 26167 layer_factory.hpp:77] Creating layer res2c_branch2b
I0310 13:04:31.364148 26167 net.cpp:106] Creating Layer res2c_branch2b
I0310 13:04:31.364159 26167 net.cpp:454] res2c_branch2b <- res2c_branch2a
I0310 13:04:31.364174 26167 net.cpp:411] res2c_branch2b -> res2c_branch2b
I0310 13:04:31.364982 26167 net.cpp:150] Setting up res2c_branch2b
I0310 13:04:31.365013 26167 net.cpp:157] Top shape: 8 64 56 56 (1605632)
I0310 13:04:31.365025 26167 net.cpp:165] Memory required for data: 714507232
I0310 13:04:31.365039 26167 layer_factory.hpp:77] Creating layer bn2c_branch2b
I0310 13:04:31.365054 26167 net.cpp:106] Creating Layer bn2c_branch2b
I0310 13:04:31.365067 26167 net.cpp:454] bn2c_branch2b <- res2c_branch2b
I0310 13:04:31.365079 26167 net.cpp:397] bn2c_branch2b -> res2c_branch2b (in-place)
I0310 13:04:31.365320 26167 net.cpp:150] Setting up bn2c_branch2b
I0310 13:04:31.365341 26167 net.cpp:157] Top shape: 8 64 56 56 (1605632)
I0310 13:04:31.365351 26167 net.cpp:165] Memory required for data: 720929760
I0310 13:04:31.365368 26167 layer_factory.hpp:77] Creating layer scale2c_branch2b
I0310 13:04:31.365383 26167 net.cpp:106] Creating Layer scale2c_branch2b
I0310 13:04:31.365394 26167 net.cpp:454] scale2c_branch2b <- res2c_branch2b
I0310 13:04:31.365408 26167 net.cpp:397] scale2c_branch2b -> res2c_branch2b (in-place)
I0310 13:04:31.365473 26167 layer_factory.hpp:77] Creating layer scale2c_branch2b
I0310 13:04:31.365636 26167 net.cpp:150] Setting up scale2c_branch2b
I0310 13:04:31.365669 26167 net.cpp:157] Top shape: 8 64 56 56 (1605632)
I0310 13:04:31.365696 26167 net.cpp:165] Memory required for data: 727352288
I0310 13:04:31.365712 26167 layer_factory.hpp:77] Creating layer res2c_branch2b_relu
I0310 13:04:31.365726 26167 net.cpp:106] Creating Layer res2c_branch2b_relu
I0310 13:04:31.365737 26167 net.cpp:454] res2c_branch2b_relu <- res2c_branch2b
I0310 13:04:31.365749 26167 net.cpp:397] res2c_branch2b_relu -> res2c_branch2b (in-place)
I0310 13:04:31.365763 26167 net.cpp:150] Setting up res2c_branch2b_relu
I0310 13:04:31.365775 26167 net.cpp:157] Top shape: 8 64 56 56 (1605632)
I0310 13:04:31.365785 26167 net.cpp:165] Memory required for data: 733774816
I0310 13:04:31.365795 26167 layer_factory.hpp:77] Creating layer res2c_branch2c
I0310 13:04:31.365815 26167 net.cpp:106] Creating Layer res2c_branch2c
I0310 13:04:31.365826 26167 net.cpp:454] res2c_branch2c <- res2c_branch2b
I0310 13:04:31.365842 26167 net.cpp:411] res2c_branch2c -> res2c_branch2c
I0310 13:04:31.366066 26167 net.cpp:150] Setting up res2c_branch2c
I0310 13:04:31.366086 26167 net.cpp:157] Top shape: 8 256 56 56 (6422528)
I0310 13:04:31.366096 26167 net.cpp:165] Memory required for data: 759464928
I0310 13:04:31.366109 26167 layer_factory.hpp:77] Creating layer bn2c_branch2c
I0310 13:04:31.366123 26167 net.cpp:106] Creating Layer bn2c_branch2c
I0310 13:04:31.366133 26167 net.cpp:454] bn2c_branch2c <- res2c_branch2c
I0310 13:04:31.366145 26167 net.cpp:397] bn2c_branch2c -> res2c_branch2c (in-place)
I0310 13:04:31.366358 26167 net.cpp:150] Setting up bn2c_branch2c
I0310 13:04:31.366376 26167 net.cpp:157] Top shape: 8 256 56 56 (6422528)
I0310 13:04:31.366387 26167 net.cpp:165] Memory required for data: 785155040
I0310 13:04:31.366403 26167 layer_factory.hpp:77] Creating layer scale2c_branch2c
I0310 13:04:31.366420 26167 net.cpp:106] Creating Layer scale2c_branch2c
I0310 13:04:31.366431 26167 net.cpp:454] scale2c_branch2c <- res2c_branch2c
I0310 13:04:31.366444 26167 net.cpp:397] scale2c_branch2c -> res2c_branch2c (in-place)
I0310 13:04:31.366503 26167 layer_factory.hpp:77] Creating layer scale2c_branch2c
I0310 13:04:31.366644 26167 net.cpp:150] Setting up scale2c_branch2c
I0310 13:04:31.366662 26167 net.cpp:157] Top shape: 8 256 56 56 (6422528)
I0310 13:04:31.366672 26167 net.cpp:165] Memory required for data: 810845152
I0310 13:04:31.366701 26167 layer_factory.hpp:77] Creating layer res2c
I0310 13:04:31.366720 26167 net.cpp:106] Creating Layer res2c
I0310 13:04:31.366731 26167 net.cpp:454] res2c <- res2b_res2b_relu_0_split_1
I0310 13:04:31.366742 26167 net.cpp:454] res2c <- res2c_branch2c
I0310 13:04:31.366755 26167 net.cpp:411] res2c -> res2c
I0310 13:04:31.366791 26167 net.cpp:150] Setting up res2c
I0310 13:04:31.366808 26167 net.cpp:157] Top shape: 8 256 56 56 (6422528)
I0310 13:04:31.366818 26167 net.cpp:165] Memory required for data: 836535264
I0310 13:04:31.366828 26167 layer_factory.hpp:77] Creating layer res2c_relu
I0310 13:04:31.366842 26167 net.cpp:106] Creating Layer res2c_relu
I0310 13:04:31.366852 26167 net.cpp:454] res2c_relu <- res2c
I0310 13:04:31.366863 26167 net.cpp:397] res2c_relu -> res2c (in-place)
I0310 13:04:31.366878 26167 net.cpp:150] Setting up res2c_relu
I0310 13:04:31.366889 26167 net.cpp:157] Top shape: 8 256 56 56 (6422528)
I0310 13:04:31.366899 26167 net.cpp:165] Memory required for data: 862225376
I0310 13:04:31.366909 26167 layer_factory.hpp:77] Creating layer res2c_res2c_relu_0_split
I0310 13:04:31.366921 26167 net.cpp:106] Creating Layer res2c_res2c_relu_0_split
I0310 13:04:31.366931 26167 net.cpp:454] res2c_res2c_relu_0_split <- res2c
I0310 13:04:31.366951 26167 net.cpp:411] res2c_res2c_relu_0_split -> res2c_res2c_relu_0_split_0
I0310 13:04:31.366967 26167 net.cpp:411] res2c_res2c_relu_0_split -> res2c_res2c_relu_0_split_1
I0310 13:04:31.367017 26167 net.cpp:150] Setting up res2c_res2c_relu_0_split
I0310 13:04:31.367033 26167 net.cpp:157] Top shape: 8 256 56 56 (6422528)
I0310 13:04:31.367045 26167 net.cpp:157] Top shape: 8 256 56 56 (6422528)
I0310 13:04:31.367054 26167 net.cpp:165] Memory required for data: 913605600
I0310 13:04:31.367072 26167 layer_factory.hpp:77] Creating layer res3a_branch1
I0310 13:04:31.367097 26167 net.cpp:106] Creating Layer res3a_branch1
I0310 13:04:31.367110 26167 net.cpp:454] res3a_branch1 <- res2c_res2c_relu_0_split_0
I0310 13:04:31.367122 26167 net.cpp:411] res3a_branch1 -> res3a_branch1
I0310 13:04:31.368157 26167 net.cpp:150] Setting up res3a_branch1
I0310 13:04:31.368181 26167 net.cpp:157] Top shape: 8 512 28 28 (3211264)
I0310 13:04:31.368191 26167 net.cpp:165] Memory required for data: 926450656
I0310 13:04:31.368204 26167 layer_factory.hpp:77] Creating layer bn3a_branch1
I0310 13:04:31.368223 26167 net.cpp:106] Creating Layer bn3a_branch1
I0310 13:04:31.368234 26167 net.cpp:454] bn3a_branch1 <- res3a_branch1
I0310 13:04:31.368247 26167 net.cpp:397] bn3a_branch1 -> res3a_branch1 (in-place)
I0310 13:04:31.369163 26167 net.cpp:150] Setting up bn3a_branch1
I0310 13:04:31.369184 26167 net.cpp:157] Top shape: 8 512 28 28 (3211264)
I0310 13:04:31.369195 26167 net.cpp:165] Memory required for data: 939295712
I0310 13:04:31.369212 26167 layer_factory.hpp:77] Creating layer scale3a_branch1
I0310 13:04:31.369227 26167 net.cpp:106] Creating Layer scale3a_branch1
I0310 13:04:31.369238 26167 net.cpp:454] scale3a_branch1 <- res3a_branch1
I0310 13:04:31.369258 26167 net.cpp:397] scale3a_branch1 -> res3a_branch1 (in-place)
I0310 13:04:31.369328 26167 layer_factory.hpp:77] Creating layer scale3a_branch1
I0310 13:04:31.369468 26167 net.cpp:150] Setting up scale3a_branch1
I0310 13:04:31.369488 26167 net.cpp:157] Top shape: 8 512 28 28 (3211264)
I0310 13:04:31.369498 26167 net.cpp:165] Memory required for data: 952140768
I0310 13:04:31.369511 26167 layer_factory.hpp:77] Creating layer res3a_branch2a
I0310 13:04:31.369534 26167 net.cpp:106] Creating Layer res3a_branch2a
I0310 13:04:31.369545 26167 net.cpp:454] res3a_branch2a <- res2c_res2c_relu_0_split_1
I0310 13:04:31.369559 26167 net.cpp:411] res3a_branch2a -> res3a_branch2a
I0310 13:04:31.369801 26167 net.cpp:150] Setting up res3a_branch2a
I0310 13:04:31.369822 26167 net.cpp:157] Top shape: 8 128 28 28 (802816)
I0310 13:04:31.369832 26167 net.cpp:165] Memory required for data: 955352032
I0310 13:04:31.369844 26167 layer_factory.hpp:77] Creating layer bn3a_branch2a
I0310 13:04:31.369858 26167 net.cpp:106] Creating Layer bn3a_branch2a
I0310 13:04:31.369869 26167 net.cpp:454] bn3a_branch2a <- res3a_branch2a
I0310 13:04:31.369882 26167 net.cpp:397] bn3a_branch2a -> res3a_branch2a (in-place)
I0310 13:04:31.370113 26167 net.cpp:150] Setting up bn3a_branch2a
I0310 13:04:31.370132 26167 net.cpp:157] Top shape: 8 128 28 28 (802816)
I0310 13:04:31.370143 26167 net.cpp:165] Memory required for data: 958563296
I0310 13:04:31.370159 26167 layer_factory.hpp:77] Creating layer scale3a_branch2a
I0310 13:04:31.370174 26167 net.cpp:106] Creating Layer scale3a_branch2a
I0310 13:04:31.370187 26167 net.cpp:454] scale3a_branch2a <- res3a_branch2a
I0310 13:04:31.370198 26167 net.cpp:397] scale3a_branch2a -> res3a_branch2a (in-place)
I0310 13:04:31.370262 26167 layer_factory.hpp:77] Creating layer scale3a_branch2a
I0310 13:04:31.370400 26167 net.cpp:150] Setting up scale3a_branch2a
I0310 13:04:31.370419 26167 net.cpp:157] Top shape: 8 128 28 28 (802816)
I0310 13:04:31.370429 26167 net.cpp:165] Memory required for data: 961774560
I0310 13:04:31.370443 26167 layer_factory.hpp:77] Creating layer res3a_branch2a_relu
I0310 13:04:31.370460 26167 net.cpp:106] Creating Layer res3a_branch2a_relu
I0310 13:04:31.370471 26167 net.cpp:454] res3a_branch2a_relu <- res3a_branch2a
I0310 13:04:31.370483 26167 net.cpp:397] res3a_branch2a_relu -> res3a_branch2a (in-place)
I0310 13:04:31.370497 26167 net.cpp:150] Setting up res3a_branch2a_relu
I0310 13:04:31.370509 26167 net.cpp:157] Top shape: 8 128 28 28 (802816)
I0310 13:04:31.370519 26167 net.cpp:165] Memory required for data: 964985824
I0310 13:04:31.370529 26167 layer_factory.hpp:77] Creating layer res3a_branch2b
I0310 13:04:31.370548 26167 net.cpp:106] Creating Layer res3a_branch2b
I0310 13:04:31.370558 26167 net.cpp:454] res3a_branch2b <- res3a_branch2a
I0310 13:04:31.370579 26167 net.cpp:411] res3a_branch2b -> res3a_branch2b
I0310 13:04:31.371621 26167 net.cpp:150] Setting up res3a_branch2b
I0310 13:04:31.371644 26167 net.cpp:157] Top shape: 8 128 28 28 (802816)
I0310 13:04:31.371654 26167 net.cpp:165] Memory required for data: 968197088
I0310 13:04:31.371668 26167 layer_factory.hpp:77] Creating layer bn3a_branch2b
I0310 13:04:31.371687 26167 net.cpp:106] Creating Layer bn3a_branch2b
I0310 13:04:31.371698 26167 net.cpp:454] bn3a_branch2b <- res3a_branch2b
I0310 13:04:31.371712 26167 net.cpp:397] bn3a_branch2b -> res3a_branch2b (in-place)
I0310 13:04:31.371935 26167 net.cpp:150] Setting up bn3a_branch2b
I0310 13:04:31.371954 26167 net.cpp:157] Top shape: 8 128 28 28 (802816)
I0310 13:04:31.371964 26167 net.cpp:165] Memory required for data: 971408352
I0310 13:04:31.371980 26167 layer_factory.hpp:77] Creating layer scale3a_branch2b
I0310 13:04:31.371999 26167 net.cpp:106] Creating Layer scale3a_branch2b
I0310 13:04:31.372010 26167 net.cpp:454] scale3a_branch2b <- res3a_branch2b
I0310 13:04:31.372022 26167 net.cpp:397] scale3a_branch2b -> res3a_branch2b (in-place)
I0310 13:04:31.372081 26167 layer_factory.hpp:77] Creating layer scale3a_branch2b
I0310 13:04:31.372227 26167 net.cpp:150] Setting up scale3a_branch2b
I0310 13:04:31.372246 26167 net.cpp:157] Top shape: 8 128 28 28 (802816)
I0310 13:04:31.372256 26167 net.cpp:165] Memory required for data: 974619616
I0310 13:04:31.372272 26167 layer_factory.hpp:77] Creating layer res3a_branch2b_relu
I0310 13:04:31.372294 26167 net.cpp:106] Creating Layer res3a_branch2b_relu
I0310 13:04:31.372309 26167 net.cpp:454] res3a_branch2b_relu <- res3a_branch2b
I0310 13:04:31.372323 26167 net.cpp:397] res3a_branch2b_relu -> res3a_branch2b (in-place)
I0310 13:04:31.372336 26167 net.cpp:150] Setting up res3a_branch2b_relu
I0310 13:04:31.372349 26167 net.cpp:157] Top shape: 8 128 28 28 (802816)
I0310 13:04:31.372359 26167 net.cpp:165] Memory required for data: 977830880
I0310 13:04:31.372369 26167 layer_factory.hpp:77] Creating layer res3a_branch2c
I0310 13:04:31.372385 26167 net.cpp:106] Creating Layer res3a_branch2c
I0310 13:04:31.372395 26167 net.cpp:454] res3a_branch2c <- res3a_branch2b
I0310 13:04:31.372411 26167 net.cpp:411] res3a_branch2c -> res3a_branch2c
I0310 13:04:31.372689 26167 net.cpp:150] Setting up res3a_branch2c
I0310 13:04:31.372712 26167 net.cpp:157] Top shape: 8 512 28 28 (3211264)
I0310 13:04:31.372722 26167 net.cpp:165] Memory required for data: 990675936
I0310 13:04:31.372735 26167 layer_factory.hpp:77] Creating layer bn3a_branch2c
I0310 13:04:31.372750 26167 net.cpp:106] Creating Layer bn3a_branch2c
I0310 13:04:31.372761 26167 net.cpp:454] bn3a_branch2c <- res3a_branch2c
I0310 13:04:31.372773 26167 net.cpp:397] bn3a_branch2c -> res3a_branch2c (in-place)
I0310 13:04:31.372985 26167 net.cpp:150] Setting up bn3a_branch2c
I0310 13:04:31.373004 26167 net.cpp:157] Top shape: 8 512 28 28 (3211264)
I0310 13:04:31.373014 26167 net.cpp:165] Memory required for data: 1003520992
I0310 13:04:31.373030 26167 layer_factory.hpp:77] Creating layer scale3a_branch2c
I0310 13:04:31.373049 26167 net.cpp:106] Creating Layer scale3a_branch2c
I0310 13:04:31.373060 26167 net.cpp:454] scale3a_branch2c <- res3a_branch2c
I0310 13:04:31.373073 26167 net.cpp:397] scale3a_branch2c -> res3a_branch2c (in-place)
I0310 13:04:31.373133 26167 layer_factory.hpp:77] Creating layer scale3a_branch2c
I0310 13:04:31.373283 26167 net.cpp:150] Setting up scale3a_branch2c
I0310 13:04:31.373304 26167 net.cpp:157] Top shape: 8 512 28 28 (3211264)
I0310 13:04:31.373314 26167 net.cpp:165] Memory required for data: 1016366048
I0310 13:04:31.373328 26167 layer_factory.hpp:77] Creating layer res3a
I0310 13:04:31.373342 26167 net.cpp:106] Creating Layer res3a
I0310 13:04:31.373353 26167 net.cpp:454] res3a <- res3a_branch1
I0310 13:04:31.373364 26167 net.cpp:454] res3a <- res3a_branch2c
I0310 13:04:31.373379 26167 net.cpp:411] res3a -> res3a
I0310 13:04:31.373416 26167 net.cpp:150] Setting up res3a
I0310 13:04:31.373437 26167 net.cpp:157] Top shape: 8 512 28 28 (3211264)
I0310 13:04:31.373456 26167 net.cpp:165] Memory required for data: 1029211104
I0310 13:04:31.373478 26167 layer_factory.hpp:77] Creating layer res3a_relu
I0310 13:04:31.373492 26167 net.cpp:106] Creating Layer res3a_relu
I0310 13:04:31.373503 26167 net.cpp:454] res3a_relu <- res3a
I0310 13:04:31.373515 26167 net.cpp:397] res3a_relu -> res3a (in-place)
I0310 13:04:31.373529 26167 net.cpp:150] Setting up res3a_relu
I0310 13:04:31.373541 26167 net.cpp:157] Top shape: 8 512 28 28 (3211264)
I0310 13:04:31.373550 26167 net.cpp:165] Memory required for data: 1042056160
I0310 13:04:31.373560 26167 layer_factory.hpp:77] Creating layer res3a_res3a_relu_0_split
I0310 13:04:31.373574 26167 net.cpp:106] Creating Layer res3a_res3a_relu_0_split
I0310 13:04:31.373584 26167 net.cpp:454] res3a_res3a_relu_0_split <- res3a
I0310 13:04:31.373598 26167 net.cpp:411] res3a_res3a_relu_0_split -> res3a_res3a_relu_0_split_0
I0310 13:04:31.373613 26167 net.cpp:411] res3a_res3a_relu_0_split -> res3a_res3a_relu_0_split_1
I0310 13:04:31.373661 26167 net.cpp:150] Setting up res3a_res3a_relu_0_split
I0310 13:04:31.373677 26167 net.cpp:157] Top shape: 8 512 28 28 (3211264)
I0310 13:04:31.373688 26167 net.cpp:157] Top shape: 8 512 28 28 (3211264)
I0310 13:04:31.373698 26167 net.cpp:165] Memory required for data: 1067746272
I0310 13:04:31.373708 26167 layer_factory.hpp:77] Creating layer res3b1_branch2a
I0310 13:04:31.373728 26167 net.cpp:106] Creating Layer res3b1_branch2a
I0310 13:04:31.373740 26167 net.cpp:454] res3b1_branch2a <- res3a_res3a_relu_0_split_0
I0310 13:04:31.373754 26167 net.cpp:411] res3b1_branch2a -> res3b1_branch2a
I0310 13:04:31.374716 26167 net.cpp:150] Setting up res3b1_branch2a
I0310 13:04:31.374738 26167 net.cpp:157] Top shape: 8 128 28 28 (802816)
I0310 13:04:31.374748 26167 net.cpp:165] Memory required for data: 1070957536
I0310 13:04:31.374763 26167 layer_factory.hpp:77] Creating layer bn3b1_branch2a
I0310 13:04:31.374780 26167 net.cpp:106] Creating Layer bn3b1_branch2a
I0310 13:04:31.374792 26167 net.cpp:454] bn3b1_branch2a <- res3b1_branch2a
I0310 13:04:31.374804 26167 net.cpp:397] bn3b1_branch2a -> res3b1_branch2a (in-place)
I0310 13:04:31.375021 26167 net.cpp:150] Setting up bn3b1_branch2a
I0310 13:04:31.375041 26167 net.cpp:157] Top shape: 8 128 28 28 (802816)
I0310 13:04:31.375051 26167 net.cpp:165] Memory required for data: 1074168800
I0310 13:04:31.375066 26167 layer_factory.hpp:77] Creating layer scale3b1_branch2a
I0310 13:04:31.375085 26167 net.cpp:106] Creating Layer scale3b1_branch2a
I0310 13:04:31.375097 26167 net.cpp:454] scale3b1_branch2a <- res3b1_branch2a
I0310 13:04:31.375109 26167 net.cpp:397] scale3b1_branch2a -> res3b1_branch2a (in-place)
I0310 13:04:31.375167 26167 layer_factory.hpp:77] Creating layer scale3b1_branch2a
I0310 13:04:31.375311 26167 net.cpp:150] Setting up scale3b1_branch2a
I0310 13:04:31.375330 26167 net.cpp:157] Top shape: 8 128 28 28 (802816)
I0310 13:04:31.375340 26167 net.cpp:165] Memory required for data: 1077380064
I0310 13:04:31.375355 26167 layer_factory.hpp:77] Creating layer res3b1_branch2a_relu
I0310 13:04:31.375368 26167 net.cpp:106] Creating Layer res3b1_branch2a_relu
I0310 13:04:31.375380 26167 net.cpp:454] res3b1_branch2a_relu <- res3b1_branch2a
I0310 13:04:31.375391 26167 net.cpp:397] res3b1_branch2a_relu -> res3b1_branch2a (in-place)
I0310 13:04:31.375406 26167 net.cpp:150] Setting up res3b1_branch2a_relu
I0310 13:04:31.375417 26167 net.cpp:157] Top shape: 8 128 28 28 (802816)
I0310 13:04:31.375427 26167 net.cpp:165] Memory required for data: 1080591328
I0310 13:04:31.375437 26167 layer_factory.hpp:77] Creating layer res3b1_branch2b
I0310 13:04:31.375455 26167 net.cpp:106] Creating Layer res3b1_branch2b
I0310 13:04:31.375466 26167 net.cpp:454] res3b1_branch2b <- res3b1_branch2a
I0310 13:04:31.375483 26167 net.cpp:411] res3b1_branch2b -> res3b1_branch2b
I0310 13:04:31.376500 26167 net.cpp:150] Setting up res3b1_branch2b
I0310 13:04:31.376523 26167 net.cpp:157] Top shape: 8 128 28 28 (802816)
I0310 13:04:31.376533 26167 net.cpp:165] Memory required for data: 1083802592
I0310 13:04:31.376554 26167 layer_factory.hpp:77] Creating layer bn3b1_branch2b
I0310 13:04:31.376582 26167 net.cpp:106] Creating Layer bn3b1_branch2b
I0310 13:04:31.376595 26167 net.cpp:454] bn3b1_branch2b <- res3b1_branch2b
I0310 13:04:31.376607 26167 net.cpp:397] bn3b1_branch2b -> res3b1_branch2b (in-place)
I0310 13:04:31.376827 26167 net.cpp:150] Setting up bn3b1_branch2b
I0310 13:04:31.376845 26167 net.cpp:157] Top shape: 8 128 28 28 (802816)
I0310 13:04:31.376857 26167 net.cpp:165] Memory required for data: 1087013856
I0310 13:04:31.376873 26167 layer_factory.hpp:77] Creating layer scale3b1_branch2b
I0310 13:04:31.376888 26167 net.cpp:106] Creating Layer scale3b1_branch2b
I0310 13:04:31.376899 26167 net.cpp:454] scale3b1_branch2b <- res3b1_branch2b
I0310 13:04:31.376914 26167 net.cpp:397] scale3b1_branch2b -> res3b1_branch2b (in-place)
I0310 13:04:31.376969 26167 layer_factory.hpp:77] Creating layer scale3b1_branch2b
I0310 13:04:31.377110 26167 net.cpp:150] Setting up scale3b1_branch2b
I0310 13:04:31.377130 26167 net.cpp:157] Top shape: 8 128 28 28 (802816)
I0310 13:04:31.377140 26167 net.cpp:165] Memory required for data: 1090225120
I0310 13:04:31.377154 26167 layer_factory.hpp:77] Creating layer res3b1_branch2b_relu
I0310 13:04:31.377171 26167 net.cpp:106] Creating Layer res3b1_branch2b_relu
I0310 13:04:31.377182 26167 net.cpp:454] res3b1_branch2b_relu <- res3b1_branch2b
I0310 13:04:31.377194 26167 net.cpp:397] res3b1_branch2b_relu -> res3b1_branch2b (in-place)
I0310 13:04:31.377207 26167 net.cpp:150] Setting up res3b1_branch2b_relu
I0310 13:04:31.377220 26167 net.cpp:157] Top shape: 8 128 28 28 (802816)
I0310 13:04:31.377229 26167 net.cpp:165] Memory required for data: 1093436384
I0310 13:04:31.377239 26167 layer_factory.hpp:77] Creating layer res3b1_branch2c
I0310 13:04:31.377275 26167 net.cpp:106] Creating Layer res3b1_branch2c
I0310 13:04:31.377288 26167 net.cpp:454] res3b1_branch2c <- res3b1_branch2b
I0310 13:04:31.377302 26167 net.cpp:411] res3b1_branch2c -> res3b1_branch2c
I0310 13:04:31.377568 26167 net.cpp:150] Setting up res3b1_branch2c
I0310 13:04:31.377588 26167 net.cpp:157] Top shape: 8 512 28 28 (3211264)
I0310 13:04:31.377599 26167 net.cpp:165] Memory required for data: 1106281440
I0310 13:04:31.377611 26167 layer_factory.hpp:77] Creating layer bn3b1_branch2c
I0310 13:04:31.377630 26167 net.cpp:106] Creating Layer bn3b1_branch2c
I0310 13:04:31.377642 26167 net.cpp:454] bn3b1_branch2c <- res3b1_branch2c
I0310 13:04:31.377655 26167 net.cpp:397] bn3b1_branch2c -> res3b1_branch2c (in-place)
I0310 13:04:31.377878 26167 net.cpp:150] Setting up bn3b1_branch2c
I0310 13:04:31.377897 26167 net.cpp:157] Top shape: 8 512 28 28 (3211264)
I0310 13:04:31.377907 26167 net.cpp:165] Memory required for data: 1119126496
I0310 13:04:31.377923 26167 layer_factory.hpp:77] Creating layer scale3b1_branch2c
I0310 13:04:31.377941 26167 net.cpp:106] Creating Layer scale3b1_branch2c
I0310 13:04:31.377952 26167 net.cpp:454] scale3b1_branch2c <- res3b1_branch2c
I0310 13:04:31.377964 26167 net.cpp:397] scale3b1_branch2c -> res3b1_branch2c (in-place)
I0310 13:04:31.378024 26167 layer_factory.hpp:77] Creating layer scale3b1_branch2c
I0310 13:04:31.378167 26167 net.cpp:150] Setting up scale3b1_branch2c
I0310 13:04:31.378185 26167 net.cpp:157] Top shape: 8 512 28 28 (3211264)
I0310 13:04:31.378196 26167 net.cpp:165] Memory required for data: 1131971552
I0310 13:04:31.378209 26167 layer_factory.hpp:77] Creating layer res3b1
I0310 13:04:31.378224 26167 net.cpp:106] Creating Layer res3b1
I0310 13:04:31.378235 26167 net.cpp:454] res3b1 <- res3a_res3a_relu_0_split_1
I0310 13:04:31.378247 26167 net.cpp:454] res3b1 <- res3b1_branch2c
I0310 13:04:31.378262 26167 net.cpp:411] res3b1 -> res3b1
I0310 13:04:31.378299 26167 net.cpp:150] Setting up res3b1
I0310 13:04:31.378321 26167 net.cpp:157] Top shape: 8 512 28 28 (3211264)
I0310 13:04:31.378332 26167 net.cpp:165] Memory required for data: 1144816608
I0310 13:04:31.378342 26167 layer_factory.hpp:77] Creating layer res3b1_relu
I0310 13:04:31.378356 26167 net.cpp:106] Creating Layer res3b1_relu
I0310 13:04:31.378373 26167 net.cpp:454] res3b1_relu <- res3b1
I0310 13:04:31.378396 26167 net.cpp:397] res3b1_relu -> res3b1 (in-place)
I0310 13:04:31.378410 26167 net.cpp:150] Setting up res3b1_relu
I0310 13:04:31.378422 26167 net.cpp:157] Top shape: 8 512 28 28 (3211264)
I0310 13:04:31.378432 26167 net.cpp:165] Memory required for data: 1157661664
I0310 13:04:31.378443 26167 layer_factory.hpp:77] Creating layer res3b1_res3b1_relu_0_split
I0310 13:04:31.378455 26167 net.cpp:106] Creating Layer res3b1_res3b1_relu_0_split
I0310 13:04:31.378465 26167 net.cpp:454] res3b1_res3b1_relu_0_split <- res3b1
I0310 13:04:31.378481 26167 net.cpp:411] res3b1_res3b1_relu_0_split -> res3b1_res3b1_relu_0_split_0
I0310 13:04:31.378496 26167 net.cpp:411] res3b1_res3b1_relu_0_split -> res3b1_res3b1_relu_0_split_1
I0310 13:04:31.378545 26167 net.cpp:150] Setting up res3b1_res3b1_relu_0_split
I0310 13:04:31.378562 26167 net.cpp:157] Top shape: 8 512 28 28 (3211264)
I0310 13:04:31.378574 26167 net.cpp:157] Top shape: 8 512 28 28 (3211264)
I0310 13:04:31.378583 26167 net.cpp:165] Memory required for data: 1183351776
I0310 13:04:31.378593 26167 layer_factory.hpp:77] Creating layer res3b2_branch2a
I0310 13:04:31.378617 26167 net.cpp:106] Creating Layer res3b2_branch2a
I0310 13:04:31.378628 26167 net.cpp:454] res3b2_branch2a <- res3b1_res3b1_relu_0_split_0
I0310 13:04:31.378641 26167 net.cpp:411] res3b2_branch2a -> res3b2_branch2a
I0310 13:04:31.378901 26167 net.cpp:150] Setting up res3b2_branch2a
I0310 13:04:31.378921 26167 net.cpp:157] Top shape: 8 128 28 28 (802816)
I0310 13:04:31.378932 26167 net.cpp:165] Memory required for data: 1186563040
I0310 13:04:31.378944 26167 layer_factory.hpp:77] Creating layer bn3b2_branch2a
I0310 13:04:31.378958 26167 net.cpp:106] Creating Layer bn3b2_branch2a
I0310 13:04:31.378969 26167 net.cpp:454] bn3b2_branch2a <- res3b2_branch2a
I0310 13:04:31.378981 26167 net.cpp:397] bn3b2_branch2a -> res3b2_branch2a (in-place)
I0310 13:04:31.379202 26167 net.cpp:150] Setting up bn3b2_branch2a
I0310 13:04:31.379220 26167 net.cpp:157] Top shape: 8 128 28 28 (802816)
I0310 13:04:31.379230 26167 net.cpp:165] Memory required for data: 1189774304
I0310 13:04:31.379246 26167 layer_factory.hpp:77] Creating layer scale3b2_branch2a
I0310 13:04:31.379261 26167 net.cpp:106] Creating Layer scale3b2_branch2a
I0310 13:04:31.379272 26167 net.cpp:454] scale3b2_branch2a <- res3b2_branch2a
I0310 13:04:31.379284 26167 net.cpp:397] scale3b2_branch2a -> res3b2_branch2a (in-place)
I0310 13:04:31.379345 26167 layer_factory.hpp:77] Creating layer scale3b2_branch2a
I0310 13:04:31.379487 26167 net.cpp:150] Setting up scale3b2_branch2a
I0310 13:04:31.379506 26167 net.cpp:157] Top shape: 8 128 28 28 (802816)
I0310 13:04:31.379516 26167 net.cpp:165] Memory required for data: 1192985568
I0310 13:04:31.379530 26167 layer_factory.hpp:77] Creating layer res3b2_branch2a_relu
I0310 13:04:31.379551 26167 net.cpp:106] Creating Layer res3b2_branch2a_relu
I0310 13:04:31.379562 26167 net.cpp:454] res3b2_branch2a_relu <- res3b2_branch2a
I0310 13:04:31.379575 26167 net.cpp:397] res3b2_branch2a_relu -> res3b2_branch2a (in-place)
I0310 13:04:31.379588 26167 net.cpp:150] Setting up res3b2_branch2a_relu
I0310 13:04:31.379601 26167 net.cpp:157] Top shape: 8 128 28 28 (802816)
I0310 13:04:31.379611 26167 net.cpp:165] Memory required for data: 1196196832
I0310 13:04:31.379621 26167 layer_factory.hpp:77] Creating layer res3b2_branch2b
I0310 13:04:31.379638 26167 net.cpp:106] Creating Layer res3b2_branch2b
I0310 13:04:31.379649 26167 net.cpp:454] res3b2_branch2b <- res3b2_branch2a
I0310 13:04:31.379662 26167 net.cpp:411] res3b2_branch2b -> res3b2_branch2b
I0310 13:04:31.380679 26167 net.cpp:150] Setting up res3b2_branch2b
I0310 13:04:31.380702 26167 net.cpp:157] Top shape: 8 128 28 28 (802816)
I0310 13:04:31.380712 26167 net.cpp:165] Memory required for data: 1199408096
I0310 13:04:31.380726 26167 layer_factory.hpp:77] Creating layer bn3b2_branch2b
I0310 13:04:31.380740 26167 net.cpp:106] Creating Layer bn3b2_branch2b
I0310 13:04:31.380751 26167 net.cpp:454] bn3b2_branch2b <- res3b2_branch2b
I0310 13:04:31.380771 26167 net.cpp:397] bn3b2_branch2b -> res3b2_branch2b (in-place)
I0310 13:04:31.381006 26167 net.cpp:150] Setting up bn3b2_branch2b
I0310 13:04:31.381026 26167 net.cpp:157] Top shape: 8 128 28 28 (802816)
I0310 13:04:31.381036 26167 net.cpp:165] Memory required for data: 1202619360
I0310 13:04:31.381052 26167 layer_factory.hpp:77] Creating layer scale3b2_branch2b
I0310 13:04:31.381069 26167 net.cpp:106] Creating Layer scale3b2_branch2b
I0310 13:04:31.381080 26167 net.cpp:454] scale3b2_branch2b <- res3b2_branch2b
I0310 13:04:31.381093 26167 net.cpp:397] scale3b2_branch2b -> res3b2_branch2b (in-place)
I0310 13:04:31.381155 26167 layer_factory.hpp:77] Creating layer scale3b2_branch2b
I0310 13:04:31.381319 26167 net.cpp:150] Setting up scale3b2_branch2b
I0310 13:04:31.381338 26167 net.cpp:157] Top shape: 8 128 28 28 (802816)
I0310 13:04:31.381348 26167 net.cpp:165] Memory required for data: 1205830624
I0310 13:04:31.381362 26167 layer_factory.hpp:77] Creating layer res3b2_branch2b_relu
I0310 13:04:31.381376 26167 net.cpp:106] Creating Layer res3b2_branch2b_relu
I0310 13:04:31.381387 26167 net.cpp:454] res3b2_branch2b_relu <- res3b2_branch2b
I0310 13:04:31.381402 26167 net.cpp:397] res3b2_branch2b_relu -> res3b2_branch2b (in-place)
I0310 13:04:31.381417 26167 net.cpp:150] Setting up res3b2_branch2b_relu
I0310 13:04:31.381429 26167 net.cpp:157] Top shape: 8 128 28 28 (802816)
I0310 13:04:31.381439 26167 net.cpp:165] Memory required for data: 1209041888
I0310 13:04:31.381449 26167 layer_factory.hpp:77] Creating layer res3b2_branch2c
I0310 13:04:31.381467 26167 net.cpp:106] Creating Layer res3b2_branch2c
I0310 13:04:31.381477 26167 net.cpp:454] res3b2_branch2c <- res3b2_branch2b
I0310 13:04:31.381491 26167 net.cpp:411] res3b2_branch2c -> res3b2_branch2c
I0310 13:04:31.381757 26167 net.cpp:150] Setting up res3b2_branch2c
I0310 13:04:31.381778 26167 net.cpp:157] Top shape: 8 512 28 28 (3211264)
I0310 13:04:31.381788 26167 net.cpp:165] Memory required for data: 1221886944
I0310 13:04:31.381800 26167 layer_factory.hpp:77] Creating layer bn3b2_branch2c
I0310 13:04:31.381814 26167 net.cpp:106] Creating Layer bn3b2_branch2c
I0310 13:04:31.381825 26167 net.cpp:454] bn3b2_branch2c <- res3b2_branch2c
I0310 13:04:31.381837 26167 net.cpp:397] bn3b2_branch2c -> res3b2_branch2c (in-place)
I0310 13:04:31.382056 26167 net.cpp:150] Setting up bn3b2_branch2c
I0310 13:04:31.382074 26167 net.cpp:157] Top shape: 8 512 28 28 (3211264)
I0310 13:04:31.382086 26167 net.cpp:165] Memory required for data: 1234732000
I0310 13:04:31.382104 26167 layer_factory.hpp:77] Creating layer scale3b2_branch2c
I0310 13:04:31.382119 26167 net.cpp:106] Creating Layer scale3b2_branch2c
I0310 13:04:31.382130 26167 net.cpp:454] scale3b2_branch2c <- res3b2_branch2c
I0310 13:04:31.382143 26167 net.cpp:397] scale3b2_branch2c -> res3b2_branch2c (in-place)
I0310 13:04:31.382203 26167 layer_factory.hpp:77] Creating layer scale3b2_branch2c
I0310 13:04:31.382344 26167 net.cpp:150] Setting up scale3b2_branch2c
I0310 13:04:31.382362 26167 net.cpp:157] Top shape: 8 512 28 28 (3211264)
I0310 13:04:31.382372 26167 net.cpp:165] Memory required for data: 1247577056
I0310 13:04:31.382386 26167 layer_factory.hpp:77] Creating layer res3b2
I0310 13:04:31.382403 26167 net.cpp:106] Creating Layer res3b2
I0310 13:04:31.382414 26167 net.cpp:454] res3b2 <- res3b1_res3b1_relu_0_split_1
I0310 13:04:31.382426 26167 net.cpp:454] res3b2 <- res3b2_branch2c
I0310 13:04:31.382438 26167 net.cpp:411] res3b2 -> res3b2
I0310 13:04:31.382478 26167 net.cpp:150] Setting up res3b2
I0310 13:04:31.382495 26167 net.cpp:157] Top shape: 8 512 28 28 (3211264)
I0310 13:04:31.382505 26167 net.cpp:165] Memory required for data: 1260422112
I0310 13:04:31.382515 26167 layer_factory.hpp:77] Creating layer res3b2_relu
I0310 13:04:31.382529 26167 net.cpp:106] Creating Layer res3b2_relu
I0310 13:04:31.382539 26167 net.cpp:454] res3b2_relu <- res3b2
I0310 13:04:31.382555 26167 net.cpp:397] res3b2_relu -> res3b2 (in-place)
I0310 13:04:31.382570 26167 net.cpp:150] Setting up res3b2_relu
I0310 13:04:31.382588 26167 net.cpp:157] Top shape: 8 512 28 28 (3211264)
I0310 13:04:31.382608 26167 net.cpp:165] Memory required for data: 1273267168
I0310 13:04:31.382618 26167 layer_factory.hpp:77] Creating layer res3b2_res3b2_relu_0_split
I0310 13:04:31.382632 26167 net.cpp:106] Creating Layer res3b2_res3b2_relu_0_split
I0310 13:04:31.382642 26167 net.cpp:454] res3b2_res3b2_relu_0_split <- res3b2
I0310 13:04:31.382654 26167 net.cpp:411] res3b2_res3b2_relu_0_split -> res3b2_res3b2_relu_0_split_0
I0310 13:04:31.382668 26167 net.cpp:411] res3b2_res3b2_relu_0_split -> res3b2_res3b2_relu_0_split_1
I0310 13:04:31.382721 26167 net.cpp:150] Setting up res3b2_res3b2_relu_0_split
I0310 13:04:31.382738 26167 net.cpp:157] Top shape: 8 512 28 28 (3211264)
I0310 13:04:31.382750 26167 net.cpp:157] Top shape: 8 512 28 28 (3211264)
I0310 13:04:31.382760 26167 net.cpp:165] Memory required for data: 1298957280
I0310 13:04:31.382771 26167 layer_factory.hpp:77] Creating layer res3b3_branch2a
I0310 13:04:31.382786 26167 net.cpp:106] Creating Layer res3b3_branch2a
I0310 13:04:31.382797 26167 net.cpp:454] res3b3_branch2a <- res3b2_res3b2_relu_0_split_0
I0310 13:04:31.382809 26167 net.cpp:411] res3b3_branch2a -> res3b3_branch2a
I0310 13:04:31.383769 26167 net.cpp:150] Setting up res3b3_branch2a
I0310 13:04:31.383791 26167 net.cpp:157] Top shape: 8 128 28 28 (802816)
I0310 13:04:31.383801 26167 net.cpp:165] Memory required for data: 1302168544
I0310 13:04:31.383816 26167 layer_factory.hpp:77] Creating layer bn3b3_branch2a
I0310 13:04:31.383829 26167 net.cpp:106] Creating Layer bn3b3_branch2a
I0310 13:04:31.383841 26167 net.cpp:454] bn3b3_branch2a <- res3b3_branch2a
I0310 13:04:31.383853 26167 net.cpp:397] bn3b3_branch2a -> res3b3_branch2a (in-place)
I0310 13:04:31.384081 26167 net.cpp:150] Setting up bn3b3_branch2a
I0310 13:04:31.384100 26167 net.cpp:157] Top shape: 8 128 28 28 (802816)
I0310 13:04:31.384110 26167 net.cpp:165] Memory required for data: 1305379808
I0310 13:04:31.384148 26167 layer_factory.hpp:77] Creating layer scale3b3_branch2a
I0310 13:04:31.384171 26167 net.cpp:106] Creating Layer scale3b3_branch2a
I0310 13:04:31.384182 26167 net.cpp:454] scale3b3_branch2a <- res3b3_branch2a
I0310 13:04:31.384196 26167 net.cpp:397] scale3b3_branch2a -> res3b3_branch2a (in-place)
I0310 13:04:31.384258 26167 layer_factory.hpp:77] Creating layer scale3b3_branch2a
I0310 13:04:31.384400 26167 net.cpp:150] Setting up scale3b3_branch2a
I0310 13:04:31.384419 26167 net.cpp:157] Top shape: 8 128 28 28 (802816)
I0310 13:04:31.384429 26167 net.cpp:165] Memory required for data: 1308591072
I0310 13:04:31.384443 26167 layer_factory.hpp:77] Creating layer res3b3_branch2a_relu
I0310 13:04:31.384456 26167 net.cpp:106] Creating Layer res3b3_branch2a_relu
I0310 13:04:31.384467 26167 net.cpp:454] res3b3_branch2a_relu <- res3b3_branch2a
I0310 13:04:31.384479 26167 net.cpp:397] res3b3_branch2a_relu -> res3b3_branch2a (in-place)
I0310 13:04:31.384492 26167 net.cpp:150] Setting up res3b3_branch2a_relu
I0310 13:04:31.384505 26167 net.cpp:157] Top shape: 8 128 28 28 (802816)
I0310 13:04:31.384515 26167 net.cpp:165] Memory required for data: 1311802336
I0310 13:04:31.384524 26167 layer_factory.hpp:77] Creating layer res3b3_branch2b
I0310 13:04:31.384542 26167 net.cpp:106] Creating Layer res3b3_branch2b
I0310 13:04:31.384553 26167 net.cpp:454] res3b3_branch2b <- res3b3_branch2a
I0310 13:04:31.384569 26167 net.cpp:411] res3b3_branch2b -> res3b3_branch2b
I0310 13:04:31.385610 26167 net.cpp:150] Setting up res3b3_branch2b
I0310 13:04:31.385634 26167 net.cpp:157] Top shape: 8 128 28 28 (802816)
I0310 13:04:31.385645 26167 net.cpp:165] Memory required for data: 1315013600
I0310 13:04:31.385658 26167 layer_factory.hpp:77] Creating layer bn3b3_branch2b
I0310 13:04:31.385679 26167 net.cpp:106] Creating Layer bn3b3_branch2b
I0310 13:04:31.385691 26167 net.cpp:454] bn3b3_branch2b <- res3b3_branch2b
I0310 13:04:31.385704 26167 net.cpp:397] bn3b3_branch2b -> res3b3_branch2b (in-place)
I0310 13:04:31.385926 26167 net.cpp:150] Setting up bn3b3_branch2b
I0310 13:04:31.385944 26167 net.cpp:157] Top shape: 8 128 28 28 (802816)
I0310 13:04:31.385972 26167 net.cpp:165] Memory required for data: 1318224864
I0310 13:04:31.385989 26167 layer_factory.hpp:77] Creating layer scale3b3_branch2b
I0310 13:04:31.386003 26167 net.cpp:106] Creating Layer scale3b3_branch2b
I0310 13:04:31.386014 26167 net.cpp:454] scale3b3_branch2b <- res3b3_branch2b
I0310 13:04:31.386030 26167 net.cpp:397] scale3b3_branch2b -> res3b3_branch2b (in-place)
I0310 13:04:31.386087 26167 layer_factory.hpp:77] Creating layer scale3b3_branch2b
I0310 13:04:31.386231 26167 net.cpp:150] Setting up scale3b3_branch2b
I0310 13:04:31.386250 26167 net.cpp:157] Top shape: 8 128 28 28 (802816)
I0310 13:04:31.386260 26167 net.cpp:165] Memory required for data: 1321436128
I0310 13:04:31.386274 26167 layer_factory.hpp:77] Creating layer res3b3_branch2b_relu
I0310 13:04:31.386291 26167 net.cpp:106] Creating Layer res3b3_branch2b_relu
I0310 13:04:31.386302 26167 net.cpp:454] res3b3_branch2b_relu <- res3b3_branch2b
I0310 13:04:31.386314 26167 net.cpp:397] res3b3_branch2b_relu -> res3b3_branch2b (in-place)
I0310 13:04:31.386328 26167 net.cpp:150] Setting up res3b3_branch2b_relu
I0310 13:04:31.386342 26167 net.cpp:157] Top shape: 8 128 28 28 (802816)
I0310 13:04:31.386350 26167 net.cpp:165] Memory required for data: 1324647392
I0310 13:04:31.386360 26167 layer_factory.hpp:77] Creating layer res3b3_branch2c
I0310 13:04:31.386379 26167 net.cpp:106] Creating Layer res3b3_branch2c
I0310 13:04:31.386390 26167 net.cpp:454] res3b3_branch2c <- res3b3_branch2b
I0310 13:04:31.386404 26167 net.cpp:411] res3b3_branch2c -> res3b3_branch2c
I0310 13:04:31.386673 26167 net.cpp:150] Setting up res3b3_branch2c
I0310 13:04:31.386693 26167 net.cpp:157] Top shape: 8 512 28 28 (3211264)
I0310 13:04:31.386703 26167 net.cpp:165] Memory required for data: 1337492448
I0310 13:04:31.386716 26167 layer_factory.hpp:77] Creating layer bn3b3_branch2c
I0310 13:04:31.386739 26167 net.cpp:106] Creating Layer bn3b3_branch2c
I0310 13:04:31.386751 26167 net.cpp:454] bn3b3_branch2c <- res3b3_branch2c
I0310 13:04:31.386764 26167 net.cpp:397] bn3b3_branch2c -> res3b3_branch2c (in-place)
I0310 13:04:31.386981 26167 net.cpp:150] Setting up bn3b3_branch2c
I0310 13:04:31.386998 26167 net.cpp:157] Top shape: 8 512 28 28 (3211264)
I0310 13:04:31.387009 26167 net.cpp:165] Memory required for data: 1350337504
I0310 13:04:31.387025 26167 layer_factory.hpp:77] Creating layer scale3b3_branch2c
I0310 13:04:31.387042 26167 net.cpp:106] Creating Layer scale3b3_branch2c
I0310 13:04:31.387054 26167 net.cpp:454] scale3b3_branch2c <- res3b3_branch2c
I0310 13:04:31.387066 26167 net.cpp:397] scale3b3_branch2c -> res3b3_branch2c (in-place)
I0310 13:04:31.387127 26167 layer_factory.hpp:77] Creating layer scale3b3_branch2c
I0310 13:04:31.387274 26167 net.cpp:150] Setting up scale3b3_branch2c
I0310 13:04:31.387293 26167 net.cpp:157] Top shape: 8 512 28 28 (3211264)
I0310 13:04:31.387303 26167 net.cpp:165] Memory required for data: 1363182560
I0310 13:04:31.387317 26167 layer_factory.hpp:77] Creating layer res3b3
I0310 13:04:31.387331 26167 net.cpp:106] Creating Layer res3b3
I0310 13:04:31.387342 26167 net.cpp:454] res3b3 <- res3b2_res3b2_relu_0_split_1
I0310 13:04:31.387353 26167 net.cpp:454] res3b3 <- res3b3_branch2c
I0310 13:04:31.387369 26167 net.cpp:411] res3b3 -> res3b3
I0310 13:04:31.387405 26167 net.cpp:150] Setting up res3b3
I0310 13:04:31.387428 26167 net.cpp:157] Top shape: 8 512 28 28 (3211264)
I0310 13:04:31.387439 26167 net.cpp:165] Memory required for data: 1376027616
I0310 13:04:31.387449 26167 layer_factory.hpp:77] Creating layer res3b3_relu
I0310 13:04:31.387461 26167 net.cpp:106] Creating Layer res3b3_relu
I0310 13:04:31.387472 26167 net.cpp:454] res3b3_relu <- res3b3
I0310 13:04:31.387485 26167 net.cpp:397] res3b3_relu -> res3b3 (in-place)
I0310 13:04:31.387497 26167 net.cpp:150] Setting up res3b3_relu
I0310 13:04:31.387509 26167 net.cpp:157] Top shape: 8 512 28 28 (3211264)
I0310 13:04:31.387519 26167 net.cpp:165] Memory required for data: 1388872672
I0310 13:04:31.387529 26167 layer_factory.hpp:77] Creating layer res3b3_res3b3_relu_0_split
I0310 13:04:31.387557 26167 net.cpp:106] Creating Layer res3b3_res3b3_relu_0_split
I0310 13:04:31.387568 26167 net.cpp:454] res3b3_res3b3_relu_0_split <- res3b3
I0310 13:04:31.387583 26167 net.cpp:411] res3b3_res3b3_relu_0_split -> res3b3_res3b3_relu_0_split_0
I0310 13:04:31.387598 26167 net.cpp:411] res3b3_res3b3_relu_0_split -> res3b3_res3b3_relu_0_split_1
I0310 13:04:31.387647 26167 net.cpp:150] Setting up res3b3_res3b3_relu_0_split
I0310 13:04:31.387665 26167 net.cpp:157] Top shape: 8 512 28 28 (3211264)
I0310 13:04:31.387676 26167 net.cpp:157] Top shape: 8 512 28 28 (3211264)
I0310 13:04:31.387686 26167 net.cpp:165] Memory required for data: 1414562784
I0310 13:04:31.387696 26167 layer_factory.hpp:77] Creating layer res3b4_branch2a
I0310 13:04:31.387714 26167 net.cpp:106] Creating Layer res3b4_branch2a
I0310 13:04:31.387725 26167 net.cpp:454] res3b4_branch2a <- res3b3_res3b3_relu_0_split_0
I0310 13:04:31.387739 26167 net.cpp:411] res3b4_branch2a -> res3b4_branch2a
I0310 13:04:31.387997 26167 net.cpp:150] Setting up res3b4_branch2a
I0310 13:04:31.388017 26167 net.cpp:157] Top shape: 8 128 28 28 (802816)
I0310 13:04:31.388027 26167 net.cpp:165] Memory required for data: 1417774048
I0310 13:04:31.388041 26167 layer_factory.hpp:77] Creating layer bn3b4_branch2a
I0310 13:04:31.388053 26167 net.cpp:106] Creating Layer bn3b4_branch2a
I0310 13:04:31.388064 26167 net.cpp:454] bn3b4_branch2a <- res3b4_branch2a
I0310 13:04:31.388077 26167 net.cpp:397] bn3b4_branch2a -> res3b4_branch2a (in-place)
I0310 13:04:31.388295 26167 net.cpp:150] Setting up bn3b4_branch2a
I0310 13:04:31.388314 26167 net.cpp:157] Top shape: 8 128 28 28 (802816)
I0310 13:04:31.388324 26167 net.cpp:165] Memory required for data: 1420985312
I0310 13:04:31.388340 26167 layer_factory.hpp:77] Creating layer scale3b4_branch2a
I0310 13:04:31.388355 26167 net.cpp:106] Creating Layer scale3b4_branch2a
I0310 13:04:31.388365 26167 net.cpp:454] scale3b4_branch2a <- res3b4_branch2a
I0310 13:04:31.388377 26167 net.cpp:397] scale3b4_branch2a -> res3b4_branch2a (in-place)
I0310 13:04:31.388438 26167 layer_factory.hpp:77] Creating layer scale3b4_branch2a
I0310 13:04:31.388581 26167 net.cpp:150] Setting up scale3b4_branch2a
I0310 13:04:31.388600 26167 net.cpp:157] Top shape: 8 128 28 28 (802816)
I0310 13:04:31.388610 26167 net.cpp:165] Memory required for data: 1424196576
I0310 13:04:31.388624 26167 layer_factory.hpp:77] Creating layer res3b4_branch2a_relu
I0310 13:04:31.388641 26167 net.cpp:106] Creating Layer res3b4_branch2a_relu
I0310 13:04:31.388653 26167 net.cpp:454] res3b4_branch2a_relu <- res3b4_branch2a
I0310 13:04:31.388664 26167 net.cpp:397] res3b4_branch2a_relu -> res3b4_branch2a (in-place)
I0310 13:04:31.388677 26167 net.cpp:150] Setting up res3b4_branch2a_relu
I0310 13:04:31.388689 26167 net.cpp:157] Top shape: 8 128 28 28 (802816)
I0310 13:04:31.388700 26167 net.cpp:165] Memory required for data: 1427407840
I0310 13:04:31.388710 26167 layer_factory.hpp:77] Creating layer res3b4_branch2b
I0310 13:04:31.388727 26167 net.cpp:106] Creating Layer res3b4_branch2b
I0310 13:04:31.388737 26167 net.cpp:454] res3b4_branch2b <- res3b4_branch2a
I0310 13:04:31.388751 26167 net.cpp:411] res3b4_branch2b -> res3b4_branch2b
I0310 13:04:31.389793 26167 net.cpp:150] Setting up res3b4_branch2b
I0310 13:04:31.389816 26167 net.cpp:157] Top shape: 8 128 28 28 (802816)
I0310 13:04:31.389827 26167 net.cpp:165] Memory required for data: 1430619104
I0310 13:04:31.389840 26167 layer_factory.hpp:77] Creating layer bn3b4_branch2b
I0310 13:04:31.389854 26167 net.cpp:106] Creating Layer bn3b4_branch2b
I0310 13:04:31.389865 26167 net.cpp:454] bn3b4_branch2b <- res3b4_branch2b
I0310 13:04:31.389878 26167 net.cpp:397] bn3b4_branch2b -> res3b4_branch2b (in-place)
I0310 13:04:31.390103 26167 net.cpp:150] Setting up bn3b4_branch2b
I0310 13:04:31.390122 26167 net.cpp:157] Top shape: 8 128 28 28 (802816)
I0310 13:04:31.390132 26167 net.cpp:165] Memory required for data: 1433830368
I0310 13:04:31.390148 26167 layer_factory.hpp:77] Creating layer scale3b4_branch2b
I0310 13:04:31.390174 26167 net.cpp:106] Creating Layer scale3b4_branch2b
I0310 13:04:31.390197 26167 net.cpp:454] scale3b4_branch2b <- res3b4_branch2b
I0310 13:04:31.390210 26167 net.cpp:397] scale3b4_branch2b -> res3b4_branch2b (in-place)
I0310 13:04:31.390271 26167 layer_factory.hpp:77] Creating layer scale3b4_branch2b
I0310 13:04:31.390415 26167 net.cpp:150] Setting up scale3b4_branch2b
I0310 13:04:31.390434 26167 net.cpp:157] Top shape: 8 128 28 28 (802816)
I0310 13:04:31.390444 26167 net.cpp:165] Memory required for data: 1437041632
I0310 13:04:31.390460 26167 layer_factory.hpp:77] Creating layer res3b4_branch2b_relu
I0310 13:04:31.390472 26167 net.cpp:106] Creating Layer res3b4_branch2b_relu
I0310 13:04:31.390483 26167 net.cpp:454] res3b4_branch2b_relu <- res3b4_branch2b
I0310 13:04:31.390498 26167 net.cpp:397] res3b4_branch2b_relu -> res3b4_branch2b (in-place)
I0310 13:04:31.390512 26167 net.cpp:150] Setting up res3b4_branch2b_relu
I0310 13:04:31.390524 26167 net.cpp:157] Top shape: 8 128 28 28 (802816)
I0310 13:04:31.390534 26167 net.cpp:165] Memory required for data: 1440252896
I0310 13:04:31.390544 26167 layer_factory.hpp:77] Creating layer res3b4_branch2c
I0310 13:04:31.390563 26167 net.cpp:106] Creating Layer res3b4_branch2c
I0310 13:04:31.390573 26167 net.cpp:454] res3b4_branch2c <- res3b4_branch2b
I0310 13:04:31.390586 26167 net.cpp:411] res3b4_branch2c -> res3b4_branch2c
I0310 13:04:31.390843 26167 net.cpp:150] Setting up res3b4_branch2c
I0310 13:04:31.390863 26167 net.cpp:157] Top shape: 8 512 28 28 (3211264)
I0310 13:04:31.390873 26167 net.cpp:165] Memory required for data: 1453097952
I0310 13:04:31.390887 26167 layer_factory.hpp:77] Creating layer bn3b4_branch2c
I0310 13:04:31.390900 26167 net.cpp:106] Creating Layer bn3b4_branch2c
I0310 13:04:31.390911 26167 net.cpp:454] bn3b4_branch2c <- res3b4_branch2c
I0310 13:04:31.390923 26167 net.cpp:397] bn3b4_branch2c -> res3b4_branch2c (in-place)
I0310 13:04:31.391149 26167 net.cpp:150] Setting up bn3b4_branch2c
I0310 13:04:31.391168 26167 net.cpp:157] Top shape: 8 512 28 28 (3211264)
I0310 13:04:31.391178 26167 net.cpp:165] Memory required for data: 1465943008
I0310 13:04:31.391197 26167 layer_factory.hpp:77] Creating layer scale3b4_branch2c
I0310 13:04:31.391213 26167 net.cpp:106] Creating Layer scale3b4_branch2c
I0310 13:04:31.391223 26167 net.cpp:454] scale3b4_branch2c <- res3b4_branch2c
I0310 13:04:31.391237 26167 net.cpp:397] scale3b4_branch2c -> res3b4_branch2c (in-place)
I0310 13:04:31.391297 26167 layer_factory.hpp:77] Creating layer scale3b4_branch2c
I0310 13:04:31.391441 26167 net.cpp:150] Setting up scale3b4_branch2c
I0310 13:04:31.391460 26167 net.cpp:157] Top shape: 8 512 28 28 (3211264)
I0310 13:04:31.391470 26167 net.cpp:165] Memory required for data: 1478788064
I0310 13:04:31.391484 26167 layer_factory.hpp:77] Creating layer res3b4
I0310 13:04:31.391501 26167 net.cpp:106] Creating Layer res3b4
I0310 13:04:31.391513 26167 net.cpp:454] res3b4 <- res3b3_res3b3_relu_0_split_1
I0310 13:04:31.391525 26167 net.cpp:454] res3b4 <- res3b4_branch2c
I0310 13:04:31.391537 26167 net.cpp:411] res3b4 -> res3b4
I0310 13:04:31.391577 26167 net.cpp:150] Setting up res3b4
I0310 13:04:31.391594 26167 net.cpp:157] Top shape: 8 512 28 28 (3211264)
I0310 13:04:31.391604 26167 net.cpp:165] Memory required for data: 1491633120
I0310 13:04:31.391614 26167 layer_factory.hpp:77] Creating layer res3b4_relu
I0310 13:04:31.391628 26167 net.cpp:106] Creating Layer res3b4_relu
I0310 13:04:31.391638 26167 net.cpp:454] res3b4_relu <- res3b4
I0310 13:04:31.391654 26167 net.cpp:397] res3b4_relu -> res3b4 (in-place)
I0310 13:04:31.391669 26167 net.cpp:150] Setting up res3b4_relu
I0310 13:04:31.391681 26167 net.cpp:157] Top shape: 8 512 28 28 (3211264)
I0310 13:04:31.391690 26167 net.cpp:165] Memory required for data: 1504478176
I0310 13:04:31.391700 26167 layer_factory.hpp:77] Creating layer res3b4_res3b4_relu_0_split
I0310 13:04:31.391713 26167 net.cpp:106] Creating Layer res3b4_res3b4_relu_0_split
I0310 13:04:31.391723 26167 net.cpp:454] res3b4_res3b4_relu_0_split <- res3b4
I0310 13:04:31.391742 26167 net.cpp:411] res3b4_res3b4_relu_0_split -> res3b4_res3b4_relu_0_split_0
I0310 13:04:31.391767 26167 net.cpp:411] res3b4_res3b4_relu_0_split -> res3b4_res3b4_relu_0_split_1
I0310 13:04:31.391819 26167 net.cpp:150] Setting up res3b4_res3b4_relu_0_split
I0310 13:04:31.391836 26167 net.cpp:157] Top shape: 8 512 28 28 (3211264)
I0310 13:04:31.391849 26167 net.cpp:157] Top shape: 8 512 28 28 (3211264)
I0310 13:04:31.391857 26167 net.cpp:165] Memory required for data: 1530168288
I0310 13:04:31.391868 26167 layer_factory.hpp:77] Creating layer res3b5_branch2a
I0310 13:04:31.391885 26167 net.cpp:106] Creating Layer res3b5_branch2a
I0310 13:04:31.391896 26167 net.cpp:454] res3b5_branch2a <- res3b4_res3b4_relu_0_split_0
I0310 13:04:31.391908 26167 net.cpp:411] res3b5_branch2a -> res3b5_branch2a
I0310 13:04:31.392861 26167 net.cpp:150] Setting up res3b5_branch2a
I0310 13:04:31.392884 26167 net.cpp:157] Top shape: 8 128 28 28 (802816)
I0310 13:04:31.392895 26167 net.cpp:165] Memory required for data: 1533379552
I0310 13:04:31.392909 26167 layer_factory.hpp:77] Creating layer bn3b5_branch2a
I0310 13:04:31.392938 26167 net.cpp:106] Creating Layer bn3b5_branch2a
I0310 13:04:31.392951 26167 net.cpp:454] bn3b5_branch2a <- res3b5_branch2a
I0310 13:04:31.392964 26167 net.cpp:397] bn3b5_branch2a -> res3b5_branch2a (in-place)
I0310 13:04:31.393193 26167 net.cpp:150] Setting up bn3b5_branch2a
I0310 13:04:31.393213 26167 net.cpp:157] Top shape: 8 128 28 28 (802816)
I0310 13:04:31.393223 26167 net.cpp:165] Memory required for data: 1536590816
I0310 13:04:31.393239 26167 layer_factory.hpp:77] Creating layer scale3b5_branch2a
I0310 13:04:31.393270 26167 net.cpp:106] Creating Layer scale3b5_branch2a
I0310 13:04:31.393283 26167 net.cpp:454] scale3b5_branch2a <- res3b5_branch2a
I0310 13:04:31.393299 26167 net.cpp:397] scale3b5_branch2a -> res3b5_branch2a (in-place)
I0310 13:04:31.393357 26167 layer_factory.hpp:77] Creating layer scale3b5_branch2a
I0310 13:04:31.393508 26167 net.cpp:150] Setting up scale3b5_branch2a
I0310 13:04:31.393527 26167 net.cpp:157] Top shape: 8 128 28 28 (802816)
I0310 13:04:31.393537 26167 net.cpp:165] Memory required for data: 1539802080
I0310 13:04:31.393551 26167 layer_factory.hpp:77] Creating layer res3b5_branch2a_relu
I0310 13:04:31.393565 26167 net.cpp:106] Creating Layer res3b5_branch2a_relu
I0310 13:04:31.393575 26167 net.cpp:454] res3b5_branch2a_relu <- res3b5_branch2a
I0310 13:04:31.393587 26167 net.cpp:397] res3b5_branch2a_relu -> res3b5_branch2a (in-place)
I0310 13:04:31.393600 26167 net.cpp:150] Setting up res3b5_branch2a_relu
I0310 13:04:31.393615 26167 net.cpp:157] Top shape: 8 128 28 28 (802816)
I0310 13:04:31.393625 26167 net.cpp:165] Memory required for data: 1543013344
I0310 13:04:31.393635 26167 layer_factory.hpp:77] Creating layer res3b5_branch2b
I0310 13:04:31.393652 26167 net.cpp:106] Creating Layer res3b5_branch2b
I0310 13:04:31.393663 26167 net.cpp:454] res3b5_branch2b <- res3b5_branch2a
I0310 13:04:31.393679 26167 net.cpp:411] res3b5_branch2b -> res3b5_branch2b
I0310 13:04:31.394706 26167 net.cpp:150] Setting up res3b5_branch2b
I0310 13:04:31.394729 26167 net.cpp:157] Top shape: 8 128 28 28 (802816)
I0310 13:04:31.394739 26167 net.cpp:165] Memory required for data: 1546224608
I0310 13:04:31.394752 26167 layer_factory.hpp:77] Creating layer bn3b5_branch2b
I0310 13:04:31.394770 26167 net.cpp:106] Creating Layer bn3b5_branch2b
I0310 13:04:31.394783 26167 net.cpp:454] bn3b5_branch2b <- res3b5_branch2b
I0310 13:04:31.394794 26167 net.cpp:397] bn3b5_branch2b -> res3b5_branch2b (in-place)
I0310 13:04:31.395020 26167 net.cpp:150] Setting up bn3b5_branch2b
I0310 13:04:31.395037 26167 net.cpp:157] Top shape: 8 128 28 28 (802816)
I0310 13:04:31.395048 26167 net.cpp:165] Memory required for data: 1549435872
I0310 13:04:31.395064 26167 layer_factory.hpp:77] Creating layer scale3b5_branch2b
I0310 13:04:31.395078 26167 net.cpp:106] Creating Layer scale3b5_branch2b
I0310 13:04:31.395090 26167 net.cpp:454] scale3b5_branch2b <- res3b5_branch2b
I0310 13:04:31.395102 26167 net.cpp:397] scale3b5_branch2b -> res3b5_branch2b (in-place)
I0310 13:04:31.395185 26167 layer_factory.hpp:77] Creating layer scale3b5_branch2b
I0310 13:04:31.395334 26167 net.cpp:150] Setting up scale3b5_branch2b
I0310 13:04:31.395354 26167 net.cpp:157] Top shape: 8 128 28 28 (802816)
I0310 13:04:31.395364 26167 net.cpp:165] Memory required for data: 1552647136
I0310 13:04:31.395378 26167 layer_factory.hpp:77] Creating layer res3b5_branch2b_relu
I0310 13:04:31.395395 26167 net.cpp:106] Creating Layer res3b5_branch2b_relu
I0310 13:04:31.395406 26167 net.cpp:454] res3b5_branch2b_relu <- res3b5_branch2b
I0310 13:04:31.395418 26167 net.cpp:397] res3b5_branch2b_relu -> res3b5_branch2b (in-place)
I0310 13:04:31.395432 26167 net.cpp:150] Setting up res3b5_branch2b_relu
I0310 13:04:31.395444 26167 net.cpp:157] Top shape: 8 128 28 28 (802816)
I0310 13:04:31.395454 26167 net.cpp:165] Memory required for data: 1555858400
I0310 13:04:31.395464 26167 layer_factory.hpp:77] Creating layer res3b5_branch2c
I0310 13:04:31.395483 26167 net.cpp:106] Creating Layer res3b5_branch2c
I0310 13:04:31.395493 26167 net.cpp:454] res3b5_branch2c <- res3b5_branch2b
I0310 13:04:31.395506 26167 net.cpp:411] res3b5_branch2c -> res3b5_branch2c
I0310 13:04:31.395781 26167 net.cpp:150] Setting up res3b5_branch2c
I0310 13:04:31.395802 26167 net.cpp:157] Top shape: 8 512 28 28 (3211264)
I0310 13:04:31.395812 26167 net.cpp:165] Memory required for data: 1568703456
I0310 13:04:31.395824 26167 layer_factory.hpp:77] Creating layer bn3b5_branch2c
I0310 13:04:31.395843 26167 net.cpp:106] Creating Layer bn3b5_branch2c
I0310 13:04:31.395855 26167 net.cpp:454] bn3b5_branch2c <- res3b5_branch2c
I0310 13:04:31.395867 26167 net.cpp:397] bn3b5_branch2c -> res3b5_branch2c (in-place)
I0310 13:04:31.396090 26167 net.cpp:150] Setting up bn3b5_branch2c
I0310 13:04:31.396107 26167 net.cpp:157] Top shape: 8 512 28 28 (3211264)
I0310 13:04:31.396118 26167 net.cpp:165] Memory required for data: 1581548512
I0310 13:04:31.396134 26167 layer_factory.hpp:77] Creating layer scale3b5_branch2c
I0310 13:04:31.396152 26167 net.cpp:106] Creating Layer scale3b5_branch2c
I0310 13:04:31.396163 26167 net.cpp:454] scale3b5_branch2c <- res3b5_branch2c
I0310 13:04:31.396176 26167 net.cpp:397] scale3b5_branch2c -> res3b5_branch2c (in-place)
I0310 13:04:31.396239 26167 layer_factory.hpp:77] Creating layer scale3b5_branch2c
I0310 13:04:31.396385 26167 net.cpp:150] Setting up scale3b5_branch2c
I0310 13:04:31.396404 26167 net.cpp:157] Top shape: 8 512 28 28 (3211264)
I0310 13:04:31.396414 26167 net.cpp:165] Memory required for data: 1594393568
I0310 13:04:31.396428 26167 layer_factory.hpp:77] Creating layer res3b5
I0310 13:04:31.396442 26167 net.cpp:106] Creating Layer res3b5
I0310 13:04:31.396453 26167 net.cpp:454] res3b5 <- res3b4_res3b4_relu_0_split_1
I0310 13:04:31.396466 26167 net.cpp:454] res3b5 <- res3b5_branch2c
I0310 13:04:31.396477 26167 net.cpp:411] res3b5 -> res3b5
I0310 13:04:31.396517 26167 net.cpp:150] Setting up res3b5
I0310 13:04:31.396539 26167 net.cpp:157] Top shape: 8 512 28 28 (3211264)
I0310 13:04:31.396550 26167 net.cpp:165] Memory required for data: 1607238624
I0310 13:04:31.396560 26167 layer_factory.hpp:77] Creating layer res3b5_relu
I0310 13:04:31.396574 26167 net.cpp:106] Creating Layer res3b5_relu
I0310 13:04:31.396584 26167 net.cpp:454] res3b5_relu <- res3b5
I0310 13:04:31.396595 26167 net.cpp:397] res3b5_relu -> res3b5 (in-place)
I0310 13:04:31.396610 26167 net.cpp:150] Setting up res3b5_relu
I0310 13:04:31.396621 26167 net.cpp:157] Top shape: 8 512 28 28 (3211264)
I0310 13:04:31.396631 26167 net.cpp:165] Memory required for data: 1620083680
I0310 13:04:31.396641 26167 layer_factory.hpp:77] Creating layer res3b5_res3b5_relu_0_split
I0310 13:04:31.396653 26167 net.cpp:106] Creating Layer res3b5_res3b5_relu_0_split
I0310 13:04:31.396664 26167 net.cpp:454] res3b5_res3b5_relu_0_split <- res3b5
I0310 13:04:31.396679 26167 net.cpp:411] res3b5_res3b5_relu_0_split -> res3b5_res3b5_relu_0_split_0
I0310 13:04:31.396700 26167 net.cpp:411] res3b5_res3b5_relu_0_split -> res3b5_res3b5_relu_0_split_1
I0310 13:04:31.396766 26167 net.cpp:150] Setting up res3b5_res3b5_relu_0_split
I0310 13:04:31.396795 26167 net.cpp:157] Top shape: 8 512 28 28 (3211264)
I0310 13:04:31.396807 26167 net.cpp:157] Top shape: 8 512 28 28 (3211264)
I0310 13:04:31.396817 26167 net.cpp:165] Memory required for data: 1645773792
I0310 13:04:31.396827 26167 layer_factory.hpp:77] Creating layer res3b6_branch2a
I0310 13:04:31.396844 26167 net.cpp:106] Creating Layer res3b6_branch2a
I0310 13:04:31.396855 26167 net.cpp:454] res3b6_branch2a <- res3b5_res3b5_relu_0_split_0
I0310 13:04:31.396872 26167 net.cpp:411] res3b6_branch2a -> res3b6_branch2a
I0310 13:04:31.397138 26167 net.cpp:150] Setting up res3b6_branch2a
I0310 13:04:31.397158 26167 net.cpp:157] Top shape: 8 128 28 28 (802816)
I0310 13:04:31.397169 26167 net.cpp:165] Memory required for data: 1648985056
I0310 13:04:31.397181 26167 layer_factory.hpp:77] Creating layer bn3b6_branch2a
I0310 13:04:31.397198 26167 net.cpp:106] Creating Layer bn3b6_branch2a
I0310 13:04:31.397209 26167 net.cpp:454] bn3b6_branch2a <- res3b6_branch2a
I0310 13:04:31.397222 26167 net.cpp:397] bn3b6_branch2a -> res3b6_branch2a (in-place)
I0310 13:04:31.397459 26167 net.cpp:150] Setting up bn3b6_branch2a
I0310 13:04:31.397480 26167 net.cpp:157] Top shape: 8 128 28 28 (802816)
I0310 13:04:31.397490 26167 net.cpp:165] Memory required for data: 1652196320
I0310 13:04:31.397506 26167 layer_factory.hpp:77] Creating layer scale3b6_branch2a
I0310 13:04:31.397521 26167 net.cpp:106] Creating Layer scale3b6_branch2a
I0310 13:04:31.397532 26167 net.cpp:454] scale3b6_branch2a <- res3b6_branch2a
I0310 13:04:31.397547 26167 net.cpp:397] scale3b6_branch2a -> res3b6_branch2a (in-place)
I0310 13:04:31.397604 26167 layer_factory.hpp:77] Creating layer scale3b6_branch2a
I0310 13:04:31.397754 26167 net.cpp:150] Setting up scale3b6_branch2a
I0310 13:04:31.397776 26167 net.cpp:157] Top shape: 8 128 28 28 (802816)
I0310 13:04:31.397788 26167 net.cpp:165] Memory required for data: 1655407584
I0310 13:04:31.397801 26167 layer_factory.hpp:77] Creating layer res3b6_branch2a_relu
I0310 13:04:31.397815 26167 net.cpp:106] Creating Layer res3b6_branch2a_relu
I0310 13:04:31.397826 26167 net.cpp:454] res3b6_branch2a_relu <- res3b6_branch2a
I0310 13:04:31.397838 26167 net.cpp:397] res3b6_branch2a_relu -> res3b6_branch2a (in-place)
I0310 13:04:31.397851 26167 net.cpp:150] Setting up res3b6_branch2a_relu
I0310 13:04:31.397864 26167 net.cpp:157] Top shape: 8 128 28 28 (802816)
I0310 13:04:31.397873 26167 net.cpp:165] Memory required for data: 1658618848
I0310 13:04:31.397883 26167 layer_factory.hpp:77] Creating layer res3b6_branch2b
I0310 13:04:31.397902 26167 net.cpp:106] Creating Layer res3b6_branch2b
I0310 13:04:31.397912 26167 net.cpp:454] res3b6_branch2b <- res3b6_branch2a
I0310 13:04:31.397925 26167 net.cpp:411] res3b6_branch2b -> res3b6_branch2b
I0310 13:04:31.398959 26167 net.cpp:150] Setting up res3b6_branch2b
I0310 13:04:31.398983 26167 net.cpp:157] Top shape: 8 128 28 28 (802816)
I0310 13:04:31.398993 26167 net.cpp:165] Memory required for data: 1661830112
I0310 13:04:31.399006 26167 layer_factory.hpp:77] Creating layer bn3b6_branch2b
I0310 13:04:31.399020 26167 net.cpp:106] Creating Layer bn3b6_branch2b
I0310 13:04:31.399032 26167 net.cpp:454] bn3b6_branch2b <- res3b6_branch2b
I0310 13:04:31.399049 26167 net.cpp:397] bn3b6_branch2b -> res3b6_branch2b (in-place)
I0310 13:04:31.399281 26167 net.cpp:150] Setting up bn3b6_branch2b
I0310 13:04:31.399298 26167 net.cpp:157] Top shape: 8 128 28 28 (802816)
I0310 13:04:31.399309 26167 net.cpp:165] Memory required for data: 1665041376
I0310 13:04:31.399325 26167 layer_factory.hpp:77] Creating layer scale3b6_branch2b
I0310 13:04:31.399340 26167 net.cpp:106] Creating Layer scale3b6_branch2b
I0310 13:04:31.399351 26167 net.cpp:454] scale3b6_branch2b <- res3b6_branch2b
I0310 13:04:31.399363 26167 net.cpp:397] scale3b6_branch2b -> res3b6_branch2b (in-place)
I0310 13:04:31.399425 26167 layer_factory.hpp:77] Creating layer scale3b6_branch2b
I0310 13:04:31.399574 26167 net.cpp:150] Setting up scale3b6_branch2b
I0310 13:04:31.399600 26167 net.cpp:157] Top shape: 8 128 28 28 (802816)
I0310 13:04:31.399621 26167 net.cpp:165] Memory required for data: 1668252640
I0310 13:04:31.399636 26167 layer_factory.hpp:77] Creating layer res3b6_branch2b_relu
I0310 13:04:31.399649 26167 net.cpp:106] Creating Layer res3b6_branch2b_relu
I0310 13:04:31.399660 26167 net.cpp:454] res3b6_branch2b_relu <- res3b6_branch2b
I0310 13:04:31.399675 26167 net.cpp:397] res3b6_branch2b_relu -> res3b6_branch2b (in-place)
I0310 13:04:31.399689 26167 net.cpp:150] Setting up res3b6_branch2b_relu
I0310 13:04:31.399701 26167 net.cpp:157] Top shape: 8 128 28 28 (802816)
I0310 13:04:31.399711 26167 net.cpp:165] Memory required for data: 1671463904
I0310 13:04:31.399720 26167 layer_factory.hpp:77] Creating layer res3b6_branch2c
I0310 13:04:31.399735 26167 net.cpp:106] Creating Layer res3b6_branch2c
I0310 13:04:31.399746 26167 net.cpp:454] res3b6_branch2c <- res3b6_branch2b
I0310 13:04:31.399762 26167 net.cpp:411] res3b6_branch2c -> res3b6_branch2c
I0310 13:04:31.400032 26167 net.cpp:150] Setting up res3b6_branch2c
I0310 13:04:31.400053 26167 net.cpp:157] Top shape: 8 512 28 28 (3211264)
I0310 13:04:31.400063 26167 net.cpp:165] Memory required for data: 1684308960
I0310 13:04:31.400075 26167 layer_factory.hpp:77] Creating layer bn3b6_branch2c
I0310 13:04:31.400094 26167 net.cpp:106] Creating Layer bn3b6_branch2c
I0310 13:04:31.400105 26167 net.cpp:454] bn3b6_branch2c <- res3b6_branch2c
I0310 13:04:31.400117 26167 net.cpp:397] bn3b6_branch2c -> res3b6_branch2c (in-place)
I0310 13:04:31.400343 26167 net.cpp:150] Setting up bn3b6_branch2c
I0310 13:04:31.400362 26167 net.cpp:157] Top shape: 8 512 28 28 (3211264)
I0310 13:04:31.400372 26167 net.cpp:165] Memory required for data: 1697154016
I0310 13:04:31.400388 26167 layer_factory.hpp:77] Creating layer scale3b6_branch2c
I0310 13:04:31.400403 26167 net.cpp:106] Creating Layer scale3b6_branch2c
I0310 13:04:31.400414 26167 net.cpp:454] scale3b6_branch2c <- res3b6_branch2c
I0310 13:04:31.400426 26167 net.cpp:397] scale3b6_branch2c -> res3b6_branch2c (in-place)
I0310 13:04:31.400493 26167 layer_factory.hpp:77] Creating layer scale3b6_branch2c
I0310 13:04:31.400646 26167 net.cpp:150] Setting up scale3b6_branch2c
I0310 13:04:31.400665 26167 net.cpp:157] Top shape: 8 512 28 28 (3211264)
I0310 13:04:31.400676 26167 net.cpp:165] Memory required for data: 1709999072
I0310 13:04:31.400691 26167 layer_factory.hpp:77] Creating layer res3b6
I0310 13:04:31.400707 26167 net.cpp:106] Creating Layer res3b6
I0310 13:04:31.400718 26167 net.cpp:454] res3b6 <- res3b5_res3b5_relu_0_split_1
I0310 13:04:31.400729 26167 net.cpp:454] res3b6 <- res3b6_branch2c
I0310 13:04:31.400743 26167 net.cpp:411] res3b6 -> res3b6
I0310 13:04:31.400784 26167 net.cpp:150] Setting up res3b6
I0310 13:04:31.400800 26167 net.cpp:157] Top shape: 8 512 28 28 (3211264)
I0310 13:04:31.400810 26167 net.cpp:165] Memory required for data: 1722844128
I0310 13:04:31.400820 26167 layer_factory.hpp:77] Creating layer res3b6_relu
I0310 13:04:31.400833 26167 net.cpp:106] Creating Layer res3b6_relu
I0310 13:04:31.400845 26167 net.cpp:454] res3b6_relu <- res3b6
I0310 13:04:31.400858 26167 net.cpp:397] res3b6_relu -> res3b6 (in-place)
I0310 13:04:31.400872 26167 net.cpp:150] Setting up res3b6_relu
I0310 13:04:31.400884 26167 net.cpp:157] Top shape: 8 512 28 28 (3211264)
I0310 13:04:31.400894 26167 net.cpp:165] Memory required for data: 1735689184
I0310 13:04:31.400904 26167 layer_factory.hpp:77] Creating layer res3b6_res3b6_relu_0_split
I0310 13:04:31.400918 26167 net.cpp:106] Creating Layer res3b6_res3b6_relu_0_split
I0310 13:04:31.400928 26167 net.cpp:454] res3b6_res3b6_relu_0_split <- res3b6
I0310 13:04:31.400939 26167 net.cpp:411] res3b6_res3b6_relu_0_split -> res3b6_res3b6_relu_0_split_0
I0310 13:04:31.400954 26167 net.cpp:411] res3b6_res3b6_relu_0_split -> res3b6_res3b6_relu_0_split_1
I0310 13:04:31.401007 26167 net.cpp:150] Setting up res3b6_res3b6_relu_0_split
I0310 13:04:31.401024 26167 net.cpp:157] Top shape: 8 512 28 28 (3211264)
I0310 13:04:31.401036 26167 net.cpp:157] Top shape: 8 512 28 28 (3211264)
I0310 13:04:31.401052 26167 net.cpp:165] Memory required for data: 1761379296
I0310 13:04:31.401072 26167 layer_factory.hpp:77] Creating layer res3b7_branch2a
I0310 13:04:31.401090 26167 net.cpp:106] Creating Layer res3b7_branch2a
I0310 13:04:31.401103 26167 net.cpp:454] res3b7_branch2a <- res3b6_res3b6_relu_0_split_0
I0310 13:04:31.401114 26167 net.cpp:411] res3b7_branch2a -> res3b7_branch2a
I0310 13:04:31.402137 26167 net.cpp:150] Setting up res3b7_branch2a
I0310 13:04:31.402160 26167 net.cpp:157] Top shape: 8 128 28 28 (802816)
I0310 13:04:31.402170 26167 net.cpp:165] Memory required for data: 1764590560
I0310 13:04:31.402184 26167 layer_factory.hpp:77] Creating layer bn3b7_branch2a
I0310 13:04:31.402199 26167 net.cpp:106] Creating Layer bn3b7_branch2a
I0310 13:04:31.402209 26167 net.cpp:454] bn3b7_branch2a <- res3b7_branch2a
I0310 13:04:31.402225 26167 net.cpp:397] bn3b7_branch2a -> res3b7_branch2a (in-place)
I0310 13:04:31.402456 26167 net.cpp:150] Setting up bn3b7_branch2a
I0310 13:04:31.402473 26167 net.cpp:157] Top shape: 8 128 28 28 (802816)
I0310 13:04:31.402484 26167 net.cpp:165] Memory required for data: 1767801824
I0310 13:04:31.402500 26167 layer_factory.hpp:77] Creating layer scale3b7_branch2a
I0310 13:04:31.402515 26167 net.cpp:106] Creating Layer scale3b7_branch2a
I0310 13:04:31.402526 26167 net.cpp:454] scale3b7_branch2a <- res3b7_branch2a
I0310 13:04:31.402539 26167 net.cpp:397] scale3b7_branch2a -> res3b7_branch2a (in-place)
I0310 13:04:31.402600 26167 layer_factory.hpp:77] Creating layer scale3b7_branch2a
I0310 13:04:31.402756 26167 net.cpp:150] Setting up scale3b7_branch2a
I0310 13:04:31.402776 26167 net.cpp:157] Top shape: 8 128 28 28 (802816)
I0310 13:04:31.402786 26167 net.cpp:165] Memory required for data: 1771013088
I0310 13:04:31.402799 26167 layer_factory.hpp:77] Creating layer res3b7_branch2a_relu
I0310 13:04:31.402813 26167 net.cpp:106] Creating Layer res3b7_branch2a_relu
I0310 13:04:31.402823 26167 net.cpp:454] res3b7_branch2a_relu <- res3b7_branch2a
I0310 13:04:31.402839 26167 net.cpp:397] res3b7_branch2a_relu -> res3b7_branch2a (in-place)
I0310 13:04:31.402853 26167 net.cpp:150] Setting up res3b7_branch2a_relu
I0310 13:04:31.402865 26167 net.cpp:157] Top shape: 8 128 28 28 (802816)
I0310 13:04:31.402875 26167 net.cpp:165] Memory required for data: 1774224352
I0310 13:04:31.402885 26167 layer_factory.hpp:77] Creating layer res3b7_branch2b
I0310 13:04:31.402900 26167 net.cpp:106] Creating Layer res3b7_branch2b
I0310 13:04:31.402911 26167 net.cpp:454] res3b7_branch2b <- res3b7_branch2a
I0310 13:04:31.402927 26167 net.cpp:411] res3b7_branch2b -> res3b7_branch2b
I0310 13:04:31.403954 26167 net.cpp:150] Setting up res3b7_branch2b
I0310 13:04:31.403976 26167 net.cpp:157] Top shape: 8 128 28 28 (802816)
I0310 13:04:31.403986 26167 net.cpp:165] Memory required for data: 1777435616
I0310 13:04:31.404000 26167 layer_factory.hpp:77] Creating layer bn3b7_branch2b
I0310 13:04:31.404014 26167 net.cpp:106] Creating Layer bn3b7_branch2b
I0310 13:04:31.404026 26167 net.cpp:454] bn3b7_branch2b <- res3b7_branch2b
I0310 13:04:31.404038 26167 net.cpp:397] bn3b7_branch2b -> res3b7_branch2b (in-place)
I0310 13:04:31.404273 26167 net.cpp:150] Setting up bn3b7_branch2b
I0310 13:04:31.404292 26167 net.cpp:157] Top shape: 8 128 28 28 (802816)
I0310 13:04:31.404304 26167 net.cpp:165] Memory required for data: 1780646880
I0310 13:04:31.404320 26167 layer_factory.hpp:77] Creating layer scale3b7_branch2b
I0310 13:04:31.404335 26167 net.cpp:106] Creating Layer scale3b7_branch2b
I0310 13:04:31.404346 26167 net.cpp:454] scale3b7_branch2b <- res3b7_branch2b
I0310 13:04:31.404358 26167 net.cpp:397] scale3b7_branch2b -> res3b7_branch2b (in-place)
I0310 13:04:31.404423 26167 layer_factory.hpp:77] Creating layer scale3b7_branch2b
I0310 13:04:31.404575 26167 net.cpp:150] Setting up scale3b7_branch2b
I0310 13:04:31.404594 26167 net.cpp:157] Top shape: 8 128 28 28 (802816)
I0310 13:04:31.404604 26167 net.cpp:165] Memory required for data: 1783858144
I0310 13:04:31.404618 26167 layer_factory.hpp:77] Creating layer res3b7_branch2b_relu
I0310 13:04:31.404646 26167 net.cpp:106] Creating Layer res3b7_branch2b_relu
I0310 13:04:31.404669 26167 net.cpp:454] res3b7_branch2b_relu <- res3b7_branch2b
I0310 13:04:31.404682 26167 net.cpp:397] res3b7_branch2b_relu -> res3b7_branch2b (in-place)
I0310 13:04:31.404696 26167 net.cpp:150] Setting up res3b7_branch2b_relu
I0310 13:04:31.404708 26167 net.cpp:157] Top shape: 8 128 28 28 (802816)
I0310 13:04:31.404717 26167 net.cpp:165] Memory required for data: 1787069408
I0310 13:04:31.404727 26167 layer_factory.hpp:77] Creating layer res3b7_branch2c
I0310 13:04:31.404747 26167 net.cpp:106] Creating Layer res3b7_branch2c
I0310 13:04:31.404757 26167 net.cpp:454] res3b7_branch2c <- res3b7_branch2b
I0310 13:04:31.404769 26167 net.cpp:411] res3b7_branch2c -> res3b7_branch2c
I0310 13:04:31.405045 26167 net.cpp:150] Setting up res3b7_branch2c
I0310 13:04:31.405064 26167 net.cpp:157] Top shape: 8 512 28 28 (3211264)
I0310 13:04:31.405074 26167 net.cpp:165] Memory required for data: 1799914464
I0310 13:04:31.405086 26167 layer_factory.hpp:77] Creating layer bn3b7_branch2c
I0310 13:04:31.405102 26167 net.cpp:106] Creating Layer bn3b7_branch2c
I0310 13:04:31.405112 26167 net.cpp:454] bn3b7_branch2c <- res3b7_branch2c
I0310 13:04:31.405128 26167 net.cpp:397] bn3b7_branch2c -> res3b7_branch2c (in-place)
I0310 13:04:31.405374 26167 net.cpp:150] Setting up bn3b7_branch2c
I0310 13:04:31.405395 26167 net.cpp:157] Top shape: 8 512 28 28 (3211264)
I0310 13:04:31.405405 26167 net.cpp:165] Memory required for data: 1812759520
I0310 13:04:31.405421 26167 layer_factory.hpp:77] Creating layer scale3b7_branch2c
I0310 13:04:31.405436 26167 net.cpp:106] Creating Layer scale3b7_branch2c
I0310 13:04:31.405447 26167 net.cpp:454] scale3b7_branch2c <- res3b7_branch2c
I0310 13:04:31.405458 26167 net.cpp:397] scale3b7_branch2c -> res3b7_branch2c (in-place)
I0310 13:04:31.405522 26167 layer_factory.hpp:77] Creating layer scale3b7_branch2c
I0310 13:04:31.405679 26167 net.cpp:150] Setting up scale3b7_branch2c
I0310 13:04:31.405697 26167 net.cpp:157] Top shape: 8 512 28 28 (3211264)
I0310 13:04:31.405707 26167 net.cpp:165] Memory required for data: 1825604576
I0310 13:04:31.405722 26167 layer_factory.hpp:77] Creating layer res3b7
I0310 13:04:31.405740 26167 net.cpp:106] Creating Layer res3b7
I0310 13:04:31.405750 26167 net.cpp:454] res3b7 <- res3b6_res3b6_relu_0_split_1
I0310 13:04:31.405761 26167 net.cpp:454] res3b7 <- res3b7_branch2c
I0310 13:04:31.405774 26167 net.cpp:411] res3b7 -> res3b7
I0310 13:04:31.405812 26167 net.cpp:150] Setting up res3b7
I0310 13:04:31.405828 26167 net.cpp:157] Top shape: 8 512 28 28 (3211264)
I0310 13:04:31.405838 26167 net.cpp:165] Memory required for data: 1838449632
I0310 13:04:31.405848 26167 layer_factory.hpp:77] Creating layer res3b7_relu
I0310 13:04:31.405865 26167 net.cpp:106] Creating Layer res3b7_relu
I0310 13:04:31.405876 26167 net.cpp:454] res3b7_relu <- res3b7
I0310 13:04:31.405890 26167 net.cpp:397] res3b7_relu -> res3b7 (in-place)
I0310 13:04:31.405905 26167 net.cpp:150] Setting up res3b7_relu
I0310 13:04:31.405917 26167 net.cpp:157] Top shape: 8 512 28 28 (3211264)
I0310 13:04:31.405926 26167 net.cpp:165] Memory required for data: 1851294688
I0310 13:04:31.405937 26167 layer_factory.hpp:77] Creating layer res3b7_res3b7_relu_0_split
I0310 13:04:31.405949 26167 net.cpp:106] Creating Layer res3b7_res3b7_relu_0_split
I0310 13:04:31.405959 26167 net.cpp:454] res3b7_res3b7_relu_0_split <- res3b7
I0310 13:04:31.405972 26167 net.cpp:411] res3b7_res3b7_relu_0_split -> res3b7_res3b7_relu_0_split_0
I0310 13:04:31.405985 26167 net.cpp:411] res3b7_res3b7_relu_0_split -> res3b7_res3b7_relu_0_split_1
I0310 13:04:31.406040 26167 net.cpp:150] Setting up res3b7_res3b7_relu_0_split
I0310 13:04:31.406057 26167 net.cpp:157] Top shape: 8 512 28 28 (3211264)
I0310 13:04:31.406069 26167 net.cpp:157] Top shape: 8 512 28 28 (3211264)
I0310 13:04:31.406078 26167 net.cpp:165] Memory required for data: 1876984800
I0310 13:04:31.406088 26167 layer_factory.hpp:77] Creating layer res4a_branch1
I0310 13:04:31.406107 26167 net.cpp:106] Creating Layer res4a_branch1
I0310 13:04:31.406134 26167 net.cpp:454] res4a_branch1 <- res3b7_res3b7_relu_0_split_0
I0310 13:04:31.406149 26167 net.cpp:411] res4a_branch1 -> res4a_branch1
I0310 13:04:31.407995 26167 net.cpp:150] Setting up res4a_branch1
I0310 13:04:31.408017 26167 net.cpp:157] Top shape: 8 1024 14 14 (1605632)
I0310 13:04:31.408028 26167 net.cpp:165] Memory required for data: 1883407328
I0310 13:04:31.408041 26167 layer_factory.hpp:77] Creating layer bn4a_branch1
I0310 13:04:31.408056 26167 net.cpp:106] Creating Layer bn4a_branch1
I0310 13:04:31.408067 26167 net.cpp:454] bn4a_branch1 <- res4a_branch1
I0310 13:04:31.408083 26167 net.cpp:397] bn4a_branch1 -> res4a_branch1 (in-place)
I0310 13:04:31.408335 26167 net.cpp:150] Setting up bn4a_branch1
I0310 13:04:31.408354 26167 net.cpp:157] Top shape: 8 1024 14 14 (1605632)
I0310 13:04:31.408365 26167 net.cpp:165] Memory required for data: 1889829856
I0310 13:04:31.408381 26167 layer_factory.hpp:77] Creating layer scale4a_branch1
I0310 13:04:31.408396 26167 net.cpp:106] Creating Layer scale4a_branch1
I0310 13:04:31.408407 26167 net.cpp:454] scale4a_branch1 <- res4a_branch1
I0310 13:04:31.408419 26167 net.cpp:397] scale4a_branch1 -> res4a_branch1 (in-place)
I0310 13:04:31.408479 26167 layer_factory.hpp:77] Creating layer scale4a_branch1
I0310 13:04:31.408632 26167 net.cpp:150] Setting up scale4a_branch1
I0310 13:04:31.408650 26167 net.cpp:157] Top shape: 8 1024 14 14 (1605632)
I0310 13:04:31.408661 26167 net.cpp:165] Memory required for data: 1896252384
I0310 13:04:31.408675 26167 layer_factory.hpp:77] Creating layer res4a_branch2a
I0310 13:04:31.408694 26167 net.cpp:106] Creating Layer res4a_branch2a
I0310 13:04:31.408706 26167 net.cpp:454] res4a_branch2a <- res3b7_res3b7_relu_0_split_1
I0310 13:04:31.408718 26167 net.cpp:411] res4a_branch2a -> res4a_branch2a
I0310 13:04:31.409114 26167 net.cpp:150] Setting up res4a_branch2a
I0310 13:04:31.409135 26167 net.cpp:157] Top shape: 8 256 14 14 (401408)
I0310 13:04:31.409145 26167 net.cpp:165] Memory required for data: 1897858016
I0310 13:04:31.409158 26167 layer_factory.hpp:77] Creating layer bn4a_branch2a
I0310 13:04:31.409171 26167 net.cpp:106] Creating Layer bn4a_branch2a
I0310 13:04:31.409183 26167 net.cpp:454] bn4a_branch2a <- res4a_branch2a
I0310 13:04:31.409198 26167 net.cpp:397] bn4a_branch2a -> res4a_branch2a (in-place)
I0310 13:04:31.409437 26167 net.cpp:150] Setting up bn4a_branch2a
I0310 13:04:31.409457 26167 net.cpp:157] Top shape: 8 256 14 14 (401408)
I0310 13:04:31.409468 26167 net.cpp:165] Memory required for data: 1899463648
I0310 13:04:31.409484 26167 layer_factory.hpp:77] Creating layer scale4a_branch2a
I0310 13:04:31.409498 26167 net.cpp:106] Creating Layer scale4a_branch2a
I0310 13:04:31.409510 26167 net.cpp:454] scale4a_branch2a <- res4a_branch2a
I0310 13:04:31.409523 26167 net.cpp:397] scale4a_branch2a -> res4a_branch2a (in-place)
I0310 13:04:31.409582 26167 layer_factory.hpp:77] Creating layer scale4a_branch2a
I0310 13:04:31.409730 26167 net.cpp:150] Setting up scale4a_branch2a
I0310 13:04:31.409749 26167 net.cpp:157] Top shape: 8 256 14 14 (401408)
I0310 13:04:31.409759 26167 net.cpp:165] Memory required for data: 1901069280
I0310 13:04:31.409773 26167 layer_factory.hpp:77] Creating layer res4a_branch2a_relu
I0310 13:04:31.409786 26167 net.cpp:106] Creating Layer res4a_branch2a_relu
I0310 13:04:31.409797 26167 net.cpp:454] res4a_branch2a_relu <- res4a_branch2a
I0310 13:04:31.409812 26167 net.cpp:397] res4a_branch2a_relu -> res4a_branch2a (in-place)
I0310 13:04:31.409826 26167 net.cpp:150] Setting up res4a_branch2a_relu
I0310 13:04:31.409838 26167 net.cpp:157] Top shape: 8 256 14 14 (401408)
I0310 13:04:31.409848 26167 net.cpp:165] Memory required for data: 1902674912
I0310 13:04:31.409858 26167 layer_factory.hpp:77] Creating layer res4a_branch2b
I0310 13:04:31.409873 26167 net.cpp:106] Creating Layer res4a_branch2b
I0310 13:04:31.409884 26167 net.cpp:454] res4a_branch2b <- res4a_branch2a
I0310 13:04:31.409900 26167 net.cpp:411] res4a_branch2b -> res4a_branch2b
I0310 13:04:31.411953 26167 net.cpp:150] Setting up res4a_branch2b
I0310 13:04:31.411989 26167 net.cpp:157] Top shape: 8 256 14 14 (401408)
I0310 13:04:31.412000 26167 net.cpp:165] Memory required for data: 1904280544
I0310 13:04:31.412014 26167 layer_factory.hpp:77] Creating layer bn4a_branch2b
I0310 13:04:31.412027 26167 net.cpp:106] Creating Layer bn4a_branch2b
I0310 13:04:31.412039 26167 net.cpp:454] bn4a_branch2b <- res4a_branch2b
I0310 13:04:31.412051 26167 net.cpp:397] bn4a_branch2b -> res4a_branch2b (in-place)
I0310 13:04:31.412278 26167 net.cpp:150] Setting up bn4a_branch2b
I0310 13:04:31.412297 26167 net.cpp:157] Top shape: 8 256 14 14 (401408)
I0310 13:04:31.412307 26167 net.cpp:165] Memory required for data: 1905886176
I0310 13:04:31.412324 26167 layer_factory.hpp:77] Creating layer scale4a_branch2b
I0310 13:04:31.412343 26167 net.cpp:106] Creating Layer scale4a_branch2b
I0310 13:04:31.412353 26167 net.cpp:454] scale4a_branch2b <- res4a_branch2b
I0310 13:04:31.412365 26167 net.cpp:397] scale4a_branch2b -> res4a_branch2b (in-place)
I0310 13:04:31.412427 26167 layer_factory.hpp:77] Creating layer scale4a_branch2b
I0310 13:04:31.412576 26167 net.cpp:150] Setting up scale4a_branch2b
I0310 13:04:31.412595 26167 net.cpp:157] Top shape: 8 256 14 14 (401408)
I0310 13:04:31.412606 26167 net.cpp:165] Memory required for data: 1907491808
I0310 13:04:31.412621 26167 layer_factory.hpp:77] Creating layer res4a_branch2b_relu
I0310 13:04:31.412633 26167 net.cpp:106] Creating Layer res4a_branch2b_relu
I0310 13:04:31.412644 26167 net.cpp:454] res4a_branch2b_relu <- res4a_branch2b
I0310 13:04:31.412659 26167 net.cpp:397] res4a_branch2b_relu -> res4a_branch2b (in-place)
I0310 13:04:31.412673 26167 net.cpp:150] Setting up res4a_branch2b_relu
I0310 13:04:31.412686 26167 net.cpp:157] Top shape: 8 256 14 14 (401408)
I0310 13:04:31.412695 26167 net.cpp:165] Memory required for data: 1909097440
I0310 13:04:31.412706 26167 layer_factory.hpp:77] Creating layer res4a_branch2c
I0310 13:04:31.412724 26167 net.cpp:106] Creating Layer res4a_branch2c
I0310 13:04:31.412736 26167 net.cpp:454] res4a_branch2c <- res4a_branch2b
I0310 13:04:31.412750 26167 net.cpp:411] res4a_branch2c -> res4a_branch2c
I0310 13:04:31.413877 26167 net.cpp:150] Setting up res4a_branch2c
I0310 13:04:31.413900 26167 net.cpp:157] Top shape: 8 1024 14 14 (1605632)
I0310 13:04:31.413910 26167 net.cpp:165] Memory required for data: 1915519968
I0310 13:04:31.413924 26167 layer_factory.hpp:77] Creating layer bn4a_branch2c
I0310 13:04:31.413941 26167 net.cpp:106] Creating Layer bn4a_branch2c
I0310 13:04:31.413954 26167 net.cpp:454] bn4a_branch2c <- res4a_branch2c
I0310 13:04:31.413966 26167 net.cpp:397] bn4a_branch2c -> res4a_branch2c (in-place)
I0310 13:04:31.414202 26167 net.cpp:150] Setting up bn4a_branch2c
I0310 13:04:31.414222 26167 net.cpp:157] Top shape: 8 1024 14 14 (1605632)
I0310 13:04:31.414232 26167 net.cpp:165] Memory required for data: 1921942496
I0310 13:04:31.414247 26167 layer_factory.hpp:77] Creating layer scale4a_branch2c
I0310 13:04:31.414263 26167 net.cpp:106] Creating Layer scale4a_branch2c
I0310 13:04:31.414273 26167 net.cpp:454] scale4a_branch2c <- res4a_branch2c
I0310 13:04:31.414286 26167 net.cpp:397] scale4a_branch2c -> res4a_branch2c (in-place)
I0310 13:04:31.414345 26167 layer_factory.hpp:77] Creating layer scale4a_branch2c
I0310 13:04:31.414500 26167 net.cpp:150] Setting up scale4a_branch2c
I0310 13:04:31.414520 26167 net.cpp:157] Top shape: 8 1024 14 14 (1605632)
I0310 13:04:31.414530 26167 net.cpp:165] Memory required for data: 1928365024
I0310 13:04:31.414544 26167 layer_factory.hpp:77] Creating layer res4a
I0310 13:04:31.414561 26167 net.cpp:106] Creating Layer res4a
I0310 13:04:31.414573 26167 net.cpp:454] res4a <- res4a_branch1
I0310 13:04:31.414585 26167 net.cpp:454] res4a <- res4a_branch2c
I0310 13:04:31.414597 26167 net.cpp:411] res4a -> res4a
I0310 13:04:31.414639 26167 net.cpp:150] Setting up res4a
I0310 13:04:31.414656 26167 net.cpp:157] Top shape: 8 1024 14 14 (1605632)
I0310 13:04:31.414666 26167 net.cpp:165] Memory required for data: 1934787552
I0310 13:04:31.414683 26167 layer_factory.hpp:77] Creating layer res4a_relu
I0310 13:04:31.414707 26167 net.cpp:106] Creating Layer res4a_relu
I0310 13:04:31.414718 26167 net.cpp:454] res4a_relu <- res4a
I0310 13:04:31.414733 26167 net.cpp:397] res4a_relu -> res4a (in-place)
I0310 13:04:31.414747 26167 net.cpp:150] Setting up res4a_relu
I0310 13:04:31.414759 26167 net.cpp:157] Top shape: 8 1024 14 14 (1605632)
I0310 13:04:31.414769 26167 net.cpp:165] Memory required for data: 1941210080
I0310 13:04:31.414779 26167 layer_factory.hpp:77] Creating layer res4a_res4a_relu_0_split
I0310 13:04:31.414793 26167 net.cpp:106] Creating Layer res4a_res4a_relu_0_split
I0310 13:04:31.414803 26167 net.cpp:454] res4a_res4a_relu_0_split <- res4a
I0310 13:04:31.414814 26167 net.cpp:411] res4a_res4a_relu_0_split -> res4a_res4a_relu_0_split_0
I0310 13:04:31.414829 26167 net.cpp:411] res4a_res4a_relu_0_split -> res4a_res4a_relu_0_split_1
I0310 13:04:31.414886 26167 net.cpp:150] Setting up res4a_res4a_relu_0_split
I0310 13:04:31.414903 26167 net.cpp:157] Top shape: 8 1024 14 14 (1605632)
I0310 13:04:31.414916 26167 net.cpp:157] Top shape: 8 1024 14 14 (1605632)
I0310 13:04:31.414925 26167 net.cpp:165] Memory required for data: 1954055136
I0310 13:04:31.414935 26167 layer_factory.hpp:77] Creating layer res4b1_branch2a
I0310 13:04:31.414953 26167 net.cpp:106] Creating Layer res4b1_branch2a
I0310 13:04:31.414965 26167 net.cpp:454] res4b1_branch2a <- res4a_res4a_relu_0_split_0
I0310 13:04:31.414978 26167 net.cpp:411] res4b1_branch2a -> res4b1_branch2a
I0310 13:04:31.416095 26167 net.cpp:150] Setting up res4b1_branch2a
I0310 13:04:31.416118 26167 net.cpp:157] Top shape: 8 256 14 14 (401408)
I0310 13:04:31.416128 26167 net.cpp:165] Memory required for data: 1955660768
I0310 13:04:31.416142 26167 layer_factory.hpp:77] Creating layer bn4b1_branch2a
I0310 13:04:31.416157 26167 net.cpp:106] Creating Layer bn4b1_branch2a
I0310 13:04:31.416168 26167 net.cpp:454] bn4b1_branch2a <- res4b1_branch2a
I0310 13:04:31.416183 26167 net.cpp:397] bn4b1_branch2a -> res4b1_branch2a (in-place)
I0310 13:04:31.416415 26167 net.cpp:150] Setting up bn4b1_branch2a
I0310 13:04:31.416435 26167 net.cpp:157] Top shape: 8 256 14 14 (401408)
I0310 13:04:31.416445 26167 net.cpp:165] Memory required for data: 1957266400
I0310 13:04:31.416461 26167 layer_factory.hpp:77] Creating layer scale4b1_branch2a
I0310 13:04:31.416476 26167 net.cpp:106] Creating Layer scale4b1_branch2a
I0310 13:04:31.416487 26167 net.cpp:454] scale4b1_branch2a <- res4b1_branch2a
I0310 13:04:31.416499 26167 net.cpp:397] scale4b1_branch2a -> res4b1_branch2a (in-place)
I0310 13:04:31.416563 26167 layer_factory.hpp:77] Creating layer scale4b1_branch2a
I0310 13:04:31.416712 26167 net.cpp:150] Setting up scale4b1_branch2a
I0310 13:04:31.416731 26167 net.cpp:157] Top shape: 8 256 14 14 (401408)
I0310 13:04:31.416741 26167 net.cpp:165] Memory required for data: 1958872032
I0310 13:04:31.416755 26167 layer_factory.hpp:77] Creating layer res4b1_branch2a_relu
I0310 13:04:31.416774 26167 net.cpp:106] Creating Layer res4b1_branch2a_relu
I0310 13:04:31.416785 26167 net.cpp:454] res4b1_branch2a_relu <- res4b1_branch2a
I0310 13:04:31.416800 26167 net.cpp:397] res4b1_branch2a_relu -> res4b1_branch2a (in-place)
I0310 13:04:31.416813 26167 net.cpp:150] Setting up res4b1_branch2a_relu
I0310 13:04:31.416826 26167 net.cpp:157] Top shape: 8 256 14 14 (401408)
I0310 13:04:31.416836 26167 net.cpp:165] Memory required for data: 1960477664
I0310 13:04:31.416846 26167 layer_factory.hpp:77] Creating layer res4b1_branch2b
I0310 13:04:31.416860 26167 net.cpp:106] Creating Layer res4b1_branch2b
I0310 13:04:31.416872 26167 net.cpp:454] res4b1_branch2b <- res4b1_branch2a
I0310 13:04:31.416887 26167 net.cpp:411] res4b1_branch2b -> res4b1_branch2b
I0310 13:04:31.418925 26167 net.cpp:150] Setting up res4b1_branch2b
I0310 13:04:31.418947 26167 net.cpp:157] Top shape: 8 256 14 14 (401408)
I0310 13:04:31.418958 26167 net.cpp:165] Memory required for data: 1962083296
I0310 13:04:31.418972 26167 layer_factory.hpp:77] Creating layer bn4b1_branch2b
I0310 13:04:31.418992 26167 net.cpp:106] Creating Layer bn4b1_branch2b
I0310 13:04:31.419014 26167 net.cpp:454] bn4b1_branch2b <- res4b1_branch2b
I0310 13:04:31.419028 26167 net.cpp:397] bn4b1_branch2b -> res4b1_branch2b (in-place)
I0310 13:04:31.419257 26167 net.cpp:150] Setting up bn4b1_branch2b
I0310 13:04:31.419276 26167 net.cpp:157] Top shape: 8 256 14 14 (401408)
I0310 13:04:31.419286 26167 net.cpp:165] Memory required for data: 1963688928
I0310 13:04:31.419302 26167 layer_factory.hpp:77] Creating layer scale4b1_branch2b
I0310 13:04:31.419323 26167 net.cpp:106] Creating Layer scale4b1_branch2b
I0310 13:04:31.419335 26167 net.cpp:454] scale4b1_branch2b <- res4b1_branch2b
I0310 13:04:31.419348 26167 net.cpp:397] scale4b1_branch2b -> res4b1_branch2b (in-place)
I0310 13:04:31.419411 26167 layer_factory.hpp:77] Creating layer scale4b1_branch2b
I0310 13:04:31.419564 26167 net.cpp:150] Setting up scale4b1_branch2b
I0310 13:04:31.419584 26167 net.cpp:157] Top shape: 8 256 14 14 (401408)
I0310 13:04:31.419594 26167 net.cpp:165] Memory required for data: 1965294560
I0310 13:04:31.419607 26167 layer_factory.hpp:77] Creating layer res4b1_branch2b_relu
I0310 13:04:31.419621 26167 net.cpp:106] Creating Layer res4b1_branch2b_relu
I0310 13:04:31.419631 26167 net.cpp:454] res4b1_branch2b_relu <- res4b1_branch2b
I0310 13:04:31.419647 26167 net.cpp:397] res4b1_branch2b_relu -> res4b1_branch2b (in-place)
I0310 13:04:31.419661 26167 net.cpp:150] Setting up res4b1_branch2b_relu
I0310 13:04:31.419673 26167 net.cpp:157] Top shape: 8 256 14 14 (401408)
I0310 13:04:31.419683 26167 net.cpp:165] Memory required for data: 1966900192
I0310 13:04:31.419693 26167 layer_factory.hpp:77] Creating layer res4b1_branch2c
I0310 13:04:31.419708 26167 net.cpp:106] Creating Layer res4b1_branch2c
I0310 13:04:31.419721 26167 net.cpp:454] res4b1_branch2c <- res4b1_branch2b
I0310 13:04:31.419735 26167 net.cpp:411] res4b1_branch2c -> res4b1_branch2c
I0310 13:04:31.420845 26167 net.cpp:150] Setting up res4b1_branch2c
I0310 13:04:31.420867 26167 net.cpp:157] Top shape: 8 1024 14 14 (1605632)
I0310 13:04:31.420878 26167 net.cpp:165] Memory required for data: 1973322720
I0310 13:04:31.420892 26167 layer_factory.hpp:77] Creating layer bn4b1_branch2c
I0310 13:04:31.420909 26167 net.cpp:106] Creating Layer bn4b1_branch2c
I0310 13:04:31.420922 26167 net.cpp:454] bn4b1_branch2c <- res4b1_branch2c
I0310 13:04:31.420934 26167 net.cpp:397] bn4b1_branch2c -> res4b1_branch2c (in-place)
I0310 13:04:31.421172 26167 net.cpp:150] Setting up bn4b1_branch2c
I0310 13:04:31.421191 26167 net.cpp:157] Top shape: 8 1024 14 14 (1605632)
I0310 13:04:31.421201 26167 net.cpp:165] Memory required for data: 1979745248
I0310 13:04:31.421218 26167 layer_factory.hpp:77] Creating layer scale4b1_branch2c
I0310 13:04:31.421242 26167 net.cpp:106] Creating Layer scale4b1_branch2c
I0310 13:04:31.421262 26167 net.cpp:454] scale4b1_branch2c <- res4b1_branch2c
I0310 13:04:31.421274 26167 net.cpp:397] scale4b1_branch2c -> res4b1_branch2c (in-place)
I0310 13:04:31.421336 26167 layer_factory.hpp:77] Creating layer scale4b1_branch2c
I0310 13:04:31.421494 26167 net.cpp:150] Setting up scale4b1_branch2c
I0310 13:04:31.421512 26167 net.cpp:157] Top shape: 8 1024 14 14 (1605632)
I0310 13:04:31.421524 26167 net.cpp:165] Memory required for data: 1986167776
I0310 13:04:31.421581 26167 layer_factory.hpp:77] Creating layer res4b1
I0310 13:04:31.421597 26167 net.cpp:106] Creating Layer res4b1
I0310 13:04:31.421609 26167 net.cpp:454] res4b1 <- res4a_res4a_relu_0_split_1
I0310 13:04:31.421620 26167 net.cpp:454] res4b1 <- res4b1_branch2c
I0310 13:04:31.421633 26167 net.cpp:411] res4b1 -> res4b1
I0310 13:04:31.421677 26167 net.cpp:150] Setting up res4b1
I0310 13:04:31.421695 26167 net.cpp:157] Top shape: 8 1024 14 14 (1605632)
I0310 13:04:31.421705 26167 net.cpp:165] Memory required for data: 1992590304
I0310 13:04:31.421715 26167 layer_factory.hpp:77] Creating layer res4b1_relu
I0310 13:04:31.421728 26167 net.cpp:106] Creating Layer res4b1_relu
I0310 13:04:31.421738 26167 net.cpp:454] res4b1_relu <- res4b1
I0310 13:04:31.421761 26167 net.cpp:397] res4b1_relu -> res4b1 (in-place)
I0310 13:04:31.421785 26167 net.cpp:150] Setting up res4b1_relu
I0310 13:04:31.421799 26167 net.cpp:157] Top shape: 8 1024 14 14 (1605632)
I0310 13:04:31.421808 26167 net.cpp:165] Memory required for data: 1999012832
I0310 13:04:31.421818 26167 layer_factory.hpp:77] Creating layer res4b1_res4b1_relu_0_split
I0310 13:04:31.421831 26167 net.cpp:106] Creating Layer res4b1_res4b1_relu_0_split
I0310 13:04:31.421841 26167 net.cpp:454] res4b1_res4b1_relu_0_split <- res4b1
I0310 13:04:31.421854 26167 net.cpp:411] res4b1_res4b1_relu_0_split -> res4b1_res4b1_relu_0_split_0
I0310 13:04:31.421867 26167 net.cpp:411] res4b1_res4b1_relu_0_split -> res4b1_res4b1_relu_0_split_1
I0310 13:04:31.421926 26167 net.cpp:150] Setting up res4b1_res4b1_relu_0_split
I0310 13:04:31.421943 26167 net.cpp:157] Top shape: 8 1024 14 14 (1605632)
I0310 13:04:31.421955 26167 net.cpp:157] Top shape: 8 1024 14 14 (1605632)
I0310 13:04:31.421964 26167 net.cpp:165] Memory required for data: 2011857888
I0310 13:04:31.421975 26167 layer_factory.hpp:77] Creating layer res4b2_branch2a
I0310 13:04:31.421993 26167 net.cpp:106] Creating Layer res4b2_branch2a
I0310 13:04:31.422005 26167 net.cpp:454] res4b2_branch2a <- res4b1_res4b1_relu_0_split_0
I0310 13:04:31.422019 26167 net.cpp:411] res4b2_branch2a -> res4b2_branch2a
I0310 13:04:31.423138 26167 net.cpp:150] Setting up res4b2_branch2a
I0310 13:04:31.423161 26167 net.cpp:157] Top shape: 8 256 14 14 (401408)
I0310 13:04:31.423171 26167 net.cpp:165] Memory required for data: 2013463520
I0310 13:04:31.423184 26167 layer_factory.hpp:77] Creating layer bn4b2_branch2a
I0310 13:04:31.423202 26167 net.cpp:106] Creating Layer bn4b2_branch2a
I0310 13:04:31.423213 26167 net.cpp:454] bn4b2_branch2a <- res4b2_branch2a
I0310 13:04:31.423226 26167 net.cpp:397] bn4b2_branch2a -> res4b2_branch2a (in-place)
I0310 13:04:31.423458 26167 net.cpp:150] Setting up bn4b2_branch2a
I0310 13:04:31.423478 26167 net.cpp:157] Top shape: 8 256 14 14 (401408)
I0310 13:04:31.423488 26167 net.cpp:165] Memory required for data: 2015069152
I0310 13:04:31.423506 26167 layer_factory.hpp:77] Creating layer scale4b2_branch2a
I0310 13:04:31.423523 26167 net.cpp:106] Creating Layer scale4b2_branch2a
I0310 13:04:31.423534 26167 net.cpp:454] scale4b2_branch2a <- res4b2_branch2a
I0310 13:04:31.423547 26167 net.cpp:397] scale4b2_branch2a -> res4b2_branch2a (in-place)
I0310 13:04:31.423611 26167 layer_factory.hpp:77] Creating layer scale4b2_branch2a
I0310 13:04:31.423766 26167 net.cpp:150] Setting up scale4b2_branch2a
I0310 13:04:31.423785 26167 net.cpp:157] Top shape: 8 256 14 14 (401408)
I0310 13:04:31.423795 26167 net.cpp:165] Memory required for data: 2016674784
I0310 13:04:31.423810 26167 layer_factory.hpp:77] Creating layer res4b2_branch2a_relu
I0310 13:04:31.423822 26167 net.cpp:106] Creating Layer res4b2_branch2a_relu
I0310 13:04:31.423833 26167 net.cpp:454] res4b2_branch2a_relu <- res4b2_branch2a
I0310 13:04:31.423846 26167 net.cpp:397] res4b2_branch2a_relu -> res4b2_branch2a (in-place)
I0310 13:04:31.423859 26167 net.cpp:150] Setting up res4b2_branch2a_relu
I0310 13:04:31.423871 26167 net.cpp:157] Top shape: 8 256 14 14 (401408)
I0310 13:04:31.423882 26167 net.cpp:165] Memory required for data: 2018280416
I0310 13:04:31.423892 26167 layer_factory.hpp:77] Creating layer res4b2_branch2b
I0310 13:04:31.423910 26167 net.cpp:106] Creating Layer res4b2_branch2b
I0310 13:04:31.423920 26167 net.cpp:454] res4b2_branch2b <- res4b2_branch2a
I0310 13:04:31.423936 26167 net.cpp:411] res4b2_branch2b -> res4b2_branch2b
I0310 13:04:31.425963 26167 net.cpp:150] Setting up res4b2_branch2b
I0310 13:04:31.425987 26167 net.cpp:157] Top shape: 8 256 14 14 (401408)
I0310 13:04:31.425997 26167 net.cpp:165] Memory required for data: 2019886048
I0310 13:04:31.426010 26167 layer_factory.hpp:77] Creating layer bn4b2_branch2b
I0310 13:04:31.426025 26167 net.cpp:106] Creating Layer bn4b2_branch2b
I0310 13:04:31.426036 26167 net.cpp:454] bn4b2_branch2b <- res4b2_branch2b
I0310 13:04:31.426053 26167 net.cpp:397] bn4b2_branch2b -> res4b2_branch2b (in-place)
I0310 13:04:31.426295 26167 net.cpp:150] Setting up bn4b2_branch2b
I0310 13:04:31.426324 26167 net.cpp:157] Top shape: 8 256 14 14 (401408)
I0310 13:04:31.426334 26167 net.cpp:165] Memory required for data: 2021491680
I0310 13:04:31.426350 26167 layer_factory.hpp:77] Creating layer scale4b2_branch2b
I0310 13:04:31.426365 26167 net.cpp:106] Creating Layer scale4b2_branch2b
I0310 13:04:31.426376 26167 net.cpp:454] scale4b2_branch2b <- res4b2_branch2b
I0310 13:04:31.426388 26167 net.cpp:397] scale4b2_branch2b -> res4b2_branch2b (in-place)
I0310 13:04:31.426455 26167 layer_factory.hpp:77] Creating layer scale4b2_branch2b
I0310 13:04:31.426604 26167 net.cpp:150] Setting up scale4b2_branch2b
I0310 13:04:31.426623 26167 net.cpp:157] Top shape: 8 256 14 14 (401408)
I0310 13:04:31.426633 26167 net.cpp:165] Memory required for data: 2023097312
I0310 13:04:31.426647 26167 layer_factory.hpp:77] Creating layer res4b2_branch2b_relu
I0310 13:04:31.426661 26167 net.cpp:106] Creating Layer res4b2_branch2b_relu
I0310 13:04:31.426672 26167 net.cpp:454] res4b2_branch2b_relu <- res4b2_branch2b
I0310 13:04:31.426687 26167 net.cpp:397] res4b2_branch2b_relu -> res4b2_branch2b (in-place)
I0310 13:04:31.426702 26167 net.cpp:150] Setting up res4b2_branch2b_relu
I0310 13:04:31.426714 26167 net.cpp:157] Top shape: 8 256 14 14 (401408)
I0310 13:04:31.426724 26167 net.cpp:165] Memory required for data: 2024702944
I0310 13:04:31.426734 26167 layer_factory.hpp:77] Creating layer res4b2_branch2c
I0310 13:04:31.426750 26167 net.cpp:106] Creating Layer res4b2_branch2c
I0310 13:04:31.426760 26167 net.cpp:454] res4b2_branch2c <- res4b2_branch2b
I0310 13:04:31.426781 26167 net.cpp:411] res4b2_branch2c -> res4b2_branch2c
I0310 13:04:31.427971 26167 net.cpp:150] Setting up res4b2_branch2c
I0310 13:04:31.427994 26167 net.cpp:157] Top shape: 8 1024 14 14 (1605632)
I0310 13:04:31.428005 26167 net.cpp:165] Memory required for data: 2031125472
I0310 13:04:31.428019 26167 layer_factory.hpp:77] Creating layer bn4b2_branch2c
I0310 13:04:31.428032 26167 net.cpp:106] Creating Layer bn4b2_branch2c
I0310 13:04:31.428045 26167 net.cpp:454] bn4b2_branch2c <- res4b2_branch2c
I0310 13:04:31.428056 26167 net.cpp:397] bn4b2_branch2c -> res4b2_branch2c (in-place)
I0310 13:04:31.428299 26167 net.cpp:150] Setting up bn4b2_branch2c
I0310 13:04:31.428318 26167 net.cpp:157] Top shape: 8 1024 14 14 (1605632)
I0310 13:04:31.428328 26167 net.cpp:165] Memory required for data: 2037548000
I0310 13:04:31.428344 26167 layer_factory.hpp:77] Creating layer scale4b2_branch2c
I0310 13:04:31.428362 26167 net.cpp:106] Creating Layer scale4b2_branch2c
I0310 13:04:31.428375 26167 net.cpp:454] scale4b2_branch2c <- res4b2_branch2c
I0310 13:04:31.428386 26167 net.cpp:397] scale4b2_branch2c -> res4b2_branch2c (in-place)
I0310 13:04:31.428449 26167 layer_factory.hpp:77] Creating layer scale4b2_branch2c
I0310 13:04:31.428611 26167 net.cpp:150] Setting up scale4b2_branch2c
I0310 13:04:31.428629 26167 net.cpp:157] Top shape: 8 1024 14 14 (1605632)
I0310 13:04:31.428640 26167 net.cpp:165] Memory required for data: 2043970528
I0310 13:04:31.428654 26167 layer_factory.hpp:77] Creating layer res4b2
I0310 13:04:31.428671 26167 net.cpp:106] Creating Layer res4b2
I0310 13:04:31.428683 26167 net.cpp:454] res4b2 <- res4b1_res4b1_relu_0_split_1
I0310 13:04:31.428694 26167 net.cpp:454] res4b2 <- res4b2_branch2c
I0310 13:04:31.428706 26167 net.cpp:411] res4b2 -> res4b2
I0310 13:04:31.428750 26167 net.cpp:150] Setting up res4b2
…
I0310 13:04:32.255172 26167 net.cpp:106] Creating Layer id_bn4b33_branch2b
I0310 13:04:32.255182 26167 net.cpp:454] id_bn4b33_branch2b <- id_res4b33_branch2b
I0310 13:04:32.255197 26167 net.cpp:397] id_bn4b33_branch2b -> id_res4b33_branch2b (in-place)
I0310 13:04:32.255465 26167 net.cpp:150] Setting up id_bn4b33_branch2b
I0310 13:04:32.255484 26167 net.cpp:157] Top shape: 8 256 14 14 (401408)
I0310 13:04:32.255493 26167 net.cpp:165] Memory required for data: 7878902752
I0310 13:04:32.255511 26167 layer_factory.hpp:77] Creating layer id_scale4b33_branch2b
I0310 13:04:32.255527 26167 net.cpp:106] Creating Layer id_scale4b33_branch2b
I0310 13:04:32.255538 26167 net.cpp:454] id_scale4b33_branch2b <- id_res4b33_branch2b
I0310 13:04:32.255550 26167 net.cpp:397] id_scale4b33_branch2b -> id_res4b33_branch2b (in-place)
I0310 13:04:32.255620 26167 layer_factory.hpp:77] Creating layer id_scale4b33_branch2b
I0310 13:04:32.255794 26167 net.cpp:150] Setting up id_scale4b33_branch2b
I0310 13:04:32.255811 26167 net.cpp:157] Top shape: 8 256 14 14 (401408)
I0310 13:04:32.255821 26167 net.cpp:165] Memory required for data: 7880508384
I0310 13:04:32.255836 26167 layer_factory.hpp:77] Creating layer id_res4b33_branch2b_relu
I0310 13:04:32.255851 26167 net.cpp:106] Creating Layer id_res4b33_branch2b_relu
I0310 13:04:32.255861 26167 net.cpp:454] id_res4b33_branch2b_relu <- id_res4b33_branch2b
I0310 13:04:32.255875 26167 net.cpp:397] id_res4b33_branch2b_relu -> id_res4b33_branch2b (in-place)
I0310 13:04:32.255889 26167 net.cpp:150] Setting up id_res4b33_branch2b_relu
I0310 13:04:32.255901 26167 net.cpp:157] Top shape: 8 256 14 14 (401408)
I0310 13:04:32.255910 26167 net.cpp:165] Memory required for data: 7882114016
I0310 13:04:32.255919 26167 layer_factory.hpp:77] Creating layer id_res4b33_branch2c
I0310 13:04:32.255952 26167 net.cpp:106] Creating Layer id_res4b33_branch2c
I0310 13:04:32.255964 26167 net.cpp:454] id_res4b33_branch2c <- id_res4b33_branch2b
I0310 13:04:32.255977 26167 net.cpp:411] id_res4b33_branch2c -> id_res4b33_branch2c
I0310 13:04:32.257135 26167 net.cpp:150] Setting up id_res4b33_branch2c
I0310 13:04:32.257158 26167 net.cpp:157] Top shape: 8 1024 14 14 (1605632)
I0310 13:04:32.257167 26167 net.cpp:165] Memory required for data: 7888536544
I0310 13:04:32.257180 26167 layer_factory.hpp:77] Creating layer id_bn4b33_branch2c
I0310 13:04:32.257196 26167 net.cpp:106] Creating Layer id_bn4b33_branch2c
I0310 13:04:32.257207 26167 net.cpp:454] id_bn4b33_branch2c <- id_res4b33_branch2c
I0310 13:04:32.257220 26167 net.cpp:397] id_bn4b33_branch2c -> id_res4b33_branch2c (in-place)
I0310 13:04:32.257510 26167 net.cpp:150] Setting up id_bn4b33_branch2c
I0310 13:04:32.257530 26167 net.cpp:157] Top shape: 8 1024 14 14 (1605632)
I0310 13:04:32.257540 26167 net.cpp:165] Memory required for data: 7894959072
I0310 13:04:32.257556 26167 layer_factory.hpp:77] Creating layer id_scale4b33_branch2c
I0310 13:04:32.257571 26167 net.cpp:106] Creating Layer id_scale4b33_branch2c
I0310 13:04:32.257582 26167 net.cpp:454] id_scale4b33_branch2c <- id_res4b33_branch2c
I0310 13:04:32.257594 26167 net.cpp:397] id_scale4b33_branch2c -> id_res4b33_branch2c (in-place)
I0310 13:04:32.257668 26167 layer_factory.hpp:77] Creating layer id_scale4b33_branch2c
I0310 13:04:32.257851 26167 net.cpp:150] Setting up id_scale4b33_branch2c
I0310 13:04:32.257870 26167 net.cpp:157] Top shape: 8 1024 14 14 (1605632)
I0310 13:04:32.257880 26167 net.cpp:165] Memory required for data: 7901381600
I0310 13:04:32.257894 26167 layer_factory.hpp:77] Creating layer id_res4b33
I0310 13:04:32.257911 26167 net.cpp:106] Creating Layer id_res4b33
I0310 13:04:32.257922 26167 net.cpp:454] id_res4b33 <- id_res4b32_id_res4b32_relu_0_split_1
I0310 13:04:32.257933 26167 net.cpp:454] id_res4b33 <- id_res4b33_branch2c
I0310 13:04:32.257946 26167 net.cpp:411] id_res4b33 -> id_res4b33
I0310 13:04:32.257992 26167 net.cpp:150] Setting up id_res4b33
I0310 13:04:32.258008 26167 net.cpp:157] Top shape: 8 1024 14 14 (1605632)
I0310 13:04:32.258018 26167 net.cpp:165] Memory required for data: 7907804128
I0310 13:04:32.258028 26167 layer_factory.hpp:77] Creating layer id_res4b33_relu
I0310 13:04:32.258040 26167 net.cpp:106] Creating Layer id_res4b33_relu
I0310 13:04:32.258050 26167 net.cpp:454] id_res4b33_relu <- id_res4b33
I0310 13:04:32.258065 26167 net.cpp:397] id_res4b33_relu -> id_res4b33 (in-place)
I0310 13:04:32.258078 26167 net.cpp:150] Setting up id_res4b33_relu
I0310 13:04:32.258090 26167 net.cpp:157] Top shape: 8 1024 14 14 (1605632)
I0310 13:04:32.258100 26167 net.cpp:165] Memory required for data: 7914226656
I0310 13:04:32.258110 26167 layer_factory.hpp:77] Creating layer id_res4b33_id_res4b33_relu_0_split
I0310 13:04:32.258121 26167 net.cpp:106] Creating Layer id_res4b33_id_res4b33_relu_0_split
I0310 13:04:32.258131 26167 net.cpp:454] id_res4b33_id_res4b33_relu_0_split <- id_res4b33
I0310 13:04:32.258142 26167 net.cpp:411] id_res4b33_id_res4b33_relu_0_split -> id_res4b33_id_res4b33_relu_0_split_0
I0310 13:04:32.258157 26167 net.cpp:411] id_res4b33_id_res4b33_relu_0_split -> id_res4b33_id_res4b33_relu_0_split_1
I0310 13:04:32.258220 26167 net.cpp:150] Setting up id_res4b33_id_res4b33_relu_0_split
I0310 13:04:32.258237 26167 net.cpp:157] Top shape: 8 1024 14 14 (1605632)
I0310 13:04:32.258249 26167 net.cpp:157] Top shape: 8 1024 14 14 (1605632)
I0310 13:04:32.258257 26167 net.cpp:165] Memory required for data: 7927071712
I0310 13:04:32.258267 26167 layer_factory.hpp:77] Creating layer id_res4b34_branch2a
I0310 13:04:32.258285 26167 net.cpp:106] Creating Layer id_res4b34_branch2a
I0310 13:04:32.258297 26167 net.cpp:454] id_res4b34_branch2a <- id_res4b33_id_res4b33_relu_0_split_0
I0310 13:04:32.258311 26167 net.cpp:411] id_res4b34_branch2a -> id_res4b34_branch2a
I0310 13:04:32.259456 26167 net.cpp:150] Setting up id_res4b34_branch2a
I0310 13:04:32.259485 26167 net.cpp:157] Top shape: 8 256 14 14 (401408)
I0310 13:04:32.259505 26167 net.cpp:165] Memory required for data: 7928677344
I0310 13:04:32.259518 26167 layer_factory.hpp:77] Creating layer id_bn4b34_branch2a
I0310 13:04:32.259534 26167 net.cpp:106] Creating Layer id_bn4b34_branch2a
I0310 13:04:32.259546 26167 net.cpp:454] id_bn4b34_branch2a <- id_res4b34_branch2a
I0310 13:04:32.259562 26167 net.cpp:397] id_bn4b34_branch2a -> id_res4b34_branch2a (in-place)
I0310 13:04:32.259825 26167 net.cpp:150] Setting up id_bn4b34_branch2a
I0310 13:04:32.259843 26167 net.cpp:157] Top shape: 8 256 14 14 (401408)
I0310 13:04:32.259853 26167 net.cpp:165] Memory required for data: 7930282976
I0310 13:04:32.259869 26167 layer_factory.hpp:77] Creating layer id_scale4b34_branch2a
I0310 13:04:32.259883 26167 net.cpp:106] Creating Layer id_scale4b34_branch2a
I0310 13:04:32.259894 26167 net.cpp:454] id_scale4b34_branch2a <- id_res4b34_branch2a
I0310 13:04:32.259907 26167 net.cpp:397] id_scale4b34_branch2a -> id_res4b34_branch2a (in-place)
I0310 13:04:32.259976 26167 layer_factory.hpp:77] Creating layer id_scale4b34_branch2a
I0310 13:04:32.260143 26167 net.cpp:150] Setting up id_scale4b34_branch2a
I0310 13:04:32.260161 26167 net.cpp:157] Top shape: 8 256 14 14 (401408)
I0310 13:04:32.260171 26167 net.cpp:165] Memory required for data: 7931888608
I0310 13:04:32.260185 26167 layer_factory.hpp:77] Creating layer id_res4b34_branch2a_relu
I0310 13:04:32.260197 26167 net.cpp:106] Creating Layer id_res4b34_branch2a_relu
I0310 13:04:32.260208 26167 net.cpp:454] id_res4b34_branch2a_relu <- id_res4b34_branch2a
I0310 13:04:32.260222 26167 net.cpp:397] id_res4b34_branch2a_relu -> id_res4b34_branch2a (in-place)
I0310 13:04:32.260236 26167 net.cpp:150] Setting up id_res4b34_branch2a_relu
I0310 13:04:32.260247 26167 net.cpp:157] Top shape: 8 256 14 14 (401408)
I0310 13:04:32.260257 26167 net.cpp:165] Memory required for data: 7933494240
I0310 13:04:32.260267 26167 layer_factory.hpp:77] Creating layer id_res4b34_branch2b
I0310 13:04:32.260280 26167 net.cpp:106] Creating Layer id_res4b34_branch2b
I0310 13:04:32.260291 26167 net.cpp:454] id_res4b34_branch2b <- id_res4b34_branch2a
I0310 13:04:32.260306 26167 net.cpp:411] id_res4b34_branch2b -> id_res4b34_branch2b
I0310 13:04:32.262403 26167 net.cpp:150] Setting up id_res4b34_branch2b
I0310 13:04:32.262425 26167 net.cpp:157] Top shape: 8 256 14 14 (401408)
I0310 13:04:32.262436 26167 net.cpp:165] Memory required for data: 7935099872
I0310 13:04:32.262449 26167 layer_factory.hpp:77] Creating layer id_bn4b34_branch2b
I0310 13:04:32.262465 26167 net.cpp:106] Creating Layer id_bn4b34_branch2b
I0310 13:04:32.262475 26167 net.cpp:454] id_bn4b34_branch2b <- id_res4b34_branch2b
I0310 13:04:32.262487 26167 net.cpp:397] id_bn4b34_branch2b -> id_res4b34_branch2b (in-place)
I0310 13:04:32.262750 26167 net.cpp:150] Setting up id_bn4b34_branch2b
I0310 13:04:32.262768 26167 net.cpp:157] Top shape: 8 256 14 14 (401408)
I0310 13:04:32.262778 26167 net.cpp:165] Memory required for data: 7936705504
I0310 13:04:32.262794 26167 layer_factory.hpp:77] Creating layer id_scale4b34_branch2b
I0310 13:04:32.262810 26167 net.cpp:106] Creating Layer id_scale4b34_branch2b
I0310 13:04:32.262821 26167 net.cpp:454] id_scale4b34_branch2b <- id_res4b34_branch2b
I0310 13:04:32.262833 26167 net.cpp:397] id_scale4b34_branch2b -> id_res4b34_branch2b (in-place)
I0310 13:04:32.262902 26167 layer_factory.hpp:77] Creating layer id_scale4b34_branch2b
I0310 13:04:32.263072 26167 net.cpp:150] Setting up id_scale4b34_branch2b
I0310 13:04:32.263089 26167 net.cpp:157] Top shape: 8 256 14 14 (401408)
I0310 13:04:32.263098 26167 net.cpp:165] Memory required for data: 7938311136
I0310 13:04:32.263113 26167 layer_factory.hpp:77] Creating layer id_res4b34_branch2b_relu
I0310 13:04:32.263125 26167 net.cpp:106] Creating Layer id_res4b34_branch2b_relu
I0310 13:04:32.263136 26167 net.cpp:454] id_res4b34_branch2b_relu <- id_res4b34_branch2b
I0310 13:04:32.263151 26167 net.cpp:397] id_res4b34_branch2b_relu -> id_res4b34_branch2b (in-place)
I0310 13:04:32.263173 26167 net.cpp:150] Setting up id_res4b34_branch2b_relu
I0310 13:04:32.263196 26167 net.cpp:157] Top shape: 8 256 14 14 (401408)
I0310 13:04:32.263206 26167 net.cpp:165] Memory required for data: 7939916768
I0310 13:04:32.263216 26167 layer_factory.hpp:77] Creating layer id_res4b34_branch2c
I0310 13:04:32.263237 26167 net.cpp:106] Creating Layer id_res4b34_branch2c
I0310 13:04:32.263248 26167 net.cpp:454] id_res4b34_branch2c <- id_res4b34_branch2b
I0310 13:04:32.263260 26167 net.cpp:411] id_res4b34_branch2c -> id_res4b34_branch2c
I0310 13:04:32.264426 26167 net.cpp:150] Setting up id_res4b34_branch2c
I0310 13:04:32.264448 26167 net.cpp:157] Top shape: 8 1024 14 14 (1605632)
I0310 13:04:32.264458 26167 net.cpp:165] Memory required for data: 7946339296
I0310 13:04:32.264470 26167 layer_factory.hpp:77] Creating layer id_bn4b34_branch2c
I0310 13:04:32.264487 26167 net.cpp:106] Creating Layer id_bn4b34_branch2c
I0310 13:04:32.264498 26167 net.cpp:454] id_bn4b34_branch2c <- id_res4b34_branch2c
I0310 13:04:32.264510 26167 net.cpp:397] id_bn4b34_branch2c -> id_res4b34_branch2c (in-place)
I0310 13:04:32.264796 26167 net.cpp:150] Setting up id_bn4b34_branch2c
I0310 13:04:32.264816 26167 net.cpp:157] Top shape: 8 1024 14 14 (1605632)
I0310 13:04:32.264824 26167 net.cpp:165] Memory required for data: 7952761824
I0310 13:04:32.264842 26167 layer_factory.hpp:77] Creating layer id_scale4b34_branch2c
I0310 13:04:32.264855 26167 net.cpp:106] Creating Layer id_scale4b34_branch2c
I0310 13:04:32.264866 26167 net.cpp:454] id_scale4b34_branch2c <- id_res4b34_branch2c
I0310 13:04:32.264878 26167 net.cpp:397] id_scale4b34_branch2c -> id_res4b34_branch2c (in-place)
I0310 13:04:32.264951 26167 layer_factory.hpp:77] Creating layer id_scale4b34_branch2c
I0310 13:04:32.265136 26167 net.cpp:150] Setting up id_scale4b34_branch2c
I0310 13:04:32.265156 26167 net.cpp:157] Top shape: 8 1024 14 14 (1605632)
I0310 13:04:32.265166 26167 net.cpp:165] Memory required for data: 7959184352
I0310 13:04:32.265178 26167 layer_factory.hpp:77] Creating layer id_res4b34
I0310 13:04:32.265194 26167 net.cpp:106] Creating Layer id_res4b34
I0310 13:04:32.265206 26167 net.cpp:454] id_res4b34 <- id_res4b33_id_res4b33_relu_0_split_1
I0310 13:04:32.265218 26167 net.cpp:454] id_res4b34 <- id_res4b34_branch2c
I0310 13:04:32.265229 26167 net.cpp:411] id_res4b34 -> id_res4b34
I0310 13:04:32.265285 26167 net.cpp:150] Setting up id_res4b34
I0310 13:04:32.265303 26167 net.cpp:157] Top shape: 8 1024 14 14 (1605632)
I0310 13:04:32.265313 26167 net.cpp:165] Memory required for data: 7965606880
I0310 13:04:32.265324 26167 layer_factory.hpp:77] Creating layer id_res4b34_relu
I0310 13:04:32.265339 26167 net.cpp:106] Creating Layer id_res4b34_relu
I0310 13:04:32.265350 26167 net.cpp:454] id_res4b34_relu <- id_res4b34
I0310 13:04:32.265364 26167 net.cpp:397] id_res4b34_relu -> id_res4b34 (in-place)
I0310 13:04:32.265378 26167 net.cpp:150] Setting up id_res4b34_relu
I0310 13:04:32.265390 26167 net.cpp:157] Top shape: 8 1024 14 14 (1605632)
I0310 13:04:32.265399 26167 net.cpp:165] Memory required for data: 7972029408
I0310 13:04:32.265409 26167 layer_factory.hpp:77] Creating layer id_res4b34_id_res4b34_relu_0_split
I0310 13:04:32.265421 26167 net.cpp:106] Creating Layer id_res4b34_id_res4b34_relu_0_split
I0310 13:04:32.265431 26167 net.cpp:454] id_res4b34_id_res4b34_relu_0_split <- id_res4b34
I0310 13:04:32.265442 26167 net.cpp:411] id_res4b34_id_res4b34_relu_0_split -> id_res4b34_id_res4b34_relu_0_split_0
I0310 13:04:32.265456 26167 net.cpp:411] id_res4b34_id_res4b34_relu_0_split -> id_res4b34_id_res4b34_relu_0_split_1
I0310 13:04:32.265516 26167 net.cpp:150] Setting up id_res4b34_id_res4b34_relu_0_split
I0310 13:04:32.265533 26167 net.cpp:157] Top shape: 8 1024 14 14 (1605632)
I0310 13:04:32.265545 26167 net.cpp:157] Top shape: 8 1024 14 14 (1605632)
I0310 13:04:32.265554 26167 net.cpp:165] Memory required for data: 7984874464
I0310 13:04:32.265564 26167 layer_factory.hpp:77] Creating layer id_res4b35_branch2a
I0310 13:04:32.265581 26167 net.cpp:106] Creating Layer id_res4b35_branch2a
I0310 13:04:32.265599 26167 net.cpp:454] id_res4b35_branch2a <- id_res4b34_id_res4b34_relu_0_split_0
I0310 13:04:32.265624 26167 net.cpp:411] id_res4b35_branch2a -> id_res4b35_branch2a
I0310 13:04:32.266803 26167 net.cpp:150] Setting up id_res4b35_branch2a
I0310 13:04:32.266824 26167 net.cpp:157] Top shape: 8 256 14 14 (401408)
I0310 13:04:32.266834 26167 net.cpp:165] Memory required for data: 7986480096
I0310 13:04:32.266847 26167 layer_factory.hpp:77] Creating layer id_bn4b35_branch2a
I0310 13:04:32.266860 26167 net.cpp:106] Creating Layer id_bn4b35_branch2a
I0310 13:04:32.266872 26167 net.cpp:454] id_bn4b35_branch2a <- id_res4b35_branch2a
I0310 13:04:32.266887 26167 net.cpp:397] id_bn4b35_branch2a -> id_res4b35_branch2a (in-place)
I0310 13:04:32.267153 26167 net.cpp:150] Setting up id_bn4b35_branch2a
I0310 13:04:32.267170 26167 net.cpp:157] Top shape: 8 256 14 14 (401408)
I0310 13:04:32.267179 26167 net.cpp:165] Memory required for data: 7988085728
I0310 13:04:32.267195 26167 layer_factory.hpp:77] Creating layer id_scale4b35_branch2a
I0310 13:04:32.267212 26167 net.cpp:106] Creating Layer id_scale4b35_branch2a
I0310 13:04:32.267223 26167 net.cpp:454] id_scale4b35_branch2a <- id_res4b35_branch2a
I0310 13:04:32.267235 26167 net.cpp:397] id_scale4b35_branch2a -> id_res4b35_branch2a (in-place)
I0310 13:04:32.267303 26167 layer_factory.hpp:77] Creating layer id_scale4b35_branch2a
I0310 13:04:32.268263 26167 net.cpp:150] Setting up id_scale4b35_branch2a
I0310 13:04:32.268283 26167 net.cpp:157] Top shape: 8 256 14 14 (401408)
I0310 13:04:32.268295 26167 net.cpp:165] Memory required for data: 7989691360
I0310 13:04:32.268308 26167 layer_factory.hpp:77] Creating layer id_res4b35_branch2a_relu
I0310 13:04:32.268321 26167 net.cpp:106] Creating Layer id_res4b35_branch2a_relu
I0310 13:04:32.268338 26167 net.cpp:454] id_res4b35_branch2a_relu <- id_res4b35_branch2a
I0310 13:04:32.268350 26167 net.cpp:397] id_res4b35_branch2a_relu -> id_res4b35_branch2a (in-place)
I0310 13:04:32.268364 26167 net.cpp:150] Setting up id_res4b35_branch2a_relu
I0310 13:04:32.268376 26167 net.cpp:157] Top shape: 8 256 14 14 (401408)
I0310 13:04:32.268386 26167 net.cpp:165] Memory required for data: 7991296992
I0310 13:04:32.268396 26167 layer_factory.hpp:77] Creating layer id_res4b35_branch2b
I0310 13:04:32.268410 26167 net.cpp:106] Creating Layer id_res4b35_branch2b
I0310 13:04:32.268420 26167 net.cpp:454] id_res4b35_branch2b <- id_res4b35_branch2a
I0310 13:04:32.268436 26167 net.cpp:411] id_res4b35_branch2b -> id_res4b35_branch2b
I0310 13:04:32.270504 26167 net.cpp:150] Setting up id_res4b35_branch2b
I0310 13:04:32.270526 26167 net.cpp:157] Top shape: 8 256 14 14 (401408)
I0310 13:04:32.270536 26167 net.cpp:165] Memory required for data: 7992902624
I0310 13:04:32.270550 26167 layer_factory.hpp:77] Creating layer id_bn4b35_branch2b
I0310 13:04:32.270562 26167 net.cpp:106] Creating Layer id_bn4b35_branch2b
I0310 13:04:32.270573 26167 net.cpp:454] id_bn4b35_branch2b <- id_res4b35_branch2b
I0310 13:04:32.270586 26167 net.cpp:397] id_bn4b35_branch2b -> id_res4b35_branch2b (in-place)
I0310 13:04:32.270823 26167 net.cpp:150] Setting up id_bn4b35_branch2b
I0310 13:04:32.270841 26167 net.cpp:157] Top shape: 8 256 14 14 (401408)
I0310 13:04:32.270851 26167 net.cpp:165] Memory required for data: 7994508256
I0310 13:04:32.270869 26167 layer_factory.hpp:77] Creating layer id_scale4b35_branch2b
I0310 13:04:32.270884 26167 net.cpp:106] Creating Layer id_scale4b35_branch2b
I0310 13:04:32.270895 26167 net.cpp:454] id_scale4b35_branch2b <- id_res4b35_branch2b
I0310 13:04:32.270910 26167 net.cpp:397] id_scale4b35_branch2b -> id_res4b35_branch2b (in-place)
I0310 13:04:32.270979 26167 layer_factory.hpp:77] Creating layer id_scale4b35_branch2b
I0310 13:04:32.271128 26167 net.cpp:150] Setting up id_scale4b35_branch2b
I0310 13:04:32.271147 26167 net.cpp:157] Top shape: 8 256 14 14 (401408)
I0310 13:04:32.271157 26167 net.cpp:165] Memory required for data: 7996113888
I0310 13:04:32.271170 26167 layer_factory.hpp:77] Creating layer id_res4b35_branch2b_relu
I0310 13:04:32.271193 26167 net.cpp:106] Creating Layer id_res4b35_branch2b_relu
I0310 13:04:32.271214 26167 net.cpp:454] id_res4b35_branch2b_relu <- id_res4b35_branch2b
I0310 13:04:32.271226 26167 net.cpp:397] id_res4b35_branch2b_relu -> id_res4b35_branch2b (in-place)
I0310 13:04:32.271239 26167 net.cpp:150] Setting up id_res4b35_branch2b_relu
I0310 13:04:32.271251 26167 net.cpp:157] Top shape: 8 256 14 14 (401408)
I0310 13:04:32.271260 26167 net.cpp:165] Memory required for data: 7997719520
I0310 13:04:32.271270 26167 layer_factory.hpp:77] Creating layer id_res4b35_branch2c
I0310 13:04:32.271287 26167 net.cpp:106] Creating Layer id_res4b35_branch2c
I0310 13:04:32.271298 26167 net.cpp:454] id_res4b35_branch2c <- id_res4b35_branch2b
I0310 13:04:32.271311 26167 net.cpp:411] id_res4b35_branch2c -> id_res4b35_branch2c
I0310 13:04:32.272452 26167 net.cpp:150] Setting up id_res4b35_branch2c
I0310 13:04:32.272474 26167 net.cpp:157] Top shape: 8 1024 14 14 (1605632)
I0310 13:04:32.272483 26167 net.cpp:165] Memory required for data: 8004142048
I0310 13:04:32.272496 26167 layer_factory.hpp:77] Creating layer id_bn4b35_branch2c
I0310 13:04:32.272514 26167 net.cpp:106] Creating Layer id_bn4b35_branch2c
I0310 13:04:32.272526 26167 net.cpp:454] id_bn4b35_branch2c <- id_res4b35_branch2c
I0310 13:04:32.272538 26167 net.cpp:397] id_bn4b35_branch2c -> id_res4b35_branch2c (in-place)
I0310 13:04:32.272797 26167 net.cpp:150] Setting up id_bn4b35_branch2c
I0310 13:04:32.272816 26167 net.cpp:157] Top shape: 8 1024 14 14 (1605632)
I0310 13:04:32.272826 26167 net.cpp:165] Memory required for data: 8010564576
I0310 13:04:32.272842 26167 layer_factory.hpp:77] Creating layer id_scale4b35_branch2c
I0310 13:04:32.272862 26167 net.cpp:106] Creating Layer id_scale4b35_branch2c
I0310 13:04:32.272874 26167 net.cpp:454] id_scale4b35_branch2c <- id_res4b35_branch2c
I0310 13:04:32.272886 26167 net.cpp:397] id_scale4b35_branch2c -> id_res4b35_branch2c (in-place)
I0310 13:04:32.272955 26167 layer_factory.hpp:77] Creating layer id_scale4b35_branch2c
I0310 13:04:32.273135 26167 net.cpp:150] Setting up id_scale4b35_branch2c
I0310 13:04:32.273154 26167 net.cpp:157] Top shape: 8 1024 14 14 (1605632)
I0310 13:04:32.273164 26167 net.cpp:165] Memory required for data: 8016987104
I0310 13:04:32.273178 26167 layer_factory.hpp:77] Creating layer id_res4b35
I0310 13:04:32.273191 26167 net.cpp:106] Creating Layer id_res4b35
I0310 13:04:32.273202 26167 net.cpp:454] id_res4b35 <- id_res4b34_id_res4b34_relu_0_split_1
I0310 13:04:32.273213 26167 net.cpp:454] id_res4b35 <- id_res4b35_branch2c
I0310 13:04:32.273228 26167 net.cpp:411] id_res4b35 -> id_res4b35
I0310 13:04:32.273275 26167 net.cpp:150] Setting up id_res4b35
I0310 13:04:32.273298 26167 net.cpp:157] Top shape: 8 1024 14 14 (1605632)
I0310 13:04:32.273308 26167 net.cpp:165] Memory required for data: 8023409632
I0310 13:04:32.273317 26167 layer_factory.hpp:77] Creating layer id_res4b35_relu
I0310 13:04:32.273330 26167 net.cpp:106] Creating Layer id_res4b35_relu
I0310 13:04:32.273340 26167 net.cpp:454] id_res4b35_relu <- id_res4b35
I0310 13:04:32.273352 26167 net.cpp:397] id_res4b35_relu -> id_res4b35 (in-place)
I0310 13:04:32.273365 26167 net.cpp:150] Setting up id_res4b35_relu
I0310 13:04:32.273377 26167 net.cpp:157] Top shape: 8 1024 14 14 (1605632)
I0310 13:04:32.273386 26167 net.cpp:165] Memory required for data: 8029832160
I0310 13:04:32.273396 26167 layer_factory.hpp:77] Creating layer id_res4b35_id_res4b35_relu_0_split
I0310 13:04:32.273407 26167 net.cpp:106] Creating Layer id_res4b35_id_res4b35_relu_0_split
I0310 13:04:32.273417 26167 net.cpp:454] id_res4b35_id_res4b35_relu_0_split <- id_res4b35
I0310 13:04:32.273432 26167 net.cpp:411] id_res4b35_id_res4b35_relu_0_split -> id_res4b35_id_res4b35_relu_0_split_0
I0310 13:04:32.273445 26167 net.cpp:411] id_res4b35_id_res4b35_relu_0_split -> id_res4b35_id_res4b35_relu_0_split_1
I0310 13:04:32.273496 26167 net.cpp:150] Setting up id_res4b35_id_res4b35_relu_0_split
I0310 13:04:32.273514 26167 net.cpp:157] Top shape: 8 1024 14 14 (1605632)
I0310 13:04:32.273524 26167 net.cpp:157] Top shape: 8 1024 14 14 (1605632)
I0310 13:04:32.273550 26167 net.cpp:165] Memory required for data: 8042677216
I0310 13:04:32.273561 26167 layer_factory.hpp:77] Creating layer id_res5a_branch1
I0310 13:04:32.273581 26167 net.cpp:106] Creating Layer id_res5a_branch1
I0310 13:04:32.273592 26167 net.cpp:454] id_res5a_branch1 <- id_res4b35_id_res4b35_relu_0_split_0
I0310 13:04:32.273627 26167 net.cpp:411] id_res5a_branch1 -> id_res5a_branch1
I0310 13:04:32.279861 26167 net.cpp:150] Setting up id_res5a_branch1
I0310 13:04:32.279888 26167 net.cpp:157] Top shape: 8 2048 7 7 (802816)
I0310 13:04:32.279898 26167 net.cpp:165] Memory required for data: 8045888480
I0310 13:04:32.279911 26167 layer_factory.hpp:77] Creating layer id_bn5a_branch1
I0310 13:04:32.279928 26167 net.cpp:106] Creating Layer id_bn5a_branch1
I0310 13:04:32.279940 26167 net.cpp:454] id_bn5a_branch1 <- id_res5a_branch1
I0310 13:04:32.279953 26167 net.cpp:397] id_bn5a_branch1 -> id_res5a_branch1 (in-place)
I0310 13:04:32.280652 26167 net.cpp:150] Setting up id_bn5a_branch1
I0310 13:04:32.280671 26167 net.cpp:157] Top shape: 8 2048 7 7 (802816)
I0310 13:04:32.280681 26167 net.cpp:165] Memory required for data: 8049099744
I0310 13:04:32.280697 26167 layer_factory.hpp:77] Creating layer id_scale5a_branch1
I0310 13:04:32.280711 26167 net.cpp:106] Creating Layer id_scale5a_branch1
I0310 13:04:32.280722 26167 net.cpp:454] id_scale5a_branch1 <- id_res5a_branch1
I0310 13:04:32.280740 26167 net.cpp:397] id_scale5a_branch1 -> id_res5a_branch1 (in-place)
I0310 13:04:32.280822 26167 layer_factory.hpp:77] Creating layer id_scale5a_branch1
I0310 13:04:32.281013 26167 net.cpp:150] Setting up id_scale5a_branch1
I0310 13:04:32.281031 26167 net.cpp:157] Top shape: 8 2048 7 7 (802816)
I0310 13:04:32.281041 26167 net.cpp:165] Memory required for data: 8052311008
I0310 13:04:32.281055 26167 layer_factory.hpp:77] Creating layer id_res5a_branch2a
I0310 13:04:32.281070 26167 net.cpp:106] Creating Layer id_res5a_branch2a
I0310 13:04:32.281082 26167 net.cpp:454] id_res5a_branch2a <- id_res4b35_id_res4b35_relu_0_split_1
I0310 13:04:32.281100 26167 net.cpp:411] id_res5a_branch2a -> id_res5a_branch2a
I0310 13:04:32.282987 26167 net.cpp:150] Setting up id_res5a_branch2a
I0310 13:04:32.283010 26167 net.cpp:157] Top shape: 8 512 7 7 (200704)
I0310 13:04:32.283020 26167 net.cpp:165] Memory required for data: 8053113824
I0310 13:04:32.283033 26167 layer_factory.hpp:77] Creating layer id_bn5a_branch2a
I0310 13:04:32.283049 26167 net.cpp:106] Creating Layer id_bn5a_branch2a
I0310 13:04:32.283061 26167 net.cpp:454] id_bn5a_branch2a <- id_res5a_branch2a
I0310 13:04:32.283073 26167 net.cpp:397] id_bn5a_branch2a -> id_res5a_branch2a (in-place)
I0310 13:04:32.283339 26167 net.cpp:150] Setting up id_bn5a_branch2a
I0310 13:04:32.283359 26167 net.cpp:157] Top shape: 8 512 7 7 (200704)
I0310 13:04:32.283368 26167 net.cpp:165] Memory required for data: 8053916640
I0310 13:04:32.283385 26167 layer_factory.hpp:77] Creating layer id_scale5a_branch2a
I0310 13:04:32.283402 26167 net.cpp:106] Creating Layer id_scale5a_branch2a
I0310 13:04:32.283413 26167 net.cpp:454] id_scale5a_branch2a <- id_res5a_branch2a
I0310 13:04:32.283427 26167 net.cpp:397] id_scale5a_branch2a -> id_res5a_branch2a (in-place)
I0310 13:04:32.283498 26167 layer_factory.hpp:77] Creating layer id_scale5a_branch2a
I0310 13:04:32.283676 26167 net.cpp:150] Setting up id_scale5a_branch2a
I0310 13:04:32.283695 26167 net.cpp:157] Top shape: 8 512 7 7 (200704)
I0310 13:04:32.283705 26167 net.cpp:165] Memory required for data: 8054719456
I0310 13:04:32.283718 26167 layer_factory.hpp:77] Creating layer id_res5a_branch2a_relu
I0310 13:04:32.283735 26167 net.cpp:106] Creating Layer id_res5a_branch2a_relu
I0310 13:04:32.283746 26167 net.cpp:454] id_res5a_branch2a_relu <- id_res5a_branch2a
I0310 13:04:32.283758 26167 net.cpp:397] id_res5a_branch2a_relu -> id_res5a_branch2a (in-place)
I0310 13:04:32.283771 26167 net.cpp:150] Setting up id_res5a_branch2a_relu
I0310 13:04:32.283784 26167 net.cpp:157] Top shape: 8 512 7 7 (200704)
I0310 13:04:32.283793 26167 net.cpp:165] Memory required for data: 8055522272
I0310 13:04:32.283820 26167 layer_factory.hpp:77] Creating layer id_res5a_branch2b
I0310 13:04:32.283841 26167 net.cpp:106] Creating Layer id_res5a_branch2b
I0310 13:04:32.283852 26167 net.cpp:454] id_res5a_branch2b <- id_res5a_branch2a
I0310 13:04:32.283865 26167 net.cpp:411] id_res5a_branch2b -> id_res5a_branch2b
I0310 13:04:32.291020 26167 net.cpp:150] Setting up id_res5a_branch2b
I0310 13:04:32.291051 26167 net.cpp:157] Top shape: 8 512 7 7 (200704)
I0310 13:04:32.291062 26167 net.cpp:165] Memory required for data: 8056325088
I0310 13:04:32.291075 26167 layer_factory.hpp:77] Creating layer id_bn5a_branch2b
I0310 13:04:32.291092 26167 net.cpp:106] Creating Layer id_bn5a_branch2b
I0310 13:04:32.291105 26167 net.cpp:454] id_bn5a_branch2b <- id_res5a_branch2b
I0310 13:04:32.291117 26167 net.cpp:397] id_bn5a_branch2b -> id_res5a_branch2b (in-place)
I0310 13:04:32.291388 26167 net.cpp:150] Setting up id_bn5a_branch2b
I0310 13:04:32.291406 26167 net.cpp:157] Top shape: 8 512 7 7 (200704)
I0310 13:04:32.291416 26167 net.cpp:165] Memory required for data: 8057127904
I0310 13:04:32.291432 26167 layer_factory.hpp:77] Creating layer id_scale5a_branch2b
I0310 13:04:32.291447 26167 net.cpp:106] Creating Layer id_scale5a_branch2b
I0310 13:04:32.291458 26167 net.cpp:454] id_scale5a_branch2b <- id_res5a_branch2b
I0310 13:04:32.291473 26167 net.cpp:397] id_scale5a_branch2b -> id_res5a_branch2b (in-place)
I0310 13:04:32.291543 26167 layer_factory.hpp:77] Creating layer id_scale5a_branch2b
I0310 13:04:32.291712 26167 net.cpp:150] Setting up id_scale5a_branch2b
I0310 13:04:32.291734 26167 net.cpp:157] Top shape: 8 512 7 7 (200704)
I0310 13:04:32.291744 26167 net.cpp:165] Memory required for data: 8057930720
I0310 13:04:32.291757 26167 layer_factory.hpp:77] Creating layer id_res5a_branch2b_relu
I0310 13:04:32.291770 26167 net.cpp:106] Creating Layer id_res5a_branch2b_relu
I0310 13:04:32.291782 26167 net.cpp:454] id_res5a_branch2b_relu <- id_res5a_branch2b
I0310 13:04:32.291795 26167 net.cpp:397] id_res5a_branch2b_relu -> id_res5a_branch2b (in-place)
I0310 13:04:32.291808 26167 net.cpp:150] Setting up id_res5a_branch2b_relu
I0310 13:04:32.291821 26167 net.cpp:157] Top shape: 8 512 7 7 (200704)
I0310 13:04:32.291829 26167 net.cpp:165] Memory required for data: 8058733536
I0310 13:04:32.291839 26167 layer_factory.hpp:77] Creating layer id_res5a_branch2c
I0310 13:04:32.291860 26167 net.cpp:106] Creating Layer id_res5a_branch2c
I0310 13:04:32.291872 26167 net.cpp:454] id_res5a_branch2c <- id_res5a_branch2b
I0310 13:04:32.291887 26167 net.cpp:411] id_res5a_branch2c -> id_res5a_branch2c
I0310 13:04:32.295300 26167 net.cpp:150] Setting up id_res5a_branch2c
I0310 13:04:32.295323 26167 net.cpp:157] Top shape: 8 2048 7 7 (802816)
I0310 13:04:32.295333 26167 net.cpp:165] Memory required for data: 8061944800
I0310 13:04:32.295347 26167 layer_factory.hpp:77] Creating layer id_bn5a_branch2c
I0310 13:04:32.295361 26167 net.cpp:106] Creating Layer id_bn5a_branch2c
I0310 13:04:32.295372 26167 net.cpp:454] id_bn5a_branch2c <- id_res5a_branch2c
I0310 13:04:32.295389 26167 net.cpp:397] id_bn5a_branch2c -> id_res5a_branch2c (in-place)
I0310 13:04:32.295701 26167 net.cpp:150] Setting up id_bn5a_branch2c
I0310 13:04:32.295720 26167 net.cpp:157] Top shape: 8 2048 7 7 (802816)
I0310 13:04:32.295730 26167 net.cpp:165] Memory required for data: 8065156064
I0310 13:04:32.295747 26167 layer_factory.hpp:77] Creating layer id_scale5a_branch2c
I0310 13:04:32.295759 26167 net.cpp:106] Creating Layer id_scale5a_branch2c
I0310 13:04:32.295770 26167 net.cpp:454] id_scale5a_branch2c <- id_res5a_branch2c
I0310 13:04:32.295783 26167 net.cpp:397] id_scale5a_branch2c -> id_res5a_branch2c (in-place)
I0310 13:04:32.295871 26167 layer_factory.hpp:77] Creating layer id_scale5a_branch2c
I0310 13:04:32.296066 26167 net.cpp:150] Setting up id_scale5a_branch2c
I0310 13:04:32.296084 26167 net.cpp:157] Top shape: 8 2048 7 7 (802816)
I0310 13:04:32.296094 26167 net.cpp:165] Memory required for data: 8068367328
I0310 13:04:32.296108 26167 layer_factory.hpp:77] Creating layer id_res5a
I0310 13:04:32.296144 26167 net.cpp:106] Creating Layer id_res5a
I0310 13:04:32.296157 26167 net.cpp:454] id_res5a <- id_res5a_branch1
I0310 13:04:32.296169 26167 net.cpp:454] id_res5a <- id_res5a_branch2c
I0310 13:04:32.296185 26167 net.cpp:411] id_res5a -> id_res5a
I0310 13:04:32.296226 26167 net.cpp:150] Setting up id_res5a
I0310 13:04:32.296242 26167 net.cpp:157] Top shape: 8 2048 7 7 (802816)
I0310 13:04:32.296252 26167 net.cpp:165] Memory required for data: 8071578592
I0310 13:04:32.296262 26167 layer_factory.hpp:77] Creating layer id_res5a_relu
I0310 13:04:32.296279 26167 net.cpp:106] Creating Layer id_res5a_relu
I0310 13:04:32.296290 26167 net.cpp:454] id_res5a_relu <- id_res5a
I0310 13:04:32.296301 26167 net.cpp:397] id_res5a_relu -> id_res5a (in-place)
I0310 13:04:32.296315 26167 net.cpp:150] Setting up id_res5a_relu
I0310 13:04:32.296327 26167 net.cpp:157] Top shape: 8 2048 7 7 (802816)
I0310 13:04:32.296336 26167 net.cpp:165] Memory required for data: 8074789856
I0310 13:04:32.296346 26167 layer_factory.hpp:77] Creating layer id_res5a_id_res5a_relu_0_split
I0310 13:04:32.296360 26167 net.cpp:106] Creating Layer id_res5a_id_res5a_relu_0_split
I0310 13:04:32.296370 26167 net.cpp:454] id_res5a_id_res5a_relu_0_split <- id_res5a
I0310 13:04:32.296388 26167 net.cpp:411] id_res5a_id_res5a_relu_0_split -> id_res5a_id_res5a_relu_0_split_0
I0310 13:04:32.296403 26167 net.cpp:411] id_res5a_id_res5a_relu_0_split -> id_res5a_id_res5a_relu_0_split_1
I0310 13:04:32.296461 26167 net.cpp:150] Setting up id_res5a_id_res5a_relu_0_split
I0310 13:04:32.296478 26167 net.cpp:157] Top shape: 8 2048 7 7 (802816)
I0310 13:04:32.296489 26167 net.cpp:157] Top shape: 8 2048 7 7 (802816)
I0310 13:04:32.296499 26167 net.cpp:165] Memory required for data: 8081212384
I0310 13:04:32.296509 26167 layer_factory.hpp:77] Creating layer id_res5b_branch2a
I0310 13:04:32.296524 26167 net.cpp:106] Creating Layer id_res5b_branch2a
I0310 13:04:32.296535 26167 net.cpp:454] id_res5b_branch2a <- id_res5a_id_res5a_relu_0_split_0
I0310 13:04:32.296550 26167 net.cpp:411] id_res5b_branch2a -> id_res5b_branch2a
I0310 13:04:32.299873 26167 net.cpp:150] Setting up id_res5b_branch2a
I0310 13:04:32.299896 26167 net.cpp:157] Top shape: 8 512 7 7 (200704)
I0310 13:04:32.299907 26167 net.cpp:165] Memory required for data: 8082015200
I0310 13:04:32.299919 26167 layer_factory.hpp:77] Creating layer id_bn5b_branch2a
I0310 13:04:32.299933 26167 net.cpp:106] Creating Layer id_bn5b_branch2a
I0310 13:04:32.299944 26167 net.cpp:454] id_bn5b_branch2a <- id_res5b_branch2a
I0310 13:04:32.299957 26167 net.cpp:397] id_bn5b_branch2a -> id_res5b_branch2a (in-place)
I0310 13:04:32.300223 26167 net.cpp:150] Setting up id_bn5b_branch2a
I0310 13:04:32.300242 26167 net.cpp:157] Top shape: 8 512 7 7 (200704)
I0310 13:04:32.300252 26167 net.cpp:165] Memory required for data: 8082818016
I0310 13:04:32.300268 26167 layer_factory.hpp:77] Creating layer id_scale5b_branch2a
I0310 13:04:32.300287 26167 net.cpp:106] Creating Layer id_scale5b_branch2a
I0310 13:04:32.300299 26167 net.cpp:454] id_scale5b_branch2a <- id_res5b_branch2a
I0310 13:04:32.300312 26167 net.cpp:397] id_scale5b_branch2a -> id_res5b_branch2a (in-place)
I0310 13:04:32.300382 26167 layer_factory.hpp:77] Creating layer id_scale5b_branch2a
I0310 13:04:32.300557 26167 net.cpp:150] Setting up id_scale5b_branch2a
I0310 13:04:32.300576 26167 net.cpp:157] Top shape: 8 512 7 7 (200704)
I0310 13:04:32.300586 26167 net.cpp:165] Memory required for data: 8083620832
I0310 13:04:32.300601 26167 layer_factory.hpp:77] Creating layer id_res5b_branch2a_relu
I0310 13:04:32.300613 26167 net.cpp:106] Creating Layer id_res5b_branch2a_relu
I0310 13:04:32.300624 26167 net.cpp:454] id_res5b_branch2a_relu <- id_res5b_branch2a
I0310 13:04:32.300638 26167 net.cpp:397] id_res5b_branch2a_relu -> id_res5b_branch2a (in-place)
I0310 13:04:32.300652 26167 net.cpp:150] Setting up id_res5b_branch2a_relu
I0310 13:04:32.300664 26167 net.cpp:157] Top shape: 8 512 7 7 (200704)
I0310 13:04:32.300673 26167 net.cpp:165] Memory required for data: 8084423648
I0310 13:04:32.300689 26167 layer_factory.hpp:77] Creating layer id_res5b_branch2b
I0310 13:04:32.300719 26167 net.cpp:106] Creating Layer id_res5b_branch2b
I0310 13:04:32.300729 26167 net.cpp:454] id_res5b_branch2b <- id_res5b_branch2a
I0310 13:04:32.300742 26167 net.cpp:411] id_res5b_branch2b -> id_res5b_branch2b
I0310 13:04:32.307626 26167 net.cpp:150] Setting up id_res5b_branch2b
I0310 13:04:32.307656 26167 net.cpp:157] Top shape: 8 512 7 7 (200704)
I0310 13:04:32.307665 26167 net.cpp:165] Memory required for data: 8085226464
I0310 13:04:32.307679 26167 layer_factory.hpp:77] Creating layer id_bn5b_branch2b
I0310 13:04:32.307713 26167 net.cpp:106] Creating Layer id_bn5b_branch2b
I0310 13:04:32.307725 26167 net.cpp:454] id_bn5b_branch2b <- id_res5b_branch2b
I0310 13:04:32.307737 26167 net.cpp:397] id_bn5b_branch2b -> id_res5b_branch2b (in-place)
I0310 13:04:32.308006 26167 net.cpp:150] Setting up id_bn5b_branch2b
I0310 13:04:32.308025 26167 net.cpp:157] Top shape: 8 512 7 7 (200704)
I0310 13:04:32.308035 26167 net.cpp:165] Memory required for data: 8086029280
I0310 13:04:32.308051 26167 layer_factory.hpp:77] Creating layer id_scale5b_branch2b
I0310 13:04:32.308065 26167 net.cpp:106] Creating Layer id_scale5b_branch2b
I0310 13:04:32.308076 26167 net.cpp:454] id_scale5b_branch2b <- id_res5b_branch2b
I0310 13:04:32.308092 26167 net.cpp:397] id_scale5b_branch2b -> id_res5b_branch2b (in-place)
I0310 13:04:32.308161 26167 layer_factory.hpp:77] Creating layer id_scale5b_branch2b
I0310 13:04:32.308333 26167 net.cpp:150] Setting up id_scale5b_branch2b
I0310 13:04:32.308354 26167 net.cpp:157] Top shape: 8 512 7 7 (200704)
I0310 13:04:32.308364 26167 net.cpp:165] Memory required for data: 8086832096
I0310 13:04:32.308378 26167 layer_factory.hpp:77] Creating layer id_res5b_branch2b_relu
I0310 13:04:32.308390 26167 net.cpp:106] Creating Layer id_res5b_branch2b_relu
I0310 13:04:32.308401 26167 net.cpp:454] id_res5b_branch2b_relu <- id_res5b_branch2b
I0310 13:04:32.308413 26167 net.cpp:397] id_res5b_branch2b_relu -> id_res5b_branch2b (in-place)
I0310 13:04:32.308426 26167 net.cpp:150] Setting up id_res5b_branch2b_relu
I0310 13:04:32.308439 26167 net.cpp:157] Top shape: 8 512 7 7 (200704)
I0310 13:04:32.308447 26167 net.cpp:165] Memory required for data: 8087634912
I0310 13:04:32.308457 26167 layer_factory.hpp:77] Creating layer id_res5b_branch2c
I0310 13:04:32.308475 26167 net.cpp:106] Creating Layer id_res5b_branch2c
I0310 13:04:32.308486 26167 net.cpp:454] id_res5b_branch2c <- id_res5b_branch2b
I0310 13:04:32.308500 26167 net.cpp:411] id_res5b_branch2c -> id_res5b_branch2c
I0310 13:04:32.311753 26167 net.cpp:150] Setting up id_res5b_branch2c
I0310 13:04:32.311775 26167 net.cpp:157] Top shape: 8 2048 7 7 (802816)
I0310 13:04:32.311785 26167 net.cpp:165] Memory required for data: 8090846176
I0310 13:04:32.311799 26167 layer_factory.hpp:77] Creating layer id_bn5b_branch2c
I0310 13:04:32.311815 26167 net.cpp:106] Creating Layer id_bn5b_branch2c
I0310 13:04:32.311825 26167 net.cpp:454] id_bn5b_branch2c <- id_res5b_branch2c
I0310 13:04:32.311841 26167 net.cpp:397] id_bn5b_branch2c -> id_res5b_branch2c (in-place)
I0310 13:04:32.312147 26167 net.cpp:150] Setting up id_bn5b_branch2c
I0310 13:04:32.312166 26167 net.cpp:157] Top shape: 8 2048 7 7 (802816)
I0310 13:04:32.312176 26167 net.cpp:165] Memory required for data: 8094057440
I0310 13:04:32.312206 26167 layer_factory.hpp:77] Creating layer id_scale5b_branch2c
I0310 13:04:32.312222 26167 net.cpp:106] Creating Layer id_scale5b_branch2c
I0310 13:04:32.312233 26167 net.cpp:454] id_scale5b_branch2c <- id_res5b_branch2c
I0310 13:04:32.312245 26167 net.cpp:397] id_scale5b_branch2c -> id_res5b_branch2c (in-place)
I0310 13:04:32.312337 26167 layer_factory.hpp:77] Creating layer id_scale5b_branch2c
I0310 13:04:32.312542 26167 net.cpp:150] Setting up id_scale5b_branch2c
I0310 13:04:32.312575 26167 net.cpp:157] Top shape: 8 2048 7 7 (802816)
I0310 13:04:32.312585 26167 net.cpp:165] Memory required for data: 8097268704
I0310 13:04:32.312599 26167 layer_factory.hpp:77] Creating layer id_res5b
I0310 13:04:32.312623 26167 net.cpp:106] Creating Layer id_res5b
I0310 13:04:32.312646 26167 net.cpp:454] id_res5b <- id_res5a_id_res5a_relu_0_split_1
I0310 13:04:32.312659 26167 net.cpp:454] id_res5b <- id_res5b_branch2c
I0310 13:04:32.312674 26167 net.cpp:411] id_res5b -> id_res5b
I0310 13:04:32.312716 26167 net.cpp:150] Setting up id_res5b
I0310 13:04:32.312732 26167 net.cpp:157] Top shape: 8 2048 7 7 (802816)
I0310 13:04:32.312742 26167 net.cpp:165] Memory required for data: 8100479968
I0310 13:04:32.312752 26167 layer_factory.hpp:77] Creating layer id_res5b_relu
I0310 13:04:32.312767 26167 net.cpp:106] Creating Layer id_res5b_relu
I0310 13:04:32.312778 26167 net.cpp:454] id_res5b_relu <- id_res5b
I0310 13:04:32.312790 26167 net.cpp:397] id_res5b_relu -> id_res5b (in-place)
I0310 13:04:32.312803 26167 net.cpp:150] Setting up id_res5b_relu
I0310 13:04:32.312815 26167 net.cpp:157] Top shape: 8 2048 7 7 (802816)
I0310 13:04:32.312824 26167 net.cpp:165] Memory required for data: 8103691232
I0310 13:04:32.312834 26167 layer_factory.hpp:77] Creating layer id_res5b_id_res5b_relu_0_split
I0310 13:04:32.312845 26167 net.cpp:106] Creating Layer id_res5b_id_res5b_relu_0_split
I0310 13:04:32.312855 26167 net.cpp:454] id_res5b_id_res5b_relu_0_split <- id_res5b
I0310 13:04:32.312870 26167 net.cpp:411] id_res5b_id_res5b_relu_0_split -> id_res5b_id_res5b_relu_0_split_0
I0310 13:04:32.312901 26167 net.cpp:411] id_res5b_id_res5b_relu_0_split -> id_res5b_id_res5b_relu_0_split_1
I0310 13:04:32.312958 26167 net.cpp:150] Setting up id_res5b_id_res5b_relu_0_split
I0310 13:04:32.312975 26167 net.cpp:157] Top shape: 8 2048 7 7 (802816)
I0310 13:04:32.312988 26167 net.cpp:157] Top shape: 8 2048 7 7 (802816)
I0310 13:04:32.312996 26167 net.cpp:165] Memory required for data: 8110113760
I0310 13:04:32.313006 26167 layer_factory.hpp:77] Creating layer id_res5c_branch2a
I0310 13:04:32.313022 26167 net.cpp:106] Creating Layer id_res5c_branch2a
I0310 13:04:32.313035 26167 net.cpp:454] id_res5c_branch2a <- id_res5b_id_res5b_relu_0_split_0
I0310 13:04:32.313055 26167 net.cpp:411] id_res5c_branch2a -> id_res5c_branch2a
I0310 13:04:32.316310 26167 net.cpp:150] Setting up id_res5c_branch2a
I0310 13:04:32.316334 26167 net.cpp:157] Top shape: 8 512 7 7 (200704)
I0310 13:04:32.316344 26167 net.cpp:165] Memory required for data: 8110916576
I0310 13:04:32.316356 26167 layer_factory.hpp:77] Creating layer id_bn5c_branch2a
I0310 13:04:32.316370 26167 net.cpp:106] Creating Layer id_bn5c_branch2a
I0310 13:04:32.316381 26167 net.cpp:454] id_bn5c_branch2a <- id_res5c_branch2a
I0310 13:04:32.316395 26167 net.cpp:397] id_bn5c_branch2a -> id_res5c_branch2a (in-place)
I0310 13:04:32.316663 26167 net.cpp:150] Setting up id_bn5c_branch2a
I0310 13:04:32.316682 26167 net.cpp:157] Top shape: 8 512 7 7 (200704)
I0310 13:04:32.316692 26167 net.cpp:165] Memory required for data: 8111719392
I0310 13:04:32.316710 26167 layer_factory.hpp:77] Creating layer id_scale5c_branch2a
I0310 13:04:32.316727 26167 net.cpp:106] Creating Layer id_scale5c_branch2a
I0310 13:04:32.316738 26167 net.cpp:454] id_scale5c_branch2a <- id_res5c_branch2a
I0310 13:04:32.316751 26167 net.cpp:397] id_scale5c_branch2a -> id_res5c_branch2a (in-place)
I0310 13:04:32.316823 26167 layer_factory.hpp:77] Creating layer id_scale5c_branch2a
I0310 13:04:32.317000 26167 net.cpp:150] Setting up id_scale5c_branch2a
I0310 13:04:32.317018 26167 net.cpp:157] Top shape: 8 512 7 7 (200704)
I0310 13:04:32.317028 26167 net.cpp:165] Memory required for data: 8112522208
I0310 13:04:32.317044 26167 layer_factory.hpp:77] Creating layer id_res5c_branch2a_relu
I0310 13:04:32.317059 26167 net.cpp:106] Creating Layer id_res5c_branch2a_relu
I0310 13:04:32.317070 26167 net.cpp:454] id_res5c_branch2a_relu <- id_res5c_branch2a
I0310 13:04:32.317083 26167 net.cpp:397] id_res5c_branch2a_relu -> id_res5c_branch2a (in-place)
I0310 13:04:32.317097 26167 net.cpp:150] Setting up id_res5c_branch2a_relu
I0310 13:04:32.317109 26167 net.cpp:157] Top shape: 8 512 7 7 (200704)
I0310 13:04:32.317118 26167 net.cpp:165] Memory required for data: 8113325024
I0310 13:04:32.317134 26167 layer_factory.hpp:77] Creating layer id_res5c_branch2b
I0310 13:04:32.317162 26167 net.cpp:106] Creating Layer id_res5c_branch2b
I0310 13:04:32.317173 26167 net.cpp:454] id_res5c_branch2b <- id_res5c_branch2a
I0310 13:04:32.317186 26167 net.cpp:411] id_res5c_branch2b -> id_res5c_branch2b
I0310 13:04:32.323987 26167 net.cpp:150] Setting up id_res5c_branch2b
I0310 13:04:32.324013 26167 net.cpp:157] Top shape: 8 512 7 7 (200704)
I0310 13:04:32.324024 26167 net.cpp:165] Memory required for data: 8114127840
I0310 13:04:32.324038 26167 layer_factory.hpp:77] Creating layer id_bn5c_branch2b
I0310 13:04:32.324054 26167 net.cpp:106] Creating Layer id_bn5c_branch2b
I0310 13:04:32.324066 26167 net.cpp:454] id_bn5c_branch2b <- id_res5c_branch2b
I0310 13:04:32.324079 26167 net.cpp:397] id_bn5c_branch2b -> id_res5c_branch2b (in-place)
I0310 13:04:32.324349 26167 net.cpp:150] Setting up id_bn5c_branch2b
I0310 13:04:32.324368 26167 net.cpp:157] Top shape: 8 512 7 7 (200704)
I0310 13:04:32.324378 26167 net.cpp:165] Memory required for data: 8114930656
I0310 13:04:32.324394 26167 layer_factory.hpp:77] Creating layer id_scale5c_branch2b
I0310 13:04:32.324407 26167 net.cpp:106] Creating Layer id_scale5c_branch2b
I0310 13:04:32.324419 26167 net.cpp:454] id_scale5c_branch2b <- id_res5c_branch2b
I0310 13:04:32.324434 26167 net.cpp:397] id_scale5c_branch2b -> id_res5c_branch2b (in-place)
I0310 13:04:32.324503 26167 layer_factory.hpp:77] Creating layer id_scale5c_branch2b
I0310 13:04:32.324684 26167 net.cpp:150] Setting up id_scale5c_branch2b
I0310 13:04:32.324705 26167 net.cpp:157] Top shape: 8 512 7 7 (200704)
I0310 13:04:32.324715 26167 net.cpp:165] Memory required for data: 8115733472
I0310 13:04:32.324729 26167 layer_factory.hpp:77] Creating layer id_res5c_branch2b_relu
I0310 13:04:32.324744 26167 net.cpp:106] Creating Layer id_res5c_branch2b_relu
I0310 13:04:32.324755 26167 net.cpp:454] id_res5c_branch2b_relu <- id_res5c_branch2b
I0310 13:04:32.324767 26167 net.cpp:397] id_res5c_branch2b_relu -> id_res5c_branch2b (in-place)
I0310 13:04:32.324780 26167 net.cpp:150] Setting up id_res5c_branch2b_relu
I0310 13:04:32.324792 26167 net.cpp:157] Top shape: 8 512 7 7 (200704)
I0310 13:04:32.324801 26167 net.cpp:165] Memory required for data: 8116536288
I0310 13:04:32.324811 26167 layer_factory.hpp:77] Creating layer id_res5c_branch2c
I0310 13:04:32.324828 26167 net.cpp:106] Creating Layer id_res5c_branch2c
I0310 13:04:32.324839 26167 net.cpp:454] id_res5c_branch2c <- id_res5c_branch2b
I0310 13:04:32.324851 26167 net.cpp:411] id_res5c_branch2c -> id_res5c_branch2c
I0310 13:04:32.328104 26167 net.cpp:150] Setting up id_res5c_branch2c
I0310 13:04:32.328127 26167 net.cpp:157] Top shape: 8 2048 7 7 (802816)
I0310 13:04:32.328137 26167 net.cpp:165] Memory required for data: 8119747552
I0310 13:04:32.328150 26167 layer_factory.hpp:77] Creating layer id_bn5c_branch2c
I0310 13:04:32.328163 26167 net.cpp:106] Creating Layer id_bn5c_branch2c
I0310 13:04:32.328176 26167 net.cpp:454] id_bn5c_branch2c <- id_res5c_branch2c
I0310 13:04:32.328191 26167 net.cpp:397] id_bn5c_branch2c -> id_res5c_branch2c (in-place)
I0310 13:04:32.328495 26167 net.cpp:150] Setting up id_bn5c_branch2c
I0310 13:04:32.328514 26167 net.cpp:157] Top shape: 8 2048 7 7 (802816)
I0310 13:04:32.328524 26167 net.cpp:165] Memory required for data: 8122958816
I0310 13:04:32.328541 26167 layer_factory.hpp:77] Creating layer id_scale5c_branch2c
I0310 13:04:32.328557 26167 net.cpp:106] Creating Layer id_scale5c_branch2c
I0310 13:04:32.328568 26167 net.cpp:454] id_scale5c_branch2c <- id_res5c_branch2c
I0310 13:04:32.328580 26167 net.cpp:397] id_scale5c_branch2c -> id_res5c_branch2c (in-place)
I0310 13:04:32.329345 26167 layer_factory.hpp:77] Creating layer id_scale5c_branch2c
I0310 13:04:32.329512 26167 net.cpp:150] Setting up id_scale5c_branch2c
I0310 13:04:32.329535 26167 net.cpp:157] Top shape: 8 2048 7 7 (802816)
I0310 13:04:32.329545 26167 net.cpp:165] Memory required for data: 8126170080
I0310 13:04:32.329558 26167 layer_factory.hpp:77] Creating layer id_res5c
I0310 13:04:32.329581 26167 net.cpp:106] Creating Layer id_res5c
I0310 13:04:32.329607 26167 net.cpp:454] id_res5c <- id_res5b_id_res5b_relu_0_split_1
I0310 13:04:32.329619 26167 net.cpp:454] id_res5c <- id_res5c_branch2c
I0310 13:04:32.329632 26167 net.cpp:411] id_res5c -> id_res5c
I0310 13:04:32.329677 26167 net.cpp:150] Setting up id_res5c
I0310 13:04:32.329694 26167 net.cpp:157] Top shape: 8 2048 7 7 (802816)
I0310 13:04:32.329704 26167 net.cpp:165] Memory required for data: 8129381344
I0310 13:04:32.329715 26167 layer_factory.hpp:77] Creating layer id_res5c_relu
I0310 13:04:32.329730 26167 net.cpp:106] Creating Layer id_res5c_relu
I0310 13:04:32.329741 26167 net.cpp:454] id_res5c_relu <- id_res5c
I0310 13:04:32.329751 26167 net.cpp:397] id_res5c_relu -> id_res5c (in-place)
I0310 13:04:32.329767 26167 net.cpp:150] Setting up id_res5c_relu
I0310 13:04:32.329779 26167 net.cpp:157] Top shape: 8 2048 7 7 (802816)
I0310 13:04:32.329789 26167 net.cpp:165] Memory required for data: 8132592608
I0310 13:04:32.329798 26167 layer_factory.hpp:77] Creating layer id_pool5
I0310 13:04:32.329813 26167 net.cpp:106] Creating Layer id_pool5
I0310 13:04:32.329823 26167 net.cpp:454] id_pool5 <- id_res5c
I0310 13:04:32.329851 26167 net.cpp:411] id_pool5 -> id_pool5
I0310 13:04:32.329895 26167 net.cpp:150] Setting up id_pool5
I0310 13:04:32.329911 26167 net.cpp:157] Top shape: 8 2048 1 1 (16384)
I0310 13:04:32.329921 26167 net.cpp:165] Memory required for data: 8132658144
I0310 13:04:32.329931 26167 layer_factory.hpp:77] Creating layer fc
I0310 13:04:32.329948 26167 net.cpp:106] Creating Layer fc
I0310 13:04:32.329975 26167 net.cpp:454] fc <- pool5
I0310 13:04:32.329995 26167 net.cpp:411] fc -> fc
I0310 13:04:32.332628 26167 net.cpp:150] Setting up fc
I0310 13:04:32.332648 26167 net.cpp:157] Top shape: 8 30 (240)
I0310 13:04:32.332659 26167 net.cpp:165] Memory required for data: 8132659104
I0310 13:04:32.332672 26167 layer_factory.hpp:77] Creating layer loss_pos30
I0310 13:04:32.332695 26167 net.cpp:106] Creating Layer loss_pos30
I0310 13:04:32.332706 26167 net.cpp:454] loss_pos30 <- fc
I0310 13:04:32.332718 26167 net.cpp:454] loss_pos30 <- labels
I0310 13:04:32.332732 26167 net.cpp:411] loss_pos30 -> loss_pos30
I0310 13:04:32.332850 26167 net.cpp:150] Setting up loss_pos30
I0310 13:04:32.332868 26167 net.cpp:157] Top shape: (1)
I0310 13:04:32.332878 26167 net.cpp:165] Memory required for data: 8132659108
I0310 13:04:32.332888 26167 layer_factory.hpp:77] Creating layer id_fc
I0310 13:04:32.332904 26167 net.cpp:106] Creating Layer id_fc
I0310 13:04:32.332916 26167 net.cpp:454] id_fc <- id_pool5
I0310 13:04:32.332932 26167 net.cpp:411] id_fc -> id_fc
I0310 13:04:32.393185 26167 net.cpp:150] Setting up id_fc
I0310 13:04:32.393209 26167 net.cpp:157] Top shape: 8 750 (6000)
I0310 13:04:32.393220 26167 net.cpp:165] Memory required for data: 8132683108
I0310 13:04:32.393236 26167 layer_factory.hpp:77] Creating layer id_loss_id
I0310 13:04:32.393265 26167 net.cpp:106] Creating Layer id_loss_id
I0310 13:04:32.393278 26167 net.cpp:454] id_loss_id <- id_fc
I0310 13:04:32.393290 26167 net.cpp:454] id_loss_id <- id_label
I0310 13:04:32.393302 26167 net.cpp:411] id_loss_id -> id_loss_id
…
