…
  transform_param {
    mirror: false
    mean_file: "/home/lizhuowan/Market1501/lmdb/lmdb_12936/Image_lmdb_12936.binaryproto"
  }
  data_param {
    source: "/home/lizhuowan/Market1501/lmdb/lmdb_mirror_12936/Image_lmdb_mirror_12936"
    batch_size: 8
    backend: LMDB
  }
}
layer {
  name: "data"
  type: "Data"
  top: "labels"
  include {
    phase: TRAIN
  }
  transform_param {
    mean_value: 112
  }
  data_param {
    source: "/home/lizhuowan/Market1501/lmdb/lmdb_mirror_12936/pos30_lmdb_mirror_12936_correct"
    batch_size: 8
    backend: LMDB
  }
}
layer {
  name: "conv1"
  type: "Convolution"
  bottom: "data"
  top: "conv1"
  convolution_param {
    num_output: 64
    bias_term: false
    pad: 3
    kernel_size: 7
    stride: 2
  }
}
layer {
  name: "bn_conv1"
  type: "BatchNorm"
  bottom: "conv1"
  top: "conv1"
  batch_norm_param {
    use_global_stats: true
  }
}
layer {
  name: "scale_conv1"
  type: "Scale"
  bottom: "conv1"
  top: "conv1"
  scale_param {
    bias_term: true
  }
}
layer {
  name: "conv1_relu"
  type: "ReLU"
  bottom: "conv1"
  top: "conv1"
}
layer {
  name: "pool1"
  type: "Pooling"
  bottom: "conv1"
  top: "pool1"
  pooling_param {
    pool: MAX
    kernel_size: 3
    stride: 2
  }
}
layer {
  name: "res2a_branch1"
  type: "Convolution"
  bottom: "pool1"
  top: "res2a_branch1"
  convolution_param {
    num_output: 256
    bias_term: false
    pad: 0
    kernel_size: 1
    stride: 1
  }
}
layer {
  name: "bn2a_branch1"
  type: "BatchNorm"
  bottom: "res2a_branch1"
  top: "res2a_branch1"
  batch_norm_param {
    use_global_stats: true
  }
}
layer {
  name: "scale2a_branch1"
  type: "Scale"
  bottom: "res2a_branch1"
  top: "res2a_branch1"
  scale_param {
    bias_term: true
  }
}
layer {
  name: "res2a_branch2a"
  type: "Convolution"
  bottom: "pool1"
  top: "res2a_branch2a"
  convolution_param {
    num_output: 64
    bias_term: false
    pad: 0
    kernel_size: 1
    stride: 1
  }
}
layer {
  name: "bn2a_branch2a"
  type: "BatchNorm"
  bottom: "res2a_branch2a"
  top: "res2a_branch2a"
  batch_norm_param {
    use_global_stats: true
  }
}
layer {
  name: "scale2a_branch2a"
  type: "Scale"
  bottom: "res2a_branch2a"
  top: "res2a_branch2a"
  scale_param {
    bias_term: true
  }
}
layer {
  name: "res2a_branch2a_relu"
  type: "ReLU"
  bottom: "res2a_branch2a"
  top: "res2a_branch2a"
}
layer {
  name: "res2a_branch2b"
  type: "Convolution"
  bottom: "res2a_branch2a"
  top: "res2a_branch2b"
  convolution_param {
    num_output: 64
    bias_term: false
    pad: 1
    kernel_size: 3
    stride: 1
  }
}
layer {
  name: "bn2a_branch2b"
  type: "BatchNorm"
  bottom: "res2a_branch2b"
  top: "res2a_branch2b"
  batch_norm_param {
    use_global_stats: true
  }
}
layer {
  name: "scale2a_branch2b"
  type: "Scale"
  bottom: "res2a_branch2b"
  top: "res2a_branch2b"
  scale_param {
    bias_term: true
  }
}
layer {
  name: "res2a_branch2b_relu"
  type: "ReLU"
  bottom: "res2a_branch2b"
  top: "res2a_branch2b"
}
layer {
  name: "res2a_branch2c"
  type: "Convolution"
  bottom: "res2a_branch2b"
  top: "res2a_branch2c"
  convolution_param {
    num_output: 256
    bias_term: false
    pad: 0
    kernel_size: 1
    stride: 1
  }
}
layer {
  name: "bn2a_branch2c"
  type: "BatchNorm"
  bottom: "res2a_branch2c"
  top: "res2a_branch2c"
  batch_norm_param {
    use_global_stats: true
  }
}
layer {
  name: "scale2a_branch2c"
  type: "Scale"
  bottom: "res2a_branch2c"
  top: "res2a_branch2c"
  scale_param {
    bias_term: true
  }
}
layer {
  name: "res2a"
  type: "Eltwise"
  bottom: "res2a_branch1"
  bottom: "res2a_branch2c"
  top: "res2a"
}
layer {
  name: "res2a_relu"
  type: "ReLU"
  bottom: "res2a"
  top: "res2a"
}
layer {
  name: "res2b_branch2a"
  type: "Convolution"
  bottom: "res2a"
  top: "res2b_branch2a"
  convolution_param {
    num_output: 64
    bias_term: false
    pad: 0
    kernel_size: 1
    stride: 1
  }
}
layer {
  name: "bn2b_branch2a"
  type: "BatchNorm"
  bottom: "res2b_branch2a"
  top: "res2b_branch2a"
  batch_norm_param {
    use_global_stats: true
  }
}
layer {
  name: "scale2b_branch2a"
  type: "Scale"
  bottom: "res2b_branch2a"
  top: "res2b_branch2a"
  scale_param {
    bias_term: true
  }
}
layer {
  name: "res2b_branch2a_relu"
  type: "ReLU"
  bottom: "res2b_branch2a"
  top: "res2b_branch2a"
}
layer {
  name: "res2b_branch2b"
  type: "Convolution"
  bottom: "res2b_branch2a"
  top: "res2b_branch2b"
  convolution_param {
    num_output: 64
    bias_term: false
    pad: 1
    kernel_size: 3
    stride: 1
  }
}
layer {
  name: "bn2b_branch2b"
  type: "BatchNorm"
  bottom: "res2b_branch2b"
  top: "res2b_branch2b"
  batch_norm_param {
    use_global_stats: true
  }
}
layer {
  name: "scale2b_branch2b"
  type: "Scale"
  bottom: "res2b_branch2b"
  top: "res2b_branch2b"
  scale_param {
    bias_term: true
  }
}
layer {
  name: "res2b_branch2b_relu"
  type: "ReLU"
  bottom: "res2b_branch2b"
  top: "res2b_branch2b"
}
layer {
  name: "res2b_branch2c"
  type: "Convolution"
  bottom: "res2b_branch2b"
  top: "res2b_branch2c"
  convolution_param {
    num_output: 256
    bias_term: false
    pad: 0
    kernel_size: 1
    stride: 1
  }
}
layer {
  name: "bn2b_branch2c"
  type: "BatchNorm"
  bottom: "res2b_branch2c"
  top: "res2b_branch2c"
  batch_norm_param {
    use_global_stats: true
  }
}
layer {
  name: "scale2b_branch2c"
  type: "Scale"
  bottom: "res2b_branch2c"
  top: "res2b_branch2c"
  scale_param {
    bias_term: true
  }
}
layer {
  name: "res2b"
  type: "Eltwise"
  bottom: "res2a"
  bottom: "res2b_branch2c"
  top: "res2b"
}
layer {
  name: "res2b_relu"
  type: "ReLU"
  bottom: "res2b"
  top: "res2b"
}
layer {
  name: "res2c_branch2a"
  type: "Convolution"
  bottom: "res2b"
  top: "res2c_branch2a"
  convolution_param {
    num_output: 64
    bias_term: false
    pad: 0
    kernel_size: 1
    stride: 1
  }
}
layer {
  name: "bn2c_branch2a"
  type: "BatchNorm"
  bottom: "res2c_branch2a"
  top: "res2c_branch2a"
  batch_norm_param {
    use_global_stats: true
  }
}
layer {
  name: "scale2c_branch2a"
  type: "Scale"
  bottom: "res2c_branch2a"
  top: "res2c_branch2a"
  scale_param {
    bias_term: true
  }
}
layer {
  name: "res2c_branch2a_relu"
  type: "ReLU"
  bottom: "res2c_branch2a"
  top: "res2c_branch2a"
}
layer {
  name: "res2c_branch2b"
  type: "Convolution"
  bottom: "res2c_branch2a"
  top: "res2c_branch2b"
  convolution_param {
    num_output: 64
    bias_term: false
    pad: 1
    kernel_size: 3
    stride: 1
  }
}
layer {
  name: "bn2c_branch2b"
  type: "BatchNorm"
  bottom: "res2c_branch2b"
  top: "res2c_branch2b"
  batch_norm_param {
    use_global_stats: true
  }
}
layer {
  name: "scale2c_branch2b"
  type: "Scale"
  bottom: "res2c_branch2b"
  top: "res2c_branch2b"
  scale_param {
    bias_term: true
  }
}
layer {
  name: "res2c_branch2b_relu"
  type: "ReLU"
  bottom: "res2c_branch2b"
  top: "res2c_branch2b"
}
layer {
  name: "res2c_branch2c"
  type: "Convolution"
  bottom: "res2c_branch2b"
  top: "res2c_branch2c"
  convolution_param {
    num_output: 256
    bias_term: false
    pad: 0
    kernel_size: 1
    stride: 1
  }
}
layer {
  name: "bn2c_branch2c"
  type: "BatchNorm"
  bottom: "res2c_branch2c"
  top: "res2c_branch2c"
  batch_norm_param {
    use_global_stats: true
  }
}
layer {
  name: "scale2c_branch2c"
  type: "Scale"
  bottom: "res2c_branch2c"
  top: "res2c_branch2c"
  scale_param {
    bias_term: true
  }
}
layer {
  name: "res2c"
  type: "Eltwise"
  bottom: "res2b"
  bottom: "res2c_branch2c"
  top: "res2c"
}
layer {
  name: "res2c_relu"
  type: "ReLU"
  bottom: "res2c"
  top: "res2c"
}
layer {
  name: "res3a_branch1"
  type: "Convolution"
  bottom: "res2c"
  top: "res3a_branch1"
  convolution_param {
    num_output: 512
    bias_term: false
    pad: 0
    kernel_size: 1
    stride: 2
  }
}
layer {
  name: "bn3a_branch1"
  type: "BatchNorm"
  bottom: "res3a_branch1"
  top: "res3a_branch1"
  batch_norm_param {
    use_global_stats: true
  }
}
layer {
  name: "scale3a_branch1"
  type: "Scale"
  bottom: "res3a_branch1"
  top: "res3a_branch1"
  scale_param {
    bias_term: true
  }
}
layer {
  name: "res3a_branch2a"
  type: "Convolution"
  bottom: "res2c"
  top: "res3a_branch2a"
  convolution_param {
    num_output: 128
    bias_term: false
    pad: 0
    kernel_size: 1
    stride: 2
  }
}
layer {
  name: "bn3a_branch2a"
  type: "BatchNorm"
  bottom: "res3a_branch2a"
  top: "res3a_branch2a"
  batch_norm_param {
    use_global_stats: true
  }
}
layer {
  name: "scale3a_branch2a"
  type: "Scale"
  bottom: "res3a_branch2a"
  top: "res3a_branch2a"
  scale_param {
    bias_term: true
  }
}
layer {
  name: "res3a_branch2a_relu"
  type: "ReLU"
  bottom: "res3a_branch2a"
  top: "res3a_branch2a"
}
layer {
  name: "res3a_branch2b"
  type: "Convolution"
  bottom: "res3a_branch2a"
  top: "res3a_branch2b"
  convolution_param {
    num_output: 128
    bias_term: false
    pad: 1
    kernel_size: 3
    stride: 1
  }
}
layer {
  name: "bn3a_branch2b"
  type: "BatchNorm"
  bottom: "res3a_branch2b"
  top: "res3a_branch2b"
  batch_norm_param {
    use_global_stats: true
  }
}
layer {
  name: "scale3a_branch2b"
  type: "Scale"
  bottom: "res3a_branch2b"
  top: "res3a_branch2b"
  scale_param {
    bias_term: true
  }
}
layer {
  name: "res3a_branch2b_relu"
  type: "ReLU"
  bottom: "res3a_branch2b"
  top: "res3a_branch2b"
}
layer {
  name: "res3a_branch2c"
  type: "Convolution"
  bottom: "res3a_branch2b"
  top: "res3a_branch2c"
  convolution_param {
    num_output: 512
    bias_term: false
    pad: 0
    kernel_size: 1
    stride: 1
  }
}
layer {
  name: "bn3a_branch2c"
  type: "BatchNorm"
  bottom: "res3a_branch2c"
  top: "res3a_branch2c"
  batch_norm_param {
    use_global_stats: true
  }
}
layer {
  name: "scale3a_branch2c"
  type: "Scale"
  bottom: "res3a_branch2c"
  top: "res3a_branch2c"
  scale_param {
    bias_term: true
  }
}
layer {
  name: "res3a"
  type: "Eltwise"
  bottom: "res3a_branch1"
  bottom: "res3a_branch2c"
  top: "res3a"
}
layer {
  name: "res3a_relu"
  type: "ReLU"
  bottom: "res3a"
  top: "res3a"
}
layer {
  name: "res3b1_branch2a"
  type: "Convolution"
  bottom: "res3a"
  top: "res3b1_branch2a"
  convolution_param {
    num_output: 128
    bias_term: false
    pad: 0
    kernel_size: 1
    stride: 1
  }
}
layer {
  name: "bn3b1_branch2a"
  type: "BatchNorm"
  bottom: "res3b1_branch2a"
  top: "res3b1_branch2a"
  batch_norm_param {
    use_global_stats: true
  }
}
layer {
  name: "scale3b1_branch2a"
  type: "Scale"
  bottom: "res3b1_branch2a"
  top: "res3b1_branch2a"
  scale_param {
    bias_term: true
  }
}
layer {
  name: "res3b1_branch2a_relu"
  type: "ReLU"
  bottom: "res3b1_branch2a"
  top: "res3b1_branch2a"
}
layer {
  name: "res3b1_branch2b"
  type: "Convolution"
  bottom: "res3b1_branch2a"
  top: "res3b1_branch2b"
  convolution_param {
    num_output: 128
    bias_term: false
    pad: 1
    kernel_size: 3
    stride: 1
  }
}
layer {
  name: "bn3b1_branch2b"
  type: "BatchNorm"
  bottom: "res3b1_branch2b"
  top: "res3b1_branch2b"
  batch_norm_param {
    use_global_stats: true
  }
}
layer {
  name: "scale3b1_branch2b"
  type: "Scale"
  bottom: "res3b1_branch2b"
  top: "res3b1_branch2b"
  scale_param {
    bias_term: true
  }
}
layer {
  name: "res3b1_branch2b_relu"
  type: "ReLU"
  bottom: "res3b1_branch2b"
  top: "res3b1_branch2b"
}
layer {
  name: "res3b1_branch2c"
  type: "Convolution"
  bottom: "res3b1_branch2b"
  top: "res3b1_branch2c"
  convolution_param {
    num_output: 512
    bias_term: false
    pad: 0
    kernel_size: 1
    stride: 1
  }
}
layer {
  name: "bn3b1_branch2c"
  type: "BatchNorm"
  bottom: "res3b1_branch2c"
  top: "res3b1_branch2c"
  batch_norm_param {
    use_global_stats: true
  }
}
layer {
  name: "scale3b1_branch2c"
  type: "Scale"
  bottom: "res3b1_branch2c"
  top: "res3b1_branch2c"
  scale_param {
    bias_term: true
  }
}
layer {
  name: "res3b1"
  type: "Eltwise"
  bottom: "res3a"
  bottom: "res3b1_branch2c"
  top: "res3b1"
}
layer {
  name: "res3b1_relu"
  type: "ReLU"
  bottom: "res3b1"
  top: "res3b1"
}
layer {
  name: "res3b2_branch2a"
  type: "Convolution"
  bottom: "res3b1"
  top: "res3b2_branch2a"
  convolution_param {
    num_output: 128
    bias_term: false
    pad: 0
    kernel_size: 1
    stride: 1
  }
}
layer {
  name: "bn3b2_branch2a"
  type: "BatchNorm"
  bottom: "res3b2_branch2a"
  top: "res3b2_branch2a"
  batch_norm_param {
    use_global_stats: true
  }
}
layer {
  name: "scale3b2_branch2a"
  type: "Scale"
  bottom: "res3b2_branch2a"
  top: "res3b2_branch2a"
  scale_param {
    bias_term: true
  }
}
layer {
  name: "res3b2_branch2a_relu"
  type: "ReLU"
  bottom: "res3b2_branch2a"
  top: "res3b2_branch2a"
}
layer {
  name: "res3b2_branch2b"
  type: "Convolution"
  bottom: "res3b2_branch2a"
  top: "res3b2_branch2b"
  convolution_param {
    num_output: 128
    bias_term: false
    pad: 1
    kernel_size: 3
    stride: 1
  }
}
layer {
  name: "bn3b2_branch2b"
  type: "BatchNorm"
  bottom: "res3b2_branch2b"
  top: "res3b2_branch2b"
  batch_norm_param {
    use_global_stats: true
  }
}
layer {
  name: "scale3b2_branch2b"
  type: "Scale"
  bottom: "res3b2_branch2b"
  top: "res3b2_branch2b"
  scale_param {
    bias_term: true
  }
}
layer {
  name: "res3b2_branch2b_relu"
  type: "ReLU"
  bottom: "res3b2_branch2b"
  top: "res3b2_branch2b"
}
layer {
  name: "res3b2_branch2c"
  type: "Convolution"
  bottom: "res3b2_branch2b"
  top: "res3b2_branch2c"
  convolution_param {
    num_output: 512
    bias_term: false
    pad: 0
    kernel_size: 1
    stride: 1
  }
}
layer {
  name: "bn3b2_branch2c"
  type: "BatchNorm"
  bottom: "res3b2_branch2c"
  top: "res3b2_branch2c"
  batch_norm_param {
    use_global_stats: true
  }
}
layer {
  name: "scale3b2_branch2c"
  type: "Scale"
  bottom: "res3b2_branch2c"
  top: "res3b2_branch2c"
  scale_param {
    bias_term: true
  }
}
layer {
  name: "res3b2"
  type: "Eltwise"
  bottom: "res3b1"
  bottom: "res3b2_branch2c"
  top: "res3b2"
}
layer {
  name: "res3b2_relu"
  type: "ReLU"
  bottom: "res3b2"
  top: "res3b2"
}
layer {
  name: "res3b3_branch2a"
  type: "Convolution"
  bottom: "res3b2"
  top: "res3b3_branch2a"
  convolution_param {
    num_output: 128
    bias_term: false
    pad: 0
    kernel_size: 1
    stride: 1
  }
}
layer {
  name: "bn3b3_branch2a"
  type: "BatchNorm"
  bottom: "res3b3_branch2a"
  top: "res3b3_branch2a"
  batch_norm_param {
    use_global_stats: true
  }
}
layer {
  name: "scale3b3_branch2a"
  type: "Scale"
  bottom: "res3b3_branch2a"
  top: "res3b3_branch2a"
  scale_param {
    bias_term: true
  }
}
layer {
  name: "res3b3_branch2a_relu"
  type: "ReLU"
  bottom: "res3b3_branch2a"
  top: "res3b3_branch2a"
}
layer {
  name: "res3b3_branch2b"
  type: "Convolution"
  bottom: "res3b3_branch2a"
  top: "res3b3_branch2b"
  convolution_param {
    num_output: 128
    bias_term: false
    pad: 1
    kernel_size: 3
    stride: 1
  }
}
layer {
  name: "bn3b3_branch2b"
  type: "BatchNorm"
  bottom: "res3b3_branch2b"
  top: "res3b3_branch2b"
  batch_norm_param {
    use_global_stats: true
  }
}
layer {
  name: "scale3b3_branch2b"
  type: "Scale"
  bottom: "res3b3_branch2b"
  top: "res3b3_branch2b"
  scale_param {
    bias_term: true
  }
}
layer {
  name: "res3b3_branch2b_relu"
  type: "ReLU"
  bottom: "res3b3_branch2b"
  top: "res3b3_branch2b"
}
layer {
  name: "res3b3_branch2c"
  type: "Convolution"
  bottom: "res3b3_branch2b"
  top: "res3b3_branch2c"
  convolution_param {
    num_output: 512
    bias_term: false
    pad: 0
    kernel_size: 1
    stride: 1
  }
}
layer {
  name: "bn3b3_branch2c"
  type: "BatchNorm"
  bottom: "res3b3_branch2c"
  top: "res3b3_branch2c"
  batch_norm_param {
    use_global_stats: true
  }
}
layer {
  name: "scale3b3_branch2c"
  type: "Scale"
  bottom: "res3b3_branch2c"
  top: "res3b3_branch2c"
  scale_param {
    bias_term: true
  }
}
layer {
  name: "res3b3"
  type: "Eltwise"
  bottom: "res3b2"
  bottom: "res3b3_branch2c"
  top: "res3b3"
}
layer {
  name: "res3b3_relu"
  type: "ReLU"
  bottom: "res3b3"
  top: "res3b3"
}
layer {
  name: "res3b4_branch2a"
  type: "Convolution"
  bottom: "res3b3"
  top: "res3b4_branch2a"
  convolution_param {
    num_output: 128
    bias_term: false
    pad: 0
    kernel_size: 1
    stride: 1
  }
}
layer {
  name: "bn3b4_branch2a"
  type: "BatchNorm"
  bottom: "res3b4_branch2a"
  top: "res3b4_branch2a"
  batch_norm_param {
    use_global_stats: true
  }
}
layer {
  name: "scale3b4_branch2a"
  type: "Scale"
  bottom: "res3b4_branch2a"
  top: "res3b4_branch2a"
  scale_param {
    bias_term: true
  }
}
layer {
  name: "res3b4_branch2a_relu"
  type: "ReLU"
  bottom: "res3b4_branch2a"
  top: "res3b4_branch2a"
}
layer {
  name: "res3b4_branch2b"
  type: "Convolution"
  bottom: "res3b4_branch2a"
  top: "res3b4_branch2b"
  convolution_param {
    num_output: 128
    bias_term: false
    pad: 1
    kernel_size: 3
    stride: 1
  }
}
layer {
  name: "bn3b4_branch2b"
  type: "BatchNorm"
  bottom: "res3b4_branch2b"
  top: "res3b4_branch2b"
  batch_norm_param {
    use_global_stats: true
  }
}
layer {
  name: "scale3b4_branch2b"
  type: "Scale"
  bottom: "res3b4_branch2b"
  top: "res3b4_branch2b"
  scale_param {
    bias_term: true
  }
}
layer {
  name: "res3b4_branch2b_relu"
  type: "ReLU"
  bottom: "res3b4_branch2b"
  top: "res3b4_branch2b"
}
layer {
  name: "res3b4_branch2c"
  type: "Convolution"
  bottom: "res3b4_branch2b"
  top: "res3b4_branch2c"
  convolution_param {
    num_output: 512
    bias_term: false
    pad: 0
    kernel_size: 1
    stride: 1
  }
}
layer {
  name: "bn3b4_branch2c"
  type: "BatchNorm"
  bottom: "res3b4_branch2c"
  top: "res3b4_branch2c"
  batch_norm_param {
    use_global_stats: true
  }
}
layer {
  name: "scale3b4_branch2c"
  type: "Scale"
  bottom: "res3b4_branch2c"
  top: "res3b4_branch2c"
  scale_param {
    bias_term: true
  }
}
layer {
  name: "res3b4"
  type: "Eltwise"
  bottom: "res3b3"
  bottom: "res3b4_branch2c"
  top: "res3b4"
}
layer {
  name: "res3b4_relu"
  type: "ReLU"
  bottom: "res3b4"
  top: "res3b4"
}
layer {
  name: "res3b5_branch2a"
  type: "Convolution"
  bottom: "res3b4"
  top: "res3b5_branch2a"
  convolution_param {
    num_output: 128
    bias_term: false
    pad: 0
    kernel_size: 1
    stride: 1
  }
}
layer {
  name: "bn3b5_branch2a"
  type: "BatchNorm"
  bottom: "res3b5_branch2a"
  top: "res3b5_branch2a"
  batch_norm_param {
    use_global_stats: true
  }
}
layer {
  name: "scale3b5_branch2a"
  type: "Scale"
  bottom: "res3b5_branch2a"
  top: "res3b5_branch2a"
  scale_param {
    bias_term: true
  }
}
layer {
  name: "res3b5_branch2a_relu"
  type: "ReLU"
  bottom: "res3b5_branch2a"
  top: "res3b5_branch2a"
}
layer {
  name: "res3b5_branch2b"
  type: "Convolution"
  bottom: "res3b5_branch2a"
  top: "res3b5_branch2b"
  convolution_param {
    num_output: 128
    bias_term: false
    pad: 1
    kernel_size: 3
    stride: 1
  }
}
layer {
  name: "bn3b5_branch2b"
  type: "BatchNorm"
  bottom: "res3b5_branch2b"
  top: "res3b5_branch2b"
  batch_norm_param {
    use_global_stats: true
  }
}
layer {
  name: "scale3b5_branch2b"
  type: "Scale"
  bottom: "res3b5_branch2b"
  top: "res3b5_branch2b"
  scale_param {
    bias_term: true
  }
}
layer {
  name: "res3b5_branch2b_relu"
  type: "ReLU"
  bottom: "res3b5_branch2b"
  top: "res3b5_branch2b"
}
layer {
  name: "res3b5_branch2c"
  type: "Convolution"
  bottom: "res3b5_branch2b"
  top: "res3b5_branch2c"
  convolution_param {
    num_output: 512
    bias_term: false
    pad: 0
    kernel_size: 1
    stride: 1
  }
}
layer {
  name: "bn3b5_branch2c"
  type: "BatchNorm"
  bottom: "res3b5_branch2c"
  top: "res3b5_branch2c"
  batch_norm_param {
    use_global_stats: true
  }
}
layer {
  name: "scale3b5_branch2c"
  type: "Scale"
  bottom: "res3b5_branch2c"
  top: "res3b5_branch2c"
  scale_param {
    bias_term: true
  }
}
layer {
  name: "res3b5"
  type: "Eltwise"
  bottom: "res3b4"
  bottom: "res3b5_branch2c"
  top: "res3b5"
}
layer {
  name: "res3b5_relu"
  type: "ReLU"
  bottom: "res3b5"
  top: "res3b5"
}
layer {
  name: "res3b6_branch2a"
  type: "Convolution"
  bottom: "res3b5"
  top: "res3b6_branch2a"
  convolution_param {
    num_output: 128
    bias_term: false
    pad: 0
    kernel_size: 1
    stride: 1
  }
}
layer {
  name: "bn3b6_branch2a"
  type: "BatchNorm"
  bottom: "res3b6_branch2a"
  top: "res3b6_branch2a"
  batch_norm_param {
    use_global_stats: true
  }
}
layer {
  name: "scale3b6_branch2a"
  type: "Scale"
  bottom: "res3b6_branch2a"
  top: "res3b6_branch2a"
  scale_param {
    bias_term: true
  }
}
layer {
  name: "res3b6_branch2a_relu"
  type: "ReLU"
  bottom: "res3b6_branch2a"
  top: "res3b6_branch2a"
}
layer {
  name: "res3b6_branch2b"
  type: "Convolution"
  bottom: "res3b6_branch2a"
  top: "res3b6_branch2b"
  convolution_param {
    num_output: 128
    bias_term: false
    pad: 1
    kernel_size: 3
    stride: 1
  }
}
layer {
  name: "bn3b6_branch2b"
  type: "BatchNorm"
  bottom: "res3b6_branch2b"
  top: "res3b6_branch2b"
  batch_norm_param {
    use_global_stats: true
  }
}
layer {
  name: "scale3b6_branch2b"
  type: "Scale"
  bottom: "res3b6_branch2b"
  top: "res3b6_branch2b"
  scale_param {
    bias_term: true
  }
}
layer {
  name: "res3b6_branch2b_relu"
  type: "ReLU"
  bottom: "res3b6_branch2b"
  top: "res3b6_branch2b"
}
layer {
  name: "res3b6_branch2c"
  type: "Convolution"
  bottom: "res3b6_branch2b"
  top: "res3b6_branch2c"
  convolution_param {
    num_output: 512
    bias_term: false
    pad: 0
    kernel_size: 1
    stride: 1
  }
}
layer {
  name: "bn3b6_branch2c"
  type: "BatchNorm"
  bottom: "res3b6_branch2c"
  top: "res3b6_branch2c"
  batch_norm_param {
    use_global_stats: true
  }
}
layer {
  name: "scale3b6_branch2c"
  type: "Scale"
  bottom: "res3b6_branch2c"
  top: "res3b6_branch2c"
  scale_param {
    bias_term: true
  }
}
layer {
  name: "res3b6"
  type: "Eltwise"
  bottom: "res3b5"
  bottom: "res3b6_branch2c"
  top: "res3b6"
}
layer {
  name: "res3b6_relu"
  type: "ReLU"
  bottom: "res3b6"
  top: "res3b6"
}
layer {
  name: "res3b7_branch2a"
  type: "Convolution"
  bottom: "res3b6"
  top: "res3b7_branch2a"
  convolution_param {
    num_output: 128
    bias_term: false
    pad: 0
    kernel_size: 1
    stride: 1
  }
}
layer {
  name: "bn3b7_branch2a"
  type: "BatchNorm"
  bottom: "res3b7_branch2a"
  top: "res3b7_branch2a"
  batch_norm_param {
    use_global_stats: true
  }
}
layer {
  name: "scale3b7_branch2a"
  type: "Scale"
  bottom: "res3b7_branch2a"
  top: "res3b7_branch2a"
  scale_param {
    bias_term: true
  }
}
layer {
  name: "res3b7_branch2a_relu"
  type: "ReLU"
  bottom: "res3b7_branch2a"
  top: "res3b7_branch2a"
}
layer {
  name: "res3b7_branch2b"
  type: "Convolution"
  bottom: "res3b7_branch2a"
  top: "res3b7_branch2b"
  convolution_param {
    num_output: 128
    bias_term: false
    pad: 1
    kernel_size: 3
    stride: 1
  }
}
layer {
  name: "bn3b7_branch2b"
  type: "BatchNorm"
  bottom: "res3b7_branch2b"
  top: "res3b7_branch2b"
  batch_norm_param {
    use_global_stats: true
  }
}
layer {
  name: "scale3b7_branch2b"
  type: "Scale"
  bottom: "res3b7_branch2b"
  top: "res3b7_branch2b"
  scale_param {
    bias_term: true
  }
}
layer {
  name: "res3b7_branch2b_relu"
  type: "ReLU"
  bottom: "res3b7_branch2b"
  top: "res3b7_branch2b"
}
layer {
  name: "res3b7_branch2c"
  type: "Convolution"
  bottom: "res3b7_branch2b"
  top: "res3b7_branch2c"
  convolution_param {
    num_output: 512
    bias_term: false
    pad: 0
    kernel_size: 1
    stride: 1
  }
}
layer {
  name: "bn3b7_branch2c"
  type: "BatchNorm"
  bottom: "res3b7_branch2c"
  top: "res3b7_branch2c"
  batch_norm_param {
    use_global_stats: true
  }
}
layer {
  name: "scale3b7_branch2c"
  type: "Scale"
  bottom: "res3b7_branch2c"
  top: "res3b7_branch2c"
  scale_param {
    bias_term: true
  }
}
layer {
  name: "res3b7"
  type: "Eltwise"
  bottom: "res3b6"
  bottom: "res3b7_branch2c"
  top: "res3b7"
}
layer {
  name: "res3b7_relu"
  type: "ReLU"
  bottom: "res3b7"
  top: "res3b7"
}
layer {
  name: "res4a_branch1"
  type: "Convolution"
  bottom: "res3b7"
  top: "res4a_branch1"
  convolution_param {
    num_output: 1024
    bias_term: false
    pad: 0
    kernel_size: 1
    stride: 2
  }
}
layer {
  name: "bn4a_branch1"
  type: "BatchNorm"
  bottom: "res4a_branch1"
  top: "res4a_branch1"
  batch_norm_param {
    use_global_stats: true
  }
}
layer {
  name: "scale4a_branch1"
  type: "Scale"
  bottom: "res4a_branch1"
  top: "res4a_branch1"
  scale_param {
    bias_term: true
  }
}
layer {
  name: "res4a_branch2a"
  type: "Convolution"
  bottom: "res3b7"
  top: "res4a_branch2a"
  convolution_param {
    num_output: 256
    bias_term: false
    pad: 0
    kernel_size: 1
    stride: 2
  }
}
layer {
  name: "bn4a_branch2a"
  type: "BatchNorm"
  bottom: "res4a_branch2a"
  top: "res4a_branch2a"
  batch_norm_param {
    use_global_stats: true
  }
}
layer {
  name: "scale4a_branch2a"
  type: "Scale"
  bottom: "res4a_branch2a"
  top: "res4a_branch2a"
  scale_param {
    bias_term: true
  }
}
layer {
  name: "res4a_branch2a_relu"
  type: "ReLU"
  bottom: "res4a_branch2a"
  top: "res4a_branch2a"
}
layer {
  name: "res4a_branch2b"
  type: "Convolution"
  bottom: "res4a_branch2a"
  top: "res4a_branch2b"
  convolution_param {
    num_output: 256
    bias_term: false
    pad: 1
    kernel_size: 3
    stride: 1
  }
}
layer {
  name: "bn4a_branch2b"
  type: "BatchNorm"
  bottom: "res4a_branch2b"
  top: "res4a_branch2b"
  batch_norm_param {
    use_global_stats: true
  }
}
layer {
  name: "scale4a_branch2b"
  type: "Scale"
  bottom: "res4a_branch2b"
  top: "res4a_branch2b"
  scale_param {
    bias_term: true
  }
}
layer {
  name: "res4a_branch2b_relu"
  type: "ReLU"
  bottom: "res4a_branch2b"
  top: "res4a_branch2b"
}
layer {
  name: "res4a_branch2c"
  type: "Convolution"
  bottom: "res4a_branch2b"
  top: "res4a_branch2c"
  convolution_param {
    num_output: 1024
    bias_term: false
    pad: 0
    kernel_size: 1
    stride: 1
  }
}
layer {
  name: "bn4a_branch2c"
  type: "BatchNorm"
  bottom: "res4a_branch2c"
  top: "res4a_branch2c"
  batch_norm_param {
    use_global_stats: true
  }
}
layer {
  name: "scale4a_branch2c"
  type: "Scale"
  bottom: "res4a_branch2c"
  top: "res4a_branch2c"
  scale_param {
    bias_term: true
  }
}
layer {
  name: "res4a"
  type: "Eltwise"
  bottom: "res4a_branch1"
  bottom: "res4a_branch2c"
  top: "res4a"
}
layer {
  name: "res4a_relu"
  type: "ReLU"
  bottom: "res4a"
  top: "res4a"
}
layer {
  name: "res4b1_branch2a"
  type: "Convolution"
  bottom: "res4a"
  top: "res4b1_branch2a"
  convolution_param {
    num_output: 256
    bias_term: false
    pad: 0
    kernel_size: 1
    stride: 1
  }
}
layer {
  name: "bn4b1_branch2a"
  type: "BatchNorm"
  bottom: "res4b1_branch2a"
  top: "res4b1_branch2a"
  batch_norm_param {
    use_global_stats: true
  }
}
layer {
  name: "scale4b1_branch2a"
  type: "Scale"
  bottom: "res4b1_branch2a"
  top: "res4b1_branch2a"
  scale_param {
    bias_term: true
  }
}
layer {
  name: "res4b1_branch2a_relu"
  type: "ReLU"
  bottom: "res4b1_branch2a"
  top: "res4b1_branch2a"
}
layer {
  name: "res4b1_branch2b"
  type: "Convolution"
  bottom: "res4b1_branch2a"
  top: "res4b1_branch2b"
  convolution_param {
    num_output: 256
    bias_term: false
    pad: 1
    kernel_size: 3
    stride: 1
  }
}
layer {
  name: "bn4b1_branch2b"
  type: "BatchNorm"
  bottom: "res4b1_branch2b"
  top: "res4b1_branch2b"
  batch_norm_param {
    use_global_stats: true
  }
}
layer {
  name: "scale4b1_branch2b"
  type: "Scale"
  bottom: "res4b1_branch2b"
  top: "res4b1_branch2b"
  scale_param {
    bias_term: true
  }
}
layer {
  name: "res4b1_branch2b_relu"
  type: "ReLU"
  bottom: "res4b1_branch2b"
  top: "res4b1_branch2b"
}
layer {
  name: "res4b1_branch2c"
  type: "Convolution"
  bottom: "res4b1_branch2b"
  top: "res4b1_branch2c"
  convolution_param {
    num_output: 1024
    bias_term: false
    pad: 0
    kernel_size: 1
    stride: 1
  }
}
layer {
  name: "bn4b1_branch2c"
  type: "BatchNorm"
  bottom: "res4b1_branch2c"
  top: "res4b1_branch2c"
  batch_norm_param {
    use_global_stats: true
  }
}
layer {
  name: "scale4b1_branch2c"
  type: "Scale"
  bottom: "res4b1_branch2c"
  top: "res4b1_branch2c"
  scale_param {
    bias_term: true
  }
}
layer {
  name: "res4b1"
  type: "Eltwise"
  bottom: "res4a"
  bottom: "res4b1_branch2c"
  top: "res4b1"
}
layer {
  name: "res4b1_relu"
  type: "ReLU"
  bottom: "res4b1"
  top: "res4b1"
}
layer {
  name: "res4b2_branch2a"
  type: "Convolution"
  bottom: "res4b1"
  top: "res4b2_branch2a"
  convolution_param {
    num_output: 256
    bias_term: false
    pad: 0
    kernel_size: 1
    stride: 1
  }
}
layer {
  name: "bn4b2_branch2a"
  type: "BatchNorm"
  bottom: "res4b2_branch2a"
  top: "res4b2_branch2a"
  batch_norm_param {
    use_global_stats: true
  }
}
layer {
  name: "scale4b2_branch2a"
  type: "Scale"
  bottom: "res4b2_branch2a"
  top: "res4b2_branch2a"
  scale_param {
    bias_term: true
  }
}
layer {
  name: "res4b2_branch2a_relu"
  type: "ReLU"
  bottom: "res4b2_branch2a"
  top: "res4b2_branch2a"
}
layer {
  name: "res4b2_branch2b"
  type: "Convolution"
  bottom: "res4b2_branch2a"
  top: "res4b2_branch2b"
  convolution_param {
    num_output: 256
    bias_term: false
    pad: 1
    kernel_size: 3
    stride: 1
  }
}
layer {
  name: "bn4b2_branch2b"
  type: "BatchNorm"
  bottom: "res4b2_branch2b"
  top: "res4b2_branch2b"
  batch_norm_param {
    use_global_stats: true
  }
}
layer {
  name: "scale4b2_branch2b"
  type: "Scale"
  bottom: "res4b2_branch2b"
  top: "res4b2_branch2b"
  scale_param {
    bias_term: true
  }
}
layer {
  name: "res4b2_branch2b_relu"
  type: "ReLU"
  bottom: "res4b2_branch2b"
  top: "res4b2_branch2b"
}
layer {
  name: "res4b2_branch2c"
  type: "Convolution"
  bottom: "res4b2_branch2b"
  top: "res4b2_branch2c"
  convolution_param {
  
I0310 17:21:06.636287  8311 layer_factory.hpp:77] Creating layer data
I0310 17:21:06.637522  8311 net.cpp:106] Creating Layer data
I0310 17:21:06.637668  8311 net.cpp:411] data -> data
I0310 17:21:06.637792  8311 net.cpp:411] data -> id_label
I0310 17:21:06.637838  8311 data_transformer.cpp:25] Loading mean file from: /home/lizhuowan/Market1501/lmdb/lmdb_12936/Image_lmdb_12936.binaryproto
I0310 17:21:06.638900  8315 db_lmdb.cpp:38] Opened lmdb /home/lizhuowan/Market1501/lmdb/lmdb_mirror_12936/Image_lmdb_mirror_12936
I0310 17:21:06.655007  8311 data_layer.cpp:41] output data size: 8,3,224,224
I0310 17:21:06.666651  8311 net.cpp:150] Setting up data
I0310 17:21:06.666705  8311 net.cpp:157] Top shape: 8 3 224 224 (1204224)
I0310 17:21:06.666720  8311 net.cpp:157] Top shape: 8 (8)
I0310 17:21:06.666729  8311 net.cpp:165] Memory required for data: 4816928
I0310 17:21:06.666751  8311 layer_factory.hpp:77] Creating layer data_data_0_split
I0310 17:21:06.666779  8311 net.cpp:106] Creating Layer data_data_0_split
I0310 17:21:06.666795  8311 net.cpp:454] data_data_0_split <- data
I0310 17:21:06.666826  8311 net.cpp:411] data_data_0_split -> data_data_0_split_0
I0310 17:21:06.666848  8311 net.cpp:411] data_data_0_split -> data_data_0_split_1
I0310 17:21:06.667085  8311 net.cpp:150] Setting up data_data_0_split
I0310 17:21:06.667176  8311 net.cpp:157] Top shape: 8 3 224 224 (1204224)
I0310 17:21:06.667203  8311 net.cpp:157] Top shape: 8 3 224 224 (1204224)
I0310 17:21:06.667222  8311 net.cpp:165] Memory required for data: 14450720
I0310 17:21:06.667244  8311 layer_factory.hpp:77] Creating layer data
I0310 17:21:06.667407  8311 net.cpp:106] Creating Layer data
I0310 17:21:06.667496  8311 net.cpp:411] data -> labels
I0310 17:21:06.669651  8317 db_lmdb.cpp:38] Opened lmdb /home/lizhuowan/Market1501/lmdb/lmdb_mirror_12936/pos30_lmdb_mirror_12936_correct
I0310 17:21:06.670367  8311 data_layer.cpp:41] output data size: 8,30,1,1
I0310 17:21:06.670727  8311 net.cpp:150] Setting up data
I0310 17:21:06.670789  8311 net.cpp:157] Top shape: 8 30 1 1 (240)
I0310 17:21:06.670835  8311 net.cpp:165] Memory required for data: 14451680
I0310 17:21:06.670856  8311 layer_factory.hpp:77] Creating layer conv1
I0310 17:21:06.670908  8311 net.cpp:106] Creating Layer conv1
I0310 17:21:06.670931  8311 net.cpp:454] conv1 <- data_data_0_split_0
I0310 17:21:06.670964  8311 net.cpp:411] conv1 -> conv1
I0310 17:21:06.672610  8311 net.cpp:150] Setting up conv1
I0310 17:21:06.672654  8311 net.cpp:157] Top shape: 8 64 112 112 (6422528)
I0310 17:21:06.672673  8311 net.cpp:165] Memory required for data: 40141792
I0310 17:21:06.672718  8311 layer_factory.hpp:77] Creating layer bn_conv1
I0310 17:21:06.672754  8311 net.cpp:106] Creating Layer bn_conv1
I0310 17:21:06.672775  8311 net.cpp:454] bn_conv1 <- conv1
I0310 17:21:06.672804  8311 net.cpp:397] bn_conv1 -> conv1 (in-place)
I0310 17:21:06.673441  8311 net.cpp:150] Setting up bn_conv1
I0310 17:21:06.673483  8311 net.cpp:157] Top shape: 8 64 112 112 (6422528)
I0310 17:21:06.673537  8311 net.cpp:165] Memory required for data: 65831904
I0310 17:21:06.673586  8311 layer_factory.hpp:77] Creating layer scale_conv1
I0310 17:21:06.673635  8311 net.cpp:106] Creating Layer scale_conv1
I0310 17:21:06.673656  8311 net.cpp:454] scale_conv1 <- conv1
I0310 17:21:06.673686  8311 net.cpp:397] scale_conv1 -> conv1 (in-place)
I0310 17:21:06.673835  8311 layer_factory.hpp:77] Creating layer scale_conv1
I0310 17:21:06.674209  8311 net.cpp:150] Setting up scale_conv1
I0310 17:21:06.674253  8311 net.cpp:157] Top shape: 8 64 112 112 (6422528)
I0310 17:21:06.674273  8311 net.cpp:165] Memory required for data: 91522016
I0310 17:21:06.674304  8311 layer_factory.hpp:77] Creating layer conv1_relu
I0310 17:21:06.674335  8311 net.cpp:106] Creating Layer conv1_relu
I0310 17:21:06.674355  8311 net.cpp:454] conv1_relu <- conv1
I0310 17:21:06.674378  8311 net.cpp:397] conv1_relu -> conv1 (in-place)
I0310 17:21:06.674408  8311 net.cpp:150] Setting up conv1_relu
I0310 17:21:06.674432  8311 net.cpp:157] Top shape: 8 64 112 112 (6422528)
I0310 17:21:06.674453  8311 net.cpp:165] Memory required for data: 117212128
I0310 17:21:06.674469  8311 layer_factory.hpp:77] Creating layer pool1
I0310 17:21:06.674499  8311 net.cpp:106] Creating Layer pool1
I0310 17:21:06.674518  8311 net.cpp:454] pool1 <- conv1
I0310 17:21:06.674541  8311 net.cpp:411] pool1 -> pool1
I0310 17:21:06.674667  8311 net.cpp:150] Setting up pool1
I0310 17:21:06.674700  8311 net.cpp:157] Top shape: 8 64 56 56 (1605632)
I0310 17:21:06.674718  8311 net.cpp:165] Memory required for data: 123634656
I0310 17:21:06.674736  8311 layer_factory.hpp:77] Creating layer pool1_pool1_0_split
I0310 17:21:06.674763  8311 net.cpp:106] Creating Layer pool1_pool1_0_split
I0310 17:21:06.674782  8311 net.cpp:454] pool1_pool1_0_split <- pool1
I0310 17:21:06.674805  8311 net.cpp:411] pool1_pool1_0_split -> pool1_pool1_0_split_0
I0310 17:21:06.674832  8311 net.cpp:411] pool1_pool1_0_split -> pool1_pool1_0_split_1
I0310 17:21:06.674860  8311 net.cpp:411] pool1_pool1_0_split -> pool1_pool1_0_split_2
I0310 17:21:06.674974  8311 net.cpp:150] Setting up pool1_pool1_0_split
I0310 17:21:06.675004  8311 net.cpp:157] Top shape: 8 64 56 56 (1605632)
I0310 17:21:06.675031  8311 net.cpp:157] Top shape: 8 64 56 56 (1605632)
I0310 17:21:06.675052  8311 net.cpp:157] Top shape: 8 64 56 56 (1605632)
I0310 17:21:06.675071  8311 net.cpp:165] Memory required for data: 142902240
I0310 17:21:06.675088  8311 layer_factory.hpp:77] Creating layer res2a_branch1
I0310 17:21:06.675120  8311 net.cpp:106] Creating Layer res2a_branch1
I0310 17:21:06.675142  8311 net.cpp:454] res2a_branch1 <- pool1_pool1_0_split_0
I0310 17:21:06.675165  8311 net.cpp:411] res2a_branch1 -> res2a_branch1
I0310 17:21:06.675552  8311 net.cpp:150] Setting up res2a_branch1
I0310 17:21:06.675588  8311 net.cpp:157] Top shape: 8 256 56 56 (6422528)
I0310 17:21:06.675606  8311 net.cpp:165] Memory required for data: 168592352
I0310 17:21:06.675629  8311 layer_factory.hpp:77] Creating layer bn2a_branch1
I0310 17:21:06.675671  8311 net.cpp:106] Creating Layer bn2a_branch1
I0310 17:21:06.675712  8311 net.cpp:454] bn2a_branch1 <- res2a_branch1
I0310 17:21:06.675737  8311 net.cpp:397] bn2a_branch1 -> res2a_branch1 (in-place)
I0310 17:21:06.677300  8311 net.cpp:150] Setting up bn2a_branch1
I0310 17:21:06.677346  8311 net.cpp:157] Top shape: 8 256 56 56 (6422528)
I0310 17:21:06.677366  8311 net.cpp:165] Memory required for data: 194282464
I0310 17:21:06.677404  8311 layer_factory.hpp:77] Creating layer scale2a_branch1
I0310 17:21:06.677431  8311 net.cpp:106] Creating Layer scale2a_branch1
I0310 17:21:06.677451  8311 net.cpp:454] scale2a_branch1 <- res2a_branch1
I0310 17:21:06.677481  8311 net.cpp:397] scale2a_branch1 -> res2a_branch1 (in-place)
I0310 17:21:06.677595  8311 layer_factory.hpp:77] Creating layer scale2a_branch1
I0310 17:21:06.677856  8311 net.cpp:150] Setting up scale2a_branch1
I0310 17:21:06.677891  8311 net.cpp:157] Top shape: 8 256 56 56 (6422528)
I0310 17:21:06.677909  8311 net.cpp:165] Memory required for data: 219972576
I0310 17:21:06.677935  8311 layer_factory.hpp:77] Creating layer res2a_branch2a
I0310 17:21:06.677963  8311 net.cpp:106] Creating Layer res2a_branch2a
I0310 17:21:06.677983  8311 net.cpp:454] res2a_branch2a <- pool1_pool1_0_split_1
I0310 17:21:06.678016  8311 net.cpp:411] res2a_branch2a -> res2a_branch2a
I0310 17:21:06.678398  8311 net.cpp:150] Setting up res2a_branch2a
I0310 17:21:06.678433  8311 net.cpp:157] Top shape: 8 64 56 56 (1605632)
I0310 17:21:06.678452  8311 net.cpp:165] Memory required for data: 226395104
I0310 17:21:06.678474  8311 layer_factory.hpp:77] Creating layer bn2a_branch2a
I0310 17:21:06.678498  8311 net.cpp:106] Creating Layer bn2a_branch2a
I0310 17:21:06.678519  8311 net.cpp:454] bn2a_branch2a <- res2a_branch2a
I0310 17:21:06.678541  8311 net.cpp:397] bn2a_branch2a -> res2a_branch2a (in-place)
I0310 17:21:06.678918  8311 net.cpp:150] Setting up bn2a_branch2a
I0310 17:21:06.678951  8311 net.cpp:157] Top shape: 8 64 56 56 (1605632)
I0310 17:21:06.678970  8311 net.cpp:165] Memory required for data: 232817632
I0310 17:21:06.678998  8311 layer_factory.hpp:77] Creating layer scale2a_branch2a
I0310 17:21:06.679028  8311 net.cpp:106] Creating Layer scale2a_branch2a
I0310 17:21:06.679049  8311 net.cpp:454] scale2a_branch2a <- res2a_branch2a
I0310 17:21:06.679072  8311 net.cpp:397] scale2a_branch2a -> res2a_branch2a (in-place)
I0310 17:21:06.679180  8311 layer_factory.hpp:77] Creating layer scale2a_branch2a
I0310 17:21:06.679466  8311 net.cpp:150] Setting up scale2a_branch2a
I0310 17:21:06.679500  8311 net.cpp:157] Top shape: 8 64 56 56 (1605632)
I0310 17:21:06.679518  8311 net.cpp:165] Memory required for data: 239240160
I0310 17:21:06.679551  8311 layer_factory.hpp:77] Creating layer res2a_branch2a_relu
I0310 17:21:06.679581  8311 net.cpp:106] Creating Layer res2a_branch2a_relu
I0310 17:21:06.679602  8311 net.cpp:454] res2a_branch2a_relu <- res2a_branch2a
I0310 17:21:06.679625  8311 net.cpp:397] res2a_branch2a_relu -> res2a_branch2a (in-place)
I0310 17:21:06.679651  8311 net.cpp:150] Setting up res2a_branch2a_relu
I0310 17:21:06.679673  8311 net.cpp:157] Top shape: 8 64 56 56 (1605632)
I0310 17:21:06.679690  8311 net.cpp:165] Memory required for data: 245662688
I0310 17:21:06.679708  8311 layer_factory.hpp:77] Creating layer res2a_branch2b
I0310 17:21:06.679743  8311 net.cpp:106] Creating Layer res2a_branch2b
I0310 17:21:06.679764  8311 net.cpp:454] res2a_branch2b <- res2a_branch2a
I0310 17:21:06.679787  8311 net.cpp:411] res2a_branch2b -> res2a_branch2b
I0310 17:21:06.681404  8311 net.cpp:150] Setting up res2a_branch2b
I0310 17:21:06.681449  8311 net.cpp:157] Top shape: 8 64 56 56 (1605632)
I0310 17:21:06.681468  8311 net.cpp:165] Memory required for data: 252085216
I0310 17:21:06.681491  8311 layer_factory.hpp:77] Creating layer bn2a_branch2b
I0310 17:21:06.681516  8311 net.cpp:106] Creating Layer bn2a_branch2b
I0310 17:21:06.681536  8311 net.cpp:454] bn2a_branch2b <- res2a_branch2b
I0310 17:21:06.681565  8311 net.cpp:397] bn2a_branch2b -> res2a_branch2b (in-place)
I0310 17:21:06.681972  8311 net.cpp:150] Setting up bn2a_branch2b
I0310 17:21:06.682039  8311 net.cpp:157] Top shape: 8 64 56 56 (1605632)
I0310 17:21:06.682060  8311 net.cpp:165] Memory required for data: 258507744
I0310 17:21:06.682090  8311 layer_factory.hpp:77] Creating layer scale2a_branch2b
I0310 17:21:06.682116  8311 net.cpp:106] Creating Layer scale2a_branch2b
I0310 17:21:06.682134  8311 net.cpp:454] scale2a_branch2b <- res2a_branch2b
I0310 17:21:06.682164  8311 net.cpp:397] scale2a_branch2b -> res2a_branch2b (in-place)
I0310 17:21:06.683509  8311 layer_factory.hpp:77] Creating layer scale2a_branch2b
I0310 17:21:06.683848  8311 net.cpp:150] Setting up scale2a_branch2b
I0310 17:21:06.683889  8311 net.cpp:157] Top shape: 8 64 56 56 (1605632)
I0310 17:21:06.683908  8311 net.cpp:165] Memory required for data: 264930272
I0310 17:21:06.683936  8311 layer_factory.hpp:77] Creating layer res2a_branch2b_relu
I0310 17:21:06.683960  8311 net.cpp:106] Creating Layer res2a_branch2b_relu
I0310 17:21:06.683981  8311 net.cpp:454] res2a_branch2b_relu <- res2a_branch2b
I0310 17:21:06.684011  8311 net.cpp:397] res2a_branch2b_relu -> res2a_branch2b (in-place)
I0310 17:21:06.684041  8311 net.cpp:150] Setting up res2a_branch2b_relu
I0310 17:21:06.684063  8311 net.cpp:157] Top shape: 8 64 56 56 (1605632)
I0310 17:21:06.684082  8311 net.cpp:165] Memory required for data: 271352800
I0310 17:21:06.684099  8311 layer_factory.hpp:77] Creating layer res2a_branch2c
I0310 17:21:06.684132  8311 net.cpp:106] Creating Layer res2a_branch2c
I0310 17:21:06.684154  8311 net.cpp:454] res2a_branch2c <- res2a_branch2b
I0310 17:21:06.684177  8311 net.cpp:411] res2a_branch2c -> res2a_branch2c
I0310 17:21:06.684584  8311 net.cpp:150] Setting up res2a_branch2c
I0310 17:21:06.684620  8311 net.cpp:157] Top shape: 8 256 56 56 (6422528)
I0310 17:21:06.684639  8311 net.cpp:165] Memory required for data: 297042912
I0310 17:21:06.684662  8311 layer_factory.hpp:77] Creating layer bn2a_branch2c
I0310 17:21:06.684687  8311 net.cpp:106] Creating Layer bn2a_branch2c
I0310 17:21:06.684706  8311 net.cpp:454] bn2a_branch2c <- res2a_branch2c
I0310 17:21:06.684729  8311 net.cpp:397] bn2a_branch2c -> res2a_branch2c (in-place)
I0310 17:21:06.685130  8311 net.cpp:150] Setting up bn2a_branch2c
I0310 17:21:06.685164  8311 net.cpp:157] Top shape: 8 256 56 56 (6422528)
I0310 17:21:06.685184  8311 net.cpp:165] Memory required for data: 322733024
I0310 17:21:06.685212  8311 layer_factory.hpp:77] Creating layer scale2a_branch2c
I0310 17:21:06.685238  8311 net.cpp:106] Creating Layer scale2a_branch2c
I0310 17:21:06.685279  8311 net.cpp:454] scale2a_branch2c <- res2a_branch2c
I0310 17:21:06.685305  8311 net.cpp:397] scale2a_branch2c -> res2a_branch2c (in-place)
I0310 17:21:06.685417  8311 layer_factory.hpp:77] Creating layer scale2a_branch2c
I0310 17:21:06.685685  8311 net.cpp:150] Setting up scale2a_branch2c
I0310 17:21:06.685720  8311 net.cpp:157] Top shape: 8 256 56 56 (6422528)
I0310 17:21:06.685739  8311 net.cpp:165] Memory required for data: 348423136
I0310 17:21:06.685765  8311 layer_factory.hpp:77] Creating layer res2a
I0310 17:21:06.685802  8311 net.cpp:106] Creating Layer res2a
I0310 17:21:06.685823  8311 net.cpp:454] res2a <- res2a_branch1
I0310 17:21:06.685845  8311 net.cpp:454] res2a <- res2a_branch2c
I0310 17:21:06.685868  8311 net.cpp:411] res2a -> res2a
I0310 17:21:06.685957  8311 net.cpp:150] Setting up res2a
I0310 17:21:06.685989  8311 net.cpp:157] Top shape: 8 256 56 56 (6422528)
I0310 17:21:06.686007  8311 net.cpp:165] Memory required for data: 374113248
I0310 17:21:06.686025  8311 layer_factory.hpp:77] Creating layer res2a_relu
I0310 17:21:06.686048  8311 net.cpp:106] Creating Layer res2a_relu
I0310 17:21:06.686066  8311 net.cpp:454] res2a_relu <- res2a
I0310 17:21:06.686098  8311 net.cpp:397] res2a_relu -> res2a (in-place)
I0310 17:21:06.686125  8311 net.cpp:150] Setting up res2a_relu
I0310 17:21:06.686148  8311 net.cpp:157] Top shape: 8 256 56 56 (6422528)
I0310 17:21:06.686166  8311 net.cpp:165] Memory required for data: 399803360
I0310 17:21:06.686183  8311 layer_factory.hpp:77] Creating layer res2a_res2a_relu_0_split
I0310 17:21:06.686221  8311 net.cpp:106] Creating Layer res2a_res2a_relu_0_split
I0310 17:21:06.686261  8311 net.cpp:454] res2a_res2a_relu_0_split <- res2a
I0310 17:21:06.686286  8311 net.cpp:411] res2a_res2a_relu_0_split -> res2a_res2a_relu_0_split_0
I0310 17:21:06.686313  8311 net.cpp:411] res2a_res2a_relu_0_split -> res2a_res2a_relu_0_split_1
I0310 17:21:06.686421  8311 net.cpp:150] Setting up res2a_res2a_relu_0_split
I0310 17:21:06.686453  8311 net.cpp:157] Top shape: 8 256 56 56 (6422528)
I0310 17:21:06.686475  8311 net.cpp:157] Top shape: 8 256 56 56 (6422528)
I0310 17:21:06.686493  8311 net.cpp:165] Memory required for data: 451183584
I0310 17:21:06.686511  8311 layer_factory.hpp:77] Creating layer res2b_branch2a
I0310 17:21:06.686537  8311 net.cpp:106] Creating Layer res2b_branch2a
I0310 17:21:06.686558  8311 net.cpp:454] res2b_branch2a <- res2a_res2a_relu_0_split_0
I0310 17:21:06.686588  8311 net.cpp:411] res2b_branch2a -> res2b_branch2a
I0310 17:21:06.686980  8311 net.cpp:150] Setting up res2b_branch2a
I0310 17:21:06.687016  8311 net.cpp:157] Top shape: 8 64 56 56 (1605632)
I0310 17:21:06.687033  8311 net.cpp:165] Memory required for data: 457606112
I0310 17:21:06.687057  8311 layer_factory.hpp:77] Creating layer bn2b_branch2a
I0310 17:21:06.687086  8311 net.cpp:106] Creating Layer bn2b_branch2a
I0310 17:21:06.687108  8311 net.cpp:454] bn2b_branch2a <- res2b_branch2a
I0310 17:21:06.687130  8311 net.cpp:397] bn2b_branch2a -> res2b_branch2a (in-place)
I0310 17:21:06.687533  8311 net.cpp:150] Setting up bn2b_branch2a
I0310 17:21:06.687567  8311 net.cpp:157] Top shape: 8 64 56 56 (1605632)
I0310 17:21:06.687587  8311 net.cpp:165] Memory required for data: 464028640
I0310 17:21:06.687644  8311 layer_factory.hpp:77] Creating layer scale2b_branch2a
I0310 17:21:06.687674  8311 net.cpp:106] Creating Layer scale2b_branch2a
I0310 17:21:06.687693  8311 net.cpp:454] scale2b_branch2a <- res2b_branch2a
I0310 17:21:06.687716  8311 net.cpp:397] scale2b_branch2a -> res2b_branch2a (in-place)
I0310 17:21:06.687831  8311 layer_factory.hpp:77] Creating layer scale2b_branch2a
I0310 17:21:06.688115  8311 net.cpp:150] Setting up scale2b_branch2a
I0310 17:21:06.688150  8311 net.cpp:157] Top shape: 8 64 56 56 (1605632)
I0310 17:21:06.688169  8311 net.cpp:165] Memory required for data: 470451168
I0310 17:21:06.688194  8311 layer_factory.hpp:77] Creating layer res2b_branch2a_relu
I0310 17:21:06.688217  8311 net.cpp:106] Creating Layer res2b_branch2a_relu
I0310 17:21:06.688237  8311 net.cpp:454] res2b_branch2a_relu <- res2b_branch2a
I0310 17:21:06.688259  8311 net.cpp:397] res2b_branch2a_relu -> res2b_branch2a (in-place)
I0310 17:21:06.688284  8311 net.cpp:150] Setting up res2b_branch2a_relu
I0310 17:21:06.688308  8311 net.cpp:157] Top shape: 8 64 56 56 (1605632)
I0310 17:21:06.688325  8311 net.cpp:165] Memory required for data: 476873696
I0310 17:21:06.688344  8311 layer_factory.hpp:77] Creating layer res2b_branch2b
I0310 17:21:06.688374  8311 net.cpp:106] Creating Layer res2b_branch2b
I0310 17:21:06.688395  8311 net.cpp:454] res2b_branch2b <- res2b_branch2a
I0310 17:21:06.688419  8311 net.cpp:411] res2b_branch2b -> res2b_branch2b
I0310 17:21:06.688859  8311 net.cpp:150] Setting up res2b_branch2b
I0310 17:21:06.688895  8311 net.cpp:157] Top shape: 8 64 56 56 (1605632)
I0310 17:21:06.688913  8311 net.cpp:165] Memory required for data: 483296224
I0310 17:21:06.688937  8311 layer_factory.hpp:77] Creating layer bn2b_branch2b
I0310 17:21:06.688961  8311 net.cpp:106] Creating Layer bn2b_branch2b
I0310 17:21:06.688982  8311 net.cpp:454] bn2b_branch2b <- res2b_branch2b
I0310 17:21:06.689003  8311 net.cpp:397] bn2b_branch2b -> res2b_branch2b (in-place)
I0310 17:21:06.689446  8311 net.cpp:150] Setting up bn2b_branch2b
I0310 17:21:06.689484  8311 net.cpp:157] Top shape: 8 64 56 56 (1605632)
I0310 17:21:06.689504  8311 net.cpp:165] Memory required for data: 489718752
I0310 17:21:06.689533  8311 layer_factory.hpp:77] Creating layer scale2b_branch2b
I0310 17:21:06.689563  8311 net.cpp:106] Creating Layer scale2b_branch2b
I0310 17:21:06.689597  8311 net.cpp:454] scale2b_branch2b <- res2b_branch2b
I0310 17:21:06.689642  8311 net.cpp:397] scale2b_branch2b -> res2b_branch2b (in-place)
I0310 17:21:06.689759  8311 layer_factory.hpp:77] Creating layer scale2b_branch2b
I0310 17:21:06.690050  8311 net.cpp:150] Setting up scale2b_branch2b
I0310 17:21:06.690085  8311 net.cpp:157] Top shape: 8 64 56 56 (1605632)
I0310 17:21:06.690104  8311 net.cpp:165] Memory required for data: 496141280
I0310 17:21:06.690130  8311 layer_factory.hpp:77] Creating layer res2b_branch2b_relu
I0310 17:21:06.690153  8311 net.cpp:106] Creating Layer res2b_branch2b_relu
I0310 17:21:06.690172  8311 net.cpp:454] res2b_branch2b_relu <- res2b_branch2b
I0310 17:21:06.690194  8311 net.cpp:397] res2b_branch2b_relu -> res2b_branch2b (in-place)
I0310 17:21:06.690219  8311 net.cpp:150] Setting up res2b_branch2b_relu
I0310 17:21:06.690243  8311 net.cpp:157] Top shape: 8 64 56 56 (1605632)
I0310 17:21:06.690259  8311 net.cpp:165] Memory required for data: 502563808
I0310 17:21:06.690279  8311 layer_factory.hpp:77] Creating layer res2b_branch2c
I0310 17:21:06.690310  8311 net.cpp:106] Creating Layer res2b_branch2c
I0310 17:21:06.690330  8311 net.cpp:454] res2b_branch2c <- res2b_branch2b
I0310 17:21:06.690354  8311 net.cpp:411] res2b_branch2c -> res2b_branch2c
I0310 17:21:06.690771  8311 net.cpp:150] Setting up res2b_branch2c
I0310 17:21:06.690807  8311 net.cpp:157] Top shape: 8 256 56 56 (6422528)
I0310 17:21:06.690825  8311 net.cpp:165] Memory required for data: 528253920
I0310 17:21:06.690848  8311 layer_factory.hpp:77] Creating layer bn2b_branch2c
I0310 17:21:06.690872  8311 net.cpp:106] Creating Layer bn2b_branch2c
I0310 17:21:06.690891  8311 net.cpp:454] bn2b_branch2c <- res2b_branch2c
I0310 17:21:06.690914  8311 net.cpp:397] bn2b_branch2c -> res2b_branch2c (in-place)
I0310 17:21:06.691303  8311 net.cpp:150] Setting up bn2b_branch2c
I0310 17:21:06.691335  8311 net.cpp:157] Top shape: 8 256 56 56 (6422528)
I0310 17:21:06.691354  8311 net.cpp:165] Memory required for data: 553944032
I0310 17:21:06.691383  8311 layer_factory.hpp:77] Creating layer scale2b_branch2c
I0310 17:21:06.691413  8311 net.cpp:106] Creating Layer scale2b_branch2c
I0310 17:21:06.691433  8311 net.cpp:454] scale2b_branch2c <- res2b_branch2c
I0310 17:21:06.691457  8311 net.cpp:397] scale2b_branch2c -> res2b_branch2c (in-place)
I0310 17:21:06.691561  8311 layer_factory.hpp:77] Creating layer scale2b_branch2c
I0310 17:21:06.691833  8311 net.cpp:150] Setting up scale2b_branch2c
I0310 17:21:06.691867  8311 net.cpp:157] Top shape: 8 256 56 56 (6422528)
I0310 17:21:06.691890  8311 net.cpp:165] Memory required for data: 579634144
I0310 17:21:06.691916  8311 layer_factory.hpp:77] Creating layer res2b
I0310 17:21:06.691941  8311 net.cpp:106] Creating Layer res2b
I0310 17:21:06.691959  8311 net.cpp:454] res2b <- res2a_res2a_relu_0_split_1
I0310 17:21:06.691982  8311 net.cpp:454] res2b <- res2b_branch2c
I0310 17:21:06.692010  8311 net.cpp:411] res2b -> res2b
I0310 17:21:06.692085  8311 net.cpp:150] Setting up res2b
I0310 17:21:06.692116  8311 net.cpp:157] Top shape: 8 256 56 56 (6422528)
I0310 17:21:06.692134  8311 net.cpp:165] Memory required for data: 605324256
I0310 17:21:06.692152  8311 layer_factory.hpp:77] Creating layer res2b_relu
I0310 17:21:06.692174  8311 net.cpp:106] Creating Layer res2b_relu
I0310 17:21:06.692193  8311 net.cpp:454] res2b_relu <- res2b
I0310 17:21:06.692215  8311 net.cpp:397] res2b_relu -> res2b (in-place)
I0310 17:21:06.692240  8311 net.cpp:150] Setting up res2b_relu
I0310 17:21:06.692262  8311 net.cpp:157] Top shape: 8 256 56 56 (6422528)
I0310 17:21:06.692279  8311 net.cpp:165] Memory required for data: 631014368
I0310 17:21:06.692297  8311 layer_factory.hpp:77] Creating layer res2b_res2b_relu_0_split
I0310 17:21:06.692329  8311 net.cpp:106] Creating Layer res2b_res2b_relu_0_split
I0310 17:21:06.692348  8311 net.cpp:454] res2b_res2b_relu_0_split <- res2b
I0310 17:21:06.692371  8311 net.cpp:411] res2b_res2b_relu_0_split -> res2b_res2b_relu_0_split_0
I0310 17:21:06.692399  8311 net.cpp:411] res2b_res2b_relu_0_split -> res2b_res2b_relu_0_split_1
I0310 17:21:06.692518  8311 net.cpp:150] Setting up res2b_res2b_relu_0_split
I0310 17:21:06.692551  8311 net.cpp:157] Top shape: 8 256 56 56 (6422528)
I0310 17:21:06.692572  8311 net.cpp:157] Top shape: 8 256 56 56 (6422528)
I0310 17:21:06.692589  8311 net.cpp:165] Memory required for data: 682394592
I0310 17:21:06.692607  8311 layer_factory.hpp:77] Creating layer res2c_branch2a
I0310 17:21:06.692633  8311 net.cpp:106] Creating Layer res2c_branch2a
I0310 17:21:06.692652  8311 net.cpp:454] res2c_branch2a <- res2b_res2b_relu_0_split_0
I0310 17:21:06.692677  8311 net.cpp:411] res2c_branch2a -> res2c_branch2a
I0310 17:21:06.693076  8311 net.cpp:150] Setting up res2c_branch2a
I0310 17:21:06.693111  8311 net.cpp:157] Top shape: 8 64 56 56 (1605632)
I0310 17:21:06.693130  8311 net.cpp:165] Memory required for data: 688817120
I0310 17:21:06.693152  8311 layer_factory.hpp:77] Creating layer bn2c_branch2a
I0310 17:21:06.693176  8311 net.cpp:106] Creating Layer bn2c_branch2a
I0310 17:21:06.693195  8311 net.cpp:454] bn2c_branch2a <- res2c_branch2a
I0310 17:21:06.693233  8311 net.cpp:397] bn2c_branch2a -> res2c_branch2a (in-place)
I0310 17:21:06.693668  8311 net.cpp:150] Setting up bn2c_branch2a
I0310 17:21:06.693706  8311 net.cpp:157] Top shape: 8 64 56 56 (1605632)
I0310 17:21:06.693723  8311 net.cpp:165] Memory required for data: 695239648
I0310 17:21:06.693753  8311 layer_factory.hpp:77] Creating layer scale2c_branch2a
I0310 17:21:06.693778  8311 net.cpp:106] Creating Layer scale2c_branch2a
I0310 17:21:06.693799  8311 net.cpp:454] scale2c_branch2a <- res2c_branch2a
I0310 17:21:06.693827  8311 net.cpp:397] scale2c_branch2a -> res2c_branch2a (in-place)
I0310 17:21:06.693928  8311 layer_factory.hpp:77] Creating layer scale2c_branch2a
I0310 17:21:06.694206  8311 net.cpp:150] Setting up scale2c_branch2a
I0310 17:21:06.694241  8311 net.cpp:157] Top shape: 8 64 56 56 (1605632)
I0310 17:21:06.694258  8311 net.cpp:165] Memory required for data: 701662176
I0310 17:21:06.694283  8311 layer_factory.hpp:77] Creating layer res2c_branch2a_relu
I0310 17:21:06.694306  8311 net.cpp:106] Creating Layer res2c_branch2a_relu
I0310 17:21:06.694326  8311 net.cpp:454] res2c_branch2a_relu <- res2c_branch2a
I0310 17:21:06.694353  8311 net.cpp:397] res2c_branch2a_relu -> res2c_branch2a (in-place)
I0310 17:21:06.694380  8311 net.cpp:150] Setting up res2c_branch2a_relu
I0310 17:21:06.694403  8311 net.cpp:157] Top shape: 8 64 56 56 (1605632)
I0310 17:21:06.694420  8311 net.cpp:165] Memory required for data: 708084704
I0310 17:21:06.694438  8311 layer_factory.hpp:77] Creating layer res2c_branch2b
I0310 17:21:06.694473  8311 net.cpp:106] Creating Layer res2c_branch2b
I0310 17:21:06.694494  8311 net.cpp:454] res2c_branch2b <- res2c_branch2a
I0310 17:21:06.694517  8311 net.cpp:411] res2c_branch2b -> res2c_branch2b
I0310 17:21:06.695051  8311 net.cpp:150] Setting up res2c_branch2b
I0310 17:21:06.695091  8311 net.cpp:157] Top shape: 8 64 56 56 (1605632)
I0310 17:21:06.695111  8311 net.cpp:165] Memory required for data: 714507232
I0310 17:21:06.695133  8311 layer_factory.hpp:77] Creating layer bn2c_branch2b
I0310 17:21:06.695163  8311 net.cpp:106] Creating Layer bn2c_branch2b
I0310 17:21:06.695181  8311 net.cpp:454] bn2c_branch2b <- res2c_branch2b
I0310 17:21:06.695204  8311 net.cpp:397] bn2c_branch2b -> res2c_branch2b (in-place)
I0310 17:21:06.695693  8311 net.cpp:150] Setting up bn2c_branch2b
I0310 17:21:06.695729  8311 net.cpp:157] Top shape: 8 64 56 56 (1605632)
I0310 17:21:06.695749  8311 net.cpp:165] Memory required for data: 720929760
I0310 17:21:06.695778  8311 layer_factory.hpp:77] Creating layer scale2c_branch2b
I0310 17:21:06.695803  8311 net.cpp:106] Creating Layer scale2c_branch2b
I0310 17:21:06.695823  8311 net.cpp:454] scale2c_branch2b <- res2c_branch2b
I0310 17:21:06.695847  8311 net.cpp:397] scale2c_branch2b -> res2c_branch2b (in-place)
I0310 17:21:06.697170  8311 layer_factory.hpp:77] Creating layer scale2c_branch2b
I0310 17:21:06.697525  8311 net.cpp:150] Setting up scale2c_branch2b
I0310 17:21:06.697590  8311 net.cpp:157] Top shape: 8 64 56 56 (1605632)
I0310 17:21:06.697631  8311 net.cpp:165] Memory required for data: 727352288
I0310 17:21:06.697664  8311 layer_factory.hpp:77] Creating layer res2c_branch2b_relu
I0310 17:21:06.697688  8311 net.cpp:106] Creating Layer res2c_branch2b_relu
I0310 17:21:06.697710  8311 net.cpp:454] res2c_branch2b_relu <- res2c_branch2b
I0310 17:21:06.697732  8311 net.cpp:397] res2c_branch2b_relu -> res2c_branch2b (in-place)
I0310 17:21:06.697763  8311 net.cpp:150] Setting up res2c_branch2b_relu
I0310 17:21:06.697787  8311 net.cpp:157] Top shape: 8 64 56 56 (1605632)
I0310 17:21:06.697804  8311 net.cpp:165] Memory required for data: 733774816
I0310 17:21:06.697823  8311 layer_factory.hpp:77] Creating layer res2c_branch2c
I0310 17:21:06.697855  8311 net.cpp:106] Creating Layer res2c_branch2c
I0310 17:21:06.697876  8311 net.cpp:454] res2c_branch2c <- res2c_branch2b
I0310 17:21:06.697906  8311 net.cpp:411] res2c_branch2c -> res2c_branch2c
I0310 17:21:06.698343  8311 net.cpp:150] Setting up res2c_branch2c
I0310 17:21:06.698380  8311 net.cpp:157] Top shape: 8 256 56 56 (6422528)
I0310 17:21:06.698400  8311 net.cpp:165] Memory required for data: 759464928
I0310 17:21:06.698421  8311 layer_factory.hpp:77] Creating layer bn2c_branch2c
I0310 17:21:06.698446  8311 net.cpp:106] Creating Layer bn2c_branch2c
I0310 17:21:06.698500  8311 net.cpp:454] bn2c_branch2c <- res2c_branch2c
I0310 17:21:06.698524  8311 net.cpp:397] bn2c_branch2c -> res2c_branch2c (in-place)
I0310 17:21:06.698935  8311 net.cpp:150] Setting up bn2c_branch2c
I0310 17:21:06.698971  8311 net.cpp:157] Top shape: 8 256 56 56 (6422528)
I0310 17:21:06.698988  8311 net.cpp:165] Memory required for data: 785155040
I0310 17:21:06.699018  8311 layer_factory.hpp:77] Creating layer scale2c_branch2c
I0310 17:21:06.699050  8311 net.cpp:106] Creating Layer scale2c_branch2c
I0310 17:21:06.699071  8311 net.cpp:454] scale2c_branch2c <- res2c_branch2c
I0310 17:21:06.699095  8311 net.cpp:397] scale2c_branch2c -> res2c_branch2c (in-place)
I0310 17:21:06.699201  8311 layer_factory.hpp:77] Creating layer scale2c_branch2c
I0310 17:21:06.699465  8311 net.cpp:150] Setting up scale2c_branch2c
I0310 17:21:06.699498  8311 net.cpp:157] Top shape: 8 256 56 56 (6422528)
I0310 17:21:06.699517  8311 net.cpp:165] Memory required for data: 810845152
I0310 17:21:06.699568  8311 layer_factory.hpp:77] Creating layer res2c
I0310 17:21:06.699602  8311 net.cpp:106] Creating Layer res2c
I0310 17:21:06.699623  8311 net.cpp:454] res2c <- res2b_res2b_relu_0_split_1
I0310 17:21:06.699645  8311 net.cpp:454] res2c <- res2c_branch2c
I0310 17:21:06.699669  8311 net.cpp:411] res2c -> res2c
I0310 17:21:06.699738  8311 net.cpp:150] Setting up res2c
I0310 17:21:06.699769  8311 net.cpp:157] Top shape: 8 256 56 56 (6422528)
I0310 17:21:06.699786  8311 net.cpp:165] Memory required for data: 836535264
I0310 17:21:06.699805  8311 layer_factory.hpp:77] Creating layer res2c_relu
I0310 17:21:06.699826  8311 net.cpp:106] Creating Layer res2c_relu
I0310 17:21:06.699846  8311 net.cpp:454] res2c_relu <- res2c
I0310 17:21:06.699867  8311 net.cpp:397] res2c_relu -> res2c (in-place)
I0310 17:21:06.699908  8311 net.cpp:150] Setting up res2c_relu
I0310 17:21:06.699930  8311 net.cpp:157] Top shape: 8 256 56 56 (6422528)
I0310 17:21:06.699947  8311 net.cpp:165] Memory required for data: 862225376
I0310 17:21:06.699965  8311 layer_factory.hpp:77] Creating layer res2c_res2c_relu_0_split
I0310 17:21:06.699988  8311 net.cpp:106] Creating Layer res2c_res2c_relu_0_split
I0310 17:21:06.700006  8311 net.cpp:454] res2c_res2c_relu_0_split <- res2c
I0310 17:21:06.700038  8311 net.cpp:411] res2c_res2c_relu_0_split -> res2c_res2c_relu_0_split_0
I0310 17:21:06.700067  8311 net.cpp:411] res2c_res2c_relu_0_split -> res2c_res2c_relu_0_split_1
I0310 17:21:06.700152  8311 net.cpp:150] Setting up res2c_res2c_relu_0_split
I0310 17:21:06.700189  8311 net.cpp:157] Top shape: 8 256 56 56 (6422528)
I0310 17:21:06.700211  8311 net.cpp:157] Top shape: 8 256 56 56 (6422528)
I0310 17:21:06.700228  8311 net.cpp:165] Memory required for data: 913605600
I0310 17:21:06.700259  8311 layer_factory.hpp:77] Creating layer res3a_branch1
I0310 17:21:06.700304  8311 net.cpp:106] Creating Layer res3a_branch1
I0310 17:21:06.700326  8311 net.cpp:454] res3a_branch1 <- res2c_res2c_relu_0_split_0
I0310 17:21:06.700350  8311 net.cpp:411] res3a_branch1 -> res3a_branch1
I0310 17:21:06.702154  8311 net.cpp:150] Setting up res3a_branch1
I0310 17:21:06.702200  8311 net.cpp:157] Top shape: 8 512 28 28 (3211264)
I0310 17:21:06.702219  8311 net.cpp:165] Memory required for data: 926450656
I0310 17:21:06.702244  8311 layer_factory.hpp:77] Creating layer bn3a_branch1
I0310 17:21:06.702275  8311 net.cpp:106] Creating Layer bn3a_branch1
I0310 17:21:06.702296  8311 net.cpp:454] bn3a_branch1 <- res3a_branch1
I0310 17:21:06.702319  8311 net.cpp:397] bn3a_branch1 -> res3a_branch1 (in-place)
I0310 17:21:06.703899  8311 net.cpp:150] Setting up bn3a_branch1
I0310 17:21:06.703941  8311 net.cpp:157] Top shape: 8 512 28 28 (3211264)
I0310 17:21:06.703961  8311 net.cpp:165] Memory required for data: 939295712
I0310 17:21:06.703992  8311 layer_factory.hpp:77] Creating layer scale3a_branch1
I0310 17:21:06.704018  8311 net.cpp:106] Creating Layer scale3a_branch1
I0310 17:21:06.704038  8311 net.cpp:454] scale3a_branch1 <- res3a_branch1
I0310 17:21:06.704061  8311 net.cpp:397] scale3a_branch1 -> res3a_branch1 (in-place)
I0310 17:21:06.704187  8311 layer_factory.hpp:77] Creating layer scale3a_branch1
I0310 17:21:06.704454  8311 net.cpp:150] Setting up scale3a_branch1
I0310 17:21:06.704489  8311 net.cpp:157] Top shape: 8 512 28 28 (3211264)
I0310 17:21:06.704509  8311 net.cpp:165] Memory required for data: 952140768
I0310 17:21:06.704535  8311 layer_factory.hpp:77] Creating layer res3a_branch2a
I0310 17:21:06.704568  8311 net.cpp:106] Creating Layer res3a_branch2a
I0310 17:21:06.704602  8311 net.cpp:454] res3a_branch2a <- res2c_res2c_relu_0_split_1
I0310 17:21:06.704627  8311 net.cpp:411] res3a_branch2a -> res3a_branch2a
I0310 17:21:06.705062  8311 net.cpp:150] Setting up res3a_branch2a
I0310 17:21:06.705099  8311 net.cpp:157] Top shape: 8 128 28 28 (802816)
I0310 17:21:06.705117  8311 net.cpp:165] Memory required for data: 955352032
I0310 17:21:06.705140  8311 layer_factory.hpp:77] Creating layer bn3a_branch2a
I0310 17:21:06.705164  8311 net.cpp:106] Creating Layer bn3a_branch2a
I0310 17:21:06.705185  8311 net.cpp:454] bn3a_branch2a <- res3a_branch2a
I0310 17:21:06.705209  8311 net.cpp:397] bn3a_branch2a -> res3a_branch2a (in-place)
I0310 17:21:06.705621  8311 net.cpp:150] Setting up bn3a_branch2a
I0310 17:21:06.705664  8311 net.cpp:157] Top shape: 8 128 28 28 (802816)
I0310 17:21:06.705683  8311 net.cpp:165] Memory required for data: 958563296
I0310 17:21:06.705713  8311 layer_factory.hpp:77] Creating layer scale3a_branch2a
I0310 17:21:06.705739  8311 net.cpp:106] Creating Layer scale3a_branch2a
I0310 17:21:06.705759  8311 net.cpp:454] scale3a_branch2a <- res3a_branch2a
I0310 17:21:06.705781  8311 net.cpp:397] scale3a_branch2a -> res3a_branch2a (in-place)
I0310 17:21:06.705895  8311 layer_factory.hpp:77] Creating layer scale3a_branch2a
I0310 17:21:06.706152  8311 net.cpp:150] Setting up scale3a_branch2a
I0310 17:21:06.706187  8311 net.cpp:157] Top shape: 8 128 28 28 (802816)
I0310 17:21:06.706205  8311 net.cpp:165] Memory required for data: 961774560
I0310 17:21:06.706230  8311 layer_factory.hpp:77] Creating layer res3a_branch2a_relu
I0310 17:21:06.706260  8311 net.cpp:106] Creating Layer res3a_branch2a_relu
I0310 17:21:06.706281  8311 net.cpp:454] res3a_branch2a_relu <- res3a_branch2a
I0310 17:21:06.706305  8311 net.cpp:397] res3a_branch2a_relu -> res3a_branch2a (in-place)
I0310 17:21:06.706331  8311 net.cpp:150] Setting up res3a_branch2a_relu
I0310 17:21:06.706352  8311 net.cpp:157] Top shape: 8 128 28 28 (802816)
I0310 17:21:06.706370  8311 net.cpp:165] Memory required for data: 964985824
I0310 17:21:06.706388  8311 layer_factory.hpp:77] Creating layer res3a_branch2b
I0310 17:21:06.706421  8311 net.cpp:106] Creating Layer res3a_branch2b
I0310 17:21:06.706441  8311 net.cpp:454] res3a_branch2b <- res3a_branch2a
I0310 17:21:06.706480  8311 net.cpp:411] res3a_branch2b -> res3a_branch2b
I0310 17:21:06.708269  8311 net.cpp:150] Setting up res3a_branch2b
I0310 17:21:06.708312  8311 net.cpp:157] Top shape: 8 128 28 28 (802816)
I0310 17:21:06.708333  8311 net.cpp:165] Memory required for data: 968197088
I0310 17:21:06.708355  8311 layer_factory.hpp:77] Creating layer bn3a_branch2b
I0310 17:21:06.708380  8311 net.cpp:106] Creating Layer bn3a_branch2b
I0310 17:21:06.708431  8311 net.cpp:454] bn3a_branch2b <- res3a_branch2b
I0310 17:21:06.708454  8311 net.cpp:397] bn3a_branch2b -> res3a_branch2b (in-place)
I0310 17:21:06.708865  8311 net.cpp:150] Setting up bn3a_branch2b
I0310 17:21:06.708900  8311 net.cpp:157] Top shape: 8 128 28 28 (802816)
I0310 17:21:06.708919  8311 net.cpp:165] Memory required for data: 971408352
I0310 17:21:06.708948  8311 layer_factory.hpp:77] Creating layer scale3a_branch2b
I0310 17:21:06.708986  8311 net.cpp:106] Creating Layer scale3a_branch2b
I0310 17:21:06.709008  8311 net.cpp:454] scale3a_branch2b <- res3a_branch2b
I0310 17:21:06.709031  8311 net.cpp:397] scale3a_branch2b -> res3a_branch2b (in-place)
I0310 17:21:06.709143  8311 layer_factory.hpp:77] Creating layer scale3a_branch2b
I0310 17:21:06.709435  8311 net.cpp:150] Setting up scale3a_branch2b
I0310 17:21:06.709473  8311 net.cpp:157] Top shape: 8 128 28 28 (802816)
I0310 17:21:06.709491  8311 net.cpp:165] Memory required for data: 974619616
I0310 17:21:06.709517  8311 layer_factory.hpp:77] Creating layer res3a_branch2b_relu
I0310 17:21:06.709564  8311 net.cpp:106] Creating Layer res3a_branch2b_relu
I0310 17:21:06.709586  8311 net.cpp:454] res3a_branch2b_relu <- res3a_branch2b
I0310 17:21:06.709615  8311 net.cpp:397] res3a_branch2b_relu -> res3a_branch2b (in-place)
I0310 17:21:06.709642  8311 net.cpp:150] Setting up res3a_branch2b_relu
I0310 17:21:06.709664  8311 net.cpp:157] Top shape: 8 128 28 28 (802816)
I0310 17:21:06.709682  8311 net.cpp:165] Memory required for data: 977830880
I0310 17:21:06.709700  8311 layer_factory.hpp:77] Creating layer res3a_branch2c
I0310 17:21:06.709728  8311 net.cpp:106] Creating Layer res3a_branch2c
I0310 17:21:06.709746  8311 net.cpp:454] res3a_branch2c <- res3a_branch2b
I0310 17:21:06.709775  8311 net.cpp:411] res3a_branch2c -> res3a_branch2c
I0310 17:21:06.710278  8311 net.cpp:150] Setting up res3a_branch2c
I0310 17:21:06.710321  8311 net.cpp:157] Top shape: 8 512 28 28 (3211264)
I0310 17:21:06.710341  8311 net.cpp:165] Memory required for data: 990675936
I0310 17:21:06.710364  8311 layer_factory.hpp:77] Creating layer bn3a_branch2c
I0310 17:21:06.710389  8311 net.cpp:106] Creating Layer bn3a_branch2c
I0310 17:21:06.710409  8311 net.cpp:454] bn3a_branch2c <- res3a_branch2c
I0310 17:21:06.710431  8311 net.cpp:397] bn3a_branch2c -> res3a_branch2c (in-place)
I0310 17:21:06.710826  8311 net.cpp:150] Setting up bn3a_branch2c
I0310 17:21:06.710860  8311 net.cpp:157] Top shape: 8 512 28 28 (3211264)
I0310 17:21:06.710877  8311 net.cpp:165] Memory required for data: 1003520992
I0310 17:21:06.710906  8311 layer_factory.hpp:77] Creating layer scale3a_branch2c
I0310 17:21:06.710937  8311 net.cpp:106] Creating Layer scale3a_branch2c
I0310 17:21:06.710958  8311 net.cpp:454] scale3a_branch2c <- res3a_branch2c
I0310 17:21:06.710980  8311 net.cpp:397] scale3a_branch2c -> res3a_branch2c (in-place)
I0310 17:21:06.711091  8311 layer_factory.hpp:77] Creating layer scale3a_branch2c
I0310 17:21:06.711357  8311 net.cpp:150] Setting up scale3a_branch2c
I0310 17:21:06.711392  8311 net.cpp:157] Top shape: 8 512 28 28 (3211264)
I0310 17:21:06.711410  8311 net.cpp:165] Memory required for data: 1016366048
I0310 17:21:06.711436  8311 layer_factory.hpp:77] Creating layer res3a
I0310 17:21:06.711460  8311 net.cpp:106] Creating Layer res3a
I0310 17:21:06.711479  8311 net.cpp:454] res3a <- res3a_branch1
I0310 17:21:06.711500  8311 net.cpp:454] res3a <- res3a_branch2c
I0310 17:21:06.711529  8311 net.cpp:411] res3a -> res3a
I0310 17:21:06.711596  8311 net.cpp:150] Setting up res3a
I0310 17:21:06.711632  8311 net.cpp:157] Top shape: 8 512 28 28 (3211264)
I0310 17:21:06.711663  8311 net.cpp:165] Memory required for data: 1029211104
I0310 17:21:06.711704  8311 layer_factory.hpp:77] Creating layer res3a_relu
I0310 17:21:06.711729  8311 net.cpp:106] Creating Layer res3a_relu
I0310 17:21:06.711748  8311 net.cpp:454] res3a_relu <- res3a
I0310 17:21:06.711771  8311 net.cpp:397] res3a_relu -> res3a (in-place)
I0310 17:21:06.711796  8311 net.cpp:150] Setting up res3a_relu
I0310 17:21:06.711819  8311 net.cpp:157] Top shape: 8 512 28 28 (3211264)
I0310 17:21:06.711836  8311 net.cpp:165] Memory required for data: 1042056160
I0310 17:21:06.711854  8311 layer_factory.hpp:77] Creating layer res3a_res3a_relu_0_split
I0310 17:21:06.711876  8311 net.cpp:106] Creating Layer res3a_res3a_relu_0_split
I0310 17:21:06.711894  8311 net.cpp:454] res3a_res3a_relu_0_split <- res3a
I0310 17:21:06.711922  8311 net.cpp:411] res3a_res3a_relu_0_split -> res3a_res3a_relu_0_split_0
I0310 17:21:06.711951  8311 net.cpp:411] res3a_res3a_relu_0_split -> res3a_res3a_relu_0_split_1
I0310 17:21:06.712038  8311 net.cpp:150] Setting up res3a_res3a_relu_0_split
I0310 17:21:06.712069  8311 net.cpp:157] Top shape: 8 512 28 28 (3211264)
I0310 17:21:06.712090  8311 net.cpp:157] Top shape: 8 512 28 28 (3211264)
I0310 17:21:06.712107  8311 net.cpp:165] Memory required for data: 1067746272
I0310 17:21:06.712126  8311 layer_factory.hpp:77] Creating layer res3b1_branch2a
I0310 17:21:06.712157  8311 net.cpp:106] Creating Layer res3b1_branch2a
I0310 17:21:06.712178  8311 net.cpp:454] res3b1_branch2a <- res3a_res3a_relu_0_split_0
I0310 17:21:06.712204  8311 net.cpp:411] res3b1_branch2a -> res3b1_branch2a
I0310 17:21:06.713824  8311 net.cpp:150] Setting up res3b1_branch2a
I0310 17:21:06.713870  8311 net.cpp:157] Top shape: 8 128 28 28 (802816)
I0310 17:21:06.713888  8311 net.cpp:165] Memory required for data: 1070957536
I0310 17:21:06.713912  8311 layer_factory.hpp:77] Creating layer bn3b1_branch2a
I0310 17:21:06.713948  8311 net.cpp:106] Creating Layer bn3b1_branch2a
I0310 17:21:06.713971  8311 net.cpp:454] bn3b1_branch2a <- res3b1_branch2a
I0310 17:21:06.713994  8311 net.cpp:397] bn3b1_branch2a -> res3b1_branch2a (in-place)
I0310 17:21:06.714402  8311 net.cpp:150] Setting up bn3b1_branch2a
I0310 17:21:06.714435  8311 net.cpp:157] Top shape: 8 128 28 28 (802816)
I0310 17:21:06.714454  8311 net.cpp:165] Memory required for data: 1074168800
I0310 17:21:06.714484  8311 layer_factory.hpp:77] Creating layer scale3b1_branch2a
I0310 17:21:06.714510  8311 net.cpp:106] Creating Layer scale3b1_branch2a
I0310 17:21:06.714530  8311 net.cpp:454] scale3b1_branch2a <- res3b1_branch2a
I0310 17:21:06.714560  8311 net.cpp:397] scale3b1_branch2a -> res3b1_branch2a (in-place)
I0310 17:21:06.714661  8311 layer_factory.hpp:77] Creating layer scale3b1_branch2a
I0310 17:21:06.714936  8311 net.cpp:150] Setting up scale3b1_branch2a
I0310 17:21:06.714972  8311 net.cpp:157] Top shape: 8 128 28 28 (802816)
I0310 17:21:06.714989  8311 net.cpp:165] Memory required for data: 1077380064
I0310 17:21:06.715014  8311 layer_factory.hpp:77] Creating layer res3b1_branch2a_relu
I0310 17:21:06.715039  8311 net.cpp:106] Creating Layer res3b1_branch2a_relu
I0310 17:21:06.715057  8311 net.cpp:454] res3b1_branch2a_relu <- res3b1_branch2a
I0310 17:21:06.715080  8311 net.cpp:397] res3b1_branch2a_relu -> res3b1_branch2a (in-place)
I0310 17:21:06.715106  8311 net.cpp:150] Setting up res3b1_branch2a_relu
I0310 17:21:06.715128  8311 net.cpp:157] Top shape: 8 128 28 28 (802816)
I0310 17:21:06.715145  8311 net.cpp:165] Memory required for data: 1080591328
I0310 17:21:06.715163  8311 layer_factory.hpp:77] Creating layer res3b1_branch2b
I0310 17:21:06.715195  8311 net.cpp:106] Creating Layer res3b1_branch2b
I0310 17:21:06.715216  8311 net.cpp:454] res3b1_branch2b <- res3b1_branch2a
I0310 17:21:06.715245  8311 net.cpp:411] res3b1_branch2b -> res3b1_branch2b
I0310 17:21:06.716971  8311 net.cpp:150] Setting up res3b1_branch2b
I0310 17:21:06.717015  8311 net.cpp:157] Top shape: 8 128 28 28 (802816)
I0310 17:21:06.717034  8311 net.cpp:165] Memory required for data: 1083802592
I0310 17:21:06.717070  8311 layer_factory.hpp:77] Creating layer bn3b1_branch2b
I0310 17:21:06.717123  8311 net.cpp:106] Creating Layer bn3b1_branch2b
I0310 17:21:06.717145  8311 net.cpp:454] bn3b1_branch2b <- res3b1_branch2b
I0310 17:21:06.717169  8311 net.cpp:397] bn3b1_branch2b -> res3b1_branch2b (in-place)
I0310 17:21:06.717598  8311 net.cpp:150] Setting up bn3b1_branch2b
I0310 17:21:06.717635  8311 net.cpp:157] Top shape: 8 128 28 28 (802816)
I0310 17:21:06.717654  8311 net.cpp:165] Memory required for data: 1087013856
I0310 17:21:06.717684  8311 layer_factory.hpp:77] Creating layer scale3b1_branch2b
I0310 17:21:06.717710  8311 net.cpp:106] Creating Layer scale3b1_branch2b
I0310 17:21:06.717730  8311 net.cpp:454] scale3b1_branch2b <- res3b1_branch2b
I0310 17:21:06.717751  8311 net.cpp:397] scale3b1_branch2b -> res3b1_branch2b (in-place)
I0310 17:21:06.717861  8311 layer_factory.hpp:77] Creating layer scale3b1_branch2b
I0310 17:21:06.718127  8311 net.cpp:150] Setting up scale3b1_branch2b
I0310 17:21:06.718160  8311 net.cpp:157] Top shape: 8 128 28 28 (802816)
I0310 17:21:06.718179  8311 net.cpp:165] Memory required for data: 1090225120
I0310 17:21:06.718204  8311 layer_factory.hpp:77] Creating layer res3b1_branch2b_relu
I0310 17:21:06.718233  8311 net.cpp:106] Creating Layer res3b1_branch2b_relu
I0310 17:21:06.718255  8311 net.cpp:454] res3b1_branch2b_relu <- res3b1_branch2b
I0310 17:21:06.718277  8311 net.cpp:397] res3b1_branch2b_relu -> res3b1_branch2b (in-place)
I0310 17:21:06.718303  8311 net.cpp:150] Setting up res3b1_branch2b_relu
I0310 17:21:06.718327  8311 net.cpp:157] Top shape: 8 128 28 28 (802816)
I0310 17:21:06.718343  8311 net.cpp:165] Memory required for data: 1093436384
I0310 17:21:06.718361  8311 layer_factory.hpp:77] Creating layer res3b1_branch2c
I0310 17:21:06.718399  8311 net.cpp:106] Creating Layer res3b1_branch2c
I0310 17:21:06.718420  8311 net.cpp:454] res3b1_branch2c <- res3b1_branch2b
I0310 17:21:06.718443  8311 net.cpp:411] res3b1_branch2c -> res3b1_branch2c
I0310 17:21:06.718955  8311 net.cpp:150] Setting up res3b1_branch2c
I0310 17:21:06.718992  8311 net.cpp:157] Top shape: 8 512 28 28 (3211264)
I0310 17:21:06.719012  8311 net.cpp:165] Memory required for data: 1106281440
I0310 17:21:06.719034  8311 layer_factory.hpp:77] Creating layer bn3b1_branch2c
I0310 17:21:06.719065  8311 net.cpp:106] Creating Layer bn3b1_branch2c
I0310 17:21:06.719086  8311 net.cpp:454] bn3b1_branch2c <- res3b1_branch2c
I0310 17:21:06.719110  8311 net.cpp:397] bn3b1_branch2c -> res3b1_branch2c (in-place)
I0310 17:21:06.719518  8311 net.cpp:150] Setting up bn3b1_branch2c
I0310 17:21:06.719552  8311 net.cpp:157] Top shape: 8 512 28 28 (3211264)
I0310 17:21:06.719570  8311 net.cpp:165] Memory required for data: 1119126496
I0310 17:21:06.719599  8311 layer_factory.hpp:77] Creating layer scale3b1_branch2c
I0310 17:21:06.719630  8311 net.cpp:106] Creating Layer scale3b1_branch2c
I0310 17:21:06.719650  8311 net.cpp:454] scale3b1_branch2c <- res3b1_branch2c
I0310 17:21:06.719673  8311 net.cpp:397] scale3b1_branch2c -> res3b1_branch2c (in-place)
I0310 17:21:06.719785  8311 layer_factory.hpp:77] Creating layer scale3b1_branch2c
I0310 17:21:06.720049  8311 net.cpp:150] Setting up scale3b1_branch2c
I0310 17:21:06.720083  8311 net.cpp:157] Top shape: 8 512 28 28 (3211264)
I0310 17:21:06.720101  8311 net.cpp:165] Memory required for data: 1131971552
I0310 17:21:06.720126  8311 layer_factory.hpp:77] Creating layer res3b1
I0310 17:21:06.720151  8311 net.cpp:106] Creating Layer res3b1
I0310 17:21:06.720171  8311 net.cpp:454] res3b1 <- res3a_res3a_relu_0_split_1
I0310 17:21:06.720192  8311 net.cpp:454] res3b1 <- res3b1_branch2c
I0310 17:21:06.720216  8311 net.cpp:411] res3b1 -> res3b1
I0310 17:21:06.720290  8311 net.cpp:150] Setting up res3b1
I0310 17:21:06.720321  8311 net.cpp:157] Top shape: 8 512 28 28 (3211264)
I0310 17:21:06.720347  8311 net.cpp:165] Memory required for data: 1144816608
I0310 17:21:06.720366  8311 layer_factory.hpp:77] Creating layer res3b1_relu
I0310 17:21:06.720388  8311 net.cpp:106] Creating Layer res3b1_relu
I0310 17:21:06.720422  8311 net.cpp:454] res3b1_relu <- res3b1
I0310 17:21:06.720463  8311 net.cpp:397] res3b1_relu -> res3b1 (in-place)
I0310 17:21:06.720490  8311 net.cpp:150] Setting up res3b1_relu
I0310 17:21:06.720513  8311 net.cpp:157] Top shape: 8 512 28 28 (3211264)
I0310 17:21:06.720530  8311 net.cpp:165] Memory required for data: 1157661664
I0310 17:21:06.720548  8311 layer_factory.hpp:77] Creating layer res3b1_res3b1_relu_0_split
I0310 17:21:06.720569  8311 net.cpp:106] Creating Layer res3b1_res3b1_relu_0_split
I0310 17:21:06.720587  8311 net.cpp:454] res3b1_res3b1_relu_0_split <- res3b1
I0310 17:21:06.720615  8311 net.cpp:411] res3b1_res3b1_relu_0_split -> res3b1_res3b1_relu_0_split_0
I0310 17:21:06.720643  8311 net.cpp:411] res3b1_res3b1_relu_0_split -> res3b1_res3b1_relu_0_split_1
I0310 17:21:06.720733  8311 net.cpp:150] Setting up res3b1_res3b1_relu_0_split
I0310 17:21:06.720763  8311 net.cpp:157] Top shape: 8 512 28 28 (3211264)
I0310 17:21:06.720784  8311 net.cpp:157] Top shape: 8 512 28 28 (3211264)
I0310 17:21:06.720801  8311 net.cpp:165] Memory required for data: 1183351776
I0310 17:21:06.720819  8311 layer_factory.hpp:77] Creating layer res3b2_branch2a
I0310 17:21:06.720852  8311 net.cpp:106] Creating Layer res3b2_branch2a
I0310 17:21:06.720875  8311 net.cpp:454] res3b2_branch2a <- res3b1_res3b1_relu_0_split_0
I0310 17:21:06.720898  8311 net.cpp:411] res3b2_branch2a -> res3b2_branch2a
I0310 17:21:06.721405  8311 net.cpp:150] Setting up res3b2_branch2a
I0310 17:21:06.721446  8311 net.cpp:157] Top shape: 8 128 28 28 (802816)
I0310 17:21:06.721463  8311 net.cpp:165] Memory required for data: 1186563040
I0310 17:21:06.721487  8311 layer_factory.hpp:77] Creating layer bn3b2_branch2a
I0310 17:21:06.721511  8311 net.cpp:106] Creating Layer bn3b2_branch2a
I0310 17:21:06.721531  8311 net.cpp:454] bn3b2_branch2a <- res3b2_branch2a
I0310 17:21:06.721554  8311 net.cpp:397] bn3b2_branch2a -> res3b2_branch2a (in-place)
I0310 17:21:06.721966  8311 net.cpp:150] Setting up bn3b2_branch2a
I0310 17:21:06.722008  8311 net.cpp:157] Top shape: 8 128 28 28 (802816)
I0310 17:21:06.722028  8311 net.cpp:165] Memory required for data: 1189774304
I0310 17:21:06.722057  8311 layer_factory.hpp:77] Creating layer scale3b2_branch2a
I0310 17:21:06.722082  8311 net.cpp:106] Creating Layer scale3b2_branch2a
I0310 17:21:06.722102  8311 net.cpp:454] scale3b2_branch2a <- res3b2_branch2a
I0310 17:21:06.722124  8311 net.cpp:397] scale3b2_branch2a -> res3b2_branch2a (in-place)
I0310 17:21:06.722237  8311 layer_factory.hpp:77] Creating layer scale3b2_branch2a
I0310 17:21:06.722503  8311 net.cpp:150] Setting up scale3b2_branch2a
I0310 17:21:06.722537  8311 net.cpp:157] Top shape: 8 128 28 28 (802816)
I0310 17:21:06.722555  8311 net.cpp:165] Memory required for data: 1192985568
I0310 17:21:06.722581  8311 layer_factory.hpp:77] Creating layer res3b2_branch2a_relu
I0310 17:21:06.722615  8311 net.cpp:106] Creating Layer res3b2_branch2a_relu
I0310 17:21:06.722637  8311 net.cpp:454] res3b2_branch2a_relu <- res3b2_branch2a
I0310 17:21:06.722661  8311 net.cpp:397] res3b2_branch2a_relu -> res3b2_branch2a (in-place)
I0310 17:21:06.722685  8311 net.cpp:150] Setting up res3b2_branch2a_relu
I0310 17:21:06.722708  8311 net.cpp:157] Top shape: 8 128 28 28 (802816)
I0310 17:21:06.722725  8311 net.cpp:165] Memory required for data: 1196196832
I0310 17:21:06.722743  8311 layer_factory.hpp:77] Creating layer res3b2_branch2b
I0310 17:21:06.722775  8311 net.cpp:106] Creating Layer res3b2_branch2b
I0310 17:21:06.722795  8311 net.cpp:454] res3b2_branch2b <- res3b2_branch2a
I0310 17:21:06.722818  8311 net.cpp:411] res3b2_branch2b -> res3b2_branch2b
I0310 17:21:06.724534  8311 net.cpp:150] Setting up res3b2_branch2b
I0310 17:21:06.724577  8311 net.cpp:157] Top shape: 8 128 28 28 (802816)
I0310 17:21:06.724596  8311 net.cpp:165] Memory required for data: 1199408096
I0310 17:21:06.724620  8311 layer_factory.hpp:77] Creating layer bn3b2_branch2b
I0310 17:21:06.724645  8311 net.cpp:106] Creating Layer bn3b2_branch2b
I0310 17:21:06.724666  8311 net.cpp:454] bn3b2_branch2b <- res3b2_branch2b
I0310 17:21:06.724702  8311 net.cpp:397] bn3b2_branch2b -> res3b2_branch2b (in-place)
I0310 17:21:06.725142  8311 net.cpp:150] Setting up bn3b2_branch2b
I0310 17:21:06.725178  8311 net.cpp:157] Top shape: 8 128 28 28 (802816)
I0310 17:21:06.725196  8311 net.cpp:165] Memory required for data: 1202619360
I0310 17:21:06.725226  8311 layer_factory.hpp:77] Creating layer scale3b2_branch2b
I0310 17:21:06.725271  8311 net.cpp:106] Creating Layer scale3b2_branch2b
I0310 17:21:06.725296  8311 net.cpp:454] scale3b2_branch2b <- res3b2_branch2b
I0310 17:21:06.725320  8311 net.cpp:397] scale3b2_branch2b -> res3b2_branch2b (in-place)
I0310 17:21:06.725433  8311 layer_factory.hpp:77] Creating layer scale3b2_branch2b
I0310 17:21:06.725703  8311 net.cpp:150] Setting up scale3b2_branch2b
I0310 17:21:06.725736  8311 net.cpp:157] Top shape: 8 128 28 28 (802816)
I0310 17:21:06.725754  8311 net.cpp:165] Memory required for data: 1205830624
I0310 17:21:06.725780  8311 layer_factory.hpp:77] Creating layer res3b2_branch2b_relu
I0310 17:21:06.725803  8311 net.cpp:106] Creating Layer res3b2_branch2b_relu
I0310 17:21:06.725823  8311 net.cpp:454] res3b2_branch2b_relu <- res3b2_branch2b
I0310 17:21:06.725850  8311 net.cpp:397] res3b2_branch2b_relu -> res3b2_branch2b (in-place)
I0310 17:21:06.725877  8311 net.cpp:150] Setting up res3b2_branch2b_relu
I0310 17:21:06.725899  8311 net.cpp:157] Top shape: 8 128 28 28 (802816)
I0310 17:21:06.725916  8311 net.cpp:165] Memory required for data: 1209041888
I0310 17:21:06.725934  8311 layer_factory.hpp:77] Creating layer res3b2_branch2c
I0310 17:21:06.725965  8311 net.cpp:106] Creating Layer res3b2_branch2c
I0310 17:21:06.725986  8311 net.cpp:454] res3b2_branch2c <- res3b2_branch2b
I0310 17:21:06.726011  8311 net.cpp:411] res3b2_branch2c -> res3b2_branch2c
I0310 17:21:06.726486  8311 net.cpp:150] Setting up res3b2_branch2c
I0310 17:21:06.726523  8311 net.cpp:157] Top shape: 8 512 28 28 (3211264)
I0310 17:21:06.726541  8311 net.cpp:165] Memory required for data: 1221886944
I0310 17:21:06.726564  8311 layer_factory.hpp:77] Creating layer bn3b2_branch2c
I0310 17:21:06.726588  8311 net.cpp:106] Creating Layer bn3b2_branch2c
I0310 17:21:06.726608  8311 net.cpp:454] bn3b2_branch2c <- res3b2_branch2c
I0310 17:21:06.726630  8311 net.cpp:397] bn3b2_branch2c -> res3b2_branch2c (in-place)
I0310 17:21:06.727041  8311 net.cpp:150] Setting up bn3b2_branch2c
I0310 17:21:06.727073  8311 net.cpp:157] Top shape: 8 512 28 28 (3211264)
I0310 17:21:06.727092  8311 net.cpp:165] Memory required for data: 1234732000
I0310 17:21:06.727121  8311 layer_factory.hpp:77] Creating layer scale3b2_branch2c
I0310 17:21:06.727151  8311 net.cpp:106] Creating Layer scale3b2_branch2c
I0310 17:21:06.727172  8311 net.cpp:454] scale3b2_branch2c <- res3b2_branch2c
I0310 17:21:06.727195  8311 net.cpp:397] scale3b2_branch2c -> res3b2_branch2c (in-place)
I0310 17:21:06.727315  8311 layer_factory.hpp:77] Creating layer scale3b2_branch2c
I0310 17:21:06.727581  8311 net.cpp:150] Setting up scale3b2_branch2c
I0310 17:21:06.727614  8311 net.cpp:157] Top shape: 8 512 28 28 (3211264)
I0310 17:21:06.727632  8311 net.cpp:165] Memory required for data: 1247577056
I0310 17:21:06.727658  8311 layer_factory.hpp:77] Creating layer res3b2
I0310 17:21:06.727687  8311 net.cpp:106] Creating Layer res3b2
I0310 17:21:06.727708  8311 net.cpp:454] res3b2 <- res3b1_res3b1_relu_0_split_1
I0310 17:21:06.727730  8311 net.cpp:454] res3b2 <- res3b2_branch2c
I0310 17:21:06.727753  8311 net.cpp:411] res3b2 -> res3b2
I0310 17:21:06.727829  8311 net.cpp:150] Setting up res3b2
I0310 17:21:06.727859  8311 net.cpp:157] Top shape: 8 512 28 28 (3211264)
I0310 17:21:06.727877  8311 net.cpp:165] Memory required for data: 1260422112
I0310 17:21:06.727895  8311 layer_factory.hpp:77] Creating layer res3b2_relu
I0310 17:21:06.727917  8311 net.cpp:106] Creating Layer res3b2_relu
I0310 17:21:06.727937  8311 net.cpp:454] res3b2_relu <- res3b2
I0310 17:21:06.727967  8311 net.cpp:397] res3b2_relu -> res3b2 (in-place)
I0310 17:21:06.727993  8311 net.cpp:150] Setting up res3b2_relu
I0310 17:21:06.728027  8311 net.cpp:157] Top shape: 8 512 28 28 (3211264)
I0310 17:21:06.728063  8311 net.cpp:165] Memory required for data: 1273267168
I0310 17:21:06.728083  8311 layer_factory.hpp:77] Creating layer res3b2_res3b2_relu_0_split
I0310 17:21:06.728106  8311 net.cpp:106] Creating Layer res3b2_res3b2_relu_0_split
I0310 17:21:06.728126  8311 net.cpp:454] res3b2_res3b2_relu_0_split <- res3b2
I0310 17:21:06.728147  8311 net.cpp:411] res3b2_res3b2_relu_0_split -> res3b2_res3b2_relu_0_split_0
I0310 17:21:06.728174  8311 net.cpp:411] res3b2_res3b2_relu_0_split -> res3b2_res3b2_relu_0_split_1
I0310 17:21:06.728278  8311 net.cpp:150] Setting up res3b2_res3b2_relu_0_split
I0310 17:21:06.728309  8311 net.cpp:157] Top shape: 8 512 28 28 (3211264)
I0310 17:21:06.728330  8311 net.cpp:157] Top shape: 8 512 28 28 (3211264)
I0310 17:21:06.728348  8311 net.cpp:165] Memory required for data: 1298957280
I0310 17:21:06.728365  8311 layer_factory.hpp:77] Creating layer res3b3_branch2a
I0310 17:21:06.728392  8311 net.cpp:106] Creating Layer res3b3_branch2a
I0310 17:21:06.728413  8311 net.cpp:454] res3b3_branch2a <- res3b2_res3b2_relu_0_split_0
I0310 17:21:06.728437  8311 net.cpp:411] res3b3_branch2a -> res3b3_branch2a
I0310 17:21:06.730063  8311 net.cpp:150] Setting up res3b3_branch2a
I0310 17:21:06.730108  8311 net.cpp:157] Top shape: 8 128 28 28 (802816)
I0310 17:21:06.730128  8311 net.cpp:165] Memory required for data: 1302168544
I0310 17:21:06.730151  8311 layer_factory.hpp:77] Creating layer bn3b3_branch2a
I0310 17:21:06.730176  8311 net.cpp:106] Creating Layer bn3b3_branch2a
I0310 17:21:06.730196  8311 net.cpp:454] bn3b3_branch2a <- res3b3_branch2a
I0310 17:21:06.730219  8311 net.cpp:397] bn3b3_branch2a -> res3b3_branch2a (in-place)
I0310 17:21:06.730638  8311 net.cpp:150] Setting up bn3b3_branch2a
I0310 17:21:06.730671  8311 net.cpp:157] Top shape: 8 128 28 28 (802816)
I0310 17:21:06.730690  8311 net.cpp:165] Memory required for data: 1305379808
I0310 17:21:06.730756  8311 layer_factory.hpp:77] Creating layer scale3b3_branch2a
I0310 17:21:06.730794  8311 net.cpp:106] Creating Layer scale3b3_branch2a
I0310 17:21:06.730816  8311 net.cpp:454] scale3b3_branch2a <- res3b3_branch2a
I0310 17:21:06.730840  8311 net.cpp:397] scale3b3_branch2a -> res3b3_branch2a (in-place)
I0310 17:21:06.730957  8311 layer_factory.hpp:77] Creating layer scale3b3_branch2a
I0310 17:21:06.731233  8311 net.cpp:150] Setting up scale3b3_branch2a
I0310 17:21:06.731268  8311 net.cpp:157] Top shape: 8 128 28 28 (802816)
I0310 17:21:06.731287  8311 net.cpp:165] Memory required for data: 1308591072
I0310 17:21:06.731312  8311 layer_factory.hpp:77] Creating layer res3b3_branch2a_relu
I0310 17:21:06.731335  8311 net.cpp:106] Creating Layer res3b3_branch2a_relu
I0310 17:21:06.731355  8311 net.cpp:454] res3b3_branch2a_relu <- res3b3_branch2a
I0310 17:21:06.731377  8311 net.cpp:397] res3b3_branch2a_relu -> res3b3_branch2a (in-place)
I0310 17:21:06.731402  8311 net.cpp:150] Setting up res3b3_branch2a_relu
I0310 17:21:06.731425  8311 net.cpp:157] Top shape: 8 128 28 28 (802816)
I0310 17:21:06.731441  8311 net.cpp:165] Memory required for data: 1311802336
I0310 17:21:06.731459  8311 layer_factory.hpp:77] Creating layer res3b3_branch2b
I0310 17:21:06.731492  8311 net.cpp:106] Creating Layer res3b3_branch2b
I0310 17:21:06.731511  8311 net.cpp:454] res3b3_branch2b <- res3b3_branch2a
I0310 17:21:06.731540  8311 net.cpp:411] res3b3_branch2b -> res3b3_branch2b
I0310 17:21:06.733314  8311 net.cpp:150] Setting up res3b3_branch2b
I0310 17:21:06.733358  8311 net.cpp:157] Top shape: 8 128 28 28 (802816)
I0310 17:21:06.733377  8311 net.cpp:165] Memory required for data: 1315013600
I0310 17:21:06.733402  8311 layer_factory.hpp:77] Creating layer bn3b3_branch2b
I0310 17:21:06.733431  8311 net.cpp:106] Creating Layer bn3b3_branch2b
I0310 17:21:06.733453  8311 net.cpp:454] bn3b3_branch2b <- res3b3_branch2b
I0310 17:21:06.733476  8311 net.cpp:397] bn3b3_branch2b -> res3b3_branch2b (in-place)
I0310 17:21:06.733892  8311 net.cpp:150] Setting up bn3b3_branch2b
I0310 17:21:06.733942  8311 net.cpp:157] Top shape: 8 128 28 28 (802816)
I0310 17:21:06.733979  8311 net.cpp:165] Memory required for data: 1318224864
I0310 17:21:06.734010  8311 layer_factory.hpp:77] Creating layer scale3b3_branch2b
I0310 17:21:06.734036  8311 net.cpp:106] Creating Layer scale3b3_branch2b
I0310 17:21:06.734056  8311 net.cpp:454] scale3b3_branch2b <- res3b3_branch2b
I0310 17:21:06.734079  8311 net.cpp:397] scale3b3_branch2b -> res3b3_branch2b (in-place)
I0310 17:21:06.734191  8311 layer_factory.hpp:77] Creating layer scale3b3_branch2b
I0310 17:21:06.734462  8311 net.cpp:150] Setting up scale3b3_branch2b
I0310 17:21:06.734496  8311 net.cpp:157] Top shape: 8 128 28 28 (802816)
I0310 17:21:06.734515  8311 net.cpp:165] Memory required for data: 1321436128
I0310 17:21:06.734540  8311 layer_factory.hpp:77] Creating layer res3b3_branch2b_relu
I0310 17:21:06.734570  8311 net.cpp:106] Creating Layer res3b3_branch2b_relu
I0310 17:21:06.734591  8311 net.cpp:454] res3b3_branch2b_relu <- res3b3_branch2b
I0310 17:21:06.734612  8311 net.cpp:397] res3b3_branch2b_relu -> res3b3_branch2b (in-place)
I0310 17:21:06.734637  8311 net.cpp:150] Setting up res3b3_branch2b_relu
I0310 17:21:06.734660  8311 net.cpp:157] Top shape: 8 128 28 28 (802816)
I0310 17:21:06.734678  8311 net.cpp:165] Memory required for data: 1324647392
I0310 17:21:06.734695  8311 layer_factory.hpp:77] Creating layer res3b3_branch2c
I0310 17:21:06.734726  8311 net.cpp:106] Creating Layer res3b3_branch2c
I0310 17:21:06.734746  8311 net.cpp:454] res3b3_branch2c <- res3b3_branch2b
I0310 17:21:06.734771  8311 net.cpp:411] res3b3_branch2c -> res3b3_branch2c
I0310 17:21:06.735282  8311 net.cpp:150] Setting up res3b3_branch2c
I0310 17:21:06.735319  8311 net.cpp:157] Top shape: 8 512 28 28 (3211264)
I0310 17:21:06.735338  8311 net.cpp:165] Memory required for data: 1337492448
I0310 17:21:06.735361  8311 layer_factory.hpp:77] Creating layer bn3b3_branch2c
I0310 17:21:06.735394  8311 net.cpp:106] Creating Layer bn3b3_branch2c
I0310 17:21:06.735414  8311 net.cpp:454] bn3b3_branch2c <- res3b3_branch2c
I0310 17:21:06.735437  8311 net.cpp:397] bn3b3_branch2c -> res3b3_branch2c (in-place)
I0310 17:21:06.735851  8311 net.cpp:150] Setting up bn3b3_branch2c
I0310 17:21:06.735883  8311 net.cpp:157] Top shape: 8 512 28 28 (3211264)
I0310 17:21:06.735901  8311 net.cpp:165] Memory required for data: 1350337504
I0310 17:21:06.735930  8311 layer_factory.hpp:77] Creating layer scale3b3_branch2c
I0310 17:21:06.735961  8311 net.cpp:106] Creating Layer scale3b3_branch2c
I0310 17:21:06.735982  8311 net.cpp:454] scale3b3_branch2c <- res3b3_branch2c
I0310 17:21:06.736006  8311 net.cpp:397] scale3b3_branch2c -> res3b3_branch2c (in-place)
I0310 17:21:06.736119  8311 layer_factory.hpp:77] Creating layer scale3b3_branch2c
I0310 17:21:06.736394  8311 net.cpp:150] Setting up scale3b3_branch2c
I0310 17:21:06.736428  8311 net.cpp:157] Top shape: 8 512 28 28 (3211264)
I0310 17:21:06.736446  8311 net.cpp:165] Memory required for data: 1363182560
I0310 17:21:06.736471  8311 layer_factory.hpp:77] Creating layer res3b3
I0310 17:21:06.736495  8311 net.cpp:106] Creating Layer res3b3
I0310 17:21:06.736515  8311 net.cpp:454] res3b3 <- res3b2_res3b2_relu_0_split_1
I0310 17:21:06.736536  8311 net.cpp:454] res3b3 <- res3b3_branch2c
I0310 17:21:06.736558  8311 net.cpp:411] res3b3 -> res3b3
I0310 17:21:06.736632  8311 net.cpp:150] Setting up res3b3
I0310 17:21:06.736662  8311 net.cpp:157] Top shape: 8 512 28 28 (3211264)
I0310 17:21:06.736690  8311 net.cpp:165] Memory required for data: 1376027616
I0310 17:21:06.736708  8311 layer_factory.hpp:77] Creating layer res3b3_relu
I0310 17:21:06.736730  8311 net.cpp:106] Creating Layer res3b3_relu
I0310 17:21:06.736749  8311 net.cpp:454] res3b3_relu <- res3b3
I0310 17:21:06.736771  8311 net.cpp:397] res3b3_relu -> res3b3 (in-place)
I0310 17:21:06.736796  8311 net.cpp:150] Setting up res3b3_relu
I0310 17:21:06.736819  8311 net.cpp:157] Top shape: 8 512 28 28 (3211264)
I0310 17:21:06.736835  8311 net.cpp:165] Memory required for data: 1388872672
I0310 17:21:06.736853  8311 layer_factory.hpp:77] Creating layer res3b3_res3b3_relu_0_split
I0310 17:21:06.736904  8311 net.cpp:106] Creating Layer res3b3_res3b3_relu_0_split
I0310 17:21:06.736924  8311 net.cpp:454] res3b3_res3b3_relu_0_split <- res3b3
I0310 17:21:06.736953  8311 net.cpp:411] res3b3_res3b3_relu_0_split -> res3b3_res3b3_relu_0_split_0
I0310 17:21:06.736980  8311 net.cpp:411] res3b3_res3b3_relu_0_split -> res3b3_res3b3_relu_0_split_1
I0310 17:21:06.737072  8311 net.cpp:150] Setting up res3b3_res3b3_relu_0_split
I0310 17:21:06.737103  8311 net.cpp:157] Top shape: 8 512 28 28 (3211264)
I0310 17:21:06.737124  8311 net.cpp:157] Top shape: 8 512 28 28 (3211264)
I0310 17:21:06.737140  8311 net.cpp:165] Memory required for data: 1414562784
I0310 17:21:06.737159  8311 layer_factory.hpp:77] Creating layer res3b4_branch2a
I0310 17:21:06.737197  8311 net.cpp:106] Creating Layer res3b4_branch2a
I0310 17:21:06.737221  8311 net.cpp:454] res3b4_branch2a <- res3b3_res3b3_relu_0_split_0
I0310 17:21:06.737244  8311 net.cpp:411] res3b4_branch2a -> res3b4_branch2a
I0310 17:21:06.737759  8311 net.cpp:150] Setting up res3b4_branch2a
I0310 17:21:06.737797  8311 net.cpp:157] Top shape: 8 128 28 28 (802816)
I0310 17:21:06.737814  8311 net.cpp:165] Memory required for data: 1417774048
I0310 17:21:06.737838  8311 layer_factory.hpp:77] Creating layer bn3b4_branch2a
I0310 17:21:06.737862  8311 net.cpp:106] Creating Layer bn3b4_branch2a
I0310 17:21:06.737882  8311 net.cpp:454] bn3b4_branch2a <- res3b4_branch2a
I0310 17:21:06.737905  8311 net.cpp:397] bn3b4_branch2a -> res3b4_branch2a (in-place)
I0310 17:21:06.738314  8311 net.cpp:150] Setting up bn3b4_branch2a
I0310 17:21:06.738355  8311 net.cpp:157] Top shape: 8 128 28 28 (802816)
I0310 17:21:06.738374  8311 net.cpp:165] Memory required for data: 1420985312
I0310 17:21:06.738404  8311 layer_factory.hpp:77] Creating layer scale3b4_branch2a
I0310 17:21:06.738430  8311 net.cpp:106] Creating Layer scale3b4_branch2a
I0310 17:21:06.738451  8311 net.cpp:454] scale3b4_branch2a <- res3b4_branch2a
I0310 17:21:06.738472  8311 net.cpp:397] scale3b4_branch2a -> res3b4_branch2a (in-place)
I0310 17:21:06.738582  8311 layer_factory.hpp:77] Creating layer scale3b4_branch2a
I0310 17:21:06.738853  8311 net.cpp:150] Setting up scale3b4_branch2a
I0310 17:21:06.738888  8311 net.cpp:157] Top shape: 8 128 28 28 (802816)
I0310 17:21:06.738905  8311 net.cpp:165] Memory required for data: 1424196576
I0310 17:21:06.738930  8311 layer_factory.hpp:77] Creating layer res3b4_branch2a_relu
I0310 17:21:06.738960  8311 net.cpp:106] Creating Layer res3b4_branch2a_relu
I0310 17:21:06.738981  8311 net.cpp:454] res3b4_branch2a_relu <- res3b4_branch2a
I0310 17:21:06.739002  8311 net.cpp:397] res3b4_branch2a_relu -> res3b4_branch2a (in-place)
I0310 17:21:06.739028  8311 net.cpp:150] Setting up res3b4_branch2a_relu
I0310 17:21:06.739050  8311 net.cpp:157] Top shape: 8 128 28 28 (802816)
I0310 17:21:06.739068  8311 net.cpp:165] Memory required for data: 1427407840
I0310 17:21:06.739086  8311 layer_factory.hpp:77] Creating layer res3b4_branch2b
I0310 17:21:06.739117  8311 net.cpp:106] Creating Layer res3b4_branch2b
I0310 17:21:06.739137  8311 net.cpp:454] res3b4_branch2b <- res3b4_branch2a
I0310 17:21:06.739161  8311 net.cpp:411] res3b4_branch2b -> res3b4_branch2b
I0310 17:21:06.740972  8311 net.cpp:150] Setting up res3b4_branch2b
I0310 17:21:06.741016  8311 net.cpp:157] Top shape: 8 128 28 28 (802816)
I0310 17:21:06.741035  8311 net.cpp:165] Memory required for data: 1430619104
I0310 17:21:06.741060  8311 layer_factory.hpp:77] Creating layer bn3b4_branch2b
I0310 17:21:06.741086  8311 net.cpp:106] Creating Layer bn3b4_branch2b
I0310 17:21:06.741106  8311 net.cpp:454] bn3b4_branch2b <- res3b4_branch2b
I0310 17:21:06.741128  8311 net.cpp:397] bn3b4_branch2b -> res3b4_branch2b (in-place)
I0310 17:21:06.741566  8311 net.cpp:150] Setting up bn3b4_branch2b
I0310 17:21:06.741603  8311 net.cpp:157] Top shape: 8 128 28 28 (802816)
I0310 17:21:06.741622  8311 net.cpp:165] Memory required for data: 1433830368
I0310 17:21:06.741652  8311 layer_factory.hpp:77] Creating layer scale3b4_branch2b
I0310 17:21:06.741699  8311 net.cpp:106] Creating Layer scale3b4_branch2b
I0310 17:21:06.741741  8311 net.cpp:454] scale3b4_branch2b <- res3b4_branch2b
I0310 17:21:06.741766  8311 net.cpp:397] scale3b4_branch2b -> res3b4_branch2b (in-place)
I0310 17:21:06.741885  8311 layer_factory.hpp:77] Creating layer scale3b4_branch2b
I0310 17:21:06.742161  8311 net.cpp:150] Setting up scale3b4_branch2b
I0310 17:21:06.742194  8311 net.cpp:157] Top shape: 8 128 28 28 (802816)
I0310 17:21:06.742213  8311 net.cpp:165] Memory required for data: 1437041632
I0310 17:21:06.742239  8311 layer_factory.hpp:77] Creating layer res3b4_branch2b_relu
I0310 17:21:06.742264  8311 net.cpp:106] Creating Layer res3b4_branch2b_relu
I0310 17:21:06.742283  8311 net.cpp:454] res3b4_branch2b_relu <- res3b4_branch2b
I0310 17:21:06.742311  8311 net.cpp:397] res3b4_branch2b_relu -> res3b4_branch2b (in-place)
I0310 17:21:06.742338  8311 net.cpp:150] Setting up res3b4_branch2b_relu
I0310 17:21:06.742362  8311 net.cpp:157] Top shape: 8 128 28 28 (802816)
I0310 17:21:06.742378  8311 net.cpp:165] Memory required for data: 1440252896
I0310 17:21:06.742398  8311 layer_factory.hpp:77] Creating layer res3b4_branch2c
I0310 17:21:06.742429  8311 net.cpp:106] Creating Layer res3b4_branch2c
I0310 17:21:06.742449  8311 net.cpp:454] res3b4_branch2c <- res3b4_branch2b
I0310 17:21:06.742473  8311 net.cpp:411] res3b4_branch2c -> res3b4_branch2c
I0310 17:21:06.742959  8311 net.cpp:150] Setting up res3b4_branch2c
I0310 17:21:06.742996  8311 net.cpp:157] Top shape: 8 512 28 28 (3211264)
I0310 17:21:06.743015  8311 net.cpp:165] Memory required for data: 1453097952
I0310 17:21:06.743037  8311 layer_factory.hpp:77] Creating layer bn3b4_branch2c
I0310 17:21:06.743062  8311 net.cpp:106] Creating Layer bn3b4_branch2c
I0310 17:21:06.743083  8311 net.cpp:454] bn3b4_branch2c <- res3b4_branch2c
I0310 17:21:06.743104  8311 net.cpp:397] bn3b4_branch2c -> res3b4_branch2c (in-place)
I0310 17:21:06.743530  8311 net.cpp:150] Setting up bn3b4_branch2c
I0310 17:21:06.743564  8311 net.cpp:157] Top shape: 8 512 28 28 (3211264)
I0310 17:21:06.743583  8311 net.cpp:165] Memory required for data: 1465943008
I0310 17:21:06.743613  8311 layer_factory.hpp:77] Creating layer scale3b4_branch2c
I0310 17:21:06.743644  8311 net.cpp:106] Creating Layer scale3b4_branch2c
I0310 17:21:06.743665  8311 net.cpp:454] scale3b4_branch2c <- res3b4_branch2c
I0310 17:21:06.743688  8311 net.cpp:397] scale3b4_branch2c -> res3b4_branch2c (in-place)
I0310 17:21:06.743803  8311 layer_factory.hpp:77] Creating layer scale3b4_branch2c
I0310 17:21:06.744076  8311 net.cpp:150] Setting up scale3b4_branch2c
I0310 17:21:06.744110  8311 net.cpp:157] Top shape: 8 512 28 28 (3211264)
I0310 17:21:06.744128  8311 net.cpp:165] Memory required for data: 1478788064
I0310 17:21:06.744154  8311 layer_factory.hpp:77] Creating layer res3b4
I0310 17:21:06.744184  8311 net.cpp:106] Creating Layer res3b4
I0310 17:21:06.744204  8311 net.cpp:454] res3b4 <- res3b3_res3b3_relu_0_split_1
I0310 17:21:06.744225  8311 net.cpp:454] res3b4 <- res3b4_branch2c
I0310 17:21:06.744248  8311 net.cpp:411] res3b4 -> res3b4
I0310 17:21:06.744323  8311 net.cpp:150] Setting up res3b4
I0310 17:21:06.744354  8311 net.cpp:157] Top shape: 8 512 28 28 (3211264)
I0310 17:21:06.744372  8311 net.cpp:165] Memory required for data: 1491633120
I0310 17:21:06.744390  8311 layer_factory.hpp:77] Creating layer res3b4_relu
I0310 17:21:06.744412  8311 net.cpp:106] Creating Layer res3b4_relu
I0310 17:21:06.744431  8311 net.cpp:454] res3b4_relu <- res3b4
I0310 17:21:06.744462  8311 net.cpp:397] res3b4_relu -> res3b4 (in-place)
I0310 17:21:06.744488  8311 net.cpp:150] Setting up res3b4_relu
I0310 17:21:06.744510  8311 net.cpp:157] Top shape: 8 512 28 28 (3211264)
I0310 17:21:06.744527  8311 net.cpp:165] Memory required for data: 1504478176
I0310 17:21:06.744545  8311 layer_factory.hpp:77] Creating layer res3b4_res3b4_relu_0_split
I0310 17:21:06.744568  8311 net.cpp:106] Creating Layer res3b4_res3b4_relu_0_split
I0310 17:21:06.744586  8311 net.cpp:454] res3b4_res3b4_relu_0_split <- res3b4
I0310 17:21:06.744621  8311 net.cpp:411] res3b4_res3b4_relu_0_split -> res3b4_res3b4_relu_0_split_0
I0310 17:21:06.744668  8311 net.cpp:411] res3b4_res3b4_relu_0_split -> res3b4_res3b4_relu_0_split_1
I0310 17:21:06.744768  8311 net.cpp:150] Setting up res3b4_res3b4_relu_0_split
I0310 17:21:06.744798  8311 net.cpp:157] Top shape: 8 512 28 28 (3211264)
I0310 17:21:06.744819  8311 net.cpp:157] Top shape: 8 512 28 28 (3211264)
I0310 17:21:06.744837  8311 net.cpp:165] Memory required for data: 1530168288
I0310 17:21:06.744854  8311 layer_factory.hpp:77] Creating layer res3b5_branch2a
I0310 17:21:06.744881  8311 net.cpp:106] Creating Layer res3b5_branch2a
I0310 17:21:06.744901  8311 net.cpp:454] res3b5_branch2a <- res3b4_res3b4_relu_0_split_0
I0310 17:21:06.744925  8311 net.cpp:411] res3b5_branch2a -> res3b5_branch2a
I0310 17:21:06.746580  8311 net.cpp:150] Setting up res3b5_branch2a
I0310 17:21:06.746625  8311 net.cpp:157] Top shape: 8 128 28 28 (802816)
I0310 17:21:06.746644  8311 net.cpp:165] Memory required for data: 1533379552
I0310 17:21:06.746667  8311 layer_factory.hpp:77] Creating layer bn3b5_branch2a
I0310 17:21:06.746721  8311 net.cpp:106] Creating Layer bn3b5_branch2a
I0310 17:21:06.746744  8311 net.cpp:454] bn3b5_branch2a <- res3b5_branch2a
I0310 17:21:06.746769  8311 net.cpp:397] bn3b5_branch2a -> res3b5_branch2a (in-place)
I0310 17:21:06.747208  8311 net.cpp:150] Setting up bn3b5_branch2a
I0310 17:21:06.747243  8311 net.cpp:157] Top shape: 8 128 28 28 (802816)
I0310 17:21:06.747262  8311 net.cpp:165] Memory required for data: 1536590816
I0310 17:21:06.747292  8311 layer_factory.hpp:77] Creating layer scale3b5_branch2a
I0310 17:21:06.747318  8311 net.cpp:106] Creating Layer scale3b5_branch2a
I0310 17:21:06.747339  8311 net.cpp:454] scale3b5_branch2a <- res3b5_branch2a
I0310 17:21:06.747366  8311 net.cpp:397] scale3b5_branch2a -> res3b5_branch2a (in-place)
I0310 17:21:06.747473  8311 layer_factory.hpp:77] Creating layer scale3b5_branch2a
I0310 17:21:06.747752  8311 net.cpp:150] Setting up scale3b5_branch2a
I0310 17:21:06.747786  8311 net.cpp:157] Top shape: 8 128 28 28 (802816)
I0310 17:21:06.747805  8311 net.cpp:165] Memory required for data: 1539802080
I0310 17:21:06.747829  8311 layer_factory.hpp:77] Creating layer res3b5_branch2a_relu
I0310 17:21:06.747853  8311 net.cpp:106] Creating Layer res3b5_branch2a_relu
I0310 17:21:06.747872  8311 net.cpp:454] res3b5_branch2a_relu <- res3b5_branch2a
I0310 17:21:06.747895  8311 net.cpp:397] res3b5_branch2a_relu -> res3b5_branch2a (in-place)
I0310 17:21:06.747920  8311 net.cpp:150] Setting up res3b5_branch2a_relu
I0310 17:21:06.747942  8311 net.cpp:157] Top shape: 8 128 28 28 (802816)
I0310 17:21:06.747959  8311 net.cpp:165] Memory required for data: 1543013344
I0310 17:21:06.747977  8311 layer_factory.hpp:77] Creating layer res3b5_branch2b
I0310 17:21:06.748009  8311 net.cpp:106] Creating Layer res3b5_branch2b
I0310 17:21:06.748030  8311 net.cpp:454] res3b5_branch2b <- res3b5_branch2a
I0310 17:21:06.748059  8311 net.cpp:411] res3b5_branch2b -> res3b5_branch2b
I0310 17:21:06.749871  8311 net.cpp:150] Setting up res3b5_branch2b
I0310 17:21:06.749917  8311 net.cpp:157] Top shape: 8 128 28 28 (802816)
I0310 17:21:06.749935  8311 net.cpp:165] Memory required for data: 1546224608
I0310 17:21:06.749959  8311 layer_factory.hpp:77] Creating layer bn3b5_branch2b
I0310 17:21:06.749989  8311 net.cpp:106] Creating Layer bn3b5_branch2b
I0310 17:21:06.750011  8311 net.cpp:454] bn3b5_branch2b <- res3b5_branch2b
I0310 17:21:06.750035  8311 net.cpp:397] bn3b5_branch2b -> res3b5_branch2b (in-place)
I0310 17:21:06.750460  8311 net.cpp:150] Setting up bn3b5_branch2b
I0310 17:21:06.750494  8311 net.cpp:157] Top shape: 8 128 28 28 (802816)
I0310 17:21:06.750512  8311 net.cpp:165] Memory required for data: 1549435872
I0310 17:21:06.750542  8311 layer_factory.hpp:77] Creating layer scale3b5_branch2b
I0310 17:21:06.750568  8311 net.cpp:106] Creating Layer scale3b5_branch2b
I0310 17:21:06.750588  8311 net.cpp:454] scale3b5_branch2b <- res3b5_branch2b
I0310 17:21:06.750610  8311 net.cpp:397] scale3b5_branch2b -> res3b5_branch2b (in-place)
I0310 17:21:06.750767  8311 layer_factory.hpp:77] Creating layer scale3b5_branch2b
I0310 17:21:06.751044  8311 net.cpp:150] Setting up scale3b5_branch2b
I0310 17:21:06.751080  8311 net.cpp:157] Top shape: 8 128 28 28 (802816)
I0310 17:21:06.751097  8311 net.cpp:165] Memory required for data: 1552647136
I0310 17:21:06.751123  8311 layer_factory.hpp:77] Creating layer res3b5_branch2b_relu
I0310 17:21:06.751152  8311 net.cpp:106] Creating Layer res3b5_branch2b_relu
I0310 17:21:06.751173  8311 net.cpp:454] res3b5_branch2b_relu <- res3b5_branch2b
I0310 17:21:06.751195  8311 net.cpp:397] res3b5_branch2b_relu -> res3b5_branch2b (in-place)
I0310 17:21:06.751220  8311 net.cpp:150] Setting up res3b5_branch2b_relu
I0310 17:21:06.751242  8311 net.cpp:157] Top shape: 8 128 28 28 (802816)
I0310 17:21:06.751260  8311 net.cpp:165] Memory required for data: 1555858400
I0310 17:21:06.751278  8311 layer_factory.hpp:77] Creating layer res3b5_branch2c
I0310 17:21:06.751310  8311 net.cpp:106] Creating Layer res3b5_branch2c
I0310 17:21:06.751330  8311 net.cpp:454] res3b5_branch2c <- res3b5_branch2b
I0310 17:21:06.751354  8311 net.cpp:411] res3b5_branch2c -> res3b5_branch2c
I0310 17:21:06.751870  8311 net.cpp:150] Setting up res3b5_branch2c
I0310 17:21:06.751907  8311 net.cpp:157] Top shape: 8 512 28 28 (3211264)
I0310 17:21:06.751926  8311 net.cpp:165] Memory required for data: 1568703456
I0310 17:21:06.751950  8311 layer_factory.hpp:77] Creating layer bn3b5_branch2c
I0310 17:21:06.751982  8311 net.cpp:106] Creating Layer bn3b5_branch2c
I0310 17:21:06.752003  8311 net.cpp:454] bn3b5_branch2c <- res3b5_branch2c
I0310 17:21:06.752027  8311 net.cpp:397] bn3b5_branch2c -> res3b5_branch2c (in-place)
I0310 17:21:06.752450  8311 net.cpp:150] Setting up bn3b5_branch2c
I0310 17:21:06.752485  8311 net.cpp:157] Top shape: 8 512 28 28 (3211264)
I0310 17:21:06.752503  8311 net.cpp:165] Memory required for data: 1581548512
I0310 17:21:06.752533  8311 layer_factory.hpp:77] Creating layer scale3b5_branch2c
I0310 17:21:06.752557  8311 net.cpp:106] Creating Layer scale3b5_branch2c
I0310 17:21:06.752578  8311 net.cpp:454] scale3b5_branch2c <- res3b5_branch2c
I0310 17:21:06.752606  8311 net.cpp:397] scale3b5_branch2c -> res3b5_branch2c (in-place)
I0310 17:21:06.752723  8311 layer_factory.hpp:77] Creating layer scale3b5_branch2c
I0310 17:21:06.752996  8311 net.cpp:150] Setting up scale3b5_branch2c
I0310 17:21:06.753031  8311 net.cpp:157] Top shape: 8 512 28 28 (3211264)
I0310 17:21:06.753048  8311 net.cpp:165] Memory required for data: 1594393568
I0310 17:21:06.753073  8311 layer_factory.hpp:77] Creating layer res3b5
I0310 17:21:06.753098  8311 net.cpp:106] Creating Layer res3b5
I0310 17:21:06.753118  8311 net.cpp:454] res3b5 <- res3b4_res3b4_relu_0_split_1
I0310 17:21:06.753139  8311 net.cpp:454] res3b5 <- res3b5_branch2c
I0310 17:21:06.753161  8311 net.cpp:411] res3b5 -> res3b5
I0310 17:21:06.753237  8311 net.cpp:150] Setting up res3b5
I0310 17:21:06.753284  8311 net.cpp:157] Top shape: 8 512 28 28 (3211264)
I0310 17:21:06.753304  8311 net.cpp:165] Memory required for data: 1607238624
I0310 17:21:06.753321  8311 layer_factory.hpp:77] Creating layer res3b5_relu
I0310 17:21:06.753352  8311 net.cpp:106] Creating Layer res3b5_relu
I0310 17:21:06.753373  8311 net.cpp:454] res3b5_relu <- res3b5
I0310 17:21:06.753396  8311 net.cpp:397] res3b5_relu -> res3b5 (in-place)
I0310 17:21:06.753422  8311 net.cpp:150] Setting up res3b5_relu
I0310 17:21:06.753443  8311 net.cpp:157] Top shape: 8 512 28 28 (3211264)
I0310 17:21:06.753460  8311 net.cpp:165] Memory required for data: 1620083680
I0310 17:21:06.753479  8311 layer_factory.hpp:77] Creating layer res3b5_res3b5_relu_0_split
I0310 17:21:06.753500  8311 net.cpp:106] Creating Layer res3b5_res3b5_relu_0_split
I0310 17:21:06.753520  8311 net.cpp:454] res3b5_res3b5_relu_0_split <- res3b5
I0310 17:21:06.753546  8311 net.cpp:411] res3b5_res3b5_relu_0_split -> res3b5_res3b5_relu_0_split_0
I0310 17:21:06.753585  8311 net.cpp:411] res3b5_res3b5_relu_0_split -> res3b5_res3b5_relu_0_split_1
I0310 17:21:06.753702  8311 net.cpp:150] Setting up res3b5_res3b5_relu_0_split
I0310 17:21:06.753762  8311 net.cpp:157] Top shape: 8 512 28 28 (3211264)
I0310 17:21:06.753785  8311 net.cpp:157] Top shape: 8 512 28 28 (3211264)
I0310 17:21:06.753803  8311 net.cpp:165] Memory required for data: 1645773792
I0310 17:21:06.753821  8311 layer_factory.hpp:77] Creating layer res3b6_branch2a
I0310 17:21:06.753849  8311 net.cpp:106] Creating Layer res3b6_branch2a
I0310 17:21:06.753870  8311 net.cpp:454] res3b6_branch2a <- res3b5_res3b5_relu_0_split_0
I0310 17:21:06.753900  8311 net.cpp:411] res3b6_branch2a -> res3b6_branch2a
I0310 17:21:06.754403  8311 net.cpp:150] Setting up res3b6_branch2a
I0310 17:21:06.754441  8311 net.cpp:157] Top shape: 8 128 28 28 (802816)
I0310 17:21:06.754458  8311 net.cpp:165] Memory required for data: 1648985056
I0310 17:21:06.754482  8311 layer_factory.hpp:77] Creating layer bn3b6_branch2a
I0310 17:21:06.754511  8311 net.cpp:106] Creating Layer bn3b6_branch2a
I0310 17:21:06.754532  8311 net.cpp:454] bn3b6_branch2a <- res3b6_branch2a
I0310 17:21:06.754555  8311 net.cpp:397] bn3b6_branch2a -> res3b6_branch2a (in-place)
I0310 17:21:06.754972  8311 net.cpp:150] Setting up bn3b6_branch2a
I0310 17:21:06.755005  8311 net.cpp:157] Top shape: 8 128 28 28 (802816)
I0310 17:21:06.755024  8311 net.cpp:165] Memory required for data: 1652196320
I0310 17:21:06.755053  8311 layer_factory.hpp:77] Creating layer scale3b6_branch2a
I0310 17:21:06.755079  8311 net.cpp:106] Creating Layer scale3b6_branch2a
I0310 17:21:06.755098  8311 net.cpp:454] scale3b6_branch2a <- res3b6_branch2a
I0310 17:21:06.755126  8311 net.cpp:397] scale3b6_branch2a -> res3b6_branch2a (in-place)
I0310 17:21:06.755231  8311 layer_factory.hpp:77] Creating layer scale3b6_branch2a
I0310 17:21:06.755502  8311 net.cpp:150] Setting up scale3b6_branch2a
I0310 17:21:06.755537  8311 net.cpp:157] Top shape: 8 128 28 28 (802816)
I0310 17:21:06.755554  8311 net.cpp:165] Memory required for data: 1655407584
I0310 17:21:06.755580  8311 layer_factory.hpp:77] Creating layer res3b6_branch2a_relu
I0310 17:21:06.755609  8311 net.cpp:106] Creating Layer res3b6_branch2a_relu
I0310 17:21:06.755630  8311 net.cpp:454] res3b6_branch2a_relu <- res3b6_branch2a
I0310 17:21:06.755652  8311 net.cpp:397] res3b6_branch2a_relu -> res3b6_branch2a (in-place)
I0310 17:21:06.755677  8311 net.cpp:150] Setting up res3b6_branch2a_relu
I0310 17:21:06.755700  8311 net.cpp:157] Top shape: 8 128 28 28 (802816)
I0310 17:21:06.755717  8311 net.cpp:165] Memory required for data: 1658618848
I0310 17:21:06.755735  8311 layer_factory.hpp:77] Creating layer res3b6_branch2b
I0310 17:21:06.755766  8311 net.cpp:106] Creating Layer res3b6_branch2b
I0310 17:21:06.755786  8311 net.cpp:454] res3b6_branch2b <- res3b6_branch2a
I0310 17:21:06.755810  8311 net.cpp:411] res3b6_branch2b -> res3b6_branch2b
I0310 17:21:06.757614  8311 net.cpp:150] Setting up res3b6_branch2b
I0310 17:21:06.757659  8311 net.cpp:157] Top shape: 8 128 28 28 (802816)
I0310 17:21:06.757679  8311 net.cpp:165] Memory required for data: 1661830112
I0310 17:21:06.757702  8311 layer_factory.hpp:77] Creating layer bn3b6_branch2b
I0310 17:21:06.757727  8311 net.cpp:106] Creating Layer bn3b6_branch2b
I0310 17:21:06.757747  8311 net.cpp:454] bn3b6_branch2b <- res3b6_branch2b
I0310 17:21:06.757783  8311 net.cpp:397] bn3b6_branch2b -> res3b6_branch2b (in-place)
I0310 17:21:06.758221  8311 net.cpp:150] Setting up bn3b6_branch2b
I0310 17:21:06.758255  8311 net.cpp:157] Top shape: 8 128 28 28 (802816)
I0310 17:21:06.758273  8311 net.cpp:165] Memory required for data: 1665041376
I0310 17:21:06.758302  8311 layer_factory.hpp:77] Creating layer scale3b6_branch2b
I0310 17:21:06.758328  8311 net.cpp:106] Creating Layer scale3b6_branch2b
I0310 17:21:06.758347  8311 net.cpp:454] scale3b6_branch2b <- res3b6_branch2b
I0310 17:21:06.758370  8311 net.cpp:397] scale3b6_branch2b -> res3b6_branch2b (in-place)
I0310 17:21:06.758486  8311 layer_factory.hpp:77] Creating layer scale3b6_branch2b
I0310 17:21:06.758764  8311 net.cpp:150] Setting up scale3b6_branch2b
I0310 17:21:06.758811  8311 net.cpp:157] Top shape: 8 128 28 28 (802816)
I0310 17:21:06.758848  8311 net.cpp:165] Memory required for data: 1668252640
I0310 17:21:06.758875  8311 layer_factory.hpp:77] Creating layer res3b6_branch2b_relu
I0310 17:21:06.758899  8311 net.cpp:106] Creating Layer res3b6_branch2b_relu
I0310 17:21:06.758919  8311 net.cpp:454] res3b6_branch2b_relu <- res3b6_branch2b
I0310 17:21:06.758947  8311 net.cpp:397] res3b6_branch2b_relu -> res3b6_branch2b (in-place)
I0310 17:21:06.758973  8311 net.cpp:150] Setting up res3b6_branch2b_relu
I0310 17:21:06.758996  8311 net.cpp:157] Top shape: 8 128 28 28 (802816)
I0310 17:21:06.759013  8311 net.cpp:165] Memory required for data: 1671463904
I0310 17:21:06.759032  8311 layer_factory.hpp:77] Creating layer res3b6_branch2c
I0310 17:21:06.759057  8311 net.cpp:106] Creating Layer res3b6_branch2c
I0310 17:21:06.759078  8311 net.cpp:454] res3b6_branch2c <- res3b6_branch2b
I0310 17:21:06.759106  8311 net.cpp:411] res3b6_branch2c -> res3b6_branch2c
I0310 17:21:06.759620  8311 net.cpp:150] Setting up res3b6_branch2c
I0310 17:21:06.759658  8311 net.cpp:157] Top shape: 8 512 28 28 (3211264)
I0310 17:21:06.759676  8311 net.cpp:165] Memory required for data: 1684308960
I0310 17:21:06.759699  8311 layer_factory.hpp:77] Creating layer bn3b6_branch2c
I0310 17:21:06.759723  8311 net.cpp:106] Creating Layer bn3b6_branch2c
I0310 17:21:06.759742  8311 net.cpp:454] bn3b6_branch2c <- res3b6_branch2c
I0310 17:21:06.759774  8311 net.cpp:397] bn3b6_branch2c -> res3b6_branch2c (in-place)
I0310 17:21:06.760200  8311 net.cpp:150] Setting up bn3b6_branch2c
I0310 17:21:06.760233  8311 net.cpp:157] Top shape: 8 512 28 28 (3211264)
I0310 17:21:06.760252  8311 net.cpp:165] Memory required for data: 1697154016
I0310 17:21:06.760282  8311 layer_factory.hpp:77] Creating layer scale3b6_branch2c
I0310 17:21:06.760306  8311 net.cpp:106] Creating Layer scale3b6_branch2c
I0310 17:21:06.760326  8311 net.cpp:454] scale3b6_branch2c <- res3b6_branch2c
I0310 17:21:06.760349  8311 net.cpp:397] scale3b6_branch2c -> res3b6_branch2c (in-place)
I0310 17:21:06.760466  8311 layer_factory.hpp:77] Creating layer scale3b6_branch2c
I0310 17:21:06.760746  8311 net.cpp:150] Setting up scale3b6_branch2c
I0310 17:21:06.760782  8311 net.cpp:157] Top shape: 8 512 28 28 (3211264)
I0310 17:21:06.760799  8311 net.cpp:165] Memory required for data: 1709999072
I0310 17:21:06.760825  8311 layer_factory.hpp:77] Creating layer res3b6
I0310 17:21:06.760855  8311 net.cpp:106] Creating Layer res3b6
I0310 17:21:06.760875  8311 net.cpp:454] res3b6 <- res3b5_res3b5_relu_0_split_1
I0310 17:21:06.760897  8311 net.cpp:454] res3b6 <- res3b6_branch2c
I0310 17:21:06.760921  8311 net.cpp:411] res3b6 -> res3b6
I0310 17:21:06.760990  8311 net.cpp:150] Setting up res3b6
I0310 17:21:06.761021  8311 net.cpp:157] Top shape: 8 512 28 28 (3211264)
I0310 17:21:06.761039  8311 net.cpp:165] Memory required for data: 1722844128
I0310 17:21:06.761057  8311 layer_factory.hpp:77] Creating layer res3b6_relu
I0310 17:21:06.761086  8311 net.cpp:106] Creating Layer res3b6_relu
I0310 17:21:06.761106  8311 net.cpp:454] res3b6_relu <- res3b6
I0310 17:21:06.761133  8311 net.cpp:397] res3b6_relu -> res3b6 (in-place)
I0310 17:21:06.761159  8311 net.cpp:150] Setting up res3b6_relu
I0310 17:21:06.761183  8311 net.cpp:157] Top shape: 8 512 28 28 (3211264)
I0310 17:21:06.761199  8311 net.cpp:165] Memory required for data: 1735689184
I0310 17:21:06.761217  8311 layer_factory.hpp:77] Creating layer res3b6_res3b6_relu_0_split
I0310 17:21:06.761240  8311 net.cpp:106] Creating Layer res3b6_res3b6_relu_0_split
I0310 17:21:06.761273  8311 net.cpp:454] res3b6_res3b6_relu_0_split <- res3b6
I0310 17:21:06.761297  8311 net.cpp:411] res3b6_res3b6_relu_0_split -> res3b6_res3b6_relu_0_split_0
I0310 17:21:06.761323  8311 net.cpp:411] res3b6_res3b6_relu_0_split -> res3b6_res3b6_relu_0_split_1
I0310 17:21:06.761428  8311 net.cpp:150] Setting up res3b6_res3b6_relu_0_split
I0310 17:21:06.761461  8311 net.cpp:157] Top shape: 8 512 28 28 (3211264)
I0310 17:21:06.761482  8311 net.cpp:157] Top shape: 8 512 28 28 (3211264)
I0310 17:21:06.761509  8311 net.cpp:165] Memory required for data: 1761379296
I0310 17:21:06.761548  8311 layer_factory.hpp:77] Creating layer res3b7_branch2a
I0310 17:21:06.761586  8311 net.cpp:106] Creating Layer res3b7_branch2a
I0310 17:21:06.761610  8311 net.cpp:454] res3b7_branch2a <- res3b6_res3b6_relu_0_split_0
I0310 17:21:06.761633  8311 net.cpp:411] res3b7_branch2a -> res3b7_branch2a
I0310 17:21:06.763312  8311 net.cpp:150] Setting up res3b7_branch2a
I0310 17:21:06.763355  8311 net.cpp:157] Top shape: 8 128 28 28 (802816)
I0310 17:21:06.763375  8311 net.cpp:165] Memory required for data: 1764590560
I0310 17:21:06.763397  8311 layer_factory.hpp:77] Creating layer bn3b7_branch2a
I0310 17:21:06.763423  8311 net.cpp:106] Creating Layer bn3b7_branch2a
I0310 17:21:06.763443  8311 net.cpp:454] bn3b7_branch2a <- res3b7_branch2a
I0310 17:21:06.763473  8311 net.cpp:397] bn3b7_branch2a -> res3b7_branch2a (in-place)
I0310 17:21:06.763905  8311 net.cpp:150] Setting up bn3b7_branch2a
I0310 17:21:06.763938  8311 net.cpp:157] Top shape: 8 128 28 28 (802816)
I0310 17:21:06.763957  8311 net.cpp:165] Memory required for data: 1767801824
I0310 17:21:06.763986  8311 layer_factory.hpp:77] Creating layer scale3b7_branch2a
I0310 17:21:06.764011  8311 net.cpp:106] Creating Layer scale3b7_branch2a
I0310 17:21:06.764031  8311 net.cpp:454] scale3b7_branch2a <- res3b7_branch2a
I0310 17:21:06.764055  8311 net.cpp:397] scale3b7_branch2a -> res3b7_branch2a (in-place)
I0310 17:21:06.764168  8311 layer_factory.hpp:77] Creating layer scale3b7_branch2a
I0310 17:21:06.764459  8311 net.cpp:150] Setting up scale3b7_branch2a
I0310 17:21:06.764494  8311 net.cpp:157] Top shape: 8 128 28 28 (802816)
I0310 17:21:06.764513  8311 net.cpp:165] Memory required for data: 1771013088
I0310 17:21:06.764539  8311 layer_factory.hpp:77] Creating layer res3b7_branch2a_relu
I0310 17:21:06.764562  8311 net.cpp:106] Creating Layer res3b7_branch2a_relu
I0310 17:21:06.764582  8311 net.cpp:454] res3b7_branch2a_relu <- res3b7_branch2a
I0310 17:21:06.764611  8311 net.cpp:397] res3b7_branch2a_relu -> res3b7_branch2a (in-place)
I0310 17:21:06.764637  8311 net.cpp:150] Setting up res3b7_branch2a_relu
I0310 17:21:06.764660  8311 net.cpp:157] Top shape: 8 128 28 28 (802816)
I0310 17:21:06.764678  8311 net.cpp:165] Memory required for data: 1774224352
I0310 17:21:06.764696  8311 layer_factory.hpp:77] Creating layer res3b7_branch2b
I0310 17:21:06.764724  8311 net.cpp:106] Creating Layer res3b7_branch2b
I0310 17:21:06.764742  8311 net.cpp:454] res3b7_branch2b <- res3b7_branch2a
I0310 17:21:06.764771  8311 net.cpp:411] res3b7_branch2b -> res3b7_branch2b
I0310 17:21:06.766588  8311 net.cpp:150] Setting up res3b7_branch2b
I0310 17:21:06.766633  8311 net.cpp:157] Top shape: 8 128 28 28 (802816)
I0310 17:21:06.766651  8311 net.cpp:165] Memory required for data: 1777435616
I0310 17:21:06.766675  8311 layer_factory.hpp:77] Creating layer bn3b7_branch2b
I0310 17:21:06.766700  8311 net.cpp:106] Creating Layer bn3b7_branch2b
I0310 17:21:06.766721  8311 net.cpp:454] bn3b7_branch2b <- res3b7_branch2b
I0310 17:21:06.766743  8311 net.cpp:397] bn3b7_branch2b -> res3b7_branch2b (in-place)
I0310 17:21:06.767176  8311 net.cpp:150] Setting up bn3b7_branch2b
I0310 17:21:06.767216  8311 net.cpp:157] Top shape: 8 128 28 28 (802816)
I0310 17:21:06.767235  8311 net.cpp:165] Memory required for data: 1780646880
I0310 17:21:06.767266  8311 layer_factory.hpp:77] Creating layer scale3b7_branch2b
I0310 17:21:06.767292  8311 net.cpp:106] Creating Layer scale3b7_branch2b
I0310 17:21:06.767312  8311 net.cpp:454] scale3b7_branch2b <- res3b7_branch2b
I0310 17:21:06.767333  8311 net.cpp:397] scale3b7_branch2b -> res3b7_branch2b (in-place)
I0310 17:21:06.767462  8311 layer_factory.hpp:77] Creating layer scale3b7_branch2b
I0310 17:21:06.767746  8311 net.cpp:150] Setting up scale3b7_branch2b
I0310 17:21:06.767781  8311 net.cpp:157] Top shape: 8 128 28 28 (802816)
I0310 17:21:06.767799  8311 net.cpp:165] Memory required for data: 1783858144
I0310 17:21:06.767825  8311 layer_factory.hpp:77] Creating layer res3b7_branch2b_relu
I0310 17:21:06.767868  8311 net.cpp:106] Creating Layer res3b7_branch2b_relu
I0310 17:21:06.767915  8311 net.cpp:454] res3b7_branch2b_relu <- res3b7_branch2b
I0310 17:21:06.767940  8311 net.cpp:397] res3b7_branch2b_relu -> res3b7_branch2b (in-place)
I0310 17:21:06.767966  8311 net.cpp:150] Setting up res3b7_branch2b_relu
I0310 17:21:06.767989  8311 net.cpp:157] Top shape: 8 128 28 28 (802816)
I0310 17:21:06.768007  8311 net.cpp:165] Memory required for data: 1787069408
I0310 17:21:06.768024  8311 layer_factory.hpp:77] Creating layer res3b7_branch2c
I0310 17:21:06.768055  8311 net.cpp:106] Creating Layer res3b7_branch2c
I0310 17:21:06.768076  8311 net.cpp:454] res3b7_branch2c <- res3b7_branch2b
I0310 17:21:06.768100  8311 net.cpp:411] res3b7_branch2c -> res3b7_branch2c
I0310 17:21:06.768620  8311 net.cpp:150] Setting up res3b7_branch2c
I0310 17:21:06.768656  8311 net.cpp:157] Top shape: 8 512 28 28 (3211264)
I0310 17:21:06.768676  8311 net.cpp:165] Memory required for data: 1799914464
I0310 17:21:06.768698  8311 layer_factory.hpp:77] Creating layer bn3b7_branch2c
I0310 17:21:06.768723  8311 net.cpp:106] Creating Layer bn3b7_branch2c
I0310 17:21:06.768743  8311 net.cpp:454] bn3b7_branch2c <- res3b7_branch2c
I0310 17:21:06.768772  8311 net.cpp:397] bn3b7_branch2c -> res3b7_branch2c (in-place)
I0310 17:21:06.769217  8311 net.cpp:150] Setting up bn3b7_branch2c
I0310 17:21:06.769263  8311 net.cpp:157] Top shape: 8 512 28 28 (3211264)
I0310 17:21:06.769285  8311 net.cpp:165] Memory required for data: 1812759520
I0310 17:21:06.769315  8311 layer_factory.hpp:77] Creating layer scale3b7_branch2c
I0310 17:21:06.769341  8311 net.cpp:106] Creating Layer scale3b7_branch2c
I0310 17:21:06.769361  8311 net.cpp:454] scale3b7_branch2c <- res3b7_branch2c
I0310 17:21:06.769383  8311 net.cpp:397] scale3b7_branch2c -> res3b7_branch2c (in-place)
I0310 17:21:06.769505  8311 layer_factory.hpp:77] Creating layer scale3b7_branch2c
I0310 17:21:06.769785  8311 net.cpp:150] Setting up scale3b7_branch2c
I0310 17:21:06.769820  8311 net.cpp:157] Top shape: 8 512 28 28 (3211264)
I0310 17:21:06.769839  8311 net.cpp:165] Memory required for data: 1825604576
I0310 17:21:06.769863  8311 layer_factory.hpp:77] Creating layer res3b7
I0310 17:21:06.769887  8311 net.cpp:106] Creating Layer res3b7
I0310 17:21:06.769907  8311 net.cpp:454] res3b7 <- res3b6_res3b6_relu_0_split_1
I0310 17:21:06.769935  8311 net.cpp:454] res3b7 <- res3b7_branch2c
I0310 17:21:06.769958  8311 net.cpp:411] res3b7 -> res3b7
I0310 17:21:06.770028  8311 net.cpp:150] Setting up res3b7
I0310 17:21:06.770059  8311 net.cpp:157] Top shape: 8 512 28 28 (3211264)
I0310 17:21:06.770077  8311 net.cpp:165] Memory required for data: 1838449632
I0310 17:21:06.770097  8311 layer_factory.hpp:77] Creating layer res3b7_relu
I0310 17:21:06.770125  8311 net.cpp:106] Creating Layer res3b7_relu
I0310 17:21:06.770146  8311 net.cpp:454] res3b7_relu <- res3b7
I0310 17:21:06.770169  8311 net.cpp:397] res3b7_relu -> res3b7 (in-place)
I0310 17:21:06.770195  8311 net.cpp:150] Setting up res3b7_relu
I0310 17:21:06.770216  8311 net.cpp:157] Top shape: 8 512 28 28 (3211264)
I0310 17:21:06.770233  8311 net.cpp:165] Memory required for data: 1851294688
I0310 17:21:06.770251  8311 layer_factory.hpp:77] Creating layer res3b7_res3b7_relu_0_split
I0310 17:21:06.770279  8311 net.cpp:106] Creating Layer res3b7_res3b7_relu_0_split
I0310 17:21:06.770299  8311 net.cpp:454] res3b7_res3b7_relu_0_split <- res3b7
I0310 17:21:06.770323  8311 net.cpp:411] res3b7_res3b7_relu_0_split -> res3b7_res3b7_relu_0_split_0
I0310 17:21:06.770349  8311 net.cpp:411] res3b7_res3b7_relu_0_split -> res3b7_res3b7_relu_0_split_1
I0310 17:21:06.770453  8311 net.cpp:150] Setting up res3b7_res3b7_relu_0_split
I0310 17:21:06.770484  8311 net.cpp:157] Top shape: 8 512 28 28 (3211264)
I0310 17:21:06.770505  8311 net.cpp:157] Top shape: 8 512 28 28 (3211264)
I0310 17:21:06.770522  8311 net.cpp:165] Memory required for data: 1876984800
I0310 17:21:06.770540  8311 layer_factory.hpp:77] Creating layer res4a_branch1
I0310 17:21:06.770584  8311 net.cpp:106] Creating Layer res4a_branch1
I0310 17:21:06.770625  8311 net.cpp:454] res4a_branch1 <- res3b7_res3b7_relu_0_split_0
I0310 17:21:06.770651  8311 net.cpp:411] res4a_branch1 -> res4a_branch1
I0310 17:21:06.773871  8311 net.cpp:150] Setting up res4a_branch1
I0310 17:21:06.773916  8311 net.cpp:157] Top shape: 8 1024 14 14 (1605632)
I0310 17:21:06.773936  8311 net.cpp:165] Memory required for data: 1883407328
I0310 17:21:06.773958  8311 layer_factory.hpp:77] Creating layer bn4a_branch1
I0310 17:21:06.773983  8311 net.cpp:106] Creating Layer bn4a_branch1
I0310 17:21:06.774003  8311 net.cpp:454] bn4a_branch1 <- res4a_branch1
I0310 17:21:06.774032  8311 net.cpp:397] bn4a_branch1 -> res4a_branch1 (in-place)
I0310 17:21:06.774498  8311 net.cpp:150] Setting up bn4a_branch1
I0310 17:21:06.774534  8311 net.cpp:157] Top shape: 8 1024 14 14 (1605632)
I0310 17:21:06.774552  8311 net.cpp:165] Memory required for data: 1889829856
I0310 17:21:06.774582  8311 layer_factory.hpp:77] Creating layer scale4a_branch1
I0310 17:21:06.774607  8311 net.cpp:106] Creating Layer scale4a_branch1
I0310 17:21:06.774627  8311 net.cpp:454] scale4a_branch1 <- res4a_branch1
I0310 17:21:06.774651  8311 net.cpp:397] scale4a_branch1 -> res4a_branch1 (in-place)
I0310 17:21:06.774765  8311 layer_factory.hpp:77] Creating layer scale4a_branch1
I0310 17:21:06.775053  8311 net.cpp:150] Setting up scale4a_branch1
I0310 17:21:06.775086  8311 net.cpp:157] Top shape: 8 1024 14 14 (1605632)
I0310 17:21:06.775104  8311 net.cpp:165] Memory required for data: 1896252384
I0310 17:21:06.775130  8311 layer_factory.hpp:77] Creating layer res4a_branch2a
I0310 17:21:06.775164  8311 net.cpp:106] Creating Layer res4a_branch2a
I0310 17:21:06.775187  8311 net.cpp:454] res4a_branch2a <- res3b7_res3b7_relu_0_split_1
I0310 17:21:06.775209  8311 net.cpp:411] res4a_branch2a -> res4a_branch2a
I0310 17:21:06.775872  8311 net.cpp:150] Setting up res4a_branch2a
I0310 17:21:06.775913  8311 net.cpp:157] Top shape: 8 256 14 14 (401408)
I0310 17:21:06.775931  8311 net.cpp:165] Memory required for data: 1897858016
I0310 17:21:06.775954  8311 layer_factory.hpp:77] Creating layer bn4a_branch2a
I0310 17:21:06.775979  8311 net.cpp:106] Creating Layer bn4a_branch2a
I0310 17:21:06.776000  8311 net.cpp:454] bn4a_branch2a <- res4a_branch2a
I0310 17:21:06.776022  8311 net.cpp:397] bn4a_branch2a -> res4a_branch2a (in-place)
I0310 17:21:06.776469  8311 net.cpp:150] Setting up bn4a_branch2a
I0310 17:21:06.776504  8311 net.cpp:157] Top shape: 8 256 14 14 (401408)
I0310 17:21:06.776521  8311 net.cpp:165] Memory required for data: 1899463648
I0310 17:21:06.776551  8311 layer_factory.hpp:77] Creating layer scale4a_branch2a
I0310 17:21:06.776576  8311 net.cpp:106] Creating Layer scale4a_branch2a
I0310 17:21:06.776595  8311 net.cpp:454] scale4a_branch2a <- res4a_branch2a
I0310 17:21:06.776618  8311 net.cpp:397] scale4a_branch2a -> res4a_branch2a (in-place)
I0310 17:21:06.776739  8311 layer_factory.hpp:77] Creating layer scale4a_branch2a
I0310 17:21:06.777009  8311 net.cpp:150] Setting up scale4a_branch2a
I0310 17:21:06.777043  8311 net.cpp:157] Top shape: 8 256 14 14 (401408)
I0310 17:21:06.777061  8311 net.cpp:165] Memory required for data: 1901069280
I0310 17:21:06.777087  8311 layer_factory.hpp:77] Creating layer res4a_branch2a_relu
I0310 17:21:06.777117  8311 net.cpp:106] Creating Layer res4a_branch2a_relu
I0310 17:21:06.777137  8311 net.cpp:454] res4a_branch2a_relu <- res4a_branch2a
I0310 17:21:06.777159  8311 net.cpp:397] res4a_branch2a_relu -> res4a_branch2a (in-place)
I0310 17:21:06.777185  8311 net.cpp:150] Setting up res4a_branch2a_relu
I0310 17:21:06.777209  8311 net.cpp:157] Top shape: 8 256 14 14 (401408)
I0310 17:21:06.777225  8311 net.cpp:165] Memory required for data: 1902674912
I0310 17:21:06.777243  8311 layer_factory.hpp:77] Creating layer res4a_branch2b
I0310 17:21:06.777292  8311 net.cpp:106] Creating Layer res4a_branch2b
I0310 17:21:06.777313  8311 net.cpp:454] res4a_branch2b <- res4a_branch2a
I0310 17:21:06.777338  8311 net.cpp:411] res4a_branch2b -> res4a_branch2b
I0310 17:21:06.780843  8311 net.cpp:150] Setting up res4a_branch2b
I0310 17:21:06.780907  8311 net.cpp:157] Top shape: 8 256 14 14 (401408)
I0310 17:21:06.780927  8311 net.cpp:165] Memory required for data: 1904280544
I0310 17:21:06.780951  8311 layer_factory.hpp:77] Creating layer bn4a_branch2b
I0310 17:21:06.780977  8311 net.cpp:106] Creating Layer bn4a_branch2b
I0310 17:21:06.780997  8311 net.cpp:454] bn4a_branch2b <- res4a_branch2b
I0310 17:21:06.781020  8311 net.cpp:397] bn4a_branch2b -> res4a_branch2b (in-place)
I0310 17:21:06.781507  8311 net.cpp:150] Setting up bn4a_branch2b
I0310 17:21:06.781548  8311 net.cpp:157] Top shape: 8 256 14 14 (401408)
I0310 17:21:06.781568  8311 net.cpp:165] Memory required for data: 1905886176
I0310 17:21:06.781597  8311 layer_factory.hpp:77] Creating layer scale4a_branch2b
I0310 17:21:06.781630  8311 net.cpp:106] Creating Layer scale4a_branch2b
I0310 17:21:06.781651  8311 net.cpp:454] scale4a_branch2b <- res4a_branch2b
I0310 17:21:06.781674  8311 net.cpp:397] scale4a_branch2b -> res4a_branch2b (in-place)
I0310 17:21:06.781792  8311 layer_factory.hpp:77] Creating layer scale4a_branch2b
I0310 17:21:06.782074  8311 net.cpp:150] Setting up scale4a_branch2b
I0310 17:21:06.782109  8311 net.cpp:157] Top shape: 8 256 14 14 (401408)
I0310 17:21:06.782127  8311 net.cpp:165] Memory required for data: 1907491808
I0310 17:21:06.782153  8311 layer_factory.hpp:77] Creating layer res4a_branch2b_relu
I0310 17:21:06.782178  8311 net.cpp:106] Creating Layer res4a_branch2b_relu
I0310 17:21:06.782198  8311 net.cpp:454] res4a_branch2b_relu <- res4a_branch2b
I0310 17:21:06.782227  8311 net.cpp:397] res4a_branch2b_relu -> res4a_branch2b (in-place)
I0310 17:21:06.782253  8311 net.cpp:150] Setting up res4a_branch2b_relu
I0310 17:21:06.782275  8311 net.cpp:157] Top shape: 8 256 14 14 (401408)
I0310 17:21:06.782294  8311 net.cpp:165] Memory required for data: 1909097440
I0310 17:21:06.782313  8311 layer_factory.hpp:77] Creating layer res4a_branch2c
I0310 17:21:06.782341  8311 net.cpp:106] Creating Layer res4a_branch2c
I0310 17:21:06.782359  8311 net.cpp:454] res4a_branch2c <- res4a_branch2b
I0310 17:21:06.782389  8311 net.cpp:411] res4a_branch2c -> res4a_branch2c
I0310 17:21:06.784323  8311 net.cpp:150] Setting up res4a_branch2c
I0310 17:21:06.784366  8311 net.cpp:157] Top shape: 8 1024 14 14 (1605632)
I0310 17:21:06.784385  8311 net.cpp:165] Memory required for data: 1915519968
I0310 17:21:06.784409  8311 layer_factory.hpp:77] Creating layer bn4a_branch2c
I0310 17:21:06.784440  8311 net.cpp:106] Creating Layer bn4a_branch2c
I0310 17:21:06.784462  8311 net.cpp:454] bn4a_branch2c <- res4a_branch2c
I0310 17:21:06.784484  8311 net.cpp:397] bn4a_branch2c -> res4a_branch2c (in-place)
I0310 17:21:06.784929  8311 net.cpp:150] Setting up bn4a_branch2c
I0310 17:21:06.784962  8311 net.cpp:157] Top shape: 8 1024 14 14 (1605632)
I0310 17:21:06.784981  8311 net.cpp:165] Memory required for data: 1921942496
I0310 17:21:06.785012  8311 layer_factory.hpp:77] Creating layer scale4a_branch2c
I0310 17:21:06.785037  8311 net.cpp:106] Creating Layer scale4a_branch2c
I0310 17:21:06.785056  8311 net.cpp:454] scale4a_branch2c <- res4a_branch2c
I0310 17:21:06.785079  8311 net.cpp:397] scale4a_branch2c -> res4a_branch2c (in-place)
I0310 17:21:06.785192  8311 layer_factory.hpp:77] Creating layer scale4a_branch2c
I0310 17:21:06.785507  8311 net.cpp:150] Setting up scale4a_branch2c
I0310 17:21:06.785545  8311 net.cpp:157] Top shape: 8 1024 14 14 (1605632)
I0310 17:21:06.785564  8311 net.cpp:165] Memory required for data: 1928365024
I0310 17:21:06.785589  8311 layer_factory.hpp:77] Creating layer res4a
I0310 17:21:06.785619  8311 net.cpp:106] Creating Layer res4a
I0310 17:21:06.785640  8311 net.cpp:454] res4a <- res4a_branch1
I0310 17:21:06.785661  8311 net.cpp:454] res4a <- res4a_branch2c
I0310 17:21:06.785684  8311 net.cpp:411] res4a -> res4a
I0310 17:21:06.785761  8311 net.cpp:150] Setting up res4a
I0310 17:21:06.785792  8311 net.cpp:157] Top shape: 8 1024 14 14 (1605632)
I0310 17:21:06.785810  8311 net.cpp:165] Memory required for data: 1934787552
I0310 17:21:06.785842  8311 layer_factory.hpp:77] Creating layer res4a_relu
I0310 17:21:06.785883  8311 net.cpp:106] Creating Layer res4a_relu
I0310 17:21:06.785904  8311 net.cpp:454] res4a_relu <- res4a
I0310 17:21:06.785933  8311 net.cpp:397] res4a_relu -> res4a (in-place)
I0310 17:21:06.785959  8311 net.cpp:150] Setting up res4a_relu
I0310 17:21:06.785982  8311 net.cpp:157] Top shape: 8 1024 14 14 (1605632)
I0310 17:21:06.786000  8311 net.cpp:165] Memory required for data: 1941210080
I0310 17:21:06.786017  8311 layer_factory.hpp:77] Creating layer res4a_res4a_relu_0_split
I0310 17:21:06.786039  8311 net.cpp:106] Creating Layer res4a_res4a_relu_0_split
I0310 17:21:06.786058  8311 net.cpp:454] res4a_res4a_relu_0_split <- res4a
I0310 17:21:06.786080  8311 net.cpp:411] res4a_res4a_relu_0_split -> res4a_res4a_relu_0_split_0
I0310 17:21:06.786106  8311 net.cpp:411] res4a_res4a_relu_0_split -> res4a_res4a_relu_0_split_1
I0310 17:21:06.786208  8311 net.cpp:150] Setting up res4a_res4a_relu_0_split
I0310 17:21:06.786239  8311 net.cpp:157] Top shape: 8 1024 14 14 (1605632)
I0310 17:21:06.786260  8311 net.cpp:157] Top shape: 8 1024 14 14 (1605632)
I0310 17:21:06.786278  8311 net.cpp:165] Memory required for data: 1954055136
I0310 17:21:06.786295  8311 layer_factory.hpp:77] Creating layer res4b1_branch2a
I0310 17:21:06.786327  8311 net.cpp:106] Creating Layer res4b1_branch2a
I0310 17:21:06.786348  8311 net.cpp:454] res4b1_branch2a <- res4a_res4a_relu_0_split_0
I0310 17:21:06.786372  8311 net.cpp:411] res4b1_branch2a -> res4b1_branch2a
I0310 17:21:06.788323  8311 net.cpp:150] Setting up res4b1_branch2a
I0310 17:21:06.788367  8311 net.cpp:157] Top shape: 8 256 14 14 (401408)
I0310 17:21:06.788385  8311 net.cpp:165] Memory required for data: 1955660768
I0310 17:21:06.788409  8311 layer_factory.hpp:77] Creating layer bn4b1_branch2a
I0310 17:21:06.788434  8311 net.cpp:106] Creating Layer bn4b1_branch2a
I0310 17:21:06.788455  8311 net.cpp:454] bn4b1_branch2a <- res4b1_branch2a
I0310 17:21:06.788480  8311 net.cpp:397] bn4b1_branch2a -> res4b1_branch2a (in-place)
I0310 17:21:06.789050  8311 net.cpp:150] Setting up bn4b1_branch2a
I0310 17:21:06.789086  8311 net.cpp:157] Top shape: 8 256 14 14 (401408)
I0310 17:21:06.789105  8311 net.cpp:165] Memory required for data: 1957266400
I0310 17:21:06.789135  8311 layer_factory.hpp:77] Creating layer scale4b1_branch2a
I0310 17:21:06.789161  8311 net.cpp:106] Creating Layer scale4b1_branch2a
I0310 17:21:06.789182  8311 net.cpp:454] scale4b1_branch2a <- res4b1_branch2a
I0310 17:21:06.789204  8311 net.cpp:397] scale4b1_branch2a -> res4b1_branch2a (in-place)
I0310 17:21:06.789342  8311 layer_factory.hpp:77] Creating layer scale4b1_branch2a
I0310 17:21:06.789631  8311 net.cpp:150] Setting up scale4b1_branch2a
I0310 17:21:06.789666  8311 net.cpp:157] Top shape: 8 256 14 14 (401408)
I0310 17:21:06.789685  8311 net.cpp:165] Memory required for data: 1958872032
I0310 17:21:06.789711  8311 layer_factory.hpp:77] Creating layer res4b1_branch2a_relu
I0310 17:21:06.789741  8311 net.cpp:106] Creating Layer res4b1_branch2a_relu
I0310 17:21:06.789760  8311 net.cpp:454] res4b1_branch2a_relu <- res4b1_branch2a
I0310 17:21:06.789783  8311 net.cpp:397] res4b1_branch2a_relu -> res4b1_branch2a (in-place)
I0310 17:21:06.789809  8311 net.cpp:150] Setting up res4b1_branch2a_relu
I0310 17:21:06.789832  8311 net.cpp:157] Top shape: 8 256 14 14 (401408)
I0310 17:21:06.789849  8311 net.cpp:165] Memory required for data: 1960477664
I0310 17:21:06.789867  8311 layer_factory.hpp:77] Creating layer res4b1_branch2b
I0310 17:21:06.789899  8311 net.cpp:106] Creating Layer res4b1_branch2b
I0310 17:21:06.789921  8311 net.cpp:454] res4b1_branch2b <- res4b1_branch2a
I0310 17:21:06.789945  8311 net.cpp:411] res4b1_branch2b -> res4b1_branch2b
I0310 17:21:06.793452  8311 net.cpp:150] Setting up res4b1_branch2b
I0310 17:21:06.793496  8311 net.cpp:157] Top shape: 8 256 14 14 (401408)
I0310 17:21:06.793515  8311 net.cpp:165] Memory required for data: 1962083296
I0310 17:21:06.793540  8311 layer_factory.hpp:77] Creating layer bn4b1_branch2b
I0310 17:21:06.793576  8311 net.cpp:106] Creating Layer bn4b1_branch2b
I0310 17:21:06.793618  8311 net.cpp:454] bn4b1_branch2b <- res4b1_branch2b
I0310 17:21:06.793643  8311 net.cpp:397] bn4b1_branch2b -> res4b1_branch2b (in-place)
I0310 17:21:06.794085  8311 net.cpp:150] Setting up bn4b1_branch2b
I0310 17:21:06.794119  8311 net.cpp:157] Top shape: 8 256 14 14 (401408)
I0310 17:21:06.794138  8311 net.cpp:165] Memory required for data: 1963688928
I0310 17:21:06.794168  8311 layer_factory.hpp:77] Creating layer scale4b1_branch2b
I0310 17:21:06.794199  8311 net.cpp:106] Creating Layer scale4b1_branch2b
I0310 17:21:06.794220  8311 net.cpp:454] scale4b1_branch2b <- res4b1_branch2b
I0310 17:21:06.794244  8311 net.cpp:397] scale4b1_branch2b -> res4b1_branch2b (in-place)
I0310 17:21:06.794364  8311 layer_factory.hpp:77] Creating layer scale4b1_branch2b
I0310 17:21:06.794646  8311 net.cpp:150] Setting up scale4b1_branch2b
I0310 17:21:06.794680  8311 net.cpp:157] Top shape: 8 256 14 14 (401408)
I0310 17:21:06.794698  8311 net.cpp:165] Memory required for data: 1965294560
I0310 17:21:06.794724  8311 layer_factory.hpp:77] Creating layer res4b1_branch2b_relu
I0310 17:21:06.794749  8311 net.cpp:106] Creating Layer res4b1_branch2b_relu
I0310 17:21:06.794767  8311 net.cpp:454] res4b1_branch2b_relu <- res4b1_branch2b
I0310 17:21:06.794795  8311 net.cpp:397] res4b1_branch2b_relu -> res4b1_branch2b (in-place)
I0310 17:21:06.794822  8311 net.cpp:150] Setting up res4b1_branch2b_relu
I0310 17:21:06.794845  8311 net.cpp:157] Top shape: 8 256 14 14 (401408)
I0310 17:21:06.794862  8311 net.cpp:165] Memory required for data: 1966900192
I0310 17:21:06.794880  8311 layer_factory.hpp:77] Creating layer res4b1_branch2c
I0310 17:21:06.794908  8311 net.cpp:106] Creating Layer res4b1_branch2c
I0310 17:21:06.794927  8311 net.cpp:454] res4b1_branch2c <- res4b1_branch2b
I0310 17:21:06.794956  8311 net.cpp:411] res4b1_branch2c -> res4b1_branch2c
I0310 17:21:06.796896  8311 net.cpp:150] Setting up res4b1_branch2c
I0310 17:21:06.796939  8311 net.cpp:157] Top shape: 8 1024 14 14 (1605632)
I0310 17:21:06.796958  8311 net.cpp:165] Memory required for data: 1973322720
I0310 17:21:06.796983  8311 layer_factory.hpp:77] Creating layer bn4b1_branch2c
I0310 17:21:06.797013  8311 net.cpp:106] Creating Layer bn4b1_branch2c
I0310 17:21:06.797035  8311 net.cpp:454] bn4b1_branch2c <- res4b1_branch2c
I0310 17:21:06.797058  8311 net.cpp:397] bn4b1_branch2c -> res4b1_branch2c (in-place)
I0310 17:21:06.797528  8311 net.cpp:150] Setting up bn4b1_branch2c
I0310 17:21:06.797564  8311 net.cpp:157] Top shape: 8 1024 14 14 (1605632)
I0310 17:21:06.797583  8311 net.cpp:165] Memory required for data: 1979745248
I0310 17:21:06.797613  8311 layer_factory.hpp:77] Creating layer scale4b1_branch2c
I0310 17:21:06.797639  8311 net.cpp:106] Creating Layer scale4b1_branch2c
I0310 17:21:06.797659  8311 net.cpp:454] scale4b1_branch2c <- res4b1_branch2c
I0310 17:21:06.797682  8311 net.cpp:397] scale4b1_branch2c -> res4b1_branch2c (in-place)
I0310 17:21:06.797801  8311 layer_factory.hpp:77] Creating layer scale4b1_branch2c
I0310 17:21:06.798099  8311 net.cpp:150] Setting up scale4b1_branch2c
I0310 17:21:06.798135  8311 net.cpp:157] Top shape: 8 1024 14 14 (1605632)
I0310 17:21:06.798152  8311 net.cpp:165] Memory required for data: 1986167776
I0310 17:21:06.798257  8311 layer_factory.hpp:77] Creating layer res4b1
I0310 17:21:06.798288  8311 net.cpp:106] Creating Layer res4b1
I0310 17:21:06.798310  8311 net.cpp:454] res4b1 <- res4a_res4a_relu_0_split_1
I0310 17:21:06.798332  8311 net.cpp:454] res4b1 <- res4b1_branch2c
I0310 17:21:06.798355  8311 net.cpp:411] res4b1 -> res4b1
I0310 17:21:06.798439  8311 net.cpp:150] Setting up res4b1
I0310 17:21:06.798470  8311 net.cpp:157] Top shape: 8 1024 14 14 (1605632)
I0310 17:21:06.798488  8311 net.cpp:165] Memory required for data: 1992590304
I0310 17:21:06.798506  8311 layer_factory.hpp:77] Creating layer res4b1_relu
I0310 17:21:06.798529  8311 net.cpp:106] Creating Layer res4b1_relu
I0310 17:21:06.798548  8311 net.cpp:454] res4b1_relu <- res4b1
I0310 17:21:06.798583  8311 net.cpp:397] res4b1_relu -> res4b1 (in-place)
I0310 17:21:06.798630  8311 net.cpp:150] Setting up res4b1_relu
I0310 17:21:06.798655  8311 net.cpp:157] Top shape: 8 1024 14 14 (1605632)
I0310 17:21:06.798671  8311 net.cpp:165] Memory required for data: 1999012832
I0310 17:21:06.798689  8311 layer_factory.hpp:77] Creating layer res4b1_res4b1_relu_0_split
I0310 17:21:06.798717  8311 net.cpp:106] Creating Layer res4b1_res4b1_relu_0_split
I0310 17:21:06.798738  8311 net.cpp:454] res4b1_res4b1_relu_0_split <- res4b1
I0310 17:21:06.798759  8311 net.cpp:411] res4b1_res4b1_relu_0_split -> res4b1_res4b1_relu_0_split_0
I0310 17:21:06.798786  8311 net.cpp:411] res4b1_res4b1_relu_0_split -> res4b1_res4b1_relu_0_split_1
I0310 17:21:06.798897  8311 net.cpp:150] Setting up res4b1_res4b1_relu_0_split
I0310 17:21:06.798928  8311 net.cpp:157] Top shape: 8 1024 14 14 (1605632)
I0310 17:21:06.798949  8311 net.cpp:157] Top shape: 8 1024 14 14 (1605632)
I0310 17:21:06.798965  8311 net.cpp:165] Memory required for data: 2011857888
I0310 17:21:06.798985  8311 layer_factory.hpp:77] Creating layer res4b2_branch2a
I0310 17:21:06.799016  8311 net.cpp:106] Creating Layer res4b2_branch2a
I0310 17:21:06.799037  8311 net.cpp:454] res4b2_branch2a <- res4b1_res4b1_relu_0_split_0
I0310 17:21:06.799062  8311 net.cpp:411] res4b2_branch2a -> res4b2_branch2a
I0310 17:21:06.801009  8311 net.cpp:150] Setting up res4b2_branch2a
I0310 17:21:06.801053  8311 net.cpp:157] Top shape: 8 256 14 14 (401408)
I0310 17:21:06.801071  8311 net.cpp:165] Memory required for data: 2013463520
I0310 17:21:06.801095  8311 layer_factory.hpp:77] Creating layer bn4b2_branch2a
I0310 17:21:06.801126  8311 net.cpp:106] Creating Layer bn4b2_branch2a
I0310 17:21:06.801147  8311 net.cpp:454] bn4b2_branch2a <- res4b2_branch2a
I0310 17:21:06.801170  8311 net.cpp:397] bn4b2_branch2a -> res4b2_branch2a (in-place)
I0310 17:21:06.801676  8311 net.cpp:150] Setting up bn4b2_branch2a
I0310 17:21:06.801717  8311 net.cpp:157] Top shape: 8 256 14 14 (401408)
I0310 17:21:06.801736  8311 net.cpp:165] Memory required for data: 2015069152
I0310 17:21:06.801765  8311 layer_factory.hpp:77] Creating layer scale4b2_branch2a
I0310 17:21:06.801791  8311 net.cpp:106] Creating Layer scale4b2_branch2a
I0310 17:21:06.801812  8311 net.cpp:454] scale4b2_branch2a <- res4b2_branch2a
I0310 17:21:06.801841  8311 net.cpp:397] scale4b2_branch2a -> res4b2_branch2a (in-place)
I0310 17:21:06.801964  8311 layer_factory.hpp:77] Creating layer scale4b2_branch2a
I0310 17:21:06.802255  8311 net.cpp:150] Setting up scale4b2_branch2a
I0310 17:21:06.802290  8311 net.cpp:157] Top shape: 8 256 14 14 (401408)
I0310 17:21:06.802309  8311 net.cpp:165] Memory required for data: 2016674784
I0310 17:21:06.802335  8311 layer_factory.hpp:77] Creating layer res4b2_branch2a_relu
I0310 17:21:06.802358  8311 net.cpp:106] Creating Layer res4b2_branch2a_relu
I0310 17:21:06.802378  8311 net.cpp:454] res4b2_branch2a_relu <- res4b2_branch2a
I0310 17:21:06.802402  8311 net.cpp:397] res4b2_branch2a_relu -> res4b2_branch2a (in-place)
I0310 17:21:06.802426  8311 net.cpp:150] Setting up res4b2_branch2a_relu
I0310 17:21:06.802449  8311 net.cpp:157] Top shape: 8 256 14 14 (401408)
I0310 17:21:06.802466  8311 net.cpp:165] Memory required for data: 2018280416
I0310 17:21:06.802484  8311 layer_factory.hpp:77] Creating layer res4b2_branch2b
I0310 17:21:06.802517  8311 net.cpp:106] Creating Layer res4b2_branch2b
I0310 17:21:06.802537  8311 net.cpp:454] res4b2_branch2b <- res4b2_branch2a
I0310 17:21:06.802567  8311 net.cpp:411] res4b2_branch2b -> res4b2_branch2b
I0310 17:21:06.806073  8311 net.cpp:150] Setting up res4b2_branch2b
I0310 17:21:06.806119  8311 net.cpp:157] Top shape: 8 256 14 14 (401408)
I0310 17:21:06.806138  8311 net.cpp:165] Memory required for data: 2019886048
I0310 17:21:06.806162  8311 layer_factory.hpp:77] Creating layer bn4b2_branch2b
I0310 17:21:06.806188  8311 net.cpp:106] Creating Layer bn4b2_branch2b
I0310 17:21:06.806210  8311 net.cpp:454] bn4b2_branch2b <- res4b2_branch2b
I0310 17:21:06.806238  8311 net.cpp:397] bn4b2_branch2b -> res4b2_branch2b (in-place)
I0310 17:21:06.806711  8311 net.cpp:150] Setting up bn4b2_branch2b
I0310 17:21:06.806746  8311 net.cpp:157] Top shape: 8 256 14 14 (401408)
I0310 17:21:06.806766  8311 net.cpp:165] Memory required for data: 2021491680
I0310 17:21:06.806795  8311 layer_factory.hpp:77] Creating layer scale4b2_branch2b
I0310 17:21:06.806820  8311 net.cpp:106] Creating Layer scale4b2_branch2b
I0310 17:21:06.806839  8311 net.cpp:454] scale4b2_branch2b <- res4b2_branch2b
I0310 17:21:06.806862  8311 net.cpp:397] scale4b2_branch2b -> res4b2_branch2b (in-place)
I0310 17:21:06.806984  8311 layer_factory.hpp:77] Creating layer scale4b2_branch2b
I0310 17:21:06.807265  8311 net.cpp:150] Setting up scale4b2_branch2b
I0310 17:21:06.807299  8311 net.cpp:157] Top shape: 8 256 14 14 (401408)
I0310 17:21:06.807317  8311 net.cpp:165] Memory required for data: 2023097312
I0310 17:21:06.807343  8311 layer_factory.hpp:77] Creating layer res4b2_branch2b_relu
I0310 17:21:06.807366  8311 net.cpp:106] Creating Layer res4b2_branch2b_relu
I0310 17:21:06.807386  8311 net.cpp:454] res4b2_branch2b_relu <- res4b2_branch2b
I0310 17:21:06.807415  8311 net.cpp:397] res4b2_branch2b_relu -> res4b2_branch2b (in-place)
I0310 17:21:06.807441  8311 net.cpp:150] Setting up res4b2_branch2b_relu
I0310 17:21:06.807463  8311 net.cpp:157] Top shape: 8 256 14 14 (401408)
I0310 17:21:06.807482  8311 net.cpp:165] Memory required for data: 2024702944
I0310 17:21:06.807498  8311 layer_factory.hpp:77] Creating layer res4b2_branch2c
I0310 17:21:06.807525  8311 net.cpp:106] Creating Layer res4b2_branch2c
I0310 17:21:06.807544  8311 net.cpp:454] res4b2_branch2c <- res4b2_branch2b
I0310 17:21:06.807574  8311 net.cpp:411] res4b2_branch2c -> res4b2_branch2c
I0310 17:21:06.809540  8311 net.cpp:150] Setting up res4b2_branch2c
I0310 17:21:06.809584  8311 net.cpp:157] Top shape: 8 1024 14 14 (1605632)
I0310 17:21:06.809604  8311 net.cpp:165] Memory required for data: 2031125472
I0310 17:21:06.809628  8311 layer_factory.hpp:77] Creating layer bn4b2_branch2c
I0310 17:21:06.809653  8311 net.cpp:106] Creating Layer bn4b2_branch2c
I0310 17:21:06.809674  8311 net.cpp:454] bn4b2_branch2c <- res4b2_branch2c
I0310 17:21:06.809696  8311 net.cpp:397] bn4b2_branch2c -> res4b2_branch2c (in-place)
I0310 17:21:06.810163  8311 net.cpp:150] Setting up bn4b2_branch2c
I0310 17:21:06.810199  8311 net.cpp:157] Top shape: 8 1024 14 14 (1605632)
I0310 17:21:06.810217  8311 net.cpp:165] Memory required for data: 2037548000
I0310 17:21:06.810246  8311 layer_factory.hpp:77] Creating layer scale4b2_branch2c
I0310 17:21:06.810278  8311 net.cpp:106] Creating Layer scale4b2_branch2c
I0310 17:21:06.810300  8311 net.cpp:454] scale4b2_branch2c <- res4b2_branch2c
I0310 17:21:06.810323  8311 net.cpp:397] scale4b2_branch2c -> res4b2_branch2c (in-place)
I0310 17:21:06.810443  8311 layer_factory.hpp:77] Creating layer scale4b2_branch2c
I0310 17:21:06.810745  8311 net.cpp:150] Setting up scale4b2_branch2c
I0310 17:21:06.810780  8311 net.cpp:157] Top shape: 8 1024 14 14 (1605632)
I0310 17:21:06.810797  8311 net.cpp:165] Memory required for data: 2043970528
I0310 17:21:06.810822  8311 layer_factory.hpp:77] Creating layer res4b2
I0310 17:21:06.810847  8311 net.cpp:106] Creating Layer res4b2
I0310 17:21:06.810868  8311 net.cpp:454] res4b2 <- res4b1_res4b1_relu_0_split_1
I0310 17:21:06.810889  8311 net.cpp:454] res4b2 <- res4b2_branch2c
I0310 17:21:06.810917  8311 net.cpp:411] res4b2 -> res4b2
I0310 17:21:06.810998  8311 net.cpp:150] Setting up res4b2
…
I0310 17:21:07.592943  8311 net.cpp:106] Creating Layer id_bn4b33_branch2b
I0310 17:21:07.592954  8311 net.cpp:454] id_bn4b33_branch2b <- id_res4b33_branch2b
I0310 17:21:07.592965  8311 net.cpp:397] id_bn4b33_branch2b -> id_res4b33_branch2b (in-place)
I0310 17:21:07.593227  8311 net.cpp:150] Setting up id_bn4b33_branch2b
I0310 17:21:07.593245  8311 net.cpp:157] Top shape: 8 256 14 14 (401408)
I0310 17:21:07.593261  8311 net.cpp:165] Memory required for data: 7878902752
I0310 17:21:07.593276  8311 layer_factory.hpp:77] Creating layer id_scale4b33_branch2b
I0310 17:21:07.593294  8311 net.cpp:106] Creating Layer id_scale4b33_branch2b
I0310 17:21:07.593305  8311 net.cpp:454] id_scale4b33_branch2b <- id_res4b33_branch2b
I0310 17:21:07.593317  8311 net.cpp:397] id_scale4b33_branch2b -> id_res4b33_branch2b (in-place)
I0310 17:21:07.593382  8311 layer_factory.hpp:77] Creating layer id_scale4b33_branch2b
I0310 17:21:07.593545  8311 net.cpp:150] Setting up id_scale4b33_branch2b
I0310 17:21:07.593562  8311 net.cpp:157] Top shape: 8 256 14 14 (401408)
I0310 17:21:07.593571  8311 net.cpp:165] Memory required for data: 7880508384
I0310 17:21:07.593585  8311 layer_factory.hpp:77] Creating layer id_res4b33_branch2b_relu
I0310 17:21:07.593595  8311 net.cpp:106] Creating Layer id_res4b33_branch2b_relu
I0310 17:21:07.593605  8311 net.cpp:454] id_res4b33_branch2b_relu <- id_res4b33_branch2b
I0310 17:21:07.593616  8311 net.cpp:397] id_res4b33_branch2b_relu -> id_res4b33_branch2b (in-place)
I0310 17:21:07.593628  8311 net.cpp:150] Setting up id_res4b33_branch2b_relu
I0310 17:21:07.593639  8311 net.cpp:157] Top shape: 8 256 14 14 (401408)
I0310 17:21:07.593647  8311 net.cpp:165] Memory required for data: 7882114016
I0310 17:21:07.593657  8311 layer_factory.hpp:77] Creating layer id_res4b33_branch2c
I0310 17:21:07.593688  8311 net.cpp:106] Creating Layer id_res4b33_branch2c
I0310 17:21:07.593699  8311 net.cpp:454] id_res4b33_branch2c <- id_res4b33_branch2b
I0310 17:21:07.593714  8311 net.cpp:411] id_res4b33_branch2c -> id_res4b33_branch2c
I0310 17:21:07.594780  8311 net.cpp:150] Setting up id_res4b33_branch2c
I0310 17:21:07.594801  8311 net.cpp:157] Top shape: 8 1024 14 14 (1605632)
I0310 17:21:07.594810  8311 net.cpp:165] Memory required for data: 7888536544
I0310 17:21:07.594821  8311 layer_factory.hpp:77] Creating layer id_bn4b33_branch2c
I0310 17:21:07.594835  8311 net.cpp:106] Creating Layer id_bn4b33_branch2c
I0310 17:21:07.594844  8311 net.cpp:454] id_bn4b33_branch2c <- id_res4b33_branch2c
I0310 17:21:07.594858  8311 net.cpp:397] id_bn4b33_branch2c -> id_res4b33_branch2c (in-place)
I0310 17:21:07.595130  8311 net.cpp:150] Setting up id_bn4b33_branch2c
I0310 17:21:07.595147  8311 net.cpp:157] Top shape: 8 1024 14 14 (1605632)
I0310 17:21:07.595156  8311 net.cpp:165] Memory required for data: 7894959072
I0310 17:21:07.595171  8311 layer_factory.hpp:77] Creating layer id_scale4b33_branch2c
I0310 17:21:07.595186  8311 net.cpp:106] Creating Layer id_scale4b33_branch2c
I0310 17:21:07.595196  8311 net.cpp:454] id_scale4b33_branch2c <- id_res4b33_branch2c
I0310 17:21:07.595207  8311 net.cpp:397] id_scale4b33_branch2c -> id_res4b33_branch2c (in-place)
I0310 17:21:07.595278  8311 layer_factory.hpp:77] Creating layer id_scale4b33_branch2c
I0310 17:21:07.595453  8311 net.cpp:150] Setting up id_scale4b33_branch2c
I0310 17:21:07.595469  8311 net.cpp:157] Top shape: 8 1024 14 14 (1605632)
I0310 17:21:07.595479  8311 net.cpp:165] Memory required for data: 7901381600
I0310 17:21:07.595490  8311 layer_factory.hpp:77] Creating layer id_res4b33
I0310 17:21:07.595502  8311 net.cpp:106] Creating Layer id_res4b33
I0310 17:21:07.595516  8311 net.cpp:454] id_res4b33 <- id_res4b32_id_res4b32_relu_0_split_1
I0310 17:21:07.595527  8311 net.cpp:454] id_res4b33 <- id_res4b33_branch2c
I0310 17:21:07.595538  8311 net.cpp:411] id_res4b33 -> id_res4b33
I0310 17:21:07.595578  8311 net.cpp:150] Setting up id_res4b33
I0310 17:21:07.595593  8311 net.cpp:157] Top shape: 8 1024 14 14 (1605632)
I0310 17:21:07.595602  8311 net.cpp:165] Memory required for data: 7907804128
I0310 17:21:07.595612  8311 layer_factory.hpp:77] Creating layer id_res4b33_relu
I0310 17:21:07.595629  8311 net.cpp:106] Creating Layer id_res4b33_relu
I0310 17:21:07.595639  8311 net.cpp:454] id_res4b33_relu <- id_res4b33
I0310 17:21:07.595650  8311 net.cpp:397] id_res4b33_relu -> id_res4b33 (in-place)
I0310 17:21:07.595666  8311 net.cpp:150] Setting up id_res4b33_relu
I0310 17:21:07.595679  8311 net.cpp:157] Top shape: 8 1024 14 14 (1605632)
I0310 17:21:07.595686  8311 net.cpp:165] Memory required for data: 7914226656
I0310 17:21:07.595695  8311 layer_factory.hpp:77] Creating layer id_res4b33_id_res4b33_relu_0_split
I0310 17:21:07.595706  8311 net.cpp:106] Creating Layer id_res4b33_id_res4b33_relu_0_split
I0310 17:21:07.595715  8311 net.cpp:454] id_res4b33_id_res4b33_relu_0_split <- id_res4b33
I0310 17:21:07.595726  8311 net.cpp:411] id_res4b33_id_res4b33_relu_0_split -> id_res4b33_id_res4b33_relu_0_split_0
I0310 17:21:07.595741  8311 net.cpp:411] id_res4b33_id_res4b33_relu_0_split -> id_res4b33_id_res4b33_relu_0_split_1
I0310 17:21:07.595798  8311 net.cpp:150] Setting up id_res4b33_id_res4b33_relu_0_split
I0310 17:21:07.595813  8311 net.cpp:157] Top shape: 8 1024 14 14 (1605632)
I0310 17:21:07.595823  8311 net.cpp:157] Top shape: 8 1024 14 14 (1605632)
I0310 17:21:07.595831  8311 net.cpp:165] Memory required for data: 7927071712
I0310 17:21:07.595839  8311 layer_factory.hpp:77] Creating layer id_res4b34_branch2a
I0310 17:21:07.595855  8311 net.cpp:106] Creating Layer id_res4b34_branch2a
I0310 17:21:07.595866  8311 net.cpp:454] id_res4b34_branch2a <- id_res4b33_id_res4b33_relu_0_split_0
I0310 17:21:07.595880  8311 net.cpp:411] id_res4b34_branch2a -> id_res4b34_branch2a
I0310 17:21:07.596951  8311 net.cpp:150] Setting up id_res4b34_branch2a
I0310 17:21:07.596976  8311 net.cpp:157] Top shape: 8 256 14 14 (401408)
I0310 17:21:07.596994  8311 net.cpp:165] Memory required for data: 7928677344
I0310 17:21:07.597007  8311 layer_factory.hpp:77] Creating layer id_bn4b34_branch2a
I0310 17:21:07.597021  8311 net.cpp:106] Creating Layer id_bn4b34_branch2a
I0310 17:21:07.597033  8311 net.cpp:454] id_bn4b34_branch2a <- id_res4b34_branch2a
I0310 17:21:07.597043  8311 net.cpp:397] id_bn4b34_branch2a -> id_res4b34_branch2a (in-place)
I0310 17:21:07.597311  8311 net.cpp:150] Setting up id_bn4b34_branch2a
I0310 17:21:07.597329  8311 net.cpp:157] Top shape: 8 256 14 14 (401408)
I0310 17:21:07.597338  8311 net.cpp:165] Memory required for data: 7930282976
I0310 17:21:07.597353  8311 layer_factory.hpp:77] Creating layer id_scale4b34_branch2a
I0310 17:21:07.597365  8311 net.cpp:106] Creating Layer id_scale4b34_branch2a
I0310 17:21:07.597375  8311 net.cpp:454] id_scale4b34_branch2a <- id_res4b34_branch2a
I0310 17:21:07.597388  8311 net.cpp:397] id_scale4b34_branch2a -> id_res4b34_branch2a (in-place)
I0310 17:21:07.597455  8311 layer_factory.hpp:77] Creating layer id_scale4b34_branch2a
I0310 17:21:07.597612  8311 net.cpp:150] Setting up id_scale4b34_branch2a
I0310 17:21:07.597630  8311 net.cpp:157] Top shape: 8 256 14 14 (401408)
I0310 17:21:07.597638  8311 net.cpp:165] Memory required for data: 7931888608
I0310 17:21:07.597651  8311 layer_factory.hpp:77] Creating layer id_res4b34_branch2a_relu
I0310 17:21:07.597668  8311 net.cpp:106] Creating Layer id_res4b34_branch2a_relu
I0310 17:21:07.597679  8311 net.cpp:454] id_res4b34_branch2a_relu <- id_res4b34_branch2a
I0310 17:21:07.597690  8311 net.cpp:397] id_res4b34_branch2a_relu -> id_res4b34_branch2a (in-place)
I0310 17:21:07.597702  8311 net.cpp:150] Setting up id_res4b34_branch2a_relu
I0310 17:21:07.597713  8311 net.cpp:157] Top shape: 8 256 14 14 (401408)
I0310 17:21:07.597723  8311 net.cpp:165] Memory required for data: 7933494240
I0310 17:21:07.597730  8311 layer_factory.hpp:77] Creating layer id_res4b34_branch2b
I0310 17:21:07.597748  8311 net.cpp:106] Creating Layer id_res4b34_branch2b
I0310 17:21:07.597759  8311 net.cpp:454] id_res4b34_branch2b <- id_res4b34_branch2a
I0310 17:21:07.597770  8311 net.cpp:411] id_res4b34_branch2b -> id_res4b34_branch2b
I0310 17:21:07.599638  8311 net.cpp:150] Setting up id_res4b34_branch2b
I0310 17:21:07.599659  8311 net.cpp:157] Top shape: 8 256 14 14 (401408)
I0310 17:21:07.599669  8311 net.cpp:165] Memory required for data: 7935099872
I0310 17:21:07.599681  8311 layer_factory.hpp:77] Creating layer id_bn4b34_branch2b
I0310 17:21:07.599696  8311 net.cpp:106] Creating Layer id_bn4b34_branch2b
I0310 17:21:07.599707  8311 net.cpp:454] id_bn4b34_branch2b <- id_res4b34_branch2b
I0310 17:21:07.599720  8311 net.cpp:397] id_bn4b34_branch2b -> id_res4b34_branch2b (in-place)
I0310 17:21:07.599977  8311 net.cpp:150] Setting up id_bn4b34_branch2b
I0310 17:21:07.599993  8311 net.cpp:157] Top shape: 8 256 14 14 (401408)
I0310 17:21:07.600003  8311 net.cpp:165] Memory required for data: 7936705504
I0310 17:21:07.600016  8311 layer_factory.hpp:77] Creating layer id_scale4b34_branch2b
I0310 17:21:07.600033  8311 net.cpp:106] Creating Layer id_scale4b34_branch2b
I0310 17:21:07.600042  8311 net.cpp:454] id_scale4b34_branch2b <- id_res4b34_branch2b
I0310 17:21:07.600054  8311 net.cpp:397] id_scale4b34_branch2b -> id_res4b34_branch2b (in-place)
I0310 17:21:07.600121  8311 layer_factory.hpp:77] Creating layer id_scale4b34_branch2b
I0310 17:21:07.600286  8311 net.cpp:150] Setting up id_scale4b34_branch2b
I0310 17:21:07.600302  8311 net.cpp:157] Top shape: 8 256 14 14 (401408)
I0310 17:21:07.600311  8311 net.cpp:165] Memory required for data: 7938311136
I0310 17:21:07.600323  8311 layer_factory.hpp:77] Creating layer id_res4b34_branch2b_relu
I0310 17:21:07.600335  8311 net.cpp:106] Creating Layer id_res4b34_branch2b_relu
I0310 17:21:07.600345  8311 net.cpp:454] id_res4b34_branch2b_relu <- id_res4b34_branch2b
I0310 17:21:07.600355  8311 net.cpp:397] id_res4b34_branch2b_relu -> id_res4b34_branch2b (in-place)
I0310 17:21:07.600375  8311 net.cpp:150] Setting up id_res4b34_branch2b_relu
I0310 17:21:07.600396  8311 net.cpp:157] Top shape: 8 256 14 14 (401408)
I0310 17:21:07.600405  8311 net.cpp:165] Memory required for data: 7939916768
I0310 17:21:07.600414  8311 layer_factory.hpp:77] Creating layer id_res4b34_branch2c
I0310 17:21:07.600432  8311 net.cpp:106] Creating Layer id_res4b34_branch2c
I0310 17:21:07.600442  8311 net.cpp:454] id_res4b34_branch2c <- id_res4b34_branch2b
I0310 17:21:07.600457  8311 net.cpp:411] id_res4b34_branch2c -> id_res4b34_branch2c
I0310 17:21:07.601531  8311 net.cpp:150] Setting up id_res4b34_branch2c
I0310 17:21:07.601552  8311 net.cpp:157] Top shape: 8 1024 14 14 (1605632)
I0310 17:21:07.601562  8311 net.cpp:165] Memory required for data: 7946339296
I0310 17:21:07.601572  8311 layer_factory.hpp:77] Creating layer id_bn4b34_branch2c
I0310 17:21:07.601584  8311 net.cpp:106] Creating Layer id_bn4b34_branch2c
I0310 17:21:07.601595  8311 net.cpp:454] id_bn4b34_branch2c <- id_res4b34_branch2c
I0310 17:21:07.601609  8311 net.cpp:397] id_bn4b34_branch2c -> id_res4b34_branch2c (in-place)
I0310 17:21:07.601886  8311 net.cpp:150] Setting up id_bn4b34_branch2c
I0310 17:21:07.601903  8311 net.cpp:157] Top shape: 8 1024 14 14 (1605632)
I0310 17:21:07.601912  8311 net.cpp:165] Memory required for data: 7952761824
I0310 17:21:07.601927  8311 layer_factory.hpp:77] Creating layer id_scale4b34_branch2c
I0310 17:21:07.601940  8311 net.cpp:106] Creating Layer id_scale4b34_branch2c
I0310 17:21:07.601950  8311 net.cpp:454] id_scale4b34_branch2c <- id_res4b34_branch2c
I0310 17:21:07.601960  8311 net.cpp:397] id_scale4b34_branch2c -> id_res4b34_branch2c (in-place)
I0310 17:21:07.602031  8311 layer_factory.hpp:77] Creating layer id_scale4b34_branch2c
I0310 17:21:07.602212  8311 net.cpp:150] Setting up id_scale4b34_branch2c
I0310 17:21:07.602229  8311 net.cpp:157] Top shape: 8 1024 14 14 (1605632)
I0310 17:21:07.602238  8311 net.cpp:165] Memory required for data: 7959184352
I0310 17:21:07.602250  8311 layer_factory.hpp:77] Creating layer id_res4b34
I0310 17:21:07.602265  8311 net.cpp:106] Creating Layer id_res4b34
I0310 17:21:07.602275  8311 net.cpp:454] id_res4b34 <- id_res4b33_id_res4b33_relu_0_split_1
I0310 17:21:07.602286  8311 net.cpp:454] id_res4b34 <- id_res4b34_branch2c
I0310 17:21:07.602301  8311 net.cpp:411] id_res4b34 -> id_res4b34
I0310 17:21:07.602344  8311 net.cpp:150] Setting up id_res4b34
I0310 17:21:07.602358  8311 net.cpp:157] Top shape: 8 1024 14 14 (1605632)
I0310 17:21:07.602367  8311 net.cpp:165] Memory required for data: 7965606880
I0310 17:21:07.602376  8311 layer_factory.hpp:77] Creating layer id_res4b34_relu
I0310 17:21:07.602391  8311 net.cpp:106] Creating Layer id_res4b34_relu
I0310 17:21:07.602401  8311 net.cpp:454] id_res4b34_relu <- id_res4b34
I0310 17:21:07.602411  8311 net.cpp:397] id_res4b34_relu -> id_res4b34 (in-place)
I0310 17:21:07.602424  8311 net.cpp:150] Setting up id_res4b34_relu
I0310 17:21:07.602435  8311 net.cpp:157] Top shape: 8 1024 14 14 (1605632)
I0310 17:21:07.602443  8311 net.cpp:165] Memory required for data: 7972029408
I0310 17:21:07.602452  8311 layer_factory.hpp:77] Creating layer id_res4b34_id_res4b34_relu_0_split
I0310 17:21:07.602466  8311 net.cpp:106] Creating Layer id_res4b34_id_res4b34_relu_0_split
I0310 17:21:07.602476  8311 net.cpp:454] id_res4b34_id_res4b34_relu_0_split <- id_res4b34
I0310 17:21:07.602488  8311 net.cpp:411] id_res4b34_id_res4b34_relu_0_split -> id_res4b34_id_res4b34_relu_0_split_0
I0310 17:21:07.602500  8311 net.cpp:411] id_res4b34_id_res4b34_relu_0_split -> id_res4b34_id_res4b34_relu_0_split_1
I0310 17:21:07.602557  8311 net.cpp:150] Setting up id_res4b34_id_res4b34_relu_0_split
I0310 17:21:07.602573  8311 net.cpp:157] Top shape: 8 1024 14 14 (1605632)
I0310 17:21:07.602583  8311 net.cpp:157] Top shape: 8 1024 14 14 (1605632)
I0310 17:21:07.602591  8311 net.cpp:165] Memory required for data: 7984874464
I0310 17:21:07.602601  8311 layer_factory.hpp:77] Creating layer id_res4b35_branch2a
I0310 17:21:07.602617  8311 net.cpp:106] Creating Layer id_res4b35_branch2a
I0310 17:21:07.602633  8311 net.cpp:454] id_res4b35_branch2a <- id_res4b34_id_res4b34_relu_0_split_0
I0310 17:21:07.602655  8311 net.cpp:411] id_res4b35_branch2a -> id_res4b35_branch2a
I0310 17:21:07.603731  8311 net.cpp:150] Setting up id_res4b35_branch2a
I0310 17:21:07.603752  8311 net.cpp:157] Top shape: 8 256 14 14 (401408)
I0310 17:21:07.603761  8311 net.cpp:165] Memory required for data: 7986480096
I0310 17:21:07.603773  8311 layer_factory.hpp:77] Creating layer id_bn4b35_branch2a
I0310 17:21:07.603785  8311 net.cpp:106] Creating Layer id_bn4b35_branch2a
I0310 17:21:07.603796  8311 net.cpp:454] id_bn4b35_branch2a <- id_res4b35_branch2a
I0310 17:21:07.603807  8311 net.cpp:397] id_bn4b35_branch2a -> id_res4b35_branch2a (in-place)
I0310 17:21:07.604063  8311 net.cpp:150] Setting up id_bn4b35_branch2a
I0310 17:21:07.604084  8311 net.cpp:157] Top shape: 8 256 14 14 (401408)
I0310 17:21:07.604092  8311 net.cpp:165] Memory required for data: 7988085728
I0310 17:21:07.604107  8311 layer_factory.hpp:77] Creating layer id_scale4b35_branch2a
I0310 17:21:07.604122  8311 net.cpp:106] Creating Layer id_scale4b35_branch2a
I0310 17:21:07.604132  8311 net.cpp:454] id_scale4b35_branch2a <- id_res4b35_branch2a
I0310 17:21:07.604143  8311 net.cpp:397] id_scale4b35_branch2a -> id_res4b35_branch2a (in-place)
I0310 17:21:07.604208  8311 layer_factory.hpp:77] Creating layer id_scale4b35_branch2a
I0310 17:21:07.605027  8311 net.cpp:150] Setting up id_scale4b35_branch2a
I0310 17:21:07.605047  8311 net.cpp:157] Top shape: 8 256 14 14 (401408)
I0310 17:21:07.605057  8311 net.cpp:165] Memory required for data: 7989691360
I0310 17:21:07.605069  8311 layer_factory.hpp:77] Creating layer id_res4b35_branch2a_relu
I0310 17:21:07.605082  8311 net.cpp:106] Creating Layer id_res4b35_branch2a_relu
I0310 17:21:07.605093  8311 net.cpp:454] id_res4b35_branch2a_relu <- id_res4b35_branch2a
I0310 17:21:07.605106  8311 net.cpp:397] id_res4b35_branch2a_relu -> id_res4b35_branch2a (in-place)
I0310 17:21:07.605120  8311 net.cpp:150] Setting up id_res4b35_branch2a_relu
I0310 17:21:07.605131  8311 net.cpp:157] Top shape: 8 256 14 14 (401408)
I0310 17:21:07.605140  8311 net.cpp:165] Memory required for data: 7991296992
I0310 17:21:07.605149  8311 layer_factory.hpp:77] Creating layer id_res4b35_branch2b
I0310 17:21:07.605162  8311 net.cpp:106] Creating Layer id_res4b35_branch2b
I0310 17:21:07.605172  8311 net.cpp:454] id_res4b35_branch2b <- id_res4b35_branch2a
I0310 17:21:07.605187  8311 net.cpp:411] id_res4b35_branch2b -> id_res4b35_branch2b
I0310 17:21:07.607046  8311 net.cpp:150] Setting up id_res4b35_branch2b
I0310 17:21:07.607069  8311 net.cpp:157] Top shape: 8 256 14 14 (401408)
I0310 17:21:07.607079  8311 net.cpp:165] Memory required for data: 7992902624
I0310 17:21:07.607089  8311 layer_factory.hpp:77] Creating layer id_bn4b35_branch2b
I0310 17:21:07.607105  8311 net.cpp:106] Creating Layer id_bn4b35_branch2b
I0310 17:21:07.607115  8311 net.cpp:454] id_bn4b35_branch2b <- id_res4b35_branch2b
I0310 17:21:07.607125  8311 net.cpp:397] id_bn4b35_branch2b -> id_res4b35_branch2b (in-place)
I0310 17:21:07.607352  8311 net.cpp:150] Setting up id_bn4b35_branch2b
I0310 17:21:07.607368  8311 net.cpp:157] Top shape: 8 256 14 14 (401408)
I0310 17:21:07.607378  8311 net.cpp:165] Memory required for data: 7994508256
I0310 17:21:07.607395  8311 layer_factory.hpp:77] Creating layer id_scale4b35_branch2b
I0310 17:21:07.607409  8311 net.cpp:106] Creating Layer id_scale4b35_branch2b
I0310 17:21:07.607419  8311 net.cpp:454] id_scale4b35_branch2b <- id_res4b35_branch2b
I0310 17:21:07.607430  8311 net.cpp:397] id_scale4b35_branch2b -> id_res4b35_branch2b (in-place)
I0310 17:21:07.607492  8311 layer_factory.hpp:77] Creating layer id_scale4b35_branch2b
I0310 17:21:07.607635  8311 net.cpp:150] Setting up id_scale4b35_branch2b
I0310 17:21:07.607650  8311 net.cpp:157] Top shape: 8 256 14 14 (401408)
I0310 17:21:07.607659  8311 net.cpp:165] Memory required for data: 7996113888
I0310 17:21:07.607671  8311 layer_factory.hpp:77] Creating layer id_res4b35_branch2b_relu
I0310 17:21:07.607692  8311 net.cpp:106] Creating Layer id_res4b35_branch2b_relu
I0310 17:21:07.607713  8311 net.cpp:454] id_res4b35_branch2b_relu <- id_res4b35_branch2b
I0310 17:21:07.607725  8311 net.cpp:397] id_res4b35_branch2b_relu -> id_res4b35_branch2b (in-place)
I0310 17:21:07.607738  8311 net.cpp:150] Setting up id_res4b35_branch2b_relu
I0310 17:21:07.607749  8311 net.cpp:157] Top shape: 8 256 14 14 (401408)
I0310 17:21:07.607758  8311 net.cpp:165] Memory required for data: 7997719520
I0310 17:21:07.607766  8311 layer_factory.hpp:77] Creating layer id_res4b35_branch2c
I0310 17:21:07.607782  8311 net.cpp:106] Creating Layer id_res4b35_branch2c
I0310 17:21:07.607792  8311 net.cpp:454] id_res4b35_branch2c <- id_res4b35_branch2b
I0310 17:21:07.607805  8311 net.cpp:411] id_res4b35_branch2c -> id_res4b35_branch2c
I0310 17:21:07.608839  8311 net.cpp:150] Setting up id_res4b35_branch2c
I0310 17:21:07.608860  8311 net.cpp:157] Top shape: 8 1024 14 14 (1605632)
I0310 17:21:07.608870  8311 net.cpp:165] Memory required for data: 8004142048
I0310 17:21:07.608880  8311 layer_factory.hpp:77] Creating layer id_bn4b35_branch2c
I0310 17:21:07.608897  8311 net.cpp:106] Creating Layer id_bn4b35_branch2c
I0310 17:21:07.608908  8311 net.cpp:454] id_bn4b35_branch2c <- id_res4b35_branch2c
I0310 17:21:07.608919  8311 net.cpp:397] id_bn4b35_branch2c -> id_res4b35_branch2c (in-place)
I0310 17:21:07.609166  8311 net.cpp:150] Setting up id_bn4b35_branch2c
I0310 17:21:07.609184  8311 net.cpp:157] Top shape: 8 1024 14 14 (1605632)
I0310 17:21:07.609192  8311 net.cpp:165] Memory required for data: 8010564576
I0310 17:21:07.609206  8311 layer_factory.hpp:77] Creating layer id_scale4b35_branch2c
I0310 17:21:07.609218  8311 net.cpp:106] Creating Layer id_scale4b35_branch2c
I0310 17:21:07.609228  8311 net.cpp:454] id_scale4b35_branch2c <- id_res4b35_branch2c
I0310 17:21:07.609246  8311 net.cpp:397] id_scale4b35_branch2c -> id_res4b35_branch2c (in-place)
I0310 17:21:07.609323  8311 layer_factory.hpp:77] Creating layer id_scale4b35_branch2c
I0310 17:21:07.609494  8311 net.cpp:150] Setting up id_scale4b35_branch2c
I0310 17:21:07.609511  8311 net.cpp:157] Top shape: 8 1024 14 14 (1605632)
I0310 17:21:07.609520  8311 net.cpp:165] Memory required for data: 8016987104
I0310 17:21:07.609534  8311 layer_factory.hpp:77] Creating layer id_res4b35
I0310 17:21:07.609545  8311 net.cpp:106] Creating Layer id_res4b35
I0310 17:21:07.609555  8311 net.cpp:454] id_res4b35 <- id_res4b34_id_res4b34_relu_0_split_1
I0310 17:21:07.609566  8311 net.cpp:454] id_res4b35 <- id_res4b35_branch2c
I0310 17:21:07.609578  8311 net.cpp:411] id_res4b35 -> id_res4b35
I0310 17:21:07.609618  8311 net.cpp:150] Setting up id_res4b35
I0310 17:21:07.609633  8311 net.cpp:157] Top shape: 8 1024 14 14 (1605632)
I0310 17:21:07.609642  8311 net.cpp:165] Memory required for data: 8023409632
I0310 17:21:07.609650  8311 layer_factory.hpp:77] Creating layer id_res4b35_relu
I0310 17:21:07.609664  8311 net.cpp:106] Creating Layer id_res4b35_relu
I0310 17:21:07.609674  8311 net.cpp:454] id_res4b35_relu <- id_res4b35
I0310 17:21:07.609688  8311 net.cpp:397] id_res4b35_relu -> id_res4b35 (in-place)
I0310 17:21:07.609700  8311 net.cpp:150] Setting up id_res4b35_relu
I0310 17:21:07.609711  8311 net.cpp:157] Top shape: 8 1024 14 14 (1605632)
I0310 17:21:07.609719  8311 net.cpp:165] Memory required for data: 8029832160
I0310 17:21:07.609729  8311 layer_factory.hpp:77] Creating layer id_res4b35_id_res4b35_relu_0_split
I0310 17:21:07.609740  8311 net.cpp:106] Creating Layer id_res4b35_id_res4b35_relu_0_split
I0310 17:21:07.609748  8311 net.cpp:454] id_res4b35_id_res4b35_relu_0_split <- id_res4b35
I0310 17:21:07.609761  8311 net.cpp:411] id_res4b35_id_res4b35_relu_0_split -> id_res4b35_id_res4b35_relu_0_split_0
I0310 17:21:07.609776  8311 net.cpp:411] id_res4b35_id_res4b35_relu_0_split -> id_res4b35_id_res4b35_relu_0_split_1
I0310 17:21:07.609824  8311 net.cpp:150] Setting up id_res4b35_id_res4b35_relu_0_split
I0310 17:21:07.609839  8311 net.cpp:157] Top shape: 8 1024 14 14 (1605632)
I0310 17:21:07.609849  8311 net.cpp:157] Top shape: 8 1024 14 14 (1605632)
I0310 17:21:07.609872  8311 net.cpp:165] Memory required for data: 8042677216
I0310 17:21:07.609882  8311 layer_factory.hpp:77] Creating layer id_res5a_branch1
I0310 17:21:07.609901  8311 net.cpp:106] Creating Layer id_res5a_branch1
I0310 17:21:07.609912  8311 net.cpp:454] id_res5a_branch1 <- id_res4b35_id_res4b35_relu_0_split_0
I0310 17:21:07.609926  8311 net.cpp:411] id_res5a_branch1 -> id_res5a_branch1
I0310 17:21:07.615525  8311 net.cpp:150] Setting up id_res5a_branch1
I0310 17:21:07.615550  8311 net.cpp:157] Top shape: 8 2048 7 7 (802816)
I0310 17:21:07.615561  8311 net.cpp:165] Memory required for data: 8045888480
I0310 17:21:07.615572  8311 layer_factory.hpp:77] Creating layer id_bn5a_branch1
I0310 17:21:07.615587  8311 net.cpp:106] Creating Layer id_bn5a_branch1
I0310 17:21:07.615598  8311 net.cpp:454] id_bn5a_branch1 <- id_res5a_branch1
I0310 17:21:07.615610  8311 net.cpp:397] id_bn5a_branch1 -> id_res5a_branch1 (in-place)
I0310 17:21:07.616046  8311 net.cpp:150] Setting up id_bn5a_branch1
I0310 17:21:07.616065  8311 net.cpp:157] Top shape: 8 2048 7 7 (802816)
I0310 17:21:07.616073  8311 net.cpp:165] Memory required for data: 8049099744
I0310 17:21:07.616088  8311 layer_factory.hpp:77] Creating layer id_scale5a_branch1
I0310 17:21:07.616101  8311 net.cpp:106] Creating Layer id_scale5a_branch1
I0310 17:21:07.616111  8311 net.cpp:454] id_scale5a_branch1 <- id_res5a_branch1
I0310 17:21:07.616127  8311 net.cpp:397] id_scale5a_branch1 -> id_res5a_branch1 (in-place)
I0310 17:21:07.616204  8311 layer_factory.hpp:77] Creating layer id_scale5a_branch1
I0310 17:21:07.616384  8311 net.cpp:150] Setting up id_scale5a_branch1
I0310 17:21:07.616403  8311 net.cpp:157] Top shape: 8 2048 7 7 (802816)
I0310 17:21:07.616412  8311 net.cpp:165] Memory required for data: 8052311008
I0310 17:21:07.616425  8311 layer_factory.hpp:77] Creating layer id_res5a_branch2a
I0310 17:21:07.616441  8311 net.cpp:106] Creating Layer id_res5a_branch2a
I0310 17:21:07.616452  8311 net.cpp:454] id_res5a_branch2a <- id_res4b35_id_res4b35_relu_0_split_1
I0310 17:21:07.616467  8311 net.cpp:411] id_res5a_branch2a -> id_res5a_branch2a
I0310 17:21:07.618163  8311 net.cpp:150] Setting up id_res5a_branch2a
I0310 17:21:07.618185  8311 net.cpp:157] Top shape: 8 512 7 7 (200704)
I0310 17:21:07.618194  8311 net.cpp:165] Memory required for data: 8053113824
I0310 17:21:07.618206  8311 layer_factory.hpp:77] Creating layer id_bn5a_branch2a
I0310 17:21:07.618218  8311 net.cpp:106] Creating Layer id_bn5a_branch2a
I0310 17:21:07.618229  8311 net.cpp:454] id_bn5a_branch2a <- id_res5a_branch2a
I0310 17:21:07.618240  8311 net.cpp:397] id_bn5a_branch2a -> id_res5a_branch2a (in-place)
I0310 17:21:07.618491  8311 net.cpp:150] Setting up id_bn5a_branch2a
I0310 17:21:07.618508  8311 net.cpp:157] Top shape: 8 512 7 7 (200704)
I0310 17:21:07.618518  8311 net.cpp:165] Memory required for data: 8053916640
I0310 17:21:07.618532  8311 layer_factory.hpp:77] Creating layer id_scale5a_branch2a
I0310 17:21:07.618549  8311 net.cpp:106] Creating Layer id_scale5a_branch2a
I0310 17:21:07.618561  8311 net.cpp:454] id_scale5a_branch2a <- id_res5a_branch2a
I0310 17:21:07.618571  8311 net.cpp:397] id_scale5a_branch2a -> id_res5a_branch2a (in-place)
I0310 17:21:07.618639  8311 layer_factory.hpp:77] Creating layer id_scale5a_branch2a
I0310 17:21:07.618806  8311 net.cpp:150] Setting up id_scale5a_branch2a
I0310 17:21:07.618824  8311 net.cpp:157] Top shape: 8 512 7 7 (200704)
I0310 17:21:07.618834  8311 net.cpp:165] Memory required for data: 8054719456
I0310 17:21:07.618845  8311 layer_factory.hpp:77] Creating layer id_res5a_branch2a_relu
I0310 17:21:07.618857  8311 net.cpp:106] Creating Layer id_res5a_branch2a_relu
I0310 17:21:07.618867  8311 net.cpp:454] id_res5a_branch2a_relu <- id_res5a_branch2a
I0310 17:21:07.618881  8311 net.cpp:397] id_res5a_branch2a_relu -> id_res5a_branch2a (in-place)
I0310 17:21:07.618896  8311 net.cpp:150] Setting up id_res5a_branch2a_relu
I0310 17:21:07.618906  8311 net.cpp:157] Top shape: 8 512 7 7 (200704)
I0310 17:21:07.618921  8311 net.cpp:165] Memory required for data: 8055522272
I0310 17:21:07.618942  8311 layer_factory.hpp:77] Creating layer id_res5a_branch2b
I0310 17:21:07.618959  8311 net.cpp:106] Creating Layer id_res5a_branch2b
I0310 17:21:07.618970  8311 net.cpp:454] id_res5a_branch2b <- id_res5a_branch2a
I0310 17:21:07.618983  8311 net.cpp:411] id_res5a_branch2b -> id_res5a_branch2b
I0310 17:21:07.625306  8311 net.cpp:150] Setting up id_res5a_branch2b
I0310 17:21:07.625334  8311 net.cpp:157] Top shape: 8 512 7 7 (200704)
I0310 17:21:07.625344  8311 net.cpp:165] Memory required for data: 8056325088
I0310 17:21:07.625356  8311 layer_factory.hpp:77] Creating layer id_bn5a_branch2b
I0310 17:21:07.625373  8311 net.cpp:106] Creating Layer id_bn5a_branch2b
I0310 17:21:07.625385  8311 net.cpp:454] id_bn5a_branch2b <- id_res5a_branch2b
I0310 17:21:07.625397  8311 net.cpp:397] id_bn5a_branch2b -> id_res5a_branch2b (in-place)
I0310 17:21:07.625679  8311 net.cpp:150] Setting up id_bn5a_branch2b
I0310 17:21:07.625696  8311 net.cpp:157] Top shape: 8 512 7 7 (200704)
I0310 17:21:07.625706  8311 net.cpp:165] Memory required for data: 8057127904
I0310 17:21:07.625720  8311 layer_factory.hpp:77] Creating layer id_scale5a_branch2b
I0310 17:21:07.625733  8311 net.cpp:106] Creating Layer id_scale5a_branch2b
I0310 17:21:07.625743  8311 net.cpp:454] id_scale5a_branch2b <- id_res5a_branch2b
I0310 17:21:07.625758  8311 net.cpp:397] id_scale5a_branch2b -> id_res5a_branch2b (in-place)
I0310 17:21:07.625823  8311 layer_factory.hpp:77] Creating layer id_scale5a_branch2b
I0310 17:21:07.625988  8311 net.cpp:150] Setting up id_scale5a_branch2b
I0310 17:21:07.626005  8311 net.cpp:157] Top shape: 8 512 7 7 (200704)
I0310 17:21:07.626013  8311 net.cpp:165] Memory required for data: 8057930720
I0310 17:21:07.626026  8311 layer_factory.hpp:77] Creating layer id_res5a_branch2b_relu
I0310 17:21:07.626044  8311 net.cpp:106] Creating Layer id_res5a_branch2b_relu
I0310 17:21:07.626055  8311 net.cpp:454] id_res5a_branch2b_relu <- id_res5a_branch2b
I0310 17:21:07.626065  8311 net.cpp:397] id_res5a_branch2b_relu -> id_res5a_branch2b (in-place)
I0310 17:21:07.626077  8311 net.cpp:150] Setting up id_res5a_branch2b_relu
I0310 17:21:07.626088  8311 net.cpp:157] Top shape: 8 512 7 7 (200704)
I0310 17:21:07.626097  8311 net.cpp:165] Memory required for data: 8058733536
I0310 17:21:07.626106  8311 layer_factory.hpp:77] Creating layer id_res5a_branch2c
I0310 17:21:07.626122  8311 net.cpp:106] Creating Layer id_res5a_branch2c
I0310 17:21:07.626132  8311 net.cpp:454] id_res5a_branch2c <- id_res5a_branch2b
I0310 17:21:07.626144  8311 net.cpp:411] id_res5a_branch2c -> id_res5a_branch2c
I0310 17:21:07.629199  8311 net.cpp:150] Setting up id_res5a_branch2c
I0310 17:21:07.629220  8311 net.cpp:157] Top shape: 8 2048 7 7 (802816)
I0310 17:21:07.629230  8311 net.cpp:165] Memory required for data: 8061944800
I0310 17:21:07.629241  8311 layer_factory.hpp:77] Creating layer id_bn5a_branch2c
I0310 17:21:07.629282  8311 net.cpp:106] Creating Layer id_bn5a_branch2c
I0310 17:21:07.629295  8311 net.cpp:454] id_bn5a_branch2c <- id_res5a_branch2c
I0310 17:21:07.629307  8311 net.cpp:397] id_bn5a_branch2c -> id_res5a_branch2c (in-place)
I0310 17:21:07.629637  8311 net.cpp:150] Setting up id_bn5a_branch2c
I0310 17:21:07.629654  8311 net.cpp:157] Top shape: 8 2048 7 7 (802816)
I0310 17:21:07.629663  8311 net.cpp:165] Memory required for data: 8065156064
I0310 17:21:07.629678  8311 layer_factory.hpp:77] Creating layer id_scale5a_branch2c
I0310 17:21:07.629691  8311 net.cpp:106] Creating Layer id_scale5a_branch2c
I0310 17:21:07.629703  8311 net.cpp:454] id_scale5a_branch2c <- id_res5a_branch2c
I0310 17:21:07.629712  8311 net.cpp:397] id_scale5a_branch2c -> id_res5a_branch2c (in-place)
I0310 17:21:07.629796  8311 layer_factory.hpp:77] Creating layer id_scale5a_branch2c
I0310 17:21:07.629983  8311 net.cpp:150] Setting up id_scale5a_branch2c
I0310 17:21:07.630000  8311 net.cpp:157] Top shape: 8 2048 7 7 (802816)
I0310 17:21:07.630009  8311 net.cpp:165] Memory required for data: 8068367328
I0310 17:21:07.630023  8311 layer_factory.hpp:77] Creating layer id_res5a
I0310 17:21:07.630056  8311 net.cpp:106] Creating Layer id_res5a
I0310 17:21:07.630069  8311 net.cpp:454] id_res5a <- id_res5a_branch1
I0310 17:21:07.630079  8311 net.cpp:454] id_res5a <- id_res5a_branch2c
I0310 17:21:07.630090  8311 net.cpp:411] id_res5a -> id_res5a
I0310 17:21:07.630136  8311 net.cpp:150] Setting up id_res5a
I0310 17:21:07.630151  8311 net.cpp:157] Top shape: 8 2048 7 7 (802816)
I0310 17:21:07.630159  8311 net.cpp:165] Memory required for data: 8071578592
I0310 17:21:07.630168  8311 layer_factory.hpp:77] Creating layer id_res5a_relu
I0310 17:21:07.630179  8311 net.cpp:106] Creating Layer id_res5a_relu
I0310 17:21:07.630189  8311 net.cpp:454] id_res5a_relu <- id_res5a
I0310 17:21:07.630203  8311 net.cpp:397] id_res5a_relu -> id_res5a (in-place)
I0310 17:21:07.630216  8311 net.cpp:150] Setting up id_res5a_relu
I0310 17:21:07.630228  8311 net.cpp:157] Top shape: 8 2048 7 7 (802816)
I0310 17:21:07.630235  8311 net.cpp:165] Memory required for data: 8074789856
I0310 17:21:07.630244  8311 layer_factory.hpp:77] Creating layer id_res5a_id_res5a_relu_0_split
I0310 17:21:07.630255  8311 net.cpp:106] Creating Layer id_res5a_id_res5a_relu_0_split
I0310 17:21:07.630264  8311 net.cpp:454] id_res5a_id_res5a_relu_0_split <- id_res5a
I0310 17:21:07.630275  8311 net.cpp:411] id_res5a_id_res5a_relu_0_split -> id_res5a_id_res5a_relu_0_split_0
I0310 17:21:07.630288  8311 net.cpp:411] id_res5a_id_res5a_relu_0_split -> id_res5a_id_res5a_relu_0_split_1
I0310 17:21:07.630342  8311 net.cpp:150] Setting up id_res5a_id_res5a_relu_0_split
I0310 17:21:07.630355  8311 net.cpp:157] Top shape: 8 2048 7 7 (802816)
I0310 17:21:07.630367  8311 net.cpp:157] Top shape: 8 2048 7 7 (802816)
I0310 17:21:07.630374  8311 net.cpp:165] Memory required for data: 8081212384
I0310 17:21:07.630383  8311 layer_factory.hpp:77] Creating layer id_res5b_branch2a
I0310 17:21:07.630398  8311 net.cpp:106] Creating Layer id_res5b_branch2a
I0310 17:21:07.630409  8311 net.cpp:454] id_res5b_branch2a <- id_res5a_id_res5a_relu_0_split_0
I0310 17:21:07.630424  8311 net.cpp:411] id_res5b_branch2a -> id_res5b_branch2a
I0310 17:21:07.633435  8311 net.cpp:150] Setting up id_res5b_branch2a
I0310 17:21:07.633458  8311 net.cpp:157] Top shape: 8 512 7 7 (200704)
I0310 17:21:07.633468  8311 net.cpp:165] Memory required for data: 8082015200
I0310 17:21:07.633481  8311 layer_factory.hpp:77] Creating layer id_bn5b_branch2a
I0310 17:21:07.633493  8311 net.cpp:106] Creating Layer id_bn5b_branch2a
I0310 17:21:07.633504  8311 net.cpp:454] id_bn5b_branch2a <- id_res5b_branch2a
I0310 17:21:07.633517  8311 net.cpp:397] id_bn5b_branch2a -> id_res5b_branch2a (in-place)
I0310 17:21:07.633786  8311 net.cpp:150] Setting up id_bn5b_branch2a
I0310 17:21:07.633818  8311 net.cpp:157] Top shape: 8 512 7 7 (200704)
I0310 17:21:07.633828  8311 net.cpp:165] Memory required for data: 8082818016
I0310 17:21:07.633843  8311 layer_factory.hpp:77] Creating layer id_scale5b_branch2a
I0310 17:21:07.633862  8311 net.cpp:106] Creating Layer id_scale5b_branch2a
I0310 17:21:07.633873  8311 net.cpp:454] id_scale5b_branch2a <- id_res5b_branch2a
I0310 17:21:07.633884  8311 net.cpp:397] id_scale5b_branch2a -> id_res5b_branch2a (in-place)
I0310 17:21:07.633956  8311 layer_factory.hpp:77] Creating layer id_scale5b_branch2a
I0310 17:21:07.634132  8311 net.cpp:150] Setting up id_scale5b_branch2a
I0310 17:21:07.634150  8311 net.cpp:157] Top shape: 8 512 7 7 (200704)
I0310 17:21:07.634160  8311 net.cpp:165] Memory required for data: 8083620832
I0310 17:21:07.634172  8311 layer_factory.hpp:77] Creating layer id_res5b_branch2a_relu
I0310 17:21:07.634198  8311 net.cpp:106] Creating Layer id_res5b_branch2a_relu
I0310 17:21:07.634209  8311 net.cpp:454] id_res5b_branch2a_relu <- id_res5b_branch2a
I0310 17:21:07.634222  8311 net.cpp:397] id_res5b_branch2a_relu -> id_res5b_branch2a (in-place)
I0310 17:21:07.634235  8311 net.cpp:150] Setting up id_res5b_branch2a_relu
I0310 17:21:07.634248  8311 net.cpp:157] Top shape: 8 512 7 7 (200704)
I0310 17:21:07.634255  8311 net.cpp:165] Memory required for data: 8084423648
I0310 17:21:07.634279  8311 layer_factory.hpp:77] Creating layer id_res5b_branch2b
I0310 17:21:07.634296  8311 net.cpp:106] Creating Layer id_res5b_branch2b
I0310 17:21:07.634306  8311 net.cpp:454] id_res5b_branch2b <- id_res5b_branch2a
I0310 17:21:07.634320  8311 net.cpp:411] id_res5b_branch2b -> id_res5b_branch2b
I0310 17:21:07.640724  8311 net.cpp:150] Setting up id_res5b_branch2b
I0310 17:21:07.640753  8311 net.cpp:157] Top shape: 8 512 7 7 (200704)
I0310 17:21:07.640763  8311 net.cpp:165] Memory required for data: 8085226464
I0310 17:21:07.640775  8311 layer_factory.hpp:77] Creating layer id_bn5b_branch2b
I0310 17:21:07.640794  8311 net.cpp:106] Creating Layer id_bn5b_branch2b
I0310 17:21:07.640805  8311 net.cpp:454] id_bn5b_branch2b <- id_res5b_branch2b
I0310 17:21:07.640817  8311 net.cpp:397] id_bn5b_branch2b -> id_res5b_branch2b (in-place)
I0310 17:21:07.641083  8311 net.cpp:150] Setting up id_bn5b_branch2b
I0310 17:21:07.641101  8311 net.cpp:157] Top shape: 8 512 7 7 (200704)
I0310 17:21:07.641110  8311 net.cpp:165] Memory required for data: 8086029280
I0310 17:21:07.641124  8311 layer_factory.hpp:77] Creating layer id_scale5b_branch2b
I0310 17:21:07.641137  8311 net.cpp:106] Creating Layer id_scale5b_branch2b
I0310 17:21:07.641147  8311 net.cpp:454] id_scale5b_branch2b <- id_res5b_branch2b
I0310 17:21:07.641161  8311 net.cpp:397] id_scale5b_branch2b -> id_res5b_branch2b (in-place)
I0310 17:21:07.641228  8311 layer_factory.hpp:77] Creating layer id_scale5b_branch2b
I0310 17:21:07.641423  8311 net.cpp:150] Setting up id_scale5b_branch2b
I0310 17:21:07.641443  8311 net.cpp:157] Top shape: 8 512 7 7 (200704)
I0310 17:21:07.641453  8311 net.cpp:165] Memory required for data: 8086832096
I0310 17:21:07.641465  8311 layer_factory.hpp:77] Creating layer id_res5b_branch2b_relu
I0310 17:21:07.641480  8311 net.cpp:106] Creating Layer id_res5b_branch2b_relu
I0310 17:21:07.641492  8311 net.cpp:454] id_res5b_branch2b_relu <- id_res5b_branch2b
I0310 17:21:07.641504  8311 net.cpp:397] id_res5b_branch2b_relu -> id_res5b_branch2b (in-place)
I0310 17:21:07.641516  8311 net.cpp:150] Setting up id_res5b_branch2b_relu
I0310 17:21:07.641528  8311 net.cpp:157] Top shape: 8 512 7 7 (200704)
I0310 17:21:07.641537  8311 net.cpp:165] Memory required for data: 8087634912
I0310 17:21:07.641546  8311 layer_factory.hpp:77] Creating layer id_res5b_branch2c
I0310 17:21:07.641563  8311 net.cpp:106] Creating Layer id_res5b_branch2c
I0310 17:21:07.641574  8311 net.cpp:454] id_res5b_branch2c <- id_res5b_branch2b
I0310 17:21:07.641587  8311 net.cpp:411] id_res5b_branch2c -> id_res5b_branch2c
I0310 17:21:07.644611  8311 net.cpp:150] Setting up id_res5b_branch2c
I0310 17:21:07.644634  8311 net.cpp:157] Top shape: 8 2048 7 7 (802816)
I0310 17:21:07.644644  8311 net.cpp:165] Memory required for data: 8090846176
I0310 17:21:07.644654  8311 layer_factory.hpp:77] Creating layer id_bn5b_branch2c
I0310 17:21:07.644670  8311 net.cpp:106] Creating Layer id_bn5b_branch2c
I0310 17:21:07.644680  8311 net.cpp:454] id_bn5b_branch2c <- id_res5b_branch2c
I0310 17:21:07.644691  8311 net.cpp:397] id_bn5b_branch2c -> id_res5b_branch2c (in-place)
I0310 17:21:07.644987  8311 net.cpp:150] Setting up id_bn5b_branch2c
I0310 17:21:07.645004  8311 net.cpp:157] Top shape: 8 2048 7 7 (802816)
I0310 17:21:07.645014  8311 net.cpp:165] Memory required for data: 8094057440
I0310 17:21:07.645028  8311 layer_factory.hpp:77] Creating layer id_scale5b_branch2c
I0310 17:21:07.645040  8311 net.cpp:106] Creating Layer id_scale5b_branch2c
I0310 17:21:07.645051  8311 net.cpp:454] id_scale5b_branch2c <- id_res5b_branch2c
I0310 17:21:07.645062  8311 net.cpp:397] id_scale5b_branch2c -> id_res5b_branch2c (in-place)
I0310 17:21:07.645145  8311 layer_factory.hpp:77] Creating layer id_scale5b_branch2c
I0310 17:21:07.645364  8311 net.cpp:150] Setting up id_scale5b_branch2c
I0310 17:21:07.645383  8311 net.cpp:157] Top shape: 8 2048 7 7 (802816)
I0310 17:21:07.645392  8311 net.cpp:165] Memory required for data: 8097268704
I0310 17:21:07.645406  8311 layer_factory.hpp:77] Creating layer id_res5b
I0310 17:21:07.645431  8311 net.cpp:106] Creating Layer id_res5b
I0310 17:21:07.645453  8311 net.cpp:454] id_res5b <- id_res5a_id_res5a_relu_0_split_1
I0310 17:21:07.645465  8311 net.cpp:454] id_res5b <- id_res5b_branch2c
I0310 17:21:07.645478  8311 net.cpp:411] id_res5b -> id_res5b
I0310 17:21:07.645522  8311 net.cpp:150] Setting up id_res5b
I0310 17:21:07.645539  8311 net.cpp:157] Top shape: 8 2048 7 7 (802816)
I0310 17:21:07.645547  8311 net.cpp:165] Memory required for data: 8100479968
I0310 17:21:07.645556  8311 layer_factory.hpp:77] Creating layer id_res5b_relu
I0310 17:21:07.645570  8311 net.cpp:106] Creating Layer id_res5b_relu
I0310 17:21:07.645581  8311 net.cpp:454] id_res5b_relu <- id_res5b
I0310 17:21:07.645598  8311 net.cpp:397] id_res5b_relu -> id_res5b (in-place)
I0310 17:21:07.645625  8311 net.cpp:150] Setting up id_res5b_relu
I0310 17:21:07.645637  8311 net.cpp:157] Top shape: 8 2048 7 7 (802816)
I0310 17:21:07.645645  8311 net.cpp:165] Memory required for data: 8103691232
I0310 17:21:07.645654  8311 layer_factory.hpp:77] Creating layer id_res5b_id_res5b_relu_0_split
I0310 17:21:07.645665  8311 net.cpp:106] Creating Layer id_res5b_id_res5b_relu_0_split
I0310 17:21:07.645674  8311 net.cpp:454] id_res5b_id_res5b_relu_0_split <- id_res5b
I0310 17:21:07.645685  8311 net.cpp:411] id_res5b_id_res5b_relu_0_split -> id_res5b_id_res5b_relu_0_split_0
I0310 17:21:07.645699  8311 net.cpp:411] id_res5b_id_res5b_relu_0_split -> id_res5b_id_res5b_relu_0_split_1
I0310 17:21:07.645756  8311 net.cpp:150] Setting up id_res5b_id_res5b_relu_0_split
I0310 17:21:07.645771  8311 net.cpp:157] Top shape: 8 2048 7 7 (802816)
I0310 17:21:07.645782  8311 net.cpp:157] Top shape: 8 2048 7 7 (802816)
I0310 17:21:07.645790  8311 net.cpp:165] Memory required for data: 8110113760
I0310 17:21:07.645799  8311 layer_factory.hpp:77] Creating layer id_res5c_branch2a
I0310 17:21:07.645812  8311 net.cpp:106] Creating Layer id_res5c_branch2a
I0310 17:21:07.645823  8311 net.cpp:454] id_res5c_branch2a <- id_res5b_id_res5b_relu_0_split_0
I0310 17:21:07.645838  8311 net.cpp:411] id_res5c_branch2a -> id_res5c_branch2a
I0310 17:21:07.648811  8311 net.cpp:150] Setting up id_res5c_branch2a
I0310 17:21:07.648833  8311 net.cpp:157] Top shape: 8 512 7 7 (200704)
I0310 17:21:07.648841  8311 net.cpp:165] Memory required for data: 8110916576
I0310 17:21:07.648854  8311 layer_factory.hpp:77] Creating layer id_bn5c_branch2a
I0310 17:21:07.648866  8311 net.cpp:106] Creating Layer id_bn5c_branch2a
I0310 17:21:07.648876  8311 net.cpp:454] id_bn5c_branch2a <- id_res5c_branch2a
I0310 17:21:07.648888  8311 net.cpp:397] id_bn5c_branch2a -> id_res5c_branch2a (in-place)
I0310 17:21:07.649168  8311 net.cpp:150] Setting up id_bn5c_branch2a
I0310 17:21:07.649185  8311 net.cpp:157] Top shape: 8 512 7 7 (200704)
I0310 17:21:07.649195  8311 net.cpp:165] Memory required for data: 8111719392
I0310 17:21:07.649210  8311 layer_factory.hpp:77] Creating layer id_scale5c_branch2a
I0310 17:21:07.649226  8311 net.cpp:106] Creating Layer id_scale5c_branch2a
I0310 17:21:07.649237  8311 net.cpp:454] id_scale5c_branch2a <- id_res5c_branch2a
I0310 17:21:07.649269  8311 net.cpp:397] id_scale5c_branch2a -> id_res5c_branch2a (in-place)
I0310 17:21:07.649363  8311 layer_factory.hpp:77] Creating layer id_scale5c_branch2a
I0310 17:21:07.649540  8311 net.cpp:150] Setting up id_scale5c_branch2a
I0310 17:21:07.649559  8311 net.cpp:157] Top shape: 8 512 7 7 (200704)
I0310 17:21:07.649569  8311 net.cpp:165] Memory required for data: 8112522208
I0310 17:21:07.649581  8311 layer_factory.hpp:77] Creating layer id_res5c_branch2a_relu
I0310 17:21:07.649596  8311 net.cpp:106] Creating Layer id_res5c_branch2a_relu
I0310 17:21:07.649607  8311 net.cpp:454] id_res5c_branch2a_relu <- id_res5c_branch2a
I0310 17:21:07.649621  8311 net.cpp:397] id_res5c_branch2a_relu -> id_res5c_branch2a (in-place)
I0310 17:21:07.649634  8311 net.cpp:150] Setting up id_res5c_branch2a_relu
I0310 17:21:07.649646  8311 net.cpp:157] Top shape: 8 512 7 7 (200704)
I0310 17:21:07.649654  8311 net.cpp:165] Memory required for data: 8113325024
I0310 17:21:07.649693  8311 layer_factory.hpp:77] Creating layer id_res5c_branch2b
I0310 17:21:07.649711  8311 net.cpp:106] Creating Layer id_res5c_branch2b
I0310 17:21:07.649721  8311 net.cpp:454] id_res5c_branch2b <- id_res5c_branch2a
I0310 17:21:07.649734  8311 net.cpp:411] id_res5c_branch2b -> id_res5c_branch2b
I0310 17:21:07.656085  8311 net.cpp:150] Setting up id_res5c_branch2b
I0310 17:21:07.656111  8311 net.cpp:157] Top shape: 8 512 7 7 (200704)
I0310 17:21:07.656121  8311 net.cpp:165] Memory required for data: 8114127840
I0310 17:21:07.656133  8311 layer_factory.hpp:77] Creating layer id_bn5c_branch2b
I0310 17:21:07.656148  8311 net.cpp:106] Creating Layer id_bn5c_branch2b
I0310 17:21:07.656159  8311 net.cpp:454] id_bn5c_branch2b <- id_res5c_branch2b
I0310 17:21:07.656172  8311 net.cpp:397] id_bn5c_branch2b -> id_res5c_branch2b (in-place)
I0310 17:21:07.656436  8311 net.cpp:150] Setting up id_bn5c_branch2b
I0310 17:21:07.656453  8311 net.cpp:157] Top shape: 8 512 7 7 (200704)
I0310 17:21:07.656462  8311 net.cpp:165] Memory required for data: 8114930656
I0310 17:21:07.656476  8311 layer_factory.hpp:77] Creating layer id_scale5c_branch2b
I0310 17:21:07.656489  8311 net.cpp:106] Creating Layer id_scale5c_branch2b
I0310 17:21:07.656499  8311 net.cpp:454] id_scale5c_branch2b <- id_res5c_branch2b
I0310 17:21:07.656510  8311 net.cpp:397] id_scale5c_branch2b -> id_res5c_branch2b (in-place)
I0310 17:21:07.656585  8311 layer_factory.hpp:77] Creating layer id_scale5c_branch2b
I0310 17:21:07.656756  8311 net.cpp:150] Setting up id_scale5c_branch2b
I0310 17:21:07.656774  8311 net.cpp:157] Top shape: 8 512 7 7 (200704)
I0310 17:21:07.656782  8311 net.cpp:165] Memory required for data: 8115733472
I0310 17:21:07.656795  8311 layer_factory.hpp:77] Creating layer id_res5c_branch2b_relu
I0310 17:21:07.656811  8311 net.cpp:106] Creating Layer id_res5c_branch2b_relu
I0310 17:21:07.656822  8311 net.cpp:454] id_res5c_branch2b_relu <- id_res5c_branch2b
I0310 17:21:07.656832  8311 net.cpp:397] id_res5c_branch2b_relu -> id_res5c_branch2b (in-place)
I0310 17:21:07.656846  8311 net.cpp:150] Setting up id_res5c_branch2b_relu
I0310 17:21:07.656857  8311 net.cpp:157] Top shape: 8 512 7 7 (200704)
I0310 17:21:07.656864  8311 net.cpp:165] Memory required for data: 8116536288
I0310 17:21:07.656873  8311 layer_factory.hpp:77] Creating layer id_res5c_branch2c
I0310 17:21:07.656890  8311 net.cpp:106] Creating Layer id_res5c_branch2c
I0310 17:21:07.656900  8311 net.cpp:454] id_res5c_branch2c <- id_res5c_branch2b
I0310 17:21:07.656913  8311 net.cpp:411] id_res5c_branch2c -> id_res5c_branch2c
I0310 17:21:07.659986  8311 net.cpp:150] Setting up id_res5c_branch2c
I0310 17:21:07.660008  8311 net.cpp:157] Top shape: 8 2048 7 7 (802816)
I0310 17:21:07.660017  8311 net.cpp:165] Memory required for data: 8119747552
I0310 17:21:07.660029  8311 layer_factory.hpp:77] Creating layer id_bn5c_branch2c
I0310 17:21:07.660042  8311 net.cpp:106] Creating Layer id_bn5c_branch2c
I0310 17:21:07.660051  8311 net.cpp:454] id_bn5c_branch2c <- id_res5c_branch2c
I0310 17:21:07.660063  8311 net.cpp:397] id_bn5c_branch2c -> id_res5c_branch2c (in-place)
I0310 17:21:07.660358  8311 net.cpp:150] Setting up id_bn5c_branch2c
I0310 17:21:07.660375  8311 net.cpp:157] Top shape: 8 2048 7 7 (802816)
I0310 17:21:07.660384  8311 net.cpp:165] Memory required for data: 8122958816
I0310 17:21:07.660399  8311 layer_factory.hpp:77] Creating layer id_scale5c_branch2c
I0310 17:21:07.660414  8311 net.cpp:106] Creating Layer id_scale5c_branch2c
I0310 17:21:07.660424  8311 net.cpp:454] id_scale5c_branch2c <- id_res5c_branch2c
I0310 17:21:07.660435  8311 net.cpp:397] id_scale5c_branch2c -> id_res5c_branch2c (in-place)
I0310 17:21:07.661134  8311 layer_factory.hpp:77] Creating layer id_scale5c_branch2c
I0310 17:21:07.661342  8311 net.cpp:150] Setting up id_scale5c_branch2c
I0310 17:21:07.661363  8311 net.cpp:157] Top shape: 8 2048 7 7 (802816)
I0310 17:21:07.661372  8311 net.cpp:165] Memory required for data: 8126170080
I0310 17:21:07.661387  8311 layer_factory.hpp:77] Creating layer id_res5c
I0310 17:21:07.661413  8311 net.cpp:106] Creating Layer id_res5c
I0310 17:21:07.661438  8311 net.cpp:454] id_res5c <- id_res5b_id_res5b_relu_0_split_1
I0310 17:21:07.661450  8311 net.cpp:454] id_res5c <- id_res5c_branch2c
I0310 17:21:07.661463  8311 net.cpp:411] id_res5c -> id_res5c
I0310 17:21:07.661510  8311 net.cpp:150] Setting up id_res5c
I0310 17:21:07.661527  8311 net.cpp:157] Top shape: 8 2048 7 7 (802816)
I0310 17:21:07.661536  8311 net.cpp:165] Memory required for data: 8129381344
I0310 17:21:07.661546  8311 layer_factory.hpp:77] Creating layer id_res5c_relu
I0310 17:21:07.661558  8311 net.cpp:106] Creating Layer id_res5c_relu
I0310 17:21:07.661569  8311 net.cpp:454] id_res5c_relu <- id_res5c
I0310 17:21:07.661581  8311 net.cpp:397] id_res5c_relu -> id_res5c (in-place)
I0310 17:21:07.661594  8311 net.cpp:150] Setting up id_res5c_relu
I0310 17:21:07.661607  8311 net.cpp:157] Top shape: 8 2048 7 7 (802816)
I0310 17:21:07.661629  8311 net.cpp:165] Memory required for data: 8132592608
I0310 17:21:07.661639  8311 layer_factory.hpp:77] Creating layer id_pool5
I0310 17:21:07.661653  8311 net.cpp:106] Creating Layer id_pool5
I0310 17:21:07.661662  8311 net.cpp:454] id_pool5 <- id_res5c
I0310 17:21:07.661689  8311 net.cpp:411] id_pool5 -> id_pool5
I0310 17:21:07.661734  8311 net.cpp:150] Setting up id_pool5
I0310 17:21:07.661751  8311 net.cpp:157] Top shape: 8 2048 1 1 (16384)
I0310 17:21:07.661759  8311 net.cpp:165] Memory required for data: 8132658144
I0310 17:21:07.661767  8311 layer_factory.hpp:77] Creating layer fc
I0310 17:21:07.661785  8311 net.cpp:106] Creating Layer fc
I0310 17:21:07.661797  8311 net.cpp:454] fc <- pool5
I0310 17:21:07.661809  8311 net.cpp:411] fc -> fc
I0310 17:21:07.664364  8311 net.cpp:150] Setting up fc
I0310 17:21:07.664383  8311 net.cpp:157] Top shape: 8 30 (240)
I0310 17:21:07.664392  8311 net.cpp:165] Memory required for data: 8132659104
I0310 17:21:07.664407  8311 layer_factory.hpp:77] Creating layer loss_pos30
I0310 17:21:07.664425  8311 net.cpp:106] Creating Layer loss_pos30
I0310 17:21:07.664435  8311 net.cpp:454] loss_pos30 <- fc
I0310 17:21:07.664446  8311 net.cpp:454] loss_pos30 <- labels
I0310 17:21:07.664461  8311 net.cpp:411] loss_pos30 -> loss_pos30
I0310 17:21:07.664572  8311 net.cpp:150] Setting up loss_pos30
I0310 17:21:07.664588  8311 net.cpp:157] Top shape: (1)
I0310 17:21:07.664598  8311 net.cpp:165] Memory required for data: 8132659108
I0310 17:21:07.664608  8311 layer_factory.hpp:77] Creating layer id_fc
I0310 17:21:07.664623  8311 net.cpp:106] Creating Layer id_fc
I0310 17:21:07.664633  8311 net.cpp:454] id_fc <- id_pool5
I0310 17:21:07.664646  8311 net.cpp:411] id_fc -> id_fc
I0310 17:21:07.723459  8311 net.cpp:150] Setting up id_fc
I0310 17:21:07.723481  8311 net.cpp:157] Top shape: 8 750 (6000)
I0310 17:21:07.723491  8311 net.cpp:165] Memory required for data: 8132683108
I0310 17:21:07.723503  8311 layer_factory.hpp:77] Creating layer id_loss_id
I0310 17:21:07.723522  8311 net.cpp:106] Creating Layer id_loss_id
I0310 17:21:07.723533  8311 net.cpp:454] id_loss_id <- id_fc
I0310 17:21:07.723543  8311 net.cpp:454] id_loss_id <- id_label
I0310 17:21:07.723558  8311 net.cpp:411] id_loss_id -> id_loss_id
…
