…
  transform_param {
    mirror: false
    mean_file: "/home/lizhuowan/Market1501/lmdb/lmdb_12936/Image_lmdb_12936.binaryproto"
  }
  data_param {
    source: "/home/lizhuowan/Market1501/lmdb/lmdb_mirror_12936/Image_lmdb_mirror_12936"
    batch_size: 16
    backend: LMDB
  }
}
layer {
  name: "data"
  type: "Data"
  top: "labels"
  include {
    phase: TRAIN
  }
  transform_param {
    mean_value: 112
  }
  data_param {
    source: "/home/lizhuowan/Market1501/lmdb/lmdb_mirror_12936/pos30_lmdb_mirror_12936_correct"
    batch_size: 16
    backend: LMDB
  }
}
layer {
  name: "conv1"
  type: "Convolution"
  bottom: "data"
  top: "conv1"
  convolution_param {
    num_output: 64
    pad: 3
    kernel_size: 7
    stride: 2
  }
}
layer {
  name: "bn_conv1"
  type: "BatchNorm"
  bottom: "conv1"
  top: "conv1"
  batch_norm_param {
    use_global_stats: true
  }
}
layer {
  name: "scale_conv1"
  type: "Scale"
  bottom: "conv1"
  top: "conv1"
  scale_param {
    bias_term: true
  }
}
layer {
  name: "conv1_relu"
  type: "ReLU"
  bottom: "conv1"
  top: "conv1"
}
layer {
  name: "pool1"
  type: "Pooling"
  bottom: "conv1"
  top: "pool1"
  pooling_param {
    pool: MAX
    kernel_size: 3
    stride: 2
  }
}
layer {
  name: "res2a_branch1"
  type: "Convolution"
  bottom: "pool1"
  top: "res2a_branch1"
  convolution_param {
    num_output: 256
    bias_term: false
    pad: 0
    kernel_size: 1
    stride: 1
  }
}
layer {
  name: "bn2a_branch1"
  type: "BatchNorm"
  bottom: "res2a_branch1"
  top: "res2a_branch1"
  batch_norm_param {
    use_global_stats: true
  }
}
layer {
  name: "scale2a_branch1"
  type: "Scale"
  bottom: "res2a_branch1"
  top: "res2a_branch1"
  scale_param {
    bias_term: true
  }
}
layer {
  name: "res2a_branch2a"
  type: "Convolution"
  bottom: "pool1"
  top: "res2a_branch2a"
  convolution_param {
    num_output: 64
    bias_term: false
    pad: 0
    kernel_size: 1
    stride: 1
  }
}
layer {
  name: "bn2a_branch2a"
  type: "BatchNorm"
  bottom: "res2a_branch2a"
  top: "res2a_branch2a"
  batch_norm_param {
    use_global_stats: true
  }
}
layer {
  name: "scale2a_branch2a"
  type: "Scale"
  bottom: "res2a_branch2a"
  top: "res2a_branch2a"
  scale_param {
    bias_term: true
  }
}
layer {
  name: "res2a_branch2a_relu"
  type: "ReLU"
  bottom: "res2a_branch2a"
  top: "res2a_branch2a"
}
layer {
  name: "res2a_branch2b"
  type: "Convolution"
  bottom: "res2a_branch2a"
  top: "res2a_branch2b"
  convolution_param {
    num_output: 64
    bias_term: false
    pad: 1
    kernel_size: 3
    stride: 1
  }
}
layer {
  name: "bn2a_branch2b"
  type: "BatchNorm"
  bottom: "res2a_branch2b"
  top: "res2a_branch2b"
  batch_norm_param {
    use_global_stats: true
  }
}
layer {
  name: "scale2a_branch2b"
  type: "Scale"
  bottom: "res2a_branch2b"
  top: "res2a_branch2b"
  scale_param {
    bias_term: true
  }
}
layer {
  name: "res2a_branch2b_relu"
  type: "ReLU"
  bottom: "res2a_branch2b"
  top: "res2a_branch2b"
}
layer {
  name: "res2a_branch2c"
  type: "Convolution"
  bottom: "res2a_branch2b"
  top: "res2a_branch2c"
  convolution_param {
    num_output: 256
    bias_term: false
    pad: 0
    kernel_size: 1
    stride: 1
  }
}
layer {
  name: "bn2a_branch2c"
  type: "BatchNorm"
  bottom: "res2a_branch2c"
  top: "res2a_branch2c"
  batch_norm_param {
    use_global_stats: true
  }
}
layer {
  name: "scale2a_branch2c"
  type: "Scale"
  bottom: "res2a_branch2c"
  top: "res2a_branch2c"
  scale_param {
    bias_term: true
  }
}
layer {
  name: "res2a"
  type: "Eltwise"
  bottom: "res2a_branch1"
  bottom: "res2a_branch2c"
  top: "res2a"
}
layer {
  name: "res2a_relu"
  type: "ReLU"
  bottom: "res2a"
  top: "res2a"
}
layer {
  name: "res2b_branch2a"
  type: "Convolution"
  bottom: "res2a"
  top: "res2b_branch2a"
  convolution_param {
    num_output: 64
    bias_term: false
    pad: 0
    kernel_size: 1
    stride: 1
  }
}
layer {
  name: "bn2b_branch2a"
  type: "BatchNorm"
  bottom: "res2b_branch2a"
  top: "res2b_branch2a"
  batch_norm_param {
    use_global_stats: true
  }
}
layer {
  name: "scale2b_branch2a"
  type: "Scale"
  bottom: "res2b_branch2a"
  top: "res2b_branch2a"
  scale_param {
    bias_term: true
  }
}
layer {
  name: "res2b_branch2a_relu"
  type: "ReLU"
  bottom: "res2b_branch2a"
  top: "res2b_branch2a"
}
layer {
  name: "res2b_branch2b"
  type: "Convolution"
  bottom: "res2b_branch2a"
  top: "res2b_branch2b"
  convolution_param {
    num_output: 64
    bias_term: false
    pad: 1
    kernel_size: 3
    stride: 1
  }
}
layer {
  name: "bn2b_branch2b"
  type: "BatchNorm"
  bottom: "res2b_branch2b"
  top: "res2b_branch2b"
  batch_norm_param {
    use_global_stats: true
  }
}
layer {
  name: "scale2b_branch2b"
  type: "Scale"
  bottom: "res2b_branch2b"
  top: "res2b_branch2b"
  scale_param {
    bias_term: true
  }
}
layer {
  name: "res2b_branch2b_relu"
  type: "ReLU"
  bottom: "res2b_branch2b"
  top: "res2b_branch2b"
}
layer {
  name: "res2b_branch2c"
  type: "Convolution"
  bottom: "res2b_branch2b"
  top: "res2b_branch2c"
  convolution_param {
    num_output: 256
    bias_term: false
    pad: 0
    kernel_size: 1
    stride: 1
  }
}
layer {
  name: "bn2b_branch2c"
  type: "BatchNorm"
  bottom: "res2b_branch2c"
  top: "res2b_branch2c"
  batch_norm_param {
    use_global_stats: true
  }
}
layer {
  name: "scale2b_branch2c"
  type: "Scale"
  bottom: "res2b_branch2c"
  top: "res2b_branch2c"
  scale_param {
    bias_term: true
  }
}
layer {
  name: "res2b"
  type: "Eltwise"
  bottom: "res2a"
  bottom: "res2b_branch2c"
  top: "res2b"
}
layer {
  name: "res2b_relu"
  type: "ReLU"
  bottom: "res2b"
  top: "res2b"
}
layer {
  name: "res2c_branch2a"
  type: "Convolution"
  bottom: "res2b"
  top: "res2c_branch2a"
  convolution_param {
    num_output: 64
    bias_term: false
    pad: 0
    kernel_size: 1
    stride: 1
  }
}
layer {
  name: "bn2c_branch2a"
  type: "BatchNorm"
  bottom: "res2c_branch2a"
  top: "res2c_branch2a"
  batch_norm_param {
    use_global_stats: true
  }
}
layer {
  name: "scale2c_branch2a"
  type: "Scale"
  bottom: "res2c_branch2a"
  top: "res2c_branch2a"
  scale_param {
    bias_term: true
  }
}
layer {
  name: "res2c_branch2a_relu"
  type: "ReLU"
  bottom: "res2c_branch2a"
  top: "res2c_branch2a"
}
layer {
  name: "res2c_branch2b"
  type: "Convolution"
  bottom: "res2c_branch2a"
  top: "res2c_branch2b"
  convolution_param {
    num_output: 64
    bias_term: false
    pad: 1
    kernel_size: 3
    stride: 1
  }
}
layer {
  name: "bn2c_branch2b"
  type: "BatchNorm"
  bottom: "res2c_branch2b"
  top: "res2c_branch2b"
  batch_norm_param {
    use_global_stats: true
  }
}
layer {
  name: "scale2c_branch2b"
  type: "Scale"
  bottom: "res2c_branch2b"
  top: "res2c_branch2b"
  scale_param {
    bias_term: true
  }
}
layer {
  name: "res2c_branch2b_relu"
  type: "ReLU"
  bottom: "res2c_branch2b"
  top: "res2c_branch2b"
}
layer {
  name: "res2c_branch2c"
  type: "Convolution"
  bottom: "res2c_branch2b"
  top: "res2c_branch2c"
  convolution_param {
    num_output: 256
    bias_term: false
    pad: 0
    kernel_size: 1
    stride: 1
  }
}
layer {
  name: "bn2c_branch2c"
  type: "BatchNorm"
  bottom: "res2c_branch2c"
  top: "res2c_branch2c"
  batch_norm_param {
    use_global_stats: true
  }
}
layer {
  name: "scale2c_branch2c"
  type: "Scale"
  bottom: "res2c_branch2c"
  top: "res2c_branch2c"
  scale_param {
    bias_term: true
  }
}
layer {
  name: "res2c"
  type: "Eltwise"
  bottom: "res2b"
  bottom: "res2c_branch2c"
  top: "res2c"
}
layer {
  name: "res2c_relu"
  type: "ReLU"
  bottom: "res2c"
  top: "res2c"
}
layer {
  name: "res3a_branch1"
  type: "Convolution"
  bottom: "res2c"
  top: "res3a_branch1"
  convolution_param {
    num_output: 512
    bias_term: false
    pad: 0
    kernel_size: 1
    stride: 2
  }
}
layer {
  name: "bn3a_branch1"
  type: "BatchNorm"
  bottom: "res3a_branch1"
  top: "res3a_branch1"
  batch_norm_param {
    use_global_stats: true
  }
}
layer {
  name: "scale3a_branch1"
  type: "Scale"
  bottom: "res3a_branch1"
  top: "res3a_branch1"
  scale_param {
    bias_term: true
  }
}
layer {
  name: "res3a_branch2a"
  type: "Convolution"
  bottom: "res2c"
  top: "res3a_branch2a"
  convolution_param {
    num_output: 128
    bias_term: false
    pad: 0
    kernel_size: 1
    stride: 2
  }
}
layer {
  name: "bn3a_branch2a"
  type: "BatchNorm"
  bottom: "res3a_branch2a"
  top: "res3a_branch2a"
  batch_norm_param {
    use_global_stats: true
  }
}
layer {
  name: "scale3a_branch2a"
  type: "Scale"
  bottom: "res3a_branch2a"
  top: "res3a_branch2a"
  scale_param {
    bias_term: true
  }
}
layer {
  name: "res3a_branch2a_relu"
  type: "ReLU"
  bottom: "res3a_branch2a"
  top: "res3a_branch2a"
}
layer {
  name: "res3a_branch2b"
  type: "Convolution"
  bottom: "res3a_branch2a"
  top: "res3a_branch2b"
  convolution_param {
    num_output: 128
    bias_term: false
    pad: 1
    kernel_size: 3
    stride: 1
  }
}
layer {
  name: "bn3a_branch2b"
  type: "BatchNorm"
  bottom: "res3a_branch2b"
  top: "res3a_branch2b"
  batch_norm_param {
    use_global_stats: true
  }
}
layer {
  name: "scale3a_branch2b"
  type: "Scale"
  bottom: "res3a_branch2b"
  top: "res3a_branch2b"
  scale_param {
    bias_term: true
  }
}
layer {
  name: "res3a_branch2b_relu"
  type: "ReLU"
  bottom: "res3a_branch2b"
  top: "res3a_branch2b"
}
layer {
  name: "res3a_branch2c"
  type: "Convolution"
  bottom: "res3a_branch2b"
  top: "res3a_branch2c"
  convolution_param {
    num_output: 512
    bias_term: false
    pad: 0
    kernel_size: 1
    stride: 1
  }
}
layer {
  name: "bn3a_branch2c"
  type: "BatchNorm"
  bottom: "res3a_branch2c"
  top: "res3a_branch2c"
  batch_norm_param {
    use_global_stats: true
  }
}
layer {
  name: "scale3a_branch2c"
  type: "Scale"
  bottom: "res3a_branch2c"
  top: "res3a_branch2c"
  scale_param {
    bias_term: true
  }
}
layer {
  name: "res3a"
  type: "Eltwise"
  bottom: "res3a_branch1"
  bottom: "res3a_branch2c"
  top: "res3a"
}
layer {
  name: "res3a_relu"
  type: "ReLU"
  bottom: "res3a"
  top: "res3a"
}
layer {
  name: "res3b_branch2a"
  type: "Convolution"
  bottom: "res3a"
  top: "res3b_branch2a"
  convolution_param {
    num_output: 128
    bias_term: false
    pad: 0
    kernel_size: 1
    stride: 1
  }
}
layer {
  name: "bn3b_branch2a"
  type: "BatchNorm"
  bottom: "res3b_branch2a"
  top: "res3b_branch2a"
  batch_norm_param {
    use_global_stats: true
  }
}
layer {
  name: "scale3b_branch2a"
  type: "Scale"
  bottom: "res3b_branch2a"
  top: "res3b_branch2a"
  scale_param {
    bias_term: true
  }
}
layer {
  name: "res3b_branch2a_relu"
  type: "ReLU"
  bottom: "res3b_branch2a"
  top: "res3b_branch2a"
}
layer {
  name: "res3b_branch2b"
  type: "Convolution"
  bottom: "res3b_branch2a"
  top: "res3b_branch2b"
  convolution_param {
    num_output: 128
    bias_term: false
    pad: 1
    kernel_size: 3
    stride: 1
  }
}
layer {
  name: "bn3b_branch2b"
  type: "BatchNorm"
  bottom: "res3b_branch2b"
  top: "res3b_branch2b"
  batch_norm_param {
    use_global_stats: true
  }
}
layer {
  name: "scale3b_branch2b"
  type: "Scale"
  bottom: "res3b_branch2b"
  top: "res3b_branch2b"
  scale_param {
    bias_term: true
  }
}
layer {
  name: "res3b_branch2b_relu"
  type: "ReLU"
  bottom: "res3b_branch2b"
  top: "res3b_branch2b"
}
layer {
  name: "res3b_branch2c"
  type: "Convolution"
  bottom: "res3b_branch2b"
  top: "res3b_branch2c"
  convolution_param {
    num_output: 512
    bias_term: false
    pad: 0
    kernel_size: 1
    stride: 1
  }
}
layer {
  name: "bn3b_branch2c"
  type: "BatchNorm"
  bottom: "res3b_branch2c"
  top: "res3b_branch2c"
  batch_norm_param {
    use_global_stats: true
  }
}
layer {
  name: "scale3b_branch2c"
  type: "Scale"
  bottom: "res3b_branch2c"
  top: "res3b_branch2c"
  scale_param {
    bias_term: true
  }
}
layer {
  name: "res3b"
  type: "Eltwise"
  bottom: "res3a"
  bottom: "res3b_branch2c"
  top: "res3b"
}
layer {
  name: "res3b_relu"
  type: "ReLU"
  bottom: "res3b"
  top: "res3b"
}
layer {
  name: "res3c_branch2a"
  type: "Convolution"
  bottom: "res3b"
  top: "res3c_branch2a"
  convolution_param {
    num_output: 128
    bias_term: false
    pad: 0
    kernel_size: 1
    stride: 1
  }
}
layer {
  name: "bn3c_branch2a"
  type: "BatchNorm"
  bottom: "res3c_branch2a"
  top: "res3c_branch2a"
  batch_norm_param {
    use_global_stats: true
  }
}
layer {
  name: "scale3c_branch2a"
  type: "Scale"
  bottom: "res3c_branch2a"
  top: "res3c_branch2a"
  scale_param {
    bias_term: true
  }
}
layer {
  name: "res3c_branch2a_relu"
  type: "ReLU"
  bottom: "res3c_branch2a"
  top: "res3c_branch2a"
}
layer {
  name: "res3c_branch2b"
  type: "Convolution"
  bottom: "res3c_branch2a"
  top: "res3c_branch2b"
  convolution_param {
    num_output: 128
    bias_term: false
    pad: 1
    kernel_size: 3
    stride: 1
  }
}
layer {
  name: "bn3c_branch2b"
  type: "BatchNorm"
  bottom: "res3c_branch2b"
  top: "res3c_branch2b"
  batch_norm_param {
    use_global_stats: true
  }
}
layer {
  name: "scale3c_branch2b"
  type: "Scale"
  bottom: "res3c_branch2b"
  top: "res3c_branch2b"
  scale_param {
    bias_term: true
  }
}
layer {
  name: "res3c_branch2b_relu"
  type: "ReLU"
  bottom: "res3c_branch2b"
  top: "res3c_branch2b"
}
layer {
  name: "res3c_branch2c"
  type: "Convolution"
  bottom: "res3c_branch2b"
  top: "res3c_branch2c"
  convolution_param {
    num_output: 512
    bias_term: false
    pad: 0
    kernel_size: 1
    stride: 1
  }
}
layer {
  name: "bn3c_branch2c"
  type: "BatchNorm"
  bottom: "res3c_branch2c"
  top: "res3c_branch2c"
  batch_norm_param {
    use_global_stats: true
  }
}
layer {
  name: "scale3c_branch2c"
  type: "Scale"
  bottom: "res3c_branch2c"
  top: "res3c_branch2c"
  scale_param {
    bias_term: true
  }
}
layer {
  name: "res3c"
  type: "Eltwise"
  bottom: "res3b"
  bottom: "res3c_branch2c"
  top: "res3c"
}
layer {
  name: "res3c_relu"
  type: "ReLU"
  bottom: "res3c"
  top: "res3c"
}
layer {
  name: "res3d_branch2a"
  type: "Convolution"
  bottom: "res3c"
  top: "res3d_branch2a"
  convolution_param {
    num_output: 128
    bias_term: false
    pad: 0
    kernel_size: 1
    stride: 1
  }
}
layer {
  name: "bn3d_branch2a"
  type: "BatchNorm"
  bottom: "res3d_branch2a"
  top: "res3d_branch2a"
  batch_norm_param {
    use_global_stats: true
  }
}
layer {
  name: "scale3d_branch2a"
  type: "Scale"
  bottom: "res3d_branch2a"
  top: "res3d_branch2a"
  scale_param {
    bias_term: true
  }
}
layer {
  name: "res3d_branch2a_relu"
  type: "ReLU"
  bottom: "res3d_branch2a"
  top: "res3d_branch2a"
}
layer {
  name: "res3d_branch2b"
  type: "Convolution"
  bottom: "res3d_branch2a"
  top: "res3d_branch2b"
  convolution_param {
    num_output: 128
    bias_term: false
    pad: 1
    kernel_size: 3
    stride: 1
  }
}
layer {
  name: "bn3d_branch2b"
  type: "BatchNorm"
  bottom: "res3d_branch2b"
  top: "res3d_branch2b"
  batch_norm_param {
    use_global_stats: true
  }
}
layer {
  name: "scale3d_branch2b"
  type: "Scale"
  bottom: "res3d_branch2b"
  top: "res3d_branch2b"
  scale_param {
    bias_term: true
  }
}
layer {
  name: "res3d_branch2b_relu"
  type: "ReLU"
  bottom: "res3d_branch2b"
  top: "res3d_branch2b"
}
layer {
  name: "res3d_branch2c"
  type: "Convolution"
  bottom: "res3d_branch2b"
  top: "res3d_branch2c"
  convolution_param {
    num_output: 512
    bias_term: false
    pad: 0
    kernel_size: 1
    stride: 1
  }
}
layer {
  name: "bn3d_branch2c"
  type: "BatchNorm"
  bottom: "res3d_branch2c"
  top: "res3d_branch2c"
  batch_norm_param {
    use_global_stats: true
  }
}
layer {
  name: "scale3d_branch2c"
  type: "Scale"
  bottom: "res3d_branch2c"
  top: "res3d_branch2c"
  scale_param {
    bias_term: true
  }
}
layer {
  name: "res3d"
  type: "Eltwise"
  bottom: "res3c"
  bottom: "res3d_branch2c"
  top: "res3d"
}
layer {
  name: "res3d_relu"
  type: "ReLU"
  bottom: "res3d"
  top: "res3d"
}
layer {
  name: "res4a_branch1"
  type: "Convolution"
  bottom: "res3d"
  top: "res4a_branch1"
  convolution_param {
    num_output: 1024
    bias_term: false
    pad: 0
    kernel_size: 1
    stride: 2
  }
}
layer {
  name: "bn4a_branch1"
  type: "BatchNorm"
  bottom: "res4a_branch1"
  top: "res4a_branch1"
  batch_norm_param {
    use_global_stats: true
  }
}
layer {
  name: "scale4a_branch1"
  type: "Scale"
  bottom: "res4a_branch1"
  top: "res4a_branch1"
  scale_param {
    bias_term: true
  }
}
layer {
  name: "res4a_branch2a"
  type: "Convolution"
  bottom: "res3d"
  top: "res4a_branch2a"
  convolution_param {
    num_output: 256
    bias_term: false
    pad: 0
    kernel_size: 1
    stride: 2
  }
}
layer {
  name: "bn4a_branch2a"
  type: "BatchNorm"
  bottom: "res4a_branch2a"
  top: "res4a_branch2a"
  batch_norm_param {
    use_global_stats: true
  }
}
layer {
  name: "scale4a_branch2a"
  type: "Scale"
  bottom: "res4a_branch2a"
  top: "res4a_branch2a"
  scale_param {
    bias_term: true
  }
}
layer {
  name: "res4a_branch2a_relu"
  type: "ReLU"
  bottom: "res4a_branch2a"
  top: "res4a_branch2a"
}
layer {
  name: "res4a_branch2b"
  type: "Convolution"
  bottom: "res4a_branch2a"
  top: "res4a_branch2b"
  convolution_param {
    num_output: 256
    bias_term: false
    pad: 1
    kernel_size: 3
    stride: 1
  }
}
layer {
  name: "bn4a_branch2b"
  type: "BatchNorm"
  bottom: "res4a_branch2b"
  top: "res4a_branch2b"
  batch_norm_param {
    use_global_stats: true
  }
}
layer {
  name: "scale4a_branch2b"
  type: "Scale"
  bottom: "res4a_branch2b"
  top: "res4a_branch2b"
  scale_param {
    bias_term: true
  }
}
layer {
  name: "res4a_branch2b_relu"
  type: "ReLU"
  bottom: "res4a_branch2b"
  top: "res4a_branch2b"
}
layer {
  name: "res4a_branch2c"
  type: "Convolution"
  bottom: "res4a_branch2b"
  top: "res4a_branch2c"
  convolution_param {
    num_output: 1024
    bias_term: false
    pad: 0
    kernel_size: 1
    stride: 1
  }
}
layer {
  name: "bn4a_branch2c"
  type: "BatchNorm"
  bottom: "res4a_branch2c"
  top: "res4a_branch2c"
  batch_norm_param {
    use_global_stats: true
  }
}
layer {
  name: "scale4a_branch2c"
  type: "Scale"
  bottom: "res4a_branch2c"
  top: "res4a_branch2c"
  scale_param {
    bias_term: true
  }
}
layer {
  name: "res4a"
  type: "Eltwise"
  bottom: "res4a_branch1"
  bottom: "res4a_branch2c"
  top: "res4a"
}
layer {
  name: "res4a_relu"
  type: "ReLU"
  bottom: "res4a"
  top: "res4a"
}
layer {
  name: "res4b_branch2a"
  type: "Convolution"
  bottom: "res4a"
  top: "res4b_branch2a"
  convolution_param {
    num_output: 256
    bias_term: false
    pad: 0
    kernel_size: 1
    stride: 1
  }
}
layer {
  name: "bn4b_branch2a"
  type: "BatchNorm"
  bottom: "res4b_branch2a"
  top: "res4b_branch2a"
  batch_norm_param {
    use_global_stats: true
  }
}
layer {
  name: "scale4b_branch2a"
  type: "Scale"
  bottom: "res4b_branch2a"
  top: "res4b_branch2a"
  scale_param {
    bias_term: true
  }
}
layer {
  name: "res4b_branch2a_relu"
  type: "ReLU"
  bottom: "res4b_branch2a"
  top: "res4b_branch2a"
}
layer {
  name: "res4b_branch2b"
  type: "Convolution"
  bottom: "res4b_branch2a"
  top: "res4b_branch2b"
  convolution_param {
    num_output: 256
    bias_term: false
    pad: 1
    kernel_size: 3
    stride: 1
  }
}
layer {
  name: "bn4b_branch2b"
  type: "BatchNorm"
  bottom: "res4b_branch2b"
  top: "res4b_branch2b"
  batch_norm_param {
    use_global_stats: true
  }
}
layer {
  name: "scale4b_branch2b"
  type: "Scale"
  bottom: "res4b_branch2b"
  top: "res4b_branch2b"
  scale_param {
    bias_term: true
  }
}
layer {
  name: "res4b_branch2b_relu"
  type: "ReLU"
  bottom: "res4b_branch2b"
  top: "res4b_branch2b"
}
layer {
  name: "res4b_branch2c"
  type: "Convolution"
  bottom: "res4b_branch2b"
  top: "res4b_branch2c"
  convolution_param {
    num_output: 1024
    bias_term: false
    pad: 0
    kernel_size: 1
    stride: 1
  }
}
layer {
  name: "bn4b_branch2c"
  type: "BatchNorm"
  bottom: "res4b_branch2c"
  top: "res4b_branch2c"
  batch_norm_param {
    use_global_stats: true
  }
}
layer {
  name: "scale4b_branch2c"
  type: "Scale"
  bottom: "res4b_branch2c"
  top: "res4b_branch2c"
  scale_param {
    bias_term: true
  }
}
layer {
  name: "res4b"
  type: "Eltwise"
  bottom: "res4a"
  bottom: "res4b_branch2c"
  top: "res4b"
}
layer {
  name: "res4b_relu"
  type: "ReLU"
  bottom: "res4b"
  top: "res4b"
}
layer {
  name: "res4c_branch2a"
  type: "Convolution"
  bottom: "res4b"
  top: "res4c_branch2a"
  convolution_param {
    num_output: 256
    bias_term: false
    pad: 0
    kernel_size: 1
    stride: 1
  }
}
layer {
  name: "bn4c_branch2a"
  type: "BatchNorm"
  bottom: "res4c_branch2a"
  top: "res4c_branch2a"
  batch_norm_param {
    use_global_stats: true
  }
}
layer {
  name: "scale4c_branch2a"
  type: "Scale"
  bottom: "res4c_branch2a"
  top: "res4c_branch2a"
  scale_param {
    bias_term: true
  }
}
layer {
  name: "res4c_branch2a_relu"
  type: "ReLU"
  bottom: "res4c_branch2a"
  top: "res4c_branch2a"
}
layer {
  name: "res4c_branch2b"
  type: "Convolution"
  bottom: "res4c_branch2a"
  top: "res4c_branch2b"
  convolution_param {
    num_output: 256
    bias_term: false
    pad: 1
    kernel_size: 3
    stride: 1
  }
}
layer {
  name: "bn4c_branch2b"
  type: "BatchNorm"
  bottom: "res4c_branch2b"
  top: "res4c_branch2b"
  batch_norm_param {
    use_global_stats: true
  }
}
layer {
  name: "scale4c_branch2b"
  type: "Scale"
  bottom: "res4c_branch2b"
  top: "res4c_branch2b"
  scale_param {
    bias_term: true
  }
}
layer {
  name: "res4c_branch2b_relu"
  type: "ReLU"
  bottom: "res4c_branch2b"
  top: "res4c_branch2b"
}
layer {
  name: "res4c_branch2c"
  type: "Convolution"
  bottom: "res4c_branch2b"
  top: "res4c_branch2c"
  convolution_param {
    num_output: 1024
    bias_term: false
    pad: 0
    kernel_size: 1
    stride: 1
  }
}
layer {
  name: "bn4c_branch2c"
  type: "BatchNorm"
  bottom: "res4c_branch2c"
  top: "res4c_branch2c"
  batch_norm_param {
    use_global_stats: true
  }
}
layer {
  name: "scale4c_branch2c"
  type: "Scale"
  bottom: "res4c_branch2c"
  top: "res4c_branch2c"
  scale_param {
    bias_term: true
  }
}
layer {
  name: "res4c"
  type: "Eltwise"
  bottom: "res4b"
  bottom: "res4c_branch2c"
  top: "res4c"
}
layer {
  name: "res4c_relu"
  type: "ReLU"
  bottom: "res4c"
  top: "res4c"
}
layer {
  name: "res4d_branch2a"
  type: "Convolution"
  bottom: "res4c"
  top: "res4d_branch2a"
  convolution_param {
    num_output: 256
    bias_term: false
    pad: 0
    kernel_size: 1
    stride: 1
  }
}
layer {
  name: "bn4d_branch2a"
  type: "BatchNorm"
  bottom: "res4d_branch2a"
  top: "res4d_branch2a"
  batch_norm_param {
    use_global_stats: true
  }
}
layer {
  name: "scale4d_branch2a"
  type: "Scale"
  bottom: "res4d_branch2a"
  top: "res4d_branch2a"
  scale_param {
    bias_term: true
  }
}
layer {
  name: "res4d_branch2a_relu"
  type: "ReLU"
  bottom: "res4d_branch2a"
  top: "res4d_branch2a"
}
layer {
  name: "res4d_branch2b"
  type: "Convolution"
  bottom: "res4d_branch2a"
  top: "res4d_branch2b"
  convolution_param {
    num_output: 256
    bias_term: false
    pad: 1
    kernel_size: 3
    stride: 1
  }
}
layer {
  name: "bn4d_branch2b"
  type: "BatchNorm"
  bottom: "res4d_branch2b"
  top: "res4d_branch2b"
  batch_norm_param {
    use_global_stats: true
  }
}
layer {
  name: "scale4d_branch2b"
  type: "Scale"
  bottom: "res4d_branch2b"
  top: "res4d_branch2b"
  scale_param {
    bias_term: true
  }
}
layer {
  name: "res4d_branch2b_relu"
  type: "ReLU"
  bottom: "res4d_branch2b"
  top: "res4d_branch2b"
}
layer {
  name: "res4d_branch2c"
  type: "Convolution"
  bottom: "res4d_branch2b"
  top: "res4d_branch2c"
  convolution_param {
    num_output: 1024
    bias_term: false
    pad: 0
    kernel_size: 1
    stride: 1
  }
}
layer {
  name: "bn4d_branch2c"
  type: "BatchNorm"
  bottom: "res4d_branch2c"
  top: "res4d_branch2c"
  batch_norm_param {
    use_global_stats: true
  }
}
layer {
  name: "scale4d_branch2c"
  type: "Scale"
  bottom: "res4d_branch2c"
  top: "res4d_branch2c"
  scale_param {
    bias_term: true
  }
}
layer {
  name: "res4d"
  type: "Eltwise"
  bottom: "res4c"
  bottom: "res4d_branch2c"
  top: "res4d"
}
layer {
  name: "res4d_relu"
  type: "ReLU"
  bottom: "res4d"
  top: "res4d"
}
layer {
  name: "res4e_branch2a"
  type: "Convolution"
  bottom: "res4d"
  top: "res4e_branch2a"
  convolution_param {
    num_output: 256
    bias_term: false
    pad: 0
    kernel_size: 1
    stride: 1
  }
}
layer {
  name: "bn4e_branch2a"
  type: "BatchNorm"
  bottom: "res4e_branch2a"
  top: "res4e_branch2a"
  batch_norm_param {
    use_global_stats: true
  }
}
layer {
  name: "scale4e_branch2a"
  type: "Scale"
  bottom: "res4e_branch2a"
  top: "res4e_branch2a"
  scale_param {
    bias_term: true
  }
}
layer {
  name: "res4e_branch2a_relu"
  type: "ReLU"
  bottom: "res4e_branch2a"
  top: "res4e_branch2a"
}
layer {
  name: "res4e_branch2b"
  type: "Convolution"
  bottom: "res4e_branch2a"
  top: "res4e_branch2b"
  convolution_param {
    num_output: 256
    bias_term: false
    pad: 1
    kernel_size: 3
    stride: 1
  }
}
layer {
  name: "bn4e_branch2b"
  type: "BatchNorm"
  bottom: "res4e_branch2b"
  top: "res4e_branch2b"
  batch_norm_param {
    use_global_stats: true
  }
}
layer {
  name: "scale4e_branch2b"
  type: "Scale"
  bottom: "res4e_branch2b"
  top: "res4e_branch2b"
  scale_param {
    bias_term: true
  }
}
layer {
  name: "res4e_branch2b_relu"
  type: "ReLU"
  bottom: "res4e_branch2b"
  top: "res4e_branch2b"
}
layer {
  name: "res4e_branch2c"
  type: "Convolution"
  bottom: "res4e_branch2b"
  top: "res4e_branch2c"
  convolution_param {
    num_output: 1024
    bias_term: false
    pad: 0
    kernel_size: 1
    stride: 1
  }
}
layer {
  name: "bn4e_branch2c"
  type: "BatchNorm"
  bottom: "res4e_branch2c"
  top: "res4e_branch2c"
  batch_norm_param {
    use_global_stats: true
  }
}
layer {
  name: "scale4e_branch2c"
  type: "Scale"
  bottom: "res4e_branch2c"
  top: "res4e_branch2c"
  scale_param {
    bias_term: true
  }
}
layer {
  name: "res4e"
  type: "Eltwise"
  bottom: "res4d"
  bottom: "res4e_branch2c"
  top: "res4e"
}
layer {
  name: "res4e_relu"
  type: "ReLU"
  bottom: "res4e"
  top: "res4e"
}
layer {
  name: "res4f_branch2a"
  type: "Convolution"
  bottom: "res4e"
  top: "res4f_branch2a"
  convolution_param {
    num_output: 256
    bias_term: false
    pad: 0
    kernel_size: 1
    stride: 1
  }
}
layer {
  name: "bn4f_branch2a"
  type: "BatchNorm"
  bottom: "res4f_branch2a"
  top: "res4f_branch2a"
  batch_norm_param {
    use_global_stats: true
  }
}
layer {
  name: "scale4f_branch2a"
  type: "Scale"
  bottom: "res4f_branch2a"
  top: "res4f_branch2a"
  scale_param {
    bias_term: true
  }
}
layer {
  name: "res4f_branch2a_relu"
  type: "ReLU"
  bottom: "res4f_branch2a"
  top: "res4f_branch2a"
}
layer {
  name: "res4f_branch2b"
  type: "Convolution"
  bottom: "res4f_branch2a"
  top: "res4f_branch2b"
  convolution_param {
    num_output: 256
    bias_term: false
    pad: 1
    kernel_size: 3
    stride: 1
  }
}
layer {
  name: "bn4f_branch2b"
  type: "BatchNorm"
  bottom: "res4f_branch2b"
  top: "res4f_branch2b"
  batch_norm_param {
    use_global_stats: true
  }
}
layer {
  name: "scale4f_branch2b"
  type: "Scale"
  bottom: "res4f_branch2b"
  top: "res4f_branch2b"
  scale_param {
    bias_term: true
  }
}
layer {
  name: "res4f_branch2b_relu"
  type: "ReLU"
  bottom: "res4f_branch2b"
  top: "res4f_branch2b"
}
layer {
  name: "res4f_branch2c"
  type: "Convolution"
  bottom: "res4f_branch2b"
  top: "res4f_branch2c"
  convolution_param {
    num_output: 1024
    bias_term: false
    pad: 0
    kernel_size: 1
    stride: 1
  }
}
layer {
  name: "bn4f_branch2c"
  type: "BatchNorm"
  bottom: "res4f_branch2c"
  top: "res4f_branch2c"
  batch_norm_param {
    use_global_stats: true
  }
}
layer {
  name: "scale4f_branch2c"
  type: "Scale"
  bottom: "res4f_branch2c"
  top: "res4f_branch2c"
  scale_param {
    bias_term: true
  }
}
layer {
  name: "res4f"
  type: "Eltwise"
  bottom: "res4e"
  bottom: "res4f_branch2c"
  top: "res4f"
}
layer {
  name: "res4f_relu"
  type: "ReLU"
  bottom: "res4f"
  top: "res4f"
}
layer {
  name: "res5a_branch1"
  type: "Convolution"
  bottom: "res4f"
  top: "res5a_branch1"
  convolution_param {
    num_output: 2048
    bias_term: false
    pad: 0
    kernel_size: 1
    stride: 2
  }
}
layer {
  name: "bn5a_branch1"
  type: "BatchNorm"
  bottom: "res5a_branch1"
  top: "res5a_branch1"
  batch_norm_param {
    use_global_stats: true
  }
}
layer {
  name: "scale5a_branch1"
  type: "Scale"
  bottom: "res5a_branch1"
  top: "res5a_branch1"
  scale_param {
    bias_term: true
  }
}
layer {
  name: "res5a_branch2a"
  type: "Convolution"
  bottom: "res4f"
  top: "res5a_branch2a"
  convolution_param {
    num_output: 512
    bias_term: false
    pad: 0
    kernel_size: 1
    stride: 2
  }
}
layer {
  name: "bn5a_branch2a"
  type: "BatchNorm"
  bottom: "res5a_branch2a"
  top: "res5a_branch2a"
  batch_norm_param {
    use_global_stats: true
  }
}
layer {
  name: "scale5a_branch2a"
  type: "Scale"
  bottom: "res5a_branch2a"
  top: "res5a_branch2a"
  scale_param {
    bias_term: true
  }
}
layer {
  name: "res5a_branch2a_relu"
  type: "ReLU"
  bottom: "res5a_branch2a"
  top: "res5a_branch2a"
}
layer {
  name: "res5a_branch2b"
  type: "Convolution"
  bottom: "res5a_branch2a"
  top: "res5a_branch2b"
  convolution_param {
    num_output: 512
    bias_term: false
    pad: 1
    kernel_size: 3
    stride: 1
  }
}
layer {
  name: "bn5a_branch2b"
  type: "BatchNorm"
  bottom: "res5a_branch2b"
  top: "res5a_branch2b"
  batch_norm_param {
    use_global_stats: true
  }
}
layer {
  name: "scale5a_branch2b"
  type: "Scale"
  bottom: "res5a_branch2b"
  top: "res5a_branch2b"
  scale_param {
    bias_term: true
  }
}
layer {
  name: "res5a_branch2b_relu"
  type: "ReLU"
  bottom: "res5a_branch2b"
  top: "res5a
I0319 09:26:37.884779 18746 layer_factory.hpp:77] Creating layer data
I0319 09:26:37.885450 18746 net.cpp:106] Creating Layer data
I0319 09:26:37.885478 18746 net.cpp:411] data -> data
I0319 09:26:37.885527 18746 net.cpp:411] data -> id_label
I0319 09:26:37.885712 18746 data_transformer.cpp:25] Loading mean file from: /home/lizhuowan/Market1501/lmdb/lmdb_12936/Image_lmdb_12936.binaryproto
I0319 09:26:37.887702 18750 db_lmdb.cpp:38] Opened lmdb /home/lizhuowan/Market1501/lmdb/lmdb_mirror_12936/Image_lmdb_mirror_12936
I0319 09:26:37.914031 18746 data_layer.cpp:41] output data size: 16,3,224,224
I0319 09:26:37.944286 18746 net.cpp:150] Setting up data
I0319 09:26:37.944396 18746 net.cpp:157] Top shape: 16 3 224 224 (2408448)
I0319 09:26:37.944413 18746 net.cpp:157] Top shape: 16 (16)
I0319 09:26:37.944425 18746 net.cpp:165] Memory required for data: 9633856
I0319 09:26:37.944447 18746 layer_factory.hpp:77] Creating layer data_data_0_split
I0319 09:26:37.944478 18746 net.cpp:106] Creating Layer data_data_0_split
I0319 09:26:37.944495 18746 net.cpp:454] data_data_0_split <- data
I0319 09:26:37.944526 18746 net.cpp:411] data_data_0_split -> data_data_0_split_0
I0319 09:26:37.944550 18746 net.cpp:411] data_data_0_split -> data_data_0_split_1
I0319 09:26:37.944645 18746 net.cpp:150] Setting up data_data_0_split
I0319 09:26:37.944667 18746 net.cpp:157] Top shape: 16 3 224 224 (2408448)
I0319 09:26:37.944680 18746 net.cpp:157] Top shape: 16 3 224 224 (2408448)
I0319 09:26:37.944691 18746 net.cpp:165] Memory required for data: 28901440
I0319 09:26:37.944702 18746 layer_factory.hpp:77] Creating layer data
I0319 09:26:37.944809 18746 net.cpp:106] Creating Layer data
I0319 09:26:37.944830 18746 net.cpp:411] data -> labels
I0319 09:26:37.951144 18752 db_lmdb.cpp:38] Opened lmdb /home/lizhuowan/Market1501/lmdb/lmdb_mirror_12936/pos30_lmdb_mirror_12936_correct
I0319 09:26:37.951481 18746 data_layer.cpp:41] output data size: 16,30,1,1
I0319 09:26:37.953243 18746 net.cpp:150] Setting up data
I0319 09:26:37.953296 18746 net.cpp:157] Top shape: 16 30 1 1 (480)
I0319 09:26:37.953316 18746 net.cpp:165] Memory required for data: 28903360
I0319 09:26:37.953377 18746 layer_factory.hpp:77] Creating layer conv1
I0319 09:26:37.953438 18746 net.cpp:106] Creating Layer conv1
I0319 09:26:37.953462 18746 net.cpp:454] conv1 <- data_data_0_split_0
I0319 09:26:37.953492 18746 net.cpp:411] conv1 -> conv1
I0319 09:26:37.955262 18746 net.cpp:150] Setting up conv1
I0319 09:26:37.955308 18746 net.cpp:157] Top shape: 16 64 112 112 (12845056)
I0319 09:26:37.955328 18746 net.cpp:165] Memory required for data: 80283584
I0319 09:26:37.955380 18746 layer_factory.hpp:77] Creating layer bn_conv1
I0319 09:26:37.955423 18746 net.cpp:106] Creating Layer bn_conv1
I0319 09:26:37.955446 18746 net.cpp:454] bn_conv1 <- conv1
I0319 09:26:37.955476 18746 net.cpp:397] bn_conv1 -> conv1 (in-place)
I0319 09:26:37.956104 18746 net.cpp:150] Setting up bn_conv1
I0319 09:26:37.956145 18746 net.cpp:157] Top shape: 16 64 112 112 (12845056)
I0319 09:26:37.956163 18746 net.cpp:165] Memory required for data: 131663808
I0319 09:26:37.956212 18746 layer_factory.hpp:77] Creating layer scale_conv1
I0319 09:26:37.956257 18746 net.cpp:106] Creating Layer scale_conv1
I0319 09:26:37.956279 18746 net.cpp:454] scale_conv1 <- conv1
I0319 09:26:37.956308 18746 net.cpp:397] scale_conv1 -> conv1 (in-place)
I0319 09:26:37.956439 18746 layer_factory.hpp:77] Creating layer scale_conv1
I0319 09:26:37.956840 18746 net.cpp:150] Setting up scale_conv1
I0319 09:26:37.956881 18746 net.cpp:157] Top shape: 16 64 112 112 (12845056)
I0319 09:26:37.956938 18746 net.cpp:165] Memory required for data: 183044032
I0319 09:26:37.956971 18746 layer_factory.hpp:77] Creating layer conv1_relu
I0319 09:26:37.957016 18746 net.cpp:106] Creating Layer conv1_relu
I0319 09:26:37.957042 18746 net.cpp:454] conv1_relu <- conv1
I0319 09:26:37.957090 18746 net.cpp:397] conv1_relu -> conv1 (in-place)
I0319 09:26:37.957131 18746 net.cpp:150] Setting up conv1_relu
I0319 09:26:37.957175 18746 net.cpp:157] Top shape: 16 64 112 112 (12845056)
I0319 09:26:37.957200 18746 net.cpp:165] Memory required for data: 234424256
I0319 09:26:37.957221 18746 layer_factory.hpp:77] Creating layer pool1
I0319 09:26:37.957247 18746 net.cpp:106] Creating Layer pool1
I0319 09:26:37.957267 18746 net.cpp:454] pool1 <- conv1
I0319 09:26:37.957294 18746 net.cpp:411] pool1 -> pool1
I0319 09:26:37.957422 18746 net.cpp:150] Setting up pool1
I0319 09:26:37.957456 18746 net.cpp:157] Top shape: 16 64 56 56 (3211264)
I0319 09:26:37.957474 18746 net.cpp:165] Memory required for data: 247269312
I0319 09:26:37.957492 18746 layer_factory.hpp:77] Creating layer pool1_pool1_0_split
I0319 09:26:37.957518 18746 net.cpp:106] Creating Layer pool1_pool1_0_split
I0319 09:26:37.957537 18746 net.cpp:454] pool1_pool1_0_split <- pool1
I0319 09:26:37.957583 18746 net.cpp:411] pool1_pool1_0_split -> pool1_pool1_0_split_0
I0319 09:26:37.957610 18746 net.cpp:411] pool1_pool1_0_split -> pool1_pool1_0_split_1
I0319 09:26:37.957700 18746 net.cpp:150] Setting up pool1_pool1_0_split
I0319 09:26:37.957731 18746 net.cpp:157] Top shape: 16 64 56 56 (3211264)
I0319 09:26:37.957753 18746 net.cpp:157] Top shape: 16 64 56 56 (3211264)
I0319 09:26:37.957770 18746 net.cpp:165] Memory required for data: 272959424
I0319 09:26:37.957788 18746 layer_factory.hpp:77] Creating layer res2a_branch1
I0319 09:26:37.957826 18746 net.cpp:106] Creating Layer res2a_branch1
I0319 09:26:37.957847 18746 net.cpp:454] res2a_branch1 <- pool1_pool1_0_split_0
I0319 09:26:37.957871 18746 net.cpp:411] res2a_branch1 -> res2a_branch1
I0319 09:26:37.958256 18746 net.cpp:150] Setting up res2a_branch1
I0319 09:26:37.958292 18746 net.cpp:157] Top shape: 16 256 56 56 (12845056)
I0319 09:26:37.958310 18746 net.cpp:165] Memory required for data: 324339648
I0319 09:26:37.958334 18746 layer_factory.hpp:77] Creating layer bn2a_branch1
I0319 09:26:37.958359 18746 net.cpp:106] Creating Layer bn2a_branch1
I0319 09:26:37.958377 18746 net.cpp:454] bn2a_branch1 <- res2a_branch1
I0319 09:26:37.958400 18746 net.cpp:397] bn2a_branch1 -> res2a_branch1 (in-place)
I0319 09:26:37.959982 18746 net.cpp:150] Setting up bn2a_branch1
I0319 09:26:37.960037 18746 net.cpp:157] Top shape: 16 256 56 56 (12845056)
I0319 09:26:37.960077 18746 net.cpp:165] Memory required for data: 375719872
I0319 09:26:37.960116 18746 layer_factory.hpp:77] Creating layer scale2a_branch1
I0319 09:26:37.960144 18746 net.cpp:106] Creating Layer scale2a_branch1
I0319 09:26:37.960163 18746 net.cpp:454] scale2a_branch1 <- res2a_branch1
I0319 09:26:37.960186 18746 net.cpp:397] scale2a_branch1 -> res2a_branch1 (in-place)
I0319 09:26:37.960297 18746 layer_factory.hpp:77] Creating layer scale2a_branch1
I0319 09:26:37.960561 18746 net.cpp:150] Setting up scale2a_branch1
I0319 09:26:37.960595 18746 net.cpp:157] Top shape: 16 256 56 56 (12845056)
I0319 09:26:37.960635 18746 net.cpp:165] Memory required for data: 427100096
I0319 09:26:37.960666 18746 layer_factory.hpp:77] Creating layer res2a_branch2a
I0319 09:26:37.960711 18746 net.cpp:106] Creating Layer res2a_branch2a
I0319 09:26:37.960733 18746 net.cpp:454] res2a_branch2a <- pool1_pool1_0_split_1
I0319 09:26:37.960757 18746 net.cpp:411] res2a_branch2a -> res2a_branch2a
I0319 09:26:37.961159 18746 net.cpp:150] Setting up res2a_branch2a
I0319 09:26:37.961195 18746 net.cpp:157] Top shape: 16 64 56 56 (3211264)
I0319 09:26:37.961213 18746 net.cpp:165] Memory required for data: 439945152
I0319 09:26:37.961237 18746 layer_factory.hpp:77] Creating layer bn2a_branch2a
I0319 09:26:37.961267 18746 net.cpp:106] Creating Layer bn2a_branch2a
I0319 09:26:37.961288 18746 net.cpp:454] bn2a_branch2a <- res2a_branch2a
I0319 09:26:37.961311 18746 net.cpp:397] bn2a_branch2a -> res2a_branch2a (in-place)
I0319 09:26:37.961694 18746 net.cpp:150] Setting up bn2a_branch2a
I0319 09:26:37.961727 18746 net.cpp:157] Top shape: 16 64 56 56 (3211264)
I0319 09:26:37.961746 18746 net.cpp:165] Memory required for data: 452790208
I0319 09:26:37.961782 18746 layer_factory.hpp:77] Creating layer scale2a_branch2a
I0319 09:26:37.961814 18746 net.cpp:106] Creating Layer scale2a_branch2a
I0319 09:26:37.961835 18746 net.cpp:454] scale2a_branch2a <- res2a_branch2a
I0319 09:26:37.961858 18746 net.cpp:397] scale2a_branch2a -> res2a_branch2a (in-place)
I0319 09:26:37.961961 18746 layer_factory.hpp:77] Creating layer scale2a_branch2a
I0319 09:26:37.962266 18746 net.cpp:150] Setting up scale2a_branch2a
I0319 09:26:37.962301 18746 net.cpp:157] Top shape: 16 64 56 56 (3211264)
I0319 09:26:37.962318 18746 net.cpp:165] Memory required for data: 465635264
I0319 09:26:37.962344 18746 layer_factory.hpp:77] Creating layer res2a_branch2a_relu
I0319 09:26:37.962379 18746 net.cpp:106] Creating Layer res2a_branch2a_relu
I0319 09:26:37.962400 18746 net.cpp:454] res2a_branch2a_relu <- res2a_branch2a
I0319 09:26:37.962424 18746 net.cpp:397] res2a_branch2a_relu -> res2a_branch2a (in-place)
I0319 09:26:37.962448 18746 net.cpp:150] Setting up res2a_branch2a_relu
I0319 09:26:37.962471 18746 net.cpp:157] Top shape: 16 64 56 56 (3211264)
I0319 09:26:37.962487 18746 net.cpp:165] Memory required for data: 478480320
I0319 09:26:37.962505 18746 layer_factory.hpp:77] Creating layer res2a_branch2b
I0319 09:26:37.962540 18746 net.cpp:106] Creating Layer res2a_branch2b
I0319 09:26:37.962561 18746 net.cpp:454] res2a_branch2b <- res2a_branch2a
I0319 09:26:37.962585 18746 net.cpp:411] res2a_branch2b -> res2a_branch2b
I0319 09:26:37.964066 18746 net.cpp:150] Setting up res2a_branch2b
I0319 09:26:37.964109 18746 net.cpp:157] Top shape: 16 64 56 56 (3211264)
I0319 09:26:37.964128 18746 net.cpp:165] Memory required for data: 491325376
I0319 09:26:37.964153 18746 layer_factory.hpp:77] Creating layer bn2a_branch2b
I0319 09:26:37.964177 18746 net.cpp:106] Creating Layer bn2a_branch2b
I0319 09:26:37.964197 18746 net.cpp:454] bn2a_branch2b <- res2a_branch2b
I0319 09:26:37.964221 18746 net.cpp:397] bn2a_branch2b -> res2a_branch2b (in-place)
I0319 09:26:37.964654 18746 net.cpp:150] Setting up bn2a_branch2b
I0319 09:26:37.964691 18746 net.cpp:157] Top shape: 16 64 56 56 (3211264)
I0319 09:26:37.964710 18746 net.cpp:165] Memory required for data: 504170432
I0319 09:26:37.964740 18746 layer_factory.hpp:77] Creating layer scale2a_branch2b
I0319 09:26:37.964779 18746 net.cpp:106] Creating Layer scale2a_branch2b
I0319 09:26:37.964821 18746 net.cpp:454] scale2a_branch2b <- res2a_branch2b
I0319 09:26:37.964869 18746 net.cpp:397] scale2a_branch2b -> res2a_branch2b (in-place)
I0319 09:26:37.964984 18746 layer_factory.hpp:77] Creating layer scale2a_branch2b
I0319 09:26:37.965270 18746 net.cpp:150] Setting up scale2a_branch2b
I0319 09:26:37.965309 18746 net.cpp:157] Top shape: 16 64 56 56 (3211264)
I0319 09:26:37.965328 18746 net.cpp:165] Memory required for data: 517015488
I0319 09:26:37.965355 18746 layer_factory.hpp:77] Creating layer res2a_branch2b_relu
I0319 09:26:37.965379 18746 net.cpp:106] Creating Layer res2a_branch2b_relu
I0319 09:26:37.965397 18746 net.cpp:454] res2a_branch2b_relu <- res2a_branch2b
I0319 09:26:37.965420 18746 net.cpp:397] res2a_branch2b_relu -> res2a_branch2b (in-place)
I0319 09:26:37.965445 18746 net.cpp:150] Setting up res2a_branch2b_relu
I0319 09:26:37.965466 18746 net.cpp:157] Top shape: 16 64 56 56 (3211264)
I0319 09:26:37.965484 18746 net.cpp:165] Memory required for data: 529860544
I0319 09:26:37.965502 18746 layer_factory.hpp:77] Creating layer res2a_branch2c
I0319 09:26:37.965534 18746 net.cpp:106] Creating Layer res2a_branch2c
I0319 09:26:37.965555 18746 net.cpp:454] res2a_branch2c <- res2a_branch2b
I0319 09:26:37.965579 18746 net.cpp:411] res2a_branch2c -> res2a_branch2c
I0319 09:26:37.965988 18746 net.cpp:150] Setting up res2a_branch2c
I0319 09:26:37.966024 18746 net.cpp:157] Top shape: 16 256 56 56 (12845056)
I0319 09:26:37.966042 18746 net.cpp:165] Memory required for data: 581240768
I0319 09:26:37.966065 18746 layer_factory.hpp:77] Creating layer bn2a_branch2c
I0319 09:26:37.966090 18746 net.cpp:106] Creating Layer bn2a_branch2c
I0319 09:26:37.966109 18746 net.cpp:454] bn2a_branch2c <- res2a_branch2c
I0319 09:26:37.966130 18746 net.cpp:397] bn2a_branch2c -> res2a_branch2c (in-place)
I0319 09:26:37.966516 18746 net.cpp:150] Setting up bn2a_branch2c
I0319 09:26:37.966550 18746 net.cpp:157] Top shape: 16 256 56 56 (12845056)
I0319 09:26:37.966569 18746 net.cpp:165] Memory required for data: 632620992
I0319 09:26:37.966598 18746 layer_factory.hpp:77] Creating layer scale2a_branch2c
I0319 09:26:37.966630 18746 net.cpp:106] Creating Layer scale2a_branch2c
I0319 09:26:37.966650 18746 net.cpp:454] scale2a_branch2c <- res2a_branch2c
I0319 09:26:37.966673 18746 net.cpp:397] scale2a_branch2c -> res2a_branch2c (in-place)
I0319 09:26:37.966775 18746 layer_factory.hpp:77] Creating layer scale2a_branch2c
I0319 09:26:37.967032 18746 net.cpp:150] Setting up scale2a_branch2c
I0319 09:26:37.967066 18746 net.cpp:157] Top shape: 16 256 56 56 (12845056)
I0319 09:26:37.967083 18746 net.cpp:165] Memory required for data: 684001216
I0319 09:26:37.967108 18746 layer_factory.hpp:77] Creating layer res2a
I0319 09:26:37.967140 18746 net.cpp:106] Creating Layer res2a
I0319 09:26:37.967160 18746 net.cpp:454] res2a <- res2a_branch1
I0319 09:26:37.967181 18746 net.cpp:454] res2a <- res2a_branch2c
I0319 09:26:37.967208 18746 net.cpp:411] res2a -> res2a
I0319 09:26:37.967288 18746 net.cpp:150] Setting up res2a
I0319 09:26:37.967327 18746 net.cpp:157] Top shape: 16 256 56 56 (12845056)
I0319 09:26:37.967346 18746 net.cpp:165] Memory required for data: 735381440
I0319 09:26:37.967365 18746 layer_factory.hpp:77] Creating layer res2a_relu
I0319 09:26:37.967387 18746 net.cpp:106] Creating Layer res2a_relu
I0319 09:26:37.967406 18746 net.cpp:454] res2a_relu <- res2a
I0319 09:26:37.967427 18746 net.cpp:397] res2a_relu -> res2a (in-place)
I0319 09:26:37.967453 18746 net.cpp:150] Setting up res2a_relu
I0319 09:26:37.967474 18746 net.cpp:157] Top shape: 16 256 56 56 (12845056)
I0319 09:26:37.967491 18746 net.cpp:165] Memory required for data: 786761664
I0319 09:26:37.967509 18746 layer_factory.hpp:77] Creating layer res2a_res2a_relu_0_split
I0319 09:26:37.967530 18746 net.cpp:106] Creating Layer res2a_res2a_relu_0_split
I0319 09:26:37.967548 18746 net.cpp:454] res2a_res2a_relu_0_split <- res2a
I0319 09:26:37.967576 18746 net.cpp:411] res2a_res2a_relu_0_split -> res2a_res2a_relu_0_split_0
I0319 09:26:37.967628 18746 net.cpp:411] res2a_res2a_relu_0_split -> res2a_res2a_relu_0_split_1
I0319 09:26:37.967715 18746 net.cpp:150] Setting up res2a_res2a_relu_0_split
I0319 09:26:37.967752 18746 net.cpp:157] Top shape: 16 256 56 56 (12845056)
I0319 09:26:37.967775 18746 net.cpp:157] Top shape: 16 256 56 56 (12845056)
I0319 09:26:37.967792 18746 net.cpp:165] Memory required for data: 889522112
I0319 09:26:37.967810 18746 layer_factory.hpp:77] Creating layer res2b_branch2a
I0319 09:26:37.967838 18746 net.cpp:106] Creating Layer res2b_branch2a
I0319 09:26:37.967856 18746 net.cpp:454] res2b_branch2a <- res2a_res2a_relu_0_split_0
I0319 09:26:37.967880 18746 net.cpp:411] res2b_branch2a -> res2b_branch2a
I0319 09:26:37.968279 18746 net.cpp:150] Setting up res2b_branch2a
I0319 09:26:37.968317 18746 net.cpp:157] Top shape: 16 64 56 56 (3211264)
I0319 09:26:37.968333 18746 net.cpp:165] Memory required for data: 902367168
I0319 09:26:37.968358 18746 layer_factory.hpp:77] Creating layer bn2b_branch2a
I0319 09:26:37.968381 18746 net.cpp:106] Creating Layer bn2b_branch2a
I0319 09:26:37.968400 18746 net.cpp:454] bn2b_branch2a <- res2b_branch2a
I0319 09:26:37.968435 18746 net.cpp:397] bn2b_branch2a -> res2b_branch2a (in-place)
I0319 09:26:37.968854 18746 net.cpp:150] Setting up bn2b_branch2a
I0319 09:26:37.968891 18746 net.cpp:157] Top shape: 16 64 56 56 (3211264)
I0319 09:26:37.968909 18746 net.cpp:165] Memory required for data: 915212224
I0319 09:26:37.968955 18746 layer_factory.hpp:77] Creating layer scale2b_branch2a
I0319 09:26:37.968982 18746 net.cpp:106] Creating Layer scale2b_branch2a
I0319 09:26:37.969002 18746 net.cpp:454] scale2b_branch2a <- res2b_branch2a
I0319 09:26:37.969023 18746 net.cpp:397] scale2b_branch2a -> res2b_branch2a (in-place)
I0319 09:26:37.969127 18746 layer_factory.hpp:77] Creating layer scale2b_branch2a
I0319 09:26:37.969411 18746 net.cpp:150] Setting up scale2b_branch2a
I0319 09:26:37.969444 18746 net.cpp:157] Top shape: 16 64 56 56 (3211264)
I0319 09:26:37.969463 18746 net.cpp:165] Memory required for data: 928057280
I0319 09:26:37.969488 18746 layer_factory.hpp:77] Creating layer res2b_branch2a_relu
I0319 09:26:37.969512 18746 net.cpp:106] Creating Layer res2b_branch2a_relu
I0319 09:26:37.969532 18746 net.cpp:454] res2b_branch2a_relu <- res2b_branch2a
I0319 09:26:37.969558 18746 net.cpp:397] res2b_branch2a_relu -> res2b_branch2a (in-place)
I0319 09:26:37.969585 18746 net.cpp:150] Setting up res2b_branch2a_relu
I0319 09:26:37.969607 18746 net.cpp:157] Top shape: 16 64 56 56 (3211264)
I0319 09:26:37.969625 18746 net.cpp:165] Memory required for data: 940902336
I0319 09:26:37.969643 18746 layer_factory.hpp:77] Creating layer res2b_branch2b
I0319 09:26:37.969669 18746 net.cpp:106] Creating Layer res2b_branch2b
I0319 09:26:37.969688 18746 net.cpp:454] res2b_branch2b <- res2b_branch2a
I0319 09:26:37.969717 18746 net.cpp:411] res2b_branch2b -> res2b_branch2b
I0319 09:26:37.970144 18746 net.cpp:150] Setting up res2b_branch2b
I0319 09:26:37.970180 18746 net.cpp:157] Top shape: 16 64 56 56 (3211264)
I0319 09:26:37.970197 18746 net.cpp:165] Memory required for data: 953747392
I0319 09:26:37.970221 18746 layer_factory.hpp:77] Creating layer bn2b_branch2b
I0319 09:26:37.970252 18746 net.cpp:106] Creating Layer bn2b_branch2b
I0319 09:26:37.970273 18746 net.cpp:454] bn2b_branch2b <- res2b_branch2b
I0319 09:26:37.970295 18746 net.cpp:397] bn2b_branch2b -> res2b_branch2b (in-place)
I0319 09:26:37.970692 18746 net.cpp:150] Setting up bn2b_branch2b
I0319 09:26:37.970726 18746 net.cpp:157] Top shape: 16 64 56 56 (3211264)
I0319 09:26:37.970748 18746 net.cpp:165] Memory required for data: 966592448
I0319 09:26:37.970778 18746 layer_factory.hpp:77] Creating layer scale2b_branch2b
I0319 09:26:37.970814 18746 net.cpp:106] Creating Layer scale2b_branch2b
I0319 09:26:37.970835 18746 net.cpp:454] scale2b_branch2b <- res2b_branch2b
I0319 09:26:37.970859 18746 net.cpp:397] scale2b_branch2b -> res2b_branch2b (in-place)
I0319 09:26:37.970963 18746 layer_factory.hpp:77] Creating layer scale2b_branch2b
I0319 09:26:37.971251 18746 net.cpp:150] Setting up scale2b_branch2b
I0319 09:26:37.971307 18746 net.cpp:157] Top shape: 16 64 56 56 (3211264)
I0319 09:26:37.971326 18746 net.cpp:165] Memory required for data: 979437504
I0319 09:26:37.971352 18746 layer_factory.hpp:77] Creating layer res2b_branch2b_relu
I0319 09:26:37.971376 18746 net.cpp:106] Creating Layer res2b_branch2b_relu
I0319 09:26:37.971395 18746 net.cpp:454] res2b_branch2b_relu <- res2b_branch2b
I0319 09:26:37.971422 18746 net.cpp:397] res2b_branch2b_relu -> res2b_branch2b (in-place)
I0319 09:26:37.971448 18746 net.cpp:150] Setting up res2b_branch2b_relu
I0319 09:26:37.971472 18746 net.cpp:157] Top shape: 16 64 56 56 (3211264)
I0319 09:26:37.971489 18746 net.cpp:165] Memory required for data: 992282560
I0319 09:26:37.971506 18746 layer_factory.hpp:77] Creating layer res2b_branch2c
I0319 09:26:37.971532 18746 net.cpp:106] Creating Layer res2b_branch2c
I0319 09:26:37.971551 18746 net.cpp:454] res2b_branch2c <- res2b_branch2b
I0319 09:26:37.971583 18746 net.cpp:411] res2b_branch2c -> res2b_branch2c
I0319 09:26:37.972035 18746 net.cpp:150] Setting up res2b_branch2c
I0319 09:26:37.972072 18746 net.cpp:157] Top shape: 16 256 56 56 (12845056)
I0319 09:26:37.972091 18746 net.cpp:165] Memory required for data: 1043662784
I0319 09:26:37.972115 18746 layer_factory.hpp:77] Creating layer bn2b_branch2c
I0319 09:26:37.972144 18746 net.cpp:106] Creating Layer bn2b_branch2c
I0319 09:26:37.972164 18746 net.cpp:454] bn2b_branch2c <- res2b_branch2c
I0319 09:26:37.972187 18746 net.cpp:397] bn2b_branch2c -> res2b_branch2c (in-place)
I0319 09:26:37.972573 18746 net.cpp:150] Setting up bn2b_branch2c
I0319 09:26:37.972607 18746 net.cpp:157] Top shape: 16 256 56 56 (12845056)
I0319 09:26:37.972651 18746 net.cpp:165] Memory required for data: 1095043008
I0319 09:26:37.972682 18746 layer_factory.hpp:77] Creating layer scale2b_branch2c
I0319 09:26:37.972707 18746 net.cpp:106] Creating Layer scale2b_branch2c
I0319 09:26:37.972726 18746 net.cpp:454] scale2b_branch2c <- res2b_branch2c
I0319 09:26:37.972754 18746 net.cpp:397] scale2b_branch2c -> res2b_branch2c (in-place)
I0319 09:26:37.972856 18746 layer_factory.hpp:77] Creating layer scale2b_branch2c
I0319 09:26:37.973119 18746 net.cpp:150] Setting up scale2b_branch2c
I0319 09:26:37.973158 18746 net.cpp:157] Top shape: 16 256 56 56 (12845056)
I0319 09:26:37.973177 18746 net.cpp:165] Memory required for data: 1146423232
I0319 09:26:37.973203 18746 layer_factory.hpp:77] Creating layer res2b
I0319 09:26:37.973227 18746 net.cpp:106] Creating Layer res2b
I0319 09:26:37.973247 18746 net.cpp:454] res2b <- res2a_res2a_relu_0_split_1
I0319 09:26:37.973266 18746 net.cpp:454] res2b <- res2b_branch2c
I0319 09:26:37.973299 18746 net.cpp:411] res2b -> res2b
I0319 09:26:37.974575 18746 net.cpp:150] Setting up res2b
I0319 09:26:37.974609 18746 net.cpp:157] Top shape: 16 256 56 56 (12845056)
I0319 09:26:37.974622 18746 net.cpp:165] Memory required for data: 1197803456
I0319 09:26:37.974634 18746 layer_factory.hpp:77] Creating layer res2b_relu
I0319 09:26:37.974650 18746 net.cpp:106] Creating Layer res2b_relu
I0319 09:26:37.974661 18746 net.cpp:454] res2b_relu <- res2b
I0319 09:26:37.974679 18746 net.cpp:397] res2b_relu -> res2b (in-place)
I0319 09:26:37.974699 18746 net.cpp:150] Setting up res2b_relu
I0319 09:26:37.974712 18746 net.cpp:157] Top shape: 16 256 56 56 (12845056)
I0319 09:26:37.974723 18746 net.cpp:165] Memory required for data: 1249183680
I0319 09:26:37.974733 18746 layer_factory.hpp:77] Creating layer res2b_res2b_relu_0_split
I0319 09:26:37.974747 18746 net.cpp:106] Creating Layer res2b_res2b_relu_0_split
I0319 09:26:37.974758 18746 net.cpp:454] res2b_res2b_relu_0_split <- res2b
I0319 09:26:37.974771 18746 net.cpp:411] res2b_res2b_relu_0_split -> res2b_res2b_relu_0_split_0
I0319 09:26:37.974787 18746 net.cpp:411] res2b_res2b_relu_0_split -> res2b_res2b_relu_0_split_1
I0319 09:26:37.974848 18746 net.cpp:150] Setting up res2b_res2b_relu_0_split
I0319 09:26:37.974866 18746 net.cpp:157] Top shape: 16 256 56 56 (12845056)
I0319 09:26:37.974889 18746 net.cpp:157] Top shape: 16 256 56 56 (12845056)
I0319 09:26:37.974911 18746 net.cpp:165] Memory required for data: 1351944128
I0319 09:26:37.974923 18746 layer_factory.hpp:77] Creating layer res2c_branch2a
I0319 09:26:37.974943 18746 net.cpp:106] Creating Layer res2c_branch2a
I0319 09:26:37.974956 18746 net.cpp:454] res2c_branch2a <- res2b_res2b_relu_0_split_0
I0319 09:26:37.974972 18746 net.cpp:411] res2c_branch2a -> res2c_branch2a
I0319 09:26:37.975224 18746 net.cpp:150] Setting up res2c_branch2a
I0319 09:26:37.975246 18746 net.cpp:157] Top shape: 16 64 56 56 (3211264)
I0319 09:26:37.975257 18746 net.cpp:165] Memory required for data: 1364789184
I0319 09:26:37.975271 18746 layer_factory.hpp:77] Creating layer bn2c_branch2a
I0319 09:26:37.975286 18746 net.cpp:106] Creating Layer bn2c_branch2a
I0319 09:26:37.975317 18746 net.cpp:454] bn2c_branch2a <- res2c_branch2a
I0319 09:26:37.975342 18746 net.cpp:397] bn2c_branch2a -> res2c_branch2a (in-place)
I0319 09:26:37.975759 18746 net.cpp:150] Setting up bn2c_branch2a
I0319 09:26:37.975798 18746 net.cpp:157] Top shape: 16 64 56 56 (3211264)
I0319 09:26:37.975817 18746 net.cpp:165] Memory required for data: 1377634240
I0319 09:26:37.975847 18746 layer_factory.hpp:77] Creating layer scale2c_branch2a
I0319 09:26:37.975873 18746 net.cpp:106] Creating Layer scale2c_branch2a
I0319 09:26:37.975893 18746 net.cpp:454] scale2c_branch2a <- res2c_branch2a
I0319 09:26:37.975915 18746 net.cpp:397] scale2c_branch2a -> res2c_branch2a (in-place)
I0319 09:26:37.976030 18746 layer_factory.hpp:77] Creating layer scale2c_branch2a
I0319 09:26:37.976317 18746 net.cpp:150] Setting up scale2c_branch2a
I0319 09:26:37.976351 18746 net.cpp:157] Top shape: 16 64 56 56 (3211264)
I0319 09:26:37.976369 18746 net.cpp:165] Memory required for data: 1390479296
I0319 09:26:37.976395 18746 layer_factory.hpp:77] Creating layer res2c_branch2a_relu
I0319 09:26:37.976425 18746 net.cpp:106] Creating Layer res2c_branch2a_relu
I0319 09:26:37.976445 18746 net.cpp:454] res2c_branch2a_relu <- res2c_branch2a
I0319 09:26:37.976467 18746 net.cpp:397] res2c_branch2a_relu -> res2c_branch2a (in-place)
I0319 09:26:37.976493 18746 net.cpp:150] Setting up res2c_branch2a_relu
I0319 09:26:37.976516 18746 net.cpp:157] Top shape: 16 64 56 56 (3211264)
I0319 09:26:37.976532 18746 net.cpp:165] Memory required for data: 1403324352
I0319 09:26:37.976550 18746 layer_factory.hpp:77] Creating layer res2c_branch2b
I0319 09:26:37.976583 18746 net.cpp:106] Creating Layer res2c_branch2b
I0319 09:26:37.976604 18746 net.cpp:454] res2c_branch2b <- res2c_branch2a
I0319 09:26:37.976658 18746 net.cpp:411] res2c_branch2b -> res2c_branch2b
I0319 09:26:37.977109 18746 net.cpp:150] Setting up res2c_branch2b
I0319 09:26:37.977146 18746 net.cpp:157] Top shape: 16 64 56 56 (3211264)
I0319 09:26:37.977164 18746 net.cpp:165] Memory required for data: 1416169408
I0319 09:26:37.977187 18746 layer_factory.hpp:77] Creating layer bn2c_branch2b
I0319 09:26:37.977222 18746 net.cpp:106] Creating Layer bn2c_branch2b
I0319 09:26:37.977243 18746 net.cpp:454] bn2c_branch2b <- res2c_branch2b
I0319 09:26:37.977267 18746 net.cpp:397] bn2c_branch2b -> res2c_branch2b (in-place)
I0319 09:26:37.977672 18746 net.cpp:150] Setting up bn2c_branch2b
I0319 09:26:37.977706 18746 net.cpp:157] Top shape: 16 64 56 56 (3211264)
I0319 09:26:37.977725 18746 net.cpp:165] Memory required for data: 1429014464
I0319 09:26:37.977761 18746 layer_factory.hpp:77] Creating layer scale2c_branch2b
I0319 09:26:37.977787 18746 net.cpp:106] Creating Layer scale2c_branch2b
I0319 09:26:37.977805 18746 net.cpp:454] scale2c_branch2b <- res2c_branch2b
I0319 09:26:37.977828 18746 net.cpp:397] scale2c_branch2b -> res2c_branch2b (in-place)
I0319 09:26:37.977934 18746 layer_factory.hpp:77] Creating layer scale2c_branch2b
I0319 09:26:37.978214 18746 net.cpp:150] Setting up scale2c_branch2b
I0319 09:26:37.978247 18746 net.cpp:157] Top shape: 16 64 56 56 (3211264)
I0319 09:26:37.978266 18746 net.cpp:165] Memory required for data: 1441859520
I0319 09:26:37.978291 18746 layer_factory.hpp:77] Creating layer res2c_branch2b_relu
I0319 09:26:37.978328 18746 net.cpp:106] Creating Layer res2c_branch2b_relu
I0319 09:26:37.978368 18746 net.cpp:454] res2c_branch2b_relu <- res2c_branch2b
I0319 09:26:37.978399 18746 net.cpp:397] res2c_branch2b_relu -> res2c_branch2b (in-place)
I0319 09:26:37.978426 18746 net.cpp:150] Setting up res2c_branch2b_relu
I0319 09:26:37.978449 18746 net.cpp:157] Top shape: 16 64 56 56 (3211264)
I0319 09:26:37.978467 18746 net.cpp:165] Memory required for data: 1454704576
I0319 09:26:37.978485 18746 layer_factory.hpp:77] Creating layer res2c_branch2c
I0319 09:26:37.978510 18746 net.cpp:106] Creating Layer res2c_branch2c
I0319 09:26:37.978528 18746 net.cpp:454] res2c_branch2c <- res2c_branch2b
I0319 09:26:37.978561 18746 net.cpp:411] res2c_branch2c -> res2c_branch2c
I0319 09:26:37.978979 18746 net.cpp:150] Setting up res2c_branch2c
I0319 09:26:37.979015 18746 net.cpp:157] Top shape: 16 256 56 56 (12845056)
I0319 09:26:37.979033 18746 net.cpp:165] Memory required for data: 1506084800
I0319 09:26:37.979056 18746 layer_factory.hpp:77] Creating layer bn2c_branch2c
I0319 09:26:37.979085 18746 net.cpp:106] Creating Layer bn2c_branch2c
I0319 09:26:37.979106 18746 net.cpp:454] bn2c_branch2c <- res2c_branch2c
I0319 09:26:37.979130 18746 net.cpp:397] bn2c_branch2c -> res2c_branch2c (in-place)
I0319 09:26:37.979516 18746 net.cpp:150] Setting up bn2c_branch2c
I0319 09:26:37.979548 18746 net.cpp:157] Top shape: 16 256 56 56 (12845056)
I0319 09:26:37.979568 18746 net.cpp:165] Memory required for data: 1557465024
I0319 09:26:37.979624 18746 layer_factory.hpp:77] Creating layer scale2c_branch2c
I0319 09:26:37.979653 18746 net.cpp:106] Creating Layer scale2c_branch2c
I0319 09:26:37.979673 18746 net.cpp:454] scale2c_branch2c <- res2c_branch2c
I0319 09:26:37.979701 18746 net.cpp:397] scale2c_branch2c -> res2c_branch2c (in-place)
I0319 09:26:37.979811 18746 layer_factory.hpp:77] Creating layer scale2c_branch2c
I0319 09:26:37.980079 18746 net.cpp:150] Setting up scale2c_branch2c
I0319 09:26:37.980113 18746 net.cpp:157] Top shape: 16 256 56 56 (12845056)
I0319 09:26:37.980131 18746 net.cpp:165] Memory required for data: 1608845248
I0319 09:26:37.980157 18746 layer_factory.hpp:77] Creating layer res2c
I0319 09:26:37.980188 18746 net.cpp:106] Creating Layer res2c
I0319 09:26:37.980209 18746 net.cpp:454] res2c <- res2b_res2b_relu_0_split_1
I0319 09:26:37.980232 18746 net.cpp:454] res2c <- res2c_branch2c
I0319 09:26:37.980253 18746 net.cpp:411] res2c -> res2c
I0319 09:26:37.980324 18746 net.cpp:150] Setting up res2c
I0319 09:26:37.980355 18746 net.cpp:157] Top shape: 16 256 56 56 (12845056)
I0319 09:26:37.980372 18746 net.cpp:165] Memory required for data: 1660225472
I0319 09:26:37.980391 18746 layer_factory.hpp:77] Creating layer res2c_relu
I0319 09:26:37.980412 18746 net.cpp:106] Creating Layer res2c_relu
I0319 09:26:37.980432 18746 net.cpp:454] res2c_relu <- res2c
I0319 09:26:37.980453 18746 net.cpp:397] res2c_relu -> res2c (in-place)
I0319 09:26:37.980478 18746 net.cpp:150] Setting up res2c_relu
I0319 09:26:37.980499 18746 net.cpp:157] Top shape: 16 256 56 56 (12845056)
I0319 09:26:37.980516 18746 net.cpp:165] Memory required for data: 1711605696
I0319 09:26:37.980535 18746 layer_factory.hpp:77] Creating layer res2c_res2c_relu_0_split
I0319 09:26:37.980556 18746 net.cpp:106] Creating Layer res2c_res2c_relu_0_split
I0319 09:26:37.980576 18746 net.cpp:454] res2c_res2c_relu_0_split <- res2c
I0319 09:26:37.980597 18746 net.cpp:411] res2c_res2c_relu_0_split -> res2c_res2c_relu_0_split_0
I0319 09:26:37.980636 18746 net.cpp:411] res2c_res2c_relu_0_split -> res2c_res2c_relu_0_split_1
I0319 09:26:37.980736 18746 net.cpp:150] Setting up res2c_res2c_relu_0_split
I0319 09:26:37.980767 18746 net.cpp:157] Top shape: 16 256 56 56 (12845056)
I0319 09:26:37.980787 18746 net.cpp:157] Top shape: 16 256 56 56 (12845056)
I0319 09:26:37.980803 18746 net.cpp:165] Memory required for data: 1814366144
I0319 09:26:37.980821 18746 layer_factory.hpp:77] Creating layer res3a_branch1
I0319 09:26:37.980854 18746 net.cpp:106] Creating Layer res3a_branch1
I0319 09:26:37.980886 18746 net.cpp:454] res3a_branch1 <- res2c_res2c_relu_0_split_0
I0319 09:26:37.980931 18746 net.cpp:411] res3a_branch1 -> res3a_branch1
I0319 09:26:37.982619 18746 net.cpp:150] Setting up res3a_branch1
I0319 09:26:37.982671 18746 net.cpp:157] Top shape: 16 512 28 28 (6422528)
I0319 09:26:37.982692 18746 net.cpp:165] Memory required for data: 1840056256
I0319 09:26:37.982715 18746 layer_factory.hpp:77] Creating layer bn3a_branch1
I0319 09:26:37.982741 18746 net.cpp:106] Creating Layer bn3a_branch1
I0319 09:26:37.982761 18746 net.cpp:454] bn3a_branch1 <- res3a_branch1
I0319 09:26:37.982790 18746 net.cpp:397] bn3a_branch1 -> res3a_branch1 (in-place)
I0319 09:26:37.983208 18746 net.cpp:150] Setting up bn3a_branch1
I0319 09:26:37.983243 18746 net.cpp:157] Top shape: 16 512 28 28 (6422528)
I0319 09:26:37.983261 18746 net.cpp:165] Memory required for data: 1865746368
I0319 09:26:37.983292 18746 layer_factory.hpp:77] Creating layer scale3a_branch1
I0319 09:26:37.983319 18746 net.cpp:106] Creating Layer scale3a_branch1
I0319 09:26:37.983338 18746 net.cpp:454] scale3a_branch1 <- res3a_branch1
I0319 09:26:37.983361 18746 net.cpp:397] scale3a_branch1 -> res3a_branch1 (in-place)
I0319 09:26:37.983470 18746 layer_factory.hpp:77] Creating layer scale3a_branch1
I0319 09:26:37.983733 18746 net.cpp:150] Setting up scale3a_branch1
I0319 09:26:37.983767 18746 net.cpp:157] Top shape: 16 512 28 28 (6422528)
I0319 09:26:37.983785 18746 net.cpp:165] Memory required for data: 1891436480
I0319 09:26:37.983811 18746 layer_factory.hpp:77] Creating layer res3a_branch2a
I0319 09:26:37.983844 18746 net.cpp:106] Creating Layer res3a_branch2a
I0319 09:26:37.983867 18746 net.cpp:454] res3a_branch2a <- res2c_res2c_relu_0_split_1
I0319 09:26:37.983891 18746 net.cpp:411] res3a_branch2a -> res3a_branch2a
I0319 09:26:37.984336 18746 net.cpp:150] Setting up res3a_branch2a
I0319 09:26:37.984372 18746 net.cpp:157] Top shape: 16 128 28 28 (1605632)
I0319 09:26:37.984391 18746 net.cpp:165] Memory required for data: 1897859008
I0319 09:26:37.984414 18746 layer_factory.hpp:77] Creating layer bn3a_branch2a
I0319 09:26:37.984439 18746 net.cpp:106] Creating Layer bn3a_branch2a
I0319 09:26:37.984459 18746 net.cpp:454] bn3a_branch2a <- res3a_branch2a
I0319 09:26:37.984493 18746 net.cpp:397] bn3a_branch2a -> res3a_branch2a (in-place)
I0319 09:26:37.984906 18746 net.cpp:150] Setting up bn3a_branch2a
I0319 09:26:37.984943 18746 net.cpp:157] Top shape: 16 128 28 28 (1605632)
I0319 09:26:37.984962 18746 net.cpp:165] Memory required for data: 1904281536
I0319 09:26:37.985000 18746 layer_factory.hpp:77] Creating layer scale3a_branch2a
I0319 09:26:37.985025 18746 net.cpp:106] Creating Layer scale3a_branch2a
I0319 09:26:37.985045 18746 net.cpp:454] scale3a_branch2a <- res3a_branch2a
I0319 09:26:37.985069 18746 net.cpp:397] scale3a_branch2a -> res3a_branch2a (in-place)
I0319 09:26:37.985170 18746 layer_factory.hpp:77] Creating layer scale3a_branch2a
I0319 09:26:37.985431 18746 net.cpp:150] Setting up scale3a_branch2a
I0319 09:26:37.985465 18746 net.cpp:157] Top shape: 16 128 28 28 (1605632)
I0319 09:26:37.985483 18746 net.cpp:165] Memory required for data: 1910704064
I0319 09:26:37.985523 18746 layer_factory.hpp:77] Creating layer res3a_branch2a_relu
I0319 09:26:37.985548 18746 net.cpp:106] Creating Layer res3a_branch2a_relu
I0319 09:26:37.985568 18746 net.cpp:454] res3a_branch2a_relu <- res3a_branch2a
I0319 09:26:37.985595 18746 net.cpp:397] res3a_branch2a_relu -> res3a_branch2a (in-place)
I0319 09:26:37.985623 18746 net.cpp:150] Setting up res3a_branch2a_relu
I0319 09:26:37.985646 18746 net.cpp:157] Top shape: 16 128 28 28 (1605632)
I0319 09:26:37.985663 18746 net.cpp:165] Memory required for data: 1917126592
I0319 09:26:37.985682 18746 layer_factory.hpp:77] Creating layer res3a_branch2b
I0319 09:26:37.985707 18746 net.cpp:106] Creating Layer res3a_branch2b
I0319 09:26:37.985731 18746 net.cpp:454] res3a_branch2b <- res3a_branch2a
I0319 09:26:37.985760 18746 net.cpp:411] res3a_branch2b -> res3a_branch2b
I0319 09:26:37.987437 18746 net.cpp:150] Setting up res3a_branch2b
I0319 09:26:37.987493 18746 net.cpp:157] Top shape: 16 128 28 28 (1605632)
I0319 09:26:37.987532 18746 net.cpp:165] Memory required for data: 1923549120
I0319 09:26:37.987557 18746 layer_factory.hpp:77] Creating layer bn3a_branch2b
I0319 09:26:37.987583 18746 net.cpp:106] Creating Layer bn3a_branch2b
I0319 09:26:37.987603 18746 net.cpp:454] bn3a_branch2b <- res3a_branch2b
I0319 09:26:37.987627 18746 net.cpp:397] bn3a_branch2b -> res3a_branch2b (in-place)
I0319 09:26:37.988023 18746 net.cpp:150] Setting up bn3a_branch2b
I0319 09:26:37.988057 18746 net.cpp:157] Top shape: 16 128 28 28 (1605632)
I0319 09:26:37.988076 18746 net.cpp:165] Memory required for data: 1929971648
I0319 09:26:37.988106 18746 layer_factory.hpp:77] Creating layer scale3a_branch2b
I0319 09:26:37.988131 18746 net.cpp:106] Creating Layer scale3a_branch2b
I0319 09:26:37.988150 18746 net.cpp:454] scale3a_branch2b <- res3a_branch2b
I0319 09:26:37.988173 18746 net.cpp:397] scale3a_branch2b -> res3a_branch2b (in-place)
I0319 09:26:37.988281 18746 layer_factory.hpp:77] Creating layer scale3a_branch2b
I0319 09:26:37.988548 18746 net.cpp:150] Setting up scale3a_branch2b
I0319 09:26:37.988586 18746 net.cpp:157] Top shape: 16 128 28 28 (1605632)
I0319 09:26:37.988605 18746 net.cpp:165] Memory required for data: 1936394176
I0319 09:26:37.988656 18746 layer_factory.hpp:77] Creating layer res3a_branch2b_relu
I0319 09:26:37.988703 18746 net.cpp:106] Creating Layer res3a_branch2b_relu
I0319 09:26:37.988725 18746 net.cpp:454] res3a_branch2b_relu <- res3a_branch2b
I0319 09:26:37.988749 18746 net.cpp:397] res3a_branch2b_relu -> res3a_branch2b (in-place)
I0319 09:26:37.988775 18746 net.cpp:150] Setting up res3a_branch2b_relu
I0319 09:26:37.988796 18746 net.cpp:157] Top shape: 16 128 28 28 (1605632)
I0319 09:26:37.988813 18746 net.cpp:165] Memory required for data: 1942816704
I0319 09:26:37.988831 18746 layer_factory.hpp:77] Creating layer res3a_branch2c
I0319 09:26:37.988863 18746 net.cpp:106] Creating Layer res3a_branch2c
I0319 09:26:37.988883 18746 net.cpp:454] res3a_branch2c <- res3a_branch2b
I0319 09:26:37.988906 18746 net.cpp:411] res3a_branch2c -> res3a_branch2c
I0319 09:26:37.989431 18746 net.cpp:150] Setting up res3a_branch2c
I0319 09:26:37.989467 18746 net.cpp:157] Top shape: 16 512 28 28 (6422528)
I0319 09:26:37.989486 18746 net.cpp:165] Memory required for data: 1968506816
I0319 09:26:37.989508 18746 layer_factory.hpp:77] Creating layer bn3a_branch2c
I0319 09:26:37.989540 18746 net.cpp:106] Creating Layer bn3a_branch2c
I0319 09:26:37.989562 18746 net.cpp:454] bn3a_branch2c <- res3a_branch2c
I0319 09:26:37.989585 18746 net.cpp:397] bn3a_branch2c -> res3a_branch2c (in-place)
I0319 09:26:37.989974 18746 net.cpp:150] Setting up bn3a_branch2c
I0319 09:26:37.990011 18746 net.cpp:157] Top shape: 16 512 28 28 (6422528)
I0319 09:26:37.990031 18746 net.cpp:165] Memory required for data: 1994196928
I0319 09:26:37.990061 18746 layer_factory.hpp:77] Creating layer scale3a_branch2c
I0319 09:26:37.990090 18746 net.cpp:106] Creating Layer scale3a_branch2c
I0319 09:26:37.990111 18746 net.cpp:454] scale3a_branch2c <- res3a_branch2c
I0319 09:26:37.990134 18746 net.cpp:397] scale3a_branch2c -> res3a_branch2c (in-place)
I0319 09:26:37.990242 18746 layer_factory.hpp:77] Creating layer scale3a_branch2c
I0319 09:26:37.990497 18746 net.cpp:150] Setting up scale3a_branch2c
I0319 09:26:37.990530 18746 net.cpp:157] Top shape: 16 512 28 28 (6422528)
I0319 09:26:37.990548 18746 net.cpp:165] Memory required for data: 2019887040
I0319 09:26:37.990574 18746 layer_factory.hpp:77] Creating layer res3a
I0319 09:26:37.990598 18746 net.cpp:106] Creating Layer res3a
I0319 09:26:37.990617 18746 net.cpp:454] res3a <- res3a_branch1
I0319 09:26:37.990638 18746 net.cpp:454] res3a <- res3a_branch2c
I0319 09:26:37.990666 18746 net.cpp:411] res3a -> res3a
I0319 09:26:37.990749 18746 net.cpp:150] Setting up res3a
I0319 09:26:37.990782 18746 net.cpp:157] Top shape: 16 512 28 28 (6422528)
I0319 09:26:37.990799 18746 net.cpp:165] Memory required for data: 2045577152
I0319 09:26:37.990818 18746 layer_factory.hpp:77] Creating layer res3a_relu
I0319 09:26:37.990852 18746 net.cpp:106] Creating Layer res3a_relu
I0319 09:26:37.990890 18746 net.cpp:454] res3a_relu <- res3a
I0319 09:26:37.990919 18746 net.cpp:397] res3a_relu -> res3a (in-place)
I0319 09:26:37.990947 18746 net.cpp:150] Setting up res3a_relu
I0319 09:26:37.990969 18746 net.cpp:157] Top shape: 16 512 28 28 (6422528)
I0319 09:26:37.990986 18746 net.cpp:165] Memory required for data: 2071267264
I0319 09:26:37.991004 18746 layer_factory.hpp:77] Creating layer res3a_res3a_relu_0_split
I0319 09:26:37.991027 18746 net.cpp:106] Creating Layer res3a_res3a_relu_0_split
I0319 09:26:37.991045 18746 net.cpp:454] res3a_res3a_relu_0_split <- res3a
I0319 09:26:37.991067 18746 net.cpp:411] res3a_res3a_relu_0_split -> res3a_res3a_relu_0_split_0
I0319 09:26:37.991092 18746 net.cpp:411] res3a_res3a_relu_0_split -> res3a_res3a_relu_0_split_1
I0319 09:26:37.991186 18746 net.cpp:150] Setting up res3a_res3a_relu_0_split
I0319 09:26:37.991216 18746 net.cpp:157] Top shape: 16 512 28 28 (6422528)
I0319 09:26:37.991238 18746 net.cpp:157] Top shape: 16 512 28 28 (6422528)
I0319 09:26:37.991255 18746 net.cpp:165] Memory required for data: 2122647488
I0319 09:26:37.991273 18746 layer_factory.hpp:77] Creating layer res3b_branch2a
I0319 09:26:37.991299 18746 net.cpp:106] Creating Layer res3b_branch2a
I0319 09:26:37.991318 18746 net.cpp:454] res3b_branch2a <- res3a_res3a_relu_0_split_0
I0319 09:26:37.991343 18746 net.cpp:411] res3b_branch2a -> res3b_branch2a
I0319 09:26:37.992910 18746 net.cpp:150] Setting up res3b_branch2a
I0319 09:26:37.992954 18746 net.cpp:157] Top shape: 16 128 28 28 (1605632)
I0319 09:26:37.992974 18746 net.cpp:165] Memory required for data: 2129070016
I0319 09:26:37.993005 18746 layer_factory.hpp:77] Creating layer bn3b_branch2a
I0319 09:26:37.993031 18746 net.cpp:106] Creating Layer bn3b_branch2a
I0319 09:26:37.993050 18746 net.cpp:454] bn3b_branch2a <- res3b_branch2a
I0319 09:26:37.993073 18746 net.cpp:397] bn3b_branch2a -> res3b_branch2a (in-place)
I0319 09:26:37.993482 18746 net.cpp:150] Setting up bn3b_branch2a
I0319 09:26:37.993515 18746 net.cpp:157] Top shape: 16 128 28 28 (1605632)
I0319 09:26:37.993533 18746 net.cpp:165] Memory required for data: 2135492544
I0319 09:26:37.993563 18746 layer_factory.hpp:77] Creating layer scale3b_branch2a
I0319 09:26:37.993595 18746 net.cpp:106] Creating Layer scale3b_branch2a
I0319 09:26:37.993616 18746 net.cpp:454] scale3b_branch2a <- res3b_branch2a
I0319 09:26:37.993639 18746 net.cpp:397] scale3b_branch2a -> res3b_branch2a (in-place)
I0319 09:26:37.993744 18746 layer_factory.hpp:77] Creating layer scale3b_branch2a
I0319 09:26:37.994017 18746 net.cpp:150] Setting up scale3b_branch2a
I0319 09:26:37.994051 18746 net.cpp:157] Top shape: 16 128 28 28 (1605632)
I0319 09:26:37.994071 18746 net.cpp:165] Memory required for data: 2141915072
I0319 09:26:37.994096 18746 layer_factory.hpp:77] Creating layer res3b_branch2a_relu
I0319 09:26:37.994122 18746 net.cpp:106] Creating Layer res3b_branch2a_relu
I0319 09:26:37.994140 18746 net.cpp:454] res3b_branch2a_relu <- res3b_branch2a
I0319 09:26:37.994168 18746 net.cpp:397] res3b_branch2a_relu -> res3b_branch2a (in-place)
I0319 09:26:37.994194 18746 net.cpp:150] Setting up res3b_branch2a_relu
I0319 09:26:37.994217 18746 net.cpp:157] Top shape: 16 128 28 28 (1605632)
I0319 09:26:37.994238 18746 net.cpp:165] Memory required for data: 2148337600
I0319 09:26:37.994257 18746 layer_factory.hpp:77] Creating layer res3b_branch2b
I0319 09:26:37.994289 18746 net.cpp:106] Creating Layer res3b_branch2b
I0319 09:26:37.994310 18746 net.cpp:454] res3b_branch2b <- res3b_branch2a
I0319 09:26:37.994333 18746 net.cpp:411] res3b_branch2b -> res3b_branch2b
I0319 09:26:37.995991 18746 net.cpp:150] Setting up res3b_branch2b
I0319 09:26:37.996034 18746 net.cpp:157] Top shape: 16 128 28 28 (1605632)
I0319 09:26:37.996053 18746 net.cpp:165] Memory required for data: 2154760128
I0319 09:26:37.996078 18746 layer_factory.hpp:77] Creating layer bn3b_branch2b
I0319 09:26:37.996109 18746 net.cpp:106] Creating Layer bn3b_branch2b
I0319 09:26:37.996141 18746 net.cpp:454] bn3b_branch2b <- res3b_branch2b
I0319 09:26:37.996186 18746 net.cpp:397] bn3b_branch2b -> res3b_branch2b (in-place)
I0319 09:26:37.996597 18746 net.cpp:150] Setting up bn3b_branch2b
I0319 09:26:37.996646 18746 net.cpp:157] Top shape: 16 128 28 28 (1605632)
I0319 09:26:37.996666 18746 net.cpp:165] Memory required for data: 2161182656
I0319 09:26:37.996696 18746 layer_factory.hpp:77] Creating layer scale3b_branch2b
I0319 09:26:37.996727 18746 net.cpp:106] Creating Layer scale3b_branch2b
I0319 09:26:37.996748 18746 net.cpp:454] scale3b_branch2b <- res3b_branch2b
I0319 09:26:37.996770 18746 net.cpp:397] scale3b_branch2b -> res3b_branch2b (in-place)
I0319 09:26:37.996894 18746 layer_factory.hpp:77] Creating layer scale3b_branch2b
I0319 09:26:37.997181 18746 net.cpp:150] Setting up scale3b_branch2b
I0319 09:26:37.997215 18746 net.cpp:157] Top shape: 16 128 28 28 (1605632)
I0319 09:26:37.997233 18746 net.cpp:165] Memory required for data: 2167605184
I0319 09:26:37.997258 18746 layer_factory.hpp:77] Creating layer res3b_branch2b_relu
I0319 09:26:37.997282 18746 net.cpp:106] Creating Layer res3b_branch2b_relu
I0319 09:26:37.997301 18746 net.cpp:454] res3b_branch2b_relu <- res3b_branch2b
I0319 09:26:37.997323 18746 net.cpp:397] res3b_branch2b_relu -> res3b_branch2b (in-place)
I0319 09:26:37.997347 18746 net.cpp:150] Setting up res3b_branch2b_relu
I0319 09:26:37.997370 18746 net.cpp:157] Top shape: 16 128 28 28 (1605632)
I0319 09:26:37.997387 18746 net.cpp:165] Memory required for data: 2174027712
I0319 09:26:37.997406 18746 layer_factory.hpp:77] Creating layer res3b_branch2c
I0319 09:26:37.997437 18746 net.cpp:106] Creating Layer res3b_branch2c
I0319 09:26:37.997457 18746 net.cpp:454] res3b_branch2c <- res3b_branch2b
I0319 09:26:37.997488 18746 net.cpp:411] res3b_branch2c -> res3b_branch2c
I0319 09:26:37.997982 18746 net.cpp:150] Setting up res3b_branch2c
I0319 09:26:37.998018 18746 net.cpp:157] Top shape: 16 512 28 28 (6422528)
I0319 09:26:37.998035 18746 net.cpp:165] Memory required for data: 2199717824
I0319 09:26:37.998059 18746 layer_factory.hpp:77] Creating layer bn3b_branch2c
I0319 09:26:37.998082 18746 net.cpp:106] Creating Layer bn3b_branch2c
I0319 09:26:37.998101 18746 net.cpp:454] bn3b_branch2c <- res3b_branch2c
I0319 09:26:37.998122 18746 net.cpp:397] bn3b_branch2c -> res3b_branch2c (in-place)
I0319 09:26:37.999686 18746 net.cpp:150] Setting up bn3b_branch2c
I0319 09:26:37.999721 18746 net.cpp:157] Top shape: 16 512 28 28 (6422528)
I0319 09:26:37.999733 18746 net.cpp:165] Memory required for data: 2225407936
I0319 09:26:37.999753 18746 layer_factory.hpp:77] Creating layer scale3b_branch2c
I0319 09:26:37.999781 18746 net.cpp:106] Creating Layer scale3b_branch2c
I0319 09:26:37.999796 18746 net.cpp:454] scale3b_branch2c <- res3b_branch2c
I0319 09:26:37.999811 18746 net.cpp:397] scale3b_branch2c -> res3b_branch2c (in-place)
I0319 09:26:37.999884 18746 layer_factory.hpp:77] Creating layer scale3b_branch2c
I0319 09:26:38.000053 18746 net.cpp:150] Setting up scale3b_branch2c
I0319 09:26:38.000074 18746 net.cpp:157] Top shape: 16 512 28 28 (6422528)
I0319 09:26:38.000084 18746 net.cpp:165] Memory required for data: 2251098048
I0319 09:26:38.000100 18746 layer_factory.hpp:77] Creating layer res3b
I0319 09:26:38.000118 18746 net.cpp:106] Creating Layer res3b
I0319 09:26:38.000131 18746 net.cpp:454] res3b <- res3a_res3a_relu_0_split_1
I0319 09:26:38.000144 18746 net.cpp:454] res3b <- res3b_branch2c
I0319 09:26:38.000159 18746 net.cpp:411] res3b -> res3b
I0319 09:26:38.000203 18746 net.cpp:150] Setting up res3b
I0319 09:26:38.000222 18746 net.cpp:157] Top shape: 16 512 28 28 (6422528)
I0319 09:26:38.000233 18746 net.cpp:165] Memory required for data: 2276788160
I0319 09:26:38.000243 18746 layer_factory.hpp:77] Creating layer res3b_relu
I0319 09:26:38.000257 18746 net.cpp:106] Creating Layer res3b_relu
I0319 09:26:38.000269 18746 net.cpp:454] res3b_relu <- res3b
I0319 09:26:38.000283 18746 net.cpp:397] res3b_relu -> res3b (in-place)
I0319 09:26:38.000298 18746 net.cpp:150] Setting up res3b_relu
I0319 09:26:38.000321 18746 net.cpp:157] Top shape: 16 512 28 28 (6422528)
I0319 09:26:38.000345 18746 net.cpp:165] Memory required for data: 2302478272
I0319 09:26:38.000357 18746 layer_factory.hpp:77] Creating layer res3b_res3b_relu_0_split
I0319 09:26:38.000375 18746 net.cpp:106] Creating Layer res3b_res3b_relu_0_split
I0319 09:26:38.000387 18746 net.cpp:454] res3b_res3b_relu_0_split <- res3b
I0319 09:26:38.000416 18746 net.cpp:411] res3b_res3b_relu_0_split -> res3b_res3b_relu_0_split_0
I0319 09:26:38.000445 18746 net.cpp:411] res3b_res3b_relu_0_split -> res3b_res3b_relu_0_split_1
I0319 09:26:38.000548 18746 net.cpp:150] Setting up res3b_res3b_relu_0_split
I0319 09:26:38.000579 18746 net.cpp:157] Top shape: 16 512 28 28 (6422528)
I0319 09:26:38.000600 18746 net.cpp:157] Top shape: 16 512 28 28 (6422528)
I0319 09:26:38.000639 18746 net.cpp:165] Memory required for data: 2353858496
I0319 09:26:38.000663 18746 layer_factory.hpp:77] Creating layer res3c_branch2a
I0319 09:26:38.000690 18746 net.cpp:106] Creating Layer res3c_branch2a
I0319 09:26:38.000710 18746 net.cpp:454] res3c_branch2a <- res3b_res3b_relu_0_split_0
I0319 09:26:38.000735 18746 net.cpp:411] res3c_branch2a -> res3c_branch2a
I0319 09:26:38.001227 18746 net.cpp:150] Setting up res3c_branch2a
I0319 09:26:38.001265 18746 net.cpp:157] Top shape: 16 128 28 28 (1605632)
I0319 09:26:38.001282 18746 net.cpp:165] Memory required for data: 2360281024
I0319 09:26:38.001305 18746 layer_factory.hpp:77] Creating layer bn3c_branch2a
I0319 09:26:38.001330 18746 net.cpp:106] Creating Layer bn3c_branch2a
I0319 09:26:38.001350 18746 net.cpp:454] bn3c_branch2a <- res3c_branch2a
I0319 09:26:38.001379 18746 net.cpp:397] bn3c_branch2a -> res3c_branch2a (in-place)
I0319 09:26:38.001785 18746 net.cpp:150] Setting up bn3c_branch2a
I0319 09:26:38.001818 18746 net.cpp:157] Top shape: 16 128 28 28 (1605632)
I0319 09:26:38.001837 18746 net.cpp:165] Memory required for data: 2366703552
I0319 09:26:38.001871 18746 layer_factory.hpp:77] Creating layer scale3c_branch2a
I0319 09:26:38.001898 18746 net.cpp:106] Creating Layer scale3c_branch2a
I0319 09:26:38.001916 18746 net.cpp:454] scale3c_branch2a <- res3c_branch2a
I0319 09:26:38.001940 18746 net.cpp:397] scale3c_branch2a -> res3c_branch2a (in-place)
I0319 09:26:38.002048 18746 layer_factory.hpp:77] Creating layer scale3c_branch2a
I0319 09:26:38.002315 18746 net.cpp:150] Setting up scale3c_branch2a
I0319 09:26:38.002347 18746 net.cpp:157] Top shape: 16 128 28 28 (1605632)
I0319 09:26:38.002365 18746 net.cpp:165] Memory required for data: 2373126080
I0319 09:26:38.002391 18746 layer_factory.hpp:77] Creating layer res3c_branch2a_relu
I0319 09:26:38.002414 18746 net.cpp:106] Creating Layer res3c_branch2a_relu
I0319 09:26:38.002434 18746 net.cpp:454] res3c_branch2a_relu <- res3c_branch2a
I0319 09:26:38.002460 18746 net.cpp:397] res3c_branch2a_relu -> res3c_branch2a (in-place)
I0319 09:26:38.002487 18746 net.cpp:150] Setting up res3c_branch2a_relu
I0319 09:26:38.002509 18746 net.cpp:157] Top shape: 16 128 28 28 (1605632)
I0319 09:26:38.002526 18746 net.cpp:165] Memory required for data: 2379548608
I0319 09:26:38.002544 18746 layer_factory.hpp:77] Creating layer res3c_branch2b
I0319 09:26:38.002571 18746 net.cpp:106] Creating Layer res3c_branch2b
I0319 09:26:38.002590 18746 net.cpp:454] res3c_branch2b <- res3c_branch2a
I0319 09:26:38.002619 18746 net.cpp:411] res3c_branch2b -> res3c_branch2b
I0319 09:26:38.004331 18746 net.cpp:150] Setting up res3c_branch2b
I0319 09:26:38.004375 18746 net.cpp:157] Top shape: 16 128 28 28 (1605632)
I0319 09:26:38.004395 18746 net.cpp:165] Memory required for data: 2385971136
I0319 09:26:38.004418 18746 layer_factory.hpp:77] Creating layer bn3c_branch2b
I0319 09:26:38.004444 18746 net.cpp:106] Creating Layer bn3c_branch2b
I0319 09:26:38.004464 18746 net.cpp:454] bn3c_branch2b <- res3c_branch2b
I0319 09:26:38.004487 18746 net.cpp:397] bn3c_branch2b -> res3c_branch2b (in-place)
I0319 09:26:38.004938 18746 net.cpp:150] Setting up bn3c_branch2b
I0319 09:26:38.004976 18746 net.cpp:157] Top shape: 16 128 28 28 (1605632)
I0319 09:26:38.005017 18746 net.cpp:165] Memory required for data: 2392393664
I0319 09:26:38.005066 18746 layer_factory.hpp:77] Creating layer scale3c_branch2b
I0319 09:26:38.005095 18746 net.cpp:106] Creating Layer scale3c_branch2b
I0319 09:26:38.005115 18746 net.cpp:454] scale3c_branch2b <- res3c_branch2b
I0319 09:26:38.005136 18746 net.cpp:397] scale3c_branch2b -> res3c_branch2b (in-place)
I0319 09:26:38.005249 18746 layer_factory.hpp:77] Creating layer scale3c_branch2b
I0319 09:26:38.005517 18746 net.cpp:150] Setting up scale3c_branch2b
I0319 09:26:38.005550 18746 net.cpp:157] Top shape: 16 128 28 28 (1605632)
I0319 09:26:38.005569 18746 net.cpp:165] Memory required for data: 2398816192
I0319 09:26:38.005594 18746 layer_factory.hpp:77] Creating layer res3c_branch2b_relu
I0319 09:26:38.005623 18746 net.cpp:106] Creating Layer res3c_branch2b_relu
I0319 09:26:38.005645 18746 net.cpp:454] res3c_branch2b_relu <- res3c_branch2b
I0319 09:26:38.005666 18746 net.cpp:397] res3c_branch2b_relu -> res3c_branch2b (in-place)
I0319 09:26:38.005692 18746 net.cpp:150] Setting up res3c_branch2b_relu
I0319 09:26:38.005714 18746 net.cpp:157] Top shape: 16 128 28 28 (1605632)
I0319 09:26:38.005733 18746 net.cpp:165] Memory required for data: 2405238720
I0319 09:26:38.005749 18746 layer_factory.hpp:77] Creating layer res3c_branch2c
I0319 09:26:38.005781 18746 net.cpp:106] Creating Layer res3c_branch2c
I0319 09:26:38.005801 18746 net.cpp:454] res3c_branch2c <- res3c_branch2b
I0319 09:26:38.005825 18746 net.cpp:411] res3c_branch2c -> res3c_branch2c
I0319 09:26:38.006319 18746 net.cpp:150] Setting up res3c_branch2c
I0319 09:26:38.006356 18746 net.cpp:157] Top shape: 16 512 28 28 (6422528)
I0319 09:26:38.006374 18746 net.cpp:165] Memory required for data: 2430928832
I0319 09:26:38.006397 18746 layer_factory.hpp:77] Creating layer bn3c_branch2c
I0319 09:26:38.006422 18746 net.cpp:106] Creating Layer bn3c_branch2c
I0319 09:26:38.006440 18746 net.cpp:454] bn3c_branch2c <- res3c_branch2c
I0319 09:26:38.006469 18746 net.cpp:397] bn3c_branch2c -> res3c_branch2c (in-place)
I0319 09:26:38.006881 18746 net.cpp:150] Setting up bn3c_branch2c
I0319 09:26:38.006916 18746 net.cpp:157] Top shape: 16 512 28 28 (6422528)
I0319 09:26:38.006933 18746 net.cpp:165] Memory required for data: 2456618944
I0319 09:26:38.006963 18746 layer_factory.hpp:77] Creating layer scale3c_branch2c
I0319 09:26:38.006990 18746 net.cpp:106] Creating Layer scale3c_branch2c
I0319 09:26:38.007009 18746 net.cpp:454] scale3c_branch2c <- res3c_branch2c
I0319 09:26:38.007031 18746 net.cpp:397] scale3c_branch2c -> res3c_branch2c (in-place)
I0319 09:26:38.007143 18746 layer_factory.hpp:77] Creating layer scale3c_branch2c
I0319 09:26:38.007411 18746 net.cpp:150] Setting up scale3c_branch2c
I0319 09:26:38.007446 18746 net.cpp:157] Top shape: 16 512 28 28 (6422528)
I0319 09:26:38.007463 18746 net.cpp:165] Memory required for data: 2482309056
I0319 09:26:38.007489 18746 layer_factory.hpp:77] Creating layer res3c
I0319 09:26:38.007517 18746 net.cpp:106] Creating Layer res3c
I0319 09:26:38.007537 18746 net.cpp:454] res3c <- res3b_res3b_relu_0_split_1
I0319 09:26:38.007558 18746 net.cpp:454] res3c <- res3c_branch2c
I0319 09:26:38.007586 18746 net.cpp:411] res3c -> res3c
I0319 09:26:38.007655 18746 net.cpp:150] Setting up res3c
I0319 09:26:38.007684 18746 net.cpp:157] Top shape: 16 512 28 28 (6422528)
I0319 09:26:38.007702 18746 net.cpp:165] Memory required for data: 2507999168
I0319 09:26:38.007720 18746 layer_factory.hpp:77] Creating layer res3c_relu
I0319 09:26:38.007748 18746 net.cpp:106] Creating Layer res3c_relu
I0319 09:26:38.007768 18746 net.cpp:454] res3c_relu <- res3c
I0319 09:26:38.007791 18746 net.cpp:397] res3c_relu -> res3c (in-place)
I0319 09:26:38.007817 18746 net.cpp:150] Setting up res3c_relu
I0319 09:26:38.007839 18746 net.cpp:157] Top shape: 16 512 28 28 (6422528)
I0319 09:26:38.007856 18746 net.cpp:165] Memory required for data: 2533689280
I0319 09:26:38.007874 18746 layer_factory.hpp:77] Creating layer res3c_res3c_relu_0_split
I0319 09:26:38.007895 18746 net.cpp:106] Creating Layer res3c_res3c_relu_0_split
I0319 09:26:38.007927 18746 net.cpp:454] res3c_res3c_relu_0_split <- res3c
I0319 09:26:38.007972 18746 net.cpp:411] res3c_res3c_relu_0_split -> res3c_res3c_relu_0_split_0
I0319 09:26:38.008000 18746 net.cpp:411] res3c_res3c_relu_0_split -> res3c_res3c_relu_0_split_1
I0319 09:26:38.008095 18746 net.cpp:150] Setting up res3c_res3c_relu_0_split
I0319 09:26:38.008126 18746 net.cpp:157] Top shape: 16 512 28 28 (6422528)
I0319 09:26:38.008147 18746 net.cpp:157] Top shape: 16 512 28 28 (6422528)
I0319 09:26:38.008163 18746 net.cpp:165] Memory required for data: 2585069504
I0319 09:26:38.008183 18746 layer_factory.hpp:77] Creating layer res3d_branch2a
I0319 09:26:38.008208 18746 net.cpp:106] Creating Layer res3d_branch2a
I0319 09:26:38.008226 18746 net.cpp:454] res3d_branch2a <- res3c_res3c_relu_0_split_0
I0319 09:26:38.008255 18746 net.cpp:411] res3d_branch2a -> res3d_branch2a
I0319 09:26:38.009866 18746 net.cpp:150] Setting up res3d_branch2a
I0319 09:26:38.009912 18746 net.cpp:157] Top shape: 16 128 28 28 (1605632)
I0319 09:26:38.009930 18746 net.cpp:165] Memory required for data: 2591492032
I0319 09:26:38.009955 18746 layer_factory.hpp:77] Creating layer bn3d_branch2a
I0319 09:26:38.009980 18746 net.cpp:106] Creating Layer bn3d_branch2a
I0319 09:26:38.010000 18746 net.cpp:454] bn3d_branch2a <- res3d_branch2a
I0319 09:26:38.010023 18746 net.cpp:397] bn3d_branch2a -> res3d_branch2a (in-place)
I0319 09:26:38.010447 18746 net.cpp:150] Setting up bn3d_branch2a
I0319 09:26:38.010481 18746 net.cpp:157] Top shape: 16 128 28 28 (1605632)
I0319 09:26:38.010500 18746 net.cpp:165] Memory required for data: 2597914560
I0319 09:26:38.010581 18746 layer_factory.hpp:77] Creating layer scale3d_branch2a
I0319 09:26:38.010612 18746 net.cpp:106] Creating Layer scale3d_branch2a
I0319 09:26:38.010632 18746 net.cpp:454] scale3d_branch2a <- res3d_branch2a
I0319 09:26:38.010655 18746 net.cpp:397] scale3d_branch2a -> res3d_branch2a (in-place)
I0319 09:26:38.010771 18746 layer_factory.hpp:77] Creating layer scale3d_branch2a
I0319 09:26:38.011039 18746 net.cpp:150] Setting up scale3d_branch2a
I0319 09:26:38.011072 18746 net.cpp:157] Top shape: 16 128 28 28 (1605632)
I0319 09:26:38.011090 18746 net.cpp:165] Memory required for data: 2604337088
I0319 09:26:38.011116 18746 layer_factory.hpp:77] Creating layer res3d_branch2a_relu
I0319 09:26:38.011140 18746 net.cpp:106] Creating Layer res3d_branch2a_relu
I0319 09:26:38.011159 18746 net.cpp:454] res3d_branch2a_relu <- res3d_branch2a
I0319 09:26:38.011186 18746 net.cpp:397] res3d_branch2a_relu -> res3d_branch2a (in-place)
I0319 09:26:38.011214 18746 net.cpp:150] Setting up res3d_branch2a_relu
I0319 09:26:38.011235 18746 net.cpp:157] Top shape: 16 128 28 28 (1605632)
I0319 09:26:38.011252 18746 net.cpp:165] Memory required for data: 2610759616
I0319 09:26:38.011270 18746 layer_factory.hpp:77] Creating layer res3d_branch2b
I0319 09:26:38.011297 18746 net.cpp:106] Creating Layer res3d_branch2b
I0319 09:26:38.011317 18746 net.cpp:454] res3d_branch2b <- res3d_branch2a
I0319 09:26:38.011339 18746 net.cpp:411] res3d_branch2b -> res3d_branch2b
I0319 09:26:38.013049 18746 net.cpp:150] Setting up res3d_branch2b
I0319 09:26:38.013093 18746 net.cpp:157] Top shape: 16 128 28 28 (1605632)
I0319 09:26:38.013113 18746 net.cpp:165] Memory required for data: 2617182144
I0319 09:26:38.013136 18746 layer_factory.hpp:77] Creating layer bn3d_branch2b
I0319 09:26:38.013171 18746 net.cpp:106] Creating Layer bn3d_branch2b
I0319 09:26:38.013193 18746 net.cpp:454] bn3d_branch2b <- res3d_branch2b
I0319 09:26:38.013216 18746 net.cpp:397] bn3d_branch2b -> res3d_branch2b (in-place)
I0319 09:26:38.013635 18746 net.cpp:150] Setting up bn3d_branch2b
I0319 09:26:38.013669 18746 net.cpp:157] Top shape: 16 128 28 28 (1605632)
I0319 09:26:38.013689 18746 net.cpp:165] Memory required for data: 2623604672
I0319 09:26:38.013717 18746 layer_factory.hpp:77] Creating layer scale3d_branch2b
I0319 09:26:38.013749 18746 net.cpp:106] Creating Layer scale3d_branch2b
I0319 09:26:38.013770 18746 net.cpp:454] scale3d_branch2b <- res3d_branch2b
I0319 09:26:38.013809 18746 net.cpp:397] scale3d_branch2b -> res3d_branch2b (in-place)
I0319 09:26:38.013938 18746 layer_factory.hpp:77] Creating layer scale3d_branch2b
I0319 09:26:38.014216 18746 net.cpp:150] Setting up scale3d_branch2b
I0319 09:26:38.014250 18746 net.cpp:157] Top shape: 16 128 28 28 (1605632)
I0319 09:26:38.014267 18746 net.cpp:165] Memory required for data: 2630027200
I0319 09:26:38.014292 18746 layer_factory.hpp:77] Creating layer res3d_branch2b_relu
I0319 09:26:38.014317 18746 net.cpp:106] Creating Layer res3d_branch2b_relu
I0319 09:26:38.014351 18746 net.cpp:454] res3d_branch2b_relu <- res3d_branch2b
I0319 09:26:38.014374 18746 net.cpp:397] res3d_branch2b_relu -> res3d_branch2b (in-place)
I0319 09:26:38.014405 18746 net.cpp:150] Setting up res3d_branch2b_relu
I0319 09:26:38.014427 18746 net.cpp:157] Top shape: 16 128 28 28 (1605632)
I0319 09:26:38.014446 18746 net.cpp:165] Memory required for data: 2636449728
I0319 09:26:38.014462 18746 layer_factory.hpp:77] Creating layer res3d_branch2c
I0319 09:26:38.014523 18746 net.cpp:106] Creating Layer res3d_branch2c
I0319 09:26:38.014545 18746 net.cpp:454] res3d_branch2c <- res3d_branch2b
I0319 09:26:38.014575 18746 net.cpp:411] res3d_branch2c -> res3d_branch2c
I0319 09:26:38.015085 18746 net.cpp:150] Setting up res3d_branch2c
I0319 09:26:38.015123 18746 net.cpp:157] Top shape: 16 512 28 28 (6422528)
I0319 09:26:38.015141 18746 net.cpp:165] Memory required for data: 2662139840
I0319 09:26:38.015164 18746 layer_factory.hpp:77] Creating layer bn3d_branch2c
I0319 09:26:38.015188 18746 net.cpp:106] Creating Layer bn3d_branch2c
I0319 09:26:38.015208 18746 net.cpp:454] bn3d_branch2c <- res3d_branch2c
I0319 09:26:38.015230 18746 net.cpp:397] bn3d_branch2c -> res3d_branch2c (in-place)
I0319 09:26:38.015650 18746 net.cpp:150] Setting up bn3d_branch2c
I0319 09:26:38.015682 18746 net.cpp:157] Top shape: 16 512 28 28 (6422528)
I0319 09:26:38.015702 18746 net.cpp:165] Memory required for data: 2687829952
I0319 09:26:38.015732 18746 layer_factory.hpp:77] Creating layer scale3d_branch2c
I0319 09:26:38.015763 18746 net.cpp:106] Creating Layer scale3d_branch2c
I0319 09:26:38.015784 18746 net.cpp:454] scale3d_branch2c <- res3d_branch2c
I0319 09:26:38.015806 18746 net.cpp:397] scale3d_branch2c -> res3d_branch2c (in-place)
I0319 09:26:38.015923 18746 layer_factory.hpp:77] Creating layer scale3d_branch2c
I0319 09:26:38.016201 18746 net.cpp:150] Setting up scale3d_branch2c
I0319 09:26:38.016234 18746 net.cpp:157] Top shape: 16 512 28 28 (6422528)
I0319 09:26:38.016252 18746 net.cpp:165] Memory required for data: 2713520064
I0319 09:26:38.016278 18746 layer_factory.hpp:77] Creating layer res3d
I0319 09:26:38.016315 18746 net.cpp:106] Creating Layer res3d
I0319 09:26:38.016336 18746 net.cpp:454] res3d <- res3c_res3c_relu_0_split_1
I0319 09:26:38.016357 18746 net.cpp:454] res3d <- res3d_branch2c
I0319 09:26:38.016381 18746 net.cpp:411] res3d -> res3d
I0319 09:26:38.016455 18746 net.cpp:150] Setting up res3d
I0319 09:26:38.016485 18746 net.cpp:157] Top shape: 16 512 28 28 (6422528)
I0319 09:26:38.016504 18746 net.cpp:165] Memory required for data: 2739210176
I0319 09:26:38.016521 18746 layer_factory.hpp:77] Creating layer res3d_relu
I0319 09:26:38.016544 18746 net.cpp:106] Creating Layer res3d_relu
I0319 09:26:38.016563 18746 net.cpp:454] res3d_relu <- res3d
I0319 09:26:38.016584 18746 net.cpp:397] res3d_relu -> res3d (in-place)
I0319 09:26:38.016609 18746 net.cpp:150] Setting up res3d_relu
I0319 09:26:38.016649 18746 net.cpp:157] Top shape: 16 512 28 28 (6422528)
I0319 09:26:38.016669 18746 net.cpp:165] Memory required for data: 2764900288
I0319 09:26:38.016686 18746 layer_factory.hpp:77] Creating layer res3d_res3d_relu_0_split
I0319 09:26:38.016716 18746 net.cpp:106] Creating Layer res3d_res3d_relu_0_split
I0319 09:26:38.016736 18746 net.cpp:454] res3d_res3d_relu_0_split <- res3d
I0319 09:26:38.016759 18746 net.cpp:411] res3d_res3d_relu_0_split -> res3d_res3d_relu_0_split_0
I0319 09:26:38.016785 18746 net.cpp:411] res3d_res3d_relu_0_split -> res3d_res3d_relu_0_split_1
I0319 09:26:38.016824 18746 net.cpp:411] res3d_res3d_relu_0_split -> res3d_res3d_relu_0_split_2
I0319 09:26:38.016963 18746 net.cpp:150] Setting up res3d_res3d_relu_0_split
I0319 09:26:38.016995 18746 net.cpp:157] Top shape: 16 512 28 28 (6422528)
I0319 09:26:38.017016 18746 net.cpp:157] Top shape: 16 512 28 28 (6422528)
I0319 09:26:38.017036 18746 net.cpp:157] Top shape: 16 512 28 28 (6422528)
I0319 09:26:38.017053 18746 net.cpp:165] Memory required for data: 2841970624
I0319 09:26:38.017071 18746 layer_factory.hpp:77] Creating layer res4a_branch1
I0319 09:26:38.017103 18746 net.cpp:106] Creating Layer res4a_branch1
I0319 09:26:38.017124 18746 net.cpp:454] res4a_branch1 <- res3d_res3d_relu_0_split_0
I0319 09:26:38.017148 18746 net.cpp:411] res4a_branch1 -> res4a_branch1
I0319 09:26:38.020203 18746 net.cpp:150] Setting up res4a_branch1
I0319 09:26:38.020252 18746 net.cpp:157] Top shape: 16 1024 14 14 (3211264)
I0319 09:26:38.020272 18746 net.cpp:165] Memory required for data: 2854815680
I0319 09:26:38.020297 18746 layer_factory.hpp:77] Creating layer bn4a_branch1
I0319 09:26:38.020323 18746 net.cpp:106] Creating Layer bn4a_branch1
I0319 09:26:38.020342 18746 net.cpp:454] bn4a_branch1 <- res4a_branch1
I0319 09:26:38.020371 18746 net.cpp:397] bn4a_branch1 -> res4a_branch1 (in-place)
I0319 09:26:38.020851 18746 net.cpp:150] Setting up bn4a_branch1
I0319 09:26:38.020889 18746 net.cpp:157] Top shape: 16 1024 14 14 (3211264)
I0319 09:26:38.020907 18746 net.cpp:165] Memory required for data: 2867660736
I0319 09:26:38.020938 18746 layer_factory.hpp:77] Creating layer scale4a_branch1
I0319 09:26:38.020964 18746 net.cpp:106] Creating Layer scale4a_branch1
I0319 09:26:38.020983 18746 net.cpp:454] scale4a_branch1 <- res4a_branch1
I0319 09:26:38.021013 18746 net.cpp:397] scale4a_branch1 -> res4a_branch1 (in-place)
I0319 09:26:38.021114 18746 layer_factory.hpp:77] Creating layer scale4a_branch1
I0319 09:26:38.021385 18746 net.cpp:150] Setting up scale4a_branch1
I0319 09:26:38.021419 18746 net.cpp:157] Top shape: 16 1024 14 14 (3211264)
I0319 09:26:38.021436 18746 net.cpp:165] Memory required for data: 2880505792
I0319 09:26:38.021462 18746 layer_factory.hpp:77] Creating layer res4a_branch2a
I0319 09:26:38.021497 18746 net.cpp:106] Creating Layer res4a_branch2a
I0319 09:26:38.021519 18746 net.cpp:454] res4a_branch2a <- res3d_res3d_relu_0_split_1
I0319 09:26:38.021548 18746 net.cpp:411] res4a_branch2a -> res4a_branch2a
I0319 09:26:38.022352 18746 net.cpp:150] Setting up res4a_branch2a
I0319 09:26:38.022389 18746 net.cpp:157] Top shape: 16 256 14 14 (802816)
I0319 09:26:38.022408 18746 net.cpp:165] Memory required for data: 2883717056
I0319 09:26:38.022430 18746 layer_factory.hpp:77] Creating layer bn4a_branch2a
I0319 09:26:38.022455 18746 net.cpp:106] Creating Layer bn4a_branch2a
I0319 09:26:38.022475 18746 net.cpp:454] bn4a_branch2a <- res4a_branch2a
I0319 09:26:38.022505 18746 net.cpp:397] bn4a_branch2a -> res4a_branch2a (in-place)
I0319 09:26:38.022907 18746 net.cpp:150] Setting up bn4a_branch2a
I0319 09:26:38.022939 18746 net.cpp:157] Top shape: 16 256 14 14 (802816)
I0319 09:26:38.022958 18746 net.cpp:165] Memory required for data: 2886928320
I0319 09:26:38.022986 18746 layer_factory.hpp:77] Creating layer scale4a_branch2a
I0319 09:26:38.023012 18746 net.cpp:106] Creating Layer scale4a_branch2a
I0319 09:26:38.023031 18746 net.cpp:454] scale4a_branch2a <- res4a_branch2a
I0319 09:26:38.023053 18746 net.cpp:397] scale4a_branch2a -> res4a_branch2a (in-place)
I0319 09:26:38.023162 18746 layer_factory.hpp:77] Creating layer scale4a_branch2a
I0319 09:26:38.023422 18746 net.cpp:150] Setting up scale4a_branch2a
I0319 09:26:38.023455 18746 net.cpp:157] Top shape: 16 256 14 14 (802816)
I0319 09:26:38.023473 18746 net.cpp:165] Memory required for data: 2890139584
I0319 09:26:38.023499 18746 layer_factory.hpp:77] Creating layer res4a_branch2a_relu
I0319 09:26:38.023524 18746 net.cpp:106] Creating Layer res4a_branch2a_relu
I0319 09:26:38.023542 18746 net.cpp:454] res4a_branch2a_relu <- res4a_branch2a
I0319 09:26:38.023569 18746 net.cpp:397] res4a_branch2a_relu -> res4a_branch2a (in-place)
I0319 09:26:38.023625 18746 net.cpp:150] Setting up res4a_branch2a_relu
I0319 09:26:38.023651 18746 net.cpp:157] Top shape: 16 256 14 14 (802816)
I0319 09:26:38.023669 18746 net.cpp:165] Memory required for data: 2893350848
I0319 09:26:38.023687 18746 layer_factory.hpp:77] Creating layer res4a_branch2b
I0319 09:26:38.023713 18746 net.cpp:106] Creating Layer res4a_branch2b
I0319 09:26:38.023731 18746 net.cpp:454] res4a_branch2b <- res4a_branch2a
I0319 09:26:38.023762 18746 net.cpp:411] res4a_branch2b -> res4a_branch2b
I0319 09:26:38.027039 18746 net.cpp:150] Setting up res4a_branch2b
I0319 09:26:38.027083 18746 net.cpp:157] Top shape: 16 256 14 14 (802816)
I0319 09:26:38.027102 18746 net.cpp:165] Memory required for data: 2896562112
I0319 09:26:38.027127 18746 layer_factory.hpp:77] Creating layer bn4a_branch2b
I0319 09:26:38.027151 18746 net.cpp:106] Creating Layer bn4a_branch2b
I0319 09:26:38.027171 18746 net.cpp:454] bn4a_branch2b <- res4a_branch2b
I0319 09:26:38.027194 18746 net.cpp:397] bn4a_branch2b -> res4a_branch2b (in-place)
I0319 09:26:38.027607 18746 net.cpp:150] Setting up bn4a_branch2b
I0319 09:26:38.027642 18746 net.cpp:157] Top shape: 16 256 14 14 (802816)
I0319 09:26:38.027660 18746 net.cpp:165] Memory required for data: 2899773376
I0319 09:26:38.027690 18746 layer_factory.hpp:77] Creating layer scale4a_branch2b
I0319 09:26:38.027721 18746 net.cpp:106] Creating Layer scale4a_branch2b
I0319 09:26:38.027742 18746 net.cpp:454] scale4a_branch2b <- res4a_branch2b
I0319 09:26:38.027766 18746 net.cpp:397] scale4a_branch2b -> res4a_branch2b (in-place)
I0319 09:26:38.027878 18746 layer_factory.hpp:77] Creating layer scale4a_branch2b
I0319 09:26:38.028148 18746 net.cpp:150] Setting up scale4a_branch2b
I0319 09:26:38.028182 18746 net.cpp:157] Top shape: 16 256 14 14 (802816)
I0319 09:26:38.028199 18746 net.cpp:165] Memory required for data: 2902984640
I0319 09:26:38.028225 18746 layer_factory.hpp:77] Creating layer res4a_branch2b_relu
I0319 09:26:38.028249 18746 net.cpp:106] Creating Layer res4a_branch2b_relu
I0319 09:26:38.028268 18746 net.cpp:454] res4a_branch2b_relu <- res4a_branch2b
I0319 09:26:38.028295 18746 net.cpp:397] res4a_branch2b_relu -> res4a_branch2b (in-place)
I0319 09:26:38.028322 18746 net.cpp:150] Setting up res4a_branch2b_relu
I0319 09:26:38.028345 18746 net.cpp:157] Top shape: 16 256 14 14 (802816)
I0319 09:26:38.028362 18746 net.cpp:165] Memory required for data: 2906195904
I0319 09:26:38.028380 18746 layer_factory.hpp:77] Creating layer res4a_branch2c
I0319 09:26:38.028412 18746 net.cpp:106] Creating Layer res4a_branch2c
I0319 09:26:38.028432 18746 net.cpp:454] res4a_branch2c <- res4a_branch2b
I0319 09:26:38.028456 18746 net.cpp:411] res4a_branch2c -> res4a_branch2c
I0319 09:26:38.030285 18746 net.cpp:150] Setting up res4a_branch2c
I0319 09:26:38.030330 18746 net.cpp:157] Top shape: 16 1024 14 14 (3211264)
I0319 09:26:38.030349 18746 net.cpp:165] Memory required for data: 2919040960
I0319 09:26:38.030374 18746 layer_factory.hpp:77] Creating layer bn4a_branch2c
I0319 09:26:38.030403 18746 net.cpp:106] Creating Layer bn4a_branch2c
I0319 09:26:38.030424 18746 net.cpp:454] bn4a_branch2c <- res4a_branch2c
I0319 09:26:38.030447 18746 net.cpp:397] bn4a_branch2c -> res4a_branch2c (in-place)
I0319 09:26:38.030884 18746 net.cpp:150] Setting up bn4a_branch2c
I0319 09:26:38.030918 18746 net.cpp:157] Top shape: 16 1024 14 14 (3211264)
I0319 09:26:38.030936 18746 net.cpp:165] Memory required for data: 2931886016
I0319 09:26:38.030967 18746 layer_factory.hpp:77] Creating layer scale4a_branch2c
I0319 09:26:38.030992 18746 net.cpp:106] Creating Layer scale4a_branch2c
I0319 09:26:38.031011 18746 net.cpp:454] scale4a_branch2c <- res4a_branch2c
I0319 09:26:38.031038 18746 net.cpp:397] scale4a_branch2c -> res4a_branch2c (in-place)
I0319 09:26:38.031143 18746 layer_factory.hpp:77] Creating layer scale4a_branch2c
I0319 09:26:38.031424 18746 net.cpp:150] Setting up scale4a_branch2c
I0319 09:26:38.031457 18746 net.cpp:157] Top shape: 16 1024 14 14 (3211264)
I0319 09:26:38.031487 18746 net.cpp:165] Memory required for data: 2944731072
I0319 09:26:38.031533 18746 layer_factory.hpp:77] Creating layer res4a
I0319 09:26:38.031569 18746 net.cpp:106] Creating Layer res4a
I0319 09:26:38.031591 18746 net.cpp:454] res4a <- res4a_branch1
I0319 09:26:38.031612 18746 net.cpp:454] res4a <- res4a_branch2c
I0319 09:26:38.031635 18746 net.cpp:411] res4a -> res4a
I0319 09:26:38.031710 18746 net.cpp:150] Setting up res4a
I0319 09:26:38.031741 18746 net.cpp:157] Top shape: 16 1024 14 14 (3211264)
I0319 09:26:38.031759 18746 net.cpp:165] Memory required for data: 2957576128
I0319 09:26:38.031777 18746 layer_factory.hpp:77] Creating layer res4a_relu
I0319 09:26:38.031836 18746 net.cpp:106] Creating Layer res4a_relu
I0319 09:26:38.031858 18746 net.cpp:454] res4a_relu <- res4a
I0319 09:26:38.031882 18746 net.cpp:397] res4a_relu -> res4a (in-place)
I0319 09:26:38.031906 18746 net.cpp:150] Setting up res4a_relu
I0319 09:26:38.031929 18746 net.cpp:157] Top shape: 16 1024 14 14 (3211264)
I0319 09:26:38.031945 18746 net.cpp:165] Memory required for data: 2970421184
I0319 09:26:38.031965 18746 layer_factory.hpp:77] Creating layer res4a_res4a_relu_0_split
I0319 09:26:38.031987 18746 net.cpp:106] Creating Layer res4a_res4a_relu_0_split
I0319 09:26:38.032004 18746 net.cpp:454] res4a_res4a_relu_0_split <- res4a
I0319 09:26:38.032027 18746 net.cpp:411] res4a_res4a_relu_0_split -> res4a_res4a_relu_0_split_0
I0319 09:26:38.032050 18746 net.cpp:411] res4a_res4a_relu_0_split -> res4a_res4a_relu_0_split_1
I0319 09:26:38.032146 18746 net.cpp:150] Setting up res4a_res4a_relu_0_split
I0319 09:26:38.032177 18746 net.cpp:157] Top shape: 16 1024 14 14 (3211264)
I0319 09:26:38.032198 18746 net.cpp:157] Top shape: 16 1024 14 14 (3211264)
I0319 09:26:38.032215 18746 net.cpp:165] Memory required for data: 2996111296
I0319 09:26:38.032233 18746 layer_factory.hpp:77] Creating layer res4b_branch2a
I0319 09:26:38.032260 18746 net.cpp:106] Creating Layer res4b_branch2a
I0319 09:26:38.032279 18746 net.cpp:454] res4b_branch2a <- res4a_res4a_relu_0_split_0
I0319 09:26:38.032310 18746 net.cpp:411] res4b_branch2a -> res4b_branch2a
I0319 09:26:38.034152 18746 net.cpp:150] Setting up res4b_branch2a
I0319 09:26:38.034196 18746 net.cpp:157] Top shape: 16 256 14 14 (802816)
I0319 09:26:38.034215 18746 net.cpp:165] Memory required for data: 2999322560
I0319 09:26:38.034240 18746 layer_factory.hpp:77] Creating layer bn4b_branch2a
I0319 09:26:38.034265 18746 net.cpp:106] Creating Layer bn4b_branch2a
I0319 09:26:38.034283 18746 net.cpp:454] bn4b_branch2a <- res4b_branch2a
I0319 09:26:38.034307 18746 net.cpp:397] bn4b_branch2a -> res4b_branch2a (in-place)
I0319 09:26:38.034723 18746 net.cpp:150] Setting up bn4b_branch2a
I0319 09:26:38.034757 18746 net.cpp:157] Top shape: 16 256 14 14 (802816)
I0319 09:26:38.034776 18746 net.cpp:165] Memory required for data: 3002533824
I0319 09:26:38.034811 18746 layer_factory.hpp:77] Creating layer scale4b_branch2a
I0319 09:26:38.034838 18746 net.cpp:106] Creating Layer scale4b_branch2a
I0319 09:26:38.034858 18746 net.cpp:454] scale4b_branch2a <- res4b_branch2a
I0319 09:26:38.034881 18746 net.cpp:397] scale4b_branch2a -> res4b_branch2a (in-place)
I0319 09:26:38.034994 18746 layer_factory.hpp:77] Creating layer scale4b_branch2a
I0319 09:26:38.035269 18746 net.cpp:150] Setting up scale4b_branch2a
I0319 09:26:38.035301 18746 net.cpp:157] Top shape: 16 256 14 14 (802816)
I0319 09:26:38.035320 18746 net.cpp:165] Memory required for data: 3005745088
I0319 09:26:38.035346 18746 layer_factory.hpp:77] Creating layer res4b_branch2a_relu
I0319 09:26:38.035378 18746 net.cpp:106] Creating Layer res4b_branch2a_relu
I0319 09:26:38.035399 18746 net.cpp:454] res4b_branch2a_relu <- res4b_branch2a
I0319 09:26:38.035423 18746 net.cpp:397] res4b_branch2a_relu -> res4b_branch2a (in-place)
I0319 09:26:38.035447 18746 net.cpp:150] Setting up res4b_branch2a_relu
I0319 09:26:38.035470 18746 net.cpp:157] Top shape: 16 256 14 14 (802816)
I0319 09:26:38.035487 18746 net.cpp:165] Memory required for data: 3008956352
I0319 09:26:38.035506 18746 layer_factory.hpp:77] Creating layer res4b_branch2b
I0319 09:26:38.035565 18746 net.cpp:106] Creating Layer res4b_branch2b
I0319 09:26:38.035588 18746 net.cpp:454] res4b_branch2b <- res4b_branch2a
I0319 09:26:38.035611 18746 net.cpp:411] res4b_branch2b -> res4b_branch2b
I0319 09:26:38.038871 18746 net.cpp:150] Setting up res4b_branch2b
I0319 09:26:38.038914 18746 net.cpp:157] Top shape: 16 256 14 14 (802816)
I0319 09:26:38.038934 18746 net.cpp:165] Memory required for data: 3012167616
I0319 09:26:38.038959 18746 layer_factory.hpp:77] Creating layer bn4b_branch2b
I0319 09:26:38.038990 18746 net.cpp:106] Creating Layer bn4b_branch2b
I0319 09:26:38.039011 18746 net.cpp:454] bn4b_branch2b <- res4b_branch2b
I0319 09:26:38.039034 18746 net.cpp:397] bn4b_branch2b -> res4b_branch2b (in-place)
I0319 09:26:38.039454 18746 net.cpp:150] Setting up bn4b_branch2b
I0319 09:26:38.039489 18746 net.cpp:157] Top shape: 16 256 14 14 (802816)
I0319 09:26:38.039507 18746 net.cpp:165] Memory required for data: 3015378880
I0319 09:26:38.039536 18746 layer_factory.hpp:77] Creating layer scale4b_branch2b
I0319 09:26:38.039562 18746 net.cpp:106] Creating Layer scale4b_branch2b
I0319 09:26:38.039582 18746 net.cpp:454] scale4b_branch2b <- res4b_branch2b
I0319 09:26:38.039610 18746 net.cpp:397] scale4b_branch2b -> res4b_branch2b (in-place)
I0319 09:26:38.039716 18746 layer_factory.hpp:77] Creating layer scale4b_branch2b
I0319 09:26:38.039985 18746 net.cpp:150] Setting up scale4b_branch2b
I0319 09:26:38.040019 18746 net.cpp:157] Top shape: 16 256 14 14 (802816)
I0319 09:26:38.040036 18746 net.cpp:165] Memory required for data: 3018590144
I0319 09:26:38.040062 18746 layer_factory.hpp:77] Creating layer res4b_branch2b_relu
I0319 09:26:38.040086 18746 net.cpp:106] Creating Layer res4b_branch2b_relu
I0319 09:26:38.040105 18746 net.cpp:454] res4b_branch2b_relu <- res4b_branch2b
I0319 09:26:38.040127 18746 net.cpp:397] res4b_branch2b_relu -> res4b_branch2b (in-place)
I0319 09:26:38.040151 18746 net.cpp:150] Setting up res4b_branch2b_relu
I0319 09:26:38.040174 18746 net.cpp:157] Top shape: 16 256 14 14 (802816)
I0319 09:26:38.040190 18746 net.cpp:165] Memory required for data: 3021801408
I0319 09:26:38.040208 18746 layer_factory.hpp:77] Creating layer res4b_branch2c
I0319 09:26:38.040241 18746 net.cpp:106] Creating Layer res4b_branch2c
I0319 09:26:38.040261 18746 net.cpp:454] res4b_branch2c <- res4b_branch2b
I0319 09:26:38.040289 18746 net.cpp:411] res4b_branch2c -> res4b_branch2c
I0319 09:26:38.042143 18746 net.cpp:150] Setting up res4b_branch2c
I0319 09:26:38.042187 18746 net.cpp:157] Top shape: 16 1024 14 14 (3211264)
I0319 09:26:38.042207 18746 net.cpp:165] Memory required for data: 3034646464
I0319 09:26:38.042230 18746 layer_factory.hpp:77] Creating layer bn4b_branch2c
I0319 09:26:38.042255 18746 net.cpp:106] Creating Layer bn4b_branch2c
I0319 09:26:38.042275 18746 net.cpp:454] bn4b_branch2c <- res4b_branch2c
I0319 09:26:38.042304 18746 net.cpp:397] bn4b_branch2c -> res4b_branch2c (in-place)
I0319 09:26:38.042734 18746 net.cpp:150] Setting up bn4b_branch2c
I0319 09:26:38.042769 18746 net.cpp:157] Top shape: 16 1024 14 14 (3211264)
I0319 09:26:38.042788 18746 net.cpp:165] Memory required for data: 3047491520
I0319 09:26:38.042816 18746 layer_factory.hpp:77] Creating layer scale4b_branch2c
I0319 09:26:38.042842 18746 net.cpp:106] Creating Layer scale4b_branch2c
I0319 09:26:38.042862 18746 net.cpp:454] scale4b_branch2c <- res4b_branch2c
I0319 09:26:38.042884 18746 net.cpp:397] scale4b_branch2c -> res4b_branch2c (in-place)
I0319 09:26:38.042994 18746 layer_factory.hpp:77] Creating layer scale4b_branch2c
I0319 09:26:38.043288 18746 net.cpp:150] Setting up scale4b_branch2c
I0319 09:26:38.043323 18746 net.cpp:157] Top shape: 16 1024 14 14 (3211264)
I0319 09:26:38.043340 18746 net.cpp:165] Memory required for data: 3060336576
I0319 09:26:38.043365 18746 layer_factory.hpp:77] Creating layer res4b
I0319 09:26:38.043390 18746 net.cpp:106] Creating Layer res4b
I0319 09:26:38.043409 18746 net.cpp:454] res4b <- res4a_res4a_relu_0_split_1
I0319 09:26:38.043429 18746 net.cpp:454] res4b <- res4b_branch2c
I0319 09:26:38.043472 18746 net.cpp:411] res4b -> res4b
I0319 09:26:38.043586 18746 net.cpp:150] Setting up res4b
I0319 09:26:38.043627 18746 net.cpp:157] Top shape: 16 1024 14 14 (3211264)
I0319 09:26:38.043647 18746 net.cpp:165] Memory required for data: 3073181632
I0319 09:26:38.043664 18746 layer_factory.hpp:77] Creating layer res4b_relu
I0319 09:26:38.043687 18746 net.cpp:106] Creating Layer res4b_relu
I0319 09:26:38.043706 18746 net.cpp:454] res4b_relu <- res4b
I0319 09:26:38.043727 18746 net.cpp:397] res4b_relu -> res4b (in-place)
I0319 09:26:38.043752 18746 net.cpp:150] Setting up res4b_relu
I0319 09:26:38.043774 18746 net.cpp:157] Top shape: 16 1024 14 14 (3211264)
I0319 09:26:38.043792 18746 net.cpp:165] Memory required for data: 3086026688
I0319 09:26:38.043809 18746 layer_factory.hpp:77] Creating layer res4b_res4b_relu_0_split
I0319 09:26:38.043831 18746 net.cpp:106] Creating Layer res4b_res4b_relu_0_split
I0319 09:26:38.043849 18746 net.cpp:454] res4b_res4b_relu_0_split <- res4b
I0319 09:26:38.043876 18746 net.cpp:411] res4b_res4b_relu_0_split -> res4b_res4b_relu_0_split_0
I0319 09:26:38.043905 18746 net.cpp:411] res4b_res4b_relu_0_split -> res4b_res4b_relu_0_split_1
I0319 09:26:38.043998 18746 net.cpp:150] Setting up res4b_res4b_relu_0_split
I0319 09:26:38.044028 18746 net.cpp:157] Top shape: 16 1024 14 14 (3211264)
I0319 09:26:38.044049 18746 net.cpp:157] Top shape: 16 1024 14 14 (3211264)
I0319 09:26:38.044065 18746 net.cpp:165] Memory required for data: 3111716800
I0319 09:26:38.044083 18746 layer_factory.hpp:77] Creating layer res4c_branch2a
I0319 09:26:38.044116 18746 net.cpp:106] Creating Layer res4c_branch2a
I0319 09:26:38.044137 18746 net.cpp:454] res4c_branch2a <- res4b_res4b_relu_0_split_0
I0319 09:26:38.044159 18746 net.cpp:411] res4c_branch2a -> res4c_branch2a
I0319 09:26:38.046005 18746 net.cpp:150] Setting up res4c_branch2a
I0319 09:26:38.046049 18746 net.cpp:157] Top shape: 16 256 14 14 (802816)
I0319 09:26:38.046068 18746 net.cpp:165] Memory required for data: 3114928064
I0319 09:26:38.046092 18746 layer_factory.hpp:77] Creating layer bn4c_branch2a
I0319 09:26:38.046123 18746 net.cpp:106] Creating Layer bn4c_branch2a
I0319 09:26:38.046144 18746 net.cpp:454] bn4c_branch2a <- res4c_branch2a
I0319 09:26:38.046167 18746 net.cpp:397] bn4c_branch2a -> res4c_branch2a (in-place)
I0319 09:26:38.046587 18746 net.cpp:150] Setting up bn4c_branch2a
I0319 09:26:38.046620 18746 net.cpp:157] Top shape: 16 256 14 14 (802816)
I0319 09:26:38.046639 18746 net.cpp:165] Memory required for data: 3118139328
I0319 09:26:38.046669 18746 layer_factory.hpp:77] Creating layer scale4c_branch2a
I0319 09:26:38.046694 18746 net.cpp:106] Creating Layer scale4c_branch2a
I0319 09:26:38.046713 18746 net.cpp:454] scale4c_branch2a <- res4c_branch2a
I0319 09:26:38.046736 18746 net.cpp:397] scale4c_branch2a -> res4c_branch2a (in-place)
I0319 09:26:38.046847 18746 layer_factory.hpp:77] Creating layer scale4c_branch2a
I0319 09:26:38.047125 18746 net.cpp:150] Setting up scale4c_branch2a
I0319 09:26:38.047159 18746 net.cpp:157] Top shape: 16 256 14 14 (802816)
I0319 09:26:38.047178 18746 net.cpp:165] Memory required for data: 3121350592
I0319 09:26:38.047204 18746 layer_factory.hpp:77] Creating layer res4c_branch2a_relu
I0319 09:26:38.047232 18746 net.cpp:106] Creating Layer res4c_branch2a_relu
I0319 09:26:38.047253 18746 net.cpp:454] res4c_branch2a_relu <- res4c_branch2a
I0319 09:26:38.047276 18746 net.cpp:397] res4c_branch2a_relu -> res4c_branch2a (in-place)
I0319 09:26:38.047299 18746 net.cpp:150] Setting up res4c_branch2a_relu
I0319 09:26:38.047322 18746 net.cpp:157] Top shape: 16 256 14 14 (802816)
I0319 09:26:38.047338 18746 net.cpp:165] Memory required for data: 3124561856
I0319 09:26:38.047356 18746 layer_factory.hpp:77] Creating layer res4c_branch2b
I0319 09:26:38.047387 18746 net.cpp:106] Creating Layer res4c_branch2b
I0319 09:26:38.047408 18746 net.cpp:454] res4c_branch2b <- res4c_branch2a
I0319 09:26:38.047431 18746 net.cpp:411] res4c_branch2b -> res4c_branch2b
I0319 09:26:38.050716 18746 net.cpp:150] Setting up res4c_branch2b
I0319 09:26:38.050773 18746 net.cpp:157] Top shape: 16 256 14 14 (802816)
I0319 09:26:38.050812 18746 net.cpp:165] Memory required for data: 3127773120
I0319 09:26:38.050837 18746 layer_factory.hpp:77] Creating layer bn4c_branch2b
I0319 09:26:38.050863 18746 net.cpp:106] Creating Layer bn4c_branch2b
I0319 09:26:38.050884 18746 net.cpp:454] bn4c_branch2b <- res4c_branch2b
I0319 09:26:38.050905 18746 net.cpp:397] bn4c_branch2b -> res4c_branch2b (in-place)
I0319 09:26:38.051337 18746 net.cpp:150] Setting up bn4c_branch2b
I0319 09:26:38.051372 18746 net.cpp:157] Top shape: 16 256 14 14 (802816)
I0319 09:26:38.051390 18746 net.cpp:165] Memory required for data: 3130984384
I0319 09:26:38.051425 18746 layer_factory.hpp:77] Creating layer scale4c_branch2b
I0319 09:26:38.051452 18746 net.cpp:106] Creating Layer scale4c_branch2b
I0319 09:26:38.051472 18746 net.cpp:454] scale4c_branch2b <- res4c_branch2b
I0319 09:26:38.051494 18746 net.cpp:397] scale4c_branch2b -> res4c_branch2b (in-place)
I0319 09:26:38.051607 18746 layer_factory.hpp:77] Creating layer scale4c_branch2b
I0319 09:26:38.051877 18746 net.cpp:150] Setting up scale4c_branch2b
I0319 09:26:38.051910 18746 net.cpp:157] Top shape: 16 256 14 14 (802816)
I0319 09:26:38.051928 18746 net.cpp:165] Memory required for data: 3134195648
I0319 09:26:38.051954 18746 layer_factory.hpp:77] Creating layer res4c_branch2b_relu
I0319 09:26:38.051983 18746 net.cpp:106] Creating Layer res4c_branch2b_relu
I0319 09:26:38.052004 18746 net.cpp:454] res4c_branch2b_relu <- res4c_branch2b
I0319 09:26:38.052026 18746 net.cpp:397] res4c_branch2b_relu -> res4c_branch2b (in-place)
I0319 09:26:38.052052 18746 net.cpp:150] Setting up res4c_branch2b_relu
I0319 09:26:38.052073 18746 net.cpp:157] Top shape: 16 256 14 14 (802816)
I0319 09:26:38.052090 18746 net.cpp:165] Memory required for data: 3137406912
I0319 09:26:38.052109 18746 layer_factory.hpp:77] Creating layer res4c_branch2c
I0319 09:26:38.052140 18746 net.cpp:106] Creating Layer res4c_branch2c
I0319 09:26:38.052161 18746 net.cpp:454] res4c_branch2c <- res4c_branch2b
I0319 09:26:38.052184 18746 net.cpp:411] res4c_branch2c -> res4c_branch2c
I0319 09:26:38.054035 18746 net.cpp:150] Setting up res4c_branch2c
I0319 09:26:38.054080 18746 net.cpp:157] Top shape: 16 1024 14 14 (3211264)
I0319 09:26:38.054100 18746 net.cpp:165] Memory required for data: 3150251968
I0319 09:26:38.054123 18746 layer_factory.hpp:77] Creating layer bn4c_branch2c
I0319 09:26:38.054154 18746 net.cpp:106] Creating Layer bn4c_branch2c
I0319 09:26:38.054175 18746 net.cpp:454] bn4c_branch2c <- res4c_branch2c
I0319 09:26:38.054198 18746 net.cpp:397] bn4c_branch2c -> res4c_branch2c (in-place)
I0319 09:26:38.054635 18746 net.cpp:150] Setting up bn4c_branch2c
I0319 09:26:38.054667 18746 net.cpp:157] Top shape: 16 1024 14 14 (3211264)
I0319 09:26:38.054687 18746 net.cpp:165] Memory required for data: 3163097024
I0319 09:26:38.054715 18746 layer_factory.hpp:77] Creating layer scale4c_branch2c
I0319 09:26:38.054757 18746 net.cpp:106] Creating Layer scale4c_branch2c
I0319 09:26:38.054780 18746 net.cpp:454] scale4c_branch2c <- res4c_branch2c
I0319 09:26:38.054803 18746 net.cpp:397] scale4c_branch2c -> res4c_branch2c (in-place)
I0319 09:26:38.054908 18746 layer_factory.hpp:77] Creating layer scale4c_branch2c
I0319 09:26:38.055202 18746 net.cpp:150] Setting up scale4c_branch2c
I0319 09:26:38.055236 18746 net.cpp:157] Top shape: 16 1024 14 14 (3211264)
I0319 09:26:38.055254 18746 net.cpp:165] Memory required for data: 3175942080
I0319 09:26:38.055279 18746 layer_factory.hpp:77] Creating layer res4c
I0319 09:26:38.055305 18746 net.cpp:106] Creating Layer res4c
I0319 09:26:38.055325 18746 net.cpp:454] res4c <- res4b_res4b_relu_0_split_1
I0319 09:26:38.055346 18746 net.cpp:454] res4c <- res4c_branch2c
I0319 09:26:38.055367 18746 net.cpp:411] res4c -> res4c
I0319 09:26:38.055444 18746 net.cpp:150] Setting up res4c
I0319 09:26:38.055475 18746 net.cpp:157] Top shape: 16 1024 14 14 (3211264)
I0319 09:26:38.055495 18746 net.cpp:165] Memory required for data: 3188787136
I0319 09:26:38.055524 18746 layer_factory.hpp:77] Creating layer res4c_relu
I0319 09:26:38.055570 18746 net.cpp:106] Creating Layer res4c_relu
I0319 09:26:38.055593 18746 net.cpp:454] res4c_relu <- res4c
I0319 09:26:38.055615 18746 net.cpp:397] res4c_relu -> res4c (in-place)
I0319 09:26:38.055640 18746 net.cpp:150] Setting up res4c_relu
I0319 09:26:38.055663 18746 net.cpp:157] Top shape: 16 1024 14 14 (3211264)
I0319 09:26:38.055680 18746 net.cpp:165] Memory required for data: 3201632192
I0319 09:26:38.055698 18746 layer_factory.hpp:77] Creating layer res4c_res4c_relu_0_split
I0319 09:26:38.055721 18746 net.cpp:106] Creating Layer res4c_res4c_relu_0_split
I0319 09:26:38.055737 18746 net.cpp:454] res4c_res4c_relu_0_split <- res4c
I0319 09:26:38.055764 18746 net.cpp:411] res4c_res4c_relu_0_split -> res4c_res4c_relu_0_split_0
I0319 09:26:38.055791 18746 net.cpp:411] res4c_res4c_relu_0_split -> res4c_res4c_relu_0_split_1
I0319 09:26:38.055886 18746 net.cpp:150] Setting up res4c_res4c_relu_0_split
I0319 09:26:38.055915 18746 net.cpp:157] Top shape: 16 1024 14 14 (3211264)
I0319 09:26:38.055937 18746 net.cpp:157] Top shape: 16 1024 14 14 (3211264)
I0319 09:26:38.055953 18746 net.cpp:165] Memory required for data: 3227322304
I0319 09:26:38.055971 18746 layer_factory.hpp:77] Creating layer res4d_branch2a
I0319 09:26:38.056004 18746 net.cpp:106] Creating Layer res4d_branch2a
I0319 09:26:38.056025 18746 net.cpp:454] res4d_branch2a <- res4c_res4c_relu_0_split_0
I0319 09:26:38.056049 18746 net.cpp:411] res4d_branch2a -> res4d_branch2a
I0319 09:26:38.057956 18746 net.cpp:150] Setting up res4d_branch2a
I0319 09:26:38.058001 18746 net.cpp:157] Top shape: 16 256 14 14 (802816)
I0319 09:26:38.058019 18746 net.cpp:165] Memory required for data: 3230533568
I0319 09:26:38.058043 18746 layer_factory.hpp:77] Creating layer bn4d_branch2a
I0319 09:26:38.058073 18746 net.cpp:106] Creating Layer bn4d_branch2a
I0319 09:26:38.058095 18746 net.cpp:454] bn4d_branch2a <- res4d_branch2a
I0319 09:26:38.058118 18746 net.cpp:397] bn4d_branch2a -> res4d_branch2a (in-place)
I0319 09:26:38.058547 18746 net.cpp:150] Setting up bn4d_branch2a
I0319 09:26:38.058581 18746 net.cpp:157] Top shape: 16 256 14 14 (802816)
I0319 09:26:38.058599 18746 net.cpp:165] Memory required for data: 3233744832
I0319 09:26:38.058629 18746 layer_factory.hpp:77] Creating layer scale4d_branch2a
I0319 09:26:38.058655 18746 net.cpp:106] Creating Layer scale4d_branch2a
I0319 09:26:38.058675 18746 net.cpp:454] scale4d_branch2a <- res4d_branch2a
I0319 09:26:38.058696 18746 net.cpp:397] scale4d_branch2a -> res4d_branch2a (in-place)
I0319 09:26:38.058814 18746 layer_factory.hpp:77] Creating layer scale4d_branch2a
I0319 09:26:38.059089 18746 net.cpp:150] Setting up scale4d_branch2a
I0319 09:26:38.059123 18746 net.cpp:157] Top shape: 16 256 14 14 (802816)
I0319 09:26:38.059140 18746 net.cpp:165] Memory required for data: 3236956096
I0319 09:26:38.059166 18746 layer_factory.hpp:77] Creating layer res4d_branch2a_relu
I0319 09:26:38.059195 18746 net.cpp:106] Creating Layer res4d_branch2a_relu
I0319 09:26:38.059216 18746 net.cpp:454] res4d_branch2a_relu <- res4d_branch2a
I0319 09:26:38.059239 18746 net.cpp:397] res4d_branch2a_relu -> res4d_branch2a (in-place)
I0319 09:26:38.059264 18746 net.cpp:150] Setting up res4d_branch2a_relu
I0319 09:26:38.059288 18746 net.cpp:157] Top shape: 16 256 14 14 (802816)
I0319 09:26:38.059304 18746 net.cpp:165] Memory required for data: 3240167360
I0319 09:26:38.059322 18746 layer_factory.hpp:77] Creating layer res4d_branch2b
I0319 09:26:38.059353 18746 net.cpp:106] Creating Layer res4d_branch2b
I0319 09:26:38.059373 18746 net.cpp:454] res4d_branch2b <- res4d_branch2a
I0319 09:26:38.059397 18746 net.cpp:411] res4d_branch2b -> res4d_branch2b
I0319 09:26:38.062686 18746 net.cpp:150] Setting up res4d_branch2b
I0319 09:26:38.062731 18746 net.cpp:157] Top shape: 16 256 14 14 (802816)
I0319 09:26:38.062749 18746 net.cpp:165] Memory required for data: 3243378624
I0319 09:26:38.062772 18746 layer_factory.hpp:77] Creating layer bn4d_branch2b
I0319 09:26:38.062798 18746 net.cpp:106] Creating Layer bn4d_branch2b
I0319 09:26:38.062830 18746 net.cpp:454] bn4d_branch2b <- res4d_branch2b
I0319 09:26:38.062875 18746 net.cpp:397] bn4d_branch2b -> res4d_branch2b (in-place)
I0319 09:26:38.063313 18746 net.cpp:150] Setting up bn4d_branch2b
I0319 09:26:38.063347 18746 net.cpp:157] Top shape: 16 256 14 14 (802816)
I0319 09:26:38.063366 18746 net.cpp:165] Memory required for data: 3246589888
I0319 09:26:38.063401 18746 layer_factory.hpp:77] Creating layer scale4d_branch2b
I0319 09:26:38.063428 18746 net.cpp:106] Creating Layer scale4d_branch2b
I0319 09:26:38.063448 18746 net.cpp:454] scale4d_branch2b <- res4d_branch2b
I0319 09:26:38.063470 18746 net.cpp:397] scale4d_branch2b -> res4d_branch2b (in-place)
I0319 09:26:38.063586 18746 layer_factory.hpp:77] Creating layer scale4d_branch2b
I0319 09:26:38.063863 18746 net.cpp:150] Setting up scale4d_branch2b
I0319 09:26:38.063896 18746 net.cpp:157] Top shape: 16 256 14 14 (802816)
I0319 09:26:38.063915 18746 net.cpp:165] Memory required for data: 3249801152
I0319 09:26:38.063941 18746 layer_factory.hpp:77] Creating layer res4d_branch2b_relu
I0319 09:26:38.063969 18746 net.cpp:106] Creating Layer res4d_branch2b_relu
I0319 09:26:38.063990 18746 net.cpp:454] res4d_branch2b_relu <- res4d_branch2b
I0319 09:26:38.064012 18746 net.cpp:397] res4d_branch2b_relu -> res4d_branch2b (in-place)
I0319 09:26:38.064038 18746 net.cpp:150] Setting up res4d_branch2b_relu
I0319 09:26:38.064059 18746 net.cpp:157] Top shape: 16 256 14 14 (802816)
I0319 09:26:38.064076 18746 net.cpp:165] Memory required for data: 3253012416
I0319 09:26:38.064093 18746 layer_factory.hpp:77] Creating layer res4d_branch2c
I0319 09:26:38.064126 18746 net.cpp:106] Creating Layer res4d_branch2c
I0319 09:26:38.064146 18746 net.cpp:454] res4d_branch2c <- res4d_branch2b
I0319 09:26:38.064168 18746 net.cpp:411] res4d_branch2c -> res4d_branch2c
I0319 09:26:38.066027 18746 net.cpp:150] Setting up res4d_branch2c
I0319 09:26:38.066072 18746 net.cpp:157] Top shape: 16 1024 14 14 (3211264)
I0319 09:26:38.066092 18746 net.cpp:165] Memory required for data: 3265857472
I0319 09:26:38.066114 18746 layer_factory.hpp:77] Creating layer bn4d_branch2c
I0319 09:26:38.066145 18746 net.cpp:106] Creating Layer bn4d_branch2c
I0319 09:26:38.066166 18746 net.cpp:454] bn4d_branch2c <- res4d_branch2c
I0319 09:26:38.066190 18746 net.cpp:397] bn4d_branch2c -> res4d_branch2c (in-place)
I0319 09:26:38.066637 18746 net.cpp:150] Setting up bn4d_branch2c
I0319 09:26:38.066671 18746 net.cpp:157] Top shape: 16 1024 14 14 (3211264)
I0319 09:26:38.066689 18746 net.cpp:165] Memory required for data: 3278702528
I0319 09:26:38.066720 18746 layer_factory.hpp:77] Creating layer scale4d_branch2c
I0319 09:26:38.066745 18746 net.cpp:106] Creating Layer scale4d_branch2c
I0319 09:26:38.066764 18746 net.cpp:454] scale4d_branch2c <- res4d_branch2c
I0319 09:26:38.066792 18746 net.cpp:397] scale4d_branch2c -> res4d_branch2c (in-place)
I0319 09:26:38.066898 18746 layer_factory.hpp:77] Creating layer scale4d_branch2c
I0319 09:26:38.067189 18746 net.cpp:150] Setting up scale4d_branch2c
I0319 09:26:38.067224 18746 net.cpp:157] Top shape: 16 1024 14 14 (3211264)
I0319 09:26:38.067241 18746 net.cpp:165] Memory required for data: 3291547584
I0319 09:26:38.067267 18746 layer_factory.hpp:77] Creating layer res4d
I0319 09:26:38.067291 18746 net.cpp:106] Creating Layer res4d
I0319 09:26:38.067312 18746 net.cpp:454] res4d <- res4c_res4c_relu_0_split_1
I0319 09:26:38.067332 18746 net.cpp:454] res4d <- res4d_branch2c
I0319 09:26:38.067353 18746 net.cpp:411] res4d -> res4d
I0319 09:26:38.067430 18746 net.cpp:150] Setting up res4d
I0319 09:26:38.067461 18746 net.cpp:157] Top shape: 16 1024 14 14 (3211264)
I0319 09:26:38.067479 18746 net.cpp:165] Memory required for data: 3304392640
I0319 09:26:38.067497 18746 layer_factory.hpp:77] Creating layer res4d_relu
I0319 09:26:38.067524 18746 net.cpp:106] Creating Layer res4d_relu
I0319 09:26:38.067544 18746 net.cpp:454] res4d_relu <- res4d
I0319 09:26:38.067567 18746 net.cpp:397] res4d_relu -> res4d (in-place)
I0319 09:26:38.067592 18746 net.cpp:150] Setting up res4d_relu
I0319 09:26:38.067642 18746 net.cpp:157] Top shape: 16 1024 14 14 (3211264)
I0319 09:26:38.067662 18746 net.cpp:165] Memory required for data: 3317237696
I0319 09:26:38.067679 18746 layer_factory.hpp:77] Creating layer res4d_res4d_relu_0_split
I0319 09:26:38.067703 18746 net.cpp:106] Creating Layer res4d_res4d_relu_0_split
I0319 09:26:38.067720 18746 net.cpp:454] res4d_res4d_relu_0_split <- res4d
I0319 09:26:38.067749 18746 net.cpp:411] res4d_res4d_relu_0_split -> res4d_res4d_relu_0_split_0
I0319 09:26:38.067775 18746 net.cpp:411] res4d_res4d_relu_0_split -> res4d_res4d_relu_0_split_1
I0319 09:26:38.067869 18746 net.cpp:150] Setting up res4d_res4d_relu_0_split
I0319 09:26:38.067899 18746 net.cpp:157] Top shape: 16 1024 14 14 (3211264)
I0319 09:26:38.067920 18746 net.cpp:157] Top shape: 16 1024 14 14 (3211264)
I0319 09:26:38.067937 18746 net.cpp:165] Memory required for data: 3342927808
I0319 09:26:38.067955 18746 layer_factory.hpp:77] Creating layer res4e_branch2a
I0319 09:26:38.067986 18746 net.cpp:106] Creating Layer res4e_branch2a
I0319 09:26:38.068007 18746 net.cpp:454] res4e_branch2a <- res4d_res4d_relu_0_split_0
I0319 09:26:38.068032 18746 net.cpp:411] res4e_branch2a -> res4e_branch2a
I0319 09:26:38.069896 18746 net.cpp:150] Setting up res4e_branch2a
I0319 09:26:38.069941 18746 net.cpp:157] Top shape: 16 256 14 14 (802816)
I0319 09:26:38.069959 18746 net.cpp:165] Memory required for data: 3346139072
I0319 09:26:38.069983 18746 layer_factory.hpp:77] Creating layer bn4e_branch2a
I0319 09:26:38.070013 18746 net.cpp:106] Creating Layer bn4e_branch2a
I0319 09:26:38.070035 18746 net.cpp:454] bn4e_branch2a <- res4e_branch2a
I0319 09:26:38.070058 18746 net.cpp:397] bn4e_branch2a -> res4e_branch2a (in-place)
I0319 09:26:38.070514 18746 net.cpp:150] Setting up bn4e_branch2a
I0319 09:26:38.070549 18746 net.cpp:157] Top shape: 16 256 14 14 (802816)
I0319 09:26:38.070566 18746 net.cpp:165] Memory required for data: 3349350336
I0319 09:26:38.070596 18746 layer_factory.hpp:77] Creating layer scale4e_branch2a
I0319 09:26:38.070621 18746 net.cpp:106] Creating Layer scale4e_branch2a
I0319 09:26:38.070641 18746 net.cpp:454] scale4e_branch2a <- res4e_branch2a
I0319 09:26:38.070663 18746 net.cpp:397] scale4e_branch2a -> res4e_branch2a (in-place)
I0319 09:26:38.070780 18746 layer_factory.hpp:77] Creating layer scale4e_branch2a
I0319 09:26:38.071058 18746 net.cpp:150] Setting up scale4e_branch2a
I0319 09:26:38.071092 18746 net.cpp:157] Top shape: 16 256 14 14 (802816)
I0319 09:26:38.071110 18746 net.cpp:165] Memory required for data: 3352561600
I0319 09:26:38.071136 18746 layer_factory.hpp:77] Creating layer res4e_branch2a_relu
I0319 09:26:38.071166 18746 net.cpp:106] Creating Layer res4e_branch2a_relu
I0319 09:26:38.071187 18746 net.cpp:454] res4e_branch2a_relu <- res4e_branch2a
I0319 09:26:38.071208 18746 net.cpp:397] res4e_branch2a_relu -> res4e_branch2a (in-place)
I0319 09:26:38.071233 18746 net.cpp:150] Setting up res4e_branch2a_relu
I0319 09:26:38.071255 18746 net.cpp:157] Top shape: 16 256 14 14 (802816)
I0319 09:26:38.071272 18746 net.cpp:165] Memory required for data: 3355772864
I0319 09:26:38.071290 18746 layer_factory.hpp:77] Creating layer res4e_branch2b
I0319 09:26:38.071321 18746 net.cpp:106] Creating Layer res4e_branch2b
I0319 09:26:38.071342 18746 net.cpp:454] res4e_branch2b <- res4e_branch2a
I0319 09:26:38.071367 18746 net.cpp:411] res4e_branch2b -> res4e_branch2b
I0319 09:26:38.074663 18746 net.cpp:150] Setting up res4e_branch2b
I0319 09:26:38.074707 18746 net.cpp:157] Top shape: 16 256 14 14 (802816)
I0319 09:26:38.074726 18746 net.cpp:165] Memory required for data: 3358984128
I0319 09:26:38.074750 18746 layer_factory.hpp:77] Creating layer bn4e_branch2b
I0319 09:26:38.074775 18746 net.cpp:106] Creating Layer bn4e_branch2b
I0319 09:26:38.074795 18746 net.cpp:454] bn4e_branch2b <- res4e_branch2b
I0319 09:26:38.074818 18746 net.cpp:397] bn4e_branch2b -> res4e_branch2b (in-place)
I0319 09:26:38.075254 18746 net.cpp:150] Setting up bn4e_branch2b
I0319 09:26:38.075289 18746 net.cpp:157] Top shape: 16 256 14 14 (802816)
I0319 09:26:38.075335 18746 net.cpp:165] Memory required for data: 3362195392
I0319 09:26:38.075372 18746 layer_factory.hpp:77] Creating layer scale4e_branch2b
I0319 09:26:38.075400 18746 net.cpp:106] Creating Layer scale4e_branch2b
I0319 09:26:38.075420 18746 net.cpp:454] scale4e_branch2b <- res4e_branch2b
I0319 09:26:38.075443 18746 net.cpp:397] scale4e_branch2b -> res4e_branch2b (in-place)
I0319 09:26:38.075562 18746 layer_factory.hpp:77] Creating layer scale4e_branch2b
I0319 09:26:38.075845 18746 net.cpp:150] Setting up scale4e_branch2b
I0319 09:26:38.075878 18746 net.cpp:157] Top shape: 16 256 14 14 (802816)
I0319 09:26:38.075896 18746 net.cpp:165] Memory required for data: 3365406656
I0319 09:26:38.075922 18746 layer_factory.hpp:77] Creating layer res4e_branch2b_relu
I0319 09:26:38.075950 18746 net.cpp:106] Creating Layer res4e_branch2b_relu
I0319 09:26:38.075970 18746 net.cpp:454] res4e_branch2b_relu <- res4e_branch2b
I0319 09:26:38.075994 18746 net.cpp:397] res4e_branch2b_relu -> res4e_branch2b (in-place)
I0319 09:26:38.076019 18746 net.cpp:150] Setting up res4e_branch2b_relu
I0319 09:26:38.076040 18746 net.cpp:157] Top shape: 16 256 14 14 (802816)
I0319 09:26:38.076057 18746 net.cpp:165] Memory required for data: 3368617920
I0319 09:26:38.076076 18746 layer_factory.hpp:77] Creating layer res4e_branch2c
I0319 09:26:38.076107 18746 net.cpp:106] Creating Layer res4e_branch2c
I0319 09:26:38.076126 18746 net.cpp:454] res4e_branch2c <- res4e_branch2b
I0319 09:26:38.076150 18746 net.cpp:411] res4e_branch2c -> res4e_branch2c
I0319 09:26:38.078013 18746 net.cpp:150] Setting up res4e_branch2c
I0319 09:26:38.078058 18746 net.cpp:157] Top shape: 16 1024 14 14 (3211264)
I0319 09:26:38.078078 18746 net.cpp:165] Memory required for data: 3381462976
I0319 09:26:38.078100 18746 layer_factory.hpp:77] Creating layer bn4e_branch2c
I0319 09:26:38.078131 18746 net.cpp:106] Creating Layer bn4e_branch2c
I0319 09:26:38.078153 18746 net.cpp:454] bn4e_branch2c <- res4e_branch2c
I0319 09:26:38.078177 18746 net.cpp:397] bn4e_branch2c -> res4e_branch2c (in-place)
I0319 09:26:38.078626 18746 net.cpp:150] Setting up bn4e_branch2c
I0319 09:26:38.078660 18746 net.cpp:157] Top shape: 16 1024 14 14 (3211264)
I0319 09:26:38.078678 18746 net.cpp:165] Memory required for data: 3394308032
I0319 09:26:38.078709 18746 layer_factory.hpp:77] Creating layer scale4e_branch2c
I0319 09:26:38.078734 18746 net.cpp:106] Creating Layer scale4e_branch2c
I0319 09:26:38.078753 18746 net.cpp:454] scale4e_branch2c <- res4e_branch2c
I0319 09:26:38.078781 18746 net.cpp:397] scale4e_branch2c -> res4e_branch2c (in-place)
I0319 09:26:38.078888 18746 layer_factory.hpp:77] Creating layer scale4e_branch2c
I0319 09:26:38.079187 18746 net.cpp:150] Setting up scale4e_branch2c
I0319 09:26:38.079221 18746 net.cpp:157] Top shape: 16 1024 14 14 (3211264)
I0319 09:26:38.079239 18746 net.cpp:165] Memory required for data: 3407153088
I0319 09:26:38.079265 18746 layer_factory.hpp:77] Creating layer res4e
I0319 09:26:38.079290 18746 net.cpp:106] Creating Layer res4e
I0319 09:26:38.079309 18746 net.cpp:454] res4e <- res4d_res4d_relu_0_split_1
I0319 09:26:38.079330 18746 net.cpp:454] res4e <- res4e_branch2c
I0319 09:26:38.079352 18746 net.cpp:411] res4e -> res4e
I0319 09:26:38.079430 18746 net.cpp:150] Setting up res4e
I0319 09:26:38.079463 18746 net.cpp:157] Top shape: 16 1024 14 14 (3211264)
I0319 09:26:38.079480 18746 net.cpp:165] Memory required for data: 3419998144
I0319 09:26:38.079499 18746 layer_factory.hpp:77] Creating layer res4e_relu
I0319 09:26:38.079524 18746 net.cpp:106] Creating Layer res4e_relu
I0319 09:26:38.079545 18746 net.cpp:454] res4e_relu <- res4e
I0319 09:26:38.079567 18746 net.cpp:397] res4e_relu -> res4e (in-place)
I0319 09:26:38.079591 18746 net.cpp:150] Setting up res4e_relu
I0319 09:26:38.079614 18746 net.cpp:157] Top shape: 16 1024 14 14 (3211264)
I0319 09:26:38.079632 18746 net.cpp:165] Memory required for data: 3432843200
I0319 09:26:38.079649 18746 layer_factory.hpp:77] Creating layer res4e_res4e_relu_0_split
I0319 09:26:38.079684 18746 net.cpp:106] Creating Layer res4e_res4e_relu_0_split
I0319 09:26:38.079720 18746 net.cpp:454] res4e_res4e_relu_0_split <- res4e
I0319 09:26:38.079749 18746 net.cpp:411] res4e_res4e_relu_0_split -> res4e_res4e_relu_0_split_0
I0319 09:26:38.079777 18746 net.cpp:411] res4e_res4e_relu_0_split -> res4e_res4e_relu_0_split_1
I0319 09:26:38.079872 18746 net.cpp:150] Setting up res4e_res4e_relu_0_split
I0319 09:26:38.079903 18746 net.cpp:157] Top shape: 16 1024 14 14 (3211264)
I0319 09:26:38.079924 18746 net.cpp:157] Top shape: 16 1024 14 14 (3211264)
I0319 09:26:38.079941 18746 net.cpp:165] Memory required for data: 3458533312
I0319 09:26:38.079959 18746 layer_factory.hpp:77] Creating layer res4f_branch2a
I0319 09:26:38.079991 18746 net.cpp:106] Creating Layer res4f_branch2a
I0319 09:26:38.080013 18746 net.cpp:454] res4f_branch2a <- res4e_res4e_relu_0_split_0
I0319 09:26:38.080037 18746 net.cpp:411] res4f_branch2a -> res4f_branch2a
I0319 09:26:38.081902 18746 net.cpp:150] Setting up res4f_branch2a
I0319 09:26:38.081946 18746 net.cpp:157] Top shape: 16 256 14 14 (802816)
I0319 09:26:38.081965 18746 net.cpp:165] Memory required for data: 3461744576
I0319 09:26:38.081989 18746 layer_factory.hpp:77] Creating layer bn4f_branch2a
I0319 09:26:38.082020 18746 net.cpp:106] Creating Layer bn4f_branch2a
I0319 09:26:38.082041 18746 net.cpp:454] bn4f_branch2a <- res4f_branch2a
I0319 09:26:38.082063 18746 net.cpp:397] bn4f_branch2a -> res4f_branch2a (in-place)
I0319 09:26:38.082507 18746 net.cpp:150] Setting up bn4f_branch2a
I0319 09:26:38.082541 18746 net.cpp:157] Top shape: 16 256 14 14 (802816)
I0319 09:26:38.082561 18746 net.cpp:165] Memory required for data: 3464955840
I0319 09:26:38.082589 18746 layer_factory.hpp:77] Creating layer scale4f_branch2a
I0319 09:26:38.082614 18746 net.cpp:106] Creating Layer scale4f_branch2a
I0319 09:26:38.082634 18746 net.cpp:454] scale4f_branch2a <- res4f_branch2a
I0319 09:26:38.082656 18746 net.cpp:397] scale4f_branch2a -> res4f_branch2a (in-place)
I0319 09:26:38.082772 18746 layer_factory.hpp:77] Creating layer scale4f_branch2a
I0319 09:26:38.083055 18746 net.cpp:150] Setting up scale4f_branch2a
I0319 09:26:38.083091 18746 net.cpp:157] Top shape: 16 256 14 14 (802816)
I0319 09:26:38.083109 18746 net.cpp:165] Memory required for data: 3468167104
I0319 09:26:38.083135 18746 layer_factory.hpp:77] Creating layer res4f_branch2a_relu
I0319 09:26:38.083164 18746 net.cpp:106] Creating Layer res4f_branch2a_relu
I0319 09:26:38.083185 18746 net.cpp:454] res4f_branch2a_relu <- res4f_branch2a
I0319 09:26:38.083207 18746 net.cpp:397] res4f_branch2a_relu -> res4f_branch2a (in-place)
I0319 09:26:38.083232 18746 net.cpp:150] Setting up res4f_branch2a_relu
I0319 09:26:38.083256 18746 net.cpp:157] Top shape: 16 256 14 14 (802816)
I0319 09:26:38.083273 18746 net.cpp:165] Memory required for data: 3471378368
I0319 09:26:38.083292 18746 layer_factory.hpp:77] Creating layer res4f_branch2b
I0319 09:26:38.083322 18746 net.cpp:106] Creating Layer res4f_branch2b
I0319 09:26:38.083343 18746 net.cpp:454] res4f_branch2b <- res4f_branch2a
I0319 09:26:38.083366 18746 net.cpp:411] res4f_branch2b -> res4f_branch2b
I0319 09:26:38.086654 18746 net.cpp:150] Setting up res4f_branch2b
I0319 09:26:38.086699 18746 net.cpp:157] Top shape: 16 256 14 14 (802816)
I0319 09:26:38.086719 18746 net.cpp:165] Memory required for data: 3474589632
I0319 09:26:38.086743 18746 layer_factory.hpp:77] Creating layer bn4f_branch2b
I0319 09:26:38.086768 18746 net.cpp:106] Creating Layer bn4f_branch2b
I0319 09:26:38.086789 18746 net.cpp:454] bn4f_branch2b <- res4f_branch2b
I0319 09:26:38.086812 18746 net.cpp:397] bn4f_branch2b -> res4f_branch2b (in-place)
I0319 09:26:38.087257 18746 net.cpp:150] Setting up bn4f_branch2b
I0319 09:26:38.087291 18746 net.cpp:157] Top shape: 16 256 14 14 (802816)
I0319 09:26:38.087309 18746 net.cpp:165] Memory required for data: 3477800896
I0319 09:26:38.087345 18746 layer_factory.hpp:77] Creating layer scale4f_branch2b
I0319 09:26:38.087373 18746 net.cpp:106] Creating Layer scale4f_branch2b
I0319 09:26:38.087393 18746 net.cpp:454] scale4f_branch2b <- res4f_branch2b
I0319 09:26:38.087445 18746 net.cpp:397] scale4f_branch2b -> res4f_branch2b (in-place)
I0319 09:26:38.087566 18746 layer_factory.hpp:77] Creating layer scale4f_branch2b
I0319 09:26:38.087846 18746 net.cpp:150] Setting up scale4f_branch2b
I0319 09:26:38.087880 18746 net.cpp:157] Top shape: 16 256 14 14 (802816)
I0319 09:26:38.087898 18746 net.cpp:165] Memory required for data: 3481012160
I0319 09:26:38.087924 18746 layer_factory.hpp:77] Creating layer res4f_branch2b_relu
I0319 09:26:38.087954 18746 net.cpp:106] Creating Layer res4f_branch2b_relu
I0319 09:26:38.087975 18746 net.cpp:454] res4f_branch2b_relu <- res4f_branch2b
I0319 09:26:38.087996 18746 net.cpp:397] res4f_branch2b_relu -> res4f_branch2b (in-place)
I0319 09:26:38.088022 18746 net.cpp:150] Setting up res4f_branch2b_relu
I0319 09:26:38.088044 18746 net.cpp:157] Top shape: 16 256 14 14 (802816)
I0319 09:26:38.088062 18746 net.cpp:165] Memory required for data: 3484223424
I0319 09:26:38.088079 18746 layer_factory.hpp:77] Creating layer res4f_branch2c
I0319 09:26:38.088112 18746 net.cpp:106] Creating Layer res4f_branch2c
I0319 09:26:38.088132 18746 net.cpp:454] res4f_branch2c <- res4f_branch2b
I0319 09:26:38.088156 18746 net.cpp:411] res4f_branch2c -> res4f_branch2c
I0319 09:26:38.090005 18746 net.cpp:150] Setting up res4f_branch2c
I0319 09:26:38.090049 18746 net.cpp:157] Top shape: 16 1024 14 14 (3211264)
I0319 09:26:38.090068 18746 net.cpp:165] Memory required for data: 3497068480
I0319 09:26:38.090092 18746 layer_factory.hpp:77] Creating layer bn4f_branch2c
I0319 09:26:38.090123 18746 net.cpp:106] Creating Layer bn4f_branch2c
I0319 09:26:38.090144 18746 net.cpp:454] bn4f_branch2c <- res4f_branch2c
I0319 09:26:38.090167 18746 net.cpp:397] bn4f_branch2c -> res4f_branch2c (in-place)
I0319 09:26:38.090621 18746 net.cpp:150] Setting up bn4f_branch2c
I0319 09:26:38.090656 18746 net.cpp:157] Top shape: 16 1024 14 14 (3211264)
I0319 09:26:38.090673 18746 net.cpp:165] Memory required for data: 3509913536
I0319 09:26:38.090790 18746 layer_factory.hpp:77] Creating layer scale4f_branch2c
I0319 09:26:38.090822 18746 net.cpp:106] Creating Layer scale4f_branch2c
I0319 09:26:38.090843 18746 net.cpp:454] scale4f_branch2c <- res4f_branch2c
I0319 09:26:38.090865 18746 net.cpp:397] scale4f_branch2c -> res4f_branch2c (in-place)
I0319 09:26:38.090984 18746 layer_factory.hpp:77] Creating layer scale4f_branch2c
I0319 09:26:38.091279 18746 net.cpp:150] Setting up scale4f_branch2c
I0319 09:26:38.091313 18746 net.cpp:157] Top shape: 16 1024 14 14 (3211264)
I0319 09:26:38.091331 18746 net.cpp:165] Memory required for data: 3522758592
I0319 09:26:38.091357 18746 layer_factory.hpp:77] Creating layer res4f
I0319 09:26:38.091388 18746 net.cpp:106] Creating Layer res4f
I0319 09:26:38.091409 18746 net.cpp:454] res4f <- res4e_res4e_relu_0_split_1
I0319 09:26:38.091429 18746 net.cpp:454] res4f <- res4f_branch2c
I0319 09:26:38.091457 18746 net.cpp:411] res4f -> res4f
I0319 09:26:38.091531 18746 net.cpp:150] Setting up res4f
I0319 09:26:38.091562 18746 net.cpp:157] Top shape: 16 1024 14 14 (3211264)
I0319 09:26:38.091579 18746 net.cpp:165] Memory required for data: 3535603648
I0319 09:26:38.091598 18746 layer_factory.hpp:77] Creating layer res4f_relu
I0319 09:26:38.091625 18746 net.cpp:106] Creating Layer res4f_relu
I0319 09:26:38.091645 18746 net.cpp:454] res4f_relu <- res4f
I0319 09:26:38.091667 18746 net.cpp:397] res4f_relu -> res4f (in-place)
I0319 09:26:38.091693 18746 net.cpp:150] Setting up res4f_relu
I0319 09:26:38.091716 18746 net.cpp:157] Top shape: 16 1024 14 14 (3211264)
I0319 09:26:38.091733 18746 net.cpp:165] Memory required for data: 3548448704
I0319 09:26:38.091750 18746 layer_factory.hpp:77] Creating layer res4f_res4f_relu_0_split
I0319 09:26:38.091773 18746 net.cpp:106] Creating Layer res4f_res4f_relu_0_split
I0319 09:26:38.091790 18746 net.cpp:454] res4f_res4f_relu_0_split <- res4f
I0319 09:26:38.091819 18746 net.cpp:411] res4f_res4f_relu_0_split -> res4f_res4f_relu_0_split_0
I0319 09:26:38.091846 18746 net.cpp:411] res4f_res4f_relu_0_split -> res4f_res4f_relu_0_split_1
I0319 09:26:38.091979 18746 net.cpp:150] Setting up res4f_res4f_relu_0_split
I0319 09:26:38.092012 18746 net.cpp:157] Top shape: 16 1024 14 14 (3211264)
I0319 09:26:38.092034 18746 net.cpp:157] Top shape: 16 1024 14 14 (3211264)
I0319 09:26:38.092051 18746 net.cpp:165] Memory required for data: 3574138816
I0319 09:26:38.092069 18746 layer_factory.hpp:77] Creating layer res5a_branch1
I0319 09:26:38.092095 18746 net.cpp:106] Creating Layer res5a_branch1
I0319 09:26:38.092115 18746 net.cpp:454] res5a_branch1 <- res4f_res4f_relu_0_split_0
I0319 09:26:38.092144 18746 net.cpp:411] res5a_branch1 -> res5a_branch1
I0319 09:26:38.102022 18746 net.cpp:150] Setting up res5a_branch1
I0319 09:26:38.102072 18746 net.cpp:157] Top shape: 16 2048 7 7 (1605632)
I0319 09:26:38.102090 18746 net.cpp:165] Memory required for data: 3580561344
I0319 09:26:38.102114 18746 layer_factory.hpp:77] Creating layer bn5a_branch1
I0319 09:26:38.102139 18746 net.cpp:106] Creating Layer bn5a_branch1
I0319 09:26:38.102160 18746 net.cpp:454] bn5a_branch1 <- res5a_branch1
I0319 09:26:38.102182 18746 net.cpp:397] bn5a_branch1 -> res5a_branch1 (in-place)
I0319 09:26:38.102669 18746 net.cpp:150] Setting up bn5a_branch1
I0319 09:26:38.102705 18746 net.cpp:157] Top shape: 16 2048 7 7 (1605632)
I0319 09:26:38.102723 18746 net.cpp:165] Memory required for data: 3586983872
I0319 09:26:38.102758 18746 layer_factory.hpp:77] Creating layer scale5a_branch1
I0319 09:26:38.102787 18746 net.cpp:106] Creating Layer scale5a_branch1
I0319 09:26:38.102807 18746 net.cpp:454] scale5a_branch1 <- res5a_branch1
I0319 09:26:38.102829 18746 net.cpp:397] scale5a_branch1 -> res5a_branch1 (in-place)
I0319 09:26:38.102949 18746 layer_factory.hpp:77] Creating layer scale5a_branch1
I0319 09:26:38.103255 18746 net.cpp:150] Setting up scale5a_branch1
I0319 09:26:38.103289 18746 net.cpp:157] Top shape: 16 2048 7 7 (1605632)
I0319 09:26:38.103307 18746 net.cpp:165] Memory required for data: 3593406400
I0319 09:26:38.103332 18746 layer_factory.hpp:77] Creating layer res5a_branch2a
I0319 09:26:38.103366 18746 net.cpp:106] Creating Layer res5a_branch2a
I0319 09:26:38.103387 18746 net.cpp:454] res5a_branch2a <- res4f_res4f_relu_0_split_1
I0319 09:26:38.103416 18746 net.cpp:411] res5a_branch2a -> res5a_branch2a
I0319 09:26:38.106423 18746 net.cpp:150] Setting up res5a_branch2a
I0319 09:26:38.106467 18746 net.cpp:157] Top shape: 16 512 7 7 (401408)
I0319 09:26:38.106487 18746 net.cpp:165] Memory required for data: 3595012032
I0319 09:26:38.106509 18746 layer_factory.hpp:77] Creating layer bn5a_branch2a
I0319 09:26:38.106546 18746 net.cpp:106] Creating Layer bn5a_branch2a
I0319 09:26:38.106570 18746 net.cpp:454] bn5a_branch2a <- res5a_branch2a
I0319 09:26:38.106593 18746 net.cpp:397] bn5a_branch2a -> res5a_branch2a (in-place)
I0319 09:26:38.107059 18746 net.cpp:150] Setting up bn5a_branch2a
I0319 09:26:38.107092 18746 net.cpp:157] Top shape: 16 512 7 7 (401408)
I0319 09:26:38.107111 18746 net.cpp:165] Memory required for data: 3596617664
I0319 09:26:38.107142 18746 layer_factory.hpp:77] Creating layer scale5a_branch2a
I0319 09:26:38.107168 18746 net.cpp:106] Creating Layer scale5a_branch2a
I0319 09:26:38.107188 18746 net.cpp:454] scale5a_branch2a <- res5a_branch2a
I0319 09:26:38.107211 18746 net.cpp:397] scale5a_branch2a -> res5a_branch2a (in-place)
I0319 09:26:38.107324 18746 layer_factory.hpp:77] Creating layer scale5a_branch2a
I0319 09:26:38.107620 18746 net.cpp:150] Setting up scale5a_branch2a
I0319 09:26:38.107655 18746 net.cpp:157] Top shape: 16 512 7 7 (401408)
I0319 09:26:38.107672 18746 net.cpp:165] Memory required for data: 3598223296
I0319 09:26:38.107697 18746 layer_factory.hpp:77] Creating layer res5a_branch2a_relu
I0319 09:26:38.107722 18746 net.cpp:106] Creating Layer res5a_branch2a_relu
I0319 09:26:38.107748 18746 net.cpp:454] res5a_branch2a_relu <- res5a_branch2a
I0319 09:26:38.107771 18746 net.cpp:397] res5a_branch2a_relu -> res5a_branch2a (in-place)
I0319 09:26:38.107797 18746 net.cpp:150] Setting up res5a_branch2a_relu
I0319 09:26:38.107820 18746 net.cpp:157] Top shape: 16 512 7 7 (401408)
I0319 09:26:38.107867 18746 net.cpp:165] Memory required for data: 3599828928
I0319 09:26:38.107887 18746 layer_factory.hpp:77] Creating layer res5a_branch2b
I0319 09:26:38.107920 18746 net.cpp:106] Creating Layer res5a_branch2b
I0319 09:26:38.107941 18746 net.cpp:454] res5a_branch2b <- res5a_branch2a
I0319 09:26:38.107965 18746 net.cpp:411] res5a_branch2b -> res5a_branch2b
I0319 09:26:38.119062 18746 net.cpp:150] Setting up res5a_branch2b
I0319 09:26:38.119115 18746 net.cpp:157] Top shape: 16 512 7 7 (401408)
I0319 09:26:38.119135 18746 net.cpp:165] Memory required for data: 3601434560
I0319 09:26:38.119159 18746 layer_factory.hpp:77] Creating layer bn5a_branch2b
I0319 09:26:38.119185 18746 net.cpp:106] Creating Layer bn5a_branch2b
I0319 09:26:38.119205 18746 net.cpp:454] bn5a_branch2b <- res5a_branch2b
I0319 09:26:38.119230 18746 net.cpp:397] bn5a_branch2b -> res5a_branch2b (in-place)
I0319 09:26:38.119696 18746 net.cpp:150] Setting up bn5a_branch2b
I0319 09:26:38.119731 18746 net.cpp:157] Top shape: 16 512 7 7 (401408)
I0319 09:26:38.119750 18746 net.cpp:165] Memory required for data: 3603040192
I0319 09:26:38.119784 18746 layer_factory.hpp:77] Creating layer scale5a_branch2b
I0319 09:26:38.119812 18746 net.cpp:106] Creating Layer scale5a_branch2b
I0319 09:26:38.119832 18746 net.cpp:454] scale5a_branch2b <- res5a_branch2b
I0319 09:26:38.119854 18746 net.cpp:397] scale5a_branch2b -> res5a_branch2b (in-place)
I0319 09:26:38.119969 18746 layer_factory.hpp:77] Creating layer scale5a_branch2b
I0319 09:26:38.120267 18746 net.cpp:150] Setting up scale5a_branch2b
I0319 09:26:38.120301 18746 net.cpp:157] Top shape: 16 512 7 7 (401408)
I0319 09:26:38.120319 18746 net.cpp:165] Memory required for data: 3604645824
I0319 09:26:38.120347 18746 layer_factory.hpp:77] Creating layer res5a_branch2b_relu
I0319 09:26:38.120376 18746 net.cpp:106] Creating Layer res5a_branch2b_relu
I0319 09:26:38.120398 18746 net.cpp:454] res5a_branch2b_relu <- res5a_branch2b
I0319 09:26:38.120420 18746 net.cpp:397] res5a_branch2b_relu -> res5a_branch2b (in-place)
I0319 09:26:38.120446 18746 net.cpp:150] Setting up res5a_branch2b_relu
I0319 09:26:38.120468 18746 net.cpp:157] Top shape: 16 512 7 7 (401408)
I0319 09:26:38.120486 18746 net.cpp:165] Memory required for data: 3606251456
I0319 09:26:38.120503 18746 layer_factory.hpp:77] Creating layer res5a_branch2c
I0319 09:26:38.120537 18746 net.cpp:106] Creating Layer res5a_branch2c
I0319 09:26:38.120556 18746 net.cpp:454] res5a_branch2c <- res5a_branch2b
I0319 09:26:38.120580 18746 net.cpp:411] res5a_branch2c -> res5a_branch2c
I0319 09:26:38.125912 18746 net.cpp:150] Setting up res5a_branch2c
I0319 09:26:38.125957 18746 net.cpp:157] Top shape: 16 2048 7 7 (1605632)
I0319 09:26:38.125977 18746 net.cpp:165] Memory required for data: 3612673984
I0319 09:26:38.126000 18746 layer_factory.hpp:77] Creating layer bn5a_branch2c
I0319 09:26:38.126030 18746 net.cpp:106] Creating Layer bn5a_branch2c
I0319 09:26:38.126052 18746 net.cpp:454] bn5a_branch2c <- res5a_branch2c
I0319 09:26:38.126076 18746 net.cpp:397] bn5a_branch2c -> res5a_branch2c (in-place)
I0319 09:26:38.126544 18746 net.cpp:150] Setting up bn5a_branch2c
I0319 09:26:38.126579 18746 net.cpp:157] Top shape: 16 2048 7 7 (1605632)
I0319 09:26:38.126597 18746 net.cpp:165] Memory required for data: 3619096512
…
I0319 09:26:38.328586 18746 net.cpp:454] id_res4d_branch2b <- id_res4d_branch2a
I0319 09:26:38.328610 18746 net.cpp:411] id_res4d_branch2b -> id_res4d_branch2b
I0319 09:26:38.331950 18746 net.cpp:150] Setting up id_res4d_branch2b
I0319 09:26:38.331993 18746 net.cpp:157] Top shape: 16 256 14 14 (802816)
I0319 09:26:38.332012 18746 net.cpp:165] Memory required for data: 7019956160
I0319 09:26:38.332036 18746 layer_factory.hpp:77] Creating layer id_bn4d_branch2b
I0319 09:26:38.332060 18746 net.cpp:106] Creating Layer id_bn4d_branch2b
I0319 09:26:38.332082 18746 net.cpp:454] id_bn4d_branch2b <- id_res4d_branch2b
I0319 09:26:38.332104 18746 net.cpp:397] id_bn4d_branch2b -> id_res4d_branch2b (in-place)
I0319 09:26:38.332562 18746 net.cpp:150] Setting up id_bn4d_branch2b
I0319 09:26:38.332597 18746 net.cpp:157] Top shape: 16 256 14 14 (802816)
I0319 09:26:38.332633 18746 net.cpp:165] Memory required for data: 7023167424
I0319 09:26:38.332674 18746 layer_factory.hpp:77] Creating layer id_scale4d_branch2b
I0319 09:26:38.332701 18746 net.cpp:106] Creating Layer id_scale4d_branch2b
I0319 09:26:38.332721 18746 net.cpp:454] id_scale4d_branch2b <- id_res4d_branch2b
I0319 09:26:38.332744 18746 net.cpp:397] id_scale4d_branch2b -> id_res4d_branch2b (in-place)
I0319 09:26:38.332864 18746 layer_factory.hpp:77] Creating layer id_scale4d_branch2b
I0319 09:26:38.333151 18746 net.cpp:150] Setting up id_scale4d_branch2b
I0319 09:26:38.333185 18746 net.cpp:157] Top shape: 16 256 14 14 (802816)
I0319 09:26:38.333204 18746 net.cpp:165] Memory required for data: 7026378688
I0319 09:26:38.333235 18746 layer_factory.hpp:77] Creating layer id_res4d_branch2b_relu
I0319 09:26:38.333266 18746 net.cpp:106] Creating Layer id_res4d_branch2b_relu
I0319 09:26:38.333287 18746 net.cpp:454] id_res4d_branch2b_relu <- id_res4d_branch2b
I0319 09:26:38.333308 18746 net.cpp:397] id_res4d_branch2b_relu -> id_res4d_branch2b (in-place)
I0319 09:26:38.333333 18746 net.cpp:150] Setting up id_res4d_branch2b_relu
I0319 09:26:38.333355 18746 net.cpp:157] Top shape: 16 256 14 14 (802816)
I0319 09:26:38.333372 18746 net.cpp:165] Memory required for data: 7029589952
I0319 09:26:38.333390 18746 layer_factory.hpp:77] Creating layer id_res4d_branch2c
I0319 09:26:38.333422 18746 net.cpp:106] Creating Layer id_res4d_branch2c
I0319 09:26:38.333442 18746 net.cpp:454] id_res4d_branch2c <- id_res4d_branch2b
I0319 09:26:38.333467 18746 net.cpp:411] id_res4d_branch2c -> id_res4d_branch2c
I0319 09:26:38.335331 18746 net.cpp:150] Setting up id_res4d_branch2c
I0319 09:26:38.335374 18746 net.cpp:157] Top shape: 16 1024 14 14 (3211264)
I0319 09:26:38.335393 18746 net.cpp:165] Memory required for data: 7042435008
I0319 09:26:38.335417 18746 layer_factory.hpp:77] Creating layer id_bn4d_branch2c
I0319 09:26:38.335446 18746 net.cpp:106] Creating Layer id_bn4d_branch2c
I0319 09:26:38.335469 18746 net.cpp:454] id_bn4d_branch2c <- id_res4d_branch2c
I0319 09:26:38.335491 18746 net.cpp:397] id_bn4d_branch2c -> id_res4d_branch2c (in-place)
I0319 09:26:38.335963 18746 net.cpp:150] Setting up id_bn4d_branch2c
I0319 09:26:38.335999 18746 net.cpp:157] Top shape: 16 1024 14 14 (3211264)
I0319 09:26:38.336030 18746 net.cpp:165] Memory required for data: 7055280064
I0319 09:26:38.336081 18746 layer_factory.hpp:77] Creating layer id_scale4d_branch2c
I0319 09:26:38.336114 18746 net.cpp:106] Creating Layer id_scale4d_branch2c
I0319 09:26:38.336135 18746 net.cpp:454] id_scale4d_branch2c <- id_res4d_branch2c
I0319 09:26:38.336159 18746 net.cpp:397] id_scale4d_branch2c -> id_res4d_branch2c (in-place)
I0319 09:26:38.336277 18746 layer_factory.hpp:77] Creating layer id_scale4d_branch2c
I0319 09:26:38.336587 18746 net.cpp:150] Setting up id_scale4d_branch2c
I0319 09:26:38.336634 18746 net.cpp:157] Top shape: 16 1024 14 14 (3211264)
I0319 09:26:38.336655 18746 net.cpp:165] Memory required for data: 7068125120
I0319 09:26:38.336681 18746 layer_factory.hpp:77] Creating layer id_res4d
I0319 09:26:38.336706 18746 net.cpp:106] Creating Layer id_res4d
I0319 09:26:38.336726 18746 net.cpp:454] id_res4d <- id_res4c_id_res4c_relu_0_split_1
I0319 09:26:38.336747 18746 net.cpp:454] id_res4d <- id_res4d_branch2c
I0319 09:26:38.336771 18746 net.cpp:411] id_res4d -> id_res4d
I0319 09:26:38.336851 18746 net.cpp:150] Setting up id_res4d
I0319 09:26:38.336882 18746 net.cpp:157] Top shape: 16 1024 14 14 (3211264)
I0319 09:26:38.336901 18746 net.cpp:165] Memory required for data: 7080970176
I0319 09:26:38.336920 18746 layer_factory.hpp:77] Creating layer id_res4d_relu
I0319 09:26:38.336946 18746 net.cpp:106] Creating Layer id_res4d_relu
I0319 09:26:38.336968 18746 net.cpp:454] id_res4d_relu <- id_res4d
I0319 09:26:38.336989 18746 net.cpp:397] id_res4d_relu -> id_res4d (in-place)
I0319 09:26:38.337015 18746 net.cpp:150] Setting up id_res4d_relu
I0319 09:26:38.337038 18746 net.cpp:157] Top shape: 16 1024 14 14 (3211264)
I0319 09:26:38.337055 18746 net.cpp:165] Memory required for data: 7093815232
I0319 09:26:38.337072 18746 layer_factory.hpp:77] Creating layer id_res4d_id_res4d_relu_0_split
I0319 09:26:38.337096 18746 net.cpp:106] Creating Layer id_res4d_id_res4d_relu_0_split
I0319 09:26:38.337116 18746 net.cpp:454] id_res4d_id_res4d_relu_0_split <- id_res4d
I0319 09:26:38.337142 18746 net.cpp:411] id_res4d_id_res4d_relu_0_split -> id_res4d_id_res4d_relu_0_split_0
I0319 09:26:38.337172 18746 net.cpp:411] id_res4d_id_res4d_relu_0_split -> id_res4d_id_res4d_relu_0_split_1
I0319 09:26:38.337268 18746 net.cpp:150] Setting up id_res4d_id_res4d_relu_0_split
I0319 09:26:38.337299 18746 net.cpp:157] Top shape: 16 1024 14 14 (3211264)
I0319 09:26:38.337321 18746 net.cpp:157] Top shape: 16 1024 14 14 (3211264)
I0319 09:26:38.337338 18746 net.cpp:165] Memory required for data: 7119505344
I0319 09:26:38.337357 18746 layer_factory.hpp:77] Creating layer id_res4e_branch2a
I0319 09:26:38.337388 18746 net.cpp:106] Creating Layer id_res4e_branch2a
I0319 09:26:38.337410 18746 net.cpp:454] id_res4e_branch2a <- id_res4d_id_res4d_relu_0_split_0
I0319 09:26:38.337435 18746 net.cpp:411] id_res4e_branch2a -> id_res4e_branch2a
I0319 09:26:38.339321 18746 net.cpp:150] Setting up id_res4e_branch2a
I0319 09:26:38.339363 18746 net.cpp:157] Top shape: 16 256 14 14 (802816)
I0319 09:26:38.339383 18746 net.cpp:165] Memory required for data: 7122716608
I0319 09:26:38.339406 18746 layer_factory.hpp:77] Creating layer id_bn4e_branch2a
I0319 09:26:38.339437 18746 net.cpp:106] Creating Layer id_bn4e_branch2a
I0319 09:26:38.339460 18746 net.cpp:454] id_bn4e_branch2a <- id_res4e_branch2a
I0319 09:26:38.339483 18746 net.cpp:397] id_bn4e_branch2a -> id_res4e_branch2a (in-place)
I0319 09:26:38.339933 18746 net.cpp:150] Setting up id_bn4e_branch2a
I0319 09:26:38.339967 18746 net.cpp:157] Top shape: 16 256 14 14 (802816)
I0319 09:26:38.339987 18746 net.cpp:165] Memory required for data: 7125927872
I0319 09:26:38.340016 18746 layer_factory.hpp:77] Creating layer id_scale4e_branch2a
I0319 09:26:38.340041 18746 net.cpp:106] Creating Layer id_scale4e_branch2a
I0319 09:26:38.340061 18746 net.cpp:454] id_scale4e_branch2a <- id_res4e_branch2a
I0319 09:26:38.340083 18746 net.cpp:397] id_scale4e_branch2a -> id_res4e_branch2a (in-place)
I0319 09:26:38.340203 18746 layer_factory.hpp:77] Creating layer id_scale4e_branch2a
I0319 09:26:38.340517 18746 net.cpp:150] Setting up id_scale4e_branch2a
I0319 09:26:38.340551 18746 net.cpp:157] Top shape: 16 256 14 14 (802816)
I0319 09:26:38.340569 18746 net.cpp:165] Memory required for data: 7129139136
I0319 09:26:38.340595 18746 layer_factory.hpp:77] Creating layer id_res4e_branch2a_relu
I0319 09:26:38.340638 18746 net.cpp:106] Creating Layer id_res4e_branch2a_relu
I0319 09:26:38.340663 18746 net.cpp:454] id_res4e_branch2a_relu <- id_res4e_branch2a
I0319 09:26:38.340685 18746 net.cpp:397] id_res4e_branch2a_relu -> id_res4e_branch2a (in-place)
I0319 09:26:38.340711 18746 net.cpp:150] Setting up id_res4e_branch2a_relu
I0319 09:26:38.340734 18746 net.cpp:157] Top shape: 16 256 14 14 (802816)
I0319 09:26:38.340750 18746 net.cpp:165] Memory required for data: 7132350400
I0319 09:26:38.340767 18746 layer_factory.hpp:77] Creating layer id_res4e_branch2b
I0319 09:26:38.340798 18746 net.cpp:106] Creating Layer id_res4e_branch2b
I0319 09:26:38.340818 18746 net.cpp:454] id_res4e_branch2b <- id_res4e_branch2a
I0319 09:26:38.340842 18746 net.cpp:411] id_res4e_branch2b -> id_res4e_branch2b
I0319 09:26:38.344139 18746 net.cpp:150] Setting up id_res4e_branch2b
I0319 09:26:38.344182 18746 net.cpp:157] Top shape: 16 256 14 14 (802816)
I0319 09:26:38.344202 18746 net.cpp:165] Memory required for data: 7135561664
I0319 09:26:38.344225 18746 layer_factory.hpp:77] Creating layer id_bn4e_branch2b
I0319 09:26:38.344251 18746 net.cpp:106] Creating Layer id_bn4e_branch2b
I0319 09:26:38.344271 18746 net.cpp:454] id_bn4e_branch2b <- id_res4e_branch2b
I0319 09:26:38.344295 18746 net.cpp:397] id_bn4e_branch2b -> id_res4e_branch2b (in-place)
I0319 09:26:38.344764 18746 net.cpp:150] Setting up id_bn4e_branch2b
I0319 09:26:38.344801 18746 net.cpp:157] Top shape: 16 256 14 14 (802816)
I0319 09:26:38.344820 18746 net.cpp:165] Memory required for data: 7138772928
I0319 09:26:38.344856 18746 layer_factory.hpp:77] Creating layer id_scale4e_branch2b
I0319 09:26:38.344883 18746 net.cpp:106] Creating Layer id_scale4e_branch2b
I0319 09:26:38.344903 18746 net.cpp:454] id_scale4e_branch2b <- id_res4e_branch2b
I0319 09:26:38.344925 18746 net.cpp:397] id_scale4e_branch2b -> id_res4e_branch2b (in-place)
I0319 09:26:38.345043 18746 layer_factory.hpp:77] Creating layer id_scale4e_branch2b
I0319 09:26:38.345332 18746 net.cpp:150] Setting up id_scale4e_branch2b
I0319 09:26:38.345366 18746 net.cpp:157] Top shape: 16 256 14 14 (802816)
I0319 09:26:38.345383 18746 net.cpp:165] Memory required for data: 7141984192
I0319 09:26:38.345409 18746 layer_factory.hpp:77] Creating layer id_res4e_branch2b_relu
I0319 09:26:38.345439 18746 net.cpp:106] Creating Layer id_res4e_branch2b_relu
I0319 09:26:38.345460 18746 net.cpp:454] id_res4e_branch2b_relu <- id_res4e_branch2b
I0319 09:26:38.345482 18746 net.cpp:397] id_res4e_branch2b_relu -> id_res4e_branch2b (in-place)
I0319 09:26:38.345508 18746 net.cpp:150] Setting up id_res4e_branch2b_relu
I0319 09:26:38.345531 18746 net.cpp:157] Top shape: 16 256 14 14 (802816)
I0319 09:26:38.345548 18746 net.cpp:165] Memory required for data: 7145195456
I0319 09:26:38.345566 18746 layer_factory.hpp:77] Creating layer id_res4e_branch2c
I0319 09:26:38.345598 18746 net.cpp:106] Creating Layer id_res4e_branch2c
I0319 09:26:38.345618 18746 net.cpp:454] id_res4e_branch2c <- id_res4e_branch2b
I0319 09:26:38.345643 18746 net.cpp:411] id_res4e_branch2c -> id_res4e_branch2c
I0319 09:26:38.347532 18746 net.cpp:150] Setting up id_res4e_branch2c
I0319 09:26:38.347574 18746 net.cpp:157] Top shape: 16 1024 14 14 (3211264)
I0319 09:26:38.347594 18746 net.cpp:165] Memory required for data: 7158040512
I0319 09:26:38.347617 18746 layer_factory.hpp:77] Creating layer id_bn4e_branch2c
I0319 09:26:38.347647 18746 net.cpp:106] Creating Layer id_bn4e_branch2c
I0319 09:26:38.347669 18746 net.cpp:454] id_bn4e_branch2c <- id_res4e_branch2c
I0319 09:26:38.347692 18746 net.cpp:397] id_bn4e_branch2c -> id_res4e_branch2c (in-place)
I0319 09:26:38.348170 18746 net.cpp:150] Setting up id_bn4e_branch2c
I0319 09:26:38.348204 18746 net.cpp:157] Top shape: 16 1024 14 14 (3211264)
I0319 09:26:38.348253 18746 net.cpp:165] Memory required for data: 7170885568
I0319 09:26:38.348285 18746 layer_factory.hpp:77] Creating layer id_scale4e_branch2c
I0319 09:26:38.348311 18746 net.cpp:106] Creating Layer id_scale4e_branch2c
I0319 09:26:38.348331 18746 net.cpp:454] id_scale4e_branch2c <- id_res4e_branch2c
I0319 09:26:38.348359 18746 net.cpp:397] id_scale4e_branch2c -> id_res4e_branch2c (in-place)
I0319 09:26:38.348479 18746 layer_factory.hpp:77] Creating layer id_scale4e_branch2c
I0319 09:26:38.348809 18746 net.cpp:150] Setting up id_scale4e_branch2c
I0319 09:26:38.348846 18746 net.cpp:157] Top shape: 16 1024 14 14 (3211264)
I0319 09:26:38.348865 18746 net.cpp:165] Memory required for data: 7183730624
I0319 09:26:38.348891 18746 layer_factory.hpp:77] Creating layer id_res4e
I0319 09:26:38.348915 18746 net.cpp:106] Creating Layer id_res4e
I0319 09:26:38.348939 18746 net.cpp:454] id_res4e <- id_res4d_id_res4d_relu_0_split_1
I0319 09:26:38.348961 18746 net.cpp:454] id_res4e <- id_res4e_branch2c
I0319 09:26:38.348984 18746 net.cpp:411] id_res4e -> id_res4e
I0319 09:26:38.349063 18746 net.cpp:150] Setting up id_res4e
I0319 09:26:38.349094 18746 net.cpp:157] Top shape: 16 1024 14 14 (3211264)
I0319 09:26:38.349112 18746 net.cpp:165] Memory required for data: 7196575680
I0319 09:26:38.349130 18746 layer_factory.hpp:77] Creating layer id_res4e_relu
I0319 09:26:38.349156 18746 net.cpp:106] Creating Layer id_res4e_relu
I0319 09:26:38.349177 18746 net.cpp:454] id_res4e_relu <- id_res4e
I0319 09:26:38.349198 18746 net.cpp:397] id_res4e_relu -> id_res4e (in-place)
I0319 09:26:38.349225 18746 net.cpp:150] Setting up id_res4e_relu
I0319 09:26:38.349246 18746 net.cpp:157] Top shape: 16 1024 14 14 (3211264)
I0319 09:26:38.349263 18746 net.cpp:165] Memory required for data: 7209420736
I0319 09:26:38.349282 18746 layer_factory.hpp:77] Creating layer id_res4e_id_res4e_relu_0_split
I0319 09:26:38.349303 18746 net.cpp:106] Creating Layer id_res4e_id_res4e_relu_0_split
I0319 09:26:38.349320 18746 net.cpp:454] id_res4e_id_res4e_relu_0_split <- id_res4e
I0319 09:26:38.349349 18746 net.cpp:411] id_res4e_id_res4e_relu_0_split -> id_res4e_id_res4e_relu_0_split_0
I0319 09:26:38.349376 18746 net.cpp:411] id_res4e_id_res4e_relu_0_split -> id_res4e_id_res4e_relu_0_split_1
I0319 09:26:38.349475 18746 net.cpp:150] Setting up id_res4e_id_res4e_relu_0_split
I0319 09:26:38.349506 18746 net.cpp:157] Top shape: 16 1024 14 14 (3211264)
I0319 09:26:38.349527 18746 net.cpp:157] Top shape: 16 1024 14 14 (3211264)
I0319 09:26:38.349545 18746 net.cpp:165] Memory required for data: 7235110848
I0319 09:26:38.349562 18746 layer_factory.hpp:77] Creating layer id_res4f_branch2a
I0319 09:26:38.349594 18746 net.cpp:106] Creating Layer id_res4f_branch2a
I0319 09:26:38.349617 18746 net.cpp:454] id_res4f_branch2a <- id_res4e_id_res4e_relu_0_split_0
I0319 09:26:38.349640 18746 net.cpp:411] id_res4f_branch2a -> id_res4f_branch2a
I0319 09:26:38.351516 18746 net.cpp:150] Setting up id_res4f_branch2a
I0319 09:26:38.351558 18746 net.cpp:157] Top shape: 16 256 14 14 (802816)
I0319 09:26:38.351578 18746 net.cpp:165] Memory required for data: 7238322112
I0319 09:26:38.351601 18746 layer_factory.hpp:77] Creating layer id_bn4f_branch2a
I0319 09:26:38.351634 18746 net.cpp:106] Creating Layer id_bn4f_branch2a
I0319 09:26:38.351655 18746 net.cpp:454] id_bn4f_branch2a <- id_res4f_branch2a
I0319 09:26:38.351680 18746 net.cpp:397] id_bn4f_branch2a -> id_res4f_branch2a (in-place)
I0319 09:26:38.352133 18746 net.cpp:150] Setting up id_bn4f_branch2a
I0319 09:26:38.352169 18746 net.cpp:157] Top shape: 16 256 14 14 (802816)
I0319 09:26:38.352186 18746 net.cpp:165] Memory required for data: 7241533376
I0319 09:26:38.352216 18746 layer_factory.hpp:77] Creating layer id_scale4f_branch2a
I0319 09:26:38.352242 18746 net.cpp:106] Creating Layer id_scale4f_branch2a
I0319 09:26:38.352262 18746 net.cpp:454] id_scale4f_branch2a <- id_res4f_branch2a
I0319 09:26:38.352284 18746 net.cpp:397] id_scale4f_branch2a -> id_res4f_branch2a (in-place)
I0319 09:26:38.352416 18746 layer_factory.hpp:77] Creating layer id_scale4f_branch2a
I0319 09:26:38.352751 18746 net.cpp:150] Setting up id_scale4f_branch2a
I0319 09:26:38.352788 18746 net.cpp:157] Top shape: 16 256 14 14 (802816)
I0319 09:26:38.352807 18746 net.cpp:165] Memory required for data: 7244744640
I0319 09:26:38.352834 18746 layer_factory.hpp:77] Creating layer id_res4f_branch2a_relu
I0319 09:26:38.352864 18746 net.cpp:106] Creating Layer id_res4f_branch2a_relu
I0319 09:26:38.352885 18746 net.cpp:454] id_res4f_branch2a_relu <- id_res4f_branch2a
I0319 09:26:38.352907 18746 net.cpp:397] id_res4f_branch2a_relu -> id_res4f_branch2a (in-place)
I0319 09:26:38.352932 18746 net.cpp:150] Setting up id_res4f_branch2a_relu
I0319 09:26:38.352955 18746 net.cpp:157] Top shape: 16 256 14 14 (802816)
I0319 09:26:38.352972 18746 net.cpp:165] Memory required for data: 7247955904
I0319 09:26:38.352990 18746 layer_factory.hpp:77] Creating layer id_res4f_branch2b
I0319 09:26:38.353021 18746 net.cpp:106] Creating Layer id_res4f_branch2b
I0319 09:26:38.353044 18746 net.cpp:454] id_res4f_branch2b <- id_res4f_branch2a
I0319 09:26:38.353067 18746 net.cpp:411] id_res4f_branch2b -> id_res4f_branch2b
I0319 09:26:38.356391 18746 net.cpp:150] Setting up id_res4f_branch2b
I0319 09:26:38.356434 18746 net.cpp:157] Top shape: 16 256 14 14 (802816)
I0319 09:26:38.356454 18746 net.cpp:165] Memory required for data: 7251167168
I0319 09:26:38.356478 18746 layer_factory.hpp:77] Creating layer id_bn4f_branch2b
I0319 09:26:38.356503 18746 net.cpp:106] Creating Layer id_bn4f_branch2b
I0319 09:26:38.356524 18746 net.cpp:454] id_bn4f_branch2b <- id_res4f_branch2b
I0319 09:26:38.356546 18746 net.cpp:397] id_bn4f_branch2b -> id_res4f_branch2b (in-place)
I0319 09:26:38.357023 18746 net.cpp:150] Setting up id_bn4f_branch2b
I0319 09:26:38.357059 18746 net.cpp:157] Top shape: 16 256 14 14 (802816)
I0319 09:26:38.357079 18746 net.cpp:165] Memory required for data: 7254378432
I0319 09:26:38.357113 18746 layer_factory.hpp:77] Creating layer id_scale4f_branch2b
I0319 09:26:38.357141 18746 net.cpp:106] Creating Layer id_scale4f_branch2b
I0319 09:26:38.357161 18746 net.cpp:454] id_scale4f_branch2b <- id_res4f_branch2b
I0319 09:26:38.357183 18746 net.cpp:397] id_scale4f_branch2b -> id_res4f_branch2b (in-place)
I0319 09:26:38.357305 18746 layer_factory.hpp:77] Creating layer id_scale4f_branch2b
I0319 09:26:38.357597 18746 net.cpp:150] Setting up id_scale4f_branch2b
I0319 09:26:38.357630 18746 net.cpp:157] Top shape: 16 256 14 14 (802816)
I0319 09:26:38.357650 18746 net.cpp:165] Memory required for data: 7257589696
I0319 09:26:38.357676 18746 layer_factory.hpp:77] Creating layer id_res4f_branch2b_relu
I0319 09:26:38.357705 18746 net.cpp:106] Creating Layer id_res4f_branch2b_relu
I0319 09:26:38.357725 18746 net.cpp:454] id_res4f_branch2b_relu <- id_res4f_branch2b
I0319 09:26:38.357748 18746 net.cpp:397] id_res4f_branch2b_relu -> id_res4f_branch2b (in-place)
I0319 09:26:38.357772 18746 net.cpp:150] Setting up id_res4f_branch2b_relu
I0319 09:26:38.357795 18746 net.cpp:157] Top shape: 16 256 14 14 (802816)
I0319 09:26:38.357812 18746 net.cpp:165] Memory required for data: 7260800960
I0319 09:26:38.357831 18746 layer_factory.hpp:77] Creating layer id_res4f_branch2c
I0319 09:26:38.357862 18746 net.cpp:106] Creating Layer id_res4f_branch2c
I0319 09:26:38.357882 18746 net.cpp:454] id_res4f_branch2c <- id_res4f_branch2b
I0319 09:26:38.357906 18746 net.cpp:411] id_res4f_branch2c -> id_res4f_branch2c
I0319 09:26:38.359784 18746 net.cpp:150] Setting up id_res4f_branch2c
I0319 09:26:38.359827 18746 net.cpp:157] Top shape: 16 1024 14 14 (3211264)
I0319 09:26:38.359845 18746 net.cpp:165] Memory required for data: 7273646016
I0319 09:26:38.359869 18746 layer_factory.hpp:77] Creating layer id_bn4f_branch2c
I0319 09:26:38.359900 18746 net.cpp:106] Creating Layer id_bn4f_branch2c
I0319 09:26:38.359922 18746 net.cpp:454] id_bn4f_branch2c <- id_res4f_branch2c
I0319 09:26:38.359946 18746 net.cpp:397] id_bn4f_branch2c -> id_res4f_branch2c (in-place)
I0319 09:26:38.360430 18746 net.cpp:150] Setting up id_bn4f_branch2c
I0319 09:26:38.360476 18746 net.cpp:157] Top shape: 16 1024 14 14 (3211264)
I0319 09:26:38.360517 18746 net.cpp:165] Memory required for data: 7286491072
I0319 09:26:38.360548 18746 layer_factory.hpp:77] Creating layer id_scale4f_branch2c
I0319 09:26:38.360575 18746 net.cpp:106] Creating Layer id_scale4f_branch2c
I0319 09:26:38.360594 18746 net.cpp:454] id_scale4f_branch2c <- id_res4f_branch2c
I0319 09:26:38.360642 18746 net.cpp:397] id_scale4f_branch2c -> id_res4f_branch2c (in-place)
I0319 09:26:38.360772 18746 layer_factory.hpp:77] Creating layer id_scale4f_branch2c
I0319 09:26:38.361090 18746 net.cpp:150] Setting up id_scale4f_branch2c
I0319 09:26:38.361125 18746 net.cpp:157] Top shape: 16 1024 14 14 (3211264)
I0319 09:26:38.361143 18746 net.cpp:165] Memory required for data: 7299336128
I0319 09:26:38.361169 18746 layer_factory.hpp:77] Creating layer id_res4f
I0319 09:26:38.361193 18746 net.cpp:106] Creating Layer id_res4f
I0319 09:26:38.361213 18746 net.cpp:454] id_res4f <- id_res4e_id_res4e_relu_0_split_1
I0319 09:26:38.361234 18746 net.cpp:454] id_res4f <- id_res4f_branch2c
I0319 09:26:38.361258 18746 net.cpp:411] id_res4f -> id_res4f
I0319 09:26:38.361338 18746 net.cpp:150] Setting up id_res4f
I0319 09:26:38.361368 18746 net.cpp:157] Top shape: 16 1024 14 14 (3211264)
I0319 09:26:38.361387 18746 net.cpp:165] Memory required for data: 7312181184
I0319 09:26:38.361405 18746 layer_factory.hpp:77] Creating layer id_res4f_relu
I0319 09:26:38.361433 18746 net.cpp:106] Creating Layer id_res4f_relu
I0319 09:26:38.361454 18746 net.cpp:454] id_res4f_relu <- id_res4f
I0319 09:26:38.361479 18746 net.cpp:411] id_res4f_relu -> id_R4_res4f
I0319 09:26:38.361557 18746 net.cpp:150] Setting up id_res4f_relu
I0319 09:26:38.361588 18746 net.cpp:157] Top shape: 16 1024 14 14 (3211264)
I0319 09:26:38.361606 18746 net.cpp:165] Memory required for data: 7325026240
I0319 09:26:38.361625 18746 layer_factory.hpp:77] Creating layer id_R4_res4f_id_res4f_relu_0_split
I0319 09:26:38.361649 18746 net.cpp:106] Creating Layer id_R4_res4f_id_res4f_relu_0_split
I0319 09:26:38.361667 18746 net.cpp:454] id_R4_res4f_id_res4f_relu_0_split <- id_R4_res4f
I0319 09:26:38.361690 18746 net.cpp:411] id_R4_res4f_id_res4f_relu_0_split -> id_R4_res4f_id_res4f_relu_0_split_0
I0319 09:26:38.361716 18746 net.cpp:411] id_R4_res4f_id_res4f_relu_0_split -> id_R4_res4f_id_res4f_relu_0_split_1
I0319 09:26:38.361819 18746 net.cpp:150] Setting up id_R4_res4f_id_res4f_relu_0_split
I0319 09:26:38.361850 18746 net.cpp:157] Top shape: 16 1024 14 14 (3211264)
I0319 09:26:38.361871 18746 net.cpp:157] Top shape: 16 1024 14 14 (3211264)
I0319 09:26:38.361887 18746 net.cpp:165] Memory required for data: 7350716352
I0319 09:26:38.361906 18746 layer_factory.hpp:77] Creating layer id_res5a_branch1
I0319 09:26:38.361932 18746 net.cpp:106] Creating Layer id_res5a_branch1
I0319 09:26:38.361953 18746 net.cpp:454] id_res5a_branch1 <- id_R4_res4f_id_res4f_relu_0_split_0
I0319 09:26:38.361982 18746 net.cpp:411] id_res5a_branch1 -> id_res5a_branch1
I0319 09:26:38.371908 18746 net.cpp:150] Setting up id_res5a_branch1
I0319 09:26:38.371955 18746 net.cpp:157] Top shape: 16 2048 7 7 (1605632)
I0319 09:26:38.371974 18746 net.cpp:165] Memory required for data: 7357138880
I0319 09:26:38.371999 18746 layer_factory.hpp:77] Creating layer id_bn5a_branch1
I0319 09:26:38.372025 18746 net.cpp:106] Creating Layer id_bn5a_branch1
I0319 09:26:38.372046 18746 net.cpp:454] id_bn5a_branch1 <- id_res5a_branch1
I0319 09:26:38.372068 18746 net.cpp:397] id_bn5a_branch1 -> id_res5a_branch1 (in-place)
I0319 09:26:38.372588 18746 net.cpp:150] Setting up id_bn5a_branch1
I0319 09:26:38.372637 18746 net.cpp:157] Top shape: 16 2048 7 7 (1605632)
I0319 09:26:38.372659 18746 net.cpp:165] Memory required for data: 7363561408
I0319 09:26:38.372696 18746 layer_factory.hpp:77] Creating layer id_scale5a_branch1
I0319 09:26:38.372723 18746 net.cpp:106] Creating Layer id_scale5a_branch1
I0319 09:26:38.372745 18746 net.cpp:454] id_scale5a_branch1 <- id_res5a_branch1
I0319 09:26:38.372767 18746 net.cpp:397] id_scale5a_branch1 -> id_res5a_branch1 (in-place)
I0319 09:26:38.372927 18746 layer_factory.hpp:77] Creating layer id_scale5a_branch1
I0319 09:26:38.373247 18746 net.cpp:150] Setting up id_scale5a_branch1
I0319 09:26:38.373282 18746 net.cpp:157] Top shape: 16 2048 7 7 (1605632)
I0319 09:26:38.373301 18746 net.cpp:165] Memory required for data: 7369983936
I0319 09:26:38.373327 18746 layer_factory.hpp:77] Creating layer id_res5a_branch2a
I0319 09:26:38.373361 18746 net.cpp:106] Creating Layer id_res5a_branch2a
I0319 09:26:38.373384 18746 net.cpp:454] id_res5a_branch2a <- id_R4_res4f_id_res4f_relu_0_split_1
I0319 09:26:38.373414 18746 net.cpp:411] id_res5a_branch2a -> id_res5a_branch2a
I0319 09:26:38.376417 18746 net.cpp:150] Setting up id_res5a_branch2a
I0319 09:26:38.376461 18746 net.cpp:157] Top shape: 16 512 7 7 (401408)
I0319 09:26:38.376479 18746 net.cpp:165] Memory required for data: 7371589568
I0319 09:26:38.376503 18746 layer_factory.hpp:77] Creating layer id_bn5a_branch2a
I0319 09:26:38.376528 18746 net.cpp:106] Creating Layer id_bn5a_branch2a
I0319 09:26:38.376549 18746 net.cpp:454] id_bn5a_branch2a <- id_res5a_branch2a
I0319 09:26:38.376585 18746 net.cpp:397] id_bn5a_branch2a -> id_res5a_branch2a (in-place)
I0319 09:26:38.377090 18746 net.cpp:150] Setting up id_bn5a_branch2a
I0319 09:26:38.377128 18746 net.cpp:157] Top shape: 16 512 7 7 (401408)
I0319 09:26:38.377147 18746 net.cpp:165] Memory required for data: 7373195200
I0319 09:26:38.377177 18746 layer_factory.hpp:77] Creating layer id_scale5a_branch2a
I0319 09:26:38.377204 18746 net.cpp:106] Creating Layer id_scale5a_branch2a
I0319 09:26:38.377225 18746 net.cpp:454] id_scale5a_branch2a <- id_res5a_branch2a
I0319 09:26:38.377248 18746 net.cpp:397] id_scale5a_branch2a -> id_res5a_branch2a (in-place)
I0319 09:26:38.377372 18746 layer_factory.hpp:77] Creating layer id_scale5a_branch2a
I0319 09:26:38.377684 18746 net.cpp:150] Setting up id_scale5a_branch2a
I0319 09:26:38.377718 18746 net.cpp:157] Top shape: 16 512 7 7 (401408)
I0319 09:26:38.377737 18746 net.cpp:165] Memory required for data: 7374800832
I0319 09:26:38.377761 18746 layer_factory.hpp:77] Creating layer id_res5a_branch2a_relu
I0319 09:26:38.377786 18746 net.cpp:106] Creating Layer id_res5a_branch2a_relu
I0319 09:26:38.377812 18746 net.cpp:454] id_res5a_branch2a_relu <- id_res5a_branch2a
I0319 09:26:38.377835 18746 net.cpp:397] id_res5a_branch2a_relu -> id_res5a_branch2a (in-place)
I0319 09:26:38.377861 18746 net.cpp:150] Setting up id_res5a_branch2a_relu
I0319 09:26:38.377883 18746 net.cpp:157] Top shape: 16 512 7 7 (401408)
I0319 09:26:38.377900 18746 net.cpp:165] Memory required for data: 7376406464
I0319 09:26:38.377919 18746 layer_factory.hpp:77] Creating layer id_res5a_branch2b
I0319 09:26:38.377945 18746 net.cpp:106] Creating Layer id_res5a_branch2b
I0319 09:26:38.377964 18746 net.cpp:454] id_res5a_branch2b <- id_res5a_branch2a
I0319 09:26:38.377995 18746 net.cpp:411] id_res5a_branch2b -> id_res5a_branch2b
I0319 09:26:38.389070 18746 net.cpp:150] Setting up id_res5a_branch2b
I0319 09:26:38.389122 18746 net.cpp:157] Top shape: 16 512 7 7 (401408)
I0319 09:26:38.389140 18746 net.cpp:165] Memory required for data: 7378012096
I0319 09:26:38.389165 18746 layer_factory.hpp:77] Creating layer id_bn5a_branch2b
I0319 09:26:38.389190 18746 net.cpp:106] Creating Layer id_bn5a_branch2b
I0319 09:26:38.389212 18746 net.cpp:454] id_bn5a_branch2b <- id_res5a_branch2b
I0319 09:26:38.389235 18746 net.cpp:397] id_bn5a_branch2b -> id_res5a_branch2b (in-place)
I0319 09:26:38.389734 18746 net.cpp:150] Setting up id_bn5a_branch2b
I0319 09:26:38.389770 18746 net.cpp:157] Top shape: 16 512 7 7 (401408)
I0319 09:26:38.389787 18746 net.cpp:165] Memory required for data: 7379617728
I0319 09:26:38.389822 18746 layer_factory.hpp:77] Creating layer id_scale5a_branch2b
I0319 09:26:38.389850 18746 net.cpp:106] Creating Layer id_scale5a_branch2b
I0319 09:26:38.389870 18746 net.cpp:454] id_scale5a_branch2b <- id_res5a_branch2b
I0319 09:26:38.389894 18746 net.cpp:397] id_scale5a_branch2b -> id_res5a_branch2b (in-place)
I0319 09:26:38.390033 18746 layer_factory.hpp:77] Creating layer id_scale5a_branch2b
I0319 09:26:38.390378 18746 net.cpp:150] Setting up id_scale5a_branch2b
I0319 09:26:38.390413 18746 net.cpp:157] Top shape: 16 512 7 7 (401408)
I0319 09:26:38.390432 18746 net.cpp:165] Memory required for data: 7381223360
I0319 09:26:38.390458 18746 layer_factory.hpp:77] Creating layer id_res5a_branch2b_relu
I0319 09:26:38.390488 18746 net.cpp:106] Creating Layer id_res5a_branch2b_relu
I0319 09:26:38.390509 18746 net.cpp:454] id_res5a_branch2b_relu <- id_res5a_branch2b
I0319 09:26:38.390532 18746 net.cpp:397] id_res5a_branch2b_relu -> id_res5a_branch2b (in-place)
I0319 09:26:38.390558 18746 net.cpp:150] Setting up id_res5a_branch2b_relu
I0319 09:26:38.390580 18746 net.cpp:157] Top shape: 16 512 7 7 (401408)
I0319 09:26:38.390597 18746 net.cpp:165] Memory required for data: 7382828992
I0319 09:26:38.390615 18746 layer_factory.hpp:77] Creating layer id_res5a_branch2c
I0319 09:26:38.390648 18746 net.cpp:106] Creating Layer id_res5a_branch2c
I0319 09:26:38.390669 18746 net.cpp:454] id_res5a_branch2c <- id_res5a_branch2b
I0319 09:26:38.390693 18746 net.cpp:411] id_res5a_branch2c -> id_res5a_branch2c
I0319 09:26:38.396100 18746 net.cpp:150] Setting up id_res5a_branch2c
I0319 09:26:38.396147 18746 net.cpp:157] Top shape: 16 2048 7 7 (1605632)
I0319 09:26:38.396165 18746 net.cpp:165] Memory required for data: 7389251520
I0319 09:26:38.396190 18746 layer_factory.hpp:77] Creating layer id_bn5a_branch2c
I0319 09:26:38.396221 18746 net.cpp:106] Creating Layer id_bn5a_branch2c
I0319 09:26:38.396244 18746 net.cpp:454] id_bn5a_branch2c <- id_res5a_branch2c
I0319 09:26:38.396267 18746 net.cpp:397] id_bn5a_branch2c -> id_res5a_branch2c (in-place)
I0319 09:26:38.396777 18746 net.cpp:150] Setting up id_bn5a_branch2c
I0319 09:26:38.396816 18746 net.cpp:157] Top shape: 16 2048 7 7 (1605632)
I0319 09:26:38.396834 18746 net.cpp:165] Memory required for data: 7395674048
I0319 09:26:38.396865 18746 layer_factory.hpp:77] Creating layer id_scale5a_branch2c
I0319 09:26:38.396891 18746 net.cpp:106] Creating Layer id_scale5a_branch2c
I0319 09:26:38.396911 18746 net.cpp:454] id_scale5a_branch2c <- id_res5a_branch2c
I0319 09:26:38.396939 18746 net.cpp:397] id_scale5a_branch2c -> id_res5a_branch2c (in-place)
I0319 09:26:38.397060 18746 layer_factory.hpp:77] Creating layer id_scale5a_branch2c
I0319 09:26:38.397382 18746 net.cpp:150] Setting up id_scale5a_branch2c
I0319 09:26:38.397418 18746 net.cpp:157] Top shape: 16 2048 7 7 (1605632)
I0319 09:26:38.397435 18746 net.cpp:165] Memory required for data: 7402096576
I0319 09:26:38.397460 18746 layer_factory.hpp:77] Creating layer id_res5a
I0319 09:26:38.397485 18746 net.cpp:106] Creating Layer id_res5a
I0319 09:26:38.397505 18746 net.cpp:454] id_res5a <- id_res5a_branch1
I0319 09:26:38.397526 18746 net.cpp:454] id_res5a <- id_res5a_branch2c
I0319 09:26:38.397549 18746 net.cpp:411] id_res5a -> id_res5a
I0319 09:26:38.397630 18746 net.cpp:150] Setting up id_res5a
I0319 09:26:38.397662 18746 net.cpp:157] Top shape: 16 2048 7 7 (1605632)
I0319 09:26:38.397680 18746 net.cpp:165] Memory required for data: 7408519104
I0319 09:26:38.397698 18746 layer_factory.hpp:77] Creating layer id_res5a_relu
I0319 09:26:38.397724 18746 net.cpp:106] Creating Layer id_res5a_relu
I0319 09:26:38.397745 18746 net.cpp:454] id_res5a_relu <- id_res5a
I0319 09:26:38.397768 18746 net.cpp:397] id_res5a_relu -> id_res5a (in-place)
I0319 09:26:38.397794 18746 net.cpp:150] Setting up id_res5a_relu
I0319 09:26:38.397816 18746 net.cpp:157] Top shape: 16 2048 7 7 (1605632)
I0319 09:26:38.397833 18746 net.cpp:165] Memory required for data: 7414941632
I0319 09:26:38.397851 18746 layer_factory.hpp:77] Creating layer id_res5a_id_res5a_relu_0_split
I0319 09:26:38.397874 18746 net.cpp:106] Creating Layer id_res5a_id_res5a_relu_0_split
I0319 09:26:38.397892 18746 net.cpp:454] id_res5a_id_res5a_relu_0_split <- id_res5a
I0319 09:26:38.397914 18746 net.cpp:411] id_res5a_id_res5a_relu_0_split -> id_res5a_id_res5a_relu_0_split_0
I0319 09:26:38.397946 18746 net.cpp:411] id_res5a_id_res5a_relu_0_split -> id_res5a_id_res5a_relu_0_split_1
I0319 09:26:38.398080 18746 net.cpp:150] Setting up id_res5a_id_res5a_relu_0_split
I0319 09:26:38.398113 18746 net.cpp:157] Top shape: 16 2048 7 7 (1605632)
I0319 09:26:38.398135 18746 net.cpp:157] Top shape: 16 2048 7 7 (1605632)
I0319 09:26:38.398151 18746 net.cpp:165] Memory required for data: 7427786688
I0319 09:26:38.398170 18746 layer_factory.hpp:77] Creating layer id_res5b_branch2a
I0319 09:26:38.398203 18746 net.cpp:106] Creating Layer id_res5b_branch2a
I0319 09:26:38.398226 18746 net.cpp:454] id_res5b_branch2a <- id_res5a_id_res5a_relu_0_split_0
I0319 09:26:38.398250 18746 net.cpp:411] id_res5b_branch2a -> id_res5b_branch2a
I0319 09:26:38.403563 18746 net.cpp:150] Setting up id_res5b_branch2a
I0319 09:26:38.403609 18746 net.cpp:157] Top shape: 16 512 7 7 (401408)
I0319 09:26:38.403627 18746 net.cpp:165] Memory required for data: 7429392320
I0319 09:26:38.403651 18746 layer_factory.hpp:77] Creating layer id_bn5b_branch2a
I0319 09:26:38.403676 18746 net.cpp:106] Creating Layer id_bn5b_branch2a
I0319 09:26:38.403698 18746 net.cpp:454] id_bn5b_branch2a <- id_res5b_branch2a
I0319 09:26:38.403726 18746 net.cpp:397] id_bn5b_branch2a -> id_res5b_branch2a (in-place)
I0319 09:26:38.404209 18746 net.cpp:150] Setting up id_bn5b_branch2a
I0319 09:26:38.404244 18746 net.cpp:157] Top shape: 16 512 7 7 (401408)
I0319 09:26:38.404263 18746 net.cpp:165] Memory required for data: 7430997952
I0319 09:26:38.404292 18746 layer_factory.hpp:77] Creating layer id_scale5b_branch2a
I0319 09:26:38.404319 18746 net.cpp:106] Creating Layer id_scale5b_branch2a
I0319 09:26:38.404338 18746 net.cpp:454] id_scale5b_branch2a <- id_res5b_branch2a
I0319 09:26:38.404361 18746 net.cpp:397] id_scale5b_branch2a -> id_res5b_branch2a (in-place)
I0319 09:26:38.404486 18746 layer_factory.hpp:77] Creating layer id_scale5b_branch2a
I0319 09:26:38.404827 18746 net.cpp:150] Setting up id_scale5b_branch2a
I0319 09:26:38.404865 18746 net.cpp:157] Top shape: 16 512 7 7 (401408)
I0319 09:26:38.404884 18746 net.cpp:165] Memory required for data: 7432603584
I0319 09:26:38.404911 18746 layer_factory.hpp:77] Creating layer id_res5b_branch2a_relu
I0319 09:26:38.404934 18746 net.cpp:106] Creating Layer id_res5b_branch2a_relu
I0319 09:26:38.404954 18746 net.cpp:454] id_res5b_branch2a_relu <- id_res5b_branch2a
I0319 09:26:38.404981 18746 net.cpp:397] id_res5b_branch2a_relu -> id_res5b_branch2a (in-place)
I0319 09:26:38.405009 18746 net.cpp:150] Setting up id_res5b_branch2a_relu
I0319 09:26:38.405032 18746 net.cpp:157] Top shape: 16 512 7 7 (401408)
I0319 09:26:38.405050 18746 net.cpp:165] Memory required for data: 7434209216
I0319 09:26:38.405067 18746 layer_factory.hpp:77] Creating layer id_res5b_branch2b
I0319 09:26:38.405094 18746 net.cpp:106] Creating Layer id_res5b_branch2b
I0319 09:26:38.405113 18746 net.cpp:454] id_res5b_branch2b <- id_res5b_branch2a
I0319 09:26:38.405143 18746 net.cpp:411] id_res5b_branch2b -> id_res5b_branch2b
I0319 09:26:38.416183 18746 net.cpp:150] Setting up id_res5b_branch2b
I0319 09:26:38.416234 18746 net.cpp:157] Top shape: 16 512 7 7 (401408)
I0319 09:26:38.416252 18746 net.cpp:165] Memory required for data: 7435814848
I0319 09:26:38.416276 18746 layer_factory.hpp:77] Creating layer id_bn5b_branch2b
I0319 09:26:38.416301 18746 net.cpp:106] Creating Layer id_bn5b_branch2b
I0319 09:26:38.416322 18746 net.cpp:454] id_bn5b_branch2b <- id_res5b_branch2b
I0319 09:26:38.416347 18746 net.cpp:397] id_bn5b_branch2b -> id_res5b_branch2b (in-place)
I0319 09:26:38.416860 18746 net.cpp:150] Setting up id_bn5b_branch2b
I0319 09:26:38.416898 18746 net.cpp:157] Top shape: 16 512 7 7 (401408)
I0319 09:26:38.416916 18746 net.cpp:165] Memory required for data: 7437420480
I0319 09:26:38.416954 18746 layer_factory.hpp:77] Creating layer id_scale5b_branch2b
I0319 09:26:38.416981 18746 net.cpp:106] Creating Layer id_scale5b_branch2b
I0319 09:26:38.417001 18746 net.cpp:454] id_scale5b_branch2b <- id_res5b_branch2b
I0319 09:26:38.417024 18746 net.cpp:397] id_scale5b_branch2b -> id_res5b_branch2b (in-place)
I0319 09:26:38.417166 18746 layer_factory.hpp:77] Creating layer id_scale5b_branch2b
I0319 09:26:38.417512 18746 net.cpp:150] Setting up id_scale5b_branch2b
I0319 09:26:38.417547 18746 net.cpp:157] Top shape: 16 512 7 7 (401408)
I0319 09:26:38.417567 18746 net.cpp:165] Memory required for data: 7439026112
I0319 09:26:38.417593 18746 layer_factory.hpp:77] Creating layer id_res5b_branch2b_relu
I0319 09:26:38.417623 18746 net.cpp:106] Creating Layer id_res5b_branch2b_relu
I0319 09:26:38.417644 18746 net.cpp:454] id_res5b_branch2b_relu <- id_res5b_branch2b
I0319 09:26:38.417666 18746 net.cpp:397] id_res5b_branch2b_relu -> id_res5b_branch2b (in-place)
I0319 09:26:38.417692 18746 net.cpp:150] Setting up id_res5b_branch2b_relu
I0319 09:26:38.417714 18746 net.cpp:157] Top shape: 16 512 7 7 (401408)
I0319 09:26:38.417732 18746 net.cpp:165] Memory required for data: 7440631744
I0319 09:26:38.417749 18746 layer_factory.hpp:77] Creating layer id_res5b_branch2c
I0319 09:26:38.417783 18746 net.cpp:106] Creating Layer id_res5b_branch2c
I0319 09:26:38.417804 18746 net.cpp:454] id_res5b_branch2c <- id_res5b_branch2b
I0319 09:26:38.417826 18746 net.cpp:411] id_res5b_branch2c -> id_res5b_branch2c
I0319 09:26:38.423151 18746 net.cpp:150] Setting up id_res5b_branch2c
I0319 09:26:38.423197 18746 net.cpp:157] Top shape: 16 2048 7 7 (1605632)
I0319 09:26:38.423216 18746 net.cpp:165] Memory required for data: 7447054272
I0319 09:26:38.423240 18746 layer_factory.hpp:77] Creating layer id_bn5b_branch2c
I0319 09:26:38.423271 18746 net.cpp:106] Creating Layer id_bn5b_branch2c
I0319 09:26:38.423295 18746 net.cpp:454] id_bn5b_branch2c <- id_res5b_branch2c
I0319 09:26:38.423317 18746 net.cpp:397] id_bn5b_branch2c -> id_res5b_branch2c (in-place)
I0319 09:26:38.423820 18746 net.cpp:150] Setting up id_bn5b_branch2c
I0319 09:26:38.423856 18746 net.cpp:157] Top shape: 16 2048 7 7 (1605632)
I0319 09:26:38.423876 18746 net.cpp:165] Memory required for data: 7453476800
I0319 09:26:38.423905 18746 layer_factory.hpp:77] Creating layer id_scale5b_branch2c
I0319 09:26:38.423933 18746 net.cpp:106] Creating Layer id_scale5b_branch2c
I0319 09:26:38.423952 18746 net.cpp:454] id_scale5b_branch2c <- id_res5b_branch2c
I0319 09:26:38.423988 18746 net.cpp:397] id_scale5b_branch2c -> id_res5b_branch2c (in-place)
I0319 09:26:38.424113 18746 layer_factory.hpp:77] Creating layer id_scale5b_branch2c
I0319 09:26:38.424437 18746 net.cpp:150] Setting up id_scale5b_branch2c
I0319 09:26:38.424473 18746 net.cpp:157] Top shape: 16 2048 7 7 (1605632)
I0319 09:26:38.424490 18746 net.cpp:165] Memory required for data: 7459899328
I0319 09:26:38.424516 18746 layer_factory.hpp:77] Creating layer id_res5b
I0319 09:26:38.424542 18746 net.cpp:106] Creating Layer id_res5b
I0319 09:26:38.424563 18746 net.cpp:454] id_res5b <- id_res5a_id_res5a_relu_0_split_1
I0319 09:26:38.424584 18746 net.cpp:454] id_res5b <- id_res5b_branch2c
I0319 09:26:38.424608 18746 net.cpp:411] id_res5b -> id_res5b
I0319 09:26:38.424710 18746 net.cpp:150] Setting up id_res5b
I0319 09:26:38.424742 18746 net.cpp:157] Top shape: 16 2048 7 7 (1605632)
I0319 09:26:38.424762 18746 net.cpp:165] Memory required for data: 7466321856
I0319 09:26:38.424779 18746 layer_factory.hpp:77] Creating layer id_res5b_relu
I0319 09:26:38.424808 18746 net.cpp:106] Creating Layer id_res5b_relu
I0319 09:26:38.424829 18746 net.cpp:454] id_res5b_relu <- id_res5b
I0319 09:26:38.424850 18746 net.cpp:397] id_res5b_relu -> id_res5b (in-place)
I0319 09:26:38.424876 18746 net.cpp:150] Setting up id_res5b_relu
I0319 09:26:38.424898 18746 net.cpp:157] Top shape: 16 2048 7 7 (1605632)
I0319 09:26:38.424916 18746 net.cpp:165] Memory required for data: 7472744384
I0319 09:26:38.424934 18746 layer_factory.hpp:77] Creating layer id_res5b_id_res5b_relu_0_split
I0319 09:26:38.424957 18746 net.cpp:106] Creating Layer id_res5b_id_res5b_relu_0_split
I0319 09:26:38.424976 18746 net.cpp:454] id_res5b_id_res5b_relu_0_split <- id_res5b
I0319 09:26:38.424998 18746 net.cpp:411] id_res5b_id_res5b_relu_0_split -> id_res5b_id_res5b_relu_0_split_0
I0319 09:26:38.425031 18746 net.cpp:411] id_res5b_id_res5b_relu_0_split -> id_res5b_id_res5b_relu_0_split_1
I0319 09:26:38.425164 18746 net.cpp:150] Setting up id_res5b_id_res5b_relu_0_split
I0319 09:26:38.425197 18746 net.cpp:157] Top shape: 16 2048 7 7 (1605632)
I0319 09:26:38.425218 18746 net.cpp:157] Top shape: 16 2048 7 7 (1605632)
I0319 09:26:38.425236 18746 net.cpp:165] Memory required for data: 7485589440
I0319 09:26:38.425254 18746 layer_factory.hpp:77] Creating layer id_res5c_branch2a
I0319 09:26:38.425287 18746 net.cpp:106] Creating Layer id_res5c_branch2a
I0319 09:26:38.425309 18746 net.cpp:454] id_res5c_branch2a <- id_res5b_id_res5b_relu_0_split_0
I0319 09:26:38.425334 18746 net.cpp:411] id_res5c_branch2a -> id_res5c_branch2a
I0319 09:26:38.430649 18746 net.cpp:150] Setting up id_res5c_branch2a
I0319 09:26:38.430696 18746 net.cpp:157] Top shape: 16 512 7 7 (401408)
I0319 09:26:38.430716 18746 net.cpp:165] Memory required for data: 7487195072
I0319 09:26:38.430739 18746 layer_factory.hpp:77] Creating layer id_bn5c_branch2a
I0319 09:26:38.430765 18746 net.cpp:106] Creating Layer id_bn5c_branch2a
I0319 09:26:38.430785 18746 net.cpp:454] id_bn5c_branch2a <- id_res5c_branch2a
I0319 09:26:38.430814 18746 net.cpp:397] id_bn5c_branch2a -> id_res5c_branch2a (in-place)
I0319 09:26:38.431310 18746 net.cpp:150] Setting up id_bn5c_branch2a
I0319 09:26:38.431346 18746 net.cpp:157] Top shape: 16 512 7 7 (401408)
I0319 09:26:38.431365 18746 net.cpp:165] Memory required for data: 7488800704
I0319 09:26:38.431396 18746 layer_factory.hpp:77] Creating layer id_scale5c_branch2a
I0319 09:26:38.431421 18746 net.cpp:106] Creating Layer id_scale5c_branch2a
I0319 09:26:38.431440 18746 net.cpp:454] id_scale5c_branch2a <- id_res5c_branch2a
I0319 09:26:38.431463 18746 net.cpp:397] id_scale5c_branch2a -> id_res5c_branch2a (in-place)
I0319 09:26:38.431587 18746 layer_factory.hpp:77] Creating layer id_scale5c_branch2a
I0319 09:26:38.431911 18746 net.cpp:150] Setting up id_scale5c_branch2a
I0319 09:26:38.431946 18746 net.cpp:157] Top shape: 16 512 7 7 (401408)
I0319 09:26:38.431965 18746 net.cpp:165] Memory required for data: 7490406336
I0319 09:26:38.431990 18746 layer_factory.hpp:77] Creating layer id_res5c_branch2a_relu
I0319 09:26:38.432014 18746 net.cpp:106] Creating Layer id_res5c_branch2a_relu
I0319 09:26:38.432034 18746 net.cpp:454] id_res5c_branch2a_relu <- id_res5c_branch2a
I0319 09:26:38.432061 18746 net.cpp:397] id_res5c_branch2a_relu -> id_res5c_branch2a (in-place)
I0319 09:26:38.432088 18746 net.cpp:150] Setting up id_res5c_branch2a_relu
I0319 09:26:38.432111 18746 net.cpp:157] Top shape: 16 512 7 7 (401408)
I0319 09:26:38.432129 18746 net.cpp:165] Memory required for data: 7492011968
I0319 09:26:38.432147 18746 layer_factory.hpp:77] Creating layer id_res5c_branch2b
I0319 09:26:38.432173 18746 net.cpp:106] Creating Layer id_res5c_branch2b
I0319 09:26:38.432193 18746 net.cpp:454] id_res5c_branch2b <- id_res5c_branch2a
I0319 09:26:38.432222 18746 net.cpp:411] id_res5c_branch2b -> id_res5c_branch2b
I0319 09:26:38.443298 18746 net.cpp:150] Setting up id_res5c_branch2b
I0319 09:26:38.443344 18746 net.cpp:157] Top shape: 16 512 7 7 (401408)
I0319 09:26:38.443364 18746 net.cpp:165] Memory required for data: 7493617600
I0319 09:26:38.443388 18746 layer_factory.hpp:77] Creating layer id_bn5c_branch2b
I0319 09:26:38.443414 18746 net.cpp:106] Creating Layer id_bn5c_branch2b
I0319 09:26:38.443435 18746 net.cpp:454] id_bn5c_branch2b <- id_res5c_branch2b
I0319 09:26:38.443459 18746 net.cpp:397] id_bn5c_branch2b -> id_res5c_branch2b (in-place)
I0319 09:26:38.443965 18746 net.cpp:150] Setting up id_bn5c_branch2b
I0319 09:26:38.444000 18746 net.cpp:157] Top shape: 16 512 7 7 (401408)
I0319 09:26:38.444018 18746 net.cpp:165] Memory required for data: 7495223232
I0319 09:26:38.444049 18746 layer_factory.hpp:77] Creating layer id_scale5c_branch2b
I0319 09:26:38.444080 18746 net.cpp:106] Creating Layer id_scale5c_branch2b
I0319 09:26:38.444103 18746 net.cpp:454] id_scale5c_branch2b <- id_res5c_branch2b
I0319 09:26:38.444125 18746 net.cpp:397] id_scale5c_branch2b -> id_res5c_branch2b (in-place)
I0319 09:26:38.444267 18746 layer_factory.hpp:77] Creating layer id_scale5c_branch2b
I0319 09:26:38.444627 18746 net.cpp:150] Setting up id_scale5c_branch2b
I0319 09:26:38.444665 18746 net.cpp:157] Top shape: 16 512 7 7 (401408)
I0319 09:26:38.444684 18746 net.cpp:165] Memory required for data: 7496828864
I0319 09:26:38.444710 18746 layer_factory.hpp:77] Creating layer id_res5c_branch2b_relu
I0319 09:26:38.444733 18746 net.cpp:106] Creating Layer id_res5c_branch2b_relu
I0319 09:26:38.444753 18746 net.cpp:454] id_res5c_branch2b_relu <- id_res5c_branch2b
I0319 09:26:38.444782 18746 net.cpp:397] id_res5c_branch2b_relu -> id_res5c_branch2b (in-place)
I0319 09:26:38.444808 18746 net.cpp:150] Setting up id_res5c_branch2b_relu
I0319 09:26:38.444830 18746 net.cpp:157] Top shape: 16 512 7 7 (401408)
I0319 09:26:38.444849 18746 net.cpp:165] Memory required for data: 7498434496
I0319 09:26:38.444865 18746 layer_factory.hpp:77] Creating layer id_res5c_branch2c
I0319 09:26:38.444897 18746 net.cpp:106] Creating Layer id_res5c_branch2c
I0319 09:26:38.444918 18746 net.cpp:454] id_res5c_branch2c <- id_res5c_branch2b
I0319 09:26:38.444942 18746 net.cpp:411] id_res5c_branch2c -> id_res5c_branch2c
I0319 09:26:38.450260 18746 net.cpp:150] Setting up id_res5c_branch2c
I0319 09:26:38.450306 18746 net.cpp:157] Top shape: 16 2048 7 7 (1605632)
I0319 09:26:38.450325 18746 net.cpp:165] Memory required for data: 7504857024
I0319 09:26:38.450350 18746 layer_factory.hpp:77] Creating layer id_bn5c_branch2c
I0319 09:26:38.450381 18746 net.cpp:106] Creating Layer id_bn5c_branch2c
I0319 09:26:38.450403 18746 net.cpp:454] id_bn5c_branch2c <- id_res5c_branch2c
I0319 09:26:38.450426 18746 net.cpp:397] id_bn5c_branch2c -> id_res5c_branch2c (in-place)
I0319 09:26:38.450932 18746 net.cpp:150] Setting up id_bn5c_branch2c
I0319 09:26:38.450968 18746 net.cpp:157] Top shape: 16 2048 7 7 (1605632)
I0319 09:26:38.450986 18746 net.cpp:165] Memory required for data: 7511279552
I0319 09:26:38.451015 18746 layer_factory.hpp:77] Creating layer id_scale5c_branch2c
I0319 09:26:38.451042 18746 net.cpp:106] Creating Layer id_scale5c_branch2c
I0319 09:26:38.451062 18746 net.cpp:454] id_scale5c_branch2c <- id_res5c_branch2c
I0319 09:26:38.451091 18746 net.cpp:397] id_scale5c_branch2c -> id_res5c_branch2c (in-place)
I0319 09:26:38.452247 18746 layer_factory.hpp:77] Creating layer id_scale5c_branch2c
I0319 09:26:38.452590 18746 net.cpp:150] Setting up id_scale5c_branch2c
I0319 09:26:38.452638 18746 net.cpp:157] Top shape: 16 2048 7 7 (1605632)
I0319 09:26:38.452661 18746 net.cpp:165] Memory required for data: 7517702080
I0319 09:26:38.452687 18746 layer_factory.hpp:77] Creating layer id_res5c
I0319 09:26:38.452719 18746 net.cpp:106] Creating Layer id_res5c
I0319 09:26:38.452742 18746 net.cpp:454] id_res5c <- id_res5b_id_res5b_relu_0_split_1
I0319 09:26:38.452764 18746 net.cpp:454] id_res5c <- id_res5c_branch2c
I0319 09:26:38.452788 18746 net.cpp:411] id_res5c -> id_res5c
I0319 09:26:38.452879 18746 net.cpp:150] Setting up id_res5c
I0319 09:26:38.452911 18746 net.cpp:157] Top shape: 16 2048 7 7 (1605632)
I0319 09:26:38.452929 18746 net.cpp:165] Memory required for data: 7524124608
I0319 09:26:38.452947 18746 layer_factory.hpp:77] Creating layer id_res5c_relu
I0319 09:26:38.452970 18746 net.cpp:106] Creating Layer id_res5c_relu
I0319 09:26:38.452989 18746 net.cpp:454] id_res5c_relu <- id_res5c
I0319 09:26:38.453019 18746 net.cpp:411] id_res5c_relu -> id_R5_res5c
I0319 09:26:38.454121 18746 net.cpp:150] Setting up id_res5c_relu
I0319 09:26:38.454164 18746 net.cpp:157] Top shape: 16 2048 7 7 (1605632)
I0319 09:26:38.454182 18746 net.cpp:165] Memory required for data: 7530547136
I0319 09:26:38.454200 18746 layer_factory.hpp:77] Creating layer id_pool5
I0319 09:26:38.454233 18746 net.cpp:106] Creating Layer id_pool5
I0319 09:26:38.454255 18746 net.cpp:454] id_pool5 <- id_R5_res5c
I0319 09:26:38.454280 18746 net.cpp:411] id_pool5 -> id_pool5
I0319 09:26:38.454361 18746 net.cpp:150] Setting up id_pool5
I0319 09:26:38.454392 18746 net.cpp:157] Top shape: 16 2048 1 1 (32768)
I0319 09:26:38.454423 18746 net.cpp:165] Memory required for data: 7530678208
I0319 09:26:38.454460 18746 layer_factory.hpp:77] Creating layer fc
I0319 09:26:38.454491 18746 net.cpp:106] Creating Layer fc
I0319 09:26:38.454514 18746 net.cpp:454] fc <- pool5
I0319 09:26:38.454545 18746 net.cpp:411] fc -> fc
I0319 09:26:38.459403 18746 net.cpp:150] Setting up fc
I0319 09:26:38.459425 18746 net.cpp:157] Top shape: 16 30 (480)
I0319 09:26:38.459435 18746 net.cpp:165] Memory required for data: 7530680128
I0319 09:26:38.459450 18746 layer_factory.hpp:77] Creating layer loss_pos30
I0319 09:26:38.459491 18746 net.cpp:106] Creating Layer loss_pos30
I0319 09:26:38.459503 18746 net.cpp:454] loss_pos30 <- fc
I0319 09:26:38.459514 18746 net.cpp:454] loss_pos30 <- labels
I0319 09:26:38.459527 18746 net.cpp:411] loss_pos30 -> loss_pos30
I0319 09:26:38.459637 18746 net.cpp:150] Setting up loss_pos30
I0319 09:26:38.459656 18746 net.cpp:157] Top shape: (1)
I0319 09:26:38.459664 18746 net.cpp:165] Memory required for data: 7530680132
I0319 09:26:38.459673 18746 layer_factory.hpp:77] Creating layer id_fc
I0319 09:26:38.459686 18746 net.cpp:106] Creating Layer id_fc
I0319 09:26:38.459697 18746 net.cpp:454] id_fc <- id_pool5
I0319 09:26:38.459709 18746 net.cpp:411] id_fc -> id_fc
I0319 09:26:38.519587 18746 net.cpp:150] Setting up id_fc
I0319 09:26:38.519611 18746 net.cpp:157] Top shape: 16 751 (12016)
I0319 09:26:38.519621 18746 net.cpp:165] Memory required for data: 7530728196
I0319 09:26:38.519635 18746 layer_factory.hpp:77] Creating layer id_loss_id
I0319 09:26:38.519654 18746 net.cpp:106] Creating Layer id_loss_id
I0319 09:26:38.519664 18746 net.cpp:454] id_loss_id <- id_fc
I0319 09:26:38.519675 18746 net.cpp:454] id_loss_id <- id_label
I0319 09:26:38.519690 18746 net.cpp:411] id_loss_id -> id_loss_id
…
