…
I0321 23:36:26.446497 24564 net.cpp:322] The NetState phase (0) differed from the phase (1) specified by a rule in layer accuracy
I0321 23:36:26.447886 24564 net.cpp:49] Initializing net from parameters: 
name: "ResNet-50"
state {
  phase: TRAIN
}
layer {
  name: "data"
  type: "Data"
  top: "data"
  top: "label"
  include {
    phase: TRAIN
  }
  transform_param {
    mirror: true
    mean_file: "/home/lizhuowan/caffe/data/Market1501/Resize_224by224/market1501_mean_train.binaryproto"
  }
  data_param {
    source: "/home/lizhuowan/caffe/data/Market1501/Resize_224by224/market1501_train_lmdb"
    batch_size: 16
    backend: LMDB
  }
}
layer {
  name: "conv1"
  type: "Convolution"
  bottom: "data"
  top: "conv1"
  convolution_param {
    num_output: 64
    pad: 3
    kernel_size: 7
    stride: 2
  }
}
layer {
  name: "bn_conv1"
  type: "BatchNorm"
  bottom: "conv1"
  top: "conv1"
  batch_norm_param {
    use_global_stats: true
  }
}
layer {
  name: "scale_conv1"
  type: "Scale"
  bottom: "conv1"
  top: "conv1"
  scale_param {
    bias_term: true
  }
}
layer {
  name: "conv1_relu"
  type: "ReLU"
  bottom: "conv1"
  top: "conv1"
}
layer {
  name: "pool1"
  type: "Pooling"
  bottom: "conv1"
  top: "pool1"
  pooling_param {
    pool: MAX
    kernel_size: 3
    stride: 2
  }
}
layer {
  name: "res2a_branch1"
  type: "Convolution"
  bottom: "pool1"
  top: "res2a_branch1"
  convolution_param {
    num_output: 256
    bias_term: false
    pad: 0
    kernel_size: 1
    stride: 1
  }
}
layer {
  name: "bn2a_branch1"
  type: "BatchNorm"
  bottom: "res2a_branch1"
  top: "res2a_branch1"
  batch_norm_param {
    use_global_stats: true
  }
}
layer {
  name: "scale2a_branch1"
  type: "Scale"
  bottom: "res2a_branch1"
  top: "res2a_branch1"
  scale_param {
    bias_term: true
  }
}
layer {
  name: "res2a_branch2a"
  type: "Convolution"
  bottom: "pool1"
  top: "res2a_branch2a"
  convolution_param {
    num_output: 64
    bias_term: false
    pad: 0
    kernel_size: 1
    stride: 1
  }
}
layer {
  name: "bn2a_branch2a"
  type: "BatchNorm"
  bottom: "res2a_branch2a"
  top: "res2a_branch2a"
  batch_norm_param {
    use_global_stats: true
  }
}
layer {
  name: "scale2a_branch2a"
  type: "Scale"
  bottom: "res2a_branch2a"
  top: "res2a_branch2a"
  scale_param {
    bias_term: true
  }
}
layer {
  name: "res2a_branch2a_relu"
  type: "ReLU"
  bottom: "res2a_branch2a"
  top: "res2a_branch2a"
}
layer {
  name: "res2a_branch2b"
  type: "Convolution"
  bottom: "res2a_branch2a"
  top: "res2a_branch2b"
  convolution_param {
    num_output: 64
    bias_term: false
    pad: 1
    kernel_size: 3
    stride: 1
  }
}
layer {
  name: "bn2a_branch2b"
  type: "BatchNorm"
  bottom: "res2a_branch2b"
  top: "res2a_branch2b"
  batch_norm_param {
    use_global_stats: true
  }
}
layer {
  name: "scale2a_branch2b"
  type: "Scale"
  bottom: "res2a_branch2b"
  top: "res2a_branch2b"
  scale_param {
    bias_term: true
  }
}
layer {
  name: "res2a_branch2b_relu"
  type: "ReLU"
  bottom: "res2a_branch2b"
  top: "res2a_branch2b"
}
layer {
  name: "res2a_branch2c"
  type: "Convolution"
  bottom: "res2a_branch2b"
  top: "res2a_branch2c"
  convolution_param {
    num_output: 256
    bias_term: false
    pad: 0
    kernel_size: 1
    stride: 1
  }
}
layer {
  name: "bn2a_branch2c"
  type: "BatchNorm"
  bottom: "res2a_branch2c"
  top: "res2a_branch2c"
  batch_norm_param {
    use_global_stats: true
  }
}
layer {
  name: "scale2a_branch2c"
  type: "Scale"
  bottom: "res2a_branch2c"
  top: "res2a_branch2c"
  scale_param {
    bias_term: true
  }
}
layer {
  name: "res2a"
  type: "Eltwise"
  bottom: "res2a_branch1"
  bottom: "res2a_branch2c"
  top: "res2a"
}
layer {
  name: "res2a_relu"
  type: "ReLU"
  bottom: "res2a"
  top: "res2a"
}
layer {
  name: "res2b_branch2a"
  type: "Convolution"
  bottom: "res2a"
  top: "res2b_branch2a"
  convolution_param {
    num_output: 64
    bias_term: false
    pad: 0
    kernel_size: 1
    stride: 1
  }
}
layer {
  name: "bn2b_branch2a"
  type: "BatchNorm"
  bottom: "res2b_branch2a"
  top: "res2b_branch2a"
  batch_norm_param {
    use_global_stats: true
  }
}
layer {
  name: "scale2b_branch2a"
  type: "Scale"
  bottom: "res2b_branch2a"
  top: "res2b_branch2a"
  scale_param {
    bias_term: true
  }
}
layer {
  name: "res2b_branch2a_relu"
  type: "ReLU"
  bottom: "res2b_branch2a"
  top: "res2b_branch2a"
}
layer {
  name: "res2b_branch2b"
  type: "Convolution"
  bottom: "res2b_branch2a"
  top: "res2b_branch2b"
  convolution_param {
    num_output: 64
    bias_term: false
    pad: 1
    kernel_size: 3
    stride: 1
  }
}
layer {
  name: "bn2b_branch2b"
  type: "BatchNorm"
  bottom: "res2b_branch2b"
  top: "res2b_branch2b"
  batch_norm_param {
    use_global_stats: true
  }
}
layer {
  name: "scale2b_branch2b"
  type: "Scale"
  bottom: "res2b_branch2b"
  top: "res2b_branch2b"
  scale_param {
    bias_term: true
  }
}
layer {
  name: "res2b_branch2b_relu"
  type: "ReLU"
  bottom: "res2b_branch2b"
  top: "res2b_branch2b"
}
layer {
  name: "res2b_branch2c"
  type: "Convolution"
  bottom: "res2b_branch2b"
  top: "res2b_branch2c"
  convolution_param {
    num_output: 256
    bias_term: false
    pad: 0
    kernel_size: 1
    stride: 1
  }
}
layer {
  name: "bn2b_branch2c"
  type: "BatchNorm"
  bottom: "res2b_branch2c"
  top: "res2b_branch2c"
  batch_norm_param {
    use_global_stats: true
  }
}
layer {
  name: "scale2b_branch2c"
  type: "Scale"
  bottom: "res2b_branch2c"
  top: "res2b_branch2c"
  scale_param {
    bias_term: true
  }
}
layer {
  name: "res2b"
  type: "Eltwise"
  bottom: "res2a"
  bottom: "res2b_branch2c"
  top: "res2b"
}
layer {
  name: "res2b_relu"
  type: "ReLU"
  bottom: "res2b"
  top: "res2b"
}
layer {
  name: "res2c_branch2a"
  type: "Convolution"
  bottom: "res2b"
  top: "res2c_branch2a"
  convolution_param {
    num_output: 64
    bias_term: false
    pad: 0
    kernel_size: 1
    stride: 1
  }
}
layer {
  name: "bn2c_branch2a"
  type: "BatchNorm"
  bottom: "res2c_branch2a"
  top: "res2c_branch2a"
  batch_norm_param {
    use_global_stats: true
  }
}
layer {
  name: "scale2c_branch2a"
  type: "Scale"
  bottom: "res2c_branch2a"
  top: "res2c_branch2a"
  scale_param {
    bias_term: true
  }
}
layer {
  name: "res2c_branch2a_relu"
  type: "ReLU"
  bottom: "res2c_branch2a"
  top: "res2c_branch2a"
}
layer {
  name: "res2c_branch2b"
  type: "Convolution"
  bottom: "res2c_branch2a"
  top: "res2c_branch2b"
  convolution_param {
    num_output: 64
    bias_term: false
    pad: 1
    kernel_size: 3
    stride: 1
  }
}
layer {
  name: "bn2c_branch2b"
  type: "BatchNorm"
  bottom: "res2c_branch2b"
  top: "res2c_branch2b"
  batch_norm_param {
    use_global_stats: true
  }
}
layer {
  name: "scale2c_branch2b"
  type: "Scale"
  bottom: "res2c_branch2b"
  top: "res2c_branch2b"
  scale_param {
    bias_term: true
  }
}
layer {
  name: "res2c_branch2b_relu"
  type: "ReLU"
  bottom: "res2c_branch2b"
  top: "res2c_branch2b"
}
layer {
  name: "res2c_branch2c"
  type: "Convolution"
  bottom: "res2c_branch2b"
  top: "res2c_branch2c"
  convolution_param {
    num_output: 256
    bias_term: false
    pad: 0
    kernel_size: 1
    stride: 1
  }
}
layer {
  name: "bn2c_branch2c"
  type: "BatchNorm"
  bottom: "res2c_branch2c"
  top: "res2c_branch2c"
  batch_norm_param {
    use_global_stats: true
  }
}
layer {
  name: "scale2c_branch2c"
  type: "Scale"
  bottom: "res2c_branch2c"
  top: "res2c_branch2c"
  scale_param {
    bias_term: true
  }
}
layer {
  name: "res2c"
  type: "Eltwise"
  bottom: "res2b"
  bottom: "res2c_branch2c"
  top: "res2c"
}
layer {
  name: "res2c_relu"
  type: "ReLU"
  bottom: "res2c"
  top: "res2c"
}
layer {
  name: "res3a_branch1"
  type: "Convolution"
  bottom: "res2c"
  top: "res3a_branch1"
  convolution_param {
    num_output: 512
    bias_term: false
    pad: 0
    kernel_size: 1
    stride: 2
  }
}
layer {
  name: "bn3a_branch1"
  type: "BatchNorm"
  bottom: "res3a_branch1"
  top: "res3a_branch1"
  batch_norm_param {
    use_global_stats: true
  }
}
layer {
  name: "scale3a_branch1"
  type: "Scale"
  bottom: "res3a_branch1"
  top: "res3a_branch1"
  scale_param {
    bias_term: true
  }
}
layer {
  name: "res3a_branch2a"
  type: "Convolution"
  bottom: "res2c"
  top: "res3a_branch2a"
  convolution_param {
    num_output: 128
    bias_term: false
    pad: 0
    kernel_size: 1
    stride: 2
  }
}
layer {
  name: "bn3a_branch2a"
  type: "BatchNorm"
  bottom: "res3a_branch2a"
  top: "res3a_branch2a"
  batch_norm_param {
    use_global_stats: true
  }
}
layer {
  name: "scale3a_branch2a"
  type: "Scale"
  bottom: "res3a_branch2a"
  top: "res3a_branch2a"
  scale_param {
    bias_term: true
  }
}
layer {
  name: "res3a_branch2a_relu"
  type: "ReLU"
  bottom: "res3a_branch2a"
  top: "res3a_branch2a"
}
layer {
  name: "res3a_branch2b"
  type: "Convolution"
  bottom: "res3a_branch2a"
  top: "res3a_branch2b"
  convolution_param {
    num_output: 128
    bias_term: false
    pad: 1
    kernel_size: 3
    stride: 1
  }
}
layer {
  name: "bn3a_branch2b"
  type: "BatchNorm"
  bottom: "res3a_branch2b"
  top: "res3a_branch2b"
  batch_norm_param {
    use_global_stats: true
  }
}
layer {
  name: "scale3a_branch2b"
  type: "Scale"
  bottom: "res3a_branch2b"
  top: "res3a_branch2b"
  scale_param {
    bias_term: true
  }
}
layer {
  name: "res3a_branch2b_relu"
  type: "ReLU"
  bottom: "res3a_branch2b"
  top: "res3a_branch2b"
}
layer {
  name: "res3a_branch2c"
  type: "Convolution"
  bottom: "res3a_branch2b"
  top: "res3a_branch2c"
  convolution_param {
    num_output: 512
    bias_term: false
    pad: 0
    kernel_size: 1
    stride: 1
  }
}
layer {
  name: "bn3a_branch2c"
  type: "BatchNorm"
  bottom: "res3a_branch2c"
  top: "res3a_branch2c"
  batch_norm_param {
    use_global_stats: true
  }
}
layer {
  name: "scale3a_branch2c"
  type: "Scale"
  bottom: "res3a_branch2c"
  top: "res3a_branch2c"
  scale_param {
    bias_term: true
  }
}
layer {
  name: "res3a"
  type: "Eltwise"
  bottom: "res3a_branch1"
  bottom: "res3a_branch2c"
  top: "res3a"
}
layer {
  name: "res3a_relu"
  type: "ReLU"
  bottom: "res3a"
  top: "res3a"
}
layer {
  name: "res3b_branch2a"
  type: "Convolution"
  bottom: "res3a"
  top: "res3b_branch2a"
  convolution_param {
    num_output: 128
    bias_term: false
    pad: 0
    kernel_size: 1
    stride: 1
  }
}
layer {
  name: "bn3b_branch2a"
  type: "BatchNorm"
  bottom: "res3b_branch2a"
  top: "res3b_branch2a"
  batch_norm_param {
    use_global_stats: true
  }
}
layer {
  name: "scale3b_branch2a"
  type: "Scale"
  bottom: "res3b_branch2a"
  top: "res3b_branch2a"
  scale_param {
    bias_term: true
  }
}
layer {
  name: "res3b_branch2a_relu"
  type: "ReLU"
  bottom: "res3b_branch2a"
  top: "res3b_branch2a"
}
layer {
  name: "res3b_branch2b"
  type: "Convolution"
  bottom: "res3b_branch2a"
  top: "res3b_branch2b"
  convolution_param {
    num_output: 128
    bias_term: false
    pad: 1
    kernel_size: 3
    stride: 1
  }
}
layer {
  name: "bn3b_branch2b"
  type: "BatchNorm"
  bottom: "res3b_branch2b"
  top: "res3b_branch2b"
  batch_norm_param {
    use_global_stats: true
  }
}
layer {
  name: "scale3b_branch2b"
  type: "Scale"
  bottom: "res3b_branch2b"
  top: "res3b_branch2b"
  scale_param {
    bias_term: true
  }
}
layer {
  name: "res3b_branch2b_relu"
  type: "ReLU"
  bottom: "res3b_branch2b"
  top: "res3b_branch2b"
}
layer {
  name: "res3b_branch2c"
  type: "Convolution"
  bottom: "res3b_branch2b"
  top: "res3b_branch2c"
  convolution_param {
    num_output: 512
    bias_term: false
    pad: 0
    kernel_size: 1
    stride: 1
  }
}
layer {
  name: "bn3b_branch2c"
  type: "BatchNorm"
  bottom: "res3b_branch2c"
  top: "res3b_branch2c"
  batch_norm_param {
    use_global_stats: true
  }
}
layer {
  name: "scale3b_branch2c"
  type: "Scale"
  bottom: "res3b_branch2c"
  top: "res3b_branch2c"
  scale_param {
    bias_term: true
  }
}
layer {
  name: "res3b"
  type: "Eltwise"
  bottom: "res3a"
  bottom: "res3b_branch2c"
  top: "res3b"
}
layer {
  name: "res3b_relu"
  type: "ReLU"
  bottom: "res3b"
  top: "res3b"
}
layer {
  name: "res3c_branch2a"
  type: "Convolution"
  bottom: "res3b"
  top: "res3c_branch2a"
  convolution_param {
    num_output: 128
    bias_term: false
    pad: 0
    kernel_size: 1
    stride: 1
  }
}
layer {
  name: "bn3c_branch2a"
  type: "BatchNorm"
  bottom: "res3c_branch2a"
  top: "res3c_branch2a"
  batch_norm_param {
    use_global_stats: true
  }
}
layer {
  name: "scale3c_branch2a"
  type: "Scale"
  bottom: "res3c_branch2a"
  top: "res3c_branch2a"
  scale_param {
    bias_term: true
  }
}
layer {
  name: "res3c_branch2a_relu"
  type: "ReLU"
  bottom: "res3c_branch2a"
  top: "res3c_branch2a"
}
layer {
  name: "res3c_branch2b"
  type: "Convolution"
  bottom: "res3c_branch2a"
  top: "res3c_branch2b"
  convolution_param {
    num_output: 128
    bias_term: false
    pad: 1
    kernel_size: 3
    stride: 1
  }
}
layer {
  name: "bn3c_branch2b"
  type: "BatchNorm"
  bottom: "res3c_branch2b"
  top: "res3c_branch2b"
  batch_norm_param {
    use_global_stats: true
  }
}
layer {
  name: "scale3c_branch2b"
  type: "Scale"
  bottom: "res3c_branch2b"
  top: "res3c_branch2b"
  scale_param {
    bias_term: true
  }
}
layer {
  name: "res3c_branch2b_relu"
  type: "ReLU"
  bottom: "res3c_branch2b"
  top: "res3c_branch2b"
}
layer {
  name: "res3c_branch2c"
  type: "Convolution"
  bottom: "res3c_branch2b"
  top: "res3c_branch2c"
  convolution_param {
    num_output: 512
    bias_term: false
    pad: 0
    kernel_size: 1
    stride: 1
  }
}
layer {
  name: "bn3c_branch2c"
  type: "BatchNorm"
  bottom: "res3c_branch2c"
  top: "res3c_branch2c"
  batch_norm_param {
    use_global_stats: true
  }
}
layer {
  name: "scale3c_branch2c"
  type: "Scale"
  bottom: "res3c_branch2c"
  top: "res3c_branch2c"
  scale_param {
    bias_term: true
  }
}
layer {
  name: "res3c"
  type: "Eltwise"
  bottom: "res3b"
  bottom: "res3c_branch2c"
  top: "res3c"
}
layer {
  name: "res3c_relu"
  type: "ReLU"
  bottom: "res3c"
  top: "res3c"
}
layer {
  name: "res3d_branch2a"
  type: "Convolution"
  bottom: "res3c"
  top: "res3d_branch2a"
  convolution_param {
    num_output: 128
    bias_term: false
    pad: 0
    kernel_size: 1
    stride: 1
  }
}
layer {
  name: "bn3d_branch2a"
  type: "BatchNorm"
  bottom: "res3d_branch2a"
  top: "res3d_branch2a"
  batch_norm_param {
    use_global_stats: true
  }
}
layer {
  name: "scale3d_branch2a"
  type: "Scale"
  bottom: "res3d_branch2a"
  top: "res3d_branch2a"
  scale_param {
    bias_term: true
  }
}
layer {
  name: "res3d_branch2a_relu"
  type: "ReLU"
  bottom: "res3d_branch2a"
  top: "res3d_branch2a"
}
layer {
  name: "res3d_branch2b"
  type: "Convolution"
  bottom: "res3d_branch2a"
  top: "res3d_branch2b"
  convolution_param {
    num_output: 128
    bias_term: false
    pad: 1
    kernel_size: 3
    stride: 1
  }
}
layer {
  name: "bn3d_branch2b"
  type: "BatchNorm"
  bottom: "res3d_branch2b"
  top: "res3d_branch2b"
  batch_norm_param {
    use_global_stats: true
  }
}
layer {
  name: "scale3d_branch2b"
  type: "Scale"
  bottom: "res3d_branch2b"
  top: "res3d_branch2b"
  scale_param {
    bias_term: true
  }
}
layer {
  name: "res3d_branch2b_relu"
  type: "ReLU"
  bottom: "res3d_branch2b"
  top: "res3d_branch2b"
}
layer {
  name: "res3d_branch2c"
  type: "Convolution"
  bottom: "res3d_branch2b"
  top: "res3d_branch2c"
  convolution_param {
    num_output: 512
    bias_term: false
    pad: 0
    kernel_size: 1
    stride: 1
  }
}
layer {
  name: "bn3d_branch2c"
  type: "BatchNorm"
  bottom: "res3d_branch2c"
  top: "res3d_branch2c"
  batch_norm_param {
    use_global_stats: true
  }
}
layer {
  name: "scale3d_branch2c"
  type: "Scale"
  bottom: "res3d_branch2c"
  top: "res3d_branch2c"
  scale_param {
    bias_term: true
  }
}
layer {
  name: "res3d"
  type: "Eltwise"
  bottom: "res3c"
  bottom: "res3d_branch2c"
  top: "res3d"
}
layer {
  name: "res3d_relu"
  type: "ReLU"
  bottom: "res3d"
  top: "res3d"
}
layer {
  name: "res4a_branch1"
  type: "Convolution"
  bottom: "res3d"
  top: "res4a_branch1"
  convolution_param {
    num_output: 1024
    bias_term: false
    pad: 0
    kernel_size: 1
    stride: 2
  }
}
layer {
  name: "bn4a_branch1"
  type: "BatchNorm"
  bottom: "res4a_branch1"
  top: "res4a_branch1"
  batch_norm_param {
    use_global_stats: true
  }
}
layer {
  name: "scale4a_branch1"
  type: "Scale"
  bottom: "res4a_branch1"
  top: "res4a_branch1"
  scale_param {
    bias_term: true
  }
}
layer {
  name: "res4a_branch2a"
  type: "Convolution"
  bottom: "res3d"
  top: "res4a_branch2a"
  convolution_param {
    num_output: 256
    bias_term: false
    pad: 0
    kernel_size: 1
    stride: 2
  }
}
layer {
  name: "bn4a_branch2a"
  type: "BatchNorm"
  bottom: "res4a_branch2a"
  top: "res4a_branch2a"
  batch_norm_param {
    use_global_stats: true
  }
}
layer {
  name: "scale4a_branch2a"
  type: "Scale"
  bottom: "res4a_branch2a"
  top: "res4a_branch2a"
  scale_param {
    bias_term: true
  }
}
layer {
  name: "res4a_branch2a_relu"
  type: "ReLU"
  bottom: "res4a_branch2a"
  top: "res4a_branch2a"
}
layer {
  name: "res4a_branch2b"
  type: "Convolution"
  bottom: "res4a_branch2a"
  top: "res4a_branch2b"
  convolution_param {
    num_output: 256
    bias_term: false
    pad: 1
    kernel_size: 3
    stride: 1
  }
}
layer {
  name: "bn4a_branch2b"
  type: "BatchNorm"
  bottom: "res4a_branch2b"
  top: "res4a_branch2b"
  batch_norm_param {
    use_global_stats: true
  }
}
layer {
  name: "scale4a_branch2b"
  type: "Scale"
  bottom: "res4a_branch2b"
  top: "res4a_branch2b"
  scale_param {
    bias_term: true
  }
}
layer {
  name: "res4a_branch2b_relu"
  type: "ReLU"
  bottom: "res4a_branch2b"
  top: "res4a_branch2b"
}
layer {
  name: "res4a_branch2c"
  type: "Convolution"
  bottom: "res4a_branch2b"
  top: "res4a_branch2c"
  convolution_param {
    num_output: 1024
    bias_term: false
    pad: 0
    kernel_size: 1
    stride: 1
  }
}
layer {
  name: "bn4a_branch2c"
  type: "BatchNorm"
  bottom: "res4a_branch2c"
  top: "res4a_branch2c"
  batch_norm_param {
    use_global_stats: true
  }
}
layer {
  name: "scale4a_branch2c"
  type: "Scale"
  bottom: "res4a_branch2c"
  top: "res4a_branch2c"
  scale_param {
    bias_term: true
  }
}
layer {
  name: "res4a"
  type: "Eltwise"
  bottom: "res4a_branch1"
  bottom: "res4a_branch2c"
  top: "res4a"
}
layer {
  name: "res4a_relu"
  type: "ReLU"
  bottom: "res4a"
  top: "res4a"
}
layer {
  name: "res4b_branch2a"
  type: "Convolution"
  bottom: "res4a"
  top: "res4b_branch2a"
  convolution_param {
    num_output: 256
    bias_term: false
    pad: 0
    kernel_size: 1
    stride: 1
  }
}
layer {
  name: "bn4b_branch2a"
  type: "BatchNorm"
  bottom: "res4b_branch2a"
  top: "res4b_branch2a"
  batch_norm_param {
    use_global_stats: true
  }
}
layer {
  name: "scale4b_branch2a"
  type: "Scale"
  bottom: "res4b_branch2a"
  top: "res4b_branch2a"
  scale_param {
    bias_term: true
  }
}
layer {
  name: "res4b_branch2a_relu"
  type: "ReLU"
  bottom: "res4b_branch2a"
  top: "res4b_branch2a"
}
layer {
  name: "res4b_branch2b"
  type: "Convolution"
  bottom: "res4b_branch2a"
  top: "res4b_branch2b"
  convolution_param {
    num_output: 256
    bias_term: false
    pad: 1
    kernel_size: 3
    stride: 1
  }
}
layer {
  name: "bn4b_branch2b"
  type: "BatchNorm"
  bottom: "res4b_branch2b"
  top: "res4b_branch2b"
  batch_norm_param {
    use_global_stats: true
  }
}
layer {
  name: "scale4b_branch2b"
  type: "Scale"
  bottom: "res4b_branch2b"
  top: "res4b_branch2b"
  scale_param {
    bias_term: true
  }
}
layer {
  name: "res4b_branch2b_relu"
  type: "ReLU"
  bottom: "res4b_branch2b"
  top: "res4b_branch2b"
}
layer {
  name: "res4b_branch2c"
  type: "Convolution"
  bottom: "res4b_branch2b"
  top: "res4b_branch2c"
  convolution_param {
    num_output: 1024
    bias_term: false
    pad: 0
    kernel_size: 1
    stride: 1
  }
}
layer {
  name: "bn4b_branch2c"
  type: "BatchNorm"
  bottom: "res4b_branch2c"
  top: "res4b_branch2c"
  batch_norm_param {
    use_global_stats: true
  }
}
layer {
  name: "scale4b_branch2c"
  type: "Scale"
  bottom: "res4b_branch2c"
  top: "res4b_branch2c"
  scale_param {
    bias_term: true
  }
}
layer {
  name: "res4b"
  type: "Eltwise"
  bottom: "res4a"
  bottom: "res4b_branch2c"
  top: "res4b"
}
layer {
  name: "res4b_relu"
  type: "ReLU"
  bottom: "res4b"
  top: "res4b"
}
layer {
  name: "res4c_branch2a"
  type: "Convolution"
  bottom: "res4b"
  top: "res4c_branch2a"
  convolution_param {
    num_output: 256
    bias_term: false
    pad: 0
    kernel_size: 1
    stride: 1
  }
}
layer {
  name: "bn4c_branch2a"
  type: "BatchNorm"
  bottom: "res4c_branch2a"
  top: "res4c_branch2a"
  batch_norm_param {
    use_global_stats: true
  }
}
layer {
  name: "scale4c_branch2a"
  type: "Scale"
  bottom: "res4c_branch2a"
  top: "res4c_branch2a"
  scale_param {
    bias_term: true
  }
}
layer {
  name: "res4c_branch2a_relu"
  type: "ReLU"
  bottom: "res4c_branch2a"
  top: "res4c_branch2a"
}
layer {
  name: "res4c_branch2b"
  type: "Convolution"
  bottom: "res4c_branch2a"
  top: "res4c_branch2b"
  convolution_param {
    num_output: 256
    bias_term: false
    pad: 1
    kernel_size: 3
    stride: 1
  }
}
layer {
  name: "bn4c_branch2b"
  type: "BatchNorm"
  bottom: "res4c_branch2b"
  top: "res4c_branch2b"
  batch_norm_param {
    use_global_stats: true
  }
}
layer {
  name: "scale4c_branch2b"
  type: "Scale"
  bottom: "res4c_branch2b"
  top: "res4c_branch2b"
  scale_param {
    bias_term: true
  }
}
layer {
  name: "res4c_branch2b_relu"
  type: "ReLU"
  bottom: "res4c_branch2b"
  top: "res4c_branch2b"
}
layer {
  name: "res4c_branch2c"
  type: "Convolution"
  bottom: "res4c_branch2b"
  top: "res4c_branch2c"
  convolution_param {
    num_output: 1024
    bias_term: false
    pad: 0
    kernel_size: 1
    stride: 1
  }
}
layer {
  name: "bn4c_branch2c"
  type: "BatchNorm"
  bottom: "res4c_branch2c"
  top: "res4c_branch2c"
  batch_norm_param {
    use_global_stats: true
  }
}
layer {
  name: "scale4c_branch2c"
  type: "Scale"
  bottom: "res4c_branch2c"
  top: "res4c_branch2c"
  scale_param {
    bias_term: true
  }
}
layer {
  name: "res4c"
  type: "Eltwise"
  bottom: "res4b"
  bottom: "res4c_branch2c"
  top: "res4c"
}
layer {
  name: "res4c_relu"
  type: "ReLU"
  bottom: "res4c"
  top: "res4c"
}
layer {
  name: "res4d_branch2a"
  type: "Convolution"
  bottom: "res4c"
  top: "res4d_branch2a"
  convolution_param {
    num_output: 256
    bias_term: false
    pad: 0
    kernel_size: 1
    stride: 1
  }
}
layer {
  name: "bn4d_branch2a"
  type: "BatchNorm"
  bottom: "res4d_branch2a"
  top: "res4d_branch2a"
  batch_norm_param {
    use_global_stats: true
  }
}
layer {
  name: "scale4d_branch2a"
  type: "Scale"
  bottom: "res4d_branch2a"
  top: "res4d_branch2a"
  scale_param {
    bias_term: true
  }
}
layer {
  name: "res4d_branch2a_relu"
  type: "ReLU"
  bottom: "res4d_branch2a"
  top: "res4d_branch2a"
}
layer {
  name: "res4d_branch2b"
  type: "Convolution"
  bottom: "res4d_branch2a"
  top: "res4d_branch2b"
  convolution_param {
    num_output: 256
    bias_term: false
    pad: 1
    kernel_size: 3
    stride: 1
  }
}
layer {
  name: "bn4d_branch2b"
  type: "BatchNorm"
  bottom: "res4d_branch2b"
  top: "res4d_branch2b"
  batch_norm_param {
    use_global_stats: true
  }
}
layer {
  name: "scale4d_branch2b"
  type: "Scale"
  bottom: "res4d_branch2b"
  top: "res4d_branch2b"
  scale_param {
    bias_term: true
  }
}
layer {
  name: "res4d_branch2b_relu"
  type: "ReLU"
  bottom: "res4d_branch2b"
  top: "res4d_branch2b"
}
layer {
  name: "res4d_branch2c"
  type: "Convolution"
  bottom: "res4d_branch2b"
  top: "res4d_branch2c"
  convolution_param {
    num_output: 1024
    bias_term: false
    pad: 0
    kernel_size: 1
    stride: 1
  }
}
layer {
  name: "bn4d_branch2c"
  type: "BatchNorm"
  bottom: "res4d_branch2c"
  top: "res4d_branch2c"
  batch_norm_param {
    use_global_stats: true
  }
}
layer {
  name: "scale4d_branch2c"
  type: "Scale"
  bottom: "res4d_branch2c"
  top: "res4d_branch2c"
  scale_param {
    bias_term: true
  }
}
layer {
  name: "res4d"
  type: "Eltwise"
  bottom: "res4c"
  bottom: "res4d_branch2c"
  top: "res4d"
}
layer {
  name: "res4d_relu"
  type: "ReLU"
  bottom: "res4d"
  top: "res4d"
}
layer {
  name: "res4e_branch2a"
  type: "Convolution"
  bottom: "res4d"
  top: "res4e_branch2a"
  convolution_param {
    num_output: 256
    bias_term: false
    pad: 0
    kernel_size: 1
    stride: 1
  }
}
layer {
  name: "bn4e_branch2a"
  type: "BatchNorm"
  bottom: "res4e_branch2a"
  top: "res4e_branch2a"
  batch_norm_param {
    use_global_stats: true
  }
}
layer {
  name: "scale4e_branch2a"
  type: "Scale"
  bottom: "res4e_branch2a"
  top: "res4e_branch2a"
  scale_param {
    bias_term: true
  }
}
layer {
  name: "res4e_branch2a_relu"
  type: "ReLU"
  bottom: "res4e_branch2a"
  top: "res4e_branch2a"
}
layer {
  name: "res4e_branch2b"
  type: "Convolution"
  bottom: "res4e_branch2a"
  top: "res4e_branch2b"
  convolution_param {
    num_output: 256
    bias_term: false
    pad: 1
    kernel_size: 3
    stride: 1
  }
}
layer {
  name: "bn4e_branch2b"
  type: "BatchNorm"
  bottom: "res4e_branch2b"
  top: "res4e_branch2b"
  batch_norm_param {
    use_global_stats: true
  }
}
layer {
  name: "scale4e_branch2b"
  type: "Scale"
  bottom: "res4e_branch2b"
  top: "res4e_branch2b"
  scale_param {
    bias_term: true
  }
}
layer {
  name: "res4e_branch2b_relu"
  type: "ReLU"
  bottom: "res4e_branch2b"
  top: "res4e_branch2b"
}
layer {
  name: "res4e_branch2c"
  type: "Convolution"
  bottom: "res4e_branch2b"
  top: "res4e_branch2c"
  convolution_param {
    num_output: 1024
    bias_term: false
    pad: 0
    kernel_size: 1
    stride: 1
  }
}
layer {
  name: "bn4e_branch2c"
  type: "BatchNorm"
  bottom: "res4e_branch2c"
  top: "res4e_branch2c"
  batch_norm_param {
    use_global_stats: true
  }
}
layer {
  name: "scale4e_branch2c"
  type: "Scale"
  bottom: "res4e_branch2c"
  top: "res4e_branch2c"
  scale_param {
    bias_term: true
  }
}
layer {
  name: "res4e"
  type: "Eltwise"
  bottom: "res4d"
  bottom: "res4e_branch2c"
  top: "res4e"
}
layer {
  name: "res4e_relu"
  type: "ReLU"
  bottom: "res4e"
  top: "res4e"
}
layer {
  name: "res4f_branch2a"
  type: "Convolution"
  bottom: "res4e"
  top: "res4f_branch2a"
  convolution_param {
    num_output: 256
    bias_term: false
    pad: 0
    kernel_size: 1
    stride: 1
  }
}
layer {
  name: "bn4f_branch2a"
  type: "BatchNorm"
  bottom: "res4f_branch2a"
  top: "res4f_branch2a"
  batch_norm_param {
    use_global_stats: true
  }
}
layer {
  name: "scale4f_branch2a"
  type: "Scale"
  bottom: "res4f_branch2a"
  top: "res4f_branch2a"
  scale_param {
    bias_term: true
  }
}
layer {
  name: "res4f_branch2a_relu"
  type: "ReLU"
  bottom: "res4f_branch2a"
  top: "res4f_branch2a"
}
layer {
  name: "res4f_branch2b"
  type: "Convolution"
  bottom: "res4f_branch2a"
  top: "res4f_branch2b"
  convolution_param {
    num_output: 256
    bias_term: false
    pad: 1
    kernel_size: 3
    stride: 1
  }
}
layer {
  name: "bn4f_branch2b"
  type: "BatchNorm"
  bottom: "res4f_branch2b"
  top: "res4f_branch2b"
  batch_norm_param {
    use_global_stats: true
  }
}
layer {
  name: "scale4f_branch2b"
  type: "Scale"
  bottom: "res4f_branch2b"
  top: "res4f_branch2b"
  scale_param {
    bias_term: true
  }
}
layer {
  name: "res4f_branch2b_relu"
  type: "ReLU"
  bottom: "res4f_branch2b"
  top: "res4f_branch2b"
}
layer {
  name: "res4f_branch2c"
  type: "Convolution"
  bottom: "res4f_branch2b"
  top: "res4f_branch2c"
  convolution_param {
    num_output: 1024
    bias_term: false
    pad: 0
    kernel_size: 1
    stride: 1
  }
}
layer {
  name: "bn4f_branch2c"
  type: "BatchNorm"
  bottom: "res4f_branch2c"
  top: "res4f_branch2c"
  batch_norm_param {
    use_global_stats: true
  }
}
layer {
  name: "scale4f_branch2c"
  type: "Scale"
  bottom: "res4f_branch2c"
  top: "res4f_branch2c"
  scale_param {
    bias_term: true
  }
}
layer {
  name: "res4f"
  type: "Eltwise"
  bottom: "res4e"
  bottom: "res4f_branch2c"
  top: "res4f"
}
layer {
  name: "res4f_relu"
  type: "ReLU"
  bottom: "res4f"
  top: "res4f"
}
layer {
  name: "res5a_branch1"
  type: "Convolution"
  bottom: "res4f"
  top: "res5a_branch1"
  convolution_param {
    num_output: 2048
    bias_term: false
    pad: 0
    kernel_size: 1
    stride: 2
  }
}
layer {
  name: "bn5a_branch1"
  type: "BatchNorm"
  bottom: "res5a_branch1"
  top: "res5a_branch1"
  batch_norm_param {
    use_global_stats: true
  }
}
layer {
  name: "scale5a_branch1"
  type: "Scale"
  bottom: "res5a_branch1"
  top: "res5a_branch1"
  scale_param {
    bias_term: true
  }
}
layer {
  name: "res5a_branch2a"
  type: "Convolution"
  bottom: "res4f"
  top: "res5a_branch2a"
  convolution_param {
    num_output: 512
    bias_term: false
    pad: 0
    kernel_size: 1
    stride: 2
  }
}
layer {
  name: "bn5a_branch2a"
  type: "BatchNorm"
  bottom: "res5a_branch2a"
  top: "res5a_branch2a"
  batch_norm_param {
    use_global_stats: true
  }
}
layer {
  name: "scale5a_branch2a"
  type: "Scale"
  bottom: "res5a_branch2a"
  top: "res5a_branch2a"
  scale_param {
    bias_term: true
  }
}
layer {
  name: "res5a_branch2a_relu"
  type: "ReLU"
  bottom: "res5a_branch2a"
  top: "res5a_branch2a"
}
layer {
  name: "res5a_branch2b"
  type: "Convolution"
  bottom: "res5a_branch2a"
  top: "res5a_branch2b"
  convolution_param {
    num_output: 512
    bias_term: false
    pad: 1
    kernel_size: 3
    stride: 1
  }
}
layer {
  name: "bn5a_branch2b"
  type: "BatchNorm"
  bottom: "res5a_branch2b"
  top: "res5a_branch2b"
  batch_norm_param {
    use_global_stats: true
  }
}
layer {
  name: "scale5a_branch2b"
  type: "Scale"
  bottom: "res5a_branch2b"
  top: "res5a_branch2b"
  scale_param {
    bias_term: true
  }
}
layer {
  name: "res5a_branch2b_relu"
  type: "ReLU"
  bottom: "res5a_branch2b"
  top: "res5a_branch2b"
}
layer {
  name: "res5a_branch2c"
  type: "Convolution"
  bottom: "res5a_branch2b"
  top: "res5a_branch2c"
  convolution_param {
    num_output: 2048
    bias_term: false
    pad: 0
    kernel_size: 1
    stride: 1
  }
}
layer {
  name: "bn5a_branch2c"
  type
I0321 23:36:26.449515 24564 layer_factory.hpp:77] Creating layer data
I0321 23:36:26.450572 24564 net.cpp:106] Creating Layer data
I0321 23:36:26.450682 24564 net.cpp:411] data -> data
I0321 23:36:26.450770 24564 net.cpp:411] data -> label
I0321 23:36:26.450829 24564 data_transformer.cpp:25] Loading mean file from: /home/lizhuowan/caffe/data/Market1501/Resize_224by224/market1501_mean_train.binaryproto
I0321 23:36:26.452363 24568 db_lmdb.cpp:38] Opened lmdb /home/lizhuowan/caffe/data/Market1501/Resize_224by224/market1501_train_lmdb
I0321 23:36:26.475205 24564 data_layer.cpp:41] output data size: 16,3,224,224
I0321 23:36:26.501579 24564 net.cpp:150] Setting up data
I0321 23:36:26.501673 24564 net.cpp:157] Top shape: 16 3 224 224 (2408448)
I0321 23:36:26.501693 24564 net.cpp:157] Top shape: 16 (16)
I0321 23:36:26.501705 24564 net.cpp:165] Memory required for data: 9633856
I0321 23:36:26.501732 24564 layer_factory.hpp:77] Creating layer conv1
I0321 23:36:26.501785 24564 net.cpp:106] Creating Layer conv1
I0321 23:36:26.501806 24564 net.cpp:454] conv1 <- data
I0321 23:36:26.501839 24564 net.cpp:411] conv1 -> conv1
I0321 23:36:26.503243 24564 net.cpp:150] Setting up conv1
I0321 23:36:26.503281 24564 net.cpp:157] Top shape: 16 64 112 112 (12845056)
I0321 23:36:26.503299 24564 net.cpp:165] Memory required for data: 61014080
I0321 23:36:26.503347 24564 layer_factory.hpp:77] Creating layer bn_conv1
I0321 23:36:26.503383 24564 net.cpp:106] Creating Layer bn_conv1
I0321 23:36:26.503402 24564 net.cpp:454] bn_conv1 <- conv1
I0321 23:36:26.503428 24564 net.cpp:397] bn_conv1 -> conv1 (in-place)
I0321 23:36:26.503962 24564 net.cpp:150] Setting up bn_conv1
I0321 23:36:26.503996 24564 net.cpp:157] Top shape: 16 64 112 112 (12845056)
I0321 23:36:26.504014 24564 net.cpp:165] Memory required for data: 112394304
I0321 23:36:26.504050 24564 layer_factory.hpp:77] Creating layer scale_conv1
I0321 23:36:26.504099 24564 net.cpp:106] Creating Layer scale_conv1
I0321 23:36:26.504118 24564 net.cpp:454] scale_conv1 <- conv1
I0321 23:36:26.504175 24564 net.cpp:397] scale_conv1 -> conv1 (in-place)
I0321 23:36:26.505844 24564 layer_factory.hpp:77] Creating layer scale_conv1
I0321 23:36:26.506129 24564 net.cpp:150] Setting up scale_conv1
I0321 23:36:26.506160 24564 net.cpp:157] Top shape: 16 64 112 112 (12845056)
I0321 23:36:26.506176 24564 net.cpp:165] Memory required for data: 163774528
I0321 23:36:26.506201 24564 layer_factory.hpp:77] Creating layer conv1_relu
I0321 23:36:26.506229 24564 net.cpp:106] Creating Layer conv1_relu
I0321 23:36:26.506248 24564 net.cpp:454] conv1_relu <- conv1
I0321 23:36:26.506273 24564 net.cpp:397] conv1_relu -> conv1 (in-place)
I0321 23:36:26.506300 24564 net.cpp:150] Setting up conv1_relu
I0321 23:36:26.506321 24564 net.cpp:157] Top shape: 16 64 112 112 (12845056)
I0321 23:36:26.506337 24564 net.cpp:165] Memory required for data: 215154752
I0321 23:36:26.506353 24564 layer_factory.hpp:77] Creating layer pool1
I0321 23:36:26.506376 24564 net.cpp:106] Creating Layer pool1
I0321 23:36:26.506392 24564 net.cpp:454] pool1 <- conv1
I0321 23:36:26.506419 24564 net.cpp:411] pool1 -> pool1
I0321 23:36:26.506531 24564 net.cpp:150] Setting up pool1
I0321 23:36:26.506559 24564 net.cpp:157] Top shape: 16 64 56 56 (3211264)
I0321 23:36:26.506575 24564 net.cpp:165] Memory required for data: 227999808
I0321 23:36:26.506592 24564 layer_factory.hpp:77] Creating layer pool1_pool1_0_split
I0321 23:36:26.506615 24564 net.cpp:106] Creating Layer pool1_pool1_0_split
I0321 23:36:26.506633 24564 net.cpp:454] pool1_pool1_0_split <- pool1
I0321 23:36:26.506652 24564 net.cpp:411] pool1_pool1_0_split -> pool1_pool1_0_split_0
I0321 23:36:26.506676 24564 net.cpp:411] pool1_pool1_0_split -> pool1_pool1_0_split_1
I0321 23:36:26.506753 24564 net.cpp:150] Setting up pool1_pool1_0_split
I0321 23:36:26.506780 24564 net.cpp:157] Top shape: 16 64 56 56 (3211264)
I0321 23:36:26.506799 24564 net.cpp:157] Top shape: 16 64 56 56 (3211264)
I0321 23:36:26.506814 24564 net.cpp:165] Memory required for data: 253689920
I0321 23:36:26.506830 24564 layer_factory.hpp:77] Creating layer res2a_branch1
I0321 23:36:26.506866 24564 net.cpp:106] Creating Layer res2a_branch1
I0321 23:36:26.506886 24564 net.cpp:454] res2a_branch1 <- pool1_pool1_0_split_0
I0321 23:36:26.506907 24564 net.cpp:411] res2a_branch1 -> res2a_branch1
I0321 23:36:26.507226 24564 net.cpp:150] Setting up res2a_branch1
I0321 23:36:26.507257 24564 net.cpp:157] Top shape: 16 256 56 56 (12845056)
I0321 23:36:26.507273 24564 net.cpp:165] Memory required for data: 305070144
I0321 23:36:26.507294 24564 layer_factory.hpp:77] Creating layer bn2a_branch1
I0321 23:36:26.507323 24564 net.cpp:106] Creating Layer bn2a_branch1
I0321 23:36:26.507342 24564 net.cpp:454] bn2a_branch1 <- res2a_branch1
I0321 23:36:26.507362 24564 net.cpp:397] bn2a_branch1 -> res2a_branch1 (in-place)
I0321 23:36:26.508636 24564 net.cpp:150] Setting up bn2a_branch1
I0321 23:36:26.508683 24564 net.cpp:157] Top shape: 16 256 56 56 (12845056)
I0321 23:36:26.508700 24564 net.cpp:165] Memory required for data: 356450368
I0321 23:36:26.508733 24564 layer_factory.hpp:77] Creating layer scale2a_branch1
I0321 23:36:26.508757 24564 net.cpp:106] Creating Layer scale2a_branch1
I0321 23:36:26.508774 24564 net.cpp:454] scale2a_branch1 <- res2a_branch1
I0321 23:36:26.508795 24564 net.cpp:397] scale2a_branch1 -> res2a_branch1 (in-place)
I0321 23:36:26.508889 24564 layer_factory.hpp:77] Creating layer scale2a_branch1
I0321 23:36:26.509124 24564 net.cpp:150] Setting up scale2a_branch1
I0321 23:36:26.509153 24564 net.cpp:157] Top shape: 16 256 56 56 (12845056)
I0321 23:36:26.509169 24564 net.cpp:165] Memory required for data: 407830592
I0321 23:36:26.509191 24564 layer_factory.hpp:77] Creating layer res2a_branch2a
I0321 23:36:26.509222 24564 net.cpp:106] Creating Layer res2a_branch2a
I0321 23:36:26.509241 24564 net.cpp:454] res2a_branch2a <- pool1_pool1_0_split_1
I0321 23:36:26.509263 24564 net.cpp:411] res2a_branch2a -> res2a_branch2a
I0321 23:36:26.509588 24564 net.cpp:150] Setting up res2a_branch2a
I0321 23:36:26.509618 24564 net.cpp:157] Top shape: 16 64 56 56 (3211264)
I0321 23:36:26.509660 24564 net.cpp:165] Memory required for data: 420675648
I0321 23:36:26.509682 24564 layer_factory.hpp:77] Creating layer bn2a_branch2a
I0321 23:36:26.509709 24564 net.cpp:106] Creating Layer bn2a_branch2a
I0321 23:36:26.509727 24564 net.cpp:454] bn2a_branch2a <- res2a_branch2a
I0321 23:36:26.509747 24564 net.cpp:397] bn2a_branch2a -> res2a_branch2a (in-place)
I0321 23:36:26.510073 24564 net.cpp:150] Setting up bn2a_branch2a
I0321 23:36:26.510103 24564 net.cpp:157] Top shape: 16 64 56 56 (3211264)
I0321 23:36:26.510118 24564 net.cpp:165] Memory required for data: 433520704
I0321 23:36:26.510149 24564 layer_factory.hpp:77] Creating layer scale2a_branch2a
I0321 23:36:26.510177 24564 net.cpp:106] Creating Layer scale2a_branch2a
I0321 23:36:26.510195 24564 net.cpp:454] scale2a_branch2a <- res2a_branch2a
I0321 23:36:26.510215 24564 net.cpp:397] scale2a_branch2a -> res2a_branch2a (in-place)
I0321 23:36:26.510308 24564 layer_factory.hpp:77] Creating layer scale2a_branch2a
I0321 23:36:26.510538 24564 net.cpp:150] Setting up scale2a_branch2a
I0321 23:36:26.510567 24564 net.cpp:157] Top shape: 16 64 56 56 (3211264)
I0321 23:36:26.510583 24564 net.cpp:165] Memory required for data: 446365760
I0321 23:36:26.510607 24564 layer_factory.hpp:77] Creating layer res2a_branch2a_relu
I0321 23:36:26.510632 24564 net.cpp:106] Creating Layer res2a_branch2a_relu
I0321 23:36:26.510649 24564 net.cpp:454] res2a_branch2a_relu <- res2a_branch2a
I0321 23:36:26.510669 24564 net.cpp:397] res2a_branch2a_relu -> res2a_branch2a (in-place)
I0321 23:36:26.510691 24564 net.cpp:150] Setting up res2a_branch2a_relu
I0321 23:36:26.510710 24564 net.cpp:157] Top shape: 16 64 56 56 (3211264)
I0321 23:36:26.510726 24564 net.cpp:165] Memory required for data: 459210816
I0321 23:36:26.510741 24564 layer_factory.hpp:77] Creating layer res2a_branch2b
I0321 23:36:26.510769 24564 net.cpp:106] Creating Layer res2a_branch2b
I0321 23:36:26.510802 24564 net.cpp:454] res2a_branch2b <- res2a_branch2a
I0321 23:36:26.510823 24564 net.cpp:411] res2a_branch2b -> res2a_branch2b
I0321 23:36:26.512112 24564 net.cpp:150] Setting up res2a_branch2b
I0321 23:36:26.512151 24564 net.cpp:157] Top shape: 16 64 56 56 (3211264)
I0321 23:36:26.512168 24564 net.cpp:165] Memory required for data: 472055872
I0321 23:36:26.512188 24564 layer_factory.hpp:77] Creating layer bn2a_branch2b
I0321 23:36:26.512214 24564 net.cpp:106] Creating Layer bn2a_branch2b
I0321 23:36:26.512233 24564 net.cpp:454] bn2a_branch2b <- res2a_branch2b
I0321 23:36:26.512253 24564 net.cpp:397] bn2a_branch2b -> res2a_branch2b (in-place)
I0321 23:36:26.512622 24564 net.cpp:150] Setting up bn2a_branch2b
I0321 23:36:26.512655 24564 net.cpp:157] Top shape: 16 64 56 56 (3211264)
I0321 23:36:26.512671 24564 net.cpp:165] Memory required for data: 484900928
I0321 23:36:26.512697 24564 layer_factory.hpp:77] Creating layer scale2a_branch2b
I0321 23:36:26.512723 24564 net.cpp:106] Creating Layer scale2a_branch2b
I0321 23:36:26.512742 24564 net.cpp:454] scale2a_branch2b <- res2a_branch2b
I0321 23:36:26.512761 24564 net.cpp:397] scale2a_branch2b -> res2a_branch2b (in-place)
I0321 23:36:26.512859 24564 layer_factory.hpp:77] Creating layer scale2a_branch2b
I0321 23:36:26.513092 24564 net.cpp:150] Setting up scale2a_branch2b
I0321 23:36:26.513128 24564 net.cpp:157] Top shape: 16 64 56 56 (3211264)
I0321 23:36:26.513144 24564 net.cpp:165] Memory required for data: 497745984
I0321 23:36:26.513166 24564 layer_factory.hpp:77] Creating layer res2a_branch2b_relu
I0321 23:36:26.513187 24564 net.cpp:106] Creating Layer res2a_branch2b_relu
I0321 23:36:26.513203 24564 net.cpp:454] res2a_branch2b_relu <- res2a_branch2b
I0321 23:36:26.513222 24564 net.cpp:397] res2a_branch2b_relu -> res2a_branch2b (in-place)
I0321 23:36:26.513243 24564 net.cpp:150] Setting up res2a_branch2b_relu
I0321 23:36:26.513262 24564 net.cpp:157] Top shape: 16 64 56 56 (3211264)
I0321 23:36:26.513278 24564 net.cpp:165] Memory required for data: 510591040
I0321 23:36:26.513293 24564 layer_factory.hpp:77] Creating layer res2a_branch2c
I0321 23:36:26.513334 24564 net.cpp:106] Creating Layer res2a_branch2c
I0321 23:36:26.513370 24564 net.cpp:454] res2a_branch2c <- res2a_branch2b
I0321 23:36:26.513392 24564 net.cpp:411] res2a_branch2c -> res2a_branch2c
I0321 23:36:26.513737 24564 net.cpp:150] Setting up res2a_branch2c
I0321 23:36:26.513768 24564 net.cpp:157] Top shape: 16 256 56 56 (12845056)
I0321 23:36:26.513783 24564 net.cpp:165] Memory required for data: 561971264
I0321 23:36:26.513803 24564 layer_factory.hpp:77] Creating layer bn2a_branch2c
I0321 23:36:26.513824 24564 net.cpp:106] Creating Layer bn2a_branch2c
I0321 23:36:26.513841 24564 net.cpp:454] bn2a_branch2c <- res2a_branch2c
I0321 23:36:26.513861 24564 net.cpp:397] bn2a_branch2c -> res2a_branch2c (in-place)
I0321 23:36:26.514188 24564 net.cpp:150] Setting up bn2a_branch2c
I0321 23:36:26.514216 24564 net.cpp:157] Top shape: 16 256 56 56 (12845056)
I0321 23:36:26.514232 24564 net.cpp:165] Memory required for data: 613351488
I0321 23:36:26.514257 24564 layer_factory.hpp:77] Creating layer scale2a_branch2c
I0321 23:36:26.514284 24564 net.cpp:106] Creating Layer scale2a_branch2c
I0321 23:36:26.514302 24564 net.cpp:454] scale2a_branch2c <- res2a_branch2c
I0321 23:36:26.514322 24564 net.cpp:397] scale2a_branch2c -> res2a_branch2c (in-place)
I0321 23:36:26.514411 24564 layer_factory.hpp:77] Creating layer scale2a_branch2c
I0321 23:36:26.514654 24564 net.cpp:150] Setting up scale2a_branch2c
I0321 23:36:26.514683 24564 net.cpp:157] Top shape: 16 256 56 56 (12845056)
I0321 23:36:26.514699 24564 net.cpp:165] Memory required for data: 664731712
I0321 23:36:26.514722 24564 layer_factory.hpp:77] Creating layer res2a
I0321 23:36:26.514750 24564 net.cpp:106] Creating Layer res2a
I0321 23:36:26.514767 24564 net.cpp:454] res2a <- res2a_branch1
I0321 23:36:26.514786 24564 net.cpp:454] res2a <- res2a_branch2c
I0321 23:36:26.514809 24564 net.cpp:411] res2a -> res2a
I0321 23:36:26.514879 24564 net.cpp:150] Setting up res2a
I0321 23:36:26.514914 24564 net.cpp:157] Top shape: 16 256 56 56 (12845056)
I0321 23:36:26.514930 24564 net.cpp:165] Memory required for data: 716111936
I0321 23:36:26.514947 24564 layer_factory.hpp:77] Creating layer res2a_relu
I0321 23:36:26.514966 24564 net.cpp:106] Creating Layer res2a_relu
I0321 23:36:26.514982 24564 net.cpp:454] res2a_relu <- res2a
I0321 23:36:26.515000 24564 net.cpp:397] res2a_relu -> res2a (in-place)
I0321 23:36:26.515022 24564 net.cpp:150] Setting up res2a_relu
I0321 23:36:26.515041 24564 net.cpp:157] Top shape: 16 256 56 56 (12845056)
I0321 23:36:26.515056 24564 net.cpp:165] Memory required for data: 767492160
I0321 23:36:26.515071 24564 layer_factory.hpp:77] Creating layer res2a_res2a_relu_0_split
I0321 23:36:26.515090 24564 net.cpp:106] Creating Layer res2a_res2a_relu_0_split
I0321 23:36:26.515105 24564 net.cpp:454] res2a_res2a_relu_0_split <- res2a
I0321 23:36:26.515130 24564 net.cpp:411] res2a_res2a_relu_0_split -> res2a_res2a_relu_0_split_0
I0321 23:36:26.515152 24564 net.cpp:411] res2a_res2a_relu_0_split -> res2a_res2a_relu_0_split_1
I0321 23:36:26.515223 24564 net.cpp:150] Setting up res2a_res2a_relu_0_split
I0321 23:36:26.515254 24564 net.cpp:157] Top shape: 16 256 56 56 (12845056)
I0321 23:36:26.515274 24564 net.cpp:157] Top shape: 16 256 56 56 (12845056)
I0321 23:36:26.515288 24564 net.cpp:165] Memory required for data: 870252608
I0321 23:36:26.515305 24564 layer_factory.hpp:77] Creating layer res2b_branch2a
I0321 23:36:26.515327 24564 net.cpp:106] Creating Layer res2b_branch2a
I0321 23:36:26.515344 24564 net.cpp:454] res2b_branch2a <- res2a_res2a_relu_0_split_0
I0321 23:36:26.515365 24564 net.cpp:411] res2b_branch2a -> res2b_branch2a
I0321 23:36:26.515703 24564 net.cpp:150] Setting up res2b_branch2a
I0321 23:36:26.515733 24564 net.cpp:157] Top shape: 16 64 56 56 (3211264)
I0321 23:36:26.515749 24564 net.cpp:165] Memory required for data: 883097664
I0321 23:36:26.515769 24564 layer_factory.hpp:77] Creating layer bn2b_branch2a
I0321 23:36:26.515790 24564 net.cpp:106] Creating Layer bn2b_branch2a
I0321 23:36:26.515806 24564 net.cpp:454] bn2b_branch2a <- res2b_branch2a
I0321 23:36:26.515841 24564 net.cpp:397] bn2b_branch2a -> res2b_branch2a (in-place)
I0321 23:36:26.516201 24564 net.cpp:150] Setting up bn2b_branch2a
I0321 23:36:26.516229 24564 net.cpp:157] Top shape: 16 64 56 56 (3211264)
I0321 23:36:26.516245 24564 net.cpp:165] Memory required for data: 895942720
I0321 23:36:26.516279 24564 layer_factory.hpp:77] Creating layer scale2b_branch2a
I0321 23:36:26.516309 24564 net.cpp:106] Creating Layer scale2b_branch2a
I0321 23:36:26.516326 24564 net.cpp:454] scale2b_branch2a <- res2b_branch2a
I0321 23:36:26.516346 24564 net.cpp:397] scale2b_branch2a -> res2b_branch2a (in-place)
I0321 23:36:26.516434 24564 layer_factory.hpp:77] Creating layer scale2b_branch2a
I0321 23:36:26.516680 24564 net.cpp:150] Setting up scale2b_branch2a
I0321 23:36:26.516712 24564 net.cpp:157] Top shape: 16 64 56 56 (3211264)
I0321 23:36:26.516728 24564 net.cpp:165] Memory required for data: 908787776
I0321 23:36:26.516751 24564 layer_factory.hpp:77] Creating layer res2b_branch2a_relu
I0321 23:36:26.516775 24564 net.cpp:106] Creating Layer res2b_branch2a_relu
I0321 23:36:26.516793 24564 net.cpp:454] res2b_branch2a_relu <- res2b_branch2a
I0321 23:36:26.516818 24564 net.cpp:397] res2b_branch2a_relu -> res2b_branch2a (in-place)
I0321 23:36:26.516840 24564 net.cpp:150] Setting up res2b_branch2a_relu
I0321 23:36:26.516902 24564 net.cpp:157] Top shape: 16 64 56 56 (3211264)
I0321 23:36:26.516919 24564 net.cpp:165] Memory required for data: 921632832
I0321 23:36:26.516934 24564 layer_factory.hpp:77] Creating layer res2b_branch2b
I0321 23:36:26.516958 24564 net.cpp:106] Creating Layer res2b_branch2b
I0321 23:36:26.516974 24564 net.cpp:454] res2b_branch2b <- res2b_branch2a
I0321 23:36:26.517002 24564 net.cpp:411] res2b_branch2b -> res2b_branch2b
I0321 23:36:26.517379 24564 net.cpp:150] Setting up res2b_branch2b
I0321 23:36:26.517411 24564 net.cpp:157] Top shape: 16 64 56 56 (3211264)
I0321 23:36:26.517427 24564 net.cpp:165] Memory required for data: 934477888
I0321 23:36:26.517447 24564 layer_factory.hpp:77] Creating layer bn2b_branch2b
I0321 23:36:26.517475 24564 net.cpp:106] Creating Layer bn2b_branch2b
I0321 23:36:26.517493 24564 net.cpp:454] bn2b_branch2b <- res2b_branch2b
I0321 23:36:26.517513 24564 net.cpp:397] bn2b_branch2b -> res2b_branch2b (in-place)
I0321 23:36:26.517854 24564 net.cpp:150] Setting up bn2b_branch2b
I0321 23:36:26.517884 24564 net.cpp:157] Top shape: 16 64 56 56 (3211264)
I0321 23:36:26.517899 24564 net.cpp:165] Memory required for data: 947322944
I0321 23:36:26.517925 24564 layer_factory.hpp:77] Creating layer scale2b_branch2b
I0321 23:36:26.517951 24564 net.cpp:106] Creating Layer scale2b_branch2b
I0321 23:36:26.517969 24564 net.cpp:454] scale2b_branch2b <- res2b_branch2b
I0321 23:36:26.517989 24564 net.cpp:397] scale2b_branch2b -> res2b_branch2b (in-place)
I0321 23:36:26.518079 24564 layer_factory.hpp:77] Creating layer scale2b_branch2b
I0321 23:36:26.518318 24564 net.cpp:150] Setting up scale2b_branch2b
I0321 23:36:26.518347 24564 net.cpp:157] Top shape: 16 64 56 56 (3211264)
I0321 23:36:26.518364 24564 net.cpp:165] Memory required for data: 960168000
I0321 23:36:26.518386 24564 layer_factory.hpp:77] Creating layer res2b_branch2b_relu
I0321 23:36:26.518411 24564 net.cpp:106] Creating Layer res2b_branch2b_relu
I0321 23:36:26.518429 24564 net.cpp:454] res2b_branch2b_relu <- res2b_branch2b
I0321 23:36:26.518448 24564 net.cpp:397] res2b_branch2b_relu -> res2b_branch2b (in-place)
I0321 23:36:26.518471 24564 net.cpp:150] Setting up res2b_branch2b_relu
I0321 23:36:26.518489 24564 net.cpp:157] Top shape: 16 64 56 56 (3211264)
I0321 23:36:26.518504 24564 net.cpp:165] Memory required for data: 973013056
I0321 23:36:26.518520 24564 layer_factory.hpp:77] Creating layer res2b_branch2c
I0321 23:36:26.518554 24564 net.cpp:106] Creating Layer res2b_branch2c
I0321 23:36:26.518573 24564 net.cpp:454] res2b_branch2c <- res2b_branch2b
I0321 23:36:26.518599 24564 net.cpp:411] res2b_branch2c -> res2b_branch2c
I0321 23:36:26.518936 24564 net.cpp:150] Setting up res2b_branch2c
I0321 23:36:26.518977 24564 net.cpp:157] Top shape: 16 256 56 56 (12845056)
I0321 23:36:26.519009 24564 net.cpp:165] Memory required for data: 1024393280
I0321 23:36:26.519032 24564 layer_factory.hpp:77] Creating layer bn2b_branch2c
I0321 23:36:26.519057 24564 net.cpp:106] Creating Layer bn2b_branch2c
I0321 23:36:26.519075 24564 net.cpp:454] bn2b_branch2c <- res2b_branch2c
I0321 23:36:26.519094 24564 net.cpp:397] bn2b_branch2c -> res2b_branch2c (in-place)
I0321 23:36:26.519421 24564 net.cpp:150] Setting up bn2b_branch2c
I0321 23:36:26.519449 24564 net.cpp:157] Top shape: 16 256 56 56 (12845056)
I0321 23:36:26.519465 24564 net.cpp:165] Memory required for data: 1075773504
I0321 23:36:26.519495 24564 layer_factory.hpp:77] Creating layer scale2b_branch2c
I0321 23:36:26.519516 24564 net.cpp:106] Creating Layer scale2b_branch2c
I0321 23:36:26.519533 24564 net.cpp:454] scale2b_branch2c <- res2b_branch2c
I0321 23:36:26.519552 24564 net.cpp:397] scale2b_branch2c -> res2b_branch2c (in-place)
I0321 23:36:26.519640 24564 layer_factory.hpp:77] Creating layer scale2b_branch2c
I0321 23:36:26.519865 24564 net.cpp:150] Setting up scale2b_branch2c
I0321 23:36:26.519894 24564 net.cpp:157] Top shape: 16 256 56 56 (12845056)
I0321 23:36:26.519911 24564 net.cpp:165] Memory required for data: 1127153728
I0321 23:36:26.519932 24564 layer_factory.hpp:77] Creating layer res2b
I0321 23:36:26.519958 24564 net.cpp:106] Creating Layer res2b
I0321 23:36:26.519978 24564 net.cpp:454] res2b <- res2a_res2a_relu_0_split_1
I0321 23:36:26.519995 24564 net.cpp:454] res2b <- res2b_branch2c
I0321 23:36:26.520015 24564 net.cpp:411] res2b -> res2b
I0321 23:36:26.520078 24564 net.cpp:150] Setting up res2b
I0321 23:36:26.520105 24564 net.cpp:157] Top shape: 16 256 56 56 (12845056)
I0321 23:36:26.520122 24564 net.cpp:165] Memory required for data: 1178533952
I0321 23:36:26.520138 24564 layer_factory.hpp:77] Creating layer res2b_relu
I0321 23:36:26.520157 24564 net.cpp:106] Creating Layer res2b_relu
I0321 23:36:26.520174 24564 net.cpp:454] res2b_relu <- res2b
I0321 23:36:26.520197 24564 net.cpp:397] res2b_relu -> res2b (in-place)
I0321 23:36:26.520220 24564 net.cpp:150] Setting up res2b_relu
I0321 23:36:26.520239 24564 net.cpp:157] Top shape: 16 256 56 56 (12845056)
I0321 23:36:26.520256 24564 net.cpp:165] Memory required for data: 1229914176
I0321 23:36:26.520272 24564 layer_factory.hpp:77] Creating layer res2b_res2b_relu_0_split
I0321 23:36:26.520290 24564 net.cpp:106] Creating Layer res2b_res2b_relu_0_split
I0321 23:36:26.520306 24564 net.cpp:454] res2b_res2b_relu_0_split <- res2b
I0321 23:36:26.520324 24564 net.cpp:411] res2b_res2b_relu_0_split -> res2b_res2b_relu_0_split_0
I0321 23:36:26.520346 24564 net.cpp:411] res2b_res2b_relu_0_split -> res2b_res2b_relu_0_split_1
I0321 23:36:26.520427 24564 net.cpp:150] Setting up res2b_res2b_relu_0_split
I0321 23:36:26.520453 24564 net.cpp:157] Top shape: 16 256 56 56 (12845056)
I0321 23:36:26.520473 24564 net.cpp:157] Top shape: 16 256 56 56 (12845056)
I0321 23:36:26.520488 24564 net.cpp:165] Memory required for data: 1332674624
I0321 23:36:26.520503 24564 layer_factory.hpp:77] Creating layer res2c_branch2a
I0321 23:36:26.520530 24564 net.cpp:106] Creating Layer res2c_branch2a
I0321 23:36:26.520550 24564 net.cpp:454] res2c_branch2a <- res2b_res2b_relu_0_split_0
I0321 23:36:26.520570 24564 net.cpp:411] res2c_branch2a -> res2c_branch2a
I0321 23:36:26.520932 24564 net.cpp:150] Setting up res2c_branch2a
I0321 23:36:26.520965 24564 net.cpp:157] Top shape: 16 64 56 56 (3211264)
I0321 23:36:26.520982 24564 net.cpp:165] Memory required for data: 1345519680
I0321 23:36:26.521001 24564 layer_factory.hpp:77] Creating layer bn2c_branch2a
I0321 23:36:26.521023 24564 net.cpp:106] Creating Layer bn2c_branch2a
I0321 23:36:26.521040 24564 net.cpp:454] bn2c_branch2a <- res2c_branch2a
I0321 23:36:26.521059 24564 net.cpp:397] bn2c_branch2a -> res2c_branch2a (in-place)
I0321 23:36:26.521402 24564 net.cpp:150] Setting up bn2c_branch2a
I0321 23:36:26.521431 24564 net.cpp:157] Top shape: 16 64 56 56 (3211264)
I0321 23:36:26.521447 24564 net.cpp:165] Memory required for data: 1358364736
I0321 23:36:26.521482 24564 layer_factory.hpp:77] Creating layer scale2c_branch2a
I0321 23:36:26.521522 24564 net.cpp:106] Creating Layer scale2c_branch2a
I0321 23:36:26.521539 24564 net.cpp:454] scale2c_branch2a <- res2c_branch2a
I0321 23:36:26.521559 24564 net.cpp:397] scale2c_branch2a -> res2c_branch2a (in-place)
I0321 23:36:26.521654 24564 layer_factory.hpp:77] Creating layer scale2c_branch2a
I0321 23:36:26.521889 24564 net.cpp:150] Setting up scale2c_branch2a
I0321 23:36:26.521922 24564 net.cpp:157] Top shape: 16 64 56 56 (3211264)
I0321 23:36:26.521939 24564 net.cpp:165] Memory required for data: 1371209792
I0321 23:36:26.521961 24564 layer_factory.hpp:77] Creating layer res2c_branch2a_relu
I0321 23:36:26.521986 24564 net.cpp:106] Creating Layer res2c_branch2a_relu
I0321 23:36:26.522004 24564 net.cpp:454] res2c_branch2a_relu <- res2c_branch2a
I0321 23:36:26.522023 24564 net.cpp:397] res2c_branch2a_relu -> res2c_branch2a (in-place)
I0321 23:36:26.522045 24564 net.cpp:150] Setting up res2c_branch2a_relu
I0321 23:36:26.522064 24564 net.cpp:157] Top shape: 16 64 56 56 (3211264)
I0321 23:36:26.522079 24564 net.cpp:165] Memory required for data: 1384054848
I0321 23:36:26.522095 24564 layer_factory.hpp:77] Creating layer res2c_branch2b
I0321 23:36:26.522125 24564 net.cpp:106] Creating Layer res2c_branch2b
I0321 23:36:26.522143 24564 net.cpp:454] res2c_branch2b <- res2c_branch2a
I0321 23:36:26.522164 24564 net.cpp:411] res2c_branch2b -> res2c_branch2b
I0321 23:36:26.522541 24564 net.cpp:150] Setting up res2c_branch2b
I0321 23:36:26.522572 24564 net.cpp:157] Top shape: 16 64 56 56 (3211264)
I0321 23:36:26.522588 24564 net.cpp:165] Memory required for data: 1396899904
I0321 23:36:26.522608 24564 layer_factory.hpp:77] Creating layer bn2c_branch2b
I0321 23:36:26.522634 24564 net.cpp:106] Creating Layer bn2c_branch2b
I0321 23:36:26.522651 24564 net.cpp:454] bn2c_branch2b <- res2c_branch2b
I0321 23:36:26.522671 24564 net.cpp:397] bn2c_branch2b -> res2c_branch2b (in-place)
I0321 23:36:26.523012 24564 net.cpp:150] Setting up bn2c_branch2b
I0321 23:36:26.523041 24564 net.cpp:157] Top shape: 16 64 56 56 (3211264)
I0321 23:36:26.523057 24564 net.cpp:165] Memory required for data: 1409744960
I0321 23:36:26.523092 24564 layer_factory.hpp:77] Creating layer scale2c_branch2b
I0321 23:36:26.523120 24564 net.cpp:106] Creating Layer scale2c_branch2b
I0321 23:36:26.523138 24564 net.cpp:454] scale2c_branch2b <- res2c_branch2b
I0321 23:36:26.523157 24564 net.cpp:397] scale2c_branch2b -> res2c_branch2b (in-place)
I0321 23:36:26.523247 24564 layer_factory.hpp:77] Creating layer scale2c_branch2b
I0321 23:36:26.523486 24564 net.cpp:150] Setting up scale2c_branch2b
I0321 23:36:26.523515 24564 net.cpp:157] Top shape: 16 64 56 56 (3211264)
I0321 23:36:26.523531 24564 net.cpp:165] Memory required for data: 1422590016
I0321 23:36:26.523553 24564 layer_factory.hpp:77] Creating layer res2c_branch2b_relu
I0321 23:36:26.523574 24564 net.cpp:106] Creating Layer res2c_branch2b_relu
I0321 23:36:26.523591 24564 net.cpp:454] res2c_branch2b_relu <- res2c_branch2b
I0321 23:36:26.523614 24564 net.cpp:397] res2c_branch2b_relu -> res2c_branch2b (in-place)
I0321 23:36:26.523638 24564 net.cpp:150] Setting up res2c_branch2b_relu
I0321 23:36:26.523656 24564 net.cpp:157] Top shape: 16 64 56 56 (3211264)
I0321 23:36:26.523672 24564 net.cpp:165] Memory required for data: 1435435072
I0321 23:36:26.523689 24564 layer_factory.hpp:77] Creating layer res2c_branch2c
I0321 23:36:26.523710 24564 net.cpp:106] Creating Layer res2c_branch2c
I0321 23:36:26.523726 24564 net.cpp:454] res2c_branch2c <- res2c_branch2b
I0321 23:36:26.523751 24564 net.cpp:411] res2c_branch2c -> res2c_branch2c
I0321 23:36:26.524101 24564 net.cpp:150] Setting up res2c_branch2c
I0321 23:36:26.524132 24564 net.cpp:157] Top shape: 16 256 56 56 (12845056)
I0321 23:36:26.524147 24564 net.cpp:165] Memory required for data: 1486815296
I0321 23:36:26.524168 24564 layer_factory.hpp:77] Creating layer bn2c_branch2c
I0321 23:36:26.524194 24564 net.cpp:106] Creating Layer bn2c_branch2c
I0321 23:36:26.524221 24564 net.cpp:454] bn2c_branch2c <- res2c_branch2c
I0321 23:36:26.524256 24564 net.cpp:397] bn2c_branch2c -> res2c_branch2c (in-place)
I0321 23:36:26.524590 24564 net.cpp:150] Setting up bn2c_branch2c
I0321 23:36:26.524631 24564 net.cpp:157] Top shape: 16 256 56 56 (12845056)
I0321 23:36:26.524649 24564 net.cpp:165] Memory required for data: 1538195520
I0321 23:36:26.524693 24564 layer_factory.hpp:77] Creating layer scale2c_branch2c
I0321 23:36:26.524718 24564 net.cpp:106] Creating Layer scale2c_branch2c
I0321 23:36:26.524736 24564 net.cpp:454] scale2c_branch2c <- res2c_branch2c
I0321 23:36:26.524760 24564 net.cpp:397] scale2c_branch2c -> res2c_branch2c (in-place)
I0321 23:36:26.524858 24564 layer_factory.hpp:77] Creating layer scale2c_branch2c
I0321 23:36:26.525081 24564 net.cpp:150] Setting up scale2c_branch2c
I0321 23:36:26.525110 24564 net.cpp:157] Top shape: 16 256 56 56 (12845056)
I0321 23:36:26.525127 24564 net.cpp:165] Memory required for data: 1589575744
I0321 23:36:26.525149 24564 layer_factory.hpp:77] Creating layer res2c
I0321 23:36:26.525176 24564 net.cpp:106] Creating Layer res2c
I0321 23:36:26.525193 24564 net.cpp:454] res2c <- res2b_res2b_relu_0_split_1
I0321 23:36:26.525212 24564 net.cpp:454] res2c <- res2c_branch2c
I0321 23:36:26.525230 24564 net.cpp:411] res2c -> res2c
I0321 23:36:26.525291 24564 net.cpp:150] Setting up res2c
I0321 23:36:26.525317 24564 net.cpp:157] Top shape: 16 256 56 56 (12845056)
I0321 23:36:26.525333 24564 net.cpp:165] Memory required for data: 1640955968
I0321 23:36:26.525348 24564 layer_factory.hpp:77] Creating layer res2c_relu
I0321 23:36:26.525367 24564 net.cpp:106] Creating Layer res2c_relu
I0321 23:36:26.525383 24564 net.cpp:454] res2c_relu <- res2c
I0321 23:36:26.525403 24564 net.cpp:397] res2c_relu -> res2c (in-place)
I0321 23:36:26.525424 24564 net.cpp:150] Setting up res2c_relu
I0321 23:36:26.525444 24564 net.cpp:157] Top shape: 16 256 56 56 (12845056)
I0321 23:36:26.525460 24564 net.cpp:165] Memory required for data: 1692336192
I0321 23:36:26.525475 24564 layer_factory.hpp:77] Creating layer res2c_res2c_relu_0_split
I0321 23:36:26.525493 24564 net.cpp:106] Creating Layer res2c_res2c_relu_0_split
I0321 23:36:26.525509 24564 net.cpp:454] res2c_res2c_relu_0_split <- res2c
I0321 23:36:26.525532 24564 net.cpp:411] res2c_res2c_relu_0_split -> res2c_res2c_relu_0_split_0
I0321 23:36:26.525553 24564 net.cpp:411] res2c_res2c_relu_0_split -> res2c_res2c_relu_0_split_1
I0321 23:36:26.525634 24564 net.cpp:150] Setting up res2c_res2c_relu_0_split
I0321 23:36:26.525660 24564 net.cpp:157] Top shape: 16 256 56 56 (12845056)
I0321 23:36:26.525677 24564 net.cpp:157] Top shape: 16 256 56 56 (12845056)
I0321 23:36:26.525692 24564 net.cpp:165] Memory required for data: 1795096640
I0321 23:36:26.525708 24564 layer_factory.hpp:77] Creating layer res3a_branch1
I0321 23:36:26.525735 24564 net.cpp:106] Creating Layer res3a_branch1
I0321 23:36:26.525753 24564 net.cpp:454] res3a_branch1 <- res2c_res2c_relu_0_split_0
I0321 23:36:26.525774 24564 net.cpp:411] res3a_branch1 -> res3a_branch1
I0321 23:36:26.528729 24564 net.cpp:150] Setting up res3a_branch1
I0321 23:36:26.528769 24564 net.cpp:157] Top shape: 16 512 28 28 (6422528)
I0321 23:36:26.528785 24564 net.cpp:165] Memory required for data: 1820786752
I0321 23:36:26.528806 24564 layer_factory.hpp:77] Creating layer bn3a_branch1
I0321 23:36:26.528827 24564 net.cpp:106] Creating Layer bn3a_branch1
I0321 23:36:26.528846 24564 net.cpp:454] bn3a_branch1 <- res3a_branch1
I0321 23:36:26.528870 24564 net.cpp:397] bn3a_branch1 -> res3a_branch1 (in-place)
I0321 23:36:26.530119 24564 net.cpp:150] Setting up bn3a_branch1
I0321 23:36:26.530155 24564 net.cpp:157] Top shape: 16 512 28 28 (6422528)
I0321 23:36:26.530172 24564 net.cpp:165] Memory required for data: 1846476864
I0321 23:36:26.530200 24564 layer_factory.hpp:77] Creating layer scale3a_branch1
I0321 23:36:26.530227 24564 net.cpp:106] Creating Layer scale3a_branch1
I0321 23:36:26.530246 24564 net.cpp:454] scale3a_branch1 <- res3a_branch1
I0321 23:36:26.530267 24564 net.cpp:397] scale3a_branch1 -> res3a_branch1 (in-place)
I0321 23:36:26.530374 24564 layer_factory.hpp:77] Creating layer scale3a_branch1
I0321 23:36:26.530612 24564 net.cpp:150] Setting up scale3a_branch1
I0321 23:36:26.530642 24564 net.cpp:157] Top shape: 16 512 28 28 (6422528)
I0321 23:36:26.530658 24564 net.cpp:165] Memory required for data: 1872166976
I0321 23:36:26.530681 24564 layer_factory.hpp:77] Creating layer res3a_branch2a
I0321 23:36:26.530710 24564 net.cpp:106] Creating Layer res3a_branch2a
I0321 23:36:26.530730 24564 net.cpp:454] res3a_branch2a <- res2c_res2c_relu_0_split_1
I0321 23:36:26.530750 24564 net.cpp:411] res3a_branch2a -> res3a_branch2a
I0321 23:36:26.531131 24564 net.cpp:150] Setting up res3a_branch2a
I0321 23:36:26.531162 24564 net.cpp:157] Top shape: 16 128 28 28 (1605632)
I0321 23:36:26.531177 24564 net.cpp:165] Memory required for data: 1878589504
I0321 23:36:26.531198 24564 layer_factory.hpp:77] Creating layer bn3a_branch2a
I0321 23:36:26.531224 24564 net.cpp:106] Creating Layer bn3a_branch2a
I0321 23:36:26.531241 24564 net.cpp:454] bn3a_branch2a <- res3a_branch2a
I0321 23:36:26.531265 24564 net.cpp:397] bn3a_branch2a -> res3a_branch2a (in-place)
I0321 23:36:26.531591 24564 net.cpp:150] Setting up bn3a_branch2a
I0321 23:36:26.531620 24564 net.cpp:157] Top shape: 16 128 28 28 (1605632)
I0321 23:36:26.531636 24564 net.cpp:165] Memory required for data: 1885012032
I0321 23:36:26.531661 24564 layer_factory.hpp:77] Creating layer scale3a_branch2a
I0321 23:36:26.531688 24564 net.cpp:106] Creating Layer scale3a_branch2a
I0321 23:36:26.531707 24564 net.cpp:454] scale3a_branch2a <- res3a_branch2a
I0321 23:36:26.531726 24564 net.cpp:397] scale3a_branch2a -> res3a_branch2a (in-place)
I0321 23:36:26.531813 24564 layer_factory.hpp:77] Creating layer scale3a_branch2a
I0321 23:36:26.532033 24564 net.cpp:150] Setting up scale3a_branch2a
I0321 23:36:26.532061 24564 net.cpp:157] Top shape: 16 128 28 28 (1605632)
I0321 23:36:26.532078 24564 net.cpp:165] Memory required for data: 1891434560
I0321 23:36:26.532099 24564 layer_factory.hpp:77] Creating layer res3a_branch2a_relu
I0321 23:36:26.532119 24564 net.cpp:106] Creating Layer res3a_branch2a_relu
I0321 23:36:26.532136 24564 net.cpp:454] res3a_branch2a_relu <- res3a_branch2a
I0321 23:36:26.532155 24564 net.cpp:397] res3a_branch2a_relu -> res3a_branch2a (in-place)
I0321 23:36:26.532177 24564 net.cpp:150] Setting up res3a_branch2a_relu
I0321 23:36:26.532196 24564 net.cpp:157] Top shape: 16 128 28 28 (1605632)
I0321 23:36:26.532212 24564 net.cpp:165] Memory required for data: 1897857088
I0321 23:36:26.532227 24564 layer_factory.hpp:77] Creating layer res3a_branch2b
I0321 23:36:26.532255 24564 net.cpp:106] Creating Layer res3a_branch2b
I0321 23:36:26.532274 24564 net.cpp:454] res3a_branch2b <- res3a_branch2a
I0321 23:36:26.532299 24564 net.cpp:411] res3a_branch2b -> res3a_branch2b
I0321 23:36:26.533764 24564 net.cpp:150] Setting up res3a_branch2b
I0321 23:36:26.533802 24564 net.cpp:157] Top shape: 16 128 28 28 (1605632)
I0321 23:36:26.533819 24564 net.cpp:165] Memory required for data: 1904279616
I0321 23:36:26.533840 24564 layer_factory.hpp:77] Creating layer bn3a_branch2b
I0321 23:36:26.533867 24564 net.cpp:106] Creating Layer bn3a_branch2b
I0321 23:36:26.533885 24564 net.cpp:454] bn3a_branch2b <- res3a_branch2b
I0321 23:36:26.533905 24564 net.cpp:397] bn3a_branch2b -> res3a_branch2b (in-place)
I0321 23:36:26.534243 24564 net.cpp:150] Setting up bn3a_branch2b
I0321 23:36:26.534271 24564 net.cpp:157] Top shape: 16 128 28 28 (1605632)
I0321 23:36:26.534287 24564 net.cpp:165] Memory required for data: 1910702144
I0321 23:36:26.534312 24564 layer_factory.hpp:77] Creating layer scale3a_branch2b
I0321 23:36:26.534335 24564 net.cpp:106] Creating Layer scale3a_branch2b
I0321 23:36:26.534353 24564 net.cpp:454] scale3a_branch2b <- res3a_branch2b
I0321 23:36:26.534379 24564 net.cpp:397] scale3a_branch2b -> res3a_branch2b (in-place)
I0321 23:36:26.534466 24564 layer_factory.hpp:77] Creating layer scale3a_branch2b
I0321 23:36:26.534687 24564 net.cpp:150] Setting up scale3a_branch2b
I0321 23:36:26.534728 24564 net.cpp:157] Top shape: 16 128 28 28 (1605632)
I0321 23:36:26.534760 24564 net.cpp:165] Memory required for data: 1917124672
I0321 23:36:26.534783 24564 layer_factory.hpp:77] Creating layer res3a_branch2b_relu
I0321 23:36:26.534811 24564 net.cpp:106] Creating Layer res3a_branch2b_relu
I0321 23:36:26.534829 24564 net.cpp:454] res3a_branch2b_relu <- res3a_branch2b
I0321 23:36:26.534848 24564 net.cpp:397] res3a_branch2b_relu -> res3a_branch2b (in-place)
I0321 23:36:26.534870 24564 net.cpp:150] Setting up res3a_branch2b_relu
I0321 23:36:26.534893 24564 net.cpp:157] Top shape: 16 128 28 28 (1605632)
I0321 23:36:26.534909 24564 net.cpp:165] Memory required for data: 1923547200
I0321 23:36:26.534924 24564 layer_factory.hpp:77] Creating layer res3a_branch2c
I0321 23:36:26.534952 24564 net.cpp:106] Creating Layer res3a_branch2c
I0321 23:36:26.534970 24564 net.cpp:454] res3a_branch2c <- res3a_branch2b
I0321 23:36:26.534991 24564 net.cpp:411] res3a_branch2c -> res3a_branch2c
I0321 23:36:26.535454 24564 net.cpp:150] Setting up res3a_branch2c
I0321 23:36:26.535486 24564 net.cpp:157] Top shape: 16 512 28 28 (6422528)
I0321 23:36:26.535502 24564 net.cpp:165] Memory required for data: 1949237312
I0321 23:36:26.535522 24564 layer_factory.hpp:77] Creating layer bn3a_branch2c
I0321 23:36:26.535553 24564 net.cpp:106] Creating Layer bn3a_branch2c
I0321 23:36:26.535573 24564 net.cpp:454] bn3a_branch2c <- res3a_branch2c
I0321 23:36:26.535593 24564 net.cpp:397] bn3a_branch2c -> res3a_branch2c (in-place)
I0321 23:36:26.535928 24564 net.cpp:150] Setting up bn3a_branch2c
I0321 23:36:26.535956 24564 net.cpp:157] Top shape: 16 512 28 28 (6422528)
I0321 23:36:26.535972 24564 net.cpp:165] Memory required for data: 1974927424
I0321 23:36:26.535998 24564 layer_factory.hpp:77] Creating layer scale3a_branch2c
I0321 23:36:26.536020 24564 net.cpp:106] Creating Layer scale3a_branch2c
I0321 23:36:26.536037 24564 net.cpp:454] scale3a_branch2c <- res3a_branch2c
I0321 23:36:26.536057 24564 net.cpp:397] scale3a_branch2c -> res3a_branch2c (in-place)
I0321 23:36:26.536159 24564 layer_factory.hpp:77] Creating layer scale3a_branch2c
I0321 23:36:26.536375 24564 net.cpp:150] Setting up scale3a_branch2c
I0321 23:36:26.536402 24564 net.cpp:157] Top shape: 16 512 28 28 (6422528)
I0321 23:36:26.536418 24564 net.cpp:165] Memory required for data: 2000617536
I0321 23:36:26.536440 24564 layer_factory.hpp:77] Creating layer res3a
I0321 23:36:26.536468 24564 net.cpp:106] Creating Layer res3a
I0321 23:36:26.536485 24564 net.cpp:454] res3a <- res3a_branch1
I0321 23:36:26.536504 24564 net.cpp:454] res3a <- res3a_branch2c
I0321 23:36:26.536522 24564 net.cpp:411] res3a -> res3a
I0321 23:36:26.536586 24564 net.cpp:150] Setting up res3a
I0321 23:36:26.536633 24564 net.cpp:157] Top shape: 16 512 28 28 (6422528)
I0321 23:36:26.536651 24564 net.cpp:165] Memory required for data: 2026307648
I0321 23:36:26.536667 24564 layer_factory.hpp:77] Creating layer res3a_relu
I0321 23:36:26.536687 24564 net.cpp:106] Creating Layer res3a_relu
I0321 23:36:26.536705 24564 net.cpp:454] res3a_relu <- res3a
I0321 23:36:26.536728 24564 net.cpp:397] res3a_relu -> res3a (in-place)
I0321 23:36:26.536751 24564 net.cpp:150] Setting up res3a_relu
I0321 23:36:26.536772 24564 net.cpp:157] Top shape: 16 512 28 28 (6422528)
I0321 23:36:26.536787 24564 net.cpp:165] Memory required for data: 2051997760
I0321 23:36:26.536803 24564 layer_factory.hpp:77] Creating layer res3a_res3a_relu_0_split
I0321 23:36:26.536821 24564 net.cpp:106] Creating Layer res3a_res3a_relu_0_split
I0321 23:36:26.536836 24564 net.cpp:454] res3a_res3a_relu_0_split <- res3a
I0321 23:36:26.536855 24564 net.cpp:411] res3a_res3a_relu_0_split -> res3a_res3a_relu_0_split_0
I0321 23:36:26.536876 24564 net.cpp:411] res3a_res3a_relu_0_split -> res3a_res3a_relu_0_split_1
I0321 23:36:26.536960 24564 net.cpp:150] Setting up res3a_res3a_relu_0_split
I0321 23:36:26.536988 24564 net.cpp:157] Top shape: 16 512 28 28 (6422528)
I0321 23:36:26.537005 24564 net.cpp:157] Top shape: 16 512 28 28 (6422528)
I0321 23:36:26.537020 24564 net.cpp:165] Memory required for data: 2103377984
I0321 23:36:26.537046 24564 layer_factory.hpp:77] Creating layer res3b_branch2a
I0321 23:36:26.537087 24564 net.cpp:106] Creating Layer res3b_branch2a
I0321 23:36:26.537106 24564 net.cpp:454] res3b_branch2a <- res3a_res3a_relu_0_split_0
I0321 23:36:26.537132 24564 net.cpp:411] res3b_branch2a -> res3b_branch2a
I0321 23:36:26.538465 24564 net.cpp:150] Setting up res3b_branch2a
I0321 23:36:26.538506 24564 net.cpp:157] Top shape: 16 128 28 28 (1605632)
I0321 23:36:26.538523 24564 net.cpp:165] Memory required for data: 2109800512
I0321 23:36:26.538545 24564 layer_factory.hpp:77] Creating layer bn3b_branch2a
I0321 23:36:26.538568 24564 net.cpp:106] Creating Layer bn3b_branch2a
I0321 23:36:26.538584 24564 net.cpp:454] bn3b_branch2a <- res3b_branch2a
I0321 23:36:26.538609 24564 net.cpp:397] bn3b_branch2a -> res3b_branch2a (in-place)
I0321 23:36:26.538954 24564 net.cpp:150] Setting up bn3b_branch2a
I0321 23:36:26.538982 24564 net.cpp:157] Top shape: 16 128 28 28 (1605632)
I0321 23:36:26.538998 24564 net.cpp:165] Memory required for data: 2116223040
I0321 23:36:26.539024 24564 layer_factory.hpp:77] Creating layer scale3b_branch2a
I0321 23:36:26.539047 24564 net.cpp:106] Creating Layer scale3b_branch2a
I0321 23:36:26.539064 24564 net.cpp:454] scale3b_branch2a <- res3b_branch2a
I0321 23:36:26.539083 24564 net.cpp:397] scale3b_branch2a -> res3b_branch2a (in-place)
I0321 23:36:26.539175 24564 layer_factory.hpp:77] Creating layer scale3b_branch2a
I0321 23:36:26.539398 24564 net.cpp:150] Setting up scale3b_branch2a
I0321 23:36:26.539427 24564 net.cpp:157] Top shape: 16 128 28 28 (1605632)
I0321 23:36:26.539443 24564 net.cpp:165] Memory required for data: 2122645568
I0321 23:36:26.539465 24564 layer_factory.hpp:77] Creating layer res3b_branch2a_relu
I0321 23:36:26.539486 24564 net.cpp:106] Creating Layer res3b_branch2a_relu
I0321 23:36:26.539517 24564 net.cpp:454] res3b_branch2a_relu <- res3b_branch2a
I0321 23:36:26.539543 24564 net.cpp:397] res3b_branch2a_relu -> res3b_branch2a (in-place)
I0321 23:36:26.539567 24564 net.cpp:150] Setting up res3b_branch2a_relu
I0321 23:36:26.539587 24564 net.cpp:157] Top shape: 16 128 28 28 (1605632)
I0321 23:36:26.539603 24564 net.cpp:165] Memory required for data: 2129068096
I0321 23:36:26.539618 24564 layer_factory.hpp:77] Creating layer res3b_branch2b
I0321 23:36:26.539641 24564 net.cpp:106] Creating Layer res3b_branch2b
I0321 23:36:26.539659 24564 net.cpp:454] res3b_branch2b <- res3b_branch2a
I0321 23:36:26.539685 24564 net.cpp:411] res3b_branch2b -> res3b_branch2b
I0321 23:36:26.541146 24564 net.cpp:150] Setting up res3b_branch2b
I0321 23:36:26.541183 24564 net.cpp:157] Top shape: 16 128 28 28 (1605632)
I0321 23:36:26.541200 24564 net.cpp:165] Memory required for data: 2135490624
I0321 23:36:26.541220 24564 layer_factory.hpp:77] Creating layer bn3b_branch2b
I0321 23:36:26.541242 24564 net.cpp:106] Creating Layer bn3b_branch2b
I0321 23:36:26.541260 24564 net.cpp:454] bn3b_branch2b <- res3b_branch2b
I0321 23:36:26.541280 24564 net.cpp:397] bn3b_branch2b -> res3b_branch2b (in-place)
I0321 23:36:26.541631 24564 net.cpp:150] Setting up bn3b_branch2b
I0321 23:36:26.541666 24564 net.cpp:157] Top shape: 16 128 28 28 (1605632)
I0321 23:36:26.541682 24564 net.cpp:165] Memory required for data: 2141913152
I0321 23:36:26.541708 24564 layer_factory.hpp:77] Creating layer scale3b_branch2b
I0321 23:36:26.541730 24564 net.cpp:106] Creating Layer scale3b_branch2b
I0321 23:36:26.541748 24564 net.cpp:454] scale3b_branch2b <- res3b_branch2b
I0321 23:36:26.541767 24564 net.cpp:397] scale3b_branch2b -> res3b_branch2b (in-place)
I0321 23:36:26.541863 24564 layer_factory.hpp:77] Creating layer scale3b_branch2b
I0321 23:36:26.542088 24564 net.cpp:150] Setting up scale3b_branch2b
I0321 23:36:26.542116 24564 net.cpp:157] Top shape: 16 128 28 28 (1605632)
I0321 23:36:26.542132 24564 net.cpp:165] Memory required for data: 2148335680
I0321 23:36:26.542158 24564 layer_factory.hpp:77] Creating layer res3b_branch2b_relu
I0321 23:36:26.542184 24564 net.cpp:106] Creating Layer res3b_branch2b_relu
I0321 23:36:26.542214 24564 net.cpp:454] res3b_branch2b_relu <- res3b_branch2b
I0321 23:36:26.542250 24564 net.cpp:397] res3b_branch2b_relu -> res3b_branch2b (in-place)
I0321 23:36:26.542274 24564 net.cpp:150] Setting up res3b_branch2b_relu
I0321 23:36:26.542294 24564 net.cpp:157] Top shape: 16 128 28 28 (1605632)
I0321 23:36:26.542310 24564 net.cpp:165] Memory required for data: 2154758208
I0321 23:36:26.542325 24564 layer_factory.hpp:77] Creating layer res3b_branch2c
I0321 23:36:26.542353 24564 net.cpp:106] Creating Layer res3b_branch2c
I0321 23:36:26.542371 24564 net.cpp:454] res3b_branch2c <- res3b_branch2b
I0321 23:36:26.542392 24564 net.cpp:411] res3b_branch2c -> res3b_branch2c
I0321 23:36:26.542809 24564 net.cpp:150] Setting up res3b_branch2c
I0321 23:36:26.542840 24564 net.cpp:157] Top shape: 16 512 28 28 (6422528)
I0321 23:36:26.542856 24564 net.cpp:165] Memory required for data: 2180448320
I0321 23:36:26.542876 24564 layer_factory.hpp:77] Creating layer bn3b_branch2c
I0321 23:36:26.542897 24564 net.cpp:106] Creating Layer bn3b_branch2c
I0321 23:36:26.542914 24564 net.cpp:454] bn3b_branch2c <- res3b_branch2c
I0321 23:36:26.542938 24564 net.cpp:397] bn3b_branch2c -> res3b_branch2c (in-place)
I0321 23:36:26.543288 24564 net.cpp:150] Setting up bn3b_branch2c
I0321 23:36:26.543318 24564 net.cpp:157] Top shape: 16 512 28 28 (6422528)
I0321 23:36:26.543334 24564 net.cpp:165] Memory required for data: 2206138432
I0321 23:36:26.543364 24564 layer_factory.hpp:77] Creating layer scale3b_branch2c
I0321 23:36:26.543385 24564 net.cpp:106] Creating Layer scale3b_branch2c
I0321 23:36:26.543401 24564 net.cpp:454] scale3b_branch2c <- res3b_branch2c
I0321 23:36:26.543421 24564 net.cpp:397] scale3b_branch2c -> res3b_branch2c (in-place)
I0321 23:36:26.543516 24564 layer_factory.hpp:77] Creating layer scale3b_branch2c
I0321 23:36:26.543742 24564 net.cpp:150] Setting up scale3b_branch2c
I0321 23:36:26.543771 24564 net.cpp:157] Top shape: 16 512 28 28 (6422528)
I0321 23:36:26.543787 24564 net.cpp:165] Memory required for data: 2231828544
I0321 23:36:26.543809 24564 layer_factory.hpp:77] Creating layer res3b
I0321 23:36:26.543831 24564 net.cpp:106] Creating Layer res3b
I0321 23:36:26.543848 24564 net.cpp:454] res3b <- res3a_res3a_relu_0_split_1
I0321 23:36:26.543871 24564 net.cpp:454] res3b <- res3b_branch2c
I0321 23:36:26.543892 24564 net.cpp:411] res3b -> res3b
I0321 23:36:26.543951 24564 net.cpp:150] Setting up res3b
I0321 23:36:26.543977 24564 net.cpp:157] Top shape: 16 512 28 28 (6422528)
I0321 23:36:26.543992 24564 net.cpp:165] Memory required for data: 2257518656
I0321 23:36:26.544008 24564 layer_factory.hpp:77] Creating layer res3b_relu
I0321 23:36:26.544033 24564 net.cpp:106] Creating Layer res3b_relu
I0321 23:36:26.544049 24564 net.cpp:454] res3b_relu <- res3b
I0321 23:36:26.544069 24564 net.cpp:397] res3b_relu -> res3b (in-place)
I0321 23:36:26.544090 24564 net.cpp:150] Setting up res3b_relu
I0321 23:36:26.544109 24564 net.cpp:157] Top shape: 16 512 28 28 (6422528)
I0321 23:36:26.544124 24564 net.cpp:165] Memory required for data: 2283208768
I0321 23:36:26.544139 24564 layer_factory.hpp:77] Creating layer res3b_res3b_relu_0_split
I0321 23:36:26.544163 24564 net.cpp:106] Creating Layer res3b_res3b_relu_0_split
I0321 23:36:26.544180 24564 net.cpp:454] res3b_res3b_relu_0_split <- res3b
I0321 23:36:26.544200 24564 net.cpp:411] res3b_res3b_relu_0_split -> res3b_res3b_relu_0_split_0
I0321 23:36:26.544222 24564 net.cpp:411] res3b_res3b_relu_0_split -> res3b_res3b_relu_0_split_1
I0321 23:36:26.544304 24564 net.cpp:150] Setting up res3b_res3b_relu_0_split
I0321 23:36:26.544329 24564 net.cpp:157] Top shape: 16 512 28 28 (6422528)
I0321 23:36:26.544358 24564 net.cpp:157] Top shape: 16 512 28 28 (6422528)
I0321 23:36:26.544373 24564 net.cpp:165] Memory required for data: 2334588992
I0321 23:36:26.544389 24564 layer_factory.hpp:77] Creating layer res3c_branch2a
I0321 23:36:26.544416 24564 net.cpp:106] Creating Layer res3c_branch2a
I0321 23:36:26.544436 24564 net.cpp:454] res3c_branch2a <- res3b_res3b_relu_0_split_0
I0321 23:36:26.544457 24564 net.cpp:411] res3c_branch2a -> res3c_branch2a
I0321 23:36:26.544917 24564 net.cpp:150] Setting up res3c_branch2a
I0321 23:36:26.544951 24564 net.cpp:157] Top shape: 16 128 28 28 (1605632)
I0321 23:36:26.544967 24564 net.cpp:165] Memory required for data: 2341011520
I0321 23:36:26.544988 24564 layer_factory.hpp:77] Creating layer bn3c_branch2a
I0321 23:36:26.545013 24564 net.cpp:106] Creating Layer bn3c_branch2a
I0321 23:36:26.545032 24564 net.cpp:454] bn3c_branch2a <- res3c_branch2a
I0321 23:36:26.545052 24564 net.cpp:397] bn3c_branch2a -> res3c_branch2a (in-place)
I0321 23:36:26.545397 24564 net.cpp:150] Setting up bn3c_branch2a
I0321 23:36:26.545426 24564 net.cpp:157] Top shape: 16 128 28 28 (1605632)
I0321 23:36:26.545442 24564 net.cpp:165] Memory required for data: 2347434048
I0321 23:36:26.545467 24564 layer_factory.hpp:77] Creating layer scale3c_branch2a
I0321 23:36:26.545495 24564 net.cpp:106] Creating Layer scale3c_branch2a
I0321 23:36:26.545514 24564 net.cpp:454] scale3c_branch2a <- res3c_branch2a
I0321 23:36:26.545534 24564 net.cpp:397] scale3c_branch2a -> res3c_branch2a (in-place)
I0321 23:36:26.545627 24564 layer_factory.hpp:77] Creating layer scale3c_branch2a
I0321 23:36:26.545862 24564 net.cpp:150] Setting up scale3c_branch2a
I0321 23:36:26.545892 24564 net.cpp:157] Top shape: 16 128 28 28 (1605632)
I0321 23:36:26.545907 24564 net.cpp:165] Memory required for data: 2353856576
I0321 23:36:26.545929 24564 layer_factory.hpp:77] Creating layer res3c_branch2a_relu
I0321 23:36:26.545950 24564 net.cpp:106] Creating Layer res3c_branch2a_relu
I0321 23:36:26.545966 24564 net.cpp:454] res3c_branch2a_relu <- res3c_branch2a
I0321 23:36:26.545985 24564 net.cpp:397] res3c_branch2a_relu -> res3c_branch2a (in-place)
I0321 23:36:26.546006 24564 net.cpp:150] Setting up res3c_branch2a_relu
I0321 23:36:26.546026 24564 net.cpp:157] Top shape: 16 128 28 28 (1605632)
I0321 23:36:26.546041 24564 net.cpp:165] Memory required for data: 2360279104
I0321 23:36:26.546056 24564 layer_factory.hpp:77] Creating layer res3c_branch2b
I0321 23:36:26.546084 24564 net.cpp:106] Creating Layer res3c_branch2b
I0321 23:36:26.546102 24564 net.cpp:454] res3c_branch2b <- res3c_branch2a
I0321 23:36:26.546125 24564 net.cpp:411] res3c_branch2b -> res3c_branch2b
I0321 23:36:26.547572 24564 net.cpp:150] Setting up res3c_branch2b
I0321 23:36:26.547608 24564 net.cpp:157] Top shape: 16 128 28 28 (1605632)
I0321 23:36:26.547626 24564 net.cpp:165] Memory required for data: 2366701632
I0321 23:36:26.547646 24564 layer_factory.hpp:77] Creating layer bn3c_branch2b
I0321 23:36:26.547673 24564 net.cpp:106] Creating Layer bn3c_branch2b
I0321 23:36:26.547693 24564 net.cpp:454] bn3c_branch2b <- res3c_branch2b
I0321 23:36:26.547713 24564 net.cpp:397] bn3c_branch2b -> res3c_branch2b (in-place)
I0321 23:36:26.548104 24564 net.cpp:150] Setting up bn3c_branch2b
I0321 23:36:26.548135 24564 net.cpp:157] Top shape: 16 128 28 28 (1605632)
I0321 23:36:26.548151 24564 net.cpp:165] Memory required for data: 2373124160
I0321 23:36:26.548182 24564 layer_factory.hpp:77] Creating layer scale3c_branch2b
I0321 23:36:26.548204 24564 net.cpp:106] Creating Layer scale3c_branch2b
I0321 23:36:26.548223 24564 net.cpp:454] scale3c_branch2b <- res3c_branch2b
I0321 23:36:26.548249 24564 net.cpp:397] scale3c_branch2b -> res3c_branch2b (in-place)
I0321 23:36:26.548338 24564 layer_factory.hpp:77] Creating layer scale3c_branch2b
I0321 23:36:26.548566 24564 net.cpp:150] Setting up scale3c_branch2b
I0321 23:36:26.548595 24564 net.cpp:157] Top shape: 16 128 28 28 (1605632)
I0321 23:36:26.548636 24564 net.cpp:165] Memory required for data: 2379546688
I0321 23:36:26.548663 24564 layer_factory.hpp:77] Creating layer res3c_branch2b_relu
I0321 23:36:26.548691 24564 net.cpp:106] Creating Layer res3c_branch2b_relu
I0321 23:36:26.548708 24564 net.cpp:454] res3c_branch2b_relu <- res3c_branch2b
I0321 23:36:26.548727 24564 net.cpp:397] res3c_branch2b_relu -> res3c_branch2b (in-place)
I0321 23:36:26.548750 24564 net.cpp:150] Setting up res3c_branch2b_relu
I0321 23:36:26.548769 24564 net.cpp:157] Top shape: 16 128 28 28 (1605632)
I0321 23:36:26.548795 24564 net.cpp:165] Memory required for data: 2385969216
I0321 23:36:26.548827 24564 layer_factory.hpp:77] Creating layer res3c_branch2c
I0321 23:36:26.548857 24564 net.cpp:106] Creating Layer res3c_branch2c
I0321 23:36:26.548876 24564 net.cpp:454] res3c_branch2c <- res3c_branch2b
I0321 23:36:26.548897 24564 net.cpp:411] res3c_branch2c -> res3c_branch2c
I0321 23:36:26.550726 24564 net.cpp:150] Setting up res3c_branch2c
I0321 23:36:26.550766 24564 net.cpp:157] Top shape: 16 512 28 28 (6422528)
I0321 23:36:26.550781 24564 net.cpp:165] Memory required for data: 2411659328
I0321 23:36:26.550799 24564 layer_factory.hpp:77] Creating layer bn3c_branch2c
I0321 23:36:26.550823 24564 net.cpp:106] Creating Layer bn3c_branch2c
I0321 23:36:26.550839 24564 net.cpp:454] bn3c_branch2c <- res3c_branch2c
I0321 23:36:26.550855 24564 net.cpp:397] bn3c_branch2c -> res3c_branch2c (in-place)
I0321 23:36:26.551144 24564 net.cpp:150] Setting up bn3c_branch2c
I0321 23:36:26.551168 24564 net.cpp:157] Top shape: 16 512 28 28 (6422528)
I0321 23:36:26.551180 24564 net.cpp:165] Memory required for data: 2437349440
I0321 23:36:26.551203 24564 layer_factory.hpp:77] Creating layer scale3c_branch2c
I0321 23:36:26.551220 24564 net.cpp:106] Creating Layer scale3c_branch2c
I0321 23:36:26.551234 24564 net.cpp:454] scale3c_branch2c <- res3c_branch2c
I0321 23:36:26.551254 24564 net.cpp:397] scale3c_branch2c -> res3c_branch2c (in-place)
I0321 23:36:26.551328 24564 layer_factory.hpp:77] Creating layer scale3c_branch2c
I0321 23:36:26.551553 24564 net.cpp:150] Setting up scale3c_branch2c
I0321 23:36:26.551585 24564 net.cpp:157] Top shape: 16 512 28 28 (6422528)
I0321 23:36:26.551611 24564 net.cpp:165] Memory required for data: 2463039552
I0321 23:36:26.551635 24564 layer_factory.hpp:77] Creating layer res3c
I0321 23:36:26.551657 24564 net.cpp:106] Creating Layer res3c
I0321 23:36:26.551676 24564 net.cpp:454] res3c <- res3b_res3b_relu_0_split_1
I0321 23:36:26.551694 24564 net.cpp:454] res3c <- res3c_branch2c
I0321 23:36:26.551714 24564 net.cpp:411] res3c -> res3c
I0321 23:36:26.551781 24564 net.cpp:150] Setting up res3c
I0321 23:36:26.551811 24564 net.cpp:157] Top shape: 16 512 28 28 (6422528)
I0321 23:36:26.551828 24564 net.cpp:165] Memory required for data: 2488729664
I0321 23:36:26.551846 24564 layer_factory.hpp:77] Creating layer res3c_relu
I0321 23:36:26.551870 24564 net.cpp:106] Creating Layer res3c_relu
I0321 23:36:26.551888 24564 net.cpp:454] res3c_relu <- res3c
I0321 23:36:26.551908 24564 net.cpp:397] res3c_relu -> res3c (in-place)
I0321 23:36:26.551930 24564 net.cpp:150] Setting up res3c_relu
I0321 23:36:26.551950 24564 net.cpp:157] Top shape: 16 512 28 28 (6422528)
I0321 23:36:26.551966 24564 net.cpp:165] Memory required for data: 2514419776
I0321 23:36:26.551982 24564 layer_factory.hpp:77] Creating layer res3c_res3c_relu_0_split
I0321 23:36:26.552001 24564 net.cpp:106] Creating Layer res3c_res3c_relu_0_split
I0321 23:36:26.552017 24564 net.cpp:454] res3c_res3c_relu_0_split <- res3c
I0321 23:36:26.552037 24564 net.cpp:411] res3c_res3c_relu_0_split -> res3c_res3c_relu_0_split_0
I0321 23:36:26.552065 24564 net.cpp:411] res3c_res3c_relu_0_split -> res3c_res3c_relu_0_split_1
I0321 23:36:26.552145 24564 net.cpp:150] Setting up res3c_res3c_relu_0_split
I0321 23:36:26.552171 24564 net.cpp:157] Top shape: 16 512 28 28 (6422528)
I0321 23:36:26.552191 24564 net.cpp:157] Top shape: 16 512 28 28 (6422528)
I0321 23:36:26.552206 24564 net.cpp:165] Memory required for data: 2565800000
I0321 23:36:26.552222 24564 layer_factory.hpp:77] Creating layer res3d_branch2a
I0321 23:36:26.552250 24564 net.cpp:106] Creating Layer res3d_branch2a
I0321 23:36:26.552268 24564 net.cpp:454] res3d_branch2a <- res3c_res3c_relu_0_split_0
I0321 23:36:26.552289 24564 net.cpp:411] res3d_branch2a -> res3d_branch2a
I0321 23:36:26.553705 24564 net.cpp:150] Setting up res3d_branch2a
I0321 23:36:26.553745 24564 net.cpp:157] Top shape: 16 128 28 28 (1605632)
I0321 23:36:26.553761 24564 net.cpp:165] Memory required for data: 2572222528
I0321 23:36:26.553782 24564 layer_factory.hpp:77] Creating layer bn3d_branch2a
I0321 23:36:26.553835 24564 net.cpp:106] Creating Layer bn3d_branch2a
I0321 23:36:26.553856 24564 net.cpp:454] bn3d_branch2a <- res3d_branch2a
I0321 23:36:26.553877 24564 net.cpp:397] bn3d_branch2a -> res3d_branch2a (in-place)
I0321 23:36:26.554246 24564 net.cpp:150] Setting up bn3d_branch2a
I0321 23:36:26.554276 24564 net.cpp:157] Top shape: 16 128 28 28 (1605632)
I0321 23:36:26.554292 24564 net.cpp:165] Memory required for data: 2578645056
I0321 23:36:26.554360 24564 layer_factory.hpp:77] Creating layer scale3d_branch2a
I0321 23:36:26.554388 24564 net.cpp:106] Creating Layer scale3d_branch2a
I0321 23:36:26.554404 24564 net.cpp:454] scale3d_branch2a <- res3d_branch2a
I0321 23:36:26.554430 24564 net.cpp:397] scale3d_branch2a -> res3d_branch2a (in-place)
I0321 23:36:26.554530 24564 layer_factory.hpp:77] Creating layer scale3d_branch2a
I0321 23:36:26.554762 24564 net.cpp:150] Setting up scale3d_branch2a
I0321 23:36:26.554791 24564 net.cpp:157] Top shape: 16 128 28 28 (1605632)
I0321 23:36:26.554807 24564 net.cpp:165] Memory required for data: 2585067584
I0321 23:36:26.554831 24564 layer_factory.hpp:77] Creating layer res3d_branch2a_relu
I0321 23:36:26.554852 24564 net.cpp:106] Creating Layer res3d_branch2a_relu
I0321 23:36:26.554868 24564 net.cpp:454] res3d_branch2a_relu <- res3d_branch2a
I0321 23:36:26.554888 24564 net.cpp:397] res3d_branch2a_relu -> res3d_branch2a (in-place)
I0321 23:36:26.554909 24564 net.cpp:150] Setting up res3d_branch2a_relu
I0321 23:36:26.554929 24564 net.cpp:157] Top shape: 16 128 28 28 (1605632)
I0321 23:36:26.554944 24564 net.cpp:165] Memory required for data: 2591490112
I0321 23:36:26.554960 24564 layer_factory.hpp:77] Creating layer res3d_branch2b
I0321 23:36:26.554985 24564 net.cpp:106] Creating Layer res3d_branch2b
I0321 23:36:26.555001 24564 net.cpp:454] res3d_branch2b <- res3d_branch2a
I0321 23:36:26.555027 24564 net.cpp:411] res3d_branch2b -> res3d_branch2b
I0321 23:36:26.556533 24564 net.cpp:150] Setting up res3d_branch2b
I0321 23:36:26.556571 24564 net.cpp:157] Top shape: 16 128 28 28 (1605632)
I0321 23:36:26.556587 24564 net.cpp:165] Memory required for data: 2597912640
I0321 23:36:26.556608 24564 layer_factory.hpp:77] Creating layer bn3d_branch2b
I0321 23:36:26.556653 24564 net.cpp:106] Creating Layer bn3d_branch2b
I0321 23:36:26.556671 24564 net.cpp:454] bn3d_branch2b <- res3d_branch2b
I0321 23:36:26.556694 24564 net.cpp:397] bn3d_branch2b -> res3d_branch2b (in-place)
I0321 23:36:26.557050 24564 net.cpp:150] Setting up bn3d_branch2b
I0321 23:36:26.557086 24564 net.cpp:157] Top shape: 16 128 28 28 (1605632)
I0321 23:36:26.557103 24564 net.cpp:165] Memory required for data: 2604335168
I0321 23:36:26.557130 24564 layer_factory.hpp:77] Creating layer scale3d_branch2b
I0321 23:36:26.557153 24564 net.cpp:106] Creating Layer scale3d_branch2b
I0321 23:36:26.557170 24564 net.cpp:454] scale3d_branch2b <- res3d_branch2b
I0321 23:36:26.557189 24564 net.cpp:397] scale3d_branch2b -> res3d_branch2b (in-place)
I0321 23:36:26.557286 24564 layer_factory.hpp:77] Creating layer scale3d_branch2b
I0321 23:36:26.557521 24564 net.cpp:150] Setting up scale3d_branch2b
I0321 23:36:26.557550 24564 net.cpp:157] Top shape: 16 128 28 28 (1605632)
I0321 23:36:26.557566 24564 net.cpp:165] Memory required for data: 2610757696
I0321 23:36:26.557588 24564 layer_factory.hpp:77] Creating layer res3d_branch2b_relu
I0321 23:36:26.557615 24564 net.cpp:106] Creating Layer res3d_branch2b_relu
I0321 23:36:26.557632 24564 net.cpp:454] res3d_branch2b_relu <- res3d_branch2b
I0321 23:36:26.557651 24564 net.cpp:397] res3d_branch2b_relu -> res3d_branch2b (in-place)
I0321 23:36:26.557673 24564 net.cpp:150] Setting up res3d_branch2b_relu
I0321 23:36:26.557693 24564 net.cpp:157] Top shape: 16 128 28 28 (1605632)
I0321 23:36:26.557708 24564 net.cpp:165] Memory required for data: 2617180224
I0321 23:36:26.557724 24564 layer_factory.hpp:77] Creating layer res3d_branch2c
I0321 23:36:26.557754 24564 net.cpp:106] Creating Layer res3d_branch2c
I0321 23:36:26.557772 24564 net.cpp:454] res3d_branch2c <- res3d_branch2b
I0321 23:36:26.557806 24564 net.cpp:411] res3d_branch2c -> res3d_branch2c
I0321 23:36:26.558255 24564 net.cpp:150] Setting up res3d_branch2c
I0321 23:36:26.558287 24564 net.cpp:157] Top shape: 16 512 28 28 (6422528)
I0321 23:36:26.558303 24564 net.cpp:165] Memory required for data: 2642870336
I0321 23:36:26.558323 24564 layer_factory.hpp:77] Creating layer bn3d_branch2c
I0321 23:36:26.558346 24564 net.cpp:106] Creating Layer bn3d_branch2c
I0321 23:36:26.558362 24564 net.cpp:454] bn3d_branch2c <- res3d_branch2c
I0321 23:36:26.558387 24564 net.cpp:397] bn3d_branch2c -> res3d_branch2c (in-place)
I0321 23:36:26.558748 24564 net.cpp:150] Setting up bn3d_branch2c
I0321 23:36:26.558778 24564 net.cpp:157] Top shape: 16 512 28 28 (6422528)
I0321 23:36:26.558794 24564 net.cpp:165] Memory required for data: 2668560448
I0321 23:36:26.558818 24564 layer_factory.hpp:77] Creating layer scale3d_branch2c
I0321 23:36:26.558840 24564 net.cpp:106] Creating Layer scale3d_branch2c
I0321 23:36:26.558861 24564 net.cpp:454] scale3d_branch2c <- res3d_branch2c
I0321 23:36:26.558881 24564 net.cpp:397] scale3d_branch2c -> res3d_branch2c (in-place)
I0321 23:36:26.558980 24564 layer_factory.hpp:77] Creating layer scale3d_branch2c
I0321 23:36:26.559213 24564 net.cpp:150] Setting up scale3d_branch2c
I0321 23:36:26.559242 24564 net.cpp:157] Top shape: 16 512 28 28 (6422528)
I0321 23:36:26.559258 24564 net.cpp:165] Memory required for data: 2694250560
I0321 23:36:26.559280 24564 layer_factory.hpp:77] Creating layer res3d
I0321 23:36:26.559301 24564 net.cpp:106] Creating Layer res3d
I0321 23:36:26.559319 24564 net.cpp:454] res3d <- res3c_res3c_relu_0_split_1
I0321 23:36:26.559337 24564 net.cpp:454] res3d <- res3d_branch2c
I0321 23:36:26.559362 24564 net.cpp:411] res3d -> res3d
I0321 23:36:26.559420 24564 net.cpp:150] Setting up res3d
I0321 23:36:26.559447 24564 net.cpp:157] Top shape: 16 512 28 28 (6422528)
I0321 23:36:26.559463 24564 net.cpp:165] Memory required for data: 2719940672
I0321 23:36:26.559478 24564 layer_factory.hpp:77] Creating layer res3d_relu
I0321 23:36:26.559502 24564 net.cpp:106] Creating Layer res3d_relu
I0321 23:36:26.559520 24564 net.cpp:454] res3d_relu <- res3d
I0321 23:36:26.559540 24564 net.cpp:397] res3d_relu -> res3d (in-place)
I0321 23:36:26.559561 24564 net.cpp:150] Setting up res3d_relu
I0321 23:36:26.559581 24564 net.cpp:157] Top shape: 16 512 28 28 (6422528)
I0321 23:36:26.559597 24564 net.cpp:165] Memory required for data: 2745630784
I0321 23:36:26.559612 24564 layer_factory.hpp:77] Creating layer res3d_res3d_relu_0_split
I0321 23:36:26.559635 24564 net.cpp:106] Creating Layer res3d_res3d_relu_0_split
I0321 23:36:26.559653 24564 net.cpp:454] res3d_res3d_relu_0_split <- res3d
I0321 23:36:26.559672 24564 net.cpp:411] res3d_res3d_relu_0_split -> res3d_res3d_relu_0_split_0
I0321 23:36:26.559694 24564 net.cpp:411] res3d_res3d_relu_0_split -> res3d_res3d_relu_0_split_1
I0321 23:36:26.559778 24564 net.cpp:150] Setting up res3d_res3d_relu_0_split
I0321 23:36:26.559804 24564 net.cpp:157] Top shape: 16 512 28 28 (6422528)
I0321 23:36:26.559823 24564 net.cpp:157] Top shape: 16 512 28 28 (6422528)
I0321 23:36:26.559839 24564 net.cpp:165] Memory required for data: 2797011008
I0321 23:36:26.559854 24564 layer_factory.hpp:77] Creating layer res4a_branch1
I0321 23:36:26.559887 24564 net.cpp:106] Creating Layer res4a_branch1
I0321 23:36:26.559907 24564 net.cpp:454] res4a_branch1 <- res3d_res3d_relu_0_split_0
I0321 23:36:26.559929 24564 net.cpp:411] res4a_branch1 -> res4a_branch1
I0321 23:36:26.562585 24564 net.cpp:150] Setting up res4a_branch1
I0321 23:36:26.562626 24564 net.cpp:157] Top shape: 16 1024 14 14 (3211264)
I0321 23:36:26.562644 24564 net.cpp:165] Memory required for data: 2809856064
I0321 23:36:26.562664 24564 layer_factory.hpp:77] Creating layer bn4a_branch1
I0321 23:36:26.562690 24564 net.cpp:106] Creating Layer bn4a_branch1
I0321 23:36:26.562708 24564 net.cpp:454] bn4a_branch1 <- res4a_branch1
I0321 23:36:26.562733 24564 net.cpp:397] bn4a_branch1 -> res4a_branch1 (in-place)
I0321 23:36:26.563108 24564 net.cpp:150] Setting up bn4a_branch1
I0321 23:36:26.563148 24564 net.cpp:157] Top shape: 16 1024 14 14 (3211264)
I0321 23:36:26.563180 24564 net.cpp:165] Memory required for data: 2822701120
I0321 23:36:26.563207 24564 layer_factory.hpp:77] Creating layer scale4a_branch1
I0321 23:36:26.563231 24564 net.cpp:106] Creating Layer scale4a_branch1
I0321 23:36:26.563248 24564 net.cpp:454] scale4a_branch1 <- res4a_branch1
I0321 23:36:26.563268 24564 net.cpp:397] scale4a_branch1 -> res4a_branch1 (in-place)
I0321 23:36:26.563360 24564 layer_factory.hpp:77] Creating layer scale4a_branch1
I0321 23:36:26.563596 24564 net.cpp:150] Setting up scale4a_branch1
I0321 23:36:26.563624 24564 net.cpp:157] Top shape: 16 1024 14 14 (3211264)
I0321 23:36:26.563640 24564 net.cpp:165] Memory required for data: 2835546176
I0321 23:36:26.563663 24564 layer_factory.hpp:77] Creating layer res4a_branch2a
I0321 23:36:26.563693 24564 net.cpp:106] Creating Layer res4a_branch2a
I0321 23:36:26.563712 24564 net.cpp:454] res4a_branch2a <- res3d_res3d_relu_0_split_1
I0321 23:36:26.563733 24564 net.cpp:411] res4a_branch2a -> res4a_branch2a
I0321 23:36:26.564327 24564 net.cpp:150] Setting up res4a_branch2a
I0321 23:36:26.564365 24564 net.cpp:157] Top shape: 16 256 14 14 (802816)
I0321 23:36:26.564383 24564 net.cpp:165] Memory required for data: 2838757440
I0321 23:36:26.564401 24564 layer_factory.hpp:77] Creating layer bn4a_branch2a
I0321 23:36:26.564422 24564 net.cpp:106] Creating Layer bn4a_branch2a
I0321 23:36:26.564440 24564 net.cpp:454] bn4a_branch2a <- res4a_branch2a
I0321 23:36:26.564460 24564 net.cpp:397] bn4a_branch2a -> res4a_branch2a (in-place)
I0321 23:36:26.564823 24564 net.cpp:150] Setting up bn4a_branch2a
I0321 23:36:26.564854 24564 net.cpp:157] Top shape: 16 256 14 14 (802816)
I0321 23:36:26.564870 24564 net.cpp:165] Memory required for data: 2841968704
I0321 23:36:26.564925 24564 layer_factory.hpp:77] Creating layer scale4a_branch2a
I0321 23:36:26.564949 24564 net.cpp:106] Creating Layer scale4a_branch2a
I0321 23:36:26.564966 24564 net.cpp:454] scale4a_branch2a <- res4a_branch2a
I0321 23:36:26.564986 24564 net.cpp:397] scale4a_branch2a -> res4a_branch2a (in-place)
I0321 23:36:26.565086 24564 layer_factory.hpp:77] Creating layer scale4a_branch2a
I0321 23:36:26.565320 24564 net.cpp:150] Setting up scale4a_branch2a
I0321 23:36:26.565351 24564 net.cpp:157] Top shape: 16 256 14 14 (802816)
I0321 23:36:26.565366 24564 net.cpp:165] Memory required for data: 2845179968
I0321 23:36:26.565388 24564 layer_factory.hpp:77] Creating layer res4a_branch2a_relu
I0321 23:36:26.565415 24564 net.cpp:106] Creating Layer res4a_branch2a_relu
I0321 23:36:26.565434 24564 net.cpp:454] res4a_branch2a_relu <- res4a_branch2a
I0321 23:36:26.565454 24564 net.cpp:397] res4a_branch2a_relu -> res4a_branch2a (in-place)
I0321 23:36:26.565475 24564 net.cpp:150] Setting up res4a_branch2a_relu
I0321 23:36:26.565495 24564 net.cpp:157] Top shape: 16 256 14 14 (802816)
I0321 23:36:26.565510 24564 net.cpp:165] Memory required for data: 2848391232
I0321 23:36:26.565526 24564 layer_factory.hpp:77] Creating layer res4a_branch2b
I0321 23:36:26.565554 24564 net.cpp:106] Creating Layer res4a_branch2b
I0321 23:36:26.565572 24564 net.cpp:454] res4a_branch2b <- res4a_branch2a
I0321 23:36:26.565593 24564 net.cpp:411] res4a_branch2b -> res4a_branch2b
I0321 23:36:26.568434 24564 net.cpp:150] Setting up res4a_branch2b
I0321 23:36:26.568472 24564 net.cpp:157] Top shape: 16 256 14 14 (802816)
I0321 23:36:26.568490 24564 net.cpp:165] Memory required for data: 2851602496
I0321 23:36:26.568511 24564 layer_factory.hpp:77] Creating layer bn4a_branch2b
I0321 23:36:26.568568 24564 net.cpp:106] Creating Layer bn4a_branch2b
I0321 23:36:26.568588 24564 net.cpp:454] bn4a_branch2b <- res4a_branch2b
I0321 23:36:26.568608 24564 net.cpp:397] bn4a_branch2b -> res4a_branch2b (in-place)
I0321 23:36:26.568989 24564 net.cpp:150] Setting up bn4a_branch2b
I0321 23:36:26.569018 24564 net.cpp:157] Top shape: 16 256 14 14 (802816)
I0321 23:36:26.569034 24564 net.cpp:165] Memory required for data: 2854813760
I0321 23:36:26.569061 24564 layer_factory.hpp:77] Creating layer scale4a_branch2b
I0321 23:36:26.569113 24564 net.cpp:106] Creating Layer scale4a_branch2b
I0321 23:36:26.569133 24564 net.cpp:454] scale4a_branch2b <- res4a_branch2b
I0321 23:36:26.569154 24564 net.cpp:397] scale4a_branch2b -> res4a_branch2b (in-place)
I0321 23:36:26.569252 24564 layer_factory.hpp:77] Creating layer scale4a_branch2b
I0321 23:36:26.569480 24564 net.cpp:150] Setting up scale4a_branch2b
I0321 23:36:26.569509 24564 net.cpp:157] Top shape: 16 256 14 14 (802816)
I0321 23:36:26.569525 24564 net.cpp:165] Memory required for data: 2858025024
I0321 23:36:26.569547 24564 layer_factory.hpp:77] Creating layer res4a_branch2b_relu
I0321 23:36:26.569567 24564 net.cpp:106] Creating Layer res4a_branch2b_relu
I0321 23:36:26.569584 24564 net.cpp:454] res4a_branch2b_relu <- res4a_branch2b
I0321 23:36:26.569607 24564 net.cpp:397] res4a_branch2b_relu -> res4a_branch2b (in-place)
I0321 23:36:26.569631 24564 net.cpp:150] Setting up res4a_branch2b_relu
I0321 23:36:26.569651 24564 net.cpp:157] Top shape: 16 256 14 14 (802816)
I0321 23:36:26.569667 24564 net.cpp:165] Memory required for data: 2861236288
I0321 23:36:26.569682 24564 layer_factory.hpp:77] Creating layer res4a_branch2c
I0321 23:36:26.569706 24564 net.cpp:106] Creating Layer res4a_branch2c
I0321 23:36:26.569723 24564 net.cpp:454] res4a_branch2c <- res4a_branch2b
I0321 23:36:26.569753 24564 net.cpp:411] res4a_branch2c -> res4a_branch2c
I0321 23:36:26.571501 24564 net.cpp:150] Setting up res4a_branch2c
I0321 23:36:26.571539 24564 net.cpp:157] Top shape: 16 1024 14 14 (3211264)
I0321 23:36:26.571557 24564 net.cpp:165] Memory required for data: 2874081344
I0321 23:36:26.571578 24564 layer_factory.hpp:77] Creating layer bn4a_branch2c
I0321 23:36:26.571604 24564 net.cpp:106] Creating Layer bn4a_branch2c
I0321 23:36:26.571624 24564 net.cpp:454] bn4a_branch2c <- res4a_branch2c
I0321 23:36:26.571643 24564 net.cpp:397] bn4a_branch2c -> res4a_branch2c (in-place)
I0321 23:36:26.572021 24564 net.cpp:150] Setting up bn4a_branch2c
I0321 23:36:26.572051 24564 net.cpp:157] Top shape: 16 1024 14 14 (3211264)
I0321 23:36:26.572067 24564 net.cpp:165] Memory required for data: 2886926400
I0321 23:36:26.572093 24564 layer_factory.hpp:77] Creating layer scale4a_branch2c
I0321 23:36:26.572115 24564 net.cpp:106] Creating Layer scale4a_branch2c
I0321 23:36:26.572132 24564 net.cpp:454] scale4a_branch2c <- res4a_branch2c
I0321 23:36:26.572154 24564 net.cpp:397] scale4a_branch2c -> res4a_branch2c (in-place)
I0321 23:36:26.572248 24564 layer_factory.hpp:77] Creating layer scale4a_branch2c
I0321 23:36:26.572489 24564 net.cpp:150] Setting up scale4a_branch2c
I0321 23:36:26.572518 24564 net.cpp:157] Top shape: 16 1024 14 14 (3211264)
I0321 23:36:26.572535 24564 net.cpp:165] Memory required for data: 2899771456
I0321 23:36:26.572557 24564 layer_factory.hpp:77] Creating layer res4a
I0321 23:36:26.572583 24564 net.cpp:106] Creating Layer res4a
I0321 23:36:26.572602 24564 net.cpp:454] res4a <- res4a_branch1
I0321 23:36:26.572633 24564 net.cpp:454] res4a <- res4a_branch2c
I0321 23:36:26.572656 24564 net.cpp:411] res4a -> res4a
I0321 23:36:26.572716 24564 net.cpp:150] Setting up res4a
I0321 23:36:26.572749 24564 net.cpp:157] Top shape: 16 1024 14 14 (3211264)
I0321 23:36:26.572767 24564 net.cpp:165] Memory required for data: 2912616512
I0321 23:36:26.572782 24564 layer_factory.hpp:77] Creating layer res4a_relu
I0321 23:36:26.572803 24564 net.cpp:106] Creating Layer res4a_relu
I0321 23:36:26.572819 24564 net.cpp:454] res4a_relu <- res4a
I0321 23:36:26.572842 24564 net.cpp:397] res4a_relu -> res4a (in-place)
I0321 23:36:26.572866 24564 net.cpp:150] Setting up res4a_relu
I0321 23:36:26.572886 24564 net.cpp:157] Top shape: 16 1024 14 14 (3211264)
I0321 23:36:26.572901 24564 net.cpp:165] Memory required for data: 2925461568
I0321 23:36:26.572917 24564 layer_factory.hpp:77] Creating layer res4a_res4a_relu_0_split
I0321 23:36:26.572937 24564 net.cpp:106] Creating Layer res4a_res4a_relu_0_split
I0321 23:36:26.572953 24564 net.cpp:454] res4a_res4a_relu_0_split <- res4a
I0321 23:36:26.572983 24564 net.cpp:411] res4a_res4a_relu_0_split -> res4a_res4a_relu_0_split_0
I0321 23:36:26.573024 24564 net.cpp:411] res4a_res4a_relu_0_split -> res4a_res4a_relu_0_split_1
I0321 23:36:26.573110 24564 net.cpp:150] Setting up res4a_res4a_relu_0_split
I0321 23:36:26.573137 24564 net.cpp:157] Top shape: 16 1024 14 14 (3211264)
I0321 23:36:26.573155 24564 net.cpp:157] Top shape: 16 1024 14 14 (3211264)
I0321 23:36:26.573170 24564 net.cpp:165] Memory required for data: 2951151680
I0321 23:36:26.573186 24564 layer_factory.hpp:77] Creating layer res4b_branch2a
I0321 23:36:26.573241 24564 net.cpp:106] Creating Layer res4b_branch2a
I0321 23:36:26.573262 24564 net.cpp:454] res4b_branch2a <- res4a_res4a_relu_0_split_0
I0321 23:36:26.573292 24564 net.cpp:411] res4b_branch2a -> res4b_branch2a
I0321 23:36:26.574884 24564 net.cpp:150] Setting up res4b_branch2a
I0321 23:36:26.574921 24564 net.cpp:157] Top shape: 16 256 14 14 (802816)
I0321 23:36:26.574937 24564 net.cpp:165] Memory required for data: 2954362944
I0321 23:36:26.574959 24564 layer_factory.hpp:77] Creating layer bn4b_branch2a
I0321 23:36:26.574981 24564 net.cpp:106] Creating Layer bn4b_branch2a
I0321 23:36:26.575000 24564 net.cpp:454] bn4b_branch2a <- res4b_branch2a
I0321 23:36:26.575021 24564 net.cpp:397] bn4b_branch2a -> res4b_branch2a (in-place)
I0321 23:36:26.575376 24564 net.cpp:150] Setting up bn4b_branch2a
I0321 23:36:26.575405 24564 net.cpp:157] Top shape: 16 256 14 14 (802816)
I0321 23:36:26.575422 24564 net.cpp:165] Memory required for data: 2957574208
I0321 23:36:26.575448 24564 layer_factory.hpp:77] Creating layer scale4b_branch2a
I0321 23:36:26.575474 24564 net.cpp:106] Creating Layer scale4b_branch2a
I0321 23:36:26.575494 24564 net.cpp:454] scale4b_branch2a <- res4b_branch2a
I0321 23:36:26.575515 24564 net.cpp:397] scale4b_branch2a -> res4b_branch2a (in-place)
I0321 23:36:26.575610 24564 layer_factory.hpp:77] Creating layer scale4b_branch2a
I0321 23:36:26.575839 24564 net.cpp:150] Setting up scale4b_branch2a
I0321 23:36:26.575868 24564 net.cpp:157] Top shape: 16 256 14 14 (802816)
I0321 23:36:26.575884 24564 net.cpp:165] Memory required for data: 2960785472
I0321 23:36:26.575907 24564 layer_factory.hpp:77] Creating layer res4b_branch2a_relu
I0321 23:36:26.575927 24564 net.cpp:106] Creating Layer res4b_branch2a_relu
I0321 23:36:26.575945 24564 net.cpp:454] res4b_branch2a_relu <- res4b_branch2a
I0321 23:36:26.575969 24564 net.cpp:397] res4b_branch2a_relu -> res4b_branch2a (in-place)
I0321 23:36:26.575992 24564 net.cpp:150] Setting up res4b_branch2a_relu
I0321 23:36:26.576014 24564 net.cpp:157] Top shape: 16 256 14 14 (802816)
I0321 23:36:26.576030 24564 net.cpp:165] Memory required for data: 2963996736
I0321 23:36:26.576045 24564 layer_factory.hpp:77] Creating layer res4b_branch2b
I0321 23:36:26.576073 24564 net.cpp:106] Creating Layer res4b_branch2b
I0321 23:36:26.576092 24564 net.cpp:454] res4b_branch2b <- res4b_branch2a
I0321 23:36:26.576112 24564 net.cpp:411] res4b_branch2b -> res4b_branch2b
I0321 23:36:26.578951 24564 net.cpp:150] Setting up res4b_branch2b
I0321 23:36:26.578989 24564 net.cpp:157] Top shape: 16 256 14 14 (802816)
I0321 23:36:26.579006 24564 net.cpp:165] Memory required for data: 2967208000
I0321 23:36:26.579027 24564 layer_factory.hpp:77] Creating layer bn4b_branch2b
I0321 23:36:26.579053 24564 net.cpp:106] Creating Layer bn4b_branch2b
I0321 23:36:26.579072 24564 net.cpp:454] bn4b_branch2b <- res4b_branch2b
I0321 23:36:26.579093 24564 net.cpp:397] bn4b_branch2b -> res4b_branch2b (in-place)
I0321 23:36:26.579448 24564 net.cpp:150] Setting up bn4b_branch2b
I0321 23:36:26.579478 24564 net.cpp:157] Top shape: 16 256 14 14 (802816)
I0321 23:36:26.579493 24564 net.cpp:165] Memory required for data: 2970419264
I0321 23:36:26.579519 24564 layer_factory.hpp:77] Creating layer scale4b_branch2b
I0321 23:36:26.579541 24564 net.cpp:106] Creating Layer scale4b_branch2b
I0321 23:36:26.579560 24564 net.cpp:454] scale4b_branch2b <- res4b_branch2b
I0321 23:36:26.579583 24564 net.cpp:397] scale4b_branch2b -> res4b_branch2b (in-place)
I0321 23:36:26.579686 24564 layer_factory.hpp:77] Creating layer scale4b_branch2b
I0321 23:36:26.579937 24564 net.cpp:150] Setting up scale4b_branch2b
I0321 23:36:26.579967 24564 net.cpp:157] Top shape: 16 256 14 14 (802816)
I0321 23:36:26.579983 24564 net.cpp:165] Memory required for data: 2973630528
I0321 23:36:26.580005 24564 layer_factory.hpp:77] Creating layer res4b_branch2b_relu
I0321 23:36:26.580030 24564 net.cpp:106] Creating Layer res4b_branch2b_relu
I0321 23:36:26.580049 24564 net.cpp:454] res4b_branch2b_relu <- res4b_branch2b
I0321 23:36:26.580067 24564 net.cpp:397] res4b_branch2b_relu -> res4b_branch2b (in-place)
I0321 23:36:26.580090 24564 net.cpp:150] Setting up res4b_branch2b_relu
I0321 23:36:26.580109 24564 net.cpp:157] Top shape: 16 256 14 14 (802816)
I0321 23:36:26.580124 24564 net.cpp:165] Memory required for data: 2976841792
I0321 23:36:26.580139 24564 layer_factory.hpp:77] Creating layer res4b_branch2c
I0321 23:36:26.580168 24564 net.cpp:106] Creating Layer res4b_branch2c
I0321 23:36:26.580185 24564 net.cpp:454] res4b_branch2c <- res4b_branch2b
I0321 23:36:26.580206 24564 net.cpp:411] res4b_branch2c -> res4b_branch2c
I0321 23:36:26.581811 24564 net.cpp:150] Setting up res4b_branch2c
I0321 23:36:26.581851 24564 net.cpp:157] Top shape: 16 1024 14 14 (3211264)
I0321 23:36:26.581867 24564 net.cpp:165] Memory required for data: 2989686848
I0321 23:36:26.581887 24564 layer_factory.hpp:77] Creating layer bn4b_branch2c
I0321 23:36:26.581909 24564 net.cpp:106] Creating Layer bn4b_branch2c
I0321 23:36:26.581928 24564 net.cpp:454] bn4b_branch2c <- res4b_branch2c
I0321 23:36:26.581946 24564 net.cpp:397] bn4b_branch2c -> res4b_branch2c (in-place)
I0321 23:36:26.582317 24564 net.cpp:150] Setting up bn4b_branch2c
I0321 23:36:26.582346 24564 net.cpp:157] Top shape: 16 1024 14 14 (3211264)
I0321 23:36:26.582362 24564 net.cpp:165] Memory required for data: 3002531904
I0321 23:36:26.582388 24564 layer_factory.hpp:77] Creating layer scale4b_branch2c
I0321 23:36:26.582411 24564 net.cpp:106] Creating Layer scale4b_branch2c
I0321 23:36:26.582428 24564 net.cpp:454] scale4b_branch2c <- res4b_branch2c
I0321 23:36:26.582448 24564 net.cpp:397] scale4b_branch2c -> res4b_branch2c (in-place)
I0321 23:36:26.582542 24564 layer_factory.hpp:77] Creating layer scale4b_branch2c
I0321 23:36:26.582779 24564 net.cpp:150] Setting up scale4b_branch2c
I0321 23:36:26.582808 24564 net.cpp:157] Top shape: 16 1024 14 14 (3211264)
I0321 23:36:26.582824 24564 net.cpp:165] Memory required for data: 3015376960
I0321 23:36:26.582846 24564 layer_factory.hpp:77] Creating layer res4b
I0321 23:36:26.582872 24564 net.cpp:106] Creating Layer res4b
I0321 23:36:26.582891 24564 net.cpp:454] res4b <- res4a_res4a_relu_0_split_1
I0321 23:36:26.582911 24564 net.cpp:454] res4b <- res4b_branch2c
I0321 23:36:26.582929 24564 net.cpp:411] res4b -> res4b
I0321 23:36:26.582994 24564 net.cpp:150] Setting up res4b
I0321 23:36:26.583021 24564 net.cpp:157] Top shape: 16 1024 14 14 (3211264)
I0321 23:36:26.583037 24564 net.cpp:165] Memory required for data: 3028222016
I0321 23:36:26.583052 24564 layer_factory.hpp:77] Creating layer res4b_relu
I0321 23:36:26.583072 24564 net.cpp:106] Creating Layer res4b_relu
I0321 23:36:26.583089 24564 net.cpp:454] res4b_relu <- res4b
I0321 23:36:26.583117 24564 net.cpp:397] res4b_relu -> res4b (in-place)
I0321 23:36:26.583140 24564 net.cpp:150] Setting up res4b_relu
I0321 23:36:26.583160 24564 net.cpp:157] Top shape: 16 1024 14 14 (3211264)
I0321 23:36:26.583176 24564 net.cpp:165] Memory required for data: 3041067072
I0321 23:36:26.583191 24564 layer_factory.hpp:77] Creating layer res4b_res4b_relu_0_split
I0321 23:36:26.583210 24564 net.cpp:106] Creating Layer res4b_res4b_relu_0_split
I0321 23:36:26.583226 24564 net.cpp:454] res4b_res4b_relu_0_split <- res4b
I0321 23:36:26.583245 24564 net.cpp:411] res4b_res4b_relu_0_split -> res4b_res4b_relu_0_split_0
I0321 23:36:26.583267 24564 net.cpp:411] res4b_res4b_relu_0_split -> res4b_res4b_relu_0_split_1
I0321 23:36:26.583356 24564 net.cpp:150] Setting up res4b_res4b_relu_0_split
I0321 23:36:26.583384 24564 net.cpp:157] Top shape: 16 1024 14 14 (3211264)
I0321 23:36:26.583426 24564 net.cpp:157] Top shape: 16 1024 14 14 (3211264)
I0321 23:36:26.583442 24564 net.cpp:165] Memory required for data: 3066757184
I0321 23:36:26.583459 24564 layer_factory.hpp:77] Creating layer res4c_branch2a
I0321 23:36:26.583483 24564 net.cpp:106] Creating Layer res4c_branch2a
I0321 23:36:26.583500 24564 net.cpp:454] res4c_branch2a <- res4b_res4b_relu_0_split_0
I0321 23:36:26.583526 24564 net.cpp:411] res4c_branch2a -> res4c_branch2a
I0321 23:36:26.585121 24564 net.cpp:150] Setting up res4c_branch2a
I0321 23:36:26.585158 24564 net.cpp:157] Top shape: 16 256 14 14 (802816)
I0321 23:36:26.585175 24564 net.cpp:165] Memory required for data: 3069968448
I0321 23:36:26.585196 24564 layer_factory.hpp:77] Creating layer bn4c_branch2a
I0321 23:36:26.585217 24564 net.cpp:106] Creating Layer bn4c_branch2a
I0321 23:36:26.585235 24564 net.cpp:454] bn4c_branch2a <- res4c_branch2a
I0321 23:36:26.585255 24564 net.cpp:397] bn4c_branch2a -> res4c_branch2a (in-place)
I0321 23:36:26.585615 24564 net.cpp:150] Setting up bn4c_branch2a
I0321 23:36:26.585644 24564 net.cpp:157] Top shape: 16 256 14 14 (802816)
I0321 23:36:26.585660 24564 net.cpp:165] Memory required for data: 3073179712
I0321 23:36:26.585685 24564 layer_factory.hpp:77] Creating layer scale4c_branch2a
I0321 23:36:26.585712 24564 net.cpp:106] Creating Layer scale4c_branch2a
I0321 23:36:26.585731 24564 net.cpp:454] scale4c_branch2a <- res4c_branch2a
I0321 23:36:26.585752 24564 net.cpp:397] scale4c_branch2a -> res4c_branch2a (in-place)
I0321 23:36:26.585846 24564 layer_factory.hpp:77] Creating layer scale4c_branch2a
I0321 23:36:26.586076 24564 net.cpp:150] Setting up scale4c_branch2a
I0321 23:36:26.586104 24564 net.cpp:157] Top shape: 16 256 14 14 (802816)
I0321 23:36:26.586120 24564 net.cpp:165] Memory required for data: 3076390976
I0321 23:36:26.586143 24564 layer_factory.hpp:77] Creating layer res4c_branch2a_relu
I0321 23:36:26.586164 24564 net.cpp:106] Creating Layer res4c_branch2a_relu
I0321 23:36:26.586181 24564 net.cpp:454] res4c_branch2a_relu <- res4c_branch2a
I0321 23:36:26.586205 24564 net.cpp:397] res4c_branch2a_relu -> res4c_branch2a (in-place)
I0321 23:36:26.586230 24564 net.cpp:150] Setting up res4c_branch2a_relu
I0321 23:36:26.586249 24564 net.cpp:157] Top shape: 16 256 14 14 (802816)
I0321 23:36:26.586266 24564 net.cpp:165] Memory required for data: 3079602240
I0321 23:36:26.586280 24564 layer_factory.hpp:77] Creating layer res4c_branch2b
I0321 23:36:26.586308 24564 net.cpp:106] Creating Layer res4c_branch2b
I0321 23:36:26.586328 24564 net.cpp:454] res4c_branch2b <- res4c_branch2a
I0321 23:36:26.586347 24564 net.cpp:411] res4c_branch2b -> res4c_branch2b
I0321 23:36:26.589208 24564 net.cpp:150] Setting up res4c_branch2b
I0321 23:36:26.589247 24564 net.cpp:157] Top shape: 16 256 14 14 (802816)
I0321 23:36:26.589265 24564 net.cpp:165] Memory required for data: 3082813504
I0321 23:36:26.589285 24564 layer_factory.hpp:77] Creating layer bn4c_branch2b
I0321 23:36:26.589308 24564 net.cpp:106] Creating Layer bn4c_branch2b
I0321 23:36:26.589326 24564 net.cpp:454] bn4c_branch2b <- res4c_branch2b
I0321 23:36:26.589345 24564 net.cpp:397] bn4c_branch2b -> res4c_branch2b (in-place)
I0321 23:36:26.589716 24564 net.cpp:150] Setting up bn4c_branch2b
I0321 23:36:26.589745 24564 net.cpp:157] Top shape: 16 256 14 14 (802816)
I0321 23:36:26.589761 24564 net.cpp:165] Memory required for data: 3086024768
I0321 23:36:26.589787 24564 layer_factory.hpp:77] Creating layer scale4c_branch2b
I0321 23:36:26.589819 24564 net.cpp:106] Creating Layer scale4c_branch2b
I0321 23:36:26.589839 24564 net.cpp:454] scale4c_branch2b <- res4c_branch2b
I0321 23:36:26.589859 24564 net.cpp:397] scale4c_branch2b -> res4c_branch2b (in-place)
I0321 23:36:26.589956 24564 layer_factory.hpp:77] Creating layer scale4c_branch2b
I0321 23:36:26.590193 24564 net.cpp:150] Setting up scale4c_branch2b
I0321 23:36:26.590222 24564 net.cpp:157] Top shape: 16 256 14 14 (802816)
I0321 23:36:26.590239 24564 net.cpp:165] Memory required for data: 3089236032
I0321 23:36:26.590272 24564 layer_factory.hpp:77] Creating layer res4c_branch2b_relu
I0321 23:36:26.590309 24564 net.cpp:106] Creating Layer res4c_branch2b_relu
I0321 23:36:26.590327 24564 net.cpp:454] res4c_branch2b_relu <- res4c_branch2b
I0321 23:36:26.590351 24564 net.cpp:397] res4c_branch2b_relu -> res4c_branch2b (in-place)
I0321 23:36:26.590375 24564 net.cpp:150] Setting up res4c_branch2b_relu
I0321 23:36:26.590395 24564 net.cpp:157] Top shape: 16 256 14 14 (802816)
I0321 23:36:26.590410 24564 net.cpp:165] Memory required for data: 3092447296
I0321 23:36:26.590426 24564 layer_factory.hpp:77] Creating layer res4c_branch2c
I0321 23:36:26.590453 24564 net.cpp:106] Creating Layer res4c_branch2c
I0321 23:36:26.590471 24564 net.cpp:454] res4c_branch2c <- res4c_branch2b
I0321 23:36:26.590492 24564 net.cpp:411] res4c_branch2c -> res4c_branch2c
I0321 23:36:26.592078 24564 net.cpp:150] Setting up res4c_branch2c
I0321 23:36:26.592114 24564 net.cpp:157] Top shape: 16 1024 14 14 (3211264)
I0321 23:36:26.592131 24564 net.cpp:165] Memory required for data: 3105292352
I0321 23:36:26.592151 24564 layer_factory.hpp:77] Creating layer bn4c_branch2c
I0321 23:36:26.592178 24564 net.cpp:106] Creating Layer bn4c_branch2c
I0321 23:36:26.592197 24564 net.cpp:454] bn4c_branch2c <- res4c_branch2c
I0321 23:36:26.592217 24564 net.cpp:397] bn4c_branch2c -> res4c_branch2c (in-place)
I0321 23:36:26.592595 24564 net.cpp:150] Setting up bn4c_branch2c
I0321 23:36:26.592635 24564 net.cpp:157] Top shape: 16 1024 14 14 (3211264)
I0321 23:36:26.592655 24564 net.cpp:165] Memory required for data: 3118137408
I0321 23:36:26.592681 24564 layer_factory.hpp:77] Creating layer scale4c_branch2c
I0321 23:36:26.592703 24564 net.cpp:106] Creating Layer scale4c_branch2c
I0321 23:36:26.592721 24564 net.cpp:454] scale4c_branch2c <- res4c_branch2c
I0321 23:36:26.592746 24564 net.cpp:397] scale4c_branch2c -> res4c_branch2c (in-place)
I0321 23:36:26.592838 24564 layer_factory.hpp:77] Creating layer scale4c_branch2c
I0321 23:36:26.593086 24564 net.cpp:150] Setting up scale4c_branch2c
I0321 23:36:26.593122 24564 net.cpp:157] Top shape: 16 1024 14 14 (3211264)
I0321 23:36:26.593139 24564 net.cpp:165] Memory required for data: 3130982464
I0321 23:36:26.593163 24564 layer_factory.hpp:77] Creating layer res4c
I0321 23:36:26.593183 24564 net.cpp:106] Creating Layer res4c
I0321 23:36:26.593200 24564 net.cpp:454] res4c <- res4b_res4b_relu_0_split_1
I0321 23:36:26.593219 24564 net.cpp:454] res4c <- res4c_branch2c
I0321 23:36:26.593238 24564 net.cpp:411] res4c -> res4c
I0321 23:36:26.593305 24564 net.cpp:150] Setting up res4c
I0321 23:36:26.593333 24564 net.cpp:157] Top shape: 16 1024 14 14 (3211264)
I0321 23:36:26.593348 24564 net.cpp:165] Memory required for data: 3143827520
I0321 23:36:26.593364 24564 layer_factory.hpp:77] Creating layer res4c_relu
I0321 23:36:26.593384 24564 net.cpp:106] Creating Layer res4c_relu
I0321 23:36:26.593400 24564 net.cpp:454] res4c_relu <- res4c
I0321 23:36:26.593423 24564 net.cpp:397] res4c_relu -> res4c (in-place)
I0321 23:36:26.593447 24564 net.cpp:150] Setting up res4c_relu
I0321 23:36:26.593467 24564 net.cpp:157] Top shape: 16 1024 14 14 (3211264)
I0321 23:36:26.593482 24564 net.cpp:165] Memory required for data: 3156672576
I0321 23:36:26.593497 24564 layer_factory.hpp:77] Creating layer res4c_res4c_relu_0_split
I0321 23:36:26.593518 24564 net.cpp:106] Creating Layer res4c_res4c_relu_0_split
I0321 23:36:26.593533 24564 net.cpp:454] res4c_res4c_relu_0_split <- res4c
I0321 23:36:26.593552 24564 net.cpp:411] res4c_res4c_relu_0_split -> res4c_res4c_relu_0_split_0
I0321 23:36:26.593575 24564 net.cpp:411] res4c_res4c_relu_0_split -> res4c_res4c_relu_0_split_1
I0321 23:36:26.593659 24564 net.cpp:150] Setting up res4c_res4c_relu_0_split
I0321 23:36:26.593685 24564 net.cpp:157] Top shape: 16 1024 14 14 (3211264)
I0321 23:36:26.593703 24564 net.cpp:157] Top shape: 16 1024 14 14 (3211264)
I0321 23:36:26.593719 24564 net.cpp:165] Memory required for data: 3182362688
I0321 23:36:26.593734 24564 layer_factory.hpp:77] Creating layer res4d_branch2a
I0321 23:36:26.593762 24564 net.cpp:106] Creating Layer res4d_branch2a
I0321 23:36:26.593806 24564 net.cpp:454] res4d_branch2a <- res4c_res4c_relu_0_split_0
I0321 23:36:26.593830 24564 net.cpp:411] res4d_branch2a -> res4d_branch2a
I0321 23:36:26.595470 24564 net.cpp:150] Setting up res4d_branch2a
I0321 23:36:26.595507 24564 net.cpp:157] Top shape: 16 256 14 14 (802816)
I0321 23:36:26.595523 24564 net.cpp:165] Memory required for data: 3185573952
I0321 23:36:26.595544 24564 layer_factory.hpp:77] Creating layer bn4d_branch2a
I0321 23:36:26.595566 24564 net.cpp:106] Creating Layer bn4d_branch2a
I0321 23:36:26.595583 24564 net.cpp:454] bn4d_branch2a <- res4d_branch2a
I0321 23:36:26.595613 24564 net.cpp:397] bn4d_branch2a -> res4d_branch2a (in-place)
I0321 23:36:26.595978 24564 net.cpp:150] Setting up bn4d_branch2a
I0321 23:36:26.596009 24564 net.cpp:157] Top shape: 16 256 14 14 (802816)
I0321 23:36:26.596024 24564 net.cpp:165] Memory required for data: 3188785216
I0321 23:36:26.596050 24564 layer_factory.hpp:77] Creating layer scale4d_branch2a
I0321 23:36:26.596073 24564 net.cpp:106] Creating Layer scale4d_branch2a
I0321 23:36:26.596091 24564 net.cpp:454] scale4d_branch2a <- res4d_branch2a
I0321 23:36:26.596110 24564 net.cpp:397] scale4d_branch2a -> res4d_branch2a (in-place)
I0321 23:36:26.596209 24564 layer_factory.hpp:77] Creating layer scale4d_branch2a
I0321 23:36:26.596443 24564 net.cpp:150] Setting up scale4d_branch2a
I0321 23:36:26.596472 24564 net.cpp:157] Top shape: 16 256 14 14 (802816)
I0321 23:36:26.596487 24564 net.cpp:165] Memory required for data: 3191996480
I0321 23:36:26.596510 24564 layer_factory.hpp:77] Creating layer res4d_branch2a_relu
I0321 23:36:26.596531 24564 net.cpp:106] Creating Layer res4d_branch2a_relu
I0321 23:36:26.596549 24564 net.cpp:454] res4d_branch2a_relu <- res4d_branch2a
I0321 23:36:26.596575 24564 net.cpp:397] res4d_branch2a_relu -> res4d_branch2a (in-place)
I0321 23:36:26.596598 24564 net.cpp:150] Setting up res4d_branch2a_relu
I0321 23:36:26.596628 24564 net.cpp:157] Top shape: 16 256 14 14 (802816)
I0321 23:36:26.596647 24564 net.cpp:165] Memory required for data: 3195207744
I0321 23:36:26.596663 24564 layer_factory.hpp:77] Creating layer res4d_branch2b
I0321 23:36:26.596686 24564 net.cpp:106] Creating Layer res4d_branch2b
I0321 23:36:26.596704 24564 net.cpp:454] res4d_branch2b <- res4d_branch2a
I0321 23:36:26.596729 24564 net.cpp:411] res4d_branch2b -> res4d_branch2b
I0321 23:36:26.599571 24564 net.cpp:150] Setting up res4d_branch2b
I0321 23:36:26.599608 24564 net.cpp:157] Top shape: 16 256 14 14 (802816)
I0321 23:36:26.599625 24564 net.cpp:165] Memory required for data: 3198419008
I0321 23:36:26.599645 24564 layer_factory.hpp:77] Creating layer bn4d_branch2b
I0321 23:36:26.599668 24564 net.cpp:106] Creating Layer bn4d_branch2b
I0321 23:36:26.599685 24564 net.cpp:454] bn4d_branch2b <- res4d_branch2b
I0321 23:36:26.599706 24564 net.cpp:397] bn4d_branch2b -> res4d_branch2b (in-place)
I0321 23:36:26.600076 24564 net.cpp:150] Setting up bn4d_branch2b
I0321 23:36:26.600106 24564 net.cpp:157] Top shape: 16 256 14 14 (802816)
I0321 23:36:26.600121 24564 net.cpp:165] Memory required for data: 3201630272
I0321 23:36:26.600147 24564 layer_factory.hpp:77] Creating layer scale4d_branch2b
I0321 23:36:26.600178 24564 net.cpp:106] Creating Layer scale4d_branch2b
I0321 23:36:26.600198 24564 net.cpp:454] scale4d_branch2b <- res4d_branch2b
I0321 23:36:26.600219 24564 net.cpp:397] scale4d_branch2b -> res4d_branch2b (in-place)
I0321 23:36:26.600317 24564 layer_factory.hpp:77] Creating layer scale4d_branch2b
I0321 23:36:26.600556 24564 net.cpp:150] Setting up scale4d_branch2b
I0321 23:36:26.600585 24564 net.cpp:157] Top shape: 16 256 14 14 (802816)
I0321 23:36:26.600601 24564 net.cpp:165] Memory required for data: 3204841536
I0321 23:36:26.600636 24564 layer_factory.hpp:77] Creating layer res4d_branch2b_relu
I0321 23:36:26.600658 24564 net.cpp:106] Creating Layer res4d_branch2b_relu
I0321 23:36:26.600677 24564 net.cpp:454] res4d_branch2b_relu <- res4d_branch2b
I0321 23:36:26.600700 24564 net.cpp:397] res4d_branch2b_relu -> res4d_branch2b (in-place)
I0321 23:36:26.600735 24564 net.cpp:150] Setting up res4d_branch2b_relu
I0321 23:36:26.600772 24564 net.cpp:157] Top shape: 16 256 14 14 (802816)
I0321 23:36:26.600790 24564 net.cpp:165] Memory required for data: 3208052800
I0321 23:36:26.600805 24564 layer_factory.hpp:77] Creating layer res4d_branch2c
I0321 23:36:26.600834 24564 net.cpp:106] Creating Layer res4d_branch2c
I0321 23:36:26.600852 24564 net.cpp:454] res4d_branch2c <- res4d_branch2b
I0321 23:36:26.600873 24564 net.cpp:411] res4d_branch2c -> res4d_branch2c
I0321 23:36:26.602471 24564 net.cpp:150] Setting up res4d_branch2c
I0321 23:36:26.602507 24564 net.cpp:157] Top shape: 16 1024 14 14 (3211264)
I0321 23:36:26.602524 24564 net.cpp:165] Memory required for data: 3220897856
I0321 23:36:26.602545 24564 layer_factory.hpp:77] Creating layer bn4d_branch2c
I0321 23:36:26.602571 24564 net.cpp:106] Creating Layer bn4d_branch2c
I0321 23:36:26.602589 24564 net.cpp:454] bn4d_branch2c <- res4d_branch2c
I0321 23:36:26.602609 24564 net.cpp:397] bn4d_branch2c -> res4d_branch2c (in-place)
I0321 23:36:26.602988 24564 net.cpp:150] Setting up bn4d_branch2c
I0321 23:36:26.603018 24564 net.cpp:157] Top shape: 16 1024 14 14 (3211264)
I0321 23:36:26.603034 24564 net.cpp:165] Memory required for data: 3233742912
I0321 23:36:26.603060 24564 layer_factory.hpp:77] Creating layer scale4d_branch2c
I0321 23:36:26.603082 24564 net.cpp:106] Creating Layer scale4d_branch2c
I0321 23:36:26.603099 24564 net.cpp:454] scale4d_branch2c <- res4d_branch2c
I0321 23:36:26.603123 24564 net.cpp:397] scale4d_branch2c -> res4d_branch2c (in-place)
I0321 23:36:26.603214 24564 layer_factory.hpp:77] Creating layer scale4d_branch2c
I0321 23:36:26.603469 24564 net.cpp:150] Setting up scale4d_branch2c
I0321 23:36:26.603503 24564 net.cpp:157] Top shape: 16 1024 14 14 (3211264)
I0321 23:36:26.603520 24564 net.cpp:165] Memory required for data: 3246587968
I0321 23:36:26.603543 24564 layer_factory.hpp:77] Creating layer res4d
I0321 23:36:26.603565 24564 net.cpp:106] Creating Layer res4d
I0321 23:36:26.603582 24564 net.cpp:454] res4d <- res4c_res4c_relu_0_split_1
I0321 23:36:26.603600 24564 net.cpp:454] res4d <- res4d_branch2c
I0321 23:36:26.603621 24564 net.cpp:411] res4d -> res4d
I0321 23:36:26.603685 24564 net.cpp:150] Setting up res4d
I0321 23:36:26.603713 24564 net.cpp:157] Top shape: 16 1024 14 14 (3211264)
I0321 23:36:26.603729 24564 net.cpp:165] Memory required for data: 3259433024
I0321 23:36:26.603745 24564 layer_factory.hpp:77] Creating layer res4d_relu
I0321 23:36:26.603765 24564 net.cpp:106] Creating Layer res4d_relu
I0321 23:36:26.603781 24564 net.cpp:454] res4d_relu <- res4d
I0321 23:36:26.603804 24564 net.cpp:397] res4d_relu -> res4d (in-place)
I0321 23:36:26.603827 24564 net.cpp:150] Setting up res4d_relu
I0321 23:36:26.603847 24564 net.cpp:157] Top shape: 16 1024 14 14 (3211264)
I0321 23:36:26.603863 24564 net.cpp:165] Memory required for data: 3272278080
I0321 23:36:26.603878 24564 layer_factory.hpp:77] Creating layer res4d_res4d_relu_0_split
I0321 23:36:26.603899 24564 net.cpp:106] Creating Layer res4d_res4d_relu_0_split
I0321 23:36:26.603914 24564 net.cpp:454] res4d_res4d_relu_0_split <- res4d
I0321 23:36:26.603932 24564 net.cpp:411] res4d_res4d_relu_0_split -> res4d_res4d_relu_0_split_0
I0321 23:36:26.603955 24564 net.cpp:411] res4d_res4d_relu_0_split -> res4d_res4d_relu_0_split_1
I0321 23:36:26.604039 24564 net.cpp:150] Setting up res4d_res4d_relu_0_split
I0321 23:36:26.604066 24564 net.cpp:157] Top shape: 16 1024 14 14 (3211264)
I0321 23:36:26.604084 24564 net.cpp:157] Top shape: 16 1024 14 14 (3211264)
I0321 23:36:26.604100 24564 net.cpp:165] Memory required for data: 3297968192
I0321 23:36:26.604115 24564 layer_factory.hpp:77] Creating layer res4e_branch2a
I0321 23:36:26.604143 24564 net.cpp:106] Creating Layer res4e_branch2a
I0321 23:36:26.604161 24564 net.cpp:454] res4e_branch2a <- res4d_res4d_relu_0_split_0
I0321 23:36:26.604182 24564 net.cpp:411] res4e_branch2a -> res4e_branch2a
I0321 23:36:26.605793 24564 net.cpp:150] Setting up res4e_branch2a
I0321 23:36:26.605831 24564 net.cpp:157] Top shape: 16 256 14 14 (802816)
I0321 23:36:26.605870 24564 net.cpp:165] Memory required for data: 3301179456
I0321 23:36:26.605893 24564 layer_factory.hpp:77] Creating layer bn4e_branch2a
I0321 23:36:26.605916 24564 net.cpp:106] Creating Layer bn4e_branch2a
I0321 23:36:26.605932 24564 net.cpp:454] bn4e_branch2a <- res4e_branch2a
I0321 23:36:26.605957 24564 net.cpp:397] bn4e_branch2a -> res4e_branch2a (in-place)
I0321 23:36:26.606338 24564 net.cpp:150] Setting up bn4e_branch2a
I0321 23:36:26.606369 24564 net.cpp:157] Top shape: 16 256 14 14 (802816)
I0321 23:36:26.606384 24564 net.cpp:165] Memory required for data: 3304390720
I0321 23:36:26.606410 24564 layer_factory.hpp:77] Creating layer scale4e_branch2a
I0321 23:36:26.606431 24564 net.cpp:106] Creating Layer scale4e_branch2a
I0321 23:36:26.606449 24564 net.cpp:454] scale4e_branch2a <- res4e_branch2a
I0321 23:36:26.606469 24564 net.cpp:397] scale4e_branch2a -> res4e_branch2a (in-place)
I0321 23:36:26.606570 24564 layer_factory.hpp:77] Creating layer scale4e_branch2a
I0321 23:36:26.606814 24564 net.cpp:150] Setting up scale4e_branch2a
I0321 23:36:26.606844 24564 net.cpp:157] Top shape: 16 256 14 14 (802816)
I0321 23:36:26.606860 24564 net.cpp:165] Memory required for data: 3307601984
I0321 23:36:26.606883 24564 layer_factory.hpp:77] Creating layer res4e_branch2a_relu
I0321 23:36:26.606904 24564 net.cpp:106] Creating Layer res4e_branch2a_relu
I0321 23:36:26.606920 24564 net.cpp:454] res4e_branch2a_relu <- res4e_branch2a
I0321 23:36:26.606945 24564 net.cpp:397] res4e_branch2a_relu -> res4e_branch2a (in-place)
I0321 23:36:26.606967 24564 net.cpp:150] Setting up res4e_branch2a_relu
I0321 23:36:26.606987 24564 net.cpp:157] Top shape: 16 256 14 14 (802816)
I0321 23:36:26.607002 24564 net.cpp:165] Memory required for data: 3310813248
I0321 23:36:26.607018 24564 layer_factory.hpp:77] Creating layer res4e_branch2b
I0321 23:36:26.607041 24564 net.cpp:106] Creating Layer res4e_branch2b
I0321 23:36:26.607059 24564 net.cpp:454] res4e_branch2b <- res4e_branch2a
I0321 23:36:26.607084 24564 net.cpp:411] res4e_branch2b -> res4e_branch2b
I0321 23:36:26.609946 24564 net.cpp:150] Setting up res4e_branch2b
I0321 23:36:26.609984 24564 net.cpp:157] Top shape: 16 256 14 14 (802816)
I0321 23:36:26.610002 24564 net.cpp:165] Memory required for data: 3314024512
I0321 23:36:26.610021 24564 layer_factory.hpp:77] Creating layer bn4e_branch2b
I0321 23:36:26.610043 24564 net.cpp:106] Creating Layer bn4e_branch2b
I0321 23:36:26.610060 24564 net.cpp:454] bn4e_branch2b <- res4e_branch2b
I0321 23:36:26.610080 24564 net.cpp:397] bn4e_branch2b -> res4e_branch2b (in-place)
I0321 23:36:26.610460 24564 net.cpp:150] Setting up bn4e_branch2b
I0321 23:36:26.610488 24564 net.cpp:157] Top shape: 16 256 14 14 (802816)
I0321 23:36:26.610504 24564 net.cpp:165] Memory required for data: 3317235776
I0321 23:36:26.610530 24564 layer_factory.hpp:77] Creating layer scale4e_branch2b
I0321 23:36:26.610558 24564 net.cpp:106] Creating Layer scale4e_branch2b
I0321 23:36:26.610575 24564 net.cpp:454] scale4e_branch2b <- res4e_branch2b
I0321 23:36:26.610595 24564 net.cpp:397] scale4e_branch2b -> res4e_branch2b (in-place)
I0321 23:36:26.610694 24564 layer_factory.hpp:77] Creating layer scale4e_branch2b
I0321 23:36:26.610936 24564 net.cpp:150] Setting up scale4e_branch2b
I0321 23:36:26.610965 24564 net.cpp:157] Top shape: 16 256 14 14 (802816)
I0321 23:36:26.610981 24564 net.cpp:165] Memory required for data: 3320447040
I0321 23:36:26.611003 24564 layer_factory.hpp:77] Creating layer res4e_branch2b_relu
I0321 23:36:26.611024 24564 net.cpp:106] Creating Layer res4e_branch2b_relu
I0321 23:36:26.611042 24564 net.cpp:454] res4e_branch2b_relu <- res4e_branch2b
I0321 23:36:26.611065 24564 net.cpp:397] res4e_branch2b_relu -> res4e_branch2b (in-place)
I0321 23:36:26.611088 24564 net.cpp:150] Setting up res4e_branch2b_relu
I0321 23:36:26.611109 24564 net.cpp:157] Top shape: 16 256 14 14 (802816)
I0321 23:36:26.611124 24564 net.cpp:165] Memory required for data: 3323658304
I0321 23:36:26.611140 24564 layer_factory.hpp:77] Creating layer res4e_branch2c
I0321 23:36:26.611178 24564 net.cpp:106] Creating Layer res4e_branch2c
I0321 23:36:26.611213 24564 net.cpp:454] res4e_branch2c <- res4e_branch2b
I0321 23:36:26.611237 24564 net.cpp:411] res4e_branch2c -> res4e_branch2c
I0321 23:36:26.612849 24564 net.cpp:150] Setting up res4e_branch2c
I0321 23:36:26.612887 24564 net.cpp:157] Top shape: 16 1024 14 14 (3211264)
I0321 23:36:26.612905 24564 net.cpp:165] Memory required for data: 3336503360
I0321 23:36:26.612926 24564 layer_factory.hpp:77] Creating layer bn4e_branch2c
I0321 23:36:26.612952 24564 net.cpp:106] Creating Layer bn4e_branch2c
I0321 23:36:26.612972 24564 net.cpp:454] bn4e_branch2c <- res4e_branch2c
I0321 23:36:26.612992 24564 net.cpp:397] bn4e_branch2c -> res4e_branch2c (in-place)
I0321 23:36:26.613384 24564 net.cpp:150] Setting up bn4e_branch2c
I0321 23:36:26.613415 24564 net.cpp:157] Top shape: 16 1024 14 14 (3211264)
I0321 23:36:26.613430 24564 net.cpp:165] Memory required for data: 3349348416
I0321 23:36:26.613456 24564 layer_factory.hpp:77] Creating layer scale4e_branch2c
I0321 23:36:26.613477 24564 net.cpp:106] Creating Layer scale4e_branch2c
I0321 23:36:26.613495 24564 net.cpp:454] scale4e_branch2c <- res4e_branch2c
I0321 23:36:26.613525 24564 net.cpp:397] scale4e_branch2c -> res4e_branch2c (in-place)
I0321 23:36:26.613620 24564 layer_factory.hpp:77] Creating layer scale4e_branch2c
I0321 23:36:26.613874 24564 net.cpp:150] Setting up scale4e_branch2c
I0321 23:36:26.613909 24564 net.cpp:157] Top shape: 16 1024 14 14 (3211264)
I0321 23:36:26.613925 24564 net.cpp:165] Memory required for data: 3362193472
I0321 23:36:26.613947 24564 layer_factory.hpp:77] Creating layer res4e
I0321 23:36:26.613970 24564 net.cpp:106] Creating Layer res4e
I0321 23:36:26.613986 24564 net.cpp:454] res4e <- res4d_res4d_relu_0_split_1
I0321 23:36:26.614006 24564 net.cpp:454] res4e <- res4e_branch2c
I0321 23:36:26.614025 24564 net.cpp:411] res4e -> res4e
I0321 23:36:26.614094 24564 net.cpp:150] Setting up res4e
I0321 23:36:26.614121 24564 net.cpp:157] Top shape: 16 1024 14 14 (3211264)
I0321 23:36:26.614137 24564 net.cpp:165] Memory required for data: 3375038528
I0321 23:36:26.614153 24564 layer_factory.hpp:77] Creating layer res4e_relu
I0321 23:36:26.614173 24564 net.cpp:106] Creating Layer res4e_relu
I0321 23:36:26.614190 24564 net.cpp:454] res4e_relu <- res4e
I0321 23:36:26.614213 24564 net.cpp:397] res4e_relu -> res4e (in-place)
I0321 23:36:26.614236 24564 net.cpp:150] Setting up res4e_relu
I0321 23:36:26.614256 24564 net.cpp:157] Top shape: 16 1024 14 14 (3211264)
I0321 23:36:26.614272 24564 net.cpp:165] Memory required for data: 3387883584
I0321 23:36:26.614287 24564 layer_factory.hpp:77] Creating layer res4e_res4e_relu_0_split
I0321 23:36:26.614307 24564 net.cpp:106] Creating Layer res4e_res4e_relu_0_split
I0321 23:36:26.614323 24564 net.cpp:454] res4e_res4e_relu_0_split <- res4e
I0321 23:36:26.614342 24564 net.cpp:411] res4e_res4e_relu_0_split -> res4e_res4e_relu_0_split_0
I0321 23:36:26.614365 24564 net.cpp:411] res4e_res4e_relu_0_split -> res4e_res4e_relu_0_split_1
I0321 23:36:26.614452 24564 net.cpp:150] Setting up res4e_res4e_relu_0_split
I0321 23:36:26.614480 24564 net.cpp:157] Top shape: 16 1024 14 14 (3211264)
I0321 23:36:26.614498 24564 net.cpp:157] Top shape: 16 1024 14 14 (3211264)
I0321 23:36:26.614513 24564 net.cpp:165] Memory required for data: 3413573696
I0321 23:36:26.614529 24564 layer_factory.hpp:77] Creating layer res4f_branch2a
I0321 23:36:26.614557 24564 net.cpp:106] Creating Layer res4f_branch2a
I0321 23:36:26.614576 24564 net.cpp:454] res4f_branch2a <- res4e_res4e_relu_0_split_0
I0321 23:36:26.614598 24564 net.cpp:411] res4f_branch2a -> res4f_branch2a
I0321 23:36:26.616199 24564 net.cpp:150] Setting up res4f_branch2a
I0321 23:36:26.616236 24564 net.cpp:157] Top shape: 16 256 14 14 (802816)
I0321 23:36:26.616252 24564 net.cpp:165] Memory required for data: 3416784960
I0321 23:36:26.616273 24564 layer_factory.hpp:77] Creating layer bn4f_branch2a
I0321 23:36:26.616294 24564 net.cpp:106] Creating Layer bn4f_branch2a
I0321 23:36:26.616323 24564 net.cpp:454] bn4f_branch2a <- res4f_branch2a
I0321 23:36:26.616365 24564 net.cpp:397] bn4f_branch2a -> res4f_branch2a (in-place)
I0321 23:36:26.616796 24564 net.cpp:150] Setting up bn4f_branch2a
I0321 23:36:26.616829 24564 net.cpp:157] Top shape: 16 256 14 14 (802816)
I0321 23:36:26.616845 24564 net.cpp:165] Memory required for data: 3419996224
I0321 23:36:26.616873 24564 layer_factory.hpp:77] Creating layer scale4f_branch2a
I0321 23:36:26.616894 24564 net.cpp:106] Creating Layer scale4f_branch2a
I0321 23:36:26.616912 24564 net.cpp:454] scale4f_branch2a <- res4f_branch2a
I0321 23:36:26.616932 24564 net.cpp:397] scale4f_branch2a -> res4f_branch2a (in-place)
I0321 23:36:26.617034 24564 layer_factory.hpp:77] Creating layer scale4f_branch2a
I0321 23:36:26.617280 24564 net.cpp:150] Setting up scale4f_branch2a
I0321 23:36:26.617308 24564 net.cpp:157] Top shape: 16 256 14 14 (802816)
I0321 23:36:26.617324 24564 net.cpp:165] Memory required for data: 3423207488
I0321 23:36:26.617347 24564 layer_factory.hpp:77] Creating layer res4f_branch2a_relu
I0321 23:36:26.617367 24564 net.cpp:106] Creating Layer res4f_branch2a_relu
I0321 23:36:26.617383 24564 net.cpp:454] res4f_branch2a_relu <- res4f_branch2a
I0321 23:36:26.617408 24564 net.cpp:397] res4f_branch2a_relu -> res4f_branch2a (in-place)
I0321 23:36:26.617430 24564 net.cpp:150] Setting up res4f_branch2a_relu
I0321 23:36:26.617450 24564 net.cpp:157] Top shape: 16 256 14 14 (802816)
I0321 23:36:26.617466 24564 net.cpp:165] Memory required for data: 3426418752
I0321 23:36:26.617481 24564 layer_factory.hpp:77] Creating layer res4f_branch2b
I0321 23:36:26.617504 24564 net.cpp:106] Creating Layer res4f_branch2b
I0321 23:36:26.617522 24564 net.cpp:454] res4f_branch2b <- res4f_branch2a
I0321 23:36:26.617547 24564 net.cpp:411] res4f_branch2b -> res4f_branch2b
I0321 23:36:26.620401 24564 net.cpp:150] Setting up res4f_branch2b
I0321 23:36:26.620438 24564 net.cpp:157] Top shape: 16 256 14 14 (802816)
I0321 23:36:26.620455 24564 net.cpp:165] Memory required for data: 3429630016
I0321 23:36:26.620476 24564 layer_factory.hpp:77] Creating layer bn4f_branch2b
I0321 23:36:26.620497 24564 net.cpp:106] Creating Layer bn4f_branch2b
I0321 23:36:26.620514 24564 net.cpp:454] bn4f_branch2b <- res4f_branch2b
I0321 23:36:26.620534 24564 net.cpp:397] bn4f_branch2b -> res4f_branch2b (in-place)
I0321 23:36:26.620942 24564 net.cpp:150] Setting up bn4f_branch2b
I0321 23:36:26.620975 24564 net.cpp:157] Top shape: 16 256 14 14 (802816)
I0321 23:36:26.620990 24564 net.cpp:165] Memory required for data: 3432841280
I0321 23:36:26.621017 24564 layer_factory.hpp:77] Creating layer scale4f_branch2b
I0321 23:36:26.621044 24564 net.cpp:106] Creating Layer scale4f_branch2b
I0321 23:36:26.621062 24564 net.cpp:454] scale4f_branch2b <- res4f_branch2b
I0321 23:36:26.621083 24564 net.cpp:397] scale4f_branch2b -> res4f_branch2b (in-place)
I0321 23:36:26.621186 24564 layer_factory.hpp:77] Creating layer scale4f_branch2b
I0321 23:36:26.621435 24564 net.cpp:150] Setting up scale4f_branch2b
I0321 23:36:26.621464 24564 net.cpp:157] Top shape: 16 256 14 14 (802816)
I0321 23:36:26.621480 24564 net.cpp:165] Memory required for data: 3436052544
I0321 23:36:26.621502 24564 layer_factory.hpp:77] Creating layer res4f_branch2b_relu
I0321 23:36:26.621523 24564 net.cpp:106] Creating Layer res4f_branch2b_relu
I0321 23:36:26.621541 24564 net.cpp:454] res4f_branch2b_relu <- res4f_branch2b
I0321 23:36:26.621564 24564 net.cpp:397] res4f_branch2b_relu -> res4f_branch2b (in-place)
I0321 23:36:26.621587 24564 net.cpp:150] Setting up res4f_branch2b_relu
I0321 23:36:26.621608 24564 net.cpp:157] Top shape: 16 256 14 14 (802816)
I0321 23:36:26.621623 24564 net.cpp:165] Memory required for data: 3439263808
I0321 23:36:26.621639 24564 layer_factory.hpp:77] Creating layer res4f_branch2c
I0321 23:36:26.621667 24564 net.cpp:106] Creating Layer res4f_branch2c
I0321 23:36:26.621685 24564 net.cpp:454] res4f_branch2c <- res4f_branch2b
I0321 23:36:26.621706 24564 net.cpp:411] res4f_branch2c -> res4f_branch2c
I0321 23:36:26.623311 24564 net.cpp:150] Setting up res4f_branch2c
I0321 23:36:26.623358 24564 net.cpp:157] Top shape: 16 1024 14 14 (3211264)
I0321 23:36:26.623390 24564 net.cpp:165] Memory required for data: 3452108864
I0321 23:36:26.623414 24564 layer_factory.hpp:77] Creating layer bn4f_branch2c
I0321 23:36:26.623440 24564 net.cpp:106] Creating Layer bn4f_branch2c
I0321 23:36:26.623458 24564 net.cpp:454] bn4f_branch2c <- res4f_branch2c
I0321 23:36:26.623478 24564 net.cpp:397] bn4f_branch2c -> res4f_branch2c (in-place)
I0321 23:36:26.623884 24564 net.cpp:150] Setting up bn4f_branch2c
I0321 23:36:26.623914 24564 net.cpp:157] Top shape: 16 1024 14 14 (3211264)
I0321 23:36:26.623930 24564 net.cpp:165] Memory required for data: 3464953920
I0321 23:36:26.624032 24564 layer_factory.hpp:77] Creating layer scale4f_branch2c
I0321 23:36:26.624058 24564 net.cpp:106] Creating Layer scale4f_branch2c
I0321 23:36:26.624076 24564 net.cpp:454] scale4f_branch2c <- res4f_branch2c
I0321 23:36:26.624096 24564 net.cpp:397] scale4f_branch2c -> res4f_branch2c (in-place)
I0321 23:36:26.624198 24564 layer_factory.hpp:77] Creating layer scale4f_branch2c
I0321 23:36:26.624452 24564 net.cpp:150] Setting up scale4f_branch2c
I0321 23:36:26.624481 24564 net.cpp:157] Top shape: 16 1024 14 14 (3211264)
I0321 23:36:26.624497 24564 net.cpp:165] Memory required for data: 3477798976
I0321 23:36:26.624519 24564 layer_factory.hpp:77] Creating layer res4f
I0321 23:36:26.624546 24564 net.cpp:106] Creating Layer res4f
I0321 23:36:26.624565 24564 net.cpp:454] res4f <- res4e_res4e_relu_0_split_1
I0321 23:36:26.624583 24564 net.cpp:454] res4f <- res4f_branch2c
I0321 23:36:26.624603 24564 net.cpp:411] res4f -> res4f
I0321 23:36:26.624689 24564 net.cpp:150] Setting up res4f
I0321 23:36:26.624717 24564 net.cpp:157] Top shape: 16 1024 14 14 (3211264)
I0321 23:36:26.624733 24564 net.cpp:165] Memory required for data: 3490644032
I0321 23:36:26.624749 24564 layer_factory.hpp:77] Creating layer res4f_relu
I0321 23:36:26.624769 24564 net.cpp:106] Creating Layer res4f_relu
I0321 23:36:26.624786 24564 net.cpp:454] res4f_relu <- res4f
I0321 23:36:26.624810 24564 net.cpp:397] res4f_relu -> res4f (in-place)
I0321 23:36:26.624833 24564 net.cpp:150] Setting up res4f_relu
I0321 23:36:26.624853 24564 net.cpp:157] Top shape: 16 1024 14 14 (3211264)
I0321 23:36:26.624869 24564 net.cpp:165] Memory required for data: 3503489088
I0321 23:36:26.624884 24564 layer_factory.hpp:77] Creating layer res4f_res4f_relu_0_split
I0321 23:36:26.624904 24564 net.cpp:106] Creating Layer res4f_res4f_relu_0_split
I0321 23:36:26.624920 24564 net.cpp:454] res4f_res4f_relu_0_split <- res4f
I0321 23:36:26.624939 24564 net.cpp:411] res4f_res4f_relu_0_split -> res4f_res4f_relu_0_split_0
I0321 23:36:26.624967 24564 net.cpp:411] res4f_res4f_relu_0_split -> res4f_res4f_relu_0_split_1
I0321 23:36:26.625058 24564 net.cpp:150] Setting up res4f_res4f_relu_0_split
I0321 23:36:26.625085 24564 net.cpp:157] Top shape: 16 1024 14 14 (3211264)
I0321 23:36:26.625104 24564 net.cpp:157] Top shape: 16 1024 14 14 (3211264)
I0321 23:36:26.625119 24564 net.cpp:165] Memory required for data: 3529179200
I0321 23:36:26.625134 24564 layer_factory.hpp:77] Creating layer res5a_branch1
I0321 23:36:26.625159 24564 net.cpp:106] Creating Layer res5a_branch1
I0321 23:36:26.625176 24564 net.cpp:454] res5a_branch1 <- res4f_res4f_relu_0_split_0
I0321 23:36:26.625197 24564 net.cpp:411] res5a_branch1 -> res5a_branch1
I0321 23:36:26.633919 24564 net.cpp:150] Setting up res5a_branch1
I0321 23:36:26.633963 24564 net.cpp:157] Top shape: 16 2048 7 7 (1605632)
I0321 23:36:26.633980 24564 net.cpp:165] Memory required for data: 3535601728
I0321 23:36:26.634001 24564 layer_factory.hpp:77] Creating layer bn5a_branch1
I0321 23:36:26.634024 24564 net.cpp:106] Creating Layer bn5a_branch1
I0321 23:36:26.634042 24564 net.cpp:454] bn5a_branch1 <- res5a_branch1
I0321 23:36:26.634063 24564 net.cpp:397] bn5a_branch1 -> res5a_branch1 (in-place)
I0321 23:36:26.634488 24564 net.cpp:150] Setting up bn5a_branch1
I0321 23:36:26.634519 24564 net.cpp:157] Top shape: 16 2048 7 7 (1605632)
I0321 23:36:26.634536 24564 net.cpp:165] Memory required for data: 3542024256
I0321 23:36:26.634591 24564 layer_factory.hpp:77] Creating layer scale5a_branch1
I0321 23:36:26.634623 24564 net.cpp:106] Creating Layer scale5a_branch1
I0321 23:36:26.634642 24564 net.cpp:454] scale5a_branch1 <- res5a_branch1
I0321 23:36:26.634662 24564 net.cpp:397] scale5a_branch1 -> res5a_branch1 (in-place)
I0321 23:36:26.634765 24564 layer_factory.hpp:77] Creating layer scale5a_branch1
I0321 23:36:26.635028 24564 net.cpp:150] Setting up scale5a_branch1
I0321 23:36:26.635058 24564 net.cpp:157] Top shape: 16 2048 7 7 (1605632)
I0321 23:36:26.635074 24564 net.cpp:165] Memory required for data: 3548446784
I0321 23:36:26.635097 24564 layer_factory.hpp:77] Creating layer res5a_branch2a
I0321 23:36:26.635126 24564 net.cpp:106] Creating Layer res5a_branch2a
I0321 23:36:26.635146 24564 net.cpp:454] res5a_branch2a <- res4f_res4f_relu_0_split_1
I0321 23:36:26.635172 24564 net.cpp:411] res5a_branch2a -> res5a_branch2a
I0321 23:36:26.637825 24564 net.cpp:150] Setting up res5a_branch2a
I0321 23:36:26.637863 24564 net.cpp:157] Top shape: 16 512 7 7 (401408)
I0321 23:36:26.637881 24564 net.cpp:165] Memory required for data: 3550052416
I0321 23:36:26.637902 24564 layer_factory.hpp:77] Creating layer bn5a_branch2a
I0321 23:36:26.637924 24564 net.cpp:106] Creating Layer bn5a_branch2a
I0321 23:36:26.637943 24564 net.cpp:454] bn5a_branch2a <- res5a_branch2a
I0321 23:36:26.637969 24564 net.cpp:397] bn5a_branch2a -> res5a_branch2a (in-place)
I0321 23:36:26.638375 24564 net.cpp:150] Setting up bn5a_branch2a
I0321 23:36:26.638404 24564 net.cpp:157] Top shape: 16 512 7 7 (401408)
I0321 23:36:26.638420 24564 net.cpp:165] Memory required for data: 3551658048
I0321 23:36:26.638447 24564 layer_factory.hpp:77] Creating layer scale5a_branch2a
I0321 23:36:26.638469 24564 net.cpp:106] Creating Layer scale5a_branch2a
I0321 23:36:26.638487 24564 net.cpp:454] scale5a_branch2a <- res5a_branch2a
I0321 23:36:26.638509 24564 net.cpp:397] scale5a_branch2a -> res5a_branch2a (in-place)
I0321 23:36:26.638605 24564 layer_factory.hpp:77] Creating layer scale5a_branch2a
I0321 23:36:26.638864 24564 net.cpp:150] Setting up scale5a_branch2a
I0321 23:36:26.638895 24564 net.cpp:157] Top shape: 16 512 7 7 (401408)
I0321 23:36:26.638911 24564 net.cpp:165] Memory required for data: 3553263680
I0321 23:36:26.638933 24564 layer_factory.hpp:77] Creating layer res5a_branch2a_relu
I0321 23:36:26.638955 24564 net.cpp:106] Creating Layer res5a_branch2a_relu
I0321 23:36:26.638972 24564 net.cpp:454] res5a_branch2a_relu <- res5a_branch2a
I0321 23:36:26.638996 24564 net.cpp:397] res5a_branch2a_relu -> res5a_branch2a (in-place)
I0321 23:36:26.639020 24564 net.cpp:150] Setting up res5a_branch2a_relu
I0321 23:36:26.639041 24564 net.cpp:157] Top shape: 16 512 7 7 (401408)
I0321 23:36:26.639056 24564 net.cpp:165] Memory required for data: 3554869312
I0321 23:36:26.639072 24564 layer_factory.hpp:77] Creating layer res5a_branch2b
I0321 23:36:26.639096 24564 net.cpp:106] Creating Layer res5a_branch2b
I0321 23:36:26.639114 24564 net.cpp:454] res5a_branch2b <- res5a_branch2a
I0321 23:36:26.639139 24564 net.cpp:411] res5a_branch2b -> res5a_branch2b
I0321 23:36:26.649013 24564 net.cpp:150] Setting up res5a_branch2b
I0321 23:36:26.649073 24564 net.cpp:157] Top shape: 16 512 7 7 (401408)
I0321 23:36:26.649091 24564 net.cpp:165] Memory required for data: 3556474944
I0321 23:36:26.649112 24564 layer_factory.hpp:77] Creating layer bn5a_branch2b
I0321 23:36:26.649137 24564 net.cpp:106] Creating Layer bn5a_branch2b
I0321 23:36:26.649155 24564 net.cpp:454] bn5a_branch2b <- res5a_branch2b
I0321 23:36:26.649176 24564 net.cpp:397] bn5a_branch2b -> res5a_branch2b (in-place)
I0321 23:36:26.649590 24564 net.cpp:150] Setting up bn5a_branch2b
I0321 23:36:26.649619 24564 net.cpp:157] Top shape: 16 512 7 7 (401408)
I0321 23:36:26.649636 24564 net.cpp:165] Memory required for data: 3558080576
I0321 23:36:26.649662 24564 layer_factory.hpp:77] Creating layer scale5a_branch2b
I0321 23:36:26.649690 24564 net.cpp:106] Creating Layer scale5a_branch2b
I0321 23:36:26.649722 24564 net.cpp:454] scale5a_branch2b <- res5a_branch2b
I0321 23:36:26.649761 24564 net.cpp:397] scale5a_branch2b -> res5a_branch2b (in-place)
I0321 23:36:26.649865 24564 layer_factory.hpp:77] Creating layer scale5a_branch2b
I0321 23:36:26.650126 24564 net.cpp:150] Setting up scale5a_branch2b
I0321 23:36:26.650156 24564 net.cpp:157] Top shape: 16 512 7 7 (401408)
I0321 23:36:26.650171 24564 net.cpp:165] Memory required for data: 3559686208
I0321 23:36:26.650194 24564 layer_factory.hpp:77] Creating layer res5a_branch2b_relu
I0321 23:36:26.650215 24564 net.cpp:106] Creating Layer res5a_branch2b_relu
I0321 23:36:26.650233 24564 net.cpp:454] res5a_branch2b_relu <- res5a_branch2b
I0321 23:36:26.650257 24564 net.cpp:397] res5a_branch2b_relu -> res5a_branch2b (in-place)
I0321 23:36:26.650281 24564 net.cpp:150] Setting up res5a_branch2b_relu
I0321 23:36:26.650301 24564 net.cpp:157] Top shape: 16 512 7 7 (401408)
I0321 23:36:26.650317 24564 net.cpp:165] Memory required for data: 3561291840
I0321 23:36:26.650333 24564 layer_factory.hpp:77] Creating layer res5a_branch2c
I0321 23:36:26.650362 24564 net.cpp:106] Creating Layer res5a_branch2c
I0321 23:36:26.650382 24564 net.cpp:454] res5a_branch2c <- res5a_branch2b
I0321 23:36:26.650401 24564 net.cpp:411] res5a_branch2c -> res5a_branch2c
I0321 23:36:26.655112 24564 net.cpp:150] Setting up res5a_branch2c
I0321 23:36:26.655150 24564 net.cpp:157] Top shape: 16 2048 7 7 (1605632)
I0321 23:36:26.655167 24564 net.cpp:165] Memory required for data: 3567714368
I0321 23:36:26.655189 24564 layer_factory.hpp:77] Creating layer bn5a_branch2c
I0321 23:36:26.655215 24564 net.cpp:106] Creating Layer bn5a_branch2c
I0321 23:36:26.655236 24564 net.cpp:454] bn5a_branch2c <- res5a_branch2c
I0321 23:36:26.655256 24564 net.cpp:397] bn5a_branch2c -> res5a_branch2c (in-place)
I0321 23:36:26.655669 24564 net.cpp:150] Setting up bn5a_branch2c
I0321 23:36:26.655699 24564 net.cpp:157] Top shape: 16 2048 7 7 (1605632)
I0321 23:36:26.655716 24564 net.cpp:165] Memory required for data: 3574136896
I0321 23:36:26.655742 24564 layer_factory.hpp:77] Creating layer scale5a_branch2c
I0321 23:36:26.655766 24564 net.cpp:106] Creating Layer scale5a_branch2c
I0321 23:36:26.655783 24564 net.cpp:454] scale5a_branch2c <- res5a_branch2c
I0321 23:36:26.655808 24564 net.cpp:397] scale5a_branch2c -> res5a_branch2c (in-place)
I0321 23:36:26.655905 24564 layer_factory.hpp:77] Creating layer scale5a_branch2c
I0321 23:36:26.656172 24564 net.cpp:150] Setting up scale5a_branch2c
I0321 23:36:26.656203 24564 net.cpp:157] Top shape: 16 2048 7 7 (1605632)
I0321 23:36:26.656219 24564 net.cpp:165] Memory required for data: 3580559424
I0321 23:36:26.656240 24564 layer_factory.hpp:77] Creating layer res5a
I0321 23:36:26.656267 24564 net.cpp:106] Creating Layer res5a
I0321 23:36:26.656286 24564 net.cpp:454] res5a <- res5a_branch1
I0321 23:36:26.656306 24564 net.cpp:454] res5a <- res5a_branch2c
I0321 23:36:26.656325 24564 net.cpp:411] res5a -> res5a
I0321 23:36:26.656395 24564 net.cpp:150] Setting up res5a
I0321 23:36:26.656424 24564 net.cpp:157] Top shape: 16 2048 7 7 (1605632)
I0321 23:36:26.656440 24564 net.cpp:165] Memory required for data: 3586981952
I0321 23:36:26.656455 24564 layer_factory.hpp:77] Creating layer res5a_relu
I0321 23:36:26.656474 24564 net.cpp:106] Creating Layer res5a_relu
I0321 23:36:26.656491 24564 net.cpp:454] res5a_relu <- res5a
I0321 23:36:26.656518 24564 net.cpp:397] res5a_relu -> res5a (in-place)
I0321 23:36:26.656541 24564 net.cpp:150] Setting up res5a_relu
I0321 23:36:26.656563 24564 net.cpp:157] Top shape: 16 2048 7 7 (1605632)
I0321 23:36:26.656577 24564 net.cpp:165] Memory required for data: 3593404480
I0321 23:36:26.656594 24564 layer_factory.hpp:77] Creating layer res5a_res5a_relu_0_split
I0321 23:36:26.656626 24564 net.cpp:106] Creating Layer res5a_res5a_relu_0_split
I0321 23:36:26.656656 24564 net.cpp:454] res5a_res5a_relu_0_split <- res5a
I0321 23:36:26.656677 24564 net.cpp:411] res5a_res5a_relu_0_split -> res5a_res5a_relu_0_split_0
I0321 23:36:26.656700 24564 net.cpp:411] res5a_res5a_relu_0_split -> res5a_res5a_relu_0_split_1
I0321 23:36:26.656805 24564 net.cpp:150] Setting up res5a_res5a_relu_0_split
I0321 23:36:26.656849 24564 net.cpp:157] Top shape: 16 2048 7 7 (1605632)
I0321 23:36:26.656869 24564 net.cpp:157] Top shape: 16 2048 7 7 (1605632)
I0321 23:36:26.656884 24564 net.cpp:165] Memory required for data: 3606249536
I0321 23:36:26.656900 24564 layer_factory.hpp:77] Creating layer res5b_branch2a
I0321 23:36:26.656934 24564 net.cpp:106] Creating Layer res5b_branch2a
I0321 23:36:26.656958 24564 net.cpp:454] res5b_branch2a <- res5a_res5a_relu_0_split_0
I0321 23:36:26.656980 24564 net.cpp:411] res5b_branch2a -> res5b_branch2a
I0321 23:36:26.661639 24564 net.cpp:150] Setting up res5b_branch2a
I0321 23:36:26.661687 24564 net.cpp:157] Top shape: 16 512 7 7 (401408)
I0321 23:36:26.661705 24564 net.cpp:165] Memory required for data: 3607855168
I0321 23:36:26.661725 24564 layer_factory.hpp:77] Creating layer bn5b_branch2a
I0321 23:36:26.661748 24564 net.cpp:106] Creating Layer bn5b_branch2a
I0321 23:36:26.661767 24564 net.cpp:454] bn5b_branch2a <- res5b_branch2a
I0321 23:36:26.661792 24564 net.cpp:397] bn5b_branch2a -> res5b_branch2a (in-place)
I0321 23:36:26.662195 24564 net.cpp:150] Setting up bn5b_branch2a
I0321 23:36:26.662225 24564 net.cpp:157] Top shape: 16 512 7 7 (401408)
I0321 23:36:26.662240 24564 net.cpp:165] Memory required for data: 3609460800
I0321 23:36:26.662267 24564 layer_factory.hpp:77] Creating layer scale5b_branch2a
I0321 23:36:26.662291 24564 net.cpp:106] Creating Layer scale5b_branch2a
I0321 23:36:26.662307 24564 net.cpp:454] scale5b_branch2a <- res5b_branch2a
I0321 23:36:26.662328 24564 net.cpp:397] scale5b_branch2a -> res5b_branch2a (in-place)
I0321 23:36:26.662432 24564 layer_factory.hpp:77] Creating layer scale5b_branch2a
I0321 23:36:26.662708 24564 net.cpp:150] Setting up scale5b_branch2a
I0321 23:36:26.662739 24564 net.cpp:157] Top shape: 16 512 7 7 (401408)
I0321 23:36:26.662755 24564 net.cpp:165] Memory required for data: 3611066432
I0321 23:36:26.662777 24564 layer_factory.hpp:77] Creating layer res5b_branch2a_relu
I0321 23:36:26.662797 24564 net.cpp:106] Creating Layer res5b_branch2a_relu
I0321 23:36:26.662814 24564 net.cpp:454] res5b_branch2a_relu <- res5b_branch2a
I0321 23:36:26.662838 24564 net.cpp:397] res5b_branch2a_relu -> res5b_branch2a (in-place)
I0321 23:36:26.662863 24564 net.cpp:150] Setting up res5b_branch2a_relu
I0321 23:36:26.662883 24564 net.cpp:157] Top shape: 16 512 7 7 (401408)
I0321 23:36:26.662899 24564 net.cpp:165] Memory required for data: 3612672064
I0321 23:36:26.662914 24564 layer_factory.hpp:77] Creating layer res5b_branch2b
I0321 23:36:26.662937 24564 net.cpp:106] Creating Layer res5b_branch2b
I0321 23:36:26.662955 24564 net.cpp:454] res5b_branch2b <- res5b_branch2a
I0321 23:36:26.662979 24564 net.cpp:411] res5b_branch2b -> res5b_branch2b
I0321 23:36:26.672777 24564 net.cpp:150] Setting up res5b_branch2b
I0321 23:36:26.672827 24564 net.cpp:157] Top shape: 16 512 7 7 (401408)
I0321 23:36:26.672843 24564 net.cpp:165] Memory required for data: 3614277696
I0321 23:36:26.672865 24564 layer_factory.hpp:77] Creating layer bn5b_branch2b
I0321 23:36:26.672889 24564 net.cpp:106] Creating Layer bn5b_branch2b
I0321 23:36:26.672907 24564 net.cpp:454] bn5b_branch2b <- res5b_branch2b
I0321 23:36:26.672929 24564 net.cpp:397] bn5b_branch2b -> res5b_branch2b (in-place)
I0321 23:36:26.673336 24564 net.cpp:150] Setting up bn5b_branch2b
I0321 23:36:26.673367 24564 net.cpp:157] Top shape: 16 512 7 7 (401408)
I0321 23:36:26.673383 24564 net.cpp:165] Memory required for data: 3615883328
I0321 23:36:26.673409 24564 layer_factory.hpp:77] Creating layer scale5b_branch2b
I0321 23:36:26.673437 24564 net.cpp:106] Creating Layer scale5b_branch2b
I0321 23:36:26.673456 24564 net.cpp:454] scale5b_branch2b <- res5b_branch2b
I0321 23:36:26.673477 24564 net.cpp:397] scale5b_branch2b -> res5b_branch2b (in-place)
I0321 23:36:26.673583 24564 layer_factory.hpp:77] Creating layer scale5b_branch2b
I0321 23:36:26.673851 24564 net.cpp:150] Setting up scale5b_branch2b
I0321 23:36:26.673882 24564 net.cpp:157] Top shape: 16 512 7 7 (401408)
I0321 23:36:26.673918 24564 net.cpp:165] Memory required for data: 3617488960
I0321 23:36:26.673959 24564 layer_factory.hpp:77] Creating layer res5b_branch2b_relu
I0321 23:36:26.673982 24564 net.cpp:106] Creating Layer res5b_branch2b_relu
I0321 23:36:26.674000 24564 net.cpp:454] res5b_branch2b_relu <- res5b_branch2b
I0321 23:36:26.674024 24564 net.cpp:397] res5b_branch2b_relu -> res5b_branch2b (in-place)
I0321 23:36:26.674047 24564 net.cpp:150] Setting up res5b_branch2b_relu
I0321 23:36:26.674068 24564 net.cpp:157] Top shape: 16 512 7 7 (401408)
I0321 23:36:26.674083 24564 net.cpp:165] Memory required for data: 3619094592
I0321 23:36:26.674098 24564 layer_factory.hpp:77] Creating layer res5b_branch2c
I0321 23:36:26.674127 24564 net.cpp:106] Creating Layer res5b_branch2c
I0321 23:36:26.674144 24564 net.cpp:454] res5b_branch2c <- res5b_branch2b
I0321 23:36:26.674166 24564 net.cpp:411] res5b_branch2c -> res5b_branch2c
I0321 23:36:26.678820 24564 net.cpp:150] Setting up res5b_branch2c
I0321 23:36:26.678861 24564 net.cpp:157] Top shape: 16 2048 7 7 (1605632)
I0321 23:36:26.678879 24564 net.cpp:165] Memory required for data: 3625517120
I0321 23:36:26.678900 24564 layer_factory.hpp:77] Creating layer bn5b_branch2c
I0321 23:36:26.678925 24564 net.cpp:106] Creating Layer bn5b_branch2c
I0321 23:36:26.678946 24564 net.cpp:454] bn5b_branch2c <- res5b_branch2c
I0321 23:36:26.678966 24564 net.cpp:397] bn5b_branch2c -> res5b_branch2c (in-place)
I0321 23:36:26.679386 24564 net.cpp:150] Setting up bn5b_branch2c
I0321 23:36:26.679416 24564 net.cpp:157] Top shape: 16 2048 7 7 (1605632)
I0321 23:36:26.679432 24564 net.cpp:165] Memory required for data: 3631939648
I0321 23:36:26.679458 24564 layer_factory.hpp:77] Creating layer scale5b_branch2c
I0321 23:36:26.679481 24564 net.cpp:106] Creating Layer scale5b_branch2c
I0321 23:36:26.679498 24564 net.cpp:454] scale5b_branch2c <- res5b_branch2c
I0321 23:36:26.679523 24564 net.cpp:397] scale5b_branch2c -> res5b_branch2c (in-place)
I0321 23:36:26.679620 24564 layer_factory.hpp:77] Creating layer scale5b_branch2c
I0321 23:36:26.679893 24564 net.cpp:150] Setting up scale5b_branch2c
I0321 23:36:26.679921 24564 net.cpp:157] Top shape: 16 2048 7 7 (1605632)
I0321 23:36:26.679939 24564 net.cpp:165] Memory required for data: 3638362176
I0321 23:36:26.679960 24564 layer_factory.hpp:77] Creating layer res5b
I0321 23:36:26.679987 24564 net.cpp:106] Creating Layer res5b
I0321 23:36:26.680006 24564 net.cpp:454] res5b <- res5a_res5a_relu_0_split_1
I0321 23:36:26.680024 24564 net.cpp:454] res5b <- res5b_branch2c
I0321 23:36:26.680044 24564 net.cpp:411] res5b -> res5b
I0321 23:36:26.680116 24564 net.cpp:150] Setting up res5b
I0321 23:36:26.680145 24564 net.cpp:157] Top shape: 16 2048 7 7 (1605632)
I0321 23:36:26.680160 24564 net.cpp:165] Memory required for data: 3644784704
I0321 23:36:26.680176 24564 layer_factory.hpp:77] Creating layer res5b_relu
I0321 23:36:26.680196 24564 net.cpp:106] Creating Layer res5b_relu
I0321 23:36:26.680212 24564 net.cpp:454] res5b_relu <- res5b
I0321 23:36:26.680236 24564 net.cpp:397] res5b_relu -> res5b (in-place)
I0321 23:36:26.680259 24564 net.cpp:150] Setting up res5b_relu
I0321 23:36:26.680279 24564 net.cpp:157] Top shape: 16 2048 7 7 (1605632)
I0321 23:36:26.680295 24564 net.cpp:165] Memory required for data: 3651207232
I0321 23:36:26.680310 24564 layer_factory.hpp:77] Creating layer res5b_res5b_relu_0_split
I0321 23:36:26.680330 24564 net.cpp:106] Creating Layer res5b_res5b_relu_0_split
I0321 23:36:26.680346 24564 net.cpp:454] res5b_res5b_relu_0_split <- res5b
I0321 23:36:26.680366 24564 net.cpp:411] res5b_res5b_relu_0_split -> res5b_res5b_relu_0_split_0
I0321 23:36:26.680387 24564 net.cpp:411] res5b_res5b_relu_0_split -> res5b_res5b_relu_0_split_1
I0321 23:36:26.680479 24564 net.cpp:150] Setting up res5b_res5b_relu_0_split
I0321 23:36:26.680505 24564 net.cpp:157] Top shape: 16 2048 7 7 (1605632)
I0321 23:36:26.680524 24564 net.cpp:157] Top shape: 16 2048 7 7 (1605632)
I0321 23:36:26.680539 24564 net.cpp:165] Memory required for data: 3664052288
I0321 23:36:26.680567 24564 layer_factory.hpp:77] Creating layer res5c_branch2a
I0321 23:36:26.680632 24564 net.cpp:106] Creating Layer res5c_branch2a
I0321 23:36:26.680656 24564 net.cpp:454] res5c_branch2a <- res5b_res5b_relu_0_split_0
I0321 23:36:26.680678 24564 net.cpp:411] res5c_branch2a -> res5c_branch2a
I0321 23:36:26.685333 24564 net.cpp:150] Setting up res5c_branch2a
I0321 23:36:26.685374 24564 net.cpp:157] Top shape: 16 512 7 7 (401408)
I0321 23:36:26.685390 24564 net.cpp:165] Memory required for data: 3665657920
I0321 23:36:26.685411 24564 layer_factory.hpp:77] Creating layer bn5c_branch2a
I0321 23:36:26.685433 24564 net.cpp:106] Creating Layer bn5c_branch2a
I0321 23:36:26.685452 24564 net.cpp:454] bn5c_branch2a <- res5c_branch2a
I0321 23:36:26.685478 24564 net.cpp:397] bn5c_branch2a -> res5c_branch2a (in-place)
I0321 23:36:26.685894 24564 net.cpp:150] Setting up bn5c_branch2a
I0321 23:36:26.685923 24564 net.cpp:157] Top shape: 16 512 7 7 (401408)
I0321 23:36:26.685940 24564 net.cpp:165] Memory required for data: 3667263552
I0321 23:36:26.685967 24564 layer_factory.hpp:77] Creating layer scale5c_branch2a
I0321 23:36:26.685991 24564 net.cpp:106] Creating Layer scale5c_branch2a
I0321 23:36:26.686008 24564 net.cpp:454] scale5c_branch2a <- res5c_branch2a
I0321 23:36:26.686028 24564 net.cpp:397] scale5c_branch2a -> res5c_branch2a (in-place)
I0321 23:36:26.686128 24564 layer_factory.hpp:77] Creating layer scale5c_branch2a
I0321 23:36:26.686398 24564 net.cpp:150] Setting up scale5c_branch2a
I0321 23:36:26.686429 24564 net.cpp:157] Top shape: 16 512 7 7 (401408)
I0321 23:36:26.686445 24564 net.cpp:165] Memory required for data: 3668869184
I0321 23:36:26.686467 24564 layer_factory.hpp:77] Creating layer res5c_branch2a_relu
I0321 23:36:26.686489 24564 net.cpp:106] Creating Layer res5c_branch2a_relu
I0321 23:36:26.686507 24564 net.cpp:454] res5c_branch2a_relu <- res5c_branch2a
I0321 23:36:26.686532 24564 net.cpp:397] res5c_branch2a_relu -> res5c_branch2a (in-place)
I0321 23:36:26.686555 24564 net.cpp:150] Setting up res5c_branch2a_relu
I0321 23:36:26.686575 24564 net.cpp:157] Top shape: 16 512 7 7 (401408)
I0321 23:36:26.686591 24564 net.cpp:165] Memory required for data: 3670474816
I0321 23:36:26.686607 24564 layer_factory.hpp:77] Creating layer res5c_branch2b
I0321 23:36:26.686630 24564 net.cpp:106] Creating Layer res5c_branch2b
I0321 23:36:26.686647 24564 net.cpp:454] res5c_branch2b <- res5c_branch2a
I0321 23:36:26.686673 24564 net.cpp:411] res5c_branch2b -> res5c_branch2b
I0321 23:36:26.696406 24564 net.cpp:150] Setting up res5c_branch2b
I0321 23:36:26.696449 24564 net.cpp:157] Top shape: 16 512 7 7 (401408)
I0321 23:36:26.696466 24564 net.cpp:165] Memory required for data: 3672080448
I0321 23:36:26.696488 24564 layer_factory.hpp:77] Creating layer bn5c_branch2b
I0321 23:36:26.696511 24564 net.cpp:106] Creating Layer bn5c_branch2b
I0321 23:36:26.696528 24564 net.cpp:454] bn5c_branch2b <- res5c_branch2b
I0321 23:36:26.696548 24564 net.cpp:397] bn5c_branch2b -> res5c_branch2b (in-place)
I0321 23:36:26.696975 24564 net.cpp:150] Setting up bn5c_branch2b
I0321 23:36:26.697007 24564 net.cpp:157] Top shape: 16 512 7 7 (401408)
I0321 23:36:26.697024 24564 net.cpp:165] Memory required for data: 3673686080
I0321 23:36:26.697049 24564 layer_factory.hpp:77] Creating layer scale5c_branch2b
I0321 23:36:26.697077 24564 net.cpp:106] Creating Layer scale5c_branch2b
I0321 23:36:26.697096 24564 net.cpp:454] scale5c_branch2b <- res5c_branch2b
I0321 23:36:26.697118 24564 net.cpp:397] scale5c_branch2b -> res5c_branch2b (in-place)
I0321 23:36:26.697218 24564 layer_factory.hpp:77] Creating layer scale5c_branch2b
I0321 23:36:26.697492 24564 net.cpp:150] Setting up scale5c_branch2b
I0321 23:36:26.697522 24564 net.cpp:157] Top shape: 16 512 7 7 (401408)
I0321 23:36:26.697538 24564 net.cpp:165] Memory required for data: 3675291712
I0321 23:36:26.697561 24564 layer_factory.hpp:77] Creating layer res5c_branch2b_relu
I0321 23:36:26.697582 24564 net.cpp:106] Creating Layer res5c_branch2b_relu
I0321 23:36:26.697599 24564 net.cpp:454] res5c_branch2b_relu <- res5c_branch2b
I0321 23:36:26.697639 24564 net.cpp:397] res5c_branch2b_relu -> res5c_branch2b (in-place)
I0321 23:36:26.697680 24564 net.cpp:150] Setting up res5c_branch2b_relu
I0321 23:36:26.697701 24564 net.cpp:157] Top shape: 16 512 7 7 (401408)
I0321 23:36:26.697717 24564 net.cpp:165] Memory required for data: 3676897344
I0321 23:36:26.697732 24564 layer_factory.hpp:77] Creating layer res5c_branch2c
I0321 23:36:26.697762 24564 net.cpp:106] Creating Layer res5c_branch2c
I0321 23:36:26.697779 24564 net.cpp:454] res5c_branch2c <- res5c_branch2b
I0321 23:36:26.697800 24564 net.cpp:411] res5c_branch2c -> res5c_branch2c
I0321 23:36:26.702495 24564 net.cpp:150] Setting up res5c_branch2c
I0321 23:36:26.702536 24564 net.cpp:157] Top shape: 16 2048 7 7 (1605632)
I0321 23:36:26.702553 24564 net.cpp:165] Memory required for data: 3683319872
I0321 23:36:26.702574 24564 layer_factory.hpp:77] Creating layer bn5c_branch2c
I0321 23:36:26.702601 24564 net.cpp:106] Creating Layer bn5c_branch2c
I0321 23:36:26.702620 24564 net.cpp:454] bn5c_branch2c <- res5c_branch2c
I0321 23:36:26.702641 24564 net.cpp:397] bn5c_branch2c -> res5c_branch2c (in-place)
I0321 23:36:26.703066 24564 net.cpp:150] Setting up bn5c_branch2c
I0321 23:36:26.703097 24564 net.cpp:157] Top shape: 16 2048 7 7 (1605632)
I0321 23:36:26.703114 24564 net.cpp:165] Memory required for data: 3689742400
I0321 23:36:26.703140 24564 layer_factory.hpp:77] Creating layer scale5c_branch2c
I0321 23:36:26.703162 24564 net.cpp:106] Creating Layer scale5c_branch2c
I0321 23:36:26.703181 24564 net.cpp:454] scale5c_branch2c <- res5c_branch2c
I0321 23:36:26.703205 24564 net.cpp:397] scale5c_branch2c -> res5c_branch2c (in-place)
I0321 23:36:26.703305 24564 layer_factory.hpp:77] Creating layer scale5c_branch2c
I0321 23:36:26.703575 24564 net.cpp:150] Setting up scale5c_branch2c
I0321 23:36:26.703605 24564 net.cpp:157] Top shape: 16 2048 7 7 (1605632)
I0321 23:36:26.703621 24564 net.cpp:165] Memory required for data: 3696164928
I0321 23:36:26.703644 24564 layer_factory.hpp:77] Creating layer res5c
I0321 23:36:26.703671 24564 net.cpp:106] Creating Layer res5c
I0321 23:36:26.703691 24564 net.cpp:454] res5c <- res5b_res5b_relu_0_split_1
I0321 23:36:26.703709 24564 net.cpp:454] res5c <- res5c_branch2c
I0321 23:36:26.703730 24564 net.cpp:411] res5c -> res5c
I0321 23:36:26.703801 24564 net.cpp:150] Setting up res5c
I0321 23:36:26.703830 24564 net.cpp:157] Top shape: 16 2048 7 7 (1605632)
I0321 23:36:26.703845 24564 net.cpp:165] Memory required for data: 3702587456
I0321 23:36:26.703861 24564 layer_factory.hpp:77] Creating layer res5c_relu
I0321 23:36:26.703881 24564 net.cpp:106] Creating Layer res5c_relu
I0321 23:36:26.703897 24564 net.cpp:454] res5c_relu <- res5c
I0321 23:36:26.703920 24564 net.cpp:397] res5c_relu -> res5c (in-place)
I0321 23:36:26.703944 24564 net.cpp:150] Setting up res5c_relu
I0321 23:36:26.703964 24564 net.cpp:157] Top shape: 16 2048 7 7 (1605632)
I0321 23:36:26.703979 24564 net.cpp:165] Memory required for data: 3709009984
I0321 23:36:26.703995 24564 layer_factory.hpp:77] Creating layer pool5
I0321 23:36:26.704017 24564 net.cpp:106] Creating Layer pool5
I0321 23:36:26.704035 24564 net.cpp:454] pool5 <- res5c
I0321 23:36:26.704056 24564 net.cpp:411] pool5 -> pool5
I0321 23:36:26.704129 24564 net.cpp:150] Setting up pool5
I0321 23:36:26.704156 24564 net.cpp:157] Top shape: 16 2048 1 1 (32768)
I0321 23:36:26.704171 24564 net.cpp:165] Memory required for data: 3709141056
I0321 23:36:26.704187 24564 layer_factory.hpp:77] Creating layer fc_id
I0321 23:36:26.704212 24564 net.cpp:106] Creating Layer fc_id
I0321 23:36:26.704229 24564 net.cpp:454] fc_id <- pool5
I0321 23:36:26.704249 24564 net.cpp:411] fc_id -> fc
I0321 23:36:26.797996 24564 net.cpp:150] Setting up fc_id
I0321 23:36:26.798028 24564 net.cpp:157] Top shape: 16 751 (12016)
I0321 23:36:26.798039 24564 net.cpp:165] Memory required for data: 3709189120
I0321 23:36:26.798053 24564 layer_factory.hpp:77] Creating layer loss
I0321 23:36:26.798075 24564 net.cpp:106] Creating Layer loss
I0321 23:36:26.798087 24564 net.cpp:454] loss <- fc
I0321 23:36:26.798105 24564 net.cpp:454] loss <- label
I0321 23:36:26.798132 24564 net.cpp:411] loss -> loss
I0321 23:36:26.798159 24564 layer_factory.hpp:77] Creating layer loss
…
