…
  transform_param {
    mirror: false
    mean_file: "/home/lizhuowan/Market1501/lmdb/lmdb_12936/Image_lmdb_12936.binaryproto"
  }
  data_param {
    source: "/home/lizhuowan/Market1501/lmdb/lmdb_mirror_12936/Image_lmdb_mirror_12936"
    batch_size: 16
    backend: LMDB
  }
}
layer {
  name: "data"
  type: "Data"
  top: "labels"
  include {
    phase: TRAIN
  }
  transform_param {
    mean_value: 112
  }
  data_param {
    source: "/home/lizhuowan/Market1501/lmdb/lmdb_mirror_12936/pos30_lmdb_mirror_12936_correct"
    batch_size: 16
    backend: LMDB
  }
}
layer {
  name: "conv1"
  type: "Convolution"
  bottom: "data"
  top: "conv1"
  convolution_param {
    num_output: 64
    pad: 3
    kernel_size: 7
    stride: 2
  }
}
layer {
  name: "bn_conv1"
  type: "BatchNorm"
  bottom: "conv1"
  top: "conv1"
  batch_norm_param {
    use_global_stats: true
  }
}
layer {
  name: "scale_conv1"
  type: "Scale"
  bottom: "conv1"
  top: "conv1"
  scale_param {
    bias_term: true
  }
}
layer {
  name: "conv1_relu"
  type: "ReLU"
  bottom: "conv1"
  top: "conv1"
}
layer {
  name: "pool1"
  type: "Pooling"
  bottom: "conv1"
  top: "pool1"
  pooling_param {
    pool: MAX
    kernel_size: 3
    stride: 2
  }
}
layer {
  name: "res2a_branch1"
  type: "Convolution"
  bottom: "pool1"
  top: "res2a_branch1"
  convolution_param {
    num_output: 256
    bias_term: false
    pad: 0
    kernel_size: 1
    stride: 1
  }
}
layer {
  name: "bn2a_branch1"
  type: "BatchNorm"
  bottom: "res2a_branch1"
  top: "res2a_branch1"
  batch_norm_param {
    use_global_stats: true
  }
}
layer {
  name: "scale2a_branch1"
  type: "Scale"
  bottom: "res2a_branch1"
  top: "res2a_branch1"
  scale_param {
    bias_term: true
  }
}
layer {
  name: "res2a_branch2a"
  type: "Convolution"
  bottom: "pool1"
  top: "res2a_branch2a"
  convolution_param {
    num_output: 64
    bias_term: false
    pad: 0
    kernel_size: 1
    stride: 1
  }
}
layer {
  name: "bn2a_branch2a"
  type: "BatchNorm"
  bottom: "res2a_branch2a"
  top: "res2a_branch2a"
  batch_norm_param {
    use_global_stats: true
  }
}
layer {
  name: "scale2a_branch2a"
  type: "Scale"
  bottom: "res2a_branch2a"
  top: "res2a_branch2a"
  scale_param {
    bias_term: true
  }
}
layer {
  name: "res2a_branch2a_relu"
  type: "ReLU"
  bottom: "res2a_branch2a"
  top: "res2a_branch2a"
}
layer {
  name: "res2a_branch2b"
  type: "Convolution"
  bottom: "res2a_branch2a"
  top: "res2a_branch2b"
  convolution_param {
    num_output: 64
    bias_term: false
    pad: 1
    kernel_size: 3
    stride: 1
  }
}
layer {
  name: "bn2a_branch2b"
  type: "BatchNorm"
  bottom: "res2a_branch2b"
  top: "res2a_branch2b"
  batch_norm_param {
    use_global_stats: true
  }
}
layer {
  name: "scale2a_branch2b"
  type: "Scale"
  bottom: "res2a_branch2b"
  top: "res2a_branch2b"
  scale_param {
    bias_term: true
  }
}
layer {
  name: "res2a_branch2b_relu"
  type: "ReLU"
  bottom: "res2a_branch2b"
  top: "res2a_branch2b"
}
layer {
  name: "res2a_branch2c"
  type: "Convolution"
  bottom: "res2a_branch2b"
  top: "res2a_branch2c"
  convolution_param {
    num_output: 256
    bias_term: false
    pad: 0
    kernel_size: 1
    stride: 1
  }
}
layer {
  name: "bn2a_branch2c"
  type: "BatchNorm"
  bottom: "res2a_branch2c"
  top: "res2a_branch2c"
  batch_norm_param {
    use_global_stats: true
  }
}
layer {
  name: "scale2a_branch2c"
  type: "Scale"
  bottom: "res2a_branch2c"
  top: "res2a_branch2c"
  scale_param {
    bias_term: true
  }
}
layer {
  name: "res2a"
  type: "Eltwise"
  bottom: "res2a_branch1"
  bottom: "res2a_branch2c"
  top: "res2a"
}
layer {
  name: "res2a_relu"
  type: "ReLU"
  bottom: "res2a"
  top: "res2a"
}
layer {
  name: "res2b_branch2a"
  type: "Convolution"
  bottom: "res2a"
  top: "res2b_branch2a"
  convolution_param {
    num_output: 64
    bias_term: false
    pad: 0
    kernel_size: 1
    stride: 1
  }
}
layer {
  name: "bn2b_branch2a"
  type: "BatchNorm"
  bottom: "res2b_branch2a"
  top: "res2b_branch2a"
  batch_norm_param {
    use_global_stats: true
  }
}
layer {
  name: "scale2b_branch2a"
  type: "Scale"
  bottom: "res2b_branch2a"
  top: "res2b_branch2a"
  scale_param {
    bias_term: true
  }
}
layer {
  name: "res2b_branch2a_relu"
  type: "ReLU"
  bottom: "res2b_branch2a"
  top: "res2b_branch2a"
}
layer {
  name: "res2b_branch2b"
  type: "Convolution"
  bottom: "res2b_branch2a"
  top: "res2b_branch2b"
  convolution_param {
    num_output: 64
    bias_term: false
    pad: 1
    kernel_size: 3
    stride: 1
  }
}
layer {
  name: "bn2b_branch2b"
  type: "BatchNorm"
  bottom: "res2b_branch2b"
  top: "res2b_branch2b"
  batch_norm_param {
    use_global_stats: true
  }
}
layer {
  name: "scale2b_branch2b"
  type: "Scale"
  bottom: "res2b_branch2b"
  top: "res2b_branch2b"
  scale_param {
    bias_term: true
  }
}
layer {
  name: "res2b_branch2b_relu"
  type: "ReLU"
  bottom: "res2b_branch2b"
  top: "res2b_branch2b"
}
layer {
  name: "res2b_branch2c"
  type: "Convolution"
  bottom: "res2b_branch2b"
  top: "res2b_branch2c"
  convolution_param {
    num_output: 256
    bias_term: false
    pad: 0
    kernel_size: 1
    stride: 1
  }
}
layer {
  name: "bn2b_branch2c"
  type: "BatchNorm"
  bottom: "res2b_branch2c"
  top: "res2b_branch2c"
  batch_norm_param {
    use_global_stats: true
  }
}
layer {
  name: "scale2b_branch2c"
  type: "Scale"
  bottom: "res2b_branch2c"
  top: "res2b_branch2c"
  scale_param {
    bias_term: true
  }
}
layer {
  name: "res2b"
  type: "Eltwise"
  bottom: "res2a"
  bottom: "res2b_branch2c"
  top: "res2b"
}
layer {
  name: "res2b_relu"
  type: "ReLU"
  bottom: "res2b"
  top: "res2b"
}
layer {
  name: "res2c_branch2a"
  type: "Convolution"
  bottom: "res2b"
  top: "res2c_branch2a"
  convolution_param {
    num_output: 64
    bias_term: false
    pad: 0
    kernel_size: 1
    stride: 1
  }
}
layer {
  name: "bn2c_branch2a"
  type: "BatchNorm"
  bottom: "res2c_branch2a"
  top: "res2c_branch2a"
  batch_norm_param {
    use_global_stats: true
  }
}
layer {
  name: "scale2c_branch2a"
  type: "Scale"
  bottom: "res2c_branch2a"
  top: "res2c_branch2a"
  scale_param {
    bias_term: true
  }
}
layer {
  name: "res2c_branch2a_relu"
  type: "ReLU"
  bottom: "res2c_branch2a"
  top: "res2c_branch2a"
}
layer {
  name: "res2c_branch2b"
  type: "Convolution"
  bottom: "res2c_branch2a"
  top: "res2c_branch2b"
  convolution_param {
    num_output: 64
    bias_term: false
    pad: 1
    kernel_size: 3
    stride: 1
  }
}
layer {
  name: "bn2c_branch2b"
  type: "BatchNorm"
  bottom: "res2c_branch2b"
  top: "res2c_branch2b"
  batch_norm_param {
    use_global_stats: true
  }
}
layer {
  name: "scale2c_branch2b"
  type: "Scale"
  bottom: "res2c_branch2b"
  top: "res2c_branch2b"
  scale_param {
    bias_term: true
  }
}
layer {
  name: "res2c_branch2b_relu"
  type: "ReLU"
  bottom: "res2c_branch2b"
  top: "res2c_branch2b"
}
layer {
  name: "res2c_branch2c"
  type: "Convolution"
  bottom: "res2c_branch2b"
  top: "res2c_branch2c"
  convolution_param {
    num_output: 256
    bias_term: false
    pad: 0
    kernel_size: 1
    stride: 1
  }
}
layer {
  name: "bn2c_branch2c"
  type: "BatchNorm"
  bottom: "res2c_branch2c"
  top: "res2c_branch2c"
  batch_norm_param {
    use_global_stats: true
  }
}
layer {
  name: "scale2c_branch2c"
  type: "Scale"
  bottom: "res2c_branch2c"
  top: "res2c_branch2c"
  scale_param {
    bias_term: true
  }
}
layer {
  name: "res2c"
  type: "Eltwise"
  bottom: "res2b"
  bottom: "res2c_branch2c"
  top: "res2c"
}
layer {
  name: "res2c_relu"
  type: "ReLU"
  bottom: "res2c"
  top: "res2c"
}
layer {
  name: "res3a_branch1"
  type: "Convolution"
  bottom: "res2c"
  top: "res3a_branch1"
  convolution_param {
    num_output: 512
    bias_term: false
    pad: 0
    kernel_size: 1
    stride: 2
  }
}
layer {
  name: "bn3a_branch1"
  type: "BatchNorm"
  bottom: "res3a_branch1"
  top: "res3a_branch1"
  batch_norm_param {
    use_global_stats: true
  }
}
layer {
  name: "scale3a_branch1"
  type: "Scale"
  bottom: "res3a_branch1"
  top: "res3a_branch1"
  scale_param {
    bias_term: true
  }
}
layer {
  name: "res3a_branch2a"
  type: "Convolution"
  bottom: "res2c"
  top: "res3a_branch2a"
  convolution_param {
    num_output: 128
    bias_term: false
    pad: 0
    kernel_size: 1
    stride: 2
  }
}
layer {
  name: "bn3a_branch2a"
  type: "BatchNorm"
  bottom: "res3a_branch2a"
  top: "res3a_branch2a"
  batch_norm_param {
    use_global_stats: true
  }
}
layer {
  name: "scale3a_branch2a"
  type: "Scale"
  bottom: "res3a_branch2a"
  top: "res3a_branch2a"
  scale_param {
    bias_term: true
  }
}
layer {
  name: "res3a_branch2a_relu"
  type: "ReLU"
  bottom: "res3a_branch2a"
  top: "res3a_branch2a"
}
layer {
  name: "res3a_branch2b"
  type: "Convolution"
  bottom: "res3a_branch2a"
  top: "res3a_branch2b"
  convolution_param {
    num_output: 128
    bias_term: false
    pad: 1
    kernel_size: 3
    stride: 1
  }
}
layer {
  name: "bn3a_branch2b"
  type: "BatchNorm"
  bottom: "res3a_branch2b"
  top: "res3a_branch2b"
  batch_norm_param {
    use_global_stats: true
  }
}
layer {
  name: "scale3a_branch2b"
  type: "Scale"
  bottom: "res3a_branch2b"
  top: "res3a_branch2b"
  scale_param {
    bias_term: true
  }
}
layer {
  name: "res3a_branch2b_relu"
  type: "ReLU"
  bottom: "res3a_branch2b"
  top: "res3a_branch2b"
}
layer {
  name: "res3a_branch2c"
  type: "Convolution"
  bottom: "res3a_branch2b"
  top: "res3a_branch2c"
  convolution_param {
    num_output: 512
    bias_term: false
    pad: 0
    kernel_size: 1
    stride: 1
  }
}
layer {
  name: "bn3a_branch2c"
  type: "BatchNorm"
  bottom: "res3a_branch2c"
  top: "res3a_branch2c"
  batch_norm_param {
    use_global_stats: true
  }
}
layer {
  name: "scale3a_branch2c"
  type: "Scale"
  bottom: "res3a_branch2c"
  top: "res3a_branch2c"
  scale_param {
    bias_term: true
  }
}
layer {
  name: "res3a"
  type: "Eltwise"
  bottom: "res3a_branch1"
  bottom: "res3a_branch2c"
  top: "res3a"
}
layer {
  name: "res3a_relu"
  type: "ReLU"
  bottom: "res3a"
  top: "res3a"
}
layer {
  name: "res3b_branch2a"
  type: "Convolution"
  bottom: "res3a"
  top: "res3b_branch2a"
  convolution_param {
    num_output: 128
    bias_term: false
    pad: 0
    kernel_size: 1
    stride: 1
  }
}
layer {
  name: "bn3b_branch2a"
  type: "BatchNorm"
  bottom: "res3b_branch2a"
  top: "res3b_branch2a"
  batch_norm_param {
    use_global_stats: true
  }
}
layer {
  name: "scale3b_branch2a"
  type: "Scale"
  bottom: "res3b_branch2a"
  top: "res3b_branch2a"
  scale_param {
    bias_term: true
  }
}
layer {
  name: "res3b_branch2a_relu"
  type: "ReLU"
  bottom: "res3b_branch2a"
  top: "res3b_branch2a"
}
layer {
  name: "res3b_branch2b"
  type: "Convolution"
  bottom: "res3b_branch2a"
  top: "res3b_branch2b"
  convolution_param {
    num_output: 128
    bias_term: false
    pad: 1
    kernel_size: 3
    stride: 1
  }
}
layer {
  name: "bn3b_branch2b"
  type: "BatchNorm"
  bottom: "res3b_branch2b"
  top: "res3b_branch2b"
  batch_norm_param {
    use_global_stats: true
  }
}
layer {
  name: "scale3b_branch2b"
  type: "Scale"
  bottom: "res3b_branch2b"
  top: "res3b_branch2b"
  scale_param {
    bias_term: true
  }
}
layer {
  name: "res3b_branch2b_relu"
  type: "ReLU"
  bottom: "res3b_branch2b"
  top: "res3b_branch2b"
}
layer {
  name: "res3b_branch2c"
  type: "Convolution"
  bottom: "res3b_branch2b"
  top: "res3b_branch2c"
  convolution_param {
    num_output: 512
    bias_term: false
    pad: 0
    kernel_size: 1
    stride: 1
  }
}
layer {
  name: "bn3b_branch2c"
  type: "BatchNorm"
  bottom: "res3b_branch2c"
  top: "res3b_branch2c"
  batch_norm_param {
    use_global_stats: true
  }
}
layer {
  name: "scale3b_branch2c"
  type: "Scale"
  bottom: "res3b_branch2c"
  top: "res3b_branch2c"
  scale_param {
    bias_term: true
  }
}
layer {
  name: "res3b"
  type: "Eltwise"
  bottom: "res3a"
  bottom: "res3b_branch2c"
  top: "res3b"
}
layer {
  name: "res3b_relu"
  type: "ReLU"
  bottom: "res3b"
  top: "res3b"
}
layer {
  name: "res3c_branch2a"
  type: "Convolution"
  bottom: "res3b"
  top: "res3c_branch2a"
  convolution_param {
    num_output: 128
    bias_term: false
    pad: 0
    kernel_size: 1
    stride: 1
  }
}
layer {
  name: "bn3c_branch2a"
  type: "BatchNorm"
  bottom: "res3c_branch2a"
  top: "res3c_branch2a"
  batch_norm_param {
    use_global_stats: true
  }
}
layer {
  name: "scale3c_branch2a"
  type: "Scale"
  bottom: "res3c_branch2a"
  top: "res3c_branch2a"
  scale_param {
    bias_term: true
  }
}
layer {
  name: "res3c_branch2a_relu"
  type: "ReLU"
  bottom: "res3c_branch2a"
  top: "res3c_branch2a"
}
layer {
  name: "res3c_branch2b"
  type: "Convolution"
  bottom: "res3c_branch2a"
  top: "res3c_branch2b"
  convolution_param {
    num_output: 128
    bias_term: false
    pad: 1
    kernel_size: 3
    stride: 1
  }
}
layer {
  name: "bn3c_branch2b"
  type: "BatchNorm"
  bottom: "res3c_branch2b"
  top: "res3c_branch2b"
  batch_norm_param {
    use_global_stats: true
  }
}
layer {
  name: "scale3c_branch2b"
  type: "Scale"
  bottom: "res3c_branch2b"
  top: "res3c_branch2b"
  scale_param {
    bias_term: true
  }
}
layer {
  name: "res3c_branch2b_relu"
  type: "ReLU"
  bottom: "res3c_branch2b"
  top: "res3c_branch2b"
}
layer {
  name: "res3c_branch2c"
  type: "Convolution"
  bottom: "res3c_branch2b"
  top: "res3c_branch2c"
  convolution_param {
    num_output: 512
    bias_term: false
    pad: 0
    kernel_size: 1
    stride: 1
  }
}
layer {
  name: "bn3c_branch2c"
  type: "BatchNorm"
  bottom: "res3c_branch2c"
  top: "res3c_branch2c"
  batch_norm_param {
    use_global_stats: true
  }
}
layer {
  name: "scale3c_branch2c"
  type: "Scale"
  bottom: "res3c_branch2c"
  top: "res3c_branch2c"
  scale_param {
    bias_term: true
  }
}
layer {
  name: "res3c"
  type: "Eltwise"
  bottom: "res3b"
  bottom: "res3c_branch2c"
  top: "res3c"
}
layer {
  name: "res3c_relu"
  type: "ReLU"
  bottom: "res3c"
  top: "res3c"
}
layer {
  name: "res3d_branch2a"
  type: "Convolution"
  bottom: "res3c"
  top: "res3d_branch2a"
  convolution_param {
    num_output: 128
    bias_term: false
    pad: 0
    kernel_size: 1
    stride: 1
  }
}
layer {
  name: "bn3d_branch2a"
  type: "BatchNorm"
  bottom: "res3d_branch2a"
  top: "res3d_branch2a"
  batch_norm_param {
    use_global_stats: true
  }
}
layer {
  name: "scale3d_branch2a"
  type: "Scale"
  bottom: "res3d_branch2a"
  top: "res3d_branch2a"
  scale_param {
    bias_term: true
  }
}
layer {
  name: "res3d_branch2a_relu"
  type: "ReLU"
  bottom: "res3d_branch2a"
  top: "res3d_branch2a"
}
layer {
  name: "res3d_branch2b"
  type: "Convolution"
  bottom: "res3d_branch2a"
  top: "res3d_branch2b"
  convolution_param {
    num_output: 128
    bias_term: false
    pad: 1
    kernel_size: 3
    stride: 1
  }
}
layer {
  name: "bn3d_branch2b"
  type: "BatchNorm"
  bottom: "res3d_branch2b"
  top: "res3d_branch2b"
  batch_norm_param {
    use_global_stats: true
  }
}
layer {
  name: "scale3d_branch2b"
  type: "Scale"
  bottom: "res3d_branch2b"
  top: "res3d_branch2b"
  scale_param {
    bias_term: true
  }
}
layer {
  name: "res3d_branch2b_relu"
  type: "ReLU"
  bottom: "res3d_branch2b"
  top: "res3d_branch2b"
}
layer {
  name: "res3d_branch2c"
  type: "Convolution"
  bottom: "res3d_branch2b"
  top: "res3d_branch2c"
  convolution_param {
    num_output: 512
    bias_term: false
    pad: 0
    kernel_size: 1
    stride: 1
  }
}
layer {
  name: "bn3d_branch2c"
  type: "BatchNorm"
  bottom: "res3d_branch2c"
  top: "res3d_branch2c"
  batch_norm_param {
    use_global_stats: true
  }
}
layer {
  name: "scale3d_branch2c"
  type: "Scale"
  bottom: "res3d_branch2c"
  top: "res3d_branch2c"
  scale_param {
    bias_term: true
  }
}
layer {
  name: "res3d"
  type: "Eltwise"
  bottom: "res3c"
  bottom: "res3d_branch2c"
  top: "res3d"
}
layer {
  name: "res3d_relu"
  type: "ReLU"
  bottom: "res3d"
  top: "res3d"
}
layer {
  name: "res4a_branch1"
  type: "Convolution"
  bottom: "res3d"
  top: "res4a_branch1"
  convolution_param {
    num_output: 1024
    bias_term: false
    pad: 0
    kernel_size: 1
    stride: 2
  }
}
layer {
  name: "bn4a_branch1"
  type: "BatchNorm"
  bottom: "res4a_branch1"
  top: "res4a_branch1"
  batch_norm_param {
    use_global_stats: true
  }
}
layer {
  name: "scale4a_branch1"
  type: "Scale"
  bottom: "res4a_branch1"
  top: "res4a_branch1"
  scale_param {
    bias_term: true
  }
}
layer {
  name: "res4a_branch2a"
  type: "Convolution"
  bottom: "res3d"
  top: "res4a_branch2a"
  convolution_param {
    num_output: 256
    bias_term: false
    pad: 0
    kernel_size: 1
    stride: 2
  }
}
layer {
  name: "bn4a_branch2a"
  type: "BatchNorm"
  bottom: "res4a_branch2a"
  top: "res4a_branch2a"
  batch_norm_param {
    use_global_stats: true
  }
}
layer {
  name: "scale4a_branch2a"
  type: "Scale"
  bottom: "res4a_branch2a"
  top: "res4a_branch2a"
  scale_param {
    bias_term: true
  }
}
layer {
  name: "res4a_branch2a_relu"
  type: "ReLU"
  bottom: "res4a_branch2a"
  top: "res4a_branch2a"
}
layer {
  name: "res4a_branch2b"
  type: "Convolution"
  bottom: "res4a_branch2a"
  top: "res4a_branch2b"
  convolution_param {
    num_output: 256
    bias_term: false
    pad: 1
    kernel_size: 3
    stride: 1
  }
}
layer {
  name: "bn4a_branch2b"
  type: "BatchNorm"
  bottom: "res4a_branch2b"
  top: "res4a_branch2b"
  batch_norm_param {
    use_global_stats: true
  }
}
layer {
  name: "scale4a_branch2b"
  type: "Scale"
  bottom: "res4a_branch2b"
  top: "res4a_branch2b"
  scale_param {
    bias_term: true
  }
}
layer {
  name: "res4a_branch2b_relu"
  type: "ReLU"
  bottom: "res4a_branch2b"
  top: "res4a_branch2b"
}
layer {
  name: "res4a_branch2c"
  type: "Convolution"
  bottom: "res4a_branch2b"
  top: "res4a_branch2c"
  convolution_param {
    num_output: 1024
    bias_term: false
    pad: 0
    kernel_size: 1
    stride: 1
  }
}
layer {
  name: "bn4a_branch2c"
  type: "BatchNorm"
  bottom: "res4a_branch2c"
  top: "res4a_branch2c"
  batch_norm_param {
    use_global_stats: true
  }
}
layer {
  name: "scale4a_branch2c"
  type: "Scale"
  bottom: "res4a_branch2c"
  top: "res4a_branch2c"
  scale_param {
    bias_term: true
  }
}
layer {
  name: "res4a"
  type: "Eltwise"
  bottom: "res4a_branch1"
  bottom: "res4a_branch2c"
  top: "res4a"
}
layer {
  name: "res4a_relu"
  type: "ReLU"
  bottom: "res4a"
  top: "res4a"
}
layer {
  name: "res4b_branch2a"
  type: "Convolution"
  bottom: "res4a"
  top: "res4b_branch2a"
  convolution_param {
    num_output: 256
    bias_term: false
    pad: 0
    kernel_size: 1
    stride: 1
  }
}
layer {
  name: "bn4b_branch2a"
  type: "BatchNorm"
  bottom: "res4b_branch2a"
  top: "res4b_branch2a"
  batch_norm_param {
    use_global_stats: true
  }
}
layer {
  name: "scale4b_branch2a"
  type: "Scale"
  bottom: "res4b_branch2a"
  top: "res4b_branch2a"
  scale_param {
    bias_term: true
  }
}
layer {
  name: "res4b_branch2a_relu"
  type: "ReLU"
  bottom: "res4b_branch2a"
  top: "res4b_branch2a"
}
layer {
  name: "res4b_branch2b"
  type: "Convolution"
  bottom: "res4b_branch2a"
  top: "res4b_branch2b"
  convolution_param {
    num_output: 256
    bias_term: false
    pad: 1
    kernel_size: 3
    stride: 1
  }
}
layer {
  name: "bn4b_branch2b"
  type: "BatchNorm"
  bottom: "res4b_branch2b"
  top: "res4b_branch2b"
  batch_norm_param {
    use_global_stats: true
  }
}
layer {
  name: "scale4b_branch2b"
  type: "Scale"
  bottom: "res4b_branch2b"
  top: "res4b_branch2b"
  scale_param {
    bias_term: true
  }
}
layer {
  name: "res4b_branch2b_relu"
  type: "ReLU"
  bottom: "res4b_branch2b"
  top: "res4b_branch2b"
}
layer {
  name: "res4b_branch2c"
  type: "Convolution"
  bottom: "res4b_branch2b"
  top: "res4b_branch2c"
  convolution_param {
    num_output: 1024
    bias_term: false
    pad: 0
    kernel_size: 1
    stride: 1
  }
}
layer {
  name: "bn4b_branch2c"
  type: "BatchNorm"
  bottom: "res4b_branch2c"
  top: "res4b_branch2c"
  batch_norm_param {
    use_global_stats: true
  }
}
layer {
  name: "scale4b_branch2c"
  type: "Scale"
  bottom: "res4b_branch2c"
  top: "res4b_branch2c"
  scale_param {
    bias_term: true
  }
}
layer {
  name: "res4b"
  type: "Eltwise"
  bottom: "res4a"
  bottom: "res4b_branch2c"
  top: "res4b"
}
layer {
  name: "res4b_relu"
  type: "ReLU"
  bottom: "res4b"
  top: "res4b"
}
layer {
  name: "res4c_branch2a"
  type: "Convolution"
  bottom: "res4b"
  top: "res4c_branch2a"
  convolution_param {
    num_output: 256
    bias_term: false
    pad: 0
    kernel_size: 1
    stride: 1
  }
}
layer {
  name: "bn4c_branch2a"
  type: "BatchNorm"
  bottom: "res4c_branch2a"
  top: "res4c_branch2a"
  batch_norm_param {
    use_global_stats: true
  }
}
layer {
  name: "scale4c_branch2a"
  type: "Scale"
  bottom: "res4c_branch2a"
  top: "res4c_branch2a"
  scale_param {
    bias_term: true
  }
}
layer {
  name: "res4c_branch2a_relu"
  type: "ReLU"
  bottom: "res4c_branch2a"
  top: "res4c_branch2a"
}
layer {
  name: "res4c_branch2b"
  type: "Convolution"
  bottom: "res4c_branch2a"
  top: "res4c_branch2b"
  convolution_param {
    num_output: 256
    bias_term: false
    pad: 1
    kernel_size: 3
    stride: 1
  }
}
layer {
  name: "bn4c_branch2b"
  type: "BatchNorm"
  bottom: "res4c_branch2b"
  top: "res4c_branch2b"
  batch_norm_param {
    use_global_stats: true
  }
}
layer {
  name: "scale4c_branch2b"
  type: "Scale"
  bottom: "res4c_branch2b"
  top: "res4c_branch2b"
  scale_param {
    bias_term: true
  }
}
layer {
  name: "res4c_branch2b_relu"
  type: "ReLU"
  bottom: "res4c_branch2b"
  top: "res4c_branch2b"
}
layer {
  name: "res4c_branch2c"
  type: "Convolution"
  bottom: "res4c_branch2b"
  top: "res4c_branch2c"
  convolution_param {
    num_output: 1024
    bias_term: false
    pad: 0
    kernel_size: 1
    stride: 1
  }
}
layer {
  name: "bn4c_branch2c"
  type: "BatchNorm"
  bottom: "res4c_branch2c"
  top: "res4c_branch2c"
  batch_norm_param {
    use_global_stats: true
  }
}
layer {
  name: "scale4c_branch2c"
  type: "Scale"
  bottom: "res4c_branch2c"
  top: "res4c_branch2c"
  scale_param {
    bias_term: true
  }
}
layer {
  name: "res4c"
  type: "Eltwise"
  bottom: "res4b"
  bottom: "res4c_branch2c"
  top: "res4c"
}
layer {
  name: "res4c_relu"
  type: "ReLU"
  bottom: "res4c"
  top: "res4c"
}
layer {
  name: "res4d_branch2a"
  type: "Convolution"
  bottom: "res4c"
  top: "res4d_branch2a"
  convolution_param {
    num_output: 256
    bias_term: false
    pad: 0
    kernel_size: 1
    stride: 1
  }
}
layer {
  name: "bn4d_branch2a"
  type: "BatchNorm"
  bottom: "res4d_branch2a"
  top: "res4d_branch2a"
  batch_norm_param {
    use_global_stats: true
  }
}
layer {
  name: "scale4d_branch2a"
  type: "Scale"
  bottom: "res4d_branch2a"
  top: "res4d_branch2a"
  scale_param {
    bias_term: true
  }
}
layer {
  name: "res4d_branch2a_relu"
  type: "ReLU"
  bottom: "res4d_branch2a"
  top: "res4d_branch2a"
}
layer {
  name: "res4d_branch2b"
  type: "Convolution"
  bottom: "res4d_branch2a"
  top: "res4d_branch2b"
  convolution_param {
    num_output: 256
    bias_term: false
    pad: 1
    kernel_size: 3
    stride: 1
  }
}
layer {
  name: "bn4d_branch2b"
  type: "BatchNorm"
  bottom: "res4d_branch2b"
  top: "res4d_branch2b"
  batch_norm_param {
    use_global_stats: true
  }
}
layer {
  name: "scale4d_branch2b"
  type: "Scale"
  bottom: "res4d_branch2b"
  top: "res4d_branch2b"
  scale_param {
    bias_term: true
  }
}
layer {
  name: "res4d_branch2b_relu"
  type: "ReLU"
  bottom: "res4d_branch2b"
  top: "res4d_branch2b"
}
layer {
  name: "res4d_branch2c"
  type: "Convolution"
  bottom: "res4d_branch2b"
  top: "res4d_branch2c"
  convolution_param {
    num_output: 1024
    bias_term: false
    pad: 0
    kernel_size: 1
    stride: 1
  }
}
layer {
  name: "bn4d_branch2c"
  type: "BatchNorm"
  bottom: "res4d_branch2c"
  top: "res4d_branch2c"
  batch_norm_param {
    use_global_stats: true
  }
}
layer {
  name: "scale4d_branch2c"
  type: "Scale"
  bottom: "res4d_branch2c"
  top: "res4d_branch2c"
  scale_param {
    bias_term: true
  }
}
layer {
  name: "res4d"
  type: "Eltwise"
  bottom: "res4c"
  bottom: "res4d_branch2c"
  top: "res4d"
}
layer {
  name: "res4d_relu"
  type: "ReLU"
  bottom: "res4d"
  top: "res4d"
}
layer {
  name: "res4e_branch2a"
  type: "Convolution"
  bottom: "res4d"
  top: "res4e_branch2a"
  convolution_param {
    num_output: 256
    bias_term: false
    pad: 0
    kernel_size: 1
    stride: 1
  }
}
layer {
  name: "bn4e_branch2a"
  type: "BatchNorm"
  bottom: "res4e_branch2a"
  top: "res4e_branch2a"
  batch_norm_param {
    use_global_stats: true
  }
}
layer {
  name: "scale4e_branch2a"
  type: "Scale"
  bottom: "res4e_branch2a"
  top: "res4e_branch2a"
  scale_param {
    bias_term: true
  }
}
layer {
  name: "res4e_branch2a_relu"
  type: "ReLU"
  bottom: "res4e_branch2a"
  top: "res4e_branch2a"
}
layer {
  name: "res4e_branch2b"
  type: "Convolution"
  bottom: "res4e_branch2a"
  top: "res4e_branch2b"
  convolution_param {
    num_output: 256
    bias_term: false
    pad: 1
    kernel_size: 3
    stride: 1
  }
}
layer {
  name: "bn4e_branch2b"
  type: "BatchNorm"
  bottom: "res4e_branch2b"
  top: "res4e_branch2b"
  batch_norm_param {
    use_global_stats: true
  }
}
layer {
  name: "scale4e_branch2b"
  type: "Scale"
  bottom: "res4e_branch2b"
  top: "res4e_branch2b"
  scale_param {
    bias_term: true
  }
}
layer {
  name: "res4e_branch2b_relu"
  type: "ReLU"
  bottom: "res4e_branch2b"
  top: "res4e_branch2b"
}
layer {
  name: "res4e_branch2c"
  type: "Convolution"
  bottom: "res4e_branch2b"
  top: "res4e_branch2c"
  convolution_param {
    num_output: 1024
    bias_term: false
    pad: 0
    kernel_size: 1
    stride: 1
  }
}
layer {
  name: "bn4e_branch2c"
  type: "BatchNorm"
  bottom: "res4e_branch2c"
  top: "res4e_branch2c"
  batch_norm_param {
    use_global_stats: true
  }
}
layer {
  name: "scale4e_branch2c"
  type: "Scale"
  bottom: "res4e_branch2c"
  top: "res4e_branch2c"
  scale_param {
    bias_term: true
  }
}
layer {
  name: "res4e"
  type: "Eltwise"
  bottom: "res4d"
  bottom: "res4e_branch2c"
  top: "res4e"
}
layer {
  name: "res4e_relu"
  type: "ReLU"
  bottom: "res4e"
  top: "res4e"
}
layer {
  name: "res4f_branch2a"
  type: "Convolution"
  bottom: "res4e"
  top: "res4f_branch2a"
  convolution_param {
    num_output: 256
    bias_term: false
    pad: 0
    kernel_size: 1
    stride: 1
  }
}
layer {
  name: "bn4f_branch2a"
  type: "BatchNorm"
  bottom: "res4f_branch2a"
  top: "res4f_branch2a"
  batch_norm_param {
    use_global_stats: true
  }
}
layer {
  name: "scale4f_branch2a"
  type: "Scale"
  bottom: "res4f_branch2a"
  top: "res4f_branch2a"
  scale_param {
    bias_term: true
  }
}
layer {
  name: "res4f_branch2a_relu"
  type: "ReLU"
  bottom: "res4f_branch2a"
  top: "res4f_branch2a"
}
layer {
  name: "res4f_branch2b"
  type: "Convolution"
  bottom: "res4f_branch2a"
  top: "res4f_branch2b"
  convolution_param {
    num_output: 256
    bias_term: false
    pad: 1
    kernel_size: 3
    stride: 1
  }
}
layer {
  name: "bn4f_branch2b"
  type: "BatchNorm"
  bottom: "res4f_branch2b"
  top: "res4f_branch2b"
  batch_norm_param {
    use_global_stats: true
  }
}
layer {
  name: "scale4f_branch2b"
  type: "Scale"
  bottom: "res4f_branch2b"
  top: "res4f_branch2b"
  scale_param {
    bias_term: true
  }
}
layer {
  name: "res4f_branch2b_relu"
  type: "ReLU"
  bottom: "res4f_branch2b"
  top: "res4f_branch2b"
}
layer {
  name: "res4f_branch2c"
  type: "Convolution"
  bottom: "res4f_branch2b"
  top: "res4f_branch2c"
  convolution_param {
    num_output: 1024
    bias_term: false
    pad: 0
    kernel_size: 1
    stride: 1
  }
}
layer {
  name: "bn4f_branch2c"
  type: "BatchNorm"
  bottom: "res4f_branch2c"
  top: "res4f_branch2c"
  batch_norm_param {
    use_global_stats: true
  }
}
layer {
  name: "scale4f_branch2c"
  type: "Scale"
  bottom: "res4f_branch2c"
  top: "res4f_branch2c"
  scale_param {
    bias_term: true
  }
}
layer {
  name: "res4f"
  type: "Eltwise"
  bottom: "res4e"
  bottom: "res4f_branch2c"
  top: "res4f"
}
layer {
  name: "res4f_relu"
  type: "ReLU"
  bottom: "res4f"
  top: "res4f"
}
layer {
  name: "res5a_branch1"
  type: "Convolution"
  bottom: "res4f"
  top: "res5a_branch1"
  convolution_param {
    num_output: 2048
    bias_term: false
    pad: 0
    kernel_size: 1
    stride: 2
  }
}
layer {
  name: "bn5a_branch1"
  type: "BatchNorm"
  bottom: "res5a_branch1"
  top: "res5a_branch1"
  batch_norm_param {
    use_global_stats: true
  }
}
layer {
  name: "scale5a_branch1"
  type: "Scale"
  bottom: "res5a_branch1"
  top: "res5a_branch1"
  scale_param {
    bias_term: true
  }
}
layer {
  name: "res5a_branch2a"
  type: "Convolution"
  bottom: "res4f"
  top: "res5a_branch2a"
  convolution_param {
    num_output: 512
    bias_term: false
    pad: 0
    kernel_size: 1
    stride: 2
  }
}
layer {
  name: "bn5a_branch2a"
  type: "BatchNorm"
  bottom: "res5a_branch2a"
  top: "res5a_branch2a"
  batch_norm_param {
    use_global_stats: true
  }
}
layer {
  name: "scale5a_branch2a"
  type: "Scale"
  bottom: "res5a_branch2a"
  top: "res5a_branch2a"
  scale_param {
    bias_term: true
  }
}
layer {
  name: "res5a_branch2a_relu"
  type: "ReLU"
  bottom: "res5a_branch2a"
  top: "res5a_branch2a"
}
layer {
  name: "res5a_branch2b"
  type: "Convolution"
  bottom: "res5a_branch2a"
  top: "res5a_branch2b"
  convolution_param {
    num_output: 512
    bias_term: false
    pad: 1
    kernel_size: 3
    stride: 1
  }
}
layer {
  name: "bn5a_branch2b"
  type: "BatchNorm"
  bottom: "res5a_branch2b"
  top: "res5a_branch2b"
  batch_norm_param {
    use_global_stats: true
  }
}
layer {
  name: "scale5a_branch2b"
  type: "Scale"
  bottom: "res5a_branch2b"
  top: "res5a_branch2b"
  scale_param {
    bias_term: true
  }
}
layer {
  name: "res5a_branch2b_relu"
  type: "ReLU"
  bottom: "res5a_branch2b"
  top: "res5a
I0317 11:56:09.700503 17157 layer_factory.hpp:77] Creating layer data
I0317 11:56:09.701170 17157 net.cpp:106] Creating Layer data
I0317 11:56:09.701200 17157 net.cpp:411] data -> data
I0317 11:56:09.701378 17157 net.cpp:411] data -> id_label
I0317 11:56:09.701565 17157 data_transformer.cpp:25] Loading mean file from: /home/lizhuowan/Market1501/lmdb/lmdb_12936/Image_lmdb_12936.binaryproto
I0317 11:56:09.703404 17162 db_lmdb.cpp:38] Opened lmdb /home/lizhuowan/Market1501/lmdb/lmdb_mirror_12936/Image_lmdb_mirror_12936
I0317 11:56:09.730033 17157 data_layer.cpp:41] output data size: 16,3,224,224
I0317 11:56:09.760802 17157 net.cpp:150] Setting up data
I0317 11:56:09.760912 17157 net.cpp:157] Top shape: 16 3 224 224 (2408448)
I0317 11:56:09.760941 17157 net.cpp:157] Top shape: 16 (16)
I0317 11:56:09.760960 17157 net.cpp:165] Memory required for data: 9633856
I0317 11:56:09.760995 17157 layer_factory.hpp:77] Creating layer data_data_0_split
I0317 11:56:09.761039 17157 net.cpp:106] Creating Layer data_data_0_split
I0317 11:56:09.761065 17157 net.cpp:454] data_data_0_split <- data
I0317 11:56:09.761116 17157 net.cpp:411] data_data_0_split -> data_data_0_split_0
I0317 11:56:09.761153 17157 net.cpp:411] data_data_0_split -> data_data_0_split_1
I0317 11:56:09.761274 17157 net.cpp:150] Setting up data_data_0_split
I0317 11:56:09.761307 17157 net.cpp:157] Top shape: 16 3 224 224 (2408448)
I0317 11:56:09.761330 17157 net.cpp:157] Top shape: 16 3 224 224 (2408448)
I0317 11:56:09.761348 17157 net.cpp:165] Memory required for data: 28901440
I0317 11:56:09.761368 17157 layer_factory.hpp:77] Creating layer data
I0317 11:56:09.761534 17157 net.cpp:106] Creating Layer data
I0317 11:56:09.761571 17157 net.cpp:411] data -> labels
I0317 11:56:09.766984 17164 db_lmdb.cpp:38] Opened lmdb /home/lizhuowan/Market1501/lmdb/lmdb_mirror_12936/pos30_lmdb_mirror_12936_correct
I0317 11:56:09.767331 17157 data_layer.cpp:41] output data size: 16,30,1,1
I0317 11:56:09.769119 17157 net.cpp:150] Setting up data
I0317 11:56:09.769191 17157 net.cpp:157] Top shape: 16 30 1 1 (480)
I0317 11:56:09.769234 17157 net.cpp:165] Memory required for data: 28903360
I0317 11:56:09.769256 17157 layer_factory.hpp:77] Creating layer conv1
I0317 11:56:09.769318 17157 net.cpp:106] Creating Layer conv1
I0317 11:56:09.769341 17157 net.cpp:454] conv1 <- data_data_0_split_0
I0317 11:56:09.769368 17157 net.cpp:411] conv1 -> conv1
I0317 11:56:09.771071 17157 net.cpp:150] Setting up conv1
I0317 11:56:09.771118 17157 net.cpp:157] Top shape: 16 64 112 112 (12845056)
I0317 11:56:09.771138 17157 net.cpp:165] Memory required for data: 80283584
I0317 11:56:09.771190 17157 layer_factory.hpp:77] Creating layer bn_conv1
I0317 11:56:09.771234 17157 net.cpp:106] Creating Layer bn_conv1
I0317 11:56:09.771257 17157 net.cpp:454] bn_conv1 <- conv1
I0317 11:56:09.771282 17157 net.cpp:397] bn_conv1 -> conv1 (in-place)
I0317 11:56:09.771886 17157 net.cpp:150] Setting up bn_conv1
I0317 11:56:09.771926 17157 net.cpp:157] Top shape: 16 64 112 112 (12845056)
I0317 11:56:09.771947 17157 net.cpp:165] Memory required for data: 131663808
I0317 11:56:09.771998 17157 layer_factory.hpp:77] Creating layer scale_conv1
I0317 11:56:09.772074 17157 net.cpp:106] Creating Layer scale_conv1
I0317 11:56:09.772104 17157 net.cpp:454] scale_conv1 <- conv1
I0317 11:56:09.772130 17157 net.cpp:397] scale_conv1 -> conv1 (in-place)
I0317 11:56:09.772287 17157 layer_factory.hpp:77] Creating layer scale_conv1
I0317 11:56:09.772660 17157 net.cpp:150] Setting up scale_conv1
I0317 11:56:09.772701 17157 net.cpp:157] Top shape: 16 64 112 112 (12845056)
I0317 11:56:09.772720 17157 net.cpp:165] Memory required for data: 183044032
I0317 11:56:09.772758 17157 layer_factory.hpp:77] Creating layer conv1_relu
I0317 11:56:09.772797 17157 net.cpp:106] Creating Layer conv1_relu
I0317 11:56:09.772827 17157 net.cpp:454] conv1_relu <- conv1
I0317 11:56:09.772899 17157 net.cpp:397] conv1_relu -> conv1 (in-place)
I0317 11:56:09.772934 17157 net.cpp:150] Setting up conv1_relu
I0317 11:56:09.772967 17157 net.cpp:157] Top shape: 16 64 112 112 (12845056)
I0317 11:56:09.772995 17157 net.cpp:165] Memory required for data: 234424256
I0317 11:56:09.773020 17157 layer_factory.hpp:77] Creating layer pool1
I0317 11:56:09.773061 17157 net.cpp:106] Creating Layer pool1
I0317 11:56:09.773103 17157 net.cpp:454] pool1 <- conv1
I0317 11:56:09.773134 17157 net.cpp:411] pool1 -> pool1
I0317 11:56:09.773288 17157 net.cpp:150] Setting up pool1
I0317 11:56:09.773324 17157 net.cpp:157] Top shape: 16 64 56 56 (3211264)
I0317 11:56:09.773342 17157 net.cpp:165] Memory required for data: 247269312
I0317 11:56:09.773362 17157 layer_factory.hpp:77] Creating layer pool1_pool1_0_split
I0317 11:56:09.773399 17157 net.cpp:106] Creating Layer pool1_pool1_0_split
I0317 11:56:09.773444 17157 net.cpp:454] pool1_pool1_0_split <- pool1
I0317 11:56:09.773469 17157 net.cpp:411] pool1_pool1_0_split -> pool1_pool1_0_split_0
I0317 11:56:09.773546 17157 net.cpp:411] pool1_pool1_0_split -> pool1_pool1_0_split_1
I0317 11:56:09.773648 17157 net.cpp:150] Setting up pool1_pool1_0_split
I0317 11:56:09.773687 17157 net.cpp:157] Top shape: 16 64 56 56 (3211264)
I0317 11:56:09.773715 17157 net.cpp:157] Top shape: 16 64 56 56 (3211264)
I0317 11:56:09.773732 17157 net.cpp:165] Memory required for data: 272959424
I0317 11:56:09.773778 17157 layer_factory.hpp:77] Creating layer res2a_branch1
I0317 11:56:09.773813 17157 net.cpp:106] Creating Layer res2a_branch1
I0317 11:56:09.773835 17157 net.cpp:454] res2a_branch1 <- pool1_pool1_0_split_0
I0317 11:56:09.773892 17157 net.cpp:411] res2a_branch1 -> res2a_branch1
I0317 11:56:09.774303 17157 net.cpp:150] Setting up res2a_branch1
I0317 11:56:09.774340 17157 net.cpp:157] Top shape: 16 256 56 56 (12845056)
I0317 11:56:09.774358 17157 net.cpp:165] Memory required for data: 324339648
I0317 11:56:09.774382 17157 layer_factory.hpp:77] Creating layer bn2a_branch1
I0317 11:56:09.774413 17157 net.cpp:106] Creating Layer bn2a_branch1
I0317 11:56:09.774435 17157 net.cpp:454] bn2a_branch1 <- res2a_branch1
I0317 11:56:09.774471 17157 net.cpp:397] bn2a_branch1 -> res2a_branch1 (in-place)
I0317 11:56:09.775964 17157 net.cpp:150] Setting up bn2a_branch1
I0317 11:56:09.776007 17157 net.cpp:157] Top shape: 16 256 56 56 (12845056)
I0317 11:56:09.776027 17157 net.cpp:165] Memory required for data: 375719872
I0317 11:56:09.776065 17157 layer_factory.hpp:77] Creating layer scale2a_branch1
I0317 11:56:09.776094 17157 net.cpp:106] Creating Layer scale2a_branch1
I0317 11:56:09.776114 17157 net.cpp:454] scale2a_branch1 <- res2a_branch1
I0317 11:56:09.776137 17157 net.cpp:397] scale2a_branch1 -> res2a_branch1 (in-place)
I0317 11:56:09.776248 17157 layer_factory.hpp:77] Creating layer scale2a_branch1
I0317 11:56:09.776510 17157 net.cpp:150] Setting up scale2a_branch1
I0317 11:56:09.776545 17157 net.cpp:157] Top shape: 16 256 56 56 (12845056)
I0317 11:56:09.776563 17157 net.cpp:165] Memory required for data: 427100096
I0317 11:56:09.776589 17157 layer_factory.hpp:77] Creating layer res2a_branch2a
I0317 11:56:09.776648 17157 net.cpp:106] Creating Layer res2a_branch2a
I0317 11:56:09.776675 17157 net.cpp:454] res2a_branch2a <- pool1_pool1_0_split_1
I0317 11:56:09.776701 17157 net.cpp:411] res2a_branch2a -> res2a_branch2a
I0317 11:56:09.777093 17157 net.cpp:150] Setting up res2a_branch2a
I0317 11:56:09.777128 17157 net.cpp:157] Top shape: 16 64 56 56 (3211264)
I0317 11:56:09.777148 17157 net.cpp:165] Memory required for data: 439945152
I0317 11:56:09.777170 17157 layer_factory.hpp:77] Creating layer bn2a_branch2a
I0317 11:56:09.777195 17157 net.cpp:106] Creating Layer bn2a_branch2a
I0317 11:56:09.777215 17157 net.cpp:454] bn2a_branch2a <- res2a_branch2a
I0317 11:56:09.777245 17157 net.cpp:397] bn2a_branch2a -> res2a_branch2a (in-place)
I0317 11:56:09.777632 17157 net.cpp:150] Setting up bn2a_branch2a
I0317 11:56:09.777667 17157 net.cpp:157] Top shape: 16 64 56 56 (3211264)
I0317 11:56:09.777685 17157 net.cpp:165] Memory required for data: 452790208
I0317 11:56:09.777722 17157 layer_factory.hpp:77] Creating layer scale2a_branch2a
I0317 11:56:09.777750 17157 net.cpp:106] Creating Layer scale2a_branch2a
I0317 11:56:09.777770 17157 net.cpp:454] scale2a_branch2a <- res2a_branch2a
I0317 11:56:09.777798 17157 net.cpp:397] scale2a_branch2a -> res2a_branch2a (in-place)
I0317 11:56:09.777902 17157 layer_factory.hpp:77] Creating layer scale2a_branch2a
I0317 11:56:09.778175 17157 net.cpp:150] Setting up scale2a_branch2a
I0317 11:56:09.778209 17157 net.cpp:157] Top shape: 16 64 56 56 (3211264)
I0317 11:56:09.778228 17157 net.cpp:165] Memory required for data: 465635264
I0317 11:56:09.778254 17157 layer_factory.hpp:77] Creating layer res2a_branch2a_relu
I0317 11:56:09.778278 17157 net.cpp:106] Creating Layer res2a_branch2a_relu
I0317 11:56:09.778298 17157 net.cpp:454] res2a_branch2a_relu <- res2a_branch2a
I0317 11:56:09.778331 17157 net.cpp:397] res2a_branch2a_relu -> res2a_branch2a (in-place)
I0317 11:56:09.778359 17157 net.cpp:150] Setting up res2a_branch2a_relu
I0317 11:56:09.778383 17157 net.cpp:157] Top shape: 16 64 56 56 (3211264)
I0317 11:56:09.778400 17157 net.cpp:165] Memory required for data: 478480320
I0317 11:56:09.778419 17157 layer_factory.hpp:77] Creating layer res2a_branch2b
I0317 11:56:09.778455 17157 net.cpp:106] Creating Layer res2a_branch2b
I0317 11:56:09.778476 17157 net.cpp:454] res2a_branch2b <- res2a_branch2a
I0317 11:56:09.778501 17157 net.cpp:411] res2a_branch2b -> res2a_branch2b
I0317 11:56:09.779999 17157 net.cpp:150] Setting up res2a_branch2b
I0317 11:56:09.780041 17157 net.cpp:157] Top shape: 16 64 56 56 (3211264)
I0317 11:56:09.780061 17157 net.cpp:165] Memory required for data: 491325376
I0317 11:56:09.780084 17157 layer_factory.hpp:77] Creating layer bn2a_branch2b
I0317 11:56:09.780109 17157 net.cpp:106] Creating Layer bn2a_branch2b
I0317 11:56:09.780129 17157 net.cpp:454] bn2a_branch2b <- res2a_branch2b
I0317 11:56:09.780153 17157 net.cpp:397] bn2a_branch2b -> res2a_branch2b (in-place)
I0317 11:56:09.780560 17157 net.cpp:150] Setting up bn2a_branch2b
I0317 11:56:09.780593 17157 net.cpp:157] Top shape: 16 64 56 56 (3211264)
I0317 11:56:09.780652 17157 net.cpp:165] Memory required for data: 504170432
I0317 11:56:09.780705 17157 layer_factory.hpp:77] Creating layer scale2a_branch2b
I0317 11:56:09.780735 17157 net.cpp:106] Creating Layer scale2a_branch2b
I0317 11:56:09.780755 17157 net.cpp:454] scale2a_branch2b <- res2a_branch2b
I0317 11:56:09.780777 17157 net.cpp:397] scale2a_branch2b -> res2a_branch2b (in-place)
I0317 11:56:09.780887 17157 layer_factory.hpp:77] Creating layer scale2a_branch2b
I0317 11:56:09.781179 17157 net.cpp:150] Setting up scale2a_branch2b
I0317 11:56:09.781214 17157 net.cpp:157] Top shape: 16 64 56 56 (3211264)
I0317 11:56:09.781232 17157 net.cpp:165] Memory required for data: 517015488
I0317 11:56:09.781260 17157 layer_factory.hpp:77] Creating layer res2a_branch2b_relu
I0317 11:56:09.781289 17157 net.cpp:106] Creating Layer res2a_branch2b_relu
I0317 11:56:09.781311 17157 net.cpp:454] res2a_branch2b_relu <- res2a_branch2b
I0317 11:56:09.781333 17157 net.cpp:397] res2a_branch2b_relu -> res2a_branch2b (in-place)
I0317 11:56:09.781358 17157 net.cpp:150] Setting up res2a_branch2b_relu
I0317 11:56:09.781381 17157 net.cpp:157] Top shape: 16 64 56 56 (3211264)
I0317 11:56:09.781399 17157 net.cpp:165] Memory required for data: 529860544
I0317 11:56:09.781417 17157 layer_factory.hpp:77] Creating layer res2a_branch2c
I0317 11:56:09.781450 17157 net.cpp:106] Creating Layer res2a_branch2c
I0317 11:56:09.781469 17157 net.cpp:454] res2a_branch2c <- res2a_branch2b
I0317 11:56:09.781493 17157 net.cpp:411] res2a_branch2c -> res2a_branch2c
I0317 11:56:09.781890 17157 net.cpp:150] Setting up res2a_branch2c
I0317 11:56:09.781927 17157 net.cpp:157] Top shape: 16 256 56 56 (12845056)
I0317 11:56:09.781945 17157 net.cpp:165] Memory required for data: 581240768
I0317 11:56:09.781968 17157 layer_factory.hpp:77] Creating layer bn2a_branch2c
I0317 11:56:09.782001 17157 net.cpp:106] Creating Layer bn2a_branch2c
I0317 11:56:09.782022 17157 net.cpp:454] bn2a_branch2c <- res2a_branch2c
I0317 11:56:09.782045 17157 net.cpp:397] bn2a_branch2c -> res2a_branch2c (in-place)
I0317 11:56:09.782456 17157 net.cpp:150] Setting up bn2a_branch2c
I0317 11:56:09.782492 17157 net.cpp:157] Top shape: 16 256 56 56 (12845056)
I0317 11:56:09.782511 17157 net.cpp:165] Memory required for data: 632620992
I0317 11:56:09.782542 17157 layer_factory.hpp:77] Creating layer scale2a_branch2c
I0317 11:56:09.782568 17157 net.cpp:106] Creating Layer scale2a_branch2c
I0317 11:56:09.782588 17157 net.cpp:454] scale2a_branch2c <- res2a_branch2c
I0317 11:56:09.782621 17157 net.cpp:397] scale2a_branch2c -> res2a_branch2c (in-place)
I0317 11:56:09.782723 17157 layer_factory.hpp:77] Creating layer scale2a_branch2c
I0317 11:56:09.782986 17157 net.cpp:150] Setting up scale2a_branch2c
I0317 11:56:09.783020 17157 net.cpp:157] Top shape: 16 256 56 56 (12845056)
I0317 11:56:09.783038 17157 net.cpp:165] Memory required for data: 684001216
I0317 11:56:09.783064 17157 layer_factory.hpp:77] Creating layer res2a
I0317 11:56:09.783097 17157 net.cpp:106] Creating Layer res2a
I0317 11:56:09.783118 17157 net.cpp:454] res2a <- res2a_branch1
I0317 11:56:09.783139 17157 net.cpp:454] res2a <- res2a_branch2c
I0317 11:56:09.783162 17157 net.cpp:411] res2a -> res2a
I0317 11:56:09.783247 17157 net.cpp:150] Setting up res2a
I0317 11:56:09.783278 17157 net.cpp:157] Top shape: 16 256 56 56 (12845056)
I0317 11:56:09.783296 17157 net.cpp:165] Memory required for data: 735381440
I0317 11:56:09.783315 17157 layer_factory.hpp:77] Creating layer res2a_relu
I0317 11:56:09.783344 17157 net.cpp:106] Creating Layer res2a_relu
I0317 11:56:09.783365 17157 net.cpp:454] res2a_relu <- res2a
I0317 11:56:09.783387 17157 net.cpp:397] res2a_relu -> res2a (in-place)
I0317 11:56:09.783412 17157 net.cpp:150] Setting up res2a_relu
I0317 11:56:09.783434 17157 net.cpp:157] Top shape: 16 256 56 56 (12845056)
I0317 11:56:09.783452 17157 net.cpp:165] Memory required for data: 786761664
I0317 11:56:09.783470 17157 layer_factory.hpp:77] Creating layer res2a_res2a_relu_0_split
I0317 11:56:09.783493 17157 net.cpp:106] Creating Layer res2a_res2a_relu_0_split
I0317 11:56:09.783524 17157 net.cpp:454] res2a_res2a_relu_0_split <- res2a
I0317 11:56:09.783570 17157 net.cpp:411] res2a_res2a_relu_0_split -> res2a_res2a_relu_0_split_0
I0317 11:56:09.783597 17157 net.cpp:411] res2a_res2a_relu_0_split -> res2a_res2a_relu_0_split_1
I0317 11:56:09.783684 17157 net.cpp:150] Setting up res2a_res2a_relu_0_split
I0317 11:56:09.783715 17157 net.cpp:157] Top shape: 16 256 56 56 (12845056)
I0317 11:56:09.783736 17157 net.cpp:157] Top shape: 16 256 56 56 (12845056)
I0317 11:56:09.783753 17157 net.cpp:165] Memory required for data: 889522112
I0317 11:56:09.783771 17157 layer_factory.hpp:77] Creating layer res2b_branch2a
I0317 11:56:09.783804 17157 net.cpp:106] Creating Layer res2b_branch2a
I0317 11:56:09.783826 17157 net.cpp:454] res2b_branch2a <- res2a_res2a_relu_0_split_0
I0317 11:56:09.783850 17157 net.cpp:411] res2b_branch2a -> res2b_branch2a
I0317 11:56:09.784256 17157 net.cpp:150] Setting up res2b_branch2a
I0317 11:56:09.784294 17157 net.cpp:157] Top shape: 16 64 56 56 (3211264)
I0317 11:56:09.784312 17157 net.cpp:165] Memory required for data: 902367168
I0317 11:56:09.784335 17157 layer_factory.hpp:77] Creating layer bn2b_branch2a
I0317 11:56:09.784360 17157 net.cpp:106] Creating Layer bn2b_branch2a
I0317 11:56:09.784380 17157 net.cpp:454] bn2b_branch2a <- res2b_branch2a
I0317 11:56:09.784404 17157 net.cpp:397] bn2b_branch2a -> res2b_branch2a (in-place)
I0317 11:56:09.784821 17157 net.cpp:150] Setting up bn2b_branch2a
I0317 11:56:09.784857 17157 net.cpp:157] Top shape: 16 64 56 56 (3211264)
I0317 11:56:09.784875 17157 net.cpp:165] Memory required for data: 915212224
I0317 11:56:09.784915 17157 layer_factory.hpp:77] Creating layer scale2b_branch2a
I0317 11:56:09.784950 17157 net.cpp:106] Creating Layer scale2b_branch2a
I0317 11:56:09.784972 17157 net.cpp:454] scale2b_branch2a <- res2b_branch2a
I0317 11:56:09.784996 17157 net.cpp:397] scale2b_branch2a -> res2b_branch2a (in-place)
I0317 11:56:09.785114 17157 layer_factory.hpp:77] Creating layer scale2b_branch2a
I0317 11:56:09.785401 17157 net.cpp:150] Setting up scale2b_branch2a
I0317 11:56:09.785435 17157 net.cpp:157] Top shape: 16 64 56 56 (3211264)
I0317 11:56:09.785454 17157 net.cpp:165] Memory required for data: 928057280
I0317 11:56:09.785480 17157 layer_factory.hpp:77] Creating layer res2b_branch2a_relu
I0317 11:56:09.785509 17157 net.cpp:106] Creating Layer res2b_branch2a_relu
I0317 11:56:09.785531 17157 net.cpp:454] res2b_branch2a_relu <- res2b_branch2a
I0317 11:56:09.785553 17157 net.cpp:397] res2b_branch2a_relu -> res2b_branch2a (in-place)
I0317 11:56:09.785578 17157 net.cpp:150] Setting up res2b_branch2a_relu
I0317 11:56:09.785601 17157 net.cpp:157] Top shape: 16 64 56 56 (3211264)
I0317 11:56:09.785619 17157 net.cpp:165] Memory required for data: 940902336
I0317 11:56:09.785636 17157 layer_factory.hpp:77] Creating layer res2b_branch2b
I0317 11:56:09.785668 17157 net.cpp:106] Creating Layer res2b_branch2b
I0317 11:56:09.785689 17157 net.cpp:454] res2b_branch2b <- res2b_branch2a
I0317 11:56:09.785712 17157 net.cpp:411] res2b_branch2b -> res2b_branch2b
I0317 11:56:09.786144 17157 net.cpp:150] Setting up res2b_branch2b
I0317 11:56:09.786180 17157 net.cpp:157] Top shape: 16 64 56 56 (3211264)
I0317 11:56:09.786198 17157 net.cpp:165] Memory required for data: 953747392
I0317 11:56:09.786221 17157 layer_factory.hpp:77] Creating layer bn2b_branch2b
I0317 11:56:09.786252 17157 net.cpp:106] Creating Layer bn2b_branch2b
I0317 11:56:09.786273 17157 net.cpp:454] bn2b_branch2b <- res2b_branch2b
I0317 11:56:09.786295 17157 net.cpp:397] bn2b_branch2b -> res2b_branch2b (in-place)
I0317 11:56:09.786705 17157 net.cpp:150] Setting up bn2b_branch2b
I0317 11:56:09.786738 17157 net.cpp:157] Top shape: 16 64 56 56 (3211264)
I0317 11:56:09.786757 17157 net.cpp:165] Memory required for data: 966592448
I0317 11:56:09.786787 17157 layer_factory.hpp:77] Creating layer scale2b_branch2b
I0317 11:56:09.786828 17157 net.cpp:106] Creating Layer scale2b_branch2b
I0317 11:56:09.786851 17157 net.cpp:454] scale2b_branch2b <- res2b_branch2b
I0317 11:56:09.786875 17157 net.cpp:397] scale2b_branch2b -> res2b_branch2b (in-place)
I0317 11:56:09.787010 17157 layer_factory.hpp:77] Creating layer scale2b_branch2b
I0317 11:56:09.787292 17157 net.cpp:150] Setting up scale2b_branch2b
I0317 11:56:09.787328 17157 net.cpp:157] Top shape: 16 64 56 56 (3211264)
I0317 11:56:09.787345 17157 net.cpp:165] Memory required for data: 979437504
I0317 11:56:09.787371 17157 layer_factory.hpp:77] Creating layer res2b_branch2b_relu
I0317 11:56:09.787400 17157 net.cpp:106] Creating Layer res2b_branch2b_relu
I0317 11:56:09.787421 17157 net.cpp:454] res2b_branch2b_relu <- res2b_branch2b
I0317 11:56:09.787443 17157 net.cpp:397] res2b_branch2b_relu -> res2b_branch2b (in-place)
I0317 11:56:09.787474 17157 net.cpp:150] Setting up res2b_branch2b_relu
I0317 11:56:09.787498 17157 net.cpp:157] Top shape: 16 64 56 56 (3211264)
I0317 11:56:09.787516 17157 net.cpp:165] Memory required for data: 992282560
I0317 11:56:09.787534 17157 layer_factory.hpp:77] Creating layer res2b_branch2c
I0317 11:56:09.787560 17157 net.cpp:106] Creating Layer res2b_branch2c
I0317 11:56:09.787580 17157 net.cpp:454] res2b_branch2c <- res2b_branch2b
I0317 11:56:09.787603 17157 net.cpp:411] res2b_branch2c -> res2b_branch2c
I0317 11:56:09.788048 17157 net.cpp:150] Setting up res2b_branch2c
I0317 11:56:09.788085 17157 net.cpp:157] Top shape: 16 256 56 56 (12845056)
I0317 11:56:09.788105 17157 net.cpp:165] Memory required for data: 1043662784
I0317 11:56:09.788127 17157 layer_factory.hpp:77] Creating layer bn2b_branch2c
I0317 11:56:09.788158 17157 net.cpp:106] Creating Layer bn2b_branch2c
I0317 11:56:09.788180 17157 net.cpp:454] bn2b_branch2c <- res2b_branch2c
I0317 11:56:09.788204 17157 net.cpp:397] bn2b_branch2c -> res2b_branch2c (in-place)
I0317 11:56:09.788600 17157 net.cpp:150] Setting up bn2b_branch2c
I0317 11:56:09.788658 17157 net.cpp:157] Top shape: 16 256 56 56 (12845056)
I0317 11:56:09.788677 17157 net.cpp:165] Memory required for data: 1095043008
I0317 11:56:09.788707 17157 layer_factory.hpp:77] Creating layer scale2b_branch2c
I0317 11:56:09.788733 17157 net.cpp:106] Creating Layer scale2b_branch2c
I0317 11:56:09.788753 17157 net.cpp:454] scale2b_branch2c <- res2b_branch2c
I0317 11:56:09.788775 17157 net.cpp:397] scale2b_branch2c -> res2b_branch2c (in-place)
I0317 11:56:09.788882 17157 layer_factory.hpp:77] Creating layer scale2b_branch2c
I0317 11:56:09.789149 17157 net.cpp:150] Setting up scale2b_branch2c
I0317 11:56:09.789192 17157 net.cpp:157] Top shape: 16 256 56 56 (12845056)
I0317 11:56:09.789212 17157 net.cpp:165] Memory required for data: 1146423232
I0317 11:56:09.789238 17157 layer_factory.hpp:77] Creating layer res2b
I0317 11:56:09.789269 17157 net.cpp:106] Creating Layer res2b
I0317 11:56:09.789290 17157 net.cpp:454] res2b <- res2a_res2a_relu_0_split_1
I0317 11:56:09.789312 17157 net.cpp:454] res2b <- res2b_branch2c
I0317 11:56:09.789335 17157 net.cpp:411] res2b -> res2b
I0317 11:56:09.791304 17157 net.cpp:150] Setting up res2b
I0317 11:56:09.791340 17157 net.cpp:157] Top shape: 16 256 56 56 (12845056)
I0317 11:56:09.791358 17157 net.cpp:165] Memory required for data: 1197803456
I0317 11:56:09.791378 17157 layer_factory.hpp:77] Creating layer res2b_relu
I0317 11:56:09.791401 17157 net.cpp:106] Creating Layer res2b_relu
I0317 11:56:09.791420 17157 net.cpp:454] res2b_relu <- res2b
I0317 11:56:09.791448 17157 net.cpp:397] res2b_relu -> res2b (in-place)
I0317 11:56:09.791476 17157 net.cpp:150] Setting up res2b_relu
I0317 11:56:09.791498 17157 net.cpp:157] Top shape: 16 256 56 56 (12845056)
I0317 11:56:09.791517 17157 net.cpp:165] Memory required for data: 1249183680
I0317 11:56:09.791534 17157 layer_factory.hpp:77] Creating layer res2b_res2b_relu_0_split
I0317 11:56:09.791556 17157 net.cpp:106] Creating Layer res2b_res2b_relu_0_split
I0317 11:56:09.791574 17157 net.cpp:454] res2b_res2b_relu_0_split <- res2b
I0317 11:56:09.791596 17157 net.cpp:411] res2b_res2b_relu_0_split -> res2b_res2b_relu_0_split_0
I0317 11:56:09.791621 17157 net.cpp:411] res2b_res2b_relu_0_split -> res2b_res2b_relu_0_split_1
I0317 11:56:09.791721 17157 net.cpp:150] Setting up res2b_res2b_relu_0_split
I0317 11:56:09.791764 17157 net.cpp:157] Top shape: 16 256 56 56 (12845056)
I0317 11:56:09.791805 17157 net.cpp:157] Top shape: 16 256 56 56 (12845056)
I0317 11:56:09.791823 17157 net.cpp:165] Memory required for data: 1351944128
I0317 11:56:09.791841 17157 layer_factory.hpp:77] Creating layer res2c_branch2a
I0317 11:56:09.791874 17157 net.cpp:106] Creating Layer res2c_branch2a
I0317 11:56:09.791895 17157 net.cpp:454] res2c_branch2a <- res2b_res2b_relu_0_split_0
I0317 11:56:09.791919 17157 net.cpp:411] res2c_branch2a -> res2c_branch2a
I0317 11:56:09.792335 17157 net.cpp:150] Setting up res2c_branch2a
I0317 11:56:09.792371 17157 net.cpp:157] Top shape: 16 64 56 56 (3211264)
I0317 11:56:09.792389 17157 net.cpp:165] Memory required for data: 1364789184
I0317 11:56:09.792412 17157 layer_factory.hpp:77] Creating layer bn2c_branch2a
I0317 11:56:09.792438 17157 net.cpp:106] Creating Layer bn2c_branch2a
I0317 11:56:09.792457 17157 net.cpp:454] bn2c_branch2a <- res2c_branch2a
I0317 11:56:09.792479 17157 net.cpp:397] bn2c_branch2a -> res2c_branch2a (in-place)
I0317 11:56:09.792912 17157 net.cpp:150] Setting up bn2c_branch2a
I0317 11:56:09.792958 17157 net.cpp:157] Top shape: 16 64 56 56 (3211264)
I0317 11:56:09.792984 17157 net.cpp:165] Memory required for data: 1377634240
I0317 11:56:09.793020 17157 layer_factory.hpp:77] Creating layer scale2c_branch2a
I0317 11:56:09.793045 17157 net.cpp:106] Creating Layer scale2c_branch2a
I0317 11:56:09.793064 17157 net.cpp:454] scale2c_branch2a <- res2c_branch2a
I0317 11:56:09.793087 17157 net.cpp:397] scale2c_branch2a -> res2c_branch2a (in-place)
I0317 11:56:09.793195 17157 layer_factory.hpp:77] Creating layer scale2c_branch2a
I0317 11:56:09.793474 17157 net.cpp:150] Setting up scale2c_branch2a
I0317 11:56:09.793509 17157 net.cpp:157] Top shape: 16 64 56 56 (3211264)
I0317 11:56:09.793526 17157 net.cpp:165] Memory required for data: 1390479296
I0317 11:56:09.793552 17157 layer_factory.hpp:77] Creating layer res2c_branch2a_relu
I0317 11:56:09.793576 17157 net.cpp:106] Creating Layer res2c_branch2a_relu
I0317 11:56:09.793596 17157 net.cpp:454] res2c_branch2a_relu <- res2c_branch2a
I0317 11:56:09.793625 17157 net.cpp:397] res2c_branch2a_relu -> res2c_branch2a (in-place)
I0317 11:56:09.793653 17157 net.cpp:150] Setting up res2c_branch2a_relu
I0317 11:56:09.793675 17157 net.cpp:157] Top shape: 16 64 56 56 (3211264)
I0317 11:56:09.793694 17157 net.cpp:165] Memory required for data: 1403324352
I0317 11:56:09.793711 17157 layer_factory.hpp:77] Creating layer res2c_branch2b
I0317 11:56:09.793737 17157 net.cpp:106] Creating Layer res2c_branch2b
I0317 11:56:09.793756 17157 net.cpp:454] res2c_branch2b <- res2c_branch2a
I0317 11:56:09.793787 17157 net.cpp:411] res2c_branch2b -> res2c_branch2b
I0317 11:56:09.794217 17157 net.cpp:150] Setting up res2c_branch2b
I0317 11:56:09.794255 17157 net.cpp:157] Top shape: 16 64 56 56 (3211264)
I0317 11:56:09.794273 17157 net.cpp:165] Memory required for data: 1416169408
I0317 11:56:09.794296 17157 layer_factory.hpp:77] Creating layer bn2c_branch2b
I0317 11:56:09.794327 17157 net.cpp:106] Creating Layer bn2c_branch2b
I0317 11:56:09.794348 17157 net.cpp:454] bn2c_branch2b <- res2c_branch2b
I0317 11:56:09.794370 17157 net.cpp:397] bn2c_branch2b -> res2c_branch2b (in-place)
I0317 11:56:09.794780 17157 net.cpp:150] Setting up bn2c_branch2b
I0317 11:56:09.794812 17157 net.cpp:157] Top shape: 16 64 56 56 (3211264)
I0317 11:56:09.794831 17157 net.cpp:165] Memory required for data: 1429014464
I0317 11:56:09.794859 17157 layer_factory.hpp:77] Creating layer scale2c_branch2b
I0317 11:56:09.794896 17157 net.cpp:106] Creating Layer scale2c_branch2b
I0317 11:56:09.794919 17157 net.cpp:454] scale2c_branch2b <- res2c_branch2b
I0317 11:56:09.794941 17157 net.cpp:397] scale2c_branch2b -> res2c_branch2b (in-place)
I0317 11:56:09.795047 17157 layer_factory.hpp:77] Creating layer scale2c_branch2b
I0317 11:56:09.795323 17157 net.cpp:150] Setting up scale2c_branch2b
I0317 11:56:09.795357 17157 net.cpp:157] Top shape: 16 64 56 56 (3211264)
I0317 11:56:09.795387 17157 net.cpp:165] Memory required for data: 1441859520
I0317 11:56:09.795433 17157 layer_factory.hpp:77] Creating layer res2c_branch2b_relu
I0317 11:56:09.795465 17157 net.cpp:106] Creating Layer res2c_branch2b_relu
I0317 11:56:09.795486 17157 net.cpp:454] res2c_branch2b_relu <- res2c_branch2b
I0317 11:56:09.795509 17157 net.cpp:397] res2c_branch2b_relu -> res2c_branch2b (in-place)
I0317 11:56:09.795541 17157 net.cpp:150] Setting up res2c_branch2b_relu
I0317 11:56:09.795563 17157 net.cpp:157] Top shape: 16 64 56 56 (3211264)
I0317 11:56:09.795581 17157 net.cpp:165] Memory required for data: 1454704576
I0317 11:56:09.795599 17157 layer_factory.hpp:77] Creating layer res2c_branch2c
I0317 11:56:09.795625 17157 net.cpp:106] Creating Layer res2c_branch2c
I0317 11:56:09.795644 17157 net.cpp:454] res2c_branch2c <- res2c_branch2b
I0317 11:56:09.795668 17157 net.cpp:411] res2c_branch2c -> res2c_branch2c
I0317 11:56:09.796085 17157 net.cpp:150] Setting up res2c_branch2c
I0317 11:56:09.796121 17157 net.cpp:157] Top shape: 16 256 56 56 (12845056)
I0317 11:56:09.796139 17157 net.cpp:165] Memory required for data: 1506084800
I0317 11:56:09.796162 17157 layer_factory.hpp:77] Creating layer bn2c_branch2c
I0317 11:56:09.796192 17157 net.cpp:106] Creating Layer bn2c_branch2c
I0317 11:56:09.796213 17157 net.cpp:454] bn2c_branch2c <- res2c_branch2c
I0317 11:56:09.796236 17157 net.cpp:397] bn2c_branch2c -> res2c_branch2c (in-place)
I0317 11:56:09.796646 17157 net.cpp:150] Setting up bn2c_branch2c
I0317 11:56:09.796682 17157 net.cpp:157] Top shape: 16 256 56 56 (12845056)
I0317 11:56:09.796700 17157 net.cpp:165] Memory required for data: 1557465024
I0317 11:56:09.796751 17157 layer_factory.hpp:77] Creating layer scale2c_branch2c
I0317 11:56:09.796779 17157 net.cpp:106] Creating Layer scale2c_branch2c
I0317 11:56:09.796799 17157 net.cpp:454] scale2c_branch2c <- res2c_branch2c
I0317 11:56:09.796823 17157 net.cpp:397] scale2c_branch2c -> res2c_branch2c (in-place)
I0317 11:56:09.796936 17157 layer_factory.hpp:77] Creating layer scale2c_branch2c
I0317 11:56:09.797207 17157 net.cpp:150] Setting up scale2c_branch2c
I0317 11:56:09.797246 17157 net.cpp:157] Top shape: 16 256 56 56 (12845056)
I0317 11:56:09.797264 17157 net.cpp:165] Memory required for data: 1608845248
I0317 11:56:09.797291 17157 layer_factory.hpp:77] Creating layer res2c
I0317 11:56:09.797315 17157 net.cpp:106] Creating Layer res2c
I0317 11:56:09.797335 17157 net.cpp:454] res2c <- res2b_res2b_relu_0_split_1
I0317 11:56:09.797355 17157 net.cpp:454] res2c <- res2c_branch2c
I0317 11:56:09.797384 17157 net.cpp:411] res2c -> res2c
I0317 11:56:09.797449 17157 net.cpp:150] Setting up res2c
I0317 11:56:09.797479 17157 net.cpp:157] Top shape: 16 256 56 56 (12845056)
I0317 11:56:09.797497 17157 net.cpp:165] Memory required for data: 1660225472
I0317 11:56:09.797515 17157 layer_factory.hpp:77] Creating layer res2c_relu
I0317 11:56:09.797544 17157 net.cpp:106] Creating Layer res2c_relu
I0317 11:56:09.797564 17157 net.cpp:454] res2c_relu <- res2c
I0317 11:56:09.797585 17157 net.cpp:397] res2c_relu -> res2c (in-place)
I0317 11:56:09.797610 17157 net.cpp:150] Setting up res2c_relu
I0317 11:56:09.797633 17157 net.cpp:157] Top shape: 16 256 56 56 (12845056)
I0317 11:56:09.797650 17157 net.cpp:165] Memory required for data: 1711605696
I0317 11:56:09.797668 17157 layer_factory.hpp:77] Creating layer res2c_res2c_relu_0_split
I0317 11:56:09.797690 17157 net.cpp:106] Creating Layer res2c_res2c_relu_0_split
I0317 11:56:09.797708 17157 net.cpp:454] res2c_res2c_relu_0_split <- res2c
I0317 11:56:09.797730 17157 net.cpp:411] res2c_res2c_relu_0_split -> res2c_res2c_relu_0_split_0
I0317 11:56:09.797755 17157 net.cpp:411] res2c_res2c_relu_0_split -> res2c_res2c_relu_0_split_1
I0317 11:56:09.797847 17157 net.cpp:150] Setting up res2c_res2c_relu_0_split
I0317 11:56:09.797878 17157 net.cpp:157] Top shape: 16 256 56 56 (12845056)
I0317 11:56:09.797899 17157 net.cpp:157] Top shape: 16 256 56 56 (12845056)
I0317 11:56:09.797915 17157 net.cpp:165] Memory required for data: 1814366144
I0317 11:56:09.797933 17157 layer_factory.hpp:77] Creating layer res3a_branch1
I0317 11:56:09.797986 17157 net.cpp:106] Creating Layer res3a_branch1
I0317 11:56:09.798009 17157 net.cpp:454] res3a_branch1 <- res2c_res2c_relu_0_split_0
I0317 11:56:09.798039 17157 net.cpp:411] res3a_branch1 -> res3a_branch1
I0317 11:56:09.799727 17157 net.cpp:150] Setting up res3a_branch1
I0317 11:56:09.799770 17157 net.cpp:157] Top shape: 16 512 28 28 (6422528)
I0317 11:56:09.799789 17157 net.cpp:165] Memory required for data: 1840056256
I0317 11:56:09.799826 17157 layer_factory.hpp:77] Creating layer bn3a_branch1
I0317 11:56:09.799854 17157 net.cpp:106] Creating Layer bn3a_branch1
I0317 11:56:09.799875 17157 net.cpp:454] bn3a_branch1 <- res3a_branch1
I0317 11:56:09.799904 17157 net.cpp:397] bn3a_branch1 -> res3a_branch1 (in-place)
I0317 11:56:09.800320 17157 net.cpp:150] Setting up bn3a_branch1
I0317 11:56:09.800354 17157 net.cpp:157] Top shape: 16 512 28 28 (6422528)
I0317 11:56:09.800374 17157 net.cpp:165] Memory required for data: 1865746368
I0317 11:56:09.800403 17157 layer_factory.hpp:77] Creating layer scale3a_branch1
I0317 11:56:09.800429 17157 net.cpp:106] Creating Layer scale3a_branch1
I0317 11:56:09.800449 17157 net.cpp:454] scale3a_branch1 <- res3a_branch1
I0317 11:56:09.800472 17157 net.cpp:397] scale3a_branch1 -> res3a_branch1 (in-place)
I0317 11:56:09.800582 17157 layer_factory.hpp:77] Creating layer scale3a_branch1
I0317 11:56:09.800869 17157 net.cpp:150] Setting up scale3a_branch1
I0317 11:56:09.800906 17157 net.cpp:157] Top shape: 16 512 28 28 (6422528)
I0317 11:56:09.800925 17157 net.cpp:165] Memory required for data: 1891436480
I0317 11:56:09.800951 17157 layer_factory.hpp:77] Creating layer res3a_branch2a
I0317 11:56:09.800986 17157 net.cpp:106] Creating Layer res3a_branch2a
I0317 11:56:09.801008 17157 net.cpp:454] res3a_branch2a <- res2c_res2c_relu_0_split_1
I0317 11:56:09.801033 17157 net.cpp:411] res3a_branch2a -> res3a_branch2a
I0317 11:56:09.801482 17157 net.cpp:150] Setting up res3a_branch2a
I0317 11:56:09.801524 17157 net.cpp:157] Top shape: 16 128 28 28 (1605632)
I0317 11:56:09.801542 17157 net.cpp:165] Memory required for data: 1897859008
I0317 11:56:09.801565 17157 layer_factory.hpp:77] Creating layer bn3a_branch2a
I0317 11:56:09.801590 17157 net.cpp:106] Creating Layer bn3a_branch2a
I0317 11:56:09.801610 17157 net.cpp:454] bn3a_branch2a <- res3a_branch2a
I0317 11:56:09.801640 17157 net.cpp:397] bn3a_branch2a -> res3a_branch2a (in-place)
I0317 11:56:09.802031 17157 net.cpp:150] Setting up bn3a_branch2a
I0317 11:56:09.802065 17157 net.cpp:157] Top shape: 16 128 28 28 (1605632)
I0317 11:56:09.802083 17157 net.cpp:165] Memory required for data: 1904281536
I0317 11:56:09.802114 17157 layer_factory.hpp:77] Creating layer scale3a_branch2a
I0317 11:56:09.802139 17157 net.cpp:106] Creating Layer scale3a_branch2a
I0317 11:56:09.802157 17157 net.cpp:454] scale3a_branch2a <- res3a_branch2a
I0317 11:56:09.802181 17157 net.cpp:397] scale3a_branch2a -> res3a_branch2a (in-place)
I0317 11:56:09.802283 17157 layer_factory.hpp:77] Creating layer scale3a_branch2a
I0317 11:56:09.802546 17157 net.cpp:150] Setting up scale3a_branch2a
I0317 11:56:09.802579 17157 net.cpp:157] Top shape: 16 128 28 28 (1605632)
I0317 11:56:09.802597 17157 net.cpp:165] Memory required for data: 1910704064
I0317 11:56:09.802623 17157 layer_factory.hpp:77] Creating layer res3a_branch2a_relu
I0317 11:56:09.802646 17157 net.cpp:106] Creating Layer res3a_branch2a_relu
I0317 11:56:09.802691 17157 net.cpp:454] res3a_branch2a_relu <- res3a_branch2a
I0317 11:56:09.802721 17157 net.cpp:397] res3a_branch2a_relu -> res3a_branch2a (in-place)
I0317 11:56:09.802749 17157 net.cpp:150] Setting up res3a_branch2a_relu
I0317 11:56:09.802773 17157 net.cpp:157] Top shape: 16 128 28 28 (1605632)
I0317 11:56:09.802790 17157 net.cpp:165] Memory required for data: 1917126592
I0317 11:56:09.802809 17157 layer_factory.hpp:77] Creating layer res3a_branch2b
I0317 11:56:09.802835 17157 net.cpp:106] Creating Layer res3a_branch2b
I0317 11:56:09.802855 17157 net.cpp:454] res3a_branch2b <- res3a_branch2a
I0317 11:56:09.802902 17157 net.cpp:411] res3a_branch2b -> res3a_branch2b
I0317 11:56:09.804603 17157 net.cpp:150] Setting up res3a_branch2b
I0317 11:56:09.804664 17157 net.cpp:157] Top shape: 16 128 28 28 (1605632)
I0317 11:56:09.804684 17157 net.cpp:165] Memory required for data: 1923549120
I0317 11:56:09.804709 17157 layer_factory.hpp:77] Creating layer bn3a_branch2b
I0317 11:56:09.804735 17157 net.cpp:106] Creating Layer bn3a_branch2b
I0317 11:56:09.804755 17157 net.cpp:454] bn3a_branch2b <- res3a_branch2b
I0317 11:56:09.804778 17157 net.cpp:397] bn3a_branch2b -> res3a_branch2b (in-place)
I0317 11:56:09.805183 17157 net.cpp:150] Setting up bn3a_branch2b
I0317 11:56:09.805217 17157 net.cpp:157] Top shape: 16 128 28 28 (1605632)
I0317 11:56:09.805236 17157 net.cpp:165] Memory required for data: 1929971648
I0317 11:56:09.805272 17157 layer_factory.hpp:77] Creating layer scale3a_branch2b
I0317 11:56:09.805299 17157 net.cpp:106] Creating Layer scale3a_branch2b
I0317 11:56:09.805320 17157 net.cpp:454] scale3a_branch2b <- res3a_branch2b
I0317 11:56:09.805342 17157 net.cpp:397] scale3a_branch2b -> res3a_branch2b (in-place)
I0317 11:56:09.805447 17157 layer_factory.hpp:77] Creating layer scale3a_branch2b
I0317 11:56:09.805721 17157 net.cpp:150] Setting up scale3a_branch2b
I0317 11:56:09.805759 17157 net.cpp:157] Top shape: 16 128 28 28 (1605632)
I0317 11:56:09.805778 17157 net.cpp:165] Memory required for data: 1936394176
I0317 11:56:09.805804 17157 layer_factory.hpp:77] Creating layer res3a_branch2b_relu
I0317 11:56:09.805850 17157 net.cpp:106] Creating Layer res3a_branch2b_relu
I0317 11:56:09.805872 17157 net.cpp:454] res3a_branch2b_relu <- res3a_branch2b
I0317 11:56:09.805896 17157 net.cpp:397] res3a_branch2b_relu -> res3a_branch2b (in-place)
I0317 11:56:09.805923 17157 net.cpp:150] Setting up res3a_branch2b_relu
I0317 11:56:09.805946 17157 net.cpp:157] Top shape: 16 128 28 28 (1605632)
I0317 11:56:09.805963 17157 net.cpp:165] Memory required for data: 1942816704
I0317 11:56:09.805982 17157 layer_factory.hpp:77] Creating layer res3a_branch2c
I0317 11:56:09.806010 17157 net.cpp:106] Creating Layer res3a_branch2c
I0317 11:56:09.806028 17157 net.cpp:454] res3a_branch2c <- res3a_branch2b
I0317 11:56:09.806058 17157 net.cpp:411] res3a_branch2c -> res3a_branch2c
I0317 11:56:09.806572 17157 net.cpp:150] Setting up res3a_branch2c
I0317 11:56:09.806608 17157 net.cpp:157] Top shape: 16 512 28 28 (6422528)
I0317 11:56:09.806627 17157 net.cpp:165] Memory required for data: 1968506816
I0317 11:56:09.806650 17157 layer_factory.hpp:77] Creating layer bn3a_branch2c
I0317 11:56:09.806681 17157 net.cpp:106] Creating Layer bn3a_branch2c
I0317 11:56:09.806702 17157 net.cpp:454] bn3a_branch2c <- res3a_branch2c
I0317 11:56:09.806726 17157 net.cpp:397] bn3a_branch2c -> res3a_branch2c (in-place)
I0317 11:56:09.807121 17157 net.cpp:150] Setting up bn3a_branch2c
I0317 11:56:09.807154 17157 net.cpp:157] Top shape: 16 512 28 28 (6422528)
I0317 11:56:09.807178 17157 net.cpp:165] Memory required for data: 1994196928
I0317 11:56:09.807207 17157 layer_factory.hpp:77] Creating layer scale3a_branch2c
I0317 11:56:09.807234 17157 net.cpp:106] Creating Layer scale3a_branch2c
I0317 11:56:09.807252 17157 net.cpp:454] scale3a_branch2c <- res3a_branch2c
I0317 11:56:09.807281 17157 net.cpp:397] scale3a_branch2c -> res3a_branch2c (in-place)
I0317 11:56:09.807385 17157 layer_factory.hpp:77] Creating layer scale3a_branch2c
I0317 11:56:09.807641 17157 net.cpp:150] Setting up scale3a_branch2c
I0317 11:56:09.807675 17157 net.cpp:157] Top shape: 16 512 28 28 (6422528)
I0317 11:56:09.807693 17157 net.cpp:165] Memory required for data: 2019887040
I0317 11:56:09.807718 17157 layer_factory.hpp:77] Creating layer res3a
I0317 11:56:09.807744 17157 net.cpp:106] Creating Layer res3a
I0317 11:56:09.807765 17157 net.cpp:454] res3a <- res3a_branch1
I0317 11:56:09.807785 17157 net.cpp:454] res3a <- res3a_branch2c
I0317 11:56:09.807807 17157 net.cpp:411] res3a -> res3a
I0317 11:56:09.807889 17157 net.cpp:150] Setting up res3a
I0317 11:56:09.807922 17157 net.cpp:157] Top shape: 16 512 28 28 (6422528)
I0317 11:56:09.807952 17157 net.cpp:165] Memory required for data: 2045577152
I0317 11:56:09.807989 17157 layer_factory.hpp:77] Creating layer res3a_relu
I0317 11:56:09.808014 17157 net.cpp:106] Creating Layer res3a_relu
I0317 11:56:09.808034 17157 net.cpp:454] res3a_relu <- res3a
I0317 11:56:09.808056 17157 net.cpp:397] res3a_relu -> res3a (in-place)
I0317 11:56:09.808081 17157 net.cpp:150] Setting up res3a_relu
I0317 11:56:09.808104 17157 net.cpp:157] Top shape: 16 512 28 28 (6422528)
I0317 11:56:09.808122 17157 net.cpp:165] Memory required for data: 2071267264
I0317 11:56:09.808140 17157 layer_factory.hpp:77] Creating layer res3a_res3a_relu_0_split
I0317 11:56:09.808162 17157 net.cpp:106] Creating Layer res3a_res3a_relu_0_split
I0317 11:56:09.808181 17157 net.cpp:454] res3a_res3a_relu_0_split <- res3a
I0317 11:56:09.808208 17157 net.cpp:411] res3a_res3a_relu_0_split -> res3a_res3a_relu_0_split_0
I0317 11:56:09.808236 17157 net.cpp:411] res3a_res3a_relu_0_split -> res3a_res3a_relu_0_split_1
I0317 11:56:09.808338 17157 net.cpp:150] Setting up res3a_res3a_relu_0_split
I0317 11:56:09.808370 17157 net.cpp:157] Top shape: 16 512 28 28 (6422528)
I0317 11:56:09.808392 17157 net.cpp:157] Top shape: 16 512 28 28 (6422528)
I0317 11:56:09.808408 17157 net.cpp:165] Memory required for data: 2122647488
I0317 11:56:09.808426 17157 layer_factory.hpp:77] Creating layer res3b_branch2a
I0317 11:56:09.808454 17157 net.cpp:106] Creating Layer res3b_branch2a
I0317 11:56:09.808473 17157 net.cpp:454] res3b_branch2a <- res3a_res3a_relu_0_split_0
I0317 11:56:09.808497 17157 net.cpp:411] res3b_branch2a -> res3b_branch2a
I0317 11:56:09.810082 17157 net.cpp:150] Setting up res3b_branch2a
I0317 11:56:09.810127 17157 net.cpp:157] Top shape: 16 128 28 28 (1605632)
I0317 11:56:09.810147 17157 net.cpp:165] Memory required for data: 2129070016
I0317 11:56:09.810170 17157 layer_factory.hpp:77] Creating layer bn3b_branch2a
I0317 11:56:09.810202 17157 net.cpp:106] Creating Layer bn3b_branch2a
I0317 11:56:09.810225 17157 net.cpp:454] bn3b_branch2a <- res3b_branch2a
I0317 11:56:09.810248 17157 net.cpp:397] bn3b_branch2a -> res3b_branch2a (in-place)
I0317 11:56:09.810652 17157 net.cpp:150] Setting up bn3b_branch2a
I0317 11:56:09.810686 17157 net.cpp:157] Top shape: 16 128 28 28 (1605632)
I0317 11:56:09.810704 17157 net.cpp:165] Memory required for data: 2135492544
I0317 11:56:09.810734 17157 layer_factory.hpp:77] Creating layer scale3b_branch2a
I0317 11:56:09.810765 17157 net.cpp:106] Creating Layer scale3b_branch2a
I0317 11:56:09.810786 17157 net.cpp:454] scale3b_branch2a <- res3b_branch2a
I0317 11:56:09.810809 17157 net.cpp:397] scale3b_branch2a -> res3b_branch2a (in-place)
I0317 11:56:09.810915 17157 layer_factory.hpp:77] Creating layer scale3b_branch2a
I0317 11:56:09.811182 17157 net.cpp:150] Setting up scale3b_branch2a
I0317 11:56:09.811216 17157 net.cpp:157] Top shape: 16 128 28 28 (1605632)
I0317 11:56:09.811234 17157 net.cpp:165] Memory required for data: 2141915072
I0317 11:56:09.811260 17157 layer_factory.hpp:77] Creating layer res3b_branch2a_relu
I0317 11:56:09.811285 17157 net.cpp:106] Creating Layer res3b_branch2a_relu
I0317 11:56:09.811305 17157 net.cpp:454] res3b_branch2a_relu <- res3b_branch2a
I0317 11:56:09.811326 17157 net.cpp:397] res3b_branch2a_relu -> res3b_branch2a (in-place)
I0317 11:56:09.811352 17157 net.cpp:150] Setting up res3b_branch2a_relu
I0317 11:56:09.811375 17157 net.cpp:157] Top shape: 16 128 28 28 (1605632)
I0317 11:56:09.811396 17157 net.cpp:165] Memory required for data: 2148337600
I0317 11:56:09.811415 17157 layer_factory.hpp:77] Creating layer res3b_branch2b
I0317 11:56:09.811450 17157 net.cpp:106] Creating Layer res3b_branch2b
I0317 11:56:09.811470 17157 net.cpp:454] res3b_branch2b <- res3b_branch2a
I0317 11:56:09.811498 17157 net.cpp:411] res3b_branch2b -> res3b_branch2b
I0317 11:56:09.813196 17157 net.cpp:150] Setting up res3b_branch2b
I0317 11:56:09.813241 17157 net.cpp:157] Top shape: 16 128 28 28 (1605632)
I0317 11:56:09.813261 17157 net.cpp:165] Memory required for data: 2154760128
I0317 11:56:09.813285 17157 layer_factory.hpp:77] Creating layer bn3b_branch2b
I0317 11:56:09.813344 17157 net.cpp:106] Creating Layer bn3b_branch2b
I0317 11:56:09.813367 17157 net.cpp:454] bn3b_branch2b <- res3b_branch2b
I0317 11:56:09.813391 17157 net.cpp:397] bn3b_branch2b -> res3b_branch2b (in-place)
I0317 11:56:09.813802 17157 net.cpp:150] Setting up bn3b_branch2b
I0317 11:56:09.813837 17157 net.cpp:157] Top shape: 16 128 28 28 (1605632)
I0317 11:56:09.813854 17157 net.cpp:165] Memory required for data: 2161182656
I0317 11:56:09.813884 17157 layer_factory.hpp:77] Creating layer scale3b_branch2b
I0317 11:56:09.813910 17157 net.cpp:106] Creating Layer scale3b_branch2b
I0317 11:56:09.813930 17157 net.cpp:454] scale3b_branch2b <- res3b_branch2b
I0317 11:56:09.813966 17157 net.cpp:397] scale3b_branch2b -> res3b_branch2b (in-place)
I0317 11:56:09.814111 17157 layer_factory.hpp:77] Creating layer scale3b_branch2b
I0317 11:56:09.814395 17157 net.cpp:150] Setting up scale3b_branch2b
I0317 11:56:09.814436 17157 net.cpp:157] Top shape: 16 128 28 28 (1605632)
I0317 11:56:09.814456 17157 net.cpp:165] Memory required for data: 2167605184
I0317 11:56:09.814483 17157 layer_factory.hpp:77] Creating layer res3b_branch2b_relu
I0317 11:56:09.814507 17157 net.cpp:106] Creating Layer res3b_branch2b_relu
I0317 11:56:09.814527 17157 net.cpp:454] res3b_branch2b_relu <- res3b_branch2b
I0317 11:56:09.814549 17157 net.cpp:397] res3b_branch2b_relu -> res3b_branch2b (in-place)
I0317 11:56:09.814575 17157 net.cpp:150] Setting up res3b_branch2b_relu
I0317 11:56:09.814599 17157 net.cpp:157] Top shape: 16 128 28 28 (1605632)
I0317 11:56:09.814615 17157 net.cpp:165] Memory required for data: 2174027712
I0317 11:56:09.814633 17157 layer_factory.hpp:77] Creating layer res3b_branch2c
I0317 11:56:09.814666 17157 net.cpp:106] Creating Layer res3b_branch2c
I0317 11:56:09.814687 17157 net.cpp:454] res3b_branch2c <- res3b_branch2b
I0317 11:56:09.814713 17157 net.cpp:411] res3b_branch2c -> res3b_branch2c
I0317 11:56:09.815269 17157 net.cpp:150] Setting up res3b_branch2c
I0317 11:56:09.815307 17157 net.cpp:157] Top shape: 16 512 28 28 (6422528)
I0317 11:56:09.815326 17157 net.cpp:165] Memory required for data: 2199717824
I0317 11:56:09.815351 17157 layer_factory.hpp:77] Creating layer bn3b_branch2c
I0317 11:56:09.815376 17157 net.cpp:106] Creating Layer bn3b_branch2c
I0317 11:56:09.815397 17157 net.cpp:454] bn3b_branch2c <- res3b_branch2c
I0317 11:56:09.815419 17157 net.cpp:397] bn3b_branch2c -> res3b_branch2c (in-place)
I0317 11:56:09.817767 17157 net.cpp:150] Setting up bn3b_branch2c
I0317 11:56:09.817807 17157 net.cpp:157] Top shape: 16 512 28 28 (6422528)
I0317 11:56:09.817826 17157 net.cpp:165] Memory required for data: 2225407936
I0317 11:56:09.817857 17157 layer_factory.hpp:77] Creating layer scale3b_branch2c
I0317 11:56:09.817888 17157 net.cpp:106] Creating Layer scale3b_branch2c
I0317 11:56:09.817910 17157 net.cpp:454] scale3b_branch2c <- res3b_branch2c
I0317 11:56:09.817934 17157 net.cpp:397] scale3b_branch2c -> res3b_branch2c (in-place)
I0317 11:56:09.818048 17157 layer_factory.hpp:77] Creating layer scale3b_branch2c
I0317 11:56:09.818330 17157 net.cpp:150] Setting up scale3b_branch2c
I0317 11:56:09.818363 17157 net.cpp:157] Top shape: 16 512 28 28 (6422528)
I0317 11:56:09.818382 17157 net.cpp:165] Memory required for data: 2251098048
I0317 11:56:09.818408 17157 layer_factory.hpp:77] Creating layer res3b
I0317 11:56:09.818434 17157 net.cpp:106] Creating Layer res3b
I0317 11:56:09.818454 17157 net.cpp:454] res3b <- res3a_res3a_relu_0_split_1
I0317 11:56:09.818475 17157 net.cpp:454] res3b <- res3b_branch2c
I0317 11:56:09.818503 17157 net.cpp:411] res3b -> res3b
I0317 11:56:09.818572 17157 net.cpp:150] Setting up res3b
I0317 11:56:09.818609 17157 net.cpp:157] Top shape: 16 512 28 28 (6422528)
I0317 11:56:09.818629 17157 net.cpp:165] Memory required for data: 2276788160
I0317 11:56:09.818646 17157 layer_factory.hpp:77] Creating layer res3b_relu
I0317 11:56:09.818670 17157 net.cpp:106] Creating Layer res3b_relu
I0317 11:56:09.818688 17157 net.cpp:454] res3b_relu <- res3b
I0317 11:56:09.818724 17157 net.cpp:397] res3b_relu -> res3b (in-place)
I0317 11:56:09.818770 17157 net.cpp:150] Setting up res3b_relu
I0317 11:56:09.818795 17157 net.cpp:157] Top shape: 16 512 28 28 (6422528)
I0317 11:56:09.818812 17157 net.cpp:165] Memory required for data: 2302478272
I0317 11:56:09.818842 17157 layer_factory.hpp:77] Creating layer res3b_res3b_relu_0_split
I0317 11:56:09.818866 17157 net.cpp:106] Creating Layer res3b_res3b_relu_0_split
I0317 11:56:09.818886 17157 net.cpp:454] res3b_res3b_relu_0_split <- res3b
I0317 11:56:09.818914 17157 net.cpp:411] res3b_res3b_relu_0_split -> res3b_res3b_relu_0_split_0
I0317 11:56:09.818943 17157 net.cpp:411] res3b_res3b_relu_0_split -> res3b_res3b_relu_0_split_1
I0317 11:56:09.819038 17157 net.cpp:150] Setting up res3b_res3b_relu_0_split
I0317 11:56:09.819074 17157 net.cpp:157] Top shape: 16 512 28 28 (6422528)
I0317 11:56:09.819097 17157 net.cpp:157] Top shape: 16 512 28 28 (6422528)
I0317 11:56:09.819114 17157 net.cpp:165] Memory required for data: 2353858496
I0317 11:56:09.819133 17157 layer_factory.hpp:77] Creating layer res3c_branch2a
I0317 11:56:09.819159 17157 net.cpp:106] Creating Layer res3c_branch2a
I0317 11:56:09.819180 17157 net.cpp:454] res3c_branch2a <- res3b_res3b_relu_0_split_0
I0317 11:56:09.819203 17157 net.cpp:411] res3c_branch2a -> res3c_branch2a
I0317 11:56:09.819694 17157 net.cpp:150] Setting up res3c_branch2a
I0317 11:56:09.819730 17157 net.cpp:157] Top shape: 16 128 28 28 (1605632)
I0317 11:56:09.819749 17157 net.cpp:165] Memory required for data: 2360281024
I0317 11:56:09.819772 17157 layer_factory.hpp:77] Creating layer bn3c_branch2a
I0317 11:56:09.819797 17157 net.cpp:106] Creating Layer bn3c_branch2a
I0317 11:56:09.819818 17157 net.cpp:454] bn3c_branch2a <- res3c_branch2a
I0317 11:56:09.819845 17157 net.cpp:397] bn3c_branch2a -> res3c_branch2a (in-place)
I0317 11:56:09.820258 17157 net.cpp:150] Setting up bn3c_branch2a
I0317 11:56:09.820292 17157 net.cpp:157] Top shape: 16 128 28 28 (1605632)
I0317 11:56:09.820310 17157 net.cpp:165] Memory required for data: 2366703552
I0317 11:56:09.820340 17157 layer_factory.hpp:77] Creating layer scale3c_branch2a
I0317 11:56:09.820368 17157 net.cpp:106] Creating Layer scale3c_branch2a
I0317 11:56:09.820387 17157 net.cpp:454] scale3c_branch2a <- res3c_branch2a
I0317 11:56:09.820410 17157 net.cpp:397] scale3c_branch2a -> res3c_branch2a (in-place)
I0317 11:56:09.820525 17157 layer_factory.hpp:77] Creating layer scale3c_branch2a
I0317 11:56:09.820823 17157 net.cpp:150] Setting up scale3c_branch2a
I0317 11:56:09.820859 17157 net.cpp:157] Top shape: 16 128 28 28 (1605632)
I0317 11:56:09.820878 17157 net.cpp:165] Memory required for data: 2373126080
I0317 11:56:09.820904 17157 layer_factory.hpp:77] Creating layer res3c_branch2a_relu
I0317 11:56:09.820935 17157 net.cpp:106] Creating Layer res3c_branch2a_relu
I0317 11:56:09.820956 17157 net.cpp:454] res3c_branch2a_relu <- res3c_branch2a
I0317 11:56:09.820983 17157 net.cpp:397] res3c_branch2a_relu -> res3c_branch2a (in-place)
I0317 11:56:09.821010 17157 net.cpp:150] Setting up res3c_branch2a_relu
I0317 11:56:09.821033 17157 net.cpp:157] Top shape: 16 128 28 28 (1605632)
I0317 11:56:09.821051 17157 net.cpp:165] Memory required for data: 2379548608
I0317 11:56:09.821069 17157 layer_factory.hpp:77] Creating layer res3c_branch2b
I0317 11:56:09.821095 17157 net.cpp:106] Creating Layer res3c_branch2b
I0317 11:56:09.821115 17157 net.cpp:454] res3c_branch2b <- res3c_branch2a
I0317 11:56:09.821144 17157 net.cpp:411] res3c_branch2b -> res3c_branch2b
I0317 11:56:09.822868 17157 net.cpp:150] Setting up res3c_branch2b
I0317 11:56:09.822911 17157 net.cpp:157] Top shape: 16 128 28 28 (1605632)
I0317 11:56:09.822932 17157 net.cpp:165] Memory required for data: 2385971136
I0317 11:56:09.822955 17157 layer_factory.hpp:77] Creating layer bn3c_branch2b
I0317 11:56:09.822980 17157 net.cpp:106] Creating Layer bn3c_branch2b
I0317 11:56:09.823001 17157 net.cpp:454] bn3c_branch2b <- res3c_branch2b
I0317 11:56:09.823024 17157 net.cpp:397] bn3c_branch2b -> res3c_branch2b (in-place)
I0317 11:56:09.823456 17157 net.cpp:150] Setting up bn3c_branch2b
I0317 11:56:09.823508 17157 net.cpp:157] Top shape: 16 128 28 28 (1605632)
I0317 11:56:09.823529 17157 net.cpp:165] Memory required for data: 2392393664
I0317 11:56:09.823559 17157 layer_factory.hpp:77] Creating layer scale3c_branch2b
I0317 11:56:09.823593 17157 net.cpp:106] Creating Layer scale3c_branch2b
I0317 11:56:09.823614 17157 net.cpp:454] scale3c_branch2b <- res3c_branch2b
I0317 11:56:09.823638 17157 net.cpp:397] scale3c_branch2b -> res3c_branch2b (in-place)
I0317 11:56:09.823748 17157 layer_factory.hpp:77] Creating layer scale3c_branch2b
I0317 11:56:09.824019 17157 net.cpp:150] Setting up scale3c_branch2b
I0317 11:56:09.824053 17157 net.cpp:157] Top shape: 16 128 28 28 (1605632)
I0317 11:56:09.824070 17157 net.cpp:165] Memory required for data: 2398816192
I0317 11:56:09.824096 17157 layer_factory.hpp:77] Creating layer res3c_branch2b_relu
I0317 11:56:09.824126 17157 net.cpp:106] Creating Layer res3c_branch2b_relu
I0317 11:56:09.824147 17157 net.cpp:454] res3c_branch2b_relu <- res3c_branch2b
I0317 11:56:09.824170 17157 net.cpp:397] res3c_branch2b_relu -> res3c_branch2b (in-place)
I0317 11:56:09.824196 17157 net.cpp:150] Setting up res3c_branch2b_relu
I0317 11:56:09.824219 17157 net.cpp:157] Top shape: 16 128 28 28 (1605632)
I0317 11:56:09.824237 17157 net.cpp:165] Memory required for data: 2405238720
I0317 11:56:09.824255 17157 layer_factory.hpp:77] Creating layer res3c_branch2c
I0317 11:56:09.824288 17157 net.cpp:106] Creating Layer res3c_branch2c
I0317 11:56:09.824308 17157 net.cpp:454] res3c_branch2c <- res3c_branch2b
I0317 11:56:09.824333 17157 net.cpp:411] res3c_branch2c -> res3c_branch2c
I0317 11:56:09.824844 17157 net.cpp:150] Setting up res3c_branch2c
I0317 11:56:09.824883 17157 net.cpp:157] Top shape: 16 512 28 28 (6422528)
I0317 11:56:09.824901 17157 net.cpp:165] Memory required for data: 2430928832
I0317 11:56:09.824924 17157 layer_factory.hpp:77] Creating layer bn3c_branch2c
I0317 11:56:09.824949 17157 net.cpp:106] Creating Layer bn3c_branch2c
I0317 11:56:09.824970 17157 net.cpp:454] bn3c_branch2c <- res3c_branch2c
I0317 11:56:09.824991 17157 net.cpp:397] bn3c_branch2c -> res3c_branch2c (in-place)
I0317 11:56:09.825413 17157 net.cpp:150] Setting up bn3c_branch2c
I0317 11:56:09.825448 17157 net.cpp:157] Top shape: 16 512 28 28 (6422528)
I0317 11:56:09.825465 17157 net.cpp:165] Memory required for data: 2456618944
I0317 11:56:09.825501 17157 layer_factory.hpp:77] Creating layer scale3c_branch2c
I0317 11:56:09.825528 17157 net.cpp:106] Creating Layer scale3c_branch2c
I0317 11:56:09.825548 17157 net.cpp:454] scale3c_branch2c <- res3c_branch2c
I0317 11:56:09.825572 17157 net.cpp:397] scale3c_branch2c -> res3c_branch2c (in-place)
I0317 11:56:09.825685 17157 layer_factory.hpp:77] Creating layer scale3c_branch2c
I0317 11:56:09.825951 17157 net.cpp:150] Setting up scale3c_branch2c
I0317 11:56:09.825984 17157 net.cpp:157] Top shape: 16 512 28 28 (6422528)
I0317 11:56:09.826004 17157 net.cpp:165] Memory required for data: 2482309056
I0317 11:56:09.826028 17157 layer_factory.hpp:77] Creating layer res3c
I0317 11:56:09.826059 17157 net.cpp:106] Creating Layer res3c
I0317 11:56:09.826081 17157 net.cpp:454] res3c <- res3b_res3b_relu_0_split_1
I0317 11:56:09.826103 17157 net.cpp:454] res3c <- res3c_branch2c
I0317 11:56:09.826126 17157 net.cpp:411] res3c -> res3c
I0317 11:56:09.826205 17157 net.cpp:150] Setting up res3c
I0317 11:56:09.826236 17157 net.cpp:157] Top shape: 16 512 28 28 (6422528)
I0317 11:56:09.826253 17157 net.cpp:165] Memory required for data: 2507999168
I0317 11:56:09.826272 17157 layer_factory.hpp:77] Creating layer res3c_relu
I0317 11:56:09.826295 17157 net.cpp:106] Creating Layer res3c_relu
I0317 11:56:09.826314 17157 net.cpp:454] res3c_relu <- res3c
I0317 11:56:09.826342 17157 net.cpp:397] res3c_relu -> res3c (in-place)
I0317 11:56:09.826370 17157 net.cpp:150] Setting up res3c_relu
I0317 11:56:09.826393 17157 net.cpp:157] Top shape: 16 512 28 28 (6422528)
I0317 11:56:09.826411 17157 net.cpp:165] Memory required for data: 2533689280
I0317 11:56:09.826442 17157 layer_factory.hpp:77] Creating layer res3c_res3c_relu_0_split
I0317 11:56:09.826484 17157 net.cpp:106] Creating Layer res3c_res3c_relu_0_split
I0317 11:56:09.826505 17157 net.cpp:454] res3c_res3c_relu_0_split <- res3c
I0317 11:56:09.826529 17157 net.cpp:411] res3c_res3c_relu_0_split -> res3c_res3c_relu_0_split_0
I0317 11:56:09.826555 17157 net.cpp:411] res3c_res3c_relu_0_split -> res3c_res3c_relu_0_split_1
I0317 11:56:09.826650 17157 net.cpp:150] Setting up res3c_res3c_relu_0_split
I0317 11:56:09.826681 17157 net.cpp:157] Top shape: 16 512 28 28 (6422528)
I0317 11:56:09.826702 17157 net.cpp:157] Top shape: 16 512 28 28 (6422528)
I0317 11:56:09.826719 17157 net.cpp:165] Memory required for data: 2585069504
I0317 11:56:09.826737 17157 layer_factory.hpp:77] Creating layer res3d_branch2a
I0317 11:56:09.826764 17157 net.cpp:106] Creating Layer res3d_branch2a
I0317 11:56:09.826784 17157 net.cpp:454] res3d_branch2a <- res3c_res3c_relu_0_split_0
I0317 11:56:09.826813 17157 net.cpp:411] res3d_branch2a -> res3d_branch2a
I0317 11:56:09.828397 17157 net.cpp:150] Setting up res3d_branch2a
I0317 11:56:09.828439 17157 net.cpp:157] Top shape: 16 128 28 28 (1605632)
I0317 11:56:09.828459 17157 net.cpp:165] Memory required for data: 2591492032
I0317 11:56:09.828482 17157 layer_factory.hpp:77] Creating layer bn3d_branch2a
I0317 11:56:09.828507 17157 net.cpp:106] Creating Layer bn3d_branch2a
I0317 11:56:09.828528 17157 net.cpp:454] bn3d_branch2a <- res3d_branch2a
I0317 11:56:09.828552 17157 net.cpp:397] bn3d_branch2a -> res3d_branch2a (in-place)
I0317 11:56:09.829015 17157 net.cpp:150] Setting up bn3d_branch2a
I0317 11:56:09.829051 17157 net.cpp:157] Top shape: 16 128 28 28 (1605632)
I0317 11:56:09.829071 17157 net.cpp:165] Memory required for data: 2597914560
I0317 11:56:09.829147 17157 layer_factory.hpp:77] Creating layer scale3d_branch2a
I0317 11:56:09.829183 17157 net.cpp:106] Creating Layer scale3d_branch2a
I0317 11:56:09.829205 17157 net.cpp:454] scale3d_branch2a <- res3d_branch2a
I0317 11:56:09.829228 17157 net.cpp:397] scale3d_branch2a -> res3d_branch2a (in-place)
I0317 11:56:09.829344 17157 layer_factory.hpp:77] Creating layer scale3d_branch2a
I0317 11:56:09.829612 17157 net.cpp:150] Setting up scale3d_branch2a
I0317 11:56:09.829646 17157 net.cpp:157] Top shape: 16 128 28 28 (1605632)
I0317 11:56:09.829664 17157 net.cpp:165] Memory required for data: 2604337088
I0317 11:56:09.829689 17157 layer_factory.hpp:77] Creating layer res3d_branch2a_relu
I0317 11:56:09.829715 17157 net.cpp:106] Creating Layer res3d_branch2a_relu
I0317 11:56:09.829735 17157 net.cpp:454] res3d_branch2a_relu <- res3d_branch2a
I0317 11:56:09.829756 17157 net.cpp:397] res3d_branch2a_relu -> res3d_branch2a (in-place)
I0317 11:56:09.829782 17157 net.cpp:150] Setting up res3d_branch2a_relu
I0317 11:56:09.829805 17157 net.cpp:157] Top shape: 16 128 28 28 (1605632)
I0317 11:56:09.829823 17157 net.cpp:165] Memory required for data: 2610759616
I0317 11:56:09.829841 17157 layer_factory.hpp:77] Creating layer res3d_branch2b
I0317 11:56:09.829874 17157 net.cpp:106] Creating Layer res3d_branch2b
I0317 11:56:09.829895 17157 net.cpp:454] res3d_branch2b <- res3d_branch2a
I0317 11:56:09.829923 17157 net.cpp:411] res3d_branch2b -> res3d_branch2b
I0317 11:56:09.831660 17157 net.cpp:150] Setting up res3d_branch2b
I0317 11:56:09.831703 17157 net.cpp:157] Top shape: 16 128 28 28 (1605632)
I0317 11:56:09.831723 17157 net.cpp:165] Memory required for data: 2617182144
I0317 11:56:09.831748 17157 layer_factory.hpp:77] Creating layer bn3d_branch2b
I0317 11:56:09.831780 17157 net.cpp:106] Creating Layer bn3d_branch2b
I0317 11:56:09.831802 17157 net.cpp:454] bn3d_branch2b <- res3d_branch2b
I0317 11:56:09.831826 17157 net.cpp:397] bn3d_branch2b -> res3d_branch2b (in-place)
I0317 11:56:09.832255 17157 net.cpp:150] Setting up bn3d_branch2b
I0317 11:56:09.832290 17157 net.cpp:157] Top shape: 16 128 28 28 (1605632)
I0317 11:56:09.832309 17157 net.cpp:165] Memory required for data: 2623604672
I0317 11:56:09.832340 17157 layer_factory.hpp:77] Creating layer scale3d_branch2b
I0317 11:56:09.832379 17157 net.cpp:106] Creating Layer scale3d_branch2b
I0317 11:56:09.832422 17157 net.cpp:454] scale3d_branch2b <- res3d_branch2b
I0317 11:56:09.832453 17157 net.cpp:397] scale3d_branch2b -> res3d_branch2b (in-place)
I0317 11:56:09.832558 17157 layer_factory.hpp:77] Creating layer scale3d_branch2b
I0317 11:56:09.832864 17157 net.cpp:150] Setting up scale3d_branch2b
I0317 11:56:09.832906 17157 net.cpp:157] Top shape: 16 128 28 28 (1605632)
I0317 11:56:09.832926 17157 net.cpp:165] Memory required for data: 2630027200
I0317 11:56:09.832952 17157 layer_factory.hpp:77] Creating layer res3d_branch2b_relu
I0317 11:56:09.832978 17157 net.cpp:106] Creating Layer res3d_branch2b_relu
I0317 11:56:09.832998 17157 net.cpp:454] res3d_branch2b_relu <- res3d_branch2b
I0317 11:56:09.833020 17157 net.cpp:397] res3d_branch2b_relu -> res3d_branch2b (in-place)
I0317 11:56:09.833046 17157 net.cpp:150] Setting up res3d_branch2b_relu
I0317 11:56:09.833070 17157 net.cpp:157] Top shape: 16 128 28 28 (1605632)
I0317 11:56:09.833087 17157 net.cpp:165] Memory required for data: 2636449728
I0317 11:56:09.833106 17157 layer_factory.hpp:77] Creating layer res3d_branch2c
I0317 11:56:09.833138 17157 net.cpp:106] Creating Layer res3d_branch2c
I0317 11:56:09.833159 17157 net.cpp:454] res3d_branch2c <- res3d_branch2b
I0317 11:56:09.833184 17157 net.cpp:411] res3d_branch2c -> res3d_branch2c
I0317 11:56:09.833700 17157 net.cpp:150] Setting up res3d_branch2c
I0317 11:56:09.833739 17157 net.cpp:157] Top shape: 16 512 28 28 (6422528)
I0317 11:56:09.833756 17157 net.cpp:165] Memory required for data: 2662139840
I0317 11:56:09.833780 17157 layer_factory.hpp:77] Creating layer bn3d_branch2c
I0317 11:56:09.833804 17157 net.cpp:106] Creating Layer bn3d_branch2c
I0317 11:56:09.833824 17157 net.cpp:454] bn3d_branch2c <- res3d_branch2c
I0317 11:56:09.833847 17157 net.cpp:397] bn3d_branch2c -> res3d_branch2c (in-place)
I0317 11:56:09.834270 17157 net.cpp:150] Setting up bn3d_branch2c
I0317 11:56:09.834303 17157 net.cpp:157] Top shape: 16 512 28 28 (6422528)
I0317 11:56:09.834321 17157 net.cpp:165] Memory required for data: 2687829952
I0317 11:56:09.834352 17157 layer_factory.hpp:77] Creating layer scale3d_branch2c
I0317 11:56:09.834383 17157 net.cpp:106] Creating Layer scale3d_branch2c
I0317 11:56:09.834419 17157 net.cpp:454] scale3d_branch2c <- res3d_branch2c
I0317 11:56:09.834444 17157 net.cpp:397] scale3d_branch2c -> res3d_branch2c (in-place)
I0317 11:56:09.834563 17157 layer_factory.hpp:77] Creating layer scale3d_branch2c
I0317 11:56:09.834843 17157 net.cpp:150] Setting up scale3d_branch2c
I0317 11:56:09.834877 17157 net.cpp:157] Top shape: 16 512 28 28 (6422528)
I0317 11:56:09.834895 17157 net.cpp:165] Memory required for data: 2713520064
I0317 11:56:09.834921 17157 layer_factory.hpp:77] Creating layer res3d
I0317 11:56:09.834946 17157 net.cpp:106] Creating Layer res3d
I0317 11:56:09.834966 17157 net.cpp:454] res3d <- res3c_res3c_relu_0_split_1
I0317 11:56:09.834987 17157 net.cpp:454] res3d <- res3d_branch2c
I0317 11:56:09.835016 17157 net.cpp:411] res3d -> res3d
I0317 11:56:09.835084 17157 net.cpp:150] Setting up res3d
I0317 11:56:09.835127 17157 net.cpp:157] Top shape: 16 512 28 28 (6422528)
I0317 11:56:09.835146 17157 net.cpp:165] Memory required for data: 2739210176
I0317 11:56:09.835165 17157 layer_factory.hpp:77] Creating layer res3d_relu
I0317 11:56:09.835188 17157 net.cpp:106] Creating Layer res3d_relu
I0317 11:56:09.835207 17157 net.cpp:454] res3d_relu <- res3d
I0317 11:56:09.835229 17157 net.cpp:397] res3d_relu -> res3d (in-place)
I0317 11:56:09.835255 17157 net.cpp:150] Setting up res3d_relu
I0317 11:56:09.835278 17157 net.cpp:157] Top shape: 16 512 28 28 (6422528)
I0317 11:56:09.835295 17157 net.cpp:165] Memory required for data: 2764900288
I0317 11:56:09.835314 17157 layer_factory.hpp:77] Creating layer res3d_res3d_relu_0_split
I0317 11:56:09.835336 17157 net.cpp:106] Creating Layer res3d_res3d_relu_0_split
I0317 11:56:09.835355 17157 net.cpp:454] res3d_res3d_relu_0_split <- res3d
I0317 11:56:09.835384 17157 net.cpp:411] res3d_res3d_relu_0_split -> res3d_res3d_relu_0_split_0
I0317 11:56:09.835424 17157 net.cpp:411] res3d_res3d_relu_0_split -> res3d_res3d_relu_0_split_1
I0317 11:56:09.835535 17157 net.cpp:150] Setting up res3d_res3d_relu_0_split
I0317 11:56:09.835578 17157 net.cpp:157] Top shape: 16 512 28 28 (6422528)
I0317 11:56:09.835602 17157 net.cpp:157] Top shape: 16 512 28 28 (6422528)
I0317 11:56:09.835619 17157 net.cpp:165] Memory required for data: 2816280512
I0317 11:56:09.835638 17157 layer_factory.hpp:77] Creating layer res4a_branch1
I0317 11:56:09.835664 17157 net.cpp:106] Creating Layer res4a_branch1
I0317 11:56:09.835685 17157 net.cpp:454] res4a_branch1 <- res3d_res3d_relu_0_split_0
I0317 11:56:09.835710 17157 net.cpp:411] res4a_branch1 -> res4a_branch1
I0317 11:56:09.838801 17157 net.cpp:150] Setting up res4a_branch1
I0317 11:56:09.838847 17157 net.cpp:157] Top shape: 16 1024 14 14 (3211264)
I0317 11:56:09.838867 17157 net.cpp:165] Memory required for data: 2829125568
I0317 11:56:09.838896 17157 layer_factory.hpp:77] Creating layer bn4a_branch1
I0317 11:56:09.838928 17157 net.cpp:106] Creating Layer bn4a_branch1
I0317 11:56:09.838950 17157 net.cpp:454] bn4a_branch1 <- res4a_branch1
I0317 11:56:09.838975 17157 net.cpp:397] bn4a_branch1 -> res4a_branch1 (in-place)
I0317 11:56:09.839417 17157 net.cpp:150] Setting up bn4a_branch1
I0317 11:56:09.839452 17157 net.cpp:157] Top shape: 16 1024 14 14 (3211264)
I0317 11:56:09.839470 17157 net.cpp:165] Memory required for data: 2841970624
I0317 11:56:09.839500 17157 layer_factory.hpp:77] Creating layer scale4a_branch1
I0317 11:56:09.839537 17157 net.cpp:106] Creating Layer scale4a_branch1
I0317 11:56:09.839560 17157 net.cpp:454] scale4a_branch1 <- res4a_branch1
I0317 11:56:09.839582 17157 net.cpp:397] scale4a_branch1 -> res4a_branch1 (in-place)
I0317 11:56:09.839689 17157 layer_factory.hpp:77] Creating layer scale4a_branch1
I0317 11:56:09.839967 17157 net.cpp:150] Setting up scale4a_branch1
I0317 11:56:09.840000 17157 net.cpp:157] Top shape: 16 1024 14 14 (3211264)
I0317 11:56:09.840018 17157 net.cpp:165] Memory required for data: 2854815680
I0317 11:56:09.840045 17157 layer_factory.hpp:77] Creating layer res4a_branch2a
I0317 11:56:09.840080 17157 net.cpp:106] Creating Layer res4a_branch2a
I0317 11:56:09.840103 17157 net.cpp:454] res4a_branch2a <- res3d_res3d_relu_0_split_1
I0317 11:56:09.840128 17157 net.cpp:411] res4a_branch2a -> res4a_branch2a
I0317 11:56:09.840970 17157 net.cpp:150] Setting up res4a_branch2a
I0317 11:56:09.841009 17157 net.cpp:157] Top shape: 16 256 14 14 (802816)
I0317 11:56:09.841028 17157 net.cpp:165] Memory required for data: 2858026944
I0317 11:56:09.841051 17157 layer_factory.hpp:77] Creating layer bn4a_branch2a
I0317 11:56:09.841085 17157 net.cpp:106] Creating Layer bn4a_branch2a
I0317 11:56:09.841107 17157 net.cpp:454] bn4a_branch2a <- res4a_branch2a
I0317 11:56:09.841131 17157 net.cpp:397] bn4a_branch2a -> res4a_branch2a (in-place)
I0317 11:56:09.841536 17157 net.cpp:150] Setting up bn4a_branch2a
I0317 11:56:09.841569 17157 net.cpp:157] Top shape: 16 256 14 14 (802816)
I0317 11:56:09.841588 17157 net.cpp:165] Memory required for data: 2861238208
I0317 11:56:09.841617 17157 layer_factory.hpp:77] Creating layer scale4a_branch2a
I0317 11:56:09.841644 17157 net.cpp:106] Creating Layer scale4a_branch2a
I0317 11:56:09.841663 17157 net.cpp:454] scale4a_branch2a <- res4a_branch2a
I0317 11:56:09.841691 17157 net.cpp:397] scale4a_branch2a -> res4a_branch2a (in-place)
I0317 11:56:09.841795 17157 layer_factory.hpp:77] Creating layer scale4a_branch2a
I0317 11:56:09.842070 17157 net.cpp:150] Setting up scale4a_branch2a
I0317 11:56:09.842104 17157 net.cpp:157] Top shape: 16 256 14 14 (802816)
I0317 11:56:09.842123 17157 net.cpp:165] Memory required for data: 2864449472
I0317 11:56:09.842149 17157 layer_factory.hpp:77] Creating layer res4a_branch2a_relu
I0317 11:56:09.842173 17157 net.cpp:106] Creating Layer res4a_branch2a_relu
I0317 11:56:09.842192 17157 net.cpp:454] res4a_branch2a_relu <- res4a_branch2a
I0317 11:56:09.842214 17157 net.cpp:397] res4a_branch2a_relu -> res4a_branch2a (in-place)
I0317 11:56:09.842254 17157 net.cpp:150] Setting up res4a_branch2a_relu
I0317 11:56:09.842296 17157 net.cpp:157] Top shape: 16 256 14 14 (802816)
I0317 11:56:09.842315 17157 net.cpp:165] Memory required for data: 2867660736
I0317 11:56:09.842334 17157 layer_factory.hpp:77] Creating layer res4a_branch2b
I0317 11:56:09.842370 17157 net.cpp:106] Creating Layer res4a_branch2b
I0317 11:56:09.842391 17157 net.cpp:454] res4a_branch2b <- res4a_branch2a
I0317 11:56:09.842419 17157 net.cpp:411] res4a_branch2b -> res4a_branch2b
I0317 11:56:09.845737 17157 net.cpp:150] Setting up res4a_branch2b
I0317 11:56:09.845782 17157 net.cpp:157] Top shape: 16 256 14 14 (802816)
I0317 11:56:09.845801 17157 net.cpp:165] Memory required for data: 2870872000
I0317 11:56:09.845825 17157 layer_factory.hpp:77] Creating layer bn4a_branch2b
I0317 11:56:09.845852 17157 net.cpp:106] Creating Layer bn4a_branch2b
I0317 11:56:09.845871 17157 net.cpp:454] bn4a_branch2b <- res4a_branch2b
I0317 11:56:09.845901 17157 net.cpp:397] bn4a_branch2b -> res4a_branch2b (in-place)
I0317 11:56:09.846318 17157 net.cpp:150] Setting up bn4a_branch2b
I0317 11:56:09.846351 17157 net.cpp:157] Top shape: 16 256 14 14 (802816)
I0317 11:56:09.846369 17157 net.cpp:165] Memory required for data: 2874083264
I0317 11:56:09.846400 17157 layer_factory.hpp:77] Creating layer scale4a_branch2b
I0317 11:56:09.846426 17157 net.cpp:106] Creating Layer scale4a_branch2b
I0317 11:56:09.846446 17157 net.cpp:454] scale4a_branch2b <- res4a_branch2b
I0317 11:56:09.846469 17157 net.cpp:397] scale4a_branch2b -> res4a_branch2b (in-place)
I0317 11:56:09.846580 17157 layer_factory.hpp:77] Creating layer scale4a_branch2b
I0317 11:56:09.846853 17157 net.cpp:150] Setting up scale4a_branch2b
I0317 11:56:09.846887 17157 net.cpp:157] Top shape: 16 256 14 14 (802816)
I0317 11:56:09.846905 17157 net.cpp:165] Memory required for data: 2877294528
I0317 11:56:09.846931 17157 layer_factory.hpp:77] Creating layer res4a_branch2b_relu
I0317 11:56:09.846956 17157 net.cpp:106] Creating Layer res4a_branch2b_relu
I0317 11:56:09.846977 17157 net.cpp:454] res4a_branch2b_relu <- res4a_branch2b
I0317 11:56:09.847005 17157 net.cpp:397] res4a_branch2b_relu -> res4a_branch2b (in-place)
I0317 11:56:09.847033 17157 net.cpp:150] Setting up res4a_branch2b_relu
I0317 11:56:09.847056 17157 net.cpp:157] Top shape: 16 256 14 14 (802816)
I0317 11:56:09.847074 17157 net.cpp:165] Memory required for data: 2880505792
I0317 11:56:09.847092 17157 layer_factory.hpp:77] Creating layer res4a_branch2c
I0317 11:56:09.847120 17157 net.cpp:106] Creating Layer res4a_branch2c
I0317 11:56:09.847138 17157 net.cpp:454] res4a_branch2c <- res4a_branch2b
I0317 11:56:09.847168 17157 net.cpp:411] res4a_branch2c -> res4a_branch2c
I0317 11:56:09.849033 17157 net.cpp:150] Setting up res4a_branch2c
I0317 11:56:09.849078 17157 net.cpp:157] Top shape: 16 1024 14 14 (3211264)
I0317 11:56:09.849098 17157 net.cpp:165] Memory required for data: 2893350848
I0317 11:56:09.849123 17157 layer_factory.hpp:77] Creating layer bn4a_branch2c
I0317 11:56:09.849148 17157 net.cpp:106] Creating Layer bn4a_branch2c
I0317 11:56:09.849167 17157 net.cpp:454] bn4a_branch2c <- res4a_branch2c
I0317 11:56:09.849191 17157 net.cpp:397] bn4a_branch2c -> res4a_branch2c (in-place)
I0317 11:56:09.849630 17157 net.cpp:150] Setting up bn4a_branch2c
I0317 11:56:09.849665 17157 net.cpp:157] Top shape: 16 1024 14 14 (3211264)
I0317 11:56:09.849684 17157 net.cpp:165] Memory required for data: 2906195904
I0317 11:56:09.849714 17157 layer_factory.hpp:77] Creating layer scale4a_branch2c
I0317 11:56:09.849752 17157 net.cpp:106] Creating Layer scale4a_branch2c
I0317 11:56:09.849776 17157 net.cpp:454] scale4a_branch2c <- res4a_branch2c
I0317 11:56:09.849798 17157 net.cpp:397] scale4a_branch2c -> res4a_branch2c (in-place)
I0317 11:56:09.849907 17157 layer_factory.hpp:77] Creating layer scale4a_branch2c
I0317 11:56:09.850190 17157 net.cpp:150] Setting up scale4a_branch2c
I0317 11:56:09.850225 17157 net.cpp:157] Top shape: 16 1024 14 14 (3211264)
I0317 11:56:09.850244 17157 net.cpp:165] Memory required for data: 2919040960
I0317 11:56:09.850282 17157 layer_factory.hpp:77] Creating layer res4a
I0317 11:56:09.850328 17157 net.cpp:106] Creating Layer res4a
I0317 11:56:09.850350 17157 net.cpp:454] res4a <- res4a_branch1
I0317 11:56:09.850373 17157 net.cpp:454] res4a <- res4a_branch2c
I0317 11:56:09.850401 17157 net.cpp:411] res4a -> res4a
I0317 11:56:09.850486 17157 net.cpp:150] Setting up res4a
I0317 11:56:09.850517 17157 net.cpp:157] Top shape: 16 1024 14 14 (3211264)
I0317 11:56:09.850536 17157 net.cpp:165] Memory required for data: 2931886016
I0317 11:56:09.850554 17157 layer_factory.hpp:77] Creating layer res4a_relu
I0317 11:56:09.850612 17157 net.cpp:106] Creating Layer res4a_relu
I0317 11:56:09.850636 17157 net.cpp:454] res4a_relu <- res4a
I0317 11:56:09.850661 17157 net.cpp:397] res4a_relu -> res4a (in-place)
I0317 11:56:09.850687 17157 net.cpp:150] Setting up res4a_relu
I0317 11:56:09.850709 17157 net.cpp:157] Top shape: 16 1024 14 14 (3211264)
I0317 11:56:09.850728 17157 net.cpp:165] Memory required for data: 2944731072
I0317 11:56:09.850746 17157 layer_factory.hpp:77] Creating layer res4a_res4a_relu_0_split
I0317 11:56:09.850769 17157 net.cpp:106] Creating Layer res4a_res4a_relu_0_split
I0317 11:56:09.850788 17157 net.cpp:454] res4a_res4a_relu_0_split <- res4a
I0317 11:56:09.850811 17157 net.cpp:411] res4a_res4a_relu_0_split -> res4a_res4a_relu_0_split_0
I0317 11:56:09.850842 17157 net.cpp:411] res4a_res4a_relu_0_split -> res4a_res4a_relu_0_split_1
I0317 11:56:09.850936 17157 net.cpp:150] Setting up res4a_res4a_relu_0_split
I0317 11:56:09.850967 17157 net.cpp:157] Top shape: 16 1024 14 14 (3211264)
I0317 11:56:09.850989 17157 net.cpp:157] Top shape: 16 1024 14 14 (3211264)
I0317 11:56:09.851006 17157 net.cpp:165] Memory required for data: 2970421184
I0317 11:56:09.851024 17157 layer_factory.hpp:77] Creating layer res4b_branch2a
I0317 11:56:09.851058 17157 net.cpp:106] Creating Layer res4b_branch2a
I0317 11:56:09.851080 17157 net.cpp:454] res4b_branch2a <- res4a_res4a_relu_0_split_0
I0317 11:56:09.851105 17157 net.cpp:411] res4b_branch2a -> res4b_branch2a
I0317 11:56:09.852952 17157 net.cpp:150] Setting up res4b_branch2a
I0317 11:56:09.852996 17157 net.cpp:157] Top shape: 16 256 14 14 (802816)
I0317 11:56:09.853015 17157 net.cpp:165] Memory required for data: 2973632448
I0317 11:56:09.853040 17157 layer_factory.hpp:77] Creating layer bn4b_branch2a
I0317 11:56:09.853068 17157 net.cpp:106] Creating Layer bn4b_branch2a
I0317 11:56:09.853090 17157 net.cpp:454] bn4b_branch2a <- res4b_branch2a
I0317 11:56:09.853118 17157 net.cpp:397] bn4b_branch2a -> res4b_branch2a (in-place)
I0317 11:56:09.853543 17157 net.cpp:150] Setting up bn4b_branch2a
I0317 11:56:09.853577 17157 net.cpp:157] Top shape: 16 256 14 14 (802816)
I0317 11:56:09.853596 17157 net.cpp:165] Memory required for data: 2976843712
I0317 11:56:09.853626 17157 layer_factory.hpp:77] Creating layer scale4b_branch2a
I0317 11:56:09.853655 17157 net.cpp:106] Creating Layer scale4b_branch2a
I0317 11:56:09.853675 17157 net.cpp:454] scale4b_branch2a <- res4b_branch2a
I0317 11:56:09.853700 17157 net.cpp:397] scale4b_branch2a -> res4b_branch2a (in-place)
I0317 11:56:09.853813 17157 layer_factory.hpp:77] Creating layer scale4b_branch2a
I0317 11:56:09.854079 17157 net.cpp:150] Setting up scale4b_branch2a
I0317 11:56:09.854099 17157 net.cpp:157] Top shape: 16 256 14 14 (802816)
I0317 11:56:09.854110 17157 net.cpp:165] Memory required for data: 2980054976
I0317 11:56:09.854126 17157 layer_factory.hpp:77] Creating layer res4b_branch2a_relu
I0317 11:56:09.854143 17157 net.cpp:106] Creating Layer res4b_branch2a_relu
I0317 11:56:09.854156 17157 net.cpp:454] res4b_branch2a_relu <- res4b_branch2a
I0317 11:56:09.854172 17157 net.cpp:397] res4b_branch2a_relu -> res4b_branch2a (in-place)
I0317 11:56:09.854188 17157 net.cpp:150] Setting up res4b_branch2a_relu
I0317 11:56:09.854203 17157 net.cpp:157] Top shape: 16 256 14 14 (802816)
I0317 11:56:09.854214 17157 net.cpp:165] Memory required for data: 2983266240
I0317 11:56:09.854225 17157 layer_factory.hpp:77] Creating layer res4b_branch2b
I0317 11:56:09.854254 17157 net.cpp:106] Creating Layer res4b_branch2b
I0317 11:56:09.854276 17157 net.cpp:454] res4b_branch2b <- res4b_branch2a
I0317 11:56:09.854298 17157 net.cpp:411] res4b_branch2b -> res4b_branch2b
I0317 11:56:09.856667 17157 net.cpp:150] Setting up res4b_branch2b
I0317 11:56:09.856711 17157 net.cpp:157] Top shape: 16 256 14 14 (802816)
I0317 11:56:09.856730 17157 net.cpp:165] Memory required for data: 2986477504
I0317 11:56:09.856755 17157 layer_factory.hpp:77] Creating layer bn4b_branch2b
I0317 11:56:09.856781 17157 net.cpp:106] Creating Layer bn4b_branch2b
I0317 11:56:09.856801 17157 net.cpp:454] bn4b_branch2b <- res4b_branch2b
I0317 11:56:09.856824 17157 net.cpp:397] bn4b_branch2b -> res4b_branch2b (in-place)
I0317 11:56:09.857257 17157 net.cpp:150] Setting up bn4b_branch2b
I0317 11:56:09.857291 17157 net.cpp:157] Top shape: 16 256 14 14 (802816)
I0317 11:56:09.857311 17157 net.cpp:165] Memory required for data: 2989688768
I0317 11:56:09.857341 17157 layer_factory.hpp:77] Creating layer scale4b_branch2b
I0317 11:56:09.857372 17157 net.cpp:106] Creating Layer scale4b_branch2b
I0317 11:56:09.857393 17157 net.cpp:454] scale4b_branch2b <- res4b_branch2b
I0317 11:56:09.857416 17157 net.cpp:397] scale4b_branch2b -> res4b_branch2b (in-place)
I0317 11:56:09.857528 17157 layer_factory.hpp:77] Creating layer scale4b_branch2b
I0317 11:56:09.857808 17157 net.cpp:150] Setting up scale4b_branch2b
I0317 11:56:09.857842 17157 net.cpp:157] Top shape: 16 256 14 14 (802816)
I0317 11:56:09.857861 17157 net.cpp:165] Memory required for data: 2992900032
I0317 11:56:09.857885 17157 layer_factory.hpp:77] Creating layer res4b_branch2b_relu
I0317 11:56:09.857916 17157 net.cpp:106] Creating Layer res4b_branch2b_relu
I0317 11:56:09.857938 17157 net.cpp:454] res4b_branch2b_relu <- res4b_branch2b
I0317 11:56:09.857960 17157 net.cpp:397] res4b_branch2b_relu -> res4b_branch2b (in-place)
I0317 11:56:09.857985 17157 net.cpp:150] Setting up res4b_branch2b_relu
I0317 11:56:09.858008 17157 net.cpp:157] Top shape: 16 256 14 14 (802816)
I0317 11:56:09.858026 17157 net.cpp:165] Memory required for data: 2996111296
I0317 11:56:09.858044 17157 layer_factory.hpp:77] Creating layer res4b_branch2c
I0317 11:56:09.858078 17157 net.cpp:106] Creating Layer res4b_branch2c
I0317 11:56:09.858099 17157 net.cpp:454] res4b_branch2c <- res4b_branch2b
I0317 11:56:09.858124 17157 net.cpp:411] res4b_branch2c -> res4b_branch2c
I0317 11:56:09.859961 17157 net.cpp:150] Setting up res4b_branch2c
I0317 11:56:09.860003 17157 net.cpp:157] Top shape: 16 1024 14 14 (3211264)
I0317 11:56:09.860023 17157 net.cpp:165] Memory required for data: 3008956352
I0317 11:56:09.860046 17157 layer_factory.hpp:77] Creating layer bn4b_branch2c
I0317 11:56:09.860077 17157 net.cpp:106] Creating Layer bn4b_branch2c
I0317 11:56:09.860100 17157 net.cpp:454] bn4b_branch2c <- res4b_branch2c
I0317 11:56:09.860123 17157 net.cpp:397] bn4b_branch2c -> res4b_branch2c (in-place)
I0317 11:56:09.860555 17157 net.cpp:150] Setting up bn4b_branch2c
I0317 11:56:09.860589 17157 net.cpp:157] Top shape: 16 1024 14 14 (3211264)
I0317 11:56:09.860608 17157 net.cpp:165] Memory required for data: 3021801408
I0317 11:56:09.860657 17157 layer_factory.hpp:77] Creating layer scale4b_branch2c
I0317 11:56:09.860684 17157 net.cpp:106] Creating Layer scale4b_branch2c
I0317 11:56:09.860704 17157 net.cpp:454] scale4b_branch2c <- res4b_branch2c
I0317 11:56:09.860733 17157 net.cpp:397] scale4b_branch2c -> res4b_branch2c (in-place)
I0317 11:56:09.860836 17157 layer_factory.hpp:77] Creating layer scale4b_branch2c
I0317 11:56:09.861126 17157 net.cpp:150] Setting up scale4b_branch2c
I0317 11:56:09.861165 17157 net.cpp:157] Top shape: 16 1024 14 14 (3211264)
I0317 11:56:09.861183 17157 net.cpp:165] Memory required for data: 3034646464
I0317 11:56:09.861208 17157 layer_factory.hpp:77] Creating layer res4b
I0317 11:56:09.861233 17157 net.cpp:106] Creating Layer res4b
I0317 11:56:09.861253 17157 net.cpp:454] res4b <- res4a_res4a_relu_0_split_1
I0317 11:56:09.861274 17157 net.cpp:454] res4b <- res4b_branch2c
I0317 11:56:09.861316 17157 net.cpp:411] res4b -> res4b
I0317 11:56:09.861418 17157 net.cpp:150] Setting up res4b
I0317 11:56:09.861449 17157 net.cpp:157] Top shape: 16 1024 14 14 (3211264)
I0317 11:56:09.861467 17157 net.cpp:165] Memory required for data: 3047491520
I0317 11:56:09.861485 17157 layer_factory.hpp:77] Creating layer res4b_relu
I0317 11:56:09.861515 17157 net.cpp:106] Creating Layer res4b_relu
I0317 11:56:09.861534 17157 net.cpp:454] res4b_relu <- res4b
I0317 11:56:09.861558 17157 net.cpp:397] res4b_relu -> res4b (in-place)
I0317 11:56:09.861583 17157 net.cpp:150] Setting up res4b_relu
I0317 11:56:09.861606 17157 net.cpp:157] Top shape: 16 1024 14 14 (3211264)
I0317 11:56:09.861624 17157 net.cpp:165] Memory required for data: 3060336576
I0317 11:56:09.861642 17157 layer_factory.hpp:77] Creating layer res4b_res4b_relu_0_split
I0317 11:56:09.861665 17157 net.cpp:106] Creating Layer res4b_res4b_relu_0_split
I0317 11:56:09.861683 17157 net.cpp:454] res4b_res4b_relu_0_split <- res4b
I0317 11:56:09.861706 17157 net.cpp:411] res4b_res4b_relu_0_split -> res4b_res4b_relu_0_split_0
I0317 11:56:09.861753 17157 net.cpp:411] res4b_res4b_relu_0_split -> res4b_res4b_relu_0_split_1
I0317 11:56:09.861865 17157 net.cpp:150] Setting up res4b_res4b_relu_0_split
I0317 11:56:09.861897 17157 net.cpp:157] Top shape: 16 1024 14 14 (3211264)
I0317 11:56:09.861919 17157 net.cpp:157] Top shape: 16 1024 14 14 (3211264)
I0317 11:56:09.861937 17157 net.cpp:165] Memory required for data: 3086026688
I0317 11:56:09.861956 17157 layer_factory.hpp:77] Creating layer res4c_branch2a
I0317 11:56:09.861985 17157 net.cpp:106] Creating Layer res4c_branch2a
I0317 11:56:09.862005 17157 net.cpp:454] res4c_branch2a <- res4b_res4b_relu_0_split_0
I0317 11:56:09.862030 17157 net.cpp:411] res4c_branch2a -> res4c_branch2a
I0317 11:56:09.863878 17157 net.cpp:150] Setting up res4c_branch2a
I0317 11:56:09.863920 17157 net.cpp:157] Top shape: 16 256 14 14 (802816)
I0317 11:56:09.863940 17157 net.cpp:165] Memory required for data: 3089237952
I0317 11:56:09.863963 17157 layer_factory.hpp:77] Creating layer bn4c_branch2a
I0317 11:56:09.863989 17157 net.cpp:106] Creating Layer bn4c_branch2a
I0317 11:56:09.864011 17157 net.cpp:454] bn4c_branch2a <- res4c_branch2a
I0317 11:56:09.864033 17157 net.cpp:397] bn4c_branch2a -> res4c_branch2a (in-place)
I0317 11:56:09.864457 17157 net.cpp:150] Setting up bn4c_branch2a
I0317 11:56:09.864490 17157 net.cpp:157] Top shape: 16 256 14 14 (802816)
I0317 11:56:09.864508 17157 net.cpp:165] Memory required for data: 3092449216
I0317 11:56:09.864539 17157 layer_factory.hpp:77] Creating layer scale4c_branch2a
I0317 11:56:09.864572 17157 net.cpp:106] Creating Layer scale4c_branch2a
I0317 11:56:09.864593 17157 net.cpp:454] scale4c_branch2a <- res4c_branch2a
I0317 11:56:09.864631 17157 net.cpp:397] scale4c_branch2a -> res4c_branch2a (in-place)
I0317 11:56:09.864754 17157 layer_factory.hpp:77] Creating layer scale4c_branch2a
I0317 11:56:09.865038 17157 net.cpp:150] Setting up scale4c_branch2a
I0317 11:56:09.865072 17157 net.cpp:157] Top shape: 16 256 14 14 (802816)
I0317 11:56:09.865090 17157 net.cpp:165] Memory required for data: 3095660480
I0317 11:56:09.865116 17157 layer_factory.hpp:77] Creating layer res4c_branch2a_relu
I0317 11:56:09.865141 17157 net.cpp:106] Creating Layer res4c_branch2a_relu
I0317 11:56:09.865161 17157 net.cpp:454] res4c_branch2a_relu <- res4c_branch2a
I0317 11:56:09.865188 17157 net.cpp:397] res4c_branch2a_relu -> res4c_branch2a (in-place)
I0317 11:56:09.865216 17157 net.cpp:150] Setting up res4c_branch2a_relu
I0317 11:56:09.865239 17157 net.cpp:157] Top shape: 16 256 14 14 (802816)
I0317 11:56:09.865257 17157 net.cpp:165] Memory required for data: 3098871744
I0317 11:56:09.865275 17157 layer_factory.hpp:77] Creating layer res4c_branch2b
I0317 11:56:09.865303 17157 net.cpp:106] Creating Layer res4c_branch2b
I0317 11:56:09.865322 17157 net.cpp:454] res4c_branch2b <- res4c_branch2a
I0317 11:56:09.865351 17157 net.cpp:411] res4c_branch2b -> res4c_branch2b
I0317 11:56:09.868652 17157 net.cpp:150] Setting up res4c_branch2b
I0317 11:56:09.868710 17157 net.cpp:157] Top shape: 16 256 14 14 (802816)
I0317 11:56:09.868747 17157 net.cpp:165] Memory required for data: 3102083008
I0317 11:56:09.868772 17157 layer_factory.hpp:77] Creating layer bn4c_branch2b
I0317 11:56:09.868804 17157 net.cpp:106] Creating Layer bn4c_branch2b
I0317 11:56:09.868827 17157 net.cpp:454] bn4c_branch2b <- res4c_branch2b
I0317 11:56:09.868850 17157 net.cpp:397] bn4c_branch2b -> res4c_branch2b (in-place)
I0317 11:56:09.869287 17157 net.cpp:150] Setting up bn4c_branch2b
I0317 11:56:09.869321 17157 net.cpp:157] Top shape: 16 256 14 14 (802816)
I0317 11:56:09.869340 17157 net.cpp:165] Memory required for data: 3105294272
I0317 11:56:09.869369 17157 layer_factory.hpp:77] Creating layer scale4c_branch2b
I0317 11:56:09.869395 17157 net.cpp:106] Creating Layer scale4c_branch2b
I0317 11:56:09.869415 17157 net.cpp:454] scale4c_branch2b <- res4c_branch2b
I0317 11:56:09.869438 17157 net.cpp:397] scale4c_branch2b -> res4c_branch2b (in-place)
I0317 11:56:09.869559 17157 layer_factory.hpp:77] Creating layer scale4c_branch2b
I0317 11:56:09.869832 17157 net.cpp:150] Setting up scale4c_branch2b
I0317 11:56:09.869866 17157 net.cpp:157] Top shape: 16 256 14 14 (802816)
I0317 11:56:09.869885 17157 net.cpp:165] Memory required for data: 3108505536
I0317 11:56:09.869911 17157 layer_factory.hpp:77] Creating layer res4c_branch2b_relu
I0317 11:56:09.869941 17157 net.cpp:106] Creating Layer res4c_branch2b_relu
I0317 11:56:09.869962 17157 net.cpp:454] res4c_branch2b_relu <- res4c_branch2b
I0317 11:56:09.869985 17157 net.cpp:397] res4c_branch2b_relu -> res4c_branch2b (in-place)
I0317 11:56:09.870012 17157 net.cpp:150] Setting up res4c_branch2b_relu
I0317 11:56:09.870034 17157 net.cpp:157] Top shape: 16 256 14 14 (802816)
I0317 11:56:09.870054 17157 net.cpp:165] Memory required for data: 3111716800
I0317 11:56:09.870071 17157 layer_factory.hpp:77] Creating layer res4c_branch2c
I0317 11:56:09.870103 17157 net.cpp:106] Creating Layer res4c_branch2c
I0317 11:56:09.870124 17157 net.cpp:454] res4c_branch2c <- res4c_branch2b
I0317 11:56:09.870148 17157 net.cpp:411] res4c_branch2c -> res4c_branch2c
I0317 11:56:09.871992 17157 net.cpp:150] Setting up res4c_branch2c
I0317 11:56:09.872035 17157 net.cpp:157] Top shape: 16 1024 14 14 (3211264)
I0317 11:56:09.872053 17157 net.cpp:165] Memory required for data: 3124561856
I0317 11:56:09.872076 17157 layer_factory.hpp:77] Creating layer bn4c_branch2c
I0317 11:56:09.872102 17157 net.cpp:106] Creating Layer bn4c_branch2c
I0317 11:56:09.872123 17157 net.cpp:454] bn4c_branch2c <- res4c_branch2c
I0317 11:56:09.872146 17157 net.cpp:397] bn4c_branch2c -> res4c_branch2c (in-place)
I0317 11:56:09.872584 17157 net.cpp:150] Setting up bn4c_branch2c
I0317 11:56:09.872632 17157 net.cpp:157] Top shape: 16 1024 14 14 (3211264)
I0317 11:56:09.872654 17157 net.cpp:165] Memory required for data: 3137406912
I0317 11:56:09.872691 17157 layer_factory.hpp:77] Creating layer scale4c_branch2c
I0317 11:56:09.872720 17157 net.cpp:106] Creating Layer scale4c_branch2c
I0317 11:56:09.872740 17157 net.cpp:454] scale4c_branch2c <- res4c_branch2c
I0317 11:56:09.872763 17157 net.cpp:397] scale4c_branch2c -> res4c_branch2c (in-place)
I0317 11:56:09.872877 17157 layer_factory.hpp:77] Creating layer scale4c_branch2c
I0317 11:56:09.873178 17157 net.cpp:150] Setting up scale4c_branch2c
I0317 11:56:09.873210 17157 net.cpp:157] Top shape: 16 1024 14 14 (3211264)
I0317 11:56:09.873229 17157 net.cpp:165] Memory required for data: 3150251968
I0317 11:56:09.873255 17157 layer_factory.hpp:77] Creating layer res4c
I0317 11:56:09.873286 17157 net.cpp:106] Creating Layer res4c
I0317 11:56:09.873307 17157 net.cpp:454] res4c <- res4b_res4b_relu_0_split_1
I0317 11:56:09.873329 17157 net.cpp:454] res4c <- res4c_branch2c
I0317 11:56:09.873353 17157 net.cpp:411] res4c -> res4c
I0317 11:56:09.873430 17157 net.cpp:150] Setting up res4c
I0317 11:56:09.873461 17157 net.cpp:157] Top shape: 16 1024 14 14 (3211264)
I0317 11:56:09.873479 17157 net.cpp:165] Memory required for data: 3163097024
I0317 11:56:09.873497 17157 layer_factory.hpp:77] Creating layer res4c_relu
I0317 11:56:09.873533 17157 net.cpp:106] Creating Layer res4c_relu
I0317 11:56:09.873571 17157 net.cpp:454] res4c_relu <- res4c
I0317 11:56:09.873601 17157 net.cpp:397] res4c_relu -> res4c (in-place)
I0317 11:56:09.873630 17157 net.cpp:150] Setting up res4c_relu
I0317 11:56:09.873652 17157 net.cpp:157] Top shape: 16 1024 14 14 (3211264)
I0317 11:56:09.873669 17157 net.cpp:165] Memory required for data: 3175942080
I0317 11:56:09.873688 17157 layer_factory.hpp:77] Creating layer res4c_res4c_relu_0_split
I0317 11:56:09.873710 17157 net.cpp:106] Creating Layer res4c_res4c_relu_0_split
I0317 11:56:09.873729 17157 net.cpp:454] res4c_res4c_relu_0_split <- res4c
I0317 11:56:09.873752 17157 net.cpp:411] res4c_res4c_relu_0_split -> res4c_res4c_relu_0_split_0
I0317 11:56:09.873777 17157 net.cpp:411] res4c_res4c_relu_0_split -> res4c_res4c_relu_0_split_1
I0317 11:56:09.873878 17157 net.cpp:150] Setting up res4c_res4c_relu_0_split
I0317 11:56:09.873909 17157 net.cpp:157] Top shape: 16 1024 14 14 (3211264)
I0317 11:56:09.873931 17157 net.cpp:157] Top shape: 16 1024 14 14 (3211264)
I0317 11:56:09.873949 17157 net.cpp:165] Memory required for data: 3201632192
I0317 11:56:09.873966 17157 layer_factory.hpp:77] Creating layer res4d_branch2a
I0317 11:56:09.873993 17157 net.cpp:106] Creating Layer res4d_branch2a
I0317 11:56:09.874014 17157 net.cpp:454] res4d_branch2a <- res4c_res4c_relu_0_split_0
I0317 11:56:09.874038 17157 net.cpp:411] res4d_branch2a -> res4d_branch2a
I0317 11:56:09.875941 17157 net.cpp:150] Setting up res4d_branch2a
I0317 11:56:09.875984 17157 net.cpp:157] Top shape: 16 256 14 14 (802816)
I0317 11:56:09.876003 17157 net.cpp:165] Memory required for data: 3204843456
I0317 11:56:09.876027 17157 layer_factory.hpp:77] Creating layer bn4d_branch2a
I0317 11:56:09.876054 17157 net.cpp:106] Creating Layer bn4d_branch2a
I0317 11:56:09.876075 17157 net.cpp:454] bn4d_branch2a <- res4d_branch2a
I0317 11:56:09.876097 17157 net.cpp:397] bn4d_branch2a -> res4d_branch2a (in-place)
I0317 11:56:09.876536 17157 net.cpp:150] Setting up bn4d_branch2a
I0317 11:56:09.876570 17157 net.cpp:157] Top shape: 16 256 14 14 (802816)
I0317 11:56:09.876590 17157 net.cpp:165] Memory required for data: 3208054720
I0317 11:56:09.876633 17157 layer_factory.hpp:77] Creating layer scale4d_branch2a
I0317 11:56:09.876670 17157 net.cpp:106] Creating Layer scale4d_branch2a
I0317 11:56:09.876691 17157 net.cpp:454] scale4d_branch2a <- res4d_branch2a
I0317 11:56:09.876714 17157 net.cpp:397] scale4d_branch2a -> res4d_branch2a (in-place)
I0317 11:56:09.876832 17157 layer_factory.hpp:77] Creating layer scale4d_branch2a
I0317 11:56:09.877118 17157 net.cpp:150] Setting up scale4d_branch2a
I0317 11:56:09.877151 17157 net.cpp:157] Top shape: 16 256 14 14 (802816)
I0317 11:56:09.877169 17157 net.cpp:165] Memory required for data: 3211265984
I0317 11:56:09.877197 17157 layer_factory.hpp:77] Creating layer res4d_branch2a_relu
I0317 11:56:09.877220 17157 net.cpp:106] Creating Layer res4d_branch2a_relu
I0317 11:56:09.877241 17157 net.cpp:454] res4d_branch2a_relu <- res4d_branch2a
I0317 11:56:09.877269 17157 net.cpp:397] res4d_branch2a_relu -> res4d_branch2a (in-place)
I0317 11:56:09.877296 17157 net.cpp:150] Setting up res4d_branch2a_relu
I0317 11:56:09.877320 17157 net.cpp:157] Top shape: 16 256 14 14 (802816)
I0317 11:56:09.877337 17157 net.cpp:165] Memory required for data: 3214477248
I0317 11:56:09.877357 17157 layer_factory.hpp:77] Creating layer res4d_branch2b
I0317 11:56:09.877383 17157 net.cpp:106] Creating Layer res4d_branch2b
I0317 11:56:09.877403 17157 net.cpp:454] res4d_branch2b <- res4d_branch2a
I0317 11:56:09.877432 17157 net.cpp:411] res4d_branch2b -> res4d_branch2b
I0317 11:56:09.880726 17157 net.cpp:150] Setting up res4d_branch2b
I0317 11:56:09.880771 17157 net.cpp:157] Top shape: 16 256 14 14 (802816)
I0317 11:56:09.880791 17157 net.cpp:165] Memory required for data: 3217688512
I0317 11:56:09.880815 17157 layer_factory.hpp:77] Creating layer bn4d_branch2b
I0317 11:56:09.880847 17157 net.cpp:106] Creating Layer bn4d_branch2b
I0317 11:56:09.880880 17157 net.cpp:454] bn4d_branch2b <- res4d_branch2b
I0317 11:56:09.880924 17157 net.cpp:397] bn4d_branch2b -> res4d_branch2b (in-place)
I0317 11:56:09.881363 17157 net.cpp:150] Setting up bn4d_branch2b
I0317 11:56:09.881397 17157 net.cpp:157] Top shape: 16 256 14 14 (802816)
I0317 11:56:09.881417 17157 net.cpp:165] Memory required for data: 3220899776
I0317 11:56:09.881448 17157 layer_factory.hpp:77] Creating layer scale4d_branch2b
I0317 11:56:09.881474 17157 net.cpp:106] Creating Layer scale4d_branch2b
I0317 11:56:09.881494 17157 net.cpp:454] scale4d_branch2b <- res4d_branch2b
I0317 11:56:09.881516 17157 net.cpp:397] scale4d_branch2b -> res4d_branch2b (in-place)
I0317 11:56:09.881630 17157 layer_factory.hpp:77] Creating layer scale4d_branch2b
I0317 11:56:09.881911 17157 net.cpp:150] Setting up scale4d_branch2b
I0317 11:56:09.881944 17157 net.cpp:157] Top shape: 16 256 14 14 (802816)
I0317 11:56:09.881963 17157 net.cpp:165] Memory required for data: 3224111040
I0317 11:56:09.881989 17157 layer_factory.hpp:77] Creating layer res4d_branch2b_relu
I0317 11:56:09.882014 17157 net.cpp:106] Creating Layer res4d_branch2b_relu
I0317 11:56:09.882040 17157 net.cpp:454] res4d_branch2b_relu <- res4d_branch2b
I0317 11:56:09.882063 17157 net.cpp:397] res4d_branch2b_relu -> res4d_branch2b (in-place)
I0317 11:56:09.882089 17157 net.cpp:150] Setting up res4d_branch2b_relu
I0317 11:56:09.882112 17157 net.cpp:157] Top shape: 16 256 14 14 (802816)
I0317 11:56:09.882129 17157 net.cpp:165] Memory required for data: 3227322304
I0317 11:56:09.882148 17157 layer_factory.hpp:77] Creating layer res4d_branch2c
I0317 11:56:09.882174 17157 net.cpp:106] Creating Layer res4d_branch2c
I0317 11:56:09.882194 17157 net.cpp:454] res4d_branch2c <- res4d_branch2b
I0317 11:56:09.882223 17157 net.cpp:411] res4d_branch2c -> res4d_branch2c
I0317 11:56:09.884086 17157 net.cpp:150] Setting up res4d_branch2c
I0317 11:56:09.884130 17157 net.cpp:157] Top shape: 16 1024 14 14 (3211264)
I0317 11:56:09.884148 17157 net.cpp:165] Memory required for data: 3240167360
I0317 11:56:09.884172 17157 layer_factory.hpp:77] Creating layer bn4d_branch2c
I0317 11:56:09.884199 17157 net.cpp:106] Creating Layer bn4d_branch2c
I0317 11:56:09.884219 17157 net.cpp:454] bn4d_branch2c <- res4d_branch2c
I0317 11:56:09.884243 17157 net.cpp:397] bn4d_branch2c -> res4d_branch2c (in-place)
I0317 11:56:09.884713 17157 net.cpp:150] Setting up bn4d_branch2c
I0317 11:56:09.884752 17157 net.cpp:157] Top shape: 16 1024 14 14 (3211264)
I0317 11:56:09.884769 17157 net.cpp:165] Memory required for data: 3253012416
I0317 11:56:09.884810 17157 layer_factory.hpp:77] Creating layer scale4d_branch2c
I0317 11:56:09.884838 17157 net.cpp:106] Creating Layer scale4d_branch2c
I0317 11:56:09.884858 17157 net.cpp:454] scale4d_branch2c <- res4d_branch2c
I0317 11:56:09.884881 17157 net.cpp:397] scale4d_branch2c -> res4d_branch2c (in-place)
I0317 11:56:09.884997 17157 layer_factory.hpp:77] Creating layer scale4d_branch2c
I0317 11:56:09.885290 17157 net.cpp:150] Setting up scale4d_branch2c
I0317 11:56:09.885324 17157 net.cpp:157] Top shape: 16 1024 14 14 (3211264)
I0317 11:56:09.885342 17157 net.cpp:165] Memory required for data: 3265857472
I0317 11:56:09.885368 17157 layer_factory.hpp:77] Creating layer res4d
I0317 11:56:09.885399 17157 net.cpp:106] Creating Layer res4d
I0317 11:56:09.885421 17157 net.cpp:454] res4d <- res4c_res4c_relu_0_split_1
I0317 11:56:09.885443 17157 net.cpp:454] res4d <- res4d_branch2c
I0317 11:56:09.885466 17157 net.cpp:411] res4d -> res4d
I0317 11:56:09.885543 17157 net.cpp:150] Setting up res4d
I0317 11:56:09.885576 17157 net.cpp:157] Top shape: 16 1024 14 14 (3211264)
I0317 11:56:09.885594 17157 net.cpp:165] Memory required for data: 3278702528
I0317 11:56:09.885612 17157 layer_factory.hpp:77] Creating layer res4d_relu
I0317 11:56:09.885637 17157 net.cpp:106] Creating Layer res4d_relu
I0317 11:56:09.885655 17157 net.cpp:454] res4d_relu <- res4d
I0317 11:56:09.885682 17157 net.cpp:397] res4d_relu -> res4d (in-place)
I0317 11:56:09.885710 17157 net.cpp:150] Setting up res4d_relu
I0317 11:56:09.885746 17157 net.cpp:157] Top shape: 16 1024 14 14 (3211264)
I0317 11:56:09.885782 17157 net.cpp:165] Memory required for data: 3291547584
I0317 11:56:09.885802 17157 layer_factory.hpp:77] Creating layer res4d_res4d_relu_0_split
I0317 11:56:09.885824 17157 net.cpp:106] Creating Layer res4d_res4d_relu_0_split
I0317 11:56:09.885843 17157 net.cpp:454] res4d_res4d_relu_0_split <- res4d
I0317 11:56:09.885865 17157 net.cpp:411] res4d_res4d_relu_0_split -> res4d_res4d_relu_0_split_0
I0317 11:56:09.885891 17157 net.cpp:411] res4d_res4d_relu_0_split -> res4d_res4d_relu_0_split_1
I0317 11:56:09.885993 17157 net.cpp:150] Setting up res4d_res4d_relu_0_split
I0317 11:56:09.886024 17157 net.cpp:157] Top shape: 16 1024 14 14 (3211264)
I0317 11:56:09.886045 17157 net.cpp:157] Top shape: 16 1024 14 14 (3211264)
I0317 11:56:09.886062 17157 net.cpp:165] Memory required for data: 3317237696
I0317 11:56:09.886080 17157 layer_factory.hpp:77] Creating layer res4e_branch2a
I0317 11:56:09.886108 17157 net.cpp:106] Creating Layer res4e_branch2a
I0317 11:56:09.886128 17157 net.cpp:454] res4e_branch2a <- res4d_res4d_relu_0_split_0
I0317 11:56:09.886152 17157 net.cpp:411] res4e_branch2a -> res4e_branch2a
I0317 11:56:09.888007 17157 net.cpp:150] Setting up res4e_branch2a
I0317 11:56:09.888049 17157 net.cpp:157] Top shape: 16 256 14 14 (802816)
I0317 11:56:09.888068 17157 net.cpp:165] Memory required for data: 3320448960
I0317 11:56:09.888092 17157 layer_factory.hpp:77] Creating layer bn4e_branch2a
I0317 11:56:09.888123 17157 net.cpp:106] Creating Layer bn4e_branch2a
I0317 11:56:09.888145 17157 net.cpp:454] bn4e_branch2a <- res4e_branch2a
I0317 11:56:09.888170 17157 net.cpp:397] bn4e_branch2a -> res4e_branch2a (in-place)
I0317 11:56:09.888633 17157 net.cpp:150] Setting up bn4e_branch2a
I0317 11:56:09.888669 17157 net.cpp:157] Top shape: 16 256 14 14 (802816)
I0317 11:56:09.888689 17157 net.cpp:165] Memory required for data: 3323660224
I0317 11:56:09.888718 17157 layer_factory.hpp:77] Creating layer scale4e_branch2a
I0317 11:56:09.888756 17157 net.cpp:106] Creating Layer scale4e_branch2a
I0317 11:56:09.888777 17157 net.cpp:454] scale4e_branch2a <- res4e_branch2a
I0317 11:56:09.888800 17157 net.cpp:397] scale4e_branch2a -> res4e_branch2a (in-place)
I0317 11:56:09.888917 17157 layer_factory.hpp:77] Creating layer scale4e_branch2a
I0317 11:56:09.889204 17157 net.cpp:150] Setting up scale4e_branch2a
I0317 11:56:09.889237 17157 net.cpp:157] Top shape: 16 256 14 14 (802816)
I0317 11:56:09.889256 17157 net.cpp:165] Memory required for data: 3326871488
I0317 11:56:09.889281 17157 layer_factory.hpp:77] Creating layer res4e_branch2a_relu
I0317 11:56:09.889307 17157 net.cpp:106] Creating Layer res4e_branch2a_relu
I0317 11:56:09.889327 17157 net.cpp:454] res4e_branch2a_relu <- res4e_branch2a
I0317 11:56:09.889348 17157 net.cpp:397] res4e_branch2a_relu -> res4e_branch2a (in-place)
I0317 11:56:09.889374 17157 net.cpp:150] Setting up res4e_branch2a_relu
I0317 11:56:09.889396 17157 net.cpp:157] Top shape: 16 256 14 14 (802816)
I0317 11:56:09.889415 17157 net.cpp:165] Memory required for data: 3330082752
I0317 11:56:09.889432 17157 layer_factory.hpp:77] Creating layer res4e_branch2b
I0317 11:56:09.889466 17157 net.cpp:106] Creating Layer res4e_branch2b
I0317 11:56:09.889485 17157 net.cpp:454] res4e_branch2b <- res4e_branch2a
I0317 11:56:09.889514 17157 net.cpp:411] res4e_branch2b -> res4e_branch2b
I0317 11:56:09.892825 17157 net.cpp:150] Setting up res4e_branch2b
I0317 11:56:09.892869 17157 net.cpp:157] Top shape: 16 256 14 14 (802816)
I0317 11:56:09.892889 17157 net.cpp:165] Memory required for data: 3333294016
I0317 11:56:09.892913 17157 layer_factory.hpp:77] Creating layer bn4e_branch2b
I0317 11:56:09.892940 17157 net.cpp:106] Creating Layer bn4e_branch2b
I0317 11:56:09.892961 17157 net.cpp:454] bn4e_branch2b <- res4e_branch2b
I0317 11:56:09.892988 17157 net.cpp:397] bn4e_branch2b -> res4e_branch2b (in-place)
I0317 11:56:09.893437 17157 net.cpp:150] Setting up bn4e_branch2b
I0317 11:56:09.893471 17157 net.cpp:157] Top shape: 16 256 14 14 (802816)
I0317 11:56:09.893502 17157 net.cpp:165] Memory required for data: 3336505280
I0317 11:56:09.893551 17157 layer_factory.hpp:77] Creating layer scale4e_branch2b
I0317 11:56:09.893579 17157 net.cpp:106] Creating Layer scale4e_branch2b
I0317 11:56:09.893599 17157 net.cpp:454] scale4e_branch2b <- res4e_branch2b
I0317 11:56:09.893622 17157 net.cpp:397] scale4e_branch2b -> res4e_branch2b (in-place)
I0317 11:56:09.893739 17157 layer_factory.hpp:77] Creating layer scale4e_branch2b
I0317 11:56:09.894026 17157 net.cpp:150] Setting up scale4e_branch2b
I0317 11:56:09.894059 17157 net.cpp:157] Top shape: 16 256 14 14 (802816)
I0317 11:56:09.894078 17157 net.cpp:165] Memory required for data: 3339716544
I0317 11:56:09.894104 17157 layer_factory.hpp:77] Creating layer res4e_branch2b_relu
I0317 11:56:09.894129 17157 net.cpp:106] Creating Layer res4e_branch2b_relu
I0317 11:56:09.894155 17157 net.cpp:454] res4e_branch2b_relu <- res4e_branch2b
I0317 11:56:09.894177 17157 net.cpp:397] res4e_branch2b_relu -> res4e_branch2b (in-place)
I0317 11:56:09.894203 17157 net.cpp:150] Setting up res4e_branch2b_relu
I0317 11:56:09.894227 17157 net.cpp:157] Top shape: 16 256 14 14 (802816)
I0317 11:56:09.894243 17157 net.cpp:165] Memory required for data: 3342927808
I0317 11:56:09.894261 17157 layer_factory.hpp:77] Creating layer res4e_branch2c
I0317 11:56:09.894289 17157 net.cpp:106] Creating Layer res4e_branch2c
I0317 11:56:09.894307 17157 net.cpp:454] res4e_branch2c <- res4e_branch2b
I0317 11:56:09.894336 17157 net.cpp:411] res4e_branch2c -> res4e_branch2c
I0317 11:56:09.896205 17157 net.cpp:150] Setting up res4e_branch2c
I0317 11:56:09.896247 17157 net.cpp:157] Top shape: 16 1024 14 14 (3211264)
I0317 11:56:09.896266 17157 net.cpp:165] Memory required for data: 3355772864
I0317 11:56:09.896291 17157 layer_factory.hpp:77] Creating layer bn4e_branch2c
I0317 11:56:09.896317 17157 net.cpp:106] Creating Layer bn4e_branch2c
I0317 11:56:09.896337 17157 net.cpp:454] bn4e_branch2c <- res4e_branch2c
I0317 11:56:09.896360 17157 net.cpp:397] bn4e_branch2c -> res4e_branch2c (in-place)
I0317 11:56:09.896836 17157 net.cpp:150] Setting up bn4e_branch2c
I0317 11:56:09.896873 17157 net.cpp:157] Top shape: 16 1024 14 14 (3211264)
I0317 11:56:09.896891 17157 net.cpp:165] Memory required for data: 3368617920
I0317 11:56:09.896927 17157 layer_factory.hpp:77] Creating layer scale4e_branch2c
I0317 11:56:09.896955 17157 net.cpp:106] Creating Layer scale4e_branch2c
I0317 11:56:09.896976 17157 net.cpp:454] scale4e_branch2c <- res4e_branch2c
I0317 11:56:09.896999 17157 net.cpp:397] scale4e_branch2c -> res4e_branch2c (in-place)
I0317 11:56:09.897115 17157 layer_factory.hpp:77] Creating layer scale4e_branch2c
I0317 11:56:09.897414 17157 net.cpp:150] Setting up scale4e_branch2c
I0317 11:56:09.897449 17157 net.cpp:157] Top shape: 16 1024 14 14 (3211264)
I0317 11:56:09.897466 17157 net.cpp:165] Memory required for data: 3381462976
I0317 11:56:09.897492 17157 layer_factory.hpp:77] Creating layer res4e
I0317 11:56:09.897523 17157 net.cpp:106] Creating Layer res4e
I0317 11:56:09.897545 17157 net.cpp:454] res4e <- res4d_res4d_relu_0_split_1
I0317 11:56:09.897567 17157 net.cpp:454] res4e <- res4e_branch2c
I0317 11:56:09.897590 17157 net.cpp:411] res4e -> res4e
I0317 11:56:09.897670 17157 net.cpp:150] Setting up res4e
I0317 11:56:09.897702 17157 net.cpp:157] Top shape: 16 1024 14 14 (3211264)
I0317 11:56:09.897720 17157 net.cpp:165] Memory required for data: 3394308032
I0317 11:56:09.897739 17157 layer_factory.hpp:77] Creating layer res4e_relu
I0317 11:56:09.897763 17157 net.cpp:106] Creating Layer res4e_relu
I0317 11:56:09.897783 17157 net.cpp:454] res4e_relu <- res4e
I0317 11:56:09.897809 17157 net.cpp:397] res4e_relu -> res4e (in-place)
I0317 11:56:09.897836 17157 net.cpp:150] Setting up res4e_relu
I0317 11:56:09.897860 17157 net.cpp:157] Top shape: 16 1024 14 14 (3211264)
I0317 11:56:09.897877 17157 net.cpp:165] Memory required for data: 3407153088
I0317 11:56:09.897896 17157 layer_factory.hpp:77] Creating layer res4e_res4e_relu_0_split
I0317 11:56:09.897918 17157 net.cpp:106] Creating Layer res4e_res4e_relu_0_split
I0317 11:56:09.897949 17157 net.cpp:454] res4e_res4e_relu_0_split <- res4e
I0317 11:56:09.897990 17157 net.cpp:411] res4e_res4e_relu_0_split -> res4e_res4e_relu_0_split_0
I0317 11:56:09.898018 17157 net.cpp:411] res4e_res4e_relu_0_split -> res4e_res4e_relu_0_split_1
I0317 11:56:09.898128 17157 net.cpp:150] Setting up res4e_res4e_relu_0_split
I0317 11:56:09.898160 17157 net.cpp:157] Top shape: 16 1024 14 14 (3211264)
I0317 11:56:09.898182 17157 net.cpp:157] Top shape: 16 1024 14 14 (3211264)
I0317 11:56:09.898200 17157 net.cpp:165] Memory required for data: 3432843200
I0317 11:56:09.898218 17157 layer_factory.hpp:77] Creating layer res4f_branch2a
I0317 11:56:09.898247 17157 net.cpp:106] Creating Layer res4f_branch2a
I0317 11:56:09.898267 17157 net.cpp:454] res4f_branch2a <- res4e_res4e_relu_0_split_0
I0317 11:56:09.898290 17157 net.cpp:411] res4f_branch2a -> res4f_branch2a
I0317 11:56:09.900173 17157 net.cpp:150] Setting up res4f_branch2a
I0317 11:56:09.900215 17157 net.cpp:157] Top shape: 16 256 14 14 (802816)
I0317 11:56:09.900234 17157 net.cpp:165] Memory required for data: 3436054464
I0317 11:56:09.900259 17157 layer_factory.hpp:77] Creating layer bn4f_branch2a
I0317 11:56:09.900290 17157 net.cpp:106] Creating Layer bn4f_branch2a
I0317 11:56:09.900311 17157 net.cpp:454] bn4f_branch2a <- res4f_branch2a
I0317 11:56:09.900336 17157 net.cpp:397] bn4f_branch2a -> res4f_branch2a (in-place)
I0317 11:56:09.900805 17157 net.cpp:150] Setting up bn4f_branch2a
I0317 11:56:09.900842 17157 net.cpp:157] Top shape: 16 256 14 14 (802816)
I0317 11:56:09.900861 17157 net.cpp:165] Memory required for data: 3439265728
I0317 11:56:09.900890 17157 layer_factory.hpp:77] Creating layer scale4f_branch2a
I0317 11:56:09.900923 17157 net.cpp:106] Creating Layer scale4f_branch2a
I0317 11:56:09.900943 17157 net.cpp:454] scale4f_branch2a <- res4f_branch2a
I0317 11:56:09.900966 17157 net.cpp:397] scale4f_branch2a -> res4f_branch2a (in-place)
I0317 11:56:09.901083 17157 layer_factory.hpp:77] Creating layer scale4f_branch2a
I0317 11:56:09.901373 17157 net.cpp:150] Setting up scale4f_branch2a
I0317 11:56:09.901407 17157 net.cpp:157] Top shape: 16 256 14 14 (802816)
I0317 11:56:09.901425 17157 net.cpp:165] Memory required for data: 3442476992
I0317 11:56:09.901453 17157 layer_factory.hpp:77] Creating layer res4f_branch2a_relu
I0317 11:56:09.901477 17157 net.cpp:106] Creating Layer res4f_branch2a_relu
I0317 11:56:09.901497 17157 net.cpp:454] res4f_branch2a_relu <- res4f_branch2a
I0317 11:56:09.901520 17157 net.cpp:397] res4f_branch2a_relu -> res4f_branch2a (in-place)
I0317 11:56:09.901546 17157 net.cpp:150] Setting up res4f_branch2a_relu
I0317 11:56:09.901568 17157 net.cpp:157] Top shape: 16 256 14 14 (802816)
I0317 11:56:09.901587 17157 net.cpp:165] Memory required for data: 3445688256
I0317 11:56:09.901603 17157 layer_factory.hpp:77] Creating layer res4f_branch2b
I0317 11:56:09.901638 17157 net.cpp:106] Creating Layer res4f_branch2b
I0317 11:56:09.901659 17157 net.cpp:454] res4f_branch2b <- res4f_branch2a
I0317 11:56:09.901687 17157 net.cpp:411] res4f_branch2b -> res4f_branch2b
I0317 11:56:09.904999 17157 net.cpp:150] Setting up res4f_branch2b
I0317 11:56:09.905045 17157 net.cpp:157] Top shape: 16 256 14 14 (802816)
I0317 11:56:09.905063 17157 net.cpp:165] Memory required for data: 3448899520
I0317 11:56:09.905087 17157 layer_factory.hpp:77] Creating layer bn4f_branch2b
I0317 11:56:09.905113 17157 net.cpp:106] Creating Layer bn4f_branch2b
I0317 11:56:09.905134 17157 net.cpp:454] bn4f_branch2b <- res4f_branch2b
I0317 11:56:09.905163 17157 net.cpp:397] bn4f_branch2b -> res4f_branch2b (in-place)
I0317 11:56:09.905616 17157 net.cpp:150] Setting up bn4f_branch2b
I0317 11:56:09.905650 17157 net.cpp:157] Top shape: 16 256 14 14 (802816)
I0317 11:56:09.905669 17157 net.cpp:165] Memory required for data: 3452110784
I0317 11:56:09.905699 17157 layer_factory.hpp:77] Creating layer scale4f_branch2b
I0317 11:56:09.905726 17157 net.cpp:106] Creating Layer scale4f_branch2b
I0317 11:56:09.905746 17157 net.cpp:454] scale4f_branch2b <- res4f_branch2b
I0317 11:56:09.905782 17157 net.cpp:397] scale4f_branch2b -> res4f_branch2b (in-place)
I0317 11:56:09.905930 17157 layer_factory.hpp:77] Creating layer scale4f_branch2b
I0317 11:56:09.906216 17157 net.cpp:150] Setting up scale4f_branch2b
I0317 11:56:09.906250 17157 net.cpp:157] Top shape: 16 256 14 14 (802816)
I0317 11:56:09.906268 17157 net.cpp:165] Memory required for data: 3455322048
I0317 11:56:09.906296 17157 layer_factory.hpp:77] Creating layer res4f_branch2b_relu
I0317 11:56:09.906321 17157 net.cpp:106] Creating Layer res4f_branch2b_relu
I0317 11:56:09.906340 17157 net.cpp:454] res4f_branch2b_relu <- res4f_branch2b
I0317 11:56:09.906368 17157 net.cpp:397] res4f_branch2b_relu -> res4f_branch2b (in-place)
I0317 11:56:09.906394 17157 net.cpp:150] Setting up res4f_branch2b_relu
I0317 11:56:09.906417 17157 net.cpp:157] Top shape: 16 256 14 14 (802816)
I0317 11:56:09.906435 17157 net.cpp:165] Memory required for data: 3458533312
I0317 11:56:09.906452 17157 layer_factory.hpp:77] Creating layer res4f_branch2c
I0317 11:56:09.906479 17157 net.cpp:106] Creating Layer res4f_branch2c
I0317 11:56:09.906498 17157 net.cpp:454] res4f_branch2c <- res4f_branch2b
I0317 11:56:09.906528 17157 net.cpp:411] res4f_branch2c -> res4f_branch2c
I0317 11:56:09.908394 17157 net.cpp:150] Setting up res4f_branch2c
I0317 11:56:09.908437 17157 net.cpp:157] Top shape: 16 1024 14 14 (3211264)
I0317 11:56:09.908457 17157 net.cpp:165] Memory required for data: 3471378368
I0317 11:56:09.908480 17157 layer_factory.hpp:77] Creating layer bn4f_branch2c
I0317 11:56:09.908506 17157 net.cpp:106] Creating Layer bn4f_branch2c
I0317 11:56:09.908526 17157 net.cpp:454] bn4f_branch2c <- res4f_branch2c
I0317 11:56:09.908550 17157 net.cpp:397] bn4f_branch2c -> res4f_branch2c (in-place)
I0317 11:56:09.909034 17157 net.cpp:150] Setting up bn4f_branch2c
I0317 11:56:09.909070 17157 net.cpp:157] Top shape: 16 1024 14 14 (3211264)
I0317 11:56:09.909088 17157 net.cpp:165] Memory required for data: 3484223424
I0317 11:56:09.909196 17157 layer_factory.hpp:77] Creating layer scale4f_branch2c
I0317 11:56:09.909230 17157 net.cpp:106] Creating Layer scale4f_branch2c
I0317 11:56:09.909257 17157 net.cpp:454] scale4f_branch2c <- res4f_branch2c
I0317 11:56:09.909281 17157 net.cpp:397] scale4f_branch2c -> res4f_branch2c (in-place)
I0317 11:56:09.909396 17157 layer_factory.hpp:77] Creating layer scale4f_branch2c
I0317 11:56:09.909688 17157 net.cpp:150] Setting up scale4f_branch2c
I0317 11:56:09.909723 17157 net.cpp:157] Top shape: 16 1024 14 14 (3211264)
I0317 11:56:09.909741 17157 net.cpp:165] Memory required for data: 3497068480
I0317 11:56:09.909767 17157 layer_factory.hpp:77] Creating layer res4f
I0317 11:56:09.909798 17157 net.cpp:106] Creating Layer res4f
I0317 11:56:09.909819 17157 net.cpp:454] res4f <- res4e_res4e_relu_0_split_1
I0317 11:56:09.909840 17157 net.cpp:454] res4f <- res4f_branch2c
I0317 11:56:09.909863 17157 net.cpp:411] res4f -> res4f
I0317 11:56:09.909942 17157 net.cpp:150] Setting up res4f
I0317 11:56:09.909973 17157 net.cpp:157] Top shape: 16 1024 14 14 (3211264)
I0317 11:56:09.909992 17157 net.cpp:165] Memory required for data: 3509913536
I0317 11:56:09.910010 17157 layer_factory.hpp:77] Creating layer res4f_relu
I0317 11:56:09.910033 17157 net.cpp:106] Creating Layer res4f_relu
I0317 11:56:09.910053 17157 net.cpp:454] res4f_relu <- res4f
I0317 11:56:09.910081 17157 net.cpp:397] res4f_relu -> res4f (in-place)
I0317 11:56:09.910109 17157 net.cpp:150] Setting up res4f_relu
I0317 11:56:09.910131 17157 net.cpp:157] Top shape: 16 1024 14 14 (3211264)
I0317 11:56:09.910148 17157 net.cpp:165] Memory required for data: 3522758592
I0317 11:56:09.910166 17157 layer_factory.hpp:77] Creating layer res4f_res4f_relu_0_split
I0317 11:56:09.910189 17157 net.cpp:106] Creating Layer res4f_res4f_relu_0_split
I0317 11:56:09.910207 17157 net.cpp:454] res4f_res4f_relu_0_split <- res4f
I0317 11:56:09.910230 17157 net.cpp:411] res4f_res4f_relu_0_split -> res4f_res4f_relu_0_split_0
I0317 11:56:09.910255 17157 net.cpp:411] res4f_res4f_relu_0_split -> res4f_res4f_relu_0_split_1
I0317 11:56:09.910375 17157 net.cpp:150] Setting up res4f_res4f_relu_0_split
I0317 11:56:09.910426 17157 net.cpp:157] Top shape: 16 1024 14 14 (3211264)
I0317 11:56:09.910449 17157 net.cpp:157] Top shape: 16 1024 14 14 (3211264)
I0317 11:56:09.910466 17157 net.cpp:165] Memory required for data: 3548448704
I0317 11:56:09.910485 17157 layer_factory.hpp:77] Creating layer res5a_branch1
I0317 11:56:09.910521 17157 net.cpp:106] Creating Layer res5a_branch1
I0317 11:56:09.910543 17157 net.cpp:454] res5a_branch1 <- res4f_res4f_relu_0_split_0
I0317 11:56:09.910568 17157 net.cpp:411] res5a_branch1 -> res5a_branch1
I0317 11:56:09.920591 17157 net.cpp:150] Setting up res5a_branch1
I0317 11:56:09.920655 17157 net.cpp:157] Top shape: 16 2048 7 7 (1605632)
I0317 11:56:09.920676 17157 net.cpp:165] Memory required for data: 3554871232
I0317 11:56:09.920701 17157 layer_factory.hpp:77] Creating layer bn5a_branch1
I0317 11:56:09.920727 17157 net.cpp:106] Creating Layer bn5a_branch1
I0317 11:56:09.920749 17157 net.cpp:454] bn5a_branch1 <- res5a_branch1
I0317 11:56:09.920778 17157 net.cpp:397] bn5a_branch1 -> res5a_branch1 (in-place)
I0317 11:56:09.921281 17157 net.cpp:150] Setting up bn5a_branch1
I0317 11:56:09.921317 17157 net.cpp:157] Top shape: 16 2048 7 7 (1605632)
I0317 11:56:09.921336 17157 net.cpp:165] Memory required for data: 3561293760
I0317 11:56:09.921367 17157 layer_factory.hpp:77] Creating layer scale5a_branch1
I0317 11:56:09.921394 17157 net.cpp:106] Creating Layer scale5a_branch1
I0317 11:56:09.921416 17157 net.cpp:454] scale5a_branch1 <- res5a_branch1
I0317 11:56:09.921438 17157 net.cpp:397] scale5a_branch1 -> res5a_branch1 (in-place)
I0317 11:56:09.921555 17157 layer_factory.hpp:77] Creating layer scale5a_branch1
I0317 11:56:09.921864 17157 net.cpp:150] Setting up scale5a_branch1
I0317 11:56:09.921897 17157 net.cpp:157] Top shape: 16 2048 7 7 (1605632)
I0317 11:56:09.921916 17157 net.cpp:165] Memory required for data: 3567716288
I0317 11:56:09.921943 17157 layer_factory.hpp:77] Creating layer res5a_branch2a
I0317 11:56:09.921978 17157 net.cpp:106] Creating Layer res5a_branch2a
I0317 11:56:09.922001 17157 net.cpp:454] res5a_branch2a <- res4f_res4f_relu_0_split_1
I0317 11:56:09.922026 17157 net.cpp:411] res5a_branch2a -> res5a_branch2a
I0317 11:56:09.925072 17157 net.cpp:150] Setting up res5a_branch2a
I0317 11:56:09.925117 17157 net.cpp:157] Top shape: 16 512 7 7 (401408)
I0317 11:56:09.925137 17157 net.cpp:165] Memory required for data: 3569321920
I0317 11:56:09.925161 17157 layer_factory.hpp:77] Creating layer bn5a_branch2a
I0317 11:56:09.925199 17157 net.cpp:106] Creating Layer bn5a_branch2a
I0317 11:56:09.925221 17157 net.cpp:454] bn5a_branch2a <- res5a_branch2a
I0317 11:56:09.925246 17157 net.cpp:397] bn5a_branch2a -> res5a_branch2a (in-place)
I0317 11:56:09.925715 17157 net.cpp:150] Setting up bn5a_branch2a
I0317 11:56:09.925750 17157 net.cpp:157] Top shape: 16 512 7 7 (401408)
I0317 11:56:09.925770 17157 net.cpp:165] Memory required for data: 3570927552
I0317 11:56:09.925799 17157 layer_factory.hpp:77] Creating layer scale5a_branch2a
I0317 11:56:09.925833 17157 net.cpp:106] Creating Layer scale5a_branch2a
I0317 11:56:09.925854 17157 net.cpp:454] scale5a_branch2a <- res5a_branch2a
I0317 11:56:09.925879 17157 net.cpp:397] scale5a_branch2a -> res5a_branch2a (in-place)
I0317 11:56:09.925986 17157 layer_factory.hpp:77] Creating layer scale5a_branch2a
I0317 11:56:09.926290 17157 net.cpp:150] Setting up scale5a_branch2a
I0317 11:56:09.926324 17157 net.cpp:157] Top shape: 16 512 7 7 (401408)
I0317 11:56:09.926343 17157 net.cpp:165] Memory required for data: 3572533184
I0317 11:56:09.926369 17157 layer_factory.hpp:77] Creating layer res5a_branch2a_relu
I0317 11:56:09.926394 17157 net.cpp:106] Creating Layer res5a_branch2a_relu
I0317 11:56:09.926414 17157 net.cpp:454] res5a_branch2a_relu <- res5a_branch2a
I0317 11:56:09.926437 17157 net.cpp:397] res5a_branch2a_relu -> res5a_branch2a (in-place)
I0317 11:56:09.926463 17157 net.cpp:150] Setting up res5a_branch2a_relu
I0317 11:56:09.926486 17157 net.cpp:157] Top shape: 16 512 7 7 (401408)
I0317 11:56:09.926519 17157 net.cpp:165] Memory required for data: 3574138816
I0317 11:56:09.926558 17157 layer_factory.hpp:77] Creating layer res5a_branch2b
I0317 11:56:09.926592 17157 net.cpp:106] Creating Layer res5a_branch2b
I0317 11:56:09.926614 17157 net.cpp:454] res5a_branch2b <- res5a_branch2a
I0317 11:56:09.926643 17157 net.cpp:411] res5a_branch2b -> res5a_branch2b
I0317 11:56:09.937868 17157 net.cpp:150] Setting up res5a_branch2b
I0317 11:56:09.937922 17157 net.cpp:157] Top shape: 16 512 7 7 (401408)
I0317 11:56:09.937942 17157 net.cpp:165] Memory required for data: 3575744448
I0317 11:56:09.937966 17157 layer_factory.hpp:77] Creating layer bn5a_branch2b
I0317 11:56:09.937994 17157 net.cpp:106] Creating Layer bn5a_branch2b
I0317 11:56:09.938015 17157 net.cpp:454] bn5a_branch2b <- res5a_branch2b
I0317 11:56:09.938050 17157 net.cpp:397] bn5a_branch2b -> res5a_branch2b (in-place)
I0317 11:56:09.938521 17157 net.cpp:150] Setting up bn5a_branch2b
I0317 11:56:09.938555 17157 net.cpp:157] Top shape: 16 512 7 7 (401408)
I0317 11:56:09.938575 17157 net.cpp:165] Memory required for data: 3577350080
I0317 11:56:09.938606 17157 layer_factory.hpp:77] Creating layer scale5a_branch2b
I0317 11:56:09.938633 17157 net.cpp:106] Creating Layer scale5a_branch2b
I0317 11:56:09.938653 17157 net.cpp:454] scale5a_branch2b <- res5a_branch2b
I0317 11:56:09.938676 17157 net.cpp:397] scale5a_branch2b -> res5a_branch2b (in-place)
I0317 11:56:09.938793 17157 layer_factory.hpp:77] Creating layer scale5a_branch2b
I0317 11:56:09.939095 17157 net.cpp:150] Setting up scale5a_branch2b
I0317 11:56:09.939128 17157 net.cpp:157] Top shape: 16 512 7 7 (401408)
I0317 11:56:09.939147 17157 net.cpp:165] Memory required for data: 3578955712
I0317 11:56:09.939173 17157 layer_factory.hpp:77] Creating layer res5a_branch2b_relu
I0317 11:56:09.939199 17157 net.cpp:106] Creating Layer res5a_branch2b_relu
I0317 11:56:09.939219 17157 net.cpp:454] res5a_branch2b_relu <- res5a_branch2b
I0317 11:56:09.939249 17157 net.cpp:397] res5a_branch2b_relu -> res5a_branch2b (in-place)
I0317 11:56:09.939275 17157 net.cpp:150] Setting up res5a_branch2b_relu
I0317 11:56:09.939298 17157 net.cpp:157] Top shape: 16 512 7 7 (401408)
I0317 11:56:09.939316 17157 net.cpp:165] Memory required for data: 3580561344
I0317 11:56:09.939334 17157 layer_factory.hpp:77] Creating layer res5a_branch2c
I0317 11:56:09.939363 17157 net.cpp:106] Creating Layer res5a_branch2c
I0317 11:56:09.939381 17157 net.cpp:454] res5a_branch2c <- res5a_branch2b
I0317 11:56:09.939410 17157 net.cpp:411] res5a_branch2c -> res5a_branch2c
I0317 11:56:09.944828 17157 net.cpp:150] Setting up res5a_branch2c
I0317 11:56:09.944875 17157 net.cpp:157] Top shape: 16 2048 7 7 (1605632)
I0317 11:56:09.944895 17157 net.cpp:165] Memory required for data: 3586983872
I0317 11:56:09.944919 17157 layer_factory.hpp:77] Creating layer bn5a_branch2c
I0317 11:56:09.944946 17157 net.cpp:106] Creating Layer bn5a_branch2c
I0317 11:56:09.944967 17157 net.cpp:454] bn5a_branch2c <- res5a_branch2c
I0317 11:56:09.944989 17157 net.cpp:397] bn5a_branch2c -> res5a_branch2c (in-place)
I0317 11:56:09.945466 17157 net.cpp:150] Setting up bn5a_branch2c
I0317 11:56:09.945500 17157 net.cpp:157] Top shape: 16 2048 7 7 (1605632)
I0317 11:56:09.945519 17157 net.cpp:165] Memory required for data: 3593406400
I0317 11:56:09.945549 17157 layer_factory.hpp:77] Creating layer scale5a_branch2c
I0317 11:56:09.945582 17157 net.cpp:106] Creating Layer scale5a_branch2c
…
I0317 11:56:10.111385 17157 net.cpp:106] Creating Layer id_scale4d_branch2b
I0317 11:56:10.111407 17157 net.cpp:454] id_scale4d_branch2b <- id_res4d_branch2b
I0317 11:56:10.111431 17157 net.cpp:397] id_scale4d_branch2b -> id_res4d_branch2b (in-place)
I0317 11:56:10.111549 17157 layer_factory.hpp:77] Creating layer id_scale4d_branch2b
I0317 11:56:10.111836 17157 net.cpp:150] Setting up id_scale4d_branch2b
I0317 11:56:10.111870 17157 net.cpp:157] Top shape: 16 256 14 14 (802816)
I0317 11:56:10.111888 17157 net.cpp:165] Memory required for data: 6936463296
I0317 11:56:10.111915 17157 layer_factory.hpp:77] Creating layer id_res4d_branch2b_relu
I0317 11:56:10.111945 17157 net.cpp:106] Creating Layer id_res4d_branch2b_relu
I0317 11:56:10.111966 17157 net.cpp:454] id_res4d_branch2b_relu <- id_res4d_branch2b
I0317 11:56:10.111989 17157 net.cpp:397] id_res4d_branch2b_relu -> id_res4d_branch2b (in-place)
I0317 11:56:10.112016 17157 net.cpp:150] Setting up id_res4d_branch2b_relu
I0317 11:56:10.112040 17157 net.cpp:157] Top shape: 16 256 14 14 (802816)
I0317 11:56:10.112057 17157 net.cpp:165] Memory required for data: 6939674560
I0317 11:56:10.112076 17157 layer_factory.hpp:77] Creating layer id_res4d_branch2c
I0317 11:56:10.112108 17157 net.cpp:106] Creating Layer id_res4d_branch2c
I0317 11:56:10.112129 17157 net.cpp:454] id_res4d_branch2c <- id_res4d_branch2b
I0317 11:56:10.112155 17157 net.cpp:411] id_res4d_branch2c -> id_res4d_branch2c
I0317 11:56:10.114027 17157 net.cpp:150] Setting up id_res4d_branch2c
I0317 11:56:10.114073 17157 net.cpp:157] Top shape: 16 1024 14 14 (3211264)
I0317 11:56:10.114091 17157 net.cpp:165] Memory required for data: 6952519616
I0317 11:56:10.114115 17157 layer_factory.hpp:77] Creating layer id_bn4d_branch2c
I0317 11:56:10.114147 17157 net.cpp:106] Creating Layer id_bn4d_branch2c
I0317 11:56:10.114169 17157 net.cpp:454] id_bn4d_branch2c <- id_res4d_branch2c
I0317 11:56:10.114194 17157 net.cpp:397] id_bn4d_branch2c -> id_res4d_branch2c (in-place)
I0317 11:56:10.114666 17157 net.cpp:150] Setting up id_bn4d_branch2c
I0317 11:56:10.114701 17157 net.cpp:157] Top shape: 16 1024 14 14 (3211264)
I0317 11:56:10.114719 17157 net.cpp:165] Memory required for data: 6965364672
I0317 11:56:10.114750 17157 layer_factory.hpp:77] Creating layer id_scale4d_branch2c
I0317 11:56:10.114778 17157 net.cpp:106] Creating Layer id_scale4d_branch2c
I0317 11:56:10.114797 17157 net.cpp:454] id_scale4d_branch2c <- id_res4d_branch2c
I0317 11:56:10.114857 17157 net.cpp:397] id_scale4d_branch2c -> id_res4d_branch2c (in-place)
I0317 11:56:10.114979 17157 layer_factory.hpp:77] Creating layer id_scale4d_branch2c
I0317 11:56:10.115290 17157 net.cpp:150] Setting up id_scale4d_branch2c
I0317 11:56:10.115329 17157 net.cpp:157] Top shape: 16 1024 14 14 (3211264)
I0317 11:56:10.115348 17157 net.cpp:165] Memory required for data: 6978209728
I0317 11:56:10.115375 17157 layer_factory.hpp:77] Creating layer id_res4d
I0317 11:56:10.115399 17157 net.cpp:106] Creating Layer id_res4d
I0317 11:56:10.115420 17157 net.cpp:454] id_res4d <- id_res4c_id_res4c_relu_0_split_1
I0317 11:56:10.115442 17157 net.cpp:454] id_res4d <- id_res4d_branch2c
I0317 11:56:10.115465 17157 net.cpp:411] id_res4d -> id_res4d
I0317 11:56:10.115546 17157 net.cpp:150] Setting up id_res4d
I0317 11:56:10.115577 17157 net.cpp:157] Top shape: 16 1024 14 14 (3211264)
I0317 11:56:10.115595 17157 net.cpp:165] Memory required for data: 6991054784
I0317 11:56:10.115613 17157 layer_factory.hpp:77] Creating layer id_res4d_relu
I0317 11:56:10.115641 17157 net.cpp:106] Creating Layer id_res4d_relu
I0317 11:56:10.115663 17157 net.cpp:454] id_res4d_relu <- id_res4d
I0317 11:56:10.115685 17157 net.cpp:397] id_res4d_relu -> id_res4d (in-place)
I0317 11:56:10.115712 17157 net.cpp:150] Setting up id_res4d_relu
I0317 11:56:10.115736 17157 net.cpp:157] Top shape: 16 1024 14 14 (3211264)
I0317 11:56:10.115753 17157 net.cpp:165] Memory required for data: 7003899840
I0317 11:56:10.115772 17157 layer_factory.hpp:77] Creating layer id_res4d_id_res4d_relu_0_split
I0317 11:56:10.115795 17157 net.cpp:106] Creating Layer id_res4d_id_res4d_relu_0_split
I0317 11:56:10.115813 17157 net.cpp:454] id_res4d_id_res4d_relu_0_split <- id_res4d
I0317 11:56:10.115836 17157 net.cpp:411] id_res4d_id_res4d_relu_0_split -> id_res4d_id_res4d_relu_0_split_0
I0317 11:56:10.115869 17157 net.cpp:411] id_res4d_id_res4d_relu_0_split -> id_res4d_id_res4d_relu_0_split_1
I0317 11:56:10.115967 17157 net.cpp:150] Setting up id_res4d_id_res4d_relu_0_split
I0317 11:56:10.115998 17157 net.cpp:157] Top shape: 16 1024 14 14 (3211264)
I0317 11:56:10.116019 17157 net.cpp:157] Top shape: 16 1024 14 14 (3211264)
I0317 11:56:10.116036 17157 net.cpp:165] Memory required for data: 7029589952
I0317 11:56:10.116055 17157 layer_factory.hpp:77] Creating layer id_res4e_branch2a
I0317 11:56:10.116088 17157 net.cpp:106] Creating Layer id_res4e_branch2a
I0317 11:56:10.116111 17157 net.cpp:454] id_res4e_branch2a <- id_res4d_id_res4d_relu_0_split_0
I0317 11:56:10.116135 17157 net.cpp:411] id_res4e_branch2a -> id_res4e_branch2a
I0317 11:56:10.118041 17157 net.cpp:150] Setting up id_res4e_branch2a
I0317 11:56:10.118085 17157 net.cpp:157] Top shape: 16 256 14 14 (802816)
I0317 11:56:10.118104 17157 net.cpp:165] Memory required for data: 7032801216
I0317 11:56:10.118134 17157 layer_factory.hpp:77] Creating layer id_bn4e_branch2a
I0317 11:56:10.118161 17157 net.cpp:106] Creating Layer id_bn4e_branch2a
I0317 11:56:10.118182 17157 net.cpp:454] id_bn4e_branch2a <- id_res4e_branch2a
I0317 11:56:10.118211 17157 net.cpp:397] id_bn4e_branch2a -> id_res4e_branch2a (in-place)
I0317 11:56:10.118662 17157 net.cpp:150] Setting up id_bn4e_branch2a
I0317 11:56:10.118696 17157 net.cpp:157] Top shape: 16 256 14 14 (802816)
I0317 11:56:10.118715 17157 net.cpp:165] Memory required for data: 7036012480
I0317 11:56:10.118744 17157 layer_factory.hpp:77] Creating layer id_scale4e_branch2a
I0317 11:56:10.118772 17157 net.cpp:106] Creating Layer id_scale4e_branch2a
I0317 11:56:10.118791 17157 net.cpp:454] id_scale4e_branch2a <- id_res4e_branch2a
I0317 11:56:10.118814 17157 net.cpp:397] id_scale4e_branch2a -> id_res4e_branch2a (in-place)
I0317 11:56:10.118933 17157 layer_factory.hpp:77] Creating layer id_scale4e_branch2a
I0317 11:56:10.119218 17157 net.cpp:150] Setting up id_scale4e_branch2a
I0317 11:56:10.119251 17157 net.cpp:157] Top shape: 16 256 14 14 (802816)
I0317 11:56:10.119269 17157 net.cpp:165] Memory required for data: 7039223744
I0317 11:56:10.119308 17157 layer_factory.hpp:77] Creating layer id_res4e_branch2a_relu
I0317 11:56:10.119354 17157 net.cpp:106] Creating Layer id_res4e_branch2a_relu
I0317 11:56:10.119376 17157 net.cpp:454] id_res4e_branch2a_relu <- id_res4e_branch2a
I0317 11:56:10.119405 17157 net.cpp:397] id_res4e_branch2a_relu -> id_res4e_branch2a (in-place)
I0317 11:56:10.119431 17157 net.cpp:150] Setting up id_res4e_branch2a_relu
I0317 11:56:10.119455 17157 net.cpp:157] Top shape: 16 256 14 14 (802816)
I0317 11:56:10.119472 17157 net.cpp:165] Memory required for data: 7042435008
I0317 11:56:10.119490 17157 layer_factory.hpp:77] Creating layer id_res4e_branch2b
I0317 11:56:10.119518 17157 net.cpp:106] Creating Layer id_res4e_branch2b
I0317 11:56:10.119537 17157 net.cpp:454] id_res4e_branch2b <- id_res4e_branch2a
I0317 11:56:10.119567 17157 net.cpp:411] id_res4e_branch2b -> id_res4e_branch2b
I0317 11:56:10.122889 17157 net.cpp:150] Setting up id_res4e_branch2b
I0317 11:56:10.122933 17157 net.cpp:157] Top shape: 16 256 14 14 (802816)
I0317 11:56:10.122953 17157 net.cpp:165] Memory required for data: 7045646272
I0317 11:56:10.122977 17157 layer_factory.hpp:77] Creating layer id_bn4e_branch2b
I0317 11:56:10.123003 17157 net.cpp:106] Creating Layer id_bn4e_branch2b
I0317 11:56:10.123024 17157 net.cpp:454] id_bn4e_branch2b <- id_res4e_branch2b
I0317 11:56:10.123049 17157 net.cpp:397] id_bn4e_branch2b -> id_res4e_branch2b (in-place)
I0317 11:56:10.123504 17157 net.cpp:150] Setting up id_bn4e_branch2b
I0317 11:56:10.123539 17157 net.cpp:157] Top shape: 16 256 14 14 (802816)
I0317 11:56:10.123558 17157 net.cpp:165] Memory required for data: 7048857536
I0317 11:56:10.123587 17157 layer_factory.hpp:77] Creating layer id_scale4e_branch2b
I0317 11:56:10.123620 17157 net.cpp:106] Creating Layer id_scale4e_branch2b
I0317 11:56:10.123641 17157 net.cpp:454] id_scale4e_branch2b <- id_res4e_branch2b
I0317 11:56:10.123664 17157 net.cpp:397] id_scale4e_branch2b -> id_res4e_branch2b (in-place)
I0317 11:56:10.123785 17157 layer_factory.hpp:77] Creating layer id_scale4e_branch2b
I0317 11:56:10.124075 17157 net.cpp:150] Setting up id_scale4e_branch2b
I0317 11:56:10.124109 17157 net.cpp:157] Top shape: 16 256 14 14 (802816)
I0317 11:56:10.124127 17157 net.cpp:165] Memory required for data: 7052068800
I0317 11:56:10.124153 17157 layer_factory.hpp:77] Creating layer id_res4e_branch2b_relu
I0317 11:56:10.124178 17157 net.cpp:106] Creating Layer id_res4e_branch2b_relu
I0317 11:56:10.124199 17157 net.cpp:454] id_res4e_branch2b_relu <- id_res4e_branch2b
I0317 11:56:10.124231 17157 net.cpp:397] id_res4e_branch2b_relu -> id_res4e_branch2b (in-place)
I0317 11:56:10.124259 17157 net.cpp:150] Setting up id_res4e_branch2b_relu
I0317 11:56:10.124282 17157 net.cpp:157] Top shape: 16 256 14 14 (802816)
I0317 11:56:10.124301 17157 net.cpp:165] Memory required for data: 7055280064
I0317 11:56:10.124320 17157 layer_factory.hpp:77] Creating layer id_res4e_branch2c
I0317 11:56:10.124352 17157 net.cpp:106] Creating Layer id_res4e_branch2c
I0317 11:56:10.124373 17157 net.cpp:454] id_res4e_branch2c <- id_res4e_branch2b
I0317 11:56:10.124398 17157 net.cpp:411] id_res4e_branch2c -> id_res4e_branch2c
I0317 11:56:10.126308 17157 net.cpp:150] Setting up id_res4e_branch2c
I0317 11:56:10.126353 17157 net.cpp:157] Top shape: 16 1024 14 14 (3211264)
I0317 11:56:10.126372 17157 net.cpp:165] Memory required for data: 7068125120
I0317 11:56:10.126396 17157 layer_factory.hpp:77] Creating layer id_bn4e_branch2c
I0317 11:56:10.126428 17157 net.cpp:106] Creating Layer id_bn4e_branch2c
I0317 11:56:10.126451 17157 net.cpp:454] id_bn4e_branch2c <- id_res4e_branch2c
I0317 11:56:10.126473 17157 net.cpp:397] id_bn4e_branch2c -> id_res4e_branch2c (in-place)
I0317 11:56:10.126958 17157 net.cpp:150] Setting up id_bn4e_branch2c
I0317 11:56:10.126994 17157 net.cpp:157] Top shape: 16 1024 14 14 (3211264)
I0317 11:56:10.127012 17157 net.cpp:165] Memory required for data: 7080970176
I0317 11:56:10.127043 17157 layer_factory.hpp:77] Creating layer id_scale4e_branch2c
I0317 11:56:10.127069 17157 net.cpp:106] Creating Layer id_scale4e_branch2c
I0317 11:56:10.127104 17157 net.cpp:454] id_scale4e_branch2c <- id_res4e_branch2c
I0317 11:56:10.127153 17157 net.cpp:397] id_scale4e_branch2c -> id_res4e_branch2c (in-place)
I0317 11:56:10.127275 17157 layer_factory.hpp:77] Creating layer id_scale4e_branch2c
I0317 11:56:10.127584 17157 net.cpp:150] Setting up id_scale4e_branch2c
I0317 11:56:10.127624 17157 net.cpp:157] Top shape: 16 1024 14 14 (3211264)
I0317 11:56:10.127642 17157 net.cpp:165] Memory required for data: 7093815232
I0317 11:56:10.127668 17157 layer_factory.hpp:77] Creating layer id_res4e
I0317 11:56:10.127693 17157 net.cpp:106] Creating Layer id_res4e
I0317 11:56:10.127715 17157 net.cpp:454] id_res4e <- id_res4d_id_res4d_relu_0_split_1
I0317 11:56:10.127737 17157 net.cpp:454] id_res4e <- id_res4e_branch2c
I0317 11:56:10.127760 17157 net.cpp:411] id_res4e -> id_res4e
I0317 11:56:10.127841 17157 net.cpp:150] Setting up id_res4e
I0317 11:56:10.127873 17157 net.cpp:157] Top shape: 16 1024 14 14 (3211264)
I0317 11:56:10.127892 17157 net.cpp:165] Memory required for data: 7106660288
I0317 11:56:10.127910 17157 layer_factory.hpp:77] Creating layer id_res4e_relu
I0317 11:56:10.127939 17157 net.cpp:106] Creating Layer id_res4e_relu
I0317 11:56:10.127960 17157 net.cpp:454] id_res4e_relu <- id_res4e
I0317 11:56:10.127984 17157 net.cpp:397] id_res4e_relu -> id_res4e (in-place)
I0317 11:56:10.128010 17157 net.cpp:150] Setting up id_res4e_relu
I0317 11:56:10.128032 17157 net.cpp:157] Top shape: 16 1024 14 14 (3211264)
I0317 11:56:10.128051 17157 net.cpp:165] Memory required for data: 7119505344
I0317 11:56:10.128069 17157 layer_factory.hpp:77] Creating layer id_res4e_id_res4e_relu_0_split
I0317 11:56:10.128092 17157 net.cpp:106] Creating Layer id_res4e_id_res4e_relu_0_split
I0317 11:56:10.128110 17157 net.cpp:454] id_res4e_id_res4e_relu_0_split <- id_res4e
I0317 11:56:10.128134 17157 net.cpp:411] id_res4e_id_res4e_relu_0_split -> id_res4e_id_res4e_relu_0_split_0
I0317 11:56:10.128167 17157 net.cpp:411] id_res4e_id_res4e_relu_0_split -> id_res4e_id_res4e_relu_0_split_1
I0317 11:56:10.128265 17157 net.cpp:150] Setting up id_res4e_id_res4e_relu_0_split
I0317 11:56:10.128296 17157 net.cpp:157] Top shape: 16 1024 14 14 (3211264)
I0317 11:56:10.128319 17157 net.cpp:157] Top shape: 16 1024 14 14 (3211264)
I0317 11:56:10.128335 17157 net.cpp:165] Memory required for data: 7145195456
I0317 11:56:10.128353 17157 layer_factory.hpp:77] Creating layer id_res4f_branch2a
I0317 11:56:10.128391 17157 net.cpp:106] Creating Layer id_res4f_branch2a
I0317 11:56:10.128413 17157 net.cpp:454] id_res4f_branch2a <- id_res4e_id_res4e_relu_0_split_0
I0317 11:56:10.128439 17157 net.cpp:411] id_res4f_branch2a -> id_res4f_branch2a
I0317 11:56:10.130331 17157 net.cpp:150] Setting up id_res4f_branch2a
I0317 11:56:10.130374 17157 net.cpp:157] Top shape: 16 256 14 14 (802816)
I0317 11:56:10.130393 17157 net.cpp:165] Memory required for data: 7148406720
I0317 11:56:10.130417 17157 layer_factory.hpp:77] Creating layer id_bn4f_branch2a
I0317 11:56:10.130444 17157 net.cpp:106] Creating Layer id_bn4f_branch2a
I0317 11:56:10.130465 17157 net.cpp:454] id_bn4f_branch2a <- id_res4f_branch2a
I0317 11:56:10.130493 17157 net.cpp:397] id_bn4f_branch2a -> id_res4f_branch2a (in-place)
I0317 11:56:10.130960 17157 net.cpp:150] Setting up id_bn4f_branch2a
I0317 11:56:10.130995 17157 net.cpp:157] Top shape: 16 256 14 14 (802816)
I0317 11:56:10.131012 17157 net.cpp:165] Memory required for data: 7151617984
I0317 11:56:10.131042 17157 layer_factory.hpp:77] Creating layer id_scale4f_branch2a
I0317 11:56:10.131069 17157 net.cpp:106] Creating Layer id_scale4f_branch2a
I0317 11:56:10.131090 17157 net.cpp:454] id_scale4f_branch2a <- id_res4f_branch2a
I0317 11:56:10.131114 17157 net.cpp:397] id_scale4f_branch2a -> id_res4f_branch2a (in-place)
I0317 11:56:10.131233 17157 layer_factory.hpp:77] Creating layer id_scale4f_branch2a
I0317 11:56:10.131532 17157 net.cpp:150] Setting up id_scale4f_branch2a
I0317 11:56:10.131567 17157 net.cpp:157] Top shape: 16 256 14 14 (802816)
I0317 11:56:10.131584 17157 net.cpp:165] Memory required for data: 7154829248
I0317 11:56:10.131639 17157 layer_factory.hpp:77] Creating layer id_res4f_branch2a_relu
I0317 11:56:10.131667 17157 net.cpp:106] Creating Layer id_res4f_branch2a_relu
I0317 11:56:10.131688 17157 net.cpp:454] id_res4f_branch2a_relu <- id_res4f_branch2a
I0317 11:56:10.131716 17157 net.cpp:397] id_res4f_branch2a_relu -> id_res4f_branch2a (in-place)
I0317 11:56:10.131743 17157 net.cpp:150] Setting up id_res4f_branch2a_relu
I0317 11:56:10.131767 17157 net.cpp:157] Top shape: 16 256 14 14 (802816)
I0317 11:56:10.131784 17157 net.cpp:165] Memory required for data: 7158040512
I0317 11:56:10.131803 17157 layer_factory.hpp:77] Creating layer id_res4f_branch2b
I0317 11:56:10.131829 17157 net.cpp:106] Creating Layer id_res4f_branch2b
I0317 11:56:10.131849 17157 net.cpp:454] id_res4f_branch2b <- id_res4f_branch2a
I0317 11:56:10.131878 17157 net.cpp:411] id_res4f_branch2b -> id_res4f_branch2b
I0317 11:56:10.135233 17157 net.cpp:150] Setting up id_res4f_branch2b
I0317 11:56:10.135278 17157 net.cpp:157] Top shape: 16 256 14 14 (802816)
I0317 11:56:10.135298 17157 net.cpp:165] Memory required for data: 7161251776
I0317 11:56:10.135323 17157 layer_factory.hpp:77] Creating layer id_bn4f_branch2b
I0317 11:56:10.135349 17157 net.cpp:106] Creating Layer id_bn4f_branch2b
I0317 11:56:10.135370 17157 net.cpp:454] id_bn4f_branch2b <- id_res4f_branch2b
I0317 11:56:10.135393 17157 net.cpp:397] id_bn4f_branch2b -> id_res4f_branch2b (in-place)
I0317 11:56:10.135849 17157 net.cpp:150] Setting up id_bn4f_branch2b
I0317 11:56:10.135884 17157 net.cpp:157] Top shape: 16 256 14 14 (802816)
I0317 11:56:10.135902 17157 net.cpp:165] Memory required for data: 7164463040
I0317 11:56:10.135932 17157 layer_factory.hpp:77] Creating layer id_scale4f_branch2b
I0317 11:56:10.135964 17157 net.cpp:106] Creating Layer id_scale4f_branch2b
I0317 11:56:10.135987 17157 net.cpp:454] id_scale4f_branch2b <- id_res4f_branch2b
I0317 11:56:10.136010 17157 net.cpp:397] id_scale4f_branch2b -> id_res4f_branch2b (in-place)
I0317 11:56:10.136131 17157 layer_factory.hpp:77] Creating layer id_scale4f_branch2b
I0317 11:56:10.136425 17157 net.cpp:150] Setting up id_scale4f_branch2b
I0317 11:56:10.136459 17157 net.cpp:157] Top shape: 16 256 14 14 (802816)
I0317 11:56:10.136478 17157 net.cpp:165] Memory required for data: 7167674304
I0317 11:56:10.136504 17157 layer_factory.hpp:77] Creating layer id_res4f_branch2b_relu
I0317 11:56:10.136530 17157 net.cpp:106] Creating Layer id_res4f_branch2b_relu
I0317 11:56:10.136551 17157 net.cpp:454] id_res4f_branch2b_relu <- id_res4f_branch2b
I0317 11:56:10.136579 17157 net.cpp:397] id_res4f_branch2b_relu -> id_res4f_branch2b (in-place)
I0317 11:56:10.136607 17157 net.cpp:150] Setting up id_res4f_branch2b_relu
I0317 11:56:10.136658 17157 net.cpp:157] Top shape: 16 256 14 14 (802816)
I0317 11:56:10.136677 17157 net.cpp:165] Memory required for data: 7170885568
I0317 11:56:10.136696 17157 layer_factory.hpp:77] Creating layer id_res4f_branch2c
I0317 11:56:10.136729 17157 net.cpp:106] Creating Layer id_res4f_branch2c
I0317 11:56:10.136751 17157 net.cpp:454] id_res4f_branch2c <- id_res4f_branch2b
I0317 11:56:10.136776 17157 net.cpp:411] id_res4f_branch2c -> id_res4f_branch2c
I0317 11:56:10.138664 17157 net.cpp:150] Setting up id_res4f_branch2c
I0317 11:56:10.138707 17157 net.cpp:157] Top shape: 16 1024 14 14 (3211264)
I0317 11:56:10.138726 17157 net.cpp:165] Memory required for data: 7183730624
I0317 11:56:10.138751 17157 layer_factory.hpp:77] Creating layer id_bn4f_branch2c
I0317 11:56:10.138782 17157 net.cpp:106] Creating Layer id_bn4f_branch2c
I0317 11:56:10.138804 17157 net.cpp:454] id_bn4f_branch2c <- id_res4f_branch2c
I0317 11:56:10.138828 17157 net.cpp:397] id_bn4f_branch2c -> id_res4f_branch2c (in-place)
I0317 11:56:10.139308 17157 net.cpp:150] Setting up id_bn4f_branch2c
I0317 11:56:10.139343 17157 net.cpp:157] Top shape: 16 1024 14 14 (3211264)
I0317 11:56:10.139364 17157 net.cpp:165] Memory required for data: 7196575680
I0317 11:56:10.139394 17157 layer_factory.hpp:77] Creating layer id_scale4f_branch2c
I0317 11:56:10.139433 17157 net.cpp:106] Creating Layer id_scale4f_branch2c
I0317 11:56:10.139474 17157 net.cpp:454] id_scale4f_branch2c <- id_res4f_branch2c
I0317 11:56:10.139513 17157 net.cpp:397] id_scale4f_branch2c -> id_res4f_branch2c (in-place)
I0317 11:56:10.139636 17157 layer_factory.hpp:77] Creating layer id_scale4f_branch2c
I0317 11:56:10.139950 17157 net.cpp:150] Setting up id_scale4f_branch2c
I0317 11:56:10.139991 17157 net.cpp:157] Top shape: 16 1024 14 14 (3211264)
I0317 11:56:10.140010 17157 net.cpp:165] Memory required for data: 7209420736
I0317 11:56:10.140036 17157 layer_factory.hpp:77] Creating layer id_res4f
I0317 11:56:10.140061 17157 net.cpp:106] Creating Layer id_res4f
I0317 11:56:10.140082 17157 net.cpp:454] id_res4f <- id_res4e_id_res4e_relu_0_split_1
I0317 11:56:10.140105 17157 net.cpp:454] id_res4f <- id_res4f_branch2c
I0317 11:56:10.140127 17157 net.cpp:411] id_res4f -> id_res4f
I0317 11:56:10.140214 17157 net.cpp:150] Setting up id_res4f
I0317 11:56:10.140246 17157 net.cpp:157] Top shape: 16 1024 14 14 (3211264)
I0317 11:56:10.140264 17157 net.cpp:165] Memory required for data: 7222265792
I0317 11:56:10.140285 17157 layer_factory.hpp:77] Creating layer id_res4f_relu
I0317 11:56:10.140312 17157 net.cpp:106] Creating Layer id_res4f_relu
I0317 11:56:10.140334 17157 net.cpp:454] id_res4f_relu <- id_res4f
I0317 11:56:10.140359 17157 net.cpp:411] id_res4f_relu -> id_R4_res4f
I0317 11:56:10.140431 17157 net.cpp:150] Setting up id_res4f_relu
I0317 11:56:10.140463 17157 net.cpp:157] Top shape: 16 1024 14 14 (3211264)
I0317 11:56:10.140481 17157 net.cpp:165] Memory required for data: 7235110848
I0317 11:56:10.140499 17157 layer_factory.hpp:77] Creating layer id_R4_res4f_id_res4f_relu_0_split
I0317 11:56:10.140529 17157 net.cpp:106] Creating Layer id_R4_res4f_id_res4f_relu_0_split
I0317 11:56:10.140550 17157 net.cpp:454] id_R4_res4f_id_res4f_relu_0_split <- id_R4_res4f
I0317 11:56:10.140576 17157 net.cpp:411] id_R4_res4f_id_res4f_relu_0_split -> id_R4_res4f_id_res4f_relu_0_split_0
I0317 11:56:10.140604 17157 net.cpp:411] id_R4_res4f_id_res4f_relu_0_split -> id_R4_res4f_id_res4f_relu_0_split_1
I0317 11:56:10.140734 17157 net.cpp:150] Setting up id_R4_res4f_id_res4f_relu_0_split
I0317 11:56:10.140768 17157 net.cpp:157] Top shape: 16 1024 14 14 (3211264)
I0317 11:56:10.140789 17157 net.cpp:157] Top shape: 16 1024 14 14 (3211264)
I0317 11:56:10.140806 17157 net.cpp:165] Memory required for data: 7260800960
I0317 11:56:10.140825 17157 layer_factory.hpp:77] Creating layer id_res5a_branch1
I0317 11:56:10.140852 17157 net.cpp:106] Creating Layer id_res5a_branch1
I0317 11:56:10.140873 17157 net.cpp:454] id_res5a_branch1 <- id_R4_res4f_id_res4f_relu_0_split_0
I0317 11:56:10.140904 17157 net.cpp:411] id_res5a_branch1 -> id_res5a_branch1
I0317 11:56:10.150919 17157 net.cpp:150] Setting up id_res5a_branch1
I0317 11:56:10.150967 17157 net.cpp:157] Top shape: 16 2048 7 7 (1605632)
I0317 11:56:10.150986 17157 net.cpp:165] Memory required for data: 7267223488
I0317 11:56:10.151010 17157 layer_factory.hpp:77] Creating layer id_bn5a_branch1
I0317 11:56:10.151037 17157 net.cpp:106] Creating Layer id_bn5a_branch1
I0317 11:56:10.151058 17157 net.cpp:454] id_bn5a_branch1 <- id_res5a_branch1
I0317 11:56:10.151082 17157 net.cpp:397] id_bn5a_branch1 -> id_res5a_branch1 (in-place)
I0317 11:56:10.151603 17157 net.cpp:150] Setting up id_bn5a_branch1
I0317 11:56:10.151638 17157 net.cpp:157] Top shape: 16 2048 7 7 (1605632)
I0317 11:56:10.151657 17157 net.cpp:165] Memory required for data: 7273646016
I0317 11:56:10.151687 17157 layer_factory.hpp:77] Creating layer id_scale5a_branch1
I0317 11:56:10.151721 17157 net.cpp:106] Creating Layer id_scale5a_branch1
I0317 11:56:10.151742 17157 net.cpp:454] id_scale5a_branch1 <- id_res5a_branch1
I0317 11:56:10.151767 17157 net.cpp:397] id_scale5a_branch1 -> id_res5a_branch1 (in-place)
I0317 11:56:10.151891 17157 layer_factory.hpp:77] Creating layer id_scale5a_branch1
I0317 11:56:10.152212 17157 net.cpp:150] Setting up id_scale5a_branch1
I0317 11:56:10.152247 17157 net.cpp:157] Top shape: 16 2048 7 7 (1605632)
I0317 11:56:10.152277 17157 net.cpp:165] Memory required for data: 7280068544
I0317 11:56:10.152324 17157 layer_factory.hpp:77] Creating layer id_res5a_branch2a
I0317 11:56:10.152361 17157 net.cpp:106] Creating Layer id_res5a_branch2a
I0317 11:56:10.152384 17157 net.cpp:454] id_res5a_branch2a <- id_R4_res4f_id_res4f_relu_0_split_1
I0317 11:56:10.152416 17157 net.cpp:411] id_res5a_branch2a -> id_res5a_branch2a
I0317 11:56:10.155495 17157 net.cpp:150] Setting up id_res5a_branch2a
I0317 11:56:10.155539 17157 net.cpp:157] Top shape: 16 512 7 7 (401408)
I0317 11:56:10.155558 17157 net.cpp:165] Memory required for data: 7281674176
I0317 11:56:10.155582 17157 layer_factory.hpp:77] Creating layer id_bn5a_branch2a
I0317 11:56:10.155608 17157 net.cpp:106] Creating Layer id_bn5a_branch2a
I0317 11:56:10.155629 17157 net.cpp:454] id_bn5a_branch2a <- id_res5a_branch2a
I0317 11:56:10.155665 17157 net.cpp:397] id_bn5a_branch2a -> id_res5a_branch2a (in-place)
I0317 11:56:10.156158 17157 net.cpp:150] Setting up id_bn5a_branch2a
I0317 11:56:10.156193 17157 net.cpp:157] Top shape: 16 512 7 7 (401408)
I0317 11:56:10.156213 17157 net.cpp:165] Memory required for data: 7283279808
I0317 11:56:10.156244 17157 layer_factory.hpp:77] Creating layer id_scale5a_branch2a
I0317 11:56:10.156270 17157 net.cpp:106] Creating Layer id_scale5a_branch2a
I0317 11:56:10.156291 17157 net.cpp:454] id_scale5a_branch2a <- id_res5a_branch2a
I0317 11:56:10.156313 17157 net.cpp:397] id_scale5a_branch2a -> id_res5a_branch2a (in-place)
I0317 11:56:10.156438 17157 layer_factory.hpp:77] Creating layer id_scale5a_branch2a
I0317 11:56:10.156783 17157 net.cpp:150] Setting up id_scale5a_branch2a
I0317 11:56:10.156821 17157 net.cpp:157] Top shape: 16 512 7 7 (401408)
I0317 11:56:10.156838 17157 net.cpp:165] Memory required for data: 7284885440
I0317 11:56:10.156865 17157 layer_factory.hpp:77] Creating layer id_res5a_branch2a_relu
I0317 11:56:10.156890 17157 net.cpp:106] Creating Layer id_res5a_branch2a_relu
I0317 11:56:10.156911 17157 net.cpp:454] id_res5a_branch2a_relu <- id_res5a_branch2a
I0317 11:56:10.156940 17157 net.cpp:397] id_res5a_branch2a_relu -> id_res5a_branch2a (in-place)
I0317 11:56:10.156968 17157 net.cpp:150] Setting up id_res5a_branch2a_relu
I0317 11:56:10.156991 17157 net.cpp:157] Top shape: 16 512 7 7 (401408)
I0317 11:56:10.157009 17157 net.cpp:165] Memory required for data: 7286491072
I0317 11:56:10.157027 17157 layer_factory.hpp:77] Creating layer id_res5a_branch2b
I0317 11:56:10.157054 17157 net.cpp:106] Creating Layer id_res5a_branch2b
I0317 11:56:10.157074 17157 net.cpp:454] id_res5a_branch2b <- id_res5a_branch2a
I0317 11:56:10.157104 17157 net.cpp:411] id_res5a_branch2b -> id_res5a_branch2b
I0317 11:56:10.168323 17157 net.cpp:150] Setting up id_res5a_branch2b
I0317 11:56:10.168377 17157 net.cpp:157] Top shape: 16 512 7 7 (401408)
I0317 11:56:10.168397 17157 net.cpp:165] Memory required for data: 7288096704
I0317 11:56:10.168422 17157 layer_factory.hpp:77] Creating layer id_bn5a_branch2b
I0317 11:56:10.168450 17157 net.cpp:106] Creating Layer id_bn5a_branch2b
I0317 11:56:10.168473 17157 net.cpp:454] id_bn5a_branch2b <- id_res5a_branch2b
I0317 11:56:10.168498 17157 net.cpp:397] id_bn5a_branch2b -> id_res5a_branch2b (in-place)
I0317 11:56:10.169018 17157 net.cpp:150] Setting up id_bn5a_branch2b
I0317 11:56:10.169055 17157 net.cpp:157] Top shape: 16 512 7 7 (401408)
I0317 11:56:10.169075 17157 net.cpp:165] Memory required for data: 7289702336
I0317 11:56:10.169106 17157 layer_factory.hpp:77] Creating layer id_scale5a_branch2b
I0317 11:56:10.169138 17157 net.cpp:106] Creating Layer id_scale5a_branch2b
I0317 11:56:10.169162 17157 net.cpp:454] id_scale5a_branch2b <- id_res5a_branch2b
I0317 11:56:10.169184 17157 net.cpp:397] id_scale5a_branch2b -> id_res5a_branch2b (in-place)
I0317 11:56:10.169311 17157 layer_factory.hpp:77] Creating layer id_scale5a_branch2b
I0317 11:56:10.169627 17157 net.cpp:150] Setting up id_scale5a_branch2b
I0317 11:56:10.169661 17157 net.cpp:157] Top shape: 16 512 7 7 (401408)
I0317 11:56:10.169679 17157 net.cpp:165] Memory required for data: 7291307968
I0317 11:56:10.169721 17157 layer_factory.hpp:77] Creating layer id_res5a_branch2b_relu
I0317 11:56:10.169766 17157 net.cpp:106] Creating Layer id_res5a_branch2b_relu
I0317 11:56:10.169790 17157 net.cpp:454] id_res5a_branch2b_relu <- id_res5a_branch2b
I0317 11:56:10.169818 17157 net.cpp:397] id_res5a_branch2b_relu -> id_res5a_branch2b (in-place)
I0317 11:56:10.169847 17157 net.cpp:150] Setting up id_res5a_branch2b_relu
I0317 11:56:10.169872 17157 net.cpp:157] Top shape: 16 512 7 7 (401408)
I0317 11:56:10.169889 17157 net.cpp:165] Memory required for data: 7292913600
I0317 11:56:10.169909 17157 layer_factory.hpp:77] Creating layer id_res5a_branch2c
I0317 11:56:10.169942 17157 net.cpp:106] Creating Layer id_res5a_branch2c
I0317 11:56:10.169963 17157 net.cpp:454] id_res5a_branch2c <- id_res5a_branch2b
I0317 11:56:10.169988 17157 net.cpp:411] id_res5a_branch2c -> id_res5a_branch2c
I0317 11:56:10.175353 17157 net.cpp:150] Setting up id_res5a_branch2c
I0317 11:56:10.175397 17157 net.cpp:157] Top shape: 16 2048 7 7 (1605632)
I0317 11:56:10.175417 17157 net.cpp:165] Memory required for data: 7299336128
I0317 11:56:10.175441 17157 layer_factory.hpp:77] Creating layer id_bn5a_branch2c
I0317 11:56:10.175473 17157 net.cpp:106] Creating Layer id_bn5a_branch2c
I0317 11:56:10.175495 17157 net.cpp:454] id_bn5a_branch2c <- id_res5a_branch2c
I0317 11:56:10.175519 17157 net.cpp:397] id_bn5a_branch2c -> id_res5a_branch2c (in-place)
I0317 11:56:10.176026 17157 net.cpp:150] Setting up id_bn5a_branch2c
I0317 11:56:10.176061 17157 net.cpp:157] Top shape: 16 2048 7 7 (1605632)
I0317 11:56:10.176080 17157 net.cpp:165] Memory required for data: 7305758656
I0317 11:56:10.176111 17157 layer_factory.hpp:77] Creating layer id_scale5a_branch2c
I0317 11:56:10.176138 17157 net.cpp:106] Creating Layer id_scale5a_branch2c
I0317 11:56:10.176159 17157 net.cpp:454] id_scale5a_branch2c <- id_res5a_branch2c
I0317 11:56:10.176188 17157 net.cpp:397] id_scale5a_branch2c -> id_res5a_branch2c (in-place)
I0317 11:56:10.176311 17157 layer_factory.hpp:77] Creating layer id_scale5a_branch2c
I0317 11:56:10.176653 17157 net.cpp:150] Setting up id_scale5a_branch2c
I0317 11:56:10.176697 17157 net.cpp:157] Top shape: 16 2048 7 7 (1605632)
I0317 11:56:10.176717 17157 net.cpp:165] Memory required for data: 7312181184
I0317 11:56:10.176744 17157 layer_factory.hpp:77] Creating layer id_res5a
I0317 11:56:10.176770 17157 net.cpp:106] Creating Layer id_res5a
I0317 11:56:10.176793 17157 net.cpp:454] id_res5a <- id_res5a_branch1
I0317 11:56:10.176815 17157 net.cpp:454] id_res5a <- id_res5a_branch2c
I0317 11:56:10.176839 17157 net.cpp:411] id_res5a -> id_res5a
I0317 11:56:10.176924 17157 net.cpp:150] Setting up id_res5a
I0317 11:56:10.176955 17157 net.cpp:157] Top shape: 16 2048 7 7 (1605632)
I0317 11:56:10.176975 17157 net.cpp:165] Memory required for data: 7318603712
I0317 11:56:10.176992 17157 layer_factory.hpp:77] Creating layer id_res5a_relu
I0317 11:56:10.177016 17157 net.cpp:106] Creating Layer id_res5a_relu
I0317 11:56:10.177037 17157 net.cpp:454] id_res5a_relu <- id_res5a
I0317 11:56:10.177064 17157 net.cpp:397] id_res5a_relu -> id_res5a (in-place)
I0317 11:56:10.177093 17157 net.cpp:150] Setting up id_res5a_relu
I0317 11:56:10.177116 17157 net.cpp:157] Top shape: 16 2048 7 7 (1605632)
I0317 11:56:10.177134 17157 net.cpp:165] Memory required for data: 7325026240
I0317 11:56:10.177152 17157 layer_factory.hpp:77] Creating layer id_res5a_id_res5a_relu_0_split
I0317 11:56:10.177176 17157 net.cpp:106] Creating Layer id_res5a_id_res5a_relu_0_split
I0317 11:56:10.177196 17157 net.cpp:454] id_res5a_id_res5a_relu_0_split <- id_res5a
I0317 11:56:10.177219 17157 net.cpp:411] id_res5a_id_res5a_relu_0_split -> id_res5a_id_res5a_relu_0_split_0
I0317 11:56:10.177247 17157 net.cpp:411] id_res5a_id_res5a_relu_0_split -> id_res5a_id_res5a_relu_0_split_1
I0317 11:56:10.177355 17157 net.cpp:150] Setting up id_res5a_id_res5a_relu_0_split
I0317 11:56:10.177386 17157 net.cpp:157] Top shape: 16 2048 7 7 (1605632)
I0317 11:56:10.177408 17157 net.cpp:157] Top shape: 16 2048 7 7 (1605632)
I0317 11:56:10.177439 17157 net.cpp:165] Memory required for data: 7337871296
I0317 11:56:10.177479 17157 layer_factory.hpp:77] Creating layer id_res5b_branch2a
I0317 11:56:10.177518 17157 net.cpp:106] Creating Layer id_res5b_branch2a
I0317 11:56:10.177542 17157 net.cpp:454] id_res5b_branch2a <- id_res5a_id_res5a_relu_0_split_0
I0317 11:56:10.177567 17157 net.cpp:411] id_res5b_branch2a -> id_res5b_branch2a
I0317 11:56:10.182138 17157 net.cpp:150] Setting up id_res5b_branch2a
I0317 11:56:10.182184 17157 net.cpp:157] Top shape: 16 512 7 7 (401408)
I0317 11:56:10.182204 17157 net.cpp:165] Memory required for data: 7339476928
I0317 11:56:10.182227 17157 layer_factory.hpp:77] Creating layer id_bn5b_branch2a
I0317 11:56:10.182255 17157 net.cpp:106] Creating Layer id_bn5b_branch2a
I0317 11:56:10.182276 17157 net.cpp:454] id_bn5b_branch2a <- id_res5b_branch2a
I0317 11:56:10.182306 17157 net.cpp:397] id_bn5b_branch2a -> id_res5b_branch2a (in-place)
I0317 11:56:10.182807 17157 net.cpp:150] Setting up id_bn5b_branch2a
I0317 11:56:10.182842 17157 net.cpp:157] Top shape: 16 512 7 7 (401408)
I0317 11:56:10.182862 17157 net.cpp:165] Memory required for data: 7341082560
I0317 11:56:10.182891 17157 layer_factory.hpp:77] Creating layer id_scale5b_branch2a
I0317 11:56:10.182919 17157 net.cpp:106] Creating Layer id_scale5b_branch2a
I0317 11:56:10.182938 17157 net.cpp:454] id_scale5b_branch2a <- id_res5b_branch2a
I0317 11:56:10.182961 17157 net.cpp:397] id_scale5b_branch2a -> id_res5b_branch2a (in-place)
I0317 11:56:10.183087 17157 layer_factory.hpp:77] Creating layer id_scale5b_branch2a
I0317 11:56:10.183416 17157 net.cpp:150] Setting up id_scale5b_branch2a
I0317 11:56:10.183451 17157 net.cpp:157] Top shape: 16 512 7 7 (401408)
I0317 11:56:10.183470 17157 net.cpp:165] Memory required for data: 7342688192
I0317 11:56:10.183496 17157 layer_factory.hpp:77] Creating layer id_res5b_branch2a_relu
I0317 11:56:10.183521 17157 net.cpp:106] Creating Layer id_res5b_branch2a_relu
I0317 11:56:10.183542 17157 net.cpp:454] id_res5b_branch2a_relu <- id_res5b_branch2a
I0317 11:56:10.183570 17157 net.cpp:397] id_res5b_branch2a_relu -> id_res5b_branch2a (in-place)
I0317 11:56:10.183598 17157 net.cpp:150] Setting up id_res5b_branch2a_relu
I0317 11:56:10.183620 17157 net.cpp:157] Top shape: 16 512 7 7 (401408)
I0317 11:56:10.183639 17157 net.cpp:165] Memory required for data: 7344293824
I0317 11:56:10.183657 17157 layer_factory.hpp:77] Creating layer id_res5b_branch2b
I0317 11:56:10.183684 17157 net.cpp:106] Creating Layer id_res5b_branch2b
I0317 11:56:10.183703 17157 net.cpp:454] id_res5b_branch2b <- id_res5b_branch2a
I0317 11:56:10.183733 17157 net.cpp:411] id_res5b_branch2b -> id_res5b_branch2b
I0317 11:56:10.194847 17157 net.cpp:150] Setting up id_res5b_branch2b
I0317 11:56:10.194896 17157 net.cpp:157] Top shape: 16 512 7 7 (401408)
I0317 11:56:10.194916 17157 net.cpp:165] Memory required for data: 7345899456
I0317 11:56:10.194941 17157 layer_factory.hpp:77] Creating layer id_bn5b_branch2b
I0317 11:56:10.194967 17157 net.cpp:106] Creating Layer id_bn5b_branch2b
I0317 11:56:10.194989 17157 net.cpp:454] id_bn5b_branch2b <- id_res5b_branch2b
I0317 11:56:10.195013 17157 net.cpp:397] id_bn5b_branch2b -> id_res5b_branch2b (in-place)
I0317 11:56:10.195515 17157 net.cpp:150] Setting up id_bn5b_branch2b
I0317 11:56:10.195550 17157 net.cpp:157] Top shape: 16 512 7 7 (401408)
I0317 11:56:10.195569 17157 net.cpp:165] Memory required for data: 7347505088
I0317 11:56:10.195600 17157 layer_factory.hpp:77] Creating layer id_scale5b_branch2b
I0317 11:56:10.195633 17157 net.cpp:106] Creating Layer id_scale5b_branch2b
I0317 11:56:10.195657 17157 net.cpp:454] id_scale5b_branch2b <- id_res5b_branch2b
I0317 11:56:10.195680 17157 net.cpp:397] id_scale5b_branch2b -> id_res5b_branch2b (in-place)
I0317 11:56:10.195806 17157 layer_factory.hpp:77] Creating layer id_scale5b_branch2b
I0317 11:56:10.196137 17157 net.cpp:150] Setting up id_scale5b_branch2b
I0317 11:56:10.196171 17157 net.cpp:157] Top shape: 16 512 7 7 (401408)
I0317 11:56:10.196189 17157 net.cpp:165] Memory required for data: 7349110720
I0317 11:56:10.196230 17157 layer_factory.hpp:77] Creating layer id_res5b_branch2b_relu
I0317 11:56:10.196275 17157 net.cpp:106] Creating Layer id_res5b_branch2b_relu
I0317 11:56:10.196298 17157 net.cpp:454] id_res5b_branch2b_relu <- id_res5b_branch2b
I0317 11:56:10.196326 17157 net.cpp:397] id_res5b_branch2b_relu -> id_res5b_branch2b (in-place)
I0317 11:56:10.196354 17157 net.cpp:150] Setting up id_res5b_branch2b_relu
I0317 11:56:10.196378 17157 net.cpp:157] Top shape: 16 512 7 7 (401408)
I0317 11:56:10.196396 17157 net.cpp:165] Memory required for data: 7350716352
I0317 11:56:10.196414 17157 layer_factory.hpp:77] Creating layer id_res5b_branch2c
I0317 11:56:10.196447 17157 net.cpp:106] Creating Layer id_res5b_branch2c
I0317 11:56:10.196467 17157 net.cpp:454] id_res5b_branch2c <- id_res5b_branch2b
I0317 11:56:10.196491 17157 net.cpp:411] id_res5b_branch2c -> id_res5b_branch2c
I0317 11:56:10.201871 17157 net.cpp:150] Setting up id_res5b_branch2c
I0317 11:56:10.201917 17157 net.cpp:157] Top shape: 16 2048 7 7 (1605632)
I0317 11:56:10.201936 17157 net.cpp:165] Memory required for data: 7357138880
I0317 11:56:10.201961 17157 layer_factory.hpp:77] Creating layer id_bn5b_branch2c
I0317 11:56:10.201993 17157 net.cpp:106] Creating Layer id_bn5b_branch2c
I0317 11:56:10.202015 17157 net.cpp:454] id_bn5b_branch2c <- id_res5b_branch2c
I0317 11:56:10.202039 17157 net.cpp:397] id_bn5b_branch2c -> id_res5b_branch2c (in-place)
I0317 11:56:10.202539 17157 net.cpp:150] Setting up id_bn5b_branch2c
I0317 11:56:10.202574 17157 net.cpp:157] Top shape: 16 2048 7 7 (1605632)
I0317 11:56:10.202592 17157 net.cpp:165] Memory required for data: 7363561408
I0317 11:56:10.202622 17157 layer_factory.hpp:77] Creating layer id_scale5b_branch2c
I0317 11:56:10.202649 17157 net.cpp:106] Creating Layer id_scale5b_branch2c
I0317 11:56:10.202671 17157 net.cpp:454] id_scale5b_branch2c <- id_res5b_branch2c
I0317 11:56:10.202706 17157 net.cpp:397] id_scale5b_branch2c -> id_res5b_branch2c (in-place)
I0317 11:56:10.202836 17157 layer_factory.hpp:77] Creating layer id_scale5b_branch2c
I0317 11:56:10.203164 17157 net.cpp:150] Setting up id_scale5b_branch2c
I0317 11:56:10.203204 17157 net.cpp:157] Top shape: 16 2048 7 7 (1605632)
I0317 11:56:10.203224 17157 net.cpp:165] Memory required for data: 7369983936
I0317 11:56:10.203250 17157 layer_factory.hpp:77] Creating layer id_res5b
I0317 11:56:10.203277 17157 net.cpp:106] Creating Layer id_res5b
I0317 11:56:10.203299 17157 net.cpp:454] id_res5b <- id_res5a_id_res5a_relu_0_split_1
I0317 11:56:10.203320 17157 net.cpp:454] id_res5b <- id_res5b_branch2c
I0317 11:56:10.203343 17157 net.cpp:411] id_res5b -> id_res5b
I0317 11:56:10.203426 17157 net.cpp:150] Setting up id_res5b
I0317 11:56:10.203459 17157 net.cpp:157] Top shape: 16 2048 7 7 (1605632)
I0317 11:56:10.203477 17157 net.cpp:165] Memory required for data: 7376406464
I0317 11:56:10.203496 17157 layer_factory.hpp:77] Creating layer id_res5b_relu
I0317 11:56:10.203519 17157 net.cpp:106] Creating Layer id_res5b_relu
I0317 11:56:10.203539 17157 net.cpp:454] id_res5b_relu <- id_res5b
I0317 11:56:10.203567 17157 net.cpp:397] id_res5b_relu -> id_res5b (in-place)
I0317 11:56:10.203594 17157 net.cpp:150] Setting up id_res5b_relu
I0317 11:56:10.203619 17157 net.cpp:157] Top shape: 16 2048 7 7 (1605632)
I0317 11:56:10.203635 17157 net.cpp:165] Memory required for data: 7382828992
I0317 11:56:10.203655 17157 layer_factory.hpp:77] Creating layer id_res5b_id_res5b_relu_0_split
I0317 11:56:10.203677 17157 net.cpp:106] Creating Layer id_res5b_id_res5b_relu_0_split
I0317 11:56:10.203696 17157 net.cpp:454] id_res5b_id_res5b_relu_0_split <- id_res5b
I0317 11:56:10.203718 17157 net.cpp:411] id_res5b_id_res5b_relu_0_split -> id_res5b_id_res5b_relu_0_split_0
I0317 11:56:10.203745 17157 net.cpp:411] id_res5b_id_res5b_relu_0_split -> id_res5b_id_res5b_relu_0_split_1
I0317 11:56:10.203855 17157 net.cpp:150] Setting up id_res5b_id_res5b_relu_0_split
I0317 11:56:10.203886 17157 net.cpp:157] Top shape: 16 2048 7 7 (1605632)
I0317 11:56:10.203907 17157 net.cpp:157] Top shape: 16 2048 7 7 (1605632)
I0317 11:56:10.203938 17157 net.cpp:165] Memory required for data: 7395674048
I0317 11:56:10.203975 17157 layer_factory.hpp:77] Creating layer id_res5c_branch2a
I0317 11:56:10.204011 17157 net.cpp:106] Creating Layer id_res5c_branch2a
I0317 11:56:10.204035 17157 net.cpp:454] id_res5c_branch2a <- id_res5b_id_res5b_relu_0_split_0
I0317 11:56:10.204061 17157 net.cpp:411] id_res5c_branch2a -> id_res5c_branch2a
I0317 11:56:10.209442 17157 net.cpp:150] Setting up id_res5c_branch2a
I0317 11:56:10.209487 17157 net.cpp:157] Top shape: 16 512 7 7 (401408)
I0317 11:56:10.209507 17157 net.cpp:165] Memory required for data: 7397279680
I0317 11:56:10.209532 17157 layer_factory.hpp:77] Creating layer id_bn5c_branch2a
I0317 11:56:10.209558 17157 net.cpp:106] Creating Layer id_bn5c_branch2a
I0317 11:56:10.209579 17157 net.cpp:454] id_bn5c_branch2a <- id_res5c_branch2a
I0317 11:56:10.209609 17157 net.cpp:397] id_bn5c_branch2a -> id_res5c_branch2a (in-place)
I0317 11:56:10.210103 17157 net.cpp:150] Setting up id_bn5c_branch2a
I0317 11:56:10.210139 17157 net.cpp:157] Top shape: 16 512 7 7 (401408)
I0317 11:56:10.210156 17157 net.cpp:165] Memory required for data: 7398885312
I0317 11:56:10.210187 17157 layer_factory.hpp:77] Creating layer id_scale5c_branch2a
I0317 11:56:10.210214 17157 net.cpp:106] Creating Layer id_scale5c_branch2a
I0317 11:56:10.210235 17157 net.cpp:454] id_scale5c_branch2a <- id_res5c_branch2a
I0317 11:56:10.210258 17157 net.cpp:397] id_scale5c_branch2a -> id_res5c_branch2a (in-place)
I0317 11:56:10.210386 17157 layer_factory.hpp:77] Creating layer id_scale5c_branch2a
I0317 11:56:10.210713 17157 net.cpp:150] Setting up id_scale5c_branch2a
I0317 11:56:10.210747 17157 net.cpp:157] Top shape: 16 512 7 7 (401408)
I0317 11:56:10.210767 17157 net.cpp:165] Memory required for data: 7400490944
I0317 11:56:10.210793 17157 layer_factory.hpp:77] Creating layer id_res5c_branch2a_relu
I0317 11:56:10.210817 17157 net.cpp:106] Creating Layer id_res5c_branch2a_relu
I0317 11:56:10.210839 17157 net.cpp:454] id_res5c_branch2a_relu <- id_res5c_branch2a
I0317 11:56:10.210866 17157 net.cpp:397] id_res5c_branch2a_relu -> id_res5c_branch2a (in-place)
I0317 11:56:10.210894 17157 net.cpp:150] Setting up id_res5c_branch2a_relu
I0317 11:56:10.210917 17157 net.cpp:157] Top shape: 16 512 7 7 (401408)
I0317 11:56:10.210937 17157 net.cpp:165] Memory required for data: 7402096576
I0317 11:56:10.210954 17157 layer_factory.hpp:77] Creating layer id_res5c_branch2b
I0317 11:56:10.210981 17157 net.cpp:106] Creating Layer id_res5c_branch2b
I0317 11:56:10.211001 17157 net.cpp:454] id_res5c_branch2b <- id_res5c_branch2a
I0317 11:56:10.211031 17157 net.cpp:411] id_res5c_branch2b -> id_res5c_branch2b
I0317 11:56:10.222142 17157 net.cpp:150] Setting up id_res5c_branch2b
I0317 11:56:10.222188 17157 net.cpp:157] Top shape: 16 512 7 7 (401408)
I0317 11:56:10.222208 17157 net.cpp:165] Memory required for data: 7403702208
I0317 11:56:10.222232 17157 layer_factory.hpp:77] Creating layer id_bn5c_branch2b
I0317 11:56:10.222267 17157 net.cpp:106] Creating Layer id_bn5c_branch2b
I0317 11:56:10.222290 17157 net.cpp:454] id_bn5c_branch2b <- id_res5c_branch2b
I0317 11:56:10.222312 17157 net.cpp:397] id_bn5c_branch2b -> id_res5c_branch2b (in-place)
I0317 11:56:10.222831 17157 net.cpp:150] Setting up id_bn5c_branch2b
I0317 11:56:10.222865 17157 net.cpp:157] Top shape: 16 512 7 7 (401408)
I0317 11:56:10.222884 17157 net.cpp:165] Memory required for data: 7405307840
I0317 11:56:10.222915 17157 layer_factory.hpp:77] Creating layer id_scale5c_branch2b
I0317 11:56:10.222949 17157 net.cpp:106] Creating Layer id_scale5c_branch2b
I0317 11:56:10.222970 17157 net.cpp:454] id_scale5c_branch2b <- id_res5c_branch2b
I0317 11:56:10.222995 17157 net.cpp:397] id_scale5c_branch2b -> id_res5c_branch2b (in-place)
I0317 11:56:10.223122 17157 layer_factory.hpp:77] Creating layer id_scale5c_branch2b
I0317 11:56:10.223448 17157 net.cpp:150] Setting up id_scale5c_branch2b
I0317 11:56:10.223482 17157 net.cpp:157] Top shape: 16 512 7 7 (401408)
I0317 11:56:10.223501 17157 net.cpp:165] Memory required for data: 7406913472
I0317 11:56:10.223558 17157 layer_factory.hpp:77] Creating layer id_res5c_branch2b_relu
I0317 11:56:10.223585 17157 net.cpp:106] Creating Layer id_res5c_branch2b_relu
I0317 11:56:10.223606 17157 net.cpp:454] id_res5c_branch2b_relu <- id_res5c_branch2b
I0317 11:56:10.223634 17157 net.cpp:397] id_res5c_branch2b_relu -> id_res5c_branch2b (in-place)
I0317 11:56:10.223662 17157 net.cpp:150] Setting up id_res5c_branch2b_relu
I0317 11:56:10.223687 17157 net.cpp:157] Top shape: 16 512 7 7 (401408)
I0317 11:56:10.223704 17157 net.cpp:165] Memory required for data: 7408519104
I0317 11:56:10.223723 17157 layer_factory.hpp:77] Creating layer id_res5c_branch2c
I0317 11:56:10.223757 17157 net.cpp:106] Creating Layer id_res5c_branch2c
I0317 11:56:10.223778 17157 net.cpp:454] id_res5c_branch2c <- id_res5c_branch2b
I0317 11:56:10.223803 17157 net.cpp:411] id_res5c_branch2c -> id_res5c_branch2c
I0317 11:56:10.229163 17157 net.cpp:150] Setting up id_res5c_branch2c
I0317 11:56:10.229210 17157 net.cpp:157] Top shape: 16 2048 7 7 (1605632)
I0317 11:56:10.229229 17157 net.cpp:165] Memory required for data: 7414941632
I0317 11:56:10.229254 17157 layer_factory.hpp:77] Creating layer id_bn5c_branch2c
I0317 11:56:10.229285 17157 net.cpp:106] Creating Layer id_bn5c_branch2c
I0317 11:56:10.229308 17157 net.cpp:454] id_bn5c_branch2c <- id_res5c_branch2c
I0317 11:56:10.229332 17157 net.cpp:397] id_bn5c_branch2c -> id_res5c_branch2c (in-place)
I0317 11:56:10.229843 17157 net.cpp:150] Setting up id_bn5c_branch2c
I0317 11:56:10.229879 17157 net.cpp:157] Top shape: 16 2048 7 7 (1605632)
I0317 11:56:10.229897 17157 net.cpp:165] Memory required for data: 7421364160
I0317 11:56:10.229928 17157 layer_factory.hpp:77] Creating layer id_scale5c_branch2c
I0317 11:56:10.229954 17157 net.cpp:106] Creating Layer id_scale5c_branch2c
I0317 11:56:10.229976 17157 net.cpp:454] id_scale5c_branch2c <- id_res5c_branch2c
I0317 11:56:10.230005 17157 net.cpp:397] id_scale5c_branch2c -> id_res5c_branch2c (in-place)
I0317 11:56:10.231168 17157 layer_factory.hpp:77] Creating layer id_scale5c_branch2c
I0317 11:56:10.231499 17157 net.cpp:150] Setting up id_scale5c_branch2c
I0317 11:56:10.231535 17157 net.cpp:157] Top shape: 16 2048 7 7 (1605632)
I0317 11:56:10.231554 17157 net.cpp:165] Memory required for data: 7427786688
I0317 11:56:10.231581 17157 layer_factory.hpp:77] Creating layer id_res5c
I0317 11:56:10.231607 17157 net.cpp:106] Creating Layer id_res5c
I0317 11:56:10.231629 17157 net.cpp:454] id_res5c <- id_res5b_id_res5b_relu_0_split_1
I0317 11:56:10.231657 17157 net.cpp:454] id_res5c <- id_res5c_branch2c
I0317 11:56:10.231683 17157 net.cpp:411] id_res5c -> id_res5c
I0317 11:56:10.231767 17157 net.cpp:150] Setting up id_res5c
I0317 11:56:10.231801 17157 net.cpp:157] Top shape: 16 2048 7 7 (1605632)
I0317 11:56:10.231818 17157 net.cpp:165] Memory required for data: 7434209216
I0317 11:56:10.231837 17157 layer_factory.hpp:77] Creating layer id_res5c_relu
I0317 11:56:10.231861 17157 net.cpp:106] Creating Layer id_res5c_relu
I0317 11:56:10.231881 17157 net.cpp:454] id_res5c_relu <- id_res5c
I0317 11:56:10.231904 17157 net.cpp:397] id_res5c_relu -> id_res5c (in-place)
I0317 11:56:10.231930 17157 net.cpp:150] Setting up id_res5c_relu
I0317 11:56:10.231953 17157 net.cpp:157] Top shape: 16 2048 7 7 (1605632)
I0317 11:56:10.231971 17157 net.cpp:165] Memory required for data: 7440631744
I0317 11:56:10.231989 17157 layer_factory.hpp:77] Creating layer concat_R5
I0317 11:56:10.232033 17157 net.cpp:106] Creating Layer concat_R5
I0317 11:56:10.232058 17157 net.cpp:454] concat_R5 <- res5c_res5c_relu_0_split_1
I0317 11:56:10.232079 17157 net.cpp:454] concat_R5 <- id_res5c
I0317 11:56:10.232105 17157 net.cpp:411] concat_R5 -> concat_R5
I0317 11:56:10.232199 17157 net.cpp:150] Setting up concat_R5
I0317 11:56:10.232233 17157 net.cpp:157] Top shape: 16 4096 7 7 (3211264)
I0317 11:56:10.232250 17157 net.cpp:165] Memory required for data: 7453476800
I0317 11:56:10.232270 17157 layer_factory.hpp:77] Creating layer conv_R5
I0317 11:56:10.232309 17157 net.cpp:106] Creating Layer conv_R5
I0317 11:56:10.232362 17157 net.cpp:454] conv_R5 <- concat_R5
I0317 11:56:10.232393 17157 net.cpp:411] conv_R5 -> id_R5_res5c
I0317 11:56:10.729092 17157 net.cpp:150] Setting up conv_R5
I0317 11:56:10.729185 17157 net.cpp:157] Top shape: 16 2048 7 7 (1605632)
I0317 11:56:10.729198 17157 net.cpp:165] Memory required for data: 7459899328
I0317 11:56:10.729259 17157 layer_factory.hpp:77] Creating layer id_pool5
I0317 11:56:10.729296 17157 net.cpp:106] Creating Layer id_pool5
I0317 11:56:10.729354 17157 net.cpp:454] id_pool5 <- id_R5_res5c
I0317 11:56:10.729398 17157 net.cpp:411] id_pool5 -> id_pool5
I0317 11:56:10.729507 17157 net.cpp:150] Setting up id_pool5
I0317 11:56:10.729526 17157 net.cpp:157] Top shape: 16 2048 1 1 (32768)
I0317 11:56:10.729534 17157 net.cpp:165] Memory required for data: 7460030400
I0317 11:56:10.729544 17157 layer_factory.hpp:77] Creating layer fc
I0317 11:56:10.729564 17157 net.cpp:106] Creating Layer fc
I0317 11:56:10.729617 17157 net.cpp:454] fc <- pool5
I0317 11:56:10.729643 17157 net.cpp:411] fc -> fc
I0317 11:56:10.732203 17157 net.cpp:150] Setting up fc
I0317 11:56:10.732223 17157 net.cpp:157] Top shape: 16 30 (480)
I0317 11:56:10.732234 17157 net.cpp:165] Memory required for data: 7460032320
I0317 11:56:10.732246 17157 layer_factory.hpp:77] Creating layer loss_pos30
I0317 11:56:10.732272 17157 net.cpp:106] Creating Layer loss_pos30
I0317 11:56:10.732285 17157 net.cpp:454] loss_pos30 <- fc
I0317 11:56:10.732321 17157 net.cpp:454] loss_pos30 <- labels
I0317 11:56:10.732336 17157 net.cpp:411] loss_pos30 -> loss_pos30
I0317 11:56:10.732530 17157 net.cpp:150] Setting up loss_pos30
I0317 11:56:10.732548 17157 net.cpp:157] Top shape: (1)
I0317 11:56:10.732558 17157 net.cpp:165] Memory required for data: 7460032324
I0317 11:56:10.732568 17157 layer_factory.hpp:77] Creating layer id_fc
I0317 11:56:10.732583 17157 net.cpp:106] Creating Layer id_fc
I0317 11:56:10.732594 17157 net.cpp:454] id_fc <- id_pool5
I0317 11:56:10.732609 17157 net.cpp:411] id_fc -> id_fc
I0317 11:56:10.792490 17157 net.cpp:150] Setting up id_fc
I0317 11:56:10.792512 17157 net.cpp:157] Top shape: 16 751 (12016)
I0317 11:56:10.792523 17157 net.cpp:165] Memory required for data: 7460080388
I0317 11:56:10.792537 17157 layer_factory.hpp:77] Creating layer id_loss_id
I0317 11:56:10.792562 17157 net.cpp:106] Creating Layer id_loss_id
I0317 11:56:10.792574 17157 net.cpp:454] id_loss_id <- id_fc
I0317 11:56:10.792590 17157 net.cpp:454] id_loss_id <- id_label
I0317 11:56:10.792608 17157 net.cpp:411] id_loss_id -> id_loss_id
…
