…
  include {
    phase: TRAIN
  }
  transform_param {
    mirror: false
    mean_file: "/home/lizhuowan/Market1501/lmdb/lmdb_12936/Image_lmdb_12936.binaryproto"
  }
  data_param {
    source: "/home/lizhuowan/Market1501/lmdb/lmdb_12936/Image_lmdb_12936"
    batch_size: 8
    backend: LMDB
  }
}
layer {
  name: "data"
  type: "Data"
  top: "labels"
  include {
    phase: TRAIN
  }
  transform_param {
    mean_value: 112
  }
  data_param {
    source: "/home/lizhuowan/Market1501/lmdb/lmdb_12936/pos30_lmdb_12936"
    batch_size: 8
    backend: LMDB
  }
}
layer {
  name: "conv1"
  type: "Convolution"
  bottom: "data"
  top: "conv1"
  convolution_param {
    num_output: 64
    bias_term: false
    pad: 3
    kernel_size: 7
    stride: 2
  }
}
layer {
  name: "bn_conv1"
  type: "BatchNorm"
  bottom: "conv1"
  top: "conv1"
  batch_norm_param {
    use_global_stats: true
  }
}
layer {
  name: "scale_conv1"
  type: "Scale"
  bottom: "conv1"
  top: "conv1"
  scale_param {
    bias_term: true
  }
}
layer {
  name: "conv1_relu"
  type: "ReLU"
  bottom: "conv1"
  top: "conv1"
}
layer {
  name: "pool1"
  type: "Pooling"
  bottom: "conv1"
  top: "pool1"
  pooling_param {
    pool: MAX
    kernel_size: 3
    stride: 2
  }
}
layer {
  name: "res2a_branch1"
  type: "Convolution"
  bottom: "pool1"
  top: "res2a_branch1"
  convolution_param {
    num_output: 256
    bias_term: false
    pad: 0
    kernel_size: 1
    stride: 1
  }
}
layer {
  name: "bn2a_branch1"
  type: "BatchNorm"
  bottom: "res2a_branch1"
  top: "res2a_branch1"
  batch_norm_param {
    use_global_stats: true
  }
}
layer {
  name: "scale2a_branch1"
  type: "Scale"
  bottom: "res2a_branch1"
  top: "res2a_branch1"
  scale_param {
    bias_term: true
  }
}
layer {
  name: "res2a_branch2a"
  type: "Convolution"
  bottom: "pool1"
  top: "res2a_branch2a"
  convolution_param {
    num_output: 64
    bias_term: false
    pad: 0
    kernel_size: 1
    stride: 1
  }
}
layer {
  name: "bn2a_branch2a"
  type: "BatchNorm"
  bottom: "res2a_branch2a"
  top: "res2a_branch2a"
  batch_norm_param {
    use_global_stats: true
  }
}
layer {
  name: "scale2a_branch2a"
  type: "Scale"
  bottom: "res2a_branch2a"
  top: "res2a_branch2a"
  scale_param {
    bias_term: true
  }
}
layer {
  name: "res2a_branch2a_relu"
  type: "ReLU"
  bottom: "res2a_branch2a"
  top: "res2a_branch2a"
}
layer {
  name: "res2a_branch2b"
  type: "Convolution"
  bottom: "res2a_branch2a"
  top: "res2a_branch2b"
  convolution_param {
    num_output: 64
    bias_term: false
    pad: 1
    kernel_size: 3
    stride: 1
  }
}
layer {
  name: "bn2a_branch2b"
  type: "BatchNorm"
  bottom: "res2a_branch2b"
  top: "res2a_branch2b"
  batch_norm_param {
    use_global_stats: true
  }
}
layer {
  name: "scale2a_branch2b"
  type: "Scale"
  bottom: "res2a_branch2b"
  top: "res2a_branch2b"
  scale_param {
    bias_term: true
  }
}
layer {
  name: "res2a_branch2b_relu"
  type: "ReLU"
  bottom: "res2a_branch2b"
  top: "res2a_branch2b"
}
layer {
  name: "res2a_branch2c"
  type: "Convolution"
  bottom: "res2a_branch2b"
  top: "res2a_branch2c"
  convolution_param {
    num_output: 256
    bias_term: false
    pad: 0
    kernel_size: 1
    stride: 1
  }
}
layer {
  name: "bn2a_branch2c"
  type: "BatchNorm"
  bottom: "res2a_branch2c"
  top: "res2a_branch2c"
  batch_norm_param {
    use_global_stats: true
  }
}
layer {
  name: "scale2a_branch2c"
  type: "Scale"
  bottom: "res2a_branch2c"
  top: "res2a_branch2c"
  scale_param {
    bias_term: true
  }
}
layer {
  name: "res2a"
  type: "Eltwise"
  bottom: "res2a_branch1"
  bottom: "res2a_branch2c"
  top: "res2a"
}
layer {
  name: "res2a_relu"
  type: "ReLU"
  bottom: "res2a"
  top: "res2a"
}
layer {
  name: "res2b_branch2a"
  type: "Convolution"
  bottom: "res2a"
  top: "res2b_branch2a"
  convolution_param {
    num_output: 64
    bias_term: false
    pad: 0
    kernel_size: 1
    stride: 1
  }
}
layer {
  name: "bn2b_branch2a"
  type: "BatchNorm"
  bottom: "res2b_branch2a"
  top: "res2b_branch2a"
  batch_norm_param {
    use_global_stats: true
  }
}
layer {
  name: "scale2b_branch2a"
  type: "Scale"
  bottom: "res2b_branch2a"
  top: "res2b_branch2a"
  scale_param {
    bias_term: true
  }
}
layer {
  name: "res2b_branch2a_relu"
  type: "ReLU"
  bottom: "res2b_branch2a"
  top: "res2b_branch2a"
}
layer {
  name: "res2b_branch2b"
  type: "Convolution"
  bottom: "res2b_branch2a"
  top: "res2b_branch2b"
  convolution_param {
    num_output: 64
    bias_term: false
    pad: 1
    kernel_size: 3
    stride: 1
  }
}
layer {
  name: "bn2b_branch2b"
  type: "BatchNorm"
  bottom: "res2b_branch2b"
  top: "res2b_branch2b"
  batch_norm_param {
    use_global_stats: true
  }
}
layer {
  name: "scale2b_branch2b"
  type: "Scale"
  bottom: "res2b_branch2b"
  top: "res2b_branch2b"
  scale_param {
    bias_term: true
  }
}
layer {
  name: "res2b_branch2b_relu"
  type: "ReLU"
  bottom: "res2b_branch2b"
  top: "res2b_branch2b"
}
layer {
  name: "res2b_branch2c"
  type: "Convolution"
  bottom: "res2b_branch2b"
  top: "res2b_branch2c"
  convolution_param {
    num_output: 256
    bias_term: false
    pad: 0
    kernel_size: 1
    stride: 1
  }
}
layer {
  name: "bn2b_branch2c"
  type: "BatchNorm"
  bottom: "res2b_branch2c"
  top: "res2b_branch2c"
  batch_norm_param {
    use_global_stats: true
  }
}
layer {
  name: "scale2b_branch2c"
  type: "Scale"
  bottom: "res2b_branch2c"
  top: "res2b_branch2c"
  scale_param {
    bias_term: true
  }
}
layer {
  name: "res2b"
  type: "Eltwise"
  bottom: "res2a"
  bottom: "res2b_branch2c"
  top: "res2b"
}
layer {
  name: "res2b_relu"
  type: "ReLU"
  bottom: "res2b"
  top: "res2b"
}
layer {
  name: "res2c_branch2a"
  type: "Convolution"
  bottom: "res2b"
  top: "res2c_branch2a"
  convolution_param {
    num_output: 64
    bias_term: false
    pad: 0
    kernel_size: 1
    stride: 1
  }
}
layer {
  name: "bn2c_branch2a"
  type: "BatchNorm"
  bottom: "res2c_branch2a"
  top: "res2c_branch2a"
  batch_norm_param {
    use_global_stats: true
  }
}
layer {
  name: "scale2c_branch2a"
  type: "Scale"
  bottom: "res2c_branch2a"
  top: "res2c_branch2a"
  scale_param {
    bias_term: true
  }
}
layer {
  name: "res2c_branch2a_relu"
  type: "ReLU"
  bottom: "res2c_branch2a"
  top: "res2c_branch2a"
}
layer {
  name: "res2c_branch2b"
  type: "Convolution"
  bottom: "res2c_branch2a"
  top: "res2c_branch2b"
  convolution_param {
    num_output: 64
    bias_term: false
    pad: 1
    kernel_size: 3
    stride: 1
  }
}
layer {
  name: "bn2c_branch2b"
  type: "BatchNorm"
  bottom: "res2c_branch2b"
  top: "res2c_branch2b"
  batch_norm_param {
    use_global_stats: true
  }
}
layer {
  name: "scale2c_branch2b"
  type: "Scale"
  bottom: "res2c_branch2b"
  top: "res2c_branch2b"
  scale_param {
    bias_term: true
  }
}
layer {
  name: "res2c_branch2b_relu"
  type: "ReLU"
  bottom: "res2c_branch2b"
  top: "res2c_branch2b"
}
layer {
  name: "res2c_branch2c"
  type: "Convolution"
  bottom: "res2c_branch2b"
  top: "res2c_branch2c"
  convolution_param {
    num_output: 256
    bias_term: false
    pad: 0
    kernel_size: 1
    stride: 1
  }
}
layer {
  name: "bn2c_branch2c"
  type: "BatchNorm"
  bottom: "res2c_branch2c"
  top: "res2c_branch2c"
  batch_norm_param {
    use_global_stats: true
  }
}
layer {
  name: "scale2c_branch2c"
  type: "Scale"
  bottom: "res2c_branch2c"
  top: "res2c_branch2c"
  scale_param {
    bias_term: true
  }
}
layer {
  name: "res2c"
  type: "Eltwise"
  bottom: "res2b"
  bottom: "res2c_branch2c"
  top: "res2c"
}
layer {
  name: "res2c_relu"
  type: "ReLU"
  bottom: "res2c"
  top: "res2c"
}
layer {
  name: "res3a_branch1"
  type: "Convolution"
  bottom: "res2c"
  top: "res3a_branch1"
  convolution_param {
    num_output: 512
    bias_term: false
    pad: 0
    kernel_size: 1
    stride: 2
  }
}
layer {
  name: "bn3a_branch1"
  type: "BatchNorm"
  bottom: "res3a_branch1"
  top: "res3a_branch1"
  batch_norm_param {
    use_global_stats: true
  }
}
layer {
  name: "scale3a_branch1"
  type: "Scale"
  bottom: "res3a_branch1"
  top: "res3a_branch1"
  scale_param {
    bias_term: true
  }
}
layer {
  name: "res3a_branch2a"
  type: "Convolution"
  bottom: "res2c"
  top: "res3a_branch2a"
  convolution_param {
    num_output: 128
    bias_term: false
    pad: 0
    kernel_size: 1
    stride: 2
  }
}
layer {
  name: "bn3a_branch2a"
  type: "BatchNorm"
  bottom: "res3a_branch2a"
  top: "res3a_branch2a"
  batch_norm_param {
    use_global_stats: true
  }
}
layer {
  name: "scale3a_branch2a"
  type: "Scale"
  bottom: "res3a_branch2a"
  top: "res3a_branch2a"
  scale_param {
    bias_term: true
  }
}
layer {
  name: "res3a_branch2a_relu"
  type: "ReLU"
  bottom: "res3a_branch2a"
  top: "res3a_branch2a"
}
layer {
  name: "res3a_branch2b"
  type: "Convolution"
  bottom: "res3a_branch2a"
  top: "res3a_branch2b"
  convolution_param {
    num_output: 128
    bias_term: false
    pad: 1
    kernel_size: 3
    stride: 1
  }
}
layer {
  name: "bn3a_branch2b"
  type: "BatchNorm"
  bottom: "res3a_branch2b"
  top: "res3a_branch2b"
  batch_norm_param {
    use_global_stats: true
  }
}
layer {
  name: "scale3a_branch2b"
  type: "Scale"
  bottom: "res3a_branch2b"
  top: "res3a_branch2b"
  scale_param {
    bias_term: true
  }
}
layer {
  name: "res3a_branch2b_relu"
  type: "ReLU"
  bottom: "res3a_branch2b"
  top: "res3a_branch2b"
}
layer {
  name: "res3a_branch2c"
  type: "Convolution"
  bottom: "res3a_branch2b"
  top: "res3a_branch2c"
  convolution_param {
    num_output: 512
    bias_term: false
    pad: 0
    kernel_size: 1
    stride: 1
  }
}
layer {
  name: "bn3a_branch2c"
  type: "BatchNorm"
  bottom: "res3a_branch2c"
  top: "res3a_branch2c"
  batch_norm_param {
    use_global_stats: true
  }
}
layer {
  name: "scale3a_branch2c"
  type: "Scale"
  bottom: "res3a_branch2c"
  top: "res3a_branch2c"
  scale_param {
    bias_term: true
  }
}
layer {
  name: "res3a"
  type: "Eltwise"
  bottom: "res3a_branch1"
  bottom: "res3a_branch2c"
  top: "res3a"
}
layer {
  name: "res3a_relu"
  type: "ReLU"
  bottom: "res3a"
  top: "res3a"
}
layer {
  name: "res3b1_branch2a"
  type: "Convolution"
  bottom: "res3a"
  top: "res3b1_branch2a"
  convolution_param {
    num_output: 128
    bias_term: false
    pad: 0
    kernel_size: 1
    stride: 1
  }
}
layer {
  name: "bn3b1_branch2a"
  type: "BatchNorm"
  bottom: "res3b1_branch2a"
  top: "res3b1_branch2a"
  batch_norm_param {
    use_global_stats: true
  }
}
layer {
  name: "scale3b1_branch2a"
  type: "Scale"
  bottom: "res3b1_branch2a"
  top: "res3b1_branch2a"
  scale_param {
    bias_term: true
  }
}
layer {
  name: "res3b1_branch2a_relu"
  type: "ReLU"
  bottom: "res3b1_branch2a"
  top: "res3b1_branch2a"
}
layer {
  name: "res3b1_branch2b"
  type: "Convolution"
  bottom: "res3b1_branch2a"
  top: "res3b1_branch2b"
  convolution_param {
    num_output: 128
    bias_term: false
    pad: 1
    kernel_size: 3
    stride: 1
  }
}
layer {
  name: "bn3b1_branch2b"
  type: "BatchNorm"
  bottom: "res3b1_branch2b"
  top: "res3b1_branch2b"
  batch_norm_param {
    use_global_stats: true
  }
}
layer {
  name: "scale3b1_branch2b"
  type: "Scale"
  bottom: "res3b1_branch2b"
  top: "res3b1_branch2b"
  scale_param {
    bias_term: true
  }
}
layer {
  name: "res3b1_branch2b_relu"
  type: "ReLU"
  bottom: "res3b1_branch2b"
  top: "res3b1_branch2b"
}
layer {
  name: "res3b1_branch2c"
  type: "Convolution"
  bottom: "res3b1_branch2b"
  top: "res3b1_branch2c"
  convolution_param {
    num_output: 512
    bias_term: false
    pad: 0
    kernel_size: 1
    stride: 1
  }
}
layer {
  name: "bn3b1_branch2c"
  type: "BatchNorm"
  bottom: "res3b1_branch2c"
  top: "res3b1_branch2c"
  batch_norm_param {
    use_global_stats: true
  }
}
layer {
  name: "scale3b1_branch2c"
  type: "Scale"
  bottom: "res3b1_branch2c"
  top: "res3b1_branch2c"
  scale_param {
    bias_term: true
  }
}
layer {
  name: "res3b1"
  type: "Eltwise"
  bottom: "res3a"
  bottom: "res3b1_branch2c"
  top: "res3b1"
}
layer {
  name: "res3b1_relu"
  type: "ReLU"
  bottom: "res3b1"
  top: "res3b1"
}
layer {
  name: "res3b2_branch2a"
  type: "Convolution"
  bottom: "res3b1"
  top: "res3b2_branch2a"
  convolution_param {
    num_output: 128
    bias_term: false
    pad: 0
    kernel_size: 1
    stride: 1
  }
}
layer {
  name: "bn3b2_branch2a"
  type: "BatchNorm"
  bottom: "res3b2_branch2a"
  top: "res3b2_branch2a"
  batch_norm_param {
    use_global_stats: true
  }
}
layer {
  name: "scale3b2_branch2a"
  type: "Scale"
  bottom: "res3b2_branch2a"
  top: "res3b2_branch2a"
  scale_param {
    bias_term: true
  }
}
layer {
  name: "res3b2_branch2a_relu"
  type: "ReLU"
  bottom: "res3b2_branch2a"
  top: "res3b2_branch2a"
}
layer {
  name: "res3b2_branch2b"
  type: "Convolution"
  bottom: "res3b2_branch2a"
  top: "res3b2_branch2b"
  convolution_param {
    num_output: 128
    bias_term: false
    pad: 1
    kernel_size: 3
    stride: 1
  }
}
layer {
  name: "bn3b2_branch2b"
  type: "BatchNorm"
  bottom: "res3b2_branch2b"
  top: "res3b2_branch2b"
  batch_norm_param {
    use_global_stats: true
  }
}
layer {
  name: "scale3b2_branch2b"
  type: "Scale"
  bottom: "res3b2_branch2b"
  top: "res3b2_branch2b"
  scale_param {
    bias_term: true
  }
}
layer {
  name: "res3b2_branch2b_relu"
  type: "ReLU"
  bottom: "res3b2_branch2b"
  top: "res3b2_branch2b"
}
layer {
  name: "res3b2_branch2c"
  type: "Convolution"
  bottom: "res3b2_branch2b"
  top: "res3b2_branch2c"
  convolution_param {
    num_output: 512
    bias_term: false
    pad: 0
    kernel_size: 1
    stride: 1
  }
}
layer {
  name: "bn3b2_branch2c"
  type: "BatchNorm"
  bottom: "res3b2_branch2c"
  top: "res3b2_branch2c"
  batch_norm_param {
    use_global_stats: true
  }
}
layer {
  name: "scale3b2_branch2c"
  type: "Scale"
  bottom: "res3b2_branch2c"
  top: "res3b2_branch2c"
  scale_param {
    bias_term: true
  }
}
layer {
  name: "res3b2"
  type: "Eltwise"
  bottom: "res3b1"
  bottom: "res3b2_branch2c"
  top: "res3b2"
}
layer {
  name: "res3b2_relu"
  type: "ReLU"
  bottom: "res3b2"
  top: "res3b2"
}
layer {
  name: "res3b3_branch2a"
  type: "Convolution"
  bottom: "res3b2"
  top: "res3b3_branch2a"
  convolution_param {
    num_output: 128
    bias_term: false
    pad: 0
    kernel_size: 1
    stride: 1
  }
}
layer {
  name: "bn3b3_branch2a"
  type: "BatchNorm"
  bottom: "res3b3_branch2a"
  top: "res3b3_branch2a"
  batch_norm_param {
    use_global_stats: true
  }
}
layer {
  name: "scale3b3_branch2a"
  type: "Scale"
  bottom: "res3b3_branch2a"
  top: "res3b3_branch2a"
  scale_param {
    bias_term: true
  }
}
layer {
  name: "res3b3_branch2a_relu"
  type: "ReLU"
  bottom: "res3b3_branch2a"
  top: "res3b3_branch2a"
}
layer {
  name: "res3b3_branch2b"
  type: "Convolution"
  bottom: "res3b3_branch2a"
  top: "res3b3_branch2b"
  convolution_param {
    num_output: 128
    bias_term: false
    pad: 1
    kernel_size: 3
    stride: 1
  }
}
layer {
  name: "bn3b3_branch2b"
  type: "BatchNorm"
  bottom: "res3b3_branch2b"
  top: "res3b3_branch2b"
  batch_norm_param {
    use_global_stats: true
  }
}
layer {
  name: "scale3b3_branch2b"
  type: "Scale"
  bottom: "res3b3_branch2b"
  top: "res3b3_branch2b"
  scale_param {
    bias_term: true
  }
}
layer {
  name: "res3b3_branch2b_relu"
  type: "ReLU"
  bottom: "res3b3_branch2b"
  top: "res3b3_branch2b"
}
layer {
  name: "res3b3_branch2c"
  type: "Convolution"
  bottom: "res3b3_branch2b"
  top: "res3b3_branch2c"
  convolution_param {
    num_output: 512
    bias_term: false
    pad: 0
    kernel_size: 1
    stride: 1
  }
}
layer {
  name: "bn3b3_branch2c"
  type: "BatchNorm"
  bottom: "res3b3_branch2c"
  top: "res3b3_branch2c"
  batch_norm_param {
    use_global_stats: true
  }
}
layer {
  name: "scale3b3_branch2c"
  type: "Scale"
  bottom: "res3b3_branch2c"
  top: "res3b3_branch2c"
  scale_param {
    bias_term: true
  }
}
layer {
  name: "res3b3"
  type: "Eltwise"
  bottom: "res3b2"
  bottom: "res3b3_branch2c"
  top: "res3b3"
}
layer {
  name: "res3b3_relu"
  type: "ReLU"
  bottom: "res3b3"
  top: "res3b3"
}
layer {
  name: "res3b4_branch2a"
  type: "Convolution"
  bottom: "res3b3"
  top: "res3b4_branch2a"
  convolution_param {
    num_output: 128
    bias_term: false
    pad: 0
    kernel_size: 1
    stride: 1
  }
}
layer {
  name: "bn3b4_branch2a"
  type: "BatchNorm"
  bottom: "res3b4_branch2a"
  top: "res3b4_branch2a"
  batch_norm_param {
    use_global_stats: true
  }
}
layer {
  name: "scale3b4_branch2a"
  type: "Scale"
  bottom: "res3b4_branch2a"
  top: "res3b4_branch2a"
  scale_param {
    bias_term: true
  }
}
layer {
  name: "res3b4_branch2a_relu"
  type: "ReLU"
  bottom: "res3b4_branch2a"
  top: "res3b4_branch2a"
}
layer {
  name: "res3b4_branch2b"
  type: "Convolution"
  bottom: "res3b4_branch2a"
  top: "res3b4_branch2b"
  convolution_param {
    num_output: 128
    bias_term: false
    pad: 1
    kernel_size: 3
    stride: 1
  }
}
layer {
  name: "bn3b4_branch2b"
  type: "BatchNorm"
  bottom: "res3b4_branch2b"
  top: "res3b4_branch2b"
  batch_norm_param {
    use_global_stats: true
  }
}
layer {
  name: "scale3b4_branch2b"
  type: "Scale"
  bottom: "res3b4_branch2b"
  top: "res3b4_branch2b"
  scale_param {
    bias_term: true
  }
}
layer {
  name: "res3b4_branch2b_relu"
  type: "ReLU"
  bottom: "res3b4_branch2b"
  top: "res3b4_branch2b"
}
layer {
  name: "res3b4_branch2c"
  type: "Convolution"
  bottom: "res3b4_branch2b"
  top: "res3b4_branch2c"
  convolution_param {
    num_output: 512
    bias_term: false
    pad: 0
    kernel_size: 1
    stride: 1
  }
}
layer {
  name: "bn3b4_branch2c"
  type: "BatchNorm"
  bottom: "res3b4_branch2c"
  top: "res3b4_branch2c"
  batch_norm_param {
    use_global_stats: true
  }
}
layer {
  name: "scale3b4_branch2c"
  type: "Scale"
  bottom: "res3b4_branch2c"
  top: "res3b4_branch2c"
  scale_param {
    bias_term: true
  }
}
layer {
  name: "res3b4"
  type: "Eltwise"
  bottom: "res3b3"
  bottom: "res3b4_branch2c"
  top: "res3b4"
}
layer {
  name: "res3b4_relu"
  type: "ReLU"
  bottom: "res3b4"
  top: "res3b4"
}
layer {
  name: "res3b5_branch2a"
  type: "Convolution"
  bottom: "res3b4"
  top: "res3b5_branch2a"
  convolution_param {
    num_output: 128
    bias_term: false
    pad: 0
    kernel_size: 1
    stride: 1
  }
}
layer {
  name: "bn3b5_branch2a"
  type: "BatchNorm"
  bottom: "res3b5_branch2a"
  top: "res3b5_branch2a"
  batch_norm_param {
    use_global_stats: true
  }
}
layer {
  name: "scale3b5_branch2a"
  type: "Scale"
  bottom: "res3b5_branch2a"
  top: "res3b5_branch2a"
  scale_param {
    bias_term: true
  }
}
layer {
  name: "res3b5_branch2a_relu"
  type: "ReLU"
  bottom: "res3b5_branch2a"
  top: "res3b5_branch2a"
}
layer {
  name: "res3b5_branch2b"
  type: "Convolution"
  bottom: "res3b5_branch2a"
  top: "res3b5_branch2b"
  convolution_param {
    num_output: 128
    bias_term: false
    pad: 1
    kernel_size: 3
    stride: 1
  }
}
layer {
  name: "bn3b5_branch2b"
  type: "BatchNorm"
  bottom: "res3b5_branch2b"
  top: "res3b5_branch2b"
  batch_norm_param {
    use_global_stats: true
  }
}
layer {
  name: "scale3b5_branch2b"
  type: "Scale"
  bottom: "res3b5_branch2b"
  top: "res3b5_branch2b"
  scale_param {
    bias_term: true
  }
}
layer {
  name: "res3b5_branch2b_relu"
  type: "ReLU"
  bottom: "res3b5_branch2b"
  top: "res3b5_branch2b"
}
layer {
  name: "res3b5_branch2c"
  type: "Convolution"
  bottom: "res3b5_branch2b"
  top: "res3b5_branch2c"
  convolution_param {
    num_output: 512
    bias_term: false
    pad: 0
    kernel_size: 1
    stride: 1
  }
}
layer {
  name: "bn3b5_branch2c"
  type: "BatchNorm"
  bottom: "res3b5_branch2c"
  top: "res3b5_branch2c"
  batch_norm_param {
    use_global_stats: true
  }
}
layer {
  name: "scale3b5_branch2c"
  type: "Scale"
  bottom: "res3b5_branch2c"
  top: "res3b5_branch2c"
  scale_param {
    bias_term: true
  }
}
layer {
  name: "res3b5"
  type: "Eltwise"
  bottom: "res3b4"
  bottom: "res3b5_branch2c"
  top: "res3b5"
}
layer {
  name: "res3b5_relu"
  type: "ReLU"
  bottom: "res3b5"
  top: "res3b5"
}
layer {
  name: "res3b6_branch2a"
  type: "Convolution"
  bottom: "res3b5"
  top: "res3b6_branch2a"
  convolution_param {
    num_output: 128
    bias_term: false
    pad: 0
    kernel_size: 1
    stride: 1
  }
}
layer {
  name: "bn3b6_branch2a"
  type: "BatchNorm"
  bottom: "res3b6_branch2a"
  top: "res3b6_branch2a"
  batch_norm_param {
    use_global_stats: true
  }
}
layer {
  name: "scale3b6_branch2a"
  type: "Scale"
  bottom: "res3b6_branch2a"
  top: "res3b6_branch2a"
  scale_param {
    bias_term: true
  }
}
layer {
  name: "res3b6_branch2a_relu"
  type: "ReLU"
  bottom: "res3b6_branch2a"
  top: "res3b6_branch2a"
}
layer {
  name: "res3b6_branch2b"
  type: "Convolution"
  bottom: "res3b6_branch2a"
  top: "res3b6_branch2b"
  convolution_param {
    num_output: 128
    bias_term: false
    pad: 1
    kernel_size: 3
    stride: 1
  }
}
layer {
  name: "bn3b6_branch2b"
  type: "BatchNorm"
  bottom: "res3b6_branch2b"
  top: "res3b6_branch2b"
  batch_norm_param {
    use_global_stats: true
  }
}
layer {
  name: "scale3b6_branch2b"
  type: "Scale"
  bottom: "res3b6_branch2b"
  top: "res3b6_branch2b"
  scale_param {
    bias_term: true
  }
}
layer {
  name: "res3b6_branch2b_relu"
  type: "ReLU"
  bottom: "res3b6_branch2b"
  top: "res3b6_branch2b"
}
layer {
  name: "res3b6_branch2c"
  type: "Convolution"
  bottom: "res3b6_branch2b"
  top: "res3b6_branch2c"
  convolution_param {
    num_output: 512
    bias_term: false
    pad: 0
    kernel_size: 1
    stride: 1
  }
}
layer {
  name: "bn3b6_branch2c"
  type: "BatchNorm"
  bottom: "res3b6_branch2c"
  top: "res3b6_branch2c"
  batch_norm_param {
    use_global_stats: true
  }
}
layer {
  name: "scale3b6_branch2c"
  type: "Scale"
  bottom: "res3b6_branch2c"
  top: "res3b6_branch2c"
  scale_param {
    bias_term: true
  }
}
layer {
  name: "res3b6"
  type: "Eltwise"
  bottom: "res3b5"
  bottom: "res3b6_branch2c"
  top: "res3b6"
}
layer {
  name: "res3b6_relu"
  type: "ReLU"
  bottom: "res3b6"
  top: "res3b6"
}
layer {
  name: "res3b7_branch2a"
  type: "Convolution"
  bottom: "res3b6"
  top: "res3b7_branch2a"
  convolution_param {
    num_output: 128
    bias_term: false
    pad: 0
    kernel_size: 1
    stride: 1
  }
}
layer {
  name: "bn3b7_branch2a"
  type: "BatchNorm"
  bottom: "res3b7_branch2a"
  top: "res3b7_branch2a"
  batch_norm_param {
    use_global_stats: true
  }
}
layer {
  name: "scale3b7_branch2a"
  type: "Scale"
  bottom: "res3b7_branch2a"
  top: "res3b7_branch2a"
  scale_param {
    bias_term: true
  }
}
layer {
  name: "res3b7_branch2a_relu"
  type: "ReLU"
  bottom: "res3b7_branch2a"
  top: "res3b7_branch2a"
}
layer {
  name: "res3b7_branch2b"
  type: "Convolution"
  bottom: "res3b7_branch2a"
  top: "res3b7_branch2b"
  convolution_param {
    num_output: 128
    bias_term: false
    pad: 1
    kernel_size: 3
    stride: 1
  }
}
layer {
  name: "bn3b7_branch2b"
  type: "BatchNorm"
  bottom: "res3b7_branch2b"
  top: "res3b7_branch2b"
  batch_norm_param {
    use_global_stats: true
  }
}
layer {
  name: "scale3b7_branch2b"
  type: "Scale"
  bottom: "res3b7_branch2b"
  top: "res3b7_branch2b"
  scale_param {
    bias_term: true
  }
}
layer {
  name: "res3b7_branch2b_relu"
  type: "ReLU"
  bottom: "res3b7_branch2b"
  top: "res3b7_branch2b"
}
layer {
  name: "res3b7_branch2c"
  type: "Convolution"
  bottom: "res3b7_branch2b"
  top: "res3b7_branch2c"
  convolution_param {
    num_output: 512
    bias_term: false
    pad: 0
    kernel_size: 1
    stride: 1
  }
}
layer {
  name: "bn3b7_branch2c"
  type: "BatchNorm"
  bottom: "res3b7_branch2c"
  top: "res3b7_branch2c"
  batch_norm_param {
    use_global_stats: true
  }
}
layer {
  name: "scale3b7_branch2c"
  type: "Scale"
  bottom: "res3b7_branch2c"
  top: "res3b7_branch2c"
  scale_param {
    bias_term: true
  }
}
layer {
  name: "res3b7"
  type: "Eltwise"
  bottom: "res3b6"
  bottom: "res3b7_branch2c"
  top: "res3b7"
}
layer {
  name: "res3b7_relu"
  type: "ReLU"
  bottom: "res3b7"
  top: "res3b7"
}
layer {
  name: "res4a_branch1"
  type: "Convolution"
  bottom: "res3b7"
  top: "res4a_branch1"
  convolution_param {
    num_output: 1024
    bias_term: false
    pad: 0
    kernel_size: 1
    stride: 2
  }
}
layer {
  name: "bn4a_branch1"
  type: "BatchNorm"
  bottom: "res4a_branch1"
  top: "res4a_branch1"
  batch_norm_param {
    use_global_stats: true
  }
}
layer {
  name: "scale4a_branch1"
  type: "Scale"
  bottom: "res4a_branch1"
  top: "res4a_branch1"
  scale_param {
    bias_term: true
  }
}
layer {
  name: "res4a_branch2a"
  type: "Convolution"
  bottom: "res3b7"
  top: "res4a_branch2a"
  convolution_param {
    num_output: 256
    bias_term: false
    pad: 0
    kernel_size: 1
    stride: 2
  }
}
layer {
  name: "bn4a_branch2a"
  type: "BatchNorm"
  bottom: "res4a_branch2a"
  top: "res4a_branch2a"
  batch_norm_param {
    use_global_stats: true
  }
}
layer {
  name: "scale4a_branch2a"
  type: "Scale"
  bottom: "res4a_branch2a"
  top: "res4a_branch2a"
  scale_param {
    bias_term: true
  }
}
layer {
  name: "res4a_branch2a_relu"
  type: "ReLU"
  bottom: "res4a_branch2a"
  top: "res4a_branch2a"
}
layer {
  name: "res4a_branch2b"
  type: "Convolution"
  bottom: "res4a_branch2a"
  top: "res4a_branch2b"
  convolution_param {
    num_output: 256
    bias_term: false
    pad: 1
    kernel_size: 3
    stride: 1
  }
}
layer {
  name: "bn4a_branch2b"
  type: "BatchNorm"
  bottom: "res4a_branch2b"
  top: "res4a_branch2b"
  batch_norm_param {
    use_global_stats: true
  }
}
layer {
  name: "scale4a_branch2b"
  type: "Scale"
  bottom: "res4a_branch2b"
  top: "res4a_branch2b"
  scale_param {
    bias_term: true
  }
}
layer {
  name: "res4a_branch2b_relu"
  type: "ReLU"
  bottom: "res4a_branch2b"
  top: "res4a_branch2b"
}
layer {
  name: "res4a_branch2c"
  type: "Convolution"
  bottom: "res4a_branch2b"
  top: "res4a_branch2c"
  convolution_param {
    num_output: 1024
    bias_term: false
    pad: 0
    kernel_size: 1
    stride: 1
  }
}
layer {
  name: "bn4a_branch2c"
  type: "BatchNorm"
  bottom: "res4a_branch2c"
  top: "res4a_branch2c"
  batch_norm_param {
    use_global_stats: true
  }
}
layer {
  name: "scale4a_branch2c"
  type: "Scale"
  bottom: "res4a_branch2c"
  top: "res4a_branch2c"
  scale_param {
    bias_term: true
  }
}
layer {
  name: "res4a"
  type: "Eltwise"
  bottom: "res4a_branch1"
  bottom: "res4a_branch2c"
  top: "res4a"
}
layer {
  name: "res4a_relu"
  type: "ReLU"
  bottom: "res4a"
  top: "res4a"
}
layer {
  name: "res4b1_branch2a"
  type: "Convolution"
  bottom: "res4a"
  top: "res4b1_branch2a"
  convolution_param {
    num_output: 256
    bias_term: false
    pad: 0
    kernel_size: 1
    stride: 1
  }
}
layer {
  name: "bn4b1_branch2a"
  type: "BatchNorm"
  bottom: "res4b1_branch2a"
  top: "res4b1_branch2a"
  batch_norm_param {
    use_global_stats: true
  }
}
layer {
  name: "scale4b1_branch2a"
  type: "Scale"
  bottom: "res4b1_branch2a"
  top: "res4b1_branch2a"
  scale_param {
    bias_term: true
  }
}
layer {
  name: "res4b1_branch2a_relu"
  type: "ReLU"
  bottom: "res4b1_branch2a"
  top: "res4b1_branch2a"
}
layer {
  name: "res4b1_branch2b"
  type: "Convolution"
  bottom: "res4b1_branch2a"
  top: "res4b1_branch2b"
  convolution_param {
    num_output: 256
    bias_term: false
    pad: 1
    kernel_size: 3
    stride: 1
  }
}
layer {
  name: "bn4b1_branch2b"
  type: "BatchNorm"
  bottom: "res4b1_branch2b"
  top: "res4b1_branch2b"
  batch_norm_param {
    use_global_stats: true
  }
}
layer {
  name: "scale4b1_branch2b"
  type: "Scale"
  bottom: "res4b1_branch2b"
  top: "res4b1_branch2b"
  scale_param {
    bias_term: true
  }
}
layer {
  name: "res4b1_branch2b_relu"
  type: "ReLU"
  bottom: "res4b1_branch2b"
  top: "res4b1_branch2b"
}
layer {
  name: "res4b1_branch2c"
  type: "Convolution"
  bottom: "res4b1_branch2b"
  top: "res4b1_branch2c"
  convolution_param {
    num_output: 1024
    bias_term: false
    pad: 0
    kernel_size: 1
    stride: 1
  }
}
layer {
  name: "bn4b1_branch2c"
  type: "BatchNorm"
  bottom: "res4b1_branch2c"
  top: "res4b1_branch2c"
  batch_norm_param {
    use_global_stats: true
  }
}
layer {
  name: "scale4b1_branch2c"
  type: "Scale"
  bottom: "res4b1_branch2c"
  top: "res4b1_branch2c"
  scale_param {
    bias_term: true
  }
}
layer {
  name: "res4b1"
  type: "Eltwise"
  bottom: "res4a"
  bottom: "res4b1_branch2c"
  top: "res4b1"
}
layer {
  name: "res4b1_relu"
  type: "ReLU"
  bottom: "res4b1"
  top: "res4b1"
}
layer {
  name: "res4b2_branch2a"
  type: "Convolution"
  bottom: "res4b1"
  top: "res4b2_branch2a"
  convolution_param {
    num_output: 256
    bias_term: false
    pad: 0
    kernel_size: 1
    stride: 1
  }
}
layer {
  name: "bn4b2_branch2a"
  type: "BatchNorm"
  bottom: "res4b2_branch2a"
  top: "res4b2_branch2a"
  batch_norm_param {
    use_global_stats: true
  }
}
layer {
  name: "scale4b2_branch2a"
  type: "Scale"
  bottom: "res4b2_branch2a"
  top: "res4b2_branch2a"
  scale_param {
    bias_term: true
  }
}
layer {
  name: "res4b2_branch2a_relu"
  type: "ReLU"
  bottom: "res4b2_branch2a"
  top: "res4b2_branch2a"
}
layer {
  name: "res4b2_branch2b"
  type: "Convolution"
  bottom: "res4b2_branch2a"
  top: "res4b2_branch2b"
  convolution_param {
    num_output: 256
    bias_term: false
    pad: 1
    kernel_size: 3
    stride: 1
  }
}
layer {
  name: "bn4b2_branch2b"
  type: "BatchNorm"
  bottom: "res4b2_branch2b"
  top: "res4b2_branch2b"
  batch_norm_param {
    use_global_stats: true
  }
}
layer {
  name: "scale4b2_branch2b"
  type: "Scale"
  bottom: "res4b2_branch2b"
  top: "res4b2_branch2b"
  scale_param {
    bias_term: true
  }
}
layer {
  name: "res4b2_branch2b_relu"
  type: "ReLU"
  bottom: "res4b2_branch2b"
  top: "res4b2_branch2b"
}
layer {
  name: "res4b2_branch2c"
  type: "Convolution"
  bottom: "res4b2_branch2b"
  top: "res4b2_branch2c"
  convolution_param {
    num_output: 1024
    bias_term: fa
I0226 22:38:18.169096 16389 layer_factory.hpp:77] Creating layer data
I0226 22:38:18.170318 16389 net.cpp:106] Creating Layer data
I0226 22:38:18.170348 16389 net.cpp:411] data -> data
I0226 22:38:18.170554 16389 net.cpp:411] data -> id_label
I0226 22:38:18.170711 16389 data_transformer.cpp:25] Loading mean file from: /home/lizhuowan/Market1501/lmdb/lmdb_12936/Image_lmdb_12936.binaryproto
I0226 22:38:18.172554 16405 db_lmdb.cpp:38] Opened lmdb /home/lizhuowan/Market1501/lmdb/lmdb_12936/Image_lmdb_12936
I0226 22:38:18.200376 16389 data_layer.cpp:41] output data size: 8,3,224,224
I0226 22:38:18.217424 16389 net.cpp:150] Setting up data
I0226 22:38:18.217577 16389 net.cpp:157] Top shape: 8 3 224 224 (1204224)
I0226 22:38:18.217619 16389 net.cpp:157] Top shape: 8 (8)
I0226 22:38:18.217633 16389 net.cpp:165] Memory required for data: 4816928
I0226 22:38:18.217653 16389 layer_factory.hpp:77] Creating layer data
I0226 22:38:18.217764 16389 net.cpp:106] Creating Layer data
I0226 22:38:18.217792 16389 net.cpp:411] data -> labels
I0226 22:38:18.219187 16407 db_lmdb.cpp:38] Opened lmdb /home/lizhuowan/Market1501/lmdb/lmdb_12936/pos30_lmdb_12936
I0226 22:38:18.219466 16389 data_layer.cpp:41] output data size: 8,30,1,1
I0226 22:38:18.219692 16389 net.cpp:150] Setting up data
I0226 22:38:18.219715 16389 net.cpp:157] Top shape: 8 30 1 1 (240)
I0226 22:38:18.219727 16389 net.cpp:165] Memory required for data: 4817888
I0226 22:38:18.219736 16389 layer_factory.hpp:77] Creating layer conv1
I0226 22:38:18.219851 16389 net.cpp:106] Creating Layer conv1
I0226 22:38:18.219871 16389 net.cpp:454] conv1 <- data
I0226 22:38:18.219897 16389 net.cpp:411] conv1 -> conv1
I0226 22:38:18.220990 16389 net.cpp:150] Setting up conv1
I0226 22:38:18.221014 16389 net.cpp:157] Top shape: 8 64 112 112 (6422528)
I0226 22:38:18.221024 16389 net.cpp:165] Memory required for data: 30508000
I0226 22:38:18.221050 16389 layer_factory.hpp:77] Creating layer bn_conv1
I0226 22:38:18.221068 16389 net.cpp:106] Creating Layer bn_conv1
I0226 22:38:18.221078 16389 net.cpp:454] bn_conv1 <- conv1
I0226 22:38:18.221096 16389 net.cpp:397] bn_conv1 -> conv1 (in-place)
I0226 22:38:18.221456 16389 net.cpp:150] Setting up bn_conv1
I0226 22:38:18.221493 16389 net.cpp:157] Top shape: 8 64 112 112 (6422528)
I0226 22:38:18.221506 16389 net.cpp:165] Memory required for data: 56198112
I0226 22:38:18.221532 16389 layer_factory.hpp:77] Creating layer scale_conv1
I0226 22:38:18.221557 16389 net.cpp:106] Creating Layer scale_conv1
I0226 22:38:18.221571 16389 net.cpp:454] scale_conv1 <- conv1
I0226 22:38:18.221585 16389 net.cpp:397] scale_conv1 -> conv1 (in-place)
I0226 22:38:18.221658 16389 layer_factory.hpp:77] Creating layer scale_conv1
I0226 22:38:18.221840 16389 net.cpp:150] Setting up scale_conv1
I0226 22:38:18.221859 16389 net.cpp:157] Top shape: 8 64 112 112 (6422528)
I0226 22:38:18.221868 16389 net.cpp:165] Memory required for data: 81888224
I0226 22:38:18.221889 16389 layer_factory.hpp:77] Creating layer conv1_relu
I0226 22:38:18.221907 16389 net.cpp:106] Creating Layer conv1_relu
I0226 22:38:18.221921 16389 net.cpp:454] conv1_relu <- conv1
I0226 22:38:18.221937 16389 net.cpp:397] conv1_relu -> conv1 (in-place)
I0226 22:38:18.221954 16389 net.cpp:150] Setting up conv1_relu
I0226 22:38:18.221967 16389 net.cpp:157] Top shape: 8 64 112 112 (6422528)
I0226 22:38:18.221976 16389 net.cpp:165] Memory required for data: 107578336
I0226 22:38:18.221985 16389 layer_factory.hpp:77] Creating layer pool1
I0226 22:38:18.221998 16389 net.cpp:106] Creating Layer pool1
I0226 22:38:18.222007 16389 net.cpp:454] pool1 <- conv1
I0226 22:38:18.222019 16389 net.cpp:411] pool1 -> pool1
I0226 22:38:18.222095 16389 net.cpp:150] Setting up pool1
I0226 22:38:18.222112 16389 net.cpp:157] Top shape: 8 64 56 56 (1605632)
I0226 22:38:18.222122 16389 net.cpp:165] Memory required for data: 114000864
I0226 22:38:18.222133 16389 layer_factory.hpp:77] Creating layer pool1_pool1_0_split
I0226 22:38:18.222149 16389 net.cpp:106] Creating Layer pool1_pool1_0_split
I0226 22:38:18.222159 16389 net.cpp:454] pool1_pool1_0_split <- pool1
I0226 22:38:18.222172 16389 net.cpp:411] pool1_pool1_0_split -> pool1_pool1_0_split_0
I0226 22:38:18.222185 16389 net.cpp:411] pool1_pool1_0_split -> pool1_pool1_0_split_1
I0226 22:38:18.222232 16389 net.cpp:150] Setting up pool1_pool1_0_split
I0226 22:38:18.222247 16389 net.cpp:157] Top shape: 8 64 56 56 (1605632)
I0226 22:38:18.222259 16389 net.cpp:157] Top shape: 8 64 56 56 (1605632)
I0226 22:38:18.222267 16389 net.cpp:165] Memory required for data: 126845920
I0226 22:38:18.222277 16389 layer_factory.hpp:77] Creating layer res2a_branch1
I0226 22:38:18.222296 16389 net.cpp:106] Creating Layer res2a_branch1
I0226 22:38:18.222307 16389 net.cpp:454] res2a_branch1 <- pool1_pool1_0_split_0
I0226 22:38:18.222321 16389 net.cpp:411] res2a_branch1 -> res2a_branch1
I0226 22:38:18.222522 16389 net.cpp:150] Setting up res2a_branch1
I0226 22:38:18.222540 16389 net.cpp:157] Top shape: 8 256 56 56 (6422528)
I0226 22:38:18.222549 16389 net.cpp:165] Memory required for data: 152536032
I0226 22:38:18.222561 16389 layer_factory.hpp:77] Creating layer bn2a_branch1
I0226 22:38:18.222578 16389 net.cpp:106] Creating Layer bn2a_branch1
I0226 22:38:18.222589 16389 net.cpp:454] bn2a_branch1 <- res2a_branch1
I0226 22:38:18.222600 16389 net.cpp:397] bn2a_branch1 -> res2a_branch1 (in-place)
I0226 22:38:18.223501 16389 net.cpp:150] Setting up bn2a_branch1
I0226 22:38:18.223525 16389 net.cpp:157] Top shape: 8 256 56 56 (6422528)
I0226 22:38:18.223534 16389 net.cpp:165] Memory required for data: 178226144
I0226 22:38:18.223554 16389 layer_factory.hpp:77] Creating layer scale2a_branch1
I0226 22:38:18.223568 16389 net.cpp:106] Creating Layer scale2a_branch1
I0226 22:38:18.223578 16389 net.cpp:454] scale2a_branch1 <- res2a_branch1
I0226 22:38:18.223590 16389 net.cpp:397] scale2a_branch1 -> res2a_branch1 (in-place)
I0226 22:38:18.223651 16389 layer_factory.hpp:77] Creating layer scale2a_branch1
I0226 22:38:18.223788 16389 net.cpp:150] Setting up scale2a_branch1
I0226 22:38:18.223808 16389 net.cpp:157] Top shape: 8 256 56 56 (6422528)
I0226 22:38:18.223816 16389 net.cpp:165] Memory required for data: 203916256
I0226 22:38:18.223839 16389 layer_factory.hpp:77] Creating layer res2a_branch2a
I0226 22:38:18.223867 16389 net.cpp:106] Creating Layer res2a_branch2a
I0226 22:38:18.223879 16389 net.cpp:454] res2a_branch2a <- pool1_pool1_0_split_1
I0226 22:38:18.223891 16389 net.cpp:411] res2a_branch2a -> res2a_branch2a
I0226 22:38:18.224102 16389 net.cpp:150] Setting up res2a_branch2a
I0226 22:38:18.224123 16389 net.cpp:157] Top shape: 8 64 56 56 (1605632)
I0226 22:38:18.224133 16389 net.cpp:165] Memory required for data: 210338784
I0226 22:38:18.224143 16389 layer_factory.hpp:77] Creating layer bn2a_branch2a
I0226 22:38:18.224159 16389 net.cpp:106] Creating Layer bn2a_branch2a
I0226 22:38:18.224170 16389 net.cpp:454] bn2a_branch2a <- res2a_branch2a
I0226 22:38:18.224182 16389 net.cpp:397] bn2a_branch2a -> res2a_branch2a (in-place)
I0226 22:38:18.224382 16389 net.cpp:150] Setting up bn2a_branch2a
I0226 22:38:18.224400 16389 net.cpp:157] Top shape: 8 64 56 56 (1605632)
I0226 22:38:18.224411 16389 net.cpp:165] Memory required for data: 216761312
I0226 22:38:18.224426 16389 layer_factory.hpp:77] Creating layer scale2a_branch2a
I0226 22:38:18.224438 16389 net.cpp:106] Creating Layer scale2a_branch2a
I0226 22:38:18.224448 16389 net.cpp:454] scale2a_branch2a <- res2a_branch2a
I0226 22:38:18.224463 16389 net.cpp:397] scale2a_branch2a -> res2a_branch2a (in-place)
I0226 22:38:18.224514 16389 layer_factory.hpp:77] Creating layer scale2a_branch2a
I0226 22:38:18.224658 16389 net.cpp:150] Setting up scale2a_branch2a
I0226 22:38:18.224676 16389 net.cpp:157] Top shape: 8 64 56 56 (1605632)
I0226 22:38:18.224686 16389 net.cpp:165] Memory required for data: 223183840
I0226 22:38:18.224704 16389 layer_factory.hpp:77] Creating layer res2a_branch2a_relu
I0226 22:38:18.224720 16389 net.cpp:106] Creating Layer res2a_branch2a_relu
I0226 22:38:18.224730 16389 net.cpp:454] res2a_branch2a_relu <- res2a_branch2a
I0226 22:38:18.224743 16389 net.cpp:397] res2a_branch2a_relu -> res2a_branch2a (in-place)
I0226 22:38:18.224756 16389 net.cpp:150] Setting up res2a_branch2a_relu
I0226 22:38:18.224768 16389 net.cpp:157] Top shape: 8 64 56 56 (1605632)
I0226 22:38:18.224777 16389 net.cpp:165] Memory required for data: 229606368
I0226 22:38:18.224787 16389 layer_factory.hpp:77] Creating layer res2a_branch2b
I0226 22:38:18.224804 16389 net.cpp:106] Creating Layer res2a_branch2b
I0226 22:38:18.224814 16389 net.cpp:454] res2a_branch2b <- res2a_branch2a
I0226 22:38:18.224828 16389 net.cpp:411] res2a_branch2b -> res2a_branch2b
I0226 22:38:18.225796 16389 net.cpp:150] Setting up res2a_branch2b
I0226 22:38:18.225821 16389 net.cpp:157] Top shape: 8 64 56 56 (1605632)
I0226 22:38:18.225831 16389 net.cpp:165] Memory required for data: 236028896
I0226 22:38:18.225843 16389 layer_factory.hpp:77] Creating layer bn2a_branch2b
I0226 22:38:18.225858 16389 net.cpp:106] Creating Layer bn2a_branch2b
I0226 22:38:18.225868 16389 net.cpp:454] bn2a_branch2b <- res2a_branch2b
I0226 22:38:18.225880 16389 net.cpp:397] bn2a_branch2b -> res2a_branch2b (in-place)
I0226 22:38:18.226102 16389 net.cpp:150] Setting up bn2a_branch2b
I0226 22:38:18.226121 16389 net.cpp:157] Top shape: 8 64 56 56 (1605632)
I0226 22:38:18.226130 16389 net.cpp:165] Memory required for data: 242451424
I0226 22:38:18.226146 16389 layer_factory.hpp:77] Creating layer scale2a_branch2b
I0226 22:38:18.226160 16389 net.cpp:106] Creating Layer scale2a_branch2b
I0226 22:38:18.226169 16389 net.cpp:454] scale2a_branch2b <- res2a_branch2b
I0226 22:38:18.226181 16389 net.cpp:397] scale2a_branch2b -> res2a_branch2b (in-place)
I0226 22:38:18.226243 16389 layer_factory.hpp:77] Creating layer scale2a_branch2b
I0226 22:38:18.226408 16389 net.cpp:150] Setting up scale2a_branch2b
I0226 22:38:18.226426 16389 net.cpp:157] Top shape: 8 64 56 56 (1605632)
I0226 22:38:18.226436 16389 net.cpp:165] Memory required for data: 248873952
I0226 22:38:18.226450 16389 layer_factory.hpp:77] Creating layer res2a_branch2b_relu
I0226 22:38:18.226465 16389 net.cpp:106] Creating Layer res2a_branch2b_relu
I0226 22:38:18.226476 16389 net.cpp:454] res2a_branch2b_relu <- res2a_branch2b
I0226 22:38:18.226495 16389 net.cpp:397] res2a_branch2b_relu -> res2a_branch2b (in-place)
I0226 22:38:18.226521 16389 net.cpp:150] Setting up res2a_branch2b_relu
I0226 22:38:18.226533 16389 net.cpp:157] Top shape: 8 64 56 56 (1605632)
I0226 22:38:18.226542 16389 net.cpp:165] Memory required for data: 255296480
I0226 22:38:18.226552 16389 layer_factory.hpp:77] Creating layer res2a_branch2c
I0226 22:38:18.226568 16389 net.cpp:106] Creating Layer res2a_branch2c
I0226 22:38:18.226578 16389 net.cpp:454] res2a_branch2c <- res2a_branch2b
I0226 22:38:18.226590 16389 net.cpp:411] res2a_branch2c -> res2a_branch2c
I0226 22:38:18.227135 16389 net.cpp:150] Setting up res2a_branch2c
I0226 22:38:18.227156 16389 net.cpp:157] Top shape: 8 256 56 56 (6422528)
I0226 22:38:18.227165 16389 net.cpp:165] Memory required for data: 280986592
I0226 22:38:18.227177 16389 layer_factory.hpp:77] Creating layer bn2a_branch2c
I0226 22:38:18.227195 16389 net.cpp:106] Creating Layer bn2a_branch2c
I0226 22:38:18.227205 16389 net.cpp:454] bn2a_branch2c <- res2a_branch2c
I0226 22:38:18.227217 16389 net.cpp:397] bn2a_branch2c -> res2a_branch2c (in-place)
I0226 22:38:18.227421 16389 net.cpp:150] Setting up bn2a_branch2c
I0226 22:38:18.227437 16389 net.cpp:157] Top shape: 8 256 56 56 (6422528)
I0226 22:38:18.227447 16389 net.cpp:165] Memory required for data: 306676704
I0226 22:38:18.227463 16389 layer_factory.hpp:77] Creating layer scale2a_branch2c
I0226 22:38:18.227478 16389 net.cpp:106] Creating Layer scale2a_branch2c
I0226 22:38:18.227489 16389 net.cpp:454] scale2a_branch2c <- res2a_branch2c
I0226 22:38:18.227501 16389 net.cpp:397] scale2a_branch2c -> res2a_branch2c (in-place)
I0226 22:38:18.227556 16389 layer_factory.hpp:77] Creating layer scale2a_branch2c
I0226 22:38:18.227695 16389 net.cpp:150] Setting up scale2a_branch2c
I0226 22:38:18.227715 16389 net.cpp:157] Top shape: 8 256 56 56 (6422528)
I0226 22:38:18.227723 16389 net.cpp:165] Memory required for data: 332366816
I0226 22:38:18.227736 16389 layer_factory.hpp:77] Creating layer res2a
I0226 22:38:18.227754 16389 net.cpp:106] Creating Layer res2a
I0226 22:38:18.227766 16389 net.cpp:454] res2a <- res2a_branch1
I0226 22:38:18.227776 16389 net.cpp:454] res2a <- res2a_branch2c
I0226 22:38:18.227792 16389 net.cpp:411] res2a -> res2a
I0226 22:38:18.227838 16389 net.cpp:150] Setting up res2a
I0226 22:38:18.227859 16389 net.cpp:157] Top shape: 8 256 56 56 (6422528)
I0226 22:38:18.227869 16389 net.cpp:165] Memory required for data: 358056928
I0226 22:38:18.227879 16389 layer_factory.hpp:77] Creating layer res2a_relu
I0226 22:38:18.227890 16389 net.cpp:106] Creating Layer res2a_relu
I0226 22:38:18.227900 16389 net.cpp:454] res2a_relu <- res2a
I0226 22:38:18.227911 16389 net.cpp:397] res2a_relu -> res2a (in-place)
I0226 22:38:18.227924 16389 net.cpp:150] Setting up res2a_relu
I0226 22:38:18.227936 16389 net.cpp:157] Top shape: 8 256 56 56 (6422528)
I0226 22:38:18.227946 16389 net.cpp:165] Memory required for data: 383747040
I0226 22:38:18.227954 16389 layer_factory.hpp:77] Creating layer res2a_res2a_relu_0_split
I0226 22:38:18.227967 16389 net.cpp:106] Creating Layer res2a_res2a_relu_0_split
I0226 22:38:18.227975 16389 net.cpp:454] res2a_res2a_relu_0_split <- res2a
I0226 22:38:18.227990 16389 net.cpp:411] res2a_res2a_relu_0_split -> res2a_res2a_relu_0_split_0
I0226 22:38:18.228004 16389 net.cpp:411] res2a_res2a_relu_0_split -> res2a_res2a_relu_0_split_1
I0226 22:38:18.228049 16389 net.cpp:150] Setting up res2a_res2a_relu_0_split
I0226 22:38:18.228065 16389 net.cpp:157] Top shape: 8 256 56 56 (6422528)
I0226 22:38:18.228075 16389 net.cpp:157] Top shape: 8 256 56 56 (6422528)
I0226 22:38:18.228085 16389 net.cpp:165] Memory required for data: 435127264
I0226 22:38:18.228093 16389 layer_factory.hpp:77] Creating layer res2b_branch2a
I0226 22:38:18.228111 16389 net.cpp:106] Creating Layer res2b_branch2a
I0226 22:38:18.228121 16389 net.cpp:454] res2b_branch2a <- res2a_res2a_relu_0_split_0
I0226 22:38:18.228134 16389 net.cpp:411] res2b_branch2a -> res2b_branch2a
I0226 22:38:18.228338 16389 net.cpp:150] Setting up res2b_branch2a
I0226 22:38:18.228363 16389 net.cpp:157] Top shape: 8 64 56 56 (1605632)
I0226 22:38:18.228381 16389 net.cpp:165] Memory required for data: 441549792
I0226 22:38:18.228394 16389 layer_factory.hpp:77] Creating layer bn2b_branch2a
I0226 22:38:18.228407 16389 net.cpp:106] Creating Layer bn2b_branch2a
I0226 22:38:18.228417 16389 net.cpp:454] bn2b_branch2a <- res2b_branch2a
I0226 22:38:18.228435 16389 net.cpp:397] bn2b_branch2a -> res2b_branch2a (in-place)
I0226 22:38:18.228652 16389 net.cpp:150] Setting up bn2b_branch2a
I0226 22:38:18.228669 16389 net.cpp:157] Top shape: 8 64 56 56 (1605632)
I0226 22:38:18.228679 16389 net.cpp:165] Memory required for data: 447972320
I0226 22:38:18.228700 16389 layer_factory.hpp:77] Creating layer scale2b_branch2a
I0226 22:38:18.228718 16389 net.cpp:106] Creating Layer scale2b_branch2a
I0226 22:38:18.228729 16389 net.cpp:454] scale2b_branch2a <- res2b_branch2a
I0226 22:38:18.228741 16389 net.cpp:397] scale2b_branch2a -> res2b_branch2a (in-place)
I0226 22:38:18.228804 16389 layer_factory.hpp:77] Creating layer scale2b_branch2a
I0226 22:38:18.228950 16389 net.cpp:150] Setting up scale2b_branch2a
I0226 22:38:18.228967 16389 net.cpp:157] Top shape: 8 64 56 56 (1605632)
I0226 22:38:18.228977 16389 net.cpp:165] Memory required for data: 454394848
I0226 22:38:18.228991 16389 layer_factory.hpp:77] Creating layer res2b_branch2a_relu
I0226 22:38:18.229005 16389 net.cpp:106] Creating Layer res2b_branch2a_relu
I0226 22:38:18.229017 16389 net.cpp:454] res2b_branch2a_relu <- res2b_branch2a
I0226 22:38:18.229028 16389 net.cpp:397] res2b_branch2a_relu -> res2b_branch2a (in-place)
I0226 22:38:18.229041 16389 net.cpp:150] Setting up res2b_branch2a_relu
I0226 22:38:18.229053 16389 net.cpp:157] Top shape: 8 64 56 56 (1605632)
I0226 22:38:18.229063 16389 net.cpp:165] Memory required for data: 460817376
I0226 22:38:18.229071 16389 layer_factory.hpp:77] Creating layer res2b_branch2b
I0226 22:38:18.229089 16389 net.cpp:106] Creating Layer res2b_branch2b
I0226 22:38:18.229099 16389 net.cpp:454] res2b_branch2b <- res2b_branch2a
I0226 22:38:18.229111 16389 net.cpp:411] res2b_branch2b -> res2b_branch2b
I0226 22:38:18.229347 16389 net.cpp:150] Setting up res2b_branch2b
I0226 22:38:18.229368 16389 net.cpp:157] Top shape: 8 64 56 56 (1605632)
I0226 22:38:18.229377 16389 net.cpp:165] Memory required for data: 467239904
I0226 22:38:18.229389 16389 layer_factory.hpp:77] Creating layer bn2b_branch2b
I0226 22:38:18.229403 16389 net.cpp:106] Creating Layer bn2b_branch2b
I0226 22:38:18.229413 16389 net.cpp:454] bn2b_branch2b <- res2b_branch2b
I0226 22:38:18.229427 16389 net.cpp:397] bn2b_branch2b -> res2b_branch2b (in-place)
I0226 22:38:18.229641 16389 net.cpp:150] Setting up bn2b_branch2b
I0226 22:38:18.229660 16389 net.cpp:157] Top shape: 8 64 56 56 (1605632)
I0226 22:38:18.229668 16389 net.cpp:165] Memory required for data: 473662432
I0226 22:38:18.229683 16389 layer_factory.hpp:77] Creating layer scale2b_branch2b
I0226 22:38:18.229697 16389 net.cpp:106] Creating Layer scale2b_branch2b
I0226 22:38:18.229707 16389 net.cpp:454] scale2b_branch2b <- res2b_branch2b
I0226 22:38:18.229722 16389 net.cpp:397] scale2b_branch2b -> res2b_branch2b (in-place)
I0226 22:38:18.229775 16389 layer_factory.hpp:77] Creating layer scale2b_branch2b
I0226 22:38:18.229924 16389 net.cpp:150] Setting up scale2b_branch2b
I0226 22:38:18.229943 16389 net.cpp:157] Top shape: 8 64 56 56 (1605632)
I0226 22:38:18.229951 16389 net.cpp:165] Memory required for data: 480084960
I0226 22:38:18.229964 16389 layer_factory.hpp:77] Creating layer res2b_branch2b_relu
I0226 22:38:18.229984 16389 net.cpp:106] Creating Layer res2b_branch2b_relu
I0226 22:38:18.229995 16389 net.cpp:454] res2b_branch2b_relu <- res2b_branch2b
I0226 22:38:18.230007 16389 net.cpp:397] res2b_branch2b_relu -> res2b_branch2b (in-place)
I0226 22:38:18.230020 16389 net.cpp:150] Setting up res2b_branch2b_relu
I0226 22:38:18.230032 16389 net.cpp:157] Top shape: 8 64 56 56 (1605632)
I0226 22:38:18.230041 16389 net.cpp:165] Memory required for data: 486507488
I0226 22:38:18.230057 16389 layer_factory.hpp:77] Creating layer res2b_branch2c
I0226 22:38:18.230087 16389 net.cpp:106] Creating Layer res2b_branch2c
I0226 22:38:18.230098 16389 net.cpp:454] res2b_branch2c <- res2b_branch2b
I0226 22:38:18.230110 16389 net.cpp:411] res2b_branch2c -> res2b_branch2c
I0226 22:38:18.230330 16389 net.cpp:150] Setting up res2b_branch2c
I0226 22:38:18.230350 16389 net.cpp:157] Top shape: 8 256 56 56 (6422528)
I0226 22:38:18.230358 16389 net.cpp:165] Memory required for data: 512197600
I0226 22:38:18.230370 16389 layer_factory.hpp:77] Creating layer bn2b_branch2c
I0226 22:38:18.230386 16389 net.cpp:106] Creating Layer bn2b_branch2c
I0226 22:38:18.230397 16389 net.cpp:454] bn2b_branch2c <- res2b_branch2c
I0226 22:38:18.230409 16389 net.cpp:397] bn2b_branch2c -> res2b_branch2c (in-place)
I0226 22:38:18.230618 16389 net.cpp:150] Setting up bn2b_branch2c
I0226 22:38:18.230635 16389 net.cpp:157] Top shape: 8 256 56 56 (6422528)
I0226 22:38:18.230645 16389 net.cpp:165] Memory required for data: 537887712
I0226 22:38:18.230667 16389 layer_factory.hpp:77] Creating layer scale2b_branch2c
I0226 22:38:18.230680 16389 net.cpp:106] Creating Layer scale2b_branch2c
I0226 22:38:18.230690 16389 net.cpp:454] scale2b_branch2c <- res2b_branch2c
I0226 22:38:18.230705 16389 net.cpp:397] scale2b_branch2c -> res2b_branch2c (in-place)
I0226 22:38:18.230758 16389 layer_factory.hpp:77] Creating layer scale2b_branch2c
I0226 22:38:18.230900 16389 net.cpp:150] Setting up scale2b_branch2c
I0226 22:38:18.230917 16389 net.cpp:157] Top shape: 8 256 56 56 (6422528)
I0226 22:38:18.230927 16389 net.cpp:165] Memory required for data: 563577824
I0226 22:38:18.230942 16389 layer_factory.hpp:77] Creating layer res2b
I0226 22:38:18.230957 16389 net.cpp:106] Creating Layer res2b
I0226 22:38:18.230967 16389 net.cpp:454] res2b <- res2a_res2a_relu_0_split_1
I0226 22:38:18.230978 16389 net.cpp:454] res2b <- res2b_branch2c
I0226 22:38:18.230990 16389 net.cpp:411] res2b -> res2b
I0226 22:38:18.231027 16389 net.cpp:150] Setting up res2b
I0226 22:38:18.231043 16389 net.cpp:157] Top shape: 8 256 56 56 (6422528)
I0226 22:38:18.231052 16389 net.cpp:165] Memory required for data: 589267936
I0226 22:38:18.231062 16389 layer_factory.hpp:77] Creating layer res2b_relu
I0226 22:38:18.231075 16389 net.cpp:106] Creating Layer res2b_relu
I0226 22:38:18.231083 16389 net.cpp:454] res2b_relu <- res2b
I0226 22:38:18.231097 16389 net.cpp:397] res2b_relu -> res2b (in-place)
I0226 22:38:18.231112 16389 net.cpp:150] Setting up res2b_relu
I0226 22:38:18.231123 16389 net.cpp:157] Top shape: 8 256 56 56 (6422528)
I0226 22:38:18.231132 16389 net.cpp:165] Memory required for data: 614958048
I0226 22:38:18.231142 16389 layer_factory.hpp:77] Creating layer res2b_res2b_relu_0_split
I0226 22:38:18.231153 16389 net.cpp:106] Creating Layer res2b_res2b_relu_0_split
I0226 22:38:18.231163 16389 net.cpp:454] res2b_res2b_relu_0_split <- res2b
I0226 22:38:18.231173 16389 net.cpp:411] res2b_res2b_relu_0_split -> res2b_res2b_relu_0_split_0
I0226 22:38:18.231186 16389 net.cpp:411] res2b_res2b_relu_0_split -> res2b_res2b_relu_0_split_1
I0226 22:38:18.231233 16389 net.cpp:150] Setting up res2b_res2b_relu_0_split
I0226 22:38:18.231248 16389 net.cpp:157] Top shape: 8 256 56 56 (6422528)
I0226 22:38:18.231259 16389 net.cpp:157] Top shape: 8 256 56 56 (6422528)
I0226 22:38:18.231268 16389 net.cpp:165] Memory required for data: 666338272
I0226 22:38:18.231278 16389 layer_factory.hpp:77] Creating layer res2c_branch2a
I0226 22:38:18.231294 16389 net.cpp:106] Creating Layer res2c_branch2a
I0226 22:38:18.231305 16389 net.cpp:454] res2c_branch2a <- res2b_res2b_relu_0_split_0
I0226 22:38:18.231318 16389 net.cpp:411] res2c_branch2a -> res2c_branch2a
I0226 22:38:18.231528 16389 net.cpp:150] Setting up res2c_branch2a
I0226 22:38:18.231547 16389 net.cpp:157] Top shape: 8 64 56 56 (1605632)
I0226 22:38:18.231556 16389 net.cpp:165] Memory required for data: 672760800
I0226 22:38:18.231569 16389 layer_factory.hpp:77] Creating layer bn2c_branch2a
I0226 22:38:18.231580 16389 net.cpp:106] Creating Layer bn2c_branch2a
I0226 22:38:18.231597 16389 net.cpp:454] bn2c_branch2a <- res2c_branch2a
I0226 22:38:18.231619 16389 net.cpp:397] bn2c_branch2a -> res2c_branch2a (in-place)
I0226 22:38:18.231838 16389 net.cpp:150] Setting up bn2c_branch2a
I0226 22:38:18.231856 16389 net.cpp:157] Top shape: 8 64 56 56 (1605632)
I0226 22:38:18.231865 16389 net.cpp:165] Memory required for data: 679183328
I0226 22:38:18.231881 16389 layer_factory.hpp:77] Creating layer scale2c_branch2a
I0226 22:38:18.231894 16389 net.cpp:106] Creating Layer scale2c_branch2a
I0226 22:38:18.231904 16389 net.cpp:454] scale2c_branch2a <- res2c_branch2a
I0226 22:38:18.231916 16389 net.cpp:397] scale2c_branch2a -> res2c_branch2a (in-place)
I0226 22:38:18.231973 16389 layer_factory.hpp:77] Creating layer scale2c_branch2a
I0226 22:38:18.232116 16389 net.cpp:150] Setting up scale2c_branch2a
I0226 22:38:18.232138 16389 net.cpp:157] Top shape: 8 64 56 56 (1605632)
I0226 22:38:18.232148 16389 net.cpp:165] Memory required for data: 685605856
I0226 22:38:18.232161 16389 layer_factory.hpp:77] Creating layer res2c_branch2a_relu
I0226 22:38:18.232178 16389 net.cpp:106] Creating Layer res2c_branch2a_relu
I0226 22:38:18.232189 16389 net.cpp:454] res2c_branch2a_relu <- res2c_branch2a
I0226 22:38:18.232201 16389 net.cpp:397] res2c_branch2a_relu -> res2c_branch2a (in-place)
I0226 22:38:18.232214 16389 net.cpp:150] Setting up res2c_branch2a_relu
I0226 22:38:18.232226 16389 net.cpp:157] Top shape: 8 64 56 56 (1605632)
I0226 22:38:18.232235 16389 net.cpp:165] Memory required for data: 692028384
I0226 22:38:18.232244 16389 layer_factory.hpp:77] Creating layer res2c_branch2b
I0226 22:38:18.232261 16389 net.cpp:106] Creating Layer res2c_branch2b
I0226 22:38:18.232272 16389 net.cpp:454] res2c_branch2b <- res2c_branch2a
I0226 22:38:18.232285 16389 net.cpp:411] res2c_branch2b -> res2c_branch2b
I0226 22:38:18.232511 16389 net.cpp:150] Setting up res2c_branch2b
I0226 22:38:18.232530 16389 net.cpp:157] Top shape: 8 64 56 56 (1605632)
I0226 22:38:18.232540 16389 net.cpp:165] Memory required for data: 698450912
I0226 22:38:18.232552 16389 layer_factory.hpp:77] Creating layer bn2c_branch2b
I0226 22:38:18.232571 16389 net.cpp:106] Creating Layer bn2c_branch2b
I0226 22:38:18.232583 16389 net.cpp:454] bn2c_branch2b <- res2c_branch2b
I0226 22:38:18.232594 16389 net.cpp:397] bn2c_branch2b -> res2c_branch2b (in-place)
I0226 22:38:18.232805 16389 net.cpp:150] Setting up bn2c_branch2b
I0226 22:38:18.232822 16389 net.cpp:157] Top shape: 8 64 56 56 (1605632)
I0226 22:38:18.232832 16389 net.cpp:165] Memory required for data: 704873440
I0226 22:38:18.232847 16389 layer_factory.hpp:77] Creating layer scale2c_branch2b
I0226 22:38:18.232863 16389 net.cpp:106] Creating Layer scale2c_branch2b
I0226 22:38:18.232874 16389 net.cpp:454] scale2c_branch2b <- res2c_branch2b
I0226 22:38:18.232887 16389 net.cpp:397] scale2c_branch2b -> res2c_branch2b (in-place)
I0226 22:38:18.232944 16389 layer_factory.hpp:77] Creating layer scale2c_branch2b
I0226 22:38:18.233100 16389 net.cpp:150] Setting up scale2c_branch2b
I0226 22:38:18.233119 16389 net.cpp:157] Top shape: 8 64 56 56 (1605632)
I0226 22:38:18.233127 16389 net.cpp:165] Memory required for data: 711295968
I0226 22:38:18.233141 16389 layer_factory.hpp:77] Creating layer res2c_branch2b_relu
I0226 22:38:18.233153 16389 net.cpp:106] Creating Layer res2c_branch2b_relu
I0226 22:38:18.233163 16389 net.cpp:454] res2c_branch2b_relu <- res2c_branch2b
I0226 22:38:18.233178 16389 net.cpp:397] res2c_branch2b_relu -> res2c_branch2b (in-place)
I0226 22:38:18.233191 16389 net.cpp:150] Setting up res2c_branch2b_relu
I0226 22:38:18.233203 16389 net.cpp:157] Top shape: 8 64 56 56 (1605632)
I0226 22:38:18.233212 16389 net.cpp:165] Memory required for data: 717718496
I0226 22:38:18.233222 16389 layer_factory.hpp:77] Creating layer res2c_branch2c
I0226 22:38:18.233234 16389 net.cpp:106] Creating Layer res2c_branch2c
I0226 22:38:18.233244 16389 net.cpp:454] res2c_branch2c <- res2c_branch2b
I0226 22:38:18.233269 16389 net.cpp:411] res2c_branch2c -> res2c_branch2c
I0226 22:38:18.233500 16389 net.cpp:150] Setting up res2c_branch2c
I0226 22:38:18.233525 16389 net.cpp:157] Top shape: 8 256 56 56 (6422528)
I0226 22:38:18.233543 16389 net.cpp:165] Memory required for data: 743408608
I0226 22:38:18.233556 16389 layer_factory.hpp:77] Creating layer bn2c_branch2c
I0226 22:38:18.233572 16389 net.cpp:106] Creating Layer bn2c_branch2c
I0226 22:38:18.233583 16389 net.cpp:454] bn2c_branch2c <- res2c_branch2c
I0226 22:38:18.233594 16389 net.cpp:397] bn2c_branch2c -> res2c_branch2c (in-place)
I0226 22:38:18.234211 16389 net.cpp:150] Setting up bn2c_branch2c
I0226 22:38:18.234230 16389 net.cpp:157] Top shape: 8 256 56 56 (6422528)
I0226 22:38:18.234241 16389 net.cpp:165] Memory required for data: 769098720
I0226 22:38:18.234256 16389 layer_factory.hpp:77] Creating layer scale2c_branch2c
I0226 22:38:18.234269 16389 net.cpp:106] Creating Layer scale2c_branch2c
I0226 22:38:18.234279 16389 net.cpp:454] scale2c_branch2c <- res2c_branch2c
I0226 22:38:18.234294 16389 net.cpp:397] scale2c_branch2c -> res2c_branch2c (in-place)
I0226 22:38:18.234346 16389 layer_factory.hpp:77] Creating layer scale2c_branch2c
I0226 22:38:18.234482 16389 net.cpp:150] Setting up scale2c_branch2c
I0226 22:38:18.234499 16389 net.cpp:157] Top shape: 8 256 56 56 (6422528)
I0226 22:38:18.234509 16389 net.cpp:165] Memory required for data: 794788832
I0226 22:38:18.234539 16389 layer_factory.hpp:77] Creating layer res2c
I0226 22:38:18.234553 16389 net.cpp:106] Creating Layer res2c
I0226 22:38:18.234563 16389 net.cpp:454] res2c <- res2b_res2b_relu_0_split_1
I0226 22:38:18.234575 16389 net.cpp:454] res2c <- res2c_branch2c
I0226 22:38:18.234586 16389 net.cpp:411] res2c -> res2c
I0226 22:38:18.234621 16389 net.cpp:150] Setting up res2c
I0226 22:38:18.234639 16389 net.cpp:157] Top shape: 8 256 56 56 (6422528)
I0226 22:38:18.234650 16389 net.cpp:165] Memory required for data: 820478944
I0226 22:38:18.234659 16389 layer_factory.hpp:77] Creating layer res2c_relu
I0226 22:38:18.234671 16389 net.cpp:106] Creating Layer res2c_relu
I0226 22:38:18.234681 16389 net.cpp:454] res2c_relu <- res2c
I0226 22:38:18.234693 16389 net.cpp:397] res2c_relu -> res2c (in-place)
I0226 22:38:18.234705 16389 net.cpp:150] Setting up res2c_relu
I0226 22:38:18.234716 16389 net.cpp:157] Top shape: 8 256 56 56 (6422528)
I0226 22:38:18.234725 16389 net.cpp:165] Memory required for data: 846169056
I0226 22:38:18.234735 16389 layer_factory.hpp:77] Creating layer res2c_res2c_relu_0_split
I0226 22:38:18.234745 16389 net.cpp:106] Creating Layer res2c_res2c_relu_0_split
I0226 22:38:18.234755 16389 net.cpp:454] res2c_res2c_relu_0_split <- res2c
I0226 22:38:18.234766 16389 net.cpp:411] res2c_res2c_relu_0_split -> res2c_res2c_relu_0_split_0
I0226 22:38:18.234781 16389 net.cpp:411] res2c_res2c_relu_0_split -> res2c_res2c_relu_0_split_1
I0226 22:38:18.234833 16389 net.cpp:150] Setting up res2c_res2c_relu_0_split
I0226 22:38:18.234848 16389 net.cpp:157] Top shape: 8 256 56 56 (6422528)
I0226 22:38:18.234859 16389 net.cpp:157] Top shape: 8 256 56 56 (6422528)
I0226 22:38:18.234869 16389 net.cpp:165] Memory required for data: 897549280
I0226 22:38:18.234877 16389 layer_factory.hpp:77] Creating layer res3a_branch1
I0226 22:38:18.234895 16389 net.cpp:106] Creating Layer res3a_branch1
I0226 22:38:18.234906 16389 net.cpp:454] res3a_branch1 <- res2c_res2c_relu_0_split_0
I0226 22:38:18.234918 16389 net.cpp:411] res3a_branch1 -> res3a_branch1
I0226 22:38:18.235923 16389 net.cpp:150] Setting up res3a_branch1
I0226 22:38:18.235945 16389 net.cpp:157] Top shape: 8 512 28 28 (3211264)
I0226 22:38:18.235955 16389 net.cpp:165] Memory required for data: 910394336
I0226 22:38:18.235968 16389 layer_factory.hpp:77] Creating layer bn3a_branch1
I0226 22:38:18.235981 16389 net.cpp:106] Creating Layer bn3a_branch1
I0226 22:38:18.235991 16389 net.cpp:454] bn3a_branch1 <- res3a_branch1
I0226 22:38:18.236007 16389 net.cpp:397] bn3a_branch1 -> res3a_branch1 (in-place)
I0226 22:38:18.236901 16389 net.cpp:150] Setting up bn3a_branch1
I0226 22:38:18.236922 16389 net.cpp:157] Top shape: 8 512 28 28 (3211264)
I0226 22:38:18.236932 16389 net.cpp:165] Memory required for data: 923239392
I0226 22:38:18.236956 16389 layer_factory.hpp:77] Creating layer scale3a_branch1
I0226 22:38:18.236989 16389 net.cpp:106] Creating Layer scale3a_branch1
I0226 22:38:18.237001 16389 net.cpp:454] scale3a_branch1 <- res3a_branch1
I0226 22:38:18.237013 16389 net.cpp:397] scale3a_branch1 -> res3a_branch1 (in-place)
I0226 22:38:18.237076 16389 layer_factory.hpp:77] Creating layer scale3a_branch1
I0226 22:38:18.237217 16389 net.cpp:150] Setting up scale3a_branch1
I0226 22:38:18.237236 16389 net.cpp:157] Top shape: 8 512 28 28 (3211264)
I0226 22:38:18.237246 16389 net.cpp:165] Memory required for data: 936084448
I0226 22:38:18.237269 16389 layer_factory.hpp:77] Creating layer res3a_branch2a
I0226 22:38:18.237285 16389 net.cpp:106] Creating Layer res3a_branch2a
I0226 22:38:18.237296 16389 net.cpp:454] res3a_branch2a <- res2c_res2c_relu_0_split_1
I0226 22:38:18.237311 16389 net.cpp:411] res3a_branch2a -> res3a_branch2a
I0226 22:38:18.237541 16389 net.cpp:150] Setting up res3a_branch2a
I0226 22:38:18.237560 16389 net.cpp:157] Top shape: 8 128 28 28 (802816)
I0226 22:38:18.237570 16389 net.cpp:165] Memory required for data: 939295712
I0226 22:38:18.237581 16389 layer_factory.hpp:77] Creating layer bn3a_branch2a
I0226 22:38:18.237597 16389 net.cpp:106] Creating Layer bn3a_branch2a
I0226 22:38:18.237608 16389 net.cpp:454] bn3a_branch2a <- res3a_branch2a
I0226 22:38:18.237620 16389 net.cpp:397] bn3a_branch2a -> res3a_branch2a (in-place)
I0226 22:38:18.237826 16389 net.cpp:150] Setting up bn3a_branch2a
I0226 22:38:18.237844 16389 net.cpp:157] Top shape: 8 128 28 28 (802816)
I0226 22:38:18.237854 16389 net.cpp:165] Memory required for data: 942506976
I0226 22:38:18.237869 16389 layer_factory.hpp:77] Creating layer scale3a_branch2a
I0226 22:38:18.237890 16389 net.cpp:106] Creating Layer scale3a_branch2a
I0226 22:38:18.237901 16389 net.cpp:454] scale3a_branch2a <- res3a_branch2a
I0226 22:38:18.237913 16389 net.cpp:397] scale3a_branch2a -> res3a_branch2a (in-place)
I0226 22:38:18.237970 16389 layer_factory.hpp:77] Creating layer scale3a_branch2a
I0226 22:38:18.238106 16389 net.cpp:150] Setting up scale3a_branch2a
I0226 22:38:18.238123 16389 net.cpp:157] Top shape: 8 128 28 28 (802816)
I0226 22:38:18.238132 16389 net.cpp:165] Memory required for data: 945718240
I0226 22:38:18.238145 16389 layer_factory.hpp:77] Creating layer res3a_branch2a_relu
I0226 22:38:18.238158 16389 net.cpp:106] Creating Layer res3a_branch2a_relu
I0226 22:38:18.238168 16389 net.cpp:454] res3a_branch2a_relu <- res3a_branch2a
I0226 22:38:18.238179 16389 net.cpp:397] res3a_branch2a_relu -> res3a_branch2a (in-place)
I0226 22:38:18.238193 16389 net.cpp:150] Setting up res3a_branch2a_relu
I0226 22:38:18.238204 16389 net.cpp:157] Top shape: 8 128 28 28 (802816)
I0226 22:38:18.238214 16389 net.cpp:165] Memory required for data: 948929504
I0226 22:38:18.238224 16389 layer_factory.hpp:77] Creating layer res3a_branch2b
I0226 22:38:18.238240 16389 net.cpp:106] Creating Layer res3a_branch2b
I0226 22:38:18.238250 16389 net.cpp:454] res3a_branch2b <- res3a_branch2a
I0226 22:38:18.238265 16389 net.cpp:411] res3a_branch2b -> res3a_branch2b
I0226 22:38:18.239269 16389 net.cpp:150] Setting up res3a_branch2b
I0226 22:38:18.239292 16389 net.cpp:157] Top shape: 8 128 28 28 (802816)
I0226 22:38:18.239301 16389 net.cpp:165] Memory required for data: 952140768
I0226 22:38:18.239315 16389 layer_factory.hpp:77] Creating layer bn3a_branch2b
I0226 22:38:18.239331 16389 net.cpp:106] Creating Layer bn3a_branch2b
I0226 22:38:18.239342 16389 net.cpp:454] bn3a_branch2b <- res3a_branch2b
I0226 22:38:18.239354 16389 net.cpp:397] bn3a_branch2b -> res3a_branch2b (in-place)
I0226 22:38:18.239567 16389 net.cpp:150] Setting up bn3a_branch2b
I0226 22:38:18.239584 16389 net.cpp:157] Top shape: 8 128 28 28 (802816)
I0226 22:38:18.239593 16389 net.cpp:165] Memory required for data: 955352032
I0226 22:38:18.239609 16389 layer_factory.hpp:77] Creating layer scale3a_branch2b
I0226 22:38:18.239622 16389 net.cpp:106] Creating Layer scale3a_branch2b
I0226 22:38:18.239634 16389 net.cpp:454] scale3a_branch2b <- res3a_branch2b
I0226 22:38:18.239665 16389 net.cpp:397] scale3a_branch2b -> res3a_branch2b (in-place)
I0226 22:38:18.239722 16389 layer_factory.hpp:77] Creating layer scale3a_branch2b
I0226 22:38:18.239861 16389 net.cpp:150] Setting up scale3a_branch2b
I0226 22:38:18.239878 16389 net.cpp:157] Top shape: 8 128 28 28 (802816)
I0226 22:38:18.239887 16389 net.cpp:165] Memory required for data: 958563296
I0226 22:38:18.239902 16389 layer_factory.hpp:77] Creating layer res3a_branch2b_relu
I0226 22:38:18.239917 16389 net.cpp:106] Creating Layer res3a_branch2b_relu
I0226 22:38:18.239928 16389 net.cpp:454] res3a_branch2b_relu <- res3a_branch2b
I0226 22:38:18.239939 16389 net.cpp:397] res3a_branch2b_relu -> res3a_branch2b (in-place)
I0226 22:38:18.239953 16389 net.cpp:150] Setting up res3a_branch2b_relu
I0226 22:38:18.239964 16389 net.cpp:157] Top shape: 8 128 28 28 (802816)
I0226 22:38:18.239974 16389 net.cpp:165] Memory required for data: 961774560
I0226 22:38:18.239982 16389 layer_factory.hpp:77] Creating layer res3a_branch2c
I0226 22:38:18.240010 16389 net.cpp:106] Creating Layer res3a_branch2c
I0226 22:38:18.240022 16389 net.cpp:454] res3a_branch2c <- res3a_branch2b
I0226 22:38:18.240034 16389 net.cpp:411] res3a_branch2c -> res3a_branch2c
I0226 22:38:18.240306 16389 net.cpp:150] Setting up res3a_branch2c
I0226 22:38:18.240326 16389 net.cpp:157] Top shape: 8 512 28 28 (3211264)
I0226 22:38:18.240335 16389 net.cpp:165] Memory required for data: 974619616
I0226 22:38:18.240348 16389 layer_factory.hpp:77] Creating layer bn3a_branch2c
I0226 22:38:18.240360 16389 net.cpp:106] Creating Layer bn3a_branch2c
I0226 22:38:18.240370 16389 net.cpp:454] bn3a_branch2c <- res3a_branch2c
I0226 22:38:18.240381 16389 net.cpp:397] bn3a_branch2c -> res3a_branch2c (in-place)
I0226 22:38:18.240597 16389 net.cpp:150] Setting up bn3a_branch2c
I0226 22:38:18.240615 16389 net.cpp:157] Top shape: 8 512 28 28 (3211264)
I0226 22:38:18.240625 16389 net.cpp:165] Memory required for data: 987464672
I0226 22:38:18.240641 16389 layer_factory.hpp:77] Creating layer scale3a_branch2c
I0226 22:38:18.240654 16389 net.cpp:106] Creating Layer scale3a_branch2c
I0226 22:38:18.240664 16389 net.cpp:454] scale3a_branch2c <- res3a_branch2c
I0226 22:38:18.240675 16389 net.cpp:397] scale3a_branch2c -> res3a_branch2c (in-place)
I0226 22:38:18.240736 16389 layer_factory.hpp:77] Creating layer scale3a_branch2c
I0226 22:38:18.240870 16389 net.cpp:150] Setting up scale3a_branch2c
I0226 22:38:18.240888 16389 net.cpp:157] Top shape: 8 512 28 28 (3211264)
I0226 22:38:18.240897 16389 net.cpp:165] Memory required for data: 1000309728
I0226 22:38:18.240911 16389 layer_factory.hpp:77] Creating layer res3a
I0226 22:38:18.240927 16389 net.cpp:106] Creating Layer res3a
I0226 22:38:18.240938 16389 net.cpp:454] res3a <- res3a_branch1
I0226 22:38:18.240949 16389 net.cpp:454] res3a <- res3a_branch2c
I0226 22:38:18.240960 16389 net.cpp:411] res3a -> res3a
I0226 22:38:18.240999 16389 net.cpp:150] Setting up res3a
I0226 22:38:18.241015 16389 net.cpp:157] Top shape: 8 512 28 28 (3211264)
I0226 22:38:18.241025 16389 net.cpp:165] Memory required for data: 1013154784
I0226 22:38:18.241034 16389 layer_factory.hpp:77] Creating layer res3a_relu
I0226 22:38:18.241046 16389 net.cpp:106] Creating Layer res3a_relu
I0226 22:38:18.241056 16389 net.cpp:454] res3a_relu <- res3a
I0226 22:38:18.241071 16389 net.cpp:397] res3a_relu -> res3a (in-place)
I0226 22:38:18.241086 16389 net.cpp:150] Setting up res3a_relu
I0226 22:38:18.241096 16389 net.cpp:157] Top shape: 8 512 28 28 (3211264)
I0226 22:38:18.241106 16389 net.cpp:165] Memory required for data: 1025999840
I0226 22:38:18.241116 16389 layer_factory.hpp:77] Creating layer res3a_res3a_relu_0_split
I0226 22:38:18.241127 16389 net.cpp:106] Creating Layer res3a_res3a_relu_0_split
I0226 22:38:18.241135 16389 net.cpp:454] res3a_res3a_relu_0_split <- res3a
I0226 22:38:18.241147 16389 net.cpp:411] res3a_res3a_relu_0_split -> res3a_res3a_relu_0_split_0
I0226 22:38:18.241160 16389 net.cpp:411] res3a_res3a_relu_0_split -> res3a_res3a_relu_0_split_1
I0226 22:38:18.241222 16389 net.cpp:150] Setting up res3a_res3a_relu_0_split
I0226 22:38:18.241257 16389 net.cpp:157] Top shape: 8 512 28 28 (3211264)
I0226 22:38:18.241272 16389 net.cpp:157] Top shape: 8 512 28 28 (3211264)
I0226 22:38:18.241281 16389 net.cpp:165] Memory required for data: 1051689952
I0226 22:38:18.241291 16389 layer_factory.hpp:77] Creating layer res3b1_branch2a
I0226 22:38:18.241308 16389 net.cpp:106] Creating Layer res3b1_branch2a
I0226 22:38:18.241319 16389 net.cpp:454] res3b1_branch2a <- res3a_res3a_relu_0_split_0
I0226 22:38:18.241333 16389 net.cpp:411] res3b1_branch2a -> res3b1_branch2a
I0226 22:38:18.242285 16389 net.cpp:150] Setting up res3b1_branch2a
I0226 22:38:18.242307 16389 net.cpp:157] Top shape: 8 128 28 28 (802816)
I0226 22:38:18.242317 16389 net.cpp:165] Memory required for data: 1054901216
I0226 22:38:18.242331 16389 layer_factory.hpp:77] Creating layer bn3b1_branch2a
I0226 22:38:18.242343 16389 net.cpp:106] Creating Layer bn3b1_branch2a
I0226 22:38:18.242354 16389 net.cpp:454] bn3b1_branch2a <- res3b1_branch2a
I0226 22:38:18.242369 16389 net.cpp:397] bn3b1_branch2a -> res3b1_branch2a (in-place)
I0226 22:38:18.242581 16389 net.cpp:150] Setting up bn3b1_branch2a
I0226 22:38:18.242599 16389 net.cpp:157] Top shape: 8 128 28 28 (802816)
I0226 22:38:18.242609 16389 net.cpp:165] Memory required for data: 1058112480
I0226 22:38:18.242624 16389 layer_factory.hpp:77] Creating layer scale3b1_branch2a
I0226 22:38:18.242638 16389 net.cpp:106] Creating Layer scale3b1_branch2a
I0226 22:38:18.242648 16389 net.cpp:454] scale3b1_branch2a <- res3b1_branch2a
I0226 22:38:18.242660 16389 net.cpp:397] scale3b1_branch2a -> res3b1_branch2a (in-place)
I0226 22:38:18.242717 16389 layer_factory.hpp:77] Creating layer scale3b1_branch2a
I0226 22:38:18.242858 16389 net.cpp:150] Setting up scale3b1_branch2a
I0226 22:38:18.242877 16389 net.cpp:157] Top shape: 8 128 28 28 (802816)
I0226 22:38:18.242887 16389 net.cpp:165] Memory required for data: 1061323744
I0226 22:38:18.242900 16389 layer_factory.hpp:77] Creating layer res3b1_branch2a_relu
I0226 22:38:18.242913 16389 net.cpp:106] Creating Layer res3b1_branch2a_relu
I0226 22:38:18.242923 16389 net.cpp:454] res3b1_branch2a_relu <- res3b1_branch2a
I0226 22:38:18.242938 16389 net.cpp:397] res3b1_branch2a_relu -> res3b1_branch2a (in-place)
I0226 22:38:18.242951 16389 net.cpp:150] Setting up res3b1_branch2a_relu
I0226 22:38:18.242964 16389 net.cpp:157] Top shape: 8 128 28 28 (802816)
I0226 22:38:18.242972 16389 net.cpp:165] Memory required for data: 1064535008
I0226 22:38:18.242982 16389 layer_factory.hpp:77] Creating layer res3b1_branch2b
I0226 22:38:18.242996 16389 net.cpp:106] Creating Layer res3b1_branch2b
I0226 22:38:18.243006 16389 net.cpp:454] res3b1_branch2b <- res3b1_branch2a
I0226 22:38:18.243022 16389 net.cpp:411] res3b1_branch2b -> res3b1_branch2b
I0226 22:38:18.244040 16389 net.cpp:150] Setting up res3b1_branch2b
I0226 22:38:18.244061 16389 net.cpp:157] Top shape: 8 128 28 28 (802816)
I0226 22:38:18.244071 16389 net.cpp:165] Memory required for data: 1067746272
I0226 22:38:18.244083 16389 layer_factory.hpp:77] Creating layer bn3b1_branch2b
I0226 22:38:18.244097 16389 net.cpp:106] Creating Layer bn3b1_branch2b
I0226 22:38:18.244107 16389 net.cpp:454] bn3b1_branch2b <- res3b1_branch2b
I0226 22:38:18.244119 16389 net.cpp:397] bn3b1_branch2b -> res3b1_branch2b (in-place)
I0226 22:38:18.244333 16389 net.cpp:150] Setting up bn3b1_branch2b
I0226 22:38:18.244350 16389 net.cpp:157] Top shape: 8 128 28 28 (802816)
I0226 22:38:18.244360 16389 net.cpp:165] Memory required for data: 1070957536
I0226 22:38:18.244379 16389 layer_factory.hpp:77] Creating layer scale3b1_branch2b
I0226 22:38:18.244393 16389 net.cpp:106] Creating Layer scale3b1_branch2b
I0226 22:38:18.244405 16389 net.cpp:454] scale3b1_branch2b <- res3b1_branch2b
I0226 22:38:18.244416 16389 net.cpp:397] scale3b1_branch2b -> res3b1_branch2b (in-place)
I0226 22:38:18.244473 16389 layer_factory.hpp:77] Creating layer scale3b1_branch2b
I0226 22:38:18.244618 16389 net.cpp:150] Setting up scale3b1_branch2b
I0226 22:38:18.244643 16389 net.cpp:157] Top shape: 8 128 28 28 (802816)
I0226 22:38:18.244663 16389 net.cpp:165] Memory required for data: 1074168800
I0226 22:38:18.244678 16389 layer_factory.hpp:77] Creating layer res3b1_branch2b_relu
I0226 22:38:18.244693 16389 net.cpp:106] Creating Layer res3b1_branch2b_relu
I0226 22:38:18.244704 16389 net.cpp:454] res3b1_branch2b_relu <- res3b1_branch2b
I0226 22:38:18.244716 16389 net.cpp:397] res3b1_branch2b_relu -> res3b1_branch2b (in-place)
I0226 22:38:18.244729 16389 net.cpp:150] Setting up res3b1_branch2b_relu
I0226 22:38:18.244741 16389 net.cpp:157] Top shape: 8 128 28 28 (802816)
I0226 22:38:18.244750 16389 net.cpp:165] Memory required for data: 1077380064
I0226 22:38:18.244760 16389 layer_factory.hpp:77] Creating layer res3b1_branch2c
I0226 22:38:18.244776 16389 net.cpp:106] Creating Layer res3b1_branch2c
I0226 22:38:18.244787 16389 net.cpp:454] res3b1_branch2c <- res3b1_branch2b
I0226 22:38:18.244799 16389 net.cpp:411] res3b1_branch2c -> res3b1_branch2c
I0226 22:38:18.245056 16389 net.cpp:150] Setting up res3b1_branch2c
I0226 22:38:18.245076 16389 net.cpp:157] Top shape: 8 512 28 28 (3211264)
I0226 22:38:18.245086 16389 net.cpp:165] Memory required for data: 1090225120
I0226 22:38:18.245098 16389 layer_factory.hpp:77] Creating layer bn3b1_branch2c
I0226 22:38:18.245110 16389 net.cpp:106] Creating Layer bn3b1_branch2c
I0226 22:38:18.245121 16389 net.cpp:454] bn3b1_branch2c <- res3b1_branch2c
I0226 22:38:18.245136 16389 net.cpp:397] bn3b1_branch2c -> res3b1_branch2c (in-place)
I0226 22:38:18.245362 16389 net.cpp:150] Setting up bn3b1_branch2c
I0226 22:38:18.245383 16389 net.cpp:157] Top shape: 8 512 28 28 (3211264)
I0226 22:38:18.245393 16389 net.cpp:165] Memory required for data: 1103070176
I0226 22:38:18.245407 16389 layer_factory.hpp:77] Creating layer scale3b1_branch2c
I0226 22:38:18.245420 16389 net.cpp:106] Creating Layer scale3b1_branch2c
I0226 22:38:18.245430 16389 net.cpp:454] scale3b1_branch2c <- res3b1_branch2c
I0226 22:38:18.245442 16389 net.cpp:397] scale3b1_branch2c -> res3b1_branch2c (in-place)
I0226 22:38:18.245501 16389 layer_factory.hpp:77] Creating layer scale3b1_branch2c
I0226 22:38:18.245641 16389 net.cpp:150] Setting up scale3b1_branch2c
I0226 22:38:18.245659 16389 net.cpp:157] Top shape: 8 512 28 28 (3211264)
I0226 22:38:18.245669 16389 net.cpp:165] Memory required for data: 1115915232
I0226 22:38:18.245682 16389 layer_factory.hpp:77] Creating layer res3b1
I0226 22:38:18.245695 16389 net.cpp:106] Creating Layer res3b1
I0226 22:38:18.245705 16389 net.cpp:454] res3b1 <- res3a_res3a_relu_0_split_1
I0226 22:38:18.245717 16389 net.cpp:454] res3b1 <- res3b1_branch2c
I0226 22:38:18.245731 16389 net.cpp:411] res3b1 -> res3b1
I0226 22:38:18.245769 16389 net.cpp:150] Setting up res3b1
I0226 22:38:18.245784 16389 net.cpp:157] Top shape: 8 512 28 28 (3211264)
I0226 22:38:18.245793 16389 net.cpp:165] Memory required for data: 1128760288
I0226 22:38:18.245802 16389 layer_factory.hpp:77] Creating layer res3b1_relu
I0226 22:38:18.245817 16389 net.cpp:106] Creating Layer res3b1_relu
I0226 22:38:18.245828 16389 net.cpp:454] res3b1_relu <- res3b1
I0226 22:38:18.245841 16389 net.cpp:397] res3b1_relu -> res3b1 (in-place)
I0226 22:38:18.245853 16389 net.cpp:150] Setting up res3b1_relu
I0226 22:38:18.245865 16389 net.cpp:157] Top shape: 8 512 28 28 (3211264)
I0226 22:38:18.245874 16389 net.cpp:165] Memory required for data: 1141605344
I0226 22:38:18.245883 16389 layer_factory.hpp:77] Creating layer res3b1_res3b1_relu_0_split
I0226 22:38:18.245898 16389 net.cpp:106] Creating Layer res3b1_res3b1_relu_0_split
I0226 22:38:18.245908 16389 net.cpp:454] res3b1_res3b1_relu_0_split <- res3b1
I0226 22:38:18.245920 16389 net.cpp:411] res3b1_res3b1_relu_0_split -> res3b1_res3b1_relu_0_split_0
I0226 22:38:18.245934 16389 net.cpp:411] res3b1_res3b1_relu_0_split -> res3b1_res3b1_relu_0_split_1
I0226 22:38:18.245983 16389 net.cpp:150] Setting up res3b1_res3b1_relu_0_split
I0226 22:38:18.245998 16389 net.cpp:157] Top shape: 8 512 28 28 (3211264)
I0226 22:38:18.246009 16389 net.cpp:157] Top shape: 8 512 28 28 (3211264)
I0226 22:38:18.246027 16389 net.cpp:165] Memory required for data: 1167295456
I0226 22:38:18.246047 16389 layer_factory.hpp:77] Creating layer res3b2_branch2a
I0226 22:38:18.246065 16389 net.cpp:106] Creating Layer res3b2_branch2a
I0226 22:38:18.246076 16389 net.cpp:454] res3b2_branch2a <- res3b1_res3b1_relu_0_split_0
I0226 22:38:18.246093 16389 net.cpp:411] res3b2_branch2a -> res3b2_branch2a
I0226 22:38:18.246356 16389 net.cpp:150] Setting up res3b2_branch2a
I0226 22:38:18.246376 16389 net.cpp:157] Top shape: 8 128 28 28 (802816)
I0226 22:38:18.246386 16389 net.cpp:165] Memory required for data: 1170506720
I0226 22:38:18.246397 16389 layer_factory.hpp:77] Creating layer bn3b2_branch2a
I0226 22:38:18.246413 16389 net.cpp:106] Creating Layer bn3b2_branch2a
I0226 22:38:18.246424 16389 net.cpp:454] bn3b2_branch2a <- res3b2_branch2a
I0226 22:38:18.246436 16389 net.cpp:397] bn3b2_branch2a -> res3b2_branch2a (in-place)
I0226 22:38:18.246649 16389 net.cpp:150] Setting up bn3b2_branch2a
I0226 22:38:18.246666 16389 net.cpp:157] Top shape: 8 128 28 28 (802816)
I0226 22:38:18.246675 16389 net.cpp:165] Memory required for data: 1173717984
I0226 22:38:18.246691 16389 layer_factory.hpp:77] Creating layer scale3b2_branch2a
I0226 22:38:18.246707 16389 net.cpp:106] Creating Layer scale3b2_branch2a
I0226 22:38:18.246718 16389 net.cpp:454] scale3b2_branch2a <- res3b2_branch2a
I0226 22:38:18.246731 16389 net.cpp:397] scale3b2_branch2a -> res3b2_branch2a (in-place)
I0226 22:38:18.246789 16389 layer_factory.hpp:77] Creating layer scale3b2_branch2a
I0226 22:38:18.246929 16389 net.cpp:150] Setting up scale3b2_branch2a
I0226 22:38:18.246948 16389 net.cpp:157] Top shape: 8 128 28 28 (802816)
I0226 22:38:18.246956 16389 net.cpp:165] Memory required for data: 1176929248
I0226 22:38:18.246970 16389 layer_factory.hpp:77] Creating layer res3b2_branch2a_relu
I0226 22:38:18.246983 16389 net.cpp:106] Creating Layer res3b2_branch2a_relu
I0226 22:38:18.246994 16389 net.cpp:454] res3b2_branch2a_relu <- res3b2_branch2a
I0226 22:38:18.247004 16389 net.cpp:397] res3b2_branch2a_relu -> res3b2_branch2a (in-place)
I0226 22:38:18.247017 16389 net.cpp:150] Setting up res3b2_branch2a_relu
I0226 22:38:18.247030 16389 net.cpp:157] Top shape: 8 128 28 28 (802816)
I0226 22:38:18.247037 16389 net.cpp:165] Memory required for data: 1180140512
I0226 22:38:18.247047 16389 layer_factory.hpp:77] Creating layer res3b2_branch2b
I0226 22:38:18.247064 16389 net.cpp:106] Creating Layer res3b2_branch2b
I0226 22:38:18.247076 16389 net.cpp:454] res3b2_branch2b <- res3b2_branch2a
I0226 22:38:18.247090 16389 net.cpp:411] res3b2_branch2b -> res3b2_branch2b
I0226 22:38:18.248098 16389 net.cpp:150] Setting up res3b2_branch2b
I0226 22:38:18.248121 16389 net.cpp:157] Top shape: 8 128 28 28 (802816)
I0226 22:38:18.248131 16389 net.cpp:165] Memory required for data: 1183351776
I0226 22:38:18.248143 16389 layer_factory.hpp:77] Creating layer bn3b2_branch2b
I0226 22:38:18.248160 16389 net.cpp:106] Creating Layer bn3b2_branch2b
I0226 22:38:18.248172 16389 net.cpp:454] bn3b2_branch2b <- res3b2_branch2b
I0226 22:38:18.248183 16389 net.cpp:397] bn3b2_branch2b -> res3b2_branch2b (in-place)
I0226 22:38:18.248399 16389 net.cpp:150] Setting up bn3b2_branch2b
I0226 22:38:18.248417 16389 net.cpp:157] Top shape: 8 128 28 28 (802816)
I0226 22:38:18.248427 16389 net.cpp:165] Memory required for data: 1186563040
I0226 22:38:18.248442 16389 layer_factory.hpp:77] Creating layer scale3b2_branch2b
I0226 22:38:18.248456 16389 net.cpp:106] Creating Layer scale3b2_branch2b
I0226 22:38:18.248466 16389 net.cpp:454] scale3b2_branch2b <- res3b2_branch2b
I0226 22:38:18.248482 16389 net.cpp:397] scale3b2_branch2b -> res3b2_branch2b (in-place)
I0226 22:38:18.248538 16389 layer_factory.hpp:77] Creating layer scale3b2_branch2b
I0226 22:38:18.248679 16389 net.cpp:150] Setting up scale3b2_branch2b
I0226 22:38:18.248697 16389 net.cpp:157] Top shape: 8 128 28 28 (802816)
I0226 22:38:18.248708 16389 net.cpp:165] Memory required for data: 1189774304
I0226 22:38:18.248720 16389 layer_factory.hpp:77] Creating layer res3b2_branch2b_relu
I0226 22:38:18.248744 16389 net.cpp:106] Creating Layer res3b2_branch2b_relu
I0226 22:38:18.248764 16389 net.cpp:454] res3b2_branch2b_relu <- res3b2_branch2b
I0226 22:38:18.248776 16389 net.cpp:397] res3b2_branch2b_relu -> res3b2_branch2b (in-place)
I0226 22:38:18.248790 16389 net.cpp:150] Setting up res3b2_branch2b_relu
I0226 22:38:18.248801 16389 net.cpp:157] Top shape: 8 128 28 28 (802816)
I0226 22:38:18.248811 16389 net.cpp:165] Memory required for data: 1192985568
I0226 22:38:18.248819 16389 layer_factory.hpp:77] Creating layer res3b2_branch2c
I0226 22:38:18.248837 16389 net.cpp:106] Creating Layer res3b2_branch2c
I0226 22:38:18.248847 16389 net.cpp:454] res3b2_branch2c <- res3b2_branch2b
I0226 22:38:18.248859 16389 net.cpp:411] res3b2_branch2c -> res3b2_branch2c
I0226 22:38:18.249116 16389 net.cpp:150] Setting up res3b2_branch2c
I0226 22:38:18.249136 16389 net.cpp:157] Top shape: 8 512 28 28 (3211264)
I0226 22:38:18.249145 16389 net.cpp:165] Memory required for data: 1205830624
I0226 22:38:18.249157 16389 layer_factory.hpp:77] Creating layer bn3b2_branch2c
I0226 22:38:18.249174 16389 net.cpp:106] Creating Layer bn3b2_branch2c
I0226 22:38:18.249186 16389 net.cpp:454] bn3b2_branch2c <- res3b2_branch2c
I0226 22:38:18.249197 16389 net.cpp:397] bn3b2_branch2c -> res3b2_branch2c (in-place)
I0226 22:38:18.249423 16389 net.cpp:150] Setting up bn3b2_branch2c
I0226 22:38:18.249442 16389 net.cpp:157] Top shape: 8 512 28 28 (3211264)
I0226 22:38:18.249452 16389 net.cpp:165] Memory required for data: 1218675680
I0226 22:38:18.249467 16389 layer_factory.hpp:77] Creating layer scale3b2_branch2c
I0226 22:38:18.249481 16389 net.cpp:106] Creating Layer scale3b2_branch2c
I0226 22:38:18.249491 16389 net.cpp:454] scale3b2_branch2c <- res3b2_branch2c
I0226 22:38:18.249506 16389 net.cpp:397] scale3b2_branch2c -> res3b2_branch2c (in-place)
I0226 22:38:18.249563 16389 layer_factory.hpp:77] Creating layer scale3b2_branch2c
I0226 22:38:18.249701 16389 net.cpp:150] Setting up scale3b2_branch2c
I0226 22:38:18.249722 16389 net.cpp:157] Top shape: 8 512 28 28 (3211264)
I0226 22:38:18.249732 16389 net.cpp:165] Memory required for data: 1231520736
I0226 22:38:18.249745 16389 layer_factory.hpp:77] Creating layer res3b2
I0226 22:38:18.249758 16389 net.cpp:106] Creating Layer res3b2
I0226 22:38:18.249768 16389 net.cpp:454] res3b2 <- res3b1_res3b1_relu_0_split_1
I0226 22:38:18.249779 16389 net.cpp:454] res3b2 <- res3b2_branch2c
I0226 22:38:18.249790 16389 net.cpp:411] res3b2 -> res3b2
I0226 22:38:18.249830 16389 net.cpp:150] Setting up res3b2
I0226 22:38:18.249845 16389 net.cpp:157] Top shape: 8 512 28 28 (3211264)
I0226 22:38:18.249855 16389 net.cpp:165] Memory required for data: 1244365792
I0226 22:38:18.249864 16389 layer_factory.hpp:77] Creating layer res3b2_relu
I0226 22:38:18.249876 16389 net.cpp:106] Creating Layer res3b2_relu
I0226 22:38:18.249889 16389 net.cpp:454] res3b2_relu <- res3b2
I0226 22:38:18.249902 16389 net.cpp:397] res3b2_relu -> res3b2 (in-place)
I0226 22:38:18.249914 16389 net.cpp:150] Setting up res3b2_relu
I0226 22:38:18.249927 16389 net.cpp:157] Top shape: 8 512 28 28 (3211264)
I0226 22:38:18.249935 16389 net.cpp:165] Memory required for data: 1257210848
I0226 22:38:18.249944 16389 layer_factory.hpp:77] Creating layer res3b2_res3b2_relu_0_split
I0226 22:38:18.249955 16389 net.cpp:106] Creating Layer res3b2_res3b2_relu_0_split
I0226 22:38:18.249965 16389 net.cpp:454] res3b2_res3b2_relu_0_split <- res3b2
I0226 22:38:18.249976 16389 net.cpp:411] res3b2_res3b2_relu_0_split -> res3b2_res3b2_relu_0_split_0
I0226 22:38:18.249990 16389 net.cpp:411] res3b2_res3b2_relu_0_split -> res3b2_res3b2_relu_0_split_1
I0226 22:38:18.250041 16389 net.cpp:150] Setting up res3b2_res3b2_relu_0_split
I0226 22:38:18.250056 16389 net.cpp:157] Top shape: 8 512 28 28 (3211264)
I0226 22:38:18.250067 16389 net.cpp:157] Top shape: 8 512 28 28 (3211264)
I0226 22:38:18.250077 16389 net.cpp:165] Memory required for data: 1282900960
I0226 22:38:18.250087 16389 layer_factory.hpp:77] Creating layer res3b3_branch2a
I0226 22:38:18.250103 16389 net.cpp:106] Creating Layer res3b3_branch2a
I0226 22:38:18.250129 16389 net.cpp:454] res3b3_branch2a <- res3b2_res3b2_relu_0_split_0
I0226 22:38:18.250144 16389 net.cpp:411] res3b3_branch2a -> res3b3_branch2a
I0226 22:38:18.251093 16389 net.cpp:150] Setting up res3b3_branch2a
I0226 22:38:18.251116 16389 net.cpp:157] Top shape: 8 128 28 28 (802816)
I0226 22:38:18.251127 16389 net.cpp:165] Memory required for data: 1286112224
I0226 22:38:18.251138 16389 layer_factory.hpp:77] Creating layer bn3b3_branch2a
I0226 22:38:18.251155 16389 net.cpp:106] Creating Layer bn3b3_branch2a
I0226 22:38:18.251166 16389 net.cpp:454] bn3b3_branch2a <- res3b3_branch2a
I0226 22:38:18.251178 16389 net.cpp:397] bn3b3_branch2a -> res3b3_branch2a (in-place)
I0226 22:38:18.251404 16389 net.cpp:150] Setting up bn3b3_branch2a
I0226 22:38:18.251422 16389 net.cpp:157] Top shape: 8 128 28 28 (802816)
I0226 22:38:18.251431 16389 net.cpp:165] Memory required for data: 1289323488
I0226 22:38:18.251468 16389 layer_factory.hpp:77] Creating layer scale3b3_branch2a
I0226 22:38:18.251488 16389 net.cpp:106] Creating Layer scale3b3_branch2a
I0226 22:38:18.251499 16389 net.cpp:454] scale3b3_branch2a <- res3b3_branch2a
I0226 22:38:18.251512 16389 net.cpp:397] scale3b3_branch2a -> res3b3_branch2a (in-place)
I0226 22:38:18.251574 16389 layer_factory.hpp:77] Creating layer scale3b3_branch2a
I0226 22:38:18.251718 16389 net.cpp:150] Setting up scale3b3_branch2a
I0226 22:38:18.251735 16389 net.cpp:157] Top shape: 8 128 28 28 (802816)
I0226 22:38:18.251744 16389 net.cpp:165] Memory required for data: 1292534752
I0226 22:38:18.251758 16389 layer_factory.hpp:77] Creating layer res3b3_branch2a_relu
I0226 22:38:18.251770 16389 net.cpp:106] Creating Layer res3b3_branch2a_relu
I0226 22:38:18.251781 16389 net.cpp:454] res3b3_branch2a_relu <- res3b3_branch2a
I0226 22:38:18.251792 16389 net.cpp:397] res3b3_branch2a_relu -> res3b3_branch2a (in-place)
I0226 22:38:18.251806 16389 net.cpp:150] Setting up res3b3_branch2a_relu
I0226 22:38:18.251817 16389 net.cpp:157] Top shape: 8 128 28 28 (802816)
I0226 22:38:18.251827 16389 net.cpp:165] Memory required for data: 1295746016
I0226 22:38:18.251835 16389 layer_factory.hpp:77] Creating layer res3b3_branch2b
I0226 22:38:18.251849 16389 net.cpp:106] Creating Layer res3b3_branch2b
I0226 22:38:18.251859 16389 net.cpp:454] res3b3_branch2b <- res3b3_branch2a
I0226 22:38:18.251875 16389 net.cpp:411] res3b3_branch2b -> res3b3_branch2b
I0226 22:38:18.252876 16389 net.cpp:150] Setting up res3b3_branch2b
I0226 22:38:18.252898 16389 net.cpp:157] Top shape: 8 128 28 28 (802816)
I0226 22:38:18.252908 16389 net.cpp:165] Memory required for data: 1298957280
I0226 22:38:18.252921 16389 layer_factory.hpp:77] Creating layer bn3b3_branch2b
I0226 22:38:18.252934 16389 net.cpp:106] Creating Layer bn3b3_branch2b
I0226 22:38:18.252944 16389 net.cpp:454] bn3b3_branch2b <- res3b3_branch2b
I0226 22:38:18.252956 16389 net.cpp:397] bn3b3_branch2b -> res3b3_branch2b (in-place)
I0226 22:38:18.253180 16389 net.cpp:150] Setting up bn3b3_branch2b
I0226 22:38:18.253197 16389 net.cpp:157] Top shape: 8 128 28 28 (802816)
I0226 22:38:18.253207 16389 net.cpp:165] Memory required for data: 1302168544
I0226 22:38:18.253226 16389 layer_factory.hpp:77] Creating layer scale3b3_branch2b
I0226 22:38:18.253240 16389 net.cpp:106] Creating Layer scale3b3_branch2b
I0226 22:38:18.253258 16389 net.cpp:454] scale3b3_branch2b <- res3b3_branch2b
I0226 22:38:18.253273 16389 net.cpp:397] scale3b3_branch2b -> res3b3_branch2b (in-place)
I0226 22:38:18.253332 16389 layer_factory.hpp:77] Creating layer scale3b3_branch2b
I0226 22:38:18.253478 16389 net.cpp:150] Setting up scale3b3_branch2b
I0226 22:38:18.253494 16389 net.cpp:157] Top shape: 8 128 28 28 (802816)
I0226 22:38:18.253504 16389 net.cpp:165] Memory required for data: 1305379808
I0226 22:38:18.253518 16389 layer_factory.hpp:77] Creating layer res3b3_branch2b_relu
I0226 22:38:18.253533 16389 net.cpp:106] Creating Layer res3b3_branch2b_relu
I0226 22:38:18.253545 16389 net.cpp:454] res3b3_branch2b_relu <- res3b3_branch2b
I0226 22:38:18.253556 16389 net.cpp:397] res3b3_branch2b_relu -> res3b3_branch2b (in-place)
I0226 22:38:18.253585 16389 net.cpp:150] Setting up res3b3_branch2b_relu
I0226 22:38:18.253598 16389 net.cpp:157] Top shape: 8 128 28 28 (802816)
I0226 22:38:18.253607 16389 net.cpp:165] Memory required for data: 1308591072
I0226 22:38:18.253618 16389 layer_factory.hpp:77] Creating layer res3b3_branch2c
I0226 22:38:18.253634 16389 net.cpp:106] Creating Layer res3b3_branch2c
I0226 22:38:18.253645 16389 net.cpp:454] res3b3_branch2c <- res3b3_branch2b
I0226 22:38:18.253657 16389 net.cpp:411] res3b3_branch2c -> res3b3_branch2c
I0226 22:38:18.253922 16389 net.cpp:150] Setting up res3b3_branch2c
I0226 22:38:18.253942 16389 net.cpp:157] Top shape: 8 512 28 28 (3211264)
I0226 22:38:18.253950 16389 net.cpp:165] Memory required for data: 1321436128
I0226 22:38:18.253962 16389 layer_factory.hpp:77] Creating layer bn3b3_branch2c
I0226 22:38:18.253975 16389 net.cpp:106] Creating Layer bn3b3_branch2c
I0226 22:38:18.253985 16389 net.cpp:454] bn3b3_branch2c <- res3b3_branch2c
I0226 22:38:18.254004 16389 net.cpp:397] bn3b3_branch2c -> res3b3_branch2c (in-place)
I0226 22:38:18.254226 16389 net.cpp:150] Setting up bn3b3_branch2c
I0226 22:38:18.254245 16389 net.cpp:157] Top shape: 8 512 28 28 (3211264)
I0226 22:38:18.254253 16389 net.cpp:165] Memory required for data: 1334281184
I0226 22:38:18.254268 16389 layer_factory.hpp:77] Creating layer scale3b3_branch2c
I0226 22:38:18.254281 16389 net.cpp:106] Creating Layer scale3b3_branch2c
I0226 22:38:18.254292 16389 net.cpp:454] scale3b3_branch2c <- res3b3_branch2c
I0226 22:38:18.254303 16389 net.cpp:397] scale3b3_branch2c -> res3b3_branch2c (in-place)
I0226 22:38:18.254362 16389 layer_factory.hpp:77] Creating layer scale3b3_branch2c
I0226 22:38:18.254500 16389 net.cpp:150] Setting up scale3b3_branch2c
I0226 22:38:18.254518 16389 net.cpp:157] Top shape: 8 512 28 28 (3211264)
I0226 22:38:18.254526 16389 net.cpp:165] Memory required for data: 1347126240
I0226 22:38:18.254539 16389 layer_factory.hpp:77] Creating layer res3b3
I0226 22:38:18.254552 16389 net.cpp:106] Creating Layer res3b3
I0226 22:38:18.254564 16389 net.cpp:454] res3b3 <- res3b2_res3b2_relu_0_split_1
I0226 22:38:18.254575 16389 net.cpp:454] res3b3 <- res3b3_branch2c
I0226 22:38:18.254590 16389 net.cpp:411] res3b3 -> res3b3
I0226 22:38:18.254626 16389 net.cpp:150] Setting up res3b3
I0226 22:38:18.254640 16389 net.cpp:157] Top shape: 8 512 28 28 (3211264)
I0226 22:38:18.254650 16389 net.cpp:165] Memory required for data: 1359971296
I0226 22:38:18.254659 16389 layer_factory.hpp:77] Creating layer res3b3_relu
I0226 22:38:18.254675 16389 net.cpp:106] Creating Layer res3b3_relu
I0226 22:38:18.254685 16389 net.cpp:454] res3b3_relu <- res3b3
I0226 22:38:18.254696 16389 net.cpp:397] res3b3_relu -> res3b3 (in-place)
I0226 22:38:18.254709 16389 net.cpp:150] Setting up res3b3_relu
I0226 22:38:18.254721 16389 net.cpp:157] Top shape: 8 512 28 28 (3211264)
I0226 22:38:18.254730 16389 net.cpp:165] Memory required for data: 1372816352
I0226 22:38:18.254739 16389 layer_factory.hpp:77] Creating layer res3b3_res3b3_relu_0_split
I0226 22:38:18.254755 16389 net.cpp:106] Creating Layer res3b3_res3b3_relu_0_split
I0226 22:38:18.254765 16389 net.cpp:454] res3b3_res3b3_relu_0_split <- res3b3
I0226 22:38:18.254776 16389 net.cpp:411] res3b3_res3b3_relu_0_split -> res3b3_res3b3_relu_0_split_0
I0226 22:38:18.254788 16389 net.cpp:411] res3b3_res3b3_relu_0_split -> res3b3_res3b3_relu_0_split_1
I0226 22:38:18.254838 16389 net.cpp:150] Setting up res3b3_res3b3_relu_0_split
I0226 22:38:18.254853 16389 net.cpp:157] Top shape: 8 512 28 28 (3211264)
I0226 22:38:18.254864 16389 net.cpp:157] Top shape: 8 512 28 28 (3211264)
I0226 22:38:18.254873 16389 net.cpp:165] Memory required for data: 1398506464
I0226 22:38:18.254883 16389 layer_factory.hpp:77] Creating layer res3b4_branch2a
I0226 22:38:18.254896 16389 net.cpp:106] Creating Layer res3b4_branch2a
I0226 22:38:18.254906 16389 net.cpp:454] res3b4_branch2a <- res3b3_res3b3_relu_0_split_0
I0226 22:38:18.254926 16389 net.cpp:411] res3b4_branch2a -> res3b4_branch2a
I0226 22:38:18.255198 16389 net.cpp:150] Setting up res3b4_branch2a
I0226 22:38:18.255226 16389 net.cpp:157] Top shape: 8 128 28 28 (802816)
I0226 22:38:18.255236 16389 net.cpp:165] Memory required for data: 1401717728
I0226 22:38:18.255249 16389 layer_factory.hpp:77] Creating layer bn3b4_branch2a
I0226 22:38:18.255265 16389 net.cpp:106] Creating Layer bn3b4_branch2a
I0226 22:38:18.255276 16389 net.cpp:454] bn3b4_branch2a <- res3b4_branch2a
I0226 22:38:18.255287 16389 net.cpp:397] bn3b4_branch2a -> res3b4_branch2a (in-place)
I0226 22:38:18.255501 16389 net.cpp:150] Setting up bn3b4_branch2a
I0226 22:38:18.255519 16389 net.cpp:157] Top shape: 8 128 28 28 (802816)
I0226 22:38:18.255528 16389 net.cpp:165] Memory required for data: 1404928992
I0226 22:38:18.255543 16389 layer_factory.hpp:77] Creating layer scale3b4_branch2a
I0226 22:38:18.255556 16389 net.cpp:106] Creating Layer scale3b4_branch2a
I0226 22:38:18.255566 16389 net.cpp:454] scale3b4_branch2a <- res3b4_branch2a
I0226 22:38:18.255583 16389 net.cpp:397] scale3b4_branch2a -> res3b4_branch2a (in-place)
I0226 22:38:18.255641 16389 layer_factory.hpp:77] Creating layer scale3b4_branch2a
I0226 22:38:18.255784 16389 net.cpp:150] Setting up scale3b4_branch2a
I0226 22:38:18.255800 16389 net.cpp:157] Top shape: 8 128 28 28 (802816)
I0226 22:38:18.255810 16389 net.cpp:165] Memory required for data: 1408140256
I0226 22:38:18.255823 16389 layer_factory.hpp:77] Creating layer res3b4_branch2a_relu
I0226 22:38:18.255836 16389 net.cpp:106] Creating Layer res3b4_branch2a_relu
I0226 22:38:18.255846 16389 net.cpp:454] res3b4_branch2a_relu <- res3b4_branch2a
I0226 22:38:18.255856 16389 net.cpp:397] res3b4_branch2a_relu -> res3b4_branch2a (in-place)
I0226 22:38:18.255869 16389 net.cpp:150] Setting up res3b4_branch2a_relu
I0226 22:38:18.255882 16389 net.cpp:157] Top shape: 8 128 28 28 (802816)
I0226 22:38:18.255890 16389 net.cpp:165] Memory required for data: 1411351520
I0226 22:38:18.255899 16389 layer_factory.hpp:77] Creating layer res3b4_branch2b
I0226 22:38:18.255915 16389 net.cpp:106] Creating Layer res3b4_branch2b
I0226 22:38:18.255926 16389 net.cpp:454] res3b4_branch2b <- res3b4_branch2a
I0226 22:38:18.255941 16389 net.cpp:411] res3b4_branch2b -> res3b4_branch2b
I0226 22:38:18.256960 16389 net.cpp:150] Setting up res3b4_branch2b
I0226 22:38:18.256983 16389 net.cpp:157] Top shape: 8 128 28 28 (802816)
I0226 22:38:18.256992 16389 net.cpp:165] Memory required for data: 1414562784
I0226 22:38:18.257005 16389 layer_factory.hpp:77] Creating layer bn3b4_branch2b
I0226 22:38:18.257021 16389 net.cpp:106] Creating Layer bn3b4_branch2b
I0226 22:38:18.257033 16389 net.cpp:454] bn3b4_branch2b <- res3b4_branch2b
I0226 22:38:18.257045 16389 net.cpp:397] bn3b4_branch2b -> res3b4_branch2b (in-place)
I0226 22:38:18.257275 16389 net.cpp:150] Setting up bn3b4_branch2b
I0226 22:38:18.257295 16389 net.cpp:157] Top shape: 8 128 28 28 (802816)
I0226 22:38:18.257304 16389 net.cpp:165] Memory required for data: 1417774048
I0226 22:38:18.257320 16389 layer_factory.hpp:77] Creating layer scale3b4_branch2b
I0226 22:38:18.257333 16389 net.cpp:106] Creating Layer scale3b4_branch2b
I0226 22:38:18.257344 16389 net.cpp:454] scale3b4_branch2b <- res3b4_branch2b
I0226 22:38:18.257355 16389 net.cpp:397] scale3b4_branch2b -> res3b4_branch2b (in-place)
I0226 22:38:18.257416 16389 layer_factory.hpp:77] Creating layer scale3b4_branch2b
I0226 22:38:18.257556 16389 net.cpp:150] Setting up scale3b4_branch2b
I0226 22:38:18.257575 16389 net.cpp:157] Top shape: 8 128 28 28 (802816)
I0226 22:38:18.257585 16389 net.cpp:165] Memory required for data: 1420985312
I0226 22:38:18.257597 16389 layer_factory.hpp:77] Creating layer res3b4_branch2b_relu
I0226 22:38:18.257613 16389 net.cpp:106] Creating Layer res3b4_branch2b_relu
I0226 22:38:18.257624 16389 net.cpp:454] res3b4_branch2b_relu <- res3b4_branch2b
I0226 22:38:18.257637 16389 net.cpp:397] res3b4_branch2b_relu -> res3b4_branch2b (in-place)
I0226 22:38:18.257649 16389 net.cpp:150] Setting up res3b4_branch2b_relu
I0226 22:38:18.257661 16389 net.cpp:157] Top shape: 8 128 28 28 (802816)
I0226 22:38:18.257678 16389 net.cpp:165] Memory required for data: 1424196576
I0226 22:38:18.257697 16389 layer_factory.hpp:77] Creating layer res3b4_branch2c
I0226 22:38:18.257715 16389 net.cpp:106] Creating Layer res3b4_branch2c
I0226 22:38:18.257726 16389 net.cpp:454] res3b4_branch2c <- res3b4_branch2b
I0226 22:38:18.257738 16389 net.cpp:411] res3b4_branch2c -> res3b4_branch2c
I0226 22:38:18.258002 16389 net.cpp:150] Setting up res3b4_branch2c
I0226 22:38:18.258020 16389 net.cpp:157] Top shape: 8 512 28 28 (3211264)
I0226 22:38:18.258029 16389 net.cpp:165] Memory required for data: 1437041632
I0226 22:38:18.258041 16389 layer_factory.hpp:77] Creating layer bn3b4_branch2c
I0226 22:38:18.258060 16389 net.cpp:106] Creating Layer bn3b4_branch2c
I0226 22:38:18.258071 16389 net.cpp:454] bn3b4_branch2c <- res3b4_branch2c
I0226 22:38:18.258083 16389 net.cpp:397] bn3b4_branch2c -> res3b4_branch2c (in-place)
I0226 22:38:18.258301 16389 net.cpp:150] Setting up bn3b4_branch2c
I0226 22:38:18.258318 16389 net.cpp:157] Top shape: 8 512 28 28 (3211264)
I0226 22:38:18.258327 16389 net.cpp:165] Memory required for data: 1449886688
I0226 22:38:18.258343 16389 layer_factory.hpp:77] Creating layer scale3b4_branch2c
I0226 22:38:18.258357 16389 net.cpp:106] Creating Layer scale3b4_branch2c
I0226 22:38:18.258366 16389 net.cpp:454] scale3b4_branch2c <- res3b4_branch2c
I0226 22:38:18.258381 16389 net.cpp:397] scale3b4_branch2c -> res3b4_branch2c (in-place)
I0226 22:38:18.258438 16389 layer_factory.hpp:77] Creating layer scale3b4_branch2c
I0226 22:38:18.258582 16389 net.cpp:150] Setting up scale3b4_branch2c
I0226 22:38:18.258604 16389 net.cpp:157] Top shape: 8 512 28 28 (3211264)
I0226 22:38:18.258613 16389 net.cpp:165] Memory required for data: 1462731744
I0226 22:38:18.258627 16389 layer_factory.hpp:77] Creating layer res3b4
I0226 22:38:18.258641 16389 net.cpp:106] Creating Layer res3b4
I0226 22:38:18.258651 16389 net.cpp:454] res3b4 <- res3b3_res3b3_relu_0_split_1
I0226 22:38:18.258661 16389 net.cpp:454] res3b4 <- res3b4_branch2c
I0226 22:38:18.258672 16389 net.cpp:411] res3b4 -> res3b4
I0226 22:38:18.258711 16389 net.cpp:150] Setting up res3b4
I0226 22:38:18.258728 16389 net.cpp:157] Top shape: 8 512 28 28 (3211264)
I0226 22:38:18.258738 16389 net.cpp:165] Memory required for data: 1475576800
I0226 22:38:18.258746 16389 layer_factory.hpp:77] Creating layer res3b4_relu
I0226 22:38:18.258759 16389 net.cpp:106] Creating Layer res3b4_relu
I0226 22:38:18.258769 16389 net.cpp:454] res3b4_relu <- res3b4
I0226 22:38:18.258783 16389 net.cpp:397] res3b4_relu -> res3b4 (in-place)
I0226 22:38:18.258796 16389 net.cpp:150] Setting up res3b4_relu
I0226 22:38:18.258808 16389 net.cpp:157] Top shape: 8 512 28 28 (3211264)
I0226 22:38:18.258817 16389 net.cpp:165] Memory required for data: 1488421856
I0226 22:38:18.258826 16389 layer_factory.hpp:77] Creating layer res3b4_res3b4_relu_0_split
I0226 22:38:18.258838 16389 net.cpp:106] Creating Layer res3b4_res3b4_relu_0_split
I0226 22:38:18.258847 16389 net.cpp:454] res3b4_res3b4_relu_0_split <- res3b4
I0226 22:38:18.258859 16389 net.cpp:411] res3b4_res3b4_relu_0_split -> res3b4_res3b4_relu_0_split_0
I0226 22:38:18.258872 16389 net.cpp:411] res3b4_res3b4_relu_0_split -> res3b4_res3b4_relu_0_split_1
I0226 22:38:18.258924 16389 net.cpp:150] Setting up res3b4_res3b4_relu_0_split
I0226 22:38:18.258939 16389 net.cpp:157] Top shape: 8 512 28 28 (3211264)
I0226 22:38:18.258950 16389 net.cpp:157] Top shape: 8 512 28 28 (3211264)
I0226 22:38:18.258960 16389 net.cpp:165] Memory required for data: 1514111968
I0226 22:38:18.258970 16389 layer_factory.hpp:77] Creating layer res3b5_branch2a
I0226 22:38:18.258991 16389 net.cpp:106] Creating Layer res3b5_branch2a
I0226 22:38:18.259002 16389 net.cpp:454] res3b5_branch2a <- res3b4_res3b4_relu_0_split_0
I0226 22:38:18.259014 16389 net.cpp:411] res3b5_branch2a -> res3b5_branch2a
I0226 22:38:18.259974 16389 net.cpp:150] Setting up res3b5_branch2a
I0226 22:38:18.259995 16389 net.cpp:157] Top shape: 8 128 28 28 (802816)
I0226 22:38:18.260004 16389 net.cpp:165] Memory required for data: 1517323232
I0226 22:38:18.260025 16389 layer_factory.hpp:77] Creating layer bn3b5_branch2a
I0226 22:38:18.260051 16389 net.cpp:106] Creating Layer bn3b5_branch2a
I0226 22:38:18.260063 16389 net.cpp:454] bn3b5_branch2a <- res3b5_branch2a
I0226 22:38:18.260076 16389 net.cpp:397] bn3b5_branch2a -> res3b5_branch2a (in-place)
I0226 22:38:18.260299 16389 net.cpp:150] Setting up bn3b5_branch2a
I0226 22:38:18.260318 16389 net.cpp:157] Top shape: 8 128 28 28 (802816)
I0226 22:38:18.260326 16389 net.cpp:165] Memory required for data: 1520534496
I0226 22:38:18.260342 16389 layer_factory.hpp:77] Creating layer scale3b5_branch2a
I0226 22:38:18.260370 16389 net.cpp:106] Creating Layer scale3b5_branch2a
I0226 22:38:18.260383 16389 net.cpp:454] scale3b5_branch2a <- res3b5_branch2a
I0226 22:38:18.260396 16389 net.cpp:397] scale3b5_branch2a -> res3b5_branch2a (in-place)
I0226 22:38:18.260463 16389 layer_factory.hpp:77] Creating layer scale3b5_branch2a
I0226 22:38:18.260609 16389 net.cpp:150] Setting up scale3b5_branch2a
I0226 22:38:18.260627 16389 net.cpp:157] Top shape: 8 128 28 28 (802816)
I0226 22:38:18.260637 16389 net.cpp:165] Memory required for data: 1523745760
I0226 22:38:18.260651 16389 layer_factory.hpp:77] Creating layer res3b5_branch2a_relu
I0226 22:38:18.260664 16389 net.cpp:106] Creating Layer res3b5_branch2a_relu
I0226 22:38:18.260674 16389 net.cpp:454] res3b5_branch2a_relu <- res3b5_branch2a
I0226 22:38:18.260689 16389 net.cpp:397] res3b5_branch2a_relu -> res3b5_branch2a (in-place)
I0226 22:38:18.260704 16389 net.cpp:150] Setting up res3b5_branch2a_relu
I0226 22:38:18.260715 16389 net.cpp:157] Top shape: 8 128 28 28 (802816)
I0226 22:38:18.260723 16389 net.cpp:165] Memory required for data: 1526957024
I0226 22:38:18.260733 16389 layer_factory.hpp:77] Creating layer res3b5_branch2b
I0226 22:38:18.260747 16389 net.cpp:106] Creating Layer res3b5_branch2b
I0226 22:38:18.260757 16389 net.cpp:454] res3b5_branch2b <- res3b5_branch2a
I0226 22:38:18.260773 16389 net.cpp:411] res3b5_branch2b -> res3b5_branch2b
I0226 22:38:18.261800 16389 net.cpp:150] Setting up res3b5_branch2b
I0226 22:38:18.261822 16389 net.cpp:157] Top shape: 8 128 28 28 (802816)
I0226 22:38:18.261832 16389 net.cpp:165] Memory required for data: 1530168288
I0226 22:38:18.261845 16389 layer_factory.hpp:77] Creating layer bn3b5_branch2b
I0226 22:38:18.261858 16389 net.cpp:106] Creating Layer bn3b5_branch2b
I0226 22:38:18.261868 16389 net.cpp:454] bn3b5_branch2b <- res3b5_branch2b
I0226 22:38:18.261880 16389 net.cpp:397] bn3b5_branch2b -> res3b5_branch2b (in-place)
I0226 22:38:18.262105 16389 net.cpp:150] Setting up bn3b5_branch2b
I0226 22:38:18.262123 16389 net.cpp:157] Top shape: 8 128 28 28 (802816)
I0226 22:38:18.262132 16389 net.cpp:165] Memory required for data: 1533379552
I0226 22:38:18.262156 16389 layer_factory.hpp:77] Creating layer scale3b5_branch2b
I0226 22:38:18.262171 16389 net.cpp:106] Creating Layer scale3b5_branch2b
I0226 22:38:18.262181 16389 net.cpp:454] scale3b5_branch2b <- res3b5_branch2b
I0226 22:38:18.262192 16389 net.cpp:397] scale3b5_branch2b -> res3b5_branch2b (in-place)
I0226 22:38:18.262253 16389 layer_factory.hpp:77] Creating layer scale3b5_branch2b
I0226 22:38:18.262404 16389 net.cpp:150] Setting up scale3b5_branch2b
I0226 22:38:18.262423 16389 net.cpp:157] Top shape: 8 128 28 28 (802816)
I0226 22:38:18.262432 16389 net.cpp:165] Memory required for data: 1536590816
I0226 22:38:18.262446 16389 layer_factory.hpp:77] Creating layer res3b5_branch2b_relu
I0226 22:38:18.262461 16389 net.cpp:106] Creating Layer res3b5_branch2b_relu
I0226 22:38:18.262473 16389 net.cpp:454] res3b5_branch2b_relu <- res3b5_branch2b
I0226 22:38:18.262485 16389 net.cpp:397] res3b5_branch2b_relu -> res3b5_branch2b (in-place)
I0226 22:38:18.262498 16389 net.cpp:150] Setting up res3b5_branch2b_relu
I0226 22:38:18.262511 16389 net.cpp:157] Top shape: 8 128 28 28 (802816)
I0226 22:38:18.262519 16389 net.cpp:165] Memory required for data: 1539802080
I0226 22:38:18.262528 16389 layer_factory.hpp:77] Creating layer res3b5_branch2c
I0226 22:38:18.262545 16389 net.cpp:106] Creating Layer res3b5_branch2c
I0226 22:38:18.262572 16389 net.cpp:454] res3b5_branch2c <- res3b5_branch2b
I0226 22:38:18.262586 16389 net.cpp:411] res3b5_branch2c -> res3b5_branch2c
I0226 22:38:18.262854 16389 net.cpp:150] Setting up res3b5_branch2c
I0226 22:38:18.262874 16389 net.cpp:157] Top shape: 8 512 28 28 (3211264)
I0226 22:38:18.262884 16389 net.cpp:165] Memory required for data: 1552647136
I0226 22:38:18.262897 16389 layer_factory.hpp:77] Creating layer bn3b5_branch2c
I0226 22:38:18.262908 16389 net.cpp:106] Creating Layer bn3b5_branch2c
I0226 22:38:18.262919 16389 net.cpp:454] bn3b5_branch2c <- res3b5_branch2c
I0226 22:38:18.262934 16389 net.cpp:397] bn3b5_branch2c -> res3b5_branch2c (in-place)
I0226 22:38:18.263160 16389 net.cpp:150] Setting up bn3b5_branch2c
I0226 22:38:18.263178 16389 net.cpp:157] Top shape: 8 512 28 28 (3211264)
I0226 22:38:18.263187 16389 net.cpp:165] Memory required for data: 1565492192
I0226 22:38:18.263203 16389 layer_factory.hpp:77] Creating layer scale3b5_branch2c
I0226 22:38:18.263216 16389 net.cpp:106] Creating Layer scale3b5_branch2c
I0226 22:38:18.263226 16389 net.cpp:454] scale3b5_branch2c <- res3b5_branch2c
I0226 22:38:18.263238 16389 net.cpp:397] scale3b5_branch2c -> res3b5_branch2c (in-place)
I0226 22:38:18.263299 16389 layer_factory.hpp:77] Creating layer scale3b5_branch2c
I0226 22:38:18.263443 16389 net.cpp:150] Setting up scale3b5_branch2c
I0226 22:38:18.263461 16389 net.cpp:157] Top shape: 8 512 28 28 (3211264)
I0226 22:38:18.263471 16389 net.cpp:165] Memory required for data: 1578337248
I0226 22:38:18.263484 16389 layer_factory.hpp:77] Creating layer res3b5
I0226 22:38:18.263496 16389 net.cpp:106] Creating Layer res3b5
I0226 22:38:18.263507 16389 net.cpp:454] res3b5 <- res3b4_res3b4_relu_0_split_1
I0226 22:38:18.263519 16389 net.cpp:454] res3b5 <- res3b5_branch2c
I0226 22:38:18.263533 16389 net.cpp:411] res3b5 -> res3b5
I0226 22:38:18.263571 16389 net.cpp:150] Setting up res3b5
I0226 22:38:18.263586 16389 net.cpp:157] Top shape: 8 512 28 28 (3211264)
I0226 22:38:18.263595 16389 net.cpp:165] Memory required for data: 1591182304
I0226 22:38:18.263604 16389 layer_factory.hpp:77] Creating layer res3b5_relu
I0226 22:38:18.263619 16389 net.cpp:106] Creating Layer res3b5_relu
I0226 22:38:18.263630 16389 net.cpp:454] res3b5_relu <- res3b5
I0226 22:38:18.263641 16389 net.cpp:397] res3b5_relu -> res3b5 (in-place)
I0226 22:38:18.263654 16389 net.cpp:150] Setting up res3b5_relu
I0226 22:38:18.263666 16389 net.cpp:157] Top shape: 8 512 28 28 (3211264)
I0226 22:38:18.263675 16389 net.cpp:165] Memory required for data: 1604027360
I0226 22:38:18.263684 16389 layer_factory.hpp:77] Creating layer res3b5_res3b5_relu_0_split
I0226 22:38:18.263695 16389 net.cpp:106] Creating Layer res3b5_res3b5_relu_0_split
I0226 22:38:18.263710 16389 net.cpp:454] res3b5_res3b5_relu_0_split <- res3b5
I0226 22:38:18.263720 16389 net.cpp:411] res3b5_res3b5_relu_0_split -> res3b5_res3b5_relu_0_split_0
I0226 22:38:18.263733 16389 net.cpp:411] res3b5_res3b5_relu_0_split -> res3b5_res3b5_relu_0_split_1
I0226 22:38:18.263787 16389 net.cpp:150] Setting up res3b5_res3b5_relu_0_split
I0226 22:38:18.263803 16389 net.cpp:157] Top shape: 8 512 28 28 (3211264)
I0226 22:38:18.263813 16389 net.cpp:157] Top shape: 8 512 28 28 (3211264)
I0226 22:38:18.263821 16389 net.cpp:165] Memory required for data: 1629717472
I0226 22:38:18.263831 16389 layer_factory.hpp:77] Creating layer res3b6_branch2a
I0226 22:38:18.263845 16389 net.cpp:106] Creating Layer res3b6_branch2a
I0226 22:38:18.263855 16389 net.cpp:454] res3b6_branch2a <- res3b5_res3b5_relu_0_split_0
I0226 22:38:18.263870 16389 net.cpp:411] res3b6_branch2a -> res3b6_branch2a
I0226 22:38:18.264137 16389 net.cpp:150] Setting up res3b6_branch2a
I0226 22:38:18.264155 16389 net.cpp:157] Top shape: 8 128 28 28 (802816)
I0226 22:38:18.264165 16389 net.cpp:165] Memory required for data: 1632928736
I0226 22:38:18.264178 16389 layer_factory.hpp:77] Creating layer bn3b6_branch2a
I0226 22:38:18.264194 16389 net.cpp:106] Creating Layer bn3b6_branch2a
I0226 22:38:18.264204 16389 net.cpp:454] bn3b6_branch2a <- res3b6_branch2a
I0226 22:38:18.264235 16389 net.cpp:397] bn3b6_branch2a -> res3b6_branch2a (in-place)
I0226 22:38:18.264461 16389 net.cpp:150] Setting up bn3b6_branch2a
I0226 22:38:18.264479 16389 net.cpp:157] Top shape: 8 128 28 28 (802816)
I0226 22:38:18.264488 16389 net.cpp:165] Memory required for data: 1636140000
I0226 22:38:18.264504 16389 layer_factory.hpp:77] Creating layer scale3b6_branch2a
I0226 22:38:18.264518 16389 net.cpp:106] Creating Layer scale3b6_branch2a
I0226 22:38:18.264528 16389 net.cpp:454] scale3b6_branch2a <- res3b6_branch2a
I0226 22:38:18.264542 16389 net.cpp:397] scale3b6_branch2a -> res3b6_branch2a (in-place)
I0226 22:38:18.264598 16389 layer_factory.hpp:77] Creating layer scale3b6_branch2a
I0226 22:38:18.264746 16389 net.cpp:150] Setting up scale3b6_branch2a
I0226 22:38:18.264765 16389 net.cpp:157] Top shape: 8 128 28 28 (802816)
I0226 22:38:18.264773 16389 net.cpp:165] Memory required for data: 1639351264
I0226 22:38:18.264786 16389 layer_factory.hpp:77] Creating layer res3b6_branch2a_relu
I0226 22:38:18.264799 16389 net.cpp:106] Creating Layer res3b6_branch2a_relu
I0226 22:38:18.264809 16389 net.cpp:454] res3b6_branch2a_relu <- res3b6_branch2a
I0226 22:38:18.264820 16389 net.cpp:397] res3b6_branch2a_relu -> res3b6_branch2a (in-place)
I0226 22:38:18.264833 16389 net.cpp:150] Setting up res3b6_branch2a_relu
I0226 22:38:18.264844 16389 net.cpp:157] Top shape: 8 128 28 28 (802816)
I0226 22:38:18.264853 16389 net.cpp:165] Memory required for data: 1642562528
I0226 22:38:18.264863 16389 layer_factory.hpp:77] Creating layer res3b6_branch2b
I0226 22:38:18.264880 16389 net.cpp:106] Creating Layer res3b6_branch2b
I0226 22:38:18.264890 16389 net.cpp:454] res3b6_branch2b <- res3b6_branch2a
I0226 22:38:18.264905 16389 net.cpp:411] res3b6_branch2b -> res3b6_branch2b
I0226 22:38:18.265941 16389 net.cpp:150] Setting up res3b6_branch2b
I0226 22:38:18.265966 16389 net.cpp:157] Top shape: 8 128 28 28 (802816)
I0226 22:38:18.265976 16389 net.cpp:165] Memory required for data: 1645773792
I0226 22:38:18.265990 16389 layer_factory.hpp:77] Creating layer bn3b6_branch2b
I0226 22:38:18.266003 16389 net.cpp:106] Creating Layer bn3b6_branch2b
I0226 22:38:18.266013 16389 net.cpp:454] bn3b6_branch2b <- res3b6_branch2b
I0226 22:38:18.266026 16389 net.cpp:397] bn3b6_branch2b -> res3b6_branch2b (in-place)
I0226 22:38:18.266258 16389 net.cpp:150] Setting up bn3b6_branch2b
I0226 22:38:18.266276 16389 net.cpp:157] Top shape: 8 128 28 28 (802816)
I0226 22:38:18.266286 16389 net.cpp:165] Memory required for data: 1648985056
I0226 22:38:18.266301 16389 layer_factory.hpp:77] Creating layer scale3b6_branch2b
I0226 22:38:18.266319 16389 net.cpp:106] Creating Layer scale3b6_branch2b
I0226 22:38:18.266330 16389 net.cpp:454] scale3b6_branch2b <- res3b6_branch2b
I0226 22:38:18.266341 16389 net.cpp:397] scale3b6_branch2b -> res3b6_branch2b (in-place)
I0226 22:38:18.266402 16389 layer_factory.hpp:77] Creating layer scale3b6_branch2b
I0226 22:38:18.266551 16389 net.cpp:150] Setting up scale3b6_branch2b
I0226 22:38:18.266568 16389 net.cpp:157] Top shape: 8 128 28 28 (802816)
I0226 22:38:18.266577 16389 net.cpp:165] Memory required for data: 1652196320
I0226 22:38:18.266590 16389 layer_factory.hpp:77] Creating layer res3b6_branch2b_relu
I0226 22:38:18.266604 16389 net.cpp:106] Creating Layer res3b6_branch2b_relu
I0226 22:38:18.266614 16389 net.cpp:454] res3b6_branch2b_relu <- res3b6_branch2b
I0226 22:38:18.266629 16389 net.cpp:397] res3b6_branch2b_relu -> res3b6_branch2b (in-place)
I0226 22:38:18.266643 16389 net.cpp:150] Setting up res3b6_branch2b_relu
I0226 22:38:18.266654 16389 net.cpp:157] Top shape: 8 128 28 28 (802816)
I0226 22:38:18.266664 16389 net.cpp:165] Memory required for data: 1655407584
I0226 22:38:18.266674 16389 layer_factory.hpp:77] Creating layer res3b6_branch2c
I0226 22:38:18.266690 16389 net.cpp:106] Creating Layer res3b6_branch2c
I0226 22:38:18.266701 16389 net.cpp:454] res3b6_branch2c <- res3b6_branch2b
I0226 22:38:18.266713 16389 net.cpp:411] res3b6_branch2c -> res3b6_branch2c
I0226 22:38:18.266980 16389 net.cpp:150] Setting up res3b6_branch2c
I0226 22:38:18.267010 16389 net.cpp:157] Top shape: 8 512 28 28 (3211264)
I0226 22:38:18.267020 16389 net.cpp:165] Memory required for data: 1668252640
I0226 22:38:18.267032 16389 layer_factory.hpp:77] Creating layer bn3b6_branch2c
I0226 22:38:18.267045 16389 net.cpp:106] Creating Layer bn3b6_branch2c
I0226 22:38:18.267055 16389 net.cpp:454] bn3b6_branch2c <- res3b6_branch2c
I0226 22:38:18.267066 16389 net.cpp:397] bn3b6_branch2c -> res3b6_branch2c (in-place)
I0226 22:38:18.267299 16389 net.cpp:150] Setting up bn3b6_branch2c
I0226 22:38:18.267318 16389 net.cpp:157] Top shape: 8 512 28 28 (3211264)
I0226 22:38:18.267328 16389 net.cpp:165] Memory required for data: 1681097696
I0226 22:38:18.267343 16389 layer_factory.hpp:77] Creating layer scale3b6_branch2c
I0226 22:38:18.267359 16389 net.cpp:106] Creating Layer scale3b6_branch2c
I0226 22:38:18.267370 16389 net.cpp:454] scale3b6_branch2c <- res3b6_branch2c
I0226 22:38:18.267381 16389 net.cpp:397] scale3b6_branch2c -> res3b6_branch2c (in-place)
I0226 22:38:18.267443 16389 layer_factory.hpp:77] Creating layer scale3b6_branch2c
I0226 22:38:18.267590 16389 net.cpp:150] Setting up scale3b6_branch2c
I0226 22:38:18.267608 16389 net.cpp:157] Top shape: 8 512 28 28 (3211264)
I0226 22:38:18.267617 16389 net.cpp:165] Memory required for data: 1693942752
I0226 22:38:18.267632 16389 layer_factory.hpp:77] Creating layer res3b6
I0226 22:38:18.267647 16389 net.cpp:106] Creating Layer res3b6
I0226 22:38:18.267658 16389 net.cpp:454] res3b6 <- res3b5_res3b5_relu_0_split_1
I0226 22:38:18.267669 16389 net.cpp:454] res3b6 <- res3b6_branch2c
I0226 22:38:18.267680 16389 net.cpp:411] res3b6 -> res3b6
I0226 22:38:18.267720 16389 net.cpp:150] Setting up res3b6
I0226 22:38:18.267736 16389 net.cpp:157] Top shape: 8 512 28 28 (3211264)
I0226 22:38:18.267746 16389 net.cpp:165] Memory required for data: 1706787808
I0226 22:38:18.267755 16389 layer_factory.hpp:77] Creating layer res3b6_relu
I0226 22:38:18.267767 16389 net.cpp:106] Creating Layer res3b6_relu
I0226 22:38:18.267777 16389 net.cpp:454] res3b6_relu <- res3b6
I0226 22:38:18.267796 16389 net.cpp:397] res3b6_relu -> res3b6 (in-place)
I0226 22:38:18.267810 16389 net.cpp:150] Setting up res3b6_relu
I0226 22:38:18.267822 16389 net.cpp:157] Top shape: 8 512 28 28 (3211264)
I0226 22:38:18.267830 16389 net.cpp:165] Memory required for data: 1719632864
I0226 22:38:18.267840 16389 layer_factory.hpp:77] Creating layer res3b6_res3b6_relu_0_split
I0226 22:38:18.267851 16389 net.cpp:106] Creating Layer res3b6_res3b6_relu_0_split
I0226 22:38:18.267861 16389 net.cpp:454] res3b6_res3b6_relu_0_split <- res3b6
I0226 22:38:18.267873 16389 net.cpp:411] res3b6_res3b6_relu_0_split -> res3b6_res3b6_relu_0_split_0
I0226 22:38:18.267885 16389 net.cpp:411] res3b6_res3b6_relu_0_split -> res3b6_res3b6_relu_0_split_1
I0226 22:38:18.267937 16389 net.cpp:150] Setting up res3b6_res3b6_relu_0_split
I0226 22:38:18.267953 16389 net.cpp:157] Top shape: 8 512 28 28 (3211264)
I0226 22:38:18.267964 16389 net.cpp:157] Top shape: 8 512 28 28 (3211264)
I0226 22:38:18.267972 16389 net.cpp:165] Memory required for data: 1745322976
I0226 22:38:18.267982 16389 layer_factory.hpp:77] Creating layer res3b7_branch2a
I0226 22:38:18.267997 16389 net.cpp:106] Creating Layer res3b7_branch2a
I0226 22:38:18.268007 16389 net.cpp:454] res3b7_branch2a <- res3b6_res3b6_relu_0_split_0
I0226 22:38:18.268019 16389 net.cpp:411] res3b7_branch2a -> res3b7_branch2a
I0226 22:38:18.268966 16389 net.cpp:150] Setting up res3b7_branch2a
I0226 22:38:18.268988 16389 net.cpp:157] Top shape: 8 128 28 28 (802816)
I0226 22:38:18.268998 16389 net.cpp:165] Memory required for data: 1748534240
I0226 22:38:18.269011 16389 layer_factory.hpp:77] Creating layer bn3b7_branch2a
I0226 22:38:18.269024 16389 net.cpp:106] Creating Layer bn3b7_branch2a
I0226 22:38:18.269035 16389 net.cpp:454] bn3b7_branch2a <- res3b7_branch2a
I0226 22:38:18.269047 16389 net.cpp:397] bn3b7_branch2a -> res3b7_branch2a (in-place)
I0226 22:38:18.269285 16389 net.cpp:150] Setting up bn3b7_branch2a
I0226 22:38:18.269311 16389 net.cpp:157] Top shape: 8 128 28 28 (802816)
I0226 22:38:18.269331 16389 net.cpp:165] Memory required for data: 1751745504
I0226 22:38:18.269348 16389 layer_factory.hpp:77] Creating layer scale3b7_branch2a
I0226 22:38:18.269367 16389 net.cpp:106] Creating Layer scale3b7_branch2a
I0226 22:38:18.269378 16389 net.cpp:454] scale3b7_branch2a <- res3b7_branch2a
I0226 22:38:18.269390 16389 net.cpp:397] scale3b7_branch2a -> res3b7_branch2a (in-place)
I0226 22:38:18.269451 16389 layer_factory.hpp:77] Creating layer scale3b7_branch2a
I0226 22:38:18.269601 16389 net.cpp:150] Setting up scale3b7_branch2a
I0226 22:38:18.269619 16389 net.cpp:157] Top shape: 8 128 28 28 (802816)
I0226 22:38:18.269629 16389 net.cpp:165] Memory required for data: 1754956768
I0226 22:38:18.269642 16389 layer_factory.hpp:77] Creating layer res3b7_branch2a_relu
I0226 22:38:18.269655 16389 net.cpp:106] Creating Layer res3b7_branch2a_relu
I0226 22:38:18.269665 16389 net.cpp:454] res3b7_branch2a_relu <- res3b7_branch2a
I0226 22:38:18.269680 16389 net.cpp:397] res3b7_branch2a_relu -> res3b7_branch2a (in-place)
I0226 22:38:18.269693 16389 net.cpp:150] Setting up res3b7_branch2a_relu
I0226 22:38:18.269706 16389 net.cpp:157] Top shape: 8 128 28 28 (802816)
I0226 22:38:18.269714 16389 net.cpp:165] Memory required for data: 1758168032
I0226 22:38:18.269724 16389 layer_factory.hpp:77] Creating layer res3b7_branch2b
I0226 22:38:18.269742 16389 net.cpp:106] Creating Layer res3b7_branch2b
I0226 22:38:18.269752 16389 net.cpp:454] res3b7_branch2b <- res3b7_branch2a
I0226 22:38:18.269764 16389 net.cpp:411] res3b7_branch2b -> res3b7_branch2b
I0226 22:38:18.270784 16389 net.cpp:150] Setting up res3b7_branch2b
I0226 22:38:18.270807 16389 net.cpp:157] Top shape: 8 128 28 28 (802816)
I0226 22:38:18.270817 16389 net.cpp:165] Memory required for data: 1761379296
I0226 22:38:18.270828 16389 layer_factory.hpp:77] Creating layer bn3b7_branch2b
I0226 22:38:18.270845 16389 net.cpp:106] Creating Layer bn3b7_branch2b
I0226 22:38:18.270856 16389 net.cpp:454] bn3b7_branch2b <- res3b7_branch2b
I0226 22:38:18.270869 16389 net.cpp:397] bn3b7_branch2b -> res3b7_branch2b (in-place)
I0226 22:38:18.271098 16389 net.cpp:150] Setting up bn3b7_branch2b
I0226 22:38:18.271116 16389 net.cpp:157] Top shape: 8 128 28 28 (802816)
I0226 22:38:18.271126 16389 net.cpp:165] Memory required for data: 1764590560
I0226 22:38:18.271142 16389 layer_factory.hpp:77] Creating layer scale3b7_branch2b
I0226 22:38:18.271157 16389 net.cpp:106] Creating Layer scale3b7_branch2b
I0226 22:38:18.271168 16389 net.cpp:454] scale3b7_branch2b <- res3b7_branch2b
I0226 22:38:18.271181 16389 net.cpp:397] scale3b7_branch2b -> res3b7_branch2b (in-place)
I0226 22:38:18.271242 16389 layer_factory.hpp:77] Creating layer scale3b7_branch2b
I0226 22:38:18.271394 16389 net.cpp:150] Setting up scale3b7_branch2b
I0226 22:38:18.271411 16389 net.cpp:157] Top shape: 8 128 28 28 (802816)
I0226 22:38:18.271421 16389 net.cpp:165] Memory required for data: 1767801824
I0226 22:38:18.271435 16389 layer_factory.hpp:77] Creating layer res3b7_branch2b_relu
I0226 22:38:18.271447 16389 net.cpp:106] Creating Layer res3b7_branch2b_relu
I0226 22:38:18.271458 16389 net.cpp:454] res3b7_branch2b_relu <- res3b7_branch2b
I0226 22:38:18.271469 16389 net.cpp:397] res3b7_branch2b_relu -> res3b7_branch2b (in-place)
I0226 22:38:18.271483 16389 net.cpp:150] Setting up res3b7_branch2b_relu
I0226 22:38:18.271494 16389 net.cpp:157] Top shape: 8 128 28 28 (802816)
I0226 22:38:18.271503 16389 net.cpp:165] Memory required for data: 1771013088
I0226 22:38:18.271513 16389 layer_factory.hpp:77] Creating layer res3b7_branch2c
I0226 22:38:18.271530 16389 net.cpp:106] Creating Layer res3b7_branch2c
I0226 22:38:18.271541 16389 net.cpp:454] res3b7_branch2c <- res3b7_branch2b
I0226 22:38:18.271556 16389 net.cpp:411] res3b7_branch2c -> res3b7_branch2c
I0226 22:38:18.271824 16389 net.cpp:150] Setting up res3b7_branch2c
I0226 22:38:18.271844 16389 net.cpp:157] Top shape: 8 512 28 28 (3211264)
I0226 22:38:18.271853 16389 net.cpp:165] Memory required for data: 1783858144
I0226 22:38:18.271872 16389 layer_factory.hpp:77] Creating layer bn3b7_branch2c
I0226 22:38:18.271895 16389 net.cpp:106] Creating Layer bn3b7_branch2c
I0226 22:38:18.271908 16389 net.cpp:454] bn3b7_branch2c <- res3b7_branch2c
I0226 22:38:18.271919 16389 net.cpp:397] bn3b7_branch2c -> res3b7_branch2c (in-place)
I0226 22:38:18.272153 16389 net.cpp:150] Setting up bn3b7_branch2c
I0226 22:38:18.272171 16389 net.cpp:157] Top shape: 8 512 28 28 (3211264)
I0226 22:38:18.272181 16389 net.cpp:165] Memory required for data: 1796703200
I0226 22:38:18.272197 16389 layer_factory.hpp:77] Creating layer scale3b7_branch2c
I0226 22:38:18.272212 16389 net.cpp:106] Creating Layer scale3b7_branch2c
I0226 22:38:18.272223 16389 net.cpp:454] scale3b7_branch2c <- res3b7_branch2c
I0226 22:38:18.272235 16389 net.cpp:397] scale3b7_branch2c -> res3b7_branch2c (in-place)
I0226 22:38:18.272297 16389 layer_factory.hpp:77] Creating layer scale3b7_branch2c
I0226 22:38:18.272449 16389 net.cpp:150] Setting up scale3b7_branch2c
I0226 22:38:18.272467 16389 net.cpp:157] Top shape: 8 512 28 28 (3211264)
I0226 22:38:18.272477 16389 net.cpp:165] Memory required for data: 1809548256
I0226 22:38:18.272490 16389 layer_factory.hpp:77] Creating layer res3b7
I0226 22:38:18.272503 16389 net.cpp:106] Creating Layer res3b7
I0226 22:38:18.272513 16389 net.cpp:454] res3b7 <- res3b6_res3b6_relu_0_split_1
I0226 22:38:18.272527 16389 net.cpp:454] res3b7 <- res3b7_branch2c
I0226 22:38:18.272541 16389 net.cpp:411] res3b7 -> res3b7
I0226 22:38:18.272581 16389 net.cpp:150] Setting up res3b7
I0226 22:38:18.272598 16389 net.cpp:157] Top shape: 8 512 28 28 (3211264)
I0226 22:38:18.272608 16389 net.cpp:165] Memory required for data: 1822393312
I0226 22:38:18.272616 16389 layer_factory.hpp:77] Creating layer res3b7_relu
I0226 22:38:18.272629 16389 net.cpp:106] Creating Layer res3b7_relu
I0226 22:38:18.272639 16389 net.cpp:454] res3b7_relu <- res3b7
I0226 22:38:18.272650 16389 net.cpp:397] res3b7_relu -> res3b7 (in-place)
I0226 22:38:18.272662 16389 net.cpp:150] Setting up res3b7_relu
I0226 22:38:18.272675 16389 net.cpp:157] Top shape: 8 512 28 28 (3211264)
I0226 22:38:18.272683 16389 net.cpp:165] Memory required for data: 1835238368
I0226 22:38:18.272692 16389 layer_factory.hpp:77] Creating layer res3b7_res3b7_relu_0_split
I0226 22:38:18.272708 16389 net.cpp:106] Creating Layer res3b7_res3b7_relu_0_split
I0226 22:38:18.272718 16389 net.cpp:454] res3b7_res3b7_relu_0_split <- res3b7
I0226 22:38:18.272730 16389 net.cpp:411] res3b7_res3b7_relu_0_split -> res3b7_res3b7_relu_0_split_0
I0226 22:38:18.272744 16389 net.cpp:411] res3b7_res3b7_relu_0_split -> res3b7_res3b7_relu_0_split_1
I0226 22:38:18.272799 16389 net.cpp:150] Setting up res3b7_res3b7_relu_0_split
I0226 22:38:18.272816 16389 net.cpp:157] Top shape: 8 512 28 28 (3211264)
I0226 22:38:18.272827 16389 net.cpp:157] Top shape: 8 512 28 28 (3211264)
I0226 22:38:18.272836 16389 net.cpp:165] Memory required for data: 1860928480
I0226 22:38:18.272846 16389 layer_factory.hpp:77] Creating layer res4a_branch1
I0226 22:38:18.272861 16389 net.cpp:106] Creating Layer res4a_branch1
I0226 22:38:18.272871 16389 net.cpp:454] res4a_branch1 <- res3b7_res3b7_relu_0_split_0
I0226 22:38:18.272883 16389 net.cpp:411] res4a_branch1 -> res4a_branch1
I0226 22:38:18.274701 16389 net.cpp:150] Setting up res4a_branch1
I0226 22:38:18.274724 16389 net.cpp:157] Top shape: 8 1024 14 14 (1605632)
I0226 22:38:18.274734 16389 net.cpp:165] Memory required for data: 1867351008
I0226 22:38:18.274747 16389 layer_factory.hpp:77] Creating layer bn4a_branch1
I0226 22:38:18.274760 16389 net.cpp:106] Creating Layer bn4a_branch1
I0226 22:38:18.274771 16389 net.cpp:454] bn4a_branch1 <- res4a_branch1
I0226 22:38:18.274783 16389 net.cpp:397] bn4a_branch1 -> res4a_branch1 (in-place)
I0226 22:38:18.275034 16389 net.cpp:150] Setting up bn4a_branch1
I0226 22:38:18.275053 16389 net.cpp:157] Top shape: 8 1024 14 14 (1605632)
I0226 22:38:18.275063 16389 net.cpp:165] Memory required for data: 1873773536
I0226 22:38:18.275079 16389 layer_factory.hpp:77] Creating layer scale4a_branch1
I0226 22:38:18.275102 16389 net.cpp:106] Creating Layer scale4a_branch1
I0226 22:38:18.275123 16389 net.cpp:454] scale4a_branch1 <- res4a_branch1
I0226 22:38:18.275137 16389 net.cpp:397] scale4a_branch1 -> res4a_branch1 (in-place)
I0226 22:38:18.275197 16389 layer_factory.hpp:77] Creating layer scale4a_branch1
I0226 22:38:18.275352 16389 net.cpp:150] Setting up scale4a_branch1
I0226 22:38:18.275369 16389 net.cpp:157] Top shape: 8 1024 14 14 (1605632)
I0226 22:38:18.275379 16389 net.cpp:165] Memory required for data: 1880196064
I0226 22:38:18.275393 16389 layer_factory.hpp:77] Creating layer res4a_branch2a
I0226 22:38:18.275411 16389 net.cpp:106] Creating Layer res4a_branch2a
I0226 22:38:18.275423 16389 net.cpp:454] res4a_branch2a <- res3b7_res3b7_relu_0_split_1
I0226 22:38:18.275439 16389 net.cpp:411] res4a_branch2a -> res4a_branch2a
I0226 22:38:18.275820 16389 net.cpp:150] Setting up res4a_branch2a
I0226 22:38:18.275838 16389 net.cpp:157] Top shape: 8 256 14 14 (401408)
I0226 22:38:18.275847 16389 net.cpp:165] Memory required for data: 1881801696
I0226 22:38:18.275859 16389 layer_factory.hpp:77] Creating layer bn4a_branch2a
I0226 22:38:18.275876 16389 net.cpp:106] Creating Layer bn4a_branch2a
I0226 22:38:18.275887 16389 net.cpp:454] bn4a_branch2a <- res4a_branch2a
I0226 22:38:18.275899 16389 net.cpp:397] bn4a_branch2a -> res4a_branch2a (in-place)
I0226 22:38:18.276125 16389 net.cpp:150] Setting up bn4a_branch2a
I0226 22:38:18.276142 16389 net.cpp:157] Top shape: 8 256 14 14 (401408)
I0226 22:38:18.276152 16389 net.cpp:165] Memory required for data: 1883407328
I0226 22:38:18.276167 16389 layer_factory.hpp:77] Creating layer scale4a_branch2a
I0226 22:38:18.276185 16389 net.cpp:106] Creating Layer scale4a_branch2a
I0226 22:38:18.276196 16389 net.cpp:454] scale4a_branch2a <- res4a_branch2a
I0226 22:38:18.276207 16389 net.cpp:397] scale4a_branch2a -> res4a_branch2a (in-place)
I0226 22:38:18.276271 16389 layer_factory.hpp:77] Creating layer scale4a_branch2a
I0226 22:38:18.276420 16389 net.cpp:150] Setting up scale4a_branch2a
I0226 22:38:18.276437 16389 net.cpp:157] Top shape: 8 256 14 14 (401408)
I0226 22:38:18.276448 16389 net.cpp:165] Memory required for data: 1885012960
I0226 22:38:18.276460 16389 layer_factory.hpp:77] Creating layer res4a_branch2a_relu
I0226 22:38:18.276473 16389 net.cpp:106] Creating Layer res4a_branch2a_relu
I0226 22:38:18.276482 16389 net.cpp:454] res4a_branch2a_relu <- res4a_branch2a
I0226 22:38:18.276494 16389 net.cpp:397] res4a_branch2a_relu -> res4a_branch2a (in-place)
I0226 22:38:18.276507 16389 net.cpp:150] Setting up res4a_branch2a_relu
I0226 22:38:18.276520 16389 net.cpp:157] Top shape: 8 256 14 14 (401408)
I0226 22:38:18.276528 16389 net.cpp:165] Memory required for data: 1886618592
I0226 22:38:18.276537 16389 layer_factory.hpp:77] Creating layer res4a_branch2b
I0226 22:38:18.276554 16389 net.cpp:106] Creating Layer res4a_branch2b
I0226 22:38:18.276566 16389 net.cpp:454] res4a_branch2b <- res4a_branch2a
I0226 22:38:18.276582 16389 net.cpp:411] res4a_branch2b -> res4a_branch2b
I0226 22:38:18.278566 16389 net.cpp:150] Setting up res4a_branch2b
I0226 22:38:18.278589 16389 net.cpp:157] Top shape: 8 256 14 14 (401408)
I0226 22:38:18.278599 16389 net.cpp:165] Memory required for data: 1888224224
I0226 22:38:18.278612 16389 layer_factory.hpp:77] Creating layer bn4a_branch2b
I0226 22:38:18.278625 16389 net.cpp:106] Creating Layer bn4a_branch2b
I0226 22:38:18.278636 16389 net.cpp:454] bn4a_branch2b <- res4a_branch2b
I0226 22:38:18.278652 16389 net.cpp:397] bn4a_branch2b -> res4a_branch2b (in-place)
I0226 22:38:18.278880 16389 net.cpp:150] Setting up bn4a_branch2b
I0226 22:38:18.278898 16389 net.cpp:157] Top shape: 8 256 14 14 (401408)
I0226 22:38:18.278908 16389 net.cpp:165] Memory required for data: 1889829856
I0226 22:38:18.278924 16389 layer_factory.hpp:77] Creating layer scale4a_branch2b
I0226 22:38:18.278937 16389 net.cpp:106] Creating Layer scale4a_branch2b
I0226 22:38:18.278947 16389 net.cpp:454] scale4a_branch2b <- res4a_branch2b
I0226 22:38:18.278959 16389 net.cpp:397] scale4a_branch2b -> res4a_branch2b (in-place)
I0226 22:38:18.279027 16389 layer_factory.hpp:77] Creating layer scale4a_branch2b
I0226 22:38:18.279188 16389 net.cpp:150] Setting up scale4a_branch2b
I0226 22:38:18.279206 16389 net.cpp:157] Top shape: 8 256 14 14 (401408)
I0226 22:38:18.279217 16389 net.cpp:165] Memory required for data: 1891435488
I0226 22:38:18.279230 16389 layer_factory.hpp:77] Creating layer res4a_branch2b_relu
I0226 22:38:18.279242 16389 net.cpp:106] Creating Layer res4a_branch2b_relu
I0226 22:38:18.279253 16389 net.cpp:454] res4a_branch2b_relu <- res4a_branch2b
I0226 22:38:18.279268 16389 net.cpp:397] res4a_branch2b_relu -> res4a_branch2b (in-place)
I0226 22:38:18.279283 16389 net.cpp:150] Setting up res4a_branch2b_relu
I0226 22:38:18.279294 16389 net.cpp:157] Top shape: 8 256 14 14 (401408)
I0226 22:38:18.279304 16389 net.cpp:165] Memory required for data: 1893041120
I0226 22:38:18.279312 16389 layer_factory.hpp:77] Creating layer res4a_branch2c
I0226 22:38:18.279327 16389 net.cpp:106] Creating Layer res4a_branch2c
I0226 22:38:18.279337 16389 net.cpp:454] res4a_branch2c <- res4a_branch2b
I0226 22:38:18.279352 16389 net.cpp:411] res4a_branch2c -> res4a_branch2c
I0226 22:38:18.280454 16389 net.cpp:150] Setting up res4a_branch2c
I0226 22:38:18.280477 16389 net.cpp:157] Top shape: 8 1024 14 14 (1605632)
I0226 22:38:18.280486 16389 net.cpp:165] Memory required for data: 1899463648
I0226 22:38:18.280499 16389 layer_factory.hpp:77] Creating layer bn4a_branch2c
I0226 22:38:18.280513 16389 net.cpp:106] Creating Layer bn4a_branch2c
I0226 22:38:18.280524 16389 net.cpp:454] bn4a_branch2c <- res4a_branch2c
I0226 22:38:18.280535 16389 net.cpp:397] bn4a_branch2c -> res4a_branch2c (in-place)
I0226 22:38:18.280774 16389 net.cpp:150] Setting up bn4a_branch2c
I0226 22:38:18.280793 16389 net.cpp:157] Top shape: 8 1024 14 14 (1605632)
I0226 22:38:18.280803 16389 net.cpp:165] Memory required for data: 1905886176
I0226 22:38:18.280822 16389 layer_factory.hpp:77] Creating layer scale4a_branch2c
I0226 22:38:18.280836 16389 net.cpp:106] Creating Layer scale4a_branch2c
I0226 22:38:18.280848 16389 net.cpp:454] scale4a_branch2c <- res4a_branch2c
I0226 22:38:18.280859 16389 net.cpp:397] scale4a_branch2c -> res4a_branch2c (in-place)
I0226 22:38:18.280920 16389 layer_factory.hpp:77] Creating layer scale4a_branch2c
I0226 22:38:18.281076 16389 net.cpp:150] Setting up scale4a_branch2c
I0226 22:38:18.281095 16389 net.cpp:157] Top shape: 8 1024 14 14 (1605632)
I0226 22:38:18.281105 16389 net.cpp:165] Memory required for data: 1912308704
I0226 22:38:18.281118 16389 layer_factory.hpp:77] Creating layer res4a
I0226 22:38:18.281134 16389 net.cpp:106] Creating Layer res4a
I0226 22:38:18.281146 16389 net.cpp:454] res4a <- res4a_branch1
I0226 22:38:18.281157 16389 net.cpp:454] res4a <- res4a_branch2c
I0226 22:38:18.281168 16389 net.cpp:411] res4a -> res4a
I0226 22:38:18.281210 16389 net.cpp:150] Setting up res4a
I0226 22:38:18.281226 16389 net.cpp:157] Top shape: 8 1024 14 14 (1605632)
I0226 22:38:18.281235 16389 net.cpp:165] Memory required for data: 1918731232
I0226 22:38:18.281245 16389 layer_factory.hpp:77] Creating layer res4a_relu
I0226 22:38:18.281267 16389 net.cpp:106] Creating Layer res4a_relu
I0226 22:38:18.281277 16389 net.cpp:454] res4a_relu <- res4a
I0226 22:38:18.281292 16389 net.cpp:397] res4a_relu -> res4a (in-place)
I0226 22:38:18.281306 16389 net.cpp:150] Setting up res4a_relu
I0226 22:38:18.281318 16389 net.cpp:157] Top shape: 8 1024 14 14 (1605632)
I0226 22:38:18.281327 16389 net.cpp:165] Memory required for data: 1925153760
I0226 22:38:18.281337 16389 layer_factory.hpp:77] Creating layer res4a_res4a_relu_0_split
I0226 22:38:18.281348 16389 net.cpp:106] Creating Layer res4a_res4a_relu_0_split
I0226 22:38:18.281358 16389 net.cpp:454] res4a_res4a_relu_0_split <- res4a
I0226 22:38:18.281369 16389 net.cpp:411] res4a_res4a_relu_0_split -> res4a_res4a_relu_0_split_0
I0226 22:38:18.281383 16389 net.cpp:411] res4a_res4a_relu_0_split -> res4a_res4a_relu_0_split_1
I0226 22:38:18.281437 16389 net.cpp:150] Setting up res4a_res4a_relu_0_split
I0226 22:38:18.281461 16389 net.cpp:157] Top shape: 8 1024 14 14 (1605632)
I0226 22:38:18.281481 16389 net.cpp:157] Top shape: 8 1024 14 14 (1605632)
I0226 22:38:18.281491 16389 net.cpp:165] Memory required for data: 1937998816
I0226 22:38:18.281500 16389 layer_factory.hpp:77] Creating layer res4b1_branch2a
I0226 22:38:18.281514 16389 net.cpp:106] Creating Layer res4b1_branch2a
I0226 22:38:18.281525 16389 net.cpp:454] res4b1_branch2a <- res4a_res4a_relu_0_split_0
I0226 22:38:18.281538 16389 net.cpp:411] res4b1_branch2a -> res4b1_branch2a
I0226 22:38:18.282637 16389 net.cpp:150] Setting up res4b1_branch2a
I0226 22:38:18.282660 16389 net.cpp:157] Top shape: 8 256 14 14 (401408)
I0226 22:38:18.282670 16389 net.cpp:165] Memory required for data: 1939604448
I0226 22:38:18.282682 16389 layer_factory.hpp:77] Creating layer bn4b1_branch2a
I0226 22:38:18.282698 16389 net.cpp:106] Creating Layer bn4b1_branch2a
I0226 22:38:18.282711 16389 net.cpp:454] bn4b1_branch2a <- res4b1_branch2a
I0226 22:38:18.282722 16389 net.cpp:397] bn4b1_branch2a -> res4b1_branch2a (in-place)
I0226 22:38:18.282956 16389 net.cpp:150] Setting up bn4b1_branch2a
I0226 22:38:18.282974 16389 net.cpp:157] Top shape: 8 256 14 14 (401408)
I0226 22:38:18.282984 16389 net.cpp:165] Memory required for data: 1941210080
I0226 22:38:18.282999 16389 layer_factory.hpp:77] Creating layer scale4b1_branch2a
I0226 22:38:18.283016 16389 net.cpp:106] Creating Layer scale4b1_branch2a
I0226 22:38:18.283027 16389 net.cpp:454] scale4b1_branch2a <- res4b1_branch2a
I0226 22:38:18.283040 16389 net.cpp:397] scale4b1_branch2a -> res4b1_branch2a (in-place)
I0226 22:38:18.283102 16389 layer_factory.hpp:77] Creating layer scale4b1_branch2a
I0226 22:38:18.283255 16389 net.cpp:150] Setting up scale4b1_branch2a
I0226 22:38:18.283273 16389 net.cpp:157] Top shape: 8 256 14 14 (401408)
I0226 22:38:18.283283 16389 net.cpp:165] Memory required for data: 1942815712
I0226 22:38:18.283296 16389 layer_factory.hpp:77] Creating layer res4b1_branch2a_relu
I0226 22:38:18.283309 16389 net.cpp:106] Creating Layer res4b1_branch2a_relu
I0226 22:38:18.283319 16389 net.cpp:454] res4b1_branch2a_relu <- res4b1_branch2a
I0226 22:38:18.283331 16389 net.cpp:397] res4b1_branch2a_relu -> res4b1_branch2a (in-place)
I0226 22:38:18.283345 16389 net.cpp:150] Setting up res4b1_branch2a_relu
I0226 22:38:18.283356 16389 net.cpp:157] Top shape: 8 256 14 14 (401408)
I0226 22:38:18.283365 16389 net.cpp:165] Memory required for data: 1944421344
I0226 22:38:18.283375 16389 layer_factory.hpp:77] Creating layer res4b1_branch2b
I0226 22:38:18.283392 16389 net.cpp:106] Creating Layer res4b1_branch2b
I0226 22:38:18.283404 16389 net.cpp:454] res4b1_branch2b <- res4b1_branch2a
I0226 22:38:18.283419 16389 net.cpp:411] res4b1_branch2b -> res4b1_branch2b
I0226 22:38:18.285408 16389 net.cpp:150] Setting up res4b1_branch2b
I0226 22:38:18.285431 16389 net.cpp:157] Top shape: 8 256 14 14 (401408)
I0226 22:38:18.285441 16389 net.cpp:165] Memory required for data: 1946026976
I0226 22:38:18.285454 16389 layer_factory.hpp:77] Creating layer bn4b1_branch2b
I0226 22:38:18.285466 16389 net.cpp:106] Creating Layer bn4b1_branch2b
I0226 22:38:18.285477 16389 net.cpp:454] bn4b1_branch2b <- res4b1_branch2b
I0226 22:38:18.285492 16389 net.cpp:397] bn4b1_branch2b -> res4b1_branch2b (in-place)
I0226 22:38:18.285727 16389 net.cpp:150] Setting up bn4b1_branch2b
I0226 22:38:18.285744 16389 net.cpp:157] Top shape: 8 256 14 14 (401408)
I0226 22:38:18.285753 16389 net.cpp:165] Memory required for data: 1947632608
I0226 22:38:18.285770 16389 layer_factory.hpp:77] Creating layer scale4b1_branch2b
I0226 22:38:18.285784 16389 net.cpp:106] Creating Layer scale4b1_branch2b
I0226 22:38:18.285794 16389 net.cpp:454] scale4b1_branch2b <- res4b1_branch2b
I0226 22:38:18.285806 16389 net.cpp:397] scale4b1_branch2b -> res4b1_branch2b (in-place)
I0226 22:38:18.285871 16389 layer_factory.hpp:77] Creating layer scale4b1_branch2b
I0226 22:38:18.286018 16389 net.cpp:150] Setting up scale4b1_branch2b
I0226 22:38:18.286036 16389 net.cpp:157] Top shape: 8 256 14 14 (401408)
I0226 22:38:18.286046 16389 net.cpp:165] Memory required for data: 1949238240
I0226 22:38:18.286075 16389 layer_factory.hpp:77] Creating layer res4b1_branch2b_relu
I0226 22:38:18.286089 16389 net.cpp:106] Creating Layer res4b1_branch2b_relu
I0226 22:38:18.286099 16389 net.cpp:454] res4b1_branch2b_relu <- res4b1_branch2b
I0226 22:38:18.286114 16389 net.cpp:397] res4b1_branch2b_relu -> res4b1_branch2b (in-place)
I0226 22:38:18.286128 16389 net.cpp:150] Setting up res4b1_branch2b_relu
I0226 22:38:18.286140 16389 net.cpp:157] Top shape: 8 256 14 14 (401408)
I0226 22:38:18.286149 16389 net.cpp:165] Memory required for data: 1950843872
I0226 22:38:18.286159 16389 layer_factory.hpp:77] Creating layer res4b1_branch2c
I0226 22:38:18.286172 16389 net.cpp:106] Creating Layer res4b1_branch2c
I0226 22:38:18.286182 16389 net.cpp:454] res4b1_branch2c <- res4b1_branch2b
I0226 22:38:18.286197 16389 net.cpp:411] res4b1_branch2c -> res4b1_branch2c
I0226 22:38:18.287304 16389 net.cpp:150] Setting up res4b1_branch2c
I0226 22:38:18.287327 16389 net.cpp:157] Top shape: 8 1024 14 14 (1605632)
I0226 22:38:18.287336 16389 net.cpp:165] Memory required for data: 1957266400
I0226 22:38:18.287349 16389 layer_factory.hpp:77] Creating layer bn4b1_branch2c
I0226 22:38:18.287362 16389 net.cpp:106] Creating Layer bn4b1_branch2c
I0226 22:38:18.287374 16389 net.cpp:454] bn4b1_branch2c <- res4b1_branch2c
I0226 22:38:18.287385 16389 net.cpp:397] bn4b1_branch2c -> res4b1_branch2c (in-place)
I0226 22:38:18.287621 16389 net.cpp:150] Setting up bn4b1_branch2c
I0226 22:38:18.287639 16389 net.cpp:157] Top shape: 8 1024 14 14 (1605632)
I0226 22:38:18.287649 16389 net.cpp:165] Memory required for data: 1963688928
I0226 22:38:18.287665 16389 layer_factory.hpp:77] Creating layer scale4b1_branch2c
I0226 22:38:18.287683 16389 net.cpp:106] Creating Layer scale4b1_branch2c
I0226 22:38:18.287693 16389 net.cpp:454] scale4b1_branch2c <- res4b1_branch2c
I0226 22:38:18.287704 16389 net.cpp:397] scale4b1_branch2c -> res4b1_branch2c (in-place)
I0226 22:38:18.287766 16389 layer_factory.hpp:77] Creating layer scale4b1_branch2c
I0226 22:38:18.287925 16389 net.cpp:150] Setting up scale4b1_branch2c
I0226 22:38:18.287943 16389 net.cpp:157] Top shape: 8 1024 14 14 (1605632)
I0226 22:38:18.287952 16389 net.cpp:165] Memory required for data: 1970111456
I0226 22:38:18.288010 16389 layer_factory.hpp:77] Creating layer res4b1
I0226 22:38:18.288028 16389 net.cpp:106] Creating Layer res4b1
I0226 22:38:18.288038 16389 net.cpp:454] res4b1 <- res4a_res4a_relu_0_split_1
I0226 22:38:18.288049 16389 net.cpp:454] res4b1 <- res4b1_branch2c
I0226 22:38:18.288061 16389 net.cpp:411] res4b1 -> res4b1
I0226 22:38:18.288106 16389 net.cpp:150] Setting up res4b1
I0226 22:38:18.288123 16389 net.cpp:157] Top shape: 8 1024 14 14 (1605632)
I0226 22:38:18.288132 16389 net.cpp:165] Memory required for data: 1976533984
I0226 22:38:18.288142 16389 layer_factory.hpp:77] Creating layer res4b1_relu
I0226 22:38:18.288154 16389 net.cpp:106] Creating Layer res4b1_relu
I0226 22:38:18.288166 16389 net.cpp:454] res4b1_relu <- res4b1
I0226 22:38:18.288179 16389 net.cpp:397] res4b1_relu -> res4b1 (in-place)
I0226 22:38:18.288193 16389 net.cpp:150] Setting up res4b1_relu
I0226 22:38:18.288205 16389 net.cpp:157] Top shape: 8 1024 14 14 (1605632)
I0226 22:38:18.288214 16389 net.cpp:165] Memory required for data: 1982956512
I0226 22:38:18.288224 16389 layer_factory.hpp:77] Creating layer res4b1_res4b1_relu_0_split
I0226 22:38:18.288236 16389 net.cpp:106] Creating Layer res4b1_res4b1_relu_0_split
I0226 22:38:18.288246 16389 net.cpp:454] res4b1_res4b1_relu_0_split <- res4b1
I0226 22:38:18.288259 16389 net.cpp:411] res4b1_res4b1_relu_0_split -> res4b1_res4b1_relu_0_split_0
I0226 22:38:18.288272 16389 net.cpp:411] res4b1_res4b1_relu_0_split -> res4b1_res4b1_relu_0_split_1
I0226 22:38:18.288329 16389 net.cpp:150] Setting up res4b1_res4b1_relu_0_split
I0226 22:38:18.288345 16389 net.cpp:157] Top shape: 8 1024 14 14 (1605632)
I0226 22:38:18.288357 16389 net.cpp:157] Top shape: 8 1024 14 14 (1605632)
I0226 22:38:18.288365 16389 net.cpp:165] Memory required for data: 1995801568
I0226 22:38:18.288383 16389 layer_factory.hpp:77] Creating layer res4b2_branch2a
I0226 22:38:18.288410 16389 net.cpp:106] Creating Layer res4b2_branch2a
I0226 22:38:18.288422 16389 net.cpp:454] res4b2_branch2a <- res4b1_res4b1_relu_0_split_0
I0226 22:38:18.288435 16389 net.cpp:411] res4b2_branch2a -> res4b2_branch2a
I0226 22:38:18.289541 16389 net.cpp:150] Setting up res4b2_branch2a
I0226 22:38:18.289564 16389 net.cpp:157] Top shape: 8 256 14 14 (401408)
I0226 22:38:18.289574 16389 net.cpp:165] Memory required for data: 1997407200
I0226 22:38:18.289587 16389 layer_factory.hpp:77] Creating layer bn4b2_branch2a
I0226 22:38:18.289600 16389 net.cpp:106] Creating Layer bn4b2_branch2a
I0226 22:38:18.289611 16389 net.cpp:454] bn4b2_branch2a <- res4b2_branch2a
I0226 22:38:18.289626 16389 net.cpp:397] bn4b2_branch2a -> res4b2_branch2a (in-place)
I0226 22:38:18.289860 16389 net.cpp:150] Setting up bn4b2_branch2a
I0226 22:38:18.289877 16389 net.cpp:157] Top shape: 8 256 14 14 (401408)
I0226 22:38:18.289887 16389 net.cpp:165] Memory required for data: 1999012832
I0226 22:38:18.289902 16389 layer_factory.hpp:77] Creating layer scale4b2_branch2a
I0226 22:38:18.289916 16389 net.cpp:106] Creating Layer scale4b2_branch2a
I0226 22:38:18.289927 16389 net.cpp:454] scale4b2_branch2a <- res4b2_branch2a
I0226 22:38:18.289938 16389 net.cpp:397] scale4b2_branch2a -> res4b2_branch2a (in-place)
I0226 22:38:18.289999 16389 layer_factory.hpp:77] Creating layer scale4b2_branch2a
I0226 22:38:18.290153 16389 net.cpp:150] Setting up scale4b2_branch2a
I0226 22:38:18.290171 16389 net.cpp:157] Top shape: 8 256 14 14 (401408)
I0226 22:38:18.290181 16389 net.cpp:165] Memory required for data: 2000618464
I0226 22:38:18.290195 16389 layer_factory.hpp:77] Creating layer res4b2_branch2a_relu
I0226 22:38:18.290207 16389 net.cpp:106] Creating Layer res4b2_branch2a_relu
I0226 22:38:18.290218 16389 net.cpp:454] res4b2_branch2a_relu <- res4b2_branch2a
I0226 22:38:18.290233 16389 net.cpp:397] res4b2_branch2a_relu -> res4b2_branch2a (in-place)
I0226 22:38:18.290247 16389 net.cpp:150] Setting up res4b2_branch2a_relu
I0226 22:38:18.290259 16389 net.cpp:157] Top shape: 8 256 14 14 (401408)
I0226 22:38:18.290268 16389 net.cpp:165] Memory required for data: 2002224096
I0226 22:38:18.290277 16389 layer_factory.hpp:77] Creating layer res4b2_branch2b
I0226 22:38:18.290292 16389 net.cpp:106] Creating Layer res4b2_branch2b
I0226 22:38:18.290302 16389 net.cpp:454] res4b2_branch2b <- res4b2_branch2a
I0226 22:38:18.290318 16389 net.cpp:411] res4b2_branch2b -> res4b2_branch2b
I0226 22:38:18.292307 16389 net.cpp:150] Setting up res4b2_branch2b
I0226 22:38:18.292330 16389 net.cpp:157] Top shape: 8 256 14 14 (401408)
I0226 22:38:18.292340 16389 net.cpp:165] Memory required for data: 2003829728
I0226 22:38:18.292352 16389 layer_factory.hpp:77] Creating layer bn4b2_branch2b
I0226 22:38:18.292366 16389 net.cpp:106] Creating Layer bn4b2_branch2b
I0226 22:38:18.292376 16389 net.cpp:454] bn4b2_branch2b <- res4b2_branch2b
I0226 22:38:18.292388 16389 net.cpp:397] bn4b2_branch2b -> res4b2_branch2b (in-place)
I0226 22:38:18.292623 16389 net.cpp:150] Setting up bn4b2_branch2b
I0226 22:38:18.292641 16389 net.cpp:157] Top shape: 8 256 14 14 (401408)
I0226 22:38:18.292651 16389 net.cpp:165] Memory required for data: 2005435360
I0226 22:38:18.292667 16389 layer_factory.hpp:77] Creating layer scale4b2_branch2b
I0226 22:38:18.292683 16389 net.cpp:106] Creating Layer scale4b2_branch2b
I0226 22:38:18.292695 16389 net.cpp:454] scale4b2_branch2b <- res4b2_branch2b
I0226 22:38:18.292707 16389 net.cpp:397] scale4b2_branch2b -> res4b2_branch2b (in-place)
I0226 22:38:18.292768 16389 layer_factory.hpp:77] Creating layer scale4b2_branch2b
I0226 22:38:18.292923 16389 net.cpp:150] Setting up scale4b2_branch2b
I0226 22:38:18.292942 16389 net.cpp:157] Top shape: 8 256 14 14 (401408)
I0226 22:38:18.292951 16389 net.cpp:165] Memory required for data: 2007040992
I0226 22:38:18.292964 16389 layer_factory.hpp:77] Creating layer res4b2_branch2b_relu
I0226 22:38:18.292978 16389 net.cpp:106] Creating Layer res4b2_branch2b_relu
I0226 22:38:18.292995 16389 net.cpp:454] res4b2_branch2b_relu <- res4b2_branch2b
I0226 22:38:18.293020 16389 net.cpp:397] res4b2_branch2b_relu -> res4b2_branch2b (in-place)
I0226 22:38:18.293035 16389 net.cpp:150] Setting up res4b2_branch2b_relu
I0226 22:38:18.293047 16389 net.cpp:157] Top shape: 8 256 14 14 (401408)
I0226 22:38:18.293056 16389 net.cpp:165] Memory required for data: 2008646624
I0226 22:38:18.293066 16389 layer_factory.hpp:77] Creating layer res4b2_branch2c
I0226 22:38:18.293082 16389 net.cpp:106] Creating Layer res4b2_branch2c
I0226 22:38:18.293092 16389 net.cpp:454] res4b2_branch2c <- res4b2_branch2b
I0226 22:38:18.293105 16389 net.cpp:411] res4b2_branch2c -> res4b2_branch2c
I0226 22:38:18.294212 16389 net.cpp:150] Setting up res4b2_branch2c
I0226 22:38:18.294236 16389 net.cpp:157] Top shape: 8 1024 14 14 (1605632)
I0226 22:38:18.294246 16389 net.cpp:165] Memory required for data: 2015069152
I0226 22:38:18.294258 16389 layer_factory.hpp:77] Creating layer bn4b2_branch2c
I0226 22:38:18.294275 16389 net.cpp:106] Creating Layer bn4b2_branch2c
I0226 22:38:18.294286 16389 net.cpp:454] bn4b2_branch2c <- res4b2_branch2c
I0226 22:38:18.294298 16389 net.cpp:397] bn4b2_branch2c -> res4b2_branch2c (in-place)
I0226 22:38:18.294541 16389 net.cpp:150] Setting up bn4b2_branch2c
I0226 22:38:18.294559 16389 net.cpp:157] Top shape: 8 1024 14 14 (1605632)
I0226 22:38:18.294569 16389 net.cpp:165] Memory required for data: 2021491680
I0226 22:38:18.294585 16389 layer_factory.hpp:77] Creating layer scale4b2_branch2c
I0226 22:38:18.294598 16389 net.cpp:106] Creating Layer scale4b2_branch2c
I0226 22:38:18.294610 16389 net.cpp:454] scale4b2_branch2c <- res4b2_branch2c
I0226 22:38:18.294621 16389 net.cpp:397] scale4b2_branch2c -> res4b2_branch2c (in-place)
I0226 22:38:18.294682 16389 layer_factory.hpp:77] Creating layer scale4b2_branch2c
I0226 22:38:18.294839 16389 net.cpp:150] Setting up scale4b2_branch2c
I0226 22:38:18.294857 16389 net.cpp:157] Top shape: 8 1024 14 14 (1605632)
I0226 22:38:18.294867 16389 net.cpp:165] Memory required for data: 2027914208
I0226 22:38:18.294880 16389 layer_factory.hpp:77] Creating layer res4b2
I0226 22:38:18.294896 16389 net.cpp:106] Creating Layer res4b2
I0226 22:38:18.294908 16389 net.cpp:454] res4b2 <- res4b1_res4b1_relu_0_split_1
I0226 22:38:18.294919 16389 net.cpp:454] res4b2 <- res4b2_branch2c
I0226 22:38:18.294930 16389 net.cpp:411] res4b2 -> res4b2
I0226 22:38:18.294976 16389 net.cpp:150] Setting up res4b2
I0226 22:38:18.294993 16389 net.cpp:157] Top shape: 8 1024 14 14 (1605632)
I0226 22:38:18.295002 16389 net.cpp:165] Memory required for data: 2034336736
I0226 22:38:18.295012 16389 layer_factory.hpp:77] Creating layer res4b2_relu
I0226 22:38:18.295024 16389 net.cpp:106] Creating Layer res4b2_relu
I0226 22:38:18.295034 16389 net.cpp:454] res4b2_relu <- res4b2
I0226 22:38:18.295048 16389 net.cpp:397] res4b2_relu -> res4b2 (in-place)
I0226 22:38:18.295063 16389 net.cpp:150] Setting up res4b2_relu
I0226 22:38:18.295074 16389 net.cpp:157] Top shape: 8 1024 14 14 (1605632)
I0226 22:38:18.295083 16389 net.cpp:165] Memory required for data: 2040759264
I0226 22:38:18.295094 16389 layer_factory.hpp:77] Creating layer res4b2_res4b2_relu_0_split
I0226 22:38:18.295104 16389 net.cpp:106] Creating Layer res4b2_res4b2_relu_0_split
…
I0226 22:38:18.505136 16389 layer_factory.hpp:77] Creating layer scale4b33_branch2a
I0226 22:38:18.505153 16389 net.cpp:106] Creating Layer scale4b33_branch2a
I0226 22:38:18.505164 16389 net.cpp:454] scale4b33_branch2a <- res4b33_branch2a
I0226 22:38:18.505177 16389 net.cpp:397] scale4b33_branch2a -> res4b33_branch2a (in-place)
I0226 22:38:18.505245 16389 layer_factory.hpp:77] Creating layer scale4b33_branch2a
I0226 22:38:18.505417 16389 net.cpp:150] Setting up scale4b33_branch2a
I0226 22:38:18.505436 16389 net.cpp:157] Top shape: 8 256 14 14 (401408)
I0226 22:38:18.505445 16389 net.cpp:165] Memory required for data: 3792503776
I0226 22:38:18.505460 16389 layer_factory.hpp:77] Creating layer res4b33_branch2a_relu
I0226 22:38:18.505472 16389 net.cpp:106] Creating Layer res4b33_branch2a_relu
I0226 22:38:18.505482 16389 net.cpp:454] res4b33_branch2a_relu <- res4b33_branch2a
I0226 22:38:18.505497 16389 net.cpp:397] res4b33_branch2a_relu -> res4b33_branch2a (in-place)
I0226 22:38:18.505511 16389 net.cpp:150] Setting up res4b33_branch2a_relu
I0226 22:38:18.505523 16389 net.cpp:157] Top shape: 8 256 14 14 (401408)
I0226 22:38:18.505532 16389 net.cpp:165] Memory required for data: 3794109408
I0226 22:38:18.505542 16389 layer_factory.hpp:77] Creating layer res4b33_branch2b
I0226 22:38:18.505556 16389 net.cpp:106] Creating Layer res4b33_branch2b
I0226 22:38:18.505566 16389 net.cpp:454] res4b33_branch2b <- res4b33_branch2a
I0226 22:38:18.505581 16389 net.cpp:411] res4b33_branch2b -> res4b33_branch2b
I0226 22:38:18.507560 16389 net.cpp:150] Setting up res4b33_branch2b
I0226 22:38:18.507583 16389 net.cpp:157] Top shape: 8 256 14 14 (401408)
I0226 22:38:18.507593 16389 net.cpp:165] Memory required for data: 3795715040
I0226 22:38:18.507606 16389 layer_factory.hpp:77] Creating layer bn4b33_branch2b
I0226 22:38:18.507622 16389 net.cpp:106] Creating Layer bn4b33_branch2b
I0226 22:38:18.507633 16389 net.cpp:454] bn4b33_branch2b <- res4b33_branch2b
I0226 22:38:18.507645 16389 net.cpp:397] bn4b33_branch2b -> res4b33_branch2b (in-place)
I0226 22:38:18.507899 16389 net.cpp:150] Setting up bn4b33_branch2b
I0226 22:38:18.507918 16389 net.cpp:157] Top shape: 8 256 14 14 (401408)
I0226 22:38:18.507928 16389 net.cpp:165] Memory required for data: 3797320672
I0226 22:38:18.507944 16389 layer_factory.hpp:77] Creating layer scale4b33_branch2b
I0226 22:38:18.507964 16389 net.cpp:106] Creating Layer scale4b33_branch2b
I0226 22:38:18.507987 16389 net.cpp:454] scale4b33_branch2b <- res4b33_branch2b
I0226 22:38:18.507999 16389 net.cpp:397] scale4b33_branch2b -> res4b33_branch2b (in-place)
I0226 22:38:18.508066 16389 layer_factory.hpp:77] Creating layer scale4b33_branch2b
I0226 22:38:18.508224 16389 net.cpp:150] Setting up scale4b33_branch2b
I0226 22:38:18.508242 16389 net.cpp:157] Top shape: 8 256 14 14 (401408)
I0226 22:38:18.508251 16389 net.cpp:165] Memory required for data: 3798926304
I0226 22:38:18.508265 16389 layer_factory.hpp:77] Creating layer res4b33_branch2b_relu
I0226 22:38:18.508281 16389 net.cpp:106] Creating Layer res4b33_branch2b_relu
I0226 22:38:18.508292 16389 net.cpp:454] res4b33_branch2b_relu <- res4b33_branch2b
I0226 22:38:18.508303 16389 net.cpp:397] res4b33_branch2b_relu -> res4b33_branch2b (in-place)
I0226 22:38:18.508317 16389 net.cpp:150] Setting up res4b33_branch2b_relu
I0226 22:38:18.508328 16389 net.cpp:157] Top shape: 8 256 14 14 (401408)
I0226 22:38:18.508337 16389 net.cpp:165] Memory required for data: 3800531936
I0226 22:38:18.508347 16389 layer_factory.hpp:77] Creating layer res4b33_branch2c
I0226 22:38:18.508363 16389 net.cpp:106] Creating Layer res4b33_branch2c
I0226 22:38:18.508374 16389 net.cpp:454] res4b33_branch2c <- res4b33_branch2b
I0226 22:38:18.508388 16389 net.cpp:411] res4b33_branch2c -> res4b33_branch2c
I0226 22:38:18.509528 16389 net.cpp:150] Setting up res4b33_branch2c
I0226 22:38:18.509552 16389 net.cpp:157] Top shape: 8 1024 14 14 (1605632)
I0226 22:38:18.509562 16389 net.cpp:165] Memory required for data: 3806954464
I0226 22:38:18.509574 16389 layer_factory.hpp:77] Creating layer bn4b33_branch2c
I0226 22:38:18.509588 16389 net.cpp:106] Creating Layer bn4b33_branch2c
I0226 22:38:18.509598 16389 net.cpp:454] bn4b33_branch2c <- res4b33_branch2c
I0226 22:38:18.509610 16389 net.cpp:397] bn4b33_branch2c -> res4b33_branch2c (in-place)
I0226 22:38:18.509887 16389 net.cpp:150] Setting up bn4b33_branch2c
I0226 22:38:18.509907 16389 net.cpp:157] Top shape: 8 1024 14 14 (1605632)
I0226 22:38:18.509917 16389 net.cpp:165] Memory required for data: 3813376992
I0226 22:38:18.509935 16389 layer_factory.hpp:77] Creating layer scale4b33_branch2c
I0226 22:38:18.509949 16389 net.cpp:106] Creating Layer scale4b33_branch2c
I0226 22:38:18.509960 16389 net.cpp:454] scale4b33_branch2c <- res4b33_branch2c
I0226 22:38:18.509973 16389 net.cpp:397] scale4b33_branch2c -> res4b33_branch2c (in-place)
I0226 22:38:18.510046 16389 layer_factory.hpp:77] Creating layer scale4b33_branch2c
I0226 22:38:18.510226 16389 net.cpp:150] Setting up scale4b33_branch2c
I0226 22:38:18.510246 16389 net.cpp:157] Top shape: 8 1024 14 14 (1605632)
I0226 22:38:18.510254 16389 net.cpp:165] Memory required for data: 3819799520
I0226 22:38:18.510268 16389 layer_factory.hpp:77] Creating layer res4b33
I0226 22:38:18.510284 16389 net.cpp:106] Creating Layer res4b33
I0226 22:38:18.510295 16389 net.cpp:454] res4b33 <- res4b32_res4b32_relu_0_split_1
I0226 22:38:18.510306 16389 net.cpp:454] res4b33 <- res4b33_branch2c
I0226 22:38:18.510319 16389 net.cpp:411] res4b33 -> res4b33
I0226 22:38:18.510365 16389 net.cpp:150] Setting up res4b33
I0226 22:38:18.510380 16389 net.cpp:157] Top shape: 8 1024 14 14 (1605632)
I0226 22:38:18.510390 16389 net.cpp:165] Memory required for data: 3826222048
I0226 22:38:18.510401 16389 layer_factory.hpp:77] Creating layer res4b33_relu
I0226 22:38:18.510412 16389 net.cpp:106] Creating Layer res4b33_relu
I0226 22:38:18.510422 16389 net.cpp:454] res4b33_relu <- res4b33
I0226 22:38:18.510437 16389 net.cpp:397] res4b33_relu -> res4b33 (in-place)
I0226 22:38:18.510452 16389 net.cpp:150] Setting up res4b33_relu
I0226 22:38:18.510463 16389 net.cpp:157] Top shape: 8 1024 14 14 (1605632)
I0226 22:38:18.510473 16389 net.cpp:165] Memory required for data: 3832644576
I0226 22:38:18.510483 16389 layer_factory.hpp:77] Creating layer res4b33_res4b33_relu_0_split
I0226 22:38:18.510494 16389 net.cpp:106] Creating Layer res4b33_res4b33_relu_0_split
I0226 22:38:18.510510 16389 net.cpp:454] res4b33_res4b33_relu_0_split <- res4b33
I0226 22:38:18.510534 16389 net.cpp:411] res4b33_res4b33_relu_0_split -> res4b33_res4b33_relu_0_split_0
I0226 22:38:18.510548 16389 net.cpp:411] res4b33_res4b33_relu_0_split -> res4b33_res4b33_relu_0_split_1
I0226 22:38:18.510612 16389 net.cpp:150] Setting up res4b33_res4b33_relu_0_split
I0226 22:38:18.510628 16389 net.cpp:157] Top shape: 8 1024 14 14 (1605632)
I0226 22:38:18.510639 16389 net.cpp:157] Top shape: 8 1024 14 14 (1605632)
I0226 22:38:18.510648 16389 net.cpp:165] Memory required for data: 3845489632
I0226 22:38:18.510658 16389 layer_factory.hpp:77] Creating layer res4b34_branch2a
I0226 22:38:18.510673 16389 net.cpp:106] Creating Layer res4b34_branch2a
I0226 22:38:18.510684 16389 net.cpp:454] res4b34_branch2a <- res4b33_res4b33_relu_0_split_0
I0226 22:38:18.510696 16389 net.cpp:411] res4b34_branch2a -> res4b34_branch2a
I0226 22:38:18.511822 16389 net.cpp:150] Setting up res4b34_branch2a
I0226 22:38:18.511844 16389 net.cpp:157] Top shape: 8 256 14 14 (401408)
I0226 22:38:18.511854 16389 net.cpp:165] Memory required for data: 3847095264
I0226 22:38:18.511867 16389 layer_factory.hpp:77] Creating layer bn4b34_branch2a
I0226 22:38:18.511880 16389 net.cpp:106] Creating Layer bn4b34_branch2a
I0226 22:38:18.511891 16389 net.cpp:454] bn4b34_branch2a <- res4b34_branch2a
I0226 22:38:18.511904 16389 net.cpp:397] bn4b34_branch2a -> res4b34_branch2a (in-place)
I0226 22:38:18.512158 16389 net.cpp:150] Setting up bn4b34_branch2a
I0226 22:38:18.512176 16389 net.cpp:157] Top shape: 8 256 14 14 (401408)
I0226 22:38:18.512187 16389 net.cpp:165] Memory required for data: 3848700896
I0226 22:38:18.512203 16389 layer_factory.hpp:77] Creating layer scale4b34_branch2a
I0226 22:38:18.512219 16389 net.cpp:106] Creating Layer scale4b34_branch2a
I0226 22:38:18.512230 16389 net.cpp:454] scale4b34_branch2a <- res4b34_branch2a
I0226 22:38:18.512243 16389 net.cpp:397] scale4b34_branch2a -> res4b34_branch2a (in-place)
I0226 22:38:18.512313 16389 layer_factory.hpp:77] Creating layer scale4b34_branch2a
I0226 22:38:18.512478 16389 net.cpp:150] Setting up scale4b34_branch2a
I0226 22:38:18.512496 16389 net.cpp:157] Top shape: 8 256 14 14 (401408)
I0226 22:38:18.512506 16389 net.cpp:165] Memory required for data: 3850306528
I0226 22:38:18.512519 16389 layer_factory.hpp:77] Creating layer res4b34_branch2a_relu
I0226 22:38:18.512532 16389 net.cpp:106] Creating Layer res4b34_branch2a_relu
I0226 22:38:18.512542 16389 net.cpp:454] res4b34_branch2a_relu <- res4b34_branch2a
I0226 22:38:18.512557 16389 net.cpp:397] res4b34_branch2a_relu -> res4b34_branch2a (in-place)
I0226 22:38:18.512572 16389 net.cpp:150] Setting up res4b34_branch2a_relu
I0226 22:38:18.512583 16389 net.cpp:157] Top shape: 8 256 14 14 (401408)
I0226 22:38:18.512593 16389 net.cpp:165] Memory required for data: 3851912160
I0226 22:38:18.512603 16389 layer_factory.hpp:77] Creating layer res4b34_branch2b
I0226 22:38:18.512616 16389 net.cpp:106] Creating Layer res4b34_branch2b
I0226 22:38:18.512626 16389 net.cpp:454] res4b34_branch2b <- res4b34_branch2a
I0226 22:38:18.512641 16389 net.cpp:411] res4b34_branch2b -> res4b34_branch2b
I0226 22:38:18.514678 16389 net.cpp:150] Setting up res4b34_branch2b
I0226 22:38:18.514701 16389 net.cpp:157] Top shape: 8 256 14 14 (401408)
I0226 22:38:18.514711 16389 net.cpp:165] Memory required for data: 3853517792
I0226 22:38:18.514724 16389 layer_factory.hpp:77] Creating layer bn4b34_branch2b
I0226 22:38:18.514739 16389 net.cpp:106] Creating Layer bn4b34_branch2b
I0226 22:38:18.514751 16389 net.cpp:454] bn4b34_branch2b <- res4b34_branch2b
I0226 22:38:18.514763 16389 net.cpp:397] bn4b34_branch2b -> res4b34_branch2b (in-place)
I0226 22:38:18.515022 16389 net.cpp:150] Setting up bn4b34_branch2b
I0226 22:38:18.515039 16389 net.cpp:157] Top shape: 8 256 14 14 (401408)
I0226 22:38:18.515049 16389 net.cpp:165] Memory required for data: 3855123424
I0226 22:38:18.515064 16389 layer_factory.hpp:77] Creating layer scale4b34_branch2b
I0226 22:38:18.515079 16389 net.cpp:106] Creating Layer scale4b34_branch2b
I0226 22:38:18.515095 16389 net.cpp:454] scale4b34_branch2b <- res4b34_branch2b
I0226 22:38:18.515118 16389 net.cpp:397] scale4b34_branch2b -> res4b34_branch2b (in-place)
I0226 22:38:18.515189 16389 layer_factory.hpp:77] Creating layer scale4b34_branch2b
I0226 22:38:18.515353 16389 net.cpp:150] Setting up scale4b34_branch2b
I0226 22:38:18.515372 16389 net.cpp:157] Top shape: 8 256 14 14 (401408)
I0226 22:38:18.515380 16389 net.cpp:165] Memory required for data: 3856729056
I0226 22:38:18.515394 16389 layer_factory.hpp:77] Creating layer res4b34_branch2b_relu
I0226 22:38:18.515406 16389 net.cpp:106] Creating Layer res4b34_branch2b_relu
I0226 22:38:18.515420 16389 net.cpp:454] res4b34_branch2b_relu <- res4b34_branch2b
I0226 22:38:18.515432 16389 net.cpp:397] res4b34_branch2b_relu -> res4b34_branch2b (in-place)
I0226 22:38:18.515446 16389 net.cpp:150] Setting up res4b34_branch2b_relu
I0226 22:38:18.515457 16389 net.cpp:157] Top shape: 8 256 14 14 (401408)
I0226 22:38:18.515466 16389 net.cpp:165] Memory required for data: 3858334688
I0226 22:38:18.515475 16389 layer_factory.hpp:77] Creating layer res4b34_branch2c
I0226 22:38:18.515489 16389 net.cpp:106] Creating Layer res4b34_branch2c
I0226 22:38:18.515499 16389 net.cpp:454] res4b34_branch2c <- res4b34_branch2b
I0226 22:38:18.515514 16389 net.cpp:411] res4b34_branch2c -> res4b34_branch2c
I0226 22:38:18.516634 16389 net.cpp:150] Setting up res4b34_branch2c
I0226 22:38:18.516655 16389 net.cpp:157] Top shape: 8 1024 14 14 (1605632)
I0226 22:38:18.516666 16389 net.cpp:165] Memory required for data: 3864757216
I0226 22:38:18.516679 16389 layer_factory.hpp:77] Creating layer bn4b34_branch2c
I0226 22:38:18.516692 16389 net.cpp:106] Creating Layer bn4b34_branch2c
I0226 22:38:18.516702 16389 net.cpp:454] bn4b34_branch2c <- res4b34_branch2c
I0226 22:38:18.516715 16389 net.cpp:397] bn4b34_branch2c -> res4b34_branch2c (in-place)
I0226 22:38:18.516997 16389 net.cpp:150] Setting up bn4b34_branch2c
I0226 22:38:18.517015 16389 net.cpp:157] Top shape: 8 1024 14 14 (1605632)
I0226 22:38:18.517025 16389 net.cpp:165] Memory required for data: 3871179744
I0226 22:38:18.517045 16389 layer_factory.hpp:77] Creating layer scale4b34_branch2c
I0226 22:38:18.517060 16389 net.cpp:106] Creating Layer scale4b34_branch2c
I0226 22:38:18.517069 16389 net.cpp:454] scale4b34_branch2c <- res4b34_branch2c
I0226 22:38:18.517081 16389 net.cpp:397] scale4b34_branch2c -> res4b34_branch2c (in-place)
I0226 22:38:18.517158 16389 layer_factory.hpp:77] Creating layer scale4b34_branch2c
I0226 22:38:18.517350 16389 net.cpp:150] Setting up scale4b34_branch2c
I0226 22:38:18.517370 16389 net.cpp:157] Top shape: 8 1024 14 14 (1605632)
I0226 22:38:18.517380 16389 net.cpp:165] Memory required for data: 3877602272
I0226 22:38:18.517395 16389 layer_factory.hpp:77] Creating layer res4b34
I0226 22:38:18.517410 16389 net.cpp:106] Creating Layer res4b34
I0226 22:38:18.517422 16389 net.cpp:454] res4b34 <- res4b33_res4b33_relu_0_split_1
I0226 22:38:18.517433 16389 net.cpp:454] res4b34 <- res4b34_branch2c
I0226 22:38:18.517446 16389 net.cpp:411] res4b34 -> res4b34
I0226 22:38:18.517490 16389 net.cpp:150] Setting up res4b34
I0226 22:38:18.517508 16389 net.cpp:157] Top shape: 8 1024 14 14 (1605632)
I0226 22:38:18.517516 16389 net.cpp:165] Memory required for data: 3884024800
I0226 22:38:18.517526 16389 layer_factory.hpp:77] Creating layer res4b34_relu
I0226 22:38:18.517539 16389 net.cpp:106] Creating Layer res4b34_relu
I0226 22:38:18.517549 16389 net.cpp:454] res4b34_relu <- res4b34
I0226 22:38:18.517563 16389 net.cpp:397] res4b34_relu -> res4b34 (in-place)
I0226 22:38:18.517578 16389 net.cpp:150] Setting up res4b34_relu
I0226 22:38:18.517590 16389 net.cpp:157] Top shape: 8 1024 14 14 (1605632)
I0226 22:38:18.517599 16389 net.cpp:165] Memory required for data: 3890447328
I0226 22:38:18.517609 16389 layer_factory.hpp:77] Creating layer res4b34_res4b34_relu_0_split
I0226 22:38:18.517621 16389 net.cpp:106] Creating Layer res4b34_res4b34_relu_0_split
I0226 22:38:18.517630 16389 net.cpp:454] res4b34_res4b34_relu_0_split <- res4b34
I0226 22:38:18.517649 16389 net.cpp:411] res4b34_res4b34_relu_0_split -> res4b34_res4b34_relu_0_split_0
I0226 22:38:18.517674 16389 net.cpp:411] res4b34_res4b34_relu_0_split -> res4b34_res4b34_relu_0_split_1
I0226 22:38:18.517735 16389 net.cpp:150] Setting up res4b34_res4b34_relu_0_split
I0226 22:38:18.517751 16389 net.cpp:157] Top shape: 8 1024 14 14 (1605632)
I0226 22:38:18.517762 16389 net.cpp:157] Top shape: 8 1024 14 14 (1605632)
I0226 22:38:18.517771 16389 net.cpp:165] Memory required for data: 3903292384
I0226 22:38:18.517781 16389 layer_factory.hpp:77] Creating layer res4b35_branch2a
I0226 22:38:18.517796 16389 net.cpp:106] Creating Layer res4b35_branch2a
I0226 22:38:18.517807 16389 net.cpp:454] res4b35_branch2a <- res4b34_res4b34_relu_0_split_0
I0226 22:38:18.517818 16389 net.cpp:411] res4b35_branch2a -> res4b35_branch2a
I0226 22:38:18.518942 16389 net.cpp:150] Setting up res4b35_branch2a
I0226 22:38:18.518965 16389 net.cpp:157] Top shape: 8 256 14 14 (401408)
I0226 22:38:18.518975 16389 net.cpp:165] Memory required for data: 3904898016
I0226 22:38:18.518986 16389 layer_factory.hpp:77] Creating layer bn4b35_branch2a
I0226 22:38:18.519003 16389 net.cpp:106] Creating Layer bn4b35_branch2a
I0226 22:38:18.519014 16389 net.cpp:454] bn4b35_branch2a <- res4b35_branch2a
I0226 22:38:18.519026 16389 net.cpp:397] bn4b35_branch2a -> res4b35_branch2a (in-place)
I0226 22:38:18.519296 16389 net.cpp:150] Setting up bn4b35_branch2a
I0226 22:38:18.519315 16389 net.cpp:157] Top shape: 8 256 14 14 (401408)
I0226 22:38:18.519325 16389 net.cpp:165] Memory required for data: 3906503648
I0226 22:38:18.519340 16389 layer_factory.hpp:77] Creating layer scale4b35_branch2a
I0226 22:38:18.519357 16389 net.cpp:106] Creating Layer scale4b35_branch2a
I0226 22:38:18.519368 16389 net.cpp:454] scale4b35_branch2a <- res4b35_branch2a
I0226 22:38:18.519381 16389 net.cpp:397] scale4b35_branch2a -> res4b35_branch2a (in-place)
I0226 22:38:18.519448 16389 layer_factory.hpp:77] Creating layer scale4b35_branch2a
I0226 22:38:18.519613 16389 net.cpp:150] Setting up scale4b35_branch2a
I0226 22:38:18.519630 16389 net.cpp:157] Top shape: 8 256 14 14 (401408)
I0226 22:38:18.519639 16389 net.cpp:165] Memory required for data: 3908109280
I0226 22:38:18.519654 16389 layer_factory.hpp:77] Creating layer res4b35_branch2a_relu
I0226 22:38:18.519666 16389 net.cpp:106] Creating Layer res4b35_branch2a_relu
I0226 22:38:18.519676 16389 net.cpp:454] res4b35_branch2a_relu <- res4b35_branch2a
I0226 22:38:18.519688 16389 net.cpp:397] res4b35_branch2a_relu -> res4b35_branch2a (in-place)
I0226 22:38:18.519702 16389 net.cpp:150] Setting up res4b35_branch2a_relu
I0226 22:38:18.519713 16389 net.cpp:157] Top shape: 8 256 14 14 (401408)
I0226 22:38:18.519722 16389 net.cpp:165] Memory required for data: 3909714912
I0226 22:38:18.519732 16389 layer_factory.hpp:77] Creating layer res4b35_branch2b
I0226 22:38:18.519749 16389 net.cpp:106] Creating Layer res4b35_branch2b
I0226 22:38:18.519760 16389 net.cpp:454] res4b35_branch2b <- res4b35_branch2a
I0226 22:38:18.519776 16389 net.cpp:411] res4b35_branch2b -> res4b35_branch2b
I0226 22:38:18.521775 16389 net.cpp:150] Setting up res4b35_branch2b
I0226 22:38:18.521798 16389 net.cpp:157] Top shape: 8 256 14 14 (401408)
I0226 22:38:18.521808 16389 net.cpp:165] Memory required for data: 3911320544
I0226 22:38:18.521821 16389 layer_factory.hpp:77] Creating layer bn4b35_branch2b
I0226 22:38:18.521833 16389 net.cpp:106] Creating Layer bn4b35_branch2b
I0226 22:38:18.521844 16389 net.cpp:454] bn4b35_branch2b <- res4b35_branch2b
I0226 22:38:18.521860 16389 net.cpp:397] bn4b35_branch2b -> res4b35_branch2b (in-place)
I0226 22:38:18.522117 16389 net.cpp:150] Setting up bn4b35_branch2b
I0226 22:38:18.522135 16389 net.cpp:157] Top shape: 8 256 14 14 (401408)
I0226 22:38:18.522145 16389 net.cpp:165] Memory required for data: 3912926176
I0226 22:38:18.522161 16389 layer_factory.hpp:77] Creating layer scale4b35_branch2b
I0226 22:38:18.522176 16389 net.cpp:106] Creating Layer scale4b35_branch2b
I0226 22:38:18.522186 16389 net.cpp:454] scale4b35_branch2b <- res4b35_branch2b
I0226 22:38:18.522204 16389 net.cpp:397] scale4b35_branch2b -> res4b35_branch2b (in-place)
I0226 22:38:18.522281 16389 layer_factory.hpp:77] Creating layer scale4b35_branch2b
I0226 22:38:18.522444 16389 net.cpp:150] Setting up scale4b35_branch2b
I0226 22:38:18.522460 16389 net.cpp:157] Top shape: 8 256 14 14 (401408)
I0226 22:38:18.522470 16389 net.cpp:165] Memory required for data: 3914531808
I0226 22:38:18.522485 16389 layer_factory.hpp:77] Creating layer res4b35_branch2b_relu
I0226 22:38:18.522497 16389 net.cpp:106] Creating Layer res4b35_branch2b_relu
I0226 22:38:18.522511 16389 net.cpp:454] res4b35_branch2b_relu <- res4b35_branch2b
I0226 22:38:18.522522 16389 net.cpp:397] res4b35_branch2b_relu -> res4b35_branch2b (in-place)
I0226 22:38:18.522536 16389 net.cpp:150] Setting up res4b35_branch2b_relu
I0226 22:38:18.522548 16389 net.cpp:157] Top shape: 8 256 14 14 (401408)
I0226 22:38:18.522557 16389 net.cpp:165] Memory required for data: 3916137440
I0226 22:38:18.522567 16389 layer_factory.hpp:77] Creating layer res4b35_branch2c
I0226 22:38:18.522580 16389 net.cpp:106] Creating Layer res4b35_branch2c
I0226 22:38:18.522590 16389 net.cpp:454] res4b35_branch2c <- res4b35_branch2b
I0226 22:38:18.522605 16389 net.cpp:411] res4b35_branch2c -> res4b35_branch2c
I0226 22:38:18.523739 16389 net.cpp:150] Setting up res4b35_branch2c
I0226 22:38:18.523761 16389 net.cpp:157] Top shape: 8 1024 14 14 (1605632)
I0226 22:38:18.523772 16389 net.cpp:165] Memory required for data: 3922559968
I0226 22:38:18.523784 16389 layer_factory.hpp:77] Creating layer bn4b35_branch2c
I0226 22:38:18.523797 16389 net.cpp:106] Creating Layer bn4b35_branch2c
I0226 22:38:18.523808 16389 net.cpp:454] bn4b35_branch2c <- res4b35_branch2c
I0226 22:38:18.523820 16389 net.cpp:397] bn4b35_branch2c -> res4b35_branch2c (in-place)
I0226 22:38:18.524104 16389 net.cpp:150] Setting up bn4b35_branch2c
I0226 22:38:18.524123 16389 net.cpp:157] Top shape: 8 1024 14 14 (1605632)
I0226 22:38:18.524133 16389 net.cpp:165] Memory required for data: 3928982496
I0226 22:38:18.524153 16389 layer_factory.hpp:77] Creating layer scale4b35_branch2c
I0226 22:38:18.524168 16389 net.cpp:106] Creating Layer scale4b35_branch2c
I0226 22:38:18.524178 16389 net.cpp:454] scale4b35_branch2c <- res4b35_branch2c
I0226 22:38:18.524190 16389 net.cpp:397] scale4b35_branch2c -> res4b35_branch2c (in-place)
I0226 22:38:18.524266 16389 layer_factory.hpp:77] Creating layer scale4b35_branch2c
I0226 22:38:18.524446 16389 net.cpp:150] Setting up scale4b35_branch2c
I0226 22:38:18.524464 16389 net.cpp:157] Top shape: 8 1024 14 14 (1605632)
I0226 22:38:18.524474 16389 net.cpp:165] Memory required for data: 3935405024
I0226 22:38:18.524487 16389 layer_factory.hpp:77] Creating layer res4b35
I0226 22:38:18.524503 16389 net.cpp:106] Creating Layer res4b35
I0226 22:38:18.524515 16389 net.cpp:454] res4b35 <- res4b34_res4b34_relu_0_split_1
I0226 22:38:18.524526 16389 net.cpp:454] res4b35 <- res4b35_branch2c
I0226 22:38:18.524539 16389 net.cpp:411] res4b35 -> res4b35
I0226 22:38:18.524585 16389 net.cpp:150] Setting up res4b35
I0226 22:38:18.524601 16389 net.cpp:157] Top shape: 8 1024 14 14 (1605632)
I0226 22:38:18.524611 16389 net.cpp:165] Memory required for data: 3941827552
I0226 22:38:18.524621 16389 layer_factory.hpp:77] Creating layer res4b35_relu
I0226 22:38:18.524633 16389 net.cpp:106] Creating Layer res4b35_relu
I0226 22:38:18.524643 16389 net.cpp:454] res4b35_relu <- res4b35
I0226 22:38:18.524658 16389 net.cpp:397] res4b35_relu -> res4b35 (in-place)
I0226 22:38:18.524672 16389 net.cpp:150] Setting up res4b35_relu
I0226 22:38:18.524684 16389 net.cpp:157] Top shape: 8 1024 14 14 (1605632)
I0226 22:38:18.524694 16389 net.cpp:165] Memory required for data: 3948250080
I0226 22:38:18.524703 16389 layer_factory.hpp:77] Creating layer res4b35_res4b35_relu_0_split
I0226 22:38:18.524716 16389 net.cpp:106] Creating Layer res4b35_res4b35_relu_0_split
I0226 22:38:18.524725 16389 net.cpp:454] res4b35_res4b35_relu_0_split <- res4b35
I0226 22:38:18.524737 16389 net.cpp:411] res4b35_res4b35_relu_0_split -> res4b35_res4b35_relu_0_split_0
I0226 22:38:18.524760 16389 net.cpp:411] res4b35_res4b35_relu_0_split -> res4b35_res4b35_relu_0_split_1
I0226 22:38:18.524829 16389 net.cpp:150] Setting up res4b35_res4b35_relu_0_split
I0226 22:38:18.524847 16389 net.cpp:157] Top shape: 8 1024 14 14 (1605632)
I0226 22:38:18.524857 16389 net.cpp:157] Top shape: 8 1024 14 14 (1605632)
I0226 22:38:18.524866 16389 net.cpp:165] Memory required for data: 3961095136
I0226 22:38:18.524876 16389 layer_factory.hpp:77] Creating layer res5a_branch1
I0226 22:38:18.524891 16389 net.cpp:106] Creating Layer res5a_branch1
I0226 22:38:18.524902 16389 net.cpp:454] res5a_branch1 <- res4b35_res4b35_relu_0_split_0
I0226 22:38:18.524916 16389 net.cpp:411] res5a_branch1 -> res5a_branch1
I0226 22:38:18.530936 16389 net.cpp:150] Setting up res5a_branch1
I0226 22:38:18.530964 16389 net.cpp:157] Top shape: 8 2048 7 7 (802816)
I0226 22:38:18.530974 16389 net.cpp:165] Memory required for data: 3964306400
I0226 22:38:18.530987 16389 layer_factory.hpp:77] Creating layer bn5a_branch1
I0226 22:38:18.531004 16389 net.cpp:106] Creating Layer bn5a_branch1
I0226 22:38:18.531016 16389 net.cpp:454] bn5a_branch1 <- res5a_branch1
I0226 22:38:18.531029 16389 net.cpp:397] bn5a_branch1 -> res5a_branch1 (in-place)
I0226 22:38:18.531335 16389 net.cpp:150] Setting up bn5a_branch1
I0226 22:38:18.531354 16389 net.cpp:157] Top shape: 8 2048 7 7 (802816)
I0226 22:38:18.531363 16389 net.cpp:165] Memory required for data: 3967517664
I0226 22:38:18.531379 16389 layer_factory.hpp:77] Creating layer scale5a_branch1
I0226 22:38:18.531396 16389 net.cpp:106] Creating Layer scale5a_branch1
I0226 22:38:18.531409 16389 net.cpp:454] scale5a_branch1 <- res5a_branch1
I0226 22:38:18.531420 16389 net.cpp:397] scale5a_branch1 -> res5a_branch1 (in-place)
I0226 22:38:18.531494 16389 layer_factory.hpp:77] Creating layer scale5a_branch1
I0226 22:38:18.531682 16389 net.cpp:150] Setting up scale5a_branch1
I0226 22:38:18.531700 16389 net.cpp:157] Top shape: 8 2048 7 7 (802816)
I0226 22:38:18.531709 16389 net.cpp:165] Memory required for data: 3970728928
I0226 22:38:18.531723 16389 layer_factory.hpp:77] Creating layer res5a_branch2a
I0226 22:38:18.531743 16389 net.cpp:106] Creating Layer res5a_branch2a
I0226 22:38:18.531754 16389 net.cpp:454] res5a_branch2a <- res4b35_res4b35_relu_0_split_1
I0226 22:38:18.531770 16389 net.cpp:411] res5a_branch2a -> res5a_branch2a
I0226 22:38:18.533596 16389 net.cpp:150] Setting up res5a_branch2a
I0226 22:38:18.533619 16389 net.cpp:157] Top shape: 8 512 7 7 (200704)
I0226 22:38:18.533629 16389 net.cpp:165] Memory required for data: 3971531744
I0226 22:38:18.533641 16389 layer_factory.hpp:77] Creating layer bn5a_branch2a
I0226 22:38:18.533654 16389 net.cpp:106] Creating Layer bn5a_branch2a
I0226 22:38:18.533666 16389 net.cpp:454] bn5a_branch2a <- res5a_branch2a
I0226 22:38:18.533681 16389 net.cpp:397] bn5a_branch2a -> res5a_branch2a (in-place)
I0226 22:38:18.533964 16389 net.cpp:150] Setting up bn5a_branch2a
I0226 22:38:18.533982 16389 net.cpp:157] Top shape: 8 512 7 7 (200704)
I0226 22:38:18.533993 16389 net.cpp:165] Memory required for data: 3972334560
I0226 22:38:18.534008 16389 layer_factory.hpp:77] Creating layer scale5a_branch2a
I0226 22:38:18.534023 16389 net.cpp:106] Creating Layer scale5a_branch2a
I0226 22:38:18.534032 16389 net.cpp:454] scale5a_branch2a <- res5a_branch2a
I0226 22:38:18.534044 16389 net.cpp:397] scale5a_branch2a -> res5a_branch2a (in-place)
I0226 22:38:18.534117 16389 layer_factory.hpp:77] Creating layer scale5a_branch2a
I0226 22:38:18.534307 16389 net.cpp:150] Setting up scale5a_branch2a
I0226 22:38:18.534325 16389 net.cpp:157] Top shape: 8 512 7 7 (200704)
I0226 22:38:18.534334 16389 net.cpp:165] Memory required for data: 3973137376
I0226 22:38:18.534348 16389 layer_factory.hpp:77] Creating layer res5a_branch2a_relu
I0226 22:38:18.534361 16389 net.cpp:106] Creating Layer res5a_branch2a_relu
I0226 22:38:18.534373 16389 net.cpp:454] res5a_branch2a_relu <- res5a_branch2a
I0226 22:38:18.534387 16389 net.cpp:397] res5a_branch2a_relu -> res5a_branch2a (in-place)
I0226 22:38:18.534409 16389 net.cpp:150] Setting up res5a_branch2a_relu
I0226 22:38:18.534432 16389 net.cpp:157] Top shape: 8 512 7 7 (200704)
I0226 22:38:18.534443 16389 net.cpp:165] Memory required for data: 3973940192
I0226 22:38:18.534452 16389 layer_factory.hpp:77] Creating layer res5a_branch2b
I0226 22:38:18.534467 16389 net.cpp:106] Creating Layer res5a_branch2b
I0226 22:38:18.534477 16389 net.cpp:454] res5a_branch2b <- res5a_branch2a
I0226 22:38:18.534497 16389 net.cpp:411] res5a_branch2b -> res5a_branch2b
I0226 22:38:18.541340 16389 net.cpp:150] Setting up res5a_branch2b
I0226 22:38:18.541373 16389 net.cpp:157] Top shape: 8 512 7 7 (200704)
I0226 22:38:18.541383 16389 net.cpp:165] Memory required for data: 3974743008
I0226 22:38:18.541398 16389 layer_factory.hpp:77] Creating layer bn5a_branch2b
I0226 22:38:18.541410 16389 net.cpp:106] Creating Layer bn5a_branch2b
I0226 22:38:18.541422 16389 net.cpp:454] bn5a_branch2b <- res5a_branch2b
I0226 22:38:18.541435 16389 net.cpp:397] bn5a_branch2b -> res5a_branch2b (in-place)
I0226 22:38:18.541718 16389 net.cpp:150] Setting up bn5a_branch2b
I0226 22:38:18.541738 16389 net.cpp:157] Top shape: 8 512 7 7 (200704)
I0226 22:38:18.541748 16389 net.cpp:165] Memory required for data: 3975545824
I0226 22:38:18.541764 16389 layer_factory.hpp:77] Creating layer scale5a_branch2b
I0226 22:38:18.541779 16389 net.cpp:106] Creating Layer scale5a_branch2b
I0226 22:38:18.541791 16389 net.cpp:454] scale5a_branch2b <- res5a_branch2b
I0226 22:38:18.541803 16389 net.cpp:397] scale5a_branch2b -> res5a_branch2b (in-place)
I0226 22:38:18.541877 16389 layer_factory.hpp:77] Creating layer scale5a_branch2b
I0226 22:38:18.542062 16389 net.cpp:150] Setting up scale5a_branch2b
I0226 22:38:18.542081 16389 net.cpp:157] Top shape: 8 512 7 7 (200704)
I0226 22:38:18.542090 16389 net.cpp:165] Memory required for data: 3976348640
I0226 22:38:18.542104 16389 layer_factory.hpp:77] Creating layer res5a_branch2b_relu
I0226 22:38:18.542117 16389 net.cpp:106] Creating Layer res5a_branch2b_relu
I0226 22:38:18.542127 16389 net.cpp:454] res5a_branch2b_relu <- res5a_branch2b
I0226 22:38:18.542142 16389 net.cpp:397] res5a_branch2b_relu -> res5a_branch2b (in-place)
I0226 22:38:18.542156 16389 net.cpp:150] Setting up res5a_branch2b_relu
I0226 22:38:18.542168 16389 net.cpp:157] Top shape: 8 512 7 7 (200704)
I0226 22:38:18.542177 16389 net.cpp:165] Memory required for data: 3977151456
I0226 22:38:18.542187 16389 layer_factory.hpp:77] Creating layer res5a_branch2c
I0226 22:38:18.542204 16389 net.cpp:106] Creating Layer res5a_branch2c
I0226 22:38:18.542215 16389 net.cpp:454] res5a_branch2c <- res5a_branch2b
I0226 22:38:18.542227 16389 net.cpp:411] res5a_branch2c -> res5a_branch2c
I0226 22:38:18.545434 16389 net.cpp:150] Setting up res5a_branch2c
I0226 22:38:18.545459 16389 net.cpp:157] Top shape: 8 2048 7 7 (802816)
I0226 22:38:18.545469 16389 net.cpp:165] Memory required for data: 3980362720
I0226 22:38:18.545481 16389 layer_factory.hpp:77] Creating layer bn5a_branch2c
I0226 22:38:18.545497 16389 net.cpp:106] Creating Layer bn5a_branch2c
I0226 22:38:18.545509 16389 net.cpp:454] bn5a_branch2c <- res5a_branch2c
I0226 22:38:18.545521 16389 net.cpp:397] bn5a_branch2c -> res5a_branch2c (in-place)
I0226 22:38:18.546509 16389 net.cpp:150] Setting up bn5a_branch2c
I0226 22:38:18.546531 16389 net.cpp:157] Top shape: 8 2048 7 7 (802816)
I0226 22:38:18.546541 16389 net.cpp:165] Memory required for data: 3983573984
I0226 22:38:18.546558 16389 layer_factory.hpp:77] Creating layer scale5a_branch2c
I0226 22:38:18.546573 16389 net.cpp:106] Creating Layer scale5a_branch2c
I0226 22:38:18.546584 16389 net.cpp:454] scale5a_branch2c <- res5a_branch2c
I0226 22:38:18.546600 16389 net.cpp:397] scale5a_branch2c -> res5a_branch2c (in-place)
I0226 22:38:18.546672 16389 layer_factory.hpp:77] Creating layer scale5a_branch2c
I0226 22:38:18.546850 16389 net.cpp:150] Setting up scale5a_branch2c
I0226 22:38:18.546869 16389 net.cpp:157] Top shape: 8 2048 7 7 (802816)
I0226 22:38:18.546880 16389 net.cpp:165] Memory required for data: 3986785248
I0226 22:38:18.546892 16389 layer_factory.hpp:77] Creating layer res5a
I0226 22:38:18.546926 16389 net.cpp:106] Creating Layer res5a
I0226 22:38:18.546938 16389 net.cpp:454] res5a <- res5a_branch1
I0226 22:38:18.546949 16389 net.cpp:454] res5a <- res5a_branch2c
I0226 22:38:18.546962 16389 net.cpp:411] res5a -> res5a
I0226 22:38:18.547006 16389 net.cpp:150] Setting up res5a
I0226 22:38:18.547022 16389 net.cpp:157] Top shape: 8 2048 7 7 (802816)
I0226 22:38:18.547032 16389 net.cpp:165] Memory required for data: 3989996512
I0226 22:38:18.547041 16389 layer_factory.hpp:77] Creating layer res5a_relu
I0226 22:38:18.547058 16389 net.cpp:106] Creating Layer res5a_relu
I0226 22:38:18.547070 16389 net.cpp:454] res5a_relu <- res5a
I0226 22:38:18.547081 16389 net.cpp:397] res5a_relu -> res5a (in-place)
I0226 22:38:18.547094 16389 net.cpp:150] Setting up res5a_relu
I0226 22:38:18.547106 16389 net.cpp:157] Top shape: 8 2048 7 7 (802816)
I0226 22:38:18.547116 16389 net.cpp:165] Memory required for data: 3993207776
I0226 22:38:18.547124 16389 layer_factory.hpp:77] Creating layer res5a_res5a_relu_0_split
I0226 22:38:18.547137 16389 net.cpp:106] Creating Layer res5a_res5a_relu_0_split
I0226 22:38:18.547147 16389 net.cpp:454] res5a_res5a_relu_0_split <- res5a
I0226 22:38:18.547161 16389 net.cpp:411] res5a_res5a_relu_0_split -> res5a_res5a_relu_0_split_0
I0226 22:38:18.547176 16389 net.cpp:411] res5a_res5a_relu_0_split -> res5a_res5a_relu_0_split_1
I0226 22:38:18.547227 16389 net.cpp:150] Setting up res5a_res5a_relu_0_split
I0226 22:38:18.547243 16389 net.cpp:157] Top shape: 8 2048 7 7 (802816)
I0226 22:38:18.547255 16389 net.cpp:157] Top shape: 8 2048 7 7 (802816)
I0226 22:38:18.547263 16389 net.cpp:165] Memory required for data: 3999630304
I0226 22:38:18.547272 16389 layer_factory.hpp:77] Creating layer res5b_branch2a
I0226 22:38:18.547291 16389 net.cpp:106] Creating Layer res5b_branch2a
I0226 22:38:18.547302 16389 net.cpp:454] res5b_branch2a <- res5a_res5a_relu_0_split_0
I0226 22:38:18.547314 16389 net.cpp:411] res5b_branch2a -> res5b_branch2a
I0226 22:38:18.550520 16389 net.cpp:150] Setting up res5b_branch2a
I0226 22:38:18.550545 16389 net.cpp:157] Top shape: 8 512 7 7 (200704)
I0226 22:38:18.550556 16389 net.cpp:165] Memory required for data: 4000433120
I0226 22:38:18.550570 16389 layer_factory.hpp:77] Creating layer bn5b_branch2a
I0226 22:38:18.550585 16389 net.cpp:106] Creating Layer bn5b_branch2a
I0226 22:38:18.550597 16389 net.cpp:454] bn5b_branch2a <- res5b_branch2a
I0226 22:38:18.550609 16389 net.cpp:397] bn5b_branch2a -> res5b_branch2a (in-place)
I0226 22:38:18.550873 16389 net.cpp:150] Setting up bn5b_branch2a
I0226 22:38:18.550892 16389 net.cpp:157] Top shape: 8 512 7 7 (200704)
I0226 22:38:18.550901 16389 net.cpp:165] Memory required for data: 4001235936
I0226 22:38:18.550917 16389 layer_factory.hpp:77] Creating layer scale5b_branch2a
I0226 22:38:18.550931 16389 net.cpp:106] Creating Layer scale5b_branch2a
I0226 22:38:18.550942 16389 net.cpp:454] scale5b_branch2a <- res5b_branch2a
I0226 22:38:18.550957 16389 net.cpp:397] scale5b_branch2a -> res5b_branch2a (in-place)
I0226 22:38:18.551025 16389 layer_factory.hpp:77] Creating layer scale5b_branch2a
I0226 22:38:18.551201 16389 net.cpp:150] Setting up scale5b_branch2a
I0226 22:38:18.551223 16389 net.cpp:157] Top shape: 8 512 7 7 (200704)
I0226 22:38:18.551232 16389 net.cpp:165] Memory required for data: 4002038752
I0226 22:38:18.551246 16389 layer_factory.hpp:77] Creating layer res5b_branch2a_relu
I0226 22:38:18.551259 16389 net.cpp:106] Creating Layer res5b_branch2a_relu
I0226 22:38:18.551270 16389 net.cpp:454] res5b_branch2a_relu <- res5b_branch2a
I0226 22:38:18.551282 16389 net.cpp:397] res5b_branch2a_relu -> res5b_branch2a (in-place)
I0226 22:38:18.551295 16389 net.cpp:150] Setting up res5b_branch2a_relu
I0226 22:38:18.551307 16389 net.cpp:157] Top shape: 8 512 7 7 (200704)
I0226 22:38:18.551316 16389 net.cpp:165] Memory required for data: 4002841568
I0226 22:38:18.551326 16389 layer_factory.hpp:77] Creating layer res5b_branch2b
I0226 22:38:18.551343 16389 net.cpp:106] Creating Layer res5b_branch2b
I0226 22:38:18.551362 16389 net.cpp:454] res5b_branch2b <- res5b_branch2a
I0226 22:38:18.551388 16389 net.cpp:411] res5b_branch2b -> res5b_branch2b
I0226 22:38:18.558105 16389 net.cpp:150] Setting up res5b_branch2b
I0226 22:38:18.558135 16389 net.cpp:157] Top shape: 8 512 7 7 (200704)
I0226 22:38:18.558145 16389 net.cpp:165] Memory required for data: 4003644384
I0226 22:38:18.558158 16389 layer_factory.hpp:77] Creating layer bn5b_branch2b
I0226 22:38:18.558172 16389 net.cpp:106] Creating Layer bn5b_branch2b
I0226 22:38:18.558184 16389 net.cpp:454] bn5b_branch2b <- res5b_branch2b
I0226 22:38:18.558199 16389 net.cpp:397] bn5b_branch2b -> res5b_branch2b (in-place)
I0226 22:38:18.558465 16389 net.cpp:150] Setting up bn5b_branch2b
I0226 22:38:18.558483 16389 net.cpp:157] Top shape: 8 512 7 7 (200704)
I0226 22:38:18.558493 16389 net.cpp:165] Memory required for data: 4004447200
I0226 22:38:18.558509 16389 layer_factory.hpp:77] Creating layer scale5b_branch2b
I0226 22:38:18.558522 16389 net.cpp:106] Creating Layer scale5b_branch2b
I0226 22:38:18.558533 16389 net.cpp:454] scale5b_branch2b <- res5b_branch2b
I0226 22:38:18.558545 16389 net.cpp:397] scale5b_branch2b -> res5b_branch2b (in-place)
I0226 22:38:18.558616 16389 layer_factory.hpp:77] Creating layer scale5b_branch2b
I0226 22:38:18.558784 16389 net.cpp:150] Setting up scale5b_branch2b
I0226 22:38:18.558802 16389 net.cpp:157] Top shape: 8 512 7 7 (200704)
I0226 22:38:18.558812 16389 net.cpp:165] Memory required for data: 4005250016
I0226 22:38:18.558826 16389 layer_factory.hpp:77] Creating layer res5b_branch2b_relu
I0226 22:38:18.558842 16389 net.cpp:106] Creating Layer res5b_branch2b_relu
I0226 22:38:18.558853 16389 net.cpp:454] res5b_branch2b_relu <- res5b_branch2b
I0226 22:38:18.558866 16389 net.cpp:397] res5b_branch2b_relu -> res5b_branch2b (in-place)
I0226 22:38:18.558882 16389 net.cpp:150] Setting up res5b_branch2b_relu
I0226 22:38:18.558894 16389 net.cpp:157] Top shape: 8 512 7 7 (200704)
I0226 22:38:18.558903 16389 net.cpp:165] Memory required for data: 4006052832
I0226 22:38:18.558913 16389 layer_factory.hpp:77] Creating layer res5b_branch2c
I0226 22:38:18.558928 16389 net.cpp:106] Creating Layer res5b_branch2c
I0226 22:38:18.558938 16389 net.cpp:454] res5b_branch2c <- res5b_branch2b
I0226 22:38:18.558950 16389 net.cpp:411] res5b_branch2c -> res5b_branch2c
I0226 22:38:18.562136 16389 net.cpp:150] Setting up res5b_branch2c
I0226 22:38:18.562161 16389 net.cpp:157] Top shape: 8 2048 7 7 (802816)
I0226 22:38:18.562171 16389 net.cpp:165] Memory required for data: 4009264096
I0226 22:38:18.562185 16389 layer_factory.hpp:77] Creating layer bn5b_branch2c
I0226 22:38:18.562197 16389 net.cpp:106] Creating Layer bn5b_branch2c
I0226 22:38:18.562208 16389 net.cpp:454] bn5b_branch2c <- res5b_branch2c
I0226 22:38:18.562221 16389 net.cpp:397] bn5b_branch2c -> res5b_branch2c (in-place)
I0226 22:38:18.562480 16389 net.cpp:150] Setting up bn5b_branch2c
I0226 22:38:18.562500 16389 net.cpp:157] Top shape: 8 2048 7 7 (802816)
I0226 22:38:18.562510 16389 net.cpp:165] Memory required for data: 4012475360
I0226 22:38:18.562525 16389 layer_factory.hpp:77] Creating layer scale5b_branch2c
I0226 22:38:18.562547 16389 net.cpp:106] Creating Layer scale5b_branch2c
I0226 22:38:18.562559 16389 net.cpp:454] scale5b_branch2c <- res5b_branch2c
I0226 22:38:18.562572 16389 net.cpp:397] scale5b_branch2c -> res5b_branch2c (in-place)
I0226 22:38:18.562640 16389 layer_factory.hpp:77] Creating layer scale5b_branch2c
I0226 22:38:18.562819 16389 net.cpp:150] Setting up scale5b_branch2c
I0226 22:38:18.562839 16389 net.cpp:157] Top shape: 8 2048 7 7 (802816)
I0226 22:38:18.562849 16389 net.cpp:165] Memory required for data: 4015686624
I0226 22:38:18.562861 16389 layer_factory.hpp:77] Creating layer res5b
I0226 22:38:18.562875 16389 net.cpp:106] Creating Layer res5b
I0226 22:38:18.562886 16389 net.cpp:454] res5b <- res5a_res5a_relu_0_split_1
I0226 22:38:18.562897 16389 net.cpp:454] res5b <- res5b_branch2c
I0226 22:38:18.562912 16389 net.cpp:411] res5b -> res5b
I0226 22:38:18.562952 16389 net.cpp:150] Setting up res5b
I0226 22:38:18.562981 16389 net.cpp:157] Top shape: 8 2048 7 7 (802816)
I0226 22:38:18.563002 16389 net.cpp:165] Memory required for data: 4018897888
I0226 22:38:18.563012 16389 layer_factory.hpp:77] Creating layer res5b_relu
I0226 22:38:18.563024 16389 net.cpp:106] Creating Layer res5b_relu
I0226 22:38:18.563035 16389 net.cpp:454] res5b_relu <- res5b
I0226 22:38:18.563046 16389 net.cpp:397] res5b_relu -> res5b (in-place)
I0226 22:38:18.563060 16389 net.cpp:150] Setting up res5b_relu
I0226 22:38:18.563071 16389 net.cpp:157] Top shape: 8 2048 7 7 (802816)
I0226 22:38:18.563081 16389 net.cpp:165] Memory required for data: 4022109152
I0226 22:38:18.563089 16389 layer_factory.hpp:77] Creating layer res5b_res5b_relu_0_split
I0226 22:38:18.563102 16389 net.cpp:106] Creating Layer res5b_res5b_relu_0_split
I0226 22:38:18.563112 16389 net.cpp:454] res5b_res5b_relu_0_split <- res5b
I0226 22:38:18.563127 16389 net.cpp:411] res5b_res5b_relu_0_split -> res5b_res5b_relu_0_split_0
I0226 22:38:18.563140 16389 net.cpp:411] res5b_res5b_relu_0_split -> res5b_res5b_relu_0_split_1
I0226 22:38:18.563191 16389 net.cpp:150] Setting up res5b_res5b_relu_0_split
I0226 22:38:18.563206 16389 net.cpp:157] Top shape: 8 2048 7 7 (802816)
I0226 22:38:18.563217 16389 net.cpp:157] Top shape: 8 2048 7 7 (802816)
I0226 22:38:18.563226 16389 net.cpp:165] Memory required for data: 4028531680
I0226 22:38:18.563236 16389 layer_factory.hpp:77] Creating layer res5c_branch2a
I0226 22:38:18.563253 16389 net.cpp:106] Creating Layer res5c_branch2a
I0226 22:38:18.563266 16389 net.cpp:454] res5c_branch2a <- res5b_res5b_relu_0_split_0
I0226 22:38:18.563277 16389 net.cpp:411] res5c_branch2a -> res5c_branch2a
I0226 22:38:18.566464 16389 net.cpp:150] Setting up res5c_branch2a
I0226 22:38:18.566489 16389 net.cpp:157] Top shape: 8 512 7 7 (200704)
I0226 22:38:18.566499 16389 net.cpp:165] Memory required for data: 4029334496
I0226 22:38:18.566512 16389 layer_factory.hpp:77] Creating layer bn5c_branch2a
I0226 22:38:18.566529 16389 net.cpp:106] Creating Layer bn5c_branch2a
I0226 22:38:18.566540 16389 net.cpp:454] bn5c_branch2a <- res5c_branch2a
I0226 22:38:18.566552 16389 net.cpp:397] bn5c_branch2a -> res5c_branch2a (in-place)
I0226 22:38:18.566812 16389 net.cpp:150] Setting up bn5c_branch2a
I0226 22:38:18.566830 16389 net.cpp:157] Top shape: 8 512 7 7 (200704)
I0226 22:38:18.566840 16389 net.cpp:165] Memory required for data: 4030137312
I0226 22:38:18.566856 16389 layer_factory.hpp:77] Creating layer scale5c_branch2a
I0226 22:38:18.566870 16389 net.cpp:106] Creating Layer scale5c_branch2a
I0226 22:38:18.566881 16389 net.cpp:454] scale5c_branch2a <- res5c_branch2a
I0226 22:38:18.566896 16389 net.cpp:397] scale5c_branch2a -> res5c_branch2a (in-place)
I0226 22:38:18.566964 16389 layer_factory.hpp:77] Creating layer scale5c_branch2a
I0226 22:38:18.567133 16389 net.cpp:150] Setting up scale5c_branch2a
I0226 22:38:18.567155 16389 net.cpp:157] Top shape: 8 512 7 7 (200704)
I0226 22:38:18.567165 16389 net.cpp:165] Memory required for data: 4030940128
I0226 22:38:18.567179 16389 layer_factory.hpp:77] Creating layer res5c_branch2a_relu
I0226 22:38:18.567191 16389 net.cpp:106] Creating Layer res5c_branch2a_relu
I0226 22:38:18.567203 16389 net.cpp:454] res5c_branch2a_relu <- res5c_branch2a
I0226 22:38:18.567214 16389 net.cpp:397] res5c_branch2a_relu -> res5c_branch2a (in-place)
I0226 22:38:18.567227 16389 net.cpp:150] Setting up res5c_branch2a_relu
I0226 22:38:18.567239 16389 net.cpp:157] Top shape: 8 512 7 7 (200704)
I0226 22:38:18.567248 16389 net.cpp:165] Memory required for data: 4031742944
I0226 22:38:18.567257 16389 layer_factory.hpp:77] Creating layer res5c_branch2b
I0226 22:38:18.567276 16389 net.cpp:106] Creating Layer res5c_branch2b
I0226 22:38:18.567286 16389 net.cpp:454] res5c_branch2b <- res5c_branch2a
I0226 22:38:18.567299 16389 net.cpp:411] res5c_branch2b -> res5c_branch2b
I0226 22:38:18.577772 16389 net.cpp:150] Setting up res5c_branch2b
I0226 22:38:18.577824 16389 net.cpp:157] Top shape: 8 512 7 7 (200704)
I0226 22:38:18.577843 16389 net.cpp:165] Memory required for data: 4032545760
I0226 22:38:18.577886 16389 layer_factory.hpp:77] Creating layer bn5c_branch2b
I0226 22:38:18.577934 16389 net.cpp:106] Creating Layer bn5c_branch2b
I0226 22:38:18.577957 16389 net.cpp:454] bn5c_branch2b <- res5c_branch2b
I0226 22:38:18.577981 16389 net.cpp:397] bn5c_branch2b -> res5c_branch2b (in-place)
I0226 22:38:18.578485 16389 net.cpp:150] Setting up bn5c_branch2b
I0226 22:38:18.578521 16389 net.cpp:157] Top shape: 8 512 7 7 (200704)
I0226 22:38:18.578541 16389 net.cpp:165] Memory required for data: 4033348576
I0226 22:38:18.578572 16389 layer_factory.hpp:77] Creating layer scale5c_branch2b
I0226 22:38:18.578598 16389 net.cpp:106] Creating Layer scale5c_branch2b
I0226 22:38:18.578619 16389 net.cpp:454] scale5c_branch2b <- res5c_branch2b
I0226 22:38:18.578641 16389 net.cpp:397] scale5c_branch2b -> res5c_branch2b (in-place)
I0226 22:38:18.578780 16389 layer_factory.hpp:77] Creating layer scale5c_branch2b
I0226 22:38:18.579108 16389 net.cpp:150] Setting up scale5c_branch2b
I0226 22:38:18.579144 16389 net.cpp:157] Top shape: 8 512 7 7 (200704)
I0226 22:38:18.579162 16389 net.cpp:165] Memory required for data: 4034151392
I0226 22:38:18.579188 16389 layer_factory.hpp:77] Creating layer res5c_branch2b_relu
I0226 22:38:18.579218 16389 net.cpp:106] Creating Layer res5c_branch2b_relu
I0226 22:38:18.579241 16389 net.cpp:454] res5c_branch2b_relu <- res5c_branch2b
I0226 22:38:18.579262 16389 net.cpp:397] res5c_branch2b_relu -> res5c_branch2b (in-place)
I0226 22:38:18.579288 16389 net.cpp:150] Setting up res5c_branch2b_relu
I0226 22:38:18.579310 16389 net.cpp:157] Top shape: 8 512 7 7 (200704)
I0226 22:38:18.579327 16389 net.cpp:165] Memory required for data: 4034954208
I0226 22:38:18.579346 16389 layer_factory.hpp:77] Creating layer res5c_branch2c
I0226 22:38:18.579377 16389 net.cpp:106] Creating Layer res5c_branch2c
I0226 22:38:18.579397 16389 net.cpp:454] res5c_branch2c <- res5c_branch2b
I0226 22:38:18.579422 16389 net.cpp:411] res5c_branch2c -> res5c_branch2c
I0226 22:38:18.584976 16389 net.cpp:150] Setting up res5c_branch2c
I0226 22:38:18.585023 16389 net.cpp:157] Top shape: 8 2048 7 7 (802816)
I0226 22:38:18.585042 16389 net.cpp:165] Memory required for data: 4038165472
I0226 22:38:18.585067 16389 layer_factory.hpp:77] Creating layer bn5c_branch2c
I0226 22:38:18.585093 16389 net.cpp:106] Creating Layer bn5c_branch2c
I0226 22:38:18.585114 16389 net.cpp:454] bn5c_branch2c <- res5c_branch2c
I0226 22:38:18.585136 16389 net.cpp:397] bn5c_branch2c -> res5c_branch2c (in-place)
I0226 22:38:18.585676 16389 net.cpp:150] Setting up bn5c_branch2c
I0226 22:38:18.585716 16389 net.cpp:157] Top shape: 8 2048 7 7 (802816)
I0226 22:38:18.585736 16389 net.cpp:165] Memory required for data: 4041376736
I0226 22:38:18.585767 16389 layer_factory.hpp:77] Creating layer scale5c_branch2c
I0226 22:38:18.585798 16389 net.cpp:106] Creating Layer scale5c_branch2c
I0226 22:38:18.585819 16389 net.cpp:454] scale5c_branch2c <- res5c_branch2c
I0226 22:38:18.585842 16389 net.cpp:397] scale5c_branch2c -> res5c_branch2c (in-place)
I0226 22:38:18.585976 16389 layer_factory.hpp:77] Creating layer scale5c_branch2c
I0226 22:38:18.586313 16389 net.cpp:150] Setting up scale5c_branch2c
I0226 22:38:18.586349 16389 net.cpp:157] Top shape: 8 2048 7 7 (802816)
I0226 22:38:18.586367 16389 net.cpp:165] Memory required for data: 4044588000
I0226 22:38:18.586393 16389 layer_factory.hpp:77] Creating layer res5c
I0226 22:38:18.586419 16389 net.cpp:106] Creating Layer res5c
I0226 22:38:18.586441 16389 net.cpp:454] res5c <- res5b_res5b_relu_0_split_1
I0226 22:38:18.586462 16389 net.cpp:454] res5c <- res5c_branch2c
I0226 22:38:18.586490 16389 net.cpp:411] res5c -> res5c
I0226 22:38:18.586567 16389 net.cpp:150] Setting up res5c
I0226 22:38:18.586604 16389 net.cpp:157] Top shape: 8 2048 7 7 (802816)
I0226 22:38:18.586623 16389 net.cpp:165] Memory required for data: 4047799264
I0226 22:38:18.586642 16389 layer_factory.hpp:77] Creating layer res5c_relu
I0226 22:38:18.586664 16389 net.cpp:106] Creating Layer res5c_relu
I0226 22:38:18.586684 16389 net.cpp:454] res5c_relu <- res5c
I0226 22:38:18.586719 16389 net.cpp:397] res5c_relu -> res5c (in-place)
I0226 22:38:18.586766 16389 net.cpp:150] Setting up res5c_relu
I0226 22:38:18.586791 16389 net.cpp:157] Top shape: 8 2048 7 7 (802816)
I0226 22:38:18.586808 16389 net.cpp:165] Memory required for data: 4051010528
I0226 22:38:18.586825 16389 layer_factory.hpp:77] Creating layer pool5
I0226 22:38:18.586856 16389 net.cpp:106] Creating Layer pool5
I0226 22:38:18.586876 16389 net.cpp:454] pool5 <- res5c
I0226 22:38:18.586901 16389 net.cpp:411] pool5 -> pool5
I0226 22:38:18.586978 16389 net.cpp:150] Setting up pool5
I0226 22:38:18.587009 16389 net.cpp:157] Top shape: 8 2048 1 1 (16384)
I0226 22:38:18.587026 16389 net.cpp:165] Memory required for data: 4051076064
I0226 22:38:18.587044 16389 layer_factory.hpp:77] Creating layer pool5_pool5_0_split
I0226 22:38:18.587067 16389 net.cpp:106] Creating Layer pool5_pool5_0_split
I0226 22:38:18.587086 16389 net.cpp:454] pool5_pool5_0_split <- pool5
I0226 22:38:18.587110 16389 net.cpp:411] pool5_pool5_0_split -> pool5_pool5_0_split_0
I0226 22:38:18.587142 16389 net.cpp:411] pool5_pool5_0_split -> pool5_pool5_0_split_1
I0226 22:38:18.587239 16389 net.cpp:150] Setting up pool5_pool5_0_split
I0226 22:38:18.587268 16389 net.cpp:157] Top shape: 8 2048 1 1 (16384)
I0226 22:38:18.587290 16389 net.cpp:157] Top shape: 8 2048 1 1 (16384)
I0226 22:38:18.587306 16389 net.cpp:165] Memory required for data: 4051207136
I0226 22:38:18.587324 16389 layer_factory.hpp:77] Creating layer id750
I0226 22:38:18.587359 16389 net.cpp:106] Creating Layer id750
I0226 22:38:18.587380 16389 net.cpp:454] id750 <- pool5_pool5_0_split_0
I0226 22:38:18.587410 16389 net.cpp:411] id750 -> id750
I0226 22:38:18.706485 16389 net.cpp:150] Setting up id750
I0226 22:38:18.706534 16389 net.cpp:157] Top shape: 8 750 (6000)
I0226 22:38:18.706553 16389 net.cpp:165] Memory required for data: 4051231136
I0226 22:38:18.706581 16389 layer_factory.hpp:77] Creating layer pos30
I0226 22:38:18.706609 16389 net.cpp:106] Creating Layer pos30
I0226 22:38:18.706630 16389 net.cpp:454] pos30 <- pool5_pool5_0_split_1
I0226 22:38:18.706662 16389 net.cpp:411] pos30 -> pos30
I0226 22:38:18.711567 16389 net.cpp:150] Setting up pos30
I0226 22:38:18.711607 16389 net.cpp:157] Top shape: 8 30 (240)
I0226 22:38:18.711625 16389 net.cpp:165] Memory required for data: 4051232096
I0226 22:38:18.711652 16389 layer_factory.hpp:77] Creating layer loss_id
I0226 22:38:18.711689 16389 net.cpp:106] Creating Layer loss_id
I0226 22:38:18.711711 16389 net.cpp:454] loss_id <- id750
I0226 22:38:18.711733 16389 net.cpp:454] loss_id <- id_label
I0226 22:38:18.711757 16389 net.cpp:411] loss_id -> loss_id
…
